…
I0406 15:20:07.595302  6482 solver.cpp:48] Initializing solver from parameters: 
base_lr: 0.001
display: 20
lr_policy: "multistep"
gamma: 0.1
momentum: 0.9
weight_decay: 0.0005
snapshot: 0
snapshot_prefix: "faces_example"
net_param {
  name: "GeneratedModel_06_04_2017_15_20"
  layer {
    name: "input"
    type: "Python"
    top: "input_data"
    top: "input_im_info"
    top: "input_gt_boxes"
    top: "input_ignored_boxes"
    python_param {
      module: "layers.roi_data_layer"
      layer: "RoIDataLayer"
      param_str: "{\"num_classes\": 2}"
    }
  }
  layer {
    name: "conv1_1"
    type: "Convolution"
    bottom: "input_data"
    top: "conv1_1"
    param {
      lr_mult: 0
      decay_mult: 0
    }
    param {
      lr_mult: 0
      decay_mult: 0
    }
    convolution_param {
      num_output: 64
      pad: 1
      kernel_size: 3
    }
  }
  layer {
    name: "relu1_1"
    type: "ReLU"
    bottom: "conv1_1"
    top: "conv1_1"
  }
  layer {
    name: "conv1_2"
    type: "Convolution"
    bottom: "conv1_1"
    top: "conv1_2"
    param {
      lr_mult: 0
      decay_mult: 0
    }
    param {
      lr_mult: 0
      decay_mult: 0
    }
    convolution_param {
      num_output: 64
      pad: 1
      kernel_size: 3
    }
  }
  layer {
    name: "relu1_2"
    type: "ReLU"
    bottom: "conv1_2"
    top: "conv1_2"
  }
  layer {
    name: "pool1"
    type: "Pooling"
    bottom: "conv1_2"
    top: "pool1"
    pooling_param {
      pool: MAX
      kernel_size: 2
      stride: 2
    }
  }
  layer {
    name: "conv2_1"
    type: "Convolution"
    bottom: "pool1"
    top: "conv2_1"
    param {
      lr_mult: 0
      decay_mult: 0
    }
    param {
      lr_mult: 0
      decay_mult: 0
    }
    convolution_param {
      num_output: 128
      pad: 1
      kernel_size: 3
    }
  }
  layer {
    name: "relu2_1"
    type: "ReLU"
    bottom: "conv2_1"
    top: "conv2_1"
  }
  layer {
    name: "conv2_2"
    type: "Convolution"
    bottom: "conv2_1"
    top: "conv2_2"
    param {
      lr_mult: 0
      decay_mult: 0
    }
    param {
      lr_mult: 0
      decay_mult: 0
    }
    convolution_param {
      num_output: 128
      pad: 1
      kernel_size: 3
    }
  }
  layer {
    name: "relu2_2"
    type: "ReLU"
    bottom: "conv2_2"
    top: "conv2_2"
  }
  layer {
    name: "pool2"
    type: "Pooling"
    bottom: "conv2_2"
    top: "pool2"
    pooling_param {
      pool: MAX
      kernel_size: 2
      stride: 2
    }
  }
  layer {
    name: "conv3_1"
    type: "Convolution"
    bottom: "pool2"
    top: "conv3_1"
    param {
      lr_mult: 1
    }
    param {
      lr_mult: 2
    }
    convolution_param {
      num_output: 256
      pad: 1
      kernel_size: 3
    }
  }
  layer {
    name: "relu3_1"
    type: "ReLU"
    bottom: "conv3_1"
    top: "conv3_1"
  }
  layer {
    name: "conv3_2"
    type: "Convolution"
    bottom: "conv3_1"
    top: "conv3_2"
    param {
      lr_mult: 1
    }
    param {
      lr_mult: 2
    }
    convolution_param {
      num_output: 256
      pad: 1
      kernel_size: 3
    }
  }
  layer {
    name: "relu3_2"
    type: "ReLU"
    bottom: "conv3_2"
    top: "conv3_2"
  }
  layer {
    name: "conv3_3"
    type: "Convolution"
    bottom: "conv3_2"
    top: "conv3_3"
    param {
      lr_mult: 1
    }
    param {
      lr_mult: 2
    }
    convolution_param {
      num_output: 256
      pad: 1
      kernel_size: 3
    }
  }
  layer {
    name: "relu3_3"
    type: "ReLU"
    bottom: "conv3_3"
    top: "conv3_3"
  }
  layer {
    name: "pool3"
    type: "Pooling"
    bottom: "conv3_3"
    top: "pool3"
    pooling_param {
      pool: MAX
      kernel_size: 2
      stride: 2
    }
  }
  layer {
    name: "conv4_1"
    type: "Convolution"
    bottom: "pool3"
    top: "conv4_1"
    param {
      lr_mult: 1
    }
    param {
      lr_mult: 2
    }
    convolution_param {
      num_output: 512
      pad: 1
      kernel_size: 3
    }
  }
  layer {
    name: "relu4_1"
    type: "ReLU"
    bottom: "conv4_1"
    top: "conv4_1"
  }
  layer {
    name: "conv4_2"
    type: "Convolution"
    bottom: "conv4_1"
    top: "conv4_2"
    param {
      lr_mult: 1
    }
    param {
      lr_mult: 2
    }
    convolution_param {
      num_output: 512
      pad: 1
      kernel_size: 3
    }
  }
  layer {
    name: "relu4_2"
    type: "ReLU"
    bottom: "conv4_2"
    top: "conv4_2"
  }
  layer {
    name: "conv4_3"
    type: "Convolution"
    bottom: "conv4_2"
    top: "conv4_3"
    param {
      lr_mult: 1
    }
    param {
      lr_mult: 2
    }
    convolution_param {
      num_output: 512
      pad: 1
      kernel_size: 3
    }
  }
  layer {
    name: "relu4_3"
    type: "ReLU"
    bottom: "conv4_3"
    top: "conv4_3"
  }
  layer {
    name: "pool4"
    type: "Pooling"
    bottom: "conv4_3"
    top: "pool4"
    pooling_param {
      pool: MAX
      kernel_size: 2
      stride: 2
    }
  }
  layer {
    name: "conv5_1"
    type: "Convolution"
    bottom: "pool4"
    top: "conv5_1"
    param {
      lr_mult: 1
    }
    param {
      lr_mult: 2
    }
    convolution_param {
      num_output: 512
      pad: 1
      kernel_size: 3
    }
  }
  layer {
    name: "relu5_1"
    type: "ReLU"
    bottom: "conv5_1"
    top: "conv5_1"
  }
  layer {
    name: "conv5_2"
    type: "Convolution"
    bottom: "conv5_1"
    top: "conv5_2"
    param {
      lr_mult: 1
    }
    param {
      lr_mult: 2
    }
    convolution_param {
      num_output: 512
      pad: 1
      kernel_size: 3
    }
  }
  layer {
    name: "relu5_2"
    type: "ReLU"
    bottom: "conv5_2"
    top: "conv5_2"
  }
  layer {
    name: "conv5_3"
    type: "Convolution"
    bottom: "conv5_2"
    top: "conv5_3"
    param {
      lr_mult: 1
    }
    param {
      lr_mult: 2
    }
    convolution_param {
      num_output: 512
      pad: 1
      kernel_size: 3
    }
  }
  layer {
    name: "relu5_3"
    type: "ReLU"
    bottom: "conv5_3"
    top: "conv5_3"
  }
  layer {
    name: "rpn_big_conv1"
    type: "Convolution"
    bottom: "conv5_3"
    top: "rpn_big_conv1"
    param {
      lr_mult: 1
    }
    param {
      lr_mult: 2
    }
    convolution_param {
      num_output: 512
      pad: 1
      kernel_size: 3
      stride: 1
      weight_filler {
        type: "gaussian"
        mean: 0
        std: 0.01
      }
      bias_filler {
        type: "constant"
      }
    }
  }
  layer {
    name: "rpn_big_conv1_relu"
    type: "ReLU"
    bottom: "rpn_big_conv1"
    top: "rpn_big_conv1"
    relu_param {
      negative_slope: 0
    }
  }
  layer {
    name: "rpn_big_conv2"
    type: "Convolution"
    bottom: "rpn_big_conv1"
    top: "rpn_big_conv2"
    param {
      lr_mult: 1
    }
    param {
      lr_mult: 2
    }
    convolution_param {
      num_output: 512
      pad: 1
      kernel_size: 3
      stride: 1
      weight_filler {
        type: "gaussian"
        mean: 0
        std: 0.01
      }
      bias_filler {
        type: "constant"
      }
    }
  }
  layer {
    name: "rpn_big_conv2_relu"
    type: "ReLU"
    bottom: "rpn_big_conv2"
    top: "rpn_big_conv2"
    relu_param {
      negative_slope: 0
    }
  }
  layer {
    name: "rpn_big_conv2_drop"
    type: "Dropout"
    bottom: "rpn_big_conv2"
    top: "rpn_big_conv2"
    dropout_param {
      dropout_ratio: 0.3
    }
  }
  layer {
    name: "rpn_big_output_cls"
    type: "Convolution"
    bottom: "rpn_big_conv2"
    top: "rpn_big_output_cls"
    param {
      lr_mult: 1
    }
    param {
      lr_mult: 2
    }
    convolution_param {
      num_output: 384
      pad: 1
      kernel_size: 3
      stride: 1
      weight_filler {
        type: "gaussian"
        mean: 0
        std: 0.01
      }
      bias_filler {
        type: "constant"
      }
    }
  }
  layer {
    name: "rpn_big_output_cls_relu"
    type: "ReLU"
    bottom: "rpn_big_output_cls"
    top: "rpn_big_output_cls"
    relu_param {
      negative_slope: 0
    }
  }
  layer {
    name: "rpn_big_cls_score"
    type: "Convolution"
    bottom: "rpn_big_output_cls"
    top: "rpn_big_cls_score"
    param {
      lr_mult: 1
    }
    param {
      lr_mult: 2
    }
    convolution_param {
      num_output: 52
      pad: 0
      kernel_size: 3
      stride: 1
      weight_filler {
        type: "gaussian"
        mean: 0
        std: 0.01
      }
      bias_filler {
        type: "constant"
      }
    }
  }
  layer {
    name: "rpn_big_cls_score_reshape"
    type: "Reshape"
    bottom: "rpn_big_cls_score"
    top: "rpn_big_cls_score_reshape"
    reshape_param {
      shape {
        dim: 0
        dim: 2
        dim: -1
        dim: 0
      }
    }
  }
  layer {
    name: "rpn_big_cls_prob"
    type: "Softmax"
    bottom: "rpn_big_cls_score_reshape"
    top: "rpn_big_cls_prob"
  }
  layer {
    name: "rpn_big_cls_prob_reshape"
    type: "Reshape"
    bottom: "rpn_big_cls_prob"
    top: "rpn_big_cls_prob_reshape"
    reshape_param {
      shape {
        dim: 0
        dim: 52
        dim: -1
        dim: 0
      }
    }
  }
  layer {
    name: "rpn_big_anchor_target"
    type: "Python"
    bottom: "rpn_big_cls_score"
    bottom: "input_gt_boxes"
    bottom: "input_ignored_boxes"
    bottom: "input_im_info"
    bottom: "input_data"
    bottom: "rpn_big_cls_prob_reshape"
    top: "rpn_big_anchor_target_labels"
    top: "rpn_big_anchor_target_bbox_targets"
    top: "rpn_big_anchor_target_inside_weights"
    top: "rpn_big_anchor_target_outside_weights"
    python_param {
      module: "rpn.anchor_target_layer"
      layer: "AnchorTargetLayer"
      param_str: "{\"positive_overlap\": 0.6, \"batchsize\": 256, \"fg_fraction\": 0.5, \"feat_stride\": 16, \"anchor_ratios\": [1.0], \"negative_overlap\": 0.4, \"square_targets\": true, \"tn_fraction\": 0.2, \"anchor_shift_num_xy\": [[2, 2], [2, 2], [2, 2], [2, 2], [1, 1], [1, 1], [1, 1], [1, 1], [1, 1], [1, 1], [1, 1], [1, 1], [1, 1], [1, 1]], \"num_classes\": 1, \"name\": \"rpn_big\", \"anchor_scales\": [2.5, 3.025, 3.66025, 4.4289024999999995, 5.358972025, 6.484356150249999, 7.846070941802498, 9.493745839581022, 11.487432465893036, 13.899793283730574, 16.818749873313998, 20.350687346709933, 24.62433168951902, 29.795441344318014]}"
    }
  }
  layer {
    name: "rpn_big_loss_cls"
    type: "SoftmaxWithLoss"
    bottom: "rpn_big_cls_score_reshape"
    bottom: "rpn_big_anchor_target_labels"
    top: "rpn_big_loss_cls"
    loss_weight: 1
    propagate_down: true
    propagate_down: false
    loss_param {
      ignore_label: -1
      normalization: VALID
    }
  }
  layer {
    name: "rpn_big_output_box"
    type: "Convolution"
    bottom: "rpn_big_conv2"
    top: "rpn_big_output_box"
    param {
      lr_mult: 1
    }
    param {
      lr_mult: 2
    }
    convolution_param {
      num_output: 384
      pad: 1
      kernel_size: 3
      stride: 1
      weight_filler {
        type: "gaussian"
        mean: 0
        std: 0.01
      }
      bias_filler {
        type: "constant"
      }
    }
  }
  layer {
    name: "rpn_big_output_box_relu"
    type: "ReLU"
    bottom: "rpn_big_output_box"
    top: "rpn_big_output_box"
    relu_param {
      negative_slope: 0
    }
  }
  layer {
    name: "rpn_big_bbox_pred"
    type: "Convolution"
    bottom: "rpn_big_output_box"
    top: "rpn_big_bbox_pred"
    param {
      lr_mult: 1
    }
    param {
      lr_mult: 2
    }
    convolution_param {
      num_output: 104
      pad: 0
      kernel_size: 3
      stride: 1
      weight_filler {
        type: "gaussian"
        mean: 0
        std: 0.01
      }
      bias_filler {
        type: "constant"
      }
    }
  }
  layer {
    name: "rpn_big_loss_bbox"
    type: "Python"
    bottom: "rpn_big_bbox_pred"
    bottom: "rpn_big_anchor_target_bbox_targets"
    bottom: "rpn_big_anchor_target_inside_weights"
    bottom: "rpn_big_anchor_target_outside_weights"
    top: "rpn_big_loss_bbox"
    loss_weight: 1
    python_param {
      module: "layers.smooth_l1_loss"
      layer: "SmoothL1LossLayer"
      param_str: "{\"sigma\": 3}"
    }
  }
}
average_loss: 100
stepvalue: 70000
stepvalue: 120000
iter_size: 2
I0406 15:20:07.595408  6482 solver.cpp:86] Creating training net specified in net_param.
I0406 15:20:07.596006  6482 net.cpp:49] Initializing net from parameters: 
name: "GeneratedModel_06_04_2017_15_20"
state {
  phase: TRAIN
}
layer {
  name: "input"
  type: "Python"
  top: "input_data"
  top: "input_im_info"
  top: "input_gt_boxes"
  top: "input_ignored_boxes"
  python_param {
    module: "layers.roi_data_layer"
    layer: "RoIDataLayer"
    param_str: "{\"num_classes\": 2}"
  }
}
layer {
  name: "conv1_1"
  type: "Convolution"
  bottom: "input_data"
  top: "conv1_1"
  param {
    lr_mult: 0
    decay_mult: 0
  }
  param {
    lr_mult: 0
    decay_mult: 0
  }
  convolution_param {
    num_output: 64
    pad: 1
    kernel_size: 3
  }
}
layer {
  name: "relu1_1"
  type: "ReLU"
  bottom: "conv1_1"
  top: "conv1_1"
}
layer {
  name: "conv1_2"
  type: "Convolution"
  bottom: "conv1_1"
  top: "conv1_2"
  param {
    lr_mult: 0
    decay_mult: 0
  }
  param {
    lr_mult: 0
    decay_mult: 0
  }
  convolution_param {
    num_output: 64
    pad: 1
    kernel_size: 3
  }
}
layer {
  name: "relu1_2"
  type: "ReLU"
  bottom: "conv1_2"
  top: "conv1_2"
}
layer {
  name: "pool1"
  type: "Pooling"
  bottom: "conv1_2"
  top: "pool1"
  pooling_param {
    pool: MAX
    kernel_size: 2
    stride: 2
  }
}
layer {
  name: "conv2_1"
  type: "Convolution"
  bottom: "pool1"
  top: "conv2_1"
  param {
    lr_mult: 0
    decay_mult: 0
  }
  param {
    lr_mult: 0
    decay_mult: 0
  }
  convolution_param {
    num_output: 128
    pad: 1
    kernel_size: 3
  }
}
layer {
  name: "relu2_1"
  type: "ReLU"
  bottom: "conv2_1"
  top: "conv2_1"
}
layer {
  name: "conv2_2"
  type: "Convolution"
  bottom: "conv2_1"
  top: "conv2_2"
  param {
    lr_mult: 0
    decay_mult: 0
  }
  param {
    lr_mult: 0
    decay_mult: 0
  }
  convolution_param {
    num_output: 128
    pad: 1
    kernel_size: 3
  }
}
layer {
  name: "relu2_2"
  type: "ReLU"
  bottom: "conv2_2"
  top: "conv2_2"
}
layer {
  name: "pool2"
  type: "Pooling"
  bottom: "conv2_2"
  top: "pool2"
  pooling_param {
    pool: MAX
    kernel_size: 2
    stride: 2
  }
}
layer {
  name: "conv3_1"
  type: "Convolution"
  bottom: "pool2"
  top: "conv3_1"
  param {
    lr_mult: 1
  }
  param {
    lr_mult: 2
  }
  convolution_param {
    num_output: 256
    pad: 1
    kernel_size: 3
  }
}
layer {
  name: "relu3_1"
  type: "ReLU"
  bottom: "conv3_1"
  top: "conv3_1"
}
layer {
  name: "conv3_2"
  type: "Convolution"
  bottom: "conv3_1"
  top: "conv3_2"
  param {
    lr_mult: 1
  }
  param {
    lr_mult: 2
  }
  convolution_param {
    num_output: 256
    pad: 1
    kernel_size: 3
  }
}
layer {
  name: "relu3_2"
  type: "ReLU"
  bottom: "conv3_2"
  top: "conv3_2"
}
layer {
  name: "conv3_3"
  type: "Convolution"
  bottom: "conv3_2"
  top: "conv3_3"
  param {
    lr_mult: 1
  }
  param {
    lr_mult: 2
  }
  convolution_param {
    num_output: 256
    pad: 1
    kernel_size: 3
  }
}
layer {
  name: "relu3_3"
  type: "ReLU"
  bottom: "conv3_3"
  top: "conv3_3"
}
layer {
  name: "pool3"
  type: "Pooling"
  bottom: "conv3_3"
  top: "pool3"
  pooling_param {
    pool: MAX
    kernel_size: 2
    stride: 2
  }
}
layer {
  name: "conv4_1"
  type: "Convolution"
  bottom: "pool3"
  top: "conv4_1"
  param {
    lr_mult: 1
  }
  param {
    lr_mult: 2
  }
  convolution_param {
    num_output: 512
    pad: 1
    kernel_size: 3
  }
}
layer {
  name: "relu4_1"
  type: "ReLU"
  bottom: "conv4_1"
  top: "conv4_1"
}
layer {
  name: "conv4_2"
  type: "Convolution"
  bottom: "conv4_1"
  top: "conv4_2"
  param {
    lr_mult: 1
  }
  param {
    lr_mult: 2
  }
  convolution_param {
    num_output: 512
    pad: 1
    kernel_size: 3
  }
}
layer {
  name: "relu4_2"
  type: "ReLU"
  bottom: "conv4_2"
  top: "conv4_2"
}
layer {
  name: "conv4_3"
  type: "Convolution"
  bottom: "conv4_2"
  top: "conv4_3"
  param {
    lr_mult: 1
  }
  param {
    lr_mult: 2
  }
  convolution_param {
    num_output: 512
    pad: 1
    kernel_size: 3
  }
}
layer {
  name: "relu4_3"
  type: "ReLU"
  bottom: "conv4_3"
  top: "conv4_3"
}
layer {
  name: "pool4"
  type: "Pooling"
  bottom: "conv4_3"
  top: "pool4"
  pooling_param {
    pool: MAX
    kernel_size: 2
    stride: 2
  }
}
layer {
  name: "conv5_1"
  type: "Convolution"
  bottom: "pool4"
  top: "conv5_1"
  param {
    lr_mult: 1
  }
  param {
    lr_mult: 2
  }
  convolution_param {
    num_output: 512
    pad: 1
    kernel_size: 3
  }
}
layer {
  name: "relu5_1"
  type: "ReLU"
  bottom: "conv5_1"
  top: "conv5_1"
}
layer {
  name: "conv5_2"
  type: "Convolution"
  bottom: "conv5_1"
  top: "conv5_2"
  param {
    lr_mult: 1
  }
  param {
    lr_mult: 2
  }
  convolution_param {
    num_output: 512
    pad: 1
    kernel_size: 3
  }
}
layer {
  name: "relu5_2"
  type: "ReLU"
  bottom: "conv5_2"
  top: "conv5_2"
}
layer {
  name: "conv5_3"
  type: "Convolution"
  bottom: "conv5_2"
  top: "conv5_3"
  param {
    lr_mult: 1
  }
  param {
    lr_mult: 2
  }
  convolution_param {
    num_output: 512
    pad: 1
    kernel_size: 3
  }
}
layer {
  name: "relu5_3"
  type: "ReLU"
  bottom: "conv5_3"
  top: "conv5_3"
}
layer {
  name: "rpn_big_conv1"
  type: "Convolution"
  bottom: "conv5_3"
  top: "rpn_big_conv1"
  param {
    lr_mult: 1
  }
  param {
    lr_mult: 2
  }
  convolution_param {
    num_output: 512
    pad: 1
    kernel_size: 3
    stride: 1
    weight_filler {
      type: "gaussian"
      mean: 0
      std: 0.01
    }
    bias_filler {
      type: "constant"
    }
  }
}
layer {
  name: "rpn_big_conv1_relu"
  type: "ReLU"
  bottom: "rpn_big_conv1"
  top: "rpn_big_conv1"
  relu_param {
    negative_slope: 0
  }
}
layer {
  name: "rpn_big_conv2"
  type: "Convolution"
  bottom: "rpn_big_conv1"
  top: "rpn_big_conv2"
  param {
    lr_mult: 1
  }
  param {
    lr_mult: 2
  }
  convolution_param {
    num_output: 512
    pad: 1
    kernel_size: 3
    stride: 1
    weight_filler {
      type: "gaussian"
      mean: 0
      std: 0.01
    }
    bias_filler {
      type: "constant"
    }
  }
}
layer {
  name: "rpn_big_conv2_relu"
  type: "ReLU"
  bottom: "rpn_big_conv2"
  top: "rpn_big_conv2"
  relu_param {
    negative_slope: 0
  }
}
layer {
  name: "rpn_big_conv2_drop"
  type: "Dropout"
  bottom: "rpn_big_conv2"
  top: "rpn_big_conv2"
  dropout_param {
    dropout_ratio: 0.3
  }
}
layer {
  name: "rpn_big_output_cls"
  type: "Convolution"
  bottom: "rpn_big_conv2"
  top: "rpn_big_output_cls"
  param {
    lr_mult: 1
  }
  param {
    lr_mult: 2
  }
  convolution_param {
    num_output: 384
    pad: 1
    kernel_size: 3
    stride: 1
    weight_filler {
      type: "gaussian"
      mean: 0
      std: 0.01
    }
    bias_filler {
      type: "constant"
    }
  }
}
layer {
  name: "rpn_big_output_cls_relu"
  type: "ReLU"
  bottom: "rpn_big_output_cls"
  top: "rpn_big_output_cls"
  relu_param {
    negative_slope: 0
  }
}
layer {
  name: "rpn_big_cls_score"
  type: "Convolution"
  bottom: "rpn_big_output_cls"
  top: "rpn_big_cls_score"
  param {
    lr_mult: 1
  }
  param {
    lr_mult: 2
  }
  convolution_param {
    num_output: 52
    pad: 0
    kernel_size: 3
    stride: 1
    weight_filler {
      type: "gaussian"
      mean: 0
      std: 0.01
    }
    bias_filler {
      type: "constant"
    }
  }
}
layer {
  name: "rpn_big_cls_score_reshape"
  type: "Reshape"
  bottom: "rpn_big_cls_score"
  top: "rpn_big_cls_score_reshape"
  reshape_param {
    shape {
      dim: 0
      dim: 2
      dim: -1
      dim: 0
    }
  }
}
layer {
  name: "rpn_big_cls_prob"
  type: "Softmax"
  bottom: "rpn_big_cls_score_reshape"
  top: "rpn_big_cls_prob"
}
layer {
  name: "rpn_big_cls_prob_reshape"
  type: "Reshape"
  bottom: "rpn_big_cls_prob"
  top: "rpn_big_cls_prob_reshape"
  reshape_param {
    shape {
      dim: 0
      dim: 52
      dim: -1
      dim: 0
    }
  }
}
layer {
  name: "rpn_big_anchor_target"
  type: "Python"
  bottom: "rpn_big_cls_score"
  bottom: "input_gt_boxes"
  bottom: "input_ignored_boxes"
  bottom: "input_im_info"
  bottom: "input_data"
  bottom: "rpn_big_cls_prob_reshape"
  top: "rpn_big_anchor_target_labels"
  top: "rpn_big_anchor_target_bbox_targets"
  top: "rpn_big_anchor_target_inside_weights"
  top: "rpn_big_anchor_target_outside_weights"
  python_param {
    module: "rpn.anchor_target_layer"
    layer: "AnchorTargetLayer"
    param_str: "{\"positive_overlap\": 0.6, \"batchsize\": 256, \"fg_fraction\": 0.5, \"feat_stride\": 16, \"anchor_ratios\": [1.0], \"negative_overlap\": 0.4, \"square_targets\": true, \"tn_fraction\": 0.2, \"anchor_shift_num_xy\": [[2, 2], [2, 2], [2, 2], [2, 2], [1, 1], [1, 1], [1, 1], [1, 1], [1, 1], [1, 1], [1, 1], [1, 1], [1, 1], [1, 1]], \"num_classes\": 1, \"name\": \"rpn_big\", \"anchor_scales\": [2.5, 3.025, 3.66025, 4.4289024999999995, 5.358972025, 6.484356150249999, 7.846070941802498, 9.493745839581022, 11.487432465893036, 13.899793283730574, 16.818749873313998, 20.350687346709933, 24.62433168951902, 29.795441344318014]}"
  }
}
layer {
  name: "rpn_big_loss_cls"
  type: "SoftmaxWithLoss"
  bottom: "rpn_big_cls_score_reshape"
  bottom: "rpn_big_anchor_target_labels"
  top: "rpn_big_loss_cls"
  loss_weight: 1
  propagate_down: true
  propagate_down: false
  loss_param {
    ignore_label: -1
    normalization: VALID
  }
}
layer {
  name: "rpn_big_output_box"
  type: "Convolution"
  bottom: "rpn_big_conv2"
  top: "rpn_big_output_box"
  param {
    lr_mult: 1
  }
  param {
    lr_mult: 2
  }
  convolution_param {
    num_output: 384
    pad: 1
    kernel_size: 3
    stride: 1
    weight_filler {
      type: "gaussian"
      mean: 0
      std: 0.01
    }
    bias_filler {
      type: "constant"
    }
  }
}
layer {
  name: "rpn_big_output_box_relu"
  type: "ReLU"
  bottom: "rpn_big_output_box"
  top: "rpn_big_output_box"
  relu_param {
    negative_slope: 0
  }
}
layer {
  name: "rpn_big_bbox_pred"
  type: "Convolution"
  bottom: "rpn_big_output_box"
  top: "rpn_big_bbox_pred"
  param {
    lr_mult: 1
  }
  param {
    lr_mult: 2
  }
  convolution_param {
    num_output: 104
    pad: 0
    kernel_size: 3
    stride: 1
    weight_filler {
      type: "gaussian"
      mean: 0
      std: 0.01
    }
    bias_filler {
      type: "constant"
    }
  }
}
layer {
  name: "rpn_big_loss_bbox"
  type: "Python"
  bottom: "rpn_big_bbox_pred"
  bottom: "rpn_big_anchor_target_bbox_targets"
  bottom: "rpn_big_anchor_target_inside_weights"
  bottom: "rpn_big_anchor_target_outside_weights"
  top: "rpn_big_loss_bbox"
  loss_weight: 1
  python_param {
    module: "layers.smooth_l1_loss"
    layer: "SmoothL1LossLayer"
    param_str: "{\"sigma\": 3}"
  }
}
I0406 15:20:07.596263  6482 layer_factory.hpp:77] Creating layer input
I0406 15:20:07.598018  6482 net.cpp:106] Creating Layer input
I0406 15:20:07.598040  6482 net.cpp:411] input -> input_data
I0406 15:20:07.598057  6482 net.cpp:411] input -> input_im_info
I0406 15:20:07.598068  6482 net.cpp:411] input -> input_gt_boxes
I0406 15:20:07.598079  6482 net.cpp:411] input -> input_ignored_boxes
RoiDataLayer: name_to_top: {'gt_boxes': 2, 'data': 0, 'ignored_boxes': 3, 'im_info': 1}
I0406 15:20:07.927620  6482 net.cpp:150] Setting up input
I0406 15:20:07.927651  6482 net.cpp:157] Top shape: 1 3 1000 1500 (4500000)
I0406 15:20:07.927659  6482 net.cpp:157] Top shape: 1 3 (3)
I0406 15:20:07.927664  6482 net.cpp:157] Top shape: 1 5 (5)
I0406 15:20:07.927670  6482 net.cpp:157] Top shape: 1 5 (5)
I0406 15:20:07.927675  6482 net.cpp:165] Memory required for data: 18000052
I0406 15:20:07.927685  6482 layer_factory.hpp:77] Creating layer input_data_input_0_split
I0406 15:20:07.927701  6482 net.cpp:106] Creating Layer input_data_input_0_split
I0406 15:20:07.927722  6482 net.cpp:454] input_data_input_0_split <- input_data
I0406 15:20:07.927734  6482 net.cpp:411] input_data_input_0_split -> input_data_input_0_split_0
I0406 15:20:07.927750  6482 net.cpp:411] input_data_input_0_split -> input_data_input_0_split_1
I0406 15:20:07.927806  6482 net.cpp:150] Setting up input_data_input_0_split
I0406 15:20:07.927817  6482 net.cpp:157] Top shape: 1 3 1000 1500 (4500000)
I0406 15:20:07.927832  6482 net.cpp:157] Top shape: 1 3 1000 1500 (4500000)
I0406 15:20:07.927837  6482 net.cpp:165] Memory required for data: 54000052
I0406 15:20:07.927842  6482 layer_factory.hpp:77] Creating layer conv1_1
I0406 15:20:07.927858  6482 net.cpp:106] Creating Layer conv1_1
I0406 15:20:07.927865  6482 net.cpp:454] conv1_1 <- input_data_input_0_split_0
I0406 15:20:07.927872  6482 net.cpp:411] conv1_1 -> conv1_1
I0406 15:20:07.931139  6482 net.cpp:150] Setting up conv1_1
I0406 15:20:07.931174  6482 net.cpp:157] Top shape: 1 64 1000 1500 (96000000)
I0406 15:20:07.931179  6482 net.cpp:165] Memory required for data: 438000052
I0406 15:20:07.931196  6482 layer_factory.hpp:77] Creating layer relu1_1
I0406 15:20:07.931206  6482 net.cpp:106] Creating Layer relu1_1
I0406 15:20:07.931211  6482 net.cpp:454] relu1_1 <- conv1_1
I0406 15:20:07.931217  6482 net.cpp:397] relu1_1 -> conv1_1 (in-place)
I0406 15:20:07.931227  6482 net.cpp:150] Setting up relu1_1
I0406 15:20:07.931231  6482 net.cpp:157] Top shape: 1 64 1000 1500 (96000000)
I0406 15:20:07.931236  6482 net.cpp:165] Memory required for data: 822000052
I0406 15:20:07.931238  6482 layer_factory.hpp:77] Creating layer conv1_2
I0406 15:20:07.931248  6482 net.cpp:106] Creating Layer conv1_2
I0406 15:20:07.931252  6482 net.cpp:454] conv1_2 <- conv1_1
I0406 15:20:07.931257  6482 net.cpp:411] conv1_2 -> conv1_2
I0406 15:20:07.936161  6482 net.cpp:150] Setting up conv1_2
I0406 15:20:07.936203  6482 net.cpp:157] Top shape: 1 64 1000 1500 (96000000)
I0406 15:20:07.936206  6482 net.cpp:165] Memory required for data: 1206000052
I0406 15:20:07.936226  6482 layer_factory.hpp:77] Creating layer relu1_2
I0406 15:20:07.936242  6482 net.cpp:106] Creating Layer relu1_2
I0406 15:20:07.936250  6482 net.cpp:454] relu1_2 <- conv1_2
I0406 15:20:07.936261  6482 net.cpp:397] relu1_2 -> conv1_2 (in-place)
I0406 15:20:07.936275  6482 net.cpp:150] Setting up relu1_2
I0406 15:20:07.936283  6482 net.cpp:157] Top shape: 1 64 1000 1500 (96000000)
I0406 15:20:07.936288  6482 net.cpp:165] Memory required for data: 1590000052
I0406 15:20:07.936293  6482 layer_factory.hpp:77] Creating layer pool1
I0406 15:20:07.936305  6482 net.cpp:106] Creating Layer pool1
I0406 15:20:07.936309  6482 net.cpp:454] pool1 <- conv1_2
I0406 15:20:07.936316  6482 net.cpp:411] pool1 -> pool1
I0406 15:20:07.936424  6482 net.cpp:150] Setting up pool1
I0406 15:20:07.936436  6482 net.cpp:157] Top shape: 1 64 500 750 (24000000)
I0406 15:20:07.936441  6482 net.cpp:165] Memory required for data: 1686000052
I0406 15:20:07.936447  6482 layer_factory.hpp:77] Creating layer conv2_1
I0406 15:20:07.936463  6482 net.cpp:106] Creating Layer conv2_1
I0406 15:20:07.936470  6482 net.cpp:454] conv2_1 <- pool1
I0406 15:20:07.936480  6482 net.cpp:411] conv2_1 -> conv2_1
I0406 15:20:07.937865  6482 net.cpp:150] Setting up conv2_1
I0406 15:20:07.937887  6482 net.cpp:157] Top shape: 1 128 500 750 (48000000)
I0406 15:20:07.937891  6482 net.cpp:165] Memory required for data: 1878000052
I0406 15:20:07.937906  6482 layer_factory.hpp:77] Creating layer relu2_1
I0406 15:20:07.937922  6482 net.cpp:106] Creating Layer relu2_1
I0406 15:20:07.937930  6482 net.cpp:454] relu2_1 <- conv2_1
I0406 15:20:07.937942  6482 net.cpp:397] relu2_1 -> conv2_1 (in-place)
I0406 15:20:07.937953  6482 net.cpp:150] Setting up relu2_1
I0406 15:20:07.937961  6482 net.cpp:157] Top shape: 1 128 500 750 (48000000)
I0406 15:20:07.937968  6482 net.cpp:165] Memory required for data: 2070000052
I0406 15:20:07.937973  6482 layer_factory.hpp:77] Creating layer conv2_2
I0406 15:20:07.937985  6482 net.cpp:106] Creating Layer conv2_2
I0406 15:20:07.937993  6482 net.cpp:454] conv2_2 <- conv2_1
I0406 15:20:07.938000  6482 net.cpp:411] conv2_2 -> conv2_2
I0406 15:20:07.939044  6482 net.cpp:150] Setting up conv2_2
I0406 15:20:07.939069  6482 net.cpp:157] Top shape: 1 128 500 750 (48000000)
I0406 15:20:07.939072  6482 net.cpp:165] Memory required for data: 2262000052
I0406 15:20:07.939083  6482 layer_factory.hpp:77] Creating layer relu2_2
I0406 15:20:07.939096  6482 net.cpp:106] Creating Layer relu2_2
I0406 15:20:07.939105  6482 net.cpp:454] relu2_2 <- conv2_2
I0406 15:20:07.939116  6482 net.cpp:397] relu2_2 -> conv2_2 (in-place)
I0406 15:20:07.939127  6482 net.cpp:150] Setting up relu2_2
I0406 15:20:07.939136  6482 net.cpp:157] Top shape: 1 128 500 750 (48000000)
I0406 15:20:07.939142  6482 net.cpp:165] Memory required for data: 2454000052
I0406 15:20:07.939147  6482 layer_factory.hpp:77] Creating layer pool2
I0406 15:20:07.939157  6482 net.cpp:106] Creating Layer pool2
I0406 15:20:07.939162  6482 net.cpp:454] pool2 <- conv2_2
I0406 15:20:07.939173  6482 net.cpp:411] pool2 -> pool2
I0406 15:20:07.939234  6482 net.cpp:150] Setting up pool2
I0406 15:20:07.939245  6482 net.cpp:157] Top shape: 1 128 250 375 (12000000)
I0406 15:20:07.939251  6482 net.cpp:165] Memory required for data: 2502000052
I0406 15:20:07.939258  6482 layer_factory.hpp:77] Creating layer conv3_1
I0406 15:20:07.939271  6482 net.cpp:106] Creating Layer conv3_1
I0406 15:20:07.939278  6482 net.cpp:454] conv3_1 <- pool2
I0406 15:20:07.939290  6482 net.cpp:411] conv3_1 -> conv3_1
I0406 15:20:07.940542  6482 net.cpp:150] Setting up conv3_1
I0406 15:20:07.940567  6482 net.cpp:157] Top shape: 1 256 250 375 (24000000)
I0406 15:20:07.940572  6482 net.cpp:165] Memory required for data: 2598000052
I0406 15:20:07.940589  6482 layer_factory.hpp:77] Creating layer relu3_1
I0406 15:20:07.940603  6482 net.cpp:106] Creating Layer relu3_1
I0406 15:20:07.940610  6482 net.cpp:454] relu3_1 <- conv3_1
I0406 15:20:07.940619  6482 net.cpp:397] relu3_1 -> conv3_1 (in-place)
I0406 15:20:07.940631  6482 net.cpp:150] Setting up relu3_1
I0406 15:20:07.940639  6482 net.cpp:157] Top shape: 1 256 250 375 (24000000)
I0406 15:20:07.940645  6482 net.cpp:165] Memory required for data: 2694000052
I0406 15:20:07.940651  6482 layer_factory.hpp:77] Creating layer conv3_2
I0406 15:20:07.940665  6482 net.cpp:106] Creating Layer conv3_2
I0406 15:20:07.940671  6482 net.cpp:454] conv3_2 <- conv3_1
I0406 15:20:07.940682  6482 net.cpp:411] conv3_2 -> conv3_2
I0406 15:20:07.942029  6482 net.cpp:150] Setting up conv3_2
I0406 15:20:07.942054  6482 net.cpp:157] Top shape: 1 256 250 375 (24000000)
I0406 15:20:07.942059  6482 net.cpp:165] Memory required for data: 2790000052
I0406 15:20:07.942070  6482 layer_factory.hpp:77] Creating layer relu3_2
I0406 15:20:07.942082  6482 net.cpp:106] Creating Layer relu3_2
I0406 15:20:07.942091  6482 net.cpp:454] relu3_2 <- conv3_2
I0406 15:20:07.942103  6482 net.cpp:397] relu3_2 -> conv3_2 (in-place)
I0406 15:20:07.942116  6482 net.cpp:150] Setting up relu3_2
I0406 15:20:07.942124  6482 net.cpp:157] Top shape: 1 256 250 375 (24000000)
I0406 15:20:07.942129  6482 net.cpp:165] Memory required for data: 2886000052
I0406 15:20:07.942136  6482 layer_factory.hpp:77] Creating layer conv3_3
I0406 15:20:07.942152  6482 net.cpp:106] Creating Layer conv3_3
I0406 15:20:07.942160  6482 net.cpp:454] conv3_3 <- conv3_2
I0406 15:20:07.942173  6482 net.cpp:411] conv3_3 -> conv3_3
I0406 15:20:07.943863  6482 net.cpp:150] Setting up conv3_3
I0406 15:20:07.943891  6482 net.cpp:157] Top shape: 1 256 250 375 (24000000)
I0406 15:20:07.943894  6482 net.cpp:165] Memory required for data: 2982000052
I0406 15:20:07.943904  6482 layer_factory.hpp:77] Creating layer relu3_3
I0406 15:20:07.943918  6482 net.cpp:106] Creating Layer relu3_3
I0406 15:20:07.943928  6482 net.cpp:454] relu3_3 <- conv3_3
I0406 15:20:07.943938  6482 net.cpp:397] relu3_3 -> conv3_3 (in-place)
I0406 15:20:07.943951  6482 net.cpp:150] Setting up relu3_3
I0406 15:20:07.943959  6482 net.cpp:157] Top shape: 1 256 250 375 (24000000)
I0406 15:20:07.943964  6482 net.cpp:165] Memory required for data: 3078000052
I0406 15:20:07.943969  6482 layer_factory.hpp:77] Creating layer pool3
I0406 15:20:07.943977  6482 net.cpp:106] Creating Layer pool3
I0406 15:20:07.943984  6482 net.cpp:454] pool3 <- conv3_3
I0406 15:20:07.943997  6482 net.cpp:411] pool3 -> pool3
I0406 15:20:07.944057  6482 net.cpp:150] Setting up pool3
I0406 15:20:07.944068  6482 net.cpp:157] Top shape: 1 256 125 188 (6016000)
I0406 15:20:07.944075  6482 net.cpp:165] Memory required for data: 3102064052
I0406 15:20:07.944082  6482 layer_factory.hpp:77] Creating layer conv4_1
I0406 15:20:07.944097  6482 net.cpp:106] Creating Layer conv4_1
I0406 15:20:07.944104  6482 net.cpp:454] conv4_1 <- pool3
I0406 15:20:07.944116  6482 net.cpp:411] conv4_1 -> conv4_1
I0406 15:20:07.946938  6482 net.cpp:150] Setting up conv4_1
I0406 15:20:07.946972  6482 net.cpp:157] Top shape: 1 512 125 188 (12032000)
I0406 15:20:07.946975  6482 net.cpp:165] Memory required for data: 3150192052
I0406 15:20:07.946985  6482 layer_factory.hpp:77] Creating layer relu4_1
I0406 15:20:07.947000  6482 net.cpp:106] Creating Layer relu4_1
I0406 15:20:07.947010  6482 net.cpp:454] relu4_1 <- conv4_1
I0406 15:20:07.947021  6482 net.cpp:397] relu4_1 -> conv4_1 (in-place)
I0406 15:20:07.947034  6482 net.cpp:150] Setting up relu4_1
I0406 15:20:07.947042  6482 net.cpp:157] Top shape: 1 512 125 188 (12032000)
I0406 15:20:07.947048  6482 net.cpp:165] Memory required for data: 3198320052
I0406 15:20:07.947053  6482 layer_factory.hpp:77] Creating layer conv4_2
I0406 15:20:07.947067  6482 net.cpp:106] Creating Layer conv4_2
I0406 15:20:07.947073  6482 net.cpp:454] conv4_2 <- conv4_1
I0406 15:20:07.947085  6482 net.cpp:411] conv4_2 -> conv4_2
I0406 15:20:07.951532  6482 net.cpp:150] Setting up conv4_2
I0406 15:20:07.951565  6482 net.cpp:157] Top shape: 1 512 125 188 (12032000)
I0406 15:20:07.951568  6482 net.cpp:165] Memory required for data: 3246448052
I0406 15:20:07.951586  6482 layer_factory.hpp:77] Creating layer relu4_2
I0406 15:20:07.951596  6482 net.cpp:106] Creating Layer relu4_2
I0406 15:20:07.951601  6482 net.cpp:454] relu4_2 <- conv4_2
I0406 15:20:07.951609  6482 net.cpp:397] relu4_2 -> conv4_2 (in-place)
I0406 15:20:07.951618  6482 net.cpp:150] Setting up relu4_2
I0406 15:20:07.951622  6482 net.cpp:157] Top shape: 1 512 125 188 (12032000)
I0406 15:20:07.951625  6482 net.cpp:165] Memory required for data: 3294576052
I0406 15:20:07.951628  6482 layer_factory.hpp:77] Creating layer conv4_3
I0406 15:20:07.951637  6482 net.cpp:106] Creating Layer conv4_3
I0406 15:20:07.951640  6482 net.cpp:454] conv4_3 <- conv4_2
I0406 15:20:07.951650  6482 net.cpp:411] conv4_3 -> conv4_3
I0406 15:20:07.956156  6482 net.cpp:150] Setting up conv4_3
I0406 15:20:07.956192  6482 net.cpp:157] Top shape: 1 512 125 188 (12032000)
I0406 15:20:07.956197  6482 net.cpp:165] Memory required for data: 3342704052
I0406 15:20:07.956205  6482 layer_factory.hpp:77] Creating layer relu4_3
I0406 15:20:07.956217  6482 net.cpp:106] Creating Layer relu4_3
I0406 15:20:07.956223  6482 net.cpp:454] relu4_3 <- conv4_3
I0406 15:20:07.956236  6482 net.cpp:397] relu4_3 -> conv4_3 (in-place)
I0406 15:20:07.956250  6482 net.cpp:150] Setting up relu4_3
I0406 15:20:07.956257  6482 net.cpp:157] Top shape: 1 512 125 188 (12032000)
I0406 15:20:07.956262  6482 net.cpp:165] Memory required for data: 3390832052
I0406 15:20:07.956269  6482 layer_factory.hpp:77] Creating layer pool4
I0406 15:20:07.956276  6482 net.cpp:106] Creating Layer pool4
I0406 15:20:07.956284  6482 net.cpp:454] pool4 <- conv4_3
I0406 15:20:07.956292  6482 net.cpp:411] pool4 -> pool4
I0406 15:20:07.956342  6482 net.cpp:150] Setting up pool4
I0406 15:20:07.956356  6482 net.cpp:157] Top shape: 1 512 63 94 (3032064)
I0406 15:20:07.956362  6482 net.cpp:165] Memory required for data: 3402960308
I0406 15:20:07.956367  6482 layer_factory.hpp:77] Creating layer conv5_1
I0406 15:20:07.956378  6482 net.cpp:106] Creating Layer conv5_1
I0406 15:20:07.956384  6482 net.cpp:454] conv5_1 <- pool4
I0406 15:20:07.956396  6482 net.cpp:411] conv5_1 -> conv5_1
I0406 15:20:07.961266  6482 net.cpp:150] Setting up conv5_1
I0406 15:20:07.961299  6482 net.cpp:157] Top shape: 1 512 63 94 (3032064)
I0406 15:20:07.961313  6482 net.cpp:165] Memory required for data: 3415088564
I0406 15:20:07.961323  6482 layer_factory.hpp:77] Creating layer relu5_1
I0406 15:20:07.961333  6482 net.cpp:106] Creating Layer relu5_1
I0406 15:20:07.961338  6482 net.cpp:454] relu5_1 <- conv5_1
I0406 15:20:07.961345  6482 net.cpp:397] relu5_1 -> conv5_1 (in-place)
I0406 15:20:07.961356  6482 net.cpp:150] Setting up relu5_1
I0406 15:20:07.961364  6482 net.cpp:157] Top shape: 1 512 63 94 (3032064)
I0406 15:20:07.961369  6482 net.cpp:165] Memory required for data: 3427216820
I0406 15:20:07.961374  6482 layer_factory.hpp:77] Creating layer conv5_2
I0406 15:20:07.961385  6482 net.cpp:106] Creating Layer conv5_2
I0406 15:20:07.961392  6482 net.cpp:454] conv5_2 <- conv5_1
I0406 15:20:07.961402  6482 net.cpp:411] conv5_2 -> conv5_2
I0406 15:20:07.965764  6482 net.cpp:150] Setting up conv5_2
I0406 15:20:07.965798  6482 net.cpp:157] Top shape: 1 512 63 94 (3032064)
I0406 15:20:07.965811  6482 net.cpp:165] Memory required for data: 3439345076
I0406 15:20:07.965821  6482 layer_factory.hpp:77] Creating layer relu5_2
I0406 15:20:07.965832  6482 net.cpp:106] Creating Layer relu5_2
I0406 15:20:07.965838  6482 net.cpp:454] relu5_2 <- conv5_2
I0406 15:20:07.965845  6482 net.cpp:397] relu5_2 -> conv5_2 (in-place)
I0406 15:20:07.965855  6482 net.cpp:150] Setting up relu5_2
I0406 15:20:07.965862  6482 net.cpp:157] Top shape: 1 512 63 94 (3032064)
I0406 15:20:07.965867  6482 net.cpp:165] Memory required for data: 3451473332
I0406 15:20:07.965873  6482 layer_factory.hpp:77] Creating layer conv5_3
I0406 15:20:07.965886  6482 net.cpp:106] Creating Layer conv5_3
I0406 15:20:07.965894  6482 net.cpp:454] conv5_3 <- conv5_2
I0406 15:20:07.965903  6482 net.cpp:411] conv5_3 -> conv5_3
I0406 15:20:07.970508  6482 net.cpp:150] Setting up conv5_3
I0406 15:20:07.970548  6482 net.cpp:157] Top shape: 1 512 63 94 (3032064)
I0406 15:20:07.970552  6482 net.cpp:165] Memory required for data: 3463601588
I0406 15:20:07.970571  6482 layer_factory.hpp:77] Creating layer relu5_3
I0406 15:20:07.970584  6482 net.cpp:106] Creating Layer relu5_3
I0406 15:20:07.970592  6482 net.cpp:454] relu5_3 <- conv5_3
I0406 15:20:07.970604  6482 net.cpp:397] relu5_3 -> conv5_3 (in-place)
I0406 15:20:07.970618  6482 net.cpp:150] Setting up relu5_3
I0406 15:20:07.970625  6482 net.cpp:157] Top shape: 1 512 63 94 (3032064)
I0406 15:20:07.970630  6482 net.cpp:165] Memory required for data: 3475729844
I0406 15:20:07.970635  6482 layer_factory.hpp:77] Creating layer rpn_big_conv1
I0406 15:20:07.970657  6482 net.cpp:106] Creating Layer rpn_big_conv1
I0406 15:20:07.970664  6482 net.cpp:454] rpn_big_conv1 <- conv5_3
I0406 15:20:07.970674  6482 net.cpp:411] rpn_big_conv1 -> rpn_big_conv1
I0406 15:20:07.995584  6482 net.cpp:150] Setting up rpn_big_conv1
I0406 15:20:07.995613  6482 net.cpp:157] Top shape: 1 512 63 94 (3032064)
I0406 15:20:07.995617  6482 net.cpp:165] Memory required for data: 3487858100
I0406 15:20:07.995625  6482 layer_factory.hpp:77] Creating layer rpn_big_conv1_relu
I0406 15:20:07.995640  6482 net.cpp:106] Creating Layer rpn_big_conv1_relu
I0406 15:20:07.995647  6482 net.cpp:454] rpn_big_conv1_relu <- rpn_big_conv1
I0406 15:20:07.995661  6482 net.cpp:397] rpn_big_conv1_relu -> rpn_big_conv1 (in-place)
I0406 15:20:07.995672  6482 net.cpp:150] Setting up rpn_big_conv1_relu
I0406 15:20:07.995681  6482 net.cpp:157] Top shape: 1 512 63 94 (3032064)
I0406 15:20:07.995684  6482 net.cpp:165] Memory required for data: 3499986356
I0406 15:20:07.995689  6482 layer_factory.hpp:77] Creating layer rpn_big_conv2
I0406 15:20:07.995703  6482 net.cpp:106] Creating Layer rpn_big_conv2
I0406 15:20:07.995709  6482 net.cpp:454] rpn_big_conv2 <- rpn_big_conv1
I0406 15:20:07.995719  6482 net.cpp:411] rpn_big_conv2 -> rpn_big_conv2
I0406 15:20:08.020673  6482 net.cpp:150] Setting up rpn_big_conv2
I0406 15:20:08.020704  6482 net.cpp:157] Top shape: 1 512 63 94 (3032064)
I0406 15:20:08.020707  6482 net.cpp:165] Memory required for data: 3512114612
I0406 15:20:08.020715  6482 layer_factory.hpp:77] Creating layer rpn_big_conv2_relu
I0406 15:20:08.020726  6482 net.cpp:106] Creating Layer rpn_big_conv2_relu
I0406 15:20:08.020730  6482 net.cpp:454] rpn_big_conv2_relu <- rpn_big_conv2
I0406 15:20:08.020740  6482 net.cpp:397] rpn_big_conv2_relu -> rpn_big_conv2 (in-place)
I0406 15:20:08.020756  6482 net.cpp:150] Setting up rpn_big_conv2_relu
I0406 15:20:08.020763  6482 net.cpp:157] Top shape: 1 512 63 94 (3032064)
I0406 15:20:08.020769  6482 net.cpp:165] Memory required for data: 3524242868
I0406 15:20:08.020776  6482 layer_factory.hpp:77] Creating layer rpn_big_conv2_drop
I0406 15:20:08.020787  6482 net.cpp:106] Creating Layer rpn_big_conv2_drop
I0406 15:20:08.020797  6482 net.cpp:454] rpn_big_conv2_drop <- rpn_big_conv2
I0406 15:20:08.020805  6482 net.cpp:397] rpn_big_conv2_drop -> rpn_big_conv2 (in-place)
I0406 15:20:08.020836  6482 net.cpp:150] Setting up rpn_big_conv2_drop
I0406 15:20:08.020844  6482 net.cpp:157] Top shape: 1 512 63 94 (3032064)
I0406 15:20:08.020848  6482 net.cpp:165] Memory required for data: 3536371124
I0406 15:20:08.020853  6482 layer_factory.hpp:77] Creating layer rpn_big_conv2_rpn_big_conv2_drop_0_split
I0406 15:20:08.020864  6482 net.cpp:106] Creating Layer rpn_big_conv2_rpn_big_conv2_drop_0_split
I0406 15:20:08.020869  6482 net.cpp:454] rpn_big_conv2_rpn_big_conv2_drop_0_split <- rpn_big_conv2
I0406 15:20:08.020879  6482 net.cpp:411] rpn_big_conv2_rpn_big_conv2_drop_0_split -> rpn_big_conv2_rpn_big_conv2_drop_0_split_0
I0406 15:20:08.020889  6482 net.cpp:411] rpn_big_conv2_rpn_big_conv2_drop_0_split -> rpn_big_conv2_rpn_big_conv2_drop_0_split_1
I0406 15:20:08.020925  6482 net.cpp:150] Setting up rpn_big_conv2_rpn_big_conv2_drop_0_split
I0406 15:20:08.020933  6482 net.cpp:157] Top shape: 1 512 63 94 (3032064)
I0406 15:20:08.020939  6482 net.cpp:157] Top shape: 1 512 63 94 (3032064)
I0406 15:20:08.020944  6482 net.cpp:165] Memory required for data: 3560627636
I0406 15:20:08.020947  6482 layer_factory.hpp:77] Creating layer rpn_big_output_cls
I0406 15:20:08.020961  6482 net.cpp:106] Creating Layer rpn_big_output_cls
I0406 15:20:08.020967  6482 net.cpp:454] rpn_big_output_cls <- rpn_big_conv2_rpn_big_conv2_drop_0_split_0
I0406 15:20:08.020977  6482 net.cpp:411] rpn_big_output_cls -> rpn_big_output_cls
I0406 15:20:08.039760  6482 net.cpp:150] Setting up rpn_big_output_cls
I0406 15:20:08.039791  6482 net.cpp:157] Top shape: 1 384 63 94 (2274048)
I0406 15:20:08.039795  6482 net.cpp:165] Memory required for data: 3569723828
I0406 15:20:08.039805  6482 layer_factory.hpp:77] Creating layer rpn_big_output_cls_relu
I0406 15:20:08.039816  6482 net.cpp:106] Creating Layer rpn_big_output_cls_relu
I0406 15:20:08.039821  6482 net.cpp:454] rpn_big_output_cls_relu <- rpn_big_output_cls
I0406 15:20:08.039830  6482 net.cpp:397] rpn_big_output_cls_relu -> rpn_big_output_cls (in-place)
I0406 15:20:08.039840  6482 net.cpp:150] Setting up rpn_big_output_cls_relu
I0406 15:20:08.039845  6482 net.cpp:157] Top shape: 1 384 63 94 (2274048)
I0406 15:20:08.039849  6482 net.cpp:165] Memory required for data: 3578820020
I0406 15:20:08.039851  6482 layer_factory.hpp:77] Creating layer rpn_big_cls_score
I0406 15:20:08.039862  6482 net.cpp:106] Creating Layer rpn_big_cls_score
I0406 15:20:08.039866  6482 net.cpp:454] rpn_big_cls_score <- rpn_big_output_cls
I0406 15:20:08.039875  6482 net.cpp:411] rpn_big_cls_score -> rpn_big_cls_score
I0406 15:20:08.043499  6482 net.cpp:150] Setting up rpn_big_cls_score
I0406 15:20:08.043517  6482 net.cpp:157] Top shape: 1 52 61 92 (291824)
I0406 15:20:08.043520  6482 net.cpp:165] Memory required for data: 3579987316
I0406 15:20:08.043545  6482 layer_factory.hpp:77] Creating layer rpn_big_cls_score_rpn_big_cls_score_0_split
I0406 15:20:08.043555  6482 net.cpp:106] Creating Layer rpn_big_cls_score_rpn_big_cls_score_0_split
I0406 15:20:08.043562  6482 net.cpp:454] rpn_big_cls_score_rpn_big_cls_score_0_split <- rpn_big_cls_score
I0406 15:20:08.043573  6482 net.cpp:411] rpn_big_cls_score_rpn_big_cls_score_0_split -> rpn_big_cls_score_rpn_big_cls_score_0_split_0
I0406 15:20:08.043592  6482 net.cpp:411] rpn_big_cls_score_rpn_big_cls_score_0_split -> rpn_big_cls_score_rpn_big_cls_score_0_split_1
I0406 15:20:08.043668  6482 net.cpp:150] Setting up rpn_big_cls_score_rpn_big_cls_score_0_split
I0406 15:20:08.043680  6482 net.cpp:157] Top shape: 1 52 61 92 (291824)
I0406 15:20:08.043695  6482 net.cpp:157] Top shape: 1 52 61 92 (291824)
I0406 15:20:08.043700  6482 net.cpp:165] Memory required for data: 3582321908
I0406 15:20:08.043705  6482 layer_factory.hpp:77] Creating layer rpn_big_cls_score_reshape
I0406 15:20:08.043718  6482 net.cpp:106] Creating Layer rpn_big_cls_score_reshape
I0406 15:20:08.043725  6482 net.cpp:454] rpn_big_cls_score_reshape <- rpn_big_cls_score_rpn_big_cls_score_0_split_0
I0406 15:20:08.043738  6482 net.cpp:411] rpn_big_cls_score_reshape -> rpn_big_cls_score_reshape
I0406 15:20:08.043772  6482 net.cpp:150] Setting up rpn_big_cls_score_reshape
I0406 15:20:08.043782  6482 net.cpp:157] Top shape: 1 2 1586 92 (291824)
I0406 15:20:08.043787  6482 net.cpp:165] Memory required for data: 3583489204
I0406 15:20:08.043793  6482 layer_factory.hpp:77] Creating layer rpn_big_cls_score_reshape_rpn_big_cls_score_reshape_0_split
I0406 15:20:08.043804  6482 net.cpp:106] Creating Layer rpn_big_cls_score_reshape_rpn_big_cls_score_reshape_0_split
I0406 15:20:08.043813  6482 net.cpp:454] rpn_big_cls_score_reshape_rpn_big_cls_score_reshape_0_split <- rpn_big_cls_score_reshape
I0406 15:20:08.043823  6482 net.cpp:411] rpn_big_cls_score_reshape_rpn_big_cls_score_reshape_0_split -> rpn_big_cls_score_reshape_rpn_big_cls_score_reshape_0_split_0
I0406 15:20:08.043843  6482 net.cpp:411] rpn_big_cls_score_reshape_rpn_big_cls_score_reshape_0_split -> rpn_big_cls_score_reshape_rpn_big_cls_score_reshape_0_split_1
I0406 15:20:08.043906  6482 net.cpp:150] Setting up rpn_big_cls_score_reshape_rpn_big_cls_score_reshape_0_split
I0406 15:20:08.043917  6482 net.cpp:157] Top shape: 1 2 1586 92 (291824)
I0406 15:20:08.043926  6482 net.cpp:157] Top shape: 1 2 1586 92 (291824)
I0406 15:20:08.043932  6482 net.cpp:165] Memory required for data: 3585823796
I0406 15:20:08.043938  6482 layer_factory.hpp:77] Creating layer rpn_big_cls_prob
I0406 15:20:08.043951  6482 net.cpp:106] Creating Layer rpn_big_cls_prob
I0406 15:20:08.043959  6482 net.cpp:454] rpn_big_cls_prob <- rpn_big_cls_score_reshape_rpn_big_cls_score_reshape_0_split_0
I0406 15:20:08.043968  6482 net.cpp:411] rpn_big_cls_prob -> rpn_big_cls_prob
I0406 15:20:08.044045  6482 net.cpp:150] Setting up rpn_big_cls_prob
I0406 15:20:08.044056  6482 net.cpp:157] Top shape: 1 2 1586 92 (291824)
I0406 15:20:08.044062  6482 net.cpp:165] Memory required for data: 3586991092
I0406 15:20:08.044070  6482 layer_factory.hpp:77] Creating layer rpn_big_cls_prob_reshape
I0406 15:20:08.044081  6482 net.cpp:106] Creating Layer rpn_big_cls_prob_reshape
I0406 15:20:08.044090  6482 net.cpp:454] rpn_big_cls_prob_reshape <- rpn_big_cls_prob
I0406 15:20:08.044100  6482 net.cpp:411] rpn_big_cls_prob_reshape -> rpn_big_cls_prob_reshape
I0406 15:20:08.044131  6482 net.cpp:150] Setting up rpn_big_cls_prob_reshape
I0406 15:20:08.044142  6482 net.cpp:157] Top shape: 1 52 61 92 (291824)
I0406 15:20:08.044147  6482 net.cpp:165] Memory required for data: 3588158388
I0406 15:20:08.044154  6482 layer_factory.hpp:77] Creating layer rpn_big_anchor_target
I0406 15:20:08.045832  6482 net.cpp:106] Creating Layer rpn_big_anchor_target
I0406 15:20:08.045850  6482 net.cpp:454] rpn_big_anchor_target <- rpn_big_cls_score_rpn_big_cls_score_0_split_1
I0406 15:20:08.045858  6482 net.cpp:454] rpn_big_anchor_target <- input_gt_boxes
I0406 15:20:08.045866  6482 net.cpp:454] rpn_big_anchor_target <- input_ignored_boxes
I0406 15:20:08.045876  6482 net.cpp:454] rpn_big_anchor_target <- input_im_info
I0406 15:20:08.045886  6482 net.cpp:454] rpn_big_anchor_target <- input_data_input_0_split_1
I0406 15:20:08.045893  6482 net.cpp:454] rpn_big_anchor_target <- rpn_big_cls_prob_reshape
I0406 15:20:08.045905  6482 net.cpp:411] rpn_big_anchor_target -> rpn_big_anchor_target_labels
I0406 15:20:08.045919  6482 net.cpp:411] rpn_big_anchor_target -> rpn_big_anchor_target_bbox_targets
I0406 15:20:08.045933  6482 net.cpp:411] rpn_big_anchor_target -> rpn_big_anchor_target_inside_weights
I0406 15:20:08.045948  6482 net.cpp:411] rpn_big_anchor_target -> rpn_big_anchor_target_outside_weights
I0406 15:20:08.051414  6482 net.cpp:150] Setting up rpn_big_anchor_target
I0406 15:20:08.051443  6482 net.cpp:157] Top shape: 1 1 1586 92 (145912)
I0406 15:20:08.051448  6482 net.cpp:157] Top shape: 1 104 61 92 (583648)
I0406 15:20:08.051453  6482 net.cpp:157] Top shape: 1 104 61 92 (583648)
I0406 15:20:08.051457  6482 net.cpp:157] Top shape: 1 104 61 92 (583648)
I0406 15:20:08.051462  6482 net.cpp:165] Memory required for data: 3595745812
I0406 15:20:08.051470  6482 layer_factory.hpp:77] Creating layer rpn_big_loss_cls
I0406 15:20:08.051486  6482 net.cpp:106] Creating Layer rpn_big_loss_cls
I0406 15:20:08.051496  6482 net.cpp:454] rpn_big_loss_cls <- rpn_big_cls_score_reshape_rpn_big_cls_score_reshape_0_split_1
I0406 15:20:08.051506  6482 net.cpp:454] rpn_big_loss_cls <- rpn_big_anchor_target_labels
I0406 15:20:08.051518  6482 net.cpp:411] rpn_big_loss_cls -> rpn_big_loss_cls
I0406 15:20:08.051538  6482 layer_factory.hpp:77] Creating layer rpn_big_loss_cls
I0406 15:20:08.052187  6482 net.cpp:150] Setting up rpn_big_loss_cls
I0406 15:20:08.052202  6482 net.cpp:157] Top shape: (1)
I0406 15:20:08.052206  6482 net.cpp:160]     with loss weight 1
I0406 15:20:08.052217  6482 net.cpp:165] Memory required for data: 3595745816
I0406 15:20:08.052220  6482 layer_factory.hpp:77] Creating layer rpn_big_output_box
I0406 15:20:08.052235  6482 net.cpp:106] Creating Layer rpn_big_output_box
I0406 15:20:08.052240  6482 net.cpp:454] rpn_big_output_box <- rpn_big_conv2_rpn_big_conv2_drop_0_split_1
I0406 15:20:08.052248  6482 net.cpp:411] rpn_big_output_box -> rpn_big_output_box
I0406 15:20:08.071210  6482 net.cpp:150] Setting up rpn_big_output_box
I0406 15:20:08.071249  6482 net.cpp:157] Top shape: 1 384 63 94 (2274048)
I0406 15:20:08.071254  6482 net.cpp:165] Memory required for data: 3604842008
I0406 15:20:08.071264  6482 layer_factory.hpp:77] Creating layer rpn_big_output_box_relu
I0406 15:20:08.071277  6482 net.cpp:106] Creating Layer rpn_big_output_box_relu
I0406 15:20:08.071285  6482 net.cpp:454] rpn_big_output_box_relu <- rpn_big_output_box
I0406 15:20:08.071300  6482 net.cpp:397] rpn_big_output_box_relu -> rpn_big_output_box (in-place)
I0406 15:20:08.071312  6482 net.cpp:150] Setting up rpn_big_output_box_relu
I0406 15:20:08.071319  6482 net.cpp:157] Top shape: 1 384 63 94 (2274048)
I0406 15:20:08.071324  6482 net.cpp:165] Memory required for data: 3613938200
I0406 15:20:08.071328  6482 layer_factory.hpp:77] Creating layer rpn_big_bbox_pred
I0406 15:20:08.071344  6482 net.cpp:106] Creating Layer rpn_big_bbox_pred
I0406 15:20:08.071349  6482 net.cpp:454] rpn_big_bbox_pred <- rpn_big_output_box
I0406 15:20:08.071359  6482 net.cpp:411] rpn_big_bbox_pred -> rpn_big_bbox_pred
I0406 15:20:08.075723  6482 net.cpp:150] Setting up rpn_big_bbox_pred
I0406 15:20:08.075753  6482 net.cpp:157] Top shape: 1 104 61 92 (583648)
I0406 15:20:08.075757  6482 net.cpp:165] Memory required for data: 3616272792
I0406 15:20:08.075767  6482 layer_factory.hpp:77] Creating layer rpn_big_loss_bbox
I0406 15:20:08.076165  6482 net.cpp:106] Creating Layer rpn_big_loss_bbox
I0406 15:20:08.076176  6482 net.cpp:454] rpn_big_loss_bbox <- rpn_big_bbox_pred
I0406 15:20:08.076184  6482 net.cpp:454] rpn_big_loss_bbox <- rpn_big_anchor_target_bbox_targets
I0406 15:20:08.076192  6482 net.cpp:454] rpn_big_loss_bbox <- rpn_big_anchor_target_inside_weights
I0406 15:20:08.076205  6482 net.cpp:454] rpn_big_loss_bbox <- rpn_big_anchor_target_outside_weights
I0406 15:20:08.076218  6482 net.cpp:411] rpn_big_loss_bbox -> rpn_big_loss_bbox
I0406 15:20:08.078506  6482 net.cpp:150] Setting up rpn_big_loss_bbox
I0406 15:20:08.078534  6482 net.cpp:157] Top shape: 1 (1)
I0406 15:20:08.078547  6482 net.cpp:160]     with loss weight 1
I0406 15:20:08.078558  6482 net.cpp:165] Memory required for data: 3616272796
I0406 15:20:08.078564  6482 net.cpp:226] rpn_big_loss_bbox needs backward computation.
I0406 15:20:08.078572  6482 net.cpp:226] rpn_big_bbox_pred needs backward computation.
I0406 15:20:08.078577  6482 net.cpp:226] rpn_big_output_box_relu needs backward computation.
…
