…
I0413 18:46:32.166963 14057 solver.cpp:48] Initializing solver from parameters: 
base_lr: 0.001
display: 20
lr_policy: "multistep"
gamma: 0.1
momentum: 0.9
weight_decay: 0.0005
snapshot: 0
snapshot_prefix: "faces_example"
net_param {
  name: "GeneratedModel_13_04_2017_18_46"
  layer {
    name: "input"
    type: "Python"
    top: "input_data"
    top: "input_im_info"
    top: "input_gt_boxes"
    top: "input_ignored_boxes"
    python_param {
      module: "layers.roi_data_layer"
      layer: "RoIDataLayer"
      param_str: "{\"num_classes\": 2}"
    }
  }
  layer {
    name: "conv1_1"
    type: "Convolution"
    bottom: "input_data"
    top: "conv1_1"
    param {
      lr_mult: 0
      decay_mult: 0
    }
    param {
      lr_mult: 0
      decay_mult: 0
    }
    convolution_param {
      num_output: 64
      pad: 1
      kernel_size: 3
    }
  }
  layer {
    name: "relu1_1"
    type: "ReLU"
    bottom: "conv1_1"
    top: "conv1_1"
  }
  layer {
    name: "conv1_2"
    type: "Convolution"
    bottom: "conv1_1"
    top: "conv1_2"
    param {
      lr_mult: 0
      decay_mult: 0
    }
    param {
      lr_mult: 0
      decay_mult: 0
    }
    convolution_param {
      num_output: 64
      pad: 1
      kernel_size: 3
    }
  }
  layer {
    name: "relu1_2"
    type: "ReLU"
    bottom: "conv1_2"
    top: "conv1_2"
  }
  layer {
    name: "pool1"
    type: "Pooling"
    bottom: "conv1_2"
    top: "pool1"
    pooling_param {
      pool: MAX
      kernel_size: 2
      stride: 2
    }
  }
  layer {
    name: "conv2_1"
    type: "Convolution"
    bottom: "pool1"
    top: "conv2_1"
    param {
      lr_mult: 0
      decay_mult: 0
    }
    param {
      lr_mult: 0
      decay_mult: 0
    }
    convolution_param {
      num_output: 128
      pad: 1
      kernel_size: 3
    }
  }
  layer {
    name: "relu2_1"
    type: "ReLU"
    bottom: "conv2_1"
    top: "conv2_1"
  }
  layer {
    name: "conv2_2"
    type: "Convolution"
    bottom: "conv2_1"
    top: "conv2_2"
    param {
      lr_mult: 0
      decay_mult: 0
    }
    param {
      lr_mult: 0
      decay_mult: 0
    }
    convolution_param {
      num_output: 128
      pad: 1
      kernel_size: 3
    }
  }
  layer {
    name: "relu2_2"
    type: "ReLU"
    bottom: "conv2_2"
    top: "conv2_2"
  }
  layer {
    name: "pool2"
    type: "Pooling"
    bottom: "conv2_2"
    top: "pool2"
    pooling_param {
      pool: MAX
      kernel_size: 2
      stride: 2
    }
  }
  layer {
    name: "conv3_1"
    type: "Convolution"
    bottom: "pool2"
    top: "conv3_1"
    param {
      lr_mult: 1
    }
    param {
      lr_mult: 2
    }
    convolution_param {
      num_output: 256
      pad: 1
      kernel_size: 3
    }
  }
  layer {
    name: "relu3_1"
    type: "ReLU"
    bottom: "conv3_1"
    top: "conv3_1"
  }
  layer {
    name: "conv3_2"
    type: "Convolution"
    bottom: "conv3_1"
    top: "conv3_2"
    param {
      lr_mult: 1
    }
    param {
      lr_mult: 2
    }
    convolution_param {
      num_output: 256
      pad: 1
      kernel_size: 3
    }
  }
  layer {
    name: "relu3_2"
    type: "ReLU"
    bottom: "conv3_2"
    top: "conv3_2"
  }
  layer {
    name: "conv3_3"
    type: "Convolution"
    bottom: "conv3_2"
    top: "conv3_3"
    param {
      lr_mult: 1
    }
    param {
      lr_mult: 2
    }
    convolution_param {
      num_output: 256
      pad: 1
      kernel_size: 3
    }
  }
  layer {
    name: "relu3_3"
    type: "ReLU"
    bottom: "conv3_3"
    top: "conv3_3"
  }
  layer {
    name: "pool3"
    type: "Pooling"
    bottom: "conv3_3"
    top: "pool3"
    pooling_param {
      pool: MAX
      kernel_size: 2
      stride: 2
    }
  }
  layer {
    name: "conv4_1"
    type: "Convolution"
    bottom: "pool3"
    top: "conv4_1"
    param {
      lr_mult: 1
    }
    param {
      lr_mult: 2
    }
    convolution_param {
      num_output: 512
      pad: 1
      kernel_size: 3
    }
  }
  layer {
    name: "relu4_1"
    type: "ReLU"
    bottom: "conv4_1"
    top: "conv4_1"
  }
  layer {
    name: "conv4_2"
    type: "Convolution"
    bottom: "conv4_1"
    top: "conv4_2"
    param {
      lr_mult: 1
    }
    param {
      lr_mult: 2
    }
    convolution_param {
      num_output: 512
      pad: 1
      kernel_size: 3
    }
  }
  layer {
    name: "relu4_2"
    type: "ReLU"
    bottom: "conv4_2"
    top: "conv4_2"
  }
  layer {
    name: "conv4_3"
    type: "Convolution"
    bottom: "conv4_2"
    top: "conv4_3"
    param {
      lr_mult: 1
    }
    param {
      lr_mult: 2
    }
    convolution_param {
      num_output: 512
      pad: 1
      kernel_size: 3
    }
  }
  layer {
    name: "relu4_3"
    type: "ReLU"
    bottom: "conv4_3"
    top: "conv4_3"
  }
  layer {
    name: "pool4"
    type: "Pooling"
    bottom: "conv4_3"
    top: "pool4"
    pooling_param {
      pool: MAX
      kernel_size: 2
      stride: 2
    }
  }
  layer {
    name: "conv5_1"
    type: "Convolution"
    bottom: "pool4"
    top: "conv5_1"
    param {
      lr_mult: 1
    }
    param {
      lr_mult: 2
    }
    convolution_param {
      num_output: 512
      pad: 1
      kernel_size: 3
    }
  }
  layer {
    name: "relu5_1"
    type: "ReLU"
    bottom: "conv5_1"
    top: "conv5_1"
  }
  layer {
    name: "conv5_2"
    type: "Convolution"
    bottom: "conv5_1"
    top: "conv5_2"
    param {
      lr_mult: 1
    }
    param {
      lr_mult: 2
    }
    convolution_param {
      num_output: 512
      pad: 1
      kernel_size: 3
    }
  }
  layer {
    name: "relu5_2"
    type: "ReLU"
    bottom: "conv5_2"
    top: "conv5_2"
  }
  layer {
    name: "conv5_3"
    type: "Convolution"
    bottom: "conv5_2"
    top: "conv5_3"
    param {
      lr_mult: 1
    }
    param {
      lr_mult: 2
    }
    convolution_param {
      num_output: 512
      pad: 1
      kernel_size: 3
    }
  }
  layer {
    name: "relu5_3"
    type: "ReLU"
    bottom: "conv5_3"
    top: "conv5_3"
  }
  layer {
    name: "rpn_big_conv1"
    type: "Convolution"
    bottom: "conv5_3"
    top: "rpn_big_conv1"
    param {
      lr_mult: 1
    }
    param {
      lr_mult: 2
    }
    convolution_param {
      num_output: 512
      pad: 1
      kernel_size: 3
      stride: 1
      weight_filler {
        type: "gaussian"
        mean: 0
        std: 0.01
      }
      bias_filler {
        type: "constant"
      }
    }
  }
  layer {
    name: "rpn_big_conv1_relu"
    type: "ReLU"
    bottom: "rpn_big_conv1"
    top: "rpn_big_conv1"
    relu_param {
      negative_slope: 0
    }
  }
  layer {
    name: "rpn_big_conv2"
    type: "Convolution"
    bottom: "rpn_big_conv1"
    top: "rpn_big_conv2"
    param {
      lr_mult: 1
    }
    param {
      lr_mult: 2
    }
    convolution_param {
      num_output: 512
      pad: 1
      kernel_size: 3
      stride: 1
      weight_filler {
        type: "gaussian"
        mean: 0
        std: 0.01
      }
      bias_filler {
        type: "constant"
      }
    }
  }
  layer {
    name: "rpn_big_conv2_relu"
    type: "ReLU"
    bottom: "rpn_big_conv2"
    top: "rpn_big_conv2"
    relu_param {
      negative_slope: 0
    }
  }
  layer {
    name: "rpn_big_conv2_drop"
    type: "Dropout"
    bottom: "rpn_big_conv2"
    top: "rpn_big_conv2"
    dropout_param {
      dropout_ratio: 0.3
    }
  }
  layer {
    name: "rpn_big_output_cls"
    type: "Convolution"
    bottom: "rpn_big_conv2"
    top: "rpn_big_output_cls"
    param {
      lr_mult: 1
    }
    param {
      lr_mult: 2
    }
    convolution_param {
      num_output: 384
      pad: 1
      kernel_size: 3
      stride: 1
      weight_filler {
        type: "gaussian"
        mean: 0
        std: 0.01
      }
      bias_filler {
        type: "constant"
      }
    }
  }
  layer {
    name: "rpn_big_output_cls_relu"
    type: "ReLU"
    bottom: "rpn_big_output_cls"
    top: "rpn_big_output_cls"
    relu_param {
      negative_slope: 0
    }
  }
  layer {
    name: "rpn_big_cls_score"
    type: "Convolution"
    bottom: "rpn_big_output_cls"
    top: "rpn_big_cls_score"
    param {
      lr_mult: 1
    }
    param {
      lr_mult: 2
    }
    convolution_param {
      num_output: 52
      pad: 0
      kernel_size: 3
      stride: 1
      weight_filler {
        type: "gaussian"
        mean: 0
        std: 0.01
      }
      bias_filler {
        type: "constant"
      }
    }
  }
  layer {
    name: "rpn_big_cls_score_reshape"
    type: "Reshape"
    bottom: "rpn_big_cls_score"
    top: "rpn_big_cls_score_reshape"
    reshape_param {
      shape {
        dim: 0
        dim: 2
        dim: -1
        dim: 0
      }
    }
  }
  layer {
    name: "rpn_big_cls_prob"
    type: "Softmax"
    bottom: "rpn_big_cls_score_reshape"
    top: "rpn_big_cls_prob"
  }
  layer {
    name: "rpn_big_cls_prob_reshape"
    type: "Reshape"
    bottom: "rpn_big_cls_prob"
    top: "rpn_big_cls_prob_reshape"
    reshape_param {
      shape {
        dim: 0
        dim: 52
        dim: -1
        dim: 0
      }
    }
  }
  layer {
    name: "rpn_big_anchor_target"
    type: "Python"
    bottom: "rpn_big_cls_score"
    bottom: "input_gt_boxes"
    bottom: "input_ignored_boxes"
    bottom: "input_im_info"
    bottom: "input_data"
    bottom: "rpn_big_cls_prob_reshape"
    top: "rpn_big_anchor_target_labels"
    top: "rpn_big_anchor_target_bbox_targets"
    top: "rpn_big_anchor_target_inside_weights"
    top: "rpn_big_anchor_target_outside_weights"
    python_param {
      module: "rpn.anchor_target_layer"
      layer: "AnchorTargetLayer"
      param_str: "{\"num_classes\": 1, \"batchsize\": 256, \"negative_overlap\": 0.4, \"name\": \"rpn_big\", \"anchor_scales\": [2.5, 3.025, 3.66025, 4.4289024999999995, 5.358972025, 6.484356150249999, 7.846070941802498, 9.493745839581022, 11.487432465893036, 13.899793283730574, 16.818749873313998, 20.350687346709933, 24.62433168951902, 29.795441344318014], \"anchor_shift_num_xy\": [[2, 2], [2, 2], [2, 2], [2, 2], [1, 1], [1, 1], [1, 1], [1, 1], [1, 1], [1, 1], [1, 1], [1, 1], [1, 1], [1, 1]], \"anchor_ratios\": [1.0], \"feat_stride\": 16, \"fg_fraction\": 0.5, \"positive_overlap\": 0.6, \"tn_fraction\": 0.2, \"square_targets\": true}"
    }
  }
  layer {
    name: "rpn_big_loss_cls"
    type: "SoftmaxWithLoss"
    bottom: "rpn_big_cls_score_reshape"
    bottom: "rpn_big_anchor_target_labels"
    top: "rpn_big_loss_cls"
    loss_weight: 1
    propagate_down: true
    propagate_down: false
    loss_param {
      ignore_label: -1
      normalization: VALID
    }
  }
  layer {
    name: "rpn_big_output_box"
    type: "Convolution"
    bottom: "rpn_big_conv2"
    top: "rpn_big_output_box"
    param {
      lr_mult: 1
    }
    param {
      lr_mult: 2
    }
    convolution_param {
      num_output: 384
      pad: 1
      kernel_size: 3
      stride: 1
      weight_filler {
        type: "gaussian"
        mean: 0
        std: 0.01
      }
      bias_filler {
        type: "constant"
      }
    }
  }
  layer {
    name: "rpn_big_output_box_relu"
    type: "ReLU"
    bottom: "rpn_big_output_box"
    top: "rpn_big_output_box"
    relu_param {
      negative_slope: 0
    }
  }
  layer {
    name: "rpn_big_bbox_pred"
    type: "Convolution"
    bottom: "rpn_big_output_box"
    top: "rpn_big_bbox_pred"
    param {
      lr_mult: 1
    }
    param {
      lr_mult: 2
    }
    convolution_param {
      num_output: 104
      pad: 0
      kernel_size: 3
      stride: 1
      weight_filler {
        type: "gaussian"
        mean: 0
        std: 0.01
      }
      bias_filler {
        type: "constant"
      }
    }
  }
  layer {
    name: "rpn_big_loss_bbox"
    type: "Python"
    bottom: "rpn_big_bbox_pred"
    bottom: "rpn_big_anchor_target_bbox_targets"
    bottom: "rpn_big_anchor_target_inside_weights"
    bottom: "rpn_big_anchor_target_outside_weights"
    top: "rpn_big_loss_bbox"
    loss_weight: 1
    python_param {
      module: "layers.smooth_l1_loss"
      layer: "SmoothL1LossLayer"
      param_str: "{\"sigma\": 3}"
    }
  }
  layer {
    name: "proposal"
    type: "Python"
    bottom: "rpn_big_cls_prob_reshape"
    bottom: "rpn_big_bbox_pred"
    bottom: "input_im_info"
    top: "rpn_rois"
    python_param {
      module: "rpn.proposal_layer"
      layer: "ProposalLayer"
      param_str: "{\"anchor_shift_num_xy\": [[2, 2], [2, 2], [2, 2], [2, 2], [1, 1], [1, 1], [1, 1], [1, 1], [1, 1], [1, 1], [1, 1], [1, 1], [1, 1], [1, 1]], \"feat_stride\": 16, \"num_classes\": 1, \"anchor_scales\": [2.5, 3.025, 3.66025, 4.4289024999999995, 5.358972025, 6.484356150249999, 7.846070941802498, 9.493745839581022, 11.487432465893036, 13.899793283730574, 16.818749873313998, 20.350687346709933, 24.62433168951902, 29.795441344318014], \"square_targets\": true, \"name\": \"rpn_big\", \"batchsize\": 256, \"anchor_ratios\": [1.0]}"
    }
  }
  layer {
    name: "roi-data"
    type: "Python"
    bottom: "rpn_rois"
    bottom: "input_gt_boxes"
    top: "rois"
    top: "labels"
    top: "bbox_targets"
    top: "bbox_inside_weights"
    top: "bbox_outside_weights"
    top: "pid_label"
    python_param {
      module: "rpn.proposal_target_layer"
      layer: "ProposalTargetLayer"
      param_str: "{\"num_classes\": 2, \"bg_aux_label\": 5532}"
    }
  }
  layer {
    name: "roi-pool"
    type: "ROIPooling"
    bottom: "conv5_3"
    bottom: "rois"
    top: "roi-pool"
    roi_pooling_param {
      pooled_h: 7
      pooled_w: 7
      spatial_scale: 0.0625
    }
  }
  layer {
    name: "fc6"
    type: "InnerProduct"
    bottom: "roi-pool"
    top: "fc6"
    param {
      lr_mult: 1
    }
    param {
      lr_mult: 2
    }
    inner_product_param {
      num_output: 4096
    }
  }
  layer {
    name: "relu6"
    type: "ReLU"
    bottom: "fc6"
    top: "fc6"
  }
  layer {
    name: "drop6"
    type: "Dropout"
    bottom: "fc6"
    top: "fc6"
    dropout_param {
      dropout_ratio: 0.5
    }
  }
  layer {
    name: "fc7"
    type: "InnerProduct"
    bottom: "fc6"
    top: "fc7"
    param {
      lr_mult: 1
    }
    param {
      lr_mult: 2
    }
    inner_product_param {
      num_output: 4096
    }
  }
  layer {
    name: "relu7"
    type: "ReLU"
    bottom: "fc7"
    top: "fc7"
  }
  layer {
    name: "drop7"
    type: "Dropout"
    bottom: "fc7"
    top: "fc7"
    dropout_param {
      dropout_ratio: 0.5
    }
  }
  layer {
    name: "bbox_pred"
    type: "InnerProduct"
    bottom: "fc7"
    top: "bbox_pred"
    param {
      lr_mult: 1
    }
    param {
      lr_mult: 2
    }
    inner_product_param {
      num_output: 8
      weight_filler {
        type: "gaussian"
        std: 0.001
      }
      bias_filler {
        type: "constant"
        value: 0
      }
    }
  }
  layer {
    name: "loss_bbox"
    type: "SmoothL1Loss"
    bottom: "bbox_pred"
    bottom: "bbox_targets"
    bottom: "bbox_inside_weights"
    bottom: "bbox_outside_weights"
    top: "loss_bbox"
    loss_weight: 1
  }
  layer {
    name: "feat"
    type: "InnerProduct"
    bottom: "fc7"
    top: "feat"
    param {
      lr_mult: 1
      decay_mult: 1
    }
    param {
      lr_mult: 2
      decay_mult: 0
    }
    inner_product_param {
      num_output: 256
      weight_filler {
        type: "gaussian"
        std: 0.01
      }
      bias_filler {
        type: "constant"
        value: 0
      }
    }
  }
  layer {
    name: "relu8"
    type: "ReLU"
    bottom: "feat"
    top: "feat"
  }
  layer {
    name: "drop8"
    type: "Dropout"
    bottom: "feat"
    top: "feat"
    dropout_param {
      dropout_ratio: 0.5
    }
  }
  layer {
    name: "pid_score"
    type: "InnerProduct"
    bottom: "feat"
    top: "pid_score"
    param {
      lr_mult: 1
      decay_mult: 1
    }
    param {
      lr_mult: 2
      decay_mult: 0
    }
    inner_product_param {
      num_output: 5533
      weight_filler {
        type: "gaussian"
        std: 0.001
      }
      bias_filler {
        type: "constant"
        value: 0
      }
    }
  }
  layer {
    name: "pid_loss"
    type: "SoftmaxWithLoss"
    bottom: "pid_score"
    bottom: "pid_label"
    top: "pid_loss"
    loss_weight: 1
    propagate_down: true
    propagate_down: false
    loss_param {
      ignore_label: -1
      normalize: true
    }
  }
}
average_loss: 100
stepvalue: 70000
stepvalue: 120000
iter_size: 2
I0413 18:46:32.167059 14057 solver.cpp:86] Creating training net specified in net_param.
I0413 18:46:32.167552 14057 net.cpp:58] Initializing net from parameters: 
name: "GeneratedModel_13_04_2017_18_46"
state {
  phase: TRAIN
}
layer {
  name: "input"
  type: "Python"
  top: "input_data"
  top: "input_im_info"
  top: "input_gt_boxes"
  top: "input_ignored_boxes"
  python_param {
    module: "layers.roi_data_layer"
    layer: "RoIDataLayer"
    param_str: "{\"num_classes\": 2}"
  }
}
layer {
  name: "conv1_1"
  type: "Convolution"
  bottom: "input_data"
  top: "conv1_1"
  param {
    lr_mult: 0
    decay_mult: 0
  }
  param {
    lr_mult: 0
    decay_mult: 0
  }
  convolution_param {
    num_output: 64
    pad: 1
    kernel_size: 3
  }
}
layer {
  name: "relu1_1"
  type: "ReLU"
  bottom: "conv1_1"
  top: "conv1_1"
}
layer {
  name: "conv1_2"
  type: "Convolution"
  bottom: "conv1_1"
  top: "conv1_2"
  param {
    lr_mult: 0
    decay_mult: 0
  }
  param {
    lr_mult: 0
    decay_mult: 0
  }
  convolution_param {
    num_output: 64
    pad: 1
    kernel_size: 3
  }
}
layer {
  name: "relu1_2"
  type: "ReLU"
  bottom: "conv1_2"
  top: "conv1_2"
}
layer {
  name: "pool1"
  type: "Pooling"
  bottom: "conv1_2"
  top: "pool1"
  pooling_param {
    pool: MAX
    kernel_size: 2
    stride: 2
  }
}
layer {
  name: "conv2_1"
  type: "Convolution"
  bottom: "pool1"
  top: "conv2_1"
  param {
    lr_mult: 0
    decay_mult: 0
  }
  param {
    lr_mult: 0
    decay_mult: 0
  }
  convolution_param {
    num_output: 128
    pad: 1
    kernel_size: 3
  }
}
layer {
  name: "relu2_1"
  type: "ReLU"
  bottom: "conv2_1"
  top: "conv2_1"
}
layer {
  name: "conv2_2"
  type: "Convolution"
  bottom: "conv2_1"
  top: "conv2_2"
  param {
    lr_mult: 0
    decay_mult: 0
  }
  param {
    lr_mult: 0
    decay_mult: 0
  }
  convolution_param {
    num_output: 128
    pad: 1
    kernel_size: 3
  }
}
layer {
  name: "relu2_2"
  type: "ReLU"
  bottom: "conv2_2"
  top: "conv2_2"
}
layer {
  name: "pool2"
  type: "Pooling"
  bottom: "conv2_2"
  top: "pool2"
  pooling_param {
    pool: MAX
    kernel_size: 2
    stride: 2
  }
}
layer {
  name: "conv3_1"
  type: "Convolution"
  bottom: "pool2"
  top: "conv3_1"
  param {
    lr_mult: 1
  }
  param {
    lr_mult: 2
  }
  convolution_param {
    num_output: 256
    pad: 1
    kernel_size: 3
  }
}
layer {
  name: "relu3_1"
  type: "ReLU"
  bottom: "conv3_1"
  top: "conv3_1"
}
layer {
  name: "conv3_2"
  type: "Convolution"
  bottom: "conv3_1"
  top: "conv3_2"
  param {
    lr_mult: 1
  }
  param {
    lr_mult: 2
  }
  convolution_param {
    num_output: 256
    pad: 1
    kernel_size: 3
  }
}
layer {
  name: "relu3_2"
  type: "ReLU"
  bottom: "conv3_2"
  top: "conv3_2"
}
layer {
  name: "conv3_3"
  type: "Convolution"
  bottom: "conv3_2"
  top: "conv3_3"
  param {
    lr_mult: 1
  }
  param {
    lr_mult: 2
  }
  convolution_param {
    num_output: 256
    pad: 1
    kernel_size: 3
  }
}
layer {
  name: "relu3_3"
  type: "ReLU"
  bottom: "conv3_3"
  top: "conv3_3"
}
layer {
  name: "pool3"
  type: "Pooling"
  bottom: "conv3_3"
  top: "pool3"
  pooling_param {
    pool: MAX
    kernel_size: 2
    stride: 2
  }
}
layer {
  name: "conv4_1"
  type: "Convolution"
  bottom: "pool3"
  top: "conv4_1"
  param {
    lr_mult: 1
  }
  param {
    lr_mult: 2
  }
  convolution_param {
    num_output: 512
    pad: 1
    kernel_size: 3
  }
}
layer {
  name: "relu4_1"
  type: "ReLU"
  bottom: "conv4_1"
  top: "conv4_1"
}
layer {
  name: "conv4_2"
  type: "Convolution"
  bottom: "conv4_1"
  top: "conv4_2"
  param {
    lr_mult: 1
  }
  param {
    lr_mult: 2
  }
  convolution_param {
    num_output: 512
    pad: 1
    kernel_size: 3
  }
}
layer {
  name: "relu4_2"
  type: "ReLU"
  bottom: "conv4_2"
  top: "conv4_2"
}
layer {
  name: "conv4_3"
  type: "Convolution"
  bottom: "conv4_2"
  top: "conv4_3"
  param {
    lr_mult: 1
  }
  param {
    lr_mult: 2
  }
  convolution_param {
    num_output: 512
    pad: 1
    kernel_size: 3
  }
}
layer {
  name: "relu4_3"
  type: "ReLU"
  bottom: "conv4_3"
  top: "conv4_3"
}
layer {
  name: "pool4"
  type: "Pooling"
  bottom: "conv4_3"
  top: "pool4"
  pooling_param {
    pool: MAX
    kernel_size: 2
    stride: 2
  }
}
layer {
  name: "conv5_1"
  type: "Convolution"
  bottom: "pool4"
  top: "conv5_1"
  param {
    lr_mult: 1
  }
  param {
    lr_mult: 2
  }
  convolution_param {
    num_output: 512
    pad: 1
    kernel_size: 3
  }
}
layer {
  name: "relu5_1"
  type: "ReLU"
  bottom: "conv5_1"
  top: "conv5_1"
}
layer {
  name: "conv5_2"
  type: "Convolution"
  bottom: "conv5_1"
  top: "conv5_2"
  param {
    lr_mult: 1
  }
  param {
    lr_mult: 2
  }
  convolution_param {
    num_output: 512
    pad: 1
    kernel_size: 3
  }
}
layer {
  name: "relu5_2"
  type: "ReLU"
  bottom: "conv5_2"
  top: "conv5_2"
}
layer {
  name: "conv5_3"
  type: "Convolution"
  bottom: "conv5_2"
  top: "conv5_3"
  param {
    lr_mult: 1
  }
  param {
    lr_mult: 2
  }
  convolution_param {
    num_output: 512
    pad: 1
    kernel_size: 3
  }
}
layer {
  name: "relu5_3"
  type: "ReLU"
  bottom: "conv5_3"
  top: "conv5_3"
}
layer {
  name: "rpn_big_conv1"
  type: "Convolution"
  bottom: "conv5_3"
  top: "rpn_big_conv1"
  param {
    lr_mult: 1
  }
  param {
    lr_mult: 2
  }
  convolution_param {
    num_output: 512
    pad: 1
    kernel_size: 3
    stride: 1
    weight_filler {
      type: "gaussian"
      mean: 0
      std: 0.01
    }
    bias_filler {
      type: "constant"
    }
  }
}
layer {
  name: "rpn_big_conv1_relu"
  type: "ReLU"
  bottom: "rpn_big_conv1"
  top: "rpn_big_conv1"
  relu_param {
    negative_slope: 0
  }
}
layer {
  name: "rpn_big_conv2"
  type: "Convolution"
  bottom: "rpn_big_conv1"
  top: "rpn_big_conv2"
  param {
    lr_mult: 1
  }
  param {
    lr_mult: 2
  }
  convolution_param {
    num_output: 512
    pad: 1
    kernel_size: 3
    stride: 1
    weight_filler {
      type: "gaussian"
      mean: 0
      std: 0.01
    }
    bias_filler {
      type: "constant"
    }
  }
}
layer {
  name: "rpn_big_conv2_relu"
  type: "ReLU"
  bottom: "rpn_big_conv2"
  top: "rpn_big_conv2"
  relu_param {
    negative_slope: 0
  }
}
layer {
  name: "rpn_big_conv2_drop"
  type: "Dropout"
  bottom: "rpn_big_conv2"
  top: "rpn_big_conv2"
  dropout_param {
    dropout_ratio: 0.3
  }
}
layer {
  name: "rpn_big_output_cls"
  type: "Convolution"
  bottom: "rpn_big_conv2"
  top: "rpn_big_output_cls"
  param {
    lr_mult: 1
  }
  param {
    lr_mult: 2
  }
  convolution_param {
    num_output: 384
    pad: 1
    kernel_size: 3
    stride: 1
    weight_filler {
      type: "gaussian"
      mean: 0
      std: 0.01
    }
    bias_filler {
      type: "constant"
    }
  }
}
layer {
  name: "rpn_big_output_cls_relu"
  type: "ReLU"
  bottom: "rpn_big_output_cls"
  top: "rpn_big_output_cls"
  relu_param {
    negative_slope: 0
  }
}
layer {
  name: "rpn_big_cls_score"
  type: "Convolution"
  bottom: "rpn_big_output_cls"
  top: "rpn_big_cls_score"
  param {
    lr_mult: 1
  }
  param {
    lr_mult: 2
  }
  convolution_param {
    num_output: 52
    pad: 0
    kernel_size: 3
    stride: 1
    weight_filler {
      type: "gaussian"
      mean: 0
      std: 0.01
    }
    bias_filler {
      type: "constant"
    }
  }
}
layer {
  name: "rpn_big_cls_score_reshape"
  type: "Reshape"
  bottom: "rpn_big_cls_score"
  top: "rpn_big_cls_score_reshape"
  reshape_param {
    shape {
      dim: 0
      dim: 2
      dim: -1
      dim: 0
    }
  }
}
layer {
  name: "rpn_big_cls_prob"
  type: "Softmax"
  bottom: "rpn_big_cls_score_reshape"
  top: "rpn_big_cls_prob"
}
layer {
  name: "rpn_big_cls_prob_reshape"
  type: "Reshape"
  bottom: "rpn_big_cls_prob"
  top: "rpn_big_cls_prob_reshape"
  reshape_param {
    shape {
      dim: 0
      dim: 52
      dim: -1
      dim: 0
    }
  }
}
layer {
  name: "rpn_big_anchor_target"
  type: "Python"
  bottom: "rpn_big_cls_score"
  bottom: "input_gt_boxes"
  bottom: "input_ignored_boxes"
  bottom: "input_im_info"
  bottom: "input_data"
  bottom: "rpn_big_cls_prob_reshape"
  top: "rpn_big_anchor_target_labels"
  top: "rpn_big_anchor_target_bbox_targets"
  top: "rpn_big_anchor_target_inside_weights"
  top: "rpn_big_anchor_target_outside_weights"
  python_param {
    module: "rpn.anchor_target_layer"
    layer: "AnchorTargetLayer"
    param_str: "{\"num_classes\": 1, \"batchsize\": 256, \"negative_overlap\": 0.4, \"name\": \"rpn_big\", \"anchor_scales\": [2.5, 3.025, 3.66025, 4.4289024999999995, 5.358972025, 6.484356150249999, 7.846070941802498, 9.493745839581022, 11.487432465893036, 13.899793283730574, 16.818749873313998, 20.350687346709933, 24.62433168951902, 29.795441344318014], \"anchor_shift_num_xy\": [[2, 2], [2, 2], [2, 2], [2, 2], [1, 1], [1, 1], [1, 1], [1, 1], [1, 1], [1, 1], [1, 1], [1, 1], [1, 1], [1, 1]], \"anchor_ratios\": [1.0], \"feat_stride\": 16, \"fg_fraction\": 0.5, \"positive_overlap\": 0.6, \"tn_fraction\": 0.2, \"square_targets\": true}"
  }
}
layer {
  name: "rpn_big_loss_cls"
  type: "SoftmaxWithLoss"
  bottom: "rpn_big_cls_score_reshape"
  bottom: "rpn_big_anchor_target_labels"
  top: "rpn_big_loss_cls"
  loss_weight: 1
  propagate_down: true
  propagate_down: false
  loss_param {
    ignore_label: -1
    normalization: VALID
  }
}
layer {
  name: "rpn_big_output_box"
  type: "Convolution"
  bottom: "rpn_big_conv2"
  top: "rpn_big_output_box"
  param {
    lr_mult: 1
  }
  param {
    lr_mult: 2
  }
  convolution_param {
    num_output: 384
    pad: 1
    kernel_size: 3
    stride: 1
    weight_filler {
      type: "gaussian"
      mean: 0
      std: 0.01
    }
    bias_filler {
      type: "constant"
    }
  }
}
layer {
  name: "rpn_big_output_box_relu"
  type: "ReLU"
  bottom: "rpn_big_output_box"
  top: "rpn_big_output_box"
  relu_param {
    negative_slope: 0
  }
}
layer {
  name: "rpn_big_bbox_pred"
  type: "Convolution"
  bottom: "rpn_big_output_box"
  top: "rpn_big_bbox_pred"
  param {
    lr_mult: 1
  }
  param {
    lr_mult: 2
  }
  convolution_param {
    num_output: 104
    pad: 0
    kernel_size: 3
    stride: 1
    weight_filler {
      type: "gaussian"
      mean: 0
      std: 0.01
    }
    bias_filler {
      type: "constant"
    }
  }
}
layer {
  name: "rpn_big_loss_bbox"
  type: "Python"
  bottom: "rpn_big_bbox_pred"
  bottom: "rpn_big_anchor_target_bbox_targets"
  bottom: "rpn_big_anchor_target_inside_weights"
  bottom: "rpn_big_anchor_target_outside_weights"
  top: "rpn_big_loss_bbox"
  loss_weight: 1
  python_param {
    module: "layers.smooth_l1_loss"
    layer: "SmoothL1LossLayer"
    param_str: "{\"sigma\": 3}"
  }
}
layer {
  name: "proposal"
  type: "Python"
  bottom: "rpn_big_cls_prob_reshape"
  bottom: "rpn_big_bbox_pred"
  bottom: "input_im_info"
  top: "rpn_rois"
  python_param {
    module: "rpn.proposal_layer"
    layer: "ProposalLayer"
    param_str: "{\"anchor_shift_num_xy\": [[2, 2], [2, 2], [2, 2], [2, 2], [1, 1], [1, 1], [1, 1], [1, 1], [1, 1], [1, 1], [1, 1], [1, 1], [1, 1], [1, 1]], \"feat_stride\": 16, \"num_classes\": 1, \"anchor_scales\": [2.5, 3.025, 3.66025, 4.4289024999999995, 5.358972025, 6.484356150249999, 7.846070941802498, 9.493745839581022, 11.487432465893036, 13.899793283730574, 16.818749873313998, 20.350687346709933, 24.62433168951902, 29.795441344318014], \"square_targets\": true, \"name\": \"rpn_big\", \"batchsize\": 256, \"anchor_ratios\": [1.0]}"
  }
}
layer {
  name: "roi-data"
  type: "Python"
  bottom: "rpn_rois"
  bottom: "input_gt_boxes"
  top: "rois"
  top: "labels"
  top: "bbox_targets"
  top: "bbox_inside_weights"
  top: "bbox_outside_weights"
  top: "pid_label"
  python_param {
    module: "rpn.proposal_target_layer"
    layer: "ProposalTargetLayer"
    param_str: "{\"num_classes\": 2, \"bg_aux_label\": 5532}"
  }
}
layer {
  name: "roi-pool"
  type: "ROIPooling"
  bottom: "conv5_3"
  bottom: "rois"
  top: "roi-pool"
  roi_pooling_param {
    pooled_h: 7
    pooled_w: 7
    spatial_scale: 0.0625
  }
}
layer {
  name: "fc6"
  type: "InnerProduct"
  bottom: "roi-pool"
  top: "fc6"
  param {
    lr_mult: 1
  }
  param {
    lr_mult: 2
  }
  inner_product_param {
    num_output: 4096
  }
}
layer {
  name: "relu6"
  type: "ReLU"
  bottom: "fc6"
  top: "fc6"
}
layer {
  name: "drop6"
  type: "Dropout"
  bottom: "fc6"
  top: "fc6"
  dropout_param {
    dropout_ratio: 0.5
  }
}
layer {
  name: "fc7"
  type: "InnerProduct"
  bottom: "fc6"
  top: "fc7"
  param {
    lr_mult: 1
  }
  param {
    lr_mult: 2
  }
  inner_product_param {
    num_output: 4096
  }
}
layer {
  name: "relu7"
  type: "ReLU"
  bottom: "fc7"
  top: "fc7"
}
layer {
  name: "drop7"
  type: "Dropout"
  bottom: "fc7"
  top: "fc7"
  dropout_param {
    dropout_ratio: 0.5
  }
}
layer {
  name: "bbox_pred"
  type: "InnerProduct"
  bottom: "fc7"
  top: "bbox_pred"
  param {
    lr_mult: 1
  }
  param {
    lr_mult: 2
  }
  inner_product_param {
    num_output: 8
    weight_filler {
      type: "gaussian"
      std: 0.001
    }
    bias_filler {
      type: "constant"
      value: 0
    }
  }
}
layer {
  name: "loss_bbox"
  type: "SmoothL1Loss"
  bottom: "bbox_pred"
  bottom: "bbox_targets"
  bottom: "bbox_inside_weights"
  bottom: "bbox_outside_weights"
  top: "loss_bbox"
  loss_weight: 1
}
layer {
  name: "feat"
  type: "InnerProduct"
  bottom: "fc7"
  top: "feat"
  param {
    lr_mult: 1
    decay_mult: 1
  }
  param {
    lr_mult: 2
    decay_mult: 0
  }
  inner_product_param {
    num_output: 256
    weight_filler {
      type: "gaussian"
      std: 0.01
    }
    bias_filler {
      type: "constant"
      value: 0
    }
  }
}
layer {
  name: "relu8"
  type: "ReLU"
  bottom: "feat"
  top: "feat"
}
layer {
  name: "drop8"
  type: "Dropout"
  bottom: "feat"
  top: "feat"
  dropout_param {
    dropout_ratio: 0.5
  }
}
layer {
  name: "pid_score"
  type: "InnerProduct"
  bottom: "feat"
  top: "pid_score"
  param {
    lr_mult: 1
    decay_mult: 1
  }
  param {
    lr_mult: 2
    decay_mult: 0
  }
  inner_product_param {
    num_output: 5533
    weight_filler {
      type: "gaussian"
      std: 0.001
    }
    bias_filler {
      type: "constant"
      value: 0
    }
  }
}
layer {
  name: "pid_loss"
  type: "SoftmaxWithLoss"
  bottom: "pid_score"
  bottom: "pid_label"
  top: "pid_loss"
  loss_weight: 1
  propagate_down: true
  propagate_down: false
  loss_param {
    ignore_label: -1
    normalize: true
  }
}
I0413 18:46:32.167817 14057 layer_factory.hpp:77] Creating layer input
I0413 18:46:32.169085 14057 net.cpp:100] Creating Layer input
I0413 18:46:32.169101 14057 net.cpp:408] input -> input_data
I0413 18:46:32.169112 14057 net.cpp:408] input -> input_im_info
I0413 18:46:32.169119 14057 net.cpp:408] input -> input_gt_boxes
I0413 18:46:32.169126 14057 net.cpp:408] input -> input_ignored_boxes
RoiDataLayer: name_to_top: {'ignored_boxes': 3, 'im_info': 1, 'gt_boxes': 2, 'data': 0}
I0413 18:46:32.487015 14057 net.cpp:150] Setting up input
I0413 18:46:32.487054 14057 net.cpp:157] Top shape: 1 3 1000 1500 (4500000)
I0413 18:46:32.487063 14057 net.cpp:157] Top shape: 1 3 (3)
I0413 18:46:32.487068 14057 net.cpp:157] Top shape: 1 5 (5)
I0413 18:46:32.487072 14057 net.cpp:157] Top shape: 1 5 (5)
I0413 18:46:32.487076 14057 net.cpp:165] Memory required for data: 18000052
I0413 18:46:32.487082 14057 layer_factory.hpp:77] Creating layer input_data_input_0_split
I0413 18:46:32.487093 14057 net.cpp:100] Creating Layer input_data_input_0_split
I0413 18:46:32.487098 14057 net.cpp:434] input_data_input_0_split <- input_data
I0413 18:46:32.487105 14057 net.cpp:408] input_data_input_0_split -> input_data_input_0_split_0
I0413 18:46:32.487118 14057 net.cpp:408] input_data_input_0_split -> input_data_input_0_split_1
I0413 18:46:32.487149 14057 net.cpp:150] Setting up input_data_input_0_split
I0413 18:46:32.487156 14057 net.cpp:157] Top shape: 1 3 1000 1500 (4500000)
I0413 18:46:32.487160 14057 net.cpp:157] Top shape: 1 3 1000 1500 (4500000)
I0413 18:46:32.487164 14057 net.cpp:165] Memory required for data: 54000052
I0413 18:46:32.487166 14057 layer_factory.hpp:77] Creating layer input_im_info_input_1_split
I0413 18:46:32.487171 14057 net.cpp:100] Creating Layer input_im_info_input_1_split
I0413 18:46:32.487174 14057 net.cpp:434] input_im_info_input_1_split <- input_im_info
I0413 18:46:32.487180 14057 net.cpp:408] input_im_info_input_1_split -> input_im_info_input_1_split_0
I0413 18:46:32.487186 14057 net.cpp:408] input_im_info_input_1_split -> input_im_info_input_1_split_1
I0413 18:46:32.487210 14057 net.cpp:150] Setting up input_im_info_input_1_split
I0413 18:46:32.487217 14057 net.cpp:157] Top shape: 1 3 (3)
I0413 18:46:32.487221 14057 net.cpp:157] Top shape: 1 3 (3)
I0413 18:46:32.487223 14057 net.cpp:165] Memory required for data: 54000076
I0413 18:46:32.487226 14057 layer_factory.hpp:77] Creating layer input_gt_boxes_input_2_split
I0413 18:46:32.487231 14057 net.cpp:100] Creating Layer input_gt_boxes_input_2_split
I0413 18:46:32.487234 14057 net.cpp:434] input_gt_boxes_input_2_split <- input_gt_boxes
I0413 18:46:32.487239 14057 net.cpp:408] input_gt_boxes_input_2_split -> input_gt_boxes_input_2_split_0
I0413 18:46:32.487246 14057 net.cpp:408] input_gt_boxes_input_2_split -> input_gt_boxes_input_2_split_1
I0413 18:46:32.487272 14057 net.cpp:150] Setting up input_gt_boxes_input_2_split
I0413 18:46:32.487279 14057 net.cpp:157] Top shape: 1 5 (5)
I0413 18:46:32.487282 14057 net.cpp:157] Top shape: 1 5 (5)
I0413 18:46:32.487285 14057 net.cpp:165] Memory required for data: 54000116
I0413 18:46:32.487288 14057 layer_factory.hpp:77] Creating layer conv1_1
I0413 18:46:32.487299 14057 net.cpp:100] Creating Layer conv1_1
I0413 18:46:32.487303 14057 net.cpp:434] conv1_1 <- input_data_input_0_split_0
I0413 18:46:32.487308 14057 net.cpp:408] conv1_1 -> conv1_1
I0413 18:46:32.490356 14057 net.cpp:150] Setting up conv1_1
I0413 18:46:32.490407 14057 net.cpp:157] Top shape: 1 64 1000 1500 (96000000)
I0413 18:46:32.490413 14057 net.cpp:165] Memory required for data: 438000116
I0413 18:46:32.490433 14057 layer_factory.hpp:77] Creating layer relu1_1
I0413 18:46:32.490445 14057 net.cpp:100] Creating Layer relu1_1
I0413 18:46:32.490450 14057 net.cpp:434] relu1_1 <- conv1_1
I0413 18:46:32.490458 14057 net.cpp:395] relu1_1 -> conv1_1 (in-place)
I0413 18:46:32.490469 14057 net.cpp:150] Setting up relu1_1
I0413 18:46:32.490474 14057 net.cpp:157] Top shape: 1 64 1000 1500 (96000000)
I0413 18:46:32.490478 14057 net.cpp:165] Memory required for data: 822000116
I0413 18:46:32.490480 14057 layer_factory.hpp:77] Creating layer conv1_2
I0413 18:46:32.490489 14057 net.cpp:100] Creating Layer conv1_2
I0413 18:46:32.490491 14057 net.cpp:434] conv1_2 <- conv1_1
I0413 18:46:32.490499 14057 net.cpp:408] conv1_2 -> conv1_2
I0413 18:46:32.493746 14057 net.cpp:150] Setting up conv1_2
I0413 18:46:32.493783 14057 net.cpp:157] Top shape: 1 64 1000 1500 (96000000)
I0413 18:46:32.493788 14057 net.cpp:165] Memory required for data: 1206000116
I0413 18:46:32.493804 14057 layer_factory.hpp:77] Creating layer relu1_2
I0413 18:46:32.493816 14057 net.cpp:100] Creating Layer relu1_2
I0413 18:46:32.493823 14057 net.cpp:434] relu1_2 <- conv1_2
I0413 18:46:32.493829 14057 net.cpp:395] relu1_2 -> conv1_2 (in-place)
I0413 18:46:32.493839 14057 net.cpp:150] Setting up relu1_2
I0413 18:46:32.493844 14057 net.cpp:157] Top shape: 1 64 1000 1500 (96000000)
I0413 18:46:32.493847 14057 net.cpp:165] Memory required for data: 1590000116
I0413 18:46:32.493850 14057 layer_factory.hpp:77] Creating layer pool1
I0413 18:46:32.493860 14057 net.cpp:100] Creating Layer pool1
I0413 18:46:32.493863 14057 net.cpp:434] pool1 <- conv1_2
I0413 18:46:32.493868 14057 net.cpp:408] pool1 -> pool1
I0413 18:46:32.493938 14057 net.cpp:150] Setting up pool1
I0413 18:46:32.493949 14057 net.cpp:157] Top shape: 1 64 500 750 (24000000)
I0413 18:46:32.493952 14057 net.cpp:165] Memory required for data: 1686000116
I0413 18:46:32.493955 14057 layer_factory.hpp:77] Creating layer conv2_1
I0413 18:46:32.493964 14057 net.cpp:100] Creating Layer conv2_1
I0413 18:46:32.493968 14057 net.cpp:434] conv2_1 <- pool1
I0413 18:46:32.493974 14057 net.cpp:408] conv2_1 -> conv2_1
I0413 18:46:32.495170 14057 net.cpp:150] Setting up conv2_1
I0413 18:46:32.495198 14057 net.cpp:157] Top shape: 1 128 500 750 (48000000)
I0413 18:46:32.495200 14057 net.cpp:165] Memory required for data: 1878000116
I0413 18:46:32.495213 14057 layer_factory.hpp:77] Creating layer relu2_1
I0413 18:46:32.495221 14057 net.cpp:100] Creating Layer relu2_1
I0413 18:46:32.495226 14057 net.cpp:434] relu2_1 <- conv2_1
I0413 18:46:32.495234 14057 net.cpp:395] relu2_1 -> conv2_1 (in-place)
I0413 18:46:32.495244 14057 net.cpp:150] Setting up relu2_1
I0413 18:46:32.495247 14057 net.cpp:157] Top shape: 1 128 500 750 (48000000)
I0413 18:46:32.495250 14057 net.cpp:165] Memory required for data: 2070000116
I0413 18:46:32.495254 14057 layer_factory.hpp:77] Creating layer conv2_2
I0413 18:46:32.495262 14057 net.cpp:100] Creating Layer conv2_2
I0413 18:46:32.495265 14057 net.cpp:434] conv2_2 <- conv2_1
I0413 18:46:32.495270 14057 net.cpp:408] conv2_2 -> conv2_2
I0413 18:46:32.496196 14057 net.cpp:150] Setting up conv2_2
I0413 18:46:32.496222 14057 net.cpp:157] Top shape: 1 128 500 750 (48000000)
I0413 18:46:32.496225 14057 net.cpp:165] Memory required for data: 2262000116
I0413 18:46:32.496235 14057 layer_factory.hpp:77] Creating layer relu2_2
I0413 18:46:32.496243 14057 net.cpp:100] Creating Layer relu2_2
I0413 18:46:32.496248 14057 net.cpp:434] relu2_2 <- conv2_2
I0413 18:46:32.496254 14057 net.cpp:395] relu2_2 -> conv2_2 (in-place)
I0413 18:46:32.496263 14057 net.cpp:150] Setting up relu2_2
I0413 18:46:32.496266 14057 net.cpp:157] Top shape: 1 128 500 750 (48000000)
I0413 18:46:32.496269 14057 net.cpp:165] Memory required for data: 2454000116
I0413 18:46:32.496273 14057 layer_factory.hpp:77] Creating layer pool2
I0413 18:46:32.496280 14057 net.cpp:100] Creating Layer pool2
I0413 18:46:32.496284 14057 net.cpp:434] pool2 <- conv2_2
I0413 18:46:32.496287 14057 net.cpp:408] pool2 -> pool2
I0413 18:46:32.496330 14057 net.cpp:150] Setting up pool2
I0413 18:46:32.496337 14057 net.cpp:157] Top shape: 1 128 250 375 (12000000)
I0413 18:46:32.496340 14057 net.cpp:165] Memory required for data: 2502000116
I0413 18:46:32.496343 14057 layer_factory.hpp:77] Creating layer conv3_1
I0413 18:46:32.496352 14057 net.cpp:100] Creating Layer conv3_1
I0413 18:46:32.496356 14057 net.cpp:434] conv3_1 <- pool2
I0413 18:46:32.496361 14057 net.cpp:408] conv3_1 -> conv3_1
I0413 18:46:32.497483 14057 net.cpp:150] Setting up conv3_1
I0413 18:46:32.497511 14057 net.cpp:157] Top shape: 1 256 250 375 (24000000)
I0413 18:46:32.497524 14057 net.cpp:165] Memory required for data: 2598000116
I0413 18:46:32.497537 14057 layer_factory.hpp:77] Creating layer relu3_1
I0413 18:46:32.497545 14057 net.cpp:100] Creating Layer relu3_1
I0413 18:46:32.497550 14057 net.cpp:434] relu3_1 <- conv3_1
I0413 18:46:32.497556 14057 net.cpp:395] relu3_1 -> conv3_1 (in-place)
I0413 18:46:32.497566 14057 net.cpp:150] Setting up relu3_1
I0413 18:46:32.497570 14057 net.cpp:157] Top shape: 1 256 250 375 (24000000)
I0413 18:46:32.497573 14057 net.cpp:165] Memory required for data: 2694000116
I0413 18:46:32.497576 14057 layer_factory.hpp:77] Creating layer conv3_2
I0413 18:46:32.497588 14057 net.cpp:100] Creating Layer conv3_2
I0413 18:46:32.497601 14057 net.cpp:434] conv3_2 <- conv3_1
I0413 18:46:32.497606 14057 net.cpp:408] conv3_2 -> conv3_2
I0413 18:46:32.498755 14057 net.cpp:150] Setting up conv3_2
I0413 18:46:32.498780 14057 net.cpp:157] Top shape: 1 256 250 375 (24000000)
I0413 18:46:32.498783 14057 net.cpp:165] Memory required for data: 2790000116
I0413 18:46:32.498802 14057 layer_factory.hpp:77] Creating layer relu3_2
I0413 18:46:32.498811 14057 net.cpp:100] Creating Layer relu3_2
I0413 18:46:32.498814 14057 net.cpp:434] relu3_2 <- conv3_2
I0413 18:46:32.498822 14057 net.cpp:395] relu3_2 -> conv3_2 (in-place)
I0413 18:46:32.498831 14057 net.cpp:150] Setting up relu3_2
I0413 18:46:32.498836 14057 net.cpp:157] Top shape: 1 256 250 375 (24000000)
I0413 18:46:32.498838 14057 net.cpp:165] Memory required for data: 2886000116
I0413 18:46:32.498842 14057 layer_factory.hpp:77] Creating layer conv3_3
I0413 18:46:32.498850 14057 net.cpp:100] Creating Layer conv3_3
I0413 18:46:32.498853 14057 net.cpp:434] conv3_3 <- conv3_2
I0413 18:46:32.498858 14057 net.cpp:408] conv3_3 -> conv3_3
I0413 18:46:32.500447 14057 net.cpp:150] Setting up conv3_3
I0413 18:46:32.500479 14057 net.cpp:157] Top shape: 1 256 250 375 (24000000)
I0413 18:46:32.500483 14057 net.cpp:165] Memory required for data: 2982000116
I0413 18:46:32.500493 14057 layer_factory.hpp:77] Creating layer relu3_3
I0413 18:46:32.500502 14057 net.cpp:100] Creating Layer relu3_3
I0413 18:46:32.500507 14057 net.cpp:434] relu3_3 <- conv3_3
I0413 18:46:32.500516 14057 net.cpp:395] relu3_3 -> conv3_3 (in-place)
I0413 18:46:32.500526 14057 net.cpp:150] Setting up relu3_3
I0413 18:46:32.500530 14057 net.cpp:157] Top shape: 1 256 250 375 (24000000)
I0413 18:46:32.500533 14057 net.cpp:165] Memory required for data: 3078000116
I0413 18:46:32.500536 14057 layer_factory.hpp:77] Creating layer pool3
I0413 18:46:32.500542 14057 net.cpp:100] Creating Layer pool3
I0413 18:46:32.500545 14057 net.cpp:434] pool3 <- conv3_3
I0413 18:46:32.500551 14057 net.cpp:408] pool3 -> pool3
I0413 18:46:32.500597 14057 net.cpp:150] Setting up pool3
I0413 18:46:32.500604 14057 net.cpp:157] Top shape: 1 256 125 188 (6016000)
I0413 18:46:32.500607 14057 net.cpp:165] Memory required for data: 3102064116
I0413 18:46:32.500610 14057 layer_factory.hpp:77] Creating layer conv4_1
I0413 18:46:32.500618 14057 net.cpp:100] Creating Layer conv4_1
I0413 18:46:32.500622 14057 net.cpp:434] conv4_1 <- pool3
I0413 18:46:32.500629 14057 net.cpp:408] conv4_1 -> conv4_1
I0413 18:46:32.503357 14057 net.cpp:150] Setting up conv4_1
I0413 18:46:32.503387 14057 net.cpp:157] Top shape: 1 512 125 188 (12032000)
I0413 18:46:32.503399 14057 net.cpp:165] Memory required for data: 3150192116
I0413 18:46:32.503409 14057 layer_factory.hpp:77] Creating layer relu4_1
I0413 18:46:32.503420 14057 net.cpp:100] Creating Layer relu4_1
I0413 18:46:32.503425 14057 net.cpp:434] relu4_1 <- conv4_1
I0413 18:46:32.503433 14057 net.cpp:395] relu4_1 -> conv4_1 (in-place)
I0413 18:46:32.503443 14057 net.cpp:150] Setting up relu4_1
I0413 18:46:32.503448 14057 net.cpp:157] Top shape: 1 512 125 188 (12032000)
I0413 18:46:32.503450 14057 net.cpp:165] Memory required for data: 3198320116
I0413 18:46:32.503453 14057 layer_factory.hpp:77] Creating layer conv4_2
I0413 18:46:32.503463 14057 net.cpp:100] Creating Layer conv4_2
I0413 18:46:32.503466 14057 net.cpp:434] conv4_2 <- conv4_1
I0413 18:46:32.503471 14057 net.cpp:408] conv4_2 -> conv4_2
I0413 18:46:32.509929 14057 net.cpp:150] Setting up conv4_2
I0413 18:46:32.509965 14057 net.cpp:157] Top shape: 1 512 125 188 (12032000)
I0413 18:46:32.509979 14057 net.cpp:165] Memory required for data: 3246448116
I0413 18:46:32.509995 14057 layer_factory.hpp:77] Creating layer relu4_2
I0413 18:46:32.510005 14057 net.cpp:100] Creating Layer relu4_2
I0413 18:46:32.510010 14057 net.cpp:434] relu4_2 <- conv4_2
I0413 18:46:32.510018 14057 net.cpp:395] relu4_2 -> conv4_2 (in-place)
I0413 18:46:32.510027 14057 net.cpp:150] Setting up relu4_2
I0413 18:46:32.510032 14057 net.cpp:157] Top shape: 1 512 125 188 (12032000)
I0413 18:46:32.510035 14057 net.cpp:165] Memory required for data: 3294576116
I0413 18:46:32.510037 14057 layer_factory.hpp:77] Creating layer conv4_3
I0413 18:46:32.510047 14057 net.cpp:100] Creating Layer conv4_3
I0413 18:46:32.510051 14057 net.cpp:434] conv4_3 <- conv4_2
I0413 18:46:32.510058 14057 net.cpp:408] conv4_3 -> conv4_3
I0413 18:46:32.514433 14057 net.cpp:150] Setting up conv4_3
I0413 18:46:32.514469 14057 net.cpp:157] Top shape: 1 512 125 188 (12032000)
I0413 18:46:32.514473 14057 net.cpp:165] Memory required for data: 3342704116
I0413 18:46:32.514483 14057 layer_factory.hpp:77] Creating layer relu4_3
I0413 18:46:32.514494 14057 net.cpp:100] Creating Layer relu4_3
I0413 18:46:32.514499 14057 net.cpp:434] relu4_3 <- conv4_3
I0413 18:46:32.514506 14057 net.cpp:395] relu4_3 -> conv4_3 (in-place)
I0413 18:46:32.514518 14057 net.cpp:150] Setting up relu4_3
I0413 18:46:32.514521 14057 net.cpp:157] Top shape: 1 512 125 188 (12032000)
I0413 18:46:32.514524 14057 net.cpp:165] Memory required for data: 3390832116
I0413 18:46:32.514528 14057 layer_factory.hpp:77] Creating layer pool4
I0413 18:46:32.514533 14057 net.cpp:100] Creating Layer pool4
I0413 18:46:32.514536 14057 net.cpp:434] pool4 <- conv4_3
I0413 18:46:32.514544 14057 net.cpp:408] pool4 -> pool4
I0413 18:46:32.514578 14057 net.cpp:150] Setting up pool4
I0413 18:46:32.514585 14057 net.cpp:157] Top shape: 1 512 63 94 (3032064)
I0413 18:46:32.514587 14057 net.cpp:165] Memory required for data: 3402960372
I0413 18:46:32.514590 14057 layer_factory.hpp:77] Creating layer conv5_1
I0413 18:46:32.514602 14057 net.cpp:100] Creating Layer conv5_1
I0413 18:46:32.514606 14057 net.cpp:434] conv5_1 <- pool4
I0413 18:46:32.514612 14057 net.cpp:408] conv5_1 -> conv5_1
I0413 18:46:32.519199 14057 net.cpp:150] Setting up conv5_1
I0413 18:46:32.519243 14057 net.cpp:157] Top shape: 1 512 63 94 (3032064)
I0413 18:46:32.519248 14057 net.cpp:165] Memory required for data: 3415088628
I0413 18:46:32.519258 14057 layer_factory.hpp:77] Creating layer relu5_1
I0413 18:46:32.519268 14057 net.cpp:100] Creating Layer relu5_1
I0413 18:46:32.519273 14057 net.cpp:434] relu5_1 <- conv5_1
I0413 18:46:32.519281 14057 net.cpp:395] relu5_1 -> conv5_1 (in-place)
I0413 18:46:32.519292 14057 net.cpp:150] Setting up relu5_1
I0413 18:46:32.519296 14057 net.cpp:157] Top shape: 1 512 63 94 (3032064)
I0413 18:46:32.519299 14057 net.cpp:165] Memory required for data: 3427216884
I0413 18:46:32.519302 14057 layer_factory.hpp:77] Creating layer conv5_2
I0413 18:46:32.519312 14057 net.cpp:100] Creating Layer conv5_2
I0413 18:46:32.519316 14057 net.cpp:434] conv5_2 <- conv5_1
I0413 18:46:32.519322 14057 net.cpp:408] conv5_2 -> conv5_2
I0413 18:46:32.523442 14057 net.cpp:150] Setting up conv5_2
I0413 18:46:32.523474 14057 net.cpp:157] Top shape: 1 512 63 94 (3032064)
I0413 18:46:32.523486 14057 net.cpp:165] Memory required for data: 3439345140
I0413 18:46:32.523496 14057 layer_factory.hpp:77] Creating layer relu5_2
I0413 18:46:32.523506 14057 net.cpp:100] Creating Layer relu5_2
I0413 18:46:32.523511 14057 net.cpp:434] relu5_2 <- conv5_2
I0413 18:46:32.523520 14057 net.cpp:395] relu5_2 -> conv5_2 (in-place)
I0413 18:46:32.523530 14057 net.cpp:150] Setting up relu5_2
I0413 18:46:32.523535 14057 net.cpp:157] Top shape: 1 512 63 94 (3032064)
I0413 18:46:32.523537 14057 net.cpp:165] Memory required for data: 3451473396
I0413 18:46:32.523540 14057 layer_factory.hpp:77] Creating layer conv5_3
I0413 18:46:32.523556 14057 net.cpp:100] Creating Layer conv5_3
I0413 18:46:32.523566 14057 net.cpp:434] conv5_3 <- conv5_2
I0413 18:46:32.523571 14057 net.cpp:408] conv5_3 -> conv5_3
I0413 18:46:32.527770 14057 net.cpp:150] Setting up conv5_3
I0413 18:46:32.527802 14057 net.cpp:157] Top shape: 1 512 63 94 (3032064)
I0413 18:46:32.527815 14057 net.cpp:165] Memory required for data: 3463601652
I0413 18:46:32.527825 14057 layer_factory.hpp:77] Creating layer relu5_3
I0413 18:46:32.527835 14057 net.cpp:100] Creating Layer relu5_3
I0413 18:46:32.527840 14057 net.cpp:434] relu5_3 <- conv5_3
I0413 18:46:32.527849 14057 net.cpp:395] relu5_3 -> conv5_3 (in-place)
I0413 18:46:32.527859 14057 net.cpp:150] Setting up relu5_3
I0413 18:46:32.527864 14057 net.cpp:157] Top shape: 1 512 63 94 (3032064)
I0413 18:46:32.527868 14057 net.cpp:165] Memory required for data: 3475729908
I0413 18:46:32.527870 14057 layer_factory.hpp:77] Creating layer conv5_3_relu5_3_0_split
I0413 18:46:32.527878 14057 net.cpp:100] Creating Layer conv5_3_relu5_3_0_split
I0413 18:46:32.527880 14057 net.cpp:434] conv5_3_relu5_3_0_split <- conv5_3
I0413 18:46:32.527887 14057 net.cpp:408] conv5_3_relu5_3_0_split -> conv5_3_relu5_3_0_split_0
I0413 18:46:32.527905 14057 net.cpp:408] conv5_3_relu5_3_0_split -> conv5_3_relu5_3_0_split_1
I0413 18:46:32.527940 14057 net.cpp:150] Setting up conv5_3_relu5_3_0_split
I0413 18:46:32.527948 14057 net.cpp:157] Top shape: 1 512 63 94 (3032064)
I0413 18:46:32.527952 14057 net.cpp:157] Top shape: 1 512 63 94 (3032064)
I0413 18:46:32.527956 14057 net.cpp:165] Memory required for data: 3499986420
I0413 18:46:32.527958 14057 layer_factory.hpp:77] Creating layer rpn_big_conv1
I0413 18:46:32.527971 14057 net.cpp:100] Creating Layer rpn_big_conv1
I0413 18:46:32.527976 14057 net.cpp:434] rpn_big_conv1 <- conv5_3_relu5_3_0_split_0
I0413 18:46:32.527983 14057 net.cpp:408] rpn_big_conv1 -> rpn_big_conv1
I0413 18:46:32.552585 14057 net.cpp:150] Setting up rpn_big_conv1
I0413 18:46:32.552628 14057 net.cpp:157] Top shape: 1 512 63 94 (3032064)
I0413 18:46:32.552634 14057 net.cpp:165] Memory required for data: 3512114676
I0413 18:46:32.552644 14057 layer_factory.hpp:77] Creating layer rpn_big_conv1_relu
I0413 18:46:32.552655 14057 net.cpp:100] Creating Layer rpn_big_conv1_relu
I0413 18:46:32.552660 14057 net.cpp:434] rpn_big_conv1_relu <- rpn_big_conv1
I0413 18:46:32.552670 14057 net.cpp:395] rpn_big_conv1_relu -> rpn_big_conv1 (in-place)
I0413 18:46:32.552680 14057 net.cpp:150] Setting up rpn_big_conv1_relu
I0413 18:46:32.552686 14057 net.cpp:157] Top shape: 1 512 63 94 (3032064)
I0413 18:46:32.552690 14057 net.cpp:165] Memory required for data: 3524242932
I0413 18:46:32.552692 14057 layer_factory.hpp:77] Creating layer rpn_big_conv2
I0413 18:46:32.552703 14057 net.cpp:100] Creating Layer rpn_big_conv2
I0413 18:46:32.552711 14057 net.cpp:434] rpn_big_conv2 <- rpn_big_conv1
I0413 18:46:32.552716 14057 net.cpp:408] rpn_big_conv2 -> rpn_big_conv2
I0413 18:46:32.580263 14057 net.cpp:150] Setting up rpn_big_conv2
I0413 18:46:32.580293 14057 net.cpp:157] Top shape: 1 512 63 94 (3032064)
I0413 18:46:32.580296 14057 net.cpp:165] Memory required for data: 3536371188
I0413 18:46:32.580307 14057 layer_factory.hpp:77] Creating layer rpn_big_conv2_relu
I0413 18:46:32.580317 14057 net.cpp:100] Creating Layer rpn_big_conv2_relu
I0413 18:46:32.580322 14057 net.cpp:434] rpn_big_conv2_relu <- rpn_big_conv2
I0413 18:46:32.580332 14057 net.cpp:395] rpn_big_conv2_relu -> rpn_big_conv2 (in-place)
I0413 18:46:32.580341 14057 net.cpp:150] Setting up rpn_big_conv2_relu
I0413 18:46:32.580345 14057 net.cpp:157] Top shape: 1 512 63 94 (3032064)
I0413 18:46:32.580348 14057 net.cpp:165] Memory required for data: 3548499444
I0413 18:46:32.580353 14057 layer_factory.hpp:77] Creating layer rpn_big_conv2_drop
I0413 18:46:32.580358 14057 net.cpp:100] Creating Layer rpn_big_conv2_drop
I0413 18:46:32.580361 14057 net.cpp:434] rpn_big_conv2_drop <- rpn_big_conv2
I0413 18:46:32.580365 14057 net.cpp:395] rpn_big_conv2_drop -> rpn_big_conv2 (in-place)
I0413 18:46:32.580389 14057 net.cpp:150] Setting up rpn_big_conv2_drop
I0413 18:46:32.580395 14057 net.cpp:157] Top shape: 1 512 63 94 (3032064)
I0413 18:46:32.580399 14057 net.cpp:165] Memory required for data: 3560627700
I0413 18:46:32.580401 14057 layer_factory.hpp:77] Creating layer rpn_big_conv2_rpn_big_conv2_drop_0_split
I0413 18:46:32.580407 14057 net.cpp:100] Creating Layer rpn_big_conv2_rpn_big_conv2_drop_0_split
I0413 18:46:32.580412 14057 net.cpp:434] rpn_big_conv2_rpn_big_conv2_drop_0_split <- rpn_big_conv2
I0413 18:46:32.580420 14057 net.cpp:408] rpn_big_conv2_rpn_big_conv2_drop_0_split -> rpn_big_conv2_rpn_big_conv2_drop_0_split_0
I0413 18:46:32.580428 14057 net.cpp:408] rpn_big_conv2_rpn_big_conv2_drop_0_split -> rpn_big_conv2_rpn_big_conv2_drop_0_split_1
I0413 18:46:32.580466 14057 net.cpp:150] Setting up rpn_big_conv2_rpn_big_conv2_drop_0_split
I0413 18:46:32.580476 14057 net.cpp:157] Top shape: 1 512 63 94 (3032064)
I0413 18:46:32.580479 14057 net.cpp:157] Top shape: 1 512 63 94 (3032064)
I0413 18:46:32.580482 14057 net.cpp:165] Memory required for data: 3584884212
I0413 18:46:32.580487 14057 layer_factory.hpp:77] Creating layer rpn_big_output_cls
I0413 18:46:32.580497 14057 net.cpp:100] Creating Layer rpn_big_output_cls
I0413 18:46:32.580502 14057 net.cpp:434] rpn_big_output_cls <- rpn_big_conv2_rpn_big_conv2_drop_0_split_0
I0413 18:46:32.580509 14057 net.cpp:408] rpn_big_output_cls -> rpn_big_output_cls
I0413 18:46:32.599225 14057 net.cpp:150] Setting up rpn_big_output_cls
I0413 18:46:32.599254 14057 net.cpp:157] Top shape: 1 384 63 94 (2274048)
I0413 18:46:32.599258 14057 net.cpp:165] Memory required for data: 3593980404
I0413 18:46:32.599269 14057 layer_factory.hpp:77] Creating layer rpn_big_output_cls_relu
I0413 18:46:32.599282 14057 net.cpp:100] Creating Layer rpn_big_output_cls_relu
I0413 18:46:32.599287 14057 net.cpp:434] rpn_big_output_cls_relu <- rpn_big_output_cls
I0413 18:46:32.599295 14057 net.cpp:395] rpn_big_output_cls_relu -> rpn_big_output_cls (in-place)
I0413 18:46:32.599308 14057 net.cpp:150] Setting up rpn_big_output_cls_relu
I0413 18:46:32.599315 14057 net.cpp:157] Top shape: 1 384 63 94 (2274048)
I0413 18:46:32.599318 14057 net.cpp:165] Memory required for data: 3603076596
I0413 18:46:32.599321 14057 layer_factory.hpp:77] Creating layer rpn_big_cls_score
I0413 18:46:32.599333 14057 net.cpp:100] Creating Layer rpn_big_cls_score
I0413 18:46:32.599339 14057 net.cpp:434] rpn_big_cls_score <- rpn_big_output_cls
I0413 18:46:32.599345 14057 net.cpp:408] rpn_big_cls_score -> rpn_big_cls_score
I0413 18:46:32.601653 14057 net.cpp:150] Setting up rpn_big_cls_score
I0413 18:46:32.601673 14057 net.cpp:157] Top shape: 1 52 61 92 (291824)
I0413 18:46:32.601676 14057 net.cpp:165] Memory required for data: 3604243892
I0413 18:46:32.601701 14057 layer_factory.hpp:77] Creating layer rpn_big_cls_score_rpn_big_cls_score_0_split
I0413 18:46:32.601711 14057 net.cpp:100] Creating Layer rpn_big_cls_score_rpn_big_cls_score_0_split
I0413 18:46:32.601714 14057 net.cpp:434] rpn_big_cls_score_rpn_big_cls_score_0_split <- rpn_big_cls_score
I0413 18:46:32.601722 14057 net.cpp:408] rpn_big_cls_score_rpn_big_cls_score_0_split -> rpn_big_cls_score_rpn_big_cls_score_0_split_0
I0413 18:46:32.601730 14057 net.cpp:408] rpn_big_cls_score_rpn_big_cls_score_0_split -> rpn_big_cls_score_rpn_big_cls_score_0_split_1
I0413 18:46:32.601763 14057 net.cpp:150] Setting up rpn_big_cls_score_rpn_big_cls_score_0_split
I0413 18:46:32.601770 14057 net.cpp:157] Top shape: 1 52 61 92 (291824)
I0413 18:46:32.601775 14057 net.cpp:157] Top shape: 1 52 61 92 (291824)
I0413 18:46:32.601778 14057 net.cpp:165] Memory required for data: 3606578484
I0413 18:46:32.601781 14057 layer_factory.hpp:77] Creating layer rpn_big_cls_score_reshape
I0413 18:46:32.601790 14057 net.cpp:100] Creating Layer rpn_big_cls_score_reshape
I0413 18:46:32.601795 14057 net.cpp:434] rpn_big_cls_score_reshape <- rpn_big_cls_score_rpn_big_cls_score_0_split_0
I0413 18:46:32.601801 14057 net.cpp:408] rpn_big_cls_score_reshape -> rpn_big_cls_score_reshape
I0413 18:46:32.601827 14057 net.cpp:150] Setting up rpn_big_cls_score_reshape
I0413 18:46:32.601833 14057 net.cpp:157] Top shape: 1 2 1586 92 (291824)
I0413 18:46:32.601836 14057 net.cpp:165] Memory required for data: 3607745780
I0413 18:46:32.601840 14057 layer_factory.hpp:77] Creating layer rpn_big_cls_score_reshape_rpn_big_cls_score_reshape_0_split
I0413 18:46:32.601846 14057 net.cpp:100] Creating Layer rpn_big_cls_score_reshape_rpn_big_cls_score_reshape_0_split
I0413 18:46:32.601851 14057 net.cpp:434] rpn_big_cls_score_reshape_rpn_big_cls_score_reshape_0_split <- rpn_big_cls_score_reshape
I0413 18:46:32.601857 14057 net.cpp:408] rpn_big_cls_score_reshape_rpn_big_cls_score_reshape_0_split -> rpn_big_cls_score_reshape_rpn_big_cls_score_reshape_0_split_0
I0413 18:46:32.601866 14057 net.cpp:408] rpn_big_cls_score_reshape_rpn_big_cls_score_reshape_0_split -> rpn_big_cls_score_reshape_rpn_big_cls_score_reshape_0_split_1
I0413 18:46:32.601897 14057 net.cpp:150] Setting up rpn_big_cls_score_reshape_rpn_big_cls_score_reshape_0_split
I0413 18:46:32.601903 14057 net.cpp:157] Top shape: 1 2 1586 92 (291824)
I0413 18:46:32.601907 14057 net.cpp:157] Top shape: 1 2 1586 92 (291824)
I0413 18:46:32.601910 14057 net.cpp:165] Memory required for data: 3610080372
I0413 18:46:32.601913 14057 layer_factory.hpp:77] Creating layer rpn_big_cls_prob
I0413 18:46:32.601919 14057 net.cpp:100] Creating Layer rpn_big_cls_prob
I0413 18:46:32.601922 14057 net.cpp:434] rpn_big_cls_prob <- rpn_big_cls_score_reshape_rpn_big_cls_score_reshape_0_split_0
I0413 18:46:32.601928 14057 net.cpp:408] rpn_big_cls_prob -> rpn_big_cls_prob
I0413 18:46:32.601980 14057 net.cpp:150] Setting up rpn_big_cls_prob
I0413 18:46:32.601987 14057 net.cpp:157] Top shape: 1 2 1586 92 (291824)
I0413 18:46:32.601990 14057 net.cpp:165] Memory required for data: 3611247668
I0413 18:46:32.601994 14057 layer_factory.hpp:77] Creating layer rpn_big_cls_prob_reshape
I0413 18:46:32.601999 14057 net.cpp:100] Creating Layer rpn_big_cls_prob_reshape
I0413 18:46:32.602002 14057 net.cpp:434] rpn_big_cls_prob_reshape <- rpn_big_cls_prob
I0413 18:46:32.602010 14057 net.cpp:408] rpn_big_cls_prob_reshape -> rpn_big_cls_prob_reshape
I0413 18:46:32.602030 14057 net.cpp:150] Setting up rpn_big_cls_prob_reshape
I0413 18:46:32.602036 14057 net.cpp:157] Top shape: 1 52 61 92 (291824)
I0413 18:46:32.602039 14057 net.cpp:165] Memory required for data: 3612414964
I0413 18:46:32.602042 14057 layer_factory.hpp:77] Creating layer rpn_big_cls_prob_reshape_rpn_big_cls_prob_reshape_0_split
I0413 18:46:32.602047 14057 net.cpp:100] Creating Layer rpn_big_cls_prob_reshape_rpn_big_cls_prob_reshape_0_split
I0413 18:46:32.602051 14057 net.cpp:434] rpn_big_cls_prob_reshape_rpn_big_cls_prob_reshape_0_split <- rpn_big_cls_prob_reshape
I0413 18:46:32.602057 14057 net.cpp:408] rpn_big_cls_prob_reshape_rpn_big_cls_prob_reshape_0_split -> rpn_big_cls_prob_reshape_rpn_big_cls_prob_reshape_0_split_0
I0413 18:46:32.602066 14057 net.cpp:408] rpn_big_cls_prob_reshape_rpn_big_cls_prob_reshape_0_split -> rpn_big_cls_prob_reshape_rpn_big_cls_prob_reshape_0_split_1
I0413 18:46:32.602093 14057 net.cpp:150] Setting up rpn_big_cls_prob_reshape_rpn_big_cls_prob_reshape_0_split
I0413 18:46:32.602100 14057 net.cpp:157] Top shape: 1 52 61 92 (291824)
I0413 18:46:32.602104 14057 net.cpp:157] Top shape: 1 52 61 92 (291824)
I0413 18:46:32.602108 14057 net.cpp:165] Memory required for data: 3614749556
I0413 18:46:32.602110 14057 layer_factory.hpp:77] Creating layer rpn_big_anchor_target
I0413 18:46:32.603426 14057 net.cpp:100] Creating Layer rpn_big_anchor_target
I0413 18:46:32.603443 14057 net.cpp:434] rpn_big_anchor_target <- rpn_big_cls_score_rpn_big_cls_score_0_split_1
I0413 18:46:32.603451 14057 net.cpp:434] rpn_big_anchor_target <- input_gt_boxes_input_2_split_0
I0413 18:46:32.603456 14057 net.cpp:434] rpn_big_anchor_target <- input_ignored_boxes
I0413 18:46:32.603461 14057 net.cpp:434] rpn_big_anchor_target <- input_im_info_input_1_split_0
I0413 18:46:32.603464 14057 net.cpp:434] rpn_big_anchor_target <- input_data_input_0_split_1
I0413 18:46:32.603468 14057 net.cpp:434] rpn_big_anchor_target <- rpn_big_cls_prob_reshape_rpn_big_cls_prob_reshape_0_split_0
I0413 18:46:32.603477 14057 net.cpp:408] rpn_big_anchor_target -> rpn_big_anchor_target_labels
I0413 18:46:32.603487 14057 net.cpp:408] rpn_big_anchor_target -> rpn_big_anchor_target_bbox_targets
I0413 18:46:32.603497 14057 net.cpp:408] rpn_big_anchor_target -> rpn_big_anchor_target_inside_weights
I0413 18:46:32.603504 14057 net.cpp:408] rpn_big_anchor_target -> rpn_big_anchor_target_outside_weights
I0413 18:46:32.608278 14057 net.cpp:150] Setting up rpn_big_anchor_target
I0413 18:46:32.608305 14057 net.cpp:157] Top shape: 1 1 1586 92 (145912)
I0413 18:46:32.608319 14057 net.cpp:157] Top shape: 1 104 61 92 (583648)
I0413 18:46:32.608324 14057 net.cpp:157] Top shape: 1 104 61 92 (583648)
I0413 18:46:32.608327 14057 net.cpp:157] Top shape: 1 104 61 92 (583648)
I0413 18:46:32.608330 14057 net.cpp:165] Memory required for data: 3622336980
I0413 18:46:32.608335 14057 layer_factory.hpp:77] Creating layer rpn_big_loss_cls
I0413 18:46:32.608346 14057 net.cpp:100] Creating Layer rpn_big_loss_cls
I0413 18:46:32.608352 14057 net.cpp:434] rpn_big_loss_cls <- rpn_big_cls_score_reshape_rpn_big_cls_score_reshape_0_split_1
I0413 18:46:32.608359 14057 net.cpp:434] rpn_big_loss_cls <- rpn_big_anchor_target_labels
I0413 18:46:32.608366 14057 net.cpp:408] rpn_big_loss_cls -> rpn_big_loss_cls
I0413 18:46:32.608379 14057 layer_factory.hpp:77] Creating layer rpn_big_loss_cls
I0413 18:46:32.609020 14057 net.cpp:150] Setting up rpn_big_loss_cls
I0413 18:46:32.609035 14057 net.cpp:157] Top shape: (1)
I0413 18:46:32.609040 14057 net.cpp:160]     with loss weight 1
I0413 18:46:32.609050 14057 net.cpp:165] Memory required for data: 3622336984
I0413 18:46:32.609055 14057 layer_factory.hpp:77] Creating layer rpn_big_output_box
I0413 18:46:32.609068 14057 net.cpp:100] Creating Layer rpn_big_output_box
I0413 18:46:32.609074 14057 net.cpp:434] rpn_big_output_box <- rpn_big_conv2_rpn_big_conv2_drop_0_split_1
I0413 18:46:32.609082 14057 net.cpp:408] rpn_big_output_box -> rpn_big_output_box
I0413 18:46:32.627743 14057 net.cpp:150] Setting up rpn_big_output_box
I0413 18:46:32.627774 14057 net.cpp:157] Top shape: 1 384 63 94 (2274048)
I0413 18:46:32.627786 14057 net.cpp:165] Memory required for data: 3631433176
I0413 18:46:32.627797 14057 layer_factory.hpp:77] Creating layer rpn_big_output_box_relu
I0413 18:46:32.627809 14057 net.cpp:100] Creating Layer rpn_big_output_box_relu
I0413 18:46:32.627815 14057 net.cpp:434] rpn_big_output_box_relu <- rpn_big_output_box
I0413 18:46:32.627822 14057 net.cpp:395] rpn_big_output_box_relu -> rpn_big_output_box (in-place)
I0413 18:46:32.627833 14057 net.cpp:150] Setting up rpn_big_output_box_relu
I0413 18:46:32.627837 14057 net.cpp:157] Top shape: 1 384 63 94 (2274048)
I0413 18:46:32.627840 14057 net.cpp:165] Memory required for data: 3640529368
I0413 18:46:32.627843 14057 layer_factory.hpp:77] Creating layer rpn_big_bbox_pred
I0413 18:46:32.627856 14057 net.cpp:100] Creating Layer rpn_big_bbox_pred
I0413 18:46:32.627859 14057 net.cpp:434] rpn_big_bbox_pred <- rpn_big_output_box
I0413 18:46:32.627866 14057 net.cpp:408] rpn_big_bbox_pred -> rpn_big_bbox_pred
I0413 18:46:32.631808 14057 net.cpp:150] Setting up rpn_big_bbox_pred
I0413 18:46:32.631824 14057 net.cpp:157] Top shape: 1 104 61 92 (583648)
I0413 18:46:32.631826 14057 net.cpp:165] Memory required for data: 3642863960
I0413 18:46:32.631841 14057 layer_factory.hpp:77] Creating layer rpn_big_bbox_pred_rpn_big_bbox_pred_0_split
I0413 18:46:32.631850 14057 net.cpp:100] Creating Layer rpn_big_bbox_pred_rpn_big_bbox_pred_0_split
I0413 18:46:32.631853 14057 net.cpp:434] rpn_big_bbox_pred_rpn_big_bbox_pred_0_split <- rpn_big_bbox_pred
I0413 18:46:32.631861 14057 net.cpp:408] rpn_big_bbox_pred_rpn_big_bbox_pred_0_split -> rpn_big_bbox_pred_rpn_big_bbox_pred_0_split_0
I0413 18:46:32.631870 14057 net.cpp:408] rpn_big_bbox_pred_rpn_big_bbox_pred_0_split -> rpn_big_bbox_pred_rpn_big_bbox_pred_0_split_1
I0413 18:46:32.631902 14057 net.cpp:150] Setting up rpn_big_bbox_pred_rpn_big_bbox_pred_0_split
I0413 18:46:32.631909 14057 net.cpp:157] Top shape: 1 104 61 92 (583648)
I0413 18:46:32.631913 14057 net.cpp:157] Top shape: 1 104 61 92 (583648)
I0413 18:46:32.631916 14057 net.cpp:165] Memory required for data: 3647533144
I0413 18:46:32.631919 14057 layer_factory.hpp:77] Creating layer rpn_big_loss_bbox
I0413 18:46:32.632275 14057 net.cpp:100] Creating Layer rpn_big_loss_bbox
I0413 18:46:32.632285 14057 net.cpp:434] rpn_big_loss_bbox <- rpn_big_bbox_pred_rpn_big_bbox_pred_0_split_0
I0413 18:46:32.632290 14057 net.cpp:434] rpn_big_loss_bbox <- rpn_big_anchor_target_bbox_targets
I0413 18:46:32.632303 14057 net.cpp:434] rpn_big_loss_bbox <- rpn_big_anchor_target_inside_weights
I0413 18:46:32.632308 14057 net.cpp:434] rpn_big_loss_bbox <- rpn_big_anchor_target_outside_weights
I0413 18:46:32.632314 14057 net.cpp:408] rpn_big_loss_bbox -> rpn_big_loss_bbox
I0413 18:46:32.634366 14057 net.cpp:150] Setting up rpn_big_loss_bbox
I0413 18:46:32.634399 14057 net.cpp:157] Top shape: 1 (1)
I0413 18:46:32.634403 14057 net.cpp:160]     with loss weight 1
I0413 18:46:32.634414 14057 net.cpp:165] Memory required for data: 3647533148
I0413 18:46:32.634420 14057 layer_factory.hpp:77] Creating layer proposal
I0413 18:46:32.634825 14057 net.cpp:100] Creating Layer proposal
I0413 18:46:32.634837 14057 net.cpp:434] proposal <- rpn_big_cls_prob_reshape_rpn_big_cls_prob_reshape_0_split_1
I0413 18:46:32.634845 14057 net.cpp:434] proposal <- rpn_big_bbox_pred_rpn_big_bbox_pred_0_split_1
I0413 18:46:32.634850 14057 net.cpp:434] proposal <- input_im_info_input_1_split_1
I0413 18:46:32.634856 14057 net.cpp:408] proposal -> rpn_rois
I0413 18:46:32.639127 14057 net.cpp:150] Setting up proposal
I0413 18:46:32.639148 14057 net.cpp:157] Top shape: 1 5 (5)
I0413 18:46:32.639153 14057 net.cpp:165] Memory required for data: 3647533168
I0413 18:46:32.639158 14057 layer_factory.hpp:77] Creating layer roi-data
I0413 18:46:32.639503 14057 net.cpp:100] Creating Layer roi-data
I0413 18:46:32.639513 14057 net.cpp:434] roi-data <- rpn_rois
I0413 18:46:32.639520 14057 net.cpp:434] roi-data <- input_gt_boxes_input_2_split_1
I0413 18:46:32.639528 14057 net.cpp:408] roi-data -> rois
I0413 18:46:32.639536 14057 net.cpp:408] roi-data -> labels
I0413 18:46:32.639544 14057 net.cpp:408] roi-data -> bbox_targets
I0413 18:46:32.639550 14057 net.cpp:408] roi-data -> bbox_inside_weights
I0413 18:46:32.639556 14057 net.cpp:408] roi-data -> bbox_outside_weights
I0413 18:46:32.639564 14057 net.cpp:408] roi-data -> pid_label
I0413 18:46:32.640491 14057 net.cpp:150] Setting up roi-data
I0413 18:46:32.640503 14057 net.cpp:157] Top shape: 1 5 (5)
I0413 18:46:32.640507 14057 net.cpp:157] Top shape: 1 1 (1)
I0413 18:46:32.640511 14057 net.cpp:157] Top shape: 1 8 (8)
I0413 18:46:32.640514 14057 net.cpp:157] Top shape: 1 8 (8)
I0413 18:46:32.640518 14057 net.cpp:157] Top shape: 1 8 (8)
I0413 18:46:32.640522 14057 net.cpp:157] Top shape: (0)
I0413 18:46:32.640523 14057 net.cpp:165] Memory required for data: 3647533288
I0413 18:46:32.640527 14057 layer_factory.hpp:77] Creating layer roi-pool
I0413 18:46:32.640534 14057 net.cpp:100] Creating Layer roi-pool
I0413 18:46:32.640539 14057 net.cpp:434] roi-pool <- conv5_3_relu5_3_0_split_1
I0413 18:46:32.640544 14057 net.cpp:434] roi-pool <- rois
I0413 18:46:32.640550 14057 net.cpp:408] roi-pool -> roi-pool
I0413 18:46:32.640559 14057 roi_pooling_layer.cpp:33] Spatial scale: 0.0625
I0413 18:46:32.640570 14057 roi_pooling_layer.cpp:34] Box scale: 1
I0413 18:46:32.640606 14057 net.cpp:150] Setting up roi-pool
I0413 18:46:32.640615 14057 net.cpp:157] Top shape: 1 512 7 7 (25088)
I0413 18:46:32.640619 14057 net.cpp:165] Memory required for data: 3647633640
I0413 18:46:32.640622 14057 layer_factory.hpp:77] Creating layer fc6
I0413 18:46:32.640630 14057 net.cpp:100] Creating Layer fc6
I0413 18:46:32.640633 14057 net.cpp:434] fc6 <- roi-pool
I0413 18:46:32.640640 14057 net.cpp:408] fc6 -> fc6
I0413 18:46:32.805068 14057 net.cpp:150] Setting up fc6
I0413 18:46:32.805099 14057 net.cpp:157] Top shape: 1 4096 (4096)
I0413 18:46:32.805112 14057 net.cpp:165] Memory required for data: 3647650024
I0413 18:46:32.805124 14057 layer_factory.hpp:77] Creating layer relu6
I0413 18:46:32.805138 14057 net.cpp:100] Creating Layer relu6
I0413 18:46:32.805143 14057 net.cpp:434] relu6 <- fc6
I0413 18:46:32.805151 14057 net.cpp:395] relu6 -> fc6 (in-place)
I0413 18:46:32.805164 14057 net.cpp:150] Setting up relu6
I0413 18:46:32.805174 14057 net.cpp:157] Top shape: 1 4096 (4096)
I0413 18:46:32.805179 14057 net.cpp:165] Memory required for data: 3647666408
I0413 18:46:32.805184 14057 layer_factory.hpp:77] Creating layer drop6
I0413 18:46:32.805194 14057 net.cpp:100] Creating Layer drop6
I0413 18:46:32.805202 14057 net.cpp:434] drop6 <- fc6
I0413 18:46:32.805208 14057 net.cpp:395] drop6 -> fc6 (in-place)
I0413 18:46:32.805230 14057 net.cpp:150] Setting up drop6
I0413 18:46:32.805238 14057 net.cpp:157] Top shape: 1 4096 (4096)
I0413 18:46:32.805240 14057 net.cpp:165] Memory required for data: 3647682792
I0413 18:46:32.805243 14057 layer_factory.hpp:77] Creating layer fc7
I0413 18:46:32.805249 14057 net.cpp:100] Creating Layer fc7
I0413 18:46:32.805253 14057 net.cpp:434] fc7 <- fc6
I0413 18:46:32.805258 14057 net.cpp:408] fc7 -> fc7
I0413 18:46:32.831681 14057 net.cpp:150] Setting up fc7
I0413 18:46:32.831718 14057 net.cpp:157] Top shape: 1 4096 (4096)
I0413 18:46:32.831730 14057 net.cpp:165] Memory required for data: 3647699176
I0413 18:46:32.831743 14057 layer_factory.hpp:77] Creating layer relu7
I0413 18:46:32.831765 14057 net.cpp:100] Creating Layer relu7
I0413 18:46:32.831770 14057 net.cpp:434] relu7 <- fc7
I0413 18:46:32.831779 14057 net.cpp:395] relu7 -> fc7 (in-place)
I0413 18:46:32.831789 14057 net.cpp:150] Setting up relu7
I0413 18:46:32.831792 14057 net.cpp:157] Top shape: 1 4096 (4096)
I0413 18:46:32.831795 14057 net.cpp:165] Memory required for data: 3647715560
I0413 18:46:32.831799 14057 layer_factory.hpp:77] Creating layer drop7
I0413 18:46:32.831805 14057 net.cpp:100] Creating Layer drop7
I0413 18:46:32.831809 14057 net.cpp:434] drop7 <- fc7
I0413 18:46:32.831812 14057 net.cpp:395] drop7 -> fc7 (in-place)
I0413 18:46:32.831833 14057 net.cpp:150] Setting up drop7
I0413 18:46:32.831840 14057 net.cpp:157] Top shape: 1 4096 (4096)
I0413 18:46:32.831843 14057 net.cpp:165] Memory required for data: 3647731944
I0413 18:46:32.831846 14057 layer_factory.hpp:77] Creating layer fc7_drop7_0_split
I0413 18:46:32.831854 14057 net.cpp:100] Creating Layer fc7_drop7_0_split
I0413 18:46:32.831857 14057 net.cpp:434] fc7_drop7_0_split <- fc7
I0413 18:46:32.831862 14057 net.cpp:408] fc7_drop7_0_split -> fc7_drop7_0_split_0
I0413 18:46:32.831879 14057 net.cpp:408] fc7_drop7_0_split -> fc7_drop7_0_split_1
I0413 18:46:32.831910 14057 net.cpp:150] Setting up fc7_drop7_0_split
I0413 18:46:32.831918 14057 net.cpp:157] Top shape: 1 4096 (4096)
I0413 18:46:32.831921 14057 net.cpp:157] Top shape: 1 4096 (4096)
I0413 18:46:32.831923 14057 net.cpp:165] Memory required for data: 3647764712
I0413 18:46:32.831926 14057 layer_factory.hpp:77] Creating layer bbox_pred
I0413 18:46:32.831933 14057 net.cpp:100] Creating Layer bbox_pred
I0413 18:46:32.831938 14057 net.cpp:434] bbox_pred <- fc7_drop7_0_split_0
I0413 18:46:32.831943 14057 net.cpp:408] bbox_pred -> bbox_pred
I0413 18:46:32.832360 14057 net.cpp:150] Setting up bbox_pred
I0413 18:46:32.832370 14057 net.cpp:157] Top shape: 1 8 (8)
I0413 18:46:32.832371 14057 net.cpp:165] Memory required for data: 3647764744
I0413 18:46:32.832377 14057 layer_factory.hpp:77] Creating layer loss_bbox
I0413 18:46:32.832386 14057 net.cpp:100] Creating Layer loss_bbox
I0413 18:46:32.832389 14057 net.cpp:434] loss_bbox <- bbox_pred
I0413 18:46:32.832394 14057 net.cpp:434] loss_bbox <- bbox_targets
I0413 18:46:32.832398 14057 net.cpp:434] loss_bbox <- bbox_inside_weights
I0413 18:46:32.832401 14057 net.cpp:434] loss_bbox <- bbox_outside_weights
I0413 18:46:32.832406 14057 net.cpp:408] loss_bbox -> loss_bbox
I0413 18:46:32.832471 14057 net.cpp:150] Setting up loss_bbox
I0413 18:46:32.832479 14057 net.cpp:157] Top shape: (1)
I0413 18:46:32.832482 14057 net.cpp:160]     with loss weight 1
I0413 18:46:32.832494 14057 net.cpp:165] Memory required for data: 3647764748
I0413 18:46:32.832497 14057 layer_factory.hpp:77] Creating layer feat
I0413 18:46:32.832502 14057 net.cpp:100] Creating Layer feat
I0413 18:46:32.832506 14057 net.cpp:434] feat <- fc7_drop7_0_split_1
I0413 18:46:32.832512 14057 net.cpp:408] feat -> feat
I0413 18:46:32.843708 14057 net.cpp:150] Setting up feat
I0413 18:46:32.843735 14057 net.cpp:157] Top shape: 1 256 (256)
I0413 18:46:32.843747 14057 net.cpp:165] Memory required for data: 3647765772
I0413 18:46:32.843758 14057 layer_factory.hpp:77] Creating layer relu8
I0413 18:46:32.843768 14057 net.cpp:100] Creating Layer relu8
I0413 18:46:32.843773 14057 net.cpp:434] relu8 <- feat
I0413 18:46:32.843780 14057 net.cpp:395] relu8 -> feat (in-place)
I0413 18:46:32.843791 14057 net.cpp:150] Setting up relu8
I0413 18:46:32.843796 14057 net.cpp:157] Top shape: 1 256 (256)
I0413 18:46:32.843797 14057 net.cpp:165] Memory required for data: 3647766796
I0413 18:46:32.843801 14057 layer_factory.hpp:77] Creating layer drop8
I0413 18:46:32.843806 14057 net.cpp:100] Creating Layer drop8
I0413 18:46:32.843809 14057 net.cpp:434] drop8 <- feat
I0413 18:46:32.843814 14057 net.cpp:395] drop8 -> feat (in-place)
I0413 18:46:32.843835 14057 net.cpp:150] Setting up drop8
I0413 18:46:32.843842 14057 net.cpp:157] Top shape: 1 256 (256)
I0413 18:46:32.843845 14057 net.cpp:165] Memory required for data: 3647767820
I0413 18:46:32.843848 14057 layer_factory.hpp:77] Creating layer pid_score
I0413 18:46:32.843855 14057 net.cpp:100] Creating Layer pid_score
I0413 18:46:32.843858 14057 net.cpp:434] pid_score <- feat
I0413 18:46:32.843864 14057 net.cpp:408] pid_score -> pid_score
I0413 18:46:32.859215 14057 net.cpp:150] Setting up pid_score
I0413 18:46:32.859251 14057 net.cpp:157] Top shape: 1 5533 (5533)
I0413 18:46:32.859258 14057 net.cpp:165] Memory required for data: 3647789952
I0413 18:46:32.859275 14057 layer_factory.hpp:77] Creating layer pid_loss
I0413 18:46:32.859289 14057 net.cpp:100] Creating Layer pid_loss
I0413 18:46:32.859297 14057 net.cpp:434] pid_loss <- pid_score
I0413 18:46:32.859305 14057 net.cpp:434] pid_loss <- pid_label
I0413 18:46:32.859318 14057 net.cpp:408] pid_loss -> pid_loss
…
