…
I0413 18:50:09.411593 14253 solver.cpp:48] Initializing solver from parameters: 
base_lr: 0.001
display: 20
lr_policy: "multistep"
gamma: 0.1
momentum: 0.9
weight_decay: 0.0005
snapshot: 0
snapshot_prefix: "faces_example"
net_param {
  name: "GeneratedModel_13_04_2017_18_50"
  layer {
    name: "input"
    type: "Python"
    top: "input_data"
    top: "input_im_info"
    top: "input_gt_boxes"
    top: "input_ignored_boxes"
    python_param {
      module: "layers.roi_data_layer"
      layer: "RoIDataLayer"
      param_str: "{\"num_classes\": 2}"
    }
  }
  layer {
    name: "conv1_1"
    type: "Convolution"
    bottom: "input_data"
    top: "conv1_1"
    param {
      lr_mult: 0
      decay_mult: 0
    }
    param {
      lr_mult: 0
      decay_mult: 0
    }
    convolution_param {
      num_output: 64
      pad: 1
      kernel_size: 3
    }
  }
  layer {
    name: "relu1_1"
    type: "ReLU"
    bottom: "conv1_1"
    top: "conv1_1"
  }
  layer {
    name: "conv1_2"
    type: "Convolution"
    bottom: "conv1_1"
    top: "conv1_2"
    param {
      lr_mult: 0
      decay_mult: 0
    }
    param {
      lr_mult: 0
      decay_mult: 0
    }
    convolution_param {
      num_output: 64
      pad: 1
      kernel_size: 3
    }
  }
  layer {
    name: "relu1_2"
    type: "ReLU"
    bottom: "conv1_2"
    top: "conv1_2"
  }
  layer {
    name: "pool1"
    type: "Pooling"
    bottom: "conv1_2"
    top: "pool1"
    pooling_param {
      pool: MAX
      kernel_size: 2
      stride: 2
    }
  }
  layer {
    name: "conv2_1"
    type: "Convolution"
    bottom: "pool1"
    top: "conv2_1"
    param {
      lr_mult: 0
      decay_mult: 0
    }
    param {
      lr_mult: 0
      decay_mult: 0
    }
    convolution_param {
      num_output: 128
      pad: 1
      kernel_size: 3
    }
  }
  layer {
    name: "relu2_1"
    type: "ReLU"
    bottom: "conv2_1"
    top: "conv2_1"
  }
  layer {
    name: "conv2_2"
    type: "Convolution"
    bottom: "conv2_1"
    top: "conv2_2"
    param {
      lr_mult: 0
      decay_mult: 0
    }
    param {
      lr_mult: 0
      decay_mult: 0
    }
    convolution_param {
      num_output: 128
      pad: 1
      kernel_size: 3
    }
  }
  layer {
    name: "relu2_2"
    type: "ReLU"
    bottom: "conv2_2"
    top: "conv2_2"
  }
  layer {
    name: "pool2"
    type: "Pooling"
    bottom: "conv2_2"
    top: "pool2"
    pooling_param {
      pool: MAX
      kernel_size: 2
      stride: 2
    }
  }
  layer {
    name: "conv3_1"
    type: "Convolution"
    bottom: "pool2"
    top: "conv3_1"
    param {
      lr_mult: 1
    }
    param {
      lr_mult: 2
    }
    convolution_param {
      num_output: 256
      pad: 1
      kernel_size: 3
    }
  }
  layer {
    name: "relu3_1"
    type: "ReLU"
    bottom: "conv3_1"
    top: "conv3_1"
  }
  layer {
    name: "conv3_2"
    type: "Convolution"
    bottom: "conv3_1"
    top: "conv3_2"
    param {
      lr_mult: 1
    }
    param {
      lr_mult: 2
    }
    convolution_param {
      num_output: 256
      pad: 1
      kernel_size: 3
    }
  }
  layer {
    name: "relu3_2"
    type: "ReLU"
    bottom: "conv3_2"
    top: "conv3_2"
  }
  layer {
    name: "conv3_3"
    type: "Convolution"
    bottom: "conv3_2"
    top: "conv3_3"
    param {
      lr_mult: 1
    }
    param {
      lr_mult: 2
    }
    convolution_param {
      num_output: 256
      pad: 1
      kernel_size: 3
    }
  }
  layer {
    name: "relu3_3"
    type: "ReLU"
    bottom: "conv3_3"
    top: "conv3_3"
  }
  layer {
    name: "pool3"
    type: "Pooling"
    bottom: "conv3_3"
    top: "pool3"
    pooling_param {
      pool: MAX
      kernel_size: 2
      stride: 2
    }
  }
  layer {
    name: "conv4_1"
    type: "Convolution"
    bottom: "pool3"
    top: "conv4_1"
    param {
      lr_mult: 1
    }
    param {
      lr_mult: 2
    }
    convolution_param {
      num_output: 512
      pad: 1
      kernel_size: 3
    }
  }
  layer {
    name: "relu4_1"
    type: "ReLU"
    bottom: "conv4_1"
    top: "conv4_1"
  }
  layer {
    name: "conv4_2"
    type: "Convolution"
    bottom: "conv4_1"
    top: "conv4_2"
    param {
      lr_mult: 1
    }
    param {
      lr_mult: 2
    }
    convolution_param {
      num_output: 512
      pad: 1
      kernel_size: 3
    }
  }
  layer {
    name: "relu4_2"
    type: "ReLU"
    bottom: "conv4_2"
    top: "conv4_2"
  }
  layer {
    name: "conv4_3"
    type: "Convolution"
    bottom: "conv4_2"
    top: "conv4_3"
    param {
      lr_mult: 1
    }
    param {
      lr_mult: 2
    }
    convolution_param {
      num_output: 512
      pad: 1
      kernel_size: 3
    }
  }
  layer {
    name: "relu4_3"
    type: "ReLU"
    bottom: "conv4_3"
    top: "conv4_3"
  }
  layer {
    name: "pool4"
    type: "Pooling"
    bottom: "conv4_3"
    top: "pool4"
    pooling_param {
      pool: MAX
      kernel_size: 2
      stride: 2
    }
  }
  layer {
    name: "conv5_1"
    type: "Convolution"
    bottom: "pool4"
    top: "conv5_1"
    param {
      lr_mult: 1
    }
    param {
      lr_mult: 2
    }
    convolution_param {
      num_output: 512
      pad: 1
      kernel_size: 3
    }
  }
  layer {
    name: "relu5_1"
    type: "ReLU"
    bottom: "conv5_1"
    top: "conv5_1"
  }
  layer {
    name: "conv5_2"
    type: "Convolution"
    bottom: "conv5_1"
    top: "conv5_2"
    param {
      lr_mult: 1
    }
    param {
      lr_mult: 2
    }
    convolution_param {
      num_output: 512
      pad: 1
      kernel_size: 3
    }
  }
  layer {
    name: "relu5_2"
    type: "ReLU"
    bottom: "conv5_2"
    top: "conv5_2"
  }
  layer {
    name: "conv5_3"
    type: "Convolution"
    bottom: "conv5_2"
    top: "conv5_3"
    param {
      lr_mult: 1
    }
    param {
      lr_mult: 2
    }
    convolution_param {
      num_output: 512
      pad: 1
      kernel_size: 3
    }
  }
  layer {
    name: "relu5_3"
    type: "ReLU"
    bottom: "conv5_3"
    top: "conv5_3"
  }
  layer {
    name: "rpn_big_conv1"
    type: "Convolution"
    bottom: "conv5_3"
    top: "rpn_big_conv1"
    param {
      lr_mult: 1
    }
    param {
      lr_mult: 2
    }
    convolution_param {
      num_output: 512
      pad: 1
      kernel_size: 3
      stride: 1
      weight_filler {
        type: "gaussian"
        mean: 0
        std: 0.01
      }
      bias_filler {
        type: "constant"
      }
    }
  }
  layer {
    name: "rpn_big_conv1_relu"
    type: "ReLU"
    bottom: "rpn_big_conv1"
    top: "rpn_big_conv1"
    relu_param {
      negative_slope: 0
    }
  }
  layer {
    name: "rpn_big_conv2"
    type: "Convolution"
    bottom: "rpn_big_conv1"
    top: "rpn_big_conv2"
    param {
      lr_mult: 1
    }
    param {
      lr_mult: 2
    }
    convolution_param {
      num_output: 512
      pad: 1
      kernel_size: 3
      stride: 1
      weight_filler {
        type: "gaussian"
        mean: 0
        std: 0.01
      }
      bias_filler {
        type: "constant"
      }
    }
  }
  layer {
    name: "rpn_big_conv2_relu"
    type: "ReLU"
    bottom: "rpn_big_conv2"
    top: "rpn_big_conv2"
    relu_param {
      negative_slope: 0
    }
  }
  layer {
    name: "rpn_big_conv2_drop"
    type: "Dropout"
    bottom: "rpn_big_conv2"
    top: "rpn_big_conv2"
    dropout_param {
      dropout_ratio: 0.3
    }
  }
  layer {
    name: "rpn_big_output_cls"
    type: "Convolution"
    bottom: "rpn_big_conv2"
    top: "rpn_big_output_cls"
    param {
      lr_mult: 1
    }
    param {
      lr_mult: 2
    }
    convolution_param {
      num_output: 384
      pad: 1
      kernel_size: 3
      stride: 1
      weight_filler {
        type: "gaussian"
        mean: 0
        std: 0.01
      }
      bias_filler {
        type: "constant"
      }
    }
  }
  layer {
    name: "rpn_big_output_cls_relu"
    type: "ReLU"
    bottom: "rpn_big_output_cls"
    top: "rpn_big_output_cls"
    relu_param {
      negative_slope: 0
    }
  }
  layer {
    name: "rpn_big_cls_score"
    type: "Convolution"
    bottom: "rpn_big_output_cls"
    top: "rpn_big_cls_score"
    param {
      lr_mult: 1
    }
    param {
      lr_mult: 2
    }
    convolution_param {
      num_output: 52
      pad: 0
      kernel_size: 3
      stride: 1
      weight_filler {
        type: "gaussian"
        mean: 0
        std: 0.01
      }
      bias_filler {
        type: "constant"
      }
    }
  }
  layer {
    name: "rpn_big_cls_score_reshape"
    type: "Reshape"
    bottom: "rpn_big_cls_score"
    top: "rpn_big_cls_score_reshape"
    reshape_param {
      shape {
        dim: 0
        dim: 2
        dim: -1
        dim: 0
      }
    }
  }
  layer {
    name: "rpn_big_cls_prob"
    type: "Softmax"
    bottom: "rpn_big_cls_score_reshape"
    top: "rpn_big_cls_prob"
  }
  layer {
    name: "rpn_big_cls_prob_reshape"
    type: "Reshape"
    bottom: "rpn_big_cls_prob"
    top: "rpn_big_cls_prob_reshape"
    reshape_param {
      shape {
        dim: 0
        dim: 52
        dim: -1
        dim: 0
      }
    }
  }
  layer {
    name: "rpn_big_anchor_target"
    type: "Python"
    bottom: "rpn_big_cls_score"
    bottom: "input_gt_boxes"
    bottom: "input_ignored_boxes"
    bottom: "input_im_info"
    bottom: "input_data"
    bottom: "rpn_big_cls_prob_reshape"
    top: "rpn_big_anchor_target_labels"
    top: "rpn_big_anchor_target_bbox_targets"
    top: "rpn_big_anchor_target_inside_weights"
    top: "rpn_big_anchor_target_outside_weights"
    python_param {
      module: "rpn.anchor_target_layer"
      layer: "AnchorTargetLayer"
      param_str: "{\"positive_overlap\": 0.6, \"feat_stride\": 16, \"tn_fraction\": 0.2, \"anchor_scales\": [2.5, 3.025, 3.66025, 4.4289024999999995, 5.358972025, 6.484356150249999, 7.846070941802498, 9.493745839581022, 11.487432465893036, 13.899793283730574, 16.818749873313998, 20.350687346709933, 24.62433168951902, 29.795441344318014], \"name\": \"rpn_big\", \"square_targets\": true, \"fg_fraction\": 0.5, \"anchor_shift_num_xy\": [[2, 2], [2, 2], [2, 2], [2, 2], [1, 1], [1, 1], [1, 1], [1, 1], [1, 1], [1, 1], [1, 1], [1, 1], [1, 1], [1, 1]], \"anchor_ratios\": [1.0], \"num_classes\": 1, \"batchsize\": 256, \"negative_overlap\": 0.4}"
    }
  }
  layer {
    name: "rpn_big_loss_cls"
    type: "SoftmaxWithLoss"
    bottom: "rpn_big_cls_score_reshape"
    bottom: "rpn_big_anchor_target_labels"
    top: "rpn_big_loss_cls"
    loss_weight: 1
    propagate_down: true
    propagate_down: false
    loss_param {
      ignore_label: -1
      normalization: VALID
    }
  }
  layer {
    name: "rpn_big_output_box"
    type: "Convolution"
    bottom: "rpn_big_conv2"
    top: "rpn_big_output_box"
    param {
      lr_mult: 1
    }
    param {
      lr_mult: 2
    }
    convolution_param {
      num_output: 384
      pad: 1
      kernel_size: 3
      stride: 1
      weight_filler {
        type: "gaussian"
        mean: 0
        std: 0.01
      }
      bias_filler {
        type: "constant"
      }
    }
  }
  layer {
    name: "rpn_big_output_box_relu"
    type: "ReLU"
    bottom: "rpn_big_output_box"
    top: "rpn_big_output_box"
    relu_param {
      negative_slope: 0
    }
  }
  layer {
    name: "rpn_big_bbox_pred"
    type: "Convolution"
    bottom: "rpn_big_output_box"
    top: "rpn_big_bbox_pred"
    param {
      lr_mult: 1
    }
    param {
      lr_mult: 2
    }
    convolution_param {
      num_output: 104
      pad: 0
      kernel_size: 3
      stride: 1
      weight_filler {
        type: "gaussian"
        mean: 0
        std: 0.01
      }
      bias_filler {
        type: "constant"
      }
    }
  }
  layer {
    name: "rpn_big_loss_bbox"
    type: "Python"
    bottom: "rpn_big_bbox_pred"
    bottom: "rpn_big_anchor_target_bbox_targets"
    bottom: "rpn_big_anchor_target_inside_weights"
    bottom: "rpn_big_anchor_target_outside_weights"
    top: "rpn_big_loss_bbox"
    loss_weight: 1
    python_param {
      module: "layers.smooth_l1_loss"
      layer: "SmoothL1LossLayer"
      param_str: "{\"sigma\": 3}"
    }
  }
  layer {
    name: "proposal"
    type: "Python"
    bottom: "rpn_big_cls_prob_reshape"
    bottom: "rpn_big_bbox_pred"
    bottom: "input_im_info"
    top: "rpn_rois"
    python_param {
      module: "rpn.proposal_layer"
      layer: "ProposalLayer"
      param_str: "{\"anchor_shift_num_xy\": [[2, 2], [2, 2], [2, 2], [2, 2], [1, 1], [1, 1], [1, 1], [1, 1], [1, 1], [1, 1], [1, 1], [1, 1], [1, 1], [1, 1]], \"feat_stride\": 16, \"num_classes\": 1, \"anchor_scales\": [2.5, 3.025, 3.66025, 4.4289024999999995, 5.358972025, 6.484356150249999, 7.846070941802498, 9.493745839581022, 11.487432465893036, 13.899793283730574, 16.818749873313998, 20.350687346709933, 24.62433168951902, 29.795441344318014], \"square_targets\": true, \"name\": \"rpn_big\", \"batchsize\": 256, \"anchor_ratios\": [1.0]}"
    }
  }
  layer {
    name: "roi-data"
    type: "Python"
    bottom: "rpn_rois"
    bottom: "input_gt_boxes"
    top: "rois"
    top: "labels"
    top: "bbox_targets"
    top: "bbox_inside_weights"
    top: "bbox_outside_weights"
    top: "pid_label"
    python_param {
      module: "rpn.proposal_target_layer"
      layer: "ProposalTargetLayer"
      param_str: "{\"num_classes\": 2, \"bg_aux_label\": 5532}"
    }
  }
  layer {
    name: "roi-pool"
    type: "ROIPooling"
    bottom: "conv5_3"
    bottom: "rois"
    top: "roi-pool"
    roi_pooling_param {
      pooled_h: 7
      pooled_w: 7
      spatial_scale: 0.0625
    }
  }
  layer {
    name: "fc6"
    type: "InnerProduct"
    bottom: "roi-pool"
    top: "fc6"
    param {
      lr_mult: 1
    }
    param {
      lr_mult: 2
    }
    inner_product_param {
      num_output: 4096
    }
  }
  layer {
    name: "relu6"
    type: "ReLU"
    bottom: "fc6"
    top: "fc6"
  }
  layer {
    name: "drop6"
    type: "Dropout"
    bottom: "fc6"
    top: "fc6"
    dropout_param {
      dropout_ratio: 0.5
    }
  }
  layer {
    name: "fc7"
    type: "InnerProduct"
    bottom: "fc6"
    top: "fc7"
    param {
      lr_mult: 1
    }
    param {
      lr_mult: 2
    }
    inner_product_param {
      num_output: 4096
    }
  }
  layer {
    name: "relu7"
    type: "ReLU"
    bottom: "fc7"
    top: "fc7"
  }
  layer {
    name: "drop7"
    type: "Dropout"
    bottom: "fc7"
    top: "fc7"
    dropout_param {
      dropout_ratio: 0.5
    }
  }
  layer {
    name: "bbox_pred"
    type: "InnerProduct"
    bottom: "fc7"
    top: "bbox_pred"
    param {
      lr_mult: 1
    }
    param {
      lr_mult: 2
    }
    inner_product_param {
      num_output: 8
      weight_filler {
        type: "gaussian"
        std: 0.001
      }
      bias_filler {
        type: "constant"
        value: 0
      }
    }
  }
  layer {
    name: "loss_bbox"
    type: "SmoothL1Loss"
    bottom: "bbox_pred"
    bottom: "bbox_targets"
    bottom: "bbox_inside_weights"
    bottom: "bbox_outside_weights"
    top: "loss_bbox"
    loss_weight: 1
  }
  layer {
    name: "feat"
    type: "InnerProduct"
    bottom: "fc7"
    top: "feat"
    param {
      lr_mult: 1
      decay_mult: 1
    }
    param {
      lr_mult: 2
      decay_mult: 0
    }
    inner_product_param {
      num_output: 256
      weight_filler {
        type: "gaussian"
        std: 0.01
      }
      bias_filler {
        type: "constant"
        value: 0
      }
    }
  }
  layer {
    name: "relu8"
    type: "ReLU"
    bottom: "feat"
    top: "feat"
  }
  layer {
    name: "drop8"
    type: "Dropout"
    bottom: "feat"
    top: "feat"
    dropout_param {
      dropout_ratio: 0.5
    }
  }
  layer {
    name: "pid_score"
    type: "InnerProduct"
    bottom: "feat"
    top: "pid_score"
    param {
      lr_mult: 1
      decay_mult: 1
    }
    param {
      lr_mult: 2
      decay_mult: 0
    }
    inner_product_param {
      num_output: 5533
      weight_filler {
        type: "gaussian"
        std: 0.001
      }
      bias_filler {
        type: "constant"
        value: 0
      }
    }
  }
  layer {
    name: "pid_loss"
    type: "SoftmaxWithLoss"
    bottom: "pid_score"
    bottom: "pid_label"
    top: "pid_loss"
    loss_weight: 1
    propagate_down: true
    propagate_down: false
    loss_param {
      ignore_label: -1
      normalize: true
    }
  }
}
average_loss: 100
stepvalue: 70000
stepvalue: 120000
iter_size: 2
I0413 18:50:09.413027 14253 solver.cpp:86] Creating training net specified in net_param.
I0413 18:50:09.413832 14253 net.cpp:58] Initializing net from parameters: 
name: "GeneratedModel_13_04_2017_18_50"
state {
  phase: TRAIN
}
layer {
  name: "input"
  type: "Python"
  top: "input_data"
  top: "input_im_info"
  top: "input_gt_boxes"
  top: "input_ignored_boxes"
  python_param {
    module: "layers.roi_data_layer"
    layer: "RoIDataLayer"
    param_str: "{\"num_classes\": 2}"
  }
}
layer {
  name: "conv1_1"
  type: "Convolution"
  bottom: "input_data"
  top: "conv1_1"
  param {
    lr_mult: 0
    decay_mult: 0
  }
  param {
    lr_mult: 0
    decay_mult: 0
  }
  convolution_param {
    num_output: 64
    pad: 1
    kernel_size: 3
  }
}
layer {
  name: "relu1_1"
  type: "ReLU"
  bottom: "conv1_1"
  top: "conv1_1"
}
layer {
  name: "conv1_2"
  type: "Convolution"
  bottom: "conv1_1"
  top: "conv1_2"
  param {
    lr_mult: 0
    decay_mult: 0
  }
  param {
    lr_mult: 0
    decay_mult: 0
  }
  convolution_param {
    num_output: 64
    pad: 1
    kernel_size: 3
  }
}
layer {
  name: "relu1_2"
  type: "ReLU"
  bottom: "conv1_2"
  top: "conv1_2"
}
layer {
  name: "pool1"
  type: "Pooling"
  bottom: "conv1_2"
  top: "pool1"
  pooling_param {
    pool: MAX
    kernel_size: 2
    stride: 2
  }
}
layer {
  name: "conv2_1"
  type: "Convolution"
  bottom: "pool1"
  top: "conv2_1"
  param {
    lr_mult: 0
    decay_mult: 0
  }
  param {
    lr_mult: 0
    decay_mult: 0
  }
  convolution_param {
    num_output: 128
    pad: 1
    kernel_size: 3
  }
}
layer {
  name: "relu2_1"
  type: "ReLU"
  bottom: "conv2_1"
  top: "conv2_1"
}
layer {
  name: "conv2_2"
  type: "Convolution"
  bottom: "conv2_1"
  top: "conv2_2"
  param {
    lr_mult: 0
    decay_mult: 0
  }
  param {
    lr_mult: 0
    decay_mult: 0
  }
  convolution_param {
    num_output: 128
    pad: 1
    kernel_size: 3
  }
}
layer {
  name: "relu2_2"
  type: "ReLU"
  bottom: "conv2_2"
  top: "conv2_2"
}
layer {
  name: "pool2"
  type: "Pooling"
  bottom: "conv2_2"
  top: "pool2"
  pooling_param {
    pool: MAX
    kernel_size: 2
    stride: 2
  }
}
layer {
  name: "conv3_1"
  type: "Convolution"
  bottom: "pool2"
  top: "conv3_1"
  param {
    lr_mult: 1
  }
  param {
    lr_mult: 2
  }
  convolution_param {
    num_output: 256
    pad: 1
    kernel_size: 3
  }
}
layer {
  name: "relu3_1"
  type: "ReLU"
  bottom: "conv3_1"
  top: "conv3_1"
}
layer {
  name: "conv3_2"
  type: "Convolution"
  bottom: "conv3_1"
  top: "conv3_2"
  param {
    lr_mult: 1
  }
  param {
    lr_mult: 2
  }
  convolution_param {
    num_output: 256
    pad: 1
    kernel_size: 3
  }
}
layer {
  name: "relu3_2"
  type: "ReLU"
  bottom: "conv3_2"
  top: "conv3_2"
}
layer {
  name: "conv3_3"
  type: "Convolution"
  bottom: "conv3_2"
  top: "conv3_3"
  param {
    lr_mult: 1
  }
  param {
    lr_mult: 2
  }
  convolution_param {
    num_output: 256
    pad: 1
    kernel_size: 3
  }
}
layer {
  name: "relu3_3"
  type: "ReLU"
  bottom: "conv3_3"
  top: "conv3_3"
}
layer {
  name: "pool3"
  type: "Pooling"
  bottom: "conv3_3"
  top: "pool3"
  pooling_param {
    pool: MAX
    kernel_size: 2
    stride: 2
  }
}
layer {
  name: "conv4_1"
  type: "Convolution"
  bottom: "pool3"
  top: "conv4_1"
  param {
    lr_mult: 1
  }
  param {
    lr_mult: 2
  }
  convolution_param {
    num_output: 512
    pad: 1
    kernel_size: 3
  }
}
layer {
  name: "relu4_1"
  type: "ReLU"
  bottom: "conv4_1"
  top: "conv4_1"
}
layer {
  name: "conv4_2"
  type: "Convolution"
  bottom: "conv4_1"
  top: "conv4_2"
  param {
    lr_mult: 1
  }
  param {
    lr_mult: 2
  }
  convolution_param {
    num_output: 512
    pad: 1
    kernel_size: 3
  }
}
layer {
  name: "relu4_2"
  type: "ReLU"
  bottom: "conv4_2"
  top: "conv4_2"
}
layer {
  name: "conv4_3"
  type: "Convolution"
  bottom: "conv4_2"
  top: "conv4_3"
  param {
    lr_mult: 1
  }
  param {
    lr_mult: 2
  }
  convolution_param {
    num_output: 512
    pad: 1
    kernel_size: 3
  }
}
layer {
  name: "relu4_3"
  type: "ReLU"
  bottom: "conv4_3"
  top: "conv4_3"
}
layer {
  name: "pool4"
  type: "Pooling"
  bottom: "conv4_3"
  top: "pool4"
  pooling_param {
    pool: MAX
    kernel_size: 2
    stride: 2
  }
}
layer {
  name: "conv5_1"
  type: "Convolution"
  bottom: "pool4"
  top: "conv5_1"
  param {
    lr_mult: 1
  }
  param {
    lr_mult: 2
  }
  convolution_param {
    num_output: 512
    pad: 1
    kernel_size: 3
  }
}
layer {
  name: "relu5_1"
  type: "ReLU"
  bottom: "conv5_1"
  top: "conv5_1"
}
layer {
  name: "conv5_2"
  type: "Convolution"
  bottom: "conv5_1"
  top: "conv5_2"
  param {
    lr_mult: 1
  }
  param {
    lr_mult: 2
  }
  convolution_param {
    num_output: 512
    pad: 1
    kernel_size: 3
  }
}
layer {
  name: "relu5_2"
  type: "ReLU"
  bottom: "conv5_2"
  top: "conv5_2"
}
layer {
  name: "conv5_3"
  type: "Convolution"
  bottom: "conv5_2"
  top: "conv5_3"
  param {
    lr_mult: 1
  }
  param {
    lr_mult: 2
  }
  convolution_param {
    num_output: 512
    pad: 1
    kernel_size: 3
  }
}
layer {
  name: "relu5_3"
  type: "ReLU"
  bottom: "conv5_3"
  top: "conv5_3"
}
layer {
  name: "rpn_big_conv1"
  type: "Convolution"
  bottom: "conv5_3"
  top: "rpn_big_conv1"
  param {
    lr_mult: 1
  }
  param {
    lr_mult: 2
  }
  convolution_param {
    num_output: 512
    pad: 1
    kernel_size: 3
    stride: 1
    weight_filler {
      type: "gaussian"
      mean: 0
      std: 0.01
    }
    bias_filler {
      type: "constant"
    }
  }
}
layer {
  name: "rpn_big_conv1_relu"
  type: "ReLU"
  bottom: "rpn_big_conv1"
  top: "rpn_big_conv1"
  relu_param {
    negative_slope: 0
  }
}
layer {
  name: "rpn_big_conv2"
  type: "Convolution"
  bottom: "rpn_big_conv1"
  top: "rpn_big_conv2"
  param {
    lr_mult: 1
  }
  param {
    lr_mult: 2
  }
  convolution_param {
    num_output: 512
    pad: 1
    kernel_size: 3
    stride: 1
    weight_filler {
      type: "gaussian"
      mean: 0
      std: 0.01
    }
    bias_filler {
      type: "constant"
    }
  }
}
layer {
  name: "rpn_big_conv2_relu"
  type: "ReLU"
  bottom: "rpn_big_conv2"
  top: "rpn_big_conv2"
  relu_param {
    negative_slope: 0
  }
}
layer {
  name: "rpn_big_conv2_drop"
  type: "Dropout"
  bottom: "rpn_big_conv2"
  top: "rpn_big_conv2"
  dropout_param {
    dropout_ratio: 0.3
  }
}
layer {
  name: "rpn_big_output_cls"
  type: "Convolution"
  bottom: "rpn_big_conv2"
  top: "rpn_big_output_cls"
  param {
    lr_mult: 1
  }
  param {
    lr_mult: 2
  }
  convolution_param {
    num_output: 384
    pad: 1
    kernel_size: 3
    stride: 1
    weight_filler {
      type: "gaussian"
      mean: 0
      std: 0.01
    }
    bias_filler {
      type: "constant"
    }
  }
}
layer {
  name: "rpn_big_output_cls_relu"
  type: "ReLU"
  bottom: "rpn_big_output_cls"
  top: "rpn_big_output_cls"
  relu_param {
    negative_slope: 0
  }
}
layer {
  name: "rpn_big_cls_score"
  type: "Convolution"
  bottom: "rpn_big_output_cls"
  top: "rpn_big_cls_score"
  param {
    lr_mult: 1
  }
  param {
    lr_mult: 2
  }
  convolution_param {
    num_output: 52
    pad: 0
    kernel_size: 3
    stride: 1
    weight_filler {
      type: "gaussian"
      mean: 0
      std: 0.01
    }
    bias_filler {
      type: "constant"
    }
  }
}
layer {
  name: "rpn_big_cls_score_reshape"
  type: "Reshape"
  bottom: "rpn_big_cls_score"
  top: "rpn_big_cls_score_reshape"
  reshape_param {
    shape {
      dim: 0
      dim: 2
      dim: -1
      dim: 0
    }
  }
}
layer {
  name: "rpn_big_cls_prob"
  type: "Softmax"
  bottom: "rpn_big_cls_score_reshape"
  top: "rpn_big_cls_prob"
}
layer {
  name: "rpn_big_cls_prob_reshape"
  type: "Reshape"
  bottom: "rpn_big_cls_prob"
  top: "rpn_big_cls_prob_reshape"
  reshape_param {
    shape {
      dim: 0
      dim: 52
      dim: -1
      dim: 0
    }
  }
}
layer {
  name: "rpn_big_anchor_target"
  type: "Python"
  bottom: "rpn_big_cls_score"
  bottom: "input_gt_boxes"
  bottom: "input_ignored_boxes"
  bottom: "input_im_info"
  bottom: "input_data"
  bottom: "rpn_big_cls_prob_reshape"
  top: "rpn_big_anchor_target_labels"
  top: "rpn_big_anchor_target_bbox_targets"
  top: "rpn_big_anchor_target_inside_weights"
  top: "rpn_big_anchor_target_outside_weights"
  python_param {
    module: "rpn.anchor_target_layer"
    layer: "AnchorTargetLayer"
    param_str: "{\"positive_overlap\": 0.6, \"feat_stride\": 16, \"tn_fraction\": 0.2, \"anchor_scales\": [2.5, 3.025, 3.66025, 4.4289024999999995, 5.358972025, 6.484356150249999, 7.846070941802498, 9.493745839581022, 11.487432465893036, 13.899793283730574, 16.818749873313998, 20.350687346709933, 24.62433168951902, 29.795441344318014], \"name\": \"rpn_big\", \"square_targets\": true, \"fg_fraction\": 0.5, \"anchor_shift_num_xy\": [[2, 2], [2, 2], [2, 2], [2, 2], [1, 1], [1, 1], [1, 1], [1, 1], [1, 1], [1, 1], [1, 1], [1, 1], [1, 1], [1, 1]], \"anchor_ratios\": [1.0], \"num_classes\": 1, \"batchsize\": 256, \"negative_overlap\": 0.4}"
  }
}
layer {
  name: "rpn_big_loss_cls"
  type: "SoftmaxWithLoss"
  bottom: "rpn_big_cls_score_reshape"
  bottom: "rpn_big_anchor_target_labels"
  top: "rpn_big_loss_cls"
  loss_weight: 1
  propagate_down: true
  propagate_down: false
  loss_param {
    ignore_label: -1
    normalization: VALID
  }
}
layer {
  name: "rpn_big_output_box"
  type: "Convolution"
  bottom: "rpn_big_conv2"
  top: "rpn_big_output_box"
  param {
    lr_mult: 1
  }
  param {
    lr_mult: 2
  }
  convolution_param {
    num_output: 384
    pad: 1
    kernel_size: 3
    stride: 1
    weight_filler {
      type: "gaussian"
      mean: 0
      std: 0.01
    }
    bias_filler {
      type: "constant"
    }
  }
}
layer {
  name: "rpn_big_output_box_relu"
  type: "ReLU"
  bottom: "rpn_big_output_box"
  top: "rpn_big_output_box"
  relu_param {
    negative_slope: 0
  }
}
layer {
  name: "rpn_big_bbox_pred"
  type: "Convolution"
  bottom: "rpn_big_output_box"
  top: "rpn_big_bbox_pred"
  param {
    lr_mult: 1
  }
  param {
    lr_mult: 2
  }
  convolution_param {
    num_output: 104
    pad: 0
    kernel_size: 3
    stride: 1
    weight_filler {
      type: "gaussian"
      mean: 0
      std: 0.01
    }
    bias_filler {
      type: "constant"
    }
  }
}
layer {
  name: "rpn_big_loss_bbox"
  type: "Python"
  bottom: "rpn_big_bbox_pred"
  bottom: "rpn_big_anchor_target_bbox_targets"
  bottom: "rpn_big_anchor_target_inside_weights"
  bottom: "rpn_big_anchor_target_outside_weights"
  top: "rpn_big_loss_bbox"
  loss_weight: 1
  python_param {
    module: "layers.smooth_l1_loss"
    layer: "SmoothL1LossLayer"
    param_str: "{\"sigma\": 3}"
  }
}
layer {
  name: "proposal"
  type: "Python"
  bottom: "rpn_big_cls_prob_reshape"
  bottom: "rpn_big_bbox_pred"
  bottom: "input_im_info"
  top: "rpn_rois"
  python_param {
    module: "rpn.proposal_layer"
    layer: "ProposalLayer"
    param_str: "{\"anchor_shift_num_xy\": [[2, 2], [2, 2], [2, 2], [2, 2], [1, 1], [1, 1], [1, 1], [1, 1], [1, 1], [1, 1], [1, 1], [1, 1], [1, 1], [1, 1]], \"feat_stride\": 16, \"num_classes\": 1, \"anchor_scales\": [2.5, 3.025, 3.66025, 4.4289024999999995, 5.358972025, 6.484356150249999, 7.846070941802498, 9.493745839581022, 11.487432465893036, 13.899793283730574, 16.818749873313998, 20.350687346709933, 24.62433168951902, 29.795441344318014], \"square_targets\": true, \"name\": \"rpn_big\", \"batchsize\": 256, \"anchor_ratios\": [1.0]}"
  }
}
layer {
  name: "roi-data"
  type: "Python"
  bottom: "rpn_rois"
  bottom: "input_gt_boxes"
  top: "rois"
  top: "labels"
  top: "bbox_targets"
  top: "bbox_inside_weights"
  top: "bbox_outside_weights"
  top: "pid_label"
  python_param {
    module: "rpn.proposal_target_layer"
    layer: "ProposalTargetLayer"
    param_str: "{\"num_classes\": 2, \"bg_aux_label\": 5532}"
  }
}
layer {
  name: "roi-pool"
  type: "ROIPooling"
  bottom: "conv5_3"
  bottom: "rois"
  top: "roi-pool"
  roi_pooling_param {
    pooled_h: 7
    pooled_w: 7
    spatial_scale: 0.0625
  }
}
layer {
  name: "fc6"
  type: "InnerProduct"
  bottom: "roi-pool"
  top: "fc6"
  param {
    lr_mult: 1
  }
  param {
    lr_mult: 2
  }
  inner_product_param {
    num_output: 4096
  }
}
layer {
  name: "relu6"
  type: "ReLU"
  bottom: "fc6"
  top: "fc6"
}
layer {
  name: "drop6"
  type: "Dropout"
  bottom: "fc6"
  top: "fc6"
  dropout_param {
    dropout_ratio: 0.5
  }
}
layer {
  name: "fc7"
  type: "InnerProduct"
  bottom: "fc6"
  top: "fc7"
  param {
    lr_mult: 1
  }
  param {
    lr_mult: 2
  }
  inner_product_param {
    num_output: 4096
  }
}
layer {
  name: "relu7"
  type: "ReLU"
  bottom: "fc7"
  top: "fc7"
}
layer {
  name: "drop7"
  type: "Dropout"
  bottom: "fc7"
  top: "fc7"
  dropout_param {
    dropout_ratio: 0.5
  }
}
layer {
  name: "bbox_pred"
  type: "InnerProduct"
  bottom: "fc7"
  top: "bbox_pred"
  param {
    lr_mult: 1
  }
  param {
    lr_mult: 2
  }
  inner_product_param {
    num_output: 8
    weight_filler {
      type: "gaussian"
      std: 0.001
    }
    bias_filler {
      type: "constant"
      value: 0
    }
  }
}
layer {
  name: "loss_bbox"
  type: "SmoothL1Loss"
  bottom: "bbox_pred"
  bottom: "bbox_targets"
  bottom: "bbox_inside_weights"
  bottom: "bbox_outside_weights"
  top: "loss_bbox"
  loss_weight: 1
}
layer {
  name: "feat"
  type: "InnerProduct"
  bottom: "fc7"
  top: "feat"
  param {
    lr_mult: 1
    decay_mult: 1
  }
  param {
    lr_mult: 2
    decay_mult: 0
  }
  inner_product_param {
    num_output: 256
    weight_filler {
      type: "gaussian"
      std: 0.01
    }
    bias_filler {
      type: "constant"
      value: 0
    }
  }
}
layer {
  name: "relu8"
  type: "ReLU"
  bottom: "feat"
  top: "feat"
}
layer {
  name: "drop8"
  type: "Dropout"
  bottom: "feat"
  top: "feat"
  dropout_param {
    dropout_ratio: 0.5
  }
}
layer {
  name: "pid_score"
  type: "InnerProduct"
  bottom: "feat"
  top: "pid_score"
  param {
    lr_mult: 1
    decay_mult: 1
  }
  param {
    lr_mult: 2
    decay_mult: 0
  }
  inner_product_param {
    num_output: 5533
    weight_filler {
      type: "gaussian"
      std: 0.001
    }
    bias_filler {
      type: "constant"
      value: 0
    }
  }
}
layer {
  name: "pid_loss"
  type: "SoftmaxWithLoss"
  bottom: "pid_score"
  bottom: "pid_label"
  top: "pid_loss"
  loss_weight: 1
  propagate_down: true
  propagate_down: false
  loss_param {
    ignore_label: -1
    normalize: true
  }
}
I0413 18:50:09.414743 14253 layer_factory.hpp:77] Creating layer input
I0413 18:50:09.416522 14253 net.cpp:100] Creating Layer input
I0413 18:50:09.416540 14253 net.cpp:408] input -> input_data
I0413 18:50:09.416558 14253 net.cpp:408] input -> input_im_info
I0413 18:50:09.416569 14253 net.cpp:408] input -> input_gt_boxes
I0413 18:50:09.416582 14253 net.cpp:408] input -> input_ignored_boxes
RoiDataLayer: name_to_top: {'ignored_boxes': 3, 'im_info': 1, 'data': 0, 'gt_boxes': 2}
I0413 18:50:09.735198 14253 net.cpp:150] Setting up input
I0413 18:50:09.735232 14253 net.cpp:157] Top shape: 1 3 1000 1500 (4500000)
I0413 18:50:09.735245 14253 net.cpp:157] Top shape: 1 3 (3)
I0413 18:50:09.735255 14253 net.cpp:157] Top shape: 1 5 (5)
I0413 18:50:09.735262 14253 net.cpp:157] Top shape: 1 5 (5)
I0413 18:50:09.735267 14253 net.cpp:165] Memory required for data: 18000052
I0413 18:50:09.735277 14253 layer_factory.hpp:77] Creating layer input_data_input_0_split
I0413 18:50:09.735296 14253 net.cpp:100] Creating Layer input_data_input_0_split
I0413 18:50:09.735304 14253 net.cpp:434] input_data_input_0_split <- input_data
I0413 18:50:09.735318 14253 net.cpp:408] input_data_input_0_split -> input_data_input_0_split_0
I0413 18:50:09.735340 14253 net.cpp:408] input_data_input_0_split -> input_data_input_0_split_1
I0413 18:50:09.735383 14253 net.cpp:150] Setting up input_data_input_0_split
I0413 18:50:09.735394 14253 net.cpp:157] Top shape: 1 3 1000 1500 (4500000)
I0413 18:50:09.735402 14253 net.cpp:157] Top shape: 1 3 1000 1500 (4500000)
I0413 18:50:09.735409 14253 net.cpp:165] Memory required for data: 54000052
I0413 18:50:09.735414 14253 layer_factory.hpp:77] Creating layer input_im_info_input_1_split
I0413 18:50:09.735425 14253 net.cpp:100] Creating Layer input_im_info_input_1_split
I0413 18:50:09.735432 14253 net.cpp:434] input_im_info_input_1_split <- input_im_info
I0413 18:50:09.735445 14253 net.cpp:408] input_im_info_input_1_split -> input_im_info_input_1_split_0
I0413 18:50:09.735457 14253 net.cpp:408] input_im_info_input_1_split -> input_im_info_input_1_split_1
I0413 18:50:09.735493 14253 net.cpp:150] Setting up input_im_info_input_1_split
I0413 18:50:09.735505 14253 net.cpp:157] Top shape: 1 3 (3)
I0413 18:50:09.735513 14253 net.cpp:157] Top shape: 1 3 (3)
I0413 18:50:09.735519 14253 net.cpp:165] Memory required for data: 54000076
I0413 18:50:09.735525 14253 layer_factory.hpp:77] Creating layer input_gt_boxes_input_2_split
I0413 18:50:09.735534 14253 net.cpp:100] Creating Layer input_gt_boxes_input_2_split
I0413 18:50:09.735541 14253 net.cpp:434] input_gt_boxes_input_2_split <- input_gt_boxes
I0413 18:50:09.735550 14253 net.cpp:408] input_gt_boxes_input_2_split -> input_gt_boxes_input_2_split_0
I0413 18:50:09.735564 14253 net.cpp:408] input_gt_boxes_input_2_split -> input_gt_boxes_input_2_split_1
I0413 18:50:09.735600 14253 net.cpp:150] Setting up input_gt_boxes_input_2_split
I0413 18:50:09.735610 14253 net.cpp:157] Top shape: 1 5 (5)
I0413 18:50:09.735618 14253 net.cpp:157] Top shape: 1 5 (5)
I0413 18:50:09.735623 14253 net.cpp:165] Memory required for data: 54000116
I0413 18:50:09.735630 14253 layer_factory.hpp:77] Creating layer conv1_1
I0413 18:50:09.735651 14253 net.cpp:100] Creating Layer conv1_1
I0413 18:50:09.735657 14253 net.cpp:434] conv1_1 <- input_data_input_0_split_0
I0413 18:50:09.735668 14253 net.cpp:408] conv1_1 -> conv1_1
I0413 18:50:09.739159 14253 net.cpp:150] Setting up conv1_1
I0413 18:50:09.739197 14253 net.cpp:157] Top shape: 1 64 1000 1500 (96000000)
I0413 18:50:09.739203 14253 net.cpp:165] Memory required for data: 438000116
I0413 18:50:09.739229 14253 layer_factory.hpp:77] Creating layer relu1_1
I0413 18:50:09.739244 14253 net.cpp:100] Creating Layer relu1_1
I0413 18:50:09.739253 14253 net.cpp:434] relu1_1 <- conv1_1
I0413 18:50:09.739266 14253 net.cpp:395] relu1_1 -> conv1_1 (in-place)
I0413 18:50:09.739282 14253 net.cpp:150] Setting up relu1_1
I0413 18:50:09.739292 14253 net.cpp:157] Top shape: 1 64 1000 1500 (96000000)
I0413 18:50:09.739298 14253 net.cpp:165] Memory required for data: 822000116
I0413 18:50:09.739305 14253 layer_factory.hpp:77] Creating layer conv1_2
I0413 18:50:09.739327 14253 net.cpp:100] Creating Layer conv1_2
I0413 18:50:09.739334 14253 net.cpp:434] conv1_2 <- conv1_1
I0413 18:50:09.739346 14253 net.cpp:408] conv1_2 -> conv1_2
I0413 18:50:09.742772 14253 net.cpp:150] Setting up conv1_2
I0413 18:50:09.742817 14253 net.cpp:157] Top shape: 1 64 1000 1500 (96000000)
I0413 18:50:09.742822 14253 net.cpp:165] Memory required for data: 1206000116
I0413 18:50:09.742853 14253 layer_factory.hpp:77] Creating layer relu1_2
I0413 18:50:09.742871 14253 net.cpp:100] Creating Layer relu1_2
I0413 18:50:09.742880 14253 net.cpp:434] relu1_2 <- conv1_2
I0413 18:50:09.742893 14253 net.cpp:395] relu1_2 -> conv1_2 (in-place)
I0413 18:50:09.742909 14253 net.cpp:150] Setting up relu1_2
I0413 18:50:09.742924 14253 net.cpp:157] Top shape: 1 64 1000 1500 (96000000)
I0413 18:50:09.742931 14253 net.cpp:165] Memory required for data: 1590000116
I0413 18:50:09.742938 14253 layer_factory.hpp:77] Creating layer pool1
I0413 18:50:09.742954 14253 net.cpp:100] Creating Layer pool1
I0413 18:50:09.742961 14253 net.cpp:434] pool1 <- conv1_2
I0413 18:50:09.742971 14253 net.cpp:408] pool1 -> pool1
I0413 18:50:09.743052 14253 net.cpp:150] Setting up pool1
I0413 18:50:09.743062 14253 net.cpp:157] Top shape: 1 64 500 750 (24000000)
I0413 18:50:09.743067 14253 net.cpp:165] Memory required for data: 1686000116
I0413 18:50:09.743073 14253 layer_factory.hpp:77] Creating layer conv2_1
I0413 18:50:09.743093 14253 net.cpp:100] Creating Layer conv2_1
I0413 18:50:09.743101 14253 net.cpp:434] conv2_1 <- pool1
I0413 18:50:09.743113 14253 net.cpp:408] conv2_1 -> conv2_1
I0413 18:50:09.744307 14253 net.cpp:150] Setting up conv2_1
I0413 18:50:09.744329 14253 net.cpp:157] Top shape: 1 128 500 750 (48000000)
I0413 18:50:09.744335 14253 net.cpp:165] Memory required for data: 1878000116
I0413 18:50:09.744359 14253 layer_factory.hpp:77] Creating layer relu2_1
I0413 18:50:09.744374 14253 net.cpp:100] Creating Layer relu2_1
I0413 18:50:09.744382 14253 net.cpp:434] relu2_1 <- conv2_1
I0413 18:50:09.744392 14253 net.cpp:395] relu2_1 -> conv2_1 (in-place)
I0413 18:50:09.744405 14253 net.cpp:150] Setting up relu2_1
I0413 18:50:09.744415 14253 net.cpp:157] Top shape: 1 128 500 750 (48000000)
I0413 18:50:09.744421 14253 net.cpp:165] Memory required for data: 2070000116
I0413 18:50:09.744427 14253 layer_factory.hpp:77] Creating layer conv2_2
I0413 18:50:09.744442 14253 net.cpp:100] Creating Layer conv2_2
I0413 18:50:09.744449 14253 net.cpp:434] conv2_2 <- conv2_1
I0413 18:50:09.744459 14253 net.cpp:408] conv2_2 -> conv2_2
I0413 18:50:09.745434 14253 net.cpp:150] Setting up conv2_2
I0413 18:50:09.745458 14253 net.cpp:157] Top shape: 1 128 500 750 (48000000)
I0413 18:50:09.745465 14253 net.cpp:165] Memory required for data: 2262000116
I0413 18:50:09.745486 14253 layer_factory.hpp:77] Creating layer relu2_2
I0413 18:50:09.745498 14253 net.cpp:100] Creating Layer relu2_2
I0413 18:50:09.745507 14253 net.cpp:434] relu2_2 <- conv2_2
I0413 18:50:09.745518 14253 net.cpp:395] relu2_2 -> conv2_2 (in-place)
I0413 18:50:09.745532 14253 net.cpp:150] Setting up relu2_2
I0413 18:50:09.745542 14253 net.cpp:157] Top shape: 1 128 500 750 (48000000)
I0413 18:50:09.745550 14253 net.cpp:165] Memory required for data: 2454000116
I0413 18:50:09.745556 14253 layer_factory.hpp:77] Creating layer pool2
I0413 18:50:09.745568 14253 net.cpp:100] Creating Layer pool2
I0413 18:50:09.745574 14253 net.cpp:434] pool2 <- conv2_2
I0413 18:50:09.745586 14253 net.cpp:408] pool2 -> pool2
I0413 18:50:09.745636 14253 net.cpp:150] Setting up pool2
I0413 18:50:09.745646 14253 net.cpp:157] Top shape: 1 128 250 375 (12000000)
I0413 18:50:09.745652 14253 net.cpp:165] Memory required for data: 2502000116
I0413 18:50:09.745661 14253 layer_factory.hpp:77] Creating layer conv3_1
I0413 18:50:09.745676 14253 net.cpp:100] Creating Layer conv3_1
I0413 18:50:09.745682 14253 net.cpp:434] conv3_1 <- pool2
I0413 18:50:09.745692 14253 net.cpp:408] conv3_1 -> conv3_1
I0413 18:50:09.746831 14253 net.cpp:150] Setting up conv3_1
I0413 18:50:09.746860 14253 net.cpp:157] Top shape: 1 256 250 375 (24000000)
I0413 18:50:09.746865 14253 net.cpp:165] Memory required for data: 2598000116
I0413 18:50:09.746884 14253 layer_factory.hpp:77] Creating layer relu3_1
I0413 18:50:09.746896 14253 net.cpp:100] Creating Layer relu3_1
I0413 18:50:09.746906 14253 net.cpp:434] relu3_1 <- conv3_1
I0413 18:50:09.746919 14253 net.cpp:395] relu3_1 -> conv3_1 (in-place)
I0413 18:50:09.746933 14253 net.cpp:150] Setting up relu3_1
I0413 18:50:09.746942 14253 net.cpp:157] Top shape: 1 256 250 375 (24000000)
I0413 18:50:09.746948 14253 net.cpp:165] Memory required for data: 2694000116
I0413 18:50:09.746954 14253 layer_factory.hpp:77] Creating layer conv3_2
I0413 18:50:09.746970 14253 net.cpp:100] Creating Layer conv3_2
I0413 18:50:09.746976 14253 net.cpp:434] conv3_2 <- conv3_1
I0413 18:50:09.746987 14253 net.cpp:408] conv3_2 -> conv3_2
I0413 18:50:09.748168 14253 net.cpp:150] Setting up conv3_2
I0413 18:50:09.748195 14253 net.cpp:157] Top shape: 1 256 250 375 (24000000)
I0413 18:50:09.748200 14253 net.cpp:165] Memory required for data: 2790000116
I0413 18:50:09.748214 14253 layer_factory.hpp:77] Creating layer relu3_2
I0413 18:50:09.748227 14253 net.cpp:100] Creating Layer relu3_2
I0413 18:50:09.748234 14253 net.cpp:434] relu3_2 <- conv3_2
I0413 18:50:09.748247 14253 net.cpp:395] relu3_2 -> conv3_2 (in-place)
I0413 18:50:09.748261 14253 net.cpp:150] Setting up relu3_2
I0413 18:50:09.748270 14253 net.cpp:157] Top shape: 1 256 250 375 (24000000)
I0413 18:50:09.748277 14253 net.cpp:165] Memory required for data: 2886000116
I0413 18:50:09.748284 14253 layer_factory.hpp:77] Creating layer conv3_3
I0413 18:50:09.748299 14253 net.cpp:100] Creating Layer conv3_3
I0413 18:50:09.748306 14253 net.cpp:434] conv3_3 <- conv3_2
I0413 18:50:09.748316 14253 net.cpp:408] conv3_3 -> conv3_3
I0413 18:50:09.749882 14253 net.cpp:150] Setting up conv3_3
I0413 18:50:09.749917 14253 net.cpp:157] Top shape: 1 256 250 375 (24000000)
I0413 18:50:09.749922 14253 net.cpp:165] Memory required for data: 2982000116
I0413 18:50:09.749938 14253 layer_factory.hpp:77] Creating layer relu3_3
I0413 18:50:09.749951 14253 net.cpp:100] Creating Layer relu3_3
I0413 18:50:09.749959 14253 net.cpp:434] relu3_3 <- conv3_3
I0413 18:50:09.749975 14253 net.cpp:395] relu3_3 -> conv3_3 (in-place)
I0413 18:50:09.749989 14253 net.cpp:150] Setting up relu3_3
I0413 18:50:09.749999 14253 net.cpp:157] Top shape: 1 256 250 375 (24000000)
I0413 18:50:09.750005 14253 net.cpp:165] Memory required for data: 3078000116
I0413 18:50:09.750011 14253 layer_factory.hpp:77] Creating layer pool3
I0413 18:50:09.750025 14253 net.cpp:100] Creating Layer pool3
I0413 18:50:09.750030 14253 net.cpp:434] pool3 <- conv3_3
I0413 18:50:09.750041 14253 net.cpp:408] pool3 -> pool3
I0413 18:50:09.750089 14253 net.cpp:150] Setting up pool3
I0413 18:50:09.750102 14253 net.cpp:157] Top shape: 1 256 125 188 (6016000)
I0413 18:50:09.750108 14253 net.cpp:165] Memory required for data: 3102064116
I0413 18:50:09.750115 14253 layer_factory.hpp:77] Creating layer conv4_1
I0413 18:50:09.750128 14253 net.cpp:100] Creating Layer conv4_1
I0413 18:50:09.750135 14253 net.cpp:434] conv4_1 <- pool3
I0413 18:50:09.750147 14253 net.cpp:408] conv4_1 -> conv4_1
I0413 18:50:09.754868 14253 net.cpp:150] Setting up conv4_1
I0413 18:50:09.754905 14253 net.cpp:157] Top shape: 1 512 125 188 (12032000)
I0413 18:50:09.754911 14253 net.cpp:165] Memory required for data: 3150192116
I0413 18:50:09.754927 14253 layer_factory.hpp:77] Creating layer relu4_1
I0413 18:50:09.754943 14253 net.cpp:100] Creating Layer relu4_1
I0413 18:50:09.754951 14253 net.cpp:434] relu4_1 <- conv4_1
I0413 18:50:09.754966 14253 net.cpp:395] relu4_1 -> conv4_1 (in-place)
I0413 18:50:09.754981 14253 net.cpp:150] Setting up relu4_1
I0413 18:50:09.754989 14253 net.cpp:157] Top shape: 1 512 125 188 (12032000)
I0413 18:50:09.754997 14253 net.cpp:165] Memory required for data: 3198320116
I0413 18:50:09.755003 14253 layer_factory.hpp:77] Creating layer conv4_2
I0413 18:50:09.755017 14253 net.cpp:100] Creating Layer conv4_2
I0413 18:50:09.755024 14253 net.cpp:434] conv4_2 <- conv4_1
I0413 18:50:09.755036 14253 net.cpp:408] conv4_2 -> conv4_2
I0413 18:50:09.759646 14253 net.cpp:150] Setting up conv4_2
I0413 18:50:09.759683 14253 net.cpp:157] Top shape: 1 512 125 188 (12032000)
I0413 18:50:09.759690 14253 net.cpp:165] Memory required for data: 3246448116
I0413 18:50:09.759713 14253 layer_factory.hpp:77] Creating layer relu4_2
I0413 18:50:09.759730 14253 net.cpp:100] Creating Layer relu4_2
I0413 18:50:09.759738 14253 net.cpp:434] relu4_2 <- conv4_2
I0413 18:50:09.759752 14253 net.cpp:395] relu4_2 -> conv4_2 (in-place)
I0413 18:50:09.759768 14253 net.cpp:150] Setting up relu4_2
I0413 18:50:09.759776 14253 net.cpp:157] Top shape: 1 512 125 188 (12032000)
I0413 18:50:09.759783 14253 net.cpp:165] Memory required for data: 3294576116
I0413 18:50:09.759788 14253 layer_factory.hpp:77] Creating layer conv4_3
I0413 18:50:09.759801 14253 net.cpp:100] Creating Layer conv4_3
I0413 18:50:09.759809 14253 net.cpp:434] conv4_3 <- conv4_2
I0413 18:50:09.759821 14253 net.cpp:408] conv4_3 -> conv4_3
I0413 18:50:09.764354 14253 net.cpp:150] Setting up conv4_3
I0413 18:50:09.764400 14253 net.cpp:157] Top shape: 1 512 125 188 (12032000)
I0413 18:50:09.764408 14253 net.cpp:165] Memory required for data: 3342704116
I0413 18:50:09.764425 14253 layer_factory.hpp:77] Creating layer relu4_3
I0413 18:50:09.764438 14253 net.cpp:100] Creating Layer relu4_3
I0413 18:50:09.764446 14253 net.cpp:434] relu4_3 <- conv4_3
I0413 18:50:09.764461 14253 net.cpp:395] relu4_3 -> conv4_3 (in-place)
I0413 18:50:09.764475 14253 net.cpp:150] Setting up relu4_3
I0413 18:50:09.764482 14253 net.cpp:157] Top shape: 1 512 125 188 (12032000)
I0413 18:50:09.764487 14253 net.cpp:165] Memory required for data: 3390832116
I0413 18:50:09.764492 14253 layer_factory.hpp:77] Creating layer pool4
I0413 18:50:09.764504 14253 net.cpp:100] Creating Layer pool4
I0413 18:50:09.764509 14253 net.cpp:434] pool4 <- conv4_3
I0413 18:50:09.764516 14253 net.cpp:408] pool4 -> pool4
I0413 18:50:09.764559 14253 net.cpp:150] Setting up pool4
I0413 18:50:09.764566 14253 net.cpp:157] Top shape: 1 512 63 94 (3032064)
I0413 18:50:09.764570 14253 net.cpp:165] Memory required for data: 3402960372
I0413 18:50:09.764576 14253 layer_factory.hpp:77] Creating layer conv5_1
I0413 18:50:09.764593 14253 net.cpp:100] Creating Layer conv5_1
I0413 18:50:09.764600 14253 net.cpp:434] conv5_1 <- pool4
I0413 18:50:09.764606 14253 net.cpp:408] conv5_1 -> conv5_1
I0413 18:50:09.772063 14253 net.cpp:150] Setting up conv5_1
I0413 18:50:09.772095 14253 net.cpp:157] Top shape: 1 512 63 94 (3032064)
I0413 18:50:09.772099 14253 net.cpp:165] Memory required for data: 3415088628
I0413 18:50:09.772115 14253 layer_factory.hpp:77] Creating layer relu5_1
I0413 18:50:09.772128 14253 net.cpp:100] Creating Layer relu5_1
I0413 18:50:09.772136 14253 net.cpp:434] relu5_1 <- conv5_1
I0413 18:50:09.772150 14253 net.cpp:395] relu5_1 -> conv5_1 (in-place)
I0413 18:50:09.772163 14253 net.cpp:150] Setting up relu5_1
I0413 18:50:09.772171 14253 net.cpp:157] Top shape: 1 512 63 94 (3032064)
I0413 18:50:09.772176 14253 net.cpp:165] Memory required for data: 3427216884
I0413 18:50:09.772181 14253 layer_factory.hpp:77] Creating layer conv5_2
I0413 18:50:09.772191 14253 net.cpp:100] Creating Layer conv5_2
I0413 18:50:09.772194 14253 net.cpp:434] conv5_2 <- conv5_1
I0413 18:50:09.772200 14253 net.cpp:408] conv5_2 -> conv5_2
I0413 18:50:09.776360 14253 net.cpp:150] Setting up conv5_2
I0413 18:50:09.776391 14253 net.cpp:157] Top shape: 1 512 63 94 (3032064)
I0413 18:50:09.776396 14253 net.cpp:165] Memory required for data: 3439345140
I0413 18:50:09.776406 14253 layer_factory.hpp:77] Creating layer relu5_2
I0413 18:50:09.776414 14253 net.cpp:100] Creating Layer relu5_2
I0413 18:50:09.776419 14253 net.cpp:434] relu5_2 <- conv5_2
I0413 18:50:09.776429 14253 net.cpp:395] relu5_2 -> conv5_2 (in-place)
I0413 18:50:09.776443 14253 net.cpp:150] Setting up relu5_2
I0413 18:50:09.776448 14253 net.cpp:157] Top shape: 1 512 63 94 (3032064)
I0413 18:50:09.776453 14253 net.cpp:165] Memory required for data: 3451473396
I0413 18:50:09.776459 14253 layer_factory.hpp:77] Creating layer conv5_3
I0413 18:50:09.776480 14253 net.cpp:100] Creating Layer conv5_3
I0413 18:50:09.776485 14253 net.cpp:434] conv5_3 <- conv5_2
I0413 18:50:09.776492 14253 net.cpp:408] conv5_3 -> conv5_3
I0413 18:50:09.781298 14253 net.cpp:150] Setting up conv5_3
I0413 18:50:09.781332 14253 net.cpp:157] Top shape: 1 512 63 94 (3032064)
I0413 18:50:09.781335 14253 net.cpp:165] Memory required for data: 3463601652
I0413 18:50:09.781349 14253 layer_factory.hpp:77] Creating layer relu5_3
I0413 18:50:09.781366 14253 net.cpp:100] Creating Layer relu5_3
I0413 18:50:09.781383 14253 net.cpp:434] relu5_3 <- conv5_3
I0413 18:50:09.781397 14253 net.cpp:395] relu5_3 -> conv5_3 (in-place)
I0413 18:50:09.781411 14253 net.cpp:150] Setting up relu5_3
I0413 18:50:09.781421 14253 net.cpp:157] Top shape: 1 512 63 94 (3032064)
I0413 18:50:09.781427 14253 net.cpp:165] Memory required for data: 3475729908
I0413 18:50:09.781433 14253 layer_factory.hpp:77] Creating layer conv5_3_relu5_3_0_split
I0413 18:50:09.781445 14253 net.cpp:100] Creating Layer conv5_3_relu5_3_0_split
I0413 18:50:09.781450 14253 net.cpp:434] conv5_3_relu5_3_0_split <- conv5_3
I0413 18:50:09.781460 14253 net.cpp:408] conv5_3_relu5_3_0_split -> conv5_3_relu5_3_0_split_0
I0413 18:50:09.781472 14253 net.cpp:408] conv5_3_relu5_3_0_split -> conv5_3_relu5_3_0_split_1
I0413 18:50:09.781520 14253 net.cpp:150] Setting up conv5_3_relu5_3_0_split
I0413 18:50:09.781532 14253 net.cpp:157] Top shape: 1 512 63 94 (3032064)
I0413 18:50:09.781538 14253 net.cpp:157] Top shape: 1 512 63 94 (3032064)
I0413 18:50:09.781543 14253 net.cpp:165] Memory required for data: 3499986420
I0413 18:50:09.781548 14253 layer_factory.hpp:77] Creating layer rpn_big_conv1
I0413 18:50:09.781568 14253 net.cpp:100] Creating Layer rpn_big_conv1
I0413 18:50:09.781574 14253 net.cpp:434] rpn_big_conv1 <- conv5_3_relu5_3_0_split_0
I0413 18:50:09.781586 14253 net.cpp:408] rpn_big_conv1 -> rpn_big_conv1
I0413 18:50:09.807073 14253 net.cpp:150] Setting up rpn_big_conv1
I0413 18:50:09.807106 14253 net.cpp:157] Top shape: 1 512 63 94 (3032064)
I0413 18:50:09.807118 14253 net.cpp:165] Memory required for data: 3512114676
I0413 18:50:09.807127 14253 layer_factory.hpp:77] Creating layer rpn_big_conv1_relu
I0413 18:50:09.807139 14253 net.cpp:100] Creating Layer rpn_big_conv1_relu
I0413 18:50:09.807147 14253 net.cpp:434] rpn_big_conv1_relu <- rpn_big_conv1
I0413 18:50:09.807159 14253 net.cpp:395] rpn_big_conv1_relu -> rpn_big_conv1 (in-place)
I0413 18:50:09.807174 14253 net.cpp:150] Setting up rpn_big_conv1_relu
I0413 18:50:09.807185 14253 net.cpp:157] Top shape: 1 512 63 94 (3032064)
I0413 18:50:09.807193 14253 net.cpp:165] Memory required for data: 3524242932
I0413 18:50:09.807200 14253 layer_factory.hpp:77] Creating layer rpn_big_conv2
I0413 18:50:09.807217 14253 net.cpp:100] Creating Layer rpn_big_conv2
I0413 18:50:09.807224 14253 net.cpp:434] rpn_big_conv2 <- rpn_big_conv1
I0413 18:50:09.807235 14253 net.cpp:408] rpn_big_conv2 -> rpn_big_conv2
I0413 18:50:09.832633 14253 net.cpp:150] Setting up rpn_big_conv2
I0413 18:50:09.832664 14253 net.cpp:157] Top shape: 1 512 63 94 (3032064)
I0413 18:50:09.832676 14253 net.cpp:165] Memory required for data: 3536371188
I0413 18:50:09.832685 14253 layer_factory.hpp:77] Creating layer rpn_big_conv2_relu
I0413 18:50:09.832697 14253 net.cpp:100] Creating Layer rpn_big_conv2_relu
I0413 18:50:09.832705 14253 net.cpp:434] rpn_big_conv2_relu <- rpn_big_conv2
I0413 18:50:09.832718 14253 net.cpp:395] rpn_big_conv2_relu -> rpn_big_conv2 (in-place)
I0413 18:50:09.832733 14253 net.cpp:150] Setting up rpn_big_conv2_relu
I0413 18:50:09.832743 14253 net.cpp:157] Top shape: 1 512 63 94 (3032064)
I0413 18:50:09.832751 14253 net.cpp:165] Memory required for data: 3548499444
I0413 18:50:09.832756 14253 layer_factory.hpp:77] Creating layer rpn_big_conv2_drop
I0413 18:50:09.832767 14253 net.cpp:100] Creating Layer rpn_big_conv2_drop
I0413 18:50:09.832773 14253 net.cpp:434] rpn_big_conv2_drop <- rpn_big_conv2
I0413 18:50:09.832782 14253 net.cpp:395] rpn_big_conv2_drop -> rpn_big_conv2 (in-place)
I0413 18:50:09.832826 14253 net.cpp:150] Setting up rpn_big_conv2_drop
I0413 18:50:09.832836 14253 net.cpp:157] Top shape: 1 512 63 94 (3032064)
I0413 18:50:09.832840 14253 net.cpp:165] Memory required for data: 3560627700
I0413 18:50:09.832854 14253 layer_factory.hpp:77] Creating layer rpn_big_conv2_rpn_big_conv2_drop_0_split
I0413 18:50:09.832865 14253 net.cpp:100] Creating Layer rpn_big_conv2_rpn_big_conv2_drop_0_split
I0413 18:50:09.832871 14253 net.cpp:434] rpn_big_conv2_rpn_big_conv2_drop_0_split <- rpn_big_conv2
I0413 18:50:09.832880 14253 net.cpp:408] rpn_big_conv2_rpn_big_conv2_drop_0_split -> rpn_big_conv2_rpn_big_conv2_drop_0_split_0
I0413 18:50:09.832892 14253 net.cpp:408] rpn_big_conv2_rpn_big_conv2_drop_0_split -> rpn_big_conv2_rpn_big_conv2_drop_0_split_1
I0413 18:50:09.832962 14253 net.cpp:150] Setting up rpn_big_conv2_rpn_big_conv2_drop_0_split
I0413 18:50:09.832973 14253 net.cpp:157] Top shape: 1 512 63 94 (3032064)
I0413 18:50:09.832988 14253 net.cpp:157] Top shape: 1 512 63 94 (3032064)
I0413 18:50:09.832993 14253 net.cpp:165] Memory required for data: 3584884212
I0413 18:50:09.832998 14253 layer_factory.hpp:77] Creating layer rpn_big_output_cls
I0413 18:50:09.833014 14253 net.cpp:100] Creating Layer rpn_big_output_cls
I0413 18:50:09.833021 14253 net.cpp:434] rpn_big_output_cls <- rpn_big_conv2_rpn_big_conv2_drop_0_split_0
I0413 18:50:09.833034 14253 net.cpp:408] rpn_big_output_cls -> rpn_big_output_cls
I0413 18:50:09.854342 14253 net.cpp:150] Setting up rpn_big_output_cls
I0413 18:50:09.854373 14253 net.cpp:157] Top shape: 1 384 63 94 (2274048)
I0413 18:50:09.854387 14253 net.cpp:165] Memory required for data: 3593980404
I0413 18:50:09.854398 14253 layer_factory.hpp:77] Creating layer rpn_big_output_cls_relu
I0413 18:50:09.854410 14253 net.cpp:100] Creating Layer rpn_big_output_cls_relu
I0413 18:50:09.854418 14253 net.cpp:434] rpn_big_output_cls_relu <- rpn_big_output_cls
I0413 18:50:09.854429 14253 net.cpp:395] rpn_big_output_cls_relu -> rpn_big_output_cls (in-place)
I0413 18:50:09.854444 14253 net.cpp:150] Setting up rpn_big_output_cls_relu
I0413 18:50:09.854454 14253 net.cpp:157] Top shape: 1 384 63 94 (2274048)
I0413 18:50:09.854459 14253 net.cpp:165] Memory required for data: 3603076596
I0413 18:50:09.854465 14253 layer_factory.hpp:77] Creating layer rpn_big_cls_score
I0413 18:50:09.854483 14253 net.cpp:100] Creating Layer rpn_big_cls_score
I0413 18:50:09.854490 14253 net.cpp:434] rpn_big_cls_score <- rpn_big_output_cls
I0413 18:50:09.854507 14253 net.cpp:408] rpn_big_cls_score -> rpn_big_cls_score
I0413 18:50:09.857244 14253 net.cpp:150] Setting up rpn_big_cls_score
I0413 18:50:09.857262 14253 net.cpp:157] Top shape: 1 52 61 92 (291824)
I0413 18:50:09.857266 14253 net.cpp:165] Memory required for data: 3604243892
I0413 18:50:09.857282 14253 layer_factory.hpp:77] Creating layer rpn_big_cls_score_rpn_big_cls_score_0_split
I0413 18:50:09.857292 14253 net.cpp:100] Creating Layer rpn_big_cls_score_rpn_big_cls_score_0_split
I0413 18:50:09.857300 14253 net.cpp:434] rpn_big_cls_score_rpn_big_cls_score_0_split <- rpn_big_cls_score
I0413 18:50:09.857311 14253 net.cpp:408] rpn_big_cls_score_rpn_big_cls_score_0_split -> rpn_big_cls_score_rpn_big_cls_score_0_split_0
I0413 18:50:09.857326 14253 net.cpp:408] rpn_big_cls_score_rpn_big_cls_score_0_split -> rpn_big_cls_score_rpn_big_cls_score_0_split_1
I0413 18:50:09.857378 14253 net.cpp:150] Setting up rpn_big_cls_score_rpn_big_cls_score_0_split
I0413 18:50:09.857389 14253 net.cpp:157] Top shape: 1 52 61 92 (291824)
I0413 18:50:09.857396 14253 net.cpp:157] Top shape: 1 52 61 92 (291824)
I0413 18:50:09.857400 14253 net.cpp:165] Memory required for data: 3606578484
I0413 18:50:09.857405 14253 layer_factory.hpp:77] Creating layer rpn_big_cls_score_reshape
I0413 18:50:09.857416 14253 net.cpp:100] Creating Layer rpn_big_cls_score_reshape
I0413 18:50:09.857422 14253 net.cpp:434] rpn_big_cls_score_reshape <- rpn_big_cls_score_rpn_big_cls_score_0_split_0
I0413 18:50:09.857434 14253 net.cpp:408] rpn_big_cls_score_reshape -> rpn_big_cls_score_reshape
I0413 18:50:09.857468 14253 net.cpp:150] Setting up rpn_big_cls_score_reshape
I0413 18:50:09.857478 14253 net.cpp:157] Top shape: 1 2 1586 92 (291824)
I0413 18:50:09.857486 14253 net.cpp:165] Memory required for data: 3607745780
I0413 18:50:09.857491 14253 layer_factory.hpp:77] Creating layer rpn_big_cls_score_reshape_rpn_big_cls_score_reshape_0_split
I0413 18:50:09.857501 14253 net.cpp:100] Creating Layer rpn_big_cls_score_reshape_rpn_big_cls_score_reshape_0_split
I0413 18:50:09.857508 14253 net.cpp:434] rpn_big_cls_score_reshape_rpn_big_cls_score_reshape_0_split <- rpn_big_cls_score_reshape
I0413 18:50:09.857519 14253 net.cpp:408] rpn_big_cls_score_reshape_rpn_big_cls_score_reshape_0_split -> rpn_big_cls_score_reshape_rpn_big_cls_score_reshape_0_split_0
I0413 18:50:09.857532 14253 net.cpp:408] rpn_big_cls_score_reshape_rpn_big_cls_score_reshape_0_split -> rpn_big_cls_score_reshape_rpn_big_cls_score_reshape_0_split_1
I0413 18:50:09.857578 14253 net.cpp:150] Setting up rpn_big_cls_score_reshape_rpn_big_cls_score_reshape_0_split
I0413 18:50:09.857589 14253 net.cpp:157] Top shape: 1 2 1586 92 (291824)
I0413 18:50:09.857597 14253 net.cpp:157] Top shape: 1 2 1586 92 (291824)
I0413 18:50:09.857604 14253 net.cpp:165] Memory required for data: 3610080372
I0413 18:50:09.857611 14253 layer_factory.hpp:77] Creating layer rpn_big_cls_prob
I0413 18:50:09.857621 14253 net.cpp:100] Creating Layer rpn_big_cls_prob
I0413 18:50:09.857627 14253 net.cpp:434] rpn_big_cls_prob <- rpn_big_cls_score_reshape_rpn_big_cls_score_reshape_0_split_0
I0413 18:50:09.857640 14253 net.cpp:408] rpn_big_cls_prob -> rpn_big_cls_prob
I0413 18:50:09.857714 14253 net.cpp:150] Setting up rpn_big_cls_prob
I0413 18:50:09.857725 14253 net.cpp:157] Top shape: 1 2 1586 92 (291824)
I0413 18:50:09.857731 14253 net.cpp:165] Memory required for data: 3611247668
I0413 18:50:09.857738 14253 layer_factory.hpp:77] Creating layer rpn_big_cls_prob_reshape
I0413 18:50:09.857750 14253 net.cpp:100] Creating Layer rpn_big_cls_prob_reshape
I0413 18:50:09.857758 14253 net.cpp:434] rpn_big_cls_prob_reshape <- rpn_big_cls_prob
I0413 18:50:09.857767 14253 net.cpp:408] rpn_big_cls_prob_reshape -> rpn_big_cls_prob_reshape
I0413 18:50:09.857797 14253 net.cpp:150] Setting up rpn_big_cls_prob_reshape
I0413 18:50:09.857808 14253 net.cpp:157] Top shape: 1 52 61 92 (291824)
I0413 18:50:09.857815 14253 net.cpp:165] Memory required for data: 3612414964
I0413 18:50:09.857821 14253 layer_factory.hpp:77] Creating layer rpn_big_cls_prob_reshape_rpn_big_cls_prob_reshape_0_split
I0413 18:50:09.857831 14253 net.cpp:100] Creating Layer rpn_big_cls_prob_reshape_rpn_big_cls_prob_reshape_0_split
I0413 18:50:09.857837 14253 net.cpp:434] rpn_big_cls_prob_reshape_rpn_big_cls_prob_reshape_0_split <- rpn_big_cls_prob_reshape
I0413 18:50:09.857849 14253 net.cpp:408] rpn_big_cls_prob_reshape_rpn_big_cls_prob_reshape_0_split -> rpn_big_cls_prob_reshape_rpn_big_cls_prob_reshape_0_split_0
I0413 18:50:09.857861 14253 net.cpp:408] rpn_big_cls_prob_reshape_rpn_big_cls_prob_reshape_0_split -> rpn_big_cls_prob_reshape_rpn_big_cls_prob_reshape_0_split_1
I0413 18:50:09.857905 14253 net.cpp:150] Setting up rpn_big_cls_prob_reshape_rpn_big_cls_prob_reshape_0_split
I0413 18:50:09.857915 14253 net.cpp:157] Top shape: 1 52 61 92 (291824)
I0413 18:50:09.857923 14253 net.cpp:157] Top shape: 1 52 61 92 (291824)
I0413 18:50:09.857928 14253 net.cpp:165] Memory required for data: 3614749556
I0413 18:50:09.857933 14253 layer_factory.hpp:77] Creating layer rpn_big_anchor_target
I0413 18:50:09.859319 14253 net.cpp:100] Creating Layer rpn_big_anchor_target
I0413 18:50:09.859340 14253 net.cpp:434] rpn_big_anchor_target <- rpn_big_cls_score_rpn_big_cls_score_0_split_1
I0413 18:50:09.859349 14253 net.cpp:434] rpn_big_anchor_target <- input_gt_boxes_input_2_split_0
I0413 18:50:09.859354 14253 net.cpp:434] rpn_big_anchor_target <- input_ignored_boxes
I0413 18:50:09.859359 14253 net.cpp:434] rpn_big_anchor_target <- input_im_info_input_1_split_0
I0413 18:50:09.859364 14253 net.cpp:434] rpn_big_anchor_target <- input_data_input_0_split_1
I0413 18:50:09.859369 14253 net.cpp:434] rpn_big_anchor_target <- rpn_big_cls_prob_reshape_rpn_big_cls_prob_reshape_0_split_0
I0413 18:50:09.859375 14253 net.cpp:408] rpn_big_anchor_target -> rpn_big_anchor_target_labels
I0413 18:50:09.859385 14253 net.cpp:408] rpn_big_anchor_target -> rpn_big_anchor_target_bbox_targets
I0413 18:50:09.859392 14253 net.cpp:408] rpn_big_anchor_target -> rpn_big_anchor_target_inside_weights
I0413 18:50:09.859400 14253 net.cpp:408] rpn_big_anchor_target -> rpn_big_anchor_target_outside_weights
I0413 18:50:09.864565 14253 net.cpp:150] Setting up rpn_big_anchor_target
I0413 18:50:09.864603 14253 net.cpp:157] Top shape: 1 1 1586 92 (145912)
I0413 18:50:09.864612 14253 net.cpp:157] Top shape: 1 104 61 92 (583648)
I0413 18:50:09.864619 14253 net.cpp:157] Top shape: 1 104 61 92 (583648)
I0413 18:50:09.864625 14253 net.cpp:157] Top shape: 1 104 61 92 (583648)
I0413 18:50:09.864629 14253 net.cpp:165] Memory required for data: 3622336980
I0413 18:50:09.864639 14253 layer_factory.hpp:77] Creating layer rpn_big_loss_cls
I0413 18:50:09.864653 14253 net.cpp:100] Creating Layer rpn_big_loss_cls
I0413 18:50:09.864665 14253 net.cpp:434] rpn_big_loss_cls <- rpn_big_cls_score_reshape_rpn_big_cls_score_reshape_0_split_1
I0413 18:50:09.864677 14253 net.cpp:434] rpn_big_loss_cls <- rpn_big_anchor_target_labels
I0413 18:50:09.864689 14253 net.cpp:408] rpn_big_loss_cls -> rpn_big_loss_cls
I0413 18:50:09.864708 14253 layer_factory.hpp:77] Creating layer rpn_big_loss_cls
I0413 18:50:09.865448 14253 net.cpp:150] Setting up rpn_big_loss_cls
I0413 18:50:09.865463 14253 net.cpp:157] Top shape: (1)
I0413 18:50:09.865465 14253 net.cpp:160]     with loss weight 1
I0413 18:50:09.865483 14253 net.cpp:165] Memory required for data: 3622336984
I0413 18:50:09.865489 14253 layer_factory.hpp:77] Creating layer rpn_big_output_box
I0413 18:50:09.865509 14253 net.cpp:100] Creating Layer rpn_big_output_box
I0413 18:50:09.865516 14253 net.cpp:434] rpn_big_output_box <- rpn_big_conv2_rpn_big_conv2_drop_0_split_1
I0413 18:50:09.865528 14253 net.cpp:408] rpn_big_output_box -> rpn_big_output_box
I0413 18:50:09.884344 14253 net.cpp:150] Setting up rpn_big_output_box
I0413 18:50:09.884371 14253 net.cpp:157] Top shape: 1 384 63 94 (2274048)
I0413 18:50:09.884383 14253 net.cpp:165] Memory required for data: 3631433176
I0413 18:50:09.884393 14253 layer_factory.hpp:77] Creating layer rpn_big_output_box_relu
I0413 18:50:09.884403 14253 net.cpp:100] Creating Layer rpn_big_output_box_relu
I0413 18:50:09.884408 14253 net.cpp:434] rpn_big_output_box_relu <- rpn_big_output_box
I0413 18:50:09.884418 14253 net.cpp:395] rpn_big_output_box_relu -> rpn_big_output_box (in-place)
I0413 18:50:09.884433 14253 net.cpp:150] Setting up rpn_big_output_box_relu
I0413 18:50:09.884443 14253 net.cpp:157] Top shape: 1 384 63 94 (2274048)
I0413 18:50:09.884448 14253 net.cpp:165] Memory required for data: 3640529368
I0413 18:50:09.884452 14253 layer_factory.hpp:77] Creating layer rpn_big_bbox_pred
I0413 18:50:09.884469 14253 net.cpp:100] Creating Layer rpn_big_bbox_pred
I0413 18:50:09.884474 14253 net.cpp:434] rpn_big_bbox_pred <- rpn_big_output_box
I0413 18:50:09.884485 14253 net.cpp:408] rpn_big_bbox_pred -> rpn_big_bbox_pred
I0413 18:50:09.890632 14253 net.cpp:150] Setting up rpn_big_bbox_pred
I0413 18:50:09.890658 14253 net.cpp:157] Top shape: 1 104 61 92 (583648)
I0413 18:50:09.890671 14253 net.cpp:165] Memory required for data: 3642863960
I0413 18:50:09.890681 14253 layer_factory.hpp:77] Creating layer rpn_big_bbox_pred_rpn_big_bbox_pred_0_split
I0413 18:50:09.890691 14253 net.cpp:100] Creating Layer rpn_big_bbox_pred_rpn_big_bbox_pred_0_split
I0413 18:50:09.890696 14253 net.cpp:434] rpn_big_bbox_pred_rpn_big_bbox_pred_0_split <- rpn_big_bbox_pred
I0413 18:50:09.890705 14253 net.cpp:408] rpn_big_bbox_pred_rpn_big_bbox_pred_0_split -> rpn_big_bbox_pred_rpn_big_bbox_pred_0_split_0
I0413 18:50:09.890720 14253 net.cpp:408] rpn_big_bbox_pred_rpn_big_bbox_pred_0_split -> rpn_big_bbox_pred_rpn_big_bbox_pred_0_split_1
I0413 18:50:09.890784 14253 net.cpp:150] Setting up rpn_big_bbox_pred_rpn_big_bbox_pred_0_split
I0413 18:50:09.890794 14253 net.cpp:157] Top shape: 1 104 61 92 (583648)
I0413 18:50:09.890810 14253 net.cpp:157] Top shape: 1 104 61 92 (583648)
I0413 18:50:09.890813 14253 net.cpp:165] Memory required for data: 3647533144
I0413 18:50:09.890818 14253 layer_factory.hpp:77] Creating layer rpn_big_loss_bbox
I0413 18:50:09.891279 14253 net.cpp:100] Creating Layer rpn_big_loss_bbox
I0413 18:50:09.891288 14253 net.cpp:434] rpn_big_loss_bbox <- rpn_big_bbox_pred_rpn_big_bbox_pred_0_split_0
I0413 18:50:09.891294 14253 net.cpp:434] rpn_big_loss_bbox <- rpn_big_anchor_target_bbox_targets
I0413 18:50:09.891307 14253 net.cpp:434] rpn_big_loss_bbox <- rpn_big_anchor_target_inside_weights
I0413 18:50:09.891312 14253 net.cpp:434] rpn_big_loss_bbox <- rpn_big_anchor_target_outside_weights
I0413 18:50:09.891319 14253 net.cpp:408] rpn_big_loss_bbox -> rpn_big_loss_bbox
I0413 18:50:09.893293 14253 net.cpp:150] Setting up rpn_big_loss_bbox
I0413 18:50:09.893323 14253 net.cpp:157] Top shape: 1 (1)
I0413 18:50:09.893337 14253 net.cpp:160]     with loss weight 1
I0413 18:50:09.893347 14253 net.cpp:165] Memory required for data: 3647533148
I0413 18:50:09.893354 14253 layer_factory.hpp:77] Creating layer proposal
I0413 18:50:09.893807 14253 net.cpp:100] Creating Layer proposal
I0413 18:50:09.893818 14253 net.cpp:434] proposal <- rpn_big_cls_prob_reshape_rpn_big_cls_prob_reshape_0_split_1
I0413 18:50:09.893834 14253 net.cpp:434] proposal <- rpn_big_bbox_pred_rpn_big_bbox_pred_0_split_1
I0413 18:50:09.893841 14253 net.cpp:434] proposal <- input_im_info_input_1_split_1
I0413 18:50:09.893847 14253 net.cpp:408] proposal -> rpn_rois
I0413 18:50:09.898671 14253 net.cpp:150] Setting up proposal
I0413 18:50:09.898692 14253 net.cpp:157] Top shape: 1 5 (5)
I0413 18:50:09.898696 14253 net.cpp:165] Memory required for data: 3647533168
I0413 18:50:09.898701 14253 layer_factory.hpp:77] Creating layer roi-data
I0413 18:50:09.899040 14253 net.cpp:100] Creating Layer roi-data
I0413 18:50:09.899052 14253 net.cpp:434] roi-data <- rpn_rois
I0413 18:50:09.899060 14253 net.cpp:434] roi-data <- input_gt_boxes_input_2_split_1
I0413 18:50:09.899066 14253 net.cpp:408] roi-data -> rois
I0413 18:50:09.899075 14253 net.cpp:408] roi-data -> labels
I0413 18:50:09.899082 14253 net.cpp:408] roi-data -> bbox_targets
I0413 18:50:09.899090 14253 net.cpp:408] roi-data -> bbox_inside_weights
I0413 18:50:09.899096 14253 net.cpp:408] roi-data -> bbox_outside_weights
I0413 18:50:09.899102 14253 net.cpp:408] roi-data -> pid_label
I0413 18:50:09.900100 14253 net.cpp:150] Setting up roi-data
I0413 18:50:09.900113 14253 net.cpp:157] Top shape: 1 5 (5)
I0413 18:50:09.900117 14253 net.cpp:157] Top shape: 1 1 (1)
I0413 18:50:09.900121 14253 net.cpp:157] Top shape: 1 8 (8)
I0413 18:50:09.900125 14253 net.cpp:157] Top shape: 1 8 (8)
I0413 18:50:09.900128 14253 net.cpp:157] Top shape: 1 8 (8)
I0413 18:50:09.900132 14253 net.cpp:157] Top shape: (0)
I0413 18:50:09.900135 14253 net.cpp:165] Memory required for data: 3647533288
I0413 18:50:09.900140 14253 layer_factory.hpp:77] Creating layer roi-pool
I0413 18:50:09.900148 14253 net.cpp:100] Creating Layer roi-pool
I0413 18:50:09.900152 14253 net.cpp:434] roi-pool <- conv5_3_relu5_3_0_split_1
I0413 18:50:09.900157 14253 net.cpp:434] roi-pool <- rois
I0413 18:50:09.900163 14253 net.cpp:408] roi-pool -> roi-pool
I0413 18:50:09.900172 14253 roi_pooling_layer.cpp:33] Spatial scale: 0.0625
I0413 18:50:09.900183 14253 roi_pooling_layer.cpp:34] Box scale: 1
I0413 18:50:09.900219 14253 net.cpp:150] Setting up roi-pool
I0413 18:50:09.900226 14253 net.cpp:157] Top shape: 1 512 7 7 (25088)
I0413 18:50:09.900229 14253 net.cpp:165] Memory required for data: 3647633640
I0413 18:50:09.900233 14253 layer_factory.hpp:77] Creating layer fc6
I0413 18:50:09.900239 14253 net.cpp:100] Creating Layer fc6
I0413 18:50:09.900243 14253 net.cpp:434] fc6 <- roi-pool
I0413 18:50:09.900249 14253 net.cpp:408] fc6 -> fc6
I0413 18:50:10.063999 14253 net.cpp:150] Setting up fc6
I0413 18:50:10.064046 14253 net.cpp:157] Top shape: 1 4096 (4096)
I0413 18:50:10.064050 14253 net.cpp:165] Memory required for data: 3647650024
I0413 18:50:10.064061 14253 layer_factory.hpp:77] Creating layer relu6
I0413 18:50:10.064074 14253 net.cpp:100] Creating Layer relu6
I0413 18:50:10.064079 14253 net.cpp:434] relu6 <- fc6
I0413 18:50:10.064088 14253 net.cpp:395] relu6 -> fc6 (in-place)
I0413 18:50:10.064102 14253 net.cpp:150] Setting up relu6
I0413 18:50:10.064110 14253 net.cpp:157] Top shape: 1 4096 (4096)
I0413 18:50:10.064116 14253 net.cpp:165] Memory required for data: 3647666408
I0413 18:50:10.064121 14253 layer_factory.hpp:77] Creating layer drop6
I0413 18:50:10.064133 14253 net.cpp:100] Creating Layer drop6
I0413 18:50:10.064148 14253 net.cpp:434] drop6 <- fc6
I0413 18:50:10.064157 14253 net.cpp:395] drop6 -> fc6 (in-place)
I0413 18:50:10.064189 14253 net.cpp:150] Setting up drop6
I0413 18:50:10.064208 14253 net.cpp:157] Top shape: 1 4096 (4096)
I0413 18:50:10.064213 14253 net.cpp:165] Memory required for data: 3647682792
I0413 18:50:10.064225 14253 layer_factory.hpp:77] Creating layer fc7
I0413 18:50:10.064234 14253 net.cpp:100] Creating Layer fc7
I0413 18:50:10.064240 14253 net.cpp:434] fc7 <- fc6
I0413 18:50:10.064251 14253 net.cpp:408] fc7 -> fc7
I0413 18:50:10.091526 14253 net.cpp:150] Setting up fc7
I0413 18:50:10.091560 14253 net.cpp:157] Top shape: 1 4096 (4096)
I0413 18:50:10.091573 14253 net.cpp:165] Memory required for data: 3647699176
I0413 18:50:10.091584 14253 layer_factory.hpp:77] Creating layer relu7
I0413 18:50:10.091614 14253 net.cpp:100] Creating Layer relu7
I0413 18:50:10.091622 14253 net.cpp:434] relu7 <- fc7
I0413 18:50:10.091634 14253 net.cpp:395] relu7 -> fc7 (in-place)
I0413 18:50:10.091650 14253 net.cpp:150] Setting up relu7
I0413 18:50:10.091657 14253 net.cpp:157] Top shape: 1 4096 (4096)
I0413 18:50:10.091661 14253 net.cpp:165] Memory required for data: 3647715560
I0413 18:50:10.091667 14253 layer_factory.hpp:77] Creating layer drop7
I0413 18:50:10.091677 14253 net.cpp:100] Creating Layer drop7
I0413 18:50:10.091682 14253 net.cpp:434] drop7 <- fc7
I0413 18:50:10.091691 14253 net.cpp:395] drop7 -> fc7 (in-place)
I0413 18:50:10.091722 14253 net.cpp:150] Setting up drop7
I0413 18:50:10.091730 14253 net.cpp:157] Top shape: 1 4096 (4096)
I0413 18:50:10.091735 14253 net.cpp:165] Memory required for data: 3647731944
I0413 18:50:10.091740 14253 layer_factory.hpp:77] Creating layer fc7_drop7_0_split
I0413 18:50:10.091749 14253 net.cpp:100] Creating Layer fc7_drop7_0_split
I0413 18:50:10.091754 14253 net.cpp:434] fc7_drop7_0_split <- fc7
I0413 18:50:10.091763 14253 net.cpp:408] fc7_drop7_0_split -> fc7_drop7_0_split_0
I0413 18:50:10.091787 14253 net.cpp:408] fc7_drop7_0_split -> fc7_drop7_0_split_1
I0413 18:50:10.091835 14253 net.cpp:150] Setting up fc7_drop7_0_split
I0413 18:50:10.091847 14253 net.cpp:157] Top shape: 1 4096 (4096)
I0413 18:50:10.091855 14253 net.cpp:157] Top shape: 1 4096 (4096)
I0413 18:50:10.091859 14253 net.cpp:165] Memory required for data: 3647764712
I0413 18:50:10.091866 14253 layer_factory.hpp:77] Creating layer bbox_pred
I0413 18:50:10.091876 14253 net.cpp:100] Creating Layer bbox_pred
I0413 18:50:10.091881 14253 net.cpp:434] bbox_pred <- fc7_drop7_0_split_0
I0413 18:50:10.091892 14253 net.cpp:408] bbox_pred -> bbox_pred
I0413 18:50:10.092522 14253 net.cpp:150] Setting up bbox_pred
I0413 18:50:10.092531 14253 net.cpp:157] Top shape: 1 8 (8)
I0413 18:50:10.092535 14253 net.cpp:165] Memory required for data: 3647764744
I0413 18:50:10.092546 14253 layer_factory.hpp:77] Creating layer loss_bbox
I0413 18:50:10.092561 14253 net.cpp:100] Creating Layer loss_bbox
I0413 18:50:10.092568 14253 net.cpp:434] loss_bbox <- bbox_pred
I0413 18:50:10.092577 14253 net.cpp:434] loss_bbox <- bbox_targets
I0413 18:50:10.092584 14253 net.cpp:434] loss_bbox <- bbox_inside_weights
I0413 18:50:10.092592 14253 net.cpp:434] loss_bbox <- bbox_outside_weights
I0413 18:50:10.092600 14253 net.cpp:408] loss_bbox -> loss_bbox
I0413 18:50:10.092700 14253 net.cpp:150] Setting up loss_bbox
I0413 18:50:10.092711 14253 net.cpp:157] Top shape: (1)
I0413 18:50:10.092717 14253 net.cpp:160]     with loss weight 1
I0413 18:50:10.092732 14253 net.cpp:165] Memory required for data: 3647764748
I0413 18:50:10.092737 14253 layer_factory.hpp:77] Creating layer feat
I0413 18:50:10.092748 14253 net.cpp:100] Creating Layer feat
I0413 18:50:10.092754 14253 net.cpp:434] feat <- fc7_drop7_0_split_1
I0413 18:50:10.092764 14253 net.cpp:408] feat -> feat
I0413 18:50:10.104187 14253 net.cpp:150] Setting up feat
I0413 18:50:10.104218 14253 net.cpp:157] Top shape: 1 256 (256)
I0413 18:50:10.104221 14253 net.cpp:165] Memory required for data: 3647765772
I0413 18:50:10.104233 14253 layer_factory.hpp:77] Creating layer relu8
I0413 18:50:10.104245 14253 net.cpp:100] Creating Layer relu8
I0413 18:50:10.104254 14253 net.cpp:434] relu8 <- feat
I0413 18:50:10.104264 14253 net.cpp:395] relu8 -> feat (in-place)
I0413 18:50:10.104276 14253 net.cpp:150] Setting up relu8
I0413 18:50:10.104284 14253 net.cpp:157] Top shape: 1 256 (256)
I0413 18:50:10.104287 14253 net.cpp:165] Memory required for data: 3647766796
I0413 18:50:10.104291 14253 layer_factory.hpp:77] Creating layer drop8
I0413 18:50:10.104300 14253 net.cpp:100] Creating Layer drop8
I0413 18:50:10.104306 14253 net.cpp:434] drop8 <- feat
I0413 18:50:10.104316 14253 net.cpp:395] drop8 -> feat (in-place)
I0413 18:50:10.104346 14253 net.cpp:150] Setting up drop8
I0413 18:50:10.104357 14253 net.cpp:157] Top shape: 1 256 (256)
I0413 18:50:10.104362 14253 net.cpp:165] Memory required for data: 3647767820
I0413 18:50:10.104367 14253 layer_factory.hpp:77] Creating layer pid_score
I0413 18:50:10.104377 14253 net.cpp:100] Creating Layer pid_score
I0413 18:50:10.104382 14253 net.cpp:434] pid_score <- feat
I0413 18:50:10.104390 14253 net.cpp:408] pid_score -> pid_score
I0413 18:50:10.119657 14253 net.cpp:150] Setting up pid_score
I0413 18:50:10.119688 14253 net.cpp:157] Top shape: 1 5533 (5533)
I0413 18:50:10.119690 14253 net.cpp:165] Memory required for data: 3647789952
I0413 18:50:10.119704 14253 layer_factory.hpp:77] Creating layer pid_loss
I0413 18:50:10.119719 14253 net.cpp:100] Creating Layer pid_loss
I0413 18:50:10.119729 14253 net.cpp:434] pid_loss <- pid_score
I0413 18:50:10.119737 14253 net.cpp:434] pid_loss <- pid_label
I0413 18:50:10.119746 14253 net.cpp:408] pid_loss -> pid_loss
…
