…
I0412 20:27:57.337872  4509 solver.cpp:48] Initializing solver from parameters: 
base_lr: 0.001
display: 20
lr_policy: "multistep"
gamma: 0.1
momentum: 0.9
weight_decay: 0.0005
snapshot: 0
snapshot_prefix: "faces_example"
net_param {
  name: "GeneratedModel_12_04_2017_20_27"
  layer {
    name: "input"
    type: "Python"
    top: "input_data"
    top: "input_im_info"
    top: "input_gt_boxes"
    top: "input_ignored_boxes"
    python_param {
      module: "layers.roi_data_layer"
      layer: "RoIDataLayer"
      param_str: "{\"num_classes\": 2}"
    }
  }
  layer {
    name: "conv1_1"
    type: "Convolution"
    bottom: "input_data"
    top: "conv1_1"
    param {
      lr_mult: 0
      decay_mult: 0
    }
    param {
      lr_mult: 0
      decay_mult: 0
    }
    convolution_param {
      num_output: 64
      pad: 1
      kernel_size: 3
    }
  }
  layer {
    name: "relu1_1"
    type: "ReLU"
    bottom: "conv1_1"
    top: "conv1_1"
  }
  layer {
    name: "conv1_2"
    type: "Convolution"
    bottom: "conv1_1"
    top: "conv1_2"
    param {
      lr_mult: 0
      decay_mult: 0
    }
    param {
      lr_mult: 0
      decay_mult: 0
    }
    convolution_param {
      num_output: 64
      pad: 1
      kernel_size: 3
    }
  }
  layer {
    name: "relu1_2"
    type: "ReLU"
    bottom: "conv1_2"
    top: "conv1_2"
  }
  layer {
    name: "pool1"
    type: "Pooling"
    bottom: "conv1_2"
    top: "pool1"
    pooling_param {
      pool: MAX
      kernel_size: 2
      stride: 2
    }
  }
  layer {
    name: "conv2_1"
    type: "Convolution"
    bottom: "pool1"
    top: "conv2_1"
    param {
      lr_mult: 0
      decay_mult: 0
    }
    param {
      lr_mult: 0
      decay_mult: 0
    }
    convolution_param {
      num_output: 128
      pad: 1
      kernel_size: 3
    }
  }
  layer {
    name: "relu2_1"
    type: "ReLU"
    bottom: "conv2_1"
    top: "conv2_1"
  }
  layer {
    name: "conv2_2"
    type: "Convolution"
    bottom: "conv2_1"
    top: "conv2_2"
    param {
      lr_mult: 0
      decay_mult: 0
    }
    param {
      lr_mult: 0
      decay_mult: 0
    }
    convolution_param {
      num_output: 128
      pad: 1
      kernel_size: 3
    }
  }
  layer {
    name: "relu2_2"
    type: "ReLU"
    bottom: "conv2_2"
    top: "conv2_2"
  }
  layer {
    name: "pool2"
    type: "Pooling"
    bottom: "conv2_2"
    top: "pool2"
    pooling_param {
      pool: MAX
      kernel_size: 2
      stride: 2
    }
  }
  layer {
    name: "conv3_1"
    type: "Convolution"
    bottom: "pool2"
    top: "conv3_1"
    param {
      lr_mult: 1
    }
    param {
      lr_mult: 2
    }
    convolution_param {
      num_output: 256
      pad: 1
      kernel_size: 3
    }
  }
  layer {
    name: "relu3_1"
    type: "ReLU"
    bottom: "conv3_1"
    top: "conv3_1"
  }
  layer {
    name: "conv3_2"
    type: "Convolution"
    bottom: "conv3_1"
    top: "conv3_2"
    param {
      lr_mult: 1
    }
    param {
      lr_mult: 2
    }
    convolution_param {
      num_output: 256
      pad: 1
      kernel_size: 3
    }
  }
  layer {
    name: "relu3_2"
    type: "ReLU"
    bottom: "conv3_2"
    top: "conv3_2"
  }
  layer {
    name: "conv3_3"
    type: "Convolution"
    bottom: "conv3_2"
    top: "conv3_3"
    param {
      lr_mult: 1
    }
    param {
      lr_mult: 2
    }
    convolution_param {
      num_output: 256
      pad: 1
      kernel_size: 3
    }
  }
  layer {
    name: "relu3_3"
    type: "ReLU"
    bottom: "conv3_3"
    top: "conv3_3"
  }
  layer {
    name: "pool3"
    type: "Pooling"
    bottom: "conv3_3"
    top: "pool3"
    pooling_param {
      pool: MAX
      kernel_size: 2
      stride: 2
    }
  }
  layer {
    name: "conv4_1"
    type: "Convolution"
    bottom: "pool3"
    top: "conv4_1"
    param {
      lr_mult: 1
    }
    param {
      lr_mult: 2
    }
    convolution_param {
      num_output: 512
      pad: 1
      kernel_size: 3
    }
  }
  layer {
    name: "relu4_1"
    type: "ReLU"
    bottom: "conv4_1"
    top: "conv4_1"
  }
  layer {
    name: "conv4_2"
    type: "Convolution"
    bottom: "conv4_1"
    top: "conv4_2"
    param {
      lr_mult: 1
    }
    param {
      lr_mult: 2
    }
    convolution_param {
      num_output: 512
      pad: 1
      kernel_size: 3
    }
  }
  layer {
    name: "relu4_2"
    type: "ReLU"
    bottom: "conv4_2"
    top: "conv4_2"
  }
  layer {
    name: "conv4_3"
    type: "Convolution"
    bottom: "conv4_2"
    top: "conv4_3"
    param {
      lr_mult: 1
    }
    param {
      lr_mult: 2
    }
    convolution_param {
      num_output: 512
      pad: 1
      kernel_size: 3
    }
  }
  layer {
    name: "relu4_3"
    type: "ReLU"
    bottom: "conv4_3"
    top: "conv4_3"
  }
  layer {
    name: "pool4"
    type: "Pooling"
    bottom: "conv4_3"
    top: "pool4"
    pooling_param {
      pool: MAX
      kernel_size: 2
      stride: 2
    }
  }
  layer {
    name: "conv5_1"
    type: "Convolution"
    bottom: "pool4"
    top: "conv5_1"
    param {
      lr_mult: 1
    }
    param {
      lr_mult: 2
    }
    convolution_param {
      num_output: 512
      pad: 1
      kernel_size: 3
    }
  }
  layer {
    name: "relu5_1"
    type: "ReLU"
    bottom: "conv5_1"
    top: "conv5_1"
  }
  layer {
    name: "conv5_2"
    type: "Convolution"
    bottom: "conv5_1"
    top: "conv5_2"
    param {
      lr_mult: 1
    }
    param {
      lr_mult: 2
    }
    convolution_param {
      num_output: 512
      pad: 1
      kernel_size: 3
    }
  }
  layer {
    name: "relu5_2"
    type: "ReLU"
    bottom: "conv5_2"
    top: "conv5_2"
  }
  layer {
    name: "conv5_3"
    type: "Convolution"
    bottom: "conv5_2"
    top: "conv5_3"
    param {
      lr_mult: 1
    }
    param {
      lr_mult: 2
    }
    convolution_param {
      num_output: 512
      pad: 1
      kernel_size: 3
    }
  }
  layer {
    name: "relu5_3"
    type: "ReLU"
    bottom: "conv5_3"
    top: "conv5_3"
  }
  layer {
    name: "rpn_big_conv1"
    type: "Convolution"
    bottom: "conv5_3"
    top: "rpn_big_conv1"
    param {
      lr_mult: 1
    }
    param {
      lr_mult: 2
    }
    convolution_param {
      num_output: 512
      pad: 1
      kernel_size: 3
      stride: 1
      weight_filler {
        type: "gaussian"
        mean: 0
        std: 0.01
      }
      bias_filler {
        type: "constant"
      }
    }
  }
  layer {
    name: "rpn_big_conv1_relu"
    type: "ReLU"
    bottom: "rpn_big_conv1"
    top: "rpn_big_conv1"
    relu_param {
      negative_slope: 0
    }
  }
  layer {
    name: "rpn_big_conv2"
    type: "Convolution"
    bottom: "rpn_big_conv1"
    top: "rpn_big_conv2"
    param {
      lr_mult: 1
    }
    param {
      lr_mult: 2
    }
    convolution_param {
      num_output: 512
      pad: 1
      kernel_size: 3
      stride: 1
      weight_filler {
        type: "gaussian"
        mean: 0
        std: 0.01
      }
      bias_filler {
        type: "constant"
      }
    }
  }
  layer {
    name: "rpn_big_conv2_relu"
    type: "ReLU"
    bottom: "rpn_big_conv2"
    top: "rpn_big_conv2"
    relu_param {
      negative_slope: 0
    }
  }
  layer {
    name: "rpn_big_conv2_drop"
    type: "Dropout"
    bottom: "rpn_big_conv2"
    top: "rpn_big_conv2"
    dropout_param {
      dropout_ratio: 0.3
    }
  }
  layer {
    name: "rpn_big_output_cls"
    type: "Convolution"
    bottom: "rpn_big_conv2"
    top: "rpn_big_output_cls"
    param {
      lr_mult: 1
    }
    param {
      lr_mult: 2
    }
    convolution_param {
      num_output: 384
      pad: 1
      kernel_size: 3
      stride: 1
      weight_filler {
        type: "gaussian"
        mean: 0
        std: 0.01
      }
      bias_filler {
        type: "constant"
      }
    }
  }
  layer {
    name: "rpn_big_output_cls_relu"
    type: "ReLU"
    bottom: "rpn_big_output_cls"
    top: "rpn_big_output_cls"
    relu_param {
      negative_slope: 0
    }
  }
  layer {
    name: "rpn_big_cls_score"
    type: "Convolution"
    bottom: "rpn_big_output_cls"
    top: "rpn_big_cls_score"
    param {
      lr_mult: 1
    }
    param {
      lr_mult: 2
    }
    convolution_param {
      num_output: 52
      pad: 0
      kernel_size: 3
      stride: 1
      weight_filler {
        type: "gaussian"
        mean: 0
        std: 0.01
      }
      bias_filler {
        type: "constant"
      }
    }
  }
  layer {
    name: "rpn_big_cls_score_reshape"
    type: "Reshape"
    bottom: "rpn_big_cls_score"
    top: "rpn_big_cls_score_reshape"
    reshape_param {
      shape {
        dim: 0
        dim: 2
        dim: -1
        dim: 0
      }
    }
  }
  layer {
    name: "rpn_big_cls_prob"
    type: "Softmax"
    bottom: "rpn_big_cls_score_reshape"
    top: "rpn_big_cls_prob"
  }
  layer {
    name: "rpn_big_cls_prob_reshape"
    type: "Reshape"
    bottom: "rpn_big_cls_prob"
    top: "rpn_big_cls_prob_reshape"
    reshape_param {
      shape {
        dim: 0
        dim: 52
        dim: -1
        dim: 0
      }
    }
  }
  layer {
    name: "rpn_big_anchor_target"
    type: "Python"
    bottom: "rpn_big_cls_score"
    bottom: "input_gt_boxes"
    bottom: "input_ignored_boxes"
    bottom: "input_im_info"
    bottom: "input_data"
    bottom: "rpn_big_cls_prob_reshape"
    top: "rpn_big_anchor_target_labels"
    top: "rpn_big_anchor_target_bbox_targets"
    top: "rpn_big_anchor_target_inside_weights"
    top: "rpn_big_anchor_target_outside_weights"
    python_param {
      module: "rpn.anchor_target_layer"
      layer: "AnchorTargetLayer"
      param_str: "{\"feat_stride\": 16, \"square_targets\": true, \"anchor_scales\": [2.5, 3.025, 3.66025, 4.4289024999999995, 5.358972025, 6.484356150249999, 7.846070941802498, 9.493745839581022, 11.487432465893036, 13.899793283730574, 16.818749873313998, 20.350687346709933, 24.62433168951902, 29.795441344318014], \"name\": \"rpn_big\", \"fg_fraction\": 0.5, \"anchor_shift_num_xy\": [[2, 2], [2, 2], [2, 2], [2, 2], [1, 1], [1, 1], [1, 1], [1, 1], [1, 1], [1, 1], [1, 1], [1, 1], [1, 1], [1, 1]], \"negative_overlap\": 0.4, \"anchor_ratios\": [1.0], \"tn_fraction\": 0.2, \"positive_overlap\": 0.6, \"num_classes\": 1, \"batchsize\": 256}"
    }
  }
  layer {
    name: "rpn_big_loss_cls"
    type: "SoftmaxWithLoss"
    bottom: "rpn_big_cls_score_reshape"
    bottom: "rpn_big_anchor_target_labels"
    top: "rpn_big_loss_cls"
    loss_weight: 1
    propagate_down: true
    propagate_down: false
    loss_param {
      ignore_label: -1
      normalization: VALID
    }
  }
  layer {
    name: "rpn_big_output_box"
    type: "Convolution"
    bottom: "rpn_big_conv2"
    top: "rpn_big_output_box"
    param {
      lr_mult: 1
    }
    param {
      lr_mult: 2
    }
    convolution_param {
      num_output: 384
      pad: 1
      kernel_size: 3
      stride: 1
      weight_filler {
        type: "gaussian"
        mean: 0
        std: 0.01
      }
      bias_filler {
        type: "constant"
      }
    }
  }
  layer {
    name: "rpn_big_output_box_relu"
    type: "ReLU"
    bottom: "rpn_big_output_box"
    top: "rpn_big_output_box"
    relu_param {
      negative_slope: 0
    }
  }
  layer {
    name: "rpn_big_bbox_pred"
    type: "Convolution"
    bottom: "rpn_big_output_box"
    top: "rpn_big_bbox_pred"
    param {
      lr_mult: 1
    }
    param {
      lr_mult: 2
    }
    convolution_param {
      num_output: 104
      pad: 0
      kernel_size: 3
      stride: 1
      weight_filler {
        type: "gaussian"
        mean: 0
        std: 0.01
      }
      bias_filler {
        type: "constant"
      }
    }
  }
  layer {
    name: "rpn_big_loss_bbox"
    type: "Python"
    bottom: "rpn_big_bbox_pred"
    bottom: "rpn_big_anchor_target_bbox_targets"
    bottom: "rpn_big_anchor_target_inside_weights"
    bottom: "rpn_big_anchor_target_outside_weights"
    top: "rpn_big_loss_bbox"
    loss_weight: 1
    python_param {
      module: "layers.smooth_l1_loss"
      layer: "SmoothL1LossLayer"
      param_str: "{\"sigma\": 3}"
    }
  }
  layer {
    name: "MyLoss"
    type: "Accuracy"
    bottom: "conv3_1"
    top: "MyLoss"
  }
}
average_loss: 100
stepvalue: 70000
stepvalue: 120000
iter_size: 2
I0412 20:27:57.337944  4509 solver.cpp:86] Creating training net specified in net_param.
I0412 20:27:57.338304  4509 net.cpp:58] Initializing net from parameters: 
name: "GeneratedModel_12_04_2017_20_27"
state {
  phase: TRAIN
}
layer {
  name: "input"
  type: "Python"
  top: "input_data"
  top: "input_im_info"
  top: "input_gt_boxes"
  top: "input_ignored_boxes"
  python_param {
    module: "layers.roi_data_layer"
    layer: "RoIDataLayer"
    param_str: "{\"num_classes\": 2}"
  }
}
layer {
  name: "conv1_1"
  type: "Convolution"
  bottom: "input_data"
  top: "conv1_1"
  param {
    lr_mult: 0
    decay_mult: 0
  }
  param {
    lr_mult: 0
    decay_mult: 0
  }
  convolution_param {
    num_output: 64
    pad: 1
    kernel_size: 3
  }
}
layer {
  name: "relu1_1"
  type: "ReLU"
  bottom: "conv1_1"
  top: "conv1_1"
}
layer {
  name: "conv1_2"
  type: "Convolution"
  bottom: "conv1_1"
  top: "conv1_2"
  param {
    lr_mult: 0
    decay_mult: 0
  }
  param {
    lr_mult: 0
    decay_mult: 0
  }
  convolution_param {
    num_output: 64
    pad: 1
    kernel_size: 3
  }
}
layer {
  name: "relu1_2"
  type: "ReLU"
  bottom: "conv1_2"
  top: "conv1_2"
}
layer {
  name: "pool1"
  type: "Pooling"
  bottom: "conv1_2"
  top: "pool1"
  pooling_param {
    pool: MAX
    kernel_size: 2
    stride: 2
  }
}
layer {
  name: "conv2_1"
  type: "Convolution"
  bottom: "pool1"
  top: "conv2_1"
  param {
    lr_mult: 0
    decay_mult: 0
  }
  param {
    lr_mult: 0
    decay_mult: 0
  }
  convolution_param {
    num_output: 128
    pad: 1
    kernel_size: 3
  }
}
layer {
  name: "relu2_1"
  type: "ReLU"
  bottom: "conv2_1"
  top: "conv2_1"
}
layer {
  name: "conv2_2"
  type: "Convolution"
  bottom: "conv2_1"
  top: "conv2_2"
  param {
    lr_mult: 0
    decay_mult: 0
  }
  param {
    lr_mult: 0
    decay_mult: 0
  }
  convolution_param {
    num_output: 128
    pad: 1
    kernel_size: 3
  }
}
layer {
  name: "relu2_2"
  type: "ReLU"
  bottom: "conv2_2"
  top: "conv2_2"
}
layer {
  name: "pool2"
  type: "Pooling"
  bottom: "conv2_2"
  top: "pool2"
  pooling_param {
    pool: MAX
    kernel_size: 2
    stride: 2
  }
}
layer {
  name: "conv3_1"
  type: "Convolution"
  bottom: "pool2"
  top: "conv3_1"
  param {
    lr_mult: 1
  }
  param {
    lr_mult: 2
  }
  convolution_param {
    num_output: 256
    pad: 1
    kernel_size: 3
  }
}
layer {
  name: "relu3_1"
  type: "ReLU"
  bottom: "conv3_1"
  top: "conv3_1"
}
layer {
  name: "conv3_2"
  type: "Convolution"
  bottom: "conv3_1"
  top: "conv3_2"
  param {
    lr_mult: 1
  }
  param {
    lr_mult: 2
  }
  convolution_param {
    num_output: 256
    pad: 1
    kernel_size: 3
  }
}
layer {
  name: "relu3_2"
  type: "ReLU"
  bottom: "conv3_2"
  top: "conv3_2"
}
layer {
  name: "conv3_3"
  type: "Convolution"
  bottom: "conv3_2"
  top: "conv3_3"
  param {
    lr_mult: 1
  }
  param {
    lr_mult: 2
  }
  convolution_param {
    num_output: 256
    pad: 1
    kernel_size: 3
  }
}
layer {
  name: "relu3_3"
  type: "ReLU"
  bottom: "conv3_3"
  top: "conv3_3"
}
layer {
  name: "pool3"
  type: "Pooling"
  bottom: "conv3_3"
  top: "pool3"
  pooling_param {
    pool: MAX
    kernel_size: 2
    stride: 2
  }
}
layer {
  name: "conv4_1"
  type: "Convolution"
  bottom: "pool3"
  top: "conv4_1"
  param {
    lr_mult: 1
  }
  param {
    lr_mult: 2
  }
  convolution_param {
    num_output: 512
    pad: 1
    kernel_size: 3
  }
}
layer {
  name: "relu4_1"
  type: "ReLU"
  bottom: "conv4_1"
  top: "conv4_1"
}
layer {
  name: "conv4_2"
  type: "Convolution"
  bottom: "conv4_1"
  top: "conv4_2"
  param {
    lr_mult: 1
  }
  param {
    lr_mult: 2
  }
  convolution_param {
    num_output: 512
    pad: 1
    kernel_size: 3
  }
}
layer {
  name: "relu4_2"
  type: "ReLU"
  bottom: "conv4_2"
  top: "conv4_2"
}
layer {
  name: "conv4_3"
  type: "Convolution"
  bottom: "conv4_2"
  top: "conv4_3"
  param {
    lr_mult: 1
  }
  param {
    lr_mult: 2
  }
  convolution_param {
    num_output: 512
    pad: 1
    kernel_size: 3
  }
}
layer {
  name: "relu4_3"
  type: "ReLU"
  bottom: "conv4_3"
  top: "conv4_3"
}
layer {
  name: "pool4"
  type: "Pooling"
  bottom: "conv4_3"
  top: "pool4"
  pooling_param {
    pool: MAX
    kernel_size: 2
    stride: 2
  }
}
layer {
  name: "conv5_1"
  type: "Convolution"
  bottom: "pool4"
  top: "conv5_1"
  param {
    lr_mult: 1
  }
  param {
    lr_mult: 2
  }
  convolution_param {
    num_output: 512
    pad: 1
    kernel_size: 3
  }
}
layer {
  name: "relu5_1"
  type: "ReLU"
  bottom: "conv5_1"
  top: "conv5_1"
}
layer {
  name: "conv5_2"
  type: "Convolution"
  bottom: "conv5_1"
  top: "conv5_2"
  param {
    lr_mult: 1
  }
  param {
    lr_mult: 2
  }
  convolution_param {
    num_output: 512
    pad: 1
    kernel_size: 3
  }
}
layer {
  name: "relu5_2"
  type: "ReLU"
  bottom: "conv5_2"
  top: "conv5_2"
}
layer {
  name: "conv5_3"
  type: "Convolution"
  bottom: "conv5_2"
  top: "conv5_3"
  param {
    lr_mult: 1
  }
  param {
    lr_mult: 2
  }
  convolution_param {
    num_output: 512
    pad: 1
    kernel_size: 3
  }
}
layer {
  name: "relu5_3"
  type: "ReLU"
  bottom: "conv5_3"
  top: "conv5_3"
}
layer {
  name: "rpn_big_conv1"
  type: "Convolution"
  bottom: "conv5_3"
  top: "rpn_big_conv1"
  param {
    lr_mult: 1
  }
  param {
    lr_mult: 2
  }
  convolution_param {
    num_output: 512
    pad: 1
    kernel_size: 3
    stride: 1
    weight_filler {
      type: "gaussian"
      mean: 0
      std: 0.01
    }
    bias_filler {
      type: "constant"
    }
  }
}
layer {
  name: "rpn_big_conv1_relu"
  type: "ReLU"
  bottom: "rpn_big_conv1"
  top: "rpn_big_conv1"
  relu_param {
    negative_slope: 0
  }
}
layer {
  name: "rpn_big_conv2"
  type: "Convolution"
  bottom: "rpn_big_conv1"
  top: "rpn_big_conv2"
  param {
    lr_mult: 1
  }
  param {
    lr_mult: 2
  }
  convolution_param {
    num_output: 512
    pad: 1
    kernel_size: 3
    stride: 1
    weight_filler {
      type: "gaussian"
      mean: 0
      std: 0.01
    }
    bias_filler {
      type: "constant"
    }
  }
}
layer {
  name: "rpn_big_conv2_relu"
  type: "ReLU"
  bottom: "rpn_big_conv2"
  top: "rpn_big_conv2"
  relu_param {
    negative_slope: 0
  }
}
layer {
  name: "rpn_big_conv2_drop"
  type: "Dropout"
  bottom: "rpn_big_conv2"
  top: "rpn_big_conv2"
  dropout_param {
    dropout_ratio: 0.3
  }
}
layer {
  name: "rpn_big_output_cls"
  type: "Convolution"
  bottom: "rpn_big_conv2"
  top: "rpn_big_output_cls"
  param {
    lr_mult: 1
  }
  param {
    lr_mult: 2
  }
  convolution_param {
    num_output: 384
    pad: 1
    kernel_size: 3
    stride: 1
    weight_filler {
      type: "gaussian"
      mean: 0
      std: 0.01
    }
    bias_filler {
      type: "constant"
    }
  }
}
layer {
  name: "rpn_big_output_cls_relu"
  type: "ReLU"
  bottom: "rpn_big_output_cls"
  top: "rpn_big_output_cls"
  relu_param {
    negative_slope: 0
  }
}
layer {
  name: "rpn_big_cls_score"
  type: "Convolution"
  bottom: "rpn_big_output_cls"
  top: "rpn_big_cls_score"
  param {
    lr_mult: 1
  }
  param {
    lr_mult: 2
  }
  convolution_param {
    num_output: 52
    pad: 0
    kernel_size: 3
    stride: 1
    weight_filler {
      type: "gaussian"
      mean: 0
      std: 0.01
    }
    bias_filler {
      type: "constant"
    }
  }
}
layer {
  name: "rpn_big_cls_score_reshape"
  type: "Reshape"
  bottom: "rpn_big_cls_score"
  top: "rpn_big_cls_score_reshape"
  reshape_param {
    shape {
      dim: 0
      dim: 2
      dim: -1
      dim: 0
    }
  }
}
layer {
  name: "rpn_big_cls_prob"
  type: "Softmax"
  bottom: "rpn_big_cls_score_reshape"
  top: "rpn_big_cls_prob"
}
layer {
  name: "rpn_big_cls_prob_reshape"
  type: "Reshape"
  bottom: "rpn_big_cls_prob"
  top: "rpn_big_cls_prob_reshape"
  reshape_param {
    shape {
      dim: 0
      dim: 52
      dim: -1
      dim: 0
    }
  }
}
layer {
  name: "rpn_big_anchor_target"
  type: "Python"
  bottom: "rpn_big_cls_score"
  bottom: "input_gt_boxes"
  bottom: "input_ignored_boxes"
  bottom: "input_im_info"
  bottom: "input_data"
  bottom: "rpn_big_cls_prob_reshape"
  top: "rpn_big_anchor_target_labels"
  top: "rpn_big_anchor_target_bbox_targets"
  top: "rpn_big_anchor_target_inside_weights"
  top: "rpn_big_anchor_target_outside_weights"
  python_param {
    module: "rpn.anchor_target_layer"
    layer: "AnchorTargetLayer"
    param_str: "{\"feat_stride\": 16, \"square_targets\": true, \"anchor_scales\": [2.5, 3.025, 3.66025, 4.4289024999999995, 5.358972025, 6.484356150249999, 7.846070941802498, 9.493745839581022, 11.487432465893036, 13.899793283730574, 16.818749873313998, 20.350687346709933, 24.62433168951902, 29.795441344318014], \"name\": \"rpn_big\", \"fg_fraction\": 0.5, \"anchor_shift_num_xy\": [[2, 2], [2, 2], [2, 2], [2, 2], [1, 1], [1, 1], [1, 1], [1, 1], [1, 1], [1, 1], [1, 1], [1, 1], [1, 1], [1, 1]], \"negative_overlap\": 0.4, \"anchor_ratios\": [1.0], \"tn_fraction\": 0.2, \"positive_overlap\": 0.6, \"num_classes\": 1, \"batchsize\": 256}"
  }
}
layer {
  name: "rpn_big_loss_cls"
  type: "SoftmaxWithLoss"
  bottom: "rpn_big_cls_score_reshape"
  bottom: "rpn_big_anchor_target_labels"
  top: "rpn_big_loss_cls"
  loss_weight: 1
  propagate_down: true
  propagate_down: false
  loss_param {
    ignore_label: -1
    normalization: VALID
  }
}
layer {
  name: "rpn_big_output_box"
  type: "Convolution"
  bottom: "rpn_big_conv2"
  top: "rpn_big_output_box"
  param {
    lr_mult: 1
  }
  param {
    lr_mult: 2
  }
  convolution_param {
    num_output: 384
    pad: 1
    kernel_size: 3
    stride: 1
    weight_filler {
      type: "gaussian"
      mean: 0
      std: 0.01
    }
    bias_filler {
      type: "constant"
    }
  }
}
layer {
  name: "rpn_big_output_box_relu"
  type: "ReLU"
  bottom: "rpn_big_output_box"
  top: "rpn_big_output_box"
  relu_param {
    negative_slope: 0
  }
}
layer {
  name: "rpn_big_bbox_pred"
  type: "Convolution"
  bottom: "rpn_big_output_box"
  top: "rpn_big_bbox_pred"
  param {
    lr_mult: 1
  }
  param {
    lr_mult: 2
  }
  convolution_param {
    num_output: 104
    pad: 0
    kernel_size: 3
    stride: 1
    weight_filler {
      type: "gaussian"
      mean: 0
      std: 0.01
    }
    bias_filler {
      type: "constant"
    }
  }
}
layer {
  name: "rpn_big_loss_bbox"
  type: "Python"
  bottom: "rpn_big_bbox_pred"
  bottom: "rpn_big_anchor_target_bbox_targets"
  bottom: "rpn_big_anchor_target_inside_weights"
  bottom: "rpn_big_anchor_target_outside_weights"
  top: "rpn_big_loss_bbox"
  loss_weight: 1
  python_param {
    module: "layers.smooth_l1_loss"
    layer: "SmoothL1LossLayer"
    param_str: "{\"sigma\": 3}"
  }
}
layer {
  name: "MyLoss"
  type: "Accuracy"
  bottom: "conv3_1"
  top: "MyLoss"
}
I0412 20:27:57.338469  4509 layer_factory.hpp:77] Creating layer input
I0412 20:27:57.339720  4509 net.cpp:100] Creating Layer input
I0412 20:27:57.339738  4509 net.cpp:408] input -> input_data
I0412 20:27:57.339751  4509 net.cpp:408] input -> input_im_info
I0412 20:27:57.339758  4509 net.cpp:408] input -> input_gt_boxes
I0412 20:27:57.339766  4509 net.cpp:408] input -> input_ignored_boxes
RoiDataLayer: name_to_top: {'data': 0, 'ignored_boxes': 3, 'im_info': 1, 'gt_boxes': 2}
I0412 20:27:57.652359  4509 net.cpp:150] Setting up input
I0412 20:27:57.652384  4509 net.cpp:157] Top shape: 1 3 1000 1500 (4500000)
I0412 20:27:57.652389  4509 net.cpp:157] Top shape: 1 3 (3)
I0412 20:27:57.652392  4509 net.cpp:157] Top shape: 1 5 (5)
I0412 20:27:57.652396  4509 net.cpp:157] Top shape: 1 5 (5)
I0412 20:27:57.652400  4509 net.cpp:165] Memory required for data: 18000052
I0412 20:27:57.652405  4509 layer_factory.hpp:77] Creating layer input_data_input_0_split
I0412 20:27:57.652420  4509 net.cpp:100] Creating Layer input_data_input_0_split
I0412 20:27:57.652427  4509 net.cpp:434] input_data_input_0_split <- input_data
I0412 20:27:57.652439  4509 net.cpp:408] input_data_input_0_split -> input_data_input_0_split_0
I0412 20:27:57.652459  4509 net.cpp:408] input_data_input_0_split -> input_data_input_0_split_1
I0412 20:27:57.652508  4509 net.cpp:150] Setting up input_data_input_0_split
I0412 20:27:57.652518  4509 net.cpp:157] Top shape: 1 3 1000 1500 (4500000)
I0412 20:27:57.652526  4509 net.cpp:157] Top shape: 1 3 1000 1500 (4500000)
I0412 20:27:57.652532  4509 net.cpp:165] Memory required for data: 54000052
I0412 20:27:57.652541  4509 layer_factory.hpp:77] Creating layer conv1_1
I0412 20:27:57.652559  4509 net.cpp:100] Creating Layer conv1_1
I0412 20:27:57.652566  4509 net.cpp:434] conv1_1 <- input_data_input_0_split_0
I0412 20:27:57.652580  4509 net.cpp:408] conv1_1 -> conv1_1
I0412 20:27:57.655587  4509 net.cpp:150] Setting up conv1_1
I0412 20:27:57.655627  4509 net.cpp:157] Top shape: 1 64 1000 1500 (96000000)
I0412 20:27:57.655633  4509 net.cpp:165] Memory required for data: 438000052
I0412 20:27:57.655658  4509 layer_factory.hpp:77] Creating layer relu1_1
I0412 20:27:57.655674  4509 net.cpp:100] Creating Layer relu1_1
I0412 20:27:57.655683  4509 net.cpp:434] relu1_1 <- conv1_1
I0412 20:27:57.655697  4509 net.cpp:395] relu1_1 -> conv1_1 (in-place)
I0412 20:27:57.655715  4509 net.cpp:150] Setting up relu1_1
I0412 20:27:57.655725  4509 net.cpp:157] Top shape: 1 64 1000 1500 (96000000)
I0412 20:27:57.655730  4509 net.cpp:165] Memory required for data: 822000052
I0412 20:27:57.655737  4509 layer_factory.hpp:77] Creating layer conv1_2
I0412 20:27:57.655756  4509 net.cpp:100] Creating Layer conv1_2
I0412 20:27:57.655766  4509 net.cpp:434] conv1_2 <- conv1_1
I0412 20:27:57.655786  4509 net.cpp:408] conv1_2 -> conv1_2
I0412 20:27:57.658995  4509 net.cpp:150] Setting up conv1_2
I0412 20:27:57.659032  4509 net.cpp:157] Top shape: 1 64 1000 1500 (96000000)
I0412 20:27:57.659039  4509 net.cpp:165] Memory required for data: 1206000052
I0412 20:27:57.659062  4509 layer_factory.hpp:77] Creating layer relu1_2
I0412 20:27:57.659082  4509 net.cpp:100] Creating Layer relu1_2
I0412 20:27:57.659091  4509 net.cpp:434] relu1_2 <- conv1_2
I0412 20:27:57.659103  4509 net.cpp:395] relu1_2 -> conv1_2 (in-place)
I0412 20:27:57.659119  4509 net.cpp:150] Setting up relu1_2
I0412 20:27:57.659129  4509 net.cpp:157] Top shape: 1 64 1000 1500 (96000000)
I0412 20:27:57.659137  4509 net.cpp:165] Memory required for data: 1590000052
I0412 20:27:57.659142  4509 layer_factory.hpp:77] Creating layer pool1
I0412 20:27:57.659152  4509 net.cpp:100] Creating Layer pool1
I0412 20:27:57.659159  4509 net.cpp:434] pool1 <- conv1_2
I0412 20:27:57.659170  4509 net.cpp:408] pool1 -> pool1
I0412 20:27:57.659250  4509 net.cpp:150] Setting up pool1
I0412 20:27:57.659260  4509 net.cpp:157] Top shape: 1 64 500 750 (24000000)
I0412 20:27:57.659266  4509 net.cpp:165] Memory required for data: 1686000052
I0412 20:27:57.659274  4509 layer_factory.hpp:77] Creating layer conv2_1
I0412 20:27:57.659293  4509 net.cpp:100] Creating Layer conv2_1
I0412 20:27:57.659299  4509 net.cpp:434] conv2_1 <- pool1
I0412 20:27:57.659310  4509 net.cpp:408] conv2_1 -> conv2_1
I0412 20:27:57.660545  4509 net.cpp:150] Setting up conv2_1
I0412 20:27:57.660570  4509 net.cpp:157] Top shape: 1 128 500 750 (48000000)
I0412 20:27:57.660576  4509 net.cpp:165] Memory required for data: 1878000052
I0412 20:27:57.660593  4509 layer_factory.hpp:77] Creating layer relu2_1
I0412 20:27:57.660610  4509 net.cpp:100] Creating Layer relu2_1
I0412 20:27:57.660617  4509 net.cpp:434] relu2_1 <- conv2_1
I0412 20:27:57.660627  4509 net.cpp:395] relu2_1 -> conv2_1 (in-place)
I0412 20:27:57.660640  4509 net.cpp:150] Setting up relu2_1
I0412 20:27:57.660650  4509 net.cpp:157] Top shape: 1 128 500 750 (48000000)
I0412 20:27:57.660657  4509 net.cpp:165] Memory required for data: 2070000052
I0412 20:27:57.660663  4509 layer_factory.hpp:77] Creating layer conv2_2
I0412 20:27:57.660681  4509 net.cpp:100] Creating Layer conv2_2
I0412 20:27:57.660686  4509 net.cpp:434] conv2_2 <- conv2_1
I0412 20:27:57.660698  4509 net.cpp:408] conv2_2 -> conv2_2
I0412 20:27:57.661628  4509 net.cpp:150] Setting up conv2_2
I0412 20:27:57.661651  4509 net.cpp:157] Top shape: 1 128 500 750 (48000000)
I0412 20:27:57.661658  4509 net.cpp:165] Memory required for data: 2262000052
I0412 20:27:57.661671  4509 layer_factory.hpp:77] Creating layer relu2_2
I0412 20:27:57.661684  4509 net.cpp:100] Creating Layer relu2_2
I0412 20:27:57.661695  4509 net.cpp:434] relu2_2 <- conv2_2
I0412 20:27:57.661705  4509 net.cpp:395] relu2_2 -> conv2_2 (in-place)
I0412 20:27:57.661718  4509 net.cpp:150] Setting up relu2_2
I0412 20:27:57.661727  4509 net.cpp:157] Top shape: 1 128 500 750 (48000000)
I0412 20:27:57.661734  4509 net.cpp:165] Memory required for data: 2454000052
I0412 20:27:57.661741  4509 layer_factory.hpp:77] Creating layer pool2
I0412 20:27:57.661752  4509 net.cpp:100] Creating Layer pool2
I0412 20:27:57.661761  4509 net.cpp:434] pool2 <- conv2_2
I0412 20:27:57.661772  4509 net.cpp:408] pool2 -> pool2
I0412 20:27:57.661820  4509 net.cpp:150] Setting up pool2
I0412 20:27:57.661834  4509 net.cpp:157] Top shape: 1 128 250 375 (12000000)
I0412 20:27:57.661841  4509 net.cpp:165] Memory required for data: 2502000052
I0412 20:27:57.661847  4509 layer_factory.hpp:77] Creating layer conv3_1
I0412 20:27:57.661862  4509 net.cpp:100] Creating Layer conv3_1
I0412 20:27:57.661871  4509 net.cpp:434] conv3_1 <- pool2
I0412 20:27:57.661881  4509 net.cpp:408] conv3_1 -> conv3_1
I0412 20:27:57.662972  4509 net.cpp:150] Setting up conv3_1
I0412 20:27:57.662999  4509 net.cpp:157] Top shape: 1 256 250 375 (24000000)
I0412 20:27:57.663004  4509 net.cpp:165] Memory required for data: 2598000052
I0412 20:27:57.663024  4509 layer_factory.hpp:77] Creating layer relu3_1
I0412 20:27:57.663036  4509 net.cpp:100] Creating Layer relu3_1
I0412 20:27:57.663044  4509 net.cpp:434] relu3_1 <- conv3_1
I0412 20:27:57.663059  4509 net.cpp:395] relu3_1 -> conv3_1 (in-place)
I0412 20:27:57.663072  4509 net.cpp:150] Setting up relu3_1
I0412 20:27:57.663082  4509 net.cpp:157] Top shape: 1 256 250 375 (24000000)
I0412 20:27:57.663089  4509 net.cpp:165] Memory required for data: 2694000052
I0412 20:27:57.663095  4509 layer_factory.hpp:77] Creating layer conv3_1_relu3_1_0_split
I0412 20:27:57.663106  4509 net.cpp:100] Creating Layer conv3_1_relu3_1_0_split
I0412 20:27:57.663113  4509 net.cpp:434] conv3_1_relu3_1_0_split <- conv3_1
I0412 20:27:57.663123  4509 net.cpp:408] conv3_1_relu3_1_0_split -> conv3_1_relu3_1_0_split_0
I0412 20:27:57.663136  4509 net.cpp:408] conv3_1_relu3_1_0_split -> conv3_1_relu3_1_0_split_1
I0412 20:27:57.663182  4509 net.cpp:150] Setting up conv3_1_relu3_1_0_split
I0412 20:27:57.663193  4509 net.cpp:157] Top shape: 1 256 250 375 (24000000)
I0412 20:27:57.663202  4509 net.cpp:157] Top shape: 1 256 250 375 (24000000)
I0412 20:27:57.663208  4509 net.cpp:165] Memory required for data: 2886000052
I0412 20:27:57.663215  4509 layer_factory.hpp:77] Creating layer conv3_2
I0412 20:27:57.663235  4509 net.cpp:100] Creating Layer conv3_2
I0412 20:27:57.663244  4509 net.cpp:434] conv3_2 <- conv3_1_relu3_1_0_split_0
I0412 20:27:57.663255  4509 net.cpp:408] conv3_2 -> conv3_2
I0412 20:27:57.664446  4509 net.cpp:150] Setting up conv3_2
I0412 20:27:57.664477  4509 net.cpp:157] Top shape: 1 256 250 375 (24000000)
I0412 20:27:57.664484  4509 net.cpp:165] Memory required for data: 2982000052
I0412 20:27:57.664496  4509 layer_factory.hpp:77] Creating layer relu3_2
I0412 20:27:57.664516  4509 net.cpp:100] Creating Layer relu3_2
I0412 20:27:57.664525  4509 net.cpp:434] relu3_2 <- conv3_2
I0412 20:27:57.664536  4509 net.cpp:395] relu3_2 -> conv3_2 (in-place)
I0412 20:27:57.664551  4509 net.cpp:150] Setting up relu3_2
I0412 20:27:57.664559  4509 net.cpp:157] Top shape: 1 256 250 375 (24000000)
I0412 20:27:57.664566  4509 net.cpp:165] Memory required for data: 3078000052
I0412 20:27:57.664573  4509 layer_factory.hpp:77] Creating layer conv3_3
I0412 20:27:57.664589  4509 net.cpp:100] Creating Layer conv3_3
I0412 20:27:57.664597  4509 net.cpp:434] conv3_3 <- conv3_2
I0412 20:27:57.664607  4509 net.cpp:408] conv3_3 -> conv3_3
I0412 20:27:57.666155  4509 net.cpp:150] Setting up conv3_3
I0412 20:27:57.666190  4509 net.cpp:157] Top shape: 1 256 250 375 (24000000)
I0412 20:27:57.666196  4509 net.cpp:165] Memory required for data: 3174000052
I0412 20:27:57.666211  4509 layer_factory.hpp:77] Creating layer relu3_3
I0412 20:27:57.666227  4509 net.cpp:100] Creating Layer relu3_3
I0412 20:27:57.666236  4509 net.cpp:434] relu3_3 <- conv3_3
I0412 20:27:57.666250  4509 net.cpp:395] relu3_3 -> conv3_3 (in-place)
I0412 20:27:57.666266  4509 net.cpp:150] Setting up relu3_3
I0412 20:27:57.666275  4509 net.cpp:157] Top shape: 1 256 250 375 (24000000)
I0412 20:27:57.666282  4509 net.cpp:165] Memory required for data: 3270000052
I0412 20:27:57.666288  4509 layer_factory.hpp:77] Creating layer pool3
I0412 20:27:57.666303  4509 net.cpp:100] Creating Layer pool3
I0412 20:27:57.666311  4509 net.cpp:434] pool3 <- conv3_3
I0412 20:27:57.666319  4509 net.cpp:408] pool3 -> pool3
I0412 20:27:57.666374  4509 net.cpp:150] Setting up pool3
I0412 20:27:57.666384  4509 net.cpp:157] Top shape: 1 256 125 188 (6016000)
I0412 20:27:57.666390  4509 net.cpp:165] Memory required for data: 3294064052
I0412 20:27:57.666399  4509 layer_factory.hpp:77] Creating layer conv4_1
I0412 20:27:57.666414  4509 net.cpp:100] Creating Layer conv4_1
I0412 20:27:57.666420  4509 net.cpp:434] conv4_1 <- pool3
I0412 20:27:57.666430  4509 net.cpp:408] conv4_1 -> conv4_1
I0412 20:27:57.669728  4509 net.cpp:150] Setting up conv4_1
I0412 20:27:57.669766  4509 net.cpp:157] Top shape: 1 512 125 188 (12032000)
I0412 20:27:57.669772  4509 net.cpp:165] Memory required for data: 3342192052
I0412 20:27:57.669788  4509 layer_factory.hpp:77] Creating layer relu4_1
I0412 20:27:57.669802  4509 net.cpp:100] Creating Layer relu4_1
I0412 20:27:57.669812  4509 net.cpp:434] relu4_1 <- conv4_1
I0412 20:27:57.669826  4509 net.cpp:395] relu4_1 -> conv4_1 (in-place)
I0412 20:27:57.669841  4509 net.cpp:150] Setting up relu4_1
I0412 20:27:57.669849  4509 net.cpp:157] Top shape: 1 512 125 188 (12032000)
I0412 20:27:57.669857  4509 net.cpp:165] Memory required for data: 3390320052
I0412 20:27:57.669863  4509 layer_factory.hpp:77] Creating layer conv4_2
I0412 20:27:57.669879  4509 net.cpp:100] Creating Layer conv4_2
I0412 20:27:57.669886  4509 net.cpp:434] conv4_2 <- conv4_1
I0412 20:27:57.669898  4509 net.cpp:408] conv4_2 -> conv4_2
I0412 20:27:57.674078  4509 net.cpp:150] Setting up conv4_2
I0412 20:27:57.674119  4509 net.cpp:157] Top shape: 1 512 125 188 (12032000)
I0412 20:27:57.674125  4509 net.cpp:165] Memory required for data: 3438448052
I0412 20:27:57.674149  4509 layer_factory.hpp:77] Creating layer relu4_2
I0412 20:27:57.674165  4509 net.cpp:100] Creating Layer relu4_2
I0412 20:27:57.674173  4509 net.cpp:434] relu4_2 <- conv4_2
I0412 20:27:57.674187  4509 net.cpp:395] relu4_2 -> conv4_2 (in-place)
I0412 20:27:57.674202  4509 net.cpp:150] Setting up relu4_2
I0412 20:27:57.674212  4509 net.cpp:157] Top shape: 1 512 125 188 (12032000)
I0412 20:27:57.674219  4509 net.cpp:165] Memory required for data: 3486576052
I0412 20:27:57.674226  4509 layer_factory.hpp:77] Creating layer conv4_3
I0412 20:27:57.674242  4509 net.cpp:100] Creating Layer conv4_3
I0412 20:27:57.674249  4509 net.cpp:434] conv4_3 <- conv4_2
I0412 20:27:57.674259  4509 net.cpp:408] conv4_3 -> conv4_3
I0412 20:27:57.678486  4509 net.cpp:150] Setting up conv4_3
I0412 20:27:57.678524  4509 net.cpp:157] Top shape: 1 512 125 188 (12032000)
I0412 20:27:57.678529  4509 net.cpp:165] Memory required for data: 3534704052
I0412 20:27:57.678544  4509 layer_factory.hpp:77] Creating layer relu4_3
I0412 20:27:57.678560  4509 net.cpp:100] Creating Layer relu4_3
I0412 20:27:57.678567  4509 net.cpp:434] relu4_3 <- conv4_3
I0412 20:27:57.678581  4509 net.cpp:395] relu4_3 -> conv4_3 (in-place)
I0412 20:27:57.678596  4509 net.cpp:150] Setting up relu4_3
I0412 20:27:57.678604  4509 net.cpp:157] Top shape: 1 512 125 188 (12032000)
I0412 20:27:57.678612  4509 net.cpp:165] Memory required for data: 3582832052
I0412 20:27:57.678618  4509 layer_factory.hpp:77] Creating layer pool4
I0412 20:27:57.678632  4509 net.cpp:100] Creating Layer pool4
I0412 20:27:57.678639  4509 net.cpp:434] pool4 <- conv4_3
I0412 20:27:57.678649  4509 net.cpp:408] pool4 -> pool4
I0412 20:27:57.678692  4509 net.cpp:150] Setting up pool4
I0412 20:27:57.678702  4509 net.cpp:157] Top shape: 1 512 63 94 (3032064)
I0412 20:27:57.678710  4509 net.cpp:165] Memory required for data: 3594960308
I0412 20:27:57.678716  4509 layer_factory.hpp:77] Creating layer conv5_1
I0412 20:27:57.678735  4509 net.cpp:100] Creating Layer conv5_1
I0412 20:27:57.678741  4509 net.cpp:434] conv5_1 <- pool4
I0412 20:27:57.678751  4509 net.cpp:408] conv5_1 -> conv5_1
I0412 20:27:57.683346  4509 net.cpp:150] Setting up conv5_1
I0412 20:27:57.683384  4509 net.cpp:157] Top shape: 1 512 63 94 (3032064)
I0412 20:27:57.683390  4509 net.cpp:165] Memory required for data: 3607088564
I0412 20:27:57.683404  4509 layer_factory.hpp:77] Creating layer relu5_1
I0412 20:27:57.683420  4509 net.cpp:100] Creating Layer relu5_1
I0412 20:27:57.683429  4509 net.cpp:434] relu5_1 <- conv5_1
I0412 20:27:57.683442  4509 net.cpp:395] relu5_1 -> conv5_1 (in-place)
I0412 20:27:57.683459  4509 net.cpp:150] Setting up relu5_1
I0412 20:27:57.683467  4509 net.cpp:157] Top shape: 1 512 63 94 (3032064)
I0412 20:27:57.683473  4509 net.cpp:165] Memory required for data: 3619216820
I0412 20:27:57.683480  4509 layer_factory.hpp:77] Creating layer conv5_2
I0412 20:27:57.683498  4509 net.cpp:100] Creating Layer conv5_2
I0412 20:27:57.683506  4509 net.cpp:434] conv5_2 <- conv5_1
I0412 20:27:57.683516  4509 net.cpp:408] conv5_2 -> conv5_2
I0412 20:27:57.688024  4509 net.cpp:150] Setting up conv5_2
I0412 20:27:57.688102  4509 net.cpp:157] Top shape: 1 512 63 94 (3032064)
I0412 20:27:57.688123  4509 net.cpp:165] Memory required for data: 3631345076
I0412 20:27:57.688153  4509 layer_factory.hpp:77] Creating layer relu5_2
I0412 20:27:57.688179  4509 net.cpp:100] Creating Layer relu5_2
I0412 20:27:57.688200  4509 net.cpp:434] relu5_2 <- conv5_2
I0412 20:27:57.688227  4509 net.cpp:395] relu5_2 -> conv5_2 (in-place)
I0412 20:27:57.688256  4509 net.cpp:150] Setting up relu5_2
I0412 20:27:57.688277  4509 net.cpp:157] Top shape: 1 512 63 94 (3032064)
I0412 20:27:57.688294  4509 net.cpp:165] Memory required for data: 3643473332
I0412 20:27:57.688313  4509 layer_factory.hpp:77] Creating layer conv5_3
I0412 20:27:57.688343  4509 net.cpp:100] Creating Layer conv5_3
I0412 20:27:57.688361  4509 net.cpp:434] conv5_3 <- conv5_2
I0412 20:27:57.688383  4509 net.cpp:408] conv5_3 -> conv5_3
I0412 20:27:57.693076  4509 net.cpp:150] Setting up conv5_3
I0412 20:27:57.693112  4509 net.cpp:157] Top shape: 1 512 63 94 (3032064)
I0412 20:27:57.693119  4509 net.cpp:165] Memory required for data: 3655601588
I0412 20:27:57.693133  4509 layer_factory.hpp:77] Creating layer relu5_3
I0412 20:27:57.693156  4509 net.cpp:100] Creating Layer relu5_3
I0412 20:27:57.693166  4509 net.cpp:434] relu5_3 <- conv5_3
I0412 20:27:57.693179  4509 net.cpp:395] relu5_3 -> conv5_3 (in-place)
I0412 20:27:57.693195  4509 net.cpp:150] Setting up relu5_3
I0412 20:27:57.693205  4509 net.cpp:157] Top shape: 1 512 63 94 (3032064)
I0412 20:27:57.693217  4509 net.cpp:165] Memory required for data: 3667729844
I0412 20:27:57.693223  4509 layer_factory.hpp:77] Creating layer rpn_big_conv1
I0412 20:27:57.693240  4509 net.cpp:100] Creating Layer rpn_big_conv1
I0412 20:27:57.693248  4509 net.cpp:434] rpn_big_conv1 <- conv5_3
I0412 20:27:57.693261  4509 net.cpp:408] rpn_big_conv1 -> rpn_big_conv1
I0412 20:27:57.719280  4509 net.cpp:150] Setting up rpn_big_conv1
I0412 20:27:57.719311  4509 net.cpp:157] Top shape: 1 512 63 94 (3032064)
I0412 20:27:57.719317  4509 net.cpp:165] Memory required for data: 3679858100
I0412 20:27:57.719341  4509 layer_factory.hpp:77] Creating layer rpn_big_conv1_relu
I0412 20:27:57.719359  4509 net.cpp:100] Creating Layer rpn_big_conv1_relu
I0412 20:27:57.719368  4509 net.cpp:434] rpn_big_conv1_relu <- rpn_big_conv1
I0412 20:27:57.719383  4509 net.cpp:395] rpn_big_conv1_relu -> rpn_big_conv1 (in-place)
I0412 20:27:57.719398  4509 net.cpp:150] Setting up rpn_big_conv1_relu
I0412 20:27:57.719408  4509 net.cpp:157] Top shape: 1 512 63 94 (3032064)
I0412 20:27:57.719414  4509 net.cpp:165] Memory required for data: 3691986356
I0412 20:27:57.719420  4509 layer_factory.hpp:77] Creating layer rpn_big_conv2
I0412 20:27:57.719436  4509 net.cpp:100] Creating Layer rpn_big_conv2
I0412 20:27:57.719444  4509 net.cpp:434] rpn_big_conv2 <- rpn_big_conv1
I0412 20:27:57.719456  4509 net.cpp:408] rpn_big_conv2 -> rpn_big_conv2
I0412 20:27:57.745276  4509 net.cpp:150] Setting up rpn_big_conv2
I0412 20:27:57.745306  4509 net.cpp:157] Top shape: 1 512 63 94 (3032064)
I0412 20:27:57.745312  4509 net.cpp:165] Memory required for data: 3704114612
I0412 20:27:57.745335  4509 layer_factory.hpp:77] Creating layer rpn_big_conv2_relu
I0412 20:27:57.745350  4509 net.cpp:100] Creating Layer rpn_big_conv2_relu
I0412 20:27:57.745358  4509 net.cpp:434] rpn_big_conv2_relu <- rpn_big_conv2
I0412 20:27:57.745373  4509 net.cpp:395] rpn_big_conv2_relu -> rpn_big_conv2 (in-place)
I0412 20:27:57.745388  4509 net.cpp:150] Setting up rpn_big_conv2_relu
I0412 20:27:57.745398  4509 net.cpp:157] Top shape: 1 512 63 94 (3032064)
I0412 20:27:57.745406  4509 net.cpp:165] Memory required for data: 3716242868
I0412 20:27:57.745412  4509 layer_factory.hpp:77] Creating layer rpn_big_conv2_drop
I0412 20:27:57.745424  4509 net.cpp:100] Creating Layer rpn_big_conv2_drop
I0412 20:27:57.745432  4509 net.cpp:434] rpn_big_conv2_drop <- rpn_big_conv2
I0412 20:27:57.745443  4509 net.cpp:395] rpn_big_conv2_drop -> rpn_big_conv2 (in-place)
I0412 20:27:57.745473  4509 net.cpp:150] Setting up rpn_big_conv2_drop
I0412 20:27:57.745483  4509 net.cpp:157] Top shape: 1 512 63 94 (3032064)
I0412 20:27:57.745489  4509 net.cpp:165] Memory required for data: 3728371124
I0412 20:27:57.745497  4509 layer_factory.hpp:77] Creating layer rpn_big_conv2_rpn_big_conv2_drop_0_split
I0412 20:27:57.745512  4509 net.cpp:100] Creating Layer rpn_big_conv2_rpn_big_conv2_drop_0_split
I0412 20:27:57.745519  4509 net.cpp:434] rpn_big_conv2_rpn_big_conv2_drop_0_split <- rpn_big_conv2
I0412 20:27:57.745529  4509 net.cpp:408] rpn_big_conv2_rpn_big_conv2_drop_0_split -> rpn_big_conv2_rpn_big_conv2_drop_0_split_0
I0412 20:27:57.745544  4509 net.cpp:408] rpn_big_conv2_rpn_big_conv2_drop_0_split -> rpn_big_conv2_rpn_big_conv2_drop_0_split_1
I0412 20:27:57.745584  4509 net.cpp:150] Setting up rpn_big_conv2_rpn_big_conv2_drop_0_split
I0412 20:27:57.745596  4509 net.cpp:157] Top shape: 1 512 63 94 (3032064)
I0412 20:27:57.745606  4509 net.cpp:157] Top shape: 1 512 63 94 (3032064)
I0412 20:27:57.745615  4509 net.cpp:165] Memory required for data: 3752627636
I0412 20:27:57.745620  4509 layer_factory.hpp:77] Creating layer rpn_big_output_cls
I0412 20:27:57.745638  4509 net.cpp:100] Creating Layer rpn_big_output_cls
I0412 20:27:57.745645  4509 net.cpp:434] rpn_big_output_cls <- rpn_big_conv2_rpn_big_conv2_drop_0_split_0
I0412 20:27:57.745657  4509 net.cpp:408] rpn_big_output_cls -> rpn_big_output_cls
I0412 20:27:57.765447  4509 net.cpp:150] Setting up rpn_big_output_cls
I0412 20:27:57.765481  4509 net.cpp:157] Top shape: 1 384 63 94 (2274048)
I0412 20:27:57.765487  4509 net.cpp:165] Memory required for data: 3761723828
I0412 20:27:57.765511  4509 layer_factory.hpp:77] Creating layer rpn_big_output_cls_relu
I0412 20:27:57.765530  4509 net.cpp:100] Creating Layer rpn_big_output_cls_relu
I0412 20:27:57.765539  4509 net.cpp:434] rpn_big_output_cls_relu <- rpn_big_output_cls
I0412 20:27:57.765554  4509 net.cpp:395] rpn_big_output_cls_relu -> rpn_big_output_cls (in-place)
I0412 20:27:57.765571  4509 net.cpp:150] Setting up rpn_big_output_cls_relu
I0412 20:27:57.765580  4509 net.cpp:157] Top shape: 1 384 63 94 (2274048)
I0412 20:27:57.765588  4509 net.cpp:165] Memory required for data: 3770820020
I0412 20:27:57.765594  4509 layer_factory.hpp:77] Creating layer rpn_big_cls_score
I0412 20:27:57.765614  4509 net.cpp:100] Creating Layer rpn_big_cls_score
I0412 20:27:57.765621  4509 net.cpp:434] rpn_big_cls_score <- rpn_big_output_cls
I0412 20:27:57.765632  4509 net.cpp:408] rpn_big_cls_score -> rpn_big_cls_score
I0412 20:27:57.770738  4509 net.cpp:150] Setting up rpn_big_cls_score
I0412 20:27:57.770766  4509 net.cpp:157] Top shape: 1 52 61 92 (291824)
I0412 20:27:57.770771  4509 net.cpp:165] Memory required for data: 3771987316
I0412 20:27:57.770794  4509 layer_factory.hpp:77] Creating layer rpn_big_cls_score_rpn_big_cls_score_0_split
I0412 20:27:57.770812  4509 net.cpp:100] Creating Layer rpn_big_cls_score_rpn_big_cls_score_0_split
I0412 20:27:57.770823  4509 net.cpp:434] rpn_big_cls_score_rpn_big_cls_score_0_split <- rpn_big_cls_score
I0412 20:27:57.770834  4509 net.cpp:408] rpn_big_cls_score_rpn_big_cls_score_0_split -> rpn_big_cls_score_rpn_big_cls_score_0_split_0
I0412 20:27:57.770853  4509 net.cpp:408] rpn_big_cls_score_rpn_big_cls_score_0_split -> rpn_big_cls_score_rpn_big_cls_score_0_split_1
I0412 20:27:57.770900  4509 net.cpp:150] Setting up rpn_big_cls_score_rpn_big_cls_score_0_split
I0412 20:27:57.770911  4509 net.cpp:157] Top shape: 1 52 61 92 (291824)
I0412 20:27:57.770920  4509 net.cpp:157] Top shape: 1 52 61 92 (291824)
I0412 20:27:57.770927  4509 net.cpp:165] Memory required for data: 3774321908
I0412 20:27:57.770934  4509 layer_factory.hpp:77] Creating layer rpn_big_cls_score_reshape
I0412 20:27:57.770949  4509 net.cpp:100] Creating Layer rpn_big_cls_score_reshape
I0412 20:27:57.770956  4509 net.cpp:434] rpn_big_cls_score_reshape <- rpn_big_cls_score_rpn_big_cls_score_0_split_0
I0412 20:27:57.770968  4509 net.cpp:408] rpn_big_cls_score_reshape -> rpn_big_cls_score_reshape
I0412 20:27:57.771003  4509 net.cpp:150] Setting up rpn_big_cls_score_reshape
I0412 20:27:57.771011  4509 net.cpp:157] Top shape: 1 2 1586 92 (291824)
I0412 20:27:57.771018  4509 net.cpp:165] Memory required for data: 3775489204
I0412 20:27:57.771024  4509 layer_factory.hpp:77] Creating layer rpn_big_cls_score_reshape_rpn_big_cls_score_reshape_0_split
I0412 20:27:57.771035  4509 net.cpp:100] Creating Layer rpn_big_cls_score_reshape_rpn_big_cls_score_reshape_0_split
I0412 20:27:57.771044  4509 net.cpp:434] rpn_big_cls_score_reshape_rpn_big_cls_score_reshape_0_split <- rpn_big_cls_score_reshape
I0412 20:27:57.771055  4509 net.cpp:408] rpn_big_cls_score_reshape_rpn_big_cls_score_reshape_0_split -> rpn_big_cls_score_reshape_rpn_big_cls_score_reshape_0_split_0
I0412 20:27:57.771069  4509 net.cpp:408] rpn_big_cls_score_reshape_rpn_big_cls_score_reshape_0_split -> rpn_big_cls_score_reshape_rpn_big_cls_score_reshape_0_split_1
I0412 20:27:57.771108  4509 net.cpp:150] Setting up rpn_big_cls_score_reshape_rpn_big_cls_score_reshape_0_split
I0412 20:27:57.771118  4509 net.cpp:157] Top shape: 1 2 1586 92 (291824)
I0412 20:27:57.771127  4509 net.cpp:157] Top shape: 1 2 1586 92 (291824)
I0412 20:27:57.771134  4509 net.cpp:165] Memory required for data: 3777823796
I0412 20:27:57.771140  4509 layer_factory.hpp:77] Creating layer rpn_big_cls_prob
I0412 20:27:57.771153  4509 net.cpp:100] Creating Layer rpn_big_cls_prob
I0412 20:27:57.771162  4509 net.cpp:434] rpn_big_cls_prob <- rpn_big_cls_score_reshape_rpn_big_cls_score_reshape_0_split_0
I0412 20:27:57.771170  4509 net.cpp:408] rpn_big_cls_prob -> rpn_big_cls_prob
I0412 20:27:57.771232  4509 net.cpp:150] Setting up rpn_big_cls_prob
I0412 20:27:57.771242  4509 net.cpp:157] Top shape: 1 2 1586 92 (291824)
I0412 20:27:57.771248  4509 net.cpp:165] Memory required for data: 3778991092
I0412 20:27:57.771256  4509 layer_factory.hpp:77] Creating layer rpn_big_cls_prob_reshape
I0412 20:27:57.771266  4509 net.cpp:100] Creating Layer rpn_big_cls_prob_reshape
I0412 20:27:57.771275  4509 net.cpp:434] rpn_big_cls_prob_reshape <- rpn_big_cls_prob
I0412 20:27:57.771284  4509 net.cpp:408] rpn_big_cls_prob_reshape -> rpn_big_cls_prob_reshape
I0412 20:27:57.771314  4509 net.cpp:150] Setting up rpn_big_cls_prob_reshape
I0412 20:27:57.771324  4509 net.cpp:157] Top shape: 1 52 61 92 (291824)
I0412 20:27:57.771330  4509 net.cpp:165] Memory required for data: 3780158388
I0412 20:27:57.771337  4509 layer_factory.hpp:77] Creating layer rpn_big_anchor_target
I0412 20:27:57.772645  4509 net.cpp:100] Creating Layer rpn_big_anchor_target
I0412 20:27:57.772661  4509 net.cpp:434] rpn_big_anchor_target <- rpn_big_cls_score_rpn_big_cls_score_0_split_1
I0412 20:27:57.772670  4509 net.cpp:434] rpn_big_anchor_target <- input_gt_boxes
I0412 20:27:57.772680  4509 net.cpp:434] rpn_big_anchor_target <- input_ignored_boxes
I0412 20:27:57.772686  4509 net.cpp:434] rpn_big_anchor_target <- input_im_info
I0412 20:27:57.772696  4509 net.cpp:434] rpn_big_anchor_target <- input_data_input_0_split_1
I0412 20:27:57.772706  4509 net.cpp:434] rpn_big_anchor_target <- rpn_big_cls_prob_reshape
I0412 20:27:57.772718  4509 net.cpp:408] rpn_big_anchor_target -> rpn_big_anchor_target_labels
I0412 20:27:57.772734  4509 net.cpp:408] rpn_big_anchor_target -> rpn_big_anchor_target_bbox_targets
I0412 20:27:57.772749  4509 net.cpp:408] rpn_big_anchor_target -> rpn_big_anchor_target_inside_weights
I0412 20:27:57.772764  4509 net.cpp:408] rpn_big_anchor_target -> rpn_big_anchor_target_outside_weights
I0412 20:27:57.777550  4509 net.cpp:150] Setting up rpn_big_anchor_target
I0412 20:27:57.777581  4509 net.cpp:157] Top shape: 1 1 1586 92 (145912)
I0412 20:27:57.777590  4509 net.cpp:157] Top shape: 1 104 61 92 (583648)
I0412 20:27:57.777597  4509 net.cpp:157] Top shape: 1 104 61 92 (583648)
I0412 20:27:57.777604  4509 net.cpp:157] Top shape: 1 104 61 92 (583648)
I0412 20:27:57.777609  4509 net.cpp:165] Memory required for data: 3787745812
I0412 20:27:57.777618  4509 layer_factory.hpp:77] Creating layer rpn_big_loss_cls
I0412 20:27:57.777638  4509 net.cpp:100] Creating Layer rpn_big_loss_cls
I0412 20:27:57.777649  4509 net.cpp:434] rpn_big_loss_cls <- rpn_big_cls_score_reshape_rpn_big_cls_score_reshape_0_split_1
I0412 20:27:57.777663  4509 net.cpp:434] rpn_big_loss_cls <- rpn_big_anchor_target_labels
I0412 20:27:57.777676  4509 net.cpp:408] rpn_big_loss_cls -> rpn_big_loss_cls
I0412 20:27:57.777698  4509 layer_factory.hpp:77] Creating layer rpn_big_loss_cls
I0412 20:27:57.778429  4509 net.cpp:150] Setting up rpn_big_loss_cls
I0412 20:27:57.778445  4509 net.cpp:157] Top shape: (1)
I0412 20:27:57.778451  4509 net.cpp:160]     with loss weight 1
I0412 20:27:57.778467  4509 net.cpp:165] Memory required for data: 3787745816
I0412 20:27:57.778475  4509 layer_factory.hpp:77] Creating layer rpn_big_output_box
I0412 20:27:57.778497  4509 net.cpp:100] Creating Layer rpn_big_output_box
I0412 20:27:57.778506  4509 net.cpp:434] rpn_big_output_box <- rpn_big_conv2_rpn_big_conv2_drop_0_split_1
I0412 20:27:57.778517  4509 net.cpp:408] rpn_big_output_box -> rpn_big_output_box
I0412 20:27:57.798450  4509 net.cpp:150] Setting up rpn_big_output_box
I0412 20:27:57.798485  4509 net.cpp:157] Top shape: 1 384 63 94 (2274048)
I0412 20:27:57.798491  4509 net.cpp:165] Memory required for data: 3796842008
I0412 20:27:57.798512  4509 layer_factory.hpp:77] Creating layer rpn_big_output_box_relu
I0412 20:27:57.798528  4509 net.cpp:100] Creating Layer rpn_big_output_box_relu
I0412 20:27:57.798539  4509 net.cpp:434] rpn_big_output_box_relu <- rpn_big_output_box
I0412 20:27:57.798555  4509 net.cpp:395] rpn_big_output_box_relu -> rpn_big_output_box (in-place)
I0412 20:27:57.798571  4509 net.cpp:150] Setting up rpn_big_output_box_relu
I0412 20:27:57.798581  4509 net.cpp:157] Top shape: 1 384 63 94 (2274048)
I0412 20:27:57.798588  4509 net.cpp:165] Memory required for data: 3805938200
I0412 20:27:57.798594  4509 layer_factory.hpp:77] Creating layer rpn_big_bbox_pred
I0412 20:27:57.798612  4509 net.cpp:100] Creating Layer rpn_big_bbox_pred
I0412 20:27:57.798619  4509 net.cpp:434] rpn_big_bbox_pred <- rpn_big_output_box
I0412 20:27:57.798630  4509 net.cpp:408] rpn_big_bbox_pred -> rpn_big_bbox_pred
I0412 20:27:57.804474  4509 net.cpp:150] Setting up rpn_big_bbox_pred
I0412 20:27:57.804494  4509 net.cpp:157] Top shape: 1 104 61 92 (583648)
I0412 20:27:57.804502  4509 net.cpp:165] Memory required for data: 3808272792
I0412 20:27:57.804513  4509 layer_factory.hpp:77] Creating layer rpn_big_loss_bbox
I0412 20:27:57.804880  4509 net.cpp:100] Creating Layer rpn_big_loss_bbox
I0412 20:27:57.804893  4509 net.cpp:434] rpn_big_loss_bbox <- rpn_big_bbox_pred
I0412 20:27:57.804903  4509 net.cpp:434] rpn_big_loss_bbox <- rpn_big_anchor_target_bbox_targets
I0412 20:27:57.804910  4509 net.cpp:434] rpn_big_loss_bbox <- rpn_big_anchor_target_inside_weights
I0412 20:27:57.804919  4509 net.cpp:434] rpn_big_loss_bbox <- rpn_big_anchor_target_outside_weights
I0412 20:27:57.804934  4509 net.cpp:408] rpn_big_loss_bbox -> rpn_big_loss_bbox
I0412 20:27:57.806874  4509 net.cpp:150] Setting up rpn_big_loss_bbox
I0412 20:27:57.806910  4509 net.cpp:157] Top shape: 1 (1)
I0412 20:27:57.806916  4509 net.cpp:160]     with loss weight 1
I0412 20:27:57.806931  4509 net.cpp:165] Memory required for data: 3808272796
I0412 20:27:57.806941  4509 layer_factory.hpp:77] Creating layer MyLoss
I0412 20:27:57.806954  4509 net.cpp:100] Creating Layer MyLoss
I0412 20:27:57.806964  4509 net.cpp:434] MyLoss <- conv3_1_relu3_1_0_split_1
I0412 20:27:57.806980  4509 net.cpp:408] MyLoss -> MyLoss
…
