…
I0413 18:58:14.153944 14774 solver.cpp:48] Initializing solver from parameters: 
base_lr: 0.001
display: 20
lr_policy: "multistep"
gamma: 0.1
momentum: 0.9
weight_decay: 0.0005
snapshot: 0
snapshot_prefix: "faces_example"
net_param {
  name: "GeneratedModel_13_04_2017_18_58"
  layer {
    name: "input"
    type: "Python"
    top: "input_data"
    top: "input_im_info"
    top: "input_gt_boxes"
    top: "input_ignored_boxes"
    python_param {
      module: "layers.roi_data_layer"
      layer: "RoIDataLayer"
      param_str: "{\"num_classes\": 2}"
    }
  }
  layer {
    name: "conv1_1"
    type: "Convolution"
    bottom: "input_data"
    top: "conv1_1"
    param {
      lr_mult: 0
      decay_mult: 0
    }
    param {
      lr_mult: 0
      decay_mult: 0
    }
    convolution_param {
      num_output: 64
      pad: 1
      kernel_size: 3
    }
  }
  layer {
    name: "relu1_1"
    type: "ReLU"
    bottom: "conv1_1"
    top: "conv1_1"
  }
  layer {
    name: "conv1_2"
    type: "Convolution"
    bottom: "conv1_1"
    top: "conv1_2"
    param {
      lr_mult: 0
      decay_mult: 0
    }
    param {
      lr_mult: 0
      decay_mult: 0
    }
    convolution_param {
      num_output: 64
      pad: 1
      kernel_size: 3
    }
  }
  layer {
    name: "relu1_2"
    type: "ReLU"
    bottom: "conv1_2"
    top: "conv1_2"
  }
  layer {
    name: "pool1"
    type: "Pooling"
    bottom: "conv1_2"
    top: "pool1"
    pooling_param {
      pool: MAX
      kernel_size: 2
      stride: 2
    }
  }
  layer {
    name: "conv2_1"
    type: "Convolution"
    bottom: "pool1"
    top: "conv2_1"
    param {
      lr_mult: 0
      decay_mult: 0
    }
    param {
      lr_mult: 0
      decay_mult: 0
    }
    convolution_param {
      num_output: 128
      pad: 1
      kernel_size: 3
    }
  }
  layer {
    name: "relu2_1"
    type: "ReLU"
    bottom: "conv2_1"
    top: "conv2_1"
  }
  layer {
    name: "conv2_2"
    type: "Convolution"
    bottom: "conv2_1"
    top: "conv2_2"
    param {
      lr_mult: 0
      decay_mult: 0
    }
    param {
      lr_mult: 0
      decay_mult: 0
    }
    convolution_param {
      num_output: 128
      pad: 1
      kernel_size: 3
    }
  }
  layer {
    name: "relu2_2"
    type: "ReLU"
    bottom: "conv2_2"
    top: "conv2_2"
  }
  layer {
    name: "pool2"
    type: "Pooling"
    bottom: "conv2_2"
    top: "pool2"
    pooling_param {
      pool: MAX
      kernel_size: 2
      stride: 2
    }
  }
  layer {
    name: "conv3_1"
    type: "Convolution"
    bottom: "pool2"
    top: "conv3_1"
    param {
      lr_mult: 1
    }
    param {
      lr_mult: 2
    }
    convolution_param {
      num_output: 256
      pad: 1
      kernel_size: 3
    }
  }
  layer {
    name: "relu3_1"
    type: "ReLU"
    bottom: "conv3_1"
    top: "conv3_1"
  }
  layer {
    name: "conv3_2"
    type: "Convolution"
    bottom: "conv3_1"
    top: "conv3_2"
    param {
      lr_mult: 1
    }
    param {
      lr_mult: 2
    }
    convolution_param {
      num_output: 256
      pad: 1
      kernel_size: 3
    }
  }
  layer {
    name: "relu3_2"
    type: "ReLU"
    bottom: "conv3_2"
    top: "conv3_2"
  }
  layer {
    name: "conv3_3"
    type: "Convolution"
    bottom: "conv3_2"
    top: "conv3_3"
    param {
      lr_mult: 1
    }
    param {
      lr_mult: 2
    }
    convolution_param {
      num_output: 256
      pad: 1
      kernel_size: 3
    }
  }
  layer {
    name: "relu3_3"
    type: "ReLU"
    bottom: "conv3_3"
    top: "conv3_3"
  }
  layer {
    name: "pool3"
    type: "Pooling"
    bottom: "conv3_3"
    top: "pool3"
    pooling_param {
      pool: MAX
      kernel_size: 2
      stride: 2
    }
  }
  layer {
    name: "conv4_1"
    type: "Convolution"
    bottom: "pool3"
    top: "conv4_1"
    param {
      lr_mult: 1
    }
    param {
      lr_mult: 2
    }
    convolution_param {
      num_output: 512
      pad: 1
      kernel_size: 3
    }
  }
  layer {
    name: "relu4_1"
    type: "ReLU"
    bottom: "conv4_1"
    top: "conv4_1"
  }
  layer {
    name: "conv4_2"
    type: "Convolution"
    bottom: "conv4_1"
    top: "conv4_2"
    param {
      lr_mult: 1
    }
    param {
      lr_mult: 2
    }
    convolution_param {
      num_output: 512
      pad: 1
      kernel_size: 3
    }
  }
  layer {
    name: "relu4_2"
    type: "ReLU"
    bottom: "conv4_2"
    top: "conv4_2"
  }
  layer {
    name: "conv4_3"
    type: "Convolution"
    bottom: "conv4_2"
    top: "conv4_3"
    param {
      lr_mult: 1
    }
    param {
      lr_mult: 2
    }
    convolution_param {
      num_output: 512
      pad: 1
      kernel_size: 3
    }
  }
  layer {
    name: "relu4_3"
    type: "ReLU"
    bottom: "conv4_3"
    top: "conv4_3"
  }
  layer {
    name: "pool4"
    type: "Pooling"
    bottom: "conv4_3"
    top: "pool4"
    pooling_param {
      pool: MAX
      kernel_size: 2
      stride: 2
    }
  }
  layer {
    name: "conv5_1"
    type: "Convolution"
    bottom: "pool4"
    top: "conv5_1"
    param {
      lr_mult: 1
    }
    param {
      lr_mult: 2
    }
    convolution_param {
      num_output: 512
      pad: 1
      kernel_size: 3
    }
  }
  layer {
    name: "relu5_1"
    type: "ReLU"
    bottom: "conv5_1"
    top: "conv5_1"
  }
  layer {
    name: "conv5_2"
    type: "Convolution"
    bottom: "conv5_1"
    top: "conv5_2"
    param {
      lr_mult: 1
    }
    param {
      lr_mult: 2
    }
    convolution_param {
      num_output: 512
      pad: 1
      kernel_size: 3
    }
  }
  layer {
    name: "relu5_2"
    type: "ReLU"
    bottom: "conv5_2"
    top: "conv5_2"
  }
  layer {
    name: "conv5_3"
    type: "Convolution"
    bottom: "conv5_2"
    top: "conv5_3"
    param {
      lr_mult: 1
    }
    param {
      lr_mult: 2
    }
    convolution_param {
      num_output: 512
      pad: 1
      kernel_size: 3
    }
  }
  layer {
    name: "relu5_3"
    type: "ReLU"
    bottom: "conv5_3"
    top: "conv5_3"
  }
  layer {
    name: "rpn_big_conv1"
    type: "Convolution"
    bottom: "conv5_3"
    top: "rpn_big_conv1"
    param {
      lr_mult: 1
    }
    param {
      lr_mult: 2
    }
    convolution_param {
      num_output: 512
      pad: 1
      kernel_size: 3
      stride: 1
      weight_filler {
        type: "gaussian"
        mean: 0
        std: 0.01
      }
      bias_filler {
        type: "constant"
      }
    }
  }
  layer {
    name: "rpn_big_conv1_relu"
    type: "ReLU"
    bottom: "rpn_big_conv1"
    top: "rpn_big_conv1"
    relu_param {
      negative_slope: 0
    }
  }
  layer {
    name: "rpn_big_conv2"
    type: "Convolution"
    bottom: "rpn_big_conv1"
    top: "rpn_big_conv2"
    param {
      lr_mult: 1
    }
    param {
      lr_mult: 2
    }
    convolution_param {
      num_output: 512
      pad: 1
      kernel_size: 3
      stride: 1
      weight_filler {
        type: "gaussian"
        mean: 0
        std: 0.01
      }
      bias_filler {
        type: "constant"
      }
    }
  }
  layer {
    name: "rpn_big_conv2_relu"
    type: "ReLU"
    bottom: "rpn_big_conv2"
    top: "rpn_big_conv2"
    relu_param {
      negative_slope: 0
    }
  }
  layer {
    name: "rpn_big_conv2_drop"
    type: "Dropout"
    bottom: "rpn_big_conv2"
    top: "rpn_big_conv2"
    dropout_param {
      dropout_ratio: 0.3
    }
  }
  layer {
    name: "rpn_big_output_cls"
    type: "Convolution"
    bottom: "rpn_big_conv2"
    top: "rpn_big_output_cls"
    param {
      lr_mult: 1
    }
    param {
      lr_mult: 2
    }
    convolution_param {
      num_output: 384
      pad: 1
      kernel_size: 3
      stride: 1
      weight_filler {
        type: "gaussian"
        mean: 0
        std: 0.01
      }
      bias_filler {
        type: "constant"
      }
    }
  }
  layer {
    name: "rpn_big_output_cls_relu"
    type: "ReLU"
    bottom: "rpn_big_output_cls"
    top: "rpn_big_output_cls"
    relu_param {
      negative_slope: 0
    }
  }
  layer {
    name: "rpn_big_cls_score"
    type: "Convolution"
    bottom: "rpn_big_output_cls"
    top: "rpn_big_cls_score"
    param {
      lr_mult: 1
    }
    param {
      lr_mult: 2
    }
    convolution_param {
      num_output: 52
      pad: 0
      kernel_size: 3
      stride: 1
      weight_filler {
        type: "gaussian"
        mean: 0
        std: 0.01
      }
      bias_filler {
        type: "constant"
      }
    }
  }
  layer {
    name: "rpn_big_cls_score_reshape"
    type: "Reshape"
    bottom: "rpn_big_cls_score"
    top: "rpn_big_cls_score_reshape"
    reshape_param {
      shape {
        dim: 0
        dim: 2
        dim: -1
        dim: 0
      }
    }
  }
  layer {
    name: "rpn_big_cls_prob"
    type: "Softmax"
    bottom: "rpn_big_cls_score_reshape"
    top: "rpn_big_cls_prob"
  }
  layer {
    name: "rpn_big_cls_prob_reshape"
    type: "Reshape"
    bottom: "rpn_big_cls_prob"
    top: "rpn_big_cls_prob_reshape"
    reshape_param {
      shape {
        dim: 0
        dim: 52
        dim: -1
        dim: 0
      }
    }
  }
  layer {
    name: "rpn_big_anchor_target"
    type: "Python"
    bottom: "rpn_big_cls_score"
    bottom: "input_gt_boxes"
    bottom: "input_ignored_boxes"
    bottom: "input_im_info"
    bottom: "input_data"
    bottom: "rpn_big_cls_prob_reshape"
    top: "rpn_big_anchor_target_labels"
    top: "rpn_big_anchor_target_bbox_targets"
    top: "rpn_big_anchor_target_inside_weights"
    top: "rpn_big_anchor_target_outside_weights"
    python_param {
      module: "rpn.anchor_target_layer"
      layer: "AnchorTargetLayer"
      param_str: "{\"anchor_scales\": [2.5, 3.025, 3.66025, 4.4289024999999995, 5.358972025, 6.484356150249999, 7.846070941802498, 9.493745839581022, 11.487432465893036, 13.899793283730574, 16.818749873313998, 20.350687346709933, 24.62433168951902, 29.795441344318014], \"feat_stride\": 16, \"tn_fraction\": 0.2, \"negative_overlap\": 0.4, \"batchsize\": 256, \"fg_fraction\": 0.5, \"anchor_ratios\": [1.0], \"square_targets\": true, \"positive_overlap\": 0.6, \"num_classes\": 1, \"anchor_shift_num_xy\": [[2, 2], [2, 2], [2, 2], [2, 2], [1, 1], [1, 1], [1, 1], [1, 1], [1, 1], [1, 1], [1, 1], [1, 1], [1, 1], [1, 1]], \"name\": \"rpn_big\"}"
    }
  }
  layer {
    name: "rpn_big_loss_cls"
    type: "SoftmaxWithLoss"
    bottom: "rpn_big_cls_score_reshape"
    bottom: "rpn_big_anchor_target_labels"
    top: "rpn_big_loss_cls"
    loss_weight: 1
    propagate_down: true
    propagate_down: false
    loss_param {
      ignore_label: -1
      normalization: VALID
    }
  }
  layer {
    name: "rpn_big_output_box"
    type: "Convolution"
    bottom: "rpn_big_conv2"
    top: "rpn_big_output_box"
    param {
      lr_mult: 1
    }
    param {
      lr_mult: 2
    }
    convolution_param {
      num_output: 384
      pad: 1
      kernel_size: 3
      stride: 1
      weight_filler {
        type: "gaussian"
        mean: 0
        std: 0.01
      }
      bias_filler {
        type: "constant"
      }
    }
  }
  layer {
    name: "rpn_big_output_box_relu"
    type: "ReLU"
    bottom: "rpn_big_output_box"
    top: "rpn_big_output_box"
    relu_param {
      negative_slope: 0
    }
  }
  layer {
    name: "rpn_big_bbox_pred"
    type: "Convolution"
    bottom: "rpn_big_output_box"
    top: "rpn_big_bbox_pred"
    param {
      lr_mult: 1
    }
    param {
      lr_mult: 2
    }
    convolution_param {
      num_output: 104
      pad: 0
      kernel_size: 3
      stride: 1
      weight_filler {
        type: "gaussian"
        mean: 0
        std: 0.01
      }
      bias_filler {
        type: "constant"
      }
    }
  }
  layer {
    name: "rpn_big_loss_bbox"
    type: "Python"
    bottom: "rpn_big_bbox_pred"
    bottom: "rpn_big_anchor_target_bbox_targets"
    bottom: "rpn_big_anchor_target_inside_weights"
    bottom: "rpn_big_anchor_target_outside_weights"
    top: "rpn_big_loss_bbox"
    loss_weight: 1
    python_param {
      module: "layers.smooth_l1_loss"
      layer: "SmoothL1LossLayer"
      param_str: "{\"sigma\": 3}"
    }
  }
  layer {
    name: "proposal"
    type: "Python"
    bottom: "rpn_big_cls_prob_reshape"
    bottom: "rpn_big_bbox_pred"
    bottom: "input_im_info"
    top: "rpn_rois"
    python_param {
      module: "rpn.proposal_layer"
      layer: "ProposalLayer"
      param_str: "{\"anchor_shift_num_xy\": [[2, 2], [2, 2], [2, 2], [2, 2], [1, 1], [1, 1], [1, 1], [1, 1], [1, 1], [1, 1], [1, 1], [1, 1], [1, 1], [1, 1]], \"feat_stride\": 16, \"num_classes\": 1, \"anchor_scales\": [2.5, 3.025, 3.66025, 4.4289024999999995, 5.358972025, 6.484356150249999, 7.846070941802498, 9.493745839581022, 11.487432465893036, 13.899793283730574, 16.818749873313998, 20.350687346709933, 24.62433168951902, 29.795441344318014], \"square_targets\": true, \"name\": \"rpn_big\", \"batchsize\": 256, \"anchor_ratios\": [1.0]}"
    }
  }
  layer {
    name: "roi-data"
    type: "Python"
    bottom: "rpn_rois"
    bottom: "input_gt_boxes"
    top: "rois"
    top: "labels"
    top: "bbox_targets"
    top: "bbox_inside_weights"
    top: "pid_label"
    top: "bbox_outside_weights"
    python_param {
      module: "rpn.proposal_target_layer"
      layer: "ProposalTargetLayer"
      param_str: "{\"num_classes\": 2, \"bg_aux_label\": 5532}"
    }
  }
  layer {
    name: "roi-pool"
    type: "ROIPooling"
    bottom: "conv5_3"
    bottom: "rois"
    top: "roi-pool"
    roi_pooling_param {
      pooled_h: 7
      pooled_w: 7
      spatial_scale: 0.0625
    }
  }
  layer {
    name: "fc6"
    type: "InnerProduct"
    bottom: "roi-pool"
    top: "fc6"
    param {
      lr_mult: 1
    }
    param {
      lr_mult: 2
    }
    inner_product_param {
      num_output: 4096
    }
  }
  layer {
    name: "relu6"
    type: "ReLU"
    bottom: "fc6"
    top: "fc6"
  }
  layer {
    name: "drop6"
    type: "Dropout"
    bottom: "fc6"
    top: "fc6"
    dropout_param {
      dropout_ratio: 0.5
    }
  }
  layer {
    name: "fc7"
    type: "InnerProduct"
    bottom: "fc6"
    top: "fc7"
    param {
      lr_mult: 1
    }
    param {
      lr_mult: 2
    }
    inner_product_param {
      num_output: 4096
    }
  }
  layer {
    name: "relu7"
    type: "ReLU"
    bottom: "fc7"
    top: "fc7"
  }
  layer {
    name: "drop7"
    type: "Dropout"
    bottom: "fc7"
    top: "fc7"
    dropout_param {
      dropout_ratio: 0.5
    }
  }
  layer {
    name: "bbox_pred"
    type: "InnerProduct"
    bottom: "fc7"
    top: "bbox_pred"
    param {
      lr_mult: 1
    }
    param {
      lr_mult: 2
    }
    inner_product_param {
      num_output: 8
      weight_filler {
        type: "gaussian"
        std: 0.001
      }
      bias_filler {
        type: "constant"
        value: 0
      }
    }
  }
  layer {
    name: "loss_bbox"
    type: "SmoothL1Loss"
    bottom: "bbox_pred"
    bottom: "bbox_targets"
    bottom: "bbox_inside_weights"
    bottom: "bbox_outside_weights"
    top: "loss_bbox"
    loss_weight: 1
  }
  layer {
    name: "feat"
    type: "InnerProduct"
    bottom: "fc7"
    top: "feat"
    param {
      lr_mult: 1
      decay_mult: 1
    }
    param {
      lr_mult: 2
      decay_mult: 0
    }
    inner_product_param {
      num_output: 256
      weight_filler {
        type: "gaussian"
        std: 0.01
      }
      bias_filler {
        type: "constant"
        value: 0
      }
    }
  }
  layer {
    name: "relu8"
    type: "ReLU"
    bottom: "feat"
    top: "feat"
  }
  layer {
    name: "drop8"
    type: "Dropout"
    bottom: "feat"
    top: "feat"
    dropout_param {
      dropout_ratio: 0.5
    }
  }
  layer {
    name: "pid_score"
    type: "InnerProduct"
    bottom: "feat"
    top: "pid_score"
    param {
      lr_mult: 1
      decay_mult: 1
    }
    param {
      lr_mult: 2
      decay_mult: 0
    }
    inner_product_param {
      num_output: 5533
      weight_filler {
        type: "gaussian"
        std: 0.001
      }
      bias_filler {
        type: "constant"
        value: 0
      }
    }
  }
  layer {
    name: "pid_loss"
    type: "SoftmaxWithLoss"
    bottom: "pid_score"
    bottom: "pid_label"
    top: "pid_loss"
    loss_weight: 1
    propagate_down: true
    propagate_down: false
    loss_param {
      ignore_label: -1
      normalize: true
    }
  }
}
average_loss: 100
stepvalue: 70000
stepvalue: 120000
iter_size: 2
I0413 18:58:14.154031 14774 solver.cpp:86] Creating training net specified in net_param.
I0413 18:58:14.154639 14774 net.cpp:58] Initializing net from parameters: 
name: "GeneratedModel_13_04_2017_18_58"
state {
  phase: TRAIN
}
layer {
  name: "input"
  type: "Python"
  top: "input_data"
  top: "input_im_info"
  top: "input_gt_boxes"
  top: "input_ignored_boxes"
  python_param {
    module: "layers.roi_data_layer"
    layer: "RoIDataLayer"
    param_str: "{\"num_classes\": 2}"
  }
}
layer {
  name: "conv1_1"
  type: "Convolution"
  bottom: "input_data"
  top: "conv1_1"
  param {
    lr_mult: 0
    decay_mult: 0
  }
  param {
    lr_mult: 0
    decay_mult: 0
  }
  convolution_param {
    num_output: 64
    pad: 1
    kernel_size: 3
  }
}
layer {
  name: "relu1_1"
  type: "ReLU"
  bottom: "conv1_1"
  top: "conv1_1"
}
layer {
  name: "conv1_2"
  type: "Convolution"
  bottom: "conv1_1"
  top: "conv1_2"
  param {
    lr_mult: 0
    decay_mult: 0
  }
  param {
    lr_mult: 0
    decay_mult: 0
  }
  convolution_param {
    num_output: 64
    pad: 1
    kernel_size: 3
  }
}
layer {
  name: "relu1_2"
  type: "ReLU"
  bottom: "conv1_2"
  top: "conv1_2"
}
layer {
  name: "pool1"
  type: "Pooling"
  bottom: "conv1_2"
  top: "pool1"
  pooling_param {
    pool: MAX
    kernel_size: 2
    stride: 2
  }
}
layer {
  name: "conv2_1"
  type: "Convolution"
  bottom: "pool1"
  top: "conv2_1"
  param {
    lr_mult: 0
    decay_mult: 0
  }
  param {
    lr_mult: 0
    decay_mult: 0
  }
  convolution_param {
    num_output: 128
    pad: 1
    kernel_size: 3
  }
}
layer {
  name: "relu2_1"
  type: "ReLU"
  bottom: "conv2_1"
  top: "conv2_1"
}
layer {
  name: "conv2_2"
  type: "Convolution"
  bottom: "conv2_1"
  top: "conv2_2"
  param {
    lr_mult: 0
    decay_mult: 0
  }
  param {
    lr_mult: 0
    decay_mult: 0
  }
  convolution_param {
    num_output: 128
    pad: 1
    kernel_size: 3
  }
}
layer {
  name: "relu2_2"
  type: "ReLU"
  bottom: "conv2_2"
  top: "conv2_2"
}
layer {
  name: "pool2"
  type: "Pooling"
  bottom: "conv2_2"
  top: "pool2"
  pooling_param {
    pool: MAX
    kernel_size: 2
    stride: 2
  }
}
layer {
  name: "conv3_1"
  type: "Convolution"
  bottom: "pool2"
  top: "conv3_1"
  param {
    lr_mult: 1
  }
  param {
    lr_mult: 2
  }
  convolution_param {
    num_output: 256
    pad: 1
    kernel_size: 3
  }
}
layer {
  name: "relu3_1"
  type: "ReLU"
  bottom: "conv3_1"
  top: "conv3_1"
}
layer {
  name: "conv3_2"
  type: "Convolution"
  bottom: "conv3_1"
  top: "conv3_2"
  param {
    lr_mult: 1
  }
  param {
    lr_mult: 2
  }
  convolution_param {
    num_output: 256
    pad: 1
    kernel_size: 3
  }
}
layer {
  name: "relu3_2"
  type: "ReLU"
  bottom: "conv3_2"
  top: "conv3_2"
}
layer {
  name: "conv3_3"
  type: "Convolution"
  bottom: "conv3_2"
  top: "conv3_3"
  param {
    lr_mult: 1
  }
  param {
    lr_mult: 2
  }
  convolution_param {
    num_output: 256
    pad: 1
    kernel_size: 3
  }
}
layer {
  name: "relu3_3"
  type: "ReLU"
  bottom: "conv3_3"
  top: "conv3_3"
}
layer {
  name: "pool3"
  type: "Pooling"
  bottom: "conv3_3"
  top: "pool3"
  pooling_param {
    pool: MAX
    kernel_size: 2
    stride: 2
  }
}
layer {
  name: "conv4_1"
  type: "Convolution"
  bottom: "pool3"
  top: "conv4_1"
  param {
    lr_mult: 1
  }
  param {
    lr_mult: 2
  }
  convolution_param {
    num_output: 512
    pad: 1
    kernel_size: 3
  }
}
layer {
  name: "relu4_1"
  type: "ReLU"
  bottom: "conv4_1"
  top: "conv4_1"
}
layer {
  name: "conv4_2"
  type: "Convolution"
  bottom: "conv4_1"
  top: "conv4_2"
  param {
    lr_mult: 1
  }
  param {
    lr_mult: 2
  }
  convolution_param {
    num_output: 512
    pad: 1
    kernel_size: 3
  }
}
layer {
  name: "relu4_2"
  type: "ReLU"
  bottom: "conv4_2"
  top: "conv4_2"
}
layer {
  name: "conv4_3"
  type: "Convolution"
  bottom: "conv4_2"
  top: "conv4_3"
  param {
    lr_mult: 1
  }
  param {
    lr_mult: 2
  }
  convolution_param {
    num_output: 512
    pad: 1
    kernel_size: 3
  }
}
layer {
  name: "relu4_3"
  type: "ReLU"
  bottom: "conv4_3"
  top: "conv4_3"
}
layer {
  name: "pool4"
  type: "Pooling"
  bottom: "conv4_3"
  top: "pool4"
  pooling_param {
    pool: MAX
    kernel_size: 2
    stride: 2
  }
}
layer {
  name: "conv5_1"
  type: "Convolution"
  bottom: "pool4"
  top: "conv5_1"
  param {
    lr_mult: 1
  }
  param {
    lr_mult: 2
  }
  convolution_param {
    num_output: 512
    pad: 1
    kernel_size: 3
  }
}
layer {
  name: "relu5_1"
  type: "ReLU"
  bottom: "conv5_1"
  top: "conv5_1"
}
layer {
  name: "conv5_2"
  type: "Convolution"
  bottom: "conv5_1"
  top: "conv5_2"
  param {
    lr_mult: 1
  }
  param {
    lr_mult: 2
  }
  convolution_param {
    num_output: 512
    pad: 1
    kernel_size: 3
  }
}
layer {
  name: "relu5_2"
  type: "ReLU"
  bottom: "conv5_2"
  top: "conv5_2"
}
layer {
  name: "conv5_3"
  type: "Convolution"
  bottom: "conv5_2"
  top: "conv5_3"
  param {
    lr_mult: 1
  }
  param {
    lr_mult: 2
  }
  convolution_param {
    num_output: 512
    pad: 1
    kernel_size: 3
  }
}
layer {
  name: "relu5_3"
  type: "ReLU"
  bottom: "conv5_3"
  top: "conv5_3"
}
layer {
  name: "rpn_big_conv1"
  type: "Convolution"
  bottom: "conv5_3"
  top: "rpn_big_conv1"
  param {
    lr_mult: 1
  }
  param {
    lr_mult: 2
  }
  convolution_param {
    num_output: 512
    pad: 1
    kernel_size: 3
    stride: 1
    weight_filler {
      type: "gaussian"
      mean: 0
      std: 0.01
    }
    bias_filler {
      type: "constant"
    }
  }
}
layer {
  name: "rpn_big_conv1_relu"
  type: "ReLU"
  bottom: "rpn_big_conv1"
  top: "rpn_big_conv1"
  relu_param {
    negative_slope: 0
  }
}
layer {
  name: "rpn_big_conv2"
  type: "Convolution"
  bottom: "rpn_big_conv1"
  top: "rpn_big_conv2"
  param {
    lr_mult: 1
  }
  param {
    lr_mult: 2
  }
  convolution_param {
    num_output: 512
    pad: 1
    kernel_size: 3
    stride: 1
    weight_filler {
      type: "gaussian"
      mean: 0
      std: 0.01
    }
    bias_filler {
      type: "constant"
    }
  }
}
layer {
  name: "rpn_big_conv2_relu"
  type: "ReLU"
  bottom: "rpn_big_conv2"
  top: "rpn_big_conv2"
  relu_param {
    negative_slope: 0
  }
}
layer {
  name: "rpn_big_conv2_drop"
  type: "Dropout"
  bottom: "rpn_big_conv2"
  top: "rpn_big_conv2"
  dropout_param {
    dropout_ratio: 0.3
  }
}
layer {
  name: "rpn_big_output_cls"
  type: "Convolution"
  bottom: "rpn_big_conv2"
  top: "rpn_big_output_cls"
  param {
    lr_mult: 1
  }
  param {
    lr_mult: 2
  }
  convolution_param {
    num_output: 384
    pad: 1
    kernel_size: 3
    stride: 1
    weight_filler {
      type: "gaussian"
      mean: 0
      std: 0.01
    }
    bias_filler {
      type: "constant"
    }
  }
}
layer {
  name: "rpn_big_output_cls_relu"
  type: "ReLU"
  bottom: "rpn_big_output_cls"
  top: "rpn_big_output_cls"
  relu_param {
    negative_slope: 0
  }
}
layer {
  name: "rpn_big_cls_score"
  type: "Convolution"
  bottom: "rpn_big_output_cls"
  top: "rpn_big_cls_score"
  param {
    lr_mult: 1
  }
  param {
    lr_mult: 2
  }
  convolution_param {
    num_output: 52
    pad: 0
    kernel_size: 3
    stride: 1
    weight_filler {
      type: "gaussian"
      mean: 0
      std: 0.01
    }
    bias_filler {
      type: "constant"
    }
  }
}
layer {
  name: "rpn_big_cls_score_reshape"
  type: "Reshape"
  bottom: "rpn_big_cls_score"
  top: "rpn_big_cls_score_reshape"
  reshape_param {
    shape {
      dim: 0
      dim: 2
      dim: -1
      dim: 0
    }
  }
}
layer {
  name: "rpn_big_cls_prob"
  type: "Softmax"
  bottom: "rpn_big_cls_score_reshape"
  top: "rpn_big_cls_prob"
}
layer {
  name: "rpn_big_cls_prob_reshape"
  type: "Reshape"
  bottom: "rpn_big_cls_prob"
  top: "rpn_big_cls_prob_reshape"
  reshape_param {
    shape {
      dim: 0
      dim: 52
      dim: -1
      dim: 0
    }
  }
}
layer {
  name: "rpn_big_anchor_target"
  type: "Python"
  bottom: "rpn_big_cls_score"
  bottom: "input_gt_boxes"
  bottom: "input_ignored_boxes"
  bottom: "input_im_info"
  bottom: "input_data"
  bottom: "rpn_big_cls_prob_reshape"
  top: "rpn_big_anchor_target_labels"
  top: "rpn_big_anchor_target_bbox_targets"
  top: "rpn_big_anchor_target_inside_weights"
  top: "rpn_big_anchor_target_outside_weights"
  python_param {
    module: "rpn.anchor_target_layer"
    layer: "AnchorTargetLayer"
    param_str: "{\"anchor_scales\": [2.5, 3.025, 3.66025, 4.4289024999999995, 5.358972025, 6.484356150249999, 7.846070941802498, 9.493745839581022, 11.487432465893036, 13.899793283730574, 16.818749873313998, 20.350687346709933, 24.62433168951902, 29.795441344318014], \"feat_stride\": 16, \"tn_fraction\": 0.2, \"negative_overlap\": 0.4, \"batchsize\": 256, \"fg_fraction\": 0.5, \"anchor_ratios\": [1.0], \"square_targets\": true, \"positive_overlap\": 0.6, \"num_classes\": 1, \"anchor_shift_num_xy\": [[2, 2], [2, 2], [2, 2], [2, 2], [1, 1], [1, 1], [1, 1], [1, 1], [1, 1], [1, 1], [1, 1], [1, 1], [1, 1], [1, 1]], \"name\": \"rpn_big\"}"
  }
}
layer {
  name: "rpn_big_loss_cls"
  type: "SoftmaxWithLoss"
  bottom: "rpn_big_cls_score_reshape"
  bottom: "rpn_big_anchor_target_labels"
  top: "rpn_big_loss_cls"
  loss_weight: 1
  propagate_down: true
  propagate_down: false
  loss_param {
    ignore_label: -1
    normalization: VALID
  }
}
layer {
  name: "rpn_big_output_box"
  type: "Convolution"
  bottom: "rpn_big_conv2"
  top: "rpn_big_output_box"
  param {
    lr_mult: 1
  }
  param {
    lr_mult: 2
  }
  convolution_param {
    num_output: 384
    pad: 1
    kernel_size: 3
    stride: 1
    weight_filler {
      type: "gaussian"
      mean: 0
      std: 0.01
    }
    bias_filler {
      type: "constant"
    }
  }
}
layer {
  name: "rpn_big_output_box_relu"
  type: "ReLU"
  bottom: "rpn_big_output_box"
  top: "rpn_big_output_box"
  relu_param {
    negative_slope: 0
  }
}
layer {
  name: "rpn_big_bbox_pred"
  type: "Convolution"
  bottom: "rpn_big_output_box"
  top: "rpn_big_bbox_pred"
  param {
    lr_mult: 1
  }
  param {
    lr_mult: 2
  }
  convolution_param {
    num_output: 104
    pad: 0
    kernel_size: 3
    stride: 1
    weight_filler {
      type: "gaussian"
      mean: 0
      std: 0.01
    }
    bias_filler {
      type: "constant"
    }
  }
}
layer {
  name: "rpn_big_loss_bbox"
  type: "Python"
  bottom: "rpn_big_bbox_pred"
  bottom: "rpn_big_anchor_target_bbox_targets"
  bottom: "rpn_big_anchor_target_inside_weights"
  bottom: "rpn_big_anchor_target_outside_weights"
  top: "rpn_big_loss_bbox"
  loss_weight: 1
  python_param {
    module: "layers.smooth_l1_loss"
    layer: "SmoothL1LossLayer"
    param_str: "{\"sigma\": 3}"
  }
}
layer {
  name: "proposal"
  type: "Python"
  bottom: "rpn_big_cls_prob_reshape"
  bottom: "rpn_big_bbox_pred"
  bottom: "input_im_info"
  top: "rpn_rois"
  python_param {
    module: "rpn.proposal_layer"
    layer: "ProposalLayer"
    param_str: "{\"anchor_shift_num_xy\": [[2, 2], [2, 2], [2, 2], [2, 2], [1, 1], [1, 1], [1, 1], [1, 1], [1, 1], [1, 1], [1, 1], [1, 1], [1, 1], [1, 1]], \"feat_stride\": 16, \"num_classes\": 1, \"anchor_scales\": [2.5, 3.025, 3.66025, 4.4289024999999995, 5.358972025, 6.484356150249999, 7.846070941802498, 9.493745839581022, 11.487432465893036, 13.899793283730574, 16.818749873313998, 20.350687346709933, 24.62433168951902, 29.795441344318014], \"square_targets\": true, \"name\": \"rpn_big\", \"batchsize\": 256, \"anchor_ratios\": [1.0]}"
  }
}
layer {
  name: "roi-data"
  type: "Python"
  bottom: "rpn_rois"
  bottom: "input_gt_boxes"
  top: "rois"
  top: "labels"
  top: "bbox_targets"
  top: "bbox_inside_weights"
  top: "pid_label"
  top: "bbox_outside_weights"
  python_param {
    module: "rpn.proposal_target_layer"
    layer: "ProposalTargetLayer"
    param_str: "{\"num_classes\": 2, \"bg_aux_label\": 5532}"
  }
}
layer {
  name: "roi-pool"
  type: "ROIPooling"
  bottom: "conv5_3"
  bottom: "rois"
  top: "roi-pool"
  roi_pooling_param {
    pooled_h: 7
    pooled_w: 7
    spatial_scale: 0.0625
  }
}
layer {
  name: "fc6"
  type: "InnerProduct"
  bottom: "roi-pool"
  top: "fc6"
  param {
    lr_mult: 1
  }
  param {
    lr_mult: 2
  }
  inner_product_param {
    num_output: 4096
  }
}
layer {
  name: "relu6"
  type: "ReLU"
  bottom: "fc6"
  top: "fc6"
}
layer {
  name: "drop6"
  type: "Dropout"
  bottom: "fc6"
  top: "fc6"
  dropout_param {
    dropout_ratio: 0.5
  }
}
layer {
  name: "fc7"
  type: "InnerProduct"
  bottom: "fc6"
  top: "fc7"
  param {
    lr_mult: 1
  }
  param {
    lr_mult: 2
  }
  inner_product_param {
    num_output: 4096
  }
}
layer {
  name: "relu7"
  type: "ReLU"
  bottom: "fc7"
  top: "fc7"
}
layer {
  name: "drop7"
  type: "Dropout"
  bottom: "fc7"
  top: "fc7"
  dropout_param {
    dropout_ratio: 0.5
  }
}
layer {
  name: "bbox_pred"
  type: "InnerProduct"
  bottom: "fc7"
  top: "bbox_pred"
  param {
    lr_mult: 1
  }
  param {
    lr_mult: 2
  }
  inner_product_param {
    num_output: 8
    weight_filler {
      type: "gaussian"
      std: 0.001
    }
    bias_filler {
      type: "constant"
      value: 0
    }
  }
}
layer {
  name: "loss_bbox"
  type: "SmoothL1Loss"
  bottom: "bbox_pred"
  bottom: "bbox_targets"
  bottom: "bbox_inside_weights"
  bottom: "bbox_outside_weights"
  top: "loss_bbox"
  loss_weight: 1
}
layer {
  name: "feat"
  type: "InnerProduct"
  bottom: "fc7"
  top: "feat"
  param {
    lr_mult: 1
    decay_mult: 1
  }
  param {
    lr_mult: 2
    decay_mult: 0
  }
  inner_product_param {
    num_output: 256
    weight_filler {
      type: "gaussian"
      std: 0.01
    }
    bias_filler {
      type: "constant"
      value: 0
    }
  }
}
layer {
  name: "relu8"
  type: "ReLU"
  bottom: "feat"
  top: "feat"
}
layer {
  name: "drop8"
  type: "Dropout"
  bottom: "feat"
  top: "feat"
  dropout_param {
    dropout_ratio: 0.5
  }
}
layer {
  name: "pid_score"
  type: "InnerProduct"
  bottom: "feat"
  top: "pid_score"
  param {
    lr_mult: 1
    decay_mult: 1
  }
  param {
    lr_mult: 2
    decay_mult: 0
  }
  inner_product_param {
    num_output: 5533
    weight_filler {
      type: "gaussian"
      std: 0.001
    }
    bias_filler {
      type: "constant"
      value: 0
    }
  }
}
layer {
  name: "pid_loss"
  type: "SoftmaxWithLoss"
  bottom: "pid_score"
  bottom: "pid_label"
  top: "pid_loss"
  loss_weight: 1
  propagate_down: true
  propagate_down: false
  loss_param {
    ignore_label: -1
    normalize: true
  }
}
I0413 18:58:14.154884 14774 layer_factory.hpp:77] Creating layer input
I0413 18:58:14.156203 14774 net.cpp:100] Creating Layer input
I0413 18:58:14.156221 14774 net.cpp:408] input -> input_data
I0413 18:58:14.156234 14774 net.cpp:408] input -> input_im_info
I0413 18:58:14.156240 14774 net.cpp:408] input -> input_gt_boxes
I0413 18:58:14.156247 14774 net.cpp:408] input -> input_ignored_boxes
RoiDataLayer: name_to_top: {'data': 0, 'gt_boxes': 2, 'im_info': 1, 'ignored_boxes': 3}
I0413 18:58:14.477193 14774 net.cpp:150] Setting up input
I0413 18:58:14.477218 14774 net.cpp:157] Top shape: 1 3 1000 1500 (4500000)
I0413 18:58:14.477226 14774 net.cpp:157] Top shape: 1 3 (3)
I0413 18:58:14.477233 14774 net.cpp:157] Top shape: 1 5 (5)
I0413 18:58:14.477239 14774 net.cpp:157] Top shape: 1 5 (5)
I0413 18:58:14.477244 14774 net.cpp:165] Memory required for data: 18000052
I0413 18:58:14.477254 14774 layer_factory.hpp:77] Creating layer input_data_input_0_split
I0413 18:58:14.477272 14774 net.cpp:100] Creating Layer input_data_input_0_split
I0413 18:58:14.477275 14774 net.cpp:434] input_data_input_0_split <- input_data
I0413 18:58:14.477283 14774 net.cpp:408] input_data_input_0_split -> input_data_input_0_split_0
I0413 18:58:14.477296 14774 net.cpp:408] input_data_input_0_split -> input_data_input_0_split_1
I0413 18:58:14.477329 14774 net.cpp:150] Setting up input_data_input_0_split
I0413 18:58:14.477341 14774 net.cpp:157] Top shape: 1 3 1000 1500 (4500000)
I0413 18:58:14.477346 14774 net.cpp:157] Top shape: 1 3 1000 1500 (4500000)
I0413 18:58:14.477349 14774 net.cpp:165] Memory required for data: 54000052
I0413 18:58:14.477352 14774 layer_factory.hpp:77] Creating layer input_im_info_input_1_split
I0413 18:58:14.477357 14774 net.cpp:100] Creating Layer input_im_info_input_1_split
I0413 18:58:14.477361 14774 net.cpp:434] input_im_info_input_1_split <- input_im_info
I0413 18:58:14.477367 14774 net.cpp:408] input_im_info_input_1_split -> input_im_info_input_1_split_0
I0413 18:58:14.477373 14774 net.cpp:408] input_im_info_input_1_split -> input_im_info_input_1_split_1
I0413 18:58:14.477401 14774 net.cpp:150] Setting up input_im_info_input_1_split
I0413 18:58:14.477407 14774 net.cpp:157] Top shape: 1 3 (3)
I0413 18:58:14.477411 14774 net.cpp:157] Top shape: 1 3 (3)
I0413 18:58:14.477413 14774 net.cpp:165] Memory required for data: 54000076
I0413 18:58:14.477416 14774 layer_factory.hpp:77] Creating layer input_gt_boxes_input_2_split
I0413 18:58:14.477421 14774 net.cpp:100] Creating Layer input_gt_boxes_input_2_split
I0413 18:58:14.477424 14774 net.cpp:434] input_gt_boxes_input_2_split <- input_gt_boxes
I0413 18:58:14.477430 14774 net.cpp:408] input_gt_boxes_input_2_split -> input_gt_boxes_input_2_split_0
I0413 18:58:14.477437 14774 net.cpp:408] input_gt_boxes_input_2_split -> input_gt_boxes_input_2_split_1
I0413 18:58:14.477466 14774 net.cpp:150] Setting up input_gt_boxes_input_2_split
I0413 18:58:14.477473 14774 net.cpp:157] Top shape: 1 5 (5)
I0413 18:58:14.477478 14774 net.cpp:157] Top shape: 1 5 (5)
I0413 18:58:14.477480 14774 net.cpp:165] Memory required for data: 54000116
I0413 18:58:14.477483 14774 layer_factory.hpp:77] Creating layer conv1_1
I0413 18:58:14.477495 14774 net.cpp:100] Creating Layer conv1_1
I0413 18:58:14.477499 14774 net.cpp:434] conv1_1 <- input_data_input_0_split_0
I0413 18:58:14.477505 14774 net.cpp:408] conv1_1 -> conv1_1
I0413 18:58:14.480566 14774 net.cpp:150] Setting up conv1_1
I0413 18:58:14.480600 14774 net.cpp:157] Top shape: 1 64 1000 1500 (96000000)
I0413 18:58:14.480604 14774 net.cpp:165] Memory required for data: 438000116
I0413 18:58:14.480623 14774 layer_factory.hpp:77] Creating layer relu1_1
I0413 18:58:14.480633 14774 net.cpp:100] Creating Layer relu1_1
I0413 18:58:14.480638 14774 net.cpp:434] relu1_1 <- conv1_1
I0413 18:58:14.480644 14774 net.cpp:395] relu1_1 -> conv1_1 (in-place)
I0413 18:58:14.480655 14774 net.cpp:150] Setting up relu1_1
I0413 18:58:14.480660 14774 net.cpp:157] Top shape: 1 64 1000 1500 (96000000)
I0413 18:58:14.480664 14774 net.cpp:165] Memory required for data: 822000116
I0413 18:58:14.480666 14774 layer_factory.hpp:77] Creating layer conv1_2
I0413 18:58:14.480676 14774 net.cpp:100] Creating Layer conv1_2
I0413 18:58:14.480680 14774 net.cpp:434] conv1_2 <- conv1_1
I0413 18:58:14.480686 14774 net.cpp:408] conv1_2 -> conv1_2
I0413 18:58:14.483885 14774 net.cpp:150] Setting up conv1_2
I0413 18:58:14.483922 14774 net.cpp:157] Top shape: 1 64 1000 1500 (96000000)
I0413 18:58:14.483924 14774 net.cpp:165] Memory required for data: 1206000116
I0413 18:58:14.483942 14774 layer_factory.hpp:77] Creating layer relu1_2
I0413 18:58:14.483953 14774 net.cpp:100] Creating Layer relu1_2
I0413 18:58:14.483958 14774 net.cpp:434] relu1_2 <- conv1_2
I0413 18:58:14.483966 14774 net.cpp:395] relu1_2 -> conv1_2 (in-place)
I0413 18:58:14.483978 14774 net.cpp:150] Setting up relu1_2
I0413 18:58:14.483983 14774 net.cpp:157] Top shape: 1 64 1000 1500 (96000000)
I0413 18:58:14.483986 14774 net.cpp:165] Memory required for data: 1590000116
I0413 18:58:14.483989 14774 layer_factory.hpp:77] Creating layer pool1
I0413 18:58:14.483997 14774 net.cpp:100] Creating Layer pool1
I0413 18:58:14.484000 14774 net.cpp:434] pool1 <- conv1_2
I0413 18:58:14.484006 14774 net.cpp:408] pool1 -> pool1
I0413 18:58:14.484091 14774 net.cpp:150] Setting up pool1
I0413 18:58:14.484097 14774 net.cpp:157] Top shape: 1 64 500 750 (24000000)
I0413 18:58:14.484100 14774 net.cpp:165] Memory required for data: 1686000116
I0413 18:58:14.484103 14774 layer_factory.hpp:77] Creating layer conv2_1
I0413 18:58:14.484113 14774 net.cpp:100] Creating Layer conv2_1
I0413 18:58:14.484117 14774 net.cpp:434] conv2_1 <- pool1
I0413 18:58:14.484123 14774 net.cpp:408] conv2_1 -> conv2_1
I0413 18:58:14.485365 14774 net.cpp:150] Setting up conv2_1
I0413 18:58:14.485386 14774 net.cpp:157] Top shape: 1 128 500 750 (48000000)
I0413 18:58:14.485389 14774 net.cpp:165] Memory required for data: 1878000116
I0413 18:58:14.485410 14774 layer_factory.hpp:77] Creating layer relu2_1
I0413 18:58:14.485419 14774 net.cpp:100] Creating Layer relu2_1
I0413 18:58:14.485422 14774 net.cpp:434] relu2_1 <- conv2_1
I0413 18:58:14.485430 14774 net.cpp:395] relu2_1 -> conv2_1 (in-place)
I0413 18:58:14.485438 14774 net.cpp:150] Setting up relu2_1
I0413 18:58:14.485442 14774 net.cpp:157] Top shape: 1 128 500 750 (48000000)
I0413 18:58:14.485445 14774 net.cpp:165] Memory required for data: 2070000116
I0413 18:58:14.485448 14774 layer_factory.hpp:77] Creating layer conv2_2
I0413 18:58:14.485455 14774 net.cpp:100] Creating Layer conv2_2
I0413 18:58:14.485458 14774 net.cpp:434] conv2_2 <- conv2_1
I0413 18:58:14.485465 14774 net.cpp:408] conv2_2 -> conv2_2
I0413 18:58:14.486385 14774 net.cpp:150] Setting up conv2_2
I0413 18:58:14.486407 14774 net.cpp:157] Top shape: 1 128 500 750 (48000000)
I0413 18:58:14.486410 14774 net.cpp:165] Memory required for data: 2262000116
I0413 18:58:14.486428 14774 layer_factory.hpp:77] Creating layer relu2_2
I0413 18:58:14.486436 14774 net.cpp:100] Creating Layer relu2_2
I0413 18:58:14.486440 14774 net.cpp:434] relu2_2 <- conv2_2
I0413 18:58:14.486446 14774 net.cpp:395] relu2_2 -> conv2_2 (in-place)
I0413 18:58:14.486454 14774 net.cpp:150] Setting up relu2_2
I0413 18:58:14.486459 14774 net.cpp:157] Top shape: 1 128 500 750 (48000000)
I0413 18:58:14.486462 14774 net.cpp:165] Memory required for data: 2454000116
I0413 18:58:14.486464 14774 layer_factory.hpp:77] Creating layer pool2
I0413 18:58:14.486472 14774 net.cpp:100] Creating Layer pool2
I0413 18:58:14.486475 14774 net.cpp:434] pool2 <- conv2_2
I0413 18:58:14.486480 14774 net.cpp:408] pool2 -> pool2
I0413 18:58:14.486521 14774 net.cpp:150] Setting up pool2
I0413 18:58:14.486527 14774 net.cpp:157] Top shape: 1 128 250 375 (12000000)
I0413 18:58:14.486531 14774 net.cpp:165] Memory required for data: 2502000116
I0413 18:58:14.486533 14774 layer_factory.hpp:77] Creating layer conv3_1
I0413 18:58:14.486542 14774 net.cpp:100] Creating Layer conv3_1
I0413 18:58:14.486546 14774 net.cpp:434] conv3_1 <- pool2
I0413 18:58:14.486552 14774 net.cpp:408] conv3_1 -> conv3_1
I0413 18:58:14.487684 14774 net.cpp:150] Setting up conv3_1
I0413 18:58:14.487709 14774 net.cpp:157] Top shape: 1 256 250 375 (24000000)
I0413 18:58:14.487721 14774 net.cpp:165] Memory required for data: 2598000116
I0413 18:58:14.487735 14774 layer_factory.hpp:77] Creating layer relu3_1
I0413 18:58:14.487743 14774 net.cpp:100] Creating Layer relu3_1
I0413 18:58:14.487747 14774 net.cpp:434] relu3_1 <- conv3_1
I0413 18:58:14.487753 14774 net.cpp:395] relu3_1 -> conv3_1 (in-place)
I0413 18:58:14.487761 14774 net.cpp:150] Setting up relu3_1
I0413 18:58:14.487766 14774 net.cpp:157] Top shape: 1 256 250 375 (24000000)
I0413 18:58:14.487769 14774 net.cpp:165] Memory required for data: 2694000116
I0413 18:58:14.487772 14774 layer_factory.hpp:77] Creating layer conv3_2
I0413 18:58:14.487783 14774 net.cpp:100] Creating Layer conv3_2
I0413 18:58:14.487787 14774 net.cpp:434] conv3_2 <- conv3_1
I0413 18:58:14.487792 14774 net.cpp:408] conv3_2 -> conv3_2
I0413 18:58:14.489083 14774 net.cpp:150] Setting up conv3_2
I0413 18:58:14.489112 14774 net.cpp:157] Top shape: 1 256 250 375 (24000000)
I0413 18:58:14.489115 14774 net.cpp:165] Memory required for data: 2790000116
I0413 18:58:14.489125 14774 layer_factory.hpp:77] Creating layer relu3_2
I0413 18:58:14.489133 14774 net.cpp:100] Creating Layer relu3_2
I0413 18:58:14.489138 14774 net.cpp:434] relu3_2 <- conv3_2
I0413 18:58:14.489146 14774 net.cpp:395] relu3_2 -> conv3_2 (in-place)
I0413 18:58:14.489156 14774 net.cpp:150] Setting up relu3_2
I0413 18:58:14.489159 14774 net.cpp:157] Top shape: 1 256 250 375 (24000000)
I0413 18:58:14.489162 14774 net.cpp:165] Memory required for data: 2886000116
I0413 18:58:14.489166 14774 layer_factory.hpp:77] Creating layer conv3_3
I0413 18:58:14.489173 14774 net.cpp:100] Creating Layer conv3_3
I0413 18:58:14.489176 14774 net.cpp:434] conv3_3 <- conv3_2
I0413 18:58:14.489182 14774 net.cpp:408] conv3_3 -> conv3_3
I0413 18:58:14.490800 14774 net.cpp:150] Setting up conv3_3
I0413 18:58:14.490830 14774 net.cpp:157] Top shape: 1 256 250 375 (24000000)
I0413 18:58:14.490834 14774 net.cpp:165] Memory required for data: 2982000116
I0413 18:58:14.490845 14774 layer_factory.hpp:77] Creating layer relu3_3
I0413 18:58:14.490854 14774 net.cpp:100] Creating Layer relu3_3
I0413 18:58:14.490859 14774 net.cpp:434] relu3_3 <- conv3_3
I0413 18:58:14.490866 14774 net.cpp:395] relu3_3 -> conv3_3 (in-place)
I0413 18:58:14.490876 14774 net.cpp:150] Setting up relu3_3
I0413 18:58:14.490881 14774 net.cpp:157] Top shape: 1 256 250 375 (24000000)
I0413 18:58:14.490883 14774 net.cpp:165] Memory required for data: 3078000116
I0413 18:58:14.490887 14774 layer_factory.hpp:77] Creating layer pool3
I0413 18:58:14.490893 14774 net.cpp:100] Creating Layer pool3
I0413 18:58:14.490896 14774 net.cpp:434] pool3 <- conv3_3
I0413 18:58:14.490901 14774 net.cpp:408] pool3 -> pool3
I0413 18:58:14.490945 14774 net.cpp:150] Setting up pool3
I0413 18:58:14.490953 14774 net.cpp:157] Top shape: 1 256 125 188 (6016000)
I0413 18:58:14.490957 14774 net.cpp:165] Memory required for data: 3102064116
I0413 18:58:14.490960 14774 layer_factory.hpp:77] Creating layer conv4_1
I0413 18:58:14.490969 14774 net.cpp:100] Creating Layer conv4_1
I0413 18:58:14.490972 14774 net.cpp:434] conv4_1 <- pool3
I0413 18:58:14.490978 14774 net.cpp:408] conv4_1 -> conv4_1
I0413 18:58:14.493659 14774 net.cpp:150] Setting up conv4_1
I0413 18:58:14.493691 14774 net.cpp:157] Top shape: 1 512 125 188 (12032000)
I0413 18:58:14.493695 14774 net.cpp:165] Memory required for data: 3150192116
I0413 18:58:14.493705 14774 layer_factory.hpp:77] Creating layer relu4_1
I0413 18:58:14.493716 14774 net.cpp:100] Creating Layer relu4_1
I0413 18:58:14.493721 14774 net.cpp:434] relu4_1 <- conv4_1
I0413 18:58:14.493729 14774 net.cpp:395] relu4_1 -> conv4_1 (in-place)
I0413 18:58:14.493739 14774 net.cpp:150] Setting up relu4_1
I0413 18:58:14.493744 14774 net.cpp:157] Top shape: 1 512 125 188 (12032000)
I0413 18:58:14.493747 14774 net.cpp:165] Memory required for data: 3198320116
I0413 18:58:14.493751 14774 layer_factory.hpp:77] Creating layer conv4_2
I0413 18:58:14.493759 14774 net.cpp:100] Creating Layer conv4_2
I0413 18:58:14.493762 14774 net.cpp:434] conv4_2 <- conv4_1
I0413 18:58:14.493767 14774 net.cpp:408] conv4_2 -> conv4_2
I0413 18:58:14.498482 14774 net.cpp:150] Setting up conv4_2
I0413 18:58:14.498523 14774 net.cpp:157] Top shape: 1 512 125 188 (12032000)
I0413 18:58:14.498529 14774 net.cpp:165] Memory required for data: 3246448116
I0413 18:58:14.498546 14774 layer_factory.hpp:77] Creating layer relu4_2
I0413 18:58:14.498559 14774 net.cpp:100] Creating Layer relu4_2
I0413 18:58:14.498565 14774 net.cpp:434] relu4_2 <- conv4_2
I0413 18:58:14.498574 14774 net.cpp:395] relu4_2 -> conv4_2 (in-place)
I0413 18:58:14.498584 14774 net.cpp:150] Setting up relu4_2
I0413 18:58:14.498590 14774 net.cpp:157] Top shape: 1 512 125 188 (12032000)
I0413 18:58:14.498594 14774 net.cpp:165] Memory required for data: 3294576116
I0413 18:58:14.498597 14774 layer_factory.hpp:77] Creating layer conv4_3
I0413 18:58:14.498608 14774 net.cpp:100] Creating Layer conv4_3
I0413 18:58:14.498625 14774 net.cpp:434] conv4_3 <- conv4_2
I0413 18:58:14.498633 14774 net.cpp:408] conv4_3 -> conv4_3
I0413 18:58:14.503365 14774 net.cpp:150] Setting up conv4_3
I0413 18:58:14.503398 14774 net.cpp:157] Top shape: 1 512 125 188 (12032000)
I0413 18:58:14.503402 14774 net.cpp:165] Memory required for data: 3342704116
I0413 18:58:14.503413 14774 layer_factory.hpp:77] Creating layer relu4_3
I0413 18:58:14.503424 14774 net.cpp:100] Creating Layer relu4_3
I0413 18:58:14.503430 14774 net.cpp:434] relu4_3 <- conv4_3
I0413 18:58:14.503440 14774 net.cpp:395] relu4_3 -> conv4_3 (in-place)
I0413 18:58:14.503453 14774 net.cpp:150] Setting up relu4_3
I0413 18:58:14.503458 14774 net.cpp:157] Top shape: 1 512 125 188 (12032000)
I0413 18:58:14.503461 14774 net.cpp:165] Memory required for data: 3390832116
I0413 18:58:14.503464 14774 layer_factory.hpp:77] Creating layer pool4
I0413 18:58:14.503471 14774 net.cpp:100] Creating Layer pool4
I0413 18:58:14.503475 14774 net.cpp:434] pool4 <- conv4_3
I0413 18:58:14.503482 14774 net.cpp:408] pool4 -> pool4
I0413 18:58:14.503526 14774 net.cpp:150] Setting up pool4
I0413 18:58:14.503536 14774 net.cpp:157] Top shape: 1 512 63 94 (3032064)
I0413 18:58:14.503540 14774 net.cpp:165] Memory required for data: 3402960372
I0413 18:58:14.503542 14774 layer_factory.hpp:77] Creating layer conv5_1
I0413 18:58:14.503552 14774 net.cpp:100] Creating Layer conv5_1
I0413 18:58:14.503557 14774 net.cpp:434] conv5_1 <- pool4
I0413 18:58:14.503566 14774 net.cpp:408] conv5_1 -> conv5_1
I0413 18:58:14.508114 14774 net.cpp:150] Setting up conv5_1
I0413 18:58:14.508146 14774 net.cpp:157] Top shape: 1 512 63 94 (3032064)
I0413 18:58:14.508159 14774 net.cpp:165] Memory required for data: 3415088628
I0413 18:58:14.508172 14774 layer_factory.hpp:77] Creating layer relu5_1
I0413 18:58:14.508180 14774 net.cpp:100] Creating Layer relu5_1
I0413 18:58:14.508185 14774 net.cpp:434] relu5_1 <- conv5_1
I0413 18:58:14.508195 14774 net.cpp:395] relu5_1 -> conv5_1 (in-place)
I0413 18:58:14.508206 14774 net.cpp:150] Setting up relu5_1
I0413 18:58:14.508213 14774 net.cpp:157] Top shape: 1 512 63 94 (3032064)
I0413 18:58:14.508216 14774 net.cpp:165] Memory required for data: 3427216884
I0413 18:58:14.508220 14774 layer_factory.hpp:77] Creating layer conv5_2
I0413 18:58:14.508229 14774 net.cpp:100] Creating Layer conv5_2
I0413 18:58:14.508234 14774 net.cpp:434] conv5_2 <- conv5_1
I0413 18:58:14.508240 14774 net.cpp:408] conv5_2 -> conv5_2
I0413 18:58:14.512568 14774 net.cpp:150] Setting up conv5_2
I0413 18:58:14.512603 14774 net.cpp:157] Top shape: 1 512 63 94 (3032064)
I0413 18:58:14.512609 14774 net.cpp:165] Memory required for data: 3439345140
I0413 18:58:14.512620 14774 layer_factory.hpp:77] Creating layer relu5_2
I0413 18:58:14.512634 14774 net.cpp:100] Creating Layer relu5_2
I0413 18:58:14.512639 14774 net.cpp:434] relu5_2 <- conv5_2
I0413 18:58:14.512648 14774 net.cpp:395] relu5_2 -> conv5_2 (in-place)
I0413 18:58:14.512658 14774 net.cpp:150] Setting up relu5_2
I0413 18:58:14.512665 14774 net.cpp:157] Top shape: 1 512 63 94 (3032064)
I0413 18:58:14.512668 14774 net.cpp:165] Memory required for data: 3451473396
I0413 18:58:14.512672 14774 layer_factory.hpp:77] Creating layer conv5_3
I0413 18:58:14.512687 14774 net.cpp:100] Creating Layer conv5_3
I0413 18:58:14.512691 14774 net.cpp:434] conv5_3 <- conv5_2
I0413 18:58:14.512697 14774 net.cpp:408] conv5_3 -> conv5_3
I0413 18:58:14.517357 14774 net.cpp:150] Setting up conv5_3
I0413 18:58:14.517405 14774 net.cpp:157] Top shape: 1 512 63 94 (3032064)
I0413 18:58:14.517413 14774 net.cpp:165] Memory required for data: 3463601652
I0413 18:58:14.517429 14774 layer_factory.hpp:77] Creating layer relu5_3
I0413 18:58:14.517444 14774 net.cpp:100] Creating Layer relu5_3
I0413 18:58:14.517453 14774 net.cpp:434] relu5_3 <- conv5_3
I0413 18:58:14.517469 14774 net.cpp:395] relu5_3 -> conv5_3 (in-place)
I0413 18:58:14.517488 14774 net.cpp:150] Setting up relu5_3
I0413 18:58:14.517500 14774 net.cpp:157] Top shape: 1 512 63 94 (3032064)
I0413 18:58:14.517509 14774 net.cpp:165] Memory required for data: 3475729908
I0413 18:58:14.517518 14774 layer_factory.hpp:77] Creating layer conv5_3_relu5_3_0_split
I0413 18:58:14.517530 14774 net.cpp:100] Creating Layer conv5_3_relu5_3_0_split
I0413 18:58:14.517539 14774 net.cpp:434] conv5_3_relu5_3_0_split <- conv5_3
I0413 18:58:14.517547 14774 net.cpp:408] conv5_3_relu5_3_0_split -> conv5_3_relu5_3_0_split_0
I0413 18:58:14.517557 14774 net.cpp:408] conv5_3_relu5_3_0_split -> conv5_3_relu5_3_0_split_1
I0413 18:58:14.517599 14774 net.cpp:150] Setting up conv5_3_relu5_3_0_split
I0413 18:58:14.517607 14774 net.cpp:157] Top shape: 1 512 63 94 (3032064)
I0413 18:58:14.517612 14774 net.cpp:157] Top shape: 1 512 63 94 (3032064)
I0413 18:58:14.517616 14774 net.cpp:165] Memory required for data: 3499986420
I0413 18:58:14.517618 14774 layer_factory.hpp:77] Creating layer rpn_big_conv1
I0413 18:58:14.517632 14774 net.cpp:100] Creating Layer rpn_big_conv1
I0413 18:58:14.517637 14774 net.cpp:434] rpn_big_conv1 <- conv5_3_relu5_3_0_split_0
I0413 18:58:14.517644 14774 net.cpp:408] rpn_big_conv1 -> rpn_big_conv1
I0413 18:58:14.544200 14774 net.cpp:150] Setting up rpn_big_conv1
I0413 18:58:14.544239 14774 net.cpp:157] Top shape: 1 512 63 94 (3032064)
I0413 18:58:14.544245 14774 net.cpp:165] Memory required for data: 3512114676
I0413 18:58:14.544256 14774 layer_factory.hpp:77] Creating layer rpn_big_conv1_relu
I0413 18:58:14.544268 14774 net.cpp:100] Creating Layer rpn_big_conv1_relu
I0413 18:58:14.544275 14774 net.cpp:434] rpn_big_conv1_relu <- rpn_big_conv1
I0413 18:58:14.544283 14774 net.cpp:395] rpn_big_conv1_relu -> rpn_big_conv1 (in-place)
I0413 18:58:14.544296 14774 net.cpp:150] Setting up rpn_big_conv1_relu
I0413 18:58:14.544301 14774 net.cpp:157] Top shape: 1 512 63 94 (3032064)
I0413 18:58:14.544304 14774 net.cpp:165] Memory required for data: 3524242932
I0413 18:58:14.544307 14774 layer_factory.hpp:77] Creating layer rpn_big_conv2
I0413 18:58:14.544322 14774 net.cpp:100] Creating Layer rpn_big_conv2
I0413 18:58:14.544330 14774 net.cpp:434] rpn_big_conv2 <- rpn_big_conv1
I0413 18:58:14.544337 14774 net.cpp:408] rpn_big_conv2 -> rpn_big_conv2
I0413 18:58:14.569849 14774 net.cpp:150] Setting up rpn_big_conv2
I0413 18:58:14.569878 14774 net.cpp:157] Top shape: 1 512 63 94 (3032064)
I0413 18:58:14.569882 14774 net.cpp:165] Memory required for data: 3536371188
I0413 18:58:14.569892 14774 layer_factory.hpp:77] Creating layer rpn_big_conv2_relu
I0413 18:58:14.569903 14774 net.cpp:100] Creating Layer rpn_big_conv2_relu
I0413 18:58:14.569907 14774 net.cpp:434] rpn_big_conv2_relu <- rpn_big_conv2
I0413 18:58:14.569916 14774 net.cpp:395] rpn_big_conv2_relu -> rpn_big_conv2 (in-place)
I0413 18:58:14.569926 14774 net.cpp:150] Setting up rpn_big_conv2_relu
I0413 18:58:14.569929 14774 net.cpp:157] Top shape: 1 512 63 94 (3032064)
I0413 18:58:14.569932 14774 net.cpp:165] Memory required for data: 3548499444
I0413 18:58:14.569936 14774 layer_factory.hpp:77] Creating layer rpn_big_conv2_drop
I0413 18:58:14.569942 14774 net.cpp:100] Creating Layer rpn_big_conv2_drop
I0413 18:58:14.569957 14774 net.cpp:434] rpn_big_conv2_drop <- rpn_big_conv2
I0413 18:58:14.569960 14774 net.cpp:395] rpn_big_conv2_drop -> rpn_big_conv2 (in-place)
I0413 18:58:14.569983 14774 net.cpp:150] Setting up rpn_big_conv2_drop
I0413 18:58:14.569990 14774 net.cpp:157] Top shape: 1 512 63 94 (3032064)
I0413 18:58:14.569993 14774 net.cpp:165] Memory required for data: 3560627700
I0413 18:58:14.569996 14774 layer_factory.hpp:77] Creating layer rpn_big_conv2_rpn_big_conv2_drop_0_split
I0413 18:58:14.570003 14774 net.cpp:100] Creating Layer rpn_big_conv2_rpn_big_conv2_drop_0_split
I0413 18:58:14.570006 14774 net.cpp:434] rpn_big_conv2_rpn_big_conv2_drop_0_split <- rpn_big_conv2
I0413 18:58:14.570013 14774 net.cpp:408] rpn_big_conv2_rpn_big_conv2_drop_0_split -> rpn_big_conv2_rpn_big_conv2_drop_0_split_0
I0413 18:58:14.570021 14774 net.cpp:408] rpn_big_conv2_rpn_big_conv2_drop_0_split -> rpn_big_conv2_rpn_big_conv2_drop_0_split_1
I0413 18:58:14.570062 14774 net.cpp:150] Setting up rpn_big_conv2_rpn_big_conv2_drop_0_split
I0413 18:58:14.570070 14774 net.cpp:157] Top shape: 1 512 63 94 (3032064)
I0413 18:58:14.570075 14774 net.cpp:157] Top shape: 1 512 63 94 (3032064)
I0413 18:58:14.570077 14774 net.cpp:165] Memory required for data: 3584884212
I0413 18:58:14.570081 14774 layer_factory.hpp:77] Creating layer rpn_big_output_cls
I0413 18:58:14.570091 14774 net.cpp:100] Creating Layer rpn_big_output_cls
I0413 18:58:14.570096 14774 net.cpp:434] rpn_big_output_cls <- rpn_big_conv2_rpn_big_conv2_drop_0_split_0
I0413 18:58:14.570103 14774 net.cpp:408] rpn_big_output_cls -> rpn_big_output_cls
I0413 18:58:14.589471 14774 net.cpp:150] Setting up rpn_big_output_cls
I0413 18:58:14.589526 14774 net.cpp:157] Top shape: 1 384 63 94 (2274048)
I0413 18:58:14.589531 14774 net.cpp:165] Memory required for data: 3593980404
I0413 18:58:14.589541 14774 layer_factory.hpp:77] Creating layer rpn_big_output_cls_relu
I0413 18:58:14.589555 14774 net.cpp:100] Creating Layer rpn_big_output_cls_relu
I0413 18:58:14.589560 14774 net.cpp:434] rpn_big_output_cls_relu <- rpn_big_output_cls
I0413 18:58:14.589572 14774 net.cpp:395] rpn_big_output_cls_relu -> rpn_big_output_cls (in-place)
I0413 18:58:14.589586 14774 net.cpp:150] Setting up rpn_big_output_cls_relu
I0413 18:58:14.589591 14774 net.cpp:157] Top shape: 1 384 63 94 (2274048)
I0413 18:58:14.589594 14774 net.cpp:165] Memory required for data: 3603076596
I0413 18:58:14.589597 14774 layer_factory.hpp:77] Creating layer rpn_big_cls_score
I0413 18:58:14.589608 14774 net.cpp:100] Creating Layer rpn_big_cls_score
I0413 18:58:14.589613 14774 net.cpp:434] rpn_big_cls_score <- rpn_big_output_cls
I0413 18:58:14.589620 14774 net.cpp:408] rpn_big_cls_score -> rpn_big_cls_score
I0413 18:58:14.591982 14774 net.cpp:150] Setting up rpn_big_cls_score
I0413 18:58:14.592003 14774 net.cpp:157] Top shape: 1 52 61 92 (291824)
I0413 18:58:14.592006 14774 net.cpp:165] Memory required for data: 3604243892
I0413 18:58:14.592022 14774 layer_factory.hpp:77] Creating layer rpn_big_cls_score_rpn_big_cls_score_0_split
I0413 18:58:14.592031 14774 net.cpp:100] Creating Layer rpn_big_cls_score_rpn_big_cls_score_0_split
I0413 18:58:14.592036 14774 net.cpp:434] rpn_big_cls_score_rpn_big_cls_score_0_split <- rpn_big_cls_score
I0413 18:58:14.592042 14774 net.cpp:408] rpn_big_cls_score_rpn_big_cls_score_0_split -> rpn_big_cls_score_rpn_big_cls_score_0_split_0
I0413 18:58:14.592051 14774 net.cpp:408] rpn_big_cls_score_rpn_big_cls_score_0_split -> rpn_big_cls_score_rpn_big_cls_score_0_split_1
I0413 18:58:14.592082 14774 net.cpp:150] Setting up rpn_big_cls_score_rpn_big_cls_score_0_split
I0413 18:58:14.592090 14774 net.cpp:157] Top shape: 1 52 61 92 (291824)
I0413 18:58:14.592094 14774 net.cpp:157] Top shape: 1 52 61 92 (291824)
I0413 18:58:14.592097 14774 net.cpp:165] Memory required for data: 3606578484
I0413 18:58:14.592100 14774 layer_factory.hpp:77] Creating layer rpn_big_cls_score_reshape
I0413 18:58:14.592108 14774 net.cpp:100] Creating Layer rpn_big_cls_score_reshape
I0413 18:58:14.592110 14774 net.cpp:434] rpn_big_cls_score_reshape <- rpn_big_cls_score_rpn_big_cls_score_0_split_0
I0413 18:58:14.592115 14774 net.cpp:408] rpn_big_cls_score_reshape -> rpn_big_cls_score_reshape
I0413 18:58:14.592140 14774 net.cpp:150] Setting up rpn_big_cls_score_reshape
I0413 18:58:14.592147 14774 net.cpp:157] Top shape: 1 2 1586 92 (291824)
I0413 18:58:14.592150 14774 net.cpp:165] Memory required for data: 3607745780
I0413 18:58:14.592154 14774 layer_factory.hpp:77] Creating layer rpn_big_cls_score_reshape_rpn_big_cls_score_reshape_0_split
I0413 18:58:14.592159 14774 net.cpp:100] Creating Layer rpn_big_cls_score_reshape_rpn_big_cls_score_reshape_0_split
I0413 18:58:14.592161 14774 net.cpp:434] rpn_big_cls_score_reshape_rpn_big_cls_score_reshape_0_split <- rpn_big_cls_score_reshape
I0413 18:58:14.592167 14774 net.cpp:408] rpn_big_cls_score_reshape_rpn_big_cls_score_reshape_0_split -> rpn_big_cls_score_reshape_rpn_big_cls_score_reshape_0_split_0
I0413 18:58:14.592176 14774 net.cpp:408] rpn_big_cls_score_reshape_rpn_big_cls_score_reshape_0_split -> rpn_big_cls_score_reshape_rpn_big_cls_score_reshape_0_split_1
I0413 18:58:14.592206 14774 net.cpp:150] Setting up rpn_big_cls_score_reshape_rpn_big_cls_score_reshape_0_split
I0413 18:58:14.592213 14774 net.cpp:157] Top shape: 1 2 1586 92 (291824)
I0413 18:58:14.592217 14774 net.cpp:157] Top shape: 1 2 1586 92 (291824)
I0413 18:58:14.592221 14774 net.cpp:165] Memory required for data: 3610080372
I0413 18:58:14.592223 14774 layer_factory.hpp:77] Creating layer rpn_big_cls_prob
I0413 18:58:14.592231 14774 net.cpp:100] Creating Layer rpn_big_cls_prob
I0413 18:58:14.592234 14774 net.cpp:434] rpn_big_cls_prob <- rpn_big_cls_score_reshape_rpn_big_cls_score_reshape_0_split_0
I0413 18:58:14.592239 14774 net.cpp:408] rpn_big_cls_prob -> rpn_big_cls_prob
I0413 18:58:14.592289 14774 net.cpp:150] Setting up rpn_big_cls_prob
I0413 18:58:14.592296 14774 net.cpp:157] Top shape: 1 2 1586 92 (291824)
I0413 18:58:14.592299 14774 net.cpp:165] Memory required for data: 3611247668
I0413 18:58:14.592303 14774 layer_factory.hpp:77] Creating layer rpn_big_cls_prob_reshape
I0413 18:58:14.592308 14774 net.cpp:100] Creating Layer rpn_big_cls_prob_reshape
I0413 18:58:14.592311 14774 net.cpp:434] rpn_big_cls_prob_reshape <- rpn_big_cls_prob
I0413 18:58:14.592317 14774 net.cpp:408] rpn_big_cls_prob_reshape -> rpn_big_cls_prob_reshape
I0413 18:58:14.592337 14774 net.cpp:150] Setting up rpn_big_cls_prob_reshape
I0413 18:58:14.592344 14774 net.cpp:157] Top shape: 1 52 61 92 (291824)
I0413 18:58:14.592346 14774 net.cpp:165] Memory required for data: 3612414964
I0413 18:58:14.592350 14774 layer_factory.hpp:77] Creating layer rpn_big_cls_prob_reshape_rpn_big_cls_prob_reshape_0_split
I0413 18:58:14.592355 14774 net.cpp:100] Creating Layer rpn_big_cls_prob_reshape_rpn_big_cls_prob_reshape_0_split
I0413 18:58:14.592357 14774 net.cpp:434] rpn_big_cls_prob_reshape_rpn_big_cls_prob_reshape_0_split <- rpn_big_cls_prob_reshape
I0413 18:58:14.592362 14774 net.cpp:408] rpn_big_cls_prob_reshape_rpn_big_cls_prob_reshape_0_split -> rpn_big_cls_prob_reshape_rpn_big_cls_prob_reshape_0_split_0
I0413 18:58:14.592368 14774 net.cpp:408] rpn_big_cls_prob_reshape_rpn_big_cls_prob_reshape_0_split -> rpn_big_cls_prob_reshape_rpn_big_cls_prob_reshape_0_split_1
I0413 18:58:14.592396 14774 net.cpp:150] Setting up rpn_big_cls_prob_reshape_rpn_big_cls_prob_reshape_0_split
I0413 18:58:14.592402 14774 net.cpp:157] Top shape: 1 52 61 92 (291824)
I0413 18:58:14.592406 14774 net.cpp:157] Top shape: 1 52 61 92 (291824)
I0413 18:58:14.592409 14774 net.cpp:165] Memory required for data: 3614749556
I0413 18:58:14.592412 14774 layer_factory.hpp:77] Creating layer rpn_big_anchor_target
I0413 18:58:14.593796 14774 net.cpp:100] Creating Layer rpn_big_anchor_target
I0413 18:58:14.593817 14774 net.cpp:434] rpn_big_anchor_target <- rpn_big_cls_score_rpn_big_cls_score_0_split_1
I0413 18:58:14.593824 14774 net.cpp:434] rpn_big_anchor_target <- input_gt_boxes_input_2_split_0
I0413 18:58:14.593829 14774 net.cpp:434] rpn_big_anchor_target <- input_ignored_boxes
I0413 18:58:14.593833 14774 net.cpp:434] rpn_big_anchor_target <- input_im_info_input_1_split_0
I0413 18:58:14.593838 14774 net.cpp:434] rpn_big_anchor_target <- input_data_input_0_split_1
I0413 18:58:14.593842 14774 net.cpp:434] rpn_big_anchor_target <- rpn_big_cls_prob_reshape_rpn_big_cls_prob_reshape_0_split_0
I0413 18:58:14.593849 14774 net.cpp:408] rpn_big_anchor_target -> rpn_big_anchor_target_labels
I0413 18:58:14.593859 14774 net.cpp:408] rpn_big_anchor_target -> rpn_big_anchor_target_bbox_targets
I0413 18:58:14.593868 14774 net.cpp:408] rpn_big_anchor_target -> rpn_big_anchor_target_inside_weights
I0413 18:58:14.593874 14774 net.cpp:408] rpn_big_anchor_target -> rpn_big_anchor_target_outside_weights
I0413 18:58:14.599851 14774 net.cpp:150] Setting up rpn_big_anchor_target
I0413 18:58:14.599892 14774 net.cpp:157] Top shape: 1 1 1586 92 (145912)
I0413 18:58:14.599898 14774 net.cpp:157] Top shape: 1 104 61 92 (583648)
I0413 18:58:14.599902 14774 net.cpp:157] Top shape: 1 104 61 92 (583648)
I0413 18:58:14.599906 14774 net.cpp:157] Top shape: 1 104 61 92 (583648)
I0413 18:58:14.599910 14774 net.cpp:165] Memory required for data: 3622336980
I0413 18:58:14.599920 14774 layer_factory.hpp:77] Creating layer rpn_big_loss_cls
I0413 18:58:14.599934 14774 net.cpp:100] Creating Layer rpn_big_loss_cls
I0413 18:58:14.599943 14774 net.cpp:434] rpn_big_loss_cls <- rpn_big_cls_score_reshape_rpn_big_cls_score_reshape_0_split_1
I0413 18:58:14.599954 14774 net.cpp:434] rpn_big_loss_cls <- rpn_big_anchor_target_labels
I0413 18:58:14.599972 14774 net.cpp:408] rpn_big_loss_cls -> rpn_big_loss_cls
I0413 18:58:14.599992 14774 layer_factory.hpp:77] Creating layer rpn_big_loss_cls
I0413 18:58:14.600764 14774 net.cpp:150] Setting up rpn_big_loss_cls
I0413 18:58:14.600776 14774 net.cpp:157] Top shape: (1)
I0413 18:58:14.600780 14774 net.cpp:160]     with loss weight 1
I0413 18:58:14.600795 14774 net.cpp:165] Memory required for data: 3622336984
I0413 18:58:14.600802 14774 layer_factory.hpp:77] Creating layer rpn_big_output_box
I0413 18:58:14.600819 14774 net.cpp:100] Creating Layer rpn_big_output_box
I0413 18:58:14.600827 14774 net.cpp:434] rpn_big_output_box <- rpn_big_conv2_rpn_big_conv2_drop_0_split_1
I0413 18:58:14.600841 14774 net.cpp:408] rpn_big_output_box -> rpn_big_output_box
I0413 18:58:14.620242 14774 net.cpp:150] Setting up rpn_big_output_box
I0413 18:58:14.620273 14774 net.cpp:157] Top shape: 1 384 63 94 (2274048)
I0413 18:58:14.620286 14774 net.cpp:165] Memory required for data: 3631433176
I0413 18:58:14.620296 14774 layer_factory.hpp:77] Creating layer rpn_big_output_box_relu
I0413 18:58:14.620311 14774 net.cpp:100] Creating Layer rpn_big_output_box_relu
I0413 18:58:14.620317 14774 net.cpp:434] rpn_big_output_box_relu <- rpn_big_output_box
I0413 18:58:14.620328 14774 net.cpp:395] rpn_big_output_box_relu -> rpn_big_output_box (in-place)
I0413 18:58:14.620343 14774 net.cpp:150] Setting up rpn_big_output_box_relu
I0413 18:58:14.620354 14774 net.cpp:157] Top shape: 1 384 63 94 (2274048)
I0413 18:58:14.620359 14774 net.cpp:165] Memory required for data: 3640529368
I0413 18:58:14.620364 14774 layer_factory.hpp:77] Creating layer rpn_big_bbox_pred
I0413 18:58:14.620379 14774 net.cpp:100] Creating Layer rpn_big_bbox_pred
I0413 18:58:14.620384 14774 net.cpp:434] rpn_big_bbox_pred <- rpn_big_output_box
I0413 18:58:14.620404 14774 net.cpp:408] rpn_big_bbox_pred -> rpn_big_bbox_pred
I0413 18:58:14.626237 14774 net.cpp:150] Setting up rpn_big_bbox_pred
I0413 18:58:14.626258 14774 net.cpp:157] Top shape: 1 104 61 92 (583648)
I0413 18:58:14.626261 14774 net.cpp:165] Memory required for data: 3642863960
I0413 18:58:14.626278 14774 layer_factory.hpp:77] Creating layer rpn_big_bbox_pred_rpn_big_bbox_pred_0_split
I0413 18:58:14.626287 14774 net.cpp:100] Creating Layer rpn_big_bbox_pred_rpn_big_bbox_pred_0_split
I0413 18:58:14.626291 14774 net.cpp:434] rpn_big_bbox_pred_rpn_big_bbox_pred_0_split <- rpn_big_bbox_pred
I0413 18:58:14.626302 14774 net.cpp:408] rpn_big_bbox_pred_rpn_big_bbox_pred_0_split -> rpn_big_bbox_pred_rpn_big_bbox_pred_0_split_0
I0413 18:58:14.626314 14774 net.cpp:408] rpn_big_bbox_pred_rpn_big_bbox_pred_0_split -> rpn_big_bbox_pred_rpn_big_bbox_pred_0_split_1
I0413 18:58:14.626365 14774 net.cpp:150] Setting up rpn_big_bbox_pred_rpn_big_bbox_pred_0_split
I0413 18:58:14.626377 14774 net.cpp:157] Top shape: 1 104 61 92 (583648)
I0413 18:58:14.626384 14774 net.cpp:157] Top shape: 1 104 61 92 (583648)
I0413 18:58:14.626389 14774 net.cpp:165] Memory required for data: 3647533144
I0413 18:58:14.626394 14774 layer_factory.hpp:77] Creating layer rpn_big_loss_bbox
I0413 18:58:14.626816 14774 net.cpp:100] Creating Layer rpn_big_loss_bbox
I0413 18:58:14.626826 14774 net.cpp:434] rpn_big_loss_bbox <- rpn_big_bbox_pred_rpn_big_bbox_pred_0_split_0
I0413 18:58:14.626832 14774 net.cpp:434] rpn_big_loss_bbox <- rpn_big_anchor_target_bbox_targets
I0413 18:58:14.626842 14774 net.cpp:434] rpn_big_loss_bbox <- rpn_big_anchor_target_inside_weights
I0413 18:58:14.626850 14774 net.cpp:434] rpn_big_loss_bbox <- rpn_big_anchor_target_outside_weights
I0413 18:58:14.626862 14774 net.cpp:408] rpn_big_loss_bbox -> rpn_big_loss_bbox
I0413 18:58:14.628864 14774 net.cpp:150] Setting up rpn_big_loss_bbox
I0413 18:58:14.628921 14774 net.cpp:157] Top shape: 1 (1)
I0413 18:58:14.628929 14774 net.cpp:160]     with loss weight 1
I0413 18:58:14.628942 14774 net.cpp:165] Memory required for data: 3647533148
I0413 18:58:14.628949 14774 layer_factory.hpp:77] Creating layer proposal
I0413 18:58:14.629405 14774 net.cpp:100] Creating Layer proposal
I0413 18:58:14.629416 14774 net.cpp:434] proposal <- rpn_big_cls_prob_reshape_rpn_big_cls_prob_reshape_0_split_1
I0413 18:58:14.629425 14774 net.cpp:434] proposal <- rpn_big_bbox_pred_rpn_big_bbox_pred_0_split_1
I0413 18:58:14.629429 14774 net.cpp:434] proposal <- input_im_info_input_1_split_1
I0413 18:58:14.629436 14774 net.cpp:408] proposal -> rpn_rois
I0413 18:58:14.633787 14774 net.cpp:150] Setting up proposal
I0413 18:58:14.633810 14774 net.cpp:157] Top shape: 1 5 (5)
I0413 18:58:14.633812 14774 net.cpp:165] Memory required for data: 3647533168
I0413 18:58:14.633818 14774 layer_factory.hpp:77] Creating layer roi-data
I0413 18:58:14.634204 14774 net.cpp:100] Creating Layer roi-data
I0413 18:58:14.634215 14774 net.cpp:434] roi-data <- rpn_rois
I0413 18:58:14.634223 14774 net.cpp:434] roi-data <- input_gt_boxes_input_2_split_1
I0413 18:58:14.634234 14774 net.cpp:408] roi-data -> rois
I0413 18:58:14.634249 14774 net.cpp:408] roi-data -> labels
I0413 18:58:14.634263 14774 net.cpp:408] roi-data -> bbox_targets
I0413 18:58:14.634275 14774 net.cpp:408] roi-data -> bbox_inside_weights
I0413 18:58:14.634286 14774 net.cpp:408] roi-data -> pid_label
I0413 18:58:14.634297 14774 net.cpp:408] roi-data -> bbox_outside_weights
I0413 18:58:14.635505 14774 net.cpp:150] Setting up roi-data
I0413 18:58:14.635521 14774 net.cpp:157] Top shape: 1 5 (5)
I0413 18:58:14.635526 14774 net.cpp:157] Top shape: 1 1 (1)
I0413 18:58:14.635532 14774 net.cpp:157] Top shape: 1 8 (8)
I0413 18:58:14.635540 14774 net.cpp:157] Top shape: 1 8 (8)
I0413 18:58:14.635545 14774 net.cpp:157] Top shape: 1 8 (8)
I0413 18:58:14.635551 14774 net.cpp:157] Top shape: (0)
I0413 18:58:14.635556 14774 net.cpp:165] Memory required for data: 3647533288
I0413 18:58:14.635563 14774 layer_factory.hpp:77] Creating layer roi-pool
I0413 18:58:14.635573 14774 net.cpp:100] Creating Layer roi-pool
I0413 18:58:14.635581 14774 net.cpp:434] roi-pool <- conv5_3_relu5_3_0_split_1
I0413 18:58:14.635589 14774 net.cpp:434] roi-pool <- rois
I0413 18:58:14.635598 14774 net.cpp:408] roi-pool -> roi-pool
I0413 18:58:14.635609 14774 roi_pooling_layer.cpp:33] Spatial scale: 0.0625
I0413 18:58:14.635622 14774 roi_pooling_layer.cpp:34] Box scale: 1
I0413 18:58:14.635675 14774 net.cpp:150] Setting up roi-pool
I0413 18:58:14.635687 14774 net.cpp:157] Top shape: 1 512 7 7 (25088)
I0413 18:58:14.635694 14774 net.cpp:165] Memory required for data: 3647633640
I0413 18:58:14.635699 14774 layer_factory.hpp:77] Creating layer fc6
I0413 18:58:14.635707 14774 net.cpp:100] Creating Layer fc6
I0413 18:58:14.635713 14774 net.cpp:434] fc6 <- roi-pool
I0413 18:58:14.635723 14774 net.cpp:408] fc6 -> fc6
I0413 18:58:14.802074 14774 net.cpp:150] Setting up fc6
I0413 18:58:14.802116 14774 net.cpp:157] Top shape: 1 4096 (4096)
I0413 18:58:14.802129 14774 net.cpp:165] Memory required for data: 3647650024
I0413 18:58:14.802140 14774 layer_factory.hpp:77] Creating layer relu6
I0413 18:58:14.802151 14774 net.cpp:100] Creating Layer relu6
I0413 18:58:14.802156 14774 net.cpp:434] relu6 <- fc6
I0413 18:58:14.802168 14774 net.cpp:395] relu6 -> fc6 (in-place)
I0413 18:58:14.802182 14774 net.cpp:150] Setting up relu6
I0413 18:58:14.802189 14774 net.cpp:157] Top shape: 1 4096 (4096)
I0413 18:58:14.802194 14774 net.cpp:165] Memory required for data: 3647666408
I0413 18:58:14.802198 14774 layer_factory.hpp:77] Creating layer drop6
I0413 18:58:14.802208 14774 net.cpp:100] Creating Layer drop6
I0413 18:58:14.802213 14774 net.cpp:434] drop6 <- fc6
I0413 18:58:14.802222 14774 net.cpp:395] drop6 -> fc6 (in-place)
I0413 18:58:14.802251 14774 net.cpp:150] Setting up drop6
I0413 18:58:14.802259 14774 net.cpp:157] Top shape: 1 4096 (4096)
I0413 18:58:14.802264 14774 net.cpp:165] Memory required for data: 3647682792
I0413 18:58:14.802269 14774 layer_factory.hpp:77] Creating layer fc7
I0413 18:58:14.802281 14774 net.cpp:100] Creating Layer fc7
I0413 18:58:14.802286 14774 net.cpp:434] fc7 <- fc6
I0413 18:58:14.802295 14774 net.cpp:408] fc7 -> fc7
I0413 18:58:14.829668 14774 net.cpp:150] Setting up fc7
I0413 18:58:14.829710 14774 net.cpp:157] Top shape: 1 4096 (4096)
I0413 18:58:14.829715 14774 net.cpp:165] Memory required for data: 3647699176
I0413 18:58:14.829727 14774 layer_factory.hpp:77] Creating layer relu7
I0413 18:58:14.829748 14774 net.cpp:100] Creating Layer relu7
I0413 18:58:14.829756 14774 net.cpp:434] relu7 <- fc7
I0413 18:58:14.829767 14774 net.cpp:395] relu7 -> fc7 (in-place)
I0413 18:58:14.829782 14774 net.cpp:150] Setting up relu7
I0413 18:58:14.829790 14774 net.cpp:157] Top shape: 1 4096 (4096)
I0413 18:58:14.829794 14774 net.cpp:165] Memory required for data: 3647715560
I0413 18:58:14.829800 14774 layer_factory.hpp:77] Creating layer drop7
I0413 18:58:14.829808 14774 net.cpp:100] Creating Layer drop7
I0413 18:58:14.829814 14774 net.cpp:434] drop7 <- fc7
I0413 18:58:14.829820 14774 net.cpp:395] drop7 -> fc7 (in-place)
I0413 18:58:14.829850 14774 net.cpp:150] Setting up drop7
I0413 18:58:14.829860 14774 net.cpp:157] Top shape: 1 4096 (4096)
I0413 18:58:14.829867 14774 net.cpp:165] Memory required for data: 3647731944
I0413 18:58:14.829872 14774 layer_factory.hpp:77] Creating layer fc7_drop7_0_split
I0413 18:58:14.829880 14774 net.cpp:100] Creating Layer fc7_drop7_0_split
I0413 18:58:14.829887 14774 net.cpp:434] fc7_drop7_0_split <- fc7
I0413 18:58:14.829895 14774 net.cpp:408] fc7_drop7_0_split -> fc7_drop7_0_split_0
I0413 18:58:14.829926 14774 net.cpp:408] fc7_drop7_0_split -> fc7_drop7_0_split_1
I0413 18:58:14.829974 14774 net.cpp:150] Setting up fc7_drop7_0_split
I0413 18:58:14.829988 14774 net.cpp:157] Top shape: 1 4096 (4096)
I0413 18:58:14.829994 14774 net.cpp:157] Top shape: 1 4096 (4096)
I0413 18:58:14.829999 14774 net.cpp:165] Memory required for data: 3647764712
I0413 18:58:14.830005 14774 layer_factory.hpp:77] Creating layer bbox_pred
I0413 18:58:14.830016 14774 net.cpp:100] Creating Layer bbox_pred
I0413 18:58:14.830021 14774 net.cpp:434] bbox_pred <- fc7_drop7_0_split_0
I0413 18:58:14.830032 14774 net.cpp:408] bbox_pred -> bbox_pred
I0413 18:58:14.830631 14774 net.cpp:150] Setting up bbox_pred
I0413 18:58:14.830641 14774 net.cpp:157] Top shape: 1 8 (8)
I0413 18:58:14.830643 14774 net.cpp:165] Memory required for data: 3647764744
I0413 18:58:14.830651 14774 layer_factory.hpp:77] Creating layer loss_bbox
I0413 18:58:14.830658 14774 net.cpp:100] Creating Layer loss_bbox
I0413 18:58:14.830662 14774 net.cpp:434] loss_bbox <- bbox_pred
I0413 18:58:14.830667 14774 net.cpp:434] loss_bbox <- bbox_targets
I0413 18:58:14.830670 14774 net.cpp:434] loss_bbox <- bbox_inside_weights
…
