…
I0413 16:32:29.074712  9096 solver.cpp:48] Initializing solver from parameters: 
base_lr: 0.001
display: 20
lr_policy: "multistep"
gamma: 0.1
momentum: 0.9
weight_decay: 0.0005
snapshot: 0
snapshot_prefix: "faces_example"
net_param {
  name: "GeneratedModel_13_04_2017_16_32"
  layer {
    name: "input"
    type: "Python"
    top: "input_data"
    top: "input_im_info"
    top: "input_gt_boxes"
    top: "input_ignored_boxes"
    python_param {
      module: "layers.roi_data_layer"
      layer: "RoIDataLayer"
      param_str: "{\"num_classes\": 2}"
    }
  }
  layer {
    name: "conv1_1"
    type: "Convolution"
    bottom: "input_data"
    top: "conv1_1"
    param {
      lr_mult: 0
      decay_mult: 0
    }
    param {
      lr_mult: 0
      decay_mult: 0
    }
    convolution_param {
      num_output: 64
      pad: 1
      kernel_size: 3
    }
  }
  layer {
    name: "relu1_1"
    type: "ReLU"
    bottom: "conv1_1"
    top: "conv1_1"
  }
  layer {
    name: "conv1_2"
    type: "Convolution"
    bottom: "conv1_1"
    top: "conv1_2"
    param {
      lr_mult: 0
      decay_mult: 0
    }
    param {
      lr_mult: 0
      decay_mult: 0
    }
    convolution_param {
      num_output: 64
      pad: 1
      kernel_size: 3
    }
  }
  layer {
    name: "relu1_2"
    type: "ReLU"
    bottom: "conv1_2"
    top: "conv1_2"
  }
  layer {
    name: "pool1"
    type: "Pooling"
    bottom: "conv1_2"
    top: "pool1"
    pooling_param {
      pool: MAX
      kernel_size: 2
      stride: 2
    }
  }
  layer {
    name: "conv2_1"
    type: "Convolution"
    bottom: "pool1"
    top: "conv2_1"
    param {
      lr_mult: 0
      decay_mult: 0
    }
    param {
      lr_mult: 0
      decay_mult: 0
    }
    convolution_param {
      num_output: 128
      pad: 1
      kernel_size: 3
    }
  }
  layer {
    name: "relu2_1"
    type: "ReLU"
    bottom: "conv2_1"
    top: "conv2_1"
  }
  layer {
    name: "conv2_2"
    type: "Convolution"
    bottom: "conv2_1"
    top: "conv2_2"
    param {
      lr_mult: 0
      decay_mult: 0
    }
    param {
      lr_mult: 0
      decay_mult: 0
    }
    convolution_param {
      num_output: 128
      pad: 1
      kernel_size: 3
    }
  }
  layer {
    name: "relu2_2"
    type: "ReLU"
    bottom: "conv2_2"
    top: "conv2_2"
  }
  layer {
    name: "pool2"
    type: "Pooling"
    bottom: "conv2_2"
    top: "pool2"
    pooling_param {
      pool: MAX
      kernel_size: 2
      stride: 2
    }
  }
  layer {
    name: "conv3_1"
    type: "Convolution"
    bottom: "pool2"
    top: "conv3_1"
    param {
      lr_mult: 1
    }
    param {
      lr_mult: 2
    }
    convolution_param {
      num_output: 256
      pad: 1
      kernel_size: 3
    }
  }
  layer {
    name: "relu3_1"
    type: "ReLU"
    bottom: "conv3_1"
    top: "conv3_1"
  }
  layer {
    name: "conv3_2"
    type: "Convolution"
    bottom: "conv3_1"
    top: "conv3_2"
    param {
      lr_mult: 1
    }
    param {
      lr_mult: 2
    }
    convolution_param {
      num_output: 256
      pad: 1
      kernel_size: 3
    }
  }
  layer {
    name: "relu3_2"
    type: "ReLU"
    bottom: "conv3_2"
    top: "conv3_2"
  }
  layer {
    name: "conv3_3"
    type: "Convolution"
    bottom: "conv3_2"
    top: "conv3_3"
    param {
      lr_mult: 1
    }
    param {
      lr_mult: 2
    }
    convolution_param {
      num_output: 256
      pad: 1
      kernel_size: 3
    }
  }
  layer {
    name: "relu3_3"
    type: "ReLU"
    bottom: "conv3_3"
    top: "conv3_3"
  }
  layer {
    name: "pool3"
    type: "Pooling"
    bottom: "conv3_3"
    top: "pool3"
    pooling_param {
      pool: MAX
      kernel_size: 2
      stride: 2
    }
  }
  layer {
    name: "conv4_1"
    type: "Convolution"
    bottom: "pool3"
    top: "conv4_1"
    param {
      lr_mult: 1
    }
    param {
      lr_mult: 2
    }
    convolution_param {
      num_output: 512
      pad: 1
      kernel_size: 3
    }
  }
  layer {
    name: "relu4_1"
    type: "ReLU"
    bottom: "conv4_1"
    top: "conv4_1"
  }
  layer {
    name: "conv4_2"
    type: "Convolution"
    bottom: "conv4_1"
    top: "conv4_2"
    param {
      lr_mult: 1
    }
    param {
      lr_mult: 2
    }
    convolution_param {
      num_output: 512
      pad: 1
      kernel_size: 3
    }
  }
  layer {
    name: "relu4_2"
    type: "ReLU"
    bottom: "conv4_2"
    top: "conv4_2"
  }
  layer {
    name: "conv4_3"
    type: "Convolution"
    bottom: "conv4_2"
    top: "conv4_3"
    param {
      lr_mult: 1
    }
    param {
      lr_mult: 2
    }
    convolution_param {
      num_output: 512
      pad: 1
      kernel_size: 3
    }
  }
  layer {
    name: "relu4_3"
    type: "ReLU"
    bottom: "conv4_3"
    top: "conv4_3"
  }
  layer {
    name: "pool4"
    type: "Pooling"
    bottom: "conv4_3"
    top: "pool4"
    pooling_param {
      pool: MAX
      kernel_size: 2
      stride: 2
    }
  }
  layer {
    name: "conv5_1"
    type: "Convolution"
    bottom: "pool4"
    top: "conv5_1"
    param {
      lr_mult: 1
    }
    param {
      lr_mult: 2
    }
    convolution_param {
      num_output: 512
      pad: 1
      kernel_size: 3
    }
  }
  layer {
    name: "relu5_1"
    type: "ReLU"
    bottom: "conv5_1"
    top: "conv5_1"
  }
  layer {
    name: "conv5_2"
    type: "Convolution"
    bottom: "conv5_1"
    top: "conv5_2"
    param {
      lr_mult: 1
    }
    param {
      lr_mult: 2
    }
    convolution_param {
      num_output: 512
      pad: 1
      kernel_size: 3
    }
  }
  layer {
    name: "relu5_2"
    type: "ReLU"
    bottom: "conv5_2"
    top: "conv5_2"
  }
  layer {
    name: "conv5_3"
    type: "Convolution"
    bottom: "conv5_2"
    top: "conv5_3"
    param {
      lr_mult: 1
    }
    param {
      lr_mult: 2
    }
    convolution_param {
      num_output: 512
      pad: 1
      kernel_size: 3
    }
  }
  layer {
    name: "relu5_3"
    type: "ReLU"
    bottom: "conv5_3"
    top: "conv5_3"
  }
  layer {
    name: "rpn_big_conv1"
    type: "Convolution"
    bottom: "conv5_3"
    top: "rpn_big_conv1"
    param {
      lr_mult: 1
    }
    param {
      lr_mult: 2
    }
    convolution_param {
      num_output: 512
      pad: 1
      kernel_size: 3
      stride: 1
      weight_filler {
        type: "gaussian"
        mean: 0
        std: 0.01
      }
      bias_filler {
        type: "constant"
      }
    }
  }
  layer {
    name: "rpn_big_conv1_relu"
    type: "ReLU"
    bottom: "rpn_big_conv1"
    top: "rpn_big_conv1"
    relu_param {
      negative_slope: 0
    }
  }
  layer {
    name: "rpn_big_conv2"
    type: "Convolution"
    bottom: "rpn_big_conv1"
    top: "rpn_big_conv2"
    param {
      lr_mult: 1
    }
    param {
      lr_mult: 2
    }
    convolution_param {
      num_output: 512
      pad: 1
      kernel_size: 3
      stride: 1
      weight_filler {
        type: "gaussian"
        mean: 0
        std: 0.01
      }
      bias_filler {
        type: "constant"
      }
    }
  }
  layer {
    name: "rpn_big_conv2_relu"
    type: "ReLU"
    bottom: "rpn_big_conv2"
    top: "rpn_big_conv2"
    relu_param {
      negative_slope: 0
    }
  }
  layer {
    name: "rpn_big_conv2_drop"
    type: "Dropout"
    bottom: "rpn_big_conv2"
    top: "rpn_big_conv2"
    dropout_param {
      dropout_ratio: 0.3
    }
  }
  layer {
    name: "rpn_big_output_cls"
    type: "Convolution"
    bottom: "rpn_big_conv2"
    top: "rpn_big_output_cls"
    param {
      lr_mult: 1
    }
    param {
      lr_mult: 2
    }
    convolution_param {
      num_output: 384
      pad: 1
      kernel_size: 3
      stride: 1
      weight_filler {
        type: "gaussian"
        mean: 0
        std: 0.01
      }
      bias_filler {
        type: "constant"
      }
    }
  }
  layer {
    name: "rpn_big_output_cls_relu"
    type: "ReLU"
    bottom: "rpn_big_output_cls"
    top: "rpn_big_output_cls"
    relu_param {
      negative_slope: 0
    }
  }
  layer {
    name: "rpn_big_cls_score"
    type: "Convolution"
    bottom: "rpn_big_output_cls"
    top: "rpn_big_cls_score"
    param {
      lr_mult: 1
    }
    param {
      lr_mult: 2
    }
    convolution_param {
      num_output: 52
      pad: 0
      kernel_size: 3
      stride: 1
      weight_filler {
        type: "gaussian"
        mean: 0
        std: 0.01
      }
      bias_filler {
        type: "constant"
      }
    }
  }
  layer {
    name: "rpn_big_cls_score_reshape"
    type: "Reshape"
    bottom: "rpn_big_cls_score"
    top: "rpn_big_cls_score_reshape"
    reshape_param {
      shape {
        dim: 0
        dim: 2
        dim: -1
        dim: 0
      }
    }
  }
  layer {
    name: "rpn_big_cls_prob"
    type: "Softmax"
    bottom: "rpn_big_cls_score_reshape"
    top: "rpn_big_cls_prob"
  }
  layer {
    name: "rpn_big_cls_prob_reshape"
    type: "Reshape"
    bottom: "rpn_big_cls_prob"
    top: "rpn_big_cls_prob_reshape"
    reshape_param {
      shape {
        dim: 0
        dim: 52
        dim: -1
        dim: 0
      }
    }
  }
  layer {
    name: "rpn_big_anchor_target"
    type: "Python"
    bottom: "rpn_big_cls_score"
    bottom: "input_gt_boxes"
    bottom: "input_ignored_boxes"
    bottom: "input_im_info"
    bottom: "input_data"
    bottom: "rpn_big_cls_prob_reshape"
    top: "rpn_big_anchor_target_labels"
    top: "rpn_big_anchor_target_bbox_targets"
    top: "rpn_big_anchor_target_inside_weights"
    top: "rpn_big_anchor_target_outside_weights"
    python_param {
      module: "rpn.anchor_target_layer"
      layer: "AnchorTargetLayer"
      param_str: "{\"batchsize\": 256, \"tn_fraction\": 0.2, \"positive_overlap\": 0.6, \"fg_fraction\": 0.5, \"anchor_scales\": [2.5, 3.025, 3.66025, 4.4289024999999995, 5.358972025, 6.484356150249999, 7.846070941802498, 9.493745839581022, 11.487432465893036, 13.899793283730574, 16.818749873313998, 20.350687346709933, 24.62433168951902, 29.795441344318014], \"feat_stride\": 16, \"square_targets\": true, \"anchor_shift_num_xy\": [[2, 2], [2, 2], [2, 2], [2, 2], [1, 1], [1, 1], [1, 1], [1, 1], [1, 1], [1, 1], [1, 1], [1, 1], [1, 1], [1, 1]], \"name\": \"rpn_big\", \"anchor_ratios\": [1.0], \"negative_overlap\": 0.4, \"num_classes\": 1}"
    }
  }
  layer {
    name: "rpn_big_loss_cls"
    type: "SoftmaxWithLoss"
    bottom: "rpn_big_cls_score_reshape"
    bottom: "rpn_big_anchor_target_labels"
    top: "rpn_big_loss_cls"
    loss_weight: 1
    propagate_down: true
    propagate_down: false
    loss_param {
      ignore_label: -1
      normalization: VALID
    }
  }
  layer {
    name: "rpn_big_output_box"
    type: "Convolution"
    bottom: "rpn_big_conv2"
    top: "rpn_big_output_box"
    param {
      lr_mult: 1
    }
    param {
      lr_mult: 2
    }
    convolution_param {
      num_output: 384
      pad: 1
      kernel_size: 3
      stride: 1
      weight_filler {
        type: "gaussian"
        mean: 0
        std: 0.01
      }
      bias_filler {
        type: "constant"
      }
    }
  }
  layer {
    name: "rpn_big_output_box_relu"
    type: "ReLU"
    bottom: "rpn_big_output_box"
    top: "rpn_big_output_box"
    relu_param {
      negative_slope: 0
    }
  }
  layer {
    name: "rpn_big_bbox_pred"
    type: "Convolution"
    bottom: "rpn_big_output_box"
    top: "rpn_big_bbox_pred"
    param {
      lr_mult: 1
    }
    param {
      lr_mult: 2
    }
    convolution_param {
      num_output: 104
      pad: 0
      kernel_size: 3
      stride: 1
      weight_filler {
        type: "gaussian"
        mean: 0
        std: 0.01
      }
      bias_filler {
        type: "constant"
      }
    }
  }
  layer {
    name: "rpn_big_loss_bbox"
    type: "Python"
    bottom: "rpn_big_bbox_pred"
    bottom: "rpn_big_anchor_target_bbox_targets"
    bottom: "rpn_big_anchor_target_inside_weights"
    bottom: "rpn_big_anchor_target_outside_weights"
    top: "rpn_big_loss_bbox"
    loss_weight: 1
    python_param {
      module: "layers.smooth_l1_loss"
      layer: "SmoothL1LossLayer"
      param_str: "{\"sigma\": 3}"
    }
  }
  layer {
    name: "proposal"
    type: "Python"
    bottom: "rpn_big_cls_prob_reshape"
    bottom: "rpn_big_bbox_pred"
    bottom: "input_im_info"
    top: "rpn_rois"
    python_param {
      module: "rpn.proposal_layer"
      layer: "ProposalLayer"
      param_str: "{\"tn_fraction\": 0.2, \"anchor_shift_num_xy\": [[2, 2], [2, 2], [2, 2], [2, 2], [1, 1], [1, 1], [1, 1], [1, 1], [1, 1], [1, 1], [1, 1], [1, 1], [1, 1], [1, 1]], \"negative_overlap\": 0.4, \"feat_stride\": 16, \"fg_fraction\": 0.5, \"num_classes\": 1, \"positive_overlap\": 0.6, \"anchor_scales\": [2.5, 3.025, 3.66025, 4.4289024999999995, 5.358972025, 6.484356150249999, 7.846070941802498, 9.493745839581022, 11.487432465893036, 13.899793283730574, 16.818749873313998, 20.350687346709933, 24.62433168951902, 29.795441344318014], \"square_targets\": true, \"name\": \"rpn_big\", \"batchsize\": 256, \"anchor_ratios\": [1.0]}"
    }
  }
}
average_loss: 100
stepvalue: 70000
stepvalue: 120000
iter_size: 2
I0413 16:32:29.074784  9096 solver.cpp:86] Creating training net specified in net_param.
I0413 16:32:29.075150  9096 net.cpp:58] Initializing net from parameters: 
name: "GeneratedModel_13_04_2017_16_32"
state {
  phase: TRAIN
}
layer {
  name: "input"
  type: "Python"
  top: "input_data"
  top: "input_im_info"
  top: "input_gt_boxes"
  top: "input_ignored_boxes"
  python_param {
    module: "layers.roi_data_layer"
    layer: "RoIDataLayer"
    param_str: "{\"num_classes\": 2}"
  }
}
layer {
  name: "conv1_1"
  type: "Convolution"
  bottom: "input_data"
  top: "conv1_1"
  param {
    lr_mult: 0
    decay_mult: 0
  }
  param {
    lr_mult: 0
    decay_mult: 0
  }
  convolution_param {
    num_output: 64
    pad: 1
    kernel_size: 3
  }
}
layer {
  name: "relu1_1"
  type: "ReLU"
  bottom: "conv1_1"
  top: "conv1_1"
}
layer {
  name: "conv1_2"
  type: "Convolution"
  bottom: "conv1_1"
  top: "conv1_2"
  param {
    lr_mult: 0
    decay_mult: 0
  }
  param {
    lr_mult: 0
    decay_mult: 0
  }
  convolution_param {
    num_output: 64
    pad: 1
    kernel_size: 3
  }
}
layer {
  name: "relu1_2"
  type: "ReLU"
  bottom: "conv1_2"
  top: "conv1_2"
}
layer {
  name: "pool1"
  type: "Pooling"
  bottom: "conv1_2"
  top: "pool1"
  pooling_param {
    pool: MAX
    kernel_size: 2
    stride: 2
  }
}
layer {
  name: "conv2_1"
  type: "Convolution"
  bottom: "pool1"
  top: "conv2_1"
  param {
    lr_mult: 0
    decay_mult: 0
  }
  param {
    lr_mult: 0
    decay_mult: 0
  }
  convolution_param {
    num_output: 128
    pad: 1
    kernel_size: 3
  }
}
layer {
  name: "relu2_1"
  type: "ReLU"
  bottom: "conv2_1"
  top: "conv2_1"
}
layer {
  name: "conv2_2"
  type: "Convolution"
  bottom: "conv2_1"
  top: "conv2_2"
  param {
    lr_mult: 0
    decay_mult: 0
  }
  param {
    lr_mult: 0
    decay_mult: 0
  }
  convolution_param {
    num_output: 128
    pad: 1
    kernel_size: 3
  }
}
layer {
  name: "relu2_2"
  type: "ReLU"
  bottom: "conv2_2"
  top: "conv2_2"
}
layer {
  name: "pool2"
  type: "Pooling"
  bottom: "conv2_2"
  top: "pool2"
  pooling_param {
    pool: MAX
    kernel_size: 2
    stride: 2
  }
}
layer {
  name: "conv3_1"
  type: "Convolution"
  bottom: "pool2"
  top: "conv3_1"
  param {
    lr_mult: 1
  }
  param {
    lr_mult: 2
  }
  convolution_param {
    num_output: 256
    pad: 1
    kernel_size: 3
  }
}
layer {
  name: "relu3_1"
  type: "ReLU"
  bottom: "conv3_1"
  top: "conv3_1"
}
layer {
  name: "conv3_2"
  type: "Convolution"
  bottom: "conv3_1"
  top: "conv3_2"
  param {
    lr_mult: 1
  }
  param {
    lr_mult: 2
  }
  convolution_param {
    num_output: 256
    pad: 1
    kernel_size: 3
  }
}
layer {
  name: "relu3_2"
  type: "ReLU"
  bottom: "conv3_2"
  top: "conv3_2"
}
layer {
  name: "conv3_3"
  type: "Convolution"
  bottom: "conv3_2"
  top: "conv3_3"
  param {
    lr_mult: 1
  }
  param {
    lr_mult: 2
  }
  convolution_param {
    num_output: 256
    pad: 1
    kernel_size: 3
  }
}
layer {
  name: "relu3_3"
  type: "ReLU"
  bottom: "conv3_3"
  top: "conv3_3"
}
layer {
  name: "pool3"
  type: "Pooling"
  bottom: "conv3_3"
  top: "pool3"
  pooling_param {
    pool: MAX
    kernel_size: 2
    stride: 2
  }
}
layer {
  name: "conv4_1"
  type: "Convolution"
  bottom: "pool3"
  top: "conv4_1"
  param {
    lr_mult: 1
  }
  param {
    lr_mult: 2
  }
  convolution_param {
    num_output: 512
    pad: 1
    kernel_size: 3
  }
}
layer {
  name: "relu4_1"
  type: "ReLU"
  bottom: "conv4_1"
  top: "conv4_1"
}
layer {
  name: "conv4_2"
  type: "Convolution"
  bottom: "conv4_1"
  top: "conv4_2"
  param {
    lr_mult: 1
  }
  param {
    lr_mult: 2
  }
  convolution_param {
    num_output: 512
    pad: 1
    kernel_size: 3
  }
}
layer {
  name: "relu4_2"
  type: "ReLU"
  bottom: "conv4_2"
  top: "conv4_2"
}
layer {
  name: "conv4_3"
  type: "Convolution"
  bottom: "conv4_2"
  top: "conv4_3"
  param {
    lr_mult: 1
  }
  param {
    lr_mult: 2
  }
  convolution_param {
    num_output: 512
    pad: 1
    kernel_size: 3
  }
}
layer {
  name: "relu4_3"
  type: "ReLU"
  bottom: "conv4_3"
  top: "conv4_3"
}
layer {
  name: "pool4"
  type: "Pooling"
  bottom: "conv4_3"
  top: "pool4"
  pooling_param {
    pool: MAX
    kernel_size: 2
    stride: 2
  }
}
layer {
  name: "conv5_1"
  type: "Convolution"
  bottom: "pool4"
  top: "conv5_1"
  param {
    lr_mult: 1
  }
  param {
    lr_mult: 2
  }
  convolution_param {
    num_output: 512
    pad: 1
    kernel_size: 3
  }
}
layer {
  name: "relu5_1"
  type: "ReLU"
  bottom: "conv5_1"
  top: "conv5_1"
}
layer {
  name: "conv5_2"
  type: "Convolution"
  bottom: "conv5_1"
  top: "conv5_2"
  param {
    lr_mult: 1
  }
  param {
    lr_mult: 2
  }
  convolution_param {
    num_output: 512
    pad: 1
    kernel_size: 3
  }
}
layer {
  name: "relu5_2"
  type: "ReLU"
  bottom: "conv5_2"
  top: "conv5_2"
}
layer {
  name: "conv5_3"
  type: "Convolution"
  bottom: "conv5_2"
  top: "conv5_3"
  param {
    lr_mult: 1
  }
  param {
    lr_mult: 2
  }
  convolution_param {
    num_output: 512
    pad: 1
    kernel_size: 3
  }
}
layer {
  name: "relu5_3"
  type: "ReLU"
  bottom: "conv5_3"
  top: "conv5_3"
}
layer {
  name: "rpn_big_conv1"
  type: "Convolution"
  bottom: "conv5_3"
  top: "rpn_big_conv1"
  param {
    lr_mult: 1
  }
  param {
    lr_mult: 2
  }
  convolution_param {
    num_output: 512
    pad: 1
    kernel_size: 3
    stride: 1
    weight_filler {
      type: "gaussian"
      mean: 0
      std: 0.01
    }
    bias_filler {
      type: "constant"
    }
  }
}
layer {
  name: "rpn_big_conv1_relu"
  type: "ReLU"
  bottom: "rpn_big_conv1"
  top: "rpn_big_conv1"
  relu_param {
    negative_slope: 0
  }
}
layer {
  name: "rpn_big_conv2"
  type: "Convolution"
  bottom: "rpn_big_conv1"
  top: "rpn_big_conv2"
  param {
    lr_mult: 1
  }
  param {
    lr_mult: 2
  }
  convolution_param {
    num_output: 512
    pad: 1
    kernel_size: 3
    stride: 1
    weight_filler {
      type: "gaussian"
      mean: 0
      std: 0.01
    }
    bias_filler {
      type: "constant"
    }
  }
}
layer {
  name: "rpn_big_conv2_relu"
  type: "ReLU"
  bottom: "rpn_big_conv2"
  top: "rpn_big_conv2"
  relu_param {
    negative_slope: 0
  }
}
layer {
  name: "rpn_big_conv2_drop"
  type: "Dropout"
  bottom: "rpn_big_conv2"
  top: "rpn_big_conv2"
  dropout_param {
    dropout_ratio: 0.3
  }
}
layer {
  name: "rpn_big_output_cls"
  type: "Convolution"
  bottom: "rpn_big_conv2"
  top: "rpn_big_output_cls"
  param {
    lr_mult: 1
  }
  param {
    lr_mult: 2
  }
  convolution_param {
    num_output: 384
    pad: 1
    kernel_size: 3
    stride: 1
    weight_filler {
      type: "gaussian"
      mean: 0
      std: 0.01
    }
    bias_filler {
      type: "constant"
    }
  }
}
layer {
  name: "rpn_big_output_cls_relu"
  type: "ReLU"
  bottom: "rpn_big_output_cls"
  top: "rpn_big_output_cls"
  relu_param {
    negative_slope: 0
  }
}
layer {
  name: "rpn_big_cls_score"
  type: "Convolution"
  bottom: "rpn_big_output_cls"
  top: "rpn_big_cls_score"
  param {
    lr_mult: 1
  }
  param {
    lr_mult: 2
  }
  convolution_param {
    num_output: 52
    pad: 0
    kernel_size: 3
    stride: 1
    weight_filler {
      type: "gaussian"
      mean: 0
      std: 0.01
    }
    bias_filler {
      type: "constant"
    }
  }
}
layer {
  name: "rpn_big_cls_score_reshape"
  type: "Reshape"
  bottom: "rpn_big_cls_score"
  top: "rpn_big_cls_score_reshape"
  reshape_param {
    shape {
      dim: 0
      dim: 2
      dim: -1
      dim: 0
    }
  }
}
layer {
  name: "rpn_big_cls_prob"
  type: "Softmax"
  bottom: "rpn_big_cls_score_reshape"
  top: "rpn_big_cls_prob"
}
layer {
  name: "rpn_big_cls_prob_reshape"
  type: "Reshape"
  bottom: "rpn_big_cls_prob"
  top: "rpn_big_cls_prob_reshape"
  reshape_param {
    shape {
      dim: 0
      dim: 52
      dim: -1
      dim: 0
    }
  }
}
layer {
  name: "rpn_big_anchor_target"
  type: "Python"
  bottom: "rpn_big_cls_score"
  bottom: "input_gt_boxes"
  bottom: "input_ignored_boxes"
  bottom: "input_im_info"
  bottom: "input_data"
  bottom: "rpn_big_cls_prob_reshape"
  top: "rpn_big_anchor_target_labels"
  top: "rpn_big_anchor_target_bbox_targets"
  top: "rpn_big_anchor_target_inside_weights"
  top: "rpn_big_anchor_target_outside_weights"
  python_param {
    module: "rpn.anchor_target_layer"
    layer: "AnchorTargetLayer"
    param_str: "{\"batchsize\": 256, \"tn_fraction\": 0.2, \"positive_overlap\": 0.6, \"fg_fraction\": 0.5, \"anchor_scales\": [2.5, 3.025, 3.66025, 4.4289024999999995, 5.358972025, 6.484356150249999, 7.846070941802498, 9.493745839581022, 11.487432465893036, 13.899793283730574, 16.818749873313998, 20.350687346709933, 24.62433168951902, 29.795441344318014], \"feat_stride\": 16, \"square_targets\": true, \"anchor_shift_num_xy\": [[2, 2], [2, 2], [2, 2], [2, 2], [1, 1], [1, 1], [1, 1], [1, 1], [1, 1], [1, 1], [1, 1], [1, 1], [1, 1], [1, 1]], \"name\": \"rpn_big\", \"anchor_ratios\": [1.0], \"negative_overlap\": 0.4, \"num_classes\": 1}"
  }
}
layer {
  name: "rpn_big_loss_cls"
  type: "SoftmaxWithLoss"
  bottom: "rpn_big_cls_score_reshape"
  bottom: "rpn_big_anchor_target_labels"
  top: "rpn_big_loss_cls"
  loss_weight: 1
  propagate_down: true
  propagate_down: false
  loss_param {
    ignore_label: -1
    normalization: VALID
  }
}
layer {
  name: "rpn_big_output_box"
  type: "Convolution"
  bottom: "rpn_big_conv2"
  top: "rpn_big_output_box"
  param {
    lr_mult: 1
  }
  param {
    lr_mult: 2
  }
  convolution_param {
    num_output: 384
    pad: 1
    kernel_size: 3
    stride: 1
    weight_filler {
      type: "gaussian"
      mean: 0
      std: 0.01
    }
    bias_filler {
      type: "constant"
    }
  }
}
layer {
  name: "rpn_big_output_box_relu"
  type: "ReLU"
  bottom: "rpn_big_output_box"
  top: "rpn_big_output_box"
  relu_param {
    negative_slope: 0
  }
}
layer {
  name: "rpn_big_bbox_pred"
  type: "Convolution"
  bottom: "rpn_big_output_box"
  top: "rpn_big_bbox_pred"
  param {
    lr_mult: 1
  }
  param {
    lr_mult: 2
  }
  convolution_param {
    num_output: 104
    pad: 0
    kernel_size: 3
    stride: 1
    weight_filler {
      type: "gaussian"
      mean: 0
      std: 0.01
    }
    bias_filler {
      type: "constant"
    }
  }
}
layer {
  name: "rpn_big_loss_bbox"
  type: "Python"
  bottom: "rpn_big_bbox_pred"
  bottom: "rpn_big_anchor_target_bbox_targets"
  bottom: "rpn_big_anchor_target_inside_weights"
  bottom: "rpn_big_anchor_target_outside_weights"
  top: "rpn_big_loss_bbox"
  loss_weight: 1
  python_param {
    module: "layers.smooth_l1_loss"
    layer: "SmoothL1LossLayer"
    param_str: "{\"sigma\": 3}"
  }
}
layer {
  name: "proposal"
  type: "Python"
  bottom: "rpn_big_cls_prob_reshape"
  bottom: "rpn_big_bbox_pred"
  bottom: "input_im_info"
  top: "rpn_rois"
  python_param {
    module: "rpn.proposal_layer"
    layer: "ProposalLayer"
    param_str: "{\"tn_fraction\": 0.2, \"anchor_shift_num_xy\": [[2, 2], [2, 2], [2, 2], [2, 2], [1, 1], [1, 1], [1, 1], [1, 1], [1, 1], [1, 1], [1, 1], [1, 1], [1, 1], [1, 1]], \"negative_overlap\": 0.4, \"feat_stride\": 16, \"fg_fraction\": 0.5, \"num_classes\": 1, \"positive_overlap\": 0.6, \"anchor_scales\": [2.5, 3.025, 3.66025, 4.4289024999999995, 5.358972025, 6.484356150249999, 7.846070941802498, 9.493745839581022, 11.487432465893036, 13.899793283730574, 16.818749873313998, 20.350687346709933, 24.62433168951902, 29.795441344318014], \"square_targets\": true, \"name\": \"rpn_big\", \"batchsize\": 256, \"anchor_ratios\": [1.0]}"
  }
}
I0413 16:32:29.075328  9096 layer_factory.hpp:77] Creating layer input
I0413 16:32:29.083219  9096 net.cpp:100] Creating Layer input
I0413 16:32:29.083245  9096 net.cpp:408] input -> input_data
I0413 16:32:29.083262  9096 net.cpp:408] input -> input_im_info
I0413 16:32:29.083273  9096 net.cpp:408] input -> input_gt_boxes
I0413 16:32:29.083286  9096 net.cpp:408] input -> input_ignored_boxes
RoiDataLayer: name_to_top: {'gt_boxes': 2, 'data': 0, 'im_info': 1, 'ignored_boxes': 3}
I0413 16:32:29.404461  9096 net.cpp:150] Setting up input
I0413 16:32:29.404497  9096 net.cpp:157] Top shape: 1 3 1000 1500 (4500000)
I0413 16:32:29.404507  9096 net.cpp:157] Top shape: 1 3 (3)
I0413 16:32:29.404515  9096 net.cpp:157] Top shape: 1 5 (5)
I0413 16:32:29.404522  9096 net.cpp:157] Top shape: 1 5 (5)
I0413 16:32:29.404527  9096 net.cpp:165] Memory required for data: 18000052
I0413 16:32:29.404538  9096 layer_factory.hpp:77] Creating layer input_data_input_0_split
I0413 16:32:29.404559  9096 net.cpp:100] Creating Layer input_data_input_0_split
I0413 16:32:29.404568  9096 net.cpp:434] input_data_input_0_split <- input_data
I0413 16:32:29.404582  9096 net.cpp:408] input_data_input_0_split -> input_data_input_0_split_0
I0413 16:32:29.404600  9096 net.cpp:408] input_data_input_0_split -> input_data_input_0_split_1
I0413 16:32:29.404645  9096 net.cpp:150] Setting up input_data_input_0_split
I0413 16:32:29.404656  9096 net.cpp:157] Top shape: 1 3 1000 1500 (4500000)
I0413 16:32:29.404664  9096 net.cpp:157] Top shape: 1 3 1000 1500 (4500000)
I0413 16:32:29.404672  9096 net.cpp:165] Memory required for data: 54000052
I0413 16:32:29.404678  9096 layer_factory.hpp:77] Creating layer input_im_info_input_1_split
I0413 16:32:29.404690  9096 net.cpp:100] Creating Layer input_im_info_input_1_split
I0413 16:32:29.404697  9096 net.cpp:434] input_im_info_input_1_split <- input_im_info
I0413 16:32:29.404707  9096 net.cpp:408] input_im_info_input_1_split -> input_im_info_input_1_split_0
I0413 16:32:29.404723  9096 net.cpp:408] input_im_info_input_1_split -> input_im_info_input_1_split_1
I0413 16:32:29.404759  9096 net.cpp:150] Setting up input_im_info_input_1_split
I0413 16:32:29.404768  9096 net.cpp:157] Top shape: 1 3 (3)
I0413 16:32:29.404777  9096 net.cpp:157] Top shape: 1 3 (3)
I0413 16:32:29.404783  9096 net.cpp:165] Memory required for data: 54000076
I0413 16:32:29.404789  9096 layer_factory.hpp:77] Creating layer conv1_1
I0413 16:32:29.404805  9096 net.cpp:100] Creating Layer conv1_1
I0413 16:32:29.404811  9096 net.cpp:434] conv1_1 <- input_data_input_0_split_0
I0413 16:32:29.404821  9096 net.cpp:408] conv1_1 -> conv1_1
I0413 16:32:29.407912  9096 net.cpp:150] Setting up conv1_1
I0413 16:32:29.407953  9096 net.cpp:157] Top shape: 1 64 1000 1500 (96000000)
I0413 16:32:29.407959  9096 net.cpp:165] Memory required for data: 438000076
I0413 16:32:29.407986  9096 layer_factory.hpp:77] Creating layer relu1_1
I0413 16:32:29.408004  9096 net.cpp:100] Creating Layer relu1_1
I0413 16:32:29.408013  9096 net.cpp:434] relu1_1 <- conv1_1
I0413 16:32:29.408026  9096 net.cpp:395] relu1_1 -> conv1_1 (in-place)
I0413 16:32:29.408042  9096 net.cpp:150] Setting up relu1_1
I0413 16:32:29.408051  9096 net.cpp:157] Top shape: 1 64 1000 1500 (96000000)
I0413 16:32:29.408058  9096 net.cpp:165] Memory required for data: 822000076
I0413 16:32:29.408064  9096 layer_factory.hpp:77] Creating layer conv1_2
I0413 16:32:29.408082  9096 net.cpp:100] Creating Layer conv1_2
I0413 16:32:29.408087  9096 net.cpp:434] conv1_2 <- conv1_1
I0413 16:32:29.408099  9096 net.cpp:408] conv1_2 -> conv1_2
I0413 16:32:29.413463  9096 net.cpp:150] Setting up conv1_2
I0413 16:32:29.413503  9096 net.cpp:157] Top shape: 1 64 1000 1500 (96000000)
I0413 16:32:29.413511  9096 net.cpp:165] Memory required for data: 1206000076
I0413 16:32:29.413535  9096 layer_factory.hpp:77] Creating layer relu1_2
I0413 16:32:29.413556  9096 net.cpp:100] Creating Layer relu1_2
I0413 16:32:29.413564  9096 net.cpp:434] relu1_2 <- conv1_2
I0413 16:32:29.413579  9096 net.cpp:395] relu1_2 -> conv1_2 (in-place)
I0413 16:32:29.413595  9096 net.cpp:150] Setting up relu1_2
I0413 16:32:29.413604  9096 net.cpp:157] Top shape: 1 64 1000 1500 (96000000)
I0413 16:32:29.413610  9096 net.cpp:165] Memory required for data: 1590000076
I0413 16:32:29.413617  9096 layer_factory.hpp:77] Creating layer pool1
I0413 16:32:29.413628  9096 net.cpp:100] Creating Layer pool1
I0413 16:32:29.413635  9096 net.cpp:434] pool1 <- conv1_2
I0413 16:32:29.413645  9096 net.cpp:408] pool1 -> pool1
I0413 16:32:29.413722  9096 net.cpp:150] Setting up pool1
I0413 16:32:29.413733  9096 net.cpp:157] Top shape: 1 64 500 750 (24000000)
I0413 16:32:29.413738  9096 net.cpp:165] Memory required for data: 1686000076
I0413 16:32:29.413745  9096 layer_factory.hpp:77] Creating layer conv2_1
I0413 16:32:29.413772  9096 net.cpp:100] Creating Layer conv2_1
I0413 16:32:29.413779  9096 net.cpp:434] conv2_1 <- pool1
I0413 16:32:29.413790  9096 net.cpp:408] conv2_1 -> conv2_1
I0413 16:32:29.415009  9096 net.cpp:150] Setting up conv2_1
I0413 16:32:29.415030  9096 net.cpp:157] Top shape: 1 128 500 750 (48000000)
I0413 16:32:29.415036  9096 net.cpp:165] Memory required for data: 1878000076
I0413 16:32:29.415052  9096 layer_factory.hpp:77] Creating layer relu2_1
I0413 16:32:29.415065  9096 net.cpp:100] Creating Layer relu2_1
I0413 16:32:29.415072  9096 net.cpp:434] relu2_1 <- conv2_1
I0413 16:32:29.415084  9096 net.cpp:395] relu2_1 -> conv2_1 (in-place)
I0413 16:32:29.415097  9096 net.cpp:150] Setting up relu2_1
I0413 16:32:29.415107  9096 net.cpp:157] Top shape: 1 128 500 750 (48000000)
I0413 16:32:29.415113  9096 net.cpp:165] Memory required for data: 2070000076
I0413 16:32:29.415120  9096 layer_factory.hpp:77] Creating layer conv2_2
I0413 16:32:29.415133  9096 net.cpp:100] Creating Layer conv2_2
I0413 16:32:29.415139  9096 net.cpp:434] conv2_2 <- conv2_1
I0413 16:32:29.415151  9096 net.cpp:408] conv2_2 -> conv2_2
I0413 16:32:29.416082  9096 net.cpp:150] Setting up conv2_2
I0413 16:32:29.416106  9096 net.cpp:157] Top shape: 1 128 500 750 (48000000)
I0413 16:32:29.416112  9096 net.cpp:165] Memory required for data: 2262000076
I0413 16:32:29.416126  9096 layer_factory.hpp:77] Creating layer relu2_2
I0413 16:32:29.416139  9096 net.cpp:100] Creating Layer relu2_2
I0413 16:32:29.416148  9096 net.cpp:434] relu2_2 <- conv2_2
I0413 16:32:29.416160  9096 net.cpp:395] relu2_2 -> conv2_2 (in-place)
I0413 16:32:29.416175  9096 net.cpp:150] Setting up relu2_2
I0413 16:32:29.416185  9096 net.cpp:157] Top shape: 1 128 500 750 (48000000)
I0413 16:32:29.416191  9096 net.cpp:165] Memory required for data: 2454000076
I0413 16:32:29.416198  9096 layer_factory.hpp:77] Creating layer pool2
I0413 16:32:29.416209  9096 net.cpp:100] Creating Layer pool2
I0413 16:32:29.416216  9096 net.cpp:434] pool2 <- conv2_2
I0413 16:32:29.416225  9096 net.cpp:408] pool2 -> pool2
I0413 16:32:29.416277  9096 net.cpp:150] Setting up pool2
I0413 16:32:29.416287  9096 net.cpp:157] Top shape: 1 128 250 375 (12000000)
I0413 16:32:29.416293  9096 net.cpp:165] Memory required for data: 2502000076
I0413 16:32:29.416301  9096 layer_factory.hpp:77] Creating layer conv3_1
I0413 16:32:29.416316  9096 net.cpp:100] Creating Layer conv3_1
I0413 16:32:29.416322  9096 net.cpp:434] conv3_1 <- pool2
I0413 16:32:29.416334  9096 net.cpp:408] conv3_1 -> conv3_1
I0413 16:32:29.417515  9096 net.cpp:150] Setting up conv3_1
I0413 16:32:29.417549  9096 net.cpp:157] Top shape: 1 256 250 375 (24000000)
I0413 16:32:29.417556  9096 net.cpp:165] Memory required for data: 2598000076
I0413 16:32:29.417582  9096 layer_factory.hpp:77] Creating layer relu3_1
I0413 16:32:29.417595  9096 net.cpp:100] Creating Layer relu3_1
I0413 16:32:29.417604  9096 net.cpp:434] relu3_1 <- conv3_1
I0413 16:32:29.417621  9096 net.cpp:395] relu3_1 -> conv3_1 (in-place)
I0413 16:32:29.417635  9096 net.cpp:150] Setting up relu3_1
I0413 16:32:29.417645  9096 net.cpp:157] Top shape: 1 256 250 375 (24000000)
I0413 16:32:29.417652  9096 net.cpp:165] Memory required for data: 2694000076
I0413 16:32:29.417659  9096 layer_factory.hpp:77] Creating layer conv3_2
I0413 16:32:29.417673  9096 net.cpp:100] Creating Layer conv3_2
I0413 16:32:29.417680  9096 net.cpp:434] conv3_2 <- conv3_1
I0413 16:32:29.417690  9096 net.cpp:408] conv3_2 -> conv3_2
I0413 16:32:29.418884  9096 net.cpp:150] Setting up conv3_2
I0413 16:32:29.418912  9096 net.cpp:157] Top shape: 1 256 250 375 (24000000)
I0413 16:32:29.418918  9096 net.cpp:165] Memory required for data: 2790000076
I0413 16:32:29.418931  9096 layer_factory.hpp:77] Creating layer relu3_2
I0413 16:32:29.418949  9096 net.cpp:100] Creating Layer relu3_2
I0413 16:32:29.418956  9096 net.cpp:434] relu3_2 <- conv3_2
I0413 16:32:29.418967  9096 net.cpp:395] relu3_2 -> conv3_2 (in-place)
I0413 16:32:29.418982  9096 net.cpp:150] Setting up relu3_2
I0413 16:32:29.418990  9096 net.cpp:157] Top shape: 1 256 250 375 (24000000)
I0413 16:32:29.418998  9096 net.cpp:165] Memory required for data: 2886000076
I0413 16:32:29.419004  9096 layer_factory.hpp:77] Creating layer conv3_3
I0413 16:32:29.419019  9096 net.cpp:100] Creating Layer conv3_3
I0413 16:32:29.419026  9096 net.cpp:434] conv3_3 <- conv3_2
I0413 16:32:29.419039  9096 net.cpp:408] conv3_3 -> conv3_3
I0413 16:32:29.420578  9096 net.cpp:150] Setting up conv3_3
I0413 16:32:29.420613  9096 net.cpp:157] Top shape: 1 256 250 375 (24000000)
I0413 16:32:29.420619  9096 net.cpp:165] Memory required for data: 2982000076
I0413 16:32:29.420634  9096 layer_factory.hpp:77] Creating layer relu3_3
I0413 16:32:29.420646  9096 net.cpp:100] Creating Layer relu3_3
I0413 16:32:29.420655  9096 net.cpp:434] relu3_3 <- conv3_3
I0413 16:32:29.420671  9096 net.cpp:395] relu3_3 -> conv3_3 (in-place)
I0413 16:32:29.420687  9096 net.cpp:150] Setting up relu3_3
I0413 16:32:29.420696  9096 net.cpp:157] Top shape: 1 256 250 375 (24000000)
I0413 16:32:29.420703  9096 net.cpp:165] Memory required for data: 3078000076
I0413 16:32:29.420709  9096 layer_factory.hpp:77] Creating layer pool3
I0413 16:32:29.420722  9096 net.cpp:100] Creating Layer pool3
I0413 16:32:29.420728  9096 net.cpp:434] pool3 <- conv3_3
I0413 16:32:29.420740  9096 net.cpp:408] pool3 -> pool3
I0413 16:32:29.420791  9096 net.cpp:150] Setting up pool3
I0413 16:32:29.420801  9096 net.cpp:157] Top shape: 1 256 125 188 (6016000)
I0413 16:32:29.420806  9096 net.cpp:165] Memory required for data: 3102064076
I0413 16:32:29.420814  9096 layer_factory.hpp:77] Creating layer conv4_1
I0413 16:32:29.420830  9096 net.cpp:100] Creating Layer conv4_1
I0413 16:32:29.420835  9096 net.cpp:434] conv4_1 <- pool3
I0413 16:32:29.420847  9096 net.cpp:408] conv4_1 -> conv4_1
I0413 16:32:29.423539  9096 net.cpp:150] Setting up conv4_1
I0413 16:32:29.423574  9096 net.cpp:157] Top shape: 1 512 125 188 (12032000)
I0413 16:32:29.423580  9096 net.cpp:165] Memory required for data: 3150192076
I0413 16:32:29.423595  9096 layer_factory.hpp:77] Creating layer relu4_1
I0413 16:32:29.423611  9096 net.cpp:100] Creating Layer relu4_1
I0413 16:32:29.423619  9096 net.cpp:434] relu4_1 <- conv4_1
I0413 16:32:29.423635  9096 net.cpp:395] relu4_1 -> conv4_1 (in-place)
I0413 16:32:29.423650  9096 net.cpp:150] Setting up relu4_1
I0413 16:32:29.423658  9096 net.cpp:157] Top shape: 1 512 125 188 (12032000)
I0413 16:32:29.423665  9096 net.cpp:165] Memory required for data: 3198320076
I0413 16:32:29.423671  9096 layer_factory.hpp:77] Creating layer conv4_2
I0413 16:32:29.423687  9096 net.cpp:100] Creating Layer conv4_2
I0413 16:32:29.423693  9096 net.cpp:434] conv4_2 <- conv4_1
I0413 16:32:29.423704  9096 net.cpp:408] conv4_2 -> conv4_2
I0413 16:32:29.427937  9096 net.cpp:150] Setting up conv4_2
I0413 16:32:29.427973  9096 net.cpp:157] Top shape: 1 512 125 188 (12032000)
I0413 16:32:29.427978  9096 net.cpp:165] Memory required for data: 3246448076
I0413 16:32:29.428002  9096 layer_factory.hpp:77] Creating layer relu4_2
I0413 16:32:29.428019  9096 net.cpp:100] Creating Layer relu4_2
I0413 16:32:29.428027  9096 net.cpp:434] relu4_2 <- conv4_2
I0413 16:32:29.428040  9096 net.cpp:395] relu4_2 -> conv4_2 (in-place)
I0413 16:32:29.428055  9096 net.cpp:150] Setting up relu4_2
I0413 16:32:29.428064  9096 net.cpp:157] Top shape: 1 512 125 188 (12032000)
I0413 16:32:29.428071  9096 net.cpp:165] Memory required for data: 3294576076
I0413 16:32:29.428078  9096 layer_factory.hpp:77] Creating layer conv4_3
I0413 16:32:29.428094  9096 net.cpp:100] Creating Layer conv4_3
I0413 16:32:29.428100  9096 net.cpp:434] conv4_3 <- conv4_2
I0413 16:32:29.428112  9096 net.cpp:408] conv4_3 -> conv4_3
I0413 16:32:29.432361  9096 net.cpp:150] Setting up conv4_3
I0413 16:32:29.432401  9096 net.cpp:157] Top shape: 1 512 125 188 (12032000)
I0413 16:32:29.432407  9096 net.cpp:165] Memory required for data: 3342704076
I0413 16:32:29.432423  9096 layer_factory.hpp:77] Creating layer relu4_3
I0413 16:32:29.432437  9096 net.cpp:100] Creating Layer relu4_3
I0413 16:32:29.432447  9096 net.cpp:434] relu4_3 <- conv4_3
I0413 16:32:29.432462  9096 net.cpp:395] relu4_3 -> conv4_3 (in-place)
I0413 16:32:29.432477  9096 net.cpp:150] Setting up relu4_3
I0413 16:32:29.432485  9096 net.cpp:157] Top shape: 1 512 125 188 (12032000)
I0413 16:32:29.432492  9096 net.cpp:165] Memory required for data: 3390832076
I0413 16:32:29.432499  9096 layer_factory.hpp:77] Creating layer pool4
I0413 16:32:29.432509  9096 net.cpp:100] Creating Layer pool4
I0413 16:32:29.432514  9096 net.cpp:434] pool4 <- conv4_3
I0413 16:32:29.432526  9096 net.cpp:408] pool4 -> pool4
I0413 16:32:29.432569  9096 net.cpp:150] Setting up pool4
I0413 16:32:29.432581  9096 net.cpp:157] Top shape: 1 512 63 94 (3032064)
I0413 16:32:29.432588  9096 net.cpp:165] Memory required for data: 3402960332
I0413 16:32:29.432595  9096 layer_factory.hpp:77] Creating layer conv5_1
I0413 16:32:29.432610  9096 net.cpp:100] Creating Layer conv5_1
I0413 16:32:29.432615  9096 net.cpp:434] conv5_1 <- pool4
I0413 16:32:29.432631  9096 net.cpp:408] conv5_1 -> conv5_1
I0413 16:32:29.437221  9096 net.cpp:150] Setting up conv5_1
I0413 16:32:29.437257  9096 net.cpp:157] Top shape: 1 512 63 94 (3032064)
I0413 16:32:29.437263  9096 net.cpp:165] Memory required for data: 3415088588
I0413 16:32:29.437278  9096 layer_factory.hpp:77] Creating layer relu5_1
I0413 16:32:29.437292  9096 net.cpp:100] Creating Layer relu5_1
I0413 16:32:29.437301  9096 net.cpp:434] relu5_1 <- conv5_1
I0413 16:32:29.437317  9096 net.cpp:395] relu5_1 -> conv5_1 (in-place)
I0413 16:32:29.437332  9096 net.cpp:150] Setting up relu5_1
I0413 16:32:29.437340  9096 net.cpp:157] Top shape: 1 512 63 94 (3032064)
I0413 16:32:29.437348  9096 net.cpp:165] Memory required for data: 3427216844
I0413 16:32:29.437355  9096 layer_factory.hpp:77] Creating layer conv5_2
I0413 16:32:29.437368  9096 net.cpp:100] Creating Layer conv5_2
I0413 16:32:29.437376  9096 net.cpp:434] conv5_2 <- conv5_1
I0413 16:32:29.437388  9096 net.cpp:408] conv5_2 -> conv5_2
I0413 16:32:29.441576  9096 net.cpp:150] Setting up conv5_2
I0413 16:32:29.441615  9096 net.cpp:157] Top shape: 1 512 63 94 (3032064)
I0413 16:32:29.441622  9096 net.cpp:165] Memory required for data: 3439345100
I0413 16:32:29.441635  9096 layer_factory.hpp:77] Creating layer relu5_2
I0413 16:32:29.441649  9096 net.cpp:100] Creating Layer relu5_2
I0413 16:32:29.441659  9096 net.cpp:434] relu5_2 <- conv5_2
I0413 16:32:29.441675  9096 net.cpp:395] relu5_2 -> conv5_2 (in-place)
I0413 16:32:29.441690  9096 net.cpp:150] Setting up relu5_2
I0413 16:32:29.441699  9096 net.cpp:157] Top shape: 1 512 63 94 (3032064)
I0413 16:32:29.441706  9096 net.cpp:165] Memory required for data: 3451473356
I0413 16:32:29.441712  9096 layer_factory.hpp:77] Creating layer conv5_3
I0413 16:32:29.441727  9096 net.cpp:100] Creating Layer conv5_3
I0413 16:32:29.441733  9096 net.cpp:434] conv5_3 <- conv5_2
I0413 16:32:29.441746  9096 net.cpp:408] conv5_3 -> conv5_3
I0413 16:32:29.446171  9096 net.cpp:150] Setting up conv5_3
I0413 16:32:29.446208  9096 net.cpp:157] Top shape: 1 512 63 94 (3032064)
I0413 16:32:29.446213  9096 net.cpp:165] Memory required for data: 3463601612
I0413 16:32:29.446228  9096 layer_factory.hpp:77] Creating layer relu5_3
I0413 16:32:29.446250  9096 net.cpp:100] Creating Layer relu5_3
I0413 16:32:29.446260  9096 net.cpp:434] relu5_3 <- conv5_3
I0413 16:32:29.446277  9096 net.cpp:395] relu5_3 -> conv5_3 (in-place)
I0413 16:32:29.446293  9096 net.cpp:150] Setting up relu5_3
I0413 16:32:29.446302  9096 net.cpp:157] Top shape: 1 512 63 94 (3032064)
I0413 16:32:29.446310  9096 net.cpp:165] Memory required for data: 3475729868
I0413 16:32:29.446316  9096 layer_factory.hpp:77] Creating layer rpn_big_conv1
I0413 16:32:29.446334  9096 net.cpp:100] Creating Layer rpn_big_conv1
I0413 16:32:29.446341  9096 net.cpp:434] rpn_big_conv1 <- conv5_3
I0413 16:32:29.446354  9096 net.cpp:408] rpn_big_conv1 -> rpn_big_conv1
I0413 16:32:29.472156  9096 net.cpp:150] Setting up rpn_big_conv1
I0413 16:32:29.472185  9096 net.cpp:157] Top shape: 1 512 63 94 (3032064)
I0413 16:32:29.472192  9096 net.cpp:165] Memory required for data: 3487858124
I0413 16:32:29.472213  9096 layer_factory.hpp:77] Creating layer rpn_big_conv1_relu
I0413 16:32:29.472229  9096 net.cpp:100] Creating Layer rpn_big_conv1_relu
I0413 16:32:29.472239  9096 net.cpp:434] rpn_big_conv1_relu <- rpn_big_conv1
I0413 16:32:29.472254  9096 net.cpp:395] rpn_big_conv1_relu -> rpn_big_conv1 (in-place)
I0413 16:32:29.472270  9096 net.cpp:150] Setting up rpn_big_conv1_relu
I0413 16:32:29.472278  9096 net.cpp:157] Top shape: 1 512 63 94 (3032064)
I0413 16:32:29.472285  9096 net.cpp:165] Memory required for data: 3499986380
I0413 16:32:29.472290  9096 layer_factory.hpp:77] Creating layer rpn_big_conv2
I0413 16:32:29.472308  9096 net.cpp:100] Creating Layer rpn_big_conv2
I0413 16:32:29.472317  9096 net.cpp:434] rpn_big_conv2 <- rpn_big_conv1
I0413 16:32:29.472329  9096 net.cpp:408] rpn_big_conv2 -> rpn_big_conv2
I0413 16:32:29.499310  9096 net.cpp:150] Setting up rpn_big_conv2
I0413 16:32:29.499342  9096 net.cpp:157] Top shape: 1 512 63 94 (3032064)
I0413 16:32:29.499348  9096 net.cpp:165] Memory required for data: 3512114636
I0413 16:32:29.499363  9096 layer_factory.hpp:77] Creating layer rpn_big_conv2_relu
I0413 16:32:29.499379  9096 net.cpp:100] Creating Layer rpn_big_conv2_relu
I0413 16:32:29.499387  9096 net.cpp:434] rpn_big_conv2_relu <- rpn_big_conv2
I0413 16:32:29.499402  9096 net.cpp:395] rpn_big_conv2_relu -> rpn_big_conv2 (in-place)
I0413 16:32:29.499419  9096 net.cpp:150] Setting up rpn_big_conv2_relu
I0413 16:32:29.499428  9096 net.cpp:157] Top shape: 1 512 63 94 (3032064)
I0413 16:32:29.499435  9096 net.cpp:165] Memory required for data: 3524242892
I0413 16:32:29.499441  9096 layer_factory.hpp:77] Creating layer rpn_big_conv2_drop
I0413 16:32:29.499454  9096 net.cpp:100] Creating Layer rpn_big_conv2_drop
I0413 16:32:29.499460  9096 net.cpp:434] rpn_big_conv2_drop <- rpn_big_conv2
I0413 16:32:29.499470  9096 net.cpp:395] rpn_big_conv2_drop -> rpn_big_conv2 (in-place)
I0413 16:32:29.499500  9096 net.cpp:150] Setting up rpn_big_conv2_drop
I0413 16:32:29.499511  9096 net.cpp:157] Top shape: 1 512 63 94 (3032064)
I0413 16:32:29.499516  9096 net.cpp:165] Memory required for data: 3536371148
I0413 16:32:29.499522  9096 layer_factory.hpp:77] Creating layer rpn_big_conv2_rpn_big_conv2_drop_0_split
I0413 16:32:29.499533  9096 net.cpp:100] Creating Layer rpn_big_conv2_rpn_big_conv2_drop_0_split
I0413 16:32:29.499541  9096 net.cpp:434] rpn_big_conv2_rpn_big_conv2_drop_0_split <- rpn_big_conv2
I0413 16:32:29.499552  9096 net.cpp:408] rpn_big_conv2_rpn_big_conv2_drop_0_split -> rpn_big_conv2_rpn_big_conv2_drop_0_split_0
I0413 16:32:29.499564  9096 net.cpp:408] rpn_big_conv2_rpn_big_conv2_drop_0_split -> rpn_big_conv2_rpn_big_conv2_drop_0_split_1
I0413 16:32:29.499604  9096 net.cpp:150] Setting up rpn_big_conv2_rpn_big_conv2_drop_0_split
I0413 16:32:29.499614  9096 net.cpp:157] Top shape: 1 512 63 94 (3032064)
I0413 16:32:29.499622  9096 net.cpp:157] Top shape: 1 512 63 94 (3032064)
I0413 16:32:29.499629  9096 net.cpp:165] Memory required for data: 3560627660
I0413 16:32:29.499635  9096 layer_factory.hpp:77] Creating layer rpn_big_output_cls
I0413 16:32:29.499653  9096 net.cpp:100] Creating Layer rpn_big_output_cls
I0413 16:32:29.499660  9096 net.cpp:434] rpn_big_output_cls <- rpn_big_conv2_rpn_big_conv2_drop_0_split_0
I0413 16:32:29.499673  9096 net.cpp:408] rpn_big_output_cls -> rpn_big_output_cls
I0413 16:32:29.518800  9096 net.cpp:150] Setting up rpn_big_output_cls
I0413 16:32:29.518836  9096 net.cpp:157] Top shape: 1 384 63 94 (2274048)
I0413 16:32:29.518842  9096 net.cpp:165] Memory required for data: 3569723852
I0413 16:32:29.518864  9096 layer_factory.hpp:77] Creating layer rpn_big_output_cls_relu
I0413 16:32:29.518879  9096 net.cpp:100] Creating Layer rpn_big_output_cls_relu
I0413 16:32:29.518889  9096 net.cpp:434] rpn_big_output_cls_relu <- rpn_big_output_cls
I0413 16:32:29.518903  9096 net.cpp:395] rpn_big_output_cls_relu -> rpn_big_output_cls (in-place)
I0413 16:32:29.518919  9096 net.cpp:150] Setting up rpn_big_output_cls_relu
I0413 16:32:29.518928  9096 net.cpp:157] Top shape: 1 384 63 94 (2274048)
I0413 16:32:29.518934  9096 net.cpp:165] Memory required for data: 3578820044
I0413 16:32:29.518941  9096 layer_factory.hpp:77] Creating layer rpn_big_cls_score
I0413 16:32:29.518959  9096 net.cpp:100] Creating Layer rpn_big_cls_score
I0413 16:32:29.518966  9096 net.cpp:434] rpn_big_cls_score <- rpn_big_output_cls
I0413 16:32:29.518980  9096 net.cpp:408] rpn_big_cls_score -> rpn_big_cls_score
I0413 16:32:29.521512  9096 net.cpp:150] Setting up rpn_big_cls_score
I0413 16:32:29.521535  9096 net.cpp:157] Top shape: 1 52 61 92 (291824)
I0413 16:32:29.521543  9096 net.cpp:165] Memory required for data: 3579987340
I0413 16:32:29.521564  9096 layer_factory.hpp:77] Creating layer rpn_big_cls_score_rpn_big_cls_score_0_split
I0413 16:32:29.521577  9096 net.cpp:100] Creating Layer rpn_big_cls_score_rpn_big_cls_score_0_split
I0413 16:32:29.521586  9096 net.cpp:434] rpn_big_cls_score_rpn_big_cls_score_0_split <- rpn_big_cls_score
I0413 16:32:29.521600  9096 net.cpp:408] rpn_big_cls_score_rpn_big_cls_score_0_split -> rpn_big_cls_score_rpn_big_cls_score_0_split_0
I0413 16:32:29.521613  9096 net.cpp:408] rpn_big_cls_score_rpn_big_cls_score_0_split -> rpn_big_cls_score_rpn_big_cls_score_0_split_1
I0413 16:32:29.521661  9096 net.cpp:150] Setting up rpn_big_cls_score_rpn_big_cls_score_0_split
I0413 16:32:29.521670  9096 net.cpp:157] Top shape: 1 52 61 92 (291824)
I0413 16:32:29.521682  9096 net.cpp:157] Top shape: 1 52 61 92 (291824)
I0413 16:32:29.521688  9096 net.cpp:165] Memory required for data: 3582321932
I0413 16:32:29.521695  9096 layer_factory.hpp:77] Creating layer rpn_big_cls_score_reshape
I0413 16:32:29.521708  9096 net.cpp:100] Creating Layer rpn_big_cls_score_reshape
I0413 16:32:29.521713  9096 net.cpp:434] rpn_big_cls_score_reshape <- rpn_big_cls_score_rpn_big_cls_score_0_split_0
I0413 16:32:29.521726  9096 net.cpp:408] rpn_big_cls_score_reshape -> rpn_big_cls_score_reshape
I0413 16:32:29.521756  9096 net.cpp:150] Setting up rpn_big_cls_score_reshape
I0413 16:32:29.521766  9096 net.cpp:157] Top shape: 1 2 1586 92 (291824)
I0413 16:32:29.521772  9096 net.cpp:165] Memory required for data: 3583489228
I0413 16:32:29.521780  9096 layer_factory.hpp:77] Creating layer rpn_big_cls_score_reshape_rpn_big_cls_score_reshape_0_split
I0413 16:32:29.521795  9096 net.cpp:100] Creating Layer rpn_big_cls_score_reshape_rpn_big_cls_score_reshape_0_split
I0413 16:32:29.521802  9096 net.cpp:434] rpn_big_cls_score_reshape_rpn_big_cls_score_reshape_0_split <- rpn_big_cls_score_reshape
I0413 16:32:29.521816  9096 net.cpp:408] rpn_big_cls_score_reshape_rpn_big_cls_score_reshape_0_split -> rpn_big_cls_score_reshape_rpn_big_cls_score_reshape_0_split_0
I0413 16:32:29.521828  9096 net.cpp:408] rpn_big_cls_score_reshape_rpn_big_cls_score_reshape_0_split -> rpn_big_cls_score_reshape_rpn_big_cls_score_reshape_0_split_1
I0413 16:32:29.521867  9096 net.cpp:150] Setting up rpn_big_cls_score_reshape_rpn_big_cls_score_reshape_0_split
I0413 16:32:29.521878  9096 net.cpp:157] Top shape: 1 2 1586 92 (291824)
I0413 16:32:29.521885  9096 net.cpp:157] Top shape: 1 2 1586 92 (291824)
I0413 16:32:29.521893  9096 net.cpp:165] Memory required for data: 3585823820
I0413 16:32:29.521899  9096 layer_factory.hpp:77] Creating layer rpn_big_cls_prob
I0413 16:32:29.521911  9096 net.cpp:100] Creating Layer rpn_big_cls_prob
I0413 16:32:29.521919  9096 net.cpp:434] rpn_big_cls_prob <- rpn_big_cls_score_reshape_rpn_big_cls_score_reshape_0_split_0
I0413 16:32:29.521927  9096 net.cpp:408] rpn_big_cls_prob -> rpn_big_cls_prob
I0413 16:32:29.521987  9096 net.cpp:150] Setting up rpn_big_cls_prob
I0413 16:32:29.521997  9096 net.cpp:157] Top shape: 1 2 1586 92 (291824)
I0413 16:32:29.522003  9096 net.cpp:165] Memory required for data: 3586991116
I0413 16:32:29.522009  9096 layer_factory.hpp:77] Creating layer rpn_big_cls_prob_reshape
I0413 16:32:29.522020  9096 net.cpp:100] Creating Layer rpn_big_cls_prob_reshape
I0413 16:32:29.522028  9096 net.cpp:434] rpn_big_cls_prob_reshape <- rpn_big_cls_prob
I0413 16:32:29.522039  9096 net.cpp:408] rpn_big_cls_prob_reshape -> rpn_big_cls_prob_reshape
I0413 16:32:29.522068  9096 net.cpp:150] Setting up rpn_big_cls_prob_reshape
I0413 16:32:29.522078  9096 net.cpp:157] Top shape: 1 52 61 92 (291824)
I0413 16:32:29.522083  9096 net.cpp:165] Memory required for data: 3588158412
I0413 16:32:29.522089  9096 layer_factory.hpp:77] Creating layer rpn_big_cls_prob_reshape_rpn_big_cls_prob_reshape_0_split
I0413 16:32:29.522097  9096 net.cpp:100] Creating Layer rpn_big_cls_prob_reshape_rpn_big_cls_prob_reshape_0_split
I0413 16:32:29.522104  9096 net.cpp:434] rpn_big_cls_prob_reshape_rpn_big_cls_prob_reshape_0_split <- rpn_big_cls_prob_reshape
I0413 16:32:29.522115  9096 net.cpp:408] rpn_big_cls_prob_reshape_rpn_big_cls_prob_reshape_0_split -> rpn_big_cls_prob_reshape_rpn_big_cls_prob_reshape_0_split_0
I0413 16:32:29.522128  9096 net.cpp:408] rpn_big_cls_prob_reshape_rpn_big_cls_prob_reshape_0_split -> rpn_big_cls_prob_reshape_rpn_big_cls_prob_reshape_0_split_1
I0413 16:32:29.522167  9096 net.cpp:150] Setting up rpn_big_cls_prob_reshape_rpn_big_cls_prob_reshape_0_split
I0413 16:32:29.522176  9096 net.cpp:157] Top shape: 1 52 61 92 (291824)
I0413 16:32:29.522184  9096 net.cpp:157] Top shape: 1 52 61 92 (291824)
I0413 16:32:29.522192  9096 net.cpp:165] Memory required for data: 3590493004
I0413 16:32:29.522198  9096 layer_factory.hpp:77] Creating layer rpn_big_anchor_target
I0413 16:32:29.523509  9096 net.cpp:100] Creating Layer rpn_big_anchor_target
I0413 16:32:29.523522  9096 net.cpp:434] rpn_big_anchor_target <- rpn_big_cls_score_rpn_big_cls_score_0_split_1
I0413 16:32:29.523532  9096 net.cpp:434] rpn_big_anchor_target <- input_gt_boxes
I0413 16:32:29.523540  9096 net.cpp:434] rpn_big_anchor_target <- input_ignored_boxes
I0413 16:32:29.523548  9096 net.cpp:434] rpn_big_anchor_target <- input_im_info_input_1_split_0
I0413 16:32:29.523558  9096 net.cpp:434] rpn_big_anchor_target <- input_data_input_0_split_1
I0413 16:32:29.523566  9096 net.cpp:434] rpn_big_anchor_target <- rpn_big_cls_prob_reshape_rpn_big_cls_prob_reshape_0_split_0
I0413 16:32:29.523581  9096 net.cpp:408] rpn_big_anchor_target -> rpn_big_anchor_target_labels
I0413 16:32:29.523597  9096 net.cpp:408] rpn_big_anchor_target -> rpn_big_anchor_target_bbox_targets
I0413 16:32:29.523610  9096 net.cpp:408] rpn_big_anchor_target -> rpn_big_anchor_target_inside_weights
I0413 16:32:29.523625  9096 net.cpp:408] rpn_big_anchor_target -> rpn_big_anchor_target_outside_weights
I0413 16:32:29.528437  9096 net.cpp:150] Setting up rpn_big_anchor_target
I0413 16:32:29.528467  9096 net.cpp:157] Top shape: 1 1 1586 92 (145912)
I0413 16:32:29.528476  9096 net.cpp:157] Top shape: 1 104 61 92 (583648)
I0413 16:32:29.528484  9096 net.cpp:157] Top shape: 1 104 61 92 (583648)
I0413 16:32:29.528491  9096 net.cpp:157] Top shape: 1 104 61 92 (583648)
I0413 16:32:29.528497  9096 net.cpp:165] Memory required for data: 3598080428
I0413 16:32:29.528506  9096 layer_factory.hpp:77] Creating layer rpn_big_loss_cls
I0413 16:32:29.528534  9096 net.cpp:100] Creating Layer rpn_big_loss_cls
I0413 16:32:29.528544  9096 net.cpp:434] rpn_big_loss_cls <- rpn_big_cls_score_reshape_rpn_big_cls_score_reshape_0_split_1
I0413 16:32:29.528558  9096 net.cpp:434] rpn_big_loss_cls <- rpn_big_anchor_target_labels
I0413 16:32:29.528569  9096 net.cpp:408] rpn_big_loss_cls -> rpn_big_loss_cls
I0413 16:32:29.528589  9096 layer_factory.hpp:77] Creating layer rpn_big_loss_cls
I0413 16:32:29.529235  9096 net.cpp:150] Setting up rpn_big_loss_cls
I0413 16:32:29.529253  9096 net.cpp:157] Top shape: (1)
I0413 16:32:29.529258  9096 net.cpp:160]     with loss weight 1
I0413 16:32:29.529274  9096 net.cpp:165] Memory required for data: 3598080432
I0413 16:32:29.529283  9096 layer_factory.hpp:77] Creating layer rpn_big_output_box
I0413 16:32:29.529302  9096 net.cpp:100] Creating Layer rpn_big_output_box
I0413 16:32:29.529310  9096 net.cpp:434] rpn_big_output_box <- rpn_big_conv2_rpn_big_conv2_drop_0_split_1
I0413 16:32:29.529323  9096 net.cpp:408] rpn_big_output_box -> rpn_big_output_box
I0413 16:32:29.548418  9096 net.cpp:150] Setting up rpn_big_output_box
I0413 16:32:29.548449  9096 net.cpp:157] Top shape: 1 384 63 94 (2274048)
I0413 16:32:29.548456  9096 net.cpp:165] Memory required for data: 3607176624
I0413 16:32:29.548470  9096 layer_factory.hpp:77] Creating layer rpn_big_output_box_relu
I0413 16:32:29.548485  9096 net.cpp:100] Creating Layer rpn_big_output_box_relu
I0413 16:32:29.548501  9096 net.cpp:434] rpn_big_output_box_relu <- rpn_big_output_box
I0413 16:32:29.548513  9096 net.cpp:395] rpn_big_output_box_relu -> rpn_big_output_box (in-place)
I0413 16:32:29.548532  9096 net.cpp:150] Setting up rpn_big_output_box_relu
I0413 16:32:29.548540  9096 net.cpp:157] Top shape: 1 384 63 94 (2274048)
I0413 16:32:29.548547  9096 net.cpp:165] Memory required for data: 3616272816
I0413 16:32:29.548552  9096 layer_factory.hpp:77] Creating layer rpn_big_bbox_pred
I0413 16:32:29.548573  9096 net.cpp:100] Creating Layer rpn_big_bbox_pred
I0413 16:32:29.548581  9096 net.cpp:434] rpn_big_bbox_pred <- rpn_big_output_box
I0413 16:32:29.548593  9096 net.cpp:408] rpn_big_bbox_pred -> rpn_big_bbox_pred
I0413 16:32:29.552968  9096 net.cpp:150] Setting up rpn_big_bbox_pred
I0413 16:32:29.552995  9096 net.cpp:157] Top shape: 1 104 61 92 (583648)
I0413 16:32:29.553001  9096 net.cpp:165] Memory required for data: 3618607408
I0413 16:32:29.553023  9096 layer_factory.hpp:77] Creating layer rpn_big_bbox_pred_rpn_big_bbox_pred_0_split
I0413 16:32:29.553038  9096 net.cpp:100] Creating Layer rpn_big_bbox_pred_rpn_big_bbox_pred_0_split
I0413 16:32:29.553047  9096 net.cpp:434] rpn_big_bbox_pred_rpn_big_bbox_pred_0_split <- rpn_big_bbox_pred
I0413 16:32:29.553062  9096 net.cpp:408] rpn_big_bbox_pred_rpn_big_bbox_pred_0_split -> rpn_big_bbox_pred_rpn_big_bbox_pred_0_split_0
I0413 16:32:29.553077  9096 net.cpp:408] rpn_big_bbox_pred_rpn_big_bbox_pred_0_split -> rpn_big_bbox_pred_rpn_big_bbox_pred_0_split_1
I0413 16:32:29.553119  9096 net.cpp:150] Setting up rpn_big_bbox_pred_rpn_big_bbox_pred_0_split
I0413 16:32:29.553129  9096 net.cpp:157] Top shape: 1 104 61 92 (583648)
I0413 16:32:29.553138  9096 net.cpp:157] Top shape: 1 104 61 92 (583648)
I0413 16:32:29.553145  9096 net.cpp:165] Memory required for data: 3623276592
I0413 16:32:29.553151  9096 layer_factory.hpp:77] Creating layer rpn_big_loss_bbox
I0413 16:32:29.553517  9096 net.cpp:100] Creating Layer rpn_big_loss_bbox
I0413 16:32:29.553527  9096 net.cpp:434] rpn_big_loss_bbox <- rpn_big_bbox_pred_rpn_big_bbox_pred_0_split_0
I0413 16:32:29.553536  9096 net.cpp:434] rpn_big_loss_bbox <- rpn_big_anchor_target_bbox_targets
I0413 16:32:29.553544  9096 net.cpp:434] rpn_big_loss_bbox <- rpn_big_anchor_target_inside_weights
I0413 16:32:29.553553  9096 net.cpp:434] rpn_big_loss_bbox <- rpn_big_anchor_target_outside_weights
I0413 16:32:29.553566  9096 net.cpp:408] rpn_big_loss_bbox -> rpn_big_loss_bbox
I0413 16:32:29.555580  9096 net.cpp:150] Setting up rpn_big_loss_bbox
I0413 16:32:29.555611  9096 net.cpp:157] Top shape: 1 (1)
I0413 16:32:29.555616  9096 net.cpp:160]     with loss weight 1
I0413 16:32:29.555631  9096 net.cpp:165] Memory required for data: 3623276596
I0413 16:32:29.555640  9096 layer_factory.hpp:77] Creating layer proposal
I0413 16:32:29.556066  9096 net.cpp:100] Creating Layer proposal
I0413 16:32:29.556077  9096 net.cpp:434] proposal <- rpn_big_cls_prob_reshape_rpn_big_cls_prob_reshape_0_split_1
I0413 16:32:29.556090  9096 net.cpp:434] proposal <- rpn_big_bbox_pred_rpn_big_bbox_pred_0_split_1
…
