…
I0413 16:09:47.035529  8001 solver.cpp:48] Initializing solver from parameters: 
base_lr: 0.001
display: 20
lr_policy: "multistep"
gamma: 0.1
momentum: 0.9
weight_decay: 0.0005
snapshot: 0
snapshot_prefix: "faces_example"
net_param {
  name: "GeneratedModel_13_04_2017_16_09"
  layer {
    name: "input"
    type: "Python"
    top: "input_data"
    top: "input_im_info"
    top: "input_gt_boxes"
    top: "input_ignored_boxes"
    python_param {
      module: "layers.roi_data_layer"
      layer: "RoIDataLayer"
      param_str: "{\"num_classes\": 2}"
    }
  }
  layer {
    name: "conv1_1"
    type: "Convolution"
    bottom: "input_data"
    top: "conv1_1"
    param {
      lr_mult: 0
      decay_mult: 0
    }
    param {
      lr_mult: 0
      decay_mult: 0
    }
    convolution_param {
      num_output: 64
      pad: 1
      kernel_size: 3
    }
  }
  layer {
    name: "relu1_1"
    type: "ReLU"
    bottom: "conv1_1"
    top: "conv1_1"
  }
  layer {
    name: "conv1_2"
    type: "Convolution"
    bottom: "conv1_1"
    top: "conv1_2"
    param {
      lr_mult: 0
      decay_mult: 0
    }
    param {
      lr_mult: 0
      decay_mult: 0
    }
    convolution_param {
      num_output: 64
      pad: 1
      kernel_size: 3
    }
  }
  layer {
    name: "relu1_2"
    type: "ReLU"
    bottom: "conv1_2"
    top: "conv1_2"
  }
  layer {
    name: "pool1"
    type: "Pooling"
    bottom: "conv1_2"
    top: "pool1"
    pooling_param {
      pool: MAX
      kernel_size: 2
      stride: 2
    }
  }
  layer {
    name: "conv2_1"
    type: "Convolution"
    bottom: "pool1"
    top: "conv2_1"
    param {
      lr_mult: 0
      decay_mult: 0
    }
    param {
      lr_mult: 0
      decay_mult: 0
    }
    convolution_param {
      num_output: 128
      pad: 1
      kernel_size: 3
    }
  }
  layer {
    name: "relu2_1"
    type: "ReLU"
    bottom: "conv2_1"
    top: "conv2_1"
  }
  layer {
    name: "conv2_2"
    type: "Convolution"
    bottom: "conv2_1"
    top: "conv2_2"
    param {
      lr_mult: 0
      decay_mult: 0
    }
    param {
      lr_mult: 0
      decay_mult: 0
    }
    convolution_param {
      num_output: 128
      pad: 1
      kernel_size: 3
    }
  }
  layer {
    name: "relu2_2"
    type: "ReLU"
    bottom: "conv2_2"
    top: "conv2_2"
  }
  layer {
    name: "pool2"
    type: "Pooling"
    bottom: "conv2_2"
    top: "pool2"
    pooling_param {
      pool: MAX
      kernel_size: 2
      stride: 2
    }
  }
  layer {
    name: "conv3_1"
    type: "Convolution"
    bottom: "pool2"
    top: "conv3_1"
    param {
      lr_mult: 1
    }
    param {
      lr_mult: 2
    }
    convolution_param {
      num_output: 256
      pad: 1
      kernel_size: 3
    }
  }
  layer {
    name: "relu3_1"
    type: "ReLU"
    bottom: "conv3_1"
    top: "conv3_1"
  }
  layer {
    name: "conv3_2"
    type: "Convolution"
    bottom: "conv3_1"
    top: "conv3_2"
    param {
      lr_mult: 1
    }
    param {
      lr_mult: 2
    }
    convolution_param {
      num_output: 256
      pad: 1
      kernel_size: 3
    }
  }
  layer {
    name: "relu3_2"
    type: "ReLU"
    bottom: "conv3_2"
    top: "conv3_2"
  }
  layer {
    name: "conv3_3"
    type: "Convolution"
    bottom: "conv3_2"
    top: "conv3_3"
    param {
      lr_mult: 1
    }
    param {
      lr_mult: 2
    }
    convolution_param {
      num_output: 256
      pad: 1
      kernel_size: 3
    }
  }
  layer {
    name: "relu3_3"
    type: "ReLU"
    bottom: "conv3_3"
    top: "conv3_3"
  }
  layer {
    name: "pool3"
    type: "Pooling"
    bottom: "conv3_3"
    top: "pool3"
    pooling_param {
      pool: MAX
      kernel_size: 2
      stride: 2
    }
  }
  layer {
    name: "conv4_1"
    type: "Convolution"
    bottom: "pool3"
    top: "conv4_1"
    param {
      lr_mult: 1
    }
    param {
      lr_mult: 2
    }
    convolution_param {
      num_output: 512
      pad: 1
      kernel_size: 3
    }
  }
  layer {
    name: "relu4_1"
    type: "ReLU"
    bottom: "conv4_1"
    top: "conv4_1"
  }
  layer {
    name: "conv4_2"
    type: "Convolution"
    bottom: "conv4_1"
    top: "conv4_2"
    param {
      lr_mult: 1
    }
    param {
      lr_mult: 2
    }
    convolution_param {
      num_output: 512
      pad: 1
      kernel_size: 3
    }
  }
  layer {
    name: "relu4_2"
    type: "ReLU"
    bottom: "conv4_2"
    top: "conv4_2"
  }
  layer {
    name: "conv4_3"
    type: "Convolution"
    bottom: "conv4_2"
    top: "conv4_3"
    param {
      lr_mult: 1
    }
    param {
      lr_mult: 2
    }
    convolution_param {
      num_output: 512
      pad: 1
      kernel_size: 3
    }
  }
  layer {
    name: "relu4_3"
    type: "ReLU"
    bottom: "conv4_3"
    top: "conv4_3"
  }
  layer {
    name: "pool4"
    type: "Pooling"
    bottom: "conv4_3"
    top: "pool4"
    pooling_param {
      pool: MAX
      kernel_size: 2
      stride: 2
    }
  }
  layer {
    name: "conv5_1"
    type: "Convolution"
    bottom: "pool4"
    top: "conv5_1"
    param {
      lr_mult: 1
    }
    param {
      lr_mult: 2
    }
    convolution_param {
      num_output: 512
      pad: 1
      kernel_size: 3
    }
  }
  layer {
    name: "relu5_1"
    type: "ReLU"
    bottom: "conv5_1"
    top: "conv5_1"
  }
  layer {
    name: "conv5_2"
    type: "Convolution"
    bottom: "conv5_1"
    top: "conv5_2"
    param {
      lr_mult: 1
    }
    param {
      lr_mult: 2
    }
    convolution_param {
      num_output: 512
      pad: 1
      kernel_size: 3
    }
  }
  layer {
    name: "relu5_2"
    type: "ReLU"
    bottom: "conv5_2"
    top: "conv5_2"
  }
  layer {
    name: "conv5_3"
    type: "Convolution"
    bottom: "conv5_2"
    top: "conv5_3"
    param {
      lr_mult: 1
    }
    param {
      lr_mult: 2
    }
    convolution_param {
      num_output: 512
      pad: 1
      kernel_size: 3
    }
  }
  layer {
    name: "relu5_3"
    type: "ReLU"
    bottom: "conv5_3"
    top: "conv5_3"
  }
  layer {
    name: "rpn_big_conv1"
    type: "Convolution"
    bottom: "conv5_3"
    top: "rpn_big_conv1"
    param {
      lr_mult: 1
    }
    param {
      lr_mult: 2
    }
    convolution_param {
      num_output: 512
      pad: 1
      kernel_size: 3
      stride: 1
      weight_filler {
        type: "gaussian"
        mean: 0
        std: 0.01
      }
      bias_filler {
        type: "constant"
      }
    }
  }
  layer {
    name: "rpn_big_conv1_relu"
    type: "ReLU"
    bottom: "rpn_big_conv1"
    top: "rpn_big_conv1"
    relu_param {
      negative_slope: 0
    }
  }
  layer {
    name: "rpn_big_conv2"
    type: "Convolution"
    bottom: "rpn_big_conv1"
    top: "rpn_big_conv2"
    param {
      lr_mult: 1
    }
    param {
      lr_mult: 2
    }
    convolution_param {
      num_output: 512
      pad: 1
      kernel_size: 3
      stride: 1
      weight_filler {
        type: "gaussian"
        mean: 0
        std: 0.01
      }
      bias_filler {
        type: "constant"
      }
    }
  }
  layer {
    name: "rpn_big_conv2_relu"
    type: "ReLU"
    bottom: "rpn_big_conv2"
    top: "rpn_big_conv2"
    relu_param {
      negative_slope: 0
    }
  }
  layer {
    name: "rpn_big_conv2_drop"
    type: "Dropout"
    bottom: "rpn_big_conv2"
    top: "rpn_big_conv2"
    dropout_param {
      dropout_ratio: 0.3
    }
  }
  layer {
    name: "rpn_big_output_cls"
    type: "Convolution"
    bottom: "rpn_big_conv2"
    top: "rpn_big_output_cls"
    param {
      lr_mult: 1
    }
    param {
      lr_mult: 2
    }
    convolution_param {
      num_output: 384
      pad: 1
      kernel_size: 3
      stride: 1
      weight_filler {
        type: "gaussian"
        mean: 0
        std: 0.01
      }
      bias_filler {
        type: "constant"
      }
    }
  }
  layer {
    name: "rpn_big_output_cls_relu"
    type: "ReLU"
    bottom: "rpn_big_output_cls"
    top: "rpn_big_output_cls"
    relu_param {
      negative_slope: 0
    }
  }
  layer {
    name: "rpn_big_cls_score"
    type: "Convolution"
    bottom: "rpn_big_output_cls"
    top: "rpn_big_cls_score"
    param {
      lr_mult: 1
    }
    param {
      lr_mult: 2
    }
    convolution_param {
      num_output: 52
      pad: 0
      kernel_size: 3
      stride: 1
      weight_filler {
        type: "gaussian"
        mean: 0
        std: 0.01
      }
      bias_filler {
        type: "constant"
      }
    }
  }
  layer {
    name: "rpn_big_cls_score_reshape"
    type: "Reshape"
    bottom: "rpn_big_cls_score"
    top: "rpn_big_cls_score_reshape"
    reshape_param {
      shape {
        dim: 0
        dim: 2
        dim: -1
        dim: 0
      }
    }
  }
  layer {
    name: "rpn_big_cls_prob"
    type: "Softmax"
    bottom: "rpn_big_cls_score_reshape"
    top: "rpn_big_cls_prob"
  }
  layer {
    name: "rpn_big_cls_prob_reshape"
    type: "Reshape"
    bottom: "rpn_big_cls_prob"
    top: "rpn_big_cls_prob_reshape"
    reshape_param {
      shape {
        dim: 0
        dim: 52
        dim: -1
        dim: 0
      }
    }
  }
  layer {
    name: "rpn_big_anchor_target"
    type: "Python"
    bottom: "rpn_big_cls_score"
    bottom: "input_gt_boxes"
    bottom: "input_ignored_boxes"
    bottom: "input_im_info"
    bottom: "input_data"
    bottom: "rpn_big_cls_prob_reshape"
    top: "rpn_big_anchor_target_labels"
    top: "rpn_big_anchor_target_bbox_targets"
    top: "rpn_big_anchor_target_inside_weights"
    top: "rpn_big_anchor_target_outside_weights"
    python_param {
      module: "rpn.anchor_target_layer"
      layer: "AnchorTargetLayer"
      param_str: "{\"negative_overlap\": 0.4, \"batchsize\": 256, \"positive_overlap\": 0.6, \"anchor_ratios\": [1.0], \"anchor_scales\": [2.5, 3.025, 3.66025, 4.4289024999999995, 5.358972025, 6.484356150249999, 7.846070941802498, 9.493745839581022, 11.487432465893036, 13.899793283730574, 16.818749873313998, 20.350687346709933, 24.62433168951902, 29.795441344318014], \"fg_fraction\": 0.5, \"feat_stride\": 16, \"anchor_shift_num_xy\": [[2, 2], [2, 2], [2, 2], [2, 2], [1, 1], [1, 1], [1, 1], [1, 1], [1, 1], [1, 1], [1, 1], [1, 1], [1, 1], [1, 1]], \"num_classes\": 1, \"tn_fraction\": 0.2, \"square_targets\": true, \"name\": \"rpn_big\"}"
    }
  }
  layer {
    name: "rpn_big_loss_cls"
    type: "SoftmaxWithLoss"
    bottom: "rpn_big_cls_score_reshape"
    bottom: "rpn_big_anchor_target_labels"
    top: "rpn_big_loss_cls"
    loss_weight: 1
    propagate_down: true
    propagate_down: false
    loss_param {
      ignore_label: -1
      normalization: VALID
    }
  }
  layer {
    name: "rpn_big_output_box"
    type: "Convolution"
    bottom: "rpn_big_conv2"
    top: "rpn_big_output_box"
    param {
      lr_mult: 1
    }
    param {
      lr_mult: 2
    }
    convolution_param {
      num_output: 384
      pad: 1
      kernel_size: 3
      stride: 1
      weight_filler {
        type: "gaussian"
        mean: 0
        std: 0.01
      }
      bias_filler {
        type: "constant"
      }
    }
  }
  layer {
    name: "rpn_big_output_box_relu"
    type: "ReLU"
    bottom: "rpn_big_output_box"
    top: "rpn_big_output_box"
    relu_param {
      negative_slope: 0
    }
  }
  layer {
    name: "rpn_big_bbox_pred"
    type: "Convolution"
    bottom: "rpn_big_output_box"
    top: "rpn_big_bbox_pred"
    param {
      lr_mult: 1
    }
    param {
      lr_mult: 2
    }
    convolution_param {
      num_output: 104
      pad: 0
      kernel_size: 3
      stride: 1
      weight_filler {
        type: "gaussian"
        mean: 0
        std: 0.01
      }
      bias_filler {
        type: "constant"
      }
    }
  }
  layer {
    name: "rpn_big_loss_bbox"
    type: "Python"
    bottom: "rpn_big_bbox_pred"
    bottom: "rpn_big_anchor_target_bbox_targets"
    bottom: "rpn_big_anchor_target_inside_weights"
    bottom: "rpn_big_anchor_target_outside_weights"
    top: "rpn_big_loss_bbox"
    loss_weight: 1
    python_param {
      module: "layers.smooth_l1_loss"
      layer: "SmoothL1LossLayer"
      param_str: "{\"sigma\": 3}"
    }
  }
  layer {
    name: "proposal"
    type: "Python"
    bottom: "rpn_big_cls_prob_reshape"
    bottom: "rpn_big_bbox_pred"
    bottom: "input_im_info"
    top: "rpn_rois"
    python_param {
      module: "rpn.proposal_layer"
      layer: "ProposalLayer"
      param_str: "\'feat_stride\': 16; \'scales\': !!python/tuple [4, 8, 16, 32]"
    }
  }
}
average_loss: 100
stepvalue: 70000
stepvalue: 120000
iter_size: 2
I0413 16:09:47.035604  8001 solver.cpp:86] Creating training net specified in net_param.
I0413 16:09:47.035989  8001 net.cpp:58] Initializing net from parameters: 
name: "GeneratedModel_13_04_2017_16_09"
state {
  phase: TRAIN
}
layer {
  name: "input"
  type: "Python"
  top: "input_data"
  top: "input_im_info"
  top: "input_gt_boxes"
  top: "input_ignored_boxes"
  python_param {
    module: "layers.roi_data_layer"
    layer: "RoIDataLayer"
    param_str: "{\"num_classes\": 2}"
  }
}
layer {
  name: "conv1_1"
  type: "Convolution"
  bottom: "input_data"
  top: "conv1_1"
  param {
    lr_mult: 0
    decay_mult: 0
  }
  param {
    lr_mult: 0
    decay_mult: 0
  }
  convolution_param {
    num_output: 64
    pad: 1
    kernel_size: 3
  }
}
layer {
  name: "relu1_1"
  type: "ReLU"
  bottom: "conv1_1"
  top: "conv1_1"
}
layer {
  name: "conv1_2"
  type: "Convolution"
  bottom: "conv1_1"
  top: "conv1_2"
  param {
    lr_mult: 0
    decay_mult: 0
  }
  param {
    lr_mult: 0
    decay_mult: 0
  }
  convolution_param {
    num_output: 64
    pad: 1
    kernel_size: 3
  }
}
layer {
  name: "relu1_2"
  type: "ReLU"
  bottom: "conv1_2"
  top: "conv1_2"
}
layer {
  name: "pool1"
  type: "Pooling"
  bottom: "conv1_2"
  top: "pool1"
  pooling_param {
    pool: MAX
    kernel_size: 2
    stride: 2
  }
}
layer {
  name: "conv2_1"
  type: "Convolution"
  bottom: "pool1"
  top: "conv2_1"
  param {
    lr_mult: 0
    decay_mult: 0
  }
  param {
    lr_mult: 0
    decay_mult: 0
  }
  convolution_param {
    num_output: 128
    pad: 1
    kernel_size: 3
  }
}
layer {
  name: "relu2_1"
  type: "ReLU"
  bottom: "conv2_1"
  top: "conv2_1"
}
layer {
  name: "conv2_2"
  type: "Convolution"
  bottom: "conv2_1"
  top: "conv2_2"
  param {
    lr_mult: 0
    decay_mult: 0
  }
  param {
    lr_mult: 0
    decay_mult: 0
  }
  convolution_param {
    num_output: 128
    pad: 1
    kernel_size: 3
  }
}
layer {
  name: "relu2_2"
  type: "ReLU"
  bottom: "conv2_2"
  top: "conv2_2"
}
layer {
  name: "pool2"
  type: "Pooling"
  bottom: "conv2_2"
  top: "pool2"
  pooling_param {
    pool: MAX
    kernel_size: 2
    stride: 2
  }
}
layer {
  name: "conv3_1"
  type: "Convolution"
  bottom: "pool2"
  top: "conv3_1"
  param {
    lr_mult: 1
  }
  param {
    lr_mult: 2
  }
  convolution_param {
    num_output: 256
    pad: 1
    kernel_size: 3
  }
}
layer {
  name: "relu3_1"
  type: "ReLU"
  bottom: "conv3_1"
  top: "conv3_1"
}
layer {
  name: "conv3_2"
  type: "Convolution"
  bottom: "conv3_1"
  top: "conv3_2"
  param {
    lr_mult: 1
  }
  param {
    lr_mult: 2
  }
  convolution_param {
    num_output: 256
    pad: 1
    kernel_size: 3
  }
}
layer {
  name: "relu3_2"
  type: "ReLU"
  bottom: "conv3_2"
  top: "conv3_2"
}
layer {
  name: "conv3_3"
  type: "Convolution"
  bottom: "conv3_2"
  top: "conv3_3"
  param {
    lr_mult: 1
  }
  param {
    lr_mult: 2
  }
  convolution_param {
    num_output: 256
    pad: 1
    kernel_size: 3
  }
}
layer {
  name: "relu3_3"
  type: "ReLU"
  bottom: "conv3_3"
  top: "conv3_3"
}
layer {
  name: "pool3"
  type: "Pooling"
  bottom: "conv3_3"
  top: "pool3"
  pooling_param {
    pool: MAX
    kernel_size: 2
    stride: 2
  }
}
layer {
  name: "conv4_1"
  type: "Convolution"
  bottom: "pool3"
  top: "conv4_1"
  param {
    lr_mult: 1
  }
  param {
    lr_mult: 2
  }
  convolution_param {
    num_output: 512
    pad: 1
    kernel_size: 3
  }
}
layer {
  name: "relu4_1"
  type: "ReLU"
  bottom: "conv4_1"
  top: "conv4_1"
}
layer {
  name: "conv4_2"
  type: "Convolution"
  bottom: "conv4_1"
  top: "conv4_2"
  param {
    lr_mult: 1
  }
  param {
    lr_mult: 2
  }
  convolution_param {
    num_output: 512
    pad: 1
    kernel_size: 3
  }
}
layer {
  name: "relu4_2"
  type: "ReLU"
  bottom: "conv4_2"
  top: "conv4_2"
}
layer {
  name: "conv4_3"
  type: "Convolution"
  bottom: "conv4_2"
  top: "conv4_3"
  param {
    lr_mult: 1
  }
  param {
    lr_mult: 2
  }
  convolution_param {
    num_output: 512
    pad: 1
    kernel_size: 3
  }
}
layer {
  name: "relu4_3"
  type: "ReLU"
  bottom: "conv4_3"
  top: "conv4_3"
}
layer {
  name: "pool4"
  type: "Pooling"
  bottom: "conv4_3"
  top: "pool4"
  pooling_param {
    pool: MAX
    kernel_size: 2
    stride: 2
  }
}
layer {
  name: "conv5_1"
  type: "Convolution"
  bottom: "pool4"
  top: "conv5_1"
  param {
    lr_mult: 1
  }
  param {
    lr_mult: 2
  }
  convolution_param {
    num_output: 512
    pad: 1
    kernel_size: 3
  }
}
layer {
  name: "relu5_1"
  type: "ReLU"
  bottom: "conv5_1"
  top: "conv5_1"
}
layer {
  name: "conv5_2"
  type: "Convolution"
  bottom: "conv5_1"
  top: "conv5_2"
  param {
    lr_mult: 1
  }
  param {
    lr_mult: 2
  }
  convolution_param {
    num_output: 512
    pad: 1
    kernel_size: 3
  }
}
layer {
  name: "relu5_2"
  type: "ReLU"
  bottom: "conv5_2"
  top: "conv5_2"
}
layer {
  name: "conv5_3"
  type: "Convolution"
  bottom: "conv5_2"
  top: "conv5_3"
  param {
    lr_mult: 1
  }
  param {
    lr_mult: 2
  }
  convolution_param {
    num_output: 512
    pad: 1
    kernel_size: 3
  }
}
layer {
  name: "relu5_3"
  type: "ReLU"
  bottom: "conv5_3"
  top: "conv5_3"
}
layer {
  name: "rpn_big_conv1"
  type: "Convolution"
  bottom: "conv5_3"
  top: "rpn_big_conv1"
  param {
    lr_mult: 1
  }
  param {
    lr_mult: 2
  }
  convolution_param {
    num_output: 512
    pad: 1
    kernel_size: 3
    stride: 1
    weight_filler {
      type: "gaussian"
      mean: 0
      std: 0.01
    }
    bias_filler {
      type: "constant"
    }
  }
}
layer {
  name: "rpn_big_conv1_relu"
  type: "ReLU"
  bottom: "rpn_big_conv1"
  top: "rpn_big_conv1"
  relu_param {
    negative_slope: 0
  }
}
layer {
  name: "rpn_big_conv2"
  type: "Convolution"
  bottom: "rpn_big_conv1"
  top: "rpn_big_conv2"
  param {
    lr_mult: 1
  }
  param {
    lr_mult: 2
  }
  convolution_param {
    num_output: 512
    pad: 1
    kernel_size: 3
    stride: 1
    weight_filler {
      type: "gaussian"
      mean: 0
      std: 0.01
    }
    bias_filler {
      type: "constant"
    }
  }
}
layer {
  name: "rpn_big_conv2_relu"
  type: "ReLU"
  bottom: "rpn_big_conv2"
  top: "rpn_big_conv2"
  relu_param {
    negative_slope: 0
  }
}
layer {
  name: "rpn_big_conv2_drop"
  type: "Dropout"
  bottom: "rpn_big_conv2"
  top: "rpn_big_conv2"
  dropout_param {
    dropout_ratio: 0.3
  }
}
layer {
  name: "rpn_big_output_cls"
  type: "Convolution"
  bottom: "rpn_big_conv2"
  top: "rpn_big_output_cls"
  param {
    lr_mult: 1
  }
  param {
    lr_mult: 2
  }
  convolution_param {
    num_output: 384
    pad: 1
    kernel_size: 3
    stride: 1
    weight_filler {
      type: "gaussian"
      mean: 0
      std: 0.01
    }
    bias_filler {
      type: "constant"
    }
  }
}
layer {
  name: "rpn_big_output_cls_relu"
  type: "ReLU"
  bottom: "rpn_big_output_cls"
  top: "rpn_big_output_cls"
  relu_param {
    negative_slope: 0
  }
}
layer {
  name: "rpn_big_cls_score"
  type: "Convolution"
  bottom: "rpn_big_output_cls"
  top: "rpn_big_cls_score"
  param {
    lr_mult: 1
  }
  param {
    lr_mult: 2
  }
  convolution_param {
    num_output: 52
    pad: 0
    kernel_size: 3
    stride: 1
    weight_filler {
      type: "gaussian"
      mean: 0
      std: 0.01
    }
    bias_filler {
      type: "constant"
    }
  }
}
layer {
  name: "rpn_big_cls_score_reshape"
  type: "Reshape"
  bottom: "rpn_big_cls_score"
  top: "rpn_big_cls_score_reshape"
  reshape_param {
    shape {
      dim: 0
      dim: 2
      dim: -1
      dim: 0
    }
  }
}
layer {
  name: "rpn_big_cls_prob"
  type: "Softmax"
  bottom: "rpn_big_cls_score_reshape"
  top: "rpn_big_cls_prob"
}
layer {
  name: "rpn_big_cls_prob_reshape"
  type: "Reshape"
  bottom: "rpn_big_cls_prob"
  top: "rpn_big_cls_prob_reshape"
  reshape_param {
    shape {
      dim: 0
      dim: 52
      dim: -1
      dim: 0
    }
  }
}
layer {
  name: "rpn_big_anchor_target"
  type: "Python"
  bottom: "rpn_big_cls_score"
  bottom: "input_gt_boxes"
  bottom: "input_ignored_boxes"
  bottom: "input_im_info"
  bottom: "input_data"
  bottom: "rpn_big_cls_prob_reshape"
  top: "rpn_big_anchor_target_labels"
  top: "rpn_big_anchor_target_bbox_targets"
  top: "rpn_big_anchor_target_inside_weights"
  top: "rpn_big_anchor_target_outside_weights"
  python_param {
    module: "rpn.anchor_target_layer"
    layer: "AnchorTargetLayer"
    param_str: "{\"negative_overlap\": 0.4, \"batchsize\": 256, \"positive_overlap\": 0.6, \"anchor_ratios\": [1.0], \"anchor_scales\": [2.5, 3.025, 3.66025, 4.4289024999999995, 5.358972025, 6.484356150249999, 7.846070941802498, 9.493745839581022, 11.487432465893036, 13.899793283730574, 16.818749873313998, 20.350687346709933, 24.62433168951902, 29.795441344318014], \"fg_fraction\": 0.5, \"feat_stride\": 16, \"anchor_shift_num_xy\": [[2, 2], [2, 2], [2, 2], [2, 2], [1, 1], [1, 1], [1, 1], [1, 1], [1, 1], [1, 1], [1, 1], [1, 1], [1, 1], [1, 1]], \"num_classes\": 1, \"tn_fraction\": 0.2, \"square_targets\": true, \"name\": \"rpn_big\"}"
  }
}
layer {
  name: "rpn_big_loss_cls"
  type: "SoftmaxWithLoss"
  bottom: "rpn_big_cls_score_reshape"
  bottom: "rpn_big_anchor_target_labels"
  top: "rpn_big_loss_cls"
  loss_weight: 1
  propagate_down: true
  propagate_down: false
  loss_param {
    ignore_label: -1
    normalization: VALID
  }
}
layer {
  name: "rpn_big_output_box"
  type: "Convolution"
  bottom: "rpn_big_conv2"
  top: "rpn_big_output_box"
  param {
    lr_mult: 1
  }
  param {
    lr_mult: 2
  }
  convolution_param {
    num_output: 384
    pad: 1
    kernel_size: 3
    stride: 1
    weight_filler {
      type: "gaussian"
      mean: 0
      std: 0.01
    }
    bias_filler {
      type: "constant"
    }
  }
}
layer {
  name: "rpn_big_output_box_relu"
  type: "ReLU"
  bottom: "rpn_big_output_box"
  top: "rpn_big_output_box"
  relu_param {
    negative_slope: 0
  }
}
layer {
  name: "rpn_big_bbox_pred"
  type: "Convolution"
  bottom: "rpn_big_output_box"
  top: "rpn_big_bbox_pred"
  param {
    lr_mult: 1
  }
  param {
    lr_mult: 2
  }
  convolution_param {
    num_output: 104
    pad: 0
    kernel_size: 3
    stride: 1
    weight_filler {
      type: "gaussian"
      mean: 0
      std: 0.01
    }
    bias_filler {
      type: "constant"
    }
  }
}
layer {
  name: "rpn_big_loss_bbox"
  type: "Python"
  bottom: "rpn_big_bbox_pred"
  bottom: "rpn_big_anchor_target_bbox_targets"
  bottom: "rpn_big_anchor_target_inside_weights"
  bottom: "rpn_big_anchor_target_outside_weights"
  top: "rpn_big_loss_bbox"
  loss_weight: 1
  python_param {
    module: "layers.smooth_l1_loss"
    layer: "SmoothL1LossLayer"
    param_str: "{\"sigma\": 3}"
  }
}
layer {
  name: "proposal"
  type: "Python"
  bottom: "rpn_big_cls_prob_reshape"
  bottom: "rpn_big_bbox_pred"
  bottom: "input_im_info"
  top: "rpn_rois"
  python_param {
    module: "rpn.proposal_layer"
    layer: "ProposalLayer"
    param_str: "\'feat_stride\': 16; \'scales\': !!python/tuple [4, 8, 16, 32]"
  }
}
I0413 16:09:47.036170  8001 layer_factory.hpp:77] Creating layer input
I0413 16:09:47.037489  8001 net.cpp:100] Creating Layer input
I0413 16:09:47.037509  8001 net.cpp:408] input -> input_data
I0413 16:09:47.037521  8001 net.cpp:408] input -> input_im_info
I0413 16:09:47.037528  8001 net.cpp:408] input -> input_gt_boxes
I0413 16:09:47.037536  8001 net.cpp:408] input -> input_ignored_boxes
RoiDataLayer: name_to_top: {'data': 0, 'gt_boxes': 2, 'ignored_boxes': 3, 'im_info': 1}
I0413 16:09:47.350950  8001 net.cpp:150] Setting up input
I0413 16:09:47.350977  8001 net.cpp:157] Top shape: 1 3 1000 1500 (4500000)
I0413 16:09:47.350983  8001 net.cpp:157] Top shape: 1 3 (3)
I0413 16:09:47.350988  8001 net.cpp:157] Top shape: 1 5 (5)
I0413 16:09:47.350992  8001 net.cpp:157] Top shape: 1 5 (5)
I0413 16:09:47.350994  8001 net.cpp:165] Memory required for data: 18000052
I0413 16:09:47.351003  8001 layer_factory.hpp:77] Creating layer input_data_input_0_split
I0413 16:09:47.351022  8001 net.cpp:100] Creating Layer input_data_input_0_split
I0413 16:09:47.351030  8001 net.cpp:434] input_data_input_0_split <- input_data
I0413 16:09:47.351042  8001 net.cpp:408] input_data_input_0_split -> input_data_input_0_split_0
I0413 16:09:47.351058  8001 net.cpp:408] input_data_input_0_split -> input_data_input_0_split_1
I0413 16:09:47.351094  8001 net.cpp:150] Setting up input_data_input_0_split
I0413 16:09:47.351101  8001 net.cpp:157] Top shape: 1 3 1000 1500 (4500000)
I0413 16:09:47.351106  8001 net.cpp:157] Top shape: 1 3 1000 1500 (4500000)
I0413 16:09:47.351109  8001 net.cpp:165] Memory required for data: 54000052
I0413 16:09:47.351112  8001 layer_factory.hpp:77] Creating layer input_im_info_input_1_split
I0413 16:09:47.351119  8001 net.cpp:100] Creating Layer input_im_info_input_1_split
I0413 16:09:47.351122  8001 net.cpp:434] input_im_info_input_1_split <- input_im_info
I0413 16:09:47.351130  8001 net.cpp:408] input_im_info_input_1_split -> input_im_info_input_1_split_0
I0413 16:09:47.351136  8001 net.cpp:408] input_im_info_input_1_split -> input_im_info_input_1_split_1
I0413 16:09:47.351166  8001 net.cpp:150] Setting up input_im_info_input_1_split
I0413 16:09:47.351176  8001 net.cpp:157] Top shape: 1 3 (3)
I0413 16:09:47.351178  8001 net.cpp:157] Top shape: 1 3 (3)
I0413 16:09:47.351181  8001 net.cpp:165] Memory required for data: 54000076
I0413 16:09:47.351184  8001 layer_factory.hpp:77] Creating layer conv1_1
I0413 16:09:47.351196  8001 net.cpp:100] Creating Layer conv1_1
I0413 16:09:47.351199  8001 net.cpp:434] conv1_1 <- input_data_input_0_split_0
I0413 16:09:47.351204  8001 net.cpp:408] conv1_1 -> conv1_1
I0413 16:09:47.354112  8001 net.cpp:150] Setting up conv1_1
I0413 16:09:47.354156  8001 net.cpp:157] Top shape: 1 64 1000 1500 (96000000)
I0413 16:09:47.354161  8001 net.cpp:165] Memory required for data: 438000076
I0413 16:09:47.354178  8001 layer_factory.hpp:77] Creating layer relu1_1
I0413 16:09:47.354192  8001 net.cpp:100] Creating Layer relu1_1
I0413 16:09:47.354197  8001 net.cpp:434] relu1_1 <- conv1_1
I0413 16:09:47.354204  8001 net.cpp:395] relu1_1 -> conv1_1 (in-place)
I0413 16:09:47.354215  8001 net.cpp:150] Setting up relu1_1
I0413 16:09:47.354220  8001 net.cpp:157] Top shape: 1 64 1000 1500 (96000000)
I0413 16:09:47.354223  8001 net.cpp:165] Memory required for data: 822000076
I0413 16:09:47.354228  8001 layer_factory.hpp:77] Creating layer conv1_2
I0413 16:09:47.354238  8001 net.cpp:100] Creating Layer conv1_2
I0413 16:09:47.354255  8001 net.cpp:434] conv1_2 <- conv1_1
I0413 16:09:47.354262  8001 net.cpp:408] conv1_2 -> conv1_2
I0413 16:09:47.357394  8001 net.cpp:150] Setting up conv1_2
I0413 16:09:47.357429  8001 net.cpp:157] Top shape: 1 64 1000 1500 (96000000)
I0413 16:09:47.357444  8001 net.cpp:165] Memory required for data: 1206000076
I0413 16:09:47.357460  8001 layer_factory.hpp:77] Creating layer relu1_2
I0413 16:09:47.357470  8001 net.cpp:100] Creating Layer relu1_2
I0413 16:09:47.357475  8001 net.cpp:434] relu1_2 <- conv1_2
I0413 16:09:47.357484  8001 net.cpp:395] relu1_2 -> conv1_2 (in-place)
I0413 16:09:47.357496  8001 net.cpp:150] Setting up relu1_2
I0413 16:09:47.357501  8001 net.cpp:157] Top shape: 1 64 1000 1500 (96000000)
I0413 16:09:47.357504  8001 net.cpp:165] Memory required for data: 1590000076
I0413 16:09:47.357507  8001 layer_factory.hpp:77] Creating layer pool1
I0413 16:09:47.357514  8001 net.cpp:100] Creating Layer pool1
I0413 16:09:47.357518  8001 net.cpp:434] pool1 <- conv1_2
I0413 16:09:47.357523  8001 net.cpp:408] pool1 -> pool1
I0413 16:09:47.357599  8001 net.cpp:150] Setting up pool1
I0413 16:09:47.357607  8001 net.cpp:157] Top shape: 1 64 500 750 (24000000)
I0413 16:09:47.357610  8001 net.cpp:165] Memory required for data: 1686000076
I0413 16:09:47.357614  8001 layer_factory.hpp:77] Creating layer conv2_1
I0413 16:09:47.357628  8001 net.cpp:100] Creating Layer conv2_1
I0413 16:09:47.357632  8001 net.cpp:434] conv2_1 <- pool1
I0413 16:09:47.357640  8001 net.cpp:408] conv2_1 -> conv2_1
I0413 16:09:47.358947  8001 net.cpp:150] Setting up conv2_1
I0413 16:09:47.358975  8001 net.cpp:157] Top shape: 1 128 500 750 (48000000)
I0413 16:09:47.358983  8001 net.cpp:165] Memory required for data: 1878000076
I0413 16:09:47.359001  8001 layer_factory.hpp:77] Creating layer relu2_1
I0413 16:09:47.359014  8001 net.cpp:100] Creating Layer relu2_1
I0413 16:09:47.359021  8001 net.cpp:434] relu2_1 <- conv2_1
I0413 16:09:47.359032  8001 net.cpp:395] relu2_1 -> conv2_1 (in-place)
I0413 16:09:47.359045  8001 net.cpp:150] Setting up relu2_1
I0413 16:09:47.359055  8001 net.cpp:157] Top shape: 1 128 500 750 (48000000)
I0413 16:09:47.359061  8001 net.cpp:165] Memory required for data: 2070000076
I0413 16:09:47.359066  8001 layer_factory.hpp:77] Creating layer conv2_2
I0413 16:09:47.359081  8001 net.cpp:100] Creating Layer conv2_2
I0413 16:09:47.359097  8001 net.cpp:434] conv2_2 <- conv2_1
I0413 16:09:47.359109  8001 net.cpp:408] conv2_2 -> conv2_2
I0413 16:09:47.360113  8001 net.cpp:150] Setting up conv2_2
I0413 16:09:47.360142  8001 net.cpp:157] Top shape: 1 128 500 750 (48000000)
I0413 16:09:47.360148  8001 net.cpp:165] Memory required for data: 2262000076
I0413 16:09:47.360162  8001 layer_factory.hpp:77] Creating layer relu2_2
I0413 16:09:47.360175  8001 net.cpp:100] Creating Layer relu2_2
I0413 16:09:47.360183  8001 net.cpp:434] relu2_2 <- conv2_2
I0413 16:09:47.360193  8001 net.cpp:395] relu2_2 -> conv2_2 (in-place)
I0413 16:09:47.360208  8001 net.cpp:150] Setting up relu2_2
I0413 16:09:47.360215  8001 net.cpp:157] Top shape: 1 128 500 750 (48000000)
I0413 16:09:47.360221  8001 net.cpp:165] Memory required for data: 2454000076
I0413 16:09:47.360227  8001 layer_factory.hpp:77] Creating layer pool2
I0413 16:09:47.360240  8001 net.cpp:100] Creating Layer pool2
I0413 16:09:47.360246  8001 net.cpp:434] pool2 <- conv2_2
I0413 16:09:47.360256  8001 net.cpp:408] pool2 -> pool2
I0413 16:09:47.360316  8001 net.cpp:150] Setting up pool2
I0413 16:09:47.360327  8001 net.cpp:157] Top shape: 1 128 250 375 (12000000)
I0413 16:09:47.360333  8001 net.cpp:165] Memory required for data: 2502000076
I0413 16:09:47.360339  8001 layer_factory.hpp:77] Creating layer conv3_1
I0413 16:09:47.360354  8001 net.cpp:100] Creating Layer conv3_1
I0413 16:09:47.360363  8001 net.cpp:434] conv3_1 <- pool2
I0413 16:09:47.360373  8001 net.cpp:408] conv3_1 -> conv3_1
I0413 16:09:47.361472  8001 net.cpp:150] Setting up conv3_1
I0413 16:09:47.361500  8001 net.cpp:157] Top shape: 1 256 250 375 (24000000)
I0413 16:09:47.361506  8001 net.cpp:165] Memory required for data: 2598000076
I0413 16:09:47.361526  8001 layer_factory.hpp:77] Creating layer relu3_1
I0413 16:09:47.361541  8001 net.cpp:100] Creating Layer relu3_1
I0413 16:09:47.361548  8001 net.cpp:434] relu3_1 <- conv3_1
I0413 16:09:47.361559  8001 net.cpp:395] relu3_1 -> conv3_1 (in-place)
I0413 16:09:47.361572  8001 net.cpp:150] Setting up relu3_1
I0413 16:09:47.361588  8001 net.cpp:157] Top shape: 1 256 250 375 (24000000)
I0413 16:09:47.361594  8001 net.cpp:165] Memory required for data: 2694000076
I0413 16:09:47.361600  8001 layer_factory.hpp:77] Creating layer conv3_2
I0413 16:09:47.361615  8001 net.cpp:100] Creating Layer conv3_2
I0413 16:09:47.361625  8001 net.cpp:434] conv3_2 <- conv3_1
I0413 16:09:47.361635  8001 net.cpp:408] conv3_2 -> conv3_2
I0413 16:09:47.362829  8001 net.cpp:150] Setting up conv3_2
I0413 16:09:47.362859  8001 net.cpp:157] Top shape: 1 256 250 375 (24000000)
I0413 16:09:47.362864  8001 net.cpp:165] Memory required for data: 2790000076
I0413 16:09:47.362885  8001 layer_factory.hpp:77] Creating layer relu3_2
I0413 16:09:47.362907  8001 net.cpp:100] Creating Layer relu3_2
I0413 16:09:47.362916  8001 net.cpp:434] relu3_2 <- conv3_2
I0413 16:09:47.362928  8001 net.cpp:395] relu3_2 -> conv3_2 (in-place)
I0413 16:09:47.362944  8001 net.cpp:150] Setting up relu3_2
I0413 16:09:47.362954  8001 net.cpp:157] Top shape: 1 256 250 375 (24000000)
I0413 16:09:47.362960  8001 net.cpp:165] Memory required for data: 2886000076
I0413 16:09:47.362968  8001 layer_factory.hpp:77] Creating layer conv3_3
I0413 16:09:47.362984  8001 net.cpp:100] Creating Layer conv3_3
I0413 16:09:47.362992  8001 net.cpp:434] conv3_3 <- conv3_2
I0413 16:09:47.363004  8001 net.cpp:408] conv3_3 -> conv3_3
I0413 16:09:47.364594  8001 net.cpp:150] Setting up conv3_3
I0413 16:09:47.364624  8001 net.cpp:157] Top shape: 1 256 250 375 (24000000)
I0413 16:09:47.364630  8001 net.cpp:165] Memory required for data: 2982000076
I0413 16:09:47.364645  8001 layer_factory.hpp:77] Creating layer relu3_3
I0413 16:09:47.364660  8001 net.cpp:100] Creating Layer relu3_3
I0413 16:09:47.364670  8001 net.cpp:434] relu3_3 <- conv3_3
I0413 16:09:47.364682  8001 net.cpp:395] relu3_3 -> conv3_3 (in-place)
I0413 16:09:47.364699  8001 net.cpp:150] Setting up relu3_3
I0413 16:09:47.364708  8001 net.cpp:157] Top shape: 1 256 250 375 (24000000)
I0413 16:09:47.364715  8001 net.cpp:165] Memory required for data: 3078000076
I0413 16:09:47.364722  8001 layer_factory.hpp:77] Creating layer pool3
I0413 16:09:47.364733  8001 net.cpp:100] Creating Layer pool3
I0413 16:09:47.364740  8001 net.cpp:434] pool3 <- conv3_3
I0413 16:09:47.364750  8001 net.cpp:408] pool3 -> pool3
I0413 16:09:47.364802  8001 net.cpp:150] Setting up pool3
I0413 16:09:47.364814  8001 net.cpp:157] Top shape: 1 256 125 188 (6016000)
I0413 16:09:47.364820  8001 net.cpp:165] Memory required for data: 3102064076
I0413 16:09:47.364825  8001 layer_factory.hpp:77] Creating layer conv4_1
I0413 16:09:47.364840  8001 net.cpp:100] Creating Layer conv4_1
I0413 16:09:47.364847  8001 net.cpp:434] conv4_1 <- pool3
I0413 16:09:47.364859  8001 net.cpp:408] conv4_1 -> conv4_1
I0413 16:09:47.367619  8001 net.cpp:150] Setting up conv4_1
I0413 16:09:47.367655  8001 net.cpp:157] Top shape: 1 512 125 188 (12032000)
I0413 16:09:47.367660  8001 net.cpp:165] Memory required for data: 3150192076
I0413 16:09:47.367676  8001 layer_factory.hpp:77] Creating layer relu4_1
I0413 16:09:47.367688  8001 net.cpp:100] Creating Layer relu4_1
I0413 16:09:47.367698  8001 net.cpp:434] relu4_1 <- conv4_1
I0413 16:09:47.367714  8001 net.cpp:395] relu4_1 -> conv4_1 (in-place)
I0413 16:09:47.367729  8001 net.cpp:150] Setting up relu4_1
I0413 16:09:47.367738  8001 net.cpp:157] Top shape: 1 512 125 188 (12032000)
I0413 16:09:47.367745  8001 net.cpp:165] Memory required for data: 3198320076
I0413 16:09:47.367751  8001 layer_factory.hpp:77] Creating layer conv4_2
I0413 16:09:47.367765  8001 net.cpp:100] Creating Layer conv4_2
I0413 16:09:47.367772  8001 net.cpp:434] conv4_2 <- conv4_1
I0413 16:09:47.367785  8001 net.cpp:408] conv4_2 -> conv4_2
I0413 16:09:47.372114  8001 net.cpp:150] Setting up conv4_2
I0413 16:09:47.372153  8001 net.cpp:157] Top shape: 1 512 125 188 (12032000)
I0413 16:09:47.372159  8001 net.cpp:165] Memory required for data: 3246448076
I0413 16:09:47.372184  8001 layer_factory.hpp:77] Creating layer relu4_2
I0413 16:09:47.372198  8001 net.cpp:100] Creating Layer relu4_2
I0413 16:09:47.372210  8001 net.cpp:434] relu4_2 <- conv4_2
I0413 16:09:47.372221  8001 net.cpp:395] relu4_2 -> conv4_2 (in-place)
I0413 16:09:47.372236  8001 net.cpp:150] Setting up relu4_2
I0413 16:09:47.372246  8001 net.cpp:157] Top shape: 1 512 125 188 (12032000)
I0413 16:09:47.372252  8001 net.cpp:165] Memory required for data: 3294576076
I0413 16:09:47.372259  8001 layer_factory.hpp:77] Creating layer conv4_3
I0413 16:09:47.372275  8001 net.cpp:100] Creating Layer conv4_3
I0413 16:09:47.372282  8001 net.cpp:434] conv4_3 <- conv4_2
I0413 16:09:47.372297  8001 net.cpp:408] conv4_3 -> conv4_3
I0413 16:09:47.376732  8001 net.cpp:150] Setting up conv4_3
I0413 16:09:47.376771  8001 net.cpp:157] Top shape: 1 512 125 188 (12032000)
I0413 16:09:47.376777  8001 net.cpp:165] Memory required for data: 3342704076
I0413 16:09:47.376792  8001 layer_factory.hpp:77] Creating layer relu4_3
I0413 16:09:47.376806  8001 net.cpp:100] Creating Layer relu4_3
I0413 16:09:47.376816  8001 net.cpp:434] relu4_3 <- conv4_3
I0413 16:09:47.376834  8001 net.cpp:395] relu4_3 -> conv4_3 (in-place)
I0413 16:09:47.376849  8001 net.cpp:150] Setting up relu4_3
I0413 16:09:47.376858  8001 net.cpp:157] Top shape: 1 512 125 188 (12032000)
I0413 16:09:47.376865  8001 net.cpp:165] Memory required for data: 3390832076
I0413 16:09:47.376873  8001 layer_factory.hpp:77] Creating layer pool4
I0413 16:09:47.376884  8001 net.cpp:100] Creating Layer pool4
I0413 16:09:47.376891  8001 net.cpp:434] pool4 <- conv4_3
I0413 16:09:47.376901  8001 net.cpp:408] pool4 -> pool4
I0413 16:09:47.376960  8001 net.cpp:150] Setting up pool4
I0413 16:09:47.376971  8001 net.cpp:157] Top shape: 1 512 63 94 (3032064)
I0413 16:09:47.376977  8001 net.cpp:165] Memory required for data: 3402960332
I0413 16:09:47.376984  8001 layer_factory.hpp:77] Creating layer conv5_1
I0413 16:09:47.376999  8001 net.cpp:100] Creating Layer conv5_1
I0413 16:09:47.377007  8001 net.cpp:434] conv5_1 <- pool4
I0413 16:09:47.377020  8001 net.cpp:408] conv5_1 -> conv5_1
I0413 16:09:47.381788  8001 net.cpp:150] Setting up conv5_1
I0413 16:09:47.381824  8001 net.cpp:157] Top shape: 1 512 63 94 (3032064)
I0413 16:09:47.381829  8001 net.cpp:165] Memory required for data: 3415088588
I0413 16:09:47.381844  8001 layer_factory.hpp:77] Creating layer relu5_1
I0413 16:09:47.381860  8001 net.cpp:100] Creating Layer relu5_1
I0413 16:09:47.381866  8001 net.cpp:434] relu5_1 <- conv5_1
I0413 16:09:47.381878  8001 net.cpp:395] relu5_1 -> conv5_1 (in-place)
I0413 16:09:47.381896  8001 net.cpp:150] Setting up relu5_1
I0413 16:09:47.381906  8001 net.cpp:157] Top shape: 1 512 63 94 (3032064)
I0413 16:09:47.381911  8001 net.cpp:165] Memory required for data: 3427216844
I0413 16:09:47.381917  8001 layer_factory.hpp:77] Creating layer conv5_2
I0413 16:09:47.381930  8001 net.cpp:100] Creating Layer conv5_2
I0413 16:09:47.381937  8001 net.cpp:434] conv5_2 <- conv5_1
I0413 16:09:47.381949  8001 net.cpp:408] conv5_2 -> conv5_2
I0413 16:09:47.386489  8001 net.cpp:150] Setting up conv5_2
I0413 16:09:47.386534  8001 net.cpp:157] Top shape: 1 512 63 94 (3032064)
I0413 16:09:47.386540  8001 net.cpp:165] Memory required for data: 3439345100
I0413 16:09:47.386564  8001 layer_factory.hpp:77] Creating layer relu5_2
I0413 16:09:47.386576  8001 net.cpp:100] Creating Layer relu5_2
I0413 16:09:47.386595  8001 net.cpp:434] relu5_2 <- conv5_2
I0413 16:09:47.386611  8001 net.cpp:395] relu5_2 -> conv5_2 (in-place)
I0413 16:09:47.386627  8001 net.cpp:150] Setting up relu5_2
I0413 16:09:47.386637  8001 net.cpp:157] Top shape: 1 512 63 94 (3032064)
I0413 16:09:47.386642  8001 net.cpp:165] Memory required for data: 3451473356
I0413 16:09:47.386651  8001 layer_factory.hpp:77] Creating layer conv5_3
I0413 16:09:47.386665  8001 net.cpp:100] Creating Layer conv5_3
I0413 16:09:47.386672  8001 net.cpp:434] conv5_3 <- conv5_2
I0413 16:09:47.386684  8001 net.cpp:408] conv5_3 -> conv5_3
I0413 16:09:47.391244  8001 net.cpp:150] Setting up conv5_3
I0413 16:09:47.391281  8001 net.cpp:157] Top shape: 1 512 63 94 (3032064)
I0413 16:09:47.391288  8001 net.cpp:165] Memory required for data: 3463601612
I0413 16:09:47.391302  8001 layer_factory.hpp:77] Creating layer relu5_3
I0413 16:09:47.391326  8001 net.cpp:100] Creating Layer relu5_3
I0413 16:09:47.391335  8001 net.cpp:434] relu5_3 <- conv5_3
I0413 16:09:47.391346  8001 net.cpp:395] relu5_3 -> conv5_3 (in-place)
I0413 16:09:47.391361  8001 net.cpp:150] Setting up relu5_3
I0413 16:09:47.391371  8001 net.cpp:157] Top shape: 1 512 63 94 (3032064)
I0413 16:09:47.391378  8001 net.cpp:165] Memory required for data: 3475729868
I0413 16:09:47.391384  8001 layer_factory.hpp:77] Creating layer rpn_big_conv1
I0413 16:09:47.391402  8001 net.cpp:100] Creating Layer rpn_big_conv1
I0413 16:09:47.391408  8001 net.cpp:434] rpn_big_conv1 <- conv5_3
I0413 16:09:47.391420  8001 net.cpp:408] rpn_big_conv1 -> rpn_big_conv1
I0413 16:09:47.417544  8001 net.cpp:150] Setting up rpn_big_conv1
I0413 16:09:47.417575  8001 net.cpp:157] Top shape: 1 512 63 94 (3032064)
I0413 16:09:47.417582  8001 net.cpp:165] Memory required for data: 3487858124
I0413 16:09:47.417603  8001 layer_factory.hpp:77] Creating layer rpn_big_conv1_relu
I0413 16:09:47.417619  8001 net.cpp:100] Creating Layer rpn_big_conv1_relu
I0413 16:09:47.417629  8001 net.cpp:434] rpn_big_conv1_relu <- rpn_big_conv1
I0413 16:09:47.417640  8001 net.cpp:395] rpn_big_conv1_relu -> rpn_big_conv1 (in-place)
I0413 16:09:47.417655  8001 net.cpp:150] Setting up rpn_big_conv1_relu
I0413 16:09:47.417667  8001 net.cpp:157] Top shape: 1 512 63 94 (3032064)
I0413 16:09:47.417673  8001 net.cpp:165] Memory required for data: 3499986380
I0413 16:09:47.417680  8001 layer_factory.hpp:77] Creating layer rpn_big_conv2
I0413 16:09:47.417699  8001 net.cpp:100] Creating Layer rpn_big_conv2
I0413 16:09:47.417708  8001 net.cpp:434] rpn_big_conv2 <- rpn_big_conv1
I0413 16:09:47.417721  8001 net.cpp:408] rpn_big_conv2 -> rpn_big_conv2
I0413 16:09:47.442824  8001 net.cpp:150] Setting up rpn_big_conv2
I0413 16:09:47.442862  8001 net.cpp:157] Top shape: 1 512 63 94 (3032064)
I0413 16:09:47.442867  8001 net.cpp:165] Memory required for data: 3512114636
I0413 16:09:47.442889  8001 layer_factory.hpp:77] Creating layer rpn_big_conv2_relu
I0413 16:09:47.442909  8001 net.cpp:100] Creating Layer rpn_big_conv2_relu
I0413 16:09:47.442917  8001 net.cpp:434] rpn_big_conv2_relu <- rpn_big_conv2
I0413 16:09:47.442930  8001 net.cpp:395] rpn_big_conv2_relu -> rpn_big_conv2 (in-place)
I0413 16:09:47.442945  8001 net.cpp:150] Setting up rpn_big_conv2_relu
I0413 16:09:47.442955  8001 net.cpp:157] Top shape: 1 512 63 94 (3032064)
I0413 16:09:47.442960  8001 net.cpp:165] Memory required for data: 3524242892
I0413 16:09:47.442966  8001 layer_factory.hpp:77] Creating layer rpn_big_conv2_drop
I0413 16:09:47.442981  8001 net.cpp:100] Creating Layer rpn_big_conv2_drop
I0413 16:09:47.442987  8001 net.cpp:434] rpn_big_conv2_drop <- rpn_big_conv2
I0413 16:09:47.442996  8001 net.cpp:395] rpn_big_conv2_drop -> rpn_big_conv2 (in-place)
I0413 16:09:47.443029  8001 net.cpp:150] Setting up rpn_big_conv2_drop
I0413 16:09:47.443039  8001 net.cpp:157] Top shape: 1 512 63 94 (3032064)
I0413 16:09:47.443045  8001 net.cpp:165] Memory required for data: 3536371148
I0413 16:09:47.443051  8001 layer_factory.hpp:77] Creating layer rpn_big_conv2_rpn_big_conv2_drop_0_split
I0413 16:09:47.443063  8001 net.cpp:100] Creating Layer rpn_big_conv2_rpn_big_conv2_drop_0_split
I0413 16:09:47.443070  8001 net.cpp:434] rpn_big_conv2_rpn_big_conv2_drop_0_split <- rpn_big_conv2
I0413 16:09:47.443083  8001 net.cpp:408] rpn_big_conv2_rpn_big_conv2_drop_0_split -> rpn_big_conv2_rpn_big_conv2_drop_0_split_0
I0413 16:09:47.443095  8001 net.cpp:408] rpn_big_conv2_rpn_big_conv2_drop_0_split -> rpn_big_conv2_rpn_big_conv2_drop_0_split_1
I0413 16:09:47.443136  8001 net.cpp:150] Setting up rpn_big_conv2_rpn_big_conv2_drop_0_split
I0413 16:09:47.443147  8001 net.cpp:157] Top shape: 1 512 63 94 (3032064)
I0413 16:09:47.443156  8001 net.cpp:157] Top shape: 1 512 63 94 (3032064)
I0413 16:09:47.443162  8001 net.cpp:165] Memory required for data: 3560627660
I0413 16:09:47.443168  8001 layer_factory.hpp:77] Creating layer rpn_big_output_cls
I0413 16:09:47.443186  8001 net.cpp:100] Creating Layer rpn_big_output_cls
I0413 16:09:47.443193  8001 net.cpp:434] rpn_big_output_cls <- rpn_big_conv2_rpn_big_conv2_drop_0_split_0
I0413 16:09:47.443207  8001 net.cpp:408] rpn_big_output_cls -> rpn_big_output_cls
I0413 16:09:47.461936  8001 net.cpp:150] Setting up rpn_big_output_cls
I0413 16:09:47.461968  8001 net.cpp:157] Top shape: 1 384 63 94 (2274048)
I0413 16:09:47.461974  8001 net.cpp:165] Memory required for data: 3569723852
I0413 16:09:47.461989  8001 layer_factory.hpp:77] Creating layer rpn_big_output_cls_relu
I0413 16:09:47.462007  8001 net.cpp:100] Creating Layer rpn_big_output_cls_relu
I0413 16:09:47.462015  8001 net.cpp:434] rpn_big_output_cls_relu <- rpn_big_output_cls
I0413 16:09:47.462029  8001 net.cpp:395] rpn_big_output_cls_relu -> rpn_big_output_cls (in-place)
I0413 16:09:47.462045  8001 net.cpp:150] Setting up rpn_big_output_cls_relu
I0413 16:09:47.462059  8001 net.cpp:157] Top shape: 1 384 63 94 (2274048)
I0413 16:09:47.462064  8001 net.cpp:165] Memory required for data: 3578820044
I0413 16:09:47.462070  8001 layer_factory.hpp:77] Creating layer rpn_big_cls_score
I0413 16:09:47.462090  8001 net.cpp:100] Creating Layer rpn_big_cls_score
I0413 16:09:47.462097  8001 net.cpp:434] rpn_big_cls_score <- rpn_big_output_cls
I0413 16:09:47.462111  8001 net.cpp:408] rpn_big_cls_score -> rpn_big_cls_score
I0413 16:09:47.464478  8001 net.cpp:150] Setting up rpn_big_cls_score
I0413 16:09:47.464498  8001 net.cpp:157] Top shape: 1 52 61 92 (291824)
I0413 16:09:47.464504  8001 net.cpp:165] Memory required for data: 3579987340
I0413 16:09:47.464526  8001 layer_factory.hpp:77] Creating layer rpn_big_cls_score_rpn_big_cls_score_0_split
I0413 16:09:47.464540  8001 net.cpp:100] Creating Layer rpn_big_cls_score_rpn_big_cls_score_0_split
I0413 16:09:47.464555  8001 net.cpp:434] rpn_big_cls_score_rpn_big_cls_score_0_split <- rpn_big_cls_score
I0413 16:09:47.464567  8001 net.cpp:408] rpn_big_cls_score_rpn_big_cls_score_0_split -> rpn_big_cls_score_rpn_big_cls_score_0_split_0
I0413 16:09:47.464584  8001 net.cpp:408] rpn_big_cls_score_rpn_big_cls_score_0_split -> rpn_big_cls_score_rpn_big_cls_score_0_split_1
I0413 16:09:47.464634  8001 net.cpp:150] Setting up rpn_big_cls_score_rpn_big_cls_score_0_split
I0413 16:09:47.464648  8001 net.cpp:157] Top shape: 1 52 61 92 (291824)
I0413 16:09:47.464658  8001 net.cpp:157] Top shape: 1 52 61 92 (291824)
I0413 16:09:47.464663  8001 net.cpp:165] Memory required for data: 3582321932
I0413 16:09:47.464669  8001 layer_factory.hpp:77] Creating layer rpn_big_cls_score_reshape
I0413 16:09:47.464680  8001 net.cpp:100] Creating Layer rpn_big_cls_score_reshape
I0413 16:09:47.464687  8001 net.cpp:434] rpn_big_cls_score_reshape <- rpn_big_cls_score_rpn_big_cls_score_0_split_0
I0413 16:09:47.464697  8001 net.cpp:408] rpn_big_cls_score_reshape -> rpn_big_cls_score_reshape
I0413 16:09:47.464736  8001 net.cpp:150] Setting up rpn_big_cls_score_reshape
I0413 16:09:47.464750  8001 net.cpp:157] Top shape: 1 2 1586 92 (291824)
I0413 16:09:47.464756  8001 net.cpp:165] Memory required for data: 3583489228
I0413 16:09:47.464762  8001 layer_factory.hpp:77] Creating layer rpn_big_cls_score_reshape_rpn_big_cls_score_reshape_0_split
I0413 16:09:47.464772  8001 net.cpp:100] Creating Layer rpn_big_cls_score_reshape_rpn_big_cls_score_reshape_0_split
I0413 16:09:47.464779  8001 net.cpp:434] rpn_big_cls_score_reshape_rpn_big_cls_score_reshape_0_split <- rpn_big_cls_score_reshape
I0413 16:09:47.464789  8001 net.cpp:408] rpn_big_cls_score_reshape_rpn_big_cls_score_reshape_0_split -> rpn_big_cls_score_reshape_rpn_big_cls_score_reshape_0_split_0
I0413 16:09:47.464803  8001 net.cpp:408] rpn_big_cls_score_reshape_rpn_big_cls_score_reshape_0_split -> rpn_big_cls_score_reshape_rpn_big_cls_score_reshape_0_split_1
I0413 16:09:47.464843  8001 net.cpp:150] Setting up rpn_big_cls_score_reshape_rpn_big_cls_score_reshape_0_split
I0413 16:09:47.464854  8001 net.cpp:157] Top shape: 1 2 1586 92 (291824)
I0413 16:09:47.464862  8001 net.cpp:157] Top shape: 1 2 1586 92 (291824)
I0413 16:09:47.464867  8001 net.cpp:165] Memory required for data: 3585823820
I0413 16:09:47.464874  8001 layer_factory.hpp:77] Creating layer rpn_big_cls_prob
I0413 16:09:47.464887  8001 net.cpp:100] Creating Layer rpn_big_cls_prob
I0413 16:09:47.464895  8001 net.cpp:434] rpn_big_cls_prob <- rpn_big_cls_score_reshape_rpn_big_cls_score_reshape_0_split_0
I0413 16:09:47.464918  8001 net.cpp:408] rpn_big_cls_prob -> rpn_big_cls_prob
I0413 16:09:47.464983  8001 net.cpp:150] Setting up rpn_big_cls_prob
I0413 16:09:47.464993  8001 net.cpp:157] Top shape: 1 2 1586 92 (291824)
I0413 16:09:47.464999  8001 net.cpp:165] Memory required for data: 3586991116
I0413 16:09:47.465005  8001 layer_factory.hpp:77] Creating layer rpn_big_cls_prob_reshape
I0413 16:09:47.465015  8001 net.cpp:100] Creating Layer rpn_big_cls_prob_reshape
I0413 16:09:47.465023  8001 net.cpp:434] rpn_big_cls_prob_reshape <- rpn_big_cls_prob
I0413 16:09:47.465032  8001 net.cpp:408] rpn_big_cls_prob_reshape -> rpn_big_cls_prob_reshape
I0413 16:09:47.465066  8001 net.cpp:150] Setting up rpn_big_cls_prob_reshape
I0413 16:09:47.465076  8001 net.cpp:157] Top shape: 1 52 61 92 (291824)
I0413 16:09:47.465082  8001 net.cpp:165] Memory required for data: 3588158412
I0413 16:09:47.465088  8001 layer_factory.hpp:77] Creating layer rpn_big_cls_prob_reshape_rpn_big_cls_prob_reshape_0_split
I0413 16:09:47.465098  8001 net.cpp:100] Creating Layer rpn_big_cls_prob_reshape_rpn_big_cls_prob_reshape_0_split
I0413 16:09:47.465104  8001 net.cpp:434] rpn_big_cls_prob_reshape_rpn_big_cls_prob_reshape_0_split <- rpn_big_cls_prob_reshape
I0413 16:09:47.465114  8001 net.cpp:408] rpn_big_cls_prob_reshape_rpn_big_cls_prob_reshape_0_split -> rpn_big_cls_prob_reshape_rpn_big_cls_prob_reshape_0_split_0
I0413 16:09:47.465126  8001 net.cpp:408] rpn_big_cls_prob_reshape_rpn_big_cls_prob_reshape_0_split -> rpn_big_cls_prob_reshape_rpn_big_cls_prob_reshape_0_split_1
I0413 16:09:47.465163  8001 net.cpp:150] Setting up rpn_big_cls_prob_reshape_rpn_big_cls_prob_reshape_0_split
I0413 16:09:47.465173  8001 net.cpp:157] Top shape: 1 52 61 92 (291824)
I0413 16:09:47.465183  8001 net.cpp:157] Top shape: 1 52 61 92 (291824)
I0413 16:09:47.465188  8001 net.cpp:165] Memory required for data: 3590493004
I0413 16:09:47.465194  8001 layer_factory.hpp:77] Creating layer rpn_big_anchor_target
I0413 16:09:47.466552  8001 net.cpp:100] Creating Layer rpn_big_anchor_target
I0413 16:09:47.466583  8001 net.cpp:434] rpn_big_anchor_target <- rpn_big_cls_score_rpn_big_cls_score_0_split_1
I0413 16:09:47.466594  8001 net.cpp:434] rpn_big_anchor_target <- input_gt_boxes
I0413 16:09:47.466603  8001 net.cpp:434] rpn_big_anchor_target <- input_ignored_boxes
I0413 16:09:47.466609  8001 net.cpp:434] rpn_big_anchor_target <- input_im_info_input_1_split_0
I0413 16:09:47.466615  8001 net.cpp:434] rpn_big_anchor_target <- input_data_input_0_split_1
I0413 16:09:47.466624  8001 net.cpp:434] rpn_big_anchor_target <- rpn_big_cls_prob_reshape_rpn_big_cls_prob_reshape_0_split_0
I0413 16:09:47.466635  8001 net.cpp:408] rpn_big_anchor_target -> rpn_big_anchor_target_labels
I0413 16:09:47.466651  8001 net.cpp:408] rpn_big_anchor_target -> rpn_big_anchor_target_bbox_targets
I0413 16:09:47.466666  8001 net.cpp:408] rpn_big_anchor_target -> rpn_big_anchor_target_inside_weights
I0413 16:09:47.466681  8001 net.cpp:408] rpn_big_anchor_target -> rpn_big_anchor_target_outside_weights
I0413 16:09:47.471465  8001 net.cpp:150] Setting up rpn_big_anchor_target
I0413 16:09:47.471493  8001 net.cpp:157] Top shape: 1 1 1586 92 (145912)
I0413 16:09:47.471500  8001 net.cpp:157] Top shape: 1 104 61 92 (583648)
I0413 16:09:47.471515  8001 net.cpp:157] Top shape: 1 104 61 92 (583648)
I0413 16:09:47.471524  8001 net.cpp:157] Top shape: 1 104 61 92 (583648)
I0413 16:09:47.471530  8001 net.cpp:165] Memory required for data: 3598080428
I0413 16:09:47.471539  8001 layer_factory.hpp:77] Creating layer rpn_big_loss_cls
I0413 16:09:47.471557  8001 net.cpp:100] Creating Layer rpn_big_loss_cls
I0413 16:09:47.471566  8001 net.cpp:434] rpn_big_loss_cls <- rpn_big_cls_score_reshape_rpn_big_cls_score_reshape_0_split_1
I0413 16:09:47.471576  8001 net.cpp:434] rpn_big_loss_cls <- rpn_big_anchor_target_labels
I0413 16:09:47.471590  8001 net.cpp:408] rpn_big_loss_cls -> rpn_big_loss_cls
I0413 16:09:47.471611  8001 layer_factory.hpp:77] Creating layer rpn_big_loss_cls
I0413 16:09:47.473342  8001 net.cpp:150] Setting up rpn_big_loss_cls
I0413 16:09:47.473361  8001 net.cpp:157] Top shape: (1)
I0413 16:09:47.473366  8001 net.cpp:160]     with loss weight 1
I0413 16:09:47.473383  8001 net.cpp:165] Memory required for data: 3598080432
I0413 16:09:47.473392  8001 layer_factory.hpp:77] Creating layer rpn_big_output_box
I0413 16:09:47.473410  8001 net.cpp:100] Creating Layer rpn_big_output_box
I0413 16:09:47.473418  8001 net.cpp:434] rpn_big_output_box <- rpn_big_conv2_rpn_big_conv2_drop_0_split_1
I0413 16:09:47.473433  8001 net.cpp:408] rpn_big_output_box -> rpn_big_output_box
I0413 16:09:47.492874  8001 net.cpp:150] Setting up rpn_big_output_box
I0413 16:09:47.492921  8001 net.cpp:157] Top shape: 1 384 63 94 (2274048)
I0413 16:09:47.492935  8001 net.cpp:165] Memory required for data: 3607176624
I0413 16:09:47.492959  8001 layer_factory.hpp:77] Creating layer rpn_big_output_box_relu
I0413 16:09:47.492975  8001 net.cpp:100] Creating Layer rpn_big_output_box_relu
I0413 16:09:47.492986  8001 net.cpp:434] rpn_big_output_box_relu <- rpn_big_output_box
I0413 16:09:47.493002  8001 net.cpp:395] rpn_big_output_box_relu -> rpn_big_output_box (in-place)
I0413 16:09:47.493017  8001 net.cpp:150] Setting up rpn_big_output_box_relu
I0413 16:09:47.493028  8001 net.cpp:157] Top shape: 1 384 63 94 (2274048)
I0413 16:09:47.493034  8001 net.cpp:165] Memory required for data: 3616272816
I0413 16:09:47.493041  8001 layer_factory.hpp:77] Creating layer rpn_big_bbox_pred
I0413 16:09:47.493059  8001 net.cpp:100] Creating Layer rpn_big_bbox_pred
I0413 16:09:47.493065  8001 net.cpp:434] rpn_big_bbox_pred <- rpn_big_output_box
I0413 16:09:47.493079  8001 net.cpp:408] rpn_big_bbox_pred -> rpn_big_bbox_pred
I0413 16:09:47.497153  8001 net.cpp:150] Setting up rpn_big_bbox_pred
I0413 16:09:47.497169  8001 net.cpp:157] Top shape: 1 104 61 92 (583648)
I0413 16:09:47.497174  8001 net.cpp:165] Memory required for data: 3618607408
I0413 16:09:47.497186  8001 layer_factory.hpp:77] Creating layer rpn_big_bbox_pred_rpn_big_bbox_pred_0_split
I0413 16:09:47.497200  8001 net.cpp:100] Creating Layer rpn_big_bbox_pred_rpn_big_bbox_pred_0_split
I0413 16:09:47.497207  8001 net.cpp:434] rpn_big_bbox_pred_rpn_big_bbox_pred_0_split <- rpn_big_bbox_pred
I0413 16:09:47.497220  8001 net.cpp:408] rpn_big_bbox_pred_rpn_big_bbox_pred_0_split -> rpn_big_bbox_pred_rpn_big_bbox_pred_0_split_0
I0413 16:09:47.497233  8001 net.cpp:408] rpn_big_bbox_pred_rpn_big_bbox_pred_0_split -> rpn_big_bbox_pred_rpn_big_bbox_pred_0_split_1
I0413 16:09:47.497277  8001 net.cpp:150] Setting up rpn_big_bbox_pred_rpn_big_bbox_pred_0_split
I0413 16:09:47.497287  8001 net.cpp:157] Top shape: 1 104 61 92 (583648)
I0413 16:09:47.497294  8001 net.cpp:157] Top shape: 1 104 61 92 (583648)
I0413 16:09:47.497301  8001 net.cpp:165] Memory required for data: 3623276592
I0413 16:09:47.497308  8001 layer_factory.hpp:77] Creating layer rpn_big_loss_bbox
I0413 16:09:47.497673  8001 net.cpp:100] Creating Layer rpn_big_loss_bbox
I0413 16:09:47.497684  8001 net.cpp:434] rpn_big_loss_bbox <- rpn_big_bbox_pred_rpn_big_bbox_pred_0_split_0
I0413 16:09:47.497692  8001 net.cpp:434] rpn_big_loss_bbox <- rpn_big_anchor_target_bbox_targets
I0413 16:09:47.497700  8001 net.cpp:434] rpn_big_loss_bbox <- rpn_big_anchor_target_inside_weights
I0413 16:09:47.497709  8001 net.cpp:434] rpn_big_loss_bbox <- rpn_big_anchor_target_outside_weights
I0413 16:09:47.497722  8001 net.cpp:408] rpn_big_loss_bbox -> rpn_big_loss_bbox
I0413 16:09:47.499714  8001 net.cpp:150] Setting up rpn_big_loss_bbox
I0413 16:09:47.499747  8001 net.cpp:157] Top shape: 1 (1)
I0413 16:09:47.499752  8001 net.cpp:160]     with loss weight 1
I0413 16:09:47.499768  8001 net.cpp:165] Memory required for data: 3623276596
I0413 16:09:47.499778  8001 layer_factory.hpp:77] Creating layer proposal
I0413 16:09:47.501509  8001 net.cpp:100] Creating Layer proposal
I0413 16:09:47.501528  8001 net.cpp:434] proposal <- rpn_big_cls_prob_reshape_rpn_big_cls_prob_reshape_0_split_1
I0413 16:09:47.501540  8001 net.cpp:434] proposal <- rpn_big_bbox_pred_rpn_big_bbox_pred_0_split_1
…
