…
I0413 18:54:57.166422 14539 solver.cpp:48] Initializing solver from parameters: 
base_lr: 0.001
display: 20
lr_policy: "multistep"
gamma: 0.1
momentum: 0.9
weight_decay: 0.0005
snapshot: 0
snapshot_prefix: "faces_example"
net_param {
  name: "GeneratedModel_13_04_2017_18_54"
  layer {
    name: "input"
    type: "Python"
    top: "input_data"
    top: "input_im_info"
    top: "input_gt_boxes"
    top: "input_ignored_boxes"
    python_param {
      module: "layers.roi_data_layer"
      layer: "RoIDataLayer"
      param_str: "{\"num_classes\": 2}"
    }
  }
  layer {
    name: "conv1_1"
    type: "Convolution"
    bottom: "input_data"
    top: "conv1_1"
    param {
      lr_mult: 0
      decay_mult: 0
    }
    param {
      lr_mult: 0
      decay_mult: 0
    }
    convolution_param {
      num_output: 64
      pad: 1
      kernel_size: 3
    }
  }
  layer {
    name: "relu1_1"
    type: "ReLU"
    bottom: "conv1_1"
    top: "conv1_1"
  }
  layer {
    name: "conv1_2"
    type: "Convolution"
    bottom: "conv1_1"
    top: "conv1_2"
    param {
      lr_mult: 0
      decay_mult: 0
    }
    param {
      lr_mult: 0
      decay_mult: 0
    }
    convolution_param {
      num_output: 64
      pad: 1
      kernel_size: 3
    }
  }
  layer {
    name: "relu1_2"
    type: "ReLU"
    bottom: "conv1_2"
    top: "conv1_2"
  }
  layer {
    name: "pool1"
    type: "Pooling"
    bottom: "conv1_2"
    top: "pool1"
    pooling_param {
      pool: MAX
      kernel_size: 2
      stride: 2
    }
  }
  layer {
    name: "conv2_1"
    type: "Convolution"
    bottom: "pool1"
    top: "conv2_1"
    param {
      lr_mult: 0
      decay_mult: 0
    }
    param {
      lr_mult: 0
      decay_mult: 0
    }
    convolution_param {
      num_output: 128
      pad: 1
      kernel_size: 3
    }
  }
  layer {
    name: "relu2_1"
    type: "ReLU"
    bottom: "conv2_1"
    top: "conv2_1"
  }
  layer {
    name: "conv2_2"
    type: "Convolution"
    bottom: "conv2_1"
    top: "conv2_2"
    param {
      lr_mult: 0
      decay_mult: 0
    }
    param {
      lr_mult: 0
      decay_mult: 0
    }
    convolution_param {
      num_output: 128
      pad: 1
      kernel_size: 3
    }
  }
  layer {
    name: "relu2_2"
    type: "ReLU"
    bottom: "conv2_2"
    top: "conv2_2"
  }
  layer {
    name: "pool2"
    type: "Pooling"
    bottom: "conv2_2"
    top: "pool2"
    pooling_param {
      pool: MAX
      kernel_size: 2
      stride: 2
    }
  }
  layer {
    name: "conv3_1"
    type: "Convolution"
    bottom: "pool2"
    top: "conv3_1"
    param {
      lr_mult: 1
    }
    param {
      lr_mult: 2
    }
    convolution_param {
      num_output: 256
      pad: 1
      kernel_size: 3
    }
  }
  layer {
    name: "relu3_1"
    type: "ReLU"
    bottom: "conv3_1"
    top: "conv3_1"
  }
  layer {
    name: "conv3_2"
    type: "Convolution"
    bottom: "conv3_1"
    top: "conv3_2"
    param {
      lr_mult: 1
    }
    param {
      lr_mult: 2
    }
    convolution_param {
      num_output: 256
      pad: 1
      kernel_size: 3
    }
  }
  layer {
    name: "relu3_2"
    type: "ReLU"
    bottom: "conv3_2"
    top: "conv3_2"
  }
  layer {
    name: "conv3_3"
    type: "Convolution"
    bottom: "conv3_2"
    top: "conv3_3"
    param {
      lr_mult: 1
    }
    param {
      lr_mult: 2
    }
    convolution_param {
      num_output: 256
      pad: 1
      kernel_size: 3
    }
  }
  layer {
    name: "relu3_3"
    type: "ReLU"
    bottom: "conv3_3"
    top: "conv3_3"
  }
  layer {
    name: "pool3"
    type: "Pooling"
    bottom: "conv3_3"
    top: "pool3"
    pooling_param {
      pool: MAX
      kernel_size: 2
      stride: 2
    }
  }
  layer {
    name: "conv4_1"
    type: "Convolution"
    bottom: "pool3"
    top: "conv4_1"
    param {
      lr_mult: 1
    }
    param {
      lr_mult: 2
    }
    convolution_param {
      num_output: 512
      pad: 1
      kernel_size: 3
    }
  }
  layer {
    name: "relu4_1"
    type: "ReLU"
    bottom: "conv4_1"
    top: "conv4_1"
  }
  layer {
    name: "conv4_2"
    type: "Convolution"
    bottom: "conv4_1"
    top: "conv4_2"
    param {
      lr_mult: 1
    }
    param {
      lr_mult: 2
    }
    convolution_param {
      num_output: 512
      pad: 1
      kernel_size: 3
    }
  }
  layer {
    name: "relu4_2"
    type: "ReLU"
    bottom: "conv4_2"
    top: "conv4_2"
  }
  layer {
    name: "conv4_3"
    type: "Convolution"
    bottom: "conv4_2"
    top: "conv4_3"
    param {
      lr_mult: 1
    }
    param {
      lr_mult: 2
    }
    convolution_param {
      num_output: 512
      pad: 1
      kernel_size: 3
    }
  }
  layer {
    name: "relu4_3"
    type: "ReLU"
    bottom: "conv4_3"
    top: "conv4_3"
  }
  layer {
    name: "pool4"
    type: "Pooling"
    bottom: "conv4_3"
    top: "pool4"
    pooling_param {
      pool: MAX
      kernel_size: 2
      stride: 2
    }
  }
  layer {
    name: "conv5_1"
    type: "Convolution"
    bottom: "pool4"
    top: "conv5_1"
    param {
      lr_mult: 1
    }
    param {
      lr_mult: 2
    }
    convolution_param {
      num_output: 512
      pad: 1
      kernel_size: 3
    }
  }
  layer {
    name: "relu5_1"
    type: "ReLU"
    bottom: "conv5_1"
    top: "conv5_1"
  }
  layer {
    name: "conv5_2"
    type: "Convolution"
    bottom: "conv5_1"
    top: "conv5_2"
    param {
      lr_mult: 1
    }
    param {
      lr_mult: 2
    }
    convolution_param {
      num_output: 512
      pad: 1
      kernel_size: 3
    }
  }
  layer {
    name: "relu5_2"
    type: "ReLU"
    bottom: "conv5_2"
    top: "conv5_2"
  }
  layer {
    name: "conv5_3"
    type: "Convolution"
    bottom: "conv5_2"
    top: "conv5_3"
    param {
      lr_mult: 1
    }
    param {
      lr_mult: 2
    }
    convolution_param {
      num_output: 512
      pad: 1
      kernel_size: 3
    }
  }
  layer {
    name: "relu5_3"
    type: "ReLU"
    bottom: "conv5_3"
    top: "conv5_3"
  }
  layer {
    name: "rpn_big_conv1"
    type: "Convolution"
    bottom: "conv5_3"
    top: "rpn_big_conv1"
    param {
      lr_mult: 1
    }
    param {
      lr_mult: 2
    }
    convolution_param {
      num_output: 512
      pad: 1
      kernel_size: 3
      stride: 1
      weight_filler {
        type: "gaussian"
        mean: 0
        std: 0.01
      }
      bias_filler {
        type: "constant"
      }
    }
  }
  layer {
    name: "rpn_big_conv1_relu"
    type: "ReLU"
    bottom: "rpn_big_conv1"
    top: "rpn_big_conv1"
    relu_param {
      negative_slope: 0
    }
  }
  layer {
    name: "rpn_big_conv2"
    type: "Convolution"
    bottom: "rpn_big_conv1"
    top: "rpn_big_conv2"
    param {
      lr_mult: 1
    }
    param {
      lr_mult: 2
    }
    convolution_param {
      num_output: 512
      pad: 1
      kernel_size: 3
      stride: 1
      weight_filler {
        type: "gaussian"
        mean: 0
        std: 0.01
      }
      bias_filler {
        type: "constant"
      }
    }
  }
  layer {
    name: "rpn_big_conv2_relu"
    type: "ReLU"
    bottom: "rpn_big_conv2"
    top: "rpn_big_conv2"
    relu_param {
      negative_slope: 0
    }
  }
  layer {
    name: "rpn_big_conv2_drop"
    type: "Dropout"
    bottom: "rpn_big_conv2"
    top: "rpn_big_conv2"
    dropout_param {
      dropout_ratio: 0.3
    }
  }
  layer {
    name: "rpn_big_output_cls"
    type: "Convolution"
    bottom: "rpn_big_conv2"
    top: "rpn_big_output_cls"
    param {
      lr_mult: 1
    }
    param {
      lr_mult: 2
    }
    convolution_param {
      num_output: 384
      pad: 1
      kernel_size: 3
      stride: 1
      weight_filler {
        type: "gaussian"
        mean: 0
        std: 0.01
      }
      bias_filler {
        type: "constant"
      }
    }
  }
  layer {
    name: "rpn_big_output_cls_relu"
    type: "ReLU"
    bottom: "rpn_big_output_cls"
    top: "rpn_big_output_cls"
    relu_param {
      negative_slope: 0
    }
  }
  layer {
    name: "rpn_big_cls_score"
    type: "Convolution"
    bottom: "rpn_big_output_cls"
    top: "rpn_big_cls_score"
    param {
      lr_mult: 1
    }
    param {
      lr_mult: 2
    }
    convolution_param {
      num_output: 52
      pad: 0
      kernel_size: 3
      stride: 1
      weight_filler {
        type: "gaussian"
        mean: 0
        std: 0.01
      }
      bias_filler {
        type: "constant"
      }
    }
  }
  layer {
    name: "rpn_big_cls_score_reshape"
    type: "Reshape"
    bottom: "rpn_big_cls_score"
    top: "rpn_big_cls_score_reshape"
    reshape_param {
      shape {
        dim: 0
        dim: 2
        dim: -1
        dim: 0
      }
    }
  }
  layer {
    name: "rpn_big_cls_prob"
    type: "Softmax"
    bottom: "rpn_big_cls_score_reshape"
    top: "rpn_big_cls_prob"
  }
  layer {
    name: "rpn_big_cls_prob_reshape"
    type: "Reshape"
    bottom: "rpn_big_cls_prob"
    top: "rpn_big_cls_prob_reshape"
    reshape_param {
      shape {
        dim: 0
        dim: 52
        dim: -1
        dim: 0
      }
    }
  }
  layer {
    name: "rpn_big_anchor_target"
    type: "Python"
    bottom: "rpn_big_cls_score"
    bottom: "input_gt_boxes"
    bottom: "input_ignored_boxes"
    bottom: "input_im_info"
    bottom: "input_data"
    bottom: "rpn_big_cls_prob_reshape"
    top: "rpn_big_anchor_target_labels"
    top: "rpn_big_anchor_target_bbox_targets"
    top: "rpn_big_anchor_target_inside_weights"
    top: "rpn_big_anchor_target_outside_weights"
    python_param {
      module: "rpn.anchor_target_layer"
      layer: "AnchorTargetLayer"
      param_str: "{\"num_classes\": 1, \"batchsize\": 256, \"anchor_shift_num_xy\": [[2, 2], [2, 2], [2, 2], [2, 2], [1, 1], [1, 1], [1, 1], [1, 1], [1, 1], [1, 1], [1, 1], [1, 1], [1, 1], [1, 1]], \"tn_fraction\": 0.2, \"square_targets\": true, \"feat_stride\": 16, \"positive_overlap\": 0.6, \"name\": \"rpn_big\", \"negative_overlap\": 0.4, \"anchor_scales\": [2.5, 3.025, 3.66025, 4.4289024999999995, 5.358972025, 6.484356150249999, 7.846070941802498, 9.493745839581022, 11.487432465893036, 13.899793283730574, 16.818749873313998, 20.350687346709933, 24.62433168951902, 29.795441344318014], \"fg_fraction\": 0.5, \"anchor_ratios\": [1.0]}"
    }
  }
  layer {
    name: "rpn_big_loss_cls"
    type: "SoftmaxWithLoss"
    bottom: "rpn_big_cls_score_reshape"
    bottom: "rpn_big_anchor_target_labels"
    top: "rpn_big_loss_cls"
    loss_weight: 1
    propagate_down: true
    propagate_down: false
    loss_param {
      ignore_label: -1
      normalization: VALID
    }
  }
  layer {
    name: "rpn_big_output_box"
    type: "Convolution"
    bottom: "rpn_big_conv2"
    top: "rpn_big_output_box"
    param {
      lr_mult: 1
    }
    param {
      lr_mult: 2
    }
    convolution_param {
      num_output: 384
      pad: 1
      kernel_size: 3
      stride: 1
      weight_filler {
        type: "gaussian"
        mean: 0
        std: 0.01
      }
      bias_filler {
        type: "constant"
      }
    }
  }
  layer {
    name: "rpn_big_output_box_relu"
    type: "ReLU"
    bottom: "rpn_big_output_box"
    top: "rpn_big_output_box"
    relu_param {
      negative_slope: 0
    }
  }
  layer {
    name: "rpn_big_bbox_pred"
    type: "Convolution"
    bottom: "rpn_big_output_box"
    top: "rpn_big_bbox_pred"
    param {
      lr_mult: 1
    }
    param {
      lr_mult: 2
    }
    convolution_param {
      num_output: 104
      pad: 0
      kernel_size: 3
      stride: 1
      weight_filler {
        type: "gaussian"
        mean: 0
        std: 0.01
      }
      bias_filler {
        type: "constant"
      }
    }
  }
  layer {
    name: "rpn_big_loss_bbox"
    type: "Python"
    bottom: "rpn_big_bbox_pred"
    bottom: "rpn_big_anchor_target_bbox_targets"
    bottom: "rpn_big_anchor_target_inside_weights"
    bottom: "rpn_big_anchor_target_outside_weights"
    top: "rpn_big_loss_bbox"
    loss_weight: 1
    python_param {
      module: "layers.smooth_l1_loss"
      layer: "SmoothL1LossLayer"
      param_str: "{\"sigma\": 3}"
    }
  }
  layer {
    name: "proposal"
    type: "Python"
    bottom: "rpn_big_cls_prob_reshape"
    bottom: "rpn_big_bbox_pred"
    bottom: "input_im_info"
    top: "rpn_rois"
    python_param {
      module: "rpn.proposal_layer"
      layer: "ProposalLayer"
      param_str: "{\"anchor_shift_num_xy\": [[2, 2], [2, 2], [2, 2], [2, 2], [1, 1], [1, 1], [1, 1], [1, 1], [1, 1], [1, 1], [1, 1], [1, 1], [1, 1], [1, 1]], \"feat_stride\": 16, \"num_classes\": 1, \"anchor_scales\": [2.5, 3.025, 3.66025, 4.4289024999999995, 5.358972025, 6.484356150249999, 7.846070941802498, 9.493745839581022, 11.487432465893036, 13.899793283730574, 16.818749873313998, 20.350687346709933, 24.62433168951902, 29.795441344318014], \"square_targets\": true, \"name\": \"rpn_big\", \"batchsize\": 256, \"anchor_ratios\": [1.0]}"
    }
  }
  layer {
    name: "roi-data"
    type: "Python"
    bottom: "rpn_rois"
    bottom: "input_gt_boxes"
    top: "rois"
    top: "labels"
    top: "bbox_targets"
    top: "bbox_inside_weights"
    top: "bbox_outside_weights"
    top: "pid_label"
    python_param {
      module: "rpn.proposal_target_layer"
      layer: "ProposalTargetLayer"
      param_str: "{\"num_classes\": 2, \"bg_aux_label\": 5532}"
    }
  }
  layer {
    name: "roi-pool"
    type: "ROIPooling"
    bottom: "conv5_3"
    bottom: "rois"
    top: "roi-pool"
    roi_pooling_param {
      pooled_h: 7
      pooled_w: 7
      spatial_scale: 0.0625
    }
  }
  layer {
    name: "fc6"
    type: "InnerProduct"
    bottom: "roi-pool"
    top: "fc6"
    param {
      lr_mult: 1
    }
    param {
      lr_mult: 2
    }
    inner_product_param {
      num_output: 4096
    }
  }
  layer {
    name: "relu6"
    type: "ReLU"
    bottom: "fc6"
    top: "fc6"
  }
  layer {
    name: "drop6"
    type: "Dropout"
    bottom: "fc6"
    top: "fc6"
    dropout_param {
      dropout_ratio: 0.5
    }
  }
  layer {
    name: "fc7"
    type: "InnerProduct"
    bottom: "fc6"
    top: "fc7"
    param {
      lr_mult: 1
    }
    param {
      lr_mult: 2
    }
    inner_product_param {
      num_output: 4096
    }
  }
  layer {
    name: "relu7"
    type: "ReLU"
    bottom: "fc7"
    top: "fc7"
  }
  layer {
    name: "drop7"
    type: "Dropout"
    bottom: "fc7"
    top: "fc7"
    dropout_param {
      dropout_ratio: 0.5
    }
  }
  layer {
    name: "bbox_pred"
    type: "InnerProduct"
    bottom: "fc7"
    top: "bbox_pred"
    param {
      lr_mult: 1
    }
    param {
      lr_mult: 2
    }
    inner_product_param {
      num_output: 8
      weight_filler {
        type: "gaussian"
        std: 0.001
      }
      bias_filler {
        type: "constant"
        value: 0
      }
    }
  }
  layer {
    name: "loss_bbox"
    type: "SmoothL1Loss"
    bottom: "bbox_pred"
    bottom: "bbox_targets"
    bottom: "bbox_inside_weights"
    bottom: "bbox_outside_weights"
    top: "loss_bbox"
    loss_weight: 1
  }
  layer {
    name: "feat"
    type: "InnerProduct"
    bottom: "fc7"
    top: "feat"
    param {
      lr_mult: 1
      decay_mult: 1
    }
    param {
      lr_mult: 2
      decay_mult: 0
    }
    inner_product_param {
      num_output: 256
      weight_filler {
        type: "gaussian"
        std: 0.01
      }
      bias_filler {
        type: "constant"
        value: 0
      }
    }
  }
  layer {
    name: "relu8"
    type: "ReLU"
    bottom: "feat"
    top: "feat"
  }
  layer {
    name: "drop8"
    type: "Dropout"
    bottom: "feat"
    top: "feat"
    dropout_param {
      dropout_ratio: 0.5
    }
  }
  layer {
    name: "pid_score"
    type: "InnerProduct"
    bottom: "feat"
    top: "pid_score"
    param {
      lr_mult: 1
      decay_mult: 1
    }
    param {
      lr_mult: 2
      decay_mult: 0
    }
    inner_product_param {
      num_output: 5533
      weight_filler {
        type: "gaussian"
        std: 0.001
      }
      bias_filler {
        type: "constant"
        value: 0
      }
    }
  }
  layer {
    name: "pid_loss"
    type: "SoftmaxWithLoss"
    bottom: "pid_score"
    bottom: "pid_label"
    top: "pid_loss"
    loss_weight: 1
    propagate_down: true
    propagate_down: false
    loss_param {
      ignore_label: -1
      normalize: true
    }
  }
}
average_loss: 100
stepvalue: 70000
stepvalue: 120000
iter_size: 2
I0413 18:54:57.166545 14539 solver.cpp:86] Creating training net specified in net_param.
I0413 18:54:57.167315 14539 net.cpp:58] Initializing net from parameters: 
name: "GeneratedModel_13_04_2017_18_54"
state {
  phase: TRAIN
}
layer {
  name: "input"
  type: "Python"
  top: "input_data"
  top: "input_im_info"
  top: "input_gt_boxes"
  top: "input_ignored_boxes"
  python_param {
    module: "layers.roi_data_layer"
    layer: "RoIDataLayer"
    param_str: "{\"num_classes\": 2}"
  }
}
layer {
  name: "conv1_1"
  type: "Convolution"
  bottom: "input_data"
  top: "conv1_1"
  param {
    lr_mult: 0
    decay_mult: 0
  }
  param {
    lr_mult: 0
    decay_mult: 0
  }
  convolution_param {
    num_output: 64
    pad: 1
    kernel_size: 3
  }
}
layer {
  name: "relu1_1"
  type: "ReLU"
  bottom: "conv1_1"
  top: "conv1_1"
}
layer {
  name: "conv1_2"
  type: "Convolution"
  bottom: "conv1_1"
  top: "conv1_2"
  param {
    lr_mult: 0
    decay_mult: 0
  }
  param {
    lr_mult: 0
    decay_mult: 0
  }
  convolution_param {
    num_output: 64
    pad: 1
    kernel_size: 3
  }
}
layer {
  name: "relu1_2"
  type: "ReLU"
  bottom: "conv1_2"
  top: "conv1_2"
}
layer {
  name: "pool1"
  type: "Pooling"
  bottom: "conv1_2"
  top: "pool1"
  pooling_param {
    pool: MAX
    kernel_size: 2
    stride: 2
  }
}
layer {
  name: "conv2_1"
  type: "Convolution"
  bottom: "pool1"
  top: "conv2_1"
  param {
    lr_mult: 0
    decay_mult: 0
  }
  param {
    lr_mult: 0
    decay_mult: 0
  }
  convolution_param {
    num_output: 128
    pad: 1
    kernel_size: 3
  }
}
layer {
  name: "relu2_1"
  type: "ReLU"
  bottom: "conv2_1"
  top: "conv2_1"
}
layer {
  name: "conv2_2"
  type: "Convolution"
  bottom: "conv2_1"
  top: "conv2_2"
  param {
    lr_mult: 0
    decay_mult: 0
  }
  param {
    lr_mult: 0
    decay_mult: 0
  }
  convolution_param {
    num_output: 128
    pad: 1
    kernel_size: 3
  }
}
layer {
  name: "relu2_2"
  type: "ReLU"
  bottom: "conv2_2"
  top: "conv2_2"
}
layer {
  name: "pool2"
  type: "Pooling"
  bottom: "conv2_2"
  top: "pool2"
  pooling_param {
    pool: MAX
    kernel_size: 2
    stride: 2
  }
}
layer {
  name: "conv3_1"
  type: "Convolution"
  bottom: "pool2"
  top: "conv3_1"
  param {
    lr_mult: 1
  }
  param {
    lr_mult: 2
  }
  convolution_param {
    num_output: 256
    pad: 1
    kernel_size: 3
  }
}
layer {
  name: "relu3_1"
  type: "ReLU"
  bottom: "conv3_1"
  top: "conv3_1"
}
layer {
  name: "conv3_2"
  type: "Convolution"
  bottom: "conv3_1"
  top: "conv3_2"
  param {
    lr_mult: 1
  }
  param {
    lr_mult: 2
  }
  convolution_param {
    num_output: 256
    pad: 1
    kernel_size: 3
  }
}
layer {
  name: "relu3_2"
  type: "ReLU"
  bottom: "conv3_2"
  top: "conv3_2"
}
layer {
  name: "conv3_3"
  type: "Convolution"
  bottom: "conv3_2"
  top: "conv3_3"
  param {
    lr_mult: 1
  }
  param {
    lr_mult: 2
  }
  convolution_param {
    num_output: 256
    pad: 1
    kernel_size: 3
  }
}
layer {
  name: "relu3_3"
  type: "ReLU"
  bottom: "conv3_3"
  top: "conv3_3"
}
layer {
  name: "pool3"
  type: "Pooling"
  bottom: "conv3_3"
  top: "pool3"
  pooling_param {
    pool: MAX
    kernel_size: 2
    stride: 2
  }
}
layer {
  name: "conv4_1"
  type: "Convolution"
  bottom: "pool3"
  top: "conv4_1"
  param {
    lr_mult: 1
  }
  param {
    lr_mult: 2
  }
  convolution_param {
    num_output: 512
    pad: 1
    kernel_size: 3
  }
}
layer {
  name: "relu4_1"
  type: "ReLU"
  bottom: "conv4_1"
  top: "conv4_1"
}
layer {
  name: "conv4_2"
  type: "Convolution"
  bottom: "conv4_1"
  top: "conv4_2"
  param {
    lr_mult: 1
  }
  param {
    lr_mult: 2
  }
  convolution_param {
    num_output: 512
    pad: 1
    kernel_size: 3
  }
}
layer {
  name: "relu4_2"
  type: "ReLU"
  bottom: "conv4_2"
  top: "conv4_2"
}
layer {
  name: "conv4_3"
  type: "Convolution"
  bottom: "conv4_2"
  top: "conv4_3"
  param {
    lr_mult: 1
  }
  param {
    lr_mult: 2
  }
  convolution_param {
    num_output: 512
    pad: 1
    kernel_size: 3
  }
}
layer {
  name: "relu4_3"
  type: "ReLU"
  bottom: "conv4_3"
  top: "conv4_3"
}
layer {
  name: "pool4"
  type: "Pooling"
  bottom: "conv4_3"
  top: "pool4"
  pooling_param {
    pool: MAX
    kernel_size: 2
    stride: 2
  }
}
layer {
  name: "conv5_1"
  type: "Convolution"
  bottom: "pool4"
  top: "conv5_1"
  param {
    lr_mult: 1
  }
  param {
    lr_mult: 2
  }
  convolution_param {
    num_output: 512
    pad: 1
    kernel_size: 3
  }
}
layer {
  name: "relu5_1"
  type: "ReLU"
  bottom: "conv5_1"
  top: "conv5_1"
}
layer {
  name: "conv5_2"
  type: "Convolution"
  bottom: "conv5_1"
  top: "conv5_2"
  param {
    lr_mult: 1
  }
  param {
    lr_mult: 2
  }
  convolution_param {
    num_output: 512
    pad: 1
    kernel_size: 3
  }
}
layer {
  name: "relu5_2"
  type: "ReLU"
  bottom: "conv5_2"
  top: "conv5_2"
}
layer {
  name: "conv5_3"
  type: "Convolution"
  bottom: "conv5_2"
  top: "conv5_3"
  param {
    lr_mult: 1
  }
  param {
    lr_mult: 2
  }
  convolution_param {
    num_output: 512
    pad: 1
    kernel_size: 3
  }
}
layer {
  name: "relu5_3"
  type: "ReLU"
  bottom: "conv5_3"
  top: "conv5_3"
}
layer {
  name: "rpn_big_conv1"
  type: "Convolution"
  bottom: "conv5_3"
  top: "rpn_big_conv1"
  param {
    lr_mult: 1
  }
  param {
    lr_mult: 2
  }
  convolution_param {
    num_output: 512
    pad: 1
    kernel_size: 3
    stride: 1
    weight_filler {
      type: "gaussian"
      mean: 0
      std: 0.01
    }
    bias_filler {
      type: "constant"
    }
  }
}
layer {
  name: "rpn_big_conv1_relu"
  type: "ReLU"
  bottom: "rpn_big_conv1"
  top: "rpn_big_conv1"
  relu_param {
    negative_slope: 0
  }
}
layer {
  name: "rpn_big_conv2"
  type: "Convolution"
  bottom: "rpn_big_conv1"
  top: "rpn_big_conv2"
  param {
    lr_mult: 1
  }
  param {
    lr_mult: 2
  }
  convolution_param {
    num_output: 512
    pad: 1
    kernel_size: 3
    stride: 1
    weight_filler {
      type: "gaussian"
      mean: 0
      std: 0.01
    }
    bias_filler {
      type: "constant"
    }
  }
}
layer {
  name: "rpn_big_conv2_relu"
  type: "ReLU"
  bottom: "rpn_big_conv2"
  top: "rpn_big_conv2"
  relu_param {
    negative_slope: 0
  }
}
layer {
  name: "rpn_big_conv2_drop"
  type: "Dropout"
  bottom: "rpn_big_conv2"
  top: "rpn_big_conv2"
  dropout_param {
    dropout_ratio: 0.3
  }
}
layer {
  name: "rpn_big_output_cls"
  type: "Convolution"
  bottom: "rpn_big_conv2"
  top: "rpn_big_output_cls"
  param {
    lr_mult: 1
  }
  param {
    lr_mult: 2
  }
  convolution_param {
    num_output: 384
    pad: 1
    kernel_size: 3
    stride: 1
    weight_filler {
      type: "gaussian"
      mean: 0
      std: 0.01
    }
    bias_filler {
      type: "constant"
    }
  }
}
layer {
  name: "rpn_big_output_cls_relu"
  type: "ReLU"
  bottom: "rpn_big_output_cls"
  top: "rpn_big_output_cls"
  relu_param {
    negative_slope: 0
  }
}
layer {
  name: "rpn_big_cls_score"
  type: "Convolution"
  bottom: "rpn_big_output_cls"
  top: "rpn_big_cls_score"
  param {
    lr_mult: 1
  }
  param {
    lr_mult: 2
  }
  convolution_param {
    num_output: 52
    pad: 0
    kernel_size: 3
    stride: 1
    weight_filler {
      type: "gaussian"
      mean: 0
      std: 0.01
    }
    bias_filler {
      type: "constant"
    }
  }
}
layer {
  name: "rpn_big_cls_score_reshape"
  type: "Reshape"
  bottom: "rpn_big_cls_score"
  top: "rpn_big_cls_score_reshape"
  reshape_param {
    shape {
      dim: 0
      dim: 2
      dim: -1
      dim: 0
    }
  }
}
layer {
  name: "rpn_big_cls_prob"
  type: "Softmax"
  bottom: "rpn_big_cls_score_reshape"
  top: "rpn_big_cls_prob"
}
layer {
  name: "rpn_big_cls_prob_reshape"
  type: "Reshape"
  bottom: "rpn_big_cls_prob"
  top: "rpn_big_cls_prob_reshape"
  reshape_param {
    shape {
      dim: 0
      dim: 52
      dim: -1
      dim: 0
    }
  }
}
layer {
  name: "rpn_big_anchor_target"
  type: "Python"
  bottom: "rpn_big_cls_score"
  bottom: "input_gt_boxes"
  bottom: "input_ignored_boxes"
  bottom: "input_im_info"
  bottom: "input_data"
  bottom: "rpn_big_cls_prob_reshape"
  top: "rpn_big_anchor_target_labels"
  top: "rpn_big_anchor_target_bbox_targets"
  top: "rpn_big_anchor_target_inside_weights"
  top: "rpn_big_anchor_target_outside_weights"
  python_param {
    module: "rpn.anchor_target_layer"
    layer: "AnchorTargetLayer"
    param_str: "{\"num_classes\": 1, \"batchsize\": 256, \"anchor_shift_num_xy\": [[2, 2], [2, 2], [2, 2], [2, 2], [1, 1], [1, 1], [1, 1], [1, 1], [1, 1], [1, 1], [1, 1], [1, 1], [1, 1], [1, 1]], \"tn_fraction\": 0.2, \"square_targets\": true, \"feat_stride\": 16, \"positive_overlap\": 0.6, \"name\": \"rpn_big\", \"negative_overlap\": 0.4, \"anchor_scales\": [2.5, 3.025, 3.66025, 4.4289024999999995, 5.358972025, 6.484356150249999, 7.846070941802498, 9.493745839581022, 11.487432465893036, 13.899793283730574, 16.818749873313998, 20.350687346709933, 24.62433168951902, 29.795441344318014], \"fg_fraction\": 0.5, \"anchor_ratios\": [1.0]}"
  }
}
layer {
  name: "rpn_big_loss_cls"
  type: "SoftmaxWithLoss"
  bottom: "rpn_big_cls_score_reshape"
  bottom: "rpn_big_anchor_target_labels"
  top: "rpn_big_loss_cls"
  loss_weight: 1
  propagate_down: true
  propagate_down: false
  loss_param {
    ignore_label: -1
    normalization: VALID
  }
}
layer {
  name: "rpn_big_output_box"
  type: "Convolution"
  bottom: "rpn_big_conv2"
  top: "rpn_big_output_box"
  param {
    lr_mult: 1
  }
  param {
    lr_mult: 2
  }
  convolution_param {
    num_output: 384
    pad: 1
    kernel_size: 3
    stride: 1
    weight_filler {
      type: "gaussian"
      mean: 0
      std: 0.01
    }
    bias_filler {
      type: "constant"
    }
  }
}
layer {
  name: "rpn_big_output_box_relu"
  type: "ReLU"
  bottom: "rpn_big_output_box"
  top: "rpn_big_output_box"
  relu_param {
    negative_slope: 0
  }
}
layer {
  name: "rpn_big_bbox_pred"
  type: "Convolution"
  bottom: "rpn_big_output_box"
  top: "rpn_big_bbox_pred"
  param {
    lr_mult: 1
  }
  param {
    lr_mult: 2
  }
  convolution_param {
    num_output: 104
    pad: 0
    kernel_size: 3
    stride: 1
    weight_filler {
      type: "gaussian"
      mean: 0
      std: 0.01
    }
    bias_filler {
      type: "constant"
    }
  }
}
layer {
  name: "rpn_big_loss_bbox"
  type: "Python"
  bottom: "rpn_big_bbox_pred"
  bottom: "rpn_big_anchor_target_bbox_targets"
  bottom: "rpn_big_anchor_target_inside_weights"
  bottom: "rpn_big_anchor_target_outside_weights"
  top: "rpn_big_loss_bbox"
  loss_weight: 1
  python_param {
    module: "layers.smooth_l1_loss"
    layer: "SmoothL1LossLayer"
    param_str: "{\"sigma\": 3}"
  }
}
layer {
  name: "proposal"
  type: "Python"
  bottom: "rpn_big_cls_prob_reshape"
  bottom: "rpn_big_bbox_pred"
  bottom: "input_im_info"
  top: "rpn_rois"
  python_param {
    module: "rpn.proposal_layer"
    layer: "ProposalLayer"
    param_str: "{\"anchor_shift_num_xy\": [[2, 2], [2, 2], [2, 2], [2, 2], [1, 1], [1, 1], [1, 1], [1, 1], [1, 1], [1, 1], [1, 1], [1, 1], [1, 1], [1, 1]], \"feat_stride\": 16, \"num_classes\": 1, \"anchor_scales\": [2.5, 3.025, 3.66025, 4.4289024999999995, 5.358972025, 6.484356150249999, 7.846070941802498, 9.493745839581022, 11.487432465893036, 13.899793283730574, 16.818749873313998, 20.350687346709933, 24.62433168951902, 29.795441344318014], \"square_targets\": true, \"name\": \"rpn_big\", \"batchsize\": 256, \"anchor_ratios\": [1.0]}"
  }
}
layer {
  name: "roi-data"
  type: "Python"
  bottom: "rpn_rois"
  bottom: "input_gt_boxes"
  top: "rois"
  top: "labels"
  top: "bbox_targets"
  top: "bbox_inside_weights"
  top: "bbox_outside_weights"
  top: "pid_label"
  python_param {
    module: "rpn.proposal_target_layer"
    layer: "ProposalTargetLayer"
    param_str: "{\"num_classes\": 2, \"bg_aux_label\": 5532}"
  }
}
layer {
  name: "roi-pool"
  type: "ROIPooling"
  bottom: "conv5_3"
  bottom: "rois"
  top: "roi-pool"
  roi_pooling_param {
    pooled_h: 7
    pooled_w: 7
    spatial_scale: 0.0625
  }
}
layer {
  name: "fc6"
  type: "InnerProduct"
  bottom: "roi-pool"
  top: "fc6"
  param {
    lr_mult: 1
  }
  param {
    lr_mult: 2
  }
  inner_product_param {
    num_output: 4096
  }
}
layer {
  name: "relu6"
  type: "ReLU"
  bottom: "fc6"
  top: "fc6"
}
layer {
  name: "drop6"
  type: "Dropout"
  bottom: "fc6"
  top: "fc6"
  dropout_param {
    dropout_ratio: 0.5
  }
}
layer {
  name: "fc7"
  type: "InnerProduct"
  bottom: "fc6"
  top: "fc7"
  param {
    lr_mult: 1
  }
  param {
    lr_mult: 2
  }
  inner_product_param {
    num_output: 4096
  }
}
layer {
  name: "relu7"
  type: "ReLU"
  bottom: "fc7"
  top: "fc7"
}
layer {
  name: "drop7"
  type: "Dropout"
  bottom: "fc7"
  top: "fc7"
  dropout_param {
    dropout_ratio: 0.5
  }
}
layer {
  name: "bbox_pred"
  type: "InnerProduct"
  bottom: "fc7"
  top: "bbox_pred"
  param {
    lr_mult: 1
  }
  param {
    lr_mult: 2
  }
  inner_product_param {
    num_output: 8
    weight_filler {
      type: "gaussian"
      std: 0.001
    }
    bias_filler {
      type: "constant"
      value: 0
    }
  }
}
layer {
  name: "loss_bbox"
  type: "SmoothL1Loss"
  bottom: "bbox_pred"
  bottom: "bbox_targets"
  bottom: "bbox_inside_weights"
  bottom: "bbox_outside_weights"
  top: "loss_bbox"
  loss_weight: 1
}
layer {
  name: "feat"
  type: "InnerProduct"
  bottom: "fc7"
  top: "feat"
  param {
    lr_mult: 1
    decay_mult: 1
  }
  param {
    lr_mult: 2
    decay_mult: 0
  }
  inner_product_param {
    num_output: 256
    weight_filler {
      type: "gaussian"
      std: 0.01
    }
    bias_filler {
      type: "constant"
      value: 0
    }
  }
}
layer {
  name: "relu8"
  type: "ReLU"
  bottom: "feat"
  top: "feat"
}
layer {
  name: "drop8"
  type: "Dropout"
  bottom: "feat"
  top: "feat"
  dropout_param {
    dropout_ratio: 0.5
  }
}
layer {
  name: "pid_score"
  type: "InnerProduct"
  bottom: "feat"
  top: "pid_score"
  param {
    lr_mult: 1
    decay_mult: 1
  }
  param {
    lr_mult: 2
    decay_mult: 0
  }
  inner_product_param {
    num_output: 5533
    weight_filler {
      type: "gaussian"
      std: 0.001
    }
    bias_filler {
      type: "constant"
      value: 0
    }
  }
}
layer {
  name: "pid_loss"
  type: "SoftmaxWithLoss"
  bottom: "pid_score"
  bottom: "pid_label"
  top: "pid_loss"
  loss_weight: 1
  propagate_down: true
  propagate_down: false
  loss_param {
    ignore_label: -1
    normalize: true
  }
}
I0413 18:54:57.167695 14539 layer_factory.hpp:77] Creating layer input
I0413 18:54:57.169505 14539 net.cpp:100] Creating Layer input
I0413 18:54:57.169535 14539 net.cpp:408] input -> input_data
I0413 18:54:57.169551 14539 net.cpp:408] input -> input_im_info
I0413 18:54:57.169564 14539 net.cpp:408] input -> input_gt_boxes
I0413 18:54:57.169575 14539 net.cpp:408] input -> input_ignored_boxes
RoiDataLayer: name_to_top: {'ignored_boxes': 3, 'gt_boxes': 2, 'data': 0, 'im_info': 1}
I0413 18:54:57.482861 14539 net.cpp:150] Setting up input
I0413 18:54:57.482897 14539 net.cpp:157] Top shape: 1 3 1000 1500 (4500000)
I0413 18:54:57.482908 14539 net.cpp:157] Top shape: 1 3 (3)
I0413 18:54:57.482920 14539 net.cpp:157] Top shape: 1 5 (5)
I0413 18:54:57.482930 14539 net.cpp:157] Top shape: 1 5 (5)
I0413 18:54:57.482939 14539 net.cpp:165] Memory required for data: 18000052
I0413 18:54:57.482947 14539 layer_factory.hpp:77] Creating layer input_data_input_0_split
I0413 18:54:57.482967 14539 net.cpp:100] Creating Layer input_data_input_0_split
I0413 18:54:57.482975 14539 net.cpp:434] input_data_input_0_split <- input_data
I0413 18:54:57.482987 14539 net.cpp:408] input_data_input_0_split -> input_data_input_0_split_0
I0413 18:54:57.483005 14539 net.cpp:408] input_data_input_0_split -> input_data_input_0_split_1
I0413 18:54:57.483047 14539 net.cpp:150] Setting up input_data_input_0_split
I0413 18:54:57.483058 14539 net.cpp:157] Top shape: 1 3 1000 1500 (4500000)
I0413 18:54:57.483067 14539 net.cpp:157] Top shape: 1 3 1000 1500 (4500000)
I0413 18:54:57.483074 14539 net.cpp:165] Memory required for data: 54000052
I0413 18:54:57.483081 14539 layer_factory.hpp:77] Creating layer input_im_info_input_1_split
I0413 18:54:57.483093 14539 net.cpp:100] Creating Layer input_im_info_input_1_split
I0413 18:54:57.483099 14539 net.cpp:434] input_im_info_input_1_split <- input_im_info
I0413 18:54:57.483109 14539 net.cpp:408] input_im_info_input_1_split -> input_im_info_input_1_split_0
I0413 18:54:57.483121 14539 net.cpp:408] input_im_info_input_1_split -> input_im_info_input_1_split_1
I0413 18:54:57.483155 14539 net.cpp:150] Setting up input_im_info_input_1_split
I0413 18:54:57.483165 14539 net.cpp:157] Top shape: 1 3 (3)
I0413 18:54:57.483172 14539 net.cpp:157] Top shape: 1 3 (3)
I0413 18:54:57.483178 14539 net.cpp:165] Memory required for data: 54000076
I0413 18:54:57.483186 14539 layer_factory.hpp:77] Creating layer input_gt_boxes_input_2_split
I0413 18:54:57.483196 14539 net.cpp:100] Creating Layer input_gt_boxes_input_2_split
I0413 18:54:57.483203 14539 net.cpp:434] input_gt_boxes_input_2_split <- input_gt_boxes
I0413 18:54:57.483212 14539 net.cpp:408] input_gt_boxes_input_2_split -> input_gt_boxes_input_2_split_0
I0413 18:54:57.483227 14539 net.cpp:408] input_gt_boxes_input_2_split -> input_gt_boxes_input_2_split_1
I0413 18:54:57.483259 14539 net.cpp:150] Setting up input_gt_boxes_input_2_split
I0413 18:54:57.483269 14539 net.cpp:157] Top shape: 1 5 (5)
I0413 18:54:57.483278 14539 net.cpp:157] Top shape: 1 5 (5)
I0413 18:54:57.483285 14539 net.cpp:165] Memory required for data: 54000116
I0413 18:54:57.483291 14539 layer_factory.hpp:77] Creating layer conv1_1
I0413 18:54:57.483307 14539 net.cpp:100] Creating Layer conv1_1
I0413 18:54:57.483314 14539 net.cpp:434] conv1_1 <- input_data_input_0_split_0
I0413 18:54:57.483325 14539 net.cpp:408] conv1_1 -> conv1_1
I0413 18:54:57.486585 14539 net.cpp:150] Setting up conv1_1
I0413 18:54:57.486624 14539 net.cpp:157] Top shape: 1 64 1000 1500 (96000000)
I0413 18:54:57.486630 14539 net.cpp:165] Memory required for data: 438000116
I0413 18:54:57.486656 14539 layer_factory.hpp:77] Creating layer relu1_1
I0413 18:54:57.486673 14539 net.cpp:100] Creating Layer relu1_1
I0413 18:54:57.486682 14539 net.cpp:434] relu1_1 <- conv1_1
I0413 18:54:57.486696 14539 net.cpp:395] relu1_1 -> conv1_1 (in-place)
I0413 18:54:57.486711 14539 net.cpp:150] Setting up relu1_1
I0413 18:54:57.486719 14539 net.cpp:157] Top shape: 1 64 1000 1500 (96000000)
I0413 18:54:57.486727 14539 net.cpp:165] Memory required for data: 822000116
I0413 18:54:57.486733 14539 layer_factory.hpp:77] Creating layer conv1_2
I0413 18:54:57.486748 14539 net.cpp:100] Creating Layer conv1_2
I0413 18:54:57.486754 14539 net.cpp:434] conv1_2 <- conv1_1
I0413 18:54:57.486765 14539 net.cpp:408] conv1_2 -> conv1_2
I0413 18:54:57.489964 14539 net.cpp:150] Setting up conv1_2
I0413 18:54:57.490003 14539 net.cpp:157] Top shape: 1 64 1000 1500 (96000000)
I0413 18:54:57.490008 14539 net.cpp:165] Memory required for data: 1206000116
I0413 18:54:57.490032 14539 layer_factory.hpp:77] Creating layer relu1_2
I0413 18:54:57.490048 14539 net.cpp:100] Creating Layer relu1_2
I0413 18:54:57.490062 14539 net.cpp:434] relu1_2 <- conv1_2
I0413 18:54:57.490082 14539 net.cpp:395] relu1_2 -> conv1_2 (in-place)
I0413 18:54:57.490100 14539 net.cpp:150] Setting up relu1_2
I0413 18:54:57.490109 14539 net.cpp:157] Top shape: 1 64 1000 1500 (96000000)
I0413 18:54:57.490116 14539 net.cpp:165] Memory required for data: 1590000116
I0413 18:54:57.490123 14539 layer_factory.hpp:77] Creating layer pool1
I0413 18:54:57.490136 14539 net.cpp:100] Creating Layer pool1
I0413 18:54:57.490144 14539 net.cpp:434] pool1 <- conv1_2
I0413 18:54:57.490154 14539 net.cpp:408] pool1 -> pool1
I0413 18:54:57.490229 14539 net.cpp:150] Setting up pool1
I0413 18:54:57.490242 14539 net.cpp:157] Top shape: 1 64 500 750 (24000000)
I0413 18:54:57.490249 14539 net.cpp:165] Memory required for data: 1686000116
I0413 18:54:57.490255 14539 layer_factory.hpp:77] Creating layer conv2_1
I0413 18:54:57.490270 14539 net.cpp:100] Creating Layer conv2_1
I0413 18:54:57.490278 14539 net.cpp:434] conv2_1 <- pool1
I0413 18:54:57.490291 14539 net.cpp:408] conv2_1 -> conv2_1
I0413 18:54:57.491505 14539 net.cpp:150] Setting up conv2_1
I0413 18:54:57.491528 14539 net.cpp:157] Top shape: 1 128 500 750 (48000000)
I0413 18:54:57.491533 14539 net.cpp:165] Memory required for data: 1878000116
I0413 18:54:57.491549 14539 layer_factory.hpp:77] Creating layer relu2_1
I0413 18:54:57.491561 14539 net.cpp:100] Creating Layer relu2_1
I0413 18:54:57.491570 14539 net.cpp:434] relu2_1 <- conv2_1
I0413 18:54:57.491583 14539 net.cpp:395] relu2_1 -> conv2_1 (in-place)
I0413 18:54:57.491596 14539 net.cpp:150] Setting up relu2_1
I0413 18:54:57.491605 14539 net.cpp:157] Top shape: 1 128 500 750 (48000000)
I0413 18:54:57.491612 14539 net.cpp:165] Memory required for data: 2070000116
I0413 18:54:57.491618 14539 layer_factory.hpp:77] Creating layer conv2_2
I0413 18:54:57.491634 14539 net.cpp:100] Creating Layer conv2_2
I0413 18:54:57.491641 14539 net.cpp:434] conv2_2 <- conv2_1
I0413 18:54:57.491650 14539 net.cpp:408] conv2_2 -> conv2_2
I0413 18:54:57.492599 14539 net.cpp:150] Setting up conv2_2
I0413 18:54:57.492624 14539 net.cpp:157] Top shape: 1 128 500 750 (48000000)
I0413 18:54:57.492630 14539 net.cpp:165] Memory required for data: 2262000116
I0413 18:54:57.492643 14539 layer_factory.hpp:77] Creating layer relu2_2
I0413 18:54:57.492656 14539 net.cpp:100] Creating Layer relu2_2
I0413 18:54:57.492666 14539 net.cpp:434] relu2_2 <- conv2_2
I0413 18:54:57.492677 14539 net.cpp:395] relu2_2 -> conv2_2 (in-place)
I0413 18:54:57.492691 14539 net.cpp:150] Setting up relu2_2
I0413 18:54:57.492700 14539 net.cpp:157] Top shape: 1 128 500 750 (48000000)
I0413 18:54:57.492707 14539 net.cpp:165] Memory required for data: 2454000116
I0413 18:54:57.492712 14539 layer_factory.hpp:77] Creating layer pool2
I0413 18:54:57.492724 14539 net.cpp:100] Creating Layer pool2
I0413 18:54:57.492732 14539 net.cpp:434] pool2 <- conv2_2
I0413 18:54:57.492741 14539 net.cpp:408] pool2 -> pool2
I0413 18:54:57.492794 14539 net.cpp:150] Setting up pool2
I0413 18:54:57.492805 14539 net.cpp:157] Top shape: 1 128 250 375 (12000000)
I0413 18:54:57.492810 14539 net.cpp:165] Memory required for data: 2502000116
I0413 18:54:57.492815 14539 layer_factory.hpp:77] Creating layer conv3_1
I0413 18:54:57.492831 14539 net.cpp:100] Creating Layer conv3_1
I0413 18:54:57.492838 14539 net.cpp:434] conv3_1 <- pool2
I0413 18:54:57.492849 14539 net.cpp:408] conv3_1 -> conv3_1
I0413 18:54:57.495623 14539 net.cpp:150] Setting up conv3_1
I0413 18:54:57.495658 14539 net.cpp:157] Top shape: 1 256 250 375 (24000000)
I0413 18:54:57.495664 14539 net.cpp:165] Memory required for data: 2598000116
I0413 18:54:57.495685 14539 layer_factory.hpp:77] Creating layer relu3_1
I0413 18:54:57.495699 14539 net.cpp:100] Creating Layer relu3_1
I0413 18:54:57.495708 14539 net.cpp:434] relu3_1 <- conv3_1
I0413 18:54:57.495721 14539 net.cpp:395] relu3_1 -> conv3_1 (in-place)
I0413 18:54:57.495736 14539 net.cpp:150] Setting up relu3_1
I0413 18:54:57.495744 14539 net.cpp:157] Top shape: 1 256 250 375 (24000000)
I0413 18:54:57.495751 14539 net.cpp:165] Memory required for data: 2694000116
I0413 18:54:57.495759 14539 layer_factory.hpp:77] Creating layer conv3_2
I0413 18:54:57.495776 14539 net.cpp:100] Creating Layer conv3_2
I0413 18:54:57.495782 14539 net.cpp:434] conv3_2 <- conv3_1
I0413 18:54:57.495792 14539 net.cpp:408] conv3_2 -> conv3_2
I0413 18:54:57.497452 14539 net.cpp:150] Setting up conv3_2
I0413 18:54:57.497484 14539 net.cpp:157] Top shape: 1 256 250 375 (24000000)
I0413 18:54:57.497490 14539 net.cpp:165] Memory required for data: 2790000116
I0413 18:54:57.497503 14539 layer_factory.hpp:77] Creating layer relu3_2
I0413 18:54:57.497517 14539 net.cpp:100] Creating Layer relu3_2
I0413 18:54:57.497525 14539 net.cpp:434] relu3_2 <- conv3_2
I0413 18:54:57.497541 14539 net.cpp:395] relu3_2 -> conv3_2 (in-place)
I0413 18:54:57.497556 14539 net.cpp:150] Setting up relu3_2
I0413 18:54:57.497565 14539 net.cpp:157] Top shape: 1 256 250 375 (24000000)
I0413 18:54:57.497572 14539 net.cpp:165] Memory required for data: 2886000116
I0413 18:54:57.497578 14539 layer_factory.hpp:77] Creating layer conv3_3
I0413 18:54:57.497596 14539 net.cpp:100] Creating Layer conv3_3
I0413 18:54:57.497602 14539 net.cpp:434] conv3_3 <- conv3_2
I0413 18:54:57.497612 14539 net.cpp:408] conv3_3 -> conv3_3
I0413 18:54:57.499156 14539 net.cpp:150] Setting up conv3_3
I0413 18:54:57.499191 14539 net.cpp:157] Top shape: 1 256 250 375 (24000000)
I0413 18:54:57.499194 14539 net.cpp:165] Memory required for data: 2982000116
I0413 18:54:57.499209 14539 layer_factory.hpp:77] Creating layer relu3_3
I0413 18:54:57.499222 14539 net.cpp:100] Creating Layer relu3_3
I0413 18:54:57.499229 14539 net.cpp:434] relu3_3 <- conv3_3
I0413 18:54:57.499243 14539 net.cpp:395] relu3_3 -> conv3_3 (in-place)
I0413 18:54:57.499258 14539 net.cpp:150] Setting up relu3_3
I0413 18:54:57.499269 14539 net.cpp:157] Top shape: 1 256 250 375 (24000000)
I0413 18:54:57.499274 14539 net.cpp:165] Memory required for data: 3078000116
I0413 18:54:57.499280 14539 layer_factory.hpp:77] Creating layer pool3
I0413 18:54:57.499290 14539 net.cpp:100] Creating Layer pool3
I0413 18:54:57.499297 14539 net.cpp:434] pool3 <- conv3_3
I0413 18:54:57.499308 14539 net.cpp:408] pool3 -> pool3
I0413 18:54:57.499361 14539 net.cpp:150] Setting up pool3
I0413 18:54:57.499370 14539 net.cpp:157] Top shape: 1 256 125 188 (6016000)
I0413 18:54:57.499377 14539 net.cpp:165] Memory required for data: 3102064116
I0413 18:54:57.499383 14539 layer_factory.hpp:77] Creating layer conv4_1
I0413 18:54:57.499399 14539 net.cpp:100] Creating Layer conv4_1
I0413 18:54:57.499406 14539 net.cpp:434] conv4_1 <- pool3
I0413 18:54:57.499416 14539 net.cpp:408] conv4_1 -> conv4_1
I0413 18:54:57.502100 14539 net.cpp:150] Setting up conv4_1
I0413 18:54:57.502136 14539 net.cpp:157] Top shape: 1 512 125 188 (12032000)
I0413 18:54:57.502142 14539 net.cpp:165] Memory required for data: 3150192116
I0413 18:54:57.502156 14539 layer_factory.hpp:77] Creating layer relu4_1
I0413 18:54:57.502178 14539 net.cpp:100] Creating Layer relu4_1
I0413 18:54:57.502189 14539 net.cpp:434] relu4_1 <- conv4_1
I0413 18:54:57.502204 14539 net.cpp:395] relu4_1 -> conv4_1 (in-place)
I0413 18:54:57.502219 14539 net.cpp:150] Setting up relu4_1
I0413 18:54:57.502228 14539 net.cpp:157] Top shape: 1 512 125 188 (12032000)
I0413 18:54:57.502235 14539 net.cpp:165] Memory required for data: 3198320116
I0413 18:54:57.502241 14539 layer_factory.hpp:77] Creating layer conv4_2
I0413 18:54:57.502257 14539 net.cpp:100] Creating Layer conv4_2
I0413 18:54:57.502264 14539 net.cpp:434] conv4_2 <- conv4_1
I0413 18:54:57.502275 14539 net.cpp:408] conv4_2 -> conv4_2
I0413 18:54:57.506460 14539 net.cpp:150] Setting up conv4_2
I0413 18:54:57.506498 14539 net.cpp:157] Top shape: 1 512 125 188 (12032000)
I0413 18:54:57.506503 14539 net.cpp:165] Memory required for data: 3246448116
I0413 18:54:57.506528 14539 layer_factory.hpp:77] Creating layer relu4_2
I0413 18:54:57.506542 14539 net.cpp:100] Creating Layer relu4_2
I0413 18:54:57.506552 14539 net.cpp:434] relu4_2 <- conv4_2
I0413 18:54:57.506566 14539 net.cpp:395] relu4_2 -> conv4_2 (in-place)
I0413 18:54:57.506580 14539 net.cpp:150] Setting up relu4_2
I0413 18:54:57.506589 14539 net.cpp:157] Top shape: 1 512 125 188 (12032000)
I0413 18:54:57.506595 14539 net.cpp:165] Memory required for data: 3294576116
I0413 18:54:57.506603 14539 layer_factory.hpp:77] Creating layer conv4_3
I0413 18:54:57.506620 14539 net.cpp:100] Creating Layer conv4_3
I0413 18:54:57.506628 14539 net.cpp:434] conv4_3 <- conv4_2
I0413 18:54:57.506639 14539 net.cpp:408] conv4_3 -> conv4_3
I0413 18:54:57.510886 14539 net.cpp:150] Setting up conv4_3
I0413 18:54:57.510924 14539 net.cpp:157] Top shape: 1 512 125 188 (12032000)
I0413 18:54:57.510932 14539 net.cpp:165] Memory required for data: 3342704116
I0413 18:54:57.510951 14539 layer_factory.hpp:77] Creating layer relu4_3
I0413 18:54:57.510970 14539 net.cpp:100] Creating Layer relu4_3
I0413 18:54:57.510982 14539 net.cpp:434] relu4_3 <- conv4_3
I0413 18:54:57.510999 14539 net.cpp:395] relu4_3 -> conv4_3 (in-place)
I0413 18:54:57.511015 14539 net.cpp:150] Setting up relu4_3
I0413 18:54:57.511026 14539 net.cpp:157] Top shape: 1 512 125 188 (12032000)
I0413 18:54:57.511034 14539 net.cpp:165] Memory required for data: 3390832116
I0413 18:54:57.511040 14539 layer_factory.hpp:77] Creating layer pool4
I0413 18:54:57.511052 14539 net.cpp:100] Creating Layer pool4
I0413 18:54:57.511059 14539 net.cpp:434] pool4 <- conv4_3
I0413 18:54:57.511072 14539 net.cpp:408] pool4 -> pool4
I0413 18:54:57.511124 14539 net.cpp:150] Setting up pool4
I0413 18:54:57.511135 14539 net.cpp:157] Top shape: 1 512 63 94 (3032064)
I0413 18:54:57.511142 14539 net.cpp:165] Memory required for data: 3402960372
I0413 18:54:57.511147 14539 layer_factory.hpp:77] Creating layer conv5_1
I0413 18:54:57.511168 14539 net.cpp:100] Creating Layer conv5_1
I0413 18:54:57.511174 14539 net.cpp:434] conv5_1 <- pool4
I0413 18:54:57.511184 14539 net.cpp:408] conv5_1 -> conv5_1
I0413 18:54:57.515862 14539 net.cpp:150] Setting up conv5_1
I0413 18:54:57.515897 14539 net.cpp:157] Top shape: 1 512 63 94 (3032064)
I0413 18:54:57.515902 14539 net.cpp:165] Memory required for data: 3415088628
I0413 18:54:57.515918 14539 layer_factory.hpp:77] Creating layer relu5_1
I0413 18:54:57.515931 14539 net.cpp:100] Creating Layer relu5_1
I0413 18:54:57.515940 14539 net.cpp:434] relu5_1 <- conv5_1
I0413 18:54:57.515954 14539 net.cpp:395] relu5_1 -> conv5_1 (in-place)
I0413 18:54:57.515985 14539 net.cpp:150] Setting up relu5_1
I0413 18:54:57.515995 14539 net.cpp:157] Top shape: 1 512 63 94 (3032064)
I0413 18:54:57.516001 14539 net.cpp:165] Memory required for data: 3427216884
I0413 18:54:57.516007 14539 layer_factory.hpp:77] Creating layer conv5_2
I0413 18:54:57.516021 14539 net.cpp:100] Creating Layer conv5_2
I0413 18:54:57.516029 14539 net.cpp:434] conv5_2 <- conv5_1
I0413 18:54:57.516039 14539 net.cpp:408] conv5_2 -> conv5_2
I0413 18:54:57.520649 14539 net.cpp:150] Setting up conv5_2
I0413 18:54:57.520701 14539 net.cpp:157] Top shape: 1 512 63 94 (3032064)
I0413 18:54:57.520707 14539 net.cpp:165] Memory required for data: 3439345140
I0413 18:54:57.520721 14539 layer_factory.hpp:77] Creating layer relu5_2
I0413 18:54:57.520735 14539 net.cpp:100] Creating Layer relu5_2
I0413 18:54:57.520741 14539 net.cpp:434] relu5_2 <- conv5_2
I0413 18:54:57.520757 14539 net.cpp:395] relu5_2 -> conv5_2 (in-place)
I0413 18:54:57.520793 14539 net.cpp:150] Setting up relu5_2
I0413 18:54:57.520800 14539 net.cpp:157] Top shape: 1 512 63 94 (3032064)
I0413 18:54:57.520805 14539 net.cpp:165] Memory required for data: 3451473396
I0413 18:54:57.520810 14539 layer_factory.hpp:77] Creating layer conv5_3
I0413 18:54:57.520831 14539 net.cpp:100] Creating Layer conv5_3
I0413 18:54:57.520838 14539 net.cpp:434] conv5_3 <- conv5_2
I0413 18:54:57.520848 14539 net.cpp:408] conv5_3 -> conv5_3
I0413 18:54:57.525441 14539 net.cpp:150] Setting up conv5_3
I0413 18:54:57.525482 14539 net.cpp:157] Top shape: 1 512 63 94 (3032064)
I0413 18:54:57.525496 14539 net.cpp:165] Memory required for data: 3463601652
I0413 18:54:57.525506 14539 layer_factory.hpp:77] Creating layer relu5_3
I0413 18:54:57.525516 14539 net.cpp:100] Creating Layer relu5_3
I0413 18:54:57.525521 14539 net.cpp:434] relu5_3 <- conv5_3
I0413 18:54:57.525529 14539 net.cpp:395] relu5_3 -> conv5_3 (in-place)
I0413 18:54:57.525539 14539 net.cpp:150] Setting up relu5_3
I0413 18:54:57.525544 14539 net.cpp:157] Top shape: 1 512 63 94 (3032064)
I0413 18:54:57.525547 14539 net.cpp:165] Memory required for data: 3475729908
I0413 18:54:57.525550 14539 layer_factory.hpp:77] Creating layer conv5_3_relu5_3_0_split
I0413 18:54:57.525555 14539 net.cpp:100] Creating Layer conv5_3_relu5_3_0_split
I0413 18:54:57.525558 14539 net.cpp:434] conv5_3_relu5_3_0_split <- conv5_3
I0413 18:54:57.525565 14539 net.cpp:408] conv5_3_relu5_3_0_split -> conv5_3_relu5_3_0_split_0
I0413 18:54:57.525573 14539 net.cpp:408] conv5_3_relu5_3_0_split -> conv5_3_relu5_3_0_split_1
I0413 18:54:57.525604 14539 net.cpp:150] Setting up conv5_3_relu5_3_0_split
I0413 18:54:57.525619 14539 net.cpp:157] Top shape: 1 512 63 94 (3032064)
I0413 18:54:57.525624 14539 net.cpp:157] Top shape: 1 512 63 94 (3032064)
I0413 18:54:57.525626 14539 net.cpp:165] Memory required for data: 3499986420
I0413 18:54:57.525629 14539 layer_factory.hpp:77] Creating layer rpn_big_conv1
I0413 18:54:57.525642 14539 net.cpp:100] Creating Layer rpn_big_conv1
I0413 18:54:57.525646 14539 net.cpp:434] rpn_big_conv1 <- conv5_3_relu5_3_0_split_0
I0413 18:54:57.525655 14539 net.cpp:408] rpn_big_conv1 -> rpn_big_conv1
I0413 18:54:57.553342 14539 net.cpp:150] Setting up rpn_big_conv1
I0413 18:54:57.553375 14539 net.cpp:157] Top shape: 1 512 63 94 (3032064)
I0413 18:54:57.553387 14539 net.cpp:165] Memory required for data: 3512114676
I0413 18:54:57.553398 14539 layer_factory.hpp:77] Creating layer rpn_big_conv1_relu
I0413 18:54:57.553409 14539 net.cpp:100] Creating Layer rpn_big_conv1_relu
I0413 18:54:57.553414 14539 net.cpp:434] rpn_big_conv1_relu <- rpn_big_conv1
I0413 18:54:57.553423 14539 net.cpp:395] rpn_big_conv1_relu -> rpn_big_conv1 (in-place)
I0413 18:54:57.553433 14539 net.cpp:150] Setting up rpn_big_conv1_relu
I0413 18:54:57.553438 14539 net.cpp:157] Top shape: 1 512 63 94 (3032064)
I0413 18:54:57.553442 14539 net.cpp:165] Memory required for data: 3524242932
I0413 18:54:57.553444 14539 layer_factory.hpp:77] Creating layer rpn_big_conv2
I0413 18:54:57.553454 14539 net.cpp:100] Creating Layer rpn_big_conv2
I0413 18:54:57.553458 14539 net.cpp:434] rpn_big_conv2 <- rpn_big_conv1
I0413 18:54:57.553465 14539 net.cpp:408] rpn_big_conv2 -> rpn_big_conv2
I0413 18:54:57.580242 14539 net.cpp:150] Setting up rpn_big_conv2
I0413 18:54:57.580273 14539 net.cpp:157] Top shape: 1 512 63 94 (3032064)
I0413 18:54:57.580286 14539 net.cpp:165] Memory required for data: 3536371188
I0413 18:54:57.580296 14539 layer_factory.hpp:77] Creating layer rpn_big_conv2_relu
I0413 18:54:57.580307 14539 net.cpp:100] Creating Layer rpn_big_conv2_relu
I0413 18:54:57.580312 14539 net.cpp:434] rpn_big_conv2_relu <- rpn_big_conv2
I0413 18:54:57.580322 14539 net.cpp:395] rpn_big_conv2_relu -> rpn_big_conv2 (in-place)
I0413 18:54:57.580332 14539 net.cpp:150] Setting up rpn_big_conv2_relu
I0413 18:54:57.580338 14539 net.cpp:157] Top shape: 1 512 63 94 (3032064)
I0413 18:54:57.580340 14539 net.cpp:165] Memory required for data: 3548499444
I0413 18:54:57.580343 14539 layer_factory.hpp:77] Creating layer rpn_big_conv2_drop
I0413 18:54:57.580350 14539 net.cpp:100] Creating Layer rpn_big_conv2_drop
I0413 18:54:57.580353 14539 net.cpp:434] rpn_big_conv2_drop <- rpn_big_conv2
I0413 18:54:57.580358 14539 net.cpp:395] rpn_big_conv2_drop -> rpn_big_conv2 (in-place)
I0413 18:54:57.580385 14539 net.cpp:150] Setting up rpn_big_conv2_drop
I0413 18:54:57.580392 14539 net.cpp:157] Top shape: 1 512 63 94 (3032064)
I0413 18:54:57.580395 14539 net.cpp:165] Memory required for data: 3560627700
I0413 18:54:57.580399 14539 layer_factory.hpp:77] Creating layer rpn_big_conv2_rpn_big_conv2_drop_0_split
I0413 18:54:57.580404 14539 net.cpp:100] Creating Layer rpn_big_conv2_rpn_big_conv2_drop_0_split
I0413 18:54:57.580407 14539 net.cpp:434] rpn_big_conv2_rpn_big_conv2_drop_0_split <- rpn_big_conv2
I0413 18:54:57.580415 14539 net.cpp:408] rpn_big_conv2_rpn_big_conv2_drop_0_split -> rpn_big_conv2_rpn_big_conv2_drop_0_split_0
I0413 18:54:57.580423 14539 net.cpp:408] rpn_big_conv2_rpn_big_conv2_drop_0_split -> rpn_big_conv2_rpn_big_conv2_drop_0_split_1
I0413 18:54:57.580461 14539 net.cpp:150] Setting up rpn_big_conv2_rpn_big_conv2_drop_0_split
I0413 18:54:57.580468 14539 net.cpp:157] Top shape: 1 512 63 94 (3032064)
I0413 18:54:57.580472 14539 net.cpp:157] Top shape: 1 512 63 94 (3032064)
I0413 18:54:57.580476 14539 net.cpp:165] Memory required for data: 3584884212
I0413 18:54:57.580479 14539 layer_factory.hpp:77] Creating layer rpn_big_output_cls
I0413 18:54:57.580489 14539 net.cpp:100] Creating Layer rpn_big_output_cls
I0413 18:54:57.580494 14539 net.cpp:434] rpn_big_output_cls <- rpn_big_conv2_rpn_big_conv2_drop_0_split_0
I0413 18:54:57.580502 14539 net.cpp:408] rpn_big_output_cls -> rpn_big_output_cls
I0413 18:54:57.599894 14539 net.cpp:150] Setting up rpn_big_output_cls
I0413 18:54:57.599925 14539 net.cpp:157] Top shape: 1 384 63 94 (2274048)
I0413 18:54:57.599928 14539 net.cpp:165] Memory required for data: 3593980404
I0413 18:54:57.599938 14539 layer_factory.hpp:77] Creating layer rpn_big_output_cls_relu
I0413 18:54:57.599949 14539 net.cpp:100] Creating Layer rpn_big_output_cls_relu
I0413 18:54:57.599954 14539 net.cpp:434] rpn_big_output_cls_relu <- rpn_big_output_cls
I0413 18:54:57.599963 14539 net.cpp:395] rpn_big_output_cls_relu -> rpn_big_output_cls (in-place)
I0413 18:54:57.599974 14539 net.cpp:150] Setting up rpn_big_output_cls_relu
I0413 18:54:57.599979 14539 net.cpp:157] Top shape: 1 384 63 94 (2274048)
I0413 18:54:57.599982 14539 net.cpp:165] Memory required for data: 3603076596
I0413 18:54:57.599985 14539 layer_factory.hpp:77] Creating layer rpn_big_cls_score
I0413 18:54:57.599997 14539 net.cpp:100] Creating Layer rpn_big_cls_score
I0413 18:54:57.600000 14539 net.cpp:434] rpn_big_cls_score <- rpn_big_output_cls
I0413 18:54:57.600008 14539 net.cpp:408] rpn_big_cls_score -> rpn_big_cls_score
I0413 18:54:57.602325 14539 net.cpp:150] Setting up rpn_big_cls_score
I0413 18:54:57.602341 14539 net.cpp:157] Top shape: 1 52 61 92 (291824)
I0413 18:54:57.602345 14539 net.cpp:165] Memory required for data: 3604243892
I0413 18:54:57.602370 14539 layer_factory.hpp:77] Creating layer rpn_big_cls_score_rpn_big_cls_score_0_split
I0413 18:54:57.602377 14539 net.cpp:100] Creating Layer rpn_big_cls_score_rpn_big_cls_score_0_split
I0413 18:54:57.602381 14539 net.cpp:434] rpn_big_cls_score_rpn_big_cls_score_0_split <- rpn_big_cls_score
I0413 18:54:57.602388 14539 net.cpp:408] rpn_big_cls_score_rpn_big_cls_score_0_split -> rpn_big_cls_score_rpn_big_cls_score_0_split_0
I0413 18:54:57.602396 14539 net.cpp:408] rpn_big_cls_score_rpn_big_cls_score_0_split -> rpn_big_cls_score_rpn_big_cls_score_0_split_1
I0413 18:54:57.602429 14539 net.cpp:150] Setting up rpn_big_cls_score_rpn_big_cls_score_0_split
I0413 18:54:57.602437 14539 net.cpp:157] Top shape: 1 52 61 92 (291824)
I0413 18:54:57.602442 14539 net.cpp:157] Top shape: 1 52 61 92 (291824)
I0413 18:54:57.602444 14539 net.cpp:165] Memory required for data: 3606578484
I0413 18:54:57.602447 14539 layer_factory.hpp:77] Creating layer rpn_big_cls_score_reshape
I0413 18:54:57.602457 14539 net.cpp:100] Creating Layer rpn_big_cls_score_reshape
I0413 18:54:57.602463 14539 net.cpp:434] rpn_big_cls_score_reshape <- rpn_big_cls_score_rpn_big_cls_score_0_split_0
I0413 18:54:57.602469 14539 net.cpp:408] rpn_big_cls_score_reshape -> rpn_big_cls_score_reshape
I0413 18:54:57.602493 14539 net.cpp:150] Setting up rpn_big_cls_score_reshape
I0413 18:54:57.602500 14539 net.cpp:157] Top shape: 1 2 1586 92 (291824)
I0413 18:54:57.602504 14539 net.cpp:165] Memory required for data: 3607745780
I0413 18:54:57.602506 14539 layer_factory.hpp:77] Creating layer rpn_big_cls_score_reshape_rpn_big_cls_score_reshape_0_split
I0413 18:54:57.602517 14539 net.cpp:100] Creating Layer rpn_big_cls_score_reshape_rpn_big_cls_score_reshape_0_split
I0413 18:54:57.602522 14539 net.cpp:434] rpn_big_cls_score_reshape_rpn_big_cls_score_reshape_0_split <- rpn_big_cls_score_reshape
I0413 18:54:57.602529 14539 net.cpp:408] rpn_big_cls_score_reshape_rpn_big_cls_score_reshape_0_split -> rpn_big_cls_score_reshape_rpn_big_cls_score_reshape_0_split_0
I0413 18:54:57.602536 14539 net.cpp:408] rpn_big_cls_score_reshape_rpn_big_cls_score_reshape_0_split -> rpn_big_cls_score_reshape_rpn_big_cls_score_reshape_0_split_1
I0413 18:54:57.602568 14539 net.cpp:150] Setting up rpn_big_cls_score_reshape_rpn_big_cls_score_reshape_0_split
I0413 18:54:57.602576 14539 net.cpp:157] Top shape: 1 2 1586 92 (291824)
I0413 18:54:57.602579 14539 net.cpp:157] Top shape: 1 2 1586 92 (291824)
I0413 18:54:57.602582 14539 net.cpp:165] Memory required for data: 3610080372
I0413 18:54:57.602586 14539 layer_factory.hpp:77] Creating layer rpn_big_cls_prob
I0413 18:54:57.602591 14539 net.cpp:100] Creating Layer rpn_big_cls_prob
I0413 18:54:57.602596 14539 net.cpp:434] rpn_big_cls_prob <- rpn_big_cls_score_reshape_rpn_big_cls_score_reshape_0_split_0
I0413 18:54:57.602602 14539 net.cpp:408] rpn_big_cls_prob -> rpn_big_cls_prob
I0413 18:54:57.602653 14539 net.cpp:150] Setting up rpn_big_cls_prob
I0413 18:54:57.602659 14539 net.cpp:157] Top shape: 1 2 1586 92 (291824)
I0413 18:54:57.602663 14539 net.cpp:165] Memory required for data: 3611247668
I0413 18:54:57.602666 14539 layer_factory.hpp:77] Creating layer rpn_big_cls_prob_reshape
I0413 18:54:57.602671 14539 net.cpp:100] Creating Layer rpn_big_cls_prob_reshape
I0413 18:54:57.602675 14539 net.cpp:434] rpn_big_cls_prob_reshape <- rpn_big_cls_prob
I0413 18:54:57.602682 14539 net.cpp:408] rpn_big_cls_prob_reshape -> rpn_big_cls_prob_reshape
I0413 18:54:57.602704 14539 net.cpp:150] Setting up rpn_big_cls_prob_reshape
I0413 18:54:57.602710 14539 net.cpp:157] Top shape: 1 52 61 92 (291824)
I0413 18:54:57.602712 14539 net.cpp:165] Memory required for data: 3612414964
I0413 18:54:57.602715 14539 layer_factory.hpp:77] Creating layer rpn_big_cls_prob_reshape_rpn_big_cls_prob_reshape_0_split
I0413 18:54:57.602720 14539 net.cpp:100] Creating Layer rpn_big_cls_prob_reshape_rpn_big_cls_prob_reshape_0_split
I0413 18:54:57.602725 14539 net.cpp:434] rpn_big_cls_prob_reshape_rpn_big_cls_prob_reshape_0_split <- rpn_big_cls_prob_reshape
I0413 18:54:57.602730 14539 net.cpp:408] rpn_big_cls_prob_reshape_rpn_big_cls_prob_reshape_0_split -> rpn_big_cls_prob_reshape_rpn_big_cls_prob_reshape_0_split_0
I0413 18:54:57.602738 14539 net.cpp:408] rpn_big_cls_prob_reshape_rpn_big_cls_prob_reshape_0_split -> rpn_big_cls_prob_reshape_rpn_big_cls_prob_reshape_0_split_1
I0413 18:54:57.602766 14539 net.cpp:150] Setting up rpn_big_cls_prob_reshape_rpn_big_cls_prob_reshape_0_split
I0413 18:54:57.602773 14539 net.cpp:157] Top shape: 1 52 61 92 (291824)
I0413 18:54:57.602777 14539 net.cpp:157] Top shape: 1 52 61 92 (291824)
I0413 18:54:57.602780 14539 net.cpp:165] Memory required for data: 3614749556
I0413 18:54:57.602783 14539 layer_factory.hpp:77] Creating layer rpn_big_anchor_target
I0413 18:54:57.604073 14539 net.cpp:100] Creating Layer rpn_big_anchor_target
I0413 18:54:57.604089 14539 net.cpp:434] rpn_big_anchor_target <- rpn_big_cls_score_rpn_big_cls_score_0_split_1
I0413 18:54:57.604094 14539 net.cpp:434] rpn_big_anchor_target <- input_gt_boxes_input_2_split_0
I0413 18:54:57.604100 14539 net.cpp:434] rpn_big_anchor_target <- input_ignored_boxes
I0413 18:54:57.604104 14539 net.cpp:434] rpn_big_anchor_target <- input_im_info_input_1_split_0
I0413 18:54:57.604109 14539 net.cpp:434] rpn_big_anchor_target <- input_data_input_0_split_1
I0413 18:54:57.604113 14539 net.cpp:434] rpn_big_anchor_target <- rpn_big_cls_prob_reshape_rpn_big_cls_prob_reshape_0_split_0
I0413 18:54:57.604120 14539 net.cpp:408] rpn_big_anchor_target -> rpn_big_anchor_target_labels
I0413 18:54:57.604131 14539 net.cpp:408] rpn_big_anchor_target -> rpn_big_anchor_target_bbox_targets
I0413 18:54:57.604140 14539 net.cpp:408] rpn_big_anchor_target -> rpn_big_anchor_target_inside_weights
I0413 18:54:57.604147 14539 net.cpp:408] rpn_big_anchor_target -> rpn_big_anchor_target_outside_weights
I0413 18:54:57.608875 14539 net.cpp:150] Setting up rpn_big_anchor_target
I0413 18:54:57.608918 14539 net.cpp:157] Top shape: 1 1 1586 92 (145912)
I0413 18:54:57.608924 14539 net.cpp:157] Top shape: 1 104 61 92 (583648)
I0413 18:54:57.608929 14539 net.cpp:157] Top shape: 1 104 61 92 (583648)
I0413 18:54:57.608933 14539 net.cpp:157] Top shape: 1 104 61 92 (583648)
I0413 18:54:57.608937 14539 net.cpp:165] Memory required for data: 3622336980
I0413 18:54:57.608942 14539 layer_factory.hpp:77] Creating layer rpn_big_loss_cls
I0413 18:54:57.608952 14539 net.cpp:100] Creating Layer rpn_big_loss_cls
I0413 18:54:57.608959 14539 net.cpp:434] rpn_big_loss_cls <- rpn_big_cls_score_reshape_rpn_big_cls_score_reshape_0_split_1
I0413 18:54:57.608965 14539 net.cpp:434] rpn_big_loss_cls <- rpn_big_anchor_target_labels
I0413 18:54:57.608973 14539 net.cpp:408] rpn_big_loss_cls -> rpn_big_loss_cls
I0413 18:54:57.608984 14539 layer_factory.hpp:77] Creating layer rpn_big_loss_cls
I0413 18:54:57.609628 14539 net.cpp:150] Setting up rpn_big_loss_cls
I0413 18:54:57.609644 14539 net.cpp:157] Top shape: (1)
I0413 18:54:57.609647 14539 net.cpp:160]     with loss weight 1
I0413 18:54:57.609666 14539 net.cpp:165] Memory required for data: 3622336984
I0413 18:54:57.609671 14539 layer_factory.hpp:77] Creating layer rpn_big_output_box
I0413 18:54:57.609685 14539 net.cpp:100] Creating Layer rpn_big_output_box
I0413 18:54:57.609689 14539 net.cpp:434] rpn_big_output_box <- rpn_big_conv2_rpn_big_conv2_drop_0_split_1
I0413 18:54:57.609697 14539 net.cpp:408] rpn_big_output_box -> rpn_big_output_box
I0413 18:54:57.631489 14539 net.cpp:150] Setting up rpn_big_output_box
I0413 18:54:57.631521 14539 net.cpp:157] Top shape: 1 384 63 94 (2274048)
I0413 18:54:57.631534 14539 net.cpp:165] Memory required for data: 3631433176
I0413 18:54:57.631544 14539 layer_factory.hpp:77] Creating layer rpn_big_output_box_relu
I0413 18:54:57.631554 14539 net.cpp:100] Creating Layer rpn_big_output_box_relu
I0413 18:54:57.631561 14539 net.cpp:434] rpn_big_output_box_relu <- rpn_big_output_box
I0413 18:54:57.631569 14539 net.cpp:395] rpn_big_output_box_relu -> rpn_big_output_box (in-place)
I0413 18:54:57.631579 14539 net.cpp:150] Setting up rpn_big_output_box_relu
I0413 18:54:57.631584 14539 net.cpp:157] Top shape: 1 384 63 94 (2274048)
I0413 18:54:57.631587 14539 net.cpp:165] Memory required for data: 3640529368
I0413 18:54:57.631590 14539 layer_factory.hpp:77] Creating layer rpn_big_bbox_pred
I0413 18:54:57.631603 14539 net.cpp:100] Creating Layer rpn_big_bbox_pred
I0413 18:54:57.631605 14539 net.cpp:434] rpn_big_bbox_pred <- rpn_big_output_box
I0413 18:54:57.631613 14539 net.cpp:408] rpn_big_bbox_pred -> rpn_big_bbox_pred
I0413 18:54:57.635777 14539 net.cpp:150] Setting up rpn_big_bbox_pred
I0413 18:54:57.635807 14539 net.cpp:157] Top shape: 1 104 61 92 (583648)
I0413 18:54:57.635812 14539 net.cpp:165] Memory required for data: 3642863960
I0413 18:54:57.635825 14539 layer_factory.hpp:77] Creating layer rpn_big_bbox_pred_rpn_big_bbox_pred_0_split
I0413 18:54:57.635838 14539 net.cpp:100] Creating Layer rpn_big_bbox_pred_rpn_big_bbox_pred_0_split
I0413 18:54:57.635843 14539 net.cpp:434] rpn_big_bbox_pred_rpn_big_bbox_pred_0_split <- rpn_big_bbox_pred
I0413 18:54:57.635855 14539 net.cpp:408] rpn_big_bbox_pred_rpn_big_bbox_pred_0_split -> rpn_big_bbox_pred_rpn_big_bbox_pred_0_split_0
I0413 18:54:57.635869 14539 net.cpp:408] rpn_big_bbox_pred_rpn_big_bbox_pred_0_split -> rpn_big_bbox_pred_rpn_big_bbox_pred_0_split_1
I0413 18:54:57.635915 14539 net.cpp:150] Setting up rpn_big_bbox_pred_rpn_big_bbox_pred_0_split
I0413 18:54:57.635926 14539 net.cpp:157] Top shape: 1 104 61 92 (583648)
I0413 18:54:57.635929 14539 net.cpp:157] Top shape: 1 104 61 92 (583648)
I0413 18:54:57.635932 14539 net.cpp:165] Memory required for data: 3647533144
I0413 18:54:57.635936 14539 layer_factory.hpp:77] Creating layer rpn_big_loss_bbox
I0413 18:54:57.636324 14539 net.cpp:100] Creating Layer rpn_big_loss_bbox
I0413 18:54:57.636335 14539 net.cpp:434] rpn_big_loss_bbox <- rpn_big_bbox_pred_rpn_big_bbox_pred_0_split_0
I0413 18:54:57.636342 14539 net.cpp:434] rpn_big_loss_bbox <- rpn_big_anchor_target_bbox_targets
I0413 18:54:57.636345 14539 net.cpp:434] rpn_big_loss_bbox <- rpn_big_anchor_target_inside_weights
I0413 18:54:57.636350 14539 net.cpp:434] rpn_big_loss_bbox <- rpn_big_anchor_target_outside_weights
I0413 18:54:57.636356 14539 net.cpp:408] rpn_big_loss_bbox -> rpn_big_loss_bbox
I0413 18:54:57.638486 14539 net.cpp:150] Setting up rpn_big_loss_bbox
I0413 18:54:57.638517 14539 net.cpp:157] Top shape: 1 (1)
I0413 18:54:57.638521 14539 net.cpp:160]     with loss weight 1
I0413 18:54:57.638533 14539 net.cpp:165] Memory required for data: 3647533148
I0413 18:54:57.638540 14539 layer_factory.hpp:77] Creating layer proposal
I0413 18:54:57.638938 14539 net.cpp:100] Creating Layer proposal
I0413 18:54:57.638950 14539 net.cpp:434] proposal <- rpn_big_cls_prob_reshape_rpn_big_cls_prob_reshape_0_split_1
I0413 18:54:57.638957 14539 net.cpp:434] proposal <- rpn_big_bbox_pred_rpn_big_bbox_pred_0_split_1
I0413 18:54:57.638962 14539 net.cpp:434] proposal <- input_im_info_input_1_split_1
I0413 18:54:57.638970 14539 net.cpp:408] proposal -> rpn_rois
I0413 18:54:57.643875 14539 net.cpp:150] Setting up proposal
I0413 18:54:57.643898 14539 net.cpp:157] Top shape: 1 5 (5)
I0413 18:54:57.643910 14539 net.cpp:165] Memory required for data: 3647533168
I0413 18:54:57.643918 14539 layer_factory.hpp:77] Creating layer roi-data
I0413 18:54:57.644311 14539 net.cpp:100] Creating Layer roi-data
I0413 18:54:57.644325 14539 net.cpp:434] roi-data <- rpn_rois
I0413 18:54:57.644335 14539 net.cpp:434] roi-data <- input_gt_boxes_input_2_split_1
I0413 18:54:57.644345 14539 net.cpp:408] roi-data -> rois
I0413 18:54:57.644359 14539 net.cpp:408] roi-data -> labels
I0413 18:54:57.644371 14539 net.cpp:408] roi-data -> bbox_targets
I0413 18:54:57.644382 14539 net.cpp:408] roi-data -> bbox_inside_weights
I0413 18:54:57.644394 14539 net.cpp:408] roi-data -> bbox_outside_weights
I0413 18:54:57.644405 14539 net.cpp:408] roi-data -> pid_label
I0413 18:54:57.645355 14539 net.cpp:150] Setting up roi-data
I0413 18:54:57.645367 14539 net.cpp:157] Top shape: 1 5 (5)
I0413 18:54:57.645372 14539 net.cpp:157] Top shape: 1 1 (1)
I0413 18:54:57.645385 14539 net.cpp:157] Top shape: 1 8 (8)
I0413 18:54:57.645388 14539 net.cpp:157] Top shape: 1 8 (8)
I0413 18:54:57.645392 14539 net.cpp:157] Top shape: 1 8 (8)
I0413 18:54:57.645395 14539 net.cpp:157] Top shape: (0)
I0413 18:54:57.645398 14539 net.cpp:165] Memory required for data: 3647533288
I0413 18:54:57.645401 14539 layer_factory.hpp:77] Creating layer roi-pool
I0413 18:54:57.645409 14539 net.cpp:100] Creating Layer roi-pool
I0413 18:54:57.645413 14539 net.cpp:434] roi-pool <- conv5_3_relu5_3_0_split_1
I0413 18:54:57.645418 14539 net.cpp:434] roi-pool <- rois
I0413 18:54:57.645426 14539 net.cpp:408] roi-pool -> roi-pool
I0413 18:54:57.645433 14539 roi_pooling_layer.cpp:33] Spatial scale: 0.0625
I0413 18:54:57.645445 14539 roi_pooling_layer.cpp:34] Box scale: 1
I0413 18:54:57.645483 14539 net.cpp:150] Setting up roi-pool
I0413 18:54:57.645489 14539 net.cpp:157] Top shape: 1 512 7 7 (25088)
I0413 18:54:57.645493 14539 net.cpp:165] Memory required for data: 3647633640
I0413 18:54:57.645496 14539 layer_factory.hpp:77] Creating layer fc6
I0413 18:54:57.645504 14539 net.cpp:100] Creating Layer fc6
I0413 18:54:57.645509 14539 net.cpp:434] fc6 <- roi-pool
I0413 18:54:57.645514 14539 net.cpp:408] fc6 -> fc6
I0413 18:54:57.809890 14539 net.cpp:150] Setting up fc6
I0413 18:54:57.809937 14539 net.cpp:157] Top shape: 1 4096 (4096)
I0413 18:54:57.809942 14539 net.cpp:165] Memory required for data: 3647650024
I0413 18:54:57.809953 14539 layer_factory.hpp:77] Creating layer relu6
I0413 18:54:57.809964 14539 net.cpp:100] Creating Layer relu6
I0413 18:54:57.809968 14539 net.cpp:434] relu6 <- fc6
I0413 18:54:57.809976 14539 net.cpp:395] relu6 -> fc6 (in-place)
I0413 18:54:57.809986 14539 net.cpp:150] Setting up relu6
I0413 18:54:57.809991 14539 net.cpp:157] Top shape: 1 4096 (4096)
I0413 18:54:57.809993 14539 net.cpp:165] Memory required for data: 3647666408
I0413 18:54:57.809998 14539 layer_factory.hpp:77] Creating layer drop6
I0413 18:54:57.810009 14539 net.cpp:100] Creating Layer drop6
I0413 18:54:57.810014 14539 net.cpp:434] drop6 <- fc6
I0413 18:54:57.810024 14539 net.cpp:395] drop6 -> fc6 (in-place)
I0413 18:54:57.810065 14539 net.cpp:150] Setting up drop6
I0413 18:54:57.810075 14539 net.cpp:157] Top shape: 1 4096 (4096)
I0413 18:54:57.810081 14539 net.cpp:165] Memory required for data: 3647682792
I0413 18:54:57.810086 14539 layer_factory.hpp:77] Creating layer fc7
I0413 18:54:57.810096 14539 net.cpp:100] Creating Layer fc7
I0413 18:54:57.810102 14539 net.cpp:434] fc7 <- fc6
I0413 18:54:57.810113 14539 net.cpp:408] fc7 -> fc7
I0413 18:54:57.837654 14539 net.cpp:150] Setting up fc7
I0413 18:54:57.837687 14539 net.cpp:157] Top shape: 1 4096 (4096)
I0413 18:54:57.837700 14539 net.cpp:165] Memory required for data: 3647699176
I0413 18:54:57.837712 14539 layer_factory.hpp:77] Creating layer relu7
I0413 18:54:57.837733 14539 net.cpp:100] Creating Layer relu7
I0413 18:54:57.837739 14539 net.cpp:434] relu7 <- fc7
I0413 18:54:57.837748 14539 net.cpp:395] relu7 -> fc7 (in-place)
I0413 18:54:57.837757 14539 net.cpp:150] Setting up relu7
I0413 18:54:57.837761 14539 net.cpp:157] Top shape: 1 4096 (4096)
I0413 18:54:57.837764 14539 net.cpp:165] Memory required for data: 3647715560
I0413 18:54:57.837769 14539 layer_factory.hpp:77] Creating layer drop7
I0413 18:54:57.837774 14539 net.cpp:100] Creating Layer drop7
I0413 18:54:57.837790 14539 net.cpp:434] drop7 <- fc7
I0413 18:54:57.837795 14539 net.cpp:395] drop7 -> fc7 (in-place)
I0413 18:54:57.837839 14539 net.cpp:150] Setting up drop7
I0413 18:54:57.837846 14539 net.cpp:157] Top shape: 1 4096 (4096)
I0413 18:54:57.837849 14539 net.cpp:165] Memory required for data: 3647731944
I0413 18:54:57.837852 14539 layer_factory.hpp:77] Creating layer fc7_drop7_0_split
I0413 18:54:57.837867 14539 net.cpp:100] Creating Layer fc7_drop7_0_split
I0413 18:54:57.837872 14539 net.cpp:434] fc7_drop7_0_split <- fc7
I0413 18:54:57.837878 14539 net.cpp:408] fc7_drop7_0_split -> fc7_drop7_0_split_0
I0413 18:54:57.837895 14539 net.cpp:408] fc7_drop7_0_split -> fc7_drop7_0_split_1
I0413 18:54:57.837929 14539 net.cpp:150] Setting up fc7_drop7_0_split
I0413 18:54:57.837935 14539 net.cpp:157] Top shape: 1 4096 (4096)
I0413 18:54:57.837939 14539 net.cpp:157] Top shape: 1 4096 (4096)
I0413 18:54:57.837942 14539 net.cpp:165] Memory required for data: 3647764712
I0413 18:54:57.837945 14539 layer_factory.hpp:77] Creating layer bbox_pred
I0413 18:54:57.837952 14539 net.cpp:100] Creating Layer bbox_pred
I0413 18:54:57.837955 14539 net.cpp:434] bbox_pred <- fc7_drop7_0_split_0
I0413 18:54:57.837962 14539 net.cpp:408] bbox_pred -> bbox_pred
I0413 18:54:57.838405 14539 net.cpp:150] Setting up bbox_pred
I0413 18:54:57.838418 14539 net.cpp:157] Top shape: 1 8 (8)
I0413 18:54:57.838421 14539 net.cpp:165] Memory required for data: 3647764744
I0413 18:54:57.838428 14539 layer_factory.hpp:77] Creating layer loss_bbox
I0413 18:54:57.838438 14539 net.cpp:100] Creating Layer loss_bbox
I0413 18:54:57.838443 14539 net.cpp:434] loss_bbox <- bbox_pred
I0413 18:54:57.838446 14539 net.cpp:434] loss_bbox <- bbox_targets
I0413 18:54:57.838450 14539 net.cpp:434] loss_bbox <- bbox_inside_weights
I0413 18:54:57.838454 14539 net.cpp:434] loss_bbox <- bbox_outside_weights
I0413 18:54:57.838459 14539 net.cpp:408] loss_bbox -> loss_bbox
I0413 18:54:57.838532 14539 net.cpp:150] Setting up loss_bbox
I0413 18:54:57.838542 14539 net.cpp:157] Top shape: (1)
I0413 18:54:57.838546 14539 net.cpp:160]     with loss weight 1
I0413 18:54:57.838557 14539 net.cpp:165] Memory required for data: 3647764748
I0413 18:54:57.838559 14539 layer_factory.hpp:77] Creating layer feat
I0413 18:54:57.838565 14539 net.cpp:100] Creating Layer feat
I0413 18:54:57.838569 14539 net.cpp:434] feat <- fc7_drop7_0_split_1
I0413 18:54:57.838577 14539 net.cpp:408] feat -> feat
I0413 18:54:57.849469 14539 net.cpp:150] Setting up feat
I0413 18:54:57.849498 14539 net.cpp:157] Top shape: 1 256 (256)
I0413 18:54:57.849510 14539 net.cpp:165] Memory required for data: 3647765772
I0413 18:54:57.849521 14539 layer_factory.hpp:77] Creating layer relu8
I0413 18:54:57.849531 14539 net.cpp:100] Creating Layer relu8
I0413 18:54:57.849536 14539 net.cpp:434] relu8 <- feat
I0413 18:54:57.849544 14539 net.cpp:395] relu8 -> feat (in-place)
I0413 18:54:57.849553 14539 net.cpp:150] Setting up relu8
I0413 18:54:57.849557 14539 net.cpp:157] Top shape: 1 256 (256)
I0413 18:54:57.849560 14539 net.cpp:165] Memory required for data: 3647766796
I0413 18:54:57.849563 14539 layer_factory.hpp:77] Creating layer drop8
I0413 18:54:57.849570 14539 net.cpp:100] Creating Layer drop8
I0413 18:54:57.849572 14539 net.cpp:434] drop8 <- feat
I0413 18:54:57.849576 14539 net.cpp:395] drop8 -> feat (in-place)
I0413 18:54:57.849598 14539 net.cpp:150] Setting up drop8
I0413 18:54:57.849606 14539 net.cpp:157] Top shape: 1 256 (256)
I0413 18:54:57.849608 14539 net.cpp:165] Memory required for data: 3647767820
I0413 18:54:57.849611 14539 layer_factory.hpp:77] Creating layer pid_score
I0413 18:54:57.849618 14539 net.cpp:100] Creating Layer pid_score
I0413 18:54:57.849624 14539 net.cpp:434] pid_score <- feat
I0413 18:54:57.849630 14539 net.cpp:408] pid_score -> pid_score
I0413 18:54:57.864971 14539 net.cpp:150] Setting up pid_score
I0413 18:54:57.865000 14539 net.cpp:157] Top shape: 1 5533 (5533)
I0413 18:54:57.865012 14539 net.cpp:165] Memory required for data: 3647789952
I0413 18:54:57.865023 14539 layer_factory.hpp:77] Creating layer pid_loss
I0413 18:54:57.865034 14539 net.cpp:100] Creating Layer pid_loss
I0413 18:54:57.865039 14539 net.cpp:434] pid_loss <- pid_score
I0413 18:54:57.865046 14539 net.cpp:434] pid_loss <- pid_label
I0413 18:54:57.865056 14539 net.cpp:408] pid_loss -> pid_loss
…
