…
I0413 18:58:02.036864 14753 solver.cpp:48] Initializing solver from parameters: 
base_lr: 0.001
display: 20
lr_policy: "multistep"
gamma: 0.1
momentum: 0.9
weight_decay: 0.0005
snapshot: 0
snapshot_prefix: "faces_example"
net_param {
  name: "GeneratedModel_13_04_2017_18_58"
  layer {
    name: "input"
    type: "Python"
    top: "input_data"
    top: "input_im_info"
    top: "input_gt_boxes"
    top: "input_ignored_boxes"
    python_param {
      module: "layers.roi_data_layer"
      layer: "RoIDataLayer"
      param_str: "{\"num_classes\": 2}"
    }
  }
  layer {
    name: "conv1_1"
    type: "Convolution"
    bottom: "input_data"
    top: "conv1_1"
    param {
      lr_mult: 0
      decay_mult: 0
    }
    param {
      lr_mult: 0
      decay_mult: 0
    }
    convolution_param {
      num_output: 64
      pad: 1
      kernel_size: 3
    }
  }
  layer {
    name: "relu1_1"
    type: "ReLU"
    bottom: "conv1_1"
    top: "conv1_1"
  }
  layer {
    name: "conv1_2"
    type: "Convolution"
    bottom: "conv1_1"
    top: "conv1_2"
    param {
      lr_mult: 0
      decay_mult: 0
    }
    param {
      lr_mult: 0
      decay_mult: 0
    }
    convolution_param {
      num_output: 64
      pad: 1
      kernel_size: 3
    }
  }
  layer {
    name: "relu1_2"
    type: "ReLU"
    bottom: "conv1_2"
    top: "conv1_2"
  }
  layer {
    name: "pool1"
    type: "Pooling"
    bottom: "conv1_2"
    top: "pool1"
    pooling_param {
      pool: MAX
      kernel_size: 2
      stride: 2
    }
  }
  layer {
    name: "conv2_1"
    type: "Convolution"
    bottom: "pool1"
    top: "conv2_1"
    param {
      lr_mult: 0
      decay_mult: 0
    }
    param {
      lr_mult: 0
      decay_mult: 0
    }
    convolution_param {
      num_output: 128
      pad: 1
      kernel_size: 3
    }
  }
  layer {
    name: "relu2_1"
    type: "ReLU"
    bottom: "conv2_1"
    top: "conv2_1"
  }
  layer {
    name: "conv2_2"
    type: "Convolution"
    bottom: "conv2_1"
    top: "conv2_2"
    param {
      lr_mult: 0
      decay_mult: 0
    }
    param {
      lr_mult: 0
      decay_mult: 0
    }
    convolution_param {
      num_output: 128
      pad: 1
      kernel_size: 3
    }
  }
  layer {
    name: "relu2_2"
    type: "ReLU"
    bottom: "conv2_2"
    top: "conv2_2"
  }
  layer {
    name: "pool2"
    type: "Pooling"
    bottom: "conv2_2"
    top: "pool2"
    pooling_param {
      pool: MAX
      kernel_size: 2
      stride: 2
    }
  }
  layer {
    name: "conv3_1"
    type: "Convolution"
    bottom: "pool2"
    top: "conv3_1"
    param {
      lr_mult: 1
    }
    param {
      lr_mult: 2
    }
    convolution_param {
      num_output: 256
      pad: 1
      kernel_size: 3
    }
  }
  layer {
    name: "relu3_1"
    type: "ReLU"
    bottom: "conv3_1"
    top: "conv3_1"
  }
  layer {
    name: "conv3_2"
    type: "Convolution"
    bottom: "conv3_1"
    top: "conv3_2"
    param {
      lr_mult: 1
    }
    param {
      lr_mult: 2
    }
    convolution_param {
      num_output: 256
      pad: 1
      kernel_size: 3
    }
  }
  layer {
    name: "relu3_2"
    type: "ReLU"
    bottom: "conv3_2"
    top: "conv3_2"
  }
  layer {
    name: "conv3_3"
    type: "Convolution"
    bottom: "conv3_2"
    top: "conv3_3"
    param {
      lr_mult: 1
    }
    param {
      lr_mult: 2
    }
    convolution_param {
      num_output: 256
      pad: 1
      kernel_size: 3
    }
  }
  layer {
    name: "relu3_3"
    type: "ReLU"
    bottom: "conv3_3"
    top: "conv3_3"
  }
  layer {
    name: "pool3"
    type: "Pooling"
    bottom: "conv3_3"
    top: "pool3"
    pooling_param {
      pool: MAX
      kernel_size: 2
      stride: 2
    }
  }
  layer {
    name: "conv4_1"
    type: "Convolution"
    bottom: "pool3"
    top: "conv4_1"
    param {
      lr_mult: 1
    }
    param {
      lr_mult: 2
    }
    convolution_param {
      num_output: 512
      pad: 1
      kernel_size: 3
    }
  }
  layer {
    name: "relu4_1"
    type: "ReLU"
    bottom: "conv4_1"
    top: "conv4_1"
  }
  layer {
    name: "conv4_2"
    type: "Convolution"
    bottom: "conv4_1"
    top: "conv4_2"
    param {
      lr_mult: 1
    }
    param {
      lr_mult: 2
    }
    convolution_param {
      num_output: 512
      pad: 1
      kernel_size: 3
    }
  }
  layer {
    name: "relu4_2"
    type: "ReLU"
    bottom: "conv4_2"
    top: "conv4_2"
  }
  layer {
    name: "conv4_3"
    type: "Convolution"
    bottom: "conv4_2"
    top: "conv4_3"
    param {
      lr_mult: 1
    }
    param {
      lr_mult: 2
    }
    convolution_param {
      num_output: 512
      pad: 1
      kernel_size: 3
    }
  }
  layer {
    name: "relu4_3"
    type: "ReLU"
    bottom: "conv4_3"
    top: "conv4_3"
  }
  layer {
    name: "pool4"
    type: "Pooling"
    bottom: "conv4_3"
    top: "pool4"
    pooling_param {
      pool: MAX
      kernel_size: 2
      stride: 2
    }
  }
  layer {
    name: "conv5_1"
    type: "Convolution"
    bottom: "pool4"
    top: "conv5_1"
    param {
      lr_mult: 1
    }
    param {
      lr_mult: 2
    }
    convolution_param {
      num_output: 512
      pad: 1
      kernel_size: 3
    }
  }
  layer {
    name: "relu5_1"
    type: "ReLU"
    bottom: "conv5_1"
    top: "conv5_1"
  }
  layer {
    name: "conv5_2"
    type: "Convolution"
    bottom: "conv5_1"
    top: "conv5_2"
    param {
      lr_mult: 1
    }
    param {
      lr_mult: 2
    }
    convolution_param {
      num_output: 512
      pad: 1
      kernel_size: 3
    }
  }
  layer {
    name: "relu5_2"
    type: "ReLU"
    bottom: "conv5_2"
    top: "conv5_2"
  }
  layer {
    name: "conv5_3"
    type: "Convolution"
    bottom: "conv5_2"
    top: "conv5_3"
    param {
      lr_mult: 1
    }
    param {
      lr_mult: 2
    }
    convolution_param {
      num_output: 512
      pad: 1
      kernel_size: 3
    }
  }
  layer {
    name: "relu5_3"
    type: "ReLU"
    bottom: "conv5_3"
    top: "conv5_3"
  }
  layer {
    name: "rpn_big_conv1"
    type: "Convolution"
    bottom: "conv5_3"
    top: "rpn_big_conv1"
    param {
      lr_mult: 1
    }
    param {
      lr_mult: 2
    }
    convolution_param {
      num_output: 512
      pad: 1
      kernel_size: 3
      stride: 1
      weight_filler {
        type: "gaussian"
        mean: 0
        std: 0.01
      }
      bias_filler {
        type: "constant"
      }
    }
  }
  layer {
    name: "rpn_big_conv1_relu"
    type: "ReLU"
    bottom: "rpn_big_conv1"
    top: "rpn_big_conv1"
    relu_param {
      negative_slope: 0
    }
  }
  layer {
    name: "rpn_big_conv2"
    type: "Convolution"
    bottom: "rpn_big_conv1"
    top: "rpn_big_conv2"
    param {
      lr_mult: 1
    }
    param {
      lr_mult: 2
    }
    convolution_param {
      num_output: 512
      pad: 1
      kernel_size: 3
      stride: 1
      weight_filler {
        type: "gaussian"
        mean: 0
        std: 0.01
      }
      bias_filler {
        type: "constant"
      }
    }
  }
  layer {
    name: "rpn_big_conv2_relu"
    type: "ReLU"
    bottom: "rpn_big_conv2"
    top: "rpn_big_conv2"
    relu_param {
      negative_slope: 0
    }
  }
  layer {
    name: "rpn_big_conv2_drop"
    type: "Dropout"
    bottom: "rpn_big_conv2"
    top: "rpn_big_conv2"
    dropout_param {
      dropout_ratio: 0.3
    }
  }
  layer {
    name: "rpn_big_output_cls"
    type: "Convolution"
    bottom: "rpn_big_conv2"
    top: "rpn_big_output_cls"
    param {
      lr_mult: 1
    }
    param {
      lr_mult: 2
    }
    convolution_param {
      num_output: 384
      pad: 1
      kernel_size: 3
      stride: 1
      weight_filler {
        type: "gaussian"
        mean: 0
        std: 0.01
      }
      bias_filler {
        type: "constant"
      }
    }
  }
  layer {
    name: "rpn_big_output_cls_relu"
    type: "ReLU"
    bottom: "rpn_big_output_cls"
    top: "rpn_big_output_cls"
    relu_param {
      negative_slope: 0
    }
  }
  layer {
    name: "rpn_big_cls_score"
    type: "Convolution"
    bottom: "rpn_big_output_cls"
    top: "rpn_big_cls_score"
    param {
      lr_mult: 1
    }
    param {
      lr_mult: 2
    }
    convolution_param {
      num_output: 52
      pad: 0
      kernel_size: 3
      stride: 1
      weight_filler {
        type: "gaussian"
        mean: 0
        std: 0.01
      }
      bias_filler {
        type: "constant"
      }
    }
  }
  layer {
    name: "rpn_big_cls_score_reshape"
    type: "Reshape"
    bottom: "rpn_big_cls_score"
    top: "rpn_big_cls_score_reshape"
    reshape_param {
      shape {
        dim: 0
        dim: 2
        dim: -1
        dim: 0
      }
    }
  }
  layer {
    name: "rpn_big_cls_prob"
    type: "Softmax"
    bottom: "rpn_big_cls_score_reshape"
    top: "rpn_big_cls_prob"
  }
  layer {
    name: "rpn_big_cls_prob_reshape"
    type: "Reshape"
    bottom: "rpn_big_cls_prob"
    top: "rpn_big_cls_prob_reshape"
    reshape_param {
      shape {
        dim: 0
        dim: 52
        dim: -1
        dim: 0
      }
    }
  }
  layer {
    name: "rpn_big_anchor_target"
    type: "Python"
    bottom: "rpn_big_cls_score"
    bottom: "input_gt_boxes"
    bottom: "input_ignored_boxes"
    bottom: "input_im_info"
    bottom: "input_data"
    bottom: "rpn_big_cls_prob_reshape"
    top: "rpn_big_anchor_target_labels"
    top: "rpn_big_anchor_target_bbox_targets"
    top: "rpn_big_anchor_target_inside_weights"
    top: "rpn_big_anchor_target_outside_weights"
    python_param {
      module: "rpn.anchor_target_layer"
      layer: "AnchorTargetLayer"
      param_str: "{\"name\": \"rpn_big\", \"batchsize\": 256, \"fg_fraction\": 0.5, \"num_classes\": 1, \"positive_overlap\": 0.6, \"anchor_shift_num_xy\": [[2, 2], [2, 2], [2, 2], [2, 2], [1, 1], [1, 1], [1, 1], [1, 1], [1, 1], [1, 1], [1, 1], [1, 1], [1, 1], [1, 1]], \"tn_fraction\": 0.2, \"square_targets\": true, \"anchor_scales\": [2.5, 3.025, 3.66025, 4.4289024999999995, 5.358972025, 6.484356150249999, 7.846070941802498, 9.493745839581022, 11.487432465893036, 13.899793283730574, 16.818749873313998, 20.350687346709933, 24.62433168951902, 29.795441344318014], \"anchor_ratios\": [1.0], \"negative_overlap\": 0.4, \"feat_stride\": 16}"
    }
  }
  layer {
    name: "rpn_big_loss_cls"
    type: "SoftmaxWithLoss"
    bottom: "rpn_big_cls_score_reshape"
    bottom: "rpn_big_anchor_target_labels"
    top: "rpn_big_loss_cls"
    loss_weight: 1
    propagate_down: true
    propagate_down: false
    loss_param {
      ignore_label: -1
      normalization: VALID
    }
  }
  layer {
    name: "rpn_big_output_box"
    type: "Convolution"
    bottom: "rpn_big_conv2"
    top: "rpn_big_output_box"
    param {
      lr_mult: 1
    }
    param {
      lr_mult: 2
    }
    convolution_param {
      num_output: 384
      pad: 1
      kernel_size: 3
      stride: 1
      weight_filler {
        type: "gaussian"
        mean: 0
        std: 0.01
      }
      bias_filler {
        type: "constant"
      }
    }
  }
  layer {
    name: "rpn_big_output_box_relu"
    type: "ReLU"
    bottom: "rpn_big_output_box"
    top: "rpn_big_output_box"
    relu_param {
      negative_slope: 0
    }
  }
  layer {
    name: "rpn_big_bbox_pred"
    type: "Convolution"
    bottom: "rpn_big_output_box"
    top: "rpn_big_bbox_pred"
    param {
      lr_mult: 1
    }
    param {
      lr_mult: 2
    }
    convolution_param {
      num_output: 104
      pad: 0
      kernel_size: 3
      stride: 1
      weight_filler {
        type: "gaussian"
        mean: 0
        std: 0.01
      }
      bias_filler {
        type: "constant"
      }
    }
  }
  layer {
    name: "rpn_big_loss_bbox"
    type: "Python"
    bottom: "rpn_big_bbox_pred"
    bottom: "rpn_big_anchor_target_bbox_targets"
    bottom: "rpn_big_anchor_target_inside_weights"
    bottom: "rpn_big_anchor_target_outside_weights"
    top: "rpn_big_loss_bbox"
    loss_weight: 1
    python_param {
      module: "layers.smooth_l1_loss"
      layer: "SmoothL1LossLayer"
      param_str: "{\"sigma\": 3}"
    }
  }
  layer {
    name: "proposal"
    type: "Python"
    bottom: "rpn_big_cls_prob_reshape"
    bottom: "rpn_big_bbox_pred"
    bottom: "input_im_info"
    top: "rpn_rois"
    python_param {
      module: "rpn.proposal_layer"
      layer: "ProposalLayer"
      param_str: "{\"anchor_shift_num_xy\": [[2, 2], [2, 2], [2, 2], [2, 2], [1, 1], [1, 1], [1, 1], [1, 1], [1, 1], [1, 1], [1, 1], [1, 1], [1, 1], [1, 1]], \"feat_stride\": 16, \"num_classes\": 1, \"anchor_scales\": [2.5, 3.025, 3.66025, 4.4289024999999995, 5.358972025, 6.484356150249999, 7.846070941802498, 9.493745839581022, 11.487432465893036, 13.899793283730574, 16.818749873313998, 20.350687346709933, 24.62433168951902, 29.795441344318014], \"square_targets\": true, \"name\": \"rpn_big\", \"batchsize\": 256, \"anchor_ratios\": [1.0]}"
    }
  }
  layer {
    name: "roi-data"
    type: "Python"
    bottom: "rpn_rois"
    bottom: "input_gt_boxes"
    top: "pid_label"
    top: "rois"
    top: "labels"
    top: "bbox_targets"
    top: "bbox_inside_weights"
    top: "bbox_outside_weights"
    python_param {
      module: "rpn.proposal_target_layer"
      layer: "ProposalTargetLayer"
      param_str: "{\"num_classes\": 2, \"bg_aux_label\": 5532}"
    }
  }
  layer {
    name: "roi-pool"
    type: "ROIPooling"
    bottom: "conv5_3"
    bottom: "rois"
    top: "roi-pool"
    roi_pooling_param {
      pooled_h: 7
      pooled_w: 7
      spatial_scale: 0.0625
    }
  }
  layer {
    name: "fc6"
    type: "InnerProduct"
    bottom: "roi-pool"
    top: "fc6"
    param {
      lr_mult: 1
    }
    param {
      lr_mult: 2
    }
    inner_product_param {
      num_output: 4096
    }
  }
  layer {
    name: "relu6"
    type: "ReLU"
    bottom: "fc6"
    top: "fc6"
  }
  layer {
    name: "drop6"
    type: "Dropout"
    bottom: "fc6"
    top: "fc6"
    dropout_param {
      dropout_ratio: 0.5
    }
  }
  layer {
    name: "fc7"
    type: "InnerProduct"
    bottom: "fc6"
    top: "fc7"
    param {
      lr_mult: 1
    }
    param {
      lr_mult: 2
    }
    inner_product_param {
      num_output: 4096
    }
  }
  layer {
    name: "relu7"
    type: "ReLU"
    bottom: "fc7"
    top: "fc7"
  }
  layer {
    name: "drop7"
    type: "Dropout"
    bottom: "fc7"
    top: "fc7"
    dropout_param {
      dropout_ratio: 0.5
    }
  }
  layer {
    name: "bbox_pred"
    type: "InnerProduct"
    bottom: "fc7"
    top: "bbox_pred"
    param {
      lr_mult: 1
    }
    param {
      lr_mult: 2
    }
    inner_product_param {
      num_output: 8
      weight_filler {
        type: "gaussian"
        std: 0.001
      }
      bias_filler {
        type: "constant"
        value: 0
      }
    }
  }
  layer {
    name: "loss_bbox"
    type: "SmoothL1Loss"
    bottom: "bbox_pred"
    bottom: "bbox_targets"
    bottom: "bbox_inside_weights"
    bottom: "bbox_outside_weights"
    top: "loss_bbox"
    loss_weight: 1
  }
  layer {
    name: "feat"
    type: "InnerProduct"
    bottom: "fc7"
    top: "feat"
    param {
      lr_mult: 1
      decay_mult: 1
    }
    param {
      lr_mult: 2
      decay_mult: 0
    }
    inner_product_param {
      num_output: 256
      weight_filler {
        type: "gaussian"
        std: 0.01
      }
      bias_filler {
        type: "constant"
        value: 0
      }
    }
  }
  layer {
    name: "relu8"
    type: "ReLU"
    bottom: "feat"
    top: "feat"
  }
  layer {
    name: "drop8"
    type: "Dropout"
    bottom: "feat"
    top: "feat"
    dropout_param {
      dropout_ratio: 0.5
    }
  }
  layer {
    name: "pid_score"
    type: "InnerProduct"
    bottom: "feat"
    top: "pid_score"
    param {
      lr_mult: 1
      decay_mult: 1
    }
    param {
      lr_mult: 2
      decay_mult: 0
    }
    inner_product_param {
      num_output: 5533
      weight_filler {
        type: "gaussian"
        std: 0.001
      }
      bias_filler {
        type: "constant"
        value: 0
      }
    }
  }
  layer {
    name: "pid_loss"
    type: "SoftmaxWithLoss"
    bottom: "pid_score"
    bottom: "pid_label"
    top: "pid_loss"
    loss_weight: 1
    propagate_down: true
    propagate_down: false
    loss_param {
      ignore_label: -1
      normalize: true
    }
  }
}
average_loss: 100
stepvalue: 70000
stepvalue: 120000
iter_size: 2
I0413 18:58:02.036996 14753 solver.cpp:86] Creating training net specified in net_param.
I0413 18:58:02.037771 14753 net.cpp:58] Initializing net from parameters: 
name: "GeneratedModel_13_04_2017_18_58"
state {
  phase: TRAIN
}
layer {
  name: "input"
  type: "Python"
  top: "input_data"
  top: "input_im_info"
  top: "input_gt_boxes"
  top: "input_ignored_boxes"
  python_param {
    module: "layers.roi_data_layer"
    layer: "RoIDataLayer"
    param_str: "{\"num_classes\": 2}"
  }
}
layer {
  name: "conv1_1"
  type: "Convolution"
  bottom: "input_data"
  top: "conv1_1"
  param {
    lr_mult: 0
    decay_mult: 0
  }
  param {
    lr_mult: 0
    decay_mult: 0
  }
  convolution_param {
    num_output: 64
    pad: 1
    kernel_size: 3
  }
}
layer {
  name: "relu1_1"
  type: "ReLU"
  bottom: "conv1_1"
  top: "conv1_1"
}
layer {
  name: "conv1_2"
  type: "Convolution"
  bottom: "conv1_1"
  top: "conv1_2"
  param {
    lr_mult: 0
    decay_mult: 0
  }
  param {
    lr_mult: 0
    decay_mult: 0
  }
  convolution_param {
    num_output: 64
    pad: 1
    kernel_size: 3
  }
}
layer {
  name: "relu1_2"
  type: "ReLU"
  bottom: "conv1_2"
  top: "conv1_2"
}
layer {
  name: "pool1"
  type: "Pooling"
  bottom: "conv1_2"
  top: "pool1"
  pooling_param {
    pool: MAX
    kernel_size: 2
    stride: 2
  }
}
layer {
  name: "conv2_1"
  type: "Convolution"
  bottom: "pool1"
  top: "conv2_1"
  param {
    lr_mult: 0
    decay_mult: 0
  }
  param {
    lr_mult: 0
    decay_mult: 0
  }
  convolution_param {
    num_output: 128
    pad: 1
    kernel_size: 3
  }
}
layer {
  name: "relu2_1"
  type: "ReLU"
  bottom: "conv2_1"
  top: "conv2_1"
}
layer {
  name: "conv2_2"
  type: "Convolution"
  bottom: "conv2_1"
  top: "conv2_2"
  param {
    lr_mult: 0
    decay_mult: 0
  }
  param {
    lr_mult: 0
    decay_mult: 0
  }
  convolution_param {
    num_output: 128
    pad: 1
    kernel_size: 3
  }
}
layer {
  name: "relu2_2"
  type: "ReLU"
  bottom: "conv2_2"
  top: "conv2_2"
}
layer {
  name: "pool2"
  type: "Pooling"
  bottom: "conv2_2"
  top: "pool2"
  pooling_param {
    pool: MAX
    kernel_size: 2
    stride: 2
  }
}
layer {
  name: "conv3_1"
  type: "Convolution"
  bottom: "pool2"
  top: "conv3_1"
  param {
    lr_mult: 1
  }
  param {
    lr_mult: 2
  }
  convolution_param {
    num_output: 256
    pad: 1
    kernel_size: 3
  }
}
layer {
  name: "relu3_1"
  type: "ReLU"
  bottom: "conv3_1"
  top: "conv3_1"
}
layer {
  name: "conv3_2"
  type: "Convolution"
  bottom: "conv3_1"
  top: "conv3_2"
  param {
    lr_mult: 1
  }
  param {
    lr_mult: 2
  }
  convolution_param {
    num_output: 256
    pad: 1
    kernel_size: 3
  }
}
layer {
  name: "relu3_2"
  type: "ReLU"
  bottom: "conv3_2"
  top: "conv3_2"
}
layer {
  name: "conv3_3"
  type: "Convolution"
  bottom: "conv3_2"
  top: "conv3_3"
  param {
    lr_mult: 1
  }
  param {
    lr_mult: 2
  }
  convolution_param {
    num_output: 256
    pad: 1
    kernel_size: 3
  }
}
layer {
  name: "relu3_3"
  type: "ReLU"
  bottom: "conv3_3"
  top: "conv3_3"
}
layer {
  name: "pool3"
  type: "Pooling"
  bottom: "conv3_3"
  top: "pool3"
  pooling_param {
    pool: MAX
    kernel_size: 2
    stride: 2
  }
}
layer {
  name: "conv4_1"
  type: "Convolution"
  bottom: "pool3"
  top: "conv4_1"
  param {
    lr_mult: 1
  }
  param {
    lr_mult: 2
  }
  convolution_param {
    num_output: 512
    pad: 1
    kernel_size: 3
  }
}
layer {
  name: "relu4_1"
  type: "ReLU"
  bottom: "conv4_1"
  top: "conv4_1"
}
layer {
  name: "conv4_2"
  type: "Convolution"
  bottom: "conv4_1"
  top: "conv4_2"
  param {
    lr_mult: 1
  }
  param {
    lr_mult: 2
  }
  convolution_param {
    num_output: 512
    pad: 1
    kernel_size: 3
  }
}
layer {
  name: "relu4_2"
  type: "ReLU"
  bottom: "conv4_2"
  top: "conv4_2"
}
layer {
  name: "conv4_3"
  type: "Convolution"
  bottom: "conv4_2"
  top: "conv4_3"
  param {
    lr_mult: 1
  }
  param {
    lr_mult: 2
  }
  convolution_param {
    num_output: 512
    pad: 1
    kernel_size: 3
  }
}
layer {
  name: "relu4_3"
  type: "ReLU"
  bottom: "conv4_3"
  top: "conv4_3"
}
layer {
  name: "pool4"
  type: "Pooling"
  bottom: "conv4_3"
  top: "pool4"
  pooling_param {
    pool: MAX
    kernel_size: 2
    stride: 2
  }
}
layer {
  name: "conv5_1"
  type: "Convolution"
  bottom: "pool4"
  top: "conv5_1"
  param {
    lr_mult: 1
  }
  param {
    lr_mult: 2
  }
  convolution_param {
    num_output: 512
    pad: 1
    kernel_size: 3
  }
}
layer {
  name: "relu5_1"
  type: "ReLU"
  bottom: "conv5_1"
  top: "conv5_1"
}
layer {
  name: "conv5_2"
  type: "Convolution"
  bottom: "conv5_1"
  top: "conv5_2"
  param {
    lr_mult: 1
  }
  param {
    lr_mult: 2
  }
  convolution_param {
    num_output: 512
    pad: 1
    kernel_size: 3
  }
}
layer {
  name: "relu5_2"
  type: "ReLU"
  bottom: "conv5_2"
  top: "conv5_2"
}
layer {
  name: "conv5_3"
  type: "Convolution"
  bottom: "conv5_2"
  top: "conv5_3"
  param {
    lr_mult: 1
  }
  param {
    lr_mult: 2
  }
  convolution_param {
    num_output: 512
    pad: 1
    kernel_size: 3
  }
}
layer {
  name: "relu5_3"
  type: "ReLU"
  bottom: "conv5_3"
  top: "conv5_3"
}
layer {
  name: "rpn_big_conv1"
  type: "Convolution"
  bottom: "conv5_3"
  top: "rpn_big_conv1"
  param {
    lr_mult: 1
  }
  param {
    lr_mult: 2
  }
  convolution_param {
    num_output: 512
    pad: 1
    kernel_size: 3
    stride: 1
    weight_filler {
      type: "gaussian"
      mean: 0
      std: 0.01
    }
    bias_filler {
      type: "constant"
    }
  }
}
layer {
  name: "rpn_big_conv1_relu"
  type: "ReLU"
  bottom: "rpn_big_conv1"
  top: "rpn_big_conv1"
  relu_param {
    negative_slope: 0
  }
}
layer {
  name: "rpn_big_conv2"
  type: "Convolution"
  bottom: "rpn_big_conv1"
  top: "rpn_big_conv2"
  param {
    lr_mult: 1
  }
  param {
    lr_mult: 2
  }
  convolution_param {
    num_output: 512
    pad: 1
    kernel_size: 3
    stride: 1
    weight_filler {
      type: "gaussian"
      mean: 0
      std: 0.01
    }
    bias_filler {
      type: "constant"
    }
  }
}
layer {
  name: "rpn_big_conv2_relu"
  type: "ReLU"
  bottom: "rpn_big_conv2"
  top: "rpn_big_conv2"
  relu_param {
    negative_slope: 0
  }
}
layer {
  name: "rpn_big_conv2_drop"
  type: "Dropout"
  bottom: "rpn_big_conv2"
  top: "rpn_big_conv2"
  dropout_param {
    dropout_ratio: 0.3
  }
}
layer {
  name: "rpn_big_output_cls"
  type: "Convolution"
  bottom: "rpn_big_conv2"
  top: "rpn_big_output_cls"
  param {
    lr_mult: 1
  }
  param {
    lr_mult: 2
  }
  convolution_param {
    num_output: 384
    pad: 1
    kernel_size: 3
    stride: 1
    weight_filler {
      type: "gaussian"
      mean: 0
      std: 0.01
    }
    bias_filler {
      type: "constant"
    }
  }
}
layer {
  name: "rpn_big_output_cls_relu"
  type: "ReLU"
  bottom: "rpn_big_output_cls"
  top: "rpn_big_output_cls"
  relu_param {
    negative_slope: 0
  }
}
layer {
  name: "rpn_big_cls_score"
  type: "Convolution"
  bottom: "rpn_big_output_cls"
  top: "rpn_big_cls_score"
  param {
    lr_mult: 1
  }
  param {
    lr_mult: 2
  }
  convolution_param {
    num_output: 52
    pad: 0
    kernel_size: 3
    stride: 1
    weight_filler {
      type: "gaussian"
      mean: 0
      std: 0.01
    }
    bias_filler {
      type: "constant"
    }
  }
}
layer {
  name: "rpn_big_cls_score_reshape"
  type: "Reshape"
  bottom: "rpn_big_cls_score"
  top: "rpn_big_cls_score_reshape"
  reshape_param {
    shape {
      dim: 0
      dim: 2
      dim: -1
      dim: 0
    }
  }
}
layer {
  name: "rpn_big_cls_prob"
  type: "Softmax"
  bottom: "rpn_big_cls_score_reshape"
  top: "rpn_big_cls_prob"
}
layer {
  name: "rpn_big_cls_prob_reshape"
  type: "Reshape"
  bottom: "rpn_big_cls_prob"
  top: "rpn_big_cls_prob_reshape"
  reshape_param {
    shape {
      dim: 0
      dim: 52
      dim: -1
      dim: 0
    }
  }
}
layer {
  name: "rpn_big_anchor_target"
  type: "Python"
  bottom: "rpn_big_cls_score"
  bottom: "input_gt_boxes"
  bottom: "input_ignored_boxes"
  bottom: "input_im_info"
  bottom: "input_data"
  bottom: "rpn_big_cls_prob_reshape"
  top: "rpn_big_anchor_target_labels"
  top: "rpn_big_anchor_target_bbox_targets"
  top: "rpn_big_anchor_target_inside_weights"
  top: "rpn_big_anchor_target_outside_weights"
  python_param {
    module: "rpn.anchor_target_layer"
    layer: "AnchorTargetLayer"
    param_str: "{\"name\": \"rpn_big\", \"batchsize\": 256, \"fg_fraction\": 0.5, \"num_classes\": 1, \"positive_overlap\": 0.6, \"anchor_shift_num_xy\": [[2, 2], [2, 2], [2, 2], [2, 2], [1, 1], [1, 1], [1, 1], [1, 1], [1, 1], [1, 1], [1, 1], [1, 1], [1, 1], [1, 1]], \"tn_fraction\": 0.2, \"square_targets\": true, \"anchor_scales\": [2.5, 3.025, 3.66025, 4.4289024999999995, 5.358972025, 6.484356150249999, 7.846070941802498, 9.493745839581022, 11.487432465893036, 13.899793283730574, 16.818749873313998, 20.350687346709933, 24.62433168951902, 29.795441344318014], \"anchor_ratios\": [1.0], \"negative_overlap\": 0.4, \"feat_stride\": 16}"
  }
}
layer {
  name: "rpn_big_loss_cls"
  type: "SoftmaxWithLoss"
  bottom: "rpn_big_cls_score_reshape"
  bottom: "rpn_big_anchor_target_labels"
  top: "rpn_big_loss_cls"
  loss_weight: 1
  propagate_down: true
  propagate_down: false
  loss_param {
    ignore_label: -1
    normalization: VALID
  }
}
layer {
  name: "rpn_big_output_box"
  type: "Convolution"
  bottom: "rpn_big_conv2"
  top: "rpn_big_output_box"
  param {
    lr_mult: 1
  }
  param {
    lr_mult: 2
  }
  convolution_param {
    num_output: 384
    pad: 1
    kernel_size: 3
    stride: 1
    weight_filler {
      type: "gaussian"
      mean: 0
      std: 0.01
    }
    bias_filler {
      type: "constant"
    }
  }
}
layer {
  name: "rpn_big_output_box_relu"
  type: "ReLU"
  bottom: "rpn_big_output_box"
  top: "rpn_big_output_box"
  relu_param {
    negative_slope: 0
  }
}
layer {
  name: "rpn_big_bbox_pred"
  type: "Convolution"
  bottom: "rpn_big_output_box"
  top: "rpn_big_bbox_pred"
  param {
    lr_mult: 1
  }
  param {
    lr_mult: 2
  }
  convolution_param {
    num_output: 104
    pad: 0
    kernel_size: 3
    stride: 1
    weight_filler {
      type: "gaussian"
      mean: 0
      std: 0.01
    }
    bias_filler {
      type: "constant"
    }
  }
}
layer {
  name: "rpn_big_loss_bbox"
  type: "Python"
  bottom: "rpn_big_bbox_pred"
  bottom: "rpn_big_anchor_target_bbox_targets"
  bottom: "rpn_big_anchor_target_inside_weights"
  bottom: "rpn_big_anchor_target_outside_weights"
  top: "rpn_big_loss_bbox"
  loss_weight: 1
  python_param {
    module: "layers.smooth_l1_loss"
    layer: "SmoothL1LossLayer"
    param_str: "{\"sigma\": 3}"
  }
}
layer {
  name: "proposal"
  type: "Python"
  bottom: "rpn_big_cls_prob_reshape"
  bottom: "rpn_big_bbox_pred"
  bottom: "input_im_info"
  top: "rpn_rois"
  python_param {
    module: "rpn.proposal_layer"
    layer: "ProposalLayer"
    param_str: "{\"anchor_shift_num_xy\": [[2, 2], [2, 2], [2, 2], [2, 2], [1, 1], [1, 1], [1, 1], [1, 1], [1, 1], [1, 1], [1, 1], [1, 1], [1, 1], [1, 1]], \"feat_stride\": 16, \"num_classes\": 1, \"anchor_scales\": [2.5, 3.025, 3.66025, 4.4289024999999995, 5.358972025, 6.484356150249999, 7.846070941802498, 9.493745839581022, 11.487432465893036, 13.899793283730574, 16.818749873313998, 20.350687346709933, 24.62433168951902, 29.795441344318014], \"square_targets\": true, \"name\": \"rpn_big\", \"batchsize\": 256, \"anchor_ratios\": [1.0]}"
  }
}
layer {
  name: "roi-data"
  type: "Python"
  bottom: "rpn_rois"
  bottom: "input_gt_boxes"
  top: "pid_label"
  top: "rois"
  top: "labels"
  top: "bbox_targets"
  top: "bbox_inside_weights"
  top: "bbox_outside_weights"
  python_param {
    module: "rpn.proposal_target_layer"
    layer: "ProposalTargetLayer"
    param_str: "{\"num_classes\": 2, \"bg_aux_label\": 5532}"
  }
}
layer {
  name: "roi-pool"
  type: "ROIPooling"
  bottom: "conv5_3"
  bottom: "rois"
  top: "roi-pool"
  roi_pooling_param {
    pooled_h: 7
    pooled_w: 7
    spatial_scale: 0.0625
  }
}
layer {
  name: "fc6"
  type: "InnerProduct"
  bottom: "roi-pool"
  top: "fc6"
  param {
    lr_mult: 1
  }
  param {
    lr_mult: 2
  }
  inner_product_param {
    num_output: 4096
  }
}
layer {
  name: "relu6"
  type: "ReLU"
  bottom: "fc6"
  top: "fc6"
}
layer {
  name: "drop6"
  type: "Dropout"
  bottom: "fc6"
  top: "fc6"
  dropout_param {
    dropout_ratio: 0.5
  }
}
layer {
  name: "fc7"
  type: "InnerProduct"
  bottom: "fc6"
  top: "fc7"
  param {
    lr_mult: 1
  }
  param {
    lr_mult: 2
  }
  inner_product_param {
    num_output: 4096
  }
}
layer {
  name: "relu7"
  type: "ReLU"
  bottom: "fc7"
  top: "fc7"
}
layer {
  name: "drop7"
  type: "Dropout"
  bottom: "fc7"
  top: "fc7"
  dropout_param {
    dropout_ratio: 0.5
  }
}
layer {
  name: "bbox_pred"
  type: "InnerProduct"
  bottom: "fc7"
  top: "bbox_pred"
  param {
    lr_mult: 1
  }
  param {
    lr_mult: 2
  }
  inner_product_param {
    num_output: 8
    weight_filler {
      type: "gaussian"
      std: 0.001
    }
    bias_filler {
      type: "constant"
      value: 0
    }
  }
}
layer {
  name: "loss_bbox"
  type: "SmoothL1Loss"
  bottom: "bbox_pred"
  bottom: "bbox_targets"
  bottom: "bbox_inside_weights"
  bottom: "bbox_outside_weights"
  top: "loss_bbox"
  loss_weight: 1
}
layer {
  name: "feat"
  type: "InnerProduct"
  bottom: "fc7"
  top: "feat"
  param {
    lr_mult: 1
    decay_mult: 1
  }
  param {
    lr_mult: 2
    decay_mult: 0
  }
  inner_product_param {
    num_output: 256
    weight_filler {
      type: "gaussian"
      std: 0.01
    }
    bias_filler {
      type: "constant"
      value: 0
    }
  }
}
layer {
  name: "relu8"
  type: "ReLU"
  bottom: "feat"
  top: "feat"
}
layer {
  name: "drop8"
  type: "Dropout"
  bottom: "feat"
  top: "feat"
  dropout_param {
    dropout_ratio: 0.5
  }
}
layer {
  name: "pid_score"
  type: "InnerProduct"
  bottom: "feat"
  top: "pid_score"
  param {
    lr_mult: 1
    decay_mult: 1
  }
  param {
    lr_mult: 2
    decay_mult: 0
  }
  inner_product_param {
    num_output: 5533
    weight_filler {
      type: "gaussian"
      std: 0.001
    }
    bias_filler {
      type: "constant"
      value: 0
    }
  }
}
layer {
  name: "pid_loss"
  type: "SoftmaxWithLoss"
  bottom: "pid_score"
  bottom: "pid_label"
  top: "pid_loss"
  loss_weight: 1
  propagate_down: true
  propagate_down: false
  loss_param {
    ignore_label: -1
    normalize: true
  }
}
I0413 18:58:02.038100 14753 layer_factory.hpp:77] Creating layer input
I0413 18:58:02.039364 14753 net.cpp:100] Creating Layer input
I0413 18:58:02.039381 14753 net.cpp:408] input -> input_data
I0413 18:58:02.039393 14753 net.cpp:408] input -> input_im_info
I0413 18:58:02.039402 14753 net.cpp:408] input -> input_gt_boxes
I0413 18:58:02.039408 14753 net.cpp:408] input -> input_ignored_boxes
RoiDataLayer: name_to_top: {'gt_boxes': 2, 'im_info': 1, 'data': 0, 'ignored_boxes': 3}
I0413 18:58:02.364938 14753 net.cpp:150] Setting up input
I0413 18:58:02.364965 14753 net.cpp:157] Top shape: 1 3 1000 1500 (4500000)
I0413 18:58:02.364982 14753 net.cpp:157] Top shape: 1 3 (3)
I0413 18:58:02.364989 14753 net.cpp:157] Top shape: 1 5 (5)
I0413 18:58:02.364995 14753 net.cpp:157] Top shape: 1 5 (5)
I0413 18:58:02.365000 14753 net.cpp:165] Memory required for data: 18000052
I0413 18:58:02.365010 14753 layer_factory.hpp:77] Creating layer input_data_input_0_split
I0413 18:58:02.365026 14753 net.cpp:100] Creating Layer input_data_input_0_split
I0413 18:58:02.365036 14753 net.cpp:434] input_data_input_0_split <- input_data
I0413 18:58:02.365046 14753 net.cpp:408] input_data_input_0_split -> input_data_input_0_split_0
I0413 18:58:02.365066 14753 net.cpp:408] input_data_input_0_split -> input_data_input_0_split_1
I0413 18:58:02.365114 14753 net.cpp:150] Setting up input_data_input_0_split
I0413 18:58:02.365134 14753 net.cpp:157] Top shape: 1 3 1000 1500 (4500000)
I0413 18:58:02.365149 14753 net.cpp:157] Top shape: 1 3 1000 1500 (4500000)
I0413 18:58:02.365154 14753 net.cpp:165] Memory required for data: 54000052
I0413 18:58:02.365159 14753 layer_factory.hpp:77] Creating layer input_im_info_input_1_split
I0413 18:58:02.365170 14753 net.cpp:100] Creating Layer input_im_info_input_1_split
I0413 18:58:02.365176 14753 net.cpp:434] input_im_info_input_1_split <- input_im_info
I0413 18:58:02.365185 14753 net.cpp:408] input_im_info_input_1_split -> input_im_info_input_1_split_0
I0413 18:58:02.365195 14753 net.cpp:408] input_im_info_input_1_split -> input_im_info_input_1_split_1
I0413 18:58:02.365237 14753 net.cpp:150] Setting up input_im_info_input_1_split
I0413 18:58:02.365247 14753 net.cpp:157] Top shape: 1 3 (3)
I0413 18:58:02.365254 14753 net.cpp:157] Top shape: 1 3 (3)
I0413 18:58:02.365259 14753 net.cpp:165] Memory required for data: 54000076
I0413 18:58:02.365264 14753 layer_factory.hpp:77] Creating layer input_gt_boxes_input_2_split
I0413 18:58:02.365273 14753 net.cpp:100] Creating Layer input_gt_boxes_input_2_split
I0413 18:58:02.365280 14753 net.cpp:434] input_gt_boxes_input_2_split <- input_gt_boxes
I0413 18:58:02.365288 14753 net.cpp:408] input_gt_boxes_input_2_split -> input_gt_boxes_input_2_split_0
I0413 18:58:02.365303 14753 net.cpp:408] input_gt_boxes_input_2_split -> input_gt_boxes_input_2_split_1
I0413 18:58:02.365345 14753 net.cpp:150] Setting up input_gt_boxes_input_2_split
I0413 18:58:02.365355 14753 net.cpp:157] Top shape: 1 5 (5)
I0413 18:58:02.365363 14753 net.cpp:157] Top shape: 1 5 (5)
I0413 18:58:02.365370 14753 net.cpp:165] Memory required for data: 54000116
I0413 18:58:02.365375 14753 layer_factory.hpp:77] Creating layer conv1_1
I0413 18:58:02.365392 14753 net.cpp:100] Creating Layer conv1_1
I0413 18:58:02.365399 14753 net.cpp:434] conv1_1 <- input_data_input_0_split_0
I0413 18:58:02.365408 14753 net.cpp:408] conv1_1 -> conv1_1
I0413 18:58:02.368670 14753 net.cpp:150] Setting up conv1_1
I0413 18:58:02.368708 14753 net.cpp:157] Top shape: 1 64 1000 1500 (96000000)
I0413 18:58:02.368712 14753 net.cpp:165] Memory required for data: 438000116
I0413 18:58:02.368736 14753 layer_factory.hpp:77] Creating layer relu1_1
I0413 18:58:02.368749 14753 net.cpp:100] Creating Layer relu1_1
I0413 18:58:02.368762 14753 net.cpp:434] relu1_1 <- conv1_1
I0413 18:58:02.368773 14753 net.cpp:395] relu1_1 -> conv1_1 (in-place)
I0413 18:58:02.368788 14753 net.cpp:150] Setting up relu1_1
I0413 18:58:02.368796 14753 net.cpp:157] Top shape: 1 64 1000 1500 (96000000)
I0413 18:58:02.368803 14753 net.cpp:165] Memory required for data: 822000116
I0413 18:58:02.368808 14753 layer_factory.hpp:77] Creating layer conv1_2
I0413 18:58:02.368827 14753 net.cpp:100] Creating Layer conv1_2
I0413 18:58:02.368834 14753 net.cpp:434] conv1_2 <- conv1_1
I0413 18:58:02.368845 14753 net.cpp:408] conv1_2 -> conv1_2
I0413 18:58:02.372115 14753 net.cpp:150] Setting up conv1_2
I0413 18:58:02.372151 14753 net.cpp:157] Top shape: 1 64 1000 1500 (96000000)
I0413 18:58:02.372155 14753 net.cpp:165] Memory required for data: 1206000116
I0413 18:58:02.372176 14753 layer_factory.hpp:77] Creating layer relu1_2
I0413 18:58:02.372193 14753 net.cpp:100] Creating Layer relu1_2
I0413 18:58:02.372202 14753 net.cpp:434] relu1_2 <- conv1_2
I0413 18:58:02.372215 14753 net.cpp:395] relu1_2 -> conv1_2 (in-place)
I0413 18:58:02.372231 14753 net.cpp:150] Setting up relu1_2
I0413 18:58:02.372238 14753 net.cpp:157] Top shape: 1 64 1000 1500 (96000000)
I0413 18:58:02.372244 14753 net.cpp:165] Memory required for data: 1590000116
I0413 18:58:02.372251 14753 layer_factory.hpp:77] Creating layer pool1
I0413 18:58:02.372265 14753 net.cpp:100] Creating Layer pool1
I0413 18:58:02.372272 14753 net.cpp:434] pool1 <- conv1_2
I0413 18:58:02.372282 14753 net.cpp:408] pool1 -> pool1
I0413 18:58:02.372370 14753 net.cpp:150] Setting up pool1
I0413 18:58:02.372381 14753 net.cpp:157] Top shape: 1 64 500 750 (24000000)
I0413 18:58:02.372387 14753 net.cpp:165] Memory required for data: 1686000116
I0413 18:58:02.372392 14753 layer_factory.hpp:77] Creating layer conv2_1
I0413 18:58:02.372406 14753 net.cpp:100] Creating Layer conv2_1
I0413 18:58:02.372413 14753 net.cpp:434] conv2_1 <- pool1
I0413 18:58:02.372421 14753 net.cpp:408] conv2_1 -> conv2_1
I0413 18:58:02.373786 14753 net.cpp:150] Setting up conv2_1
I0413 18:58:02.373808 14753 net.cpp:157] Top shape: 1 128 500 750 (48000000)
I0413 18:58:02.373812 14753 net.cpp:165] Memory required for data: 1878000116
I0413 18:58:02.373827 14753 layer_factory.hpp:77] Creating layer relu2_1
I0413 18:58:02.373842 14753 net.cpp:100] Creating Layer relu2_1
I0413 18:58:02.373849 14753 net.cpp:434] relu2_1 <- conv2_1
I0413 18:58:02.373858 14753 net.cpp:395] relu2_1 -> conv2_1 (in-place)
I0413 18:58:02.373870 14753 net.cpp:150] Setting up relu2_1
I0413 18:58:02.373878 14753 net.cpp:157] Top shape: 1 128 500 750 (48000000)
I0413 18:58:02.373884 14753 net.cpp:165] Memory required for data: 2070000116
I0413 18:58:02.373889 14753 layer_factory.hpp:77] Creating layer conv2_2
I0413 18:58:02.373903 14753 net.cpp:100] Creating Layer conv2_2
I0413 18:58:02.373910 14753 net.cpp:434] conv2_2 <- conv2_1
I0413 18:58:02.373919 14753 net.cpp:408] conv2_2 -> conv2_2
I0413 18:58:02.374950 14753 net.cpp:150] Setting up conv2_2
I0413 18:58:02.374971 14753 net.cpp:157] Top shape: 1 128 500 750 (48000000)
I0413 18:58:02.374974 14753 net.cpp:165] Memory required for data: 2262000116
I0413 18:58:02.374986 14753 layer_factory.hpp:77] Creating layer relu2_2
I0413 18:58:02.375000 14753 net.cpp:100] Creating Layer relu2_2
I0413 18:58:02.375006 14753 net.cpp:434] relu2_2 <- conv2_2
I0413 18:58:02.375018 14753 net.cpp:395] relu2_2 -> conv2_2 (in-place)
I0413 18:58:02.375030 14753 net.cpp:150] Setting up relu2_2
I0413 18:58:02.375039 14753 net.cpp:157] Top shape: 1 128 500 750 (48000000)
I0413 18:58:02.375044 14753 net.cpp:165] Memory required for data: 2454000116
I0413 18:58:02.375049 14753 layer_factory.hpp:77] Creating layer pool2
I0413 18:58:02.375062 14753 net.cpp:100] Creating Layer pool2
I0413 18:58:02.375068 14753 net.cpp:434] pool2 <- conv2_2
I0413 18:58:02.375078 14753 net.cpp:408] pool2 -> pool2
I0413 18:58:02.375135 14753 net.cpp:150] Setting up pool2
I0413 18:58:02.375146 14753 net.cpp:157] Top shape: 1 128 250 375 (12000000)
I0413 18:58:02.375154 14753 net.cpp:165] Memory required for data: 2502000116
I0413 18:58:02.375160 14753 layer_factory.hpp:77] Creating layer conv3_1
I0413 18:58:02.375172 14753 net.cpp:100] Creating Layer conv3_1
I0413 18:58:02.375180 14753 net.cpp:434] conv3_1 <- pool2
I0413 18:58:02.375190 14753 net.cpp:408] conv3_1 -> conv3_1
I0413 18:58:02.376420 14753 net.cpp:150] Setting up conv3_1
I0413 18:58:02.376443 14753 net.cpp:157] Top shape: 1 256 250 375 (24000000)
I0413 18:58:02.376447 14753 net.cpp:165] Memory required for data: 2598000116
I0413 18:58:02.376466 14753 layer_factory.hpp:77] Creating layer relu3_1
I0413 18:58:02.376477 14753 net.cpp:100] Creating Layer relu3_1
I0413 18:58:02.376485 14753 net.cpp:434] relu3_1 <- conv3_1
I0413 18:58:02.376497 14753 net.cpp:395] relu3_1 -> conv3_1 (in-place)
I0413 18:58:02.376510 14753 net.cpp:150] Setting up relu3_1
I0413 18:58:02.376519 14753 net.cpp:157] Top shape: 1 256 250 375 (24000000)
I0413 18:58:02.376525 14753 net.cpp:165] Memory required for data: 2694000116
I0413 18:58:02.376530 14753 layer_factory.hpp:77] Creating layer conv3_2
I0413 18:58:02.376549 14753 net.cpp:100] Creating Layer conv3_2
I0413 18:58:02.376555 14753 net.cpp:434] conv3_2 <- conv3_1
I0413 18:58:02.376569 14753 net.cpp:408] conv3_2 -> conv3_2
I0413 18:58:02.377903 14753 net.cpp:150] Setting up conv3_2
I0413 18:58:02.377931 14753 net.cpp:157] Top shape: 1 256 250 375 (24000000)
I0413 18:58:02.377935 14753 net.cpp:165] Memory required for data: 2790000116
I0413 18:58:02.377946 14753 layer_factory.hpp:77] Creating layer relu3_2
I0413 18:58:02.377960 14753 net.cpp:100] Creating Layer relu3_2
I0413 18:58:02.377969 14753 net.cpp:434] relu3_2 <- conv3_2
I0413 18:58:02.377981 14753 net.cpp:395] relu3_2 -> conv3_2 (in-place)
I0413 18:58:02.377995 14753 net.cpp:150] Setting up relu3_2
I0413 18:58:02.378003 14753 net.cpp:157] Top shape: 1 256 250 375 (24000000)
I0413 18:58:02.378010 14753 net.cpp:165] Memory required for data: 2886000116
I0413 18:58:02.378015 14753 layer_factory.hpp:77] Creating layer conv3_3
I0413 18:58:02.378027 14753 net.cpp:100] Creating Layer conv3_3
I0413 18:58:02.378034 14753 net.cpp:434] conv3_3 <- conv3_2
I0413 18:58:02.378043 14753 net.cpp:408] conv3_3 -> conv3_3
I0413 18:58:02.379889 14753 net.cpp:150] Setting up conv3_3
I0413 18:58:02.379920 14753 net.cpp:157] Top shape: 1 256 250 375 (24000000)
I0413 18:58:02.379926 14753 net.cpp:165] Memory required for data: 2982000116
I0413 18:58:02.379940 14753 layer_factory.hpp:77] Creating layer relu3_3
I0413 18:58:02.379954 14753 net.cpp:100] Creating Layer relu3_3
I0413 18:58:02.379962 14753 net.cpp:434] relu3_3 <- conv3_3
I0413 18:58:02.379972 14753 net.cpp:395] relu3_3 -> conv3_3 (in-place)
I0413 18:58:02.379986 14753 net.cpp:150] Setting up relu3_3
I0413 18:58:02.379992 14753 net.cpp:157] Top shape: 1 256 250 375 (24000000)
I0413 18:58:02.379997 14753 net.cpp:165] Memory required for data: 3078000116
I0413 18:58:02.380002 14753 layer_factory.hpp:77] Creating layer pool3
I0413 18:58:02.380012 14753 net.cpp:100] Creating Layer pool3
I0413 18:58:02.380017 14753 net.cpp:434] pool3 <- conv3_3
I0413 18:58:02.380025 14753 net.cpp:408] pool3 -> pool3
I0413 18:58:02.380084 14753 net.cpp:150] Setting up pool3
I0413 18:58:02.380095 14753 net.cpp:157] Top shape: 1 256 125 188 (6016000)
I0413 18:58:02.380102 14753 net.cpp:165] Memory required for data: 3102064116
I0413 18:58:02.380108 14753 layer_factory.hpp:77] Creating layer conv4_1
I0413 18:58:02.380122 14753 net.cpp:100] Creating Layer conv4_1
I0413 18:58:02.380129 14753 net.cpp:434] conv4_1 <- pool3
I0413 18:58:02.380138 14753 net.cpp:408] conv4_1 -> conv4_1
I0413 18:58:02.383800 14753 net.cpp:150] Setting up conv4_1
I0413 18:58:02.383847 14753 net.cpp:157] Top shape: 1 512 125 188 (12032000)
I0413 18:58:02.383854 14753 net.cpp:165] Memory required for data: 3150192116
I0413 18:58:02.383870 14753 layer_factory.hpp:77] Creating layer relu4_1
I0413 18:58:02.383884 14753 net.cpp:100] Creating Layer relu4_1
I0413 18:58:02.383893 14753 net.cpp:434] relu4_1 <- conv4_1
I0413 18:58:02.383903 14753 net.cpp:395] relu4_1 -> conv4_1 (in-place)
I0413 18:58:02.383918 14753 net.cpp:150] Setting up relu4_1
I0413 18:58:02.383932 14753 net.cpp:157] Top shape: 1 512 125 188 (12032000)
I0413 18:58:02.383939 14753 net.cpp:165] Memory required for data: 3198320116
I0413 18:58:02.383944 14753 layer_factory.hpp:77] Creating layer conv4_2
I0413 18:58:02.383958 14753 net.cpp:100] Creating Layer conv4_2
I0413 18:58:02.383966 14753 net.cpp:434] conv4_2 <- conv4_1
I0413 18:58:02.383978 14753 net.cpp:408] conv4_2 -> conv4_2
I0413 18:58:02.388288 14753 net.cpp:150] Setting up conv4_2
I0413 18:58:02.388324 14753 net.cpp:157] Top shape: 1 512 125 188 (12032000)
I0413 18:58:02.388336 14753 net.cpp:165] Memory required for data: 3246448116
I0413 18:58:02.388352 14753 layer_factory.hpp:77] Creating layer relu4_2
I0413 18:58:02.388363 14753 net.cpp:100] Creating Layer relu4_2
I0413 18:58:02.388367 14753 net.cpp:434] relu4_2 <- conv4_2
I0413 18:58:02.388376 14753 net.cpp:395] relu4_2 -> conv4_2 (in-place)
I0413 18:58:02.388386 14753 net.cpp:150] Setting up relu4_2
I0413 18:58:02.388391 14753 net.cpp:157] Top shape: 1 512 125 188 (12032000)
I0413 18:58:02.388394 14753 net.cpp:165] Memory required for data: 3294576116
I0413 18:58:02.388397 14753 layer_factory.hpp:77] Creating layer conv4_3
I0413 18:58:02.388406 14753 net.cpp:100] Creating Layer conv4_3
I0413 18:58:02.388411 14753 net.cpp:434] conv4_3 <- conv4_2
I0413 18:58:02.388415 14753 net.cpp:408] conv4_3 -> conv4_3
I0413 18:58:02.392462 14753 net.cpp:150] Setting up conv4_3
I0413 18:58:02.392503 14753 net.cpp:157] Top shape: 1 512 125 188 (12032000)
I0413 18:58:02.392509 14753 net.cpp:165] Memory required for data: 3342704116
I0413 18:58:02.392521 14753 layer_factory.hpp:77] Creating layer relu4_3
I0413 18:58:02.392532 14753 net.cpp:100] Creating Layer relu4_3
I0413 18:58:02.392539 14753 net.cpp:434] relu4_3 <- conv4_3
I0413 18:58:02.392546 14753 net.cpp:395] relu4_3 -> conv4_3 (in-place)
I0413 18:58:02.392559 14753 net.cpp:150] Setting up relu4_3
I0413 18:58:02.392565 14753 net.cpp:157] Top shape: 1 512 125 188 (12032000)
I0413 18:58:02.392567 14753 net.cpp:165] Memory required for data: 3390832116
I0413 18:58:02.392571 14753 layer_factory.hpp:77] Creating layer pool4
I0413 18:58:02.392580 14753 net.cpp:100] Creating Layer pool4
I0413 18:58:02.392583 14753 net.cpp:434] pool4 <- conv4_3
I0413 18:58:02.392590 14753 net.cpp:408] pool4 -> pool4
I0413 18:58:02.392637 14753 net.cpp:150] Setting up pool4
I0413 18:58:02.392647 14753 net.cpp:157] Top shape: 1 512 63 94 (3032064)
I0413 18:58:02.392649 14753 net.cpp:165] Memory required for data: 3402960372
I0413 18:58:02.392653 14753 layer_factory.hpp:77] Creating layer conv5_1
I0413 18:58:02.392666 14753 net.cpp:100] Creating Layer conv5_1
I0413 18:58:02.392670 14753 net.cpp:434] conv5_1 <- pool4
I0413 18:58:02.392676 14753 net.cpp:408] conv5_1 -> conv5_1
I0413 18:58:02.397194 14753 net.cpp:150] Setting up conv5_1
I0413 18:58:02.397222 14753 net.cpp:157] Top shape: 1 512 63 94 (3032064)
I0413 18:58:02.397234 14753 net.cpp:165] Memory required for data: 3415088628
I0413 18:58:02.397246 14753 layer_factory.hpp:77] Creating layer relu5_1
I0413 18:58:02.397258 14753 net.cpp:100] Creating Layer relu5_1
I0413 18:58:02.397264 14753 net.cpp:434] relu5_1 <- conv5_1
I0413 18:58:02.397272 14753 net.cpp:395] relu5_1 -> conv5_1 (in-place)
I0413 18:58:02.397282 14753 net.cpp:150] Setting up relu5_1
I0413 18:58:02.397287 14753 net.cpp:157] Top shape: 1 512 63 94 (3032064)
I0413 18:58:02.397291 14753 net.cpp:165] Memory required for data: 3427216884
I0413 18:58:02.397294 14753 layer_factory.hpp:77] Creating layer conv5_2
I0413 18:58:02.397305 14753 net.cpp:100] Creating Layer conv5_2
I0413 18:58:02.397310 14753 net.cpp:434] conv5_2 <- conv5_1
I0413 18:58:02.397315 14753 net.cpp:408] conv5_2 -> conv5_2
I0413 18:58:02.402148 14753 net.cpp:150] Setting up conv5_2
I0413 18:58:02.402187 14753 net.cpp:157] Top shape: 1 512 63 94 (3032064)
I0413 18:58:02.402195 14753 net.cpp:165] Memory required for data: 3439345140
I0413 18:58:02.402214 14753 layer_factory.hpp:77] Creating layer relu5_2
I0413 18:58:02.402228 14753 net.cpp:100] Creating Layer relu5_2
I0413 18:58:02.402237 14753 net.cpp:434] relu5_2 <- conv5_2
I0413 18:58:02.402251 14753 net.cpp:395] relu5_2 -> conv5_2 (in-place)
I0413 18:58:02.402266 14753 net.cpp:150] Setting up relu5_2
I0413 18:58:02.402287 14753 net.cpp:157] Top shape: 1 512 63 94 (3032064)
I0413 18:58:02.402293 14753 net.cpp:165] Memory required for data: 3451473396
I0413 18:58:02.402300 14753 layer_factory.hpp:77] Creating layer conv5_3
I0413 18:58:02.402324 14753 net.cpp:100] Creating Layer conv5_3
I0413 18:58:02.402334 14753 net.cpp:434] conv5_3 <- conv5_2
I0413 18:58:02.402344 14753 net.cpp:408] conv5_3 -> conv5_3
I0413 18:58:02.408047 14753 net.cpp:150] Setting up conv5_3
I0413 18:58:02.408078 14753 net.cpp:157] Top shape: 1 512 63 94 (3032064)
I0413 18:58:02.408092 14753 net.cpp:165] Memory required for data: 3463601652
I0413 18:58:02.408104 14753 layer_factory.hpp:77] Creating layer relu5_3
I0413 18:58:02.408118 14753 net.cpp:100] Creating Layer relu5_3
I0413 18:58:02.408123 14753 net.cpp:434] relu5_3 <- conv5_3
I0413 18:58:02.408133 14753 net.cpp:395] relu5_3 -> conv5_3 (in-place)
I0413 18:58:02.408143 14753 net.cpp:150] Setting up relu5_3
I0413 18:58:02.408149 14753 net.cpp:157] Top shape: 1 512 63 94 (3032064)
I0413 18:58:02.408154 14753 net.cpp:165] Memory required for data: 3475729908
I0413 18:58:02.408156 14753 layer_factory.hpp:77] Creating layer conv5_3_relu5_3_0_split
I0413 18:58:02.408164 14753 net.cpp:100] Creating Layer conv5_3_relu5_3_0_split
I0413 18:58:02.408169 14753 net.cpp:434] conv5_3_relu5_3_0_split <- conv5_3
I0413 18:58:02.408174 14753 net.cpp:408] conv5_3_relu5_3_0_split -> conv5_3_relu5_3_0_split_0
I0413 18:58:02.408184 14753 net.cpp:408] conv5_3_relu5_3_0_split -> conv5_3_relu5_3_0_split_1
I0413 18:58:02.408228 14753 net.cpp:150] Setting up conv5_3_relu5_3_0_split
I0413 18:58:02.408237 14753 net.cpp:157] Top shape: 1 512 63 94 (3032064)
I0413 18:58:02.408241 14753 net.cpp:157] Top shape: 1 512 63 94 (3032064)
I0413 18:58:02.408244 14753 net.cpp:165] Memory required for data: 3499986420
I0413 18:58:02.408247 14753 layer_factory.hpp:77] Creating layer rpn_big_conv1
I0413 18:58:02.408262 14753 net.cpp:100] Creating Layer rpn_big_conv1
I0413 18:58:02.408265 14753 net.cpp:434] rpn_big_conv1 <- conv5_3_relu5_3_0_split_0
I0413 18:58:02.408273 14753 net.cpp:408] rpn_big_conv1 -> rpn_big_conv1
I0413 18:58:02.436089 14753 net.cpp:150] Setting up rpn_big_conv1
I0413 18:58:02.436118 14753 net.cpp:157] Top shape: 1 512 63 94 (3032064)
I0413 18:58:02.436131 14753 net.cpp:165] Memory required for data: 3512114676
I0413 18:58:02.436141 14753 layer_factory.hpp:77] Creating layer rpn_big_conv1_relu
I0413 18:58:02.436154 14753 net.cpp:100] Creating Layer rpn_big_conv1_relu
I0413 18:58:02.436159 14753 net.cpp:434] rpn_big_conv1_relu <- rpn_big_conv1
I0413 18:58:02.436167 14753 net.cpp:395] rpn_big_conv1_relu -> rpn_big_conv1 (in-place)
I0413 18:58:02.436177 14753 net.cpp:150] Setting up rpn_big_conv1_relu
I0413 18:58:02.436182 14753 net.cpp:157] Top shape: 1 512 63 94 (3032064)
I0413 18:58:02.436184 14753 net.cpp:165] Memory required for data: 3524242932
I0413 18:58:02.436187 14753 layer_factory.hpp:77] Creating layer rpn_big_conv2
I0413 18:58:02.436198 14753 net.cpp:100] Creating Layer rpn_big_conv2
I0413 18:58:02.436202 14753 net.cpp:434] rpn_big_conv2 <- rpn_big_conv1
I0413 18:58:02.436208 14753 net.cpp:408] rpn_big_conv2 -> rpn_big_conv2
I0413 18:58:02.462985 14753 net.cpp:150] Setting up rpn_big_conv2
I0413 18:58:02.463016 14753 net.cpp:157] Top shape: 1 512 63 94 (3032064)
I0413 18:58:02.463028 14753 net.cpp:165] Memory required for data: 3536371188
I0413 18:58:02.463038 14753 layer_factory.hpp:77] Creating layer rpn_big_conv2_relu
I0413 18:58:02.463048 14753 net.cpp:100] Creating Layer rpn_big_conv2_relu
I0413 18:58:02.463054 14753 net.cpp:434] rpn_big_conv2_relu <- rpn_big_conv2
I0413 18:58:02.463063 14753 net.cpp:395] rpn_big_conv2_relu -> rpn_big_conv2 (in-place)
I0413 18:58:02.463073 14753 net.cpp:150] Setting up rpn_big_conv2_relu
I0413 18:58:02.463078 14753 net.cpp:157] Top shape: 1 512 63 94 (3032064)
I0413 18:58:02.463081 14753 net.cpp:165] Memory required for data: 3548499444
I0413 18:58:02.463084 14753 layer_factory.hpp:77] Creating layer rpn_big_conv2_drop
I0413 18:58:02.463091 14753 net.cpp:100] Creating Layer rpn_big_conv2_drop
I0413 18:58:02.463094 14753 net.cpp:434] rpn_big_conv2_drop <- rpn_big_conv2
I0413 18:58:02.463099 14753 net.cpp:395] rpn_big_conv2_drop -> rpn_big_conv2 (in-place)
I0413 18:58:02.463121 14753 net.cpp:150] Setting up rpn_big_conv2_drop
I0413 18:58:02.463129 14753 net.cpp:157] Top shape: 1 512 63 94 (3032064)
I0413 18:58:02.463131 14753 net.cpp:165] Memory required for data: 3560627700
I0413 18:58:02.463135 14753 layer_factory.hpp:77] Creating layer rpn_big_conv2_rpn_big_conv2_drop_0_split
I0413 18:58:02.463140 14753 net.cpp:100] Creating Layer rpn_big_conv2_rpn_big_conv2_drop_0_split
I0413 18:58:02.463145 14753 net.cpp:434] rpn_big_conv2_rpn_big_conv2_drop_0_split <- rpn_big_conv2
I0413 18:58:02.463150 14753 net.cpp:408] rpn_big_conv2_rpn_big_conv2_drop_0_split -> rpn_big_conv2_rpn_big_conv2_drop_0_split_0
I0413 18:58:02.463156 14753 net.cpp:408] rpn_big_conv2_rpn_big_conv2_drop_0_split -> rpn_big_conv2_rpn_big_conv2_drop_0_split_1
I0413 18:58:02.463193 14753 net.cpp:150] Setting up rpn_big_conv2_rpn_big_conv2_drop_0_split
I0413 18:58:02.463201 14753 net.cpp:157] Top shape: 1 512 63 94 (3032064)
I0413 18:58:02.463207 14753 net.cpp:157] Top shape: 1 512 63 94 (3032064)
I0413 18:58:02.463209 14753 net.cpp:165] Memory required for data: 3584884212
I0413 18:58:02.463212 14753 layer_factory.hpp:77] Creating layer rpn_big_output_cls
I0413 18:58:02.463222 14753 net.cpp:100] Creating Layer rpn_big_output_cls
I0413 18:58:02.463228 14753 net.cpp:434] rpn_big_output_cls <- rpn_big_conv2_rpn_big_conv2_drop_0_split_0
I0413 18:58:02.463235 14753 net.cpp:408] rpn_big_output_cls -> rpn_big_output_cls
I0413 18:58:02.485558 14753 net.cpp:150] Setting up rpn_big_output_cls
I0413 18:58:02.485601 14753 net.cpp:157] Top shape: 1 384 63 94 (2274048)
I0413 18:58:02.485608 14753 net.cpp:165] Memory required for data: 3593980404
I0413 18:58:02.485625 14753 layer_factory.hpp:77] Creating layer rpn_big_output_cls_relu
I0413 18:58:02.485641 14753 net.cpp:100] Creating Layer rpn_big_output_cls_relu
I0413 18:58:02.485651 14753 net.cpp:434] rpn_big_output_cls_relu <- rpn_big_output_cls
I0413 18:58:02.485662 14753 net.cpp:395] rpn_big_output_cls_relu -> rpn_big_output_cls (in-place)
I0413 18:58:02.485687 14753 net.cpp:150] Setting up rpn_big_output_cls_relu
I0413 18:58:02.485697 14753 net.cpp:157] Top shape: 1 384 63 94 (2274048)
I0413 18:58:02.485702 14753 net.cpp:165] Memory required for data: 3603076596
I0413 18:58:02.485708 14753 layer_factory.hpp:77] Creating layer rpn_big_cls_score
I0413 18:58:02.485728 14753 net.cpp:100] Creating Layer rpn_big_cls_score
I0413 18:58:02.485736 14753 net.cpp:434] rpn_big_cls_score <- rpn_big_output_cls
I0413 18:58:02.485754 14753 net.cpp:408] rpn_big_cls_score -> rpn_big_cls_score
I0413 18:58:02.488229 14753 net.cpp:150] Setting up rpn_big_cls_score
I0413 18:58:02.488245 14753 net.cpp:157] Top shape: 1 52 61 92 (291824)
I0413 18:58:02.488247 14753 net.cpp:165] Memory required for data: 3604243892
I0413 18:58:02.488270 14753 layer_factory.hpp:77] Creating layer rpn_big_cls_score_rpn_big_cls_score_0_split
I0413 18:58:02.488278 14753 net.cpp:100] Creating Layer rpn_big_cls_score_rpn_big_cls_score_0_split
I0413 18:58:02.488282 14753 net.cpp:434] rpn_big_cls_score_rpn_big_cls_score_0_split <- rpn_big_cls_score
I0413 18:58:02.488291 14753 net.cpp:408] rpn_big_cls_score_rpn_big_cls_score_0_split -> rpn_big_cls_score_rpn_big_cls_score_0_split_0
I0413 18:58:02.488297 14753 net.cpp:408] rpn_big_cls_score_rpn_big_cls_score_0_split -> rpn_big_cls_score_rpn_big_cls_score_0_split_1
I0413 18:58:02.488332 14753 net.cpp:150] Setting up rpn_big_cls_score_rpn_big_cls_score_0_split
I0413 18:58:02.488338 14753 net.cpp:157] Top shape: 1 52 61 92 (291824)
I0413 18:58:02.488343 14753 net.cpp:157] Top shape: 1 52 61 92 (291824)
I0413 18:58:02.488345 14753 net.cpp:165] Memory required for data: 3606578484
I0413 18:58:02.488348 14753 layer_factory.hpp:77] Creating layer rpn_big_cls_score_reshape
I0413 18:58:02.488356 14753 net.cpp:100] Creating Layer rpn_big_cls_score_reshape
I0413 18:58:02.488364 14753 net.cpp:434] rpn_big_cls_score_reshape <- rpn_big_cls_score_rpn_big_cls_score_0_split_0
I0413 18:58:02.488371 14753 net.cpp:408] rpn_big_cls_score_reshape -> rpn_big_cls_score_reshape
I0413 18:58:02.488397 14753 net.cpp:150] Setting up rpn_big_cls_score_reshape
I0413 18:58:02.488404 14753 net.cpp:157] Top shape: 1 2 1586 92 (291824)
I0413 18:58:02.488407 14753 net.cpp:165] Memory required for data: 3607745780
I0413 18:58:02.488410 14753 layer_factory.hpp:77] Creating layer rpn_big_cls_score_reshape_rpn_big_cls_score_reshape_0_split
I0413 18:58:02.488415 14753 net.cpp:100] Creating Layer rpn_big_cls_score_reshape_rpn_big_cls_score_reshape_0_split
I0413 18:58:02.488418 14753 net.cpp:434] rpn_big_cls_score_reshape_rpn_big_cls_score_reshape_0_split <- rpn_big_cls_score_reshape
I0413 18:58:02.488425 14753 net.cpp:408] rpn_big_cls_score_reshape_rpn_big_cls_score_reshape_0_split -> rpn_big_cls_score_reshape_rpn_big_cls_score_reshape_0_split_0
I0413 18:58:02.488431 14753 net.cpp:408] rpn_big_cls_score_reshape_rpn_big_cls_score_reshape_0_split -> rpn_big_cls_score_reshape_rpn_big_cls_score_reshape_0_split_1
I0413 18:58:02.488461 14753 net.cpp:150] Setting up rpn_big_cls_score_reshape_rpn_big_cls_score_reshape_0_split
I0413 18:58:02.488468 14753 net.cpp:157] Top shape: 1 2 1586 92 (291824)
I0413 18:58:02.488472 14753 net.cpp:157] Top shape: 1 2 1586 92 (291824)
I0413 18:58:02.488476 14753 net.cpp:165] Memory required for data: 3610080372
I0413 18:58:02.488478 14753 layer_factory.hpp:77] Creating layer rpn_big_cls_prob
I0413 18:58:02.488484 14753 net.cpp:100] Creating Layer rpn_big_cls_prob
I0413 18:58:02.488488 14753 net.cpp:434] rpn_big_cls_prob <- rpn_big_cls_score_reshape_rpn_big_cls_score_reshape_0_split_0
I0413 18:58:02.488495 14753 net.cpp:408] rpn_big_cls_prob -> rpn_big_cls_prob
I0413 18:58:02.488544 14753 net.cpp:150] Setting up rpn_big_cls_prob
I0413 18:58:02.488551 14753 net.cpp:157] Top shape: 1 2 1586 92 (291824)
I0413 18:58:02.488554 14753 net.cpp:165] Memory required for data: 3611247668
I0413 18:58:02.488557 14753 layer_factory.hpp:77] Creating layer rpn_big_cls_prob_reshape
I0413 18:58:02.488564 14753 net.cpp:100] Creating Layer rpn_big_cls_prob_reshape
I0413 18:58:02.488569 14753 net.cpp:434] rpn_big_cls_prob_reshape <- rpn_big_cls_prob
I0413 18:58:02.488574 14753 net.cpp:408] rpn_big_cls_prob_reshape -> rpn_big_cls_prob_reshape
I0413 18:58:02.488592 14753 net.cpp:150] Setting up rpn_big_cls_prob_reshape
I0413 18:58:02.488600 14753 net.cpp:157] Top shape: 1 52 61 92 (291824)
I0413 18:58:02.488602 14753 net.cpp:165] Memory required for data: 3612414964
I0413 18:58:02.488605 14753 layer_factory.hpp:77] Creating layer rpn_big_cls_prob_reshape_rpn_big_cls_prob_reshape_0_split
I0413 18:58:02.488611 14753 net.cpp:100] Creating Layer rpn_big_cls_prob_reshape_rpn_big_cls_prob_reshape_0_split
I0413 18:58:02.488615 14753 net.cpp:434] rpn_big_cls_prob_reshape_rpn_big_cls_prob_reshape_0_split <- rpn_big_cls_prob_reshape
I0413 18:58:02.488620 14753 net.cpp:408] rpn_big_cls_prob_reshape_rpn_big_cls_prob_reshape_0_split -> rpn_big_cls_prob_reshape_rpn_big_cls_prob_reshape_0_split_0
I0413 18:58:02.488626 14753 net.cpp:408] rpn_big_cls_prob_reshape_rpn_big_cls_prob_reshape_0_split -> rpn_big_cls_prob_reshape_rpn_big_cls_prob_reshape_0_split_1
I0413 18:58:02.488654 14753 net.cpp:150] Setting up rpn_big_cls_prob_reshape_rpn_big_cls_prob_reshape_0_split
I0413 18:58:02.488661 14753 net.cpp:157] Top shape: 1 52 61 92 (291824)
I0413 18:58:02.488664 14753 net.cpp:157] Top shape: 1 52 61 92 (291824)
I0413 18:58:02.488667 14753 net.cpp:165] Memory required for data: 3614749556
I0413 18:58:02.488670 14753 layer_factory.hpp:77] Creating layer rpn_big_anchor_target
I0413 18:58:02.490038 14753 net.cpp:100] Creating Layer rpn_big_anchor_target
I0413 18:58:02.490068 14753 net.cpp:434] rpn_big_anchor_target <- rpn_big_cls_score_rpn_big_cls_score_0_split_1
I0413 18:58:02.490078 14753 net.cpp:434] rpn_big_anchor_target <- input_gt_boxes_input_2_split_0
I0413 18:58:02.490084 14753 net.cpp:434] rpn_big_anchor_target <- input_ignored_boxes
I0413 18:58:02.490088 14753 net.cpp:434] rpn_big_anchor_target <- input_im_info_input_1_split_0
I0413 18:58:02.490092 14753 net.cpp:434] rpn_big_anchor_target <- input_data_input_0_split_1
I0413 18:58:02.490097 14753 net.cpp:434] rpn_big_anchor_target <- rpn_big_cls_prob_reshape_rpn_big_cls_prob_reshape_0_split_0
I0413 18:58:02.490104 14753 net.cpp:408] rpn_big_anchor_target -> rpn_big_anchor_target_labels
I0413 18:58:02.490115 14753 net.cpp:408] rpn_big_anchor_target -> rpn_big_anchor_target_bbox_targets
I0413 18:58:02.490123 14753 net.cpp:408] rpn_big_anchor_target -> rpn_big_anchor_target_inside_weights
I0413 18:58:02.490130 14753 net.cpp:408] rpn_big_anchor_target -> rpn_big_anchor_target_outside_weights
I0413 18:58:02.495592 14753 net.cpp:150] Setting up rpn_big_anchor_target
I0413 18:58:02.495630 14753 net.cpp:157] Top shape: 1 1 1586 92 (145912)
I0413 18:58:02.495637 14753 net.cpp:157] Top shape: 1 104 61 92 (583648)
I0413 18:58:02.495645 14753 net.cpp:157] Top shape: 1 104 61 92 (583648)
I0413 18:58:02.495657 14753 net.cpp:157] Top shape: 1 104 61 92 (583648)
I0413 18:58:02.495663 14753 net.cpp:165] Memory required for data: 3622336980
I0413 18:58:02.495672 14753 layer_factory.hpp:77] Creating layer rpn_big_loss_cls
I0413 18:58:02.495688 14753 net.cpp:100] Creating Layer rpn_big_loss_cls
I0413 18:58:02.495697 14753 net.cpp:434] rpn_big_loss_cls <- rpn_big_cls_score_reshape_rpn_big_cls_score_reshape_0_split_1
I0413 18:58:02.495709 14753 net.cpp:434] rpn_big_loss_cls <- rpn_big_anchor_target_labels
I0413 18:58:02.495721 14753 net.cpp:408] rpn_big_loss_cls -> rpn_big_loss_cls
I0413 18:58:02.495741 14753 layer_factory.hpp:77] Creating layer rpn_big_loss_cls
I0413 18:58:02.496526 14753 net.cpp:150] Setting up rpn_big_loss_cls
I0413 18:58:02.496541 14753 net.cpp:157] Top shape: (1)
I0413 18:58:02.496546 14753 net.cpp:160]     with loss weight 1
I0413 18:58:02.496562 14753 net.cpp:165] Memory required for data: 3622336984
I0413 18:58:02.496570 14753 layer_factory.hpp:77] Creating layer rpn_big_output_box
I0413 18:58:02.496590 14753 net.cpp:100] Creating Layer rpn_big_output_box
I0413 18:58:02.496599 14753 net.cpp:434] rpn_big_output_box <- rpn_big_conv2_rpn_big_conv2_drop_0_split_1
I0413 18:58:02.496610 14753 net.cpp:408] rpn_big_output_box -> rpn_big_output_box
I0413 18:58:02.518091 14753 net.cpp:150] Setting up rpn_big_output_box
I0413 18:58:02.518127 14753 net.cpp:157] Top shape: 1 384 63 94 (2274048)
I0413 18:58:02.518134 14753 net.cpp:165] Memory required for data: 3631433176
I0413 18:58:02.518149 14753 layer_factory.hpp:77] Creating layer rpn_big_output_box_relu
I0413 18:58:02.518165 14753 net.cpp:100] Creating Layer rpn_big_output_box_relu
I0413 18:58:02.518174 14753 net.cpp:434] rpn_big_output_box_relu <- rpn_big_output_box
I0413 18:58:02.518190 14753 net.cpp:395] rpn_big_output_box_relu -> rpn_big_output_box (in-place)
I0413 18:58:02.518204 14753 net.cpp:150] Setting up rpn_big_output_box_relu
I0413 18:58:02.518213 14753 net.cpp:157] Top shape: 1 384 63 94 (2274048)
I0413 18:58:02.518223 14753 net.cpp:165] Memory required for data: 3640529368
I0413 18:58:02.518227 14753 layer_factory.hpp:77] Creating layer rpn_big_bbox_pred
I0413 18:58:02.518244 14753 net.cpp:100] Creating Layer rpn_big_bbox_pred
I0413 18:58:02.518249 14753 net.cpp:434] rpn_big_bbox_pred <- rpn_big_output_box
I0413 18:58:02.518260 14753 net.cpp:408] rpn_big_bbox_pred -> rpn_big_bbox_pred
I0413 18:58:02.523902 14753 net.cpp:150] Setting up rpn_big_bbox_pred
I0413 18:58:02.523943 14753 net.cpp:157] Top shape: 1 104 61 92 (583648)
I0413 18:58:02.523949 14753 net.cpp:165] Memory required for data: 3642863960
I0413 18:58:02.523965 14753 layer_factory.hpp:77] Creating layer rpn_big_bbox_pred_rpn_big_bbox_pred_0_split
I0413 18:58:02.523982 14753 net.cpp:100] Creating Layer rpn_big_bbox_pred_rpn_big_bbox_pred_0_split
I0413 18:58:02.523990 14753 net.cpp:434] rpn_big_bbox_pred_rpn_big_bbox_pred_0_split <- rpn_big_bbox_pred
I0413 18:58:02.524001 14753 net.cpp:408] rpn_big_bbox_pred_rpn_big_bbox_pred_0_split -> rpn_big_bbox_pred_rpn_big_bbox_pred_0_split_0
I0413 18:58:02.524019 14753 net.cpp:408] rpn_big_bbox_pred_rpn_big_bbox_pred_0_split -> rpn_big_bbox_pred_rpn_big_bbox_pred_0_split_1
I0413 18:58:02.524071 14753 net.cpp:150] Setting up rpn_big_bbox_pred_rpn_big_bbox_pred_0_split
I0413 18:58:02.524081 14753 net.cpp:157] Top shape: 1 104 61 92 (583648)
I0413 18:58:02.524091 14753 net.cpp:157] Top shape: 1 104 61 92 (583648)
I0413 18:58:02.524096 14753 net.cpp:165] Memory required for data: 3647533144
I0413 18:58:02.524102 14753 layer_factory.hpp:77] Creating layer rpn_big_loss_bbox
I0413 18:58:02.524585 14753 net.cpp:100] Creating Layer rpn_big_loss_bbox
I0413 18:58:02.524598 14753 net.cpp:434] rpn_big_loss_bbox <- rpn_big_bbox_pred_rpn_big_bbox_pred_0_split_0
I0413 18:58:02.524610 14753 net.cpp:434] rpn_big_loss_bbox <- rpn_big_anchor_target_bbox_targets
I0413 18:58:02.524619 14753 net.cpp:434] rpn_big_loss_bbox <- rpn_big_anchor_target_inside_weights
I0413 18:58:02.524628 14753 net.cpp:434] rpn_big_loss_bbox <- rpn_big_anchor_target_outside_weights
I0413 18:58:02.524638 14753 net.cpp:408] rpn_big_loss_bbox -> rpn_big_loss_bbox
I0413 18:58:02.526968 14753 net.cpp:150] Setting up rpn_big_loss_bbox
I0413 18:58:02.527014 14753 net.cpp:157] Top shape: 1 (1)
I0413 18:58:02.527019 14753 net.cpp:160]     with loss weight 1
I0413 18:58:02.527034 14753 net.cpp:165] Memory required for data: 3647533148
I0413 18:58:02.527042 14753 layer_factory.hpp:77] Creating layer proposal
I0413 18:58:02.527595 14753 net.cpp:100] Creating Layer proposal
I0413 18:58:02.527611 14753 net.cpp:434] proposal <- rpn_big_cls_prob_reshape_rpn_big_cls_prob_reshape_0_split_1
I0413 18:58:02.527629 14753 net.cpp:434] proposal <- rpn_big_bbox_pred_rpn_big_bbox_pred_0_split_1
I0413 18:58:02.527637 14753 net.cpp:434] proposal <- input_im_info_input_1_split_1
I0413 18:58:02.527649 14753 net.cpp:408] proposal -> rpn_rois
I0413 18:58:02.532371 14753 net.cpp:150] Setting up proposal
I0413 18:58:02.532384 14753 net.cpp:157] Top shape: 1 5 (5)
I0413 18:58:02.532388 14753 net.cpp:165] Memory required for data: 3647533168
I0413 18:58:02.532402 14753 layer_factory.hpp:77] Creating layer roi-data
I0413 18:58:02.532732 14753 net.cpp:100] Creating Layer roi-data
I0413 18:58:02.532740 14753 net.cpp:434] roi-data <- rpn_rois
I0413 18:58:02.532747 14753 net.cpp:434] roi-data <- input_gt_boxes_input_2_split_1
I0413 18:58:02.532762 14753 net.cpp:408] roi-data -> pid_label
I0413 18:58:02.532771 14753 net.cpp:408] roi-data -> rois
I0413 18:58:02.532783 14753 net.cpp:408] roi-data -> labels
I0413 18:58:02.532799 14753 net.cpp:408] roi-data -> bbox_targets
I0413 18:58:02.532809 14753 net.cpp:408] roi-data -> bbox_inside_weights
I0413 18:58:02.532822 14753 net.cpp:408] roi-data -> bbox_outside_weights
I0413 18:58:02.533815 14753 net.cpp:150] Setting up roi-data
I0413 18:58:02.533828 14753 net.cpp:157] Top shape: 1 5 (5)
I0413 18:58:02.533838 14753 net.cpp:157] Top shape: 1 1 (1)
I0413 18:58:02.533846 14753 net.cpp:157] Top shape: 1 8 (8)
I0413 18:58:02.533854 14753 net.cpp:157] Top shape: 1 8 (8)
I0413 18:58:02.533861 14753 net.cpp:157] Top shape: 1 8 (8)
I0413 18:58:02.533869 14753 net.cpp:157] Top shape: (0)
I0413 18:58:02.533874 14753 net.cpp:165] Memory required for data: 3647533288
I0413 18:58:02.533879 14753 layer_factory.hpp:77] Creating layer roi-pool
I0413 18:58:02.533890 14753 net.cpp:100] Creating Layer roi-pool
I0413 18:58:02.533897 14753 net.cpp:434] roi-pool <- conv5_3_relu5_3_0_split_1
I0413 18:58:02.533905 14753 net.cpp:434] roi-pool <- rois
I0413 18:58:02.533915 14753 net.cpp:408] roi-pool -> roi-pool
I0413 18:58:02.533927 14753 roi_pooling_layer.cpp:33] Spatial scale: 0.0625
I0413 18:58:02.533941 14753 roi_pooling_layer.cpp:34] Box scale: 1
I0413 18:58:02.533993 14753 net.cpp:150] Setting up roi-pool
I0413 18:58:02.534008 14753 net.cpp:157] Top shape: 1 512 7 7 (25088)
I0413 18:58:02.534013 14753 net.cpp:165] Memory required for data: 3647633640
I0413 18:58:02.534018 14753 layer_factory.hpp:77] Creating layer fc6
I0413 18:58:02.534029 14753 net.cpp:100] Creating Layer fc6
I0413 18:58:02.534035 14753 net.cpp:434] fc6 <- roi-pool
I0413 18:58:02.534046 14753 net.cpp:408] fc6 -> fc6
I0413 18:58:02.699427 14753 net.cpp:150] Setting up fc6
I0413 18:58:02.699463 14753 net.cpp:157] Top shape: 1 4096 (4096)
I0413 18:58:02.699476 14753 net.cpp:165] Memory required for data: 3647650024
I0413 18:58:02.699487 14753 layer_factory.hpp:77] Creating layer relu6
I0413 18:58:02.699498 14753 net.cpp:100] Creating Layer relu6
I0413 18:58:02.699503 14753 net.cpp:434] relu6 <- fc6
I0413 18:58:02.699512 14753 net.cpp:395] relu6 -> fc6 (in-place)
I0413 18:58:02.699523 14753 net.cpp:150] Setting up relu6
I0413 18:58:02.699530 14753 net.cpp:157] Top shape: 1 4096 (4096)
I0413 18:58:02.699534 14753 net.cpp:165] Memory required for data: 3647666408
I0413 18:58:02.699539 14753 layer_factory.hpp:77] Creating layer drop6
I0413 18:58:02.699553 14753 net.cpp:100] Creating Layer drop6
I0413 18:58:02.699571 14753 net.cpp:434] drop6 <- fc6
I0413 18:58:02.699579 14753 net.cpp:395] drop6 -> fc6 (in-place)
I0413 18:58:02.699610 14753 net.cpp:150] Setting up drop6
I0413 18:58:02.699620 14753 net.cpp:157] Top shape: 1 4096 (4096)
I0413 18:58:02.699625 14753 net.cpp:165] Memory required for data: 3647682792
I0413 18:58:02.699630 14753 layer_factory.hpp:77] Creating layer fc7
I0413 18:58:02.699640 14753 net.cpp:100] Creating Layer fc7
I0413 18:58:02.699645 14753 net.cpp:434] fc7 <- fc6
I0413 18:58:02.699656 14753 net.cpp:408] fc7 -> fc7
I0413 18:58:02.729249 14753 net.cpp:150] Setting up fc7
I0413 18:58:02.729279 14753 net.cpp:157] Top shape: 1 4096 (4096)
I0413 18:58:02.729290 14753 net.cpp:165] Memory required for data: 3647699176
I0413 18:58:02.729301 14753 layer_factory.hpp:77] Creating layer relu7
I0413 18:58:02.729332 14753 net.cpp:100] Creating Layer relu7
I0413 18:58:02.729341 14753 net.cpp:434] relu7 <- fc7
I0413 18:58:02.729357 14753 net.cpp:395] relu7 -> fc7 (in-place)
I0413 18:58:02.729370 14753 net.cpp:150] Setting up relu7
I0413 18:58:02.729378 14753 net.cpp:157] Top shape: 1 4096 (4096)
I0413 18:58:02.729383 14753 net.cpp:165] Memory required for data: 3647715560
I0413 18:58:02.729389 14753 layer_factory.hpp:77] Creating layer drop7
I0413 18:58:02.729398 14753 net.cpp:100] Creating Layer drop7
I0413 18:58:02.729403 14753 net.cpp:434] drop7 <- fc7
I0413 18:58:02.729411 14753 net.cpp:395] drop7 -> fc7 (in-place)
I0413 18:58:02.729442 14753 net.cpp:150] Setting up drop7
I0413 18:58:02.729451 14753 net.cpp:157] Top shape: 1 4096 (4096)
I0413 18:58:02.729456 14753 net.cpp:165] Memory required for data: 3647731944
I0413 18:58:02.729462 14753 layer_factory.hpp:77] Creating layer fc7_drop7_0_split
I0413 18:58:02.729470 14753 net.cpp:100] Creating Layer fc7_drop7_0_split
I0413 18:58:02.729476 14753 net.cpp:434] fc7_drop7_0_split <- fc7
I0413 18:58:02.729485 14753 net.cpp:408] fc7_drop7_0_split -> fc7_drop7_0_split_0
I0413 18:58:02.729512 14753 net.cpp:408] fc7_drop7_0_split -> fc7_drop7_0_split_1
I0413 18:58:02.729559 14753 net.cpp:150] Setting up fc7_drop7_0_split
I0413 18:58:02.729569 14753 net.cpp:157] Top shape: 1 4096 (4096)
I0413 18:58:02.729578 14753 net.cpp:157] Top shape: 1 4096 (4096)
I0413 18:58:02.729584 14753 net.cpp:165] Memory required for data: 3647764712
I0413 18:58:02.729589 14753 layer_factory.hpp:77] Creating layer bbox_pred
I0413 18:58:02.729599 14753 net.cpp:100] Creating Layer bbox_pred
I0413 18:58:02.729605 14753 net.cpp:434] bbox_pred <- fc7_drop7_0_split_0
I0413 18:58:02.729617 14753 net.cpp:408] bbox_pred -> bbox_pred
I0413 18:58:02.730247 14753 net.cpp:150] Setting up bbox_pred
I0413 18:58:02.730257 14753 net.cpp:157] Top shape: 1 8 (8)
I0413 18:58:02.730259 14753 net.cpp:165] Memory required for data: 3647764744
I0413 18:58:02.730273 14753 layer_factory.hpp:77] Creating layer loss_bbox
I0413 18:58:02.730288 14753 net.cpp:100] Creating Layer loss_bbox
I0413 18:58:02.730294 14753 net.cpp:434] loss_bbox <- bbox_pred
I0413 18:58:02.730304 14753 net.cpp:434] loss_bbox <- bbox_targets
I0413 18:58:02.730311 14753 net.cpp:434] loss_bbox <- bbox_inside_weights
…
