…
I0413 18:52:29.309317 14388 solver.cpp:48] Initializing solver from parameters: 
base_lr: 0.001
display: 20
lr_policy: "multistep"
gamma: 0.1
momentum: 0.9
weight_decay: 0.0005
snapshot: 0
snapshot_prefix: "faces_example"
net_param {
  name: "GeneratedModel_13_04_2017_18_52"
  layer {
    name: "input"
    type: "Python"
    top: "input_data"
    top: "input_im_info"
    top: "input_gt_boxes"
    top: "input_ignored_boxes"
    python_param {
      module: "layers.roi_data_layer"
      layer: "RoIDataLayer"
      param_str: "{\"num_classes\": 2}"
    }
  }
  layer {
    name: "conv1_1"
    type: "Convolution"
    bottom: "input_data"
    top: "conv1_1"
    param {
      lr_mult: 0
      decay_mult: 0
    }
    param {
      lr_mult: 0
      decay_mult: 0
    }
    convolution_param {
      num_output: 64
      pad: 1
      kernel_size: 3
    }
  }
  layer {
    name: "relu1_1"
    type: "ReLU"
    bottom: "conv1_1"
    top: "conv1_1"
  }
  layer {
    name: "conv1_2"
    type: "Convolution"
    bottom: "conv1_1"
    top: "conv1_2"
    param {
      lr_mult: 0
      decay_mult: 0
    }
    param {
      lr_mult: 0
      decay_mult: 0
    }
    convolution_param {
      num_output: 64
      pad: 1
      kernel_size: 3
    }
  }
  layer {
    name: "relu1_2"
    type: "ReLU"
    bottom: "conv1_2"
    top: "conv1_2"
  }
  layer {
    name: "pool1"
    type: "Pooling"
    bottom: "conv1_2"
    top: "pool1"
    pooling_param {
      pool: MAX
      kernel_size: 2
      stride: 2
    }
  }
  layer {
    name: "conv2_1"
    type: "Convolution"
    bottom: "pool1"
    top: "conv2_1"
    param {
      lr_mult: 0
      decay_mult: 0
    }
    param {
      lr_mult: 0
      decay_mult: 0
    }
    convolution_param {
      num_output: 128
      pad: 1
      kernel_size: 3
    }
  }
  layer {
    name: "relu2_1"
    type: "ReLU"
    bottom: "conv2_1"
    top: "conv2_1"
  }
  layer {
    name: "conv2_2"
    type: "Convolution"
    bottom: "conv2_1"
    top: "conv2_2"
    param {
      lr_mult: 0
      decay_mult: 0
    }
    param {
      lr_mult: 0
      decay_mult: 0
    }
    convolution_param {
      num_output: 128
      pad: 1
      kernel_size: 3
    }
  }
  layer {
    name: "relu2_2"
    type: "ReLU"
    bottom: "conv2_2"
    top: "conv2_2"
  }
  layer {
    name: "pool2"
    type: "Pooling"
    bottom: "conv2_2"
    top: "pool2"
    pooling_param {
      pool: MAX
      kernel_size: 2
      stride: 2
    }
  }
  layer {
    name: "conv3_1"
    type: "Convolution"
    bottom: "pool2"
    top: "conv3_1"
    param {
      lr_mult: 1
    }
    param {
      lr_mult: 2
    }
    convolution_param {
      num_output: 256
      pad: 1
      kernel_size: 3
    }
  }
  layer {
    name: "relu3_1"
    type: "ReLU"
    bottom: "conv3_1"
    top: "conv3_1"
  }
  layer {
    name: "conv3_2"
    type: "Convolution"
    bottom: "conv3_1"
    top: "conv3_2"
    param {
      lr_mult: 1
    }
    param {
      lr_mult: 2
    }
    convolution_param {
      num_output: 256
      pad: 1
      kernel_size: 3
    }
  }
  layer {
    name: "relu3_2"
    type: "ReLU"
    bottom: "conv3_2"
    top: "conv3_2"
  }
  layer {
    name: "conv3_3"
    type: "Convolution"
    bottom: "conv3_2"
    top: "conv3_3"
    param {
      lr_mult: 1
    }
    param {
      lr_mult: 2
    }
    convolution_param {
      num_output: 256
      pad: 1
      kernel_size: 3
    }
  }
  layer {
    name: "relu3_3"
    type: "ReLU"
    bottom: "conv3_3"
    top: "conv3_3"
  }
  layer {
    name: "pool3"
    type: "Pooling"
    bottom: "conv3_3"
    top: "pool3"
    pooling_param {
      pool: MAX
      kernel_size: 2
      stride: 2
    }
  }
  layer {
    name: "conv4_1"
    type: "Convolution"
    bottom: "pool3"
    top: "conv4_1"
    param {
      lr_mult: 1
    }
    param {
      lr_mult: 2
    }
    convolution_param {
      num_output: 512
      pad: 1
      kernel_size: 3
    }
  }
  layer {
    name: "relu4_1"
    type: "ReLU"
    bottom: "conv4_1"
    top: "conv4_1"
  }
  layer {
    name: "conv4_2"
    type: "Convolution"
    bottom: "conv4_1"
    top: "conv4_2"
    param {
      lr_mult: 1
    }
    param {
      lr_mult: 2
    }
    convolution_param {
      num_output: 512
      pad: 1
      kernel_size: 3
    }
  }
  layer {
    name: "relu4_2"
    type: "ReLU"
    bottom: "conv4_2"
    top: "conv4_2"
  }
  layer {
    name: "conv4_3"
    type: "Convolution"
    bottom: "conv4_2"
    top: "conv4_3"
    param {
      lr_mult: 1
    }
    param {
      lr_mult: 2
    }
    convolution_param {
      num_output: 512
      pad: 1
      kernel_size: 3
    }
  }
  layer {
    name: "relu4_3"
    type: "ReLU"
    bottom: "conv4_3"
    top: "conv4_3"
  }
  layer {
    name: "pool4"
    type: "Pooling"
    bottom: "conv4_3"
    top: "pool4"
    pooling_param {
      pool: MAX
      kernel_size: 2
      stride: 2
    }
  }
  layer {
    name: "conv5_1"
    type: "Convolution"
    bottom: "pool4"
    top: "conv5_1"
    param {
      lr_mult: 1
    }
    param {
      lr_mult: 2
    }
    convolution_param {
      num_output: 512
      pad: 1
      kernel_size: 3
    }
  }
  layer {
    name: "relu5_1"
    type: "ReLU"
    bottom: "conv5_1"
    top: "conv5_1"
  }
  layer {
    name: "conv5_2"
    type: "Convolution"
    bottom: "conv5_1"
    top: "conv5_2"
    param {
      lr_mult: 1
    }
    param {
      lr_mult: 2
    }
    convolution_param {
      num_output: 512
      pad: 1
      kernel_size: 3
    }
  }
  layer {
    name: "relu5_2"
    type: "ReLU"
    bottom: "conv5_2"
    top: "conv5_2"
  }
  layer {
    name: "conv5_3"
    type: "Convolution"
    bottom: "conv5_2"
    top: "conv5_3"
    param {
      lr_mult: 1
    }
    param {
      lr_mult: 2
    }
    convolution_param {
      num_output: 512
      pad: 1
      kernel_size: 3
    }
  }
  layer {
    name: "relu5_3"
    type: "ReLU"
    bottom: "conv5_3"
    top: "conv5_3"
  }
  layer {
    name: "rpn_big_conv1"
    type: "Convolution"
    bottom: "conv5_3"
    top: "rpn_big_conv1"
    param {
      lr_mult: 1
    }
    param {
      lr_mult: 2
    }
    convolution_param {
      num_output: 512
      pad: 1
      kernel_size: 3
      stride: 1
      weight_filler {
        type: "gaussian"
        mean: 0
        std: 0.01
      }
      bias_filler {
        type: "constant"
      }
    }
  }
  layer {
    name: "rpn_big_conv1_relu"
    type: "ReLU"
    bottom: "rpn_big_conv1"
    top: "rpn_big_conv1"
    relu_param {
      negative_slope: 0
    }
  }
  layer {
    name: "rpn_big_conv2"
    type: "Convolution"
    bottom: "rpn_big_conv1"
    top: "rpn_big_conv2"
    param {
      lr_mult: 1
    }
    param {
      lr_mult: 2
    }
    convolution_param {
      num_output: 512
      pad: 1
      kernel_size: 3
      stride: 1
      weight_filler {
        type: "gaussian"
        mean: 0
        std: 0.01
      }
      bias_filler {
        type: "constant"
      }
    }
  }
  layer {
    name: "rpn_big_conv2_relu"
    type: "ReLU"
    bottom: "rpn_big_conv2"
    top: "rpn_big_conv2"
    relu_param {
      negative_slope: 0
    }
  }
  layer {
    name: "rpn_big_conv2_drop"
    type: "Dropout"
    bottom: "rpn_big_conv2"
    top: "rpn_big_conv2"
    dropout_param {
      dropout_ratio: 0.3
    }
  }
  layer {
    name: "rpn_big_output_cls"
    type: "Convolution"
    bottom: "rpn_big_conv2"
    top: "rpn_big_output_cls"
    param {
      lr_mult: 1
    }
    param {
      lr_mult: 2
    }
    convolution_param {
      num_output: 384
      pad: 1
      kernel_size: 3
      stride: 1
      weight_filler {
        type: "gaussian"
        mean: 0
        std: 0.01
      }
      bias_filler {
        type: "constant"
      }
    }
  }
  layer {
    name: "rpn_big_output_cls_relu"
    type: "ReLU"
    bottom: "rpn_big_output_cls"
    top: "rpn_big_output_cls"
    relu_param {
      negative_slope: 0
    }
  }
  layer {
    name: "rpn_big_cls_score"
    type: "Convolution"
    bottom: "rpn_big_output_cls"
    top: "rpn_big_cls_score"
    param {
      lr_mult: 1
    }
    param {
      lr_mult: 2
    }
    convolution_param {
      num_output: 52
      pad: 0
      kernel_size: 3
      stride: 1
      weight_filler {
        type: "gaussian"
        mean: 0
        std: 0.01
      }
      bias_filler {
        type: "constant"
      }
    }
  }
  layer {
    name: "rpn_big_cls_score_reshape"
    type: "Reshape"
    bottom: "rpn_big_cls_score"
    top: "rpn_big_cls_score_reshape"
    reshape_param {
      shape {
        dim: 0
        dim: 2
        dim: -1
        dim: 0
      }
    }
  }
  layer {
    name: "rpn_big_cls_prob"
    type: "Softmax"
    bottom: "rpn_big_cls_score_reshape"
    top: "rpn_big_cls_prob"
  }
  layer {
    name: "rpn_big_cls_prob_reshape"
    type: "Reshape"
    bottom: "rpn_big_cls_prob"
    top: "rpn_big_cls_prob_reshape"
    reshape_param {
      shape {
        dim: 0
        dim: 52
        dim: -1
        dim: 0
      }
    }
  }
  layer {
    name: "rpn_big_anchor_target"
    type: "Python"
    bottom: "rpn_big_cls_score"
    bottom: "input_gt_boxes"
    bottom: "input_ignored_boxes"
    bottom: "input_im_info"
    bottom: "input_data"
    bottom: "rpn_big_cls_prob_reshape"
    top: "rpn_big_anchor_target_labels"
    top: "rpn_big_anchor_target_bbox_targets"
    top: "rpn_big_anchor_target_inside_weights"
    top: "rpn_big_anchor_target_outside_weights"
    python_param {
      module: "rpn.anchor_target_layer"
      layer: "AnchorTargetLayer"
      param_str: "{\"anchor_ratios\": [1.0], \"num_classes\": 1, \"batchsize\": 256, \"anchor_scales\": [2.5, 3.025, 3.66025, 4.4289024999999995, 5.358972025, 6.484356150249999, 7.846070941802498, 9.493745839581022, 11.487432465893036, 13.899793283730574, 16.818749873313998, 20.350687346709933, 24.62433168951902, 29.795441344318014], \"anchor_shift_num_xy\": [[2, 2], [2, 2], [2, 2], [2, 2], [1, 1], [1, 1], [1, 1], [1, 1], [1, 1], [1, 1], [1, 1], [1, 1], [1, 1], [1, 1]], \"feat_stride\": 16, \"name\": \"rpn_big\", \"square_targets\": true, \"tn_fraction\": 0.2, \"negative_overlap\": 0.4, \"fg_fraction\": 0.5, \"positive_overlap\": 0.6}"
    }
  }
  layer {
    name: "rpn_big_loss_cls"
    type: "SoftmaxWithLoss"
    bottom: "rpn_big_cls_score_reshape"
    bottom: "rpn_big_anchor_target_labels"
    top: "rpn_big_loss_cls"
    loss_weight: 1
    propagate_down: true
    propagate_down: false
    loss_param {
      ignore_label: -1
      normalization: VALID
    }
  }
  layer {
    name: "rpn_big_output_box"
    type: "Convolution"
    bottom: "rpn_big_conv2"
    top: "rpn_big_output_box"
    param {
      lr_mult: 1
    }
    param {
      lr_mult: 2
    }
    convolution_param {
      num_output: 384
      pad: 1
      kernel_size: 3
      stride: 1
      weight_filler {
        type: "gaussian"
        mean: 0
        std: 0.01
      }
      bias_filler {
        type: "constant"
      }
    }
  }
  layer {
    name: "rpn_big_output_box_relu"
    type: "ReLU"
    bottom: "rpn_big_output_box"
    top: "rpn_big_output_box"
    relu_param {
      negative_slope: 0
    }
  }
  layer {
    name: "rpn_big_bbox_pred"
    type: "Convolution"
    bottom: "rpn_big_output_box"
    top: "rpn_big_bbox_pred"
    param {
      lr_mult: 1
    }
    param {
      lr_mult: 2
    }
    convolution_param {
      num_output: 104
      pad: 0
      kernel_size: 3
      stride: 1
      weight_filler {
        type: "gaussian"
        mean: 0
        std: 0.01
      }
      bias_filler {
        type: "constant"
      }
    }
  }
  layer {
    name: "rpn_big_loss_bbox"
    type: "Python"
    bottom: "rpn_big_bbox_pred"
    bottom: "rpn_big_anchor_target_bbox_targets"
    bottom: "rpn_big_anchor_target_inside_weights"
    bottom: "rpn_big_anchor_target_outside_weights"
    top: "rpn_big_loss_bbox"
    loss_weight: 1
    python_param {
      module: "layers.smooth_l1_loss"
      layer: "SmoothL1LossLayer"
      param_str: "{\"sigma\": 3}"
    }
  }
  layer {
    name: "proposal"
    type: "Python"
    bottom: "rpn_big_cls_prob_reshape"
    bottom: "rpn_big_bbox_pred"
    bottom: "input_im_info"
    top: "rpn_rois"
    python_param {
      module: "rpn.proposal_layer"
      layer: "ProposalLayer"
      param_str: "{\"anchor_shift_num_xy\": [[2, 2], [2, 2], [2, 2], [2, 2], [1, 1], [1, 1], [1, 1], [1, 1], [1, 1], [1, 1], [1, 1], [1, 1], [1, 1], [1, 1]], \"feat_stride\": 16, \"num_classes\": 1, \"anchor_scales\": [2.5, 3.025, 3.66025, 4.4289024999999995, 5.358972025, 6.484356150249999, 7.846070941802498, 9.493745839581022, 11.487432465893036, 13.899793283730574, 16.818749873313998, 20.350687346709933, 24.62433168951902, 29.795441344318014], \"square_targets\": true, \"name\": \"rpn_big\", \"batchsize\": 256, \"anchor_ratios\": [1.0]}"
    }
  }
  layer {
    name: "roi-data"
    type: "Python"
    bottom: "rpn_rois"
    bottom: "input_gt_boxes"
    top: "rois"
    top: "labels"
    top: "bbox_targets"
    top: "bbox_inside_weights"
    top: "bbox_outside_weights"
    top: "pid_label"
    python_param {
      module: "rpn.proposal_target_layer"
      layer: "ProposalTargetLayer"
      param_str: "{\"num_classes\": 2, \"bg_aux_label\": 5532}"
    }
  }
  layer {
    name: "roi-pool"
    type: "ROIPooling"
    bottom: "conv5_3"
    bottom: "rois"
    top: "roi-pool"
    roi_pooling_param {
      pooled_h: 7
      pooled_w: 7
      spatial_scale: 0.0625
    }
  }
  layer {
    name: "fc6"
    type: "InnerProduct"
    bottom: "roi-pool"
    top: "fc6"
    param {
      lr_mult: 1
    }
    param {
      lr_mult: 2
    }
    inner_product_param {
      num_output: 4096
    }
  }
  layer {
    name: "relu6"
    type: "ReLU"
    bottom: "fc6"
    top: "fc6"
  }
  layer {
    name: "drop6"
    type: "Dropout"
    bottom: "fc6"
    top: "fc6"
    dropout_param {
      dropout_ratio: 0.5
    }
  }
  layer {
    name: "fc7"
    type: "InnerProduct"
    bottom: "fc6"
    top: "fc7"
    param {
      lr_mult: 1
    }
    param {
      lr_mult: 2
    }
    inner_product_param {
      num_output: 4096
    }
  }
  layer {
    name: "relu7"
    type: "ReLU"
    bottom: "fc7"
    top: "fc7"
  }
  layer {
    name: "drop7"
    type: "Dropout"
    bottom: "fc7"
    top: "fc7"
    dropout_param {
      dropout_ratio: 0.5
    }
  }
  layer {
    name: "bbox_pred"
    type: "InnerProduct"
    bottom: "fc7"
    top: "bbox_pred"
    param {
      lr_mult: 1
    }
    param {
      lr_mult: 2
    }
    inner_product_param {
      num_output: 8
      weight_filler {
        type: "gaussian"
        std: 0.001
      }
      bias_filler {
        type: "constant"
        value: 0
      }
    }
  }
  layer {
    name: "loss_bbox"
    type: "SmoothL1Loss"
    bottom: "bbox_pred"
    bottom: "bbox_targets"
    bottom: "bbox_inside_weights"
    bottom: "bbox_outside_weights"
    top: "loss_bbox"
    loss_weight: 1
  }
  layer {
    name: "feat"
    type: "InnerProduct"
    bottom: "fc7"
    top: "feat"
    param {
      lr_mult: 1
      decay_mult: 1
    }
    param {
      lr_mult: 2
      decay_mult: 0
    }
    inner_product_param {
      num_output: 256
      weight_filler {
        type: "gaussian"
        std: 0.01
      }
      bias_filler {
        type: "constant"
        value: 0
      }
    }
  }
  layer {
    name: "relu8"
    type: "ReLU"
    bottom: "feat"
    top: "feat"
  }
  layer {
    name: "drop8"
    type: "Dropout"
    bottom: "feat"
    top: "feat"
    dropout_param {
      dropout_ratio: 0.5
    }
  }
  layer {
    name: "pid_score"
    type: "InnerProduct"
    bottom: "feat"
    top: "pid_score"
    param {
      lr_mult: 1
      decay_mult: 1
    }
    param {
      lr_mult: 2
      decay_mult: 0
    }
    inner_product_param {
      num_output: 5533
      weight_filler {
        type: "gaussian"
        std: 0.001
      }
      bias_filler {
        type: "constant"
        value: 0
      }
    }
  }
  layer {
    name: "pid_loss"
    type: "SoftmaxWithLoss"
    bottom: "pid_score"
    bottom: "pid_label"
    top: "pid_loss"
    loss_weight: 1
    propagate_down: true
    propagate_down: false
    loss_param {
      ignore_label: -1
      normalize: true
    }
  }
}
average_loss: 100
stepvalue: 70000
stepvalue: 120000
iter_size: 2
I0413 18:52:29.309409 14388 solver.cpp:86] Creating training net specified in net_param.
I0413 18:52:29.309870 14388 net.cpp:58] Initializing net from parameters: 
name: "GeneratedModel_13_04_2017_18_52"
state {
  phase: TRAIN
}
layer {
  name: "input"
  type: "Python"
  top: "input_data"
  top: "input_im_info"
  top: "input_gt_boxes"
  top: "input_ignored_boxes"
  python_param {
    module: "layers.roi_data_layer"
    layer: "RoIDataLayer"
    param_str: "{\"num_classes\": 2}"
  }
}
layer {
  name: "conv1_1"
  type: "Convolution"
  bottom: "input_data"
  top: "conv1_1"
  param {
    lr_mult: 0
    decay_mult: 0
  }
  param {
    lr_mult: 0
    decay_mult: 0
  }
  convolution_param {
    num_output: 64
    pad: 1
    kernel_size: 3
  }
}
layer {
  name: "relu1_1"
  type: "ReLU"
  bottom: "conv1_1"
  top: "conv1_1"
}
layer {
  name: "conv1_2"
  type: "Convolution"
  bottom: "conv1_1"
  top: "conv1_2"
  param {
    lr_mult: 0
    decay_mult: 0
  }
  param {
    lr_mult: 0
    decay_mult: 0
  }
  convolution_param {
    num_output: 64
    pad: 1
    kernel_size: 3
  }
}
layer {
  name: "relu1_2"
  type: "ReLU"
  bottom: "conv1_2"
  top: "conv1_2"
}
layer {
  name: "pool1"
  type: "Pooling"
  bottom: "conv1_2"
  top: "pool1"
  pooling_param {
    pool: MAX
    kernel_size: 2
    stride: 2
  }
}
layer {
  name: "conv2_1"
  type: "Convolution"
  bottom: "pool1"
  top: "conv2_1"
  param {
    lr_mult: 0
    decay_mult: 0
  }
  param {
    lr_mult: 0
    decay_mult: 0
  }
  convolution_param {
    num_output: 128
    pad: 1
    kernel_size: 3
  }
}
layer {
  name: "relu2_1"
  type: "ReLU"
  bottom: "conv2_1"
  top: "conv2_1"
}
layer {
  name: "conv2_2"
  type: "Convolution"
  bottom: "conv2_1"
  top: "conv2_2"
  param {
    lr_mult: 0
    decay_mult: 0
  }
  param {
    lr_mult: 0
    decay_mult: 0
  }
  convolution_param {
    num_output: 128
    pad: 1
    kernel_size: 3
  }
}
layer {
  name: "relu2_2"
  type: "ReLU"
  bottom: "conv2_2"
  top: "conv2_2"
}
layer {
  name: "pool2"
  type: "Pooling"
  bottom: "conv2_2"
  top: "pool2"
  pooling_param {
    pool: MAX
    kernel_size: 2
    stride: 2
  }
}
layer {
  name: "conv3_1"
  type: "Convolution"
  bottom: "pool2"
  top: "conv3_1"
  param {
    lr_mult: 1
  }
  param {
    lr_mult: 2
  }
  convolution_param {
    num_output: 256
    pad: 1
    kernel_size: 3
  }
}
layer {
  name: "relu3_1"
  type: "ReLU"
  bottom: "conv3_1"
  top: "conv3_1"
}
layer {
  name: "conv3_2"
  type: "Convolution"
  bottom: "conv3_1"
  top: "conv3_2"
  param {
    lr_mult: 1
  }
  param {
    lr_mult: 2
  }
  convolution_param {
    num_output: 256
    pad: 1
    kernel_size: 3
  }
}
layer {
  name: "relu3_2"
  type: "ReLU"
  bottom: "conv3_2"
  top: "conv3_2"
}
layer {
  name: "conv3_3"
  type: "Convolution"
  bottom: "conv3_2"
  top: "conv3_3"
  param {
    lr_mult: 1
  }
  param {
    lr_mult: 2
  }
  convolution_param {
    num_output: 256
    pad: 1
    kernel_size: 3
  }
}
layer {
  name: "relu3_3"
  type: "ReLU"
  bottom: "conv3_3"
  top: "conv3_3"
}
layer {
  name: "pool3"
  type: "Pooling"
  bottom: "conv3_3"
  top: "pool3"
  pooling_param {
    pool: MAX
    kernel_size: 2
    stride: 2
  }
}
layer {
  name: "conv4_1"
  type: "Convolution"
  bottom: "pool3"
  top: "conv4_1"
  param {
    lr_mult: 1
  }
  param {
    lr_mult: 2
  }
  convolution_param {
    num_output: 512
    pad: 1
    kernel_size: 3
  }
}
layer {
  name: "relu4_1"
  type: "ReLU"
  bottom: "conv4_1"
  top: "conv4_1"
}
layer {
  name: "conv4_2"
  type: "Convolution"
  bottom: "conv4_1"
  top: "conv4_2"
  param {
    lr_mult: 1
  }
  param {
    lr_mult: 2
  }
  convolution_param {
    num_output: 512
    pad: 1
    kernel_size: 3
  }
}
layer {
  name: "relu4_2"
  type: "ReLU"
  bottom: "conv4_2"
  top: "conv4_2"
}
layer {
  name: "conv4_3"
  type: "Convolution"
  bottom: "conv4_2"
  top: "conv4_3"
  param {
    lr_mult: 1
  }
  param {
    lr_mult: 2
  }
  convolution_param {
    num_output: 512
    pad: 1
    kernel_size: 3
  }
}
layer {
  name: "relu4_3"
  type: "ReLU"
  bottom: "conv4_3"
  top: "conv4_3"
}
layer {
  name: "pool4"
  type: "Pooling"
  bottom: "conv4_3"
  top: "pool4"
  pooling_param {
    pool: MAX
    kernel_size: 2
    stride: 2
  }
}
layer {
  name: "conv5_1"
  type: "Convolution"
  bottom: "pool4"
  top: "conv5_1"
  param {
    lr_mult: 1
  }
  param {
    lr_mult: 2
  }
  convolution_param {
    num_output: 512
    pad: 1
    kernel_size: 3
  }
}
layer {
  name: "relu5_1"
  type: "ReLU"
  bottom: "conv5_1"
  top: "conv5_1"
}
layer {
  name: "conv5_2"
  type: "Convolution"
  bottom: "conv5_1"
  top: "conv5_2"
  param {
    lr_mult: 1
  }
  param {
    lr_mult: 2
  }
  convolution_param {
    num_output: 512
    pad: 1
    kernel_size: 3
  }
}
layer {
  name: "relu5_2"
  type: "ReLU"
  bottom: "conv5_2"
  top: "conv5_2"
}
layer {
  name: "conv5_3"
  type: "Convolution"
  bottom: "conv5_2"
  top: "conv5_3"
  param {
    lr_mult: 1
  }
  param {
    lr_mult: 2
  }
  convolution_param {
    num_output: 512
    pad: 1
    kernel_size: 3
  }
}
layer {
  name: "relu5_3"
  type: "ReLU"
  bottom: "conv5_3"
  top: "conv5_3"
}
layer {
  name: "rpn_big_conv1"
  type: "Convolution"
  bottom: "conv5_3"
  top: "rpn_big_conv1"
  param {
    lr_mult: 1
  }
  param {
    lr_mult: 2
  }
  convolution_param {
    num_output: 512
    pad: 1
    kernel_size: 3
    stride: 1
    weight_filler {
      type: "gaussian"
      mean: 0
      std: 0.01
    }
    bias_filler {
      type: "constant"
    }
  }
}
layer {
  name: "rpn_big_conv1_relu"
  type: "ReLU"
  bottom: "rpn_big_conv1"
  top: "rpn_big_conv1"
  relu_param {
    negative_slope: 0
  }
}
layer {
  name: "rpn_big_conv2"
  type: "Convolution"
  bottom: "rpn_big_conv1"
  top: "rpn_big_conv2"
  param {
    lr_mult: 1
  }
  param {
    lr_mult: 2
  }
  convolution_param {
    num_output: 512
    pad: 1
    kernel_size: 3
    stride: 1
    weight_filler {
      type: "gaussian"
      mean: 0
      std: 0.01
    }
    bias_filler {
      type: "constant"
    }
  }
}
layer {
  name: "rpn_big_conv2_relu"
  type: "ReLU"
  bottom: "rpn_big_conv2"
  top: "rpn_big_conv2"
  relu_param {
    negative_slope: 0
  }
}
layer {
  name: "rpn_big_conv2_drop"
  type: "Dropout"
  bottom: "rpn_big_conv2"
  top: "rpn_big_conv2"
  dropout_param {
    dropout_ratio: 0.3
  }
}
layer {
  name: "rpn_big_output_cls"
  type: "Convolution"
  bottom: "rpn_big_conv2"
  top: "rpn_big_output_cls"
  param {
    lr_mult: 1
  }
  param {
    lr_mult: 2
  }
  convolution_param {
    num_output: 384
    pad: 1
    kernel_size: 3
    stride: 1
    weight_filler {
      type: "gaussian"
      mean: 0
      std: 0.01
    }
    bias_filler {
      type: "constant"
    }
  }
}
layer {
  name: "rpn_big_output_cls_relu"
  type: "ReLU"
  bottom: "rpn_big_output_cls"
  top: "rpn_big_output_cls"
  relu_param {
    negative_slope: 0
  }
}
layer {
  name: "rpn_big_cls_score"
  type: "Convolution"
  bottom: "rpn_big_output_cls"
  top: "rpn_big_cls_score"
  param {
    lr_mult: 1
  }
  param {
    lr_mult: 2
  }
  convolution_param {
    num_output: 52
    pad: 0
    kernel_size: 3
    stride: 1
    weight_filler {
      type: "gaussian"
      mean: 0
      std: 0.01
    }
    bias_filler {
      type: "constant"
    }
  }
}
layer {
  name: "rpn_big_cls_score_reshape"
  type: "Reshape"
  bottom: "rpn_big_cls_score"
  top: "rpn_big_cls_score_reshape"
  reshape_param {
    shape {
      dim: 0
      dim: 2
      dim: -1
      dim: 0
    }
  }
}
layer {
  name: "rpn_big_cls_prob"
  type: "Softmax"
  bottom: "rpn_big_cls_score_reshape"
  top: "rpn_big_cls_prob"
}
layer {
  name: "rpn_big_cls_prob_reshape"
  type: "Reshape"
  bottom: "rpn_big_cls_prob"
  top: "rpn_big_cls_prob_reshape"
  reshape_param {
    shape {
      dim: 0
      dim: 52
      dim: -1
      dim: 0
    }
  }
}
layer {
  name: "rpn_big_anchor_target"
  type: "Python"
  bottom: "rpn_big_cls_score"
  bottom: "input_gt_boxes"
  bottom: "input_ignored_boxes"
  bottom: "input_im_info"
  bottom: "input_data"
  bottom: "rpn_big_cls_prob_reshape"
  top: "rpn_big_anchor_target_labels"
  top: "rpn_big_anchor_target_bbox_targets"
  top: "rpn_big_anchor_target_inside_weights"
  top: "rpn_big_anchor_target_outside_weights"
  python_param {
    module: "rpn.anchor_target_layer"
    layer: "AnchorTargetLayer"
    param_str: "{\"anchor_ratios\": [1.0], \"num_classes\": 1, \"batchsize\": 256, \"anchor_scales\": [2.5, 3.025, 3.66025, 4.4289024999999995, 5.358972025, 6.484356150249999, 7.846070941802498, 9.493745839581022, 11.487432465893036, 13.899793283730574, 16.818749873313998, 20.350687346709933, 24.62433168951902, 29.795441344318014], \"anchor_shift_num_xy\": [[2, 2], [2, 2], [2, 2], [2, 2], [1, 1], [1, 1], [1, 1], [1, 1], [1, 1], [1, 1], [1, 1], [1, 1], [1, 1], [1, 1]], \"feat_stride\": 16, \"name\": \"rpn_big\", \"square_targets\": true, \"tn_fraction\": 0.2, \"negative_overlap\": 0.4, \"fg_fraction\": 0.5, \"positive_overlap\": 0.6}"
  }
}
layer {
  name: "rpn_big_loss_cls"
  type: "SoftmaxWithLoss"
  bottom: "rpn_big_cls_score_reshape"
  bottom: "rpn_big_anchor_target_labels"
  top: "rpn_big_loss_cls"
  loss_weight: 1
  propagate_down: true
  propagate_down: false
  loss_param {
    ignore_label: -1
    normalization: VALID
  }
}
layer {
  name: "rpn_big_output_box"
  type: "Convolution"
  bottom: "rpn_big_conv2"
  top: "rpn_big_output_box"
  param {
    lr_mult: 1
  }
  param {
    lr_mult: 2
  }
  convolution_param {
    num_output: 384
    pad: 1
    kernel_size: 3
    stride: 1
    weight_filler {
      type: "gaussian"
      mean: 0
      std: 0.01
    }
    bias_filler {
      type: "constant"
    }
  }
}
layer {
  name: "rpn_big_output_box_relu"
  type: "ReLU"
  bottom: "rpn_big_output_box"
  top: "rpn_big_output_box"
  relu_param {
    negative_slope: 0
  }
}
layer {
  name: "rpn_big_bbox_pred"
  type: "Convolution"
  bottom: "rpn_big_output_box"
  top: "rpn_big_bbox_pred"
  param {
    lr_mult: 1
  }
  param {
    lr_mult: 2
  }
  convolution_param {
    num_output: 104
    pad: 0
    kernel_size: 3
    stride: 1
    weight_filler {
      type: "gaussian"
      mean: 0
      std: 0.01
    }
    bias_filler {
      type: "constant"
    }
  }
}
layer {
  name: "rpn_big_loss_bbox"
  type: "Python"
  bottom: "rpn_big_bbox_pred"
  bottom: "rpn_big_anchor_target_bbox_targets"
  bottom: "rpn_big_anchor_target_inside_weights"
  bottom: "rpn_big_anchor_target_outside_weights"
  top: "rpn_big_loss_bbox"
  loss_weight: 1
  python_param {
    module: "layers.smooth_l1_loss"
    layer: "SmoothL1LossLayer"
    param_str: "{\"sigma\": 3}"
  }
}
layer {
  name: "proposal"
  type: "Python"
  bottom: "rpn_big_cls_prob_reshape"
  bottom: "rpn_big_bbox_pred"
  bottom: "input_im_info"
  top: "rpn_rois"
  python_param {
    module: "rpn.proposal_layer"
    layer: "ProposalLayer"
    param_str: "{\"anchor_shift_num_xy\": [[2, 2], [2, 2], [2, 2], [2, 2], [1, 1], [1, 1], [1, 1], [1, 1], [1, 1], [1, 1], [1, 1], [1, 1], [1, 1], [1, 1]], \"feat_stride\": 16, \"num_classes\": 1, \"anchor_scales\": [2.5, 3.025, 3.66025, 4.4289024999999995, 5.358972025, 6.484356150249999, 7.846070941802498, 9.493745839581022, 11.487432465893036, 13.899793283730574, 16.818749873313998, 20.350687346709933, 24.62433168951902, 29.795441344318014], \"square_targets\": true, \"name\": \"rpn_big\", \"batchsize\": 256, \"anchor_ratios\": [1.0]}"
  }
}
layer {
  name: "roi-data"
  type: "Python"
  bottom: "rpn_rois"
  bottom: "input_gt_boxes"
  top: "rois"
  top: "labels"
  top: "bbox_targets"
  top: "bbox_inside_weights"
  top: "bbox_outside_weights"
  top: "pid_label"
  python_param {
    module: "rpn.proposal_target_layer"
    layer: "ProposalTargetLayer"
    param_str: "{\"num_classes\": 2, \"bg_aux_label\": 5532}"
  }
}
layer {
  name: "roi-pool"
  type: "ROIPooling"
  bottom: "conv5_3"
  bottom: "rois"
  top: "roi-pool"
  roi_pooling_param {
    pooled_h: 7
    pooled_w: 7
    spatial_scale: 0.0625
  }
}
layer {
  name: "fc6"
  type: "InnerProduct"
  bottom: "roi-pool"
  top: "fc6"
  param {
    lr_mult: 1
  }
  param {
    lr_mult: 2
  }
  inner_product_param {
    num_output: 4096
  }
}
layer {
  name: "relu6"
  type: "ReLU"
  bottom: "fc6"
  top: "fc6"
}
layer {
  name: "drop6"
  type: "Dropout"
  bottom: "fc6"
  top: "fc6"
  dropout_param {
    dropout_ratio: 0.5
  }
}
layer {
  name: "fc7"
  type: "InnerProduct"
  bottom: "fc6"
  top: "fc7"
  param {
    lr_mult: 1
  }
  param {
    lr_mult: 2
  }
  inner_product_param {
    num_output: 4096
  }
}
layer {
  name: "relu7"
  type: "ReLU"
  bottom: "fc7"
  top: "fc7"
}
layer {
  name: "drop7"
  type: "Dropout"
  bottom: "fc7"
  top: "fc7"
  dropout_param {
    dropout_ratio: 0.5
  }
}
layer {
  name: "bbox_pred"
  type: "InnerProduct"
  bottom: "fc7"
  top: "bbox_pred"
  param {
    lr_mult: 1
  }
  param {
    lr_mult: 2
  }
  inner_product_param {
    num_output: 8
    weight_filler {
      type: "gaussian"
      std: 0.001
    }
    bias_filler {
      type: "constant"
      value: 0
    }
  }
}
layer {
  name: "loss_bbox"
  type: "SmoothL1Loss"
  bottom: "bbox_pred"
  bottom: "bbox_targets"
  bottom: "bbox_inside_weights"
  bottom: "bbox_outside_weights"
  top: "loss_bbox"
  loss_weight: 1
}
layer {
  name: "feat"
  type: "InnerProduct"
  bottom: "fc7"
  top: "feat"
  param {
    lr_mult: 1
    decay_mult: 1
  }
  param {
    lr_mult: 2
    decay_mult: 0
  }
  inner_product_param {
    num_output: 256
    weight_filler {
      type: "gaussian"
      std: 0.01
    }
    bias_filler {
      type: "constant"
      value: 0
    }
  }
}
layer {
  name: "relu8"
  type: "ReLU"
  bottom: "feat"
  top: "feat"
}
layer {
  name: "drop8"
  type: "Dropout"
  bottom: "feat"
  top: "feat"
  dropout_param {
    dropout_ratio: 0.5
  }
}
layer {
  name: "pid_score"
  type: "InnerProduct"
  bottom: "feat"
  top: "pid_score"
  param {
    lr_mult: 1
    decay_mult: 1
  }
  param {
    lr_mult: 2
    decay_mult: 0
  }
  inner_product_param {
    num_output: 5533
    weight_filler {
      type: "gaussian"
      std: 0.001
    }
    bias_filler {
      type: "constant"
      value: 0
    }
  }
}
layer {
  name: "pid_loss"
  type: "SoftmaxWithLoss"
  bottom: "pid_score"
  bottom: "pid_label"
  top: "pid_loss"
  loss_weight: 1
  propagate_down: true
  propagate_down: false
  loss_param {
    ignore_label: -1
    normalize: true
  }
}
I0413 18:52:29.310117 14388 layer_factory.hpp:77] Creating layer input
I0413 18:52:29.311391 14388 net.cpp:100] Creating Layer input
I0413 18:52:29.311408 14388 net.cpp:408] input -> input_data
I0413 18:52:29.311420 14388 net.cpp:408] input -> input_im_info
I0413 18:52:29.311427 14388 net.cpp:408] input -> input_gt_boxes
I0413 18:52:29.311434 14388 net.cpp:408] input -> input_ignored_boxes
RoiDataLayer: name_to_top: {'ignored_boxes': 3, 'data': 0, 'im_info': 1, 'gt_boxes': 2}
I0413 18:52:29.633500 14388 net.cpp:150] Setting up input
I0413 18:52:29.633533 14388 net.cpp:157] Top shape: 1 3 1000 1500 (4500000)
I0413 18:52:29.633555 14388 net.cpp:157] Top shape: 1 3 (3)
I0413 18:52:29.633564 14388 net.cpp:157] Top shape: 1 5 (5)
I0413 18:52:29.633571 14388 net.cpp:157] Top shape: 1 5 (5)
I0413 18:52:29.633577 14388 net.cpp:165] Memory required for data: 18000052
I0413 18:52:29.633589 14388 layer_factory.hpp:77] Creating layer input_data_input_0_split
I0413 18:52:29.633607 14388 net.cpp:100] Creating Layer input_data_input_0_split
I0413 18:52:29.633620 14388 net.cpp:434] input_data_input_0_split <- input_data
I0413 18:52:29.633635 14388 net.cpp:408] input_data_input_0_split -> input_data_input_0_split_0
I0413 18:52:29.633656 14388 net.cpp:408] input_data_input_0_split -> input_data_input_0_split_1
I0413 18:52:29.633700 14388 net.cpp:150] Setting up input_data_input_0_split
I0413 18:52:29.633711 14388 net.cpp:157] Top shape: 1 3 1000 1500 (4500000)
I0413 18:52:29.633719 14388 net.cpp:157] Top shape: 1 3 1000 1500 (4500000)
I0413 18:52:29.633726 14388 net.cpp:165] Memory required for data: 54000052
I0413 18:52:29.633733 14388 layer_factory.hpp:77] Creating layer input_im_info_input_1_split
I0413 18:52:29.633744 14388 net.cpp:100] Creating Layer input_im_info_input_1_split
I0413 18:52:29.633750 14388 net.cpp:434] input_im_info_input_1_split <- input_im_info
I0413 18:52:29.633759 14388 net.cpp:408] input_im_info_input_1_split -> input_im_info_input_1_split_0
I0413 18:52:29.633771 14388 net.cpp:408] input_im_info_input_1_split -> input_im_info_input_1_split_1
I0413 18:52:29.633808 14388 net.cpp:150] Setting up input_im_info_input_1_split
I0413 18:52:29.633817 14388 net.cpp:157] Top shape: 1 3 (3)
I0413 18:52:29.633826 14388 net.cpp:157] Top shape: 1 3 (3)
I0413 18:52:29.633831 14388 net.cpp:165] Memory required for data: 54000076
I0413 18:52:29.633838 14388 layer_factory.hpp:77] Creating layer input_gt_boxes_input_2_split
I0413 18:52:29.633847 14388 net.cpp:100] Creating Layer input_gt_boxes_input_2_split
I0413 18:52:29.633853 14388 net.cpp:434] input_gt_boxes_input_2_split <- input_gt_boxes
I0413 18:52:29.633863 14388 net.cpp:408] input_gt_boxes_input_2_split -> input_gt_boxes_input_2_split_0
I0413 18:52:29.633877 14388 net.cpp:408] input_gt_boxes_input_2_split -> input_gt_boxes_input_2_split_1
I0413 18:52:29.633913 14388 net.cpp:150] Setting up input_gt_boxes_input_2_split
I0413 18:52:29.633924 14388 net.cpp:157] Top shape: 1 5 (5)
I0413 18:52:29.633931 14388 net.cpp:157] Top shape: 1 5 (5)
I0413 18:52:29.633936 14388 net.cpp:165] Memory required for data: 54000116
I0413 18:52:29.633944 14388 layer_factory.hpp:77] Creating layer conv1_1
I0413 18:52:29.633960 14388 net.cpp:100] Creating Layer conv1_1
I0413 18:52:29.633966 14388 net.cpp:434] conv1_1 <- input_data_input_0_split_0
I0413 18:52:29.633976 14388 net.cpp:408] conv1_1 -> conv1_1
I0413 18:52:29.637135 14388 net.cpp:150] Setting up conv1_1
I0413 18:52:29.637172 14388 net.cpp:157] Top shape: 1 64 1000 1500 (96000000)
I0413 18:52:29.637179 14388 net.cpp:165] Memory required for data: 438000116
I0413 18:52:29.637204 14388 layer_factory.hpp:77] Creating layer relu1_1
I0413 18:52:29.637219 14388 net.cpp:100] Creating Layer relu1_1
I0413 18:52:29.637228 14388 net.cpp:434] relu1_1 <- conv1_1
I0413 18:52:29.637239 14388 net.cpp:395] relu1_1 -> conv1_1 (in-place)
I0413 18:52:29.637255 14388 net.cpp:150] Setting up relu1_1
I0413 18:52:29.637290 14388 net.cpp:157] Top shape: 1 64 1000 1500 (96000000)
I0413 18:52:29.637310 14388 net.cpp:165] Memory required for data: 822000116
I0413 18:52:29.637318 14388 layer_factory.hpp:77] Creating layer conv1_2
I0413 18:52:29.637333 14388 net.cpp:100] Creating Layer conv1_2
I0413 18:52:29.637341 14388 net.cpp:434] conv1_2 <- conv1_1
I0413 18:52:29.637351 14388 net.cpp:408] conv1_2 -> conv1_2
I0413 18:52:29.640799 14388 net.cpp:150] Setting up conv1_2
I0413 18:52:29.640831 14388 net.cpp:157] Top shape: 1 64 1000 1500 (96000000)
I0413 18:52:29.640836 14388 net.cpp:165] Memory required for data: 1206000116
I0413 18:52:29.640871 14388 layer_factory.hpp:77] Creating layer relu1_2
I0413 18:52:29.640887 14388 net.cpp:100] Creating Layer relu1_2
I0413 18:52:29.640895 14388 net.cpp:434] relu1_2 <- conv1_2
I0413 18:52:29.640914 14388 net.cpp:395] relu1_2 -> conv1_2 (in-place)
I0413 18:52:29.640930 14388 net.cpp:150] Setting up relu1_2
I0413 18:52:29.640940 14388 net.cpp:157] Top shape: 1 64 1000 1500 (96000000)
I0413 18:52:29.640945 14388 net.cpp:165] Memory required for data: 1590000116
I0413 18:52:29.640950 14388 layer_factory.hpp:77] Creating layer pool1
I0413 18:52:29.640964 14388 net.cpp:100] Creating Layer pool1
I0413 18:52:29.640971 14388 net.cpp:434] pool1 <- conv1_2
I0413 18:52:29.640980 14388 net.cpp:408] pool1 -> pool1
I0413 18:52:29.641067 14388 net.cpp:150] Setting up pool1
I0413 18:52:29.641077 14388 net.cpp:157] Top shape: 1 64 500 750 (24000000)
I0413 18:52:29.641083 14388 net.cpp:165] Memory required for data: 1686000116
I0413 18:52:29.641089 14388 layer_factory.hpp:77] Creating layer conv2_1
I0413 18:52:29.641108 14388 net.cpp:100] Creating Layer conv2_1
I0413 18:52:29.641115 14388 net.cpp:434] conv2_1 <- pool1
I0413 18:52:29.641124 14388 net.cpp:408] conv2_1 -> conv2_1
I0413 18:52:29.642462 14388 net.cpp:150] Setting up conv2_1
I0413 18:52:29.642482 14388 net.cpp:157] Top shape: 1 128 500 750 (48000000)
I0413 18:52:29.642487 14388 net.cpp:165] Memory required for data: 1878000116
I0413 18:52:29.642504 14388 layer_factory.hpp:77] Creating layer relu2_1
I0413 18:52:29.642518 14388 net.cpp:100] Creating Layer relu2_1
I0413 18:52:29.642525 14388 net.cpp:434] relu2_1 <- conv2_1
I0413 18:52:29.642534 14388 net.cpp:395] relu2_1 -> conv2_1 (in-place)
I0413 18:52:29.642547 14388 net.cpp:150] Setting up relu2_1
I0413 18:52:29.642556 14388 net.cpp:157] Top shape: 1 128 500 750 (48000000)
I0413 18:52:29.642561 14388 net.cpp:165] Memory required for data: 2070000116
I0413 18:52:29.642566 14388 layer_factory.hpp:77] Creating layer conv2_2
I0413 18:52:29.642580 14388 net.cpp:100] Creating Layer conv2_2
I0413 18:52:29.642587 14388 net.cpp:434] conv2_2 <- conv2_1
I0413 18:52:29.642597 14388 net.cpp:408] conv2_2 -> conv2_2
I0413 18:52:29.643616 14388 net.cpp:150] Setting up conv2_2
I0413 18:52:29.643640 14388 net.cpp:157] Top shape: 1 128 500 750 (48000000)
I0413 18:52:29.643642 14388 net.cpp:165] Memory required for data: 2262000116
I0413 18:52:29.643656 14388 layer_factory.hpp:77] Creating layer relu2_2
I0413 18:52:29.643668 14388 net.cpp:100] Creating Layer relu2_2
I0413 18:52:29.643676 14388 net.cpp:434] relu2_2 <- conv2_2
I0413 18:52:29.643687 14388 net.cpp:395] relu2_2 -> conv2_2 (in-place)
I0413 18:52:29.643698 14388 net.cpp:150] Setting up relu2_2
I0413 18:52:29.643707 14388 net.cpp:157] Top shape: 1 128 500 750 (48000000)
I0413 18:52:29.643712 14388 net.cpp:165] Memory required for data: 2454000116
I0413 18:52:29.643718 14388 layer_factory.hpp:77] Creating layer pool2
I0413 18:52:29.643729 14388 net.cpp:100] Creating Layer pool2
I0413 18:52:29.643735 14388 net.cpp:434] pool2 <- conv2_2
I0413 18:52:29.643743 14388 net.cpp:408] pool2 -> pool2
I0413 18:52:29.643800 14388 net.cpp:150] Setting up pool2
I0413 18:52:29.643812 14388 net.cpp:157] Top shape: 1 128 250 375 (12000000)
I0413 18:52:29.643818 14388 net.cpp:165] Memory required for data: 2502000116
I0413 18:52:29.643823 14388 layer_factory.hpp:77] Creating layer conv3_1
I0413 18:52:29.643836 14388 net.cpp:100] Creating Layer conv3_1
I0413 18:52:29.643841 14388 net.cpp:434] conv3_1 <- pool2
I0413 18:52:29.643852 14388 net.cpp:408] conv3_1 -> conv3_1
I0413 18:52:29.645090 14388 net.cpp:150] Setting up conv3_1
I0413 18:52:29.645117 14388 net.cpp:157] Top shape: 1 256 250 375 (24000000)
I0413 18:52:29.645122 14388 net.cpp:165] Memory required for data: 2598000116
I0413 18:52:29.645140 14388 layer_factory.hpp:77] Creating layer relu3_1
I0413 18:52:29.645155 14388 net.cpp:100] Creating Layer relu3_1
I0413 18:52:29.645164 14388 net.cpp:434] relu3_1 <- conv3_1
I0413 18:52:29.645174 14388 net.cpp:395] relu3_1 -> conv3_1 (in-place)
I0413 18:52:29.645187 14388 net.cpp:150] Setting up relu3_1
I0413 18:52:29.645195 14388 net.cpp:157] Top shape: 1 256 250 375 (24000000)
I0413 18:52:29.645200 14388 net.cpp:165] Memory required for data: 2694000116
I0413 18:52:29.645206 14388 layer_factory.hpp:77] Creating layer conv3_2
I0413 18:52:29.645226 14388 net.cpp:100] Creating Layer conv3_2
I0413 18:52:29.645232 14388 net.cpp:434] conv3_2 <- conv3_1
I0413 18:52:29.645244 14388 net.cpp:408] conv3_2 -> conv3_2
I0413 18:52:29.646509 14388 net.cpp:150] Setting up conv3_2
I0413 18:52:29.646534 14388 net.cpp:157] Top shape: 1 256 250 375 (24000000)
I0413 18:52:29.646538 14388 net.cpp:165] Memory required for data: 2790000116
I0413 18:52:29.646550 14388 layer_factory.hpp:77] Creating layer relu3_2
I0413 18:52:29.646566 14388 net.cpp:100] Creating Layer relu3_2
I0413 18:52:29.646574 14388 net.cpp:434] relu3_2 <- conv3_2
I0413 18:52:29.646584 14388 net.cpp:395] relu3_2 -> conv3_2 (in-place)
I0413 18:52:29.646597 14388 net.cpp:150] Setting up relu3_2
I0413 18:52:29.646605 14388 net.cpp:157] Top shape: 1 256 250 375 (24000000)
I0413 18:52:29.646612 14388 net.cpp:165] Memory required for data: 2886000116
I0413 18:52:29.646620 14388 layer_factory.hpp:77] Creating layer conv3_3
I0413 18:52:29.646632 14388 net.cpp:100] Creating Layer conv3_3
I0413 18:52:29.646639 14388 net.cpp:434] conv3_3 <- conv3_2
I0413 18:52:29.646653 14388 net.cpp:408] conv3_3 -> conv3_3
I0413 18:52:29.648294 14388 net.cpp:150] Setting up conv3_3
I0413 18:52:29.648326 14388 net.cpp:157] Top shape: 1 256 250 375 (24000000)
I0413 18:52:29.648329 14388 net.cpp:165] Memory required for data: 2982000116
I0413 18:52:29.648344 14388 layer_factory.hpp:77] Creating layer relu3_3
I0413 18:52:29.648360 14388 net.cpp:100] Creating Layer relu3_3
I0413 18:52:29.648370 14388 net.cpp:434] relu3_3 <- conv3_3
I0413 18:52:29.648380 14388 net.cpp:395] relu3_3 -> conv3_3 (in-place)
I0413 18:52:29.648394 14388 net.cpp:150] Setting up relu3_3
I0413 18:52:29.648403 14388 net.cpp:157] Top shape: 1 256 250 375 (24000000)
I0413 18:52:29.648409 14388 net.cpp:165] Memory required for data: 3078000116
I0413 18:52:29.648416 14388 layer_factory.hpp:77] Creating layer pool3
I0413 18:52:29.648427 14388 net.cpp:100] Creating Layer pool3
I0413 18:52:29.648434 14388 net.cpp:434] pool3 <- conv3_3
I0413 18:52:29.648442 14388 net.cpp:408] pool3 -> pool3
I0413 18:52:29.648504 14388 net.cpp:150] Setting up pool3
I0413 18:52:29.648514 14388 net.cpp:157] Top shape: 1 256 125 188 (6016000)
I0413 18:52:29.648520 14388 net.cpp:165] Memory required for data: 3102064116
I0413 18:52:29.648526 14388 layer_factory.hpp:77] Creating layer conv4_1
I0413 18:52:29.648540 14388 net.cpp:100] Creating Layer conv4_1
I0413 18:52:29.648547 14388 net.cpp:434] conv4_1 <- pool3
I0413 18:52:29.648560 14388 net.cpp:408] conv4_1 -> conv4_1
I0413 18:52:29.651365 14388 net.cpp:150] Setting up conv4_1
I0413 18:52:29.651401 14388 net.cpp:157] Top shape: 1 512 125 188 (12032000)
I0413 18:52:29.651406 14388 net.cpp:165] Memory required for data: 3150192116
I0413 18:52:29.651417 14388 layer_factory.hpp:77] Creating layer relu4_1
I0413 18:52:29.651432 14388 net.cpp:100] Creating Layer relu4_1
I0413 18:52:29.651438 14388 net.cpp:434] relu4_1 <- conv4_1
I0413 18:52:29.651451 14388 net.cpp:395] relu4_1 -> conv4_1 (in-place)
I0413 18:52:29.651465 14388 net.cpp:150] Setting up relu4_1
I0413 18:52:29.651474 14388 net.cpp:157] Top shape: 1 512 125 188 (12032000)
I0413 18:52:29.651479 14388 net.cpp:165] Memory required for data: 3198320116
I0413 18:52:29.651484 14388 layer_factory.hpp:77] Creating layer conv4_2
I0413 18:52:29.651499 14388 net.cpp:100] Creating Layer conv4_2
I0413 18:52:29.651505 14388 net.cpp:434] conv4_2 <- conv4_1
I0413 18:52:29.651515 14388 net.cpp:408] conv4_2 -> conv4_2
I0413 18:52:29.656042 14388 net.cpp:150] Setting up conv4_2
I0413 18:52:29.656078 14388 net.cpp:157] Top shape: 1 512 125 188 (12032000)
I0413 18:52:29.656082 14388 net.cpp:165] Memory required for data: 3246448116
I0413 18:52:29.656105 14388 layer_factory.hpp:77] Creating layer relu4_2
I0413 18:52:29.656122 14388 net.cpp:100] Creating Layer relu4_2
I0413 18:52:29.656131 14388 net.cpp:434] relu4_2 <- conv4_2
I0413 18:52:29.656141 14388 net.cpp:395] relu4_2 -> conv4_2 (in-place)
I0413 18:52:29.656157 14388 net.cpp:150] Setting up relu4_2
I0413 18:52:29.656165 14388 net.cpp:157] Top shape: 1 512 125 188 (12032000)
I0413 18:52:29.656172 14388 net.cpp:165] Memory required for data: 3294576116
I0413 18:52:29.656177 14388 layer_factory.hpp:77] Creating layer conv4_3
I0413 18:52:29.656190 14388 net.cpp:100] Creating Layer conv4_3
I0413 18:52:29.656198 14388 net.cpp:434] conv4_3 <- conv4_2
I0413 18:52:29.656206 14388 net.cpp:408] conv4_3 -> conv4_3
I0413 18:52:29.660590 14388 net.cpp:150] Setting up conv4_3
I0413 18:52:29.660624 14388 net.cpp:157] Top shape: 1 512 125 188 (12032000)
I0413 18:52:29.660629 14388 net.cpp:165] Memory required for data: 3342704116
I0413 18:52:29.660641 14388 layer_factory.hpp:77] Creating layer relu4_3
I0413 18:52:29.660655 14388 net.cpp:100] Creating Layer relu4_3
I0413 18:52:29.660663 14388 net.cpp:434] relu4_3 <- conv4_3
I0413 18:52:29.660676 14388 net.cpp:395] relu4_3 -> conv4_3 (in-place)
I0413 18:52:29.660689 14388 net.cpp:150] Setting up relu4_3
I0413 18:52:29.660697 14388 net.cpp:157] Top shape: 1 512 125 188 (12032000)
I0413 18:52:29.660703 14388 net.cpp:165] Memory required for data: 3390832116
I0413 18:52:29.660708 14388 layer_factory.hpp:77] Creating layer pool4
I0413 18:52:29.660719 14388 net.cpp:100] Creating Layer pool4
I0413 18:52:29.660727 14388 net.cpp:434] pool4 <- conv4_3
I0413 18:52:29.660734 14388 net.cpp:408] pool4 -> pool4
I0413 18:52:29.660786 14388 net.cpp:150] Setting up pool4
I0413 18:52:29.660797 14388 net.cpp:157] Top shape: 1 512 63 94 (3032064)
I0413 18:52:29.660804 14388 net.cpp:165] Memory required for data: 3402960372
I0413 18:52:29.660809 14388 layer_factory.hpp:77] Creating layer conv5_1
I0413 18:52:29.660823 14388 net.cpp:100] Creating Layer conv5_1
I0413 18:52:29.660830 14388 net.cpp:434] conv5_1 <- pool4
I0413 18:52:29.660843 14388 net.cpp:408] conv5_1 -> conv5_1
I0413 18:52:29.665654 14388 net.cpp:150] Setting up conv5_1
I0413 18:52:29.665688 14388 net.cpp:157] Top shape: 1 512 63 94 (3032064)
I0413 18:52:29.665694 14388 net.cpp:165] Memory required for data: 3415088628
I0413 18:52:29.665709 14388 layer_factory.hpp:77] Creating layer relu5_1
I0413 18:52:29.665725 14388 net.cpp:100] Creating Layer relu5_1
I0413 18:52:29.665750 14388 net.cpp:434] relu5_1 <- conv5_1
I0413 18:52:29.665774 14388 net.cpp:395] relu5_1 -> conv5_1 (in-place)
I0413 18:52:29.665802 14388 net.cpp:150] Setting up relu5_1
I0413 18:52:29.665829 14388 net.cpp:157] Top shape: 1 512 63 94 (3032064)
I0413 18:52:29.665845 14388 net.cpp:165] Memory required for data: 3427216884
I0413 18:52:29.665861 14388 layer_factory.hpp:77] Creating layer conv5_2
I0413 18:52:29.665885 14388 net.cpp:100] Creating Layer conv5_2
I0413 18:52:29.665904 14388 net.cpp:434] conv5_2 <- conv5_1
I0413 18:52:29.665926 14388 net.cpp:408] conv5_2 -> conv5_2
I0413 18:52:29.670243 14388 net.cpp:150] Setting up conv5_2
I0413 18:52:29.670276 14388 net.cpp:157] Top shape: 1 512 63 94 (3032064)
I0413 18:52:29.670280 14388 net.cpp:165] Memory required for data: 3439345140
I0413 18:52:29.670295 14388 layer_factory.hpp:77] Creating layer relu5_2
I0413 18:52:29.670310 14388 net.cpp:100] Creating Layer relu5_2
I0413 18:52:29.670320 14388 net.cpp:434] relu5_2 <- conv5_2
I0413 18:52:29.670332 14388 net.cpp:395] relu5_2 -> conv5_2 (in-place)
I0413 18:52:29.670346 14388 net.cpp:150] Setting up relu5_2
I0413 18:52:29.670354 14388 net.cpp:157] Top shape: 1 512 63 94 (3032064)
I0413 18:52:29.670361 14388 net.cpp:165] Memory required for data: 3451473396
I0413 18:52:29.670366 14388 layer_factory.hpp:77] Creating layer conv5_3
I0413 18:52:29.670387 14388 net.cpp:100] Creating Layer conv5_3
I0413 18:52:29.670395 14388 net.cpp:434] conv5_3 <- conv5_2
I0413 18:52:29.670403 14388 net.cpp:408] conv5_3 -> conv5_3
I0413 18:52:29.674911 14388 net.cpp:150] Setting up conv5_3
I0413 18:52:29.674950 14388 net.cpp:157] Top shape: 1 512 63 94 (3032064)
I0413 18:52:29.674957 14388 net.cpp:165] Memory required for data: 3463601652
I0413 18:52:29.674973 14388 layer_factory.hpp:77] Creating layer relu5_3
I0413 18:52:29.674986 14388 net.cpp:100] Creating Layer relu5_3
I0413 18:52:29.674995 14388 net.cpp:434] relu5_3 <- conv5_3
I0413 18:52:29.675010 14388 net.cpp:395] relu5_3 -> conv5_3 (in-place)
I0413 18:52:29.675027 14388 net.cpp:150] Setting up relu5_3
I0413 18:52:29.675037 14388 net.cpp:157] Top shape: 1 512 63 94 (3032064)
I0413 18:52:29.675043 14388 net.cpp:165] Memory required for data: 3475729908
I0413 18:52:29.675050 14388 layer_factory.hpp:77] Creating layer conv5_3_relu5_3_0_split
I0413 18:52:29.675060 14388 net.cpp:100] Creating Layer conv5_3_relu5_3_0_split
I0413 18:52:29.675066 14388 net.cpp:434] conv5_3_relu5_3_0_split <- conv5_3
I0413 18:52:29.675074 14388 net.cpp:408] conv5_3_relu5_3_0_split -> conv5_3_relu5_3_0_split_0
I0413 18:52:29.675086 14388 net.cpp:408] conv5_3_relu5_3_0_split -> conv5_3_relu5_3_0_split_1
I0413 18:52:29.675135 14388 net.cpp:150] Setting up conv5_3_relu5_3_0_split
I0413 18:52:29.675165 14388 net.cpp:157] Top shape: 1 512 63 94 (3032064)
I0413 18:52:29.675185 14388 net.cpp:157] Top shape: 1 512 63 94 (3032064)
I0413 18:52:29.675200 14388 net.cpp:165] Memory required for data: 3499986420
I0413 18:52:29.675216 14388 layer_factory.hpp:77] Creating layer rpn_big_conv1
I0413 18:52:29.675246 14388 net.cpp:100] Creating Layer rpn_big_conv1
I0413 18:52:29.675256 14388 net.cpp:434] rpn_big_conv1 <- conv5_3_relu5_3_0_split_0
I0413 18:52:29.675266 14388 net.cpp:408] rpn_big_conv1 -> rpn_big_conv1
I0413 18:52:29.703284 14388 net.cpp:150] Setting up rpn_big_conv1
I0413 18:52:29.703320 14388 net.cpp:157] Top shape: 1 512 63 94 (3032064)
I0413 18:52:29.703327 14388 net.cpp:165] Memory required for data: 3512114676
I0413 18:52:29.703344 14388 layer_factory.hpp:77] Creating layer rpn_big_conv1_relu
I0413 18:52:29.703361 14388 net.cpp:100] Creating Layer rpn_big_conv1_relu
I0413 18:52:29.703372 14388 net.cpp:434] rpn_big_conv1_relu <- rpn_big_conv1
I0413 18:52:29.703387 14388 net.cpp:395] rpn_big_conv1_relu -> rpn_big_conv1 (in-place)
I0413 18:52:29.703402 14388 net.cpp:150] Setting up rpn_big_conv1_relu
I0413 18:52:29.703413 14388 net.cpp:157] Top shape: 1 512 63 94 (3032064)
I0413 18:52:29.703420 14388 net.cpp:165] Memory required for data: 3524242932
I0413 18:52:29.703426 14388 layer_factory.hpp:77] Creating layer rpn_big_conv2
I0413 18:52:29.703445 14388 net.cpp:100] Creating Layer rpn_big_conv2
I0413 18:52:29.703454 14388 net.cpp:434] rpn_big_conv2 <- rpn_big_conv1
I0413 18:52:29.703465 14388 net.cpp:408] rpn_big_conv2 -> rpn_big_conv2
I0413 18:52:29.730633 14388 net.cpp:150] Setting up rpn_big_conv2
I0413 18:52:29.730664 14388 net.cpp:157] Top shape: 1 512 63 94 (3032064)
I0413 18:52:29.730670 14388 net.cpp:165] Memory required for data: 3536371188
I0413 18:52:29.730695 14388 layer_factory.hpp:77] Creating layer rpn_big_conv2_relu
I0413 18:52:29.730711 14388 net.cpp:100] Creating Layer rpn_big_conv2_relu
I0413 18:52:29.730722 14388 net.cpp:434] rpn_big_conv2_relu <- rpn_big_conv2
I0413 18:52:29.730736 14388 net.cpp:395] rpn_big_conv2_relu -> rpn_big_conv2 (in-place)
I0413 18:52:29.730754 14388 net.cpp:150] Setting up rpn_big_conv2_relu
I0413 18:52:29.730763 14388 net.cpp:157] Top shape: 1 512 63 94 (3032064)
I0413 18:52:29.730772 14388 net.cpp:165] Memory required for data: 3548499444
I0413 18:52:29.730777 14388 layer_factory.hpp:77] Creating layer rpn_big_conv2_drop
I0413 18:52:29.730789 14388 net.cpp:100] Creating Layer rpn_big_conv2_drop
I0413 18:52:29.730798 14388 net.cpp:434] rpn_big_conv2_drop <- rpn_big_conv2
I0413 18:52:29.730808 14388 net.cpp:395] rpn_big_conv2_drop -> rpn_big_conv2 (in-place)
I0413 18:52:29.730839 14388 net.cpp:150] Setting up rpn_big_conv2_drop
I0413 18:52:29.730854 14388 net.cpp:157] Top shape: 1 512 63 94 (3032064)
I0413 18:52:29.730860 14388 net.cpp:165] Memory required for data: 3560627700
I0413 18:52:29.730867 14388 layer_factory.hpp:77] Creating layer rpn_big_conv2_rpn_big_conv2_drop_0_split
I0413 18:52:29.730878 14388 net.cpp:100] Creating Layer rpn_big_conv2_rpn_big_conv2_drop_0_split
I0413 18:52:29.730886 14388 net.cpp:434] rpn_big_conv2_rpn_big_conv2_drop_0_split <- rpn_big_conv2
I0413 18:52:29.730896 14388 net.cpp:408] rpn_big_conv2_rpn_big_conv2_drop_0_split -> rpn_big_conv2_rpn_big_conv2_drop_0_split_0
I0413 18:52:29.730911 14388 net.cpp:408] rpn_big_conv2_rpn_big_conv2_drop_0_split -> rpn_big_conv2_rpn_big_conv2_drop_0_split_1
I0413 18:52:29.730958 14388 net.cpp:150] Setting up rpn_big_conv2_rpn_big_conv2_drop_0_split
I0413 18:52:29.730970 14388 net.cpp:157] Top shape: 1 512 63 94 (3032064)
I0413 18:52:29.730980 14388 net.cpp:157] Top shape: 1 512 63 94 (3032064)
I0413 18:52:29.730988 14388 net.cpp:165] Memory required for data: 3584884212
I0413 18:52:29.730995 14388 layer_factory.hpp:77] Creating layer rpn_big_output_cls
I0413 18:52:29.731014 14388 net.cpp:100] Creating Layer rpn_big_output_cls
I0413 18:52:29.731020 14388 net.cpp:434] rpn_big_output_cls <- rpn_big_conv2_rpn_big_conv2_drop_0_split_0
I0413 18:52:29.731032 14388 net.cpp:408] rpn_big_output_cls -> rpn_big_output_cls
I0413 18:52:29.750073 14388 net.cpp:150] Setting up rpn_big_output_cls
I0413 18:52:29.750108 14388 net.cpp:157] Top shape: 1 384 63 94 (2274048)
I0413 18:52:29.750113 14388 net.cpp:165] Memory required for data: 3593980404
I0413 18:52:29.750135 14388 layer_factory.hpp:77] Creating layer rpn_big_output_cls_relu
I0413 18:52:29.750151 14388 net.cpp:100] Creating Layer rpn_big_output_cls_relu
I0413 18:52:29.750159 14388 net.cpp:434] rpn_big_output_cls_relu <- rpn_big_output_cls
I0413 18:52:29.750174 14388 net.cpp:395] rpn_big_output_cls_relu -> rpn_big_output_cls (in-place)
I0413 18:52:29.750195 14388 net.cpp:150] Setting up rpn_big_output_cls_relu
I0413 18:52:29.750205 14388 net.cpp:157] Top shape: 1 384 63 94 (2274048)
I0413 18:52:29.750211 14388 net.cpp:165] Memory required for data: 3603076596
I0413 18:52:29.750217 14388 layer_factory.hpp:77] Creating layer rpn_big_cls_score
I0413 18:52:29.750236 14388 net.cpp:100] Creating Layer rpn_big_cls_score
I0413 18:52:29.750246 14388 net.cpp:434] rpn_big_cls_score <- rpn_big_output_cls
I0413 18:52:29.750257 14388 net.cpp:408] rpn_big_cls_score -> rpn_big_cls_score
I0413 18:52:29.752560 14388 net.cpp:150] Setting up rpn_big_cls_score
I0413 18:52:29.752573 14388 net.cpp:157] Top shape: 1 52 61 92 (291824)
I0413 18:52:29.752580 14388 net.cpp:165] Memory required for data: 3604243892
I0413 18:52:29.752607 14388 layer_factory.hpp:77] Creating layer rpn_big_cls_score_rpn_big_cls_score_0_split
I0413 18:52:29.752620 14388 net.cpp:100] Creating Layer rpn_big_cls_score_rpn_big_cls_score_0_split
I0413 18:52:29.752629 14388 net.cpp:434] rpn_big_cls_score_rpn_big_cls_score_0_split <- rpn_big_cls_score
I0413 18:52:29.752638 14388 net.cpp:408] rpn_big_cls_score_rpn_big_cls_score_0_split -> rpn_big_cls_score_rpn_big_cls_score_0_split_0
I0413 18:52:29.752653 14388 net.cpp:408] rpn_big_cls_score_rpn_big_cls_score_0_split -> rpn_big_cls_score_rpn_big_cls_score_0_split_1
I0413 18:52:29.752694 14388 net.cpp:150] Setting up rpn_big_cls_score_rpn_big_cls_score_0_split
I0413 18:52:29.752706 14388 net.cpp:157] Top shape: 1 52 61 92 (291824)
I0413 18:52:29.752715 14388 net.cpp:157] Top shape: 1 52 61 92 (291824)
I0413 18:52:29.752722 14388 net.cpp:165] Memory required for data: 3606578484
I0413 18:52:29.752729 14388 layer_factory.hpp:77] Creating layer rpn_big_cls_score_reshape
I0413 18:52:29.752743 14388 net.cpp:100] Creating Layer rpn_big_cls_score_reshape
I0413 18:52:29.752751 14388 net.cpp:434] rpn_big_cls_score_reshape <- rpn_big_cls_score_rpn_big_cls_score_0_split_0
I0413 18:52:29.752761 14388 net.cpp:408] rpn_big_cls_score_reshape -> rpn_big_cls_score_reshape
I0413 18:52:29.752794 14388 net.cpp:150] Setting up rpn_big_cls_score_reshape
I0413 18:52:29.752804 14388 net.cpp:157] Top shape: 1 2 1586 92 (291824)
I0413 18:52:29.752811 14388 net.cpp:165] Memory required for data: 3607745780
I0413 18:52:29.752817 14388 layer_factory.hpp:77] Creating layer rpn_big_cls_score_reshape_rpn_big_cls_score_reshape_0_split
I0413 18:52:29.752830 14388 net.cpp:100] Creating Layer rpn_big_cls_score_reshape_rpn_big_cls_score_reshape_0_split
I0413 18:52:29.752838 14388 net.cpp:434] rpn_big_cls_score_reshape_rpn_big_cls_score_reshape_0_split <- rpn_big_cls_score_reshape
I0413 18:52:29.752848 14388 net.cpp:408] rpn_big_cls_score_reshape_rpn_big_cls_score_reshape_0_split -> rpn_big_cls_score_reshape_rpn_big_cls_score_reshape_0_split_0
I0413 18:52:29.752861 14388 net.cpp:408] rpn_big_cls_score_reshape_rpn_big_cls_score_reshape_0_split -> rpn_big_cls_score_reshape_rpn_big_cls_score_reshape_0_split_1
I0413 18:52:29.752900 14388 net.cpp:150] Setting up rpn_big_cls_score_reshape_rpn_big_cls_score_reshape_0_split
I0413 18:52:29.752933 14388 net.cpp:157] Top shape: 1 2 1586 92 (291824)
I0413 18:52:29.752941 14388 net.cpp:157] Top shape: 1 2 1586 92 (291824)
I0413 18:52:29.752948 14388 net.cpp:165] Memory required for data: 3610080372
I0413 18:52:29.752954 14388 layer_factory.hpp:77] Creating layer rpn_big_cls_prob
I0413 18:52:29.752965 14388 net.cpp:100] Creating Layer rpn_big_cls_prob
I0413 18:52:29.752974 14388 net.cpp:434] rpn_big_cls_prob <- rpn_big_cls_score_reshape_rpn_big_cls_score_reshape_0_split_0
I0413 18:52:29.752984 14388 net.cpp:408] rpn_big_cls_prob -> rpn_big_cls_prob
I0413 18:52:29.753044 14388 net.cpp:150] Setting up rpn_big_cls_prob
I0413 18:52:29.753056 14388 net.cpp:157] Top shape: 1 2 1586 92 (291824)
I0413 18:52:29.753062 14388 net.cpp:165] Memory required for data: 3611247668
I0413 18:52:29.753069 14388 layer_factory.hpp:77] Creating layer rpn_big_cls_prob_reshape
I0413 18:52:29.753083 14388 net.cpp:100] Creating Layer rpn_big_cls_prob_reshape
I0413 18:52:29.753092 14388 net.cpp:434] rpn_big_cls_prob_reshape <- rpn_big_cls_prob
I0413 18:52:29.753101 14388 net.cpp:408] rpn_big_cls_prob_reshape -> rpn_big_cls_prob_reshape
I0413 18:52:29.753130 14388 net.cpp:150] Setting up rpn_big_cls_prob_reshape
I0413 18:52:29.753140 14388 net.cpp:157] Top shape: 1 52 61 92 (291824)
I0413 18:52:29.753146 14388 net.cpp:165] Memory required for data: 3612414964
I0413 18:52:29.753154 14388 layer_factory.hpp:77] Creating layer rpn_big_cls_prob_reshape_rpn_big_cls_prob_reshape_0_split
I0413 18:52:29.753166 14388 net.cpp:100] Creating Layer rpn_big_cls_prob_reshape_rpn_big_cls_prob_reshape_0_split
I0413 18:52:29.753173 14388 net.cpp:434] rpn_big_cls_prob_reshape_rpn_big_cls_prob_reshape_0_split <- rpn_big_cls_prob_reshape
I0413 18:52:29.753183 14388 net.cpp:408] rpn_big_cls_prob_reshape_rpn_big_cls_prob_reshape_0_split -> rpn_big_cls_prob_reshape_rpn_big_cls_prob_reshape_0_split_0
I0413 18:52:29.753196 14388 net.cpp:408] rpn_big_cls_prob_reshape_rpn_big_cls_prob_reshape_0_split -> rpn_big_cls_prob_reshape_rpn_big_cls_prob_reshape_0_split_1
I0413 18:52:29.753237 14388 net.cpp:150] Setting up rpn_big_cls_prob_reshape_rpn_big_cls_prob_reshape_0_split
I0413 18:52:29.753247 14388 net.cpp:157] Top shape: 1 52 61 92 (291824)
I0413 18:52:29.753255 14388 net.cpp:157] Top shape: 1 52 61 92 (291824)
I0413 18:52:29.753262 14388 net.cpp:165] Memory required for data: 3614749556
I0413 18:52:29.753269 14388 layer_factory.hpp:77] Creating layer rpn_big_anchor_target
I0413 18:52:29.754582 14388 net.cpp:100] Creating Layer rpn_big_anchor_target
I0413 18:52:29.754596 14388 net.cpp:434] rpn_big_anchor_target <- rpn_big_cls_score_rpn_big_cls_score_0_split_1
I0413 18:52:29.754607 14388 net.cpp:434] rpn_big_anchor_target <- input_gt_boxes_input_2_split_0
I0413 18:52:29.754616 14388 net.cpp:434] rpn_big_anchor_target <- input_ignored_boxes
I0413 18:52:29.754623 14388 net.cpp:434] rpn_big_anchor_target <- input_im_info_input_1_split_0
I0413 18:52:29.754632 14388 net.cpp:434] rpn_big_anchor_target <- input_data_input_0_split_1
I0413 18:52:29.754642 14388 net.cpp:434] rpn_big_anchor_target <- rpn_big_cls_prob_reshape_rpn_big_cls_prob_reshape_0_split_0
I0413 18:52:29.754657 14388 net.cpp:408] rpn_big_anchor_target -> rpn_big_anchor_target_labels
I0413 18:52:29.754673 14388 net.cpp:408] rpn_big_anchor_target -> rpn_big_anchor_target_bbox_targets
I0413 18:52:29.754689 14388 net.cpp:408] rpn_big_anchor_target -> rpn_big_anchor_target_inside_weights
I0413 18:52:29.754704 14388 net.cpp:408] rpn_big_anchor_target -> rpn_big_anchor_target_outside_weights
I0413 18:52:29.759552 14388 net.cpp:150] Setting up rpn_big_anchor_target
I0413 18:52:29.759585 14388 net.cpp:157] Top shape: 1 1 1586 92 (145912)
I0413 18:52:29.759594 14388 net.cpp:157] Top shape: 1 104 61 92 (583648)
I0413 18:52:29.759603 14388 net.cpp:157] Top shape: 1 104 61 92 (583648)
I0413 18:52:29.759609 14388 net.cpp:157] Top shape: 1 104 61 92 (583648)
I0413 18:52:29.759614 14388 net.cpp:165] Memory required for data: 3622336980
I0413 18:52:29.759623 14388 layer_factory.hpp:77] Creating layer rpn_big_loss_cls
I0413 18:52:29.759639 14388 net.cpp:100] Creating Layer rpn_big_loss_cls
I0413 18:52:29.759647 14388 net.cpp:434] rpn_big_loss_cls <- rpn_big_cls_score_reshape_rpn_big_cls_score_reshape_0_split_1
I0413 18:52:29.759657 14388 net.cpp:434] rpn_big_loss_cls <- rpn_big_anchor_target_labels
I0413 18:52:29.759668 14388 net.cpp:408] rpn_big_loss_cls -> rpn_big_loss_cls
I0413 18:52:29.759701 14388 layer_factory.hpp:77] Creating layer rpn_big_loss_cls
I0413 18:52:29.760324 14388 net.cpp:150] Setting up rpn_big_loss_cls
I0413 18:52:29.760337 14388 net.cpp:157] Top shape: (1)
I0413 18:52:29.760344 14388 net.cpp:160]     with loss weight 1
I0413 18:52:29.760360 14388 net.cpp:165] Memory required for data: 3622336984
I0413 18:52:29.760366 14388 layer_factory.hpp:77] Creating layer rpn_big_output_box
I0413 18:52:29.760388 14388 net.cpp:100] Creating Layer rpn_big_output_box
I0413 18:52:29.760401 14388 net.cpp:434] rpn_big_output_box <- rpn_big_conv2_rpn_big_conv2_drop_0_split_1
I0413 18:52:29.760416 14388 net.cpp:408] rpn_big_output_box -> rpn_big_output_box
I0413 18:52:29.779407 14388 net.cpp:150] Setting up rpn_big_output_box
I0413 18:52:29.779441 14388 net.cpp:157] Top shape: 1 384 63 94 (2274048)
I0413 18:52:29.779448 14388 net.cpp:165] Memory required for data: 3631433176
I0413 18:52:29.779461 14388 layer_factory.hpp:77] Creating layer rpn_big_output_box_relu
I0413 18:52:29.779480 14388 net.cpp:100] Creating Layer rpn_big_output_box_relu
I0413 18:52:29.779490 14388 net.cpp:434] rpn_big_output_box_relu <- rpn_big_output_box
I0413 18:52:29.779503 14388 net.cpp:395] rpn_big_output_box_relu -> rpn_big_output_box (in-place)
I0413 18:52:29.779518 14388 net.cpp:150] Setting up rpn_big_output_box_relu
I0413 18:52:29.779536 14388 net.cpp:157] Top shape: 1 384 63 94 (2274048)
I0413 18:52:29.779542 14388 net.cpp:165] Memory required for data: 3640529368
I0413 18:52:29.779548 14388 layer_factory.hpp:77] Creating layer rpn_big_bbox_pred
I0413 18:52:29.779567 14388 net.cpp:100] Creating Layer rpn_big_bbox_pred
I0413 18:52:29.779573 14388 net.cpp:434] rpn_big_bbox_pred <- rpn_big_output_box
I0413 18:52:29.779587 14388 net.cpp:408] rpn_big_bbox_pred -> rpn_big_bbox_pred
I0413 18:52:29.783653 14388 net.cpp:150] Setting up rpn_big_bbox_pred
I0413 18:52:29.783673 14388 net.cpp:157] Top shape: 1 104 61 92 (583648)
I0413 18:52:29.783679 14388 net.cpp:165] Memory required for data: 3642863960
I0413 18:52:29.783691 14388 layer_factory.hpp:77] Creating layer rpn_big_bbox_pred_rpn_big_bbox_pred_0_split
I0413 18:52:29.783706 14388 net.cpp:100] Creating Layer rpn_big_bbox_pred_rpn_big_bbox_pred_0_split
I0413 18:52:29.783715 14388 net.cpp:434] rpn_big_bbox_pred_rpn_big_bbox_pred_0_split <- rpn_big_bbox_pred
I0413 18:52:29.783728 14388 net.cpp:408] rpn_big_bbox_pred_rpn_big_bbox_pred_0_split -> rpn_big_bbox_pred_rpn_big_bbox_pred_0_split_0
I0413 18:52:29.783745 14388 net.cpp:408] rpn_big_bbox_pred_rpn_big_bbox_pred_0_split -> rpn_big_bbox_pred_rpn_big_bbox_pred_0_split_1
I0413 18:52:29.783785 14388 net.cpp:150] Setting up rpn_big_bbox_pred_rpn_big_bbox_pred_0_split
I0413 18:52:29.783798 14388 net.cpp:157] Top shape: 1 104 61 92 (583648)
I0413 18:52:29.783807 14388 net.cpp:157] Top shape: 1 104 61 92 (583648)
I0413 18:52:29.783813 14388 net.cpp:165] Memory required for data: 3647533144
I0413 18:52:29.783820 14388 layer_factory.hpp:77] Creating layer rpn_big_loss_bbox
I0413 18:52:29.784180 14388 net.cpp:100] Creating Layer rpn_big_loss_bbox
I0413 18:52:29.784191 14388 net.cpp:434] rpn_big_loss_bbox <- rpn_big_bbox_pred_rpn_big_bbox_pred_0_split_0
I0413 18:52:29.784200 14388 net.cpp:434] rpn_big_loss_bbox <- rpn_big_anchor_target_bbox_targets
I0413 18:52:29.784209 14388 net.cpp:434] rpn_big_loss_bbox <- rpn_big_anchor_target_inside_weights
I0413 18:52:29.784219 14388 net.cpp:434] rpn_big_loss_bbox <- rpn_big_anchor_target_outside_weights
I0413 18:52:29.784231 14388 net.cpp:408] rpn_big_loss_bbox -> rpn_big_loss_bbox
I0413 18:52:29.786125 14388 net.cpp:150] Setting up rpn_big_loss_bbox
I0413 18:52:29.786159 14388 net.cpp:157] Top shape: 1 (1)
I0413 18:52:29.786165 14388 net.cpp:160]     with loss weight 1
I0413 18:52:29.786188 14388 net.cpp:165] Memory required for data: 3647533148
I0413 18:52:29.786198 14388 layer_factory.hpp:77] Creating layer proposal
I0413 18:52:29.786608 14388 net.cpp:100] Creating Layer proposal
I0413 18:52:29.786622 14388 net.cpp:434] proposal <- rpn_big_cls_prob_reshape_rpn_big_cls_prob_reshape_0_split_1
I0413 18:52:29.786634 14388 net.cpp:434] proposal <- rpn_big_bbox_pred_rpn_big_bbox_pred_0_split_1
I0413 18:52:29.786643 14388 net.cpp:434] proposal <- input_im_info_input_1_split_1
I0413 18:52:29.786658 14388 net.cpp:408] proposal -> rpn_rois
I0413 18:52:29.790923 14388 net.cpp:150] Setting up proposal
I0413 18:52:29.790937 14388 net.cpp:157] Top shape: 1 5 (5)
I0413 18:52:29.790943 14388 net.cpp:165] Memory required for data: 3647533168
I0413 18:52:29.790958 14388 layer_factory.hpp:77] Creating layer roi-data
I0413 18:52:29.791250 14388 net.cpp:100] Creating Layer roi-data
I0413 18:52:29.791261 14388 net.cpp:434] roi-data <- rpn_rois
I0413 18:52:29.791270 14388 net.cpp:434] roi-data <- input_gt_boxes_input_2_split_1
I0413 18:52:29.791291 14388 net.cpp:408] roi-data -> rois
I0413 18:52:29.791306 14388 net.cpp:408] roi-data -> labels
I0413 18:52:29.791322 14388 net.cpp:408] roi-data -> bbox_targets
I0413 18:52:29.791337 14388 net.cpp:408] roi-data -> bbox_inside_weights
I0413 18:52:29.791350 14388 net.cpp:408] roi-data -> bbox_outside_weights
I0413 18:52:29.791366 14388 net.cpp:408] roi-data -> pid_label
I0413 18:52:29.792299 14388 net.cpp:150] Setting up roi-data
I0413 18:52:29.792313 14388 net.cpp:157] Top shape: 1 5 (5)
I0413 18:52:29.792321 14388 net.cpp:157] Top shape: 1 1 (1)
I0413 18:52:29.792340 14388 net.cpp:157] Top shape: 1 8 (8)
I0413 18:52:29.792348 14388 net.cpp:157] Top shape: 1 8 (8)
I0413 18:52:29.792356 14388 net.cpp:157] Top shape: 1 8 (8)
I0413 18:52:29.792363 14388 net.cpp:157] Top shape: (0)
I0413 18:52:29.792368 14388 net.cpp:165] Memory required for data: 3647533288
I0413 18:52:29.792377 14388 layer_factory.hpp:77] Creating layer roi-pool
I0413 18:52:29.792388 14388 net.cpp:100] Creating Layer roi-pool
I0413 18:52:29.792395 14388 net.cpp:434] roi-pool <- conv5_3_relu5_3_0_split_1
I0413 18:52:29.792404 14388 net.cpp:434] roi-pool <- rois
I0413 18:52:29.792415 14388 net.cpp:408] roi-pool -> roi-pool
I0413 18:52:29.792429 14388 roi_pooling_layer.cpp:33] Spatial scale: 0.0625
I0413 18:52:29.792441 14388 roi_pooling_layer.cpp:34] Box scale: 1
I0413 18:52:29.792485 14388 net.cpp:150] Setting up roi-pool
I0413 18:52:29.792496 14388 net.cpp:157] Top shape: 1 512 7 7 (25088)
I0413 18:52:29.792503 14388 net.cpp:165] Memory required for data: 3647633640
I0413 18:52:29.792510 14388 layer_factory.hpp:77] Creating layer fc6
I0413 18:52:29.792523 14388 net.cpp:100] Creating Layer fc6
I0413 18:52:29.792531 14388 net.cpp:434] fc6 <- roi-pool
I0413 18:52:29.792543 14388 net.cpp:408] fc6 -> fc6
I0413 18:52:29.953989 14388 net.cpp:150] Setting up fc6
I0413 18:52:29.954025 14388 net.cpp:157] Top shape: 1 4096 (4096)
I0413 18:52:29.954038 14388 net.cpp:165] Memory required for data: 3647650024
I0413 18:52:29.954051 14388 layer_factory.hpp:77] Creating layer relu6
I0413 18:52:29.954062 14388 net.cpp:100] Creating Layer relu6
I0413 18:52:29.954068 14388 net.cpp:434] relu6 <- fc6
I0413 18:52:29.954075 14388 net.cpp:395] relu6 -> fc6 (in-place)
I0413 18:52:29.954087 14388 net.cpp:150] Setting up relu6
I0413 18:52:29.954093 14388 net.cpp:157] Top shape: 1 4096 (4096)
I0413 18:52:29.954098 14388 net.cpp:165] Memory required for data: 3647666408
I0413 18:52:29.954103 14388 layer_factory.hpp:77] Creating layer drop6
I0413 18:52:29.954115 14388 net.cpp:100] Creating Layer drop6
I0413 18:52:29.954121 14388 net.cpp:434] drop6 <- fc6
I0413 18:52:29.954128 14388 net.cpp:395] drop6 -> fc6 (in-place)
I0413 18:52:29.954159 14388 net.cpp:150] Setting up drop6
I0413 18:52:29.954177 14388 net.cpp:157] Top shape: 1 4096 (4096)
I0413 18:52:29.954182 14388 net.cpp:165] Memory required for data: 3647682792
I0413 18:52:29.954187 14388 layer_factory.hpp:77] Creating layer fc7
I0413 18:52:29.954197 14388 net.cpp:100] Creating Layer fc7
I0413 18:52:29.954205 14388 net.cpp:434] fc7 <- fc6
I0413 18:52:29.954215 14388 net.cpp:408] fc7 -> fc7
I0413 18:52:29.984333 14388 net.cpp:150] Setting up fc7
I0413 18:52:29.984369 14388 net.cpp:157] Top shape: 1 4096 (4096)
I0413 18:52:29.984372 14388 net.cpp:165] Memory required for data: 3647699176
I0413 18:52:29.984385 14388 layer_factory.hpp:77] Creating layer relu7
I0413 18:52:29.984407 14388 net.cpp:100] Creating Layer relu7
I0413 18:52:29.984424 14388 net.cpp:434] relu7 <- fc7
I0413 18:52:29.984438 14388 net.cpp:395] relu7 -> fc7 (in-place)
I0413 18:52:29.984452 14388 net.cpp:150] Setting up relu7
I0413 18:52:29.984462 14388 net.cpp:157] Top shape: 1 4096 (4096)
I0413 18:52:29.984467 14388 net.cpp:165] Memory required for data: 3647715560
I0413 18:52:29.984472 14388 layer_factory.hpp:77] Creating layer drop7
I0413 18:52:29.984483 14388 net.cpp:100] Creating Layer drop7
I0413 18:52:29.984488 14388 net.cpp:434] drop7 <- fc7
I0413 18:52:29.984496 14388 net.cpp:395] drop7 -> fc7 (in-place)
I0413 18:52:29.984530 14388 net.cpp:150] Setting up drop7
I0413 18:52:29.984539 14388 net.cpp:157] Top shape: 1 4096 (4096)
I0413 18:52:29.984546 14388 net.cpp:165] Memory required for data: 3647731944
I0413 18:52:29.984552 14388 layer_factory.hpp:77] Creating layer fc7_drop7_0_split
I0413 18:52:29.984562 14388 net.cpp:100] Creating Layer fc7_drop7_0_split
I0413 18:52:29.984568 14388 net.cpp:434] fc7_drop7_0_split <- fc7
I0413 18:52:29.984577 14388 net.cpp:408] fc7_drop7_0_split -> fc7_drop7_0_split_0
I0413 18:52:29.984603 14388 net.cpp:408] fc7_drop7_0_split -> fc7_drop7_0_split_1
I0413 18:52:29.984652 14388 net.cpp:150] Setting up fc7_drop7_0_split
I0413 18:52:29.984664 14388 net.cpp:157] Top shape: 1 4096 (4096)
I0413 18:52:29.984671 14388 net.cpp:157] Top shape: 1 4096 (4096)
I0413 18:52:29.984678 14388 net.cpp:165] Memory required for data: 3647764712
I0413 18:52:29.984683 14388 layer_factory.hpp:77] Creating layer bbox_pred
I0413 18:52:29.984694 14388 net.cpp:100] Creating Layer bbox_pred
I0413 18:52:29.984699 14388 net.cpp:434] bbox_pred <- fc7_drop7_0_split_0
I0413 18:52:29.984712 14388 net.cpp:408] bbox_pred -> bbox_pred
I0413 18:52:29.985380 14388 net.cpp:150] Setting up bbox_pred
I0413 18:52:29.985395 14388 net.cpp:157] Top shape: 1 8 (8)
I0413 18:52:29.985399 14388 net.cpp:165] Memory required for data: 3647764744
I0413 18:52:29.985406 14388 layer_factory.hpp:77] Creating layer loss_bbox
I0413 18:52:29.985419 14388 net.cpp:100] Creating Layer loss_bbox
I0413 18:52:29.985437 14388 net.cpp:434] loss_bbox <- bbox_pred
I0413 18:52:29.985446 14388 net.cpp:434] loss_bbox <- bbox_targets
I0413 18:52:29.985455 14388 net.cpp:434] loss_bbox <- bbox_inside_weights
I0413 18:52:29.985461 14388 net.cpp:434] loss_bbox <- bbox_outside_weights
I0413 18:52:29.985471 14388 net.cpp:408] loss_bbox -> loss_bbox
I0413 18:52:29.985569 14388 net.cpp:150] Setting up loss_bbox
I0413 18:52:29.985579 14388 net.cpp:157] Top shape: (1)
I0413 18:52:29.985584 14388 net.cpp:160]     with loss weight 1
I0413 18:52:29.985599 14388 net.cpp:165] Memory required for data: 3647764748
I0413 18:52:29.985605 14388 layer_factory.hpp:77] Creating layer feat
I0413 18:52:29.985615 14388 net.cpp:100] Creating Layer feat
I0413 18:52:29.985622 14388 net.cpp:434] feat <- fc7_drop7_0_split_1
I0413 18:52:29.985630 14388 net.cpp:408] feat -> feat
I0413 18:52:29.997092 14388 net.cpp:150] Setting up feat
I0413 18:52:29.997124 14388 net.cpp:157] Top shape: 1 256 (256)
I0413 18:52:29.997128 14388 net.cpp:165] Memory required for data: 3647765772
I0413 18:52:29.997139 14388 layer_factory.hpp:77] Creating layer relu8
I0413 18:52:29.997149 14388 net.cpp:100] Creating Layer relu8
I0413 18:52:29.997154 14388 net.cpp:434] relu8 <- feat
I0413 18:52:29.997161 14388 net.cpp:395] relu8 -> feat (in-place)
I0413 18:52:29.997174 14388 net.cpp:150] Setting up relu8
I0413 18:52:29.997182 14388 net.cpp:157] Top shape: 1 256 (256)
I0413 18:52:29.997189 14388 net.cpp:165] Memory required for data: 3647766796
I0413 18:52:29.997193 14388 layer_factory.hpp:77] Creating layer drop8
I0413 18:52:29.997205 14388 net.cpp:100] Creating Layer drop8
I0413 18:52:29.997211 14388 net.cpp:434] drop8 <- feat
I0413 18:52:29.997221 14388 net.cpp:395] drop8 -> feat (in-place)
I0413 18:52:29.997252 14388 net.cpp:150] Setting up drop8
I0413 18:52:29.997262 14388 net.cpp:157] Top shape: 1 256 (256)
I0413 18:52:29.997267 14388 net.cpp:165] Memory required for data: 3647767820
I0413 18:52:29.997273 14388 layer_factory.hpp:77] Creating layer pid_score
I0413 18:52:29.997284 14388 net.cpp:100] Creating Layer pid_score
I0413 18:52:29.997290 14388 net.cpp:434] pid_score <- feat
I0413 18:52:29.997301 14388 net.cpp:408] pid_score -> pid_score
I0413 18:52:30.013414 14388 net.cpp:150] Setting up pid_score
I0413 18:52:30.013463 14388 net.cpp:157] Top shape: 1 5533 (5533)
I0413 18:52:30.013468 14388 net.cpp:165] Memory required for data: 3647789952
I0413 18:52:30.013479 14388 layer_factory.hpp:77] Creating layer pid_loss
I0413 18:52:30.013491 14388 net.cpp:100] Creating Layer pid_loss
I0413 18:52:30.013497 14388 net.cpp:434] pid_loss <- pid_score
I0413 18:52:30.013505 14388 net.cpp:434] pid_loss <- pid_label
I0413 18:52:30.013515 14388 net.cpp:408] pid_loss -> pid_loss
…
