…
I0413 16:25:49.491819  8862 solver.cpp:48] Initializing solver from parameters: 
base_lr: 0.001
display: 20
lr_policy: "multistep"
gamma: 0.1
momentum: 0.9
weight_decay: 0.0005
snapshot: 0
snapshot_prefix: "faces_example"
net_param {
  name: "GeneratedModel_13_04_2017_16_25"
  layer {
    name: "input"
    type: "Python"
    top: "input_data"
    top: "input_im_info"
    top: "input_gt_boxes"
    top: "input_ignored_boxes"
    python_param {
      module: "layers.roi_data_layer"
      layer: "RoIDataLayer"
      param_str: "{\"num_classes\": 2}"
    }
  }
  layer {
    name: "conv1_1"
    type: "Convolution"
    bottom: "input_data"
    top: "conv1_1"
    param {
      lr_mult: 0
      decay_mult: 0
    }
    param {
      lr_mult: 0
      decay_mult: 0
    }
    convolution_param {
      num_output: 64
      pad: 1
      kernel_size: 3
    }
  }
  layer {
    name: "relu1_1"
    type: "ReLU"
    bottom: "conv1_1"
    top: "conv1_1"
  }
  layer {
    name: "conv1_2"
    type: "Convolution"
    bottom: "conv1_1"
    top: "conv1_2"
    param {
      lr_mult: 0
      decay_mult: 0
    }
    param {
      lr_mult: 0
      decay_mult: 0
    }
    convolution_param {
      num_output: 64
      pad: 1
      kernel_size: 3
    }
  }
  layer {
    name: "relu1_2"
    type: "ReLU"
    bottom: "conv1_2"
    top: "conv1_2"
  }
  layer {
    name: "pool1"
    type: "Pooling"
    bottom: "conv1_2"
    top: "pool1"
    pooling_param {
      pool: MAX
      kernel_size: 2
      stride: 2
    }
  }
  layer {
    name: "conv2_1"
    type: "Convolution"
    bottom: "pool1"
    top: "conv2_1"
    param {
      lr_mult: 0
      decay_mult: 0
    }
    param {
      lr_mult: 0
      decay_mult: 0
    }
    convolution_param {
      num_output: 128
      pad: 1
      kernel_size: 3
    }
  }
  layer {
    name: "relu2_1"
    type: "ReLU"
    bottom: "conv2_1"
    top: "conv2_1"
  }
  layer {
    name: "conv2_2"
    type: "Convolution"
    bottom: "conv2_1"
    top: "conv2_2"
    param {
      lr_mult: 0
      decay_mult: 0
    }
    param {
      lr_mult: 0
      decay_mult: 0
    }
    convolution_param {
      num_output: 128
      pad: 1
      kernel_size: 3
    }
  }
  layer {
    name: "relu2_2"
    type: "ReLU"
    bottom: "conv2_2"
    top: "conv2_2"
  }
  layer {
    name: "pool2"
    type: "Pooling"
    bottom: "conv2_2"
    top: "pool2"
    pooling_param {
      pool: MAX
      kernel_size: 2
      stride: 2
    }
  }
  layer {
    name: "conv3_1"
    type: "Convolution"
    bottom: "pool2"
    top: "conv3_1"
    param {
      lr_mult: 1
    }
    param {
      lr_mult: 2
    }
    convolution_param {
      num_output: 256
      pad: 1
      kernel_size: 3
    }
  }
  layer {
    name: "relu3_1"
    type: "ReLU"
    bottom: "conv3_1"
    top: "conv3_1"
  }
  layer {
    name: "conv3_2"
    type: "Convolution"
    bottom: "conv3_1"
    top: "conv3_2"
    param {
      lr_mult: 1
    }
    param {
      lr_mult: 2
    }
    convolution_param {
      num_output: 256
      pad: 1
      kernel_size: 3
    }
  }
  layer {
    name: "relu3_2"
    type: "ReLU"
    bottom: "conv3_2"
    top: "conv3_2"
  }
  layer {
    name: "conv3_3"
    type: "Convolution"
    bottom: "conv3_2"
    top: "conv3_3"
    param {
      lr_mult: 1
    }
    param {
      lr_mult: 2
    }
    convolution_param {
      num_output: 256
      pad: 1
      kernel_size: 3
    }
  }
  layer {
    name: "relu3_3"
    type: "ReLU"
    bottom: "conv3_3"
    top: "conv3_3"
  }
  layer {
    name: "pool3"
    type: "Pooling"
    bottom: "conv3_3"
    top: "pool3"
    pooling_param {
      pool: MAX
      kernel_size: 2
      stride: 2
    }
  }
  layer {
    name: "conv4_1"
    type: "Convolution"
    bottom: "pool3"
    top: "conv4_1"
    param {
      lr_mult: 1
    }
    param {
      lr_mult: 2
    }
    convolution_param {
      num_output: 512
      pad: 1
      kernel_size: 3
    }
  }
  layer {
    name: "relu4_1"
    type: "ReLU"
    bottom: "conv4_1"
    top: "conv4_1"
  }
  layer {
    name: "conv4_2"
    type: "Convolution"
    bottom: "conv4_1"
    top: "conv4_2"
    param {
      lr_mult: 1
    }
    param {
      lr_mult: 2
    }
    convolution_param {
      num_output: 512
      pad: 1
      kernel_size: 3
    }
  }
  layer {
    name: "relu4_2"
    type: "ReLU"
    bottom: "conv4_2"
    top: "conv4_2"
  }
  layer {
    name: "conv4_3"
    type: "Convolution"
    bottom: "conv4_2"
    top: "conv4_3"
    param {
      lr_mult: 1
    }
    param {
      lr_mult: 2
    }
    convolution_param {
      num_output: 512
      pad: 1
      kernel_size: 3
    }
  }
  layer {
    name: "relu4_3"
    type: "ReLU"
    bottom: "conv4_3"
    top: "conv4_3"
  }
  layer {
    name: "pool4"
    type: "Pooling"
    bottom: "conv4_3"
    top: "pool4"
    pooling_param {
      pool: MAX
      kernel_size: 2
      stride: 2
    }
  }
  layer {
    name: "conv5_1"
    type: "Convolution"
    bottom: "pool4"
    top: "conv5_1"
    param {
      lr_mult: 1
    }
    param {
      lr_mult: 2
    }
    convolution_param {
      num_output: 512
      pad: 1
      kernel_size: 3
    }
  }
  layer {
    name: "relu5_1"
    type: "ReLU"
    bottom: "conv5_1"
    top: "conv5_1"
  }
  layer {
    name: "conv5_2"
    type: "Convolution"
    bottom: "conv5_1"
    top: "conv5_2"
    param {
      lr_mult: 1
    }
    param {
      lr_mult: 2
    }
    convolution_param {
      num_output: 512
      pad: 1
      kernel_size: 3
    }
  }
  layer {
    name: "relu5_2"
    type: "ReLU"
    bottom: "conv5_2"
    top: "conv5_2"
  }
  layer {
    name: "conv5_3"
    type: "Convolution"
    bottom: "conv5_2"
    top: "conv5_3"
    param {
      lr_mult: 1
    }
    param {
      lr_mult: 2
    }
    convolution_param {
      num_output: 512
      pad: 1
      kernel_size: 3
    }
  }
  layer {
    name: "relu5_3"
    type: "ReLU"
    bottom: "conv5_3"
    top: "conv5_3"
  }
  layer {
    name: "rpn_big_conv1"
    type: "Convolution"
    bottom: "conv5_3"
    top: "rpn_big_conv1"
    param {
      lr_mult: 1
    }
    param {
      lr_mult: 2
    }
    convolution_param {
      num_output: 512
      pad: 1
      kernel_size: 3
      stride: 1
      weight_filler {
        type: "gaussian"
        mean: 0
        std: 0.01
      }
      bias_filler {
        type: "constant"
      }
    }
  }
  layer {
    name: "rpn_big_conv1_relu"
    type: "ReLU"
    bottom: "rpn_big_conv1"
    top: "rpn_big_conv1"
    relu_param {
      negative_slope: 0
    }
  }
  layer {
    name: "rpn_big_conv2"
    type: "Convolution"
    bottom: "rpn_big_conv1"
    top: "rpn_big_conv2"
    param {
      lr_mult: 1
    }
    param {
      lr_mult: 2
    }
    convolution_param {
      num_output: 512
      pad: 1
      kernel_size: 3
      stride: 1
      weight_filler {
        type: "gaussian"
        mean: 0
        std: 0.01
      }
      bias_filler {
        type: "constant"
      }
    }
  }
  layer {
    name: "rpn_big_conv2_relu"
    type: "ReLU"
    bottom: "rpn_big_conv2"
    top: "rpn_big_conv2"
    relu_param {
      negative_slope: 0
    }
  }
  layer {
    name: "rpn_big_conv2_drop"
    type: "Dropout"
    bottom: "rpn_big_conv2"
    top: "rpn_big_conv2"
    dropout_param {
      dropout_ratio: 0.3
    }
  }
  layer {
    name: "rpn_big_output_cls"
    type: "Convolution"
    bottom: "rpn_big_conv2"
    top: "rpn_big_output_cls"
    param {
      lr_mult: 1
    }
    param {
      lr_mult: 2
    }
    convolution_param {
      num_output: 384
      pad: 1
      kernel_size: 3
      stride: 1
      weight_filler {
        type: "gaussian"
        mean: 0
        std: 0.01
      }
      bias_filler {
        type: "constant"
      }
    }
  }
  layer {
    name: "rpn_big_output_cls_relu"
    type: "ReLU"
    bottom: "rpn_big_output_cls"
    top: "rpn_big_output_cls"
    relu_param {
      negative_slope: 0
    }
  }
  layer {
    name: "rpn_big_cls_score"
    type: "Convolution"
    bottom: "rpn_big_output_cls"
    top: "rpn_big_cls_score"
    param {
      lr_mult: 1
    }
    param {
      lr_mult: 2
    }
    convolution_param {
      num_output: 52
      pad: 0
      kernel_size: 3
      stride: 1
      weight_filler {
        type: "gaussian"
        mean: 0
        std: 0.01
      }
      bias_filler {
        type: "constant"
      }
    }
  }
  layer {
    name: "rpn_big_cls_score_reshape"
    type: "Reshape"
    bottom: "rpn_big_cls_score"
    top: "rpn_big_cls_score_reshape"
    reshape_param {
      shape {
        dim: 0
        dim: 2
        dim: -1
        dim: 0
      }
    }
  }
  layer {
    name: "rpn_big_cls_prob"
    type: "Softmax"
    bottom: "rpn_big_cls_score_reshape"
    top: "rpn_big_cls_prob"
  }
  layer {
    name: "rpn_big_cls_prob_reshape"
    type: "Reshape"
    bottom: "rpn_big_cls_prob"
    top: "rpn_big_cls_prob_reshape"
    reshape_param {
      shape {
        dim: 0
        dim: 52
        dim: -1
        dim: 0
      }
    }
  }
  layer {
    name: "rpn_big_anchor_target"
    type: "Python"
    bottom: "rpn_big_cls_score"
    bottom: "input_gt_boxes"
    bottom: "input_ignored_boxes"
    bottom: "input_im_info"
    bottom: "input_data"
    bottom: "rpn_big_cls_prob_reshape"
    top: "rpn_big_anchor_target_labels"
    top: "rpn_big_anchor_target_bbox_targets"
    top: "rpn_big_anchor_target_inside_weights"
    top: "rpn_big_anchor_target_outside_weights"
    python_param {
      module: "rpn.anchor_target_layer"
      layer: "AnchorTargetLayer"
      param_str: "{\"anchor_scales\": [2.5, 3.025, 3.66025, 4.4289024999999995, 5.358972025, 6.484356150249999, 7.846070941802498, 9.493745839581022, 11.487432465893036, 13.899793283730574, 16.818749873313998, 20.350687346709933, 24.62433168951902, 29.795441344318014], \"tn_fraction\": 0.2, \"fg_fraction\": 0.5, \"square_targets\": true, \"positive_overlap\": 0.6, \"anchor_ratios\": [1.0], \"name\": \"rpn_big\", \"feat_stride\": 16, \"anchor_shift_num_xy\": [[2, 2], [2, 2], [2, 2], [2, 2], [1, 1], [1, 1], [1, 1], [1, 1], [1, 1], [1, 1], [1, 1], [1, 1], [1, 1], [1, 1]], \"negative_overlap\": 0.4, \"num_classes\": 1, \"batchsize\": 256}"
    }
  }
  layer {
    name: "rpn_big_loss_cls"
    type: "SoftmaxWithLoss"
    bottom: "rpn_big_cls_score_reshape"
    bottom: "rpn_big_anchor_target_labels"
    top: "rpn_big_loss_cls"
    loss_weight: 1
    propagate_down: true
    propagate_down: false
    loss_param {
      ignore_label: -1
      normalization: VALID
    }
  }
  layer {
    name: "rpn_big_output_box"
    type: "Convolution"
    bottom: "rpn_big_conv2"
    top: "rpn_big_output_box"
    param {
      lr_mult: 1
    }
    param {
      lr_mult: 2
    }
    convolution_param {
      num_output: 384
      pad: 1
      kernel_size: 3
      stride: 1
      weight_filler {
        type: "gaussian"
        mean: 0
        std: 0.01
      }
      bias_filler {
        type: "constant"
      }
    }
  }
  layer {
    name: "rpn_big_output_box_relu"
    type: "ReLU"
    bottom: "rpn_big_output_box"
    top: "rpn_big_output_box"
    relu_param {
      negative_slope: 0
    }
  }
  layer {
    name: "rpn_big_bbox_pred"
    type: "Convolution"
    bottom: "rpn_big_output_box"
    top: "rpn_big_bbox_pred"
    param {
      lr_mult: 1
    }
    param {
      lr_mult: 2
    }
    convolution_param {
      num_output: 104
      pad: 0
      kernel_size: 3
      stride: 1
      weight_filler {
        type: "gaussian"
        mean: 0
        std: 0.01
      }
      bias_filler {
        type: "constant"
      }
    }
  }
  layer {
    name: "rpn_big_loss_bbox"
    type: "Python"
    bottom: "rpn_big_bbox_pred"
    bottom: "rpn_big_anchor_target_bbox_targets"
    bottom: "rpn_big_anchor_target_inside_weights"
    bottom: "rpn_big_anchor_target_outside_weights"
    top: "rpn_big_loss_bbox"
    loss_weight: 1
    python_param {
      module: "layers.smooth_l1_loss"
      layer: "SmoothL1LossLayer"
      param_str: "{\"sigma\": 3}"
    }
  }
  layer {
    name: "proposal"
    type: "Python"
    bottom: "rpn_big_cls_prob_reshape"
    bottom: "rpn_big_bbox_pred"
    bottom: "input_im_info"
    top: "rpn_rois"
    python_param {
      module: "rpn.proposal_layer"
      layer: "ProposalLayer"
      param_str: "{\"feat_stride\": 16, \"scales\": [4, 8, 16, 32]}"
    }
  }
}
average_loss: 100
stepvalue: 70000
stepvalue: 120000
iter_size: 2
I0413 16:25:49.491895  8862 solver.cpp:86] Creating training net specified in net_param.
I0413 16:25:49.492260  8862 net.cpp:58] Initializing net from parameters: 
name: "GeneratedModel_13_04_2017_16_25"
state {
  phase: TRAIN
}
layer {
  name: "input"
  type: "Python"
  top: "input_data"
  top: "input_im_info"
  top: "input_gt_boxes"
  top: "input_ignored_boxes"
  python_param {
    module: "layers.roi_data_layer"
    layer: "RoIDataLayer"
    param_str: "{\"num_classes\": 2}"
  }
}
layer {
  name: "conv1_1"
  type: "Convolution"
  bottom: "input_data"
  top: "conv1_1"
  param {
    lr_mult: 0
    decay_mult: 0
  }
  param {
    lr_mult: 0
    decay_mult: 0
  }
  convolution_param {
    num_output: 64
    pad: 1
    kernel_size: 3
  }
}
layer {
  name: "relu1_1"
  type: "ReLU"
  bottom: "conv1_1"
  top: "conv1_1"
}
layer {
  name: "conv1_2"
  type: "Convolution"
  bottom: "conv1_1"
  top: "conv1_2"
  param {
    lr_mult: 0
    decay_mult: 0
  }
  param {
    lr_mult: 0
    decay_mult: 0
  }
  convolution_param {
    num_output: 64
    pad: 1
    kernel_size: 3
  }
}
layer {
  name: "relu1_2"
  type: "ReLU"
  bottom: "conv1_2"
  top: "conv1_2"
}
layer {
  name: "pool1"
  type: "Pooling"
  bottom: "conv1_2"
  top: "pool1"
  pooling_param {
    pool: MAX
    kernel_size: 2
    stride: 2
  }
}
layer {
  name: "conv2_1"
  type: "Convolution"
  bottom: "pool1"
  top: "conv2_1"
  param {
    lr_mult: 0
    decay_mult: 0
  }
  param {
    lr_mult: 0
    decay_mult: 0
  }
  convolution_param {
    num_output: 128
    pad: 1
    kernel_size: 3
  }
}
layer {
  name: "relu2_1"
  type: "ReLU"
  bottom: "conv2_1"
  top: "conv2_1"
}
layer {
  name: "conv2_2"
  type: "Convolution"
  bottom: "conv2_1"
  top: "conv2_2"
  param {
    lr_mult: 0
    decay_mult: 0
  }
  param {
    lr_mult: 0
    decay_mult: 0
  }
  convolution_param {
    num_output: 128
    pad: 1
    kernel_size: 3
  }
}
layer {
  name: "relu2_2"
  type: "ReLU"
  bottom: "conv2_2"
  top: "conv2_2"
}
layer {
  name: "pool2"
  type: "Pooling"
  bottom: "conv2_2"
  top: "pool2"
  pooling_param {
    pool: MAX
    kernel_size: 2
    stride: 2
  }
}
layer {
  name: "conv3_1"
  type: "Convolution"
  bottom: "pool2"
  top: "conv3_1"
  param {
    lr_mult: 1
  }
  param {
    lr_mult: 2
  }
  convolution_param {
    num_output: 256
    pad: 1
    kernel_size: 3
  }
}
layer {
  name: "relu3_1"
  type: "ReLU"
  bottom: "conv3_1"
  top: "conv3_1"
}
layer {
  name: "conv3_2"
  type: "Convolution"
  bottom: "conv3_1"
  top: "conv3_2"
  param {
    lr_mult: 1
  }
  param {
    lr_mult: 2
  }
  convolution_param {
    num_output: 256
    pad: 1
    kernel_size: 3
  }
}
layer {
  name: "relu3_2"
  type: "ReLU"
  bottom: "conv3_2"
  top: "conv3_2"
}
layer {
  name: "conv3_3"
  type: "Convolution"
  bottom: "conv3_2"
  top: "conv3_3"
  param {
    lr_mult: 1
  }
  param {
    lr_mult: 2
  }
  convolution_param {
    num_output: 256
    pad: 1
    kernel_size: 3
  }
}
layer {
  name: "relu3_3"
  type: "ReLU"
  bottom: "conv3_3"
  top: "conv3_3"
}
layer {
  name: "pool3"
  type: "Pooling"
  bottom: "conv3_3"
  top: "pool3"
  pooling_param {
    pool: MAX
    kernel_size: 2
    stride: 2
  }
}
layer {
  name: "conv4_1"
  type: "Convolution"
  bottom: "pool3"
  top: "conv4_1"
  param {
    lr_mult: 1
  }
  param {
    lr_mult: 2
  }
  convolution_param {
    num_output: 512
    pad: 1
    kernel_size: 3
  }
}
layer {
  name: "relu4_1"
  type: "ReLU"
  bottom: "conv4_1"
  top: "conv4_1"
}
layer {
  name: "conv4_2"
  type: "Convolution"
  bottom: "conv4_1"
  top: "conv4_2"
  param {
    lr_mult: 1
  }
  param {
    lr_mult: 2
  }
  convolution_param {
    num_output: 512
    pad: 1
    kernel_size: 3
  }
}
layer {
  name: "relu4_2"
  type: "ReLU"
  bottom: "conv4_2"
  top: "conv4_2"
}
layer {
  name: "conv4_3"
  type: "Convolution"
  bottom: "conv4_2"
  top: "conv4_3"
  param {
    lr_mult: 1
  }
  param {
    lr_mult: 2
  }
  convolution_param {
    num_output: 512
    pad: 1
    kernel_size: 3
  }
}
layer {
  name: "relu4_3"
  type: "ReLU"
  bottom: "conv4_3"
  top: "conv4_3"
}
layer {
  name: "pool4"
  type: "Pooling"
  bottom: "conv4_3"
  top: "pool4"
  pooling_param {
    pool: MAX
    kernel_size: 2
    stride: 2
  }
}
layer {
  name: "conv5_1"
  type: "Convolution"
  bottom: "pool4"
  top: "conv5_1"
  param {
    lr_mult: 1
  }
  param {
    lr_mult: 2
  }
  convolution_param {
    num_output: 512
    pad: 1
    kernel_size: 3
  }
}
layer {
  name: "relu5_1"
  type: "ReLU"
  bottom: "conv5_1"
  top: "conv5_1"
}
layer {
  name: "conv5_2"
  type: "Convolution"
  bottom: "conv5_1"
  top: "conv5_2"
  param {
    lr_mult: 1
  }
  param {
    lr_mult: 2
  }
  convolution_param {
    num_output: 512
    pad: 1
    kernel_size: 3
  }
}
layer {
  name: "relu5_2"
  type: "ReLU"
  bottom: "conv5_2"
  top: "conv5_2"
}
layer {
  name: "conv5_3"
  type: "Convolution"
  bottom: "conv5_2"
  top: "conv5_3"
  param {
    lr_mult: 1
  }
  param {
    lr_mult: 2
  }
  convolution_param {
    num_output: 512
    pad: 1
    kernel_size: 3
  }
}
layer {
  name: "relu5_3"
  type: "ReLU"
  bottom: "conv5_3"
  top: "conv5_3"
}
layer {
  name: "rpn_big_conv1"
  type: "Convolution"
  bottom: "conv5_3"
  top: "rpn_big_conv1"
  param {
    lr_mult: 1
  }
  param {
    lr_mult: 2
  }
  convolution_param {
    num_output: 512
    pad: 1
    kernel_size: 3
    stride: 1
    weight_filler {
      type: "gaussian"
      mean: 0
      std: 0.01
    }
    bias_filler {
      type: "constant"
    }
  }
}
layer {
  name: "rpn_big_conv1_relu"
  type: "ReLU"
  bottom: "rpn_big_conv1"
  top: "rpn_big_conv1"
  relu_param {
    negative_slope: 0
  }
}
layer {
  name: "rpn_big_conv2"
  type: "Convolution"
  bottom: "rpn_big_conv1"
  top: "rpn_big_conv2"
  param {
    lr_mult: 1
  }
  param {
    lr_mult: 2
  }
  convolution_param {
    num_output: 512
    pad: 1
    kernel_size: 3
    stride: 1
    weight_filler {
      type: "gaussian"
      mean: 0
      std: 0.01
    }
    bias_filler {
      type: "constant"
    }
  }
}
layer {
  name: "rpn_big_conv2_relu"
  type: "ReLU"
  bottom: "rpn_big_conv2"
  top: "rpn_big_conv2"
  relu_param {
    negative_slope: 0
  }
}
layer {
  name: "rpn_big_conv2_drop"
  type: "Dropout"
  bottom: "rpn_big_conv2"
  top: "rpn_big_conv2"
  dropout_param {
    dropout_ratio: 0.3
  }
}
layer {
  name: "rpn_big_output_cls"
  type: "Convolution"
  bottom: "rpn_big_conv2"
  top: "rpn_big_output_cls"
  param {
    lr_mult: 1
  }
  param {
    lr_mult: 2
  }
  convolution_param {
    num_output: 384
    pad: 1
    kernel_size: 3
    stride: 1
    weight_filler {
      type: "gaussian"
      mean: 0
      std: 0.01
    }
    bias_filler {
      type: "constant"
    }
  }
}
layer {
  name: "rpn_big_output_cls_relu"
  type: "ReLU"
  bottom: "rpn_big_output_cls"
  top: "rpn_big_output_cls"
  relu_param {
    negative_slope: 0
  }
}
layer {
  name: "rpn_big_cls_score"
  type: "Convolution"
  bottom: "rpn_big_output_cls"
  top: "rpn_big_cls_score"
  param {
    lr_mult: 1
  }
  param {
    lr_mult: 2
  }
  convolution_param {
    num_output: 52
    pad: 0
    kernel_size: 3
    stride: 1
    weight_filler {
      type: "gaussian"
      mean: 0
      std: 0.01
    }
    bias_filler {
      type: "constant"
    }
  }
}
layer {
  name: "rpn_big_cls_score_reshape"
  type: "Reshape"
  bottom: "rpn_big_cls_score"
  top: "rpn_big_cls_score_reshape"
  reshape_param {
    shape {
      dim: 0
      dim: 2
      dim: -1
      dim: 0
    }
  }
}
layer {
  name: "rpn_big_cls_prob"
  type: "Softmax"
  bottom: "rpn_big_cls_score_reshape"
  top: "rpn_big_cls_prob"
}
layer {
  name: "rpn_big_cls_prob_reshape"
  type: "Reshape"
  bottom: "rpn_big_cls_prob"
  top: "rpn_big_cls_prob_reshape"
  reshape_param {
    shape {
      dim: 0
      dim: 52
      dim: -1
      dim: 0
    }
  }
}
layer {
  name: "rpn_big_anchor_target"
  type: "Python"
  bottom: "rpn_big_cls_score"
  bottom: "input_gt_boxes"
  bottom: "input_ignored_boxes"
  bottom: "input_im_info"
  bottom: "input_data"
  bottom: "rpn_big_cls_prob_reshape"
  top: "rpn_big_anchor_target_labels"
  top: "rpn_big_anchor_target_bbox_targets"
  top: "rpn_big_anchor_target_inside_weights"
  top: "rpn_big_anchor_target_outside_weights"
  python_param {
    module: "rpn.anchor_target_layer"
    layer: "AnchorTargetLayer"
    param_str: "{\"anchor_scales\": [2.5, 3.025, 3.66025, 4.4289024999999995, 5.358972025, 6.484356150249999, 7.846070941802498, 9.493745839581022, 11.487432465893036, 13.899793283730574, 16.818749873313998, 20.350687346709933, 24.62433168951902, 29.795441344318014], \"tn_fraction\": 0.2, \"fg_fraction\": 0.5, \"square_targets\": true, \"positive_overlap\": 0.6, \"anchor_ratios\": [1.0], \"name\": \"rpn_big\", \"feat_stride\": 16, \"anchor_shift_num_xy\": [[2, 2], [2, 2], [2, 2], [2, 2], [1, 1], [1, 1], [1, 1], [1, 1], [1, 1], [1, 1], [1, 1], [1, 1], [1, 1], [1, 1]], \"negative_overlap\": 0.4, \"num_classes\": 1, \"batchsize\": 256}"
  }
}
layer {
  name: "rpn_big_loss_cls"
  type: "SoftmaxWithLoss"
  bottom: "rpn_big_cls_score_reshape"
  bottom: "rpn_big_anchor_target_labels"
  top: "rpn_big_loss_cls"
  loss_weight: 1
  propagate_down: true
  propagate_down: false
  loss_param {
    ignore_label: -1
    normalization: VALID
  }
}
layer {
  name: "rpn_big_output_box"
  type: "Convolution"
  bottom: "rpn_big_conv2"
  top: "rpn_big_output_box"
  param {
    lr_mult: 1
  }
  param {
    lr_mult: 2
  }
  convolution_param {
    num_output: 384
    pad: 1
    kernel_size: 3
    stride: 1
    weight_filler {
      type: "gaussian"
      mean: 0
      std: 0.01
    }
    bias_filler {
      type: "constant"
    }
  }
}
layer {
  name: "rpn_big_output_box_relu"
  type: "ReLU"
  bottom: "rpn_big_output_box"
  top: "rpn_big_output_box"
  relu_param {
    negative_slope: 0
  }
}
layer {
  name: "rpn_big_bbox_pred"
  type: "Convolution"
  bottom: "rpn_big_output_box"
  top: "rpn_big_bbox_pred"
  param {
    lr_mult: 1
  }
  param {
    lr_mult: 2
  }
  convolution_param {
    num_output: 104
    pad: 0
    kernel_size: 3
    stride: 1
    weight_filler {
      type: "gaussian"
      mean: 0
      std: 0.01
    }
    bias_filler {
      type: "constant"
    }
  }
}
layer {
  name: "rpn_big_loss_bbox"
  type: "Python"
  bottom: "rpn_big_bbox_pred"
  bottom: "rpn_big_anchor_target_bbox_targets"
  bottom: "rpn_big_anchor_target_inside_weights"
  bottom: "rpn_big_anchor_target_outside_weights"
  top: "rpn_big_loss_bbox"
  loss_weight: 1
  python_param {
    module: "layers.smooth_l1_loss"
    layer: "SmoothL1LossLayer"
    param_str: "{\"sigma\": 3}"
  }
}
layer {
  name: "proposal"
  type: "Python"
  bottom: "rpn_big_cls_prob_reshape"
  bottom: "rpn_big_bbox_pred"
  bottom: "input_im_info"
  top: "rpn_rois"
  python_param {
    module: "rpn.proposal_layer"
    layer: "ProposalLayer"
    param_str: "{\"feat_stride\": 16, \"scales\": [4, 8, 16, 32]}"
  }
}
I0413 16:25:49.492441  8862 layer_factory.hpp:77] Creating layer input
I0413 16:25:49.493721  8862 net.cpp:100] Creating Layer input
I0413 16:25:49.493741  8862 net.cpp:408] input -> input_data
I0413 16:25:49.493753  8862 net.cpp:408] input -> input_im_info
I0413 16:25:49.493760  8862 net.cpp:408] input -> input_gt_boxes
I0413 16:25:49.493767  8862 net.cpp:408] input -> input_ignored_boxes
RoiDataLayer: name_to_top: {'data': 0, 'gt_boxes': 2, 'ignored_boxes': 3, 'im_info': 1}
I0413 16:25:49.806587  8862 net.cpp:150] Setting up input
I0413 16:25:49.806612  8862 net.cpp:157] Top shape: 1 3 1000 1500 (4500000)
I0413 16:25:49.806617  8862 net.cpp:157] Top shape: 1 3 (3)
I0413 16:25:49.806622  8862 net.cpp:157] Top shape: 1 5 (5)
I0413 16:25:49.806625  8862 net.cpp:157] Top shape: 1 5 (5)
I0413 16:25:49.806628  8862 net.cpp:165] Memory required for data: 18000052
I0413 16:25:49.806635  8862 layer_factory.hpp:77] Creating layer input_data_input_0_split
I0413 16:25:49.806646  8862 net.cpp:100] Creating Layer input_data_input_0_split
I0413 16:25:49.806651  8862 net.cpp:434] input_data_input_0_split <- input_data
I0413 16:25:49.806658  8862 net.cpp:408] input_data_input_0_split -> input_data_input_0_split_0
I0413 16:25:49.806676  8862 net.cpp:408] input_data_input_0_split -> input_data_input_0_split_1
I0413 16:25:49.806720  8862 net.cpp:150] Setting up input_data_input_0_split
I0413 16:25:49.806730  8862 net.cpp:157] Top shape: 1 3 1000 1500 (4500000)
I0413 16:25:49.806740  8862 net.cpp:157] Top shape: 1 3 1000 1500 (4500000)
I0413 16:25:49.806746  8862 net.cpp:165] Memory required for data: 54000052
I0413 16:25:49.806752  8862 layer_factory.hpp:77] Creating layer input_im_info_input_1_split
I0413 16:25:49.806763  8862 net.cpp:100] Creating Layer input_im_info_input_1_split
I0413 16:25:49.806772  8862 net.cpp:434] input_im_info_input_1_split <- input_im_info
I0413 16:25:49.806782  8862 net.cpp:408] input_im_info_input_1_split -> input_im_info_input_1_split_0
I0413 16:25:49.806795  8862 net.cpp:408] input_im_info_input_1_split -> input_im_info_input_1_split_1
I0413 16:25:49.806833  8862 net.cpp:150] Setting up input_im_info_input_1_split
I0413 16:25:49.806843  8862 net.cpp:157] Top shape: 1 3 (3)
I0413 16:25:49.806850  8862 net.cpp:157] Top shape: 1 3 (3)
I0413 16:25:49.806855  8862 net.cpp:165] Memory required for data: 54000076
I0413 16:25:49.806861  8862 layer_factory.hpp:77] Creating layer conv1_1
I0413 16:25:49.806876  8862 net.cpp:100] Creating Layer conv1_1
I0413 16:25:49.806884  8862 net.cpp:434] conv1_1 <- input_data_input_0_split_0
I0413 16:25:49.806893  8862 net.cpp:408] conv1_1 -> conv1_1
I0413 16:25:49.809947  8862 net.cpp:150] Setting up conv1_1
I0413 16:25:49.809988  8862 net.cpp:157] Top shape: 1 64 1000 1500 (96000000)
I0413 16:25:49.809993  8862 net.cpp:165] Memory required for data: 438000076
I0413 16:25:49.810017  8862 layer_factory.hpp:77] Creating layer relu1_1
I0413 16:25:49.810036  8862 net.cpp:100] Creating Layer relu1_1
I0413 16:25:49.810045  8862 net.cpp:434] relu1_1 <- conv1_1
I0413 16:25:49.810057  8862 net.cpp:395] relu1_1 -> conv1_1 (in-place)
I0413 16:25:49.810075  8862 net.cpp:150] Setting up relu1_1
I0413 16:25:49.810083  8862 net.cpp:157] Top shape: 1 64 1000 1500 (96000000)
I0413 16:25:49.810091  8862 net.cpp:165] Memory required for data: 822000076
I0413 16:25:49.810097  8862 layer_factory.hpp:77] Creating layer conv1_2
I0413 16:25:49.810114  8862 net.cpp:100] Creating Layer conv1_2
I0413 16:25:49.810122  8862 net.cpp:434] conv1_2 <- conv1_1
I0413 16:25:49.810132  8862 net.cpp:408] conv1_2 -> conv1_2
I0413 16:25:49.813325  8862 net.cpp:150] Setting up conv1_2
I0413 16:25:49.813365  8862 net.cpp:157] Top shape: 1 64 1000 1500 (96000000)
I0413 16:25:49.813370  8862 net.cpp:165] Memory required for data: 1206000076
I0413 16:25:49.813395  8862 layer_factory.hpp:77] Creating layer relu1_2
I0413 16:25:49.813411  8862 net.cpp:100] Creating Layer relu1_2
I0413 16:25:49.813419  8862 net.cpp:434] relu1_2 <- conv1_2
I0413 16:25:49.813436  8862 net.cpp:395] relu1_2 -> conv1_2 (in-place)
I0413 16:25:49.813452  8862 net.cpp:150] Setting up relu1_2
I0413 16:25:49.813460  8862 net.cpp:157] Top shape: 1 64 1000 1500 (96000000)
I0413 16:25:49.813467  8862 net.cpp:165] Memory required for data: 1590000076
I0413 16:25:49.813473  8862 layer_factory.hpp:77] Creating layer pool1
I0413 16:25:49.813488  8862 net.cpp:100] Creating Layer pool1
I0413 16:25:49.813495  8862 net.cpp:434] pool1 <- conv1_2
I0413 16:25:49.813505  8862 net.cpp:408] pool1 -> pool1
I0413 16:25:49.813581  8862 net.cpp:150] Setting up pool1
I0413 16:25:49.813591  8862 net.cpp:157] Top shape: 1 64 500 750 (24000000)
I0413 16:25:49.813597  8862 net.cpp:165] Memory required for data: 1686000076
I0413 16:25:49.813606  8862 layer_factory.hpp:77] Creating layer conv2_1
I0413 16:25:49.813623  8862 net.cpp:100] Creating Layer conv2_1
I0413 16:25:49.813630  8862 net.cpp:434] conv2_1 <- pool1
I0413 16:25:49.813640  8862 net.cpp:408] conv2_1 -> conv2_1
I0413 16:25:49.814865  8862 net.cpp:150] Setting up conv2_1
I0413 16:25:49.814888  8862 net.cpp:157] Top shape: 1 128 500 750 (48000000)
I0413 16:25:49.814894  8862 net.cpp:165] Memory required for data: 1878000076
I0413 16:25:49.814913  8862 layer_factory.hpp:77] Creating layer relu2_1
I0413 16:25:49.814924  8862 net.cpp:100] Creating Layer relu2_1
I0413 16:25:49.814934  8862 net.cpp:434] relu2_1 <- conv2_1
I0413 16:25:49.814942  8862 net.cpp:395] relu2_1 -> conv2_1 (in-place)
I0413 16:25:49.814955  8862 net.cpp:150] Setting up relu2_1
I0413 16:25:49.814965  8862 net.cpp:157] Top shape: 1 128 500 750 (48000000)
I0413 16:25:49.814972  8862 net.cpp:165] Memory required for data: 2070000076
I0413 16:25:49.814978  8862 layer_factory.hpp:77] Creating layer conv2_2
I0413 16:25:49.814995  8862 net.cpp:100] Creating Layer conv2_2
I0413 16:25:49.815001  8862 net.cpp:434] conv2_2 <- conv2_1
I0413 16:25:49.815012  8862 net.cpp:408] conv2_2 -> conv2_2
I0413 16:25:49.815937  8862 net.cpp:150] Setting up conv2_2
I0413 16:25:49.815960  8862 net.cpp:157] Top shape: 1 128 500 750 (48000000)
I0413 16:25:49.815965  8862 net.cpp:165] Memory required for data: 2262000076
I0413 16:25:49.815979  8862 layer_factory.hpp:77] Creating layer relu2_2
I0413 16:25:49.815994  8862 net.cpp:100] Creating Layer relu2_2
I0413 16:25:49.816001  8862 net.cpp:434] relu2_2 <- conv2_2
I0413 16:25:49.816012  8862 net.cpp:395] relu2_2 -> conv2_2 (in-place)
I0413 16:25:49.816025  8862 net.cpp:150] Setting up relu2_2
I0413 16:25:49.816035  8862 net.cpp:157] Top shape: 1 128 500 750 (48000000)
I0413 16:25:49.816042  8862 net.cpp:165] Memory required for data: 2454000076
I0413 16:25:49.816048  8862 layer_factory.hpp:77] Creating layer pool2
I0413 16:25:49.816061  8862 net.cpp:100] Creating Layer pool2
I0413 16:25:49.816069  8862 net.cpp:434] pool2 <- conv2_2
I0413 16:25:49.816078  8862 net.cpp:408] pool2 -> pool2
I0413 16:25:49.816128  8862 net.cpp:150] Setting up pool2
I0413 16:25:49.816138  8862 net.cpp:157] Top shape: 1 128 250 375 (12000000)
I0413 16:25:49.816144  8862 net.cpp:165] Memory required for data: 2502000076
I0413 16:25:49.816153  8862 layer_factory.hpp:77] Creating layer conv3_1
I0413 16:25:49.816169  8862 net.cpp:100] Creating Layer conv3_1
I0413 16:25:49.816175  8862 net.cpp:434] conv3_1 <- pool2
I0413 16:25:49.816186  8862 net.cpp:408] conv3_1 -> conv3_1
I0413 16:25:49.817318  8862 net.cpp:150] Setting up conv3_1
I0413 16:25:49.817347  8862 net.cpp:157] Top shape: 1 256 250 375 (24000000)
I0413 16:25:49.817351  8862 net.cpp:165] Memory required for data: 2598000076
I0413 16:25:49.817371  8862 layer_factory.hpp:77] Creating layer relu3_1
I0413 16:25:49.817384  8862 net.cpp:100] Creating Layer relu3_1
I0413 16:25:49.817394  8862 net.cpp:434] relu3_1 <- conv3_1
I0413 16:25:49.817409  8862 net.cpp:395] relu3_1 -> conv3_1 (in-place)
I0413 16:25:49.817422  8862 net.cpp:150] Setting up relu3_1
I0413 16:25:49.817431  8862 net.cpp:157] Top shape: 1 256 250 375 (24000000)
I0413 16:25:49.817438  8862 net.cpp:165] Memory required for data: 2694000076
I0413 16:25:49.817445  8862 layer_factory.hpp:77] Creating layer conv3_2
I0413 16:25:49.817461  8862 net.cpp:100] Creating Layer conv3_2
I0413 16:25:49.817467  8862 net.cpp:434] conv3_2 <- conv3_1
I0413 16:25:49.817477  8862 net.cpp:408] conv3_2 -> conv3_2
I0413 16:25:49.818656  8862 net.cpp:150] Setting up conv3_2
I0413 16:25:49.818683  8862 net.cpp:157] Top shape: 1 256 250 375 (24000000)
I0413 16:25:49.818689  8862 net.cpp:165] Memory required for data: 2790000076
I0413 16:25:49.818702  8862 layer_factory.hpp:77] Creating layer relu3_2
I0413 16:25:49.818719  8862 net.cpp:100] Creating Layer relu3_2
I0413 16:25:49.818727  8862 net.cpp:434] relu3_2 <- conv3_2
I0413 16:25:49.818737  8862 net.cpp:395] relu3_2 -> conv3_2 (in-place)
I0413 16:25:49.818753  8862 net.cpp:150] Setting up relu3_2
I0413 16:25:49.818760  8862 net.cpp:157] Top shape: 1 256 250 375 (24000000)
I0413 16:25:49.818768  8862 net.cpp:165] Memory required for data: 2886000076
I0413 16:25:49.818773  8862 layer_factory.hpp:77] Creating layer conv3_3
I0413 16:25:49.818789  8862 net.cpp:100] Creating Layer conv3_3
I0413 16:25:49.818796  8862 net.cpp:434] conv3_3 <- conv3_2
I0413 16:25:49.818807  8862 net.cpp:408] conv3_3 -> conv3_3
I0413 16:25:49.820358  8862 net.cpp:150] Setting up conv3_3
I0413 16:25:49.820394  8862 net.cpp:157] Top shape: 1 256 250 375 (24000000)
I0413 16:25:49.820400  8862 net.cpp:165] Memory required for data: 2982000076
I0413 16:25:49.820415  8862 layer_factory.hpp:77] Creating layer relu3_3
I0413 16:25:49.820428  8862 net.cpp:100] Creating Layer relu3_3
I0413 16:25:49.820438  8862 net.cpp:434] relu3_3 <- conv3_3
I0413 16:25:49.820451  8862 net.cpp:395] relu3_3 -> conv3_3 (in-place)
I0413 16:25:49.820468  8862 net.cpp:150] Setting up relu3_3
I0413 16:25:49.820477  8862 net.cpp:157] Top shape: 1 256 250 375 (24000000)
I0413 16:25:49.820485  8862 net.cpp:165] Memory required for data: 3078000076
I0413 16:25:49.820492  8862 layer_factory.hpp:77] Creating layer pool3
I0413 16:25:49.820502  8862 net.cpp:100] Creating Layer pool3
I0413 16:25:49.820510  8862 net.cpp:434] pool3 <- conv3_3
I0413 16:25:49.820519  8862 net.cpp:408] pool3 -> pool3
I0413 16:25:49.820572  8862 net.cpp:150] Setting up pool3
I0413 16:25:49.820582  8862 net.cpp:157] Top shape: 1 256 125 188 (6016000)
I0413 16:25:49.820588  8862 net.cpp:165] Memory required for data: 3102064076
I0413 16:25:49.820595  8862 layer_factory.hpp:77] Creating layer conv4_1
I0413 16:25:49.820608  8862 net.cpp:100] Creating Layer conv4_1
I0413 16:25:49.820616  8862 net.cpp:434] conv4_1 <- pool3
I0413 16:25:49.820628  8862 net.cpp:408] conv4_1 -> conv4_1
I0413 16:25:49.823369  8862 net.cpp:150] Setting up conv4_1
I0413 16:25:49.823401  8862 net.cpp:157] Top shape: 1 512 125 188 (12032000)
I0413 16:25:49.823407  8862 net.cpp:165] Memory required for data: 3150192076
I0413 16:25:49.823422  8862 layer_factory.hpp:77] Creating layer relu4_1
I0413 16:25:49.823436  8862 net.cpp:100] Creating Layer relu4_1
I0413 16:25:49.823446  8862 net.cpp:434] relu4_1 <- conv4_1
I0413 16:25:49.823457  8862 net.cpp:395] relu4_1 -> conv4_1 (in-place)
I0413 16:25:49.823473  8862 net.cpp:150] Setting up relu4_1
I0413 16:25:49.823483  8862 net.cpp:157] Top shape: 1 512 125 188 (12032000)
I0413 16:25:49.823492  8862 net.cpp:165] Memory required for data: 3198320076
I0413 16:25:49.823498  8862 layer_factory.hpp:77] Creating layer conv4_2
I0413 16:25:49.823510  8862 net.cpp:100] Creating Layer conv4_2
I0413 16:25:49.823518  8862 net.cpp:434] conv4_2 <- conv4_1
I0413 16:25:49.823529  8862 net.cpp:408] conv4_2 -> conv4_2
I0413 16:25:49.827782  8862 net.cpp:150] Setting up conv4_2
I0413 16:25:49.827819  8862 net.cpp:157] Top shape: 1 512 125 188 (12032000)
I0413 16:25:49.827824  8862 net.cpp:165] Memory required for data: 3246448076
I0413 16:25:49.827847  8862 layer_factory.hpp:77] Creating layer relu4_2
I0413 16:25:49.827867  8862 net.cpp:100] Creating Layer relu4_2
I0413 16:25:49.827875  8862 net.cpp:434] relu4_2 <- conv4_2
I0413 16:25:49.827888  8862 net.cpp:395] relu4_2 -> conv4_2 (in-place)
I0413 16:25:49.827903  8862 net.cpp:150] Setting up relu4_2
I0413 16:25:49.827913  8862 net.cpp:157] Top shape: 1 512 125 188 (12032000)
I0413 16:25:49.827920  8862 net.cpp:165] Memory required for data: 3294576076
I0413 16:25:49.827926  8862 layer_factory.hpp:77] Creating layer conv4_3
I0413 16:25:49.827944  8862 net.cpp:100] Creating Layer conv4_3
I0413 16:25:49.827951  8862 net.cpp:434] conv4_3 <- conv4_2
I0413 16:25:49.827961  8862 net.cpp:408] conv4_3 -> conv4_3
I0413 16:25:49.832185  8862 net.cpp:150] Setting up conv4_3
I0413 16:25:49.832221  8862 net.cpp:157] Top shape: 1 512 125 188 (12032000)
I0413 16:25:49.832226  8862 net.cpp:165] Memory required for data: 3342704076
I0413 16:25:49.832240  8862 layer_factory.hpp:77] Creating layer relu4_3
I0413 16:25:49.832255  8862 net.cpp:100] Creating Layer relu4_3
I0413 16:25:49.832264  8862 net.cpp:434] relu4_3 <- conv4_3
I0413 16:25:49.832280  8862 net.cpp:395] relu4_3 -> conv4_3 (in-place)
I0413 16:25:49.832295  8862 net.cpp:150] Setting up relu4_3
I0413 16:25:49.832304  8862 net.cpp:157] Top shape: 1 512 125 188 (12032000)
I0413 16:25:49.832312  8862 net.cpp:165] Memory required for data: 3390832076
I0413 16:25:49.832319  8862 layer_factory.hpp:77] Creating layer pool4
I0413 16:25:49.832331  8862 net.cpp:100] Creating Layer pool4
I0413 16:25:49.832339  8862 net.cpp:434] pool4 <- conv4_3
I0413 16:25:49.832348  8862 net.cpp:408] pool4 -> pool4
I0413 16:25:49.832392  8862 net.cpp:150] Setting up pool4
I0413 16:25:49.832403  8862 net.cpp:157] Top shape: 1 512 63 94 (3032064)
I0413 16:25:49.832408  8862 net.cpp:165] Memory required for data: 3402960332
I0413 16:25:49.832415  8862 layer_factory.hpp:77] Creating layer conv5_1
I0413 16:25:49.832432  8862 net.cpp:100] Creating Layer conv5_1
I0413 16:25:49.832439  8862 net.cpp:434] conv5_1 <- pool4
I0413 16:25:49.832451  8862 net.cpp:408] conv5_1 -> conv5_1
I0413 16:25:49.837074  8862 net.cpp:150] Setting up conv5_1
I0413 16:25:49.837110  8862 net.cpp:157] Top shape: 1 512 63 94 (3032064)
I0413 16:25:49.837116  8862 net.cpp:165] Memory required for data: 3415088588
I0413 16:25:49.837131  8862 layer_factory.hpp:77] Creating layer relu5_1
I0413 16:25:49.837147  8862 net.cpp:100] Creating Layer relu5_1
I0413 16:25:49.837157  8862 net.cpp:434] relu5_1 <- conv5_1
I0413 16:25:49.837169  8862 net.cpp:395] relu5_1 -> conv5_1 (in-place)
I0413 16:25:49.837184  8862 net.cpp:150] Setting up relu5_1
I0413 16:25:49.837195  8862 net.cpp:157] Top shape: 1 512 63 94 (3032064)
I0413 16:25:49.837200  8862 net.cpp:165] Memory required for data: 3427216844
I0413 16:25:49.837208  8862 layer_factory.hpp:77] Creating layer conv5_2
I0413 16:25:49.837220  8862 net.cpp:100] Creating Layer conv5_2
I0413 16:25:49.837232  8862 net.cpp:434] conv5_2 <- conv5_1
I0413 16:25:49.837245  8862 net.cpp:408] conv5_2 -> conv5_2
I0413 16:25:49.841439  8862 net.cpp:150] Setting up conv5_2
I0413 16:25:49.841475  8862 net.cpp:157] Top shape: 1 512 63 94 (3032064)
I0413 16:25:49.841480  8862 net.cpp:165] Memory required for data: 3439345100
I0413 16:25:49.841495  8862 layer_factory.hpp:77] Creating layer relu5_2
I0413 16:25:49.841512  8862 net.cpp:100] Creating Layer relu5_2
I0413 16:25:49.841521  8862 net.cpp:434] relu5_2 <- conv5_2
I0413 16:25:49.841536  8862 net.cpp:395] relu5_2 -> conv5_2 (in-place)
I0413 16:25:49.841550  8862 net.cpp:150] Setting up relu5_2
I0413 16:25:49.841559  8862 net.cpp:157] Top shape: 1 512 63 94 (3032064)
I0413 16:25:49.841567  8862 net.cpp:165] Memory required for data: 3451473356
I0413 16:25:49.841573  8862 layer_factory.hpp:77] Creating layer conv5_3
I0413 16:25:49.841590  8862 net.cpp:100] Creating Layer conv5_3
I0413 16:25:49.841596  8862 net.cpp:434] conv5_3 <- conv5_2
I0413 16:25:49.841609  8862 net.cpp:408] conv5_3 -> conv5_3
I0413 16:25:49.845968  8862 net.cpp:150] Setting up conv5_3
I0413 16:25:49.846006  8862 net.cpp:157] Top shape: 1 512 63 94 (3032064)
I0413 16:25:49.846012  8862 net.cpp:165] Memory required for data: 3463601612
I0413 16:25:49.846026  8862 layer_factory.hpp:77] Creating layer relu5_3
I0413 16:25:49.846050  8862 net.cpp:100] Creating Layer relu5_3
I0413 16:25:49.846068  8862 net.cpp:434] relu5_3 <- conv5_3
I0413 16:25:49.846086  8862 net.cpp:395] relu5_3 -> conv5_3 (in-place)
I0413 16:25:49.846101  8862 net.cpp:150] Setting up relu5_3
I0413 16:25:49.846112  8862 net.cpp:157] Top shape: 1 512 63 94 (3032064)
I0413 16:25:49.846118  8862 net.cpp:165] Memory required for data: 3475729868
I0413 16:25:49.846127  8862 layer_factory.hpp:77] Creating layer rpn_big_conv1
I0413 16:25:49.846143  8862 net.cpp:100] Creating Layer rpn_big_conv1
I0413 16:25:49.846150  8862 net.cpp:434] rpn_big_conv1 <- conv5_3
I0413 16:25:49.846161  8862 net.cpp:408] rpn_big_conv1 -> rpn_big_conv1
I0413 16:25:49.871395  8862 net.cpp:150] Setting up rpn_big_conv1
I0413 16:25:49.871430  8862 net.cpp:157] Top shape: 1 512 63 94 (3032064)
I0413 16:25:49.871436  8862 net.cpp:165] Memory required for data: 3487858124
I0413 16:25:49.871453  8862 layer_factory.hpp:77] Creating layer rpn_big_conv1_relu
I0413 16:25:49.871469  8862 net.cpp:100] Creating Layer rpn_big_conv1_relu
I0413 16:25:49.871496  8862 net.cpp:434] rpn_big_conv1_relu <- rpn_big_conv1
I0413 16:25:49.871523  8862 net.cpp:395] rpn_big_conv1_relu -> rpn_big_conv1 (in-place)
I0413 16:25:49.871551  8862 net.cpp:150] Setting up rpn_big_conv1_relu
I0413 16:25:49.871572  8862 net.cpp:157] Top shape: 1 512 63 94 (3032064)
I0413 16:25:49.871590  8862 net.cpp:165] Memory required for data: 3499986380
I0413 16:25:49.871608  8862 layer_factory.hpp:77] Creating layer rpn_big_conv2
I0413 16:25:49.871632  8862 net.cpp:100] Creating Layer rpn_big_conv2
I0413 16:25:49.871650  8862 net.cpp:434] rpn_big_conv2 <- rpn_big_conv1
I0413 16:25:49.871675  8862 net.cpp:408] rpn_big_conv2 -> rpn_big_conv2
I0413 16:25:49.897605  8862 net.cpp:150] Setting up rpn_big_conv2
I0413 16:25:49.897680  8862 net.cpp:157] Top shape: 1 512 63 94 (3032064)
I0413 16:25:49.897703  8862 net.cpp:165] Memory required for data: 3512114636
I0413 16:25:49.897733  8862 layer_factory.hpp:77] Creating layer rpn_big_conv2_relu
I0413 16:25:49.897764  8862 net.cpp:100] Creating Layer rpn_big_conv2_relu
I0413 16:25:49.897784  8862 net.cpp:434] rpn_big_conv2_relu <- rpn_big_conv2
I0413 16:25:49.897807  8862 net.cpp:395] rpn_big_conv2_relu -> rpn_big_conv2 (in-place)
I0413 16:25:49.897845  8862 net.cpp:150] Setting up rpn_big_conv2_relu
I0413 16:25:49.897868  8862 net.cpp:157] Top shape: 1 512 63 94 (3032064)
I0413 16:25:49.897888  8862 net.cpp:165] Memory required for data: 3524242892
I0413 16:25:49.897909  8862 layer_factory.hpp:77] Creating layer rpn_big_conv2_drop
I0413 16:25:49.897924  8862 net.cpp:100] Creating Layer rpn_big_conv2_drop
I0413 16:25:49.897933  8862 net.cpp:434] rpn_big_conv2_drop <- rpn_big_conv2
I0413 16:25:49.897943  8862 net.cpp:395] rpn_big_conv2_drop -> rpn_big_conv2 (in-place)
I0413 16:25:49.897984  8862 net.cpp:150] Setting up rpn_big_conv2_drop
I0413 16:25:49.898012  8862 net.cpp:157] Top shape: 1 512 63 94 (3032064)
I0413 16:25:49.898020  8862 net.cpp:165] Memory required for data: 3536371148
I0413 16:25:49.898026  8862 layer_factory.hpp:77] Creating layer rpn_big_conv2_rpn_big_conv2_drop_0_split
I0413 16:25:49.898037  8862 net.cpp:100] Creating Layer rpn_big_conv2_rpn_big_conv2_drop_0_split
I0413 16:25:49.898044  8862 net.cpp:434] rpn_big_conv2_rpn_big_conv2_drop_0_split <- rpn_big_conv2
I0413 16:25:49.898058  8862 net.cpp:408] rpn_big_conv2_rpn_big_conv2_drop_0_split -> rpn_big_conv2_rpn_big_conv2_drop_0_split_0
I0413 16:25:49.898077  8862 net.cpp:408] rpn_big_conv2_rpn_big_conv2_drop_0_split -> rpn_big_conv2_rpn_big_conv2_drop_0_split_1
I0413 16:25:49.898123  8862 net.cpp:150] Setting up rpn_big_conv2_rpn_big_conv2_drop_0_split
I0413 16:25:49.898133  8862 net.cpp:157] Top shape: 1 512 63 94 (3032064)
I0413 16:25:49.898141  8862 net.cpp:157] Top shape: 1 512 63 94 (3032064)
I0413 16:25:49.898147  8862 net.cpp:165] Memory required for data: 3560627660
I0413 16:25:49.898154  8862 layer_factory.hpp:77] Creating layer rpn_big_output_cls
I0413 16:25:49.898171  8862 net.cpp:100] Creating Layer rpn_big_output_cls
I0413 16:25:49.898180  8862 net.cpp:434] rpn_big_output_cls <- rpn_big_conv2_rpn_big_conv2_drop_0_split_0
I0413 16:25:49.898193  8862 net.cpp:408] rpn_big_output_cls -> rpn_big_output_cls
I0413 16:25:49.917209  8862 net.cpp:150] Setting up rpn_big_output_cls
I0413 16:25:49.917242  8862 net.cpp:157] Top shape: 1 384 63 94 (2274048)
I0413 16:25:49.917246  8862 net.cpp:165] Memory required for data: 3569723852
I0413 16:25:49.917269  8862 layer_factory.hpp:77] Creating layer rpn_big_output_cls_relu
I0413 16:25:49.917284  8862 net.cpp:100] Creating Layer rpn_big_output_cls_relu
I0413 16:25:49.917295  8862 net.cpp:434] rpn_big_output_cls_relu <- rpn_big_output_cls
I0413 16:25:49.917312  8862 net.cpp:395] rpn_big_output_cls_relu -> rpn_big_output_cls (in-place)
I0413 16:25:49.917330  8862 net.cpp:150] Setting up rpn_big_output_cls_relu
I0413 16:25:49.917340  8862 net.cpp:157] Top shape: 1 384 63 94 (2274048)
I0413 16:25:49.917346  8862 net.cpp:165] Memory required for data: 3578820044
I0413 16:25:49.917353  8862 layer_factory.hpp:77] Creating layer rpn_big_cls_score
I0413 16:25:49.917372  8862 net.cpp:100] Creating Layer rpn_big_cls_score
I0413 16:25:49.917379  8862 net.cpp:434] rpn_big_cls_score <- rpn_big_output_cls
I0413 16:25:49.917393  8862 net.cpp:408] rpn_big_cls_score -> rpn_big_cls_score
I0413 16:25:49.919704  8862 net.cpp:150] Setting up rpn_big_cls_score
I0413 16:25:49.919719  8862 net.cpp:157] Top shape: 1 52 61 92 (291824)
I0413 16:25:49.919725  8862 net.cpp:165] Memory required for data: 3579987340
I0413 16:25:49.919746  8862 layer_factory.hpp:77] Creating layer rpn_big_cls_score_rpn_big_cls_score_0_split
I0413 16:25:49.919759  8862 net.cpp:100] Creating Layer rpn_big_cls_score_rpn_big_cls_score_0_split
I0413 16:25:49.919767  8862 net.cpp:434] rpn_big_cls_score_rpn_big_cls_score_0_split <- rpn_big_cls_score
I0413 16:25:49.919782  8862 net.cpp:408] rpn_big_cls_score_rpn_big_cls_score_0_split -> rpn_big_cls_score_rpn_big_cls_score_0_split_0
I0413 16:25:49.919795  8862 net.cpp:408] rpn_big_cls_score_rpn_big_cls_score_0_split -> rpn_big_cls_score_rpn_big_cls_score_0_split_1
I0413 16:25:49.919841  8862 net.cpp:150] Setting up rpn_big_cls_score_rpn_big_cls_score_0_split
I0413 16:25:49.919850  8862 net.cpp:157] Top shape: 1 52 61 92 (291824)
I0413 16:25:49.919862  8862 net.cpp:157] Top shape: 1 52 61 92 (291824)
I0413 16:25:49.919868  8862 net.cpp:165] Memory required for data: 3582321932
I0413 16:25:49.919873  8862 layer_factory.hpp:77] Creating layer rpn_big_cls_score_reshape
I0413 16:25:49.919888  8862 net.cpp:100] Creating Layer rpn_big_cls_score_reshape
I0413 16:25:49.919894  8862 net.cpp:434] rpn_big_cls_score_reshape <- rpn_big_cls_score_rpn_big_cls_score_0_split_0
I0413 16:25:49.919905  8862 net.cpp:408] rpn_big_cls_score_reshape -> rpn_big_cls_score_reshape
I0413 16:25:49.919936  8862 net.cpp:150] Setting up rpn_big_cls_score_reshape
I0413 16:25:49.919946  8862 net.cpp:157] Top shape: 1 2 1586 92 (291824)
I0413 16:25:49.919955  8862 net.cpp:165] Memory required for data: 3583489228
I0413 16:25:49.919960  8862 layer_factory.hpp:77] Creating layer rpn_big_cls_score_reshape_rpn_big_cls_score_reshape_0_split
I0413 16:25:49.919975  8862 net.cpp:100] Creating Layer rpn_big_cls_score_reshape_rpn_big_cls_score_reshape_0_split
I0413 16:25:49.919982  8862 net.cpp:434] rpn_big_cls_score_reshape_rpn_big_cls_score_reshape_0_split <- rpn_big_cls_score_reshape
I0413 16:25:49.919992  8862 net.cpp:408] rpn_big_cls_score_reshape_rpn_big_cls_score_reshape_0_split -> rpn_big_cls_score_reshape_rpn_big_cls_score_reshape_0_split_0
I0413 16:25:49.920006  8862 net.cpp:408] rpn_big_cls_score_reshape_rpn_big_cls_score_reshape_0_split -> rpn_big_cls_score_reshape_rpn_big_cls_score_reshape_0_split_1
I0413 16:25:49.920044  8862 net.cpp:150] Setting up rpn_big_cls_score_reshape_rpn_big_cls_score_reshape_0_split
I0413 16:25:49.920054  8862 net.cpp:157] Top shape: 1 2 1586 92 (291824)
I0413 16:25:49.920064  8862 net.cpp:157] Top shape: 1 2 1586 92 (291824)
I0413 16:25:49.920071  8862 net.cpp:165] Memory required for data: 3585823820
I0413 16:25:49.920078  8862 layer_factory.hpp:77] Creating layer rpn_big_cls_prob
I0413 16:25:49.920091  8862 net.cpp:100] Creating Layer rpn_big_cls_prob
I0413 16:25:49.920099  8862 net.cpp:434] rpn_big_cls_prob <- rpn_big_cls_score_reshape_rpn_big_cls_score_reshape_0_split_0
I0413 16:25:49.920109  8862 net.cpp:408] rpn_big_cls_prob -> rpn_big_cls_prob
I0413 16:25:49.920166  8862 net.cpp:150] Setting up rpn_big_cls_prob
I0413 16:25:49.920176  8862 net.cpp:157] Top shape: 1 2 1586 92 (291824)
I0413 16:25:49.920181  8862 net.cpp:165] Memory required for data: 3586991116
I0413 16:25:49.920191  8862 layer_factory.hpp:77] Creating layer rpn_big_cls_prob_reshape
I0413 16:25:49.920202  8862 net.cpp:100] Creating Layer rpn_big_cls_prob_reshape
I0413 16:25:49.920209  8862 net.cpp:434] rpn_big_cls_prob_reshape <- rpn_big_cls_prob
I0413 16:25:49.920222  8862 net.cpp:408] rpn_big_cls_prob_reshape -> rpn_big_cls_prob_reshape
I0413 16:25:49.920250  8862 net.cpp:150] Setting up rpn_big_cls_prob_reshape
I0413 16:25:49.920260  8862 net.cpp:157] Top shape: 1 52 61 92 (291824)
I0413 16:25:49.920267  8862 net.cpp:165] Memory required for data: 3588158412
I0413 16:25:49.920274  8862 layer_factory.hpp:77] Creating layer rpn_big_cls_prob_reshape_rpn_big_cls_prob_reshape_0_split
I0413 16:25:49.920285  8862 net.cpp:100] Creating Layer rpn_big_cls_prob_reshape_rpn_big_cls_prob_reshape_0_split
I0413 16:25:49.920295  8862 net.cpp:434] rpn_big_cls_prob_reshape_rpn_big_cls_prob_reshape_0_split <- rpn_big_cls_prob_reshape
I0413 16:25:49.920310  8862 net.cpp:408] rpn_big_cls_prob_reshape_rpn_big_cls_prob_reshape_0_split -> rpn_big_cls_prob_reshape_rpn_big_cls_prob_reshape_0_split_0
I0413 16:25:49.920321  8862 net.cpp:408] rpn_big_cls_prob_reshape_rpn_big_cls_prob_reshape_0_split -> rpn_big_cls_prob_reshape_rpn_big_cls_prob_reshape_0_split_1
I0413 16:25:49.920357  8862 net.cpp:150] Setting up rpn_big_cls_prob_reshape_rpn_big_cls_prob_reshape_0_split
I0413 16:25:49.920367  8862 net.cpp:157] Top shape: 1 52 61 92 (291824)
I0413 16:25:49.920377  8862 net.cpp:157] Top shape: 1 52 61 92 (291824)
I0413 16:25:49.920384  8862 net.cpp:165] Memory required for data: 3590493004
I0413 16:25:49.920390  8862 layer_factory.hpp:77] Creating layer rpn_big_anchor_target
I0413 16:25:49.921712  8862 net.cpp:100] Creating Layer rpn_big_anchor_target
I0413 16:25:49.921727  8862 net.cpp:434] rpn_big_anchor_target <- rpn_big_cls_score_rpn_big_cls_score_0_split_1
I0413 16:25:49.921738  8862 net.cpp:434] rpn_big_anchor_target <- input_gt_boxes
I0413 16:25:49.921746  8862 net.cpp:434] rpn_big_anchor_target <- input_ignored_boxes
I0413 16:25:49.921753  8862 net.cpp:434] rpn_big_anchor_target <- input_im_info_input_1_split_0
I0413 16:25:49.921762  8862 net.cpp:434] rpn_big_anchor_target <- input_data_input_0_split_1
I0413 16:25:49.921773  8862 net.cpp:434] rpn_big_anchor_target <- rpn_big_cls_prob_reshape_rpn_big_cls_prob_reshape_0_split_0
I0413 16:25:49.921787  8862 net.cpp:408] rpn_big_anchor_target -> rpn_big_anchor_target_labels
I0413 16:25:49.921803  8862 net.cpp:408] rpn_big_anchor_target -> rpn_big_anchor_target_bbox_targets
I0413 16:25:49.921818  8862 net.cpp:408] rpn_big_anchor_target -> rpn_big_anchor_target_inside_weights
I0413 16:25:49.921833  8862 net.cpp:408] rpn_big_anchor_target -> rpn_big_anchor_target_outside_weights
I0413 16:25:49.926543  8862 net.cpp:150] Setting up rpn_big_anchor_target
I0413 16:25:49.926574  8862 net.cpp:157] Top shape: 1 1 1586 92 (145912)
I0413 16:25:49.926583  8862 net.cpp:157] Top shape: 1 104 61 92 (583648)
I0413 16:25:49.926590  8862 net.cpp:157] Top shape: 1 104 61 92 (583648)
I0413 16:25:49.926597  8862 net.cpp:157] Top shape: 1 104 61 92 (583648)
I0413 16:25:49.926604  8862 net.cpp:165] Memory required for data: 3598080428
I0413 16:25:49.926622  8862 layer_factory.hpp:77] Creating layer rpn_big_loss_cls
I0413 16:25:49.926641  8862 net.cpp:100] Creating Layer rpn_big_loss_cls
I0413 16:25:49.926651  8862 net.cpp:434] rpn_big_loss_cls <- rpn_big_cls_score_reshape_rpn_big_cls_score_reshape_0_split_1
I0413 16:25:49.926662  8862 net.cpp:434] rpn_big_loss_cls <- rpn_big_anchor_target_labels
I0413 16:25:49.926676  8862 net.cpp:408] rpn_big_loss_cls -> rpn_big_loss_cls
I0413 16:25:49.926695  8862 layer_factory.hpp:77] Creating layer rpn_big_loss_cls
I0413 16:25:49.927314  8862 net.cpp:150] Setting up rpn_big_loss_cls
I0413 16:25:49.927330  8862 net.cpp:157] Top shape: (1)
I0413 16:25:49.927335  8862 net.cpp:160]     with loss weight 1
I0413 16:25:49.927352  8862 net.cpp:165] Memory required for data: 3598080432
I0413 16:25:49.927359  8862 layer_factory.hpp:77] Creating layer rpn_big_output_box
I0413 16:25:49.927381  8862 net.cpp:100] Creating Layer rpn_big_output_box
I0413 16:25:49.927388  8862 net.cpp:434] rpn_big_output_box <- rpn_big_conv2_rpn_big_conv2_drop_0_split_1
I0413 16:25:49.927402  8862 net.cpp:408] rpn_big_output_box -> rpn_big_output_box
I0413 16:25:49.946632  8862 net.cpp:150] Setting up rpn_big_output_box
I0413 16:25:49.946667  8862 net.cpp:157] Top shape: 1 384 63 94 (2274048)
I0413 16:25:49.946673  8862 net.cpp:165] Memory required for data: 3607176624
I0413 16:25:49.946688  8862 layer_factory.hpp:77] Creating layer rpn_big_output_box_relu
I0413 16:25:49.946703  8862 net.cpp:100] Creating Layer rpn_big_output_box_relu
I0413 16:25:49.946714  8862 net.cpp:434] rpn_big_output_box_relu <- rpn_big_output_box
I0413 16:25:49.946727  8862 net.cpp:395] rpn_big_output_box_relu -> rpn_big_output_box (in-place)
I0413 16:25:49.946745  8862 net.cpp:150] Setting up rpn_big_output_box_relu
I0413 16:25:49.946755  8862 net.cpp:157] Top shape: 1 384 63 94 (2274048)
I0413 16:25:49.946761  8862 net.cpp:165] Memory required for data: 3616272816
I0413 16:25:49.946768  8862 layer_factory.hpp:77] Creating layer rpn_big_bbox_pred
I0413 16:25:49.946789  8862 net.cpp:100] Creating Layer rpn_big_bbox_pred
I0413 16:25:49.946797  8862 net.cpp:434] rpn_big_bbox_pred <- rpn_big_output_box
I0413 16:25:49.946810  8862 net.cpp:408] rpn_big_bbox_pred -> rpn_big_bbox_pred
I0413 16:25:49.951036  8862 net.cpp:150] Setting up rpn_big_bbox_pred
I0413 16:25:49.951062  8862 net.cpp:157] Top shape: 1 104 61 92 (583648)
I0413 16:25:49.951068  8862 net.cpp:165] Memory required for data: 3618607408
I0413 16:25:49.951082  8862 layer_factory.hpp:77] Creating layer rpn_big_bbox_pred_rpn_big_bbox_pred_0_split
I0413 16:25:49.951104  8862 net.cpp:100] Creating Layer rpn_big_bbox_pred_rpn_big_bbox_pred_0_split
I0413 16:25:49.951114  8862 net.cpp:434] rpn_big_bbox_pred_rpn_big_bbox_pred_0_split <- rpn_big_bbox_pred
I0413 16:25:49.951128  8862 net.cpp:408] rpn_big_bbox_pred_rpn_big_bbox_pred_0_split -> rpn_big_bbox_pred_rpn_big_bbox_pred_0_split_0
I0413 16:25:49.951143  8862 net.cpp:408] rpn_big_bbox_pred_rpn_big_bbox_pred_0_split -> rpn_big_bbox_pred_rpn_big_bbox_pred_0_split_1
I0413 16:25:49.951189  8862 net.cpp:150] Setting up rpn_big_bbox_pred_rpn_big_bbox_pred_0_split
I0413 16:25:49.951200  8862 net.cpp:157] Top shape: 1 104 61 92 (583648)
I0413 16:25:49.951207  8862 net.cpp:157] Top shape: 1 104 61 92 (583648)
I0413 16:25:49.951215  8862 net.cpp:165] Memory required for data: 3623276592
I0413 16:25:49.951221  8862 layer_factory.hpp:77] Creating layer rpn_big_loss_bbox
I0413 16:25:49.951575  8862 net.cpp:100] Creating Layer rpn_big_loss_bbox
I0413 16:25:49.951586  8862 net.cpp:434] rpn_big_loss_bbox <- rpn_big_bbox_pred_rpn_big_bbox_pred_0_split_0
I0413 16:25:49.951594  8862 net.cpp:434] rpn_big_loss_bbox <- rpn_big_anchor_target_bbox_targets
I0413 16:25:49.951603  8862 net.cpp:434] rpn_big_loss_bbox <- rpn_big_anchor_target_inside_weights
I0413 16:25:49.951612  8862 net.cpp:434] rpn_big_loss_bbox <- rpn_big_anchor_target_outside_weights
I0413 16:25:49.951625  8862 net.cpp:408] rpn_big_loss_bbox -> rpn_big_loss_bbox
I0413 16:25:49.954556  8862 net.cpp:150] Setting up rpn_big_loss_bbox
I0413 16:25:49.954593  8862 net.cpp:157] Top shape: 1 (1)
I0413 16:25:49.954598  8862 net.cpp:160]     with loss weight 1
I0413 16:25:49.954622  8862 net.cpp:165] Memory required for data: 3623276596
I0413 16:25:49.954632  8862 layer_factory.hpp:77] Creating layer proposal
I0413 16:25:49.955049  8862 net.cpp:100] Creating Layer proposal
I0413 16:25:49.955061  8862 net.cpp:434] proposal <- rpn_big_cls_prob_reshape_rpn_big_cls_prob_reshape_0_split_1
I0413 16:25:49.955073  8862 net.cpp:434] proposal <- rpn_big_bbox_pred_rpn_big_bbox_pred_0_split_1
…
