…
I0406 15:35:36.022847  7153 solver.cpp:48] Initializing solver from parameters: 
base_lr: 0.001
display: 20
lr_policy: "multistep"
gamma: 0.1
momentum: 0.9
weight_decay: 0.0005
snapshot: 0
snapshot_prefix: "faces_example"
net_param {
  name: "GeneratedModel_06_04_2017_15_35"
  layer {
    name: "input"
    type: "Python"
    top: "input_data"
    top: "input_im_info"
    top: "input_gt_boxes"
    top: "input_ignored_boxes"
    python_param {
      module: "layers.roi_data_layer"
      layer: "RoIDataLayer"
      param_str: "{\"num_classes\": 2}"
    }
  }
  layer {
    name: "conv1_1"
    type: "Convolution"
    bottom: "input_data"
    top: "conv1_1"
    param {
      lr_mult: 0
      decay_mult: 0
    }
    param {
      lr_mult: 0
      decay_mult: 0
    }
    convolution_param {
      num_output: 64
      pad: 1
      kernel_size: 3
    }
  }
  layer {
    name: "relu1_1"
    type: "ReLU"
    bottom: "conv1_1"
    top: "conv1_1"
  }
  layer {
    name: "conv1_2"
    type: "Convolution"
    bottom: "conv1_1"
    top: "conv1_2"
    param {
      lr_mult: 0
      decay_mult: 0
    }
    param {
      lr_mult: 0
      decay_mult: 0
    }
    convolution_param {
      num_output: 64
      pad: 1
      kernel_size: 3
    }
  }
  layer {
    name: "relu1_2"
    type: "ReLU"
    bottom: "conv1_2"
    top: "conv1_2"
  }
  layer {
    name: "pool1"
    type: "Pooling"
    bottom: "conv1_2"
    top: "pool1"
    pooling_param {
      pool: MAX
      kernel_size: 2
      stride: 2
    }
  }
  layer {
    name: "conv2_1"
    type: "Convolution"
    bottom: "pool1"
    top: "conv2_1"
    param {
      lr_mult: 0
      decay_mult: 0
    }
    param {
      lr_mult: 0
      decay_mult: 0
    }
    convolution_param {
      num_output: 128
      pad: 1
      kernel_size: 3
    }
  }
  layer {
    name: "relu2_1"
    type: "ReLU"
    bottom: "conv2_1"
    top: "conv2_1"
  }
  layer {
    name: "conv2_2"
    type: "Convolution"
    bottom: "conv2_1"
    top: "conv2_2"
    param {
      lr_mult: 0
      decay_mult: 0
    }
    param {
      lr_mult: 0
      decay_mult: 0
    }
    convolution_param {
      num_output: 128
      pad: 1
      kernel_size: 3
    }
  }
  layer {
    name: "relu2_2"
    type: "ReLU"
    bottom: "conv2_2"
    top: "conv2_2"
  }
  layer {
    name: "pool2"
    type: "Pooling"
    bottom: "conv2_2"
    top: "pool2"
    pooling_param {
      pool: MAX
      kernel_size: 2
      stride: 2
    }
  }
  layer {
    name: "conv3_1"
    type: "Convolution"
    bottom: "pool2"
    top: "conv3_1"
    param {
      lr_mult: 1
    }
    param {
      lr_mult: 2
    }
    convolution_param {
      num_output: 256
      pad: 1
      kernel_size: 3
    }
  }
  layer {
    name: "relu3_1"
    type: "ReLU"
    bottom: "conv3_1"
    top: "conv3_1"
  }
  layer {
    name: "conv3_2"
    type: "Convolution"
    bottom: "conv3_1"
    top: "conv3_2"
    param {
      lr_mult: 1
    }
    param {
      lr_mult: 2
    }
    convolution_param {
      num_output: 256
      pad: 1
      kernel_size: 3
    }
  }
  layer {
    name: "relu3_2"
    type: "ReLU"
    bottom: "conv3_2"
    top: "conv3_2"
  }
  layer {
    name: "conv3_3"
    type: "Convolution"
    bottom: "conv3_2"
    top: "conv3_3"
    param {
      lr_mult: 1
    }
    param {
      lr_mult: 2
    }
    convolution_param {
      num_output: 256
      pad: 1
      kernel_size: 3
    }
  }
  layer {
    name: "relu3_3"
    type: "ReLU"
    bottom: "conv3_3"
    top: "conv3_3"
  }
  layer {
    name: "pool3"
    type: "Pooling"
    bottom: "conv3_3"
    top: "pool3"
    pooling_param {
      pool: MAX
      kernel_size: 2
      stride: 2
    }
  }
  layer {
    name: "conv4_1"
    type: "Convolution"
    bottom: "pool3"
    top: "conv4_1"
    param {
      lr_mult: 1
    }
    param {
      lr_mult: 2
    }
    convolution_param {
      num_output: 512
      pad: 1
      kernel_size: 3
    }
  }
  layer {
    name: "relu4_1"
    type: "ReLU"
    bottom: "conv4_1"
    top: "conv4_1"
  }
  layer {
    name: "conv4_2"
    type: "Convolution"
    bottom: "conv4_1"
    top: "conv4_2"
    param {
      lr_mult: 1
    }
    param {
      lr_mult: 2
    }
    convolution_param {
      num_output: 512
      pad: 1
      kernel_size: 3
    }
  }
  layer {
    name: "relu4_2"
    type: "ReLU"
    bottom: "conv4_2"
    top: "conv4_2"
  }
  layer {
    name: "conv4_3"
    type: "Convolution"
    bottom: "conv4_2"
    top: "conv4_3"
    param {
      lr_mult: 1
    }
    param {
      lr_mult: 2
    }
    convolution_param {
      num_output: 512
      pad: 1
      kernel_size: 3
    }
  }
  layer {
    name: "relu4_3"
    type: "ReLU"
    bottom: "conv4_3"
    top: "conv4_3"
  }
  layer {
    name: "pool4"
    type: "Pooling"
    bottom: "conv4_3"
    top: "pool4"
    pooling_param {
      pool: MAX
      kernel_size: 2
      stride: 2
    }
  }
  layer {
    name: "conv5_1"
    type: "Convolution"
    bottom: "pool4"
    top: "conv5_1"
    param {
      lr_mult: 1
    }
    param {
      lr_mult: 2
    }
    convolution_param {
      num_output: 512
      pad: 1
      kernel_size: 3
    }
  }
  layer {
    name: "relu5_1"
    type: "ReLU"
    bottom: "conv5_1"
    top: "conv5_1"
  }
  layer {
    name: "conv5_2"
    type: "Convolution"
    bottom: "conv5_1"
    top: "conv5_2"
    param {
      lr_mult: 1
    }
    param {
      lr_mult: 2
    }
    convolution_param {
      num_output: 512
      pad: 1
      kernel_size: 3
    }
  }
  layer {
    name: "relu5_2"
    type: "ReLU"
    bottom: "conv5_2"
    top: "conv5_2"
  }
  layer {
    name: "conv5_3"
    type: "Convolution"
    bottom: "conv5_2"
    top: "conv5_3"
    param {
      lr_mult: 1
    }
    param {
      lr_mult: 2
    }
    convolution_param {
      num_output: 512
      pad: 1
      kernel_size: 3
    }
  }
  layer {
    name: "relu5_3"
    type: "ReLU"
    bottom: "conv5_3"
    top: "conv5_3"
  }
  layer {
    name: "rpn_big_conv1"
    type: "Convolution"
    bottom: "conv5_3"
    top: "rpn_big_conv1"
    param {
      lr_mult: 1
    }
    param {
      lr_mult: 2
    }
    convolution_param {
      num_output: 512
      pad: 1
      kernel_size: 3
      stride: 1
      weight_filler {
        type: "gaussian"
        mean: 0
        std: 0.01
      }
      bias_filler {
        type: "constant"
      }
    }
  }
  layer {
    name: "rpn_big_conv1_relu"
    type: "ReLU"
    bottom: "rpn_big_conv1"
    top: "rpn_big_conv1"
    relu_param {
      negative_slope: 0
    }
  }
  layer {
    name: "rpn_big_conv2"
    type: "Convolution"
    bottom: "rpn_big_conv1"
    top: "rpn_big_conv2"
    param {
      lr_mult: 1
    }
    param {
      lr_mult: 2
    }
    convolution_param {
      num_output: 512
      pad: 1
      kernel_size: 3
      stride: 1
      weight_filler {
        type: "gaussian"
        mean: 0
        std: 0.01
      }
      bias_filler {
        type: "constant"
      }
    }
  }
  layer {
    name: "rpn_big_conv2_relu"
    type: "ReLU"
    bottom: "rpn_big_conv2"
    top: "rpn_big_conv2"
    relu_param {
      negative_slope: 0
    }
  }
  layer {
    name: "rpn_big_conv2_drop"
    type: "Dropout"
    bottom: "rpn_big_conv2"
    top: "rpn_big_conv2"
    dropout_param {
      dropout_ratio: 0.3
    }
  }
  layer {
    name: "rpn_big_output_cls"
    type: "Convolution"
    bottom: "rpn_big_conv2"
    top: "rpn_big_output_cls"
    param {
      lr_mult: 1
    }
    param {
      lr_mult: 2
    }
    convolution_param {
      num_output: 384
      pad: 1
      kernel_size: 3
      stride: 1
      weight_filler {
        type: "gaussian"
        mean: 0
        std: 0.01
      }
      bias_filler {
        type: "constant"
      }
    }
  }
  layer {
    name: "rpn_big_output_cls_relu"
    type: "ReLU"
    bottom: "rpn_big_output_cls"
    top: "rpn_big_output_cls"
    relu_param {
      negative_slope: 0
    }
  }
  layer {
    name: "rpn_big_cls_score"
    type: "Convolution"
    bottom: "rpn_big_output_cls"
    top: "rpn_big_cls_score"
    param {
      lr_mult: 1
    }
    param {
      lr_mult: 2
    }
    convolution_param {
      num_output: 52
      pad: 0
      kernel_size: 3
      stride: 1
      weight_filler {
        type: "gaussian"
        mean: 0
        std: 0.01
      }
      bias_filler {
        type: "constant"
      }
    }
  }
  layer {
    name: "rpn_big_cls_score_reshape"
    type: "Reshape"
    bottom: "rpn_big_cls_score"
    top: "rpn_big_cls_score_reshape"
    reshape_param {
      shape {
        dim: 0
        dim: 2
        dim: -1
        dim: 0
      }
    }
  }
  layer {
    name: "rpn_big_cls_prob"
    type: "Softmax"
    bottom: "rpn_big_cls_score_reshape"
    top: "rpn_big_cls_prob"
  }
  layer {
    name: "rpn_big_cls_prob_reshape"
    type: "Reshape"
    bottom: "rpn_big_cls_prob"
    top: "rpn_big_cls_prob_reshape"
    reshape_param {
      shape {
        dim: 0
        dim: 52
        dim: -1
        dim: 0
      }
    }
  }
  layer {
    name: "rpn_big_anchor_target"
    type: "Python"
    bottom: "rpn_big_cls_score"
    bottom: "input_gt_boxes"
    bottom: "input_ignored_boxes"
    bottom: "input_im_info"
    bottom: "input_data"
    bottom: "rpn_big_cls_prob_reshape"
    top: "rpn_big_anchor_target_labels"
    top: "rpn_big_anchor_target_bbox_targets"
    top: "rpn_big_anchor_target_inside_weights"
    top: "rpn_big_anchor_target_outside_weights"
    python_param {
      module: "rpn.anchor_target_layer"
      layer: "AnchorTargetLayer"
      param_str: "{\"anchor_shift_num_xy\": [[2, 2], [2, 2], [2, 2], [2, 2], [1, 1], [1, 1], [1, 1], [1, 1], [1, 1], [1, 1], [1, 1], [1, 1], [1, 1], [1, 1]], \"anchor_scales\": [2.5, 3.025, 3.66025, 4.4289024999999995, 5.358972025, 6.484356150249999, 7.846070941802498, 9.493745839581022, 11.487432465893036, 13.899793283730574, 16.818749873313998, 20.350687346709933, 24.62433168951902, 29.795441344318014], \"positive_overlap\": 0.6, \"negative_overlap\": 0.4, \"batchsize\": 256, \"num_classes\": 1, \"square_targets\": true, \"anchor_ratios\": [1.0], \"fg_fraction\": 0.5, \"name\": \"rpn_big\", \"feat_stride\": 16, \"tn_fraction\": 0.2}"
    }
  }
  layer {
    name: "rpn_big_loss_cls"
    type: "SoftmaxWithLoss"
    bottom: "rpn_big_cls_score_reshape"
    bottom: "rpn_big_anchor_target_labels"
    top: "rpn_big_loss_cls"
    loss_weight: 1
    propagate_down: true
    propagate_down: false
    loss_param {
      ignore_label: -1
      normalization: VALID
    }
  }
  layer {
    name: "rpn_big_output_box"
    type: "Convolution"
    bottom: "rpn_big_conv2"
    top: "rpn_big_output_box"
    param {
      lr_mult: 1
    }
    param {
      lr_mult: 2
    }
    convolution_param {
      num_output: 384
      pad: 1
      kernel_size: 3
      stride: 1
      weight_filler {
        type: "gaussian"
        mean: 0
        std: 0.01
      }
      bias_filler {
        type: "constant"
      }
    }
  }
  layer {
    name: "rpn_big_output_box_relu"
    type: "ReLU"
    bottom: "rpn_big_output_box"
    top: "rpn_big_output_box"
    relu_param {
      negative_slope: 0
    }
  }
  layer {
    name: "rpn_big_bbox_pred"
    type: "Convolution"
    bottom: "rpn_big_output_box"
    top: "rpn_big_bbox_pred"
    param {
      lr_mult: 1
    }
    param {
      lr_mult: 2
    }
    convolution_param {
      num_output: 104
      pad: 0
      kernel_size: 3
      stride: 1
      weight_filler {
        type: "gaussian"
        mean: 0
        std: 0.01
      }
      bias_filler {
        type: "constant"
      }
    }
  }
  layer {
    name: "rpn_big_loss_bbox"
    type: "Python"
    bottom: "rpn_big_bbox_pred"
    bottom: "rpn_big_anchor_target_bbox_targets"
    bottom: "rpn_big_anchor_target_inside_weights"
    bottom: "rpn_big_anchor_target_outside_weights"
    top: "rpn_big_loss_bbox"
    loss_weight: 1
    python_param {
      module: "layers.smooth_l1_loss"
      layer: "SmoothL1LossLayer"
      param_str: "{\"sigma\": 3}"
    }
  }
}
average_loss: 100
stepvalue: 70000
stepvalue: 120000
iter_size: 2
I0406 15:35:36.022920  7153 solver.cpp:86] Creating training net specified in net_param.
I0406 15:35:36.023268  7153 net.cpp:49] Initializing net from parameters: 
name: "GeneratedModel_06_04_2017_15_35"
state {
  phase: TRAIN
}
layer {
  name: "input"
  type: "Python"
  top: "input_data"
  top: "input_im_info"
  top: "input_gt_boxes"
  top: "input_ignored_boxes"
  python_param {
    module: "layers.roi_data_layer"
    layer: "RoIDataLayer"
    param_str: "{\"num_classes\": 2}"
  }
}
layer {
  name: "conv1_1"
  type: "Convolution"
  bottom: "input_data"
  top: "conv1_1"
  param {
    lr_mult: 0
    decay_mult: 0
  }
  param {
    lr_mult: 0
    decay_mult: 0
  }
  convolution_param {
    num_output: 64
    pad: 1
    kernel_size: 3
  }
}
layer {
  name: "relu1_1"
  type: "ReLU"
  bottom: "conv1_1"
  top: "conv1_1"
}
layer {
  name: "conv1_2"
  type: "Convolution"
  bottom: "conv1_1"
  top: "conv1_2"
  param {
    lr_mult: 0
    decay_mult: 0
  }
  param {
    lr_mult: 0
    decay_mult: 0
  }
  convolution_param {
    num_output: 64
    pad: 1
    kernel_size: 3
  }
}
layer {
  name: "relu1_2"
  type: "ReLU"
  bottom: "conv1_2"
  top: "conv1_2"
}
layer {
  name: "pool1"
  type: "Pooling"
  bottom: "conv1_2"
  top: "pool1"
  pooling_param {
    pool: MAX
    kernel_size: 2
    stride: 2
  }
}
layer {
  name: "conv2_1"
  type: "Convolution"
  bottom: "pool1"
  top: "conv2_1"
  param {
    lr_mult: 0
    decay_mult: 0
  }
  param {
    lr_mult: 0
    decay_mult: 0
  }
  convolution_param {
    num_output: 128
    pad: 1
    kernel_size: 3
  }
}
layer {
  name: "relu2_1"
  type: "ReLU"
  bottom: "conv2_1"
  top: "conv2_1"
}
layer {
  name: "conv2_2"
  type: "Convolution"
  bottom: "conv2_1"
  top: "conv2_2"
  param {
    lr_mult: 0
    decay_mult: 0
  }
  param {
    lr_mult: 0
    decay_mult: 0
  }
  convolution_param {
    num_output: 128
    pad: 1
    kernel_size: 3
  }
}
layer {
  name: "relu2_2"
  type: "ReLU"
  bottom: "conv2_2"
  top: "conv2_2"
}
layer {
  name: "pool2"
  type: "Pooling"
  bottom: "conv2_2"
  top: "pool2"
  pooling_param {
    pool: MAX
    kernel_size: 2
    stride: 2
  }
}
layer {
  name: "conv3_1"
  type: "Convolution"
  bottom: "pool2"
  top: "conv3_1"
  param {
    lr_mult: 1
  }
  param {
    lr_mult: 2
  }
  convolution_param {
    num_output: 256
    pad: 1
    kernel_size: 3
  }
}
layer {
  name: "relu3_1"
  type: "ReLU"
  bottom: "conv3_1"
  top: "conv3_1"
}
layer {
  name: "conv3_2"
  type: "Convolution"
  bottom: "conv3_1"
  top: "conv3_2"
  param {
    lr_mult: 1
  }
  param {
    lr_mult: 2
  }
  convolution_param {
    num_output: 256
    pad: 1
    kernel_size: 3
  }
}
layer {
  name: "relu3_2"
  type: "ReLU"
  bottom: "conv3_2"
  top: "conv3_2"
}
layer {
  name: "conv3_3"
  type: "Convolution"
  bottom: "conv3_2"
  top: "conv3_3"
  param {
    lr_mult: 1
  }
  param {
    lr_mult: 2
  }
  convolution_param {
    num_output: 256
    pad: 1
    kernel_size: 3
  }
}
layer {
  name: "relu3_3"
  type: "ReLU"
  bottom: "conv3_3"
  top: "conv3_3"
}
layer {
  name: "pool3"
  type: "Pooling"
  bottom: "conv3_3"
  top: "pool3"
  pooling_param {
    pool: MAX
    kernel_size: 2
    stride: 2
  }
}
layer {
  name: "conv4_1"
  type: "Convolution"
  bottom: "pool3"
  top: "conv4_1"
  param {
    lr_mult: 1
  }
  param {
    lr_mult: 2
  }
  convolution_param {
    num_output: 512
    pad: 1
    kernel_size: 3
  }
}
layer {
  name: "relu4_1"
  type: "ReLU"
  bottom: "conv4_1"
  top: "conv4_1"
}
layer {
  name: "conv4_2"
  type: "Convolution"
  bottom: "conv4_1"
  top: "conv4_2"
  param {
    lr_mult: 1
  }
  param {
    lr_mult: 2
  }
  convolution_param {
    num_output: 512
    pad: 1
    kernel_size: 3
  }
}
layer {
  name: "relu4_2"
  type: "ReLU"
  bottom: "conv4_2"
  top: "conv4_2"
}
layer {
  name: "conv4_3"
  type: "Convolution"
  bottom: "conv4_2"
  top: "conv4_3"
  param {
    lr_mult: 1
  }
  param {
    lr_mult: 2
  }
  convolution_param {
    num_output: 512
    pad: 1
    kernel_size: 3
  }
}
layer {
  name: "relu4_3"
  type: "ReLU"
  bottom: "conv4_3"
  top: "conv4_3"
}
layer {
  name: "pool4"
  type: "Pooling"
  bottom: "conv4_3"
  top: "pool4"
  pooling_param {
    pool: MAX
    kernel_size: 2
    stride: 2
  }
}
layer {
  name: "conv5_1"
  type: "Convolution"
  bottom: "pool4"
  top: "conv5_1"
  param {
    lr_mult: 1
  }
  param {
    lr_mult: 2
  }
  convolution_param {
    num_output: 512
    pad: 1
    kernel_size: 3
  }
}
layer {
  name: "relu5_1"
  type: "ReLU"
  bottom: "conv5_1"
  top: "conv5_1"
}
layer {
  name: "conv5_2"
  type: "Convolution"
  bottom: "conv5_1"
  top: "conv5_2"
  param {
    lr_mult: 1
  }
  param {
    lr_mult: 2
  }
  convolution_param {
    num_output: 512
    pad: 1
    kernel_size: 3
  }
}
layer {
  name: "relu5_2"
  type: "ReLU"
  bottom: "conv5_2"
  top: "conv5_2"
}
layer {
  name: "conv5_3"
  type: "Convolution"
  bottom: "conv5_2"
  top: "conv5_3"
  param {
    lr_mult: 1
  }
  param {
    lr_mult: 2
  }
  convolution_param {
    num_output: 512
    pad: 1
    kernel_size: 3
  }
}
layer {
  name: "relu5_3"
  type: "ReLU"
  bottom: "conv5_3"
  top: "conv5_3"
}
layer {
  name: "rpn_big_conv1"
  type: "Convolution"
  bottom: "conv5_3"
  top: "rpn_big_conv1"
  param {
    lr_mult: 1
  }
  param {
    lr_mult: 2
  }
  convolution_param {
    num_output: 512
    pad: 1
    kernel_size: 3
    stride: 1
    weight_filler {
      type: "gaussian"
      mean: 0
      std: 0.01
    }
    bias_filler {
      type: "constant"
    }
  }
}
layer {
  name: "rpn_big_conv1_relu"
  type: "ReLU"
  bottom: "rpn_big_conv1"
  top: "rpn_big_conv1"
  relu_param {
    negative_slope: 0
  }
}
layer {
  name: "rpn_big_conv2"
  type: "Convolution"
  bottom: "rpn_big_conv1"
  top: "rpn_big_conv2"
  param {
    lr_mult: 1
  }
  param {
    lr_mult: 2
  }
  convolution_param {
    num_output: 512
    pad: 1
    kernel_size: 3
    stride: 1
    weight_filler {
      type: "gaussian"
      mean: 0
      std: 0.01
    }
    bias_filler {
      type: "constant"
    }
  }
}
layer {
  name: "rpn_big_conv2_relu"
  type: "ReLU"
  bottom: "rpn_big_conv2"
  top: "rpn_big_conv2"
  relu_param {
    negative_slope: 0
  }
}
layer {
  name: "rpn_big_conv2_drop"
  type: "Dropout"
  bottom: "rpn_big_conv2"
  top: "rpn_big_conv2"
  dropout_param {
    dropout_ratio: 0.3
  }
}
layer {
  name: "rpn_big_output_cls"
  type: "Convolution"
  bottom: "rpn_big_conv2"
  top: "rpn_big_output_cls"
  param {
    lr_mult: 1
  }
  param {
    lr_mult: 2
  }
  convolution_param {
    num_output: 384
    pad: 1
    kernel_size: 3
    stride: 1
    weight_filler {
      type: "gaussian"
      mean: 0
      std: 0.01
    }
    bias_filler {
      type: "constant"
    }
  }
}
layer {
  name: "rpn_big_output_cls_relu"
  type: "ReLU"
  bottom: "rpn_big_output_cls"
  top: "rpn_big_output_cls"
  relu_param {
    negative_slope: 0
  }
}
layer {
  name: "rpn_big_cls_score"
  type: "Convolution"
  bottom: "rpn_big_output_cls"
  top: "rpn_big_cls_score"
  param {
    lr_mult: 1
  }
  param {
    lr_mult: 2
  }
  convolution_param {
    num_output: 52
    pad: 0
    kernel_size: 3
    stride: 1
    weight_filler {
      type: "gaussian"
      mean: 0
      std: 0.01
    }
    bias_filler {
      type: "constant"
    }
  }
}
layer {
  name: "rpn_big_cls_score_reshape"
  type: "Reshape"
  bottom: "rpn_big_cls_score"
  top: "rpn_big_cls_score_reshape"
  reshape_param {
    shape {
      dim: 0
      dim: 2
      dim: -1
      dim: 0
    }
  }
}
layer {
  name: "rpn_big_cls_prob"
  type: "Softmax"
  bottom: "rpn_big_cls_score_reshape"
  top: "rpn_big_cls_prob"
}
layer {
  name: "rpn_big_cls_prob_reshape"
  type: "Reshape"
  bottom: "rpn_big_cls_prob"
  top: "rpn_big_cls_prob_reshape"
  reshape_param {
    shape {
      dim: 0
      dim: 52
      dim: -1
      dim: 0
    }
  }
}
layer {
  name: "rpn_big_anchor_target"
  type: "Python"
  bottom: "rpn_big_cls_score"
  bottom: "input_gt_boxes"
  bottom: "input_ignored_boxes"
  bottom: "input_im_info"
  bottom: "input_data"
  bottom: "rpn_big_cls_prob_reshape"
  top: "rpn_big_anchor_target_labels"
  top: "rpn_big_anchor_target_bbox_targets"
  top: "rpn_big_anchor_target_inside_weights"
  top: "rpn_big_anchor_target_outside_weights"
  python_param {
    module: "rpn.anchor_target_layer"
    layer: "AnchorTargetLayer"
    param_str: "{\"anchor_shift_num_xy\": [[2, 2], [2, 2], [2, 2], [2, 2], [1, 1], [1, 1], [1, 1], [1, 1], [1, 1], [1, 1], [1, 1], [1, 1], [1, 1], [1, 1]], \"anchor_scales\": [2.5, 3.025, 3.66025, 4.4289024999999995, 5.358972025, 6.484356150249999, 7.846070941802498, 9.493745839581022, 11.487432465893036, 13.899793283730574, 16.818749873313998, 20.350687346709933, 24.62433168951902, 29.795441344318014], \"positive_overlap\": 0.6, \"negative_overlap\": 0.4, \"batchsize\": 256, \"num_classes\": 1, \"square_targets\": true, \"anchor_ratios\": [1.0], \"fg_fraction\": 0.5, \"name\": \"rpn_big\", \"feat_stride\": 16, \"tn_fraction\": 0.2}"
  }
}
layer {
  name: "rpn_big_loss_cls"
  type: "SoftmaxWithLoss"
  bottom: "rpn_big_cls_score_reshape"
  bottom: "rpn_big_anchor_target_labels"
  top: "rpn_big_loss_cls"
  loss_weight: 1
  propagate_down: true
  propagate_down: false
  loss_param {
    ignore_label: -1
    normalization: VALID
  }
}
layer {
  name: "rpn_big_output_box"
  type: "Convolution"
  bottom: "rpn_big_conv2"
  top: "rpn_big_output_box"
  param {
    lr_mult: 1
  }
  param {
    lr_mult: 2
  }
  convolution_param {
    num_output: 384
    pad: 1
    kernel_size: 3
    stride: 1
    weight_filler {
      type: "gaussian"
      mean: 0
      std: 0.01
    }
    bias_filler {
      type: "constant"
    }
  }
}
layer {
  name: "rpn_big_output_box_relu"
  type: "ReLU"
  bottom: "rpn_big_output_box"
  top: "rpn_big_output_box"
  relu_param {
    negative_slope: 0
  }
}
layer {
  name: "rpn_big_bbox_pred"
  type: "Convolution"
  bottom: "rpn_big_output_box"
  top: "rpn_big_bbox_pred"
  param {
    lr_mult: 1
  }
  param {
    lr_mult: 2
  }
  convolution_param {
    num_output: 104
    pad: 0
    kernel_size: 3
    stride: 1
    weight_filler {
      type: "gaussian"
      mean: 0
      std: 0.01
    }
    bias_filler {
      type: "constant"
    }
  }
}
layer {
  name: "rpn_big_loss_bbox"
  type: "Python"
  bottom: "rpn_big_bbox_pred"
  bottom: "rpn_big_anchor_target_bbox_targets"
  bottom: "rpn_big_anchor_target_inside_weights"
  bottom: "rpn_big_anchor_target_outside_weights"
  top: "rpn_big_loss_bbox"
  loss_weight: 1
  python_param {
    module: "layers.smooth_l1_loss"
    layer: "SmoothL1LossLayer"
    param_str: "{\"sigma\": 3}"
  }
}
I0406 15:35:36.023425  7153 layer_factory.hpp:77] Creating layer input
I0406 15:35:36.024705  7153 net.cpp:106] Creating Layer input
I0406 15:35:36.024726  7153 net.cpp:411] input -> input_data
I0406 15:35:36.024739  7153 net.cpp:411] input -> input_im_info
I0406 15:35:36.024745  7153 net.cpp:411] input -> input_gt_boxes
I0406 15:35:36.024752  7153 net.cpp:411] input -> input_ignored_boxes
RoiDataLayer: name_to_top: {'im_info': 1, 'ignored_boxes': 3, 'data': 0, 'gt_boxes': 2}
I0406 15:35:36.328974  7153 net.cpp:150] Setting up input
I0406 15:35:36.328997  7153 net.cpp:157] Top shape: 1 3 1000 1500 (4500000)
I0406 15:35:36.329002  7153 net.cpp:157] Top shape: 1 3 (3)
I0406 15:35:36.329006  7153 net.cpp:157] Top shape: 1 5 (5)
I0406 15:35:36.329010  7153 net.cpp:157] Top shape: 1 5 (5)
I0406 15:35:36.329013  7153 net.cpp:165] Memory required for data: 18000052
I0406 15:35:36.329020  7153 layer_factory.hpp:77] Creating layer input_data_input_0_split
I0406 15:35:36.329033  7153 net.cpp:106] Creating Layer input_data_input_0_split
I0406 15:35:36.329038  7153 net.cpp:454] input_data_input_0_split <- input_data
I0406 15:35:36.329047  7153 net.cpp:411] input_data_input_0_split -> input_data_input_0_split_0
I0406 15:35:36.329059  7153 net.cpp:411] input_data_input_0_split -> input_data_input_0_split_1
I0406 15:35:36.329092  7153 net.cpp:150] Setting up input_data_input_0_split
I0406 15:35:36.329097  7153 net.cpp:157] Top shape: 1 3 1000 1500 (4500000)
I0406 15:35:36.329102  7153 net.cpp:157] Top shape: 1 3 1000 1500 (4500000)
I0406 15:35:36.329104  7153 net.cpp:165] Memory required for data: 54000052
I0406 15:35:36.329107  7153 layer_factory.hpp:77] Creating layer conv1_1
I0406 15:35:36.329119  7153 net.cpp:106] Creating Layer conv1_1
I0406 15:35:36.329124  7153 net.cpp:454] conv1_1 <- input_data_input_0_split_0
I0406 15:35:36.329130  7153 net.cpp:411] conv1_1 -> conv1_1
I0406 15:35:36.332130  7153 net.cpp:150] Setting up conv1_1
I0406 15:35:36.332166  7153 net.cpp:157] Top shape: 1 64 1000 1500 (96000000)
I0406 15:35:36.332180  7153 net.cpp:165] Memory required for data: 438000052
I0406 15:35:36.332198  7153 layer_factory.hpp:77] Creating layer relu1_1
I0406 15:35:36.332211  7153 net.cpp:106] Creating Layer relu1_1
I0406 15:35:36.332214  7153 net.cpp:454] relu1_1 <- conv1_1
I0406 15:35:36.332223  7153 net.cpp:397] relu1_1 -> conv1_1 (in-place)
I0406 15:35:36.332233  7153 net.cpp:150] Setting up relu1_1
I0406 15:35:36.332238  7153 net.cpp:157] Top shape: 1 64 1000 1500 (96000000)
I0406 15:35:36.332242  7153 net.cpp:165] Memory required for data: 822000052
I0406 15:35:36.332244  7153 layer_factory.hpp:77] Creating layer conv1_2
I0406 15:35:36.332257  7153 net.cpp:106] Creating Layer conv1_2
I0406 15:35:36.332260  7153 net.cpp:454] conv1_2 <- conv1_1
I0406 15:35:36.332265  7153 net.cpp:411] conv1_2 -> conv1_2
I0406 15:35:36.335393  7153 net.cpp:150] Setting up conv1_2
I0406 15:35:36.335430  7153 net.cpp:157] Top shape: 1 64 1000 1500 (96000000)
I0406 15:35:36.335443  7153 net.cpp:165] Memory required for data: 1206000052
I0406 15:35:36.335460  7153 layer_factory.hpp:77] Creating layer relu1_2
I0406 15:35:36.335474  7153 net.cpp:106] Creating Layer relu1_2
I0406 15:35:36.335479  7153 net.cpp:454] relu1_2 <- conv1_2
I0406 15:35:36.335486  7153 net.cpp:397] relu1_2 -> conv1_2 (in-place)
I0406 15:35:36.335497  7153 net.cpp:150] Setting up relu1_2
I0406 15:35:36.335501  7153 net.cpp:157] Top shape: 1 64 1000 1500 (96000000)
I0406 15:35:36.335505  7153 net.cpp:165] Memory required for data: 1590000052
I0406 15:35:36.335507  7153 layer_factory.hpp:77] Creating layer pool1
I0406 15:35:36.335513  7153 net.cpp:106] Creating Layer pool1
I0406 15:35:36.335517  7153 net.cpp:454] pool1 <- conv1_2
I0406 15:35:36.335523  7153 net.cpp:411] pool1 -> pool1
I0406 15:35:36.335610  7153 net.cpp:150] Setting up pool1
I0406 15:35:36.335621  7153 net.cpp:157] Top shape: 1 64 500 750 (24000000)
I0406 15:35:36.335625  7153 net.cpp:165] Memory required for data: 1686000052
I0406 15:35:36.335628  7153 layer_factory.hpp:77] Creating layer conv2_1
I0406 15:35:36.335638  7153 net.cpp:106] Creating Layer conv2_1
I0406 15:35:36.335644  7153 net.cpp:454] conv2_1 <- pool1
I0406 15:35:36.335649  7153 net.cpp:411] conv2_1 -> conv2_1
I0406 15:35:36.336861  7153 net.cpp:150] Setting up conv2_1
I0406 15:35:36.336882  7153 net.cpp:157] Top shape: 1 128 500 750 (48000000)
I0406 15:35:36.336885  7153 net.cpp:165] Memory required for data: 1878000052
I0406 15:35:36.336905  7153 layer_factory.hpp:77] Creating layer relu2_1
I0406 15:35:36.336915  7153 net.cpp:106] Creating Layer relu2_1
I0406 15:35:36.336920  7153 net.cpp:454] relu2_1 <- conv2_1
I0406 15:35:36.336927  7153 net.cpp:397] relu2_1 -> conv2_1 (in-place)
I0406 15:35:36.336935  7153 net.cpp:150] Setting up relu2_1
I0406 15:35:36.336938  7153 net.cpp:157] Top shape: 1 128 500 750 (48000000)
I0406 15:35:36.336941  7153 net.cpp:165] Memory required for data: 2070000052
I0406 15:35:36.336944  7153 layer_factory.hpp:77] Creating layer conv2_2
I0406 15:35:36.336951  7153 net.cpp:106] Creating Layer conv2_2
I0406 15:35:36.336954  7153 net.cpp:454] conv2_2 <- conv2_1
I0406 15:35:36.336961  7153 net.cpp:411] conv2_2 -> conv2_2
I0406 15:35:36.337882  7153 net.cpp:150] Setting up conv2_2
I0406 15:35:36.337905  7153 net.cpp:157] Top shape: 1 128 500 750 (48000000)
I0406 15:35:36.337908  7153 net.cpp:165] Memory required for data: 2262000052
I0406 15:35:36.337926  7153 layer_factory.hpp:77] Creating layer relu2_2
I0406 15:35:36.337934  7153 net.cpp:106] Creating Layer relu2_2
I0406 15:35:36.337939  7153 net.cpp:454] relu2_2 <- conv2_2
I0406 15:35:36.337944  7153 net.cpp:397] relu2_2 -> conv2_2 (in-place)
I0406 15:35:36.337952  7153 net.cpp:150] Setting up relu2_2
I0406 15:35:36.337957  7153 net.cpp:157] Top shape: 1 128 500 750 (48000000)
I0406 15:35:36.337960  7153 net.cpp:165] Memory required for data: 2454000052
I0406 15:35:36.337963  7153 layer_factory.hpp:77] Creating layer pool2
I0406 15:35:36.337970  7153 net.cpp:106] Creating Layer pool2
I0406 15:35:36.337973  7153 net.cpp:454] pool2 <- conv2_2
I0406 15:35:36.337978  7153 net.cpp:411] pool2 -> pool2
I0406 15:35:36.338021  7153 net.cpp:150] Setting up pool2
I0406 15:35:36.338029  7153 net.cpp:157] Top shape: 1 128 250 375 (12000000)
I0406 15:35:36.338032  7153 net.cpp:165] Memory required for data: 2502000052
I0406 15:35:36.338037  7153 layer_factory.hpp:77] Creating layer conv3_1
I0406 15:35:36.338045  7153 net.cpp:106] Creating Layer conv3_1
I0406 15:35:36.338049  7153 net.cpp:454] conv3_1 <- pool2
I0406 15:35:36.338054  7153 net.cpp:411] conv3_1 -> conv3_1
I0406 15:35:36.339165  7153 net.cpp:150] Setting up conv3_1
I0406 15:35:36.339187  7153 net.cpp:157] Top shape: 1 256 250 375 (24000000)
I0406 15:35:36.339190  7153 net.cpp:165] Memory required for data: 2598000052
I0406 15:35:36.339213  7153 layer_factory.hpp:77] Creating layer relu3_1
I0406 15:35:36.339221  7153 net.cpp:106] Creating Layer relu3_1
I0406 15:35:36.339226  7153 net.cpp:454] relu3_1 <- conv3_1
I0406 15:35:36.339232  7153 net.cpp:397] relu3_1 -> conv3_1 (in-place)
I0406 15:35:36.339239  7153 net.cpp:150] Setting up relu3_1
I0406 15:35:36.339244  7153 net.cpp:157] Top shape: 1 256 250 375 (24000000)
I0406 15:35:36.339247  7153 net.cpp:165] Memory required for data: 2694000052
I0406 15:35:36.339251  7153 layer_factory.hpp:77] Creating layer conv3_2
I0406 15:35:36.339258  7153 net.cpp:106] Creating Layer conv3_2
I0406 15:35:36.339262  7153 net.cpp:454] conv3_2 <- conv3_1
I0406 15:35:36.339268  7153 net.cpp:411] conv3_2 -> conv3_2
I0406 15:35:36.340453  7153 net.cpp:150] Setting up conv3_2
I0406 15:35:36.340479  7153 net.cpp:157] Top shape: 1 256 250 375 (24000000)
I0406 15:35:36.340492  7153 net.cpp:165] Memory required for data: 2790000052
I0406 15:35:36.340502  7153 layer_factory.hpp:77] Creating layer relu3_2
I0406 15:35:36.340512  7153 net.cpp:106] Creating Layer relu3_2
I0406 15:35:36.340517  7153 net.cpp:454] relu3_2 <- conv3_2
I0406 15:35:36.340523  7153 net.cpp:397] relu3_2 -> conv3_2 (in-place)
I0406 15:35:36.340530  7153 net.cpp:150] Setting up relu3_2
I0406 15:35:36.340534  7153 net.cpp:157] Top shape: 1 256 250 375 (24000000)
I0406 15:35:36.340538  7153 net.cpp:165] Memory required for data: 2886000052
I0406 15:35:36.340540  7153 layer_factory.hpp:77] Creating layer conv3_3
I0406 15:35:36.340553  7153 net.cpp:106] Creating Layer conv3_3
I0406 15:35:36.340567  7153 net.cpp:454] conv3_3 <- conv3_2
I0406 15:35:36.340574  7153 net.cpp:411] conv3_3 -> conv3_3
I0406 15:35:36.342188  7153 net.cpp:150] Setting up conv3_3
I0406 15:35:36.342219  7153 net.cpp:157] Top shape: 1 256 250 375 (24000000)
I0406 15:35:36.342226  7153 net.cpp:165] Memory required for data: 2982000052
I0406 15:35:36.342241  7153 layer_factory.hpp:77] Creating layer relu3_3
I0406 15:35:36.342254  7153 net.cpp:106] Creating Layer relu3_3
I0406 15:35:36.342260  7153 net.cpp:454] relu3_3 <- conv3_3
I0406 15:35:36.342274  7153 net.cpp:397] relu3_3 -> conv3_3 (in-place)
I0406 15:35:36.342288  7153 net.cpp:150] Setting up relu3_3
I0406 15:35:36.342298  7153 net.cpp:157] Top shape: 1 256 250 375 (24000000)
I0406 15:35:36.342303  7153 net.cpp:165] Memory required for data: 3078000052
I0406 15:35:36.342309  7153 layer_factory.hpp:77] Creating layer pool3
I0406 15:35:36.342319  7153 net.cpp:106] Creating Layer pool3
I0406 15:35:36.342326  7153 net.cpp:454] pool3 <- conv3_3
I0406 15:35:36.342335  7153 net.cpp:411] pool3 -> pool3
I0406 15:35:36.342397  7153 net.cpp:150] Setting up pool3
I0406 15:35:36.342427  7153 net.cpp:157] Top shape: 1 256 125 188 (6016000)
I0406 15:35:36.342443  7153 net.cpp:165] Memory required for data: 3102064052
I0406 15:35:36.342460  7153 layer_factory.hpp:77] Creating layer conv4_1
I0406 15:35:36.342484  7153 net.cpp:106] Creating Layer conv4_1
I0406 15:35:36.342502  7153 net.cpp:454] conv4_1 <- pool3
I0406 15:35:36.342525  7153 net.cpp:411] conv4_1 -> conv4_1
I0406 15:35:36.345453  7153 net.cpp:150] Setting up conv4_1
I0406 15:35:36.345486  7153 net.cpp:157] Top shape: 1 512 125 188 (12032000)
I0406 15:35:36.345500  7153 net.cpp:165] Memory required for data: 3150192052
I0406 15:35:36.345510  7153 layer_factory.hpp:77] Creating layer relu4_1
I0406 15:35:36.345520  7153 net.cpp:106] Creating Layer relu4_1
I0406 15:35:36.345525  7153 net.cpp:454] relu4_1 <- conv4_1
I0406 15:35:36.345540  7153 net.cpp:397] relu4_1 -> conv4_1 (in-place)
I0406 15:35:36.345552  7153 net.cpp:150] Setting up relu4_1
I0406 15:35:36.345571  7153 net.cpp:157] Top shape: 1 512 125 188 (12032000)
I0406 15:35:36.345578  7153 net.cpp:165] Memory required for data: 3198320052
I0406 15:35:36.345585  7153 layer_factory.hpp:77] Creating layer conv4_2
I0406 15:35:36.345602  7153 net.cpp:106] Creating Layer conv4_2
I0406 15:35:36.345609  7153 net.cpp:454] conv4_2 <- conv4_1
I0406 15:35:36.345618  7153 net.cpp:411] conv4_2 -> conv4_2
I0406 15:35:36.349896  7153 net.cpp:150] Setting up conv4_2
I0406 15:35:36.349932  7153 net.cpp:157] Top shape: 1 512 125 188 (12032000)
I0406 15:35:36.349946  7153 net.cpp:165] Memory required for data: 3246448052
I0406 15:35:36.349961  7153 layer_factory.hpp:77] Creating layer relu4_2
I0406 15:35:36.349972  7153 net.cpp:106] Creating Layer relu4_2
I0406 15:35:36.349978  7153 net.cpp:454] relu4_2 <- conv4_2
I0406 15:35:36.349989  7153 net.cpp:397] relu4_2 -> conv4_2 (in-place)
I0406 15:35:36.350003  7153 net.cpp:150] Setting up relu4_2
I0406 15:35:36.350011  7153 net.cpp:157] Top shape: 1 512 125 188 (12032000)
I0406 15:35:36.350016  7153 net.cpp:165] Memory required for data: 3294576052
I0406 15:35:36.350035  7153 layer_factory.hpp:77] Creating layer conv4_3
I0406 15:35:36.350054  7153 net.cpp:106] Creating Layer conv4_3
I0406 15:35:36.350061  7153 net.cpp:454] conv4_3 <- conv4_2
I0406 15:35:36.350069  7153 net.cpp:411] conv4_3 -> conv4_3
I0406 15:35:36.354328  7153 net.cpp:150] Setting up conv4_3
I0406 15:35:36.354365  7153 net.cpp:157] Top shape: 1 512 125 188 (12032000)
I0406 15:35:36.354378  7153 net.cpp:165] Memory required for data: 3342704052
I0406 15:35:36.354387  7153 layer_factory.hpp:77] Creating layer relu4_3
I0406 15:35:36.354398  7153 net.cpp:106] Creating Layer relu4_3
I0406 15:35:36.354403  7153 net.cpp:454] relu4_3 <- conv4_3
I0406 15:35:36.354411  7153 net.cpp:397] relu4_3 -> conv4_3 (in-place)
I0406 15:35:36.354424  7153 net.cpp:150] Setting up relu4_3
I0406 15:35:36.354431  7153 net.cpp:157] Top shape: 1 512 125 188 (12032000)
I0406 15:35:36.354436  7153 net.cpp:165] Memory required for data: 3390832052
I0406 15:35:36.354442  7153 layer_factory.hpp:77] Creating layer pool4
I0406 15:35:36.354454  7153 net.cpp:106] Creating Layer pool4
I0406 15:35:36.354467  7153 net.cpp:454] pool4 <- conv4_3
I0406 15:35:36.354480  7153 net.cpp:411] pool4 -> pool4
I0406 15:35:36.354540  7153 net.cpp:150] Setting up pool4
I0406 15:35:36.354550  7153 net.cpp:157] Top shape: 1 512 63 94 (3032064)
I0406 15:35:36.354555  7153 net.cpp:165] Memory required for data: 3402960308
I0406 15:35:36.354568  7153 layer_factory.hpp:77] Creating layer conv5_1
I0406 15:35:36.354584  7153 net.cpp:106] Creating Layer conv5_1
I0406 15:35:36.354591  7153 net.cpp:454] conv5_1 <- pool4
I0406 15:35:36.354600  7153 net.cpp:411] conv5_1 -> conv5_1
I0406 15:35:36.359324  7153 net.cpp:150] Setting up conv5_1
I0406 15:35:36.359359  7153 net.cpp:157] Top shape: 1 512 63 94 (3032064)
I0406 15:35:36.359371  7153 net.cpp:165] Memory required for data: 3415088564
I0406 15:35:36.359381  7153 layer_factory.hpp:77] Creating layer relu5_1
I0406 15:35:36.359393  7153 net.cpp:106] Creating Layer relu5_1
I0406 15:35:36.359398  7153 net.cpp:454] relu5_1 <- conv5_1
I0406 15:35:36.359408  7153 net.cpp:397] relu5_1 -> conv5_1 (in-place)
I0406 15:35:36.359422  7153 net.cpp:150] Setting up relu5_1
I0406 15:35:36.359429  7153 net.cpp:157] Top shape: 1 512 63 94 (3032064)
I0406 15:35:36.359434  7153 net.cpp:165] Memory required for data: 3427216820
I0406 15:35:36.359438  7153 layer_factory.hpp:77] Creating layer conv5_2
I0406 15:35:36.359454  7153 net.cpp:106] Creating Layer conv5_2
I0406 15:35:36.359462  7153 net.cpp:454] conv5_2 <- conv5_1
I0406 15:35:36.359472  7153 net.cpp:411] conv5_2 -> conv5_2
I0406 15:35:36.363927  7153 net.cpp:150] Setting up conv5_2
I0406 15:35:36.363965  7153 net.cpp:157] Top shape: 1 512 63 94 (3032064)
I0406 15:35:36.363970  7153 net.cpp:165] Memory required for data: 3439345076
I0406 15:35:36.363984  7153 layer_factory.hpp:77] Creating layer relu5_2
I0406 15:35:36.363998  7153 net.cpp:106] Creating Layer relu5_2
I0406 15:35:36.364006  7153 net.cpp:454] relu5_2 <- conv5_2
I0406 15:35:36.364020  7153 net.cpp:397] relu5_2 -> conv5_2 (in-place)
I0406 15:35:36.364039  7153 net.cpp:150] Setting up relu5_2
I0406 15:35:36.364049  7153 net.cpp:157] Top shape: 1 512 63 94 (3032064)
I0406 15:35:36.364058  7153 net.cpp:165] Memory required for data: 3451473332
I0406 15:35:36.364065  7153 layer_factory.hpp:77] Creating layer conv5_3
I0406 15:35:36.364084  7153 net.cpp:106] Creating Layer conv5_3
I0406 15:35:36.364092  7153 net.cpp:454] conv5_3 <- conv5_2
I0406 15:35:36.364102  7153 net.cpp:411] conv5_3 -> conv5_3
I0406 15:35:36.368724  7153 net.cpp:150] Setting up conv5_3
I0406 15:35:36.368760  7153 net.cpp:157] Top shape: 1 512 63 94 (3032064)
I0406 15:35:36.368767  7153 net.cpp:165] Memory required for data: 3463601588
I0406 15:35:36.368789  7153 layer_factory.hpp:77] Creating layer relu5_3
I0406 15:35:36.368803  7153 net.cpp:106] Creating Layer relu5_3
I0406 15:35:36.368814  7153 net.cpp:454] relu5_3 <- conv5_3
I0406 15:35:36.368827  7153 net.cpp:397] relu5_3 -> conv5_3 (in-place)
I0406 15:35:36.368842  7153 net.cpp:150] Setting up relu5_3
I0406 15:35:36.368852  7153 net.cpp:157] Top shape: 1 512 63 94 (3032064)
I0406 15:35:36.368858  7153 net.cpp:165] Memory required for data: 3475729844
I0406 15:35:36.368865  7153 layer_factory.hpp:77] Creating layer rpn_big_conv1
I0406 15:35:36.368891  7153 net.cpp:106] Creating Layer rpn_big_conv1
I0406 15:35:36.368897  7153 net.cpp:454] rpn_big_conv1 <- conv5_3
I0406 15:35:36.368908  7153 net.cpp:411] rpn_big_conv1 -> rpn_big_conv1
I0406 15:35:36.393956  7153 net.cpp:150] Setting up rpn_big_conv1
I0406 15:35:36.393990  7153 net.cpp:157] Top shape: 1 512 63 94 (3032064)
I0406 15:35:36.393996  7153 net.cpp:165] Memory required for data: 3487858100
I0406 15:35:36.394017  7153 layer_factory.hpp:77] Creating layer rpn_big_conv1_relu
I0406 15:35:36.394033  7153 net.cpp:106] Creating Layer rpn_big_conv1_relu
I0406 15:35:36.394047  7153 net.cpp:454] rpn_big_conv1_relu <- rpn_big_conv1
I0406 15:35:36.394060  7153 net.cpp:397] rpn_big_conv1_relu -> rpn_big_conv1 (in-place)
I0406 15:35:36.394076  7153 net.cpp:150] Setting up rpn_big_conv1_relu
I0406 15:35:36.394086  7153 net.cpp:157] Top shape: 1 512 63 94 (3032064)
I0406 15:35:36.394093  7153 net.cpp:165] Memory required for data: 3499986356
I0406 15:35:36.394100  7153 layer_factory.hpp:77] Creating layer rpn_big_conv2
I0406 15:35:36.394117  7153 net.cpp:106] Creating Layer rpn_big_conv2
I0406 15:35:36.394125  7153 net.cpp:454] rpn_big_conv2 <- rpn_big_conv1
I0406 15:35:36.394136  7153 net.cpp:411] rpn_big_conv2 -> rpn_big_conv2
I0406 15:35:36.421654  7153 net.cpp:150] Setting up rpn_big_conv2
I0406 15:35:36.421690  7153 net.cpp:157] Top shape: 1 512 63 94 (3032064)
I0406 15:35:36.421696  7153 net.cpp:165] Memory required for data: 3512114612
I0406 15:35:36.421717  7153 layer_factory.hpp:77] Creating layer rpn_big_conv2_relu
I0406 15:35:36.421732  7153 net.cpp:106] Creating Layer rpn_big_conv2_relu
I0406 15:35:36.421751  7153 net.cpp:454] rpn_big_conv2_relu <- rpn_big_conv2
I0406 15:35:36.421764  7153 net.cpp:397] rpn_big_conv2_relu -> rpn_big_conv2 (in-place)
I0406 15:35:36.421779  7153 net.cpp:150] Setting up rpn_big_conv2_relu
I0406 15:35:36.421789  7153 net.cpp:157] Top shape: 1 512 63 94 (3032064)
I0406 15:35:36.421813  7153 net.cpp:165] Memory required for data: 3524242868
I0406 15:35:36.421831  7153 layer_factory.hpp:77] Creating layer rpn_big_conv2_drop
I0406 15:35:36.421856  7153 net.cpp:106] Creating Layer rpn_big_conv2_drop
I0406 15:35:36.421864  7153 net.cpp:454] rpn_big_conv2_drop <- rpn_big_conv2
I0406 15:35:36.421875  7153 net.cpp:397] rpn_big_conv2_drop -> rpn_big_conv2 (in-place)
I0406 15:35:36.421910  7153 net.cpp:150] Setting up rpn_big_conv2_drop
I0406 15:35:36.421923  7153 net.cpp:157] Top shape: 1 512 63 94 (3032064)
I0406 15:35:36.421931  7153 net.cpp:165] Memory required for data: 3536371124
I0406 15:35:36.421937  7153 layer_factory.hpp:77] Creating layer rpn_big_conv2_rpn_big_conv2_drop_0_split
I0406 15:35:36.421948  7153 net.cpp:106] Creating Layer rpn_big_conv2_rpn_big_conv2_drop_0_split
I0406 15:35:36.421957  7153 net.cpp:454] rpn_big_conv2_rpn_big_conv2_drop_0_split <- rpn_big_conv2
I0406 15:35:36.421967  7153 net.cpp:411] rpn_big_conv2_rpn_big_conv2_drop_0_split -> rpn_big_conv2_rpn_big_conv2_drop_0_split_0
I0406 15:35:36.421983  7153 net.cpp:411] rpn_big_conv2_rpn_big_conv2_drop_0_split -> rpn_big_conv2_rpn_big_conv2_drop_0_split_1
I0406 15:35:36.422022  7153 net.cpp:150] Setting up rpn_big_conv2_rpn_big_conv2_drop_0_split
I0406 15:35:36.422032  7153 net.cpp:157] Top shape: 1 512 63 94 (3032064)
I0406 15:35:36.422040  7153 net.cpp:157] Top shape: 1 512 63 94 (3032064)
I0406 15:35:36.422045  7153 net.cpp:165] Memory required for data: 3560627636
I0406 15:35:36.422051  7153 layer_factory.hpp:77] Creating layer rpn_big_output_cls
I0406 15:35:36.422068  7153 net.cpp:106] Creating Layer rpn_big_output_cls
I0406 15:35:36.422075  7153 net.cpp:454] rpn_big_output_cls <- rpn_big_conv2_rpn_big_conv2_drop_0_split_0
I0406 15:35:36.422087  7153 net.cpp:411] rpn_big_output_cls -> rpn_big_output_cls
I0406 15:35:36.440764  7153 net.cpp:150] Setting up rpn_big_output_cls
I0406 15:35:36.440799  7153 net.cpp:157] Top shape: 1 384 63 94 (2274048)
I0406 15:35:36.440805  7153 net.cpp:165] Memory required for data: 3569723828
I0406 15:35:36.440826  7153 layer_factory.hpp:77] Creating layer rpn_big_output_cls_relu
I0406 15:35:36.440841  7153 net.cpp:106] Creating Layer rpn_big_output_cls_relu
I0406 15:35:36.440850  7153 net.cpp:454] rpn_big_output_cls_relu <- rpn_big_output_cls
I0406 15:35:36.440863  7153 net.cpp:397] rpn_big_output_cls_relu -> rpn_big_output_cls (in-place)
I0406 15:35:36.440879  7153 net.cpp:150] Setting up rpn_big_output_cls_relu
I0406 15:35:36.440892  7153 net.cpp:157] Top shape: 1 384 63 94 (2274048)
I0406 15:35:36.440898  7153 net.cpp:165] Memory required for data: 3578820020
I0406 15:35:36.440904  7153 layer_factory.hpp:77] Creating layer rpn_big_cls_score
I0406 15:35:36.440924  7153 net.cpp:106] Creating Layer rpn_big_cls_score
I0406 15:35:36.440932  7153 net.cpp:454] rpn_big_cls_score <- rpn_big_output_cls
I0406 15:35:36.440944  7153 net.cpp:411] rpn_big_cls_score -> rpn_big_cls_score
I0406 15:35:36.443331  7153 net.cpp:150] Setting up rpn_big_cls_score
I0406 15:35:36.443352  7153 net.cpp:157] Top shape: 1 52 61 92 (291824)
I0406 15:35:36.443359  7153 net.cpp:165] Memory required for data: 3579987316
I0406 15:35:36.443382  7153 layer_factory.hpp:77] Creating layer rpn_big_cls_score_rpn_big_cls_score_0_split
I0406 15:35:36.443397  7153 net.cpp:106] Creating Layer rpn_big_cls_score_rpn_big_cls_score_0_split
I0406 15:35:36.443425  7153 net.cpp:454] rpn_big_cls_score_rpn_big_cls_score_0_split <- rpn_big_cls_score
I0406 15:35:36.443451  7153 net.cpp:411] rpn_big_cls_score_rpn_big_cls_score_0_split -> rpn_big_cls_score_rpn_big_cls_score_0_split_0
I0406 15:35:36.443478  7153 net.cpp:411] rpn_big_cls_score_rpn_big_cls_score_0_split -> rpn_big_cls_score_rpn_big_cls_score_0_split_1
I0406 15:35:36.443545  7153 net.cpp:150] Setting up rpn_big_cls_score_rpn_big_cls_score_0_split
I0406 15:35:36.443569  7153 net.cpp:157] Top shape: 1 52 61 92 (291824)
I0406 15:35:36.443590  7153 net.cpp:157] Top shape: 1 52 61 92 (291824)
I0406 15:35:36.443608  7153 net.cpp:165] Memory required for data: 3582321908
I0406 15:35:36.443627  7153 layer_factory.hpp:77] Creating layer rpn_big_cls_score_reshape
I0406 15:35:36.443653  7153 net.cpp:106] Creating Layer rpn_big_cls_score_reshape
I0406 15:35:36.443675  7153 net.cpp:454] rpn_big_cls_score_reshape <- rpn_big_cls_score_rpn_big_cls_score_0_split_0
I0406 15:35:36.443701  7153 net.cpp:411] rpn_big_cls_score_reshape -> rpn_big_cls_score_reshape
I0406 15:35:36.443752  7153 net.cpp:150] Setting up rpn_big_cls_score_reshape
I0406 15:35:36.443775  7153 net.cpp:157] Top shape: 1 2 1586 92 (291824)
I0406 15:35:36.443794  7153 net.cpp:165] Memory required for data: 3583489204
I0406 15:35:36.443812  7153 layer_factory.hpp:77] Creating layer rpn_big_cls_score_reshape_rpn_big_cls_score_reshape_0_split
I0406 15:35:36.443833  7153 net.cpp:106] Creating Layer rpn_big_cls_score_reshape_rpn_big_cls_score_reshape_0_split
I0406 15:35:36.443853  7153 net.cpp:454] rpn_big_cls_score_reshape_rpn_big_cls_score_reshape_0_split <- rpn_big_cls_score_reshape
I0406 15:35:36.443877  7153 net.cpp:411] rpn_big_cls_score_reshape_rpn_big_cls_score_reshape_0_split -> rpn_big_cls_score_reshape_rpn_big_cls_score_reshape_0_split_0
I0406 15:35:36.443909  7153 net.cpp:411] rpn_big_cls_score_reshape_rpn_big_cls_score_reshape_0_split -> rpn_big_cls_score_reshape_rpn_big_cls_score_reshape_0_split_1
I0406 15:35:36.443982  7153 net.cpp:150] Setting up rpn_big_cls_score_reshape_rpn_big_cls_score_reshape_0_split
I0406 15:35:36.444008  7153 net.cpp:157] Top shape: 1 2 1586 92 (291824)
I0406 15:35:36.444032  7153 net.cpp:157] Top shape: 1 2 1586 92 (291824)
I0406 15:35:36.444051  7153 net.cpp:165] Memory required for data: 3585823796
I0406 15:35:36.444069  7153 layer_factory.hpp:77] Creating layer rpn_big_cls_prob
I0406 15:35:36.444092  7153 net.cpp:106] Creating Layer rpn_big_cls_prob
I0406 15:35:36.444113  7153 net.cpp:454] rpn_big_cls_prob <- rpn_big_cls_score_reshape_rpn_big_cls_score_reshape_0_split_0
I0406 15:35:36.444136  7153 net.cpp:411] rpn_big_cls_prob -> rpn_big_cls_prob
I0406 15:35:36.444233  7153 net.cpp:150] Setting up rpn_big_cls_prob
I0406 15:35:36.444257  7153 net.cpp:157] Top shape: 1 2 1586 92 (291824)
I0406 15:35:36.444275  7153 net.cpp:165] Memory required for data: 3586991092
I0406 15:35:36.444293  7153 layer_factory.hpp:77] Creating layer rpn_big_cls_prob_reshape
I0406 15:35:36.444315  7153 net.cpp:106] Creating Layer rpn_big_cls_prob_reshape
I0406 15:35:36.444334  7153 net.cpp:454] rpn_big_cls_prob_reshape <- rpn_big_cls_prob
I0406 15:35:36.444357  7153 net.cpp:411] rpn_big_cls_prob_reshape -> rpn_big_cls_prob_reshape
I0406 15:35:36.444411  7153 net.cpp:150] Setting up rpn_big_cls_prob_reshape
I0406 15:35:36.444435  7153 net.cpp:157] Top shape: 1 52 61 92 (291824)
I0406 15:35:36.444454  7153 net.cpp:165] Memory required for data: 3588158388
I0406 15:35:36.444473  7153 layer_factory.hpp:77] Creating layer rpn_big_anchor_target
I0406 15:35:36.446024  7153 net.cpp:106] Creating Layer rpn_big_anchor_target
I0406 15:35:36.446043  7153 net.cpp:454] rpn_big_anchor_target <- rpn_big_cls_score_rpn_big_cls_score_0_split_1
I0406 15:35:36.446053  7153 net.cpp:454] rpn_big_anchor_target <- input_gt_boxes
I0406 15:35:36.446060  7153 net.cpp:454] rpn_big_anchor_target <- input_ignored_boxes
I0406 15:35:36.446068  7153 net.cpp:454] rpn_big_anchor_target <- input_im_info
I0406 15:35:36.446074  7153 net.cpp:454] rpn_big_anchor_target <- input_data_input_0_split_1
I0406 15:35:36.446082  7153 net.cpp:454] rpn_big_anchor_target <- rpn_big_cls_prob_reshape
I0406 15:35:36.446094  7153 net.cpp:411] rpn_big_anchor_target -> rpn_big_anchor_target_labels
I0406 15:35:36.446110  7153 net.cpp:411] rpn_big_anchor_target -> rpn_big_anchor_target_bbox_targets
I0406 15:35:36.446123  7153 net.cpp:411] rpn_big_anchor_target -> rpn_big_anchor_target_inside_weights
I0406 15:35:36.446156  7153 net.cpp:411] rpn_big_anchor_target -> rpn_big_anchor_target_outside_weights
I0406 15:35:36.452868  7153 net.cpp:150] Setting up rpn_big_anchor_target
I0406 15:35:36.452896  7153 net.cpp:157] Top shape: 1 1 1586 92 (145912)
I0406 15:35:36.452911  7153 net.cpp:157] Top shape: 1 104 61 92 (583648)
I0406 15:35:36.452915  7153 net.cpp:157] Top shape: 1 104 61 92 (583648)
I0406 15:35:36.452919  7153 net.cpp:157] Top shape: 1 104 61 92 (583648)
I0406 15:35:36.452922  7153 net.cpp:165] Memory required for data: 3595745812
I0406 15:35:36.452927  7153 layer_factory.hpp:77] Creating layer rpn_big_loss_cls
I0406 15:35:36.452944  7153 net.cpp:106] Creating Layer rpn_big_loss_cls
I0406 15:35:36.452952  7153 net.cpp:454] rpn_big_loss_cls <- rpn_big_cls_score_reshape_rpn_big_cls_score_reshape_0_split_1
I0406 15:35:36.452962  7153 net.cpp:454] rpn_big_loss_cls <- rpn_big_anchor_target_labels
I0406 15:35:36.452972  7153 net.cpp:411] rpn_big_loss_cls -> rpn_big_loss_cls
I0406 15:35:36.452988  7153 layer_factory.hpp:77] Creating layer rpn_big_loss_cls
I0406 15:35:36.453727  7153 net.cpp:150] Setting up rpn_big_loss_cls
I0406 15:35:36.453739  7153 net.cpp:157] Top shape: (1)
I0406 15:35:36.453743  7153 net.cpp:160]     with loss weight 1
I0406 15:35:36.453763  7153 net.cpp:165] Memory required for data: 3595745816
I0406 15:35:36.453768  7153 layer_factory.hpp:77] Creating layer rpn_big_output_box
I0406 15:35:36.453784  7153 net.cpp:106] Creating Layer rpn_big_output_box
I0406 15:35:36.453795  7153 net.cpp:454] rpn_big_output_box <- rpn_big_conv2_rpn_big_conv2_drop_0_split_1
I0406 15:35:36.453809  7153 net.cpp:411] rpn_big_output_box -> rpn_big_output_box
I0406 15:35:36.473034  7153 net.cpp:150] Setting up rpn_big_output_box
I0406 15:35:36.473076  7153 net.cpp:157] Top shape: 1 384 63 94 (2274048)
I0406 15:35:36.473081  7153 net.cpp:165] Memory required for data: 3604842008
I0406 15:35:36.473090  7153 layer_factory.hpp:77] Creating layer rpn_big_output_box_relu
I0406 15:35:36.473103  7153 net.cpp:106] Creating Layer rpn_big_output_box_relu
I0406 15:35:36.473109  7153 net.cpp:454] rpn_big_output_box_relu <- rpn_big_output_box
I0406 15:35:36.473119  7153 net.cpp:397] rpn_big_output_box_relu -> rpn_big_output_box (in-place)
I0406 15:35:36.473132  7153 net.cpp:150] Setting up rpn_big_output_box_relu
I0406 15:35:36.473141  7153 net.cpp:157] Top shape: 1 384 63 94 (2274048)
I0406 15:35:36.473146  7153 net.cpp:165] Memory required for data: 3613938200
I0406 15:35:36.473151  7153 layer_factory.hpp:77] Creating layer rpn_big_bbox_pred
I0406 15:35:36.473168  7153 net.cpp:106] Creating Layer rpn_big_bbox_pred
I0406 15:35:36.473175  7153 net.cpp:454] rpn_big_bbox_pred <- rpn_big_output_box
I0406 15:35:36.473186  7153 net.cpp:411] rpn_big_bbox_pred -> rpn_big_bbox_pred
I0406 15:35:36.477180  7153 net.cpp:150] Setting up rpn_big_bbox_pred
I0406 15:35:36.477197  7153 net.cpp:157] Top shape: 1 104 61 92 (583648)
I0406 15:35:36.477200  7153 net.cpp:165] Memory required for data: 3616272792
I0406 15:35:36.477216  7153 layer_factory.hpp:77] Creating layer rpn_big_loss_bbox
I0406 15:35:36.477607  7153 net.cpp:106] Creating Layer rpn_big_loss_bbox
I0406 15:35:36.477617  7153 net.cpp:454] rpn_big_loss_bbox <- rpn_big_bbox_pred
I0406 15:35:36.477622  7153 net.cpp:454] rpn_big_loss_bbox <- rpn_big_anchor_target_bbox_targets
I0406 15:35:36.477636  7153 net.cpp:454] rpn_big_loss_bbox <- rpn_big_anchor_target_inside_weights
I0406 15:35:36.477640  7153 net.cpp:454] rpn_big_loss_bbox <- rpn_big_anchor_target_outside_weights
I0406 15:35:36.477648  7153 net.cpp:411] rpn_big_loss_bbox -> rpn_big_loss_bbox
I0406 15:35:36.479677  7153 net.cpp:150] Setting up rpn_big_loss_bbox
I0406 15:35:36.479707  7153 net.cpp:157] Top shape: 1 (1)
I0406 15:35:36.479719  7153 net.cpp:160]     with loss weight 1
I0406 15:35:36.479732  7153 net.cpp:165] Memory required for data: 3616272796
I0406 15:35:36.479737  7153 net.cpp:226] rpn_big_loss_bbox needs backward computation.
I0406 15:35:36.479746  7153 net.cpp:226] rpn_big_bbox_pred needs backward computation.
I0406 15:35:36.479750  7153 net.cpp:226] rpn_big_output_box_relu needs backward computation.
…
