…
I0413 16:50:55.321413  9543 solver.cpp:48] Initializing solver from parameters: 
base_lr: 0.001
display: 20
lr_policy: "multistep"
gamma: 0.1
momentum: 0.9
weight_decay: 0.0005
snapshot: 0
snapshot_prefix: "faces_example"
net_param {
  name: "GeneratedModel_13_04_2017_16_50"
  layer {
    name: "input"
    type: "Python"
    top: "input_data"
    top: "input_im_info"
    top: "input_gt_boxes"
    top: "input_ignored_boxes"
    python_param {
      module: "layers.roi_data_layer"
      layer: "RoIDataLayer"
      param_str: "{\"num_classes\": 2}"
    }
  }
  layer {
    name: "conv1_1"
    type: "Convolution"
    bottom: "input_data"
    top: "conv1_1"
    param {
      lr_mult: 0
      decay_mult: 0
    }
    param {
      lr_mult: 0
      decay_mult: 0
    }
    convolution_param {
      num_output: 64
      pad: 1
      kernel_size: 3
    }
  }
  layer {
    name: "relu1_1"
    type: "ReLU"
    bottom: "conv1_1"
    top: "conv1_1"
  }
  layer {
    name: "conv1_2"
    type: "Convolution"
    bottom: "conv1_1"
    top: "conv1_2"
    param {
      lr_mult: 0
      decay_mult: 0
    }
    param {
      lr_mult: 0
      decay_mult: 0
    }
    convolution_param {
      num_output: 64
      pad: 1
      kernel_size: 3
    }
  }
  layer {
    name: "relu1_2"
    type: "ReLU"
    bottom: "conv1_2"
    top: "conv1_2"
  }
  layer {
    name: "pool1"
    type: "Pooling"
    bottom: "conv1_2"
    top: "pool1"
    pooling_param {
      pool: MAX
      kernel_size: 2
      stride: 2
    }
  }
  layer {
    name: "conv2_1"
    type: "Convolution"
    bottom: "pool1"
    top: "conv2_1"
    param {
      lr_mult: 0
      decay_mult: 0
    }
    param {
      lr_mult: 0
      decay_mult: 0
    }
    convolution_param {
      num_output: 128
      pad: 1
      kernel_size: 3
    }
  }
  layer {
    name: "relu2_1"
    type: "ReLU"
    bottom: "conv2_1"
    top: "conv2_1"
  }
  layer {
    name: "conv2_2"
    type: "Convolution"
    bottom: "conv2_1"
    top: "conv2_2"
    param {
      lr_mult: 0
      decay_mult: 0
    }
    param {
      lr_mult: 0
      decay_mult: 0
    }
    convolution_param {
      num_output: 128
      pad: 1
      kernel_size: 3
    }
  }
  layer {
    name: "relu2_2"
    type: "ReLU"
    bottom: "conv2_2"
    top: "conv2_2"
  }
  layer {
    name: "pool2"
    type: "Pooling"
    bottom: "conv2_2"
    top: "pool2"
    pooling_param {
      pool: MAX
      kernel_size: 2
      stride: 2
    }
  }
  layer {
    name: "conv3_1"
    type: "Convolution"
    bottom: "pool2"
    top: "conv3_1"
    param {
      lr_mult: 1
    }
    param {
      lr_mult: 2
    }
    convolution_param {
      num_output: 256
      pad: 1
      kernel_size: 3
    }
  }
  layer {
    name: "relu3_1"
    type: "ReLU"
    bottom: "conv3_1"
    top: "conv3_1"
  }
  layer {
    name: "conv3_2"
    type: "Convolution"
    bottom: "conv3_1"
    top: "conv3_2"
    param {
      lr_mult: 1
    }
    param {
      lr_mult: 2
    }
    convolution_param {
      num_output: 256
      pad: 1
      kernel_size: 3
    }
  }
  layer {
    name: "relu3_2"
    type: "ReLU"
    bottom: "conv3_2"
    top: "conv3_2"
  }
  layer {
    name: "conv3_3"
    type: "Convolution"
    bottom: "conv3_2"
    top: "conv3_3"
    param {
      lr_mult: 1
    }
    param {
      lr_mult: 2
    }
    convolution_param {
      num_output: 256
      pad: 1
      kernel_size: 3
    }
  }
  layer {
    name: "relu3_3"
    type: "ReLU"
    bottom: "conv3_3"
    top: "conv3_3"
  }
  layer {
    name: "pool3"
    type: "Pooling"
    bottom: "conv3_3"
    top: "pool3"
    pooling_param {
      pool: MAX
      kernel_size: 2
      stride: 2
    }
  }
  layer {
    name: "conv4_1"
    type: "Convolution"
    bottom: "pool3"
    top: "conv4_1"
    param {
      lr_mult: 1
    }
    param {
      lr_mult: 2
    }
    convolution_param {
      num_output: 512
      pad: 1
      kernel_size: 3
    }
  }
  layer {
    name: "relu4_1"
    type: "ReLU"
    bottom: "conv4_1"
    top: "conv4_1"
  }
  layer {
    name: "conv4_2"
    type: "Convolution"
    bottom: "conv4_1"
    top: "conv4_2"
    param {
      lr_mult: 1
    }
    param {
      lr_mult: 2
    }
    convolution_param {
      num_output: 512
      pad: 1
      kernel_size: 3
    }
  }
  layer {
    name: "relu4_2"
    type: "ReLU"
    bottom: "conv4_2"
    top: "conv4_2"
  }
  layer {
    name: "conv4_3"
    type: "Convolution"
    bottom: "conv4_2"
    top: "conv4_3"
    param {
      lr_mult: 1
    }
    param {
      lr_mult: 2
    }
    convolution_param {
      num_output: 512
      pad: 1
      kernel_size: 3
    }
  }
  layer {
    name: "relu4_3"
    type: "ReLU"
    bottom: "conv4_3"
    top: "conv4_3"
  }
  layer {
    name: "pool4"
    type: "Pooling"
    bottom: "conv4_3"
    top: "pool4"
    pooling_param {
      pool: MAX
      kernel_size: 2
      stride: 2
    }
  }
  layer {
    name: "conv5_1"
    type: "Convolution"
    bottom: "pool4"
    top: "conv5_1"
    param {
      lr_mult: 1
    }
    param {
      lr_mult: 2
    }
    convolution_param {
      num_output: 512
      pad: 1
      kernel_size: 3
    }
  }
  layer {
    name: "relu5_1"
    type: "ReLU"
    bottom: "conv5_1"
    top: "conv5_1"
  }
  layer {
    name: "conv5_2"
    type: "Convolution"
    bottom: "conv5_1"
    top: "conv5_2"
    param {
      lr_mult: 1
    }
    param {
      lr_mult: 2
    }
    convolution_param {
      num_output: 512
      pad: 1
      kernel_size: 3
    }
  }
  layer {
    name: "relu5_2"
    type: "ReLU"
    bottom: "conv5_2"
    top: "conv5_2"
  }
  layer {
    name: "conv5_3"
    type: "Convolution"
    bottom: "conv5_2"
    top: "conv5_3"
    param {
      lr_mult: 1
    }
    param {
      lr_mult: 2
    }
    convolution_param {
      num_output: 512
      pad: 1
      kernel_size: 3
    }
  }
  layer {
    name: "relu5_3"
    type: "ReLU"
    bottom: "conv5_3"
    top: "conv5_3"
  }
  layer {
    name: "rpn_big_conv1"
    type: "Convolution"
    bottom: "conv5_3"
    top: "rpn_big_conv1"
    param {
      lr_mult: 1
    }
    param {
      lr_mult: 2
    }
    convolution_param {
      num_output: 512
      pad: 1
      kernel_size: 3
      stride: 1
      weight_filler {
        type: "gaussian"
        mean: 0
        std: 0.01
      }
      bias_filler {
        type: "constant"
      }
    }
  }
  layer {
    name: "rpn_big_conv1_relu"
    type: "ReLU"
    bottom: "rpn_big_conv1"
    top: "rpn_big_conv1"
    relu_param {
      negative_slope: 0
    }
  }
  layer {
    name: "rpn_big_conv2"
    type: "Convolution"
    bottom: "rpn_big_conv1"
    top: "rpn_big_conv2"
    param {
      lr_mult: 1
    }
    param {
      lr_mult: 2
    }
    convolution_param {
      num_output: 512
      pad: 1
      kernel_size: 3
      stride: 1
      weight_filler {
        type: "gaussian"
        mean: 0
        std: 0.01
      }
      bias_filler {
        type: "constant"
      }
    }
  }
  layer {
    name: "rpn_big_conv2_relu"
    type: "ReLU"
    bottom: "rpn_big_conv2"
    top: "rpn_big_conv2"
    relu_param {
      negative_slope: 0
    }
  }
  layer {
    name: "rpn_big_conv2_drop"
    type: "Dropout"
    bottom: "rpn_big_conv2"
    top: "rpn_big_conv2"
    dropout_param {
      dropout_ratio: 0.3
    }
  }
  layer {
    name: "rpn_big_output_cls"
    type: "Convolution"
    bottom: "rpn_big_conv2"
    top: "rpn_big_output_cls"
    param {
      lr_mult: 1
    }
    param {
      lr_mult: 2
    }
    convolution_param {
      num_output: 384
      pad: 1
      kernel_size: 3
      stride: 1
      weight_filler {
        type: "gaussian"
        mean: 0
        std: 0.01
      }
      bias_filler {
        type: "constant"
      }
    }
  }
  layer {
    name: "rpn_big_output_cls_relu"
    type: "ReLU"
    bottom: "rpn_big_output_cls"
    top: "rpn_big_output_cls"
    relu_param {
      negative_slope: 0
    }
  }
  layer {
    name: "rpn_big_cls_score"
    type: "Convolution"
    bottom: "rpn_big_output_cls"
    top: "rpn_big_cls_score"
    param {
      lr_mult: 1
    }
    param {
      lr_mult: 2
    }
    convolution_param {
      num_output: 52
      pad: 0
      kernel_size: 3
      stride: 1
      weight_filler {
        type: "gaussian"
        mean: 0
        std: 0.01
      }
      bias_filler {
        type: "constant"
      }
    }
  }
  layer {
    name: "rpn_big_cls_score_reshape"
    type: "Reshape"
    bottom: "rpn_big_cls_score"
    top: "rpn_big_cls_score_reshape"
    reshape_param {
      shape {
        dim: 0
        dim: 2
        dim: -1
        dim: 0
      }
    }
  }
  layer {
    name: "rpn_big_cls_prob"
    type: "Softmax"
    bottom: "rpn_big_cls_score_reshape"
    top: "rpn_big_cls_prob"
  }
  layer {
    name: "rpn_big_cls_prob_reshape"
    type: "Reshape"
    bottom: "rpn_big_cls_prob"
    top: "rpn_big_cls_prob_reshape"
    reshape_param {
      shape {
        dim: 0
        dim: 52
        dim: -1
        dim: 0
      }
    }
  }
  layer {
    name: "rpn_big_anchor_target"
    type: "Python"
    bottom: "rpn_big_cls_score"
    bottom: "input_gt_boxes"
    bottom: "input_ignored_boxes"
    bottom: "input_im_info"
    bottom: "input_data"
    bottom: "rpn_big_cls_prob_reshape"
    top: "rpn_big_anchor_target_labels"
    top: "rpn_big_anchor_target_bbox_targets"
    top: "rpn_big_anchor_target_inside_weights"
    top: "rpn_big_anchor_target_outside_weights"
    python_param {
      module: "rpn.anchor_target_layer"
      layer: "AnchorTargetLayer"
      param_str: "{\"feat_stride\": 16, \"negative_overlap\": 0.4, \"fg_fraction\": 0.5, \"square_targets\": true, \"batchsize\": 256, \"anchor_shift_num_xy\": [[2, 2], [2, 2], [2, 2], [2, 2], [1, 1], [1, 1], [1, 1], [1, 1], [1, 1], [1, 1], [1, 1], [1, 1], [1, 1], [1, 1]], \"name\": \"rpn_big\", \"anchor_ratios\": [1.0], \"num_classes\": 1, \"tn_fraction\": 0.2, \"anchor_scales\": [2.5, 3.025, 3.66025, 4.4289024999999995, 5.358972025, 6.484356150249999, 7.846070941802498, 9.493745839581022, 11.487432465893036, 13.899793283730574, 16.818749873313998, 20.350687346709933, 24.62433168951902, 29.795441344318014], \"positive_overlap\": 0.6}"
    }
  }
  layer {
    name: "rpn_big_loss_cls"
    type: "SoftmaxWithLoss"
    bottom: "rpn_big_cls_score_reshape"
    bottom: "rpn_big_anchor_target_labels"
    top: "rpn_big_loss_cls"
    loss_weight: 1
    propagate_down: true
    propagate_down: false
    loss_param {
      ignore_label: -1
      normalization: VALID
    }
  }
  layer {
    name: "rpn_big_output_box"
    type: "Convolution"
    bottom: "rpn_big_conv2"
    top: "rpn_big_output_box"
    param {
      lr_mult: 1
    }
    param {
      lr_mult: 2
    }
    convolution_param {
      num_output: 384
      pad: 1
      kernel_size: 3
      stride: 1
      weight_filler {
        type: "gaussian"
        mean: 0
        std: 0.01
      }
      bias_filler {
        type: "constant"
      }
    }
  }
  layer {
    name: "rpn_big_output_box_relu"
    type: "ReLU"
    bottom: "rpn_big_output_box"
    top: "rpn_big_output_box"
    relu_param {
      negative_slope: 0
    }
  }
  layer {
    name: "rpn_big_bbox_pred"
    type: "Convolution"
    bottom: "rpn_big_output_box"
    top: "rpn_big_bbox_pred"
    param {
      lr_mult: 1
    }
    param {
      lr_mult: 2
    }
    convolution_param {
      num_output: 104
      pad: 0
      kernel_size: 3
      stride: 1
      weight_filler {
        type: "gaussian"
        mean: 0
        std: 0.01
      }
      bias_filler {
        type: "constant"
      }
    }
  }
  layer {
    name: "rpn_big_loss_bbox"
    type: "Python"
    bottom: "rpn_big_bbox_pred"
    bottom: "rpn_big_anchor_target_bbox_targets"
    bottom: "rpn_big_anchor_target_inside_weights"
    bottom: "rpn_big_anchor_target_outside_weights"
    top: "rpn_big_loss_bbox"
    loss_weight: 1
    python_param {
      module: "layers.smooth_l1_loss"
      layer: "SmoothL1LossLayer"
      param_str: "{\"sigma\": 3}"
    }
  }
  layer {
    name: "proposal"
    type: "Python"
    bottom: "rpn_big_cls_prob_reshape"
    bottom: "rpn_big_bbox_pred"
    bottom: "input_im_info"
    top: "rpn_rois"
    python_param {
      module: "rpn.proposal_layer"
      layer: "ProposalLayer"
      param_str: "{\"anchor_shift_num_xy\": [[2, 2], [2, 2], [2, 2], [2, 2], [1, 1], [1, 1], [1, 1], [1, 1], [1, 1], [1, 1], [1, 1], [1, 1], [1, 1], [1, 1]], \"feat_stride\": 16, \"num_classes\": 1, \"anchor_scales\": [2.5, 3.025, 3.66025, 4.4289024999999995, 5.358972025, 6.484356150249999, 7.846070941802498, 9.493745839581022, 11.487432465893036, 13.899793283730574, 16.818749873313998, 20.350687346709933, 24.62433168951902, 29.795441344318014], \"square_targets\": true, \"name\": \"rpn_big\", \"batchsize\": 256, \"anchor_ratios\": [1.0]}"
    }
  }
}
average_loss: 100
stepvalue: 70000
stepvalue: 120000
iter_size: 2
I0413 16:50:55.321488  9543 solver.cpp:86] Creating training net specified in net_param.
I0413 16:50:55.321849  9543 net.cpp:58] Initializing net from parameters: 
name: "GeneratedModel_13_04_2017_16_50"
state {
  phase: TRAIN
}
layer {
  name: "input"
  type: "Python"
  top: "input_data"
  top: "input_im_info"
  top: "input_gt_boxes"
  top: "input_ignored_boxes"
  python_param {
    module: "layers.roi_data_layer"
    layer: "RoIDataLayer"
    param_str: "{\"num_classes\": 2}"
  }
}
layer {
  name: "conv1_1"
  type: "Convolution"
  bottom: "input_data"
  top: "conv1_1"
  param {
    lr_mult: 0
    decay_mult: 0
  }
  param {
    lr_mult: 0
    decay_mult: 0
  }
  convolution_param {
    num_output: 64
    pad: 1
    kernel_size: 3
  }
}
layer {
  name: "relu1_1"
  type: "ReLU"
  bottom: "conv1_1"
  top: "conv1_1"
}
layer {
  name: "conv1_2"
  type: "Convolution"
  bottom: "conv1_1"
  top: "conv1_2"
  param {
    lr_mult: 0
    decay_mult: 0
  }
  param {
    lr_mult: 0
    decay_mult: 0
  }
  convolution_param {
    num_output: 64
    pad: 1
    kernel_size: 3
  }
}
layer {
  name: "relu1_2"
  type: "ReLU"
  bottom: "conv1_2"
  top: "conv1_2"
}
layer {
  name: "pool1"
  type: "Pooling"
  bottom: "conv1_2"
  top: "pool1"
  pooling_param {
    pool: MAX
    kernel_size: 2
    stride: 2
  }
}
layer {
  name: "conv2_1"
  type: "Convolution"
  bottom: "pool1"
  top: "conv2_1"
  param {
    lr_mult: 0
    decay_mult: 0
  }
  param {
    lr_mult: 0
    decay_mult: 0
  }
  convolution_param {
    num_output: 128
    pad: 1
    kernel_size: 3
  }
}
layer {
  name: "relu2_1"
  type: "ReLU"
  bottom: "conv2_1"
  top: "conv2_1"
}
layer {
  name: "conv2_2"
  type: "Convolution"
  bottom: "conv2_1"
  top: "conv2_2"
  param {
    lr_mult: 0
    decay_mult: 0
  }
  param {
    lr_mult: 0
    decay_mult: 0
  }
  convolution_param {
    num_output: 128
    pad: 1
    kernel_size: 3
  }
}
layer {
  name: "relu2_2"
  type: "ReLU"
  bottom: "conv2_2"
  top: "conv2_2"
}
layer {
  name: "pool2"
  type: "Pooling"
  bottom: "conv2_2"
  top: "pool2"
  pooling_param {
    pool: MAX
    kernel_size: 2
    stride: 2
  }
}
layer {
  name: "conv3_1"
  type: "Convolution"
  bottom: "pool2"
  top: "conv3_1"
  param {
    lr_mult: 1
  }
  param {
    lr_mult: 2
  }
  convolution_param {
    num_output: 256
    pad: 1
    kernel_size: 3
  }
}
layer {
  name: "relu3_1"
  type: "ReLU"
  bottom: "conv3_1"
  top: "conv3_1"
}
layer {
  name: "conv3_2"
  type: "Convolution"
  bottom: "conv3_1"
  top: "conv3_2"
  param {
    lr_mult: 1
  }
  param {
    lr_mult: 2
  }
  convolution_param {
    num_output: 256
    pad: 1
    kernel_size: 3
  }
}
layer {
  name: "relu3_2"
  type: "ReLU"
  bottom: "conv3_2"
  top: "conv3_2"
}
layer {
  name: "conv3_3"
  type: "Convolution"
  bottom: "conv3_2"
  top: "conv3_3"
  param {
    lr_mult: 1
  }
  param {
    lr_mult: 2
  }
  convolution_param {
    num_output: 256
    pad: 1
    kernel_size: 3
  }
}
layer {
  name: "relu3_3"
  type: "ReLU"
  bottom: "conv3_3"
  top: "conv3_3"
}
layer {
  name: "pool3"
  type: "Pooling"
  bottom: "conv3_3"
  top: "pool3"
  pooling_param {
    pool: MAX
    kernel_size: 2
    stride: 2
  }
}
layer {
  name: "conv4_1"
  type: "Convolution"
  bottom: "pool3"
  top: "conv4_1"
  param {
    lr_mult: 1
  }
  param {
    lr_mult: 2
  }
  convolution_param {
    num_output: 512
    pad: 1
    kernel_size: 3
  }
}
layer {
  name: "relu4_1"
  type: "ReLU"
  bottom: "conv4_1"
  top: "conv4_1"
}
layer {
  name: "conv4_2"
  type: "Convolution"
  bottom: "conv4_1"
  top: "conv4_2"
  param {
    lr_mult: 1
  }
  param {
    lr_mult: 2
  }
  convolution_param {
    num_output: 512
    pad: 1
    kernel_size: 3
  }
}
layer {
  name: "relu4_2"
  type: "ReLU"
  bottom: "conv4_2"
  top: "conv4_2"
}
layer {
  name: "conv4_3"
  type: "Convolution"
  bottom: "conv4_2"
  top: "conv4_3"
  param {
    lr_mult: 1
  }
  param {
    lr_mult: 2
  }
  convolution_param {
    num_output: 512
    pad: 1
    kernel_size: 3
  }
}
layer {
  name: "relu4_3"
  type: "ReLU"
  bottom: "conv4_3"
  top: "conv4_3"
}
layer {
  name: "pool4"
  type: "Pooling"
  bottom: "conv4_3"
  top: "pool4"
  pooling_param {
    pool: MAX
    kernel_size: 2
    stride: 2
  }
}
layer {
  name: "conv5_1"
  type: "Convolution"
  bottom: "pool4"
  top: "conv5_1"
  param {
    lr_mult: 1
  }
  param {
    lr_mult: 2
  }
  convolution_param {
    num_output: 512
    pad: 1
    kernel_size: 3
  }
}
layer {
  name: "relu5_1"
  type: "ReLU"
  bottom: "conv5_1"
  top: "conv5_1"
}
layer {
  name: "conv5_2"
  type: "Convolution"
  bottom: "conv5_1"
  top: "conv5_2"
  param {
    lr_mult: 1
  }
  param {
    lr_mult: 2
  }
  convolution_param {
    num_output: 512
    pad: 1
    kernel_size: 3
  }
}
layer {
  name: "relu5_2"
  type: "ReLU"
  bottom: "conv5_2"
  top: "conv5_2"
}
layer {
  name: "conv5_3"
  type: "Convolution"
  bottom: "conv5_2"
  top: "conv5_3"
  param {
    lr_mult: 1
  }
  param {
    lr_mult: 2
  }
  convolution_param {
    num_output: 512
    pad: 1
    kernel_size: 3
  }
}
layer {
  name: "relu5_3"
  type: "ReLU"
  bottom: "conv5_3"
  top: "conv5_3"
}
layer {
  name: "rpn_big_conv1"
  type: "Convolution"
  bottom: "conv5_3"
  top: "rpn_big_conv1"
  param {
    lr_mult: 1
  }
  param {
    lr_mult: 2
  }
  convolution_param {
    num_output: 512
    pad: 1
    kernel_size: 3
    stride: 1
    weight_filler {
      type: "gaussian"
      mean: 0
      std: 0.01
    }
    bias_filler {
      type: "constant"
    }
  }
}
layer {
  name: "rpn_big_conv1_relu"
  type: "ReLU"
  bottom: "rpn_big_conv1"
  top: "rpn_big_conv1"
  relu_param {
    negative_slope: 0
  }
}
layer {
  name: "rpn_big_conv2"
  type: "Convolution"
  bottom: "rpn_big_conv1"
  top: "rpn_big_conv2"
  param {
    lr_mult: 1
  }
  param {
    lr_mult: 2
  }
  convolution_param {
    num_output: 512
    pad: 1
    kernel_size: 3
    stride: 1
    weight_filler {
      type: "gaussian"
      mean: 0
      std: 0.01
    }
    bias_filler {
      type: "constant"
    }
  }
}
layer {
  name: "rpn_big_conv2_relu"
  type: "ReLU"
  bottom: "rpn_big_conv2"
  top: "rpn_big_conv2"
  relu_param {
    negative_slope: 0
  }
}
layer {
  name: "rpn_big_conv2_drop"
  type: "Dropout"
  bottom: "rpn_big_conv2"
  top: "rpn_big_conv2"
  dropout_param {
    dropout_ratio: 0.3
  }
}
layer {
  name: "rpn_big_output_cls"
  type: "Convolution"
  bottom: "rpn_big_conv2"
  top: "rpn_big_output_cls"
  param {
    lr_mult: 1
  }
  param {
    lr_mult: 2
  }
  convolution_param {
    num_output: 384
    pad: 1
    kernel_size: 3
    stride: 1
    weight_filler {
      type: "gaussian"
      mean: 0
      std: 0.01
    }
    bias_filler {
      type: "constant"
    }
  }
}
layer {
  name: "rpn_big_output_cls_relu"
  type: "ReLU"
  bottom: "rpn_big_output_cls"
  top: "rpn_big_output_cls"
  relu_param {
    negative_slope: 0
  }
}
layer {
  name: "rpn_big_cls_score"
  type: "Convolution"
  bottom: "rpn_big_output_cls"
  top: "rpn_big_cls_score"
  param {
    lr_mult: 1
  }
  param {
    lr_mult: 2
  }
  convolution_param {
    num_output: 52
    pad: 0
    kernel_size: 3
    stride: 1
    weight_filler {
      type: "gaussian"
      mean: 0
      std: 0.01
    }
    bias_filler {
      type: "constant"
    }
  }
}
layer {
  name: "rpn_big_cls_score_reshape"
  type: "Reshape"
  bottom: "rpn_big_cls_score"
  top: "rpn_big_cls_score_reshape"
  reshape_param {
    shape {
      dim: 0
      dim: 2
      dim: -1
      dim: 0
    }
  }
}
layer {
  name: "rpn_big_cls_prob"
  type: "Softmax"
  bottom: "rpn_big_cls_score_reshape"
  top: "rpn_big_cls_prob"
}
layer {
  name: "rpn_big_cls_prob_reshape"
  type: "Reshape"
  bottom: "rpn_big_cls_prob"
  top: "rpn_big_cls_prob_reshape"
  reshape_param {
    shape {
      dim: 0
      dim: 52
      dim: -1
      dim: 0
    }
  }
}
layer {
  name: "rpn_big_anchor_target"
  type: "Python"
  bottom: "rpn_big_cls_score"
  bottom: "input_gt_boxes"
  bottom: "input_ignored_boxes"
  bottom: "input_im_info"
  bottom: "input_data"
  bottom: "rpn_big_cls_prob_reshape"
  top: "rpn_big_anchor_target_labels"
  top: "rpn_big_anchor_target_bbox_targets"
  top: "rpn_big_anchor_target_inside_weights"
  top: "rpn_big_anchor_target_outside_weights"
  python_param {
    module: "rpn.anchor_target_layer"
    layer: "AnchorTargetLayer"
    param_str: "{\"feat_stride\": 16, \"negative_overlap\": 0.4, \"fg_fraction\": 0.5, \"square_targets\": true, \"batchsize\": 256, \"anchor_shift_num_xy\": [[2, 2], [2, 2], [2, 2], [2, 2], [1, 1], [1, 1], [1, 1], [1, 1], [1, 1], [1, 1], [1, 1], [1, 1], [1, 1], [1, 1]], \"name\": \"rpn_big\", \"anchor_ratios\": [1.0], \"num_classes\": 1, \"tn_fraction\": 0.2, \"anchor_scales\": [2.5, 3.025, 3.66025, 4.4289024999999995, 5.358972025, 6.484356150249999, 7.846070941802498, 9.493745839581022, 11.487432465893036, 13.899793283730574, 16.818749873313998, 20.350687346709933, 24.62433168951902, 29.795441344318014], \"positive_overlap\": 0.6}"
  }
}
layer {
  name: "rpn_big_loss_cls"
  type: "SoftmaxWithLoss"
  bottom: "rpn_big_cls_score_reshape"
  bottom: "rpn_big_anchor_target_labels"
  top: "rpn_big_loss_cls"
  loss_weight: 1
  propagate_down: true
  propagate_down: false
  loss_param {
    ignore_label: -1
    normalization: VALID
  }
}
layer {
  name: "rpn_big_output_box"
  type: "Convolution"
  bottom: "rpn_big_conv2"
  top: "rpn_big_output_box"
  param {
    lr_mult: 1
  }
  param {
    lr_mult: 2
  }
  convolution_param {
    num_output: 384
    pad: 1
    kernel_size: 3
    stride: 1
    weight_filler {
      type: "gaussian"
      mean: 0
      std: 0.01
    }
    bias_filler {
      type: "constant"
    }
  }
}
layer {
  name: "rpn_big_output_box_relu"
  type: "ReLU"
  bottom: "rpn_big_output_box"
  top: "rpn_big_output_box"
  relu_param {
    negative_slope: 0
  }
}
layer {
  name: "rpn_big_bbox_pred"
  type: "Convolution"
  bottom: "rpn_big_output_box"
  top: "rpn_big_bbox_pred"
  param {
    lr_mult: 1
  }
  param {
    lr_mult: 2
  }
  convolution_param {
    num_output: 104
    pad: 0
    kernel_size: 3
    stride: 1
    weight_filler {
      type: "gaussian"
      mean: 0
      std: 0.01
    }
    bias_filler {
      type: "constant"
    }
  }
}
layer {
  name: "rpn_big_loss_bbox"
  type: "Python"
  bottom: "rpn_big_bbox_pred"
  bottom: "rpn_big_anchor_target_bbox_targets"
  bottom: "rpn_big_anchor_target_inside_weights"
  bottom: "rpn_big_anchor_target_outside_weights"
  top: "rpn_big_loss_bbox"
  loss_weight: 1
  python_param {
    module: "layers.smooth_l1_loss"
    layer: "SmoothL1LossLayer"
    param_str: "{\"sigma\": 3}"
  }
}
layer {
  name: "proposal"
  type: "Python"
  bottom: "rpn_big_cls_prob_reshape"
  bottom: "rpn_big_bbox_pred"
  bottom: "input_im_info"
  top: "rpn_rois"
  python_param {
    module: "rpn.proposal_layer"
    layer: "ProposalLayer"
    param_str: "{\"anchor_shift_num_xy\": [[2, 2], [2, 2], [2, 2], [2, 2], [1, 1], [1, 1], [1, 1], [1, 1], [1, 1], [1, 1], [1, 1], [1, 1], [1, 1], [1, 1]], \"feat_stride\": 16, \"num_classes\": 1, \"anchor_scales\": [2.5, 3.025, 3.66025, 4.4289024999999995, 5.358972025, 6.484356150249999, 7.846070941802498, 9.493745839581022, 11.487432465893036, 13.899793283730574, 16.818749873313998, 20.350687346709933, 24.62433168951902, 29.795441344318014], \"square_targets\": true, \"name\": \"rpn_big\", \"batchsize\": 256, \"anchor_ratios\": [1.0]}"
  }
}
I0413 16:50:55.322034  9543 layer_factory.hpp:77] Creating layer input
I0413 16:50:55.323284  9543 net.cpp:100] Creating Layer input
I0413 16:50:55.323297  9543 net.cpp:408] input -> input_data
I0413 16:50:55.323309  9543 net.cpp:408] input -> input_im_info
I0413 16:50:55.323317  9543 net.cpp:408] input -> input_gt_boxes
I0413 16:50:55.323323  9543 net.cpp:408] input -> input_ignored_boxes
RoiDataLayer: name_to_top: {'ignored_boxes': 3, 'gt_boxes': 2, 'data': 0, 'im_info': 1}
I0413 16:50:55.644979  9543 net.cpp:150] Setting up input
I0413 16:50:55.645007  9543 net.cpp:157] Top shape: 1 3 1000 1500 (4500000)
I0413 16:50:55.645015  9543 net.cpp:157] Top shape: 1 3 (3)
I0413 16:50:55.645021  9543 net.cpp:157] Top shape: 1 5 (5)
I0413 16:50:55.645027  9543 net.cpp:157] Top shape: 1 5 (5)
I0413 16:50:55.645032  9543 net.cpp:165] Memory required for data: 18000052
I0413 16:50:55.645040  9543 layer_factory.hpp:77] Creating layer input_data_input_0_split
I0413 16:50:55.645068  9543 net.cpp:100] Creating Layer input_data_input_0_split
I0413 16:50:55.645076  9543 net.cpp:434] input_data_input_0_split <- input_data
I0413 16:50:55.645088  9543 net.cpp:408] input_data_input_0_split -> input_data_input_0_split_0
I0413 16:50:55.645105  9543 net.cpp:408] input_data_input_0_split -> input_data_input_0_split_1
I0413 16:50:55.645154  9543 net.cpp:150] Setting up input_data_input_0_split
I0413 16:50:55.645166  9543 net.cpp:157] Top shape: 1 3 1000 1500 (4500000)
I0413 16:50:55.645174  9543 net.cpp:157] Top shape: 1 3 1000 1500 (4500000)
I0413 16:50:55.645179  9543 net.cpp:165] Memory required for data: 54000052
I0413 16:50:55.645184  9543 layer_factory.hpp:77] Creating layer input_im_info_input_1_split
I0413 16:50:55.645193  9543 net.cpp:100] Creating Layer input_im_info_input_1_split
I0413 16:50:55.645200  9543 net.cpp:434] input_im_info_input_1_split <- input_im_info
I0413 16:50:55.645210  9543 net.cpp:408] input_im_info_input_1_split -> input_im_info_input_1_split_0
I0413 16:50:55.645220  9543 net.cpp:408] input_im_info_input_1_split -> input_im_info_input_1_split_1
I0413 16:50:55.645267  9543 net.cpp:150] Setting up input_im_info_input_1_split
I0413 16:50:55.645275  9543 net.cpp:157] Top shape: 1 3 (3)
I0413 16:50:55.645282  9543 net.cpp:157] Top shape: 1 3 (3)
I0413 16:50:55.645288  9543 net.cpp:165] Memory required for data: 54000076
I0413 16:50:55.645293  9543 layer_factory.hpp:77] Creating layer conv1_1
I0413 16:50:55.645309  9543 net.cpp:100] Creating Layer conv1_1
I0413 16:50:55.645316  9543 net.cpp:434] conv1_1 <- input_data_input_0_split_0
I0413 16:50:55.645324  9543 net.cpp:408] conv1_1 -> conv1_1
I0413 16:50:55.648545  9543 net.cpp:150] Setting up conv1_1
I0413 16:50:55.648586  9543 net.cpp:157] Top shape: 1 64 1000 1500 (96000000)
I0413 16:50:55.648589  9543 net.cpp:165] Memory required for data: 438000076
I0413 16:50:55.648612  9543 layer_factory.hpp:77] Creating layer relu1_1
I0413 16:50:55.648628  9543 net.cpp:100] Creating Layer relu1_1
I0413 16:50:55.648638  9543 net.cpp:434] relu1_1 <- conv1_1
I0413 16:50:55.648648  9543 net.cpp:395] relu1_1 -> conv1_1 (in-place)
I0413 16:50:55.648663  9543 net.cpp:150] Setting up relu1_1
I0413 16:50:55.648671  9543 net.cpp:157] Top shape: 1 64 1000 1500 (96000000)
I0413 16:50:55.648677  9543 net.cpp:165] Memory required for data: 822000076
I0413 16:50:55.648682  9543 layer_factory.hpp:77] Creating layer conv1_2
I0413 16:50:55.648699  9543 net.cpp:100] Creating Layer conv1_2
I0413 16:50:55.648705  9543 net.cpp:434] conv1_2 <- conv1_1
I0413 16:50:55.648716  9543 net.cpp:408] conv1_2 -> conv1_2
I0413 16:50:55.652001  9543 net.cpp:150] Setting up conv1_2
I0413 16:50:55.652040  9543 net.cpp:157] Top shape: 1 64 1000 1500 (96000000)
I0413 16:50:55.652042  9543 net.cpp:165] Memory required for data: 1206000076
I0413 16:50:55.652065  9543 layer_factory.hpp:77] Creating layer relu1_2
I0413 16:50:55.652082  9543 net.cpp:100] Creating Layer relu1_2
I0413 16:50:55.652091  9543 net.cpp:434] relu1_2 <- conv1_2
I0413 16:50:55.652103  9543 net.cpp:395] relu1_2 -> conv1_2 (in-place)
I0413 16:50:55.652118  9543 net.cpp:150] Setting up relu1_2
I0413 16:50:55.652127  9543 net.cpp:157] Top shape: 1 64 1000 1500 (96000000)
I0413 16:50:55.652132  9543 net.cpp:165] Memory required for data: 1590000076
I0413 16:50:55.652138  9543 layer_factory.hpp:77] Creating layer pool1
I0413 16:50:55.652148  9543 net.cpp:100] Creating Layer pool1
I0413 16:50:55.652153  9543 net.cpp:434] pool1 <- conv1_2
I0413 16:50:55.652161  9543 net.cpp:408] pool1 -> pool1
I0413 16:50:55.652252  9543 net.cpp:150] Setting up pool1
I0413 16:50:55.652263  9543 net.cpp:157] Top shape: 1 64 500 750 (24000000)
I0413 16:50:55.652269  9543 net.cpp:165] Memory required for data: 1686000076
I0413 16:50:55.652276  9543 layer_factory.hpp:77] Creating layer conv2_1
I0413 16:50:55.652297  9543 net.cpp:100] Creating Layer conv2_1
I0413 16:50:55.652303  9543 net.cpp:434] conv2_1 <- pool1
I0413 16:50:55.652312  9543 net.cpp:408] conv2_1 -> conv2_1
I0413 16:50:55.653651  9543 net.cpp:150] Setting up conv2_1
I0413 16:50:55.653673  9543 net.cpp:157] Top shape: 1 128 500 750 (48000000)
I0413 16:50:55.653676  9543 net.cpp:165] Memory required for data: 1878000076
I0413 16:50:55.653690  9543 layer_factory.hpp:77] Creating layer relu2_1
I0413 16:50:55.653702  9543 net.cpp:100] Creating Layer relu2_1
I0413 16:50:55.653708  9543 net.cpp:434] relu2_1 <- conv2_1
I0413 16:50:55.653718  9543 net.cpp:395] relu2_1 -> conv2_1 (in-place)
I0413 16:50:55.653729  9543 net.cpp:150] Setting up relu2_1
I0413 16:50:55.653738  9543 net.cpp:157] Top shape: 1 128 500 750 (48000000)
I0413 16:50:55.653743  9543 net.cpp:165] Memory required for data: 2070000076
I0413 16:50:55.653748  9543 layer_factory.hpp:77] Creating layer conv2_2
I0413 16:50:55.653759  9543 net.cpp:100] Creating Layer conv2_2
I0413 16:50:55.653765  9543 net.cpp:434] conv2_2 <- conv2_1
I0413 16:50:55.653777  9543 net.cpp:408] conv2_2 -> conv2_2
I0413 16:50:55.654793  9543 net.cpp:150] Setting up conv2_2
I0413 16:50:55.654816  9543 net.cpp:157] Top shape: 1 128 500 750 (48000000)
I0413 16:50:55.654819  9543 net.cpp:165] Memory required for data: 2262000076
I0413 16:50:55.654832  9543 layer_factory.hpp:77] Creating layer relu2_2
I0413 16:50:55.654847  9543 net.cpp:100] Creating Layer relu2_2
I0413 16:50:55.654855  9543 net.cpp:434] relu2_2 <- conv2_2
I0413 16:50:55.654865  9543 net.cpp:395] relu2_2 -> conv2_2 (in-place)
I0413 16:50:55.654876  9543 net.cpp:150] Setting up relu2_2
I0413 16:50:55.654887  9543 net.cpp:157] Top shape: 1 128 500 750 (48000000)
I0413 16:50:55.654893  9543 net.cpp:165] Memory required for data: 2454000076
I0413 16:50:55.654898  9543 layer_factory.hpp:77] Creating layer pool2
I0413 16:50:55.654907  9543 net.cpp:100] Creating Layer pool2
I0413 16:50:55.654913  9543 net.cpp:434] pool2 <- conv2_2
I0413 16:50:55.654923  9543 net.cpp:408] pool2 -> pool2
I0413 16:50:55.654981  9543 net.cpp:150] Setting up pool2
I0413 16:50:55.654992  9543 net.cpp:157] Top shape: 1 128 250 375 (12000000)
I0413 16:50:55.654999  9543 net.cpp:165] Memory required for data: 2502000076
I0413 16:50:55.655004  9543 layer_factory.hpp:77] Creating layer conv3_1
I0413 16:50:55.655017  9543 net.cpp:100] Creating Layer conv3_1
I0413 16:50:55.655025  9543 net.cpp:434] conv3_1 <- pool2
I0413 16:50:55.655037  9543 net.cpp:408] conv3_1 -> conv3_1
I0413 16:50:55.656240  9543 net.cpp:150] Setting up conv3_1
I0413 16:50:55.656265  9543 net.cpp:157] Top shape: 1 256 250 375 (24000000)
I0413 16:50:55.656268  9543 net.cpp:165] Memory required for data: 2598000076
I0413 16:50:55.656286  9543 layer_factory.hpp:77] Creating layer relu3_1
I0413 16:50:55.656299  9543 net.cpp:100] Creating Layer relu3_1
I0413 16:50:55.656307  9543 net.cpp:434] relu3_1 <- conv3_1
I0413 16:50:55.656317  9543 net.cpp:395] relu3_1 -> conv3_1 (in-place)
I0413 16:50:55.656328  9543 net.cpp:150] Setting up relu3_1
I0413 16:50:55.656337  9543 net.cpp:157] Top shape: 1 256 250 375 (24000000)
I0413 16:50:55.656342  9543 net.cpp:165] Memory required for data: 2694000076
I0413 16:50:55.656348  9543 layer_factory.hpp:77] Creating layer conv3_2
I0413 16:50:55.656360  9543 net.cpp:100] Creating Layer conv3_2
I0413 16:50:55.656368  9543 net.cpp:434] conv3_2 <- conv3_1
I0413 16:50:55.656375  9543 net.cpp:408] conv3_2 -> conv3_2
I0413 16:50:55.657675  9543 net.cpp:150] Setting up conv3_2
I0413 16:50:55.657701  9543 net.cpp:157] Top shape: 1 256 250 375 (24000000)
I0413 16:50:55.657704  9543 net.cpp:165] Memory required for data: 2790000076
I0413 16:50:55.657714  9543 layer_factory.hpp:77] Creating layer relu3_2
I0413 16:50:55.657732  9543 net.cpp:100] Creating Layer relu3_2
I0413 16:50:55.657740  9543 net.cpp:434] relu3_2 <- conv3_2
I0413 16:50:55.657752  9543 net.cpp:395] relu3_2 -> conv3_2 (in-place)
I0413 16:50:55.657764  9543 net.cpp:150] Setting up relu3_2
I0413 16:50:55.657773  9543 net.cpp:157] Top shape: 1 256 250 375 (24000000)
I0413 16:50:55.657778  9543 net.cpp:165] Memory required for data: 2886000076
I0413 16:50:55.657783  9543 layer_factory.hpp:77] Creating layer conv3_3
I0413 16:50:55.657797  9543 net.cpp:100] Creating Layer conv3_3
I0413 16:50:55.657804  9543 net.cpp:434] conv3_3 <- conv3_2
I0413 16:50:55.657815  9543 net.cpp:408] conv3_3 -> conv3_3
I0413 16:50:55.659483  9543 net.cpp:150] Setting up conv3_3
I0413 16:50:55.659517  9543 net.cpp:157] Top shape: 1 256 250 375 (24000000)
I0413 16:50:55.659520  9543 net.cpp:165] Memory required for data: 2982000076
I0413 16:50:55.659530  9543 layer_factory.hpp:77] Creating layer relu3_3
I0413 16:50:55.659543  9543 net.cpp:100] Creating Layer relu3_3
I0413 16:50:55.659550  9543 net.cpp:434] relu3_3 <- conv3_3
I0413 16:50:55.659564  9543 net.cpp:395] relu3_3 -> conv3_3 (in-place)
I0413 16:50:55.659577  9543 net.cpp:150] Setting up relu3_3
I0413 16:50:55.659585  9543 net.cpp:157] Top shape: 1 256 250 375 (24000000)
I0413 16:50:55.659590  9543 net.cpp:165] Memory required for data: 3078000076
I0413 16:50:55.659596  9543 layer_factory.hpp:77] Creating layer pool3
I0413 16:50:55.659603  9543 net.cpp:100] Creating Layer pool3
I0413 16:50:55.659606  9543 net.cpp:434] pool3 <- conv3_3
I0413 16:50:55.659611  9543 net.cpp:408] pool3 -> pool3
I0413 16:50:55.659663  9543 net.cpp:150] Setting up pool3
I0413 16:50:55.659672  9543 net.cpp:157] Top shape: 1 256 125 188 (6016000)
I0413 16:50:55.659674  9543 net.cpp:165] Memory required for data: 3102064076
I0413 16:50:55.659677  9543 layer_factory.hpp:77] Creating layer conv4_1
I0413 16:50:55.659687  9543 net.cpp:100] Creating Layer conv4_1
I0413 16:50:55.659690  9543 net.cpp:434] conv4_1 <- pool3
I0413 16:50:55.659696  9543 net.cpp:408] conv4_1 -> conv4_1
I0413 16:50:55.662513  9543 net.cpp:150] Setting up conv4_1
I0413 16:50:55.662546  9543 net.cpp:157] Top shape: 1 512 125 188 (12032000)
I0413 16:50:55.662549  9543 net.cpp:165] Memory required for data: 3150192076
I0413 16:50:55.662559  9543 layer_factory.hpp:77] Creating layer relu4_1
I0413 16:50:55.662571  9543 net.cpp:100] Creating Layer relu4_1
I0413 16:50:55.662578  9543 net.cpp:434] relu4_1 <- conv4_1
I0413 16:50:55.662591  9543 net.cpp:395] relu4_1 -> conv4_1 (in-place)
I0413 16:50:55.662606  9543 net.cpp:150] Setting up relu4_1
I0413 16:50:55.662616  9543 net.cpp:157] Top shape: 1 512 125 188 (12032000)
I0413 16:50:55.662619  9543 net.cpp:165] Memory required for data: 3198320076
I0413 16:50:55.662624  9543 layer_factory.hpp:77] Creating layer conv4_2
I0413 16:50:55.662638  9543 net.cpp:100] Creating Layer conv4_2
I0413 16:50:55.662644  9543 net.cpp:434] conv4_2 <- conv4_1
I0413 16:50:55.662653  9543 net.cpp:408] conv4_2 -> conv4_2
I0413 16:50:55.666972  9543 net.cpp:150] Setting up conv4_2
I0413 16:50:55.667006  9543 net.cpp:157] Top shape: 1 512 125 188 (12032000)
I0413 16:50:55.667009  9543 net.cpp:165] Memory required for data: 3246448076
I0413 16:50:55.667031  9543 layer_factory.hpp:77] Creating layer relu4_2
I0413 16:50:55.667045  9543 net.cpp:100] Creating Layer relu4_2
I0413 16:50:55.667052  9543 net.cpp:434] relu4_2 <- conv4_2
I0413 16:50:55.667062  9543 net.cpp:395] relu4_2 -> conv4_2 (in-place)
I0413 16:50:55.667076  9543 net.cpp:150] Setting up relu4_2
I0413 16:50:55.667084  9543 net.cpp:157] Top shape: 1 512 125 188 (12032000)
I0413 16:50:55.667089  9543 net.cpp:165] Memory required for data: 3294576076
I0413 16:50:55.667094  9543 layer_factory.hpp:77] Creating layer conv4_3
I0413 16:50:55.667107  9543 net.cpp:100] Creating Layer conv4_3
I0413 16:50:55.667114  9543 net.cpp:434] conv4_3 <- conv4_2
I0413 16:50:55.667124  9543 net.cpp:408] conv4_3 -> conv4_3
I0413 16:50:55.671430  9543 net.cpp:150] Setting up conv4_3
I0413 16:50:55.671468  9543 net.cpp:157] Top shape: 1 512 125 188 (12032000)
I0413 16:50:55.671470  9543 net.cpp:165] Memory required for data: 3342704076
I0413 16:50:55.671483  9543 layer_factory.hpp:77] Creating layer relu4_3
I0413 16:50:55.671495  9543 net.cpp:100] Creating Layer relu4_3
I0413 16:50:55.671502  9543 net.cpp:434] relu4_3 <- conv4_3
I0413 16:50:55.671516  9543 net.cpp:395] relu4_3 -> conv4_3 (in-place)
I0413 16:50:55.671535  9543 net.cpp:150] Setting up relu4_3
I0413 16:50:55.671543  9543 net.cpp:157] Top shape: 1 512 125 188 (12032000)
I0413 16:50:55.671550  9543 net.cpp:165] Memory required for data: 3390832076
I0413 16:50:55.671555  9543 layer_factory.hpp:77] Creating layer pool4
I0413 16:50:55.671562  9543 net.cpp:100] Creating Layer pool4
I0413 16:50:55.671569  9543 net.cpp:434] pool4 <- conv4_3
I0413 16:50:55.671579  9543 net.cpp:408] pool4 -> pool4
I0413 16:50:55.671627  9543 net.cpp:150] Setting up pool4
I0413 16:50:55.671639  9543 net.cpp:157] Top shape: 1 512 63 94 (3032064)
I0413 16:50:55.671645  9543 net.cpp:165] Memory required for data: 3402960332
I0413 16:50:55.671651  9543 layer_factory.hpp:77] Creating layer conv5_1
I0413 16:50:55.671663  9543 net.cpp:100] Creating Layer conv5_1
I0413 16:50:55.671669  9543 net.cpp:434] conv5_1 <- pool4
I0413 16:50:55.671685  9543 net.cpp:408] conv5_1 -> conv5_1
I0413 16:50:55.676419  9543 net.cpp:150] Setting up conv5_1
I0413 16:50:55.676453  9543 net.cpp:157] Top shape: 1 512 63 94 (3032064)
I0413 16:50:55.676458  9543 net.cpp:165] Memory required for data: 3415088588
I0413 16:50:55.676472  9543 layer_factory.hpp:77] Creating layer relu5_1
I0413 16:50:55.676489  9543 net.cpp:100] Creating Layer relu5_1
I0413 16:50:55.676498  9543 net.cpp:434] relu5_1 <- conv5_1
I0413 16:50:55.676514  9543 net.cpp:395] relu5_1 -> conv5_1 (in-place)
I0413 16:50:55.676529  9543 net.cpp:150] Setting up relu5_1
I0413 16:50:55.676539  9543 net.cpp:157] Top shape: 1 512 63 94 (3032064)
I0413 16:50:55.676544  9543 net.cpp:165] Memory required for data: 3427216844
I0413 16:50:55.676550  9543 layer_factory.hpp:77] Creating layer conv5_2
I0413 16:50:55.676563  9543 net.cpp:100] Creating Layer conv5_2
I0413 16:50:55.676569  9543 net.cpp:434] conv5_2 <- conv5_1
I0413 16:50:55.676580  9543 net.cpp:408] conv5_2 -> conv5_2
I0413 16:50:55.682123  9543 net.cpp:150] Setting up conv5_2
I0413 16:50:55.682158  9543 net.cpp:157] Top shape: 1 512 63 94 (3032064)
I0413 16:50:55.682163  9543 net.cpp:165] Memory required for data: 3439345100
I0413 16:50:55.682173  9543 layer_factory.hpp:77] Creating layer relu5_2
I0413 16:50:55.682181  9543 net.cpp:100] Creating Layer relu5_2
I0413 16:50:55.682186  9543 net.cpp:434] relu5_2 <- conv5_2
I0413 16:50:55.682195  9543 net.cpp:395] relu5_2 -> conv5_2 (in-place)
I0413 16:50:55.682204  9543 net.cpp:150] Setting up relu5_2
I0413 16:50:55.682209  9543 net.cpp:157] Top shape: 1 512 63 94 (3032064)
I0413 16:50:55.682212  9543 net.cpp:165] Memory required for data: 3451473356
I0413 16:50:55.682214  9543 layer_factory.hpp:77] Creating layer conv5_3
I0413 16:50:55.682224  9543 net.cpp:100] Creating Layer conv5_3
I0413 16:50:55.682227  9543 net.cpp:434] conv5_3 <- conv5_2
I0413 16:50:55.682235  9543 net.cpp:408] conv5_3 -> conv5_3
I0413 16:50:55.687302  9543 net.cpp:150] Setting up conv5_3
I0413 16:50:55.687340  9543 net.cpp:157] Top shape: 1 512 63 94 (3032064)
I0413 16:50:55.687343  9543 net.cpp:165] Memory required for data: 3463601612
I0413 16:50:55.687355  9543 layer_factory.hpp:77] Creating layer relu5_3
I0413 16:50:55.687378  9543 net.cpp:100] Creating Layer relu5_3
I0413 16:50:55.687386  9543 net.cpp:434] relu5_3 <- conv5_3
I0413 16:50:55.687397  9543 net.cpp:395] relu5_3 -> conv5_3 (in-place)
I0413 16:50:55.687410  9543 net.cpp:150] Setting up relu5_3
I0413 16:50:55.687418  9543 net.cpp:157] Top shape: 1 512 63 94 (3032064)
I0413 16:50:55.687422  9543 net.cpp:165] Memory required for data: 3475729868
I0413 16:50:55.687427  9543 layer_factory.hpp:77] Creating layer rpn_big_conv1
I0413 16:50:55.687443  9543 net.cpp:100] Creating Layer rpn_big_conv1
I0413 16:50:55.687453  9543 net.cpp:434] rpn_big_conv1 <- conv5_3
I0413 16:50:55.687466  9543 net.cpp:408] rpn_big_conv1 -> rpn_big_conv1
I0413 16:50:55.713387  9543 net.cpp:150] Setting up rpn_big_conv1
I0413 16:50:55.713418  9543 net.cpp:157] Top shape: 1 512 63 94 (3032064)
I0413 16:50:55.713430  9543 net.cpp:165] Memory required for data: 3487858124
I0413 16:50:55.713441  9543 layer_factory.hpp:77] Creating layer rpn_big_conv1_relu
I0413 16:50:55.713451  9543 net.cpp:100] Creating Layer rpn_big_conv1_relu
I0413 16:50:55.713456  9543 net.cpp:434] rpn_big_conv1_relu <- rpn_big_conv1
I0413 16:50:55.713469  9543 net.cpp:395] rpn_big_conv1_relu -> rpn_big_conv1 (in-place)
I0413 16:50:55.713484  9543 net.cpp:150] Setting up rpn_big_conv1_relu
I0413 16:50:55.713492  9543 net.cpp:157] Top shape: 1 512 63 94 (3032064)
I0413 16:50:55.713498  9543 net.cpp:165] Memory required for data: 3499986380
I0413 16:50:55.713502  9543 layer_factory.hpp:77] Creating layer rpn_big_conv2
I0413 16:50:55.713517  9543 net.cpp:100] Creating Layer rpn_big_conv2
I0413 16:50:55.713524  9543 net.cpp:434] rpn_big_conv2 <- rpn_big_conv1
I0413 16:50:55.713534  9543 net.cpp:408] rpn_big_conv2 -> rpn_big_conv2
I0413 16:50:55.739189  9543 net.cpp:150] Setting up rpn_big_conv2
I0413 16:50:55.739222  9543 net.cpp:157] Top shape: 1 512 63 94 (3032064)
I0413 16:50:55.739234  9543 net.cpp:165] Memory required for data: 3512114636
I0413 16:50:55.739244  9543 layer_factory.hpp:77] Creating layer rpn_big_conv2_relu
I0413 16:50:55.739254  9543 net.cpp:100] Creating Layer rpn_big_conv2_relu
I0413 16:50:55.739259  9543 net.cpp:434] rpn_big_conv2_relu <- rpn_big_conv2
I0413 16:50:55.739267  9543 net.cpp:395] rpn_big_conv2_relu -> rpn_big_conv2 (in-place)
I0413 16:50:55.739284  9543 net.cpp:150] Setting up rpn_big_conv2_relu
I0413 16:50:55.739293  9543 net.cpp:157] Top shape: 1 512 63 94 (3032064)
I0413 16:50:55.739298  9543 net.cpp:165] Memory required for data: 3524242892
I0413 16:50:55.739303  9543 layer_factory.hpp:77] Creating layer rpn_big_conv2_drop
I0413 16:50:55.739311  9543 net.cpp:100] Creating Layer rpn_big_conv2_drop
I0413 16:50:55.739317  9543 net.cpp:434] rpn_big_conv2_drop <- rpn_big_conv2
I0413 16:50:55.739325  9543 net.cpp:395] rpn_big_conv2_drop -> rpn_big_conv2 (in-place)
I0413 16:50:55.739358  9543 net.cpp:150] Setting up rpn_big_conv2_drop
I0413 16:50:55.739368  9543 net.cpp:157] Top shape: 1 512 63 94 (3032064)
I0413 16:50:55.739374  9543 net.cpp:165] Memory required for data: 3536371148
I0413 16:50:55.739379  9543 layer_factory.hpp:77] Creating layer rpn_big_conv2_rpn_big_conv2_drop_0_split
I0413 16:50:55.739388  9543 net.cpp:100] Creating Layer rpn_big_conv2_rpn_big_conv2_drop_0_split
I0413 16:50:55.739394  9543 net.cpp:434] rpn_big_conv2_rpn_big_conv2_drop_0_split <- rpn_big_conv2
I0413 16:50:55.739406  9543 net.cpp:408] rpn_big_conv2_rpn_big_conv2_drop_0_split -> rpn_big_conv2_rpn_big_conv2_drop_0_split_0
I0413 16:50:55.739418  9543 net.cpp:408] rpn_big_conv2_rpn_big_conv2_drop_0_split -> rpn_big_conv2_rpn_big_conv2_drop_0_split_1
I0413 16:50:55.739466  9543 net.cpp:150] Setting up rpn_big_conv2_rpn_big_conv2_drop_0_split
I0413 16:50:55.739476  9543 net.cpp:157] Top shape: 1 512 63 94 (3032064)
I0413 16:50:55.739485  9543 net.cpp:157] Top shape: 1 512 63 94 (3032064)
I0413 16:50:55.739490  9543 net.cpp:165] Memory required for data: 3560627660
I0413 16:50:55.739495  9543 layer_factory.hpp:77] Creating layer rpn_big_output_cls
I0413 16:50:55.739513  9543 net.cpp:100] Creating Layer rpn_big_output_cls
I0413 16:50:55.739521  9543 net.cpp:434] rpn_big_output_cls <- rpn_big_conv2_rpn_big_conv2_drop_0_split_0
I0413 16:50:55.739533  9543 net.cpp:408] rpn_big_output_cls -> rpn_big_output_cls
I0413 16:50:55.759627  9543 net.cpp:150] Setting up rpn_big_output_cls
I0413 16:50:55.759665  9543 net.cpp:157] Top shape: 1 384 63 94 (2274048)
I0413 16:50:55.759670  9543 net.cpp:165] Memory required for data: 3569723852
I0413 16:50:55.759682  9543 layer_factory.hpp:77] Creating layer rpn_big_output_cls_relu
I0413 16:50:55.759701  9543 net.cpp:100] Creating Layer rpn_big_output_cls_relu
I0413 16:50:55.759709  9543 net.cpp:434] rpn_big_output_cls_relu <- rpn_big_output_cls
I0413 16:50:55.759721  9543 net.cpp:395] rpn_big_output_cls_relu -> rpn_big_output_cls (in-place)
I0413 16:50:55.759735  9543 net.cpp:150] Setting up rpn_big_output_cls_relu
I0413 16:50:55.759742  9543 net.cpp:157] Top shape: 1 384 63 94 (2274048)
I0413 16:50:55.759747  9543 net.cpp:165] Memory required for data: 3578820044
I0413 16:50:55.759752  9543 layer_factory.hpp:77] Creating layer rpn_big_cls_score
I0413 16:50:55.759768  9543 net.cpp:100] Creating Layer rpn_big_cls_score
I0413 16:50:55.759786  9543 net.cpp:434] rpn_big_cls_score <- rpn_big_output_cls
I0413 16:50:55.759799  9543 net.cpp:408] rpn_big_cls_score -> rpn_big_cls_score
I0413 16:50:55.762514  9543 net.cpp:150] Setting up rpn_big_cls_score
I0413 16:50:55.762539  9543 net.cpp:157] Top shape: 1 52 61 92 (291824)
I0413 16:50:55.762552  9543 net.cpp:165] Memory required for data: 3579987340
I0413 16:50:55.762568  9543 layer_factory.hpp:77] Creating layer rpn_big_cls_score_rpn_big_cls_score_0_split
I0413 16:50:55.762578  9543 net.cpp:100] Creating Layer rpn_big_cls_score_rpn_big_cls_score_0_split
I0413 16:50:55.762584  9543 net.cpp:434] rpn_big_cls_score_rpn_big_cls_score_0_split <- rpn_big_cls_score
I0413 16:50:55.762598  9543 net.cpp:408] rpn_big_cls_score_rpn_big_cls_score_0_split -> rpn_big_cls_score_rpn_big_cls_score_0_split_0
I0413 16:50:55.762611  9543 net.cpp:408] rpn_big_cls_score_rpn_big_cls_score_0_split -> rpn_big_cls_score_rpn_big_cls_score_0_split_1
I0413 16:50:55.762673  9543 net.cpp:150] Setting up rpn_big_cls_score_rpn_big_cls_score_0_split
I0413 16:50:55.762684  9543 net.cpp:157] Top shape: 1 52 61 92 (291824)
I0413 16:50:55.762701  9543 net.cpp:157] Top shape: 1 52 61 92 (291824)
I0413 16:50:55.762706  9543 net.cpp:165] Memory required for data: 3582321932
I0413 16:50:55.762712  9543 layer_factory.hpp:77] Creating layer rpn_big_cls_score_reshape
I0413 16:50:55.762724  9543 net.cpp:100] Creating Layer rpn_big_cls_score_reshape
I0413 16:50:55.762732  9543 net.cpp:434] rpn_big_cls_score_reshape <- rpn_big_cls_score_rpn_big_cls_score_0_split_0
I0413 16:50:55.762742  9543 net.cpp:408] rpn_big_cls_score_reshape -> rpn_big_cls_score_reshape
I0413 16:50:55.762776  9543 net.cpp:150] Setting up rpn_big_cls_score_reshape
I0413 16:50:55.762786  9543 net.cpp:157] Top shape: 1 2 1586 92 (291824)
I0413 16:50:55.762792  9543 net.cpp:165] Memory required for data: 3583489228
I0413 16:50:55.762797  9543 layer_factory.hpp:77] Creating layer rpn_big_cls_score_reshape_rpn_big_cls_score_reshape_0_split
I0413 16:50:55.762809  9543 net.cpp:100] Creating Layer rpn_big_cls_score_reshape_rpn_big_cls_score_reshape_0_split
I0413 16:50:55.762815  9543 net.cpp:434] rpn_big_cls_score_reshape_rpn_big_cls_score_reshape_0_split <- rpn_big_cls_score_reshape
I0413 16:50:55.762827  9543 net.cpp:408] rpn_big_cls_score_reshape_rpn_big_cls_score_reshape_0_split -> rpn_big_cls_score_reshape_rpn_big_cls_score_reshape_0_split_0
I0413 16:50:55.762840  9543 net.cpp:408] rpn_big_cls_score_reshape_rpn_big_cls_score_reshape_0_split -> rpn_big_cls_score_reshape_rpn_big_cls_score_reshape_0_split_1
I0413 16:50:55.762883  9543 net.cpp:150] Setting up rpn_big_cls_score_reshape_rpn_big_cls_score_reshape_0_split
I0413 16:50:55.762895  9543 net.cpp:157] Top shape: 1 2 1586 92 (291824)
I0413 16:50:55.762903  9543 net.cpp:157] Top shape: 1 2 1586 92 (291824)
I0413 16:50:55.762909  9543 net.cpp:165] Memory required for data: 3585823820
I0413 16:50:55.762914  9543 layer_factory.hpp:77] Creating layer rpn_big_cls_prob
I0413 16:50:55.762924  9543 net.cpp:100] Creating Layer rpn_big_cls_prob
I0413 16:50:55.762931  9543 net.cpp:434] rpn_big_cls_prob <- rpn_big_cls_score_reshape_rpn_big_cls_score_reshape_0_split_0
I0413 16:50:55.762941  9543 net.cpp:408] rpn_big_cls_prob -> rpn_big_cls_prob
I0413 16:50:55.763016  9543 net.cpp:150] Setting up rpn_big_cls_prob
I0413 16:50:55.763026  9543 net.cpp:157] Top shape: 1 2 1586 92 (291824)
I0413 16:50:55.763032  9543 net.cpp:165] Memory required for data: 3586991116
I0413 16:50:55.763037  9543 layer_factory.hpp:77] Creating layer rpn_big_cls_prob_reshape
I0413 16:50:55.763046  9543 net.cpp:100] Creating Layer rpn_big_cls_prob_reshape
I0413 16:50:55.763052  9543 net.cpp:434] rpn_big_cls_prob_reshape <- rpn_big_cls_prob
I0413 16:50:55.763062  9543 net.cpp:408] rpn_big_cls_prob_reshape -> rpn_big_cls_prob_reshape
I0413 16:50:55.763093  9543 net.cpp:150] Setting up rpn_big_cls_prob_reshape
I0413 16:50:55.763103  9543 net.cpp:157] Top shape: 1 52 61 92 (291824)
I0413 16:50:55.763108  9543 net.cpp:165] Memory required for data: 3588158412
I0413 16:50:55.763114  9543 layer_factory.hpp:77] Creating layer rpn_big_cls_prob_reshape_rpn_big_cls_prob_reshape_0_split
I0413 16:50:55.763121  9543 net.cpp:100] Creating Layer rpn_big_cls_prob_reshape_rpn_big_cls_prob_reshape_0_split
I0413 16:50:55.763126  9543 net.cpp:434] rpn_big_cls_prob_reshape_rpn_big_cls_prob_reshape_0_split <- rpn_big_cls_prob_reshape
I0413 16:50:55.763137  9543 net.cpp:408] rpn_big_cls_prob_reshape_rpn_big_cls_prob_reshape_0_split -> rpn_big_cls_prob_reshape_rpn_big_cls_prob_reshape_0_split_0
I0413 16:50:55.763147  9543 net.cpp:408] rpn_big_cls_prob_reshape_rpn_big_cls_prob_reshape_0_split -> rpn_big_cls_prob_reshape_rpn_big_cls_prob_reshape_0_split_1
I0413 16:50:55.763190  9543 net.cpp:150] Setting up rpn_big_cls_prob_reshape_rpn_big_cls_prob_reshape_0_split
I0413 16:50:55.763200  9543 net.cpp:157] Top shape: 1 52 61 92 (291824)
I0413 16:50:55.763208  9543 net.cpp:157] Top shape: 1 52 61 92 (291824)
I0413 16:50:55.763213  9543 net.cpp:165] Memory required for data: 3590493004
I0413 16:50:55.763218  9543 layer_factory.hpp:77] Creating layer rpn_big_anchor_target
I0413 16:50:55.764758  9543 net.cpp:100] Creating Layer rpn_big_anchor_target
I0413 16:50:55.764772  9543 net.cpp:434] rpn_big_anchor_target <- rpn_big_cls_score_rpn_big_cls_score_0_split_1
I0413 16:50:55.764780  9543 net.cpp:434] rpn_big_anchor_target <- input_gt_boxes
I0413 16:50:55.764787  9543 net.cpp:434] rpn_big_anchor_target <- input_ignored_boxes
I0413 16:50:55.764796  9543 net.cpp:434] rpn_big_anchor_target <- input_im_info_input_1_split_0
I0413 16:50:55.764801  9543 net.cpp:434] rpn_big_anchor_target <- input_data_input_0_split_1
I0413 16:50:55.764809  9543 net.cpp:434] rpn_big_anchor_target <- rpn_big_cls_prob_reshape_rpn_big_cls_prob_reshape_0_split_0
I0413 16:50:55.764820  9543 net.cpp:408] rpn_big_anchor_target -> rpn_big_anchor_target_labels
I0413 16:50:55.764837  9543 net.cpp:408] rpn_big_anchor_target -> rpn_big_anchor_target_bbox_targets
I0413 16:50:55.764853  9543 net.cpp:408] rpn_big_anchor_target -> rpn_big_anchor_target_inside_weights
I0413 16:50:55.764865  9543 net.cpp:408] rpn_big_anchor_target -> rpn_big_anchor_target_outside_weights
I0413 16:50:55.770093  9543 net.cpp:150] Setting up rpn_big_anchor_target
I0413 16:50:55.770120  9543 net.cpp:157] Top shape: 1 1 1586 92 (145912)
I0413 16:50:55.770134  9543 net.cpp:157] Top shape: 1 104 61 92 (583648)
I0413 16:50:55.770139  9543 net.cpp:157] Top shape: 1 104 61 92 (583648)
I0413 16:50:55.770143  9543 net.cpp:157] Top shape: 1 104 61 92 (583648)
I0413 16:50:55.770146  9543 net.cpp:165] Memory required for data: 3598080428
I0413 16:50:55.770153  9543 layer_factory.hpp:77] Creating layer rpn_big_loss_cls
I0413 16:50:55.770164  9543 net.cpp:100] Creating Layer rpn_big_loss_cls
I0413 16:50:55.770172  9543 net.cpp:434] rpn_big_loss_cls <- rpn_big_cls_score_reshape_rpn_big_cls_score_reshape_0_split_1
I0413 16:50:55.770182  9543 net.cpp:434] rpn_big_loss_cls <- rpn_big_anchor_target_labels
I0413 16:50:55.770192  9543 net.cpp:408] rpn_big_loss_cls -> rpn_big_loss_cls
I0413 16:50:55.770212  9543 layer_factory.hpp:77] Creating layer rpn_big_loss_cls
I0413 16:50:55.770944  9543 net.cpp:150] Setting up rpn_big_loss_cls
I0413 16:50:55.770958  9543 net.cpp:157] Top shape: (1)
I0413 16:50:55.770961  9543 net.cpp:160]     with loss weight 1
I0413 16:50:55.770977  9543 net.cpp:165] Memory required for data: 3598080432
I0413 16:50:55.770987  9543 layer_factory.hpp:77] Creating layer rpn_big_output_box
I0413 16:50:55.771010  9543 net.cpp:100] Creating Layer rpn_big_output_box
I0413 16:50:55.771018  9543 net.cpp:434] rpn_big_output_box <- rpn_big_conv2_rpn_big_conv2_drop_0_split_1
I0413 16:50:55.771029  9543 net.cpp:408] rpn_big_output_box -> rpn_big_output_box
I0413 16:50:55.790082  9543 net.cpp:150] Setting up rpn_big_output_box
I0413 16:50:55.790115  9543 net.cpp:157] Top shape: 1 384 63 94 (2274048)
I0413 16:50:55.790118  9543 net.cpp:165] Memory required for data: 3607176624
I0413 16:50:55.790128  9543 layer_factory.hpp:77] Creating layer rpn_big_output_box_relu
I0413 16:50:55.790141  9543 net.cpp:100] Creating Layer rpn_big_output_box_relu
I0413 16:50:55.790148  9543 net.cpp:434] rpn_big_output_box_relu <- rpn_big_output_box
I0413 16:50:55.790160  9543 net.cpp:395] rpn_big_output_box_relu -> rpn_big_output_box (in-place)
I0413 16:50:55.790174  9543 net.cpp:150] Setting up rpn_big_output_box_relu
I0413 16:50:55.790182  9543 net.cpp:157] Top shape: 1 384 63 94 (2274048)
I0413 16:50:55.790186  9543 net.cpp:165] Memory required for data: 3616272816
I0413 16:50:55.790192  9543 layer_factory.hpp:77] Creating layer rpn_big_bbox_pred
I0413 16:50:55.790211  9543 net.cpp:100] Creating Layer rpn_big_bbox_pred
I0413 16:50:55.790217  9543 net.cpp:434] rpn_big_bbox_pred <- rpn_big_output_box
I0413 16:50:55.790230  9543 net.cpp:408] rpn_big_bbox_pred -> rpn_big_bbox_pred
I0413 16:50:55.794826  9543 net.cpp:150] Setting up rpn_big_bbox_pred
I0413 16:50:55.794862  9543 net.cpp:157] Top shape: 1 104 61 92 (583648)
I0413 16:50:55.794865  9543 net.cpp:165] Memory required for data: 3618607408
I0413 16:50:55.794874  9543 layer_factory.hpp:77] Creating layer rpn_big_bbox_pred_rpn_big_bbox_pred_0_split
I0413 16:50:55.794884  9543 net.cpp:100] Creating Layer rpn_big_bbox_pred_rpn_big_bbox_pred_0_split
I0413 16:50:55.794893  9543 net.cpp:434] rpn_big_bbox_pred_rpn_big_bbox_pred_0_split <- rpn_big_bbox_pred
I0413 16:50:55.794905  9543 net.cpp:408] rpn_big_bbox_pred_rpn_big_bbox_pred_0_split -> rpn_big_bbox_pred_rpn_big_bbox_pred_0_split_0
I0413 16:50:55.794919  9543 net.cpp:408] rpn_big_bbox_pred_rpn_big_bbox_pred_0_split -> rpn_big_bbox_pred_rpn_big_bbox_pred_0_split_1
I0413 16:50:55.794977  9543 net.cpp:150] Setting up rpn_big_bbox_pred_rpn_big_bbox_pred_0_split
I0413 16:50:55.794988  9543 net.cpp:157] Top shape: 1 104 61 92 (583648)
I0413 16:50:55.794996  9543 net.cpp:157] Top shape: 1 104 61 92 (583648)
I0413 16:50:55.795002  9543 net.cpp:165] Memory required for data: 3623276592
I0413 16:50:55.795008  9543 layer_factory.hpp:77] Creating layer rpn_big_loss_bbox
I0413 16:50:55.795425  9543 net.cpp:100] Creating Layer rpn_big_loss_bbox
I0413 16:50:55.795435  9543 net.cpp:434] rpn_big_loss_bbox <- rpn_big_bbox_pred_rpn_big_bbox_pred_0_split_0
I0413 16:50:55.795441  9543 net.cpp:434] rpn_big_loss_bbox <- rpn_big_anchor_target_bbox_targets
I0413 16:50:55.795449  9543 net.cpp:434] rpn_big_loss_bbox <- rpn_big_anchor_target_inside_weights
I0413 16:50:55.795459  9543 net.cpp:434] rpn_big_loss_bbox <- rpn_big_anchor_target_outside_weights
I0413 16:50:55.795469  9543 net.cpp:408] rpn_big_loss_bbox -> rpn_big_loss_bbox
I0413 16:50:55.797474  9543 net.cpp:150] Setting up rpn_big_loss_bbox
I0413 16:50:55.797502  9543 net.cpp:157] Top shape: 1 (1)
I0413 16:50:55.797505  9543 net.cpp:160]     with loss weight 1
I0413 16:50:55.797526  9543 net.cpp:165] Memory required for data: 3623276596
I0413 16:50:55.797533  9543 layer_factory.hpp:77] Creating layer proposal
I0413 16:50:55.799468  9543 net.cpp:100] Creating Layer proposal
I0413 16:50:55.799486  9543 net.cpp:434] proposal <- rpn_big_cls_prob_reshape_rpn_big_cls_prob_reshape_0_split_1
I0413 16:50:55.799504  9543 net.cpp:434] proposal <- rpn_big_bbox_pred_rpn_big_bbox_pred_0_split_1
I0413 16:50:55.799510  9543 net.cpp:434] proposal <- input_im_info_input_1_split_1
I0413 16:50:55.799517  9543 net.cpp:408] proposal -> rpn_rois
I0413 16:50:55.803906  9543 net.cpp:150] Setting up proposal
I0413 16:50:55.803930  9543 net.cpp:157] Top shape: 1 5 (5)
I0413 16:50:55.803943  9543 net.cpp:165] Memory required for data: 3623276616
I0413 16:50:55.803949  9543 net.cpp:228] proposal does not need backward computation.
I0413 16:50:55.803956  9543 net.cpp:226] rpn_big_loss_bbox needs backward computation.
I0413 16:50:55.803962  9543 net.cpp:226] rpn_big_bbox_pred_rpn_big_bbox_pred_0_split needs backward computation.
I0413 16:50:55.803968  9543 net.cpp:226] rpn_big_bbox_pred needs backward computation.
…
