…
I0413 17:53:59.276517 11192 solver.cpp:48] Initializing solver from parameters: 
base_lr: 0.001
display: 20
lr_policy: "multistep"
gamma: 0.1
momentum: 0.9
weight_decay: 0.0005
snapshot: 0
snapshot_prefix: "faces_example"
net_param {
  name: "GeneratedModel_13_04_2017_17_53"
  layer {
    name: "input"
    type: "Python"
    top: "input_data"
    top: "input_im_info"
    top: "input_gt_boxes"
    top: "input_ignored_boxes"
    python_param {
      module: "layers.roi_data_layer"
      layer: "RoIDataLayer"
      param_str: "{\"num_classes\": 2}"
    }
  }
  layer {
    name: "conv1_1"
    type: "Convolution"
    bottom: "input_data"
    top: "conv1_1"
    param {
      lr_mult: 0
      decay_mult: 0
    }
    param {
      lr_mult: 0
      decay_mult: 0
    }
    convolution_param {
      num_output: 64
      pad: 1
      kernel_size: 3
    }
  }
  layer {
    name: "relu1_1"
    type: "ReLU"
    bottom: "conv1_1"
    top: "conv1_1"
  }
  layer {
    name: "conv1_2"
    type: "Convolution"
    bottom: "conv1_1"
    top: "conv1_2"
    param {
      lr_mult: 0
      decay_mult: 0
    }
    param {
      lr_mult: 0
      decay_mult: 0
    }
    convolution_param {
      num_output: 64
      pad: 1
      kernel_size: 3
    }
  }
  layer {
    name: "relu1_2"
    type: "ReLU"
    bottom: "conv1_2"
    top: "conv1_2"
  }
  layer {
    name: "pool1"
    type: "Pooling"
    bottom: "conv1_2"
    top: "pool1"
    pooling_param {
      pool: MAX
      kernel_size: 2
      stride: 2
    }
  }
  layer {
    name: "conv2_1"
    type: "Convolution"
    bottom: "pool1"
    top: "conv2_1"
    param {
      lr_mult: 0
      decay_mult: 0
    }
    param {
      lr_mult: 0
      decay_mult: 0
    }
    convolution_param {
      num_output: 128
      pad: 1
      kernel_size: 3
    }
  }
  layer {
    name: "relu2_1"
    type: "ReLU"
    bottom: "conv2_1"
    top: "conv2_1"
  }
  layer {
    name: "conv2_2"
    type: "Convolution"
    bottom: "conv2_1"
    top: "conv2_2"
    param {
      lr_mult: 0
      decay_mult: 0
    }
    param {
      lr_mult: 0
      decay_mult: 0
    }
    convolution_param {
      num_output: 128
      pad: 1
      kernel_size: 3
    }
  }
  layer {
    name: "relu2_2"
    type: "ReLU"
    bottom: "conv2_2"
    top: "conv2_2"
  }
  layer {
    name: "pool2"
    type: "Pooling"
    bottom: "conv2_2"
    top: "pool2"
    pooling_param {
      pool: MAX
      kernel_size: 2
      stride: 2
    }
  }
  layer {
    name: "conv3_1"
    type: "Convolution"
    bottom: "pool2"
    top: "conv3_1"
    param {
      lr_mult: 1
    }
    param {
      lr_mult: 2
    }
    convolution_param {
      num_output: 256
      pad: 1
      kernel_size: 3
    }
  }
  layer {
    name: "relu3_1"
    type: "ReLU"
    bottom: "conv3_1"
    top: "conv3_1"
  }
  layer {
    name: "conv3_2"
    type: "Convolution"
    bottom: "conv3_1"
    top: "conv3_2"
    param {
      lr_mult: 1
    }
    param {
      lr_mult: 2
    }
    convolution_param {
      num_output: 256
      pad: 1
      kernel_size: 3
    }
  }
  layer {
    name: "relu3_2"
    type: "ReLU"
    bottom: "conv3_2"
    top: "conv3_2"
  }
  layer {
    name: "conv3_3"
    type: "Convolution"
    bottom: "conv3_2"
    top: "conv3_3"
    param {
      lr_mult: 1
    }
    param {
      lr_mult: 2
    }
    convolution_param {
      num_output: 256
      pad: 1
      kernel_size: 3
    }
  }
  layer {
    name: "relu3_3"
    type: "ReLU"
    bottom: "conv3_3"
    top: "conv3_3"
  }
  layer {
    name: "pool3"
    type: "Pooling"
    bottom: "conv3_3"
    top: "pool3"
    pooling_param {
      pool: MAX
      kernel_size: 2
      stride: 2
    }
  }
  layer {
    name: "conv4_1"
    type: "Convolution"
    bottom: "pool3"
    top: "conv4_1"
    param {
      lr_mult: 1
    }
    param {
      lr_mult: 2
    }
    convolution_param {
      num_output: 512
      pad: 1
      kernel_size: 3
    }
  }
  layer {
    name: "relu4_1"
    type: "ReLU"
    bottom: "conv4_1"
    top: "conv4_1"
  }
  layer {
    name: "conv4_2"
    type: "Convolution"
    bottom: "conv4_1"
    top: "conv4_2"
    param {
      lr_mult: 1
    }
    param {
      lr_mult: 2
    }
    convolution_param {
      num_output: 512
      pad: 1
      kernel_size: 3
    }
  }
  layer {
    name: "relu4_2"
    type: "ReLU"
    bottom: "conv4_2"
    top: "conv4_2"
  }
  layer {
    name: "conv4_3"
    type: "Convolution"
    bottom: "conv4_2"
    top: "conv4_3"
    param {
      lr_mult: 1
    }
    param {
      lr_mult: 2
    }
    convolution_param {
      num_output: 512
      pad: 1
      kernel_size: 3
    }
  }
  layer {
    name: "relu4_3"
    type: "ReLU"
    bottom: "conv4_3"
    top: "conv4_3"
  }
  layer {
    name: "pool4"
    type: "Pooling"
    bottom: "conv4_3"
    top: "pool4"
    pooling_param {
      pool: MAX
      kernel_size: 2
      stride: 2
    }
  }
  layer {
    name: "conv5_1"
    type: "Convolution"
    bottom: "pool4"
    top: "conv5_1"
    param {
      lr_mult: 1
    }
    param {
      lr_mult: 2
    }
    convolution_param {
      num_output: 512
      pad: 1
      kernel_size: 3
    }
  }
  layer {
    name: "relu5_1"
    type: "ReLU"
    bottom: "conv5_1"
    top: "conv5_1"
  }
  layer {
    name: "conv5_2"
    type: "Convolution"
    bottom: "conv5_1"
    top: "conv5_2"
    param {
      lr_mult: 1
    }
    param {
      lr_mult: 2
    }
    convolution_param {
      num_output: 512
      pad: 1
      kernel_size: 3
    }
  }
  layer {
    name: "relu5_2"
    type: "ReLU"
    bottom: "conv5_2"
    top: "conv5_2"
  }
  layer {
    name: "conv5_3"
    type: "Convolution"
    bottom: "conv5_2"
    top: "conv5_3"
    param {
      lr_mult: 1
    }
    param {
      lr_mult: 2
    }
    convolution_param {
      num_output: 512
      pad: 1
      kernel_size: 3
    }
  }
  layer {
    name: "relu5_3"
    type: "ReLU"
    bottom: "conv5_3"
    top: "conv5_3"
  }
  layer {
    name: "rpn_big_conv1"
    type: "Convolution"
    bottom: "conv5_3"
    top: "rpn_big_conv1"
    param {
      lr_mult: 1
    }
    param {
      lr_mult: 2
    }
    convolution_param {
      num_output: 512
      pad: 1
      kernel_size: 3
      stride: 1
      weight_filler {
        type: "gaussian"
        mean: 0
        std: 0.01
      }
      bias_filler {
        type: "constant"
      }
    }
  }
  layer {
    name: "rpn_big_conv1_relu"
    type: "ReLU"
    bottom: "rpn_big_conv1"
    top: "rpn_big_conv1"
    relu_param {
      negative_slope: 0
    }
  }
  layer {
    name: "rpn_big_conv2"
    type: "Convolution"
    bottom: "rpn_big_conv1"
    top: "rpn_big_conv2"
    param {
      lr_mult: 1
    }
    param {
      lr_mult: 2
    }
    convolution_param {
      num_output: 512
      pad: 1
      kernel_size: 3
      stride: 1
      weight_filler {
        type: "gaussian"
        mean: 0
        std: 0.01
      }
      bias_filler {
        type: "constant"
      }
    }
  }
  layer {
    name: "rpn_big_conv2_relu"
    type: "ReLU"
    bottom: "rpn_big_conv2"
    top: "rpn_big_conv2"
    relu_param {
      negative_slope: 0
    }
  }
  layer {
    name: "rpn_big_conv2_drop"
    type: "Dropout"
    bottom: "rpn_big_conv2"
    top: "rpn_big_conv2"
    dropout_param {
      dropout_ratio: 0.3
    }
  }
  layer {
    name: "rpn_big_output_cls"
    type: "Convolution"
    bottom: "rpn_big_conv2"
    top: "rpn_big_output_cls"
    param {
      lr_mult: 1
    }
    param {
      lr_mult: 2
    }
    convolution_param {
      num_output: 384
      pad: 1
      kernel_size: 3
      stride: 1
      weight_filler {
        type: "gaussian"
        mean: 0
        std: 0.01
      }
      bias_filler {
        type: "constant"
      }
    }
  }
  layer {
    name: "rpn_big_output_cls_relu"
    type: "ReLU"
    bottom: "rpn_big_output_cls"
    top: "rpn_big_output_cls"
    relu_param {
      negative_slope: 0
    }
  }
  layer {
    name: "rpn_big_cls_score"
    type: "Convolution"
    bottom: "rpn_big_output_cls"
    top: "rpn_big_cls_score"
    param {
      lr_mult: 1
    }
    param {
      lr_mult: 2
    }
    convolution_param {
      num_output: 52
      pad: 0
      kernel_size: 3
      stride: 1
      weight_filler {
        type: "gaussian"
        mean: 0
        std: 0.01
      }
      bias_filler {
        type: "constant"
      }
    }
  }
  layer {
    name: "rpn_big_cls_score_reshape"
    type: "Reshape"
    bottom: "rpn_big_cls_score"
    top: "rpn_big_cls_score_reshape"
    reshape_param {
      shape {
        dim: 0
        dim: 2
        dim: -1
        dim: 0
      }
    }
  }
  layer {
    name: "rpn_big_cls_prob"
    type: "Softmax"
    bottom: "rpn_big_cls_score_reshape"
    top: "rpn_big_cls_prob"
  }
  layer {
    name: "rpn_big_cls_prob_reshape"
    type: "Reshape"
    bottom: "rpn_big_cls_prob"
    top: "rpn_big_cls_prob_reshape"
    reshape_param {
      shape {
        dim: 0
        dim: 52
        dim: -1
        dim: 0
      }
    }
  }
  layer {
    name: "rpn_big_anchor_target"
    type: "Python"
    bottom: "rpn_big_cls_score"
    bottom: "input_gt_boxes"
    bottom: "input_ignored_boxes"
    bottom: "input_im_info"
    bottom: "input_data"
    bottom: "rpn_big_cls_prob_reshape"
    top: "rpn_big_anchor_target_labels"
    top: "rpn_big_anchor_target_bbox_targets"
    top: "rpn_big_anchor_target_inside_weights"
    top: "rpn_big_anchor_target_outside_weights"
    python_param {
      module: "rpn.anchor_target_layer"
      layer: "AnchorTargetLayer"
      param_str: "{\"square_targets\": true, \"negative_overlap\": 0.4, \"num_classes\": 1, \"positive_overlap\": 0.6, \"anchor_scales\": [2.5, 3.025, 3.66025, 4.4289024999999995, 5.358972025, 6.484356150249999, 7.846070941802498, 9.493745839581022, 11.487432465893036, 13.899793283730574, 16.818749873313998, 20.350687346709933, 24.62433168951902, 29.795441344318014], \"anchor_shift_num_xy\": [[2, 2], [2, 2], [2, 2], [2, 2], [1, 1], [1, 1], [1, 1], [1, 1], [1, 1], [1, 1], [1, 1], [1, 1], [1, 1], [1, 1]], \"name\": \"rpn_big\", \"feat_stride\": 16, \"anchor_ratios\": [1.0], \"batchsize\": 256, \"tn_fraction\": 0.2, \"fg_fraction\": 0.5}"
    }
  }
  layer {
    name: "rpn_big_loss_cls"
    type: "SoftmaxWithLoss"
    bottom: "rpn_big_cls_score_reshape"
    bottom: "rpn_big_anchor_target_labels"
    top: "rpn_big_loss_cls"
    loss_weight: 1
    propagate_down: true
    propagate_down: false
    loss_param {
      ignore_label: -1
      normalization: VALID
    }
  }
  layer {
    name: "rpn_big_output_box"
    type: "Convolution"
    bottom: "rpn_big_conv2"
    top: "rpn_big_output_box"
    param {
      lr_mult: 1
    }
    param {
      lr_mult: 2
    }
    convolution_param {
      num_output: 384
      pad: 1
      kernel_size: 3
      stride: 1
      weight_filler {
        type: "gaussian"
        mean: 0
        std: 0.01
      }
      bias_filler {
        type: "constant"
      }
    }
  }
  layer {
    name: "rpn_big_output_box_relu"
    type: "ReLU"
    bottom: "rpn_big_output_box"
    top: "rpn_big_output_box"
    relu_param {
      negative_slope: 0
    }
  }
  layer {
    name: "rpn_big_bbox_pred"
    type: "Convolution"
    bottom: "rpn_big_output_box"
    top: "rpn_big_bbox_pred"
    param {
      lr_mult: 1
    }
    param {
      lr_mult: 2
    }
    convolution_param {
      num_output: 104
      pad: 0
      kernel_size: 3
      stride: 1
      weight_filler {
        type: "gaussian"
        mean: 0
        std: 0.01
      }
      bias_filler {
        type: "constant"
      }
    }
  }
  layer {
    name: "rpn_big_loss_bbox"
    type: "Python"
    bottom: "rpn_big_bbox_pred"
    bottom: "rpn_big_anchor_target_bbox_targets"
    bottom: "rpn_big_anchor_target_inside_weights"
    bottom: "rpn_big_anchor_target_outside_weights"
    top: "rpn_big_loss_bbox"
    loss_weight: 1
    python_param {
      module: "layers.smooth_l1_loss"
      layer: "SmoothL1LossLayer"
      param_str: "{\"sigma\": 3}"
    }
  }
  layer {
    name: "proposal"
    type: "Python"
    bottom: "rpn_big_cls_prob_reshape"
    bottom: "rpn_big_bbox_pred"
    bottom: "input_im_info"
    top: "rpn_rois"
    python_param {
      module: "rpn.proposal_layer"
      layer: "ProposalLayer"
      param_str: "{\"anchor_shift_num_xy\": [[2, 2], [2, 2], [2, 2], [2, 2], [1, 1], [1, 1], [1, 1], [1, 1], [1, 1], [1, 1], [1, 1], [1, 1], [1, 1], [1, 1]], \"feat_stride\": 16, \"num_classes\": 1, \"anchor_scales\": [2.5, 3.025, 3.66025, 4.4289024999999995, 5.358972025, 6.484356150249999, 7.846070941802498, 9.493745839581022, 11.487432465893036, 13.899793283730574, 16.818749873313998, 20.350687346709933, 24.62433168951902, 29.795441344318014], \"square_targets\": true, \"name\": \"rpn_big\", \"batchsize\": 256, \"anchor_ratios\": [1.0]}"
    }
  }
  layer {
    name: "roi-data"
    type: "Python"
    bottom: "rpn_rois"
    bottom: "input_gt_boxes"
    top: "rois"
    top: "labels"
    top: "bbox_targets"
    top: "bbox_inside_weights"
    top: "bbox_outside_weights"
    top: "pid_label"
    python_param {
      module: "rpn.proposal_target_layer"
      layer: "ProposalTargetLayer"
      param_str: "{\"num_classes\": 2, \"bg_aux_label\": 5532}"
    }
  }
  layer {
    name: "roi-pool"
    type: "ROIPooling"
    bottom: "conv5_3"
    bottom: "rois"
    top: "roi-pool"
    roi_pooling_param {
      pooled_h: 7
      pooled_w: 7
      spatial_scale: 0.0625
    }
  }
}
average_loss: 100
stepvalue: 70000
stepvalue: 120000
iter_size: 2
I0413 17:53:59.276645 11192 solver.cpp:86] Creating training net specified in net_param.
I0413 17:53:59.277288 11192 net.cpp:58] Initializing net from parameters: 
name: "GeneratedModel_13_04_2017_17_53"
state {
  phase: TRAIN
}
layer {
  name: "input"
  type: "Python"
  top: "input_data"
  top: "input_im_info"
  top: "input_gt_boxes"
  top: "input_ignored_boxes"
  python_param {
    module: "layers.roi_data_layer"
    layer: "RoIDataLayer"
    param_str: "{\"num_classes\": 2}"
  }
}
layer {
  name: "conv1_1"
  type: "Convolution"
  bottom: "input_data"
  top: "conv1_1"
  param {
    lr_mult: 0
    decay_mult: 0
  }
  param {
    lr_mult: 0
    decay_mult: 0
  }
  convolution_param {
    num_output: 64
    pad: 1
    kernel_size: 3
  }
}
layer {
  name: "relu1_1"
  type: "ReLU"
  bottom: "conv1_1"
  top: "conv1_1"
}
layer {
  name: "conv1_2"
  type: "Convolution"
  bottom: "conv1_1"
  top: "conv1_2"
  param {
    lr_mult: 0
    decay_mult: 0
  }
  param {
    lr_mult: 0
    decay_mult: 0
  }
  convolution_param {
    num_output: 64
    pad: 1
    kernel_size: 3
  }
}
layer {
  name: "relu1_2"
  type: "ReLU"
  bottom: "conv1_2"
  top: "conv1_2"
}
layer {
  name: "pool1"
  type: "Pooling"
  bottom: "conv1_2"
  top: "pool1"
  pooling_param {
    pool: MAX
    kernel_size: 2
    stride: 2
  }
}
layer {
  name: "conv2_1"
  type: "Convolution"
  bottom: "pool1"
  top: "conv2_1"
  param {
    lr_mult: 0
    decay_mult: 0
  }
  param {
    lr_mult: 0
    decay_mult: 0
  }
  convolution_param {
    num_output: 128
    pad: 1
    kernel_size: 3
  }
}
layer {
  name: "relu2_1"
  type: "ReLU"
  bottom: "conv2_1"
  top: "conv2_1"
}
layer {
  name: "conv2_2"
  type: "Convolution"
  bottom: "conv2_1"
  top: "conv2_2"
  param {
    lr_mult: 0
    decay_mult: 0
  }
  param {
    lr_mult: 0
    decay_mult: 0
  }
  convolution_param {
    num_output: 128
    pad: 1
    kernel_size: 3
  }
}
layer {
  name: "relu2_2"
  type: "ReLU"
  bottom: "conv2_2"
  top: "conv2_2"
}
layer {
  name: "pool2"
  type: "Pooling"
  bottom: "conv2_2"
  top: "pool2"
  pooling_param {
    pool: MAX
    kernel_size: 2
    stride: 2
  }
}
layer {
  name: "conv3_1"
  type: "Convolution"
  bottom: "pool2"
  top: "conv3_1"
  param {
    lr_mult: 1
  }
  param {
    lr_mult: 2
  }
  convolution_param {
    num_output: 256
    pad: 1
    kernel_size: 3
  }
}
layer {
  name: "relu3_1"
  type: "ReLU"
  bottom: "conv3_1"
  top: "conv3_1"
}
layer {
  name: "conv3_2"
  type: "Convolution"
  bottom: "conv3_1"
  top: "conv3_2"
  param {
    lr_mult: 1
  }
  param {
    lr_mult: 2
  }
  convolution_param {
    num_output: 256
    pad: 1
    kernel_size: 3
  }
}
layer {
  name: "relu3_2"
  type: "ReLU"
  bottom: "conv3_2"
  top: "conv3_2"
}
layer {
  name: "conv3_3"
  type: "Convolution"
  bottom: "conv3_2"
  top: "conv3_3"
  param {
    lr_mult: 1
  }
  param {
    lr_mult: 2
  }
  convolution_param {
    num_output: 256
    pad: 1
    kernel_size: 3
  }
}
layer {
  name: "relu3_3"
  type: "ReLU"
  bottom: "conv3_3"
  top: "conv3_3"
}
layer {
  name: "pool3"
  type: "Pooling"
  bottom: "conv3_3"
  top: "pool3"
  pooling_param {
    pool: MAX
    kernel_size: 2
    stride: 2
  }
}
layer {
  name: "conv4_1"
  type: "Convolution"
  bottom: "pool3"
  top: "conv4_1"
  param {
    lr_mult: 1
  }
  param {
    lr_mult: 2
  }
  convolution_param {
    num_output: 512
    pad: 1
    kernel_size: 3
  }
}
layer {
  name: "relu4_1"
  type: "ReLU"
  bottom: "conv4_1"
  top: "conv4_1"
}
layer {
  name: "conv4_2"
  type: "Convolution"
  bottom: "conv4_1"
  top: "conv4_2"
  param {
    lr_mult: 1
  }
  param {
    lr_mult: 2
  }
  convolution_param {
    num_output: 512
    pad: 1
    kernel_size: 3
  }
}
layer {
  name: "relu4_2"
  type: "ReLU"
  bottom: "conv4_2"
  top: "conv4_2"
}
layer {
  name: "conv4_3"
  type: "Convolution"
  bottom: "conv4_2"
  top: "conv4_3"
  param {
    lr_mult: 1
  }
  param {
    lr_mult: 2
  }
  convolution_param {
    num_output: 512
    pad: 1
    kernel_size: 3
  }
}
layer {
  name: "relu4_3"
  type: "ReLU"
  bottom: "conv4_3"
  top: "conv4_3"
}
layer {
  name: "pool4"
  type: "Pooling"
  bottom: "conv4_3"
  top: "pool4"
  pooling_param {
    pool: MAX
    kernel_size: 2
    stride: 2
  }
}
layer {
  name: "conv5_1"
  type: "Convolution"
  bottom: "pool4"
  top: "conv5_1"
  param {
    lr_mult: 1
  }
  param {
    lr_mult: 2
  }
  convolution_param {
    num_output: 512
    pad: 1
    kernel_size: 3
  }
}
layer {
  name: "relu5_1"
  type: "ReLU"
  bottom: "conv5_1"
  top: "conv5_1"
}
layer {
  name: "conv5_2"
  type: "Convolution"
  bottom: "conv5_1"
  top: "conv5_2"
  param {
    lr_mult: 1
  }
  param {
    lr_mult: 2
  }
  convolution_param {
    num_output: 512
    pad: 1
    kernel_size: 3
  }
}
layer {
  name: "relu5_2"
  type: "ReLU"
  bottom: "conv5_2"
  top: "conv5_2"
}
layer {
  name: "conv5_3"
  type: "Convolution"
  bottom: "conv5_2"
  top: "conv5_3"
  param {
    lr_mult: 1
  }
  param {
    lr_mult: 2
  }
  convolution_param {
    num_output: 512
    pad: 1
    kernel_size: 3
  }
}
layer {
  name: "relu5_3"
  type: "ReLU"
  bottom: "conv5_3"
  top: "conv5_3"
}
layer {
  name: "rpn_big_conv1"
  type: "Convolution"
  bottom: "conv5_3"
  top: "rpn_big_conv1"
  param {
    lr_mult: 1
  }
  param {
    lr_mult: 2
  }
  convolution_param {
    num_output: 512
    pad: 1
    kernel_size: 3
    stride: 1
    weight_filler {
      type: "gaussian"
      mean: 0
      std: 0.01
    }
    bias_filler {
      type: "constant"
    }
  }
}
layer {
  name: "rpn_big_conv1_relu"
  type: "ReLU"
  bottom: "rpn_big_conv1"
  top: "rpn_big_conv1"
  relu_param {
    negative_slope: 0
  }
}
layer {
  name: "rpn_big_conv2"
  type: "Convolution"
  bottom: "rpn_big_conv1"
  top: "rpn_big_conv2"
  param {
    lr_mult: 1
  }
  param {
    lr_mult: 2
  }
  convolution_param {
    num_output: 512
    pad: 1
    kernel_size: 3
    stride: 1
    weight_filler {
      type: "gaussian"
      mean: 0
      std: 0.01
    }
    bias_filler {
      type: "constant"
    }
  }
}
layer {
  name: "rpn_big_conv2_relu"
  type: "ReLU"
  bottom: "rpn_big_conv2"
  top: "rpn_big_conv2"
  relu_param {
    negative_slope: 0
  }
}
layer {
  name: "rpn_big_conv2_drop"
  type: "Dropout"
  bottom: "rpn_big_conv2"
  top: "rpn_big_conv2"
  dropout_param {
    dropout_ratio: 0.3
  }
}
layer {
  name: "rpn_big_output_cls"
  type: "Convolution"
  bottom: "rpn_big_conv2"
  top: "rpn_big_output_cls"
  param {
    lr_mult: 1
  }
  param {
    lr_mult: 2
  }
  convolution_param {
    num_output: 384
    pad: 1
    kernel_size: 3
    stride: 1
    weight_filler {
      type: "gaussian"
      mean: 0
      std: 0.01
    }
    bias_filler {
      type: "constant"
    }
  }
}
layer {
  name: "rpn_big_output_cls_relu"
  type: "ReLU"
  bottom: "rpn_big_output_cls"
  top: "rpn_big_output_cls"
  relu_param {
    negative_slope: 0
  }
}
layer {
  name: "rpn_big_cls_score"
  type: "Convolution"
  bottom: "rpn_big_output_cls"
  top: "rpn_big_cls_score"
  param {
    lr_mult: 1
  }
  param {
    lr_mult: 2
  }
  convolution_param {
    num_output: 52
    pad: 0
    kernel_size: 3
    stride: 1
    weight_filler {
      type: "gaussian"
      mean: 0
      std: 0.01
    }
    bias_filler {
      type: "constant"
    }
  }
}
layer {
  name: "rpn_big_cls_score_reshape"
  type: "Reshape"
  bottom: "rpn_big_cls_score"
  top: "rpn_big_cls_score_reshape"
  reshape_param {
    shape {
      dim: 0
      dim: 2
      dim: -1
      dim: 0
    }
  }
}
layer {
  name: "rpn_big_cls_prob"
  type: "Softmax"
  bottom: "rpn_big_cls_score_reshape"
  top: "rpn_big_cls_prob"
}
layer {
  name: "rpn_big_cls_prob_reshape"
  type: "Reshape"
  bottom: "rpn_big_cls_prob"
  top: "rpn_big_cls_prob_reshape"
  reshape_param {
    shape {
      dim: 0
      dim: 52
      dim: -1
      dim: 0
    }
  }
}
layer {
  name: "rpn_big_anchor_target"
  type: "Python"
  bottom: "rpn_big_cls_score"
  bottom: "input_gt_boxes"
  bottom: "input_ignored_boxes"
  bottom: "input_im_info"
  bottom: "input_data"
  bottom: "rpn_big_cls_prob_reshape"
  top: "rpn_big_anchor_target_labels"
  top: "rpn_big_anchor_target_bbox_targets"
  top: "rpn_big_anchor_target_inside_weights"
  top: "rpn_big_anchor_target_outside_weights"
  python_param {
    module: "rpn.anchor_target_layer"
    layer: "AnchorTargetLayer"
    param_str: "{\"square_targets\": true, \"negative_overlap\": 0.4, \"num_classes\": 1, \"positive_overlap\": 0.6, \"anchor_scales\": [2.5, 3.025, 3.66025, 4.4289024999999995, 5.358972025, 6.484356150249999, 7.846070941802498, 9.493745839581022, 11.487432465893036, 13.899793283730574, 16.818749873313998, 20.350687346709933, 24.62433168951902, 29.795441344318014], \"anchor_shift_num_xy\": [[2, 2], [2, 2], [2, 2], [2, 2], [1, 1], [1, 1], [1, 1], [1, 1], [1, 1], [1, 1], [1, 1], [1, 1], [1, 1], [1, 1]], \"name\": \"rpn_big\", \"feat_stride\": 16, \"anchor_ratios\": [1.0], \"batchsize\": 256, \"tn_fraction\": 0.2, \"fg_fraction\": 0.5}"
  }
}
layer {
  name: "rpn_big_loss_cls"
  type: "SoftmaxWithLoss"
  bottom: "rpn_big_cls_score_reshape"
  bottom: "rpn_big_anchor_target_labels"
  top: "rpn_big_loss_cls"
  loss_weight: 1
  propagate_down: true
  propagate_down: false
  loss_param {
    ignore_label: -1
    normalization: VALID
  }
}
layer {
  name: "rpn_big_output_box"
  type: "Convolution"
  bottom: "rpn_big_conv2"
  top: "rpn_big_output_box"
  param {
    lr_mult: 1
  }
  param {
    lr_mult: 2
  }
  convolution_param {
    num_output: 384
    pad: 1
    kernel_size: 3
    stride: 1
    weight_filler {
      type: "gaussian"
      mean: 0
      std: 0.01
    }
    bias_filler {
      type: "constant"
    }
  }
}
layer {
  name: "rpn_big_output_box_relu"
  type: "ReLU"
  bottom: "rpn_big_output_box"
  top: "rpn_big_output_box"
  relu_param {
    negative_slope: 0
  }
}
layer {
  name: "rpn_big_bbox_pred"
  type: "Convolution"
  bottom: "rpn_big_output_box"
  top: "rpn_big_bbox_pred"
  param {
    lr_mult: 1
  }
  param {
    lr_mult: 2
  }
  convolution_param {
    num_output: 104
    pad: 0
    kernel_size: 3
    stride: 1
    weight_filler {
      type: "gaussian"
      mean: 0
      std: 0.01
    }
    bias_filler {
      type: "constant"
    }
  }
}
layer {
  name: "rpn_big_loss_bbox"
  type: "Python"
  bottom: "rpn_big_bbox_pred"
  bottom: "rpn_big_anchor_target_bbox_targets"
  bottom: "rpn_big_anchor_target_inside_weights"
  bottom: "rpn_big_anchor_target_outside_weights"
  top: "rpn_big_loss_bbox"
  loss_weight: 1
  python_param {
    module: "layers.smooth_l1_loss"
    layer: "SmoothL1LossLayer"
    param_str: "{\"sigma\": 3}"
  }
}
layer {
  name: "proposal"
  type: "Python"
  bottom: "rpn_big_cls_prob_reshape"
  bottom: "rpn_big_bbox_pred"
  bottom: "input_im_info"
  top: "rpn_rois"
  python_param {
    module: "rpn.proposal_layer"
    layer: "ProposalLayer"
    param_str: "{\"anchor_shift_num_xy\": [[2, 2], [2, 2], [2, 2], [2, 2], [1, 1], [1, 1], [1, 1], [1, 1], [1, 1], [1, 1], [1, 1], [1, 1], [1, 1], [1, 1]], \"feat_stride\": 16, \"num_classes\": 1, \"anchor_scales\": [2.5, 3.025, 3.66025, 4.4289024999999995, 5.358972025, 6.484356150249999, 7.846070941802498, 9.493745839581022, 11.487432465893036, 13.899793283730574, 16.818749873313998, 20.350687346709933, 24.62433168951902, 29.795441344318014], \"square_targets\": true, \"name\": \"rpn_big\", \"batchsize\": 256, \"anchor_ratios\": [1.0]}"
  }
}
layer {
  name: "roi-data"
  type: "Python"
  bottom: "rpn_rois"
  bottom: "input_gt_boxes"
  top: "rois"
  top: "labels"
  top: "bbox_targets"
  top: "bbox_inside_weights"
  top: "bbox_outside_weights"
  top: "pid_label"
  python_param {
    module: "rpn.proposal_target_layer"
    layer: "ProposalTargetLayer"
    param_str: "{\"num_classes\": 2, \"bg_aux_label\": 5532}"
  }
}
layer {
  name: "roi-pool"
  type: "ROIPooling"
  bottom: "conv5_3"
  bottom: "rois"
  top: "roi-pool"
  roi_pooling_param {
    pooled_h: 7
    pooled_w: 7
    spatial_scale: 0.0625
  }
}
I0413 17:53:59.277628 11192 layer_factory.hpp:77] Creating layer input
I0413 17:53:59.281663 11192 net.cpp:100] Creating Layer input
I0413 17:53:59.281692 11192 net.cpp:408] input -> input_data
I0413 17:53:59.281710 11192 net.cpp:408] input -> input_im_info
I0413 17:53:59.281723 11192 net.cpp:408] input -> input_gt_boxes
I0413 17:53:59.281735 11192 net.cpp:408] input -> input_ignored_boxes
RoiDataLayer: name_to_top: {'data': 0, 'im_info': 1, 'ignored_boxes': 3, 'gt_boxes': 2}
I0413 17:53:59.657079 11192 net.cpp:150] Setting up input
I0413 17:53:59.657105 11192 net.cpp:157] Top shape: 1 3 1000 1500 (4500000)
I0413 17:53:59.657110 11192 net.cpp:157] Top shape: 1 3 (3)
I0413 17:53:59.657114 11192 net.cpp:157] Top shape: 1 5 (5)
I0413 17:53:59.657119 11192 net.cpp:157] Top shape: 1 5 (5)
I0413 17:53:59.657120 11192 net.cpp:165] Memory required for data: 18000052
I0413 17:53:59.657126 11192 layer_factory.hpp:77] Creating layer input_data_input_0_split
I0413 17:53:59.657140 11192 net.cpp:100] Creating Layer input_data_input_0_split
I0413 17:53:59.657146 11192 net.cpp:434] input_data_input_0_split <- input_data
I0413 17:53:59.657155 11192 net.cpp:408] input_data_input_0_split -> input_data_input_0_split_0
I0413 17:53:59.657166 11192 net.cpp:408] input_data_input_0_split -> input_data_input_0_split_1
I0413 17:53:59.657200 11192 net.cpp:150] Setting up input_data_input_0_split
I0413 17:53:59.657210 11192 net.cpp:157] Top shape: 1 3 1000 1500 (4500000)
I0413 17:53:59.657214 11192 net.cpp:157] Top shape: 1 3 1000 1500 (4500000)
I0413 17:53:59.657217 11192 net.cpp:165] Memory required for data: 54000052
I0413 17:53:59.657220 11192 layer_factory.hpp:77] Creating layer input_im_info_input_1_split
I0413 17:53:59.657227 11192 net.cpp:100] Creating Layer input_im_info_input_1_split
I0413 17:53:59.657230 11192 net.cpp:434] input_im_info_input_1_split <- input_im_info
I0413 17:53:59.657235 11192 net.cpp:408] input_im_info_input_1_split -> input_im_info_input_1_split_0
I0413 17:53:59.657241 11192 net.cpp:408] input_im_info_input_1_split -> input_im_info_input_1_split_1
I0413 17:53:59.657269 11192 net.cpp:150] Setting up input_im_info_input_1_split
I0413 17:53:59.657276 11192 net.cpp:157] Top shape: 1 3 (3)
I0413 17:53:59.657279 11192 net.cpp:157] Top shape: 1 3 (3)
I0413 17:53:59.657282 11192 net.cpp:165] Memory required for data: 54000076
I0413 17:53:59.657285 11192 layer_factory.hpp:77] Creating layer input_gt_boxes_input_2_split
I0413 17:53:59.657291 11192 net.cpp:100] Creating Layer input_gt_boxes_input_2_split
I0413 17:53:59.657294 11192 net.cpp:434] input_gt_boxes_input_2_split <- input_gt_boxes
I0413 17:53:59.657299 11192 net.cpp:408] input_gt_boxes_input_2_split -> input_gt_boxes_input_2_split_0
I0413 17:53:59.657308 11192 net.cpp:408] input_gt_boxes_input_2_split -> input_gt_boxes_input_2_split_1
I0413 17:53:59.657335 11192 net.cpp:150] Setting up input_gt_boxes_input_2_split
I0413 17:53:59.657342 11192 net.cpp:157] Top shape: 1 5 (5)
I0413 17:53:59.657346 11192 net.cpp:157] Top shape: 1 5 (5)
I0413 17:53:59.657349 11192 net.cpp:165] Memory required for data: 54000116
I0413 17:53:59.657352 11192 layer_factory.hpp:77] Creating layer conv1_1
I0413 17:53:59.657364 11192 net.cpp:100] Creating Layer conv1_1
I0413 17:53:59.657368 11192 net.cpp:434] conv1_1 <- input_data_input_0_split_0
I0413 17:53:59.657373 11192 net.cpp:408] conv1_1 -> conv1_1
I0413 17:53:59.660401 11192 net.cpp:150] Setting up conv1_1
I0413 17:53:59.660436 11192 net.cpp:157] Top shape: 1 64 1000 1500 (96000000)
I0413 17:53:59.660440 11192 net.cpp:165] Memory required for data: 438000116
I0413 17:53:59.660459 11192 layer_factory.hpp:77] Creating layer relu1_1
I0413 17:53:59.660470 11192 net.cpp:100] Creating Layer relu1_1
I0413 17:53:59.660475 11192 net.cpp:434] relu1_1 <- conv1_1
I0413 17:53:59.660485 11192 net.cpp:395] relu1_1 -> conv1_1 (in-place)
I0413 17:53:59.660496 11192 net.cpp:150] Setting up relu1_1
I0413 17:53:59.660501 11192 net.cpp:157] Top shape: 1 64 1000 1500 (96000000)
I0413 17:53:59.660504 11192 net.cpp:165] Memory required for data: 822000116
I0413 17:53:59.660507 11192 layer_factory.hpp:77] Creating layer conv1_2
I0413 17:53:59.660517 11192 net.cpp:100] Creating Layer conv1_2
I0413 17:53:59.660521 11192 net.cpp:434] conv1_2 <- conv1_1
I0413 17:53:59.660526 11192 net.cpp:408] conv1_2 -> conv1_2
I0413 17:53:59.664124 11192 net.cpp:150] Setting up conv1_2
I0413 17:53:59.664165 11192 net.cpp:157] Top shape: 1 64 1000 1500 (96000000)
I0413 17:53:59.664170 11192 net.cpp:165] Memory required for data: 1206000116
I0413 17:53:59.664196 11192 layer_factory.hpp:77] Creating layer relu1_2
I0413 17:53:59.664212 11192 net.cpp:100] Creating Layer relu1_2
I0413 17:53:59.664222 11192 net.cpp:434] relu1_2 <- conv1_2
I0413 17:53:59.664235 11192 net.cpp:395] relu1_2 -> conv1_2 (in-place)
I0413 17:53:59.664252 11192 net.cpp:150] Setting up relu1_2
I0413 17:53:59.664261 11192 net.cpp:157] Top shape: 1 64 1000 1500 (96000000)
I0413 17:53:59.664268 11192 net.cpp:165] Memory required for data: 1590000116
I0413 17:53:59.664275 11192 layer_factory.hpp:77] Creating layer pool1
I0413 17:53:59.664293 11192 net.cpp:100] Creating Layer pool1
I0413 17:53:59.664299 11192 net.cpp:434] pool1 <- conv1_2
I0413 17:53:59.664309 11192 net.cpp:408] pool1 -> pool1
I0413 17:53:59.664387 11192 net.cpp:150] Setting up pool1
I0413 17:53:59.664398 11192 net.cpp:157] Top shape: 1 64 500 750 (24000000)
I0413 17:53:59.664404 11192 net.cpp:165] Memory required for data: 1686000116
I0413 17:53:59.664412 11192 layer_factory.hpp:77] Creating layer conv2_1
I0413 17:53:59.664429 11192 net.cpp:100] Creating Layer conv2_1
I0413 17:53:59.664436 11192 net.cpp:434] conv2_1 <- pool1
I0413 17:53:59.664446 11192 net.cpp:408] conv2_1 -> conv2_1
I0413 17:53:59.665844 11192 net.cpp:150] Setting up conv2_1
I0413 17:53:59.665908 11192 net.cpp:157] Top shape: 1 128 500 750 (48000000)
I0413 17:53:59.665916 11192 net.cpp:165] Memory required for data: 1878000116
I0413 17:53:59.665938 11192 layer_factory.hpp:77] Creating layer relu2_1
I0413 17:53:59.665956 11192 net.cpp:100] Creating Layer relu2_1
I0413 17:53:59.665964 11192 net.cpp:434] relu2_1 <- conv2_1
I0413 17:53:59.665977 11192 net.cpp:395] relu2_1 -> conv2_1 (in-place)
I0413 17:53:59.665992 11192 net.cpp:150] Setting up relu2_1
I0413 17:53:59.666000 11192 net.cpp:157] Top shape: 1 128 500 750 (48000000)
I0413 17:53:59.666008 11192 net.cpp:165] Memory required for data: 2070000116
I0413 17:53:59.666014 11192 layer_factory.hpp:77] Creating layer conv2_2
I0413 17:53:59.666031 11192 net.cpp:100] Creating Layer conv2_2
I0413 17:53:59.666038 11192 net.cpp:434] conv2_2 <- conv2_1
I0413 17:53:59.666050 11192 net.cpp:408] conv2_2 -> conv2_2
I0413 17:53:59.667059 11192 net.cpp:150] Setting up conv2_2
I0413 17:53:59.667081 11192 net.cpp:157] Top shape: 1 128 500 750 (48000000)
I0413 17:53:59.667088 11192 net.cpp:165] Memory required for data: 2262000116
I0413 17:53:59.667100 11192 layer_factory.hpp:77] Creating layer relu2_2
I0413 17:53:59.667112 11192 net.cpp:100] Creating Layer relu2_2
I0413 17:53:59.667121 11192 net.cpp:434] relu2_2 <- conv2_2
I0413 17:53:59.667135 11192 net.cpp:395] relu2_2 -> conv2_2 (in-place)
I0413 17:53:59.667146 11192 net.cpp:150] Setting up relu2_2
I0413 17:53:59.667156 11192 net.cpp:157] Top shape: 1 128 500 750 (48000000)
I0413 17:53:59.667163 11192 net.cpp:165] Memory required for data: 2454000116
I0413 17:53:59.667170 11192 layer_factory.hpp:77] Creating layer pool2
I0413 17:53:59.667179 11192 net.cpp:100] Creating Layer pool2
I0413 17:53:59.667186 11192 net.cpp:434] pool2 <- conv2_2
I0413 17:53:59.667197 11192 net.cpp:408] pool2 -> pool2
I0413 17:53:59.667249 11192 net.cpp:150] Setting up pool2
I0413 17:53:59.667259 11192 net.cpp:157] Top shape: 1 128 250 375 (12000000)
I0413 17:53:59.667265 11192 net.cpp:165] Memory required for data: 2502000116
I0413 17:53:59.667273 11192 layer_factory.hpp:77] Creating layer conv3_1
I0413 17:53:59.667287 11192 net.cpp:100] Creating Layer conv3_1
I0413 17:53:59.667294 11192 net.cpp:434] conv3_1 <- pool2
I0413 17:53:59.667306 11192 net.cpp:408] conv3_1 -> conv3_1
I0413 17:53:59.668426 11192 net.cpp:150] Setting up conv3_1
I0413 17:53:59.668457 11192 net.cpp:157] Top shape: 1 256 250 375 (24000000)
I0413 17:53:59.668462 11192 net.cpp:165] Memory required for data: 2598000116
I0413 17:53:59.668480 11192 layer_factory.hpp:77] Creating layer relu3_1
I0413 17:53:59.668495 11192 net.cpp:100] Creating Layer relu3_1
I0413 17:53:59.668505 11192 net.cpp:434] relu3_1 <- conv3_1
I0413 17:53:59.668517 11192 net.cpp:395] relu3_1 -> conv3_1 (in-place)
I0413 17:53:59.668530 11192 net.cpp:150] Setting up relu3_1
I0413 17:53:59.668540 11192 net.cpp:157] Top shape: 1 256 250 375 (24000000)
I0413 17:53:59.668547 11192 net.cpp:165] Memory required for data: 2694000116
I0413 17:53:59.668553 11192 layer_factory.hpp:77] Creating layer conv3_2
I0413 17:53:59.668570 11192 net.cpp:100] Creating Layer conv3_2
I0413 17:53:59.668577 11192 net.cpp:434] conv3_2 <- conv3_1
I0413 17:53:59.668589 11192 net.cpp:408] conv3_2 -> conv3_2
I0413 17:53:59.669827 11192 net.cpp:150] Setting up conv3_2
I0413 17:53:59.669857 11192 net.cpp:157] Top shape: 1 256 250 375 (24000000)
I0413 17:53:59.669862 11192 net.cpp:165] Memory required for data: 2790000116
I0413 17:53:59.669875 11192 layer_factory.hpp:77] Creating layer relu3_2
I0413 17:53:59.669890 11192 net.cpp:100] Creating Layer relu3_2
I0413 17:53:59.669898 11192 net.cpp:434] relu3_2 <- conv3_2
I0413 17:53:59.669909 11192 net.cpp:395] relu3_2 -> conv3_2 (in-place)
I0413 17:53:59.669924 11192 net.cpp:150] Setting up relu3_2
I0413 17:53:59.669932 11192 net.cpp:157] Top shape: 1 256 250 375 (24000000)
I0413 17:53:59.669939 11192 net.cpp:165] Memory required for data: 2886000116
I0413 17:53:59.669946 11192 layer_factory.hpp:77] Creating layer conv3_3
I0413 17:53:59.669963 11192 net.cpp:100] Creating Layer conv3_3
I0413 17:53:59.669970 11192 net.cpp:434] conv3_3 <- conv3_2
I0413 17:53:59.669981 11192 net.cpp:408] conv3_3 -> conv3_3
I0413 17:53:59.671924 11192 net.cpp:150] Setting up conv3_3
I0413 17:53:59.671962 11192 net.cpp:157] Top shape: 1 256 250 375 (24000000)
I0413 17:53:59.671968 11192 net.cpp:165] Memory required for data: 2982000116
I0413 17:53:59.671983 11192 layer_factory.hpp:77] Creating layer relu3_3
I0413 17:53:59.671996 11192 net.cpp:100] Creating Layer relu3_3
I0413 17:53:59.672003 11192 net.cpp:434] relu3_3 <- conv3_3
I0413 17:53:59.672013 11192 net.cpp:395] relu3_3 -> conv3_3 (in-place)
I0413 17:53:59.672027 11192 net.cpp:150] Setting up relu3_3
I0413 17:53:59.672035 11192 net.cpp:157] Top shape: 1 256 250 375 (24000000)
I0413 17:53:59.672040 11192 net.cpp:165] Memory required for data: 3078000116
I0413 17:53:59.672045 11192 layer_factory.hpp:77] Creating layer pool3
I0413 17:53:59.672055 11192 net.cpp:100] Creating Layer pool3
I0413 17:53:59.672060 11192 net.cpp:434] pool3 <- conv3_3
I0413 17:53:59.672068 11192 net.cpp:408] pool3 -> pool3
I0413 17:53:59.672129 11192 net.cpp:150] Setting up pool3
I0413 17:53:59.672163 11192 net.cpp:157] Top shape: 1 256 125 188 (6016000)
I0413 17:53:59.672180 11192 net.cpp:165] Memory required for data: 3102064116
I0413 17:53:59.672188 11192 layer_factory.hpp:77] Creating layer conv4_1
I0413 17:53:59.672206 11192 net.cpp:100] Creating Layer conv4_1
I0413 17:53:59.672215 11192 net.cpp:434] conv4_1 <- pool3
I0413 17:53:59.672226 11192 net.cpp:408] conv4_1 -> conv4_1
I0413 17:53:59.674831 11192 net.cpp:150] Setting up conv4_1
I0413 17:53:59.674870 11192 net.cpp:157] Top shape: 1 512 125 188 (12032000)
I0413 17:53:59.674875 11192 net.cpp:165] Memory required for data: 3150192116
I0413 17:53:59.674890 11192 layer_factory.hpp:77] Creating layer relu4_1
I0413 17:53:59.674913 11192 net.cpp:100] Creating Layer relu4_1
I0413 17:53:59.674924 11192 net.cpp:434] relu4_1 <- conv4_1
I0413 17:53:59.674937 11192 net.cpp:395] relu4_1 -> conv4_1 (in-place)
I0413 17:53:59.674952 11192 net.cpp:150] Setting up relu4_1
I0413 17:53:59.674960 11192 net.cpp:157] Top shape: 1 512 125 188 (12032000)
I0413 17:53:59.674968 11192 net.cpp:165] Memory required for data: 3198320116
I0413 17:53:59.674974 11192 layer_factory.hpp:77] Creating layer conv4_2
I0413 17:53:59.674991 11192 net.cpp:100] Creating Layer conv4_2
I0413 17:53:59.674998 11192 net.cpp:434] conv4_2 <- conv4_1
I0413 17:53:59.675009 11192 net.cpp:408] conv4_2 -> conv4_2
I0413 17:53:59.679599 11192 net.cpp:150] Setting up conv4_2
I0413 17:53:59.679636 11192 net.cpp:157] Top shape: 1 512 125 188 (12032000)
I0413 17:53:59.679641 11192 net.cpp:165] Memory required for data: 3246448116
I0413 17:53:59.679667 11192 layer_factory.hpp:77] Creating layer relu4_2
I0413 17:53:59.679683 11192 net.cpp:100] Creating Layer relu4_2
I0413 17:53:59.679692 11192 net.cpp:434] relu4_2 <- conv4_2
I0413 17:53:59.679708 11192 net.cpp:395] relu4_2 -> conv4_2 (in-place)
I0413 17:53:59.679723 11192 net.cpp:150] Setting up relu4_2
I0413 17:53:59.679731 11192 net.cpp:157] Top shape: 1 512 125 188 (12032000)
I0413 17:53:59.679739 11192 net.cpp:165] Memory required for data: 3294576116
I0413 17:53:59.679745 11192 layer_factory.hpp:77] Creating layer conv4_3
I0413 17:53:59.679760 11192 net.cpp:100] Creating Layer conv4_3
I0413 17:53:59.679766 11192 net.cpp:434] conv4_3 <- conv4_2
I0413 17:53:59.679778 11192 net.cpp:408] conv4_3 -> conv4_3
I0413 17:53:59.684680 11192 net.cpp:150] Setting up conv4_3
I0413 17:53:59.684716 11192 net.cpp:157] Top shape: 1 512 125 188 (12032000)
I0413 17:53:59.684721 11192 net.cpp:165] Memory required for data: 3342704116
I0413 17:53:59.684746 11192 layer_factory.hpp:77] Creating layer relu4_3
I0413 17:53:59.684762 11192 net.cpp:100] Creating Layer relu4_3
I0413 17:53:59.684770 11192 net.cpp:434] relu4_3 <- conv4_3
I0413 17:53:59.684784 11192 net.cpp:395] relu4_3 -> conv4_3 (in-place)
I0413 17:53:59.684798 11192 net.cpp:150] Setting up relu4_3
I0413 17:53:59.684808 11192 net.cpp:157] Top shape: 1 512 125 188 (12032000)
I0413 17:53:59.684815 11192 net.cpp:165] Memory required for data: 3390832116
I0413 17:53:59.684823 11192 layer_factory.hpp:77] Creating layer pool4
I0413 17:53:59.684837 11192 net.cpp:100] Creating Layer pool4
I0413 17:53:59.684844 11192 net.cpp:434] pool4 <- conv4_3
I0413 17:53:59.684854 11192 net.cpp:408] pool4 -> pool4
I0413 17:53:59.684897 11192 net.cpp:150] Setting up pool4
I0413 17:53:59.684917 11192 net.cpp:157] Top shape: 1 512 63 94 (3032064)
I0413 17:53:59.684923 11192 net.cpp:165] Memory required for data: 3402960372
I0413 17:53:59.684931 11192 layer_factory.hpp:77] Creating layer conv5_1
I0413 17:53:59.684947 11192 net.cpp:100] Creating Layer conv5_1
I0413 17:53:59.684954 11192 net.cpp:434] conv5_1 <- pool4
I0413 17:53:59.684964 11192 net.cpp:408] conv5_1 -> conv5_1
I0413 17:53:59.689960 11192 net.cpp:150] Setting up conv5_1
I0413 17:53:59.689998 11192 net.cpp:157] Top shape: 1 512 63 94 (3032064)
I0413 17:53:59.690006 11192 net.cpp:165] Memory required for data: 3415088628
I0413 17:53:59.690021 11192 layer_factory.hpp:77] Creating layer relu5_1
I0413 17:53:59.690039 11192 net.cpp:100] Creating Layer relu5_1
I0413 17:53:59.690048 11192 net.cpp:434] relu5_1 <- conv5_1
I0413 17:53:59.690062 11192 net.cpp:395] relu5_1 -> conv5_1 (in-place)
I0413 17:53:59.690075 11192 net.cpp:150] Setting up relu5_1
I0413 17:53:59.690084 11192 net.cpp:157] Top shape: 1 512 63 94 (3032064)
I0413 17:53:59.690091 11192 net.cpp:165] Memory required for data: 3427216884
I0413 17:53:59.690099 11192 layer_factory.hpp:77] Creating layer conv5_2
I0413 17:53:59.690114 11192 net.cpp:100] Creating Layer conv5_2
I0413 17:53:59.690121 11192 net.cpp:434] conv5_2 <- conv5_1
I0413 17:53:59.690134 11192 net.cpp:408] conv5_2 -> conv5_2
I0413 17:53:59.694355 11192 net.cpp:150] Setting up conv5_2
I0413 17:53:59.694396 11192 net.cpp:157] Top shape: 1 512 63 94 (3032064)
I0413 17:53:59.694401 11192 net.cpp:165] Memory required for data: 3439345140
I0413 17:53:59.694417 11192 layer_factory.hpp:77] Creating layer relu5_2
I0413 17:53:59.694432 11192 net.cpp:100] Creating Layer relu5_2
I0413 17:53:59.694443 11192 net.cpp:434] relu5_2 <- conv5_2
I0413 17:53:59.694455 11192 net.cpp:395] relu5_2 -> conv5_2 (in-place)
I0413 17:53:59.694470 11192 net.cpp:150] Setting up relu5_2
I0413 17:53:59.694479 11192 net.cpp:157] Top shape: 1 512 63 94 (3032064)
I0413 17:53:59.694486 11192 net.cpp:165] Memory required for data: 3451473396
I0413 17:53:59.694492 11192 layer_factory.hpp:77] Creating layer conv5_3
I0413 17:53:59.694514 11192 net.cpp:100] Creating Layer conv5_3
I0413 17:53:59.694521 11192 net.cpp:434] conv5_3 <- conv5_2
I0413 17:53:59.694532 11192 net.cpp:408] conv5_3 -> conv5_3
I0413 17:53:59.698770 11192 net.cpp:150] Setting up conv5_3
I0413 17:53:59.698812 11192 net.cpp:157] Top shape: 1 512 63 94 (3032064)
I0413 17:53:59.698818 11192 net.cpp:165] Memory required for data: 3463601652
I0413 17:53:59.698834 11192 layer_factory.hpp:77] Creating layer relu5_3
I0413 17:53:59.698848 11192 net.cpp:100] Creating Layer relu5_3
I0413 17:53:59.698858 11192 net.cpp:434] relu5_3 <- conv5_3
I0413 17:53:59.698873 11192 net.cpp:395] relu5_3 -> conv5_3 (in-place)
I0413 17:53:59.698887 11192 net.cpp:150] Setting up relu5_3
I0413 17:53:59.698895 11192 net.cpp:157] Top shape: 1 512 63 94 (3032064)
I0413 17:53:59.698904 11192 net.cpp:165] Memory required for data: 3475729908
I0413 17:53:59.698909 11192 layer_factory.hpp:77] Creating layer conv5_3_relu5_3_0_split
I0413 17:53:59.698922 11192 net.cpp:100] Creating Layer conv5_3_relu5_3_0_split
I0413 17:53:59.698930 11192 net.cpp:434] conv5_3_relu5_3_0_split <- conv5_3
I0413 17:53:59.698940 11192 net.cpp:408] conv5_3_relu5_3_0_split -> conv5_3_relu5_3_0_split_0
I0413 17:53:59.698952 11192 net.cpp:408] conv5_3_relu5_3_0_split -> conv5_3_relu5_3_0_split_1
I0413 17:53:59.698993 11192 net.cpp:150] Setting up conv5_3_relu5_3_0_split
I0413 17:53:59.699003 11192 net.cpp:157] Top shape: 1 512 63 94 (3032064)
I0413 17:53:59.699013 11192 net.cpp:157] Top shape: 1 512 63 94 (3032064)
I0413 17:53:59.699020 11192 net.cpp:165] Memory required for data: 3499986420
I0413 17:53:59.699028 11192 layer_factory.hpp:77] Creating layer rpn_big_conv1
I0413 17:53:59.699048 11192 net.cpp:100] Creating Layer rpn_big_conv1
I0413 17:53:59.699055 11192 net.cpp:434] rpn_big_conv1 <- conv5_3_relu5_3_0_split_0
I0413 17:53:59.699069 11192 net.cpp:408] rpn_big_conv1 -> rpn_big_conv1
I0413 17:53:59.725599 11192 net.cpp:150] Setting up rpn_big_conv1
I0413 17:53:59.725632 11192 net.cpp:157] Top shape: 1 512 63 94 (3032064)
I0413 17:53:59.725638 11192 net.cpp:165] Memory required for data: 3512114676
I0413 17:53:59.725661 11192 layer_factory.hpp:77] Creating layer rpn_big_conv1_relu
I0413 17:53:59.725677 11192 net.cpp:100] Creating Layer rpn_big_conv1_relu
I0413 17:53:59.725685 11192 net.cpp:434] rpn_big_conv1_relu <- rpn_big_conv1
I0413 17:53:59.725700 11192 net.cpp:395] rpn_big_conv1_relu -> rpn_big_conv1 (in-place)
I0413 17:53:59.725715 11192 net.cpp:150] Setting up rpn_big_conv1_relu
I0413 17:53:59.725726 11192 net.cpp:157] Top shape: 1 512 63 94 (3032064)
I0413 17:53:59.725733 11192 net.cpp:165] Memory required for data: 3524242932
I0413 17:53:59.725740 11192 layer_factory.hpp:77] Creating layer rpn_big_conv2
I0413 17:53:59.725757 11192 net.cpp:100] Creating Layer rpn_big_conv2
I0413 17:53:59.725764 11192 net.cpp:434] rpn_big_conv2 <- rpn_big_conv1
I0413 17:53:59.725776 11192 net.cpp:408] rpn_big_conv2 -> rpn_big_conv2
I0413 17:53:59.751538 11192 net.cpp:150] Setting up rpn_big_conv2
I0413 17:53:59.751569 11192 net.cpp:157] Top shape: 1 512 63 94 (3032064)
I0413 17:53:59.751576 11192 net.cpp:165] Memory required for data: 3536371188
I0413 17:53:59.751598 11192 layer_factory.hpp:77] Creating layer rpn_big_conv2_relu
I0413 17:53:59.751616 11192 net.cpp:100] Creating Layer rpn_big_conv2_relu
I0413 17:53:59.751626 11192 net.cpp:434] rpn_big_conv2_relu <- rpn_big_conv2
I0413 17:53:59.751639 11192 net.cpp:395] rpn_big_conv2_relu -> rpn_big_conv2 (in-place)
I0413 17:53:59.751654 11192 net.cpp:150] Setting up rpn_big_conv2_relu
I0413 17:53:59.751663 11192 net.cpp:157] Top shape: 1 512 63 94 (3032064)
I0413 17:53:59.751670 11192 net.cpp:165] Memory required for data: 3548499444
I0413 17:53:59.751677 11192 layer_factory.hpp:77] Creating layer rpn_big_conv2_drop
I0413 17:53:59.751689 11192 net.cpp:100] Creating Layer rpn_big_conv2_drop
I0413 17:53:59.751698 11192 net.cpp:434] rpn_big_conv2_drop <- rpn_big_conv2
I0413 17:53:59.751708 11192 net.cpp:395] rpn_big_conv2_drop -> rpn_big_conv2 (in-place)
I0413 17:53:59.751739 11192 net.cpp:150] Setting up rpn_big_conv2_drop
I0413 17:53:59.751750 11192 net.cpp:157] Top shape: 1 512 63 94 (3032064)
I0413 17:53:59.751756 11192 net.cpp:165] Memory required for data: 3560627700
I0413 17:53:59.751763 11192 layer_factory.hpp:77] Creating layer rpn_big_conv2_rpn_big_conv2_drop_0_split
I0413 17:53:59.751776 11192 net.cpp:100] Creating Layer rpn_big_conv2_rpn_big_conv2_drop_0_split
I0413 17:53:59.751783 11192 net.cpp:434] rpn_big_conv2_rpn_big_conv2_drop_0_split <- rpn_big_conv2
I0413 17:53:59.751793 11192 net.cpp:408] rpn_big_conv2_rpn_big_conv2_drop_0_split -> rpn_big_conv2_rpn_big_conv2_drop_0_split_0
I0413 17:53:59.751809 11192 net.cpp:408] rpn_big_conv2_rpn_big_conv2_drop_0_split -> rpn_big_conv2_rpn_big_conv2_drop_0_split_1
I0413 17:53:59.751854 11192 net.cpp:150] Setting up rpn_big_conv2_rpn_big_conv2_drop_0_split
I0413 17:53:59.751864 11192 net.cpp:157] Top shape: 1 512 63 94 (3032064)
I0413 17:53:59.751873 11192 net.cpp:157] Top shape: 1 512 63 94 (3032064)
I0413 17:53:59.751880 11192 net.cpp:165] Memory required for data: 3584884212
I0413 17:53:59.751888 11192 layer_factory.hpp:77] Creating layer rpn_big_output_cls
I0413 17:53:59.751905 11192 net.cpp:100] Creating Layer rpn_big_output_cls
I0413 17:53:59.751914 11192 net.cpp:434] rpn_big_output_cls <- rpn_big_conv2_rpn_big_conv2_drop_0_split_0
I0413 17:53:59.751924 11192 net.cpp:408] rpn_big_output_cls -> rpn_big_output_cls
I0413 17:53:59.771540 11192 net.cpp:150] Setting up rpn_big_output_cls
I0413 17:53:59.771615 11192 net.cpp:157] Top shape: 1 384 63 94 (2274048)
I0413 17:53:59.771637 11192 net.cpp:165] Memory required for data: 3593980404
I0413 17:53:59.771666 11192 layer_factory.hpp:77] Creating layer rpn_big_output_cls_relu
I0413 17:53:59.771694 11192 net.cpp:100] Creating Layer rpn_big_output_cls_relu
I0413 17:53:59.771715 11192 net.cpp:434] rpn_big_output_cls_relu <- rpn_big_output_cls
I0413 17:53:59.771740 11192 net.cpp:395] rpn_big_output_cls_relu -> rpn_big_output_cls (in-place)
I0413 17:53:59.771767 11192 net.cpp:150] Setting up rpn_big_output_cls_relu
I0413 17:53:59.771777 11192 net.cpp:157] Top shape: 1 384 63 94 (2274048)
I0413 17:53:59.771783 11192 net.cpp:165] Memory required for data: 3603076596
I0413 17:53:59.771790 11192 layer_factory.hpp:77] Creating layer rpn_big_cls_score
I0413 17:53:59.771808 11192 net.cpp:100] Creating Layer rpn_big_cls_score
I0413 17:53:59.771817 11192 net.cpp:434] rpn_big_cls_score <- rpn_big_output_cls
I0413 17:53:59.771831 11192 net.cpp:408] rpn_big_cls_score -> rpn_big_cls_score
I0413 17:53:59.774369 11192 net.cpp:150] Setting up rpn_big_cls_score
I0413 17:53:59.774392 11192 net.cpp:157] Top shape: 1 52 61 92 (291824)
I0413 17:53:59.774399 11192 net.cpp:165] Memory required for data: 3604243892
I0413 17:53:59.774428 11192 layer_factory.hpp:77] Creating layer rpn_big_cls_score_rpn_big_cls_score_0_split
I0413 17:53:59.774444 11192 net.cpp:100] Creating Layer rpn_big_cls_score_rpn_big_cls_score_0_split
I0413 17:53:59.774454 11192 net.cpp:434] rpn_big_cls_score_rpn_big_cls_score_0_split <- rpn_big_cls_score
I0413 17:53:59.774466 11192 net.cpp:408] rpn_big_cls_score_rpn_big_cls_score_0_split -> rpn_big_cls_score_rpn_big_cls_score_0_split_0
I0413 17:53:59.774482 11192 net.cpp:408] rpn_big_cls_score_rpn_big_cls_score_0_split -> rpn_big_cls_score_rpn_big_cls_score_0_split_1
I0413 17:53:59.774524 11192 net.cpp:150] Setting up rpn_big_cls_score_rpn_big_cls_score_0_split
I0413 17:53:59.774535 11192 net.cpp:157] Top shape: 1 52 61 92 (291824)
I0413 17:53:59.774545 11192 net.cpp:157] Top shape: 1 52 61 92 (291824)
I0413 17:53:59.774552 11192 net.cpp:165] Memory required for data: 3606578484
I0413 17:53:59.774559 11192 layer_factory.hpp:77] Creating layer rpn_big_cls_score_reshape
I0413 17:53:59.774572 11192 net.cpp:100] Creating Layer rpn_big_cls_score_reshape
I0413 17:53:59.774580 11192 net.cpp:434] rpn_big_cls_score_reshape <- rpn_big_cls_score_rpn_big_cls_score_0_split_0
I0413 17:53:59.774592 11192 net.cpp:408] rpn_big_cls_score_reshape -> rpn_big_cls_score_reshape
I0413 17:53:59.774627 11192 net.cpp:150] Setting up rpn_big_cls_score_reshape
I0413 17:53:59.774637 11192 net.cpp:157] Top shape: 1 2 1586 92 (291824)
I0413 17:53:59.774643 11192 net.cpp:165] Memory required for data: 3607745780
I0413 17:53:59.774652 11192 layer_factory.hpp:77] Creating layer rpn_big_cls_score_reshape_rpn_big_cls_score_reshape_0_split
I0413 17:53:59.774662 11192 net.cpp:100] Creating Layer rpn_big_cls_score_reshape_rpn_big_cls_score_reshape_0_split
I0413 17:53:59.774670 11192 net.cpp:434] rpn_big_cls_score_reshape_rpn_big_cls_score_reshape_0_split <- rpn_big_cls_score_reshape
I0413 17:53:59.774682 11192 net.cpp:408] rpn_big_cls_score_reshape_rpn_big_cls_score_reshape_0_split -> rpn_big_cls_score_reshape_rpn_big_cls_score_reshape_0_split_0
I0413 17:53:59.774695 11192 net.cpp:408] rpn_big_cls_score_reshape_rpn_big_cls_score_reshape_0_split -> rpn_big_cls_score_reshape_rpn_big_cls_score_reshape_0_split_1
I0413 17:53:59.774735 11192 net.cpp:150] Setting up rpn_big_cls_score_reshape_rpn_big_cls_score_reshape_0_split
I0413 17:53:59.774745 11192 net.cpp:157] Top shape: 1 2 1586 92 (291824)
I0413 17:53:59.774755 11192 net.cpp:157] Top shape: 1 2 1586 92 (291824)
I0413 17:53:59.774761 11192 net.cpp:165] Memory required for data: 3610080372
I0413 17:53:59.774767 11192 layer_factory.hpp:77] Creating layer rpn_big_cls_prob
I0413 17:53:59.774780 11192 net.cpp:100] Creating Layer rpn_big_cls_prob
I0413 17:53:59.774786 11192 net.cpp:434] rpn_big_cls_prob <- rpn_big_cls_score_reshape_rpn_big_cls_score_reshape_0_split_0
I0413 17:53:59.774798 11192 net.cpp:408] rpn_big_cls_prob -> rpn_big_cls_prob
I0413 17:53:59.774858 11192 net.cpp:150] Setting up rpn_big_cls_prob
I0413 17:53:59.774868 11192 net.cpp:157] Top shape: 1 2 1586 92 (291824)
I0413 17:53:59.774874 11192 net.cpp:165] Memory required for data: 3611247668
I0413 17:53:59.774883 11192 layer_factory.hpp:77] Creating layer rpn_big_cls_prob_reshape
I0413 17:53:59.774893 11192 net.cpp:100] Creating Layer rpn_big_cls_prob_reshape
I0413 17:53:59.774899 11192 net.cpp:434] rpn_big_cls_prob_reshape <- rpn_big_cls_prob
I0413 17:53:59.774909 11192 net.cpp:408] rpn_big_cls_prob_reshape -> rpn_big_cls_prob_reshape
I0413 17:53:59.774940 11192 net.cpp:150] Setting up rpn_big_cls_prob_reshape
I0413 17:53:59.774950 11192 net.cpp:157] Top shape: 1 52 61 92 (291824)
I0413 17:53:59.774955 11192 net.cpp:165] Memory required for data: 3612414964
I0413 17:53:59.774963 11192 layer_factory.hpp:77] Creating layer rpn_big_cls_prob_reshape_rpn_big_cls_prob_reshape_0_split
I0413 17:53:59.774974 11192 net.cpp:100] Creating Layer rpn_big_cls_prob_reshape_rpn_big_cls_prob_reshape_0_split
I0413 17:53:59.774982 11192 net.cpp:434] rpn_big_cls_prob_reshape_rpn_big_cls_prob_reshape_0_split <- rpn_big_cls_prob_reshape
I0413 17:53:59.774992 11192 net.cpp:408] rpn_big_cls_prob_reshape_rpn_big_cls_prob_reshape_0_split -> rpn_big_cls_prob_reshape_rpn_big_cls_prob_reshape_0_split_0
I0413 17:53:59.775007 11192 net.cpp:408] rpn_big_cls_prob_reshape_rpn_big_cls_prob_reshape_0_split -> rpn_big_cls_prob_reshape_rpn_big_cls_prob_reshape_0_split_1
I0413 17:53:59.775043 11192 net.cpp:150] Setting up rpn_big_cls_prob_reshape_rpn_big_cls_prob_reshape_0_split
I0413 17:53:59.775053 11192 net.cpp:157] Top shape: 1 52 61 92 (291824)
I0413 17:53:59.775060 11192 net.cpp:157] Top shape: 1 52 61 92 (291824)
I0413 17:53:59.775068 11192 net.cpp:165] Memory required for data: 3614749556
I0413 17:53:59.775074 11192 layer_factory.hpp:77] Creating layer rpn_big_anchor_target
I0413 17:53:59.776525 11192 net.cpp:100] Creating Layer rpn_big_anchor_target
I0413 17:53:59.776546 11192 net.cpp:434] rpn_big_anchor_target <- rpn_big_cls_score_rpn_big_cls_score_0_split_1
I0413 17:53:59.776557 11192 net.cpp:434] rpn_big_anchor_target <- input_gt_boxes_input_2_split_0
I0413 17:53:59.776566 11192 net.cpp:434] rpn_big_anchor_target <- input_ignored_boxes
I0413 17:53:59.776574 11192 net.cpp:434] rpn_big_anchor_target <- input_im_info_input_1_split_0
I0413 17:53:59.776582 11192 net.cpp:434] rpn_big_anchor_target <- input_data_input_0_split_1
I0413 17:53:59.776593 11192 net.cpp:434] rpn_big_anchor_target <- rpn_big_cls_prob_reshape_rpn_big_cls_prob_reshape_0_split_0
I0413 17:53:59.776605 11192 net.cpp:408] rpn_big_anchor_target -> rpn_big_anchor_target_labels
I0413 17:53:59.776623 11192 net.cpp:408] rpn_big_anchor_target -> rpn_big_anchor_target_bbox_targets
I0413 17:53:59.776638 11192 net.cpp:408] rpn_big_anchor_target -> rpn_big_anchor_target_inside_weights
I0413 17:53:59.776653 11192 net.cpp:408] rpn_big_anchor_target -> rpn_big_anchor_target_outside_weights
I0413 17:53:59.781635 11192 net.cpp:150] Setting up rpn_big_anchor_target
I0413 17:53:59.781666 11192 net.cpp:157] Top shape: 1 1 1586 92 (145912)
I0413 17:53:59.781673 11192 net.cpp:157] Top shape: 1 104 61 92 (583648)
I0413 17:53:59.781682 11192 net.cpp:157] Top shape: 1 104 61 92 (583648)
I0413 17:53:59.781688 11192 net.cpp:157] Top shape: 1 104 61 92 (583648)
I0413 17:53:59.781693 11192 net.cpp:165] Memory required for data: 3622336980
I0413 17:53:59.781703 11192 layer_factory.hpp:77] Creating layer rpn_big_loss_cls
I0413 17:53:59.781723 11192 net.cpp:100] Creating Layer rpn_big_loss_cls
I0413 17:53:59.781731 11192 net.cpp:434] rpn_big_loss_cls <- rpn_big_cls_score_reshape_rpn_big_cls_score_reshape_0_split_1
I0413 17:53:59.781743 11192 net.cpp:434] rpn_big_loss_cls <- rpn_big_anchor_target_labels
I0413 17:53:59.781754 11192 net.cpp:408] rpn_big_loss_cls -> rpn_big_loss_cls
I0413 17:53:59.781777 11192 layer_factory.hpp:77] Creating layer rpn_big_loss_cls
I0413 17:53:59.784250 11192 net.cpp:150] Setting up rpn_big_loss_cls
I0413 17:53:59.784272 11192 net.cpp:157] Top shape: (1)
I0413 17:53:59.784277 11192 net.cpp:160]     with loss weight 1
I0413 17:53:59.784301 11192 net.cpp:165] Memory required for data: 3622336984
I0413 17:53:59.784310 11192 layer_factory.hpp:77] Creating layer rpn_big_output_box
I0413 17:53:59.784337 11192 net.cpp:100] Creating Layer rpn_big_output_box
I0413 17:53:59.784346 11192 net.cpp:434] rpn_big_output_box <- rpn_big_conv2_rpn_big_conv2_drop_0_split_1
I0413 17:53:59.784363 11192 net.cpp:408] rpn_big_output_box -> rpn_big_output_box
I0413 17:53:59.803268 11192 net.cpp:150] Setting up rpn_big_output_box
I0413 17:53:59.803302 11192 net.cpp:157] Top shape: 1 384 63 94 (2274048)
I0413 17:53:59.803308 11192 net.cpp:165] Memory required for data: 3631433176
I0413 17:53:59.803329 11192 layer_factory.hpp:77] Creating layer rpn_big_output_box_relu
I0413 17:53:59.803344 11192 net.cpp:100] Creating Layer rpn_big_output_box_relu
I0413 17:53:59.803354 11192 net.cpp:434] rpn_big_output_box_relu <- rpn_big_output_box
I0413 17:53:59.803369 11192 net.cpp:395] rpn_big_output_box_relu -> rpn_big_output_box (in-place)
I0413 17:53:59.803390 11192 net.cpp:150] Setting up rpn_big_output_box_relu
I0413 17:53:59.803401 11192 net.cpp:157] Top shape: 1 384 63 94 (2274048)
I0413 17:53:59.803407 11192 net.cpp:165] Memory required for data: 3640529368
I0413 17:53:59.803413 11192 layer_factory.hpp:77] Creating layer rpn_big_bbox_pred
I0413 17:53:59.803434 11192 net.cpp:100] Creating Layer rpn_big_bbox_pred
I0413 17:53:59.803443 11192 net.cpp:434] rpn_big_bbox_pred <- rpn_big_output_box
I0413 17:53:59.803458 11192 net.cpp:408] rpn_big_bbox_pred -> rpn_big_bbox_pred
I0413 17:53:59.807530 11192 net.cpp:150] Setting up rpn_big_bbox_pred
I0413 17:53:59.807548 11192 net.cpp:157] Top shape: 1 104 61 92 (583648)
I0413 17:53:59.807554 11192 net.cpp:165] Memory required for data: 3642863960
I0413 17:53:59.807574 11192 layer_factory.hpp:77] Creating layer rpn_big_bbox_pred_rpn_big_bbox_pred_0_split
I0413 17:53:59.807588 11192 net.cpp:100] Creating Layer rpn_big_bbox_pred_rpn_big_bbox_pred_0_split
I0413 17:53:59.807598 11192 net.cpp:434] rpn_big_bbox_pred_rpn_big_bbox_pred_0_split <- rpn_big_bbox_pred
I0413 17:53:59.807610 11192 net.cpp:408] rpn_big_bbox_pred_rpn_big_bbox_pred_0_split -> rpn_big_bbox_pred_rpn_big_bbox_pred_0_split_0
I0413 17:53:59.807623 11192 net.cpp:408] rpn_big_bbox_pred_rpn_big_bbox_pred_0_split -> rpn_big_bbox_pred_rpn_big_bbox_pred_0_split_1
I0413 17:53:59.807668 11192 net.cpp:150] Setting up rpn_big_bbox_pred_rpn_big_bbox_pred_0_split
I0413 17:53:59.807679 11192 net.cpp:157] Top shape: 1 104 61 92 (583648)
I0413 17:53:59.807688 11192 net.cpp:157] Top shape: 1 104 61 92 (583648)
I0413 17:53:59.807695 11192 net.cpp:165] Memory required for data: 3647533144
I0413 17:53:59.807701 11192 layer_factory.hpp:77] Creating layer rpn_big_loss_bbox
I0413 17:53:59.808061 11192 net.cpp:100] Creating Layer rpn_big_loss_bbox
I0413 17:53:59.808071 11192 net.cpp:434] rpn_big_loss_bbox <- rpn_big_bbox_pred_rpn_big_bbox_pred_0_split_0
I0413 17:53:59.808080 11192 net.cpp:434] rpn_big_loss_bbox <- rpn_big_anchor_target_bbox_targets
I0413 17:53:59.808089 11192 net.cpp:434] rpn_big_loss_bbox <- rpn_big_anchor_target_inside_weights
I0413 17:53:59.808099 11192 net.cpp:434] rpn_big_loss_bbox <- rpn_big_anchor_target_outside_weights
I0413 17:53:59.808111 11192 net.cpp:408] rpn_big_loss_bbox -> rpn_big_loss_bbox
I0413 17:53:59.810132 11192 net.cpp:150] Setting up rpn_big_loss_bbox
I0413 17:53:59.810166 11192 net.cpp:157] Top shape: 1 (1)
I0413 17:53:59.810171 11192 net.cpp:160]     with loss weight 1
I0413 17:53:59.810187 11192 net.cpp:165] Memory required for data: 3647533148
I0413 17:53:59.810196 11192 layer_factory.hpp:77] Creating layer proposal
I0413 17:53:59.810590 11192 net.cpp:100] Creating Layer proposal
I0413 17:53:59.810602 11192 net.cpp:434] proposal <- rpn_big_cls_prob_reshape_rpn_big_cls_prob_reshape_0_split_1
I0413 17:53:59.810613 11192 net.cpp:434] proposal <- rpn_big_bbox_pred_rpn_big_bbox_pred_0_split_1
I0413 17:53:59.810623 11192 net.cpp:434] proposal <- input_im_info_input_1_split_1
I0413 17:53:59.810636 11192 net.cpp:408] proposal -> rpn_rois
I0413 17:53:59.814672 11192 net.cpp:150] Setting up proposal
I0413 17:53:59.814687 11192 net.cpp:157] Top shape: 1 5 (5)
I0413 17:53:59.814693 11192 net.cpp:165] Memory required for data: 3647533168
I0413 17:53:59.814708 11192 layer_factory.hpp:77] Creating layer roi-data
I0413 17:53:59.814997 11192 net.cpp:100] Creating Layer roi-data
I0413 17:53:59.815007 11192 net.cpp:434] roi-data <- rpn_rois
I0413 17:53:59.815016 11192 net.cpp:434] roi-data <- input_gt_boxes_input_2_split_1
I0413 17:53:59.815035 11192 net.cpp:408] roi-data -> rois
I0413 17:53:59.815052 11192 net.cpp:408] roi-data -> labels
I0413 17:53:59.815066 11192 net.cpp:408] roi-data -> bbox_targets
I0413 17:53:59.815080 11192 net.cpp:408] roi-data -> bbox_inside_weights
I0413 17:53:59.815095 11192 net.cpp:408] roi-data -> bbox_outside_weights
I0413 17:53:59.815110 11192 net.cpp:408] roi-data -> pid_label
I0413 17:53:59.816014 11192 net.cpp:150] Setting up roi-data
I0413 17:53:59.816027 11192 net.cpp:157] Top shape: 1 5 (5)
I0413 17:53:59.816035 11192 net.cpp:157] Top shape: 1 1 (1)
I0413 17:53:59.816042 11192 net.cpp:157] Top shape: 1 8 (8)
I0413 17:53:59.816052 11192 net.cpp:157] Top shape: 1 8 (8)
I0413 17:53:59.816061 11192 net.cpp:157] Top shape: 1 8 (8)
I0413 17:53:59.816069 11192 net.cpp:157] Top shape: (0)
I0413 17:53:59.816076 11192 net.cpp:165] Memory required for data: 3647533288
I0413 17:53:59.816083 11192 layer_factory.hpp:77] Creating layer roi-pool
I0413 17:53:59.816099 11192 net.cpp:100] Creating Layer roi-pool
I0413 17:53:59.816107 11192 net.cpp:434] roi-pool <- conv5_3_relu5_3_0_split_1
I0413 17:53:59.816117 11192 net.cpp:434] roi-pool <- rois
I0413 17:53:59.816126 11192 net.cpp:408] roi-pool -> roi-pool
I0413 17:53:59.816140 11192 roi_pooling_layer.cpp:33] Spatial scale: 0.0625
I0413 17:53:59.816154 11192 roi_pooling_layer.cpp:34] Box scale: 1
I0413 17:53:59.816197 11192 net.cpp:150] Setting up roi-pool
I0413 17:53:59.816210 11192 net.cpp:157] Top shape: 1 512 7 7 (25088)
I0413 17:53:59.816217 11192 net.cpp:165] Memory required for data: 3647633640
I0413 17:53:59.816224 11192 net.cpp:228] roi-pool does not need backward computation.
I0413 17:53:59.816233 11192 net.cpp:228] roi-data does not need backward computation.
I0413 17:53:59.816242 11192 net.cpp:228] proposal does not need backward computation.
I0413 17:53:59.816251 11192 net.cpp:226] rpn_big_loss_bbox needs backward computation.
…
