…
I0413 18:04:22.710113 11634 solver.cpp:48] Initializing solver from parameters: 
base_lr: 0.001
display: 20
lr_policy: "multistep"
gamma: 0.1
momentum: 0.9
weight_decay: 0.0005
snapshot: 0
snapshot_prefix: "faces_example"
net_param {
  name: "GeneratedModel_13_04_2017_18_04"
  layer {
    name: "input"
    type: "Python"
    top: "input_data"
    top: "input_im_info"
    top: "input_gt_boxes"
    top: "input_ignored_boxes"
    python_param {
      module: "layers.roi_data_layer"
      layer: "RoIDataLayer"
      param_str: "{\"num_classes\": 2}"
    }
  }
  layer {
    name: "conv1_1"
    type: "Convolution"
    bottom: "input_data"
    top: "conv1_1"
    param {
      lr_mult: 0
      decay_mult: 0
    }
    param {
      lr_mult: 0
      decay_mult: 0
    }
    convolution_param {
      num_output: 64
      pad: 1
      kernel_size: 3
    }
  }
  layer {
    name: "relu1_1"
    type: "ReLU"
    bottom: "conv1_1"
    top: "conv1_1"
  }
  layer {
    name: "conv1_2"
    type: "Convolution"
    bottom: "conv1_1"
    top: "conv1_2"
    param {
      lr_mult: 0
      decay_mult: 0
    }
    param {
      lr_mult: 0
      decay_mult: 0
    }
    convolution_param {
      num_output: 64
      pad: 1
      kernel_size: 3
    }
  }
  layer {
    name: "relu1_2"
    type: "ReLU"
    bottom: "conv1_2"
    top: "conv1_2"
  }
  layer {
    name: "pool1"
    type: "Pooling"
    bottom: "conv1_2"
    top: "pool1"
    pooling_param {
      pool: MAX
      kernel_size: 2
      stride: 2
    }
  }
  layer {
    name: "conv2_1"
    type: "Convolution"
    bottom: "pool1"
    top: "conv2_1"
    param {
      lr_mult: 0
      decay_mult: 0
    }
    param {
      lr_mult: 0
      decay_mult: 0
    }
    convolution_param {
      num_output: 128
      pad: 1
      kernel_size: 3
    }
  }
  layer {
    name: "relu2_1"
    type: "ReLU"
    bottom: "conv2_1"
    top: "conv2_1"
  }
  layer {
    name: "conv2_2"
    type: "Convolution"
    bottom: "conv2_1"
    top: "conv2_2"
    param {
      lr_mult: 0
      decay_mult: 0
    }
    param {
      lr_mult: 0
      decay_mult: 0
    }
    convolution_param {
      num_output: 128
      pad: 1
      kernel_size: 3
    }
  }
  layer {
    name: "relu2_2"
    type: "ReLU"
    bottom: "conv2_2"
    top: "conv2_2"
  }
  layer {
    name: "pool2"
    type: "Pooling"
    bottom: "conv2_2"
    top: "pool2"
    pooling_param {
      pool: MAX
      kernel_size: 2
      stride: 2
    }
  }
  layer {
    name: "conv3_1"
    type: "Convolution"
    bottom: "pool2"
    top: "conv3_1"
    param {
      lr_mult: 1
    }
    param {
      lr_mult: 2
    }
    convolution_param {
      num_output: 256
      pad: 1
      kernel_size: 3
    }
  }
  layer {
    name: "relu3_1"
    type: "ReLU"
    bottom: "conv3_1"
    top: "conv3_1"
  }
  layer {
    name: "conv3_2"
    type: "Convolution"
    bottom: "conv3_1"
    top: "conv3_2"
    param {
      lr_mult: 1
    }
    param {
      lr_mult: 2
    }
    convolution_param {
      num_output: 256
      pad: 1
      kernel_size: 3
    }
  }
  layer {
    name: "relu3_2"
    type: "ReLU"
    bottom: "conv3_2"
    top: "conv3_2"
  }
  layer {
    name: "conv3_3"
    type: "Convolution"
    bottom: "conv3_2"
    top: "conv3_3"
    param {
      lr_mult: 1
    }
    param {
      lr_mult: 2
    }
    convolution_param {
      num_output: 256
      pad: 1
      kernel_size: 3
    }
  }
  layer {
    name: "relu3_3"
    type: "ReLU"
    bottom: "conv3_3"
    top: "conv3_3"
  }
  layer {
    name: "pool3"
    type: "Pooling"
    bottom: "conv3_3"
    top: "pool3"
    pooling_param {
      pool: MAX
      kernel_size: 2
      stride: 2
    }
  }
  layer {
    name: "conv4_1"
    type: "Convolution"
    bottom: "pool3"
    top: "conv4_1"
    param {
      lr_mult: 1
    }
    param {
      lr_mult: 2
    }
    convolution_param {
      num_output: 512
      pad: 1
      kernel_size: 3
    }
  }
  layer {
    name: "relu4_1"
    type: "ReLU"
    bottom: "conv4_1"
    top: "conv4_1"
  }
  layer {
    name: "conv4_2"
    type: "Convolution"
    bottom: "conv4_1"
    top: "conv4_2"
    param {
      lr_mult: 1
    }
    param {
      lr_mult: 2
    }
    convolution_param {
      num_output: 512
      pad: 1
      kernel_size: 3
    }
  }
  layer {
    name: "relu4_2"
    type: "ReLU"
    bottom: "conv4_2"
    top: "conv4_2"
  }
  layer {
    name: "conv4_3"
    type: "Convolution"
    bottom: "conv4_2"
    top: "conv4_3"
    param {
      lr_mult: 1
    }
    param {
      lr_mult: 2
    }
    convolution_param {
      num_output: 512
      pad: 1
      kernel_size: 3
    }
  }
  layer {
    name: "relu4_3"
    type: "ReLU"
    bottom: "conv4_3"
    top: "conv4_3"
  }
  layer {
    name: "pool4"
    type: "Pooling"
    bottom: "conv4_3"
    top: "pool4"
    pooling_param {
      pool: MAX
      kernel_size: 2
      stride: 2
    }
  }
  layer {
    name: "conv5_1"
    type: "Convolution"
    bottom: "pool4"
    top: "conv5_1"
    param {
      lr_mult: 1
    }
    param {
      lr_mult: 2
    }
    convolution_param {
      num_output: 512
      pad: 1
      kernel_size: 3
    }
  }
  layer {
    name: "relu5_1"
    type: "ReLU"
    bottom: "conv5_1"
    top: "conv5_1"
  }
  layer {
    name: "conv5_2"
    type: "Convolution"
    bottom: "conv5_1"
    top: "conv5_2"
    param {
      lr_mult: 1
    }
    param {
      lr_mult: 2
    }
    convolution_param {
      num_output: 512
      pad: 1
      kernel_size: 3
    }
  }
  layer {
    name: "relu5_2"
    type: "ReLU"
    bottom: "conv5_2"
    top: "conv5_2"
  }
  layer {
    name: "conv5_3"
    type: "Convolution"
    bottom: "conv5_2"
    top: "conv5_3"
    param {
      lr_mult: 1
    }
    param {
      lr_mult: 2
    }
    convolution_param {
      num_output: 512
      pad: 1
      kernel_size: 3
    }
  }
  layer {
    name: "relu5_3"
    type: "ReLU"
    bottom: "conv5_3"
    top: "conv5_3"
  }
  layer {
    name: "rpn_big_conv1"
    type: "Convolution"
    bottom: "conv5_3"
    top: "rpn_big_conv1"
    param {
      lr_mult: 1
    }
    param {
      lr_mult: 2
    }
    convolution_param {
      num_output: 512
      pad: 1
      kernel_size: 3
      stride: 1
      weight_filler {
        type: "gaussian"
        mean: 0
        std: 0.01
      }
      bias_filler {
        type: "constant"
      }
    }
  }
  layer {
    name: "rpn_big_conv1_relu"
    type: "ReLU"
    bottom: "rpn_big_conv1"
    top: "rpn_big_conv1"
    relu_param {
      negative_slope: 0
    }
  }
  layer {
    name: "rpn_big_conv2"
    type: "Convolution"
    bottom: "rpn_big_conv1"
    top: "rpn_big_conv2"
    param {
      lr_mult: 1
    }
    param {
      lr_mult: 2
    }
    convolution_param {
      num_output: 512
      pad: 1
      kernel_size: 3
      stride: 1
      weight_filler {
        type: "gaussian"
        mean: 0
        std: 0.01
      }
      bias_filler {
        type: "constant"
      }
    }
  }
  layer {
    name: "rpn_big_conv2_relu"
    type: "ReLU"
    bottom: "rpn_big_conv2"
    top: "rpn_big_conv2"
    relu_param {
      negative_slope: 0
    }
  }
  layer {
    name: "rpn_big_conv2_drop"
    type: "Dropout"
    bottom: "rpn_big_conv2"
    top: "rpn_big_conv2"
    dropout_param {
      dropout_ratio: 0.3
    }
  }
  layer {
    name: "rpn_big_output_cls"
    type: "Convolution"
    bottom: "rpn_big_conv2"
    top: "rpn_big_output_cls"
    param {
      lr_mult: 1
    }
    param {
      lr_mult: 2
    }
    convolution_param {
      num_output: 384
      pad: 1
      kernel_size: 3
      stride: 1
      weight_filler {
        type: "gaussian"
        mean: 0
        std: 0.01
      }
      bias_filler {
        type: "constant"
      }
    }
  }
  layer {
    name: "rpn_big_output_cls_relu"
    type: "ReLU"
    bottom: "rpn_big_output_cls"
    top: "rpn_big_output_cls"
    relu_param {
      negative_slope: 0
    }
  }
  layer {
    name: "rpn_big_cls_score"
    type: "Convolution"
    bottom: "rpn_big_output_cls"
    top: "rpn_big_cls_score"
    param {
      lr_mult: 1
    }
    param {
      lr_mult: 2
    }
    convolution_param {
      num_output: 52
      pad: 0
      kernel_size: 3
      stride: 1
      weight_filler {
        type: "gaussian"
        mean: 0
        std: 0.01
      }
      bias_filler {
        type: "constant"
      }
    }
  }
  layer {
    name: "rpn_big_cls_score_reshape"
    type: "Reshape"
    bottom: "rpn_big_cls_score"
    top: "rpn_big_cls_score_reshape"
    reshape_param {
      shape {
        dim: 0
        dim: 2
        dim: -1
        dim: 0
      }
    }
  }
  layer {
    name: "rpn_big_cls_prob"
    type: "Softmax"
    bottom: "rpn_big_cls_score_reshape"
    top: "rpn_big_cls_prob"
  }
  layer {
    name: "rpn_big_cls_prob_reshape"
    type: "Reshape"
    bottom: "rpn_big_cls_prob"
    top: "rpn_big_cls_prob_reshape"
    reshape_param {
      shape {
        dim: 0
        dim: 52
        dim: -1
        dim: 0
      }
    }
  }
  layer {
    name: "rpn_big_anchor_target"
    type: "Python"
    bottom: "rpn_big_cls_score"
    bottom: "input_gt_boxes"
    bottom: "input_ignored_boxes"
    bottom: "input_im_info"
    bottom: "input_data"
    bottom: "rpn_big_cls_prob_reshape"
    top: "rpn_big_anchor_target_labels"
    top: "rpn_big_anchor_target_bbox_targets"
    top: "rpn_big_anchor_target_inside_weights"
    top: "rpn_big_anchor_target_outside_weights"
    python_param {
      module: "rpn.anchor_target_layer"
      layer: "AnchorTargetLayer"
      param_str: "{\"anchor_ratios\": [1.0], \"positive_overlap\": 0.6, \"square_targets\": true, \"name\": \"rpn_big\", \"tn_fraction\": 0.2, \"num_classes\": 1, \"fg_fraction\": 0.5, \"anchor_shift_num_xy\": [[2, 2], [2, 2], [2, 2], [2, 2], [1, 1], [1, 1], [1, 1], [1, 1], [1, 1], [1, 1], [1, 1], [1, 1], [1, 1], [1, 1]], \"batchsize\": 256, \"anchor_scales\": [2.5, 3.025, 3.66025, 4.4289024999999995, 5.358972025, 6.484356150249999, 7.846070941802498, 9.493745839581022, 11.487432465893036, 13.899793283730574, 16.818749873313998, 20.350687346709933, 24.62433168951902, 29.795441344318014], \"feat_stride\": 16, \"negative_overlap\": 0.4}"
    }
  }
  layer {
    name: "rpn_big_loss_cls"
    type: "SoftmaxWithLoss"
    bottom: "rpn_big_cls_score_reshape"
    bottom: "rpn_big_anchor_target_labels"
    top: "rpn_big_loss_cls"
    loss_weight: 1
    propagate_down: true
    propagate_down: false
    loss_param {
      ignore_label: -1
      normalization: VALID
    }
  }
  layer {
    name: "rpn_big_output_box"
    type: "Convolution"
    bottom: "rpn_big_conv2"
    top: "rpn_big_output_box"
    param {
      lr_mult: 1
    }
    param {
      lr_mult: 2
    }
    convolution_param {
      num_output: 384
      pad: 1
      kernel_size: 3
      stride: 1
      weight_filler {
        type: "gaussian"
        mean: 0
        std: 0.01
      }
      bias_filler {
        type: "constant"
      }
    }
  }
  layer {
    name: "rpn_big_output_box_relu"
    type: "ReLU"
    bottom: "rpn_big_output_box"
    top: "rpn_big_output_box"
    relu_param {
      negative_slope: 0
    }
  }
  layer {
    name: "rpn_big_bbox_pred"
    type: "Convolution"
    bottom: "rpn_big_output_box"
    top: "rpn_big_bbox_pred"
    param {
      lr_mult: 1
    }
    param {
      lr_mult: 2
    }
    convolution_param {
      num_output: 104
      pad: 0
      kernel_size: 3
      stride: 1
      weight_filler {
        type: "gaussian"
        mean: 0
        std: 0.01
      }
      bias_filler {
        type: "constant"
      }
    }
  }
  layer {
    name: "rpn_big_loss_bbox"
    type: "Python"
    bottom: "rpn_big_bbox_pred"
    bottom: "rpn_big_anchor_target_bbox_targets"
    bottom: "rpn_big_anchor_target_inside_weights"
    bottom: "rpn_big_anchor_target_outside_weights"
    top: "rpn_big_loss_bbox"
    loss_weight: 1
    python_param {
      module: "layers.smooth_l1_loss"
      layer: "SmoothL1LossLayer"
      param_str: "{\"sigma\": 3}"
    }
  }
  layer {
    name: "proposal"
    type: "Python"
    bottom: "rpn_big_cls_prob_reshape"
    bottom: "rpn_big_bbox_pred"
    bottom: "input_im_info"
    top: "rpn_rois"
    python_param {
      module: "rpn.proposal_layer"
      layer: "ProposalLayer"
      param_str: "{\"anchor_shift_num_xy\": [[2, 2], [2, 2], [2, 2], [2, 2], [1, 1], [1, 1], [1, 1], [1, 1], [1, 1], [1, 1], [1, 1], [1, 1], [1, 1], [1, 1]], \"feat_stride\": 16, \"num_classes\": 1, \"anchor_scales\": [2.5, 3.025, 3.66025, 4.4289024999999995, 5.358972025, 6.484356150249999, 7.846070941802498, 9.493745839581022, 11.487432465893036, 13.899793283730574, 16.818749873313998, 20.350687346709933, 24.62433168951902, 29.795441344318014], \"square_targets\": true, \"name\": \"rpn_big\", \"batchsize\": 256, \"anchor_ratios\": [1.0]}"
    }
  }
  layer {
    name: "roi-data"
    type: "Python"
    bottom: "rpn_rois"
    bottom: "input_gt_boxes"
    top: "rois"
    top: "labels"
    top: "bbox_targets"
    top: "bbox_inside_weights"
    top: "bbox_outside_weights"
    top: "pid_label"
    python_param {
      module: "rpn.proposal_target_layer"
      layer: "ProposalTargetLayer"
      param_str: "{\"num_classes\": 2, \"bg_aux_label\": 5532}"
    }
  }
  layer {
    name: "roi-pool"
    type: "ROIPooling"
    bottom: "conv5_3"
    bottom: "rois"
    top: "roi-pool"
    roi_pooling_param {
      pooled_h: 7
      pooled_w: 7
      spatial_scale: 0.0625
    }
  }
  layer {
    name: "fc6"
    type: "InnerProduct"
    bottom: "roi-pool"
    top: "fc6"
    param {
      lr_mult: 1
    }
    param {
      lr_mult: 2
    }
    inner_product_param {
      num_output: 4096
    }
  }
  layer {
    name: "relu6"
    type: "ReLU"
    bottom: "fc6"
    top: "fc6"
  }
  layer {
    name: "drop6"
    type: "Dropout"
    bottom: "fc6"
    top: "fc6"
    dropout_param {
      dropout_ratio: 0.5
    }
  }
}
average_loss: 100
stepvalue: 70000
stepvalue: 120000
iter_size: 2
I0413 18:04:22.710232 11634 solver.cpp:86] Creating training net specified in net_param.
I0413 18:04:22.710907 11634 net.cpp:58] Initializing net from parameters: 
name: "GeneratedModel_13_04_2017_18_04"
state {
  phase: TRAIN
}
layer {
  name: "input"
  type: "Python"
  top: "input_data"
  top: "input_im_info"
  top: "input_gt_boxes"
  top: "input_ignored_boxes"
  python_param {
    module: "layers.roi_data_layer"
    layer: "RoIDataLayer"
    param_str: "{\"num_classes\": 2}"
  }
}
layer {
  name: "conv1_1"
  type: "Convolution"
  bottom: "input_data"
  top: "conv1_1"
  param {
    lr_mult: 0
    decay_mult: 0
  }
  param {
    lr_mult: 0
    decay_mult: 0
  }
  convolution_param {
    num_output: 64
    pad: 1
    kernel_size: 3
  }
}
layer {
  name: "relu1_1"
  type: "ReLU"
  bottom: "conv1_1"
  top: "conv1_1"
}
layer {
  name: "conv1_2"
  type: "Convolution"
  bottom: "conv1_1"
  top: "conv1_2"
  param {
    lr_mult: 0
    decay_mult: 0
  }
  param {
    lr_mult: 0
    decay_mult: 0
  }
  convolution_param {
    num_output: 64
    pad: 1
    kernel_size: 3
  }
}
layer {
  name: "relu1_2"
  type: "ReLU"
  bottom: "conv1_2"
  top: "conv1_2"
}
layer {
  name: "pool1"
  type: "Pooling"
  bottom: "conv1_2"
  top: "pool1"
  pooling_param {
    pool: MAX
    kernel_size: 2
    stride: 2
  }
}
layer {
  name: "conv2_1"
  type: "Convolution"
  bottom: "pool1"
  top: "conv2_1"
  param {
    lr_mult: 0
    decay_mult: 0
  }
  param {
    lr_mult: 0
    decay_mult: 0
  }
  convolution_param {
    num_output: 128
    pad: 1
    kernel_size: 3
  }
}
layer {
  name: "relu2_1"
  type: "ReLU"
  bottom: "conv2_1"
  top: "conv2_1"
}
layer {
  name: "conv2_2"
  type: "Convolution"
  bottom: "conv2_1"
  top: "conv2_2"
  param {
    lr_mult: 0
    decay_mult: 0
  }
  param {
    lr_mult: 0
    decay_mult: 0
  }
  convolution_param {
    num_output: 128
    pad: 1
    kernel_size: 3
  }
}
layer {
  name: "relu2_2"
  type: "ReLU"
  bottom: "conv2_2"
  top: "conv2_2"
}
layer {
  name: "pool2"
  type: "Pooling"
  bottom: "conv2_2"
  top: "pool2"
  pooling_param {
    pool: MAX
    kernel_size: 2
    stride: 2
  }
}
layer {
  name: "conv3_1"
  type: "Convolution"
  bottom: "pool2"
  top: "conv3_1"
  param {
    lr_mult: 1
  }
  param {
    lr_mult: 2
  }
  convolution_param {
    num_output: 256
    pad: 1
    kernel_size: 3
  }
}
layer {
  name: "relu3_1"
  type: "ReLU"
  bottom: "conv3_1"
  top: "conv3_1"
}
layer {
  name: "conv3_2"
  type: "Convolution"
  bottom: "conv3_1"
  top: "conv3_2"
  param {
    lr_mult: 1
  }
  param {
    lr_mult: 2
  }
  convolution_param {
    num_output: 256
    pad: 1
    kernel_size: 3
  }
}
layer {
  name: "relu3_2"
  type: "ReLU"
  bottom: "conv3_2"
  top: "conv3_2"
}
layer {
  name: "conv3_3"
  type: "Convolution"
  bottom: "conv3_2"
  top: "conv3_3"
  param {
    lr_mult: 1
  }
  param {
    lr_mult: 2
  }
  convolution_param {
    num_output: 256
    pad: 1
    kernel_size: 3
  }
}
layer {
  name: "relu3_3"
  type: "ReLU"
  bottom: "conv3_3"
  top: "conv3_3"
}
layer {
  name: "pool3"
  type: "Pooling"
  bottom: "conv3_3"
  top: "pool3"
  pooling_param {
    pool: MAX
    kernel_size: 2
    stride: 2
  }
}
layer {
  name: "conv4_1"
  type: "Convolution"
  bottom: "pool3"
  top: "conv4_1"
  param {
    lr_mult: 1
  }
  param {
    lr_mult: 2
  }
  convolution_param {
    num_output: 512
    pad: 1
    kernel_size: 3
  }
}
layer {
  name: "relu4_1"
  type: "ReLU"
  bottom: "conv4_1"
  top: "conv4_1"
}
layer {
  name: "conv4_2"
  type: "Convolution"
  bottom: "conv4_1"
  top: "conv4_2"
  param {
    lr_mult: 1
  }
  param {
    lr_mult: 2
  }
  convolution_param {
    num_output: 512
    pad: 1
    kernel_size: 3
  }
}
layer {
  name: "relu4_2"
  type: "ReLU"
  bottom: "conv4_2"
  top: "conv4_2"
}
layer {
  name: "conv4_3"
  type: "Convolution"
  bottom: "conv4_2"
  top: "conv4_3"
  param {
    lr_mult: 1
  }
  param {
    lr_mult: 2
  }
  convolution_param {
    num_output: 512
    pad: 1
    kernel_size: 3
  }
}
layer {
  name: "relu4_3"
  type: "ReLU"
  bottom: "conv4_3"
  top: "conv4_3"
}
layer {
  name: "pool4"
  type: "Pooling"
  bottom: "conv4_3"
  top: "pool4"
  pooling_param {
    pool: MAX
    kernel_size: 2
    stride: 2
  }
}
layer {
  name: "conv5_1"
  type: "Convolution"
  bottom: "pool4"
  top: "conv5_1"
  param {
    lr_mult: 1
  }
  param {
    lr_mult: 2
  }
  convolution_param {
    num_output: 512
    pad: 1
    kernel_size: 3
  }
}
layer {
  name: "relu5_1"
  type: "ReLU"
  bottom: "conv5_1"
  top: "conv5_1"
}
layer {
  name: "conv5_2"
  type: "Convolution"
  bottom: "conv5_1"
  top: "conv5_2"
  param {
    lr_mult: 1
  }
  param {
    lr_mult: 2
  }
  convolution_param {
    num_output: 512
    pad: 1
    kernel_size: 3
  }
}
layer {
  name: "relu5_2"
  type: "ReLU"
  bottom: "conv5_2"
  top: "conv5_2"
}
layer {
  name: "conv5_3"
  type: "Convolution"
  bottom: "conv5_2"
  top: "conv5_3"
  param {
    lr_mult: 1
  }
  param {
    lr_mult: 2
  }
  convolution_param {
    num_output: 512
    pad: 1
    kernel_size: 3
  }
}
layer {
  name: "relu5_3"
  type: "ReLU"
  bottom: "conv5_3"
  top: "conv5_3"
}
layer {
  name: "rpn_big_conv1"
  type: "Convolution"
  bottom: "conv5_3"
  top: "rpn_big_conv1"
  param {
    lr_mult: 1
  }
  param {
    lr_mult: 2
  }
  convolution_param {
    num_output: 512
    pad: 1
    kernel_size: 3
    stride: 1
    weight_filler {
      type: "gaussian"
      mean: 0
      std: 0.01
    }
    bias_filler {
      type: "constant"
    }
  }
}
layer {
  name: "rpn_big_conv1_relu"
  type: "ReLU"
  bottom: "rpn_big_conv1"
  top: "rpn_big_conv1"
  relu_param {
    negative_slope: 0
  }
}
layer {
  name: "rpn_big_conv2"
  type: "Convolution"
  bottom: "rpn_big_conv1"
  top: "rpn_big_conv2"
  param {
    lr_mult: 1
  }
  param {
    lr_mult: 2
  }
  convolution_param {
    num_output: 512
    pad: 1
    kernel_size: 3
    stride: 1
    weight_filler {
      type: "gaussian"
      mean: 0
      std: 0.01
    }
    bias_filler {
      type: "constant"
    }
  }
}
layer {
  name: "rpn_big_conv2_relu"
  type: "ReLU"
  bottom: "rpn_big_conv2"
  top: "rpn_big_conv2"
  relu_param {
    negative_slope: 0
  }
}
layer {
  name: "rpn_big_conv2_drop"
  type: "Dropout"
  bottom: "rpn_big_conv2"
  top: "rpn_big_conv2"
  dropout_param {
    dropout_ratio: 0.3
  }
}
layer {
  name: "rpn_big_output_cls"
  type: "Convolution"
  bottom: "rpn_big_conv2"
  top: "rpn_big_output_cls"
  param {
    lr_mult: 1
  }
  param {
    lr_mult: 2
  }
  convolution_param {
    num_output: 384
    pad: 1
    kernel_size: 3
    stride: 1
    weight_filler {
      type: "gaussian"
      mean: 0
      std: 0.01
    }
    bias_filler {
      type: "constant"
    }
  }
}
layer {
  name: "rpn_big_output_cls_relu"
  type: "ReLU"
  bottom: "rpn_big_output_cls"
  top: "rpn_big_output_cls"
  relu_param {
    negative_slope: 0
  }
}
layer {
  name: "rpn_big_cls_score"
  type: "Convolution"
  bottom: "rpn_big_output_cls"
  top: "rpn_big_cls_score"
  param {
    lr_mult: 1
  }
  param {
    lr_mult: 2
  }
  convolution_param {
    num_output: 52
    pad: 0
    kernel_size: 3
    stride: 1
    weight_filler {
      type: "gaussian"
      mean: 0
      std: 0.01
    }
    bias_filler {
      type: "constant"
    }
  }
}
layer {
  name: "rpn_big_cls_score_reshape"
  type: "Reshape"
  bottom: "rpn_big_cls_score"
  top: "rpn_big_cls_score_reshape"
  reshape_param {
    shape {
      dim: 0
      dim: 2
      dim: -1
      dim: 0
    }
  }
}
layer {
  name: "rpn_big_cls_prob"
  type: "Softmax"
  bottom: "rpn_big_cls_score_reshape"
  top: "rpn_big_cls_prob"
}
layer {
  name: "rpn_big_cls_prob_reshape"
  type: "Reshape"
  bottom: "rpn_big_cls_prob"
  top: "rpn_big_cls_prob_reshape"
  reshape_param {
    shape {
      dim: 0
      dim: 52
      dim: -1
      dim: 0
    }
  }
}
layer {
  name: "rpn_big_anchor_target"
  type: "Python"
  bottom: "rpn_big_cls_score"
  bottom: "input_gt_boxes"
  bottom: "input_ignored_boxes"
  bottom: "input_im_info"
  bottom: "input_data"
  bottom: "rpn_big_cls_prob_reshape"
  top: "rpn_big_anchor_target_labels"
  top: "rpn_big_anchor_target_bbox_targets"
  top: "rpn_big_anchor_target_inside_weights"
  top: "rpn_big_anchor_target_outside_weights"
  python_param {
    module: "rpn.anchor_target_layer"
    layer: "AnchorTargetLayer"
    param_str: "{\"anchor_ratios\": [1.0], \"positive_overlap\": 0.6, \"square_targets\": true, \"name\": \"rpn_big\", \"tn_fraction\": 0.2, \"num_classes\": 1, \"fg_fraction\": 0.5, \"anchor_shift_num_xy\": [[2, 2], [2, 2], [2, 2], [2, 2], [1, 1], [1, 1], [1, 1], [1, 1], [1, 1], [1, 1], [1, 1], [1, 1], [1, 1], [1, 1]], \"batchsize\": 256, \"anchor_scales\": [2.5, 3.025, 3.66025, 4.4289024999999995, 5.358972025, 6.484356150249999, 7.846070941802498, 9.493745839581022, 11.487432465893036, 13.899793283730574, 16.818749873313998, 20.350687346709933, 24.62433168951902, 29.795441344318014], \"feat_stride\": 16, \"negative_overlap\": 0.4}"
  }
}
layer {
  name: "rpn_big_loss_cls"
  type: "SoftmaxWithLoss"
  bottom: "rpn_big_cls_score_reshape"
  bottom: "rpn_big_anchor_target_labels"
  top: "rpn_big_loss_cls"
  loss_weight: 1
  propagate_down: true
  propagate_down: false
  loss_param {
    ignore_label: -1
    normalization: VALID
  }
}
layer {
  name: "rpn_big_output_box"
  type: "Convolution"
  bottom: "rpn_big_conv2"
  top: "rpn_big_output_box"
  param {
    lr_mult: 1
  }
  param {
    lr_mult: 2
  }
  convolution_param {
    num_output: 384
    pad: 1
    kernel_size: 3
    stride: 1
    weight_filler {
      type: "gaussian"
      mean: 0
      std: 0.01
    }
    bias_filler {
      type: "constant"
    }
  }
}
layer {
  name: "rpn_big_output_box_relu"
  type: "ReLU"
  bottom: "rpn_big_output_box"
  top: "rpn_big_output_box"
  relu_param {
    negative_slope: 0
  }
}
layer {
  name: "rpn_big_bbox_pred"
  type: "Convolution"
  bottom: "rpn_big_output_box"
  top: "rpn_big_bbox_pred"
  param {
    lr_mult: 1
  }
  param {
    lr_mult: 2
  }
  convolution_param {
    num_output: 104
    pad: 0
    kernel_size: 3
    stride: 1
    weight_filler {
      type: "gaussian"
      mean: 0
      std: 0.01
    }
    bias_filler {
      type: "constant"
    }
  }
}
layer {
  name: "rpn_big_loss_bbox"
  type: "Python"
  bottom: "rpn_big_bbox_pred"
  bottom: "rpn_big_anchor_target_bbox_targets"
  bottom: "rpn_big_anchor_target_inside_weights"
  bottom: "rpn_big_anchor_target_outside_weights"
  top: "rpn_big_loss_bbox"
  loss_weight: 1
  python_param {
    module: "layers.smooth_l1_loss"
    layer: "SmoothL1LossLayer"
    param_str: "{\"sigma\": 3}"
  }
}
layer {
  name: "proposal"
  type: "Python"
  bottom: "rpn_big_cls_prob_reshape"
  bottom: "rpn_big_bbox_pred"
  bottom: "input_im_info"
  top: "rpn_rois"
  python_param {
    module: "rpn.proposal_layer"
    layer: "ProposalLayer"
    param_str: "{\"anchor_shift_num_xy\": [[2, 2], [2, 2], [2, 2], [2, 2], [1, 1], [1, 1], [1, 1], [1, 1], [1, 1], [1, 1], [1, 1], [1, 1], [1, 1], [1, 1]], \"feat_stride\": 16, \"num_classes\": 1, \"anchor_scales\": [2.5, 3.025, 3.66025, 4.4289024999999995, 5.358972025, 6.484356150249999, 7.846070941802498, 9.493745839581022, 11.487432465893036, 13.899793283730574, 16.818749873313998, 20.350687346709933, 24.62433168951902, 29.795441344318014], \"square_targets\": true, \"name\": \"rpn_big\", \"batchsize\": 256, \"anchor_ratios\": [1.0]}"
  }
}
layer {
  name: "roi-data"
  type: "Python"
  bottom: "rpn_rois"
  bottom: "input_gt_boxes"
  top: "rois"
  top: "labels"
  top: "bbox_targets"
  top: "bbox_inside_weights"
  top: "bbox_outside_weights"
  top: "pid_label"
  python_param {
    module: "rpn.proposal_target_layer"
    layer: "ProposalTargetLayer"
    param_str: "{\"num_classes\": 2, \"bg_aux_label\": 5532}"
  }
}
layer {
  name: "roi-pool"
  type: "ROIPooling"
  bottom: "conv5_3"
  bottom: "rois"
  top: "roi-pool"
  roi_pooling_param {
    pooled_h: 7
    pooled_w: 7
    spatial_scale: 0.0625
  }
}
layer {
  name: "fc6"
  type: "InnerProduct"
  bottom: "roi-pool"
  top: "fc6"
  param {
    lr_mult: 1
  }
  param {
    lr_mult: 2
  }
  inner_product_param {
    num_output: 4096
  }
}
layer {
  name: "relu6"
  type: "ReLU"
  bottom: "fc6"
  top: "fc6"
}
layer {
  name: "drop6"
  type: "Dropout"
  bottom: "fc6"
  top: "fc6"
  dropout_param {
    dropout_ratio: 0.5
  }
}
I0413 18:04:22.711264 11634 layer_factory.hpp:77] Creating layer input
I0413 18:04:22.713271 11634 net.cpp:100] Creating Layer input
I0413 18:04:22.713300 11634 net.cpp:408] input -> input_data
I0413 18:04:22.713318 11634 net.cpp:408] input -> input_im_info
I0413 18:04:22.713331 11634 net.cpp:408] input -> input_gt_boxes
I0413 18:04:22.713343 11634 net.cpp:408] input -> input_ignored_boxes
RoiDataLayer: name_to_top: {'data': 0, 'im_info': 1, 'ignored_boxes': 3, 'gt_boxes': 2}
I0413 18:04:23.026103 11634 net.cpp:150] Setting up input
I0413 18:04:23.026129 11634 net.cpp:157] Top shape: 1 3 1000 1500 (4500000)
I0413 18:04:23.026134 11634 net.cpp:157] Top shape: 1 3 (3)
I0413 18:04:23.026137 11634 net.cpp:157] Top shape: 1 5 (5)
I0413 18:04:23.026141 11634 net.cpp:157] Top shape: 1 5 (5)
I0413 18:04:23.026144 11634 net.cpp:165] Memory required for data: 18000052
I0413 18:04:23.026150 11634 layer_factory.hpp:77] Creating layer input_data_input_0_split
I0413 18:04:23.026163 11634 net.cpp:100] Creating Layer input_data_input_0_split
I0413 18:04:23.026168 11634 net.cpp:434] input_data_input_0_split <- input_data
I0413 18:04:23.026175 11634 net.cpp:408] input_data_input_0_split -> input_data_input_0_split_0
I0413 18:04:23.026187 11634 net.cpp:408] input_data_input_0_split -> input_data_input_0_split_1
I0413 18:04:23.026226 11634 net.cpp:150] Setting up input_data_input_0_split
I0413 18:04:23.026232 11634 net.cpp:157] Top shape: 1 3 1000 1500 (4500000)
I0413 18:04:23.026237 11634 net.cpp:157] Top shape: 1 3 1000 1500 (4500000)
I0413 18:04:23.026240 11634 net.cpp:165] Memory required for data: 54000052
I0413 18:04:23.026244 11634 layer_factory.hpp:77] Creating layer input_im_info_input_1_split
I0413 18:04:23.026250 11634 net.cpp:100] Creating Layer input_im_info_input_1_split
I0413 18:04:23.026253 11634 net.cpp:434] input_im_info_input_1_split <- input_im_info
I0413 18:04:23.026258 11634 net.cpp:408] input_im_info_input_1_split -> input_im_info_input_1_split_0
I0413 18:04:23.026265 11634 net.cpp:408] input_im_info_input_1_split -> input_im_info_input_1_split_1
I0413 18:04:23.026293 11634 net.cpp:150] Setting up input_im_info_input_1_split
I0413 18:04:23.026299 11634 net.cpp:157] Top shape: 1 3 (3)
I0413 18:04:23.026304 11634 net.cpp:157] Top shape: 1 3 (3)
I0413 18:04:23.026306 11634 net.cpp:165] Memory required for data: 54000076
I0413 18:04:23.026309 11634 layer_factory.hpp:77] Creating layer input_gt_boxes_input_2_split
I0413 18:04:23.026315 11634 net.cpp:100] Creating Layer input_gt_boxes_input_2_split
I0413 18:04:23.026319 11634 net.cpp:434] input_gt_boxes_input_2_split <- input_gt_boxes
I0413 18:04:23.026324 11634 net.cpp:408] input_gt_boxes_input_2_split -> input_gt_boxes_input_2_split_0
I0413 18:04:23.026332 11634 net.cpp:408] input_gt_boxes_input_2_split -> input_gt_boxes_input_2_split_1
I0413 18:04:23.026358 11634 net.cpp:150] Setting up input_gt_boxes_input_2_split
I0413 18:04:23.026366 11634 net.cpp:157] Top shape: 1 5 (5)
I0413 18:04:23.026371 11634 net.cpp:157] Top shape: 1 5 (5)
I0413 18:04:23.026373 11634 net.cpp:165] Memory required for data: 54000116
I0413 18:04:23.026377 11634 layer_factory.hpp:77] Creating layer conv1_1
I0413 18:04:23.026389 11634 net.cpp:100] Creating Layer conv1_1
I0413 18:04:23.026393 11634 net.cpp:434] conv1_1 <- input_data_input_0_split_0
I0413 18:04:23.026398 11634 net.cpp:408] conv1_1 -> conv1_1
I0413 18:04:23.029558 11634 net.cpp:150] Setting up conv1_1
I0413 18:04:23.029605 11634 net.cpp:157] Top shape: 1 64 1000 1500 (96000000)
I0413 18:04:23.029613 11634 net.cpp:165] Memory required for data: 438000116
I0413 18:04:23.029637 11634 layer_factory.hpp:77] Creating layer relu1_1
I0413 18:04:23.029651 11634 net.cpp:100] Creating Layer relu1_1
I0413 18:04:23.029659 11634 net.cpp:434] relu1_1 <- conv1_1
I0413 18:04:23.029672 11634 net.cpp:395] relu1_1 -> conv1_1 (in-place)
I0413 18:04:23.029688 11634 net.cpp:150] Setting up relu1_1
I0413 18:04:23.029696 11634 net.cpp:157] Top shape: 1 64 1000 1500 (96000000)
I0413 18:04:23.029701 11634 net.cpp:165] Memory required for data: 822000116
I0413 18:04:23.029707 11634 layer_factory.hpp:77] Creating layer conv1_2
I0413 18:04:23.029723 11634 net.cpp:100] Creating Layer conv1_2
I0413 18:04:23.029732 11634 net.cpp:434] conv1_2 <- conv1_1
I0413 18:04:23.029747 11634 net.cpp:408] conv1_2 -> conv1_2
I0413 18:04:23.033541 11634 net.cpp:150] Setting up conv1_2
I0413 18:04:23.033581 11634 net.cpp:157] Top shape: 1 64 1000 1500 (96000000)
I0413 18:04:23.033586 11634 net.cpp:165] Memory required for data: 1206000116
I0413 18:04:23.033602 11634 layer_factory.hpp:77] Creating layer relu1_2
I0413 18:04:23.033613 11634 net.cpp:100] Creating Layer relu1_2
I0413 18:04:23.033618 11634 net.cpp:434] relu1_2 <- conv1_2
I0413 18:04:23.033625 11634 net.cpp:395] relu1_2 -> conv1_2 (in-place)
I0413 18:04:23.033637 11634 net.cpp:150] Setting up relu1_2
I0413 18:04:23.033641 11634 net.cpp:157] Top shape: 1 64 1000 1500 (96000000)
I0413 18:04:23.033644 11634 net.cpp:165] Memory required for data: 1590000116
I0413 18:04:23.033648 11634 layer_factory.hpp:77] Creating layer pool1
I0413 18:04:23.033658 11634 net.cpp:100] Creating Layer pool1
I0413 18:04:23.033660 11634 net.cpp:434] pool1 <- conv1_2
I0413 18:04:23.033666 11634 net.cpp:408] pool1 -> pool1
I0413 18:04:23.033740 11634 net.cpp:150] Setting up pool1
I0413 18:04:23.033751 11634 net.cpp:157] Top shape: 1 64 500 750 (24000000)
I0413 18:04:23.033756 11634 net.cpp:165] Memory required for data: 1686000116
I0413 18:04:23.033762 11634 layer_factory.hpp:77] Creating layer conv2_1
I0413 18:04:23.033779 11634 net.cpp:100] Creating Layer conv2_1
I0413 18:04:23.033785 11634 net.cpp:434] conv2_1 <- pool1
I0413 18:04:23.033793 11634 net.cpp:408] conv2_1 -> conv2_1
I0413 18:04:23.035097 11634 net.cpp:150] Setting up conv2_1
I0413 18:04:23.035126 11634 net.cpp:157] Top shape: 1 128 500 750 (48000000)
I0413 18:04:23.035131 11634 net.cpp:165] Memory required for data: 1878000116
I0413 18:04:23.035163 11634 layer_factory.hpp:77] Creating layer relu2_1
I0413 18:04:23.035178 11634 net.cpp:100] Creating Layer relu2_1
I0413 18:04:23.035187 11634 net.cpp:434] relu2_1 <- conv2_1
I0413 18:04:23.035198 11634 net.cpp:395] relu2_1 -> conv2_1 (in-place)
I0413 18:04:23.035214 11634 net.cpp:150] Setting up relu2_1
I0413 18:04:23.035223 11634 net.cpp:157] Top shape: 1 128 500 750 (48000000)
I0413 18:04:23.035230 11634 net.cpp:165] Memory required for data: 2070000116
I0413 18:04:23.035238 11634 layer_factory.hpp:77] Creating layer conv2_2
I0413 18:04:23.035254 11634 net.cpp:100] Creating Layer conv2_2
I0413 18:04:23.035259 11634 net.cpp:434] conv2_2 <- conv2_1
I0413 18:04:23.035271 11634 net.cpp:408] conv2_2 -> conv2_2
I0413 18:04:23.036280 11634 net.cpp:150] Setting up conv2_2
I0413 18:04:23.036306 11634 net.cpp:157] Top shape: 1 128 500 750 (48000000)
I0413 18:04:23.036312 11634 net.cpp:165] Memory required for data: 2262000116
I0413 18:04:23.036327 11634 layer_factory.hpp:77] Creating layer relu2_2
I0413 18:04:23.036340 11634 net.cpp:100] Creating Layer relu2_2
I0413 18:04:23.036350 11634 net.cpp:434] relu2_2 <- conv2_2
I0413 18:04:23.036363 11634 net.cpp:395] relu2_2 -> conv2_2 (in-place)
I0413 18:04:23.036377 11634 net.cpp:150] Setting up relu2_2
I0413 18:04:23.036387 11634 net.cpp:157] Top shape: 1 128 500 750 (48000000)
I0413 18:04:23.036394 11634 net.cpp:165] Memory required for data: 2454000116
I0413 18:04:23.036401 11634 layer_factory.hpp:77] Creating layer pool2
I0413 18:04:23.036412 11634 net.cpp:100] Creating Layer pool2
I0413 18:04:23.036417 11634 net.cpp:434] pool2 <- conv2_2
I0413 18:04:23.036429 11634 net.cpp:408] pool2 -> pool2
I0413 18:04:23.036480 11634 net.cpp:150] Setting up pool2
I0413 18:04:23.036490 11634 net.cpp:157] Top shape: 1 128 250 375 (12000000)
I0413 18:04:23.036497 11634 net.cpp:165] Memory required for data: 2502000116
I0413 18:04:23.036505 11634 layer_factory.hpp:77] Creating layer conv3_1
I0413 18:04:23.036520 11634 net.cpp:100] Creating Layer conv3_1
I0413 18:04:23.036526 11634 net.cpp:434] conv3_1 <- pool2
I0413 18:04:23.036538 11634 net.cpp:408] conv3_1 -> conv3_1
I0413 18:04:23.037655 11634 net.cpp:150] Setting up conv3_1
I0413 18:04:23.037680 11634 net.cpp:157] Top shape: 1 256 250 375 (24000000)
I0413 18:04:23.037686 11634 net.cpp:165] Memory required for data: 2598000116
I0413 18:04:23.037706 11634 layer_factory.hpp:77] Creating layer relu3_1
I0413 18:04:23.037719 11634 net.cpp:100] Creating Layer relu3_1
I0413 18:04:23.037727 11634 net.cpp:434] relu3_1 <- conv3_1
I0413 18:04:23.037737 11634 net.cpp:395] relu3_1 -> conv3_1 (in-place)
I0413 18:04:23.037750 11634 net.cpp:150] Setting up relu3_1
I0413 18:04:23.037757 11634 net.cpp:157] Top shape: 1 256 250 375 (24000000)
I0413 18:04:23.037762 11634 net.cpp:165] Memory required for data: 2694000116
I0413 18:04:23.037767 11634 layer_factory.hpp:77] Creating layer conv3_2
I0413 18:04:23.037784 11634 net.cpp:100] Creating Layer conv3_2
I0413 18:04:23.037793 11634 net.cpp:434] conv3_2 <- conv3_1
I0413 18:04:23.037803 11634 net.cpp:408] conv3_2 -> conv3_2
I0413 18:04:23.039002 11634 net.cpp:150] Setting up conv3_2
I0413 18:04:23.039031 11634 net.cpp:157] Top shape: 1 256 250 375 (24000000)
I0413 18:04:23.039036 11634 net.cpp:165] Memory required for data: 2790000116
I0413 18:04:23.039049 11634 layer_factory.hpp:77] Creating layer relu3_2
I0413 18:04:23.039062 11634 net.cpp:100] Creating Layer relu3_2
I0413 18:04:23.039070 11634 net.cpp:434] relu3_2 <- conv3_2
I0413 18:04:23.039083 11634 net.cpp:395] relu3_2 -> conv3_2 (in-place)
I0413 18:04:23.039098 11634 net.cpp:150] Setting up relu3_2
I0413 18:04:23.039106 11634 net.cpp:157] Top shape: 1 256 250 375 (24000000)
I0413 18:04:23.039113 11634 net.cpp:165] Memory required for data: 2886000116
I0413 18:04:23.039119 11634 layer_factory.hpp:77] Creating layer conv3_3
I0413 18:04:23.039135 11634 net.cpp:100] Creating Layer conv3_3
I0413 18:04:23.039142 11634 net.cpp:434] conv3_3 <- conv3_2
I0413 18:04:23.039155 11634 net.cpp:408] conv3_3 -> conv3_3
I0413 18:04:23.040709 11634 net.cpp:150] Setting up conv3_3
I0413 18:04:23.040742 11634 net.cpp:157] Top shape: 1 256 250 375 (24000000)
I0413 18:04:23.040748 11634 net.cpp:165] Memory required for data: 2982000116
I0413 18:04:23.040763 11634 layer_factory.hpp:77] Creating layer relu3_3
I0413 18:04:23.040777 11634 net.cpp:100] Creating Layer relu3_3
I0413 18:04:23.040787 11634 net.cpp:434] relu3_3 <- conv3_3
I0413 18:04:23.040801 11634 net.cpp:395] relu3_3 -> conv3_3 (in-place)
I0413 18:04:23.040815 11634 net.cpp:150] Setting up relu3_3
I0413 18:04:23.040824 11634 net.cpp:157] Top shape: 1 256 250 375 (24000000)
I0413 18:04:23.040832 11634 net.cpp:165] Memory required for data: 3078000116
I0413 18:04:23.040838 11634 layer_factory.hpp:77] Creating layer pool3
I0413 18:04:23.040853 11634 net.cpp:100] Creating Layer pool3
I0413 18:04:23.040859 11634 net.cpp:434] pool3 <- conv3_3
I0413 18:04:23.040869 11634 net.cpp:408] pool3 -> pool3
I0413 18:04:23.040930 11634 net.cpp:150] Setting up pool3
I0413 18:04:23.040941 11634 net.cpp:157] Top shape: 1 256 125 188 (6016000)
I0413 18:04:23.040947 11634 net.cpp:165] Memory required for data: 3102064116
I0413 18:04:23.040953 11634 layer_factory.hpp:77] Creating layer conv4_1
I0413 18:04:23.040969 11634 net.cpp:100] Creating Layer conv4_1
I0413 18:04:23.040977 11634 net.cpp:434] conv4_1 <- pool3
I0413 18:04:23.040987 11634 net.cpp:408] conv4_1 -> conv4_1
I0413 18:04:23.045837 11634 net.cpp:150] Setting up conv4_1
I0413 18:04:23.045872 11634 net.cpp:157] Top shape: 1 512 125 188 (12032000)
I0413 18:04:23.045878 11634 net.cpp:165] Memory required for data: 3150192116
I0413 18:04:23.045894 11634 layer_factory.hpp:77] Creating layer relu4_1
I0413 18:04:23.045910 11634 net.cpp:100] Creating Layer relu4_1
I0413 18:04:23.045920 11634 net.cpp:434] relu4_1 <- conv4_1
I0413 18:04:23.045933 11634 net.cpp:395] relu4_1 -> conv4_1 (in-place)
I0413 18:04:23.045948 11634 net.cpp:150] Setting up relu4_1
I0413 18:04:23.045958 11634 net.cpp:157] Top shape: 1 512 125 188 (12032000)
I0413 18:04:23.045964 11634 net.cpp:165] Memory required for data: 3198320116
I0413 18:04:23.045970 11634 layer_factory.hpp:77] Creating layer conv4_2
I0413 18:04:23.045987 11634 net.cpp:100] Creating Layer conv4_2
I0413 18:04:23.045994 11634 net.cpp:434] conv4_2 <- conv4_1
I0413 18:04:23.046007 11634 net.cpp:408] conv4_2 -> conv4_2
I0413 18:04:23.050664 11634 net.cpp:150] Setting up conv4_2
I0413 18:04:23.050742 11634 net.cpp:157] Top shape: 1 512 125 188 (12032000)
I0413 18:04:23.050765 11634 net.cpp:165] Memory required for data: 3246448116
I0413 18:04:23.050806 11634 layer_factory.hpp:77] Creating layer relu4_2
I0413 18:04:23.050834 11634 net.cpp:100] Creating Layer relu4_2
I0413 18:04:23.050855 11634 net.cpp:434] relu4_2 <- conv4_2
I0413 18:04:23.050879 11634 net.cpp:395] relu4_2 -> conv4_2 (in-place)
I0413 18:04:23.050904 11634 net.cpp:150] Setting up relu4_2
I0413 18:04:23.050927 11634 net.cpp:157] Top shape: 1 512 125 188 (12032000)
I0413 18:04:23.050945 11634 net.cpp:165] Memory required for data: 3294576116
I0413 18:04:23.050962 11634 layer_factory.hpp:77] Creating layer conv4_3
I0413 18:04:23.050988 11634 net.cpp:100] Creating Layer conv4_3
I0413 18:04:23.051009 11634 net.cpp:434] conv4_3 <- conv4_2
I0413 18:04:23.051031 11634 net.cpp:408] conv4_3 -> conv4_3
I0413 18:04:23.055354 11634 net.cpp:150] Setting up conv4_3
I0413 18:04:23.055390 11634 net.cpp:157] Top shape: 1 512 125 188 (12032000)
I0413 18:04:23.055393 11634 net.cpp:165] Memory required for data: 3342704116
I0413 18:04:23.055404 11634 layer_factory.hpp:77] Creating layer relu4_3
I0413 18:04:23.055418 11634 net.cpp:100] Creating Layer relu4_3
I0413 18:04:23.055423 11634 net.cpp:434] relu4_3 <- conv4_3
I0413 18:04:23.055430 11634 net.cpp:395] relu4_3 -> conv4_3 (in-place)
I0413 18:04:23.055440 11634 net.cpp:150] Setting up relu4_3
I0413 18:04:23.055446 11634 net.cpp:157] Top shape: 1 512 125 188 (12032000)
I0413 18:04:23.055449 11634 net.cpp:165] Memory required for data: 3390832116
I0413 18:04:23.055452 11634 layer_factory.hpp:77] Creating layer pool4
I0413 18:04:23.055459 11634 net.cpp:100] Creating Layer pool4
I0413 18:04:23.055464 11634 net.cpp:434] pool4 <- conv4_3
I0413 18:04:23.055469 11634 net.cpp:408] pool4 -> pool4
I0413 18:04:23.055505 11634 net.cpp:150] Setting up pool4
I0413 18:04:23.055511 11634 net.cpp:157] Top shape: 1 512 63 94 (3032064)
I0413 18:04:23.055515 11634 net.cpp:165] Memory required for data: 3402960372
I0413 18:04:23.055517 11634 layer_factory.hpp:77] Creating layer conv5_1
I0413 18:04:23.055528 11634 net.cpp:100] Creating Layer conv5_1
I0413 18:04:23.055533 11634 net.cpp:434] conv5_1 <- pool4
I0413 18:04:23.055541 11634 net.cpp:408] conv5_1 -> conv5_1
I0413 18:04:23.061800 11634 net.cpp:150] Setting up conv5_1
I0413 18:04:23.061833 11634 net.cpp:157] Top shape: 1 512 63 94 (3032064)
I0413 18:04:23.061837 11634 net.cpp:165] Memory required for data: 3415088628
I0413 18:04:23.061848 11634 layer_factory.hpp:77] Creating layer relu5_1
I0413 18:04:23.061858 11634 net.cpp:100] Creating Layer relu5_1
I0413 18:04:23.061863 11634 net.cpp:434] relu5_1 <- conv5_1
I0413 18:04:23.061870 11634 net.cpp:395] relu5_1 -> conv5_1 (in-place)
I0413 18:04:23.061880 11634 net.cpp:150] Setting up relu5_1
I0413 18:04:23.061885 11634 net.cpp:157] Top shape: 1 512 63 94 (3032064)
I0413 18:04:23.061888 11634 net.cpp:165] Memory required for data: 3427216884
I0413 18:04:23.061892 11634 layer_factory.hpp:77] Creating layer conv5_2
I0413 18:04:23.061900 11634 net.cpp:100] Creating Layer conv5_2
I0413 18:04:23.061915 11634 net.cpp:434] conv5_2 <- conv5_1
I0413 18:04:23.061923 11634 net.cpp:408] conv5_2 -> conv5_2
I0413 18:04:23.066001 11634 net.cpp:150] Setting up conv5_2
I0413 18:04:23.066036 11634 net.cpp:157] Top shape: 1 512 63 94 (3032064)
I0413 18:04:23.066048 11634 net.cpp:165] Memory required for data: 3439345140
I0413 18:04:23.066059 11634 layer_factory.hpp:77] Creating layer relu5_2
I0413 18:04:23.066071 11634 net.cpp:100] Creating Layer relu5_2
I0413 18:04:23.066076 11634 net.cpp:434] relu5_2 <- conv5_2
I0413 18:04:23.066082 11634 net.cpp:395] relu5_2 -> conv5_2 (in-place)
I0413 18:04:23.066092 11634 net.cpp:150] Setting up relu5_2
I0413 18:04:23.066097 11634 net.cpp:157] Top shape: 1 512 63 94 (3032064)
I0413 18:04:23.066099 11634 net.cpp:165] Memory required for data: 3451473396
I0413 18:04:23.066102 11634 layer_factory.hpp:77] Creating layer conv5_3
I0413 18:04:23.066118 11634 net.cpp:100] Creating Layer conv5_3
I0413 18:04:23.066123 11634 net.cpp:434] conv5_3 <- conv5_2
I0413 18:04:23.066128 11634 net.cpp:408] conv5_3 -> conv5_3
I0413 18:04:23.070869 11634 net.cpp:150] Setting up conv5_3
I0413 18:04:23.070946 11634 net.cpp:157] Top shape: 1 512 63 94 (3032064)
I0413 18:04:23.070969 11634 net.cpp:165] Memory required for data: 3463601652
I0413 18:04:23.070999 11634 layer_factory.hpp:77] Creating layer relu5_3
I0413 18:04:23.071027 11634 net.cpp:100] Creating Layer relu5_3
I0413 18:04:23.071048 11634 net.cpp:434] relu5_3 <- conv5_3
I0413 18:04:23.071063 11634 net.cpp:395] relu5_3 -> conv5_3 (in-place)
I0413 18:04:23.071082 11634 net.cpp:150] Setting up relu5_3
I0413 18:04:23.071092 11634 net.cpp:157] Top shape: 1 512 63 94 (3032064)
I0413 18:04:23.071102 11634 net.cpp:165] Memory required for data: 3475729908
I0413 18:04:23.071110 11634 layer_factory.hpp:77] Creating layer conv5_3_relu5_3_0_split
I0413 18:04:23.071121 11634 net.cpp:100] Creating Layer conv5_3_relu5_3_0_split
I0413 18:04:23.071146 11634 net.cpp:434] conv5_3_relu5_3_0_split <- conv5_3
I0413 18:04:23.071158 11634 net.cpp:408] conv5_3_relu5_3_0_split -> conv5_3_relu5_3_0_split_0
I0413 18:04:23.071173 11634 net.cpp:408] conv5_3_relu5_3_0_split -> conv5_3_relu5_3_0_split_1
I0413 18:04:23.071218 11634 net.cpp:150] Setting up conv5_3_relu5_3_0_split
I0413 18:04:23.071228 11634 net.cpp:157] Top shape: 1 512 63 94 (3032064)
I0413 18:04:23.071236 11634 net.cpp:157] Top shape: 1 512 63 94 (3032064)
I0413 18:04:23.071244 11634 net.cpp:165] Memory required for data: 3499986420
I0413 18:04:23.071250 11634 layer_factory.hpp:77] Creating layer rpn_big_conv1
I0413 18:04:23.071269 11634 net.cpp:100] Creating Layer rpn_big_conv1
I0413 18:04:23.071276 11634 net.cpp:434] rpn_big_conv1 <- conv5_3_relu5_3_0_split_0
I0413 18:04:23.071290 11634 net.cpp:408] rpn_big_conv1 -> rpn_big_conv1
I0413 18:04:23.096974 11634 net.cpp:150] Setting up rpn_big_conv1
I0413 18:04:23.097008 11634 net.cpp:157] Top shape: 1 512 63 94 (3032064)
I0413 18:04:23.097014 11634 net.cpp:165] Memory required for data: 3512114676
I0413 18:04:23.097029 11634 layer_factory.hpp:77] Creating layer rpn_big_conv1_relu
I0413 18:04:23.097046 11634 net.cpp:100] Creating Layer rpn_big_conv1_relu
I0413 18:04:23.097077 11634 net.cpp:434] rpn_big_conv1_relu <- rpn_big_conv1
I0413 18:04:23.097102 11634 net.cpp:395] rpn_big_conv1_relu -> rpn_big_conv1 (in-place)
I0413 18:04:23.097131 11634 net.cpp:150] Setting up rpn_big_conv1_relu
I0413 18:04:23.097153 11634 net.cpp:157] Top shape: 1 512 63 94 (3032064)
I0413 18:04:23.097172 11634 net.cpp:165] Memory required for data: 3524242932
I0413 18:04:23.097189 11634 layer_factory.hpp:77] Creating layer rpn_big_conv2
I0413 18:04:23.097218 11634 net.cpp:100] Creating Layer rpn_big_conv2
I0413 18:04:23.097237 11634 net.cpp:434] rpn_big_conv2 <- rpn_big_conv1
I0413 18:04:23.097261 11634 net.cpp:408] rpn_big_conv2 -> rpn_big_conv2
I0413 18:04:23.123409 11634 net.cpp:150] Setting up rpn_big_conv2
I0413 18:04:23.123497 11634 net.cpp:157] Top shape: 1 512 63 94 (3032064)
I0413 18:04:23.123517 11634 net.cpp:165] Memory required for data: 3536371188
I0413 18:04:23.123535 11634 layer_factory.hpp:77] Creating layer rpn_big_conv2_relu
I0413 18:04:23.123551 11634 net.cpp:100] Creating Layer rpn_big_conv2_relu
I0413 18:04:23.123560 11634 net.cpp:434] rpn_big_conv2_relu <- rpn_big_conv2
I0413 18:04:23.123576 11634 net.cpp:395] rpn_big_conv2_relu -> rpn_big_conv2 (in-place)
I0413 18:04:23.123608 11634 net.cpp:150] Setting up rpn_big_conv2_relu
I0413 18:04:23.123616 11634 net.cpp:157] Top shape: 1 512 63 94 (3032064)
I0413 18:04:23.123621 11634 net.cpp:165] Memory required for data: 3548499444
I0413 18:04:23.123627 11634 layer_factory.hpp:77] Creating layer rpn_big_conv2_drop
I0413 18:04:23.123637 11634 net.cpp:100] Creating Layer rpn_big_conv2_drop
I0413 18:04:23.123644 11634 net.cpp:434] rpn_big_conv2_drop <- rpn_big_conv2
I0413 18:04:23.123654 11634 net.cpp:395] rpn_big_conv2_drop -> rpn_big_conv2 (in-place)
I0413 18:04:23.123688 11634 net.cpp:150] Setting up rpn_big_conv2_drop
I0413 18:04:23.123699 11634 net.cpp:157] Top shape: 1 512 63 94 (3032064)
I0413 18:04:23.123703 11634 net.cpp:165] Memory required for data: 3560627700
I0413 18:04:23.123709 11634 layer_factory.hpp:77] Creating layer rpn_big_conv2_rpn_big_conv2_drop_0_split
I0413 18:04:23.123721 11634 net.cpp:100] Creating Layer rpn_big_conv2_rpn_big_conv2_drop_0_split
I0413 18:04:23.123728 11634 net.cpp:434] rpn_big_conv2_rpn_big_conv2_drop_0_split <- rpn_big_conv2
I0413 18:04:23.123736 11634 net.cpp:408] rpn_big_conv2_rpn_big_conv2_drop_0_split -> rpn_big_conv2_rpn_big_conv2_drop_0_split_0
I0413 18:04:23.123751 11634 net.cpp:408] rpn_big_conv2_rpn_big_conv2_drop_0_split -> rpn_big_conv2_rpn_big_conv2_drop_0_split_1
I0413 18:04:23.123807 11634 net.cpp:150] Setting up rpn_big_conv2_rpn_big_conv2_drop_0_split
I0413 18:04:23.123819 11634 net.cpp:157] Top shape: 1 512 63 94 (3032064)
I0413 18:04:23.123828 11634 net.cpp:157] Top shape: 1 512 63 94 (3032064)
I0413 18:04:23.123834 11634 net.cpp:165] Memory required for data: 3584884212
I0413 18:04:23.123839 11634 layer_factory.hpp:77] Creating layer rpn_big_output_cls
I0413 18:04:23.123858 11634 net.cpp:100] Creating Layer rpn_big_output_cls
I0413 18:04:23.123867 11634 net.cpp:434] rpn_big_output_cls <- rpn_big_conv2_rpn_big_conv2_drop_0_split_0
I0413 18:04:23.123878 11634 net.cpp:408] rpn_big_output_cls -> rpn_big_output_cls
I0413 18:04:23.144513 11634 net.cpp:150] Setting up rpn_big_output_cls
I0413 18:04:23.144544 11634 net.cpp:157] Top shape: 1 384 63 94 (2274048)
I0413 18:04:23.144548 11634 net.cpp:165] Memory required for data: 3593980404
I0413 18:04:23.144559 11634 layer_factory.hpp:77] Creating layer rpn_big_output_cls_relu
I0413 18:04:23.144572 11634 net.cpp:100] Creating Layer rpn_big_output_cls_relu
I0413 18:04:23.144579 11634 net.cpp:434] rpn_big_output_cls_relu <- rpn_big_output_cls
I0413 18:04:23.144590 11634 net.cpp:395] rpn_big_output_cls_relu -> rpn_big_output_cls (in-place)
I0413 18:04:23.144605 11634 net.cpp:150] Setting up rpn_big_output_cls_relu
I0413 18:04:23.144613 11634 net.cpp:157] Top shape: 1 384 63 94 (2274048)
I0413 18:04:23.144620 11634 net.cpp:165] Memory required for data: 3603076596
I0413 18:04:23.144625 11634 layer_factory.hpp:77] Creating layer rpn_big_cls_score
I0413 18:04:23.144641 11634 net.cpp:100] Creating Layer rpn_big_cls_score
I0413 18:04:23.144650 11634 net.cpp:434] rpn_big_cls_score <- rpn_big_output_cls
I0413 18:04:23.144660 11634 net.cpp:408] rpn_big_cls_score -> rpn_big_cls_score
I0413 18:04:23.147104 11634 net.cpp:150] Setting up rpn_big_cls_score
I0413 18:04:23.147119 11634 net.cpp:157] Top shape: 1 52 61 92 (291824)
I0413 18:04:23.147122 11634 net.cpp:165] Memory required for data: 3604243892
I0413 18:04:23.147145 11634 layer_factory.hpp:77] Creating layer rpn_big_cls_score_rpn_big_cls_score_0_split
I0413 18:04:23.147153 11634 net.cpp:100] Creating Layer rpn_big_cls_score_rpn_big_cls_score_0_split
I0413 18:04:23.147157 11634 net.cpp:434] rpn_big_cls_score_rpn_big_cls_score_0_split <- rpn_big_cls_score
I0413 18:04:23.147167 11634 net.cpp:408] rpn_big_cls_score_rpn_big_cls_score_0_split -> rpn_big_cls_score_rpn_big_cls_score_0_split_0
I0413 18:04:23.147181 11634 net.cpp:408] rpn_big_cls_score_rpn_big_cls_score_0_split -> rpn_big_cls_score_rpn_big_cls_score_0_split_1
I0413 18:04:23.147228 11634 net.cpp:150] Setting up rpn_big_cls_score_rpn_big_cls_score_0_split
I0413 18:04:23.147239 11634 net.cpp:157] Top shape: 1 52 61 92 (291824)
I0413 18:04:23.147248 11634 net.cpp:157] Top shape: 1 52 61 92 (291824)
I0413 18:04:23.147253 11634 net.cpp:165] Memory required for data: 3606578484
I0413 18:04:23.147259 11634 layer_factory.hpp:77] Creating layer rpn_big_cls_score_reshape
I0413 18:04:23.147270 11634 net.cpp:100] Creating Layer rpn_big_cls_score_reshape
I0413 18:04:23.147276 11634 net.cpp:434] rpn_big_cls_score_reshape <- rpn_big_cls_score_rpn_big_cls_score_0_split_0
I0413 18:04:23.147289 11634 net.cpp:408] rpn_big_cls_score_reshape -> rpn_big_cls_score_reshape
I0413 18:04:23.147325 11634 net.cpp:150] Setting up rpn_big_cls_score_reshape
I0413 18:04:23.147336 11634 net.cpp:157] Top shape: 1 2 1586 92 (291824)
I0413 18:04:23.147342 11634 net.cpp:165] Memory required for data: 3607745780
I0413 18:04:23.147348 11634 layer_factory.hpp:77] Creating layer rpn_big_cls_score_reshape_rpn_big_cls_score_reshape_0_split
I0413 18:04:23.147357 11634 net.cpp:100] Creating Layer rpn_big_cls_score_reshape_rpn_big_cls_score_reshape_0_split
I0413 18:04:23.147364 11634 net.cpp:434] rpn_big_cls_score_reshape_rpn_big_cls_score_reshape_0_split <- rpn_big_cls_score_reshape
I0413 18:04:23.147375 11634 net.cpp:408] rpn_big_cls_score_reshape_rpn_big_cls_score_reshape_0_split -> rpn_big_cls_score_reshape_rpn_big_cls_score_reshape_0_split_0
I0413 18:04:23.147387 11634 net.cpp:408] rpn_big_cls_score_reshape_rpn_big_cls_score_reshape_0_split -> rpn_big_cls_score_reshape_rpn_big_cls_score_reshape_0_split_1
I0413 18:04:23.147433 11634 net.cpp:150] Setting up rpn_big_cls_score_reshape_rpn_big_cls_score_reshape_0_split
I0413 18:04:23.147444 11634 net.cpp:157] Top shape: 1 2 1586 92 (291824)
I0413 18:04:23.147454 11634 net.cpp:157] Top shape: 1 2 1586 92 (291824)
I0413 18:04:23.147459 11634 net.cpp:165] Memory required for data: 3610080372
I0413 18:04:23.147464 11634 layer_factory.hpp:77] Creating layer rpn_big_cls_prob
I0413 18:04:23.147472 11634 net.cpp:100] Creating Layer rpn_big_cls_prob
I0413 18:04:23.147482 11634 net.cpp:434] rpn_big_cls_prob <- rpn_big_cls_score_reshape_rpn_big_cls_score_reshape_0_split_0
I0413 18:04:23.147491 11634 net.cpp:408] rpn_big_cls_prob -> rpn_big_cls_prob
I0413 18:04:23.147567 11634 net.cpp:150] Setting up rpn_big_cls_prob
I0413 18:04:23.147578 11634 net.cpp:157] Top shape: 1 2 1586 92 (291824)
I0413 18:04:23.147583 11634 net.cpp:165] Memory required for data: 3611247668
I0413 18:04:23.147589 11634 layer_factory.hpp:77] Creating layer rpn_big_cls_prob_reshape
I0413 18:04:23.147599 11634 net.cpp:100] Creating Layer rpn_big_cls_prob_reshape
I0413 18:04:23.147605 11634 net.cpp:434] rpn_big_cls_prob_reshape <- rpn_big_cls_prob
I0413 18:04:23.147615 11634 net.cpp:408] rpn_big_cls_prob_reshape -> rpn_big_cls_prob_reshape
I0413 18:04:23.147650 11634 net.cpp:150] Setting up rpn_big_cls_prob_reshape
I0413 18:04:23.147660 11634 net.cpp:157] Top shape: 1 52 61 92 (291824)
I0413 18:04:23.147665 11634 net.cpp:165] Memory required for data: 3612414964
I0413 18:04:23.147670 11634 layer_factory.hpp:77] Creating layer rpn_big_cls_prob_reshape_rpn_big_cls_prob_reshape_0_split
I0413 18:04:23.147680 11634 net.cpp:100] Creating Layer rpn_big_cls_prob_reshape_rpn_big_cls_prob_reshape_0_split
I0413 18:04:23.147686 11634 net.cpp:434] rpn_big_cls_prob_reshape_rpn_big_cls_prob_reshape_0_split <- rpn_big_cls_prob_reshape
I0413 18:04:23.147696 11634 net.cpp:408] rpn_big_cls_prob_reshape_rpn_big_cls_prob_reshape_0_split -> rpn_big_cls_prob_reshape_rpn_big_cls_prob_reshape_0_split_0
I0413 18:04:23.147708 11634 net.cpp:408] rpn_big_cls_prob_reshape_rpn_big_cls_prob_reshape_0_split -> rpn_big_cls_prob_reshape_rpn_big_cls_prob_reshape_0_split_1
I0413 18:04:23.147750 11634 net.cpp:150] Setting up rpn_big_cls_prob_reshape_rpn_big_cls_prob_reshape_0_split
I0413 18:04:23.147760 11634 net.cpp:157] Top shape: 1 52 61 92 (291824)
I0413 18:04:23.147768 11634 net.cpp:157] Top shape: 1 52 61 92 (291824)
I0413 18:04:23.147773 11634 net.cpp:165] Memory required for data: 3614749556
I0413 18:04:23.147778 11634 layer_factory.hpp:77] Creating layer rpn_big_anchor_target
I0413 18:04:23.149336 11634 net.cpp:100] Creating Layer rpn_big_anchor_target
I0413 18:04:23.149353 11634 net.cpp:434] rpn_big_anchor_target <- rpn_big_cls_score_rpn_big_cls_score_0_split_1
I0413 18:04:23.149363 11634 net.cpp:434] rpn_big_anchor_target <- input_gt_boxes_input_2_split_0
I0413 18:04:23.149370 11634 net.cpp:434] rpn_big_anchor_target <- input_ignored_boxes
I0413 18:04:23.149380 11634 net.cpp:434] rpn_big_anchor_target <- input_im_info_input_1_split_0
I0413 18:04:23.149389 11634 net.cpp:434] rpn_big_anchor_target <- input_data_input_0_split_1
I0413 18:04:23.149396 11634 net.cpp:434] rpn_big_anchor_target <- rpn_big_cls_prob_reshape_rpn_big_cls_prob_reshape_0_split_0
I0413 18:04:23.149408 11634 net.cpp:408] rpn_big_anchor_target -> rpn_big_anchor_target_labels
I0413 18:04:23.149425 11634 net.cpp:408] rpn_big_anchor_target -> rpn_big_anchor_target_bbox_targets
I0413 18:04:23.149440 11634 net.cpp:408] rpn_big_anchor_target -> rpn_big_anchor_target_inside_weights
I0413 18:04:23.149454 11634 net.cpp:408] rpn_big_anchor_target -> rpn_big_anchor_target_outside_weights
I0413 18:04:23.155221 11634 net.cpp:150] Setting up rpn_big_anchor_target
I0413 18:04:23.155251 11634 net.cpp:157] Top shape: 1 1 1586 92 (145912)
I0413 18:04:23.155256 11634 net.cpp:157] Top shape: 1 104 61 92 (583648)
I0413 18:04:23.155262 11634 net.cpp:157] Top shape: 1 104 61 92 (583648)
I0413 18:04:23.155269 11634 net.cpp:157] Top shape: 1 104 61 92 (583648)
I0413 18:04:23.155274 11634 net.cpp:165] Memory required for data: 3622336980
I0413 18:04:23.155285 11634 layer_factory.hpp:77] Creating layer rpn_big_loss_cls
I0413 18:04:23.155303 11634 net.cpp:100] Creating Layer rpn_big_loss_cls
I0413 18:04:23.155313 11634 net.cpp:434] rpn_big_loss_cls <- rpn_big_cls_score_reshape_rpn_big_cls_score_reshape_0_split_1
I0413 18:04:23.155321 11634 net.cpp:434] rpn_big_loss_cls <- rpn_big_anchor_target_labels
I0413 18:04:23.155333 11634 net.cpp:408] rpn_big_loss_cls -> rpn_big_loss_cls
I0413 18:04:23.155351 11634 layer_factory.hpp:77] Creating layer rpn_big_loss_cls
I0413 18:04:23.157402 11634 net.cpp:150] Setting up rpn_big_loss_cls
I0413 18:04:23.157418 11634 net.cpp:157] Top shape: (1)
I0413 18:04:23.157421 11634 net.cpp:160]     with loss weight 1
I0413 18:04:23.157438 11634 net.cpp:165] Memory required for data: 3622336984
I0413 18:04:23.157447 11634 layer_factory.hpp:77] Creating layer rpn_big_output_box
I0413 18:04:23.157467 11634 net.cpp:100] Creating Layer rpn_big_output_box
I0413 18:04:23.157476 11634 net.cpp:434] rpn_big_output_box <- rpn_big_conv2_rpn_big_conv2_drop_0_split_1
I0413 18:04:23.157490 11634 net.cpp:408] rpn_big_output_box -> rpn_big_output_box
I0413 18:04:23.177875 11634 net.cpp:150] Setting up rpn_big_output_box
I0413 18:04:23.177913 11634 net.cpp:157] Top shape: 1 384 63 94 (2274048)
I0413 18:04:23.177917 11634 net.cpp:165] Memory required for data: 3631433176
I0413 18:04:23.177927 11634 layer_factory.hpp:77] Creating layer rpn_big_output_box_relu
I0413 18:04:23.177939 11634 net.cpp:100] Creating Layer rpn_big_output_box_relu
I0413 18:04:23.177944 11634 net.cpp:434] rpn_big_output_box_relu <- rpn_big_output_box
I0413 18:04:23.177953 11634 net.cpp:395] rpn_big_output_box_relu -> rpn_big_output_box (in-place)
I0413 18:04:23.177965 11634 net.cpp:150] Setting up rpn_big_output_box_relu
I0413 18:04:23.177973 11634 net.cpp:157] Top shape: 1 384 63 94 (2274048)
I0413 18:04:23.177978 11634 net.cpp:165] Memory required for data: 3640529368
I0413 18:04:23.177983 11634 layer_factory.hpp:77] Creating layer rpn_big_bbox_pred
I0413 18:04:23.177999 11634 net.cpp:100] Creating Layer rpn_big_bbox_pred
I0413 18:04:23.178007 11634 net.cpp:434] rpn_big_bbox_pred <- rpn_big_output_box
I0413 18:04:23.178019 11634 net.cpp:408] rpn_big_bbox_pred -> rpn_big_bbox_pred
I0413 18:04:23.182394 11634 net.cpp:150] Setting up rpn_big_bbox_pred
I0413 18:04:23.182417 11634 net.cpp:157] Top shape: 1 104 61 92 (583648)
I0413 18:04:23.182430 11634 net.cpp:165] Memory required for data: 3642863960
I0413 18:04:23.182440 11634 layer_factory.hpp:77] Creating layer rpn_big_bbox_pred_rpn_big_bbox_pred_0_split
I0413 18:04:23.182448 11634 net.cpp:100] Creating Layer rpn_big_bbox_pred_rpn_big_bbox_pred_0_split
I0413 18:04:23.182453 11634 net.cpp:434] rpn_big_bbox_pred_rpn_big_bbox_pred_0_split <- rpn_big_bbox_pred
I0413 18:04:23.182463 11634 net.cpp:408] rpn_big_bbox_pred_rpn_big_bbox_pred_0_split -> rpn_big_bbox_pred_rpn_big_bbox_pred_0_split_0
I0413 18:04:23.182478 11634 net.cpp:408] rpn_big_bbox_pred_rpn_big_bbox_pred_0_split -> rpn_big_bbox_pred_rpn_big_bbox_pred_0_split_1
I0413 18:04:23.182552 11634 net.cpp:150] Setting up rpn_big_bbox_pred_rpn_big_bbox_pred_0_split
I0413 18:04:23.182564 11634 net.cpp:157] Top shape: 1 104 61 92 (583648)
I0413 18:04:23.182569 11634 net.cpp:157] Top shape: 1 104 61 92 (583648)
I0413 18:04:23.182582 11634 net.cpp:165] Memory required for data: 3647533144
I0413 18:04:23.182587 11634 layer_factory.hpp:77] Creating layer rpn_big_loss_bbox
I0413 18:04:23.183017 11634 net.cpp:100] Creating Layer rpn_big_loss_bbox
I0413 18:04:23.183027 11634 net.cpp:434] rpn_big_loss_bbox <- rpn_big_bbox_pred_rpn_big_bbox_pred_0_split_0
I0413 18:04:23.183033 11634 net.cpp:434] rpn_big_loss_bbox <- rpn_big_anchor_target_bbox_targets
I0413 18:04:23.183042 11634 net.cpp:434] rpn_big_loss_bbox <- rpn_big_anchor_target_inside_weights
I0413 18:04:23.183050 11634 net.cpp:434] rpn_big_loss_bbox <- rpn_big_anchor_target_outside_weights
I0413 18:04:23.183063 11634 net.cpp:408] rpn_big_loss_bbox -> rpn_big_loss_bbox
I0413 18:04:23.185070 11634 net.cpp:150] Setting up rpn_big_loss_bbox
I0413 18:04:23.185103 11634 net.cpp:157] Top shape: 1 (1)
I0413 18:04:23.185107 11634 net.cpp:160]     with loss weight 1
I0413 18:04:23.185122 11634 net.cpp:165] Memory required for data: 3647533148
I0413 18:04:23.185130 11634 layer_factory.hpp:77] Creating layer proposal
I0413 18:04:23.185580 11634 net.cpp:100] Creating Layer proposal
I0413 18:04:23.185592 11634 net.cpp:434] proposal <- rpn_big_cls_prob_reshape_rpn_big_cls_prob_reshape_0_split_1
I0413 18:04:23.185605 11634 net.cpp:434] proposal <- rpn_big_bbox_pred_rpn_big_bbox_pred_0_split_1
I0413 18:04:23.185613 11634 net.cpp:434] proposal <- input_im_info_input_1_split_1
I0413 18:04:23.185628 11634 net.cpp:408] proposal -> rpn_rois
I0413 18:04:23.189981 11634 net.cpp:150] Setting up proposal
I0413 18:04:23.189997 11634 net.cpp:157] Top shape: 1 5 (5)
I0413 18:04:23.190003 11634 net.cpp:165] Memory required for data: 3647533168
I0413 18:04:23.190011 11634 layer_factory.hpp:77] Creating layer roi-data
I0413 18:04:23.190352 11634 net.cpp:100] Creating Layer roi-data
I0413 18:04:23.190366 11634 net.cpp:434] roi-data <- rpn_rois
I0413 18:04:23.190376 11634 net.cpp:434] roi-data <- input_gt_boxes_input_2_split_1
I0413 18:04:23.190388 11634 net.cpp:408] roi-data -> rois
I0413 18:04:23.190404 11634 net.cpp:408] roi-data -> labels
I0413 18:04:23.190419 11634 net.cpp:408] roi-data -> bbox_targets
I0413 18:04:23.190434 11634 net.cpp:408] roi-data -> bbox_inside_weights
I0413 18:04:23.190448 11634 net.cpp:408] roi-data -> bbox_outside_weights
I0413 18:04:23.190462 11634 net.cpp:408] roi-data -> pid_label
I0413 18:04:23.191488 11634 net.cpp:150] Setting up roi-data
I0413 18:04:23.191506 11634 net.cpp:157] Top shape: 1 5 (5)
I0413 18:04:23.191514 11634 net.cpp:157] Top shape: 1 1 (1)
I0413 18:04:23.191521 11634 net.cpp:157] Top shape: 1 8 (8)
I0413 18:04:23.191530 11634 net.cpp:157] Top shape: 1 8 (8)
I0413 18:04:23.191540 11634 net.cpp:157] Top shape: 1 8 (8)
I0413 18:04:23.191547 11634 net.cpp:157] Top shape: (0)
I0413 18:04:23.191555 11634 net.cpp:165] Memory required for data: 3647533288
I0413 18:04:23.191565 11634 layer_factory.hpp:77] Creating layer roi-pool
I0413 18:04:23.191581 11634 net.cpp:100] Creating Layer roi-pool
I0413 18:04:23.191588 11634 net.cpp:434] roi-pool <- conv5_3_relu5_3_0_split_1
I0413 18:04:23.191598 11634 net.cpp:434] roi-pool <- rois
I0413 18:04:23.191608 11634 net.cpp:408] roi-pool -> roi-pool
I0413 18:04:23.191623 11634 roi_pooling_layer.cpp:33] Spatial scale: 0.0625
I0413 18:04:23.191654 11634 roi_pooling_layer.cpp:34] Box scale: 1
I0413 18:04:23.191716 11634 net.cpp:150] Setting up roi-pool
I0413 18:04:23.191733 11634 net.cpp:157] Top shape: 1 512 7 7 (25088)
I0413 18:04:23.191741 11634 net.cpp:165] Memory required for data: 3647633640
I0413 18:04:23.191748 11634 layer_factory.hpp:77] Creating layer fc6
I0413 18:04:23.191761 11634 net.cpp:100] Creating Layer fc6
I0413 18:04:23.191767 11634 net.cpp:434] fc6 <- roi-pool
I0413 18:04:23.191779 11634 net.cpp:408] fc6 -> fc6
I0413 18:04:23.356073 11634 net.cpp:150] Setting up fc6
I0413 18:04:23.356112 11634 net.cpp:157] Top shape: 1 4096 (4096)
I0413 18:04:23.356117 11634 net.cpp:165] Memory required for data: 3647650024
I0413 18:04:23.356140 11634 layer_factory.hpp:77] Creating layer relu6
I0413 18:04:23.356155 11634 net.cpp:100] Creating Layer relu6
I0413 18:04:23.356184 11634 net.cpp:434] relu6 <- fc6
I0413 18:04:23.356209 11634 net.cpp:395] relu6 -> fc6 (in-place)
I0413 18:04:23.356236 11634 net.cpp:150] Setting up relu6
I0413 18:04:23.356257 11634 net.cpp:157] Top shape: 1 4096 (4096)
I0413 18:04:23.356264 11634 net.cpp:165] Memory required for data: 3647666408
I0413 18:04:23.356271 11634 layer_factory.hpp:77] Creating layer drop6
I0413 18:04:23.356281 11634 net.cpp:100] Creating Layer drop6
I0413 18:04:23.356286 11634 net.cpp:434] drop6 <- fc6
I0413 18:04:23.356293 11634 net.cpp:395] drop6 -> fc6 (in-place)
I0413 18:04:23.356335 11634 net.cpp:150] Setting up drop6
I0413 18:04:23.356346 11634 net.cpp:157] Top shape: 1 4096 (4096)
I0413 18:04:23.356350 11634 net.cpp:165] Memory required for data: 3647682792
I0413 18:04:23.356364 11634 net.cpp:228] drop6 does not need backward computation.
I0413 18:04:23.356369 11634 net.cpp:228] relu6 does not need backward computation.
I0413 18:04:23.356375 11634 net.cpp:228] fc6 does not need backward computation.
I0413 18:04:23.356381 11634 net.cpp:228] roi-pool does not need backward computation.
…
