…
I0413 15:27:08.481118  6363 solver.cpp:48] Initializing solver from parameters: 
base_lr: 0.001
display: 20
lr_policy: "multistep"
gamma: 0.1
momentum: 0.9
weight_decay: 0.0005
snapshot: 0
snapshot_prefix: "faces_example"
net_param {
  name: "GeneratedModel_13_04_2017_15_27"
  layer {
    name: "input"
    type: "Python"
    top: "input_data"
    top: "input_im_info"
    top: "input_gt_boxes"
    top: "input_ignored_boxes"
    python_param {
      module: "layers.roi_data_layer"
      layer: "RoIDataLayer"
      param_str: "{\"num_classes\": 2}"
    }
  }
  layer {
    name: "conv1_1"
    type: "Convolution"
    bottom: "input_data"
    top: "conv1_1"
    param {
      lr_mult: 0
      decay_mult: 0
    }
    param {
      lr_mult: 0
      decay_mult: 0
    }
    convolution_param {
      num_output: 64
      pad: 1
      kernel_size: 3
    }
  }
  layer {
    name: "relu1_1"
    type: "ReLU"
    bottom: "conv1_1"
    top: "conv1_1"
  }
  layer {
    name: "conv1_2"
    type: "Convolution"
    bottom: "conv1_1"
    top: "conv1_2"
    param {
      lr_mult: 0
      decay_mult: 0
    }
    param {
      lr_mult: 0
      decay_mult: 0
    }
    convolution_param {
      num_output: 64
      pad: 1
      kernel_size: 3
    }
  }
  layer {
    name: "relu1_2"
    type: "ReLU"
    bottom: "conv1_2"
    top: "conv1_2"
  }
  layer {
    name: "pool1"
    type: "Pooling"
    bottom: "conv1_2"
    top: "pool1"
    pooling_param {
      pool: MAX
      kernel_size: 2
      stride: 2
    }
  }
  layer {
    name: "conv2_1"
    type: "Convolution"
    bottom: "pool1"
    top: "conv2_1"
    param {
      lr_mult: 0
      decay_mult: 0
    }
    param {
      lr_mult: 0
      decay_mult: 0
    }
    convolution_param {
      num_output: 128
      pad: 1
      kernel_size: 3
    }
  }
  layer {
    name: "relu2_1"
    type: "ReLU"
    bottom: "conv2_1"
    top: "conv2_1"
  }
  layer {
    name: "conv2_2"
    type: "Convolution"
    bottom: "conv2_1"
    top: "conv2_2"
    param {
      lr_mult: 0
      decay_mult: 0
    }
    param {
      lr_mult: 0
      decay_mult: 0
    }
    convolution_param {
      num_output: 128
      pad: 1
      kernel_size: 3
    }
  }
  layer {
    name: "relu2_2"
    type: "ReLU"
    bottom: "conv2_2"
    top: "conv2_2"
  }
  layer {
    name: "pool2"
    type: "Pooling"
    bottom: "conv2_2"
    top: "pool2"
    pooling_param {
      pool: MAX
      kernel_size: 2
      stride: 2
    }
  }
  layer {
    name: "conv3_1"
    type: "Convolution"
    bottom: "pool2"
    top: "conv3_1"
    param {
      lr_mult: 1
    }
    param {
      lr_mult: 2
    }
    convolution_param {
      num_output: 256
      pad: 1
      kernel_size: 3
    }
  }
  layer {
    name: "relu3_1"
    type: "ReLU"
    bottom: "conv3_1"
    top: "conv3_1"
  }
  layer {
    name: "conv3_2"
    type: "Convolution"
    bottom: "conv3_1"
    top: "conv3_2"
    param {
      lr_mult: 1
    }
    param {
      lr_mult: 2
    }
    convolution_param {
      num_output: 256
      pad: 1
      kernel_size: 3
    }
  }
  layer {
    name: "relu3_2"
    type: "ReLU"
    bottom: "conv3_2"
    top: "conv3_2"
  }
  layer {
    name: "conv3_3"
    type: "Convolution"
    bottom: "conv3_2"
    top: "conv3_3"
    param {
      lr_mult: 1
    }
    param {
      lr_mult: 2
    }
    convolution_param {
      num_output: 256
      pad: 1
      kernel_size: 3
    }
  }
  layer {
    name: "relu3_3"
    type: "ReLU"
    bottom: "conv3_3"
    top: "conv3_3"
  }
  layer {
    name: "pool3"
    type: "Pooling"
    bottom: "conv3_3"
    top: "pool3"
    pooling_param {
      pool: MAX
      kernel_size: 2
      stride: 2
    }
  }
  layer {
    name: "conv4_1"
    type: "Convolution"
    bottom: "pool3"
    top: "conv4_1"
    param {
      lr_mult: 1
    }
    param {
      lr_mult: 2
    }
    convolution_param {
      num_output: 512
      pad: 1
      kernel_size: 3
    }
  }
  layer {
    name: "relu4_1"
    type: "ReLU"
    bottom: "conv4_1"
    top: "conv4_1"
  }
  layer {
    name: "conv4_2"
    type: "Convolution"
    bottom: "conv4_1"
    top: "conv4_2"
    param {
      lr_mult: 1
    }
    param {
      lr_mult: 2
    }
    convolution_param {
      num_output: 512
      pad: 1
      kernel_size: 3
    }
  }
  layer {
    name: "relu4_2"
    type: "ReLU"
    bottom: "conv4_2"
    top: "conv4_2"
  }
  layer {
    name: "conv4_3"
    type: "Convolution"
    bottom: "conv4_2"
    top: "conv4_3"
    param {
      lr_mult: 1
    }
    param {
      lr_mult: 2
    }
    convolution_param {
      num_output: 512
      pad: 1
      kernel_size: 3
    }
  }
  layer {
    name: "relu4_3"
    type: "ReLU"
    bottom: "conv4_3"
    top: "conv4_3"
  }
  layer {
    name: "pool4"
    type: "Pooling"
    bottom: "conv4_3"
    top: "pool4"
    pooling_param {
      pool: MAX
      kernel_size: 2
      stride: 2
    }
  }
  layer {
    name: "conv5_1"
    type: "Convolution"
    bottom: "pool4"
    top: "conv5_1"
    param {
      lr_mult: 1
    }
    param {
      lr_mult: 2
    }
    convolution_param {
      num_output: 512
      pad: 1
      kernel_size: 3
    }
  }
  layer {
    name: "relu5_1"
    type: "ReLU"
    bottom: "conv5_1"
    top: "conv5_1"
  }
  layer {
    name: "conv5_2"
    type: "Convolution"
    bottom: "conv5_1"
    top: "conv5_2"
    param {
      lr_mult: 1
    }
    param {
      lr_mult: 2
    }
    convolution_param {
      num_output: 512
      pad: 1
      kernel_size: 3
    }
  }
  layer {
    name: "relu5_2"
    type: "ReLU"
    bottom: "conv5_2"
    top: "conv5_2"
  }
  layer {
    name: "conv5_3"
    type: "Convolution"
    bottom: "conv5_2"
    top: "conv5_3"
    param {
      lr_mult: 1
    }
    param {
      lr_mult: 2
    }
    convolution_param {
      num_output: 512
      pad: 1
      kernel_size: 3
    }
  }
  layer {
    name: "relu5_3"
    type: "ReLU"
    bottom: "conv5_3"
    top: "conv5_3"
  }
  layer {
    name: "rpn_big_conv1"
    type: "Convolution"
    bottom: "conv5_3"
    top: "rpn_big_conv1"
    param {
      lr_mult: 1
    }
    param {
      lr_mult: 2
    }
    convolution_param {
      num_output: 512
      pad: 1
      kernel_size: 3
      stride: 1
      weight_filler {
        type: "gaussian"
        mean: 0
        std: 0.01
      }
      bias_filler {
        type: "constant"
      }
    }
  }
  layer {
    name: "rpn_big_conv1_relu"
    type: "ReLU"
    bottom: "rpn_big_conv1"
    top: "rpn_big_conv1"
    relu_param {
      negative_slope: 0
    }
  }
  layer {
    name: "rpn_big_conv2"
    type: "Convolution"
    bottom: "rpn_big_conv1"
    top: "rpn_big_conv2"
    param {
      lr_mult: 1
    }
    param {
      lr_mult: 2
    }
    convolution_param {
      num_output: 512
      pad: 1
      kernel_size: 3
      stride: 1
      weight_filler {
        type: "gaussian"
        mean: 0
        std: 0.01
      }
      bias_filler {
        type: "constant"
      }
    }
  }
  layer {
    name: "rpn_big_conv2_relu"
    type: "ReLU"
    bottom: "rpn_big_conv2"
    top: "rpn_big_conv2"
    relu_param {
      negative_slope: 0
    }
  }
  layer {
    name: "rpn_big_conv2_drop"
    type: "Dropout"
    bottom: "rpn_big_conv2"
    top: "rpn_big_conv2"
    dropout_param {
      dropout_ratio: 0.3
    }
  }
  layer {
    name: "rpn_big_output_cls"
    type: "Convolution"
    bottom: "rpn_big_conv2"
    top: "rpn_big_output_cls"
    param {
      lr_mult: 1
    }
    param {
      lr_mult: 2
    }
    convolution_param {
      num_output: 384
      pad: 1
      kernel_size: 3
      stride: 1
      weight_filler {
        type: "gaussian"
        mean: 0
        std: 0.01
      }
      bias_filler {
        type: "constant"
      }
    }
  }
  layer {
    name: "rpn_big_output_cls_relu"
    type: "ReLU"
    bottom: "rpn_big_output_cls"
    top: "rpn_big_output_cls"
    relu_param {
      negative_slope: 0
    }
  }
  layer {
    name: "rpn_big_cls_score"
    type: "Convolution"
    bottom: "rpn_big_output_cls"
    top: "rpn_big_cls_score"
    param {
      lr_mult: 1
    }
    param {
      lr_mult: 2
    }
    convolution_param {
      num_output: 52
      pad: 0
      kernel_size: 3
      stride: 1
      weight_filler {
        type: "gaussian"
        mean: 0
        std: 0.01
      }
      bias_filler {
        type: "constant"
      }
    }
  }
  layer {
    name: "rpn_big_cls_score_reshape"
    type: "Reshape"
    bottom: "rpn_big_cls_score"
    top: "rpn_big_cls_score_reshape"
    reshape_param {
      shape {
        dim: 0
        dim: 2
        dim: -1
        dim: 0
      }
    }
  }
  layer {
    name: "rpn_big_cls_prob"
    type: "Softmax"
    bottom: "rpn_big_cls_score_reshape"
    top: "rpn_big_cls_prob"
  }
  layer {
    name: "rpn_big_cls_prob_reshape"
    type: "Reshape"
    bottom: "rpn_big_cls_prob"
    top: "rpn_big_cls_prob_reshape"
    reshape_param {
      shape {
        dim: 0
        dim: 52
        dim: -1
        dim: 0
      }
    }
  }
  layer {
    name: "rpn_big_anchor_target"
    type: "Python"
    bottom: "rpn_big_cls_score"
    bottom: "input_gt_boxes"
    bottom: "input_ignored_boxes"
    bottom: "input_im_info"
    bottom: "input_data"
    bottom: "rpn_big_cls_prob_reshape"
    top: "rpn_big_anchor_target_labels"
    top: "rpn_big_anchor_target_bbox_targets"
    top: "rpn_big_anchor_target_inside_weights"
    top: "rpn_big_anchor_target_outside_weights"
    python_param {
      module: "rpn.anchor_target_layer"
      layer: "AnchorTargetLayer"
      param_str: "{\"anchor_scales\": [2.5, 3.025, 3.66025, 4.4289024999999995, 5.358972025, 6.484356150249999, 7.846070941802498, 9.493745839581022, 11.487432465893036, 13.899793283730574, 16.818749873313998, 20.350687346709933, 24.62433168951902, 29.795441344318014], \"tn_fraction\": 0.2, \"fg_fraction\": 0.5, \"anchor_ratios\": [1.0], \"positive_overlap\": 0.6, \"name\": \"rpn_big\", \"anchor_shift_num_xy\": [[2, 2], [2, 2], [2, 2], [2, 2], [1, 1], [1, 1], [1, 1], [1, 1], [1, 1], [1, 1], [1, 1], [1, 1], [1, 1], [1, 1]], \"feat_stride\": 16, \"num_classes\": 1, \"negative_overlap\": 0.4, \"square_targets\": true, \"batchsize\": 256}"
    }
  }
  layer {
    name: "rpn_big_loss_cls"
    type: "SoftmaxWithLoss"
    bottom: "rpn_big_cls_score_reshape"
    bottom: "rpn_big_anchor_target_labels"
    top: "rpn_big_loss_cls"
    loss_weight: 1
    propagate_down: true
    propagate_down: false
    loss_param {
      ignore_label: -1
      normalization: VALID
    }
  }
  layer {
    name: "rpn_big_output_box"
    type: "Convolution"
    bottom: "rpn_big_conv2"
    top: "rpn_big_output_box"
    param {
      lr_mult: 1
    }
    param {
      lr_mult: 2
    }
    convolution_param {
      num_output: 384
      pad: 1
      kernel_size: 3
      stride: 1
      weight_filler {
        type: "gaussian"
        mean: 0
        std: 0.01
      }
      bias_filler {
        type: "constant"
      }
    }
  }
  layer {
    name: "rpn_big_output_box_relu"
    type: "ReLU"
    bottom: "rpn_big_output_box"
    top: "rpn_big_output_box"
    relu_param {
      negative_slope: 0
    }
  }
  layer {
    name: "rpn_big_bbox_pred"
    type: "Convolution"
    bottom: "rpn_big_output_box"
    top: "rpn_big_bbox_pred"
    param {
      lr_mult: 1
    }
    param {
      lr_mult: 2
    }
    convolution_param {
      num_output: 104
      pad: 0
      kernel_size: 3
      stride: 1
      weight_filler {
        type: "gaussian"
        mean: 0
        std: 0.01
      }
      bias_filler {
        type: "constant"
      }
    }
  }
  layer {
    name: "rpn_big_loss_bbox"
    type: "Python"
    bottom: "rpn_big_bbox_pred"
    bottom: "rpn_big_anchor_target_bbox_targets"
    bottom: "rpn_big_anchor_target_inside_weights"
    bottom: "rpn_big_anchor_target_outside_weights"
    top: "rpn_big_loss_bbox"
    loss_weight: 1
    python_param {
      module: "layers.smooth_l1_loss"
      layer: "SmoothL1LossLayer"
      param_str: "{\"sigma\": 3}"
    }
  }
  layer {
    name: "MyLoss"
    type: "SoftmaxWithLoss"
    bottom: "rpn_big_cls_score_reshape"
    bottom: "rpn_big_anchor_target_labels"
    top: "MyLoss"
    propagate_down: true
    propagate_down: false
    loss_param {
      ignore_label: -1
      normalization: VALID
    }
  }
}
average_loss: 100
stepvalue: 70000
stepvalue: 120000
iter_size: 2
I0413 15:27:08.481190  6363 solver.cpp:86] Creating training net specified in net_param.
I0413 15:27:08.481549  6363 net.cpp:58] Initializing net from parameters: 
name: "GeneratedModel_13_04_2017_15_27"
state {
  phase: TRAIN
}
layer {
  name: "input"
  type: "Python"
  top: "input_data"
  top: "input_im_info"
  top: "input_gt_boxes"
  top: "input_ignored_boxes"
  python_param {
    module: "layers.roi_data_layer"
    layer: "RoIDataLayer"
    param_str: "{\"num_classes\": 2}"
  }
}
layer {
  name: "conv1_1"
  type: "Convolution"
  bottom: "input_data"
  top: "conv1_1"
  param {
    lr_mult: 0
    decay_mult: 0
  }
  param {
    lr_mult: 0
    decay_mult: 0
  }
  convolution_param {
    num_output: 64
    pad: 1
    kernel_size: 3
  }
}
layer {
  name: "relu1_1"
  type: "ReLU"
  bottom: "conv1_1"
  top: "conv1_1"
}
layer {
  name: "conv1_2"
  type: "Convolution"
  bottom: "conv1_1"
  top: "conv1_2"
  param {
    lr_mult: 0
    decay_mult: 0
  }
  param {
    lr_mult: 0
    decay_mult: 0
  }
  convolution_param {
    num_output: 64
    pad: 1
    kernel_size: 3
  }
}
layer {
  name: "relu1_2"
  type: "ReLU"
  bottom: "conv1_2"
  top: "conv1_2"
}
layer {
  name: "pool1"
  type: "Pooling"
  bottom: "conv1_2"
  top: "pool1"
  pooling_param {
    pool: MAX
    kernel_size: 2
    stride: 2
  }
}
layer {
  name: "conv2_1"
  type: "Convolution"
  bottom: "pool1"
  top: "conv2_1"
  param {
    lr_mult: 0
    decay_mult: 0
  }
  param {
    lr_mult: 0
    decay_mult: 0
  }
  convolution_param {
    num_output: 128
    pad: 1
    kernel_size: 3
  }
}
layer {
  name: "relu2_1"
  type: "ReLU"
  bottom: "conv2_1"
  top: "conv2_1"
}
layer {
  name: "conv2_2"
  type: "Convolution"
  bottom: "conv2_1"
  top: "conv2_2"
  param {
    lr_mult: 0
    decay_mult: 0
  }
  param {
    lr_mult: 0
    decay_mult: 0
  }
  convolution_param {
    num_output: 128
    pad: 1
    kernel_size: 3
  }
}
layer {
  name: "relu2_2"
  type: "ReLU"
  bottom: "conv2_2"
  top: "conv2_2"
}
layer {
  name: "pool2"
  type: "Pooling"
  bottom: "conv2_2"
  top: "pool2"
  pooling_param {
    pool: MAX
    kernel_size: 2
    stride: 2
  }
}
layer {
  name: "conv3_1"
  type: "Convolution"
  bottom: "pool2"
  top: "conv3_1"
  param {
    lr_mult: 1
  }
  param {
    lr_mult: 2
  }
  convolution_param {
    num_output: 256
    pad: 1
    kernel_size: 3
  }
}
layer {
  name: "relu3_1"
  type: "ReLU"
  bottom: "conv3_1"
  top: "conv3_1"
}
layer {
  name: "conv3_2"
  type: "Convolution"
  bottom: "conv3_1"
  top: "conv3_2"
  param {
    lr_mult: 1
  }
  param {
    lr_mult: 2
  }
  convolution_param {
    num_output: 256
    pad: 1
    kernel_size: 3
  }
}
layer {
  name: "relu3_2"
  type: "ReLU"
  bottom: "conv3_2"
  top: "conv3_2"
}
layer {
  name: "conv3_3"
  type: "Convolution"
  bottom: "conv3_2"
  top: "conv3_3"
  param {
    lr_mult: 1
  }
  param {
    lr_mult: 2
  }
  convolution_param {
    num_output: 256
    pad: 1
    kernel_size: 3
  }
}
layer {
  name: "relu3_3"
  type: "ReLU"
  bottom: "conv3_3"
  top: "conv3_3"
}
layer {
  name: "pool3"
  type: "Pooling"
  bottom: "conv3_3"
  top: "pool3"
  pooling_param {
    pool: MAX
    kernel_size: 2
    stride: 2
  }
}
layer {
  name: "conv4_1"
  type: "Convolution"
  bottom: "pool3"
  top: "conv4_1"
  param {
    lr_mult: 1
  }
  param {
    lr_mult: 2
  }
  convolution_param {
    num_output: 512
    pad: 1
    kernel_size: 3
  }
}
layer {
  name: "relu4_1"
  type: "ReLU"
  bottom: "conv4_1"
  top: "conv4_1"
}
layer {
  name: "conv4_2"
  type: "Convolution"
  bottom: "conv4_1"
  top: "conv4_2"
  param {
    lr_mult: 1
  }
  param {
    lr_mult: 2
  }
  convolution_param {
    num_output: 512
    pad: 1
    kernel_size: 3
  }
}
layer {
  name: "relu4_2"
  type: "ReLU"
  bottom: "conv4_2"
  top: "conv4_2"
}
layer {
  name: "conv4_3"
  type: "Convolution"
  bottom: "conv4_2"
  top: "conv4_3"
  param {
    lr_mult: 1
  }
  param {
    lr_mult: 2
  }
  convolution_param {
    num_output: 512
    pad: 1
    kernel_size: 3
  }
}
layer {
  name: "relu4_3"
  type: "ReLU"
  bottom: "conv4_3"
  top: "conv4_3"
}
layer {
  name: "pool4"
  type: "Pooling"
  bottom: "conv4_3"
  top: "pool4"
  pooling_param {
    pool: MAX
    kernel_size: 2
    stride: 2
  }
}
layer {
  name: "conv5_1"
  type: "Convolution"
  bottom: "pool4"
  top: "conv5_1"
  param {
    lr_mult: 1
  }
  param {
    lr_mult: 2
  }
  convolution_param {
    num_output: 512
    pad: 1
    kernel_size: 3
  }
}
layer {
  name: "relu5_1"
  type: "ReLU"
  bottom: "conv5_1"
  top: "conv5_1"
}
layer {
  name: "conv5_2"
  type: "Convolution"
  bottom: "conv5_1"
  top: "conv5_2"
  param {
    lr_mult: 1
  }
  param {
    lr_mult: 2
  }
  convolution_param {
    num_output: 512
    pad: 1
    kernel_size: 3
  }
}
layer {
  name: "relu5_2"
  type: "ReLU"
  bottom: "conv5_2"
  top: "conv5_2"
}
layer {
  name: "conv5_3"
  type: "Convolution"
  bottom: "conv5_2"
  top: "conv5_3"
  param {
    lr_mult: 1
  }
  param {
    lr_mult: 2
  }
  convolution_param {
    num_output: 512
    pad: 1
    kernel_size: 3
  }
}
layer {
  name: "relu5_3"
  type: "ReLU"
  bottom: "conv5_3"
  top: "conv5_3"
}
layer {
  name: "rpn_big_conv1"
  type: "Convolution"
  bottom: "conv5_3"
  top: "rpn_big_conv1"
  param {
    lr_mult: 1
  }
  param {
    lr_mult: 2
  }
  convolution_param {
    num_output: 512
    pad: 1
    kernel_size: 3
    stride: 1
    weight_filler {
      type: "gaussian"
      mean: 0
      std: 0.01
    }
    bias_filler {
      type: "constant"
    }
  }
}
layer {
  name: "rpn_big_conv1_relu"
  type: "ReLU"
  bottom: "rpn_big_conv1"
  top: "rpn_big_conv1"
  relu_param {
    negative_slope: 0
  }
}
layer {
  name: "rpn_big_conv2"
  type: "Convolution"
  bottom: "rpn_big_conv1"
  top: "rpn_big_conv2"
  param {
    lr_mult: 1
  }
  param {
    lr_mult: 2
  }
  convolution_param {
    num_output: 512
    pad: 1
    kernel_size: 3
    stride: 1
    weight_filler {
      type: "gaussian"
      mean: 0
      std: 0.01
    }
    bias_filler {
      type: "constant"
    }
  }
}
layer {
  name: "rpn_big_conv2_relu"
  type: "ReLU"
  bottom: "rpn_big_conv2"
  top: "rpn_big_conv2"
  relu_param {
    negative_slope: 0
  }
}
layer {
  name: "rpn_big_conv2_drop"
  type: "Dropout"
  bottom: "rpn_big_conv2"
  top: "rpn_big_conv2"
  dropout_param {
    dropout_ratio: 0.3
  }
}
layer {
  name: "rpn_big_output_cls"
  type: "Convolution"
  bottom: "rpn_big_conv2"
  top: "rpn_big_output_cls"
  param {
    lr_mult: 1
  }
  param {
    lr_mult: 2
  }
  convolution_param {
    num_output: 384
    pad: 1
    kernel_size: 3
    stride: 1
    weight_filler {
      type: "gaussian"
      mean: 0
      std: 0.01
    }
    bias_filler {
      type: "constant"
    }
  }
}
layer {
  name: "rpn_big_output_cls_relu"
  type: "ReLU"
  bottom: "rpn_big_output_cls"
  top: "rpn_big_output_cls"
  relu_param {
    negative_slope: 0
  }
}
layer {
  name: "rpn_big_cls_score"
  type: "Convolution"
  bottom: "rpn_big_output_cls"
  top: "rpn_big_cls_score"
  param {
    lr_mult: 1
  }
  param {
    lr_mult: 2
  }
  convolution_param {
    num_output: 52
    pad: 0
    kernel_size: 3
    stride: 1
    weight_filler {
      type: "gaussian"
      mean: 0
      std: 0.01
    }
    bias_filler {
      type: "constant"
    }
  }
}
layer {
  name: "rpn_big_cls_score_reshape"
  type: "Reshape"
  bottom: "rpn_big_cls_score"
  top: "rpn_big_cls_score_reshape"
  reshape_param {
    shape {
      dim: 0
      dim: 2
      dim: -1
      dim: 0
    }
  }
}
layer {
  name: "rpn_big_cls_prob"
  type: "Softmax"
  bottom: "rpn_big_cls_score_reshape"
  top: "rpn_big_cls_prob"
}
layer {
  name: "rpn_big_cls_prob_reshape"
  type: "Reshape"
  bottom: "rpn_big_cls_prob"
  top: "rpn_big_cls_prob_reshape"
  reshape_param {
    shape {
      dim: 0
      dim: 52
      dim: -1
      dim: 0
    }
  }
}
layer {
  name: "rpn_big_anchor_target"
  type: "Python"
  bottom: "rpn_big_cls_score"
  bottom: "input_gt_boxes"
  bottom: "input_ignored_boxes"
  bottom: "input_im_info"
  bottom: "input_data"
  bottom: "rpn_big_cls_prob_reshape"
  top: "rpn_big_anchor_target_labels"
  top: "rpn_big_anchor_target_bbox_targets"
  top: "rpn_big_anchor_target_inside_weights"
  top: "rpn_big_anchor_target_outside_weights"
  python_param {
    module: "rpn.anchor_target_layer"
    layer: "AnchorTargetLayer"
    param_str: "{\"anchor_scales\": [2.5, 3.025, 3.66025, 4.4289024999999995, 5.358972025, 6.484356150249999, 7.846070941802498, 9.493745839581022, 11.487432465893036, 13.899793283730574, 16.818749873313998, 20.350687346709933, 24.62433168951902, 29.795441344318014], \"tn_fraction\": 0.2, \"fg_fraction\": 0.5, \"anchor_ratios\": [1.0], \"positive_overlap\": 0.6, \"name\": \"rpn_big\", \"anchor_shift_num_xy\": [[2, 2], [2, 2], [2, 2], [2, 2], [1, 1], [1, 1], [1, 1], [1, 1], [1, 1], [1, 1], [1, 1], [1, 1], [1, 1], [1, 1]], \"feat_stride\": 16, \"num_classes\": 1, \"negative_overlap\": 0.4, \"square_targets\": true, \"batchsize\": 256}"
  }
}
layer {
  name: "rpn_big_loss_cls"
  type: "SoftmaxWithLoss"
  bottom: "rpn_big_cls_score_reshape"
  bottom: "rpn_big_anchor_target_labels"
  top: "rpn_big_loss_cls"
  loss_weight: 1
  propagate_down: true
  propagate_down: false
  loss_param {
    ignore_label: -1
    normalization: VALID
  }
}
layer {
  name: "rpn_big_output_box"
  type: "Convolution"
  bottom: "rpn_big_conv2"
  top: "rpn_big_output_box"
  param {
    lr_mult: 1
  }
  param {
    lr_mult: 2
  }
  convolution_param {
    num_output: 384
    pad: 1
    kernel_size: 3
    stride: 1
    weight_filler {
      type: "gaussian"
      mean: 0
      std: 0.01
    }
    bias_filler {
      type: "constant"
    }
  }
}
layer {
  name: "rpn_big_output_box_relu"
  type: "ReLU"
  bottom: "rpn_big_output_box"
  top: "rpn_big_output_box"
  relu_param {
    negative_slope: 0
  }
}
layer {
  name: "rpn_big_bbox_pred"
  type: "Convolution"
  bottom: "rpn_big_output_box"
  top: "rpn_big_bbox_pred"
  param {
    lr_mult: 1
  }
  param {
    lr_mult: 2
  }
  convolution_param {
    num_output: 104
    pad: 0
    kernel_size: 3
    stride: 1
    weight_filler {
      type: "gaussian"
      mean: 0
      std: 0.01
    }
    bias_filler {
      type: "constant"
    }
  }
}
layer {
  name: "rpn_big_loss_bbox"
  type: "Python"
  bottom: "rpn_big_bbox_pred"
  bottom: "rpn_big_anchor_target_bbox_targets"
  bottom: "rpn_big_anchor_target_inside_weights"
  bottom: "rpn_big_anchor_target_outside_weights"
  top: "rpn_big_loss_bbox"
  loss_weight: 1
  python_param {
    module: "layers.smooth_l1_loss"
    layer: "SmoothL1LossLayer"
    param_str: "{\"sigma\": 3}"
  }
}
layer {
  name: "MyLoss"
  type: "SoftmaxWithLoss"
  bottom: "rpn_big_cls_score_reshape"
  bottom: "rpn_big_anchor_target_labels"
  top: "MyLoss"
  propagate_down: true
  propagate_down: false
  loss_param {
    ignore_label: -1
    normalization: VALID
  }
}
I0413 15:27:08.481721  6363 layer_factory.hpp:77] Creating layer input
I0413 15:27:08.483122  6363 net.cpp:100] Creating Layer input
I0413 15:27:08.483140  6363 net.cpp:408] input -> input_data
I0413 15:27:08.483152  6363 net.cpp:408] input -> input_im_info
I0413 15:27:08.483160  6363 net.cpp:408] input -> input_gt_boxes
I0413 15:27:08.483167  6363 net.cpp:408] input -> input_ignored_boxes
RoiDataLayer: name_to_top: {'data': 0, 'im_info': 1, 'gt_boxes': 2, 'ignored_boxes': 3}
I0413 15:27:08.852613  6363 net.cpp:150] Setting up input
I0413 15:27:08.852648  6363 net.cpp:157] Top shape: 1 3 1000 1500 (4500000)
I0413 15:27:08.852660  6363 net.cpp:157] Top shape: 1 3 (3)
I0413 15:27:08.852669  6363 net.cpp:157] Top shape: 1 5 (5)
I0413 15:27:08.852679  6363 net.cpp:157] Top shape: 1 5 (5)
I0413 15:27:08.852689  6363 net.cpp:165] Memory required for data: 18000052
I0413 15:27:08.852699  6363 layer_factory.hpp:77] Creating layer input_data_input_0_split
I0413 15:27:08.852718  6363 net.cpp:100] Creating Layer input_data_input_0_split
I0413 15:27:08.852726  6363 net.cpp:434] input_data_input_0_split <- input_data
I0413 15:27:08.852740  6363 net.cpp:408] input_data_input_0_split -> input_data_input_0_split_0
I0413 15:27:08.852757  6363 net.cpp:408] input_data_input_0_split -> input_data_input_0_split_1
I0413 15:27:08.852805  6363 net.cpp:150] Setting up input_data_input_0_split
I0413 15:27:08.852816  6363 net.cpp:157] Top shape: 1 3 1000 1500 (4500000)
I0413 15:27:08.852824  6363 net.cpp:157] Top shape: 1 3 1000 1500 (4500000)
I0413 15:27:08.852833  6363 net.cpp:165] Memory required for data: 54000052
I0413 15:27:08.852838  6363 layer_factory.hpp:77] Creating layer conv1_1
I0413 15:27:08.852856  6363 net.cpp:100] Creating Layer conv1_1
I0413 15:27:08.852864  6363 net.cpp:434] conv1_1 <- input_data_input_0_split_0
I0413 15:27:08.852874  6363 net.cpp:408] conv1_1 -> conv1_1
I0413 15:27:08.856114  6363 net.cpp:150] Setting up conv1_1
I0413 15:27:08.856156  6363 net.cpp:157] Top shape: 1 64 1000 1500 (96000000)
I0413 15:27:08.856161  6363 net.cpp:165] Memory required for data: 438000052
I0413 15:27:08.856187  6363 layer_factory.hpp:77] Creating layer relu1_1
I0413 15:27:08.856206  6363 net.cpp:100] Creating Layer relu1_1
I0413 15:27:08.856215  6363 net.cpp:434] relu1_1 <- conv1_1
I0413 15:27:08.856227  6363 net.cpp:395] relu1_1 -> conv1_1 (in-place)
I0413 15:27:08.856242  6363 net.cpp:150] Setting up relu1_1
I0413 15:27:08.856252  6363 net.cpp:157] Top shape: 1 64 1000 1500 (96000000)
I0413 15:27:08.856259  6363 net.cpp:165] Memory required for data: 822000052
I0413 15:27:08.856266  6363 layer_factory.hpp:77] Creating layer conv1_2
I0413 15:27:08.856286  6363 net.cpp:100] Creating Layer conv1_2
I0413 15:27:08.856292  6363 net.cpp:434] conv1_2 <- conv1_1
I0413 15:27:08.856302  6363 net.cpp:408] conv1_2 -> conv1_2
I0413 15:27:08.859521  6363 net.cpp:150] Setting up conv1_2
I0413 15:27:08.859566  6363 net.cpp:157] Top shape: 1 64 1000 1500 (96000000)
I0413 15:27:08.859575  6363 net.cpp:165] Memory required for data: 1206000052
I0413 15:27:08.859604  6363 layer_factory.hpp:77] Creating layer relu1_2
I0413 15:27:08.859627  6363 net.cpp:100] Creating Layer relu1_2
I0413 15:27:08.859637  6363 net.cpp:434] relu1_2 <- conv1_2
I0413 15:27:08.859653  6363 net.cpp:395] relu1_2 -> conv1_2 (in-place)
I0413 15:27:08.859671  6363 net.cpp:150] Setting up relu1_2
I0413 15:27:08.859683  6363 net.cpp:157] Top shape: 1 64 1000 1500 (96000000)
I0413 15:27:08.859691  6363 net.cpp:165] Memory required for data: 1590000052
I0413 15:27:08.859697  6363 layer_factory.hpp:77] Creating layer pool1
I0413 15:27:08.859722  6363 net.cpp:100] Creating Layer pool1
I0413 15:27:08.859730  6363 net.cpp:434] pool1 <- conv1_2
I0413 15:27:08.859740  6363 net.cpp:408] pool1 -> pool1
I0413 15:27:08.859833  6363 net.cpp:150] Setting up pool1
I0413 15:27:08.859846  6363 net.cpp:157] Top shape: 1 64 500 750 (24000000)
I0413 15:27:08.859854  6363 net.cpp:165] Memory required for data: 1686000052
I0413 15:27:08.859861  6363 layer_factory.hpp:77] Creating layer conv2_1
I0413 15:27:08.859881  6363 net.cpp:100] Creating Layer conv2_1
I0413 15:27:08.859889  6363 net.cpp:434] conv2_1 <- pool1
I0413 15:27:08.859900  6363 net.cpp:408] conv2_1 -> conv2_1
I0413 15:27:08.861239  6363 net.cpp:150] Setting up conv2_1
I0413 15:27:08.861260  6363 net.cpp:157] Top shape: 1 128 500 750 (48000000)
I0413 15:27:08.861266  6363 net.cpp:165] Memory required for data: 1878000052
I0413 15:27:08.861284  6363 layer_factory.hpp:77] Creating layer relu2_1
I0413 15:27:08.861297  6363 net.cpp:100] Creating Layer relu2_1
I0413 15:27:08.861305  6363 net.cpp:434] relu2_1 <- conv2_1
I0413 15:27:08.861317  6363 net.cpp:395] relu2_1 -> conv2_1 (in-place)
I0413 15:27:08.861330  6363 net.cpp:150] Setting up relu2_1
I0413 15:27:08.861338  6363 net.cpp:157] Top shape: 1 128 500 750 (48000000)
I0413 15:27:08.861346  6363 net.cpp:165] Memory required for data: 2070000052
I0413 15:27:08.861351  6363 layer_factory.hpp:77] Creating layer conv2_2
I0413 15:27:08.861366  6363 net.cpp:100] Creating Layer conv2_2
I0413 15:27:08.861372  6363 net.cpp:434] conv2_2 <- conv2_1
I0413 15:27:08.861384  6363 net.cpp:408] conv2_2 -> conv2_2
I0413 15:27:08.862334  6363 net.cpp:150] Setting up conv2_2
I0413 15:27:08.862362  6363 net.cpp:157] Top shape: 1 128 500 750 (48000000)
I0413 15:27:08.862368  6363 net.cpp:165] Memory required for data: 2262000052
I0413 15:27:08.862382  6363 layer_factory.hpp:77] Creating layer relu2_2
I0413 15:27:08.862396  6363 net.cpp:100] Creating Layer relu2_2
I0413 15:27:08.862404  6363 net.cpp:434] relu2_2 <- conv2_2
I0413 15:27:08.862416  6363 net.cpp:395] relu2_2 -> conv2_2 (in-place)
I0413 15:27:08.862431  6363 net.cpp:150] Setting up relu2_2
I0413 15:27:08.862439  6363 net.cpp:157] Top shape: 1 128 500 750 (48000000)
I0413 15:27:08.862447  6363 net.cpp:165] Memory required for data: 2454000052
I0413 15:27:08.862452  6363 layer_factory.hpp:77] Creating layer pool2
I0413 15:27:08.862467  6363 net.cpp:100] Creating Layer pool2
I0413 15:27:08.862473  6363 net.cpp:434] pool2 <- conv2_2
I0413 15:27:08.862483  6363 net.cpp:408] pool2 -> pool2
I0413 15:27:08.862531  6363 net.cpp:150] Setting up pool2
I0413 15:27:08.862542  6363 net.cpp:157] Top shape: 1 128 250 375 (12000000)
I0413 15:27:08.862550  6363 net.cpp:165] Memory required for data: 2502000052
I0413 15:27:08.862556  6363 layer_factory.hpp:77] Creating layer conv3_1
I0413 15:27:08.862571  6363 net.cpp:100] Creating Layer conv3_1
I0413 15:27:08.862578  6363 net.cpp:434] conv3_1 <- pool2
I0413 15:27:08.862588  6363 net.cpp:408] conv3_1 -> conv3_1
I0413 15:27:08.863680  6363 net.cpp:150] Setting up conv3_1
I0413 15:27:08.863705  6363 net.cpp:157] Top shape: 1 256 250 375 (24000000)
I0413 15:27:08.863711  6363 net.cpp:165] Memory required for data: 2598000052
I0413 15:27:08.863731  6363 layer_factory.hpp:77] Creating layer relu3_1
I0413 15:27:08.863745  6363 net.cpp:100] Creating Layer relu3_1
I0413 15:27:08.863754  6363 net.cpp:434] relu3_1 <- conv3_1
I0413 15:27:08.863764  6363 net.cpp:395] relu3_1 -> conv3_1 (in-place)
I0413 15:27:08.863777  6363 net.cpp:150] Setting up relu3_1
I0413 15:27:08.863786  6363 net.cpp:157] Top shape: 1 256 250 375 (24000000)
I0413 15:27:08.863793  6363 net.cpp:165] Memory required for data: 2694000052
I0413 15:27:08.863800  6363 layer_factory.hpp:77] Creating layer conv3_2
I0413 15:27:08.863816  6363 net.cpp:100] Creating Layer conv3_2
I0413 15:27:08.863822  6363 net.cpp:434] conv3_2 <- conv3_1
I0413 15:27:08.863833  6363 net.cpp:408] conv3_2 -> conv3_2
I0413 15:27:08.865041  6363 net.cpp:150] Setting up conv3_2
I0413 15:27:08.865070  6363 net.cpp:157] Top shape: 1 256 250 375 (24000000)
I0413 15:27:08.865077  6363 net.cpp:165] Memory required for data: 2790000052
I0413 15:27:08.865090  6363 layer_factory.hpp:77] Creating layer relu3_2
I0413 15:27:08.865104  6363 net.cpp:100] Creating Layer relu3_2
I0413 15:27:08.865113  6363 net.cpp:434] relu3_2 <- conv3_2
I0413 15:27:08.865128  6363 net.cpp:395] relu3_2 -> conv3_2 (in-place)
I0413 15:27:08.865142  6363 net.cpp:150] Setting up relu3_2
I0413 15:27:08.865151  6363 net.cpp:157] Top shape: 1 256 250 375 (24000000)
I0413 15:27:08.865160  6363 net.cpp:165] Memory required for data: 2886000052
I0413 15:27:08.865166  6363 layer_factory.hpp:77] Creating layer conv3_3
I0413 15:27:08.865185  6363 net.cpp:100] Creating Layer conv3_3
I0413 15:27:08.865192  6363 net.cpp:434] conv3_3 <- conv3_2
I0413 15:27:08.865206  6363 net.cpp:408] conv3_3 -> conv3_3
I0413 15:27:08.866780  6363 net.cpp:150] Setting up conv3_3
I0413 15:27:08.866812  6363 net.cpp:157] Top shape: 1 256 250 375 (24000000)
I0413 15:27:08.866819  6363 net.cpp:165] Memory required for data: 2982000052
I0413 15:27:08.866835  6363 layer_factory.hpp:77] Creating layer relu3_3
I0413 15:27:08.866852  6363 net.cpp:100] Creating Layer relu3_3
I0413 15:27:08.866859  6363 net.cpp:434] relu3_3 <- conv3_3
I0413 15:27:08.866873  6363 net.cpp:395] relu3_3 -> conv3_3 (in-place)
I0413 15:27:08.866888  6363 net.cpp:150] Setting up relu3_3
I0413 15:27:08.866896  6363 net.cpp:157] Top shape: 1 256 250 375 (24000000)
I0413 15:27:08.866904  6363 net.cpp:165] Memory required for data: 3078000052
I0413 15:27:08.866910  6363 layer_factory.hpp:77] Creating layer pool3
I0413 15:27:08.866924  6363 net.cpp:100] Creating Layer pool3
I0413 15:27:08.866930  6363 net.cpp:434] pool3 <- conv3_3
I0413 15:27:08.866940  6363 net.cpp:408] pool3 -> pool3
I0413 15:27:08.866992  6363 net.cpp:150] Setting up pool3
I0413 15:27:08.867002  6363 net.cpp:157] Top shape: 1 256 125 188 (6016000)
I0413 15:27:08.867010  6363 net.cpp:165] Memory required for data: 3102064052
I0413 15:27:08.867017  6363 layer_factory.hpp:77] Creating layer conv4_1
I0413 15:27:08.867033  6363 net.cpp:100] Creating Layer conv4_1
I0413 15:27:08.867040  6363 net.cpp:434] conv4_1 <- pool3
I0413 15:27:08.867050  6363 net.cpp:408] conv4_1 -> conv4_1
I0413 15:27:08.869716  6363 net.cpp:150] Setting up conv4_1
I0413 15:27:08.869752  6363 net.cpp:157] Top shape: 1 512 125 188 (12032000)
I0413 15:27:08.869758  6363 net.cpp:165] Memory required for data: 3150192052
I0413 15:27:08.869773  6363 layer_factory.hpp:77] Creating layer relu4_1
I0413 15:27:08.869787  6363 net.cpp:100] Creating Layer relu4_1
I0413 15:27:08.869797  6363 net.cpp:434] relu4_1 <- conv4_1
I0413 15:27:08.869813  6363 net.cpp:395] relu4_1 -> conv4_1 (in-place)
I0413 15:27:08.869829  6363 net.cpp:150] Setting up relu4_1
I0413 15:27:08.869839  6363 net.cpp:157] Top shape: 1 512 125 188 (12032000)
I0413 15:27:08.869846  6363 net.cpp:165] Memory required for data: 3198320052
I0413 15:27:08.869853  6363 layer_factory.hpp:77] Creating layer conv4_2
I0413 15:27:08.869866  6363 net.cpp:100] Creating Layer conv4_2
I0413 15:27:08.869873  6363 net.cpp:434] conv4_2 <- conv4_1
I0413 15:27:08.869885  6363 net.cpp:408] conv4_2 -> conv4_2
I0413 15:27:08.874240  6363 net.cpp:150] Setting up conv4_2
I0413 15:27:08.874282  6363 net.cpp:157] Top shape: 1 512 125 188 (12032000)
I0413 15:27:08.874290  6363 net.cpp:165] Memory required for data: 3246448052
I0413 15:27:08.874315  6363 layer_factory.hpp:77] Creating layer relu4_2
I0413 15:27:08.874330  6363 net.cpp:100] Creating Layer relu4_2
I0413 15:27:08.874337  6363 net.cpp:434] relu4_2 <- conv4_2
I0413 15:27:08.874348  6363 net.cpp:395] relu4_2 -> conv4_2 (in-place)
I0413 15:27:08.874362  6363 net.cpp:150] Setting up relu4_2
I0413 15:27:08.874372  6363 net.cpp:157] Top shape: 1 512 125 188 (12032000)
I0413 15:27:08.874377  6363 net.cpp:165] Memory required for data: 3294576052
I0413 15:27:08.874382  6363 layer_factory.hpp:77] Creating layer conv4_3
I0413 15:27:08.874397  6363 net.cpp:100] Creating Layer conv4_3
I0413 15:27:08.874405  6363 net.cpp:434] conv4_3 <- conv4_2
I0413 15:27:08.874419  6363 net.cpp:408] conv4_3 -> conv4_3
I0413 15:27:08.879626  6363 net.cpp:150] Setting up conv4_3
I0413 15:27:08.879665  6363 net.cpp:157] Top shape: 1 512 125 188 (12032000)
I0413 15:27:08.879669  6363 net.cpp:165] Memory required for data: 3342704052
I0413 15:27:08.879680  6363 layer_factory.hpp:77] Creating layer relu4_3
I0413 15:27:08.879690  6363 net.cpp:100] Creating Layer relu4_3
I0413 15:27:08.879695  6363 net.cpp:434] relu4_3 <- conv4_3
I0413 15:27:08.879704  6363 net.cpp:395] relu4_3 -> conv4_3 (in-place)
I0413 15:27:08.879715  6363 net.cpp:150] Setting up relu4_3
I0413 15:27:08.879720  6363 net.cpp:157] Top shape: 1 512 125 188 (12032000)
I0413 15:27:08.879722  6363 net.cpp:165] Memory required for data: 3390832052
I0413 15:27:08.879726  6363 layer_factory.hpp:77] Creating layer pool4
I0413 15:27:08.879732  6363 net.cpp:100] Creating Layer pool4
I0413 15:27:08.879735  6363 net.cpp:434] pool4 <- conv4_3
I0413 15:27:08.879741  6363 net.cpp:408] pool4 -> pool4
I0413 15:27:08.879777  6363 net.cpp:150] Setting up pool4
I0413 15:27:08.879786  6363 net.cpp:157] Top shape: 1 512 63 94 (3032064)
I0413 15:27:08.879791  6363 net.cpp:165] Memory required for data: 3402960308
I0413 15:27:08.879793  6363 layer_factory.hpp:77] Creating layer conv5_1
I0413 15:27:08.879803  6363 net.cpp:100] Creating Layer conv5_1
I0413 15:27:08.879807  6363 net.cpp:434] conv5_1 <- pool4
I0413 15:27:08.879815  6363 net.cpp:408] conv5_1 -> conv5_1
I0413 15:27:08.884810  6363 net.cpp:150] Setting up conv5_1
I0413 15:27:08.884841  6363 net.cpp:157] Top shape: 1 512 63 94 (3032064)
I0413 15:27:08.884855  6363 net.cpp:165] Memory required for data: 3415088564
I0413 15:27:08.884865  6363 layer_factory.hpp:77] Creating layer relu5_1
I0413 15:27:08.884876  6363 net.cpp:100] Creating Layer relu5_1
I0413 15:27:08.884881  6363 net.cpp:434] relu5_1 <- conv5_1
I0413 15:27:08.884888  6363 net.cpp:395] relu5_1 -> conv5_1 (in-place)
I0413 15:27:08.884901  6363 net.cpp:150] Setting up relu5_1
I0413 15:27:08.884915  6363 net.cpp:157] Top shape: 1 512 63 94 (3032064)
I0413 15:27:08.884922  6363 net.cpp:165] Memory required for data: 3427216820
I0413 15:27:08.884927  6363 layer_factory.hpp:77] Creating layer conv5_2
I0413 15:27:08.884937  6363 net.cpp:100] Creating Layer conv5_2
I0413 15:27:08.884943  6363 net.cpp:434] conv5_2 <- conv5_1
I0413 15:27:08.884950  6363 net.cpp:408] conv5_2 -> conv5_2
I0413 15:27:08.889240  6363 net.cpp:150] Setting up conv5_2
I0413 15:27:08.889283  6363 net.cpp:157] Top shape: 1 512 63 94 (3032064)
I0413 15:27:08.889288  6363 net.cpp:165] Memory required for data: 3439345076
I0413 15:27:08.889299  6363 layer_factory.hpp:77] Creating layer relu5_2
I0413 15:27:08.889309  6363 net.cpp:100] Creating Layer relu5_2
I0413 15:27:08.889314  6363 net.cpp:434] relu5_2 <- conv5_2
I0413 15:27:08.889322  6363 net.cpp:395] relu5_2 -> conv5_2 (in-place)
I0413 15:27:08.889333  6363 net.cpp:150] Setting up relu5_2
I0413 15:27:08.889338  6363 net.cpp:157] Top shape: 1 512 63 94 (3032064)
I0413 15:27:08.889341  6363 net.cpp:165] Memory required for data: 3451473332
I0413 15:27:08.889344  6363 layer_factory.hpp:77] Creating layer conv5_3
I0413 15:27:08.889353  6363 net.cpp:100] Creating Layer conv5_3
I0413 15:27:08.889358  6363 net.cpp:434] conv5_3 <- conv5_2
I0413 15:27:08.889364  6363 net.cpp:408] conv5_3 -> conv5_3
I0413 15:27:08.893666  6363 net.cpp:150] Setting up conv5_3
I0413 15:27:08.893702  6363 net.cpp:157] Top shape: 1 512 63 94 (3032064)
I0413 15:27:08.893707  6363 net.cpp:165] Memory required for data: 3463601588
I0413 15:27:08.893715  6363 layer_factory.hpp:77] Creating layer relu5_3
I0413 15:27:08.893726  6363 net.cpp:100] Creating Layer relu5_3
I0413 15:27:08.893731  6363 net.cpp:434] relu5_3 <- conv5_3
I0413 15:27:08.893738  6363 net.cpp:395] relu5_3 -> conv5_3 (in-place)
I0413 15:27:08.893748  6363 net.cpp:150] Setting up relu5_3
I0413 15:27:08.893752  6363 net.cpp:157] Top shape: 1 512 63 94 (3032064)
I0413 15:27:08.893756  6363 net.cpp:165] Memory required for data: 3475729844
I0413 15:27:08.893759  6363 layer_factory.hpp:77] Creating layer rpn_big_conv1
I0413 15:27:08.893775  6363 net.cpp:100] Creating Layer rpn_big_conv1
I0413 15:27:08.893779  6363 net.cpp:434] rpn_big_conv1 <- conv5_3
I0413 15:27:08.893785  6363 net.cpp:408] rpn_big_conv1 -> rpn_big_conv1
I0413 15:27:08.919479  6363 net.cpp:150] Setting up rpn_big_conv1
I0413 15:27:08.919509  6363 net.cpp:157] Top shape: 1 512 63 94 (3032064)
I0413 15:27:08.919523  6363 net.cpp:165] Memory required for data: 3487858100
I0413 15:27:08.919533  6363 layer_factory.hpp:77] Creating layer rpn_big_conv1_relu
I0413 15:27:08.919543  6363 net.cpp:100] Creating Layer rpn_big_conv1_relu
I0413 15:27:08.919548  6363 net.cpp:434] rpn_big_conv1_relu <- rpn_big_conv1
I0413 15:27:08.919556  6363 net.cpp:395] rpn_big_conv1_relu -> rpn_big_conv1 (in-place)
I0413 15:27:08.919565  6363 net.cpp:150] Setting up rpn_big_conv1_relu
I0413 15:27:08.919574  6363 net.cpp:157] Top shape: 1 512 63 94 (3032064)
I0413 15:27:08.919579  6363 net.cpp:165] Memory required for data: 3499986356
I0413 15:27:08.919584  6363 layer_factory.hpp:77] Creating layer rpn_big_conv2
I0413 15:27:08.919602  6363 net.cpp:100] Creating Layer rpn_big_conv2
I0413 15:27:08.919610  6363 net.cpp:434] rpn_big_conv2 <- rpn_big_conv1
I0413 15:27:08.919616  6363 net.cpp:408] rpn_big_conv2 -> rpn_big_conv2
I0413 15:27:08.946187  6363 net.cpp:150] Setting up rpn_big_conv2
I0413 15:27:08.946216  6363 net.cpp:157] Top shape: 1 512 63 94 (3032064)
I0413 15:27:08.946229  6363 net.cpp:165] Memory required for data: 3512114612
I0413 15:27:08.946240  6363 layer_factory.hpp:77] Creating layer rpn_big_conv2_relu
I0413 15:27:08.946250  6363 net.cpp:100] Creating Layer rpn_big_conv2_relu
I0413 15:27:08.946256  6363 net.cpp:434] rpn_big_conv2_relu <- rpn_big_conv2
I0413 15:27:08.946264  6363 net.cpp:395] rpn_big_conv2_relu -> rpn_big_conv2 (in-place)
I0413 15:27:08.946274  6363 net.cpp:150] Setting up rpn_big_conv2_relu
I0413 15:27:08.946279  6363 net.cpp:157] Top shape: 1 512 63 94 (3032064)
I0413 15:27:08.946281  6363 net.cpp:165] Memory required for data: 3524242868
I0413 15:27:08.946285  6363 layer_factory.hpp:77] Creating layer rpn_big_conv2_drop
I0413 15:27:08.946291  6363 net.cpp:100] Creating Layer rpn_big_conv2_drop
I0413 15:27:08.946295  6363 net.cpp:434] rpn_big_conv2_drop <- rpn_big_conv2
I0413 15:27:08.946300  6363 net.cpp:395] rpn_big_conv2_drop -> rpn_big_conv2 (in-place)
I0413 15:27:08.946322  6363 net.cpp:150] Setting up rpn_big_conv2_drop
I0413 15:27:08.946329  6363 net.cpp:157] Top shape: 1 512 63 94 (3032064)
I0413 15:27:08.946332  6363 net.cpp:165] Memory required for data: 3536371124
I0413 15:27:08.946336  6363 layer_factory.hpp:77] Creating layer rpn_big_conv2_rpn_big_conv2_drop_0_split
I0413 15:27:08.946341  6363 net.cpp:100] Creating Layer rpn_big_conv2_rpn_big_conv2_drop_0_split
I0413 15:27:08.946344  6363 net.cpp:434] rpn_big_conv2_rpn_big_conv2_drop_0_split <- rpn_big_conv2
I0413 15:27:08.946352  6363 net.cpp:408] rpn_big_conv2_rpn_big_conv2_drop_0_split -> rpn_big_conv2_rpn_big_conv2_drop_0_split_0
I0413 15:27:08.946358  6363 net.cpp:408] rpn_big_conv2_rpn_big_conv2_drop_0_split -> rpn_big_conv2_rpn_big_conv2_drop_0_split_1
I0413 15:27:08.946390  6363 net.cpp:150] Setting up rpn_big_conv2_rpn_big_conv2_drop_0_split
I0413 15:27:08.946398  6363 net.cpp:157] Top shape: 1 512 63 94 (3032064)
I0413 15:27:08.946401  6363 net.cpp:157] Top shape: 1 512 63 94 (3032064)
I0413 15:27:08.946404  6363 net.cpp:165] Memory required for data: 3560627636
I0413 15:27:08.946408  6363 layer_factory.hpp:77] Creating layer rpn_big_output_cls
I0413 15:27:08.946419  6363 net.cpp:100] Creating Layer rpn_big_output_cls
I0413 15:27:08.946422  6363 net.cpp:434] rpn_big_output_cls <- rpn_big_conv2_rpn_big_conv2_drop_0_split_0
I0413 15:27:08.946430  6363 net.cpp:408] rpn_big_output_cls -> rpn_big_output_cls
I0413 15:27:08.966648  6363 net.cpp:150] Setting up rpn_big_output_cls
I0413 15:27:08.966678  6363 net.cpp:157] Top shape: 1 384 63 94 (2274048)
I0413 15:27:08.966682  6363 net.cpp:165] Memory required for data: 3569723828
I0413 15:27:08.966692  6363 layer_factory.hpp:77] Creating layer rpn_big_output_cls_relu
I0413 15:27:08.966703  6363 net.cpp:100] Creating Layer rpn_big_output_cls_relu
I0413 15:27:08.966708  6363 net.cpp:434] rpn_big_output_cls_relu <- rpn_big_output_cls
I0413 15:27:08.966718  6363 net.cpp:395] rpn_big_output_cls_relu -> rpn_big_output_cls (in-place)
I0413 15:27:08.966729  6363 net.cpp:150] Setting up rpn_big_output_cls_relu
I0413 15:27:08.966734  6363 net.cpp:157] Top shape: 1 384 63 94 (2274048)
I0413 15:27:08.966737  6363 net.cpp:165] Memory required for data: 3578820020
I0413 15:27:08.966739  6363 layer_factory.hpp:77] Creating layer rpn_big_cls_score
I0413 15:27:08.966751  6363 net.cpp:100] Creating Layer rpn_big_cls_score
I0413 15:27:08.966758  6363 net.cpp:434] rpn_big_cls_score <- rpn_big_output_cls
I0413 15:27:08.966765  6363 net.cpp:408] rpn_big_cls_score -> rpn_big_cls_score
I0413 15:27:08.969130  6363 net.cpp:150] Setting up rpn_big_cls_score
I0413 15:27:08.969146  6363 net.cpp:157] Top shape: 1 52 61 92 (291824)
I0413 15:27:08.969148  6363 net.cpp:165] Memory required for data: 3579987316
I0413 15:27:08.969172  6363 layer_factory.hpp:77] Creating layer rpn_big_cls_score_rpn_big_cls_score_0_split
I0413 15:27:08.969180  6363 net.cpp:100] Creating Layer rpn_big_cls_score_rpn_big_cls_score_0_split
I0413 15:27:08.969184  6363 net.cpp:434] rpn_big_cls_score_rpn_big_cls_score_0_split <- rpn_big_cls_score
I0413 15:27:08.969192  6363 net.cpp:408] rpn_big_cls_score_rpn_big_cls_score_0_split -> rpn_big_cls_score_rpn_big_cls_score_0_split_0
I0413 15:27:08.969198  6363 net.cpp:408] rpn_big_cls_score_rpn_big_cls_score_0_split -> rpn_big_cls_score_rpn_big_cls_score_0_split_1
I0413 15:27:08.969231  6363 net.cpp:150] Setting up rpn_big_cls_score_rpn_big_cls_score_0_split
I0413 15:27:08.969238  6363 net.cpp:157] Top shape: 1 52 61 92 (291824)
I0413 15:27:08.969244  6363 net.cpp:157] Top shape: 1 52 61 92 (291824)
I0413 15:27:08.969246  6363 net.cpp:165] Memory required for data: 3582321908
I0413 15:27:08.969249  6363 layer_factory.hpp:77] Creating layer rpn_big_cls_score_reshape
I0413 15:27:08.969264  6363 net.cpp:100] Creating Layer rpn_big_cls_score_reshape
I0413 15:27:08.969269  6363 net.cpp:434] rpn_big_cls_score_reshape <- rpn_big_cls_score_rpn_big_cls_score_0_split_0
I0413 15:27:08.969275  6363 net.cpp:408] rpn_big_cls_score_reshape -> rpn_big_cls_score_reshape
I0413 15:27:08.969297  6363 net.cpp:150] Setting up rpn_big_cls_score_reshape
I0413 15:27:08.969305  6363 net.cpp:157] Top shape: 1 2 1586 92 (291824)
I0413 15:27:08.969307  6363 net.cpp:165] Memory required for data: 3583489204
I0413 15:27:08.969310  6363 layer_factory.hpp:77] Creating layer rpn_big_cls_score_reshape_rpn_big_cls_score_reshape_0_split
I0413 15:27:08.969317  6363 net.cpp:100] Creating Layer rpn_big_cls_score_reshape_rpn_big_cls_score_reshape_0_split
I0413 15:27:08.969321  6363 net.cpp:434] rpn_big_cls_score_reshape_rpn_big_cls_score_reshape_0_split <- rpn_big_cls_score_reshape
I0413 15:27:08.969327  6363 net.cpp:408] rpn_big_cls_score_reshape_rpn_big_cls_score_reshape_0_split -> rpn_big_cls_score_reshape_rpn_big_cls_score_reshape_0_split_0
I0413 15:27:08.969339  6363 net.cpp:408] rpn_big_cls_score_reshape_rpn_big_cls_score_reshape_0_split -> rpn_big_cls_score_reshape_rpn_big_cls_score_reshape_0_split_1
I0413 15:27:08.969347  6363 net.cpp:408] rpn_big_cls_score_reshape_rpn_big_cls_score_reshape_0_split -> rpn_big_cls_score_reshape_rpn_big_cls_score_reshape_0_split_2
I0413 15:27:08.969388  6363 net.cpp:150] Setting up rpn_big_cls_score_reshape_rpn_big_cls_score_reshape_0_split
I0413 15:27:08.969395  6363 net.cpp:157] Top shape: 1 2 1586 92 (291824)
I0413 15:27:08.969399  6363 net.cpp:157] Top shape: 1 2 1586 92 (291824)
I0413 15:27:08.969403  6363 net.cpp:157] Top shape: 1 2 1586 92 (291824)
I0413 15:27:08.969406  6363 net.cpp:165] Memory required for data: 3586991092
I0413 15:27:08.969409  6363 layer_factory.hpp:77] Creating layer rpn_big_cls_prob
I0413 15:27:08.969414  6363 net.cpp:100] Creating Layer rpn_big_cls_prob
I0413 15:27:08.969419  6363 net.cpp:434] rpn_big_cls_prob <- rpn_big_cls_score_reshape_rpn_big_cls_score_reshape_0_split_0
I0413 15:27:08.969427  6363 net.cpp:408] rpn_big_cls_prob -> rpn_big_cls_prob
I0413 15:27:08.969480  6363 net.cpp:150] Setting up rpn_big_cls_prob
I0413 15:27:08.969486  6363 net.cpp:157] Top shape: 1 2 1586 92 (291824)
I0413 15:27:08.969490  6363 net.cpp:165] Memory required for data: 3588158388
I0413 15:27:08.969492  6363 layer_factory.hpp:77] Creating layer rpn_big_cls_prob_reshape
I0413 15:27:08.969497  6363 net.cpp:100] Creating Layer rpn_big_cls_prob_reshape
I0413 15:27:08.969502  6363 net.cpp:434] rpn_big_cls_prob_reshape <- rpn_big_cls_prob
I0413 15:27:08.969509  6363 net.cpp:408] rpn_big_cls_prob_reshape -> rpn_big_cls_prob_reshape
I0413 15:27:08.969529  6363 net.cpp:150] Setting up rpn_big_cls_prob_reshape
I0413 15:27:08.969537  6363 net.cpp:157] Top shape: 1 52 61 92 (291824)
I0413 15:27:08.969539  6363 net.cpp:165] Memory required for data: 3589325684
I0413 15:27:08.969542  6363 layer_factory.hpp:77] Creating layer rpn_big_anchor_target
I0413 15:27:09.028398  6363 net.cpp:100] Creating Layer rpn_big_anchor_target
I0413 15:27:09.028448  6363 net.cpp:434] rpn_big_anchor_target <- rpn_big_cls_score_rpn_big_cls_score_0_split_1
I0413 15:27:09.028472  6363 net.cpp:434] rpn_big_anchor_target <- input_gt_boxes
I0413 15:27:09.028484  6363 net.cpp:434] rpn_big_anchor_target <- input_ignored_boxes
I0413 15:27:09.028496  6363 net.cpp:434] rpn_big_anchor_target <- input_im_info
I0413 15:27:09.028506  6363 net.cpp:434] rpn_big_anchor_target <- input_data_input_0_split_1
I0413 15:27:09.028517  6363 net.cpp:434] rpn_big_anchor_target <- rpn_big_cls_prob_reshape
I0413 15:27:09.028532  6363 net.cpp:408] rpn_big_anchor_target -> rpn_big_anchor_target_labels
I0413 15:27:09.028558  6363 net.cpp:408] rpn_big_anchor_target -> rpn_big_anchor_target_bbox_targets
I0413 15:27:09.028591  6363 net.cpp:408] rpn_big_anchor_target -> rpn_big_anchor_target_inside_weights
I0413 15:27:09.028617  6363 net.cpp:408] rpn_big_anchor_target -> rpn_big_anchor_target_outside_weights
I0413 15:27:09.036152  6363 net.cpp:150] Setting up rpn_big_anchor_target
I0413 15:27:09.036190  6363 net.cpp:157] Top shape: 1 1 1586 92 (145912)
I0413 15:27:09.036198  6363 net.cpp:157] Top shape: 1 104 61 92 (583648)
I0413 15:27:09.036216  6363 net.cpp:157] Top shape: 1 104 61 92 (583648)
I0413 15:27:09.036226  6363 net.cpp:157] Top shape: 1 104 61 92 (583648)
I0413 15:27:09.036232  6363 net.cpp:165] Memory required for data: 3596913108
I0413 15:27:09.036243  6363 layer_factory.hpp:77] Creating layer rpn_big_anchor_target_labels_rpn_big_anchor_target_0_split
I0413 15:27:09.036260  6363 net.cpp:100] Creating Layer rpn_big_anchor_target_labels_rpn_big_anchor_target_0_split
I0413 15:27:09.036279  6363 net.cpp:434] rpn_big_anchor_target_labels_rpn_big_anchor_target_0_split <- rpn_big_anchor_target_labels
I0413 15:27:09.036296  6363 net.cpp:408] rpn_big_anchor_target_labels_rpn_big_anchor_target_0_split -> rpn_big_anchor_target_labels_rpn_big_anchor_target_0_split_0
I0413 15:27:09.036317  6363 net.cpp:408] rpn_big_anchor_target_labels_rpn_big_anchor_target_0_split -> rpn_big_anchor_target_labels_rpn_big_anchor_target_0_split_1
I0413 15:27:09.036402  6363 net.cpp:150] Setting up rpn_big_anchor_target_labels_rpn_big_anchor_target_0_split
I0413 15:27:09.036420  6363 net.cpp:157] Top shape: 1 1 1586 92 (145912)
I0413 15:27:09.036432  6363 net.cpp:157] Top shape: 1 1 1586 92 (145912)
I0413 15:27:09.036454  6363 net.cpp:165] Memory required for data: 3598080404
I0413 15:27:09.036463  6363 layer_factory.hpp:77] Creating layer rpn_big_loss_cls
I0413 15:27:09.036480  6363 net.cpp:100] Creating Layer rpn_big_loss_cls
I0413 15:27:09.036491  6363 net.cpp:434] rpn_big_loss_cls <- rpn_big_cls_score_reshape_rpn_big_cls_score_reshape_0_split_1
I0413 15:27:09.036501  6363 net.cpp:434] rpn_big_loss_cls <- rpn_big_anchor_target_labels_rpn_big_anchor_target_0_split_0
I0413 15:27:09.036514  6363 net.cpp:408] rpn_big_loss_cls -> rpn_big_loss_cls
I0413 15:27:09.036535  6363 layer_factory.hpp:77] Creating layer rpn_big_loss_cls
I0413 15:27:09.037670  6363 net.cpp:150] Setting up rpn_big_loss_cls
I0413 15:27:09.037693  6363 net.cpp:157] Top shape: (1)
I0413 15:27:09.037698  6363 net.cpp:160]     with loss weight 1
I0413 15:27:09.037727  6363 net.cpp:165] Memory required for data: 3598080408
I0413 15:27:09.037737  6363 layer_factory.hpp:77] Creating layer rpn_big_output_box
I0413 15:27:09.037767  6363 net.cpp:100] Creating Layer rpn_big_output_box
I0413 15:27:09.037788  6363 net.cpp:434] rpn_big_output_box <- rpn_big_conv2_rpn_big_conv2_drop_0_split_1
I0413 15:27:09.037816  6363 net.cpp:408] rpn_big_output_box -> rpn_big_output_box
I0413 15:27:09.066279  6363 net.cpp:150] Setting up rpn_big_output_box
I0413 15:27:09.066315  6363 net.cpp:157] Top shape: 1 384 63 94 (2274048)
I0413 15:27:09.066320  6363 net.cpp:165] Memory required for data: 3607176600
I0413 15:27:09.066334  6363 layer_factory.hpp:77] Creating layer rpn_big_output_box_relu
I0413 15:27:09.066347  6363 net.cpp:100] Creating Layer rpn_big_output_box_relu
I0413 15:27:09.066359  6363 net.cpp:434] rpn_big_output_box_relu <- rpn_big_output_box
I0413 15:27:09.066377  6363 net.cpp:395] rpn_big_output_box_relu -> rpn_big_output_box (in-place)
I0413 15:27:09.066401  6363 net.cpp:150] Setting up rpn_big_output_box_relu
I0413 15:27:09.066414  6363 net.cpp:157] Top shape: 1 384 63 94 (2274048)
I0413 15:27:09.066421  6363 net.cpp:165] Memory required for data: 3616272792
I0413 15:27:09.066429  6363 layer_factory.hpp:77] Creating layer rpn_big_bbox_pred
I0413 15:27:09.066452  6363 net.cpp:100] Creating Layer rpn_big_bbox_pred
I0413 15:27:09.066462  6363 net.cpp:434] rpn_big_bbox_pred <- rpn_big_output_box
I0413 15:27:09.066476  6363 net.cpp:408] rpn_big_bbox_pred -> rpn_big_bbox_pred
I0413 15:27:09.072186  6363 net.cpp:150] Setting up rpn_big_bbox_pred
I0413 15:27:09.072211  6363 net.cpp:157] Top shape: 1 104 61 92 (583648)
I0413 15:27:09.072216  6363 net.cpp:165] Memory required for data: 3618607384
I0413 15:27:09.072232  6363 layer_factory.hpp:77] Creating layer rpn_big_loss_bbox
I0413 15:27:09.080127  6363 net.cpp:100] Creating Layer rpn_big_loss_bbox
I0413 15:27:09.080163  6363 net.cpp:434] rpn_big_loss_bbox <- rpn_big_bbox_pred
I0413 15:27:09.080176  6363 net.cpp:434] rpn_big_loss_bbox <- rpn_big_anchor_target_bbox_targets
I0413 15:27:09.080188  6363 net.cpp:434] rpn_big_loss_bbox <- rpn_big_anchor_target_inside_weights
I0413 15:27:09.080196  6363 net.cpp:434] rpn_big_loss_bbox <- rpn_big_anchor_target_outside_weights
I0413 15:27:09.080211  6363 net.cpp:408] rpn_big_loss_bbox -> rpn_big_loss_bbox
I0413 15:27:09.084187  6363 net.cpp:150] Setting up rpn_big_loss_bbox
I0413 15:27:09.084230  6363 net.cpp:157] Top shape: 1 (1)
I0413 15:27:09.084235  6363 net.cpp:160]     with loss weight 1
I0413 15:27:09.084252  6363 net.cpp:165] Memory required for data: 3618607388
I0413 15:27:09.084264  6363 layer_factory.hpp:77] Creating layer MyLoss
I0413 15:27:09.084281  6363 net.cpp:100] Creating Layer MyLoss
I0413 15:27:09.084292  6363 net.cpp:434] MyLoss <- rpn_big_cls_score_reshape_rpn_big_cls_score_reshape_0_split_2
I0413 15:27:09.084306  6363 net.cpp:434] MyLoss <- rpn_big_anchor_target_labels_rpn_big_anchor_target_0_split_1
…
