…
I0412 20:27:24.235919  4481 solver.cpp:48] Initializing solver from parameters: 
base_lr: 0.001
display: 20
lr_policy: "multistep"
gamma: 0.1
momentum: 0.9
weight_decay: 0.0005
snapshot: 0
snapshot_prefix: "faces_example"
net_param {
  name: "GeneratedModel_12_04_2017_20_27"
  layer {
    name: "input"
    type: "Python"
    top: "input_data"
    top: "input_im_info"
    top: "input_gt_boxes"
    top: "input_ignored_boxes"
    python_param {
      module: "layers.roi_data_layer"
      layer: "RoIDataLayer"
      param_str: "{\"num_classes\": 2}"
    }
  }
  layer {
    name: "conv1_1"
    type: "Convolution"
    bottom: "input_data"
    top: "conv1_1"
    param {
      lr_mult: 0
      decay_mult: 0
    }
    param {
      lr_mult: 0
      decay_mult: 0
    }
    convolution_param {
      num_output: 64
      pad: 1
      kernel_size: 3
    }
  }
  layer {
    name: "relu1_1"
    type: "ReLU"
    bottom: "conv1_1"
    top: "conv1_1"
  }
  layer {
    name: "conv1_2"
    type: "Convolution"
    bottom: "conv1_1"
    top: "conv1_2"
    param {
      lr_mult: 0
      decay_mult: 0
    }
    param {
      lr_mult: 0
      decay_mult: 0
    }
    convolution_param {
      num_output: 64
      pad: 1
      kernel_size: 3
    }
  }
  layer {
    name: "relu1_2"
    type: "ReLU"
    bottom: "conv1_2"
    top: "conv1_2"
  }
  layer {
    name: "pool1"
    type: "Pooling"
    bottom: "conv1_2"
    top: "pool1"
    pooling_param {
      pool: MAX
      kernel_size: 2
      stride: 2
    }
  }
  layer {
    name: "conv2_1"
    type: "Convolution"
    bottom: "pool1"
    top: "conv2_1"
    param {
      lr_mult: 0
      decay_mult: 0
    }
    param {
      lr_mult: 0
      decay_mult: 0
    }
    convolution_param {
      num_output: 128
      pad: 1
      kernel_size: 3
    }
  }
  layer {
    name: "relu2_1"
    type: "ReLU"
    bottom: "conv2_1"
    top: "conv2_1"
  }
  layer {
    name: "conv2_2"
    type: "Convolution"
    bottom: "conv2_1"
    top: "conv2_2"
    param {
      lr_mult: 0
      decay_mult: 0
    }
    param {
      lr_mult: 0
      decay_mult: 0
    }
    convolution_param {
      num_output: 128
      pad: 1
      kernel_size: 3
    }
  }
  layer {
    name: "relu2_2"
    type: "ReLU"
    bottom: "conv2_2"
    top: "conv2_2"
  }
  layer {
    name: "pool2"
    type: "Pooling"
    bottom: "conv2_2"
    top: "pool2"
    pooling_param {
      pool: MAX
      kernel_size: 2
      stride: 2
    }
  }
  layer {
    name: "conv3_1"
    type: "Convolution"
    bottom: "pool2"
    top: "conv3_1"
    param {
      lr_mult: 1
    }
    param {
      lr_mult: 2
    }
    convolution_param {
      num_output: 256
      pad: 1
      kernel_size: 3
    }
  }
  layer {
    name: "relu3_1"
    type: "ReLU"
    bottom: "conv3_1"
    top: "conv3_1"
  }
  layer {
    name: "conv3_2"
    type: "Convolution"
    bottom: "conv3_1"
    top: "conv3_2"
    param {
      lr_mult: 1
    }
    param {
      lr_mult: 2
    }
    convolution_param {
      num_output: 256
      pad: 1
      kernel_size: 3
    }
  }
  layer {
    name: "relu3_2"
    type: "ReLU"
    bottom: "conv3_2"
    top: "conv3_2"
  }
  layer {
    name: "conv3_3"
    type: "Convolution"
    bottom: "conv3_2"
    top: "conv3_3"
    param {
      lr_mult: 1
    }
    param {
      lr_mult: 2
    }
    convolution_param {
      num_output: 256
      pad: 1
      kernel_size: 3
    }
  }
  layer {
    name: "relu3_3"
    type: "ReLU"
    bottom: "conv3_3"
    top: "conv3_3"
  }
  layer {
    name: "pool3"
    type: "Pooling"
    bottom: "conv3_3"
    top: "pool3"
    pooling_param {
      pool: MAX
      kernel_size: 2
      stride: 2
    }
  }
  layer {
    name: "conv4_1"
    type: "Convolution"
    bottom: "pool3"
    top: "conv4_1"
    param {
      lr_mult: 1
    }
    param {
      lr_mult: 2
    }
    convolution_param {
      num_output: 512
      pad: 1
      kernel_size: 3
    }
  }
  layer {
    name: "relu4_1"
    type: "ReLU"
    bottom: "conv4_1"
    top: "conv4_1"
  }
  layer {
    name: "conv4_2"
    type: "Convolution"
    bottom: "conv4_1"
    top: "conv4_2"
    param {
      lr_mult: 1
    }
    param {
      lr_mult: 2
    }
    convolution_param {
      num_output: 512
      pad: 1
      kernel_size: 3
    }
  }
  layer {
    name: "relu4_2"
    type: "ReLU"
    bottom: "conv4_2"
    top: "conv4_2"
  }
  layer {
    name: "conv4_3"
    type: "Convolution"
    bottom: "conv4_2"
    top: "conv4_3"
    param {
      lr_mult: 1
    }
    param {
      lr_mult: 2
    }
    convolution_param {
      num_output: 512
      pad: 1
      kernel_size: 3
    }
  }
  layer {
    name: "relu4_3"
    type: "ReLU"
    bottom: "conv4_3"
    top: "conv4_3"
  }
  layer {
    name: "pool4"
    type: "Pooling"
    bottom: "conv4_3"
    top: "pool4"
    pooling_param {
      pool: MAX
      kernel_size: 2
      stride: 2
    }
  }
  layer {
    name: "conv5_1"
    type: "Convolution"
    bottom: "pool4"
    top: "conv5_1"
    param {
      lr_mult: 1
    }
    param {
      lr_mult: 2
    }
    convolution_param {
      num_output: 512
      pad: 1
      kernel_size: 3
    }
  }
  layer {
    name: "relu5_1"
    type: "ReLU"
    bottom: "conv5_1"
    top: "conv5_1"
  }
  layer {
    name: "conv5_2"
    type: "Convolution"
    bottom: "conv5_1"
    top: "conv5_2"
    param {
      lr_mult: 1
    }
    param {
      lr_mult: 2
    }
    convolution_param {
      num_output: 512
      pad: 1
      kernel_size: 3
    }
  }
  layer {
    name: "relu5_2"
    type: "ReLU"
    bottom: "conv5_2"
    top: "conv5_2"
  }
  layer {
    name: "conv5_3"
    type: "Convolution"
    bottom: "conv5_2"
    top: "conv5_3"
    param {
      lr_mult: 1
    }
    param {
      lr_mult: 2
    }
    convolution_param {
      num_output: 512
      pad: 1
      kernel_size: 3
    }
  }
  layer {
    name: "relu5_3"
    type: "ReLU"
    bottom: "conv5_3"
    top: "conv5_3"
  }
  layer {
    name: "rpn_big_conv1"
    type: "Convolution"
    bottom: "conv5_3"
    top: "rpn_big_conv1"
    param {
      lr_mult: 1
    }
    param {
      lr_mult: 2
    }
    convolution_param {
      num_output: 512
      pad: 1
      kernel_size: 3
      stride: 1
      weight_filler {
        type: "gaussian"
        mean: 0
        std: 0.01
      }
      bias_filler {
        type: "constant"
      }
    }
  }
  layer {
    name: "rpn_big_conv1_relu"
    type: "ReLU"
    bottom: "rpn_big_conv1"
    top: "rpn_big_conv1"
    relu_param {
      negative_slope: 0
    }
  }
  layer {
    name: "rpn_big_conv2"
    type: "Convolution"
    bottom: "rpn_big_conv1"
    top: "rpn_big_conv2"
    param {
      lr_mult: 1
    }
    param {
      lr_mult: 2
    }
    convolution_param {
      num_output: 512
      pad: 1
      kernel_size: 3
      stride: 1
      weight_filler {
        type: "gaussian"
        mean: 0
        std: 0.01
      }
      bias_filler {
        type: "constant"
      }
    }
  }
  layer {
    name: "rpn_big_conv2_relu"
    type: "ReLU"
    bottom: "rpn_big_conv2"
    top: "rpn_big_conv2"
    relu_param {
      negative_slope: 0
    }
  }
  layer {
    name: "rpn_big_conv2_drop"
    type: "Dropout"
    bottom: "rpn_big_conv2"
    top: "rpn_big_conv2"
    dropout_param {
      dropout_ratio: 0.3
    }
  }
  layer {
    name: "rpn_big_output_cls"
    type: "Convolution"
    bottom: "rpn_big_conv2"
    top: "rpn_big_output_cls"
    param {
      lr_mult: 1
    }
    param {
      lr_mult: 2
    }
    convolution_param {
      num_output: 384
      pad: 1
      kernel_size: 3
      stride: 1
      weight_filler {
        type: "gaussian"
        mean: 0
        std: 0.01
      }
      bias_filler {
        type: "constant"
      }
    }
  }
  layer {
    name: "rpn_big_output_cls_relu"
    type: "ReLU"
    bottom: "rpn_big_output_cls"
    top: "rpn_big_output_cls"
    relu_param {
      negative_slope: 0
    }
  }
  layer {
    name: "rpn_big_cls_score"
    type: "Convolution"
    bottom: "rpn_big_output_cls"
    top: "rpn_big_cls_score"
    param {
      lr_mult: 1
    }
    param {
      lr_mult: 2
    }
    convolution_param {
      num_output: 52
      pad: 0
      kernel_size: 3
      stride: 1
      weight_filler {
        type: "gaussian"
        mean: 0
        std: 0.01
      }
      bias_filler {
        type: "constant"
      }
    }
  }
  layer {
    name: "rpn_big_cls_score_reshape"
    type: "Reshape"
    bottom: "rpn_big_cls_score"
    top: "rpn_big_cls_score_reshape"
    reshape_param {
      shape {
        dim: 0
        dim: 2
        dim: -1
        dim: 0
      }
    }
  }
  layer {
    name: "rpn_big_cls_prob"
    type: "Softmax"
    bottom: "rpn_big_cls_score_reshape"
    top: "rpn_big_cls_prob"
  }
  layer {
    name: "rpn_big_cls_prob_reshape"
    type: "Reshape"
    bottom: "rpn_big_cls_prob"
    top: "rpn_big_cls_prob_reshape"
    reshape_param {
      shape {
        dim: 0
        dim: 52
        dim: -1
        dim: 0
      }
    }
  }
  layer {
    name: "rpn_big_anchor_target"
    type: "Python"
    bottom: "rpn_big_cls_score"
    bottom: "input_gt_boxes"
    bottom: "input_ignored_boxes"
    bottom: "input_im_info"
    bottom: "input_data"
    bottom: "rpn_big_cls_prob_reshape"
    top: "rpn_big_anchor_target_labels"
    top: "rpn_big_anchor_target_bbox_targets"
    top: "rpn_big_anchor_target_inside_weights"
    top: "rpn_big_anchor_target_outside_weights"
    python_param {
      module: "rpn.anchor_target_layer"
      layer: "AnchorTargetLayer"
      param_str: "{\"positive_overlap\": 0.6, \"square_targets\": true, \"negative_overlap\": 0.4, \"anchor_ratios\": [1.0], \"anchor_scales\": [2.5, 3.025, 3.66025, 4.4289024999999995, 5.358972025, 6.484356150249999, 7.846070941802498, 9.493745839581022, 11.487432465893036, 13.899793283730574, 16.818749873313998, 20.350687346709933, 24.62433168951902, 29.795441344318014], \"num_classes\": 1, \"batchsize\": 256, \"anchor_shift_num_xy\": [[2, 2], [2, 2], [2, 2], [2, 2], [1, 1], [1, 1], [1, 1], [1, 1], [1, 1], [1, 1], [1, 1], [1, 1], [1, 1], [1, 1]], \"name\": \"rpn_big\", \"feat_stride\": 16, \"fg_fraction\": 0.5, \"tn_fraction\": 0.2}"
    }
  }
  layer {
    name: "rpn_big_loss_cls"
    type: "SoftmaxWithLoss"
    bottom: "rpn_big_cls_score_reshape"
    bottom: "rpn_big_anchor_target_labels"
    top: "rpn_big_loss_cls"
    loss_weight: 1
    propagate_down: true
    propagate_down: false
    loss_param {
      ignore_label: -1
      normalization: VALID
    }
  }
  layer {
    name: "rpn_big_output_box"
    type: "Convolution"
    bottom: "rpn_big_conv2"
    top: "rpn_big_output_box"
    param {
      lr_mult: 1
    }
    param {
      lr_mult: 2
    }
    convolution_param {
      num_output: 384
      pad: 1
      kernel_size: 3
      stride: 1
      weight_filler {
        type: "gaussian"
        mean: 0
        std: 0.01
      }
      bias_filler {
        type: "constant"
      }
    }
  }
  layer {
    name: "rpn_big_output_box_relu"
    type: "ReLU"
    bottom: "rpn_big_output_box"
    top: "rpn_big_output_box"
    relu_param {
      negative_slope: 0
    }
  }
  layer {
    name: "rpn_big_bbox_pred"
    type: "Convolution"
    bottom: "rpn_big_output_box"
    top: "rpn_big_bbox_pred"
    param {
      lr_mult: 1
    }
    param {
      lr_mult: 2
    }
    convolution_param {
      num_output: 104
      pad: 0
      kernel_size: 3
      stride: 1
      weight_filler {
        type: "gaussian"
        mean: 0
        std: 0.01
      }
      bias_filler {
        type: "constant"
      }
    }
  }
  layer {
    name: "rpn_big_loss_bbox"
    type: "Python"
    bottom: "rpn_big_bbox_pred"
    bottom: "rpn_big_anchor_target_bbox_targets"
    bottom: "rpn_big_anchor_target_inside_weights"
    bottom: "rpn_big_anchor_target_outside_weights"
    top: "rpn_big_loss_bbox"
    loss_weight: 1
    python_param {
      module: "layers.smooth_l1_loss"
      layer: "SmoothL1LossLayer"
      param_str: "{\"sigma\": 3}"
    }
  }
  layer {
    name: "MyLoss"
    type: "SoftMax"
    bottom: "conv3_1"
    top: "MyLoss"
  }
}
average_loss: 100
stepvalue: 70000
stepvalue: 120000
iter_size: 2
I0412 20:27:24.236032  4481 solver.cpp:86] Creating training net specified in net_param.
I0412 20:27:24.236685  4481 net.cpp:58] Initializing net from parameters: 
name: "GeneratedModel_12_04_2017_20_27"
state {
  phase: TRAIN
}
layer {
  name: "input"
  type: "Python"
  top: "input_data"
  top: "input_im_info"
  top: "input_gt_boxes"
  top: "input_ignored_boxes"
  python_param {
    module: "layers.roi_data_layer"
    layer: "RoIDataLayer"
    param_str: "{\"num_classes\": 2}"
  }
}
layer {
  name: "conv1_1"
  type: "Convolution"
  bottom: "input_data"
  top: "conv1_1"
  param {
    lr_mult: 0
    decay_mult: 0
  }
  param {
    lr_mult: 0
    decay_mult: 0
  }
  convolution_param {
    num_output: 64
    pad: 1
    kernel_size: 3
  }
}
layer {
  name: "relu1_1"
  type: "ReLU"
  bottom: "conv1_1"
  top: "conv1_1"
}
layer {
  name: "conv1_2"
  type: "Convolution"
  bottom: "conv1_1"
  top: "conv1_2"
  param {
    lr_mult: 0
    decay_mult: 0
  }
  param {
    lr_mult: 0
    decay_mult: 0
  }
  convolution_param {
    num_output: 64
    pad: 1
    kernel_size: 3
  }
}
layer {
  name: "relu1_2"
  type: "ReLU"
  bottom: "conv1_2"
  top: "conv1_2"
}
layer {
  name: "pool1"
  type: "Pooling"
  bottom: "conv1_2"
  top: "pool1"
  pooling_param {
    pool: MAX
    kernel_size: 2
    stride: 2
  }
}
layer {
  name: "conv2_1"
  type: "Convolution"
  bottom: "pool1"
  top: "conv2_1"
  param {
    lr_mult: 0
    decay_mult: 0
  }
  param {
    lr_mult: 0
    decay_mult: 0
  }
  convolution_param {
    num_output: 128
    pad: 1
    kernel_size: 3
  }
}
layer {
  name: "relu2_1"
  type: "ReLU"
  bottom: "conv2_1"
  top: "conv2_1"
}
layer {
  name: "conv2_2"
  type: "Convolution"
  bottom: "conv2_1"
  top: "conv2_2"
  param {
    lr_mult: 0
    decay_mult: 0
  }
  param {
    lr_mult: 0
    decay_mult: 0
  }
  convolution_param {
    num_output: 128
    pad: 1
    kernel_size: 3
  }
}
layer {
  name: "relu2_2"
  type: "ReLU"
  bottom: "conv2_2"
  top: "conv2_2"
}
layer {
  name: "pool2"
  type: "Pooling"
  bottom: "conv2_2"
  top: "pool2"
  pooling_param {
    pool: MAX
    kernel_size: 2
    stride: 2
  }
}
layer {
  name: "conv3_1"
  type: "Convolution"
  bottom: "pool2"
  top: "conv3_1"
  param {
    lr_mult: 1
  }
  param {
    lr_mult: 2
  }
  convolution_param {
    num_output: 256
    pad: 1
    kernel_size: 3
  }
}
layer {
  name: "relu3_1"
  type: "ReLU"
  bottom: "conv3_1"
  top: "conv3_1"
}
layer {
  name: "conv3_2"
  type: "Convolution"
  bottom: "conv3_1"
  top: "conv3_2"
  param {
    lr_mult: 1
  }
  param {
    lr_mult: 2
  }
  convolution_param {
    num_output: 256
    pad: 1
    kernel_size: 3
  }
}
layer {
  name: "relu3_2"
  type: "ReLU"
  bottom: "conv3_2"
  top: "conv3_2"
}
layer {
  name: "conv3_3"
  type: "Convolution"
  bottom: "conv3_2"
  top: "conv3_3"
  param {
    lr_mult: 1
  }
  param {
    lr_mult: 2
  }
  convolution_param {
    num_output: 256
    pad: 1
    kernel_size: 3
  }
}
layer {
  name: "relu3_3"
  type: "ReLU"
  bottom: "conv3_3"
  top: "conv3_3"
}
layer {
  name: "pool3"
  type: "Pooling"
  bottom: "conv3_3"
  top: "pool3"
  pooling_param {
    pool: MAX
    kernel_size: 2
    stride: 2
  }
}
layer {
  name: "conv4_1"
  type: "Convolution"
  bottom: "pool3"
  top: "conv4_1"
  param {
    lr_mult: 1
  }
  param {
    lr_mult: 2
  }
  convolution_param {
    num_output: 512
    pad: 1
    kernel_size: 3
  }
}
layer {
  name: "relu4_1"
  type: "ReLU"
  bottom: "conv4_1"
  top: "conv4_1"
}
layer {
  name: "conv4_2"
  type: "Convolution"
  bottom: "conv4_1"
  top: "conv4_2"
  param {
    lr_mult: 1
  }
  param {
    lr_mult: 2
  }
  convolution_param {
    num_output: 512
    pad: 1
    kernel_size: 3
  }
}
layer {
  name: "relu4_2"
  type: "ReLU"
  bottom: "conv4_2"
  top: "conv4_2"
}
layer {
  name: "conv4_3"
  type: "Convolution"
  bottom: "conv4_2"
  top: "conv4_3"
  param {
    lr_mult: 1
  }
  param {
    lr_mult: 2
  }
  convolution_param {
    num_output: 512
    pad: 1
    kernel_size: 3
  }
}
layer {
  name: "relu4_3"
  type: "ReLU"
  bottom: "conv4_3"
  top: "conv4_3"
}
layer {
  name: "pool4"
  type: "Pooling"
  bottom: "conv4_3"
  top: "pool4"
  pooling_param {
    pool: MAX
    kernel_size: 2
    stride: 2
  }
}
layer {
  name: "conv5_1"
  type: "Convolution"
  bottom: "pool4"
  top: "conv5_1"
  param {
    lr_mult: 1
  }
  param {
    lr_mult: 2
  }
  convolution_param {
    num_output: 512
    pad: 1
    kernel_size: 3
  }
}
layer {
  name: "relu5_1"
  type: "ReLU"
  bottom: "conv5_1"
  top: "conv5_1"
}
layer {
  name: "conv5_2"
  type: "Convolution"
  bottom: "conv5_1"
  top: "conv5_2"
  param {
    lr_mult: 1
  }
  param {
    lr_mult: 2
  }
  convolution_param {
    num_output: 512
    pad: 1
    kernel_size: 3
  }
}
layer {
  name: "relu5_2"
  type: "ReLU"
  bottom: "conv5_2"
  top: "conv5_2"
}
layer {
  name: "conv5_3"
  type: "Convolution"
  bottom: "conv5_2"
  top: "conv5_3"
  param {
    lr_mult: 1
  }
  param {
    lr_mult: 2
  }
  convolution_param {
    num_output: 512
    pad: 1
    kernel_size: 3
  }
}
layer {
  name: "relu5_3"
  type: "ReLU"
  bottom: "conv5_3"
  top: "conv5_3"
}
layer {
  name: "rpn_big_conv1"
  type: "Convolution"
  bottom: "conv5_3"
  top: "rpn_big_conv1"
  param {
    lr_mult: 1
  }
  param {
    lr_mult: 2
  }
  convolution_param {
    num_output: 512
    pad: 1
    kernel_size: 3
    stride: 1
    weight_filler {
      type: "gaussian"
      mean: 0
      std: 0.01
    }
    bias_filler {
      type: "constant"
    }
  }
}
layer {
  name: "rpn_big_conv1_relu"
  type: "ReLU"
  bottom: "rpn_big_conv1"
  top: "rpn_big_conv1"
  relu_param {
    negative_slope: 0
  }
}
layer {
  name: "rpn_big_conv2"
  type: "Convolution"
  bottom: "rpn_big_conv1"
  top: "rpn_big_conv2"
  param {
    lr_mult: 1
  }
  param {
    lr_mult: 2
  }
  convolution_param {
    num_output: 512
    pad: 1
    kernel_size: 3
    stride: 1
    weight_filler {
      type: "gaussian"
      mean: 0
      std: 0.01
    }
    bias_filler {
      type: "constant"
    }
  }
}
layer {
  name: "rpn_big_conv2_relu"
  type: "ReLU"
  bottom: "rpn_big_conv2"
  top: "rpn_big_conv2"
  relu_param {
    negative_slope: 0
  }
}
layer {
  name: "rpn_big_conv2_drop"
  type: "Dropout"
  bottom: "rpn_big_conv2"
  top: "rpn_big_conv2"
  dropout_param {
    dropout_ratio: 0.3
  }
}
layer {
  name: "rpn_big_output_cls"
  type: "Convolution"
  bottom: "rpn_big_conv2"
  top: "rpn_big_output_cls"
  param {
    lr_mult: 1
  }
  param {
    lr_mult: 2
  }
  convolution_param {
    num_output: 384
    pad: 1
    kernel_size: 3
    stride: 1
    weight_filler {
      type: "gaussian"
      mean: 0
      std: 0.01
    }
    bias_filler {
      type: "constant"
    }
  }
}
layer {
  name: "rpn_big_output_cls_relu"
  type: "ReLU"
  bottom: "rpn_big_output_cls"
  top: "rpn_big_output_cls"
  relu_param {
    negative_slope: 0
  }
}
layer {
  name: "rpn_big_cls_score"
  type: "Convolution"
  bottom: "rpn_big_output_cls"
  top: "rpn_big_cls_score"
  param {
    lr_mult: 1
  }
  param {
    lr_mult: 2
  }
  convolution_param {
    num_output: 52
    pad: 0
    kernel_size: 3
    stride: 1
    weight_filler {
      type: "gaussian"
      mean: 0
      std: 0.01
    }
    bias_filler {
      type: "constant"
    }
  }
}
layer {
  name: "rpn_big_cls_score_reshape"
  type: "Reshape"
  bottom: "rpn_big_cls_score"
  top: "rpn_big_cls_score_reshape"
  reshape_param {
    shape {
      dim: 0
      dim: 2
      dim: -1
      dim: 0
    }
  }
}
layer {
  name: "rpn_big_cls_prob"
  type: "Softmax"
  bottom: "rpn_big_cls_score_reshape"
  top: "rpn_big_cls_prob"
}
layer {
  name: "rpn_big_cls_prob_reshape"
  type: "Reshape"
  bottom: "rpn_big_cls_prob"
  top: "rpn_big_cls_prob_reshape"
  reshape_param {
    shape {
      dim: 0
      dim: 52
      dim: -1
      dim: 0
    }
  }
}
layer {
  name: "rpn_big_anchor_target"
  type: "Python"
  bottom: "rpn_big_cls_score"
  bottom: "input_gt_boxes"
  bottom: "input_ignored_boxes"
  bottom: "input_im_info"
  bottom: "input_data"
  bottom: "rpn_big_cls_prob_reshape"
  top: "rpn_big_anchor_target_labels"
  top: "rpn_big_anchor_target_bbox_targets"
  top: "rpn_big_anchor_target_inside_weights"
  top: "rpn_big_anchor_target_outside_weights"
  python_param {
    module: "rpn.anchor_target_layer"
    layer: "AnchorTargetLayer"
    param_str: "{\"positive_overlap\": 0.6, \"square_targets\": true, \"negative_overlap\": 0.4, \"anchor_ratios\": [1.0], \"anchor_scales\": [2.5, 3.025, 3.66025, 4.4289024999999995, 5.358972025, 6.484356150249999, 7.846070941802498, 9.493745839581022, 11.487432465893036, 13.899793283730574, 16.818749873313998, 20.350687346709933, 24.62433168951902, 29.795441344318014], \"num_classes\": 1, \"batchsize\": 256, \"anchor_shift_num_xy\": [[2, 2], [2, 2], [2, 2], [2, 2], [1, 1], [1, 1], [1, 1], [1, 1], [1, 1], [1, 1], [1, 1], [1, 1], [1, 1], [1, 1]], \"name\": \"rpn_big\", \"feat_stride\": 16, \"fg_fraction\": 0.5, \"tn_fraction\": 0.2}"
  }
}
layer {
  name: "rpn_big_loss_cls"
  type: "SoftmaxWithLoss"
  bottom: "rpn_big_cls_score_reshape"
  bottom: "rpn_big_anchor_target_labels"
  top: "rpn_big_loss_cls"
  loss_weight: 1
  propagate_down: true
  propagate_down: false
  loss_param {
    ignore_label: -1
    normalization: VALID
  }
}
layer {
  name: "rpn_big_output_box"
  type: "Convolution"
  bottom: "rpn_big_conv2"
  top: "rpn_big_output_box"
  param {
    lr_mult: 1
  }
  param {
    lr_mult: 2
  }
  convolution_param {
    num_output: 384
    pad: 1
    kernel_size: 3
    stride: 1
    weight_filler {
      type: "gaussian"
      mean: 0
      std: 0.01
    }
    bias_filler {
      type: "constant"
    }
  }
}
layer {
  name: "rpn_big_output_box_relu"
  type: "ReLU"
  bottom: "rpn_big_output_box"
  top: "rpn_big_output_box"
  relu_param {
    negative_slope: 0
  }
}
layer {
  name: "rpn_big_bbox_pred"
  type: "Convolution"
  bottom: "rpn_big_output_box"
  top: "rpn_big_bbox_pred"
  param {
    lr_mult: 1
  }
  param {
    lr_mult: 2
  }
  convolution_param {
    num_output: 104
    pad: 0
    kernel_size: 3
    stride: 1
    weight_filler {
      type: "gaussian"
      mean: 0
      std: 0.01
    }
    bias_filler {
      type: "constant"
    }
  }
}
layer {
  name: "rpn_big_loss_bbox"
  type: "Python"
  bottom: "rpn_big_bbox_pred"
  bottom: "rpn_big_anchor_target_bbox_targets"
  bottom: "rpn_big_anchor_target_inside_weights"
  bottom: "rpn_big_anchor_target_outside_weights"
  top: "rpn_big_loss_bbox"
  loss_weight: 1
  python_param {
    module: "layers.smooth_l1_loss"
    layer: "SmoothL1LossLayer"
    param_str: "{\"sigma\": 3}"
  }
}
layer {
  name: "MyLoss"
  type: "SoftMax"
  bottom: "conv3_1"
  top: "MyLoss"
}
I0412 20:27:24.236951  4481 layer_factory.hpp:77] Creating layer input
I0412 20:27:24.238761  4481 net.cpp:100] Creating Layer input
I0412 20:27:24.238781  4481 net.cpp:408] input -> input_data
I0412 20:27:24.238797  4481 net.cpp:408] input -> input_im_info
I0412 20:27:24.238808  4481 net.cpp:408] input -> input_gt_boxes
I0412 20:27:24.238818  4481 net.cpp:408] input -> input_ignored_boxes
RoiDataLayer: name_to_top: {'data': 0, 'gt_boxes': 2, 'ignored_boxes': 3, 'im_info': 1}
I0412 20:27:24.549309  4481 net.cpp:150] Setting up input
I0412 20:27:24.549346  4481 net.cpp:157] Top shape: 1 3 1000 1500 (4500000)
I0412 20:27:24.549356  4481 net.cpp:157] Top shape: 1 3 (3)
I0412 20:27:24.549365  4481 net.cpp:157] Top shape: 1 5 (5)
I0412 20:27:24.549372  4481 net.cpp:157] Top shape: 1 5 (5)
I0412 20:27:24.549379  4481 net.cpp:165] Memory required for data: 18000052
I0412 20:27:24.549389  4481 layer_factory.hpp:77] Creating layer input_data_input_0_split
I0412 20:27:24.549408  4481 net.cpp:100] Creating Layer input_data_input_0_split
I0412 20:27:24.549417  4481 net.cpp:434] input_data_input_0_split <- input_data
I0412 20:27:24.549429  4481 net.cpp:408] input_data_input_0_split -> input_data_input_0_split_0
I0412 20:27:24.549448  4481 net.cpp:408] input_data_input_0_split -> input_data_input_0_split_1
I0412 20:27:24.549485  4481 net.cpp:150] Setting up input_data_input_0_split
I0412 20:27:24.549496  4481 net.cpp:157] Top shape: 1 3 1000 1500 (4500000)
I0412 20:27:24.549504  4481 net.cpp:157] Top shape: 1 3 1000 1500 (4500000)
I0412 20:27:24.549511  4481 net.cpp:165] Memory required for data: 54000052
I0412 20:27:24.549517  4481 layer_factory.hpp:77] Creating layer conv1_1
I0412 20:27:24.549533  4481 net.cpp:100] Creating Layer conv1_1
I0412 20:27:24.549540  4481 net.cpp:434] conv1_1 <- input_data_input_0_split_0
I0412 20:27:24.549549  4481 net.cpp:408] conv1_1 -> conv1_1
I0412 20:27:24.552693  4481 net.cpp:150] Setting up conv1_1
I0412 20:27:24.552728  4481 net.cpp:157] Top shape: 1 64 1000 1500 (96000000)
I0412 20:27:24.552733  4481 net.cpp:165] Memory required for data: 438000052
I0412 20:27:24.552758  4481 layer_factory.hpp:77] Creating layer relu1_1
I0412 20:27:24.552785  4481 net.cpp:100] Creating Layer relu1_1
I0412 20:27:24.552793  4481 net.cpp:434] relu1_1 <- conv1_1
I0412 20:27:24.552805  4481 net.cpp:395] relu1_1 -> conv1_1 (in-place)
I0412 20:27:24.552821  4481 net.cpp:150] Setting up relu1_1
I0412 20:27:24.552829  4481 net.cpp:157] Top shape: 1 64 1000 1500 (96000000)
I0412 20:27:24.552835  4481 net.cpp:165] Memory required for data: 822000052
I0412 20:27:24.552841  4481 layer_factory.hpp:77] Creating layer conv1_2
I0412 20:27:24.552858  4481 net.cpp:100] Creating Layer conv1_2
I0412 20:27:24.552866  4481 net.cpp:434] conv1_2 <- conv1_1
I0412 20:27:24.552877  4481 net.cpp:408] conv1_2 -> conv1_2
I0412 20:27:24.556295  4481 net.cpp:150] Setting up conv1_2
I0412 20:27:24.556337  4481 net.cpp:157] Top shape: 1 64 1000 1500 (96000000)
I0412 20:27:24.556344  4481 net.cpp:165] Memory required for data: 1206000052
I0412 20:27:24.556367  4481 layer_factory.hpp:77] Creating layer relu1_2
I0412 20:27:24.556385  4481 net.cpp:100] Creating Layer relu1_2
I0412 20:27:24.556393  4481 net.cpp:434] relu1_2 <- conv1_2
I0412 20:27:24.556406  4481 net.cpp:395] relu1_2 -> conv1_2 (in-place)
I0412 20:27:24.556422  4481 net.cpp:150] Setting up relu1_2
I0412 20:27:24.556437  4481 net.cpp:157] Top shape: 1 64 1000 1500 (96000000)
I0412 20:27:24.556444  4481 net.cpp:165] Memory required for data: 1590000052
I0412 20:27:24.556450  4481 layer_factory.hpp:77] Creating layer pool1
I0412 20:27:24.556463  4481 net.cpp:100] Creating Layer pool1
I0412 20:27:24.556469  4481 net.cpp:434] pool1 <- conv1_2
I0412 20:27:24.556479  4481 net.cpp:408] pool1 -> pool1
I0412 20:27:24.556566  4481 net.cpp:150] Setting up pool1
I0412 20:27:24.556577  4481 net.cpp:157] Top shape: 1 64 500 750 (24000000)
I0412 20:27:24.556583  4481 net.cpp:165] Memory required for data: 1686000052
I0412 20:27:24.556591  4481 layer_factory.hpp:77] Creating layer conv2_1
I0412 20:27:24.556604  4481 net.cpp:100] Creating Layer conv2_1
I0412 20:27:24.556612  4481 net.cpp:434] conv2_1 <- pool1
I0412 20:27:24.556627  4481 net.cpp:408] conv2_1 -> conv2_1
I0412 20:27:24.557823  4481 net.cpp:150] Setting up conv2_1
I0412 20:27:24.557847  4481 net.cpp:157] Top shape: 1 128 500 750 (48000000)
I0412 20:27:24.557854  4481 net.cpp:165] Memory required for data: 1878000052
I0412 20:27:24.557873  4481 layer_factory.hpp:77] Creating layer relu2_1
I0412 20:27:24.557886  4481 net.cpp:100] Creating Layer relu2_1
I0412 20:27:24.557893  4481 net.cpp:434] relu2_1 <- conv2_1
I0412 20:27:24.557906  4481 net.cpp:395] relu2_1 -> conv2_1 (in-place)
I0412 20:27:24.557919  4481 net.cpp:150] Setting up relu2_1
I0412 20:27:24.557929  4481 net.cpp:157] Top shape: 1 128 500 750 (48000000)
I0412 20:27:24.557935  4481 net.cpp:165] Memory required for data: 2070000052
I0412 20:27:24.557941  4481 layer_factory.hpp:77] Creating layer conv2_2
I0412 20:27:24.557952  4481 net.cpp:100] Creating Layer conv2_2
I0412 20:27:24.557960  4481 net.cpp:434] conv2_2 <- conv2_1
I0412 20:27:24.557971  4481 net.cpp:408] conv2_2 -> conv2_2
I0412 20:27:24.558904  4481 net.cpp:150] Setting up conv2_2
I0412 20:27:24.558933  4481 net.cpp:157] Top shape: 1 128 500 750 (48000000)
I0412 20:27:24.558938  4481 net.cpp:165] Memory required for data: 2262000052
I0412 20:27:24.558953  4481 layer_factory.hpp:77] Creating layer relu2_2
I0412 20:27:24.558964  4481 net.cpp:100] Creating Layer relu2_2
I0412 20:27:24.558972  4481 net.cpp:434] relu2_2 <- conv2_2
I0412 20:27:24.558984  4481 net.cpp:395] relu2_2 -> conv2_2 (in-place)
I0412 20:27:24.558996  4481 net.cpp:150] Setting up relu2_2
I0412 20:27:24.559006  4481 net.cpp:157] Top shape: 1 128 500 750 (48000000)
I0412 20:27:24.559013  4481 net.cpp:165] Memory required for data: 2454000052
I0412 20:27:24.559020  4481 layer_factory.hpp:77] Creating layer pool2
I0412 20:27:24.559031  4481 net.cpp:100] Creating Layer pool2
I0412 20:27:24.559038  4481 net.cpp:434] pool2 <- conv2_2
I0412 20:27:24.559048  4481 net.cpp:408] pool2 -> pool2
I0412 20:27:24.559103  4481 net.cpp:150] Setting up pool2
I0412 20:27:24.559113  4481 net.cpp:157] Top shape: 1 128 250 375 (12000000)
I0412 20:27:24.559119  4481 net.cpp:165] Memory required for data: 2502000052
I0412 20:27:24.559125  4481 layer_factory.hpp:77] Creating layer conv3_1
I0412 20:27:24.559140  4481 net.cpp:100] Creating Layer conv3_1
I0412 20:27:24.559149  4481 net.cpp:434] conv3_1 <- pool2
I0412 20:27:24.559157  4481 net.cpp:408] conv3_1 -> conv3_1
I0412 20:27:24.560279  4481 net.cpp:150] Setting up conv3_1
I0412 20:27:24.560308  4481 net.cpp:157] Top shape: 1 256 250 375 (24000000)
I0412 20:27:24.560313  4481 net.cpp:165] Memory required for data: 2598000052
I0412 20:27:24.560333  4481 layer_factory.hpp:77] Creating layer relu3_1
I0412 20:27:24.560348  4481 net.cpp:100] Creating Layer relu3_1
I0412 20:27:24.560356  4481 net.cpp:434] relu3_1 <- conv3_1
I0412 20:27:24.560367  4481 net.cpp:395] relu3_1 -> conv3_1 (in-place)
I0412 20:27:24.560384  4481 net.cpp:150] Setting up relu3_1
I0412 20:27:24.560392  4481 net.cpp:157] Top shape: 1 256 250 375 (24000000)
I0412 20:27:24.560400  4481 net.cpp:165] Memory required for data: 2694000052
I0412 20:27:24.560407  4481 layer_factory.hpp:77] Creating layer conv3_1_relu3_1_0_split
I0412 20:27:24.560417  4481 net.cpp:100] Creating Layer conv3_1_relu3_1_0_split
I0412 20:27:24.560426  4481 net.cpp:434] conv3_1_relu3_1_0_split <- conv3_1
I0412 20:27:24.560437  4481 net.cpp:408] conv3_1_relu3_1_0_split -> conv3_1_relu3_1_0_split_0
I0412 20:27:24.560451  4481 net.cpp:408] conv3_1_relu3_1_0_split -> conv3_1_relu3_1_0_split_1
I0412 20:27:24.560494  4481 net.cpp:150] Setting up conv3_1_relu3_1_0_split
I0412 20:27:24.560504  4481 net.cpp:157] Top shape: 1 256 250 375 (24000000)
I0412 20:27:24.560513  4481 net.cpp:157] Top shape: 1 256 250 375 (24000000)
I0412 20:27:24.560520  4481 net.cpp:165] Memory required for data: 2886000052
I0412 20:27:24.560526  4481 layer_factory.hpp:77] Creating layer conv3_2
I0412 20:27:24.560544  4481 net.cpp:100] Creating Layer conv3_2
I0412 20:27:24.560551  4481 net.cpp:434] conv3_2 <- conv3_1_relu3_1_0_split_0
I0412 20:27:24.560561  4481 net.cpp:408] conv3_2 -> conv3_2
I0412 20:27:24.561738  4481 net.cpp:150] Setting up conv3_2
I0412 20:27:24.561765  4481 net.cpp:157] Top shape: 1 256 250 375 (24000000)
I0412 20:27:24.561770  4481 net.cpp:165] Memory required for data: 2982000052
I0412 20:27:24.561784  4481 layer_factory.hpp:77] Creating layer relu3_2
I0412 20:27:24.561800  4481 net.cpp:100] Creating Layer relu3_2
I0412 20:27:24.561808  4481 net.cpp:434] relu3_2 <- conv3_2
I0412 20:27:24.561820  4481 net.cpp:395] relu3_2 -> conv3_2 (in-place)
I0412 20:27:24.561833  4481 net.cpp:150] Setting up relu3_2
I0412 20:27:24.561843  4481 net.cpp:157] Top shape: 1 256 250 375 (24000000)
I0412 20:27:24.561849  4481 net.cpp:165] Memory required for data: 3078000052
I0412 20:27:24.561856  4481 layer_factory.hpp:77] Creating layer conv3_3
I0412 20:27:24.561872  4481 net.cpp:100] Creating Layer conv3_3
I0412 20:27:24.561879  4481 net.cpp:434] conv3_3 <- conv3_2
I0412 20:27:24.561889  4481 net.cpp:408] conv3_3 -> conv3_3
I0412 20:27:24.563439  4481 net.cpp:150] Setting up conv3_3
I0412 20:27:24.563474  4481 net.cpp:157] Top shape: 1 256 250 375 (24000000)
I0412 20:27:24.563479  4481 net.cpp:165] Memory required for data: 3174000052
I0412 20:27:24.563494  4481 layer_factory.hpp:77] Creating layer relu3_3
I0412 20:27:24.563506  4481 net.cpp:100] Creating Layer relu3_3
I0412 20:27:24.563515  4481 net.cpp:434] relu3_3 <- conv3_3
I0412 20:27:24.563531  4481 net.cpp:395] relu3_3 -> conv3_3 (in-place)
I0412 20:27:24.563547  4481 net.cpp:150] Setting up relu3_3
I0412 20:27:24.563556  4481 net.cpp:157] Top shape: 1 256 250 375 (24000000)
I0412 20:27:24.563563  4481 net.cpp:165] Memory required for data: 3270000052
I0412 20:27:24.563570  4481 layer_factory.hpp:77] Creating layer pool3
I0412 20:27:24.563580  4481 net.cpp:100] Creating Layer pool3
I0412 20:27:24.563587  4481 net.cpp:434] pool3 <- conv3_3
I0412 20:27:24.563596  4481 net.cpp:408] pool3 -> pool3
I0412 20:27:24.563649  4481 net.cpp:150] Setting up pool3
I0412 20:27:24.563659  4481 net.cpp:157] Top shape: 1 256 125 188 (6016000)
I0412 20:27:24.563666  4481 net.cpp:165] Memory required for data: 3294064052
I0412 20:27:24.563674  4481 layer_factory.hpp:77] Creating layer conv4_1
I0412 20:27:24.563689  4481 net.cpp:100] Creating Layer conv4_1
I0412 20:27:24.563695  4481 net.cpp:434] conv4_1 <- pool3
I0412 20:27:24.563707  4481 net.cpp:408] conv4_1 -> conv4_1
I0412 20:27:24.566355  4481 net.cpp:150] Setting up conv4_1
I0412 20:27:24.566392  4481 net.cpp:157] Top shape: 1 512 125 188 (12032000)
I0412 20:27:24.566398  4481 net.cpp:165] Memory required for data: 3342192052
I0412 20:27:24.566413  4481 layer_factory.hpp:77] Creating layer relu4_1
I0412 20:27:24.566428  4481 net.cpp:100] Creating Layer relu4_1
I0412 20:27:24.566437  4481 net.cpp:434] relu4_1 <- conv4_1
I0412 20:27:24.566450  4481 net.cpp:395] relu4_1 -> conv4_1 (in-place)
I0412 20:27:24.566467  4481 net.cpp:150] Setting up relu4_1
I0412 20:27:24.566475  4481 net.cpp:157] Top shape: 1 512 125 188 (12032000)
I0412 20:27:24.566483  4481 net.cpp:165] Memory required for data: 3390320052
I0412 20:27:24.566489  4481 layer_factory.hpp:77] Creating layer conv4_2
I0412 20:27:24.566505  4481 net.cpp:100] Creating Layer conv4_2
I0412 20:27:24.566512  4481 net.cpp:434] conv4_2 <- conv4_1
I0412 20:27:24.566522  4481 net.cpp:408] conv4_2 -> conv4_2
I0412 20:27:24.570754  4481 net.cpp:150] Setting up conv4_2
I0412 20:27:24.570792  4481 net.cpp:157] Top shape: 1 512 125 188 (12032000)
I0412 20:27:24.570798  4481 net.cpp:165] Memory required for data: 3438448052
I0412 20:27:24.570821  4481 layer_factory.hpp:77] Creating layer relu4_2
I0412 20:27:24.570837  4481 net.cpp:100] Creating Layer relu4_2
I0412 20:27:24.570847  4481 net.cpp:434] relu4_2 <- conv4_2
I0412 20:27:24.570858  4481 net.cpp:395] relu4_2 -> conv4_2 (in-place)
I0412 20:27:24.570873  4481 net.cpp:150] Setting up relu4_2
I0412 20:27:24.570883  4481 net.cpp:157] Top shape: 1 512 125 188 (12032000)
I0412 20:27:24.570889  4481 net.cpp:165] Memory required for data: 3486576052
I0412 20:27:24.570895  4481 layer_factory.hpp:77] Creating layer conv4_3
I0412 20:27:24.570910  4481 net.cpp:100] Creating Layer conv4_3
I0412 20:27:24.570916  4481 net.cpp:434] conv4_3 <- conv4_2
I0412 20:27:24.570929  4481 net.cpp:408] conv4_3 -> conv4_3
I0412 20:27:24.575335  4481 net.cpp:150] Setting up conv4_3
I0412 20:27:24.575372  4481 net.cpp:157] Top shape: 1 512 125 188 (12032000)
I0412 20:27:24.575377  4481 net.cpp:165] Memory required for data: 3534704052
I0412 20:27:24.575392  4481 layer_factory.hpp:77] Creating layer relu4_3
I0412 20:27:24.575407  4481 net.cpp:100] Creating Layer relu4_3
I0412 20:27:24.575418  4481 net.cpp:434] relu4_3 <- conv4_3
I0412 20:27:24.575433  4481 net.cpp:395] relu4_3 -> conv4_3 (in-place)
I0412 20:27:24.575445  4481 net.cpp:150] Setting up relu4_3
I0412 20:27:24.575453  4481 net.cpp:157] Top shape: 1 512 125 188 (12032000)
I0412 20:27:24.575456  4481 net.cpp:165] Memory required for data: 3582832052
I0412 20:27:24.575461  4481 layer_factory.hpp:77] Creating layer pool4
I0412 20:27:24.575469  4481 net.cpp:100] Creating Layer pool4
I0412 20:27:24.575474  4481 net.cpp:434] pool4 <- conv4_3
I0412 20:27:24.575484  4481 net.cpp:408] pool4 -> pool4
I0412 20:27:24.575534  4481 net.cpp:150] Setting up pool4
I0412 20:27:24.575546  4481 net.cpp:157] Top shape: 1 512 63 94 (3032064)
I0412 20:27:24.575551  4481 net.cpp:165] Memory required for data: 3594960308
I0412 20:27:24.575557  4481 layer_factory.hpp:77] Creating layer conv5_1
I0412 20:27:24.575572  4481 net.cpp:100] Creating Layer conv5_1
I0412 20:27:24.575580  4481 net.cpp:434] conv5_1 <- pool4
I0412 20:27:24.575594  4481 net.cpp:408] conv5_1 -> conv5_1
I0412 20:27:24.580745  4481 net.cpp:150] Setting up conv5_1
I0412 20:27:24.580778  4481 net.cpp:157] Top shape: 1 512 63 94 (3032064)
I0412 20:27:24.580785  4481 net.cpp:165] Memory required for data: 3607088564
I0412 20:27:24.580806  4481 layer_factory.hpp:77] Creating layer relu5_1
I0412 20:27:24.580821  4481 net.cpp:100] Creating Layer relu5_1
I0412 20:27:24.580828  4481 net.cpp:434] relu5_1 <- conv5_1
I0412 20:27:24.580842  4481 net.cpp:395] relu5_1 -> conv5_1 (in-place)
I0412 20:27:24.580857  4481 net.cpp:150] Setting up relu5_1
I0412 20:27:24.580866  4481 net.cpp:157] Top shape: 1 512 63 94 (3032064)
I0412 20:27:24.580873  4481 net.cpp:165] Memory required for data: 3619216820
I0412 20:27:24.580879  4481 layer_factory.hpp:77] Creating layer conv5_2
I0412 20:27:24.580894  4481 net.cpp:100] Creating Layer conv5_2
I0412 20:27:24.580901  4481 net.cpp:434] conv5_2 <- conv5_1
I0412 20:27:24.580912  4481 net.cpp:408] conv5_2 -> conv5_2
I0412 20:27:24.585207  4481 net.cpp:150] Setting up conv5_2
I0412 20:27:24.585247  4481 net.cpp:157] Top shape: 1 512 63 94 (3032064)
I0412 20:27:24.585252  4481 net.cpp:165] Memory required for data: 3631345076
I0412 20:27:24.585268  4481 layer_factory.hpp:77] Creating layer relu5_2
I0412 20:27:24.585283  4481 net.cpp:100] Creating Layer relu5_2
I0412 20:27:24.585292  4481 net.cpp:434] relu5_2 <- conv5_2
I0412 20:27:24.585304  4481 net.cpp:395] relu5_2 -> conv5_2 (in-place)
I0412 20:27:24.585320  4481 net.cpp:150] Setting up relu5_2
I0412 20:27:24.585330  4481 net.cpp:157] Top shape: 1 512 63 94 (3032064)
I0412 20:27:24.585337  4481 net.cpp:165] Memory required for data: 3643473332
I0412 20:27:24.585343  4481 layer_factory.hpp:77] Creating layer conv5_3
I0412 20:27:24.585362  4481 net.cpp:100] Creating Layer conv5_3
I0412 20:27:24.585368  4481 net.cpp:434] conv5_3 <- conv5_2
I0412 20:27:24.585381  4481 net.cpp:408] conv5_3 -> conv5_3
I0412 20:27:24.589617  4481 net.cpp:150] Setting up conv5_3
I0412 20:27:24.589655  4481 net.cpp:157] Top shape: 1 512 63 94 (3032064)
I0412 20:27:24.589661  4481 net.cpp:165] Memory required for data: 3655601588
I0412 20:27:24.589676  4481 layer_factory.hpp:77] Creating layer relu5_3
I0412 20:27:24.589700  4481 net.cpp:100] Creating Layer relu5_3
I0412 20:27:24.589709  4481 net.cpp:434] relu5_3 <- conv5_3
I0412 20:27:24.589722  4481 net.cpp:395] relu5_3 -> conv5_3 (in-place)
I0412 20:27:24.589736  4481 net.cpp:150] Setting up relu5_3
I0412 20:27:24.589745  4481 net.cpp:157] Top shape: 1 512 63 94 (3032064)
I0412 20:27:24.589751  4481 net.cpp:165] Memory required for data: 3667729844
I0412 20:27:24.589758  4481 layer_factory.hpp:77] Creating layer rpn_big_conv1
I0412 20:27:24.589776  4481 net.cpp:100] Creating Layer rpn_big_conv1
I0412 20:27:24.589783  4481 net.cpp:434] rpn_big_conv1 <- conv5_3
I0412 20:27:24.589794  4481 net.cpp:408] rpn_big_conv1 -> rpn_big_conv1
I0412 20:27:24.615274  4481 net.cpp:150] Setting up rpn_big_conv1
I0412 20:27:24.615309  4481 net.cpp:157] Top shape: 1 512 63 94 (3032064)
I0412 20:27:24.615324  4481 net.cpp:165] Memory required for data: 3679858100
I0412 20:27:24.615339  4481 layer_factory.hpp:77] Creating layer rpn_big_conv1_relu
I0412 20:27:24.615353  4481 net.cpp:100] Creating Layer rpn_big_conv1_relu
I0412 20:27:24.615363  4481 net.cpp:434] rpn_big_conv1_relu <- rpn_big_conv1
I0412 20:27:24.615378  4481 net.cpp:395] rpn_big_conv1_relu -> rpn_big_conv1 (in-place)
I0412 20:27:24.615393  4481 net.cpp:150] Setting up rpn_big_conv1_relu
I0412 20:27:24.615403  4481 net.cpp:157] Top shape: 1 512 63 94 (3032064)
I0412 20:27:24.615409  4481 net.cpp:165] Memory required for data: 3691986356
I0412 20:27:24.615417  4481 layer_factory.hpp:77] Creating layer rpn_big_conv2
I0412 20:27:24.615432  4481 net.cpp:100] Creating Layer rpn_big_conv2
I0412 20:27:24.615438  4481 net.cpp:434] rpn_big_conv2 <- rpn_big_conv1
I0412 20:27:24.615450  4481 net.cpp:408] rpn_big_conv2 -> rpn_big_conv2
I0412 20:27:24.642732  4481 net.cpp:150] Setting up rpn_big_conv2
I0412 20:27:24.642762  4481 net.cpp:157] Top shape: 1 512 63 94 (3032064)
I0412 20:27:24.642768  4481 net.cpp:165] Memory required for data: 3704114612
I0412 20:27:24.642791  4481 layer_factory.hpp:77] Creating layer rpn_big_conv2_relu
I0412 20:27:24.642808  4481 net.cpp:100] Creating Layer rpn_big_conv2_relu
I0412 20:27:24.642818  4481 net.cpp:434] rpn_big_conv2_relu <- rpn_big_conv2
I0412 20:27:24.642832  4481 net.cpp:395] rpn_big_conv2_relu -> rpn_big_conv2 (in-place)
I0412 20:27:24.642848  4481 net.cpp:150] Setting up rpn_big_conv2_relu
I0412 20:27:24.642858  4481 net.cpp:157] Top shape: 1 512 63 94 (3032064)
I0412 20:27:24.642863  4481 net.cpp:165] Memory required for data: 3716242868
I0412 20:27:24.642870  4481 layer_factory.hpp:77] Creating layer rpn_big_conv2_drop
I0412 20:27:24.642884  4481 net.cpp:100] Creating Layer rpn_big_conv2_drop
I0412 20:27:24.642892  4481 net.cpp:434] rpn_big_conv2_drop <- rpn_big_conv2
I0412 20:27:24.642901  4481 net.cpp:395] rpn_big_conv2_drop -> rpn_big_conv2 (in-place)
I0412 20:27:24.642931  4481 net.cpp:150] Setting up rpn_big_conv2_drop
I0412 20:27:24.642943  4481 net.cpp:157] Top shape: 1 512 63 94 (3032064)
I0412 20:27:24.642951  4481 net.cpp:165] Memory required for data: 3728371124
I0412 20:27:24.642958  4481 layer_factory.hpp:77] Creating layer rpn_big_conv2_rpn_big_conv2_drop_0_split
I0412 20:27:24.642968  4481 net.cpp:100] Creating Layer rpn_big_conv2_rpn_big_conv2_drop_0_split
I0412 20:27:24.642976  4481 net.cpp:434] rpn_big_conv2_rpn_big_conv2_drop_0_split <- rpn_big_conv2
I0412 20:27:24.642988  4481 net.cpp:408] rpn_big_conv2_rpn_big_conv2_drop_0_split -> rpn_big_conv2_rpn_big_conv2_drop_0_split_0
I0412 20:27:24.643000  4481 net.cpp:408] rpn_big_conv2_rpn_big_conv2_drop_0_split -> rpn_big_conv2_rpn_big_conv2_drop_0_split_1
I0412 20:27:24.643041  4481 net.cpp:150] Setting up rpn_big_conv2_rpn_big_conv2_drop_0_split
I0412 20:27:24.643051  4481 net.cpp:157] Top shape: 1 512 63 94 (3032064)
I0412 20:27:24.643060  4481 net.cpp:157] Top shape: 1 512 63 94 (3032064)
I0412 20:27:24.643067  4481 net.cpp:165] Memory required for data: 3752627636
I0412 20:27:24.643074  4481 layer_factory.hpp:77] Creating layer rpn_big_output_cls
I0412 20:27:24.643091  4481 net.cpp:100] Creating Layer rpn_big_output_cls
I0412 20:27:24.643098  4481 net.cpp:434] rpn_big_output_cls <- rpn_big_conv2_rpn_big_conv2_drop_0_split_0
I0412 20:27:24.643111  4481 net.cpp:408] rpn_big_output_cls -> rpn_big_output_cls
I0412 20:27:24.662395  4481 net.cpp:150] Setting up rpn_big_output_cls
I0412 20:27:24.662448  4481 net.cpp:157] Top shape: 1 384 63 94 (2274048)
I0412 20:27:24.662456  4481 net.cpp:165] Memory required for data: 3761723828
I0412 20:27:24.662469  4481 layer_factory.hpp:77] Creating layer rpn_big_output_cls_relu
I0412 20:27:24.662483  4481 net.cpp:100] Creating Layer rpn_big_output_cls_relu
I0412 20:27:24.662492  4481 net.cpp:434] rpn_big_output_cls_relu <- rpn_big_output_cls
I0412 20:27:24.662504  4481 net.cpp:395] rpn_big_output_cls_relu -> rpn_big_output_cls (in-place)
I0412 20:27:24.662518  4481 net.cpp:150] Setting up rpn_big_output_cls_relu
I0412 20:27:24.662525  4481 net.cpp:157] Top shape: 1 384 63 94 (2274048)
I0412 20:27:24.662529  4481 net.cpp:165] Memory required for data: 3770820020
I0412 20:27:24.662533  4481 layer_factory.hpp:77] Creating layer rpn_big_cls_score
I0412 20:27:24.662549  4481 net.cpp:100] Creating Layer rpn_big_cls_score
I0412 20:27:24.662555  4481 net.cpp:434] rpn_big_cls_score <- rpn_big_output_cls
I0412 20:27:24.662566  4481 net.cpp:408] rpn_big_cls_score -> rpn_big_cls_score
I0412 20:27:24.665031  4481 net.cpp:150] Setting up rpn_big_cls_score
I0412 20:27:24.665051  4481 net.cpp:157] Top shape: 1 52 61 92 (291824)
I0412 20:27:24.665055  4481 net.cpp:165] Memory required for data: 3771987316
I0412 20:27:24.665078  4481 layer_factory.hpp:77] Creating layer rpn_big_cls_score_rpn_big_cls_score_0_split
I0412 20:27:24.665087  4481 net.cpp:100] Creating Layer rpn_big_cls_score_rpn_big_cls_score_0_split
I0412 20:27:24.665091  4481 net.cpp:434] rpn_big_cls_score_rpn_big_cls_score_0_split <- rpn_big_cls_score
I0412 20:27:24.665099  4481 net.cpp:408] rpn_big_cls_score_rpn_big_cls_score_0_split -> rpn_big_cls_score_rpn_big_cls_score_0_split_0
I0412 20:27:24.665108  4481 net.cpp:408] rpn_big_cls_score_rpn_big_cls_score_0_split -> rpn_big_cls_score_rpn_big_cls_score_0_split_1
I0412 20:27:24.665145  4481 net.cpp:150] Setting up rpn_big_cls_score_rpn_big_cls_score_0_split
I0412 20:27:24.665153  4481 net.cpp:157] Top shape: 1 52 61 92 (291824)
I0412 20:27:24.665158  4481 net.cpp:157] Top shape: 1 52 61 92 (291824)
I0412 20:27:24.665160  4481 net.cpp:165] Memory required for data: 3774321908
I0412 20:27:24.665163  4481 layer_factory.hpp:77] Creating layer rpn_big_cls_score_reshape
I0412 20:27:24.665174  4481 net.cpp:100] Creating Layer rpn_big_cls_score_reshape
I0412 20:27:24.665177  4481 net.cpp:434] rpn_big_cls_score_reshape <- rpn_big_cls_score_rpn_big_cls_score_0_split_0
I0412 20:27:24.665184  4481 net.cpp:408] rpn_big_cls_score_reshape -> rpn_big_cls_score_reshape
I0412 20:27:24.665206  4481 net.cpp:150] Setting up rpn_big_cls_score_reshape
I0412 20:27:24.665212  4481 net.cpp:157] Top shape: 1 2 1586 92 (291824)
I0412 20:27:24.665215  4481 net.cpp:165] Memory required for data: 3775489204
I0412 20:27:24.665218  4481 layer_factory.hpp:77] Creating layer rpn_big_cls_score_reshape_rpn_big_cls_score_reshape_0_split
I0412 20:27:24.665228  4481 net.cpp:100] Creating Layer rpn_big_cls_score_reshape_rpn_big_cls_score_reshape_0_split
I0412 20:27:24.665232  4481 net.cpp:434] rpn_big_cls_score_reshape_rpn_big_cls_score_reshape_0_split <- rpn_big_cls_score_reshape
I0412 20:27:24.665237  4481 net.cpp:408] rpn_big_cls_score_reshape_rpn_big_cls_score_reshape_0_split -> rpn_big_cls_score_reshape_rpn_big_cls_score_reshape_0_split_0
I0412 20:27:24.665246  4481 net.cpp:408] rpn_big_cls_score_reshape_rpn_big_cls_score_reshape_0_split -> rpn_big_cls_score_reshape_rpn_big_cls_score_reshape_0_split_1
I0412 20:27:24.665274  4481 net.cpp:150] Setting up rpn_big_cls_score_reshape_rpn_big_cls_score_reshape_0_split
I0412 20:27:24.665282  4481 net.cpp:157] Top shape: 1 2 1586 92 (291824)
I0412 20:27:24.665287  4481 net.cpp:157] Top shape: 1 2 1586 92 (291824)
I0412 20:27:24.665289  4481 net.cpp:165] Memory required for data: 3777823796
I0412 20:27:24.665293  4481 layer_factory.hpp:77] Creating layer rpn_big_cls_prob
I0412 20:27:24.665298  4481 net.cpp:100] Creating Layer rpn_big_cls_prob
I0412 20:27:24.665302  4481 net.cpp:434] rpn_big_cls_prob <- rpn_big_cls_score_reshape_rpn_big_cls_score_reshape_0_split_0
I0412 20:27:24.665307  4481 net.cpp:408] rpn_big_cls_prob -> rpn_big_cls_prob
I0412 20:27:24.665356  4481 net.cpp:150] Setting up rpn_big_cls_prob
I0412 20:27:24.665367  4481 net.cpp:157] Top shape: 1 2 1586 92 (291824)
I0412 20:27:24.665372  4481 net.cpp:165] Memory required for data: 3778991092
I0412 20:27:24.665377  4481 layer_factory.hpp:77] Creating layer rpn_big_cls_prob_reshape
I0412 20:27:24.665386  4481 net.cpp:100] Creating Layer rpn_big_cls_prob_reshape
I0412 20:27:24.665392  4481 net.cpp:434] rpn_big_cls_prob_reshape <- rpn_big_cls_prob
I0412 20:27:24.665402  4481 net.cpp:408] rpn_big_cls_prob_reshape -> rpn_big_cls_prob_reshape
I0412 20:27:24.665427  4481 net.cpp:150] Setting up rpn_big_cls_prob_reshape
I0412 20:27:24.665438  4481 net.cpp:157] Top shape: 1 52 61 92 (291824)
I0412 20:27:24.665443  4481 net.cpp:165] Memory required for data: 3780158388
I0412 20:27:24.665449  4481 layer_factory.hpp:77] Creating layer rpn_big_anchor_target
I0412 20:27:24.666748  4481 net.cpp:100] Creating Layer rpn_big_anchor_target
I0412 20:27:24.666762  4481 net.cpp:434] rpn_big_anchor_target <- rpn_big_cls_score_rpn_big_cls_score_0_split_1
I0412 20:27:24.666769  4481 net.cpp:434] rpn_big_anchor_target <- input_gt_boxes
I0412 20:27:24.666784  4481 net.cpp:434] rpn_big_anchor_target <- input_ignored_boxes
I0412 20:27:24.666787  4481 net.cpp:434] rpn_big_anchor_target <- input_im_info
I0412 20:27:24.666792  4481 net.cpp:434] rpn_big_anchor_target <- input_data_input_0_split_1
I0412 20:27:24.666796  4481 net.cpp:434] rpn_big_anchor_target <- rpn_big_cls_prob_reshape
I0412 20:27:24.666802  4481 net.cpp:408] rpn_big_anchor_target -> rpn_big_anchor_target_labels
I0412 20:27:24.666811  4481 net.cpp:408] rpn_big_anchor_target -> rpn_big_anchor_target_bbox_targets
I0412 20:27:24.666820  4481 net.cpp:408] rpn_big_anchor_target -> rpn_big_anchor_target_inside_weights
I0412 20:27:24.666826  4481 net.cpp:408] rpn_big_anchor_target -> rpn_big_anchor_target_outside_weights
I0412 20:27:24.671478  4481 net.cpp:150] Setting up rpn_big_anchor_target
I0412 20:27:24.671501  4481 net.cpp:157] Top shape: 1 1 1586 92 (145912)
I0412 20:27:24.671515  4481 net.cpp:157] Top shape: 1 104 61 92 (583648)
I0412 20:27:24.671519  4481 net.cpp:157] Top shape: 1 104 61 92 (583648)
I0412 20:27:24.671524  4481 net.cpp:157] Top shape: 1 104 61 92 (583648)
I0412 20:27:24.671526  4481 net.cpp:165] Memory required for data: 3787745812
I0412 20:27:24.671531  4481 layer_factory.hpp:77] Creating layer rpn_big_loss_cls
I0412 20:27:24.671540  4481 net.cpp:100] Creating Layer rpn_big_loss_cls
I0412 20:27:24.671545  4481 net.cpp:434] rpn_big_loss_cls <- rpn_big_cls_score_reshape_rpn_big_cls_score_reshape_0_split_1
I0412 20:27:24.671552  4481 net.cpp:434] rpn_big_loss_cls <- rpn_big_anchor_target_labels
I0412 20:27:24.671560  4481 net.cpp:408] rpn_big_loss_cls -> rpn_big_loss_cls
I0412 20:27:24.671571  4481 layer_factory.hpp:77] Creating layer rpn_big_loss_cls
I0412 20:27:24.672217  4481 net.cpp:150] Setting up rpn_big_loss_cls
I0412 20:27:24.672233  4481 net.cpp:157] Top shape: (1)
I0412 20:27:24.672236  4481 net.cpp:160]     with loss weight 1
I0412 20:27:24.672256  4481 net.cpp:165] Memory required for data: 3787745816
I0412 20:27:24.672260  4481 layer_factory.hpp:77] Creating layer rpn_big_output_box
I0412 20:27:24.672274  4481 net.cpp:100] Creating Layer rpn_big_output_box
I0412 20:27:24.672279  4481 net.cpp:434] rpn_big_output_box <- rpn_big_conv2_rpn_big_conv2_drop_0_split_1
I0412 20:27:24.672287  4481 net.cpp:408] rpn_big_output_box -> rpn_big_output_box
I0412 20:27:24.691666  4481 net.cpp:150] Setting up rpn_big_output_box
I0412 20:27:24.691696  4481 net.cpp:157] Top shape: 1 384 63 94 (2274048)
I0412 20:27:24.691709  4481 net.cpp:165] Memory required for data: 3796842008
I0412 20:27:24.691720  4481 layer_factory.hpp:77] Creating layer rpn_big_output_box_relu
I0412 20:27:24.691730  4481 net.cpp:100] Creating Layer rpn_big_output_box_relu
I0412 20:27:24.691736  4481 net.cpp:434] rpn_big_output_box_relu <- rpn_big_output_box
I0412 20:27:24.691745  4481 net.cpp:395] rpn_big_output_box_relu -> rpn_big_output_box (in-place)
I0412 20:27:24.691756  4481 net.cpp:150] Setting up rpn_big_output_box_relu
I0412 20:27:24.691761  4481 net.cpp:157] Top shape: 1 384 63 94 (2274048)
I0412 20:27:24.691763  4481 net.cpp:165] Memory required for data: 3805938200
I0412 20:27:24.691766  4481 layer_factory.hpp:77] Creating layer rpn_big_bbox_pred
I0412 20:27:24.691797  4481 net.cpp:100] Creating Layer rpn_big_bbox_pred
I0412 20:27:24.691803  4481 net.cpp:434] rpn_big_bbox_pred <- rpn_big_output_box
I0412 20:27:24.691812  4481 net.cpp:408] rpn_big_bbox_pred -> rpn_big_bbox_pred
I0412 20:27:24.696008  4481 net.cpp:150] Setting up rpn_big_bbox_pred
I0412 20:27:24.696033  4481 net.cpp:157] Top shape: 1 104 61 92 (583648)
I0412 20:27:24.696038  4481 net.cpp:165] Memory required for data: 3808272792
I0412 20:27:24.696045  4481 layer_factory.hpp:77] Creating layer rpn_big_loss_bbox
I0412 20:27:24.696408  4481 net.cpp:100] Creating Layer rpn_big_loss_bbox
I0412 20:27:24.696421  4481 net.cpp:434] rpn_big_loss_bbox <- rpn_big_bbox_pred
I0412 20:27:24.696429  4481 net.cpp:434] rpn_big_loss_bbox <- rpn_big_anchor_target_bbox_targets
I0412 20:27:24.696434  4481 net.cpp:434] rpn_big_loss_bbox <- rpn_big_anchor_target_inside_weights
I0412 20:27:24.696437  4481 net.cpp:434] rpn_big_loss_bbox <- rpn_big_anchor_target_outside_weights
I0412 20:27:24.696444  4481 net.cpp:408] rpn_big_loss_bbox -> rpn_big_loss_bbox
I0412 20:27:24.698395  4481 net.cpp:150] Setting up rpn_big_loss_bbox
I0412 20:27:24.698429  4481 net.cpp:157] Top shape: 1 (1)
I0412 20:27:24.698432  4481 net.cpp:160]     with loss weight 1
I0412 20:27:24.698444  4481 net.cpp:165] Memory required for data: 3808272796
I0412 20:27:24.698451  4481 layer_factory.hpp:77] Creating layer MyLoss
F0412 20:27:24.698474  4481 layer_factory.hpp:81] Check failed: registry.count(type) == 1 (0 vs. 1) Unknown layer type: SoftMax (known types: AbsVal, Accuracy, ArgMax, BNLL, BatchNo
…
