…
I0413 15:53:06.605131  7077 solver.cpp:48] Initializing solver from parameters: 
base_lr: 0.001
display: 20
lr_policy: "multistep"
gamma: 0.1
momentum: 0.9
weight_decay: 0.0005
snapshot: 0
snapshot_prefix: "faces_example"
net_param {
  name: "GeneratedModel_13_04_2017_15_53"
  layer {
    name: "input"
    type: "Python"
    top: "input_data"
    top: "input_im_info"
    top: "input_gt_boxes"
    top: "input_ignored_boxes"
    python_param {
      module: "layers.roi_data_layer"
      layer: "RoIDataLayer"
      param_str: "{\"num_classes\": 2}"
    }
  }
  layer {
    name: "conv1_1"
    type: "Convolution"
    bottom: "input_data"
    top: "conv1_1"
    param {
      lr_mult: 0
      decay_mult: 0
    }
    param {
      lr_mult: 0
      decay_mult: 0
    }
    convolution_param {
      num_output: 64
      pad: 1
      kernel_size: 3
    }
  }
  layer {
    name: "relu1_1"
    type: "ReLU"
    bottom: "conv1_1"
    top: "conv1_1"
  }
  layer {
    name: "conv1_2"
    type: "Convolution"
    bottom: "conv1_1"
    top: "conv1_2"
    param {
      lr_mult: 0
      decay_mult: 0
    }
    param {
      lr_mult: 0
      decay_mult: 0
    }
    convolution_param {
      num_output: 64
      pad: 1
      kernel_size: 3
    }
  }
  layer {
    name: "relu1_2"
    type: "ReLU"
    bottom: "conv1_2"
    top: "conv1_2"
  }
  layer {
    name: "pool1"
    type: "Pooling"
    bottom: "conv1_2"
    top: "pool1"
    pooling_param {
      pool: MAX
      kernel_size: 2
      stride: 2
    }
  }
  layer {
    name: "conv2_1"
    type: "Convolution"
    bottom: "pool1"
    top: "conv2_1"
    param {
      lr_mult: 0
      decay_mult: 0
    }
    param {
      lr_mult: 0
      decay_mult: 0
    }
    convolution_param {
      num_output: 128
      pad: 1
      kernel_size: 3
    }
  }
  layer {
    name: "relu2_1"
    type: "ReLU"
    bottom: "conv2_1"
    top: "conv2_1"
  }
  layer {
    name: "conv2_2"
    type: "Convolution"
    bottom: "conv2_1"
    top: "conv2_2"
    param {
      lr_mult: 0
      decay_mult: 0
    }
    param {
      lr_mult: 0
      decay_mult: 0
    }
    convolution_param {
      num_output: 128
      pad: 1
      kernel_size: 3
    }
  }
  layer {
    name: "relu2_2"
    type: "ReLU"
    bottom: "conv2_2"
    top: "conv2_2"
  }
  layer {
    name: "pool2"
    type: "Pooling"
    bottom: "conv2_2"
    top: "pool2"
    pooling_param {
      pool: MAX
      kernel_size: 2
      stride: 2
    }
  }
  layer {
    name: "conv3_1"
    type: "Convolution"
    bottom: "pool2"
    top: "conv3_1"
    param {
      lr_mult: 1
    }
    param {
      lr_mult: 2
    }
    convolution_param {
      num_output: 256
      pad: 1
      kernel_size: 3
    }
  }
  layer {
    name: "relu3_1"
    type: "ReLU"
    bottom: "conv3_1"
    top: "conv3_1"
  }
  layer {
    name: "conv3_2"
    type: "Convolution"
    bottom: "conv3_1"
    top: "conv3_2"
    param {
      lr_mult: 1
    }
    param {
      lr_mult: 2
    }
    convolution_param {
      num_output: 256
      pad: 1
      kernel_size: 3
    }
  }
  layer {
    name: "relu3_2"
    type: "ReLU"
    bottom: "conv3_2"
    top: "conv3_2"
  }
  layer {
    name: "conv3_3"
    type: "Convolution"
    bottom: "conv3_2"
    top: "conv3_3"
    param {
      lr_mult: 1
    }
    param {
      lr_mult: 2
    }
    convolution_param {
      num_output: 256
      pad: 1
      kernel_size: 3
    }
  }
  layer {
    name: "relu3_3"
    type: "ReLU"
    bottom: "conv3_3"
    top: "conv3_3"
  }
  layer {
    name: "pool3"
    type: "Pooling"
    bottom: "conv3_3"
    top: "pool3"
    pooling_param {
      pool: MAX
      kernel_size: 2
      stride: 2
    }
  }
  layer {
    name: "conv4_1"
    type: "Convolution"
    bottom: "pool3"
    top: "conv4_1"
    param {
      lr_mult: 1
    }
    param {
      lr_mult: 2
    }
    convolution_param {
      num_output: 512
      pad: 1
      kernel_size: 3
    }
  }
  layer {
    name: "relu4_1"
    type: "ReLU"
    bottom: "conv4_1"
    top: "conv4_1"
  }
  layer {
    name: "conv4_2"
    type: "Convolution"
    bottom: "conv4_1"
    top: "conv4_2"
    param {
      lr_mult: 1
    }
    param {
      lr_mult: 2
    }
    convolution_param {
      num_output: 512
      pad: 1
      kernel_size: 3
    }
  }
  layer {
    name: "relu4_2"
    type: "ReLU"
    bottom: "conv4_2"
    top: "conv4_2"
  }
  layer {
    name: "conv4_3"
    type: "Convolution"
    bottom: "conv4_2"
    top: "conv4_3"
    param {
      lr_mult: 1
    }
    param {
      lr_mult: 2
    }
    convolution_param {
      num_output: 512
      pad: 1
      kernel_size: 3
    }
  }
  layer {
    name: "relu4_3"
    type: "ReLU"
    bottom: "conv4_3"
    top: "conv4_3"
  }
  layer {
    name: "pool4"
    type: "Pooling"
    bottom: "conv4_3"
    top: "pool4"
    pooling_param {
      pool: MAX
      kernel_size: 2
      stride: 2
    }
  }
  layer {
    name: "conv5_1"
    type: "Convolution"
    bottom: "pool4"
    top: "conv5_1"
    param {
      lr_mult: 1
    }
    param {
      lr_mult: 2
    }
    convolution_param {
      num_output: 512
      pad: 1
      kernel_size: 3
    }
  }
  layer {
    name: "relu5_1"
    type: "ReLU"
    bottom: "conv5_1"
    top: "conv5_1"
  }
  layer {
    name: "conv5_2"
    type: "Convolution"
    bottom: "conv5_1"
    top: "conv5_2"
    param {
      lr_mult: 1
    }
    param {
      lr_mult: 2
    }
    convolution_param {
      num_output: 512
      pad: 1
      kernel_size: 3
    }
  }
  layer {
    name: "relu5_2"
    type: "ReLU"
    bottom: "conv5_2"
    top: "conv5_2"
  }
  layer {
    name: "conv5_3"
    type: "Convolution"
    bottom: "conv5_2"
    top: "conv5_3"
    param {
      lr_mult: 1
    }
    param {
      lr_mult: 2
    }
    convolution_param {
      num_output: 512
      pad: 1
      kernel_size: 3
    }
  }
  layer {
    name: "relu5_3"
    type: "ReLU"
    bottom: "conv5_3"
    top: "conv5_3"
  }
  layer {
    name: "rpn_big_conv1"
    type: "Convolution"
    bottom: "conv5_3"
    top: "rpn_big_conv1"
    param {
      lr_mult: 1
    }
    param {
      lr_mult: 2
    }
    convolution_param {
      num_output: 512
      pad: 1
      kernel_size: 3
      stride: 1
      weight_filler {
        type: "gaussian"
        mean: 0
        std: 0.01
      }
      bias_filler {
        type: "constant"
      }
    }
  }
  layer {
    name: "rpn_big_conv1_relu"
    type: "ReLU"
    bottom: "rpn_big_conv1"
    top: "rpn_big_conv1"
    relu_param {
      negative_slope: 0
    }
  }
  layer {
    name: "rpn_big_conv2"
    type: "Convolution"
    bottom: "rpn_big_conv1"
    top: "rpn_big_conv2"
    param {
      lr_mult: 1
    }
    param {
      lr_mult: 2
    }
    convolution_param {
      num_output: 512
      pad: 1
      kernel_size: 3
      stride: 1
      weight_filler {
        type: "gaussian"
        mean: 0
        std: 0.01
      }
      bias_filler {
        type: "constant"
      }
    }
  }
  layer {
    name: "rpn_big_conv2_relu"
    type: "ReLU"
    bottom: "rpn_big_conv2"
    top: "rpn_big_conv2"
    relu_param {
      negative_slope: 0
    }
  }
  layer {
    name: "rpn_big_conv2_drop"
    type: "Dropout"
    bottom: "rpn_big_conv2"
    top: "rpn_big_conv2"
    dropout_param {
      dropout_ratio: 0.3
    }
  }
  layer {
    name: "rpn_big_output_cls"
    type: "Convolution"
    bottom: "rpn_big_conv2"
    top: "rpn_big_output_cls"
    param {
      lr_mult: 1
    }
    param {
      lr_mult: 2
    }
    convolution_param {
      num_output: 384
      pad: 1
      kernel_size: 3
      stride: 1
      weight_filler {
        type: "gaussian"
        mean: 0
        std: 0.01
      }
      bias_filler {
        type: "constant"
      }
    }
  }
  layer {
    name: "rpn_big_output_cls_relu"
    type: "ReLU"
    bottom: "rpn_big_output_cls"
    top: "rpn_big_output_cls"
    relu_param {
      negative_slope: 0
    }
  }
  layer {
    name: "rpn_big_cls_score"
    type: "Convolution"
    bottom: "rpn_big_output_cls"
    top: "rpn_big_cls_score"
    param {
      lr_mult: 1
    }
    param {
      lr_mult: 2
    }
    convolution_param {
      num_output: 52
      pad: 0
      kernel_size: 3
      stride: 1
      weight_filler {
        type: "gaussian"
        mean: 0
        std: 0.01
      }
      bias_filler {
        type: "constant"
      }
    }
  }
  layer {
    name: "rpn_big_cls_score_reshape"
    type: "Reshape"
    bottom: "rpn_big_cls_score"
    top: "rpn_big_cls_score_reshape"
    reshape_param {
      shape {
        dim: 0
        dim: 2
        dim: -1
        dim: 0
      }
    }
  }
  layer {
    name: "rpn_big_cls_prob"
    type: "Softmax"
    bottom: "rpn_big_cls_score_reshape"
    top: "rpn_big_cls_prob"
  }
  layer {
    name: "rpn_big_cls_prob_reshape"
    type: "Reshape"
    bottom: "rpn_big_cls_prob"
    top: "rpn_big_cls_prob_reshape"
    reshape_param {
      shape {
        dim: 0
        dim: 52
        dim: -1
        dim: 0
      }
    }
  }
  layer {
    name: "rpn_big_anchor_target"
    type: "Python"
    bottom: "rpn_big_cls_score"
    bottom: "input_gt_boxes"
    bottom: "input_ignored_boxes"
    bottom: "input_im_info"
    bottom: "input_data"
    bottom: "rpn_big_cls_prob_reshape"
    top: "rpn_big_anchor_target_labels"
    top: "rpn_big_anchor_target_bbox_targets"
    top: "rpn_big_anchor_target_inside_weights"
    top: "rpn_big_anchor_target_outside_weights"
    python_param {
      module: "rpn.anchor_target_layer"
      layer: "AnchorTargetLayer"
      param_str: "{\"anchor_shift_num_xy\": [[2, 2], [2, 2], [2, 2], [2, 2], [1, 1], [1, 1], [1, 1], [1, 1], [1, 1], [1, 1], [1, 1], [1, 1], [1, 1], [1, 1]], \"negative_overlap\": 0.4, \"positive_overlap\": 0.6, \"anchor_scales\": [2.5, 3.025, 3.66025, 4.4289024999999995, 5.358972025, 6.484356150249999, 7.846070941802498, 9.493745839581022, 11.487432465893036, 13.899793283730574, 16.818749873313998, 20.350687346709933, 24.62433168951902, 29.795441344318014], \"fg_fraction\": 0.5, \"square_targets\": true, \"tn_fraction\": 0.2, \"batchsize\": 256, \"feat_stride\": 16, \"name\": \"rpn_big\", \"anchor_ratios\": [1.0], \"num_classes\": 1}"
    }
  }
  layer {
    name: "rpn_big_loss_cls"
    type: "SoftmaxWithLoss"
    bottom: "rpn_big_cls_score_reshape"
    bottom: "rpn_big_anchor_target_labels"
    top: "rpn_big_loss_cls"
    loss_weight: 1
    propagate_down: true
    propagate_down: false
    loss_param {
      ignore_label: -1
      normalization: VALID
    }
  }
  layer {
    name: "rpn_big_output_box"
    type: "Convolution"
    bottom: "rpn_big_conv2"
    top: "rpn_big_output_box"
    param {
      lr_mult: 1
    }
    param {
      lr_mult: 2
    }
    convolution_param {
      num_output: 384
      pad: 1
      kernel_size: 3
      stride: 1
      weight_filler {
        type: "gaussian"
        mean: 0
        std: 0.01
      }
      bias_filler {
        type: "constant"
      }
    }
  }
  layer {
    name: "rpn_big_output_box_relu"
    type: "ReLU"
    bottom: "rpn_big_output_box"
    top: "rpn_big_output_box"
    relu_param {
      negative_slope: 0
    }
  }
  layer {
    name: "rpn_big_bbox_pred"
    type: "Convolution"
    bottom: "rpn_big_output_box"
    top: "rpn_big_bbox_pred"
    param {
      lr_mult: 1
    }
    param {
      lr_mult: 2
    }
    convolution_param {
      num_output: 104
      pad: 0
      kernel_size: 3
      stride: 1
      weight_filler {
        type: "gaussian"
        mean: 0
        std: 0.01
      }
      bias_filler {
        type: "constant"
      }
    }
  }
  layer {
    name: "rpn_big_loss_bbox"
    type: "Python"
    bottom: "rpn_big_bbox_pred"
    bottom: "rpn_big_anchor_target_bbox_targets"
    bottom: "rpn_big_anchor_target_inside_weights"
    bottom: "rpn_big_anchor_target_outside_weights"
    top: "rpn_big_loss_bbox"
    loss_weight: 1
    python_param {
      module: "layers.smooth_l1_loss"
      layer: "SmoothL1LossLayer"
      param_str: "{\"sigma\": 3}"
    }
  }
  layer {
    name: "proposal"
    type: "Python"
    bottom: "rpn_big_cls_prob_reshape"
    bottom: "rpn_big_bbox_pred"
    bottom: "input_im_info"
    top: "rpn_rois"
    python_param {
      module: "rpn.proposal_layer"
      layer: "ProposalLayer"
      param_str: "\'feat_stride\': 16 \'scales\': !!python/tuple [4, 8, 16, 32]"
    }
  }
}
average_loss: 100
stepvalue: 70000
stepvalue: 120000
iter_size: 2
I0413 15:53:06.605238  7077 solver.cpp:86] Creating training net specified in net_param.
I0413 15:53:06.605856  7077 net.cpp:58] Initializing net from parameters: 
name: "GeneratedModel_13_04_2017_15_53"
state {
  phase: TRAIN
}
layer {
  name: "input"
  type: "Python"
  top: "input_data"
  top: "input_im_info"
  top: "input_gt_boxes"
  top: "input_ignored_boxes"
  python_param {
    module: "layers.roi_data_layer"
    layer: "RoIDataLayer"
    param_str: "{\"num_classes\": 2}"
  }
}
layer {
  name: "conv1_1"
  type: "Convolution"
  bottom: "input_data"
  top: "conv1_1"
  param {
    lr_mult: 0
    decay_mult: 0
  }
  param {
    lr_mult: 0
    decay_mult: 0
  }
  convolution_param {
    num_output: 64
    pad: 1
    kernel_size: 3
  }
}
layer {
  name: "relu1_1"
  type: "ReLU"
  bottom: "conv1_1"
  top: "conv1_1"
}
layer {
  name: "conv1_2"
  type: "Convolution"
  bottom: "conv1_1"
  top: "conv1_2"
  param {
    lr_mult: 0
    decay_mult: 0
  }
  param {
    lr_mult: 0
    decay_mult: 0
  }
  convolution_param {
    num_output: 64
    pad: 1
    kernel_size: 3
  }
}
layer {
  name: "relu1_2"
  type: "ReLU"
  bottom: "conv1_2"
  top: "conv1_2"
}
layer {
  name: "pool1"
  type: "Pooling"
  bottom: "conv1_2"
  top: "pool1"
  pooling_param {
    pool: MAX
    kernel_size: 2
    stride: 2
  }
}
layer {
  name: "conv2_1"
  type: "Convolution"
  bottom: "pool1"
  top: "conv2_1"
  param {
    lr_mult: 0
    decay_mult: 0
  }
  param {
    lr_mult: 0
    decay_mult: 0
  }
  convolution_param {
    num_output: 128
    pad: 1
    kernel_size: 3
  }
}
layer {
  name: "relu2_1"
  type: "ReLU"
  bottom: "conv2_1"
  top: "conv2_1"
}
layer {
  name: "conv2_2"
  type: "Convolution"
  bottom: "conv2_1"
  top: "conv2_2"
  param {
    lr_mult: 0
    decay_mult: 0
  }
  param {
    lr_mult: 0
    decay_mult: 0
  }
  convolution_param {
    num_output: 128
    pad: 1
    kernel_size: 3
  }
}
layer {
  name: "relu2_2"
  type: "ReLU"
  bottom: "conv2_2"
  top: "conv2_2"
}
layer {
  name: "pool2"
  type: "Pooling"
  bottom: "conv2_2"
  top: "pool2"
  pooling_param {
    pool: MAX
    kernel_size: 2
    stride: 2
  }
}
layer {
  name: "conv3_1"
  type: "Convolution"
  bottom: "pool2"
  top: "conv3_1"
  param {
    lr_mult: 1
  }
  param {
    lr_mult: 2
  }
  convolution_param {
    num_output: 256
    pad: 1
    kernel_size: 3
  }
}
layer {
  name: "relu3_1"
  type: "ReLU"
  bottom: "conv3_1"
  top: "conv3_1"
}
layer {
  name: "conv3_2"
  type: "Convolution"
  bottom: "conv3_1"
  top: "conv3_2"
  param {
    lr_mult: 1
  }
  param {
    lr_mult: 2
  }
  convolution_param {
    num_output: 256
    pad: 1
    kernel_size: 3
  }
}
layer {
  name: "relu3_2"
  type: "ReLU"
  bottom: "conv3_2"
  top: "conv3_2"
}
layer {
  name: "conv3_3"
  type: "Convolution"
  bottom: "conv3_2"
  top: "conv3_3"
  param {
    lr_mult: 1
  }
  param {
    lr_mult: 2
  }
  convolution_param {
    num_output: 256
    pad: 1
    kernel_size: 3
  }
}
layer {
  name: "relu3_3"
  type: "ReLU"
  bottom: "conv3_3"
  top: "conv3_3"
}
layer {
  name: "pool3"
  type: "Pooling"
  bottom: "conv3_3"
  top: "pool3"
  pooling_param {
    pool: MAX
    kernel_size: 2
    stride: 2
  }
}
layer {
  name: "conv4_1"
  type: "Convolution"
  bottom: "pool3"
  top: "conv4_1"
  param {
    lr_mult: 1
  }
  param {
    lr_mult: 2
  }
  convolution_param {
    num_output: 512
    pad: 1
    kernel_size: 3
  }
}
layer {
  name: "relu4_1"
  type: "ReLU"
  bottom: "conv4_1"
  top: "conv4_1"
}
layer {
  name: "conv4_2"
  type: "Convolution"
  bottom: "conv4_1"
  top: "conv4_2"
  param {
    lr_mult: 1
  }
  param {
    lr_mult: 2
  }
  convolution_param {
    num_output: 512
    pad: 1
    kernel_size: 3
  }
}
layer {
  name: "relu4_2"
  type: "ReLU"
  bottom: "conv4_2"
  top: "conv4_2"
}
layer {
  name: "conv4_3"
  type: "Convolution"
  bottom: "conv4_2"
  top: "conv4_3"
  param {
    lr_mult: 1
  }
  param {
    lr_mult: 2
  }
  convolution_param {
    num_output: 512
    pad: 1
    kernel_size: 3
  }
}
layer {
  name: "relu4_3"
  type: "ReLU"
  bottom: "conv4_3"
  top: "conv4_3"
}
layer {
  name: "pool4"
  type: "Pooling"
  bottom: "conv4_3"
  top: "pool4"
  pooling_param {
    pool: MAX
    kernel_size: 2
    stride: 2
  }
}
layer {
  name: "conv5_1"
  type: "Convolution"
  bottom: "pool4"
  top: "conv5_1"
  param {
    lr_mult: 1
  }
  param {
    lr_mult: 2
  }
  convolution_param {
    num_output: 512
    pad: 1
    kernel_size: 3
  }
}
layer {
  name: "relu5_1"
  type: "ReLU"
  bottom: "conv5_1"
  top: "conv5_1"
}
layer {
  name: "conv5_2"
  type: "Convolution"
  bottom: "conv5_1"
  top: "conv5_2"
  param {
    lr_mult: 1
  }
  param {
    lr_mult: 2
  }
  convolution_param {
    num_output: 512
    pad: 1
    kernel_size: 3
  }
}
layer {
  name: "relu5_2"
  type: "ReLU"
  bottom: "conv5_2"
  top: "conv5_2"
}
layer {
  name: "conv5_3"
  type: "Convolution"
  bottom: "conv5_2"
  top: "conv5_3"
  param {
    lr_mult: 1
  }
  param {
    lr_mult: 2
  }
  convolution_param {
    num_output: 512
    pad: 1
    kernel_size: 3
  }
}
layer {
  name: "relu5_3"
  type: "ReLU"
  bottom: "conv5_3"
  top: "conv5_3"
}
layer {
  name: "rpn_big_conv1"
  type: "Convolution"
  bottom: "conv5_3"
  top: "rpn_big_conv1"
  param {
    lr_mult: 1
  }
  param {
    lr_mult: 2
  }
  convolution_param {
    num_output: 512
    pad: 1
    kernel_size: 3
    stride: 1
    weight_filler {
      type: "gaussian"
      mean: 0
      std: 0.01
    }
    bias_filler {
      type: "constant"
    }
  }
}
layer {
  name: "rpn_big_conv1_relu"
  type: "ReLU"
  bottom: "rpn_big_conv1"
  top: "rpn_big_conv1"
  relu_param {
    negative_slope: 0
  }
}
layer {
  name: "rpn_big_conv2"
  type: "Convolution"
  bottom: "rpn_big_conv1"
  top: "rpn_big_conv2"
  param {
    lr_mult: 1
  }
  param {
    lr_mult: 2
  }
  convolution_param {
    num_output: 512
    pad: 1
    kernel_size: 3
    stride: 1
    weight_filler {
      type: "gaussian"
      mean: 0
      std: 0.01
    }
    bias_filler {
      type: "constant"
    }
  }
}
layer {
  name: "rpn_big_conv2_relu"
  type: "ReLU"
  bottom: "rpn_big_conv2"
  top: "rpn_big_conv2"
  relu_param {
    negative_slope: 0
  }
}
layer {
  name: "rpn_big_conv2_drop"
  type: "Dropout"
  bottom: "rpn_big_conv2"
  top: "rpn_big_conv2"
  dropout_param {
    dropout_ratio: 0.3
  }
}
layer {
  name: "rpn_big_output_cls"
  type: "Convolution"
  bottom: "rpn_big_conv2"
  top: "rpn_big_output_cls"
  param {
    lr_mult: 1
  }
  param {
    lr_mult: 2
  }
  convolution_param {
    num_output: 384
    pad: 1
    kernel_size: 3
    stride: 1
    weight_filler {
      type: "gaussian"
      mean: 0
      std: 0.01
    }
    bias_filler {
      type: "constant"
    }
  }
}
layer {
  name: "rpn_big_output_cls_relu"
  type: "ReLU"
  bottom: "rpn_big_output_cls"
  top: "rpn_big_output_cls"
  relu_param {
    negative_slope: 0
  }
}
layer {
  name: "rpn_big_cls_score"
  type: "Convolution"
  bottom: "rpn_big_output_cls"
  top: "rpn_big_cls_score"
  param {
    lr_mult: 1
  }
  param {
    lr_mult: 2
  }
  convolution_param {
    num_output: 52
    pad: 0
    kernel_size: 3
    stride: 1
    weight_filler {
      type: "gaussian"
      mean: 0
      std: 0.01
    }
    bias_filler {
      type: "constant"
    }
  }
}
layer {
  name: "rpn_big_cls_score_reshape"
  type: "Reshape"
  bottom: "rpn_big_cls_score"
  top: "rpn_big_cls_score_reshape"
  reshape_param {
    shape {
      dim: 0
      dim: 2
      dim: -1
      dim: 0
    }
  }
}
layer {
  name: "rpn_big_cls_prob"
  type: "Softmax"
  bottom: "rpn_big_cls_score_reshape"
  top: "rpn_big_cls_prob"
}
layer {
  name: "rpn_big_cls_prob_reshape"
  type: "Reshape"
  bottom: "rpn_big_cls_prob"
  top: "rpn_big_cls_prob_reshape"
  reshape_param {
    shape {
      dim: 0
      dim: 52
      dim: -1
      dim: 0
    }
  }
}
layer {
  name: "rpn_big_anchor_target"
  type: "Python"
  bottom: "rpn_big_cls_score"
  bottom: "input_gt_boxes"
  bottom: "input_ignored_boxes"
  bottom: "input_im_info"
  bottom: "input_data"
  bottom: "rpn_big_cls_prob_reshape"
  top: "rpn_big_anchor_target_labels"
  top: "rpn_big_anchor_target_bbox_targets"
  top: "rpn_big_anchor_target_inside_weights"
  top: "rpn_big_anchor_target_outside_weights"
  python_param {
    module: "rpn.anchor_target_layer"
    layer: "AnchorTargetLayer"
    param_str: "{\"anchor_shift_num_xy\": [[2, 2], [2, 2], [2, 2], [2, 2], [1, 1], [1, 1], [1, 1], [1, 1], [1, 1], [1, 1], [1, 1], [1, 1], [1, 1], [1, 1]], \"negative_overlap\": 0.4, \"positive_overlap\": 0.6, \"anchor_scales\": [2.5, 3.025, 3.66025, 4.4289024999999995, 5.358972025, 6.484356150249999, 7.846070941802498, 9.493745839581022, 11.487432465893036, 13.899793283730574, 16.818749873313998, 20.350687346709933, 24.62433168951902, 29.795441344318014], \"fg_fraction\": 0.5, \"square_targets\": true, \"tn_fraction\": 0.2, \"batchsize\": 256, \"feat_stride\": 16, \"name\": \"rpn_big\", \"anchor_ratios\": [1.0], \"num_classes\": 1}"
  }
}
layer {
  name: "rpn_big_loss_cls"
  type: "SoftmaxWithLoss"
  bottom: "rpn_big_cls_score_reshape"
  bottom: "rpn_big_anchor_target_labels"
  top: "rpn_big_loss_cls"
  loss_weight: 1
  propagate_down: true
  propagate_down: false
  loss_param {
    ignore_label: -1
    normalization: VALID
  }
}
layer {
  name: "rpn_big_output_box"
  type: "Convolution"
  bottom: "rpn_big_conv2"
  top: "rpn_big_output_box"
  param {
    lr_mult: 1
  }
  param {
    lr_mult: 2
  }
  convolution_param {
    num_output: 384
    pad: 1
    kernel_size: 3
    stride: 1
    weight_filler {
      type: "gaussian"
      mean: 0
      std: 0.01
    }
    bias_filler {
      type: "constant"
    }
  }
}
layer {
  name: "rpn_big_output_box_relu"
  type: "ReLU"
  bottom: "rpn_big_output_box"
  top: "rpn_big_output_box"
  relu_param {
    negative_slope: 0
  }
}
layer {
  name: "rpn_big_bbox_pred"
  type: "Convolution"
  bottom: "rpn_big_output_box"
  top: "rpn_big_bbox_pred"
  param {
    lr_mult: 1
  }
  param {
    lr_mult: 2
  }
  convolution_param {
    num_output: 104
    pad: 0
    kernel_size: 3
    stride: 1
    weight_filler {
      type: "gaussian"
      mean: 0
      std: 0.01
    }
    bias_filler {
      type: "constant"
    }
  }
}
layer {
  name: "rpn_big_loss_bbox"
  type: "Python"
  bottom: "rpn_big_bbox_pred"
  bottom: "rpn_big_anchor_target_bbox_targets"
  bottom: "rpn_big_anchor_target_inside_weights"
  bottom: "rpn_big_anchor_target_outside_weights"
  top: "rpn_big_loss_bbox"
  loss_weight: 1
  python_param {
    module: "layers.smooth_l1_loss"
    layer: "SmoothL1LossLayer"
    param_str: "{\"sigma\": 3}"
  }
}
layer {
  name: "proposal"
  type: "Python"
  bottom: "rpn_big_cls_prob_reshape"
  bottom: "rpn_big_bbox_pred"
  bottom: "input_im_info"
  top: "rpn_rois"
  python_param {
    module: "rpn.proposal_layer"
    layer: "ProposalLayer"
    param_str: "\'feat_stride\': 16 \'scales\': !!python/tuple [4, 8, 16, 32]"
  }
}
I0413 15:53:06.607810  7077 layer_factory.hpp:77] Creating layer input
I0413 15:53:06.609658  7077 net.cpp:100] Creating Layer input
I0413 15:53:06.609683  7077 net.cpp:408] input -> input_data
I0413 15:53:06.609700  7077 net.cpp:408] input -> input_im_info
I0413 15:53:06.609712  7077 net.cpp:408] input -> input_gt_boxes
I0413 15:53:06.609724  7077 net.cpp:408] input -> input_ignored_boxes
RoiDataLayer: name_to_top: {'im_info': 1, 'ignored_boxes': 3, 'gt_boxes': 2, 'data': 0}
I0413 15:53:06.939839  7077 net.cpp:150] Setting up input
I0413 15:53:06.939870  7077 net.cpp:157] Top shape: 1 3 1000 1500 (4500000)
I0413 15:53:06.939883  7077 net.cpp:157] Top shape: 1 3 (3)
I0413 15:53:06.939914  7077 net.cpp:157] Top shape: 1 5 (5)
I0413 15:53:06.939937  7077 net.cpp:157] Top shape: 1 5 (5)
I0413 15:53:06.939945  7077 net.cpp:165] Memory required for data: 18000052
I0413 15:53:06.939955  7077 layer_factory.hpp:77] Creating layer input_data_input_0_split
I0413 15:53:06.939970  7077 net.cpp:100] Creating Layer input_data_input_0_split
I0413 15:53:06.939978  7077 net.cpp:434] input_data_input_0_split <- input_data
I0413 15:53:06.939996  7077 net.cpp:408] input_data_input_0_split -> input_data_input_0_split_0
I0413 15:53:06.940016  7077 net.cpp:408] input_data_input_0_split -> input_data_input_0_split_1
I0413 15:53:06.940066  7077 net.cpp:150] Setting up input_data_input_0_split
I0413 15:53:06.940078  7077 net.cpp:157] Top shape: 1 3 1000 1500 (4500000)
I0413 15:53:06.940085  7077 net.cpp:157] Top shape: 1 3 1000 1500 (4500000)
I0413 15:53:06.940091  7077 net.cpp:165] Memory required for data: 54000052
I0413 15:53:06.940096  7077 layer_factory.hpp:77] Creating layer input_im_info_input_1_split
I0413 15:53:06.940107  7077 net.cpp:100] Creating Layer input_im_info_input_1_split
I0413 15:53:06.940115  7077 net.cpp:434] input_im_info_input_1_split <- input_im_info
I0413 15:53:06.940127  7077 net.cpp:408] input_im_info_input_1_split -> input_im_info_input_1_split_0
I0413 15:53:06.940140  7077 net.cpp:408] input_im_info_input_1_split -> input_im_info_input_1_split_1
I0413 15:53:06.940182  7077 net.cpp:150] Setting up input_im_info_input_1_split
I0413 15:53:06.940194  7077 net.cpp:157] Top shape: 1 3 (3)
I0413 15:53:06.940203  7077 net.cpp:157] Top shape: 1 3 (3)
I0413 15:53:06.940212  7077 net.cpp:165] Memory required for data: 54000076
I0413 15:53:06.940217  7077 layer_factory.hpp:77] Creating layer conv1_1
I0413 15:53:06.940232  7077 net.cpp:100] Creating Layer conv1_1
I0413 15:53:06.940239  7077 net.cpp:434] conv1_1 <- input_data_input_0_split_0
I0413 15:53:06.940253  7077 net.cpp:408] conv1_1 -> conv1_1
I0413 15:53:06.943619  7077 net.cpp:150] Setting up conv1_1
I0413 15:53:06.943656  7077 net.cpp:157] Top shape: 1 64 1000 1500 (96000000)
I0413 15:53:06.943660  7077 net.cpp:165] Memory required for data: 438000076
I0413 15:53:06.943684  7077 layer_factory.hpp:77] Creating layer relu1_1
I0413 15:53:06.943703  7077 net.cpp:100] Creating Layer relu1_1
I0413 15:53:06.943713  7077 net.cpp:434] relu1_1 <- conv1_1
I0413 15:53:06.943724  7077 net.cpp:395] relu1_1 -> conv1_1 (in-place)
I0413 15:53:06.943739  7077 net.cpp:150] Setting up relu1_1
I0413 15:53:06.943748  7077 net.cpp:157] Top shape: 1 64 1000 1500 (96000000)
I0413 15:53:06.943753  7077 net.cpp:165] Memory required for data: 822000076
I0413 15:53:06.943758  7077 layer_factory.hpp:77] Creating layer conv1_2
I0413 15:53:06.943773  7077 net.cpp:100] Creating Layer conv1_2
I0413 15:53:06.943780  7077 net.cpp:434] conv1_2 <- conv1_1
I0413 15:53:06.943791  7077 net.cpp:408] conv1_2 -> conv1_2
I0413 15:53:06.947288  7077 net.cpp:150] Setting up conv1_2
I0413 15:53:06.947321  7077 net.cpp:157] Top shape: 1 64 1000 1500 (96000000)
I0413 15:53:06.947325  7077 net.cpp:165] Memory required for data: 1206000076
I0413 15:53:06.947346  7077 layer_factory.hpp:77] Creating layer relu1_2
I0413 15:53:06.947361  7077 net.cpp:100] Creating Layer relu1_2
I0413 15:53:06.947371  7077 net.cpp:434] relu1_2 <- conv1_2
I0413 15:53:06.947381  7077 net.cpp:395] relu1_2 -> conv1_2 (in-place)
I0413 15:53:06.947396  7077 net.cpp:150] Setting up relu1_2
I0413 15:53:06.947403  7077 net.cpp:157] Top shape: 1 64 1000 1500 (96000000)
I0413 15:53:06.947408  7077 net.cpp:165] Memory required for data: 1590000076
I0413 15:53:06.947413  7077 layer_factory.hpp:77] Creating layer pool1
I0413 15:53:06.947425  7077 net.cpp:100] Creating Layer pool1
I0413 15:53:06.947432  7077 net.cpp:434] pool1 <- conv1_2
I0413 15:53:06.947441  7077 net.cpp:408] pool1 -> pool1
I0413 15:53:06.947531  7077 net.cpp:150] Setting up pool1
I0413 15:53:06.947545  7077 net.cpp:157] Top shape: 1 64 500 750 (24000000)
I0413 15:53:06.947551  7077 net.cpp:165] Memory required for data: 1686000076
I0413 15:53:06.947556  7077 layer_factory.hpp:77] Creating layer conv2_1
I0413 15:53:06.947576  7077 net.cpp:100] Creating Layer conv2_1
I0413 15:53:06.947585  7077 net.cpp:434] conv2_1 <- pool1
I0413 15:53:06.947598  7077 net.cpp:408] conv2_1 -> conv2_1
I0413 15:53:06.949100  7077 net.cpp:150] Setting up conv2_1
I0413 15:53:06.949126  7077 net.cpp:157] Top shape: 1 128 500 750 (48000000)
I0413 15:53:06.949129  7077 net.cpp:165] Memory required for data: 1878000076
I0413 15:53:06.949146  7077 layer_factory.hpp:77] Creating layer relu2_1
I0413 15:53:06.949182  7077 net.cpp:100] Creating Layer relu2_1
I0413 15:53:06.949193  7077 net.cpp:434] relu2_1 <- conv2_1
I0413 15:53:06.949204  7077 net.cpp:395] relu2_1 -> conv2_1 (in-place)
I0413 15:53:06.949218  7077 net.cpp:150] Setting up relu2_1
I0413 15:53:06.949228  7077 net.cpp:157] Top shape: 1 128 500 750 (48000000)
I0413 15:53:06.949234  7077 net.cpp:165] Memory required for data: 2070000076
I0413 15:53:06.949239  7077 layer_factory.hpp:77] Creating layer conv2_2
I0413 15:53:06.949259  7077 net.cpp:100] Creating Layer conv2_2
I0413 15:53:06.949268  7077 net.cpp:434] conv2_2 <- conv2_1
I0413 15:53:06.949280  7077 net.cpp:408] conv2_2 -> conv2_2
I0413 15:53:06.950412  7077 net.cpp:150] Setting up conv2_2
I0413 15:53:06.950438  7077 net.cpp:157] Top shape: 1 128 500 750 (48000000)
I0413 15:53:06.950443  7077 net.cpp:165] Memory required for data: 2262000076
I0413 15:53:06.950455  7077 layer_factory.hpp:77] Creating layer relu2_2
I0413 15:53:06.950469  7077 net.cpp:100] Creating Layer relu2_2
I0413 15:53:06.950476  7077 net.cpp:434] relu2_2 <- conv2_2
I0413 15:53:06.950487  7077 net.cpp:395] relu2_2 -> conv2_2 (in-place)
I0413 15:53:06.950501  7077 net.cpp:150] Setting up relu2_2
I0413 15:53:06.950510  7077 net.cpp:157] Top shape: 1 128 500 750 (48000000)
I0413 15:53:06.950517  7077 net.cpp:165] Memory required for data: 2454000076
I0413 15:53:06.950525  7077 layer_factory.hpp:77] Creating layer pool2
I0413 15:53:06.950538  7077 net.cpp:100] Creating Layer pool2
I0413 15:53:06.950546  7077 net.cpp:434] pool2 <- conv2_2
I0413 15:53:06.950558  7077 net.cpp:408] pool2 -> pool2
I0413 15:53:06.950634  7077 net.cpp:150] Setting up pool2
I0413 15:53:06.950647  7077 net.cpp:157] Top shape: 1 128 250 375 (12000000)
I0413 15:53:06.950654  7077 net.cpp:165] Memory required for data: 2502000076
I0413 15:53:06.950662  7077 layer_factory.hpp:77] Creating layer conv3_1
I0413 15:53:06.950677  7077 net.cpp:100] Creating Layer conv3_1
I0413 15:53:06.950685  7077 net.cpp:434] conv3_1 <- pool2
I0413 15:53:06.950695  7077 net.cpp:408] conv3_1 -> conv3_1
I0413 15:53:06.951930  7077 net.cpp:150] Setting up conv3_1
I0413 15:53:06.951956  7077 net.cpp:157] Top shape: 1 256 250 375 (24000000)
I0413 15:53:06.951959  7077 net.cpp:165] Memory required for data: 2598000076
I0413 15:53:06.951979  7077 layer_factory.hpp:77] Creating layer relu3_1
I0413 15:53:06.951992  7077 net.cpp:100] Creating Layer relu3_1
I0413 15:53:06.951999  7077 net.cpp:434] relu3_1 <- conv3_1
I0413 15:53:06.952010  7077 net.cpp:395] relu3_1 -> conv3_1 (in-place)
I0413 15:53:06.952023  7077 net.cpp:150] Setting up relu3_1
I0413 15:53:06.952033  7077 net.cpp:157] Top shape: 1 256 250 375 (24000000)
I0413 15:53:06.952040  7077 net.cpp:165] Memory required for data: 2694000076
I0413 15:53:06.952049  7077 layer_factory.hpp:77] Creating layer conv3_2
I0413 15:53:06.952061  7077 net.cpp:100] Creating Layer conv3_2
I0413 15:53:06.952069  7077 net.cpp:434] conv3_2 <- conv3_1
I0413 15:53:06.952080  7077 net.cpp:408] conv3_2 -> conv3_2
I0413 15:53:06.953407  7077 net.cpp:150] Setting up conv3_2
I0413 15:53:06.953434  7077 net.cpp:157] Top shape: 1 256 250 375 (24000000)
I0413 15:53:06.953438  7077 net.cpp:165] Memory required for data: 2790000076
I0413 15:53:06.953451  7077 layer_factory.hpp:77] Creating layer relu3_2
I0413 15:53:06.953471  7077 net.cpp:100] Creating Layer relu3_2
I0413 15:53:06.953481  7077 net.cpp:434] relu3_2 <- conv3_2
I0413 15:53:06.953493  7077 net.cpp:395] relu3_2 -> conv3_2 (in-place)
I0413 15:53:06.953507  7077 net.cpp:150] Setting up relu3_2
I0413 15:53:06.953517  7077 net.cpp:157] Top shape: 1 256 250 375 (24000000)
I0413 15:53:06.953523  7077 net.cpp:165] Memory required for data: 2886000076
I0413 15:53:06.953528  7077 layer_factory.hpp:77] Creating layer conv3_3
I0413 15:53:06.953543  7077 net.cpp:100] Creating Layer conv3_3
I0413 15:53:06.953550  7077 net.cpp:434] conv3_3 <- conv3_2
I0413 15:53:06.953562  7077 net.cpp:408] conv3_3 -> conv3_3
I0413 15:53:06.958003  7077 net.cpp:150] Setting up conv3_3
I0413 15:53:06.958036  7077 net.cpp:157] Top shape: 1 256 250 375 (24000000)
I0413 15:53:06.958040  7077 net.cpp:165] Memory required for data: 2982000076
I0413 15:53:06.958053  7077 layer_factory.hpp:77] Creating layer relu3_3
I0413 15:53:06.958068  7077 net.cpp:100] Creating Layer relu3_3
I0413 15:53:06.958076  7077 net.cpp:434] relu3_3 <- conv3_3
I0413 15:53:06.958087  7077 net.cpp:395] relu3_3 -> conv3_3 (in-place)
I0413 15:53:06.958101  7077 net.cpp:150] Setting up relu3_3
I0413 15:53:06.958108  7077 net.cpp:157] Top shape: 1 256 250 375 (24000000)
I0413 15:53:06.958112  7077 net.cpp:165] Memory required for data: 3078000076
I0413 15:53:06.958117  7077 layer_factory.hpp:77] Creating layer pool3
I0413 15:53:06.958128  7077 net.cpp:100] Creating Layer pool3
I0413 15:53:06.958135  7077 net.cpp:434] pool3 <- conv3_3
I0413 15:53:06.958144  7077 net.cpp:408] pool3 -> pool3
I0413 15:53:06.958200  7077 net.cpp:150] Setting up pool3
I0413 15:53:06.958211  7077 net.cpp:157] Top shape: 1 256 125 188 (6016000)
I0413 15:53:06.958217  7077 net.cpp:165] Memory required for data: 3102064076
I0413 15:53:06.958223  7077 layer_factory.hpp:77] Creating layer conv4_1
I0413 15:53:06.958236  7077 net.cpp:100] Creating Layer conv4_1
I0413 15:53:06.958242  7077 net.cpp:434] conv4_1 <- pool3
I0413 15:53:06.958253  7077 net.cpp:408] conv4_1 -> conv4_1
I0413 15:53:06.961128  7077 net.cpp:150] Setting up conv4_1
I0413 15:53:06.961177  7077 net.cpp:157] Top shape: 1 512 125 188 (12032000)
I0413 15:53:06.961181  7077 net.cpp:165] Memory required for data: 3150192076
I0413 15:53:06.961192  7077 layer_factory.hpp:77] Creating layer relu4_1
I0413 15:53:06.961202  7077 net.cpp:100] Creating Layer relu4_1
I0413 15:53:06.961210  7077 net.cpp:434] relu4_1 <- conv4_1
I0413 15:53:06.961221  7077 net.cpp:395] relu4_1 -> conv4_1 (in-place)
I0413 15:53:06.961237  7077 net.cpp:150] Setting up relu4_1
I0413 15:53:06.961248  7077 net.cpp:157] Top shape: 1 512 125 188 (12032000)
I0413 15:53:06.961256  7077 net.cpp:165] Memory required for data: 3198320076
I0413 15:53:06.961261  7077 layer_factory.hpp:77] Creating layer conv4_2
I0413 15:53:06.961274  7077 net.cpp:100] Creating Layer conv4_2
I0413 15:53:06.961282  7077 net.cpp:434] conv4_2 <- conv4_1
I0413 15:53:06.961295  7077 net.cpp:408] conv4_2 -> conv4_2
I0413 15:53:06.965615  7077 net.cpp:150] Setting up conv4_2
I0413 15:53:06.965651  7077 net.cpp:157] Top shape: 1 512 125 188 (12032000)
I0413 15:53:06.965656  7077 net.cpp:165] Memory required for data: 3246448076
I0413 15:53:06.965678  7077 layer_factory.hpp:77] Creating layer relu4_2
I0413 15:53:06.965694  7077 net.cpp:100] Creating Layer relu4_2
I0413 15:53:06.965703  7077 net.cpp:434] relu4_2 <- conv4_2
I0413 15:53:06.965715  7077 net.cpp:395] relu4_2 -> conv4_2 (in-place)
I0413 15:53:06.965730  7077 net.cpp:150] Setting up relu4_2
I0413 15:53:06.965739  7077 net.cpp:157] Top shape: 1 512 125 188 (12032000)
I0413 15:53:06.965745  7077 net.cpp:165] Memory required for data: 3294576076
I0413 15:53:06.965754  7077 layer_factory.hpp:77] Creating layer conv4_3
I0413 15:53:06.965770  7077 net.cpp:100] Creating Layer conv4_3
I0413 15:53:06.965778  7077 net.cpp:434] conv4_3 <- conv4_2
I0413 15:53:06.965790  7077 net.cpp:408] conv4_3 -> conv4_3
I0413 15:53:06.970118  7077 net.cpp:150] Setting up conv4_3
I0413 15:53:06.970157  7077 net.cpp:157] Top shape: 1 512 125 188 (12032000)
I0413 15:53:06.970161  7077 net.cpp:165] Memory required for data: 3342704076
I0413 15:53:06.970171  7077 layer_factory.hpp:77] Creating layer relu4_3
I0413 15:53:06.970185  7077 net.cpp:100] Creating Layer relu4_3
I0413 15:53:06.970194  7077 net.cpp:434] relu4_3 <- conv4_3
I0413 15:53:06.970209  7077 net.cpp:395] relu4_3 -> conv4_3 (in-place)
I0413 15:53:06.970226  7077 net.cpp:150] Setting up relu4_3
I0413 15:53:06.970234  7077 net.cpp:157] Top shape: 1 512 125 188 (12032000)
I0413 15:53:06.970242  7077 net.cpp:165] Memory required for data: 3390832076
I0413 15:53:06.970248  7077 layer_factory.hpp:77] Creating layer pool4
I0413 15:53:06.970257  7077 net.cpp:100] Creating Layer pool4
I0413 15:53:06.970264  7077 net.cpp:434] pool4 <- conv4_3
I0413 15:53:06.970274  7077 net.cpp:408] pool4 -> pool4
I0413 15:53:06.970329  7077 net.cpp:150] Setting up pool4
I0413 15:53:06.970341  7077 net.cpp:157] Top shape: 1 512 63 94 (3032064)
I0413 15:53:06.970348  7077 net.cpp:165] Memory required for data: 3402960332
I0413 15:53:06.970353  7077 layer_factory.hpp:77] Creating layer conv5_1
I0413 15:53:06.970373  7077 net.cpp:100] Creating Layer conv5_1
I0413 15:53:06.970382  7077 net.cpp:434] conv5_1 <- pool4
I0413 15:53:06.970396  7077 net.cpp:408] conv5_1 -> conv5_1
I0413 15:53:06.975098  7077 net.cpp:150] Setting up conv5_1
I0413 15:53:06.975136  7077 net.cpp:157] Top shape: 1 512 63 94 (3032064)
I0413 15:53:06.975139  7077 net.cpp:165] Memory required for data: 3415088588
I0413 15:53:06.975152  7077 layer_factory.hpp:77] Creating layer relu5_1
I0413 15:53:06.975165  7077 net.cpp:100] Creating Layer relu5_1
I0413 15:53:06.975175  7077 net.cpp:434] relu5_1 <- conv5_1
I0413 15:53:06.975188  7077 net.cpp:395] relu5_1 -> conv5_1 (in-place)
I0413 15:53:06.975203  7077 net.cpp:150] Setting up relu5_1
I0413 15:53:06.975213  7077 net.cpp:157] Top shape: 1 512 63 94 (3032064)
I0413 15:53:06.975219  7077 net.cpp:165] Memory required for data: 3427216844
I0413 15:53:06.975224  7077 layer_factory.hpp:77] Creating layer conv5_2
I0413 15:53:06.975240  7077 net.cpp:100] Creating Layer conv5_2
I0413 15:53:06.975247  7077 net.cpp:434] conv5_2 <- conv5_1
I0413 15:53:06.975260  7077 net.cpp:408] conv5_2 -> conv5_2
I0413 15:53:06.979688  7077 net.cpp:150] Setting up conv5_2
I0413 15:53:06.979728  7077 net.cpp:157] Top shape: 1 512 63 94 (3032064)
I0413 15:53:06.979735  7077 net.cpp:165] Memory required for data: 3439345100
I0413 15:53:06.979750  7077 layer_factory.hpp:77] Creating layer relu5_2
I0413 15:53:06.979764  7077 net.cpp:100] Creating Layer relu5_2
I0413 15:53:06.979773  7077 net.cpp:434] relu5_2 <- conv5_2
I0413 15:53:06.979784  7077 net.cpp:395] relu5_2 -> conv5_2 (in-place)
I0413 15:53:06.979797  7077 net.cpp:150] Setting up relu5_2
I0413 15:53:06.979807  7077 net.cpp:157] Top shape: 1 512 63 94 (3032064)
I0413 15:53:06.979813  7077 net.cpp:165] Memory required for data: 3451473356
I0413 15:53:06.979820  7077 layer_factory.hpp:77] Creating layer conv5_3
I0413 15:53:06.979835  7077 net.cpp:100] Creating Layer conv5_3
I0413 15:53:06.979842  7077 net.cpp:434] conv5_3 <- conv5_2
I0413 15:53:06.979854  7077 net.cpp:408] conv5_3 -> conv5_3
I0413 15:53:06.984561  7077 net.cpp:150] Setting up conv5_3
I0413 15:53:06.984597  7077 net.cpp:157] Top shape: 1 512 63 94 (3032064)
I0413 15:53:06.984604  7077 net.cpp:165] Memory required for data: 3463601612
I0413 15:53:06.984619  7077 layer_factory.hpp:77] Creating layer relu5_3
I0413 15:53:06.984649  7077 net.cpp:100] Creating Layer relu5_3
I0413 15:53:06.984660  7077 net.cpp:434] relu5_3 <- conv5_3
I0413 15:53:06.984680  7077 net.cpp:395] relu5_3 -> conv5_3 (in-place)
I0413 15:53:06.984694  7077 net.cpp:150] Setting up relu5_3
I0413 15:53:06.984700  7077 net.cpp:157] Top shape: 1 512 63 94 (3032064)
I0413 15:53:06.984705  7077 net.cpp:165] Memory required for data: 3475729868
I0413 15:53:06.984710  7077 layer_factory.hpp:77] Creating layer rpn_big_conv1
I0413 15:53:06.984725  7077 net.cpp:100] Creating Layer rpn_big_conv1
I0413 15:53:06.984735  7077 net.cpp:434] rpn_big_conv1 <- conv5_3
I0413 15:53:06.984745  7077 net.cpp:408] rpn_big_conv1 -> rpn_big_conv1
I0413 15:53:07.012130  7077 net.cpp:150] Setting up rpn_big_conv1
I0413 15:53:07.012164  7077 net.cpp:157] Top shape: 1 512 63 94 (3032064)
I0413 15:53:07.012177  7077 net.cpp:165] Memory required for data: 3487858124
I0413 15:53:07.012188  7077 layer_factory.hpp:77] Creating layer rpn_big_conv1_relu
I0413 15:53:07.012199  7077 net.cpp:100] Creating Layer rpn_big_conv1_relu
I0413 15:53:07.012204  7077 net.cpp:434] rpn_big_conv1_relu <- rpn_big_conv1
I0413 15:53:07.012214  7077 net.cpp:395] rpn_big_conv1_relu -> rpn_big_conv1 (in-place)
I0413 15:53:07.012228  7077 net.cpp:150] Setting up rpn_big_conv1_relu
I0413 15:53:07.012238  7077 net.cpp:157] Top shape: 1 512 63 94 (3032064)
I0413 15:53:07.012243  7077 net.cpp:165] Memory required for data: 3499986380
I0413 15:53:07.012248  7077 layer_factory.hpp:77] Creating layer rpn_big_conv2
I0413 15:53:07.012262  7077 net.cpp:100] Creating Layer rpn_big_conv2
I0413 15:53:07.012270  7077 net.cpp:434] rpn_big_conv2 <- rpn_big_conv1
I0413 15:53:07.012282  7077 net.cpp:408] rpn_big_conv2 -> rpn_big_conv2
I0413 15:53:07.038264  7077 net.cpp:150] Setting up rpn_big_conv2
I0413 15:53:07.038312  7077 net.cpp:157] Top shape: 1 512 63 94 (3032064)
I0413 15:53:07.038319  7077 net.cpp:165] Memory required for data: 3512114636
I0413 15:53:07.038334  7077 layer_factory.hpp:77] Creating layer rpn_big_conv2_relu
I0413 15:53:07.038350  7077 net.cpp:100] Creating Layer rpn_big_conv2_relu
I0413 15:53:07.038359  7077 net.cpp:434] rpn_big_conv2_relu <- rpn_big_conv2
I0413 15:53:07.038370  7077 net.cpp:395] rpn_big_conv2_relu -> rpn_big_conv2 (in-place)
I0413 15:53:07.038385  7077 net.cpp:150] Setting up rpn_big_conv2_relu
I0413 15:53:07.038394  7077 net.cpp:157] Top shape: 1 512 63 94 (3032064)
I0413 15:53:07.038399  7077 net.cpp:165] Memory required for data: 3524242892
I0413 15:53:07.038405  7077 layer_factory.hpp:77] Creating layer rpn_big_conv2_drop
I0413 15:53:07.038415  7077 net.cpp:100] Creating Layer rpn_big_conv2_drop
I0413 15:53:07.038419  7077 net.cpp:434] rpn_big_conv2_drop <- rpn_big_conv2
I0413 15:53:07.038426  7077 net.cpp:395] rpn_big_conv2_drop -> rpn_big_conv2 (in-place)
I0413 15:53:07.038450  7077 net.cpp:150] Setting up rpn_big_conv2_drop
I0413 15:53:07.038460  7077 net.cpp:157] Top shape: 1 512 63 94 (3032064)
I0413 15:53:07.038463  7077 net.cpp:165] Memory required for data: 3536371148
I0413 15:53:07.038467  7077 layer_factory.hpp:77] Creating layer rpn_big_conv2_rpn_big_conv2_drop_0_split
I0413 15:53:07.038472  7077 net.cpp:100] Creating Layer rpn_big_conv2_rpn_big_conv2_drop_0_split
I0413 15:53:07.038476  7077 net.cpp:434] rpn_big_conv2_rpn_big_conv2_drop_0_split <- rpn_big_conv2
I0413 15:53:07.038482  7077 net.cpp:408] rpn_big_conv2_rpn_big_conv2_drop_0_split -> rpn_big_conv2_rpn_big_conv2_drop_0_split_0
I0413 15:53:07.038489  7077 net.cpp:408] rpn_big_conv2_rpn_big_conv2_drop_0_split -> rpn_big_conv2_rpn_big_conv2_drop_0_split_1
I0413 15:53:07.038522  7077 net.cpp:150] Setting up rpn_big_conv2_rpn_big_conv2_drop_0_split
I0413 15:53:07.038529  7077 net.cpp:157] Top shape: 1 512 63 94 (3032064)
I0413 15:53:07.038533  7077 net.cpp:157] Top shape: 1 512 63 94 (3032064)
I0413 15:53:07.038537  7077 net.cpp:165] Memory required for data: 3560627660
I0413 15:53:07.038539  7077 layer_factory.hpp:77] Creating layer rpn_big_output_cls
I0413 15:53:07.038552  7077 net.cpp:100] Creating Layer rpn_big_output_cls
I0413 15:53:07.038555  7077 net.cpp:434] rpn_big_output_cls <- rpn_big_conv2_rpn_big_conv2_drop_0_split_0
I0413 15:53:07.038563  7077 net.cpp:408] rpn_big_output_cls -> rpn_big_output_cls
I0413 15:53:07.058676  7077 net.cpp:150] Setting up rpn_big_output_cls
I0413 15:53:07.058707  7077 net.cpp:157] Top shape: 1 384 63 94 (2274048)
I0413 15:53:07.058712  7077 net.cpp:165] Memory required for data: 3569723852
I0413 15:53:07.058722  7077 layer_factory.hpp:77] Creating layer rpn_big_output_cls_relu
I0413 15:53:07.058733  7077 net.cpp:100] Creating Layer rpn_big_output_cls_relu
I0413 15:53:07.058739  7077 net.cpp:434] rpn_big_output_cls_relu <- rpn_big_output_cls
I0413 15:53:07.058748  7077 net.cpp:395] rpn_big_output_cls_relu -> rpn_big_output_cls (in-place)
I0413 15:53:07.058759  7077 net.cpp:150] Setting up rpn_big_output_cls_relu
I0413 15:53:07.058763  7077 net.cpp:157] Top shape: 1 384 63 94 (2274048)
I0413 15:53:07.058766  7077 net.cpp:165] Memory required for data: 3578820044
I0413 15:53:07.058769  7077 layer_factory.hpp:77] Creating layer rpn_big_cls_score
I0413 15:53:07.058781  7077 net.cpp:100] Creating Layer rpn_big_cls_score
I0413 15:53:07.058785  7077 net.cpp:434] rpn_big_cls_score <- rpn_big_output_cls
I0413 15:53:07.058792  7077 net.cpp:408] rpn_big_cls_score -> rpn_big_cls_score
I0413 15:53:07.061115  7077 net.cpp:150] Setting up rpn_big_cls_score
I0413 15:53:07.061134  7077 net.cpp:157] Top shape: 1 52 61 92 (291824)
I0413 15:53:07.061137  7077 net.cpp:165] Memory required for data: 3579987340
I0413 15:53:07.061162  7077 layer_factory.hpp:77] Creating layer rpn_big_cls_score_rpn_big_cls_score_0_split
I0413 15:53:07.061172  7077 net.cpp:100] Creating Layer rpn_big_cls_score_rpn_big_cls_score_0_split
I0413 15:53:07.061177  7077 net.cpp:434] rpn_big_cls_score_rpn_big_cls_score_0_split <- rpn_big_cls_score
I0413 15:53:07.061183  7077 net.cpp:408] rpn_big_cls_score_rpn_big_cls_score_0_split -> rpn_big_cls_score_rpn_big_cls_score_0_split_0
I0413 15:53:07.061192  7077 net.cpp:408] rpn_big_cls_score_rpn_big_cls_score_0_split -> rpn_big_cls_score_rpn_big_cls_score_0_split_1
I0413 15:53:07.061229  7077 net.cpp:150] Setting up rpn_big_cls_score_rpn_big_cls_score_0_split
I0413 15:53:07.061238  7077 net.cpp:157] Top shape: 1 52 61 92 (291824)
I0413 15:53:07.061244  7077 net.cpp:157] Top shape: 1 52 61 92 (291824)
I0413 15:53:07.061247  7077 net.cpp:165] Memory required for data: 3582321932
I0413 15:53:07.061250  7077 layer_factory.hpp:77] Creating layer rpn_big_cls_score_reshape
I0413 15:53:07.061259  7077 net.cpp:100] Creating Layer rpn_big_cls_score_reshape
I0413 15:53:07.061261  7077 net.cpp:434] rpn_big_cls_score_reshape <- rpn_big_cls_score_rpn_big_cls_score_0_split_0
I0413 15:53:07.061267  7077 net.cpp:408] rpn_big_cls_score_reshape -> rpn_big_cls_score_reshape
I0413 15:53:07.061297  7077 net.cpp:150] Setting up rpn_big_cls_score_reshape
I0413 15:53:07.061306  7077 net.cpp:157] Top shape: 1 2 1586 92 (291824)
I0413 15:53:07.061313  7077 net.cpp:165] Memory required for data: 3583489228
I0413 15:53:07.061319  7077 layer_factory.hpp:77] Creating layer rpn_big_cls_score_reshape_rpn_big_cls_score_reshape_0_split
I0413 15:53:07.061331  7077 net.cpp:100] Creating Layer rpn_big_cls_score_reshape_rpn_big_cls_score_reshape_0_split
I0413 15:53:07.061338  7077 net.cpp:434] rpn_big_cls_score_reshape_rpn_big_cls_score_reshape_0_split <- rpn_big_cls_score_reshape
I0413 15:53:07.061348  7077 net.cpp:408] rpn_big_cls_score_reshape_rpn_big_cls_score_reshape_0_split -> rpn_big_cls_score_reshape_rpn_big_cls_score_reshape_0_split_0
I0413 15:53:07.061362  7077 net.cpp:408] rpn_big_cls_score_reshape_rpn_big_cls_score_reshape_0_split -> rpn_big_cls_score_reshape_rpn_big_cls_score_reshape_0_split_1
I0413 15:53:07.061403  7077 net.cpp:150] Setting up rpn_big_cls_score_reshape_rpn_big_cls_score_reshape_0_split
I0413 15:53:07.061427  7077 net.cpp:157] Top shape: 1 2 1586 92 (291824)
I0413 15:53:07.061436  7077 net.cpp:157] Top shape: 1 2 1586 92 (291824)
I0413 15:53:07.061442  7077 net.cpp:165] Memory required for data: 3585823820
I0413 15:53:07.061450  7077 layer_factory.hpp:77] Creating layer rpn_big_cls_prob
I0413 15:53:07.061465  7077 net.cpp:100] Creating Layer rpn_big_cls_prob
I0413 15:53:07.061472  7077 net.cpp:434] rpn_big_cls_prob <- rpn_big_cls_score_reshape_rpn_big_cls_score_reshape_0_split_0
I0413 15:53:07.061482  7077 net.cpp:408] rpn_big_cls_prob -> rpn_big_cls_prob
I0413 15:53:07.061543  7077 net.cpp:150] Setting up rpn_big_cls_prob
I0413 15:53:07.061554  7077 net.cpp:157] Top shape: 1 2 1586 92 (291824)
I0413 15:53:07.061563  7077 net.cpp:165] Memory required for data: 3586991116
I0413 15:53:07.061571  7077 layer_factory.hpp:77] Creating layer rpn_big_cls_prob_reshape
I0413 15:53:07.061585  7077 net.cpp:100] Creating Layer rpn_big_cls_prob_reshape
I0413 15:53:07.061592  7077 net.cpp:434] rpn_big_cls_prob_reshape <- rpn_big_cls_prob
I0413 15:53:07.061604  7077 net.cpp:408] rpn_big_cls_prob_reshape -> rpn_big_cls_prob_reshape
I0413 15:53:07.061631  7077 net.cpp:150] Setting up rpn_big_cls_prob_reshape
I0413 15:53:07.061642  7077 net.cpp:157] Top shape: 1 52 61 92 (291824)
I0413 15:53:07.061651  7077 net.cpp:165] Memory required for data: 3588158412
I0413 15:53:07.061657  7077 layer_factory.hpp:77] Creating layer rpn_big_cls_prob_reshape_rpn_big_cls_prob_reshape_0_split
I0413 15:53:07.061671  7077 net.cpp:100] Creating Layer rpn_big_cls_prob_reshape_rpn_big_cls_prob_reshape_0_split
I0413 15:53:07.061679  7077 net.cpp:434] rpn_big_cls_prob_reshape_rpn_big_cls_prob_reshape_0_split <- rpn_big_cls_prob_reshape
I0413 15:53:07.061689  7077 net.cpp:408] rpn_big_cls_prob_reshape_rpn_big_cls_prob_reshape_0_split -> rpn_big_cls_prob_reshape_rpn_big_cls_prob_reshape_0_split_0
I0413 15:53:07.061702  7077 net.cpp:408] rpn_big_cls_prob_reshape_rpn_big_cls_prob_reshape_0_split -> rpn_big_cls_prob_reshape_rpn_big_cls_prob_reshape_0_split_1
I0413 15:53:07.061739  7077 net.cpp:150] Setting up rpn_big_cls_prob_reshape_rpn_big_cls_prob_reshape_0_split
I0413 15:53:07.061749  7077 net.cpp:157] Top shape: 1 52 61 92 (291824)
I0413 15:53:07.061759  7077 net.cpp:157] Top shape: 1 52 61 92 (291824)
I0413 15:53:07.061766  7077 net.cpp:165] Memory required for data: 3590493004
I0413 15:53:07.061774  7077 layer_factory.hpp:77] Creating layer rpn_big_anchor_target
I0413 15:53:07.063086  7077 net.cpp:100] Creating Layer rpn_big_anchor_target
I0413 15:53:07.063103  7077 net.cpp:434] rpn_big_anchor_target <- rpn_big_cls_score_rpn_big_cls_score_0_split_1
I0413 15:53:07.063113  7077 net.cpp:434] rpn_big_anchor_target <- input_gt_boxes
I0413 15:53:07.063122  7077 net.cpp:434] rpn_big_anchor_target <- input_ignored_boxes
I0413 15:53:07.063129  7077 net.cpp:434] rpn_big_anchor_target <- input_im_info_input_1_split_0
I0413 15:53:07.063136  7077 net.cpp:434] rpn_big_anchor_target <- input_data_input_0_split_1
I0413 15:53:07.063148  7077 net.cpp:434] rpn_big_anchor_target <- rpn_big_cls_prob_reshape_rpn_big_cls_prob_reshape_0_split_0
I0413 15:53:07.063163  7077 net.cpp:408] rpn_big_anchor_target -> rpn_big_anchor_target_labels
I0413 15:53:07.063179  7077 net.cpp:408] rpn_big_anchor_target -> rpn_big_anchor_target_bbox_targets
I0413 15:53:07.063194  7077 net.cpp:408] rpn_big_anchor_target -> rpn_big_anchor_target_inside_weights
I0413 15:53:07.063210  7077 net.cpp:408] rpn_big_anchor_target -> rpn_big_anchor_target_outside_weights
I0413 15:53:07.069393  7077 net.cpp:150] Setting up rpn_big_anchor_target
I0413 15:53:07.069419  7077 net.cpp:157] Top shape: 1 1 1586 92 (145912)
I0413 15:53:07.069428  7077 net.cpp:157] Top shape: 1 104 61 92 (583648)
I0413 15:53:07.069443  7077 net.cpp:157] Top shape: 1 104 61 92 (583648)
I0413 15:53:07.069454  7077 net.cpp:157] Top shape: 1 104 61 92 (583648)
I0413 15:53:07.069463  7077 net.cpp:165] Memory required for data: 3598080428
I0413 15:53:07.069473  7077 layer_factory.hpp:77] Creating layer rpn_big_loss_cls
I0413 15:53:07.069490  7077 net.cpp:100] Creating Layer rpn_big_loss_cls
I0413 15:53:07.069499  7077 net.cpp:434] rpn_big_loss_cls <- rpn_big_cls_score_reshape_rpn_big_cls_score_reshape_0_split_1
I0413 15:53:07.069511  7077 net.cpp:434] rpn_big_loss_cls <- rpn_big_anchor_target_labels
I0413 15:53:07.069525  7077 net.cpp:408] rpn_big_loss_cls -> rpn_big_loss_cls
I0413 15:53:07.069543  7077 layer_factory.hpp:77] Creating layer rpn_big_loss_cls
I0413 15:53:07.070289  7077 net.cpp:150] Setting up rpn_big_loss_cls
I0413 15:53:07.070315  7077 net.cpp:157] Top shape: (1)
I0413 15:53:07.070322  7077 net.cpp:160]     with loss weight 1
I0413 15:53:07.070336  7077 net.cpp:165] Memory required for data: 3598080432
I0413 15:53:07.070344  7077 layer_factory.hpp:77] Creating layer rpn_big_output_box
I0413 15:53:07.070365  7077 net.cpp:100] Creating Layer rpn_big_output_box
I0413 15:53:07.070374  7077 net.cpp:434] rpn_big_output_box <- rpn_big_conv2_rpn_big_conv2_drop_0_split_1
I0413 15:53:07.070391  7077 net.cpp:408] rpn_big_output_box -> rpn_big_output_box
I0413 15:53:07.090364  7077 net.cpp:150] Setting up rpn_big_output_box
I0413 15:53:07.090396  7077 net.cpp:157] Top shape: 1 384 63 94 (2274048)
I0413 15:53:07.090404  7077 net.cpp:165] Memory required for data: 3607176624
I0413 15:53:07.090425  7077 layer_factory.hpp:77] Creating layer rpn_big_output_box_relu
I0413 15:53:07.090445  7077 net.cpp:100] Creating Layer rpn_big_output_box_relu
I0413 15:53:07.090456  7077 net.cpp:434] rpn_big_output_box_relu <- rpn_big_output_box
I0413 15:53:07.090469  7077 net.cpp:395] rpn_big_output_box_relu -> rpn_big_output_box (in-place)
I0413 15:53:07.090486  7077 net.cpp:150] Setting up rpn_big_output_box_relu
I0413 15:53:07.090495  7077 net.cpp:157] Top shape: 1 384 63 94 (2274048)
I0413 15:53:07.090502  7077 net.cpp:165] Memory required for data: 3616272816
I0413 15:53:07.090508  7077 layer_factory.hpp:77] Creating layer rpn_big_bbox_pred
I0413 15:53:07.090526  7077 net.cpp:100] Creating Layer rpn_big_bbox_pred
I0413 15:53:07.090536  7077 net.cpp:434] rpn_big_bbox_pred <- rpn_big_output_box
I0413 15:53:07.090551  7077 net.cpp:408] rpn_big_bbox_pred -> rpn_big_bbox_pred
I0413 15:53:07.094584  7077 net.cpp:150] Setting up rpn_big_bbox_pred
I0413 15:53:07.094600  7077 net.cpp:157] Top shape: 1 104 61 92 (583648)
I0413 15:53:07.094607  7077 net.cpp:165] Memory required for data: 3618607408
I0413 15:53:07.094627  7077 layer_factory.hpp:77] Creating layer rpn_big_bbox_pred_rpn_big_bbox_pred_0_split
I0413 15:53:07.094645  7077 net.cpp:100] Creating Layer rpn_big_bbox_pred_rpn_big_bbox_pred_0_split
I0413 15:53:07.094653  7077 net.cpp:434] rpn_big_bbox_pred_rpn_big_bbox_pred_0_split <- rpn_big_bbox_pred
I0413 15:53:07.094666  7077 net.cpp:408] rpn_big_bbox_pred_rpn_big_bbox_pred_0_split -> rpn_big_bbox_pred_rpn_big_bbox_pred_0_split_0
I0413 15:53:07.094681  7077 net.cpp:408] rpn_big_bbox_pred_rpn_big_bbox_pred_0_split -> rpn_big_bbox_pred_rpn_big_bbox_pred_0_split_1
I0413 15:53:07.094727  7077 net.cpp:150] Setting up rpn_big_bbox_pred_rpn_big_bbox_pred_0_split
I0413 15:53:07.094738  7077 net.cpp:157] Top shape: 1 104 61 92 (583648)
I0413 15:53:07.094748  7077 net.cpp:157] Top shape: 1 104 61 92 (583648)
I0413 15:53:07.094754  7077 net.cpp:165] Memory required for data: 3623276592
I0413 15:53:07.094760  7077 layer_factory.hpp:77] Creating layer rpn_big_loss_bbox
I0413 15:53:07.095130  7077 net.cpp:100] Creating Layer rpn_big_loss_bbox
I0413 15:53:07.095142  7077 net.cpp:434] rpn_big_loss_bbox <- rpn_big_bbox_pred_rpn_big_bbox_pred_0_split_0
I0413 15:53:07.095151  7077 net.cpp:434] rpn_big_loss_bbox <- rpn_big_anchor_target_bbox_targets
I0413 15:53:07.095160  7077 net.cpp:434] rpn_big_loss_bbox <- rpn_big_anchor_target_inside_weights
I0413 15:53:07.095170  7077 net.cpp:434] rpn_big_loss_bbox <- rpn_big_anchor_target_outside_weights
I0413 15:53:07.095182  7077 net.cpp:408] rpn_big_loss_bbox -> rpn_big_loss_bbox
I0413 15:53:07.097141  7077 net.cpp:150] Setting up rpn_big_loss_bbox
I0413 15:53:07.097175  7077 net.cpp:157] Top shape: 1 (1)
I0413 15:53:07.097180  7077 net.cpp:160]     with loss weight 1
I0413 15:53:07.097198  7077 net.cpp:165] Memory required for data: 3623276596
I0413 15:53:07.097206  7077 layer_factory.hpp:77] Creating layer proposal
I0413 15:53:07.097746  7077 net.cpp:100] Creating Layer proposal
I0413 15:53:07.097781  7077 net.cpp:434] proposal <- rpn_big_cls_prob_reshape_rpn_big_cls_prob_reshape_0_split_1
I0413 15:53:07.097810  7077 net.cpp:434] proposal <- rpn_big_bbox_pred_rpn_big_bbox_pred_0_split_1
…
