…
I0412 20:23:41.877238  3692 solver.cpp:48] Initializing solver from parameters: 
base_lr: 0.001
display: 20
lr_policy: "multistep"
gamma: 0.1
momentum: 0.9
weight_decay: 0.0005
snapshot: 0
snapshot_prefix: "faces_example"
net_param {
  name: "GeneratedModel_12_04_2017_20_23"
  layer {
    name: "input"
    type: "Python"
    top: "input_data"
    top: "input_im_info"
    top: "input_gt_boxes"
    top: "input_ignored_boxes"
    python_param {
      module: "layers.roi_data_layer"
      layer: "RoIDataLayer"
      param_str: "{\"num_classes\": 2}"
    }
  }
  layer {
    name: "conv1_1"
    type: "Convolution"
    bottom: "input_data"
    top: "conv1_1"
    param {
      lr_mult: 0
      decay_mult: 0
    }
    param {
      lr_mult: 0
      decay_mult: 0
    }
    convolution_param {
      num_output: 64
      pad: 1
      kernel_size: 3
    }
  }
  layer {
    name: "relu1_1"
    type: "ReLU"
    bottom: "conv1_1"
    top: "conv1_1"
  }
  layer {
    name: "conv1_2"
    type: "Convolution"
    bottom: "conv1_1"
    top: "conv1_2"
    param {
      lr_mult: 0
      decay_mult: 0
    }
    param {
      lr_mult: 0
      decay_mult: 0
    }
    convolution_param {
      num_output: 64
      pad: 1
      kernel_size: 3
    }
  }
  layer {
    name: "relu1_2"
    type: "ReLU"
    bottom: "conv1_2"
    top: "conv1_2"
  }
  layer {
    name: "pool1"
    type: "Pooling"
    bottom: "conv1_2"
    top: "pool1"
    pooling_param {
      pool: MAX
      kernel_size: 2
      stride: 2
    }
  }
  layer {
    name: "conv2_1"
    type: "Convolution"
    bottom: "pool1"
    top: "conv2_1"
    param {
      lr_mult: 0
      decay_mult: 0
    }
    param {
      lr_mult: 0
      decay_mult: 0
    }
    convolution_param {
      num_output: 128
      pad: 1
      kernel_size: 3
    }
  }
  layer {
    name: "relu2_1"
    type: "ReLU"
    bottom: "conv2_1"
    top: "conv2_1"
  }
  layer {
    name: "conv2_2"
    type: "Convolution"
    bottom: "conv2_1"
    top: "conv2_2"
    param {
      lr_mult: 0
      decay_mult: 0
    }
    param {
      lr_mult: 0
      decay_mult: 0
    }
    convolution_param {
      num_output: 128
      pad: 1
      kernel_size: 3
    }
  }
  layer {
    name: "relu2_2"
    type: "ReLU"
    bottom: "conv2_2"
    top: "conv2_2"
  }
  layer {
    name: "pool2"
    type: "Pooling"
    bottom: "conv2_2"
    top: "pool2"
    pooling_param {
      pool: MAX
      kernel_size: 2
      stride: 2
    }
  }
  layer {
    name: "conv3_1"
    type: "Convolution"
    bottom: "pool2"
    top: "conv3_1"
    param {
      lr_mult: 1
    }
    param {
      lr_mult: 2
    }
    convolution_param {
      num_output: 256
      pad: 1
      kernel_size: 3
    }
  }
  layer {
    name: "relu3_1"
    type: "ReLU"
    bottom: "conv3_1"
    top: "conv3_1"
  }
  layer {
    name: "conv3_2"
    type: "Convolution"
    bottom: "conv3_1"
    top: "conv3_2"
    param {
      lr_mult: 1
    }
    param {
      lr_mult: 2
    }
    convolution_param {
      num_output: 256
      pad: 1
      kernel_size: 3
    }
  }
  layer {
    name: "relu3_2"
    type: "ReLU"
    bottom: "conv3_2"
    top: "conv3_2"
  }
  layer {
    name: "conv3_3"
    type: "Convolution"
    bottom: "conv3_2"
    top: "conv3_3"
    param {
      lr_mult: 1
    }
    param {
      lr_mult: 2
    }
    convolution_param {
      num_output: 256
      pad: 1
      kernel_size: 3
    }
  }
  layer {
    name: "relu3_3"
    type: "ReLU"
    bottom: "conv3_3"
    top: "conv3_3"
  }
  layer {
    name: "pool3"
    type: "Pooling"
    bottom: "conv3_3"
    top: "pool3"
    pooling_param {
      pool: MAX
      kernel_size: 2
      stride: 2
    }
  }
  layer {
    name: "conv4_1"
    type: "Convolution"
    bottom: "pool3"
    top: "conv4_1"
    param {
      lr_mult: 1
    }
    param {
      lr_mult: 2
    }
    convolution_param {
      num_output: 512
      pad: 1
      kernel_size: 3
    }
  }
  layer {
    name: "relu4_1"
    type: "ReLU"
    bottom: "conv4_1"
    top: "conv4_1"
  }
  layer {
    name: "conv4_2"
    type: "Convolution"
    bottom: "conv4_1"
    top: "conv4_2"
    param {
      lr_mult: 1
    }
    param {
      lr_mult: 2
    }
    convolution_param {
      num_output: 512
      pad: 1
      kernel_size: 3
    }
  }
  layer {
    name: "relu4_2"
    type: "ReLU"
    bottom: "conv4_2"
    top: "conv4_2"
  }
  layer {
    name: "conv4_3"
    type: "Convolution"
    bottom: "conv4_2"
    top: "conv4_3"
    param {
      lr_mult: 1
    }
    param {
      lr_mult: 2
    }
    convolution_param {
      num_output: 512
      pad: 1
      kernel_size: 3
    }
  }
  layer {
    name: "relu4_3"
    type: "ReLU"
    bottom: "conv4_3"
    top: "conv4_3"
  }
  layer {
    name: "pool4"
    type: "Pooling"
    bottom: "conv4_3"
    top: "pool4"
    pooling_param {
      pool: MAX
      kernel_size: 2
      stride: 2
    }
  }
  layer {
    name: "conv5_1"
    type: "Convolution"
    bottom: "pool4"
    top: "conv5_1"
    param {
      lr_mult: 1
    }
    param {
      lr_mult: 2
    }
    convolution_param {
      num_output: 512
      pad: 1
      kernel_size: 3
    }
  }
  layer {
    name: "relu5_1"
    type: "ReLU"
    bottom: "conv5_1"
    top: "conv5_1"
  }
  layer {
    name: "conv5_2"
    type: "Convolution"
    bottom: "conv5_1"
    top: "conv5_2"
    param {
      lr_mult: 1
    }
    param {
      lr_mult: 2
    }
    convolution_param {
      num_output: 512
      pad: 1
      kernel_size: 3
    }
  }
  layer {
    name: "relu5_2"
    type: "ReLU"
    bottom: "conv5_2"
    top: "conv5_2"
  }
  layer {
    name: "conv5_3"
    type: "Convolution"
    bottom: "conv5_2"
    top: "conv5_3"
    param {
      lr_mult: 1
    }
    param {
      lr_mult: 2
    }
    convolution_param {
      num_output: 512
      pad: 1
      kernel_size: 3
    }
  }
  layer {
    name: "relu5_3"
    type: "ReLU"
    bottom: "conv5_3"
    top: "conv5_3"
  }
  layer {
    name: "rpn_big_conv1"
    type: "Convolution"
    bottom: "conv5_3"
    top: "rpn_big_conv1"
    param {
      lr_mult: 1
    }
    param {
      lr_mult: 2
    }
    convolution_param {
      num_output: 512
      pad: 1
      kernel_size: 3
      stride: 1
      weight_filler {
        type: "gaussian"
        mean: 0
        std: 0.01
      }
      bias_filler {
        type: "constant"
      }
    }
  }
  layer {
    name: "rpn_big_conv1_relu"
    type: "ReLU"
    bottom: "rpn_big_conv1"
    top: "rpn_big_conv1"
    relu_param {
      negative_slope: 0
    }
  }
  layer {
    name: "rpn_big_conv2"
    type: "Convolution"
    bottom: "rpn_big_conv1"
    top: "rpn_big_conv2"
    param {
      lr_mult: 1
    }
    param {
      lr_mult: 2
    }
    convolution_param {
      num_output: 512
      pad: 1
      kernel_size: 3
      stride: 1
      weight_filler {
        type: "gaussian"
        mean: 0
        std: 0.01
      }
      bias_filler {
        type: "constant"
      }
    }
  }
  layer {
    name: "rpn_big_conv2_relu"
    type: "ReLU"
    bottom: "rpn_big_conv2"
    top: "rpn_big_conv2"
    relu_param {
      negative_slope: 0
    }
  }
  layer {
    name: "rpn_big_conv2_drop"
    type: "Dropout"
    bottom: "rpn_big_conv2"
    top: "rpn_big_conv2"
    dropout_param {
      dropout_ratio: 0.3
    }
  }
  layer {
    name: "rpn_big_output_cls"
    type: "Convolution"
    bottom: "rpn_big_conv2"
    top: "rpn_big_output_cls"
    param {
      lr_mult: 1
    }
    param {
      lr_mult: 2
    }
    convolution_param {
      num_output: 384
      pad: 1
      kernel_size: 3
      stride: 1
      weight_filler {
        type: "gaussian"
        mean: 0
        std: 0.01
      }
      bias_filler {
        type: "constant"
      }
    }
  }
  layer {
    name: "rpn_big_output_cls_relu"
    type: "ReLU"
    bottom: "rpn_big_output_cls"
    top: "rpn_big_output_cls"
    relu_param {
      negative_slope: 0
    }
  }
  layer {
    name: "rpn_big_cls_score"
    type: "Convolution"
    bottom: "rpn_big_output_cls"
    top: "rpn_big_cls_score"
    param {
      lr_mult: 1
    }
    param {
      lr_mult: 2
    }
    convolution_param {
      num_output: 52
      pad: 0
      kernel_size: 3
      stride: 1
      weight_filler {
        type: "gaussian"
        mean: 0
        std: 0.01
      }
      bias_filler {
        type: "constant"
      }
    }
  }
  layer {
    name: "rpn_big_cls_score_reshape"
    type: "Reshape"
    bottom: "rpn_big_cls_score"
    top: "rpn_big_cls_score_reshape"
    reshape_param {
      shape {
        dim: 0
        dim: 2
        dim: -1
        dim: 0
      }
    }
  }
  layer {
    name: "rpn_big_cls_prob"
    type: "Softmax"
    bottom: "rpn_big_cls_score_reshape"
    top: "rpn_big_cls_prob"
  }
  layer {
    name: "rpn_big_cls_prob_reshape"
    type: "Reshape"
    bottom: "rpn_big_cls_prob"
    top: "rpn_big_cls_prob_reshape"
    reshape_param {
      shape {
        dim: 0
        dim: 52
        dim: -1
        dim: 0
      }
    }
  }
  layer {
    name: "rpn_big_anchor_target"
    type: "Python"
    bottom: "rpn_big_cls_score"
    bottom: "input_gt_boxes"
    bottom: "input_ignored_boxes"
    bottom: "input_im_info"
    bottom: "input_data"
    bottom: "rpn_big_cls_prob_reshape"
    top: "rpn_big_anchor_target_labels"
    top: "rpn_big_anchor_target_bbox_targets"
    top: "rpn_big_anchor_target_inside_weights"
    top: "rpn_big_anchor_target_outside_weights"
    python_param {
      module: "rpn.anchor_target_layer"
      layer: "AnchorTargetLayer"
      param_str: "{\"negative_overlap\": 0.4, \"batchsize\": 256, \"feat_stride\": 16, \"positive_overlap\": 0.6, \"anchor_scales\": [2.5, 3.025, 3.66025, 4.4289024999999995, 5.358972025, 6.484356150249999, 7.846070941802498, 9.493745839581022, 11.487432465893036, 13.899793283730574, 16.818749873313998, 20.350687346709933, 24.62433168951902, 29.795441344318014], \"tn_fraction\": 0.2, \"anchor_shift_num_xy\": [[2, 2], [2, 2], [2, 2], [2, 2], [1, 1], [1, 1], [1, 1], [1, 1], [1, 1], [1, 1], [1, 1], [1, 1], [1, 1], [1, 1]], \"square_targets\": true, \"anchor_ratios\": [1.0], \"name\": \"rpn_big\", \"fg_fraction\": 0.5, \"num_classes\": 1}"
    }
  }
  layer {
    name: "rpn_big_loss_cls"
    type: "SoftmaxWithLoss"
    bottom: "rpn_big_cls_score_reshape"
    bottom: "rpn_big_anchor_target_labels"
    top: "rpn_big_loss_cls"
    loss_weight: 1
    propagate_down: true
    propagate_down: false
    loss_param {
      ignore_label: -1
      normalization: VALID
    }
  }
  layer {
    name: "rpn_big_output_box"
    type: "Convolution"
    bottom: "rpn_big_conv2"
    top: "rpn_big_output_box"
    param {
      lr_mult: 1
    }
    param {
      lr_mult: 2
    }
    convolution_param {
      num_output: 384
      pad: 1
      kernel_size: 3
      stride: 1
      weight_filler {
        type: "gaussian"
        mean: 0
        std: 0.01
      }
      bias_filler {
        type: "constant"
      }
    }
  }
  layer {
    name: "rpn_big_output_box_relu"
    type: "ReLU"
    bottom: "rpn_big_output_box"
    top: "rpn_big_output_box"
    relu_param {
      negative_slope: 0
    }
  }
  layer {
    name: "rpn_big_bbox_pred"
    type: "Convolution"
    bottom: "rpn_big_output_box"
    top: "rpn_big_bbox_pred"
    param {
      lr_mult: 1
    }
    param {
      lr_mult: 2
    }
    convolution_param {
      num_output: 104
      pad: 0
      kernel_size: 3
      stride: 1
      weight_filler {
        type: "gaussian"
        mean: 0
        std: 0.01
      }
      bias_filler {
        type: "constant"
      }
    }
  }
  layer {
    name: "rpn_big_loss_bbox"
    type: "Python"
    bottom: "rpn_big_bbox_pred"
    bottom: "rpn_big_anchor_target_bbox_targets"
    bottom: "rpn_big_anchor_target_inside_weights"
    bottom: "rpn_big_anchor_target_outside_weights"
    top: "rpn_big_loss_bbox"
    loss_weight: 1
    python_param {
      module: "layers.smooth_l1_loss"
      layer: "SmoothL1LossLayer"
      param_str: "{\"sigma\": 3}"
    }
  }
  layer {
    name: "MyLoss"
    type: "InnerProduct"
    bottom: "conv3_1"
    top: "MyLoss"
  }
}
average_loss: 100
stepvalue: 70000
stepvalue: 120000
iter_size: 2
I0412 20:23:41.877313  3692 solver.cpp:86] Creating training net specified in net_param.
I0412 20:23:41.877683  3692 net.cpp:58] Initializing net from parameters: 
name: "GeneratedModel_12_04_2017_20_23"
state {
  phase: TRAIN
}
layer {
  name: "input"
  type: "Python"
  top: "input_data"
  top: "input_im_info"
  top: "input_gt_boxes"
  top: "input_ignored_boxes"
  python_param {
    module: "layers.roi_data_layer"
    layer: "RoIDataLayer"
    param_str: "{\"num_classes\": 2}"
  }
}
layer {
  name: "conv1_1"
  type: "Convolution"
  bottom: "input_data"
  top: "conv1_1"
  param {
    lr_mult: 0
    decay_mult: 0
  }
  param {
    lr_mult: 0
    decay_mult: 0
  }
  convolution_param {
    num_output: 64
    pad: 1
    kernel_size: 3
  }
}
layer {
  name: "relu1_1"
  type: "ReLU"
  bottom: "conv1_1"
  top: "conv1_1"
}
layer {
  name: "conv1_2"
  type: "Convolution"
  bottom: "conv1_1"
  top: "conv1_2"
  param {
    lr_mult: 0
    decay_mult: 0
  }
  param {
    lr_mult: 0
    decay_mult: 0
  }
  convolution_param {
    num_output: 64
    pad: 1
    kernel_size: 3
  }
}
layer {
  name: "relu1_2"
  type: "ReLU"
  bottom: "conv1_2"
  top: "conv1_2"
}
layer {
  name: "pool1"
  type: "Pooling"
  bottom: "conv1_2"
  top: "pool1"
  pooling_param {
    pool: MAX
    kernel_size: 2
    stride: 2
  }
}
layer {
  name: "conv2_1"
  type: "Convolution"
  bottom: "pool1"
  top: "conv2_1"
  param {
    lr_mult: 0
    decay_mult: 0
  }
  param {
    lr_mult: 0
    decay_mult: 0
  }
  convolution_param {
    num_output: 128
    pad: 1
    kernel_size: 3
  }
}
layer {
  name: "relu2_1"
  type: "ReLU"
  bottom: "conv2_1"
  top: "conv2_1"
}
layer {
  name: "conv2_2"
  type: "Convolution"
  bottom: "conv2_1"
  top: "conv2_2"
  param {
    lr_mult: 0
    decay_mult: 0
  }
  param {
    lr_mult: 0
    decay_mult: 0
  }
  convolution_param {
    num_output: 128
    pad: 1
    kernel_size: 3
  }
}
layer {
  name: "relu2_2"
  type: "ReLU"
  bottom: "conv2_2"
  top: "conv2_2"
}
layer {
  name: "pool2"
  type: "Pooling"
  bottom: "conv2_2"
  top: "pool2"
  pooling_param {
    pool: MAX
    kernel_size: 2
    stride: 2
  }
}
layer {
  name: "conv3_1"
  type: "Convolution"
  bottom: "pool2"
  top: "conv3_1"
  param {
    lr_mult: 1
  }
  param {
    lr_mult: 2
  }
  convolution_param {
    num_output: 256
    pad: 1
    kernel_size: 3
  }
}
layer {
  name: "relu3_1"
  type: "ReLU"
  bottom: "conv3_1"
  top: "conv3_1"
}
layer {
  name: "conv3_2"
  type: "Convolution"
  bottom: "conv3_1"
  top: "conv3_2"
  param {
    lr_mult: 1
  }
  param {
    lr_mult: 2
  }
  convolution_param {
    num_output: 256
    pad: 1
    kernel_size: 3
  }
}
layer {
  name: "relu3_2"
  type: "ReLU"
  bottom: "conv3_2"
  top: "conv3_2"
}
layer {
  name: "conv3_3"
  type: "Convolution"
  bottom: "conv3_2"
  top: "conv3_3"
  param {
    lr_mult: 1
  }
  param {
    lr_mult: 2
  }
  convolution_param {
    num_output: 256
    pad: 1
    kernel_size: 3
  }
}
layer {
  name: "relu3_3"
  type: "ReLU"
  bottom: "conv3_3"
  top: "conv3_3"
}
layer {
  name: "pool3"
  type: "Pooling"
  bottom: "conv3_3"
  top: "pool3"
  pooling_param {
    pool: MAX
    kernel_size: 2
    stride: 2
  }
}
layer {
  name: "conv4_1"
  type: "Convolution"
  bottom: "pool3"
  top: "conv4_1"
  param {
    lr_mult: 1
  }
  param {
    lr_mult: 2
  }
  convolution_param {
    num_output: 512
    pad: 1
    kernel_size: 3
  }
}
layer {
  name: "relu4_1"
  type: "ReLU"
  bottom: "conv4_1"
  top: "conv4_1"
}
layer {
  name: "conv4_2"
  type: "Convolution"
  bottom: "conv4_1"
  top: "conv4_2"
  param {
    lr_mult: 1
  }
  param {
    lr_mult: 2
  }
  convolution_param {
    num_output: 512
    pad: 1
    kernel_size: 3
  }
}
layer {
  name: "relu4_2"
  type: "ReLU"
  bottom: "conv4_2"
  top: "conv4_2"
}
layer {
  name: "conv4_3"
  type: "Convolution"
  bottom: "conv4_2"
  top: "conv4_3"
  param {
    lr_mult: 1
  }
  param {
    lr_mult: 2
  }
  convolution_param {
    num_output: 512
    pad: 1
    kernel_size: 3
  }
}
layer {
  name: "relu4_3"
  type: "ReLU"
  bottom: "conv4_3"
  top: "conv4_3"
}
layer {
  name: "pool4"
  type: "Pooling"
  bottom: "conv4_3"
  top: "pool4"
  pooling_param {
    pool: MAX
    kernel_size: 2
    stride: 2
  }
}
layer {
  name: "conv5_1"
  type: "Convolution"
  bottom: "pool4"
  top: "conv5_1"
  param {
    lr_mult: 1
  }
  param {
    lr_mult: 2
  }
  convolution_param {
    num_output: 512
    pad: 1
    kernel_size: 3
  }
}
layer {
  name: "relu5_1"
  type: "ReLU"
  bottom: "conv5_1"
  top: "conv5_1"
}
layer {
  name: "conv5_2"
  type: "Convolution"
  bottom: "conv5_1"
  top: "conv5_2"
  param {
    lr_mult: 1
  }
  param {
    lr_mult: 2
  }
  convolution_param {
    num_output: 512
    pad: 1
    kernel_size: 3
  }
}
layer {
  name: "relu5_2"
  type: "ReLU"
  bottom: "conv5_2"
  top: "conv5_2"
}
layer {
  name: "conv5_3"
  type: "Convolution"
  bottom: "conv5_2"
  top: "conv5_3"
  param {
    lr_mult: 1
  }
  param {
    lr_mult: 2
  }
  convolution_param {
    num_output: 512
    pad: 1
    kernel_size: 3
  }
}
layer {
  name: "relu5_3"
  type: "ReLU"
  bottom: "conv5_3"
  top: "conv5_3"
}
layer {
  name: "rpn_big_conv1"
  type: "Convolution"
  bottom: "conv5_3"
  top: "rpn_big_conv1"
  param {
    lr_mult: 1
  }
  param {
    lr_mult: 2
  }
  convolution_param {
    num_output: 512
    pad: 1
    kernel_size: 3
    stride: 1
    weight_filler {
      type: "gaussian"
      mean: 0
      std: 0.01
    }
    bias_filler {
      type: "constant"
    }
  }
}
layer {
  name: "rpn_big_conv1_relu"
  type: "ReLU"
  bottom: "rpn_big_conv1"
  top: "rpn_big_conv1"
  relu_param {
    negative_slope: 0
  }
}
layer {
  name: "rpn_big_conv2"
  type: "Convolution"
  bottom: "rpn_big_conv1"
  top: "rpn_big_conv2"
  param {
    lr_mult: 1
  }
  param {
    lr_mult: 2
  }
  convolution_param {
    num_output: 512
    pad: 1
    kernel_size: 3
    stride: 1
    weight_filler {
      type: "gaussian"
      mean: 0
      std: 0.01
    }
    bias_filler {
      type: "constant"
    }
  }
}
layer {
  name: "rpn_big_conv2_relu"
  type: "ReLU"
  bottom: "rpn_big_conv2"
  top: "rpn_big_conv2"
  relu_param {
    negative_slope: 0
  }
}
layer {
  name: "rpn_big_conv2_drop"
  type: "Dropout"
  bottom: "rpn_big_conv2"
  top: "rpn_big_conv2"
  dropout_param {
    dropout_ratio: 0.3
  }
}
layer {
  name: "rpn_big_output_cls"
  type: "Convolution"
  bottom: "rpn_big_conv2"
  top: "rpn_big_output_cls"
  param {
    lr_mult: 1
  }
  param {
    lr_mult: 2
  }
  convolution_param {
    num_output: 384
    pad: 1
    kernel_size: 3
    stride: 1
    weight_filler {
      type: "gaussian"
      mean: 0
      std: 0.01
    }
    bias_filler {
      type: "constant"
    }
  }
}
layer {
  name: "rpn_big_output_cls_relu"
  type: "ReLU"
  bottom: "rpn_big_output_cls"
  top: "rpn_big_output_cls"
  relu_param {
    negative_slope: 0
  }
}
layer {
  name: "rpn_big_cls_score"
  type: "Convolution"
  bottom: "rpn_big_output_cls"
  top: "rpn_big_cls_score"
  param {
    lr_mult: 1
  }
  param {
    lr_mult: 2
  }
  convolution_param {
    num_output: 52
    pad: 0
    kernel_size: 3
    stride: 1
    weight_filler {
      type: "gaussian"
      mean: 0
      std: 0.01
    }
    bias_filler {
      type: "constant"
    }
  }
}
layer {
  name: "rpn_big_cls_score_reshape"
  type: "Reshape"
  bottom: "rpn_big_cls_score"
  top: "rpn_big_cls_score_reshape"
  reshape_param {
    shape {
      dim: 0
      dim: 2
      dim: -1
      dim: 0
    }
  }
}
layer {
  name: "rpn_big_cls_prob"
  type: "Softmax"
  bottom: "rpn_big_cls_score_reshape"
  top: "rpn_big_cls_prob"
}
layer {
  name: "rpn_big_cls_prob_reshape"
  type: "Reshape"
  bottom: "rpn_big_cls_prob"
  top: "rpn_big_cls_prob_reshape"
  reshape_param {
    shape {
      dim: 0
      dim: 52
      dim: -1
      dim: 0
    }
  }
}
layer {
  name: "rpn_big_anchor_target"
  type: "Python"
  bottom: "rpn_big_cls_score"
  bottom: "input_gt_boxes"
  bottom: "input_ignored_boxes"
  bottom: "input_im_info"
  bottom: "input_data"
  bottom: "rpn_big_cls_prob_reshape"
  top: "rpn_big_anchor_target_labels"
  top: "rpn_big_anchor_target_bbox_targets"
  top: "rpn_big_anchor_target_inside_weights"
  top: "rpn_big_anchor_target_outside_weights"
  python_param {
    module: "rpn.anchor_target_layer"
    layer: "AnchorTargetLayer"
    param_str: "{\"negative_overlap\": 0.4, \"batchsize\": 256, \"feat_stride\": 16, \"positive_overlap\": 0.6, \"anchor_scales\": [2.5, 3.025, 3.66025, 4.4289024999999995, 5.358972025, 6.484356150249999, 7.846070941802498, 9.493745839581022, 11.487432465893036, 13.899793283730574, 16.818749873313998, 20.350687346709933, 24.62433168951902, 29.795441344318014], \"tn_fraction\": 0.2, \"anchor_shift_num_xy\": [[2, 2], [2, 2], [2, 2], [2, 2], [1, 1], [1, 1], [1, 1], [1, 1], [1, 1], [1, 1], [1, 1], [1, 1], [1, 1], [1, 1]], \"square_targets\": true, \"anchor_ratios\": [1.0], \"name\": \"rpn_big\", \"fg_fraction\": 0.5, \"num_classes\": 1}"
  }
}
layer {
  name: "rpn_big_loss_cls"
  type: "SoftmaxWithLoss"
  bottom: "rpn_big_cls_score_reshape"
  bottom: "rpn_big_anchor_target_labels"
  top: "rpn_big_loss_cls"
  loss_weight: 1
  propagate_down: true
  propagate_down: false
  loss_param {
    ignore_label: -1
    normalization: VALID
  }
}
layer {
  name: "rpn_big_output_box"
  type: "Convolution"
  bottom: "rpn_big_conv2"
  top: "rpn_big_output_box"
  param {
    lr_mult: 1
  }
  param {
    lr_mult: 2
  }
  convolution_param {
    num_output: 384
    pad: 1
    kernel_size: 3
    stride: 1
    weight_filler {
      type: "gaussian"
      mean: 0
      std: 0.01
    }
    bias_filler {
      type: "constant"
    }
  }
}
layer {
  name: "rpn_big_output_box_relu"
  type: "ReLU"
  bottom: "rpn_big_output_box"
  top: "rpn_big_output_box"
  relu_param {
    negative_slope: 0
  }
}
layer {
  name: "rpn_big_bbox_pred"
  type: "Convolution"
  bottom: "rpn_big_output_box"
  top: "rpn_big_bbox_pred"
  param {
    lr_mult: 1
  }
  param {
    lr_mult: 2
  }
  convolution_param {
    num_output: 104
    pad: 0
    kernel_size: 3
    stride: 1
    weight_filler {
      type: "gaussian"
      mean: 0
      std: 0.01
    }
    bias_filler {
      type: "constant"
    }
  }
}
layer {
  name: "rpn_big_loss_bbox"
  type: "Python"
  bottom: "rpn_big_bbox_pred"
  bottom: "rpn_big_anchor_target_bbox_targets"
  bottom: "rpn_big_anchor_target_inside_weights"
  bottom: "rpn_big_anchor_target_outside_weights"
  top: "rpn_big_loss_bbox"
  loss_weight: 1
  python_param {
    module: "layers.smooth_l1_loss"
    layer: "SmoothL1LossLayer"
    param_str: "{\"sigma\": 3}"
  }
}
layer {
  name: "MyLoss"
  type: "InnerProduct"
  bottom: "conv3_1"
  top: "MyLoss"
}
I0412 20:23:41.877851  3692 layer_factory.hpp:77] Creating layer input
I0412 20:23:41.916704  3692 net.cpp:100] Creating Layer input
I0412 20:23:41.926934  3692 net.cpp:408] input -> input_data
I0412 20:23:41.926983  3692 net.cpp:408] input -> input_im_info
I0412 20:23:41.926992  3692 net.cpp:408] input -> input_gt_boxes
I0412 20:23:41.927000  3692 net.cpp:408] input -> input_ignored_boxes
RoiDataLayer: name_to_top: {'ignored_boxes': 3, 'gt_boxes': 2, 'data': 0, 'im_info': 1}
I0412 20:23:46.756108  3692 net.cpp:150] Setting up input
I0412 20:23:46.756165  3692 net.cpp:157] Top shape: 1 3 1000 1500 (4500000)
I0412 20:23:46.756186  3692 net.cpp:157] Top shape: 1 3 (3)
I0412 20:23:46.756206  3692 net.cpp:157] Top shape: 1 5 (5)
I0412 20:23:46.756222  3692 net.cpp:157] Top shape: 1 5 (5)
I0412 20:23:46.756233  3692 net.cpp:165] Memory required for data: 18000052
I0412 20:23:46.756253  3692 layer_factory.hpp:77] Creating layer input_data_input_0_split
I0412 20:23:46.756286  3692 net.cpp:100] Creating Layer input_data_input_0_split
I0412 20:23:46.756301  3692 net.cpp:434] input_data_input_0_split <- input_data
I0412 20:23:46.756330  3692 net.cpp:408] input_data_input_0_split -> input_data_input_0_split_0
I0412 20:23:46.756366  3692 net.cpp:408] input_data_input_0_split -> input_data_input_0_split_1
I0412 20:23:46.756505  3692 net.cpp:150] Setting up input_data_input_0_split
I0412 20:23:46.756534  3692 net.cpp:157] Top shape: 1 3 1000 1500 (4500000)
I0412 20:23:46.756553  3692 net.cpp:157] Top shape: 1 3 1000 1500 (4500000)
I0412 20:23:46.756567  3692 net.cpp:165] Memory required for data: 54000052
I0412 20:23:46.756582  3692 layer_factory.hpp:77] Creating layer conv1_1
I0412 20:23:46.756616  3692 net.cpp:100] Creating Layer conv1_1
I0412 20:23:46.756635  3692 net.cpp:434] conv1_1 <- input_data_input_0_split_0
I0412 20:23:46.756657  3692 net.cpp:408] conv1_1 -> conv1_1
I0412 20:23:46.763725  3692 net.cpp:150] Setting up conv1_1
I0412 20:23:46.763802  3692 net.cpp:157] Top shape: 1 64 1000 1500 (96000000)
I0412 20:23:46.763813  3692 net.cpp:165] Memory required for data: 438000052
I0412 20:23:46.763849  3692 layer_factory.hpp:77] Creating layer relu1_1
I0412 20:23:46.763875  3692 net.cpp:100] Creating Layer relu1_1
I0412 20:23:46.763900  3692 net.cpp:434] relu1_1 <- conv1_1
I0412 20:23:46.763927  3692 net.cpp:395] relu1_1 -> conv1_1 (in-place)
I0412 20:23:46.763960  3692 net.cpp:150] Setting up relu1_1
I0412 20:23:46.763983  3692 net.cpp:157] Top shape: 1 64 1000 1500 (96000000)
I0412 20:23:46.763994  3692 net.cpp:165] Memory required for data: 822000052
I0412 20:23:46.764008  3692 layer_factory.hpp:77] Creating layer conv1_2
I0412 20:23:46.764041  3692 net.cpp:100] Creating Layer conv1_2
I0412 20:23:46.764055  3692 net.cpp:434] conv1_2 <- conv1_1
I0412 20:23:46.764076  3692 net.cpp:408] conv1_2 -> conv1_2
I0412 20:23:46.771049  3692 net.cpp:150] Setting up conv1_2
I0412 20:23:46.771105  3692 net.cpp:157] Top shape: 1 64 1000 1500 (96000000)
I0412 20:23:46.771112  3692 net.cpp:165] Memory required for data: 1206000052
I0412 20:23:46.771152  3692 layer_factory.hpp:77] Creating layer relu1_2
I0412 20:23:46.771183  3692 net.cpp:100] Creating Layer relu1_2
I0412 20:23:46.771198  3692 net.cpp:434] relu1_2 <- conv1_2
I0412 20:23:46.771219  3692 net.cpp:395] relu1_2 -> conv1_2 (in-place)
I0412 20:23:46.771247  3692 net.cpp:150] Setting up relu1_2
I0412 20:23:46.771265  3692 net.cpp:157] Top shape: 1 64 1000 1500 (96000000)
I0412 20:23:46.771277  3692 net.cpp:165] Memory required for data: 1590000052
I0412 20:23:46.771291  3692 layer_factory.hpp:77] Creating layer pool1
I0412 20:23:46.771335  3692 net.cpp:100] Creating Layer pool1
I0412 20:23:46.771351  3692 net.cpp:434] pool1 <- conv1_2
I0412 20:23:46.771369  3692 net.cpp:408] pool1 -> pool1
I0412 20:23:46.771550  3692 net.cpp:150] Setting up pool1
I0412 20:23:46.771580  3692 net.cpp:157] Top shape: 1 64 500 750 (24000000)
I0412 20:23:46.771594  3692 net.cpp:165] Memory required for data: 1686000052
I0412 20:23:46.771605  3692 layer_factory.hpp:77] Creating layer conv2_1
I0412 20:23:46.771634  3692 net.cpp:100] Creating Layer conv2_1
I0412 20:23:46.771648  3692 net.cpp:434] conv2_1 <- pool1
I0412 20:23:46.771669  3692 net.cpp:408] conv2_1 -> conv2_1
I0412 20:23:46.774637  3692 net.cpp:150] Setting up conv2_1
I0412 20:23:46.774688  3692 net.cpp:157] Top shape: 1 128 500 750 (48000000)
I0412 20:23:46.774696  3692 net.cpp:165] Memory required for data: 1878000052
I0412 20:23:46.774734  3692 layer_factory.hpp:77] Creating layer relu2_1
I0412 20:23:46.774765  3692 net.cpp:100] Creating Layer relu2_1
I0412 20:23:46.774785  3692 net.cpp:434] relu2_1 <- conv2_1
I0412 20:23:46.774812  3692 net.cpp:395] relu2_1 -> conv2_1 (in-place)
I0412 20:23:46.774842  3692 net.cpp:150] Setting up relu2_1
I0412 20:23:46.774863  3692 net.cpp:157] Top shape: 1 128 500 750 (48000000)
I0412 20:23:46.774878  3692 net.cpp:165] Memory required for data: 2070000052
I0412 20:23:46.774890  3692 layer_factory.hpp:77] Creating layer conv2_2
I0412 20:23:46.774915  3692 net.cpp:100] Creating Layer conv2_2
I0412 20:23:46.774931  3692 net.cpp:434] conv2_2 <- conv2_1
I0412 20:23:46.774956  3692 net.cpp:408] conv2_2 -> conv2_2
I0412 20:23:46.777770  3692 net.cpp:150] Setting up conv2_2
I0412 20:23:46.777824  3692 net.cpp:157] Top shape: 1 128 500 750 (48000000)
I0412 20:23:46.777833  3692 net.cpp:165] Memory required for data: 2262000052
I0412 20:23:46.777863  3692 layer_factory.hpp:77] Creating layer relu2_2
I0412 20:23:46.777905  3692 net.cpp:100] Creating Layer relu2_2
I0412 20:23:46.777927  3692 net.cpp:434] relu2_2 <- conv2_2
I0412 20:23:46.777951  3692 net.cpp:395] relu2_2 -> conv2_2 (in-place)
I0412 20:23:46.777979  3692 net.cpp:150] Setting up relu2_2
I0412 20:23:46.778002  3692 net.cpp:157] Top shape: 1 128 500 750 (48000000)
I0412 20:23:46.778014  3692 net.cpp:165] Memory required for data: 2454000052
I0412 20:23:46.778026  3692 layer_factory.hpp:77] Creating layer pool2
I0412 20:23:46.778053  3692 net.cpp:100] Creating Layer pool2
I0412 20:23:46.778069  3692 net.cpp:434] pool2 <- conv2_2
I0412 20:23:46.778087  3692 net.cpp:408] pool2 -> pool2
I0412 20:23:46.778226  3692 net.cpp:150] Setting up pool2
I0412 20:23:46.778254  3692 net.cpp:157] Top shape: 1 128 250 375 (12000000)
I0412 20:23:46.778268  3692 net.cpp:165] Memory required for data: 2502000052
I0412 20:23:46.778281  3692 layer_factory.hpp:77] Creating layer conv3_1
I0412 20:23:46.778314  3692 net.cpp:100] Creating Layer conv3_1
I0412 20:23:46.778332  3692 net.cpp:434] conv3_1 <- pool2
I0412 20:23:46.778355  3692 net.cpp:408] conv3_1 -> conv3_1
I0412 20:23:46.781069  3692 net.cpp:150] Setting up conv3_1
I0412 20:23:46.781114  3692 net.cpp:157] Top shape: 1 256 250 375 (24000000)
I0412 20:23:46.781122  3692 net.cpp:165] Memory required for data: 2598000052
I0412 20:23:46.781159  3692 layer_factory.hpp:77] Creating layer relu3_1
I0412 20:23:46.781186  3692 net.cpp:100] Creating Layer relu3_1
I0412 20:23:46.781203  3692 net.cpp:434] relu3_1 <- conv3_1
I0412 20:23:46.781229  3692 net.cpp:395] relu3_1 -> conv3_1 (in-place)
I0412 20:23:46.781256  3692 net.cpp:150] Setting up relu3_1
I0412 20:23:46.781277  3692 net.cpp:157] Top shape: 1 256 250 375 (24000000)
I0412 20:23:46.781291  3692 net.cpp:165] Memory required for data: 2694000052
I0412 20:23:46.781301  3692 layer_factory.hpp:77] Creating layer conv3_1_relu3_1_0_split
I0412 20:23:46.781321  3692 net.cpp:100] Creating Layer conv3_1_relu3_1_0_split
I0412 20:23:46.781335  3692 net.cpp:434] conv3_1_relu3_1_0_split <- conv3_1
I0412 20:23:46.781358  3692 net.cpp:408] conv3_1_relu3_1_0_split -> conv3_1_relu3_1_0_split_0
I0412 20:23:46.781385  3692 net.cpp:408] conv3_1_relu3_1_0_split -> conv3_1_relu3_1_0_split_1
I0412 20:23:46.781497  3692 net.cpp:150] Setting up conv3_1_relu3_1_0_split
I0412 20:23:46.781524  3692 net.cpp:157] Top shape: 1 256 250 375 (24000000)
I0412 20:23:46.781544  3692 net.cpp:157] Top shape: 1 256 250 375 (24000000)
I0412 20:23:46.781558  3692 net.cpp:165] Memory required for data: 2886000052
I0412 20:23:46.781569  3692 layer_factory.hpp:77] Creating layer conv3_2
I0412 20:23:46.781597  3692 net.cpp:100] Creating Layer conv3_2
I0412 20:23:46.781615  3692 net.cpp:434] conv3_2 <- conv3_1_relu3_1_0_split_0
I0412 20:23:46.781637  3692 net.cpp:408] conv3_2 -> conv3_2
I0412 20:23:46.784508  3692 net.cpp:150] Setting up conv3_2
I0412 20:23:46.784559  3692 net.cpp:157] Top shape: 1 256 250 375 (24000000)
I0412 20:23:46.784566  3692 net.cpp:165] Memory required for data: 2982000052
I0412 20:23:46.784591  3692 layer_factory.hpp:77] Creating layer relu3_2
I0412 20:23:46.784629  3692 net.cpp:100] Creating Layer relu3_2
I0412 20:23:46.784647  3692 net.cpp:434] relu3_2 <- conv3_2
I0412 20:23:46.784668  3692 net.cpp:395] relu3_2 -> conv3_2 (in-place)
I0412 20:23:46.784693  3692 net.cpp:150] Setting up relu3_2
I0412 20:23:46.784711  3692 net.cpp:157] Top shape: 1 256 250 375 (24000000)
I0412 20:23:46.784723  3692 net.cpp:165] Memory required for data: 3078000052
I0412 20:23:46.784734  3692 layer_factory.hpp:77] Creating layer conv3_3
I0412 20:23:46.784761  3692 net.cpp:100] Creating Layer conv3_3
I0412 20:23:46.784778  3692 net.cpp:434] conv3_3 <- conv3_2
I0412 20:23:46.784797  3692 net.cpp:408] conv3_3 -> conv3_3
I0412 20:23:46.788848  3692 net.cpp:150] Setting up conv3_3
I0412 20:23:46.788902  3692 net.cpp:157] Top shape: 1 256 250 375 (24000000)
I0412 20:23:46.788909  3692 net.cpp:165] Memory required for data: 3174000052
I0412 20:23:46.788928  3692 layer_factory.hpp:77] Creating layer relu3_3
I0412 20:23:46.788946  3692 net.cpp:100] Creating Layer relu3_3
I0412 20:23:46.788955  3692 net.cpp:434] relu3_3 <- conv3_3
I0412 20:23:46.788969  3692 net.cpp:395] relu3_3 -> conv3_3 (in-place)
I0412 20:23:46.788987  3692 net.cpp:150] Setting up relu3_3
I0412 20:23:46.788998  3692 net.cpp:157] Top shape: 1 256 250 375 (24000000)
I0412 20:23:46.789005  3692 net.cpp:165] Memory required for data: 3270000052
I0412 20:23:46.789011  3692 layer_factory.hpp:77] Creating layer pool3
I0412 20:23:46.789026  3692 net.cpp:100] Creating Layer pool3
I0412 20:23:46.789034  3692 net.cpp:434] pool3 <- conv3_3
I0412 20:23:46.789046  3692 net.cpp:408] pool3 -> pool3
I0412 20:23:46.789171  3692 net.cpp:150] Setting up pool3
I0412 20:23:46.789196  3692 net.cpp:157] Top shape: 1 256 125 188 (6016000)
I0412 20:23:46.789208  3692 net.cpp:165] Memory required for data: 3294064052
I0412 20:23:46.789222  3692 layer_factory.hpp:77] Creating layer conv4_1
I0412 20:23:46.789253  3692 net.cpp:100] Creating Layer conv4_1
I0412 20:23:46.789268  3692 net.cpp:434] conv4_1 <- pool3
I0412 20:23:46.789300  3692 net.cpp:408] conv4_1 -> conv4_1
I0412 20:23:46.795078  3692 net.cpp:150] Setting up conv4_1
I0412 20:23:46.795140  3692 net.cpp:157] Top shape: 1 512 125 188 (12032000)
I0412 20:23:46.795152  3692 net.cpp:165] Memory required for data: 3342192052
I0412 20:23:46.795178  3692 layer_factory.hpp:77] Creating layer relu4_1
I0412 20:23:46.795202  3692 net.cpp:100] Creating Layer relu4_1
I0412 20:23:46.795236  3692 net.cpp:434] relu4_1 <- conv4_1
I0412 20:23:46.795264  3692 net.cpp:395] relu4_1 -> conv4_1 (in-place)
I0412 20:23:46.795292  3692 net.cpp:150] Setting up relu4_1
I0412 20:23:46.795308  3692 net.cpp:157] Top shape: 1 512 125 188 (12032000)
I0412 20:23:46.795317  3692 net.cpp:165] Memory required for data: 3390320052
I0412 20:23:46.795328  3692 layer_factory.hpp:77] Creating layer conv4_2
I0412 20:23:46.795351  3692 net.cpp:100] Creating Layer conv4_2
I0412 20:23:46.795361  3692 net.cpp:434] conv4_2 <- conv4_1
I0412 20:23:46.795384  3692 net.cpp:408] conv4_2 -> conv4_2
I0412 20:23:46.803064  3692 net.cpp:150] Setting up conv4_2
I0412 20:23:46.803119  3692 net.cpp:157] Top shape: 1 512 125 188 (12032000)
I0412 20:23:46.803131  3692 net.cpp:165] Memory required for data: 3438448052
I0412 20:23:46.803184  3692 layer_factory.hpp:77] Creating layer relu4_2
I0412 20:23:46.803207  3692 net.cpp:100] Creating Layer relu4_2
I0412 20:23:46.803226  3692 net.cpp:434] relu4_2 <- conv4_2
I0412 20:23:46.803251  3692 net.cpp:395] relu4_2 -> conv4_2 (in-place)
I0412 20:23:46.803279  3692 net.cpp:150] Setting up relu4_2
I0412 20:23:46.803299  3692 net.cpp:157] Top shape: 1 512 125 188 (12032000)
I0412 20:23:46.803313  3692 net.cpp:165] Memory required for data: 3486576052
I0412 20:23:46.803326  3692 layer_factory.hpp:77] Creating layer conv4_3
I0412 20:23:46.803369  3692 net.cpp:100] Creating Layer conv4_3
I0412 20:23:46.803381  3692 net.cpp:434] conv4_3 <- conv4_2
I0412 20:23:46.803406  3692 net.cpp:408] conv4_3 -> conv4_3
I0412 20:23:46.810544  3692 net.cpp:150] Setting up conv4_3
I0412 20:23:46.810591  3692 net.cpp:157] Top shape: 1 512 125 188 (12032000)
I0412 20:23:46.810602  3692 net.cpp:165] Memory required for data: 3534704052
I0412 20:23:46.810626  3692 layer_factory.hpp:77] Creating layer relu4_3
I0412 20:23:46.810649  3692 net.cpp:100] Creating Layer relu4_3
I0412 20:23:46.810672  3692 net.cpp:434] relu4_3 <- conv4_3
I0412 20:23:46.810698  3692 net.cpp:395] relu4_3 -> conv4_3 (in-place)
I0412 20:23:46.810724  3692 net.cpp:150] Setting up relu4_3
I0412 20:23:46.810745  3692 net.cpp:157] Top shape: 1 512 125 188 (12032000)
I0412 20:23:46.810760  3692 net.cpp:165] Memory required for data: 3582832052
I0412 20:23:46.810773  3692 layer_factory.hpp:77] Creating layer pool4
I0412 20:23:46.810797  3692 net.cpp:100] Creating Layer pool4
I0412 20:23:46.810811  3692 net.cpp:434] pool4 <- conv4_3
I0412 20:23:46.810829  3692 net.cpp:408] pool4 -> pool4
I0412 20:23:46.810912  3692 net.cpp:150] Setting up pool4
I0412 20:23:46.810931  3692 net.cpp:157] Top shape: 1 512 63 94 (3032064)
I0412 20:23:46.810942  3692 net.cpp:165] Memory required for data: 3594960308
I0412 20:23:46.810953  3692 layer_factory.hpp:77] Creating layer conv5_1
I0412 20:23:46.810982  3692 net.cpp:100] Creating Layer conv5_1
I0412 20:23:46.810994  3692 net.cpp:434] conv5_1 <- pool4
I0412 20:23:46.811017  3692 net.cpp:408] conv5_1 -> conv5_1
I0412 20:23:46.818753  3692 net.cpp:150] Setting up conv5_1
I0412 20:23:46.818804  3692 net.cpp:157] Top shape: 1 512 63 94 (3032064)
I0412 20:23:46.818815  3692 net.cpp:165] Memory required for data: 3607088564
I0412 20:23:46.818840  3692 layer_factory.hpp:77] Creating layer relu5_1
I0412 20:23:46.818863  3692 net.cpp:100] Creating Layer relu5_1
I0412 20:23:46.818878  3692 net.cpp:434] relu5_1 <- conv5_1
I0412 20:23:46.818898  3692 net.cpp:395] relu5_1 -> conv5_1 (in-place)
I0412 20:23:46.818924  3692 net.cpp:150] Setting up relu5_1
I0412 20:23:46.818953  3692 net.cpp:157] Top shape: 1 512 63 94 (3032064)
I0412 20:23:46.818965  3692 net.cpp:165] Memory required for data: 3619216820
I0412 20:23:46.818976  3692 layer_factory.hpp:77] Creating layer conv5_2
I0412 20:23:46.819005  3692 net.cpp:100] Creating Layer conv5_2
I0412 20:23:46.819023  3692 net.cpp:434] conv5_2 <- conv5_1
I0412 20:23:46.819047  3692 net.cpp:408] conv5_2 -> conv5_2
I0412 20:23:46.825853  3692 net.cpp:150] Setting up conv5_2
I0412 20:23:46.825909  3692 net.cpp:157] Top shape: 1 512 63 94 (3032064)
I0412 20:23:46.825920  3692 net.cpp:165] Memory required for data: 3631345076
I0412 20:23:46.825944  3692 layer_factory.hpp:77] Creating layer relu5_2
I0412 20:23:46.825968  3692 net.cpp:100] Creating Layer relu5_2
I0412 20:23:46.825992  3692 net.cpp:434] relu5_2 <- conv5_2
I0412 20:23:46.826014  3692 net.cpp:395] relu5_2 -> conv5_2 (in-place)
I0412 20:23:46.826041  3692 net.cpp:150] Setting up relu5_2
I0412 20:23:46.826059  3692 net.cpp:157] Top shape: 1 512 63 94 (3032064)
I0412 20:23:46.826072  3692 net.cpp:165] Memory required for data: 3643473332
I0412 20:23:46.826084  3692 layer_factory.hpp:77] Creating layer conv5_3
I0412 20:23:46.826117  3692 net.cpp:100] Creating Layer conv5_3
I0412 20:23:46.826128  3692 net.cpp:434] conv5_3 <- conv5_2
I0412 20:23:46.826151  3692 net.cpp:408] conv5_3 -> conv5_3
I0412 20:23:46.833034  3692 net.cpp:150] Setting up conv5_3
I0412 20:23:46.833089  3692 net.cpp:157] Top shape: 1 512 63 94 (3032064)
I0412 20:23:46.833101  3692 net.cpp:165] Memory required for data: 3655601588
I0412 20:23:46.833124  3692 layer_factory.hpp:77] Creating layer relu5_3
I0412 20:23:46.833164  3692 net.cpp:100] Creating Layer relu5_3
I0412 20:23:46.833183  3692 net.cpp:434] relu5_3 <- conv5_3
I0412 20:23:46.833200  3692 net.cpp:395] relu5_3 -> conv5_3 (in-place)
I0412 20:23:46.833226  3692 net.cpp:150] Setting up relu5_3
I0412 20:23:46.833245  3692 net.cpp:157] Top shape: 1 512 63 94 (3032064)
I0412 20:23:46.833256  3692 net.cpp:165] Memory required for data: 3667729844
I0412 20:23:46.833266  3692 layer_factory.hpp:77] Creating layer rpn_big_conv1
I0412 20:23:46.833294  3692 net.cpp:100] Creating Layer rpn_big_conv1
I0412 20:23:46.833309  3692 net.cpp:434] rpn_big_conv1 <- conv5_3
I0412 20:23:46.833328  3692 net.cpp:408] rpn_big_conv1 -> rpn_big_conv1
I0412 20:23:46.877091  3692 net.cpp:150] Setting up rpn_big_conv1
I0412 20:23:46.877130  3692 net.cpp:157] Top shape: 1 512 63 94 (3032064)
I0412 20:23:46.877135  3692 net.cpp:165] Memory required for data: 3679858100
I0412 20:23:46.877147  3692 layer_factory.hpp:77] Creating layer rpn_big_conv1_relu
I0412 20:23:46.877161  3692 net.cpp:100] Creating Layer rpn_big_conv1_relu
I0412 20:23:46.877167  3692 net.cpp:434] rpn_big_conv1_relu <- rpn_big_conv1
I0412 20:23:46.877177  3692 net.cpp:395] rpn_big_conv1_relu -> rpn_big_conv1 (in-place)
I0412 20:23:46.877190  3692 net.cpp:150] Setting up rpn_big_conv1_relu
I0412 20:23:46.877197  3692 net.cpp:157] Top shape: 1 512 63 94 (3032064)
I0412 20:23:46.877202  3692 net.cpp:165] Memory required for data: 3691986356
I0412 20:23:46.877205  3692 layer_factory.hpp:77] Creating layer rpn_big_conv2
I0412 20:23:46.877223  3692 net.cpp:100] Creating Layer rpn_big_conv2
I0412 20:23:46.877236  3692 net.cpp:434] rpn_big_conv2 <- rpn_big_conv1
I0412 20:23:46.877245  3692 net.cpp:408] rpn_big_conv2 -> rpn_big_conv2
I0412 20:23:46.913749  3692 net.cpp:150] Setting up rpn_big_conv2
I0412 20:23:46.913784  3692 net.cpp:157] Top shape: 1 512 63 94 (3032064)
I0412 20:23:46.913789  3692 net.cpp:165] Memory required for data: 3704114612
I0412 20:23:46.913800  3692 layer_factory.hpp:77] Creating layer rpn_big_conv2_relu
I0412 20:23:46.913812  3692 net.cpp:100] Creating Layer rpn_big_conv2_relu
I0412 20:23:46.913818  3692 net.cpp:434] rpn_big_conv2_relu <- rpn_big_conv2
I0412 20:23:46.913826  3692 net.cpp:395] rpn_big_conv2_relu -> rpn_big_conv2 (in-place)
I0412 20:23:46.913838  3692 net.cpp:150] Setting up rpn_big_conv2_relu
I0412 20:23:46.913844  3692 net.cpp:157] Top shape: 1 512 63 94 (3032064)
I0412 20:23:46.913848  3692 net.cpp:165] Memory required for data: 3716242868
I0412 20:23:46.913861  3692 layer_factory.hpp:77] Creating layer rpn_big_conv2_drop
I0412 20:23:46.913871  3692 net.cpp:100] Creating Layer rpn_big_conv2_drop
I0412 20:23:46.913874  3692 net.cpp:434] rpn_big_conv2_drop <- rpn_big_conv2
I0412 20:23:46.913879  3692 net.cpp:395] rpn_big_conv2_drop -> rpn_big_conv2 (in-place)
I0412 20:23:46.913902  3692 net.cpp:150] Setting up rpn_big_conv2_drop
I0412 20:23:46.913920  3692 net.cpp:157] Top shape: 1 512 63 94 (3032064)
I0412 20:23:46.913923  3692 net.cpp:165] Memory required for data: 3728371124
I0412 20:23:46.913928  3692 layer_factory.hpp:77] Creating layer rpn_big_conv2_rpn_big_conv2_drop_0_split
I0412 20:23:46.913933  3692 net.cpp:100] Creating Layer rpn_big_conv2_rpn_big_conv2_drop_0_split
I0412 20:23:46.913938  3692 net.cpp:434] rpn_big_conv2_rpn_big_conv2_drop_0_split <- rpn_big_conv2
I0412 20:23:46.913944  3692 net.cpp:408] rpn_big_conv2_rpn_big_conv2_drop_0_split -> rpn_big_conv2_rpn_big_conv2_drop_0_split_0
I0412 20:23:46.913951  3692 net.cpp:408] rpn_big_conv2_rpn_big_conv2_drop_0_split -> rpn_big_conv2_rpn_big_conv2_drop_0_split_1
I0412 20:23:46.913990  3692 net.cpp:150] Setting up rpn_big_conv2_rpn_big_conv2_drop_0_split
I0412 20:23:46.913997  3692 net.cpp:157] Top shape: 1 512 63 94 (3032064)
I0412 20:23:46.914002  3692 net.cpp:157] Top shape: 1 512 63 94 (3032064)
I0412 20:23:46.914005  3692 net.cpp:165] Memory required for data: 3752627636
I0412 20:23:46.914008  3692 layer_factory.hpp:77] Creating layer rpn_big_output_cls
I0412 20:23:46.914021  3692 net.cpp:100] Creating Layer rpn_big_output_cls
I0412 20:23:46.914024  3692 net.cpp:434] rpn_big_output_cls <- rpn_big_conv2_rpn_big_conv2_drop_0_split_0
I0412 20:23:46.914032  3692 net.cpp:408] rpn_big_output_cls -> rpn_big_output_cls
I0412 20:23:46.940174  3692 net.cpp:150] Setting up rpn_big_output_cls
I0412 20:23:46.940206  3692 net.cpp:157] Top shape: 1 384 63 94 (2274048)
I0412 20:23:46.940210  3692 net.cpp:165] Memory required for data: 3761723828
I0412 20:23:46.940220  3692 layer_factory.hpp:77] Creating layer rpn_big_output_cls_relu
I0412 20:23:46.940233  3692 net.cpp:100] Creating Layer rpn_big_output_cls_relu
I0412 20:23:46.940238  3692 net.cpp:434] rpn_big_output_cls_relu <- rpn_big_output_cls
I0412 20:23:46.940249  3692 net.cpp:395] rpn_big_output_cls_relu -> rpn_big_output_cls (in-place)
I0412 20:23:46.940261  3692 net.cpp:150] Setting up rpn_big_output_cls_relu
I0412 20:23:46.940268  3692 net.cpp:157] Top shape: 1 384 63 94 (2274048)
I0412 20:23:46.940279  3692 net.cpp:165] Memory required for data: 3770820020
I0412 20:23:46.940284  3692 layer_factory.hpp:77] Creating layer rpn_big_cls_score
I0412 20:23:46.940295  3692 net.cpp:100] Creating Layer rpn_big_cls_score
I0412 20:23:46.940309  3692 net.cpp:434] rpn_big_cls_score <- rpn_big_output_cls
I0412 20:23:46.940316  3692 net.cpp:408] rpn_big_cls_score -> rpn_big_cls_score
I0412 20:23:46.943042  3692 net.cpp:150] Setting up rpn_big_cls_score
I0412 20:23:46.943056  3692 net.cpp:157] Top shape: 1 52 61 92 (291824)
I0412 20:23:46.943060  3692 net.cpp:165] Memory required for data: 3771987316
I0412 20:23:46.943078  3692 layer_factory.hpp:77] Creating layer rpn_big_cls_score_rpn_big_cls_score_0_split
I0412 20:23:46.943087  3692 net.cpp:100] Creating Layer rpn_big_cls_score_rpn_big_cls_score_0_split
I0412 20:23:46.943091  3692 net.cpp:434] rpn_big_cls_score_rpn_big_cls_score_0_split <- rpn_big_cls_score
I0412 20:23:46.943101  3692 net.cpp:408] rpn_big_cls_score_rpn_big_cls_score_0_split -> rpn_big_cls_score_rpn_big_cls_score_0_split_0
I0412 20:23:46.943110  3692 net.cpp:408] rpn_big_cls_score_rpn_big_cls_score_0_split -> rpn_big_cls_score_rpn_big_cls_score_0_split_1
I0412 20:23:46.943159  3692 net.cpp:150] Setting up rpn_big_cls_score_rpn_big_cls_score_0_split
I0412 20:23:46.943169  3692 net.cpp:157] Top shape: 1 52 61 92 (291824)
I0412 20:23:46.943174  3692 net.cpp:157] Top shape: 1 52 61 92 (291824)
I0412 20:23:46.943177  3692 net.cpp:165] Memory required for data: 3774321908
I0412 20:23:46.943181  3692 layer_factory.hpp:77] Creating layer rpn_big_cls_score_reshape
I0412 20:23:46.943194  3692 net.cpp:100] Creating Layer rpn_big_cls_score_reshape
I0412 20:23:46.943199  3692 net.cpp:434] rpn_big_cls_score_reshape <- rpn_big_cls_score_rpn_big_cls_score_0_split_0
I0412 20:23:46.943205  3692 net.cpp:408] rpn_big_cls_score_reshape -> rpn_big_cls_score_reshape
I0412 20:23:46.943233  3692 net.cpp:150] Setting up rpn_big_cls_score_reshape
I0412 20:23:46.943244  3692 net.cpp:157] Top shape: 1 2 1586 92 (291824)
I0412 20:23:46.943248  3692 net.cpp:165] Memory required for data: 3775489204
I0412 20:23:46.943251  3692 layer_factory.hpp:77] Creating layer rpn_big_cls_score_reshape_rpn_big_cls_score_reshape_0_split
I0412 20:23:46.943256  3692 net.cpp:100] Creating Layer rpn_big_cls_score_reshape_rpn_big_cls_score_reshape_0_split
I0412 20:23:46.943260  3692 net.cpp:434] rpn_big_cls_score_reshape_rpn_big_cls_score_reshape_0_split <- rpn_big_cls_score_reshape
I0412 20:23:46.943266  3692 net.cpp:408] rpn_big_cls_score_reshape_rpn_big_cls_score_reshape_0_split -> rpn_big_cls_score_reshape_rpn_big_cls_score_reshape_0_split_0
I0412 20:23:46.943275  3692 net.cpp:408] rpn_big_cls_score_reshape_rpn_big_cls_score_reshape_0_split -> rpn_big_cls_score_reshape_rpn_big_cls_score_reshape_0_split_1
I0412 20:23:46.943306  3692 net.cpp:150] Setting up rpn_big_cls_score_reshape_rpn_big_cls_score_reshape_0_split
I0412 20:23:46.943313  3692 net.cpp:157] Top shape: 1 2 1586 92 (291824)
I0412 20:23:46.943318  3692 net.cpp:157] Top shape: 1 2 1586 92 (291824)
I0412 20:23:46.943321  3692 net.cpp:165] Memory required for data: 3777823796
I0412 20:23:46.943325  3692 layer_factory.hpp:77] Creating layer rpn_big_cls_prob
I0412 20:23:46.943332  3692 net.cpp:100] Creating Layer rpn_big_cls_prob
I0412 20:23:46.943336  3692 net.cpp:434] rpn_big_cls_prob <- rpn_big_cls_score_reshape_rpn_big_cls_score_reshape_0_split_0
I0412 20:23:46.943341  3692 net.cpp:408] rpn_big_cls_prob -> rpn_big_cls_prob
I0412 20:23:46.943398  3692 net.cpp:150] Setting up rpn_big_cls_prob
I0412 20:23:46.943406  3692 net.cpp:157] Top shape: 1 2 1586 92 (291824)
I0412 20:23:46.943409  3692 net.cpp:165] Memory required for data: 3778991092
I0412 20:23:46.943413  3692 layer_factory.hpp:77] Creating layer rpn_big_cls_prob_reshape
I0412 20:23:46.943419  3692 net.cpp:100] Creating Layer rpn_big_cls_prob_reshape
I0412 20:23:46.943424  3692 net.cpp:434] rpn_big_cls_prob_reshape <- rpn_big_cls_prob
I0412 20:23:46.943430  3692 net.cpp:408] rpn_big_cls_prob_reshape -> rpn_big_cls_prob_reshape
I0412 20:23:46.943452  3692 net.cpp:150] Setting up rpn_big_cls_prob_reshape
I0412 20:23:46.943460  3692 net.cpp:157] Top shape: 1 52 61 92 (291824)
I0412 20:23:46.943464  3692 net.cpp:165] Memory required for data: 3780158388
I0412 20:23:46.943467  3692 layer_factory.hpp:77] Creating layer rpn_big_anchor_target
I0412 20:23:46.973495  3692 net.cpp:100] Creating Layer rpn_big_anchor_target
I0412 20:23:46.973536  3692 net.cpp:434] rpn_big_anchor_target <- rpn_big_cls_score_rpn_big_cls_score_0_split_1
I0412 20:23:46.973546  3692 net.cpp:434] rpn_big_anchor_target <- input_gt_boxes
I0412 20:23:46.973552  3692 net.cpp:434] rpn_big_anchor_target <- input_ignored_boxes
I0412 20:23:46.973557  3692 net.cpp:434] rpn_big_anchor_target <- input_im_info
I0412 20:23:46.973562  3692 net.cpp:434] rpn_big_anchor_target <- input_data_input_0_split_1
I0412 20:23:46.973567  3692 net.cpp:434] rpn_big_anchor_target <- rpn_big_cls_prob_reshape
I0412 20:23:46.973577  3692 net.cpp:408] rpn_big_anchor_target -> rpn_big_anchor_target_labels
I0412 20:23:46.973590  3692 net.cpp:408] rpn_big_anchor_target -> rpn_big_anchor_target_bbox_targets
I0412 20:23:46.973600  3692 net.cpp:408] rpn_big_anchor_target -> rpn_big_anchor_target_inside_weights
I0412 20:23:46.973609  3692 net.cpp:408] rpn_big_anchor_target -> rpn_big_anchor_target_outside_weights
I0412 20:23:46.979522  3692 net.cpp:150] Setting up rpn_big_anchor_target
I0412 20:23:46.979548  3692 net.cpp:157] Top shape: 1 1 1586 92 (145912)
I0412 20:23:46.979554  3692 net.cpp:157] Top shape: 1 104 61 92 (583648)
I0412 20:23:46.979559  3692 net.cpp:157] Top shape: 1 104 61 92 (583648)
I0412 20:23:46.979564  3692 net.cpp:157] Top shape: 1 104 61 92 (583648)
I0412 20:23:46.979568  3692 net.cpp:165] Memory required for data: 3787745812
I0412 20:23:46.979573  3692 layer_factory.hpp:77] Creating layer rpn_big_loss_cls
I0412 20:23:46.979586  3692 net.cpp:100] Creating Layer rpn_big_loss_cls
I0412 20:23:46.979593  3692 net.cpp:434] rpn_big_loss_cls <- rpn_big_cls_score_reshape_rpn_big_cls_score_reshape_0_split_1
I0412 20:23:46.979599  3692 net.cpp:434] rpn_big_loss_cls <- rpn_big_anchor_target_labels
I0412 20:23:46.979607  3692 net.cpp:408] rpn_big_loss_cls -> rpn_big_loss_cls
I0412 20:23:46.979620  3692 layer_factory.hpp:77] Creating layer rpn_big_loss_cls
I0412 20:23:46.980412  3692 net.cpp:150] Setting up rpn_big_loss_cls
I0412 20:23:46.980433  3692 net.cpp:157] Top shape: (1)
I0412 20:23:46.980437  3692 net.cpp:160]     with loss weight 1
I0412 20:23:46.980449  3692 net.cpp:165] Memory required for data: 3787745816
I0412 20:23:46.980455  3692 layer_factory.hpp:77] Creating layer rpn_big_output_box
I0412 20:23:46.980482  3692 net.cpp:100] Creating Layer rpn_big_output_box
I0412 20:23:46.980489  3692 net.cpp:434] rpn_big_output_box <- rpn_big_conv2_rpn_big_conv2_drop_0_split_1
I0412 20:23:46.980499  3692 net.cpp:408] rpn_big_output_box -> rpn_big_output_box
I0412 20:23:47.005893  3692 net.cpp:150] Setting up rpn_big_output_box
I0412 20:23:47.005928  3692 net.cpp:157] Top shape: 1 384 63 94 (2274048)
I0412 20:23:47.005931  3692 net.cpp:165] Memory required for data: 3796842008
I0412 20:23:47.005942  3692 layer_factory.hpp:77] Creating layer rpn_big_output_box_relu
I0412 20:23:47.005954  3692 net.cpp:100] Creating Layer rpn_big_output_box_relu
I0412 20:23:47.005960  3692 net.cpp:434] rpn_big_output_box_relu <- rpn_big_output_box
I0412 20:23:47.005970  3692 net.cpp:395] rpn_big_output_box_relu -> rpn_big_output_box (in-place)
I0412 20:23:47.005982  3692 net.cpp:150] Setting up rpn_big_output_box_relu
I0412 20:23:47.005988  3692 net.cpp:157] Top shape: 1 384 63 94 (2274048)
I0412 20:23:47.005991  3692 net.cpp:165] Memory required for data: 3805938200
I0412 20:23:47.005995  3692 layer_factory.hpp:77] Creating layer rpn_big_bbox_pred
I0412 20:23:47.006007  3692 net.cpp:100] Creating Layer rpn_big_bbox_pred
I0412 20:23:47.006011  3692 net.cpp:434] rpn_big_bbox_pred <- rpn_big_output_box
I0412 20:23:47.006021  3692 net.cpp:408] rpn_big_bbox_pred -> rpn_big_bbox_pred
I0412 20:23:47.011593  3692 net.cpp:150] Setting up rpn_big_bbox_pred
I0412 20:23:47.011629  3692 net.cpp:157] Top shape: 1 104 61 92 (583648)
I0412 20:23:47.011636  3692 net.cpp:165] Memory required for data: 3808272792
I0412 20:23:47.011653  3692 layer_factory.hpp:77] Creating layer rpn_big_loss_bbox
I0412 20:23:47.017020  3692 net.cpp:100] Creating Layer rpn_big_loss_bbox
I0412 20:23:47.017055  3692 net.cpp:434] rpn_big_loss_bbox <- rpn_big_bbox_pred
I0412 20:23:47.017063  3692 net.cpp:434] rpn_big_loss_bbox <- rpn_big_anchor_target_bbox_targets
I0412 20:23:47.017069  3692 net.cpp:434] rpn_big_loss_bbox <- rpn_big_anchor_target_inside_weights
I0412 20:23:47.017074  3692 net.cpp:434] rpn_big_loss_bbox <- rpn_big_anchor_target_outside_weights
I0412 20:23:47.017082  3692 net.cpp:408] rpn_big_loss_bbox -> rpn_big_loss_bbox
I0412 20:23:47.020818  3692 net.cpp:150] Setting up rpn_big_loss_bbox
I0412 20:23:47.020853  3692 net.cpp:157] Top shape: 1 (1)
I0412 20:23:47.020858  3692 net.cpp:160]     with loss weight 1
I0412 20:23:47.020871  3692 net.cpp:165] Memory required for data: 3808272796
I0412 20:23:47.020879  3692 layer_factory.hpp:77] Creating layer MyLoss
I0412 20:23:47.020889  3692 net.cpp:100] Creating Layer MyLoss
I0412 20:23:47.020895  3692 net.cpp:434] MyLoss <- conv3_1_relu3_1_0_split_1
I0412 20:23:47.020905  3692 net.cpp:408] MyLoss -> MyLoss
…
