…
I0413 16:11:35.821841  8151 solver.cpp:48] Initializing solver from parameters: 
base_lr: 0.001
display: 20
lr_policy: "multistep"
gamma: 0.1
momentum: 0.9
weight_decay: 0.0005
snapshot: 0
snapshot_prefix: "faces_example"
net_param {
  name: "GeneratedModel_13_04_2017_16_11"
  layer {
    name: "input"
    type: "Python"
    top: "input_data"
    top: "input_im_info"
    top: "input_gt_boxes"
    top: "input_ignored_boxes"
    python_param {
      module: "layers.roi_data_layer"
      layer: "RoIDataLayer"
      param_str: "{\"num_classes\": 2}"
    }
  }
  layer {
    name: "conv1_1"
    type: "Convolution"
    bottom: "input_data"
    top: "conv1_1"
    param {
      lr_mult: 0
      decay_mult: 0
    }
    param {
      lr_mult: 0
      decay_mult: 0
    }
    convolution_param {
      num_output: 64
      pad: 1
      kernel_size: 3
    }
  }
  layer {
    name: "relu1_1"
    type: "ReLU"
    bottom: "conv1_1"
    top: "conv1_1"
  }
  layer {
    name: "conv1_2"
    type: "Convolution"
    bottom: "conv1_1"
    top: "conv1_2"
    param {
      lr_mult: 0
      decay_mult: 0
    }
    param {
      lr_mult: 0
      decay_mult: 0
    }
    convolution_param {
      num_output: 64
      pad: 1
      kernel_size: 3
    }
  }
  layer {
    name: "relu1_2"
    type: "ReLU"
    bottom: "conv1_2"
    top: "conv1_2"
  }
  layer {
    name: "pool1"
    type: "Pooling"
    bottom: "conv1_2"
    top: "pool1"
    pooling_param {
      pool: MAX
      kernel_size: 2
      stride: 2
    }
  }
  layer {
    name: "conv2_1"
    type: "Convolution"
    bottom: "pool1"
    top: "conv2_1"
    param {
      lr_mult: 0
      decay_mult: 0
    }
    param {
      lr_mult: 0
      decay_mult: 0
    }
    convolution_param {
      num_output: 128
      pad: 1
      kernel_size: 3
    }
  }
  layer {
    name: "relu2_1"
    type: "ReLU"
    bottom: "conv2_1"
    top: "conv2_1"
  }
  layer {
    name: "conv2_2"
    type: "Convolution"
    bottom: "conv2_1"
    top: "conv2_2"
    param {
      lr_mult: 0
      decay_mult: 0
    }
    param {
      lr_mult: 0
      decay_mult: 0
    }
    convolution_param {
      num_output: 128
      pad: 1
      kernel_size: 3
    }
  }
  layer {
    name: "relu2_2"
    type: "ReLU"
    bottom: "conv2_2"
    top: "conv2_2"
  }
  layer {
    name: "pool2"
    type: "Pooling"
    bottom: "conv2_2"
    top: "pool2"
    pooling_param {
      pool: MAX
      kernel_size: 2
      stride: 2
    }
  }
  layer {
    name: "conv3_1"
    type: "Convolution"
    bottom: "pool2"
    top: "conv3_1"
    param {
      lr_mult: 1
    }
    param {
      lr_mult: 2
    }
    convolution_param {
      num_output: 256
      pad: 1
      kernel_size: 3
    }
  }
  layer {
    name: "relu3_1"
    type: "ReLU"
    bottom: "conv3_1"
    top: "conv3_1"
  }
  layer {
    name: "conv3_2"
    type: "Convolution"
    bottom: "conv3_1"
    top: "conv3_2"
    param {
      lr_mult: 1
    }
    param {
      lr_mult: 2
    }
    convolution_param {
      num_output: 256
      pad: 1
      kernel_size: 3
    }
  }
  layer {
    name: "relu3_2"
    type: "ReLU"
    bottom: "conv3_2"
    top: "conv3_2"
  }
  layer {
    name: "conv3_3"
    type: "Convolution"
    bottom: "conv3_2"
    top: "conv3_3"
    param {
      lr_mult: 1
    }
    param {
      lr_mult: 2
    }
    convolution_param {
      num_output: 256
      pad: 1
      kernel_size: 3
    }
  }
  layer {
    name: "relu3_3"
    type: "ReLU"
    bottom: "conv3_3"
    top: "conv3_3"
  }
  layer {
    name: "pool3"
    type: "Pooling"
    bottom: "conv3_3"
    top: "pool3"
    pooling_param {
      pool: MAX
      kernel_size: 2
      stride: 2
    }
  }
  layer {
    name: "conv4_1"
    type: "Convolution"
    bottom: "pool3"
    top: "conv4_1"
    param {
      lr_mult: 1
    }
    param {
      lr_mult: 2
    }
    convolution_param {
      num_output: 512
      pad: 1
      kernel_size: 3
    }
  }
  layer {
    name: "relu4_1"
    type: "ReLU"
    bottom: "conv4_1"
    top: "conv4_1"
  }
  layer {
    name: "conv4_2"
    type: "Convolution"
    bottom: "conv4_1"
    top: "conv4_2"
    param {
      lr_mult: 1
    }
    param {
      lr_mult: 2
    }
    convolution_param {
      num_output: 512
      pad: 1
      kernel_size: 3
    }
  }
  layer {
    name: "relu4_2"
    type: "ReLU"
    bottom: "conv4_2"
    top: "conv4_2"
  }
  layer {
    name: "conv4_3"
    type: "Convolution"
    bottom: "conv4_2"
    top: "conv4_3"
    param {
      lr_mult: 1
    }
    param {
      lr_mult: 2
    }
    convolution_param {
      num_output: 512
      pad: 1
      kernel_size: 3
    }
  }
  layer {
    name: "relu4_3"
    type: "ReLU"
    bottom: "conv4_3"
    top: "conv4_3"
  }
  layer {
    name: "pool4"
    type: "Pooling"
    bottom: "conv4_3"
    top: "pool4"
    pooling_param {
      pool: MAX
      kernel_size: 2
      stride: 2
    }
  }
  layer {
    name: "conv5_1"
    type: "Convolution"
    bottom: "pool4"
    top: "conv5_1"
    param {
      lr_mult: 1
    }
    param {
      lr_mult: 2
    }
    convolution_param {
      num_output: 512
      pad: 1
      kernel_size: 3
    }
  }
  layer {
    name: "relu5_1"
    type: "ReLU"
    bottom: "conv5_1"
    top: "conv5_1"
  }
  layer {
    name: "conv5_2"
    type: "Convolution"
    bottom: "conv5_1"
    top: "conv5_2"
    param {
      lr_mult: 1
    }
    param {
      lr_mult: 2
    }
    convolution_param {
      num_output: 512
      pad: 1
      kernel_size: 3
    }
  }
  layer {
    name: "relu5_2"
    type: "ReLU"
    bottom: "conv5_2"
    top: "conv5_2"
  }
  layer {
    name: "conv5_3"
    type: "Convolution"
    bottom: "conv5_2"
    top: "conv5_3"
    param {
      lr_mult: 1
    }
    param {
      lr_mult: 2
    }
    convolution_param {
      num_output: 512
      pad: 1
      kernel_size: 3
    }
  }
  layer {
    name: "relu5_3"
    type: "ReLU"
    bottom: "conv5_3"
    top: "conv5_3"
  }
  layer {
    name: "rpn_big_conv1"
    type: "Convolution"
    bottom: "conv5_3"
    top: "rpn_big_conv1"
    param {
      lr_mult: 1
    }
    param {
      lr_mult: 2
    }
    convolution_param {
      num_output: 512
      pad: 1
      kernel_size: 3
      stride: 1
      weight_filler {
        type: "gaussian"
        mean: 0
        std: 0.01
      }
      bias_filler {
        type: "constant"
      }
    }
  }
  layer {
    name: "rpn_big_conv1_relu"
    type: "ReLU"
    bottom: "rpn_big_conv1"
    top: "rpn_big_conv1"
    relu_param {
      negative_slope: 0
    }
  }
  layer {
    name: "rpn_big_conv2"
    type: "Convolution"
    bottom: "rpn_big_conv1"
    top: "rpn_big_conv2"
    param {
      lr_mult: 1
    }
    param {
      lr_mult: 2
    }
    convolution_param {
      num_output: 512
      pad: 1
      kernel_size: 3
      stride: 1
      weight_filler {
        type: "gaussian"
        mean: 0
        std: 0.01
      }
      bias_filler {
        type: "constant"
      }
    }
  }
  layer {
    name: "rpn_big_conv2_relu"
    type: "ReLU"
    bottom: "rpn_big_conv2"
    top: "rpn_big_conv2"
    relu_param {
      negative_slope: 0
    }
  }
  layer {
    name: "rpn_big_conv2_drop"
    type: "Dropout"
    bottom: "rpn_big_conv2"
    top: "rpn_big_conv2"
    dropout_param {
      dropout_ratio: 0.3
    }
  }
  layer {
    name: "rpn_big_output_cls"
    type: "Convolution"
    bottom: "rpn_big_conv2"
    top: "rpn_big_output_cls"
    param {
      lr_mult: 1
    }
    param {
      lr_mult: 2
    }
    convolution_param {
      num_output: 384
      pad: 1
      kernel_size: 3
      stride: 1
      weight_filler {
        type: "gaussian"
        mean: 0
        std: 0.01
      }
      bias_filler {
        type: "constant"
      }
    }
  }
  layer {
    name: "rpn_big_output_cls_relu"
    type: "ReLU"
    bottom: "rpn_big_output_cls"
    top: "rpn_big_output_cls"
    relu_param {
      negative_slope: 0
    }
  }
  layer {
    name: "rpn_big_cls_score"
    type: "Convolution"
    bottom: "rpn_big_output_cls"
    top: "rpn_big_cls_score"
    param {
      lr_mult: 1
    }
    param {
      lr_mult: 2
    }
    convolution_param {
      num_output: 52
      pad: 0
      kernel_size: 3
      stride: 1
      weight_filler {
        type: "gaussian"
        mean: 0
        std: 0.01
      }
      bias_filler {
        type: "constant"
      }
    }
  }
  layer {
    name: "rpn_big_cls_score_reshape"
    type: "Reshape"
    bottom: "rpn_big_cls_score"
    top: "rpn_big_cls_score_reshape"
    reshape_param {
      shape {
        dim: 0
        dim: 2
        dim: -1
        dim: 0
      }
    }
  }
  layer {
    name: "rpn_big_cls_prob"
    type: "Softmax"
    bottom: "rpn_big_cls_score_reshape"
    top: "rpn_big_cls_prob"
  }
  layer {
    name: "rpn_big_cls_prob_reshape"
    type: "Reshape"
    bottom: "rpn_big_cls_prob"
    top: "rpn_big_cls_prob_reshape"
    reshape_param {
      shape {
        dim: 0
        dim: 52
        dim: -1
        dim: 0
      }
    }
  }
  layer {
    name: "rpn_big_anchor_target"
    type: "Python"
    bottom: "rpn_big_cls_score"
    bottom: "input_gt_boxes"
    bottom: "input_ignored_boxes"
    bottom: "input_im_info"
    bottom: "input_data"
    bottom: "rpn_big_cls_prob_reshape"
    top: "rpn_big_anchor_target_labels"
    top: "rpn_big_anchor_target_bbox_targets"
    top: "rpn_big_anchor_target_inside_weights"
    top: "rpn_big_anchor_target_outside_weights"
    python_param {
      module: "rpn.anchor_target_layer"
      layer: "AnchorTargetLayer"
      param_str: "{\"name\": \"rpn_big\", \"tn_fraction\": 0.2, \"feat_stride\": 16, \"square_targets\": true, \"anchor_ratios\": [1.0], \"positive_overlap\": 0.6, \"fg_fraction\": 0.5, \"anchor_scales\": [2.5, 3.025, 3.66025, 4.4289024999999995, 5.358972025, 6.484356150249999, 7.846070941802498, 9.493745839581022, 11.487432465893036, 13.899793283730574, 16.818749873313998, 20.350687346709933, 24.62433168951902, 29.795441344318014], \"batchsize\": 256, \"num_classes\": 1, \"anchor_shift_num_xy\": [[2, 2], [2, 2], [2, 2], [2, 2], [1, 1], [1, 1], [1, 1], [1, 1], [1, 1], [1, 1], [1, 1], [1, 1], [1, 1], [1, 1]], \"negative_overlap\": 0.4}"
    }
  }
  layer {
    name: "rpn_big_loss_cls"
    type: "SoftmaxWithLoss"
    bottom: "rpn_big_cls_score_reshape"
    bottom: "rpn_big_anchor_target_labels"
    top: "rpn_big_loss_cls"
    loss_weight: 1
    propagate_down: true
    propagate_down: false
    loss_param {
      ignore_label: -1
      normalization: VALID
    }
  }
  layer {
    name: "rpn_big_output_box"
    type: "Convolution"
    bottom: "rpn_big_conv2"
    top: "rpn_big_output_box"
    param {
      lr_mult: 1
    }
    param {
      lr_mult: 2
    }
    convolution_param {
      num_output: 384
      pad: 1
      kernel_size: 3
      stride: 1
      weight_filler {
        type: "gaussian"
        mean: 0
        std: 0.01
      }
      bias_filler {
        type: "constant"
      }
    }
  }
  layer {
    name: "rpn_big_output_box_relu"
    type: "ReLU"
    bottom: "rpn_big_output_box"
    top: "rpn_big_output_box"
    relu_param {
      negative_slope: 0
    }
  }
  layer {
    name: "rpn_big_bbox_pred"
    type: "Convolution"
    bottom: "rpn_big_output_box"
    top: "rpn_big_bbox_pred"
    param {
      lr_mult: 1
    }
    param {
      lr_mult: 2
    }
    convolution_param {
      num_output: 104
      pad: 0
      kernel_size: 3
      stride: 1
      weight_filler {
        type: "gaussian"
        mean: 0
        std: 0.01
      }
      bias_filler {
        type: "constant"
      }
    }
  }
  layer {
    name: "rpn_big_loss_bbox"
    type: "Python"
    bottom: "rpn_big_bbox_pred"
    bottom: "rpn_big_anchor_target_bbox_targets"
    bottom: "rpn_big_anchor_target_inside_weights"
    bottom: "rpn_big_anchor_target_outside_weights"
    top: "rpn_big_loss_bbox"
    loss_weight: 1
    python_param {
      module: "layers.smooth_l1_loss"
      layer: "SmoothL1LossLayer"
      param_str: "{\"sigma\": 3}"
    }
  }
  layer {
    name: "proposal"
    type: "Python"
    bottom: "rpn_big_cls_prob_reshape"
    bottom: "rpn_big_bbox_pred"
    bottom: "input_im_info"
    top: "rpn_rois"
    python_param {
      module: "rpn.proposal_layer"
      layer: "ProposalLayer"
      param_str: "\'feat_stride\': 16 ;\'scales\': !!python/tuple [4, 8, 16, 32]"
    }
  }
}
average_loss: 100
stepvalue: 70000
stepvalue: 120000
iter_size: 2
I0413 16:11:35.821945  8151 solver.cpp:86] Creating training net specified in net_param.
I0413 16:11:35.822562  8151 net.cpp:58] Initializing net from parameters: 
name: "GeneratedModel_13_04_2017_16_11"
state {
  phase: TRAIN
}
layer {
  name: "input"
  type: "Python"
  top: "input_data"
  top: "input_im_info"
  top: "input_gt_boxes"
  top: "input_ignored_boxes"
  python_param {
    module: "layers.roi_data_layer"
    layer: "RoIDataLayer"
    param_str: "{\"num_classes\": 2}"
  }
}
layer {
  name: "conv1_1"
  type: "Convolution"
  bottom: "input_data"
  top: "conv1_1"
  param {
    lr_mult: 0
    decay_mult: 0
  }
  param {
    lr_mult: 0
    decay_mult: 0
  }
  convolution_param {
    num_output: 64
    pad: 1
    kernel_size: 3
  }
}
layer {
  name: "relu1_1"
  type: "ReLU"
  bottom: "conv1_1"
  top: "conv1_1"
}
layer {
  name: "conv1_2"
  type: "Convolution"
  bottom: "conv1_1"
  top: "conv1_2"
  param {
    lr_mult: 0
    decay_mult: 0
  }
  param {
    lr_mult: 0
    decay_mult: 0
  }
  convolution_param {
    num_output: 64
    pad: 1
    kernel_size: 3
  }
}
layer {
  name: "relu1_2"
  type: "ReLU"
  bottom: "conv1_2"
  top: "conv1_2"
}
layer {
  name: "pool1"
  type: "Pooling"
  bottom: "conv1_2"
  top: "pool1"
  pooling_param {
    pool: MAX
    kernel_size: 2
    stride: 2
  }
}
layer {
  name: "conv2_1"
  type: "Convolution"
  bottom: "pool1"
  top: "conv2_1"
  param {
    lr_mult: 0
    decay_mult: 0
  }
  param {
    lr_mult: 0
    decay_mult: 0
  }
  convolution_param {
    num_output: 128
    pad: 1
    kernel_size: 3
  }
}
layer {
  name: "relu2_1"
  type: "ReLU"
  bottom: "conv2_1"
  top: "conv2_1"
}
layer {
  name: "conv2_2"
  type: "Convolution"
  bottom: "conv2_1"
  top: "conv2_2"
  param {
    lr_mult: 0
    decay_mult: 0
  }
  param {
    lr_mult: 0
    decay_mult: 0
  }
  convolution_param {
    num_output: 128
    pad: 1
    kernel_size: 3
  }
}
layer {
  name: "relu2_2"
  type: "ReLU"
  bottom: "conv2_2"
  top: "conv2_2"
}
layer {
  name: "pool2"
  type: "Pooling"
  bottom: "conv2_2"
  top: "pool2"
  pooling_param {
    pool: MAX
    kernel_size: 2
    stride: 2
  }
}
layer {
  name: "conv3_1"
  type: "Convolution"
  bottom: "pool2"
  top: "conv3_1"
  param {
    lr_mult: 1
  }
  param {
    lr_mult: 2
  }
  convolution_param {
    num_output: 256
    pad: 1
    kernel_size: 3
  }
}
layer {
  name: "relu3_1"
  type: "ReLU"
  bottom: "conv3_1"
  top: "conv3_1"
}
layer {
  name: "conv3_2"
  type: "Convolution"
  bottom: "conv3_1"
  top: "conv3_2"
  param {
    lr_mult: 1
  }
  param {
    lr_mult: 2
  }
  convolution_param {
    num_output: 256
    pad: 1
    kernel_size: 3
  }
}
layer {
  name: "relu3_2"
  type: "ReLU"
  bottom: "conv3_2"
  top: "conv3_2"
}
layer {
  name: "conv3_3"
  type: "Convolution"
  bottom: "conv3_2"
  top: "conv3_3"
  param {
    lr_mult: 1
  }
  param {
    lr_mult: 2
  }
  convolution_param {
    num_output: 256
    pad: 1
    kernel_size: 3
  }
}
layer {
  name: "relu3_3"
  type: "ReLU"
  bottom: "conv3_3"
  top: "conv3_3"
}
layer {
  name: "pool3"
  type: "Pooling"
  bottom: "conv3_3"
  top: "pool3"
  pooling_param {
    pool: MAX
    kernel_size: 2
    stride: 2
  }
}
layer {
  name: "conv4_1"
  type: "Convolution"
  bottom: "pool3"
  top: "conv4_1"
  param {
    lr_mult: 1
  }
  param {
    lr_mult: 2
  }
  convolution_param {
    num_output: 512
    pad: 1
    kernel_size: 3
  }
}
layer {
  name: "relu4_1"
  type: "ReLU"
  bottom: "conv4_1"
  top: "conv4_1"
}
layer {
  name: "conv4_2"
  type: "Convolution"
  bottom: "conv4_1"
  top: "conv4_2"
  param {
    lr_mult: 1
  }
  param {
    lr_mult: 2
  }
  convolution_param {
    num_output: 512
    pad: 1
    kernel_size: 3
  }
}
layer {
  name: "relu4_2"
  type: "ReLU"
  bottom: "conv4_2"
  top: "conv4_2"
}
layer {
  name: "conv4_3"
  type: "Convolution"
  bottom: "conv4_2"
  top: "conv4_3"
  param {
    lr_mult: 1
  }
  param {
    lr_mult: 2
  }
  convolution_param {
    num_output: 512
    pad: 1
    kernel_size: 3
  }
}
layer {
  name: "relu4_3"
  type: "ReLU"
  bottom: "conv4_3"
  top: "conv4_3"
}
layer {
  name: "pool4"
  type: "Pooling"
  bottom: "conv4_3"
  top: "pool4"
  pooling_param {
    pool: MAX
    kernel_size: 2
    stride: 2
  }
}
layer {
  name: "conv5_1"
  type: "Convolution"
  bottom: "pool4"
  top: "conv5_1"
  param {
    lr_mult: 1
  }
  param {
    lr_mult: 2
  }
  convolution_param {
    num_output: 512
    pad: 1
    kernel_size: 3
  }
}
layer {
  name: "relu5_1"
  type: "ReLU"
  bottom: "conv5_1"
  top: "conv5_1"
}
layer {
  name: "conv5_2"
  type: "Convolution"
  bottom: "conv5_1"
  top: "conv5_2"
  param {
    lr_mult: 1
  }
  param {
    lr_mult: 2
  }
  convolution_param {
    num_output: 512
    pad: 1
    kernel_size: 3
  }
}
layer {
  name: "relu5_2"
  type: "ReLU"
  bottom: "conv5_2"
  top: "conv5_2"
}
layer {
  name: "conv5_3"
  type: "Convolution"
  bottom: "conv5_2"
  top: "conv5_3"
  param {
    lr_mult: 1
  }
  param {
    lr_mult: 2
  }
  convolution_param {
    num_output: 512
    pad: 1
    kernel_size: 3
  }
}
layer {
  name: "relu5_3"
  type: "ReLU"
  bottom: "conv5_3"
  top: "conv5_3"
}
layer {
  name: "rpn_big_conv1"
  type: "Convolution"
  bottom: "conv5_3"
  top: "rpn_big_conv1"
  param {
    lr_mult: 1
  }
  param {
    lr_mult: 2
  }
  convolution_param {
    num_output: 512
    pad: 1
    kernel_size: 3
    stride: 1
    weight_filler {
      type: "gaussian"
      mean: 0
      std: 0.01
    }
    bias_filler {
      type: "constant"
    }
  }
}
layer {
  name: "rpn_big_conv1_relu"
  type: "ReLU"
  bottom: "rpn_big_conv1"
  top: "rpn_big_conv1"
  relu_param {
    negative_slope: 0
  }
}
layer {
  name: "rpn_big_conv2"
  type: "Convolution"
  bottom: "rpn_big_conv1"
  top: "rpn_big_conv2"
  param {
    lr_mult: 1
  }
  param {
    lr_mult: 2
  }
  convolution_param {
    num_output: 512
    pad: 1
    kernel_size: 3
    stride: 1
    weight_filler {
      type: "gaussian"
      mean: 0
      std: 0.01
    }
    bias_filler {
      type: "constant"
    }
  }
}
layer {
  name: "rpn_big_conv2_relu"
  type: "ReLU"
  bottom: "rpn_big_conv2"
  top: "rpn_big_conv2"
  relu_param {
    negative_slope: 0
  }
}
layer {
  name: "rpn_big_conv2_drop"
  type: "Dropout"
  bottom: "rpn_big_conv2"
  top: "rpn_big_conv2"
  dropout_param {
    dropout_ratio: 0.3
  }
}
layer {
  name: "rpn_big_output_cls"
  type: "Convolution"
  bottom: "rpn_big_conv2"
  top: "rpn_big_output_cls"
  param {
    lr_mult: 1
  }
  param {
    lr_mult: 2
  }
  convolution_param {
    num_output: 384
    pad: 1
    kernel_size: 3
    stride: 1
    weight_filler {
      type: "gaussian"
      mean: 0
      std: 0.01
    }
    bias_filler {
      type: "constant"
    }
  }
}
layer {
  name: "rpn_big_output_cls_relu"
  type: "ReLU"
  bottom: "rpn_big_output_cls"
  top: "rpn_big_output_cls"
  relu_param {
    negative_slope: 0
  }
}
layer {
  name: "rpn_big_cls_score"
  type: "Convolution"
  bottom: "rpn_big_output_cls"
  top: "rpn_big_cls_score"
  param {
    lr_mult: 1
  }
  param {
    lr_mult: 2
  }
  convolution_param {
    num_output: 52
    pad: 0
    kernel_size: 3
    stride: 1
    weight_filler {
      type: "gaussian"
      mean: 0
      std: 0.01
    }
    bias_filler {
      type: "constant"
    }
  }
}
layer {
  name: "rpn_big_cls_score_reshape"
  type: "Reshape"
  bottom: "rpn_big_cls_score"
  top: "rpn_big_cls_score_reshape"
  reshape_param {
    shape {
      dim: 0
      dim: 2
      dim: -1
      dim: 0
    }
  }
}
layer {
  name: "rpn_big_cls_prob"
  type: "Softmax"
  bottom: "rpn_big_cls_score_reshape"
  top: "rpn_big_cls_prob"
}
layer {
  name: "rpn_big_cls_prob_reshape"
  type: "Reshape"
  bottom: "rpn_big_cls_prob"
  top: "rpn_big_cls_prob_reshape"
  reshape_param {
    shape {
      dim: 0
      dim: 52
      dim: -1
      dim: 0
    }
  }
}
layer {
  name: "rpn_big_anchor_target"
  type: "Python"
  bottom: "rpn_big_cls_score"
  bottom: "input_gt_boxes"
  bottom: "input_ignored_boxes"
  bottom: "input_im_info"
  bottom: "input_data"
  bottom: "rpn_big_cls_prob_reshape"
  top: "rpn_big_anchor_target_labels"
  top: "rpn_big_anchor_target_bbox_targets"
  top: "rpn_big_anchor_target_inside_weights"
  top: "rpn_big_anchor_target_outside_weights"
  python_param {
    module: "rpn.anchor_target_layer"
    layer: "AnchorTargetLayer"
    param_str: "{\"name\": \"rpn_big\", \"tn_fraction\": 0.2, \"feat_stride\": 16, \"square_targets\": true, \"anchor_ratios\": [1.0], \"positive_overlap\": 0.6, \"fg_fraction\": 0.5, \"anchor_scales\": [2.5, 3.025, 3.66025, 4.4289024999999995, 5.358972025, 6.484356150249999, 7.846070941802498, 9.493745839581022, 11.487432465893036, 13.899793283730574, 16.818749873313998, 20.350687346709933, 24.62433168951902, 29.795441344318014], \"batchsize\": 256, \"num_classes\": 1, \"anchor_shift_num_xy\": [[2, 2], [2, 2], [2, 2], [2, 2], [1, 1], [1, 1], [1, 1], [1, 1], [1, 1], [1, 1], [1, 1], [1, 1], [1, 1], [1, 1]], \"negative_overlap\": 0.4}"
  }
}
layer {
  name: "rpn_big_loss_cls"
  type: "SoftmaxWithLoss"
  bottom: "rpn_big_cls_score_reshape"
  bottom: "rpn_big_anchor_target_labels"
  top: "rpn_big_loss_cls"
  loss_weight: 1
  propagate_down: true
  propagate_down: false
  loss_param {
    ignore_label: -1
    normalization: VALID
  }
}
layer {
  name: "rpn_big_output_box"
  type: "Convolution"
  bottom: "rpn_big_conv2"
  top: "rpn_big_output_box"
  param {
    lr_mult: 1
  }
  param {
    lr_mult: 2
  }
  convolution_param {
    num_output: 384
    pad: 1
    kernel_size: 3
    stride: 1
    weight_filler {
      type: "gaussian"
      mean: 0
      std: 0.01
    }
    bias_filler {
      type: "constant"
    }
  }
}
layer {
  name: "rpn_big_output_box_relu"
  type: "ReLU"
  bottom: "rpn_big_output_box"
  top: "rpn_big_output_box"
  relu_param {
    negative_slope: 0
  }
}
layer {
  name: "rpn_big_bbox_pred"
  type: "Convolution"
  bottom: "rpn_big_output_box"
  top: "rpn_big_bbox_pred"
  param {
    lr_mult: 1
  }
  param {
    lr_mult: 2
  }
  convolution_param {
    num_output: 104
    pad: 0
    kernel_size: 3
    stride: 1
    weight_filler {
      type: "gaussian"
      mean: 0
      std: 0.01
    }
    bias_filler {
      type: "constant"
    }
  }
}
layer {
  name: "rpn_big_loss_bbox"
  type: "Python"
  bottom: "rpn_big_bbox_pred"
  bottom: "rpn_big_anchor_target_bbox_targets"
  bottom: "rpn_big_anchor_target_inside_weights"
  bottom: "rpn_big_anchor_target_outside_weights"
  top: "rpn_big_loss_bbox"
  loss_weight: 1
  python_param {
    module: "layers.smooth_l1_loss"
    layer: "SmoothL1LossLayer"
    param_str: "{\"sigma\": 3}"
  }
}
layer {
  name: "proposal"
  type: "Python"
  bottom: "rpn_big_cls_prob_reshape"
  bottom: "rpn_big_bbox_pred"
  bottom: "input_im_info"
  top: "rpn_rois"
  python_param {
    module: "rpn.proposal_layer"
    layer: "ProposalLayer"
    param_str: "\'feat_stride\': 16 ;\'scales\': !!python/tuple [4, 8, 16, 32]"
  }
}
I0413 16:11:35.822849  8151 layer_factory.hpp:77] Creating layer input
I0413 16:11:35.824635  8151 net.cpp:100] Creating Layer input
I0413 16:11:35.824651  8151 net.cpp:408] input -> input_data
I0413 16:11:35.824667  8151 net.cpp:408] input -> input_im_info
I0413 16:11:35.824678  8151 net.cpp:408] input -> input_gt_boxes
I0413 16:11:35.824689  8151 net.cpp:408] input -> input_ignored_boxes
RoiDataLayer: name_to_top: {'data': 0, 'ignored_boxes': 3, 'gt_boxes': 2, 'im_info': 1}
I0413 16:11:36.138495  8151 net.cpp:150] Setting up input
I0413 16:11:36.138528  8151 net.cpp:157] Top shape: 1 3 1000 1500 (4500000)
I0413 16:11:36.138537  8151 net.cpp:157] Top shape: 1 3 (3)
I0413 16:11:36.138545  8151 net.cpp:157] Top shape: 1 5 (5)
I0413 16:11:36.138551  8151 net.cpp:157] Top shape: 1 5 (5)
I0413 16:11:36.138556  8151 net.cpp:165] Memory required for data: 18000052
I0413 16:11:36.138564  8151 layer_factory.hpp:77] Creating layer input_data_input_0_split
I0413 16:11:36.138581  8151 net.cpp:100] Creating Layer input_data_input_0_split
I0413 16:11:36.138597  8151 net.cpp:434] input_data_input_0_split <- input_data
I0413 16:11:36.138608  8151 net.cpp:408] input_data_input_0_split -> input_data_input_0_split_0
I0413 16:11:36.138625  8151 net.cpp:408] input_data_input_0_split -> input_data_input_0_split_1
I0413 16:11:36.138680  8151 net.cpp:150] Setting up input_data_input_0_split
I0413 16:11:36.138691  8151 net.cpp:157] Top shape: 1 3 1000 1500 (4500000)
I0413 16:11:36.138707  8151 net.cpp:157] Top shape: 1 3 1000 1500 (4500000)
I0413 16:11:36.138711  8151 net.cpp:165] Memory required for data: 54000052
I0413 16:11:36.138717  8151 layer_factory.hpp:77] Creating layer input_im_info_input_1_split
I0413 16:11:36.138725  8151 net.cpp:100] Creating Layer input_im_info_input_1_split
I0413 16:11:36.138731  8151 net.cpp:434] input_im_info_input_1_split <- input_im_info
I0413 16:11:36.138739  8151 net.cpp:408] input_im_info_input_1_split -> input_im_info_input_1_split_0
I0413 16:11:36.138748  8151 net.cpp:408] input_im_info_input_1_split -> input_im_info_input_1_split_1
I0413 16:11:36.138787  8151 net.cpp:150] Setting up input_im_info_input_1_split
I0413 16:11:36.138797  8151 net.cpp:157] Top shape: 1 3 (3)
I0413 16:11:36.138803  8151 net.cpp:157] Top shape: 1 3 (3)
I0413 16:11:36.138808  8151 net.cpp:165] Memory required for data: 54000076
I0413 16:11:36.138813  8151 layer_factory.hpp:77] Creating layer conv1_1
I0413 16:11:36.138826  8151 net.cpp:100] Creating Layer conv1_1
I0413 16:11:36.138833  8151 net.cpp:434] conv1_1 <- input_data_input_0_split_0
I0413 16:11:36.138842  8151 net.cpp:408] conv1_1 -> conv1_1
I0413 16:11:36.142099  8151 net.cpp:150] Setting up conv1_1
I0413 16:11:36.142138  8151 net.cpp:157] Top shape: 1 64 1000 1500 (96000000)
I0413 16:11:36.142143  8151 net.cpp:165] Memory required for data: 438000076
I0413 16:11:36.142163  8151 layer_factory.hpp:77] Creating layer relu1_1
I0413 16:11:36.142179  8151 net.cpp:100] Creating Layer relu1_1
I0413 16:11:36.142187  8151 net.cpp:434] relu1_1 <- conv1_1
I0413 16:11:36.142199  8151 net.cpp:395] relu1_1 -> conv1_1 (in-place)
I0413 16:11:36.142215  8151 net.cpp:150] Setting up relu1_1
I0413 16:11:36.142222  8151 net.cpp:157] Top shape: 1 64 1000 1500 (96000000)
I0413 16:11:36.142226  8151 net.cpp:165] Memory required for data: 822000076
I0413 16:11:36.142231  8151 layer_factory.hpp:77] Creating layer conv1_2
I0413 16:11:36.142244  8151 net.cpp:100] Creating Layer conv1_2
I0413 16:11:36.142251  8151 net.cpp:434] conv1_2 <- conv1_1
I0413 16:11:36.142259  8151 net.cpp:408] conv1_2 -> conv1_2
I0413 16:11:36.145617  8151 net.cpp:150] Setting up conv1_2
I0413 16:11:36.145661  8151 net.cpp:157] Top shape: 1 64 1000 1500 (96000000)
I0413 16:11:36.145665  8151 net.cpp:165] Memory required for data: 1206000076
I0413 16:11:36.145684  8151 layer_factory.hpp:77] Creating layer relu1_2
I0413 16:11:36.145696  8151 net.cpp:100] Creating Layer relu1_2
I0413 16:11:36.145704  8151 net.cpp:434] relu1_2 <- conv1_2
I0413 16:11:36.145715  8151 net.cpp:395] relu1_2 -> conv1_2 (in-place)
I0413 16:11:36.145730  8151 net.cpp:150] Setting up relu1_2
I0413 16:11:36.145751  8151 net.cpp:157] Top shape: 1 64 1000 1500 (96000000)
I0413 16:11:36.145761  8151 net.cpp:165] Memory required for data: 1590000076
I0413 16:11:36.145766  8151 layer_factory.hpp:77] Creating layer pool1
I0413 16:11:36.145776  8151 net.cpp:100] Creating Layer pool1
I0413 16:11:36.145783  8151 net.cpp:434] pool1 <- conv1_2
I0413 16:11:36.145792  8151 net.cpp:408] pool1 -> pool1
I0413 16:11:36.145866  8151 net.cpp:150] Setting up pool1
I0413 16:11:36.145874  8151 net.cpp:157] Top shape: 1 64 500 750 (24000000)
I0413 16:11:36.145877  8151 net.cpp:165] Memory required for data: 1686000076
I0413 16:11:36.145880  8151 layer_factory.hpp:77] Creating layer conv2_1
I0413 16:11:36.145894  8151 net.cpp:100] Creating Layer conv2_1
I0413 16:11:36.145897  8151 net.cpp:434] conv2_1 <- pool1
I0413 16:11:36.145907  8151 net.cpp:408] conv2_1 -> conv2_1
I0413 16:11:36.147094  8151 net.cpp:150] Setting up conv2_1
I0413 16:11:36.147114  8151 net.cpp:157] Top shape: 1 128 500 750 (48000000)
I0413 16:11:36.147119  8151 net.cpp:165] Memory required for data: 1878000076
I0413 16:11:36.147140  8151 layer_factory.hpp:77] Creating layer relu2_1
I0413 16:11:36.147147  8151 net.cpp:100] Creating Layer relu2_1
I0413 16:11:36.147151  8151 net.cpp:434] relu2_1 <- conv2_1
I0413 16:11:36.147157  8151 net.cpp:395] relu2_1 -> conv2_1 (in-place)
I0413 16:11:36.147164  8151 net.cpp:150] Setting up relu2_1
I0413 16:11:36.147168  8151 net.cpp:157] Top shape: 1 128 500 750 (48000000)
I0413 16:11:36.147171  8151 net.cpp:165] Memory required for data: 2070000076
I0413 16:11:36.147174  8151 layer_factory.hpp:77] Creating layer conv2_2
I0413 16:11:36.147182  8151 net.cpp:100] Creating Layer conv2_2
I0413 16:11:36.147186  8151 net.cpp:434] conv2_2 <- conv2_1
I0413 16:11:36.147192  8151 net.cpp:408] conv2_2 -> conv2_2
I0413 16:11:36.148116  8151 net.cpp:150] Setting up conv2_2
I0413 16:11:36.148140  8151 net.cpp:157] Top shape: 1 128 500 750 (48000000)
I0413 16:11:36.148144  8151 net.cpp:165] Memory required for data: 2262000076
I0413 16:11:36.148161  8151 layer_factory.hpp:77] Creating layer relu2_2
I0413 16:11:36.148172  8151 net.cpp:100] Creating Layer relu2_2
I0413 16:11:36.148176  8151 net.cpp:434] relu2_2 <- conv2_2
I0413 16:11:36.148183  8151 net.cpp:395] relu2_2 -> conv2_2 (in-place)
I0413 16:11:36.148192  8151 net.cpp:150] Setting up relu2_2
I0413 16:11:36.148196  8151 net.cpp:157] Top shape: 1 128 500 750 (48000000)
I0413 16:11:36.148200  8151 net.cpp:165] Memory required for data: 2454000076
I0413 16:11:36.148202  8151 layer_factory.hpp:77] Creating layer pool2
I0413 16:11:36.148210  8151 net.cpp:100] Creating Layer pool2
I0413 16:11:36.148212  8151 net.cpp:434] pool2 <- conv2_2
I0413 16:11:36.148217  8151 net.cpp:408] pool2 -> pool2
I0413 16:11:36.148259  8151 net.cpp:150] Setting up pool2
I0413 16:11:36.148267  8151 net.cpp:157] Top shape: 1 128 250 375 (12000000)
I0413 16:11:36.148270  8151 net.cpp:165] Memory required for data: 2502000076
I0413 16:11:36.148273  8151 layer_factory.hpp:77] Creating layer conv3_1
I0413 16:11:36.148283  8151 net.cpp:100] Creating Layer conv3_1
I0413 16:11:36.148285  8151 net.cpp:434] conv3_1 <- pool2
I0413 16:11:36.148291  8151 net.cpp:408] conv3_1 -> conv3_1
I0413 16:11:36.149371  8151 net.cpp:150] Setting up conv3_1
I0413 16:11:36.149399  8151 net.cpp:157] Top shape: 1 256 250 375 (24000000)
I0413 16:11:36.149410  8151 net.cpp:165] Memory required for data: 2598000076
I0413 16:11:36.149423  8151 layer_factory.hpp:77] Creating layer relu3_1
I0413 16:11:36.149431  8151 net.cpp:100] Creating Layer relu3_1
I0413 16:11:36.149435  8151 net.cpp:434] relu3_1 <- conv3_1
I0413 16:11:36.149443  8151 net.cpp:395] relu3_1 -> conv3_1 (in-place)
I0413 16:11:36.149452  8151 net.cpp:150] Setting up relu3_1
I0413 16:11:36.149456  8151 net.cpp:157] Top shape: 1 256 250 375 (24000000)
I0413 16:11:36.149459  8151 net.cpp:165] Memory required for data: 2694000076
I0413 16:11:36.149462  8151 layer_factory.hpp:77] Creating layer conv3_2
I0413 16:11:36.149471  8151 net.cpp:100] Creating Layer conv3_2
I0413 16:11:36.149474  8151 net.cpp:434] conv3_2 <- conv3_1
I0413 16:11:36.149480  8151 net.cpp:408] conv3_2 -> conv3_2
I0413 16:11:36.150629  8151 net.cpp:150] Setting up conv3_2
I0413 16:11:36.150656  8151 net.cpp:157] Top shape: 1 256 250 375 (24000000)
I0413 16:11:36.150668  8151 net.cpp:165] Memory required for data: 2790000076
I0413 16:11:36.150677  8151 layer_factory.hpp:77] Creating layer relu3_2
I0413 16:11:36.150689  8151 net.cpp:100] Creating Layer relu3_2
I0413 16:11:36.150694  8151 net.cpp:434] relu3_2 <- conv3_2
I0413 16:11:36.150701  8151 net.cpp:395] relu3_2 -> conv3_2 (in-place)
I0413 16:11:36.150709  8151 net.cpp:150] Setting up relu3_2
I0413 16:11:36.150714  8151 net.cpp:157] Top shape: 1 256 250 375 (24000000)
I0413 16:11:36.150717  8151 net.cpp:165] Memory required for data: 2886000076
I0413 16:11:36.150720  8151 layer_factory.hpp:77] Creating layer conv3_3
I0413 16:11:36.150729  8151 net.cpp:100] Creating Layer conv3_3
I0413 16:11:36.150732  8151 net.cpp:434] conv3_3 <- conv3_2
I0413 16:11:36.150738  8151 net.cpp:408] conv3_3 -> conv3_3
I0413 16:11:36.152246  8151 net.cpp:150] Setting up conv3_3
I0413 16:11:36.152279  8151 net.cpp:157] Top shape: 1 256 250 375 (24000000)
I0413 16:11:36.152292  8151 net.cpp:165] Memory required for data: 2982000076
I0413 16:11:36.152302  8151 layer_factory.hpp:77] Creating layer relu3_3
I0413 16:11:36.152312  8151 net.cpp:100] Creating Layer relu3_3
I0413 16:11:36.152315  8151 net.cpp:434] relu3_3 <- conv3_3
I0413 16:11:36.152323  8151 net.cpp:395] relu3_3 -> conv3_3 (in-place)
I0413 16:11:36.152334  8151 net.cpp:150] Setting up relu3_3
I0413 16:11:36.152339  8151 net.cpp:157] Top shape: 1 256 250 375 (24000000)
I0413 16:11:36.152343  8151 net.cpp:165] Memory required for data: 3078000076
I0413 16:11:36.152345  8151 layer_factory.hpp:77] Creating layer pool3
I0413 16:11:36.152350  8151 net.cpp:100] Creating Layer pool3
I0413 16:11:36.152354  8151 net.cpp:434] pool3 <- conv3_3
I0413 16:11:36.152359  8151 net.cpp:408] pool3 -> pool3
I0413 16:11:36.152403  8151 net.cpp:150] Setting up pool3
I0413 16:11:36.152411  8151 net.cpp:157] Top shape: 1 256 125 188 (6016000)
I0413 16:11:36.152415  8151 net.cpp:165] Memory required for data: 3102064076
I0413 16:11:36.152417  8151 layer_factory.hpp:77] Creating layer conv4_1
I0413 16:11:36.152426  8151 net.cpp:100] Creating Layer conv4_1
I0413 16:11:36.152431  8151 net.cpp:434] conv4_1 <- pool3
I0413 16:11:36.152437  8151 net.cpp:408] conv4_1 -> conv4_1
I0413 16:11:36.155021  8151 net.cpp:150] Setting up conv4_1
I0413 16:11:36.155055  8151 net.cpp:157] Top shape: 1 512 125 188 (12032000)
I0413 16:11:36.155066  8151 net.cpp:165] Memory required for data: 3150192076
I0413 16:11:36.155077  8151 layer_factory.hpp:77] Creating layer relu4_1
I0413 16:11:36.155087  8151 net.cpp:100] Creating Layer relu4_1
I0413 16:11:36.155092  8151 net.cpp:434] relu4_1 <- conv4_1
I0413 16:11:36.155099  8151 net.cpp:395] relu4_1 -> conv4_1 (in-place)
I0413 16:11:36.155117  8151 net.cpp:150] Setting up relu4_1
I0413 16:11:36.155124  8151 net.cpp:157] Top shape: 1 512 125 188 (12032000)
I0413 16:11:36.155133  8151 net.cpp:165] Memory required for data: 3198320076
I0413 16:11:36.155139  8151 layer_factory.hpp:77] Creating layer conv4_2
I0413 16:11:36.155155  8151 net.cpp:100] Creating Layer conv4_2
I0413 16:11:36.155161  8151 net.cpp:434] conv4_2 <- conv4_1
I0413 16:11:36.155171  8151 net.cpp:408] conv4_2 -> conv4_2
I0413 16:11:36.159282  8151 net.cpp:150] Setting up conv4_2
I0413 16:11:36.159317  8151 net.cpp:157] Top shape: 1 512 125 188 (12032000)
I0413 16:11:36.159322  8151 net.cpp:165] Memory required for data: 3246448076
I0413 16:11:36.159337  8151 layer_factory.hpp:77] Creating layer relu4_2
I0413 16:11:36.159348  8151 net.cpp:100] Creating Layer relu4_2
I0413 16:11:36.159351  8151 net.cpp:434] relu4_2 <- conv4_2
I0413 16:11:36.159360  8151 net.cpp:395] relu4_2 -> conv4_2 (in-place)
I0413 16:11:36.159374  8151 net.cpp:150] Setting up relu4_2
I0413 16:11:36.159380  8151 net.cpp:157] Top shape: 1 512 125 188 (12032000)
I0413 16:11:36.159385  8151 net.cpp:165] Memory required for data: 3294576076
I0413 16:11:36.159390  8151 layer_factory.hpp:77] Creating layer conv4_3
I0413 16:11:36.159405  8151 net.cpp:100] Creating Layer conv4_3
I0413 16:11:36.159411  8151 net.cpp:434] conv4_3 <- conv4_2
I0413 16:11:36.159417  8151 net.cpp:408] conv4_3 -> conv4_3
I0413 16:11:36.163820  8151 net.cpp:150] Setting up conv4_3
I0413 16:11:36.163853  8151 net.cpp:157] Top shape: 1 512 125 188 (12032000)
I0413 16:11:36.163857  8151 net.cpp:165] Memory required for data: 3342704076
I0413 16:11:36.163871  8151 layer_factory.hpp:77] Creating layer relu4_3
I0413 16:11:36.163884  8151 net.cpp:100] Creating Layer relu4_3
I0413 16:11:36.163895  8151 net.cpp:434] relu4_3 <- conv4_3
I0413 16:11:36.163910  8151 net.cpp:395] relu4_3 -> conv4_3 (in-place)
I0413 16:11:36.163925  8151 net.cpp:150] Setting up relu4_3
I0413 16:11:36.163934  8151 net.cpp:157] Top shape: 1 512 125 188 (12032000)
I0413 16:11:36.163939  8151 net.cpp:165] Memory required for data: 3390832076
I0413 16:11:36.163945  8151 layer_factory.hpp:77] Creating layer pool4
I0413 16:11:36.163954  8151 net.cpp:100] Creating Layer pool4
I0413 16:11:36.163960  8151 net.cpp:434] pool4 <- conv4_3
I0413 16:11:36.163969  8151 net.cpp:408] pool4 -> pool4
I0413 16:11:36.164021  8151 net.cpp:150] Setting up pool4
I0413 16:11:36.164033  8151 net.cpp:157] Top shape: 1 512 63 94 (3032064)
I0413 16:11:36.164039  8151 net.cpp:165] Memory required for data: 3402960332
I0413 16:11:36.164044  8151 layer_factory.hpp:77] Creating layer conv5_1
I0413 16:11:36.164060  8151 net.cpp:100] Creating Layer conv5_1
I0413 16:11:36.164067  8151 net.cpp:434] conv5_1 <- pool4
I0413 16:11:36.164078  8151 net.cpp:408] conv5_1 -> conv5_1
I0413 16:11:36.169174  8151 net.cpp:150] Setting up conv5_1
I0413 16:11:36.169203  8151 net.cpp:157] Top shape: 1 512 63 94 (3032064)
I0413 16:11:36.169216  8151 net.cpp:165] Memory required for data: 3415088588
I0413 16:11:36.169226  8151 layer_factory.hpp:77] Creating layer relu5_1
I0413 16:11:36.169239  8151 net.cpp:100] Creating Layer relu5_1
I0413 16:11:36.169247  8151 net.cpp:434] relu5_1 <- conv5_1
I0413 16:11:36.169256  8151 net.cpp:395] relu5_1 -> conv5_1 (in-place)
I0413 16:11:36.169271  8151 net.cpp:150] Setting up relu5_1
I0413 16:11:36.169282  8151 net.cpp:157] Top shape: 1 512 63 94 (3032064)
I0413 16:11:36.169289  8151 net.cpp:165] Memory required for data: 3427216844
I0413 16:11:36.169296  8151 layer_factory.hpp:77] Creating layer conv5_2
I0413 16:11:36.169312  8151 net.cpp:100] Creating Layer conv5_2
I0413 16:11:36.169318  8151 net.cpp:434] conv5_2 <- conv5_1
I0413 16:11:36.169328  8151 net.cpp:408] conv5_2 -> conv5_2
I0413 16:11:36.173646  8151 net.cpp:150] Setting up conv5_2
I0413 16:11:36.173676  8151 net.cpp:157] Top shape: 1 512 63 94 (3032064)
I0413 16:11:36.173689  8151 net.cpp:165] Memory required for data: 3439345100
I0413 16:11:36.173699  8151 layer_factory.hpp:77] Creating layer relu5_2
I0413 16:11:36.173712  8151 net.cpp:100] Creating Layer relu5_2
I0413 16:11:36.173718  8151 net.cpp:434] relu5_2 <- conv5_2
I0413 16:11:36.173729  8151 net.cpp:395] relu5_2 -> conv5_2 (in-place)
I0413 16:11:36.173743  8151 net.cpp:150] Setting up relu5_2
I0413 16:11:36.173754  8151 net.cpp:157] Top shape: 1 512 63 94 (3032064)
I0413 16:11:36.173761  8151 net.cpp:165] Memory required for data: 3451473356
I0413 16:11:36.173768  8151 layer_factory.hpp:77] Creating layer conv5_3
I0413 16:11:36.173781  8151 net.cpp:100] Creating Layer conv5_3
I0413 16:11:36.173789  8151 net.cpp:434] conv5_3 <- conv5_2
I0413 16:11:36.173799  8151 net.cpp:408] conv5_3 -> conv5_3
I0413 16:11:36.178141  8151 net.cpp:150] Setting up conv5_3
I0413 16:11:36.178170  8151 net.cpp:157] Top shape: 1 512 63 94 (3032064)
I0413 16:11:36.178174  8151 net.cpp:165] Memory required for data: 3463601612
I0413 16:11:36.178184  8151 layer_factory.hpp:77] Creating layer relu5_3
I0413 16:11:36.178205  8151 net.cpp:100] Creating Layer relu5_3
I0413 16:11:36.178212  8151 net.cpp:434] relu5_3 <- conv5_3
I0413 16:11:36.178221  8151 net.cpp:395] relu5_3 -> conv5_3 (in-place)
I0413 16:11:36.178246  8151 net.cpp:150] Setting up relu5_3
I0413 16:11:36.178256  8151 net.cpp:157] Top shape: 1 512 63 94 (3032064)
I0413 16:11:36.178262  8151 net.cpp:165] Memory required for data: 3475729868
I0413 16:11:36.178269  8151 layer_factory.hpp:77] Creating layer rpn_big_conv1
I0413 16:11:36.178287  8151 net.cpp:100] Creating Layer rpn_big_conv1
I0413 16:11:36.178293  8151 net.cpp:434] rpn_big_conv1 <- conv5_3
I0413 16:11:36.178305  8151 net.cpp:408] rpn_big_conv1 -> rpn_big_conv1
I0413 16:11:36.204332  8151 net.cpp:150] Setting up rpn_big_conv1
I0413 16:11:36.204361  8151 net.cpp:157] Top shape: 1 512 63 94 (3032064)
I0413 16:11:36.204365  8151 net.cpp:165] Memory required for data: 3487858124
I0413 16:11:36.204376  8151 layer_factory.hpp:77] Creating layer rpn_big_conv1_relu
I0413 16:11:36.204391  8151 net.cpp:100] Creating Layer rpn_big_conv1_relu
I0413 16:11:36.204398  8151 net.cpp:434] rpn_big_conv1_relu <- rpn_big_conv1
I0413 16:11:36.204409  8151 net.cpp:395] rpn_big_conv1_relu -> rpn_big_conv1 (in-place)
I0413 16:11:36.204422  8151 net.cpp:150] Setting up rpn_big_conv1_relu
I0413 16:11:36.204430  8151 net.cpp:157] Top shape: 1 512 63 94 (3032064)
I0413 16:11:36.204435  8151 net.cpp:165] Memory required for data: 3499986380
I0413 16:11:36.204442  8151 layer_factory.hpp:77] Creating layer rpn_big_conv2
I0413 16:11:36.204457  8151 net.cpp:100] Creating Layer rpn_big_conv2
I0413 16:11:36.204463  8151 net.cpp:434] rpn_big_conv2 <- rpn_big_conv1
I0413 16:11:36.204473  8151 net.cpp:408] rpn_big_conv2 -> rpn_big_conv2
I0413 16:11:36.229889  8151 net.cpp:150] Setting up rpn_big_conv2
I0413 16:11:36.229920  8151 net.cpp:157] Top shape: 1 512 63 94 (3032064)
I0413 16:11:36.229933  8151 net.cpp:165] Memory required for data: 3512114636
I0413 16:11:36.229943  8151 layer_factory.hpp:77] Creating layer rpn_big_conv2_relu
I0413 16:11:36.229955  8151 net.cpp:100] Creating Layer rpn_big_conv2_relu
I0413 16:11:36.229960  8151 net.cpp:434] rpn_big_conv2_relu <- rpn_big_conv2
I0413 16:11:36.229971  8151 net.cpp:395] rpn_big_conv2_relu -> rpn_big_conv2 (in-place)
I0413 16:11:36.229985  8151 net.cpp:150] Setting up rpn_big_conv2_relu
I0413 16:11:36.229992  8151 net.cpp:157] Top shape: 1 512 63 94 (3032064)
I0413 16:11:36.229997  8151 net.cpp:165] Memory required for data: 3524242892
I0413 16:11:36.230003  8151 layer_factory.hpp:77] Creating layer rpn_big_conv2_drop
I0413 16:11:36.230015  8151 net.cpp:100] Creating Layer rpn_big_conv2_drop
I0413 16:11:36.230021  8151 net.cpp:434] rpn_big_conv2_drop <- rpn_big_conv2
I0413 16:11:36.230029  8151 net.cpp:395] rpn_big_conv2_drop -> rpn_big_conv2 (in-place)
I0413 16:11:36.230062  8151 net.cpp:150] Setting up rpn_big_conv2_drop
I0413 16:11:36.230074  8151 net.cpp:157] Top shape: 1 512 63 94 (3032064)
I0413 16:11:36.230080  8151 net.cpp:165] Memory required for data: 3536371148
I0413 16:11:36.230085  8151 layer_factory.hpp:77] Creating layer rpn_big_conv2_rpn_big_conv2_drop_0_split
I0413 16:11:36.230094  8151 net.cpp:100] Creating Layer rpn_big_conv2_rpn_big_conv2_drop_0_split
I0413 16:11:36.230100  8151 net.cpp:434] rpn_big_conv2_rpn_big_conv2_drop_0_split <- rpn_big_conv2
I0413 16:11:36.230111  8151 net.cpp:408] rpn_big_conv2_rpn_big_conv2_drop_0_split -> rpn_big_conv2_rpn_big_conv2_drop_0_split_0
I0413 16:11:36.230123  8151 net.cpp:408] rpn_big_conv2_rpn_big_conv2_drop_0_split -> rpn_big_conv2_rpn_big_conv2_drop_0_split_1
I0413 16:11:36.230170  8151 net.cpp:150] Setting up rpn_big_conv2_rpn_big_conv2_drop_0_split
I0413 16:11:36.230181  8151 net.cpp:157] Top shape: 1 512 63 94 (3032064)
I0413 16:11:36.230188  8151 net.cpp:157] Top shape: 1 512 63 94 (3032064)
I0413 16:11:36.230195  8151 net.cpp:165] Memory required for data: 3560627660
I0413 16:11:36.230201  8151 layer_factory.hpp:77] Creating layer rpn_big_output_cls
I0413 16:11:36.230218  8151 net.cpp:100] Creating Layer rpn_big_output_cls
I0413 16:11:36.230226  8151 net.cpp:434] rpn_big_output_cls <- rpn_big_conv2_rpn_big_conv2_drop_0_split_0
I0413 16:11:36.230237  8151 net.cpp:408] rpn_big_output_cls -> rpn_big_output_cls
I0413 16:11:36.249552  8151 net.cpp:150] Setting up rpn_big_output_cls
I0413 16:11:36.249580  8151 net.cpp:157] Top shape: 1 384 63 94 (2274048)
I0413 16:11:36.249593  8151 net.cpp:165] Memory required for data: 3569723852
I0413 16:11:36.249603  8151 layer_factory.hpp:77] Creating layer rpn_big_output_cls_relu
I0413 16:11:36.249614  8151 net.cpp:100] Creating Layer rpn_big_output_cls_relu
I0413 16:11:36.249619  8151 net.cpp:434] rpn_big_output_cls_relu <- rpn_big_output_cls
I0413 16:11:36.249630  8151 net.cpp:395] rpn_big_output_cls_relu -> rpn_big_output_cls (in-place)
I0413 16:11:36.249645  8151 net.cpp:150] Setting up rpn_big_output_cls_relu
I0413 16:11:36.249656  8151 net.cpp:157] Top shape: 1 384 63 94 (2274048)
I0413 16:11:36.249660  8151 net.cpp:165] Memory required for data: 3578820044
I0413 16:11:36.249665  8151 layer_factory.hpp:77] Creating layer rpn_big_cls_score
I0413 16:11:36.249680  8151 net.cpp:100] Creating Layer rpn_big_cls_score
I0413 16:11:36.249687  8151 net.cpp:434] rpn_big_cls_score <- rpn_big_output_cls
I0413 16:11:36.249699  8151 net.cpp:408] rpn_big_cls_score -> rpn_big_cls_score
I0413 16:11:36.252115  8151 net.cpp:150] Setting up rpn_big_cls_score
I0413 16:11:36.252130  8151 net.cpp:157] Top shape: 1 52 61 92 (291824)
I0413 16:11:36.252133  8151 net.cpp:165] Memory required for data: 3579987340
I0413 16:11:36.252154  8151 layer_factory.hpp:77] Creating layer rpn_big_cls_score_rpn_big_cls_score_0_split
I0413 16:11:36.252167  8151 net.cpp:100] Creating Layer rpn_big_cls_score_rpn_big_cls_score_0_split
I0413 16:11:36.252176  8151 net.cpp:434] rpn_big_cls_score_rpn_big_cls_score_0_split <- rpn_big_cls_score
I0413 16:11:36.252185  8151 net.cpp:408] rpn_big_cls_score_rpn_big_cls_score_0_split -> rpn_big_cls_score_rpn_big_cls_score_0_split_0
I0413 16:11:36.252199  8151 net.cpp:408] rpn_big_cls_score_rpn_big_cls_score_0_split -> rpn_big_cls_score_rpn_big_cls_score_0_split_1
I0413 16:11:36.252255  8151 net.cpp:150] Setting up rpn_big_cls_score_rpn_big_cls_score_0_split
I0413 16:11:36.252267  8151 net.cpp:157] Top shape: 1 52 61 92 (291824)
I0413 16:11:36.252276  8151 net.cpp:157] Top shape: 1 52 61 92 (291824)
I0413 16:11:36.252281  8151 net.cpp:165] Memory required for data: 3582321932
I0413 16:11:36.252286  8151 layer_factory.hpp:77] Creating layer rpn_big_cls_score_reshape
I0413 16:11:36.252298  8151 net.cpp:100] Creating Layer rpn_big_cls_score_reshape
I0413 16:11:36.252306  8151 net.cpp:434] rpn_big_cls_score_reshape <- rpn_big_cls_score_rpn_big_cls_score_0_split_0
I0413 16:11:36.252316  8151 net.cpp:408] rpn_big_cls_score_reshape -> rpn_big_cls_score_reshape
I0413 16:11:36.252352  8151 net.cpp:150] Setting up rpn_big_cls_score_reshape
I0413 16:11:36.252362  8151 net.cpp:157] Top shape: 1 2 1586 92 (291824)
I0413 16:11:36.252368  8151 net.cpp:165] Memory required for data: 3583489228
I0413 16:11:36.252374  8151 layer_factory.hpp:77] Creating layer rpn_big_cls_score_reshape_rpn_big_cls_score_reshape_0_split
I0413 16:11:36.252387  8151 net.cpp:100] Creating Layer rpn_big_cls_score_reshape_rpn_big_cls_score_reshape_0_split
I0413 16:11:36.252393  8151 net.cpp:434] rpn_big_cls_score_reshape_rpn_big_cls_score_reshape_0_split <- rpn_big_cls_score_reshape
I0413 16:11:36.252404  8151 net.cpp:408] rpn_big_cls_score_reshape_rpn_big_cls_score_reshape_0_split -> rpn_big_cls_score_reshape_rpn_big_cls_score_reshape_0_split_0
I0413 16:11:36.252418  8151 net.cpp:408] rpn_big_cls_score_reshape_rpn_big_cls_score_reshape_0_split -> rpn_big_cls_score_reshape_rpn_big_cls_score_reshape_0_split_1
I0413 16:11:36.252463  8151 net.cpp:150] Setting up rpn_big_cls_score_reshape_rpn_big_cls_score_reshape_0_split
I0413 16:11:36.252473  8151 net.cpp:157] Top shape: 1 2 1586 92 (291824)
I0413 16:11:36.252481  8151 net.cpp:157] Top shape: 1 2 1586 92 (291824)
I0413 16:11:36.252487  8151 net.cpp:165] Memory required for data: 3585823820
I0413 16:11:36.252492  8151 layer_factory.hpp:77] Creating layer rpn_big_cls_prob
I0413 16:11:36.252502  8151 net.cpp:100] Creating Layer rpn_big_cls_prob
I0413 16:11:36.252509  8151 net.cpp:434] rpn_big_cls_prob <- rpn_big_cls_score_reshape_rpn_big_cls_score_reshape_0_split_0
I0413 16:11:36.252519  8151 net.cpp:408] rpn_big_cls_prob -> rpn_big_cls_prob
I0413 16:11:36.252593  8151 net.cpp:150] Setting up rpn_big_cls_prob
I0413 16:11:36.252604  8151 net.cpp:157] Top shape: 1 2 1586 92 (291824)
I0413 16:11:36.252609  8151 net.cpp:165] Memory required for data: 3586991116
I0413 16:11:36.252615  8151 layer_factory.hpp:77] Creating layer rpn_big_cls_prob_reshape
I0413 16:11:36.252624  8151 net.cpp:100] Creating Layer rpn_big_cls_prob_reshape
I0413 16:11:36.252630  8151 net.cpp:434] rpn_big_cls_prob_reshape <- rpn_big_cls_prob
I0413 16:11:36.252641  8151 net.cpp:408] rpn_big_cls_prob_reshape -> rpn_big_cls_prob_reshape
I0413 16:11:36.252671  8151 net.cpp:150] Setting up rpn_big_cls_prob_reshape
I0413 16:11:36.252681  8151 net.cpp:157] Top shape: 1 52 61 92 (291824)
I0413 16:11:36.252687  8151 net.cpp:165] Memory required for data: 3588158412
I0413 16:11:36.252693  8151 layer_factory.hpp:77] Creating layer rpn_big_cls_prob_reshape_rpn_big_cls_prob_reshape_0_split
I0413 16:11:36.252702  8151 net.cpp:100] Creating Layer rpn_big_cls_prob_reshape_rpn_big_cls_prob_reshape_0_split
I0413 16:11:36.252709  8151 net.cpp:434] rpn_big_cls_prob_reshape_rpn_big_cls_prob_reshape_0_split <- rpn_big_cls_prob_reshape
I0413 16:11:36.252722  8151 net.cpp:408] rpn_big_cls_prob_reshape_rpn_big_cls_prob_reshape_0_split -> rpn_big_cls_prob_reshape_rpn_big_cls_prob_reshape_0_split_0
I0413 16:11:36.252732  8151 net.cpp:408] rpn_big_cls_prob_reshape_rpn_big_cls_prob_reshape_0_split -> rpn_big_cls_prob_reshape_rpn_big_cls_prob_reshape_0_split_1
I0413 16:11:36.252776  8151 net.cpp:150] Setting up rpn_big_cls_prob_reshape_rpn_big_cls_prob_reshape_0_split
I0413 16:11:36.252787  8151 net.cpp:157] Top shape: 1 52 61 92 (291824)
I0413 16:11:36.252795  8151 net.cpp:157] Top shape: 1 52 61 92 (291824)
I0413 16:11:36.252801  8151 net.cpp:165] Memory required for data: 3590493004
I0413 16:11:36.252806  8151 layer_factory.hpp:77] Creating layer rpn_big_anchor_target
I0413 16:11:36.254331  8151 net.cpp:100] Creating Layer rpn_big_anchor_target
I0413 16:11:36.254348  8151 net.cpp:434] rpn_big_anchor_target <- rpn_big_cls_score_rpn_big_cls_score_0_split_1
I0413 16:11:36.254355  8151 net.cpp:434] rpn_big_anchor_target <- input_gt_boxes
I0413 16:11:36.254362  8151 net.cpp:434] rpn_big_anchor_target <- input_ignored_boxes
I0413 16:11:36.254370  8151 net.cpp:434] rpn_big_anchor_target <- input_im_info_input_1_split_0
I0413 16:11:36.254379  8151 net.cpp:434] rpn_big_anchor_target <- input_data_input_0_split_1
I0413 16:11:36.254389  8151 net.cpp:434] rpn_big_anchor_target <- rpn_big_cls_prob_reshape_rpn_big_cls_prob_reshape_0_split_0
I0413 16:11:36.254400  8151 net.cpp:408] rpn_big_anchor_target -> rpn_big_anchor_target_labels
I0413 16:11:36.254417  8151 net.cpp:408] rpn_big_anchor_target -> rpn_big_anchor_target_bbox_targets
I0413 16:11:36.254432  8151 net.cpp:408] rpn_big_anchor_target -> rpn_big_anchor_target_inside_weights
I0413 16:11:36.254447  8151 net.cpp:408] rpn_big_anchor_target -> rpn_big_anchor_target_outside_weights
I0413 16:11:36.259284  8151 net.cpp:150] Setting up rpn_big_anchor_target
I0413 16:11:36.259306  8151 net.cpp:157] Top shape: 1 1 1586 92 (145912)
I0413 16:11:36.259312  8151 net.cpp:157] Top shape: 1 104 61 92 (583648)
I0413 16:11:36.259320  8151 net.cpp:157] Top shape: 1 104 61 92 (583648)
I0413 16:11:36.259328  8151 net.cpp:157] Top shape: 1 104 61 92 (583648)
I0413 16:11:36.259335  8151 net.cpp:165] Memory required for data: 3598080428
I0413 16:11:36.259346  8151 layer_factory.hpp:77] Creating layer rpn_big_loss_cls
I0413 16:11:36.259359  8151 net.cpp:100] Creating Layer rpn_big_loss_cls
I0413 16:11:36.259367  8151 net.cpp:434] rpn_big_loss_cls <- rpn_big_cls_score_reshape_rpn_big_cls_score_reshape_0_split_1
I0413 16:11:36.259378  8151 net.cpp:434] rpn_big_loss_cls <- rpn_big_anchor_target_labels
I0413 16:11:36.259388  8151 net.cpp:408] rpn_big_loss_cls -> rpn_big_loss_cls
I0413 16:11:36.259405  8151 layer_factory.hpp:77] Creating layer rpn_big_loss_cls
I0413 16:11:36.260128  8151 net.cpp:150] Setting up rpn_big_loss_cls
I0413 16:11:36.260143  8151 net.cpp:157] Top shape: (1)
I0413 16:11:36.260149  8151 net.cpp:160]     with loss weight 1
I0413 16:11:36.260167  8151 net.cpp:165] Memory required for data: 3598080432
I0413 16:11:36.260174  8151 layer_factory.hpp:77] Creating layer rpn_big_output_box
I0413 16:11:36.260192  8151 net.cpp:100] Creating Layer rpn_big_output_box
I0413 16:11:36.260200  8151 net.cpp:434] rpn_big_output_box <- rpn_big_conv2_rpn_big_conv2_drop_0_split_1
I0413 16:11:36.260206  8151 net.cpp:408] rpn_big_output_box -> rpn_big_output_box
I0413 16:11:36.279361  8151 net.cpp:150] Setting up rpn_big_output_box
I0413 16:11:36.279397  8151 net.cpp:157] Top shape: 1 384 63 94 (2274048)
I0413 16:11:36.279404  8151 net.cpp:165] Memory required for data: 3607176624
I0413 16:11:36.279417  8151 layer_factory.hpp:77] Creating layer rpn_big_output_box_relu
I0413 16:11:36.279431  8151 net.cpp:100] Creating Layer rpn_big_output_box_relu
I0413 16:11:36.279438  8151 net.cpp:434] rpn_big_output_box_relu <- rpn_big_output_box
I0413 16:11:36.279448  8151 net.cpp:395] rpn_big_output_box_relu -> rpn_big_output_box (in-place)
I0413 16:11:36.279460  8151 net.cpp:150] Setting up rpn_big_output_box_relu
I0413 16:11:36.279469  8151 net.cpp:157] Top shape: 1 384 63 94 (2274048)
I0413 16:11:36.279472  8151 net.cpp:165] Memory required for data: 3616272816
I0413 16:11:36.279477  8151 layer_factory.hpp:77] Creating layer rpn_big_bbox_pred
I0413 16:11:36.279500  8151 net.cpp:100] Creating Layer rpn_big_bbox_pred
I0413 16:11:36.279507  8151 net.cpp:434] rpn_big_bbox_pred <- rpn_big_output_box
I0413 16:11:36.279518  8151 net.cpp:408] rpn_big_bbox_pred -> rpn_big_bbox_pred
I0413 16:11:36.283845  8151 net.cpp:150] Setting up rpn_big_bbox_pred
I0413 16:11:36.283874  8151 net.cpp:157] Top shape: 1 104 61 92 (583648)
I0413 16:11:36.283877  8151 net.cpp:165] Memory required for data: 3618607408
I0413 16:11:36.283887  8151 layer_factory.hpp:77] Creating layer rpn_big_bbox_pred_rpn_big_bbox_pred_0_split
I0413 16:11:36.283896  8151 net.cpp:100] Creating Layer rpn_big_bbox_pred_rpn_big_bbox_pred_0_split
I0413 16:11:36.283902  8151 net.cpp:434] rpn_big_bbox_pred_rpn_big_bbox_pred_0_split <- rpn_big_bbox_pred
I0413 16:11:36.283911  8151 net.cpp:408] rpn_big_bbox_pred_rpn_big_bbox_pred_0_split -> rpn_big_bbox_pred_rpn_big_bbox_pred_0_split_0
I0413 16:11:36.283921  8151 net.cpp:408] rpn_big_bbox_pred_rpn_big_bbox_pred_0_split -> rpn_big_bbox_pred_rpn_big_bbox_pred_0_split_1
I0413 16:11:36.283956  8151 net.cpp:150] Setting up rpn_big_bbox_pred_rpn_big_bbox_pred_0_split
I0413 16:11:36.283962  8151 net.cpp:157] Top shape: 1 104 61 92 (583648)
I0413 16:11:36.283965  8151 net.cpp:157] Top shape: 1 104 61 92 (583648)
I0413 16:11:36.283968  8151 net.cpp:165] Memory required for data: 3623276592
I0413 16:11:36.283972  8151 layer_factory.hpp:77] Creating layer rpn_big_loss_bbox
I0413 16:11:36.284374  8151 net.cpp:100] Creating Layer rpn_big_loss_bbox
I0413 16:11:36.284386  8151 net.cpp:434] rpn_big_loss_bbox <- rpn_big_bbox_pred_rpn_big_bbox_pred_0_split_0
I0413 16:11:36.284392  8151 net.cpp:434] rpn_big_loss_bbox <- rpn_big_anchor_target_bbox_targets
I0413 16:11:36.284396  8151 net.cpp:434] rpn_big_loss_bbox <- rpn_big_anchor_target_inside_weights
I0413 16:11:36.284400  8151 net.cpp:434] rpn_big_loss_bbox <- rpn_big_anchor_target_outside_weights
I0413 16:11:36.284407  8151 net.cpp:408] rpn_big_loss_bbox -> rpn_big_loss_bbox
I0413 16:11:36.286173  8151 net.cpp:150] Setting up rpn_big_loss_bbox
I0413 16:11:36.286209  8151 net.cpp:157] Top shape: 1 (1)
I0413 16:11:36.286212  8151 net.cpp:160]     with loss weight 1
I0413 16:11:36.286224  8151 net.cpp:165] Memory required for data: 3623276596
I0413 16:11:36.286231  8151 layer_factory.hpp:77] Creating layer proposal
I0413 16:11:36.288431  8151 net.cpp:100] Creating Layer proposal
I0413 16:11:36.288450  8151 net.cpp:434] proposal <- rpn_big_cls_prob_reshape_rpn_big_cls_prob_reshape_0_split_1
I0413 16:11:36.288457  8151 net.cpp:434] proposal <- rpn_big_bbox_pred_rpn_big_bbox_pred_0_split_1
…
