…
I0413 18:53:28.493237 14460 solver.cpp:48] Initializing solver from parameters: 
base_lr: 0.001
display: 20
lr_policy: "multistep"
gamma: 0.1
momentum: 0.9
weight_decay: 0.0005
snapshot: 0
snapshot_prefix: "faces_example"
net_param {
  name: "GeneratedModel_13_04_2017_18_53"
  layer {
    name: "input"
    type: "Python"
    top: "input_data"
    top: "input_im_info"
    top: "input_gt_boxes"
    top: "input_ignored_boxes"
    python_param {
      module: "layers.roi_data_layer"
      layer: "RoIDataLayer"
      param_str: "{\"num_classes\": 2}"
    }
  }
  layer {
    name: "conv1_1"
    type: "Convolution"
    bottom: "input_data"
    top: "conv1_1"
    param {
      lr_mult: 0
      decay_mult: 0
    }
    param {
      lr_mult: 0
      decay_mult: 0
    }
    convolution_param {
      num_output: 64
      pad: 1
      kernel_size: 3
    }
  }
  layer {
    name: "relu1_1"
    type: "ReLU"
    bottom: "conv1_1"
    top: "conv1_1"
  }
  layer {
    name: "conv1_2"
    type: "Convolution"
    bottom: "conv1_1"
    top: "conv1_2"
    param {
      lr_mult: 0
      decay_mult: 0
    }
    param {
      lr_mult: 0
      decay_mult: 0
    }
    convolution_param {
      num_output: 64
      pad: 1
      kernel_size: 3
    }
  }
  layer {
    name: "relu1_2"
    type: "ReLU"
    bottom: "conv1_2"
    top: "conv1_2"
  }
  layer {
    name: "pool1"
    type: "Pooling"
    bottom: "conv1_2"
    top: "pool1"
    pooling_param {
      pool: MAX
      kernel_size: 2
      stride: 2
    }
  }
  layer {
    name: "conv2_1"
    type: "Convolution"
    bottom: "pool1"
    top: "conv2_1"
    param {
      lr_mult: 0
      decay_mult: 0
    }
    param {
      lr_mult: 0
      decay_mult: 0
    }
    convolution_param {
      num_output: 128
      pad: 1
      kernel_size: 3
    }
  }
  layer {
    name: "relu2_1"
    type: "ReLU"
    bottom: "conv2_1"
    top: "conv2_1"
  }
  layer {
    name: "conv2_2"
    type: "Convolution"
    bottom: "conv2_1"
    top: "conv2_2"
    param {
      lr_mult: 0
      decay_mult: 0
    }
    param {
      lr_mult: 0
      decay_mult: 0
    }
    convolution_param {
      num_output: 128
      pad: 1
      kernel_size: 3
    }
  }
  layer {
    name: "relu2_2"
    type: "ReLU"
    bottom: "conv2_2"
    top: "conv2_2"
  }
  layer {
    name: "pool2"
    type: "Pooling"
    bottom: "conv2_2"
    top: "pool2"
    pooling_param {
      pool: MAX
      kernel_size: 2
      stride: 2
    }
  }
  layer {
    name: "conv3_1"
    type: "Convolution"
    bottom: "pool2"
    top: "conv3_1"
    param {
      lr_mult: 1
    }
    param {
      lr_mult: 2
    }
    convolution_param {
      num_output: 256
      pad: 1
      kernel_size: 3
    }
  }
  layer {
    name: "relu3_1"
    type: "ReLU"
    bottom: "conv3_1"
    top: "conv3_1"
  }
  layer {
    name: "conv3_2"
    type: "Convolution"
    bottom: "conv3_1"
    top: "conv3_2"
    param {
      lr_mult: 1
    }
    param {
      lr_mult: 2
    }
    convolution_param {
      num_output: 256
      pad: 1
      kernel_size: 3
    }
  }
  layer {
    name: "relu3_2"
    type: "ReLU"
    bottom: "conv3_2"
    top: "conv3_2"
  }
  layer {
    name: "conv3_3"
    type: "Convolution"
    bottom: "conv3_2"
    top: "conv3_3"
    param {
      lr_mult: 1
    }
    param {
      lr_mult: 2
    }
    convolution_param {
      num_output: 256
      pad: 1
      kernel_size: 3
    }
  }
  layer {
    name: "relu3_3"
    type: "ReLU"
    bottom: "conv3_3"
    top: "conv3_3"
  }
  layer {
    name: "pool3"
    type: "Pooling"
    bottom: "conv3_3"
    top: "pool3"
    pooling_param {
      pool: MAX
      kernel_size: 2
      stride: 2
    }
  }
  layer {
    name: "conv4_1"
    type: "Convolution"
    bottom: "pool3"
    top: "conv4_1"
    param {
      lr_mult: 1
    }
    param {
      lr_mult: 2
    }
    convolution_param {
      num_output: 512
      pad: 1
      kernel_size: 3
    }
  }
  layer {
    name: "relu4_1"
    type: "ReLU"
    bottom: "conv4_1"
    top: "conv4_1"
  }
  layer {
    name: "conv4_2"
    type: "Convolution"
    bottom: "conv4_1"
    top: "conv4_2"
    param {
      lr_mult: 1
    }
    param {
      lr_mult: 2
    }
    convolution_param {
      num_output: 512
      pad: 1
      kernel_size: 3
    }
  }
  layer {
    name: "relu4_2"
    type: "ReLU"
    bottom: "conv4_2"
    top: "conv4_2"
  }
  layer {
    name: "conv4_3"
    type: "Convolution"
    bottom: "conv4_2"
    top: "conv4_3"
    param {
      lr_mult: 1
    }
    param {
      lr_mult: 2
    }
    convolution_param {
      num_output: 512
      pad: 1
      kernel_size: 3
    }
  }
  layer {
    name: "relu4_3"
    type: "ReLU"
    bottom: "conv4_3"
    top: "conv4_3"
  }
  layer {
    name: "pool4"
    type: "Pooling"
    bottom: "conv4_3"
    top: "pool4"
    pooling_param {
      pool: MAX
      kernel_size: 2
      stride: 2
    }
  }
  layer {
    name: "conv5_1"
    type: "Convolution"
    bottom: "pool4"
    top: "conv5_1"
    param {
      lr_mult: 1
    }
    param {
      lr_mult: 2
    }
    convolution_param {
      num_output: 512
      pad: 1
      kernel_size: 3
    }
  }
  layer {
    name: "relu5_1"
    type: "ReLU"
    bottom: "conv5_1"
    top: "conv5_1"
  }
  layer {
    name: "conv5_2"
    type: "Convolution"
    bottom: "conv5_1"
    top: "conv5_2"
    param {
      lr_mult: 1
    }
    param {
      lr_mult: 2
    }
    convolution_param {
      num_output: 512
      pad: 1
      kernel_size: 3
    }
  }
  layer {
    name: "relu5_2"
    type: "ReLU"
    bottom: "conv5_2"
    top: "conv5_2"
  }
  layer {
    name: "conv5_3"
    type: "Convolution"
    bottom: "conv5_2"
    top: "conv5_3"
    param {
      lr_mult: 1
    }
    param {
      lr_mult: 2
    }
    convolution_param {
      num_output: 512
      pad: 1
      kernel_size: 3
    }
  }
  layer {
    name: "relu5_3"
    type: "ReLU"
    bottom: "conv5_3"
    top: "conv5_3"
  }
  layer {
    name: "rpn_big_conv1"
    type: "Convolution"
    bottom: "conv5_3"
    top: "rpn_big_conv1"
    param {
      lr_mult: 1
    }
    param {
      lr_mult: 2
    }
    convolution_param {
      num_output: 512
      pad: 1
      kernel_size: 3
      stride: 1
      weight_filler {
        type: "gaussian"
        mean: 0
        std: 0.01
      }
      bias_filler {
        type: "constant"
      }
    }
  }
  layer {
    name: "rpn_big_conv1_relu"
    type: "ReLU"
    bottom: "rpn_big_conv1"
    top: "rpn_big_conv1"
    relu_param {
      negative_slope: 0
    }
  }
  layer {
    name: "rpn_big_conv2"
    type: "Convolution"
    bottom: "rpn_big_conv1"
    top: "rpn_big_conv2"
    param {
      lr_mult: 1
    }
    param {
      lr_mult: 2
    }
    convolution_param {
      num_output: 512
      pad: 1
      kernel_size: 3
      stride: 1
      weight_filler {
        type: "gaussian"
        mean: 0
        std: 0.01
      }
      bias_filler {
        type: "constant"
      }
    }
  }
  layer {
    name: "rpn_big_conv2_relu"
    type: "ReLU"
    bottom: "rpn_big_conv2"
    top: "rpn_big_conv2"
    relu_param {
      negative_slope: 0
    }
  }
  layer {
    name: "rpn_big_conv2_drop"
    type: "Dropout"
    bottom: "rpn_big_conv2"
    top: "rpn_big_conv2"
    dropout_param {
      dropout_ratio: 0.3
    }
  }
  layer {
    name: "rpn_big_output_cls"
    type: "Convolution"
    bottom: "rpn_big_conv2"
    top: "rpn_big_output_cls"
    param {
      lr_mult: 1
    }
    param {
      lr_mult: 2
    }
    convolution_param {
      num_output: 384
      pad: 1
      kernel_size: 3
      stride: 1
      weight_filler {
        type: "gaussian"
        mean: 0
        std: 0.01
      }
      bias_filler {
        type: "constant"
      }
    }
  }
  layer {
    name: "rpn_big_output_cls_relu"
    type: "ReLU"
    bottom: "rpn_big_output_cls"
    top: "rpn_big_output_cls"
    relu_param {
      negative_slope: 0
    }
  }
  layer {
    name: "rpn_big_cls_score"
    type: "Convolution"
    bottom: "rpn_big_output_cls"
    top: "rpn_big_cls_score"
    param {
      lr_mult: 1
    }
    param {
      lr_mult: 2
    }
    convolution_param {
      num_output: 52
      pad: 0
      kernel_size: 3
      stride: 1
      weight_filler {
        type: "gaussian"
        mean: 0
        std: 0.01
      }
      bias_filler {
        type: "constant"
      }
    }
  }
  layer {
    name: "rpn_big_cls_score_reshape"
    type: "Reshape"
    bottom: "rpn_big_cls_score"
    top: "rpn_big_cls_score_reshape"
    reshape_param {
      shape {
        dim: 0
        dim: 2
        dim: -1
        dim: 0
      }
    }
  }
  layer {
    name: "rpn_big_cls_prob"
    type: "Softmax"
    bottom: "rpn_big_cls_score_reshape"
    top: "rpn_big_cls_prob"
  }
  layer {
    name: "rpn_big_cls_prob_reshape"
    type: "Reshape"
    bottom: "rpn_big_cls_prob"
    top: "rpn_big_cls_prob_reshape"
    reshape_param {
      shape {
        dim: 0
        dim: 52
        dim: -1
        dim: 0
      }
    }
  }
  layer {
    name: "rpn_big_anchor_target"
    type: "Python"
    bottom: "rpn_big_cls_score"
    bottom: "input_gt_boxes"
    bottom: "input_ignored_boxes"
    bottom: "input_im_info"
    bottom: "input_data"
    bottom: "rpn_big_cls_prob_reshape"
    top: "rpn_big_anchor_target_labels"
    top: "rpn_big_anchor_target_bbox_targets"
    top: "rpn_big_anchor_target_inside_weights"
    top: "rpn_big_anchor_target_outside_weights"
    python_param {
      module: "rpn.anchor_target_layer"
      layer: "AnchorTargetLayer"
      param_str: "{\"tn_fraction\": 0.2, \"anchor_ratios\": [1.0], \"feat_stride\": 16, \"negative_overlap\": 0.4, \"anchor_shift_num_xy\": [[2, 2], [2, 2], [2, 2], [2, 2], [1, 1], [1, 1], [1, 1], [1, 1], [1, 1], [1, 1], [1, 1], [1, 1], [1, 1], [1, 1]], \"positive_overlap\": 0.6, \"batchsize\": 256, \"fg_fraction\": 0.5, \"name\": \"rpn_big\", \"anchor_scales\": [2.5, 3.025, 3.66025, 4.4289024999999995, 5.358972025, 6.484356150249999, 7.846070941802498, 9.493745839581022, 11.487432465893036, 13.899793283730574, 16.818749873313998, 20.350687346709933, 24.62433168951902, 29.795441344318014], \"num_classes\": 1, \"square_targets\": true}"
    }
  }
  layer {
    name: "rpn_big_loss_cls"
    type: "SoftmaxWithLoss"
    bottom: "rpn_big_cls_score_reshape"
    bottom: "rpn_big_anchor_target_labels"
    top: "rpn_big_loss_cls"
    loss_weight: 1
    propagate_down: true
    propagate_down: false
    loss_param {
      ignore_label: -1
      normalization: VALID
    }
  }
  layer {
    name: "rpn_big_output_box"
    type: "Convolution"
    bottom: "rpn_big_conv2"
    top: "rpn_big_output_box"
    param {
      lr_mult: 1
    }
    param {
      lr_mult: 2
    }
    convolution_param {
      num_output: 384
      pad: 1
      kernel_size: 3
      stride: 1
      weight_filler {
        type: "gaussian"
        mean: 0
        std: 0.01
      }
      bias_filler {
        type: "constant"
      }
    }
  }
  layer {
    name: "rpn_big_output_box_relu"
    type: "ReLU"
    bottom: "rpn_big_output_box"
    top: "rpn_big_output_box"
    relu_param {
      negative_slope: 0
    }
  }
  layer {
    name: "rpn_big_bbox_pred"
    type: "Convolution"
    bottom: "rpn_big_output_box"
    top: "rpn_big_bbox_pred"
    param {
      lr_mult: 1
    }
    param {
      lr_mult: 2
    }
    convolution_param {
      num_output: 104
      pad: 0
      kernel_size: 3
      stride: 1
      weight_filler {
        type: "gaussian"
        mean: 0
        std: 0.01
      }
      bias_filler {
        type: "constant"
      }
    }
  }
  layer {
    name: "rpn_big_loss_bbox"
    type: "Python"
    bottom: "rpn_big_bbox_pred"
    bottom: "rpn_big_anchor_target_bbox_targets"
    bottom: "rpn_big_anchor_target_inside_weights"
    bottom: "rpn_big_anchor_target_outside_weights"
    top: "rpn_big_loss_bbox"
    loss_weight: 1
    python_param {
      module: "layers.smooth_l1_loss"
      layer: "SmoothL1LossLayer"
      param_str: "{\"sigma\": 3}"
    }
  }
  layer {
    name: "proposal"
    type: "Python"
    bottom: "rpn_big_cls_prob_reshape"
    bottom: "rpn_big_bbox_pred"
    bottom: "input_im_info"
    top: "rpn_rois"
    python_param {
      module: "rpn.proposal_layer"
      layer: "ProposalLayer"
      param_str: "{\"anchor_shift_num_xy\": [[2, 2], [2, 2], [2, 2], [2, 2], [1, 1], [1, 1], [1, 1], [1, 1], [1, 1], [1, 1], [1, 1], [1, 1], [1, 1], [1, 1]], \"feat_stride\": 16, \"num_classes\": 1, \"anchor_scales\": [2.5, 3.025, 3.66025, 4.4289024999999995, 5.358972025, 6.484356150249999, 7.846070941802498, 9.493745839581022, 11.487432465893036, 13.899793283730574, 16.818749873313998, 20.350687346709933, 24.62433168951902, 29.795441344318014], \"square_targets\": true, \"name\": \"rpn_big\", \"batchsize\": 256, \"anchor_ratios\": [1.0]}"
    }
  }
  layer {
    name: "roi-data"
    type: "Python"
    bottom: "rpn_rois"
    bottom: "input_gt_boxes"
    top: "rois"
    top: "labels"
    top: "bbox_targets"
    top: "bbox_inside_weights"
    top: "bbox_outside_weights"
    top: "pid_label"
    python_param {
      module: "rpn.proposal_target_layer"
      layer: "ProposalTargetLayer"
      param_str: "{\"num_classes\": 2, \"bg_aux_label\": 5532}"
    }
  }
  layer {
    name: "roi-pool"
    type: "ROIPooling"
    bottom: "conv5_3"
    bottom: "rois"
    top: "roi-pool"
    roi_pooling_param {
      pooled_h: 7
      pooled_w: 7
      spatial_scale: 0.0625
    }
  }
  layer {
    name: "fc6"
    type: "InnerProduct"
    bottom: "roi-pool"
    top: "fc6"
    param {
      lr_mult: 1
    }
    param {
      lr_mult: 2
    }
    inner_product_param {
      num_output: 4096
    }
  }
  layer {
    name: "relu6"
    type: "ReLU"
    bottom: "fc6"
    top: "fc6"
  }
  layer {
    name: "drop6"
    type: "Dropout"
    bottom: "fc6"
    top: "fc6"
    dropout_param {
      dropout_ratio: 0.5
    }
  }
  layer {
    name: "fc7"
    type: "InnerProduct"
    bottom: "fc6"
    top: "fc7"
    param {
      lr_mult: 1
    }
    param {
      lr_mult: 2
    }
    inner_product_param {
      num_output: 4096
    }
  }
  layer {
    name: "relu7"
    type: "ReLU"
    bottom: "fc7"
    top: "fc7"
  }
  layer {
    name: "drop7"
    type: "Dropout"
    bottom: "fc7"
    top: "fc7"
    dropout_param {
      dropout_ratio: 0.5
    }
  }
  layer {
    name: "bbox_pred"
    type: "InnerProduct"
    bottom: "fc7"
    top: "bbox_pred"
    param {
      lr_mult: 1
    }
    param {
      lr_mult: 2
    }
    inner_product_param {
      num_output: 8
      weight_filler {
        type: "gaussian"
        std: 0.001
      }
      bias_filler {
        type: "constant"
        value: 0
      }
    }
  }
  layer {
    name: "loss_bbox"
    type: "SmoothL1Loss"
    bottom: "bbox_pred"
    bottom: "bbox_targets"
    bottom: "bbox_inside_weights"
    bottom: "bbox_outside_weights"
    top: "loss_bbox"
    loss_weight: 1
  }
  layer {
    name: "feat"
    type: "InnerProduct"
    bottom: "fc7"
    top: "feat"
    param {
      lr_mult: 1
      decay_mult: 1
    }
    param {
      lr_mult: 2
      decay_mult: 0
    }
    inner_product_param {
      num_output: 256
      weight_filler {
        type: "gaussian"
        std: 0.01
      }
      bias_filler {
        type: "constant"
        value: 0
      }
    }
  }
  layer {
    name: "relu8"
    type: "ReLU"
    bottom: "feat"
    top: "feat"
  }
  layer {
    name: "drop8"
    type: "Dropout"
    bottom: "feat"
    top: "feat"
    dropout_param {
      dropout_ratio: 0.5
    }
  }
  layer {
    name: "pid_score"
    type: "InnerProduct"
    bottom: "feat"
    top: "pid_score"
    param {
      lr_mult: 1
      decay_mult: 1
    }
    param {
      lr_mult: 2
      decay_mult: 0
    }
    inner_product_param {
      num_output: 5533
      weight_filler {
        type: "gaussian"
        std: 0.001
      }
      bias_filler {
        type: "constant"
        value: 0
      }
    }
  }
  layer {
    name: "pid_accuracy"
    type: "Accuracy"
    bottom: "pid_label"
    bottom: "pid_score"
    top: "pid_accuracy"
    accuracy_param {
      ignore_label: -1
    }
  }
  layer {
    name: "pid_loss"
    type: "SoftmaxWithLoss"
    bottom: "pid_score"
    bottom: "pid_label"
    top: "pid_loss"
    loss_weight: 1
    propagate_down: true
    propagate_down: false
    loss_param {
      ignore_label: -1
      normalize: true
    }
  }
}
average_loss: 100
stepvalue: 70000
stepvalue: 120000
iter_size: 2
I0413 18:53:28.493366 14460 solver.cpp:86] Creating training net specified in net_param.
I0413 18:53:28.494271 14460 net.cpp:58] Initializing net from parameters: 
name: "GeneratedModel_13_04_2017_18_53"
state {
  phase: TRAIN
}
layer {
  name: "input"
  type: "Python"
  top: "input_data"
  top: "input_im_info"
  top: "input_gt_boxes"
  top: "input_ignored_boxes"
  python_param {
    module: "layers.roi_data_layer"
    layer: "RoIDataLayer"
    param_str: "{\"num_classes\": 2}"
  }
}
layer {
  name: "conv1_1"
  type: "Convolution"
  bottom: "input_data"
  top: "conv1_1"
  param {
    lr_mult: 0
    decay_mult: 0
  }
  param {
    lr_mult: 0
    decay_mult: 0
  }
  convolution_param {
    num_output: 64
    pad: 1
    kernel_size: 3
  }
}
layer {
  name: "relu1_1"
  type: "ReLU"
  bottom: "conv1_1"
  top: "conv1_1"
}
layer {
  name: "conv1_2"
  type: "Convolution"
  bottom: "conv1_1"
  top: "conv1_2"
  param {
    lr_mult: 0
    decay_mult: 0
  }
  param {
    lr_mult: 0
    decay_mult: 0
  }
  convolution_param {
    num_output: 64
    pad: 1
    kernel_size: 3
  }
}
layer {
  name: "relu1_2"
  type: "ReLU"
  bottom: "conv1_2"
  top: "conv1_2"
}
layer {
  name: "pool1"
  type: "Pooling"
  bottom: "conv1_2"
  top: "pool1"
  pooling_param {
    pool: MAX
    kernel_size: 2
    stride: 2
  }
}
layer {
  name: "conv2_1"
  type: "Convolution"
  bottom: "pool1"
  top: "conv2_1"
  param {
    lr_mult: 0
    decay_mult: 0
  }
  param {
    lr_mult: 0
    decay_mult: 0
  }
  convolution_param {
    num_output: 128
    pad: 1
    kernel_size: 3
  }
}
layer {
  name: "relu2_1"
  type: "ReLU"
  bottom: "conv2_1"
  top: "conv2_1"
}
layer {
  name: "conv2_2"
  type: "Convolution"
  bottom: "conv2_1"
  top: "conv2_2"
  param {
    lr_mult: 0
    decay_mult: 0
  }
  param {
    lr_mult: 0
    decay_mult: 0
  }
  convolution_param {
    num_output: 128
    pad: 1
    kernel_size: 3
  }
}
layer {
  name: "relu2_2"
  type: "ReLU"
  bottom: "conv2_2"
  top: "conv2_2"
}
layer {
  name: "pool2"
  type: "Pooling"
  bottom: "conv2_2"
  top: "pool2"
  pooling_param {
    pool: MAX
    kernel_size: 2
    stride: 2
  }
}
layer {
  name: "conv3_1"
  type: "Convolution"
  bottom: "pool2"
  top: "conv3_1"
  param {
    lr_mult: 1
  }
  param {
    lr_mult: 2
  }
  convolution_param {
    num_output: 256
    pad: 1
    kernel_size: 3
  }
}
layer {
  name: "relu3_1"
  type: "ReLU"
  bottom: "conv3_1"
  top: "conv3_1"
}
layer {
  name: "conv3_2"
  type: "Convolution"
  bottom: "conv3_1"
  top: "conv3_2"
  param {
    lr_mult: 1
  }
  param {
    lr_mult: 2
  }
  convolution_param {
    num_output: 256
    pad: 1
    kernel_size: 3
  }
}
layer {
  name: "relu3_2"
  type: "ReLU"
  bottom: "conv3_2"
  top: "conv3_2"
}
layer {
  name: "conv3_3"
  type: "Convolution"
  bottom: "conv3_2"
  top: "conv3_3"
  param {
    lr_mult: 1
  }
  param {
    lr_mult: 2
  }
  convolution_param {
    num_output: 256
    pad: 1
    kernel_size: 3
  }
}
layer {
  name: "relu3_3"
  type: "ReLU"
  bottom: "conv3_3"
  top: "conv3_3"
}
layer {
  name: "pool3"
  type: "Pooling"
  bottom: "conv3_3"
  top: "pool3"
  pooling_param {
    pool: MAX
    kernel_size: 2
    stride: 2
  }
}
layer {
  name: "conv4_1"
  type: "Convolution"
  bottom: "pool3"
  top: "conv4_1"
  param {
    lr_mult: 1
  }
  param {
    lr_mult: 2
  }
  convolution_param {
    num_output: 512
    pad: 1
    kernel_size: 3
  }
}
layer {
  name: "relu4_1"
  type: "ReLU"
  bottom: "conv4_1"
  top: "conv4_1"
}
layer {
  name: "conv4_2"
  type: "Convolution"
  bottom: "conv4_1"
  top: "conv4_2"
  param {
    lr_mult: 1
  }
  param {
    lr_mult: 2
  }
  convolution_param {
    num_output: 512
    pad: 1
    kernel_size: 3
  }
}
layer {
  name: "relu4_2"
  type: "ReLU"
  bottom: "conv4_2"
  top: "conv4_2"
}
layer {
  name: "conv4_3"
  type: "Convolution"
  bottom: "conv4_2"
  top: "conv4_3"
  param {
    lr_mult: 1
  }
  param {
    lr_mult: 2
  }
  convolution_param {
    num_output: 512
    pad: 1
    kernel_size: 3
  }
}
layer {
  name: "relu4_3"
  type: "ReLU"
  bottom: "conv4_3"
  top: "conv4_3"
}
layer {
  name: "pool4"
  type: "Pooling"
  bottom: "conv4_3"
  top: "pool4"
  pooling_param {
    pool: MAX
    kernel_size: 2
    stride: 2
  }
}
layer {
  name: "conv5_1"
  type: "Convolution"
  bottom: "pool4"
  top: "conv5_1"
  param {
    lr_mult: 1
  }
  param {
    lr_mult: 2
  }
  convolution_param {
    num_output: 512
    pad: 1
    kernel_size: 3
  }
}
layer {
  name: "relu5_1"
  type: "ReLU"
  bottom: "conv5_1"
  top: "conv5_1"
}
layer {
  name: "conv5_2"
  type: "Convolution"
  bottom: "conv5_1"
  top: "conv5_2"
  param {
    lr_mult: 1
  }
  param {
    lr_mult: 2
  }
  convolution_param {
    num_output: 512
    pad: 1
    kernel_size: 3
  }
}
layer {
  name: "relu5_2"
  type: "ReLU"
  bottom: "conv5_2"
  top: "conv5_2"
}
layer {
  name: "conv5_3"
  type: "Convolution"
  bottom: "conv5_2"
  top: "conv5_3"
  param {
    lr_mult: 1
  }
  param {
    lr_mult: 2
  }
  convolution_param {
    num_output: 512
    pad: 1
    kernel_size: 3
  }
}
layer {
  name: "relu5_3"
  type: "ReLU"
  bottom: "conv5_3"
  top: "conv5_3"
}
layer {
  name: "rpn_big_conv1"
  type: "Convolution"
  bottom: "conv5_3"
  top: "rpn_big_conv1"
  param {
    lr_mult: 1
  }
  param {
    lr_mult: 2
  }
  convolution_param {
    num_output: 512
    pad: 1
    kernel_size: 3
    stride: 1
    weight_filler {
      type: "gaussian"
      mean: 0
      std: 0.01
    }
    bias_filler {
      type: "constant"
    }
  }
}
layer {
  name: "rpn_big_conv1_relu"
  type: "ReLU"
  bottom: "rpn_big_conv1"
  top: "rpn_big_conv1"
  relu_param {
    negative_slope: 0
  }
}
layer {
  name: "rpn_big_conv2"
  type: "Convolution"
  bottom: "rpn_big_conv1"
  top: "rpn_big_conv2"
  param {
    lr_mult: 1
  }
  param {
    lr_mult: 2
  }
  convolution_param {
    num_output: 512
    pad: 1
    kernel_size: 3
    stride: 1
    weight_filler {
      type: "gaussian"
      mean: 0
      std: 0.01
    }
    bias_filler {
      type: "constant"
    }
  }
}
layer {
  name: "rpn_big_conv2_relu"
  type: "ReLU"
  bottom: "rpn_big_conv2"
  top: "rpn_big_conv2"
  relu_param {
    negative_slope: 0
  }
}
layer {
  name: "rpn_big_conv2_drop"
  type: "Dropout"
  bottom: "rpn_big_conv2"
  top: "rpn_big_conv2"
  dropout_param {
    dropout_ratio: 0.3
  }
}
layer {
  name: "rpn_big_output_cls"
  type: "Convolution"
  bottom: "rpn_big_conv2"
  top: "rpn_big_output_cls"
  param {
    lr_mult: 1
  }
  param {
    lr_mult: 2
  }
  convolution_param {
    num_output: 384
    pad: 1
    kernel_size: 3
    stride: 1
    weight_filler {
      type: "gaussian"
      mean: 0
      std: 0.01
    }
    bias_filler {
      type: "constant"
    }
  }
}
layer {
  name: "rpn_big_output_cls_relu"
  type: "ReLU"
  bottom: "rpn_big_output_cls"
  top: "rpn_big_output_cls"
  relu_param {
    negative_slope: 0
  }
}
layer {
  name: "rpn_big_cls_score"
  type: "Convolution"
  bottom: "rpn_big_output_cls"
  top: "rpn_big_cls_score"
  param {
    lr_mult: 1
  }
  param {
    lr_mult: 2
  }
  convolution_param {
    num_output: 52
    pad: 0
    kernel_size: 3
    stride: 1
    weight_filler {
      type: "gaussian"
      mean: 0
      std: 0.01
    }
    bias_filler {
      type: "constant"
    }
  }
}
layer {
  name: "rpn_big_cls_score_reshape"
  type: "Reshape"
  bottom: "rpn_big_cls_score"
  top: "rpn_big_cls_score_reshape"
  reshape_param {
    shape {
      dim: 0
      dim: 2
      dim: -1
      dim: 0
    }
  }
}
layer {
  name: "rpn_big_cls_prob"
  type: "Softmax"
  bottom: "rpn_big_cls_score_reshape"
  top: "rpn_big_cls_prob"
}
layer {
  name: "rpn_big_cls_prob_reshape"
  type: "Reshape"
  bottom: "rpn_big_cls_prob"
  top: "rpn_big_cls_prob_reshape"
  reshape_param {
    shape {
      dim: 0
      dim: 52
      dim: -1
      dim: 0
    }
  }
}
layer {
  name: "rpn_big_anchor_target"
  type: "Python"
  bottom: "rpn_big_cls_score"
  bottom: "input_gt_boxes"
  bottom: "input_ignored_boxes"
  bottom: "input_im_info"
  bottom: "input_data"
  bottom: "rpn_big_cls_prob_reshape"
  top: "rpn_big_anchor_target_labels"
  top: "rpn_big_anchor_target_bbox_targets"
  top: "rpn_big_anchor_target_inside_weights"
  top: "rpn_big_anchor_target_outside_weights"
  python_param {
    module: "rpn.anchor_target_layer"
    layer: "AnchorTargetLayer"
    param_str: "{\"tn_fraction\": 0.2, \"anchor_ratios\": [1.0], \"feat_stride\": 16, \"negative_overlap\": 0.4, \"anchor_shift_num_xy\": [[2, 2], [2, 2], [2, 2], [2, 2], [1, 1], [1, 1], [1, 1], [1, 1], [1, 1], [1, 1], [1, 1], [1, 1], [1, 1], [1, 1]], \"positive_overlap\": 0.6, \"batchsize\": 256, \"fg_fraction\": 0.5, \"name\": \"rpn_big\", \"anchor_scales\": [2.5, 3.025, 3.66025, 4.4289024999999995, 5.358972025, 6.484356150249999, 7.846070941802498, 9.493745839581022, 11.487432465893036, 13.899793283730574, 16.818749873313998, 20.350687346709933, 24.62433168951902, 29.795441344318014], \"num_classes\": 1, \"square_targets\": true}"
  }
}
layer {
  name: "rpn_big_loss_cls"
  type: "SoftmaxWithLoss"
  bottom: "rpn_big_cls_score_reshape"
  bottom: "rpn_big_anchor_target_labels"
  top: "rpn_big_loss_cls"
  loss_weight: 1
  propagate_down: true
  propagate_down: false
  loss_param {
    ignore_label: -1
    normalization: VALID
  }
}
layer {
  name: "rpn_big_output_box"
  type: "Convolution"
  bottom: "rpn_big_conv2"
  top: "rpn_big_output_box"
  param {
    lr_mult: 1
  }
  param {
    lr_mult: 2
  }
  convolution_param {
    num_output: 384
    pad: 1
    kernel_size: 3
    stride: 1
    weight_filler {
      type: "gaussian"
      mean: 0
      std: 0.01
    }
    bias_filler {
      type: "constant"
    }
  }
}
layer {
  name: "rpn_big_output_box_relu"
  type: "ReLU"
  bottom: "rpn_big_output_box"
  top: "rpn_big_output_box"
  relu_param {
    negative_slope: 0
  }
}
layer {
  name: "rpn_big_bbox_pred"
  type: "Convolution"
  bottom: "rpn_big_output_box"
  top: "rpn_big_bbox_pred"
  param {
    lr_mult: 1
  }
  param {
    lr_mult: 2
  }
  convolution_param {
    num_output: 104
    pad: 0
    kernel_size: 3
    stride: 1
    weight_filler {
      type: "gaussian"
      mean: 0
      std: 0.01
    }
    bias_filler {
      type: "constant"
    }
  }
}
layer {
  name: "rpn_big_loss_bbox"
  type: "Python"
  bottom: "rpn_big_bbox_pred"
  bottom: "rpn_big_anchor_target_bbox_targets"
  bottom: "rpn_big_anchor_target_inside_weights"
  bottom: "rpn_big_anchor_target_outside_weights"
  top: "rpn_big_loss_bbox"
  loss_weight: 1
  python_param {
    module: "layers.smooth_l1_loss"
    layer: "SmoothL1LossLayer"
    param_str: "{\"sigma\": 3}"
  }
}
layer {
  name: "proposal"
  type: "Python"
  bottom: "rpn_big_cls_prob_reshape"
  bottom: "rpn_big_bbox_pred"
  bottom: "input_im_info"
  top: "rpn_rois"
  python_param {
    module: "rpn.proposal_layer"
    layer: "ProposalLayer"
    param_str: "{\"anchor_shift_num_xy\": [[2, 2], [2, 2], [2, 2], [2, 2], [1, 1], [1, 1], [1, 1], [1, 1], [1, 1], [1, 1], [1, 1], [1, 1], [1, 1], [1, 1]], \"feat_stride\": 16, \"num_classes\": 1, \"anchor_scales\": [2.5, 3.025, 3.66025, 4.4289024999999995, 5.358972025, 6.484356150249999, 7.846070941802498, 9.493745839581022, 11.487432465893036, 13.899793283730574, 16.818749873313998, 20.350687346709933, 24.62433168951902, 29.795441344318014], \"square_targets\": true, \"name\": \"rpn_big\", \"batchsize\": 256, \"anchor_ratios\": [1.0]}"
  }
}
layer {
  name: "roi-data"
  type: "Python"
  bottom: "rpn_rois"
  bottom: "input_gt_boxes"
  top: "rois"
  top: "labels"
  top: "bbox_targets"
  top: "bbox_inside_weights"
  top: "bbox_outside_weights"
  top: "pid_label"
  python_param {
    module: "rpn.proposal_target_layer"
    layer: "ProposalTargetLayer"
    param_str: "{\"num_classes\": 2, \"bg_aux_label\": 5532}"
  }
}
layer {
  name: "roi-pool"
  type: "ROIPooling"
  bottom: "conv5_3"
  bottom: "rois"
  top: "roi-pool"
  roi_pooling_param {
    pooled_h: 7
    pooled_w: 7
    spatial_scale: 0.0625
  }
}
layer {
  name: "fc6"
  type: "InnerProduct"
  bottom: "roi-pool"
  top: "fc6"
  param {
    lr_mult: 1
  }
  param {
    lr_mult: 2
  }
  inner_product_param {
    num_output: 4096
  }
}
layer {
  name: "relu6"
  type: "ReLU"
  bottom: "fc6"
  top: "fc6"
}
layer {
  name: "drop6"
  type: "Dropout"
  bottom: "fc6"
  top: "fc6"
  dropout_param {
    dropout_ratio: 0.5
  }
}
layer {
  name: "fc7"
  type: "InnerProduct"
  bottom: "fc6"
  top: "fc7"
  param {
    lr_mult: 1
  }
  param {
    lr_mult: 2
  }
  inner_product_param {
    num_output: 4096
  }
}
layer {
  name: "relu7"
  type: "ReLU"
  bottom: "fc7"
  top: "fc7"
}
layer {
  name: "drop7"
  type: "Dropout"
  bottom: "fc7"
  top: "fc7"
  dropout_param {
    dropout_ratio: 0.5
  }
}
layer {
  name: "bbox_pred"
  type: "InnerProduct"
  bottom: "fc7"
  top: "bbox_pred"
  param {
    lr_mult: 1
  }
  param {
    lr_mult: 2
  }
  inner_product_param {
    num_output: 8
    weight_filler {
      type: "gaussian"
      std: 0.001
    }
    bias_filler {
      type: "constant"
      value: 0
    }
  }
}
layer {
  name: "loss_bbox"
  type: "SmoothL1Loss"
  bottom: "bbox_pred"
  bottom: "bbox_targets"
  bottom: "bbox_inside_weights"
  bottom: "bbox_outside_weights"
  top: "loss_bbox"
  loss_weight: 1
}
layer {
  name: "feat"
  type: "InnerProduct"
  bottom: "fc7"
  top: "feat"
  param {
    lr_mult: 1
    decay_mult: 1
  }
  param {
    lr_mult: 2
    decay_mult: 0
  }
  inner_product_param {
    num_output: 256
    weight_filler {
      type: "gaussian"
      std: 0.01
    }
    bias_filler {
      type: "constant"
      value: 0
    }
  }
}
layer {
  name: "relu8"
  type: "ReLU"
  bottom: "feat"
  top: "feat"
}
layer {
  name: "drop8"
  type: "Dropout"
  bottom: "feat"
  top: "feat"
  dropout_param {
    dropout_ratio: 0.5
  }
}
layer {
  name: "pid_score"
  type: "InnerProduct"
  bottom: "feat"
  top: "pid_score"
  param {
    lr_mult: 1
    decay_mult: 1
  }
  param {
    lr_mult: 2
    decay_mult: 0
  }
  inner_product_param {
    num_output: 5533
    weight_filler {
      type: "gaussian"
      std: 0.001
    }
    bias_filler {
      type: "constant"
      value: 0
    }
  }
}
layer {
  name: "pid_accuracy"
  type: "Accuracy"
  bottom: "pid_label"
  bottom: "pid_score"
  top: "pid_accuracy"
  accuracy_param {
    ignore_label: -1
  }
}
layer {
  name: "pid_loss"
  type: "SoftmaxWithLoss"
  bottom: "pid_score"
  bottom: "pid_label"
  top: "pid_loss"
  loss_weight: 1
  propagate_down: true
  propagate_down: false
  loss_param {
    ignore_label: -1
    normalize: true
  }
}
I0413 18:53:28.494726 14460 layer_factory.hpp:77] Creating layer input
I0413 18:53:28.496625 14460 net.cpp:100] Creating Layer input
I0413 18:53:28.496651 14460 net.cpp:408] input -> input_data
I0413 18:53:28.496670 14460 net.cpp:408] input -> input_im_info
I0413 18:53:28.496682 14460 net.cpp:408] input -> input_gt_boxes
I0413 18:53:28.496695 14460 net.cpp:408] input -> input_ignored_boxes
RoiDataLayer: name_to_top: {'ignored_boxes': 3, 'data': 0, 'im_info': 1, 'gt_boxes': 2}
I0413 18:53:28.818789 14460 net.cpp:150] Setting up input
I0413 18:53:28.818827 14460 net.cpp:157] Top shape: 1 3 1000 1500 (4500000)
I0413 18:53:28.818840 14460 net.cpp:157] Top shape: 1 3 (3)
I0413 18:53:28.818848 14460 net.cpp:157] Top shape: 1 5 (5)
I0413 18:53:28.818856 14460 net.cpp:157] Top shape: 1 5 (5)
I0413 18:53:28.818861 14460 net.cpp:165] Memory required for data: 18000052
I0413 18:53:28.818871 14460 layer_factory.hpp:77] Creating layer input_data_input_0_split
I0413 18:53:28.818889 14460 net.cpp:100] Creating Layer input_data_input_0_split
I0413 18:53:28.818898 14460 net.cpp:434] input_data_input_0_split <- input_data
I0413 18:53:28.818912 14460 net.cpp:408] input_data_input_0_split -> input_data_input_0_split_0
I0413 18:53:28.818934 14460 net.cpp:408] input_data_input_0_split -> input_data_input_0_split_1
I0413 18:53:28.818976 14460 net.cpp:150] Setting up input_data_input_0_split
I0413 18:53:28.818989 14460 net.cpp:157] Top shape: 1 3 1000 1500 (4500000)
I0413 18:53:28.818998 14460 net.cpp:157] Top shape: 1 3 1000 1500 (4500000)
I0413 18:53:28.819005 14460 net.cpp:165] Memory required for data: 54000052
I0413 18:53:28.819010 14460 layer_factory.hpp:77] Creating layer input_im_info_input_1_split
I0413 18:53:28.819021 14460 net.cpp:100] Creating Layer input_im_info_input_1_split
I0413 18:53:28.819030 14460 net.cpp:434] input_im_info_input_1_split <- input_im_info
I0413 18:53:28.819038 14460 net.cpp:408] input_im_info_input_1_split -> input_im_info_input_1_split_0
I0413 18:53:28.819049 14460 net.cpp:408] input_im_info_input_1_split -> input_im_info_input_1_split_1
I0413 18:53:28.819090 14460 net.cpp:150] Setting up input_im_info_input_1_split
I0413 18:53:28.819099 14460 net.cpp:157] Top shape: 1 3 (3)
I0413 18:53:28.819108 14460 net.cpp:157] Top shape: 1 3 (3)
I0413 18:53:28.819113 14460 net.cpp:165] Memory required for data: 54000076
I0413 18:53:28.819119 14460 layer_factory.hpp:77] Creating layer input_gt_boxes_input_2_split
I0413 18:53:28.819130 14460 net.cpp:100] Creating Layer input_gt_boxes_input_2_split
I0413 18:53:28.819138 14460 net.cpp:434] input_gt_boxes_input_2_split <- input_gt_boxes
I0413 18:53:28.819146 14460 net.cpp:408] input_gt_boxes_input_2_split -> input_gt_boxes_input_2_split_0
I0413 18:53:28.819162 14460 net.cpp:408] input_gt_boxes_input_2_split -> input_gt_boxes_input_2_split_1
I0413 18:53:28.819202 14460 net.cpp:150] Setting up input_gt_boxes_input_2_split
I0413 18:53:28.819214 14460 net.cpp:157] Top shape: 1 5 (5)
I0413 18:53:28.819223 14460 net.cpp:157] Top shape: 1 5 (5)
I0413 18:53:28.819228 14460 net.cpp:165] Memory required for data: 54000116
I0413 18:53:28.819234 14460 layer_factory.hpp:77] Creating layer conv1_1
I0413 18:53:28.819254 14460 net.cpp:100] Creating Layer conv1_1
I0413 18:53:28.819262 14460 net.cpp:434] conv1_1 <- input_data_input_0_split_0
I0413 18:53:28.819273 14460 net.cpp:408] conv1_1 -> conv1_1
I0413 18:53:28.824035 14460 net.cpp:150] Setting up conv1_1
I0413 18:53:28.824076 14460 net.cpp:157] Top shape: 1 64 1000 1500 (96000000)
I0413 18:53:28.824082 14460 net.cpp:165] Memory required for data: 438000116
I0413 18:53:28.824108 14460 layer_factory.hpp:77] Creating layer relu1_1
I0413 18:53:28.824125 14460 net.cpp:100] Creating Layer relu1_1
I0413 18:53:28.824132 14460 net.cpp:434] relu1_1 <- conv1_1
I0413 18:53:28.824147 14460 net.cpp:395] relu1_1 -> conv1_1 (in-place)
I0413 18:53:28.824177 14460 net.cpp:150] Setting up relu1_1
I0413 18:53:28.824188 14460 net.cpp:157] Top shape: 1 64 1000 1500 (96000000)
I0413 18:53:28.824194 14460 net.cpp:165] Memory required for data: 822000116
I0413 18:53:28.824200 14460 layer_factory.hpp:77] Creating layer conv1_2
I0413 18:53:28.824218 14460 net.cpp:100] Creating Layer conv1_2
I0413 18:53:28.824225 14460 net.cpp:434] conv1_2 <- conv1_1
I0413 18:53:28.824236 14460 net.cpp:408] conv1_2 -> conv1_2
I0413 18:53:28.827344 14460 net.cpp:150] Setting up conv1_2
I0413 18:53:28.827383 14460 net.cpp:157] Top shape: 1 64 1000 1500 (96000000)
I0413 18:53:28.827389 14460 net.cpp:165] Memory required for data: 1206000116
I0413 18:53:28.827420 14460 layer_factory.hpp:77] Creating layer relu1_2
I0413 18:53:28.827435 14460 net.cpp:100] Creating Layer relu1_2
I0413 18:53:28.827442 14460 net.cpp:434] relu1_2 <- conv1_2
I0413 18:53:28.827453 14460 net.cpp:395] relu1_2 -> conv1_2 (in-place)
I0413 18:53:28.827472 14460 net.cpp:150] Setting up relu1_2
I0413 18:53:28.827481 14460 net.cpp:157] Top shape: 1 64 1000 1500 (96000000)
I0413 18:53:28.827487 14460 net.cpp:165] Memory required for data: 1590000116
I0413 18:53:28.827494 14460 layer_factory.hpp:77] Creating layer pool1
I0413 18:53:28.827512 14460 net.cpp:100] Creating Layer pool1
I0413 18:53:28.827517 14460 net.cpp:434] pool1 <- conv1_2
I0413 18:53:28.827527 14460 net.cpp:408] pool1 -> pool1
I0413 18:53:28.827605 14460 net.cpp:150] Setting up pool1
I0413 18:53:28.827615 14460 net.cpp:157] Top shape: 1 64 500 750 (24000000)
I0413 18:53:28.827620 14460 net.cpp:165] Memory required for data: 1686000116
I0413 18:53:28.827626 14460 layer_factory.hpp:77] Creating layer conv2_1
I0413 18:53:28.827646 14460 net.cpp:100] Creating Layer conv2_1
I0413 18:53:28.827653 14460 net.cpp:434] conv2_1 <- pool1
I0413 18:53:28.827662 14460 net.cpp:408] conv2_1 -> conv2_1
I0413 18:53:28.828882 14460 net.cpp:150] Setting up conv2_1
I0413 18:53:28.828912 14460 net.cpp:157] Top shape: 1 128 500 750 (48000000)
I0413 18:53:28.828919 14460 net.cpp:165] Memory required for data: 1878000116
I0413 18:53:28.828935 14460 layer_factory.hpp:77] Creating layer relu2_1
I0413 18:53:28.828949 14460 net.cpp:100] Creating Layer relu2_1
I0413 18:53:28.828958 14460 net.cpp:434] relu2_1 <- conv2_1
I0413 18:53:28.828969 14460 net.cpp:395] relu2_1 -> conv2_1 (in-place)
I0413 18:53:28.828984 14460 net.cpp:150] Setting up relu2_1
I0413 18:53:28.828994 14460 net.cpp:157] Top shape: 1 128 500 750 (48000000)
I0413 18:53:28.829001 14460 net.cpp:165] Memory required for data: 2070000116
I0413 18:53:28.829007 14460 layer_factory.hpp:77] Creating layer conv2_2
I0413 18:53:28.829023 14460 net.cpp:100] Creating Layer conv2_2
I0413 18:53:28.829030 14460 net.cpp:434] conv2_2 <- conv2_1
I0413 18:53:28.829042 14460 net.cpp:408] conv2_2 -> conv2_2
I0413 18:53:28.829993 14460 net.cpp:150] Setting up conv2_2
I0413 18:53:28.830019 14460 net.cpp:157] Top shape: 1 128 500 750 (48000000)
I0413 18:53:28.830025 14460 net.cpp:165] Memory required for data: 2262000116
I0413 18:53:28.830039 14460 layer_factory.hpp:77] Creating layer relu2_2
I0413 18:53:28.830051 14460 net.cpp:100] Creating Layer relu2_2
I0413 18:53:28.830060 14460 net.cpp:434] relu2_2 <- conv2_2
I0413 18:53:28.830076 14460 net.cpp:395] relu2_2 -> conv2_2 (in-place)
I0413 18:53:28.830090 14460 net.cpp:150] Setting up relu2_2
I0413 18:53:28.830099 14460 net.cpp:157] Top shape: 1 128 500 750 (48000000)
I0413 18:53:28.830106 14460 net.cpp:165] Memory required for data: 2454000116
I0413 18:53:28.830112 14460 layer_factory.hpp:77] Creating layer pool2
I0413 18:53:28.830124 14460 net.cpp:100] Creating Layer pool2
I0413 18:53:28.830132 14460 net.cpp:434] pool2 <- conv2_2
I0413 18:53:28.830144 14460 net.cpp:408] pool2 -> pool2
I0413 18:53:28.830198 14460 net.cpp:150] Setting up pool2
I0413 18:53:28.830207 14460 net.cpp:157] Top shape: 1 128 250 375 (12000000)
I0413 18:53:28.830214 14460 net.cpp:165] Memory required for data: 2502000116
I0413 18:53:28.830221 14460 layer_factory.hpp:77] Creating layer conv3_1
I0413 18:53:28.830235 14460 net.cpp:100] Creating Layer conv3_1
I0413 18:53:28.830242 14460 net.cpp:434] conv3_1 <- pool2
I0413 18:53:28.830253 14460 net.cpp:408] conv3_1 -> conv3_1
I0413 18:53:28.831349 14460 net.cpp:150] Setting up conv3_1
I0413 18:53:28.831375 14460 net.cpp:157] Top shape: 1 256 250 375 (24000000)
I0413 18:53:28.831382 14460 net.cpp:165] Memory required for data: 2598000116
I0413 18:53:28.831399 14460 layer_factory.hpp:77] Creating layer relu3_1
I0413 18:53:28.831414 14460 net.cpp:100] Creating Layer relu3_1
I0413 18:53:28.831423 14460 net.cpp:434] relu3_1 <- conv3_1
I0413 18:53:28.831432 14460 net.cpp:395] relu3_1 -> conv3_1 (in-place)
I0413 18:53:28.831446 14460 net.cpp:150] Setting up relu3_1
I0413 18:53:28.831455 14460 net.cpp:157] Top shape: 1 256 250 375 (24000000)
I0413 18:53:28.831462 14460 net.cpp:165] Memory required for data: 2694000116
I0413 18:53:28.831468 14460 layer_factory.hpp:77] Creating layer conv3_2
I0413 18:53:28.831485 14460 net.cpp:100] Creating Layer conv3_2
I0413 18:53:28.831491 14460 net.cpp:434] conv3_2 <- conv3_1
I0413 18:53:28.831504 14460 net.cpp:408] conv3_2 -> conv3_2
I0413 18:53:28.832680 14460 net.cpp:150] Setting up conv3_2
I0413 18:53:28.832706 14460 net.cpp:157] Top shape: 1 256 250 375 (24000000)
I0413 18:53:28.832711 14460 net.cpp:165] Memory required for data: 2790000116
I0413 18:53:28.832725 14460 layer_factory.hpp:77] Creating layer relu3_2
I0413 18:53:28.832739 14460 net.cpp:100] Creating Layer relu3_2
I0413 18:53:28.832747 14460 net.cpp:434] relu3_2 <- conv3_2
I0413 18:53:28.832758 14460 net.cpp:395] relu3_2 -> conv3_2 (in-place)
I0413 18:53:28.832772 14460 net.cpp:150] Setting up relu3_2
I0413 18:53:28.832782 14460 net.cpp:157] Top shape: 1 256 250 375 (24000000)
I0413 18:53:28.832789 14460 net.cpp:165] Memory required for data: 2886000116
I0413 18:53:28.832795 14460 layer_factory.hpp:77] Creating layer conv3_3
I0413 18:53:28.832811 14460 net.cpp:100] Creating Layer conv3_3
I0413 18:53:28.832818 14460 net.cpp:434] conv3_3 <- conv3_2
I0413 18:53:28.832830 14460 net.cpp:408] conv3_3 -> conv3_3
I0413 18:53:28.834390 14460 net.cpp:150] Setting up conv3_3
I0413 18:53:28.834425 14460 net.cpp:157] Top shape: 1 256 250 375 (24000000)
I0413 18:53:28.834431 14460 net.cpp:165] Memory required for data: 2982000116
I0413 18:53:28.834446 14460 layer_factory.hpp:77] Creating layer relu3_3
I0413 18:53:28.834460 14460 net.cpp:100] Creating Layer relu3_3
I0413 18:53:28.834470 14460 net.cpp:434] relu3_3 <- conv3_3
I0413 18:53:28.834481 14460 net.cpp:395] relu3_3 -> conv3_3 (in-place)
I0413 18:53:28.834497 14460 net.cpp:150] Setting up relu3_3
I0413 18:53:28.834506 14460 net.cpp:157] Top shape: 1 256 250 375 (24000000)
I0413 18:53:28.834512 14460 net.cpp:165] Memory required for data: 3078000116
I0413 18:53:28.834518 14460 layer_factory.hpp:77] Creating layer pool3
I0413 18:53:28.834533 14460 net.cpp:100] Creating Layer pool3
I0413 18:53:28.834540 14460 net.cpp:434] pool3 <- conv3_3
I0413 18:53:28.834550 14460 net.cpp:408] pool3 -> pool3
I0413 18:53:28.834599 14460 net.cpp:150] Setting up pool3
I0413 18:53:28.834609 14460 net.cpp:157] Top shape: 1 256 125 188 (6016000)
I0413 18:53:28.834615 14460 net.cpp:165] Memory required for data: 3102064116
I0413 18:53:28.834623 14460 layer_factory.hpp:77] Creating layer conv4_1
I0413 18:53:28.834640 14460 net.cpp:100] Creating Layer conv4_1
I0413 18:53:28.834647 14460 net.cpp:434] conv4_1 <- pool3
I0413 18:53:28.834656 14460 net.cpp:408] conv4_1 -> conv4_1
I0413 18:53:28.837431 14460 net.cpp:150] Setting up conv4_1
I0413 18:53:28.837466 14460 net.cpp:157] Top shape: 1 512 125 188 (12032000)
I0413 18:53:28.837472 14460 net.cpp:165] Memory required for data: 3150192116
I0413 18:53:28.837487 14460 layer_factory.hpp:77] Creating layer relu4_1
I0413 18:53:28.837503 14460 net.cpp:100] Creating Layer relu4_1
I0413 18:53:28.837512 14460 net.cpp:434] relu4_1 <- conv4_1
I0413 18:53:28.837524 14460 net.cpp:395] relu4_1 -> conv4_1 (in-place)
I0413 18:53:28.837540 14460 net.cpp:150] Setting up relu4_1
I0413 18:53:28.837550 14460 net.cpp:157] Top shape: 1 512 125 188 (12032000)
I0413 18:53:28.837556 14460 net.cpp:165] Memory required for data: 3198320116
I0413 18:53:28.837563 14460 layer_factory.hpp:77] Creating layer conv4_2
I0413 18:53:28.837579 14460 net.cpp:100] Creating Layer conv4_2
I0413 18:53:28.837586 14460 net.cpp:434] conv4_2 <- conv4_1
I0413 18:53:28.837599 14460 net.cpp:408] conv4_2 -> conv4_2
I0413 18:53:28.841754 14460 net.cpp:150] Setting up conv4_2
I0413 18:53:28.841792 14460 net.cpp:157] Top shape: 1 512 125 188 (12032000)
I0413 18:53:28.841797 14460 net.cpp:165] Memory required for data: 3246448116
I0413 18:53:28.841828 14460 layer_factory.hpp:77] Creating layer relu4_2
I0413 18:53:28.841843 14460 net.cpp:100] Creating Layer relu4_2
I0413 18:53:28.841862 14460 net.cpp:434] relu4_2 <- conv4_2
I0413 18:53:28.841876 14460 net.cpp:395] relu4_2 -> conv4_2 (in-place)
I0413 18:53:28.841892 14460 net.cpp:150] Setting up relu4_2
I0413 18:53:28.841902 14460 net.cpp:157] Top shape: 1 512 125 188 (12032000)
I0413 18:53:28.841909 14460 net.cpp:165] Memory required for data: 3294576116
I0413 18:53:28.841915 14460 layer_factory.hpp:77] Creating layer conv4_3
I0413 18:53:28.841929 14460 net.cpp:100] Creating Layer conv4_3
I0413 18:53:28.841939 14460 net.cpp:434] conv4_3 <- conv4_2
I0413 18:53:28.841953 14460 net.cpp:408] conv4_3 -> conv4_3
I0413 18:53:28.846155 14460 net.cpp:150] Setting up conv4_3
I0413 18:53:28.846194 14460 net.cpp:157] Top shape: 1 512 125 188 (12032000)
I0413 18:53:28.846199 14460 net.cpp:165] Memory required for data: 3342704116
I0413 18:53:28.846212 14460 layer_factory.hpp:77] Creating layer relu4_3
I0413 18:53:28.846228 14460 net.cpp:100] Creating Layer relu4_3
I0413 18:53:28.846238 14460 net.cpp:434] relu4_3 <- conv4_3
I0413 18:53:28.846251 14460 net.cpp:395] relu4_3 -> conv4_3 (in-place)
I0413 18:53:28.846268 14460 net.cpp:150] Setting up relu4_3
I0413 18:53:28.846278 14460 net.cpp:157] Top shape: 1 512 125 188 (12032000)
I0413 18:53:28.846284 14460 net.cpp:165] Memory required for data: 3390832116
I0413 18:53:28.846292 14460 layer_factory.hpp:77] Creating layer pool4
I0413 18:53:28.846305 14460 net.cpp:100] Creating Layer pool4
I0413 18:53:28.846312 14460 net.cpp:434] pool4 <- conv4_3
I0413 18:53:28.846323 14460 net.cpp:408] pool4 -> pool4
I0413 18:53:28.846366 14460 net.cpp:150] Setting up pool4
I0413 18:53:28.846377 14460 net.cpp:157] Top shape: 1 512 63 94 (3032064)
I0413 18:53:28.846382 14460 net.cpp:165] Memory required for data: 3402960372
I0413 18:53:28.846391 14460 layer_factory.hpp:77] Creating layer conv5_1
I0413 18:53:28.846407 14460 net.cpp:100] Creating Layer conv5_1
I0413 18:53:28.846415 14460 net.cpp:434] conv5_1 <- pool4
I0413 18:53:28.846424 14460 net.cpp:408] conv5_1 -> conv5_1
I0413 18:53:28.851043 14460 net.cpp:150] Setting up conv5_1
I0413 18:53:28.851079 14460 net.cpp:157] Top shape: 1 512 63 94 (3032064)
I0413 18:53:28.851085 14460 net.cpp:165] Memory required for data: 3415088628
I0413 18:53:28.851107 14460 layer_factory.hpp:77] Creating layer relu5_1
I0413 18:53:28.851121 14460 net.cpp:100] Creating Layer relu5_1
I0413 18:53:28.851128 14460 net.cpp:434] relu5_1 <- conv5_1
I0413 18:53:28.851140 14460 net.cpp:395] relu5_1 -> conv5_1 (in-place)
I0413 18:53:28.851155 14460 net.cpp:150] Setting up relu5_1
I0413 18:53:28.851164 14460 net.cpp:157] Top shape: 1 512 63 94 (3032064)
I0413 18:53:28.851171 14460 net.cpp:165] Memory required for data: 3427216884
I0413 18:53:28.851176 14460 layer_factory.hpp:77] Creating layer conv5_2
I0413 18:53:28.851191 14460 net.cpp:100] Creating Layer conv5_2
I0413 18:53:28.851198 14460 net.cpp:434] conv5_2 <- conv5_1
I0413 18:53:28.851210 14460 net.cpp:408] conv5_2 -> conv5_2
I0413 18:53:28.855337 14460 net.cpp:150] Setting up conv5_2
I0413 18:53:28.855383 14460 net.cpp:157] Top shape: 1 512 63 94 (3032064)
I0413 18:53:28.855392 14460 net.cpp:165] Memory required for data: 3439345140
I0413 18:53:28.855409 14460 layer_factory.hpp:77] Creating layer relu5_2
I0413 18:53:28.855427 14460 net.cpp:100] Creating Layer relu5_2
I0413 18:53:28.855442 14460 net.cpp:434] relu5_2 <- conv5_2
I0413 18:53:28.855455 14460 net.cpp:395] relu5_2 -> conv5_2 (in-place)
I0413 18:53:28.855471 14460 net.cpp:150] Setting up relu5_2
I0413 18:53:28.855492 14460 net.cpp:157] Top shape: 1 512 63 94 (3032064)
I0413 18:53:28.855499 14460 net.cpp:165] Memory required for data: 3451473396
I0413 18:53:28.855506 14460 layer_factory.hpp:77] Creating layer conv5_3
I0413 18:53:28.855531 14460 net.cpp:100] Creating Layer conv5_3
I0413 18:53:28.855541 14460 net.cpp:434] conv5_3 <- conv5_2
I0413 18:53:28.855552 14460 net.cpp:408] conv5_3 -> conv5_3
I0413 18:53:28.860069 14460 net.cpp:150] Setting up conv5_3
I0413 18:53:28.860118 14460 net.cpp:157] Top shape: 1 512 63 94 (3032064)
I0413 18:53:28.860126 14460 net.cpp:165] Memory required for data: 3463601652
I0413 18:53:28.860141 14460 layer_factory.hpp:77] Creating layer relu5_3
I0413 18:53:28.860154 14460 net.cpp:100] Creating Layer relu5_3
I0413 18:53:28.860162 14460 net.cpp:434] relu5_3 <- conv5_3
I0413 18:53:28.860172 14460 net.cpp:395] relu5_3 -> conv5_3 (in-place)
I0413 18:53:28.860188 14460 net.cpp:150] Setting up relu5_3
I0413 18:53:28.860196 14460 net.cpp:157] Top shape: 1 512 63 94 (3032064)
I0413 18:53:28.860204 14460 net.cpp:165] Memory required for data: 3475729908
I0413 18:53:28.860210 14460 layer_factory.hpp:77] Creating layer conv5_3_relu5_3_0_split
I0413 18:53:28.860224 14460 net.cpp:100] Creating Layer conv5_3_relu5_3_0_split
I0413 18:53:28.860227 14460 net.cpp:434] conv5_3_relu5_3_0_split <- conv5_3
I0413 18:53:28.860234 14460 net.cpp:408] conv5_3_relu5_3_0_split -> conv5_3_relu5_3_0_split_0
I0413 18:53:28.860241 14460 net.cpp:408] conv5_3_relu5_3_0_split -> conv5_3_relu5_3_0_split_1
I0413 18:53:28.860282 14460 net.cpp:150] Setting up conv5_3_relu5_3_0_split
I0413 18:53:28.860292 14460 net.cpp:157] Top shape: 1 512 63 94 (3032064)
I0413 18:53:28.860301 14460 net.cpp:157] Top shape: 1 512 63 94 (3032064)
I0413 18:53:28.860307 14460 net.cpp:165] Memory required for data: 3499986420
I0413 18:53:28.860311 14460 layer_factory.hpp:77] Creating layer rpn_big_conv1
I0413 18:53:28.860328 14460 net.cpp:100] Creating Layer rpn_big_conv1
I0413 18:53:28.860334 14460 net.cpp:434] rpn_big_conv1 <- conv5_3_relu5_3_0_split_0
I0413 18:53:28.860347 14460 net.cpp:408] rpn_big_conv1 -> rpn_big_conv1
I0413 18:53:28.885521 14460 net.cpp:150] Setting up rpn_big_conv1
I0413 18:53:28.885553 14460 net.cpp:157] Top shape: 1 512 63 94 (3032064)
I0413 18:53:28.885566 14460 net.cpp:165] Memory required for data: 3512114676
I0413 18:53:28.885576 14460 layer_factory.hpp:77] Creating layer rpn_big_conv1_relu
I0413 18:53:28.885588 14460 net.cpp:100] Creating Layer rpn_big_conv1_relu
I0413 18:53:28.885593 14460 net.cpp:434] rpn_big_conv1_relu <- rpn_big_conv1
I0413 18:53:28.885603 14460 net.cpp:395] rpn_big_conv1_relu -> rpn_big_conv1 (in-place)
I0413 18:53:28.885613 14460 net.cpp:150] Setting up rpn_big_conv1_relu
I0413 18:53:28.885618 14460 net.cpp:157] Top shape: 1 512 63 94 (3032064)
I0413 18:53:28.885622 14460 net.cpp:165] Memory required for data: 3524242932
I0413 18:53:28.885624 14460 layer_factory.hpp:77] Creating layer rpn_big_conv2
I0413 18:53:28.885637 14460 net.cpp:100] Creating Layer rpn_big_conv2
I0413 18:53:28.885639 14460 net.cpp:434] rpn_big_conv2 <- rpn_big_conv1
I0413 18:53:28.885648 14460 net.cpp:408] rpn_big_conv2 -> rpn_big_conv2
I0413 18:53:28.911494 14460 net.cpp:150] Setting up rpn_big_conv2
I0413 18:53:28.911537 14460 net.cpp:157] Top shape: 1 512 63 94 (3032064)
I0413 18:53:28.911543 14460 net.cpp:165] Memory required for data: 3536371188
I0413 18:53:28.911556 14460 layer_factory.hpp:77] Creating layer rpn_big_conv2_relu
I0413 18:53:28.911566 14460 net.cpp:100] Creating Layer rpn_big_conv2_relu
I0413 18:53:28.911571 14460 net.cpp:434] rpn_big_conv2_relu <- rpn_big_conv2
I0413 18:53:28.911581 14460 net.cpp:395] rpn_big_conv2_relu -> rpn_big_conv2 (in-place)
I0413 18:53:28.911592 14460 net.cpp:150] Setting up rpn_big_conv2_relu
I0413 18:53:28.911595 14460 net.cpp:157] Top shape: 1 512 63 94 (3032064)
I0413 18:53:28.911598 14460 net.cpp:165] Memory required for data: 3548499444
I0413 18:53:28.911602 14460 layer_factory.hpp:77] Creating layer rpn_big_conv2_drop
I0413 18:53:28.911608 14460 net.cpp:100] Creating Layer rpn_big_conv2_drop
I0413 18:53:28.911612 14460 net.cpp:434] rpn_big_conv2_drop <- rpn_big_conv2
I0413 18:53:28.911617 14460 net.cpp:395] rpn_big_conv2_drop -> rpn_big_conv2 (in-place)
I0413 18:53:28.911641 14460 net.cpp:150] Setting up rpn_big_conv2_drop
I0413 18:53:28.911646 14460 net.cpp:157] Top shape: 1 512 63 94 (3032064)
I0413 18:53:28.911649 14460 net.cpp:165] Memory required for data: 3560627700
I0413 18:53:28.911653 14460 layer_factory.hpp:77] Creating layer rpn_big_conv2_rpn_big_conv2_drop_0_split
I0413 18:53:28.911660 14460 net.cpp:100] Creating Layer rpn_big_conv2_rpn_big_conv2_drop_0_split
I0413 18:53:28.911664 14460 net.cpp:434] rpn_big_conv2_rpn_big_conv2_drop_0_split <- rpn_big_conv2
I0413 18:53:28.911669 14460 net.cpp:408] rpn_big_conv2_rpn_big_conv2_drop_0_split -> rpn_big_conv2_rpn_big_conv2_drop_0_split_0
I0413 18:53:28.911677 14460 net.cpp:408] rpn_big_conv2_rpn_big_conv2_drop_0_split -> rpn_big_conv2_rpn_big_conv2_drop_0_split_1
I0413 18:53:28.911713 14460 net.cpp:150] Setting up rpn_big_conv2_rpn_big_conv2_drop_0_split
I0413 18:53:28.911721 14460 net.cpp:157] Top shape: 1 512 63 94 (3032064)
I0413 18:53:28.911725 14460 net.cpp:157] Top shape: 1 512 63 94 (3032064)
I0413 18:53:28.911728 14460 net.cpp:165] Memory required for data: 3584884212
I0413 18:53:28.911731 14460 layer_factory.hpp:77] Creating layer rpn_big_output_cls
I0413 18:53:28.911746 14460 net.cpp:100] Creating Layer rpn_big_output_cls
I0413 18:53:28.911749 14460 net.cpp:434] rpn_big_output_cls <- rpn_big_conv2_rpn_big_conv2_drop_0_split_0
I0413 18:53:28.911756 14460 net.cpp:408] rpn_big_output_cls -> rpn_big_output_cls
I0413 18:53:28.930901 14460 net.cpp:150] Setting up rpn_big_output_cls
I0413 18:53:28.930941 14460 net.cpp:157] Top shape: 1 384 63 94 (2274048)
I0413 18:53:28.930954 14460 net.cpp:165] Memory required for data: 3593980404
I0413 18:53:28.930965 14460 layer_factory.hpp:77] Creating layer rpn_big_output_cls_relu
I0413 18:53:28.930976 14460 net.cpp:100] Creating Layer rpn_big_output_cls_relu
I0413 18:53:28.930982 14460 net.cpp:434] rpn_big_output_cls_relu <- rpn_big_output_cls
I0413 18:53:28.930990 14460 net.cpp:395] rpn_big_output_cls_relu -> rpn_big_output_cls (in-place)
I0413 18:53:28.931000 14460 net.cpp:150] Setting up rpn_big_output_cls_relu
I0413 18:53:28.931005 14460 net.cpp:157] Top shape: 1 384 63 94 (2274048)
I0413 18:53:28.931008 14460 net.cpp:165] Memory required for data: 3603076596
I0413 18:53:28.931011 14460 layer_factory.hpp:77] Creating layer rpn_big_cls_score
I0413 18:53:28.931022 14460 net.cpp:100] Creating Layer rpn_big_cls_score
I0413 18:53:28.931030 14460 net.cpp:434] rpn_big_cls_score <- rpn_big_output_cls
I0413 18:53:28.931042 14460 net.cpp:408] rpn_big_cls_score -> rpn_big_cls_score
I0413 18:53:28.933738 14460 net.cpp:150] Setting up rpn_big_cls_score
I0413 18:53:28.933764 14460 net.cpp:157] Top shape: 1 52 61 92 (291824)
I0413 18:53:28.933771 14460 net.cpp:165] Memory required for data: 3604243892
I0413 18:53:28.933791 14460 layer_factory.hpp:77] Creating layer rpn_big_cls_score_rpn_big_cls_score_0_split
I0413 18:53:28.933811 14460 net.cpp:100] Creating Layer rpn_big_cls_score_rpn_big_cls_score_0_split
I0413 18:53:28.933820 14460 net.cpp:434] rpn_big_cls_score_rpn_big_cls_score_0_split <- rpn_big_cls_score
I0413 18:53:28.933831 14460 net.cpp:408] rpn_big_cls_score_rpn_big_cls_score_0_split -> rpn_big_cls_score_rpn_big_cls_score_0_split_0
I0413 18:53:28.933847 14460 net.cpp:408] rpn_big_cls_score_rpn_big_cls_score_0_split -> rpn_big_cls_score_rpn_big_cls_score_0_split_1
I0413 18:53:28.933890 14460 net.cpp:150] Setting up rpn_big_cls_score_rpn_big_cls_score_0_split
I0413 18:53:28.933902 14460 net.cpp:157] Top shape: 1 52 61 92 (291824)
I0413 18:53:28.933910 14460 net.cpp:157] Top shape: 1 52 61 92 (291824)
I0413 18:53:28.933917 14460 net.cpp:165] Memory required for data: 3606578484
I0413 18:53:28.933923 14460 layer_factory.hpp:77] Creating layer rpn_big_cls_score_reshape
I0413 18:53:28.933938 14460 net.cpp:100] Creating Layer rpn_big_cls_score_reshape
I0413 18:53:28.933944 14460 net.cpp:434] rpn_big_cls_score_reshape <- rpn_big_cls_score_rpn_big_cls_score_0_split_0
I0413 18:53:28.933957 14460 net.cpp:408] rpn_big_cls_score_reshape -> rpn_big_cls_score_reshape
I0413 18:53:28.933990 14460 net.cpp:150] Setting up rpn_big_cls_score_reshape
I0413 18:53:28.934000 14460 net.cpp:157] Top shape: 1 2 1586 92 (291824)
I0413 18:53:28.934005 14460 net.cpp:165] Memory required for data: 3607745780
I0413 18:53:28.934011 14460 layer_factory.hpp:77] Creating layer rpn_big_cls_score_reshape_rpn_big_cls_score_reshape_0_split
I0413 18:53:28.934022 14460 net.cpp:100] Creating Layer rpn_big_cls_score_reshape_rpn_big_cls_score_reshape_0_split
I0413 18:53:28.934031 14460 net.cpp:434] rpn_big_cls_score_reshape_rpn_big_cls_score_reshape_0_split <- rpn_big_cls_score_reshape
I0413 18:53:28.934043 14460 net.cpp:408] rpn_big_cls_score_reshape_rpn_big_cls_score_reshape_0_split -> rpn_big_cls_score_reshape_rpn_big_cls_score_reshape_0_split_0
I0413 18:53:28.934056 14460 net.cpp:408] rpn_big_cls_score_reshape_rpn_big_cls_score_reshape_0_split -> rpn_big_cls_score_reshape_rpn_big_cls_score_reshape_0_split_1
I0413 18:53:28.934095 14460 net.cpp:150] Setting up rpn_big_cls_score_reshape_rpn_big_cls_score_reshape_0_split
I0413 18:53:28.934105 14460 net.cpp:157] Top shape: 1 2 1586 92 (291824)
I0413 18:53:28.934113 14460 net.cpp:157] Top shape: 1 2 1586 92 (291824)
I0413 18:53:28.934121 14460 net.cpp:165] Memory required for data: 3610080372
I0413 18:53:28.934128 14460 layer_factory.hpp:77] Creating layer rpn_big_cls_prob
I0413 18:53:28.934139 14460 net.cpp:100] Creating Layer rpn_big_cls_prob
I0413 18:53:28.934147 14460 net.cpp:434] rpn_big_cls_prob <- rpn_big_cls_score_reshape_rpn_big_cls_score_reshape_0_split_0
I0413 18:53:28.934159 14460 net.cpp:408] rpn_big_cls_prob -> rpn_big_cls_prob
I0413 18:53:28.934218 14460 net.cpp:150] Setting up rpn_big_cls_prob
I0413 18:53:28.934228 14460 net.cpp:157] Top shape: 1 2 1586 92 (291824)
I0413 18:53:28.934236 14460 net.cpp:165] Memory required for data: 3611247668
I0413 18:53:28.934242 14460 layer_factory.hpp:77] Creating layer rpn_big_cls_prob_reshape
I0413 18:53:28.934252 14460 net.cpp:100] Creating Layer rpn_big_cls_prob_reshape
I0413 18:53:28.934259 14460 net.cpp:434] rpn_big_cls_prob_reshape <- rpn_big_cls_prob
I0413 18:53:28.934270 14460 net.cpp:408] rpn_big_cls_prob_reshape -> rpn_big_cls_prob_reshape
I0413 18:53:28.934300 14460 net.cpp:150] Setting up rpn_big_cls_prob_reshape
I0413 18:53:28.934309 14460 net.cpp:157] Top shape: 1 52 61 92 (291824)
I0413 18:53:28.934315 14460 net.cpp:165] Memory required for data: 3612414964
I0413 18:53:28.934324 14460 layer_factory.hpp:77] Creating layer rpn_big_cls_prob_reshape_rpn_big_cls_prob_reshape_0_split
I0413 18:53:28.934335 14460 net.cpp:100] Creating Layer rpn_big_cls_prob_reshape_rpn_big_cls_prob_reshape_0_split
I0413 18:53:28.934343 14460 net.cpp:434] rpn_big_cls_prob_reshape_rpn_big_cls_prob_reshape_0_split <- rpn_big_cls_prob_reshape
I0413 18:53:28.934353 14460 net.cpp:408] rpn_big_cls_prob_reshape_rpn_big_cls_prob_reshape_0_split -> rpn_big_cls_prob_reshape_rpn_big_cls_prob_reshape_0_split_0
I0413 18:53:28.934370 14460 net.cpp:408] rpn_big_cls_prob_reshape_rpn_big_cls_prob_reshape_0_split -> rpn_big_cls_prob_reshape_rpn_big_cls_prob_reshape_0_split_1
I0413 18:53:28.934406 14460 net.cpp:150] Setting up rpn_big_cls_prob_reshape_rpn_big_cls_prob_reshape_0_split
I0413 18:53:28.934417 14460 net.cpp:157] Top shape: 1 52 61 92 (291824)
I0413 18:53:28.934427 14460 net.cpp:157] Top shape: 1 52 61 92 (291824)
I0413 18:53:28.934435 14460 net.cpp:165] Memory required for data: 3614749556
I0413 18:53:28.934442 14460 layer_factory.hpp:77] Creating layer rpn_big_anchor_target
I0413 18:53:28.935746 14460 net.cpp:100] Creating Layer rpn_big_anchor_target
I0413 18:53:28.935761 14460 net.cpp:434] rpn_big_anchor_target <- rpn_big_cls_score_rpn_big_cls_score_0_split_1
I0413 18:53:28.935771 14460 net.cpp:434] rpn_big_anchor_target <- input_gt_boxes_input_2_split_0
I0413 18:53:28.935781 14460 net.cpp:434] rpn_big_anchor_target <- input_ignored_boxes
I0413 18:53:28.935788 14460 net.cpp:434] rpn_big_anchor_target <- input_im_info_input_1_split_0
I0413 18:53:28.935797 14460 net.cpp:434] rpn_big_anchor_target <- input_data_input_0_split_1
I0413 18:53:28.935807 14460 net.cpp:434] rpn_big_anchor_target <- rpn_big_cls_prob_reshape_rpn_big_cls_prob_reshape_0_split_0
I0413 18:53:28.935822 14460 net.cpp:408] rpn_big_anchor_target -> rpn_big_anchor_target_labels
I0413 18:53:28.935838 14460 net.cpp:408] rpn_big_anchor_target -> rpn_big_anchor_target_bbox_targets
I0413 18:53:28.935853 14460 net.cpp:408] rpn_big_anchor_target -> rpn_big_anchor_target_inside_weights
I0413 18:53:28.935868 14460 net.cpp:408] rpn_big_anchor_target -> rpn_big_anchor_target_outside_weights
I0413 18:53:28.940711 14460 net.cpp:150] Setting up rpn_big_anchor_target
I0413 18:53:28.940743 14460 net.cpp:157] Top shape: 1 1 1586 92 (145912)
I0413 18:53:28.940752 14460 net.cpp:157] Top shape: 1 104 61 92 (583648)
I0413 18:53:28.940759 14460 net.cpp:157] Top shape: 1 104 61 92 (583648)
I0413 18:53:28.940767 14460 net.cpp:157] Top shape: 1 104 61 92 (583648)
I0413 18:53:28.940773 14460 net.cpp:165] Memory required for data: 3622336980
I0413 18:53:28.940780 14460 layer_factory.hpp:77] Creating layer rpn_big_loss_cls
I0413 18:53:28.940810 14460 net.cpp:100] Creating Layer rpn_big_loss_cls
I0413 18:53:28.940820 14460 net.cpp:434] rpn_big_loss_cls <- rpn_big_cls_score_reshape_rpn_big_cls_score_reshape_0_split_1
I0413 18:53:28.940831 14460 net.cpp:434] rpn_big_loss_cls <- rpn_big_anchor_target_labels
I0413 18:53:28.940845 14460 net.cpp:408] rpn_big_loss_cls -> rpn_big_loss_cls
I0413 18:53:28.940865 14460 layer_factory.hpp:77] Creating layer rpn_big_loss_cls
I0413 18:53:28.941498 14460 net.cpp:150] Setting up rpn_big_loss_cls
I0413 18:53:28.941514 14460 net.cpp:157] Top shape: (1)
I0413 18:53:28.941519 14460 net.cpp:160]     with loss weight 1
I0413 18:53:28.941537 14460 net.cpp:165] Memory required for data: 3622336984
I0413 18:53:28.941545 14460 layer_factory.hpp:77] Creating layer rpn_big_output_box
I0413 18:53:28.941566 14460 net.cpp:100] Creating Layer rpn_big_output_box
I0413 18:53:28.941575 14460 net.cpp:434] rpn_big_output_box <- rpn_big_conv2_rpn_big_conv2_drop_0_split_1
I0413 18:53:28.941586 14460 net.cpp:408] rpn_big_output_box -> rpn_big_output_box
I0413 18:53:28.960571 14460 net.cpp:150] Setting up rpn_big_output_box
I0413 18:53:28.960603 14460 net.cpp:157] Top shape: 1 384 63 94 (2274048)
I0413 18:53:28.960609 14460 net.cpp:165] Memory required for data: 3631433176
I0413 18:53:28.960631 14460 layer_factory.hpp:77] Creating layer rpn_big_output_box_relu
I0413 18:53:28.960645 14460 net.cpp:100] Creating Layer rpn_big_output_box_relu
I0413 18:53:28.960662 14460 net.cpp:434] rpn_big_output_box_relu <- rpn_big_output_box
I0413 18:53:28.960676 14460 net.cpp:395] rpn_big_output_box_relu -> rpn_big_output_box (in-place)
I0413 18:53:28.960695 14460 net.cpp:150] Setting up rpn_big_output_box_relu
I0413 18:53:28.960703 14460 net.cpp:157] Top shape: 1 384 63 94 (2274048)
I0413 18:53:28.960711 14460 net.cpp:165] Memory required for data: 3640529368
I0413 18:53:28.960716 14460 layer_factory.hpp:77] Creating layer rpn_big_bbox_pred
I0413 18:53:28.960736 14460 net.cpp:100] Creating Layer rpn_big_bbox_pred
I0413 18:53:28.960742 14460 net.cpp:434] rpn_big_bbox_pred <- rpn_big_output_box
I0413 18:53:28.960757 14460 net.cpp:408] rpn_big_bbox_pred -> rpn_big_bbox_pred
I0413 18:53:28.965121 14460 net.cpp:150] Setting up rpn_big_bbox_pred
I0413 18:53:28.965147 14460 net.cpp:157] Top shape: 1 104 61 92 (583648)
I0413 18:53:28.965152 14460 net.cpp:165] Memory required for data: 3642863960
I0413 18:53:28.965167 14460 layer_factory.hpp:77] Creating layer rpn_big_bbox_pred_rpn_big_bbox_pred_0_split
I0413 18:53:28.965183 14460 net.cpp:100] Creating Layer rpn_big_bbox_pred_rpn_big_bbox_pred_0_split
I0413 18:53:28.965193 14460 net.cpp:434] rpn_big_bbox_pred_rpn_big_bbox_pred_0_split <- rpn_big_bbox_pred
I0413 18:53:28.965206 14460 net.cpp:408] rpn_big_bbox_pred_rpn_big_bbox_pred_0_split -> rpn_big_bbox_pred_rpn_big_bbox_pred_0_split_0
I0413 18:53:28.965222 14460 net.cpp:408] rpn_big_bbox_pred_rpn_big_bbox_pred_0_split -> rpn_big_bbox_pred_rpn_big_bbox_pred_0_split_1
I0413 18:53:28.965266 14460 net.cpp:150] Setting up rpn_big_bbox_pred_rpn_big_bbox_pred_0_split
I0413 18:53:28.965276 14460 net.cpp:157] Top shape: 1 104 61 92 (583648)
I0413 18:53:28.965286 14460 net.cpp:157] Top shape: 1 104 61 92 (583648)
I0413 18:53:28.965292 14460 net.cpp:165] Memory required for data: 3647533144
I0413 18:53:28.965299 14460 layer_factory.hpp:77] Creating layer rpn_big_loss_bbox
I0413 18:53:28.965665 14460 net.cpp:100] Creating Layer rpn_big_loss_bbox
I0413 18:53:28.965677 14460 net.cpp:434] rpn_big_loss_bbox <- rpn_big_bbox_pred_rpn_big_bbox_pred_0_split_0
I0413 18:53:28.965685 14460 net.cpp:434] rpn_big_loss_bbox <- rpn_big_anchor_target_bbox_targets
I0413 18:53:28.965694 14460 net.cpp:434] rpn_big_loss_bbox <- rpn_big_anchor_target_inside_weights
I0413 18:53:28.965703 14460 net.cpp:434] rpn_big_loss_bbox <- rpn_big_anchor_target_outside_weights
I0413 18:53:28.965716 14460 net.cpp:408] rpn_big_loss_bbox -> rpn_big_loss_bbox
I0413 18:53:28.969954 14460 net.cpp:150] Setting up rpn_big_loss_bbox
I0413 18:53:28.969986 14460 net.cpp:157] Top shape: 1 (1)
I0413 18:53:28.969992 14460 net.cpp:160]     with loss weight 1
I0413 18:53:28.970008 14460 net.cpp:165] Memory required for data: 3647533148
I0413 18:53:28.970017 14460 layer_factory.hpp:77] Creating layer proposal
I0413 18:53:28.970419 14460 net.cpp:100] Creating Layer proposal
I0413 18:53:28.970432 14460 net.cpp:434] proposal <- rpn_big_cls_prob_reshape_rpn_big_cls_prob_reshape_0_split_1
I0413 18:53:28.970443 14460 net.cpp:434] proposal <- rpn_big_bbox_pred_rpn_big_bbox_pred_0_split_1
I0413 18:53:28.970463 14460 net.cpp:434] proposal <- input_im_info_input_1_split_1
I0413 18:53:28.970476 14460 net.cpp:408] proposal -> rpn_rois
I0413 18:53:28.974512 14460 net.cpp:150] Setting up proposal
I0413 18:53:28.974527 14460 net.cpp:157] Top shape: 1 5 (5)
I0413 18:53:28.974534 14460 net.cpp:165] Memory required for data: 3647533168
I0413 18:53:28.974539 14460 layer_factory.hpp:77] Creating layer roi-data
I0413 18:53:28.974828 14460 net.cpp:100] Creating Layer roi-data
I0413 18:53:28.974838 14460 net.cpp:434] roi-data <- rpn_rois
I0413 18:53:28.974846 14460 net.cpp:434] roi-data <- input_gt_boxes_input_2_split_1
I0413 18:53:28.974865 14460 net.cpp:408] roi-data -> rois
I0413 18:53:28.974881 14460 net.cpp:408] roi-data -> labels
I0413 18:53:28.974897 14460 net.cpp:408] roi-data -> bbox_targets
I0413 18:53:28.974911 14460 net.cpp:408] roi-data -> bbox_inside_weights
I0413 18:53:28.974925 14460 net.cpp:408] roi-data -> bbox_outside_weights
I0413 18:53:28.974939 14460 net.cpp:408] roi-data -> pid_label
I0413 18:53:28.975859 14460 net.cpp:150] Setting up roi-data
I0413 18:53:28.975873 14460 net.cpp:157] Top shape: 1 5 (5)
I0413 18:53:28.975881 14460 net.cpp:157] Top shape: 1 1 (1)
I0413 18:53:28.975888 14460 net.cpp:157] Top shape: 1 8 (8)
I0413 18:53:28.975895 14460 net.cpp:157] Top shape: 1 8 (8)
I0413 18:53:28.975903 14460 net.cpp:157] Top shape: 1 8 (8)
I0413 18:53:28.975909 14460 net.cpp:157] Top shape: (0)
I0413 18:53:28.975915 14460 net.cpp:165] Memory required for data: 3647533288
I0413 18:53:28.975922 14460 layer_factory.hpp:77] Creating layer pid_label_roi-data_5_split
I0413 18:53:28.975934 14460 net.cpp:100] Creating Layer pid_label_roi-data_5_split
I0413 18:53:28.975942 14460 net.cpp:434] pid_label_roi-data_5_split <- pid_label
I0413 18:53:28.975955 14460 net.cpp:408] pid_label_roi-data_5_split -> pid_label_roi-data_5_split_0
…
