…
I0412 18:03:19.408762  5730 solver.cpp:48] Initializing solver from parameters: 
base_lr: 0.001
display: 20
lr_policy: "multistep"
gamma: 0.1
momentum: 0.9
weight_decay: 0.0005
snapshot: 0
snapshot_prefix: "faces_example"
net_param {
  name: "GeneratedModel_12_04_2017_18_03"
  layer {
    name: "input"
    type: "Python"
    top: "input_data"
    top: "input_im_info"
    top: "input_gt_boxes"
    top: "input_ignored_boxes"
    python_param {
      module: "layers.roi_data_layer"
      layer: "RoIDataLayer"
      param_str: "{\"num_classes\": 2}"
    }
  }
  layer {
    name: "conv1_1"
    type: "Convolution"
    bottom: "input_data"
    top: "conv1_1"
    param {
      lr_mult: 0
      decay_mult: 0
    }
    param {
      lr_mult: 0
      decay_mult: 0
    }
    convolution_param {
      num_output: 64
      pad: 1
      kernel_size: 3
    }
  }
  layer {
    name: "relu1_1"
    type: "ReLU"
    bottom: "conv1_1"
    top: "conv1_1"
  }
  layer {
    name: "conv1_2"
    type: "Convolution"
    bottom: "conv1_1"
    top: "conv1_2"
    param {
      lr_mult: 0
      decay_mult: 0
    }
    param {
      lr_mult: 0
      decay_mult: 0
    }
    convolution_param {
      num_output: 64
      pad: 1
      kernel_size: 3
    }
  }
  layer {
    name: "relu1_2"
    type: "ReLU"
    bottom: "conv1_2"
    top: "conv1_2"
  }
  layer {
    name: "pool1"
    type: "Pooling"
    bottom: "conv1_2"
    top: "pool1"
    pooling_param {
      pool: MAX
      kernel_size: 2
      stride: 2
    }
  }
  layer {
    name: "conv2_1"
    type: "Convolution"
    bottom: "pool1"
    top: "conv2_1"
    param {
      lr_mult: 0
      decay_mult: 0
    }
    param {
      lr_mult: 0
      decay_mult: 0
    }
    convolution_param {
      num_output: 128
      pad: 1
      kernel_size: 3
    }
  }
  layer {
    name: "relu2_1"
    type: "ReLU"
    bottom: "conv2_1"
    top: "conv2_1"
  }
  layer {
    name: "conv2_2"
    type: "Convolution"
    bottom: "conv2_1"
    top: "conv2_2"
    param {
      lr_mult: 0
      decay_mult: 0
    }
    param {
      lr_mult: 0
      decay_mult: 0
    }
    convolution_param {
      num_output: 128
      pad: 1
      kernel_size: 3
    }
  }
  layer {
    name: "relu2_2"
    type: "ReLU"
    bottom: "conv2_2"
    top: "conv2_2"
  }
  layer {
    name: "pool2"
    type: "Pooling"
    bottom: "conv2_2"
    top: "pool2"
    pooling_param {
      pool: MAX
      kernel_size: 2
      stride: 2
    }
  }
  layer {
    name: "conv3_1"
    type: "Convolution"
    bottom: "pool2"
    top: "conv3_1"
    param {
      lr_mult: 1
    }
    param {
      lr_mult: 2
    }
    convolution_param {
      num_output: 256
      pad: 1
      kernel_size: 3
    }
  }
  layer {
    name: "relu3_1"
    type: "ReLU"
    bottom: "conv3_1"
    top: "conv3_1"
  }
  layer {
    name: "conv3_2"
    type: "Convolution"
    bottom: "conv3_1"
    top: "conv3_2"
    param {
      lr_mult: 1
    }
    param {
      lr_mult: 2
    }
    convolution_param {
      num_output: 256
      pad: 1
      kernel_size: 3
    }
  }
  layer {
    name: "relu3_2"
    type: "ReLU"
    bottom: "conv3_2"
    top: "conv3_2"
  }
  layer {
    name: "conv3_3"
    type: "Convolution"
    bottom: "conv3_2"
    top: "conv3_3"
    param {
      lr_mult: 1
    }
    param {
      lr_mult: 2
    }
    convolution_param {
      num_output: 256
      pad: 1
      kernel_size: 3
    }
  }
  layer {
    name: "relu3_3"
    type: "ReLU"
    bottom: "conv3_3"
    top: "conv3_3"
  }
  layer {
    name: "pool3"
    type: "Pooling"
    bottom: "conv3_3"
    top: "pool3"
    pooling_param {
      pool: MAX
      kernel_size: 2
      stride: 2
    }
  }
  layer {
    name: "conv4_1"
    type: "Convolution"
    bottom: "pool3"
    top: "conv4_1"
    param {
      lr_mult: 1
    }
    param {
      lr_mult: 2
    }
    convolution_param {
      num_output: 512
      pad: 1
      kernel_size: 3
    }
  }
  layer {
    name: "relu4_1"
    type: "ReLU"
    bottom: "conv4_1"
    top: "conv4_1"
  }
  layer {
    name: "conv4_2"
    type: "Convolution"
    bottom: "conv4_1"
    top: "conv4_2"
    param {
      lr_mult: 1
    }
    param {
      lr_mult: 2
    }
    convolution_param {
      num_output: 512
      pad: 1
      kernel_size: 3
    }
  }
  layer {
    name: "relu4_2"
    type: "ReLU"
    bottom: "conv4_2"
    top: "conv4_2"
  }
  layer {
    name: "conv4_3"
    type: "Convolution"
    bottom: "conv4_2"
    top: "conv4_3"
    param {
      lr_mult: 1
    }
    param {
      lr_mult: 2
    }
    convolution_param {
      num_output: 512
      pad: 1
      kernel_size: 3
    }
  }
  layer {
    name: "relu4_3"
    type: "ReLU"
    bottom: "conv4_3"
    top: "conv4_3"
  }
  layer {
    name: "pool4"
    type: "Pooling"
    bottom: "conv4_3"
    top: "pool4"
    pooling_param {
      pool: MAX
      kernel_size: 2
      stride: 2
    }
  }
  layer {
    name: "conv5_1"
    type: "Convolution"
    bottom: "pool4"
    top: "conv5_1"
    param {
      lr_mult: 1
    }
    param {
      lr_mult: 2
    }
    convolution_param {
      num_output: 512
      pad: 1
      kernel_size: 3
    }
  }
  layer {
    name: "relu5_1"
    type: "ReLU"
    bottom: "conv5_1"
    top: "conv5_1"
  }
  layer {
    name: "conv5_2"
    type: "Convolution"
    bottom: "conv5_1"
    top: "conv5_2"
    param {
      lr_mult: 1
    }
    param {
      lr_mult: 2
    }
    convolution_param {
      num_output: 512
      pad: 1
      kernel_size: 3
    }
  }
  layer {
    name: "relu5_2"
    type: "ReLU"
    bottom: "conv5_2"
    top: "conv5_2"
  }
  layer {
    name: "conv5_3"
    type: "Convolution"
    bottom: "conv5_2"
    top: "conv5_3"
    param {
      lr_mult: 1
    }
    param {
      lr_mult: 2
    }
    convolution_param {
      num_output: 512
      pad: 1
      kernel_size: 3
    }
  }
  layer {
    name: "relu5_3"
    type: "ReLU"
    bottom: "conv5_3"
    top: "conv5_3"
  }
  layer {
    name: "rpn_big_conv1"
    type: "Convolution"
    bottom: "conv5_3"
    top: "rpn_big_conv1"
    param {
      lr_mult: 1
    }
    param {
      lr_mult: 2
    }
    convolution_param {
      num_output: 512
      pad: 1
      kernel_size: 3
      stride: 1
      weight_filler {
        type: "gaussian"
        mean: 0
        std: 0.01
      }
      bias_filler {
        type: "constant"
      }
    }
  }
  layer {
    name: "rpn_big_conv1_relu"
    type: "ReLU"
    bottom: "rpn_big_conv1"
    top: "rpn_big_conv1"
    relu_param {
      negative_slope: 0
    }
  }
  layer {
    name: "rpn_big_conv2"
    type: "Convolution"
    bottom: "rpn_big_conv1"
    top: "rpn_big_conv2"
    param {
      lr_mult: 1
    }
    param {
      lr_mult: 2
    }
    convolution_param {
      num_output: 512
      pad: 1
      kernel_size: 3
      stride: 1
      weight_filler {
        type: "gaussian"
        mean: 0
        std: 0.01
      }
      bias_filler {
        type: "constant"
      }
    }
  }
  layer {
    name: "rpn_big_conv2_relu"
    type: "ReLU"
    bottom: "rpn_big_conv2"
    top: "rpn_big_conv2"
    relu_param {
      negative_slope: 0
    }
  }
  layer {
    name: "rpn_big_conv2_drop"
    type: "Dropout"
    bottom: "rpn_big_conv2"
    top: "rpn_big_conv2"
    dropout_param {
      dropout_ratio: 0.3
    }
  }
  layer {
    name: "rpn_big_output_cls"
    type: "Convolution"
    bottom: "rpn_big_conv2"
    top: "rpn_big_output_cls"
    param {
      lr_mult: 1
    }
    param {
      lr_mult: 2
    }
    convolution_param {
      num_output: 384
      pad: 1
      kernel_size: 3
      stride: 1
      weight_filler {
        type: "gaussian"
        mean: 0
        std: 0.01
      }
      bias_filler {
        type: "constant"
      }
    }
  }
  layer {
    name: "rpn_big_output_cls_relu"
    type: "ReLU"
    bottom: "rpn_big_output_cls"
    top: "rpn_big_output_cls"
    relu_param {
      negative_slope: 0
    }
  }
  layer {
    name: "rpn_big_cls_score"
    type: "Convolution"
    bottom: "rpn_big_output_cls"
    top: "rpn_big_cls_score"
    param {
      lr_mult: 1
    }
    param {
      lr_mult: 2
    }
    convolution_param {
      num_output: 52
      pad: 0
      kernel_size: 3
      stride: 1
      weight_filler {
        type: "gaussian"
        mean: 0
        std: 0.01
      }
      bias_filler {
        type: "constant"
      }
    }
  }
  layer {
    name: "rpn_big_cls_score_reshape"
    type: "Reshape"
    bottom: "rpn_big_cls_score"
    top: "rpn_big_cls_score_reshape"
    reshape_param {
      shape {
        dim: 0
        dim: 2
        dim: -1
        dim: 0
      }
    }
  }
  layer {
    name: "rpn_big_cls_prob"
    type: "Softmax"
    bottom: "rpn_big_cls_score_reshape"
    top: "rpn_big_cls_prob"
  }
  layer {
    name: "rpn_big_cls_prob_reshape"
    type: "Reshape"
    bottom: "rpn_big_cls_prob"
    top: "rpn_big_cls_prob_reshape"
    reshape_param {
      shape {
        dim: 0
        dim: 52
        dim: -1
        dim: 0
      }
    }
  }
  layer {
    name: "rpn_big_anchor_target"
    type: "Python"
    bottom: "rpn_big_cls_score"
    bottom: "input_gt_boxes"
    bottom: "input_ignored_boxes"
    bottom: "input_im_info"
    bottom: "input_data"
    bottom: "rpn_big_cls_prob_reshape"
    top: "rpn_big_anchor_target_labels"
    top: "rpn_big_anchor_target_bbox_targets"
    top: "rpn_big_anchor_target_inside_weights"
    top: "rpn_big_anchor_target_outside_weights"
    python_param {
      module: "rpn.anchor_target_layer"
      layer: "AnchorTargetLayer"
      param_str: "{\"anchor_shift_num_xy\": [[2, 2], [2, 2], [2, 2], [2, 2], [1, 1], [1, 1], [1, 1], [1, 1], [1, 1], [1, 1], [1, 1], [1, 1], [1, 1], [1, 1]], \"fg_fraction\": 0.5, \"name\": \"rpn_big\", \"batchsize\": 256, \"anchor_ratios\": [1.0], \"num_classes\": 1, \"negative_overlap\": 0.4, \"square_targets\": true, \"feat_stride\": 16, \"tn_fraction\": 0.2, \"anchor_scales\": [2.5, 3.025, 3.66025, 4.4289024999999995, 5.358972025, 6.484356150249999, 7.846070941802498, 9.493745839581022, 11.487432465893036, 13.899793283730574, 16.818749873313998, 20.350687346709933, 24.62433168951902, 29.795441344318014], \"positive_overlap\": 0.6}"
    }
  }
  layer {
    name: "rpn_big_loss_cls"
    type: "SoftmaxWithLoss"
    bottom: "rpn_big_cls_score_reshape"
    bottom: "rpn_big_anchor_target_labels"
    top: "rpn_big_loss_cls"
    loss_weight: 1
    propagate_down: true
    propagate_down: false
    loss_param {
      ignore_label: -1
      normalization: VALID
    }
  }
  layer {
    name: "rpn_big_output_box"
    type: "Convolution"
    bottom: "rpn_big_conv2"
    top: "rpn_big_output_box"
    param {
      lr_mult: 1
    }
    param {
      lr_mult: 2
    }
    convolution_param {
      num_output: 384
      pad: 1
      kernel_size: 3
      stride: 1
      weight_filler {
        type: "gaussian"
        mean: 0
        std: 0.01
      }
      bias_filler {
        type: "constant"
      }
    }
  }
  layer {
    name: "rpn_big_output_box_relu"
    type: "ReLU"
    bottom: "rpn_big_output_box"
    top: "rpn_big_output_box"
    relu_param {
      negative_slope: 0
    }
  }
  layer {
    name: "rpn_big_bbox_pred"
    type: "Convolution"
    bottom: "rpn_big_output_box"
    top: "rpn_big_bbox_pred"
    param {
      lr_mult: 1
    }
    param {
      lr_mult: 2
    }
    convolution_param {
      num_output: 104
      pad: 0
      kernel_size: 3
      stride: 1
      weight_filler {
        type: "gaussian"
        mean: 0
        std: 0.01
      }
      bias_filler {
        type: "constant"
      }
    }
  }
  layer {
    name: "rpn_big_loss_bbox"
    type: "Python"
    bottom: "rpn_big_bbox_pred"
    bottom: "rpn_big_anchor_target_bbox_targets"
    bottom: "rpn_big_anchor_target_inside_weights"
    bottom: "rpn_big_anchor_target_outside_weights"
    top: "rpn_big_loss_bbox"
    loss_weight: 1
    python_param {
      module: "layers.smooth_l1_loss"
      layer: "SmoothL1LossLayer"
      param_str: "{\"sigma\": 3}"
    }
  }
}
average_loss: 100
stepvalue: 70000
stepvalue: 120000
iter_size: 2
I0412 18:03:19.408835  5730 solver.cpp:86] Creating training net specified in net_param.
I0412 18:03:19.409188  5730 net.cpp:58] Initializing net from parameters: 
name: "GeneratedModel_12_04_2017_18_03"
state {
  phase: TRAIN
}
layer {
  name: "input"
  type: "Python"
  top: "input_data"
  top: "input_im_info"
  top: "input_gt_boxes"
  top: "input_ignored_boxes"
  python_param {
    module: "layers.roi_data_layer"
    layer: "RoIDataLayer"
    param_str: "{\"num_classes\": 2}"
  }
}
layer {
  name: "conv1_1"
  type: "Convolution"
  bottom: "input_data"
  top: "conv1_1"
  param {
    lr_mult: 0
    decay_mult: 0
  }
  param {
    lr_mult: 0
    decay_mult: 0
  }
  convolution_param {
    num_output: 64
    pad: 1
    kernel_size: 3
  }
}
layer {
  name: "relu1_1"
  type: "ReLU"
  bottom: "conv1_1"
  top: "conv1_1"
}
layer {
  name: "conv1_2"
  type: "Convolution"
  bottom: "conv1_1"
  top: "conv1_2"
  param {
    lr_mult: 0
    decay_mult: 0
  }
  param {
    lr_mult: 0
    decay_mult: 0
  }
  convolution_param {
    num_output: 64
    pad: 1
    kernel_size: 3
  }
}
layer {
  name: "relu1_2"
  type: "ReLU"
  bottom: "conv1_2"
  top: "conv1_2"
}
layer {
  name: "pool1"
  type: "Pooling"
  bottom: "conv1_2"
  top: "pool1"
  pooling_param {
    pool: MAX
    kernel_size: 2
    stride: 2
  }
}
layer {
  name: "conv2_1"
  type: "Convolution"
  bottom: "pool1"
  top: "conv2_1"
  param {
    lr_mult: 0
    decay_mult: 0
  }
  param {
    lr_mult: 0
    decay_mult: 0
  }
  convolution_param {
    num_output: 128
    pad: 1
    kernel_size: 3
  }
}
layer {
  name: "relu2_1"
  type: "ReLU"
  bottom: "conv2_1"
  top: "conv2_1"
}
layer {
  name: "conv2_2"
  type: "Convolution"
  bottom: "conv2_1"
  top: "conv2_2"
  param {
    lr_mult: 0
    decay_mult: 0
  }
  param {
    lr_mult: 0
    decay_mult: 0
  }
  convolution_param {
    num_output: 128
    pad: 1
    kernel_size: 3
  }
}
layer {
  name: "relu2_2"
  type: "ReLU"
  bottom: "conv2_2"
  top: "conv2_2"
}
layer {
  name: "pool2"
  type: "Pooling"
  bottom: "conv2_2"
  top: "pool2"
  pooling_param {
    pool: MAX
    kernel_size: 2
    stride: 2
  }
}
layer {
  name: "conv3_1"
  type: "Convolution"
  bottom: "pool2"
  top: "conv3_1"
  param {
    lr_mult: 1
  }
  param {
    lr_mult: 2
  }
  convolution_param {
    num_output: 256
    pad: 1
    kernel_size: 3
  }
}
layer {
  name: "relu3_1"
  type: "ReLU"
  bottom: "conv3_1"
  top: "conv3_1"
}
layer {
  name: "conv3_2"
  type: "Convolution"
  bottom: "conv3_1"
  top: "conv3_2"
  param {
    lr_mult: 1
  }
  param {
    lr_mult: 2
  }
  convolution_param {
    num_output: 256
    pad: 1
    kernel_size: 3
  }
}
layer {
  name: "relu3_2"
  type: "ReLU"
  bottom: "conv3_2"
  top: "conv3_2"
}
layer {
  name: "conv3_3"
  type: "Convolution"
  bottom: "conv3_2"
  top: "conv3_3"
  param {
    lr_mult: 1
  }
  param {
    lr_mult: 2
  }
  convolution_param {
    num_output: 256
    pad: 1
    kernel_size: 3
  }
}
layer {
  name: "relu3_3"
  type: "ReLU"
  bottom: "conv3_3"
  top: "conv3_3"
}
layer {
  name: "pool3"
  type: "Pooling"
  bottom: "conv3_3"
  top: "pool3"
  pooling_param {
    pool: MAX
    kernel_size: 2
    stride: 2
  }
}
layer {
  name: "conv4_1"
  type: "Convolution"
  bottom: "pool3"
  top: "conv4_1"
  param {
    lr_mult: 1
  }
  param {
    lr_mult: 2
  }
  convolution_param {
    num_output: 512
    pad: 1
    kernel_size: 3
  }
}
layer {
  name: "relu4_1"
  type: "ReLU"
  bottom: "conv4_1"
  top: "conv4_1"
}
layer {
  name: "conv4_2"
  type: "Convolution"
  bottom: "conv4_1"
  top: "conv4_2"
  param {
    lr_mult: 1
  }
  param {
    lr_mult: 2
  }
  convolution_param {
    num_output: 512
    pad: 1
    kernel_size: 3
  }
}
layer {
  name: "relu4_2"
  type: "ReLU"
  bottom: "conv4_2"
  top: "conv4_2"
}
layer {
  name: "conv4_3"
  type: "Convolution"
  bottom: "conv4_2"
  top: "conv4_3"
  param {
    lr_mult: 1
  }
  param {
    lr_mult: 2
  }
  convolution_param {
    num_output: 512
    pad: 1
    kernel_size: 3
  }
}
layer {
  name: "relu4_3"
  type: "ReLU"
  bottom: "conv4_3"
  top: "conv4_3"
}
layer {
  name: "pool4"
  type: "Pooling"
  bottom: "conv4_3"
  top: "pool4"
  pooling_param {
    pool: MAX
    kernel_size: 2
    stride: 2
  }
}
layer {
  name: "conv5_1"
  type: "Convolution"
  bottom: "pool4"
  top: "conv5_1"
  param {
    lr_mult: 1
  }
  param {
    lr_mult: 2
  }
  convolution_param {
    num_output: 512
    pad: 1
    kernel_size: 3
  }
}
layer {
  name: "relu5_1"
  type: "ReLU"
  bottom: "conv5_1"
  top: "conv5_1"
}
layer {
  name: "conv5_2"
  type: "Convolution"
  bottom: "conv5_1"
  top: "conv5_2"
  param {
    lr_mult: 1
  }
  param {
    lr_mult: 2
  }
  convolution_param {
    num_output: 512
    pad: 1
    kernel_size: 3
  }
}
layer {
  name: "relu5_2"
  type: "ReLU"
  bottom: "conv5_2"
  top: "conv5_2"
}
layer {
  name: "conv5_3"
  type: "Convolution"
  bottom: "conv5_2"
  top: "conv5_3"
  param {
    lr_mult: 1
  }
  param {
    lr_mult: 2
  }
  convolution_param {
    num_output: 512
    pad: 1
    kernel_size: 3
  }
}
layer {
  name: "relu5_3"
  type: "ReLU"
  bottom: "conv5_3"
  top: "conv5_3"
}
layer {
  name: "rpn_big_conv1"
  type: "Convolution"
  bottom: "conv5_3"
  top: "rpn_big_conv1"
  param {
    lr_mult: 1
  }
  param {
    lr_mult: 2
  }
  convolution_param {
    num_output: 512
    pad: 1
    kernel_size: 3
    stride: 1
    weight_filler {
      type: "gaussian"
      mean: 0
      std: 0.01
    }
    bias_filler {
      type: "constant"
    }
  }
}
layer {
  name: "rpn_big_conv1_relu"
  type: "ReLU"
  bottom: "rpn_big_conv1"
  top: "rpn_big_conv1"
  relu_param {
    negative_slope: 0
  }
}
layer {
  name: "rpn_big_conv2"
  type: "Convolution"
  bottom: "rpn_big_conv1"
  top: "rpn_big_conv2"
  param {
    lr_mult: 1
  }
  param {
    lr_mult: 2
  }
  convolution_param {
    num_output: 512
    pad: 1
    kernel_size: 3
    stride: 1
    weight_filler {
      type: "gaussian"
      mean: 0
      std: 0.01
    }
    bias_filler {
      type: "constant"
    }
  }
}
layer {
  name: "rpn_big_conv2_relu"
  type: "ReLU"
  bottom: "rpn_big_conv2"
  top: "rpn_big_conv2"
  relu_param {
    negative_slope: 0
  }
}
layer {
  name: "rpn_big_conv2_drop"
  type: "Dropout"
  bottom: "rpn_big_conv2"
  top: "rpn_big_conv2"
  dropout_param {
    dropout_ratio: 0.3
  }
}
layer {
  name: "rpn_big_output_cls"
  type: "Convolution"
  bottom: "rpn_big_conv2"
  top: "rpn_big_output_cls"
  param {
    lr_mult: 1
  }
  param {
    lr_mult: 2
  }
  convolution_param {
    num_output: 384
    pad: 1
    kernel_size: 3
    stride: 1
    weight_filler {
      type: "gaussian"
      mean: 0
      std: 0.01
    }
    bias_filler {
      type: "constant"
    }
  }
}
layer {
  name: "rpn_big_output_cls_relu"
  type: "ReLU"
  bottom: "rpn_big_output_cls"
  top: "rpn_big_output_cls"
  relu_param {
    negative_slope: 0
  }
}
layer {
  name: "rpn_big_cls_score"
  type: "Convolution"
  bottom: "rpn_big_output_cls"
  top: "rpn_big_cls_score"
  param {
    lr_mult: 1
  }
  param {
    lr_mult: 2
  }
  convolution_param {
    num_output: 52
    pad: 0
    kernel_size: 3
    stride: 1
    weight_filler {
      type: "gaussian"
      mean: 0
      std: 0.01
    }
    bias_filler {
      type: "constant"
    }
  }
}
layer {
  name: "rpn_big_cls_score_reshape"
  type: "Reshape"
  bottom: "rpn_big_cls_score"
  top: "rpn_big_cls_score_reshape"
  reshape_param {
    shape {
      dim: 0
      dim: 2
      dim: -1
      dim: 0
    }
  }
}
layer {
  name: "rpn_big_cls_prob"
  type: "Softmax"
  bottom: "rpn_big_cls_score_reshape"
  top: "rpn_big_cls_prob"
}
layer {
  name: "rpn_big_cls_prob_reshape"
  type: "Reshape"
  bottom: "rpn_big_cls_prob"
  top: "rpn_big_cls_prob_reshape"
  reshape_param {
    shape {
      dim: 0
      dim: 52
      dim: -1
      dim: 0
    }
  }
}
layer {
  name: "rpn_big_anchor_target"
  type: "Python"
  bottom: "rpn_big_cls_score"
  bottom: "input_gt_boxes"
  bottom: "input_ignored_boxes"
  bottom: "input_im_info"
  bottom: "input_data"
  bottom: "rpn_big_cls_prob_reshape"
  top: "rpn_big_anchor_target_labels"
  top: "rpn_big_anchor_target_bbox_targets"
  top: "rpn_big_anchor_target_inside_weights"
  top: "rpn_big_anchor_target_outside_weights"
  python_param {
    module: "rpn.anchor_target_layer"
    layer: "AnchorTargetLayer"
    param_str: "{\"anchor_shift_num_xy\": [[2, 2], [2, 2], [2, 2], [2, 2], [1, 1], [1, 1], [1, 1], [1, 1], [1, 1], [1, 1], [1, 1], [1, 1], [1, 1], [1, 1]], \"fg_fraction\": 0.5, \"name\": \"rpn_big\", \"batchsize\": 256, \"anchor_ratios\": [1.0], \"num_classes\": 1, \"negative_overlap\": 0.4, \"square_targets\": true, \"feat_stride\": 16, \"tn_fraction\": 0.2, \"anchor_scales\": [2.5, 3.025, 3.66025, 4.4289024999999995, 5.358972025, 6.484356150249999, 7.846070941802498, 9.493745839581022, 11.487432465893036, 13.899793283730574, 16.818749873313998, 20.350687346709933, 24.62433168951902, 29.795441344318014], \"positive_overlap\": 0.6}"
  }
}
layer {
  name: "rpn_big_loss_cls"
  type: "SoftmaxWithLoss"
  bottom: "rpn_big_cls_score_reshape"
  bottom: "rpn_big_anchor_target_labels"
  top: "rpn_big_loss_cls"
  loss_weight: 1
  propagate_down: true
  propagate_down: false
  loss_param {
    ignore_label: -1
    normalization: VALID
  }
}
layer {
  name: "rpn_big_output_box"
  type: "Convolution"
  bottom: "rpn_big_conv2"
  top: "rpn_big_output_box"
  param {
    lr_mult: 1
  }
  param {
    lr_mult: 2
  }
  convolution_param {
    num_output: 384
    pad: 1
    kernel_size: 3
    stride: 1
    weight_filler {
      type: "gaussian"
      mean: 0
      std: 0.01
    }
    bias_filler {
      type: "constant"
    }
  }
}
layer {
  name: "rpn_big_output_box_relu"
  type: "ReLU"
  bottom: "rpn_big_output_box"
  top: "rpn_big_output_box"
  relu_param {
    negative_slope: 0
  }
}
layer {
  name: "rpn_big_bbox_pred"
  type: "Convolution"
  bottom: "rpn_big_output_box"
  top: "rpn_big_bbox_pred"
  param {
    lr_mult: 1
  }
  param {
    lr_mult: 2
  }
  convolution_param {
    num_output: 104
    pad: 0
    kernel_size: 3
    stride: 1
    weight_filler {
      type: "gaussian"
      mean: 0
      std: 0.01
    }
    bias_filler {
      type: "constant"
    }
  }
}
layer {
  name: "rpn_big_loss_bbox"
  type: "Python"
  bottom: "rpn_big_bbox_pred"
  bottom: "rpn_big_anchor_target_bbox_targets"
  bottom: "rpn_big_anchor_target_inside_weights"
  bottom: "rpn_big_anchor_target_outside_weights"
  top: "rpn_big_loss_bbox"
  loss_weight: 1
  python_param {
    module: "layers.smooth_l1_loss"
    layer: "SmoothL1LossLayer"
    param_str: "{\"sigma\": 3}"
  }
}
I0412 18:03:19.410668  5730 layer_factory.hpp:77] Creating layer input
I0412 18:03:19.412531  5730 net.cpp:100] Creating Layer input
I0412 18:03:19.412552  5730 net.cpp:408] input -> input_data
I0412 18:03:19.412569  5730 net.cpp:408] input -> input_im_info
I0412 18:03:19.412581  5730 net.cpp:408] input -> input_gt_boxes
I0412 18:03:19.412592  5730 net.cpp:408] input -> input_ignored_boxes
RoiDataLayer: name_to_top: {'im_info': 1, 'gt_boxes': 2, 'data': 0, 'ignored_boxes': 3}
I0412 18:03:19.757050  5730 net.cpp:150] Setting up input
I0412 18:03:19.757083  5730 net.cpp:157] Top shape: 1 3 1000 1500 (4500000)
I0412 18:03:19.757092  5730 net.cpp:157] Top shape: 1 3 (3)
I0412 18:03:19.757099  5730 net.cpp:157] Top shape: 1 5 (5)
I0412 18:03:19.757105  5730 net.cpp:157] Top shape: 1 5 (5)
I0412 18:03:19.757110  5730 net.cpp:165] Memory required for data: 18000052
I0412 18:03:19.757119  5730 layer_factory.hpp:77] Creating layer input_data_input_0_split
I0412 18:03:19.757135  5730 net.cpp:100] Creating Layer input_data_input_0_split
I0412 18:03:19.757144  5730 net.cpp:434] input_data_input_0_split <- input_data
I0412 18:03:19.757155  5730 net.cpp:408] input_data_input_0_split -> input_data_input_0_split_0
I0412 18:03:19.757172  5730 net.cpp:408] input_data_input_0_split -> input_data_input_0_split_1
I0412 18:03:19.757231  5730 net.cpp:150] Setting up input_data_input_0_split
I0412 18:03:19.757243  5730 net.cpp:157] Top shape: 1 3 1000 1500 (4500000)
I0412 18:03:19.757258  5730 net.cpp:157] Top shape: 1 3 1000 1500 (4500000)
I0412 18:03:19.757263  5730 net.cpp:165] Memory required for data: 54000052
I0412 18:03:19.757268  5730 layer_factory.hpp:77] Creating layer conv1_1
I0412 18:03:19.757282  5730 net.cpp:100] Creating Layer conv1_1
I0412 18:03:19.757289  5730 net.cpp:434] conv1_1 <- input_data_input_0_split_0
I0412 18:03:19.757298  5730 net.cpp:408] conv1_1 -> conv1_1
I0412 18:03:19.760570  5730 net.cpp:150] Setting up conv1_1
I0412 18:03:19.760607  5730 net.cpp:157] Top shape: 1 64 1000 1500 (96000000)
I0412 18:03:19.760612  5730 net.cpp:165] Memory required for data: 438000052
I0412 18:03:19.760630  5730 layer_factory.hpp:77] Creating layer relu1_1
I0412 18:03:19.760641  5730 net.cpp:100] Creating Layer relu1_1
I0412 18:03:19.760646  5730 net.cpp:434] relu1_1 <- conv1_1
I0412 18:03:19.760658  5730 net.cpp:395] relu1_1 -> conv1_1 (in-place)
I0412 18:03:19.760671  5730 net.cpp:150] Setting up relu1_1
I0412 18:03:19.760679  5730 net.cpp:157] Top shape: 1 64 1000 1500 (96000000)
I0412 18:03:19.760686  5730 net.cpp:165] Memory required for data: 822000052
I0412 18:03:19.760691  5730 layer_factory.hpp:77] Creating layer conv1_2
I0412 18:03:19.760706  5730 net.cpp:100] Creating Layer conv1_2
I0412 18:03:19.760713  5730 net.cpp:434] conv1_2 <- conv1_1
I0412 18:03:19.760721  5730 net.cpp:408] conv1_2 -> conv1_2
I0412 18:03:19.763962  5730 net.cpp:150] Setting up conv1_2
I0412 18:03:19.763999  5730 net.cpp:157] Top shape: 1 64 1000 1500 (96000000)
I0412 18:03:19.764003  5730 net.cpp:165] Memory required for data: 1206000052
I0412 18:03:19.764025  5730 layer_factory.hpp:77] Creating layer relu1_2
I0412 18:03:19.764040  5730 net.cpp:100] Creating Layer relu1_2
I0412 18:03:19.764048  5730 net.cpp:434] relu1_2 <- conv1_2
I0412 18:03:19.764060  5730 net.cpp:395] relu1_2 -> conv1_2 (in-place)
I0412 18:03:19.764075  5730 net.cpp:150] Setting up relu1_2
I0412 18:03:19.764084  5730 net.cpp:157] Top shape: 1 64 1000 1500 (96000000)
I0412 18:03:19.764091  5730 net.cpp:165] Memory required for data: 1590000052
I0412 18:03:19.764096  5730 layer_factory.hpp:77] Creating layer pool1
I0412 18:03:19.764106  5730 net.cpp:100] Creating Layer pool1
I0412 18:03:19.764111  5730 net.cpp:434] pool1 <- conv1_2
I0412 18:03:19.764122  5730 net.cpp:408] pool1 -> pool1
I0412 18:03:19.764215  5730 net.cpp:150] Setting up pool1
I0412 18:03:19.764227  5730 net.cpp:157] Top shape: 1 64 500 750 (24000000)
I0412 18:03:19.764233  5730 net.cpp:165] Memory required for data: 1686000052
I0412 18:03:19.764240  5730 layer_factory.hpp:77] Creating layer conv2_1
I0412 18:03:19.764255  5730 net.cpp:100] Creating Layer conv2_1
I0412 18:03:19.764262  5730 net.cpp:434] conv2_1 <- pool1
I0412 18:03:19.764271  5730 net.cpp:408] conv2_1 -> conv2_1
I0412 18:03:19.765621  5730 net.cpp:150] Setting up conv2_1
I0412 18:03:19.765642  5730 net.cpp:157] Top shape: 1 128 500 750 (48000000)
I0412 18:03:19.765646  5730 net.cpp:165] Memory required for data: 1878000052
I0412 18:03:19.765663  5730 layer_factory.hpp:77] Creating layer relu2_1
I0412 18:03:19.765678  5730 net.cpp:100] Creating Layer relu2_1
I0412 18:03:19.765686  5730 net.cpp:434] relu2_1 <- conv2_1
I0412 18:03:19.765697  5730 net.cpp:395] relu2_1 -> conv2_1 (in-place)
I0412 18:03:19.765709  5730 net.cpp:150] Setting up relu2_1
I0412 18:03:19.765717  5730 net.cpp:157] Top shape: 1 128 500 750 (48000000)
I0412 18:03:19.765722  5730 net.cpp:165] Memory required for data: 2070000052
I0412 18:03:19.765728  5730 layer_factory.hpp:77] Creating layer conv2_2
I0412 18:03:19.765740  5730 net.cpp:100] Creating Layer conv2_2
I0412 18:03:19.765748  5730 net.cpp:434] conv2_2 <- conv2_1
I0412 18:03:19.765759  5730 net.cpp:408] conv2_2 -> conv2_2
I0412 18:03:19.766798  5730 net.cpp:150] Setting up conv2_2
I0412 18:03:19.766819  5730 net.cpp:157] Top shape: 1 128 500 750 (48000000)
I0412 18:03:19.766824  5730 net.cpp:165] Memory required for data: 2262000052
I0412 18:03:19.766834  5730 layer_factory.hpp:77] Creating layer relu2_2
I0412 18:03:19.766849  5730 net.cpp:100] Creating Layer relu2_2
I0412 18:03:19.766857  5730 net.cpp:434] relu2_2 <- conv2_2
I0412 18:03:19.766867  5730 net.cpp:395] relu2_2 -> conv2_2 (in-place)
I0412 18:03:19.766878  5730 net.cpp:150] Setting up relu2_2
I0412 18:03:19.766888  5730 net.cpp:157] Top shape: 1 128 500 750 (48000000)
I0412 18:03:19.766893  5730 net.cpp:165] Memory required for data: 2454000052
I0412 18:03:19.766898  5730 layer_factory.hpp:77] Creating layer pool2
I0412 18:03:19.766909  5730 net.cpp:100] Creating Layer pool2
I0412 18:03:19.766916  5730 net.cpp:434] pool2 <- conv2_2
I0412 18:03:19.766924  5730 net.cpp:408] pool2 -> pool2
I0412 18:03:19.766981  5730 net.cpp:150] Setting up pool2
I0412 18:03:19.766993  5730 net.cpp:157] Top shape: 1 128 250 375 (12000000)
I0412 18:03:19.766999  5730 net.cpp:165] Memory required for data: 2502000052
I0412 18:03:19.767004  5730 layer_factory.hpp:77] Creating layer conv3_1
I0412 18:03:19.767019  5730 net.cpp:100] Creating Layer conv3_1
I0412 18:03:19.767026  5730 net.cpp:434] conv3_1 <- pool2
I0412 18:03:19.767035  5730 net.cpp:408] conv3_1 -> conv3_1
I0412 18:03:19.768260  5730 net.cpp:150] Setting up conv3_1
I0412 18:03:19.768283  5730 net.cpp:157] Top shape: 1 256 250 375 (24000000)
I0412 18:03:19.768287  5730 net.cpp:165] Memory required for data: 2598000052
I0412 18:03:19.768306  5730 layer_factory.hpp:77] Creating layer relu3_1
I0412 18:03:19.768318  5730 net.cpp:100] Creating Layer relu3_1
I0412 18:03:19.768326  5730 net.cpp:434] relu3_1 <- conv3_1
I0412 18:03:19.768338  5730 net.cpp:395] relu3_1 -> conv3_1 (in-place)
I0412 18:03:19.768350  5730 net.cpp:150] Setting up relu3_1
I0412 18:03:19.768359  5730 net.cpp:157] Top shape: 1 256 250 375 (24000000)
I0412 18:03:19.768365  5730 net.cpp:165] Memory required for data: 2694000052
I0412 18:03:19.768370  5730 layer_factory.hpp:77] Creating layer conv3_2
I0412 18:03:19.768383  5730 net.cpp:100] Creating Layer conv3_2
I0412 18:03:19.768389  5730 net.cpp:434] conv3_2 <- conv3_1
I0412 18:03:19.768399  5730 net.cpp:408] conv3_2 -> conv3_2
I0412 18:03:19.769708  5730 net.cpp:150] Setting up conv3_2
I0412 18:03:19.769737  5730 net.cpp:157] Top shape: 1 256 250 375 (24000000)
I0412 18:03:19.769739  5730 net.cpp:165] Memory required for data: 2790000052
I0412 18:03:19.769752  5730 layer_factory.hpp:77] Creating layer relu3_2
I0412 18:03:19.769767  5730 net.cpp:100] Creating Layer relu3_2
I0412 18:03:19.769774  5730 net.cpp:434] relu3_2 <- conv3_2
I0412 18:03:19.769786  5730 net.cpp:395] relu3_2 -> conv3_2 (in-place)
I0412 18:03:19.769799  5730 net.cpp:150] Setting up relu3_2
I0412 18:03:19.769807  5730 net.cpp:157] Top shape: 1 256 250 375 (24000000)
I0412 18:03:19.769814  5730 net.cpp:165] Memory required for data: 2886000052
I0412 18:03:19.769821  5730 layer_factory.hpp:77] Creating layer conv3_3
I0412 18:03:19.769840  5730 net.cpp:100] Creating Layer conv3_3
I0412 18:03:19.769846  5730 net.cpp:434] conv3_3 <- conv3_2
I0412 18:03:19.769856  5730 net.cpp:408] conv3_3 -> conv3_3
I0412 18:03:19.771507  5730 net.cpp:150] Setting up conv3_3
I0412 18:03:19.771538  5730 net.cpp:157] Top shape: 1 256 250 375 (24000000)
I0412 18:03:19.771543  5730 net.cpp:165] Memory required for data: 2982000052
I0412 18:03:19.771554  5730 layer_factory.hpp:77] Creating layer relu3_3
I0412 18:03:19.771569  5730 net.cpp:100] Creating Layer relu3_3
I0412 18:03:19.771579  5730 net.cpp:434] relu3_3 <- conv3_3
I0412 18:03:19.771589  5730 net.cpp:395] relu3_3 -> conv3_3 (in-place)
I0412 18:03:19.771603  5730 net.cpp:150] Setting up relu3_3
I0412 18:03:19.771611  5730 net.cpp:157] Top shape: 1 256 250 375 (24000000)
I0412 18:03:19.771617  5730 net.cpp:165] Memory required for data: 3078000052
I0412 18:03:19.771622  5730 layer_factory.hpp:77] Creating layer pool3
I0412 18:03:19.771633  5730 net.cpp:100] Creating Layer pool3
I0412 18:03:19.771639  5730 net.cpp:434] pool3 <- conv3_3
I0412 18:03:19.771651  5730 net.cpp:408] pool3 -> pool3
I0412 18:03:19.771709  5730 net.cpp:150] Setting up pool3
I0412 18:03:19.771720  5730 net.cpp:157] Top shape: 1 256 125 188 (6016000)
I0412 18:03:19.771726  5730 net.cpp:165] Memory required for data: 3102064052
I0412 18:03:19.771733  5730 layer_factory.hpp:77] Creating layer conv4_1
I0412 18:03:19.771747  5730 net.cpp:100] Creating Layer conv4_1
I0412 18:03:19.771755  5730 net.cpp:434] conv4_1 <- pool3
I0412 18:03:19.771764  5730 net.cpp:408] conv4_1 -> conv4_1
I0412 18:03:19.774575  5730 net.cpp:150] Setting up conv4_1
I0412 18:03:19.774610  5730 net.cpp:157] Top shape: 1 512 125 188 (12032000)
I0412 18:03:19.774613  5730 net.cpp:165] Memory required for data: 3150192052
I0412 18:03:19.774624  5730 layer_factory.hpp:77] Creating layer relu4_1
I0412 18:03:19.774638  5730 net.cpp:100] Creating Layer relu4_1
I0412 18:03:19.774646  5730 net.cpp:434] relu4_1 <- conv4_1
I0412 18:03:19.774659  5730 net.cpp:395] relu4_1 -> conv4_1 (in-place)
I0412 18:03:19.774674  5730 net.cpp:150] Setting up relu4_1
I0412 18:03:19.774682  5730 net.cpp:157] Top shape: 1 512 125 188 (12032000)
I0412 18:03:19.774688  5730 net.cpp:165] Memory required for data: 3198320052
I0412 18:03:19.774693  5730 layer_factory.hpp:77] Creating layer conv4_2
I0412 18:03:19.774705  5730 net.cpp:100] Creating Layer conv4_2
I0412 18:03:19.774713  5730 net.cpp:434] conv4_2 <- conv4_1
I0412 18:03:19.774721  5730 net.cpp:408] conv4_2 -> conv4_2
I0412 18:03:19.779105  5730 net.cpp:150] Setting up conv4_2
I0412 18:03:19.779146  5730 net.cpp:157] Top shape: 1 512 125 188 (12032000)
I0412 18:03:19.779151  5730 net.cpp:165] Memory required for data: 3246448052
I0412 18:03:19.779171  5730 layer_factory.hpp:77] Creating layer relu4_2
I0412 18:03:19.779187  5730 net.cpp:100] Creating Layer relu4_2
I0412 18:03:19.779196  5730 net.cpp:434] relu4_2 <- conv4_2
I0412 18:03:19.779206  5730 net.cpp:395] relu4_2 -> conv4_2 (in-place)
I0412 18:03:19.779218  5730 net.cpp:150] Setting up relu4_2
I0412 18:03:19.779227  5730 net.cpp:157] Top shape: 1 512 125 188 (12032000)
I0412 18:03:19.779230  5730 net.cpp:165] Memory required for data: 3294576052
I0412 18:03:19.779235  5730 layer_factory.hpp:77] Creating layer conv4_3
I0412 18:03:19.779249  5730 net.cpp:100] Creating Layer conv4_3
I0412 18:03:19.779259  5730 net.cpp:434] conv4_3 <- conv4_2
I0412 18:03:19.779270  5730 net.cpp:408] conv4_3 -> conv4_3
I0412 18:03:19.783648  5730 net.cpp:150] Setting up conv4_3
I0412 18:03:19.783684  5730 net.cpp:157] Top shape: 1 512 125 188 (12032000)
I0412 18:03:19.783689  5730 net.cpp:165] Memory required for data: 3342704052
I0412 18:03:19.783699  5730 layer_factory.hpp:77] Creating layer relu4_3
I0412 18:03:19.783709  5730 net.cpp:100] Creating Layer relu4_3
I0412 18:03:19.783716  5730 net.cpp:434] relu4_3 <- conv4_3
I0412 18:03:19.783728  5730 net.cpp:395] relu4_3 -> conv4_3 (in-place)
I0412 18:03:19.783742  5730 net.cpp:150] Setting up relu4_3
I0412 18:03:19.783749  5730 net.cpp:157] Top shape: 1 512 125 188 (12032000)
I0412 18:03:19.783754  5730 net.cpp:165] Memory required for data: 3390832052
I0412 18:03:19.783758  5730 layer_factory.hpp:77] Creating layer pool4
I0412 18:03:19.783767  5730 net.cpp:100] Creating Layer pool4
I0412 18:03:19.783772  5730 net.cpp:434] pool4 <- conv4_3
I0412 18:03:19.783782  5730 net.cpp:408] pool4 -> pool4
I0412 18:03:19.783831  5730 net.cpp:150] Setting up pool4
I0412 18:03:19.783843  5730 net.cpp:157] Top shape: 1 512 63 94 (3032064)
I0412 18:03:19.783849  5730 net.cpp:165] Memory required for data: 3402960308
I0412 18:03:19.783855  5730 layer_factory.hpp:77] Creating layer conv5_1
I0412 18:03:19.783869  5730 net.cpp:100] Creating Layer conv5_1
I0412 18:03:19.783876  5730 net.cpp:434] conv5_1 <- pool4
I0412 18:03:19.783890  5730 net.cpp:408] conv5_1 -> conv5_1
I0412 18:03:19.788650  5730 net.cpp:150] Setting up conv5_1
I0412 18:03:19.788693  5730 net.cpp:157] Top shape: 1 512 63 94 (3032064)
I0412 18:03:19.788698  5730 net.cpp:165] Memory required for data: 3415088564
I0412 18:03:19.788712  5730 layer_factory.hpp:77] Creating layer relu5_1
I0412 18:03:19.788725  5730 net.cpp:100] Creating Layer relu5_1
I0412 18:03:19.788733  5730 net.cpp:434] relu5_1 <- conv5_1
I0412 18:03:19.788744  5730 net.cpp:395] relu5_1 -> conv5_1 (in-place)
I0412 18:03:19.788769  5730 net.cpp:150] Setting up relu5_1
I0412 18:03:19.788779  5730 net.cpp:157] Top shape: 1 512 63 94 (3032064)
I0412 18:03:19.788786  5730 net.cpp:165] Memory required for data: 3427216820
I0412 18:03:19.788791  5730 layer_factory.hpp:77] Creating layer conv5_2
I0412 18:03:19.788805  5730 net.cpp:100] Creating Layer conv5_2
I0412 18:03:19.788811  5730 net.cpp:434] conv5_2 <- conv5_1
I0412 18:03:19.788822  5730 net.cpp:408] conv5_2 -> conv5_2
I0412 18:03:19.792937  5730 net.cpp:150] Setting up conv5_2
I0412 18:03:19.792974  5730 net.cpp:157] Top shape: 1 512 63 94 (3032064)
I0412 18:03:19.792979  5730 net.cpp:165] Memory required for data: 3439345076
I0412 18:03:19.792989  5730 layer_factory.hpp:77] Creating layer relu5_2
I0412 18:03:19.792999  5730 net.cpp:100] Creating Layer relu5_2
I0412 18:03:19.793004  5730 net.cpp:434] relu5_2 <- conv5_2
I0412 18:03:19.793015  5730 net.cpp:395] relu5_2 -> conv5_2 (in-place)
I0412 18:03:19.793025  5730 net.cpp:150] Setting up relu5_2
I0412 18:03:19.793033  5730 net.cpp:157] Top shape: 1 512 63 94 (3032064)
I0412 18:03:19.793036  5730 net.cpp:165] Memory required for data: 3451473332
I0412 18:03:19.793040  5730 layer_factory.hpp:77] Creating layer conv5_3
I0412 18:03:19.793048  5730 net.cpp:100] Creating Layer conv5_3
I0412 18:03:19.793054  5730 net.cpp:434] conv5_3 <- conv5_2
I0412 18:03:19.793061  5730 net.cpp:408] conv5_3 -> conv5_3
I0412 18:03:19.797324  5730 net.cpp:150] Setting up conv5_3
I0412 18:03:19.797360  5730 net.cpp:157] Top shape: 1 512 63 94 (3032064)
I0412 18:03:19.797365  5730 net.cpp:165] Memory required for data: 3463601588
I0412 18:03:19.797377  5730 layer_factory.hpp:77] Creating layer relu5_3
I0412 18:03:19.797389  5730 net.cpp:100] Creating Layer relu5_3
I0412 18:03:19.797394  5730 net.cpp:434] relu5_3 <- conv5_3
I0412 18:03:19.797404  5730 net.cpp:395] relu5_3 -> conv5_3 (in-place)
I0412 18:03:19.797418  5730 net.cpp:150] Setting up relu5_3
I0412 18:03:19.797426  5730 net.cpp:157] Top shape: 1 512 63 94 (3032064)
I0412 18:03:19.797430  5730 net.cpp:165] Memory required for data: 3475729844
I0412 18:03:19.797433  5730 layer_factory.hpp:77] Creating layer rpn_big_conv1
I0412 18:03:19.797452  5730 net.cpp:100] Creating Layer rpn_big_conv1
I0412 18:03:19.797458  5730 net.cpp:434] rpn_big_conv1 <- conv5_3
I0412 18:03:19.797466  5730 net.cpp:408] rpn_big_conv1 -> rpn_big_conv1
I0412 18:03:19.823071  5730 net.cpp:150] Setting up rpn_big_conv1
I0412 18:03:19.823102  5730 net.cpp:157] Top shape: 1 512 63 94 (3032064)
I0412 18:03:19.823107  5730 net.cpp:165] Memory required for data: 3487858100
I0412 18:03:19.823117  5730 layer_factory.hpp:77] Creating layer rpn_big_conv1_relu
I0412 18:03:19.823128  5730 net.cpp:100] Creating Layer rpn_big_conv1_relu
I0412 18:03:19.823133  5730 net.cpp:434] rpn_big_conv1_relu <- rpn_big_conv1
I0412 18:03:19.823143  5730 net.cpp:395] rpn_big_conv1_relu -> rpn_big_conv1 (in-place)
I0412 18:03:19.823153  5730 net.cpp:150] Setting up rpn_big_conv1_relu
I0412 18:03:19.823158  5730 net.cpp:157] Top shape: 1 512 63 94 (3032064)
I0412 18:03:19.823160  5730 net.cpp:165] Memory required for data: 3499986356
I0412 18:03:19.823163  5730 layer_factory.hpp:77] Creating layer rpn_big_conv2
I0412 18:03:19.823173  5730 net.cpp:100] Creating Layer rpn_big_conv2
I0412 18:03:19.823176  5730 net.cpp:434] rpn_big_conv2 <- rpn_big_conv1
I0412 18:03:19.823184  5730 net.cpp:408] rpn_big_conv2 -> rpn_big_conv2
I0412 18:03:19.849022  5730 net.cpp:150] Setting up rpn_big_conv2
I0412 18:03:19.849052  5730 net.cpp:157] Top shape: 1 512 63 94 (3032064)
I0412 18:03:19.849056  5730 net.cpp:165] Memory required for data: 3512114612
I0412 18:03:19.849066  5730 layer_factory.hpp:77] Creating layer rpn_big_conv2_relu
I0412 18:03:19.849079  5730 net.cpp:100] Creating Layer rpn_big_conv2_relu
I0412 18:03:19.849084  5730 net.cpp:434] rpn_big_conv2_relu <- rpn_big_conv2
I0412 18:03:19.849092  5730 net.cpp:395] rpn_big_conv2_relu -> rpn_big_conv2 (in-place)
I0412 18:03:19.849102  5730 net.cpp:150] Setting up rpn_big_conv2_relu
I0412 18:03:19.849107  5730 net.cpp:157] Top shape: 1 512 63 94 (3032064)
I0412 18:03:19.849109  5730 net.cpp:165] Memory required for data: 3524242868
I0412 18:03:19.849112  5730 layer_factory.hpp:77] Creating layer rpn_big_conv2_drop
I0412 18:03:19.849119  5730 net.cpp:100] Creating Layer rpn_big_conv2_drop
I0412 18:03:19.849123  5730 net.cpp:434] rpn_big_conv2_drop <- rpn_big_conv2
I0412 18:03:19.849128  5730 net.cpp:395] rpn_big_conv2_drop -> rpn_big_conv2 (in-place)
I0412 18:03:19.849150  5730 net.cpp:150] Setting up rpn_big_conv2_drop
I0412 18:03:19.849158  5730 net.cpp:157] Top shape: 1 512 63 94 (3032064)
I0412 18:03:19.849161  5730 net.cpp:165] Memory required for data: 3536371124
I0412 18:03:19.849164  5730 layer_factory.hpp:77] Creating layer rpn_big_conv2_rpn_big_conv2_drop_0_split
I0412 18:03:19.849170  5730 net.cpp:100] Creating Layer rpn_big_conv2_rpn_big_conv2_drop_0_split
I0412 18:03:19.849174  5730 net.cpp:434] rpn_big_conv2_rpn_big_conv2_drop_0_split <- rpn_big_conv2
I0412 18:03:19.849179  5730 net.cpp:408] rpn_big_conv2_rpn_big_conv2_drop_0_split -> rpn_big_conv2_rpn_big_conv2_drop_0_split_0
I0412 18:03:19.849186  5730 net.cpp:408] rpn_big_conv2_rpn_big_conv2_drop_0_split -> rpn_big_conv2_rpn_big_conv2_drop_0_split_1
I0412 18:03:19.849220  5730 net.cpp:150] Setting up rpn_big_conv2_rpn_big_conv2_drop_0_split
I0412 18:03:19.849228  5730 net.cpp:157] Top shape: 1 512 63 94 (3032064)
I0412 18:03:19.849233  5730 net.cpp:157] Top shape: 1 512 63 94 (3032064)
I0412 18:03:19.849236  5730 net.cpp:165] Memory required for data: 3560627636
I0412 18:03:19.849239  5730 layer_factory.hpp:77] Creating layer rpn_big_output_cls
I0412 18:03:19.849251  5730 net.cpp:100] Creating Layer rpn_big_output_cls
I0412 18:03:19.849254  5730 net.cpp:434] rpn_big_output_cls <- rpn_big_conv2_rpn_big_conv2_drop_0_split_0
I0412 18:03:19.849261  5730 net.cpp:408] rpn_big_output_cls -> rpn_big_output_cls
I0412 18:03:19.868698  5730 net.cpp:150] Setting up rpn_big_output_cls
I0412 18:03:19.868729  5730 net.cpp:157] Top shape: 1 384 63 94 (2274048)
I0412 18:03:19.868733  5730 net.cpp:165] Memory required for data: 3569723828
I0412 18:03:19.868746  5730 layer_factory.hpp:77] Creating layer rpn_big_output_cls_relu
I0412 18:03:19.868757  5730 net.cpp:100] Creating Layer rpn_big_output_cls_relu
I0412 18:03:19.868762  5730 net.cpp:434] rpn_big_output_cls_relu <- rpn_big_output_cls
I0412 18:03:19.868772  5730 net.cpp:395] rpn_big_output_cls_relu -> rpn_big_output_cls (in-place)
I0412 18:03:19.868782  5730 net.cpp:150] Setting up rpn_big_output_cls_relu
I0412 18:03:19.868787  5730 net.cpp:157] Top shape: 1 384 63 94 (2274048)
I0412 18:03:19.868789  5730 net.cpp:165] Memory required for data: 3578820020
I0412 18:03:19.868793  5730 layer_factory.hpp:77] Creating layer rpn_big_cls_score
I0412 18:03:19.868804  5730 net.cpp:100] Creating Layer rpn_big_cls_score
I0412 18:03:19.868808  5730 net.cpp:434] rpn_big_cls_score <- rpn_big_output_cls
I0412 18:03:19.868816  5730 net.cpp:408] rpn_big_cls_score -> rpn_big_cls_score
I0412 18:03:19.871321  5730 net.cpp:150] Setting up rpn_big_cls_score
I0412 18:03:19.871341  5730 net.cpp:157] Top shape: 1 52 61 92 (291824)
I0412 18:03:19.871354  5730 net.cpp:165] Memory required for data: 3579987316
I0412 18:03:19.871369  5730 layer_factory.hpp:77] Creating layer rpn_big_cls_score_rpn_big_cls_score_0_split
I0412 18:03:19.871377  5730 net.cpp:100] Creating Layer rpn_big_cls_score_rpn_big_cls_score_0_split
I0412 18:03:19.871382  5730 net.cpp:434] rpn_big_cls_score_rpn_big_cls_score_0_split <- rpn_big_cls_score
I0412 18:03:19.871389  5730 net.cpp:408] rpn_big_cls_score_rpn_big_cls_score_0_split -> rpn_big_cls_score_rpn_big_cls_score_0_split_0
I0412 18:03:19.871398  5730 net.cpp:408] rpn_big_cls_score_rpn_big_cls_score_0_split -> rpn_big_cls_score_rpn_big_cls_score_0_split_1
I0412 18:03:19.871431  5730 net.cpp:150] Setting up rpn_big_cls_score_rpn_big_cls_score_0_split
I0412 18:03:19.871439  5730 net.cpp:157] Top shape: 1 52 61 92 (291824)
I0412 18:03:19.871443  5730 net.cpp:157] Top shape: 1 52 61 92 (291824)
I0412 18:03:19.871448  5730 net.cpp:165] Memory required for data: 3582321908
I0412 18:03:19.871450  5730 layer_factory.hpp:77] Creating layer rpn_big_cls_score_reshape
I0412 18:03:19.871464  5730 net.cpp:100] Creating Layer rpn_big_cls_score_reshape
I0412 18:03:19.871467  5730 net.cpp:434] rpn_big_cls_score_reshape <- rpn_big_cls_score_rpn_big_cls_score_0_split_0
I0412 18:03:19.871474  5730 net.cpp:408] rpn_big_cls_score_reshape -> rpn_big_cls_score_reshape
I0412 18:03:19.871498  5730 net.cpp:150] Setting up rpn_big_cls_score_reshape
I0412 18:03:19.871506  5730 net.cpp:157] Top shape: 1 2 1586 92 (291824)
I0412 18:03:19.871510  5730 net.cpp:165] Memory required for data: 3583489204
I0412 18:03:19.871512  5730 layer_factory.hpp:77] Creating layer rpn_big_cls_score_reshape_rpn_big_cls_score_reshape_0_split
I0412 18:03:19.871518  5730 net.cpp:100] Creating Layer rpn_big_cls_score_reshape_rpn_big_cls_score_reshape_0_split
I0412 18:03:19.871521  5730 net.cpp:434] rpn_big_cls_score_reshape_rpn_big_cls_score_reshape_0_split <- rpn_big_cls_score_reshape
I0412 18:03:19.871526  5730 net.cpp:408] rpn_big_cls_score_reshape_rpn_big_cls_score_reshape_0_split -> rpn_big_cls_score_reshape_rpn_big_cls_score_reshape_0_split_0
I0412 18:03:19.871539  5730 net.cpp:408] rpn_big_cls_score_reshape_rpn_big_cls_score_reshape_0_split -> rpn_big_cls_score_reshape_rpn_big_cls_score_reshape_0_split_1
I0412 18:03:19.871569  5730 net.cpp:150] Setting up rpn_big_cls_score_reshape_rpn_big_cls_score_reshape_0_split
I0412 18:03:19.871577  5730 net.cpp:157] Top shape: 1 2 1586 92 (291824)
I0412 18:03:19.871582  5730 net.cpp:157] Top shape: 1 2 1586 92 (291824)
I0412 18:03:19.871584  5730 net.cpp:165] Memory required for data: 3585823796
I0412 18:03:19.871588  5730 layer_factory.hpp:77] Creating layer rpn_big_cls_prob
I0412 18:03:19.871593  5730 net.cpp:100] Creating Layer rpn_big_cls_prob
I0412 18:03:19.871600  5730 net.cpp:434] rpn_big_cls_prob <- rpn_big_cls_score_reshape_rpn_big_cls_score_reshape_0_split_0
I0412 18:03:19.871605  5730 net.cpp:408] rpn_big_cls_prob -> rpn_big_cls_prob
I0412 18:03:19.871659  5730 net.cpp:150] Setting up rpn_big_cls_prob
I0412 18:03:19.871665  5730 net.cpp:157] Top shape: 1 2 1586 92 (291824)
I0412 18:03:19.871668  5730 net.cpp:165] Memory required for data: 3586991092
I0412 18:03:19.871671  5730 layer_factory.hpp:77] Creating layer rpn_big_cls_prob_reshape
I0412 18:03:19.871677  5730 net.cpp:100] Creating Layer rpn_big_cls_prob_reshape
I0412 18:03:19.871681  5730 net.cpp:434] rpn_big_cls_prob_reshape <- rpn_big_cls_prob
I0412 18:03:19.871687  5730 net.cpp:408] rpn_big_cls_prob_reshape -> rpn_big_cls_prob_reshape
I0412 18:03:19.871708  5730 net.cpp:150] Setting up rpn_big_cls_prob_reshape
I0412 18:03:19.871714  5730 net.cpp:157] Top shape: 1 52 61 92 (291824)
I0412 18:03:19.871717  5730 net.cpp:165] Memory required for data: 3588158388
I0412 18:03:19.871721  5730 layer_factory.hpp:77] Creating layer rpn_big_anchor_target
I0412 18:03:19.927553  5730 net.cpp:100] Creating Layer rpn_big_anchor_target
I0412 18:03:19.927587  5730 net.cpp:434] rpn_big_anchor_target <- rpn_big_cls_score_rpn_big_cls_score_0_split_1
I0412 18:03:19.927599  5730 net.cpp:434] rpn_big_anchor_target <- input_gt_boxes
I0412 18:03:19.927608  5730 net.cpp:434] rpn_big_anchor_target <- input_ignored_boxes
I0412 18:03:19.927614  5730 net.cpp:434] rpn_big_anchor_target <- input_im_info
I0412 18:03:19.927620  5730 net.cpp:434] rpn_big_anchor_target <- input_data_input_0_split_1
I0412 18:03:19.927628  5730 net.cpp:434] rpn_big_anchor_target <- rpn_big_cls_prob_reshape
I0412 18:03:19.927650  5730 net.cpp:408] rpn_big_anchor_target -> rpn_big_anchor_target_labels
I0412 18:03:19.927670  5730 net.cpp:408] rpn_big_anchor_target -> rpn_big_anchor_target_bbox_targets
I0412 18:03:19.927683  5730 net.cpp:408] rpn_big_anchor_target -> rpn_big_anchor_target_inside_weights
I0412 18:03:19.927695  5730 net.cpp:408] rpn_big_anchor_target -> rpn_big_anchor_target_outside_weights
I0412 18:03:19.932744  5730 net.cpp:150] Setting up rpn_big_anchor_target
I0412 18:03:19.932765  5730 net.cpp:157] Top shape: 1 1 1586 92 (145912)
I0412 18:03:19.932771  5730 net.cpp:157] Top shape: 1 104 61 92 (583648)
I0412 18:03:19.932775  5730 net.cpp:157] Top shape: 1 104 61 92 (583648)
I0412 18:03:19.932780  5730 net.cpp:157] Top shape: 1 104 61 92 (583648)
I0412 18:03:19.932782  5730 net.cpp:165] Memory required for data: 3595745812
I0412 18:03:19.932787  5730 layer_factory.hpp:77] Creating layer rpn_big_loss_cls
I0412 18:03:19.932797  5730 net.cpp:100] Creating Layer rpn_big_loss_cls
I0412 18:03:19.932804  5730 net.cpp:434] rpn_big_loss_cls <- rpn_big_cls_score_reshape_rpn_big_cls_score_reshape_0_split_1
I0412 18:03:19.932813  5730 net.cpp:434] rpn_big_loss_cls <- rpn_big_anchor_target_labels
I0412 18:03:19.932823  5730 net.cpp:408] rpn_big_loss_cls -> rpn_big_loss_cls
I0412 18:03:19.932842  5730 layer_factory.hpp:77] Creating layer rpn_big_loss_cls
I0412 18:03:19.933629  5730 net.cpp:150] Setting up rpn_big_loss_cls
I0412 18:03:19.933648  5730 net.cpp:157] Top shape: (1)
I0412 18:03:19.933651  5730 net.cpp:160]     with loss weight 1
I0412 18:03:19.933662  5730 net.cpp:165] Memory required for data: 3595745816
I0412 18:03:19.933667  5730 layer_factory.hpp:77] Creating layer rpn_big_output_box
I0412 18:03:19.933682  5730 net.cpp:100] Creating Layer rpn_big_output_box
I0412 18:03:19.933689  5730 net.cpp:434] rpn_big_output_box <- rpn_big_conv2_rpn_big_conv2_drop_0_split_1
I0412 18:03:19.933701  5730 net.cpp:408] rpn_big_output_box -> rpn_big_output_box
I0412 18:03:19.953758  5730 net.cpp:150] Setting up rpn_big_output_box
I0412 18:03:19.953788  5730 net.cpp:157] Top shape: 1 384 63 94 (2274048)
I0412 18:03:19.953793  5730 net.cpp:165] Memory required for data: 3604842008
I0412 18:03:19.953804  5730 layer_factory.hpp:77] Creating layer rpn_big_output_box_relu
I0412 18:03:19.953814  5730 net.cpp:100] Creating Layer rpn_big_output_box_relu
I0412 18:03:19.953819  5730 net.cpp:434] rpn_big_output_box_relu <- rpn_big_output_box
I0412 18:03:19.953827  5730 net.cpp:395] rpn_big_output_box_relu -> rpn_big_output_box (in-place)
I0412 18:03:19.953841  5730 net.cpp:150] Setting up rpn_big_output_box_relu
I0412 18:03:19.953850  5730 net.cpp:157] Top shape: 1 384 63 94 (2274048)
I0412 18:03:19.953855  5730 net.cpp:165] Memory required for data: 3613938200
I0412 18:03:19.953860  5730 layer_factory.hpp:77] Creating layer rpn_big_bbox_pred
I0412 18:03:19.953876  5730 net.cpp:100] Creating Layer rpn_big_bbox_pred
I0412 18:03:19.953883  5730 net.cpp:434] rpn_big_bbox_pred <- rpn_big_output_box
I0412 18:03:19.953893  5730 net.cpp:408] rpn_big_bbox_pred -> rpn_big_bbox_pred
I0412 18:03:19.958266  5730 net.cpp:150] Setting up rpn_big_bbox_pred
I0412 18:03:19.958288  5730 net.cpp:157] Top shape: 1 104 61 92 (583648)
I0412 18:03:19.958292  5730 net.cpp:165] Memory required for data: 3616272792
I0412 18:03:19.958302  5730 layer_factory.hpp:77] Creating layer rpn_big_loss_bbox
I0412 18:03:19.962602  5730 net.cpp:100] Creating Layer rpn_big_loss_bbox
I0412 18:03:19.962618  5730 net.cpp:434] rpn_big_loss_bbox <- rpn_big_bbox_pred
I0412 18:03:19.962625  5730 net.cpp:434] rpn_big_loss_bbox <- rpn_big_anchor_target_bbox_targets
I0412 18:03:19.962631  5730 net.cpp:434] rpn_big_loss_bbox <- rpn_big_anchor_target_inside_weights
I0412 18:03:19.962638  5730 net.cpp:434] rpn_big_loss_bbox <- rpn_big_anchor_target_outside_weights
I0412 18:03:19.962649  5730 net.cpp:408] rpn_big_loss_bbox -> rpn_big_loss_bbox
I0412 18:03:19.964532  5730 net.cpp:150] Setting up rpn_big_loss_bbox
I0412 18:03:19.964563  5730 net.cpp:157] Top shape: 1 (1)
I0412 18:03:19.964566  5730 net.cpp:160]     with loss weight 1
I0412 18:03:19.964578  5730 net.cpp:165] Memory required for data: 3616272796
I0412 18:03:19.964586  5730 net.cpp:226] rpn_big_loss_bbox needs backward computation.
I0412 18:03:19.964596  5730 net.cpp:226] rpn_big_bbox_pred needs backward computation.
I0412 18:03:19.964603  5730 net.cpp:226] rpn_big_output_box_relu needs backward computation.
…
