…
I0413 15:51:01.312399  7003 solver.cpp:48] Initializing solver from parameters: 
base_lr: 0.001
display: 20
lr_policy: "multistep"
gamma: 0.1
momentum: 0.9
weight_decay: 0.0005
snapshot: 0
snapshot_prefix: "faces_example"
net_param {
  name: "GeneratedModel_13_04_2017_15_51"
  layer {
    name: "input"
    type: "Python"
    top: "input_data"
    top: "input_im_info"
    top: "input_gt_boxes"
    top: "input_ignored_boxes"
    python_param {
      module: "layers.roi_data_layer"
      layer: "RoIDataLayer"
      param_str: "{\"num_classes\": 2}"
    }
  }
  layer {
    name: "conv1_1"
    type: "Convolution"
    bottom: "input_data"
    top: "conv1_1"
    param {
      lr_mult: 0
      decay_mult: 0
    }
    param {
      lr_mult: 0
      decay_mult: 0
    }
    convolution_param {
      num_output: 64
      pad: 1
      kernel_size: 3
    }
  }
  layer {
    name: "relu1_1"
    type: "ReLU"
    bottom: "conv1_1"
    top: "conv1_1"
  }
  layer {
    name: "conv1_2"
    type: "Convolution"
    bottom: "conv1_1"
    top: "conv1_2"
    param {
      lr_mult: 0
      decay_mult: 0
    }
    param {
      lr_mult: 0
      decay_mult: 0
    }
    convolution_param {
      num_output: 64
      pad: 1
      kernel_size: 3
    }
  }
  layer {
    name: "relu1_2"
    type: "ReLU"
    bottom: "conv1_2"
    top: "conv1_2"
  }
  layer {
    name: "pool1"
    type: "Pooling"
    bottom: "conv1_2"
    top: "pool1"
    pooling_param {
      pool: MAX
      kernel_size: 2
      stride: 2
    }
  }
  layer {
    name: "conv2_1"
    type: "Convolution"
    bottom: "pool1"
    top: "conv2_1"
    param {
      lr_mult: 0
      decay_mult: 0
    }
    param {
      lr_mult: 0
      decay_mult: 0
    }
    convolution_param {
      num_output: 128
      pad: 1
      kernel_size: 3
    }
  }
  layer {
    name: "relu2_1"
    type: "ReLU"
    bottom: "conv2_1"
    top: "conv2_1"
  }
  layer {
    name: "conv2_2"
    type: "Convolution"
    bottom: "conv2_1"
    top: "conv2_2"
    param {
      lr_mult: 0
      decay_mult: 0
    }
    param {
      lr_mult: 0
      decay_mult: 0
    }
    convolution_param {
      num_output: 128
      pad: 1
      kernel_size: 3
    }
  }
  layer {
    name: "relu2_2"
    type: "ReLU"
    bottom: "conv2_2"
    top: "conv2_2"
  }
  layer {
    name: "pool2"
    type: "Pooling"
    bottom: "conv2_2"
    top: "pool2"
    pooling_param {
      pool: MAX
      kernel_size: 2
      stride: 2
    }
  }
  layer {
    name: "conv3_1"
    type: "Convolution"
    bottom: "pool2"
    top: "conv3_1"
    param {
      lr_mult: 1
    }
    param {
      lr_mult: 2
    }
    convolution_param {
      num_output: 256
      pad: 1
      kernel_size: 3
    }
  }
  layer {
    name: "relu3_1"
    type: "ReLU"
    bottom: "conv3_1"
    top: "conv3_1"
  }
  layer {
    name: "conv3_2"
    type: "Convolution"
    bottom: "conv3_1"
    top: "conv3_2"
    param {
      lr_mult: 1
    }
    param {
      lr_mult: 2
    }
    convolution_param {
      num_output: 256
      pad: 1
      kernel_size: 3
    }
  }
  layer {
    name: "relu3_2"
    type: "ReLU"
    bottom: "conv3_2"
    top: "conv3_2"
  }
  layer {
    name: "conv3_3"
    type: "Convolution"
    bottom: "conv3_2"
    top: "conv3_3"
    param {
      lr_mult: 1
    }
    param {
      lr_mult: 2
    }
    convolution_param {
      num_output: 256
      pad: 1
      kernel_size: 3
    }
  }
  layer {
    name: "relu3_3"
    type: "ReLU"
    bottom: "conv3_3"
    top: "conv3_3"
  }
  layer {
    name: "pool3"
    type: "Pooling"
    bottom: "conv3_3"
    top: "pool3"
    pooling_param {
      pool: MAX
      kernel_size: 2
      stride: 2
    }
  }
  layer {
    name: "conv4_1"
    type: "Convolution"
    bottom: "pool3"
    top: "conv4_1"
    param {
      lr_mult: 1
    }
    param {
      lr_mult: 2
    }
    convolution_param {
      num_output: 512
      pad: 1
      kernel_size: 3
    }
  }
  layer {
    name: "relu4_1"
    type: "ReLU"
    bottom: "conv4_1"
    top: "conv4_1"
  }
  layer {
    name: "conv4_2"
    type: "Convolution"
    bottom: "conv4_1"
    top: "conv4_2"
    param {
      lr_mult: 1
    }
    param {
      lr_mult: 2
    }
    convolution_param {
      num_output: 512
      pad: 1
      kernel_size: 3
    }
  }
  layer {
    name: "relu4_2"
    type: "ReLU"
    bottom: "conv4_2"
    top: "conv4_2"
  }
  layer {
    name: "conv4_3"
    type: "Convolution"
    bottom: "conv4_2"
    top: "conv4_3"
    param {
      lr_mult: 1
    }
    param {
      lr_mult: 2
    }
    convolution_param {
      num_output: 512
      pad: 1
      kernel_size: 3
    }
  }
  layer {
    name: "relu4_3"
    type: "ReLU"
    bottom: "conv4_3"
    top: "conv4_3"
  }
  layer {
    name: "pool4"
    type: "Pooling"
    bottom: "conv4_3"
    top: "pool4"
    pooling_param {
      pool: MAX
      kernel_size: 2
      stride: 2
    }
  }
  layer {
    name: "conv5_1"
    type: "Convolution"
    bottom: "pool4"
    top: "conv5_1"
    param {
      lr_mult: 1
    }
    param {
      lr_mult: 2
    }
    convolution_param {
      num_output: 512
      pad: 1
      kernel_size: 3
    }
  }
  layer {
    name: "relu5_1"
    type: "ReLU"
    bottom: "conv5_1"
    top: "conv5_1"
  }
  layer {
    name: "conv5_2"
    type: "Convolution"
    bottom: "conv5_1"
    top: "conv5_2"
    param {
      lr_mult: 1
    }
    param {
      lr_mult: 2
    }
    convolution_param {
      num_output: 512
      pad: 1
      kernel_size: 3
    }
  }
  layer {
    name: "relu5_2"
    type: "ReLU"
    bottom: "conv5_2"
    top: "conv5_2"
  }
  layer {
    name: "conv5_3"
    type: "Convolution"
    bottom: "conv5_2"
    top: "conv5_3"
    param {
      lr_mult: 1
    }
    param {
      lr_mult: 2
    }
    convolution_param {
      num_output: 512
      pad: 1
      kernel_size: 3
    }
  }
  layer {
    name: "relu5_3"
    type: "ReLU"
    bottom: "conv5_3"
    top: "conv5_3"
  }
  layer {
    name: "rpn_big_conv1"
    type: "Convolution"
    bottom: "conv5_3"
    top: "rpn_big_conv1"
    param {
      lr_mult: 1
    }
    param {
      lr_mult: 2
    }
    convolution_param {
      num_output: 512
      pad: 1
      kernel_size: 3
      stride: 1
      weight_filler {
        type: "gaussian"
        mean: 0
        std: 0.01
      }
      bias_filler {
        type: "constant"
      }
    }
  }
  layer {
    name: "rpn_big_conv1_relu"
    type: "ReLU"
    bottom: "rpn_big_conv1"
    top: "rpn_big_conv1"
    relu_param {
      negative_slope: 0
    }
  }
  layer {
    name: "rpn_big_conv2"
    type: "Convolution"
    bottom: "rpn_big_conv1"
    top: "rpn_big_conv2"
    param {
      lr_mult: 1
    }
    param {
      lr_mult: 2
    }
    convolution_param {
      num_output: 512
      pad: 1
      kernel_size: 3
      stride: 1
      weight_filler {
        type: "gaussian"
        mean: 0
        std: 0.01
      }
      bias_filler {
        type: "constant"
      }
    }
  }
  layer {
    name: "rpn_big_conv2_relu"
    type: "ReLU"
    bottom: "rpn_big_conv2"
    top: "rpn_big_conv2"
    relu_param {
      negative_slope: 0
    }
  }
  layer {
    name: "rpn_big_conv2_drop"
    type: "Dropout"
    bottom: "rpn_big_conv2"
    top: "rpn_big_conv2"
    dropout_param {
      dropout_ratio: 0.3
    }
  }
  layer {
    name: "rpn_big_output_cls"
    type: "Convolution"
    bottom: "rpn_big_conv2"
    top: "rpn_big_output_cls"
    param {
      lr_mult: 1
    }
    param {
      lr_mult: 2
    }
    convolution_param {
      num_output: 384
      pad: 1
      kernel_size: 3
      stride: 1
      weight_filler {
        type: "gaussian"
        mean: 0
        std: 0.01
      }
      bias_filler {
        type: "constant"
      }
    }
  }
  layer {
    name: "rpn_big_output_cls_relu"
    type: "ReLU"
    bottom: "rpn_big_output_cls"
    top: "rpn_big_output_cls"
    relu_param {
      negative_slope: 0
    }
  }
  layer {
    name: "rpn_big_cls_score"
    type: "Convolution"
    bottom: "rpn_big_output_cls"
    top: "rpn_big_cls_score"
    param {
      lr_mult: 1
    }
    param {
      lr_mult: 2
    }
    convolution_param {
      num_output: 52
      pad: 0
      kernel_size: 3
      stride: 1
      weight_filler {
        type: "gaussian"
        mean: 0
        std: 0.01
      }
      bias_filler {
        type: "constant"
      }
    }
  }
  layer {
    name: "rpn_big_cls_score_reshape"
    type: "Reshape"
    bottom: "rpn_big_cls_score"
    top: "rpn_big_cls_score_reshape"
    reshape_param {
      shape {
        dim: 0
        dim: 2
        dim: -1
        dim: 0
      }
    }
  }
  layer {
    name: "rpn_big_cls_prob"
    type: "Softmax"
    bottom: "rpn_big_cls_score_reshape"
    top: "rpn_big_cls_prob"
  }
  layer {
    name: "rpn_big_cls_prob_reshape"
    type: "Reshape"
    bottom: "rpn_big_cls_prob"
    top: "rpn_big_cls_prob_reshape"
    reshape_param {
      shape {
        dim: 0
        dim: 52
        dim: -1
        dim: 0
      }
    }
  }
  layer {
    name: "rpn_big_anchor_target"
    type: "Python"
    bottom: "rpn_big_cls_score"
    bottom: "input_gt_boxes"
    bottom: "input_ignored_boxes"
    bottom: "input_im_info"
    bottom: "input_data"
    bottom: "rpn_big_cls_prob_reshape"
    top: "rpn_big_anchor_target_labels"
    top: "rpn_big_anchor_target_bbox_targets"
    top: "rpn_big_anchor_target_inside_weights"
    top: "rpn_big_anchor_target_outside_weights"
    python_param {
      module: "rpn.anchor_target_layer"
      layer: "AnchorTargetLayer"
      param_str: "{\"negative_overlap\": 0.4, \"anchor_shift_num_xy\": [[2, 2], [2, 2], [2, 2], [2, 2], [1, 1], [1, 1], [1, 1], [1, 1], [1, 1], [1, 1], [1, 1], [1, 1], [1, 1], [1, 1]], \"anchor_ratios\": [1.0], \"anchor_scales\": [2.5, 3.025, 3.66025, 4.4289024999999995, 5.358972025, 6.484356150249999, 7.846070941802498, 9.493745839581022, 11.487432465893036, 13.899793283730574, 16.818749873313998, 20.350687346709933, 24.62433168951902, 29.795441344318014], \"batchsize\": 256, \"positive_overlap\": 0.6, \"name\": \"rpn_big\", \"num_classes\": 1, \"feat_stride\": 16, \"tn_fraction\": 0.2, \"fg_fraction\": 0.5, \"square_targets\": true}"
    }
  }
  layer {
    name: "rpn_big_loss_cls"
    type: "SoftmaxWithLoss"
    bottom: "rpn_big_cls_score_reshape"
    bottom: "rpn_big_anchor_target_labels"
    top: "rpn_big_loss_cls"
    loss_weight: 1
    propagate_down: true
    propagate_down: false
    loss_param {
      ignore_label: -1
      normalization: VALID
    }
  }
  layer {
    name: "rpn_big_output_box"
    type: "Convolution"
    bottom: "rpn_big_conv2"
    top: "rpn_big_output_box"
    param {
      lr_mult: 1
    }
    param {
      lr_mult: 2
    }
    convolution_param {
      num_output: 384
      pad: 1
      kernel_size: 3
      stride: 1
      weight_filler {
        type: "gaussian"
        mean: 0
        std: 0.01
      }
      bias_filler {
        type: "constant"
      }
    }
  }
  layer {
    name: "rpn_big_output_box_relu"
    type: "ReLU"
    bottom: "rpn_big_output_box"
    top: "rpn_big_output_box"
    relu_param {
      negative_slope: 0
    }
  }
  layer {
    name: "rpn_big_bbox_pred"
    type: "Convolution"
    bottom: "rpn_big_output_box"
    top: "rpn_big_bbox_pred"
    param {
      lr_mult: 1
    }
    param {
      lr_mult: 2
    }
    convolution_param {
      num_output: 104
      pad: 0
      kernel_size: 3
      stride: 1
      weight_filler {
        type: "gaussian"
        mean: 0
        std: 0.01
      }
      bias_filler {
        type: "constant"
      }
    }
  }
  layer {
    name: "rpn_big_loss_bbox"
    type: "Python"
    bottom: "rpn_big_bbox_pred"
    bottom: "rpn_big_anchor_target_bbox_targets"
    bottom: "rpn_big_anchor_target_inside_weights"
    bottom: "rpn_big_anchor_target_outside_weights"
    top: "rpn_big_loss_bbox"
    loss_weight: 1
    python_param {
      module: "layers.smooth_l1_loss"
      layer: "SmoothL1LossLayer"
      param_str: "{\"sigma\": 3}"
    }
  }
  layer {
    name: "proposal"
    type: "Python"
    bottom: "rpn_big_cls_prob_reshape"
    bottom: "rpn_big_bbox_pred"
    bottom: "input_im_info"
    top: "rpn_rois"
    python_param {
      module: "rpn.proposal"
      layer: "ProposalLayer"
      param_str: "NONE"
    }
  }
}
average_loss: 100
stepvalue: 70000
stepvalue: 120000
iter_size: 2
I0413 15:51:01.312494  7003 solver.cpp:86] Creating training net specified in net_param.
I0413 15:51:01.313125  7003 net.cpp:58] Initializing net from parameters: 
name: "GeneratedModel_13_04_2017_15_51"
state {
  phase: TRAIN
}
layer {
  name: "input"
  type: "Python"
  top: "input_data"
  top: "input_im_info"
  top: "input_gt_boxes"
  top: "input_ignored_boxes"
  python_param {
    module: "layers.roi_data_layer"
    layer: "RoIDataLayer"
    param_str: "{\"num_classes\": 2}"
  }
}
layer {
  name: "conv1_1"
  type: "Convolution"
  bottom: "input_data"
  top: "conv1_1"
  param {
    lr_mult: 0
    decay_mult: 0
  }
  param {
    lr_mult: 0
    decay_mult: 0
  }
  convolution_param {
    num_output: 64
    pad: 1
    kernel_size: 3
  }
}
layer {
  name: "relu1_1"
  type: "ReLU"
  bottom: "conv1_1"
  top: "conv1_1"
}
layer {
  name: "conv1_2"
  type: "Convolution"
  bottom: "conv1_1"
  top: "conv1_2"
  param {
    lr_mult: 0
    decay_mult: 0
  }
  param {
    lr_mult: 0
    decay_mult: 0
  }
  convolution_param {
    num_output: 64
    pad: 1
    kernel_size: 3
  }
}
layer {
  name: "relu1_2"
  type: "ReLU"
  bottom: "conv1_2"
  top: "conv1_2"
}
layer {
  name: "pool1"
  type: "Pooling"
  bottom: "conv1_2"
  top: "pool1"
  pooling_param {
    pool: MAX
    kernel_size: 2
    stride: 2
  }
}
layer {
  name: "conv2_1"
  type: "Convolution"
  bottom: "pool1"
  top: "conv2_1"
  param {
    lr_mult: 0
    decay_mult: 0
  }
  param {
    lr_mult: 0
    decay_mult: 0
  }
  convolution_param {
    num_output: 128
    pad: 1
    kernel_size: 3
  }
}
layer {
  name: "relu2_1"
  type: "ReLU"
  bottom: "conv2_1"
  top: "conv2_1"
}
layer {
  name: "conv2_2"
  type: "Convolution"
  bottom: "conv2_1"
  top: "conv2_2"
  param {
    lr_mult: 0
    decay_mult: 0
  }
  param {
    lr_mult: 0
    decay_mult: 0
  }
  convolution_param {
    num_output: 128
    pad: 1
    kernel_size: 3
  }
}
layer {
  name: "relu2_2"
  type: "ReLU"
  bottom: "conv2_2"
  top: "conv2_2"
}
layer {
  name: "pool2"
  type: "Pooling"
  bottom: "conv2_2"
  top: "pool2"
  pooling_param {
    pool: MAX
    kernel_size: 2
    stride: 2
  }
}
layer {
  name: "conv3_1"
  type: "Convolution"
  bottom: "pool2"
  top: "conv3_1"
  param {
    lr_mult: 1
  }
  param {
    lr_mult: 2
  }
  convolution_param {
    num_output: 256
    pad: 1
    kernel_size: 3
  }
}
layer {
  name: "relu3_1"
  type: "ReLU"
  bottom: "conv3_1"
  top: "conv3_1"
}
layer {
  name: "conv3_2"
  type: "Convolution"
  bottom: "conv3_1"
  top: "conv3_2"
  param {
    lr_mult: 1
  }
  param {
    lr_mult: 2
  }
  convolution_param {
    num_output: 256
    pad: 1
    kernel_size: 3
  }
}
layer {
  name: "relu3_2"
  type: "ReLU"
  bottom: "conv3_2"
  top: "conv3_2"
}
layer {
  name: "conv3_3"
  type: "Convolution"
  bottom: "conv3_2"
  top: "conv3_3"
  param {
    lr_mult: 1
  }
  param {
    lr_mult: 2
  }
  convolution_param {
    num_output: 256
    pad: 1
    kernel_size: 3
  }
}
layer {
  name: "relu3_3"
  type: "ReLU"
  bottom: "conv3_3"
  top: "conv3_3"
}
layer {
  name: "pool3"
  type: "Pooling"
  bottom: "conv3_3"
  top: "pool3"
  pooling_param {
    pool: MAX
    kernel_size: 2
    stride: 2
  }
}
layer {
  name: "conv4_1"
  type: "Convolution"
  bottom: "pool3"
  top: "conv4_1"
  param {
    lr_mult: 1
  }
  param {
    lr_mult: 2
  }
  convolution_param {
    num_output: 512
    pad: 1
    kernel_size: 3
  }
}
layer {
  name: "relu4_1"
  type: "ReLU"
  bottom: "conv4_1"
  top: "conv4_1"
}
layer {
  name: "conv4_2"
  type: "Convolution"
  bottom: "conv4_1"
  top: "conv4_2"
  param {
    lr_mult: 1
  }
  param {
    lr_mult: 2
  }
  convolution_param {
    num_output: 512
    pad: 1
    kernel_size: 3
  }
}
layer {
  name: "relu4_2"
  type: "ReLU"
  bottom: "conv4_2"
  top: "conv4_2"
}
layer {
  name: "conv4_3"
  type: "Convolution"
  bottom: "conv4_2"
  top: "conv4_3"
  param {
    lr_mult: 1
  }
  param {
    lr_mult: 2
  }
  convolution_param {
    num_output: 512
    pad: 1
    kernel_size: 3
  }
}
layer {
  name: "relu4_3"
  type: "ReLU"
  bottom: "conv4_3"
  top: "conv4_3"
}
layer {
  name: "pool4"
  type: "Pooling"
  bottom: "conv4_3"
  top: "pool4"
  pooling_param {
    pool: MAX
    kernel_size: 2
    stride: 2
  }
}
layer {
  name: "conv5_1"
  type: "Convolution"
  bottom: "pool4"
  top: "conv5_1"
  param {
    lr_mult: 1
  }
  param {
    lr_mult: 2
  }
  convolution_param {
    num_output: 512
    pad: 1
    kernel_size: 3
  }
}
layer {
  name: "relu5_1"
  type: "ReLU"
  bottom: "conv5_1"
  top: "conv5_1"
}
layer {
  name: "conv5_2"
  type: "Convolution"
  bottom: "conv5_1"
  top: "conv5_2"
  param {
    lr_mult: 1
  }
  param {
    lr_mult: 2
  }
  convolution_param {
    num_output: 512
    pad: 1
    kernel_size: 3
  }
}
layer {
  name: "relu5_2"
  type: "ReLU"
  bottom: "conv5_2"
  top: "conv5_2"
}
layer {
  name: "conv5_3"
  type: "Convolution"
  bottom: "conv5_2"
  top: "conv5_3"
  param {
    lr_mult: 1
  }
  param {
    lr_mult: 2
  }
  convolution_param {
    num_output: 512
    pad: 1
    kernel_size: 3
  }
}
layer {
  name: "relu5_3"
  type: "ReLU"
  bottom: "conv5_3"
  top: "conv5_3"
}
layer {
  name: "rpn_big_conv1"
  type: "Convolution"
  bottom: "conv5_3"
  top: "rpn_big_conv1"
  param {
    lr_mult: 1
  }
  param {
    lr_mult: 2
  }
  convolution_param {
    num_output: 512
    pad: 1
    kernel_size: 3
    stride: 1
    weight_filler {
      type: "gaussian"
      mean: 0
      std: 0.01
    }
    bias_filler {
      type: "constant"
    }
  }
}
layer {
  name: "rpn_big_conv1_relu"
  type: "ReLU"
  bottom: "rpn_big_conv1"
  top: "rpn_big_conv1"
  relu_param {
    negative_slope: 0
  }
}
layer {
  name: "rpn_big_conv2"
  type: "Convolution"
  bottom: "rpn_big_conv1"
  top: "rpn_big_conv2"
  param {
    lr_mult: 1
  }
  param {
    lr_mult: 2
  }
  convolution_param {
    num_output: 512
    pad: 1
    kernel_size: 3
    stride: 1
    weight_filler {
      type: "gaussian"
      mean: 0
      std: 0.01
    }
    bias_filler {
      type: "constant"
    }
  }
}
layer {
  name: "rpn_big_conv2_relu"
  type: "ReLU"
  bottom: "rpn_big_conv2"
  top: "rpn_big_conv2"
  relu_param {
    negative_slope: 0
  }
}
layer {
  name: "rpn_big_conv2_drop"
  type: "Dropout"
  bottom: "rpn_big_conv2"
  top: "rpn_big_conv2"
  dropout_param {
    dropout_ratio: 0.3
  }
}
layer {
  name: "rpn_big_output_cls"
  type: "Convolution"
  bottom: "rpn_big_conv2"
  top: "rpn_big_output_cls"
  param {
    lr_mult: 1
  }
  param {
    lr_mult: 2
  }
  convolution_param {
    num_output: 384
    pad: 1
    kernel_size: 3
    stride: 1
    weight_filler {
      type: "gaussian"
      mean: 0
      std: 0.01
    }
    bias_filler {
      type: "constant"
    }
  }
}
layer {
  name: "rpn_big_output_cls_relu"
  type: "ReLU"
  bottom: "rpn_big_output_cls"
  top: "rpn_big_output_cls"
  relu_param {
    negative_slope: 0
  }
}
layer {
  name: "rpn_big_cls_score"
  type: "Convolution"
  bottom: "rpn_big_output_cls"
  top: "rpn_big_cls_score"
  param {
    lr_mult: 1
  }
  param {
    lr_mult: 2
  }
  convolution_param {
    num_output: 52
    pad: 0
    kernel_size: 3
    stride: 1
    weight_filler {
      type: "gaussian"
      mean: 0
      std: 0.01
    }
    bias_filler {
      type: "constant"
    }
  }
}
layer {
  name: "rpn_big_cls_score_reshape"
  type: "Reshape"
  bottom: "rpn_big_cls_score"
  top: "rpn_big_cls_score_reshape"
  reshape_param {
    shape {
      dim: 0
      dim: 2
      dim: -1
      dim: 0
    }
  }
}
layer {
  name: "rpn_big_cls_prob"
  type: "Softmax"
  bottom: "rpn_big_cls_score_reshape"
  top: "rpn_big_cls_prob"
}
layer {
  name: "rpn_big_cls_prob_reshape"
  type: "Reshape"
  bottom: "rpn_big_cls_prob"
  top: "rpn_big_cls_prob_reshape"
  reshape_param {
    shape {
      dim: 0
      dim: 52
      dim: -1
      dim: 0
    }
  }
}
layer {
  name: "rpn_big_anchor_target"
  type: "Python"
  bottom: "rpn_big_cls_score"
  bottom: "input_gt_boxes"
  bottom: "input_ignored_boxes"
  bottom: "input_im_info"
  bottom: "input_data"
  bottom: "rpn_big_cls_prob_reshape"
  top: "rpn_big_anchor_target_labels"
  top: "rpn_big_anchor_target_bbox_targets"
  top: "rpn_big_anchor_target_inside_weights"
  top: "rpn_big_anchor_target_outside_weights"
  python_param {
    module: "rpn.anchor_target_layer"
    layer: "AnchorTargetLayer"
    param_str: "{\"negative_overlap\": 0.4, \"anchor_shift_num_xy\": [[2, 2], [2, 2], [2, 2], [2, 2], [1, 1], [1, 1], [1, 1], [1, 1], [1, 1], [1, 1], [1, 1], [1, 1], [1, 1], [1, 1]], \"anchor_ratios\": [1.0], \"anchor_scales\": [2.5, 3.025, 3.66025, 4.4289024999999995, 5.358972025, 6.484356150249999, 7.846070941802498, 9.493745839581022, 11.487432465893036, 13.899793283730574, 16.818749873313998, 20.350687346709933, 24.62433168951902, 29.795441344318014], \"batchsize\": 256, \"positive_overlap\": 0.6, \"name\": \"rpn_big\", \"num_classes\": 1, \"feat_stride\": 16, \"tn_fraction\": 0.2, \"fg_fraction\": 0.5, \"square_targets\": true}"
  }
}
layer {
  name: "rpn_big_loss_cls"
  type: "SoftmaxWithLoss"
  bottom: "rpn_big_cls_score_reshape"
  bottom: "rpn_big_anchor_target_labels"
  top: "rpn_big_loss_cls"
  loss_weight: 1
  propagate_down: true
  propagate_down: false
  loss_param {
    ignore_label: -1
    normalization: VALID
  }
}
layer {
  name: "rpn_big_output_box"
  type: "Convolution"
  bottom: "rpn_big_conv2"
  top: "rpn_big_output_box"
  param {
    lr_mult: 1
  }
  param {
    lr_mult: 2
  }
  convolution_param {
    num_output: 384
    pad: 1
    kernel_size: 3
    stride: 1
    weight_filler {
      type: "gaussian"
      mean: 0
      std: 0.01
    }
    bias_filler {
      type: "constant"
    }
  }
}
layer {
  name: "rpn_big_output_box_relu"
  type: "ReLU"
  bottom: "rpn_big_output_box"
  top: "rpn_big_output_box"
  relu_param {
    negative_slope: 0
  }
}
layer {
  name: "rpn_big_bbox_pred"
  type: "Convolution"
  bottom: "rpn_big_output_box"
  top: "rpn_big_bbox_pred"
  param {
    lr_mult: 1
  }
  param {
    lr_mult: 2
  }
  convolution_param {
    num_output: 104
    pad: 0
    kernel_size: 3
    stride: 1
    weight_filler {
      type: "gaussian"
      mean: 0
      std: 0.01
    }
    bias_filler {
      type: "constant"
    }
  }
}
layer {
  name: "rpn_big_loss_bbox"
  type: "Python"
  bottom: "rpn_big_bbox_pred"
  bottom: "rpn_big_anchor_target_bbox_targets"
  bottom: "rpn_big_anchor_target_inside_weights"
  bottom: "rpn_big_anchor_target_outside_weights"
  top: "rpn_big_loss_bbox"
  loss_weight: 1
  python_param {
    module: "layers.smooth_l1_loss"
    layer: "SmoothL1LossLayer"
    param_str: "{\"sigma\": 3}"
  }
}
layer {
  name: "proposal"
  type: "Python"
  bottom: "rpn_big_cls_prob_reshape"
  bottom: "rpn_big_bbox_pred"
  bottom: "input_im_info"
  top: "rpn_rois"
  python_param {
    module: "rpn.proposal"
    layer: "ProposalLayer"
    param_str: "NONE"
  }
}
I0413 15:51:01.318723  7003 layer_factory.hpp:77] Creating layer input
I0413 15:51:01.322152  7003 net.cpp:100] Creating Layer input
I0413 15:51:01.322175  7003 net.cpp:408] input -> input_data
I0413 15:51:01.322186  7003 net.cpp:408] input -> input_im_info
I0413 15:51:01.322193  7003 net.cpp:408] input -> input_gt_boxes
I0413 15:51:01.322201  7003 net.cpp:408] input -> input_ignored_boxes
RoiDataLayer: name_to_top: {'im_info': 1, 'ignored_boxes': 3, 'data': 0, 'gt_boxes': 2}
I0413 15:51:01.634279  7003 net.cpp:150] Setting up input
I0413 15:51:01.634310  7003 net.cpp:157] Top shape: 1 3 1000 1500 (4500000)
I0413 15:51:01.634318  7003 net.cpp:157] Top shape: 1 3 (3)
I0413 15:51:01.634325  7003 net.cpp:157] Top shape: 1 5 (5)
I0413 15:51:01.634331  7003 net.cpp:157] Top shape: 1 5 (5)
I0413 15:51:01.634335  7003 net.cpp:165] Memory required for data: 18000052
I0413 15:51:01.634344  7003 layer_factory.hpp:77] Creating layer input_data_input_0_split
I0413 15:51:01.634361  7003 net.cpp:100] Creating Layer input_data_input_0_split
I0413 15:51:01.634369  7003 net.cpp:434] input_data_input_0_split <- input_data
I0413 15:51:01.634382  7003 net.cpp:408] input_data_input_0_split -> input_data_input_0_split_0
I0413 15:51:01.634399  7003 net.cpp:408] input_data_input_0_split -> input_data_input_0_split_1
I0413 15:51:01.634438  7003 net.cpp:150] Setting up input_data_input_0_split
I0413 15:51:01.634454  7003 net.cpp:157] Top shape: 1 3 1000 1500 (4500000)
I0413 15:51:01.634462  7003 net.cpp:157] Top shape: 1 3 1000 1500 (4500000)
I0413 15:51:01.634469  7003 net.cpp:165] Memory required for data: 54000052
I0413 15:51:01.634476  7003 layer_factory.hpp:77] Creating layer input_im_info_input_1_split
I0413 15:51:01.634488  7003 net.cpp:100] Creating Layer input_im_info_input_1_split
I0413 15:51:01.634496  7003 net.cpp:434] input_im_info_input_1_split <- input_im_info
I0413 15:51:01.634506  7003 net.cpp:408] input_im_info_input_1_split -> input_im_info_input_1_split_0
I0413 15:51:01.634521  7003 net.cpp:408] input_im_info_input_1_split -> input_im_info_input_1_split_1
I0413 15:51:01.634562  7003 net.cpp:150] Setting up input_im_info_input_1_split
I0413 15:51:01.634570  7003 net.cpp:157] Top shape: 1 3 (3)
I0413 15:51:01.634578  7003 net.cpp:157] Top shape: 1 3 (3)
I0413 15:51:01.634583  7003 net.cpp:165] Memory required for data: 54000076
I0413 15:51:01.634588  7003 layer_factory.hpp:77] Creating layer conv1_1
I0413 15:51:01.634605  7003 net.cpp:100] Creating Layer conv1_1
I0413 15:51:01.634613  7003 net.cpp:434] conv1_1 <- input_data_input_0_split_0
I0413 15:51:01.634624  7003 net.cpp:408] conv1_1 -> conv1_1
I0413 15:51:01.637812  7003 net.cpp:150] Setting up conv1_1
I0413 15:51:01.637851  7003 net.cpp:157] Top shape: 1 64 1000 1500 (96000000)
I0413 15:51:01.637857  7003 net.cpp:165] Memory required for data: 438000076
I0413 15:51:01.637882  7003 layer_factory.hpp:77] Creating layer relu1_1
I0413 15:51:01.637903  7003 net.cpp:100] Creating Layer relu1_1
I0413 15:51:01.637912  7003 net.cpp:434] relu1_1 <- conv1_1
I0413 15:51:01.637923  7003 net.cpp:395] relu1_1 -> conv1_1 (in-place)
I0413 15:51:01.637949  7003 net.cpp:150] Setting up relu1_1
I0413 15:51:01.637959  7003 net.cpp:157] Top shape: 1 64 1000 1500 (96000000)
I0413 15:51:01.637965  7003 net.cpp:165] Memory required for data: 822000076
I0413 15:51:01.637971  7003 layer_factory.hpp:77] Creating layer conv1_2
I0413 15:51:01.637989  7003 net.cpp:100] Creating Layer conv1_2
I0413 15:51:01.637996  7003 net.cpp:434] conv1_2 <- conv1_1
I0413 15:51:01.638010  7003 net.cpp:408] conv1_2 -> conv1_2
I0413 15:51:01.641192  7003 net.cpp:150] Setting up conv1_2
I0413 15:51:01.641230  7003 net.cpp:157] Top shape: 1 64 1000 1500 (96000000)
I0413 15:51:01.641237  7003 net.cpp:165] Memory required for data: 1206000076
I0413 15:51:01.641263  7003 layer_factory.hpp:77] Creating layer relu1_2
I0413 15:51:01.641278  7003 net.cpp:100] Creating Layer relu1_2
I0413 15:51:01.641288  7003 net.cpp:434] relu1_2 <- conv1_2
I0413 15:51:01.641299  7003 net.cpp:395] relu1_2 -> conv1_2 (in-place)
I0413 15:51:01.641319  7003 net.cpp:150] Setting up relu1_2
I0413 15:51:01.641327  7003 net.cpp:157] Top shape: 1 64 1000 1500 (96000000)
I0413 15:51:01.641333  7003 net.cpp:165] Memory required for data: 1590000076
I0413 15:51:01.641340  7003 layer_factory.hpp:77] Creating layer pool1
I0413 15:51:01.641355  7003 net.cpp:100] Creating Layer pool1
I0413 15:51:01.641362  7003 net.cpp:434] pool1 <- conv1_2
I0413 15:51:01.641372  7003 net.cpp:408] pool1 -> pool1
I0413 15:51:01.641451  7003 net.cpp:150] Setting up pool1
I0413 15:51:01.641463  7003 net.cpp:157] Top shape: 1 64 500 750 (24000000)
I0413 15:51:01.641469  7003 net.cpp:165] Memory required for data: 1686000076
I0413 15:51:01.641474  7003 layer_factory.hpp:77] Creating layer conv2_1
I0413 15:51:01.641501  7003 net.cpp:100] Creating Layer conv2_1
I0413 15:51:01.641510  7003 net.cpp:434] conv2_1 <- pool1
I0413 15:51:01.641521  7003 net.cpp:408] conv2_1 -> conv2_1
I0413 15:51:01.642736  7003 net.cpp:150] Setting up conv2_1
I0413 15:51:01.642760  7003 net.cpp:157] Top shape: 1 128 500 750 (48000000)
I0413 15:51:01.642765  7003 net.cpp:165] Memory required for data: 1878000076
I0413 15:51:01.642783  7003 layer_factory.hpp:77] Creating layer relu2_1
I0413 15:51:01.642796  7003 net.cpp:100] Creating Layer relu2_1
I0413 15:51:01.642803  7003 net.cpp:434] relu2_1 <- conv2_1
I0413 15:51:01.642817  7003 net.cpp:395] relu2_1 -> conv2_1 (in-place)
I0413 15:51:01.642828  7003 net.cpp:150] Setting up relu2_1
I0413 15:51:01.642838  7003 net.cpp:157] Top shape: 1 128 500 750 (48000000)
I0413 15:51:01.642844  7003 net.cpp:165] Memory required for data: 2070000076
I0413 15:51:01.642851  7003 layer_factory.hpp:77] Creating layer conv2_2
I0413 15:51:01.642865  7003 net.cpp:100] Creating Layer conv2_2
I0413 15:51:01.642871  7003 net.cpp:434] conv2_2 <- conv2_1
I0413 15:51:01.642884  7003 net.cpp:408] conv2_2 -> conv2_2
I0413 15:51:01.643811  7003 net.cpp:150] Setting up conv2_2
I0413 15:51:01.643836  7003 net.cpp:157] Top shape: 1 128 500 750 (48000000)
I0413 15:51:01.643843  7003 net.cpp:165] Memory required for data: 2262000076
I0413 15:51:01.643857  7003 layer_factory.hpp:77] Creating layer relu2_2
I0413 15:51:01.643870  7003 net.cpp:100] Creating Layer relu2_2
I0413 15:51:01.643878  7003 net.cpp:434] relu2_2 <- conv2_2
I0413 15:51:01.643892  7003 net.cpp:395] relu2_2 -> conv2_2 (in-place)
I0413 15:51:01.643904  7003 net.cpp:150] Setting up relu2_2
I0413 15:51:01.643914  7003 net.cpp:157] Top shape: 1 128 500 750 (48000000)
I0413 15:51:01.643921  7003 net.cpp:165] Memory required for data: 2454000076
I0413 15:51:01.643928  7003 layer_factory.hpp:77] Creating layer pool2
I0413 15:51:01.643940  7003 net.cpp:100] Creating Layer pool2
I0413 15:51:01.643947  7003 net.cpp:434] pool2 <- conv2_2
I0413 15:51:01.643957  7003 net.cpp:408] pool2 -> pool2
I0413 15:51:01.644008  7003 net.cpp:150] Setting up pool2
I0413 15:51:01.644021  7003 net.cpp:157] Top shape: 1 128 250 375 (12000000)
I0413 15:51:01.644027  7003 net.cpp:165] Memory required for data: 2502000076
I0413 15:51:01.644034  7003 layer_factory.hpp:77] Creating layer conv3_1
I0413 15:51:01.644048  7003 net.cpp:100] Creating Layer conv3_1
I0413 15:51:01.644055  7003 net.cpp:434] conv3_1 <- pool2
I0413 15:51:01.644068  7003 net.cpp:408] conv3_1 -> conv3_1
I0413 15:51:01.645164  7003 net.cpp:150] Setting up conv3_1
I0413 15:51:01.645192  7003 net.cpp:157] Top shape: 1 256 250 375 (24000000)
I0413 15:51:01.645198  7003 net.cpp:165] Memory required for data: 2598000076
I0413 15:51:01.645217  7003 layer_factory.hpp:77] Creating layer relu3_1
I0413 15:51:01.645229  7003 net.cpp:100] Creating Layer relu3_1
I0413 15:51:01.645237  7003 net.cpp:434] relu3_1 <- conv3_1
I0413 15:51:01.645252  7003 net.cpp:395] relu3_1 -> conv3_1 (in-place)
I0413 15:51:01.645265  7003 net.cpp:150] Setting up relu3_1
I0413 15:51:01.645275  7003 net.cpp:157] Top shape: 1 256 250 375 (24000000)
I0413 15:51:01.645282  7003 net.cpp:165] Memory required for data: 2694000076
I0413 15:51:01.645288  7003 layer_factory.hpp:77] Creating layer conv3_2
I0413 15:51:01.645304  7003 net.cpp:100] Creating Layer conv3_2
I0413 15:51:01.645311  7003 net.cpp:434] conv3_2 <- conv3_1
I0413 15:51:01.645321  7003 net.cpp:408] conv3_2 -> conv3_2
I0413 15:51:01.646517  7003 net.cpp:150] Setting up conv3_2
I0413 15:51:01.646544  7003 net.cpp:157] Top shape: 1 256 250 375 (24000000)
I0413 15:51:01.646550  7003 net.cpp:165] Memory required for data: 2790000076
I0413 15:51:01.646564  7003 layer_factory.hpp:77] Creating layer relu3_2
I0413 15:51:01.646581  7003 net.cpp:100] Creating Layer relu3_2
I0413 15:51:01.646589  7003 net.cpp:434] relu3_2 <- conv3_2
I0413 15:51:01.646600  7003 net.cpp:395] relu3_2 -> conv3_2 (in-place)
I0413 15:51:01.646615  7003 net.cpp:150] Setting up relu3_2
I0413 15:51:01.646625  7003 net.cpp:157] Top shape: 1 256 250 375 (24000000)
I0413 15:51:01.646631  7003 net.cpp:165] Memory required for data: 2886000076
I0413 15:51:01.646637  7003 layer_factory.hpp:77] Creating layer conv3_3
I0413 15:51:01.646653  7003 net.cpp:100] Creating Layer conv3_3
I0413 15:51:01.646661  7003 net.cpp:434] conv3_3 <- conv3_2
I0413 15:51:01.646670  7003 net.cpp:408] conv3_3 -> conv3_3
I0413 15:51:01.648216  7003 net.cpp:150] Setting up conv3_3
I0413 15:51:01.648252  7003 net.cpp:157] Top shape: 1 256 250 375 (24000000)
I0413 15:51:01.648257  7003 net.cpp:165] Memory required for data: 2982000076
I0413 15:51:01.648273  7003 layer_factory.hpp:77] Creating layer relu3_3
I0413 15:51:01.648290  7003 net.cpp:100] Creating Layer relu3_3
I0413 15:51:01.648300  7003 net.cpp:434] relu3_3 <- conv3_3
I0413 15:51:01.648313  7003 net.cpp:395] relu3_3 -> conv3_3 (in-place)
I0413 15:51:01.648329  7003 net.cpp:150] Setting up relu3_3
I0413 15:51:01.648339  7003 net.cpp:157] Top shape: 1 256 250 375 (24000000)
I0413 15:51:01.648345  7003 net.cpp:165] Memory required for data: 3078000076
I0413 15:51:01.648351  7003 layer_factory.hpp:77] Creating layer pool3
I0413 15:51:01.648365  7003 net.cpp:100] Creating Layer pool3
I0413 15:51:01.648371  7003 net.cpp:434] pool3 <- conv3_3
I0413 15:51:01.648381  7003 net.cpp:408] pool3 -> pool3
I0413 15:51:01.648435  7003 net.cpp:150] Setting up pool3
I0413 15:51:01.648447  7003 net.cpp:157] Top shape: 1 256 125 188 (6016000)
I0413 15:51:01.648452  7003 net.cpp:165] Memory required for data: 3102064076
I0413 15:51:01.648460  7003 layer_factory.hpp:77] Creating layer conv4_1
I0413 15:51:01.648475  7003 net.cpp:100] Creating Layer conv4_1
I0413 15:51:01.648484  7003 net.cpp:434] conv4_1 <- pool3
I0413 15:51:01.648499  7003 net.cpp:408] conv4_1 -> conv4_1
I0413 15:51:01.651140  7003 net.cpp:150] Setting up conv4_1
I0413 15:51:01.651178  7003 net.cpp:157] Top shape: 1 512 125 188 (12032000)
I0413 15:51:01.651185  7003 net.cpp:165] Memory required for data: 3150192076
I0413 15:51:01.651198  7003 layer_factory.hpp:77] Creating layer relu4_1
I0413 15:51:01.651211  7003 net.cpp:100] Creating Layer relu4_1
I0413 15:51:01.651221  7003 net.cpp:434] relu4_1 <- conv4_1
I0413 15:51:01.651235  7003 net.cpp:395] relu4_1 -> conv4_1 (in-place)
I0413 15:51:01.651252  7003 net.cpp:150] Setting up relu4_1
I0413 15:51:01.651259  7003 net.cpp:157] Top shape: 1 512 125 188 (12032000)
I0413 15:51:01.651268  7003 net.cpp:165] Memory required for data: 3198320076
I0413 15:51:01.651273  7003 layer_factory.hpp:77] Creating layer conv4_2
I0413 15:51:01.651290  7003 net.cpp:100] Creating Layer conv4_2
I0413 15:51:01.651296  7003 net.cpp:434] conv4_2 <- conv4_1
I0413 15:51:01.651309  7003 net.cpp:408] conv4_2 -> conv4_2
I0413 15:51:01.655489  7003 net.cpp:150] Setting up conv4_2
I0413 15:51:01.655530  7003 net.cpp:157] Top shape: 1 512 125 188 (12032000)
I0413 15:51:01.655535  7003 net.cpp:165] Memory required for data: 3246448076
I0413 15:51:01.655557  7003 layer_factory.hpp:77] Creating layer relu4_2
I0413 15:51:01.655575  7003 net.cpp:100] Creating Layer relu4_2
I0413 15:51:01.655583  7003 net.cpp:434] relu4_2 <- conv4_2
I0413 15:51:01.655597  7003 net.cpp:395] relu4_2 -> conv4_2 (in-place)
I0413 15:51:01.655612  7003 net.cpp:150] Setting up relu4_2
I0413 15:51:01.655620  7003 net.cpp:157] Top shape: 1 512 125 188 (12032000)
I0413 15:51:01.655628  7003 net.cpp:165] Memory required for data: 3294576076
I0413 15:51:01.655634  7003 layer_factory.hpp:77] Creating layer conv4_3
I0413 15:51:01.655652  7003 net.cpp:100] Creating Layer conv4_3
I0413 15:51:01.655658  7003 net.cpp:434] conv4_3 <- conv4_2
I0413 15:51:01.655668  7003 net.cpp:408] conv4_3 -> conv4_3
I0413 15:51:01.661285  7003 net.cpp:150] Setting up conv4_3
I0413 15:51:01.661327  7003 net.cpp:157] Top shape: 1 512 125 188 (12032000)
I0413 15:51:01.661334  7003 net.cpp:165] Memory required for data: 3342704076
I0413 15:51:01.661350  7003 layer_factory.hpp:77] Creating layer relu4_3
I0413 15:51:01.661362  7003 net.cpp:100] Creating Layer relu4_3
I0413 15:51:01.661373  7003 net.cpp:434] relu4_3 <- conv4_3
I0413 15:51:01.661386  7003 net.cpp:395] relu4_3 -> conv4_3 (in-place)
I0413 15:51:01.661420  7003 net.cpp:150] Setting up relu4_3
I0413 15:51:01.661443  7003 net.cpp:157] Top shape: 1 512 125 188 (12032000)
I0413 15:51:01.661463  7003 net.cpp:165] Memory required for data: 3390832076
I0413 15:51:01.661469  7003 layer_factory.hpp:77] Creating layer pool4
I0413 15:51:01.661484  7003 net.cpp:100] Creating Layer pool4
I0413 15:51:01.661491  7003 net.cpp:434] pool4 <- conv4_3
I0413 15:51:01.661502  7003 net.cpp:408] pool4 -> pool4
I0413 15:51:01.661547  7003 net.cpp:150] Setting up pool4
I0413 15:51:01.661558  7003 net.cpp:157] Top shape: 1 512 63 94 (3032064)
I0413 15:51:01.661564  7003 net.cpp:165] Memory required for data: 3402960332
I0413 15:51:01.661571  7003 layer_factory.hpp:77] Creating layer conv5_1
I0413 15:51:01.661589  7003 net.cpp:100] Creating Layer conv5_1
I0413 15:51:01.661597  7003 net.cpp:434] conv5_1 <- pool4
I0413 15:51:01.661608  7003 net.cpp:408] conv5_1 -> conv5_1
I0413 15:51:01.666445  7003 net.cpp:150] Setting up conv5_1
I0413 15:51:01.666479  7003 net.cpp:157] Top shape: 1 512 63 94 (3032064)
I0413 15:51:01.666486  7003 net.cpp:165] Memory required for data: 3415088588
I0413 15:51:01.666501  7003 layer_factory.hpp:77] Creating layer relu5_1
I0413 15:51:01.666517  7003 net.cpp:100] Creating Layer relu5_1
I0413 15:51:01.666527  7003 net.cpp:434] relu5_1 <- conv5_1
I0413 15:51:01.666540  7003 net.cpp:395] relu5_1 -> conv5_1 (in-place)
I0413 15:51:01.666555  7003 net.cpp:150] Setting up relu5_1
I0413 15:51:01.666564  7003 net.cpp:157] Top shape: 1 512 63 94 (3032064)
I0413 15:51:01.666571  7003 net.cpp:165] Memory required for data: 3427216844
I0413 15:51:01.666577  7003 layer_factory.hpp:77] Creating layer conv5_2
I0413 15:51:01.666592  7003 net.cpp:100] Creating Layer conv5_2
I0413 15:51:01.666599  7003 net.cpp:434] conv5_2 <- conv5_1
I0413 15:51:01.666612  7003 net.cpp:408] conv5_2 -> conv5_2
I0413 15:51:01.670852  7003 net.cpp:150] Setting up conv5_2
I0413 15:51:01.670892  7003 net.cpp:157] Top shape: 1 512 63 94 (3032064)
I0413 15:51:01.670897  7003 net.cpp:165] Memory required for data: 3439345100
I0413 15:51:01.670912  7003 layer_factory.hpp:77] Creating layer relu5_2
I0413 15:51:01.670935  7003 net.cpp:100] Creating Layer relu5_2
I0413 15:51:01.670945  7003 net.cpp:434] relu5_2 <- conv5_2
I0413 15:51:01.670959  7003 net.cpp:395] relu5_2 -> conv5_2 (in-place)
I0413 15:51:01.670975  7003 net.cpp:150] Setting up relu5_2
I0413 15:51:01.670985  7003 net.cpp:157] Top shape: 1 512 63 94 (3032064)
I0413 15:51:01.670994  7003 net.cpp:165] Memory required for data: 3451473356
I0413 15:51:01.671000  7003 layer_factory.hpp:77] Creating layer conv5_3
I0413 15:51:01.671016  7003 net.cpp:100] Creating Layer conv5_3
I0413 15:51:01.671023  7003 net.cpp:434] conv5_3 <- conv5_2
I0413 15:51:01.671036  7003 net.cpp:408] conv5_3 -> conv5_3
I0413 15:51:01.675294  7003 net.cpp:150] Setting up conv5_3
I0413 15:51:01.675333  7003 net.cpp:157] Top shape: 1 512 63 94 (3032064)
I0413 15:51:01.675339  7003 net.cpp:165] Memory required for data: 3463601612
I0413 15:51:01.675354  7003 layer_factory.hpp:77] Creating layer relu5_3
I0413 15:51:01.675376  7003 net.cpp:100] Creating Layer relu5_3
I0413 15:51:01.675386  7003 net.cpp:434] relu5_3 <- conv5_3
I0413 15:51:01.675400  7003 net.cpp:395] relu5_3 -> conv5_3 (in-place)
I0413 15:51:01.675415  7003 net.cpp:150] Setting up relu5_3
I0413 15:51:01.675424  7003 net.cpp:157] Top shape: 1 512 63 94 (3032064)
I0413 15:51:01.675431  7003 net.cpp:165] Memory required for data: 3475729868
I0413 15:51:01.675438  7003 layer_factory.hpp:77] Creating layer rpn_big_conv1
I0413 15:51:01.675456  7003 net.cpp:100] Creating Layer rpn_big_conv1
I0413 15:51:01.675462  7003 net.cpp:434] rpn_big_conv1 <- conv5_3
I0413 15:51:01.675473  7003 net.cpp:408] rpn_big_conv1 -> rpn_big_conv1
I0413 15:51:01.702415  7003 net.cpp:150] Setting up rpn_big_conv1
I0413 15:51:01.702447  7003 net.cpp:157] Top shape: 1 512 63 94 (3032064)
I0413 15:51:01.702453  7003 net.cpp:165] Memory required for data: 3487858124
I0413 15:51:01.702476  7003 layer_factory.hpp:77] Creating layer rpn_big_conv1_relu
I0413 15:51:01.702493  7003 net.cpp:100] Creating Layer rpn_big_conv1_relu
I0413 15:51:01.702504  7003 net.cpp:434] rpn_big_conv1_relu <- rpn_big_conv1
I0413 15:51:01.702517  7003 net.cpp:395] rpn_big_conv1_relu -> rpn_big_conv1 (in-place)
I0413 15:51:01.702533  7003 net.cpp:150] Setting up rpn_big_conv1_relu
I0413 15:51:01.702543  7003 net.cpp:157] Top shape: 1 512 63 94 (3032064)
I0413 15:51:01.702549  7003 net.cpp:165] Memory required for data: 3499986380
I0413 15:51:01.702555  7003 layer_factory.hpp:77] Creating layer rpn_big_conv2
I0413 15:51:01.702574  7003 net.cpp:100] Creating Layer rpn_big_conv2
I0413 15:51:01.702584  7003 net.cpp:434] rpn_big_conv2 <- rpn_big_conv1
I0413 15:51:01.702600  7003 net.cpp:408] rpn_big_conv2 -> rpn_big_conv2
I0413 15:51:01.727653  7003 net.cpp:150] Setting up rpn_big_conv2
I0413 15:51:01.727687  7003 net.cpp:157] Top shape: 1 512 63 94 (3032064)
I0413 15:51:01.727694  7003 net.cpp:165] Memory required for data: 3512114636
I0413 15:51:01.727715  7003 layer_factory.hpp:77] Creating layer rpn_big_conv2_relu
I0413 15:51:01.727730  7003 net.cpp:100] Creating Layer rpn_big_conv2_relu
I0413 15:51:01.727741  7003 net.cpp:434] rpn_big_conv2_relu <- rpn_big_conv2
I0413 15:51:01.727758  7003 net.cpp:395] rpn_big_conv2_relu -> rpn_big_conv2 (in-place)
I0413 15:51:01.727774  7003 net.cpp:150] Setting up rpn_big_conv2_relu
I0413 15:51:01.727784  7003 net.cpp:157] Top shape: 1 512 63 94 (3032064)
I0413 15:51:01.727790  7003 net.cpp:165] Memory required for data: 3524242892
I0413 15:51:01.727797  7003 layer_factory.hpp:77] Creating layer rpn_big_conv2_drop
I0413 15:51:01.727807  7003 net.cpp:100] Creating Layer rpn_big_conv2_drop
I0413 15:51:01.727816  7003 net.cpp:434] rpn_big_conv2_drop <- rpn_big_conv2
I0413 15:51:01.727825  7003 net.cpp:395] rpn_big_conv2_drop -> rpn_big_conv2 (in-place)
I0413 15:51:01.727856  7003 net.cpp:150] Setting up rpn_big_conv2_drop
I0413 15:51:01.727866  7003 net.cpp:157] Top shape: 1 512 63 94 (3032064)
I0413 15:51:01.727872  7003 net.cpp:165] Memory required for data: 3536371148
I0413 15:51:01.727879  7003 layer_factory.hpp:77] Creating layer rpn_big_conv2_rpn_big_conv2_drop_0_split
I0413 15:51:01.727891  7003 net.cpp:100] Creating Layer rpn_big_conv2_rpn_big_conv2_drop_0_split
I0413 15:51:01.727898  7003 net.cpp:434] rpn_big_conv2_rpn_big_conv2_drop_0_split <- rpn_big_conv2
I0413 15:51:01.727911  7003 net.cpp:408] rpn_big_conv2_rpn_big_conv2_drop_0_split -> rpn_big_conv2_rpn_big_conv2_drop_0_split_0
I0413 15:51:01.727924  7003 net.cpp:408] rpn_big_conv2_rpn_big_conv2_drop_0_split -> rpn_big_conv2_rpn_big_conv2_drop_0_split_1
I0413 15:51:01.727964  7003 net.cpp:150] Setting up rpn_big_conv2_rpn_big_conv2_drop_0_split
I0413 15:51:01.727977  7003 net.cpp:157] Top shape: 1 512 63 94 (3032064)
I0413 15:51:01.727988  7003 net.cpp:157] Top shape: 1 512 63 94 (3032064)
I0413 15:51:01.727995  7003 net.cpp:165] Memory required for data: 3560627660
I0413 15:51:01.728003  7003 layer_factory.hpp:77] Creating layer rpn_big_output_cls
I0413 15:51:01.728020  7003 net.cpp:100] Creating Layer rpn_big_output_cls
I0413 15:51:01.728027  7003 net.cpp:434] rpn_big_output_cls <- rpn_big_conv2_rpn_big_conv2_drop_0_split_0
I0413 15:51:01.728040  7003 net.cpp:408] rpn_big_output_cls -> rpn_big_output_cls
I0413 15:51:01.748224  7003 net.cpp:150] Setting up rpn_big_output_cls
I0413 15:51:01.748256  7003 net.cpp:157] Top shape: 1 384 63 94 (2274048)
I0413 15:51:01.748261  7003 net.cpp:165] Memory required for data: 3569723852
I0413 15:51:01.748283  7003 layer_factory.hpp:77] Creating layer rpn_big_output_cls_relu
I0413 15:51:01.748297  7003 net.cpp:100] Creating Layer rpn_big_output_cls_relu
I0413 15:51:01.748309  7003 net.cpp:434] rpn_big_output_cls_relu <- rpn_big_output_cls
I0413 15:51:01.748327  7003 net.cpp:395] rpn_big_output_cls_relu -> rpn_big_output_cls (in-place)
I0413 15:51:01.748345  7003 net.cpp:150] Setting up rpn_big_output_cls_relu
I0413 15:51:01.748358  7003 net.cpp:157] Top shape: 1 384 63 94 (2274048)
I0413 15:51:01.748363  7003 net.cpp:165] Memory required for data: 3578820044
I0413 15:51:01.748369  7003 layer_factory.hpp:77] Creating layer rpn_big_cls_score
I0413 15:51:01.748387  7003 net.cpp:100] Creating Layer rpn_big_cls_score
I0413 15:51:01.748397  7003 net.cpp:434] rpn_big_cls_score <- rpn_big_output_cls
I0413 15:51:01.748411  7003 net.cpp:408] rpn_big_cls_score -> rpn_big_cls_score
I0413 15:51:01.750661  7003 net.cpp:150] Setting up rpn_big_cls_score
I0413 15:51:01.750676  7003 net.cpp:157] Top shape: 1 52 61 92 (291824)
I0413 15:51:01.750681  7003 net.cpp:165] Memory required for data: 3579987340
I0413 15:51:01.750710  7003 layer_factory.hpp:77] Creating layer rpn_big_cls_score_rpn_big_cls_score_0_split
I0413 15:51:01.750722  7003 net.cpp:100] Creating Layer rpn_big_cls_score_rpn_big_cls_score_0_split
I0413 15:51:01.750732  7003 net.cpp:434] rpn_big_cls_score_rpn_big_cls_score_0_split <- rpn_big_cls_score
I0413 15:51:01.750744  7003 net.cpp:408] rpn_big_cls_score_rpn_big_cls_score_0_split -> rpn_big_cls_score_rpn_big_cls_score_0_split_0
I0413 15:51:01.750759  7003 net.cpp:408] rpn_big_cls_score_rpn_big_cls_score_0_split -> rpn_big_cls_score_rpn_big_cls_score_0_split_1
I0413 15:51:01.750807  7003 net.cpp:150] Setting up rpn_big_cls_score_rpn_big_cls_score_0_split
I0413 15:51:01.750816  7003 net.cpp:157] Top shape: 1 52 61 92 (291824)
I0413 15:51:01.750825  7003 net.cpp:157] Top shape: 1 52 61 92 (291824)
I0413 15:51:01.750831  7003 net.cpp:165] Memory required for data: 3582321932
I0413 15:51:01.750838  7003 layer_factory.hpp:77] Creating layer rpn_big_cls_score_reshape
I0413 15:51:01.750856  7003 net.cpp:100] Creating Layer rpn_big_cls_score_reshape
I0413 15:51:01.750865  7003 net.cpp:434] rpn_big_cls_score_reshape <- rpn_big_cls_score_rpn_big_cls_score_0_split_0
I0413 15:51:01.750876  7003 net.cpp:408] rpn_big_cls_score_reshape -> rpn_big_cls_score_reshape
I0413 15:51:01.750908  7003 net.cpp:150] Setting up rpn_big_cls_score_reshape
I0413 15:51:01.750918  7003 net.cpp:157] Top shape: 1 2 1586 92 (291824)
I0413 15:51:01.750924  7003 net.cpp:165] Memory required for data: 3583489228
I0413 15:51:01.750932  7003 layer_factory.hpp:77] Creating layer rpn_big_cls_score_reshape_rpn_big_cls_score_reshape_0_split
I0413 15:51:01.750944  7003 net.cpp:100] Creating Layer rpn_big_cls_score_reshape_rpn_big_cls_score_reshape_0_split
I0413 15:51:01.750952  7003 net.cpp:434] rpn_big_cls_score_reshape_rpn_big_cls_score_reshape_0_split <- rpn_big_cls_score_reshape
I0413 15:51:01.750965  7003 net.cpp:408] rpn_big_cls_score_reshape_rpn_big_cls_score_reshape_0_split -> rpn_big_cls_score_reshape_rpn_big_cls_score_reshape_0_split_0
I0413 15:51:01.750977  7003 net.cpp:408] rpn_big_cls_score_reshape_rpn_big_cls_score_reshape_0_split -> rpn_big_cls_score_reshape_rpn_big_cls_score_reshape_0_split_1
I0413 15:51:01.751016  7003 net.cpp:150] Setting up rpn_big_cls_score_reshape_rpn_big_cls_score_reshape_0_split
I0413 15:51:01.751026  7003 net.cpp:157] Top shape: 1 2 1586 92 (291824)
I0413 15:51:01.751035  7003 net.cpp:157] Top shape: 1 2 1586 92 (291824)
I0413 15:51:01.751042  7003 net.cpp:165] Memory required for data: 3585823820
I0413 15:51:01.751049  7003 layer_factory.hpp:77] Creating layer rpn_big_cls_prob
I0413 15:51:01.751061  7003 net.cpp:100] Creating Layer rpn_big_cls_prob
I0413 15:51:01.751070  7003 net.cpp:434] rpn_big_cls_prob <- rpn_big_cls_score_reshape_rpn_big_cls_score_reshape_0_split_0
I0413 15:51:01.751078  7003 net.cpp:408] rpn_big_cls_prob -> rpn_big_cls_prob
I0413 15:51:01.751137  7003 net.cpp:150] Setting up rpn_big_cls_prob
I0413 15:51:01.751147  7003 net.cpp:157] Top shape: 1 2 1586 92 (291824)
I0413 15:51:01.751152  7003 net.cpp:165] Memory required for data: 3586991116
I0413 15:51:01.751160  7003 layer_factory.hpp:77] Creating layer rpn_big_cls_prob_reshape
I0413 15:51:01.751171  7003 net.cpp:100] Creating Layer rpn_big_cls_prob_reshape
I0413 15:51:01.751179  7003 net.cpp:434] rpn_big_cls_prob_reshape <- rpn_big_cls_prob
I0413 15:51:01.751191  7003 net.cpp:408] rpn_big_cls_prob_reshape -> rpn_big_cls_prob_reshape
I0413 15:51:01.751219  7003 net.cpp:150] Setting up rpn_big_cls_prob_reshape
I0413 15:51:01.751230  7003 net.cpp:157] Top shape: 1 52 61 92 (291824)
I0413 15:51:01.751235  7003 net.cpp:165] Memory required for data: 3588158412
I0413 15:51:01.751243  7003 layer_factory.hpp:77] Creating layer rpn_big_cls_prob_reshape_rpn_big_cls_prob_reshape_0_split
I0413 15:51:01.751252  7003 net.cpp:100] Creating Layer rpn_big_cls_prob_reshape_rpn_big_cls_prob_reshape_0_split
I0413 15:51:01.751260  7003 net.cpp:434] rpn_big_cls_prob_reshape_rpn_big_cls_prob_reshape_0_split <- rpn_big_cls_prob_reshape
I0413 15:51:01.751269  7003 net.cpp:408] rpn_big_cls_prob_reshape_rpn_big_cls_prob_reshape_0_split -> rpn_big_cls_prob_reshape_rpn_big_cls_prob_reshape_0_split_0
I0413 15:51:01.751284  7003 net.cpp:408] rpn_big_cls_prob_reshape_rpn_big_cls_prob_reshape_0_split -> rpn_big_cls_prob_reshape_rpn_big_cls_prob_reshape_0_split_1
I0413 15:51:01.751320  7003 net.cpp:150] Setting up rpn_big_cls_prob_reshape_rpn_big_cls_prob_reshape_0_split
I0413 15:51:01.751330  7003 net.cpp:157] Top shape: 1 52 61 92 (291824)
I0413 15:51:01.751338  7003 net.cpp:157] Top shape: 1 52 61 92 (291824)
I0413 15:51:01.751345  7003 net.cpp:165] Memory required for data: 3590493004
I0413 15:51:01.751351  7003 layer_factory.hpp:77] Creating layer rpn_big_anchor_target
I0413 15:51:01.752671  7003 net.cpp:100] Creating Layer rpn_big_anchor_target
I0413 15:51:01.752688  7003 net.cpp:434] rpn_big_anchor_target <- rpn_big_cls_score_rpn_big_cls_score_0_split_1
I0413 15:51:01.752698  7003 net.cpp:434] rpn_big_anchor_target <- input_gt_boxes
I0413 15:51:01.752707  7003 net.cpp:434] rpn_big_anchor_target <- input_ignored_boxes
I0413 15:51:01.752713  7003 net.cpp:434] rpn_big_anchor_target <- input_im_info_input_1_split_0
I0413 15:51:01.752719  7003 net.cpp:434] rpn_big_anchor_target <- input_data_input_0_split_1
I0413 15:51:01.752728  7003 net.cpp:434] rpn_big_anchor_target <- rpn_big_cls_prob_reshape_rpn_big_cls_prob_reshape_0_split_0
I0413 15:51:01.752743  7003 net.cpp:408] rpn_big_anchor_target -> rpn_big_anchor_target_labels
I0413 15:51:01.752759  7003 net.cpp:408] rpn_big_anchor_target -> rpn_big_anchor_target_bbox_targets
I0413 15:51:01.752775  7003 net.cpp:408] rpn_big_anchor_target -> rpn_big_anchor_target_inside_weights
I0413 15:51:01.752789  7003 net.cpp:408] rpn_big_anchor_target -> rpn_big_anchor_target_outside_weights
I0413 15:51:01.757679  7003 net.cpp:150] Setting up rpn_big_anchor_target
I0413 15:51:01.757710  7003 net.cpp:157] Top shape: 1 1 1586 92 (145912)
I0413 15:51:01.757719  7003 net.cpp:157] Top shape: 1 104 61 92 (583648)
I0413 15:51:01.757733  7003 net.cpp:157] Top shape: 1 104 61 92 (583648)
I0413 15:51:01.757740  7003 net.cpp:157] Top shape: 1 104 61 92 (583648)
I0413 15:51:01.757745  7003 net.cpp:165] Memory required for data: 3598080428
I0413 15:51:01.757755  7003 layer_factory.hpp:77] Creating layer rpn_big_loss_cls
I0413 15:51:01.757771  7003 net.cpp:100] Creating Layer rpn_big_loss_cls
I0413 15:51:01.757781  7003 net.cpp:434] rpn_big_loss_cls <- rpn_big_cls_score_reshape_rpn_big_cls_score_reshape_0_split_1
I0413 15:51:01.757794  7003 net.cpp:434] rpn_big_loss_cls <- rpn_big_anchor_target_labels
I0413 15:51:01.757807  7003 net.cpp:408] rpn_big_loss_cls -> rpn_big_loss_cls
I0413 15:51:01.757828  7003 layer_factory.hpp:77] Creating layer rpn_big_loss_cls
I0413 15:51:01.758492  7003 net.cpp:150] Setting up rpn_big_loss_cls
I0413 15:51:01.758507  7003 net.cpp:157] Top shape: (1)
I0413 15:51:01.758513  7003 net.cpp:160]     with loss weight 1
I0413 15:51:01.758529  7003 net.cpp:165] Memory required for data: 3598080432
I0413 15:51:01.758536  7003 layer_factory.hpp:77] Creating layer rpn_big_output_box
I0413 15:51:01.758558  7003 net.cpp:100] Creating Layer rpn_big_output_box
I0413 15:51:01.758565  7003 net.cpp:434] rpn_big_output_box <- rpn_big_conv2_rpn_big_conv2_drop_0_split_1
I0413 15:51:01.758577  7003 net.cpp:408] rpn_big_output_box -> rpn_big_output_box
I0413 15:51:01.779274  7003 net.cpp:150] Setting up rpn_big_output_box
I0413 15:51:01.779310  7003 net.cpp:157] Top shape: 1 384 63 94 (2274048)
I0413 15:51:01.779317  7003 net.cpp:165] Memory required for data: 3607176624
I0413 15:51:01.779332  7003 layer_factory.hpp:77] Creating layer rpn_big_output_box_relu
I0413 15:51:01.779348  7003 net.cpp:100] Creating Layer rpn_big_output_box_relu
I0413 15:51:01.779357  7003 net.cpp:434] rpn_big_output_box_relu <- rpn_big_output_box
I0413 15:51:01.779369  7003 net.cpp:395] rpn_big_output_box_relu -> rpn_big_output_box (in-place)
I0413 15:51:01.779386  7003 net.cpp:150] Setting up rpn_big_output_box_relu
I0413 15:51:01.779398  7003 net.cpp:157] Top shape: 1 384 63 94 (2274048)
I0413 15:51:01.779405  7003 net.cpp:165] Memory required for data: 3616272816
I0413 15:51:01.779412  7003 layer_factory.hpp:77] Creating layer rpn_big_bbox_pred
I0413 15:51:01.779431  7003 net.cpp:100] Creating Layer rpn_big_bbox_pred
I0413 15:51:01.779440  7003 net.cpp:434] rpn_big_bbox_pred <- rpn_big_output_box
I0413 15:51:01.779455  7003 net.cpp:408] rpn_big_bbox_pred -> rpn_big_bbox_pred
I0413 15:51:01.783494  7003 net.cpp:150] Setting up rpn_big_bbox_pred
I0413 15:51:01.783524  7003 net.cpp:157] Top shape: 1 104 61 92 (583648)
I0413 15:51:01.783529  7003 net.cpp:165] Memory required for data: 3618607408
I0413 15:51:01.783543  7003 layer_factory.hpp:77] Creating layer rpn_big_bbox_pred_rpn_big_bbox_pred_0_split
I0413 15:51:01.783556  7003 net.cpp:100] Creating Layer rpn_big_bbox_pred_rpn_big_bbox_pred_0_split
I0413 15:51:01.783565  7003 net.cpp:434] rpn_big_bbox_pred_rpn_big_bbox_pred_0_split <- rpn_big_bbox_pred
I0413 15:51:01.783576  7003 net.cpp:408] rpn_big_bbox_pred_rpn_big_bbox_pred_0_split -> rpn_big_bbox_pred_rpn_big_bbox_pred_0_split_0
I0413 15:51:01.783592  7003 net.cpp:408] rpn_big_bbox_pred_rpn_big_bbox_pred_0_split -> rpn_big_bbox_pred_rpn_big_bbox_pred_0_split_1
I0413 15:51:01.783641  7003 net.cpp:150] Setting up rpn_big_bbox_pred_rpn_big_bbox_pred_0_split
I0413 15:51:01.783653  7003 net.cpp:157] Top shape: 1 104 61 92 (583648)
I0413 15:51:01.783660  7003 net.cpp:157] Top shape: 1 104 61 92 (583648)
I0413 15:51:01.783666  7003 net.cpp:165] Memory required for data: 3623276592
I0413 15:51:01.783674  7003 layer_factory.hpp:77] Creating layer rpn_big_loss_bbox
I0413 15:51:01.784041  7003 net.cpp:100] Creating Layer rpn_big_loss_bbox
I0413 15:51:01.784054  7003 net.cpp:434] rpn_big_loss_bbox <- rpn_big_bbox_pred_rpn_big_bbox_pred_0_split_0
I0413 15:51:01.784063  7003 net.cpp:434] rpn_big_loss_bbox <- rpn_big_anchor_target_bbox_targets
I0413 15:51:01.784071  7003 net.cpp:434] rpn_big_loss_bbox <- rpn_big_anchor_target_inside_weights
I0413 15:51:01.784080  7003 net.cpp:434] rpn_big_loss_bbox <- rpn_big_anchor_target_outside_weights
I0413 15:51:01.784090  7003 net.cpp:408] rpn_big_loss_bbox -> rpn_big_loss_bbox
I0413 15:51:01.786052  7003 net.cpp:150] Setting up rpn_big_loss_bbox
I0413 15:51:01.786088  7003 net.cpp:157] Top shape: 1 (1)
I0413 15:51:01.786094  7003 net.cpp:160]     with loss weight 1
I0413 15:51:01.786108  7003 net.cpp:165] Memory required for data: 3623276596
I0413 15:51:01.786125  7003 layer_factory.hpp:77] Creating layer proposal
ImportError: No module named 'rpn.proposal'
Traceback (most recent call last):
  File "./tools/train_net.py", line 75, in <module>
    train_net(output_dir)
  File "/home/mopkobka/CourseWork/gml-nn-detector/tools/../lib/core/train.py", line 173, in train_net
…
