…
I0413 18:20:12.334558 13000 solver.cpp:48] Initializing solver from parameters: 
base_lr: 0.001
display: 20
lr_policy: "multistep"
gamma: 0.1
momentum: 0.9
weight_decay: 0.0005
snapshot: 0
snapshot_prefix: "faces_example"
net_param {
  name: "GeneratedModel_13_04_2017_18_20"
  layer {
    name: "input"
    type: "Python"
    top: "input_data"
    top: "input_im_info"
    top: "input_gt_boxes"
    top: "input_ignored_boxes"
    python_param {
      module: "layers.roi_data_layer"
      layer: "RoIDataLayer"
      param_str: "{\"num_classes\": 2}"
    }
  }
  layer {
    name: "conv1_1"
    type: "Convolution"
    bottom: "input_data"
    top: "conv1_1"
    param {
      lr_mult: 0
      decay_mult: 0
    }
    param {
      lr_mult: 0
      decay_mult: 0
    }
    convolution_param {
      num_output: 64
      pad: 1
      kernel_size: 3
    }
  }
  layer {
    name: "relu1_1"
    type: "ReLU"
    bottom: "conv1_1"
    top: "conv1_1"
  }
  layer {
    name: "conv1_2"
    type: "Convolution"
    bottom: "conv1_1"
    top: "conv1_2"
    param {
      lr_mult: 0
      decay_mult: 0
    }
    param {
      lr_mult: 0
      decay_mult: 0
    }
    convolution_param {
      num_output: 64
      pad: 1
      kernel_size: 3
    }
  }
  layer {
    name: "relu1_2"
    type: "ReLU"
    bottom: "conv1_2"
    top: "conv1_2"
  }
  layer {
    name: "pool1"
    type: "Pooling"
    bottom: "conv1_2"
    top: "pool1"
    pooling_param {
      pool: MAX
      kernel_size: 2
      stride: 2
    }
  }
  layer {
    name: "conv2_1"
    type: "Convolution"
    bottom: "pool1"
    top: "conv2_1"
    param {
      lr_mult: 0
      decay_mult: 0
    }
    param {
      lr_mult: 0
      decay_mult: 0
    }
    convolution_param {
      num_output: 128
      pad: 1
      kernel_size: 3
    }
  }
  layer {
    name: "relu2_1"
    type: "ReLU"
    bottom: "conv2_1"
    top: "conv2_1"
  }
  layer {
    name: "conv2_2"
    type: "Convolution"
    bottom: "conv2_1"
    top: "conv2_2"
    param {
      lr_mult: 0
      decay_mult: 0
    }
    param {
      lr_mult: 0
      decay_mult: 0
    }
    convolution_param {
      num_output: 128
      pad: 1
      kernel_size: 3
    }
  }
  layer {
    name: "relu2_2"
    type: "ReLU"
    bottom: "conv2_2"
    top: "conv2_2"
  }
  layer {
    name: "pool2"
    type: "Pooling"
    bottom: "conv2_2"
    top: "pool2"
    pooling_param {
      pool: MAX
      kernel_size: 2
      stride: 2
    }
  }
  layer {
    name: "conv3_1"
    type: "Convolution"
    bottom: "pool2"
    top: "conv3_1"
    param {
      lr_mult: 1
    }
    param {
      lr_mult: 2
    }
    convolution_param {
      num_output: 256
      pad: 1
      kernel_size: 3
    }
  }
  layer {
    name: "relu3_1"
    type: "ReLU"
    bottom: "conv3_1"
    top: "conv3_1"
  }
  layer {
    name: "conv3_2"
    type: "Convolution"
    bottom: "conv3_1"
    top: "conv3_2"
    param {
      lr_mult: 1
    }
    param {
      lr_mult: 2
    }
    convolution_param {
      num_output: 256
      pad: 1
      kernel_size: 3
    }
  }
  layer {
    name: "relu3_2"
    type: "ReLU"
    bottom: "conv3_2"
    top: "conv3_2"
  }
  layer {
    name: "conv3_3"
    type: "Convolution"
    bottom: "conv3_2"
    top: "conv3_3"
    param {
      lr_mult: 1
    }
    param {
      lr_mult: 2
    }
    convolution_param {
      num_output: 256
      pad: 1
      kernel_size: 3
    }
  }
  layer {
    name: "relu3_3"
    type: "ReLU"
    bottom: "conv3_3"
    top: "conv3_3"
  }
  layer {
    name: "pool3"
    type: "Pooling"
    bottom: "conv3_3"
    top: "pool3"
    pooling_param {
      pool: MAX
      kernel_size: 2
      stride: 2
    }
  }
  layer {
    name: "conv4_1"
    type: "Convolution"
    bottom: "pool3"
    top: "conv4_1"
    param {
      lr_mult: 1
    }
    param {
      lr_mult: 2
    }
    convolution_param {
      num_output: 512
      pad: 1
      kernel_size: 3
    }
  }
  layer {
    name: "relu4_1"
    type: "ReLU"
    bottom: "conv4_1"
    top: "conv4_1"
  }
  layer {
    name: "conv4_2"
    type: "Convolution"
    bottom: "conv4_1"
    top: "conv4_2"
    param {
      lr_mult: 1
    }
    param {
      lr_mult: 2
    }
    convolution_param {
      num_output: 512
      pad: 1
      kernel_size: 3
    }
  }
  layer {
    name: "relu4_2"
    type: "ReLU"
    bottom: "conv4_2"
    top: "conv4_2"
  }
  layer {
    name: "conv4_3"
    type: "Convolution"
    bottom: "conv4_2"
    top: "conv4_3"
    param {
      lr_mult: 1
    }
    param {
      lr_mult: 2
    }
    convolution_param {
      num_output: 512
      pad: 1
      kernel_size: 3
    }
  }
  layer {
    name: "relu4_3"
    type: "ReLU"
    bottom: "conv4_3"
    top: "conv4_3"
  }
  layer {
    name: "pool4"
    type: "Pooling"
    bottom: "conv4_3"
    top: "pool4"
    pooling_param {
      pool: MAX
      kernel_size: 2
      stride: 2
    }
  }
  layer {
    name: "conv5_1"
    type: "Convolution"
    bottom: "pool4"
    top: "conv5_1"
    param {
      lr_mult: 1
    }
    param {
      lr_mult: 2
    }
    convolution_param {
      num_output: 512
      pad: 1
      kernel_size: 3
    }
  }
  layer {
    name: "relu5_1"
    type: "ReLU"
    bottom: "conv5_1"
    top: "conv5_1"
  }
  layer {
    name: "conv5_2"
    type: "Convolution"
    bottom: "conv5_1"
    top: "conv5_2"
    param {
      lr_mult: 1
    }
    param {
      lr_mult: 2
    }
    convolution_param {
      num_output: 512
      pad: 1
      kernel_size: 3
    }
  }
  layer {
    name: "relu5_2"
    type: "ReLU"
    bottom: "conv5_2"
    top: "conv5_2"
  }
  layer {
    name: "conv5_3"
    type: "Convolution"
    bottom: "conv5_2"
    top: "conv5_3"
    param {
      lr_mult: 1
    }
    param {
      lr_mult: 2
    }
    convolution_param {
      num_output: 512
      pad: 1
      kernel_size: 3
    }
  }
  layer {
    name: "relu5_3"
    type: "ReLU"
    bottom: "conv5_3"
    top: "conv5_3"
  }
  layer {
    name: "rpn_big_conv1"
    type: "Convolution"
    bottom: "conv5_3"
    top: "rpn_big_conv1"
    param {
      lr_mult: 1
    }
    param {
      lr_mult: 2
    }
    convolution_param {
      num_output: 512
      pad: 1
      kernel_size: 3
      stride: 1
      weight_filler {
        type: "gaussian"
        mean: 0
        std: 0.01
      }
      bias_filler {
        type: "constant"
      }
    }
  }
  layer {
    name: "rpn_big_conv1_relu"
    type: "ReLU"
    bottom: "rpn_big_conv1"
    top: "rpn_big_conv1"
    relu_param {
      negative_slope: 0
    }
  }
  layer {
    name: "rpn_big_conv2"
    type: "Convolution"
    bottom: "rpn_big_conv1"
    top: "rpn_big_conv2"
    param {
      lr_mult: 1
    }
    param {
      lr_mult: 2
    }
    convolution_param {
      num_output: 512
      pad: 1
      kernel_size: 3
      stride: 1
      weight_filler {
        type: "gaussian"
        mean: 0
        std: 0.01
      }
      bias_filler {
        type: "constant"
      }
    }
  }
  layer {
    name: "rpn_big_conv2_relu"
    type: "ReLU"
    bottom: "rpn_big_conv2"
    top: "rpn_big_conv2"
    relu_param {
      negative_slope: 0
    }
  }
  layer {
    name: "rpn_big_conv2_drop"
    type: "Dropout"
    bottom: "rpn_big_conv2"
    top: "rpn_big_conv2"
    dropout_param {
      dropout_ratio: 0.3
    }
  }
  layer {
    name: "rpn_big_output_cls"
    type: "Convolution"
    bottom: "rpn_big_conv2"
    top: "rpn_big_output_cls"
    param {
      lr_mult: 1
    }
    param {
      lr_mult: 2
    }
    convolution_param {
      num_output: 384
      pad: 1
      kernel_size: 3
      stride: 1
      weight_filler {
        type: "gaussian"
        mean: 0
        std: 0.01
      }
      bias_filler {
        type: "constant"
      }
    }
  }
  layer {
    name: "rpn_big_output_cls_relu"
    type: "ReLU"
    bottom: "rpn_big_output_cls"
    top: "rpn_big_output_cls"
    relu_param {
      negative_slope: 0
    }
  }
  layer {
    name: "rpn_big_cls_score"
    type: "Convolution"
    bottom: "rpn_big_output_cls"
    top: "rpn_big_cls_score"
    param {
      lr_mult: 1
    }
    param {
      lr_mult: 2
    }
    convolution_param {
      num_output: 52
      pad: 0
      kernel_size: 3
      stride: 1
      weight_filler {
        type: "gaussian"
        mean: 0
        std: 0.01
      }
      bias_filler {
        type: "constant"
      }
    }
  }
  layer {
    name: "rpn_big_cls_score_reshape"
    type: "Reshape"
    bottom: "rpn_big_cls_score"
    top: "rpn_big_cls_score_reshape"
    reshape_param {
      shape {
        dim: 0
        dim: 2
        dim: -1
        dim: 0
      }
    }
  }
  layer {
    name: "rpn_big_cls_prob"
    type: "Softmax"
    bottom: "rpn_big_cls_score_reshape"
    top: "rpn_big_cls_prob"
  }
  layer {
    name: "rpn_big_cls_prob_reshape"
    type: "Reshape"
    bottom: "rpn_big_cls_prob"
    top: "rpn_big_cls_prob_reshape"
    reshape_param {
      shape {
        dim: 0
        dim: 52
        dim: -1
        dim: 0
      }
    }
  }
  layer {
    name: "rpn_big_anchor_target"
    type: "Python"
    bottom: "rpn_big_cls_score"
    bottom: "input_gt_boxes"
    bottom: "input_ignored_boxes"
    bottom: "input_im_info"
    bottom: "input_data"
    bottom: "rpn_big_cls_prob_reshape"
    top: "rpn_big_anchor_target_labels"
    top: "rpn_big_anchor_target_bbox_targets"
    top: "rpn_big_anchor_target_inside_weights"
    top: "rpn_big_anchor_target_outside_weights"
    python_param {
      module: "rpn.anchor_target_layer"
      layer: "AnchorTargetLayer"
      param_str: "{\"anchor_shift_num_xy\": [[2, 2], [2, 2], [2, 2], [2, 2], [1, 1], [1, 1], [1, 1], [1, 1], [1, 1], [1, 1], [1, 1], [1, 1], [1, 1], [1, 1]], \"anchor_scales\": [2.5, 3.025, 3.66025, 4.4289024999999995, 5.358972025, 6.484356150249999, 7.846070941802498, 9.493745839581022, 11.487432465893036, 13.899793283730574, 16.818749873313998, 20.350687346709933, 24.62433168951902, 29.795441344318014], \"name\": \"rpn_big\", \"fg_fraction\": 0.5, \"num_classes\": 1, \"batchsize\": 256, \"anchor_ratios\": [1.0], \"positive_overlap\": 0.6, \"negative_overlap\": 0.4, \"tn_fraction\": 0.2, \"square_targets\": true, \"feat_stride\": 16}"
    }
  }
  layer {
    name: "rpn_big_loss_cls"
    type: "SoftmaxWithLoss"
    bottom: "rpn_big_cls_score_reshape"
    bottom: "rpn_big_anchor_target_labels"
    top: "rpn_big_loss_cls"
    loss_weight: 1
    propagate_down: true
    propagate_down: false
    loss_param {
      ignore_label: -1
      normalization: VALID
    }
  }
  layer {
    name: "rpn_big_output_box"
    type: "Convolution"
    bottom: "rpn_big_conv2"
    top: "rpn_big_output_box"
    param {
      lr_mult: 1
    }
    param {
      lr_mult: 2
    }
    convolution_param {
      num_output: 384
      pad: 1
      kernel_size: 3
      stride: 1
      weight_filler {
        type: "gaussian"
        mean: 0
        std: 0.01
      }
      bias_filler {
        type: "constant"
      }
    }
  }
  layer {
    name: "rpn_big_output_box_relu"
    type: "ReLU"
    bottom: "rpn_big_output_box"
    top: "rpn_big_output_box"
    relu_param {
      negative_slope: 0
    }
  }
  layer {
    name: "rpn_big_bbox_pred"
    type: "Convolution"
    bottom: "rpn_big_output_box"
    top: "rpn_big_bbox_pred"
    param {
      lr_mult: 1
    }
    param {
      lr_mult: 2
    }
    convolution_param {
      num_output: 104
      pad: 0
      kernel_size: 3
      stride: 1
      weight_filler {
        type: "gaussian"
        mean: 0
        std: 0.01
      }
      bias_filler {
        type: "constant"
      }
    }
  }
  layer {
    name: "rpn_big_loss_bbox"
    type: "Python"
    bottom: "rpn_big_bbox_pred"
    bottom: "rpn_big_anchor_target_bbox_targets"
    bottom: "rpn_big_anchor_target_inside_weights"
    bottom: "rpn_big_anchor_target_outside_weights"
    top: "rpn_big_loss_bbox"
    loss_weight: 1
    python_param {
      module: "layers.smooth_l1_loss"
      layer: "SmoothL1LossLayer"
      param_str: "{\"sigma\": 3}"
    }
  }
  layer {
    name: "proposal"
    type: "Python"
    bottom: "rpn_big_cls_prob_reshape"
    bottom: "rpn_big_bbox_pred"
    bottom: "input_im_info"
    top: "rpn_rois"
    python_param {
      module: "rpn.proposal_layer"
      layer: "ProposalLayer"
      param_str: "{\"anchor_shift_num_xy\": [[2, 2], [2, 2], [2, 2], [2, 2], [1, 1], [1, 1], [1, 1], [1, 1], [1, 1], [1, 1], [1, 1], [1, 1], [1, 1], [1, 1]], \"feat_stride\": 16, \"num_classes\": 1, \"anchor_scales\": [2.5, 3.025, 3.66025, 4.4289024999999995, 5.358972025, 6.484356150249999, 7.846070941802498, 9.493745839581022, 11.487432465893036, 13.899793283730574, 16.818749873313998, 20.350687346709933, 24.62433168951902, 29.795441344318014], \"square_targets\": true, \"name\": \"rpn_big\", \"batchsize\": 256, \"anchor_ratios\": [1.0]}"
    }
  }
  layer {
    name: "roi-data"
    type: "Python"
    bottom: "rpn_rois"
    bottom: "input_gt_boxes"
    top: "rois"
    top: "labels"
    top: "bbox_targets"
    top: "bbox_inside_weights"
    top: "bbox_outside_weights"
    top: "pid_label"
    python_param {
      module: "rpn.proposal_target_layer"
      layer: "ProposalTargetLayer"
      param_str: "{\"num_classes\": 2, \"bg_aux_label\": 5532}"
    }
  }
  layer {
    name: "roi-pool"
    type: "ROIPooling"
    bottom: "conv5_3"
    bottom: "rois"
    top: "roi-pool"
    roi_pooling_param {
      pooled_h: 7
      pooled_w: 7
      spatial_scale: 0.0625
    }
  }
  layer {
    name: "fc6"
    type: "InnerProduct"
    bottom: "roi-pool"
    top: "fc6"
    param {
      lr_mult: 1
    }
    param {
      lr_mult: 2
    }
    inner_product_param {
      num_output: 4096
    }
  }
  layer {
    name: "relu6"
    type: "ReLU"
    bottom: "fc6"
    top: "fc6"
  }
  layer {
    name: "drop6"
    type: "Dropout"
    bottom: "fc6"
    top: "fc6"
    dropout_param {
      dropout_ratio: 0.5
    }
  }
  layer {
    name: "fc7"
    type: "InnerProduct"
    bottom: "fc6"
    top: "fc7"
    param {
      lr_mult: 1
    }
    param {
      lr_mult: 2
    }
    inner_product_param {
      num_output: 4096
    }
  }
  layer {
    name: "relu7"
    type: "ReLU"
    bottom: "fc7"
    top: "fc7"
  }
  layer {
    name: "drop7"
    type: "Dropout"
    bottom: "fc7"
    top: "fc7"
    dropout_param {
      dropout_ratio: 0.5
    }
  }
  layer {
    name: "loss_bbox"
    type: "SmoothL1Loss"
    bottom: "fc7"
    bottom: "bbox_targets"
    bottom: "bbox_inside_weights"
    bottom: "bbox_outside_weights"
    top: "loss_bbox"
    loss_weight: 1
  }
}
average_loss: 100
stepvalue: 70000
stepvalue: 120000
iter_size: 2
I0413 18:20:12.334676 13000 solver.cpp:86] Creating training net specified in net_param.
I0413 18:20:12.335422 13000 net.cpp:58] Initializing net from parameters: 
name: "GeneratedModel_13_04_2017_18_20"
state {
  phase: TRAIN
}
layer {
  name: "input"
  type: "Python"
  top: "input_data"
  top: "input_im_info"
  top: "input_gt_boxes"
  top: "input_ignored_boxes"
  python_param {
    module: "layers.roi_data_layer"
    layer: "RoIDataLayer"
    param_str: "{\"num_classes\": 2}"
  }
}
layer {
  name: "conv1_1"
  type: "Convolution"
  bottom: "input_data"
  top: "conv1_1"
  param {
    lr_mult: 0
    decay_mult: 0
  }
  param {
    lr_mult: 0
    decay_mult: 0
  }
  convolution_param {
    num_output: 64
    pad: 1
    kernel_size: 3
  }
}
layer {
  name: "relu1_1"
  type: "ReLU"
  bottom: "conv1_1"
  top: "conv1_1"
}
layer {
  name: "conv1_2"
  type: "Convolution"
  bottom: "conv1_1"
  top: "conv1_2"
  param {
    lr_mult: 0
    decay_mult: 0
  }
  param {
    lr_mult: 0
    decay_mult: 0
  }
  convolution_param {
    num_output: 64
    pad: 1
    kernel_size: 3
  }
}
layer {
  name: "relu1_2"
  type: "ReLU"
  bottom: "conv1_2"
  top: "conv1_2"
}
layer {
  name: "pool1"
  type: "Pooling"
  bottom: "conv1_2"
  top: "pool1"
  pooling_param {
    pool: MAX
    kernel_size: 2
    stride: 2
  }
}
layer {
  name: "conv2_1"
  type: "Convolution"
  bottom: "pool1"
  top: "conv2_1"
  param {
    lr_mult: 0
    decay_mult: 0
  }
  param {
    lr_mult: 0
    decay_mult: 0
  }
  convolution_param {
    num_output: 128
    pad: 1
    kernel_size: 3
  }
}
layer {
  name: "relu2_1"
  type: "ReLU"
  bottom: "conv2_1"
  top: "conv2_1"
}
layer {
  name: "conv2_2"
  type: "Convolution"
  bottom: "conv2_1"
  top: "conv2_2"
  param {
    lr_mult: 0
    decay_mult: 0
  }
  param {
    lr_mult: 0
    decay_mult: 0
  }
  convolution_param {
    num_output: 128
    pad: 1
    kernel_size: 3
  }
}
layer {
  name: "relu2_2"
  type: "ReLU"
  bottom: "conv2_2"
  top: "conv2_2"
}
layer {
  name: "pool2"
  type: "Pooling"
  bottom: "conv2_2"
  top: "pool2"
  pooling_param {
    pool: MAX
    kernel_size: 2
    stride: 2
  }
}
layer {
  name: "conv3_1"
  type: "Convolution"
  bottom: "pool2"
  top: "conv3_1"
  param {
    lr_mult: 1
  }
  param {
    lr_mult: 2
  }
  convolution_param {
    num_output: 256
    pad: 1
    kernel_size: 3
  }
}
layer {
  name: "relu3_1"
  type: "ReLU"
  bottom: "conv3_1"
  top: "conv3_1"
}
layer {
  name: "conv3_2"
  type: "Convolution"
  bottom: "conv3_1"
  top: "conv3_2"
  param {
    lr_mult: 1
  }
  param {
    lr_mult: 2
  }
  convolution_param {
    num_output: 256
    pad: 1
    kernel_size: 3
  }
}
layer {
  name: "relu3_2"
  type: "ReLU"
  bottom: "conv3_2"
  top: "conv3_2"
}
layer {
  name: "conv3_3"
  type: "Convolution"
  bottom: "conv3_2"
  top: "conv3_3"
  param {
    lr_mult: 1
  }
  param {
    lr_mult: 2
  }
  convolution_param {
    num_output: 256
    pad: 1
    kernel_size: 3
  }
}
layer {
  name: "relu3_3"
  type: "ReLU"
  bottom: "conv3_3"
  top: "conv3_3"
}
layer {
  name: "pool3"
  type: "Pooling"
  bottom: "conv3_3"
  top: "pool3"
  pooling_param {
    pool: MAX
    kernel_size: 2
    stride: 2
  }
}
layer {
  name: "conv4_1"
  type: "Convolution"
  bottom: "pool3"
  top: "conv4_1"
  param {
    lr_mult: 1
  }
  param {
    lr_mult: 2
  }
  convolution_param {
    num_output: 512
    pad: 1
    kernel_size: 3
  }
}
layer {
  name: "relu4_1"
  type: "ReLU"
  bottom: "conv4_1"
  top: "conv4_1"
}
layer {
  name: "conv4_2"
  type: "Convolution"
  bottom: "conv4_1"
  top: "conv4_2"
  param {
    lr_mult: 1
  }
  param {
    lr_mult: 2
  }
  convolution_param {
    num_output: 512
    pad: 1
    kernel_size: 3
  }
}
layer {
  name: "relu4_2"
  type: "ReLU"
  bottom: "conv4_2"
  top: "conv4_2"
}
layer {
  name: "conv4_3"
  type: "Convolution"
  bottom: "conv4_2"
  top: "conv4_3"
  param {
    lr_mult: 1
  }
  param {
    lr_mult: 2
  }
  convolution_param {
    num_output: 512
    pad: 1
    kernel_size: 3
  }
}
layer {
  name: "relu4_3"
  type: "ReLU"
  bottom: "conv4_3"
  top: "conv4_3"
}
layer {
  name: "pool4"
  type: "Pooling"
  bottom: "conv4_3"
  top: "pool4"
  pooling_param {
    pool: MAX
    kernel_size: 2
    stride: 2
  }
}
layer {
  name: "conv5_1"
  type: "Convolution"
  bottom: "pool4"
  top: "conv5_1"
  param {
    lr_mult: 1
  }
  param {
    lr_mult: 2
  }
  convolution_param {
    num_output: 512
    pad: 1
    kernel_size: 3
  }
}
layer {
  name: "relu5_1"
  type: "ReLU"
  bottom: "conv5_1"
  top: "conv5_1"
}
layer {
  name: "conv5_2"
  type: "Convolution"
  bottom: "conv5_1"
  top: "conv5_2"
  param {
    lr_mult: 1
  }
  param {
    lr_mult: 2
  }
  convolution_param {
    num_output: 512
    pad: 1
    kernel_size: 3
  }
}
layer {
  name: "relu5_2"
  type: "ReLU"
  bottom: "conv5_2"
  top: "conv5_2"
}
layer {
  name: "conv5_3"
  type: "Convolution"
  bottom: "conv5_2"
  top: "conv5_3"
  param {
    lr_mult: 1
  }
  param {
    lr_mult: 2
  }
  convolution_param {
    num_output: 512
    pad: 1
    kernel_size: 3
  }
}
layer {
  name: "relu5_3"
  type: "ReLU"
  bottom: "conv5_3"
  top: "conv5_3"
}
layer {
  name: "rpn_big_conv1"
  type: "Convolution"
  bottom: "conv5_3"
  top: "rpn_big_conv1"
  param {
    lr_mult: 1
  }
  param {
    lr_mult: 2
  }
  convolution_param {
    num_output: 512
    pad: 1
    kernel_size: 3
    stride: 1
    weight_filler {
      type: "gaussian"
      mean: 0
      std: 0.01
    }
    bias_filler {
      type: "constant"
    }
  }
}
layer {
  name: "rpn_big_conv1_relu"
  type: "ReLU"
  bottom: "rpn_big_conv1"
  top: "rpn_big_conv1"
  relu_param {
    negative_slope: 0
  }
}
layer {
  name: "rpn_big_conv2"
  type: "Convolution"
  bottom: "rpn_big_conv1"
  top: "rpn_big_conv2"
  param {
    lr_mult: 1
  }
  param {
    lr_mult: 2
  }
  convolution_param {
    num_output: 512
    pad: 1
    kernel_size: 3
    stride: 1
    weight_filler {
      type: "gaussian"
      mean: 0
      std: 0.01
    }
    bias_filler {
      type: "constant"
    }
  }
}
layer {
  name: "rpn_big_conv2_relu"
  type: "ReLU"
  bottom: "rpn_big_conv2"
  top: "rpn_big_conv2"
  relu_param {
    negative_slope: 0
  }
}
layer {
  name: "rpn_big_conv2_drop"
  type: "Dropout"
  bottom: "rpn_big_conv2"
  top: "rpn_big_conv2"
  dropout_param {
    dropout_ratio: 0.3
  }
}
layer {
  name: "rpn_big_output_cls"
  type: "Convolution"
  bottom: "rpn_big_conv2"
  top: "rpn_big_output_cls"
  param {
    lr_mult: 1
  }
  param {
    lr_mult: 2
  }
  convolution_param {
    num_output: 384
    pad: 1
    kernel_size: 3
    stride: 1
    weight_filler {
      type: "gaussian"
      mean: 0
      std: 0.01
    }
    bias_filler {
      type: "constant"
    }
  }
}
layer {
  name: "rpn_big_output_cls_relu"
  type: "ReLU"
  bottom: "rpn_big_output_cls"
  top: "rpn_big_output_cls"
  relu_param {
    negative_slope: 0
  }
}
layer {
  name: "rpn_big_cls_score"
  type: "Convolution"
  bottom: "rpn_big_output_cls"
  top: "rpn_big_cls_score"
  param {
    lr_mult: 1
  }
  param {
    lr_mult: 2
  }
  convolution_param {
    num_output: 52
    pad: 0
    kernel_size: 3
    stride: 1
    weight_filler {
      type: "gaussian"
      mean: 0
      std: 0.01
    }
    bias_filler {
      type: "constant"
    }
  }
}
layer {
  name: "rpn_big_cls_score_reshape"
  type: "Reshape"
  bottom: "rpn_big_cls_score"
  top: "rpn_big_cls_score_reshape"
  reshape_param {
    shape {
      dim: 0
      dim: 2
      dim: -1
      dim: 0
    }
  }
}
layer {
  name: "rpn_big_cls_prob"
  type: "Softmax"
  bottom: "rpn_big_cls_score_reshape"
  top: "rpn_big_cls_prob"
}
layer {
  name: "rpn_big_cls_prob_reshape"
  type: "Reshape"
  bottom: "rpn_big_cls_prob"
  top: "rpn_big_cls_prob_reshape"
  reshape_param {
    shape {
      dim: 0
      dim: 52
      dim: -1
      dim: 0
    }
  }
}
layer {
  name: "rpn_big_anchor_target"
  type: "Python"
  bottom: "rpn_big_cls_score"
  bottom: "input_gt_boxes"
  bottom: "input_ignored_boxes"
  bottom: "input_im_info"
  bottom: "input_data"
  bottom: "rpn_big_cls_prob_reshape"
  top: "rpn_big_anchor_target_labels"
  top: "rpn_big_anchor_target_bbox_targets"
  top: "rpn_big_anchor_target_inside_weights"
  top: "rpn_big_anchor_target_outside_weights"
  python_param {
    module: "rpn.anchor_target_layer"
    layer: "AnchorTargetLayer"
    param_str: "{\"anchor_shift_num_xy\": [[2, 2], [2, 2], [2, 2], [2, 2], [1, 1], [1, 1], [1, 1], [1, 1], [1, 1], [1, 1], [1, 1], [1, 1], [1, 1], [1, 1]], \"anchor_scales\": [2.5, 3.025, 3.66025, 4.4289024999999995, 5.358972025, 6.484356150249999, 7.846070941802498, 9.493745839581022, 11.487432465893036, 13.899793283730574, 16.818749873313998, 20.350687346709933, 24.62433168951902, 29.795441344318014], \"name\": \"rpn_big\", \"fg_fraction\": 0.5, \"num_classes\": 1, \"batchsize\": 256, \"anchor_ratios\": [1.0], \"positive_overlap\": 0.6, \"negative_overlap\": 0.4, \"tn_fraction\": 0.2, \"square_targets\": true, \"feat_stride\": 16}"
  }
}
layer {
  name: "rpn_big_loss_cls"
  type: "SoftmaxWithLoss"
  bottom: "rpn_big_cls_score_reshape"
  bottom: "rpn_big_anchor_target_labels"
  top: "rpn_big_loss_cls"
  loss_weight: 1
  propagate_down: true
  propagate_down: false
  loss_param {
    ignore_label: -1
    normalization: VALID
  }
}
layer {
  name: "rpn_big_output_box"
  type: "Convolution"
  bottom: "rpn_big_conv2"
  top: "rpn_big_output_box"
  param {
    lr_mult: 1
  }
  param {
    lr_mult: 2
  }
  convolution_param {
    num_output: 384
    pad: 1
    kernel_size: 3
    stride: 1
    weight_filler {
      type: "gaussian"
      mean: 0
      std: 0.01
    }
    bias_filler {
      type: "constant"
    }
  }
}
layer {
  name: "rpn_big_output_box_relu"
  type: "ReLU"
  bottom: "rpn_big_output_box"
  top: "rpn_big_output_box"
  relu_param {
    negative_slope: 0
  }
}
layer {
  name: "rpn_big_bbox_pred"
  type: "Convolution"
  bottom: "rpn_big_output_box"
  top: "rpn_big_bbox_pred"
  param {
    lr_mult: 1
  }
  param {
    lr_mult: 2
  }
  convolution_param {
    num_output: 104
    pad: 0
    kernel_size: 3
    stride: 1
    weight_filler {
      type: "gaussian"
      mean: 0
      std: 0.01
    }
    bias_filler {
      type: "constant"
    }
  }
}
layer {
  name: "rpn_big_loss_bbox"
  type: "Python"
  bottom: "rpn_big_bbox_pred"
  bottom: "rpn_big_anchor_target_bbox_targets"
  bottom: "rpn_big_anchor_target_inside_weights"
  bottom: "rpn_big_anchor_target_outside_weights"
  top: "rpn_big_loss_bbox"
  loss_weight: 1
  python_param {
    module: "layers.smooth_l1_loss"
    layer: "SmoothL1LossLayer"
    param_str: "{\"sigma\": 3}"
  }
}
layer {
  name: "proposal"
  type: "Python"
  bottom: "rpn_big_cls_prob_reshape"
  bottom: "rpn_big_bbox_pred"
  bottom: "input_im_info"
  top: "rpn_rois"
  python_param {
    module: "rpn.proposal_layer"
    layer: "ProposalLayer"
    param_str: "{\"anchor_shift_num_xy\": [[2, 2], [2, 2], [2, 2], [2, 2], [1, 1], [1, 1], [1, 1], [1, 1], [1, 1], [1, 1], [1, 1], [1, 1], [1, 1], [1, 1]], \"feat_stride\": 16, \"num_classes\": 1, \"anchor_scales\": [2.5, 3.025, 3.66025, 4.4289024999999995, 5.358972025, 6.484356150249999, 7.846070941802498, 9.493745839581022, 11.487432465893036, 13.899793283730574, 16.818749873313998, 20.350687346709933, 24.62433168951902, 29.795441344318014], \"square_targets\": true, \"name\": \"rpn_big\", \"batchsize\": 256, \"anchor_ratios\": [1.0]}"
  }
}
layer {
  name: "roi-data"
  type: "Python"
  bottom: "rpn_rois"
  bottom: "input_gt_boxes"
  top: "rois"
  top: "labels"
  top: "bbox_targets"
  top: "bbox_inside_weights"
  top: "bbox_outside_weights"
  top: "pid_label"
  python_param {
    module: "rpn.proposal_target_layer"
    layer: "ProposalTargetLayer"
    param_str: "{\"num_classes\": 2, \"bg_aux_label\": 5532}"
  }
}
layer {
  name: "roi-pool"
  type: "ROIPooling"
  bottom: "conv5_3"
  bottom: "rois"
  top: "roi-pool"
  roi_pooling_param {
    pooled_h: 7
    pooled_w: 7
    spatial_scale: 0.0625
  }
}
layer {
  name: "fc6"
  type: "InnerProduct"
  bottom: "roi-pool"
  top: "fc6"
  param {
    lr_mult: 1
  }
  param {
    lr_mult: 2
  }
  inner_product_param {
    num_output: 4096
  }
}
layer {
  name: "relu6"
  type: "ReLU"
  bottom: "fc6"
  top: "fc6"
}
layer {
  name: "drop6"
  type: "Dropout"
  bottom: "fc6"
  top: "fc6"
  dropout_param {
    dropout_ratio: 0.5
  }
}
layer {
  name: "fc7"
  type: "InnerProduct"
  bottom: "fc6"
  top: "fc7"
  param {
    lr_mult: 1
  }
  param {
    lr_mult: 2
  }
  inner_product_param {
    num_output: 4096
  }
}
layer {
  name: "relu7"
  type: "ReLU"
  bottom: "fc7"
  top: "fc7"
}
layer {
  name: "drop7"
  type: "Dropout"
  bottom: "fc7"
  top: "fc7"
  dropout_param {
    dropout_ratio: 0.5
  }
}
layer {
  name: "loss_bbox"
  type: "SmoothL1Loss"
  bottom: "fc7"
  bottom: "bbox_targets"
  bottom: "bbox_inside_weights"
  bottom: "bbox_outside_weights"
  top: "loss_bbox"
  loss_weight: 1
}
I0413 18:20:12.335813 13000 layer_factory.hpp:77] Creating layer input
I0413 18:20:12.337702 13000 net.cpp:100] Creating Layer input
I0413 18:20:12.337726 13000 net.cpp:408] input -> input_data
I0413 18:20:12.337743 13000 net.cpp:408] input -> input_im_info
I0413 18:20:12.337755 13000 net.cpp:408] input -> input_gt_boxes
I0413 18:20:12.337767 13000 net.cpp:408] input -> input_ignored_boxes
RoiDataLayer: name_to_top: {'im_info': 1, 'data': 0, 'ignored_boxes': 3, 'gt_boxes': 2}
I0413 18:20:12.661239 13000 net.cpp:150] Setting up input
I0413 18:20:12.661265 13000 net.cpp:157] Top shape: 1 3 1000 1500 (4500000)
I0413 18:20:12.661270 13000 net.cpp:157] Top shape: 1 3 (3)
I0413 18:20:12.661275 13000 net.cpp:157] Top shape: 1 5 (5)
I0413 18:20:12.661278 13000 net.cpp:157] Top shape: 1 5 (5)
I0413 18:20:12.661281 13000 net.cpp:165] Memory required for data: 18000052
I0413 18:20:12.661288 13000 layer_factory.hpp:77] Creating layer input_data_input_0_split
I0413 18:20:12.661300 13000 net.cpp:100] Creating Layer input_data_input_0_split
I0413 18:20:12.661306 13000 net.cpp:434] input_data_input_0_split <- input_data
I0413 18:20:12.661315 13000 net.cpp:408] input_data_input_0_split -> input_data_input_0_split_0
I0413 18:20:12.661329 13000 net.cpp:408] input_data_input_0_split -> input_data_input_0_split_1
I0413 18:20:12.661358 13000 net.cpp:150] Setting up input_data_input_0_split
I0413 18:20:12.661366 13000 net.cpp:157] Top shape: 1 3 1000 1500 (4500000)
I0413 18:20:12.661370 13000 net.cpp:157] Top shape: 1 3 1000 1500 (4500000)
I0413 18:20:12.661373 13000 net.cpp:165] Memory required for data: 54000052
I0413 18:20:12.661376 13000 layer_factory.hpp:77] Creating layer input_im_info_input_1_split
I0413 18:20:12.661384 13000 net.cpp:100] Creating Layer input_im_info_input_1_split
I0413 18:20:12.661387 13000 net.cpp:434] input_im_info_input_1_split <- input_im_info
I0413 18:20:12.661394 13000 net.cpp:408] input_im_info_input_1_split -> input_im_info_input_1_split_0
I0413 18:20:12.661401 13000 net.cpp:408] input_im_info_input_1_split -> input_im_info_input_1_split_1
I0413 18:20:12.661432 13000 net.cpp:150] Setting up input_im_info_input_1_split
I0413 18:20:12.661438 13000 net.cpp:157] Top shape: 1 3 (3)
I0413 18:20:12.661442 13000 net.cpp:157] Top shape: 1 3 (3)
I0413 18:20:12.661445 13000 net.cpp:165] Memory required for data: 54000076
I0413 18:20:12.661448 13000 layer_factory.hpp:77] Creating layer input_gt_boxes_input_2_split
I0413 18:20:12.661453 13000 net.cpp:100] Creating Layer input_gt_boxes_input_2_split
I0413 18:20:12.661456 13000 net.cpp:434] input_gt_boxes_input_2_split <- input_gt_boxes
I0413 18:20:12.661463 13000 net.cpp:408] input_gt_boxes_input_2_split -> input_gt_boxes_input_2_split_0
I0413 18:20:12.661469 13000 net.cpp:408] input_gt_boxes_input_2_split -> input_gt_boxes_input_2_split_1
I0413 18:20:12.661496 13000 net.cpp:150] Setting up input_gt_boxes_input_2_split
I0413 18:20:12.661504 13000 net.cpp:157] Top shape: 1 5 (5)
I0413 18:20:12.661507 13000 net.cpp:157] Top shape: 1 5 (5)
I0413 18:20:12.661509 13000 net.cpp:165] Memory required for data: 54000116
I0413 18:20:12.661512 13000 layer_factory.hpp:77] Creating layer conv1_1
I0413 18:20:12.661525 13000 net.cpp:100] Creating Layer conv1_1
I0413 18:20:12.661530 13000 net.cpp:434] conv1_1 <- input_data_input_0_split_0
I0413 18:20:12.661535 13000 net.cpp:408] conv1_1 -> conv1_1
I0413 18:20:12.664504 13000 net.cpp:150] Setting up conv1_1
I0413 18:20:12.664538 13000 net.cpp:157] Top shape: 1 64 1000 1500 (96000000)
I0413 18:20:12.664551 13000 net.cpp:165] Memory required for data: 438000116
I0413 18:20:12.664572 13000 layer_factory.hpp:77] Creating layer relu1_1
I0413 18:20:12.664582 13000 net.cpp:100] Creating Layer relu1_1
I0413 18:20:12.664587 13000 net.cpp:434] relu1_1 <- conv1_1
I0413 18:20:12.664594 13000 net.cpp:395] relu1_1 -> conv1_1 (in-place)
I0413 18:20:12.664605 13000 net.cpp:150] Setting up relu1_1
I0413 18:20:12.664610 13000 net.cpp:157] Top shape: 1 64 1000 1500 (96000000)
I0413 18:20:12.664613 13000 net.cpp:165] Memory required for data: 822000116
I0413 18:20:12.664616 13000 layer_factory.hpp:77] Creating layer conv1_2
I0413 18:20:12.664626 13000 net.cpp:100] Creating Layer conv1_2
I0413 18:20:12.664630 13000 net.cpp:434] conv1_2 <- conv1_1
I0413 18:20:12.664638 13000 net.cpp:408] conv1_2 -> conv1_2
I0413 18:20:12.667806 13000 net.cpp:150] Setting up conv1_2
I0413 18:20:12.667841 13000 net.cpp:157] Top shape: 1 64 1000 1500 (96000000)
I0413 18:20:12.667845 13000 net.cpp:165] Memory required for data: 1206000116
I0413 18:20:12.667863 13000 layer_factory.hpp:77] Creating layer relu1_2
I0413 18:20:12.667875 13000 net.cpp:100] Creating Layer relu1_2
I0413 18:20:12.667879 13000 net.cpp:434] relu1_2 <- conv1_2
I0413 18:20:12.667889 13000 net.cpp:395] relu1_2 -> conv1_2 (in-place)
I0413 18:20:12.667901 13000 net.cpp:150] Setting up relu1_2
I0413 18:20:12.667906 13000 net.cpp:157] Top shape: 1 64 1000 1500 (96000000)
I0413 18:20:12.667909 13000 net.cpp:165] Memory required for data: 1590000116
I0413 18:20:12.667912 13000 layer_factory.hpp:77] Creating layer pool1
I0413 18:20:12.667922 13000 net.cpp:100] Creating Layer pool1
I0413 18:20:12.667925 13000 net.cpp:434] pool1 <- conv1_2
I0413 18:20:12.667930 13000 net.cpp:408] pool1 -> pool1
I0413 18:20:12.668000 13000 net.cpp:150] Setting up pool1
I0413 18:20:12.668009 13000 net.cpp:157] Top shape: 1 64 500 750 (24000000)
I0413 18:20:12.668011 13000 net.cpp:165] Memory required for data: 1686000116
I0413 18:20:12.668015 13000 layer_factory.hpp:77] Creating layer conv2_1
I0413 18:20:12.668025 13000 net.cpp:100] Creating Layer conv2_1
I0413 18:20:12.668028 13000 net.cpp:434] conv2_1 <- pool1
I0413 18:20:12.668035 13000 net.cpp:408] conv2_1 -> conv2_1
I0413 18:20:12.669231 13000 net.cpp:150] Setting up conv2_1
I0413 18:20:12.669253 13000 net.cpp:157] Top shape: 1 128 500 750 (48000000)
I0413 18:20:12.669256 13000 net.cpp:165] Memory required for data: 1878000116
I0413 18:20:12.669278 13000 layer_factory.hpp:77] Creating layer relu2_1
I0413 18:20:12.669286 13000 net.cpp:100] Creating Layer relu2_1
I0413 18:20:12.669291 13000 net.cpp:434] relu2_1 <- conv2_1
I0413 18:20:12.669296 13000 net.cpp:395] relu2_1 -> conv2_1 (in-place)
I0413 18:20:12.669306 13000 net.cpp:150] Setting up relu2_1
I0413 18:20:12.669309 13000 net.cpp:157] Top shape: 1 128 500 750 (48000000)
I0413 18:20:12.669312 13000 net.cpp:165] Memory required for data: 2070000116
I0413 18:20:12.669315 13000 layer_factory.hpp:77] Creating layer conv2_2
I0413 18:20:12.669323 13000 net.cpp:100] Creating Layer conv2_2
I0413 18:20:12.669327 13000 net.cpp:434] conv2_2 <- conv2_1
I0413 18:20:12.669332 13000 net.cpp:408] conv2_2 -> conv2_2
I0413 18:20:12.670280 13000 net.cpp:150] Setting up conv2_2
I0413 18:20:12.670305 13000 net.cpp:157] Top shape: 1 128 500 750 (48000000)
I0413 18:20:12.670307 13000 net.cpp:165] Memory required for data: 2262000116
I0413 18:20:12.670326 13000 layer_factory.hpp:77] Creating layer relu2_2
I0413 18:20:12.670336 13000 net.cpp:100] Creating Layer relu2_2
I0413 18:20:12.670341 13000 net.cpp:434] relu2_2 <- conv2_2
I0413 18:20:12.670347 13000 net.cpp:395] relu2_2 -> conv2_2 (in-place)
I0413 18:20:12.670356 13000 net.cpp:150] Setting up relu2_2
I0413 18:20:12.670361 13000 net.cpp:157] Top shape: 1 128 500 750 (48000000)
I0413 18:20:12.670364 13000 net.cpp:165] Memory required for data: 2454000116
I0413 18:20:12.670367 13000 layer_factory.hpp:77] Creating layer pool2
I0413 18:20:12.670373 13000 net.cpp:100] Creating Layer pool2
I0413 18:20:12.670377 13000 net.cpp:434] pool2 <- conv2_2
I0413 18:20:12.670382 13000 net.cpp:408] pool2 -> pool2
I0413 18:20:12.670426 13000 net.cpp:150] Setting up pool2
I0413 18:20:12.670433 13000 net.cpp:157] Top shape: 1 128 250 375 (12000000)
I0413 18:20:12.670436 13000 net.cpp:165] Memory required for data: 2502000116
I0413 18:20:12.670439 13000 layer_factory.hpp:77] Creating layer conv3_1
I0413 18:20:12.670449 13000 net.cpp:100] Creating Layer conv3_1
I0413 18:20:12.670452 13000 net.cpp:434] conv3_1 <- pool2
I0413 18:20:12.670457 13000 net.cpp:408] conv3_1 -> conv3_1
I0413 18:20:12.671535 13000 net.cpp:150] Setting up conv3_1
I0413 18:20:12.671561 13000 net.cpp:157] Top shape: 1 256 250 375 (24000000)
I0413 18:20:12.671572 13000 net.cpp:165] Memory required for data: 2598000116
I0413 18:20:12.671586 13000 layer_factory.hpp:77] Creating layer relu3_1
I0413 18:20:12.671596 13000 net.cpp:100] Creating Layer relu3_1
I0413 18:20:12.671600 13000 net.cpp:434] relu3_1 <- conv3_1
I0413 18:20:12.671607 13000 net.cpp:395] relu3_1 -> conv3_1 (in-place)
I0413 18:20:12.671615 13000 net.cpp:150] Setting up relu3_1
I0413 18:20:12.671619 13000 net.cpp:157] Top shape: 1 256 250 375 (24000000)
I0413 18:20:12.671622 13000 net.cpp:165] Memory required for data: 2694000116
I0413 18:20:12.671625 13000 layer_factory.hpp:77] Creating layer conv3_2
I0413 18:20:12.671638 13000 net.cpp:100] Creating Layer conv3_2
I0413 18:20:12.671653 13000 net.cpp:434] conv3_2 <- conv3_1
I0413 18:20:12.671658 13000 net.cpp:408] conv3_2 -> conv3_2
I0413 18:20:12.672838 13000 net.cpp:150] Setting up conv3_2
I0413 18:20:12.672863 13000 net.cpp:157] Top shape: 1 256 250 375 (24000000)
I0413 18:20:12.672865 13000 net.cpp:165] Memory required for data: 2790000116
I0413 18:20:12.672883 13000 layer_factory.hpp:77] Creating layer relu3_2
I0413 18:20:12.672894 13000 net.cpp:100] Creating Layer relu3_2
I0413 18:20:12.672897 13000 net.cpp:434] relu3_2 <- conv3_2
I0413 18:20:12.672912 13000 net.cpp:395] relu3_2 -> conv3_2 (in-place)
I0413 18:20:12.672926 13000 net.cpp:150] Setting up relu3_2
I0413 18:20:12.672931 13000 net.cpp:157] Top shape: 1 256 250 375 (24000000)
I0413 18:20:12.672935 13000 net.cpp:165] Memory required for data: 2886000116
I0413 18:20:12.672938 13000 layer_factory.hpp:77] Creating layer conv3_3
I0413 18:20:12.672947 13000 net.cpp:100] Creating Layer conv3_3
I0413 18:20:12.672950 13000 net.cpp:434] conv3_3 <- conv3_2
I0413 18:20:12.672957 13000 net.cpp:408] conv3_3 -> conv3_3
I0413 18:20:12.674533 13000 net.cpp:150] Setting up conv3_3
I0413 18:20:12.674563 13000 net.cpp:157] Top shape: 1 256 250 375 (24000000)
I0413 18:20:12.674567 13000 net.cpp:165] Memory required for data: 2982000116
I0413 18:20:12.674578 13000 layer_factory.hpp:77] Creating layer relu3_3
I0413 18:20:12.674587 13000 net.cpp:100] Creating Layer relu3_3
I0413 18:20:12.674592 13000 net.cpp:434] relu3_3 <- conv3_3
I0413 18:20:12.674602 13000 net.cpp:395] relu3_3 -> conv3_3 (in-place)
I0413 18:20:12.674612 13000 net.cpp:150] Setting up relu3_3
I0413 18:20:12.674615 13000 net.cpp:157] Top shape: 1 256 250 375 (24000000)
I0413 18:20:12.674618 13000 net.cpp:165] Memory required for data: 3078000116
I0413 18:20:12.674621 13000 layer_factory.hpp:77] Creating layer pool3
I0413 18:20:12.674628 13000 net.cpp:100] Creating Layer pool3
I0413 18:20:12.674630 13000 net.cpp:434] pool3 <- conv3_3
I0413 18:20:12.674635 13000 net.cpp:408] pool3 -> pool3
I0413 18:20:12.674684 13000 net.cpp:150] Setting up pool3
I0413 18:20:12.674691 13000 net.cpp:157] Top shape: 1 256 125 188 (6016000)
I0413 18:20:12.674695 13000 net.cpp:165] Memory required for data: 3102064116
I0413 18:20:12.674698 13000 layer_factory.hpp:77] Creating layer conv4_1
I0413 18:20:12.674707 13000 net.cpp:100] Creating Layer conv4_1
I0413 18:20:12.674711 13000 net.cpp:434] conv4_1 <- pool3
I0413 18:20:12.674717 13000 net.cpp:408] conv4_1 -> conv4_1
I0413 18:20:12.677677 13000 net.cpp:150] Setting up conv4_1
I0413 18:20:12.677711 13000 net.cpp:157] Top shape: 1 512 125 188 (12032000)
I0413 18:20:12.677718 13000 net.cpp:165] Memory required for data: 3150192116
I0413 18:20:12.677734 13000 layer_factory.hpp:77] Creating layer relu4_1
I0413 18:20:12.677750 13000 net.cpp:100] Creating Layer relu4_1
I0413 18:20:12.677757 13000 net.cpp:434] relu4_1 <- conv4_1
I0413 18:20:12.677769 13000 net.cpp:395] relu4_1 -> conv4_1 (in-place)
I0413 18:20:12.677783 13000 net.cpp:150] Setting up relu4_1
I0413 18:20:12.677794 13000 net.cpp:157] Top shape: 1 512 125 188 (12032000)
I0413 18:20:12.677799 13000 net.cpp:165] Memory required for data: 3198320116
I0413 18:20:12.677804 13000 layer_factory.hpp:77] Creating layer conv4_2
I0413 18:20:12.677817 13000 net.cpp:100] Creating Layer conv4_2
I0413 18:20:12.677825 13000 net.cpp:434] conv4_2 <- conv4_1
I0413 18:20:12.677835 13000 net.cpp:408] conv4_2 -> conv4_2
I0413 18:20:12.682684 13000 net.cpp:150] Setting up conv4_2
I0413 18:20:12.682718 13000 net.cpp:157] Top shape: 1 512 125 188 (12032000)
I0413 18:20:12.682730 13000 net.cpp:165] Memory required for data: 3246448116
I0413 18:20:12.682745 13000 layer_factory.hpp:77] Creating layer relu4_2
I0413 18:20:12.682759 13000 net.cpp:100] Creating Layer relu4_2
I0413 18:20:12.682765 13000 net.cpp:434] relu4_2 <- conv4_2
I0413 18:20:12.682771 13000 net.cpp:395] relu4_2 -> conv4_2 (in-place)
I0413 18:20:12.682781 13000 net.cpp:150] Setting up relu4_2
I0413 18:20:12.682786 13000 net.cpp:157] Top shape: 1 512 125 188 (12032000)
I0413 18:20:12.682790 13000 net.cpp:165] Memory required for data: 3294576116
I0413 18:20:12.682792 13000 layer_factory.hpp:77] Creating layer conv4_3
I0413 18:20:12.682801 13000 net.cpp:100] Creating Layer conv4_3
I0413 18:20:12.682804 13000 net.cpp:434] conv4_3 <- conv4_2
I0413 18:20:12.682811 13000 net.cpp:408] conv4_3 -> conv4_3
I0413 18:20:12.687134 13000 net.cpp:150] Setting up conv4_3
I0413 18:20:12.687171 13000 net.cpp:157] Top shape: 1 512 125 188 (12032000)
I0413 18:20:12.687175 13000 net.cpp:165] Memory required for data: 3342704116
I0413 18:20:12.687186 13000 layer_factory.hpp:77] Creating layer relu4_3
I0413 18:20:12.687196 13000 net.cpp:100] Creating Layer relu4_3
I0413 18:20:12.687201 13000 net.cpp:434] relu4_3 <- conv4_3
I0413 18:20:12.687211 13000 net.cpp:395] relu4_3 -> conv4_3 (in-place)
I0413 18:20:12.687222 13000 net.cpp:150] Setting up relu4_3
I0413 18:20:12.687227 13000 net.cpp:157] Top shape: 1 512 125 188 (12032000)
I0413 18:20:12.687229 13000 net.cpp:165] Memory required for data: 3390832116
I0413 18:20:12.687233 13000 layer_factory.hpp:77] Creating layer pool4
I0413 18:20:12.687239 13000 net.cpp:100] Creating Layer pool4
I0413 18:20:12.687243 13000 net.cpp:434] pool4 <- conv4_3
I0413 18:20:12.687248 13000 net.cpp:408] pool4 -> pool4
I0413 18:20:12.687283 13000 net.cpp:150] Setting up pool4
I0413 18:20:12.687289 13000 net.cpp:157] Top shape: 1 512 63 94 (3032064)
I0413 18:20:12.687292 13000 net.cpp:165] Memory required for data: 3402960372
I0413 18:20:12.687296 13000 layer_factory.hpp:77] Creating layer conv5_1
I0413 18:20:12.687309 13000 net.cpp:100] Creating Layer conv5_1
I0413 18:20:12.687312 13000 net.cpp:434] conv5_1 <- pool4
I0413 18:20:12.687319 13000 net.cpp:408] conv5_1 -> conv5_1
I0413 18:20:12.691938 13000 net.cpp:150] Setting up conv5_1
I0413 18:20:12.691972 13000 net.cpp:157] Top shape: 1 512 63 94 (3032064)
I0413 18:20:12.691984 13000 net.cpp:165] Memory required for data: 3415088628
I0413 18:20:12.691995 13000 layer_factory.hpp:77] Creating layer relu5_1
I0413 18:20:12.692005 13000 net.cpp:100] Creating Layer relu5_1
I0413 18:20:12.692010 13000 net.cpp:434] relu5_1 <- conv5_1
I0413 18:20:12.692018 13000 net.cpp:395] relu5_1 -> conv5_1 (in-place)
I0413 18:20:12.692030 13000 net.cpp:150] Setting up relu5_1
I0413 18:20:12.692034 13000 net.cpp:157] Top shape: 1 512 63 94 (3032064)
I0413 18:20:12.692037 13000 net.cpp:165] Memory required for data: 3427216884
I0413 18:20:12.692040 13000 layer_factory.hpp:77] Creating layer conv5_2
I0413 18:20:12.692049 13000 net.cpp:100] Creating Layer conv5_2
I0413 18:20:12.692052 13000 net.cpp:434] conv5_2 <- conv5_1
I0413 18:20:12.692059 13000 net.cpp:408] conv5_2 -> conv5_2
I0413 18:20:12.696331 13000 net.cpp:150] Setting up conv5_2
I0413 18:20:12.696367 13000 net.cpp:157] Top shape: 1 512 63 94 (3032064)
I0413 18:20:12.696372 13000 net.cpp:165] Memory required for data: 3439345140
I0413 18:20:12.696382 13000 layer_factory.hpp:77] Creating layer relu5_2
I0413 18:20:12.696394 13000 net.cpp:100] Creating Layer relu5_2
I0413 18:20:12.696399 13000 net.cpp:434] relu5_2 <- conv5_2
I0413 18:20:12.696408 13000 net.cpp:395] relu5_2 -> conv5_2 (in-place)
I0413 18:20:12.696416 13000 net.cpp:150] Setting up relu5_2
I0413 18:20:12.696421 13000 net.cpp:157] Top shape: 1 512 63 94 (3032064)
I0413 18:20:12.696424 13000 net.cpp:165] Memory required for data: 3451473396
I0413 18:20:12.696427 13000 layer_factory.hpp:77] Creating layer conv5_3
I0413 18:20:12.696444 13000 net.cpp:100] Creating Layer conv5_3
I0413 18:20:12.696447 13000 net.cpp:434] conv5_3 <- conv5_2
I0413 18:20:12.696454 13000 net.cpp:408] conv5_3 -> conv5_3
I0413 18:20:12.700893 13000 net.cpp:150] Setting up conv5_3
I0413 18:20:12.700934 13000 net.cpp:157] Top shape: 1 512 63 94 (3032064)
I0413 18:20:12.700939 13000 net.cpp:165] Memory required for data: 3463601652
I0413 18:20:12.700949 13000 layer_factory.hpp:77] Creating layer relu5_3
I0413 18:20:12.700960 13000 net.cpp:100] Creating Layer relu5_3
I0413 18:20:12.700965 13000 net.cpp:434] relu5_3 <- conv5_3
I0413 18:20:12.700974 13000 net.cpp:395] relu5_3 -> conv5_3 (in-place)
I0413 18:20:12.700985 13000 net.cpp:150] Setting up relu5_3
I0413 18:20:12.700989 13000 net.cpp:157] Top shape: 1 512 63 94 (3032064)
I0413 18:20:12.700992 13000 net.cpp:165] Memory required for data: 3475729908
I0413 18:20:12.700995 13000 layer_factory.hpp:77] Creating layer conv5_3_relu5_3_0_split
I0413 18:20:12.701001 13000 net.cpp:100] Creating Layer conv5_3_relu5_3_0_split
I0413 18:20:12.701004 13000 net.cpp:434] conv5_3_relu5_3_0_split <- conv5_3
I0413 18:20:12.701009 13000 net.cpp:408] conv5_3_relu5_3_0_split -> conv5_3_relu5_3_0_split_0
I0413 18:20:12.701019 13000 net.cpp:408] conv5_3_relu5_3_0_split -> conv5_3_relu5_3_0_split_1
I0413 18:20:12.701050 13000 net.cpp:150] Setting up conv5_3_relu5_3_0_split
I0413 18:20:12.701057 13000 net.cpp:157] Top shape: 1 512 63 94 (3032064)
I0413 18:20:12.701061 13000 net.cpp:157] Top shape: 1 512 63 94 (3032064)
I0413 18:20:12.701064 13000 net.cpp:165] Memory required for data: 3499986420
I0413 18:20:12.701068 13000 layer_factory.hpp:77] Creating layer rpn_big_conv1
I0413 18:20:12.701081 13000 net.cpp:100] Creating Layer rpn_big_conv1
I0413 18:20:12.701086 13000 net.cpp:434] rpn_big_conv1 <- conv5_3_relu5_3_0_split_0
I0413 18:20:12.701092 13000 net.cpp:408] rpn_big_conv1 -> rpn_big_conv1
I0413 18:20:12.725656 13000 net.cpp:150] Setting up rpn_big_conv1
I0413 18:20:12.725684 13000 net.cpp:157] Top shape: 1 512 63 94 (3032064)
I0413 18:20:12.725697 13000 net.cpp:165] Memory required for data: 3512114676
I0413 18:20:12.725708 13000 layer_factory.hpp:77] Creating layer rpn_big_conv1_relu
I0413 18:20:12.725718 13000 net.cpp:100] Creating Layer rpn_big_conv1_relu
I0413 18:20:12.725723 13000 net.cpp:434] rpn_big_conv1_relu <- rpn_big_conv1
I0413 18:20:12.725731 13000 net.cpp:395] rpn_big_conv1_relu -> rpn_big_conv1 (in-place)
I0413 18:20:12.725741 13000 net.cpp:150] Setting up rpn_big_conv1_relu
I0413 18:20:12.725746 13000 net.cpp:157] Top shape: 1 512 63 94 (3032064)
I0413 18:20:12.725749 13000 net.cpp:165] Memory required for data: 3524242932
I0413 18:20:12.725752 13000 layer_factory.hpp:77] Creating layer rpn_big_conv2
I0413 18:20:12.725764 13000 net.cpp:100] Creating Layer rpn_big_conv2
I0413 18:20:12.725775 13000 net.cpp:434] rpn_big_conv2 <- rpn_big_conv1
I0413 18:20:12.725781 13000 net.cpp:408] rpn_big_conv2 -> rpn_big_conv2
I0413 18:20:12.751184 13000 net.cpp:150] Setting up rpn_big_conv2
I0413 18:20:12.751226 13000 net.cpp:157] Top shape: 1 512 63 94 (3032064)
I0413 18:20:12.751231 13000 net.cpp:165] Memory required for data: 3536371188
I0413 18:20:12.751241 13000 layer_factory.hpp:77] Creating layer rpn_big_conv2_relu
I0413 18:20:12.751253 13000 net.cpp:100] Creating Layer rpn_big_conv2_relu
I0413 18:20:12.751258 13000 net.cpp:434] rpn_big_conv2_relu <- rpn_big_conv2
I0413 18:20:12.751266 13000 net.cpp:395] rpn_big_conv2_relu -> rpn_big_conv2 (in-place)
I0413 18:20:12.751276 13000 net.cpp:150] Setting up rpn_big_conv2_relu
I0413 18:20:12.751288 13000 net.cpp:157] Top shape: 1 512 63 94 (3032064)
I0413 18:20:12.751292 13000 net.cpp:165] Memory required for data: 3548499444
I0413 18:20:12.751296 13000 layer_factory.hpp:77] Creating layer rpn_big_conv2_drop
I0413 18:20:12.751303 13000 net.cpp:100] Creating Layer rpn_big_conv2_drop
I0413 18:20:12.751307 13000 net.cpp:434] rpn_big_conv2_drop <- rpn_big_conv2
I0413 18:20:12.751312 13000 net.cpp:395] rpn_big_conv2_drop -> rpn_big_conv2 (in-place)
I0413 18:20:12.751333 13000 net.cpp:150] Setting up rpn_big_conv2_drop
I0413 18:20:12.751341 13000 net.cpp:157] Top shape: 1 512 63 94 (3032064)
I0413 18:20:12.751345 13000 net.cpp:165] Memory required for data: 3560627700
I0413 18:20:12.751348 13000 layer_factory.hpp:77] Creating layer rpn_big_conv2_rpn_big_conv2_drop_0_split
I0413 18:20:12.751353 13000 net.cpp:100] Creating Layer rpn_big_conv2_rpn_big_conv2_drop_0_split
I0413 18:20:12.751358 13000 net.cpp:434] rpn_big_conv2_rpn_big_conv2_drop_0_split <- rpn_big_conv2
I0413 18:20:12.751363 13000 net.cpp:408] rpn_big_conv2_rpn_big_conv2_drop_0_split -> rpn_big_conv2_rpn_big_conv2_drop_0_split_0
I0413 18:20:12.751371 13000 net.cpp:408] rpn_big_conv2_rpn_big_conv2_drop_0_split -> rpn_big_conv2_rpn_big_conv2_drop_0_split_1
I0413 18:20:12.751410 13000 net.cpp:150] Setting up rpn_big_conv2_rpn_big_conv2_drop_0_split
I0413 18:20:12.751417 13000 net.cpp:157] Top shape: 1 512 63 94 (3032064)
I0413 18:20:12.751422 13000 net.cpp:157] Top shape: 1 512 63 94 (3032064)
I0413 18:20:12.751425 13000 net.cpp:165] Memory required for data: 3584884212
I0413 18:20:12.751428 13000 layer_factory.hpp:77] Creating layer rpn_big_output_cls
I0413 18:20:12.751441 13000 net.cpp:100] Creating Layer rpn_big_output_cls
I0413 18:20:12.751446 13000 net.cpp:434] rpn_big_output_cls <- rpn_big_conv2_rpn_big_conv2_drop_0_split_0
I0413 18:20:12.751453 13000 net.cpp:408] rpn_big_output_cls -> rpn_big_output_cls
I0413 18:20:12.772791 13000 net.cpp:150] Setting up rpn_big_output_cls
I0413 18:20:12.772825 13000 net.cpp:157] Top shape: 1 384 63 94 (2274048)
I0413 18:20:12.772830 13000 net.cpp:165] Memory required for data: 3593980404
I0413 18:20:12.772840 13000 layer_factory.hpp:77] Creating layer rpn_big_output_cls_relu
I0413 18:20:12.772850 13000 net.cpp:100] Creating Layer rpn_big_output_cls_relu
I0413 18:20:12.772856 13000 net.cpp:434] rpn_big_output_cls_relu <- rpn_big_output_cls
I0413 18:20:12.772866 13000 net.cpp:395] rpn_big_output_cls_relu -> rpn_big_output_cls (in-place)
I0413 18:20:12.772876 13000 net.cpp:150] Setting up rpn_big_output_cls_relu
I0413 18:20:12.772881 13000 net.cpp:157] Top shape: 1 384 63 94 (2274048)
I0413 18:20:12.772883 13000 net.cpp:165] Memory required for data: 3603076596
I0413 18:20:12.772887 13000 layer_factory.hpp:77] Creating layer rpn_big_cls_score
I0413 18:20:12.772899 13000 net.cpp:100] Creating Layer rpn_big_cls_score
I0413 18:20:12.772912 13000 net.cpp:434] rpn_big_cls_score <- rpn_big_output_cls
I0413 18:20:12.772922 13000 net.cpp:408] rpn_big_cls_score -> rpn_big_cls_score
I0413 18:20:12.775368 13000 net.cpp:150] Setting up rpn_big_cls_score
I0413 18:20:12.775394 13000 net.cpp:157] Top shape: 1 52 61 92 (291824)
I0413 18:20:12.775399 13000 net.cpp:165] Memory required for data: 3604243892
I0413 18:20:12.775419 13000 layer_factory.hpp:77] Creating layer rpn_big_cls_score_rpn_big_cls_score_0_split
I0413 18:20:12.775432 13000 net.cpp:100] Creating Layer rpn_big_cls_score_rpn_big_cls_score_0_split
I0413 18:20:12.775439 13000 net.cpp:434] rpn_big_cls_score_rpn_big_cls_score_0_split <- rpn_big_cls_score
I0413 18:20:12.775447 13000 net.cpp:408] rpn_big_cls_score_rpn_big_cls_score_0_split -> rpn_big_cls_score_rpn_big_cls_score_0_split_0
I0413 18:20:12.775461 13000 net.cpp:408] rpn_big_cls_score_rpn_big_cls_score_0_split -> rpn_big_cls_score_rpn_big_cls_score_0_split_1
I0413 18:20:12.775506 13000 net.cpp:150] Setting up rpn_big_cls_score_rpn_big_cls_score_0_split
I0413 18:20:12.775516 13000 net.cpp:157] Top shape: 1 52 61 92 (291824)
I0413 18:20:12.775524 13000 net.cpp:157] Top shape: 1 52 61 92 (291824)
I0413 18:20:12.775528 13000 net.cpp:165] Memory required for data: 3606578484
I0413 18:20:12.775533 13000 layer_factory.hpp:77] Creating layer rpn_big_cls_score_reshape
I0413 18:20:12.775544 13000 net.cpp:100] Creating Layer rpn_big_cls_score_reshape
I0413 18:20:12.775550 13000 net.cpp:434] rpn_big_cls_score_reshape <- rpn_big_cls_score_rpn_big_cls_score_0_split_0
I0413 18:20:12.775558 13000 net.cpp:408] rpn_big_cls_score_reshape -> rpn_big_cls_score_reshape
I0413 18:20:12.775590 13000 net.cpp:150] Setting up rpn_big_cls_score_reshape
I0413 18:20:12.775599 13000 net.cpp:157] Top shape: 1 2 1586 92 (291824)
I0413 18:20:12.775604 13000 net.cpp:165] Memory required for data: 3607745780
I0413 18:20:12.775609 13000 layer_factory.hpp:77] Creating layer rpn_big_cls_score_reshape_rpn_big_cls_score_reshape_0_split
I0413 18:20:12.775617 13000 net.cpp:100] Creating Layer rpn_big_cls_score_reshape_rpn_big_cls_score_reshape_0_split
I0413 18:20:12.775622 13000 net.cpp:434] rpn_big_cls_score_reshape_rpn_big_cls_score_reshape_0_split <- rpn_big_cls_score_reshape
I0413 18:20:12.775630 13000 net.cpp:408] rpn_big_cls_score_reshape_rpn_big_cls_score_reshape_0_split -> rpn_big_cls_score_reshape_rpn_big_cls_score_reshape_0_split_0
I0413 18:20:12.775640 13000 net.cpp:408] rpn_big_cls_score_reshape_rpn_big_cls_score_reshape_0_split -> rpn_big_cls_score_reshape_rpn_big_cls_score_reshape_0_split_1
I0413 18:20:12.775682 13000 net.cpp:150] Setting up rpn_big_cls_score_reshape_rpn_big_cls_score_reshape_0_split
I0413 18:20:12.775691 13000 net.cpp:157] Top shape: 1 2 1586 92 (291824)
I0413 18:20:12.775698 13000 net.cpp:157] Top shape: 1 2 1586 92 (291824)
I0413 18:20:12.775702 13000 net.cpp:165] Memory required for data: 3610080372
I0413 18:20:12.775707 13000 layer_factory.hpp:77] Creating layer rpn_big_cls_prob
I0413 18:20:12.775717 13000 net.cpp:100] Creating Layer rpn_big_cls_prob
I0413 18:20:12.775722 13000 net.cpp:434] rpn_big_cls_prob <- rpn_big_cls_score_reshape_rpn_big_cls_score_reshape_0_split_0
I0413 18:20:12.775729 13000 net.cpp:408] rpn_big_cls_prob -> rpn_big_cls_prob
I0413 18:20:12.775800 13000 net.cpp:150] Setting up rpn_big_cls_prob
I0413 18:20:12.775810 13000 net.cpp:157] Top shape: 1 2 1586 92 (291824)
I0413 18:20:12.775815 13000 net.cpp:165] Memory required for data: 3611247668
I0413 18:20:12.775820 13000 layer_factory.hpp:77] Creating layer rpn_big_cls_prob_reshape
I0413 18:20:12.775828 13000 net.cpp:100] Creating Layer rpn_big_cls_prob_reshape
I0413 18:20:12.775833 13000 net.cpp:434] rpn_big_cls_prob_reshape <- rpn_big_cls_prob
I0413 18:20:12.775841 13000 net.cpp:408] rpn_big_cls_prob_reshape -> rpn_big_cls_prob_reshape
I0413 18:20:12.775869 13000 net.cpp:150] Setting up rpn_big_cls_prob_reshape
I0413 18:20:12.775878 13000 net.cpp:157] Top shape: 1 52 61 92 (291824)
I0413 18:20:12.775883 13000 net.cpp:165] Memory required for data: 3612414964
I0413 18:20:12.775887 13000 layer_factory.hpp:77] Creating layer rpn_big_cls_prob_reshape_rpn_big_cls_prob_reshape_0_split
I0413 18:20:12.775895 13000 net.cpp:100] Creating Layer rpn_big_cls_prob_reshape_rpn_big_cls_prob_reshape_0_split
I0413 18:20:12.775900 13000 net.cpp:434] rpn_big_cls_prob_reshape_rpn_big_cls_prob_reshape_0_split <- rpn_big_cls_prob_reshape
I0413 18:20:12.775907 13000 net.cpp:408] rpn_big_cls_prob_reshape_rpn_big_cls_prob_reshape_0_split -> rpn_big_cls_prob_reshape_rpn_big_cls_prob_reshape_0_split_0
I0413 18:20:12.775916 13000 net.cpp:408] rpn_big_cls_prob_reshape_rpn_big_cls_prob_reshape_0_split -> rpn_big_cls_prob_reshape_rpn_big_cls_prob_reshape_0_split_1
I0413 18:20:12.775957 13000 net.cpp:150] Setting up rpn_big_cls_prob_reshape_rpn_big_cls_prob_reshape_0_split
I0413 18:20:12.775976 13000 net.cpp:157] Top shape: 1 52 61 92 (291824)
I0413 18:20:12.775985 13000 net.cpp:157] Top shape: 1 52 61 92 (291824)
I0413 18:20:12.775997 13000 net.cpp:165] Memory required for data: 3614749556
I0413 18:20:12.776003 13000 layer_factory.hpp:77] Creating layer rpn_big_anchor_target
I0413 18:20:12.777977 13000 net.cpp:100] Creating Layer rpn_big_anchor_target
I0413 18:20:12.777999 13000 net.cpp:434] rpn_big_anchor_target <- rpn_big_cls_score_rpn_big_cls_score_0_split_1
I0413 18:20:12.778010 13000 net.cpp:434] rpn_big_anchor_target <- input_gt_boxes_input_2_split_0
I0413 18:20:12.778018 13000 net.cpp:434] rpn_big_anchor_target <- input_ignored_boxes
I0413 18:20:12.778025 13000 net.cpp:434] rpn_big_anchor_target <- input_im_info_input_1_split_0
I0413 18:20:12.778035 13000 net.cpp:434] rpn_big_anchor_target <- input_data_input_0_split_1
I0413 18:20:12.778043 13000 net.cpp:434] rpn_big_anchor_target <- rpn_big_cls_prob_reshape_rpn_big_cls_prob_reshape_0_split_0
I0413 18:20:12.778057 13000 net.cpp:408] rpn_big_anchor_target -> rpn_big_anchor_target_labels
I0413 18:20:12.778076 13000 net.cpp:408] rpn_big_anchor_target -> rpn_big_anchor_target_bbox_targets
I0413 18:20:12.778092 13000 net.cpp:408] rpn_big_anchor_target -> rpn_big_anchor_target_inside_weights
I0413 18:20:12.778107 13000 net.cpp:408] rpn_big_anchor_target -> rpn_big_anchor_target_outside_weights
I0413 18:20:12.786379 13000 net.cpp:150] Setting up rpn_big_anchor_target
I0413 18:20:12.786417 13000 net.cpp:157] Top shape: 1 1 1586 92 (145912)
I0413 18:20:12.786423 13000 net.cpp:157] Top shape: 1 104 61 92 (583648)
I0413 18:20:12.786427 13000 net.cpp:157] Top shape: 1 104 61 92 (583648)
I0413 18:20:12.786432 13000 net.cpp:157] Top shape: 1 104 61 92 (583648)
I0413 18:20:12.786434 13000 net.cpp:165] Memory required for data: 3622336980
I0413 18:20:12.786440 13000 layer_factory.hpp:77] Creating layer rpn_big_loss_cls
I0413 18:20:12.786450 13000 net.cpp:100] Creating Layer rpn_big_loss_cls
I0413 18:20:12.786455 13000 net.cpp:434] rpn_big_loss_cls <- rpn_big_cls_score_reshape_rpn_big_cls_score_reshape_0_split_1
I0413 18:20:12.786463 13000 net.cpp:434] rpn_big_loss_cls <- rpn_big_anchor_target_labels
I0413 18:20:12.786469 13000 net.cpp:408] rpn_big_loss_cls -> rpn_big_loss_cls
I0413 18:20:12.786484 13000 layer_factory.hpp:77] Creating layer rpn_big_loss_cls
I0413 18:20:12.787298 13000 net.cpp:150] Setting up rpn_big_loss_cls
I0413 18:20:12.787324 13000 net.cpp:157] Top shape: (1)
I0413 18:20:12.787330 13000 net.cpp:160]     with loss weight 1
I0413 18:20:12.787345 13000 net.cpp:165] Memory required for data: 3622336984
I0413 18:20:12.787353 13000 layer_factory.hpp:77] Creating layer rpn_big_output_box
I0413 18:20:12.787374 13000 net.cpp:100] Creating Layer rpn_big_output_box
I0413 18:20:12.787384 13000 net.cpp:434] rpn_big_output_box <- rpn_big_conv2_rpn_big_conv2_drop_0_split_1
I0413 18:20:12.787400 13000 net.cpp:408] rpn_big_output_box -> rpn_big_output_box
I0413 18:20:12.806361 13000 net.cpp:150] Setting up rpn_big_output_box
I0413 18:20:12.806391 13000 net.cpp:157] Top shape: 1 384 63 94 (2274048)
I0413 18:20:12.806406 13000 net.cpp:165] Memory required for data: 3631433176
I0413 18:20:12.806416 13000 layer_factory.hpp:77] Creating layer rpn_big_output_box_relu
I0413 18:20:12.806428 13000 net.cpp:100] Creating Layer rpn_big_output_box_relu
I0413 18:20:12.806434 13000 net.cpp:434] rpn_big_output_box_relu <- rpn_big_output_box
I0413 18:20:12.806442 13000 net.cpp:395] rpn_big_output_box_relu -> rpn_big_output_box (in-place)
I0413 18:20:12.806452 13000 net.cpp:150] Setting up rpn_big_output_box_relu
I0413 18:20:12.806457 13000 net.cpp:157] Top shape: 1 384 63 94 (2274048)
I0413 18:20:12.806460 13000 net.cpp:165] Memory required for data: 3640529368
I0413 18:20:12.806463 13000 layer_factory.hpp:77] Creating layer rpn_big_bbox_pred
I0413 18:20:12.806475 13000 net.cpp:100] Creating Layer rpn_big_bbox_pred
I0413 18:20:12.806479 13000 net.cpp:434] rpn_big_bbox_pred <- rpn_big_output_box
I0413 18:20:12.806486 13000 net.cpp:408] rpn_big_bbox_pred -> rpn_big_bbox_pred
I0413 18:20:12.810459 13000 net.cpp:150] Setting up rpn_big_bbox_pred
I0413 18:20:12.810475 13000 net.cpp:157] Top shape: 1 104 61 92 (583648)
I0413 18:20:12.810479 13000 net.cpp:165] Memory required for data: 3642863960
I0413 18:20:12.810495 13000 layer_factory.hpp:77] Creating layer rpn_big_bbox_pred_rpn_big_bbox_pred_0_split
I0413 18:20:12.810505 13000 net.cpp:100] Creating Layer rpn_big_bbox_pred_rpn_big_bbox_pred_0_split
I0413 18:20:12.810510 13000 net.cpp:434] rpn_big_bbox_pred_rpn_big_bbox_pred_0_split <- rpn_big_bbox_pred
I0413 18:20:12.810518 13000 net.cpp:408] rpn_big_bbox_pred_rpn_big_bbox_pred_0_split -> rpn_big_bbox_pred_rpn_big_bbox_pred_0_split_0
I0413 18:20:12.810525 13000 net.cpp:408] rpn_big_bbox_pred_rpn_big_bbox_pred_0_split -> rpn_big_bbox_pred_rpn_big_bbox_pred_0_split_1
I0413 18:20:12.810557 13000 net.cpp:150] Setting up rpn_big_bbox_pred_rpn_big_bbox_pred_0_split
I0413 18:20:12.810565 13000 net.cpp:157] Top shape: 1 104 61 92 (583648)
I0413 18:20:12.810570 13000 net.cpp:157] Top shape: 1 104 61 92 (583648)
I0413 18:20:12.810572 13000 net.cpp:165] Memory required for data: 3647533144
I0413 18:20:12.810575 13000 layer_factory.hpp:77] Creating layer rpn_big_loss_bbox
I0413 18:20:12.810935 13000 net.cpp:100] Creating Layer rpn_big_loss_bbox
I0413 18:20:12.810945 13000 net.cpp:434] rpn_big_loss_bbox <- rpn_big_bbox_pred_rpn_big_bbox_pred_0_split_0
I0413 18:20:12.810950 13000 net.cpp:434] rpn_big_loss_bbox <- rpn_big_anchor_target_bbox_targets
I0413 18:20:12.810963 13000 net.cpp:434] rpn_big_loss_bbox <- rpn_big_anchor_target_inside_weights
I0413 18:20:12.810967 13000 net.cpp:434] rpn_big_loss_bbox <- rpn_big_anchor_target_outside_weights
I0413 18:20:12.810974 13000 net.cpp:408] rpn_big_loss_bbox -> rpn_big_loss_bbox
I0413 18:20:12.812868 13000 net.cpp:150] Setting up rpn_big_loss_bbox
I0413 18:20:12.812922 13000 net.cpp:157] Top shape: 1 (1)
I0413 18:20:12.812927 13000 net.cpp:160]     with loss weight 1
I0413 18:20:12.812938 13000 net.cpp:165] Memory required for data: 3647533148
I0413 18:20:12.812944 13000 layer_factory.hpp:77] Creating layer proposal
I0413 18:20:12.813343 13000 net.cpp:100] Creating Layer proposal
I0413 18:20:12.813352 13000 net.cpp:434] proposal <- rpn_big_cls_prob_reshape_rpn_big_cls_prob_reshape_0_split_1
I0413 18:20:12.813369 13000 net.cpp:434] proposal <- rpn_big_bbox_pred_rpn_big_bbox_pred_0_split_1
I0413 18:20:12.813374 13000 net.cpp:434] proposal <- input_im_info_input_1_split_1
I0413 18:20:12.813380 13000 net.cpp:408] proposal -> rpn_rois
I0413 18:20:12.817514 13000 net.cpp:150] Setting up proposal
I0413 18:20:12.817533 13000 net.cpp:157] Top shape: 1 5 (5)
I0413 18:20:12.817538 13000 net.cpp:165] Memory required for data: 3647533168
I0413 18:20:12.817543 13000 layer_factory.hpp:77] Creating layer roi-data
I0413 18:20:12.817858 13000 net.cpp:100] Creating Layer roi-data
I0413 18:20:12.817872 13000 net.cpp:434] roi-data <- rpn_rois
I0413 18:20:12.817878 13000 net.cpp:434] roi-data <- input_gt_boxes_input_2_split_1
I0413 18:20:12.817885 13000 net.cpp:408] roi-data -> rois
I0413 18:20:12.817894 13000 net.cpp:408] roi-data -> labels
I0413 18:20:12.817901 13000 net.cpp:408] roi-data -> bbox_targets
I0413 18:20:12.817909 13000 net.cpp:408] roi-data -> bbox_inside_weights
I0413 18:20:12.817915 13000 net.cpp:408] roi-data -> bbox_outside_weights
I0413 18:20:12.817922 13000 net.cpp:408] roi-data -> pid_label
I0413 18:20:12.818845 13000 net.cpp:150] Setting up roi-data
I0413 18:20:12.818859 13000 net.cpp:157] Top shape: 1 5 (5)
I0413 18:20:12.818863 13000 net.cpp:157] Top shape: 1 1 (1)
I0413 18:20:12.818867 13000 net.cpp:157] Top shape: 1 8 (8)
I0413 18:20:12.818871 13000 net.cpp:157] Top shape: 1 8 (8)
I0413 18:20:12.818874 13000 net.cpp:157] Top shape: 1 8 (8)
I0413 18:20:12.818878 13000 net.cpp:157] Top shape: (0)
I0413 18:20:12.818881 13000 net.cpp:165] Memory required for data: 3647533288
I0413 18:20:12.818884 13000 layer_factory.hpp:77] Creating layer roi-pool
I0413 18:20:12.818892 13000 net.cpp:100] Creating Layer roi-pool
I0413 18:20:12.818895 13000 net.cpp:434] roi-pool <- conv5_3_relu5_3_0_split_1
I0413 18:20:12.818900 13000 net.cpp:434] roi-pool <- rois
I0413 18:20:12.818907 13000 net.cpp:408] roi-pool -> roi-pool
I0413 18:20:12.818914 13000 roi_pooling_layer.cpp:33] Spatial scale: 0.0625
I0413 18:20:12.818924 13000 roi_pooling_layer.cpp:34] Box scale: 1
I0413 18:20:12.818961 13000 net.cpp:150] Setting up roi-pool
I0413 18:20:12.818970 13000 net.cpp:157] Top shape: 1 512 7 7 (25088)
I0413 18:20:12.818974 13000 net.cpp:165] Memory required for data: 3647633640
I0413 18:20:12.818977 13000 layer_factory.hpp:77] Creating layer fc6
I0413 18:20:12.818984 13000 net.cpp:100] Creating Layer fc6
I0413 18:20:12.818986 13000 net.cpp:434] fc6 <- roi-pool
I0413 18:20:12.818994 13000 net.cpp:408] fc6 -> fc6
I0413 18:20:12.982794 13000 net.cpp:150] Setting up fc6
I0413 18:20:12.982828 13000 net.cpp:157] Top shape: 1 4096 (4096)
I0413 18:20:12.982832 13000 net.cpp:165] Memory required for data: 3647650024
I0413 18:20:12.982844 13000 layer_factory.hpp:77] Creating layer relu6
I0413 18:20:12.982856 13000 net.cpp:100] Creating Layer relu6
I0413 18:20:12.982861 13000 net.cpp:434] relu6 <- fc6
I0413 18:20:12.982869 13000 net.cpp:395] relu6 -> fc6 (in-place)
I0413 18:20:12.982880 13000 net.cpp:150] Setting up relu6
I0413 18:20:12.982884 13000 net.cpp:157] Top shape: 1 4096 (4096)
I0413 18:20:12.982887 13000 net.cpp:165] Memory required for data: 3647666408
I0413 18:20:12.982890 13000 layer_factory.hpp:77] Creating layer drop6
I0413 18:20:12.982897 13000 net.cpp:100] Creating Layer drop6
I0413 18:20:12.982900 13000 net.cpp:434] drop6 <- fc6
I0413 18:20:12.982905 13000 net.cpp:395] drop6 -> fc6 (in-place)
I0413 18:20:12.982926 13000 net.cpp:150] Setting up drop6
I0413 18:20:12.982933 13000 net.cpp:157] Top shape: 1 4096 (4096)
I0413 18:20:12.982938 13000 net.cpp:165] Memory required for data: 3647682792
I0413 18:20:12.982940 13000 layer_factory.hpp:77] Creating layer fc7
I0413 18:20:12.982947 13000 net.cpp:100] Creating Layer fc7
I0413 18:20:12.982951 13000 net.cpp:434] fc7 <- fc6
I0413 18:20:12.982956 13000 net.cpp:408] fc7 -> fc7
I0413 18:20:13.010502 13000 net.cpp:150] Setting up fc7
I0413 18:20:13.010547 13000 net.cpp:157] Top shape: 1 4096 (4096)
I0413 18:20:13.010552 13000 net.cpp:165] Memory required for data: 3647699176
I0413 18:20:13.010565 13000 layer_factory.hpp:77] Creating layer relu7
I0413 18:20:13.010588 13000 net.cpp:100] Creating Layer relu7
I0413 18:20:13.010593 13000 net.cpp:434] relu7 <- fc7
I0413 18:20:13.010601 13000 net.cpp:395] relu7 -> fc7 (in-place)
I0413 18:20:13.010612 13000 net.cpp:150] Setting up relu7
I0413 18:20:13.010617 13000 net.cpp:157] Top shape: 1 4096 (4096)
I0413 18:20:13.010619 13000 net.cpp:165] Memory required for data: 3647715560
I0413 18:20:13.010622 13000 layer_factory.hpp:77] Creating layer drop7
I0413 18:20:13.010629 13000 net.cpp:100] Creating Layer drop7
I0413 18:20:13.010633 13000 net.cpp:434] drop7 <- fc7
I0413 18:20:13.010637 13000 net.cpp:395] drop7 -> fc7 (in-place)
I0413 18:20:13.010658 13000 net.cpp:150] Setting up drop7
I0413 18:20:13.010673 13000 net.cpp:157] Top shape: 1 4096 (4096)
I0413 18:20:13.010676 13000 net.cpp:165] Memory required for data: 3647731944
I0413 18:20:13.010680 13000 layer_factory.hpp:77] Creating layer loss_bbox
I0413 18:20:13.010686 13000 net.cpp:100] Creating Layer loss_bbox
I0413 18:20:13.010694 13000 net.cpp:434] loss_bbox <- fc7
I0413 18:20:13.010697 13000 net.cpp:434] loss_bbox <- bbox_targets
I0413 18:20:13.010702 13000 net.cpp:434] loss_bbox <- bbox_inside_weights
…
