…
I0413 18:19:16.126631 12947 solver.cpp:48] Initializing solver from parameters: 
base_lr: 0.001
display: 20
lr_policy: "multistep"
gamma: 0.1
momentum: 0.9
weight_decay: 0.0005
snapshot: 0
snapshot_prefix: "faces_example"
net_param {
  name: "GeneratedModel_13_04_2017_18_19"
  layer {
    name: "input"
    type: "Python"
    top: "input_data"
    top: "input_im_info"
    top: "input_gt_boxes"
    top: "input_ignored_boxes"
    python_param {
      module: "layers.roi_data_layer"
      layer: "RoIDataLayer"
      param_str: "{\"num_classes\": 2}"
    }
  }
  layer {
    name: "conv1_1"
    type: "Convolution"
    bottom: "input_data"
    top: "conv1_1"
    param {
      lr_mult: 0
      decay_mult: 0
    }
    param {
      lr_mult: 0
      decay_mult: 0
    }
    convolution_param {
      num_output: 64
      pad: 1
      kernel_size: 3
    }
  }
  layer {
    name: "relu1_1"
    type: "ReLU"
    bottom: "conv1_1"
    top: "conv1_1"
  }
  layer {
    name: "conv1_2"
    type: "Convolution"
    bottom: "conv1_1"
    top: "conv1_2"
    param {
      lr_mult: 0
      decay_mult: 0
    }
    param {
      lr_mult: 0
      decay_mult: 0
    }
    convolution_param {
      num_output: 64
      pad: 1
      kernel_size: 3
    }
  }
  layer {
    name: "relu1_2"
    type: "ReLU"
    bottom: "conv1_2"
    top: "conv1_2"
  }
  layer {
    name: "pool1"
    type: "Pooling"
    bottom: "conv1_2"
    top: "pool1"
    pooling_param {
      pool: MAX
      kernel_size: 2
      stride: 2
    }
  }
  layer {
    name: "conv2_1"
    type: "Convolution"
    bottom: "pool1"
    top: "conv2_1"
    param {
      lr_mult: 0
      decay_mult: 0
    }
    param {
      lr_mult: 0
      decay_mult: 0
    }
    convolution_param {
      num_output: 128
      pad: 1
      kernel_size: 3
    }
  }
  layer {
    name: "relu2_1"
    type: "ReLU"
    bottom: "conv2_1"
    top: "conv2_1"
  }
  layer {
    name: "conv2_2"
    type: "Convolution"
    bottom: "conv2_1"
    top: "conv2_2"
    param {
      lr_mult: 0
      decay_mult: 0
    }
    param {
      lr_mult: 0
      decay_mult: 0
    }
    convolution_param {
      num_output: 128
      pad: 1
      kernel_size: 3
    }
  }
  layer {
    name: "relu2_2"
    type: "ReLU"
    bottom: "conv2_2"
    top: "conv2_2"
  }
  layer {
    name: "pool2"
    type: "Pooling"
    bottom: "conv2_2"
    top: "pool2"
    pooling_param {
      pool: MAX
      kernel_size: 2
      stride: 2
    }
  }
  layer {
    name: "conv3_1"
    type: "Convolution"
    bottom: "pool2"
    top: "conv3_1"
    param {
      lr_mult: 1
    }
    param {
      lr_mult: 2
    }
    convolution_param {
      num_output: 256
      pad: 1
      kernel_size: 3
    }
  }
  layer {
    name: "relu3_1"
    type: "ReLU"
    bottom: "conv3_1"
    top: "conv3_1"
  }
  layer {
    name: "conv3_2"
    type: "Convolution"
    bottom: "conv3_1"
    top: "conv3_2"
    param {
      lr_mult: 1
    }
    param {
      lr_mult: 2
    }
    convolution_param {
      num_output: 256
      pad: 1
      kernel_size: 3
    }
  }
  layer {
    name: "relu3_2"
    type: "ReLU"
    bottom: "conv3_2"
    top: "conv3_2"
  }
  layer {
    name: "conv3_3"
    type: "Convolution"
    bottom: "conv3_2"
    top: "conv3_3"
    param {
      lr_mult: 1
    }
    param {
      lr_mult: 2
    }
    convolution_param {
      num_output: 256
      pad: 1
      kernel_size: 3
    }
  }
  layer {
    name: "relu3_3"
    type: "ReLU"
    bottom: "conv3_3"
    top: "conv3_3"
  }
  layer {
    name: "pool3"
    type: "Pooling"
    bottom: "conv3_3"
    top: "pool3"
    pooling_param {
      pool: MAX
      kernel_size: 2
      stride: 2
    }
  }
  layer {
    name: "conv4_1"
    type: "Convolution"
    bottom: "pool3"
    top: "conv4_1"
    param {
      lr_mult: 1
    }
    param {
      lr_mult: 2
    }
    convolution_param {
      num_output: 512
      pad: 1
      kernel_size: 3
    }
  }
  layer {
    name: "relu4_1"
    type: "ReLU"
    bottom: "conv4_1"
    top: "conv4_1"
  }
  layer {
    name: "conv4_2"
    type: "Convolution"
    bottom: "conv4_1"
    top: "conv4_2"
    param {
      lr_mult: 1
    }
    param {
      lr_mult: 2
    }
    convolution_param {
      num_output: 512
      pad: 1
      kernel_size: 3
    }
  }
  layer {
    name: "relu4_2"
    type: "ReLU"
    bottom: "conv4_2"
    top: "conv4_2"
  }
  layer {
    name: "conv4_3"
    type: "Convolution"
    bottom: "conv4_2"
    top: "conv4_3"
    param {
      lr_mult: 1
    }
    param {
      lr_mult: 2
    }
    convolution_param {
      num_output: 512
      pad: 1
      kernel_size: 3
    }
  }
  layer {
    name: "relu4_3"
    type: "ReLU"
    bottom: "conv4_3"
    top: "conv4_3"
  }
  layer {
    name: "pool4"
    type: "Pooling"
    bottom: "conv4_3"
    top: "pool4"
    pooling_param {
      pool: MAX
      kernel_size: 2
      stride: 2
    }
  }
  layer {
    name: "conv5_1"
    type: "Convolution"
    bottom: "pool4"
    top: "conv5_1"
    param {
      lr_mult: 1
    }
    param {
      lr_mult: 2
    }
    convolution_param {
      num_output: 512
      pad: 1
      kernel_size: 3
    }
  }
  layer {
    name: "relu5_1"
    type: "ReLU"
    bottom: "conv5_1"
    top: "conv5_1"
  }
  layer {
    name: "conv5_2"
    type: "Convolution"
    bottom: "conv5_1"
    top: "conv5_2"
    param {
      lr_mult: 1
    }
    param {
      lr_mult: 2
    }
    convolution_param {
      num_output: 512
      pad: 1
      kernel_size: 3
    }
  }
  layer {
    name: "relu5_2"
    type: "ReLU"
    bottom: "conv5_2"
    top: "conv5_2"
  }
  layer {
    name: "conv5_3"
    type: "Convolution"
    bottom: "conv5_2"
    top: "conv5_3"
    param {
      lr_mult: 1
    }
    param {
      lr_mult: 2
    }
    convolution_param {
      num_output: 512
      pad: 1
      kernel_size: 3
    }
  }
  layer {
    name: "relu5_3"
    type: "ReLU"
    bottom: "conv5_3"
    top: "conv5_3"
  }
  layer {
    name: "rpn_big_conv1"
    type: "Convolution"
    bottom: "conv5_3"
    top: "rpn_big_conv1"
    param {
      lr_mult: 1
    }
    param {
      lr_mult: 2
    }
    convolution_param {
      num_output: 512
      pad: 1
      kernel_size: 3
      stride: 1
      weight_filler {
        type: "gaussian"
        mean: 0
        std: 0.01
      }
      bias_filler {
        type: "constant"
      }
    }
  }
  layer {
    name: "rpn_big_conv1_relu"
    type: "ReLU"
    bottom: "rpn_big_conv1"
    top: "rpn_big_conv1"
    relu_param {
      negative_slope: 0
    }
  }
  layer {
    name: "rpn_big_conv2"
    type: "Convolution"
    bottom: "rpn_big_conv1"
    top: "rpn_big_conv2"
    param {
      lr_mult: 1
    }
    param {
      lr_mult: 2
    }
    convolution_param {
      num_output: 512
      pad: 1
      kernel_size: 3
      stride: 1
      weight_filler {
        type: "gaussian"
        mean: 0
        std: 0.01
      }
      bias_filler {
        type: "constant"
      }
    }
  }
  layer {
    name: "rpn_big_conv2_relu"
    type: "ReLU"
    bottom: "rpn_big_conv2"
    top: "rpn_big_conv2"
    relu_param {
      negative_slope: 0
    }
  }
  layer {
    name: "rpn_big_conv2_drop"
    type: "Dropout"
    bottom: "rpn_big_conv2"
    top: "rpn_big_conv2"
    dropout_param {
      dropout_ratio: 0.3
    }
  }
  layer {
    name: "rpn_big_output_cls"
    type: "Convolution"
    bottom: "rpn_big_conv2"
    top: "rpn_big_output_cls"
    param {
      lr_mult: 1
    }
    param {
      lr_mult: 2
    }
    convolution_param {
      num_output: 384
      pad: 1
      kernel_size: 3
      stride: 1
      weight_filler {
        type: "gaussian"
        mean: 0
        std: 0.01
      }
      bias_filler {
        type: "constant"
      }
    }
  }
  layer {
    name: "rpn_big_output_cls_relu"
    type: "ReLU"
    bottom: "rpn_big_output_cls"
    top: "rpn_big_output_cls"
    relu_param {
      negative_slope: 0
    }
  }
  layer {
    name: "rpn_big_cls_score"
    type: "Convolution"
    bottom: "rpn_big_output_cls"
    top: "rpn_big_cls_score"
    param {
      lr_mult: 1
    }
    param {
      lr_mult: 2
    }
    convolution_param {
      num_output: 52
      pad: 0
      kernel_size: 3
      stride: 1
      weight_filler {
        type: "gaussian"
        mean: 0
        std: 0.01
      }
      bias_filler {
        type: "constant"
      }
    }
  }
  layer {
    name: "rpn_big_cls_score_reshape"
    type: "Reshape"
    bottom: "rpn_big_cls_score"
    top: "rpn_big_cls_score_reshape"
    reshape_param {
      shape {
        dim: 0
        dim: 2
        dim: -1
        dim: 0
      }
    }
  }
  layer {
    name: "rpn_big_cls_prob"
    type: "Softmax"
    bottom: "rpn_big_cls_score_reshape"
    top: "rpn_big_cls_prob"
  }
  layer {
    name: "rpn_big_cls_prob_reshape"
    type: "Reshape"
    bottom: "rpn_big_cls_prob"
    top: "rpn_big_cls_prob_reshape"
    reshape_param {
      shape {
        dim: 0
        dim: 52
        dim: -1
        dim: 0
      }
    }
  }
  layer {
    name: "rpn_big_anchor_target"
    type: "Python"
    bottom: "rpn_big_cls_score"
    bottom: "input_gt_boxes"
    bottom: "input_ignored_boxes"
    bottom: "input_im_info"
    bottom: "input_data"
    bottom: "rpn_big_cls_prob_reshape"
    top: "rpn_big_anchor_target_labels"
    top: "rpn_big_anchor_target_bbox_targets"
    top: "rpn_big_anchor_target_inside_weights"
    top: "rpn_big_anchor_target_outside_weights"
    python_param {
      module: "rpn.anchor_target_layer"
      layer: "AnchorTargetLayer"
      param_str: "{\"batchsize\": 256, \"square_targets\": true, \"fg_fraction\": 0.5, \"feat_stride\": 16, \"negative_overlap\": 0.4, \"anchor_shift_num_xy\": [[2, 2], [2, 2], [2, 2], [2, 2], [1, 1], [1, 1], [1, 1], [1, 1], [1, 1], [1, 1], [1, 1], [1, 1], [1, 1], [1, 1]], \"positive_overlap\": 0.6, \"tn_fraction\": 0.2, \"anchor_ratios\": [1.0], \"name\": \"rpn_big\", \"num_classes\": 1, \"anchor_scales\": [2.5, 3.025, 3.66025, 4.4289024999999995, 5.358972025, 6.484356150249999, 7.846070941802498, 9.493745839581022, 11.487432465893036, 13.899793283730574, 16.818749873313998, 20.350687346709933, 24.62433168951902, 29.795441344318014]}"
    }
  }
  layer {
    name: "rpn_big_loss_cls"
    type: "SoftmaxWithLoss"
    bottom: "rpn_big_cls_score_reshape"
    bottom: "rpn_big_anchor_target_labels"
    top: "rpn_big_loss_cls"
    loss_weight: 1
    propagate_down: true
    propagate_down: false
    loss_param {
      ignore_label: -1
      normalization: VALID
    }
  }
  layer {
    name: "rpn_big_output_box"
    type: "Convolution"
    bottom: "rpn_big_conv2"
    top: "rpn_big_output_box"
    param {
      lr_mult: 1
    }
    param {
      lr_mult: 2
    }
    convolution_param {
      num_output: 384
      pad: 1
      kernel_size: 3
      stride: 1
      weight_filler {
        type: "gaussian"
        mean: 0
        std: 0.01
      }
      bias_filler {
        type: "constant"
      }
    }
  }
  layer {
    name: "rpn_big_output_box_relu"
    type: "ReLU"
    bottom: "rpn_big_output_box"
    top: "rpn_big_output_box"
    relu_param {
      negative_slope: 0
    }
  }
  layer {
    name: "rpn_big_bbox_pred"
    type: "Convolution"
    bottom: "rpn_big_output_box"
    top: "rpn_big_bbox_pred"
    param {
      lr_mult: 1
    }
    param {
      lr_mult: 2
    }
    convolution_param {
      num_output: 104
      pad: 0
      kernel_size: 3
      stride: 1
      weight_filler {
        type: "gaussian"
        mean: 0
        std: 0.01
      }
      bias_filler {
        type: "constant"
      }
    }
  }
  layer {
    name: "rpn_big_loss_bbox"
    type: "Python"
    bottom: "rpn_big_bbox_pred"
    bottom: "rpn_big_anchor_target_bbox_targets"
    bottom: "rpn_big_anchor_target_inside_weights"
    bottom: "rpn_big_anchor_target_outside_weights"
    top: "rpn_big_loss_bbox"
    loss_weight: 1
    python_param {
      module: "layers.smooth_l1_loss"
      layer: "SmoothL1LossLayer"
      param_str: "{\"sigma\": 3}"
    }
  }
  layer {
    name: "proposal"
    type: "Python"
    bottom: "rpn_big_cls_prob_reshape"
    bottom: "rpn_big_bbox_pred"
    bottom: "input_im_info"
    top: "rpn_rois"
    python_param {
      module: "rpn.proposal_layer"
      layer: "ProposalLayer"
      param_str: "{\"anchor_shift_num_xy\": [[2, 2], [2, 2], [2, 2], [2, 2], [1, 1], [1, 1], [1, 1], [1, 1], [1, 1], [1, 1], [1, 1], [1, 1], [1, 1], [1, 1]], \"feat_stride\": 16, \"num_classes\": 1, \"anchor_scales\": [2.5, 3.025, 3.66025, 4.4289024999999995, 5.358972025, 6.484356150249999, 7.846070941802498, 9.493745839581022, 11.487432465893036, 13.899793283730574, 16.818749873313998, 20.350687346709933, 24.62433168951902, 29.795441344318014], \"square_targets\": true, \"name\": \"rpn_big\", \"batchsize\": 256, \"anchor_ratios\": [1.0]}"
    }
  }
  layer {
    name: "roi-data"
    type: "Python"
    bottom: "rpn_rois"
    bottom: "input_gt_boxes"
    top: "rois"
    top: "labels"
    top: "bbox_targets"
    top: "bbox_inside_weights"
    top: "bbox_outside_weights"
    top: "pid_label"
    python_param {
      module: "rpn.proposal_target_layer"
      layer: "ProposalTargetLayer"
      param_str: "{\"num_classes\": 2, \"bg_aux_label\": 5532}"
    }
  }
  layer {
    name: "roi-pool"
    type: "ROIPooling"
    bottom: "conv5_3"
    bottom: "rois"
    top: "roi-pool"
    roi_pooling_param {
      pooled_h: 7
      pooled_w: 7
      spatial_scale: 0.0625
    }
  }
  layer {
    name: "fc6"
    type: "InnerProduct"
    bottom: "roi-pool"
    top: "fc6"
    param {
      lr_mult: 1
    }
    param {
      lr_mult: 2
    }
    inner_product_param {
      num_output: 4096
    }
  }
  layer {
    name: "relu6"
    type: "ReLU"
    bottom: "fc6"
    top: "fc6"
  }
  layer {
    name: "drop6"
    type: "Dropout"
    bottom: "fc6"
    top: "fc6"
    dropout_param {
      dropout_ratio: 0.5
    }
  }
  layer {
    name: "fc7"
    type: "InnerProduct"
    bottom: "fc6"
    top: "fc7"
    param {
      lr_mult: 1
    }
    param {
      lr_mult: 2
    }
    inner_product_param {
      num_output: 4096
    }
  }
  layer {
    name: "relu7"
    type: "ReLU"
    bottom: "fc7"
    top: "fc7"
  }
  layer {
    name: "drop7"
    type: "Dropout"
    bottom: "fc7"
    top: "fc7"
    dropout_param {
      dropout_ratio: 0.5
    }
  }
  layer {
    name: "bbox_pred"
    type: "InnerProduct"
    bottom: "fc7"
    top: "bbox_pred"
    param {
      lr_mult: 1
    }
    param {
      lr_mult: 2
    }
  }
  layer {
    name: "loss_bbox"
    type: "SmoothL1Loss"
    bottom: "bbox_pred"
    bottom: "bbox_targets"
    bottom: "bbox_inside_weights"
    bottom: "bbox_outside_weights"
    top: "loss_bbox"
    loss_weight: 1
  }
}
average_loss: 100
stepvalue: 70000
stepvalue: 120000
iter_size: 2
I0413 18:19:16.126778 12947 solver.cpp:86] Creating training net specified in net_param.
I0413 18:19:16.127780 12947 net.cpp:58] Initializing net from parameters: 
name: "GeneratedModel_13_04_2017_18_19"
state {
  phase: TRAIN
}
layer {
  name: "input"
  type: "Python"
  top: "input_data"
  top: "input_im_info"
  top: "input_gt_boxes"
  top: "input_ignored_boxes"
  python_param {
    module: "layers.roi_data_layer"
    layer: "RoIDataLayer"
    param_str: "{\"num_classes\": 2}"
  }
}
layer {
  name: "conv1_1"
  type: "Convolution"
  bottom: "input_data"
  top: "conv1_1"
  param {
    lr_mult: 0
    decay_mult: 0
  }
  param {
    lr_mult: 0
    decay_mult: 0
  }
  convolution_param {
    num_output: 64
    pad: 1
    kernel_size: 3
  }
}
layer {
  name: "relu1_1"
  type: "ReLU"
  bottom: "conv1_1"
  top: "conv1_1"
}
layer {
  name: "conv1_2"
  type: "Convolution"
  bottom: "conv1_1"
  top: "conv1_2"
  param {
    lr_mult: 0
    decay_mult: 0
  }
  param {
    lr_mult: 0
    decay_mult: 0
  }
  convolution_param {
    num_output: 64
    pad: 1
    kernel_size: 3
  }
}
layer {
  name: "relu1_2"
  type: "ReLU"
  bottom: "conv1_2"
  top: "conv1_2"
}
layer {
  name: "pool1"
  type: "Pooling"
  bottom: "conv1_2"
  top: "pool1"
  pooling_param {
    pool: MAX
    kernel_size: 2
    stride: 2
  }
}
layer {
  name: "conv2_1"
  type: "Convolution"
  bottom: "pool1"
  top: "conv2_1"
  param {
    lr_mult: 0
    decay_mult: 0
  }
  param {
    lr_mult: 0
    decay_mult: 0
  }
  convolution_param {
    num_output: 128
    pad: 1
    kernel_size: 3
  }
}
layer {
  name: "relu2_1"
  type: "ReLU"
  bottom: "conv2_1"
  top: "conv2_1"
}
layer {
  name: "conv2_2"
  type: "Convolution"
  bottom: "conv2_1"
  top: "conv2_2"
  param {
    lr_mult: 0
    decay_mult: 0
  }
  param {
    lr_mult: 0
    decay_mult: 0
  }
  convolution_param {
    num_output: 128
    pad: 1
    kernel_size: 3
  }
}
layer {
  name: "relu2_2"
  type: "ReLU"
  bottom: "conv2_2"
  top: "conv2_2"
}
layer {
  name: "pool2"
  type: "Pooling"
  bottom: "conv2_2"
  top: "pool2"
  pooling_param {
    pool: MAX
    kernel_size: 2
    stride: 2
  }
}
layer {
  name: "conv3_1"
  type: "Convolution"
  bottom: "pool2"
  top: "conv3_1"
  param {
    lr_mult: 1
  }
  param {
    lr_mult: 2
  }
  convolution_param {
    num_output: 256
    pad: 1
    kernel_size: 3
  }
}
layer {
  name: "relu3_1"
  type: "ReLU"
  bottom: "conv3_1"
  top: "conv3_1"
}
layer {
  name: "conv3_2"
  type: "Convolution"
  bottom: "conv3_1"
  top: "conv3_2"
  param {
    lr_mult: 1
  }
  param {
    lr_mult: 2
  }
  convolution_param {
    num_output: 256
    pad: 1
    kernel_size: 3
  }
}
layer {
  name: "relu3_2"
  type: "ReLU"
  bottom: "conv3_2"
  top: "conv3_2"
}
layer {
  name: "conv3_3"
  type: "Convolution"
  bottom: "conv3_2"
  top: "conv3_3"
  param {
    lr_mult: 1
  }
  param {
    lr_mult: 2
  }
  convolution_param {
    num_output: 256
    pad: 1
    kernel_size: 3
  }
}
layer {
  name: "relu3_3"
  type: "ReLU"
  bottom: "conv3_3"
  top: "conv3_3"
}
layer {
  name: "pool3"
  type: "Pooling"
  bottom: "conv3_3"
  top: "pool3"
  pooling_param {
    pool: MAX
    kernel_size: 2
    stride: 2
  }
}
layer {
  name: "conv4_1"
  type: "Convolution"
  bottom: "pool3"
  top: "conv4_1"
  param {
    lr_mult: 1
  }
  param {
    lr_mult: 2
  }
  convolution_param {
    num_output: 512
    pad: 1
    kernel_size: 3
  }
}
layer {
  name: "relu4_1"
  type: "ReLU"
  bottom: "conv4_1"
  top: "conv4_1"
}
layer {
  name: "conv4_2"
  type: "Convolution"
  bottom: "conv4_1"
  top: "conv4_2"
  param {
    lr_mult: 1
  }
  param {
    lr_mult: 2
  }
  convolution_param {
    num_output: 512
    pad: 1
    kernel_size: 3
  }
}
layer {
  name: "relu4_2"
  type: "ReLU"
  bottom: "conv4_2"
  top: "conv4_2"
}
layer {
  name: "conv4_3"
  type: "Convolution"
  bottom: "conv4_2"
  top: "conv4_3"
  param {
    lr_mult: 1
  }
  param {
    lr_mult: 2
  }
  convolution_param {
    num_output: 512
    pad: 1
    kernel_size: 3
  }
}
layer {
  name: "relu4_3"
  type: "ReLU"
  bottom: "conv4_3"
  top: "conv4_3"
}
layer {
  name: "pool4"
  type: "Pooling"
  bottom: "conv4_3"
  top: "pool4"
  pooling_param {
    pool: MAX
    kernel_size: 2
    stride: 2
  }
}
layer {
  name: "conv5_1"
  type: "Convolution"
  bottom: "pool4"
  top: "conv5_1"
  param {
    lr_mult: 1
  }
  param {
    lr_mult: 2
  }
  convolution_param {
    num_output: 512
    pad: 1
    kernel_size: 3
  }
}
layer {
  name: "relu5_1"
  type: "ReLU"
  bottom: "conv5_1"
  top: "conv5_1"
}
layer {
  name: "conv5_2"
  type: "Convolution"
  bottom: "conv5_1"
  top: "conv5_2"
  param {
    lr_mult: 1
  }
  param {
    lr_mult: 2
  }
  convolution_param {
    num_output: 512
    pad: 1
    kernel_size: 3
  }
}
layer {
  name: "relu5_2"
  type: "ReLU"
  bottom: "conv5_2"
  top: "conv5_2"
}
layer {
  name: "conv5_3"
  type: "Convolution"
  bottom: "conv5_2"
  top: "conv5_3"
  param {
    lr_mult: 1
  }
  param {
    lr_mult: 2
  }
  convolution_param {
    num_output: 512
    pad: 1
    kernel_size: 3
  }
}
layer {
  name: "relu5_3"
  type: "ReLU"
  bottom: "conv5_3"
  top: "conv5_3"
}
layer {
  name: "rpn_big_conv1"
  type: "Convolution"
  bottom: "conv5_3"
  top: "rpn_big_conv1"
  param {
    lr_mult: 1
  }
  param {
    lr_mult: 2
  }
  convolution_param {
    num_output: 512
    pad: 1
    kernel_size: 3
    stride: 1
    weight_filler {
      type: "gaussian"
      mean: 0
      std: 0.01
    }
    bias_filler {
      type: "constant"
    }
  }
}
layer {
  name: "rpn_big_conv1_relu"
  type: "ReLU"
  bottom: "rpn_big_conv1"
  top: "rpn_big_conv1"
  relu_param {
    negative_slope: 0
  }
}
layer {
  name: "rpn_big_conv2"
  type: "Convolution"
  bottom: "rpn_big_conv1"
  top: "rpn_big_conv2"
  param {
    lr_mult: 1
  }
  param {
    lr_mult: 2
  }
  convolution_param {
    num_output: 512
    pad: 1
    kernel_size: 3
    stride: 1
    weight_filler {
      type: "gaussian"
      mean: 0
      std: 0.01
    }
    bias_filler {
      type: "constant"
    }
  }
}
layer {
  name: "rpn_big_conv2_relu"
  type: "ReLU"
  bottom: "rpn_big_conv2"
  top: "rpn_big_conv2"
  relu_param {
    negative_slope: 0
  }
}
layer {
  name: "rpn_big_conv2_drop"
  type: "Dropout"
  bottom: "rpn_big_conv2"
  top: "rpn_big_conv2"
  dropout_param {
    dropout_ratio: 0.3
  }
}
layer {
  name: "rpn_big_output_cls"
  type: "Convolution"
  bottom: "rpn_big_conv2"
  top: "rpn_big_output_cls"
  param {
    lr_mult: 1
  }
  param {
    lr_mult: 2
  }
  convolution_param {
    num_output: 384
    pad: 1
    kernel_size: 3
    stride: 1
    weight_filler {
      type: "gaussian"
      mean: 0
      std: 0.01
    }
    bias_filler {
      type: "constant"
    }
  }
}
layer {
  name: "rpn_big_output_cls_relu"
  type: "ReLU"
  bottom: "rpn_big_output_cls"
  top: "rpn_big_output_cls"
  relu_param {
    negative_slope: 0
  }
}
layer {
  name: "rpn_big_cls_score"
  type: "Convolution"
  bottom: "rpn_big_output_cls"
  top: "rpn_big_cls_score"
  param {
    lr_mult: 1
  }
  param {
    lr_mult: 2
  }
  convolution_param {
    num_output: 52
    pad: 0
    kernel_size: 3
    stride: 1
    weight_filler {
      type: "gaussian"
      mean: 0
      std: 0.01
    }
    bias_filler {
      type: "constant"
    }
  }
}
layer {
  name: "rpn_big_cls_score_reshape"
  type: "Reshape"
  bottom: "rpn_big_cls_score"
  top: "rpn_big_cls_score_reshape"
  reshape_param {
    shape {
      dim: 0
      dim: 2
      dim: -1
      dim: 0
    }
  }
}
layer {
  name: "rpn_big_cls_prob"
  type: "Softmax"
  bottom: "rpn_big_cls_score_reshape"
  top: "rpn_big_cls_prob"
}
layer {
  name: "rpn_big_cls_prob_reshape"
  type: "Reshape"
  bottom: "rpn_big_cls_prob"
  top: "rpn_big_cls_prob_reshape"
  reshape_param {
    shape {
      dim: 0
      dim: 52
      dim: -1
      dim: 0
    }
  }
}
layer {
  name: "rpn_big_anchor_target"
  type: "Python"
  bottom: "rpn_big_cls_score"
  bottom: "input_gt_boxes"
  bottom: "input_ignored_boxes"
  bottom: "input_im_info"
  bottom: "input_data"
  bottom: "rpn_big_cls_prob_reshape"
  top: "rpn_big_anchor_target_labels"
  top: "rpn_big_anchor_target_bbox_targets"
  top: "rpn_big_anchor_target_inside_weights"
  top: "rpn_big_anchor_target_outside_weights"
  python_param {
    module: "rpn.anchor_target_layer"
    layer: "AnchorTargetLayer"
    param_str: "{\"batchsize\": 256, \"square_targets\": true, \"fg_fraction\": 0.5, \"feat_stride\": 16, \"negative_overlap\": 0.4, \"anchor_shift_num_xy\": [[2, 2], [2, 2], [2, 2], [2, 2], [1, 1], [1, 1], [1, 1], [1, 1], [1, 1], [1, 1], [1, 1], [1, 1], [1, 1], [1, 1]], \"positive_overlap\": 0.6, \"tn_fraction\": 0.2, \"anchor_ratios\": [1.0], \"name\": \"rpn_big\", \"num_classes\": 1, \"anchor_scales\": [2.5, 3.025, 3.66025, 4.4289024999999995, 5.358972025, 6.484356150249999, 7.846070941802498, 9.493745839581022, 11.487432465893036, 13.899793283730574, 16.818749873313998, 20.350687346709933, 24.62433168951902, 29.795441344318014]}"
  }
}
layer {
  name: "rpn_big_loss_cls"
  type: "SoftmaxWithLoss"
  bottom: "rpn_big_cls_score_reshape"
  bottom: "rpn_big_anchor_target_labels"
  top: "rpn_big_loss_cls"
  loss_weight: 1
  propagate_down: true
  propagate_down: false
  loss_param {
    ignore_label: -1
    normalization: VALID
  }
}
layer {
  name: "rpn_big_output_box"
  type: "Convolution"
  bottom: "rpn_big_conv2"
  top: "rpn_big_output_box"
  param {
    lr_mult: 1
  }
  param {
    lr_mult: 2
  }
  convolution_param {
    num_output: 384
    pad: 1
    kernel_size: 3
    stride: 1
    weight_filler {
      type: "gaussian"
      mean: 0
      std: 0.01
    }
    bias_filler {
      type: "constant"
    }
  }
}
layer {
  name: "rpn_big_output_box_relu"
  type: "ReLU"
  bottom: "rpn_big_output_box"
  top: "rpn_big_output_box"
  relu_param {
    negative_slope: 0
  }
}
layer {
  name: "rpn_big_bbox_pred"
  type: "Convolution"
  bottom: "rpn_big_output_box"
  top: "rpn_big_bbox_pred"
  param {
    lr_mult: 1
  }
  param {
    lr_mult: 2
  }
  convolution_param {
    num_output: 104
    pad: 0
    kernel_size: 3
    stride: 1
    weight_filler {
      type: "gaussian"
      mean: 0
      std: 0.01
    }
    bias_filler {
      type: "constant"
    }
  }
}
layer {
  name: "rpn_big_loss_bbox"
  type: "Python"
  bottom: "rpn_big_bbox_pred"
  bottom: "rpn_big_anchor_target_bbox_targets"
  bottom: "rpn_big_anchor_target_inside_weights"
  bottom: "rpn_big_anchor_target_outside_weights"
  top: "rpn_big_loss_bbox"
  loss_weight: 1
  python_param {
    module: "layers.smooth_l1_loss"
    layer: "SmoothL1LossLayer"
    param_str: "{\"sigma\": 3}"
  }
}
layer {
  name: "proposal"
  type: "Python"
  bottom: "rpn_big_cls_prob_reshape"
  bottom: "rpn_big_bbox_pred"
  bottom: "input_im_info"
  top: "rpn_rois"
  python_param {
    module: "rpn.proposal_layer"
    layer: "ProposalLayer"
    param_str: "{\"anchor_shift_num_xy\": [[2, 2], [2, 2], [2, 2], [2, 2], [1, 1], [1, 1], [1, 1], [1, 1], [1, 1], [1, 1], [1, 1], [1, 1], [1, 1], [1, 1]], \"feat_stride\": 16, \"num_classes\": 1, \"anchor_scales\": [2.5, 3.025, 3.66025, 4.4289024999999995, 5.358972025, 6.484356150249999, 7.846070941802498, 9.493745839581022, 11.487432465893036, 13.899793283730574, 16.818749873313998, 20.350687346709933, 24.62433168951902, 29.795441344318014], \"square_targets\": true, \"name\": \"rpn_big\", \"batchsize\": 256, \"anchor_ratios\": [1.0]}"
  }
}
layer {
  name: "roi-data"
  type: "Python"
  bottom: "rpn_rois"
  bottom: "input_gt_boxes"
  top: "rois"
  top: "labels"
  top: "bbox_targets"
  top: "bbox_inside_weights"
  top: "bbox_outside_weights"
  top: "pid_label"
  python_param {
    module: "rpn.proposal_target_layer"
    layer: "ProposalTargetLayer"
    param_str: "{\"num_classes\": 2, \"bg_aux_label\": 5532}"
  }
}
layer {
  name: "roi-pool"
  type: "ROIPooling"
  bottom: "conv5_3"
  bottom: "rois"
  top: "roi-pool"
  roi_pooling_param {
    pooled_h: 7
    pooled_w: 7
    spatial_scale: 0.0625
  }
}
layer {
  name: "fc6"
  type: "InnerProduct"
  bottom: "roi-pool"
  top: "fc6"
  param {
    lr_mult: 1
  }
  param {
    lr_mult: 2
  }
  inner_product_param {
    num_output: 4096
  }
}
layer {
  name: "relu6"
  type: "ReLU"
  bottom: "fc6"
  top: "fc6"
}
layer {
  name: "drop6"
  type: "Dropout"
  bottom: "fc6"
  top: "fc6"
  dropout_param {
    dropout_ratio: 0.5
  }
}
layer {
  name: "fc7"
  type: "InnerProduct"
  bottom: "fc6"
  top: "fc7"
  param {
    lr_mult: 1
  }
  param {
    lr_mult: 2
  }
  inner_product_param {
    num_output: 4096
  }
}
layer {
  name: "relu7"
  type: "ReLU"
  bottom: "fc7"
  top: "fc7"
}
layer {
  name: "drop7"
  type: "Dropout"
  bottom: "fc7"
  top: "fc7"
  dropout_param {
    dropout_ratio: 0.5
  }
}
layer {
  name: "bbox_pred"
  type: "InnerProduct"
  bottom: "fc7"
  top: "bbox_pred"
  param {
    lr_mult: 1
  }
  param {
    lr_mult: 2
  }
}
layer {
  name: "loss_bbox"
  type: "SmoothL1Loss"
  bottom: "bbox_pred"
  bottom: "bbox_targets"
  bottom: "bbox_inside_weights"
  bottom: "bbox_outside_weights"
  top: "loss_bbox"
  loss_weight: 1
}
I0413 18:19:16.128255 12947 layer_factory.hpp:77] Creating layer input
I0413 18:19:16.130663 12947 net.cpp:100] Creating Layer input
I0413 18:19:16.130694 12947 net.cpp:408] input -> input_data
I0413 18:19:16.130715 12947 net.cpp:408] input -> input_im_info
I0413 18:19:16.130731 12947 net.cpp:408] input -> input_gt_boxes
I0413 18:19:16.130748 12947 net.cpp:408] input -> input_ignored_boxes
RoiDataLayer: name_to_top: {'ignored_boxes': 3, 'gt_boxes': 2, 'im_info': 1, 'data': 0}
I0413 18:19:16.451990 12947 net.cpp:150] Setting up input
I0413 18:19:16.452018 12947 net.cpp:157] Top shape: 1 3 1000 1500 (4500000)
I0413 18:19:16.452026 12947 net.cpp:157] Top shape: 1 3 (3)
I0413 18:19:16.452033 12947 net.cpp:157] Top shape: 1 5 (5)
I0413 18:19:16.452039 12947 net.cpp:157] Top shape: 1 5 (5)
I0413 18:19:16.452044 12947 net.cpp:165] Memory required for data: 18000052
I0413 18:19:16.452054 12947 layer_factory.hpp:77] Creating layer input_data_input_0_split
I0413 18:19:16.452071 12947 net.cpp:100] Creating Layer input_data_input_0_split
I0413 18:19:16.452080 12947 net.cpp:434] input_data_input_0_split <- input_data
I0413 18:19:16.452101 12947 net.cpp:408] input_data_input_0_split -> input_data_input_0_split_0
I0413 18:19:16.452122 12947 net.cpp:408] input_data_input_0_split -> input_data_input_0_split_1
I0413 18:19:16.452168 12947 net.cpp:150] Setting up input_data_input_0_split
I0413 18:19:16.452179 12947 net.cpp:157] Top shape: 1 3 1000 1500 (4500000)
I0413 18:19:16.452188 12947 net.cpp:157] Top shape: 1 3 1000 1500 (4500000)
I0413 18:19:16.452195 12947 net.cpp:165] Memory required for data: 54000052
I0413 18:19:16.452203 12947 layer_factory.hpp:77] Creating layer input_im_info_input_1_split
I0413 18:19:16.452216 12947 net.cpp:100] Creating Layer input_im_info_input_1_split
I0413 18:19:16.452224 12947 net.cpp:434] input_im_info_input_1_split <- input_im_info
I0413 18:19:16.452232 12947 net.cpp:408] input_im_info_input_1_split -> input_im_info_input_1_split_0
I0413 18:19:16.452244 12947 net.cpp:408] input_im_info_input_1_split -> input_im_info_input_1_split_1
I0413 18:19:16.452282 12947 net.cpp:150] Setting up input_im_info_input_1_split
I0413 18:19:16.452292 12947 net.cpp:157] Top shape: 1 3 (3)
I0413 18:19:16.452301 12947 net.cpp:157] Top shape: 1 3 (3)
I0413 18:19:16.452307 12947 net.cpp:165] Memory required for data: 54000076
I0413 18:19:16.452313 12947 layer_factory.hpp:77] Creating layer input_gt_boxes_input_2_split
I0413 18:19:16.452324 12947 net.cpp:100] Creating Layer input_gt_boxes_input_2_split
I0413 18:19:16.452332 12947 net.cpp:434] input_gt_boxes_input_2_split <- input_gt_boxes
I0413 18:19:16.452343 12947 net.cpp:408] input_gt_boxes_input_2_split -> input_gt_boxes_input_2_split_0
I0413 18:19:16.452358 12947 net.cpp:408] input_gt_boxes_input_2_split -> input_gt_boxes_input_2_split_1
I0413 18:19:16.452394 12947 net.cpp:150] Setting up input_gt_boxes_input_2_split
I0413 18:19:16.452404 12947 net.cpp:157] Top shape: 1 5 (5)
I0413 18:19:16.452414 12947 net.cpp:157] Top shape: 1 5 (5)
I0413 18:19:16.452421 12947 net.cpp:165] Memory required for data: 54000116
I0413 18:19:16.452427 12947 layer_factory.hpp:77] Creating layer conv1_1
I0413 18:19:16.452446 12947 net.cpp:100] Creating Layer conv1_1
I0413 18:19:16.452453 12947 net.cpp:434] conv1_1 <- input_data_input_0_split_0
I0413 18:19:16.452466 12947 net.cpp:408] conv1_1 -> conv1_1
I0413 18:19:16.455546 12947 net.cpp:150] Setting up conv1_1
I0413 18:19:16.455584 12947 net.cpp:157] Top shape: 1 64 1000 1500 (96000000)
I0413 18:19:16.455590 12947 net.cpp:165] Memory required for data: 438000116
I0413 18:19:16.455616 12947 layer_factory.hpp:77] Creating layer relu1_1
I0413 18:19:16.455633 12947 net.cpp:100] Creating Layer relu1_1
I0413 18:19:16.455641 12947 net.cpp:434] relu1_1 <- conv1_1
I0413 18:19:16.455656 12947 net.cpp:395] relu1_1 -> conv1_1 (in-place)
I0413 18:19:16.455673 12947 net.cpp:150] Setting up relu1_1
I0413 18:19:16.455682 12947 net.cpp:157] Top shape: 1 64 1000 1500 (96000000)
I0413 18:19:16.455690 12947 net.cpp:165] Memory required for data: 822000116
I0413 18:19:16.455696 12947 layer_factory.hpp:77] Creating layer conv1_2
I0413 18:19:16.455713 12947 net.cpp:100] Creating Layer conv1_2
I0413 18:19:16.455718 12947 net.cpp:434] conv1_2 <- conv1_1
I0413 18:19:16.455731 12947 net.cpp:408] conv1_2 -> conv1_2
I0413 18:19:16.461257 12947 net.cpp:150] Setting up conv1_2
I0413 18:19:16.461295 12947 net.cpp:157] Top shape: 1 64 1000 1500 (96000000)
I0413 18:19:16.461302 12947 net.cpp:165] Memory required for data: 1206000116
I0413 18:19:16.461325 12947 layer_factory.hpp:77] Creating layer relu1_2
I0413 18:19:16.461366 12947 net.cpp:100] Creating Layer relu1_2
I0413 18:19:16.461376 12947 net.cpp:434] relu1_2 <- conv1_2
I0413 18:19:16.461387 12947 net.cpp:395] relu1_2 -> conv1_2 (in-place)
I0413 18:19:16.461405 12947 net.cpp:150] Setting up relu1_2
I0413 18:19:16.461431 12947 net.cpp:157] Top shape: 1 64 1000 1500 (96000000)
I0413 18:19:16.461450 12947 net.cpp:165] Memory required for data: 1590000116
I0413 18:19:16.461469 12947 layer_factory.hpp:77] Creating layer pool1
I0413 18:19:16.461494 12947 net.cpp:100] Creating Layer pool1
I0413 18:19:16.461513 12947 net.cpp:434] pool1 <- conv1_2
I0413 18:19:16.461536 12947 net.cpp:408] pool1 -> pool1
I0413 18:19:16.461637 12947 net.cpp:150] Setting up pool1
I0413 18:19:16.461660 12947 net.cpp:157] Top shape: 1 64 500 750 (24000000)
I0413 18:19:16.461678 12947 net.cpp:165] Memory required for data: 1686000116
I0413 18:19:16.461696 12947 layer_factory.hpp:77] Creating layer conv2_1
I0413 18:19:16.461726 12947 net.cpp:100] Creating Layer conv2_1
I0413 18:19:16.461746 12947 net.cpp:434] conv2_1 <- pool1
I0413 18:19:16.461769 12947 net.cpp:408] conv2_1 -> conv2_1
I0413 18:19:16.463068 12947 net.cpp:150] Setting up conv2_1
I0413 18:19:16.463091 12947 net.cpp:157] Top shape: 1 128 500 750 (48000000)
I0413 18:19:16.463095 12947 net.cpp:165] Memory required for data: 1878000116
I0413 18:19:16.463117 12947 layer_factory.hpp:77] Creating layer relu2_1
I0413 18:19:16.463127 12947 net.cpp:100] Creating Layer relu2_1
I0413 18:19:16.463135 12947 net.cpp:434] relu2_1 <- conv2_1
I0413 18:19:16.463145 12947 net.cpp:395] relu2_1 -> conv2_1 (in-place)
I0413 18:19:16.463158 12947 net.cpp:150] Setting up relu2_1
I0413 18:19:16.463174 12947 net.cpp:157] Top shape: 1 128 500 750 (48000000)
I0413 18:19:16.463181 12947 net.cpp:165] Memory required for data: 2070000116
I0413 18:19:16.463188 12947 layer_factory.hpp:77] Creating layer conv2_2
I0413 18:19:16.463201 12947 net.cpp:100] Creating Layer conv2_2
I0413 18:19:16.463207 12947 net.cpp:434] conv2_2 <- conv2_1
I0413 18:19:16.463218 12947 net.cpp:408] conv2_2 -> conv2_2
I0413 18:19:16.464249 12947 net.cpp:150] Setting up conv2_2
I0413 18:19:16.464272 12947 net.cpp:157] Top shape: 1 128 500 750 (48000000)
I0413 18:19:16.464275 12947 net.cpp:165] Memory required for data: 2262000116
I0413 18:19:16.464293 12947 layer_factory.hpp:77] Creating layer relu2_2
I0413 18:19:16.464300 12947 net.cpp:100] Creating Layer relu2_2
I0413 18:19:16.464305 12947 net.cpp:434] relu2_2 <- conv2_2
I0413 18:19:16.464316 12947 net.cpp:395] relu2_2 -> conv2_2 (in-place)
I0413 18:19:16.464330 12947 net.cpp:150] Setting up relu2_2
I0413 18:19:16.464339 12947 net.cpp:157] Top shape: 1 128 500 750 (48000000)
I0413 18:19:16.464344 12947 net.cpp:165] Memory required for data: 2454000116
I0413 18:19:16.464350 12947 layer_factory.hpp:77] Creating layer pool2
I0413 18:19:16.464359 12947 net.cpp:100] Creating Layer pool2
I0413 18:19:16.464366 12947 net.cpp:434] pool2 <- conv2_2
I0413 18:19:16.464375 12947 net.cpp:408] pool2 -> pool2
I0413 18:19:16.464440 12947 net.cpp:150] Setting up pool2
I0413 18:19:16.464450 12947 net.cpp:157] Top shape: 1 128 250 375 (12000000)
I0413 18:19:16.464455 12947 net.cpp:165] Memory required for data: 2502000116
I0413 18:19:16.464468 12947 layer_factory.hpp:77] Creating layer conv3_1
I0413 18:19:16.464481 12947 net.cpp:100] Creating Layer conv3_1
I0413 18:19:16.464489 12947 net.cpp:434] conv3_1 <- pool2
I0413 18:19:16.464499 12947 net.cpp:408] conv3_1 -> conv3_1
I0413 18:19:16.465766 12947 net.cpp:150] Setting up conv3_1
I0413 18:19:16.465795 12947 net.cpp:157] Top shape: 1 256 250 375 (24000000)
I0413 18:19:16.465801 12947 net.cpp:165] Memory required for data: 2598000116
I0413 18:19:16.465822 12947 layer_factory.hpp:77] Creating layer relu3_1
I0413 18:19:16.465837 12947 net.cpp:100] Creating Layer relu3_1
I0413 18:19:16.465844 12947 net.cpp:434] relu3_1 <- conv3_1
I0413 18:19:16.465857 12947 net.cpp:395] relu3_1 -> conv3_1 (in-place)
I0413 18:19:16.465872 12947 net.cpp:150] Setting up relu3_1
I0413 18:19:16.465880 12947 net.cpp:157] Top shape: 1 256 250 375 (24000000)
I0413 18:19:16.465886 12947 net.cpp:165] Memory required for data: 2694000116
I0413 18:19:16.465893 12947 layer_factory.hpp:77] Creating layer conv3_2
I0413 18:19:16.465911 12947 net.cpp:100] Creating Layer conv3_2
I0413 18:19:16.465919 12947 net.cpp:434] conv3_2 <- conv3_1
I0413 18:19:16.465929 12947 net.cpp:408] conv3_2 -> conv3_2
I0413 18:19:16.467222 12947 net.cpp:150] Setting up conv3_2
I0413 18:19:16.467248 12947 net.cpp:157] Top shape: 1 256 250 375 (24000000)
I0413 18:19:16.467253 12947 net.cpp:165] Memory required for data: 2790000116
I0413 18:19:16.467267 12947 layer_factory.hpp:77] Creating layer relu3_2
I0413 18:19:16.467280 12947 net.cpp:100] Creating Layer relu3_2
I0413 18:19:16.467289 12947 net.cpp:434] relu3_2 <- conv3_2
I0413 18:19:16.467303 12947 net.cpp:395] relu3_2 -> conv3_2 (in-place)
I0413 18:19:16.467316 12947 net.cpp:150] Setting up relu3_2
I0413 18:19:16.467324 12947 net.cpp:157] Top shape: 1 256 250 375 (24000000)
I0413 18:19:16.467330 12947 net.cpp:165] Memory required for data: 2886000116
I0413 18:19:16.467337 12947 layer_factory.hpp:77] Creating layer conv3_3
I0413 18:19:16.467350 12947 net.cpp:100] Creating Layer conv3_3
I0413 18:19:16.467357 12947 net.cpp:434] conv3_3 <- conv3_2
I0413 18:19:16.467367 12947 net.cpp:408] conv3_3 -> conv3_3
I0413 18:19:16.469055 12947 net.cpp:150] Setting up conv3_3
I0413 18:19:16.469089 12947 net.cpp:157] Top shape: 1 256 250 375 (24000000)
I0413 18:19:16.469092 12947 net.cpp:165] Memory required for data: 2982000116
I0413 18:19:16.469107 12947 layer_factory.hpp:77] Creating layer relu3_3
I0413 18:19:16.469121 12947 net.cpp:100] Creating Layer relu3_3
I0413 18:19:16.469130 12947 net.cpp:434] relu3_3 <- conv3_3
I0413 18:19:16.469146 12947 net.cpp:395] relu3_3 -> conv3_3 (in-place)
I0413 18:19:16.469161 12947 net.cpp:150] Setting up relu3_3
I0413 18:19:16.469169 12947 net.cpp:157] Top shape: 1 256 250 375 (24000000)
I0413 18:19:16.469175 12947 net.cpp:165] Memory required for data: 3078000116
I0413 18:19:16.469182 12947 layer_factory.hpp:77] Creating layer pool3
I0413 18:19:16.469192 12947 net.cpp:100] Creating Layer pool3
I0413 18:19:16.469199 12947 net.cpp:434] pool3 <- conv3_3
I0413 18:19:16.469211 12947 net.cpp:408] pool3 -> pool3
I0413 18:19:16.469274 12947 net.cpp:150] Setting up pool3
I0413 18:19:16.469285 12947 net.cpp:157] Top shape: 1 256 125 188 (6016000)
I0413 18:19:16.469291 12947 net.cpp:165] Memory required for data: 3102064116
I0413 18:19:16.469300 12947 layer_factory.hpp:77] Creating layer conv4_1
I0413 18:19:16.469316 12947 net.cpp:100] Creating Layer conv4_1
I0413 18:19:16.469322 12947 net.cpp:434] conv4_1 <- pool3
I0413 18:19:16.469334 12947 net.cpp:408] conv4_1 -> conv4_1
I0413 18:19:16.472137 12947 net.cpp:150] Setting up conv4_1
I0413 18:19:16.472170 12947 net.cpp:157] Top shape: 1 512 125 188 (12032000)
I0413 18:19:16.472177 12947 net.cpp:165] Memory required for data: 3150192116
I0413 18:19:16.472192 12947 layer_factory.hpp:77] Creating layer relu4_1
I0413 18:19:16.472208 12947 net.cpp:100] Creating Layer relu4_1
I0413 18:19:16.472216 12947 net.cpp:434] relu4_1 <- conv4_1
I0413 18:19:16.472229 12947 net.cpp:395] relu4_1 -> conv4_1 (in-place)
I0413 18:19:16.472267 12947 net.cpp:150] Setting up relu4_1
I0413 18:19:16.472290 12947 net.cpp:157] Top shape: 1 512 125 188 (12032000)
I0413 18:19:16.472307 12947 net.cpp:165] Memory required for data: 3198320116
I0413 18:19:16.472316 12947 layer_factory.hpp:77] Creating layer conv4_2
I0413 18:19:16.472331 12947 net.cpp:100] Creating Layer conv4_2
I0413 18:19:16.472338 12947 net.cpp:434] conv4_2 <- conv4_1
I0413 18:19:16.472349 12947 net.cpp:408] conv4_2 -> conv4_2
I0413 18:19:16.476649 12947 net.cpp:150] Setting up conv4_2
I0413 18:19:16.476686 12947 net.cpp:157] Top shape: 1 512 125 188 (12032000)
I0413 18:19:16.476691 12947 net.cpp:165] Memory required for data: 3246448116
I0413 18:19:16.476712 12947 layer_factory.hpp:77] Creating layer relu4_2
I0413 18:19:16.476737 12947 net.cpp:100] Creating Layer relu4_2
I0413 18:19:16.476747 12947 net.cpp:434] relu4_2 <- conv4_2
I0413 18:19:16.476757 12947 net.cpp:395] relu4_2 -> conv4_2 (in-place)
I0413 18:19:16.476773 12947 net.cpp:150] Setting up relu4_2
I0413 18:19:16.476781 12947 net.cpp:157] Top shape: 1 512 125 188 (12032000)
I0413 18:19:16.476788 12947 net.cpp:165] Memory required for data: 3294576116
I0413 18:19:16.476794 12947 layer_factory.hpp:77] Creating layer conv4_3
I0413 18:19:16.476804 12947 net.cpp:100] Creating Layer conv4_3
I0413 18:19:16.476811 12947 net.cpp:434] conv4_3 <- conv4_2
I0413 18:19:16.476822 12947 net.cpp:408] conv4_3 -> conv4_3
I0413 18:19:16.481490 12947 net.cpp:150] Setting up conv4_3
I0413 18:19:16.481570 12947 net.cpp:157] Top shape: 1 512 125 188 (12032000)
I0413 18:19:16.481593 12947 net.cpp:165] Memory required for data: 3342704116
I0413 18:19:16.481624 12947 layer_factory.hpp:77] Creating layer relu4_3
I0413 18:19:16.481654 12947 net.cpp:100] Creating Layer relu4_3
I0413 18:19:16.481678 12947 net.cpp:434] relu4_3 <- conv4_3
I0413 18:19:16.481705 12947 net.cpp:395] relu4_3 -> conv4_3 (in-place)
I0413 18:19:16.481735 12947 net.cpp:150] Setting up relu4_3
I0413 18:19:16.481760 12947 net.cpp:157] Top shape: 1 512 125 188 (12032000)
I0413 18:19:16.481781 12947 net.cpp:165] Memory required for data: 3390832116
I0413 18:19:16.481812 12947 layer_factory.hpp:77] Creating layer pool4
I0413 18:19:16.481839 12947 net.cpp:100] Creating Layer pool4
I0413 18:19:16.481860 12947 net.cpp:434] pool4 <- conv4_3
I0413 18:19:16.481886 12947 net.cpp:408] pool4 -> pool4
I0413 18:19:16.481957 12947 net.cpp:150] Setting up pool4
I0413 18:19:16.481988 12947 net.cpp:157] Top shape: 1 512 63 94 (3032064)
I0413 18:19:16.482010 12947 net.cpp:165] Memory required for data: 3402960372
I0413 18:19:16.482031 12947 layer_factory.hpp:77] Creating layer conv5_1
I0413 18:19:16.482059 12947 net.cpp:100] Creating Layer conv5_1
I0413 18:19:16.482081 12947 net.cpp:434] conv5_1 <- pool4
I0413 18:19:16.482107 12947 net.cpp:408] conv5_1 -> conv5_1
I0413 18:19:16.488256 12947 net.cpp:150] Setting up conv5_1
I0413 18:19:16.488302 12947 net.cpp:157] Top shape: 1 512 63 94 (3032064)
I0413 18:19:16.488309 12947 net.cpp:165] Memory required for data: 3415088628
I0413 18:19:16.488324 12947 layer_factory.hpp:77] Creating layer relu5_1
I0413 18:19:16.488338 12947 net.cpp:100] Creating Layer relu5_1
I0413 18:19:16.488348 12947 net.cpp:434] relu5_1 <- conv5_1
I0413 18:19:16.488363 12947 net.cpp:395] relu5_1 -> conv5_1 (in-place)
I0413 18:19:16.488382 12947 net.cpp:150] Setting up relu5_1
I0413 18:19:16.488394 12947 net.cpp:157] Top shape: 1 512 63 94 (3032064)
I0413 18:19:16.488401 12947 net.cpp:165] Memory required for data: 3427216884
I0413 18:19:16.488409 12947 layer_factory.hpp:77] Creating layer conv5_2
I0413 18:19:16.488427 12947 net.cpp:100] Creating Layer conv5_2
I0413 18:19:16.488436 12947 net.cpp:434] conv5_2 <- conv5_1
I0413 18:19:16.488450 12947 net.cpp:408] conv5_2 -> conv5_2
I0413 18:19:16.496302 12947 net.cpp:150] Setting up conv5_2
I0413 18:19:16.496353 12947 net.cpp:157] Top shape: 1 512 63 94 (3032064)
I0413 18:19:16.496361 12947 net.cpp:165] Memory required for data: 3439345140
I0413 18:19:16.496376 12947 layer_factory.hpp:77] Creating layer relu5_2
I0413 18:19:16.496388 12947 net.cpp:100] Creating Layer relu5_2
I0413 18:19:16.496397 12947 net.cpp:434] relu5_2 <- conv5_2
I0413 18:19:16.496410 12947 net.cpp:395] relu5_2 -> conv5_2 (in-place)
I0413 18:19:16.496425 12947 net.cpp:150] Setting up relu5_2
I0413 18:19:16.496446 12947 net.cpp:157] Top shape: 1 512 63 94 (3032064)
I0413 18:19:16.496453 12947 net.cpp:165] Memory required for data: 3451473396
I0413 18:19:16.496459 12947 layer_factory.hpp:77] Creating layer conv5_3
I0413 18:19:16.496486 12947 net.cpp:100] Creating Layer conv5_3
I0413 18:19:16.496495 12947 net.cpp:434] conv5_3 <- conv5_2
I0413 18:19:16.496505 12947 net.cpp:408] conv5_3 -> conv5_3
I0413 18:19:16.502266 12947 net.cpp:150] Setting up conv5_3
I0413 18:19:16.502341 12947 net.cpp:157] Top shape: 1 512 63 94 (3032064)
I0413 18:19:16.502362 12947 net.cpp:165] Memory required for data: 3463601652
I0413 18:19:16.502390 12947 layer_factory.hpp:77] Creating layer relu5_3
I0413 18:19:16.502419 12947 net.cpp:100] Creating Layer relu5_3
I0413 18:19:16.502439 12947 net.cpp:434] relu5_3 <- conv5_3
I0413 18:19:16.502462 12947 net.cpp:395] relu5_3 -> conv5_3 (in-place)
I0413 18:19:16.502488 12947 net.cpp:150] Setting up relu5_3
I0413 18:19:16.502509 12947 net.cpp:157] Top shape: 1 512 63 94 (3032064)
I0413 18:19:16.502526 12947 net.cpp:165] Memory required for data: 3475729908
I0413 18:19:16.502544 12947 layer_factory.hpp:77] Creating layer conv5_3_relu5_3_0_split
I0413 18:19:16.502568 12947 net.cpp:100] Creating Layer conv5_3_relu5_3_0_split
I0413 18:19:16.502586 12947 net.cpp:434] conv5_3_relu5_3_0_split <- conv5_3
I0413 18:19:16.502610 12947 net.cpp:408] conv5_3_relu5_3_0_split -> conv5_3_relu5_3_0_split_0
I0413 18:19:16.502635 12947 net.cpp:408] conv5_3_relu5_3_0_split -> conv5_3_relu5_3_0_split_1
I0413 18:19:16.502699 12947 net.cpp:150] Setting up conv5_3_relu5_3_0_split
I0413 18:19:16.502723 12947 net.cpp:157] Top shape: 1 512 63 94 (3032064)
I0413 18:19:16.502743 12947 net.cpp:157] Top shape: 1 512 63 94 (3032064)
I0413 18:19:16.502760 12947 net.cpp:165] Memory required for data: 3499986420
I0413 18:19:16.502777 12947 layer_factory.hpp:77] Creating layer rpn_big_conv1
I0413 18:19:16.502818 12947 net.cpp:100] Creating Layer rpn_big_conv1
I0413 18:19:16.502838 12947 net.cpp:434] rpn_big_conv1 <- conv5_3_relu5_3_0_split_0
I0413 18:19:16.502863 12947 net.cpp:408] rpn_big_conv1 -> rpn_big_conv1
I0413 18:19:16.536512 12947 net.cpp:150] Setting up rpn_big_conv1
I0413 18:19:16.536542 12947 net.cpp:157] Top shape: 1 512 63 94 (3032064)
I0413 18:19:16.536556 12947 net.cpp:165] Memory required for data: 3512114676
I0413 18:19:16.536566 12947 layer_factory.hpp:77] Creating layer rpn_big_conv1_relu
I0413 18:19:16.536577 12947 net.cpp:100] Creating Layer rpn_big_conv1_relu
I0413 18:19:16.536586 12947 net.cpp:434] rpn_big_conv1_relu <- rpn_big_conv1
I0413 18:19:16.536597 12947 net.cpp:395] rpn_big_conv1_relu -> rpn_big_conv1 (in-place)
I0413 18:19:16.536612 12947 net.cpp:150] Setting up rpn_big_conv1_relu
I0413 18:19:16.536620 12947 net.cpp:157] Top shape: 1 512 63 94 (3032064)
I0413 18:19:16.536625 12947 net.cpp:165] Memory required for data: 3524242932
I0413 18:19:16.536631 12947 layer_factory.hpp:77] Creating layer rpn_big_conv2
I0413 18:19:16.536648 12947 net.cpp:100] Creating Layer rpn_big_conv2
I0413 18:19:16.536654 12947 net.cpp:434] rpn_big_conv2 <- rpn_big_conv1
I0413 18:19:16.536661 12947 net.cpp:408] rpn_big_conv2 -> rpn_big_conv2
I0413 18:19:16.561599 12947 net.cpp:150] Setting up rpn_big_conv2
I0413 18:19:16.561630 12947 net.cpp:157] Top shape: 1 512 63 94 (3032064)
I0413 18:19:16.561642 12947 net.cpp:165] Memory required for data: 3536371188
I0413 18:19:16.561652 12947 layer_factory.hpp:77] Creating layer rpn_big_conv2_relu
I0413 18:19:16.561662 12947 net.cpp:100] Creating Layer rpn_big_conv2_relu
I0413 18:19:16.561668 12947 net.cpp:434] rpn_big_conv2_relu <- rpn_big_conv2
I0413 18:19:16.561676 12947 net.cpp:395] rpn_big_conv2_relu -> rpn_big_conv2 (in-place)
I0413 18:19:16.561686 12947 net.cpp:150] Setting up rpn_big_conv2_relu
I0413 18:19:16.561691 12947 net.cpp:157] Top shape: 1 512 63 94 (3032064)
I0413 18:19:16.561693 12947 net.cpp:165] Memory required for data: 3548499444
I0413 18:19:16.561697 12947 layer_factory.hpp:77] Creating layer rpn_big_conv2_drop
I0413 18:19:16.561704 12947 net.cpp:100] Creating Layer rpn_big_conv2_drop
I0413 18:19:16.561707 12947 net.cpp:434] rpn_big_conv2_drop <- rpn_big_conv2
I0413 18:19:16.561712 12947 net.cpp:395] rpn_big_conv2_drop -> rpn_big_conv2 (in-place)
I0413 18:19:16.561735 12947 net.cpp:150] Setting up rpn_big_conv2_drop
I0413 18:19:16.561743 12947 net.cpp:157] Top shape: 1 512 63 94 (3032064)
I0413 18:19:16.561746 12947 net.cpp:165] Memory required for data: 3560627700
I0413 18:19:16.561750 12947 layer_factory.hpp:77] Creating layer rpn_big_conv2_rpn_big_conv2_drop_0_split
I0413 18:19:16.561755 12947 net.cpp:100] Creating Layer rpn_big_conv2_rpn_big_conv2_drop_0_split
I0413 18:19:16.561759 12947 net.cpp:434] rpn_big_conv2_rpn_big_conv2_drop_0_split <- rpn_big_conv2
I0413 18:19:16.561766 12947 net.cpp:408] rpn_big_conv2_rpn_big_conv2_drop_0_split -> rpn_big_conv2_rpn_big_conv2_drop_0_split_0
I0413 18:19:16.561774 12947 net.cpp:408] rpn_big_conv2_rpn_big_conv2_drop_0_split -> rpn_big_conv2_rpn_big_conv2_drop_0_split_1
I0413 18:19:16.561812 12947 net.cpp:150] Setting up rpn_big_conv2_rpn_big_conv2_drop_0_split
I0413 18:19:16.561820 12947 net.cpp:157] Top shape: 1 512 63 94 (3032064)
I0413 18:19:16.561825 12947 net.cpp:157] Top shape: 1 512 63 94 (3032064)
I0413 18:19:16.561827 12947 net.cpp:165] Memory required for data: 3584884212
I0413 18:19:16.561830 12947 layer_factory.hpp:77] Creating layer rpn_big_output_cls
I0413 18:19:16.561843 12947 net.cpp:100] Creating Layer rpn_big_output_cls
I0413 18:19:16.561851 12947 net.cpp:434] rpn_big_output_cls <- rpn_big_conv2_rpn_big_conv2_drop_0_split_0
I0413 18:19:16.561864 12947 net.cpp:408] rpn_big_output_cls -> rpn_big_output_cls
I0413 18:19:16.580229 12947 net.cpp:150] Setting up rpn_big_output_cls
I0413 18:19:16.580260 12947 net.cpp:157] Top shape: 1 384 63 94 (2274048)
I0413 18:19:16.580263 12947 net.cpp:165] Memory required for data: 3593980404
I0413 18:19:16.580277 12947 layer_factory.hpp:77] Creating layer rpn_big_output_cls_relu
I0413 18:19:16.580293 12947 net.cpp:100] Creating Layer rpn_big_output_cls_relu
I0413 18:19:16.580304 12947 net.cpp:434] rpn_big_output_cls_relu <- rpn_big_output_cls
I0413 18:19:16.580317 12947 net.cpp:395] rpn_big_output_cls_relu -> rpn_big_output_cls (in-place)
I0413 18:19:16.580344 12947 net.cpp:150] Setting up rpn_big_output_cls_relu
I0413 18:19:16.580353 12947 net.cpp:157] Top shape: 1 384 63 94 (2274048)
I0413 18:19:16.580356 12947 net.cpp:165] Memory required for data: 3603076596
I0413 18:19:16.580363 12947 layer_factory.hpp:77] Creating layer rpn_big_cls_score
I0413 18:19:16.580380 12947 net.cpp:100] Creating Layer rpn_big_cls_score
I0413 18:19:16.580386 12947 net.cpp:434] rpn_big_cls_score <- rpn_big_output_cls
I0413 18:19:16.580396 12947 net.cpp:408] rpn_big_cls_score -> rpn_big_cls_score
I0413 18:19:16.582916 12947 net.cpp:150] Setting up rpn_big_cls_score
I0413 18:19:16.582942 12947 net.cpp:157] Top shape: 1 52 61 92 (291824)
I0413 18:19:16.582949 12947 net.cpp:165] Memory required for data: 3604243892
I0413 18:19:16.582972 12947 layer_factory.hpp:77] Creating layer rpn_big_cls_score_rpn_big_cls_score_0_split
I0413 18:19:16.582985 12947 net.cpp:100] Creating Layer rpn_big_cls_score_rpn_big_cls_score_0_split
I0413 18:19:16.582993 12947 net.cpp:434] rpn_big_cls_score_rpn_big_cls_score_0_split <- rpn_big_cls_score
I0413 18:19:16.583006 12947 net.cpp:408] rpn_big_cls_score_rpn_big_cls_score_0_split -> rpn_big_cls_score_rpn_big_cls_score_0_split_0
I0413 18:19:16.583039 12947 net.cpp:408] rpn_big_cls_score_rpn_big_cls_score_0_split -> rpn_big_cls_score_rpn_big_cls_score_0_split_1
I0413 18:19:16.583106 12947 net.cpp:150] Setting up rpn_big_cls_score_rpn_big_cls_score_0_split
I0413 18:19:16.583130 12947 net.cpp:157] Top shape: 1 52 61 92 (291824)
I0413 18:19:16.583150 12947 net.cpp:157] Top shape: 1 52 61 92 (291824)
I0413 18:19:16.583168 12947 net.cpp:165] Memory required for data: 3606578484
I0413 18:19:16.583186 12947 layer_factory.hpp:77] Creating layer rpn_big_cls_score_reshape
I0413 18:19:16.583209 12947 net.cpp:100] Creating Layer rpn_big_cls_score_reshape
I0413 18:19:16.583230 12947 net.cpp:434] rpn_big_cls_score_reshape <- rpn_big_cls_score_rpn_big_cls_score_0_split_0
I0413 18:19:16.583253 12947 net.cpp:408] rpn_big_cls_score_reshape -> rpn_big_cls_score_reshape
I0413 18:19:16.583303 12947 net.cpp:150] Setting up rpn_big_cls_score_reshape
I0413 18:19:16.583328 12947 net.cpp:157] Top shape: 1 2 1586 92 (291824)
I0413 18:19:16.583345 12947 net.cpp:165] Memory required for data: 3607745780
I0413 18:19:16.583364 12947 layer_factory.hpp:77] Creating layer rpn_big_cls_score_reshape_rpn_big_cls_score_reshape_0_split
I0413 18:19:16.583384 12947 net.cpp:100] Creating Layer rpn_big_cls_score_reshape_rpn_big_cls_score_reshape_0_split
I0413 18:19:16.583403 12947 net.cpp:434] rpn_big_cls_score_reshape_rpn_big_cls_score_reshape_0_split <- rpn_big_cls_score_reshape
I0413 18:19:16.583427 12947 net.cpp:408] rpn_big_cls_score_reshape_rpn_big_cls_score_reshape_0_split -> rpn_big_cls_score_reshape_rpn_big_cls_score_reshape_0_split_0
I0413 18:19:16.583453 12947 net.cpp:408] rpn_big_cls_score_reshape_rpn_big_cls_score_reshape_0_split -> rpn_big_cls_score_reshape_rpn_big_cls_score_reshape_0_split_1
I0413 18:19:16.583514 12947 net.cpp:150] Setting up rpn_big_cls_score_reshape_rpn_big_cls_score_reshape_0_split
I0413 18:19:16.583539 12947 net.cpp:157] Top shape: 1 2 1586 92 (291824)
I0413 18:19:16.583559 12947 net.cpp:157] Top shape: 1 2 1586 92 (291824)
I0413 18:19:16.583575 12947 net.cpp:165] Memory required for data: 3610080372
I0413 18:19:16.583592 12947 layer_factory.hpp:77] Creating layer rpn_big_cls_prob
I0413 18:19:16.583616 12947 net.cpp:100] Creating Layer rpn_big_cls_prob
I0413 18:19:16.583634 12947 net.cpp:434] rpn_big_cls_prob <- rpn_big_cls_score_reshape_rpn_big_cls_score_reshape_0_split_0
I0413 18:19:16.583657 12947 net.cpp:408] rpn_big_cls_prob -> rpn_big_cls_prob
I0413 18:19:16.583750 12947 net.cpp:150] Setting up rpn_big_cls_prob
I0413 18:19:16.583781 12947 net.cpp:157] Top shape: 1 2 1586 92 (291824)
I0413 18:19:16.583799 12947 net.cpp:165] Memory required for data: 3611247668
I0413 18:19:16.583817 12947 layer_factory.hpp:77] Creating layer rpn_big_cls_prob_reshape
I0413 18:19:16.583838 12947 net.cpp:100] Creating Layer rpn_big_cls_prob_reshape
I0413 18:19:16.583856 12947 net.cpp:434] rpn_big_cls_prob_reshape <- rpn_big_cls_prob
I0413 18:19:16.583878 12947 net.cpp:408] rpn_big_cls_prob_reshape -> rpn_big_cls_prob_reshape
I0413 18:19:16.583923 12947 net.cpp:150] Setting up rpn_big_cls_prob_reshape
I0413 18:19:16.583946 12947 net.cpp:157] Top shape: 1 52 61 92 (291824)
I0413 18:19:16.583964 12947 net.cpp:165] Memory required for data: 3612414964
I0413 18:19:16.583982 12947 layer_factory.hpp:77] Creating layer rpn_big_cls_prob_reshape_rpn_big_cls_prob_reshape_0_split
I0413 18:19:16.584003 12947 net.cpp:100] Creating Layer rpn_big_cls_prob_reshape_rpn_big_cls_prob_reshape_0_split
I0413 18:19:16.584022 12947 net.cpp:434] rpn_big_cls_prob_reshape_rpn_big_cls_prob_reshape_0_split <- rpn_big_cls_prob_reshape
I0413 18:19:16.584044 12947 net.cpp:408] rpn_big_cls_prob_reshape_rpn_big_cls_prob_reshape_0_split -> rpn_big_cls_prob_reshape_rpn_big_cls_prob_reshape_0_split_0
I0413 18:19:16.584069 12947 net.cpp:408] rpn_big_cls_prob_reshape_rpn_big_cls_prob_reshape_0_split -> rpn_big_cls_prob_reshape_rpn_big_cls_prob_reshape_0_split_1
I0413 18:19:16.584127 12947 net.cpp:150] Setting up rpn_big_cls_prob_reshape_rpn_big_cls_prob_reshape_0_split
I0413 18:19:16.584151 12947 net.cpp:157] Top shape: 1 52 61 92 (291824)
I0413 18:19:16.584170 12947 net.cpp:157] Top shape: 1 52 61 92 (291824)
I0413 18:19:16.584187 12947 net.cpp:165] Memory required for data: 3614749556
I0413 18:19:16.584204 12947 layer_factory.hpp:77] Creating layer rpn_big_anchor_target
I0413 18:19:16.585736 12947 net.cpp:100] Creating Layer rpn_big_anchor_target
I0413 18:19:16.585757 12947 net.cpp:434] rpn_big_anchor_target <- rpn_big_cls_score_rpn_big_cls_score_0_split_1
I0413 18:19:16.585773 12947 net.cpp:434] rpn_big_anchor_target <- input_gt_boxes_input_2_split_0
I0413 18:19:16.585779 12947 net.cpp:434] rpn_big_anchor_target <- input_ignored_boxes
I0413 18:19:16.585784 12947 net.cpp:434] rpn_big_anchor_target <- input_im_info_input_1_split_0
I0413 18:19:16.585788 12947 net.cpp:434] rpn_big_anchor_target <- input_data_input_0_split_1
I0413 18:19:16.585794 12947 net.cpp:434] rpn_big_anchor_target <- rpn_big_cls_prob_reshape_rpn_big_cls_prob_reshape_0_split_0
I0413 18:19:16.585805 12947 net.cpp:408] rpn_big_anchor_target -> rpn_big_anchor_target_labels
I0413 18:19:16.585821 12947 net.cpp:408] rpn_big_anchor_target -> rpn_big_anchor_target_bbox_targets
I0413 18:19:16.585837 12947 net.cpp:408] rpn_big_anchor_target -> rpn_big_anchor_target_inside_weights
I0413 18:19:16.585850 12947 net.cpp:408] rpn_big_anchor_target -> rpn_big_anchor_target_outside_weights
I0413 18:19:16.591795 12947 net.cpp:150] Setting up rpn_big_anchor_target
I0413 18:19:16.591817 12947 net.cpp:157] Top shape: 1 1 1586 92 (145912)
I0413 18:19:16.591831 12947 net.cpp:157] Top shape: 1 104 61 92 (583648)
I0413 18:19:16.591835 12947 net.cpp:157] Top shape: 1 104 61 92 (583648)
I0413 18:19:16.591840 12947 net.cpp:157] Top shape: 1 104 61 92 (583648)
I0413 18:19:16.591842 12947 net.cpp:165] Memory required for data: 3622336980
I0413 18:19:16.591850 12947 layer_factory.hpp:77] Creating layer rpn_big_loss_cls
I0413 18:19:16.591866 12947 net.cpp:100] Creating Layer rpn_big_loss_cls
I0413 18:19:16.591877 12947 net.cpp:434] rpn_big_loss_cls <- rpn_big_cls_score_reshape_rpn_big_cls_score_reshape_0_split_1
I0413 18:19:16.591889 12947 net.cpp:434] rpn_big_loss_cls <- rpn_big_anchor_target_labels
I0413 18:19:16.591900 12947 net.cpp:408] rpn_big_loss_cls -> rpn_big_loss_cls
I0413 18:19:16.591918 12947 layer_factory.hpp:77] Creating layer rpn_big_loss_cls
I0413 18:19:16.592633 12947 net.cpp:150] Setting up rpn_big_loss_cls
I0413 18:19:16.592646 12947 net.cpp:157] Top shape: (1)
I0413 18:19:16.592649 12947 net.cpp:160]     with loss weight 1
I0413 18:19:16.592669 12947 net.cpp:165] Memory required for data: 3622336984
I0413 18:19:16.592674 12947 layer_factory.hpp:77] Creating layer rpn_big_output_box
I0413 18:19:16.592689 12947 net.cpp:100] Creating Layer rpn_big_output_box
I0413 18:19:16.592699 12947 net.cpp:434] rpn_big_output_box <- rpn_big_conv2_rpn_big_conv2_drop_0_split_1
I0413 18:19:16.592712 12947 net.cpp:408] rpn_big_output_box -> rpn_big_output_box
I0413 18:19:16.611352 12947 net.cpp:150] Setting up rpn_big_output_box
I0413 18:19:16.611382 12947 net.cpp:157] Top shape: 1 384 63 94 (2274048)
I0413 18:19:16.611395 12947 net.cpp:165] Memory required for data: 3631433176
I0413 18:19:16.611405 12947 layer_factory.hpp:77] Creating layer rpn_big_output_box_relu
I0413 18:19:16.611418 12947 net.cpp:100] Creating Layer rpn_big_output_box_relu
I0413 18:19:16.611425 12947 net.cpp:434] rpn_big_output_box_relu <- rpn_big_output_box
I0413 18:19:16.611438 12947 net.cpp:395] rpn_big_output_box_relu -> rpn_big_output_box (in-place)
I0413 18:19:16.611454 12947 net.cpp:150] Setting up rpn_big_output_box_relu
I0413 18:19:16.611464 12947 net.cpp:157] Top shape: 1 384 63 94 (2274048)
I0413 18:19:16.611469 12947 net.cpp:165] Memory required for data: 3640529368
I0413 18:19:16.611474 12947 layer_factory.hpp:77] Creating layer rpn_big_bbox_pred
I0413 18:19:16.611490 12947 net.cpp:100] Creating Layer rpn_big_bbox_pred
I0413 18:19:16.611501 12947 net.cpp:434] rpn_big_bbox_pred <- rpn_big_output_box
I0413 18:19:16.611511 12947 net.cpp:408] rpn_big_bbox_pred -> rpn_big_bbox_pred
I0413 18:19:16.615550 12947 net.cpp:150] Setting up rpn_big_bbox_pred
I0413 18:19:16.615566 12947 net.cpp:157] Top shape: 1 104 61 92 (583648)
I0413 18:19:16.615568 12947 net.cpp:165] Memory required for data: 3642863960
I0413 18:19:16.615584 12947 layer_factory.hpp:77] Creating layer rpn_big_bbox_pred_rpn_big_bbox_pred_0_split
I0413 18:19:16.615592 12947 net.cpp:100] Creating Layer rpn_big_bbox_pred_rpn_big_bbox_pred_0_split
I0413 18:19:16.615597 12947 net.cpp:434] rpn_big_bbox_pred_rpn_big_bbox_pred_0_split <- rpn_big_bbox_pred
I0413 18:19:16.615607 12947 net.cpp:408] rpn_big_bbox_pred_rpn_big_bbox_pred_0_split -> rpn_big_bbox_pred_rpn_big_bbox_pred_0_split_0
I0413 18:19:16.615622 12947 net.cpp:408] rpn_big_bbox_pred_rpn_big_bbox_pred_0_split -> rpn_big_bbox_pred_rpn_big_bbox_pred_0_split_1
I0413 18:19:16.615680 12947 net.cpp:150] Setting up rpn_big_bbox_pred_rpn_big_bbox_pred_0_split
I0413 18:19:16.615691 12947 net.cpp:157] Top shape: 1 104 61 92 (583648)
I0413 18:19:16.615706 12947 net.cpp:157] Top shape: 1 104 61 92 (583648)
I0413 18:19:16.615711 12947 net.cpp:165] Memory required for data: 3647533144
I0413 18:19:16.615716 12947 layer_factory.hpp:77] Creating layer rpn_big_loss_bbox
I0413 18:19:16.616169 12947 net.cpp:100] Creating Layer rpn_big_loss_bbox
I0413 18:19:16.616180 12947 net.cpp:434] rpn_big_loss_bbox <- rpn_big_bbox_pred_rpn_big_bbox_pred_0_split_0
I0413 18:19:16.616185 12947 net.cpp:434] rpn_big_loss_bbox <- rpn_big_anchor_target_bbox_targets
I0413 18:19:16.616199 12947 net.cpp:434] rpn_big_loss_bbox <- rpn_big_anchor_target_inside_weights
I0413 18:19:16.616204 12947 net.cpp:434] rpn_big_loss_bbox <- rpn_big_anchor_target_outside_weights
I0413 18:19:16.616210 12947 net.cpp:408] rpn_big_loss_bbox -> rpn_big_loss_bbox
I0413 18:19:16.618201 12947 net.cpp:150] Setting up rpn_big_loss_bbox
I0413 18:19:16.618232 12947 net.cpp:157] Top shape: 1 (1)
I0413 18:19:16.618245 12947 net.cpp:160]     with loss weight 1
I0413 18:19:16.618257 12947 net.cpp:165] Memory required for data: 3647533148
I0413 18:19:16.618264 12947 layer_factory.hpp:77] Creating layer proposal
I0413 18:19:16.618736 12947 net.cpp:100] Creating Layer proposal
I0413 18:19:16.618746 12947 net.cpp:434] proposal <- rpn_big_cls_prob_reshape_rpn_big_cls_prob_reshape_0_split_1
I0413 18:19:16.618762 12947 net.cpp:434] proposal <- rpn_big_bbox_pred_rpn_big_bbox_pred_0_split_1
I0413 18:19:16.618767 12947 net.cpp:434] proposal <- input_im_info_input_1_split_1
I0413 18:19:16.618774 12947 net.cpp:408] proposal -> rpn_rois
I0413 18:19:16.622869 12947 net.cpp:150] Setting up proposal
I0413 18:19:16.622891 12947 net.cpp:157] Top shape: 1 5 (5)
I0413 18:19:16.622897 12947 net.cpp:165] Memory required for data: 3647533168
I0413 18:19:16.622905 12947 layer_factory.hpp:77] Creating layer roi-data
I0413 18:19:16.623281 12947 net.cpp:100] Creating Layer roi-data
I0413 18:19:16.623292 12947 net.cpp:434] roi-data <- rpn_rois
I0413 18:19:16.623303 12947 net.cpp:434] roi-data <- input_gt_boxes_input_2_split_1
I0413 18:19:16.623314 12947 net.cpp:408] roi-data -> rois
I0413 18:19:16.623330 12947 net.cpp:408] roi-data -> labels
I0413 18:19:16.623363 12947 net.cpp:408] roi-data -> bbox_targets
I0413 18:19:16.623390 12947 net.cpp:408] roi-data -> bbox_inside_weights
I0413 18:19:16.623415 12947 net.cpp:408] roi-data -> bbox_outside_weights
I0413 18:19:16.623441 12947 net.cpp:408] roi-data -> pid_label
I0413 18:19:16.624496 12947 net.cpp:150] Setting up roi-data
I0413 18:19:16.624512 12947 net.cpp:157] Top shape: 1 5 (5)
I0413 18:19:16.624521 12947 net.cpp:157] Top shape: 1 1 (1)
I0413 18:19:16.624527 12947 net.cpp:157] Top shape: 1 8 (8)
I0413 18:19:16.624534 12947 net.cpp:157] Top shape: 1 8 (8)
I0413 18:19:16.624541 12947 net.cpp:157] Top shape: 1 8 (8)
I0413 18:19:16.624548 12947 net.cpp:157] Top shape: (0)
I0413 18:19:16.624554 12947 net.cpp:165] Memory required for data: 3647533288
I0413 18:19:16.624562 12947 layer_factory.hpp:77] Creating layer roi-pool
I0413 18:19:16.624572 12947 net.cpp:100] Creating Layer roi-pool
I0413 18:19:16.624580 12947 net.cpp:434] roi-pool <- conv5_3_relu5_3_0_split_1
I0413 18:19:16.624588 12947 net.cpp:434] roi-pool <- rois
I0413 18:19:16.624603 12947 net.cpp:408] roi-pool -> roi-pool
I0413 18:19:16.624617 12947 roi_pooling_layer.cpp:33] Spatial scale: 0.0625
I0413 18:19:16.624651 12947 roi_pooling_layer.cpp:34] Box scale: 1
I0413 18:19:16.624721 12947 net.cpp:150] Setting up roi-pool
I0413 18:19:16.624744 12947 net.cpp:157] Top shape: 1 512 7 7 (25088)
I0413 18:19:16.624763 12947 net.cpp:165] Memory required for data: 3647633640
I0413 18:19:16.624779 12947 layer_factory.hpp:77] Creating layer fc6
I0413 18:19:16.624804 12947 net.cpp:100] Creating Layer fc6
I0413 18:19:16.624825 12947 net.cpp:434] fc6 <- roi-pool
I0413 18:19:16.624845 12947 net.cpp:408] fc6 -> fc6
I0413 18:19:16.790274 12947 net.cpp:150] Setting up fc6
I0413 18:19:16.790313 12947 net.cpp:157] Top shape: 1 4096 (4096)
I0413 18:19:16.790325 12947 net.cpp:165] Memory required for data: 3647650024
I0413 18:19:16.790338 12947 layer_factory.hpp:77] Creating layer relu6
I0413 18:19:16.790350 12947 net.cpp:100] Creating Layer relu6
I0413 18:19:16.790355 12947 net.cpp:434] relu6 <- fc6
I0413 18:19:16.790366 12947 net.cpp:395] relu6 -> fc6 (in-place)
I0413 18:19:16.790380 12947 net.cpp:150] Setting up relu6
I0413 18:19:16.790387 12947 net.cpp:157] Top shape: 1 4096 (4096)
I0413 18:19:16.790392 12947 net.cpp:165] Memory required for data: 3647666408
I0413 18:19:16.790397 12947 layer_factory.hpp:77] Creating layer drop6
I0413 18:19:16.790421 12947 net.cpp:100] Creating Layer drop6
I0413 18:19:16.790431 12947 net.cpp:434] drop6 <- fc6
I0413 18:19:16.790438 12947 net.cpp:395] drop6 -> fc6 (in-place)
I0413 18:19:16.790473 12947 net.cpp:150] Setting up drop6
I0413 18:19:16.790483 12947 net.cpp:157] Top shape: 1 4096 (4096)
I0413 18:19:16.790488 12947 net.cpp:165] Memory required for data: 3647682792
I0413 18:19:16.790493 12947 layer_factory.hpp:77] Creating layer fc7
I0413 18:19:16.790505 12947 net.cpp:100] Creating Layer fc7
I0413 18:19:16.790513 12947 net.cpp:434] fc7 <- fc6
I0413 18:19:16.790520 12947 net.cpp:408] fc7 -> fc7
I0413 18:19:16.817481 12947 net.cpp:150] Setting up fc7
I0413 18:19:16.817518 12947 net.cpp:157] Top shape: 1 4096 (4096)
I0413 18:19:16.817531 12947 net.cpp:165] Memory required for data: 3647699176
I0413 18:19:16.817543 12947 layer_factory.hpp:77] Creating layer relu7
I0413 18:19:16.817569 12947 net.cpp:100] Creating Layer relu7
I0413 18:19:16.817576 12947 net.cpp:434] relu7 <- fc7
I0413 18:19:16.817586 12947 net.cpp:395] relu7 -> fc7 (in-place)
I0413 18:19:16.817612 12947 net.cpp:150] Setting up relu7
I0413 18:19:16.817622 12947 net.cpp:157] Top shape: 1 4096 (4096)
I0413 18:19:16.817626 12947 net.cpp:165] Memory required for data: 3647715560
I0413 18:19:16.817632 12947 layer_factory.hpp:77] Creating layer drop7
I0413 18:19:16.817641 12947 net.cpp:100] Creating Layer drop7
I0413 18:19:16.817647 12947 net.cpp:434] drop7 <- fc7
I0413 18:19:16.817654 12947 net.cpp:395] drop7 -> fc7 (in-place)
I0413 18:19:16.817687 12947 net.cpp:150] Setting up drop7
I0413 18:19:16.817704 12947 net.cpp:157] Top shape: 1 4096 (4096)
I0413 18:19:16.817709 12947 net.cpp:165] Memory required for data: 3647731944
I0413 18:19:16.817723 12947 layer_factory.hpp:77] Creating layer bbox_pred
I0413 18:19:16.817730 12947 net.cpp:100] Creating Layer bbox_pred
I0413 18:19:16.817735 12947 net.cpp:434] bbox_pred <- fc7
I0413 18:19:16.817744 12947 net.cpp:408] bbox_pred -> bbox_pred
F0413 18:19:16.817796 12947 blob.cpp:186] Check failed: data_ 
…
