…
I0406 15:16:03.099057  6308 solver.cpp:48] Initializing solver from parameters: 
base_lr: 0.001
display: 20
lr_policy: "multistep"
gamma: 0.1
momentum: 0.9
weight_decay: 0.0005
snapshot: 0
snapshot_prefix: "faces_example"
net_param {
  name: "GeneratedModel_06_04_2017_15_16"
  layer {
    name: "input"
    type: "Python"
    top: "input_data"
    top: "input_im_info"
    top: "input_gt_boxes"
    top: "input_ignored_boxes"
    python_param {
      module: "layers.roi_data_layer"
      layer: "RoIDataLayer"
      param_str: "{\"num_classes\": 2}"
    }
  }
  layer {
    name: "conv1_1"
    type: "Convolution"
    bottom: "input_data"
    top: "conv1_1"
    param {
      lr_mult: 0
      decay_mult: 0
    }
    param {
      lr_mult: 0
      decay_mult: 0
    }
    convolution_param {
      num_output: 64
      pad: 1
      kernel_size: 3
    }
  }
  layer {
    name: "relu1_1"
    type: "ReLU"
    bottom: "conv1_1"
    top: "conv1_1"
  }
  layer {
    name: "conv1_2"
    type: "Convolution"
    bottom: "conv1_1"
    top: "conv1_2"
    param {
      lr_mult: 0
      decay_mult: 0
    }
    param {
      lr_mult: 0
      decay_mult: 0
    }
    convolution_param {
      num_output: 64
      pad: 1
      kernel_size: 3
    }
  }
  layer {
    name: "relu1_2"
    type: "ReLU"
    bottom: "conv1_2"
    top: "conv1_2"
  }
  layer {
    name: "pool1"
    type: "Pooling"
    bottom: "conv1_2"
    top: "pool1"
    pooling_param {
      pool: MAX
      kernel_size: 2
      stride: 2
    }
  }
  layer {
    name: "conv2_1"
    type: "Convolution"
    bottom: "pool1"
    top: "conv2_1"
    param {
      lr_mult: 0
      decay_mult: 0
    }
    param {
      lr_mult: 0
      decay_mult: 0
    }
    convolution_param {
      num_output: 128
      pad: 1
      kernel_size: 3
    }
  }
  layer {
    name: "relu2_1"
    type: "ReLU"
    bottom: "conv2_1"
    top: "conv2_1"
  }
  layer {
    name: "conv2_2"
    type: "Convolution"
    bottom: "conv2_1"
    top: "conv2_2"
    param {
      lr_mult: 0
      decay_mult: 0
    }
    param {
      lr_mult: 0
      decay_mult: 0
    }
    convolution_param {
      num_output: 128
      pad: 1
      kernel_size: 3
    }
  }
  layer {
    name: "relu2_2"
    type: "ReLU"
    bottom: "conv2_2"
    top: "conv2_2"
  }
  layer {
    name: "pool2"
    type: "Pooling"
    bottom: "conv2_2"
    top: "pool2"
    pooling_param {
      pool: MAX
      kernel_size: 2
      stride: 2
    }
  }
  layer {
    name: "conv3_1"
    type: "Convolution"
    bottom: "pool2"
    top: "conv3_1"
    param {
      lr_mult: 1
    }
    param {
      lr_mult: 2
    }
    convolution_param {
      num_output: 256
      pad: 1
      kernel_size: 3
    }
  }
  layer {
    name: "relu3_1"
    type: "ReLU"
    bottom: "conv3_1"
    top: "conv3_1"
  }
  layer {
    name: "conv3_2"
    type: "Convolution"
    bottom: "conv3_1"
    top: "conv3_2"
    param {
      lr_mult: 1
    }
    param {
      lr_mult: 2
    }
    convolution_param {
      num_output: 256
      pad: 1
      kernel_size: 3
    }
  }
  layer {
    name: "relu3_2"
    type: "ReLU"
    bottom: "conv3_2"
    top: "conv3_2"
  }
  layer {
    name: "conv3_3"
    type: "Convolution"
    bottom: "conv3_2"
    top: "conv3_3"
    param {
      lr_mult: 1
    }
    param {
      lr_mult: 2
    }
    convolution_param {
      num_output: 256
      pad: 1
      kernel_size: 3
    }
  }
  layer {
    name: "relu3_3"
    type: "ReLU"
    bottom: "conv3_3"
    top: "conv3_3"
  }
  layer {
    name: "pool3"
    type: "Pooling"
    bottom: "conv3_3"
    top: "pool3"
    pooling_param {
      pool: MAX
      kernel_size: 2
      stride: 2
    }
  }
  layer {
    name: "conv4_1"
    type: "Convolution"
    bottom: "pool3"
    top: "conv4_1"
    param {
      lr_mult: 1
    }
    param {
      lr_mult: 2
    }
    convolution_param {
      num_output: 512
      pad: 1
      kernel_size: 3
    }
  }
  layer {
    name: "relu4_1"
    type: "ReLU"
    bottom: "conv4_1"
    top: "conv4_1"
  }
  layer {
    name: "conv4_2"
    type: "Convolution"
    bottom: "conv4_1"
    top: "conv4_2"
    param {
      lr_mult: 1
    }
    param {
      lr_mult: 2
    }
    convolution_param {
      num_output: 512
      pad: 1
      kernel_size: 3
    }
  }
  layer {
    name: "relu4_2"
    type: "ReLU"
    bottom: "conv4_2"
    top: "conv4_2"
  }
  layer {
    name: "conv4_3"
    type: "Convolution"
    bottom: "conv4_2"
    top: "conv4_3"
    param {
      lr_mult: 1
    }
    param {
      lr_mult: 2
    }
    convolution_param {
      num_output: 512
      pad: 1
      kernel_size: 3
    }
  }
  layer {
    name: "relu4_3"
    type: "ReLU"
    bottom: "conv4_3"
    top: "conv4_3"
  }
  layer {
    name: "pool4"
    type: "Pooling"
    bottom: "conv4_3"
    top: "pool4"
    pooling_param {
      pool: MAX
      kernel_size: 2
      stride: 2
    }
  }
  layer {
    name: "conv5_1"
    type: "Convolution"
    bottom: "pool4"
    top: "conv5_1"
    param {
      lr_mult: 1
    }
    param {
      lr_mult: 2
    }
    convolution_param {
      num_output: 512
      pad: 1
      kernel_size: 3
    }
  }
  layer {
    name: "relu5_1"
    type: "ReLU"
    bottom: "conv5_1"
    top: "conv5_1"
  }
  layer {
    name: "conv5_2"
    type: "Convolution"
    bottom: "conv5_1"
    top: "conv5_2"
    param {
      lr_mult: 1
    }
    param {
      lr_mult: 2
    }
    convolution_param {
      num_output: 512
      pad: 1
      kernel_size: 3
    }
  }
  layer {
    name: "relu5_2"
    type: "ReLU"
    bottom: "conv5_2"
    top: "conv5_2"
  }
  layer {
    name: "conv5_3"
    type: "Convolution"
    bottom: "conv5_2"
    top: "conv5_3"
    param {
      lr_mult: 1
    }
    param {
      lr_mult: 2
    }
    convolution_param {
      num_output: 512
      pad: 1
      kernel_size: 3
    }
  }
  layer {
    name: "relu5_3"
    type: "ReLU"
    bottom: "conv5_3"
    top: "conv5_3"
  }
  layer {
    name: "rpn_big_conv1"
    type: "Convolution"
    bottom: "conv5_3"
    top: "rpn_big_conv1"
    param {
      lr_mult: 1
    }
    param {
      lr_mult: 2
    }
    convolution_param {
      num_output: 512
      pad: 1
      kernel_size: 3
      stride: 1
      weight_filler {
        type: "gaussian"
        mean: 0
        std: 0.01
      }
      bias_filler {
        type: "constant"
      }
    }
  }
  layer {
    name: "rpn_big_conv1_relu"
    type: "ReLU"
    bottom: "rpn_big_conv1"
    top: "rpn_big_conv1"
    relu_param {
      negative_slope: 0
    }
  }
  layer {
    name: "rpn_big_conv2"
    type: "Convolution"
    bottom: "rpn_big_conv1"
    top: "rpn_big_conv2"
    param {
      lr_mult: 1
    }
    param {
      lr_mult: 2
    }
    convolution_param {
      num_output: 512
      pad: 1
      kernel_size: 3
      stride: 1
      weight_filler {
        type: "gaussian"
        mean: 0
        std: 0.01
      }
      bias_filler {
        type: "constant"
      }
    }
  }
  layer {
    name: "rpn_big_conv2_relu"
    type: "ReLU"
    bottom: "rpn_big_conv2"
    top: "rpn_big_conv2"
    relu_param {
      negative_slope: 0
    }
  }
  layer {
    name: "rpn_big_conv2_drop"
    type: "Dropout"
    bottom: "rpn_big_conv2"
    top: "rpn_big_conv2"
    dropout_param {
      dropout_ratio: 0.3
    }
  }
  layer {
    name: "rpn_big_output_cls"
    type: "Convolution"
    bottom: "rpn_big_conv2"
    top: "rpn_big_output_cls"
    param {
      lr_mult: 1
    }
    param {
      lr_mult: 2
    }
    convolution_param {
      num_output: 384
      pad: 1
      kernel_size: 3
      stride: 1
      weight_filler {
        type: "gaussian"
        mean: 0
        std: 0.01
      }
      bias_filler {
        type: "constant"
      }
    }
  }
  layer {
    name: "rpn_big_output_cls_relu"
    type: "ReLU"
    bottom: "rpn_big_output_cls"
    top: "rpn_big_output_cls"
    relu_param {
      negative_slope: 0
    }
  }
  layer {
    name: "rpn_big_cls_score"
    type: "Convolution"
    bottom: "rpn_big_output_cls"
    top: "rpn_big_cls_score"
    param {
      lr_mult: 1
    }
    param {
      lr_mult: 2
    }
    convolution_param {
      num_output: 52
      pad: 0
      kernel_size: 3
      stride: 1
      weight_filler {
        type: "gaussian"
        mean: 0
        std: 0.01
      }
      bias_filler {
        type: "constant"
      }
    }
  }
  layer {
    name: "rpn_big_cls_score_reshape"
    type: "Reshape"
    bottom: "rpn_big_cls_score"
    top: "rpn_big_cls_score_reshape"
    reshape_param {
      shape {
        dim: 0
        dim: 2
        dim: -1
        dim: 0
      }
    }
  }
  layer {
    name: "rpn_big_cls_prob"
    type: "Softmax"
    bottom: "rpn_big_cls_score_reshape"
    top: "rpn_big_cls_prob"
  }
  layer {
    name: "rpn_big_cls_prob_reshape"
    type: "Reshape"
    bottom: "rpn_big_cls_prob"
    top: "rpn_big_cls_prob_reshape"
    reshape_param {
      shape {
        dim: 0
        dim: 52
        dim: -1
        dim: 0
      }
    }
  }
  layer {
    name: "rpn_big_anchor_target"
    type: "Python"
    bottom: "rpn_big_cls_score"
    bottom: "input_gt_boxes"
    bottom: "input_ignored_boxes"
    bottom: "input_im_info"
    bottom: "input_data"
    bottom: "rpn_big_cls_prob_reshape"
    top: "rpn_big_anchor_target_labels"
    top: "rpn_big_anchor_target_bbox_targets"
    top: "rpn_big_anchor_target_inside_weights"
    top: "rpn_big_anchor_target_outside_weights"
    python_param {
      module: "rpn.anchor_target_layer"
      layer: "AnchorTargetLayer"
      param_str: "{\"anchor_shift_num_xy\": [[2, 2], [2, 2], [2, 2], [2, 2], [1, 1], [1, 1], [1, 1], [1, 1], [1, 1], [1, 1], [1, 1], [1, 1], [1, 1], [1, 1]], \"tn_fraction\": 0.2, \"fg_fraction\": 0.5, \"name\": \"rpn_big\", \"positive_overlap\": 0.6, \"batchsize\": 256, \"square_targets\": true, \"anchor_scales\": [2.5, 3.025, 3.66025, 4.4289024999999995, 5.358972025, 6.484356150249999, 7.846070941802498, 9.493745839581022, 11.487432465893036, 13.899793283730574, 16.818749873313998, 20.350687346709933, 24.62433168951902, 29.795441344318014], \"anchor_ratios\": [1.0], \"feat_stride\": 16, \"num_classes\": 1, \"negative_overlap\": 0.4}"
    }
  }
  layer {
    name: "rpn_big_loss_cls"
    type: "SoftmaxWithLoss"
    bottom: "rpn_big_cls_score_reshape"
    bottom: "rpn_big_anchor_target_labels"
    top: "rpn_big_loss_cls"
    loss_weight: 1
    propagate_down: true
    propagate_down: false
    loss_param {
      ignore_label: -1
      normalization: VALID
    }
  }
  layer {
    name: "rpn_big_output_box"
    type: "Convolution"
    bottom: "rpn_big_conv2"
    top: "rpn_big_output_box"
    param {
      lr_mult: 1
    }
    param {
      lr_mult: 2
    }
    convolution_param {
      num_output: 384
      pad: 1
      kernel_size: 3
      stride: 1
      weight_filler {
        type: "gaussian"
        mean: 0
        std: 0.01
      }
      bias_filler {
        type: "constant"
      }
    }
  }
  layer {
    name: "rpn_big_output_box_relu"
    type: "ReLU"
    bottom: "rpn_big_output_box"
    top: "rpn_big_output_box"
    relu_param {
      negative_slope: 0
    }
  }
  layer {
    name: "rpn_big_bbox_pred"
    type: "Convolution"
    bottom: "rpn_big_output_box"
    top: "rpn_big_bbox_pred"
    param {
      lr_mult: 1
    }
    param {
      lr_mult: 2
    }
    convolution_param {
      num_output: 104
      pad: 0
      kernel_size: 3
      stride: 1
      weight_filler {
        type: "gaussian"
        mean: 0
        std: 0.01
      }
      bias_filler {
        type: "constant"
      }
    }
  }
  layer {
    name: "rpn_big_loss_bbox"
    type: "Python"
    bottom: "rpn_big_bbox_pred"
    bottom: "rpn_big_anchor_target_bbox_targets"
    bottom: "rpn_big_anchor_target_inside_weights"
    bottom: "rpn_big_anchor_target_outside_weights"
    top: "rpn_big_loss_bbox"
    loss_weight: 1
    python_param {
      module: "layers.smooth_l1_loss"
      layer: "SmoothL1LossLayer"
      param_str: "{\"sigma\": 3}"
    }
  }
}
average_loss: 100
stepvalue: 70000
stepvalue: 120000
iter_size: 2
I0406 15:16:03.099134  6308 solver.cpp:86] Creating training net specified in net_param.
I0406 15:16:03.099544  6308 net.cpp:49] Initializing net from parameters: 
name: "GeneratedModel_06_04_2017_15_16"
state {
  phase: TRAIN
}
layer {
  name: "input"
  type: "Python"
  top: "input_data"
  top: "input_im_info"
  top: "input_gt_boxes"
  top: "input_ignored_boxes"
  python_param {
    module: "layers.roi_data_layer"
    layer: "RoIDataLayer"
    param_str: "{\"num_classes\": 2}"
  }
}
layer {
  name: "conv1_1"
  type: "Convolution"
  bottom: "input_data"
  top: "conv1_1"
  param {
    lr_mult: 0
    decay_mult: 0
  }
  param {
    lr_mult: 0
    decay_mult: 0
  }
  convolution_param {
    num_output: 64
    pad: 1
    kernel_size: 3
  }
}
layer {
  name: "relu1_1"
  type: "ReLU"
  bottom: "conv1_1"
  top: "conv1_1"
}
layer {
  name: "conv1_2"
  type: "Convolution"
  bottom: "conv1_1"
  top: "conv1_2"
  param {
    lr_mult: 0
    decay_mult: 0
  }
  param {
    lr_mult: 0
    decay_mult: 0
  }
  convolution_param {
    num_output: 64
    pad: 1
    kernel_size: 3
  }
}
layer {
  name: "relu1_2"
  type: "ReLU"
  bottom: "conv1_2"
  top: "conv1_2"
}
layer {
  name: "pool1"
  type: "Pooling"
  bottom: "conv1_2"
  top: "pool1"
  pooling_param {
    pool: MAX
    kernel_size: 2
    stride: 2
  }
}
layer {
  name: "conv2_1"
  type: "Convolution"
  bottom: "pool1"
  top: "conv2_1"
  param {
    lr_mult: 0
    decay_mult: 0
  }
  param {
    lr_mult: 0
    decay_mult: 0
  }
  convolution_param {
    num_output: 128
    pad: 1
    kernel_size: 3
  }
}
layer {
  name: "relu2_1"
  type: "ReLU"
  bottom: "conv2_1"
  top: "conv2_1"
}
layer {
  name: "conv2_2"
  type: "Convolution"
  bottom: "conv2_1"
  top: "conv2_2"
  param {
    lr_mult: 0
    decay_mult: 0
  }
  param {
    lr_mult: 0
    decay_mult: 0
  }
  convolution_param {
    num_output: 128
    pad: 1
    kernel_size: 3
  }
}
layer {
  name: "relu2_2"
  type: "ReLU"
  bottom: "conv2_2"
  top: "conv2_2"
}
layer {
  name: "pool2"
  type: "Pooling"
  bottom: "conv2_2"
  top: "pool2"
  pooling_param {
    pool: MAX
    kernel_size: 2
    stride: 2
  }
}
layer {
  name: "conv3_1"
  type: "Convolution"
  bottom: "pool2"
  top: "conv3_1"
  param {
    lr_mult: 1
  }
  param {
    lr_mult: 2
  }
  convolution_param {
    num_output: 256
    pad: 1
    kernel_size: 3
  }
}
layer {
  name: "relu3_1"
  type: "ReLU"
  bottom: "conv3_1"
  top: "conv3_1"
}
layer {
  name: "conv3_2"
  type: "Convolution"
  bottom: "conv3_1"
  top: "conv3_2"
  param {
    lr_mult: 1
  }
  param {
    lr_mult: 2
  }
  convolution_param {
    num_output: 256
    pad: 1
    kernel_size: 3
  }
}
layer {
  name: "relu3_2"
  type: "ReLU"
  bottom: "conv3_2"
  top: "conv3_2"
}
layer {
  name: "conv3_3"
  type: "Convolution"
  bottom: "conv3_2"
  top: "conv3_3"
  param {
    lr_mult: 1
  }
  param {
    lr_mult: 2
  }
  convolution_param {
    num_output: 256
    pad: 1
    kernel_size: 3
  }
}
layer {
  name: "relu3_3"
  type: "ReLU"
  bottom: "conv3_3"
  top: "conv3_3"
}
layer {
  name: "pool3"
  type: "Pooling"
  bottom: "conv3_3"
  top: "pool3"
  pooling_param {
    pool: MAX
    kernel_size: 2
    stride: 2
  }
}
layer {
  name: "conv4_1"
  type: "Convolution"
  bottom: "pool3"
  top: "conv4_1"
  param {
    lr_mult: 1
  }
  param {
    lr_mult: 2
  }
  convolution_param {
    num_output: 512
    pad: 1
    kernel_size: 3
  }
}
layer {
  name: "relu4_1"
  type: "ReLU"
  bottom: "conv4_1"
  top: "conv4_1"
}
layer {
  name: "conv4_2"
  type: "Convolution"
  bottom: "conv4_1"
  top: "conv4_2"
  param {
    lr_mult: 1
  }
  param {
    lr_mult: 2
  }
  convolution_param {
    num_output: 512
    pad: 1
    kernel_size: 3
  }
}
layer {
  name: "relu4_2"
  type: "ReLU"
  bottom: "conv4_2"
  top: "conv4_2"
}
layer {
  name: "conv4_3"
  type: "Convolution"
  bottom: "conv4_2"
  top: "conv4_3"
  param {
    lr_mult: 1
  }
  param {
    lr_mult: 2
  }
  convolution_param {
    num_output: 512
    pad: 1
    kernel_size: 3
  }
}
layer {
  name: "relu4_3"
  type: "ReLU"
  bottom: "conv4_3"
  top: "conv4_3"
}
layer {
  name: "pool4"
  type: "Pooling"
  bottom: "conv4_3"
  top: "pool4"
  pooling_param {
    pool: MAX
    kernel_size: 2
    stride: 2
  }
}
layer {
  name: "conv5_1"
  type: "Convolution"
  bottom: "pool4"
  top: "conv5_1"
  param {
    lr_mult: 1
  }
  param {
    lr_mult: 2
  }
  convolution_param {
    num_output: 512
    pad: 1
    kernel_size: 3
  }
}
layer {
  name: "relu5_1"
  type: "ReLU"
  bottom: "conv5_1"
  top: "conv5_1"
}
layer {
  name: "conv5_2"
  type: "Convolution"
  bottom: "conv5_1"
  top: "conv5_2"
  param {
    lr_mult: 1
  }
  param {
    lr_mult: 2
  }
  convolution_param {
    num_output: 512
    pad: 1
    kernel_size: 3
  }
}
layer {
  name: "relu5_2"
  type: "ReLU"
  bottom: "conv5_2"
  top: "conv5_2"
}
layer {
  name: "conv5_3"
  type: "Convolution"
  bottom: "conv5_2"
  top: "conv5_3"
  param {
    lr_mult: 1
  }
  param {
    lr_mult: 2
  }
  convolution_param {
    num_output: 512
    pad: 1
    kernel_size: 3
  }
}
layer {
  name: "relu5_3"
  type: "ReLU"
  bottom: "conv5_3"
  top: "conv5_3"
}
layer {
  name: "rpn_big_conv1"
  type: "Convolution"
  bottom: "conv5_3"
  top: "rpn_big_conv1"
  param {
    lr_mult: 1
  }
  param {
    lr_mult: 2
  }
  convolution_param {
    num_output: 512
    pad: 1
    kernel_size: 3
    stride: 1
    weight_filler {
      type: "gaussian"
      mean: 0
      std: 0.01
    }
    bias_filler {
      type: "constant"
    }
  }
}
layer {
  name: "rpn_big_conv1_relu"
  type: "ReLU"
  bottom: "rpn_big_conv1"
  top: "rpn_big_conv1"
  relu_param {
    negative_slope: 0
  }
}
layer {
  name: "rpn_big_conv2"
  type: "Convolution"
  bottom: "rpn_big_conv1"
  top: "rpn_big_conv2"
  param {
    lr_mult: 1
  }
  param {
    lr_mult: 2
  }
  convolution_param {
    num_output: 512
    pad: 1
    kernel_size: 3
    stride: 1
    weight_filler {
      type: "gaussian"
      mean: 0
      std: 0.01
    }
    bias_filler {
      type: "constant"
    }
  }
}
layer {
  name: "rpn_big_conv2_relu"
  type: "ReLU"
  bottom: "rpn_big_conv2"
  top: "rpn_big_conv2"
  relu_param {
    negative_slope: 0
  }
}
layer {
  name: "rpn_big_conv2_drop"
  type: "Dropout"
  bottom: "rpn_big_conv2"
  top: "rpn_big_conv2"
  dropout_param {
    dropout_ratio: 0.3
  }
}
layer {
  name: "rpn_big_output_cls"
  type: "Convolution"
  bottom: "rpn_big_conv2"
  top: "rpn_big_output_cls"
  param {
    lr_mult: 1
  }
  param {
    lr_mult: 2
  }
  convolution_param {
    num_output: 384
    pad: 1
    kernel_size: 3
    stride: 1
    weight_filler {
      type: "gaussian"
      mean: 0
      std: 0.01
    }
    bias_filler {
      type: "constant"
    }
  }
}
layer {
  name: "rpn_big_output_cls_relu"
  type: "ReLU"
  bottom: "rpn_big_output_cls"
  top: "rpn_big_output_cls"
  relu_param {
    negative_slope: 0
  }
}
layer {
  name: "rpn_big_cls_score"
  type: "Convolution"
  bottom: "rpn_big_output_cls"
  top: "rpn_big_cls_score"
  param {
    lr_mult: 1
  }
  param {
    lr_mult: 2
  }
  convolution_param {
    num_output: 52
    pad: 0
    kernel_size: 3
    stride: 1
    weight_filler {
      type: "gaussian"
      mean: 0
      std: 0.01
    }
    bias_filler {
      type: "constant"
    }
  }
}
layer {
  name: "rpn_big_cls_score_reshape"
  type: "Reshape"
  bottom: "rpn_big_cls_score"
  top: "rpn_big_cls_score_reshape"
  reshape_param {
    shape {
      dim: 0
      dim: 2
      dim: -1
      dim: 0
    }
  }
}
layer {
  name: "rpn_big_cls_prob"
  type: "Softmax"
  bottom: "rpn_big_cls_score_reshape"
  top: "rpn_big_cls_prob"
}
layer {
  name: "rpn_big_cls_prob_reshape"
  type: "Reshape"
  bottom: "rpn_big_cls_prob"
  top: "rpn_big_cls_prob_reshape"
  reshape_param {
    shape {
      dim: 0
      dim: 52
      dim: -1
      dim: 0
    }
  }
}
layer {
  name: "rpn_big_anchor_target"
  type: "Python"
  bottom: "rpn_big_cls_score"
  bottom: "input_gt_boxes"
  bottom: "input_ignored_boxes"
  bottom: "input_im_info"
  bottom: "input_data"
  bottom: "rpn_big_cls_prob_reshape"
  top: "rpn_big_anchor_target_labels"
  top: "rpn_big_anchor_target_bbox_targets"
  top: "rpn_big_anchor_target_inside_weights"
  top: "rpn_big_anchor_target_outside_weights"
  python_param {
    module: "rpn.anchor_target_layer"
    layer: "AnchorTargetLayer"
    param_str: "{\"anchor_shift_num_xy\": [[2, 2], [2, 2], [2, 2], [2, 2], [1, 1], [1, 1], [1, 1], [1, 1], [1, 1], [1, 1], [1, 1], [1, 1], [1, 1], [1, 1]], \"tn_fraction\": 0.2, \"fg_fraction\": 0.5, \"name\": \"rpn_big\", \"positive_overlap\": 0.6, \"batchsize\": 256, \"square_targets\": true, \"anchor_scales\": [2.5, 3.025, 3.66025, 4.4289024999999995, 5.358972025, 6.484356150249999, 7.846070941802498, 9.493745839581022, 11.487432465893036, 13.899793283730574, 16.818749873313998, 20.350687346709933, 24.62433168951902, 29.795441344318014], \"anchor_ratios\": [1.0], \"feat_stride\": 16, \"num_classes\": 1, \"negative_overlap\": 0.4}"
  }
}
layer {
  name: "rpn_big_loss_cls"
  type: "SoftmaxWithLoss"
  bottom: "rpn_big_cls_score_reshape"
  bottom: "rpn_big_anchor_target_labels"
  top: "rpn_big_loss_cls"
  loss_weight: 1
  propagate_down: true
  propagate_down: false
  loss_param {
    ignore_label: -1
    normalization: VALID
  }
}
layer {
  name: "rpn_big_output_box"
  type: "Convolution"
  bottom: "rpn_big_conv2"
  top: "rpn_big_output_box"
  param {
    lr_mult: 1
  }
  param {
    lr_mult: 2
  }
  convolution_param {
    num_output: 384
    pad: 1
    kernel_size: 3
    stride: 1
    weight_filler {
      type: "gaussian"
      mean: 0
      std: 0.01
    }
    bias_filler {
      type: "constant"
    }
  }
}
layer {
  name: "rpn_big_output_box_relu"
  type: "ReLU"
  bottom: "rpn_big_output_box"
  top: "rpn_big_output_box"
  relu_param {
    negative_slope: 0
  }
}
layer {
  name: "rpn_big_bbox_pred"
  type: "Convolution"
  bottom: "rpn_big_output_box"
  top: "rpn_big_bbox_pred"
  param {
    lr_mult: 1
  }
  param {
    lr_mult: 2
  }
  convolution_param {
    num_output: 104
    pad: 0
    kernel_size: 3
    stride: 1
    weight_filler {
      type: "gaussian"
      mean: 0
      std: 0.01
    }
    bias_filler {
      type: "constant"
    }
  }
}
layer {
  name: "rpn_big_loss_bbox"
  type: "Python"
  bottom: "rpn_big_bbox_pred"
  bottom: "rpn_big_anchor_target_bbox_targets"
  bottom: "rpn_big_anchor_target_inside_weights"
  bottom: "rpn_big_anchor_target_outside_weights"
  top: "rpn_big_loss_bbox"
  loss_weight: 1
  python_param {
    module: "layers.smooth_l1_loss"
    layer: "SmoothL1LossLayer"
    param_str: "{\"sigma\": 3}"
  }
}
I0406 15:16:03.099710  6308 layer_factory.hpp:77] Creating layer input
I0406 15:16:03.100934  6308 net.cpp:106] Creating Layer input
I0406 15:16:03.100950  6308 net.cpp:411] input -> input_data
I0406 15:16:03.100960  6308 net.cpp:411] input -> input_im_info
I0406 15:16:03.100967  6308 net.cpp:411] input -> input_gt_boxes
I0406 15:16:03.100973  6308 net.cpp:411] input -> input_ignored_boxes
RoiDataLayer: name_to_top: {'im_info': 1, 'gt_boxes': 2, 'data': 0, 'ignored_boxes': 3}
I0406 15:16:03.432713  6308 net.cpp:150] Setting up input
I0406 15:16:03.432742  6308 net.cpp:157] Top shape: 1 3 1000 1500 (4500000)
I0406 15:16:03.432754  6308 net.cpp:157] Top shape: 1 3 (3)
I0406 15:16:03.432761  6308 net.cpp:157] Top shape: 1 5 (5)
I0406 15:16:03.432768  6308 net.cpp:157] Top shape: 1 5 (5)
I0406 15:16:03.432775  6308 net.cpp:165] Memory required for data: 18000052
I0406 15:16:03.432785  6308 layer_factory.hpp:77] Creating layer input_data_input_0_split
I0406 15:16:03.432803  6308 net.cpp:106] Creating Layer input_data_input_0_split
I0406 15:16:03.432816  6308 net.cpp:454] input_data_input_0_split <- input_data
I0406 15:16:03.432831  6308 net.cpp:411] input_data_input_0_split -> input_data_input_0_split_0
I0406 15:16:03.432854  6308 net.cpp:411] input_data_input_0_split -> input_data_input_0_split_1
I0406 15:16:03.432900  6308 net.cpp:150] Setting up input_data_input_0_split
I0406 15:16:03.432910  6308 net.cpp:157] Top shape: 1 3 1000 1500 (4500000)
I0406 15:16:03.432919  6308 net.cpp:157] Top shape: 1 3 1000 1500 (4500000)
I0406 15:16:03.432925  6308 net.cpp:165] Memory required for data: 54000052
I0406 15:16:03.432931  6308 layer_factory.hpp:77] Creating layer conv1_1
I0406 15:16:03.432950  6308 net.cpp:106] Creating Layer conv1_1
I0406 15:16:03.432960  6308 net.cpp:454] conv1_1 <- input_data_input_0_split_0
I0406 15:16:03.432973  6308 net.cpp:411] conv1_1 -> conv1_1
I0406 15:16:03.435895  6308 net.cpp:150] Setting up conv1_1
I0406 15:16:03.435931  6308 net.cpp:157] Top shape: 1 64 1000 1500 (96000000)
I0406 15:16:03.435937  6308 net.cpp:165] Memory required for data: 438000052
I0406 15:16:03.435968  6308 layer_factory.hpp:77] Creating layer relu1_1
I0406 15:16:03.435986  6308 net.cpp:106] Creating Layer relu1_1
I0406 15:16:03.435995  6308 net.cpp:454] relu1_1 <- conv1_1
I0406 15:16:03.436007  6308 net.cpp:397] relu1_1 -> conv1_1 (in-place)
I0406 15:16:03.436030  6308 net.cpp:150] Setting up relu1_1
I0406 15:16:03.436040  6308 net.cpp:157] Top shape: 1 64 1000 1500 (96000000)
I0406 15:16:03.436046  6308 net.cpp:165] Memory required for data: 822000052
I0406 15:16:03.436053  6308 layer_factory.hpp:77] Creating layer conv1_2
I0406 15:16:03.436074  6308 net.cpp:106] Creating Layer conv1_2
I0406 15:16:03.436082  6308 net.cpp:454] conv1_2 <- conv1_1
I0406 15:16:03.436094  6308 net.cpp:411] conv1_2 -> conv1_2
I0406 15:16:03.439201  6308 net.cpp:150] Setting up conv1_2
I0406 15:16:03.439239  6308 net.cpp:157] Top shape: 1 64 1000 1500 (96000000)
I0406 15:16:03.439244  6308 net.cpp:165] Memory required for data: 1206000052
I0406 15:16:03.439267  6308 layer_factory.hpp:77] Creating layer relu1_2
I0406 15:16:03.439283  6308 net.cpp:106] Creating Layer relu1_2
I0406 15:16:03.439294  6308 net.cpp:454] relu1_2 <- conv1_2
I0406 15:16:03.439306  6308 net.cpp:397] relu1_2 -> conv1_2 (in-place)
I0406 15:16:03.439323  6308 net.cpp:150] Setting up relu1_2
I0406 15:16:03.439332  6308 net.cpp:157] Top shape: 1 64 1000 1500 (96000000)
I0406 15:16:03.439339  6308 net.cpp:165] Memory required for data: 1590000052
I0406 15:16:03.439347  6308 layer_factory.hpp:77] Creating layer pool1
I0406 15:16:03.439357  6308 net.cpp:106] Creating Layer pool1
I0406 15:16:03.439364  6308 net.cpp:454] pool1 <- conv1_2
I0406 15:16:03.439376  6308 net.cpp:411] pool1 -> pool1
I0406 15:16:03.439455  6308 net.cpp:150] Setting up pool1
I0406 15:16:03.439466  6308 net.cpp:157] Top shape: 1 64 500 750 (24000000)
I0406 15:16:03.439474  6308 net.cpp:165] Memory required for data: 1686000052
I0406 15:16:03.439481  6308 layer_factory.hpp:77] Creating layer conv2_1
I0406 15:16:03.439501  6308 net.cpp:106] Creating Layer conv2_1
I0406 15:16:03.439507  6308 net.cpp:454] conv2_1 <- pool1
I0406 15:16:03.439517  6308 net.cpp:411] conv2_1 -> conv2_1
I0406 15:16:03.440809  6308 net.cpp:150] Setting up conv2_1
I0406 15:16:03.440838  6308 net.cpp:157] Top shape: 1 128 500 750 (48000000)
I0406 15:16:03.440845  6308 net.cpp:165] Memory required for data: 1878000052
I0406 15:16:03.440862  6308 layer_factory.hpp:77] Creating layer relu2_1
I0406 15:16:03.440881  6308 net.cpp:106] Creating Layer relu2_1
I0406 15:16:03.440889  6308 net.cpp:454] relu2_1 <- conv2_1
I0406 15:16:03.440902  6308 net.cpp:397] relu2_1 -> conv2_1 (in-place)
I0406 15:16:03.440917  6308 net.cpp:150] Setting up relu2_1
I0406 15:16:03.440925  6308 net.cpp:157] Top shape: 1 128 500 750 (48000000)
I0406 15:16:03.440933  6308 net.cpp:165] Memory required for data: 2070000052
I0406 15:16:03.440939  6308 layer_factory.hpp:77] Creating layer conv2_2
I0406 15:16:03.440956  6308 net.cpp:106] Creating Layer conv2_2
I0406 15:16:03.440963  6308 net.cpp:454] conv2_2 <- conv2_1
I0406 15:16:03.440975  6308 net.cpp:411] conv2_2 -> conv2_2
I0406 15:16:03.441982  6308 net.cpp:150] Setting up conv2_2
I0406 15:16:03.442009  6308 net.cpp:157] Top shape: 1 128 500 750 (48000000)
I0406 15:16:03.442014  6308 net.cpp:165] Memory required for data: 2262000052
I0406 15:16:03.442030  6308 layer_factory.hpp:77] Creating layer relu2_2
I0406 15:16:03.442045  6308 net.cpp:106] Creating Layer relu2_2
I0406 15:16:03.442052  6308 net.cpp:454] relu2_2 <- conv2_2
I0406 15:16:03.442070  6308 net.cpp:397] relu2_2 -> conv2_2 (in-place)
I0406 15:16:03.442083  6308 net.cpp:150] Setting up relu2_2
I0406 15:16:03.442092  6308 net.cpp:157] Top shape: 1 128 500 750 (48000000)
I0406 15:16:03.442098  6308 net.cpp:165] Memory required for data: 2454000052
I0406 15:16:03.442107  6308 layer_factory.hpp:77] Creating layer pool2
I0406 15:16:03.442118  6308 net.cpp:106] Creating Layer pool2
I0406 15:16:03.442126  6308 net.cpp:454] pool2 <- conv2_2
I0406 15:16:03.442136  6308 net.cpp:411] pool2 -> pool2
I0406 15:16:03.442193  6308 net.cpp:150] Setting up pool2
I0406 15:16:03.442203  6308 net.cpp:157] Top shape: 1 128 250 375 (12000000)
I0406 15:16:03.442209  6308 net.cpp:165] Memory required for data: 2502000052
I0406 15:16:03.442217  6308 layer_factory.hpp:77] Creating layer conv3_1
I0406 15:16:03.442232  6308 net.cpp:106] Creating Layer conv3_1
I0406 15:16:03.442239  6308 net.cpp:454] conv3_1 <- pool2
I0406 15:16:03.442251  6308 net.cpp:411] conv3_1 -> conv3_1
I0406 15:16:03.443405  6308 net.cpp:150] Setting up conv3_1
I0406 15:16:03.443434  6308 net.cpp:157] Top shape: 1 256 250 375 (24000000)
I0406 15:16:03.443439  6308 net.cpp:165] Memory required for data: 2598000052
I0406 15:16:03.443459  6308 layer_factory.hpp:77] Creating layer relu3_1
I0406 15:16:03.443475  6308 net.cpp:106] Creating Layer relu3_1
I0406 15:16:03.443481  6308 net.cpp:454] relu3_1 <- conv3_1
I0406 15:16:03.443496  6308 net.cpp:397] relu3_1 -> conv3_1 (in-place)
I0406 15:16:03.443511  6308 net.cpp:150] Setting up relu3_1
I0406 15:16:03.443521  6308 net.cpp:157] Top shape: 1 256 250 375 (24000000)
I0406 15:16:03.443528  6308 net.cpp:165] Memory required for data: 2694000052
I0406 15:16:03.443534  6308 layer_factory.hpp:77] Creating layer conv3_2
I0406 15:16:03.443552  6308 net.cpp:106] Creating Layer conv3_2
I0406 15:16:03.443559  6308 net.cpp:454] conv3_2 <- conv3_1
I0406 15:16:03.443569  6308 net.cpp:411] conv3_2 -> conv3_2
I0406 15:16:03.444934  6308 net.cpp:150] Setting up conv3_2
I0406 15:16:03.444969  6308 net.cpp:157] Top shape: 1 256 250 375 (24000000)
I0406 15:16:03.444974  6308 net.cpp:165] Memory required for data: 2790000052
I0406 15:16:03.444988  6308 layer_factory.hpp:77] Creating layer relu3_2
I0406 15:16:03.445001  6308 net.cpp:106] Creating Layer relu3_2
I0406 15:16:03.445011  6308 net.cpp:454] relu3_2 <- conv3_2
I0406 15:16:03.445025  6308 net.cpp:397] relu3_2 -> conv3_2 (in-place)
I0406 15:16:03.445039  6308 net.cpp:150] Setting up relu3_2
I0406 15:16:03.445050  6308 net.cpp:157] Top shape: 1 256 250 375 (24000000)
I0406 15:16:03.445056  6308 net.cpp:165] Memory required for data: 2886000052
I0406 15:16:03.445063  6308 layer_factory.hpp:77] Creating layer conv3_3
I0406 15:16:03.445082  6308 net.cpp:106] Creating Layer conv3_3
I0406 15:16:03.445089  6308 net.cpp:454] conv3_3 <- conv3_2
I0406 15:16:03.445098  6308 net.cpp:411] conv3_3 -> conv3_3
I0406 15:16:03.446758  6308 net.cpp:150] Setting up conv3_3
I0406 15:16:03.446787  6308 net.cpp:157] Top shape: 1 256 250 375 (24000000)
I0406 15:16:03.446794  6308 net.cpp:165] Memory required for data: 2982000052
I0406 15:16:03.446807  6308 layer_factory.hpp:77] Creating layer relu3_3
I0406 15:16:03.446820  6308 net.cpp:106] Creating Layer relu3_3
I0406 15:16:03.446828  6308 net.cpp:454] relu3_3 <- conv3_3
I0406 15:16:03.446841  6308 net.cpp:397] relu3_3 -> conv3_3 (in-place)
I0406 15:16:03.446856  6308 net.cpp:150] Setting up relu3_3
I0406 15:16:03.446866  6308 net.cpp:157] Top shape: 1 256 250 375 (24000000)
I0406 15:16:03.446871  6308 net.cpp:165] Memory required for data: 3078000052
I0406 15:16:03.446877  6308 layer_factory.hpp:77] Creating layer pool3
I0406 15:16:03.446889  6308 net.cpp:106] Creating Layer pool3
I0406 15:16:03.446897  6308 net.cpp:454] pool3 <- conv3_3
I0406 15:16:03.446907  6308 net.cpp:411] pool3 -> pool3
I0406 15:16:03.446969  6308 net.cpp:150] Setting up pool3
I0406 15:16:03.447000  6308 net.cpp:157] Top shape: 1 256 125 188 (6016000)
I0406 15:16:03.447019  6308 net.cpp:165] Memory required for data: 3102064052
I0406 15:16:03.447039  6308 layer_factory.hpp:77] Creating layer conv4_1
I0406 15:16:03.447064  6308 net.cpp:106] Creating Layer conv4_1
I0406 15:16:03.447083  6308 net.cpp:454] conv4_1 <- pool3
I0406 15:16:03.447108  6308 net.cpp:411] conv4_1 -> conv4_1
I0406 15:16:03.449926  6308 net.cpp:150] Setting up conv4_1
I0406 15:16:03.449970  6308 net.cpp:157] Top shape: 1 512 125 188 (12032000)
I0406 15:16:03.449975  6308 net.cpp:165] Memory required for data: 3150192052
I0406 15:16:03.449983  6308 layer_factory.hpp:77] Creating layer relu4_1
I0406 15:16:03.449995  6308 net.cpp:106] Creating Layer relu4_1
I0406 15:16:03.450001  6308 net.cpp:454] relu4_1 <- conv4_1
I0406 15:16:03.450012  6308 net.cpp:397] relu4_1 -> conv4_1 (in-place)
I0406 15:16:03.450026  6308 net.cpp:150] Setting up relu4_1
I0406 15:16:03.450040  6308 net.cpp:157] Top shape: 1 512 125 188 (12032000)
I0406 15:16:03.450048  6308 net.cpp:165] Memory required for data: 3198320052
I0406 15:16:03.450055  6308 layer_factory.hpp:77] Creating layer conv4_2
I0406 15:16:03.450072  6308 net.cpp:106] Creating Layer conv4_2
I0406 15:16:03.450079  6308 net.cpp:454] conv4_2 <- conv4_1
I0406 15:16:03.450089  6308 net.cpp:411] conv4_2 -> conv4_2
I0406 15:16:03.454426  6308 net.cpp:150] Setting up conv4_2
I0406 15:16:03.454460  6308 net.cpp:157] Top shape: 1 512 125 188 (12032000)
I0406 15:16:03.454473  6308 net.cpp:165] Memory required for data: 3246448052
I0406 15:16:03.454490  6308 layer_factory.hpp:77] Creating layer relu4_2
I0406 15:16:03.454500  6308 net.cpp:106] Creating Layer relu4_2
I0406 15:16:03.454506  6308 net.cpp:454] relu4_2 <- conv4_2
I0406 15:16:03.454519  6308 net.cpp:397] relu4_2 -> conv4_2 (in-place)
I0406 15:16:03.454531  6308 net.cpp:150] Setting up relu4_2
I0406 15:16:03.454538  6308 net.cpp:157] Top shape: 1 512 125 188 (12032000)
I0406 15:16:03.454545  6308 net.cpp:165] Memory required for data: 3294576052
I0406 15:16:03.454550  6308 layer_factory.hpp:77] Creating layer conv4_3
I0406 15:16:03.454573  6308 net.cpp:106] Creating Layer conv4_3
I0406 15:16:03.454581  6308 net.cpp:454] conv4_3 <- conv4_2
I0406 15:16:03.454592  6308 net.cpp:411] conv4_3 -> conv4_3
I0406 15:16:03.458897  6308 net.cpp:150] Setting up conv4_3
I0406 15:16:03.458932  6308 net.cpp:157] Top shape: 1 512 125 188 (12032000)
I0406 15:16:03.458945  6308 net.cpp:165] Memory required for data: 3342704052
I0406 15:16:03.458955  6308 layer_factory.hpp:77] Creating layer relu4_3
I0406 15:16:03.458966  6308 net.cpp:106] Creating Layer relu4_3
I0406 15:16:03.458971  6308 net.cpp:454] relu4_3 <- conv4_3
I0406 15:16:03.458979  6308 net.cpp:397] relu4_3 -> conv4_3 (in-place)
I0406 15:16:03.458992  6308 net.cpp:150] Setting up relu4_3
I0406 15:16:03.458999  6308 net.cpp:157] Top shape: 1 512 125 188 (12032000)
I0406 15:16:03.459004  6308 net.cpp:165] Memory required for data: 3390832052
I0406 15:16:03.459009  6308 layer_factory.hpp:77] Creating layer pool4
I0406 15:16:03.459018  6308 net.cpp:106] Creating Layer pool4
I0406 15:16:03.459034  6308 net.cpp:454] pool4 <- conv4_3
I0406 15:16:03.459048  6308 net.cpp:411] pool4 -> pool4
I0406 15:16:03.459105  6308 net.cpp:150] Setting up pool4
I0406 15:16:03.459115  6308 net.cpp:157] Top shape: 1 512 63 94 (3032064)
I0406 15:16:03.459120  6308 net.cpp:165] Memory required for data: 3402960308
I0406 15:16:03.459132  6308 layer_factory.hpp:77] Creating layer conv5_1
I0406 15:16:03.459146  6308 net.cpp:106] Creating Layer conv5_1
I0406 15:16:03.459153  6308 net.cpp:454] conv5_1 <- pool4
I0406 15:16:03.459167  6308 net.cpp:411] conv5_1 -> conv5_1
I0406 15:16:03.464061  6308 net.cpp:150] Setting up conv5_1
I0406 15:16:03.464092  6308 net.cpp:157] Top shape: 1 512 63 94 (3032064)
I0406 15:16:03.464095  6308 net.cpp:165] Memory required for data: 3415088564
I0406 15:16:03.464107  6308 layer_factory.hpp:77] Creating layer relu5_1
I0406 15:16:03.464121  6308 net.cpp:106] Creating Layer relu5_1
I0406 15:16:03.464128  6308 net.cpp:454] relu5_1 <- conv5_1
I0406 15:16:03.464139  6308 net.cpp:397] relu5_1 -> conv5_1 (in-place)
I0406 15:16:03.464156  6308 net.cpp:150] Setting up relu5_1
I0406 15:16:03.464165  6308 net.cpp:157] Top shape: 1 512 63 94 (3032064)
I0406 15:16:03.464170  6308 net.cpp:165] Memory required for data: 3427216820
I0406 15:16:03.464176  6308 layer_factory.hpp:77] Creating layer conv5_2
I0406 15:16:03.464190  6308 net.cpp:106] Creating Layer conv5_2
I0406 15:16:03.464197  6308 net.cpp:454] conv5_2 <- conv5_1
I0406 15:16:03.464207  6308 net.cpp:411] conv5_2 -> conv5_2
I0406 15:16:03.468735  6308 net.cpp:150] Setting up conv5_2
I0406 15:16:03.468770  6308 net.cpp:157] Top shape: 1 512 63 94 (3032064)
I0406 15:16:03.468773  6308 net.cpp:165] Memory required for data: 3439345076
I0406 15:16:03.468782  6308 layer_factory.hpp:77] Creating layer relu5_2
I0406 15:16:03.468794  6308 net.cpp:106] Creating Layer relu5_2
I0406 15:16:03.468798  6308 net.cpp:454] relu5_2 <- conv5_2
I0406 15:16:03.468806  6308 net.cpp:397] relu5_2 -> conv5_2 (in-place)
I0406 15:16:03.468821  6308 net.cpp:150] Setting up relu5_2
I0406 15:16:03.468827  6308 net.cpp:157] Top shape: 1 512 63 94 (3032064)
I0406 15:16:03.468832  6308 net.cpp:165] Memory required for data: 3451473332
I0406 15:16:03.468837  6308 layer_factory.hpp:77] Creating layer conv5_3
I0406 15:16:03.468850  6308 net.cpp:106] Creating Layer conv5_3
I0406 15:16:03.468859  6308 net.cpp:454] conv5_3 <- conv5_2
I0406 15:16:03.468870  6308 net.cpp:411] conv5_3 -> conv5_3
I0406 15:16:03.474433  6308 net.cpp:150] Setting up conv5_3
I0406 15:16:03.474467  6308 net.cpp:157] Top shape: 1 512 63 94 (3032064)
I0406 15:16:03.474480  6308 net.cpp:165] Memory required for data: 3463601588
I0406 15:16:03.474490  6308 layer_factory.hpp:77] Creating layer relu5_3
I0406 15:16:03.474501  6308 net.cpp:106] Creating Layer relu5_3
I0406 15:16:03.474506  6308 net.cpp:454] relu5_3 <- conv5_3
I0406 15:16:03.474519  6308 net.cpp:397] relu5_3 -> conv5_3 (in-place)
I0406 15:16:03.474532  6308 net.cpp:150] Setting up relu5_3
I0406 15:16:03.474541  6308 net.cpp:157] Top shape: 1 512 63 94 (3032064)
I0406 15:16:03.474550  6308 net.cpp:165] Memory required for data: 3475729844
I0406 15:16:03.474555  6308 layer_factory.hpp:77] Creating layer rpn_big_conv1
I0406 15:16:03.474581  6308 net.cpp:106] Creating Layer rpn_big_conv1
I0406 15:16:03.474588  6308 net.cpp:454] rpn_big_conv1 <- conv5_3
I0406 15:16:03.474598  6308 net.cpp:411] rpn_big_conv1 -> rpn_big_conv1
I0406 15:16:03.499128  6308 net.cpp:150] Setting up rpn_big_conv1
I0406 15:16:03.499160  6308 net.cpp:157] Top shape: 1 512 63 94 (3032064)
I0406 15:16:03.499172  6308 net.cpp:165] Memory required for data: 3487858100
I0406 15:16:03.499182  6308 layer_factory.hpp:77] Creating layer rpn_big_conv1_relu
I0406 15:16:03.499195  6308 net.cpp:106] Creating Layer rpn_big_conv1_relu
I0406 15:16:03.499203  6308 net.cpp:454] rpn_big_conv1_relu <- rpn_big_conv1
I0406 15:16:03.499214  6308 net.cpp:397] rpn_big_conv1_relu -> rpn_big_conv1 (in-place)
I0406 15:16:03.499227  6308 net.cpp:150] Setting up rpn_big_conv1_relu
I0406 15:16:03.499244  6308 net.cpp:157] Top shape: 1 512 63 94 (3032064)
I0406 15:16:03.499251  6308 net.cpp:165] Memory required for data: 3499986356
I0406 15:16:03.499258  6308 layer_factory.hpp:77] Creating layer rpn_big_conv2
I0406 15:16:03.499275  6308 net.cpp:106] Creating Layer rpn_big_conv2
I0406 15:16:03.499282  6308 net.cpp:454] rpn_big_conv2 <- rpn_big_conv1
I0406 15:16:03.499294  6308 net.cpp:411] rpn_big_conv2 -> rpn_big_conv2
I0406 15:16:03.523936  6308 net.cpp:150] Setting up rpn_big_conv2
I0406 15:16:03.523967  6308 net.cpp:157] Top shape: 1 512 63 94 (3032064)
I0406 15:16:03.523980  6308 net.cpp:165] Memory required for data: 3512114612
I0406 15:16:03.523990  6308 layer_factory.hpp:77] Creating layer rpn_big_conv2_relu
I0406 15:16:03.524001  6308 net.cpp:106] Creating Layer rpn_big_conv2_relu
I0406 15:16:03.524008  6308 net.cpp:454] rpn_big_conv2_relu <- rpn_big_conv2
I0406 15:16:03.524022  6308 net.cpp:397] rpn_big_conv2_relu -> rpn_big_conv2 (in-place)
I0406 15:16:03.524036  6308 net.cpp:150] Setting up rpn_big_conv2_relu
I0406 15:16:03.524055  6308 net.cpp:157] Top shape: 1 512 63 94 (3032064)
I0406 15:16:03.524061  6308 net.cpp:165] Memory required for data: 3524242868
I0406 15:16:03.524067  6308 layer_factory.hpp:77] Creating layer rpn_big_conv2_drop
I0406 15:16:03.524078  6308 net.cpp:106] Creating Layer rpn_big_conv2_drop
I0406 15:16:03.524086  6308 net.cpp:454] rpn_big_conv2_drop <- rpn_big_conv2
I0406 15:16:03.524094  6308 net.cpp:397] rpn_big_conv2_drop -> rpn_big_conv2 (in-place)
I0406 15:16:03.524129  6308 net.cpp:150] Setting up rpn_big_conv2_drop
I0406 15:16:03.524148  6308 net.cpp:157] Top shape: 1 512 63 94 (3032064)
I0406 15:16:03.524152  6308 net.cpp:165] Memory required for data: 3536371124
I0406 15:16:03.524158  6308 layer_factory.hpp:77] Creating layer rpn_big_conv2_rpn_big_conv2_drop_0_split
I0406 15:16:03.524175  6308 net.cpp:106] Creating Layer rpn_big_conv2_rpn_big_conv2_drop_0_split
I0406 15:16:03.524183  6308 net.cpp:454] rpn_big_conv2_rpn_big_conv2_drop_0_split <- rpn_big_conv2
I0406 15:16:03.524195  6308 net.cpp:411] rpn_big_conv2_rpn_big_conv2_drop_0_split -> rpn_big_conv2_rpn_big_conv2_drop_0_split_0
I0406 15:16:03.524207  6308 net.cpp:411] rpn_big_conv2_rpn_big_conv2_drop_0_split -> rpn_big_conv2_rpn_big_conv2_drop_0_split_1
I0406 15:16:03.524253  6308 net.cpp:150] Setting up rpn_big_conv2_rpn_big_conv2_drop_0_split
I0406 15:16:03.524265  6308 net.cpp:157] Top shape: 1 512 63 94 (3032064)
I0406 15:16:03.524271  6308 net.cpp:157] Top shape: 1 512 63 94 (3032064)
I0406 15:16:03.524276  6308 net.cpp:165] Memory required for data: 3560627636
I0406 15:16:03.524281  6308 layer_factory.hpp:77] Creating layer rpn_big_output_cls
I0406 15:16:03.524299  6308 net.cpp:106] Creating Layer rpn_big_output_cls
I0406 15:16:03.524307  6308 net.cpp:454] rpn_big_output_cls <- rpn_big_conv2_rpn_big_conv2_drop_0_split_0
I0406 15:16:03.524320  6308 net.cpp:411] rpn_big_output_cls -> rpn_big_output_cls
I0406 15:16:03.544620  6308 net.cpp:150] Setting up rpn_big_output_cls
I0406 15:16:03.544648  6308 net.cpp:157] Top shape: 1 384 63 94 (2274048)
I0406 15:16:03.544652  6308 net.cpp:165] Memory required for data: 3569723828
I0406 15:16:03.544665  6308 layer_factory.hpp:77] Creating layer rpn_big_output_cls_relu
I0406 15:16:03.544679  6308 net.cpp:106] Creating Layer rpn_big_output_cls_relu
I0406 15:16:03.544695  6308 net.cpp:454] rpn_big_output_cls_relu <- rpn_big_output_cls
I0406 15:16:03.544708  6308 net.cpp:397] rpn_big_output_cls_relu -> rpn_big_output_cls (in-place)
I0406 15:16:03.544723  6308 net.cpp:150] Setting up rpn_big_output_cls_relu
I0406 15:16:03.544731  6308 net.cpp:157] Top shape: 1 384 63 94 (2274048)
I0406 15:16:03.544737  6308 net.cpp:165] Memory required for data: 3578820020
I0406 15:16:03.544742  6308 layer_factory.hpp:77] Creating layer rpn_big_cls_score
I0406 15:16:03.544759  6308 net.cpp:106] Creating Layer rpn_big_cls_score
I0406 15:16:03.544766  6308 net.cpp:454] rpn_big_cls_score <- rpn_big_output_cls
I0406 15:16:03.544778  6308 net.cpp:411] rpn_big_cls_score -> rpn_big_cls_score
I0406 15:16:03.547209  6308 net.cpp:150] Setting up rpn_big_cls_score
I0406 15:16:03.547227  6308 net.cpp:157] Top shape: 1 52 61 92 (291824)
I0406 15:16:03.547231  6308 net.cpp:165] Memory required for data: 3579987316
I0406 15:16:03.547253  6308 layer_factory.hpp:77] Creating layer rpn_big_cls_score_rpn_big_cls_score_0_split
I0406 15:16:03.547271  6308 net.cpp:106] Creating Layer rpn_big_cls_score_rpn_big_cls_score_0_split
I0406 15:16:03.547281  6308 net.cpp:454] rpn_big_cls_score_rpn_big_cls_score_0_split <- rpn_big_cls_score
I0406 15:16:03.547292  6308 net.cpp:411] rpn_big_cls_score_rpn_big_cls_score_0_split -> rpn_big_cls_score_rpn_big_cls_score_0_split_0
I0406 15:16:03.547305  6308 net.cpp:411] rpn_big_cls_score_rpn_big_cls_score_0_split -> rpn_big_cls_score_rpn_big_cls_score_0_split_1
I0406 15:16:03.547355  6308 net.cpp:150] Setting up rpn_big_cls_score_rpn_big_cls_score_0_split
I0406 15:16:03.547389  6308 net.cpp:157] Top shape: 1 52 61 92 (291824)
I0406 15:16:03.547412  6308 net.cpp:157] Top shape: 1 52 61 92 (291824)
I0406 15:16:03.547430  6308 net.cpp:165] Memory required for data: 3582321908
I0406 15:16:03.547448  6308 layer_factory.hpp:77] Creating layer rpn_big_cls_score_reshape
I0406 15:16:03.547473  6308 net.cpp:106] Creating Layer rpn_big_cls_score_reshape
I0406 15:16:03.547492  6308 net.cpp:454] rpn_big_cls_score_reshape <- rpn_big_cls_score_rpn_big_cls_score_0_split_0
I0406 15:16:03.547514  6308 net.cpp:411] rpn_big_cls_score_reshape -> rpn_big_cls_score_reshape
I0406 15:16:03.547564  6308 net.cpp:150] Setting up rpn_big_cls_score_reshape
I0406 15:16:03.547590  6308 net.cpp:157] Top shape: 1 2 1586 92 (291824)
I0406 15:16:03.547608  6308 net.cpp:165] Memory required for data: 3583489204
I0406 15:16:03.547629  6308 layer_factory.hpp:77] Creating layer rpn_big_cls_score_reshape_rpn_big_cls_score_reshape_0_split
I0406 15:16:03.547650  6308 net.cpp:106] Creating Layer rpn_big_cls_score_reshape_rpn_big_cls_score_reshape_0_split
I0406 15:16:03.547670  6308 net.cpp:454] rpn_big_cls_score_reshape_rpn_big_cls_score_reshape_0_split <- rpn_big_cls_score_reshape
I0406 15:16:03.547693  6308 net.cpp:411] rpn_big_cls_score_reshape_rpn_big_cls_score_reshape_0_split -> rpn_big_cls_score_reshape_rpn_big_cls_score_reshape_0_split_0
I0406 15:16:03.547731  6308 net.cpp:411] rpn_big_cls_score_reshape_rpn_big_cls_score_reshape_0_split -> rpn_big_cls_score_reshape_rpn_big_cls_score_reshape_0_split_1
I0406 15:16:03.547804  6308 net.cpp:150] Setting up rpn_big_cls_score_reshape_rpn_big_cls_score_reshape_0_split
I0406 15:16:03.547829  6308 net.cpp:157] Top shape: 1 2 1586 92 (291824)
I0406 15:16:03.547849  6308 net.cpp:157] Top shape: 1 2 1586 92 (291824)
I0406 15:16:03.547868  6308 net.cpp:165] Memory required for data: 3585823796
I0406 15:16:03.547884  6308 layer_factory.hpp:77] Creating layer rpn_big_cls_prob
I0406 15:16:03.547909  6308 net.cpp:106] Creating Layer rpn_big_cls_prob
I0406 15:16:03.547930  6308 net.cpp:454] rpn_big_cls_prob <- rpn_big_cls_score_reshape_rpn_big_cls_score_reshape_0_split_0
I0406 15:16:03.547952  6308 net.cpp:411] rpn_big_cls_prob -> rpn_big_cls_prob
I0406 15:16:03.548044  6308 net.cpp:150] Setting up rpn_big_cls_prob
I0406 15:16:03.548068  6308 net.cpp:157] Top shape: 1 2 1586 92 (291824)
I0406 15:16:03.548084  6308 net.cpp:165] Memory required for data: 3586991092
I0406 15:16:03.548102  6308 layer_factory.hpp:77] Creating layer rpn_big_cls_prob_reshape
I0406 15:16:03.548125  6308 net.cpp:106] Creating Layer rpn_big_cls_prob_reshape
I0406 15:16:03.548143  6308 net.cpp:454] rpn_big_cls_prob_reshape <- rpn_big_cls_prob
I0406 15:16:03.548164  6308 net.cpp:411] rpn_big_cls_prob_reshape -> rpn_big_cls_prob_reshape
I0406 15:16:03.548213  6308 net.cpp:150] Setting up rpn_big_cls_prob_reshape
I0406 15:16:03.548235  6308 net.cpp:157] Top shape: 1 52 61 92 (291824)
I0406 15:16:03.548255  6308 net.cpp:165] Memory required for data: 3588158388
I0406 15:16:03.548272  6308 layer_factory.hpp:77] Creating layer rpn_big_anchor_target
I0406 15:16:03.549839  6308 net.cpp:106] Creating Layer rpn_big_anchor_target
I0406 15:16:03.549857  6308 net.cpp:454] rpn_big_anchor_target <- rpn_big_cls_score_rpn_big_cls_score_0_split_1
I0406 15:16:03.549866  6308 net.cpp:454] rpn_big_anchor_target <- input_gt_boxes
I0406 15:16:03.549875  6308 net.cpp:454] rpn_big_anchor_target <- input_ignored_boxes
I0406 15:16:03.549885  6308 net.cpp:454] rpn_big_anchor_target <- input_im_info
I0406 15:16:03.549892  6308 net.cpp:454] rpn_big_anchor_target <- input_data_input_0_split_1
I0406 15:16:03.549901  6308 net.cpp:454] rpn_big_anchor_target <- rpn_big_cls_prob_reshape
I0406 15:16:03.549912  6308 net.cpp:411] rpn_big_anchor_target -> rpn_big_anchor_target_labels
I0406 15:16:03.549927  6308 net.cpp:411] rpn_big_anchor_target -> rpn_big_anchor_target_bbox_targets
I0406 15:16:03.549942  6308 net.cpp:411] rpn_big_anchor_target -> rpn_big_anchor_target_inside_weights
I0406 15:16:03.549955  6308 net.cpp:411] rpn_big_anchor_target -> rpn_big_anchor_target_outside_weights
I0406 15:16:03.555104  6308 net.cpp:150] Setting up rpn_big_anchor_target
I0406 15:16:03.555126  6308 net.cpp:157] Top shape: 1 1 1586 92 (145912)
I0406 15:16:03.555135  6308 net.cpp:157] Top shape: 1 104 61 92 (583648)
I0406 15:16:03.555148  6308 net.cpp:157] Top shape: 1 104 61 92 (583648)
I0406 15:16:03.555157  6308 net.cpp:157] Top shape: 1 104 61 92 (583648)
I0406 15:16:03.555162  6308 net.cpp:165] Memory required for data: 3595745812
I0406 15:16:03.555169  6308 layer_factory.hpp:77] Creating layer rpn_big_loss_cls
I0406 15:16:03.555186  6308 net.cpp:106] Creating Layer rpn_big_loss_cls
I0406 15:16:03.555194  6308 net.cpp:454] rpn_big_loss_cls <- rpn_big_cls_score_reshape_rpn_big_cls_score_reshape_0_split_1
I0406 15:16:03.555207  6308 net.cpp:454] rpn_big_loss_cls <- rpn_big_anchor_target_labels
I0406 15:16:03.555217  6308 net.cpp:411] rpn_big_loss_cls -> rpn_big_loss_cls
I0406 15:16:03.555235  6308 layer_factory.hpp:77] Creating layer rpn_big_loss_cls
I0406 15:16:03.555979  6308 net.cpp:150] Setting up rpn_big_loss_cls
I0406 15:16:03.555994  6308 net.cpp:157] Top shape: (1)
I0406 15:16:03.556001  6308 net.cpp:160]     with loss weight 1
I0406 15:16:03.556017  6308 net.cpp:165] Memory required for data: 3595745816
I0406 15:16:03.556026  6308 layer_factory.hpp:77] Creating layer rpn_big_output_box
I0406 15:16:03.556044  6308 net.cpp:106] Creating Layer rpn_big_output_box
I0406 15:16:03.556052  6308 net.cpp:454] rpn_big_output_box <- rpn_big_conv2_rpn_big_conv2_drop_0_split_1
I0406 15:16:03.556067  6308 net.cpp:411] rpn_big_output_box -> rpn_big_output_box
I0406 15:16:03.577085  6308 net.cpp:150] Setting up rpn_big_output_box
I0406 15:16:03.577116  6308 net.cpp:157] Top shape: 1 384 63 94 (2274048)
I0406 15:16:03.577127  6308 net.cpp:165] Memory required for data: 3604842008
I0406 15:16:03.577137  6308 layer_factory.hpp:77] Creating layer rpn_big_output_box_relu
I0406 15:16:03.577149  6308 net.cpp:106] Creating Layer rpn_big_output_box_relu
I0406 15:16:03.577154  6308 net.cpp:454] rpn_big_output_box_relu <- rpn_big_output_box
I0406 15:16:03.577167  6308 net.cpp:397] rpn_big_output_box_relu -> rpn_big_output_box (in-place)
I0406 15:16:03.577179  6308 net.cpp:150] Setting up rpn_big_output_box_relu
I0406 15:16:03.577189  6308 net.cpp:157] Top shape: 1 384 63 94 (2274048)
I0406 15:16:03.577195  6308 net.cpp:165] Memory required for data: 3613938200
I0406 15:16:03.577200  6308 layer_factory.hpp:77] Creating layer rpn_big_bbox_pred
I0406 15:16:03.577215  6308 net.cpp:106] Creating Layer rpn_big_bbox_pred
I0406 15:16:03.577224  6308 net.cpp:454] rpn_big_bbox_pred <- rpn_big_output_box
I0406 15:16:03.577234  6308 net.cpp:411] rpn_big_bbox_pred -> rpn_big_bbox_pred
I0406 15:16:03.581357  6308 net.cpp:150] Setting up rpn_big_bbox_pred
I0406 15:16:03.581372  6308 net.cpp:157] Top shape: 1 104 61 92 (583648)
I0406 15:16:03.581375  6308 net.cpp:165] Memory required for data: 3616272792
I0406 15:16:03.581390  6308 layer_factory.hpp:77] Creating layer rpn_big_loss_bbox
I0406 15:16:03.582481  6308 net.cpp:106] Creating Layer rpn_big_loss_bbox
I0406 15:16:03.582501  6308 net.cpp:454] rpn_big_loss_bbox <- rpn_big_bbox_pred
I0406 15:16:03.582511  6308 net.cpp:454] rpn_big_loss_bbox <- rpn_big_anchor_target_bbox_targets
I0406 15:16:03.582520  6308 net.cpp:454] rpn_big_loss_bbox <- rpn_big_anchor_target_inside_weights
I0406 15:16:03.582546  6308 net.cpp:454] rpn_big_loss_bbox <- rpn_big_anchor_target_outside_weights
I0406 15:16:03.582571  6308 net.cpp:411] rpn_big_loss_bbox -> rpn_big_loss_bbox
I0406 15:16:03.585312  6308 net.cpp:150] Setting up rpn_big_loss_bbox
I0406 15:16:03.585350  6308 net.cpp:157] Top shape: 1 (1)
I0406 15:16:03.585355  6308 net.cpp:160]     with loss weight 1
I0406 15:16:03.585369  6308 net.cpp:165] Memory required for data: 3616272796
I0406 15:16:03.585378  6308 net.cpp:226] rpn_big_loss_bbox needs backward computation.
I0406 15:16:03.585389  6308 net.cpp:226] rpn_big_bbox_pred needs backward computation.
I0406 15:16:03.585396  6308 net.cpp:226] rpn_big_output_box_relu needs backward computation.
…
