…
I0413 16:11:19.550854  8132 solver.cpp:48] Initializing solver from parameters: 
base_lr: 0.001
display: 20
lr_policy: "multistep"
gamma: 0.1
momentum: 0.9
weight_decay: 0.0005
snapshot: 0
snapshot_prefix: "faces_example"
net_param {
  name: "GeneratedModel_13_04_2017_16_11"
  layer {
    name: "input"
    type: "Python"
    top: "input_data"
    top: "input_im_info"
    top: "input_gt_boxes"
    top: "input_ignored_boxes"
    python_param {
      module: "layers.roi_data_layer"
      layer: "RoIDataLayer"
      param_str: "{\"num_classes\": 2}"
    }
  }
  layer {
    name: "conv1_1"
    type: "Convolution"
    bottom: "input_data"
    top: "conv1_1"
    param {
      lr_mult: 0
      decay_mult: 0
    }
    param {
      lr_mult: 0
      decay_mult: 0
    }
    convolution_param {
      num_output: 64
      pad: 1
      kernel_size: 3
    }
  }
  layer {
    name: "relu1_1"
    type: "ReLU"
    bottom: "conv1_1"
    top: "conv1_1"
  }
  layer {
    name: "conv1_2"
    type: "Convolution"
    bottom: "conv1_1"
    top: "conv1_2"
    param {
      lr_mult: 0
      decay_mult: 0
    }
    param {
      lr_mult: 0
      decay_mult: 0
    }
    convolution_param {
      num_output: 64
      pad: 1
      kernel_size: 3
    }
  }
  layer {
    name: "relu1_2"
    type: "ReLU"
    bottom: "conv1_2"
    top: "conv1_2"
  }
  layer {
    name: "pool1"
    type: "Pooling"
    bottom: "conv1_2"
    top: "pool1"
    pooling_param {
      pool: MAX
      kernel_size: 2
      stride: 2
    }
  }
  layer {
    name: "conv2_1"
    type: "Convolution"
    bottom: "pool1"
    top: "conv2_1"
    param {
      lr_mult: 0
      decay_mult: 0
    }
    param {
      lr_mult: 0
      decay_mult: 0
    }
    convolution_param {
      num_output: 128
      pad: 1
      kernel_size: 3
    }
  }
  layer {
    name: "relu2_1"
    type: "ReLU"
    bottom: "conv2_1"
    top: "conv2_1"
  }
  layer {
    name: "conv2_2"
    type: "Convolution"
    bottom: "conv2_1"
    top: "conv2_2"
    param {
      lr_mult: 0
      decay_mult: 0
    }
    param {
      lr_mult: 0
      decay_mult: 0
    }
    convolution_param {
      num_output: 128
      pad: 1
      kernel_size: 3
    }
  }
  layer {
    name: "relu2_2"
    type: "ReLU"
    bottom: "conv2_2"
    top: "conv2_2"
  }
  layer {
    name: "pool2"
    type: "Pooling"
    bottom: "conv2_2"
    top: "pool2"
    pooling_param {
      pool: MAX
      kernel_size: 2
      stride: 2
    }
  }
  layer {
    name: "conv3_1"
    type: "Convolution"
    bottom: "pool2"
    top: "conv3_1"
    param {
      lr_mult: 1
    }
    param {
      lr_mult: 2
    }
    convolution_param {
      num_output: 256
      pad: 1
      kernel_size: 3
    }
  }
  layer {
    name: "relu3_1"
    type: "ReLU"
    bottom: "conv3_1"
    top: "conv3_1"
  }
  layer {
    name: "conv3_2"
    type: "Convolution"
    bottom: "conv3_1"
    top: "conv3_2"
    param {
      lr_mult: 1
    }
    param {
      lr_mult: 2
    }
    convolution_param {
      num_output: 256
      pad: 1
      kernel_size: 3
    }
  }
  layer {
    name: "relu3_2"
    type: "ReLU"
    bottom: "conv3_2"
    top: "conv3_2"
  }
  layer {
    name: "conv3_3"
    type: "Convolution"
    bottom: "conv3_2"
    top: "conv3_3"
    param {
      lr_mult: 1
    }
    param {
      lr_mult: 2
    }
    convolution_param {
      num_output: 256
      pad: 1
      kernel_size: 3
    }
  }
  layer {
    name: "relu3_3"
    type: "ReLU"
    bottom: "conv3_3"
    top: "conv3_3"
  }
  layer {
    name: "pool3"
    type: "Pooling"
    bottom: "conv3_3"
    top: "pool3"
    pooling_param {
      pool: MAX
      kernel_size: 2
      stride: 2
    }
  }
  layer {
    name: "conv4_1"
    type: "Convolution"
    bottom: "pool3"
    top: "conv4_1"
    param {
      lr_mult: 1
    }
    param {
      lr_mult: 2
    }
    convolution_param {
      num_output: 512
      pad: 1
      kernel_size: 3
    }
  }
  layer {
    name: "relu4_1"
    type: "ReLU"
    bottom: "conv4_1"
    top: "conv4_1"
  }
  layer {
    name: "conv4_2"
    type: "Convolution"
    bottom: "conv4_1"
    top: "conv4_2"
    param {
      lr_mult: 1
    }
    param {
      lr_mult: 2
    }
    convolution_param {
      num_output: 512
      pad: 1
      kernel_size: 3
    }
  }
  layer {
    name: "relu4_2"
    type: "ReLU"
    bottom: "conv4_2"
    top: "conv4_2"
  }
  layer {
    name: "conv4_3"
    type: "Convolution"
    bottom: "conv4_2"
    top: "conv4_3"
    param {
      lr_mult: 1
    }
    param {
      lr_mult: 2
    }
    convolution_param {
      num_output: 512
      pad: 1
      kernel_size: 3
    }
  }
  layer {
    name: "relu4_3"
    type: "ReLU"
    bottom: "conv4_3"
    top: "conv4_3"
  }
  layer {
    name: "pool4"
    type: "Pooling"
    bottom: "conv4_3"
    top: "pool4"
    pooling_param {
      pool: MAX
      kernel_size: 2
      stride: 2
    }
  }
  layer {
    name: "conv5_1"
    type: "Convolution"
    bottom: "pool4"
    top: "conv5_1"
    param {
      lr_mult: 1
    }
    param {
      lr_mult: 2
    }
    convolution_param {
      num_output: 512
      pad: 1
      kernel_size: 3
    }
  }
  layer {
    name: "relu5_1"
    type: "ReLU"
    bottom: "conv5_1"
    top: "conv5_1"
  }
  layer {
    name: "conv5_2"
    type: "Convolution"
    bottom: "conv5_1"
    top: "conv5_2"
    param {
      lr_mult: 1
    }
    param {
      lr_mult: 2
    }
    convolution_param {
      num_output: 512
      pad: 1
      kernel_size: 3
    }
  }
  layer {
    name: "relu5_2"
    type: "ReLU"
    bottom: "conv5_2"
    top: "conv5_2"
  }
  layer {
    name: "conv5_3"
    type: "Convolution"
    bottom: "conv5_2"
    top: "conv5_3"
    param {
      lr_mult: 1
    }
    param {
      lr_mult: 2
    }
    convolution_param {
      num_output: 512
      pad: 1
      kernel_size: 3
    }
  }
  layer {
    name: "relu5_3"
    type: "ReLU"
    bottom: "conv5_3"
    top: "conv5_3"
  }
  layer {
    name: "rpn_big_conv1"
    type: "Convolution"
    bottom: "conv5_3"
    top: "rpn_big_conv1"
    param {
      lr_mult: 1
    }
    param {
      lr_mult: 2
    }
    convolution_param {
      num_output: 512
      pad: 1
      kernel_size: 3
      stride: 1
      weight_filler {
        type: "gaussian"
        mean: 0
        std: 0.01
      }
      bias_filler {
        type: "constant"
      }
    }
  }
  layer {
    name: "rpn_big_conv1_relu"
    type: "ReLU"
    bottom: "rpn_big_conv1"
    top: "rpn_big_conv1"
    relu_param {
      negative_slope: 0
    }
  }
  layer {
    name: "rpn_big_conv2"
    type: "Convolution"
    bottom: "rpn_big_conv1"
    top: "rpn_big_conv2"
    param {
      lr_mult: 1
    }
    param {
      lr_mult: 2
    }
    convolution_param {
      num_output: 512
      pad: 1
      kernel_size: 3
      stride: 1
      weight_filler {
        type: "gaussian"
        mean: 0
        std: 0.01
      }
      bias_filler {
        type: "constant"
      }
    }
  }
  layer {
    name: "rpn_big_conv2_relu"
    type: "ReLU"
    bottom: "rpn_big_conv2"
    top: "rpn_big_conv2"
    relu_param {
      negative_slope: 0
    }
  }
  layer {
    name: "rpn_big_conv2_drop"
    type: "Dropout"
    bottom: "rpn_big_conv2"
    top: "rpn_big_conv2"
    dropout_param {
      dropout_ratio: 0.3
    }
  }
  layer {
    name: "rpn_big_output_cls"
    type: "Convolution"
    bottom: "rpn_big_conv2"
    top: "rpn_big_output_cls"
    param {
      lr_mult: 1
    }
    param {
      lr_mult: 2
    }
    convolution_param {
      num_output: 384
      pad: 1
      kernel_size: 3
      stride: 1
      weight_filler {
        type: "gaussian"
        mean: 0
        std: 0.01
      }
      bias_filler {
        type: "constant"
      }
    }
  }
  layer {
    name: "rpn_big_output_cls_relu"
    type: "ReLU"
    bottom: "rpn_big_output_cls"
    top: "rpn_big_output_cls"
    relu_param {
      negative_slope: 0
    }
  }
  layer {
    name: "rpn_big_cls_score"
    type: "Convolution"
    bottom: "rpn_big_output_cls"
    top: "rpn_big_cls_score"
    param {
      lr_mult: 1
    }
    param {
      lr_mult: 2
    }
    convolution_param {
      num_output: 52
      pad: 0
      kernel_size: 3
      stride: 1
      weight_filler {
        type: "gaussian"
        mean: 0
        std: 0.01
      }
      bias_filler {
        type: "constant"
      }
    }
  }
  layer {
    name: "rpn_big_cls_score_reshape"
    type: "Reshape"
    bottom: "rpn_big_cls_score"
    top: "rpn_big_cls_score_reshape"
    reshape_param {
      shape {
        dim: 0
        dim: 2
        dim: -1
        dim: 0
      }
    }
  }
  layer {
    name: "rpn_big_cls_prob"
    type: "Softmax"
    bottom: "rpn_big_cls_score_reshape"
    top: "rpn_big_cls_prob"
  }
  layer {
    name: "rpn_big_cls_prob_reshape"
    type: "Reshape"
    bottom: "rpn_big_cls_prob"
    top: "rpn_big_cls_prob_reshape"
    reshape_param {
      shape {
        dim: 0
        dim: 52
        dim: -1
        dim: 0
      }
    }
  }
  layer {
    name: "rpn_big_anchor_target"
    type: "Python"
    bottom: "rpn_big_cls_score"
    bottom: "input_gt_boxes"
    bottom: "input_ignored_boxes"
    bottom: "input_im_info"
    bottom: "input_data"
    bottom: "rpn_big_cls_prob_reshape"
    top: "rpn_big_anchor_target_labels"
    top: "rpn_big_anchor_target_bbox_targets"
    top: "rpn_big_anchor_target_inside_weights"
    top: "rpn_big_anchor_target_outside_weights"
    python_param {
      module: "rpn.anchor_target_layer"
      layer: "AnchorTargetLayer"
      param_str: "{\"anchor_shift_num_xy\": [[2, 2], [2, 2], [2, 2], [2, 2], [1, 1], [1, 1], [1, 1], [1, 1], [1, 1], [1, 1], [1, 1], [1, 1], [1, 1], [1, 1]], \"anchor_scales\": [2.5, 3.025, 3.66025, 4.4289024999999995, 5.358972025, 6.484356150249999, 7.846070941802498, 9.493745839581022, 11.487432465893036, 13.899793283730574, 16.818749873313998, 20.350687346709933, 24.62433168951902, 29.795441344318014], \"negative_overlap\": 0.4, \"fg_fraction\": 0.5, \"name\": \"rpn_big\", \"num_classes\": 1, \"batchsize\": 256, \"positive_overlap\": 0.6, \"feat_stride\": 16, \"tn_fraction\": 0.2, \"square_targets\": true, \"anchor_ratios\": [1.0]}"
    }
  }
  layer {
    name: "rpn_big_loss_cls"
    type: "SoftmaxWithLoss"
    bottom: "rpn_big_cls_score_reshape"
    bottom: "rpn_big_anchor_target_labels"
    top: "rpn_big_loss_cls"
    loss_weight: 1
    propagate_down: true
    propagate_down: false
    loss_param {
      ignore_label: -1
      normalization: VALID
    }
  }
  layer {
    name: "rpn_big_output_box"
    type: "Convolution"
    bottom: "rpn_big_conv2"
    top: "rpn_big_output_box"
    param {
      lr_mult: 1
    }
    param {
      lr_mult: 2
    }
    convolution_param {
      num_output: 384
      pad: 1
      kernel_size: 3
      stride: 1
      weight_filler {
        type: "gaussian"
        mean: 0
        std: 0.01
      }
      bias_filler {
        type: "constant"
      }
    }
  }
  layer {
    name: "rpn_big_output_box_relu"
    type: "ReLU"
    bottom: "rpn_big_output_box"
    top: "rpn_big_output_box"
    relu_param {
      negative_slope: 0
    }
  }
  layer {
    name: "rpn_big_bbox_pred"
    type: "Convolution"
    bottom: "rpn_big_output_box"
    top: "rpn_big_bbox_pred"
    param {
      lr_mult: 1
    }
    param {
      lr_mult: 2
    }
    convolution_param {
      num_output: 104
      pad: 0
      kernel_size: 3
      stride: 1
      weight_filler {
        type: "gaussian"
        mean: 0
        std: 0.01
      }
      bias_filler {
        type: "constant"
      }
    }
  }
  layer {
    name: "rpn_big_loss_bbox"
    type: "Python"
    bottom: "rpn_big_bbox_pred"
    bottom: "rpn_big_anchor_target_bbox_targets"
    bottom: "rpn_big_anchor_target_inside_weights"
    bottom: "rpn_big_anchor_target_outside_weights"
    top: "rpn_big_loss_bbox"
    loss_weight: 1
    python_param {
      module: "layers.smooth_l1_loss"
      layer: "SmoothL1LossLayer"
      param_str: "{\"sigma\": 3}"
    }
  }
  layer {
    name: "proposal"
    type: "Python"
    bottom: "rpn_big_cls_prob_reshape"
    bottom: "rpn_big_bbox_pred"
    bottom: "input_im_info"
    top: "rpn_rois"
    python_param {
      module: "rpn.proposal_layer"
      layer: "ProposalLayer"
      param_str: "\'feat_stride\': 16 ;\'scales\': !!python/tuple [4, 8, 16, 32]"
    }
  }
}
average_loss: 100
stepvalue: 70000
stepvalue: 120000
iter_size: 2
I0413 16:11:19.550956  8132 solver.cpp:86] Creating training net specified in net_param.
I0413 16:11:19.551561  8132 net.cpp:58] Initializing net from parameters: 
name: "GeneratedModel_13_04_2017_16_11"
state {
  phase: TRAIN
}
layer {
  name: "input"
  type: "Python"
  top: "input_data"
  top: "input_im_info"
  top: "input_gt_boxes"
  top: "input_ignored_boxes"
  python_param {
    module: "layers.roi_data_layer"
    layer: "RoIDataLayer"
    param_str: "{\"num_classes\": 2}"
  }
}
layer {
  name: "conv1_1"
  type: "Convolution"
  bottom: "input_data"
  top: "conv1_1"
  param {
    lr_mult: 0
    decay_mult: 0
  }
  param {
    lr_mult: 0
    decay_mult: 0
  }
  convolution_param {
    num_output: 64
    pad: 1
    kernel_size: 3
  }
}
layer {
  name: "relu1_1"
  type: "ReLU"
  bottom: "conv1_1"
  top: "conv1_1"
}
layer {
  name: "conv1_2"
  type: "Convolution"
  bottom: "conv1_1"
  top: "conv1_2"
  param {
    lr_mult: 0
    decay_mult: 0
  }
  param {
    lr_mult: 0
    decay_mult: 0
  }
  convolution_param {
    num_output: 64
    pad: 1
    kernel_size: 3
  }
}
layer {
  name: "relu1_2"
  type: "ReLU"
  bottom: "conv1_2"
  top: "conv1_2"
}
layer {
  name: "pool1"
  type: "Pooling"
  bottom: "conv1_2"
  top: "pool1"
  pooling_param {
    pool: MAX
    kernel_size: 2
    stride: 2
  }
}
layer {
  name: "conv2_1"
  type: "Convolution"
  bottom: "pool1"
  top: "conv2_1"
  param {
    lr_mult: 0
    decay_mult: 0
  }
  param {
    lr_mult: 0
    decay_mult: 0
  }
  convolution_param {
    num_output: 128
    pad: 1
    kernel_size: 3
  }
}
layer {
  name: "relu2_1"
  type: "ReLU"
  bottom: "conv2_1"
  top: "conv2_1"
}
layer {
  name: "conv2_2"
  type: "Convolution"
  bottom: "conv2_1"
  top: "conv2_2"
  param {
    lr_mult: 0
    decay_mult: 0
  }
  param {
    lr_mult: 0
    decay_mult: 0
  }
  convolution_param {
    num_output: 128
    pad: 1
    kernel_size: 3
  }
}
layer {
  name: "relu2_2"
  type: "ReLU"
  bottom: "conv2_2"
  top: "conv2_2"
}
layer {
  name: "pool2"
  type: "Pooling"
  bottom: "conv2_2"
  top: "pool2"
  pooling_param {
    pool: MAX
    kernel_size: 2
    stride: 2
  }
}
layer {
  name: "conv3_1"
  type: "Convolution"
  bottom: "pool2"
  top: "conv3_1"
  param {
    lr_mult: 1
  }
  param {
    lr_mult: 2
  }
  convolution_param {
    num_output: 256
    pad: 1
    kernel_size: 3
  }
}
layer {
  name: "relu3_1"
  type: "ReLU"
  bottom: "conv3_1"
  top: "conv3_1"
}
layer {
  name: "conv3_2"
  type: "Convolution"
  bottom: "conv3_1"
  top: "conv3_2"
  param {
    lr_mult: 1
  }
  param {
    lr_mult: 2
  }
  convolution_param {
    num_output: 256
    pad: 1
    kernel_size: 3
  }
}
layer {
  name: "relu3_2"
  type: "ReLU"
  bottom: "conv3_2"
  top: "conv3_2"
}
layer {
  name: "conv3_3"
  type: "Convolution"
  bottom: "conv3_2"
  top: "conv3_3"
  param {
    lr_mult: 1
  }
  param {
    lr_mult: 2
  }
  convolution_param {
    num_output: 256
    pad: 1
    kernel_size: 3
  }
}
layer {
  name: "relu3_3"
  type: "ReLU"
  bottom: "conv3_3"
  top: "conv3_3"
}
layer {
  name: "pool3"
  type: "Pooling"
  bottom: "conv3_3"
  top: "pool3"
  pooling_param {
    pool: MAX
    kernel_size: 2
    stride: 2
  }
}
layer {
  name: "conv4_1"
  type: "Convolution"
  bottom: "pool3"
  top: "conv4_1"
  param {
    lr_mult: 1
  }
  param {
    lr_mult: 2
  }
  convolution_param {
    num_output: 512
    pad: 1
    kernel_size: 3
  }
}
layer {
  name: "relu4_1"
  type: "ReLU"
  bottom: "conv4_1"
  top: "conv4_1"
}
layer {
  name: "conv4_2"
  type: "Convolution"
  bottom: "conv4_1"
  top: "conv4_2"
  param {
    lr_mult: 1
  }
  param {
    lr_mult: 2
  }
  convolution_param {
    num_output: 512
    pad: 1
    kernel_size: 3
  }
}
layer {
  name: "relu4_2"
  type: "ReLU"
  bottom: "conv4_2"
  top: "conv4_2"
}
layer {
  name: "conv4_3"
  type: "Convolution"
  bottom: "conv4_2"
  top: "conv4_3"
  param {
    lr_mult: 1
  }
  param {
    lr_mult: 2
  }
  convolution_param {
    num_output: 512
    pad: 1
    kernel_size: 3
  }
}
layer {
  name: "relu4_3"
  type: "ReLU"
  bottom: "conv4_3"
  top: "conv4_3"
}
layer {
  name: "pool4"
  type: "Pooling"
  bottom: "conv4_3"
  top: "pool4"
  pooling_param {
    pool: MAX
    kernel_size: 2
    stride: 2
  }
}
layer {
  name: "conv5_1"
  type: "Convolution"
  bottom: "pool4"
  top: "conv5_1"
  param {
    lr_mult: 1
  }
  param {
    lr_mult: 2
  }
  convolution_param {
    num_output: 512
    pad: 1
    kernel_size: 3
  }
}
layer {
  name: "relu5_1"
  type: "ReLU"
  bottom: "conv5_1"
  top: "conv5_1"
}
layer {
  name: "conv5_2"
  type: "Convolution"
  bottom: "conv5_1"
  top: "conv5_2"
  param {
    lr_mult: 1
  }
  param {
    lr_mult: 2
  }
  convolution_param {
    num_output: 512
    pad: 1
    kernel_size: 3
  }
}
layer {
  name: "relu5_2"
  type: "ReLU"
  bottom: "conv5_2"
  top: "conv5_2"
}
layer {
  name: "conv5_3"
  type: "Convolution"
  bottom: "conv5_2"
  top: "conv5_3"
  param {
    lr_mult: 1
  }
  param {
    lr_mult: 2
  }
  convolution_param {
    num_output: 512
    pad: 1
    kernel_size: 3
  }
}
layer {
  name: "relu5_3"
  type: "ReLU"
  bottom: "conv5_3"
  top: "conv5_3"
}
layer {
  name: "rpn_big_conv1"
  type: "Convolution"
  bottom: "conv5_3"
  top: "rpn_big_conv1"
  param {
    lr_mult: 1
  }
  param {
    lr_mult: 2
  }
  convolution_param {
    num_output: 512
    pad: 1
    kernel_size: 3
    stride: 1
    weight_filler {
      type: "gaussian"
      mean: 0
      std: 0.01
    }
    bias_filler {
      type: "constant"
    }
  }
}
layer {
  name: "rpn_big_conv1_relu"
  type: "ReLU"
  bottom: "rpn_big_conv1"
  top: "rpn_big_conv1"
  relu_param {
    negative_slope: 0
  }
}
layer {
  name: "rpn_big_conv2"
  type: "Convolution"
  bottom: "rpn_big_conv1"
  top: "rpn_big_conv2"
  param {
    lr_mult: 1
  }
  param {
    lr_mult: 2
  }
  convolution_param {
    num_output: 512
    pad: 1
    kernel_size: 3
    stride: 1
    weight_filler {
      type: "gaussian"
      mean: 0
      std: 0.01
    }
    bias_filler {
      type: "constant"
    }
  }
}
layer {
  name: "rpn_big_conv2_relu"
  type: "ReLU"
  bottom: "rpn_big_conv2"
  top: "rpn_big_conv2"
  relu_param {
    negative_slope: 0
  }
}
layer {
  name: "rpn_big_conv2_drop"
  type: "Dropout"
  bottom: "rpn_big_conv2"
  top: "rpn_big_conv2"
  dropout_param {
    dropout_ratio: 0.3
  }
}
layer {
  name: "rpn_big_output_cls"
  type: "Convolution"
  bottom: "rpn_big_conv2"
  top: "rpn_big_output_cls"
  param {
    lr_mult: 1
  }
  param {
    lr_mult: 2
  }
  convolution_param {
    num_output: 384
    pad: 1
    kernel_size: 3
    stride: 1
    weight_filler {
      type: "gaussian"
      mean: 0
      std: 0.01
    }
    bias_filler {
      type: "constant"
    }
  }
}
layer {
  name: "rpn_big_output_cls_relu"
  type: "ReLU"
  bottom: "rpn_big_output_cls"
  top: "rpn_big_output_cls"
  relu_param {
    negative_slope: 0
  }
}
layer {
  name: "rpn_big_cls_score"
  type: "Convolution"
  bottom: "rpn_big_output_cls"
  top: "rpn_big_cls_score"
  param {
    lr_mult: 1
  }
  param {
    lr_mult: 2
  }
  convolution_param {
    num_output: 52
    pad: 0
    kernel_size: 3
    stride: 1
    weight_filler {
      type: "gaussian"
      mean: 0
      std: 0.01
    }
    bias_filler {
      type: "constant"
    }
  }
}
layer {
  name: "rpn_big_cls_score_reshape"
  type: "Reshape"
  bottom: "rpn_big_cls_score"
  top: "rpn_big_cls_score_reshape"
  reshape_param {
    shape {
      dim: 0
      dim: 2
      dim: -1
      dim: 0
    }
  }
}
layer {
  name: "rpn_big_cls_prob"
  type: "Softmax"
  bottom: "rpn_big_cls_score_reshape"
  top: "rpn_big_cls_prob"
}
layer {
  name: "rpn_big_cls_prob_reshape"
  type: "Reshape"
  bottom: "rpn_big_cls_prob"
  top: "rpn_big_cls_prob_reshape"
  reshape_param {
    shape {
      dim: 0
      dim: 52
      dim: -1
      dim: 0
    }
  }
}
layer {
  name: "rpn_big_anchor_target"
  type: "Python"
  bottom: "rpn_big_cls_score"
  bottom: "input_gt_boxes"
  bottom: "input_ignored_boxes"
  bottom: "input_im_info"
  bottom: "input_data"
  bottom: "rpn_big_cls_prob_reshape"
  top: "rpn_big_anchor_target_labels"
  top: "rpn_big_anchor_target_bbox_targets"
  top: "rpn_big_anchor_target_inside_weights"
  top: "rpn_big_anchor_target_outside_weights"
  python_param {
    module: "rpn.anchor_target_layer"
    layer: "AnchorTargetLayer"
    param_str: "{\"anchor_shift_num_xy\": [[2, 2], [2, 2], [2, 2], [2, 2], [1, 1], [1, 1], [1, 1], [1, 1], [1, 1], [1, 1], [1, 1], [1, 1], [1, 1], [1, 1]], \"anchor_scales\": [2.5, 3.025, 3.66025, 4.4289024999999995, 5.358972025, 6.484356150249999, 7.846070941802498, 9.493745839581022, 11.487432465893036, 13.899793283730574, 16.818749873313998, 20.350687346709933, 24.62433168951902, 29.795441344318014], \"negative_overlap\": 0.4, \"fg_fraction\": 0.5, \"name\": \"rpn_big\", \"num_classes\": 1, \"batchsize\": 256, \"positive_overlap\": 0.6, \"feat_stride\": 16, \"tn_fraction\": 0.2, \"square_targets\": true, \"anchor_ratios\": [1.0]}"
  }
}
layer {
  name: "rpn_big_loss_cls"
  type: "SoftmaxWithLoss"
  bottom: "rpn_big_cls_score_reshape"
  bottom: "rpn_big_anchor_target_labels"
  top: "rpn_big_loss_cls"
  loss_weight: 1
  propagate_down: true
  propagate_down: false
  loss_param {
    ignore_label: -1
    normalization: VALID
  }
}
layer {
  name: "rpn_big_output_box"
  type: "Convolution"
  bottom: "rpn_big_conv2"
  top: "rpn_big_output_box"
  param {
    lr_mult: 1
  }
  param {
    lr_mult: 2
  }
  convolution_param {
    num_output: 384
    pad: 1
    kernel_size: 3
    stride: 1
    weight_filler {
      type: "gaussian"
      mean: 0
      std: 0.01
    }
    bias_filler {
      type: "constant"
    }
  }
}
layer {
  name: "rpn_big_output_box_relu"
  type: "ReLU"
  bottom: "rpn_big_output_box"
  top: "rpn_big_output_box"
  relu_param {
    negative_slope: 0
  }
}
layer {
  name: "rpn_big_bbox_pred"
  type: "Convolution"
  bottom: "rpn_big_output_box"
  top: "rpn_big_bbox_pred"
  param {
    lr_mult: 1
  }
  param {
    lr_mult: 2
  }
  convolution_param {
    num_output: 104
    pad: 0
    kernel_size: 3
    stride: 1
    weight_filler {
      type: "gaussian"
      mean: 0
      std: 0.01
    }
    bias_filler {
      type: "constant"
    }
  }
}
layer {
  name: "rpn_big_loss_bbox"
  type: "Python"
  bottom: "rpn_big_bbox_pred"
  bottom: "rpn_big_anchor_target_bbox_targets"
  bottom: "rpn_big_anchor_target_inside_weights"
  bottom: "rpn_big_anchor_target_outside_weights"
  top: "rpn_big_loss_bbox"
  loss_weight: 1
  python_param {
    module: "layers.smooth_l1_loss"
    layer: "SmoothL1LossLayer"
    param_str: "{\"sigma\": 3}"
  }
}
layer {
  name: "proposal"
  type: "Python"
  bottom: "rpn_big_cls_prob_reshape"
  bottom: "rpn_big_bbox_pred"
  bottom: "input_im_info"
  top: "rpn_rois"
  python_param {
    module: "rpn.proposal_layer"
    layer: "ProposalLayer"
    param_str: "\'feat_stride\': 16 ;\'scales\': !!python/tuple [4, 8, 16, 32]"
  }
}
I0413 16:11:19.551847  8132 layer_factory.hpp:77] Creating layer input
I0413 16:11:19.553637  8132 net.cpp:100] Creating Layer input
I0413 16:11:19.553658  8132 net.cpp:408] input -> input_data
I0413 16:11:19.553675  8132 net.cpp:408] input -> input_im_info
I0413 16:11:19.553688  8132 net.cpp:408] input -> input_gt_boxes
I0413 16:11:19.553699  8132 net.cpp:408] input -> input_ignored_boxes
RoiDataLayer: name_to_top: {'im_info': 1, 'data': 0, 'ignored_boxes': 3, 'gt_boxes': 2}
I0413 16:11:19.876080  8132 net.cpp:150] Setting up input
I0413 16:11:19.876108  8132 net.cpp:157] Top shape: 1 3 1000 1500 (4500000)
I0413 16:11:19.876117  8132 net.cpp:157] Top shape: 1 3 (3)
I0413 16:11:19.876126  8132 net.cpp:157] Top shape: 1 5 (5)
I0413 16:11:19.876132  8132 net.cpp:157] Top shape: 1 5 (5)
I0413 16:11:19.876135  8132 net.cpp:165] Memory required for data: 18000052
I0413 16:11:19.876145  8132 layer_factory.hpp:77] Creating layer input_data_input_0_split
I0413 16:11:19.876161  8132 net.cpp:100] Creating Layer input_data_input_0_split
I0413 16:11:19.876168  8132 net.cpp:434] input_data_input_0_split <- input_data
I0413 16:11:19.876180  8132 net.cpp:408] input_data_input_0_split -> input_data_input_0_split_0
I0413 16:11:19.876209  8132 net.cpp:408] input_data_input_0_split -> input_data_input_0_split_1
I0413 16:11:19.876266  8132 net.cpp:150] Setting up input_data_input_0_split
I0413 16:11:19.876277  8132 net.cpp:157] Top shape: 1 3 1000 1500 (4500000)
I0413 16:11:19.876292  8132 net.cpp:157] Top shape: 1 3 1000 1500 (4500000)
I0413 16:11:19.876297  8132 net.cpp:165] Memory required for data: 54000052
I0413 16:11:19.876302  8132 layer_factory.hpp:77] Creating layer input_im_info_input_1_split
I0413 16:11:19.876313  8132 net.cpp:100] Creating Layer input_im_info_input_1_split
I0413 16:11:19.876319  8132 net.cpp:434] input_im_info_input_1_split <- input_im_info
I0413 16:11:19.876327  8132 net.cpp:408] input_im_info_input_1_split -> input_im_info_input_1_split_0
I0413 16:11:19.876338  8132 net.cpp:408] input_im_info_input_1_split -> input_im_info_input_1_split_1
I0413 16:11:19.876379  8132 net.cpp:150] Setting up input_im_info_input_1_split
I0413 16:11:19.876389  8132 net.cpp:157] Top shape: 1 3 (3)
I0413 16:11:19.876395  8132 net.cpp:157] Top shape: 1 3 (3)
I0413 16:11:19.876401  8132 net.cpp:165] Memory required for data: 54000076
I0413 16:11:19.876406  8132 layer_factory.hpp:77] Creating layer conv1_1
I0413 16:11:19.876422  8132 net.cpp:100] Creating Layer conv1_1
I0413 16:11:19.876428  8132 net.cpp:434] conv1_1 <- input_data_input_0_split_0
I0413 16:11:19.876440  8132 net.cpp:408] conv1_1 -> conv1_1
I0413 16:11:19.879698  8132 net.cpp:150] Setting up conv1_1
I0413 16:11:19.879735  8132 net.cpp:157] Top shape: 1 64 1000 1500 (96000000)
I0413 16:11:19.879739  8132 net.cpp:165] Memory required for data: 438000076
I0413 16:11:19.879763  8132 layer_factory.hpp:77] Creating layer relu1_1
I0413 16:11:19.879781  8132 net.cpp:100] Creating Layer relu1_1
I0413 16:11:19.879791  8132 net.cpp:434] relu1_1 <- conv1_1
I0413 16:11:19.879806  8132 net.cpp:395] relu1_1 -> conv1_1 (in-place)
I0413 16:11:19.879820  8132 net.cpp:150] Setting up relu1_1
I0413 16:11:19.879829  8132 net.cpp:157] Top shape: 1 64 1000 1500 (96000000)
I0413 16:11:19.879835  8132 net.cpp:165] Memory required for data: 822000076
I0413 16:11:19.879840  8132 layer_factory.hpp:77] Creating layer conv1_2
I0413 16:11:19.879853  8132 net.cpp:100] Creating Layer conv1_2
I0413 16:11:19.879858  8132 net.cpp:434] conv1_2 <- conv1_1
I0413 16:11:19.879869  8132 net.cpp:408] conv1_2 -> conv1_2
I0413 16:11:19.883260  8132 net.cpp:150] Setting up conv1_2
I0413 16:11:19.883297  8132 net.cpp:157] Top shape: 1 64 1000 1500 (96000000)
I0413 16:11:19.883301  8132 net.cpp:165] Memory required for data: 1206000076
I0413 16:11:19.883318  8132 layer_factory.hpp:77] Creating layer relu1_2
I0413 16:11:19.883329  8132 net.cpp:100] Creating Layer relu1_2
I0413 16:11:19.883334  8132 net.cpp:434] relu1_2 <- conv1_2
I0413 16:11:19.883342  8132 net.cpp:395] relu1_2 -> conv1_2 (in-place)
I0413 16:11:19.883354  8132 net.cpp:150] Setting up relu1_2
I0413 16:11:19.883360  8132 net.cpp:157] Top shape: 1 64 1000 1500 (96000000)
I0413 16:11:19.883363  8132 net.cpp:165] Memory required for data: 1590000076
I0413 16:11:19.883366  8132 layer_factory.hpp:77] Creating layer pool1
I0413 16:11:19.883373  8132 net.cpp:100] Creating Layer pool1
I0413 16:11:19.883378  8132 net.cpp:434] pool1 <- conv1_2
I0413 16:11:19.883383  8132 net.cpp:408] pool1 -> pool1
I0413 16:11:19.883452  8132 net.cpp:150] Setting up pool1
I0413 16:11:19.883463  8132 net.cpp:157] Top shape: 1 64 500 750 (24000000)
I0413 16:11:19.883468  8132 net.cpp:165] Memory required for data: 1686000076
I0413 16:11:19.883471  8132 layer_factory.hpp:77] Creating layer conv2_1
I0413 16:11:19.883484  8132 net.cpp:100] Creating Layer conv2_1
I0413 16:11:19.883489  8132 net.cpp:434] conv2_1 <- pool1
I0413 16:11:19.883494  8132 net.cpp:408] conv2_1 -> conv2_1
I0413 16:11:19.884668  8132 net.cpp:150] Setting up conv2_1
I0413 16:11:19.884692  8132 net.cpp:157] Top shape: 1 128 500 750 (48000000)
I0413 16:11:19.884696  8132 net.cpp:165] Memory required for data: 1878000076
I0413 16:11:19.884707  8132 layer_factory.hpp:77] Creating layer relu2_1
I0413 16:11:19.884716  8132 net.cpp:100] Creating Layer relu2_1
I0413 16:11:19.884721  8132 net.cpp:434] relu2_1 <- conv2_1
I0413 16:11:19.884732  8132 net.cpp:395] relu2_1 -> conv2_1 (in-place)
I0413 16:11:19.884742  8132 net.cpp:150] Setting up relu2_1
I0413 16:11:19.884747  8132 net.cpp:157] Top shape: 1 128 500 750 (48000000)
I0413 16:11:19.884749  8132 net.cpp:165] Memory required for data: 2070000076
I0413 16:11:19.884752  8132 layer_factory.hpp:77] Creating layer conv2_2
I0413 16:11:19.884762  8132 net.cpp:100] Creating Layer conv2_2
I0413 16:11:19.884765  8132 net.cpp:434] conv2_2 <- conv2_1
I0413 16:11:19.884771  8132 net.cpp:408] conv2_2 -> conv2_2
I0413 16:11:19.886057  8132 net.cpp:150] Setting up conv2_2
I0413 16:11:19.886090  8132 net.cpp:157] Top shape: 1 128 500 750 (48000000)
I0413 16:11:19.886096  8132 net.cpp:165] Memory required for data: 2262000076
I0413 16:11:19.886113  8132 layer_factory.hpp:77] Creating layer relu2_2
I0413 16:11:19.886126  8132 net.cpp:100] Creating Layer relu2_2
I0413 16:11:19.886132  8132 net.cpp:434] relu2_2 <- conv2_2
I0413 16:11:19.886143  8132 net.cpp:395] relu2_2 -> conv2_2 (in-place)
I0413 16:11:19.886159  8132 net.cpp:150] Setting up relu2_2
I0413 16:11:19.886168  8132 net.cpp:157] Top shape: 1 128 500 750 (48000000)
I0413 16:11:19.886173  8132 net.cpp:165] Memory required for data: 2454000076
I0413 16:11:19.886178  8132 layer_factory.hpp:77] Creating layer pool2
I0413 16:11:19.886186  8132 net.cpp:100] Creating Layer pool2
I0413 16:11:19.886191  8132 net.cpp:434] pool2 <- conv2_2
I0413 16:11:19.886199  8132 net.cpp:408] pool2 -> pool2
I0413 16:11:19.886265  8132 net.cpp:150] Setting up pool2
I0413 16:11:19.886277  8132 net.cpp:157] Top shape: 1 128 250 375 (12000000)
I0413 16:11:19.886282  8132 net.cpp:165] Memory required for data: 2502000076
I0413 16:11:19.886287  8132 layer_factory.hpp:77] Creating layer conv3_1
I0413 16:11:19.886302  8132 net.cpp:100] Creating Layer conv3_1
I0413 16:11:19.886308  8132 net.cpp:434] conv3_1 <- pool2
I0413 16:11:19.886318  8132 net.cpp:408] conv3_1 -> conv3_1
I0413 16:11:19.887697  8132 net.cpp:150] Setting up conv3_1
I0413 16:11:19.887725  8132 net.cpp:157] Top shape: 1 256 250 375 (24000000)
I0413 16:11:19.887739  8132 net.cpp:165] Memory required for data: 2598000076
I0413 16:11:19.887759  8132 layer_factory.hpp:77] Creating layer relu3_1
I0413 16:11:19.887771  8132 net.cpp:100] Creating Layer relu3_1
I0413 16:11:19.887778  8132 net.cpp:434] relu3_1 <- conv3_1
I0413 16:11:19.887789  8132 net.cpp:395] relu3_1 -> conv3_1 (in-place)
I0413 16:11:19.887800  8132 net.cpp:150] Setting up relu3_1
I0413 16:11:19.887809  8132 net.cpp:157] Top shape: 1 256 250 375 (24000000)
I0413 16:11:19.887814  8132 net.cpp:165] Memory required for data: 2694000076
I0413 16:11:19.887820  8132 layer_factory.hpp:77] Creating layer conv3_2
I0413 16:11:19.887835  8132 net.cpp:100] Creating Layer conv3_2
I0413 16:11:19.887842  8132 net.cpp:434] conv3_2 <- conv3_1
I0413 16:11:19.887852  8132 net.cpp:408] conv3_2 -> conv3_2
I0413 16:11:19.889166  8132 net.cpp:150] Setting up conv3_2
I0413 16:11:19.889192  8132 net.cpp:157] Top shape: 1 256 250 375 (24000000)
I0413 16:11:19.889196  8132 net.cpp:165] Memory required for data: 2790000076
I0413 16:11:19.889207  8132 layer_factory.hpp:77] Creating layer relu3_2
I0413 16:11:19.889225  8132 net.cpp:100] Creating Layer relu3_2
I0413 16:11:19.889235  8132 net.cpp:434] relu3_2 <- conv3_2
I0413 16:11:19.889246  8132 net.cpp:395] relu3_2 -> conv3_2 (in-place)
I0413 16:11:19.889261  8132 net.cpp:150] Setting up relu3_2
I0413 16:11:19.889268  8132 net.cpp:157] Top shape: 1 256 250 375 (24000000)
I0413 16:11:19.889274  8132 net.cpp:165] Memory required for data: 2886000076
I0413 16:11:19.889279  8132 layer_factory.hpp:77] Creating layer conv3_3
I0413 16:11:19.889294  8132 net.cpp:100] Creating Layer conv3_3
I0413 16:11:19.889302  8132 net.cpp:434] conv3_3 <- conv3_2
I0413 16:11:19.889313  8132 net.cpp:408] conv3_3 -> conv3_3
I0413 16:11:19.891026  8132 net.cpp:150] Setting up conv3_3
I0413 16:11:19.891057  8132 net.cpp:157] Top shape: 1 256 250 375 (24000000)
I0413 16:11:19.891059  8132 net.cpp:165] Memory required for data: 2982000076
I0413 16:11:19.891073  8132 layer_factory.hpp:77] Creating layer relu3_3
I0413 16:11:19.891089  8132 net.cpp:100] Creating Layer relu3_3
I0413 16:11:19.891096  8132 net.cpp:434] relu3_3 <- conv3_3
I0413 16:11:19.891111  8132 net.cpp:395] relu3_3 -> conv3_3 (in-place)
I0413 16:11:19.891125  8132 net.cpp:150] Setting up relu3_3
I0413 16:11:19.891134  8132 net.cpp:157] Top shape: 1 256 250 375 (24000000)
I0413 16:11:19.891140  8132 net.cpp:165] Memory required for data: 3078000076
I0413 16:11:19.891145  8132 layer_factory.hpp:77] Creating layer pool3
I0413 16:11:19.891155  8132 net.cpp:100] Creating Layer pool3
I0413 16:11:19.891161  8132 net.cpp:434] pool3 <- conv3_3
I0413 16:11:19.891173  8132 net.cpp:408] pool3 -> pool3
I0413 16:11:19.891234  8132 net.cpp:150] Setting up pool3
I0413 16:11:19.891247  8132 net.cpp:157] Top shape: 1 256 125 188 (6016000)
I0413 16:11:19.891252  8132 net.cpp:165] Memory required for data: 3102064076
I0413 16:11:19.891258  8132 layer_factory.hpp:77] Creating layer conv4_1
I0413 16:11:19.891268  8132 net.cpp:100] Creating Layer conv4_1
I0413 16:11:19.891275  8132 net.cpp:434] conv4_1 <- pool3
I0413 16:11:19.891289  8132 net.cpp:408] conv4_1 -> conv4_1
I0413 16:11:19.894093  8132 net.cpp:150] Setting up conv4_1
I0413 16:11:19.894127  8132 net.cpp:157] Top shape: 1 512 125 188 (12032000)
I0413 16:11:19.894131  8132 net.cpp:165] Memory required for data: 3150192076
I0413 16:11:19.894145  8132 layer_factory.hpp:77] Creating layer relu4_1
I0413 16:11:19.894162  8132 net.cpp:100] Creating Layer relu4_1
I0413 16:11:19.894171  8132 net.cpp:434] relu4_1 <- conv4_1
I0413 16:11:19.894182  8132 net.cpp:395] relu4_1 -> conv4_1 (in-place)
I0413 16:11:19.894197  8132 net.cpp:150] Setting up relu4_1
I0413 16:11:19.894206  8132 net.cpp:157] Top shape: 1 512 125 188 (12032000)
I0413 16:11:19.894212  8132 net.cpp:165] Memory required for data: 3198320076
I0413 16:11:19.894217  8132 layer_factory.hpp:77] Creating layer conv4_2
I0413 16:11:19.894230  8132 net.cpp:100] Creating Layer conv4_2
I0413 16:11:19.894237  8132 net.cpp:434] conv4_2 <- conv4_1
I0413 16:11:19.894245  8132 net.cpp:408] conv4_2 -> conv4_2
I0413 16:11:19.898558  8132 net.cpp:150] Setting up conv4_2
I0413 16:11:19.898588  8132 net.cpp:157] Top shape: 1 512 125 188 (12032000)
I0413 16:11:19.898592  8132 net.cpp:165] Memory required for data: 3246448076
I0413 16:11:19.898615  8132 layer_factory.hpp:77] Creating layer relu4_2
I0413 16:11:19.898632  8132 net.cpp:100] Creating Layer relu4_2
I0413 16:11:19.898639  8132 net.cpp:434] relu4_2 <- conv4_2
I0413 16:11:19.898650  8132 net.cpp:395] relu4_2 -> conv4_2 (in-place)
I0413 16:11:19.898663  8132 net.cpp:150] Setting up relu4_2
I0413 16:11:19.898671  8132 net.cpp:157] Top shape: 1 512 125 188 (12032000)
I0413 16:11:19.898679  8132 net.cpp:165] Memory required for data: 3294576076
I0413 16:11:19.898684  8132 layer_factory.hpp:77] Creating layer conv4_3
I0413 16:11:19.898699  8132 net.cpp:100] Creating Layer conv4_3
I0413 16:11:19.898705  8132 net.cpp:434] conv4_3 <- conv4_2
I0413 16:11:19.898716  8132 net.cpp:408] conv4_3 -> conv4_3
I0413 16:11:19.903048  8132 net.cpp:150] Setting up conv4_3
I0413 16:11:19.903085  8132 net.cpp:157] Top shape: 1 512 125 188 (12032000)
I0413 16:11:19.903089  8132 net.cpp:165] Memory required for data: 3342704076
I0413 16:11:19.903102  8132 layer_factory.hpp:77] Creating layer relu4_3
I0413 16:11:19.903118  8132 net.cpp:100] Creating Layer relu4_3
I0413 16:11:19.903126  8132 net.cpp:434] relu4_3 <- conv4_3
I0413 16:11:19.903136  8132 net.cpp:395] relu4_3 -> conv4_3 (in-place)
I0413 16:11:19.903151  8132 net.cpp:150] Setting up relu4_3
I0413 16:11:19.903157  8132 net.cpp:157] Top shape: 1 512 125 188 (12032000)
I0413 16:11:19.903162  8132 net.cpp:165] Memory required for data: 3390832076
I0413 16:11:19.903165  8132 layer_factory.hpp:77] Creating layer pool4
I0413 16:11:19.903172  8132 net.cpp:100] Creating Layer pool4
I0413 16:11:19.903174  8132 net.cpp:434] pool4 <- conv4_3
I0413 16:11:19.903182  8132 net.cpp:408] pool4 -> pool4
I0413 16:11:19.903218  8132 net.cpp:150] Setting up pool4
I0413 16:11:19.903226  8132 net.cpp:157] Top shape: 1 512 63 94 (3032064)
I0413 16:11:19.903230  8132 net.cpp:165] Memory required for data: 3402960332
I0413 16:11:19.903234  8132 layer_factory.hpp:77] Creating layer conv5_1
I0413 16:11:19.903245  8132 net.cpp:100] Creating Layer conv5_1
I0413 16:11:19.903249  8132 net.cpp:434] conv5_1 <- pool4
I0413 16:11:19.903254  8132 net.cpp:408] conv5_1 -> conv5_1
I0413 16:11:19.908216  8132 net.cpp:150] Setting up conv5_1
I0413 16:11:19.908255  8132 net.cpp:157] Top shape: 1 512 63 94 (3032064)
I0413 16:11:19.908262  8132 net.cpp:165] Memory required for data: 3415088588
I0413 16:11:19.908275  8132 layer_factory.hpp:77] Creating layer relu5_1
I0413 16:11:19.908289  8132 net.cpp:100] Creating Layer relu5_1
I0413 16:11:19.908296  8132 net.cpp:434] relu5_1 <- conv5_1
I0413 16:11:19.908308  8132 net.cpp:395] relu5_1 -> conv5_1 (in-place)
I0413 16:11:19.908321  8132 net.cpp:150] Setting up relu5_1
I0413 16:11:19.908329  8132 net.cpp:157] Top shape: 1 512 63 94 (3032064)
I0413 16:11:19.908332  8132 net.cpp:165] Memory required for data: 3427216844
I0413 16:11:19.908337  8132 layer_factory.hpp:77] Creating layer conv5_2
I0413 16:11:19.908350  8132 net.cpp:100] Creating Layer conv5_2
I0413 16:11:19.908354  8132 net.cpp:434] conv5_2 <- conv5_1
I0413 16:11:19.908362  8132 net.cpp:408] conv5_2 -> conv5_2
I0413 16:11:19.912751  8132 net.cpp:150] Setting up conv5_2
I0413 16:11:19.912798  8132 net.cpp:157] Top shape: 1 512 63 94 (3032064)
I0413 16:11:19.912802  8132 net.cpp:165] Memory required for data: 3439345100
I0413 16:11:19.912812  8132 layer_factory.hpp:77] Creating layer relu5_2
I0413 16:11:19.912823  8132 net.cpp:100] Creating Layer relu5_2
I0413 16:11:19.912828  8132 net.cpp:434] relu5_2 <- conv5_2
I0413 16:11:19.912837  8132 net.cpp:395] relu5_2 -> conv5_2 (in-place)
I0413 16:11:19.912847  8132 net.cpp:150] Setting up relu5_2
I0413 16:11:19.912853  8132 net.cpp:157] Top shape: 1 512 63 94 (3032064)
I0413 16:11:19.912855  8132 net.cpp:165] Memory required for data: 3451473356
I0413 16:11:19.912858  8132 layer_factory.hpp:77] Creating layer conv5_3
I0413 16:11:19.912868  8132 net.cpp:100] Creating Layer conv5_3
I0413 16:11:19.912873  8132 net.cpp:434] conv5_3 <- conv5_2
I0413 16:11:19.912881  8132 net.cpp:408] conv5_3 -> conv5_3
I0413 16:11:19.917138  8132 net.cpp:150] Setting up conv5_3
I0413 16:11:19.917173  8132 net.cpp:157] Top shape: 1 512 63 94 (3032064)
I0413 16:11:19.917176  8132 net.cpp:165] Memory required for data: 3463601612
I0413 16:11:19.917187  8132 layer_factory.hpp:77] Creating layer relu5_3
I0413 16:11:19.917203  8132 net.cpp:100] Creating Layer relu5_3
I0413 16:11:19.917212  8132 net.cpp:434] relu5_3 <- conv5_3
I0413 16:11:19.917222  8132 net.cpp:395] relu5_3 -> conv5_3 (in-place)
I0413 16:11:19.917243  8132 net.cpp:150] Setting up relu5_3
I0413 16:11:19.917253  8132 net.cpp:157] Top shape: 1 512 63 94 (3032064)
I0413 16:11:19.917260  8132 net.cpp:165] Memory required for data: 3475729868
I0413 16:11:19.917268  8132 layer_factory.hpp:77] Creating layer rpn_big_conv1
I0413 16:11:19.917284  8132 net.cpp:100] Creating Layer rpn_big_conv1
I0413 16:11:19.917289  8132 net.cpp:434] rpn_big_conv1 <- conv5_3
I0413 16:11:19.917299  8132 net.cpp:408] rpn_big_conv1 -> rpn_big_conv1
I0413 16:11:19.944346  8132 net.cpp:150] Setting up rpn_big_conv1
I0413 16:11:19.944378  8132 net.cpp:157] Top shape: 1 512 63 94 (3032064)
I0413 16:11:19.944391  8132 net.cpp:165] Memory required for data: 3487858124
I0413 16:11:19.944401  8132 layer_factory.hpp:77] Creating layer rpn_big_conv1_relu
I0413 16:11:19.944414  8132 net.cpp:100] Creating Layer rpn_big_conv1_relu
I0413 16:11:19.944422  8132 net.cpp:434] rpn_big_conv1_relu <- rpn_big_conv1
I0413 16:11:19.944433  8132 net.cpp:395] rpn_big_conv1_relu -> rpn_big_conv1 (in-place)
I0413 16:11:19.944449  8132 net.cpp:150] Setting up rpn_big_conv1_relu
I0413 16:11:19.944456  8132 net.cpp:157] Top shape: 1 512 63 94 (3032064)
I0413 16:11:19.944459  8132 net.cpp:165] Memory required for data: 3499986380
I0413 16:11:19.944464  8132 layer_factory.hpp:77] Creating layer rpn_big_conv2
I0413 16:11:19.944480  8132 net.cpp:100] Creating Layer rpn_big_conv2
I0413 16:11:19.944485  8132 net.cpp:434] rpn_big_conv2 <- rpn_big_conv1
I0413 16:11:19.944494  8132 net.cpp:408] rpn_big_conv2 -> rpn_big_conv2
I0413 16:11:19.969758  8132 net.cpp:150] Setting up rpn_big_conv2
I0413 16:11:19.969786  8132 net.cpp:157] Top shape: 1 512 63 94 (3032064)
I0413 16:11:19.969799  8132 net.cpp:165] Memory required for data: 3512114636
I0413 16:11:19.969810  8132 layer_factory.hpp:77] Creating layer rpn_big_conv2_relu
I0413 16:11:19.969820  8132 net.cpp:100] Creating Layer rpn_big_conv2_relu
I0413 16:11:19.969828  8132 net.cpp:434] rpn_big_conv2_relu <- rpn_big_conv2
I0413 16:11:19.969841  8132 net.cpp:395] rpn_big_conv2_relu -> rpn_big_conv2 (in-place)
I0413 16:11:19.969854  8132 net.cpp:150] Setting up rpn_big_conv2_relu
I0413 16:11:19.969862  8132 net.cpp:157] Top shape: 1 512 63 94 (3032064)
I0413 16:11:19.969866  8132 net.cpp:165] Memory required for data: 3524242892
I0413 16:11:19.969869  8132 layer_factory.hpp:77] Creating layer rpn_big_conv2_drop
I0413 16:11:19.969878  8132 net.cpp:100] Creating Layer rpn_big_conv2_drop
I0413 16:11:19.969884  8132 net.cpp:434] rpn_big_conv2_drop <- rpn_big_conv2
I0413 16:11:19.969892  8132 net.cpp:395] rpn_big_conv2_drop -> rpn_big_conv2 (in-place)
I0413 16:11:19.969921  8132 net.cpp:150] Setting up rpn_big_conv2_drop
I0413 16:11:19.969929  8132 net.cpp:157] Top shape: 1 512 63 94 (3032064)
I0413 16:11:19.969933  8132 net.cpp:165] Memory required for data: 3536371148
I0413 16:11:19.969939  8132 layer_factory.hpp:77] Creating layer rpn_big_conv2_rpn_big_conv2_drop_0_split
I0413 16:11:19.969949  8132 net.cpp:100] Creating Layer rpn_big_conv2_rpn_big_conv2_drop_0_split
I0413 16:11:19.969954  8132 net.cpp:434] rpn_big_conv2_rpn_big_conv2_drop_0_split <- rpn_big_conv2
I0413 16:11:19.969964  8132 net.cpp:408] rpn_big_conv2_rpn_big_conv2_drop_0_split -> rpn_big_conv2_rpn_big_conv2_drop_0_split_0
I0413 16:11:19.969974  8132 net.cpp:408] rpn_big_conv2_rpn_big_conv2_drop_0_split -> rpn_big_conv2_rpn_big_conv2_drop_0_split_1
I0413 16:11:19.970012  8132 net.cpp:150] Setting up rpn_big_conv2_rpn_big_conv2_drop_0_split
I0413 16:11:19.970021  8132 net.cpp:157] Top shape: 1 512 63 94 (3032064)
I0413 16:11:19.970026  8132 net.cpp:157] Top shape: 1 512 63 94 (3032064)
I0413 16:11:19.970031  8132 net.cpp:165] Memory required for data: 3560627660
I0413 16:11:19.970037  8132 layer_factory.hpp:77] Creating layer rpn_big_output_cls
I0413 16:11:19.970053  8132 net.cpp:100] Creating Layer rpn_big_output_cls
I0413 16:11:19.970059  8132 net.cpp:434] rpn_big_output_cls <- rpn_big_conv2_rpn_big_conv2_drop_0_split_0
I0413 16:11:19.970070  8132 net.cpp:408] rpn_big_output_cls -> rpn_big_output_cls
I0413 16:11:19.989063  8132 net.cpp:150] Setting up rpn_big_output_cls
I0413 16:11:19.989092  8132 net.cpp:157] Top shape: 1 384 63 94 (2274048)
I0413 16:11:19.989097  8132 net.cpp:165] Memory required for data: 3569723852
I0413 16:11:19.989111  8132 layer_factory.hpp:77] Creating layer rpn_big_output_cls_relu
I0413 16:11:19.989128  8132 net.cpp:100] Creating Layer rpn_big_output_cls_relu
I0413 16:11:19.989138  8132 net.cpp:434] rpn_big_output_cls_relu <- rpn_big_output_cls
I0413 16:11:19.989151  8132 net.cpp:395] rpn_big_output_cls_relu -> rpn_big_output_cls (in-place)
I0413 16:11:19.989166  8132 net.cpp:150] Setting up rpn_big_output_cls_relu
I0413 16:11:19.989176  8132 net.cpp:157] Top shape: 1 384 63 94 (2274048)
I0413 16:11:19.989181  8132 net.cpp:165] Memory required for data: 3578820044
I0413 16:11:19.989187  8132 layer_factory.hpp:77] Creating layer rpn_big_cls_score
I0413 16:11:19.989205  8132 net.cpp:100] Creating Layer rpn_big_cls_score
I0413 16:11:19.989212  8132 net.cpp:434] rpn_big_cls_score <- rpn_big_output_cls
I0413 16:11:19.989226  8132 net.cpp:408] rpn_big_cls_score -> rpn_big_cls_score
I0413 16:11:19.991663  8132 net.cpp:150] Setting up rpn_big_cls_score
I0413 16:11:19.991678  8132 net.cpp:157] Top shape: 1 52 61 92 (291824)
I0413 16:11:19.991681  8132 net.cpp:165] Memory required for data: 3579987340
I0413 16:11:19.991703  8132 layer_factory.hpp:77] Creating layer rpn_big_cls_score_rpn_big_cls_score_0_split
I0413 16:11:19.991716  8132 net.cpp:100] Creating Layer rpn_big_cls_score_rpn_big_cls_score_0_split
I0413 16:11:19.991724  8132 net.cpp:434] rpn_big_cls_score_rpn_big_cls_score_0_split <- rpn_big_cls_score
I0413 16:11:19.991735  8132 net.cpp:408] rpn_big_cls_score_rpn_big_cls_score_0_split -> rpn_big_cls_score_rpn_big_cls_score_0_split_0
I0413 16:11:19.991749  8132 net.cpp:408] rpn_big_cls_score_rpn_big_cls_score_0_split -> rpn_big_cls_score_rpn_big_cls_score_0_split_1
I0413 16:11:19.991806  8132 net.cpp:150] Setting up rpn_big_cls_score_rpn_big_cls_score_0_split
I0413 16:11:19.991817  8132 net.cpp:157] Top shape: 1 52 61 92 (291824)
I0413 16:11:19.991827  8132 net.cpp:157] Top shape: 1 52 61 92 (291824)
I0413 16:11:19.991832  8132 net.cpp:165] Memory required for data: 3582321932
I0413 16:11:19.991837  8132 layer_factory.hpp:77] Creating layer rpn_big_cls_score_reshape
I0413 16:11:19.991848  8132 net.cpp:100] Creating Layer rpn_big_cls_score_reshape
I0413 16:11:19.991856  8132 net.cpp:434] rpn_big_cls_score_reshape <- rpn_big_cls_score_rpn_big_cls_score_0_split_0
I0413 16:11:19.991868  8132 net.cpp:408] rpn_big_cls_score_reshape -> rpn_big_cls_score_reshape
I0413 16:11:19.991904  8132 net.cpp:150] Setting up rpn_big_cls_score_reshape
I0413 16:11:19.991914  8132 net.cpp:157] Top shape: 1 2 1586 92 (291824)
I0413 16:11:19.991920  8132 net.cpp:165] Memory required for data: 3583489228
I0413 16:11:19.991925  8132 layer_factory.hpp:77] Creating layer rpn_big_cls_score_reshape_rpn_big_cls_score_reshape_0_split
I0413 16:11:19.991933  8132 net.cpp:100] Creating Layer rpn_big_cls_score_reshape_rpn_big_cls_score_reshape_0_split
I0413 16:11:19.991938  8132 net.cpp:434] rpn_big_cls_score_reshape_rpn_big_cls_score_reshape_0_split <- rpn_big_cls_score_reshape
I0413 16:11:19.991950  8132 net.cpp:408] rpn_big_cls_score_reshape_rpn_big_cls_score_reshape_0_split -> rpn_big_cls_score_reshape_rpn_big_cls_score_reshape_0_split_0
I0413 16:11:19.991961  8132 net.cpp:408] rpn_big_cls_score_reshape_rpn_big_cls_score_reshape_0_split -> rpn_big_cls_score_reshape_rpn_big_cls_score_reshape_0_split_1
I0413 16:11:19.992007  8132 net.cpp:150] Setting up rpn_big_cls_score_reshape_rpn_big_cls_score_reshape_0_split
I0413 16:11:19.992015  8132 net.cpp:157] Top shape: 1 2 1586 92 (291824)
I0413 16:11:19.992022  8132 net.cpp:157] Top shape: 1 2 1586 92 (291824)
I0413 16:11:19.992027  8132 net.cpp:165] Memory required for data: 3585823820
I0413 16:11:19.992033  8132 layer_factory.hpp:77] Creating layer rpn_big_cls_prob
I0413 16:11:19.992041  8132 net.cpp:100] Creating Layer rpn_big_cls_prob
I0413 16:11:19.992048  8132 net.cpp:434] rpn_big_cls_prob <- rpn_big_cls_score_reshape_rpn_big_cls_score_reshape_0_split_0
I0413 16:11:19.992056  8132 net.cpp:408] rpn_big_cls_prob -> rpn_big_cls_prob
I0413 16:11:19.992126  8132 net.cpp:150] Setting up rpn_big_cls_prob
I0413 16:11:19.992137  8132 net.cpp:157] Top shape: 1 2 1586 92 (291824)
I0413 16:11:19.992142  8132 net.cpp:165] Memory required for data: 3586991116
I0413 16:11:19.992147  8132 layer_factory.hpp:77] Creating layer rpn_big_cls_prob_reshape
I0413 16:11:19.992156  8132 net.cpp:100] Creating Layer rpn_big_cls_prob_reshape
I0413 16:11:19.992161  8132 net.cpp:434] rpn_big_cls_prob_reshape <- rpn_big_cls_prob
I0413 16:11:19.992169  8132 net.cpp:408] rpn_big_cls_prob_reshape -> rpn_big_cls_prob_reshape
I0413 16:11:19.992199  8132 net.cpp:150] Setting up rpn_big_cls_prob_reshape
I0413 16:11:19.992210  8132 net.cpp:157] Top shape: 1 52 61 92 (291824)
I0413 16:11:19.992215  8132 net.cpp:165] Memory required for data: 3588158412
I0413 16:11:19.992220  8132 layer_factory.hpp:77] Creating layer rpn_big_cls_prob_reshape_rpn_big_cls_prob_reshape_0_split
I0413 16:11:19.992228  8132 net.cpp:100] Creating Layer rpn_big_cls_prob_reshape_rpn_big_cls_prob_reshape_0_split
I0413 16:11:19.992234  8132 net.cpp:434] rpn_big_cls_prob_reshape_rpn_big_cls_prob_reshape_0_split <- rpn_big_cls_prob_reshape
I0413 16:11:19.992244  8132 net.cpp:408] rpn_big_cls_prob_reshape_rpn_big_cls_prob_reshape_0_split -> rpn_big_cls_prob_reshape_rpn_big_cls_prob_reshape_0_split_0
I0413 16:11:19.992254  8132 net.cpp:408] rpn_big_cls_prob_reshape_rpn_big_cls_prob_reshape_0_split -> rpn_big_cls_prob_reshape_rpn_big_cls_prob_reshape_0_split_1
I0413 16:11:19.992295  8132 net.cpp:150] Setting up rpn_big_cls_prob_reshape_rpn_big_cls_prob_reshape_0_split
I0413 16:11:19.992306  8132 net.cpp:157] Top shape: 1 52 61 92 (291824)
I0413 16:11:19.992312  8132 net.cpp:157] Top shape: 1 52 61 92 (291824)
I0413 16:11:19.992316  8132 net.cpp:165] Memory required for data: 3590493004
I0413 16:11:19.992322  8132 layer_factory.hpp:77] Creating layer rpn_big_anchor_target
I0413 16:11:19.993913  8132 net.cpp:100] Creating Layer rpn_big_anchor_target
I0413 16:11:19.993937  8132 net.cpp:434] rpn_big_anchor_target <- rpn_big_cls_score_rpn_big_cls_score_0_split_1
I0413 16:11:19.993947  8132 net.cpp:434] rpn_big_anchor_target <- input_gt_boxes
I0413 16:11:19.993953  8132 net.cpp:434] rpn_big_anchor_target <- input_ignored_boxes
I0413 16:11:19.993962  8132 net.cpp:434] rpn_big_anchor_target <- input_im_info_input_1_split_0
I0413 16:11:19.993968  8132 net.cpp:434] rpn_big_anchor_target <- input_data_input_0_split_1
I0413 16:11:19.993975  8132 net.cpp:434] rpn_big_anchor_target <- rpn_big_cls_prob_reshape_rpn_big_cls_prob_reshape_0_split_0
I0413 16:11:19.993988  8132 net.cpp:408] rpn_big_anchor_target -> rpn_big_anchor_target_labels
I0413 16:11:19.994005  8132 net.cpp:408] rpn_big_anchor_target -> rpn_big_anchor_target_bbox_targets
I0413 16:11:19.994021  8132 net.cpp:408] rpn_big_anchor_target -> rpn_big_anchor_target_inside_weights
I0413 16:11:19.994035  8132 net.cpp:408] rpn_big_anchor_target -> rpn_big_anchor_target_outside_weights
I0413 16:11:19.998797  8132 net.cpp:150] Setting up rpn_big_anchor_target
I0413 16:11:19.998821  8132 net.cpp:157] Top shape: 1 1 1586 92 (145912)
I0413 16:11:19.998834  8132 net.cpp:157] Top shape: 1 104 61 92 (583648)
I0413 16:11:19.998838  8132 net.cpp:157] Top shape: 1 104 61 92 (583648)
I0413 16:11:19.998842  8132 net.cpp:157] Top shape: 1 104 61 92 (583648)
I0413 16:11:19.998845  8132 net.cpp:165] Memory required for data: 3598080428
I0413 16:11:19.998850  8132 layer_factory.hpp:77] Creating layer rpn_big_loss_cls
I0413 16:11:19.998863  8132 net.cpp:100] Creating Layer rpn_big_loss_cls
I0413 16:11:19.998872  8132 net.cpp:434] rpn_big_loss_cls <- rpn_big_cls_score_reshape_rpn_big_cls_score_reshape_0_split_1
I0413 16:11:19.998880  8132 net.cpp:434] rpn_big_loss_cls <- rpn_big_anchor_target_labels
I0413 16:11:19.998890  8132 net.cpp:408] rpn_big_loss_cls -> rpn_big_loss_cls
I0413 16:11:19.998908  8132 layer_factory.hpp:77] Creating layer rpn_big_loss_cls
I0413 16:11:19.999634  8132 net.cpp:150] Setting up rpn_big_loss_cls
I0413 16:11:19.999647  8132 net.cpp:157] Top shape: (1)
I0413 16:11:19.999651  8132 net.cpp:160]     with loss weight 1
I0413 16:11:19.999668  8132 net.cpp:165] Memory required for data: 3598080432
I0413 16:11:19.999675  8132 layer_factory.hpp:77] Creating layer rpn_big_output_box
I0413 16:11:19.999692  8132 net.cpp:100] Creating Layer rpn_big_output_box
I0413 16:11:19.999701  8132 net.cpp:434] rpn_big_output_box <- rpn_big_conv2_rpn_big_conv2_drop_0_split_1
I0413 16:11:19.999716  8132 net.cpp:408] rpn_big_output_box -> rpn_big_output_box
I0413 16:11:20.018529  8132 net.cpp:150] Setting up rpn_big_output_box
I0413 16:11:20.018560  8132 net.cpp:157] Top shape: 1 384 63 94 (2274048)
I0413 16:11:20.018573  8132 net.cpp:165] Memory required for data: 3607176624
I0413 16:11:20.018584  8132 layer_factory.hpp:77] Creating layer rpn_big_output_box_relu
I0413 16:11:20.018595  8132 net.cpp:100] Creating Layer rpn_big_output_box_relu
I0413 16:11:20.018601  8132 net.cpp:434] rpn_big_output_box_relu <- rpn_big_output_box
I0413 16:11:20.018615  8132 net.cpp:395] rpn_big_output_box_relu -> rpn_big_output_box (in-place)
I0413 16:11:20.018630  8132 net.cpp:150] Setting up rpn_big_output_box_relu
I0413 16:11:20.018638  8132 net.cpp:157] Top shape: 1 384 63 94 (2274048)
I0413 16:11:20.018643  8132 net.cpp:165] Memory required for data: 3616272816
I0413 16:11:20.018649  8132 layer_factory.hpp:77] Creating layer rpn_big_bbox_pred
I0413 16:11:20.018664  8132 net.cpp:100] Creating Layer rpn_big_bbox_pred
I0413 16:11:20.018671  8132 net.cpp:434] rpn_big_bbox_pred <- rpn_big_output_box
I0413 16:11:20.018682  8132 net.cpp:408] rpn_big_bbox_pred -> rpn_big_bbox_pred
I0413 16:11:20.022881  8132 net.cpp:150] Setting up rpn_big_bbox_pred
I0413 16:11:20.022897  8132 net.cpp:157] Top shape: 1 104 61 92 (583648)
I0413 16:11:20.022902  8132 net.cpp:165] Memory required for data: 3618607408
I0413 16:11:20.022912  8132 layer_factory.hpp:77] Creating layer rpn_big_bbox_pred_rpn_big_bbox_pred_0_split
I0413 16:11:20.022927  8132 net.cpp:100] Creating Layer rpn_big_bbox_pred_rpn_big_bbox_pred_0_split
I0413 16:11:20.022933  8132 net.cpp:434] rpn_big_bbox_pred_rpn_big_bbox_pred_0_split <- rpn_big_bbox_pred
I0413 16:11:20.022943  8132 net.cpp:408] rpn_big_bbox_pred_rpn_big_bbox_pred_0_split -> rpn_big_bbox_pred_rpn_big_bbox_pred_0_split_0
I0413 16:11:20.022958  8132 net.cpp:408] rpn_big_bbox_pred_rpn_big_bbox_pred_0_split -> rpn_big_bbox_pred_rpn_big_bbox_pred_0_split_1
I0413 16:11:20.023010  8132 net.cpp:150] Setting up rpn_big_bbox_pred_rpn_big_bbox_pred_0_split
I0413 16:11:20.023020  8132 net.cpp:157] Top shape: 1 104 61 92 (583648)
I0413 16:11:20.023028  8132 net.cpp:157] Top shape: 1 104 61 92 (583648)
I0413 16:11:20.023035  8132 net.cpp:165] Memory required for data: 3623276592
I0413 16:11:20.023039  8132 layer_factory.hpp:77] Creating layer rpn_big_loss_bbox
I0413 16:11:20.023454  8132 net.cpp:100] Creating Layer rpn_big_loss_bbox
I0413 16:11:20.023466  8132 net.cpp:434] rpn_big_loss_bbox <- rpn_big_bbox_pred_rpn_big_bbox_pred_0_split_0
I0413 16:11:20.023473  8132 net.cpp:434] rpn_big_loss_bbox <- rpn_big_anchor_target_bbox_targets
I0413 16:11:20.023476  8132 net.cpp:434] rpn_big_loss_bbox <- rpn_big_anchor_target_inside_weights
I0413 16:11:20.023480  8132 net.cpp:434] rpn_big_loss_bbox <- rpn_big_anchor_target_outside_weights
I0413 16:11:20.023488  8132 net.cpp:408] rpn_big_loss_bbox -> rpn_big_loss_bbox
I0413 16:11:20.025516  8132 net.cpp:150] Setting up rpn_big_loss_bbox
I0413 16:11:20.025547  8132 net.cpp:157] Top shape: 1 (1)
I0413 16:11:20.025549  8132 net.cpp:160]     with loss weight 1
I0413 16:11:20.025562  8132 net.cpp:165] Memory required for data: 3623276596
I0413 16:11:20.025568  8132 layer_factory.hpp:77] Creating layer proposal
I0413 16:11:20.027427  8132 net.cpp:100] Creating Layer proposal
I0413 16:11:20.027446  8132 net.cpp:434] proposal <- rpn_big_cls_prob_reshape_rpn_big_cls_prob_reshape_0_split_1
I0413 16:11:20.027456  8132 net.cpp:434] proposal <- rpn_big_bbox_pred_rpn_big_bbox_pred_0_split_1
…
