…
I0413 18:18:42.434886 12892 solver.cpp:48] Initializing solver from parameters: 
base_lr: 0.001
display: 20
lr_policy: "multistep"
gamma: 0.1
momentum: 0.9
weight_decay: 0.0005
snapshot: 0
snapshot_prefix: "faces_example"
net_param {
  name: "GeneratedModel_13_04_2017_18_18"
  layer {
    name: "input"
    type: "Python"
    top: "input_data"
    top: "input_im_info"
    top: "input_gt_boxes"
    top: "input_ignored_boxes"
    python_param {
      module: "layers.roi_data_layer"
      layer: "RoIDataLayer"
      param_str: "{\"num_classes\": 2}"
    }
  }
  layer {
    name: "conv1_1"
    type: "Convolution"
    bottom: "input_data"
    top: "conv1_1"
    param {
      lr_mult: 0
      decay_mult: 0
    }
    param {
      lr_mult: 0
      decay_mult: 0
    }
    convolution_param {
      num_output: 64
      pad: 1
      kernel_size: 3
    }
  }
  layer {
    name: "relu1_1"
    type: "ReLU"
    bottom: "conv1_1"
    top: "conv1_1"
  }
  layer {
    name: "conv1_2"
    type: "Convolution"
    bottom: "conv1_1"
    top: "conv1_2"
    param {
      lr_mult: 0
      decay_mult: 0
    }
    param {
      lr_mult: 0
      decay_mult: 0
    }
    convolution_param {
      num_output: 64
      pad: 1
      kernel_size: 3
    }
  }
  layer {
    name: "relu1_2"
    type: "ReLU"
    bottom: "conv1_2"
    top: "conv1_2"
  }
  layer {
    name: "pool1"
    type: "Pooling"
    bottom: "conv1_2"
    top: "pool1"
    pooling_param {
      pool: MAX
      kernel_size: 2
      stride: 2
    }
  }
  layer {
    name: "conv2_1"
    type: "Convolution"
    bottom: "pool1"
    top: "conv2_1"
    param {
      lr_mult: 0
      decay_mult: 0
    }
    param {
      lr_mult: 0
      decay_mult: 0
    }
    convolution_param {
      num_output: 128
      pad: 1
      kernel_size: 3
    }
  }
  layer {
    name: "relu2_1"
    type: "ReLU"
    bottom: "conv2_1"
    top: "conv2_1"
  }
  layer {
    name: "conv2_2"
    type: "Convolution"
    bottom: "conv2_1"
    top: "conv2_2"
    param {
      lr_mult: 0
      decay_mult: 0
    }
    param {
      lr_mult: 0
      decay_mult: 0
    }
    convolution_param {
      num_output: 128
      pad: 1
      kernel_size: 3
    }
  }
  layer {
    name: "relu2_2"
    type: "ReLU"
    bottom: "conv2_2"
    top: "conv2_2"
  }
  layer {
    name: "pool2"
    type: "Pooling"
    bottom: "conv2_2"
    top: "pool2"
    pooling_param {
      pool: MAX
      kernel_size: 2
      stride: 2
    }
  }
  layer {
    name: "conv3_1"
    type: "Convolution"
    bottom: "pool2"
    top: "conv3_1"
    param {
      lr_mult: 1
    }
    param {
      lr_mult: 2
    }
    convolution_param {
      num_output: 256
      pad: 1
      kernel_size: 3
    }
  }
  layer {
    name: "relu3_1"
    type: "ReLU"
    bottom: "conv3_1"
    top: "conv3_1"
  }
  layer {
    name: "conv3_2"
    type: "Convolution"
    bottom: "conv3_1"
    top: "conv3_2"
    param {
      lr_mult: 1
    }
    param {
      lr_mult: 2
    }
    convolution_param {
      num_output: 256
      pad: 1
      kernel_size: 3
    }
  }
  layer {
    name: "relu3_2"
    type: "ReLU"
    bottom: "conv3_2"
    top: "conv3_2"
  }
  layer {
    name: "conv3_3"
    type: "Convolution"
    bottom: "conv3_2"
    top: "conv3_3"
    param {
      lr_mult: 1
    }
    param {
      lr_mult: 2
    }
    convolution_param {
      num_output: 256
      pad: 1
      kernel_size: 3
    }
  }
  layer {
    name: "relu3_3"
    type: "ReLU"
    bottom: "conv3_3"
    top: "conv3_3"
  }
  layer {
    name: "pool3"
    type: "Pooling"
    bottom: "conv3_3"
    top: "pool3"
    pooling_param {
      pool: MAX
      kernel_size: 2
      stride: 2
    }
  }
  layer {
    name: "conv4_1"
    type: "Convolution"
    bottom: "pool3"
    top: "conv4_1"
    param {
      lr_mult: 1
    }
    param {
      lr_mult: 2
    }
    convolution_param {
      num_output: 512
      pad: 1
      kernel_size: 3
    }
  }
  layer {
    name: "relu4_1"
    type: "ReLU"
    bottom: "conv4_1"
    top: "conv4_1"
  }
  layer {
    name: "conv4_2"
    type: "Convolution"
    bottom: "conv4_1"
    top: "conv4_2"
    param {
      lr_mult: 1
    }
    param {
      lr_mult: 2
    }
    convolution_param {
      num_output: 512
      pad: 1
      kernel_size: 3
    }
  }
  layer {
    name: "relu4_2"
    type: "ReLU"
    bottom: "conv4_2"
    top: "conv4_2"
  }
  layer {
    name: "conv4_3"
    type: "Convolution"
    bottom: "conv4_2"
    top: "conv4_3"
    param {
      lr_mult: 1
    }
    param {
      lr_mult: 2
    }
    convolution_param {
      num_output: 512
      pad: 1
      kernel_size: 3
    }
  }
  layer {
    name: "relu4_3"
    type: "ReLU"
    bottom: "conv4_3"
    top: "conv4_3"
  }
  layer {
    name: "pool4"
    type: "Pooling"
    bottom: "conv4_3"
    top: "pool4"
    pooling_param {
      pool: MAX
      kernel_size: 2
      stride: 2
    }
  }
  layer {
    name: "conv5_1"
    type: "Convolution"
    bottom: "pool4"
    top: "conv5_1"
    param {
      lr_mult: 1
    }
    param {
      lr_mult: 2
    }
    convolution_param {
      num_output: 512
      pad: 1
      kernel_size: 3
    }
  }
  layer {
    name: "relu5_1"
    type: "ReLU"
    bottom: "conv5_1"
    top: "conv5_1"
  }
  layer {
    name: "conv5_2"
    type: "Convolution"
    bottom: "conv5_1"
    top: "conv5_2"
    param {
      lr_mult: 1
    }
    param {
      lr_mult: 2
    }
    convolution_param {
      num_output: 512
      pad: 1
      kernel_size: 3
    }
  }
  layer {
    name: "relu5_2"
    type: "ReLU"
    bottom: "conv5_2"
    top: "conv5_2"
  }
  layer {
    name: "conv5_3"
    type: "Convolution"
    bottom: "conv5_2"
    top: "conv5_3"
    param {
      lr_mult: 1
    }
    param {
      lr_mult: 2
    }
    convolution_param {
      num_output: 512
      pad: 1
      kernel_size: 3
    }
  }
  layer {
    name: "relu5_3"
    type: "ReLU"
    bottom: "conv5_3"
    top: "conv5_3"
  }
  layer {
    name: "rpn_big_conv1"
    type: "Convolution"
    bottom: "conv5_3"
    top: "rpn_big_conv1"
    param {
      lr_mult: 1
    }
    param {
      lr_mult: 2
    }
    convolution_param {
      num_output: 512
      pad: 1
      kernel_size: 3
      stride: 1
      weight_filler {
        type: "gaussian"
        mean: 0
        std: 0.01
      }
      bias_filler {
        type: "constant"
      }
    }
  }
  layer {
    name: "rpn_big_conv1_relu"
    type: "ReLU"
    bottom: "rpn_big_conv1"
    top: "rpn_big_conv1"
    relu_param {
      negative_slope: 0
    }
  }
  layer {
    name: "rpn_big_conv2"
    type: "Convolution"
    bottom: "rpn_big_conv1"
    top: "rpn_big_conv2"
    param {
      lr_mult: 1
    }
    param {
      lr_mult: 2
    }
    convolution_param {
      num_output: 512
      pad: 1
      kernel_size: 3
      stride: 1
      weight_filler {
        type: "gaussian"
        mean: 0
        std: 0.01
      }
      bias_filler {
        type: "constant"
      }
    }
  }
  layer {
    name: "rpn_big_conv2_relu"
    type: "ReLU"
    bottom: "rpn_big_conv2"
    top: "rpn_big_conv2"
    relu_param {
      negative_slope: 0
    }
  }
  layer {
    name: "rpn_big_conv2_drop"
    type: "Dropout"
    bottom: "rpn_big_conv2"
    top: "rpn_big_conv2"
    dropout_param {
      dropout_ratio: 0.3
    }
  }
  layer {
    name: "rpn_big_output_cls"
    type: "Convolution"
    bottom: "rpn_big_conv2"
    top: "rpn_big_output_cls"
    param {
      lr_mult: 1
    }
    param {
      lr_mult: 2
    }
    convolution_param {
      num_output: 384
      pad: 1
      kernel_size: 3
      stride: 1
      weight_filler {
        type: "gaussian"
        mean: 0
        std: 0.01
      }
      bias_filler {
        type: "constant"
      }
    }
  }
  layer {
    name: "rpn_big_output_cls_relu"
    type: "ReLU"
    bottom: "rpn_big_output_cls"
    top: "rpn_big_output_cls"
    relu_param {
      negative_slope: 0
    }
  }
  layer {
    name: "rpn_big_cls_score"
    type: "Convolution"
    bottom: "rpn_big_output_cls"
    top: "rpn_big_cls_score"
    param {
      lr_mult: 1
    }
    param {
      lr_mult: 2
    }
    convolution_param {
      num_output: 52
      pad: 0
      kernel_size: 3
      stride: 1
      weight_filler {
        type: "gaussian"
        mean: 0
        std: 0.01
      }
      bias_filler {
        type: "constant"
      }
    }
  }
  layer {
    name: "rpn_big_cls_score_reshape"
    type: "Reshape"
    bottom: "rpn_big_cls_score"
    top: "rpn_big_cls_score_reshape"
    reshape_param {
      shape {
        dim: 0
        dim: 2
        dim: -1
        dim: 0
      }
    }
  }
  layer {
    name: "rpn_big_cls_prob"
    type: "Softmax"
    bottom: "rpn_big_cls_score_reshape"
    top: "rpn_big_cls_prob"
  }
  layer {
    name: "rpn_big_cls_prob_reshape"
    type: "Reshape"
    bottom: "rpn_big_cls_prob"
    top: "rpn_big_cls_prob_reshape"
    reshape_param {
      shape {
        dim: 0
        dim: 52
        dim: -1
        dim: 0
      }
    }
  }
  layer {
    name: "rpn_big_anchor_target"
    type: "Python"
    bottom: "rpn_big_cls_score"
    bottom: "input_gt_boxes"
    bottom: "input_ignored_boxes"
    bottom: "input_im_info"
    bottom: "input_data"
    bottom: "rpn_big_cls_prob_reshape"
    top: "rpn_big_anchor_target_labels"
    top: "rpn_big_anchor_target_bbox_targets"
    top: "rpn_big_anchor_target_inside_weights"
    top: "rpn_big_anchor_target_outside_weights"
    python_param {
      module: "rpn.anchor_target_layer"
      layer: "AnchorTargetLayer"
      param_str: "{\"fg_fraction\": 0.5, \"anchor_scales\": [2.5, 3.025, 3.66025, 4.4289024999999995, 5.358972025, 6.484356150249999, 7.846070941802498, 9.493745839581022, 11.487432465893036, 13.899793283730574, 16.818749873313998, 20.350687346709933, 24.62433168951902, 29.795441344318014], \"name\": \"rpn_big\", \"anchor_ratios\": [1.0], \"positive_overlap\": 0.6, \"anchor_shift_num_xy\": [[2, 2], [2, 2], [2, 2], [2, 2], [1, 1], [1, 1], [1, 1], [1, 1], [1, 1], [1, 1], [1, 1], [1, 1], [1, 1], [1, 1]], \"num_classes\": 1, \"batchsize\": 256, \"square_targets\": true, \"tn_fraction\": 0.2, \"feat_stride\": 16, \"negative_overlap\": 0.4}"
    }
  }
  layer {
    name: "rpn_big_loss_cls"
    type: "SoftmaxWithLoss"
    bottom: "rpn_big_cls_score_reshape"
    bottom: "rpn_big_anchor_target_labels"
    top: "rpn_big_loss_cls"
    loss_weight: 1
    propagate_down: true
    propagate_down: false
    loss_param {
      ignore_label: -1
      normalization: VALID
    }
  }
  layer {
    name: "rpn_big_output_box"
    type: "Convolution"
    bottom: "rpn_big_conv2"
    top: "rpn_big_output_box"
    param {
      lr_mult: 1
    }
    param {
      lr_mult: 2
    }
    convolution_param {
      num_output: 384
      pad: 1
      kernel_size: 3
      stride: 1
      weight_filler {
        type: "gaussian"
        mean: 0
        std: 0.01
      }
      bias_filler {
        type: "constant"
      }
    }
  }
  layer {
    name: "rpn_big_output_box_relu"
    type: "ReLU"
    bottom: "rpn_big_output_box"
    top: "rpn_big_output_box"
    relu_param {
      negative_slope: 0
    }
  }
  layer {
    name: "rpn_big_bbox_pred"
    type: "Convolution"
    bottom: "rpn_big_output_box"
    top: "rpn_big_bbox_pred"
    param {
      lr_mult: 1
    }
    param {
      lr_mult: 2
    }
    convolution_param {
      num_output: 104
      pad: 0
      kernel_size: 3
      stride: 1
      weight_filler {
        type: "gaussian"
        mean: 0
        std: 0.01
      }
      bias_filler {
        type: "constant"
      }
    }
  }
  layer {
    name: "rpn_big_loss_bbox"
    type: "Python"
    bottom: "rpn_big_bbox_pred"
    bottom: "rpn_big_anchor_target_bbox_targets"
    bottom: "rpn_big_anchor_target_inside_weights"
    bottom: "rpn_big_anchor_target_outside_weights"
    top: "rpn_big_loss_bbox"
    loss_weight: 1
    python_param {
      module: "layers.smooth_l1_loss"
      layer: "SmoothL1LossLayer"
      param_str: "{\"sigma\": 3}"
    }
  }
  layer {
    name: "proposal"
    type: "Python"
    bottom: "rpn_big_cls_prob_reshape"
    bottom: "rpn_big_bbox_pred"
    bottom: "input_im_info"
    top: "rpn_rois"
    python_param {
      module: "rpn.proposal_layer"
      layer: "ProposalLayer"
      param_str: "{\"anchor_shift_num_xy\": [[2, 2], [2, 2], [2, 2], [2, 2], [1, 1], [1, 1], [1, 1], [1, 1], [1, 1], [1, 1], [1, 1], [1, 1], [1, 1], [1, 1]], \"feat_stride\": 16, \"num_classes\": 1, \"anchor_scales\": [2.5, 3.025, 3.66025, 4.4289024999999995, 5.358972025, 6.484356150249999, 7.846070941802498, 9.493745839581022, 11.487432465893036, 13.899793283730574, 16.818749873313998, 20.350687346709933, 24.62433168951902, 29.795441344318014], \"square_targets\": true, \"name\": \"rpn_big\", \"batchsize\": 256, \"anchor_ratios\": [1.0]}"
    }
  }
  layer {
    name: "roi-data"
    type: "Python"
    bottom: "rpn_rois"
    bottom: "input_gt_boxes"
    top: "rois"
    top: "labels"
    top: "bbox_targets"
    top: "bbox_inside_weights"
    top: "bbox_outside_weights"
    top: "pid_label"
    python_param {
      module: "rpn.proposal_target_layer"
      layer: "ProposalTargetLayer"
      param_str: "{\"num_classes\": 2, \"bg_aux_label\": 5532}"
    }
  }
  layer {
    name: "roi-pool"
    type: "ROIPooling"
    bottom: "conv5_3"
    bottom: "rois"
    top: "roi-pool"
    roi_pooling_param {
      pooled_h: 7
      pooled_w: 7
      spatial_scale: 0.0625
    }
  }
  layer {
    name: "fc6"
    type: "InnerProduct"
    bottom: "roi-pool"
    top: "fc6"
    param {
      lr_mult: 1
    }
    param {
      lr_mult: 2
    }
    inner_product_param {
      num_output: 4096
    }
  }
  layer {
    name: "relu6"
    type: "ReLU"
    bottom: "fc6"
    top: "fc6"
  }
  layer {
    name: "drop6"
    type: "Dropout"
    bottom: "fc6"
    top: "fc6"
    dropout_param {
      dropout_ratio: 0.5
    }
  }
  layer {
    name: "fc7"
    type: "InnerProduct"
    bottom: "fc6"
    top: "fc7"
    param {
      lr_mult: 1
    }
    param {
      lr_mult: 2
    }
    inner_product_param {
      num_output: 4096
    }
  }
  layer {
    name: "relu7"
    type: "ReLU"
    bottom: "fc7"
    top: "fc7"
  }
  layer {
    name: "drop7"
    type: "Dropout"
    bottom: "fc7"
    top: "fc7"
    dropout_param {
      dropout_ratio: 0.5
    }
  }
}
average_loss: 100
stepvalue: 70000
stepvalue: 120000
iter_size: 2
I0413 18:18:42.434972 12892 solver.cpp:86] Creating training net specified in net_param.
I0413 18:18:42.435677 12892 net.cpp:58] Initializing net from parameters: 
name: "GeneratedModel_13_04_2017_18_18"
state {
  phase: TRAIN
}
layer {
  name: "input"
  type: "Python"
  top: "input_data"
  top: "input_im_info"
  top: "input_gt_boxes"
  top: "input_ignored_boxes"
  python_param {
    module: "layers.roi_data_layer"
    layer: "RoIDataLayer"
    param_str: "{\"num_classes\": 2}"
  }
}
layer {
  name: "conv1_1"
  type: "Convolution"
  bottom: "input_data"
  top: "conv1_1"
  param {
    lr_mult: 0
    decay_mult: 0
  }
  param {
    lr_mult: 0
    decay_mult: 0
  }
  convolution_param {
    num_output: 64
    pad: 1
    kernel_size: 3
  }
}
layer {
  name: "relu1_1"
  type: "ReLU"
  bottom: "conv1_1"
  top: "conv1_1"
}
layer {
  name: "conv1_2"
  type: "Convolution"
  bottom: "conv1_1"
  top: "conv1_2"
  param {
    lr_mult: 0
    decay_mult: 0
  }
  param {
    lr_mult: 0
    decay_mult: 0
  }
  convolution_param {
    num_output: 64
    pad: 1
    kernel_size: 3
  }
}
layer {
  name: "relu1_2"
  type: "ReLU"
  bottom: "conv1_2"
  top: "conv1_2"
}
layer {
  name: "pool1"
  type: "Pooling"
  bottom: "conv1_2"
  top: "pool1"
  pooling_param {
    pool: MAX
    kernel_size: 2
    stride: 2
  }
}
layer {
  name: "conv2_1"
  type: "Convolution"
  bottom: "pool1"
  top: "conv2_1"
  param {
    lr_mult: 0
    decay_mult: 0
  }
  param {
    lr_mult: 0
    decay_mult: 0
  }
  convolution_param {
    num_output: 128
    pad: 1
    kernel_size: 3
  }
}
layer {
  name: "relu2_1"
  type: "ReLU"
  bottom: "conv2_1"
  top: "conv2_1"
}
layer {
  name: "conv2_2"
  type: "Convolution"
  bottom: "conv2_1"
  top: "conv2_2"
  param {
    lr_mult: 0
    decay_mult: 0
  }
  param {
    lr_mult: 0
    decay_mult: 0
  }
  convolution_param {
    num_output: 128
    pad: 1
    kernel_size: 3
  }
}
layer {
  name: "relu2_2"
  type: "ReLU"
  bottom: "conv2_2"
  top: "conv2_2"
}
layer {
  name: "pool2"
  type: "Pooling"
  bottom: "conv2_2"
  top: "pool2"
  pooling_param {
    pool: MAX
    kernel_size: 2
    stride: 2
  }
}
layer {
  name: "conv3_1"
  type: "Convolution"
  bottom: "pool2"
  top: "conv3_1"
  param {
    lr_mult: 1
  }
  param {
    lr_mult: 2
  }
  convolution_param {
    num_output: 256
    pad: 1
    kernel_size: 3
  }
}
layer {
  name: "relu3_1"
  type: "ReLU"
  bottom: "conv3_1"
  top: "conv3_1"
}
layer {
  name: "conv3_2"
  type: "Convolution"
  bottom: "conv3_1"
  top: "conv3_2"
  param {
    lr_mult: 1
  }
  param {
    lr_mult: 2
  }
  convolution_param {
    num_output: 256
    pad: 1
    kernel_size: 3
  }
}
layer {
  name: "relu3_2"
  type: "ReLU"
  bottom: "conv3_2"
  top: "conv3_2"
}
layer {
  name: "conv3_3"
  type: "Convolution"
  bottom: "conv3_2"
  top: "conv3_3"
  param {
    lr_mult: 1
  }
  param {
    lr_mult: 2
  }
  convolution_param {
    num_output: 256
    pad: 1
    kernel_size: 3
  }
}
layer {
  name: "relu3_3"
  type: "ReLU"
  bottom: "conv3_3"
  top: "conv3_3"
}
layer {
  name: "pool3"
  type: "Pooling"
  bottom: "conv3_3"
  top: "pool3"
  pooling_param {
    pool: MAX
    kernel_size: 2
    stride: 2
  }
}
layer {
  name: "conv4_1"
  type: "Convolution"
  bottom: "pool3"
  top: "conv4_1"
  param {
    lr_mult: 1
  }
  param {
    lr_mult: 2
  }
  convolution_param {
    num_output: 512
    pad: 1
    kernel_size: 3
  }
}
layer {
  name: "relu4_1"
  type: "ReLU"
  bottom: "conv4_1"
  top: "conv4_1"
}
layer {
  name: "conv4_2"
  type: "Convolution"
  bottom: "conv4_1"
  top: "conv4_2"
  param {
    lr_mult: 1
  }
  param {
    lr_mult: 2
  }
  convolution_param {
    num_output: 512
    pad: 1
    kernel_size: 3
  }
}
layer {
  name: "relu4_2"
  type: "ReLU"
  bottom: "conv4_2"
  top: "conv4_2"
}
layer {
  name: "conv4_3"
  type: "Convolution"
  bottom: "conv4_2"
  top: "conv4_3"
  param {
    lr_mult: 1
  }
  param {
    lr_mult: 2
  }
  convolution_param {
    num_output: 512
    pad: 1
    kernel_size: 3
  }
}
layer {
  name: "relu4_3"
  type: "ReLU"
  bottom: "conv4_3"
  top: "conv4_3"
}
layer {
  name: "pool4"
  type: "Pooling"
  bottom: "conv4_3"
  top: "pool4"
  pooling_param {
    pool: MAX
    kernel_size: 2
    stride: 2
  }
}
layer {
  name: "conv5_1"
  type: "Convolution"
  bottom: "pool4"
  top: "conv5_1"
  param {
    lr_mult: 1
  }
  param {
    lr_mult: 2
  }
  convolution_param {
    num_output: 512
    pad: 1
    kernel_size: 3
  }
}
layer {
  name: "relu5_1"
  type: "ReLU"
  bottom: "conv5_1"
  top: "conv5_1"
}
layer {
  name: "conv5_2"
  type: "Convolution"
  bottom: "conv5_1"
  top: "conv5_2"
  param {
    lr_mult: 1
  }
  param {
    lr_mult: 2
  }
  convolution_param {
    num_output: 512
    pad: 1
    kernel_size: 3
  }
}
layer {
  name: "relu5_2"
  type: "ReLU"
  bottom: "conv5_2"
  top: "conv5_2"
}
layer {
  name: "conv5_3"
  type: "Convolution"
  bottom: "conv5_2"
  top: "conv5_3"
  param {
    lr_mult: 1
  }
  param {
    lr_mult: 2
  }
  convolution_param {
    num_output: 512
    pad: 1
    kernel_size: 3
  }
}
layer {
  name: "relu5_3"
  type: "ReLU"
  bottom: "conv5_3"
  top: "conv5_3"
}
layer {
  name: "rpn_big_conv1"
  type: "Convolution"
  bottom: "conv5_3"
  top: "rpn_big_conv1"
  param {
    lr_mult: 1
  }
  param {
    lr_mult: 2
  }
  convolution_param {
    num_output: 512
    pad: 1
    kernel_size: 3
    stride: 1
    weight_filler {
      type: "gaussian"
      mean: 0
      std: 0.01
    }
    bias_filler {
      type: "constant"
    }
  }
}
layer {
  name: "rpn_big_conv1_relu"
  type: "ReLU"
  bottom: "rpn_big_conv1"
  top: "rpn_big_conv1"
  relu_param {
    negative_slope: 0
  }
}
layer {
  name: "rpn_big_conv2"
  type: "Convolution"
  bottom: "rpn_big_conv1"
  top: "rpn_big_conv2"
  param {
    lr_mult: 1
  }
  param {
    lr_mult: 2
  }
  convolution_param {
    num_output: 512
    pad: 1
    kernel_size: 3
    stride: 1
    weight_filler {
      type: "gaussian"
      mean: 0
      std: 0.01
    }
    bias_filler {
      type: "constant"
    }
  }
}
layer {
  name: "rpn_big_conv2_relu"
  type: "ReLU"
  bottom: "rpn_big_conv2"
  top: "rpn_big_conv2"
  relu_param {
    negative_slope: 0
  }
}
layer {
  name: "rpn_big_conv2_drop"
  type: "Dropout"
  bottom: "rpn_big_conv2"
  top: "rpn_big_conv2"
  dropout_param {
    dropout_ratio: 0.3
  }
}
layer {
  name: "rpn_big_output_cls"
  type: "Convolution"
  bottom: "rpn_big_conv2"
  top: "rpn_big_output_cls"
  param {
    lr_mult: 1
  }
  param {
    lr_mult: 2
  }
  convolution_param {
    num_output: 384
    pad: 1
    kernel_size: 3
    stride: 1
    weight_filler {
      type: "gaussian"
      mean: 0
      std: 0.01
    }
    bias_filler {
      type: "constant"
    }
  }
}
layer {
  name: "rpn_big_output_cls_relu"
  type: "ReLU"
  bottom: "rpn_big_output_cls"
  top: "rpn_big_output_cls"
  relu_param {
    negative_slope: 0
  }
}
layer {
  name: "rpn_big_cls_score"
  type: "Convolution"
  bottom: "rpn_big_output_cls"
  top: "rpn_big_cls_score"
  param {
    lr_mult: 1
  }
  param {
    lr_mult: 2
  }
  convolution_param {
    num_output: 52
    pad: 0
    kernel_size: 3
    stride: 1
    weight_filler {
      type: "gaussian"
      mean: 0
      std: 0.01
    }
    bias_filler {
      type: "constant"
    }
  }
}
layer {
  name: "rpn_big_cls_score_reshape"
  type: "Reshape"
  bottom: "rpn_big_cls_score"
  top: "rpn_big_cls_score_reshape"
  reshape_param {
    shape {
      dim: 0
      dim: 2
      dim: -1
      dim: 0
    }
  }
}
layer {
  name: "rpn_big_cls_prob"
  type: "Softmax"
  bottom: "rpn_big_cls_score_reshape"
  top: "rpn_big_cls_prob"
}
layer {
  name: "rpn_big_cls_prob_reshape"
  type: "Reshape"
  bottom: "rpn_big_cls_prob"
  top: "rpn_big_cls_prob_reshape"
  reshape_param {
    shape {
      dim: 0
      dim: 52
      dim: -1
      dim: 0
    }
  }
}
layer {
  name: "rpn_big_anchor_target"
  type: "Python"
  bottom: "rpn_big_cls_score"
  bottom: "input_gt_boxes"
  bottom: "input_ignored_boxes"
  bottom: "input_im_info"
  bottom: "input_data"
  bottom: "rpn_big_cls_prob_reshape"
  top: "rpn_big_anchor_target_labels"
  top: "rpn_big_anchor_target_bbox_targets"
  top: "rpn_big_anchor_target_inside_weights"
  top: "rpn_big_anchor_target_outside_weights"
  python_param {
    module: "rpn.anchor_target_layer"
    layer: "AnchorTargetLayer"
    param_str: "{\"fg_fraction\": 0.5, \"anchor_scales\": [2.5, 3.025, 3.66025, 4.4289024999999995, 5.358972025, 6.484356150249999, 7.846070941802498, 9.493745839581022, 11.487432465893036, 13.899793283730574, 16.818749873313998, 20.350687346709933, 24.62433168951902, 29.795441344318014], \"name\": \"rpn_big\", \"anchor_ratios\": [1.0], \"positive_overlap\": 0.6, \"anchor_shift_num_xy\": [[2, 2], [2, 2], [2, 2], [2, 2], [1, 1], [1, 1], [1, 1], [1, 1], [1, 1], [1, 1], [1, 1], [1, 1], [1, 1], [1, 1]], \"num_classes\": 1, \"batchsize\": 256, \"square_targets\": true, \"tn_fraction\": 0.2, \"feat_stride\": 16, \"negative_overlap\": 0.4}"
  }
}
layer {
  name: "rpn_big_loss_cls"
  type: "SoftmaxWithLoss"
  bottom: "rpn_big_cls_score_reshape"
  bottom: "rpn_big_anchor_target_labels"
  top: "rpn_big_loss_cls"
  loss_weight: 1
  propagate_down: true
  propagate_down: false
  loss_param {
    ignore_label: -1
    normalization: VALID
  }
}
layer {
  name: "rpn_big_output_box"
  type: "Convolution"
  bottom: "rpn_big_conv2"
  top: "rpn_big_output_box"
  param {
    lr_mult: 1
  }
  param {
    lr_mult: 2
  }
  convolution_param {
    num_output: 384
    pad: 1
    kernel_size: 3
    stride: 1
    weight_filler {
      type: "gaussian"
      mean: 0
      std: 0.01
    }
    bias_filler {
      type: "constant"
    }
  }
}
layer {
  name: "rpn_big_output_box_relu"
  type: "ReLU"
  bottom: "rpn_big_output_box"
  top: "rpn_big_output_box"
  relu_param {
    negative_slope: 0
  }
}
layer {
  name: "rpn_big_bbox_pred"
  type: "Convolution"
  bottom: "rpn_big_output_box"
  top: "rpn_big_bbox_pred"
  param {
    lr_mult: 1
  }
  param {
    lr_mult: 2
  }
  convolution_param {
    num_output: 104
    pad: 0
    kernel_size: 3
    stride: 1
    weight_filler {
      type: "gaussian"
      mean: 0
      std: 0.01
    }
    bias_filler {
      type: "constant"
    }
  }
}
layer {
  name: "rpn_big_loss_bbox"
  type: "Python"
  bottom: "rpn_big_bbox_pred"
  bottom: "rpn_big_anchor_target_bbox_targets"
  bottom: "rpn_big_anchor_target_inside_weights"
  bottom: "rpn_big_anchor_target_outside_weights"
  top: "rpn_big_loss_bbox"
  loss_weight: 1
  python_param {
    module: "layers.smooth_l1_loss"
    layer: "SmoothL1LossLayer"
    param_str: "{\"sigma\": 3}"
  }
}
layer {
  name: "proposal"
  type: "Python"
  bottom: "rpn_big_cls_prob_reshape"
  bottom: "rpn_big_bbox_pred"
  bottom: "input_im_info"
  top: "rpn_rois"
  python_param {
    module: "rpn.proposal_layer"
    layer: "ProposalLayer"
    param_str: "{\"anchor_shift_num_xy\": [[2, 2], [2, 2], [2, 2], [2, 2], [1, 1], [1, 1], [1, 1], [1, 1], [1, 1], [1, 1], [1, 1], [1, 1], [1, 1], [1, 1]], \"feat_stride\": 16, \"num_classes\": 1, \"anchor_scales\": [2.5, 3.025, 3.66025, 4.4289024999999995, 5.358972025, 6.484356150249999, 7.846070941802498, 9.493745839581022, 11.487432465893036, 13.899793283730574, 16.818749873313998, 20.350687346709933, 24.62433168951902, 29.795441344318014], \"square_targets\": true, \"name\": \"rpn_big\", \"batchsize\": 256, \"anchor_ratios\": [1.0]}"
  }
}
layer {
  name: "roi-data"
  type: "Python"
  bottom: "rpn_rois"
  bottom: "input_gt_boxes"
  top: "rois"
  top: "labels"
  top: "bbox_targets"
  top: "bbox_inside_weights"
  top: "bbox_outside_weights"
  top: "pid_label"
  python_param {
    module: "rpn.proposal_target_layer"
    layer: "ProposalTargetLayer"
    param_str: "{\"num_classes\": 2, \"bg_aux_label\": 5532}"
  }
}
layer {
  name: "roi-pool"
  type: "ROIPooling"
  bottom: "conv5_3"
  bottom: "rois"
  top: "roi-pool"
  roi_pooling_param {
    pooled_h: 7
    pooled_w: 7
    spatial_scale: 0.0625
  }
}
layer {
  name: "fc6"
  type: "InnerProduct"
  bottom: "roi-pool"
  top: "fc6"
  param {
    lr_mult: 1
  }
  param {
    lr_mult: 2
  }
  inner_product_param {
    num_output: 4096
  }
}
layer {
  name: "relu6"
  type: "ReLU"
  bottom: "fc6"
  top: "fc6"
}
layer {
  name: "drop6"
  type: "Dropout"
  bottom: "fc6"
  top: "fc6"
  dropout_param {
    dropout_ratio: 0.5
  }
}
layer {
  name: "fc7"
  type: "InnerProduct"
  bottom: "fc6"
  top: "fc7"
  param {
    lr_mult: 1
  }
  param {
    lr_mult: 2
  }
  inner_product_param {
    num_output: 4096
  }
}
layer {
  name: "relu7"
  type: "ReLU"
  bottom: "fc7"
  top: "fc7"
}
layer {
  name: "drop7"
  type: "Dropout"
  bottom: "fc7"
  top: "fc7"
  dropout_param {
    dropout_ratio: 0.5
  }
}
I0413 18:18:42.436076 12892 layer_factory.hpp:77] Creating layer input
I0413 18:18:42.438149 12892 net.cpp:100] Creating Layer input
I0413 18:18:42.438180 12892 net.cpp:408] input -> input_data
I0413 18:18:42.438199 12892 net.cpp:408] input -> input_im_info
I0413 18:18:42.438211 12892 net.cpp:408] input -> input_gt_boxes
I0413 18:18:42.438225 12892 net.cpp:408] input -> input_ignored_boxes
RoiDataLayer: name_to_top: {'ignored_boxes': 3, 'im_info': 1, 'gt_boxes': 2, 'data': 0}
I0413 18:18:42.755168 12892 net.cpp:150] Setting up input
I0413 18:18:42.755199 12892 net.cpp:157] Top shape: 1 3 1000 1500 (4500000)
I0413 18:18:42.755218 12892 net.cpp:157] Top shape: 1 3 (3)
I0413 18:18:42.755226 12892 net.cpp:157] Top shape: 1 5 (5)
I0413 18:18:42.755234 12892 net.cpp:157] Top shape: 1 5 (5)
I0413 18:18:42.755239 12892 net.cpp:165] Memory required for data: 18000052
I0413 18:18:42.755249 12892 layer_factory.hpp:77] Creating layer input_data_input_0_split
I0413 18:18:42.755267 12892 net.cpp:100] Creating Layer input_data_input_0_split
I0413 18:18:42.755276 12892 net.cpp:434] input_data_input_0_split <- input_data
I0413 18:18:42.755290 12892 net.cpp:408] input_data_input_0_split -> input_data_input_0_split_0
I0413 18:18:42.755314 12892 net.cpp:408] input_data_input_0_split -> input_data_input_0_split_1
I0413 18:18:42.755360 12892 net.cpp:150] Setting up input_data_input_0_split
I0413 18:18:42.755370 12892 net.cpp:157] Top shape: 1 3 1000 1500 (4500000)
I0413 18:18:42.755379 12892 net.cpp:157] Top shape: 1 3 1000 1500 (4500000)
I0413 18:18:42.755384 12892 net.cpp:165] Memory required for data: 54000052
I0413 18:18:42.755391 12892 layer_factory.hpp:77] Creating layer input_im_info_input_1_split
I0413 18:18:42.755403 12892 net.cpp:100] Creating Layer input_im_info_input_1_split
I0413 18:18:42.755410 12892 net.cpp:434] input_im_info_input_1_split <- input_im_info
I0413 18:18:42.755419 12892 net.cpp:408] input_im_info_input_1_split -> input_im_info_input_1_split_0
I0413 18:18:42.755434 12892 net.cpp:408] input_im_info_input_1_split -> input_im_info_input_1_split_1
I0413 18:18:42.755472 12892 net.cpp:150] Setting up input_im_info_input_1_split
I0413 18:18:42.755481 12892 net.cpp:157] Top shape: 1 3 (3)
I0413 18:18:42.755489 12892 net.cpp:157] Top shape: 1 3 (3)
I0413 18:18:42.755494 12892 net.cpp:165] Memory required for data: 54000076
I0413 18:18:42.755501 12892 layer_factory.hpp:77] Creating layer input_gt_boxes_input_2_split
I0413 18:18:42.755512 12892 net.cpp:100] Creating Layer input_gt_boxes_input_2_split
I0413 18:18:42.755518 12892 net.cpp:434] input_gt_boxes_input_2_split <- input_gt_boxes
I0413 18:18:42.755527 12892 net.cpp:408] input_gt_boxes_input_2_split -> input_gt_boxes_input_2_split_0
I0413 18:18:42.755542 12892 net.cpp:408] input_gt_boxes_input_2_split -> input_gt_boxes_input_2_split_1
I0413 18:18:42.755584 12892 net.cpp:150] Setting up input_gt_boxes_input_2_split
I0413 18:18:42.755594 12892 net.cpp:157] Top shape: 1 5 (5)
I0413 18:18:42.755602 12892 net.cpp:157] Top shape: 1 5 (5)
I0413 18:18:42.755609 12892 net.cpp:165] Memory required for data: 54000116
I0413 18:18:42.755614 12892 layer_factory.hpp:77] Creating layer conv1_1
I0413 18:18:42.755633 12892 net.cpp:100] Creating Layer conv1_1
I0413 18:18:42.755641 12892 net.cpp:434] conv1_1 <- input_data_input_0_split_0
I0413 18:18:42.755652 12892 net.cpp:408] conv1_1 -> conv1_1
I0413 18:18:42.758672 12892 net.cpp:150] Setting up conv1_1
I0413 18:18:42.758711 12892 net.cpp:157] Top shape: 1 64 1000 1500 (96000000)
I0413 18:18:42.758716 12892 net.cpp:165] Memory required for data: 438000116
I0413 18:18:42.758749 12892 layer_factory.hpp:77] Creating layer relu1_1
I0413 18:18:42.758766 12892 net.cpp:100] Creating Layer relu1_1
I0413 18:18:42.758774 12892 net.cpp:434] relu1_1 <- conv1_1
I0413 18:18:42.758787 12892 net.cpp:395] relu1_1 -> conv1_1 (in-place)
I0413 18:18:42.758803 12892 net.cpp:150] Setting up relu1_1
I0413 18:18:42.758812 12892 net.cpp:157] Top shape: 1 64 1000 1500 (96000000)
I0413 18:18:42.758819 12892 net.cpp:165] Memory required for data: 822000116
I0413 18:18:42.758826 12892 layer_factory.hpp:77] Creating layer conv1_2
I0413 18:18:42.758842 12892 net.cpp:100] Creating Layer conv1_2
I0413 18:18:42.758849 12892 net.cpp:434] conv1_2 <- conv1_1
I0413 18:18:42.758859 12892 net.cpp:408] conv1_2 -> conv1_2
I0413 18:18:42.762161 12892 net.cpp:150] Setting up conv1_2
I0413 18:18:42.762199 12892 net.cpp:157] Top shape: 1 64 1000 1500 (96000000)
I0413 18:18:42.762205 12892 net.cpp:165] Memory required for data: 1206000116
I0413 18:18:42.762230 12892 layer_factory.hpp:77] Creating layer relu1_2
I0413 18:18:42.762246 12892 net.cpp:100] Creating Layer relu1_2
I0413 18:18:42.762254 12892 net.cpp:434] relu1_2 <- conv1_2
I0413 18:18:42.762266 12892 net.cpp:395] relu1_2 -> conv1_2 (in-place)
I0413 18:18:42.762282 12892 net.cpp:150] Setting up relu1_2
I0413 18:18:42.762291 12892 net.cpp:157] Top shape: 1 64 1000 1500 (96000000)
I0413 18:18:42.762298 12892 net.cpp:165] Memory required for data: 1590000116
I0413 18:18:42.762305 12892 layer_factory.hpp:77] Creating layer pool1
I0413 18:18:42.762322 12892 net.cpp:100] Creating Layer pool1
I0413 18:18:42.762328 12892 net.cpp:434] pool1 <- conv1_2
I0413 18:18:42.762338 12892 net.cpp:408] pool1 -> pool1
I0413 18:18:42.762415 12892 net.cpp:150] Setting up pool1
I0413 18:18:42.762425 12892 net.cpp:157] Top shape: 1 64 500 750 (24000000)
I0413 18:18:42.762432 12892 net.cpp:165] Memory required for data: 1686000116
I0413 18:18:42.762439 12892 layer_factory.hpp:77] Creating layer conv2_1
I0413 18:18:42.762459 12892 net.cpp:100] Creating Layer conv2_1
I0413 18:18:42.762465 12892 net.cpp:434] conv2_1 <- pool1
I0413 18:18:42.762475 12892 net.cpp:408] conv2_1 -> conv2_1
I0413 18:18:42.763715 12892 net.cpp:150] Setting up conv2_1
I0413 18:18:42.763737 12892 net.cpp:157] Top shape: 1 128 500 750 (48000000)
I0413 18:18:42.763743 12892 net.cpp:165] Memory required for data: 1878000116
I0413 18:18:42.763762 12892 layer_factory.hpp:77] Creating layer relu2_1
I0413 18:18:42.763773 12892 net.cpp:100] Creating Layer relu2_1
I0413 18:18:42.763782 12892 net.cpp:434] relu2_1 <- conv2_1
I0413 18:18:42.763793 12892 net.cpp:395] relu2_1 -> conv2_1 (in-place)
I0413 18:18:42.763806 12892 net.cpp:150] Setting up relu2_1
I0413 18:18:42.763815 12892 net.cpp:157] Top shape: 1 128 500 750 (48000000)
I0413 18:18:42.763823 12892 net.cpp:165] Memory required for data: 2070000116
I0413 18:18:42.763828 12892 layer_factory.hpp:77] Creating layer conv2_2
I0413 18:18:42.763842 12892 net.cpp:100] Creating Layer conv2_2
I0413 18:18:42.763849 12892 net.cpp:434] conv2_2 <- conv2_1
I0413 18:18:42.763860 12892 net.cpp:408] conv2_2 -> conv2_2
I0413 18:18:42.764793 12892 net.cpp:150] Setting up conv2_2
I0413 18:18:42.764819 12892 net.cpp:157] Top shape: 1 128 500 750 (48000000)
I0413 18:18:42.764824 12892 net.cpp:165] Memory required for data: 2262000116
I0413 18:18:42.764837 12892 layer_factory.hpp:77] Creating layer relu2_2
I0413 18:18:42.764850 12892 net.cpp:100] Creating Layer relu2_2
I0413 18:18:42.764860 12892 net.cpp:434] relu2_2 <- conv2_2
I0413 18:18:42.764873 12892 net.cpp:395] relu2_2 -> conv2_2 (in-place)
I0413 18:18:42.764885 12892 net.cpp:150] Setting up relu2_2
I0413 18:18:42.764894 12892 net.cpp:157] Top shape: 1 128 500 750 (48000000)
I0413 18:18:42.764901 12892 net.cpp:165] Memory required for data: 2454000116
I0413 18:18:42.764919 12892 layer_factory.hpp:77] Creating layer pool2
I0413 18:18:42.764928 12892 net.cpp:100] Creating Layer pool2
I0413 18:18:42.764935 12892 net.cpp:434] pool2 <- conv2_2
I0413 18:18:42.764946 12892 net.cpp:408] pool2 -> pool2
I0413 18:18:42.764997 12892 net.cpp:150] Setting up pool2
I0413 18:18:42.765010 12892 net.cpp:157] Top shape: 1 128 250 375 (12000000)
I0413 18:18:42.765017 12892 net.cpp:165] Memory required for data: 2502000116
I0413 18:18:42.765023 12892 layer_factory.hpp:77] Creating layer conv3_1
I0413 18:18:42.765035 12892 net.cpp:100] Creating Layer conv3_1
I0413 18:18:42.765044 12892 net.cpp:434] conv3_1 <- pool2
I0413 18:18:42.765054 12892 net.cpp:408] conv3_1 -> conv3_1
I0413 18:18:42.766188 12892 net.cpp:150] Setting up conv3_1
I0413 18:18:42.766218 12892 net.cpp:157] Top shape: 1 256 250 375 (24000000)
I0413 18:18:42.766224 12892 net.cpp:165] Memory required for data: 2598000116
I0413 18:18:42.766247 12892 layer_factory.hpp:77] Creating layer relu3_1
I0413 18:18:42.766260 12892 net.cpp:100] Creating Layer relu3_1
I0413 18:18:42.766268 12892 net.cpp:434] relu3_1 <- conv3_1
I0413 18:18:42.766279 12892 net.cpp:395] relu3_1 -> conv3_1 (in-place)
I0413 18:18:42.766294 12892 net.cpp:150] Setting up relu3_1
I0413 18:18:42.766304 12892 net.cpp:157] Top shape: 1 256 250 375 (24000000)
I0413 18:18:42.766310 12892 net.cpp:165] Memory required for data: 2694000116
I0413 18:18:42.766317 12892 layer_factory.hpp:77] Creating layer conv3_2
I0413 18:18:42.766337 12892 net.cpp:100] Creating Layer conv3_2
I0413 18:18:42.766345 12892 net.cpp:434] conv3_2 <- conv3_1
I0413 18:18:42.766356 12892 net.cpp:408] conv3_2 -> conv3_2
I0413 18:18:42.767678 12892 net.cpp:150] Setting up conv3_2
I0413 18:18:42.767711 12892 net.cpp:157] Top shape: 1 256 250 375 (24000000)
I0413 18:18:42.767719 12892 net.cpp:165] Memory required for data: 2790000116
I0413 18:18:42.767735 12892 layer_factory.hpp:77] Creating layer relu3_2
I0413 18:18:42.767748 12892 net.cpp:100] Creating Layer relu3_2
I0413 18:18:42.767755 12892 net.cpp:434] relu3_2 <- conv3_2
I0413 18:18:42.767766 12892 net.cpp:395] relu3_2 -> conv3_2 (in-place)
I0413 18:18:42.767781 12892 net.cpp:150] Setting up relu3_2
I0413 18:18:42.767791 12892 net.cpp:157] Top shape: 1 256 250 375 (24000000)
I0413 18:18:42.767796 12892 net.cpp:165] Memory required for data: 2886000116
I0413 18:18:42.767802 12892 layer_factory.hpp:77] Creating layer conv3_3
I0413 18:18:42.767817 12892 net.cpp:100] Creating Layer conv3_3
I0413 18:18:42.767825 12892 net.cpp:434] conv3_3 <- conv3_2
I0413 18:18:42.767839 12892 net.cpp:408] conv3_3 -> conv3_3
I0413 18:18:42.769459 12892 net.cpp:150] Setting up conv3_3
I0413 18:18:42.769495 12892 net.cpp:157] Top shape: 1 256 250 375 (24000000)
I0413 18:18:42.769501 12892 net.cpp:165] Memory required for data: 2982000116
I0413 18:18:42.769517 12892 layer_factory.hpp:77] Creating layer relu3_3
I0413 18:18:42.769533 12892 net.cpp:100] Creating Layer relu3_3
I0413 18:18:42.769541 12892 net.cpp:434] relu3_3 <- conv3_3
I0413 18:18:42.769554 12892 net.cpp:395] relu3_3 -> conv3_3 (in-place)
I0413 18:18:42.769570 12892 net.cpp:150] Setting up relu3_3
I0413 18:18:42.769579 12892 net.cpp:157] Top shape: 1 256 250 375 (24000000)
I0413 18:18:42.769587 12892 net.cpp:165] Memory required for data: 3078000116
I0413 18:18:42.769593 12892 layer_factory.hpp:77] Creating layer pool3
I0413 18:18:42.769604 12892 net.cpp:100] Creating Layer pool3
I0413 18:18:42.769613 12892 net.cpp:434] pool3 <- conv3_3
I0413 18:18:42.769624 12892 net.cpp:408] pool3 -> pool3
I0413 18:18:42.769677 12892 net.cpp:150] Setting up pool3
I0413 18:18:42.769687 12892 net.cpp:157] Top shape: 1 256 125 188 (6016000)
I0413 18:18:42.769695 12892 net.cpp:165] Memory required for data: 3102064116
I0413 18:18:42.769701 12892 layer_factory.hpp:77] Creating layer conv4_1
I0413 18:18:42.769717 12892 net.cpp:100] Creating Layer conv4_1
I0413 18:18:42.769723 12892 net.cpp:434] conv4_1 <- pool3
I0413 18:18:42.769733 12892 net.cpp:408] conv4_1 -> conv4_1
I0413 18:18:42.772387 12892 net.cpp:150] Setting up conv4_1
I0413 18:18:42.772423 12892 net.cpp:157] Top shape: 1 512 125 188 (12032000)
I0413 18:18:42.772429 12892 net.cpp:165] Memory required for data: 3150192116
I0413 18:18:42.772444 12892 layer_factory.hpp:77] Creating layer relu4_1
I0413 18:18:42.772459 12892 net.cpp:100] Creating Layer relu4_1
I0413 18:18:42.772469 12892 net.cpp:434] relu4_1 <- conv4_1
I0413 18:18:42.772482 12892 net.cpp:395] relu4_1 -> conv4_1 (in-place)
I0413 18:18:42.772496 12892 net.cpp:150] Setting up relu4_1
I0413 18:18:42.772505 12892 net.cpp:157] Top shape: 1 512 125 188 (12032000)
I0413 18:18:42.772512 12892 net.cpp:165] Memory required for data: 3198320116
I0413 18:18:42.772519 12892 layer_factory.hpp:77] Creating layer conv4_2
I0413 18:18:42.772537 12892 net.cpp:100] Creating Layer conv4_2
I0413 18:18:42.772543 12892 net.cpp:434] conv4_2 <- conv4_1
I0413 18:18:42.772557 12892 net.cpp:408] conv4_2 -> conv4_2
I0413 18:18:42.776772 12892 net.cpp:150] Setting up conv4_2
I0413 18:18:42.776811 12892 net.cpp:157] Top shape: 1 512 125 188 (12032000)
I0413 18:18:42.776816 12892 net.cpp:165] Memory required for data: 3246448116
I0413 18:18:42.776849 12892 layer_factory.hpp:77] Creating layer relu4_2
I0413 18:18:42.776866 12892 net.cpp:100] Creating Layer relu4_2
I0413 18:18:42.776880 12892 net.cpp:434] relu4_2 <- conv4_2
I0413 18:18:42.776891 12892 net.cpp:395] relu4_2 -> conv4_2 (in-place)
I0413 18:18:42.776916 12892 net.cpp:150] Setting up relu4_2
I0413 18:18:42.776926 12892 net.cpp:157] Top shape: 1 512 125 188 (12032000)
I0413 18:18:42.776932 12892 net.cpp:165] Memory required for data: 3294576116
I0413 18:18:42.776939 12892 layer_factory.hpp:77] Creating layer conv4_3
I0413 18:18:42.776954 12892 net.cpp:100] Creating Layer conv4_3
I0413 18:18:42.776963 12892 net.cpp:434] conv4_3 <- conv4_2
I0413 18:18:42.776974 12892 net.cpp:408] conv4_3 -> conv4_3
I0413 18:18:42.781225 12892 net.cpp:150] Setting up conv4_3
I0413 18:18:42.781260 12892 net.cpp:157] Top shape: 1 512 125 188 (12032000)
I0413 18:18:42.781266 12892 net.cpp:165] Memory required for data: 3342704116
I0413 18:18:42.781288 12892 layer_factory.hpp:77] Creating layer relu4_3
I0413 18:18:42.781304 12892 net.cpp:100] Creating Layer relu4_3
I0413 18:18:42.781314 12892 net.cpp:434] relu4_3 <- conv4_3
I0413 18:18:42.781328 12892 net.cpp:395] relu4_3 -> conv4_3 (in-place)
I0413 18:18:42.781342 12892 net.cpp:150] Setting up relu4_3
I0413 18:18:42.781352 12892 net.cpp:157] Top shape: 1 512 125 188 (12032000)
I0413 18:18:42.781358 12892 net.cpp:165] Memory required for data: 3390832116
I0413 18:18:42.781364 12892 layer_factory.hpp:77] Creating layer pool4
I0413 18:18:42.781378 12892 net.cpp:100] Creating Layer pool4
I0413 18:18:42.781385 12892 net.cpp:434] pool4 <- conv4_3
I0413 18:18:42.781394 12892 net.cpp:408] pool4 -> pool4
I0413 18:18:42.781440 12892 net.cpp:150] Setting up pool4
I0413 18:18:42.781450 12892 net.cpp:157] Top shape: 1 512 63 94 (3032064)
I0413 18:18:42.781455 12892 net.cpp:165] Memory required for data: 3402960372
I0413 18:18:42.781462 12892 layer_factory.hpp:77] Creating layer conv5_1
I0413 18:18:42.781479 12892 net.cpp:100] Creating Layer conv5_1
I0413 18:18:42.781486 12892 net.cpp:434] conv5_1 <- pool4
I0413 18:18:42.781498 12892 net.cpp:408] conv5_1 -> conv5_1
I0413 18:18:42.786257 12892 net.cpp:150] Setting up conv5_1
I0413 18:18:42.786291 12892 net.cpp:157] Top shape: 1 512 63 94 (3032064)
I0413 18:18:42.786298 12892 net.cpp:165] Memory required for data: 3415088628
I0413 18:18:42.786312 12892 layer_factory.hpp:77] Creating layer relu5_1
I0413 18:18:42.786326 12892 net.cpp:100] Creating Layer relu5_1
I0413 18:18:42.786355 12892 net.cpp:434] relu5_1 <- conv5_1
I0413 18:18:42.786381 12892 net.cpp:395] relu5_1 -> conv5_1 (in-place)
I0413 18:18:42.786409 12892 net.cpp:150] Setting up relu5_1
I0413 18:18:42.786430 12892 net.cpp:157] Top shape: 1 512 63 94 (3032064)
I0413 18:18:42.786448 12892 net.cpp:165] Memory required for data: 3427216884
I0413 18:18:42.786466 12892 layer_factory.hpp:77] Creating layer conv5_2
I0413 18:18:42.786494 12892 net.cpp:100] Creating Layer conv5_2
I0413 18:18:42.786514 12892 net.cpp:434] conv5_2 <- conv5_1
I0413 18:18:42.786537 12892 net.cpp:408] conv5_2 -> conv5_2
I0413 18:18:42.791095 12892 net.cpp:150] Setting up conv5_2
I0413 18:18:42.791141 12892 net.cpp:157] Top shape: 1 512 63 94 (3032064)
I0413 18:18:42.791146 12892 net.cpp:165] Memory required for data: 3439345140
I0413 18:18:42.791157 12892 layer_factory.hpp:77] Creating layer relu5_2
I0413 18:18:42.791169 12892 net.cpp:100] Creating Layer relu5_2
I0413 18:18:42.791177 12892 net.cpp:434] relu5_2 <- conv5_2
I0413 18:18:42.791188 12892 net.cpp:395] relu5_2 -> conv5_2 (in-place)
I0413 18:18:42.791201 12892 net.cpp:150] Setting up relu5_2
I0413 18:18:42.791211 12892 net.cpp:157] Top shape: 1 512 63 94 (3032064)
I0413 18:18:42.791218 12892 net.cpp:165] Memory required for data: 3451473396
I0413 18:18:42.791224 12892 layer_factory.hpp:77] Creating layer conv5_3
I0413 18:18:42.791247 12892 net.cpp:100] Creating Layer conv5_3
I0413 18:18:42.791263 12892 net.cpp:434] conv5_3 <- conv5_2
I0413 18:18:42.791281 12892 net.cpp:408] conv5_3 -> conv5_3
I0413 18:18:42.795897 12892 net.cpp:150] Setting up conv5_3
I0413 18:18:42.795931 12892 net.cpp:157] Top shape: 1 512 63 94 (3032064)
I0413 18:18:42.795944 12892 net.cpp:165] Memory required for data: 3463601652
I0413 18:18:42.795954 12892 layer_factory.hpp:77] Creating layer relu5_3
I0413 18:18:42.795964 12892 net.cpp:100] Creating Layer relu5_3
I0413 18:18:42.795970 12892 net.cpp:434] relu5_3 <- conv5_3
I0413 18:18:42.795982 12892 net.cpp:395] relu5_3 -> conv5_3 (in-place)
I0413 18:18:42.795994 12892 net.cpp:150] Setting up relu5_3
I0413 18:18:42.796015 12892 net.cpp:157] Top shape: 1 512 63 94 (3032064)
I0413 18:18:42.796021 12892 net.cpp:165] Memory required for data: 3475729908
I0413 18:18:42.796026 12892 layer_factory.hpp:77] Creating layer conv5_3_relu5_3_0_split
I0413 18:18:42.796037 12892 net.cpp:100] Creating Layer conv5_3_relu5_3_0_split
I0413 18:18:42.796044 12892 net.cpp:434] conv5_3_relu5_3_0_split <- conv5_3
I0413 18:18:42.796054 12892 net.cpp:408] conv5_3_relu5_3_0_split -> conv5_3_relu5_3_0_split_0
I0413 18:18:42.796066 12892 net.cpp:408] conv5_3_relu5_3_0_split -> conv5_3_relu5_3_0_split_1
I0413 18:18:42.796116 12892 net.cpp:150] Setting up conv5_3_relu5_3_0_split
I0413 18:18:42.796144 12892 net.cpp:157] Top shape: 1 512 63 94 (3032064)
I0413 18:18:42.796151 12892 net.cpp:157] Top shape: 1 512 63 94 (3032064)
I0413 18:18:42.796156 12892 net.cpp:165] Memory required for data: 3499986420
I0413 18:18:42.796161 12892 layer_factory.hpp:77] Creating layer rpn_big_conv1
I0413 18:18:42.796180 12892 net.cpp:100] Creating Layer rpn_big_conv1
I0413 18:18:42.796187 12892 net.cpp:434] rpn_big_conv1 <- conv5_3_relu5_3_0_split_0
I0413 18:18:42.796198 12892 net.cpp:408] rpn_big_conv1 -> rpn_big_conv1
I0413 18:18:42.822162 12892 net.cpp:150] Setting up rpn_big_conv1
I0413 18:18:42.822192 12892 net.cpp:157] Top shape: 1 512 63 94 (3032064)
I0413 18:18:42.822206 12892 net.cpp:165] Memory required for data: 3512114676
I0413 18:18:42.822216 12892 layer_factory.hpp:77] Creating layer rpn_big_conv1_relu
I0413 18:18:42.822227 12892 net.cpp:100] Creating Layer rpn_big_conv1_relu
I0413 18:18:42.822235 12892 net.cpp:434] rpn_big_conv1_relu <- rpn_big_conv1
I0413 18:18:42.822247 12892 net.cpp:395] rpn_big_conv1_relu -> rpn_big_conv1 (in-place)
I0413 18:18:42.822260 12892 net.cpp:150] Setting up rpn_big_conv1_relu
I0413 18:18:42.822268 12892 net.cpp:157] Top shape: 1 512 63 94 (3032064)
I0413 18:18:42.822273 12892 net.cpp:165] Memory required for data: 3524242932
I0413 18:18:42.822278 12892 layer_factory.hpp:77] Creating layer rpn_big_conv2
I0413 18:18:42.822293 12892 net.cpp:100] Creating Layer rpn_big_conv2
I0413 18:18:42.822300 12892 net.cpp:434] rpn_big_conv2 <- rpn_big_conv1
I0413 18:18:42.822311 12892 net.cpp:408] rpn_big_conv2 -> rpn_big_conv2
I0413 18:18:42.848724 12892 net.cpp:150] Setting up rpn_big_conv2
I0413 18:18:42.848755 12892 net.cpp:157] Top shape: 1 512 63 94 (3032064)
I0413 18:18:42.848768 12892 net.cpp:165] Memory required for data: 3536371188
I0413 18:18:42.848779 12892 layer_factory.hpp:77] Creating layer rpn_big_conv2_relu
I0413 18:18:42.848791 12892 net.cpp:100] Creating Layer rpn_big_conv2_relu
I0413 18:18:42.848798 12892 net.cpp:434] rpn_big_conv2_relu <- rpn_big_conv2
I0413 18:18:42.848812 12892 net.cpp:395] rpn_big_conv2_relu -> rpn_big_conv2 (in-place)
I0413 18:18:42.848826 12892 net.cpp:150] Setting up rpn_big_conv2_relu
I0413 18:18:42.848836 12892 net.cpp:157] Top shape: 1 512 63 94 (3032064)
I0413 18:18:42.848841 12892 net.cpp:165] Memory required for data: 3548499444
I0413 18:18:42.848845 12892 layer_factory.hpp:77] Creating layer rpn_big_conv2_drop
I0413 18:18:42.848855 12892 net.cpp:100] Creating Layer rpn_big_conv2_drop
I0413 18:18:42.848861 12892 net.cpp:434] rpn_big_conv2_drop <- rpn_big_conv2
I0413 18:18:42.848871 12892 net.cpp:395] rpn_big_conv2_drop -> rpn_big_conv2 (in-place)
I0413 18:18:42.848908 12892 net.cpp:150] Setting up rpn_big_conv2_drop
I0413 18:18:42.848940 12892 net.cpp:157] Top shape: 1 512 63 94 (3032064)
I0413 18:18:42.848949 12892 net.cpp:165] Memory required for data: 3560627700
I0413 18:18:42.848955 12892 layer_factory.hpp:77] Creating layer rpn_big_conv2_rpn_big_conv2_drop_0_split
I0413 18:18:42.848966 12892 net.cpp:100] Creating Layer rpn_big_conv2_rpn_big_conv2_drop_0_split
I0413 18:18:42.848973 12892 net.cpp:434] rpn_big_conv2_rpn_big_conv2_drop_0_split <- rpn_big_conv2
I0413 18:18:42.848983 12892 net.cpp:408] rpn_big_conv2_rpn_big_conv2_drop_0_split -> rpn_big_conv2_rpn_big_conv2_drop_0_split_0
I0413 18:18:42.848995 12892 net.cpp:408] rpn_big_conv2_rpn_big_conv2_drop_0_split -> rpn_big_conv2_rpn_big_conv2_drop_0_split_1
I0413 18:18:42.849056 12892 net.cpp:150] Setting up rpn_big_conv2_rpn_big_conv2_drop_0_split
I0413 18:18:42.849066 12892 net.cpp:157] Top shape: 1 512 63 94 (3032064)
I0413 18:18:42.849076 12892 net.cpp:157] Top shape: 1 512 63 94 (3032064)
I0413 18:18:42.849081 12892 net.cpp:165] Memory required for data: 3584884212
I0413 18:18:42.849087 12892 layer_factory.hpp:77] Creating layer rpn_big_output_cls
I0413 18:18:42.849103 12892 net.cpp:100] Creating Layer rpn_big_output_cls
I0413 18:18:42.849112 12892 net.cpp:434] rpn_big_output_cls <- rpn_big_conv2_rpn_big_conv2_drop_0_split_0
I0413 18:18:42.849123 12892 net.cpp:408] rpn_big_output_cls -> rpn_big_output_cls
I0413 18:18:42.868078 12892 net.cpp:150] Setting up rpn_big_output_cls
I0413 18:18:42.868114 12892 net.cpp:157] Top shape: 1 384 63 94 (2274048)
I0413 18:18:42.868120 12892 net.cpp:165] Memory required for data: 3593980404
I0413 18:18:42.868135 12892 layer_factory.hpp:77] Creating layer rpn_big_output_cls_relu
I0413 18:18:42.868150 12892 net.cpp:100] Creating Layer rpn_big_output_cls_relu
I0413 18:18:42.868160 12892 net.cpp:434] rpn_big_output_cls_relu <- rpn_big_output_cls
I0413 18:18:42.868170 12892 net.cpp:395] rpn_big_output_cls_relu -> rpn_big_output_cls (in-place)
I0413 18:18:42.868186 12892 net.cpp:150] Setting up rpn_big_output_cls_relu
I0413 18:18:42.868196 12892 net.cpp:157] Top shape: 1 384 63 94 (2274048)
I0413 18:18:42.868201 12892 net.cpp:165] Memory required for data: 3603076596
I0413 18:18:42.868207 12892 layer_factory.hpp:77] Creating layer rpn_big_cls_score
I0413 18:18:42.868227 12892 net.cpp:100] Creating Layer rpn_big_cls_score
I0413 18:18:42.868263 12892 net.cpp:434] rpn_big_cls_score <- rpn_big_output_cls
I0413 18:18:42.868289 12892 net.cpp:408] rpn_big_cls_score -> rpn_big_cls_score
I0413 18:18:42.871203 12892 net.cpp:150] Setting up rpn_big_cls_score
I0413 18:18:42.871235 12892 net.cpp:157] Top shape: 1 52 61 92 (291824)
I0413 18:18:42.871242 12892 net.cpp:165] Memory required for data: 3604243892
I0413 18:18:42.871266 12892 layer_factory.hpp:77] Creating layer rpn_big_cls_score_rpn_big_cls_score_0_split
I0413 18:18:42.871282 12892 net.cpp:100] Creating Layer rpn_big_cls_score_rpn_big_cls_score_0_split
I0413 18:18:42.871291 12892 net.cpp:434] rpn_big_cls_score_rpn_big_cls_score_0_split <- rpn_big_cls_score
I0413 18:18:42.871304 12892 net.cpp:408] rpn_big_cls_score_rpn_big_cls_score_0_split -> rpn_big_cls_score_rpn_big_cls_score_0_split_0
I0413 18:18:42.871338 12892 net.cpp:408] rpn_big_cls_score_rpn_big_cls_score_0_split -> rpn_big_cls_score_rpn_big_cls_score_0_split_1
I0413 18:18:42.871407 12892 net.cpp:150] Setting up rpn_big_cls_score_rpn_big_cls_score_0_split
I0413 18:18:42.871431 12892 net.cpp:157] Top shape: 1 52 61 92 (291824)
I0413 18:18:42.871451 12892 net.cpp:157] Top shape: 1 52 61 92 (291824)
I0413 18:18:42.871469 12892 net.cpp:165] Memory required for data: 3606578484
I0413 18:18:42.871487 12892 layer_factory.hpp:77] Creating layer rpn_big_cls_score_reshape
I0413 18:18:42.871511 12892 net.cpp:100] Creating Layer rpn_big_cls_score_reshape
I0413 18:18:42.871531 12892 net.cpp:434] rpn_big_cls_score_reshape <- rpn_big_cls_score_rpn_big_cls_score_0_split_0
I0413 18:18:42.871556 12892 net.cpp:408] rpn_big_cls_score_reshape -> rpn_big_cls_score_reshape
I0413 18:18:42.871608 12892 net.cpp:150] Setting up rpn_big_cls_score_reshape
I0413 18:18:42.871631 12892 net.cpp:157] Top shape: 1 2 1586 92 (291824)
I0413 18:18:42.871649 12892 net.cpp:165] Memory required for data: 3607745780
I0413 18:18:42.871667 12892 layer_factory.hpp:77] Creating layer rpn_big_cls_score_reshape_rpn_big_cls_score_reshape_0_split
I0413 18:18:42.871688 12892 net.cpp:100] Creating Layer rpn_big_cls_score_reshape_rpn_big_cls_score_reshape_0_split
I0413 18:18:42.871707 12892 net.cpp:434] rpn_big_cls_score_reshape_rpn_big_cls_score_reshape_0_split <- rpn_big_cls_score_reshape
I0413 18:18:42.871731 12892 net.cpp:408] rpn_big_cls_score_reshape_rpn_big_cls_score_reshape_0_split -> rpn_big_cls_score_reshape_rpn_big_cls_score_reshape_0_split_0
I0413 18:18:42.871758 12892 net.cpp:408] rpn_big_cls_score_reshape_rpn_big_cls_score_reshape_0_split -> rpn_big_cls_score_reshape_rpn_big_cls_score_reshape_0_split_1
I0413 18:18:42.871824 12892 net.cpp:150] Setting up rpn_big_cls_score_reshape_rpn_big_cls_score_reshape_0_split
I0413 18:18:42.871848 12892 net.cpp:157] Top shape: 1 2 1586 92 (291824)
I0413 18:18:42.871867 12892 net.cpp:157] Top shape: 1 2 1586 92 (291824)
I0413 18:18:42.871886 12892 net.cpp:165] Memory required for data: 3610080372
I0413 18:18:42.871904 12892 layer_factory.hpp:77] Creating layer rpn_big_cls_prob
I0413 18:18:42.871928 12892 net.cpp:100] Creating Layer rpn_big_cls_prob
I0413 18:18:42.871948 12892 net.cpp:434] rpn_big_cls_prob <- rpn_big_cls_score_reshape_rpn_big_cls_score_reshape_0_split_0
I0413 18:18:42.871969 12892 net.cpp:408] rpn_big_cls_prob -> rpn_big_cls_prob
I0413 18:18:42.872062 12892 net.cpp:150] Setting up rpn_big_cls_prob
I0413 18:18:42.872086 12892 net.cpp:157] Top shape: 1 2 1586 92 (291824)
I0413 18:18:42.872104 12892 net.cpp:165] Memory required for data: 3611247668
I0413 18:18:42.872123 12892 layer_factory.hpp:77] Creating layer rpn_big_cls_prob_reshape
I0413 18:18:42.872144 12892 net.cpp:100] Creating Layer rpn_big_cls_prob_reshape
I0413 18:18:42.872164 12892 net.cpp:434] rpn_big_cls_prob_reshape <- rpn_big_cls_prob
I0413 18:18:42.872186 12892 net.cpp:408] rpn_big_cls_prob_reshape -> rpn_big_cls_prob_reshape
I0413 18:18:42.872233 12892 net.cpp:150] Setting up rpn_big_cls_prob_reshape
I0413 18:18:42.872257 12892 net.cpp:157] Top shape: 1 52 61 92 (291824)
I0413 18:18:42.872275 12892 net.cpp:165] Memory required for data: 3612414964
I0413 18:18:42.872301 12892 layer_factory.hpp:77] Creating layer rpn_big_cls_prob_reshape_rpn_big_cls_prob_reshape_0_split
I0413 18:18:42.872323 12892 net.cpp:100] Creating Layer rpn_big_cls_prob_reshape_rpn_big_cls_prob_reshape_0_split
I0413 18:18:42.872342 12892 net.cpp:434] rpn_big_cls_prob_reshape_rpn_big_cls_prob_reshape_0_split <- rpn_big_cls_prob_reshape
I0413 18:18:42.872364 12892 net.cpp:408] rpn_big_cls_prob_reshape_rpn_big_cls_prob_reshape_0_split -> rpn_big_cls_prob_reshape_rpn_big_cls_prob_reshape_0_split_0
I0413 18:18:42.872391 12892 net.cpp:408] rpn_big_cls_prob_reshape_rpn_big_cls_prob_reshape_0_split -> rpn_big_cls_prob_reshape_rpn_big_cls_prob_reshape_0_split_1
I0413 18:18:42.872448 12892 net.cpp:150] Setting up rpn_big_cls_prob_reshape_rpn_big_cls_prob_reshape_0_split
I0413 18:18:42.872473 12892 net.cpp:157] Top shape: 1 52 61 92 (291824)
I0413 18:18:42.872491 12892 net.cpp:157] Top shape: 1 52 61 92 (291824)
I0413 18:18:42.872509 12892 net.cpp:165] Memory required for data: 3614749556
I0413 18:18:42.872526 12892 layer_factory.hpp:77] Creating layer rpn_big_anchor_target
I0413 18:18:42.874214 12892 net.cpp:100] Creating Layer rpn_big_anchor_target
I0413 18:18:42.874244 12892 net.cpp:434] rpn_big_anchor_target <- rpn_big_cls_score_rpn_big_cls_score_0_split_1
I0413 18:18:42.874258 12892 net.cpp:434] rpn_big_anchor_target <- input_gt_boxes_input_2_split_0
I0413 18:18:42.874266 12892 net.cpp:434] rpn_big_anchor_target <- input_ignored_boxes
I0413 18:18:42.874274 12892 net.cpp:434] rpn_big_anchor_target <- input_im_info_input_1_split_0
I0413 18:18:42.874281 12892 net.cpp:434] rpn_big_anchor_target <- input_data_input_0_split_1
I0413 18:18:42.874289 12892 net.cpp:434] rpn_big_anchor_target <- rpn_big_cls_prob_reshape_rpn_big_cls_prob_reshape_0_split_0
I0413 18:18:42.874301 12892 net.cpp:408] rpn_big_anchor_target -> rpn_big_anchor_target_labels
I0413 18:18:42.874318 12892 net.cpp:408] rpn_big_anchor_target -> rpn_big_anchor_target_bbox_targets
I0413 18:18:42.874333 12892 net.cpp:408] rpn_big_anchor_target -> rpn_big_anchor_target_inside_weights
I0413 18:18:42.874348 12892 net.cpp:408] rpn_big_anchor_target -> rpn_big_anchor_target_outside_weights
I0413 18:18:42.879350 12892 net.cpp:150] Setting up rpn_big_anchor_target
I0413 18:18:42.879418 12892 net.cpp:157] Top shape: 1 1 1586 92 (145912)
I0413 18:18:42.879428 12892 net.cpp:157] Top shape: 1 104 61 92 (583648)
I0413 18:18:42.879436 12892 net.cpp:157] Top shape: 1 104 61 92 (583648)
I0413 18:18:42.879444 12892 net.cpp:157] Top shape: 1 104 61 92 (583648)
I0413 18:18:42.879449 12892 net.cpp:165] Memory required for data: 3622336980
I0413 18:18:42.879458 12892 layer_factory.hpp:77] Creating layer rpn_big_loss_cls
I0413 18:18:42.879475 12892 net.cpp:100] Creating Layer rpn_big_loss_cls
I0413 18:18:42.879484 12892 net.cpp:434] rpn_big_loss_cls <- rpn_big_cls_score_reshape_rpn_big_cls_score_reshape_0_split_1
I0413 18:18:42.879495 12892 net.cpp:434] rpn_big_loss_cls <- rpn_big_anchor_target_labels
I0413 18:18:42.879528 12892 net.cpp:408] rpn_big_loss_cls -> rpn_big_loss_cls
I0413 18:18:42.879562 12892 layer_factory.hpp:77] Creating layer rpn_big_loss_cls
I0413 18:18:42.880468 12892 net.cpp:150] Setting up rpn_big_loss_cls
I0413 18:18:42.880492 12892 net.cpp:157] Top shape: (1)
I0413 18:18:42.880498 12892 net.cpp:160]     with loss weight 1
I0413 18:18:42.880513 12892 net.cpp:165] Memory required for data: 3622336984
I0413 18:18:42.880522 12892 layer_factory.hpp:77] Creating layer rpn_big_output_box
I0413 18:18:42.880543 12892 net.cpp:100] Creating Layer rpn_big_output_box
I0413 18:18:42.880570 12892 net.cpp:434] rpn_big_output_box <- rpn_big_conv2_rpn_big_conv2_drop_0_split_1
I0413 18:18:42.880599 12892 net.cpp:408] rpn_big_output_box -> rpn_big_output_box
I0413 18:18:42.900390 12892 net.cpp:150] Setting up rpn_big_output_box
I0413 18:18:42.900467 12892 net.cpp:157] Top shape: 1 384 63 94 (2274048)
I0413 18:18:42.900488 12892 net.cpp:165] Memory required for data: 3631433176
I0413 18:18:42.900516 12892 layer_factory.hpp:77] Creating layer rpn_big_output_box_relu
I0413 18:18:42.900554 12892 net.cpp:100] Creating Layer rpn_big_output_box_relu
I0413 18:18:42.900576 12892 net.cpp:434] rpn_big_output_box_relu <- rpn_big_output_box
I0413 18:18:42.900599 12892 net.cpp:395] rpn_big_output_box_relu -> rpn_big_output_box (in-place)
I0413 18:18:42.900625 12892 net.cpp:150] Setting up rpn_big_output_box_relu
I0413 18:18:42.900648 12892 net.cpp:157] Top shape: 1 384 63 94 (2274048)
I0413 18:18:42.900668 12892 net.cpp:165] Memory required for data: 3640529368
I0413 18:18:42.900688 12892 layer_factory.hpp:77] Creating layer rpn_big_bbox_pred
I0413 18:18:42.900722 12892 net.cpp:100] Creating Layer rpn_big_bbox_pred
I0413 18:18:42.900744 12892 net.cpp:434] rpn_big_bbox_pred <- rpn_big_output_box
I0413 18:18:42.900773 12892 net.cpp:408] rpn_big_bbox_pred -> rpn_big_bbox_pred
I0413 18:18:42.905515 12892 net.cpp:150] Setting up rpn_big_bbox_pred
I0413 18:18:42.905544 12892 net.cpp:157] Top shape: 1 104 61 92 (583648)
I0413 18:18:42.905549 12892 net.cpp:165] Memory required for data: 3642863960
I0413 18:18:42.905557 12892 layer_factory.hpp:77] Creating layer rpn_big_bbox_pred_rpn_big_bbox_pred_0_split
I0413 18:18:42.905568 12892 net.cpp:100] Creating Layer rpn_big_bbox_pred_rpn_big_bbox_pred_0_split
I0413 18:18:42.905576 12892 net.cpp:434] rpn_big_bbox_pred_rpn_big_bbox_pred_0_split <- rpn_big_bbox_pred
I0413 18:18:42.905586 12892 net.cpp:408] rpn_big_bbox_pred_rpn_big_bbox_pred_0_split -> rpn_big_bbox_pred_rpn_big_bbox_pred_0_split_0
I0413 18:18:42.905604 12892 net.cpp:408] rpn_big_bbox_pred_rpn_big_bbox_pred_0_split -> rpn_big_bbox_pred_rpn_big_bbox_pred_0_split_1
I0413 18:18:42.905645 12892 net.cpp:150] Setting up rpn_big_bbox_pred_rpn_big_bbox_pred_0_split
I0413 18:18:42.905653 12892 net.cpp:157] Top shape: 1 104 61 92 (583648)
I0413 18:18:42.905659 12892 net.cpp:157] Top shape: 1 104 61 92 (583648)
I0413 18:18:42.905665 12892 net.cpp:165] Memory required for data: 3647533144
I0413 18:18:42.905673 12892 layer_factory.hpp:77] Creating layer rpn_big_loss_bbox
I0413 18:18:42.906040 12892 net.cpp:100] Creating Layer rpn_big_loss_bbox
I0413 18:18:42.906051 12892 net.cpp:434] rpn_big_loss_bbox <- rpn_big_bbox_pred_rpn_big_bbox_pred_0_split_0
I0413 18:18:42.906060 12892 net.cpp:434] rpn_big_loss_bbox <- rpn_big_anchor_target_bbox_targets
I0413 18:18:42.906069 12892 net.cpp:434] rpn_big_loss_bbox <- rpn_big_anchor_target_inside_weights
I0413 18:18:42.906076 12892 net.cpp:434] rpn_big_loss_bbox <- rpn_big_anchor_target_outside_weights
I0413 18:18:42.906088 12892 net.cpp:408] rpn_big_loss_bbox -> rpn_big_loss_bbox
I0413 18:18:42.908123 12892 net.cpp:150] Setting up rpn_big_loss_bbox
I0413 18:18:42.908155 12892 net.cpp:157] Top shape: 1 (1)
I0413 18:18:42.908161 12892 net.cpp:160]     with loss weight 1
I0413 18:18:42.908177 12892 net.cpp:165] Memory required for data: 3647533148
I0413 18:18:42.908185 12892 layer_factory.hpp:77] Creating layer proposal
I0413 18:18:42.908593 12892 net.cpp:100] Creating Layer proposal
I0413 18:18:42.908605 12892 net.cpp:434] proposal <- rpn_big_cls_prob_reshape_rpn_big_cls_prob_reshape_0_split_1
I0413 18:18:42.908617 12892 net.cpp:434] proposal <- rpn_big_bbox_pred_rpn_big_bbox_pred_0_split_1
I0413 18:18:42.908627 12892 net.cpp:434] proposal <- input_im_info_input_1_split_1
I0413 18:18:42.908639 12892 net.cpp:408] proposal -> rpn_rois
I0413 18:18:42.912762 12892 net.cpp:150] Setting up proposal
I0413 18:18:42.912778 12892 net.cpp:157] Top shape: 1 5 (5)
I0413 18:18:42.912784 12892 net.cpp:165] Memory required for data: 3647533168
I0413 18:18:42.912791 12892 layer_factory.hpp:77] Creating layer roi-data
I0413 18:18:42.913110 12892 net.cpp:100] Creating Layer roi-data
I0413 18:18:42.913121 12892 net.cpp:434] roi-data <- rpn_rois
I0413 18:18:42.913130 12892 net.cpp:434] roi-data <- input_gt_boxes_input_2_split_1
I0413 18:18:42.913149 12892 net.cpp:408] roi-data -> rois
I0413 18:18:42.913166 12892 net.cpp:408] roi-data -> labels
I0413 18:18:42.913180 12892 net.cpp:408] roi-data -> bbox_targets
I0413 18:18:42.913194 12892 net.cpp:408] roi-data -> bbox_inside_weights
I0413 18:18:42.913209 12892 net.cpp:408] roi-data -> bbox_outside_weights
I0413 18:18:42.913224 12892 net.cpp:408] roi-data -> pid_label
I0413 18:18:42.914149 12892 net.cpp:150] Setting up roi-data
I0413 18:18:42.914162 12892 net.cpp:157] Top shape: 1 5 (5)
I0413 18:18:42.914170 12892 net.cpp:157] Top shape: 1 1 (1)
I0413 18:18:42.914177 12892 net.cpp:157] Top shape: 1 8 (8)
I0413 18:18:42.914185 12892 net.cpp:157] Top shape: 1 8 (8)
I0413 18:18:42.914191 12892 net.cpp:157] Top shape: 1 8 (8)
I0413 18:18:42.914201 12892 net.cpp:157] Top shape: (0)
I0413 18:18:42.914207 12892 net.cpp:165] Memory required for data: 3647533288
I0413 18:18:42.914214 12892 layer_factory.hpp:77] Creating layer roi-pool
I0413 18:18:42.914230 12892 net.cpp:100] Creating Layer roi-pool
I0413 18:18:42.914238 12892 net.cpp:434] roi-pool <- conv5_3_relu5_3_0_split_1
I0413 18:18:42.914247 12892 net.cpp:434] roi-pool <- rois
I0413 18:18:42.914257 12892 net.cpp:408] roi-pool -> roi-pool
I0413 18:18:42.914270 12892 roi_pooling_layer.cpp:33] Spatial scale: 0.0625
I0413 18:18:42.914284 12892 roi_pooling_layer.cpp:34] Box scale: 1
I0413 18:18:42.914328 12892 net.cpp:150] Setting up roi-pool
I0413 18:18:42.914341 12892 net.cpp:157] Top shape: 1 512 7 7 (25088)
I0413 18:18:42.914350 12892 net.cpp:165] Memory required for data: 3647633640
I0413 18:18:42.914356 12892 layer_factory.hpp:77] Creating layer fc6
I0413 18:18:42.914367 12892 net.cpp:100] Creating Layer fc6
I0413 18:18:42.914374 12892 net.cpp:434] fc6 <- roi-pool
I0413 18:18:42.914384 12892 net.cpp:408] fc6 -> fc6
I0413 18:18:43.076225 12892 net.cpp:150] Setting up fc6
I0413 18:18:43.076264 12892 net.cpp:157] Top shape: 1 4096 (4096)
I0413 18:18:43.076269 12892 net.cpp:165] Memory required for data: 3647650024
I0413 18:18:43.076284 12892 layer_factory.hpp:77] Creating layer relu6
I0413 18:18:43.076306 12892 net.cpp:100] Creating Layer relu6
I0413 18:18:43.076314 12892 net.cpp:434] relu6 <- fc6
I0413 18:18:43.076328 12892 net.cpp:395] relu6 -> fc6 (in-place)
I0413 18:18:43.076354 12892 net.cpp:150] Setting up relu6
I0413 18:18:43.076362 12892 net.cpp:157] Top shape: 1 4096 (4096)
I0413 18:18:43.076369 12892 net.cpp:165] Memory required for data: 3647666408
I0413 18:18:43.076373 12892 layer_factory.hpp:77] Creating layer drop6
I0413 18:18:43.076385 12892 net.cpp:100] Creating Layer drop6
I0413 18:18:43.076392 12892 net.cpp:434] drop6 <- fc6
I0413 18:18:43.076400 12892 net.cpp:395] drop6 -> fc6 (in-place)
I0413 18:18:43.076433 12892 net.cpp:150] Setting up drop6
I0413 18:18:43.076443 12892 net.cpp:157] Top shape: 1 4096 (4096)
I0413 18:18:43.076448 12892 net.cpp:165] Memory required for data: 3647682792
I0413 18:18:43.076454 12892 layer_factory.hpp:77] Creating layer fc7
I0413 18:18:43.076464 12892 net.cpp:100] Creating Layer fc7
I0413 18:18:43.076472 12892 net.cpp:434] fc7 <- fc6
I0413 18:18:43.076481 12892 net.cpp:408] fc7 -> fc7
I0413 18:18:43.103695 12892 net.cpp:150] Setting up fc7
I0413 18:18:43.103731 12892 net.cpp:157] Top shape: 1 4096 (4096)
I0413 18:18:43.103736 12892 net.cpp:165] Memory required for data: 3647699176
I0413 18:18:43.103760 12892 layer_factory.hpp:77] Creating layer relu7
I0413 18:18:43.103790 12892 net.cpp:100] Creating Layer relu7
I0413 18:18:43.103799 12892 net.cpp:434] relu7 <- fc7
I0413 18:18:43.103811 12892 net.cpp:395] relu7 -> fc7 (in-place)
I0413 18:18:43.103827 12892 net.cpp:150] Setting up relu7
I0413 18:18:43.103837 12892 net.cpp:157] Top shape: 1 4096 (4096)
I0413 18:18:43.103843 12892 net.cpp:165] Memory required for data: 3647715560
I0413 18:18:43.103850 12892 layer_factory.hpp:77] Creating layer drop7
I0413 18:18:43.103862 12892 net.cpp:100] Creating Layer drop7
I0413 18:18:43.103868 12892 net.cpp:434] drop7 <- fc7
I0413 18:18:43.103878 12892 net.cpp:395] drop7 -> fc7 (in-place)
I0413 18:18:43.103911 12892 net.cpp:150] Setting up drop7
I0413 18:18:43.103921 12892 net.cpp:157] Top shape: 1 4096 (4096)
I0413 18:18:43.103926 12892 net.cpp:165] Memory required for data: 3647731944
I0413 18:18:43.103934 12892 net.cpp:228] drop7 does not need backward computation.
I0413 18:18:43.103940 12892 net.cpp:228] relu7 does not need backward computation.
I0413 18:18:43.103946 12892 net.cpp:228] fc7 does not need backward computation.
I0413 18:18:43.103952 12892 net.cpp:228] drop6 does not need backward computation.
…
