…
I0413 18:44:00.002388 13926 solver.cpp:48] Initializing solver from parameters: 
base_lr: 0.001
display: 20
lr_policy: "multistep"
gamma: 0.1
momentum: 0.9
weight_decay: 0.0005
snapshot: 0
snapshot_prefix: "faces_example"
net_param {
  name: "GeneratedModel_13_04_2017_18_43"
  layer {
    name: "input"
    type: "Python"
    top: "input_data"
    top: "input_im_info"
    top: "input_gt_boxes"
    top: "input_ignored_boxes"
    python_param {
      module: "layers.roi_data_layer"
      layer: "RoIDataLayer"
      param_str: "{\"num_classes\": 2}"
    }
  }
  layer {
    name: "conv1_1"
    type: "Convolution"
    bottom: "input_data"
    top: "conv1_1"
    param {
      lr_mult: 0
      decay_mult: 0
    }
    param {
      lr_mult: 0
      decay_mult: 0
    }
    convolution_param {
      num_output: 64
      pad: 1
      kernel_size: 3
    }
  }
  layer {
    name: "relu1_1"
    type: "ReLU"
    bottom: "conv1_1"
    top: "conv1_1"
  }
  layer {
    name: "conv1_2"
    type: "Convolution"
    bottom: "conv1_1"
    top: "conv1_2"
    param {
      lr_mult: 0
      decay_mult: 0
    }
    param {
      lr_mult: 0
      decay_mult: 0
    }
    convolution_param {
      num_output: 64
      pad: 1
      kernel_size: 3
    }
  }
  layer {
    name: "relu1_2"
    type: "ReLU"
    bottom: "conv1_2"
    top: "conv1_2"
  }
  layer {
    name: "pool1"
    type: "Pooling"
    bottom: "conv1_2"
    top: "pool1"
    pooling_param {
      pool: MAX
      kernel_size: 2
      stride: 2
    }
  }
  layer {
    name: "conv2_1"
    type: "Convolution"
    bottom: "pool1"
    top: "conv2_1"
    param {
      lr_mult: 0
      decay_mult: 0
    }
    param {
      lr_mult: 0
      decay_mult: 0
    }
    convolution_param {
      num_output: 128
      pad: 1
      kernel_size: 3
    }
  }
  layer {
    name: "relu2_1"
    type: "ReLU"
    bottom: "conv2_1"
    top: "conv2_1"
  }
  layer {
    name: "conv2_2"
    type: "Convolution"
    bottom: "conv2_1"
    top: "conv2_2"
    param {
      lr_mult: 0
      decay_mult: 0
    }
    param {
      lr_mult: 0
      decay_mult: 0
    }
    convolution_param {
      num_output: 128
      pad: 1
      kernel_size: 3
    }
  }
  layer {
    name: "relu2_2"
    type: "ReLU"
    bottom: "conv2_2"
    top: "conv2_2"
  }
  layer {
    name: "pool2"
    type: "Pooling"
    bottom: "conv2_2"
    top: "pool2"
    pooling_param {
      pool: MAX
      kernel_size: 2
      stride: 2
    }
  }
  layer {
    name: "conv3_1"
    type: "Convolution"
    bottom: "pool2"
    top: "conv3_1"
    param {
      lr_mult: 1
    }
    param {
      lr_mult: 2
    }
    convolution_param {
      num_output: 256
      pad: 1
      kernel_size: 3
    }
  }
  layer {
    name: "relu3_1"
    type: "ReLU"
    bottom: "conv3_1"
    top: "conv3_1"
  }
  layer {
    name: "conv3_2"
    type: "Convolution"
    bottom: "conv3_1"
    top: "conv3_2"
    param {
      lr_mult: 1
    }
    param {
      lr_mult: 2
    }
    convolution_param {
      num_output: 256
      pad: 1
      kernel_size: 3
    }
  }
  layer {
    name: "relu3_2"
    type: "ReLU"
    bottom: "conv3_2"
    top: "conv3_2"
  }
  layer {
    name: "conv3_3"
    type: "Convolution"
    bottom: "conv3_2"
    top: "conv3_3"
    param {
      lr_mult: 1
    }
    param {
      lr_mult: 2
    }
    convolution_param {
      num_output: 256
      pad: 1
      kernel_size: 3
    }
  }
  layer {
    name: "relu3_3"
    type: "ReLU"
    bottom: "conv3_3"
    top: "conv3_3"
  }
  layer {
    name: "pool3"
    type: "Pooling"
    bottom: "conv3_3"
    top: "pool3"
    pooling_param {
      pool: MAX
      kernel_size: 2
      stride: 2
    }
  }
  layer {
    name: "conv4_1"
    type: "Convolution"
    bottom: "pool3"
    top: "conv4_1"
    param {
      lr_mult: 1
    }
    param {
      lr_mult: 2
    }
    convolution_param {
      num_output: 512
      pad: 1
      kernel_size: 3
    }
  }
  layer {
    name: "relu4_1"
    type: "ReLU"
    bottom: "conv4_1"
    top: "conv4_1"
  }
  layer {
    name: "conv4_2"
    type: "Convolution"
    bottom: "conv4_1"
    top: "conv4_2"
    param {
      lr_mult: 1
    }
    param {
      lr_mult: 2
    }
    convolution_param {
      num_output: 512
      pad: 1
      kernel_size: 3
    }
  }
  layer {
    name: "relu4_2"
    type: "ReLU"
    bottom: "conv4_2"
    top: "conv4_2"
  }
  layer {
    name: "conv4_3"
    type: "Convolution"
    bottom: "conv4_2"
    top: "conv4_3"
    param {
      lr_mult: 1
    }
    param {
      lr_mult: 2
    }
    convolution_param {
      num_output: 512
      pad: 1
      kernel_size: 3
    }
  }
  layer {
    name: "relu4_3"
    type: "ReLU"
    bottom: "conv4_3"
    top: "conv4_3"
  }
  layer {
    name: "pool4"
    type: "Pooling"
    bottom: "conv4_3"
    top: "pool4"
    pooling_param {
      pool: MAX
      kernel_size: 2
      stride: 2
    }
  }
  layer {
    name: "conv5_1"
    type: "Convolution"
    bottom: "pool4"
    top: "conv5_1"
    param {
      lr_mult: 1
    }
    param {
      lr_mult: 2
    }
    convolution_param {
      num_output: 512
      pad: 1
      kernel_size: 3
    }
  }
  layer {
    name: "relu5_1"
    type: "ReLU"
    bottom: "conv5_1"
    top: "conv5_1"
  }
  layer {
    name: "conv5_2"
    type: "Convolution"
    bottom: "conv5_1"
    top: "conv5_2"
    param {
      lr_mult: 1
    }
    param {
      lr_mult: 2
    }
    convolution_param {
      num_output: 512
      pad: 1
      kernel_size: 3
    }
  }
  layer {
    name: "relu5_2"
    type: "ReLU"
    bottom: "conv5_2"
    top: "conv5_2"
  }
  layer {
    name: "conv5_3"
    type: "Convolution"
    bottom: "conv5_2"
    top: "conv5_3"
    param {
      lr_mult: 1
    }
    param {
      lr_mult: 2
    }
    convolution_param {
      num_output: 512
      pad: 1
      kernel_size: 3
    }
  }
  layer {
    name: "relu5_3"
    type: "ReLU"
    bottom: "conv5_3"
    top: "conv5_3"
  }
  layer {
    name: "rpn_big_conv1"
    type: "Convolution"
    bottom: "conv5_3"
    top: "rpn_big_conv1"
    param {
      lr_mult: 1
    }
    param {
      lr_mult: 2
    }
    convolution_param {
      num_output: 512
      pad: 1
      kernel_size: 3
      stride: 1
      weight_filler {
        type: "gaussian"
        mean: 0
        std: 0.01
      }
      bias_filler {
        type: "constant"
      }
    }
  }
  layer {
    name: "rpn_big_conv1_relu"
    type: "ReLU"
    bottom: "rpn_big_conv1"
    top: "rpn_big_conv1"
    relu_param {
      negative_slope: 0
    }
  }
  layer {
    name: "rpn_big_conv2"
    type: "Convolution"
    bottom: "rpn_big_conv1"
    top: "rpn_big_conv2"
    param {
      lr_mult: 1
    }
    param {
      lr_mult: 2
    }
    convolution_param {
      num_output: 512
      pad: 1
      kernel_size: 3
      stride: 1
      weight_filler {
        type: "gaussian"
        mean: 0
        std: 0.01
      }
      bias_filler {
        type: "constant"
      }
    }
  }
  layer {
    name: "rpn_big_conv2_relu"
    type: "ReLU"
    bottom: "rpn_big_conv2"
    top: "rpn_big_conv2"
    relu_param {
      negative_slope: 0
    }
  }
  layer {
    name: "rpn_big_conv2_drop"
    type: "Dropout"
    bottom: "rpn_big_conv2"
    top: "rpn_big_conv2"
    dropout_param {
      dropout_ratio: 0.3
    }
  }
  layer {
    name: "rpn_big_output_cls"
    type: "Convolution"
    bottom: "rpn_big_conv2"
    top: "rpn_big_output_cls"
    param {
      lr_mult: 1
    }
    param {
      lr_mult: 2
    }
    convolution_param {
      num_output: 384
      pad: 1
      kernel_size: 3
      stride: 1
      weight_filler {
        type: "gaussian"
        mean: 0
        std: 0.01
      }
      bias_filler {
        type: "constant"
      }
    }
  }
  layer {
    name: "rpn_big_output_cls_relu"
    type: "ReLU"
    bottom: "rpn_big_output_cls"
    top: "rpn_big_output_cls"
    relu_param {
      negative_slope: 0
    }
  }
  layer {
    name: "rpn_big_cls_score"
    type: "Convolution"
    bottom: "rpn_big_output_cls"
    top: "rpn_big_cls_score"
    param {
      lr_mult: 1
    }
    param {
      lr_mult: 2
    }
    convolution_param {
      num_output: 52
      pad: 0
      kernel_size: 3
      stride: 1
      weight_filler {
        type: "gaussian"
        mean: 0
        std: 0.01
      }
      bias_filler {
        type: "constant"
      }
    }
  }
  layer {
    name: "rpn_big_cls_score_reshape"
    type: "Reshape"
    bottom: "rpn_big_cls_score"
    top: "rpn_big_cls_score_reshape"
    reshape_param {
      shape {
        dim: 0
        dim: 2
        dim: -1
        dim: 0
      }
    }
  }
  layer {
    name: "rpn_big_cls_prob"
    type: "Softmax"
    bottom: "rpn_big_cls_score_reshape"
    top: "rpn_big_cls_prob"
  }
  layer {
    name: "rpn_big_cls_prob_reshape"
    type: "Reshape"
    bottom: "rpn_big_cls_prob"
    top: "rpn_big_cls_prob_reshape"
    reshape_param {
      shape {
        dim: 0
        dim: 52
        dim: -1
        dim: 0
      }
    }
  }
  layer {
    name: "rpn_big_anchor_target"
    type: "Python"
    bottom: "rpn_big_cls_score"
    bottom: "input_gt_boxes"
    bottom: "input_ignored_boxes"
    bottom: "input_im_info"
    bottom: "input_data"
    bottom: "rpn_big_cls_prob_reshape"
    top: "rpn_big_anchor_target_labels"
    top: "rpn_big_anchor_target_bbox_targets"
    top: "rpn_big_anchor_target_inside_weights"
    top: "rpn_big_anchor_target_outside_weights"
    python_param {
      module: "rpn.anchor_target_layer"
      layer: "AnchorTargetLayer"
      param_str: "{\"anchor_scales\": [2.5, 3.025, 3.66025, 4.4289024999999995, 5.358972025, 6.484356150249999, 7.846070941802498, 9.493745839581022, 11.487432465893036, 13.899793283730574, 16.818749873313998, 20.350687346709933, 24.62433168951902, 29.795441344318014], \"positive_overlap\": 0.6, \"batchsize\": 256, \"negative_overlap\": 0.4, \"anchor_shift_num_xy\": [[2, 2], [2, 2], [2, 2], [2, 2], [1, 1], [1, 1], [1, 1], [1, 1], [1, 1], [1, 1], [1, 1], [1, 1], [1, 1], [1, 1]], \"fg_fraction\": 0.5, \"num_classes\": 1, \"anchor_ratios\": [1.0], \"square_targets\": true, \"feat_stride\": 16, \"name\": \"rpn_big\", \"tn_fraction\": 0.2}"
    }
  }
  layer {
    name: "rpn_big_loss_cls"
    type: "SoftmaxWithLoss"
    bottom: "rpn_big_cls_score_reshape"
    bottom: "rpn_big_anchor_target_labels"
    top: "rpn_big_loss_cls"
    loss_weight: 1
    propagate_down: true
    propagate_down: false
    loss_param {
      ignore_label: -1
      normalization: VALID
    }
  }
  layer {
    name: "rpn_big_output_box"
    type: "Convolution"
    bottom: "rpn_big_conv2"
    top: "rpn_big_output_box"
    param {
      lr_mult: 1
    }
    param {
      lr_mult: 2
    }
    convolution_param {
      num_output: 384
      pad: 1
      kernel_size: 3
      stride: 1
      weight_filler {
        type: "gaussian"
        mean: 0
        std: 0.01
      }
      bias_filler {
        type: "constant"
      }
    }
  }
  layer {
    name: "rpn_big_output_box_relu"
    type: "ReLU"
    bottom: "rpn_big_output_box"
    top: "rpn_big_output_box"
    relu_param {
      negative_slope: 0
    }
  }
  layer {
    name: "rpn_big_bbox_pred"
    type: "Convolution"
    bottom: "rpn_big_output_box"
    top: "rpn_big_bbox_pred"
    param {
      lr_mult: 1
    }
    param {
      lr_mult: 2
    }
    convolution_param {
      num_output: 104
      pad: 0
      kernel_size: 3
      stride: 1
      weight_filler {
        type: "gaussian"
        mean: 0
        std: 0.01
      }
      bias_filler {
        type: "constant"
      }
    }
  }
  layer {
    name: "rpn_big_loss_bbox"
    type: "Python"
    bottom: "rpn_big_bbox_pred"
    bottom: "rpn_big_anchor_target_bbox_targets"
    bottom: "rpn_big_anchor_target_inside_weights"
    bottom: "rpn_big_anchor_target_outside_weights"
    top: "rpn_big_loss_bbox"
    loss_weight: 1
    python_param {
      module: "layers.smooth_l1_loss"
      layer: "SmoothL1LossLayer"
      param_str: "{\"sigma\": 3}"
    }
  }
  layer {
    name: "proposal"
    type: "Python"
    bottom: "rpn_big_cls_prob_reshape"
    bottom: "rpn_big_bbox_pred"
    bottom: "input_im_info"
    top: "rpn_rois"
    python_param {
      module: "rpn.proposal_layer"
      layer: "ProposalLayer"
      param_str: "{\"anchor_shift_num_xy\": [[2, 2], [2, 2], [2, 2], [2, 2], [1, 1], [1, 1], [1, 1], [1, 1], [1, 1], [1, 1], [1, 1], [1, 1], [1, 1], [1, 1]], \"feat_stride\": 16, \"num_classes\": 1, \"anchor_scales\": [2.5, 3.025, 3.66025, 4.4289024999999995, 5.358972025, 6.484356150249999, 7.846070941802498, 9.493745839581022, 11.487432465893036, 13.899793283730574, 16.818749873313998, 20.350687346709933, 24.62433168951902, 29.795441344318014], \"square_targets\": true, \"name\": \"rpn_big\", \"batchsize\": 256, \"anchor_ratios\": [1.0]}"
    }
  }
  layer {
    name: "roi-data"
    type: "Python"
    bottom: "rpn_rois"
    bottom: "input_gt_boxes"
    top: "rois"
    top: "labels"
    top: "bbox_targets"
    top: "bbox_inside_weights"
    top: "bbox_outside_weights"
    top: "pid_label"
    python_param {
      module: "rpn.proposal_target_layer"
      layer: "ProposalTargetLayer"
      param_str: "{\"num_classes\": 2, \"bg_aux_label\": 5532}"
    }
  }
  layer {
    name: "roi-pool"
    type: "ROIPooling"
    bottom: "conv5_3"
    bottom: "rois"
    top: "roi-pool"
    roi_pooling_param {
      pooled_h: 7
      pooled_w: 7
      spatial_scale: 0.0625
    }
  }
  layer {
    name: "fc6"
    type: "InnerProduct"
    bottom: "roi-pool"
    top: "fc6"
    param {
      lr_mult: 1
    }
    param {
      lr_mult: 2
    }
    inner_product_param {
      num_output: 4096
    }
  }
  layer {
    name: "relu6"
    type: "ReLU"
    bottom: "fc6"
    top: "fc6"
  }
  layer {
    name: "drop6"
    type: "Dropout"
    bottom: "fc6"
    top: "fc6"
    dropout_param {
      dropout_ratio: 0.5
    }
  }
  layer {
    name: "fc7"
    type: "InnerProduct"
    bottom: "fc6"
    top: "fc7"
    param {
      lr_mult: 1
    }
    param {
      lr_mult: 2
    }
    inner_product_param {
      num_output: 4096
    }
  }
  layer {
    name: "relu7"
    type: "ReLU"
    bottom: "fc7"
    top: "fc7"
  }
  layer {
    name: "drop7"
    type: "Dropout"
    bottom: "fc7"
    top: "fc7"
    dropout_param {
      dropout_ratio: 0.5
    }
  }
  layer {
    name: "bbox_pred"
    type: "InnerProduct"
    bottom: "fc7"
    top: "bbox_pred"
    param {
      lr_mult: 1
    }
    param {
      lr_mult: 2
    }
    inner_product_param {
      num_output: 8
      weight_filler {
        type: "gaussian"
        std: 0.001
      }
      bias_filler {
        type: "constant"
        value: 0
      }
    }
  }
  layer {
    name: "loss_bbox"
    type: "SmoothL1Loss"
    bottom: "bbox_pred"
    bottom: "bbox_targets"
    bottom: "bbox_inside_weights"
    bottom: "bbox_outside_weights"
    top: "loss_bbox"
    loss_weight: 1
  }
  layer {
    name: "feat"
    type: "InnerProduct"
    bottom: "fc7"
    top: "feat"
    param {
      lr_mult: 1
      decay_mult: 1
    }
    param {
      lr_mult: 2
      decay_mult: 0
    }
    inner_product_param {
      num_output: 256
      weight_filler {
        type: "gaussian"
        std: 0.01
      }
      bias_filler {
        type: "constant"
        value: 0
      }
    }
  }
  layer {
    name: "relu8"
    type: "ReLU"
    bottom: "feat"
    top: "feat"
  }
  layer {
    name: "drop8"
    type: "Dropout"
    bottom: "feat"
    top: "feat"
    dropout_param {
      dropout_ratio: 0.5
    }
  }
  layer {
    name: "pid_score"
    type: "InnerProduct"
    bottom: "feat"
    top: "pid_score"
    param {
      lr_mult: 1
      decay_mult: 1
    }
    param {
      lr_mult: 2
      decay_mult: 0
    }
    inner_product_param {
      num_output: 5533
      weight_filler {
        type: "gaussian"
        std: 0.001
      }
      bias_filler {
        type: "constant"
        value: 0
      }
    }
  }
  layer {
    name: "pid_loss"
    type: "SoftmaxWithLoss"
    bottom: "pid_score"
    bottom: "pid_label"
    top: "pid_loss"
  }
}
average_loss: 100
stepvalue: 70000
stepvalue: 120000
iter_size: 2
I0413 18:44:00.002503 13926 solver.cpp:86] Creating training net specified in net_param.
I0413 18:44:00.003293 13926 net.cpp:58] Initializing net from parameters: 
name: "GeneratedModel_13_04_2017_18_43"
state {
  phase: TRAIN
}
layer {
  name: "input"
  type: "Python"
  top: "input_data"
  top: "input_im_info"
  top: "input_gt_boxes"
  top: "input_ignored_boxes"
  python_param {
    module: "layers.roi_data_layer"
    layer: "RoIDataLayer"
    param_str: "{\"num_classes\": 2}"
  }
}
layer {
  name: "conv1_1"
  type: "Convolution"
  bottom: "input_data"
  top: "conv1_1"
  param {
    lr_mult: 0
    decay_mult: 0
  }
  param {
    lr_mult: 0
    decay_mult: 0
  }
  convolution_param {
    num_output: 64
    pad: 1
    kernel_size: 3
  }
}
layer {
  name: "relu1_1"
  type: "ReLU"
  bottom: "conv1_1"
  top: "conv1_1"
}
layer {
  name: "conv1_2"
  type: "Convolution"
  bottom: "conv1_1"
  top: "conv1_2"
  param {
    lr_mult: 0
    decay_mult: 0
  }
  param {
    lr_mult: 0
    decay_mult: 0
  }
  convolution_param {
    num_output: 64
    pad: 1
    kernel_size: 3
  }
}
layer {
  name: "relu1_2"
  type: "ReLU"
  bottom: "conv1_2"
  top: "conv1_2"
}
layer {
  name: "pool1"
  type: "Pooling"
  bottom: "conv1_2"
  top: "pool1"
  pooling_param {
    pool: MAX
    kernel_size: 2
    stride: 2
  }
}
layer {
  name: "conv2_1"
  type: "Convolution"
  bottom: "pool1"
  top: "conv2_1"
  param {
    lr_mult: 0
    decay_mult: 0
  }
  param {
    lr_mult: 0
    decay_mult: 0
  }
  convolution_param {
    num_output: 128
    pad: 1
    kernel_size: 3
  }
}
layer {
  name: "relu2_1"
  type: "ReLU"
  bottom: "conv2_1"
  top: "conv2_1"
}
layer {
  name: "conv2_2"
  type: "Convolution"
  bottom: "conv2_1"
  top: "conv2_2"
  param {
    lr_mult: 0
    decay_mult: 0
  }
  param {
    lr_mult: 0
    decay_mult: 0
  }
  convolution_param {
    num_output: 128
    pad: 1
    kernel_size: 3
  }
}
layer {
  name: "relu2_2"
  type: "ReLU"
  bottom: "conv2_2"
  top: "conv2_2"
}
layer {
  name: "pool2"
  type: "Pooling"
  bottom: "conv2_2"
  top: "pool2"
  pooling_param {
    pool: MAX
    kernel_size: 2
    stride: 2
  }
}
layer {
  name: "conv3_1"
  type: "Convolution"
  bottom: "pool2"
  top: "conv3_1"
  param {
    lr_mult: 1
  }
  param {
    lr_mult: 2
  }
  convolution_param {
    num_output: 256
    pad: 1
    kernel_size: 3
  }
}
layer {
  name: "relu3_1"
  type: "ReLU"
  bottom: "conv3_1"
  top: "conv3_1"
}
layer {
  name: "conv3_2"
  type: "Convolution"
  bottom: "conv3_1"
  top: "conv3_2"
  param {
    lr_mult: 1
  }
  param {
    lr_mult: 2
  }
  convolution_param {
    num_output: 256
    pad: 1
    kernel_size: 3
  }
}
layer {
  name: "relu3_2"
  type: "ReLU"
  bottom: "conv3_2"
  top: "conv3_2"
}
layer {
  name: "conv3_3"
  type: "Convolution"
  bottom: "conv3_2"
  top: "conv3_3"
  param {
    lr_mult: 1
  }
  param {
    lr_mult: 2
  }
  convolution_param {
    num_output: 256
    pad: 1
    kernel_size: 3
  }
}
layer {
  name: "relu3_3"
  type: "ReLU"
  bottom: "conv3_3"
  top: "conv3_3"
}
layer {
  name: "pool3"
  type: "Pooling"
  bottom: "conv3_3"
  top: "pool3"
  pooling_param {
    pool: MAX
    kernel_size: 2
    stride: 2
  }
}
layer {
  name: "conv4_1"
  type: "Convolution"
  bottom: "pool3"
  top: "conv4_1"
  param {
    lr_mult: 1
  }
  param {
    lr_mult: 2
  }
  convolution_param {
    num_output: 512
    pad: 1
    kernel_size: 3
  }
}
layer {
  name: "relu4_1"
  type: "ReLU"
  bottom: "conv4_1"
  top: "conv4_1"
}
layer {
  name: "conv4_2"
  type: "Convolution"
  bottom: "conv4_1"
  top: "conv4_2"
  param {
    lr_mult: 1
  }
  param {
    lr_mult: 2
  }
  convolution_param {
    num_output: 512
    pad: 1
    kernel_size: 3
  }
}
layer {
  name: "relu4_2"
  type: "ReLU"
  bottom: "conv4_2"
  top: "conv4_2"
}
layer {
  name: "conv4_3"
  type: "Convolution"
  bottom: "conv4_2"
  top: "conv4_3"
  param {
    lr_mult: 1
  }
  param {
    lr_mult: 2
  }
  convolution_param {
    num_output: 512
    pad: 1
    kernel_size: 3
  }
}
layer {
  name: "relu4_3"
  type: "ReLU"
  bottom: "conv4_3"
  top: "conv4_3"
}
layer {
  name: "pool4"
  type: "Pooling"
  bottom: "conv4_3"
  top: "pool4"
  pooling_param {
    pool: MAX
    kernel_size: 2
    stride: 2
  }
}
layer {
  name: "conv5_1"
  type: "Convolution"
  bottom: "pool4"
  top: "conv5_1"
  param {
    lr_mult: 1
  }
  param {
    lr_mult: 2
  }
  convolution_param {
    num_output: 512
    pad: 1
    kernel_size: 3
  }
}
layer {
  name: "relu5_1"
  type: "ReLU"
  bottom: "conv5_1"
  top: "conv5_1"
}
layer {
  name: "conv5_2"
  type: "Convolution"
  bottom: "conv5_1"
  top: "conv5_2"
  param {
    lr_mult: 1
  }
  param {
    lr_mult: 2
  }
  convolution_param {
    num_output: 512
    pad: 1
    kernel_size: 3
  }
}
layer {
  name: "relu5_2"
  type: "ReLU"
  bottom: "conv5_2"
  top: "conv5_2"
}
layer {
  name: "conv5_3"
  type: "Convolution"
  bottom: "conv5_2"
  top: "conv5_3"
  param {
    lr_mult: 1
  }
  param {
    lr_mult: 2
  }
  convolution_param {
    num_output: 512
    pad: 1
    kernel_size: 3
  }
}
layer {
  name: "relu5_3"
  type: "ReLU"
  bottom: "conv5_3"
  top: "conv5_3"
}
layer {
  name: "rpn_big_conv1"
  type: "Convolution"
  bottom: "conv5_3"
  top: "rpn_big_conv1"
  param {
    lr_mult: 1
  }
  param {
    lr_mult: 2
  }
  convolution_param {
    num_output: 512
    pad: 1
    kernel_size: 3
    stride: 1
    weight_filler {
      type: "gaussian"
      mean: 0
      std: 0.01
    }
    bias_filler {
      type: "constant"
    }
  }
}
layer {
  name: "rpn_big_conv1_relu"
  type: "ReLU"
  bottom: "rpn_big_conv1"
  top: "rpn_big_conv1"
  relu_param {
    negative_slope: 0
  }
}
layer {
  name: "rpn_big_conv2"
  type: "Convolution"
  bottom: "rpn_big_conv1"
  top: "rpn_big_conv2"
  param {
    lr_mult: 1
  }
  param {
    lr_mult: 2
  }
  convolution_param {
    num_output: 512
    pad: 1
    kernel_size: 3
    stride: 1
    weight_filler {
      type: "gaussian"
      mean: 0
      std: 0.01
    }
    bias_filler {
      type: "constant"
    }
  }
}
layer {
  name: "rpn_big_conv2_relu"
  type: "ReLU"
  bottom: "rpn_big_conv2"
  top: "rpn_big_conv2"
  relu_param {
    negative_slope: 0
  }
}
layer {
  name: "rpn_big_conv2_drop"
  type: "Dropout"
  bottom: "rpn_big_conv2"
  top: "rpn_big_conv2"
  dropout_param {
    dropout_ratio: 0.3
  }
}
layer {
  name: "rpn_big_output_cls"
  type: "Convolution"
  bottom: "rpn_big_conv2"
  top: "rpn_big_output_cls"
  param {
    lr_mult: 1
  }
  param {
    lr_mult: 2
  }
  convolution_param {
    num_output: 384
    pad: 1
    kernel_size: 3
    stride: 1
    weight_filler {
      type: "gaussian"
      mean: 0
      std: 0.01
    }
    bias_filler {
      type: "constant"
    }
  }
}
layer {
  name: "rpn_big_output_cls_relu"
  type: "ReLU"
  bottom: "rpn_big_output_cls"
  top: "rpn_big_output_cls"
  relu_param {
    negative_slope: 0
  }
}
layer {
  name: "rpn_big_cls_score"
  type: "Convolution"
  bottom: "rpn_big_output_cls"
  top: "rpn_big_cls_score"
  param {
    lr_mult: 1
  }
  param {
    lr_mult: 2
  }
  convolution_param {
    num_output: 52
    pad: 0
    kernel_size: 3
    stride: 1
    weight_filler {
      type: "gaussian"
      mean: 0
      std: 0.01
    }
    bias_filler {
      type: "constant"
    }
  }
}
layer {
  name: "rpn_big_cls_score_reshape"
  type: "Reshape"
  bottom: "rpn_big_cls_score"
  top: "rpn_big_cls_score_reshape"
  reshape_param {
    shape {
      dim: 0
      dim: 2
      dim: -1
      dim: 0
    }
  }
}
layer {
  name: "rpn_big_cls_prob"
  type: "Softmax"
  bottom: "rpn_big_cls_score_reshape"
  top: "rpn_big_cls_prob"
}
layer {
  name: "rpn_big_cls_prob_reshape"
  type: "Reshape"
  bottom: "rpn_big_cls_prob"
  top: "rpn_big_cls_prob_reshape"
  reshape_param {
    shape {
      dim: 0
      dim: 52
      dim: -1
      dim: 0
    }
  }
}
layer {
  name: "rpn_big_anchor_target"
  type: "Python"
  bottom: "rpn_big_cls_score"
  bottom: "input_gt_boxes"
  bottom: "input_ignored_boxes"
  bottom: "input_im_info"
  bottom: "input_data"
  bottom: "rpn_big_cls_prob_reshape"
  top: "rpn_big_anchor_target_labels"
  top: "rpn_big_anchor_target_bbox_targets"
  top: "rpn_big_anchor_target_inside_weights"
  top: "rpn_big_anchor_target_outside_weights"
  python_param {
    module: "rpn.anchor_target_layer"
    layer: "AnchorTargetLayer"
    param_str: "{\"anchor_scales\": [2.5, 3.025, 3.66025, 4.4289024999999995, 5.358972025, 6.484356150249999, 7.846070941802498, 9.493745839581022, 11.487432465893036, 13.899793283730574, 16.818749873313998, 20.350687346709933, 24.62433168951902, 29.795441344318014], \"positive_overlap\": 0.6, \"batchsize\": 256, \"negative_overlap\": 0.4, \"anchor_shift_num_xy\": [[2, 2], [2, 2], [2, 2], [2, 2], [1, 1], [1, 1], [1, 1], [1, 1], [1, 1], [1, 1], [1, 1], [1, 1], [1, 1], [1, 1]], \"fg_fraction\": 0.5, \"num_classes\": 1, \"anchor_ratios\": [1.0], \"square_targets\": true, \"feat_stride\": 16, \"name\": \"rpn_big\", \"tn_fraction\": 0.2}"
  }
}
layer {
  name: "rpn_big_loss_cls"
  type: "SoftmaxWithLoss"
  bottom: "rpn_big_cls_score_reshape"
  bottom: "rpn_big_anchor_target_labels"
  top: "rpn_big_loss_cls"
  loss_weight: 1
  propagate_down: true
  propagate_down: false
  loss_param {
    ignore_label: -1
    normalization: VALID
  }
}
layer {
  name: "rpn_big_output_box"
  type: "Convolution"
  bottom: "rpn_big_conv2"
  top: "rpn_big_output_box"
  param {
    lr_mult: 1
  }
  param {
    lr_mult: 2
  }
  convolution_param {
    num_output: 384
    pad: 1
    kernel_size: 3
    stride: 1
    weight_filler {
      type: "gaussian"
      mean: 0
      std: 0.01
    }
    bias_filler {
      type: "constant"
    }
  }
}
layer {
  name: "rpn_big_output_box_relu"
  type: "ReLU"
  bottom: "rpn_big_output_box"
  top: "rpn_big_output_box"
  relu_param {
    negative_slope: 0
  }
}
layer {
  name: "rpn_big_bbox_pred"
  type: "Convolution"
  bottom: "rpn_big_output_box"
  top: "rpn_big_bbox_pred"
  param {
    lr_mult: 1
  }
  param {
    lr_mult: 2
  }
  convolution_param {
    num_output: 104
    pad: 0
    kernel_size: 3
    stride: 1
    weight_filler {
      type: "gaussian"
      mean: 0
      std: 0.01
    }
    bias_filler {
      type: "constant"
    }
  }
}
layer {
  name: "rpn_big_loss_bbox"
  type: "Python"
  bottom: "rpn_big_bbox_pred"
  bottom: "rpn_big_anchor_target_bbox_targets"
  bottom: "rpn_big_anchor_target_inside_weights"
  bottom: "rpn_big_anchor_target_outside_weights"
  top: "rpn_big_loss_bbox"
  loss_weight: 1
  python_param {
    module: "layers.smooth_l1_loss"
    layer: "SmoothL1LossLayer"
    param_str: "{\"sigma\": 3}"
  }
}
layer {
  name: "proposal"
  type: "Python"
  bottom: "rpn_big_cls_prob_reshape"
  bottom: "rpn_big_bbox_pred"
  bottom: "input_im_info"
  top: "rpn_rois"
  python_param {
    module: "rpn.proposal_layer"
    layer: "ProposalLayer"
    param_str: "{\"anchor_shift_num_xy\": [[2, 2], [2, 2], [2, 2], [2, 2], [1, 1], [1, 1], [1, 1], [1, 1], [1, 1], [1, 1], [1, 1], [1, 1], [1, 1], [1, 1]], \"feat_stride\": 16, \"num_classes\": 1, \"anchor_scales\": [2.5, 3.025, 3.66025, 4.4289024999999995, 5.358972025, 6.484356150249999, 7.846070941802498, 9.493745839581022, 11.487432465893036, 13.899793283730574, 16.818749873313998, 20.350687346709933, 24.62433168951902, 29.795441344318014], \"square_targets\": true, \"name\": \"rpn_big\", \"batchsize\": 256, \"anchor_ratios\": [1.0]}"
  }
}
layer {
  name: "roi-data"
  type: "Python"
  bottom: "rpn_rois"
  bottom: "input_gt_boxes"
  top: "rois"
  top: "labels"
  top: "bbox_targets"
  top: "bbox_inside_weights"
  top: "bbox_outside_weights"
  top: "pid_label"
  python_param {
    module: "rpn.proposal_target_layer"
    layer: "ProposalTargetLayer"
    param_str: "{\"num_classes\": 2, \"bg_aux_label\": 5532}"
  }
}
layer {
  name: "roi-pool"
  type: "ROIPooling"
  bottom: "conv5_3"
  bottom: "rois"
  top: "roi-pool"
  roi_pooling_param {
    pooled_h: 7
    pooled_w: 7
    spatial_scale: 0.0625
  }
}
layer {
  name: "fc6"
  type: "InnerProduct"
  bottom: "roi-pool"
  top: "fc6"
  param {
    lr_mult: 1
  }
  param {
    lr_mult: 2
  }
  inner_product_param {
    num_output: 4096
  }
}
layer {
  name: "relu6"
  type: "ReLU"
  bottom: "fc6"
  top: "fc6"
}
layer {
  name: "drop6"
  type: "Dropout"
  bottom: "fc6"
  top: "fc6"
  dropout_param {
    dropout_ratio: 0.5
  }
}
layer {
  name: "fc7"
  type: "InnerProduct"
  bottom: "fc6"
  top: "fc7"
  param {
    lr_mult: 1
  }
  param {
    lr_mult: 2
  }
  inner_product_param {
    num_output: 4096
  }
}
layer {
  name: "relu7"
  type: "ReLU"
  bottom: "fc7"
  top: "fc7"
}
layer {
  name: "drop7"
  type: "Dropout"
  bottom: "fc7"
  top: "fc7"
  dropout_param {
    dropout_ratio: 0.5
  }
}
layer {
  name: "bbox_pred"
  type: "InnerProduct"
  bottom: "fc7"
  top: "bbox_pred"
  param {
    lr_mult: 1
  }
  param {
    lr_mult: 2
  }
  inner_product_param {
    num_output: 8
    weight_filler {
      type: "gaussian"
      std: 0.001
    }
    bias_filler {
      type: "constant"
      value: 0
    }
  }
}
layer {
  name: "loss_bbox"
  type: "SmoothL1Loss"
  bottom: "bbox_pred"
  bottom: "bbox_targets"
  bottom: "bbox_inside_weights"
  bottom: "bbox_outside_weights"
  top: "loss_bbox"
  loss_weight: 1
}
layer {
  name: "feat"
  type: "InnerProduct"
  bottom: "fc7"
  top: "feat"
  param {
    lr_mult: 1
    decay_mult: 1
  }
  param {
    lr_mult: 2
    decay_mult: 0
  }
  inner_product_param {
    num_output: 256
    weight_filler {
      type: "gaussian"
      std: 0.01
    }
    bias_filler {
      type: "constant"
      value: 0
    }
  }
}
layer {
  name: "relu8"
  type: "ReLU"
  bottom: "feat"
  top: "feat"
}
layer {
  name: "drop8"
  type: "Dropout"
  bottom: "feat"
  top: "feat"
  dropout_param {
    dropout_ratio: 0.5
  }
}
layer {
  name: "pid_score"
  type: "InnerProduct"
  bottom: "feat"
  top: "pid_score"
  param {
    lr_mult: 1
    decay_mult: 1
  }
  param {
    lr_mult: 2
    decay_mult: 0
  }
  inner_product_param {
    num_output: 5533
    weight_filler {
      type: "gaussian"
      std: 0.001
    }
    bias_filler {
      type: "constant"
      value: 0
    }
  }
}
layer {
  name: "pid_loss"
  type: "SoftmaxWithLoss"
  bottom: "pid_score"
  bottom: "pid_label"
  top: "pid_loss"
}
I0413 18:44:00.003722 13926 layer_factory.hpp:77] Creating layer input
I0413 18:44:00.005677 13926 net.cpp:100] Creating Layer input
I0413 18:44:00.005705 13926 net.cpp:408] input -> input_data
I0413 18:44:00.005724 13926 net.cpp:408] input -> input_im_info
I0413 18:44:00.005738 13926 net.cpp:408] input -> input_gt_boxes
I0413 18:44:00.005749 13926 net.cpp:408] input -> input_ignored_boxes
RoiDataLayer: name_to_top: {'ignored_boxes': 3, 'im_info': 1, 'gt_boxes': 2, 'data': 0}
I0413 18:44:00.339171 13926 net.cpp:150] Setting up input
I0413 18:44:00.339208 13926 net.cpp:157] Top shape: 1 3 1000 1500 (4500000)
I0413 18:44:00.339221 13926 net.cpp:157] Top shape: 1 3 (3)
I0413 18:44:00.339229 13926 net.cpp:157] Top shape: 1 5 (5)
I0413 18:44:00.339237 13926 net.cpp:157] Top shape: 1 5 (5)
I0413 18:44:00.339243 13926 net.cpp:165] Memory required for data: 18000052
I0413 18:44:00.339253 13926 layer_factory.hpp:77] Creating layer input_data_input_0_split
I0413 18:44:00.339270 13926 net.cpp:100] Creating Layer input_data_input_0_split
I0413 18:44:00.339282 13926 net.cpp:434] input_data_input_0_split <- input_data
I0413 18:44:00.339294 13926 net.cpp:408] input_data_input_0_split -> input_data_input_0_split_0
I0413 18:44:00.339314 13926 net.cpp:408] input_data_input_0_split -> input_data_input_0_split_1
I0413 18:44:00.339367 13926 net.cpp:150] Setting up input_data_input_0_split
I0413 18:44:00.339380 13926 net.cpp:157] Top shape: 1 3 1000 1500 (4500000)
I0413 18:44:00.339387 13926 net.cpp:157] Top shape: 1 3 1000 1500 (4500000)
I0413 18:44:00.339392 13926 net.cpp:165] Memory required for data: 54000052
I0413 18:44:00.339397 13926 layer_factory.hpp:77] Creating layer input_im_info_input_1_split
I0413 18:44:00.339407 13926 net.cpp:100] Creating Layer input_im_info_input_1_split
I0413 18:44:00.339412 13926 net.cpp:434] input_im_info_input_1_split <- input_im_info
I0413 18:44:00.339421 13926 net.cpp:408] input_im_info_input_1_split -> input_im_info_input_1_split_0
I0413 18:44:00.339429 13926 net.cpp:408] input_im_info_input_1_split -> input_im_info_input_1_split_1
I0413 18:44:00.339468 13926 net.cpp:150] Setting up input_im_info_input_1_split
I0413 18:44:00.339478 13926 net.cpp:157] Top shape: 1 3 (3)
I0413 18:44:00.339485 13926 net.cpp:157] Top shape: 1 3 (3)
I0413 18:44:00.339490 13926 net.cpp:165] Memory required for data: 54000076
I0413 18:44:00.339495 13926 layer_factory.hpp:77] Creating layer input_gt_boxes_input_2_split
I0413 18:44:00.339504 13926 net.cpp:100] Creating Layer input_gt_boxes_input_2_split
I0413 18:44:00.339510 13926 net.cpp:434] input_gt_boxes_input_2_split <- input_gt_boxes
I0413 18:44:00.339519 13926 net.cpp:408] input_gt_boxes_input_2_split -> input_gt_boxes_input_2_split_0
I0413 18:44:00.339530 13926 net.cpp:408] input_gt_boxes_input_2_split -> input_gt_boxes_input_2_split_1
I0413 18:44:00.339570 13926 net.cpp:150] Setting up input_gt_boxes_input_2_split
I0413 18:44:00.339579 13926 net.cpp:157] Top shape: 1 5 (5)
I0413 18:44:00.339587 13926 net.cpp:157] Top shape: 1 5 (5)
I0413 18:44:00.339592 13926 net.cpp:165] Memory required for data: 54000116
I0413 18:44:00.339597 13926 layer_factory.hpp:77] Creating layer conv1_1
I0413 18:44:00.339612 13926 net.cpp:100] Creating Layer conv1_1
I0413 18:44:00.339619 13926 net.cpp:434] conv1_1 <- input_data_input_0_split_0
I0413 18:44:00.339627 13926 net.cpp:408] conv1_1 -> conv1_1
I0413 18:44:00.342895 13926 net.cpp:150] Setting up conv1_1
I0413 18:44:00.342929 13926 net.cpp:157] Top shape: 1 64 1000 1500 (96000000)
I0413 18:44:00.342933 13926 net.cpp:165] Memory required for data: 438000116
I0413 18:44:00.342957 13926 layer_factory.hpp:77] Creating layer relu1_1
I0413 18:44:00.342972 13926 net.cpp:100] Creating Layer relu1_1
I0413 18:44:00.342980 13926 net.cpp:434] relu1_1 <- conv1_1
I0413 18:44:00.342993 13926 net.cpp:395] relu1_1 -> conv1_1 (in-place)
I0413 18:44:00.343009 13926 net.cpp:150] Setting up relu1_1
I0413 18:44:00.343019 13926 net.cpp:157] Top shape: 1 64 1000 1500 (96000000)
I0413 18:44:00.343024 13926 net.cpp:165] Memory required for data: 822000116
I0413 18:44:00.343029 13926 layer_factory.hpp:77] Creating layer conv1_2
I0413 18:44:00.343044 13926 net.cpp:100] Creating Layer conv1_2
I0413 18:44:00.343050 13926 net.cpp:434] conv1_2 <- conv1_1
I0413 18:44:00.343058 13926 net.cpp:408] conv1_2 -> conv1_2
I0413 18:44:00.346355 13926 net.cpp:150] Setting up conv1_2
I0413 18:44:00.346395 13926 net.cpp:157] Top shape: 1 64 1000 1500 (96000000)
I0413 18:44:00.346398 13926 net.cpp:165] Memory required for data: 1206000116
I0413 18:44:00.346424 13926 layer_factory.hpp:77] Creating layer relu1_2
I0413 18:44:00.346443 13926 net.cpp:100] Creating Layer relu1_2
I0413 18:44:00.346453 13926 net.cpp:434] relu1_2 <- conv1_2
I0413 18:44:00.346464 13926 net.cpp:395] relu1_2 -> conv1_2 (in-place)
I0413 18:44:00.346480 13926 net.cpp:150] Setting up relu1_2
I0413 18:44:00.346489 13926 net.cpp:157] Top shape: 1 64 1000 1500 (96000000)
I0413 18:44:00.346495 13926 net.cpp:165] Memory required for data: 1590000116
I0413 18:44:00.346501 13926 layer_factory.hpp:77] Creating layer pool1
I0413 18:44:00.346514 13926 net.cpp:100] Creating Layer pool1
I0413 18:44:00.346521 13926 net.cpp:434] pool1 <- conv1_2
I0413 18:44:00.346531 13926 net.cpp:408] pool1 -> pool1
I0413 18:44:00.346619 13926 net.cpp:150] Setting up pool1
I0413 18:44:00.346632 13926 net.cpp:157] Top shape: 1 64 500 750 (24000000)
I0413 18:44:00.346637 13926 net.cpp:165] Memory required for data: 1686000116
I0413 18:44:00.346643 13926 layer_factory.hpp:77] Creating layer conv2_1
I0413 18:44:00.346659 13926 net.cpp:100] Creating Layer conv2_1
I0413 18:44:00.346667 13926 net.cpp:434] conv2_1 <- pool1
I0413 18:44:00.346674 13926 net.cpp:408] conv2_1 -> conv2_1
I0413 18:44:00.348016 13926 net.cpp:150] Setting up conv2_1
I0413 18:44:00.348038 13926 net.cpp:157] Top shape: 1 128 500 750 (48000000)
I0413 18:44:00.348042 13926 net.cpp:165] Memory required for data: 1878000116
I0413 18:44:00.348057 13926 layer_factory.hpp:77] Creating layer relu2_1
I0413 18:44:00.348064 13926 net.cpp:100] Creating Layer relu2_1
I0413 18:44:00.348070 13926 net.cpp:434] relu2_1 <- conv2_1
I0413 18:44:00.348076 13926 net.cpp:395] relu2_1 -> conv2_1 (in-place)
I0413 18:44:00.348086 13926 net.cpp:150] Setting up relu2_1
I0413 18:44:00.348094 13926 net.cpp:157] Top shape: 1 128 500 750 (48000000)
I0413 18:44:00.348100 13926 net.cpp:165] Memory required for data: 2070000116
I0413 18:44:00.348104 13926 layer_factory.hpp:77] Creating layer conv2_2
I0413 18:44:00.348117 13926 net.cpp:100] Creating Layer conv2_2
I0413 18:44:00.348124 13926 net.cpp:434] conv2_2 <- conv2_1
I0413 18:44:00.348132 13926 net.cpp:408] conv2_2 -> conv2_2
I0413 18:44:00.349236 13926 net.cpp:150] Setting up conv2_2
I0413 18:44:00.349262 13926 net.cpp:157] Top shape: 1 128 500 750 (48000000)
I0413 18:44:00.349267 13926 net.cpp:165] Memory required for data: 2262000116
I0413 18:44:00.349279 13926 layer_factory.hpp:77] Creating layer relu2_2
I0413 18:44:00.349292 13926 net.cpp:100] Creating Layer relu2_2
I0413 18:44:00.349300 13926 net.cpp:434] relu2_2 <- conv2_2
I0413 18:44:00.349313 13926 net.cpp:395] relu2_2 -> conv2_2 (in-place)
I0413 18:44:00.349328 13926 net.cpp:150] Setting up relu2_2
I0413 18:44:00.349335 13926 net.cpp:157] Top shape: 1 128 500 750 (48000000)
I0413 18:44:00.349341 13926 net.cpp:165] Memory required for data: 2454000116
I0413 18:44:00.349347 13926 layer_factory.hpp:77] Creating layer pool2
I0413 18:44:00.349356 13926 net.cpp:100] Creating Layer pool2
I0413 18:44:00.349362 13926 net.cpp:434] pool2 <- conv2_2
I0413 18:44:00.349371 13926 net.cpp:408] pool2 -> pool2
I0413 18:44:00.349431 13926 net.cpp:150] Setting up pool2
I0413 18:44:00.349442 13926 net.cpp:157] Top shape: 1 128 250 375 (12000000)
I0413 18:44:00.349447 13926 net.cpp:165] Memory required for data: 2502000116
I0413 18:44:00.349452 13926 layer_factory.hpp:77] Creating layer conv3_1
I0413 18:44:00.349465 13926 net.cpp:100] Creating Layer conv3_1
I0413 18:44:00.349473 13926 net.cpp:434] conv3_1 <- pool2
I0413 18:44:00.349483 13926 net.cpp:408] conv3_1 -> conv3_1
I0413 18:44:00.350702 13926 net.cpp:150] Setting up conv3_1
I0413 18:44:00.350725 13926 net.cpp:157] Top shape: 1 256 250 375 (24000000)
I0413 18:44:00.350728 13926 net.cpp:165] Memory required for data: 2598000116
I0413 18:44:00.350747 13926 layer_factory.hpp:77] Creating layer relu3_1
I0413 18:44:00.350760 13926 net.cpp:100] Creating Layer relu3_1
I0413 18:44:00.350769 13926 net.cpp:434] relu3_1 <- conv3_1
I0413 18:44:00.350778 13926 net.cpp:395] relu3_1 -> conv3_1 (in-place)
I0413 18:44:00.350790 13926 net.cpp:150] Setting up relu3_1
I0413 18:44:00.350801 13926 net.cpp:157] Top shape: 1 256 250 375 (24000000)
I0413 18:44:00.350806 13926 net.cpp:165] Memory required for data: 2694000116
I0413 18:44:00.350811 13926 layer_factory.hpp:77] Creating layer conv3_2
I0413 18:44:00.350827 13926 net.cpp:100] Creating Layer conv3_2
I0413 18:44:00.350836 13926 net.cpp:434] conv3_2 <- conv3_1
I0413 18:44:00.350847 13926 net.cpp:408] conv3_2 -> conv3_2
I0413 18:44:00.352201 13926 net.cpp:150] Setting up conv3_2
I0413 18:44:00.352233 13926 net.cpp:157] Top shape: 1 256 250 375 (24000000)
I0413 18:44:00.352236 13926 net.cpp:165] Memory required for data: 2790000116
I0413 18:44:00.352248 13926 layer_factory.hpp:77] Creating layer relu3_2
I0413 18:44:00.352262 13926 net.cpp:100] Creating Layer relu3_2
I0413 18:44:00.352270 13926 net.cpp:434] relu3_2 <- conv3_2
I0413 18:44:00.352280 13926 net.cpp:395] relu3_2 -> conv3_2 (in-place)
I0413 18:44:00.352293 13926 net.cpp:150] Setting up relu3_2
I0413 18:44:00.352303 13926 net.cpp:157] Top shape: 1 256 250 375 (24000000)
I0413 18:44:00.352305 13926 net.cpp:165] Memory required for data: 2886000116
I0413 18:44:00.352309 13926 layer_factory.hpp:77] Creating layer conv3_3
I0413 18:44:00.352319 13926 net.cpp:100] Creating Layer conv3_3
I0413 18:44:00.352322 13926 net.cpp:434] conv3_3 <- conv3_2
I0413 18:44:00.352329 13926 net.cpp:408] conv3_3 -> conv3_3
I0413 18:44:00.354085 13926 net.cpp:150] Setting up conv3_3
I0413 18:44:00.354118 13926 net.cpp:157] Top shape: 1 256 250 375 (24000000)
I0413 18:44:00.354121 13926 net.cpp:165] Memory required for data: 2982000116
I0413 18:44:00.354135 13926 layer_factory.hpp:77] Creating layer relu3_3
I0413 18:44:00.354149 13926 net.cpp:100] Creating Layer relu3_3
I0413 18:44:00.354157 13926 net.cpp:434] relu3_3 <- conv3_3
I0413 18:44:00.354168 13926 net.cpp:395] relu3_3 -> conv3_3 (in-place)
I0413 18:44:00.354181 13926 net.cpp:150] Setting up relu3_3
I0413 18:44:00.354188 13926 net.cpp:157] Top shape: 1 256 250 375 (24000000)
I0413 18:44:00.354193 13926 net.cpp:165] Memory required for data: 3078000116
I0413 18:44:00.354199 13926 layer_factory.hpp:77] Creating layer pool3
I0413 18:44:00.354210 13926 net.cpp:100] Creating Layer pool3
I0413 18:44:00.354215 13926 net.cpp:434] pool3 <- conv3_3
I0413 18:44:00.354223 13926 net.cpp:408] pool3 -> pool3
I0413 18:44:00.354279 13926 net.cpp:150] Setting up pool3
I0413 18:44:00.354290 13926 net.cpp:157] Top shape: 1 256 125 188 (6016000)
I0413 18:44:00.354295 13926 net.cpp:165] Memory required for data: 3102064116
I0413 18:44:00.354300 13926 layer_factory.hpp:77] Creating layer conv4_1
I0413 18:44:00.354315 13926 net.cpp:100] Creating Layer conv4_1
I0413 18:44:00.354321 13926 net.cpp:434] conv4_1 <- pool3
I0413 18:44:00.354329 13926 net.cpp:408] conv4_1 -> conv4_1
I0413 18:44:00.358721 13926 net.cpp:150] Setting up conv4_1
I0413 18:44:00.358749 13926 net.cpp:157] Top shape: 1 512 125 188 (12032000)
I0413 18:44:00.358762 13926 net.cpp:165] Memory required for data: 3150192116
I0413 18:44:00.358772 13926 layer_factory.hpp:77] Creating layer relu4_1
I0413 18:44:00.358784 13926 net.cpp:100] Creating Layer relu4_1
I0413 18:44:00.358793 13926 net.cpp:434] relu4_1 <- conv4_1
I0413 18:44:00.358803 13926 net.cpp:395] relu4_1 -> conv4_1 (in-place)
I0413 18:44:00.358816 13926 net.cpp:150] Setting up relu4_1
I0413 18:44:00.358824 13926 net.cpp:157] Top shape: 1 512 125 188 (12032000)
I0413 18:44:00.358829 13926 net.cpp:165] Memory required for data: 3198320116
I0413 18:44:00.358834 13926 layer_factory.hpp:77] Creating layer conv4_2
I0413 18:44:00.358847 13926 net.cpp:100] Creating Layer conv4_2
I0413 18:44:00.358855 13926 net.cpp:434] conv4_2 <- conv4_1
I0413 18:44:00.358865 13926 net.cpp:408] conv4_2 -> conv4_2
I0413 18:44:00.363165 13926 net.cpp:150] Setting up conv4_2
I0413 18:44:00.363198 13926 net.cpp:157] Top shape: 1 512 125 188 (12032000)
I0413 18:44:00.363203 13926 net.cpp:165] Memory required for data: 3246448116
I0413 18:44:00.363224 13926 layer_factory.hpp:77] Creating layer relu4_2
I0413 18:44:00.363242 13926 net.cpp:100] Creating Layer relu4_2
I0413 18:44:00.363250 13926 net.cpp:434] relu4_2 <- conv4_2
I0413 18:44:00.363260 13926 net.cpp:395] relu4_2 -> conv4_2 (in-place)
I0413 18:44:00.363273 13926 net.cpp:150] Setting up relu4_2
I0413 18:44:00.363281 13926 net.cpp:157] Top shape: 1 512 125 188 (12032000)
I0413 18:44:00.363284 13926 net.cpp:165] Memory required for data: 3294576116
I0413 18:44:00.363291 13926 layer_factory.hpp:77] Creating layer conv4_3
I0413 18:44:00.363302 13926 net.cpp:100] Creating Layer conv4_3
I0413 18:44:00.363308 13926 net.cpp:434] conv4_3 <- conv4_2
I0413 18:44:00.363319 13926 net.cpp:408] conv4_3 -> conv4_3
I0413 18:44:00.367647 13926 net.cpp:150] Setting up conv4_3
I0413 18:44:00.367683 13926 net.cpp:157] Top shape: 1 512 125 188 (12032000)
I0413 18:44:00.367686 13926 net.cpp:165] Memory required for data: 3342704116
I0413 18:44:00.367697 13926 layer_factory.hpp:77] Creating layer relu4_3
I0413 18:44:00.367712 13926 net.cpp:100] Creating Layer relu4_3
I0413 18:44:00.367719 13926 net.cpp:434] relu4_3 <- conv4_3
I0413 18:44:00.367733 13926 net.cpp:395] relu4_3 -> conv4_3 (in-place)
I0413 18:44:00.367748 13926 net.cpp:150] Setting up relu4_3
I0413 18:44:00.367755 13926 net.cpp:157] Top shape: 1 512 125 188 (12032000)
I0413 18:44:00.367761 13926 net.cpp:165] Memory required for data: 3390832116
I0413 18:44:00.367766 13926 layer_factory.hpp:77] Creating layer pool4
I0413 18:44:00.367776 13926 net.cpp:100] Creating Layer pool4
I0413 18:44:00.367784 13926 net.cpp:434] pool4 <- conv4_3
I0413 18:44:00.367791 13926 net.cpp:408] pool4 -> pool4
I0413 18:44:00.367843 13926 net.cpp:150] Setting up pool4
I0413 18:44:00.367853 13926 net.cpp:157] Top shape: 1 512 63 94 (3032064)
I0413 18:44:00.367859 13926 net.cpp:165] Memory required for data: 3402960372
I0413 18:44:00.367866 13926 layer_factory.hpp:77] Creating layer conv5_1
I0413 18:44:00.367882 13926 net.cpp:100] Creating Layer conv5_1
I0413 18:44:00.367888 13926 net.cpp:434] conv5_1 <- pool4
I0413 18:44:00.367898 13926 net.cpp:408] conv5_1 -> conv5_1
I0413 18:44:00.372763 13926 net.cpp:150] Setting up conv5_1
I0413 18:44:00.372798 13926 net.cpp:157] Top shape: 1 512 63 94 (3032064)
I0413 18:44:00.372802 13926 net.cpp:165] Memory required for data: 3415088628
I0413 18:44:00.372814 13926 layer_factory.hpp:77] Creating layer relu5_1
I0413 18:44:00.372828 13926 net.cpp:100] Creating Layer relu5_1
I0413 18:44:00.372835 13926 net.cpp:434] relu5_1 <- conv5_1
I0413 18:44:00.372845 13926 net.cpp:395] relu5_1 -> conv5_1 (in-place)
I0413 18:44:00.372858 13926 net.cpp:150] Setting up relu5_1
I0413 18:44:00.372867 13926 net.cpp:157] Top shape: 1 512 63 94 (3032064)
I0413 18:44:00.372872 13926 net.cpp:165] Memory required for data: 3427216884
I0413 18:44:00.372877 13926 layer_factory.hpp:77] Creating layer conv5_2
I0413 18:44:00.372891 13926 net.cpp:100] Creating Layer conv5_2
I0413 18:44:00.372895 13926 net.cpp:434] conv5_2 <- conv5_1
I0413 18:44:00.372917 13926 net.cpp:408] conv5_2 -> conv5_2
I0413 18:44:00.379125 13926 net.cpp:150] Setting up conv5_2
I0413 18:44:00.379159 13926 net.cpp:157] Top shape: 1 512 63 94 (3032064)
I0413 18:44:00.379173 13926 net.cpp:165] Memory required for data: 3439345140
I0413 18:44:00.379181 13926 layer_factory.hpp:77] Creating layer relu5_2
I0413 18:44:00.379192 13926 net.cpp:100] Creating Layer relu5_2
I0413 18:44:00.379199 13926 net.cpp:434] relu5_2 <- conv5_2
I0413 18:44:00.379209 13926 net.cpp:395] relu5_2 -> conv5_2 (in-place)
I0413 18:44:00.379222 13926 net.cpp:150] Setting up relu5_2
I0413 18:44:00.379231 13926 net.cpp:157] Top shape: 1 512 63 94 (3032064)
I0413 18:44:00.379236 13926 net.cpp:165] Memory required for data: 3451473396
I0413 18:44:00.379241 13926 layer_factory.hpp:77] Creating layer conv5_3
I0413 18:44:00.379261 13926 net.cpp:100] Creating Layer conv5_3
I0413 18:44:00.379268 13926 net.cpp:434] conv5_3 <- conv5_2
I0413 18:44:00.379277 13926 net.cpp:408] conv5_3 -> conv5_3
I0413 18:44:00.383685 13926 net.cpp:150] Setting up conv5_3
I0413 18:44:00.383718 13926 net.cpp:157] Top shape: 1 512 63 94 (3032064)
I0413 18:44:00.383730 13926 net.cpp:165] Memory required for data: 3463601652
I0413 18:44:00.383740 13926 layer_factory.hpp:77] Creating layer relu5_3
I0413 18:44:00.383750 13926 net.cpp:100] Creating Layer relu5_3
I0413 18:44:00.383754 13926 net.cpp:434] relu5_3 <- conv5_3
I0413 18:44:00.383761 13926 net.cpp:395] relu5_3 -> conv5_3 (in-place)
I0413 18:44:00.383775 13926 net.cpp:150] Setting up relu5_3
I0413 18:44:00.383782 13926 net.cpp:157] Top shape: 1 512 63 94 (3032064)
I0413 18:44:00.383787 13926 net.cpp:165] Memory required for data: 3475729908
I0413 18:44:00.383792 13926 layer_factory.hpp:77] Creating layer conv5_3_relu5_3_0_split
I0413 18:44:00.383802 13926 net.cpp:100] Creating Layer conv5_3_relu5_3_0_split
I0413 18:44:00.383810 13926 net.cpp:434] conv5_3_relu5_3_0_split <- conv5_3
I0413 18:44:00.383819 13926 net.cpp:408] conv5_3_relu5_3_0_split -> conv5_3_relu5_3_0_split_0
I0413 18:44:00.383831 13926 net.cpp:408] conv5_3_relu5_3_0_split -> conv5_3_relu5_3_0_split_1
I0413 18:44:00.383877 13926 net.cpp:150] Setting up conv5_3_relu5_3_0_split
I0413 18:44:00.383888 13926 net.cpp:157] Top shape: 1 512 63 94 (3032064)
I0413 18:44:00.383895 13926 net.cpp:157] Top shape: 1 512 63 94 (3032064)
I0413 18:44:00.383900 13926 net.cpp:165] Memory required for data: 3499986420
I0413 18:44:00.383905 13926 layer_factory.hpp:77] Creating layer rpn_big_conv1
I0413 18:44:00.383924 13926 net.cpp:100] Creating Layer rpn_big_conv1
I0413 18:44:00.383930 13926 net.cpp:434] rpn_big_conv1 <- conv5_3_relu5_3_0_split_0
I0413 18:44:00.383941 13926 net.cpp:408] rpn_big_conv1 -> rpn_big_conv1
I0413 18:44:00.409049 13926 net.cpp:150] Setting up rpn_big_conv1
I0413 18:44:00.409077 13926 net.cpp:157] Top shape: 1 512 63 94 (3032064)
I0413 18:44:00.409081 13926 net.cpp:165] Memory required for data: 3512114676
I0413 18:44:00.409091 13926 layer_factory.hpp:77] Creating layer rpn_big_conv1_relu
I0413 18:44:00.409107 13926 net.cpp:100] Creating Layer rpn_big_conv1_relu
I0413 18:44:00.409116 13926 net.cpp:434] rpn_big_conv1_relu <- rpn_big_conv1
I0413 18:44:00.409127 13926 net.cpp:395] rpn_big_conv1_relu -> rpn_big_conv1 (in-place)
I0413 18:44:00.409140 13926 net.cpp:150] Setting up rpn_big_conv1_relu
I0413 18:44:00.409148 13926 net.cpp:157] Top shape: 1 512 63 94 (3032064)
I0413 18:44:00.409152 13926 net.cpp:165] Memory required for data: 3524242932
I0413 18:44:00.409157 13926 layer_factory.hpp:77] Creating layer rpn_big_conv2
I0413 18:44:00.409174 13926 net.cpp:100] Creating Layer rpn_big_conv2
I0413 18:44:00.409183 13926 net.cpp:434] rpn_big_conv2 <- rpn_big_conv1
I0413 18:44:00.409196 13926 net.cpp:408] rpn_big_conv2 -> rpn_big_conv2
I0413 18:44:00.434036 13926 net.cpp:150] Setting up rpn_big_conv2
I0413 18:44:00.434063 13926 net.cpp:157] Top shape: 1 512 63 94 (3032064)
I0413 18:44:00.434067 13926 net.cpp:165] Memory required for data: 3536371188
I0413 18:44:00.434077 13926 layer_factory.hpp:77] Creating layer rpn_big_conv2_relu
I0413 18:44:00.434092 13926 net.cpp:100] Creating Layer rpn_big_conv2_relu
I0413 18:44:00.434099 13926 net.cpp:434] rpn_big_conv2_relu <- rpn_big_conv2
I0413 18:44:00.434111 13926 net.cpp:395] rpn_big_conv2_relu -> rpn_big_conv2 (in-place)
I0413 18:44:00.434126 13926 net.cpp:150] Setting up rpn_big_conv2_relu
I0413 18:44:00.434134 13926 net.cpp:157] Top shape: 1 512 63 94 (3032064)
I0413 18:44:00.434139 13926 net.cpp:165] Memory required for data: 3548499444
I0413 18:44:00.434144 13926 layer_factory.hpp:77] Creating layer rpn_big_conv2_drop
I0413 18:44:00.434154 13926 net.cpp:100] Creating Layer rpn_big_conv2_drop
I0413 18:44:00.434159 13926 net.cpp:434] rpn_big_conv2_drop <- rpn_big_conv2
I0413 18:44:00.434170 13926 net.cpp:395] rpn_big_conv2_drop -> rpn_big_conv2 (in-place)
I0413 18:44:00.434201 13926 net.cpp:150] Setting up rpn_big_conv2_drop
I0413 18:44:00.434211 13926 net.cpp:157] Top shape: 1 512 63 94 (3032064)
I0413 18:44:00.434216 13926 net.cpp:165] Memory required for data: 3560627700
I0413 18:44:00.434221 13926 layer_factory.hpp:77] Creating layer rpn_big_conv2_rpn_big_conv2_drop_0_split
I0413 18:44:00.434233 13926 net.cpp:100] Creating Layer rpn_big_conv2_rpn_big_conv2_drop_0_split
I0413 18:44:00.434242 13926 net.cpp:434] rpn_big_conv2_rpn_big_conv2_drop_0_split <- rpn_big_conv2
I0413 18:44:00.434252 13926 net.cpp:408] rpn_big_conv2_rpn_big_conv2_drop_0_split -> rpn_big_conv2_rpn_big_conv2_drop_0_split_0
I0413 18:44:00.434267 13926 net.cpp:408] rpn_big_conv2_rpn_big_conv2_drop_0_split -> rpn_big_conv2_rpn_big_conv2_drop_0_split_1
I0413 18:44:00.434322 13926 net.cpp:150] Setting up rpn_big_conv2_rpn_big_conv2_drop_0_split
I0413 18:44:00.434332 13926 net.cpp:157] Top shape: 1 512 63 94 (3032064)
I0413 18:44:00.434340 13926 net.cpp:157] Top shape: 1 512 63 94 (3032064)
I0413 18:44:00.434346 13926 net.cpp:165] Memory required for data: 3584884212
I0413 18:44:00.434352 13926 layer_factory.hpp:77] Creating layer rpn_big_output_cls
I0413 18:44:00.434370 13926 net.cpp:100] Creating Layer rpn_big_output_cls
I0413 18:44:00.434377 13926 net.cpp:434] rpn_big_output_cls <- rpn_big_conv2_rpn_big_conv2_drop_0_split_0
I0413 18:44:00.434387 13926 net.cpp:408] rpn_big_output_cls -> rpn_big_output_cls
I0413 18:44:00.453157 13926 net.cpp:150] Setting up rpn_big_output_cls
I0413 18:44:00.453191 13926 net.cpp:157] Top shape: 1 384 63 94 (2274048)
I0413 18:44:00.453194 13926 net.cpp:165] Memory required for data: 3593980404
I0413 18:44:00.453204 13926 layer_factory.hpp:77] Creating layer rpn_big_output_cls_relu
I0413 18:44:00.453215 13926 net.cpp:100] Creating Layer rpn_big_output_cls_relu
I0413 18:44:00.453220 13926 net.cpp:434] rpn_big_output_cls_relu <- rpn_big_output_cls
I0413 18:44:00.453228 13926 net.cpp:395] rpn_big_output_cls_relu -> rpn_big_output_cls (in-place)
I0413 18:44:00.453241 13926 net.cpp:150] Setting up rpn_big_output_cls_relu
I0413 18:44:00.453246 13926 net.cpp:157] Top shape: 1 384 63 94 (2274048)
I0413 18:44:00.453249 13926 net.cpp:165] Memory required for data: 3603076596
I0413 18:44:00.453253 13926 layer_factory.hpp:77] Creating layer rpn_big_cls_score
I0413 18:44:00.453264 13926 net.cpp:100] Creating Layer rpn_big_cls_score
I0413 18:44:00.453270 13926 net.cpp:434] rpn_big_cls_score <- rpn_big_output_cls
I0413 18:44:00.453276 13926 net.cpp:408] rpn_big_cls_score -> rpn_big_cls_score
I0413 18:44:00.455744 13926 net.cpp:150] Setting up rpn_big_cls_score
I0413 18:44:00.455765 13926 net.cpp:157] Top shape: 1 52 61 92 (291824)
I0413 18:44:00.455768 13926 net.cpp:165] Memory required for data: 3604243892
I0413 18:44:00.455790 13926 layer_factory.hpp:77] Creating layer rpn_big_cls_score_rpn_big_cls_score_0_split
I0413 18:44:00.455802 13926 net.cpp:100] Creating Layer rpn_big_cls_score_rpn_big_cls_score_0_split
I0413 18:44:00.455808 13926 net.cpp:434] rpn_big_cls_score_rpn_big_cls_score_0_split <- rpn_big_cls_score
I0413 18:44:00.455818 13926 net.cpp:408] rpn_big_cls_score_rpn_big_cls_score_0_split -> rpn_big_cls_score_rpn_big_cls_score_0_split_0
I0413 18:44:00.455832 13926 net.cpp:408] rpn_big_cls_score_rpn_big_cls_score_0_split -> rpn_big_cls_score_rpn_big_cls_score_0_split_1
I0413 18:44:00.455881 13926 net.cpp:150] Setting up rpn_big_cls_score_rpn_big_cls_score_0_split
I0413 18:44:00.455893 13926 net.cpp:157] Top shape: 1 52 61 92 (291824)
I0413 18:44:00.455899 13926 net.cpp:157] Top shape: 1 52 61 92 (291824)
I0413 18:44:00.455904 13926 net.cpp:165] Memory required for data: 3606578484
I0413 18:44:00.455910 13926 layer_factory.hpp:77] Creating layer rpn_big_cls_score_reshape
I0413 18:44:00.455921 13926 net.cpp:100] Creating Layer rpn_big_cls_score_reshape
I0413 18:44:00.455927 13926 net.cpp:434] rpn_big_cls_score_reshape <- rpn_big_cls_score_rpn_big_cls_score_0_split_0
I0413 18:44:00.455943 13926 net.cpp:408] rpn_big_cls_score_reshape -> rpn_big_cls_score_reshape
I0413 18:44:00.455981 13926 net.cpp:150] Setting up rpn_big_cls_score_reshape
I0413 18:44:00.455991 13926 net.cpp:157] Top shape: 1 2 1586 92 (291824)
I0413 18:44:00.455996 13926 net.cpp:165] Memory required for data: 3607745780
I0413 18:44:00.456001 13926 layer_factory.hpp:77] Creating layer rpn_big_cls_score_reshape_rpn_big_cls_score_reshape_0_split
I0413 18:44:00.456008 13926 net.cpp:100] Creating Layer rpn_big_cls_score_reshape_rpn_big_cls_score_reshape_0_split
I0413 18:44:00.456014 13926 net.cpp:434] rpn_big_cls_score_reshape_rpn_big_cls_score_reshape_0_split <- rpn_big_cls_score_reshape
I0413 18:44:00.456024 13926 net.cpp:408] rpn_big_cls_score_reshape_rpn_big_cls_score_reshape_0_split -> rpn_big_cls_score_reshape_rpn_big_cls_score_reshape_0_split_0
I0413 18:44:00.456034 13926 net.cpp:408] rpn_big_cls_score_reshape_rpn_big_cls_score_reshape_0_split -> rpn_big_cls_score_reshape_rpn_big_cls_score_reshape_0_split_1
I0413 18:44:00.456080 13926 net.cpp:150] Setting up rpn_big_cls_score_reshape_rpn_big_cls_score_reshape_0_split
I0413 18:44:00.456091 13926 net.cpp:157] Top shape: 1 2 1586 92 (291824)
I0413 18:44:00.456099 13926 net.cpp:157] Top shape: 1 2 1586 92 (291824)
I0413 18:44:00.456104 13926 net.cpp:165] Memory required for data: 3610080372
I0413 18:44:00.456110 13926 layer_factory.hpp:77] Creating layer rpn_big_cls_prob
I0413 18:44:00.456120 13926 net.cpp:100] Creating Layer rpn_big_cls_prob
I0413 18:44:00.456127 13926 net.cpp:434] rpn_big_cls_prob <- rpn_big_cls_score_reshape_rpn_big_cls_score_reshape_0_split_0
I0413 18:44:00.456135 13926 net.cpp:408] rpn_big_cls_prob -> rpn_big_cls_prob
I0413 18:44:00.456210 13926 net.cpp:150] Setting up rpn_big_cls_prob
I0413 18:44:00.456223 13926 net.cpp:157] Top shape: 1 2 1586 92 (291824)
I0413 18:44:00.456228 13926 net.cpp:165] Memory required for data: 3611247668
I0413 18:44:00.456233 13926 layer_factory.hpp:77] Creating layer rpn_big_cls_prob_reshape
I0413 18:44:00.456241 13926 net.cpp:100] Creating Layer rpn_big_cls_prob_reshape
I0413 18:44:00.456248 13926 net.cpp:434] rpn_big_cls_prob_reshape <- rpn_big_cls_prob
I0413 18:44:00.456256 13926 net.cpp:408] rpn_big_cls_prob_reshape -> rpn_big_cls_prob_reshape
I0413 18:44:00.456286 13926 net.cpp:150] Setting up rpn_big_cls_prob_reshape
I0413 18:44:00.456297 13926 net.cpp:157] Top shape: 1 52 61 92 (291824)
I0413 18:44:00.456303 13926 net.cpp:165] Memory required for data: 3612414964
I0413 18:44:00.456307 13926 layer_factory.hpp:77] Creating layer rpn_big_cls_prob_reshape_rpn_big_cls_prob_reshape_0_split
I0413 18:44:00.456315 13926 net.cpp:100] Creating Layer rpn_big_cls_prob_reshape_rpn_big_cls_prob_reshape_0_split
I0413 18:44:00.456321 13926 net.cpp:434] rpn_big_cls_prob_reshape_rpn_big_cls_prob_reshape_0_split <- rpn_big_cls_prob_reshape
I0413 18:44:00.456328 13926 net.cpp:408] rpn_big_cls_prob_reshape_rpn_big_cls_prob_reshape_0_split -> rpn_big_cls_prob_reshape_rpn_big_cls_prob_reshape_0_split_0
I0413 18:44:00.456339 13926 net.cpp:408] rpn_big_cls_prob_reshape_rpn_big_cls_prob_reshape_0_split -> rpn_big_cls_prob_reshape_rpn_big_cls_prob_reshape_0_split_1
I0413 18:44:00.456380 13926 net.cpp:150] Setting up rpn_big_cls_prob_reshape_rpn_big_cls_prob_reshape_0_split
I0413 18:44:00.456392 13926 net.cpp:157] Top shape: 1 52 61 92 (291824)
I0413 18:44:00.456398 13926 net.cpp:157] Top shape: 1 52 61 92 (291824)
I0413 18:44:00.456403 13926 net.cpp:165] Memory required for data: 3614749556
I0413 18:44:00.456408 13926 layer_factory.hpp:77] Creating layer rpn_big_anchor_target
I0413 18:44:00.457965 13926 net.cpp:100] Creating Layer rpn_big_anchor_target
I0413 18:44:00.457986 13926 net.cpp:434] rpn_big_anchor_target <- rpn_big_cls_score_rpn_big_cls_score_0_split_1
I0413 18:44:00.457993 13926 net.cpp:434] rpn_big_anchor_target <- input_gt_boxes_input_2_split_0
I0413 18:44:00.458000 13926 net.cpp:434] rpn_big_anchor_target <- input_ignored_boxes
I0413 18:44:00.458008 13926 net.cpp:434] rpn_big_anchor_target <- input_im_info_input_1_split_0
I0413 18:44:00.458014 13926 net.cpp:434] rpn_big_anchor_target <- input_data_input_0_split_1
I0413 18:44:00.458021 13926 net.cpp:434] rpn_big_anchor_target <- rpn_big_cls_prob_reshape_rpn_big_cls_prob_reshape_0_split_0
I0413 18:44:00.458034 13926 net.cpp:408] rpn_big_anchor_target -> rpn_big_anchor_target_labels
I0413 18:44:00.458050 13926 net.cpp:408] rpn_big_anchor_target -> rpn_big_anchor_target_bbox_targets
I0413 18:44:00.458066 13926 net.cpp:408] rpn_big_anchor_target -> rpn_big_anchor_target_inside_weights
I0413 18:44:00.458081 13926 net.cpp:408] rpn_big_anchor_target -> rpn_big_anchor_target_outside_weights
I0413 18:44:00.462904 13926 net.cpp:150] Setting up rpn_big_anchor_target
I0413 18:44:00.462934 13926 net.cpp:157] Top shape: 1 1 1586 92 (145912)
I0413 18:44:00.462939 13926 net.cpp:157] Top shape: 1 104 61 92 (583648)
I0413 18:44:00.462944 13926 net.cpp:157] Top shape: 1 104 61 92 (583648)
I0413 18:44:00.462951 13926 net.cpp:157] Top shape: 1 104 61 92 (583648)
I0413 18:44:00.462955 13926 net.cpp:165] Memory required for data: 3622336980
I0413 18:44:00.462963 13926 layer_factory.hpp:77] Creating layer rpn_big_loss_cls
I0413 18:44:00.462980 13926 net.cpp:100] Creating Layer rpn_big_loss_cls
I0413 18:44:00.462990 13926 net.cpp:434] rpn_big_loss_cls <- rpn_big_cls_score_reshape_rpn_big_cls_score_reshape_0_split_1
I0413 18:44:00.463001 13926 net.cpp:434] rpn_big_loss_cls <- rpn_big_anchor_target_labels
I0413 18:44:00.463011 13926 net.cpp:408] rpn_big_loss_cls -> rpn_big_loss_cls
I0413 18:44:00.463030 13926 layer_factory.hpp:77] Creating layer rpn_big_loss_cls
I0413 18:44:00.463774 13926 net.cpp:150] Setting up rpn_big_loss_cls
I0413 18:44:00.463788 13926 net.cpp:157] Top shape: (1)
I0413 18:44:00.463793 13926 net.cpp:160]     with loss weight 1
I0413 18:44:00.463807 13926 net.cpp:165] Memory required for data: 3622336984
I0413 18:44:00.463815 13926 layer_factory.hpp:77] Creating layer rpn_big_output_box
I0413 18:44:00.463835 13926 net.cpp:100] Creating Layer rpn_big_output_box
I0413 18:44:00.463843 13926 net.cpp:434] rpn_big_output_box <- rpn_big_conv2_rpn_big_conv2_drop_0_split_1
I0413 18:44:00.463855 13926 net.cpp:408] rpn_big_output_box -> rpn_big_output_box
I0413 18:44:00.482830 13926 net.cpp:150] Setting up rpn_big_output_box
I0413 18:44:00.482858 13926 net.cpp:157] Top shape: 1 384 63 94 (2274048)
I0413 18:44:00.482870 13926 net.cpp:165] Memory required for data: 3631433176
I0413 18:44:00.482880 13926 layer_factory.hpp:77] Creating layer rpn_big_output_box_relu
I0413 18:44:00.482892 13926 net.cpp:100] Creating Layer rpn_big_output_box_relu
I0413 18:44:00.482898 13926 net.cpp:434] rpn_big_output_box_relu <- rpn_big_output_box
I0413 18:44:00.482909 13926 net.cpp:395] rpn_big_output_box_relu -> rpn_big_output_box (in-place)
I0413 18:44:00.482923 13926 net.cpp:150] Setting up rpn_big_output_box_relu
I0413 18:44:00.482930 13926 net.cpp:157] Top shape: 1 384 63 94 (2274048)
I0413 18:44:00.482938 13926 net.cpp:165] Memory required for data: 3640529368
I0413 18:44:00.482944 13926 layer_factory.hpp:77] Creating layer rpn_big_bbox_pred
I0413 18:44:00.482959 13926 net.cpp:100] Creating Layer rpn_big_bbox_pred
I0413 18:44:00.482966 13926 net.cpp:434] rpn_big_bbox_pred <- rpn_big_output_box
I0413 18:44:00.482977 13926 net.cpp:408] rpn_big_bbox_pred -> rpn_big_bbox_pred
I0413 18:44:00.487202 13926 net.cpp:150] Setting up rpn_big_bbox_pred
I0413 18:44:00.487226 13926 net.cpp:157] Top shape: 1 104 61 92 (583648)
I0413 18:44:00.487229 13926 net.cpp:165] Memory required for data: 3642863960
I0413 18:44:00.487241 13926 layer_factory.hpp:77] Creating layer rpn_big_bbox_pred_rpn_big_bbox_pred_0_split
I0413 18:44:00.487256 13926 net.cpp:100] Creating Layer rpn_big_bbox_pred_rpn_big_bbox_pred_0_split
I0413 18:44:00.487265 13926 net.cpp:434] rpn_big_bbox_pred_rpn_big_bbox_pred_0_split <- rpn_big_bbox_pred
I0413 18:44:00.487275 13926 net.cpp:408] rpn_big_bbox_pred_rpn_big_bbox_pred_0_split -> rpn_big_bbox_pred_rpn_big_bbox_pred_0_split_0
I0413 18:44:00.487289 13926 net.cpp:408] rpn_big_bbox_pred_rpn_big_bbox_pred_0_split -> rpn_big_bbox_pred_rpn_big_bbox_pred_0_split_1
I0413 18:44:00.487349 13926 net.cpp:150] Setting up rpn_big_bbox_pred_rpn_big_bbox_pred_0_split
I0413 18:44:00.487360 13926 net.cpp:157] Top shape: 1 104 61 92 (583648)
I0413 18:44:00.487375 13926 net.cpp:157] Top shape: 1 104 61 92 (583648)
I0413 18:44:00.487380 13926 net.cpp:165] Memory required for data: 3647533144
I0413 18:44:00.487385 13926 layer_factory.hpp:77] Creating layer rpn_big_loss_bbox
I0413 18:44:00.487803 13926 net.cpp:100] Creating Layer rpn_big_loss_bbox
I0413 18:44:00.487813 13926 net.cpp:434] rpn_big_loss_bbox <- rpn_big_bbox_pred_rpn_big_bbox_pred_0_split_0
I0413 18:44:00.487820 13926 net.cpp:434] rpn_big_loss_bbox <- rpn_big_anchor_target_bbox_targets
I0413 18:44:00.487828 13926 net.cpp:434] rpn_big_loss_bbox <- rpn_big_anchor_target_inside_weights
I0413 18:44:00.487838 13926 net.cpp:434] rpn_big_loss_bbox <- rpn_big_anchor_target_outside_weights
I0413 18:44:00.487848 13926 net.cpp:408] rpn_big_loss_bbox -> rpn_big_loss_bbox
I0413 18:44:00.489855 13926 net.cpp:150] Setting up rpn_big_loss_bbox
I0413 18:44:00.489881 13926 net.cpp:157] Top shape: 1 (1)
I0413 18:44:00.489893 13926 net.cpp:160]     with loss weight 1
I0413 18:44:00.489904 13926 net.cpp:165] Memory required for data: 3647533148
I0413 18:44:00.489912 13926 layer_factory.hpp:77] Creating layer proposal
I0413 18:44:00.490352 13926 net.cpp:100] Creating Layer proposal
I0413 18:44:00.490362 13926 net.cpp:434] proposal <- rpn_big_cls_prob_reshape_rpn_big_cls_prob_reshape_0_split_1
I0413 18:44:00.490378 13926 net.cpp:434] proposal <- rpn_big_bbox_pred_rpn_big_bbox_pred_0_split_1
I0413 18:44:00.490384 13926 net.cpp:434] proposal <- input_im_info_input_1_split_1
I0413 18:44:00.490392 13926 net.cpp:408] proposal -> rpn_rois
I0413 18:44:00.494626 13926 net.cpp:150] Setting up proposal
I0413 18:44:00.494647 13926 net.cpp:157] Top shape: 1 5 (5)
I0413 18:44:00.494652 13926 net.cpp:165] Memory required for data: 3647533168
I0413 18:44:00.494657 13926 layer_factory.hpp:77] Creating layer roi-data
I0413 18:44:00.495026 13926 net.cpp:100] Creating Layer roi-data
I0413 18:44:00.495038 13926 net.cpp:434] roi-data <- rpn_rois
I0413 18:44:00.495045 13926 net.cpp:434] roi-data <- input_gt_boxes_input_2_split_1
I0413 18:44:00.495056 13926 net.cpp:408] roi-data -> rois
I0413 18:44:00.495072 13926 net.cpp:408] roi-data -> labels
I0413 18:44:00.495085 13926 net.cpp:408] roi-data -> bbox_targets
I0413 18:44:00.495097 13926 net.cpp:408] roi-data -> bbox_inside_weights
I0413 18:44:00.495110 13926 net.cpp:408] roi-data -> bbox_outside_weights
I0413 18:44:00.495122 13926 net.cpp:408] roi-data -> pid_label
I0413 18:44:00.496127 13926 net.cpp:150] Setting up roi-data
I0413 18:44:00.496145 13926 net.cpp:157] Top shape: 1 5 (5)
I0413 18:44:00.496148 13926 net.cpp:157] Top shape: 1 1 (1)
I0413 18:44:00.496153 13926 net.cpp:157] Top shape: 1 8 (8)
I0413 18:44:00.496160 13926 net.cpp:157] Top shape: 1 8 (8)
I0413 18:44:00.496166 13926 net.cpp:157] Top shape: 1 8 (8)
I0413 18:44:00.496172 13926 net.cpp:157] Top shape: (0)
I0413 18:44:00.496176 13926 net.cpp:165] Memory required for data: 3647533288
I0413 18:44:00.496182 13926 layer_factory.hpp:77] Creating layer roi-pool
I0413 18:44:00.496197 13926 net.cpp:100] Creating Layer roi-pool
I0413 18:44:00.496207 13926 net.cpp:434] roi-pool <- conv5_3_relu5_3_0_split_1
I0413 18:44:00.496217 13926 net.cpp:434] roi-pool <- rois
I0413 18:44:00.496224 13926 net.cpp:408] roi-pool -> roi-pool
I0413 18:44:00.496237 13926 roi_pooling_layer.cpp:33] Spatial scale: 0.0625
I0413 18:44:00.496253 13926 roi_pooling_layer.cpp:34] Box scale: 1
I0413 18:44:00.496309 13926 net.cpp:150] Setting up roi-pool
I0413 18:44:00.496322 13926 net.cpp:157] Top shape: 1 512 7 7 (25088)
I0413 18:44:00.496330 13926 net.cpp:165] Memory required for data: 3647633640
I0413 18:44:00.496335 13926 layer_factory.hpp:77] Creating layer fc6
I0413 18:44:00.496345 13926 net.cpp:100] Creating Layer fc6
I0413 18:44:00.496353 13926 net.cpp:434] fc6 <- roi-pool
I0413 18:44:00.496361 13926 net.cpp:408] fc6 -> fc6
I0413 18:44:00.658352 13926 net.cpp:150] Setting up fc6
I0413 18:44:00.658387 13926 net.cpp:157] Top shape: 1 4096 (4096)
I0413 18:44:00.658401 13926 net.cpp:165] Memory required for data: 3647650024
I0413 18:44:00.658411 13926 layer_factory.hpp:77] Creating layer relu6
I0413 18:44:00.658423 13926 net.cpp:100] Creating Layer relu6
I0413 18:44:00.658428 13926 net.cpp:434] relu6 <- fc6
I0413 18:44:00.658437 13926 net.cpp:395] relu6 -> fc6 (in-place)
I0413 18:44:00.658447 13926 net.cpp:150] Setting up relu6
I0413 18:44:00.658453 13926 net.cpp:157] Top shape: 1 4096 (4096)
I0413 18:44:00.658458 13926 net.cpp:165] Memory required for data: 3647666408
I0413 18:44:00.658463 13926 layer_factory.hpp:77] Creating layer drop6
I0413 18:44:00.658473 13926 net.cpp:100] Creating Layer drop6
I0413 18:44:00.658479 13926 net.cpp:434] drop6 <- fc6
I0413 18:44:00.658486 13926 net.cpp:395] drop6 -> fc6 (in-place)
I0413 18:44:00.658517 13926 net.cpp:150] Setting up drop6
I0413 18:44:00.658525 13926 net.cpp:157] Top shape: 1 4096 (4096)
I0413 18:44:00.658530 13926 net.cpp:165] Memory required for data: 3647682792
I0413 18:44:00.658535 13926 layer_factory.hpp:77] Creating layer fc7
I0413 18:44:00.658545 13926 net.cpp:100] Creating Layer fc7
I0413 18:44:00.658550 13926 net.cpp:434] fc7 <- fc6
I0413 18:44:00.658558 13926 net.cpp:408] fc7 -> fc7
I0413 18:44:00.686813 13926 net.cpp:150] Setting up fc7
I0413 18:44:00.686854 13926 net.cpp:157] Top shape: 1 4096 (4096)
I0413 18:44:00.686858 13926 net.cpp:165] Memory required for data: 3647699176
I0413 18:44:00.686869 13926 layer_factory.hpp:77] Creating layer relu7
I0413 18:44:00.686897 13926 net.cpp:100] Creating Layer relu7
I0413 18:44:00.686906 13926 net.cpp:434] relu7 <- fc7
I0413 18:44:00.686918 13926 net.cpp:395] relu7 -> fc7 (in-place)
I0413 18:44:00.686930 13926 net.cpp:150] Setting up relu7
I0413 18:44:00.686939 13926 net.cpp:157] Top shape: 1 4096 (4096)
I0413 18:44:00.686944 13926 net.cpp:165] Memory required for data: 3647715560
I0413 18:44:00.686949 13926 layer_factory.hpp:77] Creating layer drop7
I0413 18:44:00.686959 13926 net.cpp:100] Creating Layer drop7
I0413 18:44:00.686964 13926 net.cpp:434] drop7 <- fc7
I0413 18:44:00.686971 13926 net.cpp:395] drop7 -> fc7 (in-place)
I0413 18:44:00.687001 13926 net.cpp:150] Setting up drop7
I0413 18:44:00.687011 13926 net.cpp:157] Top shape: 1 4096 (4096)
I0413 18:44:00.687016 13926 net.cpp:165] Memory required for data: 3647731944
I0413 18:44:00.687021 13926 layer_factory.hpp:77] Creating layer fc7_drop7_0_split
I0413 18:44:00.687029 13926 net.cpp:100] Creating Layer fc7_drop7_0_split
I0413 18:44:00.687034 13926 net.cpp:434] fc7_drop7_0_split <- fc7
I0413 18:44:00.687047 13926 net.cpp:408] fc7_drop7_0_split -> fc7_drop7_0_split_0
I0413 18:44:00.687072 13926 net.cpp:408] fc7_drop7_0_split -> fc7_drop7_0_split_1
I0413 18:44:00.687119 13926 net.cpp:150] Setting up fc7_drop7_0_split
I0413 18:44:00.687132 13926 net.cpp:157] Top shape: 1 4096 (4096)
I0413 18:44:00.687140 13926 net.cpp:157] Top shape: 1 4096 (4096)
I0413 18:44:00.687145 13926 net.cpp:165] Memory required for data: 3647764712
I0413 18:44:00.687150 13926 layer_factory.hpp:77] Creating layer bbox_pred
I0413 18:44:00.687161 13926 net.cpp:100] Creating Layer bbox_pred
I0413 18:44:00.687166 13926 net.cpp:434] bbox_pred <- fc7_drop7_0_split_0
I0413 18:44:00.687178 13926 net.cpp:408] bbox_pred -> bbox_pred
I0413 18:44:00.687820 13926 net.cpp:150] Setting up bbox_pred
I0413 18:44:00.687834 13926 net.cpp:157] Top shape: 1 8 (8)
I0413 18:44:00.687837 13926 net.cpp:165] Memory required for data: 3647764744
I0413 18:44:00.687846 13926 layer_factory.hpp:77] Creating layer loss_bbox
I0413 18:44:00.687858 13926 net.cpp:100] Creating Layer loss_bbox
I0413 18:44:00.687865 13926 net.cpp:434] loss_bbox <- bbox_pred
I0413 18:44:00.687872 13926 net.cpp:434] loss_bbox <- bbox_targets
I0413 18:44:00.687880 13926 net.cpp:434] loss_bbox <- bbox_inside_weights
I0413 18:44:00.687885 13926 net.cpp:434] loss_bbox <- bbox_outside_weights
I0413 18:44:00.687896 13926 net.cpp:408] loss_bbox -> loss_bbox
I0413 18:44:00.688004 13926 net.cpp:150] Setting up loss_bbox
I0413 18:44:00.688014 13926 net.cpp:157] Top shape: (1)
I0413 18:44:00.688019 13926 net.cpp:160]     with loss weight 1
I0413 18:44:00.688033 13926 net.cpp:165] Memory required for data: 3647764748
I0413 18:44:00.688040 13926 layer_factory.hpp:77] Creating layer feat
I0413 18:44:00.688050 13926 net.cpp:100] Creating Layer feat
I0413 18:44:00.688056 13926 net.cpp:434] feat <- fc7_drop7_0_split_1
I0413 18:44:00.688066 13926 net.cpp:408] feat -> feat
I0413 18:44:00.699589 13926 net.cpp:150] Setting up feat
I0413 18:44:00.699616 13926 net.cpp:157] Top shape: 1 256 (256)
I0413 18:44:00.699628 13926 net.cpp:165] Memory required for data: 3647765772
I0413 18:44:00.699640 13926 layer_factory.hpp:77] Creating layer relu8
I0413 18:44:00.699650 13926 net.cpp:100] Creating Layer relu8
I0413 18:44:00.699654 13926 net.cpp:434] relu8 <- feat
I0413 18:44:00.699666 13926 net.cpp:395] relu8 -> feat (in-place)
I0413 18:44:00.699678 13926 net.cpp:150] Setting up relu8
I0413 18:44:00.699687 13926 net.cpp:157] Top shape: 1 256 (256)
I0413 18:44:00.699692 13926 net.cpp:165] Memory required for data: 3647766796
I0413 18:44:00.699695 13926 layer_factory.hpp:77] Creating layer drop8
I0413 18:44:00.699704 13926 net.cpp:100] Creating Layer drop8
I0413 18:44:00.699712 13926 net.cpp:434] drop8 <- feat
I0413 18:44:00.699718 13926 net.cpp:395] drop8 -> feat (in-place)
I0413 18:44:00.699748 13926 net.cpp:150] Setting up drop8
I0413 18:44:00.699759 13926 net.cpp:157] Top shape: 1 256 (256)
I0413 18:44:00.699765 13926 net.cpp:165] Memory required for data: 3647767820
I0413 18:44:00.699770 13926 layer_factory.hpp:77] Creating layer pid_score
I0413 18:44:00.699782 13926 net.cpp:100] Creating Layer pid_score
I0413 18:44:00.699789 13926 net.cpp:434] pid_score <- feat
I0413 18:44:00.699797 13926 net.cpp:408] pid_score -> pid_score
I0413 18:44:00.715117 13926 net.cpp:150] Setting up pid_score
I0413 18:44:00.715147 13926 net.cpp:157] Top shape: 1 5533 (5533)
I0413 18:44:00.715150 13926 net.cpp:165] Memory required for data: 3647789952
I0413 18:44:00.715163 13926 layer_factory.hpp:77] Creating layer pid_loss
I0413 18:44:00.715180 13926 net.cpp:100] Creating Layer pid_loss
I0413 18:44:00.715188 13926 net.cpp:434] pid_loss <- pid_score
I0413 18:44:00.715198 13926 net.cpp:434] pid_loss <- pid_label
I0413 18:44:00.715206 13926 net.cpp:408] pid_loss -> pid_loss
…
