…
I0406 15:15:06.004521  6239 solver.cpp:48] Initializing solver from parameters: 
base_lr: 0.001
display: 20
lr_policy: "multistep"
gamma: 0.1
momentum: 0.9
weight_decay: 0.0005
snapshot: 0
snapshot_prefix: "faces_example"
net_param {
  name: "GeneratedModel_06_04_2017_15_15"
  layer {
    name: "input"
    type: "Python"
    top: "input_data"
    top: "input_im_info"
    top: "input_gt_boxes"
    top: "input_ignored_boxes"
    python_param {
      module: "layers.roi_data_layer"
      layer: "RoIDataLayer"
      param_str: "{\"num_classes\": 2}"
    }
  }
  layer {
    name: "conv1_1"
    type: "Convolution"
    bottom: "input_data"
    top: "conv1_1"
    param {
      lr_mult: 0
      decay_mult: 0
    }
    param {
      lr_mult: 0
      decay_mult: 0
    }
    convolution_param {
      num_output: 64
      pad: 1
      kernel_size: 3
    }
  }
  layer {
    name: "relu1_1"
    type: "ReLU"
    bottom: "conv1_1"
    top: "conv1_1"
  }
  layer {
    name: "conv1_2"
    type: "Convolution"
    bottom: "conv1_1"
    top: "conv1_2"
    param {
      lr_mult: 0
      decay_mult: 0
    }
    param {
      lr_mult: 0
      decay_mult: 0
    }
    convolution_param {
      num_output: 64
      pad: 1
      kernel_size: 3
    }
  }
  layer {
    name: "relu1_2"
    type: "ReLU"
    bottom: "conv1_2"
    top: "conv1_2"
  }
  layer {
    name: "pool1"
    type: "Pooling"
    bottom: "conv1_2"
    top: "pool1"
    pooling_param {
      pool: MAX
      kernel_size: 2
      stride: 2
    }
  }
  layer {
    name: "conv2_1"
    type: "Convolution"
    bottom: "pool1"
    top: "conv2_1"
    param {
      lr_mult: 0
      decay_mult: 0
    }
    param {
      lr_mult: 0
      decay_mult: 0
    }
    convolution_param {
      num_output: 128
      pad: 1
      kernel_size: 3
    }
  }
  layer {
    name: "relu2_1"
    type: "ReLU"
    bottom: "conv2_1"
    top: "conv2_1"
  }
  layer {
    name: "conv2_2"
    type: "Convolution"
    bottom: "conv2_1"
    top: "conv2_2"
    param {
      lr_mult: 0
      decay_mult: 0
    }
    param {
      lr_mult: 0
      decay_mult: 0
    }
    convolution_param {
      num_output: 128
      pad: 1
      kernel_size: 3
    }
  }
  layer {
    name: "relu2_2"
    type: "ReLU"
    bottom: "conv2_2"
    top: "conv2_2"
  }
  layer {
    name: "pool2"
    type: "Pooling"
    bottom: "conv2_2"
    top: "pool2"
    pooling_param {
      pool: MAX
      kernel_size: 2
      stride: 2
    }
  }
  layer {
    name: "conv3_1"
    type: "Convolution"
    bottom: "pool2"
    top: "conv3_1"
    param {
      lr_mult: 1
    }
    param {
      lr_mult: 2
    }
    convolution_param {
      num_output: 256
      pad: 1
      kernel_size: 3
    }
  }
  layer {
    name: "relu3_1"
    type: "ReLU"
    bottom: "conv3_1"
    top: "conv3_1"
  }
  layer {
    name: "conv3_2"
    type: "Convolution"
    bottom: "conv3_1"
    top: "conv3_2"
    param {
      lr_mult: 1
    }
    param {
      lr_mult: 2
    }
    convolution_param {
      num_output: 256
      pad: 1
      kernel_size: 3
    }
  }
  layer {
    name: "relu3_2"
    type: "ReLU"
    bottom: "conv3_2"
    top: "conv3_2"
  }
  layer {
    name: "conv3_3"
    type: "Convolution"
    bottom: "conv3_2"
    top: "conv3_3"
    param {
      lr_mult: 1
    }
    param {
      lr_mult: 2
    }
    convolution_param {
      num_output: 256
      pad: 1
      kernel_size: 3
    }
  }
  layer {
    name: "relu3_3"
    type: "ReLU"
    bottom: "conv3_3"
    top: "conv3_3"
  }
  layer {
    name: "pool3"
    type: "Pooling"
    bottom: "conv3_3"
    top: "pool3"
    pooling_param {
      pool: MAX
      kernel_size: 2
      stride: 2
    }
  }
  layer {
    name: "conv4_1"
    type: "Convolution"
    bottom: "pool3"
    top: "conv4_1"
    param {
      lr_mult: 1
    }
    param {
      lr_mult: 2
    }
    convolution_param {
      num_output: 512
      pad: 1
      kernel_size: 3
    }
  }
  layer {
    name: "relu4_1"
    type: "ReLU"
    bottom: "conv4_1"
    top: "conv4_1"
  }
  layer {
    name: "conv4_2"
    type: "Convolution"
    bottom: "conv4_1"
    top: "conv4_2"
    param {
      lr_mult: 1
    }
    param {
      lr_mult: 2
    }
    convolution_param {
      num_output: 512
      pad: 1
      kernel_size: 3
    }
  }
  layer {
    name: "relu4_2"
    type: "ReLU"
    bottom: "conv4_2"
    top: "conv4_2"
  }
  layer {
    name: "conv4_3"
    type: "Convolution"
    bottom: "conv4_2"
    top: "conv4_3"
    param {
      lr_mult: 1
    }
    param {
      lr_mult: 2
    }
    convolution_param {
      num_output: 512
      pad: 1
      kernel_size: 3
    }
  }
  layer {
    name: "relu4_3"
    type: "ReLU"
    bottom: "conv4_3"
    top: "conv4_3"
  }
  layer {
    name: "pool4"
    type: "Pooling"
    bottom: "conv4_3"
    top: "pool4"
    pooling_param {
      pool: MAX
      kernel_size: 2
      stride: 2
    }
  }
  layer {
    name: "conv5_1"
    type: "Convolution"
    bottom: "pool4"
    top: "conv5_1"
    param {
      lr_mult: 1
    }
    param {
      lr_mult: 2
    }
    convolution_param {
      num_output: 512
      pad: 1
      kernel_size: 3
    }
  }
  layer {
    name: "relu5_1"
    type: "ReLU"
    bottom: "conv5_1"
    top: "conv5_1"
  }
  layer {
    name: "conv5_2"
    type: "Convolution"
    bottom: "conv5_1"
    top: "conv5_2"
    param {
      lr_mult: 1
    }
    param {
      lr_mult: 2
    }
    convolution_param {
      num_output: 512
      pad: 1
      kernel_size: 3
    }
  }
  layer {
    name: "relu5_2"
    type: "ReLU"
    bottom: "conv5_2"
    top: "conv5_2"
  }
  layer {
    name: "conv5_3"
    type: "Convolution"
    bottom: "conv5_2"
    top: "conv5_3"
    param {
      lr_mult: 1
    }
    param {
      lr_mult: 2
    }
    convolution_param {
      num_output: 512
      pad: 1
      kernel_size: 3
    }
  }
  layer {
    name: "relu5_3"
    type: "ReLU"
    bottom: "conv5_3"
    top: "conv5_3"
  }
  layer {
    name: "rpn_big_conv1"
    type: "Convolution"
    bottom: "conv5_3"
    top: "rpn_big_conv1"
    param {
      lr_mult: 1
    }
    param {
      lr_mult: 2
    }
    convolution_param {
      num_output: 512
      pad: 1
      kernel_size: 3
      stride: 1
      weight_filler {
        type: "gaussian"
        mean: 0
        std: 0.01
      }
      bias_filler {
        type: "constant"
      }
    }
  }
  layer {
    name: "rpn_big_conv1_relu"
    type: "ReLU"
    bottom: "rpn_big_conv1"
    top: "rpn_big_conv1"
    relu_param {
      negative_slope: 0
    }
  }
  layer {
    name: "rpn_big_conv2"
    type: "Convolution"
    bottom: "rpn_big_conv1"
    top: "rpn_big_conv2"
    param {
      lr_mult: 1
    }
    param {
      lr_mult: 2
    }
    convolution_param {
      num_output: 512
      pad: 1
      kernel_size: 3
      stride: 1
      weight_filler {
        type: "gaussian"
        mean: 0
        std: 0.01
      }
      bias_filler {
        type: "constant"
      }
    }
  }
  layer {
    name: "rpn_big_conv2_relu"
    type: "ReLU"
    bottom: "rpn_big_conv2"
    top: "rpn_big_conv2"
    relu_param {
      negative_slope: 0
    }
  }
  layer {
    name: "rpn_big_conv2_drop"
    type: "Dropout"
    bottom: "rpn_big_conv2"
    top: "rpn_big_conv2"
    dropout_param {
      dropout_ratio: 0.3
    }
  }
  layer {
    name: "rpn_big_output_cls"
    type: "Convolution"
    bottom: "rpn_big_conv2"
    top: "rpn_big_output_cls"
    param {
      lr_mult: 1
    }
    param {
      lr_mult: 2
    }
    convolution_param {
      num_output: 384
      pad: 1
      kernel_size: 3
      stride: 1
      weight_filler {
        type: "gaussian"
        mean: 0
        std: 0.01
      }
      bias_filler {
        type: "constant"
      }
    }
  }
  layer {
    name: "rpn_big_output_cls_relu"
    type: "ReLU"
    bottom: "rpn_big_output_cls"
    top: "rpn_big_output_cls"
    relu_param {
      negative_slope: 0
    }
  }
  layer {
    name: "rpn_big_cls_score"
    type: "Convolution"
    bottom: "rpn_big_output_cls"
    top: "rpn_big_cls_score"
    param {
      lr_mult: 1
    }
    param {
      lr_mult: 2
    }
    convolution_param {
      num_output: 52
      pad: 0
      kernel_size: 3
      stride: 1
      weight_filler {
        type: "gaussian"
        mean: 0
        std: 0.01
      }
      bias_filler {
        type: "constant"
      }
    }
  }
  layer {
    name: "rpn_big_cls_score_reshape"
    type: "Reshape"
    bottom: "rpn_big_cls_score"
    top: "rpn_big_cls_score_reshape"
    reshape_param {
      shape {
        dim: 0
        dim: 2
        dim: -1
        dim: 0
      }
    }
  }
  layer {
    name: "rpn_big_cls_prob"
    type: "Softmax"
    bottom: "rpn_big_cls_score_reshape"
    top: "rpn_big_cls_prob"
  }
  layer {
    name: "rpn_big_cls_prob_reshape"
    type: "Reshape"
    bottom: "rpn_big_cls_prob"
    top: "rpn_big_cls_prob_reshape"
    reshape_param {
      shape {
        dim: 0
        dim: 52
        dim: -1
        dim: 0
      }
    }
  }
  layer {
    name: "rpn_big_anchor_target"
    type: "Python"
    bottom: "rpn_big_cls_score"
    bottom: "input_gt_boxes"
    bottom: "input_ignored_boxes"
    bottom: "input_im_info"
    bottom: "input_data"
    bottom: "rpn_big_cls_prob_reshape"
    top: "rpn_big_anchor_target_labels"
    top: "rpn_big_anchor_target_bbox_targets"
    top: "rpn_big_anchor_target_inside_weights"
    top: "rpn_big_anchor_target_outside_weights"
    python_param {
      module: "rpn.anchor_target_layer"
      layer: "AnchorTargetLayer"
      param_str: "{\"square_targets\": true, \"anchor_ratios\": [1.0], \"positive_overlap\": 0.6, \"tn_fraction\": 0.2, \"anchor_shift_num_xy\": [[2, 2], [2, 2], [2, 2], [2, 2], [1, 1], [1, 1], [1, 1], [1, 1], [1, 1], [1, 1], [1, 1], [1, 1], [1, 1], [1, 1]], \"anchor_scales\": [2.5, 3.025, 3.66025, 4.4289024999999995, 5.358972025, 6.484356150249999, 7.846070941802498, 9.493745839581022, 11.487432465893036, 13.899793283730574, 16.818749873313998, 20.350687346709933, 24.62433168951902, 29.795441344318014], \"batchsize\": 256, \"negative_overlap\": 0.4, \"num_classes\": 1, \"feat_stride\": 16, \"fg_fraction\": 0.5, \"name\": \"rpn_big\"}"
    }
  }
  layer {
    name: "rpn_big_loss_cls"
    type: "SoftmaxWithLoss"
    bottom: "rpn_big_cls_score_reshape"
    bottom: "rpn_big_anchor_target_labels"
    top: "rpn_big_loss_cls"
    loss_weight: 1
    propagate_down: true
    propagate_down: false
    loss_param {
      ignore_label: -1
      normalization: VALID
    }
  }
  layer {
    name: "rpn_big_output_box"
    type: "Convolution"
    bottom: "rpn_big_conv2"
    top: "rpn_big_output_box"
    param {
      lr_mult: 1
    }
    param {
      lr_mult: 2
    }
    convolution_param {
      num_output: 384
      pad: 1
      kernel_size: 3
      stride: 1
      weight_filler {
        type: "gaussian"
        mean: 0
        std: 0.01
      }
      bias_filler {
        type: "constant"
      }
    }
  }
  layer {
    name: "rpn_big_output_box_relu"
    type: "ReLU"
    bottom: "rpn_big_output_box"
    top: "rpn_big_output_box"
    relu_param {
      negative_slope: 0
    }
  }
  layer {
    name: "rpn_big_bbox_pred"
    type: "Convolution"
    bottom: "rpn_big_output_box"
    top: "rpn_big_bbox_pred"
    param {
      lr_mult: 1
    }
    param {
      lr_mult: 2
    }
    convolution_param {
      num_output: 104
      pad: 0
      kernel_size: 3
      stride: 1
      weight_filler {
        type: "gaussian"
        mean: 0
        std: 0.01
      }
      bias_filler {
        type: "constant"
      }
    }
  }
  layer {
    name: "rpn_big_loss_bbox"
    type: "Python"
    bottom: "rpn_big_bbox_pred"
    bottom: "rpn_big_anchor_target_bbox_targets"
    bottom: "rpn_big_anchor_target_inside_weights"
    bottom: "rpn_big_anchor_target_outside_weights"
    top: "rpn_big_loss_bbox"
    loss_weight: 1
    python_param {
      module: "layers.smooth_l1_loss"
      layer: "SmoothL1LossLayer"
      param_str: "{\"sigma\": 3}"
    }
  }
}
average_loss: 100
stepvalue: 70000
stepvalue: 120000
iter_size: 2
I0406 15:15:06.004637  6239 solver.cpp:86] Creating training net specified in net_param.
I0406 15:15:06.005143  6239 net.cpp:49] Initializing net from parameters: 
name: "GeneratedModel_06_04_2017_15_15"
state {
  phase: TRAIN
}
layer {
  name: "input"
  type: "Python"
  top: "input_data"
  top: "input_im_info"
  top: "input_gt_boxes"
  top: "input_ignored_boxes"
  python_param {
    module: "layers.roi_data_layer"
    layer: "RoIDataLayer"
    param_str: "{\"num_classes\": 2}"
  }
}
layer {
  name: "conv1_1"
  type: "Convolution"
  bottom: "input_data"
  top: "conv1_1"
  param {
    lr_mult: 0
    decay_mult: 0
  }
  param {
    lr_mult: 0
    decay_mult: 0
  }
  convolution_param {
    num_output: 64
    pad: 1
    kernel_size: 3
  }
}
layer {
  name: "relu1_1"
  type: "ReLU"
  bottom: "conv1_1"
  top: "conv1_1"
}
layer {
  name: "conv1_2"
  type: "Convolution"
  bottom: "conv1_1"
  top: "conv1_2"
  param {
    lr_mult: 0
    decay_mult: 0
  }
  param {
    lr_mult: 0
    decay_mult: 0
  }
  convolution_param {
    num_output: 64
    pad: 1
    kernel_size: 3
  }
}
layer {
  name: "relu1_2"
  type: "ReLU"
  bottom: "conv1_2"
  top: "conv1_2"
}
layer {
  name: "pool1"
  type: "Pooling"
  bottom: "conv1_2"
  top: "pool1"
  pooling_param {
    pool: MAX
    kernel_size: 2
    stride: 2
  }
}
layer {
  name: "conv2_1"
  type: "Convolution"
  bottom: "pool1"
  top: "conv2_1"
  param {
    lr_mult: 0
    decay_mult: 0
  }
  param {
    lr_mult: 0
    decay_mult: 0
  }
  convolution_param {
    num_output: 128
    pad: 1
    kernel_size: 3
  }
}
layer {
  name: "relu2_1"
  type: "ReLU"
  bottom: "conv2_1"
  top: "conv2_1"
}
layer {
  name: "conv2_2"
  type: "Convolution"
  bottom: "conv2_1"
  top: "conv2_2"
  param {
    lr_mult: 0
    decay_mult: 0
  }
  param {
    lr_mult: 0
    decay_mult: 0
  }
  convolution_param {
    num_output: 128
    pad: 1
    kernel_size: 3
  }
}
layer {
  name: "relu2_2"
  type: "ReLU"
  bottom: "conv2_2"
  top: "conv2_2"
}
layer {
  name: "pool2"
  type: "Pooling"
  bottom: "conv2_2"
  top: "pool2"
  pooling_param {
    pool: MAX
    kernel_size: 2
    stride: 2
  }
}
layer {
  name: "conv3_1"
  type: "Convolution"
  bottom: "pool2"
  top: "conv3_1"
  param {
    lr_mult: 1
  }
  param {
    lr_mult: 2
  }
  convolution_param {
    num_output: 256
    pad: 1
    kernel_size: 3
  }
}
layer {
  name: "relu3_1"
  type: "ReLU"
  bottom: "conv3_1"
  top: "conv3_1"
}
layer {
  name: "conv3_2"
  type: "Convolution"
  bottom: "conv3_1"
  top: "conv3_2"
  param {
    lr_mult: 1
  }
  param {
    lr_mult: 2
  }
  convolution_param {
    num_output: 256
    pad: 1
    kernel_size: 3
  }
}
layer {
  name: "relu3_2"
  type: "ReLU"
  bottom: "conv3_2"
  top: "conv3_2"
}
layer {
  name: "conv3_3"
  type: "Convolution"
  bottom: "conv3_2"
  top: "conv3_3"
  param {
    lr_mult: 1
  }
  param {
    lr_mult: 2
  }
  convolution_param {
    num_output: 256
    pad: 1
    kernel_size: 3
  }
}
layer {
  name: "relu3_3"
  type: "ReLU"
  bottom: "conv3_3"
  top: "conv3_3"
}
layer {
  name: "pool3"
  type: "Pooling"
  bottom: "conv3_3"
  top: "pool3"
  pooling_param {
    pool: MAX
    kernel_size: 2
    stride: 2
  }
}
layer {
  name: "conv4_1"
  type: "Convolution"
  bottom: "pool3"
  top: "conv4_1"
  param {
    lr_mult: 1
  }
  param {
    lr_mult: 2
  }
  convolution_param {
    num_output: 512
    pad: 1
    kernel_size: 3
  }
}
layer {
  name: "relu4_1"
  type: "ReLU"
  bottom: "conv4_1"
  top: "conv4_1"
}
layer {
  name: "conv4_2"
  type: "Convolution"
  bottom: "conv4_1"
  top: "conv4_2"
  param {
    lr_mult: 1
  }
  param {
    lr_mult: 2
  }
  convolution_param {
    num_output: 512
    pad: 1
    kernel_size: 3
  }
}
layer {
  name: "relu4_2"
  type: "ReLU"
  bottom: "conv4_2"
  top: "conv4_2"
}
layer {
  name: "conv4_3"
  type: "Convolution"
  bottom: "conv4_2"
  top: "conv4_3"
  param {
    lr_mult: 1
  }
  param {
    lr_mult: 2
  }
  convolution_param {
    num_output: 512
    pad: 1
    kernel_size: 3
  }
}
layer {
  name: "relu4_3"
  type: "ReLU"
  bottom: "conv4_3"
  top: "conv4_3"
}
layer {
  name: "pool4"
  type: "Pooling"
  bottom: "conv4_3"
  top: "pool4"
  pooling_param {
    pool: MAX
    kernel_size: 2
    stride: 2
  }
}
layer {
  name: "conv5_1"
  type: "Convolution"
  bottom: "pool4"
  top: "conv5_1"
  param {
    lr_mult: 1
  }
  param {
    lr_mult: 2
  }
  convolution_param {
    num_output: 512
    pad: 1
    kernel_size: 3
  }
}
layer {
  name: "relu5_1"
  type: "ReLU"
  bottom: "conv5_1"
  top: "conv5_1"
}
layer {
  name: "conv5_2"
  type: "Convolution"
  bottom: "conv5_1"
  top: "conv5_2"
  param {
    lr_mult: 1
  }
  param {
    lr_mult: 2
  }
  convolution_param {
    num_output: 512
    pad: 1
    kernel_size: 3
  }
}
layer {
  name: "relu5_2"
  type: "ReLU"
  bottom: "conv5_2"
  top: "conv5_2"
}
layer {
  name: "conv5_3"
  type: "Convolution"
  bottom: "conv5_2"
  top: "conv5_3"
  param {
    lr_mult: 1
  }
  param {
    lr_mult: 2
  }
  convolution_param {
    num_output: 512
    pad: 1
    kernel_size: 3
  }
}
layer {
  name: "relu5_3"
  type: "ReLU"
  bottom: "conv5_3"
  top: "conv5_3"
}
layer {
  name: "rpn_big_conv1"
  type: "Convolution"
  bottom: "conv5_3"
  top: "rpn_big_conv1"
  param {
    lr_mult: 1
  }
  param {
    lr_mult: 2
  }
  convolution_param {
    num_output: 512
    pad: 1
    kernel_size: 3
    stride: 1
    weight_filler {
      type: "gaussian"
      mean: 0
      std: 0.01
    }
    bias_filler {
      type: "constant"
    }
  }
}
layer {
  name: "rpn_big_conv1_relu"
  type: "ReLU"
  bottom: "rpn_big_conv1"
  top: "rpn_big_conv1"
  relu_param {
    negative_slope: 0
  }
}
layer {
  name: "rpn_big_conv2"
  type: "Convolution"
  bottom: "rpn_big_conv1"
  top: "rpn_big_conv2"
  param {
    lr_mult: 1
  }
  param {
    lr_mult: 2
  }
  convolution_param {
    num_output: 512
    pad: 1
    kernel_size: 3
    stride: 1
    weight_filler {
      type: "gaussian"
      mean: 0
      std: 0.01
    }
    bias_filler {
      type: "constant"
    }
  }
}
layer {
  name: "rpn_big_conv2_relu"
  type: "ReLU"
  bottom: "rpn_big_conv2"
  top: "rpn_big_conv2"
  relu_param {
    negative_slope: 0
  }
}
layer {
  name: "rpn_big_conv2_drop"
  type: "Dropout"
  bottom: "rpn_big_conv2"
  top: "rpn_big_conv2"
  dropout_param {
    dropout_ratio: 0.3
  }
}
layer {
  name: "rpn_big_output_cls"
  type: "Convolution"
  bottom: "rpn_big_conv2"
  top: "rpn_big_output_cls"
  param {
    lr_mult: 1
  }
  param {
    lr_mult: 2
  }
  convolution_param {
    num_output: 384
    pad: 1
    kernel_size: 3
    stride: 1
    weight_filler {
      type: "gaussian"
      mean: 0
      std: 0.01
    }
    bias_filler {
      type: "constant"
    }
  }
}
layer {
  name: "rpn_big_output_cls_relu"
  type: "ReLU"
  bottom: "rpn_big_output_cls"
  top: "rpn_big_output_cls"
  relu_param {
    negative_slope: 0
  }
}
layer {
  name: "rpn_big_cls_score"
  type: "Convolution"
  bottom: "rpn_big_output_cls"
  top: "rpn_big_cls_score"
  param {
    lr_mult: 1
  }
  param {
    lr_mult: 2
  }
  convolution_param {
    num_output: 52
    pad: 0
    kernel_size: 3
    stride: 1
    weight_filler {
      type: "gaussian"
      mean: 0
      std: 0.01
    }
    bias_filler {
      type: "constant"
    }
  }
}
layer {
  name: "rpn_big_cls_score_reshape"
  type: "Reshape"
  bottom: "rpn_big_cls_score"
  top: "rpn_big_cls_score_reshape"
  reshape_param {
    shape {
      dim: 0
      dim: 2
      dim: -1
      dim: 0
    }
  }
}
layer {
  name: "rpn_big_cls_prob"
  type: "Softmax"
  bottom: "rpn_big_cls_score_reshape"
  top: "rpn_big_cls_prob"
}
layer {
  name: "rpn_big_cls_prob_reshape"
  type: "Reshape"
  bottom: "rpn_big_cls_prob"
  top: "rpn_big_cls_prob_reshape"
  reshape_param {
    shape {
      dim: 0
      dim: 52
      dim: -1
      dim: 0
    }
  }
}
layer {
  name: "rpn_big_anchor_target"
  type: "Python"
  bottom: "rpn_big_cls_score"
  bottom: "input_gt_boxes"
  bottom: "input_ignored_boxes"
  bottom: "input_im_info"
  bottom: "input_data"
  bottom: "rpn_big_cls_prob_reshape"
  top: "rpn_big_anchor_target_labels"
  top: "rpn_big_anchor_target_bbox_targets"
  top: "rpn_big_anchor_target_inside_weights"
  top: "rpn_big_anchor_target_outside_weights"
  python_param {
    module: "rpn.anchor_target_layer"
    layer: "AnchorTargetLayer"
    param_str: "{\"square_targets\": true, \"anchor_ratios\": [1.0], \"positive_overlap\": 0.6, \"tn_fraction\": 0.2, \"anchor_shift_num_xy\": [[2, 2], [2, 2], [2, 2], [2, 2], [1, 1], [1, 1], [1, 1], [1, 1], [1, 1], [1, 1], [1, 1], [1, 1], [1, 1], [1, 1]], \"anchor_scales\": [2.5, 3.025, 3.66025, 4.4289024999999995, 5.358972025, 6.484356150249999, 7.846070941802498, 9.493745839581022, 11.487432465893036, 13.899793283730574, 16.818749873313998, 20.350687346709933, 24.62433168951902, 29.795441344318014], \"batchsize\": 256, \"negative_overlap\": 0.4, \"num_classes\": 1, \"feat_stride\": 16, \"fg_fraction\": 0.5, \"name\": \"rpn_big\"}"
  }
}
layer {
  name: "rpn_big_loss_cls"
  type: "SoftmaxWithLoss"
  bottom: "rpn_big_cls_score_reshape"
  bottom: "rpn_big_anchor_target_labels"
  top: "rpn_big_loss_cls"
  loss_weight: 1
  propagate_down: true
  propagate_down: false
  loss_param {
    ignore_label: -1
    normalization: VALID
  }
}
layer {
  name: "rpn_big_output_box"
  type: "Convolution"
  bottom: "rpn_big_conv2"
  top: "rpn_big_output_box"
  param {
    lr_mult: 1
  }
  param {
    lr_mult: 2
  }
  convolution_param {
    num_output: 384
    pad: 1
    kernel_size: 3
    stride: 1
    weight_filler {
      type: "gaussian"
      mean: 0
      std: 0.01
    }
    bias_filler {
      type: "constant"
    }
  }
}
layer {
  name: "rpn_big_output_box_relu"
  type: "ReLU"
  bottom: "rpn_big_output_box"
  top: "rpn_big_output_box"
  relu_param {
    negative_slope: 0
  }
}
layer {
  name: "rpn_big_bbox_pred"
  type: "Convolution"
  bottom: "rpn_big_output_box"
  top: "rpn_big_bbox_pred"
  param {
    lr_mult: 1
  }
  param {
    lr_mult: 2
  }
  convolution_param {
    num_output: 104
    pad: 0
    kernel_size: 3
    stride: 1
    weight_filler {
      type: "gaussian"
      mean: 0
      std: 0.01
    }
    bias_filler {
      type: "constant"
    }
  }
}
layer {
  name: "rpn_big_loss_bbox"
  type: "Python"
  bottom: "rpn_big_bbox_pred"
  bottom: "rpn_big_anchor_target_bbox_targets"
  bottom: "rpn_big_anchor_target_inside_weights"
  bottom: "rpn_big_anchor_target_outside_weights"
  top: "rpn_big_loss_bbox"
  loss_weight: 1
  python_param {
    module: "layers.smooth_l1_loss"
    layer: "SmoothL1LossLayer"
    param_str: "{\"sigma\": 3}"
  }
}
I0406 15:15:06.009665  6239 layer_factory.hpp:77] Creating layer input
I0406 15:15:06.012984  6239 net.cpp:106] Creating Layer input
I0406 15:15:06.013013  6239 net.cpp:411] input -> input_data
I0406 15:15:06.013026  6239 net.cpp:411] input -> input_im_info
I0406 15:15:06.013033  6239 net.cpp:411] input -> input_gt_boxes
I0406 15:15:06.013041  6239 net.cpp:411] input -> input_ignored_boxes
RoiDataLayer: name_to_top: {'im_info': 1, 'data': 0, 'ignored_boxes': 3, 'gt_boxes': 2}
I0406 15:15:06.332813  6239 net.cpp:150] Setting up input
I0406 15:15:06.332839  6239 net.cpp:157] Top shape: 1 3 1000 1500 (4500000)
I0406 15:15:06.332847  6239 net.cpp:157] Top shape: 1 3 (3)
I0406 15:15:06.332854  6239 net.cpp:157] Top shape: 1 5 (5)
I0406 15:15:06.332859  6239 net.cpp:157] Top shape: 1 5 (5)
I0406 15:15:06.332864  6239 net.cpp:165] Memory required for data: 18000052
I0406 15:15:06.332873  6239 layer_factory.hpp:77] Creating layer input_data_input_0_split
I0406 15:15:06.332892  6239 net.cpp:106] Creating Layer input_data_input_0_split
I0406 15:15:06.332900  6239 net.cpp:454] input_data_input_0_split <- input_data
I0406 15:15:06.332911  6239 net.cpp:411] input_data_input_0_split -> input_data_input_0_split_0
I0406 15:15:06.332928  6239 net.cpp:411] input_data_input_0_split -> input_data_input_0_split_1
I0406 15:15:06.332978  6239 net.cpp:150] Setting up input_data_input_0_split
I0406 15:15:06.332989  6239 net.cpp:157] Top shape: 1 3 1000 1500 (4500000)
I0406 15:15:06.332998  6239 net.cpp:157] Top shape: 1 3 1000 1500 (4500000)
I0406 15:15:06.333004  6239 net.cpp:165] Memory required for data: 54000052
I0406 15:15:06.333010  6239 layer_factory.hpp:77] Creating layer conv1_1
I0406 15:15:06.333026  6239 net.cpp:106] Creating Layer conv1_1
I0406 15:15:06.333034  6239 net.cpp:454] conv1_1 <- input_data_input_0_split_0
I0406 15:15:06.333045  6239 net.cpp:411] conv1_1 -> conv1_1
I0406 15:15:06.336359  6239 net.cpp:150] Setting up conv1_1
I0406 15:15:06.336395  6239 net.cpp:157] Top shape: 1 64 1000 1500 (96000000)
I0406 15:15:06.336400  6239 net.cpp:165] Memory required for data: 438000052
I0406 15:15:06.336439  6239 layer_factory.hpp:77] Creating layer relu1_1
I0406 15:15:06.336469  6239 net.cpp:106] Creating Layer relu1_1
I0406 15:15:06.336479  6239 net.cpp:454] relu1_1 <- conv1_1
I0406 15:15:06.336489  6239 net.cpp:397] relu1_1 -> conv1_1 (in-place)
I0406 15:15:06.336504  6239 net.cpp:150] Setting up relu1_1
I0406 15:15:06.336513  6239 net.cpp:157] Top shape: 1 64 1000 1500 (96000000)
I0406 15:15:06.336518  6239 net.cpp:165] Memory required for data: 822000052
I0406 15:15:06.336524  6239 layer_factory.hpp:77] Creating layer conv1_2
I0406 15:15:06.336539  6239 net.cpp:106] Creating Layer conv1_2
I0406 15:15:06.336546  6239 net.cpp:454] conv1_2 <- conv1_1
I0406 15:15:06.336558  6239 net.cpp:411] conv1_2 -> conv1_2
I0406 15:15:06.340705  6239 net.cpp:150] Setting up conv1_2
I0406 15:15:06.340744  6239 net.cpp:157] Top shape: 1 64 1000 1500 (96000000)
I0406 15:15:06.340752  6239 net.cpp:165] Memory required for data: 1206000052
I0406 15:15:06.340775  6239 layer_factory.hpp:77] Creating layer relu1_2
I0406 15:15:06.340790  6239 net.cpp:106] Creating Layer relu1_2
I0406 15:15:06.340801  6239 net.cpp:454] relu1_2 <- conv1_2
I0406 15:15:06.340812  6239 net.cpp:397] relu1_2 -> conv1_2 (in-place)
I0406 15:15:06.340828  6239 net.cpp:150] Setting up relu1_2
I0406 15:15:06.340839  6239 net.cpp:157] Top shape: 1 64 1000 1500 (96000000)
I0406 15:15:06.340847  6239 net.cpp:165] Memory required for data: 1590000052
I0406 15:15:06.340854  6239 layer_factory.hpp:77] Creating layer pool1
I0406 15:15:06.340867  6239 net.cpp:106] Creating Layer pool1
I0406 15:15:06.340875  6239 net.cpp:454] pool1 <- conv1_2
I0406 15:15:06.340884  6239 net.cpp:411] pool1 -> pool1
I0406 15:15:06.340981  6239 net.cpp:150] Setting up pool1
I0406 15:15:06.340993  6239 net.cpp:157] Top shape: 1 64 500 750 (24000000)
I0406 15:15:06.340998  6239 net.cpp:165] Memory required for data: 1686000052
I0406 15:15:06.341004  6239 layer_factory.hpp:77] Creating layer conv2_1
I0406 15:15:06.341022  6239 net.cpp:106] Creating Layer conv2_1
I0406 15:15:06.341029  6239 net.cpp:454] conv2_1 <- pool1
I0406 15:15:06.341039  6239 net.cpp:411] conv2_1 -> conv2_1
I0406 15:15:06.342450  6239 net.cpp:150] Setting up conv2_1
I0406 15:15:06.342473  6239 net.cpp:157] Top shape: 1 128 500 750 (48000000)
I0406 15:15:06.342478  6239 net.cpp:165] Memory required for data: 1878000052
I0406 15:15:06.342495  6239 layer_factory.hpp:77] Creating layer relu2_1
I0406 15:15:06.342511  6239 net.cpp:106] Creating Layer relu2_1
I0406 15:15:06.342519  6239 net.cpp:454] relu2_1 <- conv2_1
I0406 15:15:06.342527  6239 net.cpp:397] relu2_1 -> conv2_1 (in-place)
I0406 15:15:06.342540  6239 net.cpp:150] Setting up relu2_1
I0406 15:15:06.342548  6239 net.cpp:157] Top shape: 1 128 500 750 (48000000)
I0406 15:15:06.342555  6239 net.cpp:165] Memory required for data: 2070000052
I0406 15:15:06.342559  6239 layer_factory.hpp:77] Creating layer conv2_2
I0406 15:15:06.342572  6239 net.cpp:106] Creating Layer conv2_2
I0406 15:15:06.342579  6239 net.cpp:454] conv2_2 <- conv2_1
I0406 15:15:06.342589  6239 net.cpp:411] conv2_2 -> conv2_2
I0406 15:15:06.343626  6239 net.cpp:150] Setting up conv2_2
I0406 15:15:06.343646  6239 net.cpp:157] Top shape: 1 128 500 750 (48000000)
I0406 15:15:06.343649  6239 net.cpp:165] Memory required for data: 2262000052
I0406 15:15:06.343659  6239 layer_factory.hpp:77] Creating layer relu2_2
I0406 15:15:06.343672  6239 net.cpp:106] Creating Layer relu2_2
I0406 15:15:06.343679  6239 net.cpp:454] relu2_2 <- conv2_2
I0406 15:15:06.343693  6239 net.cpp:397] relu2_2 -> conv2_2 (in-place)
I0406 15:15:06.343703  6239 net.cpp:150] Setting up relu2_2
I0406 15:15:06.343711  6239 net.cpp:157] Top shape: 1 128 500 750 (48000000)
I0406 15:15:06.343719  6239 net.cpp:165] Memory required for data: 2454000052
I0406 15:15:06.343724  6239 layer_factory.hpp:77] Creating layer pool2
I0406 15:15:06.343734  6239 net.cpp:106] Creating Layer pool2
I0406 15:15:06.343739  6239 net.cpp:454] pool2 <- conv2_2
I0406 15:15:06.343750  6239 net.cpp:411] pool2 -> pool2
I0406 15:15:06.343804  6239 net.cpp:150] Setting up pool2
I0406 15:15:06.343816  6239 net.cpp:157] Top shape: 1 128 250 375 (12000000)
I0406 15:15:06.343822  6239 net.cpp:165] Memory required for data: 2502000052
I0406 15:15:06.343827  6239 layer_factory.hpp:77] Creating layer conv3_1
I0406 15:15:06.343840  6239 net.cpp:106] Creating Layer conv3_1
I0406 15:15:06.343847  6239 net.cpp:454] conv3_1 <- pool2
I0406 15:15:06.343858  6239 net.cpp:411] conv3_1 -> conv3_1
I0406 15:15:06.345139  6239 net.cpp:150] Setting up conv3_1
I0406 15:15:06.345163  6239 net.cpp:157] Top shape: 1 256 250 375 (24000000)
I0406 15:15:06.345167  6239 net.cpp:165] Memory required for data: 2598000052
I0406 15:15:06.345183  6239 layer_factory.hpp:77] Creating layer relu3_1
I0406 15:15:06.345199  6239 net.cpp:106] Creating Layer relu3_1
I0406 15:15:06.345206  6239 net.cpp:454] relu3_1 <- conv3_1
I0406 15:15:06.345216  6239 net.cpp:397] relu3_1 -> conv3_1 (in-place)
I0406 15:15:06.345228  6239 net.cpp:150] Setting up relu3_1
I0406 15:15:06.345237  6239 net.cpp:157] Top shape: 1 256 250 375 (24000000)
I0406 15:15:06.345242  6239 net.cpp:165] Memory required for data: 2694000052
I0406 15:15:06.345247  6239 layer_factory.hpp:77] Creating layer conv3_2
I0406 15:15:06.345263  6239 net.cpp:106] Creating Layer conv3_2
I0406 15:15:06.345269  6239 net.cpp:454] conv3_2 <- conv3_1
I0406 15:15:06.345278  6239 net.cpp:411] conv3_2 -> conv3_2
I0406 15:15:06.346592  6239 net.cpp:150] Setting up conv3_2
I0406 15:15:06.346617  6239 net.cpp:157] Top shape: 1 256 250 375 (24000000)
I0406 15:15:06.346621  6239 net.cpp:165] Memory required for data: 2790000052
I0406 15:15:06.346631  6239 layer_factory.hpp:77] Creating layer relu3_2
I0406 15:15:06.346642  6239 net.cpp:106] Creating Layer relu3_2
I0406 15:15:06.346650  6239 net.cpp:454] relu3_2 <- conv3_2
I0406 15:15:06.346662  6239 net.cpp:397] relu3_2 -> conv3_2 (in-place)
I0406 15:15:06.346675  6239 net.cpp:150] Setting up relu3_2
I0406 15:15:06.346683  6239 net.cpp:157] Top shape: 1 256 250 375 (24000000)
I0406 15:15:06.346688  6239 net.cpp:165] Memory required for data: 2886000052
I0406 15:15:06.346693  6239 layer_factory.hpp:77] Creating layer conv3_3
I0406 15:15:06.346710  6239 net.cpp:106] Creating Layer conv3_3
I0406 15:15:06.346719  6239 net.cpp:454] conv3_3 <- conv3_2
I0406 15:15:06.346729  6239 net.cpp:411] conv3_3 -> conv3_3
I0406 15:15:06.348456  6239 net.cpp:150] Setting up conv3_3
I0406 15:15:06.348484  6239 net.cpp:157] Top shape: 1 256 250 375 (24000000)
I0406 15:15:06.348489  6239 net.cpp:165] Memory required for data: 2982000052
I0406 15:15:06.348501  6239 layer_factory.hpp:77] Creating layer relu3_3
I0406 15:15:06.348518  6239 net.cpp:106] Creating Layer relu3_3
I0406 15:15:06.348526  6239 net.cpp:454] relu3_3 <- conv3_3
I0406 15:15:06.348537  6239 net.cpp:397] relu3_3 -> conv3_3 (in-place)
I0406 15:15:06.348549  6239 net.cpp:150] Setting up relu3_3
I0406 15:15:06.348557  6239 net.cpp:157] Top shape: 1 256 250 375 (24000000)
I0406 15:15:06.348563  6239 net.cpp:165] Memory required for data: 3078000052
I0406 15:15:06.348568  6239 layer_factory.hpp:77] Creating layer pool3
I0406 15:15:06.348582  6239 net.cpp:106] Creating Layer pool3
I0406 15:15:06.348589  6239 net.cpp:454] pool3 <- conv3_3
I0406 15:15:06.348598  6239 net.cpp:411] pool3 -> pool3
I0406 15:15:06.348656  6239 net.cpp:150] Setting up pool3
I0406 15:15:06.348667  6239 net.cpp:157] Top shape: 1 256 125 188 (6016000)
I0406 15:15:06.348673  6239 net.cpp:165] Memory required for data: 3102064052
I0406 15:15:06.348680  6239 layer_factory.hpp:77] Creating layer conv4_1
I0406 15:15:06.348691  6239 net.cpp:106] Creating Layer conv4_1
I0406 15:15:06.348698  6239 net.cpp:454] conv4_1 <- pool3
I0406 15:15:06.348708  6239 net.cpp:411] conv4_1 -> conv4_1
I0406 15:15:06.351485  6239 net.cpp:150] Setting up conv4_1
I0406 15:15:06.351517  6239 net.cpp:157] Top shape: 1 512 125 188 (12032000)
I0406 15:15:06.351521  6239 net.cpp:165] Memory required for data: 3150192052
I0406 15:15:06.351532  6239 layer_factory.hpp:77] Creating layer relu4_1
I0406 15:15:06.351546  6239 net.cpp:106] Creating Layer relu4_1
I0406 15:15:06.351554  6239 net.cpp:454] relu4_1 <- conv4_1
I0406 15:15:06.351565  6239 net.cpp:397] relu4_1 -> conv4_1 (in-place)
I0406 15:15:06.351579  6239 net.cpp:150] Setting up relu4_1
I0406 15:15:06.351588  6239 net.cpp:157] Top shape: 1 512 125 188 (12032000)
I0406 15:15:06.351593  6239 net.cpp:165] Memory required for data: 3198320052
I0406 15:15:06.351598  6239 layer_factory.hpp:77] Creating layer conv4_2
I0406 15:15:06.351611  6239 net.cpp:106] Creating Layer conv4_2
I0406 15:15:06.351618  6239 net.cpp:454] conv4_2 <- conv4_1
I0406 15:15:06.351629  6239 net.cpp:411] conv4_2 -> conv4_2
I0406 15:15:06.356243  6239 net.cpp:150] Setting up conv4_2
I0406 15:15:06.356284  6239 net.cpp:157] Top shape: 1 512 125 188 (12032000)
I0406 15:15:06.356290  6239 net.cpp:165] Memory required for data: 3246448052
I0406 15:15:06.356312  6239 layer_factory.hpp:77] Creating layer relu4_2
I0406 15:15:06.356325  6239 net.cpp:106] Creating Layer relu4_2
I0406 15:15:06.356333  6239 net.cpp:454] relu4_2 <- conv4_2
I0406 15:15:06.356346  6239 net.cpp:397] relu4_2 -> conv4_2 (in-place)
I0406 15:15:06.356359  6239 net.cpp:150] Setting up relu4_2
I0406 15:15:06.356367  6239 net.cpp:157] Top shape: 1 512 125 188 (12032000)
I0406 15:15:06.356374  6239 net.cpp:165] Memory required for data: 3294576052
I0406 15:15:06.356379  6239 layer_factory.hpp:77] Creating layer conv4_3
I0406 15:15:06.356391  6239 net.cpp:106] Creating Layer conv4_3
I0406 15:15:06.356397  6239 net.cpp:454] conv4_3 <- conv4_2
I0406 15:15:06.356420  6239 net.cpp:411] conv4_3 -> conv4_3
I0406 15:15:06.361758  6239 net.cpp:150] Setting up conv4_3
I0406 15:15:06.361795  6239 net.cpp:157] Top shape: 1 512 125 188 (12032000)
I0406 15:15:06.361802  6239 net.cpp:165] Memory required for data: 3342704052
I0406 15:15:06.361824  6239 layer_factory.hpp:77] Creating layer relu4_3
I0406 15:15:06.361848  6239 net.cpp:106] Creating Layer relu4_3
I0406 15:15:06.361857  6239 net.cpp:454] relu4_3 <- conv4_3
I0406 15:15:06.361878  6239 net.cpp:397] relu4_3 -> conv4_3 (in-place)
I0406 15:15:06.361896  6239 net.cpp:150] Setting up relu4_3
I0406 15:15:06.361904  6239 net.cpp:157] Top shape: 1 512 125 188 (12032000)
I0406 15:15:06.361915  6239 net.cpp:165] Memory required for data: 3390832052
I0406 15:15:06.361924  6239 layer_factory.hpp:77] Creating layer pool4
I0406 15:15:06.361941  6239 net.cpp:106] Creating Layer pool4
I0406 15:15:06.361949  6239 net.cpp:454] pool4 <- conv4_3
I0406 15:15:06.361968  6239 net.cpp:411] pool4 -> pool4
I0406 15:15:06.362012  6239 net.cpp:150] Setting up pool4
I0406 15:15:06.362022  6239 net.cpp:157] Top shape: 1 512 63 94 (3032064)
I0406 15:15:06.362035  6239 net.cpp:165] Memory required for data: 3402960308
I0406 15:15:06.362046  6239 layer_factory.hpp:77] Creating layer conv5_1
I0406 15:15:06.362067  6239 net.cpp:106] Creating Layer conv5_1
I0406 15:15:06.362076  6239 net.cpp:454] conv5_1 <- pool4
I0406 15:15:06.362094  6239 net.cpp:411] conv5_1 -> conv5_1
I0406 15:15:06.366725  6239 net.cpp:150] Setting up conv5_1
I0406 15:15:06.366760  6239 net.cpp:157] Top shape: 1 512 63 94 (3032064)
I0406 15:15:06.366765  6239 net.cpp:165] Memory required for data: 3415088564
I0406 15:15:06.366780  6239 layer_factory.hpp:77] Creating layer relu5_1
I0406 15:15:06.366802  6239 net.cpp:106] Creating Layer relu5_1
I0406 15:15:06.366812  6239 net.cpp:454] relu5_1 <- conv5_1
I0406 15:15:06.366827  6239 net.cpp:397] relu5_1 -> conv5_1 (in-place)
I0406 15:15:06.366840  6239 net.cpp:150] Setting up relu5_1
I0406 15:15:06.366849  6239 net.cpp:157] Top shape: 1 512 63 94 (3032064)
I0406 15:15:06.366856  6239 net.cpp:165] Memory required for data: 3427216820
I0406 15:15:06.366863  6239 layer_factory.hpp:77] Creating layer conv5_2
I0406 15:15:06.366878  6239 net.cpp:106] Creating Layer conv5_2
I0406 15:15:06.366885  6239 net.cpp:454] conv5_2 <- conv5_1
I0406 15:15:06.366897  6239 net.cpp:411] conv5_2 -> conv5_2
I0406 15:15:06.371070  6239 net.cpp:150] Setting up conv5_2
I0406 15:15:06.371109  6239 net.cpp:157] Top shape: 1 512 63 94 (3032064)
I0406 15:15:06.371114  6239 net.cpp:165] Memory required for data: 3439345076
I0406 15:15:06.371129  6239 layer_factory.hpp:77] Creating layer relu5_2
I0406 15:15:06.371145  6239 net.cpp:106] Creating Layer relu5_2
I0406 15:15:06.371152  6239 net.cpp:454] relu5_2 <- conv5_2
I0406 15:15:06.371165  6239 net.cpp:397] relu5_2 -> conv5_2 (in-place)
I0406 15:15:06.371179  6239 net.cpp:150] Setting up relu5_2
I0406 15:15:06.371189  6239 net.cpp:157] Top shape: 1 512 63 94 (3032064)
I0406 15:15:06.371196  6239 net.cpp:165] Memory required for data: 3451473332
I0406 15:15:06.371202  6239 layer_factory.hpp:77] Creating layer conv5_3
I0406 15:15:06.371219  6239 net.cpp:106] Creating Layer conv5_3
I0406 15:15:06.371225  6239 net.cpp:454] conv5_3 <- conv5_2
I0406 15:15:06.371237  6239 net.cpp:411] conv5_3 -> conv5_3
I0406 15:15:06.375767  6239 net.cpp:150] Setting up conv5_3
I0406 15:15:06.375802  6239 net.cpp:157] Top shape: 1 512 63 94 (3032064)
I0406 15:15:06.375808  6239 net.cpp:165] Memory required for data: 3463601588
I0406 15:15:06.375821  6239 layer_factory.hpp:77] Creating layer relu5_3
I0406 15:15:06.375835  6239 net.cpp:106] Creating Layer relu5_3
I0406 15:15:06.375851  6239 net.cpp:454] relu5_3 <- conv5_3
I0406 15:15:06.375866  6239 net.cpp:397] relu5_3 -> conv5_3 (in-place)
I0406 15:15:06.375881  6239 net.cpp:150] Setting up relu5_3
I0406 15:15:06.375895  6239 net.cpp:157] Top shape: 1 512 63 94 (3032064)
I0406 15:15:06.375900  6239 net.cpp:165] Memory required for data: 3475729844
I0406 15:15:06.375906  6239 layer_factory.hpp:77] Creating layer rpn_big_conv1
I0406 15:15:06.375931  6239 net.cpp:106] Creating Layer rpn_big_conv1
I0406 15:15:06.375941  6239 net.cpp:454] rpn_big_conv1 <- conv5_3
I0406 15:15:06.375952  6239 net.cpp:411] rpn_big_conv1 -> rpn_big_conv1
I0406 15:15:06.401172  6239 net.cpp:150] Setting up rpn_big_conv1
I0406 15:15:06.401206  6239 net.cpp:157] Top shape: 1 512 63 94 (3032064)
I0406 15:15:06.401211  6239 net.cpp:165] Memory required for data: 3487858100
I0406 15:15:06.401234  6239 layer_factory.hpp:77] Creating layer rpn_big_conv1_relu
I0406 15:15:06.401249  6239 net.cpp:106] Creating Layer rpn_big_conv1_relu
I0406 15:15:06.401262  6239 net.cpp:454] rpn_big_conv1_relu <- rpn_big_conv1
I0406 15:15:06.401278  6239 net.cpp:397] rpn_big_conv1_relu -> rpn_big_conv1 (in-place)
I0406 15:15:06.401293  6239 net.cpp:150] Setting up rpn_big_conv1_relu
I0406 15:15:06.401301  6239 net.cpp:157] Top shape: 1 512 63 94 (3032064)
I0406 15:15:06.401305  6239 net.cpp:165] Memory required for data: 3499986356
I0406 15:15:06.401311  6239 layer_factory.hpp:77] Creating layer rpn_big_conv2
I0406 15:15:06.401327  6239 net.cpp:106] Creating Layer rpn_big_conv2
I0406 15:15:06.401335  6239 net.cpp:454] rpn_big_conv2 <- rpn_big_conv1
I0406 15:15:06.401345  6239 net.cpp:411] rpn_big_conv2 -> rpn_big_conv2
I0406 15:15:06.427848  6239 net.cpp:150] Setting up rpn_big_conv2
I0406 15:15:06.427880  6239 net.cpp:157] Top shape: 1 512 63 94 (3032064)
I0406 15:15:06.427892  6239 net.cpp:165] Memory required for data: 3512114612
I0406 15:15:06.427902  6239 layer_factory.hpp:77] Creating layer rpn_big_conv2_relu
I0406 15:15:06.427912  6239 net.cpp:106] Creating Layer rpn_big_conv2_relu
I0406 15:15:06.427918  6239 net.cpp:454] rpn_big_conv2_relu <- rpn_big_conv2
I0406 15:15:06.427932  6239 net.cpp:397] rpn_big_conv2_relu -> rpn_big_conv2 (in-place)
I0406 15:15:06.427945  6239 net.cpp:150] Setting up rpn_big_conv2_relu
I0406 15:15:06.427955  6239 net.cpp:157] Top shape: 1 512 63 94 (3032064)
I0406 15:15:06.427963  6239 net.cpp:165] Memory required for data: 3524242868
I0406 15:15:06.427968  6239 layer_factory.hpp:77] Creating layer rpn_big_conv2_drop
I0406 15:15:06.427978  6239 net.cpp:106] Creating Layer rpn_big_conv2_drop
I0406 15:15:06.427984  6239 net.cpp:454] rpn_big_conv2_drop <- rpn_big_conv2
I0406 15:15:06.427994  6239 net.cpp:397] rpn_big_conv2_drop -> rpn_big_conv2 (in-place)
I0406 15:15:06.428027  6239 net.cpp:150] Setting up rpn_big_conv2_drop
I0406 15:15:06.428037  6239 net.cpp:157] Top shape: 1 512 63 94 (3032064)
I0406 15:15:06.428045  6239 net.cpp:165] Memory required for data: 3536371124
I0406 15:15:06.428050  6239 layer_factory.hpp:77] Creating layer rpn_big_conv2_rpn_big_conv2_drop_0_split
I0406 15:15:06.428063  6239 net.cpp:106] Creating Layer rpn_big_conv2_rpn_big_conv2_drop_0_split
I0406 15:15:06.428071  6239 net.cpp:454] rpn_big_conv2_rpn_big_conv2_drop_0_split <- rpn_big_conv2
I0406 15:15:06.428081  6239 net.cpp:411] rpn_big_conv2_rpn_big_conv2_drop_0_split -> rpn_big_conv2_rpn_big_conv2_drop_0_split_0
I0406 15:15:06.428092  6239 net.cpp:411] rpn_big_conv2_rpn_big_conv2_drop_0_split -> rpn_big_conv2_rpn_big_conv2_drop_0_split_1
I0406 15:15:06.428138  6239 net.cpp:150] Setting up rpn_big_conv2_rpn_big_conv2_drop_0_split
I0406 15:15:06.428148  6239 net.cpp:157] Top shape: 1 512 63 94 (3032064)
I0406 15:15:06.428155  6239 net.cpp:157] Top shape: 1 512 63 94 (3032064)
I0406 15:15:06.428160  6239 net.cpp:165] Memory required for data: 3560627636
I0406 15:15:06.428166  6239 layer_factory.hpp:77] Creating layer rpn_big_output_cls
I0406 15:15:06.428184  6239 net.cpp:106] Creating Layer rpn_big_output_cls
I0406 15:15:06.428191  6239 net.cpp:454] rpn_big_output_cls <- rpn_big_conv2_rpn_big_conv2_drop_0_split_0
I0406 15:15:06.428203  6239 net.cpp:411] rpn_big_output_cls -> rpn_big_output_cls
I0406 15:15:06.447986  6239 net.cpp:150] Setting up rpn_big_output_cls
I0406 15:15:06.448015  6239 net.cpp:157] Top shape: 1 384 63 94 (2274048)
I0406 15:15:06.448020  6239 net.cpp:165] Memory required for data: 3569723828
I0406 15:15:06.448029  6239 layer_factory.hpp:77] Creating layer rpn_big_output_cls_relu
I0406 15:15:06.448045  6239 net.cpp:106] Creating Layer rpn_big_output_cls_relu
I0406 15:15:06.448055  6239 net.cpp:454] rpn_big_output_cls_relu <- rpn_big_output_cls
I0406 15:15:06.448065  6239 net.cpp:397] rpn_big_output_cls_relu -> rpn_big_output_cls (in-place)
I0406 15:15:06.448078  6239 net.cpp:150] Setting up rpn_big_output_cls_relu
I0406 15:15:06.448086  6239 net.cpp:157] Top shape: 1 384 63 94 (2274048)
I0406 15:15:06.448091  6239 net.cpp:165] Memory required for data: 3578820020
I0406 15:15:06.448096  6239 layer_factory.hpp:77] Creating layer rpn_big_cls_score
I0406 15:15:06.448112  6239 net.cpp:106] Creating Layer rpn_big_cls_score
I0406 15:15:06.448117  6239 net.cpp:454] rpn_big_cls_score <- rpn_big_output_cls
I0406 15:15:06.448130  6239 net.cpp:411] rpn_big_cls_score -> rpn_big_cls_score
I0406 15:15:06.450629  6239 net.cpp:150] Setting up rpn_big_cls_score
I0406 15:15:06.450660  6239 net.cpp:157] Top shape: 1 52 61 92 (291824)
I0406 15:15:06.450664  6239 net.cpp:165] Memory required for data: 3579987316
I0406 15:15:06.450685  6239 layer_factory.hpp:77] Creating layer rpn_big_cls_score_rpn_big_cls_score_0_split
I0406 15:15:06.450698  6239 net.cpp:106] Creating Layer rpn_big_cls_score_rpn_big_cls_score_0_split
I0406 15:15:06.450706  6239 net.cpp:454] rpn_big_cls_score_rpn_big_cls_score_0_split <- rpn_big_cls_score
I0406 15:15:06.450718  6239 net.cpp:411] rpn_big_cls_score_rpn_big_cls_score_0_split -> rpn_big_cls_score_rpn_big_cls_score_0_split_0
I0406 15:15:06.450731  6239 net.cpp:411] rpn_big_cls_score_rpn_big_cls_score_0_split -> rpn_big_cls_score_rpn_big_cls_score_0_split_1
I0406 15:15:06.450780  6239 net.cpp:150] Setting up rpn_big_cls_score_rpn_big_cls_score_0_split
I0406 15:15:06.450794  6239 net.cpp:157] Top shape: 1 52 61 92 (291824)
I0406 15:15:06.450803  6239 net.cpp:157] Top shape: 1 52 61 92 (291824)
I0406 15:15:06.450808  6239 net.cpp:165] Memory required for data: 3582321908
I0406 15:15:06.450812  6239 layer_factory.hpp:77] Creating layer rpn_big_cls_score_reshape
I0406 15:15:06.450824  6239 net.cpp:106] Creating Layer rpn_big_cls_score_reshape
I0406 15:15:06.450829  6239 net.cpp:454] rpn_big_cls_score_reshape <- rpn_big_cls_score_rpn_big_cls_score_0_split_0
I0406 15:15:06.450840  6239 net.cpp:411] rpn_big_cls_score_reshape -> rpn_big_cls_score_reshape
I0406 15:15:06.450872  6239 net.cpp:150] Setting up rpn_big_cls_score_reshape
I0406 15:15:06.450884  6239 net.cpp:157] Top shape: 1 2 1586 92 (291824)
I0406 15:15:06.450891  6239 net.cpp:165] Memory required for data: 3583489204
I0406 15:15:06.450896  6239 layer_factory.hpp:77] Creating layer rpn_big_cls_score_reshape_rpn_big_cls_score_reshape_0_split
I0406 15:15:06.450904  6239 net.cpp:106] Creating Layer rpn_big_cls_score_reshape_rpn_big_cls_score_reshape_0_split
I0406 15:15:06.450911  6239 net.cpp:454] rpn_big_cls_score_reshape_rpn_big_cls_score_reshape_0_split <- rpn_big_cls_score_reshape
I0406 15:15:06.450918  6239 net.cpp:411] rpn_big_cls_score_reshape_rpn_big_cls_score_reshape_0_split -> rpn_big_cls_score_reshape_rpn_big_cls_score_reshape_0_split_0
I0406 15:15:06.450937  6239 net.cpp:411] rpn_big_cls_score_reshape_rpn_big_cls_score_reshape_0_split -> rpn_big_cls_score_reshape_rpn_big_cls_score_reshape_0_split_1
I0406 15:15:06.450983  6239 net.cpp:150] Setting up rpn_big_cls_score_reshape_rpn_big_cls_score_reshape_0_split
I0406 15:15:06.450996  6239 net.cpp:157] Top shape: 1 2 1586 92 (291824)
I0406 15:15:06.451004  6239 net.cpp:157] Top shape: 1 2 1586 92 (291824)
I0406 15:15:06.451009  6239 net.cpp:165] Memory required for data: 3585823796
I0406 15:15:06.451014  6239 layer_factory.hpp:77] Creating layer rpn_big_cls_prob
I0406 15:15:06.451023  6239 net.cpp:106] Creating Layer rpn_big_cls_prob
I0406 15:15:06.451030  6239 net.cpp:454] rpn_big_cls_prob <- rpn_big_cls_score_reshape_rpn_big_cls_score_reshape_0_split_0
I0406 15:15:06.451037  6239 net.cpp:411] rpn_big_cls_prob -> rpn_big_cls_prob
I0406 15:15:06.451117  6239 net.cpp:150] Setting up rpn_big_cls_prob
I0406 15:15:06.451126  6239 net.cpp:157] Top shape: 1 2 1586 92 (291824)
I0406 15:15:06.451131  6239 net.cpp:165] Memory required for data: 3586991092
I0406 15:15:06.451138  6239 layer_factory.hpp:77] Creating layer rpn_big_cls_prob_reshape
I0406 15:15:06.451146  6239 net.cpp:106] Creating Layer rpn_big_cls_prob_reshape
I0406 15:15:06.451151  6239 net.cpp:454] rpn_big_cls_prob_reshape <- rpn_big_cls_prob
I0406 15:15:06.451161  6239 net.cpp:411] rpn_big_cls_prob_reshape -> rpn_big_cls_prob_reshape
I0406 15:15:06.451192  6239 net.cpp:150] Setting up rpn_big_cls_prob_reshape
I0406 15:15:06.451205  6239 net.cpp:157] Top shape: 1 52 61 92 (291824)
I0406 15:15:06.451210  6239 net.cpp:165] Memory required for data: 3588158388
I0406 15:15:06.451215  6239 layer_factory.hpp:77] Creating layer rpn_big_anchor_target
I0406 15:15:06.457212  6239 net.cpp:106] Creating Layer rpn_big_anchor_target
I0406 15:15:06.457242  6239 net.cpp:454] rpn_big_anchor_target <- rpn_big_cls_score_rpn_big_cls_score_0_split_1
I0406 15:15:06.457257  6239 net.cpp:454] rpn_big_anchor_target <- input_gt_boxes
I0406 15:15:06.457263  6239 net.cpp:454] rpn_big_anchor_target <- input_ignored_boxes
I0406 15:15:06.457269  6239 net.cpp:454] rpn_big_anchor_target <- input_im_info
I0406 15:15:06.457275  6239 net.cpp:454] rpn_big_anchor_target <- input_data_input_0_split_1
I0406 15:15:06.457283  6239 net.cpp:454] rpn_big_anchor_target <- rpn_big_cls_prob_reshape
I0406 15:15:06.457294  6239 net.cpp:411] rpn_big_anchor_target -> rpn_big_anchor_target_labels
I0406 15:15:06.457310  6239 net.cpp:411] rpn_big_anchor_target -> rpn_big_anchor_target_bbox_targets
I0406 15:15:06.457324  6239 net.cpp:411] rpn_big_anchor_target -> rpn_big_anchor_target_inside_weights
I0406 15:15:06.457335  6239 net.cpp:411] rpn_big_anchor_target -> rpn_big_anchor_target_outside_weights
I0406 15:15:06.464540  6239 net.cpp:150] Setting up rpn_big_anchor_target
I0406 15:15:06.464612  6239 net.cpp:157] Top shape: 1 1 1586 92 (145912)
I0406 15:15:06.464639  6239 net.cpp:157] Top shape: 1 104 61 92 (583648)
I0406 15:15:06.464661  6239 net.cpp:157] Top shape: 1 104 61 92 (583648)
I0406 15:15:06.464684  6239 net.cpp:157] Top shape: 1 104 61 92 (583648)
I0406 15:15:06.464702  6239 net.cpp:165] Memory required for data: 3595745812
I0406 15:15:06.464726  6239 layer_factory.hpp:77] Creating layer rpn_big_loss_cls
I0406 15:15:06.464756  6239 net.cpp:106] Creating Layer rpn_big_loss_cls
I0406 15:15:06.464778  6239 net.cpp:454] rpn_big_loss_cls <- rpn_big_cls_score_reshape_rpn_big_cls_score_reshape_0_split_1
I0406 15:15:06.464802  6239 net.cpp:454] rpn_big_loss_cls <- rpn_big_anchor_target_labels
I0406 15:15:06.464825  6239 net.cpp:411] rpn_big_loss_cls -> rpn_big_loss_cls
I0406 15:15:06.464864  6239 layer_factory.hpp:77] Creating layer rpn_big_loss_cls
I0406 15:15:06.465720  6239 net.cpp:150] Setting up rpn_big_loss_cls
I0406 15:15:06.465778  6239 net.cpp:157] Top shape: (1)
I0406 15:15:06.465801  6239 net.cpp:160]     with loss weight 1
I0406 15:15:06.465831  6239 net.cpp:165] Memory required for data: 3595745816
I0406 15:15:06.465852  6239 layer_factory.hpp:77] Creating layer rpn_big_output_box
I0406 15:15:06.465886  6239 net.cpp:106] Creating Layer rpn_big_output_box
I0406 15:15:06.465909  6239 net.cpp:454] rpn_big_output_box <- rpn_big_conv2_rpn_big_conv2_drop_0_split_1
I0406 15:15:06.465951  6239 net.cpp:411] rpn_big_output_box -> rpn_big_output_box
I0406 15:15:06.485707  6239 net.cpp:150] Setting up rpn_big_output_box
I0406 15:15:06.485736  6239 net.cpp:157] Top shape: 1 384 63 94 (2274048)
I0406 15:15:06.485749  6239 net.cpp:165] Memory required for data: 3604842008
I0406 15:15:06.485760  6239 layer_factory.hpp:77] Creating layer rpn_big_output_box_relu
I0406 15:15:06.485771  6239 net.cpp:106] Creating Layer rpn_big_output_box_relu
I0406 15:15:06.485776  6239 net.cpp:454] rpn_big_output_box_relu <- rpn_big_output_box
I0406 15:15:06.485785  6239 net.cpp:397] rpn_big_output_box_relu -> rpn_big_output_box (in-place)
I0406 15:15:06.485795  6239 net.cpp:150] Setting up rpn_big_output_box_relu
I0406 15:15:06.485798  6239 net.cpp:157] Top shape: 1 384 63 94 (2274048)
I0406 15:15:06.485801  6239 net.cpp:165] Memory required for data: 3613938200
I0406 15:15:06.485805  6239 layer_factory.hpp:77] Creating layer rpn_big_bbox_pred
I0406 15:15:06.485816  6239 net.cpp:106] Creating Layer rpn_big_bbox_pred
I0406 15:15:06.485818  6239 net.cpp:454] rpn_big_bbox_pred <- rpn_big_output_box
I0406 15:15:06.485826  6239 net.cpp:411] rpn_big_bbox_pred -> rpn_big_bbox_pred
I0406 15:15:06.489850  6239 net.cpp:150] Setting up rpn_big_bbox_pred
I0406 15:15:06.489868  6239 net.cpp:157] Top shape: 1 104 61 92 (583648)
I0406 15:15:06.489872  6239 net.cpp:165] Memory required for data: 3616272792
I0406 15:15:06.489888  6239 layer_factory.hpp:77] Creating layer rpn_big_loss_bbox
I0406 15:15:06.518586  6239 net.cpp:106] Creating Layer rpn_big_loss_bbox
I0406 15:15:06.518628  6239 net.cpp:454] rpn_big_loss_bbox <- rpn_big_bbox_pred
I0406 15:15:06.518640  6239 net.cpp:454] rpn_big_loss_bbox <- rpn_big_anchor_target_bbox_targets
…
