…
I0406 15:34:34.797067  7109 solver.cpp:48] Initializing solver from parameters: 
base_lr: 0.001
display: 20
lr_policy: "multistep"
gamma: 0.1
momentum: 0.9
weight_decay: 0.0005
snapshot: 0
snapshot_prefix: "faces_example"
net_param {
  name: "GeneratedModel_06_04_2017_15_34"
  layer {
    name: "input"
    type: "Python"
    top: "input_data"
    top: "input_im_info"
    top: "input_gt_boxes"
    top: "input_ignored_boxes"
    python_param {
      module: "layers.roi_data_layer"
      layer: "RoIDataLayer"
      param_str: "{\"num_classes\": 2}"
    }
  }
  layer {
    name: "conv1_1"
    type: "Convolution"
    bottom: "input_data"
    top: "conv1_1"
    param {
      lr_mult: 0
      decay_mult: 0
    }
    param {
      lr_mult: 0
      decay_mult: 0
    }
    convolution_param {
      num_output: 64
      pad: 1
      kernel_size: 3
    }
  }
  layer {
    name: "relu1_1"
    type: "ReLU"
    bottom: "conv1_1"
    top: "conv1_1"
  }
  layer {
    name: "conv1_2"
    type: "Convolution"
    bottom: "conv1_1"
    top: "conv1_2"
    param {
      lr_mult: 0
      decay_mult: 0
    }
    param {
      lr_mult: 0
      decay_mult: 0
    }
    convolution_param {
      num_output: 64
      pad: 1
      kernel_size: 3
    }
  }
  layer {
    name: "relu1_2"
    type: "ReLU"
    bottom: "conv1_2"
    top: "conv1_2"
  }
  layer {
    name: "pool1"
    type: "Pooling"
    bottom: "conv1_2"
    top: "pool1"
    pooling_param {
      pool: MAX
      kernel_size: 2
      stride: 2
    }
  }
  layer {
    name: "conv2_1"
    type: "Convolution"
    bottom: "pool1"
    top: "conv2_1"
    param {
      lr_mult: 0
      decay_mult: 0
    }
    param {
      lr_mult: 0
      decay_mult: 0
    }
    convolution_param {
      num_output: 128
      pad: 1
      kernel_size: 3
    }
  }
  layer {
    name: "relu2_1"
    type: "ReLU"
    bottom: "conv2_1"
    top: "conv2_1"
  }
  layer {
    name: "conv2_2"
    type: "Convolution"
    bottom: "conv2_1"
    top: "conv2_2"
    param {
      lr_mult: 0
      decay_mult: 0
    }
    param {
      lr_mult: 0
      decay_mult: 0
    }
    convolution_param {
      num_output: 128
      pad: 1
      kernel_size: 3
    }
  }
  layer {
    name: "relu2_2"
    type: "ReLU"
    bottom: "conv2_2"
    top: "conv2_2"
  }
  layer {
    name: "pool2"
    type: "Pooling"
    bottom: "conv2_2"
    top: "pool2"
    pooling_param {
      pool: MAX
      kernel_size: 2
      stride: 2
    }
  }
  layer {
    name: "conv3_1"
    type: "Convolution"
    bottom: "pool2"
    top: "conv3_1"
    param {
      lr_mult: 1
    }
    param {
      lr_mult: 2
    }
    convolution_param {
      num_output: 256
      pad: 1
      kernel_size: 3
    }
  }
  layer {
    name: "relu3_1"
    type: "ReLU"
    bottom: "conv3_1"
    top: "conv3_1"
  }
  layer {
    name: "conv3_2"
    type: "Convolution"
    bottom: "conv3_1"
    top: "conv3_2"
    param {
      lr_mult: 1
    }
    param {
      lr_mult: 2
    }
    convolution_param {
      num_output: 256
      pad: 1
      kernel_size: 3
    }
  }
  layer {
    name: "relu3_2"
    type: "ReLU"
    bottom: "conv3_2"
    top: "conv3_2"
  }
  layer {
    name: "conv3_3"
    type: "Convolution"
    bottom: "conv3_2"
    top: "conv3_3"
    param {
      lr_mult: 1
    }
    param {
      lr_mult: 2
    }
    convolution_param {
      num_output: 256
      pad: 1
      kernel_size: 3
    }
  }
  layer {
    name: "relu3_3"
    type: "ReLU"
    bottom: "conv3_3"
    top: "conv3_3"
  }
  layer {
    name: "pool3"
    type: "Pooling"
    bottom: "conv3_3"
    top: "pool3"
    pooling_param {
      pool: MAX
      kernel_size: 2
      stride: 2
    }
  }
  layer {
    name: "conv4_1"
    type: "Convolution"
    bottom: "pool3"
    top: "conv4_1"
    param {
      lr_mult: 1
    }
    param {
      lr_mult: 2
    }
    convolution_param {
      num_output: 512
      pad: 1
      kernel_size: 3
    }
  }
  layer {
    name: "relu4_1"
    type: "ReLU"
    bottom: "conv4_1"
    top: "conv4_1"
  }
  layer {
    name: "conv4_2"
    type: "Convolution"
    bottom: "conv4_1"
    top: "conv4_2"
    param {
      lr_mult: 1
    }
    param {
      lr_mult: 2
    }
    convolution_param {
      num_output: 512
      pad: 1
      kernel_size: 3
    }
  }
  layer {
    name: "relu4_2"
    type: "ReLU"
    bottom: "conv4_2"
    top: "conv4_2"
  }
  layer {
    name: "conv4_3"
    type: "Convolution"
    bottom: "conv4_2"
    top: "conv4_3"
    param {
      lr_mult: 1
    }
    param {
      lr_mult: 2
    }
    convolution_param {
      num_output: 512
      pad: 1
      kernel_size: 3
    }
  }
  layer {
    name: "relu4_3"
    type: "ReLU"
    bottom: "conv4_3"
    top: "conv4_3"
  }
  layer {
    name: "pool4"
    type: "Pooling"
    bottom: "conv4_3"
    top: "pool4"
    pooling_param {
      pool: MAX
      kernel_size: 2
      stride: 2
    }
  }
  layer {
    name: "conv5_1"
    type: "Convolution"
    bottom: "pool4"
    top: "conv5_1"
    param {
      lr_mult: 1
    }
    param {
      lr_mult: 2
    }
    convolution_param {
      num_output: 512
      pad: 1
      kernel_size: 3
    }
  }
  layer {
    name: "relu5_1"
    type: "ReLU"
    bottom: "conv5_1"
    top: "conv5_1"
  }
  layer {
    name: "conv5_2"
    type: "Convolution"
    bottom: "conv5_1"
    top: "conv5_2"
    param {
      lr_mult: 1
    }
    param {
      lr_mult: 2
    }
    convolution_param {
      num_output: 512
      pad: 1
      kernel_size: 3
    }
  }
  layer {
    name: "relu5_2"
    type: "ReLU"
    bottom: "conv5_2"
    top: "conv5_2"
  }
  layer {
    name: "conv5_3"
    type: "Convolution"
    bottom: "conv5_2"
    top: "conv5_3"
    param {
      lr_mult: 1
    }
    param {
      lr_mult: 2
    }
    convolution_param {
      num_output: 512
      pad: 1
      kernel_size: 3
    }
  }
  layer {
    name: "relu5_3"
    type: "ReLU"
    bottom: "conv5_3"
    top: "conv5_3"
  }
  layer {
    name: "rpn_big_conv1"
    type: "Convolution"
    bottom: "conv5_3"
    top: "rpn_big_conv1"
    param {
      lr_mult: 1
    }
    param {
      lr_mult: 2
    }
    convolution_param {
      num_output: 512
      pad: 1
      kernel_size: 3
      stride: 1
      weight_filler {
        type: "gaussian"
        mean: 0
        std: 0.01
      }
      bias_filler {
        type: "constant"
      }
    }
  }
  layer {
    name: "rpn_big_conv1_relu"
    type: "ReLU"
    bottom: "rpn_big_conv1"
    top: "rpn_big_conv1"
    relu_param {
      negative_slope: 0
    }
  }
  layer {
    name: "rpn_big_conv2"
    type: "Convolution"
    bottom: "rpn_big_conv1"
    top: "rpn_big_conv2"
    param {
      lr_mult: 1
    }
    param {
      lr_mult: 2
    }
    convolution_param {
      num_output: 512
      pad: 1
      kernel_size: 3
      stride: 1
      weight_filler {
        type: "gaussian"
        mean: 0
        std: 0.01
      }
      bias_filler {
        type: "constant"
      }
    }
  }
  layer {
    name: "rpn_big_conv2_relu"
    type: "ReLU"
    bottom: "rpn_big_conv2"
    top: "rpn_big_conv2"
    relu_param {
      negative_slope: 0
    }
  }
  layer {
    name: "rpn_big_conv2_drop"
    type: "Dropout"
    bottom: "rpn_big_conv2"
    top: "rpn_big_conv2"
    dropout_param {
      dropout_ratio: 0.3
    }
  }
  layer {
    name: "rpn_big_output_cls"
    type: "Convolution"
    bottom: "rpn_big_conv2"
    top: "rpn_big_output_cls"
    param {
      lr_mult: 1
    }
    param {
      lr_mult: 2
    }
    convolution_param {
      num_output: 384
      pad: 1
      kernel_size: 3
      stride: 1
      weight_filler {
        type: "gaussian"
        mean: 0
        std: 0.01
      }
      bias_filler {
        type: "constant"
      }
    }
  }
  layer {
    name: "rpn_big_output_cls_relu"
    type: "ReLU"
    bottom: "rpn_big_output_cls"
    top: "rpn_big_output_cls"
    relu_param {
      negative_slope: 0
    }
  }
  layer {
    name: "rpn_big_cls_score"
    type: "Convolution"
    bottom: "rpn_big_output_cls"
    top: "rpn_big_cls_score"
    param {
      lr_mult: 1
    }
    param {
      lr_mult: 2
    }
    convolution_param {
      num_output: 52
      pad: 0
      kernel_size: 3
      stride: 1
      weight_filler {
        type: "gaussian"
        mean: 0
        std: 0.01
      }
      bias_filler {
        type: "constant"
      }
    }
  }
  layer {
    name: "rpn_big_cls_score_reshape"
    type: "Reshape"
    bottom: "rpn_big_cls_score"
    top: "rpn_big_cls_score_reshape"
    reshape_param {
      shape {
        dim: 0
        dim: 2
        dim: -1
        dim: 0
      }
    }
  }
  layer {
    name: "rpn_big_cls_prob"
    type: "Softmax"
    bottom: "rpn_big_cls_score_reshape"
    top: "rpn_big_cls_prob"
  }
  layer {
    name: "rpn_big_cls_prob_reshape"
    type: "Reshape"
    bottom: "rpn_big_cls_prob"
    top: "rpn_big_cls_prob_reshape"
    reshape_param {
      shape {
        dim: 0
        dim: 52
        dim: -1
        dim: 0
      }
    }
  }
  layer {
    name: "rpn_big_anchor_target"
    type: "Python"
    bottom: "rpn_big_cls_score"
    bottom: "input_gt_boxes"
    bottom: "input_ignored_boxes"
    bottom: "input_im_info"
    bottom: "input_data"
    bottom: "rpn_big_cls_prob_reshape"
    top: "rpn_big_anchor_target_labels"
    top: "rpn_big_anchor_target_bbox_targets"
    top: "rpn_big_anchor_target_inside_weights"
    top: "rpn_big_anchor_target_outside_weights"
    python_param {
      module: "rpn.anchor_target_layer"
      layer: "AnchorTargetLayer"
      param_str: "{\"negative_overlap\": 0.4, \"anchor_scales\": [2.5, 3.025, 3.66025, 4.4289024999999995, 5.358972025, 6.484356150249999, 7.846070941802498, 9.493745839581022, 11.487432465893036, 13.899793283730574, 16.818749873313998, 20.350687346709933, 24.62433168951902, 29.795441344318014], \"square_targets\": true, \"name\": \"rpn_big\", \"tn_fraction\": 0.2, \"batchsize\": 256, \"anchor_shift_num_xy\": [[2, 2], [2, 2], [2, 2], [2, 2], [1, 1], [1, 1], [1, 1], [1, 1], [1, 1], [1, 1], [1, 1], [1, 1], [1, 1], [1, 1]], \"fg_fraction\": 0.5, \"feat_stride\": 16, \"num_classes\": 1, \"anchor_ratios\": [1.0], \"positive_overlap\": 0.6}"
    }
  }
  layer {
    name: "rpn_big_loss_cls"
    type: "SoftmaxWithLoss"
    bottom: "rpn_big_cls_score_reshape"
    bottom: "rpn_big_anchor_target_labels"
    top: "rpn_big_loss_cls"
    loss_weight: 1
    propagate_down: true
    propagate_down: false
    loss_param {
      ignore_label: -1
      normalization: VALID
    }
  }
  layer {
    name: "rpn_big_output_box"
    type: "Convolution"
    bottom: "rpn_big_conv2"
    top: "rpn_big_output_box"
    param {
      lr_mult: 1
    }
    param {
      lr_mult: 2
    }
    convolution_param {
      num_output: 384
      pad: 1
      kernel_size: 3
      stride: 1
      weight_filler {
        type: "gaussian"
        mean: 0
        std: 0.01
      }
      bias_filler {
        type: "constant"
      }
    }
  }
  layer {
    name: "rpn_big_output_box_relu"
    type: "ReLU"
    bottom: "rpn_big_output_box"
    top: "rpn_big_output_box"
    relu_param {
      negative_slope: 0
    }
  }
  layer {
    name: "rpn_big_bbox_pred"
    type: "Convolution"
    bottom: "rpn_big_output_box"
    top: "rpn_big_bbox_pred"
    param {
      lr_mult: 1
    }
    param {
      lr_mult: 2
    }
    convolution_param {
      num_output: 104
      pad: 0
      kernel_size: 3
      stride: 1
      weight_filler {
        type: "gaussian"
        mean: 0
        std: 0.01
      }
      bias_filler {
        type: "constant"
      }
    }
  }
  layer {
    name: "rpn_big_loss_bbox"
    type: "Python"
    bottom: "rpn_big_bbox_pred"
    bottom: "rpn_big_anchor_target_bbox_targets"
    bottom: "rpn_big_anchor_target_inside_weights"
    bottom: "rpn_big_anchor_target_outside_weights"
    top: "rpn_big_loss_bbox"
    loss_weight: 1
    python_param {
      module: "layers.smooth_l1_loss"
      layer: "SmoothL1LossLayer"
      param_str: "{\"sigma\": 3}"
    }
  }
}
average_loss: 100
stepvalue: 70000
stepvalue: 120000
iter_size: 2
I0406 15:34:34.797169  7109 solver.cpp:86] Creating training net specified in net_param.
I0406 15:34:34.797770  7109 net.cpp:49] Initializing net from parameters: 
name: "GeneratedModel_06_04_2017_15_34"
state {
  phase: TRAIN
}
layer {
  name: "input"
  type: "Python"
  top: "input_data"
  top: "input_im_info"
  top: "input_gt_boxes"
  top: "input_ignored_boxes"
  python_param {
    module: "layers.roi_data_layer"
    layer: "RoIDataLayer"
    param_str: "{\"num_classes\": 2}"
  }
}
layer {
  name: "conv1_1"
  type: "Convolution"
  bottom: "input_data"
  top: "conv1_1"
  param {
    lr_mult: 0
    decay_mult: 0
  }
  param {
    lr_mult: 0
    decay_mult: 0
  }
  convolution_param {
    num_output: 64
    pad: 1
    kernel_size: 3
  }
}
layer {
  name: "relu1_1"
  type: "ReLU"
  bottom: "conv1_1"
  top: "conv1_1"
}
layer {
  name: "conv1_2"
  type: "Convolution"
  bottom: "conv1_1"
  top: "conv1_2"
  param {
    lr_mult: 0
    decay_mult: 0
  }
  param {
    lr_mult: 0
    decay_mult: 0
  }
  convolution_param {
    num_output: 64
    pad: 1
    kernel_size: 3
  }
}
layer {
  name: "relu1_2"
  type: "ReLU"
  bottom: "conv1_2"
  top: "conv1_2"
}
layer {
  name: "pool1"
  type: "Pooling"
  bottom: "conv1_2"
  top: "pool1"
  pooling_param {
    pool: MAX
    kernel_size: 2
    stride: 2
  }
}
layer {
  name: "conv2_1"
  type: "Convolution"
  bottom: "pool1"
  top: "conv2_1"
  param {
    lr_mult: 0
    decay_mult: 0
  }
  param {
    lr_mult: 0
    decay_mult: 0
  }
  convolution_param {
    num_output: 128
    pad: 1
    kernel_size: 3
  }
}
layer {
  name: "relu2_1"
  type: "ReLU"
  bottom: "conv2_1"
  top: "conv2_1"
}
layer {
  name: "conv2_2"
  type: "Convolution"
  bottom: "conv2_1"
  top: "conv2_2"
  param {
    lr_mult: 0
    decay_mult: 0
  }
  param {
    lr_mult: 0
    decay_mult: 0
  }
  convolution_param {
    num_output: 128
    pad: 1
    kernel_size: 3
  }
}
layer {
  name: "relu2_2"
  type: "ReLU"
  bottom: "conv2_2"
  top: "conv2_2"
}
layer {
  name: "pool2"
  type: "Pooling"
  bottom: "conv2_2"
  top: "pool2"
  pooling_param {
    pool: MAX
    kernel_size: 2
    stride: 2
  }
}
layer {
  name: "conv3_1"
  type: "Convolution"
  bottom: "pool2"
  top: "conv3_1"
  param {
    lr_mult: 1
  }
  param {
    lr_mult: 2
  }
  convolution_param {
    num_output: 256
    pad: 1
    kernel_size: 3
  }
}
layer {
  name: "relu3_1"
  type: "ReLU"
  bottom: "conv3_1"
  top: "conv3_1"
}
layer {
  name: "conv3_2"
  type: "Convolution"
  bottom: "conv3_1"
  top: "conv3_2"
  param {
    lr_mult: 1
  }
  param {
    lr_mult: 2
  }
  convolution_param {
    num_output: 256
    pad: 1
    kernel_size: 3
  }
}
layer {
  name: "relu3_2"
  type: "ReLU"
  bottom: "conv3_2"
  top: "conv3_2"
}
layer {
  name: "conv3_3"
  type: "Convolution"
  bottom: "conv3_2"
  top: "conv3_3"
  param {
    lr_mult: 1
  }
  param {
    lr_mult: 2
  }
  convolution_param {
    num_output: 256
    pad: 1
    kernel_size: 3
  }
}
layer {
  name: "relu3_3"
  type: "ReLU"
  bottom: "conv3_3"
  top: "conv3_3"
}
layer {
  name: "pool3"
  type: "Pooling"
  bottom: "conv3_3"
  top: "pool3"
  pooling_param {
    pool: MAX
    kernel_size: 2
    stride: 2
  }
}
layer {
  name: "conv4_1"
  type: "Convolution"
  bottom: "pool3"
  top: "conv4_1"
  param {
    lr_mult: 1
  }
  param {
    lr_mult: 2
  }
  convolution_param {
    num_output: 512
    pad: 1
    kernel_size: 3
  }
}
layer {
  name: "relu4_1"
  type: "ReLU"
  bottom: "conv4_1"
  top: "conv4_1"
}
layer {
  name: "conv4_2"
  type: "Convolution"
  bottom: "conv4_1"
  top: "conv4_2"
  param {
    lr_mult: 1
  }
  param {
    lr_mult: 2
  }
  convolution_param {
    num_output: 512
    pad: 1
    kernel_size: 3
  }
}
layer {
  name: "relu4_2"
  type: "ReLU"
  bottom: "conv4_2"
  top: "conv4_2"
}
layer {
  name: "conv4_3"
  type: "Convolution"
  bottom: "conv4_2"
  top: "conv4_3"
  param {
    lr_mult: 1
  }
  param {
    lr_mult: 2
  }
  convolution_param {
    num_output: 512
    pad: 1
    kernel_size: 3
  }
}
layer {
  name: "relu4_3"
  type: "ReLU"
  bottom: "conv4_3"
  top: "conv4_3"
}
layer {
  name: "pool4"
  type: "Pooling"
  bottom: "conv4_3"
  top: "pool4"
  pooling_param {
    pool: MAX
    kernel_size: 2
    stride: 2
  }
}
layer {
  name: "conv5_1"
  type: "Convolution"
  bottom: "pool4"
  top: "conv5_1"
  param {
    lr_mult: 1
  }
  param {
    lr_mult: 2
  }
  convolution_param {
    num_output: 512
    pad: 1
    kernel_size: 3
  }
}
layer {
  name: "relu5_1"
  type: "ReLU"
  bottom: "conv5_1"
  top: "conv5_1"
}
layer {
  name: "conv5_2"
  type: "Convolution"
  bottom: "conv5_1"
  top: "conv5_2"
  param {
    lr_mult: 1
  }
  param {
    lr_mult: 2
  }
  convolution_param {
    num_output: 512
    pad: 1
    kernel_size: 3
  }
}
layer {
  name: "relu5_2"
  type: "ReLU"
  bottom: "conv5_2"
  top: "conv5_2"
}
layer {
  name: "conv5_3"
  type: "Convolution"
  bottom: "conv5_2"
  top: "conv5_3"
  param {
    lr_mult: 1
  }
  param {
    lr_mult: 2
  }
  convolution_param {
    num_output: 512
    pad: 1
    kernel_size: 3
  }
}
layer {
  name: "relu5_3"
  type: "ReLU"
  bottom: "conv5_3"
  top: "conv5_3"
}
layer {
  name: "rpn_big_conv1"
  type: "Convolution"
  bottom: "conv5_3"
  top: "rpn_big_conv1"
  param {
    lr_mult: 1
  }
  param {
    lr_mult: 2
  }
  convolution_param {
    num_output: 512
    pad: 1
    kernel_size: 3
    stride: 1
    weight_filler {
      type: "gaussian"
      mean: 0
      std: 0.01
    }
    bias_filler {
      type: "constant"
    }
  }
}
layer {
  name: "rpn_big_conv1_relu"
  type: "ReLU"
  bottom: "rpn_big_conv1"
  top: "rpn_big_conv1"
  relu_param {
    negative_slope: 0
  }
}
layer {
  name: "rpn_big_conv2"
  type: "Convolution"
  bottom: "rpn_big_conv1"
  top: "rpn_big_conv2"
  param {
    lr_mult: 1
  }
  param {
    lr_mult: 2
  }
  convolution_param {
    num_output: 512
    pad: 1
    kernel_size: 3
    stride: 1
    weight_filler {
      type: "gaussian"
      mean: 0
      std: 0.01
    }
    bias_filler {
      type: "constant"
    }
  }
}
layer {
  name: "rpn_big_conv2_relu"
  type: "ReLU"
  bottom: "rpn_big_conv2"
  top: "rpn_big_conv2"
  relu_param {
    negative_slope: 0
  }
}
layer {
  name: "rpn_big_conv2_drop"
  type: "Dropout"
  bottom: "rpn_big_conv2"
  top: "rpn_big_conv2"
  dropout_param {
    dropout_ratio: 0.3
  }
}
layer {
  name: "rpn_big_output_cls"
  type: "Convolution"
  bottom: "rpn_big_conv2"
  top: "rpn_big_output_cls"
  param {
    lr_mult: 1
  }
  param {
    lr_mult: 2
  }
  convolution_param {
    num_output: 384
    pad: 1
    kernel_size: 3
    stride: 1
    weight_filler {
      type: "gaussian"
      mean: 0
      std: 0.01
    }
    bias_filler {
      type: "constant"
    }
  }
}
layer {
  name: "rpn_big_output_cls_relu"
  type: "ReLU"
  bottom: "rpn_big_output_cls"
  top: "rpn_big_output_cls"
  relu_param {
    negative_slope: 0
  }
}
layer {
  name: "rpn_big_cls_score"
  type: "Convolution"
  bottom: "rpn_big_output_cls"
  top: "rpn_big_cls_score"
  param {
    lr_mult: 1
  }
  param {
    lr_mult: 2
  }
  convolution_param {
    num_output: 52
    pad: 0
    kernel_size: 3
    stride: 1
    weight_filler {
      type: "gaussian"
      mean: 0
      std: 0.01
    }
    bias_filler {
      type: "constant"
    }
  }
}
layer {
  name: "rpn_big_cls_score_reshape"
  type: "Reshape"
  bottom: "rpn_big_cls_score"
  top: "rpn_big_cls_score_reshape"
  reshape_param {
    shape {
      dim: 0
      dim: 2
      dim: -1
      dim: 0
    }
  }
}
layer {
  name: "rpn_big_cls_prob"
  type: "Softmax"
  bottom: "rpn_big_cls_score_reshape"
  top: "rpn_big_cls_prob"
}
layer {
  name: "rpn_big_cls_prob_reshape"
  type: "Reshape"
  bottom: "rpn_big_cls_prob"
  top: "rpn_big_cls_prob_reshape"
  reshape_param {
    shape {
      dim: 0
      dim: 52
      dim: -1
      dim: 0
    }
  }
}
layer {
  name: "rpn_big_anchor_target"
  type: "Python"
  bottom: "rpn_big_cls_score"
  bottom: "input_gt_boxes"
  bottom: "input_ignored_boxes"
  bottom: "input_im_info"
  bottom: "input_data"
  bottom: "rpn_big_cls_prob_reshape"
  top: "rpn_big_anchor_target_labels"
  top: "rpn_big_anchor_target_bbox_targets"
  top: "rpn_big_anchor_target_inside_weights"
  top: "rpn_big_anchor_target_outside_weights"
  python_param {
    module: "rpn.anchor_target_layer"
    layer: "AnchorTargetLayer"
    param_str: "{\"negative_overlap\": 0.4, \"anchor_scales\": [2.5, 3.025, 3.66025, 4.4289024999999995, 5.358972025, 6.484356150249999, 7.846070941802498, 9.493745839581022, 11.487432465893036, 13.899793283730574, 16.818749873313998, 20.350687346709933, 24.62433168951902, 29.795441344318014], \"square_targets\": true, \"name\": \"rpn_big\", \"tn_fraction\": 0.2, \"batchsize\": 256, \"anchor_shift_num_xy\": [[2, 2], [2, 2], [2, 2], [2, 2], [1, 1], [1, 1], [1, 1], [1, 1], [1, 1], [1, 1], [1, 1], [1, 1], [1, 1], [1, 1]], \"fg_fraction\": 0.5, \"feat_stride\": 16, \"num_classes\": 1, \"anchor_ratios\": [1.0], \"positive_overlap\": 0.6}"
  }
}
layer {
  name: "rpn_big_loss_cls"
  type: "SoftmaxWithLoss"
  bottom: "rpn_big_cls_score_reshape"
  bottom: "rpn_big_anchor_target_labels"
  top: "rpn_big_loss_cls"
  loss_weight: 1
  propagate_down: true
  propagate_down: false
  loss_param {
    ignore_label: -1
    normalization: VALID
  }
}
layer {
  name: "rpn_big_output_box"
  type: "Convolution"
  bottom: "rpn_big_conv2"
  top: "rpn_big_output_box"
  param {
    lr_mult: 1
  }
  param {
    lr_mult: 2
  }
  convolution_param {
    num_output: 384
    pad: 1
    kernel_size: 3
    stride: 1
    weight_filler {
      type: "gaussian"
      mean: 0
      std: 0.01
    }
    bias_filler {
      type: "constant"
    }
  }
}
layer {
  name: "rpn_big_output_box_relu"
  type: "ReLU"
  bottom: "rpn_big_output_box"
  top: "rpn_big_output_box"
  relu_param {
    negative_slope: 0
  }
}
layer {
  name: "rpn_big_bbox_pred"
  type: "Convolution"
  bottom: "rpn_big_output_box"
  top: "rpn_big_bbox_pred"
  param {
    lr_mult: 1
  }
  param {
    lr_mult: 2
  }
  convolution_param {
    num_output: 104
    pad: 0
    kernel_size: 3
    stride: 1
    weight_filler {
      type: "gaussian"
      mean: 0
      std: 0.01
    }
    bias_filler {
      type: "constant"
    }
  }
}
layer {
  name: "rpn_big_loss_bbox"
  type: "Python"
  bottom: "rpn_big_bbox_pred"
  bottom: "rpn_big_anchor_target_bbox_targets"
  bottom: "rpn_big_anchor_target_inside_weights"
  bottom: "rpn_big_anchor_target_outside_weights"
  top: "rpn_big_loss_bbox"
  loss_weight: 1
  python_param {
    module: "layers.smooth_l1_loss"
    layer: "SmoothL1LossLayer"
    param_str: "{\"sigma\": 3}"
  }
}
I0406 15:34:34.798024  7109 layer_factory.hpp:77] Creating layer input
I0406 15:34:34.799854  7109 net.cpp:106] Creating Layer input
I0406 15:34:34.799881  7109 net.cpp:411] input -> input_data
I0406 15:34:34.799898  7109 net.cpp:411] input -> input_im_info
I0406 15:34:34.799911  7109 net.cpp:411] input -> input_gt_boxes
I0406 15:34:34.799923  7109 net.cpp:411] input -> input_ignored_boxes
RoiDataLayer: name_to_top: {'im_info': 1, 'gt_boxes': 2, 'data': 0, 'ignored_boxes': 3}
I0406 15:34:35.123677  7109 net.cpp:150] Setting up input
I0406 15:34:35.123703  7109 net.cpp:157] Top shape: 1 3 1000 1500 (4500000)
I0406 15:34:35.123709  7109 net.cpp:157] Top shape: 1 3 (3)
I0406 15:34:35.123713  7109 net.cpp:157] Top shape: 1 5 (5)
I0406 15:34:35.123718  7109 net.cpp:157] Top shape: 1 5 (5)
I0406 15:34:35.123720  7109 net.cpp:165] Memory required for data: 18000052
I0406 15:34:35.123728  7109 layer_factory.hpp:77] Creating layer input_data_input_0_split
I0406 15:34:35.123740  7109 net.cpp:106] Creating Layer input_data_input_0_split
I0406 15:34:35.123744  7109 net.cpp:454] input_data_input_0_split <- input_data
I0406 15:34:35.123754  7109 net.cpp:411] input_data_input_0_split -> input_data_input_0_split_0
I0406 15:34:35.123765  7109 net.cpp:411] input_data_input_0_split -> input_data_input_0_split_1
I0406 15:34:35.123796  7109 net.cpp:150] Setting up input_data_input_0_split
I0406 15:34:35.123803  7109 net.cpp:157] Top shape: 1 3 1000 1500 (4500000)
I0406 15:34:35.123807  7109 net.cpp:157] Top shape: 1 3 1000 1500 (4500000)
I0406 15:34:35.123811  7109 net.cpp:165] Memory required for data: 54000052
I0406 15:34:35.123813  7109 layer_factory.hpp:77] Creating layer conv1_1
I0406 15:34:35.123823  7109 net.cpp:106] Creating Layer conv1_1
I0406 15:34:35.123827  7109 net.cpp:454] conv1_1 <- input_data_input_0_split_0
I0406 15:34:35.123833  7109 net.cpp:411] conv1_1 -> conv1_1
I0406 15:34:35.127812  7109 net.cpp:150] Setting up conv1_1
I0406 15:34:35.127866  7109 net.cpp:157] Top shape: 1 64 1000 1500 (96000000)
I0406 15:34:35.127873  7109 net.cpp:165] Memory required for data: 438000052
I0406 15:34:35.127898  7109 layer_factory.hpp:77] Creating layer relu1_1
I0406 15:34:35.127915  7109 net.cpp:106] Creating Layer relu1_1
I0406 15:34:35.127923  7109 net.cpp:454] relu1_1 <- conv1_1
I0406 15:34:35.127934  7109 net.cpp:397] relu1_1 -> conv1_1 (in-place)
I0406 15:34:35.127949  7109 net.cpp:150] Setting up relu1_1
I0406 15:34:35.127964  7109 net.cpp:157] Top shape: 1 64 1000 1500 (96000000)
I0406 15:34:35.127975  7109 net.cpp:165] Memory required for data: 822000052
I0406 15:34:35.127981  7109 layer_factory.hpp:77] Creating layer conv1_2
I0406 15:34:35.128000  7109 net.cpp:106] Creating Layer conv1_2
I0406 15:34:35.128007  7109 net.cpp:454] conv1_2 <- conv1_1
I0406 15:34:35.128017  7109 net.cpp:411] conv1_2 -> conv1_2
I0406 15:34:35.132267  7109 net.cpp:150] Setting up conv1_2
I0406 15:34:35.132323  7109 net.cpp:157] Top shape: 1 64 1000 1500 (96000000)
I0406 15:34:35.132331  7109 net.cpp:165] Memory required for data: 1206000052
I0406 15:34:35.132355  7109 layer_factory.hpp:77] Creating layer relu1_2
I0406 15:34:35.132372  7109 net.cpp:106] Creating Layer relu1_2
I0406 15:34:35.132380  7109 net.cpp:454] relu1_2 <- conv1_2
I0406 15:34:35.132391  7109 net.cpp:397] relu1_2 -> conv1_2 (in-place)
I0406 15:34:35.132431  7109 net.cpp:150] Setting up relu1_2
I0406 15:34:35.132442  7109 net.cpp:157] Top shape: 1 64 1000 1500 (96000000)
I0406 15:34:35.132448  7109 net.cpp:165] Memory required for data: 1590000052
I0406 15:34:35.132454  7109 layer_factory.hpp:77] Creating layer pool1
I0406 15:34:35.132468  7109 net.cpp:106] Creating Layer pool1
I0406 15:34:35.132477  7109 net.cpp:454] pool1 <- conv1_2
I0406 15:34:35.132488  7109 net.cpp:411] pool1 -> pool1
I0406 15:34:35.132594  7109 net.cpp:150] Setting up pool1
I0406 15:34:35.132608  7109 net.cpp:157] Top shape: 1 64 500 750 (24000000)
I0406 15:34:35.132613  7109 net.cpp:165] Memory required for data: 1686000052
I0406 15:34:35.132619  7109 layer_factory.hpp:77] Creating layer conv2_1
I0406 15:34:35.132638  7109 net.cpp:106] Creating Layer conv2_1
I0406 15:34:35.132648  7109 net.cpp:454] conv2_1 <- pool1
I0406 15:34:35.132658  7109 net.cpp:411] conv2_1 -> conv2_1
I0406 15:34:35.134423  7109 net.cpp:150] Setting up conv2_1
I0406 15:34:35.134467  7109 net.cpp:157] Top shape: 1 128 500 750 (48000000)
I0406 15:34:35.134475  7109 net.cpp:165] Memory required for data: 1878000052
I0406 15:34:35.134497  7109 layer_factory.hpp:77] Creating layer relu2_1
I0406 15:34:35.134517  7109 net.cpp:106] Creating Layer relu2_1
I0406 15:34:35.134526  7109 net.cpp:454] relu2_1 <- conv2_1
I0406 15:34:35.134538  7109 net.cpp:397] relu2_1 -> conv2_1 (in-place)
I0406 15:34:35.134562  7109 net.cpp:150] Setting up relu2_1
I0406 15:34:35.134573  7109 net.cpp:157] Top shape: 1 128 500 750 (48000000)
I0406 15:34:35.134579  7109 net.cpp:165] Memory required for data: 2070000052
I0406 15:34:35.134588  7109 layer_factory.hpp:77] Creating layer conv2_2
I0406 15:34:35.134603  7109 net.cpp:106] Creating Layer conv2_2
I0406 15:34:35.134611  7109 net.cpp:454] conv2_2 <- conv2_1
I0406 15:34:35.134623  7109 net.cpp:411] conv2_2 -> conv2_2
I0406 15:34:35.136045  7109 net.cpp:150] Setting up conv2_2
I0406 15:34:35.136080  7109 net.cpp:157] Top shape: 1 128 500 750 (48000000)
I0406 15:34:35.136087  7109 net.cpp:165] Memory required for data: 2262000052
I0406 15:34:35.136102  7109 layer_factory.hpp:77] Creating layer relu2_2
I0406 15:34:35.136117  7109 net.cpp:106] Creating Layer relu2_2
I0406 15:34:35.136126  7109 net.cpp:454] relu2_2 <- conv2_2
I0406 15:34:35.136140  7109 net.cpp:397] relu2_2 -> conv2_2 (in-place)
I0406 15:34:35.136155  7109 net.cpp:150] Setting up relu2_2
I0406 15:34:35.136165  7109 net.cpp:157] Top shape: 1 128 500 750 (48000000)
I0406 15:34:35.136171  7109 net.cpp:165] Memory required for data: 2454000052
I0406 15:34:35.136178  7109 layer_factory.hpp:77] Creating layer pool2
I0406 15:34:35.136188  7109 net.cpp:106] Creating Layer pool2
I0406 15:34:35.136195  7109 net.cpp:454] pool2 <- conv2_2
I0406 15:34:35.136204  7109 net.cpp:411] pool2 -> pool2
I0406 15:34:35.136282  7109 net.cpp:150] Setting up pool2
I0406 15:34:35.136296  7109 net.cpp:157] Top shape: 1 128 250 375 (12000000)
I0406 15:34:35.136301  7109 net.cpp:165] Memory required for data: 2502000052
I0406 15:34:35.136309  7109 layer_factory.hpp:77] Creating layer conv3_1
I0406 15:34:35.136327  7109 net.cpp:106] Creating Layer conv3_1
I0406 15:34:35.136335  7109 net.cpp:454] conv3_1 <- pool2
I0406 15:34:35.136348  7109 net.cpp:411] conv3_1 -> conv3_1
I0406 15:34:35.138051  7109 net.cpp:150] Setting up conv3_1
I0406 15:34:35.138089  7109 net.cpp:157] Top shape: 1 256 250 375 (24000000)
I0406 15:34:35.138098  7109 net.cpp:165] Memory required for data: 2598000052
I0406 15:34:35.138118  7109 layer_factory.hpp:77] Creating layer relu3_1
I0406 15:34:35.138137  7109 net.cpp:106] Creating Layer relu3_1
I0406 15:34:35.138145  7109 net.cpp:454] relu3_1 <- conv3_1
I0406 15:34:35.138157  7109 net.cpp:397] relu3_1 -> conv3_1 (in-place)
I0406 15:34:35.138173  7109 net.cpp:150] Setting up relu3_1
I0406 15:34:35.138183  7109 net.cpp:157] Top shape: 1 256 250 375 (24000000)
I0406 15:34:35.138190  7109 net.cpp:165] Memory required for data: 2694000052
I0406 15:34:35.138195  7109 layer_factory.hpp:77] Creating layer conv3_2
I0406 15:34:35.138211  7109 net.cpp:106] Creating Layer conv3_2
I0406 15:34:35.138219  7109 net.cpp:454] conv3_2 <- conv3_1
I0406 15:34:35.138229  7109 net.cpp:411] conv3_2 -> conv3_2
I0406 15:34:35.140094  7109 net.cpp:150] Setting up conv3_2
I0406 15:34:35.140133  7109 net.cpp:157] Top shape: 1 256 250 375 (24000000)
I0406 15:34:35.140139  7109 net.cpp:165] Memory required for data: 2790000052
I0406 15:34:35.140152  7109 layer_factory.hpp:77] Creating layer relu3_2
I0406 15:34:35.140166  7109 net.cpp:106] Creating Layer relu3_2
I0406 15:34:35.140174  7109 net.cpp:454] relu3_2 <- conv3_2
I0406 15:34:35.140187  7109 net.cpp:397] relu3_2 -> conv3_2 (in-place)
I0406 15:34:35.140200  7109 net.cpp:150] Setting up relu3_2
I0406 15:34:35.140208  7109 net.cpp:157] Top shape: 1 256 250 375 (24000000)
I0406 15:34:35.140213  7109 net.cpp:165] Memory required for data: 2886000052
I0406 15:34:35.140218  7109 layer_factory.hpp:77] Creating layer conv3_3
I0406 15:34:35.140234  7109 net.cpp:106] Creating Layer conv3_3
I0406 15:34:35.140242  7109 net.cpp:454] conv3_3 <- conv3_2
I0406 15:34:35.140250  7109 net.cpp:411] conv3_3 -> conv3_3
I0406 15:34:35.142710  7109 net.cpp:150] Setting up conv3_3
I0406 15:34:35.142750  7109 net.cpp:157] Top shape: 1 256 250 375 (24000000)
I0406 15:34:35.142756  7109 net.cpp:165] Memory required for data: 2982000052
I0406 15:34:35.142771  7109 layer_factory.hpp:77] Creating layer relu3_3
I0406 15:34:35.142786  7109 net.cpp:106] Creating Layer relu3_3
I0406 15:34:35.142792  7109 net.cpp:454] relu3_3 <- conv3_3
I0406 15:34:35.142805  7109 net.cpp:397] relu3_3 -> conv3_3 (in-place)
I0406 15:34:35.142819  7109 net.cpp:150] Setting up relu3_3
I0406 15:34:35.142827  7109 net.cpp:157] Top shape: 1 256 250 375 (24000000)
I0406 15:34:35.142832  7109 net.cpp:165] Memory required for data: 3078000052
I0406 15:34:35.142838  7109 layer_factory.hpp:77] Creating layer pool3
I0406 15:34:35.142849  7109 net.cpp:106] Creating Layer pool3
I0406 15:34:35.142856  7109 net.cpp:454] pool3 <- conv3_3
I0406 15:34:35.142865  7109 net.cpp:411] pool3 -> pool3
I0406 15:34:35.142935  7109 net.cpp:150] Setting up pool3
I0406 15:34:35.142951  7109 net.cpp:157] Top shape: 1 256 125 188 (6016000)
I0406 15:34:35.142956  7109 net.cpp:165] Memory required for data: 3102064052
I0406 15:34:35.142961  7109 layer_factory.hpp:77] Creating layer conv4_1
I0406 15:34:35.142973  7109 net.cpp:106] Creating Layer conv4_1
I0406 15:34:35.142979  7109 net.cpp:454] conv4_1 <- pool3
I0406 15:34:35.142988  7109 net.cpp:411] conv4_1 -> conv4_1
I0406 15:34:35.146670  7109 net.cpp:150] Setting up conv4_1
I0406 15:34:35.146714  7109 net.cpp:157] Top shape: 1 512 125 188 (12032000)
I0406 15:34:35.146721  7109 net.cpp:165] Memory required for data: 3150192052
I0406 15:34:35.146735  7109 layer_factory.hpp:77] Creating layer relu4_1
I0406 15:34:35.146749  7109 net.cpp:106] Creating Layer relu4_1
I0406 15:34:35.146755  7109 net.cpp:454] relu4_1 <- conv4_1
I0406 15:34:35.146765  7109 net.cpp:397] relu4_1 -> conv4_1 (in-place)
I0406 15:34:35.146777  7109 net.cpp:150] Setting up relu4_1
I0406 15:34:35.146785  7109 net.cpp:157] Top shape: 1 512 125 188 (12032000)
I0406 15:34:35.146790  7109 net.cpp:165] Memory required for data: 3198320052
I0406 15:34:35.146795  7109 layer_factory.hpp:77] Creating layer conv4_2
I0406 15:34:35.146808  7109 net.cpp:106] Creating Layer conv4_2
I0406 15:34:35.146814  7109 net.cpp:454] conv4_2 <- conv4_1
I0406 15:34:35.146824  7109 net.cpp:411] conv4_2 -> conv4_2
I0406 15:34:35.152348  7109 net.cpp:150] Setting up conv4_2
I0406 15:34:35.152398  7109 net.cpp:157] Top shape: 1 512 125 188 (12032000)
I0406 15:34:35.152421  7109 net.cpp:165] Memory required for data: 3246448052
I0406 15:34:35.152443  7109 layer_factory.hpp:77] Creating layer relu4_2
I0406 15:34:35.152457  7109 net.cpp:106] Creating Layer relu4_2
I0406 15:34:35.152465  7109 net.cpp:454] relu4_2 <- conv4_2
I0406 15:34:35.152477  7109 net.cpp:397] relu4_2 -> conv4_2 (in-place)
I0406 15:34:35.152500  7109 net.cpp:150] Setting up relu4_2
I0406 15:34:35.152509  7109 net.cpp:157] Top shape: 1 512 125 188 (12032000)
I0406 15:34:35.152514  7109 net.cpp:165] Memory required for data: 3294576052
I0406 15:34:35.152519  7109 layer_factory.hpp:77] Creating layer conv4_3
I0406 15:34:35.152530  7109 net.cpp:106] Creating Layer conv4_3
I0406 15:34:35.152537  7109 net.cpp:454] conv4_3 <- conv4_2
I0406 15:34:35.152550  7109 net.cpp:411] conv4_3 -> conv4_3
I0406 15:34:35.158073  7109 net.cpp:150] Setting up conv4_3
I0406 15:34:35.158123  7109 net.cpp:157] Top shape: 1 512 125 188 (12032000)
I0406 15:34:35.158130  7109 net.cpp:165] Memory required for data: 3342704052
I0406 15:34:35.158143  7109 layer_factory.hpp:77] Creating layer relu4_3
I0406 15:34:35.158159  7109 net.cpp:106] Creating Layer relu4_3
I0406 15:34:35.158166  7109 net.cpp:454] relu4_3 <- conv4_3
I0406 15:34:35.158177  7109 net.cpp:397] relu4_3 -> conv4_3 (in-place)
I0406 15:34:35.158190  7109 net.cpp:150] Setting up relu4_3
I0406 15:34:35.158196  7109 net.cpp:157] Top shape: 1 512 125 188 (12032000)
I0406 15:34:35.158201  7109 net.cpp:165] Memory required for data: 3390832052
I0406 15:34:35.158206  7109 layer_factory.hpp:77] Creating layer pool4
I0406 15:34:35.158215  7109 net.cpp:106] Creating Layer pool4
I0406 15:34:35.158232  7109 net.cpp:454] pool4 <- conv4_3
I0406 15:34:35.158242  7109 net.cpp:411] pool4 -> pool4
I0406 15:34:35.158293  7109 net.cpp:150] Setting up pool4
I0406 15:34:35.158304  7109 net.cpp:157] Top shape: 1 512 63 94 (3032064)
I0406 15:34:35.158309  7109 net.cpp:165] Memory required for data: 3402960308
I0406 15:34:35.158314  7109 layer_factory.hpp:77] Creating layer conv5_1
I0406 15:34:35.158329  7109 net.cpp:106] Creating Layer conv5_1
I0406 15:34:35.158335  7109 net.cpp:454] conv5_1 <- pool4
I0406 15:34:35.158346  7109 net.cpp:411] conv5_1 -> conv5_1
I0406 15:34:35.164603  7109 net.cpp:150] Setting up conv5_1
I0406 15:34:35.164643  7109 net.cpp:157] Top shape: 1 512 63 94 (3032064)
I0406 15:34:35.164649  7109 net.cpp:165] Memory required for data: 3415088564
I0406 15:34:35.164664  7109 layer_factory.hpp:77] Creating layer relu5_1
I0406 15:34:35.164676  7109 net.cpp:106] Creating Layer relu5_1
I0406 15:34:35.164687  7109 net.cpp:454] relu5_1 <- conv5_1
I0406 15:34:35.164697  7109 net.cpp:397] relu5_1 -> conv5_1 (in-place)
I0406 15:34:35.164710  7109 net.cpp:150] Setting up relu5_1
I0406 15:34:35.164719  7109 net.cpp:157] Top shape: 1 512 63 94 (3032064)
I0406 15:34:35.164724  7109 net.cpp:165] Memory required for data: 3427216820
I0406 15:34:35.164729  7109 layer_factory.hpp:77] Creating layer conv5_2
I0406 15:34:35.164743  7109 net.cpp:106] Creating Layer conv5_2
I0406 15:34:35.164752  7109 net.cpp:454] conv5_2 <- conv5_1
I0406 15:34:35.164762  7109 net.cpp:411] conv5_2 -> conv5_2
I0406 15:34:35.170447  7109 net.cpp:150] Setting up conv5_2
I0406 15:34:35.170493  7109 net.cpp:157] Top shape: 1 512 63 94 (3032064)
I0406 15:34:35.170501  7109 net.cpp:165] Memory required for data: 3439345076
I0406 15:34:35.170514  7109 layer_factory.hpp:77] Creating layer relu5_2
I0406 15:34:35.170527  7109 net.cpp:106] Creating Layer relu5_2
I0406 15:34:35.170533  7109 net.cpp:454] relu5_2 <- conv5_2
I0406 15:34:35.170543  7109 net.cpp:397] relu5_2 -> conv5_2 (in-place)
I0406 15:34:35.170555  7109 net.cpp:150] Setting up relu5_2
I0406 15:34:35.170562  7109 net.cpp:157] Top shape: 1 512 63 94 (3032064)
I0406 15:34:35.170567  7109 net.cpp:165] Memory required for data: 3451473332
I0406 15:34:35.170572  7109 layer_factory.hpp:77] Creating layer conv5_3
I0406 15:34:35.170588  7109 net.cpp:106] Creating Layer conv5_3
I0406 15:34:35.170594  7109 net.cpp:454] conv5_3 <- conv5_2
I0406 15:34:35.170604  7109 net.cpp:411] conv5_3 -> conv5_3
I0406 15:34:35.179709  7109 net.cpp:150] Setting up conv5_3
I0406 15:34:35.179759  7109 net.cpp:157] Top shape: 1 512 63 94 (3032064)
I0406 15:34:35.179765  7109 net.cpp:165] Memory required for data: 3463601588
I0406 15:34:35.179781  7109 layer_factory.hpp:77] Creating layer relu5_3
I0406 15:34:35.179793  7109 net.cpp:106] Creating Layer relu5_3
I0406 15:34:35.179800  7109 net.cpp:454] relu5_3 <- conv5_3
I0406 15:34:35.179817  7109 net.cpp:397] relu5_3 -> conv5_3 (in-place)
I0406 15:34:35.179831  7109 net.cpp:150] Setting up relu5_3
I0406 15:34:35.179839  7109 net.cpp:157] Top shape: 1 512 63 94 (3032064)
I0406 15:34:35.179844  7109 net.cpp:165] Memory required for data: 3475729844
I0406 15:34:35.179849  7109 layer_factory.hpp:77] Creating layer rpn_big_conv1
I0406 15:34:35.179873  7109 net.cpp:106] Creating Layer rpn_big_conv1
I0406 15:34:35.179884  7109 net.cpp:454] rpn_big_conv1 <- conv5_3
I0406 15:34:35.179894  7109 net.cpp:411] rpn_big_conv1 -> rpn_big_conv1
I0406 15:34:35.217666  7109 net.cpp:150] Setting up rpn_big_conv1
I0406 15:34:35.217711  7109 net.cpp:157] Top shape: 1 512 63 94 (3032064)
I0406 15:34:35.217720  7109 net.cpp:165] Memory required for data: 3487858100
I0406 15:34:35.217736  7109 layer_factory.hpp:77] Creating layer rpn_big_conv1_relu
I0406 15:34:35.217754  7109 net.cpp:106] Creating Layer rpn_big_conv1_relu
I0406 15:34:35.217764  7109 net.cpp:454] rpn_big_conv1_relu <- rpn_big_conv1
I0406 15:34:35.217777  7109 net.cpp:397] rpn_big_conv1_relu -> rpn_big_conv1 (in-place)
I0406 15:34:35.217792  7109 net.cpp:150] Setting up rpn_big_conv1_relu
I0406 15:34:35.217802  7109 net.cpp:157] Top shape: 1 512 63 94 (3032064)
I0406 15:34:35.217806  7109 net.cpp:165] Memory required for data: 3499986356
I0406 15:34:35.217811  7109 layer_factory.hpp:77] Creating layer rpn_big_conv2
I0406 15:34:35.217829  7109 net.cpp:106] Creating Layer rpn_big_conv2
I0406 15:34:35.217846  7109 net.cpp:454] rpn_big_conv2 <- rpn_big_conv1
I0406 15:34:35.217860  7109 net.cpp:411] rpn_big_conv2 -> rpn_big_conv2
I0406 15:34:35.247436  7109 net.cpp:150] Setting up rpn_big_conv2
I0406 15:34:35.247468  7109 net.cpp:157] Top shape: 1 512 63 94 (3032064)
I0406 15:34:35.247483  7109 net.cpp:165] Memory required for data: 3512114612
I0406 15:34:35.247494  7109 layer_factory.hpp:77] Creating layer rpn_big_conv2_relu
I0406 15:34:35.247506  7109 net.cpp:106] Creating Layer rpn_big_conv2_relu
I0406 15:34:35.247512  7109 net.cpp:454] rpn_big_conv2_relu <- rpn_big_conv2
I0406 15:34:35.247524  7109 net.cpp:397] rpn_big_conv2_relu -> rpn_big_conv2 (in-place)
I0406 15:34:35.247535  7109 net.cpp:150] Setting up rpn_big_conv2_relu
I0406 15:34:35.247541  7109 net.cpp:157] Top shape: 1 512 63 94 (3032064)
I0406 15:34:35.247545  7109 net.cpp:165] Memory required for data: 3524242868
I0406 15:34:35.247548  7109 layer_factory.hpp:77] Creating layer rpn_big_conv2_drop
I0406 15:34:35.247557  7109 net.cpp:106] Creating Layer rpn_big_conv2_drop
I0406 15:34:35.247560  7109 net.cpp:454] rpn_big_conv2_drop <- rpn_big_conv2
I0406 15:34:35.247565  7109 net.cpp:397] rpn_big_conv2_drop -> rpn_big_conv2 (in-place)
I0406 15:34:35.247599  7109 net.cpp:150] Setting up rpn_big_conv2_drop
I0406 15:34:35.247609  7109 net.cpp:157] Top shape: 1 512 63 94 (3032064)
I0406 15:34:35.247612  7109 net.cpp:165] Memory required for data: 3536371124
I0406 15:34:35.247617  7109 layer_factory.hpp:77] Creating layer rpn_big_conv2_rpn_big_conv2_drop_0_split
I0406 15:34:35.247623  7109 net.cpp:106] Creating Layer rpn_big_conv2_rpn_big_conv2_drop_0_split
I0406 15:34:35.247627  7109 net.cpp:454] rpn_big_conv2_rpn_big_conv2_drop_0_split <- rpn_big_conv2
I0406 15:34:35.247635  7109 net.cpp:411] rpn_big_conv2_rpn_big_conv2_drop_0_split -> rpn_big_conv2_rpn_big_conv2_drop_0_split_0
I0406 15:34:35.247648  7109 net.cpp:411] rpn_big_conv2_rpn_big_conv2_drop_0_split -> rpn_big_conv2_rpn_big_conv2_drop_0_split_1
I0406 15:34:35.247692  7109 net.cpp:150] Setting up rpn_big_conv2_rpn_big_conv2_drop_0_split
I0406 15:34:35.247700  7109 net.cpp:157] Top shape: 1 512 63 94 (3032064)
I0406 15:34:35.247704  7109 net.cpp:157] Top shape: 1 512 63 94 (3032064)
I0406 15:34:35.247707  7109 net.cpp:165] Memory required for data: 3560627636
I0406 15:34:35.247711  7109 layer_factory.hpp:77] Creating layer rpn_big_output_cls
I0406 15:34:35.247723  7109 net.cpp:106] Creating Layer rpn_big_output_cls
I0406 15:34:35.247727  7109 net.cpp:454] rpn_big_output_cls <- rpn_big_conv2_rpn_big_conv2_drop_0_split_0
I0406 15:34:35.247735  7109 net.cpp:411] rpn_big_output_cls -> rpn_big_output_cls
I0406 15:34:35.265894  7109 net.cpp:150] Setting up rpn_big_output_cls
I0406 15:34:35.265926  7109 net.cpp:157] Top shape: 1 384 63 94 (2274048)
I0406 15:34:35.265933  7109 net.cpp:165] Memory required for data: 3569723828
I0406 15:34:35.265944  7109 layer_factory.hpp:77] Creating layer rpn_big_output_cls_relu
I0406 15:34:35.265955  7109 net.cpp:106] Creating Layer rpn_big_output_cls_relu
I0406 15:34:35.265964  7109 net.cpp:454] rpn_big_output_cls_relu <- rpn_big_output_cls
I0406 15:34:35.265972  7109 net.cpp:397] rpn_big_output_cls_relu -> rpn_big_output_cls (in-place)
I0406 15:34:35.265985  7109 net.cpp:150] Setting up rpn_big_output_cls_relu
I0406 15:34:35.265990  7109 net.cpp:157] Top shape: 1 384 63 94 (2274048)
I0406 15:34:35.265993  7109 net.cpp:165] Memory required for data: 3578820020
I0406 15:34:35.265996  7109 layer_factory.hpp:77] Creating layer rpn_big_cls_score
I0406 15:34:35.266010  7109 net.cpp:106] Creating Layer rpn_big_cls_score
I0406 15:34:35.266014  7109 net.cpp:454] rpn_big_cls_score <- rpn_big_output_cls
I0406 15:34:35.266022  7109 net.cpp:411] rpn_big_cls_score -> rpn_big_cls_score
I0406 15:34:35.268427  7109 net.cpp:150] Setting up rpn_big_cls_score
I0406 15:34:35.268443  7109 net.cpp:157] Top shape: 1 52 61 92 (291824)
I0406 15:34:35.268447  7109 net.cpp:165] Memory required for data: 3579987316
I0406 15:34:35.268687  7109 layer_factory.hpp:77] Creating layer rpn_big_cls_score_rpn_big_cls_score_0_split
I0406 15:34:35.268707  7109 net.cpp:106] Creating Layer rpn_big_cls_score_rpn_big_cls_score_0_split
I0406 15:34:35.268715  7109 net.cpp:454] rpn_big_cls_score_rpn_big_cls_score_0_split <- rpn_big_cls_score
I0406 15:34:35.268728  7109 net.cpp:411] rpn_big_cls_score_rpn_big_cls_score_0_split -> rpn_big_cls_score_rpn_big_cls_score_0_split_0
I0406 15:34:35.268743  7109 net.cpp:411] rpn_big_cls_score_rpn_big_cls_score_0_split -> rpn_big_cls_score_rpn_big_cls_score_0_split_1
I0406 15:34:35.268807  7109 net.cpp:150] Setting up rpn_big_cls_score_rpn_big_cls_score_0_split
I0406 15:34:35.268822  7109 net.cpp:157] Top shape: 1 52 61 92 (291824)
I0406 15:34:35.268831  7109 net.cpp:157] Top shape: 1 52 61 92 (291824)
I0406 15:34:35.268836  7109 net.cpp:165] Memory required for data: 3582321908
I0406 15:34:35.268843  7109 layer_factory.hpp:77] Creating layer rpn_big_cls_score_reshape
I0406 15:34:35.268856  7109 net.cpp:106] Creating Layer rpn_big_cls_score_reshape
I0406 15:34:35.268862  7109 net.cpp:454] rpn_big_cls_score_reshape <- rpn_big_cls_score_rpn_big_cls_score_0_split_0
I0406 15:34:35.268870  7109 net.cpp:411] rpn_big_cls_score_reshape -> rpn_big_cls_score_reshape
I0406 15:34:35.268913  7109 net.cpp:150] Setting up rpn_big_cls_score_reshape
I0406 15:34:35.268926  7109 net.cpp:157] Top shape: 1 2 1586 92 (291824)
I0406 15:34:35.268932  7109 net.cpp:165] Memory required for data: 3583489204
I0406 15:34:35.268937  7109 layer_factory.hpp:77] Creating layer rpn_big_cls_score_reshape_rpn_big_cls_score_reshape_0_split
I0406 15:34:35.268947  7109 net.cpp:106] Creating Layer rpn_big_cls_score_reshape_rpn_big_cls_score_reshape_0_split
I0406 15:34:35.268954  7109 net.cpp:454] rpn_big_cls_score_reshape_rpn_big_cls_score_reshape_0_split <- rpn_big_cls_score_reshape
I0406 15:34:35.268963  7109 net.cpp:411] rpn_big_cls_score_reshape_rpn_big_cls_score_reshape_0_split -> rpn_big_cls_score_reshape_rpn_big_cls_score_reshape_0_split_0
I0406 15:34:35.268995  7109 net.cpp:411] rpn_big_cls_score_reshape_rpn_big_cls_score_reshape_0_split -> rpn_big_cls_score_reshape_rpn_big_cls_score_reshape_0_split_1
I0406 15:34:35.269048  7109 net.cpp:150] Setting up rpn_big_cls_score_reshape_rpn_big_cls_score_reshape_0_split
I0406 15:34:35.269059  7109 net.cpp:157] Top shape: 1 2 1586 92 (291824)
I0406 15:34:35.269067  7109 net.cpp:157] Top shape: 1 2 1586 92 (291824)
I0406 15:34:35.269071  7109 net.cpp:165] Memory required for data: 3585823796
I0406 15:34:35.269076  7109 layer_factory.hpp:77] Creating layer rpn_big_cls_prob
I0406 15:34:35.269089  7109 net.cpp:106] Creating Layer rpn_big_cls_prob
I0406 15:34:35.269095  7109 net.cpp:454] rpn_big_cls_prob <- rpn_big_cls_score_reshape_rpn_big_cls_score_reshape_0_split_0
I0406 15:34:35.269104  7109 net.cpp:411] rpn_big_cls_prob -> rpn_big_cls_prob
I0406 15:34:35.269194  7109 net.cpp:150] Setting up rpn_big_cls_prob
I0406 15:34:35.269206  7109 net.cpp:157] Top shape: 1 2 1586 92 (291824)
I0406 15:34:35.269210  7109 net.cpp:165] Memory required for data: 3586991092
I0406 15:34:35.269215  7109 layer_factory.hpp:77] Creating layer rpn_big_cls_prob_reshape
I0406 15:34:35.269227  7109 net.cpp:106] Creating Layer rpn_big_cls_prob_reshape
I0406 15:34:35.269232  7109 net.cpp:454] rpn_big_cls_prob_reshape <- rpn_big_cls_prob
I0406 15:34:35.269240  7109 net.cpp:411] rpn_big_cls_prob_reshape -> rpn_big_cls_prob_reshape
I0406 15:34:35.269279  7109 net.cpp:150] Setting up rpn_big_cls_prob_reshape
I0406 15:34:35.269289  7109 net.cpp:157] Top shape: 1 52 61 92 (291824)
I0406 15:34:35.269294  7109 net.cpp:165] Memory required for data: 3588158388
I0406 15:34:35.269299  7109 layer_factory.hpp:77] Creating layer rpn_big_anchor_target
I0406 15:34:35.271396  7109 net.cpp:106] Creating Layer rpn_big_anchor_target
I0406 15:34:35.271425  7109 net.cpp:454] rpn_big_anchor_target <- rpn_big_cls_score_rpn_big_cls_score_0_split_1
I0406 15:34:35.271438  7109 net.cpp:454] rpn_big_anchor_target <- input_gt_boxes
I0406 15:34:35.271446  7109 net.cpp:454] rpn_big_anchor_target <- input_ignored_boxes
I0406 15:34:35.271453  7109 net.cpp:454] rpn_big_anchor_target <- input_im_info
I0406 15:34:35.271461  7109 net.cpp:454] rpn_big_anchor_target <- input_data_input_0_split_1
I0406 15:34:35.271471  7109 net.cpp:454] rpn_big_anchor_target <- rpn_big_cls_prob_reshape
I0406 15:34:35.271486  7109 net.cpp:411] rpn_big_anchor_target -> rpn_big_anchor_target_labels
I0406 15:34:35.271504  7109 net.cpp:411] rpn_big_anchor_target -> rpn_big_anchor_target_bbox_targets
I0406 15:34:35.271522  7109 net.cpp:411] rpn_big_anchor_target -> rpn_big_anchor_target_inside_weights
I0406 15:34:35.271538  7109 net.cpp:411] rpn_big_anchor_target -> rpn_big_anchor_target_outside_weights
I0406 15:34:35.276978  7109 net.cpp:150] Setting up rpn_big_anchor_target
I0406 15:34:35.277007  7109 net.cpp:157] Top shape: 1 1 1586 92 (145912)
I0406 15:34:35.277016  7109 net.cpp:157] Top shape: 1 104 61 92 (583648)
I0406 15:34:35.277030  7109 net.cpp:157] Top shape: 1 104 61 92 (583648)
I0406 15:34:35.277037  7109 net.cpp:157] Top shape: 1 104 61 92 (583648)
I0406 15:34:35.277042  7109 net.cpp:165] Memory required for data: 3595745812
I0406 15:34:35.277051  7109 layer_factory.hpp:77] Creating layer rpn_big_loss_cls
I0406 15:34:35.277070  7109 net.cpp:106] Creating Layer rpn_big_loss_cls
I0406 15:34:35.277081  7109 net.cpp:454] rpn_big_loss_cls <- rpn_big_cls_score_reshape_rpn_big_cls_score_reshape_0_split_1
I0406 15:34:35.277092  7109 net.cpp:454] rpn_big_loss_cls <- rpn_big_anchor_target_labels
I0406 15:34:35.277107  7109 net.cpp:411] rpn_big_loss_cls -> rpn_big_loss_cls
I0406 15:34:35.277127  7109 layer_factory.hpp:77] Creating layer rpn_big_loss_cls
I0406 15:34:35.277762  7109 net.cpp:150] Setting up rpn_big_loss_cls
I0406 15:34:35.277779  7109 net.cpp:157] Top shape: (1)
I0406 15:34:35.277786  7109 net.cpp:160]     with loss weight 1
I0406 15:34:35.277803  7109 net.cpp:165] Memory required for data: 3595745816
I0406 15:34:35.277811  7109 layer_factory.hpp:77] Creating layer rpn_big_output_box
I0406 15:34:35.277828  7109 net.cpp:106] Creating Layer rpn_big_output_box
I0406 15:34:35.277837  7109 net.cpp:454] rpn_big_output_box <- rpn_big_conv2_rpn_big_conv2_drop_0_split_1
I0406 15:34:35.277850  7109 net.cpp:411] rpn_big_output_box -> rpn_big_output_box
I0406 15:34:35.296784  7109 net.cpp:150] Setting up rpn_big_output_box
I0406 15:34:35.296816  7109 net.cpp:157] Top shape: 1 384 63 94 (2274048)
I0406 15:34:35.296823  7109 net.cpp:165] Memory required for data: 3604842008
I0406 15:34:35.296844  7109 layer_factory.hpp:77] Creating layer rpn_big_output_box_relu
I0406 15:34:35.296859  7109 net.cpp:106] Creating Layer rpn_big_output_box_relu
I0406 15:34:35.296872  7109 net.cpp:454] rpn_big_output_box_relu <- rpn_big_output_box
I0406 15:34:35.296890  7109 net.cpp:397] rpn_big_output_box_relu -> rpn_big_output_box (in-place)
I0406 15:34:35.296905  7109 net.cpp:150] Setting up rpn_big_output_box_relu
I0406 15:34:35.296914  7109 net.cpp:157] Top shape: 1 384 63 94 (2274048)
I0406 15:34:35.296921  7109 net.cpp:165] Memory required for data: 3613938200
I0406 15:34:35.296928  7109 layer_factory.hpp:77] Creating layer rpn_big_bbox_pred
I0406 15:34:35.296947  7109 net.cpp:106] Creating Layer rpn_big_bbox_pred
I0406 15:34:35.296954  7109 net.cpp:454] rpn_big_bbox_pred <- rpn_big_output_box
I0406 15:34:35.296965  7109 net.cpp:411] rpn_big_bbox_pred -> rpn_big_bbox_pred
I0406 15:34:35.301048  7109 net.cpp:150] Setting up rpn_big_bbox_pred
I0406 15:34:35.301064  7109 net.cpp:157] Top shape: 1 104 61 92 (583648)
I0406 15:34:35.301069  7109 net.cpp:165] Memory required for data: 3616272792
I0406 15:34:35.301081  7109 layer_factory.hpp:77] Creating layer rpn_big_loss_bbox
I0406 15:34:35.301446  7109 net.cpp:106] Creating Layer rpn_big_loss_bbox
I0406 15:34:35.301460  7109 net.cpp:454] rpn_big_loss_bbox <- rpn_big_bbox_pred
I0406 15:34:35.301468  7109 net.cpp:454] rpn_big_loss_bbox <- rpn_big_anchor_target_bbox_targets
I0406 15:34:35.301476  7109 net.cpp:454] rpn_big_loss_bbox <- rpn_big_anchor_target_inside_weights
I0406 15:34:35.301486  7109 net.cpp:454] rpn_big_loss_bbox <- rpn_big_anchor_target_outside_weights
I0406 15:34:35.301498  7109 net.cpp:411] rpn_big_loss_bbox -> rpn_big_loss_bbox
I0406 15:34:35.303547  7109 net.cpp:150] Setting up rpn_big_loss_bbox
I0406 15:34:35.303580  7109 net.cpp:157] Top shape: 1 (1)
I0406 15:34:35.303586  7109 net.cpp:160]     with loss weight 1
I0406 15:34:35.303602  7109 net.cpp:165] Memory required for data: 3616272796
I0406 15:34:35.303611  7109 net.cpp:226] rpn_big_loss_bbox needs backward computation.
I0406 15:34:35.303622  7109 net.cpp:226] rpn_big_bbox_pred needs backward computation.
I0406 15:34:35.303628  7109 net.cpp:226] rpn_big_output_box_relu needs backward computation.
…
