…
I0413 18:20:44.060194 13072 solver.cpp:48] Initializing solver from parameters: 
base_lr: 0.001
display: 20
lr_policy: "multistep"
gamma: 0.1
momentum: 0.9
weight_decay: 0.0005
snapshot: 0
snapshot_prefix: "faces_example"
net_param {
  name: "GeneratedModel_13_04_2017_18_20"
  layer {
    name: "input"
    type: "Python"
    top: "input_data"
    top: "input_im_info"
    top: "input_gt_boxes"
    top: "input_ignored_boxes"
    python_param {
      module: "layers.roi_data_layer"
      layer: "RoIDataLayer"
      param_str: "{\"num_classes\": 2}"
    }
  }
  layer {
    name: "conv1_1"
    type: "Convolution"
    bottom: "input_data"
    top: "conv1_1"
    param {
      lr_mult: 0
      decay_mult: 0
    }
    param {
      lr_mult: 0
      decay_mult: 0
    }
    convolution_param {
      num_output: 64
      pad: 1
      kernel_size: 3
    }
  }
  layer {
    name: "relu1_1"
    type: "ReLU"
    bottom: "conv1_1"
    top: "conv1_1"
  }
  layer {
    name: "conv1_2"
    type: "Convolution"
    bottom: "conv1_1"
    top: "conv1_2"
    param {
      lr_mult: 0
      decay_mult: 0
    }
    param {
      lr_mult: 0
      decay_mult: 0
    }
    convolution_param {
      num_output: 64
      pad: 1
      kernel_size: 3
    }
  }
  layer {
    name: "relu1_2"
    type: "ReLU"
    bottom: "conv1_2"
    top: "conv1_2"
  }
  layer {
    name: "pool1"
    type: "Pooling"
    bottom: "conv1_2"
    top: "pool1"
    pooling_param {
      pool: MAX
      kernel_size: 2
      stride: 2
    }
  }
  layer {
    name: "conv2_1"
    type: "Convolution"
    bottom: "pool1"
    top: "conv2_1"
    param {
      lr_mult: 0
      decay_mult: 0
    }
    param {
      lr_mult: 0
      decay_mult: 0
    }
    convolution_param {
      num_output: 128
      pad: 1
      kernel_size: 3
    }
  }
  layer {
    name: "relu2_1"
    type: "ReLU"
    bottom: "conv2_1"
    top: "conv2_1"
  }
  layer {
    name: "conv2_2"
    type: "Convolution"
    bottom: "conv2_1"
    top: "conv2_2"
    param {
      lr_mult: 0
      decay_mult: 0
    }
    param {
      lr_mult: 0
      decay_mult: 0
    }
    convolution_param {
      num_output: 128
      pad: 1
      kernel_size: 3
    }
  }
  layer {
    name: "relu2_2"
    type: "ReLU"
    bottom: "conv2_2"
    top: "conv2_2"
  }
  layer {
    name: "pool2"
    type: "Pooling"
    bottom: "conv2_2"
    top: "pool2"
    pooling_param {
      pool: MAX
      kernel_size: 2
      stride: 2
    }
  }
  layer {
    name: "conv3_1"
    type: "Convolution"
    bottom: "pool2"
    top: "conv3_1"
    param {
      lr_mult: 1
    }
    param {
      lr_mult: 2
    }
    convolution_param {
      num_output: 256
      pad: 1
      kernel_size: 3
    }
  }
  layer {
    name: "relu3_1"
    type: "ReLU"
    bottom: "conv3_1"
    top: "conv3_1"
  }
  layer {
    name: "conv3_2"
    type: "Convolution"
    bottom: "conv3_1"
    top: "conv3_2"
    param {
      lr_mult: 1
    }
    param {
      lr_mult: 2
    }
    convolution_param {
      num_output: 256
      pad: 1
      kernel_size: 3
    }
  }
  layer {
    name: "relu3_2"
    type: "ReLU"
    bottom: "conv3_2"
    top: "conv3_2"
  }
  layer {
    name: "conv3_3"
    type: "Convolution"
    bottom: "conv3_2"
    top: "conv3_3"
    param {
      lr_mult: 1
    }
    param {
      lr_mult: 2
    }
    convolution_param {
      num_output: 256
      pad: 1
      kernel_size: 3
    }
  }
  layer {
    name: "relu3_3"
    type: "ReLU"
    bottom: "conv3_3"
    top: "conv3_3"
  }
  layer {
    name: "pool3"
    type: "Pooling"
    bottom: "conv3_3"
    top: "pool3"
    pooling_param {
      pool: MAX
      kernel_size: 2
      stride: 2
    }
  }
  layer {
    name: "conv4_1"
    type: "Convolution"
    bottom: "pool3"
    top: "conv4_1"
    param {
      lr_mult: 1
    }
    param {
      lr_mult: 2
    }
    convolution_param {
      num_output: 512
      pad: 1
      kernel_size: 3
    }
  }
  layer {
    name: "relu4_1"
    type: "ReLU"
    bottom: "conv4_1"
    top: "conv4_1"
  }
  layer {
    name: "conv4_2"
    type: "Convolution"
    bottom: "conv4_1"
    top: "conv4_2"
    param {
      lr_mult: 1
    }
    param {
      lr_mult: 2
    }
    convolution_param {
      num_output: 512
      pad: 1
      kernel_size: 3
    }
  }
  layer {
    name: "relu4_2"
    type: "ReLU"
    bottom: "conv4_2"
    top: "conv4_2"
  }
  layer {
    name: "conv4_3"
    type: "Convolution"
    bottom: "conv4_2"
    top: "conv4_3"
    param {
      lr_mult: 1
    }
    param {
      lr_mult: 2
    }
    convolution_param {
      num_output: 512
      pad: 1
      kernel_size: 3
    }
  }
  layer {
    name: "relu4_3"
    type: "ReLU"
    bottom: "conv4_3"
    top: "conv4_3"
  }
  layer {
    name: "pool4"
    type: "Pooling"
    bottom: "conv4_3"
    top: "pool4"
    pooling_param {
      pool: MAX
      kernel_size: 2
      stride: 2
    }
  }
  layer {
    name: "conv5_1"
    type: "Convolution"
    bottom: "pool4"
    top: "conv5_1"
    param {
      lr_mult: 1
    }
    param {
      lr_mult: 2
    }
    convolution_param {
      num_output: 512
      pad: 1
      kernel_size: 3
    }
  }
  layer {
    name: "relu5_1"
    type: "ReLU"
    bottom: "conv5_1"
    top: "conv5_1"
  }
  layer {
    name: "conv5_2"
    type: "Convolution"
    bottom: "conv5_1"
    top: "conv5_2"
    param {
      lr_mult: 1
    }
    param {
      lr_mult: 2
    }
    convolution_param {
      num_output: 512
      pad: 1
      kernel_size: 3
    }
  }
  layer {
    name: "relu5_2"
    type: "ReLU"
    bottom: "conv5_2"
    top: "conv5_2"
  }
  layer {
    name: "conv5_3"
    type: "Convolution"
    bottom: "conv5_2"
    top: "conv5_3"
    param {
      lr_mult: 1
    }
    param {
      lr_mult: 2
    }
    convolution_param {
      num_output: 512
      pad: 1
      kernel_size: 3
    }
  }
  layer {
    name: "relu5_3"
    type: "ReLU"
    bottom: "conv5_3"
    top: "conv5_3"
  }
  layer {
    name: "rpn_big_conv1"
    type: "Convolution"
    bottom: "conv5_3"
    top: "rpn_big_conv1"
    param {
      lr_mult: 1
    }
    param {
      lr_mult: 2
    }
    convolution_param {
      num_output: 512
      pad: 1
      kernel_size: 3
      stride: 1
      weight_filler {
        type: "gaussian"
        mean: 0
        std: 0.01
      }
      bias_filler {
        type: "constant"
      }
    }
  }
  layer {
    name: "rpn_big_conv1_relu"
    type: "ReLU"
    bottom: "rpn_big_conv1"
    top: "rpn_big_conv1"
    relu_param {
      negative_slope: 0
    }
  }
  layer {
    name: "rpn_big_conv2"
    type: "Convolution"
    bottom: "rpn_big_conv1"
    top: "rpn_big_conv2"
    param {
      lr_mult: 1
    }
    param {
      lr_mult: 2
    }
    convolution_param {
      num_output: 512
      pad: 1
      kernel_size: 3
      stride: 1
      weight_filler {
        type: "gaussian"
        mean: 0
        std: 0.01
      }
      bias_filler {
        type: "constant"
      }
    }
  }
  layer {
    name: "rpn_big_conv2_relu"
    type: "ReLU"
    bottom: "rpn_big_conv2"
    top: "rpn_big_conv2"
    relu_param {
      negative_slope: 0
    }
  }
  layer {
    name: "rpn_big_conv2_drop"
    type: "Dropout"
    bottom: "rpn_big_conv2"
    top: "rpn_big_conv2"
    dropout_param {
      dropout_ratio: 0.3
    }
  }
  layer {
    name: "rpn_big_output_cls"
    type: "Convolution"
    bottom: "rpn_big_conv2"
    top: "rpn_big_output_cls"
    param {
      lr_mult: 1
    }
    param {
      lr_mult: 2
    }
    convolution_param {
      num_output: 384
      pad: 1
      kernel_size: 3
      stride: 1
      weight_filler {
        type: "gaussian"
        mean: 0
        std: 0.01
      }
      bias_filler {
        type: "constant"
      }
    }
  }
  layer {
    name: "rpn_big_output_cls_relu"
    type: "ReLU"
    bottom: "rpn_big_output_cls"
    top: "rpn_big_output_cls"
    relu_param {
      negative_slope: 0
    }
  }
  layer {
    name: "rpn_big_cls_score"
    type: "Convolution"
    bottom: "rpn_big_output_cls"
    top: "rpn_big_cls_score"
    param {
      lr_mult: 1
    }
    param {
      lr_mult: 2
    }
    convolution_param {
      num_output: 52
      pad: 0
      kernel_size: 3
      stride: 1
      weight_filler {
        type: "gaussian"
        mean: 0
        std: 0.01
      }
      bias_filler {
        type: "constant"
      }
    }
  }
  layer {
    name: "rpn_big_cls_score_reshape"
    type: "Reshape"
    bottom: "rpn_big_cls_score"
    top: "rpn_big_cls_score_reshape"
    reshape_param {
      shape {
        dim: 0
        dim: 2
        dim: -1
        dim: 0
      }
    }
  }
  layer {
    name: "rpn_big_cls_prob"
    type: "Softmax"
    bottom: "rpn_big_cls_score_reshape"
    top: "rpn_big_cls_prob"
  }
  layer {
    name: "rpn_big_cls_prob_reshape"
    type: "Reshape"
    bottom: "rpn_big_cls_prob"
    top: "rpn_big_cls_prob_reshape"
    reshape_param {
      shape {
        dim: 0
        dim: 52
        dim: -1
        dim: 0
      }
    }
  }
  layer {
    name: "rpn_big_anchor_target"
    type: "Python"
    bottom: "rpn_big_cls_score"
    bottom: "input_gt_boxes"
    bottom: "input_ignored_boxes"
    bottom: "input_im_info"
    bottom: "input_data"
    bottom: "rpn_big_cls_prob_reshape"
    top: "rpn_big_anchor_target_labels"
    top: "rpn_big_anchor_target_bbox_targets"
    top: "rpn_big_anchor_target_inside_weights"
    top: "rpn_big_anchor_target_outside_weights"
    python_param {
      module: "rpn.anchor_target_layer"
      layer: "AnchorTargetLayer"
      param_str: "{\"anchor_ratios\": [1.0], \"positive_overlap\": 0.6, \"anchor_scales\": [2.5, 3.025, 3.66025, 4.4289024999999995, 5.358972025, 6.484356150249999, 7.846070941802498, 9.493745839581022, 11.487432465893036, 13.899793283730574, 16.818749873313998, 20.350687346709933, 24.62433168951902, 29.795441344318014], \"anchor_shift_num_xy\": [[2, 2], [2, 2], [2, 2], [2, 2], [1, 1], [1, 1], [1, 1], [1, 1], [1, 1], [1, 1], [1, 1], [1, 1], [1, 1], [1, 1]], \"batchsize\": 256, \"tn_fraction\": 0.2, \"name\": \"rpn_big\", \"negative_overlap\": 0.4, \"fg_fraction\": 0.5, \"num_classes\": 1, \"square_targets\": true, \"feat_stride\": 16}"
    }
  }
  layer {
    name: "rpn_big_loss_cls"
    type: "SoftmaxWithLoss"
    bottom: "rpn_big_cls_score_reshape"
    bottom: "rpn_big_anchor_target_labels"
    top: "rpn_big_loss_cls"
    loss_weight: 1
    propagate_down: true
    propagate_down: false
    loss_param {
      ignore_label: -1
      normalization: VALID
    }
  }
  layer {
    name: "rpn_big_output_box"
    type: "Convolution"
    bottom: "rpn_big_conv2"
    top: "rpn_big_output_box"
    param {
      lr_mult: 1
    }
    param {
      lr_mult: 2
    }
    convolution_param {
      num_output: 384
      pad: 1
      kernel_size: 3
      stride: 1
      weight_filler {
        type: "gaussian"
        mean: 0
        std: 0.01
      }
      bias_filler {
        type: "constant"
      }
    }
  }
  layer {
    name: "rpn_big_output_box_relu"
    type: "ReLU"
    bottom: "rpn_big_output_box"
    top: "rpn_big_output_box"
    relu_param {
      negative_slope: 0
    }
  }
  layer {
    name: "rpn_big_bbox_pred"
    type: "Convolution"
    bottom: "rpn_big_output_box"
    top: "rpn_big_bbox_pred"
    param {
      lr_mult: 1
    }
    param {
      lr_mult: 2
    }
    convolution_param {
      num_output: 104
      pad: 0
      kernel_size: 3
      stride: 1
      weight_filler {
        type: "gaussian"
        mean: 0
        std: 0.01
      }
      bias_filler {
        type: "constant"
      }
    }
  }
  layer {
    name: "rpn_big_loss_bbox"
    type: "Python"
    bottom: "rpn_big_bbox_pred"
    bottom: "rpn_big_anchor_target_bbox_targets"
    bottom: "rpn_big_anchor_target_inside_weights"
    bottom: "rpn_big_anchor_target_outside_weights"
    top: "rpn_big_loss_bbox"
    loss_weight: 1
    python_param {
      module: "layers.smooth_l1_loss"
      layer: "SmoothL1LossLayer"
      param_str: "{\"sigma\": 3}"
    }
  }
  layer {
    name: "proposal"
    type: "Python"
    bottom: "rpn_big_cls_prob_reshape"
    bottom: "rpn_big_bbox_pred"
    bottom: "input_im_info"
    top: "rpn_rois"
    python_param {
      module: "rpn.proposal_layer"
      layer: "ProposalLayer"
      param_str: "{\"anchor_shift_num_xy\": [[2, 2], [2, 2], [2, 2], [2, 2], [1, 1], [1, 1], [1, 1], [1, 1], [1, 1], [1, 1], [1, 1], [1, 1], [1, 1], [1, 1]], \"feat_stride\": 16, \"num_classes\": 1, \"anchor_scales\": [2.5, 3.025, 3.66025, 4.4289024999999995, 5.358972025, 6.484356150249999, 7.846070941802498, 9.493745839581022, 11.487432465893036, 13.899793283730574, 16.818749873313998, 20.350687346709933, 24.62433168951902, 29.795441344318014], \"square_targets\": true, \"name\": \"rpn_big\", \"batchsize\": 256, \"anchor_ratios\": [1.0]}"
    }
  }
  layer {
    name: "roi-data"
    type: "Python"
    bottom: "rpn_rois"
    bottom: "input_gt_boxes"
    top: "rois"
    top: "labels"
    top: "bbox_targets"
    top: "bbox_inside_weights"
    top: "bbox_outside_weights"
    top: "pid_label"
    python_param {
      module: "rpn.proposal_target_layer"
      layer: "ProposalTargetLayer"
      param_str: "{\"num_classes\": 2, \"bg_aux_label\": 5532}"
    }
  }
  layer {
    name: "roi-pool"
    type: "ROIPooling"
    bottom: "conv5_3"
    bottom: "rois"
    top: "roi-pool"
    roi_pooling_param {
      pooled_h: 7
      pooled_w: 7
      spatial_scale: 0.0625
    }
  }
  layer {
    name: "fc6"
    type: "InnerProduct"
    bottom: "roi-pool"
    top: "fc6"
    param {
      lr_mult: 1
    }
    param {
      lr_mult: 2
    }
    inner_product_param {
      num_output: 4096
    }
  }
  layer {
    name: "relu6"
    type: "ReLU"
    bottom: "fc6"
    top: "fc6"
  }
  layer {
    name: "drop6"
    type: "Dropout"
    bottom: "fc6"
    top: "fc6"
    dropout_param {
      dropout_ratio: 0.5
    }
  }
  layer {
    name: "fc7"
    type: "InnerProduct"
    bottom: "fc6"
    top: "fc7"
    param {
      lr_mult: 1
    }
    param {
      lr_mult: 2
    }
    inner_product_param {
      num_output: 4096
    }
  }
  layer {
    name: "relu7"
    type: "ReLU"
    bottom: "fc7"
    top: "fc7"
  }
  layer {
    name: "drop7"
    type: "Dropout"
    bottom: "fc7"
    top: "fc7"
    dropout_param {
      dropout_ratio: 0.5
    }
  }
  layer {
    name: "bbox_pred"
    type: "InnerProduct"
    bottom: "fc7"
    top: "bbox_pred"
    param {
      lr_mult: 1
    }
    param {
      lr_mult: 2
    }
    inner_product_param {
      num_output: 8
      weight_filler {
        type: "gaussian"
        std: 0.001
      }
      bias_filler {
        type: "constant"
        value: 0
      }
    }
  }
  layer {
    name: "loss_bbox"
    type: "SmoothL1Loss"
    bottom: "bbox_pred"
    bottom: "bbox_targets"
    bottom: "bbox_inside_weights"
    bottom: "bbox_outside_weights"
    top: "loss_bbox"
    loss_weight: 1
  }
}
average_loss: 100
stepvalue: 70000
stepvalue: 120000
iter_size: 2
I0413 18:20:44.060319 13072 solver.cpp:86] Creating training net specified in net_param.
I0413 18:20:44.061180 13072 net.cpp:58] Initializing net from parameters: 
name: "GeneratedModel_13_04_2017_18_20"
state {
  phase: TRAIN
}
layer {
  name: "input"
  type: "Python"
  top: "input_data"
  top: "input_im_info"
  top: "input_gt_boxes"
  top: "input_ignored_boxes"
  python_param {
    module: "layers.roi_data_layer"
    layer: "RoIDataLayer"
    param_str: "{\"num_classes\": 2}"
  }
}
layer {
  name: "conv1_1"
  type: "Convolution"
  bottom: "input_data"
  top: "conv1_1"
  param {
    lr_mult: 0
    decay_mult: 0
  }
  param {
    lr_mult: 0
    decay_mult: 0
  }
  convolution_param {
    num_output: 64
    pad: 1
    kernel_size: 3
  }
}
layer {
  name: "relu1_1"
  type: "ReLU"
  bottom: "conv1_1"
  top: "conv1_1"
}
layer {
  name: "conv1_2"
  type: "Convolution"
  bottom: "conv1_1"
  top: "conv1_2"
  param {
    lr_mult: 0
    decay_mult: 0
  }
  param {
    lr_mult: 0
    decay_mult: 0
  }
  convolution_param {
    num_output: 64
    pad: 1
    kernel_size: 3
  }
}
layer {
  name: "relu1_2"
  type: "ReLU"
  bottom: "conv1_2"
  top: "conv1_2"
}
layer {
  name: "pool1"
  type: "Pooling"
  bottom: "conv1_2"
  top: "pool1"
  pooling_param {
    pool: MAX
    kernel_size: 2
    stride: 2
  }
}
layer {
  name: "conv2_1"
  type: "Convolution"
  bottom: "pool1"
  top: "conv2_1"
  param {
    lr_mult: 0
    decay_mult: 0
  }
  param {
    lr_mult: 0
    decay_mult: 0
  }
  convolution_param {
    num_output: 128
    pad: 1
    kernel_size: 3
  }
}
layer {
  name: "relu2_1"
  type: "ReLU"
  bottom: "conv2_1"
  top: "conv2_1"
}
layer {
  name: "conv2_2"
  type: "Convolution"
  bottom: "conv2_1"
  top: "conv2_2"
  param {
    lr_mult: 0
    decay_mult: 0
  }
  param {
    lr_mult: 0
    decay_mult: 0
  }
  convolution_param {
    num_output: 128
    pad: 1
    kernel_size: 3
  }
}
layer {
  name: "relu2_2"
  type: "ReLU"
  bottom: "conv2_2"
  top: "conv2_2"
}
layer {
  name: "pool2"
  type: "Pooling"
  bottom: "conv2_2"
  top: "pool2"
  pooling_param {
    pool: MAX
    kernel_size: 2
    stride: 2
  }
}
layer {
  name: "conv3_1"
  type: "Convolution"
  bottom: "pool2"
  top: "conv3_1"
  param {
    lr_mult: 1
  }
  param {
    lr_mult: 2
  }
  convolution_param {
    num_output: 256
    pad: 1
    kernel_size: 3
  }
}
layer {
  name: "relu3_1"
  type: "ReLU"
  bottom: "conv3_1"
  top: "conv3_1"
}
layer {
  name: "conv3_2"
  type: "Convolution"
  bottom: "conv3_1"
  top: "conv3_2"
  param {
    lr_mult: 1
  }
  param {
    lr_mult: 2
  }
  convolution_param {
    num_output: 256
    pad: 1
    kernel_size: 3
  }
}
layer {
  name: "relu3_2"
  type: "ReLU"
  bottom: "conv3_2"
  top: "conv3_2"
}
layer {
  name: "conv3_3"
  type: "Convolution"
  bottom: "conv3_2"
  top: "conv3_3"
  param {
    lr_mult: 1
  }
  param {
    lr_mult: 2
  }
  convolution_param {
    num_output: 256
    pad: 1
    kernel_size: 3
  }
}
layer {
  name: "relu3_3"
  type: "ReLU"
  bottom: "conv3_3"
  top: "conv3_3"
}
layer {
  name: "pool3"
  type: "Pooling"
  bottom: "conv3_3"
  top: "pool3"
  pooling_param {
    pool: MAX
    kernel_size: 2
    stride: 2
  }
}
layer {
  name: "conv4_1"
  type: "Convolution"
  bottom: "pool3"
  top: "conv4_1"
  param {
    lr_mult: 1
  }
  param {
    lr_mult: 2
  }
  convolution_param {
    num_output: 512
    pad: 1
    kernel_size: 3
  }
}
layer {
  name: "relu4_1"
  type: "ReLU"
  bottom: "conv4_1"
  top: "conv4_1"
}
layer {
  name: "conv4_2"
  type: "Convolution"
  bottom: "conv4_1"
  top: "conv4_2"
  param {
    lr_mult: 1
  }
  param {
    lr_mult: 2
  }
  convolution_param {
    num_output: 512
    pad: 1
    kernel_size: 3
  }
}
layer {
  name: "relu4_2"
  type: "ReLU"
  bottom: "conv4_2"
  top: "conv4_2"
}
layer {
  name: "conv4_3"
  type: "Convolution"
  bottom: "conv4_2"
  top: "conv4_3"
  param {
    lr_mult: 1
  }
  param {
    lr_mult: 2
  }
  convolution_param {
    num_output: 512
    pad: 1
    kernel_size: 3
  }
}
layer {
  name: "relu4_3"
  type: "ReLU"
  bottom: "conv4_3"
  top: "conv4_3"
}
layer {
  name: "pool4"
  type: "Pooling"
  bottom: "conv4_3"
  top: "pool4"
  pooling_param {
    pool: MAX
    kernel_size: 2
    stride: 2
  }
}
layer {
  name: "conv5_1"
  type: "Convolution"
  bottom: "pool4"
  top: "conv5_1"
  param {
    lr_mult: 1
  }
  param {
    lr_mult: 2
  }
  convolution_param {
    num_output: 512
    pad: 1
    kernel_size: 3
  }
}
layer {
  name: "relu5_1"
  type: "ReLU"
  bottom: "conv5_1"
  top: "conv5_1"
}
layer {
  name: "conv5_2"
  type: "Convolution"
  bottom: "conv5_1"
  top: "conv5_2"
  param {
    lr_mult: 1
  }
  param {
    lr_mult: 2
  }
  convolution_param {
    num_output: 512
    pad: 1
    kernel_size: 3
  }
}
layer {
  name: "relu5_2"
  type: "ReLU"
  bottom: "conv5_2"
  top: "conv5_2"
}
layer {
  name: "conv5_3"
  type: "Convolution"
  bottom: "conv5_2"
  top: "conv5_3"
  param {
    lr_mult: 1
  }
  param {
    lr_mult: 2
  }
  convolution_param {
    num_output: 512
    pad: 1
    kernel_size: 3
  }
}
layer {
  name: "relu5_3"
  type: "ReLU"
  bottom: "conv5_3"
  top: "conv5_3"
}
layer {
  name: "rpn_big_conv1"
  type: "Convolution"
  bottom: "conv5_3"
  top: "rpn_big_conv1"
  param {
    lr_mult: 1
  }
  param {
    lr_mult: 2
  }
  convolution_param {
    num_output: 512
    pad: 1
    kernel_size: 3
    stride: 1
    weight_filler {
      type: "gaussian"
      mean: 0
      std: 0.01
    }
    bias_filler {
      type: "constant"
    }
  }
}
layer {
  name: "rpn_big_conv1_relu"
  type: "ReLU"
  bottom: "rpn_big_conv1"
  top: "rpn_big_conv1"
  relu_param {
    negative_slope: 0
  }
}
layer {
  name: "rpn_big_conv2"
  type: "Convolution"
  bottom: "rpn_big_conv1"
  top: "rpn_big_conv2"
  param {
    lr_mult: 1
  }
  param {
    lr_mult: 2
  }
  convolution_param {
    num_output: 512
    pad: 1
    kernel_size: 3
    stride: 1
    weight_filler {
      type: "gaussian"
      mean: 0
      std: 0.01
    }
    bias_filler {
      type: "constant"
    }
  }
}
layer {
  name: "rpn_big_conv2_relu"
  type: "ReLU"
  bottom: "rpn_big_conv2"
  top: "rpn_big_conv2"
  relu_param {
    negative_slope: 0
  }
}
layer {
  name: "rpn_big_conv2_drop"
  type: "Dropout"
  bottom: "rpn_big_conv2"
  top: "rpn_big_conv2"
  dropout_param {
    dropout_ratio: 0.3
  }
}
layer {
  name: "rpn_big_output_cls"
  type: "Convolution"
  bottom: "rpn_big_conv2"
  top: "rpn_big_output_cls"
  param {
    lr_mult: 1
  }
  param {
    lr_mult: 2
  }
  convolution_param {
    num_output: 384
    pad: 1
    kernel_size: 3
    stride: 1
    weight_filler {
      type: "gaussian"
      mean: 0
      std: 0.01
    }
    bias_filler {
      type: "constant"
    }
  }
}
layer {
  name: "rpn_big_output_cls_relu"
  type: "ReLU"
  bottom: "rpn_big_output_cls"
  top: "rpn_big_output_cls"
  relu_param {
    negative_slope: 0
  }
}
layer {
  name: "rpn_big_cls_score"
  type: "Convolution"
  bottom: "rpn_big_output_cls"
  top: "rpn_big_cls_score"
  param {
    lr_mult: 1
  }
  param {
    lr_mult: 2
  }
  convolution_param {
    num_output: 52
    pad: 0
    kernel_size: 3
    stride: 1
    weight_filler {
      type: "gaussian"
      mean: 0
      std: 0.01
    }
    bias_filler {
      type: "constant"
    }
  }
}
layer {
  name: "rpn_big_cls_score_reshape"
  type: "Reshape"
  bottom: "rpn_big_cls_score"
  top: "rpn_big_cls_score_reshape"
  reshape_param {
    shape {
      dim: 0
      dim: 2
      dim: -1
      dim: 0
    }
  }
}
layer {
  name: "rpn_big_cls_prob"
  type: "Softmax"
  bottom: "rpn_big_cls_score_reshape"
  top: "rpn_big_cls_prob"
}
layer {
  name: "rpn_big_cls_prob_reshape"
  type: "Reshape"
  bottom: "rpn_big_cls_prob"
  top: "rpn_big_cls_prob_reshape"
  reshape_param {
    shape {
      dim: 0
      dim: 52
      dim: -1
      dim: 0
    }
  }
}
layer {
  name: "rpn_big_anchor_target"
  type: "Python"
  bottom: "rpn_big_cls_score"
  bottom: "input_gt_boxes"
  bottom: "input_ignored_boxes"
  bottom: "input_im_info"
  bottom: "input_data"
  bottom: "rpn_big_cls_prob_reshape"
  top: "rpn_big_anchor_target_labels"
  top: "rpn_big_anchor_target_bbox_targets"
  top: "rpn_big_anchor_target_inside_weights"
  top: "rpn_big_anchor_target_outside_weights"
  python_param {
    module: "rpn.anchor_target_layer"
    layer: "AnchorTargetLayer"
    param_str: "{\"anchor_ratios\": [1.0], \"positive_overlap\": 0.6, \"anchor_scales\": [2.5, 3.025, 3.66025, 4.4289024999999995, 5.358972025, 6.484356150249999, 7.846070941802498, 9.493745839581022, 11.487432465893036, 13.899793283730574, 16.818749873313998, 20.350687346709933, 24.62433168951902, 29.795441344318014], \"anchor_shift_num_xy\": [[2, 2], [2, 2], [2, 2], [2, 2], [1, 1], [1, 1], [1, 1], [1, 1], [1, 1], [1, 1], [1, 1], [1, 1], [1, 1], [1, 1]], \"batchsize\": 256, \"tn_fraction\": 0.2, \"name\": \"rpn_big\", \"negative_overlap\": 0.4, \"fg_fraction\": 0.5, \"num_classes\": 1, \"square_targets\": true, \"feat_stride\": 16}"
  }
}
layer {
  name: "rpn_big_loss_cls"
  type: "SoftmaxWithLoss"
  bottom: "rpn_big_cls_score_reshape"
  bottom: "rpn_big_anchor_target_labels"
  top: "rpn_big_loss_cls"
  loss_weight: 1
  propagate_down: true
  propagate_down: false
  loss_param {
    ignore_label: -1
    normalization: VALID
  }
}
layer {
  name: "rpn_big_output_box"
  type: "Convolution"
  bottom: "rpn_big_conv2"
  top: "rpn_big_output_box"
  param {
    lr_mult: 1
  }
  param {
    lr_mult: 2
  }
  convolution_param {
    num_output: 384
    pad: 1
    kernel_size: 3
    stride: 1
    weight_filler {
      type: "gaussian"
      mean: 0
      std: 0.01
    }
    bias_filler {
      type: "constant"
    }
  }
}
layer {
  name: "rpn_big_output_box_relu"
  type: "ReLU"
  bottom: "rpn_big_output_box"
  top: "rpn_big_output_box"
  relu_param {
    negative_slope: 0
  }
}
layer {
  name: "rpn_big_bbox_pred"
  type: "Convolution"
  bottom: "rpn_big_output_box"
  top: "rpn_big_bbox_pred"
  param {
    lr_mult: 1
  }
  param {
    lr_mult: 2
  }
  convolution_param {
    num_output: 104
    pad: 0
    kernel_size: 3
    stride: 1
    weight_filler {
      type: "gaussian"
      mean: 0
      std: 0.01
    }
    bias_filler {
      type: "constant"
    }
  }
}
layer {
  name: "rpn_big_loss_bbox"
  type: "Python"
  bottom: "rpn_big_bbox_pred"
  bottom: "rpn_big_anchor_target_bbox_targets"
  bottom: "rpn_big_anchor_target_inside_weights"
  bottom: "rpn_big_anchor_target_outside_weights"
  top: "rpn_big_loss_bbox"
  loss_weight: 1
  python_param {
    module: "layers.smooth_l1_loss"
    layer: "SmoothL1LossLayer"
    param_str: "{\"sigma\": 3}"
  }
}
layer {
  name: "proposal"
  type: "Python"
  bottom: "rpn_big_cls_prob_reshape"
  bottom: "rpn_big_bbox_pred"
  bottom: "input_im_info"
  top: "rpn_rois"
  python_param {
    module: "rpn.proposal_layer"
    layer: "ProposalLayer"
    param_str: "{\"anchor_shift_num_xy\": [[2, 2], [2, 2], [2, 2], [2, 2], [1, 1], [1, 1], [1, 1], [1, 1], [1, 1], [1, 1], [1, 1], [1, 1], [1, 1], [1, 1]], \"feat_stride\": 16, \"num_classes\": 1, \"anchor_scales\": [2.5, 3.025, 3.66025, 4.4289024999999995, 5.358972025, 6.484356150249999, 7.846070941802498, 9.493745839581022, 11.487432465893036, 13.899793283730574, 16.818749873313998, 20.350687346709933, 24.62433168951902, 29.795441344318014], \"square_targets\": true, \"name\": \"rpn_big\", \"batchsize\": 256, \"anchor_ratios\": [1.0]}"
  }
}
layer {
  name: "roi-data"
  type: "Python"
  bottom: "rpn_rois"
  bottom: "input_gt_boxes"
  top: "rois"
  top: "labels"
  top: "bbox_targets"
  top: "bbox_inside_weights"
  top: "bbox_outside_weights"
  top: "pid_label"
  python_param {
    module: "rpn.proposal_target_layer"
    layer: "ProposalTargetLayer"
    param_str: "{\"num_classes\": 2, \"bg_aux_label\": 5532}"
  }
}
layer {
  name: "roi-pool"
  type: "ROIPooling"
  bottom: "conv5_3"
  bottom: "rois"
  top: "roi-pool"
  roi_pooling_param {
    pooled_h: 7
    pooled_w: 7
    spatial_scale: 0.0625
  }
}
layer {
  name: "fc6"
  type: "InnerProduct"
  bottom: "roi-pool"
  top: "fc6"
  param {
    lr_mult: 1
  }
  param {
    lr_mult: 2
  }
  inner_product_param {
    num_output: 4096
  }
}
layer {
  name: "relu6"
  type: "ReLU"
  bottom: "fc6"
  top: "fc6"
}
layer {
  name: "drop6"
  type: "Dropout"
  bottom: "fc6"
  top: "fc6"
  dropout_param {
    dropout_ratio: 0.5
  }
}
layer {
  name: "fc7"
  type: "InnerProduct"
  bottom: "fc6"
  top: "fc7"
  param {
    lr_mult: 1
  }
  param {
    lr_mult: 2
  }
  inner_product_param {
    num_output: 4096
  }
}
layer {
  name: "relu7"
  type: "ReLU"
  bottom: "fc7"
  top: "fc7"
}
layer {
  name: "drop7"
  type: "Dropout"
  bottom: "fc7"
  top: "fc7"
  dropout_param {
    dropout_ratio: 0.5
  }
}
layer {
  name: "bbox_pred"
  type: "InnerProduct"
  bottom: "fc7"
  top: "bbox_pred"
  param {
    lr_mult: 1
  }
  param {
    lr_mult: 2
  }
  inner_product_param {
    num_output: 8
    weight_filler {
      type: "gaussian"
      std: 0.001
    }
    bias_filler {
      type: "constant"
      value: 0
    }
  }
}
layer {
  name: "loss_bbox"
  type: "SmoothL1Loss"
  bottom: "bbox_pred"
  bottom: "bbox_targets"
  bottom: "bbox_inside_weights"
  bottom: "bbox_outside_weights"
  top: "loss_bbox"
  loss_weight: 1
}
I0413 18:20:44.061568 13072 layer_factory.hpp:77] Creating layer input
I0413 18:20:44.063649 13072 net.cpp:100] Creating Layer input
I0413 18:20:44.063676 13072 net.cpp:408] input -> input_data
I0413 18:20:44.063694 13072 net.cpp:408] input -> input_im_info
I0413 18:20:44.063706 13072 net.cpp:408] input -> input_gt_boxes
I0413 18:20:44.063719 13072 net.cpp:408] input -> input_ignored_boxes
RoiDataLayer: name_to_top: {'im_info': 1, 'gt_boxes': 2, 'data': 0, 'ignored_boxes': 3}
I0413 18:20:44.382328 13072 net.cpp:150] Setting up input
I0413 18:20:44.382380 13072 net.cpp:157] Top shape: 1 3 1000 1500 (4500000)
I0413 18:20:44.382392 13072 net.cpp:157] Top shape: 1 3 (3)
I0413 18:20:44.382402 13072 net.cpp:157] Top shape: 1 5 (5)
I0413 18:20:44.382411 13072 net.cpp:157] Top shape: 1 5 (5)
I0413 18:20:44.382421 13072 net.cpp:165] Memory required for data: 18000052
I0413 18:20:44.382432 13072 layer_factory.hpp:77] Creating layer input_data_input_0_split
I0413 18:20:44.382452 13072 net.cpp:100] Creating Layer input_data_input_0_split
I0413 18:20:44.382459 13072 net.cpp:434] input_data_input_0_split <- input_data
I0413 18:20:44.382474 13072 net.cpp:408] input_data_input_0_split -> input_data_input_0_split_0
I0413 18:20:44.382495 13072 net.cpp:408] input_data_input_0_split -> input_data_input_0_split_1
I0413 18:20:44.382542 13072 net.cpp:150] Setting up input_data_input_0_split
I0413 18:20:44.382555 13072 net.cpp:157] Top shape: 1 3 1000 1500 (4500000)
I0413 18:20:44.382563 13072 net.cpp:157] Top shape: 1 3 1000 1500 (4500000)
I0413 18:20:44.382570 13072 net.cpp:165] Memory required for data: 54000052
I0413 18:20:44.382575 13072 layer_factory.hpp:77] Creating layer input_im_info_input_1_split
I0413 18:20:44.382586 13072 net.cpp:100] Creating Layer input_im_info_input_1_split
I0413 18:20:44.382594 13072 net.cpp:434] input_im_info_input_1_split <- input_im_info
I0413 18:20:44.382604 13072 net.cpp:408] input_im_info_input_1_split -> input_im_info_input_1_split_0
I0413 18:20:44.382621 13072 net.cpp:408] input_im_info_input_1_split -> input_im_info_input_1_split_1
I0413 18:20:44.382659 13072 net.cpp:150] Setting up input_im_info_input_1_split
I0413 18:20:44.382691 13072 net.cpp:157] Top shape: 1 3 (3)
I0413 18:20:44.382699 13072 net.cpp:157] Top shape: 1 3 (3)
I0413 18:20:44.382706 13072 net.cpp:165] Memory required for data: 54000076
I0413 18:20:44.382714 13072 layer_factory.hpp:77] Creating layer input_gt_boxes_input_2_split
I0413 18:20:44.382726 13072 net.cpp:100] Creating Layer input_gt_boxes_input_2_split
I0413 18:20:44.382735 13072 net.cpp:434] input_gt_boxes_input_2_split <- input_gt_boxes
I0413 18:20:44.382745 13072 net.cpp:408] input_gt_boxes_input_2_split -> input_gt_boxes_input_2_split_0
I0413 18:20:44.382761 13072 net.cpp:408] input_gt_boxes_input_2_split -> input_gt_boxes_input_2_split_1
I0413 18:20:44.382799 13072 net.cpp:150] Setting up input_gt_boxes_input_2_split
I0413 18:20:44.382812 13072 net.cpp:157] Top shape: 1 5 (5)
I0413 18:20:44.382822 13072 net.cpp:157] Top shape: 1 5 (5)
I0413 18:20:44.382828 13072 net.cpp:165] Memory required for data: 54000116
I0413 18:20:44.382834 13072 layer_factory.hpp:77] Creating layer conv1_1
I0413 18:20:44.382855 13072 net.cpp:100] Creating Layer conv1_1
I0413 18:20:44.382863 13072 net.cpp:434] conv1_1 <- input_data_input_0_split_0
I0413 18:20:44.382874 13072 net.cpp:408] conv1_1 -> conv1_1
I0413 18:20:44.386145 13072 net.cpp:150] Setting up conv1_1
I0413 18:20:44.386190 13072 net.cpp:157] Top shape: 1 64 1000 1500 (96000000)
I0413 18:20:44.386196 13072 net.cpp:165] Memory required for data: 438000116
I0413 18:20:44.386222 13072 layer_factory.hpp:77] Creating layer relu1_1
I0413 18:20:44.386236 13072 net.cpp:100] Creating Layer relu1_1
I0413 18:20:44.386245 13072 net.cpp:434] relu1_1 <- conv1_1
I0413 18:20:44.386260 13072 net.cpp:395] relu1_1 -> conv1_1 (in-place)
I0413 18:20:44.386301 13072 net.cpp:150] Setting up relu1_1
I0413 18:20:44.386324 13072 net.cpp:157] Top shape: 1 64 1000 1500 (96000000)
I0413 18:20:44.386342 13072 net.cpp:165] Memory required for data: 822000116
I0413 18:20:44.386358 13072 layer_factory.hpp:77] Creating layer conv1_2
I0413 18:20:44.386384 13072 net.cpp:100] Creating Layer conv1_2
I0413 18:20:44.386400 13072 net.cpp:434] conv1_2 <- conv1_1
I0413 18:20:44.386421 13072 net.cpp:408] conv1_2 -> conv1_2
I0413 18:20:44.390359 13072 net.cpp:150] Setting up conv1_2
I0413 18:20:44.390393 13072 net.cpp:157] Top shape: 1 64 1000 1500 (96000000)
I0413 18:20:44.390398 13072 net.cpp:165] Memory required for data: 1206000116
I0413 18:20:44.390414 13072 layer_factory.hpp:77] Creating layer relu1_2
I0413 18:20:44.390425 13072 net.cpp:100] Creating Layer relu1_2
I0413 18:20:44.390430 13072 net.cpp:434] relu1_2 <- conv1_2
I0413 18:20:44.390437 13072 net.cpp:395] relu1_2 -> conv1_2 (in-place)
I0413 18:20:44.390450 13072 net.cpp:150] Setting up relu1_2
I0413 18:20:44.390462 13072 net.cpp:157] Top shape: 1 64 1000 1500 (96000000)
I0413 18:20:44.390468 13072 net.cpp:165] Memory required for data: 1590000116
I0413 18:20:44.390475 13072 layer_factory.hpp:77] Creating layer pool1
I0413 18:20:44.390491 13072 net.cpp:100] Creating Layer pool1
I0413 18:20:44.390499 13072 net.cpp:434] pool1 <- conv1_2
I0413 18:20:44.390509 13072 net.cpp:408] pool1 -> pool1
I0413 18:20:44.390595 13072 net.cpp:150] Setting up pool1
I0413 18:20:44.390605 13072 net.cpp:157] Top shape: 1 64 500 750 (24000000)
I0413 18:20:44.390611 13072 net.cpp:165] Memory required for data: 1686000116
I0413 18:20:44.390619 13072 layer_factory.hpp:77] Creating layer conv2_1
I0413 18:20:44.390636 13072 net.cpp:100] Creating Layer conv2_1
I0413 18:20:44.390645 13072 net.cpp:434] conv2_1 <- pool1
I0413 18:20:44.390655 13072 net.cpp:408] conv2_1 -> conv2_1
I0413 18:20:44.392161 13072 net.cpp:150] Setting up conv2_1
I0413 18:20:44.392187 13072 net.cpp:157] Top shape: 1 128 500 750 (48000000)
I0413 18:20:44.392194 13072 net.cpp:165] Memory required for data: 1878000116
I0413 18:20:44.392215 13072 layer_factory.hpp:77] Creating layer relu2_1
I0413 18:20:44.392227 13072 net.cpp:100] Creating Layer relu2_1
I0413 18:20:44.392236 13072 net.cpp:434] relu2_1 <- conv2_1
I0413 18:20:44.392249 13072 net.cpp:395] relu2_1 -> conv2_1 (in-place)
I0413 18:20:44.392263 13072 net.cpp:150] Setting up relu2_1
I0413 18:20:44.392273 13072 net.cpp:157] Top shape: 1 128 500 750 (48000000)
I0413 18:20:44.392280 13072 net.cpp:165] Memory required for data: 2070000116
I0413 18:20:44.392287 13072 layer_factory.hpp:77] Creating layer conv2_2
I0413 18:20:44.392302 13072 net.cpp:100] Creating Layer conv2_2
I0413 18:20:44.392309 13072 net.cpp:434] conv2_2 <- conv2_1
I0413 18:20:44.392320 13072 net.cpp:408] conv2_2 -> conv2_2
I0413 18:20:44.393345 13072 net.cpp:150] Setting up conv2_2
I0413 18:20:44.393374 13072 net.cpp:157] Top shape: 1 128 500 750 (48000000)
I0413 18:20:44.393380 13072 net.cpp:165] Memory required for data: 2262000116
I0413 18:20:44.393395 13072 layer_factory.hpp:77] Creating layer relu2_2
I0413 18:20:44.393409 13072 net.cpp:100] Creating Layer relu2_2
I0413 18:20:44.393419 13072 net.cpp:434] relu2_2 <- conv2_2
I0413 18:20:44.393431 13072 net.cpp:395] relu2_2 -> conv2_2 (in-place)
I0413 18:20:44.393446 13072 net.cpp:150] Setting up relu2_2
I0413 18:20:44.393456 13072 net.cpp:157] Top shape: 1 128 500 750 (48000000)
I0413 18:20:44.393484 13072 net.cpp:165] Memory required for data: 2454000116
I0413 18:20:44.393492 13072 layer_factory.hpp:77] Creating layer pool2
I0413 18:20:44.393502 13072 net.cpp:100] Creating Layer pool2
I0413 18:20:44.393509 13072 net.cpp:434] pool2 <- conv2_2
I0413 18:20:44.393522 13072 net.cpp:408] pool2 -> pool2
I0413 18:20:44.393584 13072 net.cpp:150] Setting up pool2
I0413 18:20:44.393599 13072 net.cpp:157] Top shape: 1 128 250 375 (12000000)
I0413 18:20:44.393604 13072 net.cpp:165] Memory required for data: 2502000116
I0413 18:20:44.393611 13072 layer_factory.hpp:77] Creating layer conv3_1
I0413 18:20:44.393625 13072 net.cpp:100] Creating Layer conv3_1
I0413 18:20:44.393635 13072 net.cpp:434] conv3_1 <- pool2
I0413 18:20:44.393646 13072 net.cpp:408] conv3_1 -> conv3_1
I0413 18:20:44.394788 13072 net.cpp:150] Setting up conv3_1
I0413 18:20:44.394815 13072 net.cpp:157] Top shape: 1 256 250 375 (24000000)
I0413 18:20:44.394821 13072 net.cpp:165] Memory required for data: 2598000116
I0413 18:20:44.394842 13072 layer_factory.hpp:77] Creating layer relu3_1
I0413 18:20:44.394857 13072 net.cpp:100] Creating Layer relu3_1
I0413 18:20:44.394868 13072 net.cpp:434] relu3_1 <- conv3_1
I0413 18:20:44.394879 13072 net.cpp:395] relu3_1 -> conv3_1 (in-place)
I0413 18:20:44.394893 13072 net.cpp:150] Setting up relu3_1
I0413 18:20:44.394903 13072 net.cpp:157] Top shape: 1 256 250 375 (24000000)
I0413 18:20:44.394911 13072 net.cpp:165] Memory required for data: 2694000116
I0413 18:20:44.394917 13072 layer_factory.hpp:77] Creating layer conv3_2
I0413 18:20:44.394937 13072 net.cpp:100] Creating Layer conv3_2
I0413 18:20:44.394944 13072 net.cpp:434] conv3_2 <- conv3_1
I0413 18:20:44.394955 13072 net.cpp:408] conv3_2 -> conv3_2
I0413 18:20:44.396147 13072 net.cpp:150] Setting up conv3_2
I0413 18:20:44.396179 13072 net.cpp:157] Top shape: 1 256 250 375 (24000000)
I0413 18:20:44.396185 13072 net.cpp:165] Memory required for data: 2790000116
I0413 18:20:44.396199 13072 layer_factory.hpp:77] Creating layer relu3_2
I0413 18:20:44.396212 13072 net.cpp:100] Creating Layer relu3_2
I0413 18:20:44.396220 13072 net.cpp:434] relu3_2 <- conv3_2
I0413 18:20:44.396231 13072 net.cpp:395] relu3_2 -> conv3_2 (in-place)
I0413 18:20:44.396245 13072 net.cpp:150] Setting up relu3_2
I0413 18:20:44.396255 13072 net.cpp:157] Top shape: 1 256 250 375 (24000000)
I0413 18:20:44.396260 13072 net.cpp:165] Memory required for data: 2886000116
I0413 18:20:44.396265 13072 layer_factory.hpp:77] Creating layer conv3_3
I0413 18:20:44.396281 13072 net.cpp:100] Creating Layer conv3_3
I0413 18:20:44.396288 13072 net.cpp:434] conv3_3 <- conv3_2
I0413 18:20:44.396301 13072 net.cpp:408] conv3_3 -> conv3_3
I0413 18:20:44.398986 13072 net.cpp:150] Setting up conv3_3
I0413 18:20:44.399031 13072 net.cpp:157] Top shape: 1 256 250 375 (24000000)
I0413 18:20:44.399037 13072 net.cpp:165] Memory required for data: 2982000116
I0413 18:20:44.399061 13072 layer_factory.hpp:77] Creating layer relu3_3
I0413 18:20:44.399078 13072 net.cpp:100] Creating Layer relu3_3
I0413 18:20:44.399087 13072 net.cpp:434] relu3_3 <- conv3_3
I0413 18:20:44.399103 13072 net.cpp:395] relu3_3 -> conv3_3 (in-place)
I0413 18:20:44.399119 13072 net.cpp:150] Setting up relu3_3
I0413 18:20:44.399128 13072 net.cpp:157] Top shape: 1 256 250 375 (24000000)
I0413 18:20:44.399137 13072 net.cpp:165] Memory required for data: 3078000116
I0413 18:20:44.399142 13072 layer_factory.hpp:77] Creating layer pool3
I0413 18:20:44.399155 13072 net.cpp:100] Creating Layer pool3
I0413 18:20:44.399163 13072 net.cpp:434] pool3 <- conv3_3
I0413 18:20:44.399171 13072 net.cpp:408] pool3 -> pool3
I0413 18:20:44.399230 13072 net.cpp:150] Setting up pool3
I0413 18:20:44.399240 13072 net.cpp:157] Top shape: 1 256 125 188 (6016000)
I0413 18:20:44.399248 13072 net.cpp:165] Memory required for data: 3102064116
I0413 18:20:44.399255 13072 layer_factory.hpp:77] Creating layer conv4_1
I0413 18:20:44.399271 13072 net.cpp:100] Creating Layer conv4_1
I0413 18:20:44.399277 13072 net.cpp:434] conv4_1 <- pool3
I0413 18:20:44.399287 13072 net.cpp:408] conv4_1 -> conv4_1
I0413 18:20:44.402648 13072 net.cpp:150] Setting up conv4_1
I0413 18:20:44.402685 13072 net.cpp:157] Top shape: 1 512 125 188 (12032000)
I0413 18:20:44.402691 13072 net.cpp:165] Memory required for data: 3150192116
I0413 18:20:44.402707 13072 layer_factory.hpp:77] Creating layer relu4_1
I0413 18:20:44.402724 13072 net.cpp:100] Creating Layer relu4_1
I0413 18:20:44.402734 13072 net.cpp:434] relu4_1 <- conv4_1
I0413 18:20:44.402748 13072 net.cpp:395] relu4_1 -> conv4_1 (in-place)
I0413 18:20:44.402763 13072 net.cpp:150] Setting up relu4_1
I0413 18:20:44.402772 13072 net.cpp:157] Top shape: 1 512 125 188 (12032000)
I0413 18:20:44.402781 13072 net.cpp:165] Memory required for data: 3198320116
I0413 18:20:44.402786 13072 layer_factory.hpp:77] Creating layer conv4_2
I0413 18:20:44.402801 13072 net.cpp:100] Creating Layer conv4_2
I0413 18:20:44.402807 13072 net.cpp:434] conv4_2 <- conv4_1
I0413 18:20:44.402820 13072 net.cpp:408] conv4_2 -> conv4_2
I0413 18:20:44.407012 13072 net.cpp:150] Setting up conv4_2
I0413 18:20:44.407052 13072 net.cpp:157] Top shape: 1 512 125 188 (12032000)
I0413 18:20:44.407058 13072 net.cpp:165] Memory required for data: 3246448116
I0413 18:20:44.407083 13072 layer_factory.hpp:77] Creating layer relu4_2
I0413 18:20:44.407112 13072 net.cpp:100] Creating Layer relu4_2
I0413 18:20:44.407122 13072 net.cpp:434] relu4_2 <- conv4_2
I0413 18:20:44.407135 13072 net.cpp:395] relu4_2 -> conv4_2 (in-place)
I0413 18:20:44.407151 13072 net.cpp:150] Setting up relu4_2
I0413 18:20:44.407161 13072 net.cpp:157] Top shape: 1 512 125 188 (12032000)
I0413 18:20:44.407168 13072 net.cpp:165] Memory required for data: 3294576116
I0413 18:20:44.407174 13072 layer_factory.hpp:77] Creating layer conv4_3
I0413 18:20:44.407191 13072 net.cpp:100] Creating Layer conv4_3
I0413 18:20:44.407197 13072 net.cpp:434] conv4_3 <- conv4_2
I0413 18:20:44.407208 13072 net.cpp:408] conv4_3 -> conv4_3
I0413 18:20:44.411499 13072 net.cpp:150] Setting up conv4_3
I0413 18:20:44.411537 13072 net.cpp:157] Top shape: 1 512 125 188 (12032000)
I0413 18:20:44.411543 13072 net.cpp:165] Memory required for data: 3342704116
I0413 18:20:44.411559 13072 layer_factory.hpp:77] Creating layer relu4_3
I0413 18:20:44.411574 13072 net.cpp:100] Creating Layer relu4_3
I0413 18:20:44.411583 13072 net.cpp:434] relu4_3 <- conv4_3
I0413 18:20:44.411594 13072 net.cpp:395] relu4_3 -> conv4_3 (in-place)
I0413 18:20:44.411609 13072 net.cpp:150] Setting up relu4_3
I0413 18:20:44.411618 13072 net.cpp:157] Top shape: 1 512 125 188 (12032000)
I0413 18:20:44.411623 13072 net.cpp:165] Memory required for data: 3390832116
I0413 18:20:44.411630 13072 layer_factory.hpp:77] Creating layer pool4
I0413 18:20:44.411643 13072 net.cpp:100] Creating Layer pool4
I0413 18:20:44.411649 13072 net.cpp:434] pool4 <- conv4_3
I0413 18:20:44.411659 13072 net.cpp:408] pool4 -> pool4
I0413 18:20:44.411715 13072 net.cpp:150] Setting up pool4
I0413 18:20:44.411743 13072 net.cpp:157] Top shape: 1 512 63 94 (3032064)
I0413 18:20:44.411749 13072 net.cpp:165] Memory required for data: 3402960372
I0413 18:20:44.411756 13072 layer_factory.hpp:77] Creating layer conv5_1
I0413 18:20:44.411774 13072 net.cpp:100] Creating Layer conv5_1
I0413 18:20:44.411798 13072 net.cpp:434] conv5_1 <- pool4
I0413 18:20:44.411824 13072 net.cpp:408] conv5_1 -> conv5_1
I0413 18:20:44.416841 13072 net.cpp:150] Setting up conv5_1
I0413 18:20:44.416934 13072 net.cpp:157] Top shape: 1 512 63 94 (3032064)
I0413 18:20:44.416956 13072 net.cpp:165] Memory required for data: 3415088628
I0413 18:20:44.416986 13072 layer_factory.hpp:77] Creating layer relu5_1
I0413 18:20:44.417011 13072 net.cpp:100] Creating Layer relu5_1
I0413 18:20:44.417028 13072 net.cpp:434] relu5_1 <- conv5_1
I0413 18:20:44.417050 13072 net.cpp:395] relu5_1 -> conv5_1 (in-place)
I0413 18:20:44.417075 13072 net.cpp:150] Setting up relu5_1
I0413 18:20:44.417098 13072 net.cpp:157] Top shape: 1 512 63 94 (3032064)
I0413 18:20:44.417117 13072 net.cpp:165] Memory required for data: 3427216884
I0413 18:20:44.417124 13072 layer_factory.hpp:77] Creating layer conv5_2
I0413 18:20:44.417145 13072 net.cpp:100] Creating Layer conv5_2
I0413 18:20:44.417151 13072 net.cpp:434] conv5_2 <- conv5_1
I0413 18:20:44.417165 13072 net.cpp:408] conv5_2 -> conv5_2
I0413 18:20:44.421560 13072 net.cpp:150] Setting up conv5_2
I0413 18:20:44.421597 13072 net.cpp:157] Top shape: 1 512 63 94 (3032064)
I0413 18:20:44.421602 13072 net.cpp:165] Memory required for data: 3439345140
I0413 18:20:44.421617 13072 layer_factory.hpp:77] Creating layer relu5_2
I0413 18:20:44.421640 13072 net.cpp:100] Creating Layer relu5_2
I0413 18:20:44.421650 13072 net.cpp:434] relu5_2 <- conv5_2
I0413 18:20:44.421664 13072 net.cpp:395] relu5_2 -> conv5_2 (in-place)
I0413 18:20:44.421679 13072 net.cpp:150] Setting up relu5_2
I0413 18:20:44.421690 13072 net.cpp:157] Top shape: 1 512 63 94 (3032064)
I0413 18:20:44.421699 13072 net.cpp:165] Memory required for data: 3451473396
I0413 18:20:44.421705 13072 layer_factory.hpp:77] Creating layer conv5_3
I0413 18:20:44.421727 13072 net.cpp:100] Creating Layer conv5_3
I0413 18:20:44.421735 13072 net.cpp:434] conv5_3 <- conv5_2
I0413 18:20:44.421744 13072 net.cpp:408] conv5_3 -> conv5_3
I0413 18:20:44.426075 13072 net.cpp:150] Setting up conv5_3
I0413 18:20:44.426108 13072 net.cpp:157] Top shape: 1 512 63 94 (3032064)
I0413 18:20:44.426115 13072 net.cpp:165] Memory required for data: 3463601652
I0413 18:20:44.426128 13072 layer_factory.hpp:77] Creating layer relu5_3
I0413 18:20:44.426143 13072 net.cpp:100] Creating Layer relu5_3
I0413 18:20:44.426153 13072 net.cpp:434] relu5_3 <- conv5_3
I0413 18:20:44.426165 13072 net.cpp:395] relu5_3 -> conv5_3 (in-place)
I0413 18:20:44.426182 13072 net.cpp:150] Setting up relu5_3
I0413 18:20:44.426192 13072 net.cpp:157] Top shape: 1 512 63 94 (3032064)
I0413 18:20:44.426198 13072 net.cpp:165] Memory required for data: 3475729908
I0413 18:20:44.426205 13072 layer_factory.hpp:77] Creating layer conv5_3_relu5_3_0_split
I0413 18:20:44.426219 13072 net.cpp:100] Creating Layer conv5_3_relu5_3_0_split
I0413 18:20:44.426229 13072 net.cpp:434] conv5_3_relu5_3_0_split <- conv5_3
I0413 18:20:44.426239 13072 net.cpp:408] conv5_3_relu5_3_0_split -> conv5_3_relu5_3_0_split_0
I0413 18:20:44.426252 13072 net.cpp:408] conv5_3_relu5_3_0_split -> conv5_3_relu5_3_0_split_1
I0413 18:20:44.426298 13072 net.cpp:150] Setting up conv5_3_relu5_3_0_split
I0413 18:20:44.426309 13072 net.cpp:157] Top shape: 1 512 63 94 (3032064)
I0413 18:20:44.426317 13072 net.cpp:157] Top shape: 1 512 63 94 (3032064)
I0413 18:20:44.426324 13072 net.cpp:165] Memory required for data: 3499986420
I0413 18:20:44.426331 13072 layer_factory.hpp:77] Creating layer rpn_big_conv1
I0413 18:20:44.426350 13072 net.cpp:100] Creating Layer rpn_big_conv1
I0413 18:20:44.426357 13072 net.cpp:434] rpn_big_conv1 <- conv5_3_relu5_3_0_split_0
I0413 18:20:44.426370 13072 net.cpp:408] rpn_big_conv1 -> rpn_big_conv1
I0413 18:20:44.451812 13072 net.cpp:150] Setting up rpn_big_conv1
I0413 18:20:44.451846 13072 net.cpp:157] Top shape: 1 512 63 94 (3032064)
I0413 18:20:44.451851 13072 net.cpp:165] Memory required for data: 3512114676
I0413 18:20:44.451874 13072 layer_factory.hpp:77] Creating layer rpn_big_conv1_relu
I0413 18:20:44.451890 13072 net.cpp:100] Creating Layer rpn_big_conv1_relu
I0413 18:20:44.451901 13072 net.cpp:434] rpn_big_conv1_relu <- rpn_big_conv1
I0413 18:20:44.451915 13072 net.cpp:395] rpn_big_conv1_relu -> rpn_big_conv1 (in-place)
I0413 18:20:44.451931 13072 net.cpp:150] Setting up rpn_big_conv1_relu
I0413 18:20:44.451941 13072 net.cpp:157] Top shape: 1 512 63 94 (3032064)
I0413 18:20:44.451946 13072 net.cpp:165] Memory required for data: 3524242932
I0413 18:20:44.451954 13072 layer_factory.hpp:77] Creating layer rpn_big_conv2
I0413 18:20:44.451972 13072 net.cpp:100] Creating Layer rpn_big_conv2
I0413 18:20:44.451978 13072 net.cpp:434] rpn_big_conv2 <- rpn_big_conv1
I0413 18:20:44.451992 13072 net.cpp:408] rpn_big_conv2 -> rpn_big_conv2
I0413 18:20:44.477680 13072 net.cpp:150] Setting up rpn_big_conv2
I0413 18:20:44.477715 13072 net.cpp:157] Top shape: 1 512 63 94 (3032064)
I0413 18:20:44.477720 13072 net.cpp:165] Memory required for data: 3536371188
I0413 18:20:44.477735 13072 layer_factory.hpp:77] Creating layer rpn_big_conv2_relu
I0413 18:20:44.477751 13072 net.cpp:100] Creating Layer rpn_big_conv2_relu
I0413 18:20:44.477761 13072 net.cpp:434] rpn_big_conv2_relu <- rpn_big_conv2
I0413 18:20:44.477776 13072 net.cpp:395] rpn_big_conv2_relu -> rpn_big_conv2 (in-place)
I0413 18:20:44.477798 13072 net.cpp:150] Setting up rpn_big_conv2_relu
I0413 18:20:44.477810 13072 net.cpp:157] Top shape: 1 512 63 94 (3032064)
I0413 18:20:44.477816 13072 net.cpp:165] Memory required for data: 3548499444
I0413 18:20:44.477823 13072 layer_factory.hpp:77] Creating layer rpn_big_conv2_drop
I0413 18:20:44.477833 13072 net.cpp:100] Creating Layer rpn_big_conv2_drop
I0413 18:20:44.477840 13072 net.cpp:434] rpn_big_conv2_drop <- rpn_big_conv2
I0413 18:20:44.477854 13072 net.cpp:395] rpn_big_conv2_drop -> rpn_big_conv2 (in-place)
I0413 18:20:44.477886 13072 net.cpp:150] Setting up rpn_big_conv2_drop
I0413 18:20:44.477896 13072 net.cpp:157] Top shape: 1 512 63 94 (3032064)
I0413 18:20:44.477903 13072 net.cpp:165] Memory required for data: 3560627700
I0413 18:20:44.477910 13072 layer_factory.hpp:77] Creating layer rpn_big_conv2_rpn_big_conv2_drop_0_split
I0413 18:20:44.477922 13072 net.cpp:100] Creating Layer rpn_big_conv2_rpn_big_conv2_drop_0_split
I0413 18:20:44.477929 13072 net.cpp:434] rpn_big_conv2_rpn_big_conv2_drop_0_split <- rpn_big_conv2
I0413 18:20:44.477938 13072 net.cpp:408] rpn_big_conv2_rpn_big_conv2_drop_0_split -> rpn_big_conv2_rpn_big_conv2_drop_0_split_0
I0413 18:20:44.477953 13072 net.cpp:408] rpn_big_conv2_rpn_big_conv2_drop_0_split -> rpn_big_conv2_rpn_big_conv2_drop_0_split_1
I0413 18:20:44.478009 13072 net.cpp:150] Setting up rpn_big_conv2_rpn_big_conv2_drop_0_split
I0413 18:20:44.478039 13072 net.cpp:157] Top shape: 1 512 63 94 (3032064)
I0413 18:20:44.478049 13072 net.cpp:157] Top shape: 1 512 63 94 (3032064)
I0413 18:20:44.478054 13072 net.cpp:165] Memory required for data: 3584884212
I0413 18:20:44.478060 13072 layer_factory.hpp:77] Creating layer rpn_big_output_cls
I0413 18:20:44.478075 13072 net.cpp:100] Creating Layer rpn_big_output_cls
I0413 18:20:44.478082 13072 net.cpp:434] rpn_big_output_cls <- rpn_big_conv2_rpn_big_conv2_drop_0_split_0
I0413 18:20:44.478092 13072 net.cpp:408] rpn_big_output_cls -> rpn_big_output_cls
I0413 18:20:44.498229 13072 net.cpp:150] Setting up rpn_big_output_cls
I0413 18:20:44.498265 13072 net.cpp:157] Top shape: 1 384 63 94 (2274048)
I0413 18:20:44.498271 13072 net.cpp:165] Memory required for data: 3593980404
I0413 18:20:44.498286 13072 layer_factory.hpp:77] Creating layer rpn_big_output_cls_relu
I0413 18:20:44.498301 13072 net.cpp:100] Creating Layer rpn_big_output_cls_relu
I0413 18:20:44.498311 13072 net.cpp:434] rpn_big_output_cls_relu <- rpn_big_output_cls
I0413 18:20:44.498322 13072 net.cpp:395] rpn_big_output_cls_relu -> rpn_big_output_cls (in-place)
I0413 18:20:44.498338 13072 net.cpp:150] Setting up rpn_big_output_cls_relu
I0413 18:20:44.498356 13072 net.cpp:157] Top shape: 1 384 63 94 (2274048)
I0413 18:20:44.498363 13072 net.cpp:165] Memory required for data: 3603076596
I0413 18:20:44.498369 13072 layer_factory.hpp:77] Creating layer rpn_big_cls_score
I0413 18:20:44.498389 13072 net.cpp:100] Creating Layer rpn_big_cls_score
I0413 18:20:44.498399 13072 net.cpp:434] rpn_big_cls_score <- rpn_big_output_cls
I0413 18:20:44.498410 13072 net.cpp:408] rpn_big_cls_score -> rpn_big_cls_score
I0413 18:20:44.500684 13072 net.cpp:150] Setting up rpn_big_cls_score
I0413 18:20:44.500699 13072 net.cpp:157] Top shape: 1 52 61 92 (291824)
I0413 18:20:44.500705 13072 net.cpp:165] Memory required for data: 3604243892
I0413 18:20:44.500733 13072 layer_factory.hpp:77] Creating layer rpn_big_cls_score_rpn_big_cls_score_0_split
I0413 18:20:44.500746 13072 net.cpp:100] Creating Layer rpn_big_cls_score_rpn_big_cls_score_0_split
I0413 18:20:44.500754 13072 net.cpp:434] rpn_big_cls_score_rpn_big_cls_score_0_split <- rpn_big_cls_score
I0413 18:20:44.500766 13072 net.cpp:408] rpn_big_cls_score_rpn_big_cls_score_0_split -> rpn_big_cls_score_rpn_big_cls_score_0_split_0
I0413 18:20:44.500782 13072 net.cpp:408] rpn_big_cls_score_rpn_big_cls_score_0_split -> rpn_big_cls_score_rpn_big_cls_score_0_split_1
I0413 18:20:44.500828 13072 net.cpp:150] Setting up rpn_big_cls_score_rpn_big_cls_score_0_split
I0413 18:20:44.500838 13072 net.cpp:157] Top shape: 1 52 61 92 (291824)
I0413 18:20:44.500846 13072 net.cpp:157] Top shape: 1 52 61 92 (291824)
I0413 18:20:44.500852 13072 net.cpp:165] Memory required for data: 3606578484
I0413 18:20:44.500859 13072 layer_factory.hpp:77] Creating layer rpn_big_cls_score_reshape
I0413 18:20:44.500872 13072 net.cpp:100] Creating Layer rpn_big_cls_score_reshape
I0413 18:20:44.500880 13072 net.cpp:434] rpn_big_cls_score_reshape <- rpn_big_cls_score_rpn_big_cls_score_0_split_0
I0413 18:20:44.500892 13072 net.cpp:408] rpn_big_cls_score_reshape -> rpn_big_cls_score_reshape
I0413 18:20:44.500934 13072 net.cpp:150] Setting up rpn_big_cls_score_reshape
I0413 18:20:44.500946 13072 net.cpp:157] Top shape: 1 2 1586 92 (291824)
I0413 18:20:44.500952 13072 net.cpp:165] Memory required for data: 3607745780
I0413 18:20:44.500958 13072 layer_factory.hpp:77] Creating layer rpn_big_cls_score_reshape_rpn_big_cls_score_reshape_0_split
I0413 18:20:44.500969 13072 net.cpp:100] Creating Layer rpn_big_cls_score_reshape_rpn_big_cls_score_reshape_0_split
I0413 18:20:44.500977 13072 net.cpp:434] rpn_big_cls_score_reshape_rpn_big_cls_score_reshape_0_split <- rpn_big_cls_score_reshape
I0413 18:20:44.500990 13072 net.cpp:408] rpn_big_cls_score_reshape_rpn_big_cls_score_reshape_0_split -> rpn_big_cls_score_reshape_rpn_big_cls_score_reshape_0_split_0
I0413 18:20:44.501003 13072 net.cpp:408] rpn_big_cls_score_reshape_rpn_big_cls_score_reshape_0_split -> rpn_big_cls_score_reshape_rpn_big_cls_score_reshape_0_split_1
I0413 18:20:44.501044 13072 net.cpp:150] Setting up rpn_big_cls_score_reshape_rpn_big_cls_score_reshape_0_split
I0413 18:20:44.501054 13072 net.cpp:157] Top shape: 1 2 1586 92 (291824)
I0413 18:20:44.501061 13072 net.cpp:157] Top shape: 1 2 1586 92 (291824)
I0413 18:20:44.501068 13072 net.cpp:165] Memory required for data: 3610080372
I0413 18:20:44.501075 13072 layer_factory.hpp:77] Creating layer rpn_big_cls_prob
I0413 18:20:44.501088 13072 net.cpp:100] Creating Layer rpn_big_cls_prob
I0413 18:20:44.501096 13072 net.cpp:434] rpn_big_cls_prob <- rpn_big_cls_score_reshape_rpn_big_cls_score_reshape_0_split_0
I0413 18:20:44.501106 13072 net.cpp:408] rpn_big_cls_prob -> rpn_big_cls_prob
I0413 18:20:44.501165 13072 net.cpp:150] Setting up rpn_big_cls_prob
I0413 18:20:44.501175 13072 net.cpp:157] Top shape: 1 2 1586 92 (291824)
I0413 18:20:44.501181 13072 net.cpp:165] Memory required for data: 3611247668
I0413 18:20:44.501188 13072 layer_factory.hpp:77] Creating layer rpn_big_cls_prob_reshape
I0413 18:20:44.501199 13072 net.cpp:100] Creating Layer rpn_big_cls_prob_reshape
I0413 18:20:44.501206 13072 net.cpp:434] rpn_big_cls_prob_reshape <- rpn_big_cls_prob
I0413 18:20:44.501219 13072 net.cpp:408] rpn_big_cls_prob_reshape -> rpn_big_cls_prob_reshape
I0413 18:20:44.501250 13072 net.cpp:150] Setting up rpn_big_cls_prob_reshape
I0413 18:20:44.501260 13072 net.cpp:157] Top shape: 1 52 61 92 (291824)
I0413 18:20:44.501266 13072 net.cpp:165] Memory required for data: 3612414964
I0413 18:20:44.501273 13072 layer_factory.hpp:77] Creating layer rpn_big_cls_prob_reshape_rpn_big_cls_prob_reshape_0_split
I0413 18:20:44.501282 13072 net.cpp:100] Creating Layer rpn_big_cls_prob_reshape_rpn_big_cls_prob_reshape_0_split
I0413 18:20:44.501291 13072 net.cpp:434] rpn_big_cls_prob_reshape_rpn_big_cls_prob_reshape_0_split <- rpn_big_cls_prob_reshape
I0413 18:20:44.501301 13072 net.cpp:408] rpn_big_cls_prob_reshape_rpn_big_cls_prob_reshape_0_split -> rpn_big_cls_prob_reshape_rpn_big_cls_prob_reshape_0_split_0
I0413 18:20:44.501317 13072 net.cpp:408] rpn_big_cls_prob_reshape_rpn_big_cls_prob_reshape_0_split -> rpn_big_cls_prob_reshape_rpn_big_cls_prob_reshape_0_split_1
I0413 18:20:44.501353 13072 net.cpp:150] Setting up rpn_big_cls_prob_reshape_rpn_big_cls_prob_reshape_0_split
I0413 18:20:44.501363 13072 net.cpp:157] Top shape: 1 52 61 92 (291824)
I0413 18:20:44.501370 13072 net.cpp:157] Top shape: 1 52 61 92 (291824)
I0413 18:20:44.501377 13072 net.cpp:165] Memory required for data: 3614749556
I0413 18:20:44.501384 13072 layer_factory.hpp:77] Creating layer rpn_big_anchor_target
I0413 18:20:44.502734 13072 net.cpp:100] Creating Layer rpn_big_anchor_target
I0413 18:20:44.502749 13072 net.cpp:434] rpn_big_anchor_target <- rpn_big_cls_score_rpn_big_cls_score_0_split_1
I0413 18:20:44.502759 13072 net.cpp:434] rpn_big_anchor_target <- input_gt_boxes_input_2_split_0
I0413 18:20:44.502768 13072 net.cpp:434] rpn_big_anchor_target <- input_ignored_boxes
I0413 18:20:44.502776 13072 net.cpp:434] rpn_big_anchor_target <- input_im_info_input_1_split_0
I0413 18:20:44.502785 13072 net.cpp:434] rpn_big_anchor_target <- input_data_input_0_split_1
I0413 18:20:44.502795 13072 net.cpp:434] rpn_big_anchor_target <- rpn_big_cls_prob_reshape_rpn_big_cls_prob_reshape_0_split_0
I0413 18:20:44.502810 13072 net.cpp:408] rpn_big_anchor_target -> rpn_big_anchor_target_labels
I0413 18:20:44.502826 13072 net.cpp:408] rpn_big_anchor_target -> rpn_big_anchor_target_bbox_targets
I0413 18:20:44.502842 13072 net.cpp:408] rpn_big_anchor_target -> rpn_big_anchor_target_inside_weights
I0413 18:20:44.502857 13072 net.cpp:408] rpn_big_anchor_target -> rpn_big_anchor_target_outside_weights
I0413 18:20:44.508051 13072 net.cpp:150] Setting up rpn_big_anchor_target
I0413 18:20:44.508082 13072 net.cpp:157] Top shape: 1 1 1586 92 (145912)
I0413 18:20:44.508090 13072 net.cpp:157] Top shape: 1 104 61 92 (583648)
I0413 18:20:44.508105 13072 net.cpp:157] Top shape: 1 104 61 92 (583648)
I0413 18:20:44.508111 13072 net.cpp:157] Top shape: 1 104 61 92 (583648)
I0413 18:20:44.508121 13072 net.cpp:165] Memory required for data: 3622336980
I0413 18:20:44.508131 13072 layer_factory.hpp:77] Creating layer rpn_big_loss_cls
I0413 18:20:44.508147 13072 net.cpp:100] Creating Layer rpn_big_loss_cls
I0413 18:20:44.508157 13072 net.cpp:434] rpn_big_loss_cls <- rpn_big_cls_score_reshape_rpn_big_cls_score_reshape_0_split_1
I0413 18:20:44.508170 13072 net.cpp:434] rpn_big_loss_cls <- rpn_big_anchor_target_labels
I0413 18:20:44.508183 13072 net.cpp:408] rpn_big_loss_cls -> rpn_big_loss_cls
I0413 18:20:44.508203 13072 layer_factory.hpp:77] Creating layer rpn_big_loss_cls
I0413 18:20:44.508880 13072 net.cpp:150] Setting up rpn_big_loss_cls
I0413 18:20:44.508898 13072 net.cpp:157] Top shape: (1)
I0413 18:20:44.508910 13072 net.cpp:160]     with loss weight 1
I0413 18:20:44.508926 13072 net.cpp:165] Memory required for data: 3622336984
I0413 18:20:44.508935 13072 layer_factory.hpp:77] Creating layer rpn_big_output_box
I0413 18:20:44.508960 13072 net.cpp:100] Creating Layer rpn_big_output_box
I0413 18:20:44.508967 13072 net.cpp:434] rpn_big_output_box <- rpn_big_conv2_rpn_big_conv2_drop_0_split_1
I0413 18:20:44.508980 13072 net.cpp:408] rpn_big_output_box -> rpn_big_output_box
I0413 18:20:44.528091 13072 net.cpp:150] Setting up rpn_big_output_box
I0413 18:20:44.528126 13072 net.cpp:157] Top shape: 1 384 63 94 (2274048)
I0413 18:20:44.528131 13072 net.cpp:165] Memory required for data: 3631433176
I0413 18:20:44.528146 13072 layer_factory.hpp:77] Creating layer rpn_big_output_box_relu
I0413 18:20:44.528163 13072 net.cpp:100] Creating Layer rpn_big_output_box_relu
I0413 18:20:44.528173 13072 net.cpp:434] rpn_big_output_box_relu <- rpn_big_output_box
I0413 18:20:44.528185 13072 net.cpp:395] rpn_big_output_box_relu -> rpn_big_output_box (in-place)
I0413 18:20:44.528203 13072 net.cpp:150] Setting up rpn_big_output_box_relu
I0413 18:20:44.528211 13072 net.cpp:157] Top shape: 1 384 63 94 (2274048)
I0413 18:20:44.528218 13072 net.cpp:165] Memory required for data: 3640529368
I0413 18:20:44.528225 13072 layer_factory.hpp:77] Creating layer rpn_big_bbox_pred
I0413 18:20:44.528244 13072 net.cpp:100] Creating Layer rpn_big_bbox_pred
I0413 18:20:44.528251 13072 net.cpp:434] rpn_big_bbox_pred <- rpn_big_output_box
I0413 18:20:44.528264 13072 net.cpp:408] rpn_big_bbox_pred -> rpn_big_bbox_pred
I0413 18:20:44.532407 13072 net.cpp:150] Setting up rpn_big_bbox_pred
I0413 18:20:44.532433 13072 net.cpp:157] Top shape: 1 104 61 92 (583648)
I0413 18:20:44.532440 13072 net.cpp:165] Memory required for data: 3642863960
I0413 18:20:44.532454 13072 layer_factory.hpp:77] Creating layer rpn_big_bbox_pred_rpn_big_bbox_pred_0_split
I0413 18:20:44.532466 13072 net.cpp:100] Creating Layer rpn_big_bbox_pred_rpn_big_bbox_pred_0_split
I0413 18:20:44.532474 13072 net.cpp:434] rpn_big_bbox_pred_rpn_big_bbox_pred_0_split <- rpn_big_bbox_pred
I0413 18:20:44.532485 13072 net.cpp:408] rpn_big_bbox_pred_rpn_big_bbox_pred_0_split -> rpn_big_bbox_pred_rpn_big_bbox_pred_0_split_0
I0413 18:20:44.532502 13072 net.cpp:408] rpn_big_bbox_pred_rpn_big_bbox_pred_0_split -> rpn_big_bbox_pred_rpn_big_bbox_pred_0_split_1
I0413 18:20:44.532577 13072 net.cpp:150] Setting up rpn_big_bbox_pred_rpn_big_bbox_pred_0_split
I0413 18:20:44.532603 13072 net.cpp:157] Top shape: 1 104 61 92 (583648)
I0413 18:20:44.532613 13072 net.cpp:157] Top shape: 1 104 61 92 (583648)
I0413 18:20:44.532619 13072 net.cpp:165] Memory required for data: 3647533144
I0413 18:20:44.532625 13072 layer_factory.hpp:77] Creating layer rpn_big_loss_bbox
I0413 18:20:44.533000 13072 net.cpp:100] Creating Layer rpn_big_loss_bbox
I0413 18:20:44.533010 13072 net.cpp:434] rpn_big_loss_bbox <- rpn_big_bbox_pred_rpn_big_bbox_pred_0_split_0
I0413 18:20:44.533020 13072 net.cpp:434] rpn_big_loss_bbox <- rpn_big_anchor_target_bbox_targets
I0413 18:20:44.533028 13072 net.cpp:434] rpn_big_loss_bbox <- rpn_big_anchor_target_inside_weights
I0413 18:20:44.533036 13072 net.cpp:434] rpn_big_loss_bbox <- rpn_big_anchor_target_outside_weights
I0413 18:20:44.533048 13072 net.cpp:408] rpn_big_loss_bbox -> rpn_big_loss_bbox
I0413 18:20:44.534958 13072 net.cpp:150] Setting up rpn_big_loss_bbox
I0413 18:20:44.534991 13072 net.cpp:157] Top shape: 1 (1)
I0413 18:20:44.534996 13072 net.cpp:160]     with loss weight 1
I0413 18:20:44.535012 13072 net.cpp:165] Memory required for data: 3647533148
I0413 18:20:44.535020 13072 layer_factory.hpp:77] Creating layer proposal
I0413 18:20:44.535470 13072 net.cpp:100] Creating Layer proposal
I0413 18:20:44.535485 13072 net.cpp:434] proposal <- rpn_big_cls_prob_reshape_rpn_big_cls_prob_reshape_0_split_1
I0413 18:20:44.535496 13072 net.cpp:434] proposal <- rpn_big_bbox_pred_rpn_big_bbox_pred_0_split_1
I0413 18:20:44.535504 13072 net.cpp:434] proposal <- input_im_info_input_1_split_1
I0413 18:20:44.535516 13072 net.cpp:408] proposal -> rpn_rois
I0413 18:20:44.540212 13072 net.cpp:150] Setting up proposal
I0413 18:20:44.540236 13072 net.cpp:157] Top shape: 1 5 (5)
I0413 18:20:44.540242 13072 net.cpp:165] Memory required for data: 3647533168
I0413 18:20:44.540258 13072 layer_factory.hpp:77] Creating layer roi-data
I0413 18:20:44.540643 13072 net.cpp:100] Creating Layer roi-data
I0413 18:20:44.540654 13072 net.cpp:434] roi-data <- rpn_rois
I0413 18:20:44.540664 13072 net.cpp:434] roi-data <- input_gt_boxes_input_2_split_1
I0413 18:20:44.540685 13072 net.cpp:408] roi-data -> rois
I0413 18:20:44.540705 13072 net.cpp:408] roi-data -> labels
I0413 18:20:44.540719 13072 net.cpp:408] roi-data -> bbox_targets
I0413 18:20:44.540731 13072 net.cpp:408] roi-data -> bbox_inside_weights
I0413 18:20:44.540743 13072 net.cpp:408] roi-data -> bbox_outside_weights
I0413 18:20:44.540756 13072 net.cpp:408] roi-data -> pid_label
I0413 18:20:44.541998 13072 net.cpp:150] Setting up roi-data
I0413 18:20:44.542011 13072 net.cpp:157] Top shape: 1 5 (5)
I0413 18:20:44.542016 13072 net.cpp:157] Top shape: 1 1 (1)
I0413 18:20:44.542027 13072 net.cpp:157] Top shape: 1 8 (8)
I0413 18:20:44.542032 13072 net.cpp:157] Top shape: 1 8 (8)
I0413 18:20:44.542034 13072 net.cpp:157] Top shape: 1 8 (8)
I0413 18:20:44.542038 13072 net.cpp:157] Top shape: (0)
I0413 18:20:44.542040 13072 net.cpp:165] Memory required for data: 3647533288
I0413 18:20:44.542044 13072 layer_factory.hpp:77] Creating layer roi-pool
I0413 18:20:44.542058 13072 net.cpp:100] Creating Layer roi-pool
I0413 18:20:44.542068 13072 net.cpp:434] roi-pool <- conv5_3_relu5_3_0_split_1
I0413 18:20:44.542076 13072 net.cpp:434] roi-pool <- rois
I0413 18:20:44.542088 13072 net.cpp:408] roi-pool -> roi-pool
I0413 18:20:44.542100 13072 roi_pooling_layer.cpp:33] Spatial scale: 0.0625
I0413 18:20:44.542116 13072 roi_pooling_layer.cpp:34] Box scale: 1
I0413 18:20:44.542165 13072 net.cpp:150] Setting up roi-pool
I0413 18:20:44.542181 13072 net.cpp:157] Top shape: 1 512 7 7 (25088)
I0413 18:20:44.542189 13072 net.cpp:165] Memory required for data: 3647633640
I0413 18:20:44.542198 13072 layer_factory.hpp:77] Creating layer fc6
I0413 18:20:44.542210 13072 net.cpp:100] Creating Layer fc6
I0413 18:20:44.542219 13072 net.cpp:434] fc6 <- roi-pool
I0413 18:20:44.542228 13072 net.cpp:408] fc6 -> fc6
I0413 18:20:44.707824 13072 net.cpp:150] Setting up fc6
I0413 18:20:44.707856 13072 net.cpp:157] Top shape: 1 4096 (4096)
I0413 18:20:44.707870 13072 net.cpp:165] Memory required for data: 3647650024
I0413 18:20:44.707881 13072 layer_factory.hpp:77] Creating layer relu6
I0413 18:20:44.707892 13072 net.cpp:100] Creating Layer relu6
I0413 18:20:44.707898 13072 net.cpp:434] relu6 <- fc6
I0413 18:20:44.707907 13072 net.cpp:395] relu6 -> fc6 (in-place)
I0413 18:20:44.707924 13072 net.cpp:150] Setting up relu6
I0413 18:20:44.707931 13072 net.cpp:157] Top shape: 1 4096 (4096)
I0413 18:20:44.707937 13072 net.cpp:165] Memory required for data: 3647666408
I0413 18:20:44.707942 13072 layer_factory.hpp:77] Creating layer drop6
I0413 18:20:44.707950 13072 net.cpp:100] Creating Layer drop6
I0413 18:20:44.707978 13072 net.cpp:434] drop6 <- fc6
I0413 18:20:44.708003 13072 net.cpp:395] drop6 -> fc6 (in-place)
I0413 18:20:44.708040 13072 net.cpp:150] Setting up drop6
I0413 18:20:44.708051 13072 net.cpp:157] Top shape: 1 4096 (4096)
I0413 18:20:44.708056 13072 net.cpp:165] Memory required for data: 3647682792
I0413 18:20:44.708061 13072 layer_factory.hpp:77] Creating layer fc7
I0413 18:20:44.708070 13072 net.cpp:100] Creating Layer fc7
I0413 18:20:44.708076 13072 net.cpp:434] fc7 <- fc6
I0413 18:20:44.708083 13072 net.cpp:408] fc7 -> fc7
I0413 18:20:44.734644 13072 net.cpp:150] Setting up fc7
I0413 18:20:44.734676 13072 net.cpp:157] Top shape: 1 4096 (4096)
I0413 18:20:44.734689 13072 net.cpp:165] Memory required for data: 3647699176
I0413 18:20:44.734700 13072 layer_factory.hpp:77] Creating layer relu7
I0413 18:20:44.734725 13072 net.cpp:100] Creating Layer relu7
I0413 18:20:44.734735 13072 net.cpp:434] relu7 <- fc7
I0413 18:20:44.734745 13072 net.cpp:395] relu7 -> fc7 (in-place)
I0413 18:20:44.734760 13072 net.cpp:150] Setting up relu7
I0413 18:20:44.734768 13072 net.cpp:157] Top shape: 1 4096 (4096)
I0413 18:20:44.734774 13072 net.cpp:165] Memory required for data: 3647715560
I0413 18:20:44.734781 13072 layer_factory.hpp:77] Creating layer drop7
I0413 18:20:44.734791 13072 net.cpp:100] Creating Layer drop7
I0413 18:20:44.734797 13072 net.cpp:434] drop7 <- fc7
I0413 18:20:44.734807 13072 net.cpp:395] drop7 -> fc7 (in-place)
I0413 18:20:44.734838 13072 net.cpp:150] Setting up drop7
I0413 18:20:44.734848 13072 net.cpp:157] Top shape: 1 4096 (4096)
I0413 18:20:44.734854 13072 net.cpp:165] Memory required for data: 3647731944
I0413 18:20:44.734860 13072 layer_factory.hpp:77] Creating layer bbox_pred
I0413 18:20:44.734870 13072 net.cpp:100] Creating Layer bbox_pred
I0413 18:20:44.734877 13072 net.cpp:434] bbox_pred <- fc7
I0413 18:20:44.734891 13072 net.cpp:408] bbox_pred -> bbox_pred
I0413 18:20:44.735486 13072 net.cpp:150] Setting up bbox_pred
I0413 18:20:44.735496 13072 net.cpp:157] Top shape: 1 8 (8)
I0413 18:20:44.735502 13072 net.cpp:165] Memory required for data: 3647731976
I0413 18:20:44.735512 13072 layer_factory.hpp:77] Creating layer loss_bbox
I0413 18:20:44.735524 13072 net.cpp:100] Creating Layer loss_bbox
I0413 18:20:44.735532 13072 net.cpp:434] loss_bbox <- bbox_pred
I0413 18:20:44.735539 13072 net.cpp:434] loss_bbox <- bbox_targets
I0413 18:20:44.735548 13072 net.cpp:434] loss_bbox <- bbox_inside_weights
…
