…
I0413 16:23:03.000470  8713 solver.cpp:48] Initializing solver from parameters: 
base_lr: 0.001
display: 20
lr_policy: "multistep"
gamma: 0.1
momentum: 0.9
weight_decay: 0.0005
snapshot: 0
snapshot_prefix: "faces_example"
net_param {
  name: "GeneratedModel_13_04_2017_16_23"
  layer {
    name: "input"
    type: "Python"
    top: "input_data"
    top: "input_im_info"
    top: "input_gt_boxes"
    top: "input_ignored_boxes"
    python_param {
      module: "layers.roi_data_layer"
      layer: "RoIDataLayer"
      param_str: "{\"num_classes\": 2}"
    }
  }
  layer {
    name: "conv1_1"
    type: "Convolution"
    bottom: "input_data"
    top: "conv1_1"
    param {
      lr_mult: 0
      decay_mult: 0
    }
    param {
      lr_mult: 0
      decay_mult: 0
    }
    convolution_param {
      num_output: 64
      pad: 1
      kernel_size: 3
    }
  }
  layer {
    name: "relu1_1"
    type: "ReLU"
    bottom: "conv1_1"
    top: "conv1_1"
  }
  layer {
    name: "conv1_2"
    type: "Convolution"
    bottom: "conv1_1"
    top: "conv1_2"
    param {
      lr_mult: 0
      decay_mult: 0
    }
    param {
      lr_mult: 0
      decay_mult: 0
    }
    convolution_param {
      num_output: 64
      pad: 1
      kernel_size: 3
    }
  }
  layer {
    name: "relu1_2"
    type: "ReLU"
    bottom: "conv1_2"
    top: "conv1_2"
  }
  layer {
    name: "pool1"
    type: "Pooling"
    bottom: "conv1_2"
    top: "pool1"
    pooling_param {
      pool: MAX
      kernel_size: 2
      stride: 2
    }
  }
  layer {
    name: "conv2_1"
    type: "Convolution"
    bottom: "pool1"
    top: "conv2_1"
    param {
      lr_mult: 0
      decay_mult: 0
    }
    param {
      lr_mult: 0
      decay_mult: 0
    }
    convolution_param {
      num_output: 128
      pad: 1
      kernel_size: 3
    }
  }
  layer {
    name: "relu2_1"
    type: "ReLU"
    bottom: "conv2_1"
    top: "conv2_1"
  }
  layer {
    name: "conv2_2"
    type: "Convolution"
    bottom: "conv2_1"
    top: "conv2_2"
    param {
      lr_mult: 0
      decay_mult: 0
    }
    param {
      lr_mult: 0
      decay_mult: 0
    }
    convolution_param {
      num_output: 128
      pad: 1
      kernel_size: 3
    }
  }
  layer {
    name: "relu2_2"
    type: "ReLU"
    bottom: "conv2_2"
    top: "conv2_2"
  }
  layer {
    name: "pool2"
    type: "Pooling"
    bottom: "conv2_2"
    top: "pool2"
    pooling_param {
      pool: MAX
      kernel_size: 2
      stride: 2
    }
  }
  layer {
    name: "conv3_1"
    type: "Convolution"
    bottom: "pool2"
    top: "conv3_1"
    param {
      lr_mult: 1
    }
    param {
      lr_mult: 2
    }
    convolution_param {
      num_output: 256
      pad: 1
      kernel_size: 3
    }
  }
  layer {
    name: "relu3_1"
    type: "ReLU"
    bottom: "conv3_1"
    top: "conv3_1"
  }
  layer {
    name: "conv3_2"
    type: "Convolution"
    bottom: "conv3_1"
    top: "conv3_2"
    param {
      lr_mult: 1
    }
    param {
      lr_mult: 2
    }
    convolution_param {
      num_output: 256
      pad: 1
      kernel_size: 3
    }
  }
  layer {
    name: "relu3_2"
    type: "ReLU"
    bottom: "conv3_2"
    top: "conv3_2"
  }
  layer {
    name: "conv3_3"
    type: "Convolution"
    bottom: "conv3_2"
    top: "conv3_3"
    param {
      lr_mult: 1
    }
    param {
      lr_mult: 2
    }
    convolution_param {
      num_output: 256
      pad: 1
      kernel_size: 3
    }
  }
  layer {
    name: "relu3_3"
    type: "ReLU"
    bottom: "conv3_3"
    top: "conv3_3"
  }
  layer {
    name: "pool3"
    type: "Pooling"
    bottom: "conv3_3"
    top: "pool3"
    pooling_param {
      pool: MAX
      kernel_size: 2
      stride: 2
    }
  }
  layer {
    name: "conv4_1"
    type: "Convolution"
    bottom: "pool3"
    top: "conv4_1"
    param {
      lr_mult: 1
    }
    param {
      lr_mult: 2
    }
    convolution_param {
      num_output: 512
      pad: 1
      kernel_size: 3
    }
  }
  layer {
    name: "relu4_1"
    type: "ReLU"
    bottom: "conv4_1"
    top: "conv4_1"
  }
  layer {
    name: "conv4_2"
    type: "Convolution"
    bottom: "conv4_1"
    top: "conv4_2"
    param {
      lr_mult: 1
    }
    param {
      lr_mult: 2
    }
    convolution_param {
      num_output: 512
      pad: 1
      kernel_size: 3
    }
  }
  layer {
    name: "relu4_2"
    type: "ReLU"
    bottom: "conv4_2"
    top: "conv4_2"
  }
  layer {
    name: "conv4_3"
    type: "Convolution"
    bottom: "conv4_2"
    top: "conv4_3"
    param {
      lr_mult: 1
    }
    param {
      lr_mult: 2
    }
    convolution_param {
      num_output: 512
      pad: 1
      kernel_size: 3
    }
  }
  layer {
    name: "relu4_3"
    type: "ReLU"
    bottom: "conv4_3"
    top: "conv4_3"
  }
  layer {
    name: "pool4"
    type: "Pooling"
    bottom: "conv4_3"
    top: "pool4"
    pooling_param {
      pool: MAX
      kernel_size: 2
      stride: 2
    }
  }
  layer {
    name: "conv5_1"
    type: "Convolution"
    bottom: "pool4"
    top: "conv5_1"
    param {
      lr_mult: 1
    }
    param {
      lr_mult: 2
    }
    convolution_param {
      num_output: 512
      pad: 1
      kernel_size: 3
    }
  }
  layer {
    name: "relu5_1"
    type: "ReLU"
    bottom: "conv5_1"
    top: "conv5_1"
  }
  layer {
    name: "conv5_2"
    type: "Convolution"
    bottom: "conv5_1"
    top: "conv5_2"
    param {
      lr_mult: 1
    }
    param {
      lr_mult: 2
    }
    convolution_param {
      num_output: 512
      pad: 1
      kernel_size: 3
    }
  }
  layer {
    name: "relu5_2"
    type: "ReLU"
    bottom: "conv5_2"
    top: "conv5_2"
  }
  layer {
    name: "conv5_3"
    type: "Convolution"
    bottom: "conv5_2"
    top: "conv5_3"
    param {
      lr_mult: 1
    }
    param {
      lr_mult: 2
    }
    convolution_param {
      num_output: 512
      pad: 1
      kernel_size: 3
    }
  }
  layer {
    name: "relu5_3"
    type: "ReLU"
    bottom: "conv5_3"
    top: "conv5_3"
  }
  layer {
    name: "rpn_big_conv1"
    type: "Convolution"
    bottom: "conv5_3"
    top: "rpn_big_conv1"
    param {
      lr_mult: 1
    }
    param {
      lr_mult: 2
    }
    convolution_param {
      num_output: 512
      pad: 1
      kernel_size: 3
      stride: 1
      weight_filler {
        type: "gaussian"
        mean: 0
        std: 0.01
      }
      bias_filler {
        type: "constant"
      }
    }
  }
  layer {
    name: "rpn_big_conv1_relu"
    type: "ReLU"
    bottom: "rpn_big_conv1"
    top: "rpn_big_conv1"
    relu_param {
      negative_slope: 0
    }
  }
  layer {
    name: "rpn_big_conv2"
    type: "Convolution"
    bottom: "rpn_big_conv1"
    top: "rpn_big_conv2"
    param {
      lr_mult: 1
    }
    param {
      lr_mult: 2
    }
    convolution_param {
      num_output: 512
      pad: 1
      kernel_size: 3
      stride: 1
      weight_filler {
        type: "gaussian"
        mean: 0
        std: 0.01
      }
      bias_filler {
        type: "constant"
      }
    }
  }
  layer {
    name: "rpn_big_conv2_relu"
    type: "ReLU"
    bottom: "rpn_big_conv2"
    top: "rpn_big_conv2"
    relu_param {
      negative_slope: 0
    }
  }
  layer {
    name: "rpn_big_conv2_drop"
    type: "Dropout"
    bottom: "rpn_big_conv2"
    top: "rpn_big_conv2"
    dropout_param {
      dropout_ratio: 0.3
    }
  }
  layer {
    name: "rpn_big_output_cls"
    type: "Convolution"
    bottom: "rpn_big_conv2"
    top: "rpn_big_output_cls"
    param {
      lr_mult: 1
    }
    param {
      lr_mult: 2
    }
    convolution_param {
      num_output: 384
      pad: 1
      kernel_size: 3
      stride: 1
      weight_filler {
        type: "gaussian"
        mean: 0
        std: 0.01
      }
      bias_filler {
        type: "constant"
      }
    }
  }
  layer {
    name: "rpn_big_output_cls_relu"
    type: "ReLU"
    bottom: "rpn_big_output_cls"
    top: "rpn_big_output_cls"
    relu_param {
      negative_slope: 0
    }
  }
  layer {
    name: "rpn_big_cls_score"
    type: "Convolution"
    bottom: "rpn_big_output_cls"
    top: "rpn_big_cls_score"
    param {
      lr_mult: 1
    }
    param {
      lr_mult: 2
    }
    convolution_param {
      num_output: 52
      pad: 0
      kernel_size: 3
      stride: 1
      weight_filler {
        type: "gaussian"
        mean: 0
        std: 0.01
      }
      bias_filler {
        type: "constant"
      }
    }
  }
  layer {
    name: "rpn_big_cls_score_reshape"
    type: "Reshape"
    bottom: "rpn_big_cls_score"
    top: "rpn_big_cls_score_reshape"
    reshape_param {
      shape {
        dim: 0
        dim: 2
        dim: -1
        dim: 0
      }
    }
  }
  layer {
    name: "rpn_big_cls_prob"
    type: "Softmax"
    bottom: "rpn_big_cls_score_reshape"
    top: "rpn_big_cls_prob"
  }
  layer {
    name: "rpn_big_cls_prob_reshape"
    type: "Reshape"
    bottom: "rpn_big_cls_prob"
    top: "rpn_big_cls_prob_reshape"
    reshape_param {
      shape {
        dim: 0
        dim: 52
        dim: -1
        dim: 0
      }
    }
  }
  layer {
    name: "rpn_big_anchor_target"
    type: "Python"
    bottom: "rpn_big_cls_score"
    bottom: "input_gt_boxes"
    bottom: "input_ignored_boxes"
    bottom: "input_im_info"
    bottom: "input_data"
    bottom: "rpn_big_cls_prob_reshape"
    top: "rpn_big_anchor_target_labels"
    top: "rpn_big_anchor_target_bbox_targets"
    top: "rpn_big_anchor_target_inside_weights"
    top: "rpn_big_anchor_target_outside_weights"
    python_param {
      module: "rpn.anchor_target_layer"
      layer: "AnchorTargetLayer"
      param_str: "{\"feat_stride\": 16, \"num_classes\": 1, \"name\": \"rpn_big\", \"square_targets\": true, \"tn_fraction\": 0.2, \"anchor_shift_num_xy\": [[2, 2], [2, 2], [2, 2], [2, 2], [1, 1], [1, 1], [1, 1], [1, 1], [1, 1], [1, 1], [1, 1], [1, 1], [1, 1], [1, 1]], \"negative_overlap\": 0.4, \"anchor_ratios\": [1.0], \"anchor_scales\": [2.5, 3.025, 3.66025, 4.4289024999999995, 5.358972025, 6.484356150249999, 7.846070941802498, 9.493745839581022, 11.487432465893036, 13.899793283730574, 16.818749873313998, 20.350687346709933, 24.62433168951902, 29.795441344318014], \"batchsize\": 256, \"fg_fraction\": 0.5, \"positive_overlap\": 0.6}"
    }
  }
  layer {
    name: "rpn_big_loss_cls"
    type: "SoftmaxWithLoss"
    bottom: "rpn_big_cls_score_reshape"
    bottom: "rpn_big_anchor_target_labels"
    top: "rpn_big_loss_cls"
    loss_weight: 1
    propagate_down: true
    propagate_down: false
    loss_param {
      ignore_label: -1
      normalization: VALID
    }
  }
  layer {
    name: "rpn_big_output_box"
    type: "Convolution"
    bottom: "rpn_big_conv2"
    top: "rpn_big_output_box"
    param {
      lr_mult: 1
    }
    param {
      lr_mult: 2
    }
    convolution_param {
      num_output: 384
      pad: 1
      kernel_size: 3
      stride: 1
      weight_filler {
        type: "gaussian"
        mean: 0
        std: 0.01
      }
      bias_filler {
        type: "constant"
      }
    }
  }
  layer {
    name: "rpn_big_output_box_relu"
    type: "ReLU"
    bottom: "rpn_big_output_box"
    top: "rpn_big_output_box"
    relu_param {
      negative_slope: 0
    }
  }
  layer {
    name: "rpn_big_bbox_pred"
    type: "Convolution"
    bottom: "rpn_big_output_box"
    top: "rpn_big_bbox_pred"
    param {
      lr_mult: 1
    }
    param {
      lr_mult: 2
    }
    convolution_param {
      num_output: 104
      pad: 0
      kernel_size: 3
      stride: 1
      weight_filler {
        type: "gaussian"
        mean: 0
        std: 0.01
      }
      bias_filler {
        type: "constant"
      }
    }
  }
  layer {
    name: "rpn_big_loss_bbox"
    type: "Python"
    bottom: "rpn_big_bbox_pred"
    bottom: "rpn_big_anchor_target_bbox_targets"
    bottom: "rpn_big_anchor_target_inside_weights"
    bottom: "rpn_big_anchor_target_outside_weights"
    top: "rpn_big_loss_bbox"
    loss_weight: 1
    python_param {
      module: "layers.smooth_l1_loss"
      layer: "SmoothL1LossLayer"
      param_str: "{\"sigma\": 3}"
    }
  }
  layer {
    name: "proposal"
    type: "Python"
    bottom: "rpn_big_cls_prob_reshape"
    bottom: "rpn_big_bbox_pred"
    bottom: "input_im_info"
    top: "rpn_rois"
    python_param {
      module: "rpn.proposal_layer"
      layer: "ProposalLayer"
      param_str: "{\"feat_stride\": 16, \"scales\": !!python/tuple [4, 8, 16, 32]}"
    }
  }
}
average_loss: 100
stepvalue: 70000
stepvalue: 120000
iter_size: 2
I0413 16:23:03.000560  8713 solver.cpp:86] Creating training net specified in net_param.
I0413 16:23:03.001199  8713 net.cpp:58] Initializing net from parameters: 
name: "GeneratedModel_13_04_2017_16_23"
state {
  phase: TRAIN
}
layer {
  name: "input"
  type: "Python"
  top: "input_data"
  top: "input_im_info"
  top: "input_gt_boxes"
  top: "input_ignored_boxes"
  python_param {
    module: "layers.roi_data_layer"
    layer: "RoIDataLayer"
    param_str: "{\"num_classes\": 2}"
  }
}
layer {
  name: "conv1_1"
  type: "Convolution"
  bottom: "input_data"
  top: "conv1_1"
  param {
    lr_mult: 0
    decay_mult: 0
  }
  param {
    lr_mult: 0
    decay_mult: 0
  }
  convolution_param {
    num_output: 64
    pad: 1
    kernel_size: 3
  }
}
layer {
  name: "relu1_1"
  type: "ReLU"
  bottom: "conv1_1"
  top: "conv1_1"
}
layer {
  name: "conv1_2"
  type: "Convolution"
  bottom: "conv1_1"
  top: "conv1_2"
  param {
    lr_mult: 0
    decay_mult: 0
  }
  param {
    lr_mult: 0
    decay_mult: 0
  }
  convolution_param {
    num_output: 64
    pad: 1
    kernel_size: 3
  }
}
layer {
  name: "relu1_2"
  type: "ReLU"
  bottom: "conv1_2"
  top: "conv1_2"
}
layer {
  name: "pool1"
  type: "Pooling"
  bottom: "conv1_2"
  top: "pool1"
  pooling_param {
    pool: MAX
    kernel_size: 2
    stride: 2
  }
}
layer {
  name: "conv2_1"
  type: "Convolution"
  bottom: "pool1"
  top: "conv2_1"
  param {
    lr_mult: 0
    decay_mult: 0
  }
  param {
    lr_mult: 0
    decay_mult: 0
  }
  convolution_param {
    num_output: 128
    pad: 1
    kernel_size: 3
  }
}
layer {
  name: "relu2_1"
  type: "ReLU"
  bottom: "conv2_1"
  top: "conv2_1"
}
layer {
  name: "conv2_2"
  type: "Convolution"
  bottom: "conv2_1"
  top: "conv2_2"
  param {
    lr_mult: 0
    decay_mult: 0
  }
  param {
    lr_mult: 0
    decay_mult: 0
  }
  convolution_param {
    num_output: 128
    pad: 1
    kernel_size: 3
  }
}
layer {
  name: "relu2_2"
  type: "ReLU"
  bottom: "conv2_2"
  top: "conv2_2"
}
layer {
  name: "pool2"
  type: "Pooling"
  bottom: "conv2_2"
  top: "pool2"
  pooling_param {
    pool: MAX
    kernel_size: 2
    stride: 2
  }
}
layer {
  name: "conv3_1"
  type: "Convolution"
  bottom: "pool2"
  top: "conv3_1"
  param {
    lr_mult: 1
  }
  param {
    lr_mult: 2
  }
  convolution_param {
    num_output: 256
    pad: 1
    kernel_size: 3
  }
}
layer {
  name: "relu3_1"
  type: "ReLU"
  bottom: "conv3_1"
  top: "conv3_1"
}
layer {
  name: "conv3_2"
  type: "Convolution"
  bottom: "conv3_1"
  top: "conv3_2"
  param {
    lr_mult: 1
  }
  param {
    lr_mult: 2
  }
  convolution_param {
    num_output: 256
    pad: 1
    kernel_size: 3
  }
}
layer {
  name: "relu3_2"
  type: "ReLU"
  bottom: "conv3_2"
  top: "conv3_2"
}
layer {
  name: "conv3_3"
  type: "Convolution"
  bottom: "conv3_2"
  top: "conv3_3"
  param {
    lr_mult: 1
  }
  param {
    lr_mult: 2
  }
  convolution_param {
    num_output: 256
    pad: 1
    kernel_size: 3
  }
}
layer {
  name: "relu3_3"
  type: "ReLU"
  bottom: "conv3_3"
  top: "conv3_3"
}
layer {
  name: "pool3"
  type: "Pooling"
  bottom: "conv3_3"
  top: "pool3"
  pooling_param {
    pool: MAX
    kernel_size: 2
    stride: 2
  }
}
layer {
  name: "conv4_1"
  type: "Convolution"
  bottom: "pool3"
  top: "conv4_1"
  param {
    lr_mult: 1
  }
  param {
    lr_mult: 2
  }
  convolution_param {
    num_output: 512
    pad: 1
    kernel_size: 3
  }
}
layer {
  name: "relu4_1"
  type: "ReLU"
  bottom: "conv4_1"
  top: "conv4_1"
}
layer {
  name: "conv4_2"
  type: "Convolution"
  bottom: "conv4_1"
  top: "conv4_2"
  param {
    lr_mult: 1
  }
  param {
    lr_mult: 2
  }
  convolution_param {
    num_output: 512
    pad: 1
    kernel_size: 3
  }
}
layer {
  name: "relu4_2"
  type: "ReLU"
  bottom: "conv4_2"
  top: "conv4_2"
}
layer {
  name: "conv4_3"
  type: "Convolution"
  bottom: "conv4_2"
  top: "conv4_3"
  param {
    lr_mult: 1
  }
  param {
    lr_mult: 2
  }
  convolution_param {
    num_output: 512
    pad: 1
    kernel_size: 3
  }
}
layer {
  name: "relu4_3"
  type: "ReLU"
  bottom: "conv4_3"
  top: "conv4_3"
}
layer {
  name: "pool4"
  type: "Pooling"
  bottom: "conv4_3"
  top: "pool4"
  pooling_param {
    pool: MAX
    kernel_size: 2
    stride: 2
  }
}
layer {
  name: "conv5_1"
  type: "Convolution"
  bottom: "pool4"
  top: "conv5_1"
  param {
    lr_mult: 1
  }
  param {
    lr_mult: 2
  }
  convolution_param {
    num_output: 512
    pad: 1
    kernel_size: 3
  }
}
layer {
  name: "relu5_1"
  type: "ReLU"
  bottom: "conv5_1"
  top: "conv5_1"
}
layer {
  name: "conv5_2"
  type: "Convolution"
  bottom: "conv5_1"
  top: "conv5_2"
  param {
    lr_mult: 1
  }
  param {
    lr_mult: 2
  }
  convolution_param {
    num_output: 512
    pad: 1
    kernel_size: 3
  }
}
layer {
  name: "relu5_2"
  type: "ReLU"
  bottom: "conv5_2"
  top: "conv5_2"
}
layer {
  name: "conv5_3"
  type: "Convolution"
  bottom: "conv5_2"
  top: "conv5_3"
  param {
    lr_mult: 1
  }
  param {
    lr_mult: 2
  }
  convolution_param {
    num_output: 512
    pad: 1
    kernel_size: 3
  }
}
layer {
  name: "relu5_3"
  type: "ReLU"
  bottom: "conv5_3"
  top: "conv5_3"
}
layer {
  name: "rpn_big_conv1"
  type: "Convolution"
  bottom: "conv5_3"
  top: "rpn_big_conv1"
  param {
    lr_mult: 1
  }
  param {
    lr_mult: 2
  }
  convolution_param {
    num_output: 512
    pad: 1
    kernel_size: 3
    stride: 1
    weight_filler {
      type: "gaussian"
      mean: 0
      std: 0.01
    }
    bias_filler {
      type: "constant"
    }
  }
}
layer {
  name: "rpn_big_conv1_relu"
  type: "ReLU"
  bottom: "rpn_big_conv1"
  top: "rpn_big_conv1"
  relu_param {
    negative_slope: 0
  }
}
layer {
  name: "rpn_big_conv2"
  type: "Convolution"
  bottom: "rpn_big_conv1"
  top: "rpn_big_conv2"
  param {
    lr_mult: 1
  }
  param {
    lr_mult: 2
  }
  convolution_param {
    num_output: 512
    pad: 1
    kernel_size: 3
    stride: 1
    weight_filler {
      type: "gaussian"
      mean: 0
      std: 0.01
    }
    bias_filler {
      type: "constant"
    }
  }
}
layer {
  name: "rpn_big_conv2_relu"
  type: "ReLU"
  bottom: "rpn_big_conv2"
  top: "rpn_big_conv2"
  relu_param {
    negative_slope: 0
  }
}
layer {
  name: "rpn_big_conv2_drop"
  type: "Dropout"
  bottom: "rpn_big_conv2"
  top: "rpn_big_conv2"
  dropout_param {
    dropout_ratio: 0.3
  }
}
layer {
  name: "rpn_big_output_cls"
  type: "Convolution"
  bottom: "rpn_big_conv2"
  top: "rpn_big_output_cls"
  param {
    lr_mult: 1
  }
  param {
    lr_mult: 2
  }
  convolution_param {
    num_output: 384
    pad: 1
    kernel_size: 3
    stride: 1
    weight_filler {
      type: "gaussian"
      mean: 0
      std: 0.01
    }
    bias_filler {
      type: "constant"
    }
  }
}
layer {
  name: "rpn_big_output_cls_relu"
  type: "ReLU"
  bottom: "rpn_big_output_cls"
  top: "rpn_big_output_cls"
  relu_param {
    negative_slope: 0
  }
}
layer {
  name: "rpn_big_cls_score"
  type: "Convolution"
  bottom: "rpn_big_output_cls"
  top: "rpn_big_cls_score"
  param {
    lr_mult: 1
  }
  param {
    lr_mult: 2
  }
  convolution_param {
    num_output: 52
    pad: 0
    kernel_size: 3
    stride: 1
    weight_filler {
      type: "gaussian"
      mean: 0
      std: 0.01
    }
    bias_filler {
      type: "constant"
    }
  }
}
layer {
  name: "rpn_big_cls_score_reshape"
  type: "Reshape"
  bottom: "rpn_big_cls_score"
  top: "rpn_big_cls_score_reshape"
  reshape_param {
    shape {
      dim: 0
      dim: 2
      dim: -1
      dim: 0
    }
  }
}
layer {
  name: "rpn_big_cls_prob"
  type: "Softmax"
  bottom: "rpn_big_cls_score_reshape"
  top: "rpn_big_cls_prob"
}
layer {
  name: "rpn_big_cls_prob_reshape"
  type: "Reshape"
  bottom: "rpn_big_cls_prob"
  top: "rpn_big_cls_prob_reshape"
  reshape_param {
    shape {
      dim: 0
      dim: 52
      dim: -1
      dim: 0
    }
  }
}
layer {
  name: "rpn_big_anchor_target"
  type: "Python"
  bottom: "rpn_big_cls_score"
  bottom: "input_gt_boxes"
  bottom: "input_ignored_boxes"
  bottom: "input_im_info"
  bottom: "input_data"
  bottom: "rpn_big_cls_prob_reshape"
  top: "rpn_big_anchor_target_labels"
  top: "rpn_big_anchor_target_bbox_targets"
  top: "rpn_big_anchor_target_inside_weights"
  top: "rpn_big_anchor_target_outside_weights"
  python_param {
    module: "rpn.anchor_target_layer"
    layer: "AnchorTargetLayer"
    param_str: "{\"feat_stride\": 16, \"num_classes\": 1, \"name\": \"rpn_big\", \"square_targets\": true, \"tn_fraction\": 0.2, \"anchor_shift_num_xy\": [[2, 2], [2, 2], [2, 2], [2, 2], [1, 1], [1, 1], [1, 1], [1, 1], [1, 1], [1, 1], [1, 1], [1, 1], [1, 1], [1, 1]], \"negative_overlap\": 0.4, \"anchor_ratios\": [1.0], \"anchor_scales\": [2.5, 3.025, 3.66025, 4.4289024999999995, 5.358972025, 6.484356150249999, 7.846070941802498, 9.493745839581022, 11.487432465893036, 13.899793283730574, 16.818749873313998, 20.350687346709933, 24.62433168951902, 29.795441344318014], \"batchsize\": 256, \"fg_fraction\": 0.5, \"positive_overlap\": 0.6}"
  }
}
layer {
  name: "rpn_big_loss_cls"
  type: "SoftmaxWithLoss"
  bottom: "rpn_big_cls_score_reshape"
  bottom: "rpn_big_anchor_target_labels"
  top: "rpn_big_loss_cls"
  loss_weight: 1
  propagate_down: true
  propagate_down: false
  loss_param {
    ignore_label: -1
    normalization: VALID
  }
}
layer {
  name: "rpn_big_output_box"
  type: "Convolution"
  bottom: "rpn_big_conv2"
  top: "rpn_big_output_box"
  param {
    lr_mult: 1
  }
  param {
    lr_mult: 2
  }
  convolution_param {
    num_output: 384
    pad: 1
    kernel_size: 3
    stride: 1
    weight_filler {
      type: "gaussian"
      mean: 0
      std: 0.01
    }
    bias_filler {
      type: "constant"
    }
  }
}
layer {
  name: "rpn_big_output_box_relu"
  type: "ReLU"
  bottom: "rpn_big_output_box"
  top: "rpn_big_output_box"
  relu_param {
    negative_slope: 0
  }
}
layer {
  name: "rpn_big_bbox_pred"
  type: "Convolution"
  bottom: "rpn_big_output_box"
  top: "rpn_big_bbox_pred"
  param {
    lr_mult: 1
  }
  param {
    lr_mult: 2
  }
  convolution_param {
    num_output: 104
    pad: 0
    kernel_size: 3
    stride: 1
    weight_filler {
      type: "gaussian"
      mean: 0
      std: 0.01
    }
    bias_filler {
      type: "constant"
    }
  }
}
layer {
  name: "rpn_big_loss_bbox"
  type: "Python"
  bottom: "rpn_big_bbox_pred"
  bottom: "rpn_big_anchor_target_bbox_targets"
  bottom: "rpn_big_anchor_target_inside_weights"
  bottom: "rpn_big_anchor_target_outside_weights"
  top: "rpn_big_loss_bbox"
  loss_weight: 1
  python_param {
    module: "layers.smooth_l1_loss"
    layer: "SmoothL1LossLayer"
    param_str: "{\"sigma\": 3}"
  }
}
layer {
  name: "proposal"
  type: "Python"
  bottom: "rpn_big_cls_prob_reshape"
  bottom: "rpn_big_bbox_pred"
  bottom: "input_im_info"
  top: "rpn_rois"
  python_param {
    module: "rpn.proposal_layer"
    layer: "ProposalLayer"
    param_str: "{\"feat_stride\": 16, \"scales\": !!python/tuple [4, 8, 16, 32]}"
  }
}
I0413 16:23:03.001513  8713 layer_factory.hpp:77] Creating layer input
I0413 16:23:03.013044  8713 net.cpp:100] Creating Layer input
I0413 16:23:03.013069  8713 net.cpp:408] input -> input_data
I0413 16:23:03.013087  8713 net.cpp:408] input -> input_im_info
I0413 16:23:03.013098  8713 net.cpp:408] input -> input_gt_boxes
I0413 16:23:03.013110  8713 net.cpp:408] input -> input_ignored_boxes
RoiDataLayer: name_to_top: {'im_info': 1, 'data': 0, 'ignored_boxes': 3, 'gt_boxes': 2}
I0413 16:23:03.329568  8713 net.cpp:150] Setting up input
I0413 16:23:03.329596  8713 net.cpp:157] Top shape: 1 3 1000 1500 (4500000)
I0413 16:23:03.329601  8713 net.cpp:157] Top shape: 1 3 (3)
I0413 16:23:03.329604  8713 net.cpp:157] Top shape: 1 5 (5)
I0413 16:23:03.329608  8713 net.cpp:157] Top shape: 1 5 (5)
I0413 16:23:03.329612  8713 net.cpp:165] Memory required for data: 18000052
I0413 16:23:03.329618  8713 layer_factory.hpp:77] Creating layer input_data_input_0_split
I0413 16:23:03.329629  8713 net.cpp:100] Creating Layer input_data_input_0_split
I0413 16:23:03.329638  8713 net.cpp:434] input_data_input_0_split <- input_data
I0413 16:23:03.329646  8713 net.cpp:408] input_data_input_0_split -> input_data_input_0_split_0
I0413 16:23:03.329658  8713 net.cpp:408] input_data_input_0_split -> input_data_input_0_split_1
I0413 16:23:03.329689  8713 net.cpp:150] Setting up input_data_input_0_split
I0413 16:23:03.329697  8713 net.cpp:157] Top shape: 1 3 1000 1500 (4500000)
I0413 16:23:03.329701  8713 net.cpp:157] Top shape: 1 3 1000 1500 (4500000)
I0413 16:23:03.329704  8713 net.cpp:165] Memory required for data: 54000052
I0413 16:23:03.329707  8713 layer_factory.hpp:77] Creating layer input_im_info_input_1_split
I0413 16:23:03.329713  8713 net.cpp:100] Creating Layer input_im_info_input_1_split
I0413 16:23:03.329716  8713 net.cpp:434] input_im_info_input_1_split <- input_im_info
I0413 16:23:03.329721  8713 net.cpp:408] input_im_info_input_1_split -> input_im_info_input_1_split_0
I0413 16:23:03.329727  8713 net.cpp:408] input_im_info_input_1_split -> input_im_info_input_1_split_1
I0413 16:23:03.329752  8713 net.cpp:150] Setting up input_im_info_input_1_split
I0413 16:23:03.329759  8713 net.cpp:157] Top shape: 1 3 (3)
I0413 16:23:03.329763  8713 net.cpp:157] Top shape: 1 3 (3)
I0413 16:23:03.329766  8713 net.cpp:165] Memory required for data: 54000076
I0413 16:23:03.329768  8713 layer_factory.hpp:77] Creating layer conv1_1
I0413 16:23:03.329778  8713 net.cpp:100] Creating Layer conv1_1
I0413 16:23:03.329783  8713 net.cpp:434] conv1_1 <- input_data_input_0_split_0
I0413 16:23:03.329788  8713 net.cpp:408] conv1_1 -> conv1_1
I0413 16:23:03.332754  8713 net.cpp:150] Setting up conv1_1
I0413 16:23:03.332792  8713 net.cpp:157] Top shape: 1 64 1000 1500 (96000000)
I0413 16:23:03.332795  8713 net.cpp:165] Memory required for data: 438000076
I0413 16:23:03.332813  8713 layer_factory.hpp:77] Creating layer relu1_1
I0413 16:23:03.332825  8713 net.cpp:100] Creating Layer relu1_1
I0413 16:23:03.332829  8713 net.cpp:434] relu1_1 <- conv1_1
I0413 16:23:03.332836  8713 net.cpp:395] relu1_1 -> conv1_1 (in-place)
I0413 16:23:03.332849  8713 net.cpp:150] Setting up relu1_1
I0413 16:23:03.332854  8713 net.cpp:157] Top shape: 1 64 1000 1500 (96000000)
I0413 16:23:03.332856  8713 net.cpp:165] Memory required for data: 822000076
I0413 16:23:03.332859  8713 layer_factory.hpp:77] Creating layer conv1_2
I0413 16:23:03.332870  8713 net.cpp:100] Creating Layer conv1_2
I0413 16:23:03.332875  8713 net.cpp:434] conv1_2 <- conv1_1
I0413 16:23:03.332880  8713 net.cpp:408] conv1_2 -> conv1_2
I0413 16:23:03.335978  8713 net.cpp:150] Setting up conv1_2
I0413 16:23:03.336024  8713 net.cpp:157] Top shape: 1 64 1000 1500 (96000000)
I0413 16:23:03.336030  8713 net.cpp:165] Memory required for data: 1206000076
I0413 16:23:03.336047  8713 layer_factory.hpp:77] Creating layer relu1_2
I0413 16:23:03.336060  8713 net.cpp:100] Creating Layer relu1_2
I0413 16:23:03.336064  8713 net.cpp:434] relu1_2 <- conv1_2
I0413 16:23:03.336073  8713 net.cpp:395] relu1_2 -> conv1_2 (in-place)
I0413 16:23:03.336086  8713 net.cpp:150] Setting up relu1_2
I0413 16:23:03.336091  8713 net.cpp:157] Top shape: 1 64 1000 1500 (96000000)
I0413 16:23:03.336094  8713 net.cpp:165] Memory required for data: 1590000076
I0413 16:23:03.336097  8713 layer_factory.hpp:77] Creating layer pool1
I0413 16:23:03.336107  8713 net.cpp:100] Creating Layer pool1
I0413 16:23:03.336124  8713 net.cpp:434] pool1 <- conv1_2
I0413 16:23:03.336130  8713 net.cpp:408] pool1 -> pool1
I0413 16:23:03.336207  8713 net.cpp:150] Setting up pool1
I0413 16:23:03.336216  8713 net.cpp:157] Top shape: 1 64 500 750 (24000000)
I0413 16:23:03.336220  8713 net.cpp:165] Memory required for data: 1686000076
I0413 16:23:03.336223  8713 layer_factory.hpp:77] Creating layer conv2_1
I0413 16:23:03.336236  8713 net.cpp:100] Creating Layer conv2_1
I0413 16:23:03.336242  8713 net.cpp:434] conv2_1 <- pool1
I0413 16:23:03.336251  8713 net.cpp:408] conv2_1 -> conv2_1
I0413 16:23:03.337522  8713 net.cpp:150] Setting up conv2_1
I0413 16:23:03.337551  8713 net.cpp:157] Top shape: 1 128 500 750 (48000000)
I0413 16:23:03.337555  8713 net.cpp:165] Memory required for data: 1878000076
I0413 16:23:03.337566  8713 layer_factory.hpp:77] Creating layer relu2_1
I0413 16:23:03.337574  8713 net.cpp:100] Creating Layer relu2_1
I0413 16:23:03.337577  8713 net.cpp:434] relu2_1 <- conv2_1
I0413 16:23:03.337584  8713 net.cpp:395] relu2_1 -> conv2_1 (in-place)
I0413 16:23:03.337591  8713 net.cpp:150] Setting up relu2_1
I0413 16:23:03.337596  8713 net.cpp:157] Top shape: 1 128 500 750 (48000000)
I0413 16:23:03.337599  8713 net.cpp:165] Memory required for data: 2070000076
I0413 16:23:03.337601  8713 layer_factory.hpp:77] Creating layer conv2_2
I0413 16:23:03.337610  8713 net.cpp:100] Creating Layer conv2_2
I0413 16:23:03.337613  8713 net.cpp:434] conv2_2 <- conv2_1
I0413 16:23:03.337620  8713 net.cpp:408] conv2_2 -> conv2_2
I0413 16:23:03.338560  8713 net.cpp:150] Setting up conv2_2
I0413 16:23:03.338585  8713 net.cpp:157] Top shape: 1 128 500 750 (48000000)
I0413 16:23:03.338588  8713 net.cpp:165] Memory required for data: 2262000076
I0413 16:23:03.338608  8713 layer_factory.hpp:77] Creating layer relu2_2
I0413 16:23:03.338618  8713 net.cpp:100] Creating Layer relu2_2
I0413 16:23:03.338621  8713 net.cpp:434] relu2_2 <- conv2_2
I0413 16:23:03.338627  8713 net.cpp:395] relu2_2 -> conv2_2 (in-place)
I0413 16:23:03.338636  8713 net.cpp:150] Setting up relu2_2
I0413 16:23:03.338640  8713 net.cpp:157] Top shape: 1 128 500 750 (48000000)
I0413 16:23:03.338644  8713 net.cpp:165] Memory required for data: 2454000076
I0413 16:23:03.338646  8713 layer_factory.hpp:77] Creating layer pool2
I0413 16:23:03.338654  8713 net.cpp:100] Creating Layer pool2
I0413 16:23:03.338659  8713 net.cpp:434] pool2 <- conv2_2
I0413 16:23:03.338663  8713 net.cpp:408] pool2 -> pool2
I0413 16:23:03.338706  8713 net.cpp:150] Setting up pool2
I0413 16:23:03.338716  8713 net.cpp:157] Top shape: 1 128 250 375 (12000000)
I0413 16:23:03.338718  8713 net.cpp:165] Memory required for data: 2502000076
I0413 16:23:03.338721  8713 layer_factory.hpp:77] Creating layer conv3_1
I0413 16:23:03.338731  8713 net.cpp:100] Creating Layer conv3_1
I0413 16:23:03.338735  8713 net.cpp:434] conv3_1 <- pool2
I0413 16:23:03.338740  8713 net.cpp:408] conv3_1 -> conv3_1
I0413 16:23:03.339875  8713 net.cpp:150] Setting up conv3_1
I0413 16:23:03.339900  8713 net.cpp:157] Top shape: 1 256 250 375 (24000000)
I0413 16:23:03.339903  8713 net.cpp:165] Memory required for data: 2598000076
I0413 16:23:03.339927  8713 layer_factory.hpp:77] Creating layer relu3_1
I0413 16:23:03.339936  8713 net.cpp:100] Creating Layer relu3_1
I0413 16:23:03.339939  8713 net.cpp:434] relu3_1 <- conv3_1
I0413 16:23:03.339946  8713 net.cpp:395] relu3_1 -> conv3_1 (in-place)
I0413 16:23:03.339956  8713 net.cpp:150] Setting up relu3_1
I0413 16:23:03.339960  8713 net.cpp:157] Top shape: 1 256 250 375 (24000000)
I0413 16:23:03.339963  8713 net.cpp:165] Memory required for data: 2694000076
I0413 16:23:03.339967  8713 layer_factory.hpp:77] Creating layer conv3_2
I0413 16:23:03.339974  8713 net.cpp:100] Creating Layer conv3_2
I0413 16:23:03.339977  8713 net.cpp:434] conv3_2 <- conv3_1
I0413 16:23:03.339984  8713 net.cpp:408] conv3_2 -> conv3_2
I0413 16:23:03.341142  8713 net.cpp:150] Setting up conv3_2
I0413 16:23:03.341169  8713 net.cpp:157] Top shape: 1 256 250 375 (24000000)
I0413 16:23:03.341181  8713 net.cpp:165] Memory required for data: 2790000076
I0413 16:23:03.341190  8713 layer_factory.hpp:77] Creating layer relu3_2
I0413 16:23:03.341203  8713 net.cpp:100] Creating Layer relu3_2
I0413 16:23:03.341207  8713 net.cpp:434] relu3_2 <- conv3_2
I0413 16:23:03.341214  8713 net.cpp:395] relu3_2 -> conv3_2 (in-place)
I0413 16:23:03.341223  8713 net.cpp:150] Setting up relu3_2
I0413 16:23:03.341228  8713 net.cpp:157] Top shape: 1 256 250 375 (24000000)
I0413 16:23:03.341230  8713 net.cpp:165] Memory required for data: 2886000076
I0413 16:23:03.341233  8713 layer_factory.hpp:77] Creating layer conv3_3
I0413 16:23:03.341241  8713 net.cpp:100] Creating Layer conv3_3
I0413 16:23:03.341245  8713 net.cpp:434] conv3_3 <- conv3_2
I0413 16:23:03.341250  8713 net.cpp:408] conv3_3 -> conv3_3
I0413 16:23:03.342754  8713 net.cpp:150] Setting up conv3_3
I0413 16:23:03.342785  8713 net.cpp:157] Top shape: 1 256 250 375 (24000000)
I0413 16:23:03.342797  8713 net.cpp:165] Memory required for data: 2982000076
I0413 16:23:03.342808  8713 layer_factory.hpp:77] Creating layer relu3_3
I0413 16:23:03.342818  8713 net.cpp:100] Creating Layer relu3_3
I0413 16:23:03.342823  8713 net.cpp:434] relu3_3 <- conv3_3
I0413 16:23:03.342829  8713 net.cpp:395] relu3_3 -> conv3_3 (in-place)
I0413 16:23:03.342839  8713 net.cpp:150] Setting up relu3_3
I0413 16:23:03.342844  8713 net.cpp:157] Top shape: 1 256 250 375 (24000000)
I0413 16:23:03.342847  8713 net.cpp:165] Memory required for data: 3078000076
I0413 16:23:03.342850  8713 layer_factory.hpp:77] Creating layer pool3
I0413 16:23:03.342857  8713 net.cpp:100] Creating Layer pool3
I0413 16:23:03.342860  8713 net.cpp:434] pool3 <- conv3_3
I0413 16:23:03.342866  8713 net.cpp:408] pool3 -> pool3
I0413 16:23:03.342911  8713 net.cpp:150] Setting up pool3
I0413 16:23:03.342917  8713 net.cpp:157] Top shape: 1 256 125 188 (6016000)
I0413 16:23:03.342921  8713 net.cpp:165] Memory required for data: 3102064076
I0413 16:23:03.342924  8713 layer_factory.hpp:77] Creating layer conv4_1
I0413 16:23:03.342933  8713 net.cpp:100] Creating Layer conv4_1
I0413 16:23:03.342937  8713 net.cpp:434] conv4_1 <- pool3
I0413 16:23:03.342942  8713 net.cpp:408] conv4_1 -> conv4_1
I0413 16:23:03.345556  8713 net.cpp:150] Setting up conv4_1
I0413 16:23:03.345589  8713 net.cpp:157] Top shape: 1 512 125 188 (12032000)
I0413 16:23:03.345602  8713 net.cpp:165] Memory required for data: 3150192076
I0413 16:23:03.345613  8713 layer_factory.hpp:77] Creating layer relu4_1
I0413 16:23:03.345623  8713 net.cpp:100] Creating Layer relu4_1
I0413 16:23:03.345626  8713 net.cpp:434] relu4_1 <- conv4_1
I0413 16:23:03.345635  8713 net.cpp:395] relu4_1 -> conv4_1 (in-place)
I0413 16:23:03.345645  8713 net.cpp:150] Setting up relu4_1
I0413 16:23:03.345649  8713 net.cpp:157] Top shape: 1 512 125 188 (12032000)
I0413 16:23:03.345654  8713 net.cpp:165] Memory required for data: 3198320076
I0413 16:23:03.345656  8713 layer_factory.hpp:77] Creating layer conv4_2
I0413 16:23:03.345664  8713 net.cpp:100] Creating Layer conv4_2
I0413 16:23:03.345667  8713 net.cpp:434] conv4_2 <- conv4_1
I0413 16:23:03.345674  8713 net.cpp:408] conv4_2 -> conv4_2
I0413 16:23:03.350970  8713 net.cpp:150] Setting up conv4_2
I0413 16:23:03.351006  8713 net.cpp:157] Top shape: 1 512 125 188 (12032000)
I0413 16:23:03.351018  8713 net.cpp:165] Memory required for data: 3246448076
I0413 16:23:03.351037  8713 layer_factory.hpp:77] Creating layer relu4_2
I0413 16:23:03.351048  8713 net.cpp:100] Creating Layer relu4_2
I0413 16:23:03.351053  8713 net.cpp:434] relu4_2 <- conv4_2
I0413 16:23:03.351060  8713 net.cpp:395] relu4_2 -> conv4_2 (in-place)
I0413 16:23:03.351070  8713 net.cpp:150] Setting up relu4_2
I0413 16:23:03.351075  8713 net.cpp:157] Top shape: 1 512 125 188 (12032000)
I0413 16:23:03.351078  8713 net.cpp:165] Memory required for data: 3294576076
I0413 16:23:03.351081  8713 layer_factory.hpp:77] Creating layer conv4_3
I0413 16:23:03.351091  8713 net.cpp:100] Creating Layer conv4_3
I0413 16:23:03.351106  8713 net.cpp:434] conv4_3 <- conv4_2
I0413 16:23:03.351112  8713 net.cpp:408] conv4_3 -> conv4_3
I0413 16:23:03.355890  8713 net.cpp:150] Setting up conv4_3
I0413 16:23:03.355921  8713 net.cpp:157] Top shape: 1 512 125 188 (12032000)
I0413 16:23:03.355934  8713 net.cpp:165] Memory required for data: 3342704076
I0413 16:23:03.355944  8713 layer_factory.hpp:77] Creating layer relu4_3
I0413 16:23:03.355954  8713 net.cpp:100] Creating Layer relu4_3
I0413 16:23:03.355958  8713 net.cpp:434] relu4_3 <- conv4_3
I0413 16:23:03.355967  8713 net.cpp:395] relu4_3 -> conv4_3 (in-place)
I0413 16:23:03.355978  8713 net.cpp:150] Setting up relu4_3
I0413 16:23:03.355983  8713 net.cpp:157] Top shape: 1 512 125 188 (12032000)
I0413 16:23:03.355984  8713 net.cpp:165] Memory required for data: 3390832076
I0413 16:23:03.355988  8713 layer_factory.hpp:77] Creating layer pool4
I0413 16:23:03.355994  8713 net.cpp:100] Creating Layer pool4
I0413 16:23:03.355998  8713 net.cpp:434] pool4 <- conv4_3
I0413 16:23:03.356003  8713 net.cpp:408] pool4 -> pool4
I0413 16:23:03.356037  8713 net.cpp:150] Setting up pool4
I0413 16:23:03.356045  8713 net.cpp:157] Top shape: 1 512 63 94 (3032064)
I0413 16:23:03.356048  8713 net.cpp:165] Memory required for data: 3402960332
I0413 16:23:03.356051  8713 layer_factory.hpp:77] Creating layer conv5_1
I0413 16:23:03.356062  8713 net.cpp:100] Creating Layer conv5_1
I0413 16:23:03.356066  8713 net.cpp:434] conv5_1 <- pool4
I0413 16:23:03.356072  8713 net.cpp:408] conv5_1 -> conv5_1
I0413 16:23:03.360723  8713 net.cpp:150] Setting up conv5_1
I0413 16:23:03.360757  8713 net.cpp:157] Top shape: 1 512 63 94 (3032064)
I0413 16:23:03.360770  8713 net.cpp:165] Memory required for data: 3415088588
I0413 16:23:03.360780  8713 layer_factory.hpp:77] Creating layer relu5_1
I0413 16:23:03.360790  8713 net.cpp:100] Creating Layer relu5_1
I0413 16:23:03.360795  8713 net.cpp:434] relu5_1 <- conv5_1
I0413 16:23:03.360801  8713 net.cpp:395] relu5_1 -> conv5_1 (in-place)
I0413 16:23:03.360812  8713 net.cpp:150] Setting up relu5_1
I0413 16:23:03.360816  8713 net.cpp:157] Top shape: 1 512 63 94 (3032064)
I0413 16:23:03.360819  8713 net.cpp:165] Memory required for data: 3427216844
I0413 16:23:03.360822  8713 layer_factory.hpp:77] Creating layer conv5_2
I0413 16:23:03.360832  8713 net.cpp:100] Creating Layer conv5_2
I0413 16:23:03.360836  8713 net.cpp:434] conv5_2 <- conv5_1
I0413 16:23:03.360842  8713 net.cpp:408] conv5_2 -> conv5_2
I0413 16:23:03.364974  8713 net.cpp:150] Setting up conv5_2
I0413 16:23:03.365007  8713 net.cpp:157] Top shape: 1 512 63 94 (3032064)
I0413 16:23:03.365011  8713 net.cpp:165] Memory required for data: 3439345100
I0413 16:23:03.365021  8713 layer_factory.hpp:77] Creating layer relu5_2
I0413 16:23:03.365031  8713 net.cpp:100] Creating Layer relu5_2
I0413 16:23:03.365036  8713 net.cpp:434] relu5_2 <- conv5_2
I0413 16:23:03.365043  8713 net.cpp:395] relu5_2 -> conv5_2 (in-place)
I0413 16:23:03.365053  8713 net.cpp:150] Setting up relu5_2
I0413 16:23:03.365058  8713 net.cpp:157] Top shape: 1 512 63 94 (3032064)
I0413 16:23:03.365061  8713 net.cpp:165] Memory required for data: 3451473356
I0413 16:23:03.365064  8713 layer_factory.hpp:77] Creating layer conv5_3
I0413 16:23:03.365075  8713 net.cpp:100] Creating Layer conv5_3
I0413 16:23:03.365078  8713 net.cpp:434] conv5_3 <- conv5_2
I0413 16:23:03.365085  8713 net.cpp:408] conv5_3 -> conv5_3
I0413 16:23:03.370373  8713 net.cpp:150] Setting up conv5_3
I0413 16:23:03.370420  8713 net.cpp:157] Top shape: 1 512 63 94 (3032064)
I0413 16:23:03.370427  8713 net.cpp:165] Memory required for data: 3463601612
I0413 16:23:03.370443  8713 layer_factory.hpp:77] Creating layer relu5_3
I0413 16:23:03.370467  8713 net.cpp:100] Creating Layer relu5_3
I0413 16:23:03.370476  8713 net.cpp:434] relu5_3 <- conv5_3
I0413 16:23:03.370487  8713 net.cpp:395] relu5_3 -> conv5_3 (in-place)
I0413 16:23:03.370512  8713 net.cpp:150] Setting up relu5_3
I0413 16:23:03.370520  8713 net.cpp:157] Top shape: 1 512 63 94 (3032064)
I0413 16:23:03.370529  8713 net.cpp:165] Memory required for data: 3475729868
I0413 16:23:03.370535  8713 layer_factory.hpp:77] Creating layer rpn_big_conv1
I0413 16:23:03.370555  8713 net.cpp:100] Creating Layer rpn_big_conv1
I0413 16:23:03.370563  8713 net.cpp:434] rpn_big_conv1 <- conv5_3
I0413 16:23:03.370574  8713 net.cpp:408] rpn_big_conv1 -> rpn_big_conv1
I0413 16:23:03.400753  8713 net.cpp:150] Setting up rpn_big_conv1
I0413 16:23:03.400784  8713 net.cpp:157] Top shape: 1 512 63 94 (3032064)
I0413 16:23:03.400796  8713 net.cpp:165] Memory required for data: 3487858124
I0413 16:23:03.400806  8713 layer_factory.hpp:77] Creating layer rpn_big_conv1_relu
I0413 16:23:03.400817  8713 net.cpp:100] Creating Layer rpn_big_conv1_relu
I0413 16:23:03.400821  8713 net.cpp:434] rpn_big_conv1_relu <- rpn_big_conv1
I0413 16:23:03.400830  8713 net.cpp:395] rpn_big_conv1_relu -> rpn_big_conv1 (in-place)
I0413 16:23:03.400838  8713 net.cpp:150] Setting up rpn_big_conv1_relu
I0413 16:23:03.400843  8713 net.cpp:157] Top shape: 1 512 63 94 (3032064)
I0413 16:23:03.400846  8713 net.cpp:165] Memory required for data: 3499986380
I0413 16:23:03.400848  8713 layer_factory.hpp:77] Creating layer rpn_big_conv2
I0413 16:23:03.400861  8713 net.cpp:100] Creating Layer rpn_big_conv2
I0413 16:23:03.400863  8713 net.cpp:434] rpn_big_conv2 <- rpn_big_conv1
I0413 16:23:03.400871  8713 net.cpp:408] rpn_big_conv2 -> rpn_big_conv2
I0413 16:23:03.428344  8713 net.cpp:150] Setting up rpn_big_conv2
I0413 16:23:03.428386  8713 net.cpp:157] Top shape: 1 512 63 94 (3032064)
I0413 16:23:03.428391  8713 net.cpp:165] Memory required for data: 3512114636
I0413 16:23:03.428400  8713 layer_factory.hpp:77] Creating layer rpn_big_conv2_relu
I0413 16:23:03.428411  8713 net.cpp:100] Creating Layer rpn_big_conv2_relu
I0413 16:23:03.428416  8713 net.cpp:434] rpn_big_conv2_relu <- rpn_big_conv2
I0413 16:23:03.428424  8713 net.cpp:395] rpn_big_conv2_relu -> rpn_big_conv2 (in-place)
I0413 16:23:03.428434  8713 net.cpp:150] Setting up rpn_big_conv2_relu
I0413 16:23:03.428439  8713 net.cpp:157] Top shape: 1 512 63 94 (3032064)
I0413 16:23:03.428442  8713 net.cpp:165] Memory required for data: 3524242892
I0413 16:23:03.428445  8713 layer_factory.hpp:77] Creating layer rpn_big_conv2_drop
I0413 16:23:03.428452  8713 net.cpp:100] Creating Layer rpn_big_conv2_drop
I0413 16:23:03.428454  8713 net.cpp:434] rpn_big_conv2_drop <- rpn_big_conv2
I0413 16:23:03.428460  8713 net.cpp:395] rpn_big_conv2_drop -> rpn_big_conv2 (in-place)
I0413 16:23:03.428481  8713 net.cpp:150] Setting up rpn_big_conv2_drop
I0413 16:23:03.428489  8713 net.cpp:157] Top shape: 1 512 63 94 (3032064)
I0413 16:23:03.428493  8713 net.cpp:165] Memory required for data: 3536371148
I0413 16:23:03.428496  8713 layer_factory.hpp:77] Creating layer rpn_big_conv2_rpn_big_conv2_drop_0_split
I0413 16:23:03.428501  8713 net.cpp:100] Creating Layer rpn_big_conv2_rpn_big_conv2_drop_0_split
I0413 16:23:03.428504  8713 net.cpp:434] rpn_big_conv2_rpn_big_conv2_drop_0_split <- rpn_big_conv2
I0413 16:23:03.428511  8713 net.cpp:408] rpn_big_conv2_rpn_big_conv2_drop_0_split -> rpn_big_conv2_rpn_big_conv2_drop_0_split_0
I0413 16:23:03.428517  8713 net.cpp:408] rpn_big_conv2_rpn_big_conv2_drop_0_split -> rpn_big_conv2_rpn_big_conv2_drop_0_split_1
I0413 16:23:03.428552  8713 net.cpp:150] Setting up rpn_big_conv2_rpn_big_conv2_drop_0_split
I0413 16:23:03.428560  8713 net.cpp:157] Top shape: 1 512 63 94 (3032064)
I0413 16:23:03.428563  8713 net.cpp:157] Top shape: 1 512 63 94 (3032064)
I0413 16:23:03.428566  8713 net.cpp:165] Memory required for data: 3560627660
I0413 16:23:03.428570  8713 layer_factory.hpp:77] Creating layer rpn_big_output_cls
I0413 16:23:03.428581  8713 net.cpp:100] Creating Layer rpn_big_output_cls
I0413 16:23:03.428586  8713 net.cpp:434] rpn_big_output_cls <- rpn_big_conv2_rpn_big_conv2_drop_0_split_0
I0413 16:23:03.428593  8713 net.cpp:408] rpn_big_output_cls -> rpn_big_output_cls
I0413 16:23:03.450249  8713 net.cpp:150] Setting up rpn_big_output_cls
I0413 16:23:03.450292  8713 net.cpp:157] Top shape: 1 384 63 94 (2274048)
I0413 16:23:03.450299  8713 net.cpp:165] Memory required for data: 3569723852
I0413 16:23:03.450314  8713 layer_factory.hpp:77] Creating layer rpn_big_output_cls_relu
I0413 16:23:03.450330  8713 net.cpp:100] Creating Layer rpn_big_output_cls_relu
I0413 16:23:03.450338  8713 net.cpp:434] rpn_big_output_cls_relu <- rpn_big_output_cls
I0413 16:23:03.450353  8713 net.cpp:395] rpn_big_output_cls_relu -> rpn_big_output_cls (in-place)
I0413 16:23:03.450376  8713 net.cpp:150] Setting up rpn_big_output_cls_relu
I0413 16:23:03.450386  8713 net.cpp:157] Top shape: 1 384 63 94 (2274048)
I0413 16:23:03.450395  8713 net.cpp:165] Memory required for data: 3578820044
I0413 16:23:03.450404  8713 layer_factory.hpp:77] Creating layer rpn_big_cls_score
I0413 16:23:03.450423  8713 net.cpp:100] Creating Layer rpn_big_cls_score
I0413 16:23:03.450430  8713 net.cpp:434] rpn_big_cls_score <- rpn_big_output_cls
I0413 16:23:03.450441  8713 net.cpp:408] rpn_big_cls_score -> rpn_big_cls_score
I0413 16:23:03.453944  8713 net.cpp:150] Setting up rpn_big_cls_score
I0413 16:23:03.453974  8713 net.cpp:157] Top shape: 1 52 61 92 (291824)
I0413 16:23:03.453981  8713 net.cpp:165] Memory required for data: 3579987340
I0413 16:23:03.454004  8713 layer_factory.hpp:77] Creating layer rpn_big_cls_score_rpn_big_cls_score_0_split
I0413 16:23:03.454018  8713 net.cpp:100] Creating Layer rpn_big_cls_score_rpn_big_cls_score_0_split
I0413 16:23:03.454026  8713 net.cpp:434] rpn_big_cls_score_rpn_big_cls_score_0_split <- rpn_big_cls_score
I0413 16:23:03.454037  8713 net.cpp:408] rpn_big_cls_score_rpn_big_cls_score_0_split -> rpn_big_cls_score_rpn_big_cls_score_0_split_0
I0413 16:23:03.454054  8713 net.cpp:408] rpn_big_cls_score_rpn_big_cls_score_0_split -> rpn_big_cls_score_rpn_big_cls_score_0_split_1
I0413 16:23:03.454113  8713 net.cpp:150] Setting up rpn_big_cls_score_rpn_big_cls_score_0_split
I0413 16:23:03.454125  8713 net.cpp:157] Top shape: 1 52 61 92 (291824)
I0413 16:23:03.454135  8713 net.cpp:157] Top shape: 1 52 61 92 (291824)
I0413 16:23:03.454139  8713 net.cpp:165] Memory required for data: 3582321932
I0413 16:23:03.454145  8713 layer_factory.hpp:77] Creating layer rpn_big_cls_score_reshape
I0413 16:23:03.454155  8713 net.cpp:100] Creating Layer rpn_big_cls_score_reshape
I0413 16:23:03.454161  8713 net.cpp:434] rpn_big_cls_score_reshape <- rpn_big_cls_score_rpn_big_cls_score_0_split_0
I0413 16:23:03.454169  8713 net.cpp:408] rpn_big_cls_score_reshape -> rpn_big_cls_score_reshape
I0413 16:23:03.454205  8713 net.cpp:150] Setting up rpn_big_cls_score_reshape
I0413 16:23:03.454215  8713 net.cpp:157] Top shape: 1 2 1586 92 (291824)
I0413 16:23:03.454219  8713 net.cpp:165] Memory required for data: 3583489228
I0413 16:23:03.454224  8713 layer_factory.hpp:77] Creating layer rpn_big_cls_score_reshape_rpn_big_cls_score_reshape_0_split
I0413 16:23:03.454236  8713 net.cpp:100] Creating Layer rpn_big_cls_score_reshape_rpn_big_cls_score_reshape_0_split
I0413 16:23:03.454241  8713 net.cpp:434] rpn_big_cls_score_reshape_rpn_big_cls_score_reshape_0_split <- rpn_big_cls_score_reshape
I0413 16:23:03.454248  8713 net.cpp:408] rpn_big_cls_score_reshape_rpn_big_cls_score_reshape_0_split -> rpn_big_cls_score_reshape_rpn_big_cls_score_reshape_0_split_0
I0413 16:23:03.454259  8713 net.cpp:408] rpn_big_cls_score_reshape_rpn_big_cls_score_reshape_0_split -> rpn_big_cls_score_reshape_rpn_big_cls_score_reshape_0_split_1
I0413 16:23:03.454305  8713 net.cpp:150] Setting up rpn_big_cls_score_reshape_rpn_big_cls_score_reshape_0_split
I0413 16:23:03.454316  8713 net.cpp:157] Top shape: 1 2 1586 92 (291824)
I0413 16:23:03.454322  8713 net.cpp:157] Top shape: 1 2 1586 92 (291824)
I0413 16:23:03.454329  8713 net.cpp:165] Memory required for data: 3585823820
I0413 16:23:03.454334  8713 layer_factory.hpp:77] Creating layer rpn_big_cls_prob
I0413 16:23:03.454342  8713 net.cpp:100] Creating Layer rpn_big_cls_prob
I0413 16:23:03.454349  8713 net.cpp:434] rpn_big_cls_prob <- rpn_big_cls_score_reshape_rpn_big_cls_score_reshape_0_split_0
I0413 16:23:03.454356  8713 net.cpp:408] rpn_big_cls_prob -> rpn_big_cls_prob
I0413 16:23:03.454437  8713 net.cpp:150] Setting up rpn_big_cls_prob
I0413 16:23:03.454450  8713 net.cpp:157] Top shape: 1 2 1586 92 (291824)
I0413 16:23:03.454455  8713 net.cpp:165] Memory required for data: 3586991116
I0413 16:23:03.454460  8713 layer_factory.hpp:77] Creating layer rpn_big_cls_prob_reshape
I0413 16:23:03.454469  8713 net.cpp:100] Creating Layer rpn_big_cls_prob_reshape
I0413 16:23:03.454478  8713 net.cpp:434] rpn_big_cls_prob_reshape <- rpn_big_cls_prob
I0413 16:23:03.454486  8713 net.cpp:408] rpn_big_cls_prob_reshape -> rpn_big_cls_prob_reshape
I0413 16:23:03.454519  8713 net.cpp:150] Setting up rpn_big_cls_prob_reshape
I0413 16:23:03.454530  8713 net.cpp:157] Top shape: 1 52 61 92 (291824)
I0413 16:23:03.454535  8713 net.cpp:165] Memory required for data: 3588158412
I0413 16:23:03.454540  8713 layer_factory.hpp:77] Creating layer rpn_big_cls_prob_reshape_rpn_big_cls_prob_reshape_0_split
I0413 16:23:03.454550  8713 net.cpp:100] Creating Layer rpn_big_cls_prob_reshape_rpn_big_cls_prob_reshape_0_split
I0413 16:23:03.454556  8713 net.cpp:434] rpn_big_cls_prob_reshape_rpn_big_cls_prob_reshape_0_split <- rpn_big_cls_prob_reshape
I0413 16:23:03.454565  8713 net.cpp:408] rpn_big_cls_prob_reshape_rpn_big_cls_prob_reshape_0_split -> rpn_big_cls_prob_reshape_rpn_big_cls_prob_reshape_0_split_0
I0413 16:23:03.454576  8713 net.cpp:408] rpn_big_cls_prob_reshape_rpn_big_cls_prob_reshape_0_split -> rpn_big_cls_prob_reshape_rpn_big_cls_prob_reshape_0_split_1
I0413 16:23:03.454624  8713 net.cpp:150] Setting up rpn_big_cls_prob_reshape_rpn_big_cls_prob_reshape_0_split
I0413 16:23:03.454635  8713 net.cpp:157] Top shape: 1 52 61 92 (291824)
I0413 16:23:03.454643  8713 net.cpp:157] Top shape: 1 52 61 92 (291824)
I0413 16:23:03.454648  8713 net.cpp:165] Memory required for data: 3590493004
I0413 16:23:03.454653  8713 layer_factory.hpp:77] Creating layer rpn_big_anchor_target
I0413 16:23:03.456127  8713 net.cpp:100] Creating Layer rpn_big_anchor_target
I0413 16:23:03.456148  8713 net.cpp:434] rpn_big_anchor_target <- rpn_big_cls_score_rpn_big_cls_score_0_split_1
I0413 16:23:03.456157  8713 net.cpp:434] rpn_big_anchor_target <- input_gt_boxes
I0413 16:23:03.456162  8713 net.cpp:434] rpn_big_anchor_target <- input_ignored_boxes
I0413 16:23:03.456167  8713 net.cpp:434] rpn_big_anchor_target <- input_im_info_input_1_split_0
I0413 16:23:03.456171  8713 net.cpp:434] rpn_big_anchor_target <- input_data_input_0_split_1
I0413 16:23:03.456176  8713 net.cpp:434] rpn_big_anchor_target <- rpn_big_cls_prob_reshape_rpn_big_cls_prob_reshape_0_split_0
I0413 16:23:03.456182  8713 net.cpp:408] rpn_big_anchor_target -> rpn_big_anchor_target_labels
I0413 16:23:03.456194  8713 net.cpp:408] rpn_big_anchor_target -> rpn_big_anchor_target_bbox_targets
I0413 16:23:03.456202  8713 net.cpp:408] rpn_big_anchor_target -> rpn_big_anchor_target_inside_weights
I0413 16:23:03.456212  8713 net.cpp:408] rpn_big_anchor_target -> rpn_big_anchor_target_outside_weights
I0413 16:23:03.462834  8713 net.cpp:150] Setting up rpn_big_anchor_target
I0413 16:23:03.462860  8713 net.cpp:157] Top shape: 1 1 1586 92 (145912)
I0413 16:23:03.462873  8713 net.cpp:157] Top shape: 1 104 61 92 (583648)
I0413 16:23:03.462878  8713 net.cpp:157] Top shape: 1 104 61 92 (583648)
I0413 16:23:03.462882  8713 net.cpp:157] Top shape: 1 104 61 92 (583648)
I0413 16:23:03.462884  8713 net.cpp:165] Memory required for data: 3598080428
I0413 16:23:03.462889  8713 layer_factory.hpp:77] Creating layer rpn_big_loss_cls
I0413 16:23:03.462899  8713 net.cpp:100] Creating Layer rpn_big_loss_cls
I0413 16:23:03.462904  8713 net.cpp:434] rpn_big_loss_cls <- rpn_big_cls_score_reshape_rpn_big_cls_score_reshape_0_split_1
I0413 16:23:03.462911  8713 net.cpp:434] rpn_big_loss_cls <- rpn_big_anchor_target_labels
I0413 16:23:03.462918  8713 net.cpp:408] rpn_big_loss_cls -> rpn_big_loss_cls
I0413 16:23:03.462929  8713 layer_factory.hpp:77] Creating layer rpn_big_loss_cls
I0413 16:23:03.464236  8713 net.cpp:150] Setting up rpn_big_loss_cls
I0413 16:23:03.464252  8713 net.cpp:157] Top shape: (1)
I0413 16:23:03.464256  8713 net.cpp:160]     with loss weight 1
I0413 16:23:03.464275  8713 net.cpp:165] Memory required for data: 3598080432
I0413 16:23:03.464279  8713 layer_factory.hpp:77] Creating layer rpn_big_output_box
I0413 16:23:03.464293  8713 net.cpp:100] Creating Layer rpn_big_output_box
I0413 16:23:03.464298  8713 net.cpp:434] rpn_big_output_box <- rpn_big_conv2_rpn_big_conv2_drop_0_split_1
I0413 16:23:03.464308  8713 net.cpp:408] rpn_big_output_box -> rpn_big_output_box
I0413 16:23:03.485766  8713 net.cpp:150] Setting up rpn_big_output_box
I0413 16:23:03.485796  8713 net.cpp:157] Top shape: 1 384 63 94 (2274048)
I0413 16:23:03.485808  8713 net.cpp:165] Memory required for data: 3607176624
I0413 16:23:03.485818  8713 layer_factory.hpp:77] Creating layer rpn_big_output_box_relu
I0413 16:23:03.485831  8713 net.cpp:100] Creating Layer rpn_big_output_box_relu
I0413 16:23:03.485836  8713 net.cpp:434] rpn_big_output_box_relu <- rpn_big_output_box
I0413 16:23:03.485843  8713 net.cpp:395] rpn_big_output_box_relu -> rpn_big_output_box (in-place)
I0413 16:23:03.485853  8713 net.cpp:150] Setting up rpn_big_output_box_relu
I0413 16:23:03.485858  8713 net.cpp:157] Top shape: 1 384 63 94 (2274048)
I0413 16:23:03.485860  8713 net.cpp:165] Memory required for data: 3616272816
I0413 16:23:03.485863  8713 layer_factory.hpp:77] Creating layer rpn_big_bbox_pred
I0413 16:23:03.485875  8713 net.cpp:100] Creating Layer rpn_big_bbox_pred
I0413 16:23:03.485879  8713 net.cpp:434] rpn_big_bbox_pred <- rpn_big_output_box
I0413 16:23:03.485887  8713 net.cpp:408] rpn_big_bbox_pred -> rpn_big_bbox_pred
I0413 16:23:03.491557  8713 net.cpp:150] Setting up rpn_big_bbox_pred
I0413 16:23:03.491590  8713 net.cpp:157] Top shape: 1 104 61 92 (583648)
I0413 16:23:03.491603  8713 net.cpp:165] Memory required for data: 3618607408
I0413 16:23:03.491619  8713 layer_factory.hpp:77] Creating layer rpn_big_bbox_pred_rpn_big_bbox_pred_0_split
I0413 16:23:03.491636  8713 net.cpp:100] Creating Layer rpn_big_bbox_pred_rpn_big_bbox_pred_0_split
I0413 16:23:03.491643  8713 net.cpp:434] rpn_big_bbox_pred_rpn_big_bbox_pred_0_split <- rpn_big_bbox_pred
I0413 16:23:03.491657  8713 net.cpp:408] rpn_big_bbox_pred_rpn_big_bbox_pred_0_split -> rpn_big_bbox_pred_rpn_big_bbox_pred_0_split_0
I0413 16:23:03.491672  8713 net.cpp:408] rpn_big_bbox_pred_rpn_big_bbox_pred_0_split -> rpn_big_bbox_pred_rpn_big_bbox_pred_0_split_1
I0413 16:23:03.491729  8713 net.cpp:150] Setting up rpn_big_bbox_pred_rpn_big_bbox_pred_0_split
I0413 16:23:03.491744  8713 net.cpp:157] Top shape: 1 104 61 92 (583648)
I0413 16:23:03.491755  8713 net.cpp:157] Top shape: 1 104 61 92 (583648)
I0413 16:23:03.491760  8713 net.cpp:165] Memory required for data: 3623276592
I0413 16:23:03.491766  8713 layer_factory.hpp:77] Creating layer rpn_big_loss_bbox
I0413 16:23:03.492257  8713 net.cpp:100] Creating Layer rpn_big_loss_bbox
I0413 16:23:03.492269  8713 net.cpp:434] rpn_big_loss_bbox <- rpn_big_bbox_pred_rpn_big_bbox_pred_0_split_0
I0413 16:23:03.492286  8713 net.cpp:434] rpn_big_loss_bbox <- rpn_big_anchor_target_bbox_targets
I0413 16:23:03.492295  8713 net.cpp:434] rpn_big_loss_bbox <- rpn_big_anchor_target_inside_weights
I0413 16:23:03.492301  8713 net.cpp:434] rpn_big_loss_bbox <- rpn_big_anchor_target_outside_weights
I0413 16:23:03.492312  8713 net.cpp:408] rpn_big_loss_bbox -> rpn_big_loss_bbox
I0413 16:23:03.494530  8713 net.cpp:150] Setting up rpn_big_loss_bbox
I0413 16:23:03.494565  8713 net.cpp:157] Top shape: 1 (1)
I0413 16:23:03.494577  8713 net.cpp:160]     with loss weight 1
I0413 16:23:03.494590  8713 net.cpp:165] Memory required for data: 3623276596
I0413 16:23:03.494596  8713 layer_factory.hpp:77] Creating layer proposal
I0413 16:23:03.496181  8713 net.cpp:100] Creating Layer proposal
I0413 16:23:03.496194  8713 net.cpp:434] proposal <- rpn_big_cls_prob_reshape_rpn_big_cls_prob_reshape_0_split_1
I0413 16:23:03.496204  8713 net.cpp:434] proposal <- rpn_big_bbox_pred_rpn_big_bbox_pred_0_split_1
…
