…
I0413 17:33:55.929250 10393 solver.cpp:48] Initializing solver from parameters: 
base_lr: 0.001
display: 20
lr_policy: "multistep"
gamma: 0.1
momentum: 0.9
weight_decay: 0.0005
snapshot: 0
snapshot_prefix: "faces_example"
net_param {
  name: "GeneratedModel_13_04_2017_17_33"
  layer {
    name: "input"
    type: "Python"
    top: "input_data"
    top: "input_im_info"
    top: "input_gt_boxes"
    top: "input_ignored_boxes"
    python_param {
      module: "layers.roi_data_layer"
      layer: "RoIDataLayer"
      param_str: "{\"num_classes\": 2}"
    }
  }
  layer {
    name: "conv1_1"
    type: "Convolution"
    bottom: "input_data"
    top: "conv1_1"
    param {
      lr_mult: 0
      decay_mult: 0
    }
    param {
      lr_mult: 0
      decay_mult: 0
    }
    convolution_param {
      num_output: 64
      pad: 1
      kernel_size: 3
    }
  }
  layer {
    name: "relu1_1"
    type: "ReLU"
    bottom: "conv1_1"
    top: "conv1_1"
  }
  layer {
    name: "conv1_2"
    type: "Convolution"
    bottom: "conv1_1"
    top: "conv1_2"
    param {
      lr_mult: 0
      decay_mult: 0
    }
    param {
      lr_mult: 0
      decay_mult: 0
    }
    convolution_param {
      num_output: 64
      pad: 1
      kernel_size: 3
    }
  }
  layer {
    name: "relu1_2"
    type: "ReLU"
    bottom: "conv1_2"
    top: "conv1_2"
  }
  layer {
    name: "pool1"
    type: "Pooling"
    bottom: "conv1_2"
    top: "pool1"
    pooling_param {
      pool: MAX
      kernel_size: 2
      stride: 2
    }
  }
  layer {
    name: "conv2_1"
    type: "Convolution"
    bottom: "pool1"
    top: "conv2_1"
    param {
      lr_mult: 0
      decay_mult: 0
    }
    param {
      lr_mult: 0
      decay_mult: 0
    }
    convolution_param {
      num_output: 128
      pad: 1
      kernel_size: 3
    }
  }
  layer {
    name: "relu2_1"
    type: "ReLU"
    bottom: "conv2_1"
    top: "conv2_1"
  }
  layer {
    name: "conv2_2"
    type: "Convolution"
    bottom: "conv2_1"
    top: "conv2_2"
    param {
      lr_mult: 0
      decay_mult: 0
    }
    param {
      lr_mult: 0
      decay_mult: 0
    }
    convolution_param {
      num_output: 128
      pad: 1
      kernel_size: 3
    }
  }
  layer {
    name: "relu2_2"
    type: "ReLU"
    bottom: "conv2_2"
    top: "conv2_2"
  }
  layer {
    name: "pool2"
    type: "Pooling"
    bottom: "conv2_2"
    top: "pool2"
    pooling_param {
      pool: MAX
      kernel_size: 2
      stride: 2
    }
  }
  layer {
    name: "conv3_1"
    type: "Convolution"
    bottom: "pool2"
    top: "conv3_1"
    param {
      lr_mult: 1
    }
    param {
      lr_mult: 2
    }
    convolution_param {
      num_output: 256
      pad: 1
      kernel_size: 3
    }
  }
  layer {
    name: "relu3_1"
    type: "ReLU"
    bottom: "conv3_1"
    top: "conv3_1"
  }
  layer {
    name: "conv3_2"
    type: "Convolution"
    bottom: "conv3_1"
    top: "conv3_2"
    param {
      lr_mult: 1
    }
    param {
      lr_mult: 2
    }
    convolution_param {
      num_output: 256
      pad: 1
      kernel_size: 3
    }
  }
  layer {
    name: "relu3_2"
    type: "ReLU"
    bottom: "conv3_2"
    top: "conv3_2"
  }
  layer {
    name: "conv3_3"
    type: "Convolution"
    bottom: "conv3_2"
    top: "conv3_3"
    param {
      lr_mult: 1
    }
    param {
      lr_mult: 2
    }
    convolution_param {
      num_output: 256
      pad: 1
      kernel_size: 3
    }
  }
  layer {
    name: "relu3_3"
    type: "ReLU"
    bottom: "conv3_3"
    top: "conv3_3"
  }
  layer {
    name: "pool3"
    type: "Pooling"
    bottom: "conv3_3"
    top: "pool3"
    pooling_param {
      pool: MAX
      kernel_size: 2
      stride: 2
    }
  }
  layer {
    name: "conv4_1"
    type: "Convolution"
    bottom: "pool3"
    top: "conv4_1"
    param {
      lr_mult: 1
    }
    param {
      lr_mult: 2
    }
    convolution_param {
      num_output: 512
      pad: 1
      kernel_size: 3
    }
  }
  layer {
    name: "relu4_1"
    type: "ReLU"
    bottom: "conv4_1"
    top: "conv4_1"
  }
  layer {
    name: "conv4_2"
    type: "Convolution"
    bottom: "conv4_1"
    top: "conv4_2"
    param {
      lr_mult: 1
    }
    param {
      lr_mult: 2
    }
    convolution_param {
      num_output: 512
      pad: 1
      kernel_size: 3
    }
  }
  layer {
    name: "relu4_2"
    type: "ReLU"
    bottom: "conv4_2"
    top: "conv4_2"
  }
  layer {
    name: "conv4_3"
    type: "Convolution"
    bottom: "conv4_2"
    top: "conv4_3"
    param {
      lr_mult: 1
    }
    param {
      lr_mult: 2
    }
    convolution_param {
      num_output: 512
      pad: 1
      kernel_size: 3
    }
  }
  layer {
    name: "relu4_3"
    type: "ReLU"
    bottom: "conv4_3"
    top: "conv4_3"
  }
  layer {
    name: "pool4"
    type: "Pooling"
    bottom: "conv4_3"
    top: "pool4"
    pooling_param {
      pool: MAX
      kernel_size: 2
      stride: 2
    }
  }
  layer {
    name: "conv5_1"
    type: "Convolution"
    bottom: "pool4"
    top: "conv5_1"
    param {
      lr_mult: 1
    }
    param {
      lr_mult: 2
    }
    convolution_param {
      num_output: 512
      pad: 1
      kernel_size: 3
    }
  }
  layer {
    name: "relu5_1"
    type: "ReLU"
    bottom: "conv5_1"
    top: "conv5_1"
  }
  layer {
    name: "conv5_2"
    type: "Convolution"
    bottom: "conv5_1"
    top: "conv5_2"
    param {
      lr_mult: 1
    }
    param {
      lr_mult: 2
    }
    convolution_param {
      num_output: 512
      pad: 1
      kernel_size: 3
    }
  }
  layer {
    name: "relu5_2"
    type: "ReLU"
    bottom: "conv5_2"
    top: "conv5_2"
  }
  layer {
    name: "conv5_3"
    type: "Convolution"
    bottom: "conv5_2"
    top: "conv5_3"
    param {
      lr_mult: 1
    }
    param {
      lr_mult: 2
    }
    convolution_param {
      num_output: 512
      pad: 1
      kernel_size: 3
    }
  }
  layer {
    name: "relu5_3"
    type: "ReLU"
    bottom: "conv5_3"
    top: "conv5_3"
  }
  layer {
    name: "rpn_big_conv1"
    type: "Convolution"
    bottom: "conv5_3"
    top: "rpn_big_conv1"
    param {
      lr_mult: 1
    }
    param {
      lr_mult: 2
    }
    convolution_param {
      num_output: 512
      pad: 1
      kernel_size: 3
      stride: 1
      weight_filler {
        type: "gaussian"
        mean: 0
        std: 0.01
      }
      bias_filler {
        type: "constant"
      }
    }
  }
  layer {
    name: "rpn_big_conv1_relu"
    type: "ReLU"
    bottom: "rpn_big_conv1"
    top: "rpn_big_conv1"
    relu_param {
      negative_slope: 0
    }
  }
  layer {
    name: "rpn_big_conv2"
    type: "Convolution"
    bottom: "rpn_big_conv1"
    top: "rpn_big_conv2"
    param {
      lr_mult: 1
    }
    param {
      lr_mult: 2
    }
    convolution_param {
      num_output: 512
      pad: 1
      kernel_size: 3
      stride: 1
      weight_filler {
        type: "gaussian"
        mean: 0
        std: 0.01
      }
      bias_filler {
        type: "constant"
      }
    }
  }
  layer {
    name: "rpn_big_conv2_relu"
    type: "ReLU"
    bottom: "rpn_big_conv2"
    top: "rpn_big_conv2"
    relu_param {
      negative_slope: 0
    }
  }
  layer {
    name: "rpn_big_conv2_drop"
    type: "Dropout"
    bottom: "rpn_big_conv2"
    top: "rpn_big_conv2"
    dropout_param {
      dropout_ratio: 0.3
    }
  }
  layer {
    name: "rpn_big_output_cls"
    type: "Convolution"
    bottom: "rpn_big_conv2"
    top: "rpn_big_output_cls"
    param {
      lr_mult: 1
    }
    param {
      lr_mult: 2
    }
    convolution_param {
      num_output: 384
      pad: 1
      kernel_size: 3
      stride: 1
      weight_filler {
        type: "gaussian"
        mean: 0
        std: 0.01
      }
      bias_filler {
        type: "constant"
      }
    }
  }
  layer {
    name: "rpn_big_output_cls_relu"
    type: "ReLU"
    bottom: "rpn_big_output_cls"
    top: "rpn_big_output_cls"
    relu_param {
      negative_slope: 0
    }
  }
  layer {
    name: "rpn_big_cls_score"
    type: "Convolution"
    bottom: "rpn_big_output_cls"
    top: "rpn_big_cls_score"
    param {
      lr_mult: 1
    }
    param {
      lr_mult: 2
    }
    convolution_param {
      num_output: 52
      pad: 0
      kernel_size: 3
      stride: 1
      weight_filler {
        type: "gaussian"
        mean: 0
        std: 0.01
      }
      bias_filler {
        type: "constant"
      }
    }
  }
  layer {
    name: "rpn_big_cls_score_reshape"
    type: "Reshape"
    bottom: "rpn_big_cls_score"
    top: "rpn_big_cls_score_reshape"
    reshape_param {
      shape {
        dim: 0
        dim: 2
        dim: -1
        dim: 0
      }
    }
  }
  layer {
    name: "rpn_big_cls_prob"
    type: "Softmax"
    bottom: "rpn_big_cls_score_reshape"
    top: "rpn_big_cls_prob"
  }
  layer {
    name: "rpn_big_cls_prob_reshape"
    type: "Reshape"
    bottom: "rpn_big_cls_prob"
    top: "rpn_big_cls_prob_reshape"
    reshape_param {
      shape {
        dim: 0
        dim: 52
        dim: -1
        dim: 0
      }
    }
  }
  layer {
    name: "rpn_big_anchor_target"
    type: "Python"
    bottom: "rpn_big_cls_score"
    bottom: "input_gt_boxes"
    bottom: "input_ignored_boxes"
    bottom: "input_im_info"
    bottom: "input_data"
    bottom: "rpn_big_cls_prob_reshape"
    top: "rpn_big_anchor_target_labels"
    top: "rpn_big_anchor_target_bbox_targets"
    top: "rpn_big_anchor_target_inside_weights"
    top: "rpn_big_anchor_target_outside_weights"
    python_param {
      module: "rpn.anchor_target_layer"
      layer: "AnchorTargetLayer"
      param_str: "{\"name\": \"rpn_big\", \"fg_fraction\": 0.5, \"anchor_ratios\": [1.0], \"anchor_scales\": [2.5, 3.025, 3.66025, 4.4289024999999995, 5.358972025, 6.484356150249999, 7.846070941802498, 9.493745839581022, 11.487432465893036, 13.899793283730574, 16.818749873313998, 20.350687346709933, 24.62433168951902, 29.795441344318014], \"batchsize\": 256, \"feat_stride\": 16, \"square_targets\": true, \"negative_overlap\": 0.4, \"anchor_shift_num_xy\": [[2, 2], [2, 2], [2, 2], [2, 2], [1, 1], [1, 1], [1, 1], [1, 1], [1, 1], [1, 1], [1, 1], [1, 1], [1, 1], [1, 1]], \"positive_overlap\": 0.6, \"tn_fraction\": 0.2, \"num_classes\": 1}"
    }
  }
  layer {
    name: "rpn_big_loss_cls"
    type: "SoftmaxWithLoss"
    bottom: "rpn_big_cls_score_reshape"
    bottom: "rpn_big_anchor_target_labels"
    top: "rpn_big_loss_cls"
    loss_weight: 1
    propagate_down: true
    propagate_down: false
    loss_param {
      ignore_label: -1
      normalization: VALID
    }
  }
  layer {
    name: "rpn_big_output_box"
    type: "Convolution"
    bottom: "rpn_big_conv2"
    top: "rpn_big_output_box"
    param {
      lr_mult: 1
    }
    param {
      lr_mult: 2
    }
    convolution_param {
      num_output: 384
      pad: 1
      kernel_size: 3
      stride: 1
      weight_filler {
        type: "gaussian"
        mean: 0
        std: 0.01
      }
      bias_filler {
        type: "constant"
      }
    }
  }
  layer {
    name: "rpn_big_output_box_relu"
    type: "ReLU"
    bottom: "rpn_big_output_box"
    top: "rpn_big_output_box"
    relu_param {
      negative_slope: 0
    }
  }
  layer {
    name: "rpn_big_bbox_pred"
    type: "Convolution"
    bottom: "rpn_big_output_box"
    top: "rpn_big_bbox_pred"
    param {
      lr_mult: 1
    }
    param {
      lr_mult: 2
    }
    convolution_param {
      num_output: 104
      pad: 0
      kernel_size: 3
      stride: 1
      weight_filler {
        type: "gaussian"
        mean: 0
        std: 0.01
      }
      bias_filler {
        type: "constant"
      }
    }
  }
  layer {
    name: "rpn_big_loss_bbox"
    type: "Python"
    bottom: "rpn_big_bbox_pred"
    bottom: "rpn_big_anchor_target_bbox_targets"
    bottom: "rpn_big_anchor_target_inside_weights"
    bottom: "rpn_big_anchor_target_outside_weights"
    top: "rpn_big_loss_bbox"
    loss_weight: 1
    python_param {
      module: "layers.smooth_l1_loss"
      layer: "SmoothL1LossLayer"
      param_str: "{\"sigma\": 3}"
    }
  }
  layer {
    name: "proposal"
    type: "Python"
    bottom: "rpn_big_cls_prob_reshape"
    bottom: "rpn_big_bbox_pred"
    bottom: "input_im_info"
    top: "rpn_rois"
    python_param {
      module: "rpn.proposal_layer"
      layer: "ProposalLayer"
      param_str: "{\"anchor_shift_num_xy\": [[2, 2], [2, 2], [2, 2], [2, 2], [1, 1], [1, 1], [1, 1], [1, 1], [1, 1], [1, 1], [1, 1], [1, 1], [1, 1], [1, 1]], \"feat_stride\": 16, \"num_classes\": 1, \"anchor_scales\": [2.5, 3.025, 3.66025, 4.4289024999999995, 5.358972025, 6.484356150249999, 7.846070941802498, 9.493745839581022, 11.487432465893036, 13.899793283730574, 16.818749873313998, 20.350687346709933, 24.62433168951902, 29.795441344318014], \"square_targets\": true, \"name\": \"rpn_big\", \"batchsize\": 256, \"anchor_ratios\": [1.0]}"
    }
  }
}
average_loss: 100
stepvalue: 70000
stepvalue: 120000
iter_size: 2
I0413 17:33:55.929328 10393 solver.cpp:86] Creating training net specified in net_param.
I0413 17:33:55.929724 10393 net.cpp:58] Initializing net from parameters: 
name: "GeneratedModel_13_04_2017_17_33"
state {
  phase: TRAIN
}
layer {
  name: "input"
  type: "Python"
  top: "input_data"
  top: "input_im_info"
  top: "input_gt_boxes"
  top: "input_ignored_boxes"
  python_param {
    module: "layers.roi_data_layer"
    layer: "RoIDataLayer"
    param_str: "{\"num_classes\": 2}"
  }
}
layer {
  name: "conv1_1"
  type: "Convolution"
  bottom: "input_data"
  top: "conv1_1"
  param {
    lr_mult: 0
    decay_mult: 0
  }
  param {
    lr_mult: 0
    decay_mult: 0
  }
  convolution_param {
    num_output: 64
    pad: 1
    kernel_size: 3
  }
}
layer {
  name: "relu1_1"
  type: "ReLU"
  bottom: "conv1_1"
  top: "conv1_1"
}
layer {
  name: "conv1_2"
  type: "Convolution"
  bottom: "conv1_1"
  top: "conv1_2"
  param {
    lr_mult: 0
    decay_mult: 0
  }
  param {
    lr_mult: 0
    decay_mult: 0
  }
  convolution_param {
    num_output: 64
    pad: 1
    kernel_size: 3
  }
}
layer {
  name: "relu1_2"
  type: "ReLU"
  bottom: "conv1_2"
  top: "conv1_2"
}
layer {
  name: "pool1"
  type: "Pooling"
  bottom: "conv1_2"
  top: "pool1"
  pooling_param {
    pool: MAX
    kernel_size: 2
    stride: 2
  }
}
layer {
  name: "conv2_1"
  type: "Convolution"
  bottom: "pool1"
  top: "conv2_1"
  param {
    lr_mult: 0
    decay_mult: 0
  }
  param {
    lr_mult: 0
    decay_mult: 0
  }
  convolution_param {
    num_output: 128
    pad: 1
    kernel_size: 3
  }
}
layer {
  name: "relu2_1"
  type: "ReLU"
  bottom: "conv2_1"
  top: "conv2_1"
}
layer {
  name: "conv2_2"
  type: "Convolution"
  bottom: "conv2_1"
  top: "conv2_2"
  param {
    lr_mult: 0
    decay_mult: 0
  }
  param {
    lr_mult: 0
    decay_mult: 0
  }
  convolution_param {
    num_output: 128
    pad: 1
    kernel_size: 3
  }
}
layer {
  name: "relu2_2"
  type: "ReLU"
  bottom: "conv2_2"
  top: "conv2_2"
}
layer {
  name: "pool2"
  type: "Pooling"
  bottom: "conv2_2"
  top: "pool2"
  pooling_param {
    pool: MAX
    kernel_size: 2
    stride: 2
  }
}
layer {
  name: "conv3_1"
  type: "Convolution"
  bottom: "pool2"
  top: "conv3_1"
  param {
    lr_mult: 1
  }
  param {
    lr_mult: 2
  }
  convolution_param {
    num_output: 256
    pad: 1
    kernel_size: 3
  }
}
layer {
  name: "relu3_1"
  type: "ReLU"
  bottom: "conv3_1"
  top: "conv3_1"
}
layer {
  name: "conv3_2"
  type: "Convolution"
  bottom: "conv3_1"
  top: "conv3_2"
  param {
    lr_mult: 1
  }
  param {
    lr_mult: 2
  }
  convolution_param {
    num_output: 256
    pad: 1
    kernel_size: 3
  }
}
layer {
  name: "relu3_2"
  type: "ReLU"
  bottom: "conv3_2"
  top: "conv3_2"
}
layer {
  name: "conv3_3"
  type: "Convolution"
  bottom: "conv3_2"
  top: "conv3_3"
  param {
    lr_mult: 1
  }
  param {
    lr_mult: 2
  }
  convolution_param {
    num_output: 256
    pad: 1
    kernel_size: 3
  }
}
layer {
  name: "relu3_3"
  type: "ReLU"
  bottom: "conv3_3"
  top: "conv3_3"
}
layer {
  name: "pool3"
  type: "Pooling"
  bottom: "conv3_3"
  top: "pool3"
  pooling_param {
    pool: MAX
    kernel_size: 2
    stride: 2
  }
}
layer {
  name: "conv4_1"
  type: "Convolution"
  bottom: "pool3"
  top: "conv4_1"
  param {
    lr_mult: 1
  }
  param {
    lr_mult: 2
  }
  convolution_param {
    num_output: 512
    pad: 1
    kernel_size: 3
  }
}
layer {
  name: "relu4_1"
  type: "ReLU"
  bottom: "conv4_1"
  top: "conv4_1"
}
layer {
  name: "conv4_2"
  type: "Convolution"
  bottom: "conv4_1"
  top: "conv4_2"
  param {
    lr_mult: 1
  }
  param {
    lr_mult: 2
  }
  convolution_param {
    num_output: 512
    pad: 1
    kernel_size: 3
  }
}
layer {
  name: "relu4_2"
  type: "ReLU"
  bottom: "conv4_2"
  top: "conv4_2"
}
layer {
  name: "conv4_3"
  type: "Convolution"
  bottom: "conv4_2"
  top: "conv4_3"
  param {
    lr_mult: 1
  }
  param {
    lr_mult: 2
  }
  convolution_param {
    num_output: 512
    pad: 1
    kernel_size: 3
  }
}
layer {
  name: "relu4_3"
  type: "ReLU"
  bottom: "conv4_3"
  top: "conv4_3"
}
layer {
  name: "pool4"
  type: "Pooling"
  bottom: "conv4_3"
  top: "pool4"
  pooling_param {
    pool: MAX
    kernel_size: 2
    stride: 2
  }
}
layer {
  name: "conv5_1"
  type: "Convolution"
  bottom: "pool4"
  top: "conv5_1"
  param {
    lr_mult: 1
  }
  param {
    lr_mult: 2
  }
  convolution_param {
    num_output: 512
    pad: 1
    kernel_size: 3
  }
}
layer {
  name: "relu5_1"
  type: "ReLU"
  bottom: "conv5_1"
  top: "conv5_1"
}
layer {
  name: "conv5_2"
  type: "Convolution"
  bottom: "conv5_1"
  top: "conv5_2"
  param {
    lr_mult: 1
  }
  param {
    lr_mult: 2
  }
  convolution_param {
    num_output: 512
    pad: 1
    kernel_size: 3
  }
}
layer {
  name: "relu5_2"
  type: "ReLU"
  bottom: "conv5_2"
  top: "conv5_2"
}
layer {
  name: "conv5_3"
  type: "Convolution"
  bottom: "conv5_2"
  top: "conv5_3"
  param {
    lr_mult: 1
  }
  param {
    lr_mult: 2
  }
  convolution_param {
    num_output: 512
    pad: 1
    kernel_size: 3
  }
}
layer {
  name: "relu5_3"
  type: "ReLU"
  bottom: "conv5_3"
  top: "conv5_3"
}
layer {
  name: "rpn_big_conv1"
  type: "Convolution"
  bottom: "conv5_3"
  top: "rpn_big_conv1"
  param {
    lr_mult: 1
  }
  param {
    lr_mult: 2
  }
  convolution_param {
    num_output: 512
    pad: 1
    kernel_size: 3
    stride: 1
    weight_filler {
      type: "gaussian"
      mean: 0
      std: 0.01
    }
    bias_filler {
      type: "constant"
    }
  }
}
layer {
  name: "rpn_big_conv1_relu"
  type: "ReLU"
  bottom: "rpn_big_conv1"
  top: "rpn_big_conv1"
  relu_param {
    negative_slope: 0
  }
}
layer {
  name: "rpn_big_conv2"
  type: "Convolution"
  bottom: "rpn_big_conv1"
  top: "rpn_big_conv2"
  param {
    lr_mult: 1
  }
  param {
    lr_mult: 2
  }
  convolution_param {
    num_output: 512
    pad: 1
    kernel_size: 3
    stride: 1
    weight_filler {
      type: "gaussian"
      mean: 0
      std: 0.01
    }
    bias_filler {
      type: "constant"
    }
  }
}
layer {
  name: "rpn_big_conv2_relu"
  type: "ReLU"
  bottom: "rpn_big_conv2"
  top: "rpn_big_conv2"
  relu_param {
    negative_slope: 0
  }
}
layer {
  name: "rpn_big_conv2_drop"
  type: "Dropout"
  bottom: "rpn_big_conv2"
  top: "rpn_big_conv2"
  dropout_param {
    dropout_ratio: 0.3
  }
}
layer {
  name: "rpn_big_output_cls"
  type: "Convolution"
  bottom: "rpn_big_conv2"
  top: "rpn_big_output_cls"
  param {
    lr_mult: 1
  }
  param {
    lr_mult: 2
  }
  convolution_param {
    num_output: 384
    pad: 1
    kernel_size: 3
    stride: 1
    weight_filler {
      type: "gaussian"
      mean: 0
      std: 0.01
    }
    bias_filler {
      type: "constant"
    }
  }
}
layer {
  name: "rpn_big_output_cls_relu"
  type: "ReLU"
  bottom: "rpn_big_output_cls"
  top: "rpn_big_output_cls"
  relu_param {
    negative_slope: 0
  }
}
layer {
  name: "rpn_big_cls_score"
  type: "Convolution"
  bottom: "rpn_big_output_cls"
  top: "rpn_big_cls_score"
  param {
    lr_mult: 1
  }
  param {
    lr_mult: 2
  }
  convolution_param {
    num_output: 52
    pad: 0
    kernel_size: 3
    stride: 1
    weight_filler {
      type: "gaussian"
      mean: 0
      std: 0.01
    }
    bias_filler {
      type: "constant"
    }
  }
}
layer {
  name: "rpn_big_cls_score_reshape"
  type: "Reshape"
  bottom: "rpn_big_cls_score"
  top: "rpn_big_cls_score_reshape"
  reshape_param {
    shape {
      dim: 0
      dim: 2
      dim: -1
      dim: 0
    }
  }
}
layer {
  name: "rpn_big_cls_prob"
  type: "Softmax"
  bottom: "rpn_big_cls_score_reshape"
  top: "rpn_big_cls_prob"
}
layer {
  name: "rpn_big_cls_prob_reshape"
  type: "Reshape"
  bottom: "rpn_big_cls_prob"
  top: "rpn_big_cls_prob_reshape"
  reshape_param {
    shape {
      dim: 0
      dim: 52
      dim: -1
      dim: 0
    }
  }
}
layer {
  name: "rpn_big_anchor_target"
  type: "Python"
  bottom: "rpn_big_cls_score"
  bottom: "input_gt_boxes"
  bottom: "input_ignored_boxes"
  bottom: "input_im_info"
  bottom: "input_data"
  bottom: "rpn_big_cls_prob_reshape"
  top: "rpn_big_anchor_target_labels"
  top: "rpn_big_anchor_target_bbox_targets"
  top: "rpn_big_anchor_target_inside_weights"
  top: "rpn_big_anchor_target_outside_weights"
  python_param {
    module: "rpn.anchor_target_layer"
    layer: "AnchorTargetLayer"
    param_str: "{\"name\": \"rpn_big\", \"fg_fraction\": 0.5, \"anchor_ratios\": [1.0], \"anchor_scales\": [2.5, 3.025, 3.66025, 4.4289024999999995, 5.358972025, 6.484356150249999, 7.846070941802498, 9.493745839581022, 11.487432465893036, 13.899793283730574, 16.818749873313998, 20.350687346709933, 24.62433168951902, 29.795441344318014], \"batchsize\": 256, \"feat_stride\": 16, \"square_targets\": true, \"negative_overlap\": 0.4, \"anchor_shift_num_xy\": [[2, 2], [2, 2], [2, 2], [2, 2], [1, 1], [1, 1], [1, 1], [1, 1], [1, 1], [1, 1], [1, 1], [1, 1], [1, 1], [1, 1]], \"positive_overlap\": 0.6, \"tn_fraction\": 0.2, \"num_classes\": 1}"
  }
}
layer {
  name: "rpn_big_loss_cls"
  type: "SoftmaxWithLoss"
  bottom: "rpn_big_cls_score_reshape"
  bottom: "rpn_big_anchor_target_labels"
  top: "rpn_big_loss_cls"
  loss_weight: 1
  propagate_down: true
  propagate_down: false
  loss_param {
    ignore_label: -1
    normalization: VALID
  }
}
layer {
  name: "rpn_big_output_box"
  type: "Convolution"
  bottom: "rpn_big_conv2"
  top: "rpn_big_output_box"
  param {
    lr_mult: 1
  }
  param {
    lr_mult: 2
  }
  convolution_param {
    num_output: 384
    pad: 1
    kernel_size: 3
    stride: 1
    weight_filler {
      type: "gaussian"
      mean: 0
      std: 0.01
    }
    bias_filler {
      type: "constant"
    }
  }
}
layer {
  name: "rpn_big_output_box_relu"
  type: "ReLU"
  bottom: "rpn_big_output_box"
  top: "rpn_big_output_box"
  relu_param {
    negative_slope: 0
  }
}
layer {
  name: "rpn_big_bbox_pred"
  type: "Convolution"
  bottom: "rpn_big_output_box"
  top: "rpn_big_bbox_pred"
  param {
    lr_mult: 1
  }
  param {
    lr_mult: 2
  }
  convolution_param {
    num_output: 104
    pad: 0
    kernel_size: 3
    stride: 1
    weight_filler {
      type: "gaussian"
      mean: 0
      std: 0.01
    }
    bias_filler {
      type: "constant"
    }
  }
}
layer {
  name: "rpn_big_loss_bbox"
  type: "Python"
  bottom: "rpn_big_bbox_pred"
  bottom: "rpn_big_anchor_target_bbox_targets"
  bottom: "rpn_big_anchor_target_inside_weights"
  bottom: "rpn_big_anchor_target_outside_weights"
  top: "rpn_big_loss_bbox"
  loss_weight: 1
  python_param {
    module: "layers.smooth_l1_loss"
    layer: "SmoothL1LossLayer"
    param_str: "{\"sigma\": 3}"
  }
}
layer {
  name: "proposal"
  type: "Python"
  bottom: "rpn_big_cls_prob_reshape"
  bottom: "rpn_big_bbox_pred"
  bottom: "input_im_info"
  top: "rpn_rois"
  python_param {
    module: "rpn.proposal_layer"
    layer: "ProposalLayer"
    param_str: "{\"anchor_shift_num_xy\": [[2, 2], [2, 2], [2, 2], [2, 2], [1, 1], [1, 1], [1, 1], [1, 1], [1, 1], [1, 1], [1, 1], [1, 1], [1, 1], [1, 1]], \"feat_stride\": 16, \"num_classes\": 1, \"anchor_scales\": [2.5, 3.025, 3.66025, 4.4289024999999995, 5.358972025, 6.484356150249999, 7.846070941802498, 9.493745839581022, 11.487432465893036, 13.899793283730574, 16.818749873313998, 20.350687346709933, 24.62433168951902, 29.795441344318014], \"square_targets\": true, \"name\": \"rpn_big\", \"batchsize\": 256, \"anchor_ratios\": [1.0]}"
  }
}
I0413 17:33:55.929908 10393 layer_factory.hpp:77] Creating layer input
I0413 17:33:55.932504 10393 net.cpp:100] Creating Layer input
I0413 17:33:55.932528 10393 net.cpp:408] input -> input_data
I0413 17:33:55.932540 10393 net.cpp:408] input -> input_im_info
I0413 17:33:55.932548 10393 net.cpp:408] input -> input_gt_boxes
I0413 17:33:55.932554 10393 net.cpp:408] input -> input_ignored_boxes
RoiDataLayer: name_to_top: {'data': 0, 'gt_boxes': 2, 'im_info': 1, 'ignored_boxes': 3}
I0413 17:33:56.269634 10393 net.cpp:150] Setting up input
I0413 17:33:56.269660 10393 net.cpp:157] Top shape: 1 3 1000 1500 (4500000)
I0413 17:33:56.269666 10393 net.cpp:157] Top shape: 1 3 (3)
I0413 17:33:56.269670 10393 net.cpp:157] Top shape: 1 5 (5)
I0413 17:33:56.269673 10393 net.cpp:157] Top shape: 1 5 (5)
I0413 17:33:56.269676 10393 net.cpp:165] Memory required for data: 18000052
I0413 17:33:56.269682 10393 layer_factory.hpp:77] Creating layer input_data_input_0_split
I0413 17:33:56.269695 10393 net.cpp:100] Creating Layer input_data_input_0_split
I0413 17:33:56.269698 10393 net.cpp:434] input_data_input_0_split <- input_data
I0413 17:33:56.269707 10393 net.cpp:408] input_data_input_0_split -> input_data_input_0_split_0
I0413 17:33:56.269718 10393 net.cpp:408] input_data_input_0_split -> input_data_input_0_split_1
I0413 17:33:56.269750 10393 net.cpp:150] Setting up input_data_input_0_split
I0413 17:33:56.269757 10393 net.cpp:157] Top shape: 1 3 1000 1500 (4500000)
I0413 17:33:56.269760 10393 net.cpp:157] Top shape: 1 3 1000 1500 (4500000)
I0413 17:33:56.269763 10393 net.cpp:165] Memory required for data: 54000052
I0413 17:33:56.269767 10393 layer_factory.hpp:77] Creating layer input_im_info_input_1_split
I0413 17:33:56.269773 10393 net.cpp:100] Creating Layer input_im_info_input_1_split
I0413 17:33:56.269775 10393 net.cpp:434] input_im_info_input_1_split <- input_im_info
I0413 17:33:56.269780 10393 net.cpp:408] input_im_info_input_1_split -> input_im_info_input_1_split_0
I0413 17:33:56.269786 10393 net.cpp:408] input_im_info_input_1_split -> input_im_info_input_1_split_1
I0413 17:33:56.269812 10393 net.cpp:150] Setting up input_im_info_input_1_split
I0413 17:33:56.269817 10393 net.cpp:157] Top shape: 1 3 (3)
I0413 17:33:56.269821 10393 net.cpp:157] Top shape: 1 3 (3)
I0413 17:33:56.269824 10393 net.cpp:165] Memory required for data: 54000076
I0413 17:33:56.269826 10393 layer_factory.hpp:77] Creating layer conv1_1
I0413 17:33:56.269836 10393 net.cpp:100] Creating Layer conv1_1
I0413 17:33:56.269840 10393 net.cpp:434] conv1_1 <- input_data_input_0_split_0
I0413 17:33:56.269845 10393 net.cpp:408] conv1_1 -> conv1_1
I0413 17:33:56.273406 10393 net.cpp:150] Setting up conv1_1
I0413 17:33:56.273442 10393 net.cpp:157] Top shape: 1 64 1000 1500 (96000000)
I0413 17:33:56.273447 10393 net.cpp:165] Memory required for data: 438000076
I0413 17:33:56.273469 10393 layer_factory.hpp:77] Creating layer relu1_1
I0413 17:33:56.273491 10393 net.cpp:100] Creating Layer relu1_1
I0413 17:33:56.273500 10393 net.cpp:434] relu1_1 <- conv1_1
I0413 17:33:56.273511 10393 net.cpp:395] relu1_1 -> conv1_1 (in-place)
I0413 17:33:56.273524 10393 net.cpp:150] Setting up relu1_1
I0413 17:33:56.273535 10393 net.cpp:157] Top shape: 1 64 1000 1500 (96000000)
I0413 17:33:56.273538 10393 net.cpp:165] Memory required for data: 822000076
I0413 17:33:56.273543 10393 layer_factory.hpp:77] Creating layer conv1_2
I0413 17:33:56.273557 10393 net.cpp:100] Creating Layer conv1_2
I0413 17:33:56.273564 10393 net.cpp:434] conv1_2 <- conv1_1
I0413 17:33:56.273574 10393 net.cpp:408] conv1_2 -> conv1_2
I0413 17:33:56.277055 10393 net.cpp:150] Setting up conv1_2
I0413 17:33:56.277092 10393 net.cpp:157] Top shape: 1 64 1000 1500 (96000000)
I0413 17:33:56.277096 10393 net.cpp:165] Memory required for data: 1206000076
I0413 17:33:56.277113 10393 layer_factory.hpp:77] Creating layer relu1_2
I0413 17:33:56.277125 10393 net.cpp:100] Creating Layer relu1_2
I0413 17:33:56.277134 10393 net.cpp:434] relu1_2 <- conv1_2
I0413 17:33:56.277143 10393 net.cpp:395] relu1_2 -> conv1_2 (in-place)
I0413 17:33:56.277156 10393 net.cpp:150] Setting up relu1_2
I0413 17:33:56.277163 10393 net.cpp:157] Top shape: 1 64 1000 1500 (96000000)
I0413 17:33:56.277165 10393 net.cpp:165] Memory required for data: 1590000076
I0413 17:33:56.277168 10393 layer_factory.hpp:77] Creating layer pool1
I0413 17:33:56.277174 10393 net.cpp:100] Creating Layer pool1
I0413 17:33:56.277178 10393 net.cpp:434] pool1 <- conv1_2
I0413 17:33:56.277182 10393 net.cpp:408] pool1 -> pool1
I0413 17:33:56.277251 10393 net.cpp:150] Setting up pool1
I0413 17:33:56.277261 10393 net.cpp:157] Top shape: 1 64 500 750 (24000000)
I0413 17:33:56.277263 10393 net.cpp:165] Memory required for data: 1686000076
I0413 17:33:56.277266 10393 layer_factory.hpp:77] Creating layer conv2_1
I0413 17:33:56.277281 10393 net.cpp:100] Creating Layer conv2_1
I0413 17:33:56.277285 10393 net.cpp:434] conv2_1 <- pool1
I0413 17:33:56.277292 10393 net.cpp:408] conv2_1 -> conv2_1
I0413 17:33:56.278475 10393 net.cpp:150] Setting up conv2_1
I0413 17:33:56.278501 10393 net.cpp:157] Top shape: 1 128 500 750 (48000000)
I0413 17:33:56.278506 10393 net.cpp:165] Memory required for data: 1878000076
I0413 17:33:56.278517 10393 layer_factory.hpp:77] Creating layer relu2_1
I0413 17:33:56.278528 10393 net.cpp:100] Creating Layer relu2_1
I0413 17:33:56.278532 10393 net.cpp:434] relu2_1 <- conv2_1
I0413 17:33:56.278538 10393 net.cpp:395] relu2_1 -> conv2_1 (in-place)
I0413 17:33:56.278545 10393 net.cpp:150] Setting up relu2_1
I0413 17:33:56.278551 10393 net.cpp:157] Top shape: 1 128 500 750 (48000000)
I0413 17:33:56.278554 10393 net.cpp:165] Memory required for data: 2070000076
I0413 17:33:56.278558 10393 layer_factory.hpp:77] Creating layer conv2_2
I0413 17:33:56.278566 10393 net.cpp:100] Creating Layer conv2_2
I0413 17:33:56.278571 10393 net.cpp:434] conv2_2 <- conv2_1
I0413 17:33:56.278578 10393 net.cpp:408] conv2_2 -> conv2_2
I0413 17:33:56.279513 10393 net.cpp:150] Setting up conv2_2
I0413 17:33:56.279543 10393 net.cpp:157] Top shape: 1 128 500 750 (48000000)
I0413 17:33:56.279551 10393 net.cpp:165] Memory required for data: 2262000076
I0413 17:33:56.279564 10393 layer_factory.hpp:77] Creating layer relu2_2
I0413 17:33:56.279578 10393 net.cpp:100] Creating Layer relu2_2
I0413 17:33:56.279587 10393 net.cpp:434] relu2_2 <- conv2_2
I0413 17:33:56.279598 10393 net.cpp:395] relu2_2 -> conv2_2 (in-place)
I0413 17:33:56.279613 10393 net.cpp:150] Setting up relu2_2
I0413 17:33:56.279623 10393 net.cpp:157] Top shape: 1 128 500 750 (48000000)
I0413 17:33:56.279630 10393 net.cpp:165] Memory required for data: 2454000076
I0413 17:33:56.279636 10393 layer_factory.hpp:77] Creating layer pool2
I0413 17:33:56.279649 10393 net.cpp:100] Creating Layer pool2
I0413 17:33:56.279656 10393 net.cpp:434] pool2 <- conv2_2
I0413 17:33:56.279665 10393 net.cpp:408] pool2 -> pool2
I0413 17:33:56.279734 10393 net.cpp:150] Setting up pool2
I0413 17:33:56.279747 10393 net.cpp:157] Top shape: 1 128 250 375 (12000000)
I0413 17:33:56.279754 10393 net.cpp:165] Memory required for data: 2502000076
I0413 17:33:56.279760 10393 layer_factory.hpp:77] Creating layer conv3_1
I0413 17:33:56.279773 10393 net.cpp:100] Creating Layer conv3_1
I0413 17:33:56.279781 10393 net.cpp:434] conv3_1 <- pool2
I0413 17:33:56.279790 10393 net.cpp:408] conv3_1 -> conv3_1
I0413 17:33:56.281365 10393 net.cpp:150] Setting up conv3_1
I0413 17:33:56.281394 10393 net.cpp:157] Top shape: 1 256 250 375 (24000000)
I0413 17:33:56.281397 10393 net.cpp:165] Memory required for data: 2598000076
I0413 17:33:56.281420 10393 layer_factory.hpp:77] Creating layer relu3_1
I0413 17:33:56.281437 10393 net.cpp:100] Creating Layer relu3_1
I0413 17:33:56.281446 10393 net.cpp:434] relu3_1 <- conv3_1
I0413 17:33:56.281457 10393 net.cpp:395] relu3_1 -> conv3_1 (in-place)
I0413 17:33:56.281472 10393 net.cpp:150] Setting up relu3_1
I0413 17:33:56.281481 10393 net.cpp:157] Top shape: 1 256 250 375 (24000000)
I0413 17:33:56.281486 10393 net.cpp:165] Memory required for data: 2694000076
I0413 17:33:56.281492 10393 layer_factory.hpp:77] Creating layer conv3_2
I0413 17:33:56.281507 10393 net.cpp:100] Creating Layer conv3_2
I0413 17:33:56.281513 10393 net.cpp:434] conv3_2 <- conv3_1
I0413 17:33:56.281522 10393 net.cpp:408] conv3_2 -> conv3_2
I0413 17:33:56.282924 10393 net.cpp:150] Setting up conv3_2
I0413 17:33:56.282955 10393 net.cpp:157] Top shape: 1 256 250 375 (24000000)
I0413 17:33:56.282958 10393 net.cpp:165] Memory required for data: 2790000076
I0413 17:33:56.282968 10393 layer_factory.hpp:77] Creating layer relu3_2
I0413 17:33:56.282987 10393 net.cpp:100] Creating Layer relu3_2
I0413 17:33:56.282994 10393 net.cpp:434] relu3_2 <- conv3_2
I0413 17:33:56.283007 10393 net.cpp:395] relu3_2 -> conv3_2 (in-place)
I0413 17:33:56.283022 10393 net.cpp:150] Setting up relu3_2
I0413 17:33:56.283032 10393 net.cpp:157] Top shape: 1 256 250 375 (24000000)
I0413 17:33:56.283041 10393 net.cpp:165] Memory required for data: 2886000076
I0413 17:33:56.283046 10393 layer_factory.hpp:77] Creating layer conv3_3
I0413 17:33:56.283059 10393 net.cpp:100] Creating Layer conv3_3
I0413 17:33:56.283066 10393 net.cpp:434] conv3_3 <- conv3_2
I0413 17:33:56.283079 10393 net.cpp:408] conv3_3 -> conv3_3
I0413 17:33:56.285015 10393 net.cpp:150] Setting up conv3_3
I0413 17:33:56.285048 10393 net.cpp:157] Top shape: 1 256 250 375 (24000000)
I0413 17:33:56.285051 10393 net.cpp:165] Memory required for data: 2982000076
I0413 17:33:56.285068 10393 layer_factory.hpp:77] Creating layer relu3_3
I0413 17:33:56.285082 10393 net.cpp:100] Creating Layer relu3_3
I0413 17:33:56.285092 10393 net.cpp:434] relu3_3 <- conv3_3
I0413 17:33:56.285104 10393 net.cpp:395] relu3_3 -> conv3_3 (in-place)
I0413 17:33:56.285120 10393 net.cpp:150] Setting up relu3_3
I0413 17:33:56.285130 10393 net.cpp:157] Top shape: 1 256 250 375 (24000000)
I0413 17:33:56.285135 10393 net.cpp:165] Memory required for data: 3078000076
I0413 17:33:56.285140 10393 layer_factory.hpp:77] Creating layer pool3
I0413 17:33:56.285151 10393 net.cpp:100] Creating Layer pool3
I0413 17:33:56.285158 10393 net.cpp:434] pool3 <- conv3_3
I0413 17:33:56.285167 10393 net.cpp:408] pool3 -> pool3
I0413 17:33:56.285233 10393 net.cpp:150] Setting up pool3
I0413 17:33:56.285243 10393 net.cpp:157] Top shape: 1 256 125 188 (6016000)
I0413 17:33:56.285248 10393 net.cpp:165] Memory required for data: 3102064076
I0413 17:33:56.285264 10393 layer_factory.hpp:77] Creating layer conv4_1
I0413 17:33:56.285279 10393 net.cpp:100] Creating Layer conv4_1
I0413 17:33:56.285285 10393 net.cpp:434] conv4_1 <- pool3
I0413 17:33:56.285295 10393 net.cpp:408] conv4_1 -> conv4_1
I0413 17:33:56.290292 10393 net.cpp:150] Setting up conv4_1
I0413 17:33:56.290323 10393 net.cpp:157] Top shape: 1 512 125 188 (12032000)
I0413 17:33:56.290335 10393 net.cpp:165] Memory required for data: 3150192076
I0413 17:33:56.290346 10393 layer_factory.hpp:77] Creating layer relu4_1
I0413 17:33:56.290356 10393 net.cpp:100] Creating Layer relu4_1
I0413 17:33:56.290364 10393 net.cpp:434] relu4_1 <- conv4_1
I0413 17:33:56.290376 10393 net.cpp:395] relu4_1 -> conv4_1 (in-place)
I0413 17:33:56.290390 10393 net.cpp:150] Setting up relu4_1
I0413 17:33:56.290400 10393 net.cpp:157] Top shape: 1 512 125 188 (12032000)
I0413 17:33:56.290405 10393 net.cpp:165] Memory required for data: 3198320076
I0413 17:33:56.290410 10393 layer_factory.hpp:77] Creating layer conv4_2
I0413 17:33:56.290422 10393 net.cpp:100] Creating Layer conv4_2
I0413 17:33:56.290427 10393 net.cpp:434] conv4_2 <- conv4_1
I0413 17:33:56.290443 10393 net.cpp:408] conv4_2 -> conv4_2
I0413 17:33:56.295032 10393 net.cpp:150] Setting up conv4_2
I0413 17:33:56.295069 10393 net.cpp:157] Top shape: 1 512 125 188 (12032000)
I0413 17:33:56.295074 10393 net.cpp:165] Memory required for data: 3246448076
I0413 17:33:56.295099 10393 layer_factory.hpp:77] Creating layer relu4_2
I0413 17:33:56.295114 10393 net.cpp:100] Creating Layer relu4_2
I0413 17:33:56.295122 10393 net.cpp:434] relu4_2 <- conv4_2
I0413 17:33:56.295135 10393 net.cpp:395] relu4_2 -> conv4_2 (in-place)
I0413 17:33:56.295150 10393 net.cpp:150] Setting up relu4_2
I0413 17:33:56.295156 10393 net.cpp:157] Top shape: 1 512 125 188 (12032000)
I0413 17:33:56.295161 10393 net.cpp:165] Memory required for data: 3294576076
I0413 17:33:56.295167 10393 layer_factory.hpp:77] Creating layer conv4_3
I0413 17:33:56.295182 10393 net.cpp:100] Creating Layer conv4_3
I0413 17:33:56.295191 10393 net.cpp:434] conv4_3 <- conv4_2
I0413 17:33:56.295203 10393 net.cpp:408] conv4_3 -> conv4_3
I0413 17:33:56.300460 10393 net.cpp:150] Setting up conv4_3
I0413 17:33:56.300501 10393 net.cpp:157] Top shape: 1 512 125 188 (12032000)
I0413 17:33:56.300508 10393 net.cpp:165] Memory required for data: 3342704076
I0413 17:33:56.300523 10393 layer_factory.hpp:77] Creating layer relu4_3
I0413 17:33:56.300540 10393 net.cpp:100] Creating Layer relu4_3
I0413 17:33:56.300556 10393 net.cpp:434] relu4_3 <- conv4_3
I0413 17:33:56.300572 10393 net.cpp:395] relu4_3 -> conv4_3 (in-place)
I0413 17:33:56.300587 10393 net.cpp:150] Setting up relu4_3
I0413 17:33:56.300596 10393 net.cpp:157] Top shape: 1 512 125 188 (12032000)
I0413 17:33:56.300601 10393 net.cpp:165] Memory required for data: 3390832076
I0413 17:33:56.300607 10393 layer_factory.hpp:77] Creating layer pool4
I0413 17:33:56.300619 10393 net.cpp:100] Creating Layer pool4
I0413 17:33:56.300626 10393 net.cpp:434] pool4 <- conv4_3
I0413 17:33:56.300633 10393 net.cpp:408] pool4 -> pool4
I0413 17:33:56.300686 10393 net.cpp:150] Setting up pool4
I0413 17:33:56.300698 10393 net.cpp:157] Top shape: 1 512 63 94 (3032064)
I0413 17:33:56.300705 10393 net.cpp:165] Memory required for data: 3402960332
I0413 17:33:56.300712 10393 layer_factory.hpp:77] Creating layer conv5_1
I0413 17:33:56.300726 10393 net.cpp:100] Creating Layer conv5_1
I0413 17:33:56.300734 10393 net.cpp:434] conv5_1 <- pool4
I0413 17:33:56.300746 10393 net.cpp:408] conv5_1 -> conv5_1
I0413 17:33:56.306959 10393 net.cpp:150] Setting up conv5_1
I0413 17:33:56.306994 10393 net.cpp:157] Top shape: 1 512 63 94 (3032064)
I0413 17:33:56.307004 10393 net.cpp:165] Memory required for data: 3415088588
I0413 17:33:56.307021 10393 layer_factory.hpp:77] Creating layer relu5_1
I0413 17:33:56.307035 10393 net.cpp:100] Creating Layer relu5_1
I0413 17:33:56.307046 10393 net.cpp:434] relu5_1 <- conv5_1
I0413 17:33:56.307057 10393 net.cpp:395] relu5_1 -> conv5_1 (in-place)
I0413 17:33:56.307075 10393 net.cpp:150] Setting up relu5_1
I0413 17:33:56.307085 10393 net.cpp:157] Top shape: 1 512 63 94 (3032064)
I0413 17:33:56.307090 10393 net.cpp:165] Memory required for data: 3427216844
I0413 17:33:56.307096 10393 layer_factory.hpp:77] Creating layer conv5_2
I0413 17:33:56.307111 10393 net.cpp:100] Creating Layer conv5_2
I0413 17:33:56.307117 10393 net.cpp:434] conv5_2 <- conv5_1
I0413 17:33:56.307129 10393 net.cpp:408] conv5_2 -> conv5_2
I0413 17:33:56.311882 10393 net.cpp:150] Setting up conv5_2
I0413 17:33:56.311913 10393 net.cpp:157] Top shape: 1 512 63 94 (3032064)
I0413 17:33:56.311926 10393 net.cpp:165] Memory required for data: 3439345100
I0413 17:33:56.311938 10393 layer_factory.hpp:77] Creating layer relu5_2
I0413 17:33:56.311950 10393 net.cpp:100] Creating Layer relu5_2
I0413 17:33:56.311957 10393 net.cpp:434] relu5_2 <- conv5_2
I0413 17:33:56.311969 10393 net.cpp:395] relu5_2 -> conv5_2 (in-place)
I0413 17:33:56.311991 10393 net.cpp:150] Setting up relu5_2
I0413 17:33:56.312001 10393 net.cpp:157] Top shape: 1 512 63 94 (3032064)
I0413 17:33:56.312006 10393 net.cpp:165] Memory required for data: 3451473356
I0413 17:33:56.312012 10393 layer_factory.hpp:77] Creating layer conv5_3
I0413 17:33:56.312028 10393 net.cpp:100] Creating Layer conv5_3
I0413 17:33:56.312036 10393 net.cpp:434] conv5_3 <- conv5_2
I0413 17:33:56.312047 10393 net.cpp:408] conv5_3 -> conv5_3
I0413 17:33:56.316565 10393 net.cpp:150] Setting up conv5_3
I0413 17:33:56.316606 10393 net.cpp:157] Top shape: 1 512 63 94 (3032064)
I0413 17:33:56.316611 10393 net.cpp:165] Memory required for data: 3463601612
I0413 17:33:56.316620 10393 layer_factory.hpp:77] Creating layer relu5_3
I0413 17:33:56.316638 10393 net.cpp:100] Creating Layer relu5_3
I0413 17:33:56.316646 10393 net.cpp:434] relu5_3 <- conv5_3
I0413 17:33:56.316658 10393 net.cpp:395] relu5_3 -> conv5_3 (in-place)
I0413 17:33:56.316673 10393 net.cpp:150] Setting up relu5_3
I0413 17:33:56.316680 10393 net.cpp:157] Top shape: 1 512 63 94 (3032064)
I0413 17:33:56.316685 10393 net.cpp:165] Memory required for data: 3475729868
I0413 17:33:56.316701 10393 layer_factory.hpp:77] Creating layer rpn_big_conv1
I0413 17:33:56.316720 10393 net.cpp:100] Creating Layer rpn_big_conv1
I0413 17:33:56.316727 10393 net.cpp:434] rpn_big_conv1 <- conv5_3
I0413 17:33:56.316738 10393 net.cpp:408] rpn_big_conv1 -> rpn_big_conv1
I0413 17:33:56.343453 10393 net.cpp:150] Setting up rpn_big_conv1
I0413 17:33:56.343484 10393 net.cpp:157] Top shape: 1 512 63 94 (3032064)
I0413 17:33:56.343497 10393 net.cpp:165] Memory required for data: 3487858124
I0413 17:33:56.343508 10393 layer_factory.hpp:77] Creating layer rpn_big_conv1_relu
I0413 17:33:56.343519 10393 net.cpp:100] Creating Layer rpn_big_conv1_relu
I0413 17:33:56.343528 10393 net.cpp:434] rpn_big_conv1_relu <- rpn_big_conv1
I0413 17:33:56.343538 10393 net.cpp:395] rpn_big_conv1_relu -> rpn_big_conv1 (in-place)
I0413 17:33:56.343552 10393 net.cpp:150] Setting up rpn_big_conv1_relu
I0413 17:33:56.343562 10393 net.cpp:157] Top shape: 1 512 63 94 (3032064)
I0413 17:33:56.343567 10393 net.cpp:165] Memory required for data: 3499986380
I0413 17:33:56.343574 10393 layer_factory.hpp:77] Creating layer rpn_big_conv2
I0413 17:33:56.343591 10393 net.cpp:100] Creating Layer rpn_big_conv2
I0413 17:33:56.343598 10393 net.cpp:434] rpn_big_conv2 <- rpn_big_conv1
I0413 17:33:56.343607 10393 net.cpp:408] rpn_big_conv2 -> rpn_big_conv2
I0413 17:33:56.370158 10393 net.cpp:150] Setting up rpn_big_conv2
I0413 17:33:56.370192 10393 net.cpp:157] Top shape: 1 512 63 94 (3032064)
I0413 17:33:56.370195 10393 net.cpp:165] Memory required for data: 3512114636
I0413 17:33:56.370209 10393 layer_factory.hpp:77] Creating layer rpn_big_conv2_relu
I0413 17:33:56.370225 10393 net.cpp:100] Creating Layer rpn_big_conv2_relu
I0413 17:33:56.370234 10393 net.cpp:434] rpn_big_conv2_relu <- rpn_big_conv2
I0413 17:33:56.370245 10393 net.cpp:395] rpn_big_conv2_relu -> rpn_big_conv2 (in-place)
I0413 17:33:56.370260 10393 net.cpp:150] Setting up rpn_big_conv2_relu
I0413 17:33:56.370267 10393 net.cpp:157] Top shape: 1 512 63 94 (3032064)
I0413 17:33:56.370272 10393 net.cpp:165] Memory required for data: 3524242892
I0413 17:33:56.370280 10393 layer_factory.hpp:77] Creating layer rpn_big_conv2_drop
I0413 17:33:56.370295 10393 net.cpp:100] Creating Layer rpn_big_conv2_drop
I0413 17:33:56.370302 10393 net.cpp:434] rpn_big_conv2_drop <- rpn_big_conv2
I0413 17:33:56.370309 10393 net.cpp:395] rpn_big_conv2_drop -> rpn_big_conv2 (in-place)
I0413 17:33:56.370344 10393 net.cpp:150] Setting up rpn_big_conv2_drop
I0413 17:33:56.370354 10393 net.cpp:157] Top shape: 1 512 63 94 (3032064)
I0413 17:33:56.370359 10393 net.cpp:165] Memory required for data: 3536371148
I0413 17:33:56.370367 10393 layer_factory.hpp:77] Creating layer rpn_big_conv2_rpn_big_conv2_drop_0_split
I0413 17:33:56.370376 10393 net.cpp:100] Creating Layer rpn_big_conv2_rpn_big_conv2_drop_0_split
I0413 17:33:56.370383 10393 net.cpp:434] rpn_big_conv2_rpn_big_conv2_drop_0_split <- rpn_big_conv2
I0413 17:33:56.370393 10393 net.cpp:408] rpn_big_conv2_rpn_big_conv2_drop_0_split -> rpn_big_conv2_rpn_big_conv2_drop_0_split_0
I0413 17:33:56.370404 10393 net.cpp:408] rpn_big_conv2_rpn_big_conv2_drop_0_split -> rpn_big_conv2_rpn_big_conv2_drop_0_split_1
I0413 17:33:56.370455 10393 net.cpp:150] Setting up rpn_big_conv2_rpn_big_conv2_drop_0_split
I0413 17:33:56.370465 10393 net.cpp:157] Top shape: 1 512 63 94 (3032064)
I0413 17:33:56.370472 10393 net.cpp:157] Top shape: 1 512 63 94 (3032064)
I0413 17:33:56.370477 10393 net.cpp:165] Memory required for data: 3560627660
I0413 17:33:56.370482 10393 layer_factory.hpp:77] Creating layer rpn_big_output_cls
I0413 17:33:56.370499 10393 net.cpp:100] Creating Layer rpn_big_output_cls
I0413 17:33:56.370507 10393 net.cpp:434] rpn_big_output_cls <- rpn_big_conv2_rpn_big_conv2_drop_0_split_0
I0413 17:33:56.370519 10393 net.cpp:408] rpn_big_output_cls -> rpn_big_output_cls
I0413 17:33:56.392128 10393 net.cpp:150] Setting up rpn_big_output_cls
I0413 17:33:56.392158 10393 net.cpp:157] Top shape: 1 384 63 94 (2274048)
I0413 17:33:56.392171 10393 net.cpp:165] Memory required for data: 3569723852
I0413 17:33:56.392182 10393 layer_factory.hpp:77] Creating layer rpn_big_output_cls_relu
I0413 17:33:56.392192 10393 net.cpp:100] Creating Layer rpn_big_output_cls_relu
I0413 17:33:56.392199 10393 net.cpp:434] rpn_big_output_cls_relu <- rpn_big_output_cls
I0413 17:33:56.392211 10393 net.cpp:395] rpn_big_output_cls_relu -> rpn_big_output_cls (in-place)
I0413 17:33:56.392226 10393 net.cpp:150] Setting up rpn_big_output_cls_relu
I0413 17:33:56.392235 10393 net.cpp:157] Top shape: 1 384 63 94 (2274048)
I0413 17:33:56.392241 10393 net.cpp:165] Memory required for data: 3578820044
I0413 17:33:56.392246 10393 layer_factory.hpp:77] Creating layer rpn_big_cls_score
I0413 17:33:56.392261 10393 net.cpp:100] Creating Layer rpn_big_cls_score
I0413 17:33:56.392268 10393 net.cpp:434] rpn_big_cls_score <- rpn_big_output_cls
I0413 17:33:56.392282 10393 net.cpp:408] rpn_big_cls_score -> rpn_big_cls_score
I0413 17:33:56.394736 10393 net.cpp:150] Setting up rpn_big_cls_score
I0413 17:33:56.394752 10393 net.cpp:157] Top shape: 1 52 61 92 (291824)
I0413 17:33:56.394754 10393 net.cpp:165] Memory required for data: 3579987340
I0413 17:33:56.394776 10393 layer_factory.hpp:77] Creating layer rpn_big_cls_score_rpn_big_cls_score_0_split
I0413 17:33:56.394790 10393 net.cpp:100] Creating Layer rpn_big_cls_score_rpn_big_cls_score_0_split
I0413 17:33:56.394799 10393 net.cpp:434] rpn_big_cls_score_rpn_big_cls_score_0_split <- rpn_big_cls_score
I0413 17:33:56.394811 10393 net.cpp:408] rpn_big_cls_score_rpn_big_cls_score_0_split -> rpn_big_cls_score_rpn_big_cls_score_0_split_0
I0413 17:33:56.394824 10393 net.cpp:408] rpn_big_cls_score_rpn_big_cls_score_0_split -> rpn_big_cls_score_rpn_big_cls_score_0_split_1
I0413 17:33:56.394881 10393 net.cpp:150] Setting up rpn_big_cls_score_rpn_big_cls_score_0_split
I0413 17:33:56.394894 10393 net.cpp:157] Top shape: 1 52 61 92 (291824)
I0413 17:33:56.394902 10393 net.cpp:157] Top shape: 1 52 61 92 (291824)
I0413 17:33:56.394909 10393 net.cpp:165] Memory required for data: 3582321932
I0413 17:33:56.394917 10393 layer_factory.hpp:77] Creating layer rpn_big_cls_score_reshape
I0413 17:33:56.394927 10393 net.cpp:100] Creating Layer rpn_big_cls_score_reshape
I0413 17:33:56.394937 10393 net.cpp:434] rpn_big_cls_score_reshape <- rpn_big_cls_score_rpn_big_cls_score_0_split_0
I0413 17:33:56.394945 10393 net.cpp:408] rpn_big_cls_score_reshape -> rpn_big_cls_score_reshape
I0413 17:33:56.394980 10393 net.cpp:150] Setting up rpn_big_cls_score_reshape
I0413 17:33:56.394992 10393 net.cpp:157] Top shape: 1 2 1586 92 (291824)
I0413 17:33:56.394997 10393 net.cpp:165] Memory required for data: 3583489228
I0413 17:33:56.395005 10393 layer_factory.hpp:77] Creating layer rpn_big_cls_score_reshape_rpn_big_cls_score_reshape_0_split
I0413 17:33:56.395014 10393 net.cpp:100] Creating Layer rpn_big_cls_score_reshape_rpn_big_cls_score_reshape_0_split
I0413 17:33:56.395020 10393 net.cpp:434] rpn_big_cls_score_reshape_rpn_big_cls_score_reshape_0_split <- rpn_big_cls_score_reshape
I0413 17:33:56.395030 10393 net.cpp:408] rpn_big_cls_score_reshape_rpn_big_cls_score_reshape_0_split -> rpn_big_cls_score_reshape_rpn_big_cls_score_reshape_0_split_0
I0413 17:33:56.395042 10393 net.cpp:408] rpn_big_cls_score_reshape_rpn_big_cls_score_reshape_0_split -> rpn_big_cls_score_reshape_rpn_big_cls_score_reshape_0_split_1
I0413 17:33:56.395087 10393 net.cpp:150] Setting up rpn_big_cls_score_reshape_rpn_big_cls_score_reshape_0_split
I0413 17:33:56.395098 10393 net.cpp:157] Top shape: 1 2 1586 92 (291824)
I0413 17:33:56.395105 10393 net.cpp:157] Top shape: 1 2 1586 92 (291824)
I0413 17:33:56.395112 10393 net.cpp:165] Memory required for data: 3585823820
I0413 17:33:56.395117 10393 layer_factory.hpp:77] Creating layer rpn_big_cls_prob
I0413 17:33:56.395130 10393 net.cpp:100] Creating Layer rpn_big_cls_prob
I0413 17:33:56.395138 10393 net.cpp:434] rpn_big_cls_prob <- rpn_big_cls_score_reshape_rpn_big_cls_score_reshape_0_split_0
I0413 17:33:56.395145 10393 net.cpp:408] rpn_big_cls_prob -> rpn_big_cls_prob
I0413 17:33:56.395221 10393 net.cpp:150] Setting up rpn_big_cls_prob
I0413 17:33:56.395231 10393 net.cpp:157] Top shape: 1 2 1586 92 (291824)
I0413 17:33:56.395236 10393 net.cpp:165] Memory required for data: 3586991116
I0413 17:33:56.395241 10393 layer_factory.hpp:77] Creating layer rpn_big_cls_prob_reshape
I0413 17:33:56.395252 10393 net.cpp:100] Creating Layer rpn_big_cls_prob_reshape
I0413 17:33:56.395259 10393 net.cpp:434] rpn_big_cls_prob_reshape <- rpn_big_cls_prob
I0413 17:33:56.395267 10393 net.cpp:408] rpn_big_cls_prob_reshape -> rpn_big_cls_prob_reshape
I0413 17:33:56.395300 10393 net.cpp:150] Setting up rpn_big_cls_prob_reshape
I0413 17:33:56.395311 10393 net.cpp:157] Top shape: 1 52 61 92 (291824)
I0413 17:33:56.395316 10393 net.cpp:165] Memory required for data: 3588158412
I0413 17:33:56.395321 10393 layer_factory.hpp:77] Creating layer rpn_big_cls_prob_reshape_rpn_big_cls_prob_reshape_0_split
I0413 17:33:56.395328 10393 net.cpp:100] Creating Layer rpn_big_cls_prob_reshape_rpn_big_cls_prob_reshape_0_split
I0413 17:33:56.395335 10393 net.cpp:434] rpn_big_cls_prob_reshape_rpn_big_cls_prob_reshape_0_split <- rpn_big_cls_prob_reshape
I0413 17:33:56.395344 10393 net.cpp:408] rpn_big_cls_prob_reshape_rpn_big_cls_prob_reshape_0_split -> rpn_big_cls_prob_reshape_rpn_big_cls_prob_reshape_0_split_0
I0413 17:33:56.395354 10393 net.cpp:408] rpn_big_cls_prob_reshape_rpn_big_cls_prob_reshape_0_split -> rpn_big_cls_prob_reshape_rpn_big_cls_prob_reshape_0_split_1
I0413 17:33:56.395396 10393 net.cpp:150] Setting up rpn_big_cls_prob_reshape_rpn_big_cls_prob_reshape_0_split
I0413 17:33:56.395407 10393 net.cpp:157] Top shape: 1 52 61 92 (291824)
I0413 17:33:56.395416 10393 net.cpp:157] Top shape: 1 52 61 92 (291824)
I0413 17:33:56.395421 10393 net.cpp:165] Memory required for data: 3590493004
I0413 17:33:56.395426 10393 layer_factory.hpp:77] Creating layer rpn_big_anchor_target
I0413 17:33:56.397209 10393 net.cpp:100] Creating Layer rpn_big_anchor_target
I0413 17:33:56.397230 10393 net.cpp:434] rpn_big_anchor_target <- rpn_big_cls_score_rpn_big_cls_score_0_split_1
I0413 17:33:56.397239 10393 net.cpp:434] rpn_big_anchor_target <- input_gt_boxes
I0413 17:33:56.397245 10393 net.cpp:434] rpn_big_anchor_target <- input_ignored_boxes
I0413 17:33:56.397253 10393 net.cpp:434] rpn_big_anchor_target <- input_im_info_input_1_split_0
I0413 17:33:56.397260 10393 net.cpp:434] rpn_big_anchor_target <- input_data_input_0_split_1
I0413 17:33:56.397269 10393 net.cpp:434] rpn_big_anchor_target <- rpn_big_cls_prob_reshape_rpn_big_cls_prob_reshape_0_split_0
I0413 17:33:56.397279 10393 net.cpp:408] rpn_big_anchor_target -> rpn_big_anchor_target_labels
I0413 17:33:56.397289 10393 net.cpp:408] rpn_big_anchor_target -> rpn_big_anchor_target_bbox_targets
I0413 17:33:56.397297 10393 net.cpp:408] rpn_big_anchor_target -> rpn_big_anchor_target_inside_weights
I0413 17:33:56.397305 10393 net.cpp:408] rpn_big_anchor_target -> rpn_big_anchor_target_outside_weights
I0413 17:33:56.402447 10393 net.cpp:150] Setting up rpn_big_anchor_target
I0413 17:33:56.402482 10393 net.cpp:157] Top shape: 1 1 1586 92 (145912)
I0413 17:33:56.402490 10393 net.cpp:157] Top shape: 1 104 61 92 (583648)
I0413 17:33:56.402498 10393 net.cpp:157] Top shape: 1 104 61 92 (583648)
I0413 17:33:56.402503 10393 net.cpp:157] Top shape: 1 104 61 92 (583648)
I0413 17:33:56.402508 10393 net.cpp:165] Memory required for data: 3598080428
I0413 17:33:56.402515 10393 layer_factory.hpp:77] Creating layer rpn_big_loss_cls
I0413 17:33:56.402529 10393 net.cpp:100] Creating Layer rpn_big_loss_cls
I0413 17:33:56.402537 10393 net.cpp:434] rpn_big_loss_cls <- rpn_big_cls_score_reshape_rpn_big_cls_score_reshape_0_split_1
I0413 17:33:56.402546 10393 net.cpp:434] rpn_big_loss_cls <- rpn_big_anchor_target_labels
I0413 17:33:56.402555 10393 net.cpp:408] rpn_big_loss_cls -> rpn_big_loss_cls
I0413 17:33:56.402572 10393 layer_factory.hpp:77] Creating layer rpn_big_loss_cls
I0413 17:33:56.403471 10393 net.cpp:150] Setting up rpn_big_loss_cls
I0413 17:33:56.403503 10393 net.cpp:157] Top shape: (1)
I0413 17:33:56.403507 10393 net.cpp:160]     with loss weight 1
I0413 17:33:56.403522 10393 net.cpp:165] Memory required for data: 3598080432
I0413 17:33:56.403530 10393 layer_factory.hpp:77] Creating layer rpn_big_output_box
I0413 17:33:56.403550 10393 net.cpp:100] Creating Layer rpn_big_output_box
I0413 17:33:56.403558 10393 net.cpp:434] rpn_big_output_box <- rpn_big_conv2_rpn_big_conv2_drop_0_split_1
I0413 17:33:56.403575 10393 net.cpp:408] rpn_big_output_box -> rpn_big_output_box
I0413 17:33:56.424204 10393 net.cpp:150] Setting up rpn_big_output_box
I0413 17:33:56.424234 10393 net.cpp:157] Top shape: 1 384 63 94 (2274048)
I0413 17:33:56.424237 10393 net.cpp:165] Memory required for data: 3607176624
I0413 17:33:56.424249 10393 layer_factory.hpp:77] Creating layer rpn_big_output_box_relu
I0413 17:33:56.424268 10393 net.cpp:100] Creating Layer rpn_big_output_box_relu
I0413 17:33:56.424278 10393 net.cpp:434] rpn_big_output_box_relu <- rpn_big_output_box
I0413 17:33:56.424288 10393 net.cpp:395] rpn_big_output_box_relu -> rpn_big_output_box (in-place)
I0413 17:33:56.424301 10393 net.cpp:150] Setting up rpn_big_output_box_relu
I0413 17:33:56.424309 10393 net.cpp:157] Top shape: 1 384 63 94 (2274048)
I0413 17:33:56.424314 10393 net.cpp:165] Memory required for data: 3616272816
I0413 17:33:56.424319 10393 layer_factory.hpp:77] Creating layer rpn_big_bbox_pred
I0413 17:33:56.424336 10393 net.cpp:100] Creating Layer rpn_big_bbox_pred
I0413 17:33:56.424348 10393 net.cpp:434] rpn_big_bbox_pred <- rpn_big_output_box
I0413 17:33:56.424361 10393 net.cpp:408] rpn_big_bbox_pred -> rpn_big_bbox_pred
I0413 17:33:56.430708 10393 net.cpp:150] Setting up rpn_big_bbox_pred
I0413 17:33:56.430732 10393 net.cpp:157] Top shape: 1 104 61 92 (583648)
I0413 17:33:56.430734 10393 net.cpp:165] Memory required for data: 3618607408
I0413 17:33:56.430752 10393 layer_factory.hpp:77] Creating layer rpn_big_bbox_pred_rpn_big_bbox_pred_0_split
I0413 17:33:56.430760 10393 net.cpp:100] Creating Layer rpn_big_bbox_pred_rpn_big_bbox_pred_0_split
I0413 17:33:56.430765 10393 net.cpp:434] rpn_big_bbox_pred_rpn_big_bbox_pred_0_split <- rpn_big_bbox_pred
I0413 17:33:56.430776 10393 net.cpp:408] rpn_big_bbox_pred_rpn_big_bbox_pred_0_split -> rpn_big_bbox_pred_rpn_big_bbox_pred_0_split_0
I0413 17:33:56.430790 10393 net.cpp:408] rpn_big_bbox_pred_rpn_big_bbox_pred_0_split -> rpn_big_bbox_pred_rpn_big_bbox_pred_0_split_1
I0413 17:33:56.430847 10393 net.cpp:150] Setting up rpn_big_bbox_pred_rpn_big_bbox_pred_0_split
I0413 17:33:56.430858 10393 net.cpp:157] Top shape: 1 104 61 92 (583648)
I0413 17:33:56.430873 10393 net.cpp:157] Top shape: 1 104 61 92 (583648)
I0413 17:33:56.430878 10393 net.cpp:165] Memory required for data: 3623276592
I0413 17:33:56.430883 10393 layer_factory.hpp:77] Creating layer rpn_big_loss_bbox
I0413 17:33:56.431344 10393 net.cpp:100] Creating Layer rpn_big_loss_bbox
I0413 17:33:56.431354 10393 net.cpp:434] rpn_big_loss_bbox <- rpn_big_bbox_pred_rpn_big_bbox_pred_0_split_0
I0413 17:33:56.431360 10393 net.cpp:434] rpn_big_loss_bbox <- rpn_big_anchor_target_bbox_targets
I0413 17:33:56.431373 10393 net.cpp:434] rpn_big_loss_bbox <- rpn_big_anchor_target_inside_weights
I0413 17:33:56.431378 10393 net.cpp:434] rpn_big_loss_bbox <- rpn_big_anchor_target_outside_weights
I0413 17:33:56.431385 10393 net.cpp:408] rpn_big_loss_bbox -> rpn_big_loss_bbox
I0413 17:33:56.433673 10393 net.cpp:150] Setting up rpn_big_loss_bbox
I0413 17:33:56.433702 10393 net.cpp:157] Top shape: 1 (1)
I0413 17:33:56.433706 10393 net.cpp:160]     with loss weight 1
I0413 17:33:56.433719 10393 net.cpp:165] Memory required for data: 3623276596
I0413 17:33:56.433728 10393 layer_factory.hpp:77] Creating layer proposal
I0413 17:33:56.434159 10393 net.cpp:100] Creating Layer proposal
I0413 17:33:56.434170 10393 net.cpp:434] proposal <- rpn_big_cls_prob_reshape_rpn_big_cls_prob_reshape_0_split_1
I0413 17:33:56.434182 10393 net.cpp:434] proposal <- rpn_big_bbox_pred_rpn_big_bbox_pred_0_split_1
I0413 17:33:56.434192 10393 net.cpp:434] proposal <- input_im_info_input_1_split_1
I0413 17:33:56.434203 10393 net.cpp:408] proposal -> rpn_rois
I0413 17:33:56.438552 10393 net.cpp:150] Setting up proposal
I0413 17:33:56.438575 10393 net.cpp:157] Top shape: 1 5 (5)
I0413 17:33:56.438577 10393 net.cpp:165] Memory required for data: 3623276616
I0413 17:33:56.438582 10393 net.cpp:228] proposal does not need backward computation.
I0413 17:33:56.438591 10393 net.cpp:226] rpn_big_loss_bbox needs backward computation.
I0413 17:33:56.438599 10393 net.cpp:226] rpn_big_bbox_pred_rpn_big_bbox_pred_0_split needs backward computation.
I0413 17:33:56.438606 10393 net.cpp:226] rpn_big_bbox_pred needs backward computation.
…
