…
I0413 19:28:09.790081 15889 solver.cpp:48] Initializing solver from parameters: 
base_lr: 0.001
display: 20
lr_policy: "multistep"
gamma: 0.1
momentum: 0.9
weight_decay: 0.0005
snapshot: 0
snapshot_prefix: "faces_example"
net_param {
  name: "GeneratedModel_13_04_2017_19_28"
  layer {
    name: "input"
    type: "Python"
    top: "input_data"
    top: "input_im_info"
    top: "input_gt_boxes"
    top: "input_ignored_boxes"
    python_param {
      module: "layers.roi_data_layer"
      layer: "RoIDataLayer"
      param_str: "{\"num_classes\": 2}"
    }
  }
  layer {
    name: "conv1_1"
    type: "Convolution"
    bottom: "input_data"
    top: "conv1_1"
    param {
      lr_mult: 0
      decay_mult: 0
    }
    param {
      lr_mult: 0
      decay_mult: 0
    }
    convolution_param {
      num_output: 64
      pad: 1
      kernel_size: 3
    }
  }
  layer {
    name: "relu1_1"
    type: "ReLU"
    bottom: "conv1_1"
    top: "conv1_1"
  }
  layer {
    name: "conv1_2"
    type: "Convolution"
    bottom: "conv1_1"
    top: "conv1_2"
    param {
      lr_mult: 0
      decay_mult: 0
    }
    param {
      lr_mult: 0
      decay_mult: 0
    }
    convolution_param {
      num_output: 64
      pad: 1
      kernel_size: 3
    }
  }
  layer {
    name: "relu1_2"
    type: "ReLU"
    bottom: "conv1_2"
    top: "conv1_2"
  }
  layer {
    name: "pool1"
    type: "Pooling"
    bottom: "conv1_2"
    top: "pool1"
    pooling_param {
      pool: MAX
      kernel_size: 2
      stride: 2
    }
  }
  layer {
    name: "conv2_1"
    type: "Convolution"
    bottom: "pool1"
    top: "conv2_1"
    param {
      lr_mult: 0
      decay_mult: 0
    }
    param {
      lr_mult: 0
      decay_mult: 0
    }
    convolution_param {
      num_output: 128
      pad: 1
      kernel_size: 3
    }
  }
  layer {
    name: "relu2_1"
    type: "ReLU"
    bottom: "conv2_1"
    top: "conv2_1"
  }
  layer {
    name: "conv2_2"
    type: "Convolution"
    bottom: "conv2_1"
    top: "conv2_2"
    param {
      lr_mult: 0
      decay_mult: 0
    }
    param {
      lr_mult: 0
      decay_mult: 0
    }
    convolution_param {
      num_output: 128
      pad: 1
      kernel_size: 3
    }
  }
  layer {
    name: "relu2_2"
    type: "ReLU"
    bottom: "conv2_2"
    top: "conv2_2"
  }
  layer {
    name: "pool2"
    type: "Pooling"
    bottom: "conv2_2"
    top: "pool2"
    pooling_param {
      pool: MAX
      kernel_size: 2
      stride: 2
    }
  }
  layer {
    name: "conv3_1"
    type: "Convolution"
    bottom: "pool2"
    top: "conv3_1"
    param {
      lr_mult: 1
    }
    param {
      lr_mult: 2
    }
    convolution_param {
      num_output: 256
      pad: 1
      kernel_size: 3
    }
  }
  layer {
    name: "relu3_1"
    type: "ReLU"
    bottom: "conv3_1"
    top: "conv3_1"
  }
  layer {
    name: "conv3_2"
    type: "Convolution"
    bottom: "conv3_1"
    top: "conv3_2"
    param {
      lr_mult: 1
    }
    param {
      lr_mult: 2
    }
    convolution_param {
      num_output: 256
      pad: 1
      kernel_size: 3
    }
  }
  layer {
    name: "relu3_2"
    type: "ReLU"
    bottom: "conv3_2"
    top: "conv3_2"
  }
  layer {
    name: "conv3_3"
    type: "Convolution"
    bottom: "conv3_2"
    top: "conv3_3"
    param {
      lr_mult: 1
    }
    param {
      lr_mult: 2
    }
    convolution_param {
      num_output: 256
      pad: 1
      kernel_size: 3
    }
  }
  layer {
    name: "relu3_3"
    type: "ReLU"
    bottom: "conv3_3"
    top: "conv3_3"
  }
  layer {
    name: "pool3"
    type: "Pooling"
    bottom: "conv3_3"
    top: "pool3"
    pooling_param {
      pool: MAX
      kernel_size: 2
      stride: 2
    }
  }
  layer {
    name: "conv4_1"
    type: "Convolution"
    bottom: "pool3"
    top: "conv4_1"
    param {
      lr_mult: 1
    }
    param {
      lr_mult: 2
    }
    convolution_param {
      num_output: 512
      pad: 1
      kernel_size: 3
    }
  }
  layer {
    name: "relu4_1"
    type: "ReLU"
    bottom: "conv4_1"
    top: "conv4_1"
  }
  layer {
    name: "conv4_2"
    type: "Convolution"
    bottom: "conv4_1"
    top: "conv4_2"
    param {
      lr_mult: 1
    }
    param {
      lr_mult: 2
    }
    convolution_param {
      num_output: 512
      pad: 1
      kernel_size: 3
    }
  }
  layer {
    name: "relu4_2"
    type: "ReLU"
    bottom: "conv4_2"
    top: "conv4_2"
  }
  layer {
    name: "conv4_3"
    type: "Convolution"
    bottom: "conv4_2"
    top: "conv4_3"
    param {
      lr_mult: 1
    }
    param {
      lr_mult: 2
    }
    convolution_param {
      num_output: 512
      pad: 1
      kernel_size: 3
    }
  }
  layer {
    name: "relu4_3"
    type: "ReLU"
    bottom: "conv4_3"
    top: "conv4_3"
  }
  layer {
    name: "pool4"
    type: "Pooling"
    bottom: "conv4_3"
    top: "pool4"
    pooling_param {
      pool: MAX
      kernel_size: 2
      stride: 2
    }
  }
  layer {
    name: "conv5_1"
    type: "Convolution"
    bottom: "pool4"
    top: "conv5_1"
    param {
      lr_mult: 1
    }
    param {
      lr_mult: 2
    }
    convolution_param {
      num_output: 512
      pad: 1
      kernel_size: 3
    }
  }
  layer {
    name: "relu5_1"
    type: "ReLU"
    bottom: "conv5_1"
    top: "conv5_1"
  }
  layer {
    name: "conv5_2"
    type: "Convolution"
    bottom: "conv5_1"
    top: "conv5_2"
    param {
      lr_mult: 1
    }
    param {
      lr_mult: 2
    }
    convolution_param {
      num_output: 512
      pad: 1
      kernel_size: 3
    }
  }
  layer {
    name: "relu5_2"
    type: "ReLU"
    bottom: "conv5_2"
    top: "conv5_2"
  }
  layer {
    name: "conv5_3"
    type: "Convolution"
    bottom: "conv5_2"
    top: "conv5_3"
    param {
      lr_mult: 1
    }
    param {
      lr_mult: 2
    }
    convolution_param {
      num_output: 512
      pad: 1
      kernel_size: 3
    }
  }
  layer {
    name: "relu5_3"
    type: "ReLU"
    bottom: "conv5_3"
    top: "conv5_3"
  }
  layer {
    name: "rpn_big_conv1"
    type: "Convolution"
    bottom: "conv5_3"
    top: "rpn_big_conv1"
    param {
      lr_mult: 1
    }
    param {
      lr_mult: 2
    }
    convolution_param {
      num_output: 512
      pad: 1
      kernel_size: 3
      stride: 1
      weight_filler {
        type: "gaussian"
        mean: 0
        std: 0.01
      }
      bias_filler {
        type: "constant"
      }
    }
  }
  layer {
    name: "rpn_big_conv1_relu"
    type: "ReLU"
    bottom: "rpn_big_conv1"
    top: "rpn_big_conv1"
    relu_param {
      negative_slope: 0
    }
  }
  layer {
    name: "rpn_big_conv2"
    type: "Convolution"
    bottom: "rpn_big_conv1"
    top: "rpn_big_conv2"
    param {
      lr_mult: 1
    }
    param {
      lr_mult: 2
    }
    convolution_param {
      num_output: 512
      pad: 1
      kernel_size: 3
      stride: 1
      weight_filler {
        type: "gaussian"
        mean: 0
        std: 0.01
      }
      bias_filler {
        type: "constant"
      }
    }
  }
  layer {
    name: "rpn_big_conv2_relu"
    type: "ReLU"
    bottom: "rpn_big_conv2"
    top: "rpn_big_conv2"
    relu_param {
      negative_slope: 0
    }
  }
  layer {
    name: "rpn_big_conv2_drop"
    type: "Dropout"
    bottom: "rpn_big_conv2"
    top: "rpn_big_conv2"
    dropout_param {
      dropout_ratio: 0.3
    }
  }
  layer {
    name: "rpn_big_output_cls"
    type: "Convolution"
    bottom: "rpn_big_conv2"
    top: "rpn_big_output_cls"
    param {
      lr_mult: 1
    }
    param {
      lr_mult: 2
    }
    convolution_param {
      num_output: 384
      pad: 1
      kernel_size: 3
      stride: 1
      weight_filler {
        type: "gaussian"
        mean: 0
        std: 0.01
      }
      bias_filler {
        type: "constant"
      }
    }
  }
  layer {
    name: "rpn_big_output_cls_relu"
    type: "ReLU"
    bottom: "rpn_big_output_cls"
    top: "rpn_big_output_cls"
    relu_param {
      negative_slope: 0
    }
  }
  layer {
    name: "rpn_big_cls_score"
    type: "Convolution"
    bottom: "rpn_big_output_cls"
    top: "rpn_big_cls_score"
    param {
      lr_mult: 1
    }
    param {
      lr_mult: 2
    }
    convolution_param {
      num_output: 52
      pad: 0
      kernel_size: 3
      stride: 1
      weight_filler {
        type: "gaussian"
        mean: 0
        std: 0.01
      }
      bias_filler {
        type: "constant"
      }
    }
  }
  layer {
    name: "rpn_big_cls_score_reshape"
    type: "Reshape"
    bottom: "rpn_big_cls_score"
    top: "rpn_big_cls_score_reshape"
    reshape_param {
      shape {
        dim: 0
        dim: 2
        dim: -1
        dim: 0
      }
    }
  }
  layer {
    name: "rpn_big_cls_prob"
    type: "Softmax"
    bottom: "rpn_big_cls_score_reshape"
    top: "rpn_big_cls_prob"
  }
  layer {
    name: "rpn_big_cls_prob_reshape"
    type: "Reshape"
    bottom: "rpn_big_cls_prob"
    top: "rpn_big_cls_prob_reshape"
    reshape_param {
      shape {
        dim: 0
        dim: 52
        dim: -1
        dim: 0
      }
    }
  }
  layer {
    name: "rpn_big_anchor_target"
    type: "Python"
    bottom: "rpn_big_cls_score"
    bottom: "input_gt_boxes"
    bottom: "input_ignored_boxes"
    bottom: "input_im_info"
    bottom: "input_data"
    bottom: "rpn_big_cls_prob_reshape"
    top: "rpn_big_anchor_target_labels"
    top: "rpn_big_anchor_target_bbox_targets"
    top: "rpn_big_anchor_target_inside_weights"
    top: "rpn_big_anchor_target_outside_weights"
    python_param {
      module: "rpn.anchor_target_layer"
      layer: "AnchorTargetLayer"
      param_str: "{\"batchsize\": 256, \"negative_overlap\": 0.4, \"anchor_shift_num_xy\": [[2, 2], [2, 2], [2, 2], [2, 2], [1, 1], [1, 1], [1, 1], [1, 1], [1, 1], [1, 1], [1, 1], [1, 1], [1, 1], [1, 1]], \"num_classes\": 1, \"feat_stride\": 16, \"anchor_scales\": [2.5, 3.025, 3.66025, 4.4289024999999995, 5.358972025, 6.484356150249999, 7.846070941802498, 9.493745839581022, 11.487432465893036, 13.899793283730574, 16.818749873313998, 20.350687346709933, 24.62433168951902, 29.795441344318014], \"tn_fraction\": 0.2, \"positive_overlap\": 0.6, \"fg_fraction\": 0.5, \"square_targets\": true, \"anchor_ratios\": [1.0], \"name\": \"rpn_big\"}"
    }
  }
  layer {
    name: "rpn_big_loss_cls"
    type: "SoftmaxWithLoss"
    bottom: "rpn_big_cls_score_reshape"
    bottom: "rpn_big_anchor_target_labels"
    top: "rpn_big_loss_cls"
    loss_weight: 1
    propagate_down: true
    propagate_down: false
    loss_param {
      ignore_label: -1
      normalization: VALID
    }
  }
  layer {
    name: "rpn_big_output_box"
    type: "Convolution"
    bottom: "rpn_big_conv2"
    top: "rpn_big_output_box"
    param {
      lr_mult: 1
    }
    param {
      lr_mult: 2
    }
    convolution_param {
      num_output: 384
      pad: 1
      kernel_size: 3
      stride: 1
      weight_filler {
        type: "gaussian"
        mean: 0
        std: 0.01
      }
      bias_filler {
        type: "constant"
      }
    }
  }
  layer {
    name: "rpn_big_output_box_relu"
    type: "ReLU"
    bottom: "rpn_big_output_box"
    top: "rpn_big_output_box"
    relu_param {
      negative_slope: 0
    }
  }
  layer {
    name: "rpn_big_bbox_pred"
    type: "Convolution"
    bottom: "rpn_big_output_box"
    top: "rpn_big_bbox_pred"
    param {
      lr_mult: 1
    }
    param {
      lr_mult: 2
    }
    convolution_param {
      num_output: 104
      pad: 0
      kernel_size: 3
      stride: 1
      weight_filler {
        type: "gaussian"
        mean: 0
        std: 0.01
      }
      bias_filler {
        type: "constant"
      }
    }
  }
  layer {
    name: "rpn_big_loss_bbox"
    type: "Python"
    bottom: "rpn_big_bbox_pred"
    bottom: "rpn_big_anchor_target_bbox_targets"
    bottom: "rpn_big_anchor_target_inside_weights"
    bottom: "rpn_big_anchor_target_outside_weights"
    top: "rpn_big_loss_bbox"
    loss_weight: 1
    python_param {
      module: "layers.smooth_l1_loss"
      layer: "SmoothL1LossLayer"
      param_str: "{\"sigma\": 3}"
    }
  }
  layer {
    name: "proposal"
    type: "Python"
    bottom: "rpn_big_cls_prob_reshape"
    bottom: "rpn_big_bbox_pred"
    bottom: "input_im_info"
    top: "rpn_rois"
    python_param {
      module: "rpn.proposal_layer"
      layer: "ProposalLayer"
      param_str: "{\"anchor_shift_num_xy\": [[2, 2], [2, 2], [2, 2], [2, 2], [1, 1], [1, 1], [1, 1], [1, 1], [1, 1], [1, 1], [1, 1], [1, 1], [1, 1], [1, 1]], \"feat_stride\": 16, \"num_classes\": 1, \"anchor_scales\": [2.5, 3.025, 3.66025, 4.4289024999999995, 5.358972025, 6.484356150249999, 7.846070941802498, 9.493745839581022, 11.487432465893036, 13.899793283730574, 16.818749873313998, 20.350687346709933, 24.62433168951902, 29.795441344318014], \"square_targets\": true, \"name\": \"rpn_big\", \"batchsize\": 256, \"anchor_ratios\": [1.0]}"
    }
  }
  layer {
    name: "roi-data"
    type: "Python"
    bottom: "rpn_rois"
    bottom: "input_gt_boxes"
    top: "rois"
    top: "labels"
    top: "bbox_targets"
    top: "bbox_inside_weights"
    top: "bbox_outside_weights"
    top: "pid_label"
    python_param {
      module: "rpn.proposal_target_layer"
      layer: "ProposalTargetLayer"
      param_str: "{\"num_classes\": 2, \"bg_aux_label\": 5532}"
    }
  }
  layer {
    name: "roi-pool"
    type: "ROIPooling"
    bottom: "conv5_3"
    bottom: "rois"
    top: "roi-pool"
    roi_pooling_param {
      pooled_h: 7
      pooled_w: 7
      spatial_scale: 0.0625
    }
  }
  layer {
    name: "fc6"
    type: "InnerProduct"
    bottom: "roi-pool"
    top: "fc6"
    param {
      lr_mult: 1
    }
    param {
      lr_mult: 2
    }
    inner_product_param {
      num_output: 4096
    }
  }
  layer {
    name: "relu6"
    type: "ReLU"
    bottom: "fc6"
    top: "fc6"
  }
  layer {
    name: "drop6"
    type: "Dropout"
    bottom: "fc6"
    top: "fc6"
    dropout_param {
      dropout_ratio: 0.5
    }
  }
  layer {
    name: "fc7"
    type: "InnerProduct"
    bottom: "fc6"
    top: "fc7"
    param {
      lr_mult: 1
    }
    param {
      lr_mult: 2
    }
    inner_product_param {
      num_output: 4096
    }
  }
  layer {
    name: "relu7"
    type: "ReLU"
    bottom: "fc7"
    top: "fc7"
  }
  layer {
    name: "drop7"
    type: "Dropout"
    bottom: "fc7"
    top: "fc7"
    dropout_param {
      dropout_ratio: 0.5
    }
  }
  layer {
    name: "bbox_pred"
    type: "InnerProduct"
    bottom: "fc7"
    top: "bbox_pred"
    param {
      lr_mult: 1
    }
    param {
      lr_mult: 2
    }
    inner_product_param {
      num_output: 8
      weight_filler {
        type: "gaussian"
        std: 0.001
      }
      bias_filler {
        type: "constant"
        value: 0
      }
    }
  }
  layer {
    name: "loss_bbox"
    type: "SmoothL1Loss"
    bottom: "bbox_pred"
    bottom: "bbox_targets"
    bottom: "bbox_inside_weights"
    bottom: "bbox_outside_weights"
    top: "loss_bbox"
    loss_weight: 1
  }
  layer {
    name: "feat"
    type: "InnerProduct"
    bottom: "fc7"
    top: "feat"
    param {
      lr_mult: 1
      decay_mult: 1
    }
    param {
      lr_mult: 2
      decay_mult: 0
    }
    inner_product_param {
      num_output: 256
      weight_filler {
        type: "gaussian"
        std: 0.01
      }
      bias_filler {
        type: "constant"
        value: 0
      }
    }
  }
  layer {
    name: "relu8"
    type: "ReLU"
    bottom: "feat"
    top: "feat"
  }
  layer {
    name: "drop8"
    type: "Dropout"
    bottom: "feat"
    top: "feat"
    dropout_param {
      dropout_ratio: 0.5
    }
  }
  layer {
    name: "pid_score"
    type: "InnerProduct"
    bottom: "feat"
    top: "pid_score"
    param {
      lr_mult: 1
      decay_mult: 1
    }
    param {
      lr_mult: 2
      decay_mult: 0
    }
    inner_product_param {
      num_output: 5533
      weight_filler {
        type: "gaussian"
        std: 0.001
      }
      bias_filler {
        type: "constant"
        value: 0
      }
    }
  }
  layer {
    name: "pid_accuracy"
    type: "Accuracy"
    bottom: "pid_score"
    bottom: "pid_label"
    top: "pid_accuracy"
    accuracy_param {
      ignore_label: -1
    }
  }
}
average_loss: 100
stepvalue: 70000
stepvalue: 120000
iter_size: 2
I0413 19:28:09.790184 15889 solver.cpp:86] Creating training net specified in net_param.
I0413 19:28:09.790645 15889 net.cpp:58] Initializing net from parameters: 
name: "GeneratedModel_13_04_2017_19_28"
state {
  phase: TRAIN
}
layer {
  name: "input"
  type: "Python"
  top: "input_data"
  top: "input_im_info"
  top: "input_gt_boxes"
  top: "input_ignored_boxes"
  python_param {
    module: "layers.roi_data_layer"
    layer: "RoIDataLayer"
    param_str: "{\"num_classes\": 2}"
  }
}
layer {
  name: "conv1_1"
  type: "Convolution"
  bottom: "input_data"
  top: "conv1_1"
  param {
    lr_mult: 0
    decay_mult: 0
  }
  param {
    lr_mult: 0
    decay_mult: 0
  }
  convolution_param {
    num_output: 64
    pad: 1
    kernel_size: 3
  }
}
layer {
  name: "relu1_1"
  type: "ReLU"
  bottom: "conv1_1"
  top: "conv1_1"
}
layer {
  name: "conv1_2"
  type: "Convolution"
  bottom: "conv1_1"
  top: "conv1_2"
  param {
    lr_mult: 0
    decay_mult: 0
  }
  param {
    lr_mult: 0
    decay_mult: 0
  }
  convolution_param {
    num_output: 64
    pad: 1
    kernel_size: 3
  }
}
layer {
  name: "relu1_2"
  type: "ReLU"
  bottom: "conv1_2"
  top: "conv1_2"
}
layer {
  name: "pool1"
  type: "Pooling"
  bottom: "conv1_2"
  top: "pool1"
  pooling_param {
    pool: MAX
    kernel_size: 2
    stride: 2
  }
}
layer {
  name: "conv2_1"
  type: "Convolution"
  bottom: "pool1"
  top: "conv2_1"
  param {
    lr_mult: 0
    decay_mult: 0
  }
  param {
    lr_mult: 0
    decay_mult: 0
  }
  convolution_param {
    num_output: 128
    pad: 1
    kernel_size: 3
  }
}
layer {
  name: "relu2_1"
  type: "ReLU"
  bottom: "conv2_1"
  top: "conv2_1"
}
layer {
  name: "conv2_2"
  type: "Convolution"
  bottom: "conv2_1"
  top: "conv2_2"
  param {
    lr_mult: 0
    decay_mult: 0
  }
  param {
    lr_mult: 0
    decay_mult: 0
  }
  convolution_param {
    num_output: 128
    pad: 1
    kernel_size: 3
  }
}
layer {
  name: "relu2_2"
  type: "ReLU"
  bottom: "conv2_2"
  top: "conv2_2"
}
layer {
  name: "pool2"
  type: "Pooling"
  bottom: "conv2_2"
  top: "pool2"
  pooling_param {
    pool: MAX
    kernel_size: 2
    stride: 2
  }
}
layer {
  name: "conv3_1"
  type: "Convolution"
  bottom: "pool2"
  top: "conv3_1"
  param {
    lr_mult: 1
  }
  param {
    lr_mult: 2
  }
  convolution_param {
    num_output: 256
    pad: 1
    kernel_size: 3
  }
}
layer {
  name: "relu3_1"
  type: "ReLU"
  bottom: "conv3_1"
  top: "conv3_1"
}
layer {
  name: "conv3_2"
  type: "Convolution"
  bottom: "conv3_1"
  top: "conv3_2"
  param {
    lr_mult: 1
  }
  param {
    lr_mult: 2
  }
  convolution_param {
    num_output: 256
    pad: 1
    kernel_size: 3
  }
}
layer {
  name: "relu3_2"
  type: "ReLU"
  bottom: "conv3_2"
  top: "conv3_2"
}
layer {
  name: "conv3_3"
  type: "Convolution"
  bottom: "conv3_2"
  top: "conv3_3"
  param {
    lr_mult: 1
  }
  param {
    lr_mult: 2
  }
  convolution_param {
    num_output: 256
    pad: 1
    kernel_size: 3
  }
}
layer {
  name: "relu3_3"
  type: "ReLU"
  bottom: "conv3_3"
  top: "conv3_3"
}
layer {
  name: "pool3"
  type: "Pooling"
  bottom: "conv3_3"
  top: "pool3"
  pooling_param {
    pool: MAX
    kernel_size: 2
    stride: 2
  }
}
layer {
  name: "conv4_1"
  type: "Convolution"
  bottom: "pool3"
  top: "conv4_1"
  param {
    lr_mult: 1
  }
  param {
    lr_mult: 2
  }
  convolution_param {
    num_output: 512
    pad: 1
    kernel_size: 3
  }
}
layer {
  name: "relu4_1"
  type: "ReLU"
  bottom: "conv4_1"
  top: "conv4_1"
}
layer {
  name: "conv4_2"
  type: "Convolution"
  bottom: "conv4_1"
  top: "conv4_2"
  param {
    lr_mult: 1
  }
  param {
    lr_mult: 2
  }
  convolution_param {
    num_output: 512
    pad: 1
    kernel_size: 3
  }
}
layer {
  name: "relu4_2"
  type: "ReLU"
  bottom: "conv4_2"
  top: "conv4_2"
}
layer {
  name: "conv4_3"
  type: "Convolution"
  bottom: "conv4_2"
  top: "conv4_3"
  param {
    lr_mult: 1
  }
  param {
    lr_mult: 2
  }
  convolution_param {
    num_output: 512
    pad: 1
    kernel_size: 3
  }
}
layer {
  name: "relu4_3"
  type: "ReLU"
  bottom: "conv4_3"
  top: "conv4_3"
}
layer {
  name: "pool4"
  type: "Pooling"
  bottom: "conv4_3"
  top: "pool4"
  pooling_param {
    pool: MAX
    kernel_size: 2
    stride: 2
  }
}
layer {
  name: "conv5_1"
  type: "Convolution"
  bottom: "pool4"
  top: "conv5_1"
  param {
    lr_mult: 1
  }
  param {
    lr_mult: 2
  }
  convolution_param {
    num_output: 512
    pad: 1
    kernel_size: 3
  }
}
layer {
  name: "relu5_1"
  type: "ReLU"
  bottom: "conv5_1"
  top: "conv5_1"
}
layer {
  name: "conv5_2"
  type: "Convolution"
  bottom: "conv5_1"
  top: "conv5_2"
  param {
    lr_mult: 1
  }
  param {
    lr_mult: 2
  }
  convolution_param {
    num_output: 512
    pad: 1
    kernel_size: 3
  }
}
layer {
  name: "relu5_2"
  type: "ReLU"
  bottom: "conv5_2"
  top: "conv5_2"
}
layer {
  name: "conv5_3"
  type: "Convolution"
  bottom: "conv5_2"
  top: "conv5_3"
  param {
    lr_mult: 1
  }
  param {
    lr_mult: 2
  }
  convolution_param {
    num_output: 512
    pad: 1
    kernel_size: 3
  }
}
layer {
  name: "relu5_3"
  type: "ReLU"
  bottom: "conv5_3"
  top: "conv5_3"
}
layer {
  name: "rpn_big_conv1"
  type: "Convolution"
  bottom: "conv5_3"
  top: "rpn_big_conv1"
  param {
    lr_mult: 1
  }
  param {
    lr_mult: 2
  }
  convolution_param {
    num_output: 512
    pad: 1
    kernel_size: 3
    stride: 1
    weight_filler {
      type: "gaussian"
      mean: 0
      std: 0.01
    }
    bias_filler {
      type: "constant"
    }
  }
}
layer {
  name: "rpn_big_conv1_relu"
  type: "ReLU"
  bottom: "rpn_big_conv1"
  top: "rpn_big_conv1"
  relu_param {
    negative_slope: 0
  }
}
layer {
  name: "rpn_big_conv2"
  type: "Convolution"
  bottom: "rpn_big_conv1"
  top: "rpn_big_conv2"
  param {
    lr_mult: 1
  }
  param {
    lr_mult: 2
  }
  convolution_param {
    num_output: 512
    pad: 1
    kernel_size: 3
    stride: 1
    weight_filler {
      type: "gaussian"
      mean: 0
      std: 0.01
    }
    bias_filler {
      type: "constant"
    }
  }
}
layer {
  name: "rpn_big_conv2_relu"
  type: "ReLU"
  bottom: "rpn_big_conv2"
  top: "rpn_big_conv2"
  relu_param {
    negative_slope: 0
  }
}
layer {
  name: "rpn_big_conv2_drop"
  type: "Dropout"
  bottom: "rpn_big_conv2"
  top: "rpn_big_conv2"
  dropout_param {
    dropout_ratio: 0.3
  }
}
layer {
  name: "rpn_big_output_cls"
  type: "Convolution"
  bottom: "rpn_big_conv2"
  top: "rpn_big_output_cls"
  param {
    lr_mult: 1
  }
  param {
    lr_mult: 2
  }
  convolution_param {
    num_output: 384
    pad: 1
    kernel_size: 3
    stride: 1
    weight_filler {
      type: "gaussian"
      mean: 0
      std: 0.01
    }
    bias_filler {
      type: "constant"
    }
  }
}
layer {
  name: "rpn_big_output_cls_relu"
  type: "ReLU"
  bottom: "rpn_big_output_cls"
  top: "rpn_big_output_cls"
  relu_param {
    negative_slope: 0
  }
}
layer {
  name: "rpn_big_cls_score"
  type: "Convolution"
  bottom: "rpn_big_output_cls"
  top: "rpn_big_cls_score"
  param {
    lr_mult: 1
  }
  param {
    lr_mult: 2
  }
  convolution_param {
    num_output: 52
    pad: 0
    kernel_size: 3
    stride: 1
    weight_filler {
      type: "gaussian"
      mean: 0
      std: 0.01
    }
    bias_filler {
      type: "constant"
    }
  }
}
layer {
  name: "rpn_big_cls_score_reshape"
  type: "Reshape"
  bottom: "rpn_big_cls_score"
  top: "rpn_big_cls_score_reshape"
  reshape_param {
    shape {
      dim: 0
      dim: 2
      dim: -1
      dim: 0
    }
  }
}
layer {
  name: "rpn_big_cls_prob"
  type: "Softmax"
  bottom: "rpn_big_cls_score_reshape"
  top: "rpn_big_cls_prob"
}
layer {
  name: "rpn_big_cls_prob_reshape"
  type: "Reshape"
  bottom: "rpn_big_cls_prob"
  top: "rpn_big_cls_prob_reshape"
  reshape_param {
    shape {
      dim: 0
      dim: 52
      dim: -1
      dim: 0
    }
  }
}
layer {
  name: "rpn_big_anchor_target"
  type: "Python"
  bottom: "rpn_big_cls_score"
  bottom: "input_gt_boxes"
  bottom: "input_ignored_boxes"
  bottom: "input_im_info"
  bottom: "input_data"
  bottom: "rpn_big_cls_prob_reshape"
  top: "rpn_big_anchor_target_labels"
  top: "rpn_big_anchor_target_bbox_targets"
  top: "rpn_big_anchor_target_inside_weights"
  top: "rpn_big_anchor_target_outside_weights"
  python_param {
    module: "rpn.anchor_target_layer"
    layer: "AnchorTargetLayer"
    param_str: "{\"batchsize\": 256, \"negative_overlap\": 0.4, \"anchor_shift_num_xy\": [[2, 2], [2, 2], [2, 2], [2, 2], [1, 1], [1, 1], [1, 1], [1, 1], [1, 1], [1, 1], [1, 1], [1, 1], [1, 1], [1, 1]], \"num_classes\": 1, \"feat_stride\": 16, \"anchor_scales\": [2.5, 3.025, 3.66025, 4.4289024999999995, 5.358972025, 6.484356150249999, 7.846070941802498, 9.493745839581022, 11.487432465893036, 13.899793283730574, 16.818749873313998, 20.350687346709933, 24.62433168951902, 29.795441344318014], \"tn_fraction\": 0.2, \"positive_overlap\": 0.6, \"fg_fraction\": 0.5, \"square_targets\": true, \"anchor_ratios\": [1.0], \"name\": \"rpn_big\"}"
  }
}
layer {
  name: "rpn_big_loss_cls"
  type: "SoftmaxWithLoss"
  bottom: "rpn_big_cls_score_reshape"
  bottom: "rpn_big_anchor_target_labels"
  top: "rpn_big_loss_cls"
  loss_weight: 1
  propagate_down: true
  propagate_down: false
  loss_param {
    ignore_label: -1
    normalization: VALID
  }
}
layer {
  name: "rpn_big_output_box"
  type: "Convolution"
  bottom: "rpn_big_conv2"
  top: "rpn_big_output_box"
  param {
    lr_mult: 1
  }
  param {
    lr_mult: 2
  }
  convolution_param {
    num_output: 384
    pad: 1
    kernel_size: 3
    stride: 1
    weight_filler {
      type: "gaussian"
      mean: 0
      std: 0.01
    }
    bias_filler {
      type: "constant"
    }
  }
}
layer {
  name: "rpn_big_output_box_relu"
  type: "ReLU"
  bottom: "rpn_big_output_box"
  top: "rpn_big_output_box"
  relu_param {
    negative_slope: 0
  }
}
layer {
  name: "rpn_big_bbox_pred"
  type: "Convolution"
  bottom: "rpn_big_output_box"
  top: "rpn_big_bbox_pred"
  param {
    lr_mult: 1
  }
  param {
    lr_mult: 2
  }
  convolution_param {
    num_output: 104
    pad: 0
    kernel_size: 3
    stride: 1
    weight_filler {
      type: "gaussian"
      mean: 0
      std: 0.01
    }
    bias_filler {
      type: "constant"
    }
  }
}
layer {
  name: "rpn_big_loss_bbox"
  type: "Python"
  bottom: "rpn_big_bbox_pred"
  bottom: "rpn_big_anchor_target_bbox_targets"
  bottom: "rpn_big_anchor_target_inside_weights"
  bottom: "rpn_big_anchor_target_outside_weights"
  top: "rpn_big_loss_bbox"
  loss_weight: 1
  python_param {
    module: "layers.smooth_l1_loss"
    layer: "SmoothL1LossLayer"
    param_str: "{\"sigma\": 3}"
  }
}
layer {
  name: "proposal"
  type: "Python"
  bottom: "rpn_big_cls_prob_reshape"
  bottom: "rpn_big_bbox_pred"
  bottom: "input_im_info"
  top: "rpn_rois"
  python_param {
    module: "rpn.proposal_layer"
    layer: "ProposalLayer"
    param_str: "{\"anchor_shift_num_xy\": [[2, 2], [2, 2], [2, 2], [2, 2], [1, 1], [1, 1], [1, 1], [1, 1], [1, 1], [1, 1], [1, 1], [1, 1], [1, 1], [1, 1]], \"feat_stride\": 16, \"num_classes\": 1, \"anchor_scales\": [2.5, 3.025, 3.66025, 4.4289024999999995, 5.358972025, 6.484356150249999, 7.846070941802498, 9.493745839581022, 11.487432465893036, 13.899793283730574, 16.818749873313998, 20.350687346709933, 24.62433168951902, 29.795441344318014], \"square_targets\": true, \"name\": \"rpn_big\", \"batchsize\": 256, \"anchor_ratios\": [1.0]}"
  }
}
layer {
  name: "roi-data"
  type: "Python"
  bottom: "rpn_rois"
  bottom: "input_gt_boxes"
  top: "rois"
  top: "labels"
  top: "bbox_targets"
  top: "bbox_inside_weights"
  top: "bbox_outside_weights"
  top: "pid_label"
  python_param {
    module: "rpn.proposal_target_layer"
    layer: "ProposalTargetLayer"
    param_str: "{\"num_classes\": 2, \"bg_aux_label\": 5532}"
  }
}
layer {
  name: "roi-pool"
  type: "ROIPooling"
  bottom: "conv5_3"
  bottom: "rois"
  top: "roi-pool"
  roi_pooling_param {
    pooled_h: 7
    pooled_w: 7
    spatial_scale: 0.0625
  }
}
layer {
  name: "fc6"
  type: "InnerProduct"
  bottom: "roi-pool"
  top: "fc6"
  param {
    lr_mult: 1
  }
  param {
    lr_mult: 2
  }
  inner_product_param {
    num_output: 4096
  }
}
layer {
  name: "relu6"
  type: "ReLU"
  bottom: "fc6"
  top: "fc6"
}
layer {
  name: "drop6"
  type: "Dropout"
  bottom: "fc6"
  top: "fc6"
  dropout_param {
    dropout_ratio: 0.5
  }
}
layer {
  name: "fc7"
  type: "InnerProduct"
  bottom: "fc6"
  top: "fc7"
  param {
    lr_mult: 1
  }
  param {
    lr_mult: 2
  }
  inner_product_param {
    num_output: 4096
  }
}
layer {
  name: "relu7"
  type: "ReLU"
  bottom: "fc7"
  top: "fc7"
}
layer {
  name: "drop7"
  type: "Dropout"
  bottom: "fc7"
  top: "fc7"
  dropout_param {
    dropout_ratio: 0.5
  }
}
layer {
  name: "bbox_pred"
  type: "InnerProduct"
  bottom: "fc7"
  top: "bbox_pred"
  param {
    lr_mult: 1
  }
  param {
    lr_mult: 2
  }
  inner_product_param {
    num_output: 8
    weight_filler {
      type: "gaussian"
      std: 0.001
    }
    bias_filler {
      type: "constant"
      value: 0
    }
  }
}
layer {
  name: "loss_bbox"
  type: "SmoothL1Loss"
  bottom: "bbox_pred"
  bottom: "bbox_targets"
  bottom: "bbox_inside_weights"
  bottom: "bbox_outside_weights"
  top: "loss_bbox"
  loss_weight: 1
}
layer {
  name: "feat"
  type: "InnerProduct"
  bottom: "fc7"
  top: "feat"
  param {
    lr_mult: 1
    decay_mult: 1
  }
  param {
    lr_mult: 2
    decay_mult: 0
  }
  inner_product_param {
    num_output: 256
    weight_filler {
      type: "gaussian"
      std: 0.01
    }
    bias_filler {
      type: "constant"
      value: 0
    }
  }
}
layer {
  name: "relu8"
  type: "ReLU"
  bottom: "feat"
  top: "feat"
}
layer {
  name: "drop8"
  type: "Dropout"
  bottom: "feat"
  top: "feat"
  dropout_param {
    dropout_ratio: 0.5
  }
}
layer {
  name: "pid_score"
  type: "InnerProduct"
  bottom: "feat"
  top: "pid_score"
  param {
    lr_mult: 1
    decay_mult: 1
  }
  param {
    lr_mult: 2
    decay_mult: 0
  }
  inner_product_param {
    num_output: 5533
    weight_filler {
      type: "gaussian"
      std: 0.001
    }
    bias_filler {
      type: "constant"
      value: 0
    }
  }
}
layer {
  name: "pid_accuracy"
  type: "Accuracy"
  bottom: "pid_score"
  bottom: "pid_label"
  top: "pid_accuracy"
  accuracy_param {
    ignore_label: -1
  }
}
I0413 19:28:09.790894 15889 layer_factory.hpp:77] Creating layer input
I0413 19:28:09.792119 15889 net.cpp:100] Creating Layer input
I0413 19:28:09.792131 15889 net.cpp:408] input -> input_data
I0413 19:28:09.792143 15889 net.cpp:408] input -> input_im_info
I0413 19:28:09.792150 15889 net.cpp:408] input -> input_gt_boxes
I0413 19:28:09.792157 15889 net.cpp:408] input -> input_ignored_boxes
RoiDataLayer: name_to_top: {'im_info': 1, 'gt_boxes': 2, 'ignored_boxes': 3, 'data': 0}
I0413 19:28:10.105923 15889 net.cpp:150] Setting up input
I0413 19:28:10.105949 15889 net.cpp:157] Top shape: 1 3 1000 1500 (4500000)
I0413 19:28:10.105957 15889 net.cpp:157] Top shape: 1 3 (3)
I0413 19:28:10.105963 15889 net.cpp:157] Top shape: 1 5 (5)
I0413 19:28:10.105970 15889 net.cpp:157] Top shape: 1 5 (5)
I0413 19:28:10.105975 15889 net.cpp:165] Memory required for data: 18000052
I0413 19:28:10.105983 15889 layer_factory.hpp:77] Creating layer input_data_input_0_split
I0413 19:28:10.106011 15889 net.cpp:100] Creating Layer input_data_input_0_split
I0413 19:28:10.106019 15889 net.cpp:434] input_data_input_0_split <- input_data
I0413 19:28:10.106027 15889 net.cpp:408] input_data_input_0_split -> input_data_input_0_split_0
I0413 19:28:10.106039 15889 net.cpp:408] input_data_input_0_split -> input_data_input_0_split_1
I0413 19:28:10.106071 15889 net.cpp:150] Setting up input_data_input_0_split
I0413 19:28:10.106079 15889 net.cpp:157] Top shape: 1 3 1000 1500 (4500000)
I0413 19:28:10.106083 15889 net.cpp:157] Top shape: 1 3 1000 1500 (4500000)
I0413 19:28:10.106086 15889 net.cpp:165] Memory required for data: 54000052
I0413 19:28:10.106089 15889 layer_factory.hpp:77] Creating layer input_im_info_input_1_split
I0413 19:28:10.106096 15889 net.cpp:100] Creating Layer input_im_info_input_1_split
I0413 19:28:10.106098 15889 net.cpp:434] input_im_info_input_1_split <- input_im_info
I0413 19:28:10.106104 15889 net.cpp:408] input_im_info_input_1_split -> input_im_info_input_1_split_0
I0413 19:28:10.106111 15889 net.cpp:408] input_im_info_input_1_split -> input_im_info_input_1_split_1
I0413 19:28:10.106137 15889 net.cpp:150] Setting up input_im_info_input_1_split
I0413 19:28:10.106142 15889 net.cpp:157] Top shape: 1 3 (3)
I0413 19:28:10.106147 15889 net.cpp:157] Top shape: 1 3 (3)
I0413 19:28:10.106149 15889 net.cpp:165] Memory required for data: 54000076
I0413 19:28:10.106153 15889 layer_factory.hpp:77] Creating layer input_gt_boxes_input_2_split
I0413 19:28:10.106159 15889 net.cpp:100] Creating Layer input_gt_boxes_input_2_split
I0413 19:28:10.106163 15889 net.cpp:434] input_gt_boxes_input_2_split <- input_gt_boxes
I0413 19:28:10.106169 15889 net.cpp:408] input_gt_boxes_input_2_split -> input_gt_boxes_input_2_split_0
I0413 19:28:10.106176 15889 net.cpp:408] input_gt_boxes_input_2_split -> input_gt_boxes_input_2_split_1
I0413 19:28:10.106209 15889 net.cpp:150] Setting up input_gt_boxes_input_2_split
I0413 19:28:10.106215 15889 net.cpp:157] Top shape: 1 5 (5)
I0413 19:28:10.106220 15889 net.cpp:157] Top shape: 1 5 (5)
I0413 19:28:10.106221 15889 net.cpp:165] Memory required for data: 54000116
I0413 19:28:10.106225 15889 layer_factory.hpp:77] Creating layer conv1_1
I0413 19:28:10.106236 15889 net.cpp:100] Creating Layer conv1_1
I0413 19:28:10.106240 15889 net.cpp:434] conv1_1 <- input_data_input_0_split_0
I0413 19:28:10.106245 15889 net.cpp:408] conv1_1 -> conv1_1
I0413 19:28:10.109187 15889 net.cpp:150] Setting up conv1_1
I0413 19:28:10.109222 15889 net.cpp:157] Top shape: 1 64 1000 1500 (96000000)
I0413 19:28:10.109236 15889 net.cpp:165] Memory required for data: 438000116
I0413 19:28:10.109254 15889 layer_factory.hpp:77] Creating layer relu1_1
I0413 19:28:10.109266 15889 net.cpp:100] Creating Layer relu1_1
I0413 19:28:10.109272 15889 net.cpp:434] relu1_1 <- conv1_1
I0413 19:28:10.109277 15889 net.cpp:395] relu1_1 -> conv1_1 (in-place)
I0413 19:28:10.109288 15889 net.cpp:150] Setting up relu1_1
I0413 19:28:10.109293 15889 net.cpp:157] Top shape: 1 64 1000 1500 (96000000)
I0413 19:28:10.109295 15889 net.cpp:165] Memory required for data: 822000116
I0413 19:28:10.109299 15889 layer_factory.hpp:77] Creating layer conv1_2
I0413 19:28:10.109308 15889 net.cpp:100] Creating Layer conv1_2
I0413 19:28:10.109323 15889 net.cpp:434] conv1_2 <- conv1_1
I0413 19:28:10.109328 15889 net.cpp:408] conv1_2 -> conv1_2
I0413 19:28:10.112524 15889 net.cpp:150] Setting up conv1_2
I0413 19:28:10.112557 15889 net.cpp:157] Top shape: 1 64 1000 1500 (96000000)
I0413 19:28:10.112561 15889 net.cpp:165] Memory required for data: 1206000116
I0413 19:28:10.112577 15889 layer_factory.hpp:77] Creating layer relu1_2
I0413 19:28:10.112588 15889 net.cpp:100] Creating Layer relu1_2
I0413 19:28:10.112592 15889 net.cpp:434] relu1_2 <- conv1_2
I0413 19:28:10.112601 15889 net.cpp:395] relu1_2 -> conv1_2 (in-place)
I0413 19:28:10.112612 15889 net.cpp:150] Setting up relu1_2
I0413 19:28:10.112617 15889 net.cpp:157] Top shape: 1 64 1000 1500 (96000000)
I0413 19:28:10.112618 15889 net.cpp:165] Memory required for data: 1590000116
I0413 19:28:10.112622 15889 layer_factory.hpp:77] Creating layer pool1
I0413 19:28:10.112632 15889 net.cpp:100] Creating Layer pool1
I0413 19:28:10.112634 15889 net.cpp:434] pool1 <- conv1_2
I0413 19:28:10.112639 15889 net.cpp:408] pool1 -> pool1
I0413 19:28:10.112709 15889 net.cpp:150] Setting up pool1
I0413 19:28:10.112716 15889 net.cpp:157] Top shape: 1 64 500 750 (24000000)
I0413 19:28:10.112720 15889 net.cpp:165] Memory required for data: 1686000116
I0413 19:28:10.112722 15889 layer_factory.hpp:77] Creating layer conv2_1
I0413 19:28:10.112735 15889 net.cpp:100] Creating Layer conv2_1
I0413 19:28:10.112741 15889 net.cpp:434] conv2_1 <- pool1
I0413 19:28:10.112747 15889 net.cpp:408] conv2_1 -> conv2_1
I0413 19:28:10.113971 15889 net.cpp:150] Setting up conv2_1
I0413 19:28:10.113997 15889 net.cpp:157] Top shape: 1 128 500 750 (48000000)
I0413 19:28:10.114001 15889 net.cpp:165] Memory required for data: 1878000116
I0413 19:28:10.114013 15889 layer_factory.hpp:77] Creating layer relu2_1
I0413 19:28:10.114020 15889 net.cpp:100] Creating Layer relu2_1
I0413 19:28:10.114024 15889 net.cpp:434] relu2_1 <- conv2_1
I0413 19:28:10.114030 15889 net.cpp:395] relu2_1 -> conv2_1 (in-place)
I0413 19:28:10.114038 15889 net.cpp:150] Setting up relu2_1
I0413 19:28:10.114042 15889 net.cpp:157] Top shape: 1 128 500 750 (48000000)
I0413 19:28:10.114045 15889 net.cpp:165] Memory required for data: 2070000116
I0413 19:28:10.114048 15889 layer_factory.hpp:77] Creating layer conv2_2
I0413 19:28:10.114060 15889 net.cpp:100] Creating Layer conv2_2
I0413 19:28:10.114063 15889 net.cpp:434] conv2_2 <- conv2_1
I0413 19:28:10.114070 15889 net.cpp:408] conv2_2 -> conv2_2
I0413 19:28:10.115046 15889 net.cpp:150] Setting up conv2_2
I0413 19:28:10.115072 15889 net.cpp:157] Top shape: 1 128 500 750 (48000000)
I0413 19:28:10.115074 15889 net.cpp:165] Memory required for data: 2262000116
I0413 19:28:10.115085 15889 layer_factory.hpp:77] Creating layer relu2_2
I0413 19:28:10.115095 15889 net.cpp:100] Creating Layer relu2_2
I0413 19:28:10.115101 15889 net.cpp:434] relu2_2 <- conv2_2
I0413 19:28:10.115108 15889 net.cpp:395] relu2_2 -> conv2_2 (in-place)
I0413 19:28:10.115118 15889 net.cpp:150] Setting up relu2_2
I0413 19:28:10.115123 15889 net.cpp:157] Top shape: 1 128 500 750 (48000000)
I0413 19:28:10.115125 15889 net.cpp:165] Memory required for data: 2454000116
I0413 19:28:10.115128 15889 layer_factory.hpp:77] Creating layer pool2
I0413 19:28:10.115134 15889 net.cpp:100] Creating Layer pool2
I0413 19:28:10.115139 15889 net.cpp:434] pool2 <- conv2_2
I0413 19:28:10.115144 15889 net.cpp:408] pool2 -> pool2
I0413 19:28:10.115191 15889 net.cpp:150] Setting up pool2
I0413 19:28:10.115200 15889 net.cpp:157] Top shape: 1 128 250 375 (12000000)
I0413 19:28:10.115203 15889 net.cpp:165] Memory required for data: 2502000116
I0413 19:28:10.115206 15889 layer_factory.hpp:77] Creating layer conv3_1
I0413 19:28:10.115216 15889 net.cpp:100] Creating Layer conv3_1
I0413 19:28:10.115219 15889 net.cpp:434] conv3_1 <- pool2
I0413 19:28:10.115224 15889 net.cpp:408] conv3_1 -> conv3_1
I0413 19:28:10.116845 15889 net.cpp:150] Setting up conv3_1
I0413 19:28:10.116883 15889 net.cpp:157] Top shape: 1 256 250 375 (24000000)
I0413 19:28:10.116889 15889 net.cpp:165] Memory required for data: 2598000116
I0413 19:28:10.116924 15889 layer_factory.hpp:77] Creating layer relu3_1
I0413 19:28:10.116938 15889 net.cpp:100] Creating Layer relu3_1
I0413 19:28:10.116946 15889 net.cpp:434] relu3_1 <- conv3_1
I0413 19:28:10.116964 15889 net.cpp:395] relu3_1 -> conv3_1 (in-place)
I0413 19:28:10.116981 15889 net.cpp:150] Setting up relu3_1
I0413 19:28:10.116991 15889 net.cpp:157] Top shape: 1 256 250 375 (24000000)
I0413 19:28:10.116996 15889 net.cpp:165] Memory required for data: 2694000116
I0413 19:28:10.117002 15889 layer_factory.hpp:77] Creating layer conv3_2
I0413 19:28:10.117022 15889 net.cpp:100] Creating Layer conv3_2
I0413 19:28:10.117027 15889 net.cpp:434] conv3_2 <- conv3_1
I0413 19:28:10.117038 15889 net.cpp:408] conv3_2 -> conv3_2
I0413 19:28:10.118454 15889 net.cpp:150] Setting up conv3_2
I0413 19:28:10.118490 15889 net.cpp:157] Top shape: 1 256 250 375 (24000000)
I0413 19:28:10.118496 15889 net.cpp:165] Memory required for data: 2790000116
I0413 19:28:10.118511 15889 layer_factory.hpp:77] Creating layer relu3_2
I0413 19:28:10.118523 15889 net.cpp:100] Creating Layer relu3_2
I0413 19:28:10.118531 15889 net.cpp:434] relu3_2 <- conv3_2
I0413 19:28:10.118543 15889 net.cpp:395] relu3_2 -> conv3_2 (in-place)
I0413 19:28:10.118558 15889 net.cpp:150] Setting up relu3_2
I0413 19:28:10.118568 15889 net.cpp:157] Top shape: 1 256 250 375 (24000000)
I0413 19:28:10.118573 15889 net.cpp:165] Memory required for data: 2886000116
I0413 19:28:10.118578 15889 layer_factory.hpp:77] Creating layer conv3_3
I0413 19:28:10.118594 15889 net.cpp:100] Creating Layer conv3_3
I0413 19:28:10.118600 15889 net.cpp:434] conv3_3 <- conv3_2
I0413 19:28:10.118610 15889 net.cpp:408] conv3_3 -> conv3_3
I0413 19:28:10.120501 15889 net.cpp:150] Setting up conv3_3
I0413 19:28:10.120532 15889 net.cpp:157] Top shape: 1 256 250 375 (24000000)
I0413 19:28:10.120537 15889 net.cpp:165] Memory required for data: 2982000116
I0413 19:28:10.120560 15889 layer_factory.hpp:77] Creating layer relu3_3
I0413 19:28:10.120573 15889 net.cpp:100] Creating Layer relu3_3
I0413 19:28:10.120581 15889 net.cpp:434] relu3_3 <- conv3_3
I0413 19:28:10.120595 15889 net.cpp:395] relu3_3 -> conv3_3 (in-place)
I0413 19:28:10.120609 15889 net.cpp:150] Setting up relu3_3
I0413 19:28:10.120625 15889 net.cpp:157] Top shape: 1 256 250 375 (24000000)
I0413 19:28:10.120630 15889 net.cpp:165] Memory required for data: 3078000116
I0413 19:28:10.120635 15889 layer_factory.hpp:77] Creating layer pool3
I0413 19:28:10.120645 15889 net.cpp:100] Creating Layer pool3
I0413 19:28:10.120649 15889 net.cpp:434] pool3 <- conv3_3
I0413 19:28:10.120656 15889 net.cpp:408] pool3 -> pool3
I0413 19:28:10.120712 15889 net.cpp:150] Setting up pool3
I0413 19:28:10.120720 15889 net.cpp:157] Top shape: 1 256 125 188 (6016000)
I0413 19:28:10.120724 15889 net.cpp:165] Memory required for data: 3102064116
I0413 19:28:10.120729 15889 layer_factory.hpp:77] Creating layer conv4_1
I0413 19:28:10.120741 15889 net.cpp:100] Creating Layer conv4_1
I0413 19:28:10.120746 15889 net.cpp:434] conv4_1 <- pool3
I0413 19:28:10.120754 15889 net.cpp:408] conv4_1 -> conv4_1
I0413 19:28:10.123749 15889 net.cpp:150] Setting up conv4_1
I0413 19:28:10.123785 15889 net.cpp:157] Top shape: 1 512 125 188 (12032000)
I0413 19:28:10.123791 15889 net.cpp:165] Memory required for data: 3150192116
I0413 19:28:10.123813 15889 layer_factory.hpp:77] Creating layer relu4_1
I0413 19:28:10.123827 15889 net.cpp:100] Creating Layer relu4_1
I0413 19:28:10.123844 15889 net.cpp:434] relu4_1 <- conv4_1
I0413 19:28:10.123857 15889 net.cpp:395] relu4_1 -> conv4_1 (in-place)
I0413 19:28:10.123875 15889 net.cpp:150] Setting up relu4_1
I0413 19:28:10.123884 15889 net.cpp:157] Top shape: 1 512 125 188 (12032000)
I0413 19:28:10.123891 15889 net.cpp:165] Memory required for data: 3198320116
I0413 19:28:10.123898 15889 layer_factory.hpp:77] Creating layer conv4_2
I0413 19:28:10.123914 15889 net.cpp:100] Creating Layer conv4_2
I0413 19:28:10.123919 15889 net.cpp:434] conv4_2 <- conv4_1
I0413 19:28:10.123931 15889 net.cpp:408] conv4_2 -> conv4_2
I0413 19:28:10.130350 15889 net.cpp:150] Setting up conv4_2
I0413 19:28:10.130388 15889 net.cpp:157] Top shape: 1 512 125 188 (12032000)
I0413 19:28:10.130393 15889 net.cpp:165] Memory required for data: 3246448116
I0413 19:28:10.130426 15889 layer_factory.hpp:77] Creating layer relu4_2
I0413 19:28:10.130445 15889 net.cpp:100] Creating Layer relu4_2
I0413 19:28:10.130453 15889 net.cpp:434] relu4_2 <- conv4_2
I0413 19:28:10.130467 15889 net.cpp:395] relu4_2 -> conv4_2 (in-place)
I0413 19:28:10.130481 15889 net.cpp:150] Setting up relu4_2
I0413 19:28:10.130491 15889 net.cpp:157] Top shape: 1 512 125 188 (12032000)
I0413 19:28:10.130497 15889 net.cpp:165] Memory required for data: 3294576116
I0413 19:28:10.130504 15889 layer_factory.hpp:77] Creating layer conv4_3
I0413 19:28:10.130520 15889 net.cpp:100] Creating Layer conv4_3
I0413 19:28:10.130527 15889 net.cpp:434] conv4_3 <- conv4_2
I0413 19:28:10.130537 15889 net.cpp:408] conv4_3 -> conv4_3
I0413 19:28:10.134815 15889 net.cpp:150] Setting up conv4_3
I0413 19:28:10.134853 15889 net.cpp:157] Top shape: 1 512 125 188 (12032000)
I0413 19:28:10.134858 15889 net.cpp:165] Memory required for data: 3342704116
I0413 19:28:10.134874 15889 layer_factory.hpp:77] Creating layer relu4_3
I0413 19:28:10.134888 15889 net.cpp:100] Creating Layer relu4_3
I0413 19:28:10.134898 15889 net.cpp:434] relu4_3 <- conv4_3
I0413 19:28:10.134915 15889 net.cpp:395] relu4_3 -> conv4_3 (in-place)
I0413 19:28:10.134932 15889 net.cpp:150] Setting up relu4_3
I0413 19:28:10.134940 15889 net.cpp:157] Top shape: 1 512 125 188 (12032000)
I0413 19:28:10.134948 15889 net.cpp:165] Memory required for data: 3390832116
I0413 19:28:10.134954 15889 layer_factory.hpp:77] Creating layer pool4
I0413 19:28:10.134964 15889 net.cpp:100] Creating Layer pool4
I0413 19:28:10.134970 15889 net.cpp:434] pool4 <- conv4_3
I0413 19:28:10.134980 15889 net.cpp:408] pool4 -> pool4
I0413 19:28:10.135023 15889 net.cpp:150] Setting up pool4
I0413 19:28:10.135033 15889 net.cpp:157] Top shape: 1 512 63 94 (3032064)
I0413 19:28:10.135040 15889 net.cpp:165] Memory required for data: 3402960372
I0413 19:28:10.135046 15889 layer_factory.hpp:77] Creating layer conv5_1
I0413 19:28:10.135062 15889 net.cpp:100] Creating Layer conv5_1
I0413 19:28:10.135069 15889 net.cpp:434] conv5_1 <- pool4
I0413 19:28:10.135082 15889 net.cpp:408] conv5_1 -> conv5_1
I0413 19:28:10.140808 15889 net.cpp:150] Setting up conv5_1
I0413 19:28:10.140844 15889 net.cpp:157] Top shape: 1 512 63 94 (3032064)
I0413 19:28:10.140851 15889 net.cpp:165] Memory required for data: 3415088628
I0413 19:28:10.140866 15889 layer_factory.hpp:77] Creating layer relu5_1
I0413 19:28:10.140880 15889 net.cpp:100] Creating Layer relu5_1
I0413 19:28:10.140890 15889 net.cpp:434] relu5_1 <- conv5_1
I0413 19:28:10.140919 15889 net.cpp:395] relu5_1 -> conv5_1 (in-place)
I0413 19:28:10.140936 15889 net.cpp:150] Setting up relu5_1
I0413 19:28:10.140947 15889 net.cpp:157] Top shape: 1 512 63 94 (3032064)
I0413 19:28:10.140955 15889 net.cpp:165] Memory required for data: 3427216884
I0413 19:28:10.140962 15889 layer_factory.hpp:77] Creating layer conv5_2
I0413 19:28:10.140980 15889 net.cpp:100] Creating Layer conv5_2
I0413 19:28:10.140988 15889 net.cpp:434] conv5_2 <- conv5_1
I0413 19:28:10.141001 15889 net.cpp:408] conv5_2 -> conv5_2
I0413 19:28:10.145246 15889 net.cpp:150] Setting up conv5_2
I0413 19:28:10.145287 15889 net.cpp:157] Top shape: 1 512 63 94 (3032064)
I0413 19:28:10.145292 15889 net.cpp:165] Memory required for data: 3439345140
I0413 19:28:10.145308 15889 layer_factory.hpp:77] Creating layer relu5_2
I0413 19:28:10.145321 15889 net.cpp:100] Creating Layer relu5_2
I0413 19:28:10.145331 15889 net.cpp:434] relu5_2 <- conv5_2
I0413 19:28:10.145344 15889 net.cpp:395] relu5_2 -> conv5_2 (in-place)
I0413 19:28:10.145360 15889 net.cpp:150] Setting up relu5_2
I0413 19:28:10.145368 15889 net.cpp:157] Top shape: 1 512 63 94 (3032064)
I0413 19:28:10.145376 15889 net.cpp:165] Memory required for data: 3451473396
I0413 19:28:10.145382 15889 layer_factory.hpp:77] Creating layer conv5_3
I0413 19:28:10.145404 15889 net.cpp:100] Creating Layer conv5_3
I0413 19:28:10.145411 15889 net.cpp:434] conv5_3 <- conv5_2
I0413 19:28:10.145421 15889 net.cpp:408] conv5_3 -> conv5_3
I0413 19:28:10.149734 15889 net.cpp:150] Setting up conv5_3
I0413 19:28:10.149770 15889 net.cpp:157] Top shape: 1 512 63 94 (3032064)
I0413 19:28:10.149776 15889 net.cpp:165] Memory required for data: 3463601652
I0413 19:28:10.149791 15889 layer_factory.hpp:77] Creating layer relu5_3
I0413 19:28:10.149806 15889 net.cpp:100] Creating Layer relu5_3
I0413 19:28:10.149816 15889 net.cpp:434] relu5_3 <- conv5_3
I0413 19:28:10.149830 15889 net.cpp:395] relu5_3 -> conv5_3 (in-place)
I0413 19:28:10.149847 15889 net.cpp:150] Setting up relu5_3
I0413 19:28:10.149857 15889 net.cpp:157] Top shape: 1 512 63 94 (3032064)
I0413 19:28:10.149865 15889 net.cpp:165] Memory required for data: 3475729908
I0413 19:28:10.149873 15889 layer_factory.hpp:77] Creating layer conv5_3_relu5_3_0_split
I0413 19:28:10.149885 15889 net.cpp:100] Creating Layer conv5_3_relu5_3_0_split
I0413 19:28:10.149893 15889 net.cpp:434] conv5_3_relu5_3_0_split <- conv5_3
I0413 19:28:10.149902 15889 net.cpp:408] conv5_3_relu5_3_0_split -> conv5_3_relu5_3_0_split_0
I0413 19:28:10.149917 15889 net.cpp:408] conv5_3_relu5_3_0_split -> conv5_3_relu5_3_0_split_1
I0413 19:28:10.149958 15889 net.cpp:150] Setting up conv5_3_relu5_3_0_split
I0413 19:28:10.149968 15889 net.cpp:157] Top shape: 1 512 63 94 (3032064)
I0413 19:28:10.149976 15889 net.cpp:157] Top shape: 1 512 63 94 (3032064)
I0413 19:28:10.149983 15889 net.cpp:165] Memory required for data: 3499986420
I0413 19:28:10.149989 15889 layer_factory.hpp:77] Creating layer rpn_big_conv1
I0413 19:28:10.150008 15889 net.cpp:100] Creating Layer rpn_big_conv1
I0413 19:28:10.150014 15889 net.cpp:434] rpn_big_conv1 <- conv5_3_relu5_3_0_split_0
I0413 19:28:10.150027 15889 net.cpp:408] rpn_big_conv1 -> rpn_big_conv1
I0413 19:28:10.176573 15889 net.cpp:150] Setting up rpn_big_conv1
I0413 19:28:10.176606 15889 net.cpp:157] Top shape: 1 512 63 94 (3032064)
I0413 19:28:10.176612 15889 net.cpp:165] Memory required for data: 3512114676
I0413 19:28:10.176635 15889 layer_factory.hpp:77] Creating layer rpn_big_conv1_relu
I0413 19:28:10.176652 15889 net.cpp:100] Creating Layer rpn_big_conv1_relu
I0413 19:28:10.176663 15889 net.cpp:434] rpn_big_conv1_relu <- rpn_big_conv1
I0413 19:28:10.176676 15889 net.cpp:395] rpn_big_conv1_relu -> rpn_big_conv1 (in-place)
I0413 19:28:10.176697 15889 net.cpp:150] Setting up rpn_big_conv1_relu
I0413 19:28:10.176707 15889 net.cpp:157] Top shape: 1 512 63 94 (3032064)
I0413 19:28:10.176713 15889 net.cpp:165] Memory required for data: 3524242932
I0413 19:28:10.176719 15889 layer_factory.hpp:77] Creating layer rpn_big_conv2
I0413 19:28:10.176738 15889 net.cpp:100] Creating Layer rpn_big_conv2
I0413 19:28:10.176748 15889 net.cpp:434] rpn_big_conv2 <- rpn_big_conv1
I0413 19:28:10.176761 15889 net.cpp:408] rpn_big_conv2 -> rpn_big_conv2
I0413 19:28:10.202195 15889 net.cpp:150] Setting up rpn_big_conv2
I0413 19:28:10.202227 15889 net.cpp:157] Top shape: 1 512 63 94 (3032064)
I0413 19:28:10.202234 15889 net.cpp:165] Memory required for data: 3536371188
I0413 19:28:10.202255 15889 layer_factory.hpp:77] Creating layer rpn_big_conv2_relu
I0413 19:28:10.202270 15889 net.cpp:100] Creating Layer rpn_big_conv2_relu
I0413 19:28:10.202278 15889 net.cpp:434] rpn_big_conv2_relu <- rpn_big_conv2
I0413 19:28:10.202293 15889 net.cpp:395] rpn_big_conv2_relu -> rpn_big_conv2 (in-place)
I0413 19:28:10.202309 15889 net.cpp:150] Setting up rpn_big_conv2_relu
I0413 19:28:10.202318 15889 net.cpp:157] Top shape: 1 512 63 94 (3032064)
I0413 19:28:10.202324 15889 net.cpp:165] Memory required for data: 3548499444
I0413 19:28:10.202332 15889 layer_factory.hpp:77] Creating layer rpn_big_conv2_drop
I0413 19:28:10.202347 15889 net.cpp:100] Creating Layer rpn_big_conv2_drop
I0413 19:28:10.202353 15889 net.cpp:434] rpn_big_conv2_drop <- rpn_big_conv2
I0413 19:28:10.202363 15889 net.cpp:395] rpn_big_conv2_drop -> rpn_big_conv2 (in-place)
I0413 19:28:10.202394 15889 net.cpp:150] Setting up rpn_big_conv2_drop
I0413 19:28:10.202404 15889 net.cpp:157] Top shape: 1 512 63 94 (3032064)
I0413 19:28:10.202409 15889 net.cpp:165] Memory required for data: 3560627700
I0413 19:28:10.202414 15889 layer_factory.hpp:77] Creating layer rpn_big_conv2_rpn_big_conv2_drop_0_split
I0413 19:28:10.202428 15889 net.cpp:100] Creating Layer rpn_big_conv2_rpn_big_conv2_drop_0_split
I0413 19:28:10.202436 15889 net.cpp:434] rpn_big_conv2_rpn_big_conv2_drop_0_split <- rpn_big_conv2
I0413 19:28:10.202448 15889 net.cpp:408] rpn_big_conv2_rpn_big_conv2_drop_0_split -> rpn_big_conv2_rpn_big_conv2_drop_0_split_0
I0413 19:28:10.202462 15889 net.cpp:408] rpn_big_conv2_rpn_big_conv2_drop_0_split -> rpn_big_conv2_rpn_big_conv2_drop_0_split_1
I0413 19:28:10.202508 15889 net.cpp:150] Setting up rpn_big_conv2_rpn_big_conv2_drop_0_split
I0413 19:28:10.202518 15889 net.cpp:157] Top shape: 1 512 63 94 (3032064)
I0413 19:28:10.202527 15889 net.cpp:157] Top shape: 1 512 63 94 (3032064)
I0413 19:28:10.202534 15889 net.cpp:165] Memory required for data: 3584884212
I0413 19:28:10.202540 15889 layer_factory.hpp:77] Creating layer rpn_big_output_cls
I0413 19:28:10.202560 15889 net.cpp:100] Creating Layer rpn_big_output_cls
I0413 19:28:10.202566 15889 net.cpp:434] rpn_big_output_cls <- rpn_big_conv2_rpn_big_conv2_drop_0_split_0
I0413 19:28:10.202577 15889 net.cpp:408] rpn_big_output_cls -> rpn_big_output_cls
I0413 19:28:10.223268 15889 net.cpp:150] Setting up rpn_big_output_cls
I0413 19:28:10.223300 15889 net.cpp:157] Top shape: 1 384 63 94 (2274048)
I0413 19:28:10.223306 15889 net.cpp:165] Memory required for data: 3593980404
I0413 19:28:10.223330 15889 layer_factory.hpp:77] Creating layer rpn_big_output_cls_relu
I0413 19:28:10.223345 15889 net.cpp:100] Creating Layer rpn_big_output_cls_relu
I0413 19:28:10.223361 15889 net.cpp:434] rpn_big_output_cls_relu <- rpn_big_output_cls
I0413 19:28:10.223374 15889 net.cpp:395] rpn_big_output_cls_relu -> rpn_big_output_cls (in-place)
I0413 19:28:10.223393 15889 net.cpp:150] Setting up rpn_big_output_cls_relu
I0413 19:28:10.223402 15889 net.cpp:157] Top shape: 1 384 63 94 (2274048)
I0413 19:28:10.223409 15889 net.cpp:165] Memory required for data: 3603076596
I0413 19:28:10.223415 15889 layer_factory.hpp:77] Creating layer rpn_big_cls_score
I0413 19:28:10.223434 15889 net.cpp:100] Creating Layer rpn_big_cls_score
I0413 19:28:10.223441 15889 net.cpp:434] rpn_big_cls_score <- rpn_big_output_cls
I0413 19:28:10.223453 15889 net.cpp:408] rpn_big_cls_score -> rpn_big_cls_score
I0413 19:28:10.228664 15889 net.cpp:150] Setting up rpn_big_cls_score
I0413 19:28:10.228688 15889 net.cpp:157] Top shape: 1 52 61 92 (291824)
I0413 19:28:10.228694 15889 net.cpp:165] Memory required for data: 3604243892
I0413 19:28:10.228718 15889 layer_factory.hpp:77] Creating layer rpn_big_cls_score_rpn_big_cls_score_0_split
I0413 19:28:10.228732 15889 net.cpp:100] Creating Layer rpn_big_cls_score_rpn_big_cls_score_0_split
I0413 19:28:10.228742 15889 net.cpp:434] rpn_big_cls_score_rpn_big_cls_score_0_split <- rpn_big_cls_score
I0413 19:28:10.228754 15889 net.cpp:408] rpn_big_cls_score_rpn_big_cls_score_0_split -> rpn_big_cls_score_rpn_big_cls_score_0_split_0
I0413 19:28:10.228770 15889 net.cpp:408] rpn_big_cls_score_rpn_big_cls_score_0_split -> rpn_big_cls_score_rpn_big_cls_score_0_split_1
I0413 19:28:10.228812 15889 net.cpp:150] Setting up rpn_big_cls_score_rpn_big_cls_score_0_split
I0413 19:28:10.228822 15889 net.cpp:157] Top shape: 1 52 61 92 (291824)
I0413 19:28:10.228830 15889 net.cpp:157] Top shape: 1 52 61 92 (291824)
I0413 19:28:10.228837 15889 net.cpp:165] Memory required for data: 3606578484
I0413 19:28:10.228843 15889 layer_factory.hpp:77] Creating layer rpn_big_cls_score_reshape
I0413 19:28:10.228859 15889 net.cpp:100] Creating Layer rpn_big_cls_score_reshape
I0413 19:28:10.228866 15889 net.cpp:434] rpn_big_cls_score_reshape <- rpn_big_cls_score_rpn_big_cls_score_0_split_0
I0413 19:28:10.228878 15889 net.cpp:408] rpn_big_cls_score_reshape -> rpn_big_cls_score_reshape
I0413 19:28:10.228917 15889 net.cpp:150] Setting up rpn_big_cls_score_reshape
I0413 19:28:10.228927 15889 net.cpp:157] Top shape: 1 2 1586 92 (291824)
I0413 19:28:10.228934 15889 net.cpp:165] Memory required for data: 3607745780
I0413 19:28:10.228940 15889 layer_factory.hpp:77] Creating layer rpn_big_cls_score_reshape_rpn_big_cls_score_reshape_0_split
I0413 19:28:10.228948 15889 net.cpp:100] Creating Layer rpn_big_cls_score_reshape_rpn_big_cls_score_reshape_0_split
I0413 19:28:10.228956 15889 net.cpp:434] rpn_big_cls_score_reshape_rpn_big_cls_score_reshape_0_split <- rpn_big_cls_score_reshape
I0413 19:28:10.228968 15889 net.cpp:408] rpn_big_cls_score_reshape_rpn_big_cls_score_reshape_0_split -> rpn_big_cls_score_reshape_rpn_big_cls_score_reshape_0_split_0
I0413 19:28:10.228981 15889 net.cpp:408] rpn_big_cls_score_reshape_rpn_big_cls_score_reshape_0_split -> rpn_big_cls_score_reshape_rpn_big_cls_score_reshape_0_split_1
I0413 19:28:10.229022 15889 net.cpp:150] Setting up rpn_big_cls_score_reshape_rpn_big_cls_score_reshape_0_split
I0413 19:28:10.229032 15889 net.cpp:157] Top shape: 1 2 1586 92 (291824)
I0413 19:28:10.229040 15889 net.cpp:157] Top shape: 1 2 1586 92 (291824)
I0413 19:28:10.229048 15889 net.cpp:165] Memory required for data: 3610080372
I0413 19:28:10.229053 15889 layer_factory.hpp:77] Creating layer rpn_big_cls_prob
I0413 19:28:10.229065 15889 net.cpp:100] Creating Layer rpn_big_cls_prob
I0413 19:28:10.229074 15889 net.cpp:434] rpn_big_cls_prob <- rpn_big_cls_score_reshape_rpn_big_cls_score_reshape_0_split_0
I0413 19:28:10.229084 15889 net.cpp:408] rpn_big_cls_prob -> rpn_big_cls_prob
I0413 19:28:10.229145 15889 net.cpp:150] Setting up rpn_big_cls_prob
I0413 19:28:10.229154 15889 net.cpp:157] Top shape: 1 2 1586 92 (291824)
I0413 19:28:10.229159 15889 net.cpp:165] Memory required for data: 3611247668
I0413 19:28:10.229166 15889 layer_factory.hpp:77] Creating layer rpn_big_cls_prob_reshape
I0413 19:28:10.229176 15889 net.cpp:100] Creating Layer rpn_big_cls_prob_reshape
I0413 19:28:10.229183 15889 net.cpp:434] rpn_big_cls_prob_reshape <- rpn_big_cls_prob
I0413 19:28:10.229195 15889 net.cpp:408] rpn_big_cls_prob_reshape -> rpn_big_cls_prob_reshape
I0413 19:28:10.229224 15889 net.cpp:150] Setting up rpn_big_cls_prob_reshape
I0413 19:28:10.229233 15889 net.cpp:157] Top shape: 1 52 61 92 (291824)
I0413 19:28:10.229239 15889 net.cpp:165] Memory required for data: 3612414964
I0413 19:28:10.229248 15889 layer_factory.hpp:77] Creating layer rpn_big_cls_prob_reshape_rpn_big_cls_prob_reshape_0_split
I0413 19:28:10.229256 15889 net.cpp:100] Creating Layer rpn_big_cls_prob_reshape_rpn_big_cls_prob_reshape_0_split
I0413 19:28:10.229264 15889 net.cpp:434] rpn_big_cls_prob_reshape_rpn_big_cls_prob_reshape_0_split <- rpn_big_cls_prob_reshape
I0413 19:28:10.229274 15889 net.cpp:408] rpn_big_cls_prob_reshape_rpn_big_cls_prob_reshape_0_split -> rpn_big_cls_prob_reshape_rpn_big_cls_prob_reshape_0_split_0
I0413 19:28:10.229288 15889 net.cpp:408] rpn_big_cls_prob_reshape_rpn_big_cls_prob_reshape_0_split -> rpn_big_cls_prob_reshape_rpn_big_cls_prob_reshape_0_split_1
I0413 19:28:10.229324 15889 net.cpp:150] Setting up rpn_big_cls_prob_reshape_rpn_big_cls_prob_reshape_0_split
I0413 19:28:10.229334 15889 net.cpp:157] Top shape: 1 52 61 92 (291824)
I0413 19:28:10.229342 15889 net.cpp:157] Top shape: 1 52 61 92 (291824)
I0413 19:28:10.229347 15889 net.cpp:165] Memory required for data: 3614749556
I0413 19:28:10.229353 15889 layer_factory.hpp:77] Creating layer rpn_big_anchor_target
I0413 19:28:10.230656 15889 net.cpp:100] Creating Layer rpn_big_anchor_target
I0413 19:28:10.230671 15889 net.cpp:434] rpn_big_anchor_target <- rpn_big_cls_score_rpn_big_cls_score_0_split_1
I0413 19:28:10.230680 15889 net.cpp:434] rpn_big_anchor_target <- input_gt_boxes_input_2_split_0
I0413 19:28:10.230690 15889 net.cpp:434] rpn_big_anchor_target <- input_ignored_boxes
I0413 19:28:10.230700 15889 net.cpp:434] rpn_big_anchor_target <- input_im_info_input_1_split_0
I0413 19:28:10.230708 15889 net.cpp:434] rpn_big_anchor_target <- input_data_input_0_split_1
I0413 19:28:10.230718 15889 net.cpp:434] rpn_big_anchor_target <- rpn_big_cls_prob_reshape_rpn_big_cls_prob_reshape_0_split_0
I0413 19:28:10.230731 15889 net.cpp:408] rpn_big_anchor_target -> rpn_big_anchor_target_labels
I0413 19:28:10.230747 15889 net.cpp:408] rpn_big_anchor_target -> rpn_big_anchor_target_bbox_targets
I0413 19:28:10.230762 15889 net.cpp:408] rpn_big_anchor_target -> rpn_big_anchor_target_inside_weights
I0413 19:28:10.230777 15889 net.cpp:408] rpn_big_anchor_target -> rpn_big_anchor_target_outside_weights
I0413 19:28:10.235790 15889 net.cpp:150] Setting up rpn_big_anchor_target
I0413 19:28:10.235821 15889 net.cpp:157] Top shape: 1 1 1586 92 (145912)
I0413 19:28:10.235828 15889 net.cpp:157] Top shape: 1 104 61 92 (583648)
I0413 19:28:10.235836 15889 net.cpp:157] Top shape: 1 104 61 92 (583648)
I0413 19:28:10.235842 15889 net.cpp:157] Top shape: 1 104 61 92 (583648)
I0413 19:28:10.235847 15889 net.cpp:165] Memory required for data: 3622336980
I0413 19:28:10.235857 15889 layer_factory.hpp:77] Creating layer rpn_big_loss_cls
I0413 19:28:10.235872 15889 net.cpp:100] Creating Layer rpn_big_loss_cls
I0413 19:28:10.235882 15889 net.cpp:434] rpn_big_loss_cls <- rpn_big_cls_score_reshape_rpn_big_cls_score_reshape_0_split_1
I0413 19:28:10.235893 15889 net.cpp:434] rpn_big_loss_cls <- rpn_big_anchor_target_labels
I0413 19:28:10.235905 15889 net.cpp:408] rpn_big_loss_cls -> rpn_big_loss_cls
I0413 19:28:10.235924 15889 layer_factory.hpp:77] Creating layer rpn_big_loss_cls
I0413 19:28:10.236696 15889 net.cpp:150] Setting up rpn_big_loss_cls
I0413 19:28:10.236723 15889 net.cpp:157] Top shape: (1)
I0413 19:28:10.236729 15889 net.cpp:160]     with loss weight 1
I0413 19:28:10.236744 15889 net.cpp:165] Memory required for data: 3622336984
I0413 19:28:10.236755 15889 layer_factory.hpp:77] Creating layer rpn_big_output_box
I0413 19:28:10.236779 15889 net.cpp:100] Creating Layer rpn_big_output_box
I0413 19:28:10.236791 15889 net.cpp:434] rpn_big_output_box <- rpn_big_conv2_rpn_big_conv2_drop_0_split_1
I0413 19:28:10.236807 15889 net.cpp:408] rpn_big_output_box -> rpn_big_output_box
I0413 19:28:10.256517 15889 net.cpp:150] Setting up rpn_big_output_box
I0413 19:28:10.256557 15889 net.cpp:157] Top shape: 1 384 63 94 (2274048)
I0413 19:28:10.256564 15889 net.cpp:165] Memory required for data: 3631433176
I0413 19:28:10.256580 15889 layer_factory.hpp:77] Creating layer rpn_big_output_box_relu
I0413 19:28:10.256599 15889 net.cpp:100] Creating Layer rpn_big_output_box_relu
I0413 19:28:10.256611 15889 net.cpp:434] rpn_big_output_box_relu <- rpn_big_output_box
I0413 19:28:10.256628 15889 net.cpp:395] rpn_big_output_box_relu -> rpn_big_output_box (in-place)
I0413 19:28:10.256647 15889 net.cpp:150] Setting up rpn_big_output_box_relu
I0413 19:28:10.256659 15889 net.cpp:157] Top shape: 1 384 63 94 (2274048)
I0413 19:28:10.256669 15889 net.cpp:165] Memory required for data: 3640529368
I0413 19:28:10.256675 15889 layer_factory.hpp:77] Creating layer rpn_big_bbox_pred
I0413 19:28:10.256693 15889 net.cpp:100] Creating Layer rpn_big_bbox_pred
I0413 19:28:10.256703 15889 net.cpp:434] rpn_big_bbox_pred <- rpn_big_output_box
I0413 19:28:10.256717 15889 net.cpp:408] rpn_big_bbox_pred -> rpn_big_bbox_pred
I0413 19:28:10.263604 15889 net.cpp:150] Setting up rpn_big_bbox_pred
I0413 19:28:10.263631 15889 net.cpp:157] Top shape: 1 104 61 92 (583648)
I0413 19:28:10.263638 15889 net.cpp:165] Memory required for data: 3642863960
I0413 19:28:10.263651 15889 layer_factory.hpp:77] Creating layer rpn_big_bbox_pred_rpn_big_bbox_pred_0_split
I0413 19:28:10.263664 15889 net.cpp:100] Creating Layer rpn_big_bbox_pred_rpn_big_bbox_pred_0_split
I0413 19:28:10.263674 15889 net.cpp:434] rpn_big_bbox_pred_rpn_big_bbox_pred_0_split <- rpn_big_bbox_pred
I0413 19:28:10.263687 15889 net.cpp:408] rpn_big_bbox_pred_rpn_big_bbox_pred_0_split -> rpn_big_bbox_pred_rpn_big_bbox_pred_0_split_0
I0413 19:28:10.263703 15889 net.cpp:408] rpn_big_bbox_pred_rpn_big_bbox_pred_0_split -> rpn_big_bbox_pred_rpn_big_bbox_pred_0_split_1
I0413 19:28:10.263748 15889 net.cpp:150] Setting up rpn_big_bbox_pred_rpn_big_bbox_pred_0_split
I0413 19:28:10.263758 15889 net.cpp:157] Top shape: 1 104 61 92 (583648)
I0413 19:28:10.263767 15889 net.cpp:157] Top shape: 1 104 61 92 (583648)
I0413 19:28:10.263773 15889 net.cpp:165] Memory required for data: 3647533144
I0413 19:28:10.263779 15889 layer_factory.hpp:77] Creating layer rpn_big_loss_bbox
I0413 19:28:10.264138 15889 net.cpp:100] Creating Layer rpn_big_loss_bbox
I0413 19:28:10.264148 15889 net.cpp:434] rpn_big_loss_bbox <- rpn_big_bbox_pred_rpn_big_bbox_pred_0_split_0
I0413 19:28:10.264158 15889 net.cpp:434] rpn_big_loss_bbox <- rpn_big_anchor_target_bbox_targets
I0413 19:28:10.264165 15889 net.cpp:434] rpn_big_loss_bbox <- rpn_big_anchor_target_inside_weights
I0413 19:28:10.264174 15889 net.cpp:434] rpn_big_loss_bbox <- rpn_big_anchor_target_outside_weights
I0413 19:28:10.264188 15889 net.cpp:408] rpn_big_loss_bbox -> rpn_big_loss_bbox
I0413 19:28:10.266278 15889 net.cpp:150] Setting up rpn_big_loss_bbox
I0413 19:28:10.266310 15889 net.cpp:157] Top shape: 1 (1)
I0413 19:28:10.266316 15889 net.cpp:160]     with loss weight 1
I0413 19:28:10.266331 15889 net.cpp:165] Memory required for data: 3647533148
I0413 19:28:10.266341 15889 layer_factory.hpp:77] Creating layer proposal
I0413 19:28:10.266733 15889 net.cpp:100] Creating Layer proposal
I0413 19:28:10.266746 15889 net.cpp:434] proposal <- rpn_big_cls_prob_reshape_rpn_big_cls_prob_reshape_0_split_1
I0413 19:28:10.266757 15889 net.cpp:434] proposal <- rpn_big_bbox_pred_rpn_big_bbox_pred_0_split_1
I0413 19:28:10.266767 15889 net.cpp:434] proposal <- input_im_info_input_1_split_1
I0413 19:28:10.266782 15889 net.cpp:408] proposal -> rpn_rois
I0413 19:28:10.270941 15889 net.cpp:150] Setting up proposal
I0413 19:28:10.270954 15889 net.cpp:157] Top shape: 1 5 (5)
I0413 19:28:10.270961 15889 net.cpp:165] Memory required for data: 3647533168
I0413 19:28:10.270967 15889 layer_factory.hpp:77] Creating layer roi-data
I0413 19:28:10.272812 15889 net.cpp:100] Creating Layer roi-data
I0413 19:28:10.272828 15889 net.cpp:434] roi-data <- rpn_rois
I0413 19:28:10.272837 15889 net.cpp:434] roi-data <- input_gt_boxes_input_2_split_1
I0413 19:28:10.272856 15889 net.cpp:408] roi-data -> rois
I0413 19:28:10.272874 15889 net.cpp:408] roi-data -> labels
I0413 19:28:10.272889 15889 net.cpp:408] roi-data -> bbox_targets
I0413 19:28:10.272910 15889 net.cpp:408] roi-data -> bbox_inside_weights
I0413 19:28:10.272924 15889 net.cpp:408] roi-data -> bbox_outside_weights
I0413 19:28:10.272938 15889 net.cpp:408] roi-data -> pid_label
anchors:
<<<<<<<<<<<<<<<<<<<<<<<<<<<<<<<<<<<<<<<<<<<<<<<<<<<<<<<<<<<<<<<<<<<<<<<<<<<<<<<<<<<<<<<<<<<<<<<<<<<<<<<<<<<<<<<<<<<<<<<<<<<<<<<<<<<<<<<<<<<<<<<<<<<<<<<<<<<<<<<<<<<<<<<<<<<<<<<<<<<<<<<<<<<<<<<<<<<<<<<<<<<<<<<<<<<<<<<<<<<<<<<<<<<<<<<<<<<<<<<<<<<<<<<<<<<<<<<<<<<<<<<<<<<<<<<<<<<<<<<<<<<<<<<<<<<<<<<<<<<<
<caffe._caffe.RawBlobVec object at 0x7fb85102d270>
I0413 19:28:10.273958 15889 net.cpp:150] Setting up roi-data
I0413 19:28:10.273975 15889 net.cpp:157] Top shape: 1 5 (5)
I0413 19:28:10.273983 15889 net.cpp:157] Top shape: 1 1 (1)
I0413 19:28:10.273993 15889 net.cpp:157] Top shape: 1 8 (8)
I0413 19:28:10.274001 15889 net.cpp:157] Top shape: 1 8 (8)
I0413 19:28:10.274009 15889 net.cpp:157] Top shape: 1 8 (8)
I0413 19:28:10.274016 15889 net.cpp:157] Top shape: (0)
I0413 19:28:10.274021 15889 net.cpp:165] Memory required for data: 3647533288
I0413 19:28:10.274029 15889 layer_factory.hpp:77] Creating layer roi-pool
I0413 19:28:10.274041 15889 net.cpp:100] Creating Layer roi-pool
I0413 19:28:10.274049 15889 net.cpp:434] roi-pool <- conv5_3_relu5_3_0_split_1
I0413 19:28:10.274060 15889 net.cpp:434] roi-pool <- rois
I0413 19:28:10.274076 15889 net.cpp:408] roi-pool -> roi-pool
I0413 19:28:10.274091 15889 roi_pooling_layer.cpp:33] Spatial scale: 0.0625
I0413 19:28:10.274106 15889 roi_pooling_layer.cpp:34] Box scale: 1
I0413 19:28:10.274147 15889 net.cpp:150] Setting up roi-pool
I0413 19:28:10.274158 15889 net.cpp:157] Top shape: 1 512 7 7 (25088)
I0413 19:28:10.274164 15889 net.cpp:165] Memory required for data: 3647633640
I0413 19:28:10.274173 15889 layer_factory.hpp:77] Creating layer fc6
I0413 19:28:10.274183 15889 net.cpp:100] Creating Layer fc6
I0413 19:28:10.274190 15889 net.cpp:434] fc6 <- roi-pool
I0413 19:28:10.274200 15889 net.cpp:408] fc6 -> fc6
I0413 19:28:10.438338 15889 net.cpp:150] Setting up fc6
I0413 19:28:10.438374 15889 net.cpp:157] Top shape: 1 4096 (4096)
I0413 19:28:10.438380 15889 net.cpp:165] Memory required for data: 3647650024
I0413 19:28:10.438405 15889 layer_factory.hpp:77] Creating layer relu6
I0413 19:28:10.438418 15889 net.cpp:100] Creating Layer relu6
I0413 19:28:10.438426 15889 net.cpp:434] relu6 <- fc6
I0413 19:28:10.438439 15889 net.cpp:395] relu6 -> fc6 (in-place)
I0413 19:28:10.438454 15889 net.cpp:150] Setting up relu6
I0413 19:28:10.438462 15889 net.cpp:157] Top shape: 1 4096 (4096)
I0413 19:28:10.438467 15889 net.cpp:165] Memory required for data: 3647666408
I0413 19:28:10.438472 15889 layer_factory.hpp:77] Creating layer drop6
I0413 19:28:10.438482 15889 net.cpp:100] Creating Layer drop6
I0413 19:28:10.438488 15889 net.cpp:434] drop6 <- fc6
I0413 19:28:10.438496 15889 net.cpp:395] drop6 -> fc6 (in-place)
I0413 19:28:10.438529 15889 net.cpp:150] Setting up drop6
I0413 19:28:10.438539 15889 net.cpp:157] Top shape: 1 4096 (4096)
I0413 19:28:10.438544 15889 net.cpp:165] Memory required for data: 3647682792
I0413 19:28:10.438550 15889 layer_factory.hpp:77] Creating layer fc7
I0413 19:28:10.438562 15889 net.cpp:100] Creating Layer fc7
I0413 19:28:10.438571 15889 net.cpp:434] fc7 <- fc6
I0413 19:28:10.438581 15889 net.cpp:408] fc7 -> fc7
I0413 19:28:10.464951 15889 net.cpp:150] Setting up fc7
I0413 19:28:10.464993 15889 net.cpp:157] Top shape: 1 4096 (4096)
I0413 19:28:10.464999 15889 net.cpp:165] Memory required for data: 3647699176
I0413 19:28:10.465023 15889 layer_factory.hpp:77] Creating layer relu7
I0413 19:28:10.465049 15889 net.cpp:100] Creating Layer relu7
I0413 19:28:10.465059 15889 net.cpp:434] relu7 <- fc7
I0413 19:28:10.465070 15889 net.cpp:395] relu7 -> fc7 (in-place)
I0413 19:28:10.465085 15889 net.cpp:150] Setting up relu7
I0413 19:28:10.465095 15889 net.cpp:157] Top shape: 1 4096 (4096)
I0413 19:28:10.465101 15889 net.cpp:165] Memory required for data: 3647715560
I0413 19:28:10.465109 15889 layer_factory.hpp:77] Creating layer drop7
I0413 19:28:10.465121 15889 net.cpp:100] Creating Layer drop7
I0413 19:28:10.465128 15889 net.cpp:434] drop7 <- fc7
I0413 19:28:10.465137 15889 net.cpp:395] drop7 -> fc7 (in-place)
I0413 19:28:10.465167 15889 net.cpp:150] Setting up drop7
I0413 19:28:10.465175 15889 net.cpp:157] Top shape: 1 4096 (4096)
I0413 19:28:10.465181 15889 net.cpp:165] Memory required for data: 3647731944
I0413 19:28:10.465188 15889 layer_factory.hpp:77] Creating layer fc7_drop7_0_split
I0413 19:28:10.465198 15889 net.cpp:100] Creating Layer fc7_drop7_0_split
I0413 19:28:10.465205 15889 net.cpp:434] fc7_drop7_0_split <- fc7
I0413 19:28:10.465215 15889 net.cpp:408] fc7_drop7_0_split -> fc7_drop7_0_split_0
I0413 19:28:10.465239 15889 net.cpp:408] fc7_drop7_0_split -> fc7_drop7_0_split_1
I0413 19:28:10.465276 15889 net.cpp:150] Setting up fc7_drop7_0_split
I0413 19:28:10.465286 15889 net.cpp:157] Top shape: 1 4096 (4096)
I0413 19:28:10.465293 15889 net.cpp:157] Top shape: 1 4096 (4096)
I0413 19:28:10.465297 15889 net.cpp:165] Memory required for data: 3647764712
I0413 19:28:10.465303 15889 layer_factory.hpp:77] Creating layer bbox_pred
I0413 19:28:10.465315 15889 net.cpp:100] Creating Layer bbox_pred
I0413 19:28:10.465322 15889 net.cpp:434] bbox_pred <- fc7_drop7_0_split_0
I0413 19:28:10.465333 15889 net.cpp:408] bbox_pred -> bbox_pred
I0413 19:28:10.465754 15889 net.cpp:150] Setting up bbox_pred
I0413 19:28:10.465764 15889 net.cpp:157] Top shape: 1 8 (8)
I0413 19:28:10.465770 15889 net.cpp:165] Memory required for data: 3647764744
I0413 19:28:10.465782 15889 layer_factory.hpp:77] Creating layer loss_bbox
I0413 19:28:10.465793 15889 net.cpp:100] Creating Layer loss_bbox
I0413 19:28:10.465801 15889 net.cpp:434] loss_bbox <- bbox_pred
I0413 19:28:10.465809 15889 net.cpp:434] loss_bbox <- bbox_targets
I0413 19:28:10.465817 15889 net.cpp:434] loss_bbox <- bbox_inside_weights
I0413 19:28:10.465827 15889 net.cpp:434] loss_bbox <- bbox_outside_weights
I0413 19:28:10.465837 15889 net.cpp:408] loss_bbox -> loss_bbox
I0413 19:28:10.465917 15889 net.cpp:150] Setting up loss_bbox
I0413 19:28:10.465927 15889 net.cpp:157] Top shape: (1)
I0413 19:28:10.465932 15889 net.cpp:160]     with loss weight 1
I0413 19:28:10.465948 15889 net.cpp:165] Memory required for data: 3647764748
I0413 19:28:10.465955 15889 layer_factory.hpp:77] Creating layer feat
I0413 19:28:10.465967 15889 net.cpp:100] Creating Layer feat
I0413 19:28:10.465975 15889 net.cpp:434] feat <- fc7_drop7_0_split_1
I0413 19:28:10.465986 15889 net.cpp:408] feat -> feat
I0413 19:28:10.477098 15889 net.cpp:150] Setting up feat
I0413 19:28:10.477133 15889 net.cpp:157] Top shape: 1 256 (256)
I0413 19:28:10.477138 15889 net.cpp:165] Memory required for data: 3647765772
I0413 19:28:10.477161 15889 layer_factory.hpp:77] Creating layer relu8
I0413 19:28:10.477176 15889 net.cpp:100] Creating Layer relu8
I0413 19:28:10.477186 15889 net.cpp:434] relu8 <- feat
I0413 19:28:10.477200 15889 net.cpp:395] relu8 -> feat (in-place)
I0413 19:28:10.477216 15889 net.cpp:150] Setting up relu8
I0413 19:28:10.477223 15889 net.cpp:157] Top shape: 1 256 (256)
I0413 19:28:10.477229 15889 net.cpp:165] Memory required for data: 3647766796
I0413 19:28:10.477236 15889 layer_factory.hpp:77] Creating layer drop8
I0413 19:28:10.477246 15889 net.cpp:100] Creating Layer drop8
I0413 19:28:10.477253 15889 net.cpp:434] drop8 <- feat
I0413 19:28:10.477262 15889 net.cpp:395] drop8 -> feat (in-place)
I0413 19:28:10.477290 15889 net.cpp:150] Setting up drop8
I0413 19:28:10.477300 15889 net.cpp:157] Top shape: 1 256 (256)
I0413 19:28:10.477305 15889 net.cpp:165] Memory required for data: 3647767820
I0413 19:28:10.477313 15889 layer_factory.hpp:77] Creating layer pid_score
I0413 19:28:10.477324 15889 net.cpp:100] Creating Layer pid_score
I0413 19:28:10.477331 15889 net.cpp:434] pid_score <- feat
I0413 19:28:10.477341 15889 net.cpp:408] pid_score -> pid_score
I0413 19:28:10.492282 15889 net.cpp:150] Setting up pid_score
I0413 19:28:10.492311 15889 net.cpp:157] Top shape: 1 5533 (5533)
I0413 19:28:10.492316 15889 net.cpp:165] Memory required for data: 3647789952
I0413 19:28:10.492338 15889 layer_factory.hpp:77] Creating layer pid_accuracy
I0413 19:28:10.492355 15889 net.cpp:100] Creating Layer pid_accuracy
I0413 19:28:10.492365 15889 net.cpp:434] pid_accuracy <- pid_score
I0413 19:28:10.492377 15889 net.cpp:434] pid_accuracy <- pid_label
I0413 19:28:10.492391 15889 net.cpp:408] pid_accuracy -> pid_accuracy
…
