…
I0413 18:40:46.040298 13759 solver.cpp:48] Initializing solver from parameters: 
base_lr: 0.001
display: 20
lr_policy: "multistep"
gamma: 0.1
momentum: 0.9
weight_decay: 0.0005
snapshot: 0
snapshot_prefix: "faces_example"
net_param {
  name: "GeneratedModel_13_04_2017_18_40"
  layer {
    name: "input"
    type: "Python"
    top: "input_data"
    top: "input_im_info"
    top: "input_gt_boxes"
    top: "input_ignored_boxes"
    python_param {
      module: "layers.roi_data_layer"
      layer: "RoIDataLayer"
      param_str: "{\"num_classes\": 2}"
    }
  }
  layer {
    name: "conv1_1"
    type: "Convolution"
    bottom: "input_data"
    top: "conv1_1"
    param {
      lr_mult: 0
      decay_mult: 0
    }
    param {
      lr_mult: 0
      decay_mult: 0
    }
    convolution_param {
      num_output: 64
      pad: 1
      kernel_size: 3
    }
  }
  layer {
    name: "relu1_1"
    type: "ReLU"
    bottom: "conv1_1"
    top: "conv1_1"
  }
  layer {
    name: "conv1_2"
    type: "Convolution"
    bottom: "conv1_1"
    top: "conv1_2"
    param {
      lr_mult: 0
      decay_mult: 0
    }
    param {
      lr_mult: 0
      decay_mult: 0
    }
    convolution_param {
      num_output: 64
      pad: 1
      kernel_size: 3
    }
  }
  layer {
    name: "relu1_2"
    type: "ReLU"
    bottom: "conv1_2"
    top: "conv1_2"
  }
  layer {
    name: "pool1"
    type: "Pooling"
    bottom: "conv1_2"
    top: "pool1"
    pooling_param {
      pool: MAX
      kernel_size: 2
      stride: 2
    }
  }
  layer {
    name: "conv2_1"
    type: "Convolution"
    bottom: "pool1"
    top: "conv2_1"
    param {
      lr_mult: 0
      decay_mult: 0
    }
    param {
      lr_mult: 0
      decay_mult: 0
    }
    convolution_param {
      num_output: 128
      pad: 1
      kernel_size: 3
    }
  }
  layer {
    name: "relu2_1"
    type: "ReLU"
    bottom: "conv2_1"
    top: "conv2_1"
  }
  layer {
    name: "conv2_2"
    type: "Convolution"
    bottom: "conv2_1"
    top: "conv2_2"
    param {
      lr_mult: 0
      decay_mult: 0
    }
    param {
      lr_mult: 0
      decay_mult: 0
    }
    convolution_param {
      num_output: 128
      pad: 1
      kernel_size: 3
    }
  }
  layer {
    name: "relu2_2"
    type: "ReLU"
    bottom: "conv2_2"
    top: "conv2_2"
  }
  layer {
    name: "pool2"
    type: "Pooling"
    bottom: "conv2_2"
    top: "pool2"
    pooling_param {
      pool: MAX
      kernel_size: 2
      stride: 2
    }
  }
  layer {
    name: "conv3_1"
    type: "Convolution"
    bottom: "pool2"
    top: "conv3_1"
    param {
      lr_mult: 1
    }
    param {
      lr_mult: 2
    }
    convolution_param {
      num_output: 256
      pad: 1
      kernel_size: 3
    }
  }
  layer {
    name: "relu3_1"
    type: "ReLU"
    bottom: "conv3_1"
    top: "conv3_1"
  }
  layer {
    name: "conv3_2"
    type: "Convolution"
    bottom: "conv3_1"
    top: "conv3_2"
    param {
      lr_mult: 1
    }
    param {
      lr_mult: 2
    }
    convolution_param {
      num_output: 256
      pad: 1
      kernel_size: 3
    }
  }
  layer {
    name: "relu3_2"
    type: "ReLU"
    bottom: "conv3_2"
    top: "conv3_2"
  }
  layer {
    name: "conv3_3"
    type: "Convolution"
    bottom: "conv3_2"
    top: "conv3_3"
    param {
      lr_mult: 1
    }
    param {
      lr_mult: 2
    }
    convolution_param {
      num_output: 256
      pad: 1
      kernel_size: 3
    }
  }
  layer {
    name: "relu3_3"
    type: "ReLU"
    bottom: "conv3_3"
    top: "conv3_3"
  }
  layer {
    name: "pool3"
    type: "Pooling"
    bottom: "conv3_3"
    top: "pool3"
    pooling_param {
      pool: MAX
      kernel_size: 2
      stride: 2
    }
  }
  layer {
    name: "conv4_1"
    type: "Convolution"
    bottom: "pool3"
    top: "conv4_1"
    param {
      lr_mult: 1
    }
    param {
      lr_mult: 2
    }
    convolution_param {
      num_output: 512
      pad: 1
      kernel_size: 3
    }
  }
  layer {
    name: "relu4_1"
    type: "ReLU"
    bottom: "conv4_1"
    top: "conv4_1"
  }
  layer {
    name: "conv4_2"
    type: "Convolution"
    bottom: "conv4_1"
    top: "conv4_2"
    param {
      lr_mult: 1
    }
    param {
      lr_mult: 2
    }
    convolution_param {
      num_output: 512
      pad: 1
      kernel_size: 3
    }
  }
  layer {
    name: "relu4_2"
    type: "ReLU"
    bottom: "conv4_2"
    top: "conv4_2"
  }
  layer {
    name: "conv4_3"
    type: "Convolution"
    bottom: "conv4_2"
    top: "conv4_3"
    param {
      lr_mult: 1
    }
    param {
      lr_mult: 2
    }
    convolution_param {
      num_output: 512
      pad: 1
      kernel_size: 3
    }
  }
  layer {
    name: "relu4_3"
    type: "ReLU"
    bottom: "conv4_3"
    top: "conv4_3"
  }
  layer {
    name: "pool4"
    type: "Pooling"
    bottom: "conv4_3"
    top: "pool4"
    pooling_param {
      pool: MAX
      kernel_size: 2
      stride: 2
    }
  }
  layer {
    name: "conv5_1"
    type: "Convolution"
    bottom: "pool4"
    top: "conv5_1"
    param {
      lr_mult: 1
    }
    param {
      lr_mult: 2
    }
    convolution_param {
      num_output: 512
      pad: 1
      kernel_size: 3
    }
  }
  layer {
    name: "relu5_1"
    type: "ReLU"
    bottom: "conv5_1"
    top: "conv5_1"
  }
  layer {
    name: "conv5_2"
    type: "Convolution"
    bottom: "conv5_1"
    top: "conv5_2"
    param {
      lr_mult: 1
    }
    param {
      lr_mult: 2
    }
    convolution_param {
      num_output: 512
      pad: 1
      kernel_size: 3
    }
  }
  layer {
    name: "relu5_2"
    type: "ReLU"
    bottom: "conv5_2"
    top: "conv5_2"
  }
  layer {
    name: "conv5_3"
    type: "Convolution"
    bottom: "conv5_2"
    top: "conv5_3"
    param {
      lr_mult: 1
    }
    param {
      lr_mult: 2
    }
    convolution_param {
      num_output: 512
      pad: 1
      kernel_size: 3
    }
  }
  layer {
    name: "relu5_3"
    type: "ReLU"
    bottom: "conv5_3"
    top: "conv5_3"
  }
  layer {
    name: "rpn_big_conv1"
    type: "Convolution"
    bottom: "conv5_3"
    top: "rpn_big_conv1"
    param {
      lr_mult: 1
    }
    param {
      lr_mult: 2
    }
    convolution_param {
      num_output: 512
      pad: 1
      kernel_size: 3
      stride: 1
      weight_filler {
        type: "gaussian"
        mean: 0
        std: 0.01
      }
      bias_filler {
        type: "constant"
      }
    }
  }
  layer {
    name: "rpn_big_conv1_relu"
    type: "ReLU"
    bottom: "rpn_big_conv1"
    top: "rpn_big_conv1"
    relu_param {
      negative_slope: 0
    }
  }
  layer {
    name: "rpn_big_conv2"
    type: "Convolution"
    bottom: "rpn_big_conv1"
    top: "rpn_big_conv2"
    param {
      lr_mult: 1
    }
    param {
      lr_mult: 2
    }
    convolution_param {
      num_output: 512
      pad: 1
      kernel_size: 3
      stride: 1
      weight_filler {
        type: "gaussian"
        mean: 0
        std: 0.01
      }
      bias_filler {
        type: "constant"
      }
    }
  }
  layer {
    name: "rpn_big_conv2_relu"
    type: "ReLU"
    bottom: "rpn_big_conv2"
    top: "rpn_big_conv2"
    relu_param {
      negative_slope: 0
    }
  }
  layer {
    name: "rpn_big_conv2_drop"
    type: "Dropout"
    bottom: "rpn_big_conv2"
    top: "rpn_big_conv2"
    dropout_param {
      dropout_ratio: 0.3
    }
  }
  layer {
    name: "rpn_big_output_cls"
    type: "Convolution"
    bottom: "rpn_big_conv2"
    top: "rpn_big_output_cls"
    param {
      lr_mult: 1
    }
    param {
      lr_mult: 2
    }
    convolution_param {
      num_output: 384
      pad: 1
      kernel_size: 3
      stride: 1
      weight_filler {
        type: "gaussian"
        mean: 0
        std: 0.01
      }
      bias_filler {
        type: "constant"
      }
    }
  }
  layer {
    name: "rpn_big_output_cls_relu"
    type: "ReLU"
    bottom: "rpn_big_output_cls"
    top: "rpn_big_output_cls"
    relu_param {
      negative_slope: 0
    }
  }
  layer {
    name: "rpn_big_cls_score"
    type: "Convolution"
    bottom: "rpn_big_output_cls"
    top: "rpn_big_cls_score"
    param {
      lr_mult: 1
    }
    param {
      lr_mult: 2
    }
    convolution_param {
      num_output: 52
      pad: 0
      kernel_size: 3
      stride: 1
      weight_filler {
        type: "gaussian"
        mean: 0
        std: 0.01
      }
      bias_filler {
        type: "constant"
      }
    }
  }
  layer {
    name: "rpn_big_cls_score_reshape"
    type: "Reshape"
    bottom: "rpn_big_cls_score"
    top: "rpn_big_cls_score_reshape"
    reshape_param {
      shape {
        dim: 0
        dim: 2
        dim: -1
        dim: 0
      }
    }
  }
  layer {
    name: "rpn_big_cls_prob"
    type: "Softmax"
    bottom: "rpn_big_cls_score_reshape"
    top: "rpn_big_cls_prob"
  }
  layer {
    name: "rpn_big_cls_prob_reshape"
    type: "Reshape"
    bottom: "rpn_big_cls_prob"
    top: "rpn_big_cls_prob_reshape"
    reshape_param {
      shape {
        dim: 0
        dim: 52
        dim: -1
        dim: 0
      }
    }
  }
  layer {
    name: "rpn_big_anchor_target"
    type: "Python"
    bottom: "rpn_big_cls_score"
    bottom: "input_gt_boxes"
    bottom: "input_ignored_boxes"
    bottom: "input_im_info"
    bottom: "input_data"
    bottom: "rpn_big_cls_prob_reshape"
    top: "rpn_big_anchor_target_labels"
    top: "rpn_big_anchor_target_bbox_targets"
    top: "rpn_big_anchor_target_inside_weights"
    top: "rpn_big_anchor_target_outside_weights"
    python_param {
      module: "rpn.anchor_target_layer"
      layer: "AnchorTargetLayer"
      param_str: "{\"positive_overlap\": 0.6, \"num_classes\": 1, \"anchor_ratios\": [1.0], \"tn_fraction\": 0.2, \"negative_overlap\": 0.4, \"anchor_scales\": [2.5, 3.025, 3.66025, 4.4289024999999995, 5.358972025, 6.484356150249999, 7.846070941802498, 9.493745839581022, 11.487432465893036, 13.899793283730574, 16.818749873313998, 20.350687346709933, 24.62433168951902, 29.795441344318014], \"feat_stride\": 16, \"fg_fraction\": 0.5, \"batchsize\": 256, \"anchor_shift_num_xy\": [[2, 2], [2, 2], [2, 2], [2, 2], [1, 1], [1, 1], [1, 1], [1, 1], [1, 1], [1, 1], [1, 1], [1, 1], [1, 1], [1, 1]], \"square_targets\": true, \"name\": \"rpn_big\"}"
    }
  }
  layer {
    name: "rpn_big_loss_cls"
    type: "SoftmaxWithLoss"
    bottom: "rpn_big_cls_score_reshape"
    bottom: "rpn_big_anchor_target_labels"
    top: "rpn_big_loss_cls"
    loss_weight: 1
    propagate_down: true
    propagate_down: false
    loss_param {
      ignore_label: -1
      normalization: VALID
    }
  }
  layer {
    name: "rpn_big_output_box"
    type: "Convolution"
    bottom: "rpn_big_conv2"
    top: "rpn_big_output_box"
    param {
      lr_mult: 1
    }
    param {
      lr_mult: 2
    }
    convolution_param {
      num_output: 384
      pad: 1
      kernel_size: 3
      stride: 1
      weight_filler {
        type: "gaussian"
        mean: 0
        std: 0.01
      }
      bias_filler {
        type: "constant"
      }
    }
  }
  layer {
    name: "rpn_big_output_box_relu"
    type: "ReLU"
    bottom: "rpn_big_output_box"
    top: "rpn_big_output_box"
    relu_param {
      negative_slope: 0
    }
  }
  layer {
    name: "rpn_big_bbox_pred"
    type: "Convolution"
    bottom: "rpn_big_output_box"
    top: "rpn_big_bbox_pred"
    param {
      lr_mult: 1
    }
    param {
      lr_mult: 2
    }
    convolution_param {
      num_output: 104
      pad: 0
      kernel_size: 3
      stride: 1
      weight_filler {
        type: "gaussian"
        mean: 0
        std: 0.01
      }
      bias_filler {
        type: "constant"
      }
    }
  }
  layer {
    name: "rpn_big_loss_bbox"
    type: "Python"
    bottom: "rpn_big_bbox_pred"
    bottom: "rpn_big_anchor_target_bbox_targets"
    bottom: "rpn_big_anchor_target_inside_weights"
    bottom: "rpn_big_anchor_target_outside_weights"
    top: "rpn_big_loss_bbox"
    loss_weight: 1
    python_param {
      module: "layers.smooth_l1_loss"
      layer: "SmoothL1LossLayer"
      param_str: "{\"sigma\": 3}"
    }
  }
  layer {
    name: "proposal"
    type: "Python"
    bottom: "rpn_big_cls_prob_reshape"
    bottom: "rpn_big_bbox_pred"
    bottom: "input_im_info"
    top: "rpn_rois"
    python_param {
      module: "rpn.proposal_layer"
      layer: "ProposalLayer"
      param_str: "{\"anchor_shift_num_xy\": [[2, 2], [2, 2], [2, 2], [2, 2], [1, 1], [1, 1], [1, 1], [1, 1], [1, 1], [1, 1], [1, 1], [1, 1], [1, 1], [1, 1]], \"feat_stride\": 16, \"num_classes\": 1, \"anchor_scales\": [2.5, 3.025, 3.66025, 4.4289024999999995, 5.358972025, 6.484356150249999, 7.846070941802498, 9.493745839581022, 11.487432465893036, 13.899793283730574, 16.818749873313998, 20.350687346709933, 24.62433168951902, 29.795441344318014], \"square_targets\": true, \"name\": \"rpn_big\", \"batchsize\": 256, \"anchor_ratios\": [1.0]}"
    }
  }
  layer {
    name: "roi-data"
    type: "Python"
    bottom: "rpn_rois"
    bottom: "input_gt_boxes"
    top: "rois"
    top: "labels"
    top: "bbox_targets"
    top: "bbox_inside_weights"
    top: "bbox_outside_weights"
    top: "pid_label"
    python_param {
      module: "rpn.proposal_target_layer"
      layer: "ProposalTargetLayer"
      param_str: "{\"num_classes\": 2, \"bg_aux_label\": 5532}"
    }
  }
  layer {
    name: "roi-pool"
    type: "ROIPooling"
    bottom: "conv5_3"
    bottom: "rois"
    top: "roi-pool"
    roi_pooling_param {
      pooled_h: 7
      pooled_w: 7
      spatial_scale: 0.0625
    }
  }
  layer {
    name: "fc6"
    type: "InnerProduct"
    bottom: "roi-pool"
    top: "fc6"
    param {
      lr_mult: 1
    }
    param {
      lr_mult: 2
    }
    inner_product_param {
      num_output: 4096
    }
  }
  layer {
    name: "relu6"
    type: "ReLU"
    bottom: "fc6"
    top: "fc6"
  }
  layer {
    name: "drop6"
    type: "Dropout"
    bottom: "fc6"
    top: "fc6"
    dropout_param {
      dropout_ratio: 0.5
    }
  }
  layer {
    name: "fc7"
    type: "InnerProduct"
    bottom: "fc6"
    top: "fc7"
    param {
      lr_mult: 1
    }
    param {
      lr_mult: 2
    }
    inner_product_param {
      num_output: 4096
    }
  }
  layer {
    name: "relu7"
    type: "ReLU"
    bottom: "fc7"
    top: "fc7"
  }
  layer {
    name: "drop7"
    type: "Dropout"
    bottom: "fc7"
    top: "fc7"
    dropout_param {
      dropout_ratio: 0.5
    }
  }
  layer {
    name: "bbox_pred"
    type: "InnerProduct"
    bottom: "fc7"
    top: "bbox_pred"
    param {
      lr_mult: 1
    }
    param {
      lr_mult: 2
    }
    inner_product_param {
      num_output: 8
      weight_filler {
        type: "gaussian"
        std: 0.001
      }
      bias_filler {
        type: "constant"
        value: 0
      }
    }
  }
  layer {
    name: "loss_bbox"
    type: "SmoothL1Loss"
    bottom: "bbox_pred"
    bottom: "bbox_targets"
    bottom: "bbox_inside_weights"
    bottom: "bbox_outside_weights"
    top: "loss_bbox"
    loss_weight: 1
  }
  layer {
    name: "feat"
    type: "InnerProduct"
    bottom: "fc7"
    top: "feat"
    param {
      lr_mult: 1
      decay_mult: 1
    }
    param {
      lr_mult: 2
      decay_mult: 0
    }
    inner_product_param {
      num_output: 256
      weight_filler {
        type: "gaussian"
        std: 0.01
      }
      bias_filler {
        type: "constant"
        value: 0
      }
    }
  }
  layer {
    name: "relu8"
    type: "ReLU"
    bottom: "feat"
    top: "feat"
  }
  layer {
    name: "drop8"
    type: "Dropout"
    bottom: "feat"
    top: "feat"
    dropout_param {
      dropout_ratio: 0.5
    }
  }
  layer {
    name: "pid_score"
    type: "InnerProduct"
    bottom: "feat"
    top: "pid_score"
    param {
      lr_mult: 1
      decay_mult: 1
    }
    param {
      lr_mult: 2
      decay_mult: 0
    }
    inner_product_param {
      num_output: 5533
      weight_filler {
        type: "gaussian"
        std: 0.001
      }
      bias_filler {
        type: "constant"
        value: 0
      }
    }
  }
  layer {
    name: "pid_accuracy"
    type: "Accuracy"
    bottom: "pid_score"
    bottom: "pid_label"
    top: "pid_accuracy"
    accuracy_param {
      ignore_label: -1
    }
  }
}
average_loss: 100
stepvalue: 70000
stepvalue: 120000
iter_size: 2
I0413 18:40:46.040818 13759 solver.cpp:86] Creating training net specified in net_param.
I0413 18:40:46.041566 13759 net.cpp:58] Initializing net from parameters: 
name: "GeneratedModel_13_04_2017_18_40"
state {
  phase: TRAIN
}
layer {
  name: "input"
  type: "Python"
  top: "input_data"
  top: "input_im_info"
  top: "input_gt_boxes"
  top: "input_ignored_boxes"
  python_param {
    module: "layers.roi_data_layer"
    layer: "RoIDataLayer"
    param_str: "{\"num_classes\": 2}"
  }
}
layer {
  name: "conv1_1"
  type: "Convolution"
  bottom: "input_data"
  top: "conv1_1"
  param {
    lr_mult: 0
    decay_mult: 0
  }
  param {
    lr_mult: 0
    decay_mult: 0
  }
  convolution_param {
    num_output: 64
    pad: 1
    kernel_size: 3
  }
}
layer {
  name: "relu1_1"
  type: "ReLU"
  bottom: "conv1_1"
  top: "conv1_1"
}
layer {
  name: "conv1_2"
  type: "Convolution"
  bottom: "conv1_1"
  top: "conv1_2"
  param {
    lr_mult: 0
    decay_mult: 0
  }
  param {
    lr_mult: 0
    decay_mult: 0
  }
  convolution_param {
    num_output: 64
    pad: 1
    kernel_size: 3
  }
}
layer {
  name: "relu1_2"
  type: "ReLU"
  bottom: "conv1_2"
  top: "conv1_2"
}
layer {
  name: "pool1"
  type: "Pooling"
  bottom: "conv1_2"
  top: "pool1"
  pooling_param {
    pool: MAX
    kernel_size: 2
    stride: 2
  }
}
layer {
  name: "conv2_1"
  type: "Convolution"
  bottom: "pool1"
  top: "conv2_1"
  param {
    lr_mult: 0
    decay_mult: 0
  }
  param {
    lr_mult: 0
    decay_mult: 0
  }
  convolution_param {
    num_output: 128
    pad: 1
    kernel_size: 3
  }
}
layer {
  name: "relu2_1"
  type: "ReLU"
  bottom: "conv2_1"
  top: "conv2_1"
}
layer {
  name: "conv2_2"
  type: "Convolution"
  bottom: "conv2_1"
  top: "conv2_2"
  param {
    lr_mult: 0
    decay_mult: 0
  }
  param {
    lr_mult: 0
    decay_mult: 0
  }
  convolution_param {
    num_output: 128
    pad: 1
    kernel_size: 3
  }
}
layer {
  name: "relu2_2"
  type: "ReLU"
  bottom: "conv2_2"
  top: "conv2_2"
}
layer {
  name: "pool2"
  type: "Pooling"
  bottom: "conv2_2"
  top: "pool2"
  pooling_param {
    pool: MAX
    kernel_size: 2
    stride: 2
  }
}
layer {
  name: "conv3_1"
  type: "Convolution"
  bottom: "pool2"
  top: "conv3_1"
  param {
    lr_mult: 1
  }
  param {
    lr_mult: 2
  }
  convolution_param {
    num_output: 256
    pad: 1
    kernel_size: 3
  }
}
layer {
  name: "relu3_1"
  type: "ReLU"
  bottom: "conv3_1"
  top: "conv3_1"
}
layer {
  name: "conv3_2"
  type: "Convolution"
  bottom: "conv3_1"
  top: "conv3_2"
  param {
    lr_mult: 1
  }
  param {
    lr_mult: 2
  }
  convolution_param {
    num_output: 256
    pad: 1
    kernel_size: 3
  }
}
layer {
  name: "relu3_2"
  type: "ReLU"
  bottom: "conv3_2"
  top: "conv3_2"
}
layer {
  name: "conv3_3"
  type: "Convolution"
  bottom: "conv3_2"
  top: "conv3_3"
  param {
    lr_mult: 1
  }
  param {
    lr_mult: 2
  }
  convolution_param {
    num_output: 256
    pad: 1
    kernel_size: 3
  }
}
layer {
  name: "relu3_3"
  type: "ReLU"
  bottom: "conv3_3"
  top: "conv3_3"
}
layer {
  name: "pool3"
  type: "Pooling"
  bottom: "conv3_3"
  top: "pool3"
  pooling_param {
    pool: MAX
    kernel_size: 2
    stride: 2
  }
}
layer {
  name: "conv4_1"
  type: "Convolution"
  bottom: "pool3"
  top: "conv4_1"
  param {
    lr_mult: 1
  }
  param {
    lr_mult: 2
  }
  convolution_param {
    num_output: 512
    pad: 1
    kernel_size: 3
  }
}
layer {
  name: "relu4_1"
  type: "ReLU"
  bottom: "conv4_1"
  top: "conv4_1"
}
layer {
  name: "conv4_2"
  type: "Convolution"
  bottom: "conv4_1"
  top: "conv4_2"
  param {
    lr_mult: 1
  }
  param {
    lr_mult: 2
  }
  convolution_param {
    num_output: 512
    pad: 1
    kernel_size: 3
  }
}
layer {
  name: "relu4_2"
  type: "ReLU"
  bottom: "conv4_2"
  top: "conv4_2"
}
layer {
  name: "conv4_3"
  type: "Convolution"
  bottom: "conv4_2"
  top: "conv4_3"
  param {
    lr_mult: 1
  }
  param {
    lr_mult: 2
  }
  convolution_param {
    num_output: 512
    pad: 1
    kernel_size: 3
  }
}
layer {
  name: "relu4_3"
  type: "ReLU"
  bottom: "conv4_3"
  top: "conv4_3"
}
layer {
  name: "pool4"
  type: "Pooling"
  bottom: "conv4_3"
  top: "pool4"
  pooling_param {
    pool: MAX
    kernel_size: 2
    stride: 2
  }
}
layer {
  name: "conv5_1"
  type: "Convolution"
  bottom: "pool4"
  top: "conv5_1"
  param {
    lr_mult: 1
  }
  param {
    lr_mult: 2
  }
  convolution_param {
    num_output: 512
    pad: 1
    kernel_size: 3
  }
}
layer {
  name: "relu5_1"
  type: "ReLU"
  bottom: "conv5_1"
  top: "conv5_1"
}
layer {
  name: "conv5_2"
  type: "Convolution"
  bottom: "conv5_1"
  top: "conv5_2"
  param {
    lr_mult: 1
  }
  param {
    lr_mult: 2
  }
  convolution_param {
    num_output: 512
    pad: 1
    kernel_size: 3
  }
}
layer {
  name: "relu5_2"
  type: "ReLU"
  bottom: "conv5_2"
  top: "conv5_2"
}
layer {
  name: "conv5_3"
  type: "Convolution"
  bottom: "conv5_2"
  top: "conv5_3"
  param {
    lr_mult: 1
  }
  param {
    lr_mult: 2
  }
  convolution_param {
    num_output: 512
    pad: 1
    kernel_size: 3
  }
}
layer {
  name: "relu5_3"
  type: "ReLU"
  bottom: "conv5_3"
  top: "conv5_3"
}
layer {
  name: "rpn_big_conv1"
  type: "Convolution"
  bottom: "conv5_3"
  top: "rpn_big_conv1"
  param {
    lr_mult: 1
  }
  param {
    lr_mult: 2
  }
  convolution_param {
    num_output: 512
    pad: 1
    kernel_size: 3
    stride: 1
    weight_filler {
      type: "gaussian"
      mean: 0
      std: 0.01
    }
    bias_filler {
      type: "constant"
    }
  }
}
layer {
  name: "rpn_big_conv1_relu"
  type: "ReLU"
  bottom: "rpn_big_conv1"
  top: "rpn_big_conv1"
  relu_param {
    negative_slope: 0
  }
}
layer {
  name: "rpn_big_conv2"
  type: "Convolution"
  bottom: "rpn_big_conv1"
  top: "rpn_big_conv2"
  param {
    lr_mult: 1
  }
  param {
    lr_mult: 2
  }
  convolution_param {
    num_output: 512
    pad: 1
    kernel_size: 3
    stride: 1
    weight_filler {
      type: "gaussian"
      mean: 0
      std: 0.01
    }
    bias_filler {
      type: "constant"
    }
  }
}
layer {
  name: "rpn_big_conv2_relu"
  type: "ReLU"
  bottom: "rpn_big_conv2"
  top: "rpn_big_conv2"
  relu_param {
    negative_slope: 0
  }
}
layer {
  name: "rpn_big_conv2_drop"
  type: "Dropout"
  bottom: "rpn_big_conv2"
  top: "rpn_big_conv2"
  dropout_param {
    dropout_ratio: 0.3
  }
}
layer {
  name: "rpn_big_output_cls"
  type: "Convolution"
  bottom: "rpn_big_conv2"
  top: "rpn_big_output_cls"
  param {
    lr_mult: 1
  }
  param {
    lr_mult: 2
  }
  convolution_param {
    num_output: 384
    pad: 1
    kernel_size: 3
    stride: 1
    weight_filler {
      type: "gaussian"
      mean: 0
      std: 0.01
    }
    bias_filler {
      type: "constant"
    }
  }
}
layer {
  name: "rpn_big_output_cls_relu"
  type: "ReLU"
  bottom: "rpn_big_output_cls"
  top: "rpn_big_output_cls"
  relu_param {
    negative_slope: 0
  }
}
layer {
  name: "rpn_big_cls_score"
  type: "Convolution"
  bottom: "rpn_big_output_cls"
  top: "rpn_big_cls_score"
  param {
    lr_mult: 1
  }
  param {
    lr_mult: 2
  }
  convolution_param {
    num_output: 52
    pad: 0
    kernel_size: 3
    stride: 1
    weight_filler {
      type: "gaussian"
      mean: 0
      std: 0.01
    }
    bias_filler {
      type: "constant"
    }
  }
}
layer {
  name: "rpn_big_cls_score_reshape"
  type: "Reshape"
  bottom: "rpn_big_cls_score"
  top: "rpn_big_cls_score_reshape"
  reshape_param {
    shape {
      dim: 0
      dim: 2
      dim: -1
      dim: 0
    }
  }
}
layer {
  name: "rpn_big_cls_prob"
  type: "Softmax"
  bottom: "rpn_big_cls_score_reshape"
  top: "rpn_big_cls_prob"
}
layer {
  name: "rpn_big_cls_prob_reshape"
  type: "Reshape"
  bottom: "rpn_big_cls_prob"
  top: "rpn_big_cls_prob_reshape"
  reshape_param {
    shape {
      dim: 0
      dim: 52
      dim: -1
      dim: 0
    }
  }
}
layer {
  name: "rpn_big_anchor_target"
  type: "Python"
  bottom: "rpn_big_cls_score"
  bottom: "input_gt_boxes"
  bottom: "input_ignored_boxes"
  bottom: "input_im_info"
  bottom: "input_data"
  bottom: "rpn_big_cls_prob_reshape"
  top: "rpn_big_anchor_target_labels"
  top: "rpn_big_anchor_target_bbox_targets"
  top: "rpn_big_anchor_target_inside_weights"
  top: "rpn_big_anchor_target_outside_weights"
  python_param {
    module: "rpn.anchor_target_layer"
    layer: "AnchorTargetLayer"
    param_str: "{\"positive_overlap\": 0.6, \"num_classes\": 1, \"anchor_ratios\": [1.0], \"tn_fraction\": 0.2, \"negative_overlap\": 0.4, \"anchor_scales\": [2.5, 3.025, 3.66025, 4.4289024999999995, 5.358972025, 6.484356150249999, 7.846070941802498, 9.493745839581022, 11.487432465893036, 13.899793283730574, 16.818749873313998, 20.350687346709933, 24.62433168951902, 29.795441344318014], \"feat_stride\": 16, \"fg_fraction\": 0.5, \"batchsize\": 256, \"anchor_shift_num_xy\": [[2, 2], [2, 2], [2, 2], [2, 2], [1, 1], [1, 1], [1, 1], [1, 1], [1, 1], [1, 1], [1, 1], [1, 1], [1, 1], [1, 1]], \"square_targets\": true, \"name\": \"rpn_big\"}"
  }
}
layer {
  name: "rpn_big_loss_cls"
  type: "SoftmaxWithLoss"
  bottom: "rpn_big_cls_score_reshape"
  bottom: "rpn_big_anchor_target_labels"
  top: "rpn_big_loss_cls"
  loss_weight: 1
  propagate_down: true
  propagate_down: false
  loss_param {
    ignore_label: -1
    normalization: VALID
  }
}
layer {
  name: "rpn_big_output_box"
  type: "Convolution"
  bottom: "rpn_big_conv2"
  top: "rpn_big_output_box"
  param {
    lr_mult: 1
  }
  param {
    lr_mult: 2
  }
  convolution_param {
    num_output: 384
    pad: 1
    kernel_size: 3
    stride: 1
    weight_filler {
      type: "gaussian"
      mean: 0
      std: 0.01
    }
    bias_filler {
      type: "constant"
    }
  }
}
layer {
  name: "rpn_big_output_box_relu"
  type: "ReLU"
  bottom: "rpn_big_output_box"
  top: "rpn_big_output_box"
  relu_param {
    negative_slope: 0
  }
}
layer {
  name: "rpn_big_bbox_pred"
  type: "Convolution"
  bottom: "rpn_big_output_box"
  top: "rpn_big_bbox_pred"
  param {
    lr_mult: 1
  }
  param {
    lr_mult: 2
  }
  convolution_param {
    num_output: 104
    pad: 0
    kernel_size: 3
    stride: 1
    weight_filler {
      type: "gaussian"
      mean: 0
      std: 0.01
    }
    bias_filler {
      type: "constant"
    }
  }
}
layer {
  name: "rpn_big_loss_bbox"
  type: "Python"
  bottom: "rpn_big_bbox_pred"
  bottom: "rpn_big_anchor_target_bbox_targets"
  bottom: "rpn_big_anchor_target_inside_weights"
  bottom: "rpn_big_anchor_target_outside_weights"
  top: "rpn_big_loss_bbox"
  loss_weight: 1
  python_param {
    module: "layers.smooth_l1_loss"
    layer: "SmoothL1LossLayer"
    param_str: "{\"sigma\": 3}"
  }
}
layer {
  name: "proposal"
  type: "Python"
  bottom: "rpn_big_cls_prob_reshape"
  bottom: "rpn_big_bbox_pred"
  bottom: "input_im_info"
  top: "rpn_rois"
  python_param {
    module: "rpn.proposal_layer"
    layer: "ProposalLayer"
    param_str: "{\"anchor_shift_num_xy\": [[2, 2], [2, 2], [2, 2], [2, 2], [1, 1], [1, 1], [1, 1], [1, 1], [1, 1], [1, 1], [1, 1], [1, 1], [1, 1], [1, 1]], \"feat_stride\": 16, \"num_classes\": 1, \"anchor_scales\": [2.5, 3.025, 3.66025, 4.4289024999999995, 5.358972025, 6.484356150249999, 7.846070941802498, 9.493745839581022, 11.487432465893036, 13.899793283730574, 16.818749873313998, 20.350687346709933, 24.62433168951902, 29.795441344318014], \"square_targets\": true, \"name\": \"rpn_big\", \"batchsize\": 256, \"anchor_ratios\": [1.0]}"
  }
}
layer {
  name: "roi-data"
  type: "Python"
  bottom: "rpn_rois"
  bottom: "input_gt_boxes"
  top: "rois"
  top: "labels"
  top: "bbox_targets"
  top: "bbox_inside_weights"
  top: "bbox_outside_weights"
  top: "pid_label"
  python_param {
    module: "rpn.proposal_target_layer"
    layer: "ProposalTargetLayer"
    param_str: "{\"num_classes\": 2, \"bg_aux_label\": 5532}"
  }
}
layer {
  name: "roi-pool"
  type: "ROIPooling"
  bottom: "conv5_3"
  bottom: "rois"
  top: "roi-pool"
  roi_pooling_param {
    pooled_h: 7
    pooled_w: 7
    spatial_scale: 0.0625
  }
}
layer {
  name: "fc6"
  type: "InnerProduct"
  bottom: "roi-pool"
  top: "fc6"
  param {
    lr_mult: 1
  }
  param {
    lr_mult: 2
  }
  inner_product_param {
    num_output: 4096
  }
}
layer {
  name: "relu6"
  type: "ReLU"
  bottom: "fc6"
  top: "fc6"
}
layer {
  name: "drop6"
  type: "Dropout"
  bottom: "fc6"
  top: "fc6"
  dropout_param {
    dropout_ratio: 0.5
  }
}
layer {
  name: "fc7"
  type: "InnerProduct"
  bottom: "fc6"
  top: "fc7"
  param {
    lr_mult: 1
  }
  param {
    lr_mult: 2
  }
  inner_product_param {
    num_output: 4096
  }
}
layer {
  name: "relu7"
  type: "ReLU"
  bottom: "fc7"
  top: "fc7"
}
layer {
  name: "drop7"
  type: "Dropout"
  bottom: "fc7"
  top: "fc7"
  dropout_param {
    dropout_ratio: 0.5
  }
}
layer {
  name: "bbox_pred"
  type: "InnerProduct"
  bottom: "fc7"
  top: "bbox_pred"
  param {
    lr_mult: 1
  }
  param {
    lr_mult: 2
  }
  inner_product_param {
    num_output: 8
    weight_filler {
      type: "gaussian"
      std: 0.001
    }
    bias_filler {
      type: "constant"
      value: 0
    }
  }
}
layer {
  name: "loss_bbox"
  type: "SmoothL1Loss"
  bottom: "bbox_pred"
  bottom: "bbox_targets"
  bottom: "bbox_inside_weights"
  bottom: "bbox_outside_weights"
  top: "loss_bbox"
  loss_weight: 1
}
layer {
  name: "feat"
  type: "InnerProduct"
  bottom: "fc7"
  top: "feat"
  param {
    lr_mult: 1
    decay_mult: 1
  }
  param {
    lr_mult: 2
    decay_mult: 0
  }
  inner_product_param {
    num_output: 256
    weight_filler {
      type: "gaussian"
      std: 0.01
    }
    bias_filler {
      type: "constant"
      value: 0
    }
  }
}
layer {
  name: "relu8"
  type: "ReLU"
  bottom: "feat"
  top: "feat"
}
layer {
  name: "drop8"
  type: "Dropout"
  bottom: "feat"
  top: "feat"
  dropout_param {
    dropout_ratio: 0.5
  }
}
layer {
  name: "pid_score"
  type: "InnerProduct"
  bottom: "feat"
  top: "pid_score"
  param {
    lr_mult: 1
    decay_mult: 1
  }
  param {
    lr_mult: 2
    decay_mult: 0
  }
  inner_product_param {
    num_output: 5533
    weight_filler {
      type: "gaussian"
      std: 0.001
    }
    bias_filler {
      type: "constant"
      value: 0
    }
  }
}
layer {
  name: "pid_accuracy"
  type: "Accuracy"
  bottom: "pid_score"
  bottom: "pid_label"
  top: "pid_accuracy"
  accuracy_param {
    ignore_label: -1
  }
}
I0413 18:40:46.041906 13759 layer_factory.hpp:77] Creating layer input
I0413 18:40:46.043715 13759 net.cpp:100] Creating Layer input
I0413 18:40:46.043750 13759 net.cpp:408] input -> input_data
I0413 18:40:46.043768 13759 net.cpp:408] input -> input_im_info
I0413 18:40:46.043781 13759 net.cpp:408] input -> input_gt_boxes
I0413 18:40:46.043792 13759 net.cpp:408] input -> input_ignored_boxes
RoiDataLayer: name_to_top: {'ignored_boxes': 3, 'im_info': 1, 'gt_boxes': 2, 'data': 0}
I0413 18:40:46.365522 13759 net.cpp:150] Setting up input
I0413 18:40:46.365556 13759 net.cpp:157] Top shape: 1 3 1000 1500 (4500000)
I0413 18:40:46.365567 13759 net.cpp:157] Top shape: 1 3 (3)
I0413 18:40:46.365578 13759 net.cpp:157] Top shape: 1 5 (5)
I0413 18:40:46.365589 13759 net.cpp:157] Top shape: 1 5 (5)
I0413 18:40:46.365597 13759 net.cpp:165] Memory required for data: 18000052
I0413 18:40:46.365607 13759 layer_factory.hpp:77] Creating layer input_data_input_0_split
I0413 18:40:46.365623 13759 net.cpp:100] Creating Layer input_data_input_0_split
I0413 18:40:46.365631 13759 net.cpp:434] input_data_input_0_split <- input_data
I0413 18:40:46.365643 13759 net.cpp:408] input_data_input_0_split -> input_data_input_0_split_0
I0413 18:40:46.365663 13759 net.cpp:408] input_data_input_0_split -> input_data_input_0_split_1
I0413 18:40:46.365716 13759 net.cpp:150] Setting up input_data_input_0_split
I0413 18:40:46.365727 13759 net.cpp:157] Top shape: 1 3 1000 1500 (4500000)
I0413 18:40:46.365737 13759 net.cpp:157] Top shape: 1 3 1000 1500 (4500000)
I0413 18:40:46.365744 13759 net.cpp:165] Memory required for data: 54000052
I0413 18:40:46.365749 13759 layer_factory.hpp:77] Creating layer input_im_info_input_1_split
I0413 18:40:46.365759 13759 net.cpp:100] Creating Layer input_im_info_input_1_split
I0413 18:40:46.365767 13759 net.cpp:434] input_im_info_input_1_split <- input_im_info
I0413 18:40:46.365778 13759 net.cpp:408] input_im_info_input_1_split -> input_im_info_input_1_split_0
I0413 18:40:46.365790 13759 net.cpp:408] input_im_info_input_1_split -> input_im_info_input_1_split_1
I0413 18:40:46.365835 13759 net.cpp:150] Setting up input_im_info_input_1_split
I0413 18:40:46.365845 13759 net.cpp:157] Top shape: 1 3 (3)
I0413 18:40:46.365852 13759 net.cpp:157] Top shape: 1 3 (3)
I0413 18:40:46.365859 13759 net.cpp:165] Memory required for data: 54000076
I0413 18:40:46.365864 13759 layer_factory.hpp:77] Creating layer input_gt_boxes_input_2_split
I0413 18:40:46.365872 13759 net.cpp:100] Creating Layer input_gt_boxes_input_2_split
I0413 18:40:46.365878 13759 net.cpp:434] input_gt_boxes_input_2_split <- input_gt_boxes
I0413 18:40:46.365888 13759 net.cpp:408] input_gt_boxes_input_2_split -> input_gt_boxes_input_2_split_0
I0413 18:40:46.365901 13759 net.cpp:408] input_gt_boxes_input_2_split -> input_gt_boxes_input_2_split_1
I0413 18:40:46.365943 13759 net.cpp:150] Setting up input_gt_boxes_input_2_split
I0413 18:40:46.365954 13759 net.cpp:157] Top shape: 1 5 (5)
I0413 18:40:46.365962 13759 net.cpp:157] Top shape: 1 5 (5)
I0413 18:40:46.365967 13759 net.cpp:165] Memory required for data: 54000116
I0413 18:40:46.365972 13759 layer_factory.hpp:77] Creating layer conv1_1
I0413 18:40:46.365988 13759 net.cpp:100] Creating Layer conv1_1
I0413 18:40:46.365995 13759 net.cpp:434] conv1_1 <- input_data_input_0_split_0
I0413 18:40:46.366006 13759 net.cpp:408] conv1_1 -> conv1_1
I0413 18:40:46.369238 13759 net.cpp:150] Setting up conv1_1
I0413 18:40:46.369276 13759 net.cpp:157] Top shape: 1 64 1000 1500 (96000000)
I0413 18:40:46.369279 13759 net.cpp:165] Memory required for data: 438000116
I0413 18:40:46.369305 13759 layer_factory.hpp:77] Creating layer relu1_1
I0413 18:40:46.369321 13759 net.cpp:100] Creating Layer relu1_1
I0413 18:40:46.369330 13759 net.cpp:434] relu1_1 <- conv1_1
I0413 18:40:46.369341 13759 net.cpp:395] relu1_1 -> conv1_1 (in-place)
I0413 18:40:46.369356 13759 net.cpp:150] Setting up relu1_1
I0413 18:40:46.369365 13759 net.cpp:157] Top shape: 1 64 1000 1500 (96000000)
I0413 18:40:46.369371 13759 net.cpp:165] Memory required for data: 822000116
I0413 18:40:46.369377 13759 layer_factory.hpp:77] Creating layer conv1_2
I0413 18:40:46.369391 13759 net.cpp:100] Creating Layer conv1_2
I0413 18:40:46.369398 13759 net.cpp:434] conv1_2 <- conv1_1
I0413 18:40:46.369410 13759 net.cpp:408] conv1_2 -> conv1_2
I0413 18:40:46.372696 13759 net.cpp:150] Setting up conv1_2
I0413 18:40:46.372733 13759 net.cpp:157] Top shape: 1 64 1000 1500 (96000000)
I0413 18:40:46.372737 13759 net.cpp:165] Memory required for data: 1206000116
I0413 18:40:46.372758 13759 layer_factory.hpp:77] Creating layer relu1_2
I0413 18:40:46.372778 13759 net.cpp:100] Creating Layer relu1_2
I0413 18:40:46.372788 13759 net.cpp:434] relu1_2 <- conv1_2
I0413 18:40:46.372800 13759 net.cpp:395] relu1_2 -> conv1_2 (in-place)
I0413 18:40:46.372815 13759 net.cpp:150] Setting up relu1_2
I0413 18:40:46.372824 13759 net.cpp:157] Top shape: 1 64 1000 1500 (96000000)
I0413 18:40:46.372829 13759 net.cpp:165] Memory required for data: 1590000116
I0413 18:40:46.372834 13759 layer_factory.hpp:77] Creating layer pool1
I0413 18:40:46.372846 13759 net.cpp:100] Creating Layer pool1
I0413 18:40:46.372854 13759 net.cpp:434] pool1 <- conv1_2
I0413 18:40:46.372865 13759 net.cpp:408] pool1 -> pool1
I0413 18:40:46.372968 13759 net.cpp:150] Setting up pool1
I0413 18:40:46.372980 13759 net.cpp:157] Top shape: 1 64 500 750 (24000000)
I0413 18:40:46.372985 13759 net.cpp:165] Memory required for data: 1686000116
I0413 18:40:46.372990 13759 layer_factory.hpp:77] Creating layer conv2_1
I0413 18:40:46.373008 13759 net.cpp:100] Creating Layer conv2_1
I0413 18:40:46.373014 13759 net.cpp:434] conv2_1 <- pool1
I0413 18:40:46.373026 13759 net.cpp:408] conv2_1 -> conv2_1
I0413 18:40:46.374361 13759 net.cpp:150] Setting up conv2_1
I0413 18:40:46.374383 13759 net.cpp:157] Top shape: 1 128 500 750 (48000000)
I0413 18:40:46.374387 13759 net.cpp:165] Memory required for data: 1878000116
I0413 18:40:46.374402 13759 layer_factory.hpp:77] Creating layer relu2_1
I0413 18:40:46.374415 13759 net.cpp:100] Creating Layer relu2_1
I0413 18:40:46.374423 13759 net.cpp:434] relu2_1 <- conv2_1
I0413 18:40:46.374434 13759 net.cpp:395] relu2_1 -> conv2_1 (in-place)
I0413 18:40:46.374447 13759 net.cpp:150] Setting up relu2_1
I0413 18:40:46.374456 13759 net.cpp:157] Top shape: 1 128 500 750 (48000000)
I0413 18:40:46.374461 13759 net.cpp:165] Memory required for data: 2070000116
I0413 18:40:46.374466 13759 layer_factory.hpp:77] Creating layer conv2_2
I0413 18:40:46.374477 13759 net.cpp:100] Creating Layer conv2_2
I0413 18:40:46.374485 13759 net.cpp:434] conv2_2 <- conv2_1
I0413 18:40:46.374497 13759 net.cpp:408] conv2_2 -> conv2_2
I0413 18:40:46.375524 13759 net.cpp:150] Setting up conv2_2
I0413 18:40:46.375545 13759 net.cpp:157] Top shape: 1 128 500 750 (48000000)
I0413 18:40:46.375550 13759 net.cpp:165] Memory required for data: 2262000116
I0413 18:40:46.375560 13759 layer_factory.hpp:77] Creating layer relu2_2
I0413 18:40:46.375576 13759 net.cpp:100] Creating Layer relu2_2
I0413 18:40:46.375583 13759 net.cpp:434] relu2_2 <- conv2_2
I0413 18:40:46.375593 13759 net.cpp:395] relu2_2 -> conv2_2 (in-place)
I0413 18:40:46.375605 13759 net.cpp:150] Setting up relu2_2
I0413 18:40:46.375614 13759 net.cpp:157] Top shape: 1 128 500 750 (48000000)
I0413 18:40:46.375622 13759 net.cpp:165] Memory required for data: 2454000116
I0413 18:40:46.375627 13759 layer_factory.hpp:77] Creating layer pool2
I0413 18:40:46.375636 13759 net.cpp:100] Creating Layer pool2
I0413 18:40:46.375643 13759 net.cpp:434] pool2 <- conv2_2
I0413 18:40:46.375650 13759 net.cpp:408] pool2 -> pool2
I0413 18:40:46.375710 13759 net.cpp:150] Setting up pool2
I0413 18:40:46.375720 13759 net.cpp:157] Top shape: 1 128 250 375 (12000000)
I0413 18:40:46.375726 13759 net.cpp:165] Memory required for data: 2502000116
I0413 18:40:46.375731 13759 layer_factory.hpp:77] Creating layer conv3_1
I0413 18:40:46.375746 13759 net.cpp:100] Creating Layer conv3_1
I0413 18:40:46.375753 13759 net.cpp:434] conv3_1 <- pool2
I0413 18:40:46.375763 13759 net.cpp:408] conv3_1 -> conv3_1
I0413 18:40:46.377001 13759 net.cpp:150] Setting up conv3_1
I0413 18:40:46.377027 13759 net.cpp:157] Top shape: 1 256 250 375 (24000000)
I0413 18:40:46.377029 13759 net.cpp:165] Memory required for data: 2598000116
I0413 18:40:46.377049 13759 layer_factory.hpp:77] Creating layer relu3_1
I0413 18:40:46.377063 13759 net.cpp:100] Creating Layer relu3_1
I0413 18:40:46.377071 13759 net.cpp:434] relu3_1 <- conv3_1
I0413 18:40:46.377080 13759 net.cpp:395] relu3_1 -> conv3_1 (in-place)
I0413 18:40:46.377095 13759 net.cpp:150] Setting up relu3_1
I0413 18:40:46.377104 13759 net.cpp:157] Top shape: 1 256 250 375 (24000000)
I0413 18:40:46.377109 13759 net.cpp:165] Memory required for data: 2694000116
I0413 18:40:46.377115 13759 layer_factory.hpp:77] Creating layer conv3_2
I0413 18:40:46.377133 13759 net.cpp:100] Creating Layer conv3_2
I0413 18:40:46.377141 13759 net.cpp:434] conv3_2 <- conv3_1
I0413 18:40:46.377151 13759 net.cpp:408] conv3_2 -> conv3_2
I0413 18:40:46.378456 13759 net.cpp:150] Setting up conv3_2
I0413 18:40:46.378481 13759 net.cpp:157] Top shape: 1 256 250 375 (24000000)
I0413 18:40:46.378484 13759 net.cpp:165] Memory required for data: 2790000116
I0413 18:40:46.378496 13759 layer_factory.hpp:77] Creating layer relu3_2
I0413 18:40:46.378509 13759 net.cpp:100] Creating Layer relu3_2
I0413 18:40:46.378517 13759 net.cpp:434] relu3_2 <- conv3_2
I0413 18:40:46.378530 13759 net.cpp:395] relu3_2 -> conv3_2 (in-place)
I0413 18:40:46.378542 13759 net.cpp:150] Setting up relu3_2
I0413 18:40:46.378551 13759 net.cpp:157] Top shape: 1 256 250 375 (24000000)
I0413 18:40:46.378557 13759 net.cpp:165] Memory required for data: 2886000116
I0413 18:40:46.378562 13759 layer_factory.hpp:77] Creating layer conv3_3
I0413 18:40:46.378573 13759 net.cpp:100] Creating Layer conv3_3
I0413 18:40:46.378581 13759 net.cpp:434] conv3_3 <- conv3_2
I0413 18:40:46.378592 13759 net.cpp:408] conv3_3 -> conv3_3
I0413 18:40:46.380352 13759 net.cpp:150] Setting up conv3_3
I0413 18:40:46.380385 13759 net.cpp:157] Top shape: 1 256 250 375 (24000000)
I0413 18:40:46.380389 13759 net.cpp:165] Memory required for data: 2982000116
I0413 18:40:46.380400 13759 layer_factory.hpp:77] Creating layer relu3_3
I0413 18:40:46.380409 13759 net.cpp:100] Creating Layer relu3_3
I0413 18:40:46.380414 13759 net.cpp:434] relu3_3 <- conv3_3
I0413 18:40:46.380424 13759 net.cpp:395] relu3_3 -> conv3_3 (in-place)
I0413 18:40:46.380434 13759 net.cpp:150] Setting up relu3_3
I0413 18:40:46.380440 13759 net.cpp:157] Top shape: 1 256 250 375 (24000000)
I0413 18:40:46.380444 13759 net.cpp:165] Memory required for data: 3078000116
I0413 18:40:46.380446 13759 layer_factory.hpp:77] Creating layer pool3
I0413 18:40:46.380453 13759 net.cpp:100] Creating Layer pool3
I0413 18:40:46.380456 13759 net.cpp:434] pool3 <- conv3_3
I0413 18:40:46.380461 13759 net.cpp:408] pool3 -> pool3
I0413 18:40:46.380504 13759 net.cpp:150] Setting up pool3
I0413 18:40:46.380512 13759 net.cpp:157] Top shape: 1 256 125 188 (6016000)
I0413 18:40:46.380515 13759 net.cpp:165] Memory required for data: 3102064116
I0413 18:40:46.380518 13759 layer_factory.hpp:77] Creating layer conv4_1
I0413 18:40:46.380528 13759 net.cpp:100] Creating Layer conv4_1
I0413 18:40:46.380533 13759 net.cpp:434] conv4_1 <- pool3
I0413 18:40:46.380539 13759 net.cpp:408] conv4_1 -> conv4_1
I0413 18:40:46.383312 13759 net.cpp:150] Setting up conv4_1
I0413 18:40:46.383345 13759 net.cpp:157] Top shape: 1 512 125 188 (12032000)
I0413 18:40:46.383349 13759 net.cpp:165] Memory required for data: 3150192116
I0413 18:40:46.383361 13759 layer_factory.hpp:77] Creating layer relu4_1
I0413 18:40:46.383376 13759 net.cpp:100] Creating Layer relu4_1
I0413 18:40:46.383386 13759 net.cpp:434] relu4_1 <- conv4_1
I0413 18:40:46.383399 13759 net.cpp:395] relu4_1 -> conv4_1 (in-place)
I0413 18:40:46.383414 13759 net.cpp:150] Setting up relu4_1
I0413 18:40:46.383430 13759 net.cpp:157] Top shape: 1 512 125 188 (12032000)
I0413 18:40:46.383443 13759 net.cpp:165] Memory required for data: 3198320116
I0413 18:40:46.383448 13759 layer_factory.hpp:77] Creating layer conv4_2
I0413 18:40:46.383462 13759 net.cpp:100] Creating Layer conv4_2
I0413 18:40:46.383468 13759 net.cpp:434] conv4_2 <- conv4_1
I0413 18:40:46.383477 13759 net.cpp:408] conv4_2 -> conv4_2
I0413 18:40:46.387760 13759 net.cpp:150] Setting up conv4_2
I0413 18:40:46.387799 13759 net.cpp:157] Top shape: 1 512 125 188 (12032000)
I0413 18:40:46.387801 13759 net.cpp:165] Memory required for data: 3246448116
I0413 18:40:46.387825 13759 layer_factory.hpp:77] Creating layer relu4_2
I0413 18:40:46.387842 13759 net.cpp:100] Creating Layer relu4_2
I0413 18:40:46.387852 13759 net.cpp:434] relu4_2 <- conv4_2
I0413 18:40:46.387863 13759 net.cpp:395] relu4_2 -> conv4_2 (in-place)
I0413 18:40:46.387878 13759 net.cpp:150] Setting up relu4_2
I0413 18:40:46.387887 13759 net.cpp:157] Top shape: 1 512 125 188 (12032000)
I0413 18:40:46.387892 13759 net.cpp:165] Memory required for data: 3294576116
I0413 18:40:46.387898 13759 layer_factory.hpp:77] Creating layer conv4_3
I0413 18:40:46.387913 13759 net.cpp:100] Creating Layer conv4_3
I0413 18:40:46.387920 13759 net.cpp:434] conv4_3 <- conv4_2
I0413 18:40:46.387933 13759 net.cpp:408] conv4_3 -> conv4_3
I0413 18:40:46.392251 13759 net.cpp:150] Setting up conv4_3
I0413 18:40:46.392288 13759 net.cpp:157] Top shape: 1 512 125 188 (12032000)
I0413 18:40:46.392292 13759 net.cpp:165] Memory required for data: 3342704116
I0413 18:40:46.392305 13759 layer_factory.hpp:77] Creating layer relu4_3
I0413 18:40:46.392318 13759 net.cpp:100] Creating Layer relu4_3
I0413 18:40:46.392328 13759 net.cpp:434] relu4_3 <- conv4_3
I0413 18:40:46.392343 13759 net.cpp:395] relu4_3 -> conv4_3 (in-place)
I0413 18:40:46.392357 13759 net.cpp:150] Setting up relu4_3
I0413 18:40:46.392366 13759 net.cpp:157] Top shape: 1 512 125 188 (12032000)
I0413 18:40:46.392372 13759 net.cpp:165] Memory required for data: 3390832116
I0413 18:40:46.392377 13759 layer_factory.hpp:77] Creating layer pool4
I0413 18:40:46.392387 13759 net.cpp:100] Creating Layer pool4
I0413 18:40:46.392395 13759 net.cpp:434] pool4 <- conv4_3
I0413 18:40:46.392405 13759 net.cpp:408] pool4 -> pool4
I0413 18:40:46.392454 13759 net.cpp:150] Setting up pool4
I0413 18:40:46.392467 13759 net.cpp:157] Top shape: 1 512 63 94 (3032064)
I0413 18:40:46.392474 13759 net.cpp:165] Memory required for data: 3402960372
I0413 18:40:46.392479 13759 layer_factory.hpp:77] Creating layer conv5_1
I0413 18:40:46.392494 13759 net.cpp:100] Creating Layer conv5_1
I0413 18:40:46.392503 13759 net.cpp:434] conv5_1 <- pool4
I0413 18:40:46.392516 13759 net.cpp:408] conv5_1 -> conv5_1
I0413 18:40:46.397275 13759 net.cpp:150] Setting up conv5_1
I0413 18:40:46.397305 13759 net.cpp:157] Top shape: 1 512 63 94 (3032064)
I0413 18:40:46.397310 13759 net.cpp:165] Memory required for data: 3415088628
I0413 18:40:46.397325 13759 layer_factory.hpp:77] Creating layer relu5_1
I0413 18:40:46.397341 13759 net.cpp:100] Creating Layer relu5_1
I0413 18:40:46.397349 13759 net.cpp:434] relu5_1 <- conv5_1
I0413 18:40:46.397362 13759 net.cpp:395] relu5_1 -> conv5_1 (in-place)
I0413 18:40:46.397377 13759 net.cpp:150] Setting up relu5_1
I0413 18:40:46.397387 13759 net.cpp:157] Top shape: 1 512 63 94 (3032064)
I0413 18:40:46.397392 13759 net.cpp:165] Memory required for data: 3427216884
I0413 18:40:46.397398 13759 layer_factory.hpp:77] Creating layer conv5_2
I0413 18:40:46.397411 13759 net.cpp:100] Creating Layer conv5_2
I0413 18:40:46.397418 13759 net.cpp:434] conv5_2 <- conv5_1
I0413 18:40:46.397428 13759 net.cpp:408] conv5_2 -> conv5_2
I0413 18:40:46.401839 13759 net.cpp:150] Setting up conv5_2
I0413 18:40:46.401873 13759 net.cpp:157] Top shape: 1 512 63 94 (3032064)
I0413 18:40:46.401876 13759 net.cpp:165] Memory required for data: 3439345140
I0413 18:40:46.401890 13759 layer_factory.hpp:77] Creating layer relu5_2
I0413 18:40:46.401904 13759 net.cpp:100] Creating Layer relu5_2
I0413 18:40:46.401919 13759 net.cpp:434] relu5_2 <- conv5_2
I0413 18:40:46.401934 13759 net.cpp:395] relu5_2 -> conv5_2 (in-place)
I0413 18:40:46.401949 13759 net.cpp:150] Setting up relu5_2
I0413 18:40:46.401958 13759 net.cpp:157] Top shape: 1 512 63 94 (3032064)
I0413 18:40:46.401964 13759 net.cpp:165] Memory required for data: 3451473396
I0413 18:40:46.401970 13759 layer_factory.hpp:77] Creating layer conv5_3
I0413 18:40:46.401993 13759 net.cpp:100] Creating Layer conv5_3
I0413 18:40:46.402001 13759 net.cpp:434] conv5_3 <- conv5_2
I0413 18:40:46.402012 13759 net.cpp:408] conv5_3 -> conv5_3
I0413 18:40:46.406483 13759 net.cpp:150] Setting up conv5_3
I0413 18:40:46.406515 13759 net.cpp:157] Top shape: 1 512 63 94 (3032064)
I0413 18:40:46.406518 13759 net.cpp:165] Memory required for data: 3463601652
I0413 18:40:46.406533 13759 layer_factory.hpp:77] Creating layer relu5_3
I0413 18:40:46.406548 13759 net.cpp:100] Creating Layer relu5_3
I0413 18:40:46.406558 13759 net.cpp:434] relu5_3 <- conv5_3
I0413 18:40:46.406571 13759 net.cpp:395] relu5_3 -> conv5_3 (in-place)
I0413 18:40:46.406586 13759 net.cpp:150] Setting up relu5_3
I0413 18:40:46.406595 13759 net.cpp:157] Top shape: 1 512 63 94 (3032064)
I0413 18:40:46.406601 13759 net.cpp:165] Memory required for data: 3475729908
I0413 18:40:46.406607 13759 layer_factory.hpp:77] Creating layer conv5_3_relu5_3_0_split
I0413 18:40:46.406615 13759 net.cpp:100] Creating Layer conv5_3_relu5_3_0_split
I0413 18:40:46.406621 13759 net.cpp:434] conv5_3_relu5_3_0_split <- conv5_3
I0413 18:40:46.406632 13759 net.cpp:408] conv5_3_relu5_3_0_split -> conv5_3_relu5_3_0_split_0
I0413 18:40:46.406644 13759 net.cpp:408] conv5_3_relu5_3_0_split -> conv5_3_relu5_3_0_split_1
I0413 18:40:46.406692 13759 net.cpp:150] Setting up conv5_3_relu5_3_0_split
I0413 18:40:46.406703 13759 net.cpp:157] Top shape: 1 512 63 94 (3032064)
I0413 18:40:46.406711 13759 net.cpp:157] Top shape: 1 512 63 94 (3032064)
I0413 18:40:46.406718 13759 net.cpp:165] Memory required for data: 3499986420
I0413 18:40:46.406723 13759 layer_factory.hpp:77] Creating layer rpn_big_conv1
I0413 18:40:46.406741 13759 net.cpp:100] Creating Layer rpn_big_conv1
I0413 18:40:46.406749 13759 net.cpp:434] rpn_big_conv1 <- conv5_3_relu5_3_0_split_0
I0413 18:40:46.406759 13759 net.cpp:408] rpn_big_conv1 -> rpn_big_conv1
I0413 18:40:46.431877 13759 net.cpp:150] Setting up rpn_big_conv1
I0413 18:40:46.431907 13759 net.cpp:157] Top shape: 1 512 63 94 (3032064)
I0413 18:40:46.431921 13759 net.cpp:165] Memory required for data: 3512114676
I0413 18:40:46.431932 13759 layer_factory.hpp:77] Creating layer rpn_big_conv1_relu
I0413 18:40:46.431942 13759 net.cpp:100] Creating Layer rpn_big_conv1_relu
I0413 18:40:46.431948 13759 net.cpp:434] rpn_big_conv1_relu <- rpn_big_conv1
I0413 18:40:46.431962 13759 net.cpp:395] rpn_big_conv1_relu -> rpn_big_conv1 (in-place)
I0413 18:40:46.431977 13759 net.cpp:150] Setting up rpn_big_conv1_relu
I0413 18:40:46.431987 13759 net.cpp:157] Top shape: 1 512 63 94 (3032064)
I0413 18:40:46.431991 13759 net.cpp:165] Memory required for data: 3524242932
I0413 18:40:46.431996 13759 layer_factory.hpp:77] Creating layer rpn_big_conv2
I0413 18:40:46.432013 13759 net.cpp:100] Creating Layer rpn_big_conv2
I0413 18:40:46.432019 13759 net.cpp:434] rpn_big_conv2 <- rpn_big_conv1
I0413 18:40:46.432029 13759 net.cpp:408] rpn_big_conv2 -> rpn_big_conv2
I0413 18:40:46.457341 13759 net.cpp:150] Setting up rpn_big_conv2
I0413 18:40:46.457368 13759 net.cpp:157] Top shape: 1 512 63 94 (3032064)
I0413 18:40:46.457381 13759 net.cpp:165] Memory required for data: 3536371188
I0413 18:40:46.457392 13759 layer_factory.hpp:77] Creating layer rpn_big_conv2_relu
I0413 18:40:46.457402 13759 net.cpp:100] Creating Layer rpn_big_conv2_relu
I0413 18:40:46.457409 13759 net.cpp:434] rpn_big_conv2_relu <- rpn_big_conv2
I0413 18:40:46.457420 13759 net.cpp:395] rpn_big_conv2_relu -> rpn_big_conv2 (in-place)
I0413 18:40:46.457435 13759 net.cpp:150] Setting up rpn_big_conv2_relu
I0413 18:40:46.457443 13759 net.cpp:157] Top shape: 1 512 63 94 (3032064)
I0413 18:40:46.457448 13759 net.cpp:165] Memory required for data: 3548499444
I0413 18:40:46.457454 13759 layer_factory.hpp:77] Creating layer rpn_big_conv2_drop
I0413 18:40:46.457466 13759 net.cpp:100] Creating Layer rpn_big_conv2_drop
I0413 18:40:46.457473 13759 net.cpp:434] rpn_big_conv2_drop <- rpn_big_conv2
I0413 18:40:46.457481 13759 net.cpp:395] rpn_big_conv2_drop -> rpn_big_conv2 (in-place)
I0413 18:40:46.457515 13759 net.cpp:150] Setting up rpn_big_conv2_drop
I0413 18:40:46.457525 13759 net.cpp:157] Top shape: 1 512 63 94 (3032064)
I0413 18:40:46.457530 13759 net.cpp:165] Memory required for data: 3560627700
I0413 18:40:46.457536 13759 layer_factory.hpp:77] Creating layer rpn_big_conv2_rpn_big_conv2_drop_0_split
I0413 18:40:46.457545 13759 net.cpp:100] Creating Layer rpn_big_conv2_rpn_big_conv2_drop_0_split
I0413 18:40:46.457551 13759 net.cpp:434] rpn_big_conv2_rpn_big_conv2_drop_0_split <- rpn_big_conv2
I0413 18:40:46.457561 13759 net.cpp:408] rpn_big_conv2_rpn_big_conv2_drop_0_split -> rpn_big_conv2_rpn_big_conv2_drop_0_split_0
I0413 18:40:46.457571 13759 net.cpp:408] rpn_big_conv2_rpn_big_conv2_drop_0_split -> rpn_big_conv2_rpn_big_conv2_drop_0_split_1
I0413 18:40:46.457628 13759 net.cpp:150] Setting up rpn_big_conv2_rpn_big_conv2_drop_0_split
I0413 18:40:46.457638 13759 net.cpp:157] Top shape: 1 512 63 94 (3032064)
I0413 18:40:46.457645 13759 net.cpp:157] Top shape: 1 512 63 94 (3032064)
I0413 18:40:46.457650 13759 net.cpp:165] Memory required for data: 3584884212
I0413 18:40:46.457655 13759 layer_factory.hpp:77] Creating layer rpn_big_output_cls
I0413 18:40:46.457671 13759 net.cpp:100] Creating Layer rpn_big_output_cls
I0413 18:40:46.457677 13759 net.cpp:434] rpn_big_output_cls <- rpn_big_conv2_rpn_big_conv2_drop_0_split_0
I0413 18:40:46.457690 13759 net.cpp:408] rpn_big_output_cls -> rpn_big_output_cls
I0413 18:40:46.476950 13759 net.cpp:150] Setting up rpn_big_output_cls
I0413 18:40:46.476987 13759 net.cpp:157] Top shape: 1 384 63 94 (2274048)
I0413 18:40:46.477000 13759 net.cpp:165] Memory required for data: 3593980404
I0413 18:40:46.477012 13759 layer_factory.hpp:77] Creating layer rpn_big_output_cls_relu
I0413 18:40:46.477025 13759 net.cpp:100] Creating Layer rpn_big_output_cls_relu
I0413 18:40:46.477033 13759 net.cpp:434] rpn_big_output_cls_relu <- rpn_big_output_cls
I0413 18:40:46.477047 13759 net.cpp:395] rpn_big_output_cls_relu -> rpn_big_output_cls (in-place)
I0413 18:40:46.477063 13759 net.cpp:150] Setting up rpn_big_output_cls_relu
I0413 18:40:46.477072 13759 net.cpp:157] Top shape: 1 384 63 94 (2274048)
I0413 18:40:46.477077 13759 net.cpp:165] Memory required for data: 3603076596
I0413 18:40:46.477082 13759 layer_factory.hpp:77] Creating layer rpn_big_cls_score
I0413 18:40:46.477098 13759 net.cpp:100] Creating Layer rpn_big_cls_score
I0413 18:40:46.477107 13759 net.cpp:434] rpn_big_cls_score <- rpn_big_output_cls
I0413 18:40:46.477118 13759 net.cpp:408] rpn_big_cls_score -> rpn_big_cls_score
I0413 18:40:46.479533 13759 net.cpp:150] Setting up rpn_big_cls_score
I0413 18:40:46.479552 13759 net.cpp:157] Top shape: 1 52 61 92 (291824)
I0413 18:40:46.479555 13759 net.cpp:165] Memory required for data: 3604243892
I0413 18:40:46.479575 13759 layer_factory.hpp:77] Creating layer rpn_big_cls_score_rpn_big_cls_score_0_split
I0413 18:40:46.479588 13759 net.cpp:100] Creating Layer rpn_big_cls_score_rpn_big_cls_score_0_split
I0413 18:40:46.479595 13759 net.cpp:434] rpn_big_cls_score_rpn_big_cls_score_0_split <- rpn_big_cls_score
I0413 18:40:46.479604 13759 net.cpp:408] rpn_big_cls_score_rpn_big_cls_score_0_split -> rpn_big_cls_score_rpn_big_cls_score_0_split_0
I0413 18:40:46.479612 13759 net.cpp:408] rpn_big_cls_score_rpn_big_cls_score_0_split -> rpn_big_cls_score_rpn_big_cls_score_0_split_1
I0413 18:40:46.479646 13759 net.cpp:150] Setting up rpn_big_cls_score_rpn_big_cls_score_0_split
I0413 18:40:46.479655 13759 net.cpp:157] Top shape: 1 52 61 92 (291824)
I0413 18:40:46.479660 13759 net.cpp:157] Top shape: 1 52 61 92 (291824)
I0413 18:40:46.479662 13759 net.cpp:165] Memory required for data: 3606578484
I0413 18:40:46.479666 13759 layer_factory.hpp:77] Creating layer rpn_big_cls_score_reshape
I0413 18:40:46.479673 13759 net.cpp:100] Creating Layer rpn_big_cls_score_reshape
I0413 18:40:46.479677 13759 net.cpp:434] rpn_big_cls_score_reshape <- rpn_big_cls_score_rpn_big_cls_score_0_split_0
I0413 18:40:46.479684 13759 net.cpp:408] rpn_big_cls_score_reshape -> rpn_big_cls_score_reshape
I0413 18:40:46.479707 13759 net.cpp:150] Setting up rpn_big_cls_score_reshape
I0413 18:40:46.479715 13759 net.cpp:157] Top shape: 1 2 1586 92 (291824)
I0413 18:40:46.479719 13759 net.cpp:165] Memory required for data: 3607745780
I0413 18:40:46.479722 13759 layer_factory.hpp:77] Creating layer rpn_big_cls_score_reshape_rpn_big_cls_score_reshape_0_split
I0413 18:40:46.479727 13759 net.cpp:100] Creating Layer rpn_big_cls_score_reshape_rpn_big_cls_score_reshape_0_split
I0413 18:40:46.479730 13759 net.cpp:434] rpn_big_cls_score_reshape_rpn_big_cls_score_reshape_0_split <- rpn_big_cls_score_reshape
I0413 18:40:46.479735 13759 net.cpp:408] rpn_big_cls_score_reshape_rpn_big_cls_score_reshape_0_split -> rpn_big_cls_score_reshape_rpn_big_cls_score_reshape_0_split_0
I0413 18:40:46.479743 13759 net.cpp:408] rpn_big_cls_score_reshape_rpn_big_cls_score_reshape_0_split -> rpn_big_cls_score_reshape_rpn_big_cls_score_reshape_0_split_1
I0413 18:40:46.479774 13759 net.cpp:150] Setting up rpn_big_cls_score_reshape_rpn_big_cls_score_reshape_0_split
I0413 18:40:46.479781 13759 net.cpp:157] Top shape: 1 2 1586 92 (291824)
I0413 18:40:46.479786 13759 net.cpp:157] Top shape: 1 2 1586 92 (291824)
I0413 18:40:46.479789 13759 net.cpp:165] Memory required for data: 3610080372
I0413 18:40:46.479792 13759 layer_factory.hpp:77] Creating layer rpn_big_cls_prob
I0413 18:40:46.479799 13759 net.cpp:100] Creating Layer rpn_big_cls_prob
I0413 18:40:46.479804 13759 net.cpp:434] rpn_big_cls_prob <- rpn_big_cls_score_reshape_rpn_big_cls_score_reshape_0_split_0
I0413 18:40:46.479809 13759 net.cpp:408] rpn_big_cls_prob -> rpn_big_cls_prob
I0413 18:40:46.479861 13759 net.cpp:150] Setting up rpn_big_cls_prob
I0413 18:40:46.479868 13759 net.cpp:157] Top shape: 1 2 1586 92 (291824)
I0413 18:40:46.479871 13759 net.cpp:165] Memory required for data: 3611247668
I0413 18:40:46.479876 13759 layer_factory.hpp:77] Creating layer rpn_big_cls_prob_reshape
I0413 18:40:46.479881 13759 net.cpp:100] Creating Layer rpn_big_cls_prob_reshape
I0413 18:40:46.479883 13759 net.cpp:434] rpn_big_cls_prob_reshape <- rpn_big_cls_prob
I0413 18:40:46.479888 13759 net.cpp:408] rpn_big_cls_prob_reshape -> rpn_big_cls_prob_reshape
I0413 18:40:46.479909 13759 net.cpp:150] Setting up rpn_big_cls_prob_reshape
I0413 18:40:46.479915 13759 net.cpp:157] Top shape: 1 52 61 92 (291824)
I0413 18:40:46.479918 13759 net.cpp:165] Memory required for data: 3612414964
I0413 18:40:46.479921 13759 layer_factory.hpp:77] Creating layer rpn_big_cls_prob_reshape_rpn_big_cls_prob_reshape_0_split
I0413 18:40:46.479928 13759 net.cpp:100] Creating Layer rpn_big_cls_prob_reshape_rpn_big_cls_prob_reshape_0_split
I0413 18:40:46.479930 13759 net.cpp:434] rpn_big_cls_prob_reshape_rpn_big_cls_prob_reshape_0_split <- rpn_big_cls_prob_reshape
I0413 18:40:46.479935 13759 net.cpp:408] rpn_big_cls_prob_reshape_rpn_big_cls_prob_reshape_0_split -> rpn_big_cls_prob_reshape_rpn_big_cls_prob_reshape_0_split_0
I0413 18:40:46.479941 13759 net.cpp:408] rpn_big_cls_prob_reshape_rpn_big_cls_prob_reshape_0_split -> rpn_big_cls_prob_reshape_rpn_big_cls_prob_reshape_0_split_1
I0413 18:40:46.479969 13759 net.cpp:150] Setting up rpn_big_cls_prob_reshape_rpn_big_cls_prob_reshape_0_split
I0413 18:40:46.479977 13759 net.cpp:157] Top shape: 1 52 61 92 (291824)
I0413 18:40:46.479982 13759 net.cpp:157] Top shape: 1 52 61 92 (291824)
I0413 18:40:46.479984 13759 net.cpp:165] Memory required for data: 3614749556
I0413 18:40:46.479988 13759 layer_factory.hpp:77] Creating layer rpn_big_anchor_target
I0413 18:40:46.481600 13759 net.cpp:100] Creating Layer rpn_big_anchor_target
I0413 18:40:46.481624 13759 net.cpp:434] rpn_big_anchor_target <- rpn_big_cls_score_rpn_big_cls_score_0_split_1
I0413 18:40:46.481636 13759 net.cpp:434] rpn_big_anchor_target <- input_gt_boxes_input_2_split_0
I0413 18:40:46.481643 13759 net.cpp:434] rpn_big_anchor_target <- input_ignored_boxes
I0413 18:40:46.481652 13759 net.cpp:434] rpn_big_anchor_target <- input_im_info_input_1_split_0
I0413 18:40:46.481659 13759 net.cpp:434] rpn_big_anchor_target <- input_data_input_0_split_1
I0413 18:40:46.481669 13759 net.cpp:434] rpn_big_anchor_target <- rpn_big_cls_prob_reshape_rpn_big_cls_prob_reshape_0_split_0
I0413 18:40:46.481683 13759 net.cpp:408] rpn_big_anchor_target -> rpn_big_anchor_target_labels
I0413 18:40:46.481699 13759 net.cpp:408] rpn_big_anchor_target -> rpn_big_anchor_target_bbox_targets
I0413 18:40:46.481714 13759 net.cpp:408] rpn_big_anchor_target -> rpn_big_anchor_target_inside_weights
I0413 18:40:46.481729 13759 net.cpp:408] rpn_big_anchor_target -> rpn_big_anchor_target_outside_weights
I0413 18:40:46.487439 13759 net.cpp:150] Setting up rpn_big_anchor_target
I0413 18:40:46.487464 13759 net.cpp:157] Top shape: 1 1 1586 92 (145912)
I0413 18:40:46.487478 13759 net.cpp:157] Top shape: 1 104 61 92 (583648)
I0413 18:40:46.487483 13759 net.cpp:157] Top shape: 1 104 61 92 (583648)
I0413 18:40:46.487486 13759 net.cpp:157] Top shape: 1 104 61 92 (583648)
I0413 18:40:46.487489 13759 net.cpp:165] Memory required for data: 3622336980
I0413 18:40:46.487494 13759 layer_factory.hpp:77] Creating layer rpn_big_loss_cls
I0413 18:40:46.487509 13759 net.cpp:100] Creating Layer rpn_big_loss_cls
I0413 18:40:46.487517 13759 net.cpp:434] rpn_big_loss_cls <- rpn_big_cls_score_reshape_rpn_big_cls_score_reshape_0_split_1
I0413 18:40:46.487536 13759 net.cpp:434] rpn_big_loss_cls <- rpn_big_anchor_target_labels
I0413 18:40:46.487548 13759 net.cpp:408] rpn_big_loss_cls -> rpn_big_loss_cls
I0413 18:40:46.487566 13759 layer_factory.hpp:77] Creating layer rpn_big_loss_cls
I0413 18:40:46.488309 13759 net.cpp:150] Setting up rpn_big_loss_cls
I0413 18:40:46.488322 13759 net.cpp:157] Top shape: (1)
I0413 18:40:46.488325 13759 net.cpp:160]     with loss weight 1
I0413 18:40:46.488346 13759 net.cpp:165] Memory required for data: 3622336984
I0413 18:40:46.488353 13759 layer_factory.hpp:77] Creating layer rpn_big_output_box
I0413 18:40:46.488370 13759 net.cpp:100] Creating Layer rpn_big_output_box
I0413 18:40:46.488379 13759 net.cpp:434] rpn_big_output_box <- rpn_big_conv2_rpn_big_conv2_drop_0_split_1
I0413 18:40:46.488395 13759 net.cpp:408] rpn_big_output_box -> rpn_big_output_box
I0413 18:40:46.507347 13759 net.cpp:150] Setting up rpn_big_output_box
I0413 18:40:46.507388 13759 net.cpp:157] Top shape: 1 384 63 94 (2274048)
I0413 18:40:46.507401 13759 net.cpp:165] Memory required for data: 3631433176
I0413 18:40:46.507414 13759 layer_factory.hpp:77] Creating layer rpn_big_output_box_relu
I0413 18:40:46.507426 13759 net.cpp:100] Creating Layer rpn_big_output_box_relu
I0413 18:40:46.507433 13759 net.cpp:434] rpn_big_output_box_relu <- rpn_big_output_box
I0413 18:40:46.507447 13759 net.cpp:395] rpn_big_output_box_relu -> rpn_big_output_box (in-place)
I0413 18:40:46.507463 13759 net.cpp:150] Setting up rpn_big_output_box_relu
I0413 18:40:46.507472 13759 net.cpp:157] Top shape: 1 384 63 94 (2274048)
I0413 18:40:46.507479 13759 net.cpp:165] Memory required for data: 3640529368
I0413 18:40:46.507484 13759 layer_factory.hpp:77] Creating layer rpn_big_bbox_pred
I0413 18:40:46.507501 13759 net.cpp:100] Creating Layer rpn_big_bbox_pred
I0413 18:40:46.507508 13759 net.cpp:434] rpn_big_bbox_pred <- rpn_big_output_box
I0413 18:40:46.507520 13759 net.cpp:408] rpn_big_bbox_pred -> rpn_big_bbox_pred
I0413 18:40:46.511762 13759 net.cpp:150] Setting up rpn_big_bbox_pred
I0413 18:40:46.511788 13759 net.cpp:157] Top shape: 1 104 61 92 (583648)
I0413 18:40:46.511792 13759 net.cpp:165] Memory required for data: 3642863960
I0413 18:40:46.511803 13759 layer_factory.hpp:77] Creating layer rpn_big_bbox_pred_rpn_big_bbox_pred_0_split
I0413 18:40:46.511816 13759 net.cpp:100] Creating Layer rpn_big_bbox_pred_rpn_big_bbox_pred_0_split
I0413 18:40:46.511831 13759 net.cpp:434] rpn_big_bbox_pred_rpn_big_bbox_pred_0_split <- rpn_big_bbox_pred
I0413 18:40:46.511844 13759 net.cpp:408] rpn_big_bbox_pred_rpn_big_bbox_pred_0_split -> rpn_big_bbox_pred_rpn_big_bbox_pred_0_split_0
I0413 18:40:46.511859 13759 net.cpp:408] rpn_big_bbox_pred_rpn_big_bbox_pred_0_split -> rpn_big_bbox_pred_rpn_big_bbox_pred_0_split_1
I0413 18:40:46.511910 13759 net.cpp:150] Setting up rpn_big_bbox_pred_rpn_big_bbox_pred_0_split
I0413 18:40:46.511922 13759 net.cpp:157] Top shape: 1 104 61 92 (583648)
I0413 18:40:46.511930 13759 net.cpp:157] Top shape: 1 104 61 92 (583648)
I0413 18:40:46.511935 13759 net.cpp:165] Memory required for data: 3647533144
I0413 18:40:46.511941 13759 layer_factory.hpp:77] Creating layer rpn_big_loss_bbox
I0413 18:40:46.512358 13759 net.cpp:100] Creating Layer rpn_big_loss_bbox
I0413 18:40:46.512368 13759 net.cpp:434] rpn_big_loss_bbox <- rpn_big_bbox_pred_rpn_big_bbox_pred_0_split_0
I0413 18:40:46.512375 13759 net.cpp:434] rpn_big_loss_bbox <- rpn_big_anchor_target_bbox_targets
I0413 18:40:46.512385 13759 net.cpp:434] rpn_big_loss_bbox <- rpn_big_anchor_target_inside_weights
I0413 18:40:46.512394 13759 net.cpp:434] rpn_big_loss_bbox <- rpn_big_anchor_target_outside_weights
I0413 18:40:46.512405 13759 net.cpp:408] rpn_big_loss_bbox -> rpn_big_loss_bbox
I0413 18:40:46.514415 13759 net.cpp:150] Setting up rpn_big_loss_bbox
I0413 18:40:46.514446 13759 net.cpp:157] Top shape: 1 (1)
I0413 18:40:46.514449 13759 net.cpp:160]     with loss weight 1
I0413 18:40:46.514463 13759 net.cpp:165] Memory required for data: 3647533148
I0413 18:40:46.514472 13759 layer_factory.hpp:77] Creating layer proposal
I0413 18:40:46.514922 13759 net.cpp:100] Creating Layer proposal
I0413 18:40:46.514933 13759 net.cpp:434] proposal <- rpn_big_cls_prob_reshape_rpn_big_cls_prob_reshape_0_split_1
I0413 18:40:46.514950 13759 net.cpp:434] proposal <- rpn_big_bbox_pred_rpn_big_bbox_pred_0_split_1
I0413 18:40:46.514955 13759 net.cpp:434] proposal <- input_im_info_input_1_split_1
I0413 18:40:46.514961 13759 net.cpp:408] proposal -> rpn_rois
I0413 18:40:46.519188 13759 net.cpp:150] Setting up proposal
I0413 18:40:46.519201 13759 net.cpp:157] Top shape: 1 5 (5)
I0413 18:40:46.519204 13759 net.cpp:165] Memory required for data: 3647533168
I0413 18:40:46.519217 13759 layer_factory.hpp:77] Creating layer roi-data
I0413 18:40:46.519567 13759 net.cpp:100] Creating Layer roi-data
I0413 18:40:46.519577 13759 net.cpp:434] roi-data <- rpn_rois
I0413 18:40:46.519583 13759 net.cpp:434] roi-data <- input_gt_boxes_input_2_split_1
I0413 18:40:46.519593 13759 net.cpp:408] roi-data -> rois
I0413 18:40:46.519608 13759 net.cpp:408] roi-data -> labels
I0413 18:40:46.519619 13759 net.cpp:408] roi-data -> bbox_targets
I0413 18:40:46.519631 13759 net.cpp:408] roi-data -> bbox_inside_weights
I0413 18:40:46.519644 13759 net.cpp:408] roi-data -> bbox_outside_weights
I0413 18:40:46.519657 13759 net.cpp:408] roi-data -> pid_label
I0413 18:40:46.520740 13759 net.cpp:150] Setting up roi-data
I0413 18:40:46.520761 13759 net.cpp:157] Top shape: 1 5 (5)
I0413 18:40:46.520764 13759 net.cpp:157] Top shape: 1 1 (1)
I0413 18:40:46.520768 13759 net.cpp:157] Top shape: 1 8 (8)
I0413 18:40:46.520771 13759 net.cpp:157] Top shape: 1 8 (8)
I0413 18:40:46.520776 13759 net.cpp:157] Top shape: 1 8 (8)
I0413 18:40:46.520779 13759 net.cpp:157] Top shape: (0)
I0413 18:40:46.520781 13759 net.cpp:165] Memory required for data: 3647533288
I0413 18:40:46.520787 13759 layer_factory.hpp:77] Creating layer roi-pool
I0413 18:40:46.520795 13759 net.cpp:100] Creating Layer roi-pool
I0413 18:40:46.520802 13759 net.cpp:434] roi-pool <- conv5_3_relu5_3_0_split_1
I0413 18:40:46.520808 13759 net.cpp:434] roi-pool <- rois
I0413 18:40:46.520815 13759 net.cpp:408] roi-pool -> roi-pool
I0413 18:40:46.520825 13759 roi_pooling_layer.cpp:33] Spatial scale: 0.0625
I0413 18:40:46.520838 13759 roi_pooling_layer.cpp:34] Box scale: 1
I0413 18:40:46.520875 13759 net.cpp:150] Setting up roi-pool
I0413 18:40:46.520882 13759 net.cpp:157] Top shape: 1 512 7 7 (25088)
I0413 18:40:46.520886 13759 net.cpp:165] Memory required for data: 3647633640
I0413 18:40:46.520889 13759 layer_factory.hpp:77] Creating layer fc6
I0413 18:40:46.520897 13759 net.cpp:100] Creating Layer fc6
I0413 18:40:46.520911 13759 net.cpp:434] fc6 <- roi-pool
I0413 18:40:46.520921 13759 net.cpp:408] fc6 -> fc6
I0413 18:40:46.686910 13759 net.cpp:150] Setting up fc6
I0413 18:40:46.686956 13759 net.cpp:157] Top shape: 1 4096 (4096)
I0413 18:40:46.686962 13759 net.cpp:165] Memory required for data: 3647650024
I0413 18:40:46.686975 13759 layer_factory.hpp:77] Creating layer relu6
I0413 18:40:46.686986 13759 net.cpp:100] Creating Layer relu6
I0413 18:40:46.686991 13759 net.cpp:434] relu6 <- fc6
I0413 18:40:46.687000 13759 net.cpp:395] relu6 -> fc6 (in-place)
I0413 18:40:46.687013 13759 net.cpp:150] Setting up relu6
I0413 18:40:46.687022 13759 net.cpp:157] Top shape: 1 4096 (4096)
I0413 18:40:46.687027 13759 net.cpp:165] Memory required for data: 3647666408
I0413 18:40:46.687032 13759 layer_factory.hpp:77] Creating layer drop6
I0413 18:40:46.687043 13759 net.cpp:100] Creating Layer drop6
I0413 18:40:46.687052 13759 net.cpp:434] drop6 <- fc6
I0413 18:40:46.687060 13759 net.cpp:395] drop6 -> fc6 (in-place)
I0413 18:40:46.687108 13759 net.cpp:150] Setting up drop6
I0413 18:40:46.687119 13759 net.cpp:157] Top shape: 1 4096 (4096)
I0413 18:40:46.687124 13759 net.cpp:165] Memory required for data: 3647682792
I0413 18:40:46.687137 13759 layer_factory.hpp:77] Creating layer fc7
I0413 18:40:46.687149 13759 net.cpp:100] Creating Layer fc7
I0413 18:40:46.687155 13759 net.cpp:434] fc7 <- fc6
I0413 18:40:46.687162 13759 net.cpp:408] fc7 -> fc7
I0413 18:40:46.713825 13759 net.cpp:150] Setting up fc7
I0413 18:40:46.713861 13759 net.cpp:157] Top shape: 1 4096 (4096)
I0413 18:40:46.713876 13759 net.cpp:165] Memory required for data: 3647699176
I0413 18:40:46.713887 13759 layer_factory.hpp:77] Creating layer relu7
I0413 18:40:46.713909 13759 net.cpp:100] Creating Layer relu7
I0413 18:40:46.713917 13759 net.cpp:434] relu7 <- fc7
I0413 18:40:46.713928 13759 net.cpp:395] relu7 -> fc7 (in-place)
I0413 18:40:46.713943 13759 net.cpp:150] Setting up relu7
I0413 18:40:46.713953 13759 net.cpp:157] Top shape: 1 4096 (4096)
I0413 18:40:46.713959 13759 net.cpp:165] Memory required for data: 3647715560
I0413 18:40:46.713965 13759 layer_factory.hpp:77] Creating layer drop7
I0413 18:40:46.713976 13759 net.cpp:100] Creating Layer drop7
I0413 18:40:46.713984 13759 net.cpp:434] drop7 <- fc7
I0413 18:40:46.713990 13759 net.cpp:395] drop7 -> fc7 (in-place)
I0413 18:40:46.714021 13759 net.cpp:150] Setting up drop7
I0413 18:40:46.714031 13759 net.cpp:157] Top shape: 1 4096 (4096)
I0413 18:40:46.714036 13759 net.cpp:165] Memory required for data: 3647731944
I0413 18:40:46.714042 13759 layer_factory.hpp:77] Creating layer fc7_drop7_0_split
I0413 18:40:46.714051 13759 net.cpp:100] Creating Layer fc7_drop7_0_split
I0413 18:40:46.714058 13759 net.cpp:434] fc7_drop7_0_split <- fc7
I0413 18:40:46.714066 13759 net.cpp:408] fc7_drop7_0_split -> fc7_drop7_0_split_0
I0413 18:40:46.714092 13759 net.cpp:408] fc7_drop7_0_split -> fc7_drop7_0_split_1
I0413 18:40:46.714141 13759 net.cpp:150] Setting up fc7_drop7_0_split
I0413 18:40:46.714153 13759 net.cpp:157] Top shape: 1 4096 (4096)
I0413 18:40:46.714160 13759 net.cpp:157] Top shape: 1 4096 (4096)
I0413 18:40:46.714166 13759 net.cpp:165] Memory required for data: 3647764712
I0413 18:40:46.714171 13759 layer_factory.hpp:77] Creating layer bbox_pred
I0413 18:40:46.714184 13759 net.cpp:100] Creating Layer bbox_pred
I0413 18:40:46.714191 13759 net.cpp:434] bbox_pred <- fc7_drop7_0_split_0
I0413 18:40:46.714200 13759 net.cpp:408] bbox_pred -> bbox_pred
I0413 18:40:46.714829 13759 net.cpp:150] Setting up bbox_pred
I0413 18:40:46.714838 13759 net.cpp:157] Top shape: 1 8 (8)
I0413 18:40:46.714843 13759 net.cpp:165] Memory required for data: 3647764744
I0413 18:40:46.714854 13759 layer_factory.hpp:77] Creating layer loss_bbox
I0413 18:40:46.714866 13759 net.cpp:100] Creating Layer loss_bbox
I0413 18:40:46.714874 13759 net.cpp:434] loss_bbox <- bbox_pred
I0413 18:40:46.714880 13759 net.cpp:434] loss_bbox <- bbox_targets
I0413 18:40:46.714889 13759 net.cpp:434] loss_bbox <- bbox_inside_weights
I0413 18:40:46.714895 13759 net.cpp:434] loss_bbox <- bbox_outside_weights
I0413 18:40:46.714905 13759 net.cpp:408] loss_bbox -> loss_bbox
I0413 18:40:46.715008 13759 net.cpp:150] Setting up loss_bbox
I0413 18:40:46.715019 13759 net.cpp:157] Top shape: (1)
I0413 18:40:46.715025 13759 net.cpp:160]     with loss weight 1
I0413 18:40:46.715039 13759 net.cpp:165] Memory required for data: 3647764748
I0413 18:40:46.715045 13759 layer_factory.hpp:77] Creating layer feat
I0413 18:40:46.715056 13759 net.cpp:100] Creating Layer feat
I0413 18:40:46.715064 13759 net.cpp:434] feat <- fc7_drop7_0_split_1
I0413 18:40:46.715072 13759 net.cpp:408] feat -> feat
I0413 18:40:46.726670 13759 net.cpp:150] Setting up feat
I0413 18:40:46.726697 13759 net.cpp:157] Top shape: 1 256 (256)
I0413 18:40:46.726711 13759 net.cpp:165] Memory required for data: 3647765772
I0413 18:40:46.726723 13759 layer_factory.hpp:77] Creating layer relu8
I0413 18:40:46.726735 13759 net.cpp:100] Creating Layer relu8
I0413 18:40:46.726745 13759 net.cpp:434] relu8 <- feat
I0413 18:40:46.726758 13759 net.cpp:395] relu8 -> feat (in-place)
I0413 18:40:46.726775 13759 net.cpp:150] Setting up relu8
I0413 18:40:46.726783 13759 net.cpp:157] Top shape: 1 256 (256)
I0413 18:40:46.726788 13759 net.cpp:165] Memory required for data: 3647766796
I0413 18:40:46.726794 13759 layer_factory.hpp:77] Creating layer drop8
I0413 18:40:46.726804 13759 net.cpp:100] Creating Layer drop8
I0413 18:40:46.726810 13759 net.cpp:434] drop8 <- feat
I0413 18:40:46.726817 13759 net.cpp:395] drop8 -> feat (in-place)
I0413 18:40:46.726848 13759 net.cpp:150] Setting up drop8
I0413 18:40:46.726860 13759 net.cpp:157] Top shape: 1 256 (256)
I0413 18:40:46.726864 13759 net.cpp:165] Memory required for data: 3647767820
I0413 18:40:46.726869 13759 layer_factory.hpp:77] Creating layer pid_score
I0413 18:40:46.726881 13759 net.cpp:100] Creating Layer pid_score
I0413 18:40:46.726888 13759 net.cpp:434] pid_score <- feat
I0413 18:40:46.726897 13759 net.cpp:408] pid_score -> pid_score
I0413 18:40:46.741936 13759 net.cpp:150] Setting up pid_score
I0413 18:40:46.741968 13759 net.cpp:157] Top shape: 1 5533 (5533)
I0413 18:40:46.741972 13759 net.cpp:165] Memory required for data: 3647789952
I0413 18:40:46.741987 13759 layer_factory.hpp:77] Creating layer pid_accuracy
I0413 18:40:46.742004 13759 net.cpp:100] Creating Layer pid_accuracy
I0413 18:40:46.742012 13759 net.cpp:434] pid_accuracy <- pid_score
I0413 18:40:46.742025 13759 net.cpp:434] pid_accuracy <- pid_label
I0413 18:40:46.742041 13759 net.cpp:408] pid_accuracy -> pid_accuracy
…
