…
I0413 19:10:01.768481 15447 solver.cpp:48] Initializing solver from parameters: 
base_lr: 0.001
display: 20
lr_policy: "multistep"
gamma: 0.1
momentum: 0.9
weight_decay: 0.0005
snapshot: 0
snapshot_prefix: "faces_example"
net_param {
  name: "GeneratedModel_13_04_2017_19_10"
  layer {
    name: "input"
    type: "Python"
    top: "input_data"
    top: "input_im_info"
    top: "input_gt_boxes"
    top: "input_ignored_boxes"
    python_param {
      module: "layers.roi_data_layer"
      layer: "RoIDataLayer"
      param_str: "{\"num_classes\": 2}"
    }
  }
  layer {
    name: "conv1_1"
    type: "Convolution"
    bottom: "input_data"
    top: "conv1_1"
    param {
      lr_mult: 0
      decay_mult: 0
    }
    param {
      lr_mult: 0
      decay_mult: 0
    }
    convolution_param {
      num_output: 64
      pad: 1
      kernel_size: 3
    }
  }
  layer {
    name: "relu1_1"
    type: "ReLU"
    bottom: "conv1_1"
    top: "conv1_1"
  }
  layer {
    name: "conv1_2"
    type: "Convolution"
    bottom: "conv1_1"
    top: "conv1_2"
    param {
      lr_mult: 0
      decay_mult: 0
    }
    param {
      lr_mult: 0
      decay_mult: 0
    }
    convolution_param {
      num_output: 64
      pad: 1
      kernel_size: 3
    }
  }
  layer {
    name: "relu1_2"
    type: "ReLU"
    bottom: "conv1_2"
    top: "conv1_2"
  }
  layer {
    name: "pool1"
    type: "Pooling"
    bottom: "conv1_2"
    top: "pool1"
    pooling_param {
      pool: MAX
      kernel_size: 2
      stride: 2
    }
  }
  layer {
    name: "conv2_1"
    type: "Convolution"
    bottom: "pool1"
    top: "conv2_1"
    param {
      lr_mult: 0
      decay_mult: 0
    }
    param {
      lr_mult: 0
      decay_mult: 0
    }
    convolution_param {
      num_output: 128
      pad: 1
      kernel_size: 3
    }
  }
  layer {
    name: "relu2_1"
    type: "ReLU"
    bottom: "conv2_1"
    top: "conv2_1"
  }
  layer {
    name: "conv2_2"
    type: "Convolution"
    bottom: "conv2_1"
    top: "conv2_2"
    param {
      lr_mult: 0
      decay_mult: 0
    }
    param {
      lr_mult: 0
      decay_mult: 0
    }
    convolution_param {
      num_output: 128
      pad: 1
      kernel_size: 3
    }
  }
  layer {
    name: "relu2_2"
    type: "ReLU"
    bottom: "conv2_2"
    top: "conv2_2"
  }
  layer {
    name: "pool2"
    type: "Pooling"
    bottom: "conv2_2"
    top: "pool2"
    pooling_param {
      pool: MAX
      kernel_size: 2
      stride: 2
    }
  }
  layer {
    name: "conv3_1"
    type: "Convolution"
    bottom: "pool2"
    top: "conv3_1"
    param {
      lr_mult: 1
    }
    param {
      lr_mult: 2
    }
    convolution_param {
      num_output: 256
      pad: 1
      kernel_size: 3
    }
  }
  layer {
    name: "relu3_1"
    type: "ReLU"
    bottom: "conv3_1"
    top: "conv3_1"
  }
  layer {
    name: "conv3_2"
    type: "Convolution"
    bottom: "conv3_1"
    top: "conv3_2"
    param {
      lr_mult: 1
    }
    param {
      lr_mult: 2
    }
    convolution_param {
      num_output: 256
      pad: 1
      kernel_size: 3
    }
  }
  layer {
    name: "relu3_2"
    type: "ReLU"
    bottom: "conv3_2"
    top: "conv3_2"
  }
  layer {
    name: "conv3_3"
    type: "Convolution"
    bottom: "conv3_2"
    top: "conv3_3"
    param {
      lr_mult: 1
    }
    param {
      lr_mult: 2
    }
    convolution_param {
      num_output: 256
      pad: 1
      kernel_size: 3
    }
  }
  layer {
    name: "relu3_3"
    type: "ReLU"
    bottom: "conv3_3"
    top: "conv3_3"
  }
  layer {
    name: "pool3"
    type: "Pooling"
    bottom: "conv3_3"
    top: "pool3"
    pooling_param {
      pool: MAX
      kernel_size: 2
      stride: 2
    }
  }
  layer {
    name: "conv4_1"
    type: "Convolution"
    bottom: "pool3"
    top: "conv4_1"
    param {
      lr_mult: 1
    }
    param {
      lr_mult: 2
    }
    convolution_param {
      num_output: 512
      pad: 1
      kernel_size: 3
    }
  }
  layer {
    name: "relu4_1"
    type: "ReLU"
    bottom: "conv4_1"
    top: "conv4_1"
  }
  layer {
    name: "conv4_2"
    type: "Convolution"
    bottom: "conv4_1"
    top: "conv4_2"
    param {
      lr_mult: 1
    }
    param {
      lr_mult: 2
    }
    convolution_param {
      num_output: 512
      pad: 1
      kernel_size: 3
    }
  }
  layer {
    name: "relu4_2"
    type: "ReLU"
    bottom: "conv4_2"
    top: "conv4_2"
  }
  layer {
    name: "conv4_3"
    type: "Convolution"
    bottom: "conv4_2"
    top: "conv4_3"
    param {
      lr_mult: 1
    }
    param {
      lr_mult: 2
    }
    convolution_param {
      num_output: 512
      pad: 1
      kernel_size: 3
    }
  }
  layer {
    name: "relu4_3"
    type: "ReLU"
    bottom: "conv4_3"
    top: "conv4_3"
  }
  layer {
    name: "pool4"
    type: "Pooling"
    bottom: "conv4_3"
    top: "pool4"
    pooling_param {
      pool: MAX
      kernel_size: 2
      stride: 2
    }
  }
  layer {
    name: "conv5_1"
    type: "Convolution"
    bottom: "pool4"
    top: "conv5_1"
    param {
      lr_mult: 1
    }
    param {
      lr_mult: 2
    }
    convolution_param {
      num_output: 512
      pad: 1
      kernel_size: 3
    }
  }
  layer {
    name: "relu5_1"
    type: "ReLU"
    bottom: "conv5_1"
    top: "conv5_1"
  }
  layer {
    name: "conv5_2"
    type: "Convolution"
    bottom: "conv5_1"
    top: "conv5_2"
    param {
      lr_mult: 1
    }
    param {
      lr_mult: 2
    }
    convolution_param {
      num_output: 512
      pad: 1
      kernel_size: 3
    }
  }
  layer {
    name: "relu5_2"
    type: "ReLU"
    bottom: "conv5_2"
    top: "conv5_2"
  }
  layer {
    name: "conv5_3"
    type: "Convolution"
    bottom: "conv5_2"
    top: "conv5_3"
    param {
      lr_mult: 1
    }
    param {
      lr_mult: 2
    }
    convolution_param {
      num_output: 512
      pad: 1
      kernel_size: 3
    }
  }
  layer {
    name: "relu5_3"
    type: "ReLU"
    bottom: "conv5_3"
    top: "conv5_3"
  }
  layer {
    name: "rpn_big_conv1"
    type: "Convolution"
    bottom: "conv5_3"
    top: "rpn_big_conv1"
    param {
      lr_mult: 1
    }
    param {
      lr_mult: 2
    }
    convolution_param {
      num_output: 512
      pad: 1
      kernel_size: 3
      stride: 1
      weight_filler {
        type: "gaussian"
        mean: 0
        std: 0.01
      }
      bias_filler {
        type: "constant"
      }
    }
  }
  layer {
    name: "rpn_big_conv1_relu"
    type: "ReLU"
    bottom: "rpn_big_conv1"
    top: "rpn_big_conv1"
    relu_param {
      negative_slope: 0
    }
  }
  layer {
    name: "rpn_big_conv2"
    type: "Convolution"
    bottom: "rpn_big_conv1"
    top: "rpn_big_conv2"
    param {
      lr_mult: 1
    }
    param {
      lr_mult: 2
    }
    convolution_param {
      num_output: 512
      pad: 1
      kernel_size: 3
      stride: 1
      weight_filler {
        type: "gaussian"
        mean: 0
        std: 0.01
      }
      bias_filler {
        type: "constant"
      }
    }
  }
  layer {
    name: "rpn_big_conv2_relu"
    type: "ReLU"
    bottom: "rpn_big_conv2"
    top: "rpn_big_conv2"
    relu_param {
      negative_slope: 0
    }
  }
  layer {
    name: "rpn_big_conv2_drop"
    type: "Dropout"
    bottom: "rpn_big_conv2"
    top: "rpn_big_conv2"
    dropout_param {
      dropout_ratio: 0.3
    }
  }
  layer {
    name: "rpn_big_output_cls"
    type: "Convolution"
    bottom: "rpn_big_conv2"
    top: "rpn_big_output_cls"
    param {
      lr_mult: 1
    }
    param {
      lr_mult: 2
    }
    convolution_param {
      num_output: 384
      pad: 1
      kernel_size: 3
      stride: 1
      weight_filler {
        type: "gaussian"
        mean: 0
        std: 0.01
      }
      bias_filler {
        type: "constant"
      }
    }
  }
  layer {
    name: "rpn_big_output_cls_relu"
    type: "ReLU"
    bottom: "rpn_big_output_cls"
    top: "rpn_big_output_cls"
    relu_param {
      negative_slope: 0
    }
  }
  layer {
    name: "rpn_big_cls_score"
    type: "Convolution"
    bottom: "rpn_big_output_cls"
    top: "rpn_big_cls_score"
    param {
      lr_mult: 1
    }
    param {
      lr_mult: 2
    }
    convolution_param {
      num_output: 52
      pad: 0
      kernel_size: 3
      stride: 1
      weight_filler {
        type: "gaussian"
        mean: 0
        std: 0.01
      }
      bias_filler {
        type: "constant"
      }
    }
  }
  layer {
    name: "rpn_big_cls_score_reshape"
    type: "Reshape"
    bottom: "rpn_big_cls_score"
    top: "rpn_big_cls_score_reshape"
    reshape_param {
      shape {
        dim: 0
        dim: 2
        dim: -1
        dim: 0
      }
    }
  }
  layer {
    name: "rpn_big_cls_prob"
    type: "Softmax"
    bottom: "rpn_big_cls_score_reshape"
    top: "rpn_big_cls_prob"
  }
  layer {
    name: "rpn_big_cls_prob_reshape"
    type: "Reshape"
    bottom: "rpn_big_cls_prob"
    top: "rpn_big_cls_prob_reshape"
    reshape_param {
      shape {
        dim: 0
        dim: 52
        dim: -1
        dim: 0
      }
    }
  }
  layer {
    name: "rpn_big_anchor_target"
    type: "Python"
    bottom: "rpn_big_cls_score"
    bottom: "input_gt_boxes"
    bottom: "input_ignored_boxes"
    bottom: "input_im_info"
    bottom: "input_data"
    bottom: "rpn_big_cls_prob_reshape"
    top: "rpn_big_anchor_target_labels"
    top: "rpn_big_anchor_target_bbox_targets"
    top: "rpn_big_anchor_target_inside_weights"
    top: "rpn_big_anchor_target_outside_weights"
    python_param {
      module: "rpn.anchor_target_layer"
      layer: "AnchorTargetLayer"
      param_str: "{\"name\": \"rpn_big\", \"feat_stride\": 16, \"anchor_ratios\": [1.0], \"num_classes\": 1, \"anchor_scales\": [2.5, 3.025, 3.66025, 4.4289024999999995, 5.358972025, 6.484356150249999, 7.846070941802498, 9.493745839581022, 11.487432465893036, 13.899793283730574, 16.818749873313998, 20.350687346709933, 24.62433168951902, 29.795441344318014], \"square_targets\": true, \"anchor_shift_num_xy\": [[2, 2], [2, 2], [2, 2], [2, 2], [1, 1], [1, 1], [1, 1], [1, 1], [1, 1], [1, 1], [1, 1], [1, 1], [1, 1], [1, 1]], \"tn_fraction\": 0.2, \"positive_overlap\": 0.6, \"fg_fraction\": 0.5, \"batchsize\": 256, \"negative_overlap\": 0.4}"
    }
  }
  layer {
    name: "rpn_big_loss_cls"
    type: "SoftmaxWithLoss"
    bottom: "rpn_big_cls_score_reshape"
    bottom: "rpn_big_anchor_target_labels"
    top: "rpn_big_loss_cls"
    loss_weight: 1
    propagate_down: true
    propagate_down: false
    loss_param {
      ignore_label: -1
      normalization: VALID
    }
  }
  layer {
    name: "rpn_big_output_box"
    type: "Convolution"
    bottom: "rpn_big_conv2"
    top: "rpn_big_output_box"
    param {
      lr_mult: 1
    }
    param {
      lr_mult: 2
    }
    convolution_param {
      num_output: 384
      pad: 1
      kernel_size: 3
      stride: 1
      weight_filler {
        type: "gaussian"
        mean: 0
        std: 0.01
      }
      bias_filler {
        type: "constant"
      }
    }
  }
  layer {
    name: "rpn_big_output_box_relu"
    type: "ReLU"
    bottom: "rpn_big_output_box"
    top: "rpn_big_output_box"
    relu_param {
      negative_slope: 0
    }
  }
  layer {
    name: "rpn_big_bbox_pred"
    type: "Convolution"
    bottom: "rpn_big_output_box"
    top: "rpn_big_bbox_pred"
    param {
      lr_mult: 1
    }
    param {
      lr_mult: 2
    }
    convolution_param {
      num_output: 104
      pad: 0
      kernel_size: 3
      stride: 1
      weight_filler {
        type: "gaussian"
        mean: 0
        std: 0.01
      }
      bias_filler {
        type: "constant"
      }
    }
  }
  layer {
    name: "rpn_big_loss_bbox"
    type: "Python"
    bottom: "rpn_big_bbox_pred"
    bottom: "rpn_big_anchor_target_bbox_targets"
    bottom: "rpn_big_anchor_target_inside_weights"
    bottom: "rpn_big_anchor_target_outside_weights"
    top: "rpn_big_loss_bbox"
    loss_weight: 1
    python_param {
      module: "layers.smooth_l1_loss"
      layer: "SmoothL1LossLayer"
      param_str: "{\"sigma\": 3}"
    }
  }
  layer {
    name: "proposal"
    type: "Python"
    bottom: "rpn_big_cls_prob_reshape"
    bottom: "rpn_big_bbox_pred"
    bottom: "input_im_info"
    top: "rpn_rois"
    python_param {
      module: "rpn.proposal_layer"
      layer: "ProposalLayer"
      param_str: "{\"anchor_shift_num_xy\": [[2, 2], [2, 2], [2, 2], [2, 2], [1, 1], [1, 1], [1, 1], [1, 1], [1, 1], [1, 1], [1, 1], [1, 1], [1, 1], [1, 1]], \"feat_stride\": 16, \"num_classes\": 1, \"anchor_scales\": [2.5, 3.025, 3.66025, 4.4289024999999995, 5.358972025, 6.484356150249999, 7.846070941802498, 9.493745839581022, 11.487432465893036, 13.899793283730574, 16.818749873313998, 20.350687346709933, 24.62433168951902, 29.795441344318014], \"square_targets\": true, \"name\": \"rpn_big\", \"batchsize\": 256, \"anchor_ratios\": [1.0]}"
    }
  }
  layer {
    name: "roi-data"
    type: "Python"
    bottom: "rpn_rois"
    bottom: "input_gt_boxes"
    top: "rois"
    top: "labels"
    top: "bbox_targets"
    top: "bbox_inside_weights"
    top: "bbox_outside_weights"
    top: "pid_label"
    python_param {
      module: "rpn.proposal_target_layer"
      layer: "ProposalTargetLayer"
      param_str: "{\"num_classes\": 2, \"bg_aux_label\": 5532}"
    }
  }
  layer {
    name: "roi-pool"
    type: "ROIPooling"
    bottom: "conv5_3"
    bottom: "rois"
    top: "roi-pool"
    roi_pooling_param {
      pooled_h: 7
      pooled_w: 7
      spatial_scale: 0.0625
    }
  }
  layer {
    name: "fc6"
    type: "InnerProduct"
    bottom: "roi-pool"
    top: "fc6"
    param {
      lr_mult: 1
    }
    param {
      lr_mult: 2
    }
    inner_product_param {
      num_output: 4096
    }
  }
  layer {
    name: "relu6"
    type: "ReLU"
    bottom: "fc6"
    top: "fc6"
  }
  layer {
    name: "drop6"
    type: "Dropout"
    bottom: "fc6"
    top: "fc6"
    dropout_param {
      dropout_ratio: 0.5
    }
  }
  layer {
    name: "fc7"
    type: "InnerProduct"
    bottom: "fc6"
    top: "fc7"
    param {
      lr_mult: 1
    }
    param {
      lr_mult: 2
    }
    inner_product_param {
      num_output: 4096
    }
  }
  layer {
    name: "relu7"
    type: "ReLU"
    bottom: "fc7"
    top: "fc7"
  }
  layer {
    name: "drop7"
    type: "Dropout"
    bottom: "fc7"
    top: "fc7"
    dropout_param {
      dropout_ratio: 0.5
    }
  }
  layer {
    name: "bbox_pred"
    type: "InnerProduct"
    bottom: "fc7"
    top: "bbox_pred"
    param {
      lr_mult: 1
    }
    param {
      lr_mult: 2
    }
    inner_product_param {
      num_output: 8
      weight_filler {
        type: "gaussian"
        std: 0.001
      }
      bias_filler {
        type: "constant"
        value: 0
      }
    }
  }
  layer {
    name: "loss_bbox"
    type: "SmoothL1Loss"
    bottom: "bbox_pred"
    bottom: "bbox_targets"
    bottom: "bbox_inside_weights"
    bottom: "bbox_outside_weights"
    top: "loss_bbox"
    loss_weight: 1
  }
  layer {
    name: "feat"
    type: "InnerProduct"
    bottom: "fc7"
    top: "feat"
    param {
      lr_mult: 1
      decay_mult: 1
    }
    param {
      lr_mult: 2
      decay_mult: 0
    }
    inner_product_param {
      num_output: 256
      weight_filler {
        type: "gaussian"
        std: 0.01
      }
      bias_filler {
        type: "constant"
        value: 0
      }
    }
  }
  layer {
    name: "relu8"
    type: "ReLU"
    bottom: "feat"
    top: "feat"
  }
  layer {
    name: "drop8"
    type: "Dropout"
    bottom: "feat"
    top: "feat"
    dropout_param {
      dropout_ratio: 0.5
    }
  }
  layer {
    name: "pid_score"
    type: "InnerProduct"
    bottom: "feat"
    top: "pid_score"
    param {
      lr_mult: 1
      decay_mult: 1
    }
    param {
      lr_mult: 2
      decay_mult: 0
    }
    inner_product_param {
      num_output: 5533
      weight_filler {
        type: "gaussian"
        std: 0.001
      }
      bias_filler {
        type: "constant"
        value: 0
      }
    }
  }
  layer {
    name: "pid_loss"
    type: "SoftmaxWithLoss"
    bottom: "pid_score"
    bottom: "pid_label"
    top: "pid_loss"
    loss_weight: 1
    propagate_down: true
    propagate_down: false
    loss_param {
      ignore_label: -1
      normalize: true
    }
  }
}
average_loss: 100
stepvalue: 70000
stepvalue: 120000
iter_size: 2
I0413 19:10:01.768604 15447 solver.cpp:86] Creating training net specified in net_param.
I0413 19:10:01.769392 15447 net.cpp:58] Initializing net from parameters: 
name: "GeneratedModel_13_04_2017_19_10"
state {
  phase: TRAIN
}
layer {
  name: "input"
  type: "Python"
  top: "input_data"
  top: "input_im_info"
  top: "input_gt_boxes"
  top: "input_ignored_boxes"
  python_param {
    module: "layers.roi_data_layer"
    layer: "RoIDataLayer"
    param_str: "{\"num_classes\": 2}"
  }
}
layer {
  name: "conv1_1"
  type: "Convolution"
  bottom: "input_data"
  top: "conv1_1"
  param {
    lr_mult: 0
    decay_mult: 0
  }
  param {
    lr_mult: 0
    decay_mult: 0
  }
  convolution_param {
    num_output: 64
    pad: 1
    kernel_size: 3
  }
}
layer {
  name: "relu1_1"
  type: "ReLU"
  bottom: "conv1_1"
  top: "conv1_1"
}
layer {
  name: "conv1_2"
  type: "Convolution"
  bottom: "conv1_1"
  top: "conv1_2"
  param {
    lr_mult: 0
    decay_mult: 0
  }
  param {
    lr_mult: 0
    decay_mult: 0
  }
  convolution_param {
    num_output: 64
    pad: 1
    kernel_size: 3
  }
}
layer {
  name: "relu1_2"
  type: "ReLU"
  bottom: "conv1_2"
  top: "conv1_2"
}
layer {
  name: "pool1"
  type: "Pooling"
  bottom: "conv1_2"
  top: "pool1"
  pooling_param {
    pool: MAX
    kernel_size: 2
    stride: 2
  }
}
layer {
  name: "conv2_1"
  type: "Convolution"
  bottom: "pool1"
  top: "conv2_1"
  param {
    lr_mult: 0
    decay_mult: 0
  }
  param {
    lr_mult: 0
    decay_mult: 0
  }
  convolution_param {
    num_output: 128
    pad: 1
    kernel_size: 3
  }
}
layer {
  name: "relu2_1"
  type: "ReLU"
  bottom: "conv2_1"
  top: "conv2_1"
}
layer {
  name: "conv2_2"
  type: "Convolution"
  bottom: "conv2_1"
  top: "conv2_2"
  param {
    lr_mult: 0
    decay_mult: 0
  }
  param {
    lr_mult: 0
    decay_mult: 0
  }
  convolution_param {
    num_output: 128
    pad: 1
    kernel_size: 3
  }
}
layer {
  name: "relu2_2"
  type: "ReLU"
  bottom: "conv2_2"
  top: "conv2_2"
}
layer {
  name: "pool2"
  type: "Pooling"
  bottom: "conv2_2"
  top: "pool2"
  pooling_param {
    pool: MAX
    kernel_size: 2
    stride: 2
  }
}
layer {
  name: "conv3_1"
  type: "Convolution"
  bottom: "pool2"
  top: "conv3_1"
  param {
    lr_mult: 1
  }
  param {
    lr_mult: 2
  }
  convolution_param {
    num_output: 256
    pad: 1
    kernel_size: 3
  }
}
layer {
  name: "relu3_1"
  type: "ReLU"
  bottom: "conv3_1"
  top: "conv3_1"
}
layer {
  name: "conv3_2"
  type: "Convolution"
  bottom: "conv3_1"
  top: "conv3_2"
  param {
    lr_mult: 1
  }
  param {
    lr_mult: 2
  }
  convolution_param {
    num_output: 256
    pad: 1
    kernel_size: 3
  }
}
layer {
  name: "relu3_2"
  type: "ReLU"
  bottom: "conv3_2"
  top: "conv3_2"
}
layer {
  name: "conv3_3"
  type: "Convolution"
  bottom: "conv3_2"
  top: "conv3_3"
  param {
    lr_mult: 1
  }
  param {
    lr_mult: 2
  }
  convolution_param {
    num_output: 256
    pad: 1
    kernel_size: 3
  }
}
layer {
  name: "relu3_3"
  type: "ReLU"
  bottom: "conv3_3"
  top: "conv3_3"
}
layer {
  name: "pool3"
  type: "Pooling"
  bottom: "conv3_3"
  top: "pool3"
  pooling_param {
    pool: MAX
    kernel_size: 2
    stride: 2
  }
}
layer {
  name: "conv4_1"
  type: "Convolution"
  bottom: "pool3"
  top: "conv4_1"
  param {
    lr_mult: 1
  }
  param {
    lr_mult: 2
  }
  convolution_param {
    num_output: 512
    pad: 1
    kernel_size: 3
  }
}
layer {
  name: "relu4_1"
  type: "ReLU"
  bottom: "conv4_1"
  top: "conv4_1"
}
layer {
  name: "conv4_2"
  type: "Convolution"
  bottom: "conv4_1"
  top: "conv4_2"
  param {
    lr_mult: 1
  }
  param {
    lr_mult: 2
  }
  convolution_param {
    num_output: 512
    pad: 1
    kernel_size: 3
  }
}
layer {
  name: "relu4_2"
  type: "ReLU"
  bottom: "conv4_2"
  top: "conv4_2"
}
layer {
  name: "conv4_3"
  type: "Convolution"
  bottom: "conv4_2"
  top: "conv4_3"
  param {
    lr_mult: 1
  }
  param {
    lr_mult: 2
  }
  convolution_param {
    num_output: 512
    pad: 1
    kernel_size: 3
  }
}
layer {
  name: "relu4_3"
  type: "ReLU"
  bottom: "conv4_3"
  top: "conv4_3"
}
layer {
  name: "pool4"
  type: "Pooling"
  bottom: "conv4_3"
  top: "pool4"
  pooling_param {
    pool: MAX
    kernel_size: 2
    stride: 2
  }
}
layer {
  name: "conv5_1"
  type: "Convolution"
  bottom: "pool4"
  top: "conv5_1"
  param {
    lr_mult: 1
  }
  param {
    lr_mult: 2
  }
  convolution_param {
    num_output: 512
    pad: 1
    kernel_size: 3
  }
}
layer {
  name: "relu5_1"
  type: "ReLU"
  bottom: "conv5_1"
  top: "conv5_1"
}
layer {
  name: "conv5_2"
  type: "Convolution"
  bottom: "conv5_1"
  top: "conv5_2"
  param {
    lr_mult: 1
  }
  param {
    lr_mult: 2
  }
  convolution_param {
    num_output: 512
    pad: 1
    kernel_size: 3
  }
}
layer {
  name: "relu5_2"
  type: "ReLU"
  bottom: "conv5_2"
  top: "conv5_2"
}
layer {
  name: "conv5_3"
  type: "Convolution"
  bottom: "conv5_2"
  top: "conv5_3"
  param {
    lr_mult: 1
  }
  param {
    lr_mult: 2
  }
  convolution_param {
    num_output: 512
    pad: 1
    kernel_size: 3
  }
}
layer {
  name: "relu5_3"
  type: "ReLU"
  bottom: "conv5_3"
  top: "conv5_3"
}
layer {
  name: "rpn_big_conv1"
  type: "Convolution"
  bottom: "conv5_3"
  top: "rpn_big_conv1"
  param {
    lr_mult: 1
  }
  param {
    lr_mult: 2
  }
  convolution_param {
    num_output: 512
    pad: 1
    kernel_size: 3
    stride: 1
    weight_filler {
      type: "gaussian"
      mean: 0
      std: 0.01
    }
    bias_filler {
      type: "constant"
    }
  }
}
layer {
  name: "rpn_big_conv1_relu"
  type: "ReLU"
  bottom: "rpn_big_conv1"
  top: "rpn_big_conv1"
  relu_param {
    negative_slope: 0
  }
}
layer {
  name: "rpn_big_conv2"
  type: "Convolution"
  bottom: "rpn_big_conv1"
  top: "rpn_big_conv2"
  param {
    lr_mult: 1
  }
  param {
    lr_mult: 2
  }
  convolution_param {
    num_output: 512
    pad: 1
    kernel_size: 3
    stride: 1
    weight_filler {
      type: "gaussian"
      mean: 0
      std: 0.01
    }
    bias_filler {
      type: "constant"
    }
  }
}
layer {
  name: "rpn_big_conv2_relu"
  type: "ReLU"
  bottom: "rpn_big_conv2"
  top: "rpn_big_conv2"
  relu_param {
    negative_slope: 0
  }
}
layer {
  name: "rpn_big_conv2_drop"
  type: "Dropout"
  bottom: "rpn_big_conv2"
  top: "rpn_big_conv2"
  dropout_param {
    dropout_ratio: 0.3
  }
}
layer {
  name: "rpn_big_output_cls"
  type: "Convolution"
  bottom: "rpn_big_conv2"
  top: "rpn_big_output_cls"
  param {
    lr_mult: 1
  }
  param {
    lr_mult: 2
  }
  convolution_param {
    num_output: 384
    pad: 1
    kernel_size: 3
    stride: 1
    weight_filler {
      type: "gaussian"
      mean: 0
      std: 0.01
    }
    bias_filler {
      type: "constant"
    }
  }
}
layer {
  name: "rpn_big_output_cls_relu"
  type: "ReLU"
  bottom: "rpn_big_output_cls"
  top: "rpn_big_output_cls"
  relu_param {
    negative_slope: 0
  }
}
layer {
  name: "rpn_big_cls_score"
  type: "Convolution"
  bottom: "rpn_big_output_cls"
  top: "rpn_big_cls_score"
  param {
    lr_mult: 1
  }
  param {
    lr_mult: 2
  }
  convolution_param {
    num_output: 52
    pad: 0
    kernel_size: 3
    stride: 1
    weight_filler {
      type: "gaussian"
      mean: 0
      std: 0.01
    }
    bias_filler {
      type: "constant"
    }
  }
}
layer {
  name: "rpn_big_cls_score_reshape"
  type: "Reshape"
  bottom: "rpn_big_cls_score"
  top: "rpn_big_cls_score_reshape"
  reshape_param {
    shape {
      dim: 0
      dim: 2
      dim: -1
      dim: 0
    }
  }
}
layer {
  name: "rpn_big_cls_prob"
  type: "Softmax"
  bottom: "rpn_big_cls_score_reshape"
  top: "rpn_big_cls_prob"
}
layer {
  name: "rpn_big_cls_prob_reshape"
  type: "Reshape"
  bottom: "rpn_big_cls_prob"
  top: "rpn_big_cls_prob_reshape"
  reshape_param {
    shape {
      dim: 0
      dim: 52
      dim: -1
      dim: 0
    }
  }
}
layer {
  name: "rpn_big_anchor_target"
  type: "Python"
  bottom: "rpn_big_cls_score"
  bottom: "input_gt_boxes"
  bottom: "input_ignored_boxes"
  bottom: "input_im_info"
  bottom: "input_data"
  bottom: "rpn_big_cls_prob_reshape"
  top: "rpn_big_anchor_target_labels"
  top: "rpn_big_anchor_target_bbox_targets"
  top: "rpn_big_anchor_target_inside_weights"
  top: "rpn_big_anchor_target_outside_weights"
  python_param {
    module: "rpn.anchor_target_layer"
    layer: "AnchorTargetLayer"
    param_str: "{\"name\": \"rpn_big\", \"feat_stride\": 16, \"anchor_ratios\": [1.0], \"num_classes\": 1, \"anchor_scales\": [2.5, 3.025, 3.66025, 4.4289024999999995, 5.358972025, 6.484356150249999, 7.846070941802498, 9.493745839581022, 11.487432465893036, 13.899793283730574, 16.818749873313998, 20.350687346709933, 24.62433168951902, 29.795441344318014], \"square_targets\": true, \"anchor_shift_num_xy\": [[2, 2], [2, 2], [2, 2], [2, 2], [1, 1], [1, 1], [1, 1], [1, 1], [1, 1], [1, 1], [1, 1], [1, 1], [1, 1], [1, 1]], \"tn_fraction\": 0.2, \"positive_overlap\": 0.6, \"fg_fraction\": 0.5, \"batchsize\": 256, \"negative_overlap\": 0.4}"
  }
}
layer {
  name: "rpn_big_loss_cls"
  type: "SoftmaxWithLoss"
  bottom: "rpn_big_cls_score_reshape"
  bottom: "rpn_big_anchor_target_labels"
  top: "rpn_big_loss_cls"
  loss_weight: 1
  propagate_down: true
  propagate_down: false
  loss_param {
    ignore_label: -1
    normalization: VALID
  }
}
layer {
  name: "rpn_big_output_box"
  type: "Convolution"
  bottom: "rpn_big_conv2"
  top: "rpn_big_output_box"
  param {
    lr_mult: 1
  }
  param {
    lr_mult: 2
  }
  convolution_param {
    num_output: 384
    pad: 1
    kernel_size: 3
    stride: 1
    weight_filler {
      type: "gaussian"
      mean: 0
      std: 0.01
    }
    bias_filler {
      type: "constant"
    }
  }
}
layer {
  name: "rpn_big_output_box_relu"
  type: "ReLU"
  bottom: "rpn_big_output_box"
  top: "rpn_big_output_box"
  relu_param {
    negative_slope: 0
  }
}
layer {
  name: "rpn_big_bbox_pred"
  type: "Convolution"
  bottom: "rpn_big_output_box"
  top: "rpn_big_bbox_pred"
  param {
    lr_mult: 1
  }
  param {
    lr_mult: 2
  }
  convolution_param {
    num_output: 104
    pad: 0
    kernel_size: 3
    stride: 1
    weight_filler {
      type: "gaussian"
      mean: 0
      std: 0.01
    }
    bias_filler {
      type: "constant"
    }
  }
}
layer {
  name: "rpn_big_loss_bbox"
  type: "Python"
  bottom: "rpn_big_bbox_pred"
  bottom: "rpn_big_anchor_target_bbox_targets"
  bottom: "rpn_big_anchor_target_inside_weights"
  bottom: "rpn_big_anchor_target_outside_weights"
  top: "rpn_big_loss_bbox"
  loss_weight: 1
  python_param {
    module: "layers.smooth_l1_loss"
    layer: "SmoothL1LossLayer"
    param_str: "{\"sigma\": 3}"
  }
}
layer {
  name: "proposal"
  type: "Python"
  bottom: "rpn_big_cls_prob_reshape"
  bottom: "rpn_big_bbox_pred"
  bottom: "input_im_info"
  top: "rpn_rois"
  python_param {
    module: "rpn.proposal_layer"
    layer: "ProposalLayer"
    param_str: "{\"anchor_shift_num_xy\": [[2, 2], [2, 2], [2, 2], [2, 2], [1, 1], [1, 1], [1, 1], [1, 1], [1, 1], [1, 1], [1, 1], [1, 1], [1, 1], [1, 1]], \"feat_stride\": 16, \"num_classes\": 1, \"anchor_scales\": [2.5, 3.025, 3.66025, 4.4289024999999995, 5.358972025, 6.484356150249999, 7.846070941802498, 9.493745839581022, 11.487432465893036, 13.899793283730574, 16.818749873313998, 20.350687346709933, 24.62433168951902, 29.795441344318014], \"square_targets\": true, \"name\": \"rpn_big\", \"batchsize\": 256, \"anchor_ratios\": [1.0]}"
  }
}
layer {
  name: "roi-data"
  type: "Python"
  bottom: "rpn_rois"
  bottom: "input_gt_boxes"
  top: "rois"
  top: "labels"
  top: "bbox_targets"
  top: "bbox_inside_weights"
  top: "bbox_outside_weights"
  top: "pid_label"
  python_param {
    module: "rpn.proposal_target_layer"
    layer: "ProposalTargetLayer"
    param_str: "{\"num_classes\": 2, \"bg_aux_label\": 5532}"
  }
}
layer {
  name: "roi-pool"
  type: "ROIPooling"
  bottom: "conv5_3"
  bottom: "rois"
  top: "roi-pool"
  roi_pooling_param {
    pooled_h: 7
    pooled_w: 7
    spatial_scale: 0.0625
  }
}
layer {
  name: "fc6"
  type: "InnerProduct"
  bottom: "roi-pool"
  top: "fc6"
  param {
    lr_mult: 1
  }
  param {
    lr_mult: 2
  }
  inner_product_param {
    num_output: 4096
  }
}
layer {
  name: "relu6"
  type: "ReLU"
  bottom: "fc6"
  top: "fc6"
}
layer {
  name: "drop6"
  type: "Dropout"
  bottom: "fc6"
  top: "fc6"
  dropout_param {
    dropout_ratio: 0.5
  }
}
layer {
  name: "fc7"
  type: "InnerProduct"
  bottom: "fc6"
  top: "fc7"
  param {
    lr_mult: 1
  }
  param {
    lr_mult: 2
  }
  inner_product_param {
    num_output: 4096
  }
}
layer {
  name: "relu7"
  type: "ReLU"
  bottom: "fc7"
  top: "fc7"
}
layer {
  name: "drop7"
  type: "Dropout"
  bottom: "fc7"
  top: "fc7"
  dropout_param {
    dropout_ratio: 0.5
  }
}
layer {
  name: "bbox_pred"
  type: "InnerProduct"
  bottom: "fc7"
  top: "bbox_pred"
  param {
    lr_mult: 1
  }
  param {
    lr_mult: 2
  }
  inner_product_param {
    num_output: 8
    weight_filler {
      type: "gaussian"
      std: 0.001
    }
    bias_filler {
      type: "constant"
      value: 0
    }
  }
}
layer {
  name: "loss_bbox"
  type: "SmoothL1Loss"
  bottom: "bbox_pred"
  bottom: "bbox_targets"
  bottom: "bbox_inside_weights"
  bottom: "bbox_outside_weights"
  top: "loss_bbox"
  loss_weight: 1
}
layer {
  name: "feat"
  type: "InnerProduct"
  bottom: "fc7"
  top: "feat"
  param {
    lr_mult: 1
    decay_mult: 1
  }
  param {
    lr_mult: 2
    decay_mult: 0
  }
  inner_product_param {
    num_output: 256
    weight_filler {
      type: "gaussian"
      std: 0.01
    }
    bias_filler {
      type: "constant"
      value: 0
    }
  }
}
layer {
  name: "relu8"
  type: "ReLU"
  bottom: "feat"
  top: "feat"
}
layer {
  name: "drop8"
  type: "Dropout"
  bottom: "feat"
  top: "feat"
  dropout_param {
    dropout_ratio: 0.5
  }
}
layer {
  name: "pid_score"
  type: "InnerProduct"
  bottom: "feat"
  top: "pid_score"
  param {
    lr_mult: 1
    decay_mult: 1
  }
  param {
    lr_mult: 2
    decay_mult: 0
  }
  inner_product_param {
    num_output: 5533
    weight_filler {
      type: "gaussian"
      std: 0.001
    }
    bias_filler {
      type: "constant"
      value: 0
    }
  }
}
layer {
  name: "pid_loss"
  type: "SoftmaxWithLoss"
  bottom: "pid_score"
  bottom: "pid_label"
  top: "pid_loss"
  loss_weight: 1
  propagate_down: true
  propagate_down: false
  loss_param {
    ignore_label: -1
    normalize: true
  }
}
I0413 19:10:01.769793 15447 layer_factory.hpp:77] Creating layer input
I0413 19:10:01.771589 15447 net.cpp:100] Creating Layer input
I0413 19:10:01.771613 15447 net.cpp:408] input -> input_data
I0413 19:10:01.771631 15447 net.cpp:408] input -> input_im_info
I0413 19:10:01.771641 15447 net.cpp:408] input -> input_gt_boxes
I0413 19:10:01.771651 15447 net.cpp:408] input -> input_ignored_boxes
RoiDataLayer: name_to_top: {'gt_boxes': 2, 'ignored_boxes': 3, 'im_info': 1, 'data': 0}
I0413 19:10:02.101202 15447 net.cpp:150] Setting up input
I0413 19:10:02.101236 15447 net.cpp:157] Top shape: 1 3 1000 1500 (4500000)
I0413 19:10:02.101250 15447 net.cpp:157] Top shape: 1 3 (3)
I0413 19:10:02.101259 15447 net.cpp:157] Top shape: 1 5 (5)
I0413 19:10:02.101269 15447 net.cpp:157] Top shape: 1 5 (5)
I0413 19:10:02.101277 15447 net.cpp:165] Memory required for data: 18000052
I0413 19:10:02.101287 15447 layer_factory.hpp:77] Creating layer input_data_input_0_split
I0413 19:10:02.101308 15447 net.cpp:100] Creating Layer input_data_input_0_split
I0413 19:10:02.101316 15447 net.cpp:434] input_data_input_0_split <- input_data
I0413 19:10:02.101330 15447 net.cpp:408] input_data_input_0_split -> input_data_input_0_split_0
I0413 19:10:02.101348 15447 net.cpp:408] input_data_input_0_split -> input_data_input_0_split_1
I0413 19:10:02.101388 15447 net.cpp:150] Setting up input_data_input_0_split
I0413 19:10:02.101398 15447 net.cpp:157] Top shape: 1 3 1000 1500 (4500000)
I0413 19:10:02.101408 15447 net.cpp:157] Top shape: 1 3 1000 1500 (4500000)
I0413 19:10:02.101413 15447 net.cpp:165] Memory required for data: 54000052
I0413 19:10:02.101420 15447 layer_factory.hpp:77] Creating layer input_im_info_input_1_split
I0413 19:10:02.101431 15447 net.cpp:100] Creating Layer input_im_info_input_1_split
I0413 19:10:02.101440 15447 net.cpp:434] input_im_info_input_1_split <- input_im_info
I0413 19:10:02.101449 15447 net.cpp:408] input_im_info_input_1_split -> input_im_info_input_1_split_0
I0413 19:10:02.101462 15447 net.cpp:408] input_im_info_input_1_split -> input_im_info_input_1_split_1
I0413 19:10:02.101497 15447 net.cpp:150] Setting up input_im_info_input_1_split
I0413 19:10:02.101506 15447 net.cpp:157] Top shape: 1 3 (3)
I0413 19:10:02.101513 15447 net.cpp:157] Top shape: 1 3 (3)
I0413 19:10:02.101521 15447 net.cpp:165] Memory required for data: 54000076
I0413 19:10:02.101526 15447 layer_factory.hpp:77] Creating layer input_gt_boxes_input_2_split
I0413 19:10:02.101537 15447 net.cpp:100] Creating Layer input_gt_boxes_input_2_split
I0413 19:10:02.101544 15447 net.cpp:434] input_gt_boxes_input_2_split <- input_gt_boxes
I0413 19:10:02.101554 15447 net.cpp:408] input_gt_boxes_input_2_split -> input_gt_boxes_input_2_split_0
I0413 19:10:02.101568 15447 net.cpp:408] input_gt_boxes_input_2_split -> input_gt_boxes_input_2_split_1
I0413 19:10:02.101603 15447 net.cpp:150] Setting up input_gt_boxes_input_2_split
I0413 19:10:02.101613 15447 net.cpp:157] Top shape: 1 5 (5)
I0413 19:10:02.101620 15447 net.cpp:157] Top shape: 1 5 (5)
I0413 19:10:02.101626 15447 net.cpp:165] Memory required for data: 54000116
I0413 19:10:02.101632 15447 layer_factory.hpp:77] Creating layer conv1_1
I0413 19:10:02.101649 15447 net.cpp:100] Creating Layer conv1_1
I0413 19:10:02.101656 15447 net.cpp:434] conv1_1 <- input_data_input_0_split_0
I0413 19:10:02.101665 15447 net.cpp:408] conv1_1 -> conv1_1
I0413 19:10:02.104799 15447 net.cpp:150] Setting up conv1_1
I0413 19:10:02.104838 15447 net.cpp:157] Top shape: 1 64 1000 1500 (96000000)
I0413 19:10:02.104846 15447 net.cpp:165] Memory required for data: 438000116
I0413 19:10:02.104876 15447 layer_factory.hpp:77] Creating layer relu1_1
I0413 19:10:02.104894 15447 net.cpp:100] Creating Layer relu1_1
I0413 19:10:02.104918 15447 net.cpp:434] relu1_1 <- conv1_1
I0413 19:10:02.104933 15447 net.cpp:395] relu1_1 -> conv1_1 (in-place)
I0413 19:10:02.104950 15447 net.cpp:150] Setting up relu1_1
I0413 19:10:02.104961 15447 net.cpp:157] Top shape: 1 64 1000 1500 (96000000)
I0413 19:10:02.104967 15447 net.cpp:165] Memory required for data: 822000116
I0413 19:10:02.104974 15447 layer_factory.hpp:77] Creating layer conv1_2
I0413 19:10:02.104990 15447 net.cpp:100] Creating Layer conv1_2
I0413 19:10:02.104996 15447 net.cpp:434] conv1_2 <- conv1_1
I0413 19:10:02.105007 15447 net.cpp:408] conv1_2 -> conv1_2
I0413 19:10:02.108192 15447 net.cpp:150] Setting up conv1_2
I0413 19:10:02.108227 15447 net.cpp:157] Top shape: 1 64 1000 1500 (96000000)
I0413 19:10:02.108234 15447 net.cpp:165] Memory required for data: 1206000116
I0413 19:10:02.108261 15447 layer_factory.hpp:77] Creating layer relu1_2
I0413 19:10:02.108278 15447 net.cpp:100] Creating Layer relu1_2
I0413 19:10:02.108286 15447 net.cpp:434] relu1_2 <- conv1_2
I0413 19:10:02.108304 15447 net.cpp:395] relu1_2 -> conv1_2 (in-place)
I0413 19:10:02.108333 15447 net.cpp:150] Setting up relu1_2
I0413 19:10:02.108346 15447 net.cpp:157] Top shape: 1 64 1000 1500 (96000000)
I0413 19:10:02.108352 15447 net.cpp:165] Memory required for data: 1590000116
I0413 19:10:02.108359 15447 layer_factory.hpp:77] Creating layer pool1
I0413 19:10:02.108374 15447 net.cpp:100] Creating Layer pool1
I0413 19:10:02.108381 15447 net.cpp:434] pool1 <- conv1_2
I0413 19:10:02.108392 15447 net.cpp:408] pool1 -> pool1
I0413 19:10:02.108470 15447 net.cpp:150] Setting up pool1
I0413 19:10:02.108481 15447 net.cpp:157] Top shape: 1 64 500 750 (24000000)
I0413 19:10:02.108487 15447 net.cpp:165] Memory required for data: 1686000116
I0413 19:10:02.108494 15447 layer_factory.hpp:77] Creating layer conv2_1
I0413 19:10:02.108512 15447 net.cpp:100] Creating Layer conv2_1
I0413 19:10:02.108525 15447 net.cpp:434] conv2_1 <- pool1
I0413 19:10:02.108537 15447 net.cpp:408] conv2_1 -> conv2_1
I0413 19:10:02.109936 15447 net.cpp:150] Setting up conv2_1
I0413 19:10:02.109953 15447 net.cpp:157] Top shape: 1 128 500 750 (48000000)
I0413 19:10:02.109959 15447 net.cpp:165] Memory required for data: 1878000116
I0413 19:10:02.109987 15447 layer_factory.hpp:77] Creating layer relu2_1
I0413 19:10:02.109997 15447 net.cpp:100] Creating Layer relu2_1
I0413 19:10:02.110004 15447 net.cpp:434] relu2_1 <- conv2_1
I0413 19:10:02.110018 15447 net.cpp:395] relu2_1 -> conv2_1 (in-place)
I0413 19:10:02.110031 15447 net.cpp:150] Setting up relu2_1
I0413 19:10:02.110041 15447 net.cpp:157] Top shape: 1 128 500 750 (48000000)
I0413 19:10:02.110047 15447 net.cpp:165] Memory required for data: 2070000116
I0413 19:10:02.110054 15447 layer_factory.hpp:77] Creating layer conv2_2
I0413 19:10:02.110067 15447 net.cpp:100] Creating Layer conv2_2
I0413 19:10:02.110074 15447 net.cpp:434] conv2_2 <- conv2_1
I0413 19:10:02.110086 15447 net.cpp:408] conv2_2 -> conv2_2
I0413 19:10:02.111083 15447 net.cpp:150] Setting up conv2_2
I0413 19:10:02.111104 15447 net.cpp:157] Top shape: 1 128 500 750 (48000000)
I0413 19:10:02.111109 15447 net.cpp:165] Memory required for data: 2262000116
I0413 19:10:02.111122 15447 layer_factory.hpp:77] Creating layer relu2_2
I0413 19:10:02.111135 15447 net.cpp:100] Creating Layer relu2_2
I0413 19:10:02.111143 15447 net.cpp:434] relu2_2 <- conv2_2
I0413 19:10:02.111153 15447 net.cpp:395] relu2_2 -> conv2_2 (in-place)
I0413 19:10:02.111165 15447 net.cpp:150] Setting up relu2_2
I0413 19:10:02.111174 15447 net.cpp:157] Top shape: 1 128 500 750 (48000000)
I0413 19:10:02.111181 15447 net.cpp:165] Memory required for data: 2454000116
I0413 19:10:02.111187 15447 layer_factory.hpp:77] Creating layer pool2
I0413 19:10:02.111202 15447 net.cpp:100] Creating Layer pool2
I0413 19:10:02.111208 15447 net.cpp:434] pool2 <- conv2_2
I0413 19:10:02.111217 15447 net.cpp:408] pool2 -> pool2
I0413 19:10:02.111266 15447 net.cpp:150] Setting up pool2
I0413 19:10:02.111276 15447 net.cpp:157] Top shape: 1 128 250 375 (12000000)
I0413 19:10:02.111281 15447 net.cpp:165] Memory required for data: 2502000116
I0413 19:10:02.111289 15447 layer_factory.hpp:77] Creating layer conv3_1
I0413 19:10:02.111302 15447 net.cpp:100] Creating Layer conv3_1
I0413 19:10:02.111310 15447 net.cpp:434] conv3_1 <- pool2
I0413 19:10:02.111320 15447 net.cpp:408] conv3_1 -> conv3_1
I0413 19:10:02.112437 15447 net.cpp:150] Setting up conv3_1
I0413 19:10:02.112462 15447 net.cpp:157] Top shape: 1 256 250 375 (24000000)
I0413 19:10:02.112468 15447 net.cpp:165] Memory required for data: 2598000116
I0413 19:10:02.112488 15447 layer_factory.hpp:77] Creating layer relu3_1
I0413 19:10:02.112500 15447 net.cpp:100] Creating Layer relu3_1
I0413 19:10:02.112509 15447 net.cpp:434] relu3_1 <- conv3_1
I0413 19:10:02.112521 15447 net.cpp:395] relu3_1 -> conv3_1 (in-place)
I0413 19:10:02.112536 15447 net.cpp:150] Setting up relu3_1
I0413 19:10:02.112545 15447 net.cpp:157] Top shape: 1 256 250 375 (24000000)
I0413 19:10:02.112551 15447 net.cpp:165] Memory required for data: 2694000116
I0413 19:10:02.112557 15447 layer_factory.hpp:77] Creating layer conv3_2
I0413 19:10:02.112577 15447 net.cpp:100] Creating Layer conv3_2
I0413 19:10:02.112583 15447 net.cpp:434] conv3_2 <- conv3_1
I0413 19:10:02.112594 15447 net.cpp:408] conv3_2 -> conv3_2
I0413 19:10:02.113811 15447 net.cpp:150] Setting up conv3_2
I0413 19:10:02.113837 15447 net.cpp:157] Top shape: 1 256 250 375 (24000000)
I0413 19:10:02.113842 15447 net.cpp:165] Memory required for data: 2790000116
I0413 19:10:02.113855 15447 layer_factory.hpp:77] Creating layer relu3_2
I0413 19:10:02.113868 15447 net.cpp:100] Creating Layer relu3_2
I0413 19:10:02.113878 15447 net.cpp:434] relu3_2 <- conv3_2
I0413 19:10:02.113888 15447 net.cpp:395] relu3_2 -> conv3_2 (in-place)
I0413 19:10:02.113903 15447 net.cpp:150] Setting up relu3_2
I0413 19:10:02.113911 15447 net.cpp:157] Top shape: 1 256 250 375 (24000000)
I0413 19:10:02.113922 15447 net.cpp:165] Memory required for data: 2886000116
I0413 19:10:02.113929 15447 layer_factory.hpp:77] Creating layer conv3_3
I0413 19:10:02.113942 15447 net.cpp:100] Creating Layer conv3_3
I0413 19:10:02.113950 15447 net.cpp:434] conv3_3 <- conv3_2
I0413 19:10:02.113961 15447 net.cpp:408] conv3_3 -> conv3_3
I0413 19:10:02.115550 15447 net.cpp:150] Setting up conv3_3
I0413 19:10:02.115581 15447 net.cpp:157] Top shape: 1 256 250 375 (24000000)
I0413 19:10:02.115586 15447 net.cpp:165] Memory required for data: 2982000116
I0413 19:10:02.115600 15447 layer_factory.hpp:77] Creating layer relu3_3
I0413 19:10:02.115612 15447 net.cpp:100] Creating Layer relu3_3
I0413 19:10:02.115622 15447 net.cpp:434] relu3_3 <- conv3_3
I0413 19:10:02.115634 15447 net.cpp:395] relu3_3 -> conv3_3 (in-place)
I0413 19:10:02.115649 15447 net.cpp:150] Setting up relu3_3
I0413 19:10:02.115658 15447 net.cpp:157] Top shape: 1 256 250 375 (24000000)
I0413 19:10:02.115665 15447 net.cpp:165] Memory required for data: 3078000116
I0413 19:10:02.115671 15447 layer_factory.hpp:77] Creating layer pool3
I0413 19:10:02.115681 15447 net.cpp:100] Creating Layer pool3
I0413 19:10:02.115689 15447 net.cpp:434] pool3 <- conv3_3
I0413 19:10:02.115697 15447 net.cpp:408] pool3 -> pool3
I0413 19:10:02.115751 15447 net.cpp:150] Setting up pool3
I0413 19:10:02.115761 15447 net.cpp:157] Top shape: 1 256 125 188 (6016000)
I0413 19:10:02.115767 15447 net.cpp:165] Memory required for data: 3102064116
I0413 19:10:02.115773 15447 layer_factory.hpp:77] Creating layer conv4_1
I0413 19:10:02.115788 15447 net.cpp:100] Creating Layer conv4_1
I0413 19:10:02.115797 15447 net.cpp:434] conv4_1 <- pool3
I0413 19:10:02.115810 15447 net.cpp:408] conv4_1 -> conv4_1
I0413 19:10:02.118456 15447 net.cpp:150] Setting up conv4_1
I0413 19:10:02.118491 15447 net.cpp:157] Top shape: 1 512 125 188 (12032000)
I0413 19:10:02.118496 15447 net.cpp:165] Memory required for data: 3150192116
I0413 19:10:02.118511 15447 layer_factory.hpp:77] Creating layer relu4_1
I0413 19:10:02.118525 15447 net.cpp:100] Creating Layer relu4_1
I0413 19:10:02.118535 15447 net.cpp:434] relu4_1 <- conv4_1
I0413 19:10:02.118551 15447 net.cpp:395] relu4_1 -> conv4_1 (in-place)
I0413 19:10:02.118564 15447 net.cpp:150] Setting up relu4_1
I0413 19:10:02.118573 15447 net.cpp:157] Top shape: 1 512 125 188 (12032000)
I0413 19:10:02.118580 15447 net.cpp:165] Memory required for data: 3198320116
I0413 19:10:02.118587 15447 layer_factory.hpp:77] Creating layer conv4_2
I0413 19:10:02.118598 15447 net.cpp:100] Creating Layer conv4_2
I0413 19:10:02.118607 15447 net.cpp:434] conv4_2 <- conv4_1
I0413 19:10:02.118616 15447 net.cpp:408] conv4_2 -> conv4_2
I0413 19:10:02.122851 15447 net.cpp:150] Setting up conv4_2
I0413 19:10:02.122889 15447 net.cpp:157] Top shape: 1 512 125 188 (12032000)
I0413 19:10:02.122895 15447 net.cpp:165] Memory required for data: 3246448116
I0413 19:10:02.122916 15447 layer_factory.hpp:77] Creating layer relu4_2
I0413 19:10:02.122932 15447 net.cpp:100] Creating Layer relu4_2
I0413 19:10:02.122941 15447 net.cpp:434] relu4_2 <- conv4_2
I0413 19:10:02.122953 15447 net.cpp:395] relu4_2 -> conv4_2 (in-place)
I0413 19:10:02.122967 15447 net.cpp:150] Setting up relu4_2
I0413 19:10:02.122977 15447 net.cpp:157] Top shape: 1 512 125 188 (12032000)
I0413 19:10:02.122983 15447 net.cpp:165] Memory required for data: 3294576116
I0413 19:10:02.122989 15447 layer_factory.hpp:77] Creating layer conv4_3
I0413 19:10:02.123005 15447 net.cpp:100] Creating Layer conv4_3
I0413 19:10:02.123013 15447 net.cpp:434] conv4_3 <- conv4_2
I0413 19:10:02.123021 15447 net.cpp:408] conv4_3 -> conv4_3
I0413 19:10:02.127389 15447 net.cpp:150] Setting up conv4_3
I0413 19:10:02.127424 15447 net.cpp:157] Top shape: 1 512 125 188 (12032000)
I0413 19:10:02.127430 15447 net.cpp:165] Memory required for data: 3342704116
I0413 19:10:02.127444 15447 layer_factory.hpp:77] Creating layer relu4_3
I0413 19:10:02.127460 15447 net.cpp:100] Creating Layer relu4_3
I0413 19:10:02.127467 15447 net.cpp:434] relu4_3 <- conv4_3
I0413 19:10:02.127481 15447 net.cpp:395] relu4_3 -> conv4_3 (in-place)
I0413 19:10:02.127496 15447 net.cpp:150] Setting up relu4_3
I0413 19:10:02.127516 15447 net.cpp:157] Top shape: 1 512 125 188 (12032000)
I0413 19:10:02.127521 15447 net.cpp:165] Memory required for data: 3390832116
I0413 19:10:02.127526 15447 layer_factory.hpp:77] Creating layer pool4
I0413 19:10:02.127535 15447 net.cpp:100] Creating Layer pool4
I0413 19:10:02.127540 15447 net.cpp:434] pool4 <- conv4_3
I0413 19:10:02.127552 15447 net.cpp:408] pool4 -> pool4
I0413 19:10:02.127600 15447 net.cpp:150] Setting up pool4
I0413 19:10:02.127610 15447 net.cpp:157] Top shape: 1 512 63 94 (3032064)
I0413 19:10:02.127615 15447 net.cpp:165] Memory required for data: 3402960372
I0413 19:10:02.127622 15447 layer_factory.hpp:77] Creating layer conv5_1
I0413 19:10:02.127640 15447 net.cpp:100] Creating Layer conv5_1
I0413 19:10:02.127646 15447 net.cpp:434] conv5_1 <- pool4
I0413 19:10:02.127657 15447 net.cpp:408] conv5_1 -> conv5_1
I0413 19:10:02.132602 15447 net.cpp:150] Setting up conv5_1
I0413 19:10:02.132635 15447 net.cpp:157] Top shape: 1 512 63 94 (3032064)
I0413 19:10:02.132640 15447 net.cpp:165] Memory required for data: 3415088628
I0413 19:10:02.132663 15447 layer_factory.hpp:77] Creating layer relu5_1
I0413 19:10:02.132678 15447 net.cpp:100] Creating Layer relu5_1
I0413 19:10:02.132694 15447 net.cpp:434] relu5_1 <- conv5_1
I0413 19:10:02.132709 15447 net.cpp:395] relu5_1 -> conv5_1 (in-place)
I0413 19:10:02.132725 15447 net.cpp:150] Setting up relu5_1
I0413 19:10:02.132736 15447 net.cpp:157] Top shape: 1 512 63 94 (3032064)
I0413 19:10:02.132742 15447 net.cpp:165] Memory required for data: 3427216884
I0413 19:10:02.132748 15447 layer_factory.hpp:77] Creating layer conv5_2
I0413 19:10:02.132761 15447 net.cpp:100] Creating Layer conv5_2
I0413 19:10:02.132768 15447 net.cpp:434] conv5_2 <- conv5_1
I0413 19:10:02.132781 15447 net.cpp:408] conv5_2 -> conv5_2
I0413 19:10:02.136965 15447 net.cpp:150] Setting up conv5_2
I0413 19:10:02.137002 15447 net.cpp:157] Top shape: 1 512 63 94 (3032064)
I0413 19:10:02.137007 15447 net.cpp:165] Memory required for data: 3439345140
I0413 19:10:02.137022 15447 layer_factory.hpp:77] Creating layer relu5_2
I0413 19:10:02.137045 15447 net.cpp:100] Creating Layer relu5_2
I0413 19:10:02.137055 15447 net.cpp:434] relu5_2 <- conv5_2
I0413 19:10:02.137068 15447 net.cpp:395] relu5_2 -> conv5_2 (in-place)
I0413 19:10:02.137084 15447 net.cpp:150] Setting up relu5_2
I0413 19:10:02.137094 15447 net.cpp:157] Top shape: 1 512 63 94 (3032064)
I0413 19:10:02.137100 15447 net.cpp:165] Memory required for data: 3451473396
I0413 19:10:02.137107 15447 layer_factory.hpp:77] Creating layer conv5_3
I0413 19:10:02.137130 15447 net.cpp:100] Creating Layer conv5_3
I0413 19:10:02.137135 15447 net.cpp:434] conv5_3 <- conv5_2
I0413 19:10:02.137146 15447 net.cpp:408] conv5_3 -> conv5_3
I0413 19:10:02.141547 15447 net.cpp:150] Setting up conv5_3
I0413 19:10:02.141592 15447 net.cpp:157] Top shape: 1 512 63 94 (3032064)
I0413 19:10:02.141597 15447 net.cpp:165] Memory required for data: 3463601652
I0413 19:10:02.141618 15447 layer_factory.hpp:77] Creating layer relu5_3
I0413 19:10:02.141633 15447 net.cpp:100] Creating Layer relu5_3
I0413 19:10:02.141643 15447 net.cpp:434] relu5_3 <- conv5_3
I0413 19:10:02.141659 15447 net.cpp:395] relu5_3 -> conv5_3 (in-place)
I0413 19:10:02.141674 15447 net.cpp:150] Setting up relu5_3
I0413 19:10:02.141683 15447 net.cpp:157] Top shape: 1 512 63 94 (3032064)
I0413 19:10:02.141690 15447 net.cpp:165] Memory required for data: 3475729908
I0413 19:10:02.141695 15447 layer_factory.hpp:77] Creating layer conv5_3_relu5_3_0_split
I0413 19:10:02.141705 15447 net.cpp:100] Creating Layer conv5_3_relu5_3_0_split
I0413 19:10:02.141712 15447 net.cpp:434] conv5_3_relu5_3_0_split <- conv5_3
I0413 19:10:02.141722 15447 net.cpp:408] conv5_3_relu5_3_0_split -> conv5_3_relu5_3_0_split_0
I0413 19:10:02.141737 15447 net.cpp:408] conv5_3_relu5_3_0_split -> conv5_3_relu5_3_0_split_1
I0413 19:10:02.141777 15447 net.cpp:150] Setting up conv5_3_relu5_3_0_split
I0413 19:10:02.141788 15447 net.cpp:157] Top shape: 1 512 63 94 (3032064)
I0413 19:10:02.141795 15447 net.cpp:157] Top shape: 1 512 63 94 (3032064)
I0413 19:10:02.141801 15447 net.cpp:165] Memory required for data: 3499986420
I0413 19:10:02.141808 15447 layer_factory.hpp:77] Creating layer rpn_big_conv1
I0413 19:10:02.141829 15447 net.cpp:100] Creating Layer rpn_big_conv1
I0413 19:10:02.141837 15447 net.cpp:434] rpn_big_conv1 <- conv5_3_relu5_3_0_split_0
I0413 19:10:02.141849 15447 net.cpp:408] rpn_big_conv1 -> rpn_big_conv1
I0413 19:10:02.167768 15447 net.cpp:150] Setting up rpn_big_conv1
I0413 19:10:02.167804 15447 net.cpp:157] Top shape: 1 512 63 94 (3032064)
I0413 19:10:02.167810 15447 net.cpp:165] Memory required for data: 3512114676
I0413 19:10:02.167825 15447 layer_factory.hpp:77] Creating layer rpn_big_conv1_relu
I0413 19:10:02.167840 15447 net.cpp:100] Creating Layer rpn_big_conv1_relu
I0413 19:10:02.167851 15447 net.cpp:434] rpn_big_conv1_relu <- rpn_big_conv1
I0413 19:10:02.167865 15447 net.cpp:395] rpn_big_conv1_relu -> rpn_big_conv1 (in-place)
I0413 19:10:02.167881 15447 net.cpp:150] Setting up rpn_big_conv1_relu
I0413 19:10:02.167889 15447 net.cpp:157] Top shape: 1 512 63 94 (3032064)
I0413 19:10:02.167896 15447 net.cpp:165] Memory required for data: 3524242932
I0413 19:10:02.167902 15447 layer_factory.hpp:77] Creating layer rpn_big_conv2
I0413 19:10:02.167922 15447 net.cpp:100] Creating Layer rpn_big_conv2
I0413 19:10:02.167927 15447 net.cpp:434] rpn_big_conv2 <- rpn_big_conv1
I0413 19:10:02.167938 15447 net.cpp:408] rpn_big_conv2 -> rpn_big_conv2
I0413 19:10:02.193056 15447 net.cpp:150] Setting up rpn_big_conv2
I0413 19:10:02.193090 15447 net.cpp:157] Top shape: 1 512 63 94 (3032064)
I0413 19:10:02.193096 15447 net.cpp:165] Memory required for data: 3536371188
I0413 19:10:02.193110 15447 layer_factory.hpp:77] Creating layer rpn_big_conv2_relu
I0413 19:10:02.193125 15447 net.cpp:100] Creating Layer rpn_big_conv2_relu
I0413 19:10:02.193135 15447 net.cpp:434] rpn_big_conv2_relu <- rpn_big_conv2
I0413 19:10:02.193146 15447 net.cpp:395] rpn_big_conv2_relu -> rpn_big_conv2 (in-place)
I0413 19:10:02.193162 15447 net.cpp:150] Setting up rpn_big_conv2_relu
I0413 19:10:02.193178 15447 net.cpp:157] Top shape: 1 512 63 94 (3032064)
I0413 19:10:02.193184 15447 net.cpp:165] Memory required for data: 3548499444
I0413 19:10:02.193191 15447 layer_factory.hpp:77] Creating layer rpn_big_conv2_drop
I0413 19:10:02.193203 15447 net.cpp:100] Creating Layer rpn_big_conv2_drop
I0413 19:10:02.193209 15447 net.cpp:434] rpn_big_conv2_drop <- rpn_big_conv2
I0413 19:10:02.193218 15447 net.cpp:395] rpn_big_conv2_drop -> rpn_big_conv2 (in-place)
I0413 19:10:02.193249 15447 net.cpp:150] Setting up rpn_big_conv2_drop
I0413 19:10:02.193262 15447 net.cpp:157] Top shape: 1 512 63 94 (3032064)
I0413 19:10:02.193269 15447 net.cpp:165] Memory required for data: 3560627700
I0413 19:10:02.193274 15447 layer_factory.hpp:77] Creating layer rpn_big_conv2_rpn_big_conv2_drop_0_split
I0413 19:10:02.193284 15447 net.cpp:100] Creating Layer rpn_big_conv2_rpn_big_conv2_drop_0_split
I0413 19:10:02.193291 15447 net.cpp:434] rpn_big_conv2_rpn_big_conv2_drop_0_split <- rpn_big_conv2
I0413 19:10:02.193302 15447 net.cpp:408] rpn_big_conv2_rpn_big_conv2_drop_0_split -> rpn_big_conv2_rpn_big_conv2_drop_0_split_0
I0413 19:10:02.193315 15447 net.cpp:408] rpn_big_conv2_rpn_big_conv2_drop_0_split -> rpn_big_conv2_rpn_big_conv2_drop_0_split_1
I0413 19:10:02.193362 15447 net.cpp:150] Setting up rpn_big_conv2_rpn_big_conv2_drop_0_split
I0413 19:10:02.193372 15447 net.cpp:157] Top shape: 1 512 63 94 (3032064)
I0413 19:10:02.193382 15447 net.cpp:157] Top shape: 1 512 63 94 (3032064)
I0413 19:10:02.193387 15447 net.cpp:165] Memory required for data: 3584884212
I0413 19:10:02.193393 15447 layer_factory.hpp:77] Creating layer rpn_big_output_cls
I0413 19:10:02.193411 15447 net.cpp:100] Creating Layer rpn_big_output_cls
I0413 19:10:02.193423 15447 net.cpp:434] rpn_big_output_cls <- rpn_big_conv2_rpn_big_conv2_drop_0_split_0
I0413 19:10:02.193436 15447 net.cpp:408] rpn_big_output_cls -> rpn_big_output_cls
I0413 19:10:02.212388 15447 net.cpp:150] Setting up rpn_big_output_cls
I0413 19:10:02.212419 15447 net.cpp:157] Top shape: 1 384 63 94 (2274048)
I0413 19:10:02.212425 15447 net.cpp:165] Memory required for data: 3593980404
I0413 19:10:02.212440 15447 layer_factory.hpp:77] Creating layer rpn_big_output_cls_relu
I0413 19:10:02.212455 15447 net.cpp:100] Creating Layer rpn_big_output_cls_relu
I0413 19:10:02.212466 15447 net.cpp:434] rpn_big_output_cls_relu <- rpn_big_output_cls
I0413 19:10:02.212481 15447 net.cpp:395] rpn_big_output_cls_relu -> rpn_big_output_cls (in-place)
I0413 19:10:02.212497 15447 net.cpp:150] Setting up rpn_big_output_cls_relu
I0413 19:10:02.212507 15447 net.cpp:157] Top shape: 1 384 63 94 (2274048)
I0413 19:10:02.212513 15447 net.cpp:165] Memory required for data: 3603076596
I0413 19:10:02.212520 15447 layer_factory.hpp:77] Creating layer rpn_big_cls_score
I0413 19:10:02.212538 15447 net.cpp:100] Creating Layer rpn_big_cls_score
I0413 19:10:02.212545 15447 net.cpp:434] rpn_big_cls_score <- rpn_big_output_cls
I0413 19:10:02.212558 15447 net.cpp:408] rpn_big_cls_score -> rpn_big_cls_score
I0413 19:10:02.214890 15447 net.cpp:150] Setting up rpn_big_cls_score
I0413 19:10:02.214907 15447 net.cpp:157] Top shape: 1 52 61 92 (291824)
I0413 19:10:02.214913 15447 net.cpp:165] Memory required for data: 3604243892
I0413 19:10:02.214933 15447 layer_factory.hpp:77] Creating layer rpn_big_cls_score_rpn_big_cls_score_0_split
I0413 19:10:02.214948 15447 net.cpp:100] Creating Layer rpn_big_cls_score_rpn_big_cls_score_0_split
I0413 19:10:02.214956 15447 net.cpp:434] rpn_big_cls_score_rpn_big_cls_score_0_split <- rpn_big_cls_score
I0413 19:10:02.214967 15447 net.cpp:408] rpn_big_cls_score_rpn_big_cls_score_0_split -> rpn_big_cls_score_rpn_big_cls_score_0_split_0
I0413 19:10:02.214982 15447 net.cpp:408] rpn_big_cls_score_rpn_big_cls_score_0_split -> rpn_big_cls_score_rpn_big_cls_score_0_split_1
I0413 19:10:02.215024 15447 net.cpp:150] Setting up rpn_big_cls_score_rpn_big_cls_score_0_split
I0413 19:10:02.215035 15447 net.cpp:157] Top shape: 1 52 61 92 (291824)
I0413 19:10:02.215045 15447 net.cpp:157] Top shape: 1 52 61 92 (291824)
I0413 19:10:02.215052 15447 net.cpp:165] Memory required for data: 3606578484
I0413 19:10:02.215059 15447 layer_factory.hpp:77] Creating layer rpn_big_cls_score_reshape
I0413 19:10:02.215072 15447 net.cpp:100] Creating Layer rpn_big_cls_score_reshape
I0413 19:10:02.215080 15447 net.cpp:434] rpn_big_cls_score_reshape <- rpn_big_cls_score_rpn_big_cls_score_0_split_0
I0413 19:10:02.215090 15447 net.cpp:408] rpn_big_cls_score_reshape -> rpn_big_cls_score_reshape
I0413 19:10:02.215122 15447 net.cpp:150] Setting up rpn_big_cls_score_reshape
I0413 19:10:02.215133 15447 net.cpp:157] Top shape: 1 2 1586 92 (291824)
I0413 19:10:02.215140 15447 net.cpp:165] Memory required for data: 3607745780
I0413 19:10:02.215147 15447 layer_factory.hpp:77] Creating layer rpn_big_cls_score_reshape_rpn_big_cls_score_reshape_0_split
I0413 19:10:02.215158 15447 net.cpp:100] Creating Layer rpn_big_cls_score_reshape_rpn_big_cls_score_reshape_0_split
I0413 19:10:02.215167 15447 net.cpp:434] rpn_big_cls_score_reshape_rpn_big_cls_score_reshape_0_split <- rpn_big_cls_score_reshape
I0413 19:10:02.215176 15447 net.cpp:408] rpn_big_cls_score_reshape_rpn_big_cls_score_reshape_0_split -> rpn_big_cls_score_reshape_rpn_big_cls_score_reshape_0_split_0
I0413 19:10:02.215190 15447 net.cpp:408] rpn_big_cls_score_reshape_rpn_big_cls_score_reshape_0_split -> rpn_big_cls_score_reshape_rpn_big_cls_score_reshape_0_split_1
I0413 19:10:02.215230 15447 net.cpp:150] Setting up rpn_big_cls_score_reshape_rpn_big_cls_score_reshape_0_split
I0413 19:10:02.215240 15447 net.cpp:157] Top shape: 1 2 1586 92 (291824)
I0413 19:10:02.215248 15447 net.cpp:157] Top shape: 1 2 1586 92 (291824)
I0413 19:10:02.215255 15447 net.cpp:165] Memory required for data: 3610080372
I0413 19:10:02.215261 15447 layer_factory.hpp:77] Creating layer rpn_big_cls_prob
I0413 19:10:02.215275 15447 net.cpp:100] Creating Layer rpn_big_cls_prob
I0413 19:10:02.215281 15447 net.cpp:434] rpn_big_cls_prob <- rpn_big_cls_score_reshape_rpn_big_cls_score_reshape_0_split_0
I0413 19:10:02.215291 15447 net.cpp:408] rpn_big_cls_prob -> rpn_big_cls_prob
I0413 19:10:02.215350 15447 net.cpp:150] Setting up rpn_big_cls_prob
I0413 19:10:02.215360 15447 net.cpp:157] Top shape: 1 2 1586 92 (291824)
I0413 19:10:02.215366 15447 net.cpp:165] Memory required for data: 3611247668
I0413 19:10:02.215373 15447 layer_factory.hpp:77] Creating layer rpn_big_cls_prob_reshape
I0413 19:10:02.215384 15447 net.cpp:100] Creating Layer rpn_big_cls_prob_reshape
I0413 19:10:02.215392 15447 net.cpp:434] rpn_big_cls_prob_reshape <- rpn_big_cls_prob
I0413 19:10:02.215402 15447 net.cpp:408] rpn_big_cls_prob_reshape -> rpn_big_cls_prob_reshape
I0413 19:10:02.215432 15447 net.cpp:150] Setting up rpn_big_cls_prob_reshape
I0413 19:10:02.215441 15447 net.cpp:157] Top shape: 1 52 61 92 (291824)
I0413 19:10:02.215447 15447 net.cpp:165] Memory required for data: 3612414964
I0413 19:10:02.215453 15447 layer_factory.hpp:77] Creating layer rpn_big_cls_prob_reshape_rpn_big_cls_prob_reshape_0_split
I0413 19:10:02.215463 15447 net.cpp:100] Creating Layer rpn_big_cls_prob_reshape_rpn_big_cls_prob_reshape_0_split
I0413 19:10:02.215471 15447 net.cpp:434] rpn_big_cls_prob_reshape_rpn_big_cls_prob_reshape_0_split <- rpn_big_cls_prob_reshape
I0413 19:10:02.215481 15447 net.cpp:408] rpn_big_cls_prob_reshape_rpn_big_cls_prob_reshape_0_split -> rpn_big_cls_prob_reshape_rpn_big_cls_prob_reshape_0_split_0
I0413 19:10:02.215493 15447 net.cpp:408] rpn_big_cls_prob_reshape_rpn_big_cls_prob_reshape_0_split -> rpn_big_cls_prob_reshape_rpn_big_cls_prob_reshape_0_split_1
I0413 19:10:02.215535 15447 net.cpp:150] Setting up rpn_big_cls_prob_reshape_rpn_big_cls_prob_reshape_0_split
I0413 19:10:02.215545 15447 net.cpp:157] Top shape: 1 52 61 92 (291824)
I0413 19:10:02.215553 15447 net.cpp:157] Top shape: 1 52 61 92 (291824)
I0413 19:10:02.215559 15447 net.cpp:165] Memory required for data: 3614749556
I0413 19:10:02.215565 15447 layer_factory.hpp:77] Creating layer rpn_big_anchor_target
I0413 19:10:02.216873 15447 net.cpp:100] Creating Layer rpn_big_anchor_target
I0413 19:10:02.216888 15447 net.cpp:434] rpn_big_anchor_target <- rpn_big_cls_score_rpn_big_cls_score_0_split_1
I0413 19:10:02.216897 15447 net.cpp:434] rpn_big_anchor_target <- input_gt_boxes_input_2_split_0
I0413 19:10:02.216915 15447 net.cpp:434] rpn_big_anchor_target <- input_ignored_boxes
I0413 19:10:02.216924 15447 net.cpp:434] rpn_big_anchor_target <- input_im_info_input_1_split_0
I0413 19:10:02.216934 15447 net.cpp:434] rpn_big_anchor_target <- input_data_input_0_split_1
I0413 19:10:02.216944 15447 net.cpp:434] rpn_big_anchor_target <- rpn_big_cls_prob_reshape_rpn_big_cls_prob_reshape_0_split_0
I0413 19:10:02.216958 15447 net.cpp:408] rpn_big_anchor_target -> rpn_big_anchor_target_labels
I0413 19:10:02.216974 15447 net.cpp:408] rpn_big_anchor_target -> rpn_big_anchor_target_bbox_targets
I0413 19:10:02.216989 15447 net.cpp:408] rpn_big_anchor_target -> rpn_big_anchor_target_inside_weights
I0413 19:10:02.217002 15447 net.cpp:408] rpn_big_anchor_target -> rpn_big_anchor_target_outside_weights
I0413 19:10:02.221751 15447 net.cpp:150] Setting up rpn_big_anchor_target
I0413 19:10:02.221776 15447 net.cpp:157] Top shape: 1 1 1586 92 (145912)
I0413 19:10:02.221783 15447 net.cpp:157] Top shape: 1 104 61 92 (583648)
I0413 19:10:02.221791 15447 net.cpp:157] Top shape: 1 104 61 92 (583648)
I0413 19:10:02.221806 15447 net.cpp:157] Top shape: 1 104 61 92 (583648)
I0413 19:10:02.221813 15447 net.cpp:165] Memory required for data: 3622336980
I0413 19:10:02.221822 15447 layer_factory.hpp:77] Creating layer rpn_big_loss_cls
I0413 19:10:02.221837 15447 net.cpp:100] Creating Layer rpn_big_loss_cls
I0413 19:10:02.221845 15447 net.cpp:434] rpn_big_loss_cls <- rpn_big_cls_score_reshape_rpn_big_cls_score_reshape_0_split_1
I0413 19:10:02.221855 15447 net.cpp:434] rpn_big_loss_cls <- rpn_big_anchor_target_labels
I0413 19:10:02.221868 15447 net.cpp:408] rpn_big_loss_cls -> rpn_big_loss_cls
I0413 19:10:02.221885 15447 layer_factory.hpp:77] Creating layer rpn_big_loss_cls
I0413 19:10:02.222522 15447 net.cpp:150] Setting up rpn_big_loss_cls
I0413 19:10:02.222537 15447 net.cpp:157] Top shape: (1)
I0413 19:10:02.222543 15447 net.cpp:160]     with loss weight 1
I0413 19:10:02.222558 15447 net.cpp:165] Memory required for data: 3622336984
I0413 19:10:02.222566 15447 layer_factory.hpp:77] Creating layer rpn_big_output_box
I0413 19:10:02.222585 15447 net.cpp:100] Creating Layer rpn_big_output_box
I0413 19:10:02.222592 15447 net.cpp:434] rpn_big_output_box <- rpn_big_conv2_rpn_big_conv2_drop_0_split_1
I0413 19:10:02.222606 15447 net.cpp:408] rpn_big_output_box -> rpn_big_output_box
I0413 19:10:02.241505 15447 net.cpp:150] Setting up rpn_big_output_box
I0413 19:10:02.241539 15447 net.cpp:157] Top shape: 1 384 63 94 (2274048)
I0413 19:10:02.241545 15447 net.cpp:165] Memory required for data: 3631433176
I0413 19:10:02.241569 15447 layer_factory.hpp:77] Creating layer rpn_big_output_box_relu
I0413 19:10:02.241585 15447 net.cpp:100] Creating Layer rpn_big_output_box_relu
I0413 19:10:02.241597 15447 net.cpp:434] rpn_big_output_box_relu <- rpn_big_output_box
I0413 19:10:02.241611 15447 net.cpp:395] rpn_big_output_box_relu -> rpn_big_output_box (in-place)
I0413 19:10:02.241633 15447 net.cpp:150] Setting up rpn_big_output_box_relu
I0413 19:10:02.241643 15447 net.cpp:157] Top shape: 1 384 63 94 (2274048)
I0413 19:10:02.241649 15447 net.cpp:165] Memory required for data: 3640529368
I0413 19:10:02.241655 15447 layer_factory.hpp:77] Creating layer rpn_big_bbox_pred
I0413 19:10:02.241674 15447 net.cpp:100] Creating Layer rpn_big_bbox_pred
I0413 19:10:02.241681 15447 net.cpp:434] rpn_big_bbox_pred <- rpn_big_output_box
I0413 19:10:02.241703 15447 net.cpp:408] rpn_big_bbox_pred -> rpn_big_bbox_pred
I0413 19:10:02.245868 15447 net.cpp:150] Setting up rpn_big_bbox_pred
I0413 19:10:02.245896 15447 net.cpp:157] Top shape: 1 104 61 92 (583648)
I0413 19:10:02.245903 15447 net.cpp:165] Memory required for data: 3642863960
I0413 19:10:02.245918 15447 layer_factory.hpp:77] Creating layer rpn_big_bbox_pred_rpn_big_bbox_pred_0_split
I0413 19:10:02.245934 15447 net.cpp:100] Creating Layer rpn_big_bbox_pred_rpn_big_bbox_pred_0_split
I0413 19:10:02.245942 15447 net.cpp:434] rpn_big_bbox_pred_rpn_big_bbox_pred_0_split <- rpn_big_bbox_pred
I0413 19:10:02.245955 15447 net.cpp:408] rpn_big_bbox_pred_rpn_big_bbox_pred_0_split -> rpn_big_bbox_pred_rpn_big_bbox_pred_0_split_0
I0413 19:10:02.245971 15447 net.cpp:408] rpn_big_bbox_pred_rpn_big_bbox_pred_0_split -> rpn_big_bbox_pred_rpn_big_bbox_pred_0_split_1
I0413 19:10:02.246023 15447 net.cpp:150] Setting up rpn_big_bbox_pred_rpn_big_bbox_pred_0_split
I0413 19:10:02.246033 15447 net.cpp:157] Top shape: 1 104 61 92 (583648)
I0413 19:10:02.246042 15447 net.cpp:157] Top shape: 1 104 61 92 (583648)
I0413 19:10:02.246047 15447 net.cpp:165] Memory required for data: 3647533144
I0413 19:10:02.246053 15447 layer_factory.hpp:77] Creating layer rpn_big_loss_bbox
I0413 19:10:02.246417 15447 net.cpp:100] Creating Layer rpn_big_loss_bbox
I0413 19:10:02.246428 15447 net.cpp:434] rpn_big_loss_bbox <- rpn_big_bbox_pred_rpn_big_bbox_pred_0_split_0
I0413 19:10:02.246436 15447 net.cpp:434] rpn_big_loss_bbox <- rpn_big_anchor_target_bbox_targets
I0413 19:10:02.246444 15447 net.cpp:434] rpn_big_loss_bbox <- rpn_big_anchor_target_inside_weights
I0413 19:10:02.246453 15447 net.cpp:434] rpn_big_loss_bbox <- rpn_big_anchor_target_outside_weights
I0413 19:10:02.246464 15447 net.cpp:408] rpn_big_loss_bbox -> rpn_big_loss_bbox
I0413 19:10:02.248235 15447 net.cpp:150] Setting up rpn_big_loss_bbox
I0413 19:10:02.248272 15447 net.cpp:157] Top shape: 1 (1)
I0413 19:10:02.248277 15447 net.cpp:160]     with loss weight 1
I0413 19:10:02.248292 15447 net.cpp:165] Memory required for data: 3647533148
I0413 19:10:02.248301 15447 layer_factory.hpp:77] Creating layer proposal
I0413 19:10:02.248716 15447 net.cpp:100] Creating Layer proposal
I0413 19:10:02.248728 15447 net.cpp:434] proposal <- rpn_big_cls_prob_reshape_rpn_big_cls_prob_reshape_0_split_1
I0413 19:10:02.248740 15447 net.cpp:434] proposal <- rpn_big_bbox_pred_rpn_big_bbox_pred_0_split_1
I0413 19:10:02.248749 15447 net.cpp:434] proposal <- input_im_info_input_1_split_1
I0413 19:10:02.248761 15447 net.cpp:408] proposal -> rpn_rois
I0413 19:10:02.253492 15447 net.cpp:150] Setting up proposal
I0413 19:10:02.253515 15447 net.cpp:157] Top shape: 1 5 (5)
I0413 19:10:02.253520 15447 net.cpp:165] Memory required for data: 3647533168
I0413 19:10:02.253527 15447 layer_factory.hpp:77] Creating layer roi-data
I0413 19:10:02.253893 15447 net.cpp:100] Creating Layer roi-data
I0413 19:10:02.253906 15447 net.cpp:434] roi-data <- rpn_rois
I0413 19:10:02.253916 15447 net.cpp:434] roi-data <- input_gt_boxes_input_2_split_1
I0413 19:10:02.253928 15447 net.cpp:408] roi-data -> rois
I0413 19:10:02.253944 15447 net.cpp:408] roi-data -> labels
I0413 19:10:02.253958 15447 net.cpp:408] roi-data -> bbox_targets
I0413 19:10:02.253973 15447 net.cpp:408] roi-data -> bbox_inside_weights
I0413 19:10:02.253988 15447 net.cpp:408] roi-data -> bbox_outside_weights
I0413 19:10:02.254004 15447 net.cpp:408] roi-data -> pid_label
anchors:
<<<<<<<<<<<<<<<<<<<<<<<<<<<<<<<<<<<<<<<<<<<<<<<<<<<<<<<<<<<<<<<<<<<<<<<<<<<<<<<<<<<<<<<<<<<<<<<<<<<<<<<<<<<<<<<<<<<<<<<<<<<<<<<<<<<<<<<<<<<<<<<<<<<<<<<<<<<<<<<<<<<<<<<<<<<<<<<<<<<<<<<<<<<<<<<<<<<<<<<<<<<<<<<<<<<<<<<<<<<<<<<<<<<<<<<<<<<<<<<<<<<<<<<<<<<<<<<<<<<<<<<<<<<<<<<<<<<<<<<<<<<<<<<<<<<<<<<<<<<<
[[ -84.  -40.   99.   55.]
 [-176.  -88.  191.  103.]
 [-360. -184.  375.  199.]
 [ -56.  -56.   71.   71.]
 [-120. -120.  135.  135.]
 [-248. -248.  263.  263.]
 [ -36.  -80.   51.   95.]
 [ -80. -168.   95.  183.]
 [-168. -344.  183.  359.]]
I0413 19:10:02.256258 15447 net.cpp:150] Setting up roi-data
I0413 19:10:02.256278 15447 net.cpp:157] Top shape: 1 5 (5)
I0413 19:10:02.256285 15447 net.cpp:157] Top shape: 1 1 (1)
I0413 19:10:02.256292 15447 net.cpp:157] Top shape: 1 8 (8)
I0413 19:10:02.256299 15447 net.cpp:157] Top shape: 1 8 (8)
I0413 19:10:02.256306 15447 net.cpp:157] Top shape: 1 8 (8)
I0413 19:10:02.256314 15447 net.cpp:157] Top shape: (0)
I0413 19:10:02.256319 15447 net.cpp:165] Memory required for data: 3647533288
I0413 19:10:02.256326 15447 layer_factory.hpp:77] Creating layer roi-pool
I0413 19:10:02.256340 15447 net.cpp:100] Creating Layer roi-pool
I0413 19:10:02.256348 15447 net.cpp:434] roi-pool <- conv5_3_relu5_3_0_split_1
I0413 19:10:02.256357 15447 net.cpp:434] roi-pool <- rois
I0413 19:10:02.256368 15447 net.cpp:408] roi-pool -> roi-pool
I0413 19:10:02.256387 15447 roi_pooling_layer.cpp:33] Spatial scale: 0.0625
I0413 19:10:02.256402 15447 roi_pooling_layer.cpp:34] Box scale: 1
I0413 19:10:02.256456 15447 net.cpp:150] Setting up roi-pool
I0413 19:10:02.256467 15447 net.cpp:157] Top shape: 1 512 7 7 (25088)
I0413 19:10:02.256472 15447 net.cpp:165] Memory required for data: 3647633640
I0413 19:10:02.256477 15447 layer_factory.hpp:77] Creating layer fc6
I0413 19:10:02.256489 15447 net.cpp:100] Creating Layer fc6
I0413 19:10:02.256494 15447 net.cpp:434] fc6 <- roi-pool
I0413 19:10:02.256502 15447 net.cpp:408] fc6 -> fc6
I0413 19:10:02.419103 15447 net.cpp:150] Setting up fc6
I0413 19:10:02.419140 15447 net.cpp:157] Top shape: 1 4096 (4096)
I0413 19:10:02.419147 15447 net.cpp:165] Memory required for data: 3647650024
I0413 19:10:02.419170 15447 layer_factory.hpp:77] Creating layer relu6
I0413 19:10:02.419185 15447 net.cpp:100] Creating Layer relu6
I0413 19:10:02.419198 15447 net.cpp:434] relu6 <- fc6
I0413 19:10:02.419211 15447 net.cpp:395] relu6 -> fc6 (in-place)
I0413 19:10:02.419227 15447 net.cpp:150] Setting up relu6
I0413 19:10:02.419234 15447 net.cpp:157] Top shape: 1 4096 (4096)
I0413 19:10:02.419239 15447 net.cpp:165] Memory required for data: 3647666408
I0413 19:10:02.419245 15447 layer_factory.hpp:77] Creating layer drop6
I0413 19:10:02.419255 15447 net.cpp:100] Creating Layer drop6
I0413 19:10:02.419261 15447 net.cpp:434] drop6 <- fc6
I0413 19:10:02.419271 15447 net.cpp:395] drop6 -> fc6 (in-place)
I0413 19:10:02.419306 15447 net.cpp:150] Setting up drop6
I0413 19:10:02.419317 15447 net.cpp:157] Top shape: 1 4096 (4096)
I0413 19:10:02.419322 15447 net.cpp:165] Memory required for data: 3647682792
I0413 19:10:02.419328 15447 layer_factory.hpp:77] Creating layer fc7
I0413 19:10:02.419343 15447 net.cpp:100] Creating Layer fc7
I0413 19:10:02.419350 15447 net.cpp:434] fc7 <- fc6
I0413 19:10:02.419359 15447 net.cpp:408] fc7 -> fc7
I0413 19:10:02.447252 15447 net.cpp:150] Setting up fc7
I0413 19:10:02.447284 15447 net.cpp:157] Top shape: 1 4096 (4096)
I0413 19:10:02.447289 15447 net.cpp:165] Memory required for data: 3647699176
I0413 19:10:02.447314 15447 layer_factory.hpp:77] Creating layer relu7
I0413 19:10:02.447340 15447 net.cpp:100] Creating Layer relu7
I0413 19:10:02.447348 15447 net.cpp:434] relu7 <- fc7
I0413 19:10:02.447361 15447 net.cpp:395] relu7 -> fc7 (in-place)
I0413 19:10:02.447377 15447 net.cpp:150] Setting up relu7
I0413 19:10:02.447386 15447 net.cpp:157] Top shape: 1 4096 (4096)
I0413 19:10:02.447391 15447 net.cpp:165] Memory required for data: 3647715560
I0413 19:10:02.447401 15447 layer_factory.hpp:77] Creating layer drop7
I0413 19:10:02.447412 15447 net.cpp:100] Creating Layer drop7
I0413 19:10:02.447419 15447 net.cpp:434] drop7 <- fc7
I0413 19:10:02.447428 15447 net.cpp:395] drop7 -> fc7 (in-place)
I0413 19:10:02.447458 15447 net.cpp:150] Setting up drop7
I0413 19:10:02.447466 15447 net.cpp:157] Top shape: 1 4096 (4096)
I0413 19:10:02.447473 15447 net.cpp:165] Memory required for data: 3647731944
I0413 19:10:02.447479 15447 layer_factory.hpp:77] Creating layer fc7_drop7_0_split
I0413 19:10:02.447489 15447 net.cpp:100] Creating Layer fc7_drop7_0_split
I0413 19:10:02.447496 15447 net.cpp:434] fc7_drop7_0_split <- fc7
I0413 19:10:02.447506 15447 net.cpp:408] fc7_drop7_0_split -> fc7_drop7_0_split_0
I0413 19:10:02.447536 15447 net.cpp:408] fc7_drop7_0_split -> fc7_drop7_0_split_1
I0413 19:10:02.447576 15447 net.cpp:150] Setting up fc7_drop7_0_split
I0413 19:10:02.447587 15447 net.cpp:157] Top shape: 1 4096 (4096)
I0413 19:10:02.447595 15447 net.cpp:157] Top shape: 1 4096 (4096)
I0413 19:10:02.447602 15447 net.cpp:165] Memory required for data: 3647764712
I0413 19:10:02.447608 15447 layer_factory.hpp:77] Creating layer bbox_pred
I0413 19:10:02.447624 15447 net.cpp:100] Creating Layer bbox_pred
I0413 19:10:02.447631 15447 net.cpp:434] bbox_pred <- fc7_drop7_0_split_0
I0413 19:10:02.447643 15447 net.cpp:408] bbox_pred -> bbox_pred
I0413 19:10:02.448068 15447 net.cpp:150] Setting up bbox_pred
I0413 19:10:02.448079 15447 net.cpp:157] Top shape: 1 8 (8)
I0413 19:10:02.448084 15447 net.cpp:165] Memory required for data: 3647764744
I0413 19:10:02.448096 15447 layer_factory.hpp:77] Creating layer loss_bbox
I0413 19:10:02.448109 15447 net.cpp:100] Creating Layer loss_bbox
I0413 19:10:02.448117 15447 net.cpp:434] loss_bbox <- bbox_pred
I0413 19:10:02.448124 15447 net.cpp:434] loss_bbox <- bbox_targets
I0413 19:10:02.448133 15447 net.cpp:434] loss_bbox <- bbox_inside_weights
I0413 19:10:02.448143 15447 net.cpp:434] loss_bbox <- bbox_outside_weights
I0413 19:10:02.448153 15447 net.cpp:408] loss_bbox -> loss_bbox
I0413 19:10:02.448227 15447 net.cpp:150] Setting up loss_bbox
I0413 19:10:02.448236 15447 net.cpp:157] Top shape: (1)
I0413 19:10:02.448242 15447 net.cpp:160]     with loss weight 1
I0413 19:10:02.448258 15447 net.cpp:165] Memory required for data: 3647764748
I0413 19:10:02.448266 15447 layer_factory.hpp:77] Creating layer feat
I0413 19:10:02.448278 15447 net.cpp:100] Creating Layer feat
I0413 19:10:02.448287 15447 net.cpp:434] feat <- fc7_drop7_0_split_1
I0413 19:10:02.448297 15447 net.cpp:408] feat -> feat
I0413 19:10:02.459455 15447 net.cpp:150] Setting up feat
I0413 19:10:02.459491 15447 net.cpp:157] Top shape: 1 256 (256)
I0413 19:10:02.459496 15447 net.cpp:165] Memory required for data: 3647765772
I0413 19:10:02.459512 15447 layer_factory.hpp:77] Creating layer relu8
I0413 19:10:02.459527 15447 net.cpp:100] Creating Layer relu8
I0413 19:10:02.459535 15447 net.cpp:434] relu8 <- feat
I0413 19:10:02.459547 15447 net.cpp:395] relu8 -> feat (in-place)
I0413 19:10:02.459569 15447 net.cpp:150] Setting up relu8
I0413 19:10:02.459576 15447 net.cpp:157] Top shape: 1 256 (256)
I0413 19:10:02.459578 15447 net.cpp:165] Memory required for data: 3647766796
I0413 19:10:02.459583 15447 layer_factory.hpp:77] Creating layer drop8
I0413 19:10:02.459589 15447 net.cpp:100] Creating Layer drop8
I0413 19:10:02.459592 15447 net.cpp:434] drop8 <- feat
I0413 19:10:02.459596 15447 net.cpp:395] drop8 -> feat (in-place)
I0413 19:10:02.459619 15447 net.cpp:150] Setting up drop8
I0413 19:10:02.459625 15447 net.cpp:157] Top shape: 1 256 (256)
I0413 19:10:02.459628 15447 net.cpp:165] Memory required for data: 3647767820
I0413 19:10:02.459631 15447 layer_factory.hpp:77] Creating layer pid_score
I0413 19:10:02.459640 15447 net.cpp:100] Creating Layer pid_score
I0413 19:10:02.459645 15447 net.cpp:434] pid_score <- feat
I0413 19:10:02.459650 15447 net.cpp:408] pid_score -> pid_score
I0413 19:10:02.474833 15447 net.cpp:150] Setting up pid_score
I0413 19:10:02.474861 15447 net.cpp:157] Top shape: 1 5533 (5533)
I0413 19:10:02.474874 15447 net.cpp:165] Memory required for data: 3647789952
I0413 19:10:02.474885 15447 layer_factory.hpp:77] Creating layer pid_loss
I0413 19:10:02.474896 15447 net.cpp:100] Creating Layer pid_loss
I0413 19:10:02.474901 15447 net.cpp:434] pid_loss <- pid_score
I0413 19:10:02.474908 15447 net.cpp:434] pid_loss <- pid_label
I0413 19:10:02.474917 15447 net.cpp:408] pid_loss -> pid_loss
…
