…
I0413 18:55:54.600054 14652 solver.cpp:48] Initializing solver from parameters: 
base_lr: 0.001
display: 20
lr_policy: "multistep"
gamma: 0.1
momentum: 0.9
weight_decay: 0.0005
snapshot: 0
snapshot_prefix: "faces_example"
net_param {
  name: "GeneratedModel_13_04_2017_18_55"
  layer {
    name: "input"
    type: "Python"
    top: "input_data"
    top: "input_im_info"
    top: "input_gt_boxes"
    top: "input_ignored_boxes"
    python_param {
      module: "layers.roi_data_layer"
      layer: "RoIDataLayer"
      param_str: "{\"num_classes\": 2}"
    }
  }
  layer {
    name: "conv1_1"
    type: "Convolution"
    bottom: "input_data"
    top: "conv1_1"
    param {
      lr_mult: 0
      decay_mult: 0
    }
    param {
      lr_mult: 0
      decay_mult: 0
    }
    convolution_param {
      num_output: 64
      pad: 1
      kernel_size: 3
    }
  }
  layer {
    name: "relu1_1"
    type: "ReLU"
    bottom: "conv1_1"
    top: "conv1_1"
  }
  layer {
    name: "conv1_2"
    type: "Convolution"
    bottom: "conv1_1"
    top: "conv1_2"
    param {
      lr_mult: 0
      decay_mult: 0
    }
    param {
      lr_mult: 0
      decay_mult: 0
    }
    convolution_param {
      num_output: 64
      pad: 1
      kernel_size: 3
    }
  }
  layer {
    name: "relu1_2"
    type: "ReLU"
    bottom: "conv1_2"
    top: "conv1_2"
  }
  layer {
    name: "pool1"
    type: "Pooling"
    bottom: "conv1_2"
    top: "pool1"
    pooling_param {
      pool: MAX
      kernel_size: 2
      stride: 2
    }
  }
  layer {
    name: "conv2_1"
    type: "Convolution"
    bottom: "pool1"
    top: "conv2_1"
    param {
      lr_mult: 0
      decay_mult: 0
    }
    param {
      lr_mult: 0
      decay_mult: 0
    }
    convolution_param {
      num_output: 128
      pad: 1
      kernel_size: 3
    }
  }
  layer {
    name: "relu2_1"
    type: "ReLU"
    bottom: "conv2_1"
    top: "conv2_1"
  }
  layer {
    name: "conv2_2"
    type: "Convolution"
    bottom: "conv2_1"
    top: "conv2_2"
    param {
      lr_mult: 0
      decay_mult: 0
    }
    param {
      lr_mult: 0
      decay_mult: 0
    }
    convolution_param {
      num_output: 128
      pad: 1
      kernel_size: 3
    }
  }
  layer {
    name: "relu2_2"
    type: "ReLU"
    bottom: "conv2_2"
    top: "conv2_2"
  }
  layer {
    name: "pool2"
    type: "Pooling"
    bottom: "conv2_2"
    top: "pool2"
    pooling_param {
      pool: MAX
      kernel_size: 2
      stride: 2
    }
  }
  layer {
    name: "conv3_1"
    type: "Convolution"
    bottom: "pool2"
    top: "conv3_1"
    param {
      lr_mult: 1
    }
    param {
      lr_mult: 2
    }
    convolution_param {
      num_output: 256
      pad: 1
      kernel_size: 3
    }
  }
  layer {
    name: "relu3_1"
    type: "ReLU"
    bottom: "conv3_1"
    top: "conv3_1"
  }
  layer {
    name: "conv3_2"
    type: "Convolution"
    bottom: "conv3_1"
    top: "conv3_2"
    param {
      lr_mult: 1
    }
    param {
      lr_mult: 2
    }
    convolution_param {
      num_output: 256
      pad: 1
      kernel_size: 3
    }
  }
  layer {
    name: "relu3_2"
    type: "ReLU"
    bottom: "conv3_2"
    top: "conv3_2"
  }
  layer {
    name: "conv3_3"
    type: "Convolution"
    bottom: "conv3_2"
    top: "conv3_3"
    param {
      lr_mult: 1
    }
    param {
      lr_mult: 2
    }
    convolution_param {
      num_output: 256
      pad: 1
      kernel_size: 3
    }
  }
  layer {
    name: "relu3_3"
    type: "ReLU"
    bottom: "conv3_3"
    top: "conv3_3"
  }
  layer {
    name: "pool3"
    type: "Pooling"
    bottom: "conv3_3"
    top: "pool3"
    pooling_param {
      pool: MAX
      kernel_size: 2
      stride: 2
    }
  }
  layer {
    name: "conv4_1"
    type: "Convolution"
    bottom: "pool3"
    top: "conv4_1"
    param {
      lr_mult: 1
    }
    param {
      lr_mult: 2
    }
    convolution_param {
      num_output: 512
      pad: 1
      kernel_size: 3
    }
  }
  layer {
    name: "relu4_1"
    type: "ReLU"
    bottom: "conv4_1"
    top: "conv4_1"
  }
  layer {
    name: "conv4_2"
    type: "Convolution"
    bottom: "conv4_1"
    top: "conv4_2"
    param {
      lr_mult: 1
    }
    param {
      lr_mult: 2
    }
    convolution_param {
      num_output: 512
      pad: 1
      kernel_size: 3
    }
  }
  layer {
    name: "relu4_2"
    type: "ReLU"
    bottom: "conv4_2"
    top: "conv4_2"
  }
  layer {
    name: "conv4_3"
    type: "Convolution"
    bottom: "conv4_2"
    top: "conv4_3"
    param {
      lr_mult: 1
    }
    param {
      lr_mult: 2
    }
    convolution_param {
      num_output: 512
      pad: 1
      kernel_size: 3
    }
  }
  layer {
    name: "relu4_3"
    type: "ReLU"
    bottom: "conv4_3"
    top: "conv4_3"
  }
  layer {
    name: "pool4"
    type: "Pooling"
    bottom: "conv4_3"
    top: "pool4"
    pooling_param {
      pool: MAX
      kernel_size: 2
      stride: 2
    }
  }
  layer {
    name: "conv5_1"
    type: "Convolution"
    bottom: "pool4"
    top: "conv5_1"
    param {
      lr_mult: 1
    }
    param {
      lr_mult: 2
    }
    convolution_param {
      num_output: 512
      pad: 1
      kernel_size: 3
    }
  }
  layer {
    name: "relu5_1"
    type: "ReLU"
    bottom: "conv5_1"
    top: "conv5_1"
  }
  layer {
    name: "conv5_2"
    type: "Convolution"
    bottom: "conv5_1"
    top: "conv5_2"
    param {
      lr_mult: 1
    }
    param {
      lr_mult: 2
    }
    convolution_param {
      num_output: 512
      pad: 1
      kernel_size: 3
    }
  }
  layer {
    name: "relu5_2"
    type: "ReLU"
    bottom: "conv5_2"
    top: "conv5_2"
  }
  layer {
    name: "conv5_3"
    type: "Convolution"
    bottom: "conv5_2"
    top: "conv5_3"
    param {
      lr_mult: 1
    }
    param {
      lr_mult: 2
    }
    convolution_param {
      num_output: 512
      pad: 1
      kernel_size: 3
    }
  }
  layer {
    name: "relu5_3"
    type: "ReLU"
    bottom: "conv5_3"
    top: "conv5_3"
  }
  layer {
    name: "rpn_big_conv1"
    type: "Convolution"
    bottom: "conv5_3"
    top: "rpn_big_conv1"
    param {
      lr_mult: 1
    }
    param {
      lr_mult: 2
    }
    convolution_param {
      num_output: 512
      pad: 1
      kernel_size: 3
      stride: 1
      weight_filler {
        type: "gaussian"
        mean: 0
        std: 0.01
      }
      bias_filler {
        type: "constant"
      }
    }
  }
  layer {
    name: "rpn_big_conv1_relu"
    type: "ReLU"
    bottom: "rpn_big_conv1"
    top: "rpn_big_conv1"
    relu_param {
      negative_slope: 0
    }
  }
  layer {
    name: "rpn_big_conv2"
    type: "Convolution"
    bottom: "rpn_big_conv1"
    top: "rpn_big_conv2"
    param {
      lr_mult: 1
    }
    param {
      lr_mult: 2
    }
    convolution_param {
      num_output: 512
      pad: 1
      kernel_size: 3
      stride: 1
      weight_filler {
        type: "gaussian"
        mean: 0
        std: 0.01
      }
      bias_filler {
        type: "constant"
      }
    }
  }
  layer {
    name: "rpn_big_conv2_relu"
    type: "ReLU"
    bottom: "rpn_big_conv2"
    top: "rpn_big_conv2"
    relu_param {
      negative_slope: 0
    }
  }
  layer {
    name: "rpn_big_conv2_drop"
    type: "Dropout"
    bottom: "rpn_big_conv2"
    top: "rpn_big_conv2"
    dropout_param {
      dropout_ratio: 0.3
    }
  }
  layer {
    name: "rpn_big_output_cls"
    type: "Convolution"
    bottom: "rpn_big_conv2"
    top: "rpn_big_output_cls"
    param {
      lr_mult: 1
    }
    param {
      lr_mult: 2
    }
    convolution_param {
      num_output: 384
      pad: 1
      kernel_size: 3
      stride: 1
      weight_filler {
        type: "gaussian"
        mean: 0
        std: 0.01
      }
      bias_filler {
        type: "constant"
      }
    }
  }
  layer {
    name: "rpn_big_output_cls_relu"
    type: "ReLU"
    bottom: "rpn_big_output_cls"
    top: "rpn_big_output_cls"
    relu_param {
      negative_slope: 0
    }
  }
  layer {
    name: "rpn_big_cls_score"
    type: "Convolution"
    bottom: "rpn_big_output_cls"
    top: "rpn_big_cls_score"
    param {
      lr_mult: 1
    }
    param {
      lr_mult: 2
    }
    convolution_param {
      num_output: 52
      pad: 0
      kernel_size: 3
      stride: 1
      weight_filler {
        type: "gaussian"
        mean: 0
        std: 0.01
      }
      bias_filler {
        type: "constant"
      }
    }
  }
  layer {
    name: "rpn_big_cls_score_reshape"
    type: "Reshape"
    bottom: "rpn_big_cls_score"
    top: "rpn_big_cls_score_reshape"
    reshape_param {
      shape {
        dim: 0
        dim: 2
        dim: -1
        dim: 0
      }
    }
  }
  layer {
    name: "rpn_big_cls_prob"
    type: "Softmax"
    bottom: "rpn_big_cls_score_reshape"
    top: "rpn_big_cls_prob"
  }
  layer {
    name: "rpn_big_cls_prob_reshape"
    type: "Reshape"
    bottom: "rpn_big_cls_prob"
    top: "rpn_big_cls_prob_reshape"
    reshape_param {
      shape {
        dim: 0
        dim: 52
        dim: -1
        dim: 0
      }
    }
  }
  layer {
    name: "rpn_big_anchor_target"
    type: "Python"
    bottom: "rpn_big_cls_score"
    bottom: "input_gt_boxes"
    bottom: "input_ignored_boxes"
    bottom: "input_im_info"
    bottom: "input_data"
    bottom: "rpn_big_cls_prob_reshape"
    top: "rpn_big_anchor_target_labels"
    top: "rpn_big_anchor_target_bbox_targets"
    top: "rpn_big_anchor_target_inside_weights"
    top: "rpn_big_anchor_target_outside_weights"
    python_param {
      module: "rpn.anchor_target_layer"
      layer: "AnchorTargetLayer"
      param_str: "{\"square_targets\": true, \"batchsize\": 256, \"anchor_shift_num_xy\": [[2, 2], [2, 2], [2, 2], [2, 2], [1, 1], [1, 1], [1, 1], [1, 1], [1, 1], [1, 1], [1, 1], [1, 1], [1, 1], [1, 1]], \"tn_fraction\": 0.2, \"anchor_ratios\": [1.0], \"fg_fraction\": 0.5, \"feat_stride\": 16, \"positive_overlap\": 0.6, \"anchor_scales\": [2.5, 3.025, 3.66025, 4.4289024999999995, 5.358972025, 6.484356150249999, 7.846070941802498, 9.493745839581022, 11.487432465893036, 13.899793283730574, 16.818749873313998, 20.350687346709933, 24.62433168951902, 29.795441344318014], \"name\": \"rpn_big\", \"num_classes\": 1, \"negative_overlap\": 0.4}"
    }
  }
  layer {
    name: "rpn_big_loss_cls"
    type: "SoftmaxWithLoss"
    bottom: "rpn_big_cls_score_reshape"
    bottom: "rpn_big_anchor_target_labels"
    top: "rpn_big_loss_cls"
    loss_weight: 1
    propagate_down: true
    propagate_down: false
    loss_param {
      ignore_label: -1
      normalization: VALID
    }
  }
  layer {
    name: "rpn_big_output_box"
    type: "Convolution"
    bottom: "rpn_big_conv2"
    top: "rpn_big_output_box"
    param {
      lr_mult: 1
    }
    param {
      lr_mult: 2
    }
    convolution_param {
      num_output: 384
      pad: 1
      kernel_size: 3
      stride: 1
      weight_filler {
        type: "gaussian"
        mean: 0
        std: 0.01
      }
      bias_filler {
        type: "constant"
      }
    }
  }
  layer {
    name: "rpn_big_output_box_relu"
    type: "ReLU"
    bottom: "rpn_big_output_box"
    top: "rpn_big_output_box"
    relu_param {
      negative_slope: 0
    }
  }
  layer {
    name: "rpn_big_bbox_pred"
    type: "Convolution"
    bottom: "rpn_big_output_box"
    top: "rpn_big_bbox_pred"
    param {
      lr_mult: 1
    }
    param {
      lr_mult: 2
    }
    convolution_param {
      num_output: 104
      pad: 0
      kernel_size: 3
      stride: 1
      weight_filler {
        type: "gaussian"
        mean: 0
        std: 0.01
      }
      bias_filler {
        type: "constant"
      }
    }
  }
  layer {
    name: "rpn_big_loss_bbox"
    type: "Python"
    bottom: "rpn_big_bbox_pred"
    bottom: "rpn_big_anchor_target_bbox_targets"
    bottom: "rpn_big_anchor_target_inside_weights"
    bottom: "rpn_big_anchor_target_outside_weights"
    top: "rpn_big_loss_bbox"
    loss_weight: 1
    python_param {
      module: "layers.smooth_l1_loss"
      layer: "SmoothL1LossLayer"
      param_str: "{\"sigma\": 3}"
    }
  }
  layer {
    name: "proposal"
    type: "Python"
    bottom: "rpn_big_cls_prob_reshape"
    bottom: "rpn_big_bbox_pred"
    bottom: "input_im_info"
    top: "rpn_rois"
    python_param {
      module: "rpn.proposal_layer"
      layer: "ProposalLayer"
      param_str: "{\"anchor_shift_num_xy\": [[2, 2], [2, 2], [2, 2], [2, 2], [1, 1], [1, 1], [1, 1], [1, 1], [1, 1], [1, 1], [1, 1], [1, 1], [1, 1], [1, 1]], \"feat_stride\": 16, \"num_classes\": 1, \"anchor_scales\": [2.5, 3.025, 3.66025, 4.4289024999999995, 5.358972025, 6.484356150249999, 7.846070941802498, 9.493745839581022, 11.487432465893036, 13.899793283730574, 16.818749873313998, 20.350687346709933, 24.62433168951902, 29.795441344318014], \"square_targets\": true, \"name\": \"rpn_big\", \"batchsize\": 256, \"anchor_ratios\": [1.0]}"
    }
  }
  layer {
    name: "roi-data"
    type: "Python"
    bottom: "rpn_rois"
    bottom: "input_gt_boxes"
    top: "rois"
    top: "labels"
    top: "pid_label"
    top: "bbox_targets"
    top: "bbox_inside_weights"
    top: "bbox_outside_weights"
    python_param {
      module: "rpn.proposal_target_layer"
      layer: "ProposalTargetLayer"
      param_str: "{\"num_classes\": 2, \"bg_aux_label\": 5532}"
    }
  }
  layer {
    name: "roi-pool"
    type: "ROIPooling"
    bottom: "conv5_3"
    bottom: "rois"
    top: "roi-pool"
    roi_pooling_param {
      pooled_h: 7
      pooled_w: 7
      spatial_scale: 0.0625
    }
  }
  layer {
    name: "fc6"
    type: "InnerProduct"
    bottom: "roi-pool"
    top: "fc6"
    param {
      lr_mult: 1
    }
    param {
      lr_mult: 2
    }
    inner_product_param {
      num_output: 4096
    }
  }
  layer {
    name: "relu6"
    type: "ReLU"
    bottom: "fc6"
    top: "fc6"
  }
  layer {
    name: "drop6"
    type: "Dropout"
    bottom: "fc6"
    top: "fc6"
    dropout_param {
      dropout_ratio: 0.5
    }
  }
  layer {
    name: "fc7"
    type: "InnerProduct"
    bottom: "fc6"
    top: "fc7"
    param {
      lr_mult: 1
    }
    param {
      lr_mult: 2
    }
    inner_product_param {
      num_output: 4096
    }
  }
  layer {
    name: "relu7"
    type: "ReLU"
    bottom: "fc7"
    top: "fc7"
  }
  layer {
    name: "drop7"
    type: "Dropout"
    bottom: "fc7"
    top: "fc7"
    dropout_param {
      dropout_ratio: 0.5
    }
  }
  layer {
    name: "bbox_pred"
    type: "InnerProduct"
    bottom: "fc7"
    top: "bbox_pred"
    param {
      lr_mult: 1
    }
    param {
      lr_mult: 2
    }
    inner_product_param {
      num_output: 8
      weight_filler {
        type: "gaussian"
        std: 0.001
      }
      bias_filler {
        type: "constant"
        value: 0
      }
    }
  }
  layer {
    name: "loss_bbox"
    type: "SmoothL1Loss"
    bottom: "bbox_pred"
    bottom: "bbox_targets"
    bottom: "bbox_inside_weights"
    bottom: "bbox_outside_weights"
    top: "loss_bbox"
    loss_weight: 1
  }
  layer {
    name: "feat"
    type: "InnerProduct"
    bottom: "fc7"
    top: "feat"
    param {
      lr_mult: 1
      decay_mult: 1
    }
    param {
      lr_mult: 2
      decay_mult: 0
    }
    inner_product_param {
      num_output: 256
      weight_filler {
        type: "gaussian"
        std: 0.01
      }
      bias_filler {
        type: "constant"
        value: 0
      }
    }
  }
  layer {
    name: "relu8"
    type: "ReLU"
    bottom: "feat"
    top: "feat"
  }
  layer {
    name: "drop8"
    type: "Dropout"
    bottom: "feat"
    top: "feat"
    dropout_param {
      dropout_ratio: 0.5
    }
  }
  layer {
    name: "pid_score"
    type: "InnerProduct"
    bottom: "feat"
    top: "pid_score"
    param {
      lr_mult: 1
      decay_mult: 1
    }
    param {
      lr_mult: 2
      decay_mult: 0
    }
    inner_product_param {
      num_output: 5533
      weight_filler {
        type: "gaussian"
        std: 0.001
      }
      bias_filler {
        type: "constant"
        value: 0
      }
    }
  }
  layer {
    name: "pid_loss"
    type: "SoftmaxWithLoss"
    bottom: "pid_score"
    bottom: "labels"
    top: "pid_loss"
    loss_weight: 1
    propagate_down: true
    propagate_down: false
    loss_param {
      ignore_label: -1
      normalize: true
    }
  }
}
average_loss: 100
stepvalue: 70000
stepvalue: 120000
iter_size: 2
I0413 18:55:54.600178 14652 solver.cpp:86] Creating training net specified in net_param.
I0413 18:55:54.600958 14652 net.cpp:58] Initializing net from parameters: 
name: "GeneratedModel_13_04_2017_18_55"
state {
  phase: TRAIN
}
layer {
  name: "input"
  type: "Python"
  top: "input_data"
  top: "input_im_info"
  top: "input_gt_boxes"
  top: "input_ignored_boxes"
  python_param {
    module: "layers.roi_data_layer"
    layer: "RoIDataLayer"
    param_str: "{\"num_classes\": 2}"
  }
}
layer {
  name: "conv1_1"
  type: "Convolution"
  bottom: "input_data"
  top: "conv1_1"
  param {
    lr_mult: 0
    decay_mult: 0
  }
  param {
    lr_mult: 0
    decay_mult: 0
  }
  convolution_param {
    num_output: 64
    pad: 1
    kernel_size: 3
  }
}
layer {
  name: "relu1_1"
  type: "ReLU"
  bottom: "conv1_1"
  top: "conv1_1"
}
layer {
  name: "conv1_2"
  type: "Convolution"
  bottom: "conv1_1"
  top: "conv1_2"
  param {
    lr_mult: 0
    decay_mult: 0
  }
  param {
    lr_mult: 0
    decay_mult: 0
  }
  convolution_param {
    num_output: 64
    pad: 1
    kernel_size: 3
  }
}
layer {
  name: "relu1_2"
  type: "ReLU"
  bottom: "conv1_2"
  top: "conv1_2"
}
layer {
  name: "pool1"
  type: "Pooling"
  bottom: "conv1_2"
  top: "pool1"
  pooling_param {
    pool: MAX
    kernel_size: 2
    stride: 2
  }
}
layer {
  name: "conv2_1"
  type: "Convolution"
  bottom: "pool1"
  top: "conv2_1"
  param {
    lr_mult: 0
    decay_mult: 0
  }
  param {
    lr_mult: 0
    decay_mult: 0
  }
  convolution_param {
    num_output: 128
    pad: 1
    kernel_size: 3
  }
}
layer {
  name: "relu2_1"
  type: "ReLU"
  bottom: "conv2_1"
  top: "conv2_1"
}
layer {
  name: "conv2_2"
  type: "Convolution"
  bottom: "conv2_1"
  top: "conv2_2"
  param {
    lr_mult: 0
    decay_mult: 0
  }
  param {
    lr_mult: 0
    decay_mult: 0
  }
  convolution_param {
    num_output: 128
    pad: 1
    kernel_size: 3
  }
}
layer {
  name: "relu2_2"
  type: "ReLU"
  bottom: "conv2_2"
  top: "conv2_2"
}
layer {
  name: "pool2"
  type: "Pooling"
  bottom: "conv2_2"
  top: "pool2"
  pooling_param {
    pool: MAX
    kernel_size: 2
    stride: 2
  }
}
layer {
  name: "conv3_1"
  type: "Convolution"
  bottom: "pool2"
  top: "conv3_1"
  param {
    lr_mult: 1
  }
  param {
    lr_mult: 2
  }
  convolution_param {
    num_output: 256
    pad: 1
    kernel_size: 3
  }
}
layer {
  name: "relu3_1"
  type: "ReLU"
  bottom: "conv3_1"
  top: "conv3_1"
}
layer {
  name: "conv3_2"
  type: "Convolution"
  bottom: "conv3_1"
  top: "conv3_2"
  param {
    lr_mult: 1
  }
  param {
    lr_mult: 2
  }
  convolution_param {
    num_output: 256
    pad: 1
    kernel_size: 3
  }
}
layer {
  name: "relu3_2"
  type: "ReLU"
  bottom: "conv3_2"
  top: "conv3_2"
}
layer {
  name: "conv3_3"
  type: "Convolution"
  bottom: "conv3_2"
  top: "conv3_3"
  param {
    lr_mult: 1
  }
  param {
    lr_mult: 2
  }
  convolution_param {
    num_output: 256
    pad: 1
    kernel_size: 3
  }
}
layer {
  name: "relu3_3"
  type: "ReLU"
  bottom: "conv3_3"
  top: "conv3_3"
}
layer {
  name: "pool3"
  type: "Pooling"
  bottom: "conv3_3"
  top: "pool3"
  pooling_param {
    pool: MAX
    kernel_size: 2
    stride: 2
  }
}
layer {
  name: "conv4_1"
  type: "Convolution"
  bottom: "pool3"
  top: "conv4_1"
  param {
    lr_mult: 1
  }
  param {
    lr_mult: 2
  }
  convolution_param {
    num_output: 512
    pad: 1
    kernel_size: 3
  }
}
layer {
  name: "relu4_1"
  type: "ReLU"
  bottom: "conv4_1"
  top: "conv4_1"
}
layer {
  name: "conv4_2"
  type: "Convolution"
  bottom: "conv4_1"
  top: "conv4_2"
  param {
    lr_mult: 1
  }
  param {
    lr_mult: 2
  }
  convolution_param {
    num_output: 512
    pad: 1
    kernel_size: 3
  }
}
layer {
  name: "relu4_2"
  type: "ReLU"
  bottom: "conv4_2"
  top: "conv4_2"
}
layer {
  name: "conv4_3"
  type: "Convolution"
  bottom: "conv4_2"
  top: "conv4_3"
  param {
    lr_mult: 1
  }
  param {
    lr_mult: 2
  }
  convolution_param {
    num_output: 512
    pad: 1
    kernel_size: 3
  }
}
layer {
  name: "relu4_3"
  type: "ReLU"
  bottom: "conv4_3"
  top: "conv4_3"
}
layer {
  name: "pool4"
  type: "Pooling"
  bottom: "conv4_3"
  top: "pool4"
  pooling_param {
    pool: MAX
    kernel_size: 2
    stride: 2
  }
}
layer {
  name: "conv5_1"
  type: "Convolution"
  bottom: "pool4"
  top: "conv5_1"
  param {
    lr_mult: 1
  }
  param {
    lr_mult: 2
  }
  convolution_param {
    num_output: 512
    pad: 1
    kernel_size: 3
  }
}
layer {
  name: "relu5_1"
  type: "ReLU"
  bottom: "conv5_1"
  top: "conv5_1"
}
layer {
  name: "conv5_2"
  type: "Convolution"
  bottom: "conv5_1"
  top: "conv5_2"
  param {
    lr_mult: 1
  }
  param {
    lr_mult: 2
  }
  convolution_param {
    num_output: 512
    pad: 1
    kernel_size: 3
  }
}
layer {
  name: "relu5_2"
  type: "ReLU"
  bottom: "conv5_2"
  top: "conv5_2"
}
layer {
  name: "conv5_3"
  type: "Convolution"
  bottom: "conv5_2"
  top: "conv5_3"
  param {
    lr_mult: 1
  }
  param {
    lr_mult: 2
  }
  convolution_param {
    num_output: 512
    pad: 1
    kernel_size: 3
  }
}
layer {
  name: "relu5_3"
  type: "ReLU"
  bottom: "conv5_3"
  top: "conv5_3"
}
layer {
  name: "rpn_big_conv1"
  type: "Convolution"
  bottom: "conv5_3"
  top: "rpn_big_conv1"
  param {
    lr_mult: 1
  }
  param {
    lr_mult: 2
  }
  convolution_param {
    num_output: 512
    pad: 1
    kernel_size: 3
    stride: 1
    weight_filler {
      type: "gaussian"
      mean: 0
      std: 0.01
    }
    bias_filler {
      type: "constant"
    }
  }
}
layer {
  name: "rpn_big_conv1_relu"
  type: "ReLU"
  bottom: "rpn_big_conv1"
  top: "rpn_big_conv1"
  relu_param {
    negative_slope: 0
  }
}
layer {
  name: "rpn_big_conv2"
  type: "Convolution"
  bottom: "rpn_big_conv1"
  top: "rpn_big_conv2"
  param {
    lr_mult: 1
  }
  param {
    lr_mult: 2
  }
  convolution_param {
    num_output: 512
    pad: 1
    kernel_size: 3
    stride: 1
    weight_filler {
      type: "gaussian"
      mean: 0
      std: 0.01
    }
    bias_filler {
      type: "constant"
    }
  }
}
layer {
  name: "rpn_big_conv2_relu"
  type: "ReLU"
  bottom: "rpn_big_conv2"
  top: "rpn_big_conv2"
  relu_param {
    negative_slope: 0
  }
}
layer {
  name: "rpn_big_conv2_drop"
  type: "Dropout"
  bottom: "rpn_big_conv2"
  top: "rpn_big_conv2"
  dropout_param {
    dropout_ratio: 0.3
  }
}
layer {
  name: "rpn_big_output_cls"
  type: "Convolution"
  bottom: "rpn_big_conv2"
  top: "rpn_big_output_cls"
  param {
    lr_mult: 1
  }
  param {
    lr_mult: 2
  }
  convolution_param {
    num_output: 384
    pad: 1
    kernel_size: 3
    stride: 1
    weight_filler {
      type: "gaussian"
      mean: 0
      std: 0.01
    }
    bias_filler {
      type: "constant"
    }
  }
}
layer {
  name: "rpn_big_output_cls_relu"
  type: "ReLU"
  bottom: "rpn_big_output_cls"
  top: "rpn_big_output_cls"
  relu_param {
    negative_slope: 0
  }
}
layer {
  name: "rpn_big_cls_score"
  type: "Convolution"
  bottom: "rpn_big_output_cls"
  top: "rpn_big_cls_score"
  param {
    lr_mult: 1
  }
  param {
    lr_mult: 2
  }
  convolution_param {
    num_output: 52
    pad: 0
    kernel_size: 3
    stride: 1
    weight_filler {
      type: "gaussian"
      mean: 0
      std: 0.01
    }
    bias_filler {
      type: "constant"
    }
  }
}
layer {
  name: "rpn_big_cls_score_reshape"
  type: "Reshape"
  bottom: "rpn_big_cls_score"
  top: "rpn_big_cls_score_reshape"
  reshape_param {
    shape {
      dim: 0
      dim: 2
      dim: -1
      dim: 0
    }
  }
}
layer {
  name: "rpn_big_cls_prob"
  type: "Softmax"
  bottom: "rpn_big_cls_score_reshape"
  top: "rpn_big_cls_prob"
}
layer {
  name: "rpn_big_cls_prob_reshape"
  type: "Reshape"
  bottom: "rpn_big_cls_prob"
  top: "rpn_big_cls_prob_reshape"
  reshape_param {
    shape {
      dim: 0
      dim: 52
      dim: -1
      dim: 0
    }
  }
}
layer {
  name: "rpn_big_anchor_target"
  type: "Python"
  bottom: "rpn_big_cls_score"
  bottom: "input_gt_boxes"
  bottom: "input_ignored_boxes"
  bottom: "input_im_info"
  bottom: "input_data"
  bottom: "rpn_big_cls_prob_reshape"
  top: "rpn_big_anchor_target_labels"
  top: "rpn_big_anchor_target_bbox_targets"
  top: "rpn_big_anchor_target_inside_weights"
  top: "rpn_big_anchor_target_outside_weights"
  python_param {
    module: "rpn.anchor_target_layer"
    layer: "AnchorTargetLayer"
    param_str: "{\"square_targets\": true, \"batchsize\": 256, \"anchor_shift_num_xy\": [[2, 2], [2, 2], [2, 2], [2, 2], [1, 1], [1, 1], [1, 1], [1, 1], [1, 1], [1, 1], [1, 1], [1, 1], [1, 1], [1, 1]], \"tn_fraction\": 0.2, \"anchor_ratios\": [1.0], \"fg_fraction\": 0.5, \"feat_stride\": 16, \"positive_overlap\": 0.6, \"anchor_scales\": [2.5, 3.025, 3.66025, 4.4289024999999995, 5.358972025, 6.484356150249999, 7.846070941802498, 9.493745839581022, 11.487432465893036, 13.899793283730574, 16.818749873313998, 20.350687346709933, 24.62433168951902, 29.795441344318014], \"name\": \"rpn_big\", \"num_classes\": 1, \"negative_overlap\": 0.4}"
  }
}
layer {
  name: "rpn_big_loss_cls"
  type: "SoftmaxWithLoss"
  bottom: "rpn_big_cls_score_reshape"
  bottom: "rpn_big_anchor_target_labels"
  top: "rpn_big_loss_cls"
  loss_weight: 1
  propagate_down: true
  propagate_down: false
  loss_param {
    ignore_label: -1
    normalization: VALID
  }
}
layer {
  name: "rpn_big_output_box"
  type: "Convolution"
  bottom: "rpn_big_conv2"
  top: "rpn_big_output_box"
  param {
    lr_mult: 1
  }
  param {
    lr_mult: 2
  }
  convolution_param {
    num_output: 384
    pad: 1
    kernel_size: 3
    stride: 1
    weight_filler {
      type: "gaussian"
      mean: 0
      std: 0.01
    }
    bias_filler {
      type: "constant"
    }
  }
}
layer {
  name: "rpn_big_output_box_relu"
  type: "ReLU"
  bottom: "rpn_big_output_box"
  top: "rpn_big_output_box"
  relu_param {
    negative_slope: 0
  }
}
layer {
  name: "rpn_big_bbox_pred"
  type: "Convolution"
  bottom: "rpn_big_output_box"
  top: "rpn_big_bbox_pred"
  param {
    lr_mult: 1
  }
  param {
    lr_mult: 2
  }
  convolution_param {
    num_output: 104
    pad: 0
    kernel_size: 3
    stride: 1
    weight_filler {
      type: "gaussian"
      mean: 0
      std: 0.01
    }
    bias_filler {
      type: "constant"
    }
  }
}
layer {
  name: "rpn_big_loss_bbox"
  type: "Python"
  bottom: "rpn_big_bbox_pred"
  bottom: "rpn_big_anchor_target_bbox_targets"
  bottom: "rpn_big_anchor_target_inside_weights"
  bottom: "rpn_big_anchor_target_outside_weights"
  top: "rpn_big_loss_bbox"
  loss_weight: 1
  python_param {
    module: "layers.smooth_l1_loss"
    layer: "SmoothL1LossLayer"
    param_str: "{\"sigma\": 3}"
  }
}
layer {
  name: "proposal"
  type: "Python"
  bottom: "rpn_big_cls_prob_reshape"
  bottom: "rpn_big_bbox_pred"
  bottom: "input_im_info"
  top: "rpn_rois"
  python_param {
    module: "rpn.proposal_layer"
    layer: "ProposalLayer"
    param_str: "{\"anchor_shift_num_xy\": [[2, 2], [2, 2], [2, 2], [2, 2], [1, 1], [1, 1], [1, 1], [1, 1], [1, 1], [1, 1], [1, 1], [1, 1], [1, 1], [1, 1]], \"feat_stride\": 16, \"num_classes\": 1, \"anchor_scales\": [2.5, 3.025, 3.66025, 4.4289024999999995, 5.358972025, 6.484356150249999, 7.846070941802498, 9.493745839581022, 11.487432465893036, 13.899793283730574, 16.818749873313998, 20.350687346709933, 24.62433168951902, 29.795441344318014], \"square_targets\": true, \"name\": \"rpn_big\", \"batchsize\": 256, \"anchor_ratios\": [1.0]}"
  }
}
layer {
  name: "roi-data"
  type: "Python"
  bottom: "rpn_rois"
  bottom: "input_gt_boxes"
  top: "rois"
  top: "labels"
  top: "pid_label"
  top: "bbox_targets"
  top: "bbox_inside_weights"
  top: "bbox_outside_weights"
  python_param {
    module: "rpn.proposal_target_layer"
    layer: "ProposalTargetLayer"
    param_str: "{\"num_classes\": 2, \"bg_aux_label\": 5532}"
  }
}
layer {
  name: "roi-pool"
  type: "ROIPooling"
  bottom: "conv5_3"
  bottom: "rois"
  top: "roi-pool"
  roi_pooling_param {
    pooled_h: 7
    pooled_w: 7
    spatial_scale: 0.0625
  }
}
layer {
  name: "fc6"
  type: "InnerProduct"
  bottom: "roi-pool"
  top: "fc6"
  param {
    lr_mult: 1
  }
  param {
    lr_mult: 2
  }
  inner_product_param {
    num_output: 4096
  }
}
layer {
  name: "relu6"
  type: "ReLU"
  bottom: "fc6"
  top: "fc6"
}
layer {
  name: "drop6"
  type: "Dropout"
  bottom: "fc6"
  top: "fc6"
  dropout_param {
    dropout_ratio: 0.5
  }
}
layer {
  name: "fc7"
  type: "InnerProduct"
  bottom: "fc6"
  top: "fc7"
  param {
    lr_mult: 1
  }
  param {
    lr_mult: 2
  }
  inner_product_param {
    num_output: 4096
  }
}
layer {
  name: "relu7"
  type: "ReLU"
  bottom: "fc7"
  top: "fc7"
}
layer {
  name: "drop7"
  type: "Dropout"
  bottom: "fc7"
  top: "fc7"
  dropout_param {
    dropout_ratio: 0.5
  }
}
layer {
  name: "bbox_pred"
  type: "InnerProduct"
  bottom: "fc7"
  top: "bbox_pred"
  param {
    lr_mult: 1
  }
  param {
    lr_mult: 2
  }
  inner_product_param {
    num_output: 8
    weight_filler {
      type: "gaussian"
      std: 0.001
    }
    bias_filler {
      type: "constant"
      value: 0
    }
  }
}
layer {
  name: "loss_bbox"
  type: "SmoothL1Loss"
  bottom: "bbox_pred"
  bottom: "bbox_targets"
  bottom: "bbox_inside_weights"
  bottom: "bbox_outside_weights"
  top: "loss_bbox"
  loss_weight: 1
}
layer {
  name: "feat"
  type: "InnerProduct"
  bottom: "fc7"
  top: "feat"
  param {
    lr_mult: 1
    decay_mult: 1
  }
  param {
    lr_mult: 2
    decay_mult: 0
  }
  inner_product_param {
    num_output: 256
    weight_filler {
      type: "gaussian"
      std: 0.01
    }
    bias_filler {
      type: "constant"
      value: 0
    }
  }
}
layer {
  name: "relu8"
  type: "ReLU"
  bottom: "feat"
  top: "feat"
}
layer {
  name: "drop8"
  type: "Dropout"
  bottom: "feat"
  top: "feat"
  dropout_param {
    dropout_ratio: 0.5
  }
}
layer {
  name: "pid_score"
  type: "InnerProduct"
  bottom: "feat"
  top: "pid_score"
  param {
    lr_mult: 1
    decay_mult: 1
  }
  param {
    lr_mult: 2
    decay_mult: 0
  }
  inner_product_param {
    num_output: 5533
    weight_filler {
      type: "gaussian"
      std: 0.001
    }
    bias_filler {
      type: "constant"
      value: 0
    }
  }
}
layer {
  name: "pid_loss"
  type: "SoftmaxWithLoss"
  bottom: "pid_score"
  bottom: "labels"
  top: "pid_loss"
  loss_weight: 1
  propagate_down: true
  propagate_down: false
  loss_param {
    ignore_label: -1
    normalize: true
  }
}
I0413 18:55:54.601347 14652 layer_factory.hpp:77] Creating layer input
I0413 18:55:54.602759 14652 net.cpp:100] Creating Layer input
I0413 18:55:54.602778 14652 net.cpp:408] input -> input_data
I0413 18:55:54.602790 14652 net.cpp:408] input -> input_im_info
I0413 18:55:54.602797 14652 net.cpp:408] input -> input_gt_boxes
I0413 18:55:54.602805 14652 net.cpp:408] input -> input_ignored_boxes
RoiDataLayer: name_to_top: {'data': 0, 'gt_boxes': 2, 'im_info': 1, 'ignored_boxes': 3}
I0413 18:55:54.921722 14652 net.cpp:150] Setting up input
I0413 18:55:54.921752 14652 net.cpp:157] Top shape: 1 3 1000 1500 (4500000)
I0413 18:55:54.921775 14652 net.cpp:157] Top shape: 1 3 (3)
I0413 18:55:54.921785 14652 net.cpp:157] Top shape: 1 5 (5)
I0413 18:55:54.921793 14652 net.cpp:157] Top shape: 1 5 (5)
I0413 18:55:54.921799 14652 net.cpp:165] Memory required for data: 18000052
I0413 18:55:54.921808 14652 layer_factory.hpp:77] Creating layer input_data_input_0_split
I0413 18:55:54.921826 14652 net.cpp:100] Creating Layer input_data_input_0_split
I0413 18:55:54.921835 14652 net.cpp:434] input_data_input_0_split <- input_data
I0413 18:55:54.921849 14652 net.cpp:408] input_data_input_0_split -> input_data_input_0_split_0
I0413 18:55:54.921870 14652 net.cpp:408] input_data_input_0_split -> input_data_input_0_split_1
I0413 18:55:54.921916 14652 net.cpp:150] Setting up input_data_input_0_split
I0413 18:55:54.921926 14652 net.cpp:157] Top shape: 1 3 1000 1500 (4500000)
I0413 18:55:54.921934 14652 net.cpp:157] Top shape: 1 3 1000 1500 (4500000)
I0413 18:55:54.921941 14652 net.cpp:165] Memory required for data: 54000052
I0413 18:55:54.921947 14652 layer_factory.hpp:77] Creating layer input_im_info_input_1_split
I0413 18:55:54.921957 14652 net.cpp:100] Creating Layer input_im_info_input_1_split
I0413 18:55:54.921964 14652 net.cpp:434] input_im_info_input_1_split <- input_im_info
I0413 18:55:54.921975 14652 net.cpp:408] input_im_info_input_1_split -> input_im_info_input_1_split_0
I0413 18:55:54.921988 14652 net.cpp:408] input_im_info_input_1_split -> input_im_info_input_1_split_1
I0413 18:55:54.922029 14652 net.cpp:150] Setting up input_im_info_input_1_split
I0413 18:55:54.922037 14652 net.cpp:157] Top shape: 1 3 (3)
I0413 18:55:54.922045 14652 net.cpp:157] Top shape: 1 3 (3)
I0413 18:55:54.922051 14652 net.cpp:165] Memory required for data: 54000076
I0413 18:55:54.922057 14652 layer_factory.hpp:77] Creating layer input_gt_boxes_input_2_split
I0413 18:55:54.922066 14652 net.cpp:100] Creating Layer input_gt_boxes_input_2_split
I0413 18:55:54.922072 14652 net.cpp:434] input_gt_boxes_input_2_split <- input_gt_boxes
I0413 18:55:54.922083 14652 net.cpp:408] input_gt_boxes_input_2_split -> input_gt_boxes_input_2_split_0
I0413 18:55:54.922097 14652 net.cpp:408] input_gt_boxes_input_2_split -> input_gt_boxes_input_2_split_1
I0413 18:55:54.922137 14652 net.cpp:150] Setting up input_gt_boxes_input_2_split
I0413 18:55:54.922145 14652 net.cpp:157] Top shape: 1 5 (5)
I0413 18:55:54.922153 14652 net.cpp:157] Top shape: 1 5 (5)
I0413 18:55:54.922159 14652 net.cpp:165] Memory required for data: 54000116
I0413 18:55:54.922165 14652 layer_factory.hpp:77] Creating layer conv1_1
I0413 18:55:54.922183 14652 net.cpp:100] Creating Layer conv1_1
I0413 18:55:54.922191 14652 net.cpp:434] conv1_1 <- input_data_input_0_split_0
I0413 18:55:54.922204 14652 net.cpp:408] conv1_1 -> conv1_1
I0413 18:55:54.925266 14652 net.cpp:150] Setting up conv1_1
I0413 18:55:54.925305 14652 net.cpp:157] Top shape: 1 64 1000 1500 (96000000)
I0413 18:55:54.925312 14652 net.cpp:165] Memory required for data: 438000116
I0413 18:55:54.925336 14652 layer_factory.hpp:77] Creating layer relu1_1
I0413 18:55:54.925353 14652 net.cpp:100] Creating Layer relu1_1
I0413 18:55:54.925361 14652 net.cpp:434] relu1_1 <- conv1_1
I0413 18:55:54.925375 14652 net.cpp:395] relu1_1 -> conv1_1 (in-place)
I0413 18:55:54.925391 14652 net.cpp:150] Setting up relu1_1
I0413 18:55:54.925400 14652 net.cpp:157] Top shape: 1 64 1000 1500 (96000000)
I0413 18:55:54.925407 14652 net.cpp:165] Memory required for data: 822000116
I0413 18:55:54.925413 14652 layer_factory.hpp:77] Creating layer conv1_2
I0413 18:55:54.925431 14652 net.cpp:100] Creating Layer conv1_2
I0413 18:55:54.925438 14652 net.cpp:434] conv1_2 <- conv1_1
I0413 18:55:54.925451 14652 net.cpp:408] conv1_2 -> conv1_2
I0413 18:55:54.928627 14652 net.cpp:150] Setting up conv1_2
I0413 18:55:54.928665 14652 net.cpp:157] Top shape: 1 64 1000 1500 (96000000)
I0413 18:55:54.928671 14652 net.cpp:165] Memory required for data: 1206000116
I0413 18:55:54.928694 14652 layer_factory.hpp:77] Creating layer relu1_2
I0413 18:55:54.928709 14652 net.cpp:100] Creating Layer relu1_2
I0413 18:55:54.928719 14652 net.cpp:434] relu1_2 <- conv1_2
I0413 18:55:54.928735 14652 net.cpp:395] relu1_2 -> conv1_2 (in-place)
I0413 18:55:54.928752 14652 net.cpp:150] Setting up relu1_2
I0413 18:55:54.928761 14652 net.cpp:157] Top shape: 1 64 1000 1500 (96000000)
I0413 18:55:54.928768 14652 net.cpp:165] Memory required for data: 1590000116
I0413 18:55:54.928774 14652 layer_factory.hpp:77] Creating layer pool1
I0413 18:55:54.928789 14652 net.cpp:100] Creating Layer pool1
I0413 18:55:54.928795 14652 net.cpp:434] pool1 <- conv1_2
I0413 18:55:54.928807 14652 net.cpp:408] pool1 -> pool1
I0413 18:55:54.928881 14652 net.cpp:150] Setting up pool1
I0413 18:55:54.928891 14652 net.cpp:157] Top shape: 1 64 500 750 (24000000)
I0413 18:55:54.928897 14652 net.cpp:165] Memory required for data: 1686000116
I0413 18:55:54.928916 14652 layer_factory.hpp:77] Creating layer conv2_1
I0413 18:55:54.928935 14652 net.cpp:100] Creating Layer conv2_1
I0413 18:55:54.928942 14652 net.cpp:434] conv2_1 <- pool1
I0413 18:55:54.928954 14652 net.cpp:408] conv2_1 -> conv2_1
I0413 18:55:54.930193 14652 net.cpp:150] Setting up conv2_1
I0413 18:55:54.930214 14652 net.cpp:157] Top shape: 1 128 500 750 (48000000)
I0413 18:55:54.930220 14652 net.cpp:165] Memory required for data: 1878000116
I0413 18:55:54.930240 14652 layer_factory.hpp:77] Creating layer relu2_1
I0413 18:55:54.930253 14652 net.cpp:100] Creating Layer relu2_1
I0413 18:55:54.930261 14652 net.cpp:434] relu2_1 <- conv2_1
I0413 18:55:54.930275 14652 net.cpp:395] relu2_1 -> conv2_1 (in-place)
I0413 18:55:54.930289 14652 net.cpp:150] Setting up relu2_1
I0413 18:55:54.930297 14652 net.cpp:157] Top shape: 1 128 500 750 (48000000)
I0413 18:55:54.930305 14652 net.cpp:165] Memory required for data: 2070000116
I0413 18:55:54.930311 14652 layer_factory.hpp:77] Creating layer conv2_2
I0413 18:55:54.930325 14652 net.cpp:100] Creating Layer conv2_2
I0413 18:55:54.930331 14652 net.cpp:434] conv2_2 <- conv2_1
I0413 18:55:54.930343 14652 net.cpp:408] conv2_2 -> conv2_2
I0413 18:55:54.931277 14652 net.cpp:150] Setting up conv2_2
I0413 18:55:54.931298 14652 net.cpp:157] Top shape: 1 128 500 750 (48000000)
I0413 18:55:54.931304 14652 net.cpp:165] Memory required for data: 2262000116
I0413 18:55:54.931318 14652 layer_factory.hpp:77] Creating layer relu2_2
I0413 18:55:54.931332 14652 net.cpp:100] Creating Layer relu2_2
I0413 18:55:54.931340 14652 net.cpp:434] relu2_2 <- conv2_2
I0413 18:55:54.931352 14652 net.cpp:395] relu2_2 -> conv2_2 (in-place)
I0413 18:55:54.931365 14652 net.cpp:150] Setting up relu2_2
I0413 18:55:54.931375 14652 net.cpp:157] Top shape: 1 128 500 750 (48000000)
I0413 18:55:54.931381 14652 net.cpp:165] Memory required for data: 2454000116
I0413 18:55:54.931387 14652 layer_factory.hpp:77] Creating layer pool2
I0413 18:55:54.931401 14652 net.cpp:100] Creating Layer pool2
I0413 18:55:54.931406 14652 net.cpp:434] pool2 <- conv2_2
I0413 18:55:54.931416 14652 net.cpp:408] pool2 -> pool2
I0413 18:55:54.931465 14652 net.cpp:150] Setting up pool2
I0413 18:55:54.931475 14652 net.cpp:157] Top shape: 1 128 250 375 (12000000)
I0413 18:55:54.931481 14652 net.cpp:165] Memory required for data: 2502000116
I0413 18:55:54.931489 14652 layer_factory.hpp:77] Creating layer conv3_1
I0413 18:55:54.931504 14652 net.cpp:100] Creating Layer conv3_1
I0413 18:55:54.931510 14652 net.cpp:434] conv3_1 <- pool2
I0413 18:55:54.931522 14652 net.cpp:408] conv3_1 -> conv3_1
I0413 18:55:54.932632 14652 net.cpp:150] Setting up conv3_1
I0413 18:55:54.932657 14652 net.cpp:157] Top shape: 1 256 250 375 (24000000)
I0413 18:55:54.932662 14652 net.cpp:165] Memory required for data: 2598000116
I0413 18:55:54.932682 14652 layer_factory.hpp:77] Creating layer relu3_1
I0413 18:55:54.932694 14652 net.cpp:100] Creating Layer relu3_1
I0413 18:55:54.932703 14652 net.cpp:434] relu3_1 <- conv3_1
I0413 18:55:54.932715 14652 net.cpp:395] relu3_1 -> conv3_1 (in-place)
I0413 18:55:54.932729 14652 net.cpp:150] Setting up relu3_1
I0413 18:55:54.932737 14652 net.cpp:157] Top shape: 1 256 250 375 (24000000)
I0413 18:55:54.932744 14652 net.cpp:165] Memory required for data: 2694000116
I0413 18:55:54.932751 14652 layer_factory.hpp:77] Creating layer conv3_2
I0413 18:55:54.932770 14652 net.cpp:100] Creating Layer conv3_2
I0413 18:55:54.932777 14652 net.cpp:434] conv3_2 <- conv3_1
I0413 18:55:54.932788 14652 net.cpp:408] conv3_2 -> conv3_2
I0413 18:55:54.934010 14652 net.cpp:150] Setting up conv3_2
I0413 18:55:54.934042 14652 net.cpp:157] Top shape: 1 256 250 375 (24000000)
I0413 18:55:54.934049 14652 net.cpp:165] Memory required for data: 2790000116
I0413 18:55:54.934065 14652 layer_factory.hpp:77] Creating layer relu3_2
I0413 18:55:54.934079 14652 net.cpp:100] Creating Layer relu3_2
I0413 18:55:54.934088 14652 net.cpp:434] relu3_2 <- conv3_2
I0413 18:55:54.934101 14652 net.cpp:395] relu3_2 -> conv3_2 (in-place)
I0413 18:55:54.934116 14652 net.cpp:150] Setting up relu3_2
I0413 18:55:54.934126 14652 net.cpp:157] Top shape: 1 256 250 375 (24000000)
I0413 18:55:54.934134 14652 net.cpp:165] Memory required for data: 2886000116
I0413 18:55:54.934139 14652 layer_factory.hpp:77] Creating layer conv3_3
I0413 18:55:54.934152 14652 net.cpp:100] Creating Layer conv3_3
I0413 18:55:54.934159 14652 net.cpp:434] conv3_3 <- conv3_2
I0413 18:55:54.934171 14652 net.cpp:408] conv3_3 -> conv3_3
I0413 18:55:54.935832 14652 net.cpp:150] Setting up conv3_3
I0413 18:55:54.935861 14652 net.cpp:157] Top shape: 1 256 250 375 (24000000)
I0413 18:55:54.935868 14652 net.cpp:165] Memory required for data: 2982000116
I0413 18:55:54.935883 14652 layer_factory.hpp:77] Creating layer relu3_3
I0413 18:55:54.935899 14652 net.cpp:100] Creating Layer relu3_3
I0413 18:55:54.935906 14652 net.cpp:434] relu3_3 <- conv3_3
I0413 18:55:54.935920 14652 net.cpp:395] relu3_3 -> conv3_3 (in-place)
I0413 18:55:54.935935 14652 net.cpp:150] Setting up relu3_3
I0413 18:55:54.935945 14652 net.cpp:157] Top shape: 1 256 250 375 (24000000)
I0413 18:55:54.935951 14652 net.cpp:165] Memory required for data: 3078000116
I0413 18:55:54.935956 14652 layer_factory.hpp:77] Creating layer pool3
I0413 18:55:54.935967 14652 net.cpp:100] Creating Layer pool3
I0413 18:55:54.935973 14652 net.cpp:434] pool3 <- conv3_3
I0413 18:55:54.935983 14652 net.cpp:408] pool3 -> pool3
I0413 18:55:54.936040 14652 net.cpp:150] Setting up pool3
I0413 18:55:54.936050 14652 net.cpp:157] Top shape: 1 256 125 188 (6016000)
I0413 18:55:54.936056 14652 net.cpp:165] Memory required for data: 3102064116
I0413 18:55:54.936063 14652 layer_factory.hpp:77] Creating layer conv4_1
I0413 18:55:54.936077 14652 net.cpp:100] Creating Layer conv4_1
I0413 18:55:54.936084 14652 net.cpp:434] conv4_1 <- pool3
I0413 18:55:54.936096 14652 net.cpp:408] conv4_1 -> conv4_1
I0413 18:55:54.938757 14652 net.cpp:150] Setting up conv4_1
I0413 18:55:54.938794 14652 net.cpp:157] Top shape: 1 512 125 188 (12032000)
I0413 18:55:54.938801 14652 net.cpp:165] Memory required for data: 3150192116
I0413 18:55:54.938817 14652 layer_factory.hpp:77] Creating layer relu4_1
I0413 18:55:54.938832 14652 net.cpp:100] Creating Layer relu4_1
I0413 18:55:54.938841 14652 net.cpp:434] relu4_1 <- conv4_1
I0413 18:55:54.938856 14652 net.cpp:395] relu4_1 -> conv4_1 (in-place)
I0413 18:55:54.938871 14652 net.cpp:150] Setting up relu4_1
I0413 18:55:54.938886 14652 net.cpp:157] Top shape: 1 512 125 188 (12032000)
I0413 18:55:54.938892 14652 net.cpp:165] Memory required for data: 3198320116
I0413 18:55:54.938899 14652 layer_factory.hpp:77] Creating layer conv4_2
I0413 18:55:54.938915 14652 net.cpp:100] Creating Layer conv4_2
I0413 18:55:54.938923 14652 net.cpp:434] conv4_2 <- conv4_1
I0413 18:55:54.938933 14652 net.cpp:408] conv4_2 -> conv4_2
I0413 18:55:54.943073 14652 net.cpp:150] Setting up conv4_2
I0413 18:55:54.943110 14652 net.cpp:157] Top shape: 1 512 125 188 (12032000)
I0413 18:55:54.943115 14652 net.cpp:165] Memory required for data: 3246448116
I0413 18:55:54.943147 14652 layer_factory.hpp:77] Creating layer relu4_2
I0413 18:55:54.943162 14652 net.cpp:100] Creating Layer relu4_2
I0413 18:55:54.943177 14652 net.cpp:434] relu4_2 <- conv4_2
I0413 18:55:54.943191 14652 net.cpp:395] relu4_2 -> conv4_2 (in-place)
I0413 18:55:54.943207 14652 net.cpp:150] Setting up relu4_2
I0413 18:55:54.943217 14652 net.cpp:157] Top shape: 1 512 125 188 (12032000)
I0413 18:55:54.943222 14652 net.cpp:165] Memory required for data: 3294576116
I0413 18:55:54.943230 14652 layer_factory.hpp:77] Creating layer conv4_3
I0413 18:55:54.943248 14652 net.cpp:100] Creating Layer conv4_3
I0413 18:55:54.943254 14652 net.cpp:434] conv4_3 <- conv4_2
I0413 18:55:54.943266 14652 net.cpp:408] conv4_3 -> conv4_3
I0413 18:55:54.947492 14652 net.cpp:150] Setting up conv4_3
I0413 18:55:54.947530 14652 net.cpp:157] Top shape: 1 512 125 188 (12032000)
I0413 18:55:54.947540 14652 net.cpp:165] Memory required for data: 3342704116
I0413 18:55:54.947557 14652 layer_factory.hpp:77] Creating layer relu4_3
I0413 18:55:54.947574 14652 net.cpp:100] Creating Layer relu4_3
I0413 18:55:54.947587 14652 net.cpp:434] relu4_3 <- conv4_3
I0413 18:55:54.947603 14652 net.cpp:395] relu4_3 -> conv4_3 (in-place)
I0413 18:55:54.947620 14652 net.cpp:150] Setting up relu4_3
I0413 18:55:54.947633 14652 net.cpp:157] Top shape: 1 512 125 188 (12032000)
I0413 18:55:54.947638 14652 net.cpp:165] Memory required for data: 3390832116
I0413 18:55:54.947646 14652 layer_factory.hpp:77] Creating layer pool4
I0413 18:55:54.947661 14652 net.cpp:100] Creating Layer pool4
I0413 18:55:54.947669 14652 net.cpp:434] pool4 <- conv4_3
I0413 18:55:54.947682 14652 net.cpp:408] pool4 -> pool4
I0413 18:55:54.947737 14652 net.cpp:150] Setting up pool4
I0413 18:55:54.947749 14652 net.cpp:157] Top shape: 1 512 63 94 (3032064)
I0413 18:55:54.947757 14652 net.cpp:165] Memory required for data: 3402960372
I0413 18:55:54.947764 14652 layer_factory.hpp:77] Creating layer conv5_1
I0413 18:55:54.947782 14652 net.cpp:100] Creating Layer conv5_1
I0413 18:55:54.947788 14652 net.cpp:434] conv5_1 <- pool4
I0413 18:55:54.947803 14652 net.cpp:408] conv5_1 -> conv5_1
I0413 18:55:54.952397 14652 net.cpp:150] Setting up conv5_1
I0413 18:55:54.952427 14652 net.cpp:157] Top shape: 1 512 63 94 (3032064)
I0413 18:55:54.952435 14652 net.cpp:165] Memory required for data: 3415088628
I0413 18:55:54.952452 14652 layer_factory.hpp:77] Creating layer relu5_1
I0413 18:55:54.952468 14652 net.cpp:100] Creating Layer relu5_1
I0413 18:55:54.952481 14652 net.cpp:434] relu5_1 <- conv5_1
I0413 18:55:54.952497 14652 net.cpp:395] relu5_1 -> conv5_1 (in-place)
I0413 18:55:54.952513 14652 net.cpp:150] Setting up relu5_1
I0413 18:55:54.952524 14652 net.cpp:157] Top shape: 1 512 63 94 (3032064)
I0413 18:55:54.952530 14652 net.cpp:165] Memory required for data: 3427216884
I0413 18:55:54.952536 14652 layer_factory.hpp:77] Creating layer conv5_2
I0413 18:55:54.952550 14652 net.cpp:100] Creating Layer conv5_2
I0413 18:55:54.952558 14652 net.cpp:434] conv5_2 <- conv5_1
I0413 18:55:54.952571 14652 net.cpp:408] conv5_2 -> conv5_2
I0413 18:55:54.956871 14652 net.cpp:150] Setting up conv5_2
I0413 18:55:54.956912 14652 net.cpp:157] Top shape: 1 512 63 94 (3032064)
I0413 18:55:54.956921 14652 net.cpp:165] Memory required for data: 3439345140
I0413 18:55:54.956938 14652 layer_factory.hpp:77] Creating layer relu5_2
I0413 18:55:54.956954 14652 net.cpp:100] Creating Layer relu5_2
I0413 18:55:54.956965 14652 net.cpp:434] relu5_2 <- conv5_2
I0413 18:55:54.956985 14652 net.cpp:395] relu5_2 -> conv5_2 (in-place)
I0413 18:55:54.957011 14652 net.cpp:150] Setting up relu5_2
I0413 18:55:54.957025 14652 net.cpp:157] Top shape: 1 512 63 94 (3032064)
I0413 18:55:54.957031 14652 net.cpp:165] Memory required for data: 3451473396
I0413 18:55:54.957038 14652 layer_factory.hpp:77] Creating layer conv5_3
I0413 18:55:54.957063 14652 net.cpp:100] Creating Layer conv5_3
I0413 18:55:54.957072 14652 net.cpp:434] conv5_3 <- conv5_2
I0413 18:55:54.957084 14652 net.cpp:408] conv5_3 -> conv5_3
I0413 18:55:54.961439 14652 net.cpp:150] Setting up conv5_3
I0413 18:55:54.961474 14652 net.cpp:157] Top shape: 1 512 63 94 (3032064)
I0413 18:55:54.961483 14652 net.cpp:165] Memory required for data: 3463601652
I0413 18:55:54.961499 14652 layer_factory.hpp:77] Creating layer relu5_3
I0413 18:55:54.961515 14652 net.cpp:100] Creating Layer relu5_3
I0413 18:55:54.961529 14652 net.cpp:434] relu5_3 <- conv5_3
I0413 18:55:54.961547 14652 net.cpp:395] relu5_3 -> conv5_3 (in-place)
I0413 18:55:54.961566 14652 net.cpp:150] Setting up relu5_3
I0413 18:55:54.961578 14652 net.cpp:157] Top shape: 1 512 63 94 (3032064)
I0413 18:55:54.961586 14652 net.cpp:165] Memory required for data: 3475729908
I0413 18:55:54.961593 14652 layer_factory.hpp:77] Creating layer conv5_3_relu5_3_0_split
I0413 18:55:54.961603 14652 net.cpp:100] Creating Layer conv5_3_relu5_3_0_split
I0413 18:55:54.961608 14652 net.cpp:434] conv5_3_relu5_3_0_split <- conv5_3
I0413 18:55:54.961621 14652 net.cpp:408] conv5_3_relu5_3_0_split -> conv5_3_relu5_3_0_split_0
I0413 18:55:54.961634 14652 net.cpp:408] conv5_3_relu5_3_0_split -> conv5_3_relu5_3_0_split_1
I0413 18:55:54.961694 14652 net.cpp:150] Setting up conv5_3_relu5_3_0_split
I0413 18:55:54.961706 14652 net.cpp:157] Top shape: 1 512 63 94 (3032064)
I0413 18:55:54.961714 14652 net.cpp:157] Top shape: 1 512 63 94 (3032064)
I0413 18:55:54.961720 14652 net.cpp:165] Memory required for data: 3499986420
I0413 18:55:54.961726 14652 layer_factory.hpp:77] Creating layer rpn_big_conv1
I0413 18:55:54.961745 14652 net.cpp:100] Creating Layer rpn_big_conv1
I0413 18:55:54.961753 14652 net.cpp:434] rpn_big_conv1 <- conv5_3_relu5_3_0_split_0
I0413 18:55:54.961765 14652 net.cpp:408] rpn_big_conv1 -> rpn_big_conv1
I0413 18:55:54.986990 14652 net.cpp:150] Setting up rpn_big_conv1
I0413 18:55:54.987020 14652 net.cpp:157] Top shape: 1 512 63 94 (3032064)
I0413 18:55:54.987035 14652 net.cpp:165] Memory required for data: 3512114676
I0413 18:55:54.987046 14652 layer_factory.hpp:77] Creating layer rpn_big_conv1_relu
I0413 18:55:54.987056 14652 net.cpp:100] Creating Layer rpn_big_conv1_relu
I0413 18:55:54.987062 14652 net.cpp:434] rpn_big_conv1_relu <- rpn_big_conv1
I0413 18:55:54.987078 14652 net.cpp:395] rpn_big_conv1_relu -> rpn_big_conv1 (in-place)
I0413 18:55:54.987094 14652 net.cpp:150] Setting up rpn_big_conv1_relu
I0413 18:55:54.987104 14652 net.cpp:157] Top shape: 1 512 63 94 (3032064)
I0413 18:55:54.987109 14652 net.cpp:165] Memory required for data: 3524242932
I0413 18:55:54.987115 14652 layer_factory.hpp:77] Creating layer rpn_big_conv2
I0413 18:55:54.987131 14652 net.cpp:100] Creating Layer rpn_big_conv2
I0413 18:55:54.987139 14652 net.cpp:434] rpn_big_conv2 <- rpn_big_conv1
I0413 18:55:54.987149 14652 net.cpp:408] rpn_big_conv2 -> rpn_big_conv2
I0413 18:55:55.014408 14652 net.cpp:150] Setting up rpn_big_conv2
I0413 18:55:55.014438 14652 net.cpp:157] Top shape: 1 512 63 94 (3032064)
I0413 18:55:55.014451 14652 net.cpp:165] Memory required for data: 3536371188
I0413 18:55:55.014461 14652 layer_factory.hpp:77] Creating layer rpn_big_conv2_relu
I0413 18:55:55.014472 14652 net.cpp:100] Creating Layer rpn_big_conv2_relu
I0413 18:55:55.014477 14652 net.cpp:434] rpn_big_conv2_relu <- rpn_big_conv2
I0413 18:55:55.014487 14652 net.cpp:395] rpn_big_conv2_relu -> rpn_big_conv2 (in-place)
I0413 18:55:55.014500 14652 net.cpp:150] Setting up rpn_big_conv2_relu
I0413 18:55:55.014511 14652 net.cpp:157] Top shape: 1 512 63 94 (3032064)
I0413 18:55:55.014516 14652 net.cpp:165] Memory required for data: 3548499444
I0413 18:55:55.014523 14652 layer_factory.hpp:77] Creating layer rpn_big_conv2_drop
I0413 18:55:55.014534 14652 net.cpp:100] Creating Layer rpn_big_conv2_drop
I0413 18:55:55.014541 14652 net.cpp:434] rpn_big_conv2_drop <- rpn_big_conv2
I0413 18:55:55.014549 14652 net.cpp:395] rpn_big_conv2_drop -> rpn_big_conv2 (in-place)
I0413 18:55:55.014581 14652 net.cpp:150] Setting up rpn_big_conv2_drop
I0413 18:55:55.014591 14652 net.cpp:157] Top shape: 1 512 63 94 (3032064)
I0413 18:55:55.014597 14652 net.cpp:165] Memory required for data: 3560627700
I0413 18:55:55.014602 14652 layer_factory.hpp:77] Creating layer rpn_big_conv2_rpn_big_conv2_drop_0_split
I0413 18:55:55.014611 14652 net.cpp:100] Creating Layer rpn_big_conv2_rpn_big_conv2_drop_0_split
I0413 18:55:55.014617 14652 net.cpp:434] rpn_big_conv2_rpn_big_conv2_drop_0_split <- rpn_big_conv2
I0413 18:55:55.014627 14652 net.cpp:408] rpn_big_conv2_rpn_big_conv2_drop_0_split -> rpn_big_conv2_rpn_big_conv2_drop_0_split_0
I0413 18:55:55.014639 14652 net.cpp:408] rpn_big_conv2_rpn_big_conv2_drop_0_split -> rpn_big_conv2_rpn_big_conv2_drop_0_split_1
I0413 18:55:55.014695 14652 net.cpp:150] Setting up rpn_big_conv2_rpn_big_conv2_drop_0_split
I0413 18:55:55.014706 14652 net.cpp:157] Top shape: 1 512 63 94 (3032064)
I0413 18:55:55.014715 14652 net.cpp:157] Top shape: 1 512 63 94 (3032064)
I0413 18:55:55.014721 14652 net.cpp:165] Memory required for data: 3584884212
I0413 18:55:55.014729 14652 layer_factory.hpp:77] Creating layer rpn_big_output_cls
I0413 18:55:55.014745 14652 net.cpp:100] Creating Layer rpn_big_output_cls
I0413 18:55:55.014753 14652 net.cpp:434] rpn_big_output_cls <- rpn_big_conv2_rpn_big_conv2_drop_0_split_0
I0413 18:55:55.014766 14652 net.cpp:408] rpn_big_output_cls -> rpn_big_output_cls
I0413 18:55:55.033332 14652 net.cpp:150] Setting up rpn_big_output_cls
I0413 18:55:55.033362 14652 net.cpp:157] Top shape: 1 384 63 94 (2274048)
I0413 18:55:55.033375 14652 net.cpp:165] Memory required for data: 3593980404
I0413 18:55:55.033385 14652 layer_factory.hpp:77] Creating layer rpn_big_output_cls_relu
I0413 18:55:55.033396 14652 net.cpp:100] Creating Layer rpn_big_output_cls_relu
I0413 18:55:55.033401 14652 net.cpp:434] rpn_big_output_cls_relu <- rpn_big_output_cls
I0413 18:55:55.033412 14652 net.cpp:395] rpn_big_output_cls_relu -> rpn_big_output_cls (in-place)
I0413 18:55:55.033427 14652 net.cpp:150] Setting up rpn_big_output_cls_relu
I0413 18:55:55.033437 14652 net.cpp:157] Top shape: 1 384 63 94 (2274048)
I0413 18:55:55.033442 14652 net.cpp:165] Memory required for data: 3603076596
I0413 18:55:55.033447 14652 layer_factory.hpp:77] Creating layer rpn_big_cls_score
I0413 18:55:55.033463 14652 net.cpp:100] Creating Layer rpn_big_cls_score
I0413 18:55:55.033469 14652 net.cpp:434] rpn_big_cls_score <- rpn_big_output_cls
I0413 18:55:55.033480 14652 net.cpp:408] rpn_big_cls_score -> rpn_big_cls_score
I0413 18:55:55.035918 14652 net.cpp:150] Setting up rpn_big_cls_score
I0413 18:55:55.035938 14652 net.cpp:157] Top shape: 1 52 61 92 (291824)
I0413 18:55:55.035943 14652 net.cpp:165] Memory required for data: 3604243892
I0413 18:55:55.035964 14652 layer_factory.hpp:77] Creating layer rpn_big_cls_score_rpn_big_cls_score_0_split
I0413 18:55:55.035976 14652 net.cpp:100] Creating Layer rpn_big_cls_score_rpn_big_cls_score_0_split
I0413 18:55:55.035989 14652 net.cpp:434] rpn_big_cls_score_rpn_big_cls_score_0_split <- rpn_big_cls_score
I0413 18:55:55.035997 14652 net.cpp:408] rpn_big_cls_score_rpn_big_cls_score_0_split -> rpn_big_cls_score_rpn_big_cls_score_0_split_0
I0413 18:55:55.036006 14652 net.cpp:408] rpn_big_cls_score_rpn_big_cls_score_0_split -> rpn_big_cls_score_rpn_big_cls_score_0_split_1
I0413 18:55:55.036041 14652 net.cpp:150] Setting up rpn_big_cls_score_rpn_big_cls_score_0_split
I0413 18:55:55.036051 14652 net.cpp:157] Top shape: 1 52 61 92 (291824)
I0413 18:55:55.036054 14652 net.cpp:157] Top shape: 1 52 61 92 (291824)
I0413 18:55:55.036057 14652 net.cpp:165] Memory required for data: 3606578484
I0413 18:55:55.036062 14652 layer_factory.hpp:77] Creating layer rpn_big_cls_score_reshape
I0413 18:55:55.036068 14652 net.cpp:100] Creating Layer rpn_big_cls_score_reshape
I0413 18:55:55.036072 14652 net.cpp:434] rpn_big_cls_score_reshape <- rpn_big_cls_score_rpn_big_cls_score_0_split_0
I0413 18:55:55.036078 14652 net.cpp:408] rpn_big_cls_score_reshape -> rpn_big_cls_score_reshape
I0413 18:55:55.036100 14652 net.cpp:150] Setting up rpn_big_cls_score_reshape
I0413 18:55:55.036109 14652 net.cpp:157] Top shape: 1 2 1586 92 (291824)
I0413 18:55:55.036113 14652 net.cpp:165] Memory required for data: 3607745780
I0413 18:55:55.036115 14652 layer_factory.hpp:77] Creating layer rpn_big_cls_score_reshape_rpn_big_cls_score_reshape_0_split
I0413 18:55:55.036120 14652 net.cpp:100] Creating Layer rpn_big_cls_score_reshape_rpn_big_cls_score_reshape_0_split
I0413 18:55:55.036123 14652 net.cpp:434] rpn_big_cls_score_reshape_rpn_big_cls_score_reshape_0_split <- rpn_big_cls_score_reshape
I0413 18:55:55.036129 14652 net.cpp:408] rpn_big_cls_score_reshape_rpn_big_cls_score_reshape_0_split -> rpn_big_cls_score_reshape_rpn_big_cls_score_reshape_0_split_0
I0413 18:55:55.036137 14652 net.cpp:408] rpn_big_cls_score_reshape_rpn_big_cls_score_reshape_0_split -> rpn_big_cls_score_reshape_rpn_big_cls_score_reshape_0_split_1
I0413 18:55:55.036166 14652 net.cpp:150] Setting up rpn_big_cls_score_reshape_rpn_big_cls_score_reshape_0_split
I0413 18:55:55.036173 14652 net.cpp:157] Top shape: 1 2 1586 92 (291824)
I0413 18:55:55.036177 14652 net.cpp:157] Top shape: 1 2 1586 92 (291824)
I0413 18:55:55.036180 14652 net.cpp:165] Memory required for data: 3610080372
I0413 18:55:55.036183 14652 layer_factory.hpp:77] Creating layer rpn_big_cls_prob
I0413 18:55:55.036190 14652 net.cpp:100] Creating Layer rpn_big_cls_prob
I0413 18:55:55.036195 14652 net.cpp:434] rpn_big_cls_prob <- rpn_big_cls_score_reshape_rpn_big_cls_score_reshape_0_split_0
I0413 18:55:55.036201 14652 net.cpp:408] rpn_big_cls_prob -> rpn_big_cls_prob
I0413 18:55:55.036250 14652 net.cpp:150] Setting up rpn_big_cls_prob
I0413 18:55:55.036257 14652 net.cpp:157] Top shape: 1 2 1586 92 (291824)
I0413 18:55:55.036260 14652 net.cpp:165] Memory required for data: 3611247668
I0413 18:55:55.036263 14652 layer_factory.hpp:77] Creating layer rpn_big_cls_prob_reshape
I0413 18:55:55.036268 14652 net.cpp:100] Creating Layer rpn_big_cls_prob_reshape
I0413 18:55:55.036272 14652 net.cpp:434] rpn_big_cls_prob_reshape <- rpn_big_cls_prob
I0413 18:55:55.036276 14652 net.cpp:408] rpn_big_cls_prob_reshape -> rpn_big_cls_prob_reshape
I0413 18:55:55.036298 14652 net.cpp:150] Setting up rpn_big_cls_prob_reshape
I0413 18:55:55.036304 14652 net.cpp:157] Top shape: 1 52 61 92 (291824)
I0413 18:55:55.036308 14652 net.cpp:165] Memory required for data: 3612414964
I0413 18:55:55.036310 14652 layer_factory.hpp:77] Creating layer rpn_big_cls_prob_reshape_rpn_big_cls_prob_reshape_0_split
I0413 18:55:55.036315 14652 net.cpp:100] Creating Layer rpn_big_cls_prob_reshape_rpn_big_cls_prob_reshape_0_split
I0413 18:55:55.036319 14652 net.cpp:434] rpn_big_cls_prob_reshape_rpn_big_cls_prob_reshape_0_split <- rpn_big_cls_prob_reshape
I0413 18:55:55.036324 14652 net.cpp:408] rpn_big_cls_prob_reshape_rpn_big_cls_prob_reshape_0_split -> rpn_big_cls_prob_reshape_rpn_big_cls_prob_reshape_0_split_0
I0413 18:55:55.036329 14652 net.cpp:408] rpn_big_cls_prob_reshape_rpn_big_cls_prob_reshape_0_split -> rpn_big_cls_prob_reshape_rpn_big_cls_prob_reshape_0_split_1
I0413 18:55:55.036357 14652 net.cpp:150] Setting up rpn_big_cls_prob_reshape_rpn_big_cls_prob_reshape_0_split
I0413 18:55:55.036365 14652 net.cpp:157] Top shape: 1 52 61 92 (291824)
I0413 18:55:55.036368 14652 net.cpp:157] Top shape: 1 52 61 92 (291824)
I0413 18:55:55.036371 14652 net.cpp:165] Memory required for data: 3614749556
I0413 18:55:55.036375 14652 layer_factory.hpp:77] Creating layer rpn_big_anchor_target
I0413 18:55:55.106814 14652 net.cpp:100] Creating Layer rpn_big_anchor_target
I0413 18:55:55.106858 14652 net.cpp:434] rpn_big_anchor_target <- rpn_big_cls_score_rpn_big_cls_score_0_split_1
I0413 18:55:55.106881 14652 net.cpp:434] rpn_big_anchor_target <- input_gt_boxes_input_2_split_0
I0413 18:55:55.106896 14652 net.cpp:434] rpn_big_anchor_target <- input_ignored_boxes
I0413 18:55:55.106916 14652 net.cpp:434] rpn_big_anchor_target <- input_im_info_input_1_split_0
I0413 18:55:55.106930 14652 net.cpp:434] rpn_big_anchor_target <- input_data_input_0_split_1
I0413 18:55:55.106946 14652 net.cpp:434] rpn_big_anchor_target <- rpn_big_cls_prob_reshape_rpn_big_cls_prob_reshape_0_split_0
I0413 18:55:55.106971 14652 net.cpp:408] rpn_big_anchor_target -> rpn_big_anchor_target_labels
I0413 18:55:55.107002 14652 net.cpp:408] rpn_big_anchor_target -> rpn_big_anchor_target_bbox_targets
I0413 18:55:55.107031 14652 net.cpp:408] rpn_big_anchor_target -> rpn_big_anchor_target_inside_weights
I0413 18:55:55.107059 14652 net.cpp:408] rpn_big_anchor_target -> rpn_big_anchor_target_outside_weights
I0413 18:55:55.116626 14652 net.cpp:150] Setting up rpn_big_anchor_target
I0413 18:55:55.116672 14652 net.cpp:157] Top shape: 1 1 1586 92 (145912)
I0413 18:55:55.116681 14652 net.cpp:157] Top shape: 1 104 61 92 (583648)
I0413 18:55:55.116690 14652 net.cpp:157] Top shape: 1 104 61 92 (583648)
I0413 18:55:55.116703 14652 net.cpp:157] Top shape: 1 104 61 92 (583648)
I0413 18:55:55.116714 14652 net.cpp:165] Memory required for data: 3622336980
I0413 18:55:55.116727 14652 layer_factory.hpp:77] Creating layer rpn_big_loss_cls
I0413 18:55:55.116755 14652 net.cpp:100] Creating Layer rpn_big_loss_cls
I0413 18:55:55.116768 14652 net.cpp:434] rpn_big_loss_cls <- rpn_big_cls_score_reshape_rpn_big_cls_score_reshape_0_split_1
I0413 18:55:55.116783 14652 net.cpp:434] rpn_big_loss_cls <- rpn_big_anchor_target_labels
I0413 18:55:55.116801 14652 net.cpp:408] rpn_big_loss_cls -> rpn_big_loss_cls
I0413 18:55:55.116828 14652 layer_factory.hpp:77] Creating layer rpn_big_loss_cls
I0413 18:55:55.117820 14652 net.cpp:150] Setting up rpn_big_loss_cls
I0413 18:55:55.117844 14652 net.cpp:157] Top shape: (1)
I0413 18:55:55.117849 14652 net.cpp:160]     with loss weight 1
I0413 18:55:55.117863 14652 net.cpp:165] Memory required for data: 3622336984
I0413 18:55:55.117869 14652 layer_factory.hpp:77] Creating layer rpn_big_output_box
I0413 18:55:55.117887 14652 net.cpp:100] Creating Layer rpn_big_output_box
I0413 18:55:55.117894 14652 net.cpp:434] rpn_big_output_box <- rpn_big_conv2_rpn_big_conv2_drop_0_split_1
I0413 18:55:55.117911 14652 net.cpp:408] rpn_big_output_box -> rpn_big_output_box
I0413 18:55:55.148813 14652 net.cpp:150] Setting up rpn_big_output_box
I0413 18:55:55.148849 14652 net.cpp:157] Top shape: 1 384 63 94 (2274048)
I0413 18:55:55.148855 14652 net.cpp:165] Memory required for data: 3631433176
I0413 18:55:55.148869 14652 layer_factory.hpp:77] Creating layer rpn_big_output_box_relu
I0413 18:55:55.148895 14652 net.cpp:100] Creating Layer rpn_big_output_box_relu
I0413 18:55:55.148908 14652 net.cpp:434] rpn_big_output_box_relu <- rpn_big_output_box
I0413 18:55:55.148929 14652 net.cpp:395] rpn_big_output_box_relu -> rpn_big_output_box (in-place)
I0413 18:55:55.148948 14652 net.cpp:150] Setting up rpn_big_output_box_relu
I0413 18:55:55.148962 14652 net.cpp:157] Top shape: 1 384 63 94 (2274048)
I0413 18:55:55.148969 14652 net.cpp:165] Memory required for data: 3640529368
I0413 18:55:55.148977 14652 layer_factory.hpp:77] Creating layer rpn_big_bbox_pred
I0413 18:55:55.148996 14652 net.cpp:100] Creating Layer rpn_big_bbox_pred
I0413 18:55:55.149005 14652 net.cpp:434] rpn_big_bbox_pred <- rpn_big_output_box
I0413 18:55:55.149022 14652 net.cpp:408] rpn_big_bbox_pred -> rpn_big_bbox_pred
I0413 18:55:55.155463 14652 net.cpp:150] Setting up rpn_big_bbox_pred
I0413 18:55:55.155496 14652 net.cpp:157] Top shape: 1 104 61 92 (583648)
I0413 18:55:55.155503 14652 net.cpp:165] Memory required for data: 3642863960
I0413 18:55:55.155514 14652 layer_factory.hpp:77] Creating layer rpn_big_bbox_pred_rpn_big_bbox_pred_0_split
I0413 18:55:55.155525 14652 net.cpp:100] Creating Layer rpn_big_bbox_pred_rpn_big_bbox_pred_0_split
I0413 18:55:55.155537 14652 net.cpp:434] rpn_big_bbox_pred_rpn_big_bbox_pred_0_split <- rpn_big_bbox_pred
I0413 18:55:55.155557 14652 net.cpp:408] rpn_big_bbox_pred_rpn_big_bbox_pred_0_split -> rpn_big_bbox_pred_rpn_big_bbox_pred_0_split_0
I0413 18:55:55.155580 14652 net.cpp:408] rpn_big_bbox_pred_rpn_big_bbox_pred_0_split -> rpn_big_bbox_pred_rpn_big_bbox_pred_0_split_1
I0413 18:55:55.155639 14652 net.cpp:150] Setting up rpn_big_bbox_pred_rpn_big_bbox_pred_0_split
I0413 18:55:55.155652 14652 net.cpp:157] Top shape: 1 104 61 92 (583648)
I0413 18:55:55.155658 14652 net.cpp:157] Top shape: 1 104 61 92 (583648)
I0413 18:55:55.155661 14652 net.cpp:165] Memory required for data: 3647533144
I0413 18:55:55.155666 14652 layer_factory.hpp:77] Creating layer rpn_big_loss_bbox
I0413 18:55:55.156167 14652 net.cpp:100] Creating Layer rpn_big_loss_bbox
I0413 18:55:55.156183 14652 net.cpp:434] rpn_big_loss_bbox <- rpn_big_bbox_pred_rpn_big_bbox_pred_0_split_0
I0413 18:55:55.156191 14652 net.cpp:434] rpn_big_loss_bbox <- rpn_big_anchor_target_bbox_targets
I0413 18:55:55.156198 14652 net.cpp:434] rpn_big_loss_bbox <- rpn_big_anchor_target_inside_weights
I0413 18:55:55.156204 14652 net.cpp:434] rpn_big_loss_bbox <- rpn_big_anchor_target_outside_weights
I0413 18:55:55.156214 14652 net.cpp:408] rpn_big_loss_bbox -> rpn_big_loss_bbox
I0413 18:55:55.159199 14652 net.cpp:150] Setting up rpn_big_loss_bbox
I0413 18:55:55.159236 14652 net.cpp:157] Top shape: 1 (1)
I0413 18:55:55.159241 14652 net.cpp:160]     with loss weight 1
I0413 18:55:55.159256 14652 net.cpp:165] Memory required for data: 3647533148
I0413 18:55:55.159268 14652 layer_factory.hpp:77] Creating layer proposal
I0413 18:55:55.159854 14652 net.cpp:100] Creating Layer proposal
I0413 18:55:55.159869 14652 net.cpp:434] proposal <- rpn_big_cls_prob_reshape_rpn_big_cls_prob_reshape_0_split_1
I0413 18:55:55.159881 14652 net.cpp:434] proposal <- rpn_big_bbox_pred_rpn_big_bbox_pred_0_split_1
I0413 18:55:55.159893 14652 net.cpp:434] proposal <- input_im_info_input_1_split_1
I0413 18:55:55.159909 14652 net.cpp:408] proposal -> rpn_rois
I0413 18:55:55.165840 14652 net.cpp:150] Setting up proposal
I0413 18:55:55.165861 14652 net.cpp:157] Top shape: 1 5 (5)
I0413 18:55:55.165866 14652 net.cpp:165] Memory required for data: 3647533168
I0413 18:55:55.165871 14652 layer_factory.hpp:77] Creating layer roi-data
I0413 18:55:55.166321 14652 net.cpp:100] Creating Layer roi-data
I0413 18:55:55.166335 14652 net.cpp:434] roi-data <- rpn_rois
I0413 18:55:55.166344 14652 net.cpp:434] roi-data <- input_gt_boxes_input_2_split_1
I0413 18:55:55.166353 14652 net.cpp:408] roi-data -> rois
I0413 18:55:55.166364 14652 net.cpp:408] roi-data -> labels
I0413 18:55:55.166375 14652 net.cpp:408] roi-data -> pid_label
I0413 18:55:55.166393 14652 net.cpp:408] roi-data -> bbox_targets
I0413 18:55:55.166414 14652 net.cpp:408] roi-data -> bbox_inside_weights
I0413 18:55:55.166431 14652 net.cpp:408] roi-data -> bbox_outside_weights
I0413 18:55:55.167820 14652 net.cpp:150] Setting up roi-data
I0413 18:55:55.167837 14652 net.cpp:157] Top shape: 1 5 (5)
I0413 18:55:55.167843 14652 net.cpp:157] Top shape: 1 1 (1)
I0413 18:55:55.167848 14652 net.cpp:157] Top shape: 1 8 (8)
I0413 18:55:55.167853 14652 net.cpp:157] Top shape: 1 8 (8)
I0413 18:55:55.167858 14652 net.cpp:157] Top shape: 1 8 (8)
I0413 18:55:55.167862 14652 net.cpp:157] Top shape: (0)
I0413 18:55:55.167866 14652 net.cpp:165] Memory required for data: 3647533288
I0413 18:55:55.167871 14652 layer_factory.hpp:77] Creating layer roi-pool
I0413 18:55:55.167883 14652 net.cpp:100] Creating Layer roi-pool
I0413 18:55:55.167894 14652 net.cpp:434] roi-pool <- conv5_3_relu5_3_0_split_1
I0413 18:55:55.167906 14652 net.cpp:434] roi-pool <- rois
I0413 18:55:55.167917 14652 net.cpp:408] roi-pool -> roi-pool
I0413 18:55:55.167938 14652 roi_pooling_layer.cpp:33] Spatial scale: 0.0625
I0413 18:55:55.167958 14652 roi_pooling_layer.cpp:34] Box scale: 1
I0413 18:55:55.168025 14652 net.cpp:150] Setting up roi-pool
I0413 18:55:55.168040 14652 net.cpp:157] Top shape: 1 512 7 7 (25088)
I0413 18:55:55.168050 14652 net.cpp:165] Memory required for data: 3647633640
I0413 18:55:55.168057 14652 layer_factory.hpp:77] Creating layer fc6
I0413 18:55:55.168071 14652 net.cpp:100] Creating Layer fc6
I0413 18:55:55.168082 14652 net.cpp:434] fc6 <- roi-pool
I0413 18:55:55.168093 14652 net.cpp:408] fc6 -> fc6
I0413 18:55:55.348979 14652 net.cpp:150] Setting up fc6
I0413 18:55:55.349012 14652 net.cpp:157] Top shape: 1 4096 (4096)
I0413 18:55:55.349025 14652 net.cpp:165] Memory required for data: 3647650024
I0413 18:55:55.349036 14652 layer_factory.hpp:77] Creating layer relu6
I0413 18:55:55.349046 14652 net.cpp:100] Creating Layer relu6
I0413 18:55:55.349051 14652 net.cpp:434] relu6 <- fc6
I0413 18:55:55.349061 14652 net.cpp:395] relu6 -> fc6 (in-place)
I0413 18:55:55.349076 14652 net.cpp:150] Setting up relu6
I0413 18:55:55.349082 14652 net.cpp:157] Top shape: 1 4096 (4096)
I0413 18:55:55.349087 14652 net.cpp:165] Memory required for data: 3647666408
I0413 18:55:55.349092 14652 layer_factory.hpp:77] Creating layer drop6
I0413 18:55:55.349102 14652 net.cpp:100] Creating Layer drop6
I0413 18:55:55.349107 14652 net.cpp:434] drop6 <- fc6
I0413 18:55:55.349114 14652 net.cpp:395] drop6 -> fc6 (in-place)
I0413 18:55:55.349145 14652 net.cpp:150] Setting up drop6
I0413 18:55:55.349155 14652 net.cpp:157] Top shape: 1 4096 (4096)
I0413 18:55:55.349159 14652 net.cpp:165] Memory required for data: 3647682792
I0413 18:55:55.349164 14652 layer_factory.hpp:77] Creating layer fc7
I0413 18:55:55.349176 14652 net.cpp:100] Creating Layer fc7
I0413 18:55:55.349184 14652 net.cpp:434] fc7 <- fc6
I0413 18:55:55.349192 14652 net.cpp:408] fc7 -> fc7
I0413 18:55:55.376871 14652 net.cpp:150] Setting up fc7
I0413 18:55:55.376930 14652 net.cpp:157] Top shape: 1 4096 (4096)
I0413 18:55:55.376935 14652 net.cpp:165] Memory required for data: 3647699176
I0413 18:55:55.376948 14652 layer_factory.hpp:77] Creating layer relu7
I0413 18:55:55.376978 14652 net.cpp:100] Creating Layer relu7
I0413 18:55:55.376996 14652 net.cpp:434] relu7 <- fc7
I0413 18:55:55.377014 14652 net.cpp:395] relu7 -> fc7 (in-place)
I0413 18:55:55.377027 14652 net.cpp:150] Setting up relu7
I0413 18:55:55.377033 14652 net.cpp:157] Top shape: 1 4096 (4096)
I0413 18:55:55.377038 14652 net.cpp:165] Memory required for data: 3647715560
I0413 18:55:55.377044 14652 layer_factory.hpp:77] Creating layer drop7
I0413 18:55:55.377053 14652 net.cpp:100] Creating Layer drop7
I0413 18:55:55.377058 14652 net.cpp:434] drop7 <- fc7
I0413 18:55:55.377066 14652 net.cpp:395] drop7 -> fc7 (in-place)
I0413 18:55:55.377095 14652 net.cpp:150] Setting up drop7
I0413 18:55:55.377105 14652 net.cpp:157] Top shape: 1 4096 (4096)
I0413 18:55:55.377110 14652 net.cpp:165] Memory required for data: 3647731944
I0413 18:55:55.377116 14652 layer_factory.hpp:77] Creating layer fc7_drop7_0_split
I0413 18:55:55.377127 14652 net.cpp:100] Creating Layer fc7_drop7_0_split
I0413 18:55:55.377135 14652 net.cpp:434] fc7_drop7_0_split <- fc7
I0413 18:55:55.377142 14652 net.cpp:408] fc7_drop7_0_split -> fc7_drop7_0_split_0
I0413 18:55:55.377168 14652 net.cpp:408] fc7_drop7_0_split -> fc7_drop7_0_split_1
I0413 18:55:55.377215 14652 net.cpp:150] Setting up fc7_drop7_0_split
I0413 18:55:55.377226 14652 net.cpp:157] Top shape: 1 4096 (4096)
I0413 18:55:55.377234 14652 net.cpp:157] Top shape: 1 4096 (4096)
I0413 18:55:55.377239 14652 net.cpp:165] Memory required for data: 3647764712
I0413 18:55:55.377244 14652 layer_factory.hpp:77] Creating layer bbox_pred
I0413 18:55:55.377257 14652 net.cpp:100] Creating Layer bbox_pred
I0413 18:55:55.377265 14652 net.cpp:434] bbox_pred <- fc7_drop7_0_split_0
I0413 18:55:55.377276 14652 net.cpp:408] bbox_pred -> bbox_pred
I0413 18:55:55.377892 14652 net.cpp:150] Setting up bbox_pred
I0413 18:55:55.377899 14652 net.cpp:157] Top shape: 1 8 (8)
I0413 18:55:55.377903 14652 net.cpp:165] Memory required for data: 3647764744
I0413 18:55:55.377913 14652 layer_factory.hpp:77] Creating layer loss_bbox
I0413 18:55:55.377928 14652 net.cpp:100] Creating Layer loss_bbox
I0413 18:55:55.377934 14652 net.cpp:434] loss_bbox <- bbox_pred
I0413 18:55:55.377943 14652 net.cpp:434] loss_bbox <- bbox_targets
I0413 18:55:55.377951 14652 net.cpp:434] loss_bbox <- bbox_inside_weights
…
