…
I0413 15:51:20.969552  7027 solver.cpp:48] Initializing solver from parameters: 
base_lr: 0.001
display: 20
lr_policy: "multistep"
gamma: 0.1
momentum: 0.9
weight_decay: 0.0005
snapshot: 0
snapshot_prefix: "faces_example"
net_param {
  name: "GeneratedModel_13_04_2017_15_51"
  layer {
    name: "input"
    type: "Python"
    top: "input_data"
    top: "input_im_info"
    top: "input_gt_boxes"
    top: "input_ignored_boxes"
    python_param {
      module: "layers.roi_data_layer"
      layer: "RoIDataLayer"
      param_str: "{\"num_classes\": 2}"
    }
  }
  layer {
    name: "conv1_1"
    type: "Convolution"
    bottom: "input_data"
    top: "conv1_1"
    param {
      lr_mult: 0
      decay_mult: 0
    }
    param {
      lr_mult: 0
      decay_mult: 0
    }
    convolution_param {
      num_output: 64
      pad: 1
      kernel_size: 3
    }
  }
  layer {
    name: "relu1_1"
    type: "ReLU"
    bottom: "conv1_1"
    top: "conv1_1"
  }
  layer {
    name: "conv1_2"
    type: "Convolution"
    bottom: "conv1_1"
    top: "conv1_2"
    param {
      lr_mult: 0
      decay_mult: 0
    }
    param {
      lr_mult: 0
      decay_mult: 0
    }
    convolution_param {
      num_output: 64
      pad: 1
      kernel_size: 3
    }
  }
  layer {
    name: "relu1_2"
    type: "ReLU"
    bottom: "conv1_2"
    top: "conv1_2"
  }
  layer {
    name: "pool1"
    type: "Pooling"
    bottom: "conv1_2"
    top: "pool1"
    pooling_param {
      pool: MAX
      kernel_size: 2
      stride: 2
    }
  }
  layer {
    name: "conv2_1"
    type: "Convolution"
    bottom: "pool1"
    top: "conv2_1"
    param {
      lr_mult: 0
      decay_mult: 0
    }
    param {
      lr_mult: 0
      decay_mult: 0
    }
    convolution_param {
      num_output: 128
      pad: 1
      kernel_size: 3
    }
  }
  layer {
    name: "relu2_1"
    type: "ReLU"
    bottom: "conv2_1"
    top: "conv2_1"
  }
  layer {
    name: "conv2_2"
    type: "Convolution"
    bottom: "conv2_1"
    top: "conv2_2"
    param {
      lr_mult: 0
      decay_mult: 0
    }
    param {
      lr_mult: 0
      decay_mult: 0
    }
    convolution_param {
      num_output: 128
      pad: 1
      kernel_size: 3
    }
  }
  layer {
    name: "relu2_2"
    type: "ReLU"
    bottom: "conv2_2"
    top: "conv2_2"
  }
  layer {
    name: "pool2"
    type: "Pooling"
    bottom: "conv2_2"
    top: "pool2"
    pooling_param {
      pool: MAX
      kernel_size: 2
      stride: 2
    }
  }
  layer {
    name: "conv3_1"
    type: "Convolution"
    bottom: "pool2"
    top: "conv3_1"
    param {
      lr_mult: 1
    }
    param {
      lr_mult: 2
    }
    convolution_param {
      num_output: 256
      pad: 1
      kernel_size: 3
    }
  }
  layer {
    name: "relu3_1"
    type: "ReLU"
    bottom: "conv3_1"
    top: "conv3_1"
  }
  layer {
    name: "conv3_2"
    type: "Convolution"
    bottom: "conv3_1"
    top: "conv3_2"
    param {
      lr_mult: 1
    }
    param {
      lr_mult: 2
    }
    convolution_param {
      num_output: 256
      pad: 1
      kernel_size: 3
    }
  }
  layer {
    name: "relu3_2"
    type: "ReLU"
    bottom: "conv3_2"
    top: "conv3_2"
  }
  layer {
    name: "conv3_3"
    type: "Convolution"
    bottom: "conv3_2"
    top: "conv3_3"
    param {
      lr_mult: 1
    }
    param {
      lr_mult: 2
    }
    convolution_param {
      num_output: 256
      pad: 1
      kernel_size: 3
    }
  }
  layer {
    name: "relu3_3"
    type: "ReLU"
    bottom: "conv3_3"
    top: "conv3_3"
  }
  layer {
    name: "pool3"
    type: "Pooling"
    bottom: "conv3_3"
    top: "pool3"
    pooling_param {
      pool: MAX
      kernel_size: 2
      stride: 2
    }
  }
  layer {
    name: "conv4_1"
    type: "Convolution"
    bottom: "pool3"
    top: "conv4_1"
    param {
      lr_mult: 1
    }
    param {
      lr_mult: 2
    }
    convolution_param {
      num_output: 512
      pad: 1
      kernel_size: 3
    }
  }
  layer {
    name: "relu4_1"
    type: "ReLU"
    bottom: "conv4_1"
    top: "conv4_1"
  }
  layer {
    name: "conv4_2"
    type: "Convolution"
    bottom: "conv4_1"
    top: "conv4_2"
    param {
      lr_mult: 1
    }
    param {
      lr_mult: 2
    }
    convolution_param {
      num_output: 512
      pad: 1
      kernel_size: 3
    }
  }
  layer {
    name: "relu4_2"
    type: "ReLU"
    bottom: "conv4_2"
    top: "conv4_2"
  }
  layer {
    name: "conv4_3"
    type: "Convolution"
    bottom: "conv4_2"
    top: "conv4_3"
    param {
      lr_mult: 1
    }
    param {
      lr_mult: 2
    }
    convolution_param {
      num_output: 512
      pad: 1
      kernel_size: 3
    }
  }
  layer {
    name: "relu4_3"
    type: "ReLU"
    bottom: "conv4_3"
    top: "conv4_3"
  }
  layer {
    name: "pool4"
    type: "Pooling"
    bottom: "conv4_3"
    top: "pool4"
    pooling_param {
      pool: MAX
      kernel_size: 2
      stride: 2
    }
  }
  layer {
    name: "conv5_1"
    type: "Convolution"
    bottom: "pool4"
    top: "conv5_1"
    param {
      lr_mult: 1
    }
    param {
      lr_mult: 2
    }
    convolution_param {
      num_output: 512
      pad: 1
      kernel_size: 3
    }
  }
  layer {
    name: "relu5_1"
    type: "ReLU"
    bottom: "conv5_1"
    top: "conv5_1"
  }
  layer {
    name: "conv5_2"
    type: "Convolution"
    bottom: "conv5_1"
    top: "conv5_2"
    param {
      lr_mult: 1
    }
    param {
      lr_mult: 2
    }
    convolution_param {
      num_output: 512
      pad: 1
      kernel_size: 3
    }
  }
  layer {
    name: "relu5_2"
    type: "ReLU"
    bottom: "conv5_2"
    top: "conv5_2"
  }
  layer {
    name: "conv5_3"
    type: "Convolution"
    bottom: "conv5_2"
    top: "conv5_3"
    param {
      lr_mult: 1
    }
    param {
      lr_mult: 2
    }
    convolution_param {
      num_output: 512
      pad: 1
      kernel_size: 3
    }
  }
  layer {
    name: "relu5_3"
    type: "ReLU"
    bottom: "conv5_3"
    top: "conv5_3"
  }
  layer {
    name: "rpn_big_conv1"
    type: "Convolution"
    bottom: "conv5_3"
    top: "rpn_big_conv1"
    param {
      lr_mult: 1
    }
    param {
      lr_mult: 2
    }
    convolution_param {
      num_output: 512
      pad: 1
      kernel_size: 3
      stride: 1
      weight_filler {
        type: "gaussian"
        mean: 0
        std: 0.01
      }
      bias_filler {
        type: "constant"
      }
    }
  }
  layer {
    name: "rpn_big_conv1_relu"
    type: "ReLU"
    bottom: "rpn_big_conv1"
    top: "rpn_big_conv1"
    relu_param {
      negative_slope: 0
    }
  }
  layer {
    name: "rpn_big_conv2"
    type: "Convolution"
    bottom: "rpn_big_conv1"
    top: "rpn_big_conv2"
    param {
      lr_mult: 1
    }
    param {
      lr_mult: 2
    }
    convolution_param {
      num_output: 512
      pad: 1
      kernel_size: 3
      stride: 1
      weight_filler {
        type: "gaussian"
        mean: 0
        std: 0.01
      }
      bias_filler {
        type: "constant"
      }
    }
  }
  layer {
    name: "rpn_big_conv2_relu"
    type: "ReLU"
    bottom: "rpn_big_conv2"
    top: "rpn_big_conv2"
    relu_param {
      negative_slope: 0
    }
  }
  layer {
    name: "rpn_big_conv2_drop"
    type: "Dropout"
    bottom: "rpn_big_conv2"
    top: "rpn_big_conv2"
    dropout_param {
      dropout_ratio: 0.3
    }
  }
  layer {
    name: "rpn_big_output_cls"
    type: "Convolution"
    bottom: "rpn_big_conv2"
    top: "rpn_big_output_cls"
    param {
      lr_mult: 1
    }
    param {
      lr_mult: 2
    }
    convolution_param {
      num_output: 384
      pad: 1
      kernel_size: 3
      stride: 1
      weight_filler {
        type: "gaussian"
        mean: 0
        std: 0.01
      }
      bias_filler {
        type: "constant"
      }
    }
  }
  layer {
    name: "rpn_big_output_cls_relu"
    type: "ReLU"
    bottom: "rpn_big_output_cls"
    top: "rpn_big_output_cls"
    relu_param {
      negative_slope: 0
    }
  }
  layer {
    name: "rpn_big_cls_score"
    type: "Convolution"
    bottom: "rpn_big_output_cls"
    top: "rpn_big_cls_score"
    param {
      lr_mult: 1
    }
    param {
      lr_mult: 2
    }
    convolution_param {
      num_output: 52
      pad: 0
      kernel_size: 3
      stride: 1
      weight_filler {
        type: "gaussian"
        mean: 0
        std: 0.01
      }
      bias_filler {
        type: "constant"
      }
    }
  }
  layer {
    name: "rpn_big_cls_score_reshape"
    type: "Reshape"
    bottom: "rpn_big_cls_score"
    top: "rpn_big_cls_score_reshape"
    reshape_param {
      shape {
        dim: 0
        dim: 2
        dim: -1
        dim: 0
      }
    }
  }
  layer {
    name: "rpn_big_cls_prob"
    type: "Softmax"
    bottom: "rpn_big_cls_score_reshape"
    top: "rpn_big_cls_prob"
  }
  layer {
    name: "rpn_big_cls_prob_reshape"
    type: "Reshape"
    bottom: "rpn_big_cls_prob"
    top: "rpn_big_cls_prob_reshape"
    reshape_param {
      shape {
        dim: 0
        dim: 52
        dim: -1
        dim: 0
      }
    }
  }
  layer {
    name: "rpn_big_anchor_target"
    type: "Python"
    bottom: "rpn_big_cls_score"
    bottom: "input_gt_boxes"
    bottom: "input_ignored_boxes"
    bottom: "input_im_info"
    bottom: "input_data"
    bottom: "rpn_big_cls_prob_reshape"
    top: "rpn_big_anchor_target_labels"
    top: "rpn_big_anchor_target_bbox_targets"
    top: "rpn_big_anchor_target_inside_weights"
    top: "rpn_big_anchor_target_outside_weights"
    python_param {
      module: "rpn.anchor_target_layer"
      layer: "AnchorTargetLayer"
      param_str: "{\"negative_overlap\": 0.4, \"square_targets\": true, \"tn_fraction\": 0.2, \"anchor_shift_num_xy\": [[2, 2], [2, 2], [2, 2], [2, 2], [1, 1], [1, 1], [1, 1], [1, 1], [1, 1], [1, 1], [1, 1], [1, 1], [1, 1], [1, 1]], \"feat_stride\": 16, \"batchsize\": 256, \"name\": \"rpn_big\", \"num_classes\": 1, \"fg_fraction\": 0.5, \"anchor_scales\": [2.5, 3.025, 3.66025, 4.4289024999999995, 5.358972025, 6.484356150249999, 7.846070941802498, 9.493745839581022, 11.487432465893036, 13.899793283730574, 16.818749873313998, 20.350687346709933, 24.62433168951902, 29.795441344318014], \"anchor_ratios\": [1.0], \"positive_overlap\": 0.6}"
    }
  }
  layer {
    name: "rpn_big_loss_cls"
    type: "SoftmaxWithLoss"
    bottom: "rpn_big_cls_score_reshape"
    bottom: "rpn_big_anchor_target_labels"
    top: "rpn_big_loss_cls"
    loss_weight: 1
    propagate_down: true
    propagate_down: false
    loss_param {
      ignore_label: -1
      normalization: VALID
    }
  }
  layer {
    name: "rpn_big_output_box"
    type: "Convolution"
    bottom: "rpn_big_conv2"
    top: "rpn_big_output_box"
    param {
      lr_mult: 1
    }
    param {
      lr_mult: 2
    }
    convolution_param {
      num_output: 384
      pad: 1
      kernel_size: 3
      stride: 1
      weight_filler {
        type: "gaussian"
        mean: 0
        std: 0.01
      }
      bias_filler {
        type: "constant"
      }
    }
  }
  layer {
    name: "rpn_big_output_box_relu"
    type: "ReLU"
    bottom: "rpn_big_output_box"
    top: "rpn_big_output_box"
    relu_param {
      negative_slope: 0
    }
  }
  layer {
    name: "rpn_big_bbox_pred"
    type: "Convolution"
    bottom: "rpn_big_output_box"
    top: "rpn_big_bbox_pred"
    param {
      lr_mult: 1
    }
    param {
      lr_mult: 2
    }
    convolution_param {
      num_output: 104
      pad: 0
      kernel_size: 3
      stride: 1
      weight_filler {
        type: "gaussian"
        mean: 0
        std: 0.01
      }
      bias_filler {
        type: "constant"
      }
    }
  }
  layer {
    name: "rpn_big_loss_bbox"
    type: "Python"
    bottom: "rpn_big_bbox_pred"
    bottom: "rpn_big_anchor_target_bbox_targets"
    bottom: "rpn_big_anchor_target_inside_weights"
    bottom: "rpn_big_anchor_target_outside_weights"
    top: "rpn_big_loss_bbox"
    loss_weight: 1
    python_param {
      module: "layers.smooth_l1_loss"
      layer: "SmoothL1LossLayer"
      param_str: "{\"sigma\": 3}"
    }
  }
  layer {
    name: "proposal"
    type: "Python"
    bottom: "rpn_big_cls_prob_reshape"
    bottom: "rpn_big_bbox_pred"
    bottom: "input_im_info"
    top: "rpn_rois"
    python_param {
      module: "rpn.proposal_layer"
      layer: "ProposalLayer"
      param_str: "NONE"
    }
  }
}
average_loss: 100
stepvalue: 70000
stepvalue: 120000
iter_size: 2
I0413 15:51:20.969631  7027 solver.cpp:86] Creating training net specified in net_param.
I0413 15:51:20.969992  7027 net.cpp:58] Initializing net from parameters: 
name: "GeneratedModel_13_04_2017_15_51"
state {
  phase: TRAIN
}
layer {
  name: "input"
  type: "Python"
  top: "input_data"
  top: "input_im_info"
  top: "input_gt_boxes"
  top: "input_ignored_boxes"
  python_param {
    module: "layers.roi_data_layer"
    layer: "RoIDataLayer"
    param_str: "{\"num_classes\": 2}"
  }
}
layer {
  name: "conv1_1"
  type: "Convolution"
  bottom: "input_data"
  top: "conv1_1"
  param {
    lr_mult: 0
    decay_mult: 0
  }
  param {
    lr_mult: 0
    decay_mult: 0
  }
  convolution_param {
    num_output: 64
    pad: 1
    kernel_size: 3
  }
}
layer {
  name: "relu1_1"
  type: "ReLU"
  bottom: "conv1_1"
  top: "conv1_1"
}
layer {
  name: "conv1_2"
  type: "Convolution"
  bottom: "conv1_1"
  top: "conv1_2"
  param {
    lr_mult: 0
    decay_mult: 0
  }
  param {
    lr_mult: 0
    decay_mult: 0
  }
  convolution_param {
    num_output: 64
    pad: 1
    kernel_size: 3
  }
}
layer {
  name: "relu1_2"
  type: "ReLU"
  bottom: "conv1_2"
  top: "conv1_2"
}
layer {
  name: "pool1"
  type: "Pooling"
  bottom: "conv1_2"
  top: "pool1"
  pooling_param {
    pool: MAX
    kernel_size: 2
    stride: 2
  }
}
layer {
  name: "conv2_1"
  type: "Convolution"
  bottom: "pool1"
  top: "conv2_1"
  param {
    lr_mult: 0
    decay_mult: 0
  }
  param {
    lr_mult: 0
    decay_mult: 0
  }
  convolution_param {
    num_output: 128
    pad: 1
    kernel_size: 3
  }
}
layer {
  name: "relu2_1"
  type: "ReLU"
  bottom: "conv2_1"
  top: "conv2_1"
}
layer {
  name: "conv2_2"
  type: "Convolution"
  bottom: "conv2_1"
  top: "conv2_2"
  param {
    lr_mult: 0
    decay_mult: 0
  }
  param {
    lr_mult: 0
    decay_mult: 0
  }
  convolution_param {
    num_output: 128
    pad: 1
    kernel_size: 3
  }
}
layer {
  name: "relu2_2"
  type: "ReLU"
  bottom: "conv2_2"
  top: "conv2_2"
}
layer {
  name: "pool2"
  type: "Pooling"
  bottom: "conv2_2"
  top: "pool2"
  pooling_param {
    pool: MAX
    kernel_size: 2
    stride: 2
  }
}
layer {
  name: "conv3_1"
  type: "Convolution"
  bottom: "pool2"
  top: "conv3_1"
  param {
    lr_mult: 1
  }
  param {
    lr_mult: 2
  }
  convolution_param {
    num_output: 256
    pad: 1
    kernel_size: 3
  }
}
layer {
  name: "relu3_1"
  type: "ReLU"
  bottom: "conv3_1"
  top: "conv3_1"
}
layer {
  name: "conv3_2"
  type: "Convolution"
  bottom: "conv3_1"
  top: "conv3_2"
  param {
    lr_mult: 1
  }
  param {
    lr_mult: 2
  }
  convolution_param {
    num_output: 256
    pad: 1
    kernel_size: 3
  }
}
layer {
  name: "relu3_2"
  type: "ReLU"
  bottom: "conv3_2"
  top: "conv3_2"
}
layer {
  name: "conv3_3"
  type: "Convolution"
  bottom: "conv3_2"
  top: "conv3_3"
  param {
    lr_mult: 1
  }
  param {
    lr_mult: 2
  }
  convolution_param {
    num_output: 256
    pad: 1
    kernel_size: 3
  }
}
layer {
  name: "relu3_3"
  type: "ReLU"
  bottom: "conv3_3"
  top: "conv3_3"
}
layer {
  name: "pool3"
  type: "Pooling"
  bottom: "conv3_3"
  top: "pool3"
  pooling_param {
    pool: MAX
    kernel_size: 2
    stride: 2
  }
}
layer {
  name: "conv4_1"
  type: "Convolution"
  bottom: "pool3"
  top: "conv4_1"
  param {
    lr_mult: 1
  }
  param {
    lr_mult: 2
  }
  convolution_param {
    num_output: 512
    pad: 1
    kernel_size: 3
  }
}
layer {
  name: "relu4_1"
  type: "ReLU"
  bottom: "conv4_1"
  top: "conv4_1"
}
layer {
  name: "conv4_2"
  type: "Convolution"
  bottom: "conv4_1"
  top: "conv4_2"
  param {
    lr_mult: 1
  }
  param {
    lr_mult: 2
  }
  convolution_param {
    num_output: 512
    pad: 1
    kernel_size: 3
  }
}
layer {
  name: "relu4_2"
  type: "ReLU"
  bottom: "conv4_2"
  top: "conv4_2"
}
layer {
  name: "conv4_3"
  type: "Convolution"
  bottom: "conv4_2"
  top: "conv4_3"
  param {
    lr_mult: 1
  }
  param {
    lr_mult: 2
  }
  convolution_param {
    num_output: 512
    pad: 1
    kernel_size: 3
  }
}
layer {
  name: "relu4_3"
  type: "ReLU"
  bottom: "conv4_3"
  top: "conv4_3"
}
layer {
  name: "pool4"
  type: "Pooling"
  bottom: "conv4_3"
  top: "pool4"
  pooling_param {
    pool: MAX
    kernel_size: 2
    stride: 2
  }
}
layer {
  name: "conv5_1"
  type: "Convolution"
  bottom: "pool4"
  top: "conv5_1"
  param {
    lr_mult: 1
  }
  param {
    lr_mult: 2
  }
  convolution_param {
    num_output: 512
    pad: 1
    kernel_size: 3
  }
}
layer {
  name: "relu5_1"
  type: "ReLU"
  bottom: "conv5_1"
  top: "conv5_1"
}
layer {
  name: "conv5_2"
  type: "Convolution"
  bottom: "conv5_1"
  top: "conv5_2"
  param {
    lr_mult: 1
  }
  param {
    lr_mult: 2
  }
  convolution_param {
    num_output: 512
    pad: 1
    kernel_size: 3
  }
}
layer {
  name: "relu5_2"
  type: "ReLU"
  bottom: "conv5_2"
  top: "conv5_2"
}
layer {
  name: "conv5_3"
  type: "Convolution"
  bottom: "conv5_2"
  top: "conv5_3"
  param {
    lr_mult: 1
  }
  param {
    lr_mult: 2
  }
  convolution_param {
    num_output: 512
    pad: 1
    kernel_size: 3
  }
}
layer {
  name: "relu5_3"
  type: "ReLU"
  bottom: "conv5_3"
  top: "conv5_3"
}
layer {
  name: "rpn_big_conv1"
  type: "Convolution"
  bottom: "conv5_3"
  top: "rpn_big_conv1"
  param {
    lr_mult: 1
  }
  param {
    lr_mult: 2
  }
  convolution_param {
    num_output: 512
    pad: 1
    kernel_size: 3
    stride: 1
    weight_filler {
      type: "gaussian"
      mean: 0
      std: 0.01
    }
    bias_filler {
      type: "constant"
    }
  }
}
layer {
  name: "rpn_big_conv1_relu"
  type: "ReLU"
  bottom: "rpn_big_conv1"
  top: "rpn_big_conv1"
  relu_param {
    negative_slope: 0
  }
}
layer {
  name: "rpn_big_conv2"
  type: "Convolution"
  bottom: "rpn_big_conv1"
  top: "rpn_big_conv2"
  param {
    lr_mult: 1
  }
  param {
    lr_mult: 2
  }
  convolution_param {
    num_output: 512
    pad: 1
    kernel_size: 3
    stride: 1
    weight_filler {
      type: "gaussian"
      mean: 0
      std: 0.01
    }
    bias_filler {
      type: "constant"
    }
  }
}
layer {
  name: "rpn_big_conv2_relu"
  type: "ReLU"
  bottom: "rpn_big_conv2"
  top: "rpn_big_conv2"
  relu_param {
    negative_slope: 0
  }
}
layer {
  name: "rpn_big_conv2_drop"
  type: "Dropout"
  bottom: "rpn_big_conv2"
  top: "rpn_big_conv2"
  dropout_param {
    dropout_ratio: 0.3
  }
}
layer {
  name: "rpn_big_output_cls"
  type: "Convolution"
  bottom: "rpn_big_conv2"
  top: "rpn_big_output_cls"
  param {
    lr_mult: 1
  }
  param {
    lr_mult: 2
  }
  convolution_param {
    num_output: 384
    pad: 1
    kernel_size: 3
    stride: 1
    weight_filler {
      type: "gaussian"
      mean: 0
      std: 0.01
    }
    bias_filler {
      type: "constant"
    }
  }
}
layer {
  name: "rpn_big_output_cls_relu"
  type: "ReLU"
  bottom: "rpn_big_output_cls"
  top: "rpn_big_output_cls"
  relu_param {
    negative_slope: 0
  }
}
layer {
  name: "rpn_big_cls_score"
  type: "Convolution"
  bottom: "rpn_big_output_cls"
  top: "rpn_big_cls_score"
  param {
    lr_mult: 1
  }
  param {
    lr_mult: 2
  }
  convolution_param {
    num_output: 52
    pad: 0
    kernel_size: 3
    stride: 1
    weight_filler {
      type: "gaussian"
      mean: 0
      std: 0.01
    }
    bias_filler {
      type: "constant"
    }
  }
}
layer {
  name: "rpn_big_cls_score_reshape"
  type: "Reshape"
  bottom: "rpn_big_cls_score"
  top: "rpn_big_cls_score_reshape"
  reshape_param {
    shape {
      dim: 0
      dim: 2
      dim: -1
      dim: 0
    }
  }
}
layer {
  name: "rpn_big_cls_prob"
  type: "Softmax"
  bottom: "rpn_big_cls_score_reshape"
  top: "rpn_big_cls_prob"
}
layer {
  name: "rpn_big_cls_prob_reshape"
  type: "Reshape"
  bottom: "rpn_big_cls_prob"
  top: "rpn_big_cls_prob_reshape"
  reshape_param {
    shape {
      dim: 0
      dim: 52
      dim: -1
      dim: 0
    }
  }
}
layer {
  name: "rpn_big_anchor_target"
  type: "Python"
  bottom: "rpn_big_cls_score"
  bottom: "input_gt_boxes"
  bottom: "input_ignored_boxes"
  bottom: "input_im_info"
  bottom: "input_data"
  bottom: "rpn_big_cls_prob_reshape"
  top: "rpn_big_anchor_target_labels"
  top: "rpn_big_anchor_target_bbox_targets"
  top: "rpn_big_anchor_target_inside_weights"
  top: "rpn_big_anchor_target_outside_weights"
  python_param {
    module: "rpn.anchor_target_layer"
    layer: "AnchorTargetLayer"
    param_str: "{\"negative_overlap\": 0.4, \"square_targets\": true, \"tn_fraction\": 0.2, \"anchor_shift_num_xy\": [[2, 2], [2, 2], [2, 2], [2, 2], [1, 1], [1, 1], [1, 1], [1, 1], [1, 1], [1, 1], [1, 1], [1, 1], [1, 1], [1, 1]], \"feat_stride\": 16, \"batchsize\": 256, \"name\": \"rpn_big\", \"num_classes\": 1, \"fg_fraction\": 0.5, \"anchor_scales\": [2.5, 3.025, 3.66025, 4.4289024999999995, 5.358972025, 6.484356150249999, 7.846070941802498, 9.493745839581022, 11.487432465893036, 13.899793283730574, 16.818749873313998, 20.350687346709933, 24.62433168951902, 29.795441344318014], \"anchor_ratios\": [1.0], \"positive_overlap\": 0.6}"
  }
}
layer {
  name: "rpn_big_loss_cls"
  type: "SoftmaxWithLoss"
  bottom: "rpn_big_cls_score_reshape"
  bottom: "rpn_big_anchor_target_labels"
  top: "rpn_big_loss_cls"
  loss_weight: 1
  propagate_down: true
  propagate_down: false
  loss_param {
    ignore_label: -1
    normalization: VALID
  }
}
layer {
  name: "rpn_big_output_box"
  type: "Convolution"
  bottom: "rpn_big_conv2"
  top: "rpn_big_output_box"
  param {
    lr_mult: 1
  }
  param {
    lr_mult: 2
  }
  convolution_param {
    num_output: 384
    pad: 1
    kernel_size: 3
    stride: 1
    weight_filler {
      type: "gaussian"
      mean: 0
      std: 0.01
    }
    bias_filler {
      type: "constant"
    }
  }
}
layer {
  name: "rpn_big_output_box_relu"
  type: "ReLU"
  bottom: "rpn_big_output_box"
  top: "rpn_big_output_box"
  relu_param {
    negative_slope: 0
  }
}
layer {
  name: "rpn_big_bbox_pred"
  type: "Convolution"
  bottom: "rpn_big_output_box"
  top: "rpn_big_bbox_pred"
  param {
    lr_mult: 1
  }
  param {
    lr_mult: 2
  }
  convolution_param {
    num_output: 104
    pad: 0
    kernel_size: 3
    stride: 1
    weight_filler {
      type: "gaussian"
      mean: 0
      std: 0.01
    }
    bias_filler {
      type: "constant"
    }
  }
}
layer {
  name: "rpn_big_loss_bbox"
  type: "Python"
  bottom: "rpn_big_bbox_pred"
  bottom: "rpn_big_anchor_target_bbox_targets"
  bottom: "rpn_big_anchor_target_inside_weights"
  bottom: "rpn_big_anchor_target_outside_weights"
  top: "rpn_big_loss_bbox"
  loss_weight: 1
  python_param {
    module: "layers.smooth_l1_loss"
    layer: "SmoothL1LossLayer"
    param_str: "{\"sigma\": 3}"
  }
}
layer {
  name: "proposal"
  type: "Python"
  bottom: "rpn_big_cls_prob_reshape"
  bottom: "rpn_big_bbox_pred"
  bottom: "input_im_info"
  top: "rpn_rois"
  python_param {
    module: "rpn.proposal_layer"
    layer: "ProposalLayer"
    param_str: "NONE"
  }
}
I0413 15:51:20.972074  7027 layer_factory.hpp:77] Creating layer input
I0413 15:51:20.975994  7027 net.cpp:100] Creating Layer input
I0413 15:51:20.976024  7027 net.cpp:408] input -> input_data
I0413 15:51:20.976042  7027 net.cpp:408] input -> input_im_info
I0413 15:51:20.976052  7027 net.cpp:408] input -> input_gt_boxes
I0413 15:51:20.976064  7027 net.cpp:408] input -> input_ignored_boxes
RoiDataLayer: name_to_top: {'gt_boxes': 2, 'ignored_boxes': 3, 'im_info': 1, 'data': 0}
I0413 15:51:21.297677  7027 net.cpp:150] Setting up input
I0413 15:51:21.297709  7027 net.cpp:157] Top shape: 1 3 1000 1500 (4500000)
I0413 15:51:21.297718  7027 net.cpp:157] Top shape: 1 3 (3)
I0413 15:51:21.297725  7027 net.cpp:157] Top shape: 1 5 (5)
I0413 15:51:21.297731  7027 net.cpp:157] Top shape: 1 5 (5)
I0413 15:51:21.297737  7027 net.cpp:165] Memory required for data: 18000052
I0413 15:51:21.297747  7027 layer_factory.hpp:77] Creating layer input_data_input_0_split
I0413 15:51:21.297765  7027 net.cpp:100] Creating Layer input_data_input_0_split
I0413 15:51:21.297773  7027 net.cpp:434] input_data_input_0_split <- input_data
I0413 15:51:21.297786  7027 net.cpp:408] input_data_input_0_split -> input_data_input_0_split_0
I0413 15:51:21.297806  7027 net.cpp:408] input_data_input_0_split -> input_data_input_0_split_1
I0413 15:51:21.297850  7027 net.cpp:150] Setting up input_data_input_0_split
I0413 15:51:21.297860  7027 net.cpp:157] Top shape: 1 3 1000 1500 (4500000)
I0413 15:51:21.297869  7027 net.cpp:157] Top shape: 1 3 1000 1500 (4500000)
I0413 15:51:21.297878  7027 net.cpp:165] Memory required for data: 54000052
I0413 15:51:21.297883  7027 layer_factory.hpp:77] Creating layer input_im_info_input_1_split
I0413 15:51:21.297894  7027 net.cpp:100] Creating Layer input_im_info_input_1_split
I0413 15:51:21.297902  7027 net.cpp:434] input_im_info_input_1_split <- input_im_info
I0413 15:51:21.297911  7027 net.cpp:408] input_im_info_input_1_split -> input_im_info_input_1_split_0
I0413 15:51:21.297925  7027 net.cpp:408] input_im_info_input_1_split -> input_im_info_input_1_split_1
I0413 15:51:21.297960  7027 net.cpp:150] Setting up input_im_info_input_1_split
I0413 15:51:21.297969  7027 net.cpp:157] Top shape: 1 3 (3)
I0413 15:51:21.297977  7027 net.cpp:157] Top shape: 1 3 (3)
I0413 15:51:21.297983  7027 net.cpp:165] Memory required for data: 54000076
I0413 15:51:21.297989  7027 layer_factory.hpp:77] Creating layer conv1_1
I0413 15:51:21.298003  7027 net.cpp:100] Creating Layer conv1_1
I0413 15:51:21.298010  7027 net.cpp:434] conv1_1 <- input_data_input_0_split_0
I0413 15:51:21.298020  7027 net.cpp:408] conv1_1 -> conv1_1
I0413 15:51:21.301089  7027 net.cpp:150] Setting up conv1_1
I0413 15:51:21.301126  7027 net.cpp:157] Top shape: 1 64 1000 1500 (96000000)
I0413 15:51:21.301131  7027 net.cpp:165] Memory required for data: 438000076
I0413 15:51:21.301163  7027 layer_factory.hpp:77] Creating layer relu1_1
I0413 15:51:21.301182  7027 net.cpp:100] Creating Layer relu1_1
I0413 15:51:21.301190  7027 net.cpp:434] relu1_1 <- conv1_1
I0413 15:51:21.301203  7027 net.cpp:395] relu1_1 -> conv1_1 (in-place)
I0413 15:51:21.301219  7027 net.cpp:150] Setting up relu1_1
I0413 15:51:21.301229  7027 net.cpp:157] Top shape: 1 64 1000 1500 (96000000)
I0413 15:51:21.301235  7027 net.cpp:165] Memory required for data: 822000076
I0413 15:51:21.301242  7027 layer_factory.hpp:77] Creating layer conv1_2
I0413 15:51:21.301257  7027 net.cpp:100] Creating Layer conv1_2
I0413 15:51:21.301265  7027 net.cpp:434] conv1_2 <- conv1_1
I0413 15:51:21.301275  7027 net.cpp:408] conv1_2 -> conv1_2
I0413 15:51:21.304447  7027 net.cpp:150] Setting up conv1_2
I0413 15:51:21.304483  7027 net.cpp:157] Top shape: 1 64 1000 1500 (96000000)
I0413 15:51:21.304489  7027 net.cpp:165] Memory required for data: 1206000076
I0413 15:51:21.304520  7027 layer_factory.hpp:77] Creating layer relu1_2
I0413 15:51:21.304538  7027 net.cpp:100] Creating Layer relu1_2
I0413 15:51:21.304545  7027 net.cpp:434] relu1_2 <- conv1_2
I0413 15:51:21.304558  7027 net.cpp:395] relu1_2 -> conv1_2 (in-place)
I0413 15:51:21.304574  7027 net.cpp:150] Setting up relu1_2
I0413 15:51:21.304584  7027 net.cpp:157] Top shape: 1 64 1000 1500 (96000000)
I0413 15:51:21.304590  7027 net.cpp:165] Memory required for data: 1590000076
I0413 15:51:21.304596  7027 layer_factory.hpp:77] Creating layer pool1
I0413 15:51:21.304610  7027 net.cpp:100] Creating Layer pool1
I0413 15:51:21.304615  7027 net.cpp:434] pool1 <- conv1_2
I0413 15:51:21.304625  7027 net.cpp:408] pool1 -> pool1
I0413 15:51:21.304703  7027 net.cpp:150] Setting up pool1
I0413 15:51:21.304713  7027 net.cpp:157] Top shape: 1 64 500 750 (24000000)
I0413 15:51:21.304720  7027 net.cpp:165] Memory required for data: 1686000076
I0413 15:51:21.304728  7027 layer_factory.hpp:77] Creating layer conv2_1
I0413 15:51:21.304745  7027 net.cpp:100] Creating Layer conv2_1
I0413 15:51:21.304752  7027 net.cpp:434] conv2_1 <- pool1
I0413 15:51:21.304762  7027 net.cpp:408] conv2_1 -> conv2_1
I0413 15:51:21.306076  7027 net.cpp:150] Setting up conv2_1
I0413 15:51:21.306097  7027 net.cpp:157] Top shape: 1 128 500 750 (48000000)
I0413 15:51:21.306102  7027 net.cpp:165] Memory required for data: 1878000076
I0413 15:51:21.306119  7027 layer_factory.hpp:77] Creating layer relu2_1
I0413 15:51:21.306130  7027 net.cpp:100] Creating Layer relu2_1
I0413 15:51:21.306140  7027 net.cpp:434] relu2_1 <- conv2_1
I0413 15:51:21.306151  7027 net.cpp:395] relu2_1 -> conv2_1 (in-place)
I0413 15:51:21.306164  7027 net.cpp:150] Setting up relu2_1
I0413 15:51:21.306174  7027 net.cpp:157] Top shape: 1 128 500 750 (48000000)
I0413 15:51:21.306181  7027 net.cpp:165] Memory required for data: 2070000076
I0413 15:51:21.306187  7027 layer_factory.hpp:77] Creating layer conv2_2
I0413 15:51:21.306200  7027 net.cpp:100] Creating Layer conv2_2
I0413 15:51:21.306207  7027 net.cpp:434] conv2_2 <- conv2_1
I0413 15:51:21.306217  7027 net.cpp:408] conv2_2 -> conv2_2
I0413 15:51:21.307160  7027 net.cpp:150] Setting up conv2_2
I0413 15:51:21.307184  7027 net.cpp:157] Top shape: 1 128 500 750 (48000000)
I0413 15:51:21.307190  7027 net.cpp:165] Memory required for data: 2262000076
I0413 15:51:21.307204  7027 layer_factory.hpp:77] Creating layer relu2_2
I0413 15:51:21.307219  7027 net.cpp:100] Creating Layer relu2_2
I0413 15:51:21.307226  7027 net.cpp:434] relu2_2 <- conv2_2
I0413 15:51:21.307236  7027 net.cpp:395] relu2_2 -> conv2_2 (in-place)
I0413 15:51:21.307250  7027 net.cpp:150] Setting up relu2_2
I0413 15:51:21.307260  7027 net.cpp:157] Top shape: 1 128 500 750 (48000000)
I0413 15:51:21.307266  7027 net.cpp:165] Memory required for data: 2454000076
I0413 15:51:21.307272  7027 layer_factory.hpp:77] Creating layer pool2
I0413 15:51:21.307286  7027 net.cpp:100] Creating Layer pool2
I0413 15:51:21.307293  7027 net.cpp:434] pool2 <- conv2_2
I0413 15:51:21.307302  7027 net.cpp:408] pool2 -> pool2
I0413 15:51:21.307353  7027 net.cpp:150] Setting up pool2
I0413 15:51:21.307363  7027 net.cpp:157] Top shape: 1 128 250 375 (12000000)
I0413 15:51:21.307368  7027 net.cpp:165] Memory required for data: 2502000076
I0413 15:51:21.307376  7027 layer_factory.hpp:77] Creating layer conv3_1
I0413 15:51:21.307392  7027 net.cpp:100] Creating Layer conv3_1
I0413 15:51:21.307399  7027 net.cpp:434] conv3_1 <- pool2
I0413 15:51:21.307411  7027 net.cpp:408] conv3_1 -> conv3_1
I0413 15:51:21.308498  7027 net.cpp:150] Setting up conv3_1
I0413 15:51:21.308524  7027 net.cpp:157] Top shape: 1 256 250 375 (24000000)
I0413 15:51:21.308531  7027 net.cpp:165] Memory required for data: 2598000076
I0413 15:51:21.308552  7027 layer_factory.hpp:77] Creating layer relu3_1
I0413 15:51:21.308564  7027 net.cpp:100] Creating Layer relu3_1
I0413 15:51:21.308573  7027 net.cpp:434] relu3_1 <- conv3_1
I0413 15:51:21.308584  7027 net.cpp:395] relu3_1 -> conv3_1 (in-place)
I0413 15:51:21.308598  7027 net.cpp:150] Setting up relu3_1
I0413 15:51:21.308607  7027 net.cpp:157] Top shape: 1 256 250 375 (24000000)
I0413 15:51:21.308614  7027 net.cpp:165] Memory required for data: 2694000076
I0413 15:51:21.308621  7027 layer_factory.hpp:77] Creating layer conv3_2
I0413 15:51:21.308636  7027 net.cpp:100] Creating Layer conv3_2
I0413 15:51:21.308643  7027 net.cpp:434] conv3_2 <- conv3_1
I0413 15:51:21.308655  7027 net.cpp:408] conv3_2 -> conv3_2
I0413 15:51:21.309859  7027 net.cpp:150] Setting up conv3_2
I0413 15:51:21.309886  7027 net.cpp:157] Top shape: 1 256 250 375 (24000000)
I0413 15:51:21.309892  7027 net.cpp:165] Memory required for data: 2790000076
I0413 15:51:21.309906  7027 layer_factory.hpp:77] Creating layer relu3_2
I0413 15:51:21.309926  7027 net.cpp:100] Creating Layer relu3_2
I0413 15:51:21.309934  7027 net.cpp:434] relu3_2 <- conv3_2
I0413 15:51:21.309947  7027 net.cpp:395] relu3_2 -> conv3_2 (in-place)
I0413 15:51:21.309959  7027 net.cpp:150] Setting up relu3_2
I0413 15:51:21.309968  7027 net.cpp:157] Top shape: 1 256 250 375 (24000000)
I0413 15:51:21.309975  7027 net.cpp:165] Memory required for data: 2886000076
I0413 15:51:21.309983  7027 layer_factory.hpp:77] Creating layer conv3_3
I0413 15:51:21.309998  7027 net.cpp:100] Creating Layer conv3_3
I0413 15:51:21.310004  7027 net.cpp:434] conv3_3 <- conv3_2
I0413 15:51:21.310019  7027 net.cpp:408] conv3_3 -> conv3_3
I0413 15:51:21.311611  7027 net.cpp:150] Setting up conv3_3
I0413 15:51:21.311645  7027 net.cpp:157] Top shape: 1 256 250 375 (24000000)
I0413 15:51:21.311651  7027 net.cpp:165] Memory required for data: 2982000076
I0413 15:51:21.311666  7027 layer_factory.hpp:77] Creating layer relu3_3
I0413 15:51:21.311681  7027 net.cpp:100] Creating Layer relu3_3
I0413 15:51:21.311688  7027 net.cpp:434] relu3_3 <- conv3_3
I0413 15:51:21.311703  7027 net.cpp:395] relu3_3 -> conv3_3 (in-place)
I0413 15:51:21.311718  7027 net.cpp:150] Setting up relu3_3
I0413 15:51:21.311728  7027 net.cpp:157] Top shape: 1 256 250 375 (24000000)
I0413 15:51:21.311734  7027 net.cpp:165] Memory required for data: 3078000076
I0413 15:51:21.311740  7027 layer_factory.hpp:77] Creating layer pool3
I0413 15:51:21.311753  7027 net.cpp:100] Creating Layer pool3
I0413 15:51:21.311759  7027 net.cpp:434] pool3 <- conv3_3
I0413 15:51:21.311772  7027 net.cpp:408] pool3 -> pool3
I0413 15:51:21.311821  7027 net.cpp:150] Setting up pool3
I0413 15:51:21.311831  7027 net.cpp:157] Top shape: 1 256 125 188 (6016000)
I0413 15:51:21.311838  7027 net.cpp:165] Memory required for data: 3102064076
I0413 15:51:21.311847  7027 layer_factory.hpp:77] Creating layer conv4_1
I0413 15:51:21.311862  7027 net.cpp:100] Creating Layer conv4_1
I0413 15:51:21.311870  7027 net.cpp:434] conv4_1 <- pool3
I0413 15:51:21.311884  7027 net.cpp:408] conv4_1 -> conv4_1
I0413 15:51:21.314561  7027 net.cpp:150] Setting up conv4_1
I0413 15:51:21.314597  7027 net.cpp:157] Top shape: 1 512 125 188 (12032000)
I0413 15:51:21.314604  7027 net.cpp:165] Memory required for data: 3150192076
I0413 15:51:21.314625  7027 layer_factory.hpp:77] Creating layer relu4_1
I0413 15:51:21.314638  7027 net.cpp:100] Creating Layer relu4_1
I0413 15:51:21.314649  7027 net.cpp:434] relu4_1 <- conv4_1
I0413 15:51:21.314663  7027 net.cpp:395] relu4_1 -> conv4_1 (in-place)
I0413 15:51:21.314677  7027 net.cpp:150] Setting up relu4_1
I0413 15:51:21.314687  7027 net.cpp:157] Top shape: 1 512 125 188 (12032000)
I0413 15:51:21.314693  7027 net.cpp:165] Memory required for data: 3198320076
I0413 15:51:21.314699  7027 layer_factory.hpp:77] Creating layer conv4_2
I0413 15:51:21.314716  7027 net.cpp:100] Creating Layer conv4_2
I0413 15:51:21.314723  7027 net.cpp:434] conv4_2 <- conv4_1
I0413 15:51:21.314733  7027 net.cpp:408] conv4_2 -> conv4_2
I0413 15:51:21.318914  7027 net.cpp:150] Setting up conv4_2
I0413 15:51:21.318951  7027 net.cpp:157] Top shape: 1 512 125 188 (12032000)
I0413 15:51:21.318958  7027 net.cpp:165] Memory required for data: 3246448076
I0413 15:51:21.318980  7027 layer_factory.hpp:77] Creating layer relu4_2
I0413 15:51:21.318997  7027 net.cpp:100] Creating Layer relu4_2
I0413 15:51:21.319005  7027 net.cpp:434] relu4_2 <- conv4_2
I0413 15:51:21.319020  7027 net.cpp:395] relu4_2 -> conv4_2 (in-place)
I0413 15:51:21.319034  7027 net.cpp:150] Setting up relu4_2
I0413 15:51:21.319043  7027 net.cpp:157] Top shape: 1 512 125 188 (12032000)
I0413 15:51:21.319051  7027 net.cpp:165] Memory required for data: 3294576076
I0413 15:51:21.319056  7027 layer_factory.hpp:77] Creating layer conv4_3
I0413 15:51:21.319072  7027 net.cpp:100] Creating Layer conv4_3
I0413 15:51:21.319078  7027 net.cpp:434] conv4_3 <- conv4_2
I0413 15:51:21.319092  7027 net.cpp:408] conv4_3 -> conv4_3
I0413 15:51:21.323362  7027 net.cpp:150] Setting up conv4_3
I0413 15:51:21.323395  7027 net.cpp:157] Top shape: 1 512 125 188 (12032000)
I0413 15:51:21.323400  7027 net.cpp:165] Memory required for data: 3342704076
I0413 15:51:21.323415  7027 layer_factory.hpp:77] Creating layer relu4_3
I0413 15:51:21.323431  7027 net.cpp:100] Creating Layer relu4_3
I0413 15:51:21.323441  7027 net.cpp:434] relu4_3 <- conv4_3
I0413 15:51:21.323454  7027 net.cpp:395] relu4_3 -> conv4_3 (in-place)
I0413 15:51:21.323470  7027 net.cpp:150] Setting up relu4_3
I0413 15:51:21.323478  7027 net.cpp:157] Top shape: 1 512 125 188 (12032000)
I0413 15:51:21.323485  7027 net.cpp:165] Memory required for data: 3390832076
I0413 15:51:21.323493  7027 layer_factory.hpp:77] Creating layer pool4
I0413 15:51:21.323503  7027 net.cpp:100] Creating Layer pool4
I0413 15:51:21.323511  7027 net.cpp:434] pool4 <- conv4_3
I0413 15:51:21.323523  7027 net.cpp:408] pool4 -> pool4
I0413 15:51:21.323566  7027 net.cpp:150] Setting up pool4
I0413 15:51:21.323576  7027 net.cpp:157] Top shape: 1 512 63 94 (3032064)
I0413 15:51:21.323582  7027 net.cpp:165] Memory required for data: 3402960332
I0413 15:51:21.323588  7027 layer_factory.hpp:77] Creating layer conv5_1
I0413 15:51:21.323606  7027 net.cpp:100] Creating Layer conv5_1
I0413 15:51:21.323612  7027 net.cpp:434] conv5_1 <- pool4
I0413 15:51:21.323622  7027 net.cpp:408] conv5_1 -> conv5_1
I0413 15:51:21.328173  7027 net.cpp:150] Setting up conv5_1
I0413 15:51:21.328210  7027 net.cpp:157] Top shape: 1 512 63 94 (3032064)
I0413 15:51:21.328217  7027 net.cpp:165] Memory required for data: 3415088588
I0413 15:51:21.328238  7027 layer_factory.hpp:77] Creating layer relu5_1
I0413 15:51:21.328253  7027 net.cpp:100] Creating Layer relu5_1
I0413 15:51:21.328265  7027 net.cpp:434] relu5_1 <- conv5_1
I0413 15:51:21.328281  7027 net.cpp:395] relu5_1 -> conv5_1 (in-place)
I0413 15:51:21.328299  7027 net.cpp:150] Setting up relu5_1
I0413 15:51:21.328310  7027 net.cpp:157] Top shape: 1 512 63 94 (3032064)
I0413 15:51:21.328317  7027 net.cpp:165] Memory required for data: 3427216844
I0413 15:51:21.328325  7027 layer_factory.hpp:77] Creating layer conv5_2
I0413 15:51:21.328343  7027 net.cpp:100] Creating Layer conv5_2
I0413 15:51:21.328351  7027 net.cpp:434] conv5_2 <- conv5_1
I0413 15:51:21.328363  7027 net.cpp:408] conv5_2 -> conv5_2
I0413 15:51:21.332564  7027 net.cpp:150] Setting up conv5_2
I0413 15:51:21.332602  7027 net.cpp:157] Top shape: 1 512 63 94 (3032064)
I0413 15:51:21.332610  7027 net.cpp:165] Memory required for data: 3439345100
I0413 15:51:21.332628  7027 layer_factory.hpp:77] Creating layer relu5_2
I0413 15:51:21.332645  7027 net.cpp:100] Creating Layer relu5_2
I0413 15:51:21.332674  7027 net.cpp:434] relu5_2 <- conv5_2
I0413 15:51:21.332692  7027 net.cpp:395] relu5_2 -> conv5_2 (in-place)
I0413 15:51:21.332711  7027 net.cpp:150] Setting up relu5_2
I0413 15:51:21.332725  7027 net.cpp:157] Top shape: 1 512 63 94 (3032064)
I0413 15:51:21.332731  7027 net.cpp:165] Memory required for data: 3451473356
I0413 15:51:21.332736  7027 layer_factory.hpp:77] Creating layer conv5_3
I0413 15:51:21.332753  7027 net.cpp:100] Creating Layer conv5_3
I0413 15:51:21.332763  7027 net.cpp:434] conv5_3 <- conv5_2
I0413 15:51:21.332774  7027 net.cpp:408] conv5_3 -> conv5_3
I0413 15:51:21.337407  7027 net.cpp:150] Setting up conv5_3
I0413 15:51:21.337445  7027 net.cpp:157] Top shape: 1 512 63 94 (3032064)
I0413 15:51:21.337453  7027 net.cpp:165] Memory required for data: 3463601612
I0413 15:51:21.337471  7027 layer_factory.hpp:77] Creating layer relu5_3
I0413 15:51:21.337503  7027 net.cpp:100] Creating Layer relu5_3
I0413 15:51:21.337514  7027 net.cpp:434] relu5_3 <- conv5_3
I0413 15:51:21.337527  7027 net.cpp:395] relu5_3 -> conv5_3 (in-place)
I0413 15:51:21.337544  7027 net.cpp:150] Setting up relu5_3
I0413 15:51:21.337553  7027 net.cpp:157] Top shape: 1 512 63 94 (3032064)
I0413 15:51:21.337558  7027 net.cpp:165] Memory required for data: 3475729868
I0413 15:51:21.337565  7027 layer_factory.hpp:77] Creating layer rpn_big_conv1
I0413 15:51:21.337584  7027 net.cpp:100] Creating Layer rpn_big_conv1
I0413 15:51:21.337589  7027 net.cpp:434] rpn_big_conv1 <- conv5_3
I0413 15:51:21.337604  7027 net.cpp:408] rpn_big_conv1 -> rpn_big_conv1
I0413 15:51:21.363045  7027 net.cpp:150] Setting up rpn_big_conv1
I0413 15:51:21.363075  7027 net.cpp:157] Top shape: 1 512 63 94 (3032064)
I0413 15:51:21.363080  7027 net.cpp:165] Memory required for data: 3487858124
I0413 15:51:21.363091  7027 layer_factory.hpp:77] Creating layer rpn_big_conv1_relu
I0413 15:51:21.363106  7027 net.cpp:100] Creating Layer rpn_big_conv1_relu
I0413 15:51:21.363113  7027 net.cpp:434] rpn_big_conv1_relu <- rpn_big_conv1
I0413 15:51:21.363126  7027 net.cpp:395] rpn_big_conv1_relu -> rpn_big_conv1 (in-place)
I0413 15:51:21.363140  7027 net.cpp:150] Setting up rpn_big_conv1_relu
I0413 15:51:21.363147  7027 net.cpp:157] Top shape: 1 512 63 94 (3032064)
I0413 15:51:21.363152  7027 net.cpp:165] Memory required for data: 3499986380
I0413 15:51:21.363157  7027 layer_factory.hpp:77] Creating layer rpn_big_conv2
I0413 15:51:21.363173  7027 net.cpp:100] Creating Layer rpn_big_conv2
I0413 15:51:21.363183  7027 net.cpp:434] rpn_big_conv2 <- rpn_big_conv1
I0413 15:51:21.363193  7027 net.cpp:408] rpn_big_conv2 -> rpn_big_conv2
I0413 15:51:21.389034  7027 net.cpp:150] Setting up rpn_big_conv2
I0413 15:51:21.389065  7027 net.cpp:157] Top shape: 1 512 63 94 (3032064)
I0413 15:51:21.389070  7027 net.cpp:165] Memory required for data: 3512114636
I0413 15:51:21.389082  7027 layer_factory.hpp:77] Creating layer rpn_big_conv2_relu
I0413 15:51:21.389097  7027 net.cpp:100] Creating Layer rpn_big_conv2_relu
I0413 15:51:21.389106  7027 net.cpp:434] rpn_big_conv2_relu <- rpn_big_conv2
I0413 15:51:21.389117  7027 net.cpp:395] rpn_big_conv2_relu -> rpn_big_conv2 (in-place)
I0413 15:51:21.389132  7027 net.cpp:150] Setting up rpn_big_conv2_relu
I0413 15:51:21.389140  7027 net.cpp:157] Top shape: 1 512 63 94 (3032064)
I0413 15:51:21.389145  7027 net.cpp:165] Memory required for data: 3524242892
I0413 15:51:21.389150  7027 layer_factory.hpp:77] Creating layer rpn_big_conv2_drop
I0413 15:51:21.389163  7027 net.cpp:100] Creating Layer rpn_big_conv2_drop
I0413 15:51:21.389169  7027 net.cpp:434] rpn_big_conv2_drop <- rpn_big_conv2
I0413 15:51:21.389178  7027 net.cpp:395] rpn_big_conv2_drop -> rpn_big_conv2 (in-place)
I0413 15:51:21.389211  7027 net.cpp:150] Setting up rpn_big_conv2_drop
I0413 15:51:21.389222  7027 net.cpp:157] Top shape: 1 512 63 94 (3032064)
I0413 15:51:21.389228  7027 net.cpp:165] Memory required for data: 3536371148
I0413 15:51:21.389233  7027 layer_factory.hpp:77] Creating layer rpn_big_conv2_rpn_big_conv2_drop_0_split
I0413 15:51:21.389245  7027 net.cpp:100] Creating Layer rpn_big_conv2_rpn_big_conv2_drop_0_split
I0413 15:51:21.389251  7027 net.cpp:434] rpn_big_conv2_rpn_big_conv2_drop_0_split <- rpn_big_conv2
I0413 15:51:21.389261  7027 net.cpp:408] rpn_big_conv2_rpn_big_conv2_drop_0_split -> rpn_big_conv2_rpn_big_conv2_drop_0_split_0
I0413 15:51:21.389274  7027 net.cpp:408] rpn_big_conv2_rpn_big_conv2_drop_0_split -> rpn_big_conv2_rpn_big_conv2_drop_0_split_1
I0413 15:51:21.389327  7027 net.cpp:150] Setting up rpn_big_conv2_rpn_big_conv2_drop_0_split
I0413 15:51:21.389338  7027 net.cpp:157] Top shape: 1 512 63 94 (3032064)
I0413 15:51:21.389345  7027 net.cpp:157] Top shape: 1 512 63 94 (3032064)
I0413 15:51:21.389351  7027 net.cpp:165] Memory required for data: 3560627660
I0413 15:51:21.389356  7027 layer_factory.hpp:77] Creating layer rpn_big_output_cls
I0413 15:51:21.389374  7027 net.cpp:100] Creating Layer rpn_big_output_cls
I0413 15:51:21.389381  7027 net.cpp:434] rpn_big_output_cls <- rpn_big_conv2_rpn_big_conv2_drop_0_split_0
I0413 15:51:21.389394  7027 net.cpp:408] rpn_big_output_cls -> rpn_big_output_cls
I0413 15:51:21.409060  7027 net.cpp:150] Setting up rpn_big_output_cls
I0413 15:51:21.409090  7027 net.cpp:157] Top shape: 1 384 63 94 (2274048)
I0413 15:51:21.409102  7027 net.cpp:165] Memory required for data: 3569723852
I0413 15:51:21.409112  7027 layer_factory.hpp:77] Creating layer rpn_big_output_cls_relu
I0413 15:51:21.409124  7027 net.cpp:100] Creating Layer rpn_big_output_cls_relu
I0413 15:51:21.409131  7027 net.cpp:434] rpn_big_output_cls_relu <- rpn_big_output_cls
I0413 15:51:21.409142  7027 net.cpp:395] rpn_big_output_cls_relu -> rpn_big_output_cls (in-place)
I0413 15:51:21.409155  7027 net.cpp:150] Setting up rpn_big_output_cls_relu
I0413 15:51:21.409165  7027 net.cpp:157] Top shape: 1 384 63 94 (2274048)
I0413 15:51:21.409169  7027 net.cpp:165] Memory required for data: 3578820044
I0413 15:51:21.409175  7027 layer_factory.hpp:77] Creating layer rpn_big_cls_score
I0413 15:51:21.409190  7027 net.cpp:100] Creating Layer rpn_big_cls_score
I0413 15:51:21.409198  7027 net.cpp:434] rpn_big_cls_score <- rpn_big_output_cls
I0413 15:51:21.409209  7027 net.cpp:408] rpn_big_cls_score -> rpn_big_cls_score
I0413 15:51:21.411669  7027 net.cpp:150] Setting up rpn_big_cls_score
I0413 15:51:21.411682  7027 net.cpp:157] Top shape: 1 52 61 92 (291824)
I0413 15:51:21.411686  7027 net.cpp:165] Memory required for data: 3579987340
I0413 15:51:21.411700  7027 layer_factory.hpp:77] Creating layer rpn_big_cls_score_rpn_big_cls_score_0_split
I0413 15:51:21.411712  7027 net.cpp:100] Creating Layer rpn_big_cls_score_rpn_big_cls_score_0_split
I0413 15:51:21.411720  7027 net.cpp:434] rpn_big_cls_score_rpn_big_cls_score_0_split <- rpn_big_cls_score
I0413 15:51:21.411732  7027 net.cpp:408] rpn_big_cls_score_rpn_big_cls_score_0_split -> rpn_big_cls_score_rpn_big_cls_score_0_split_0
I0413 15:51:21.411746  7027 net.cpp:408] rpn_big_cls_score_rpn_big_cls_score_0_split -> rpn_big_cls_score_rpn_big_cls_score_0_split_1
I0413 15:51:21.411803  7027 net.cpp:150] Setting up rpn_big_cls_score_rpn_big_cls_score_0_split
I0413 15:51:21.411813  7027 net.cpp:157] Top shape: 1 52 61 92 (291824)
I0413 15:51:21.411818  7027 net.cpp:157] Top shape: 1 52 61 92 (291824)
I0413 15:51:21.411820  7027 net.cpp:165] Memory required for data: 3582321932
I0413 15:51:21.411823  7027 layer_factory.hpp:77] Creating layer rpn_big_cls_score_reshape
I0413 15:51:21.411831  7027 net.cpp:100] Creating Layer rpn_big_cls_score_reshape
I0413 15:51:21.411835  7027 net.cpp:434] rpn_big_cls_score_reshape <- rpn_big_cls_score_rpn_big_cls_score_0_split_0
I0413 15:51:21.411842  7027 net.cpp:408] rpn_big_cls_score_reshape -> rpn_big_cls_score_reshape
I0413 15:51:21.411870  7027 net.cpp:150] Setting up rpn_big_cls_score_reshape
I0413 15:51:21.411876  7027 net.cpp:157] Top shape: 1 2 1586 92 (291824)
I0413 15:51:21.411880  7027 net.cpp:165] Memory required for data: 3583489228
I0413 15:51:21.411882  7027 layer_factory.hpp:77] Creating layer rpn_big_cls_score_reshape_rpn_big_cls_score_reshape_0_split
I0413 15:51:21.411887  7027 net.cpp:100] Creating Layer rpn_big_cls_score_reshape_rpn_big_cls_score_reshape_0_split
I0413 15:51:21.411892  7027 net.cpp:434] rpn_big_cls_score_reshape_rpn_big_cls_score_reshape_0_split <- rpn_big_cls_score_reshape
I0413 15:51:21.411897  7027 net.cpp:408] rpn_big_cls_score_reshape_rpn_big_cls_score_reshape_0_split -> rpn_big_cls_score_reshape_rpn_big_cls_score_reshape_0_split_0
I0413 15:51:21.411906  7027 net.cpp:408] rpn_big_cls_score_reshape_rpn_big_cls_score_reshape_0_split -> rpn_big_cls_score_reshape_rpn_big_cls_score_reshape_0_split_1
I0413 15:51:21.411938  7027 net.cpp:150] Setting up rpn_big_cls_score_reshape_rpn_big_cls_score_reshape_0_split
I0413 15:51:21.411947  7027 net.cpp:157] Top shape: 1 2 1586 92 (291824)
I0413 15:51:21.411950  7027 net.cpp:157] Top shape: 1 2 1586 92 (291824)
I0413 15:51:21.411953  7027 net.cpp:165] Memory required for data: 3585823820
I0413 15:51:21.411957  7027 layer_factory.hpp:77] Creating layer rpn_big_cls_prob
I0413 15:51:21.411963  7027 net.cpp:100] Creating Layer rpn_big_cls_prob
I0413 15:51:21.411968  7027 net.cpp:434] rpn_big_cls_prob <- rpn_big_cls_score_reshape_rpn_big_cls_score_reshape_0_split_0
I0413 15:51:21.411974  7027 net.cpp:408] rpn_big_cls_prob -> rpn_big_cls_prob
I0413 15:51:21.412022  7027 net.cpp:150] Setting up rpn_big_cls_prob
I0413 15:51:21.412029  7027 net.cpp:157] Top shape: 1 2 1586 92 (291824)
I0413 15:51:21.412034  7027 net.cpp:165] Memory required for data: 3586991116
I0413 15:51:21.412036  7027 layer_factory.hpp:77] Creating layer rpn_big_cls_prob_reshape
I0413 15:51:21.412041  7027 net.cpp:100] Creating Layer rpn_big_cls_prob_reshape
I0413 15:51:21.412045  7027 net.cpp:434] rpn_big_cls_prob_reshape <- rpn_big_cls_prob
I0413 15:51:21.412050  7027 net.cpp:408] rpn_big_cls_prob_reshape -> rpn_big_cls_prob_reshape
I0413 15:51:21.412070  7027 net.cpp:150] Setting up rpn_big_cls_prob_reshape
I0413 15:51:21.412078  7027 net.cpp:157] Top shape: 1 52 61 92 (291824)
I0413 15:51:21.412081  7027 net.cpp:165] Memory required for data: 3588158412
I0413 15:51:21.412084  7027 layer_factory.hpp:77] Creating layer rpn_big_cls_prob_reshape_rpn_big_cls_prob_reshape_0_split
I0413 15:51:21.412089  7027 net.cpp:100] Creating Layer rpn_big_cls_prob_reshape_rpn_big_cls_prob_reshape_0_split
I0413 15:51:21.412092  7027 net.cpp:434] rpn_big_cls_prob_reshape_rpn_big_cls_prob_reshape_0_split <- rpn_big_cls_prob_reshape
I0413 15:51:21.412097  7027 net.cpp:408] rpn_big_cls_prob_reshape_rpn_big_cls_prob_reshape_0_split -> rpn_big_cls_prob_reshape_rpn_big_cls_prob_reshape_0_split_0
I0413 15:51:21.412103  7027 net.cpp:408] rpn_big_cls_prob_reshape_rpn_big_cls_prob_reshape_0_split -> rpn_big_cls_prob_reshape_rpn_big_cls_prob_reshape_0_split_1
I0413 15:51:21.412133  7027 net.cpp:150] Setting up rpn_big_cls_prob_reshape_rpn_big_cls_prob_reshape_0_split
I0413 15:51:21.412140  7027 net.cpp:157] Top shape: 1 52 61 92 (291824)
I0413 15:51:21.412144  7027 net.cpp:157] Top shape: 1 52 61 92 (291824)
I0413 15:51:21.412147  7027 net.cpp:165] Memory required for data: 3590493004
I0413 15:51:21.412150  7027 layer_factory.hpp:77] Creating layer rpn_big_anchor_target
I0413 15:51:21.413846  7027 net.cpp:100] Creating Layer rpn_big_anchor_target
I0413 15:51:21.413871  7027 net.cpp:434] rpn_big_anchor_target <- rpn_big_cls_score_rpn_big_cls_score_0_split_1
I0413 15:51:21.413882  7027 net.cpp:434] rpn_big_anchor_target <- input_gt_boxes
I0413 15:51:21.413890  7027 net.cpp:434] rpn_big_anchor_target <- input_ignored_boxes
I0413 15:51:21.413897  7027 net.cpp:434] rpn_big_anchor_target <- input_im_info_input_1_split_0
I0413 15:51:21.413904  7027 net.cpp:434] rpn_big_anchor_target <- input_data_input_0_split_1
I0413 15:51:21.413911  7027 net.cpp:434] rpn_big_anchor_target <- rpn_big_cls_prob_reshape_rpn_big_cls_prob_reshape_0_split_0
I0413 15:51:21.413923  7027 net.cpp:408] rpn_big_anchor_target -> rpn_big_anchor_target_labels
I0413 15:51:21.413941  7027 net.cpp:408] rpn_big_anchor_target -> rpn_big_anchor_target_bbox_targets
I0413 15:51:21.413956  7027 net.cpp:408] rpn_big_anchor_target -> rpn_big_anchor_target_inside_weights
I0413 15:51:21.413971  7027 net.cpp:408] rpn_big_anchor_target -> rpn_big_anchor_target_outside_weights
I0413 15:51:21.421097  7027 net.cpp:150] Setting up rpn_big_anchor_target
I0413 15:51:21.421126  7027 net.cpp:157] Top shape: 1 1 1586 92 (145912)
I0413 15:51:21.421133  7027 net.cpp:157] Top shape: 1 104 61 92 (583648)
I0413 15:51:21.421139  7027 net.cpp:157] Top shape: 1 104 61 92 (583648)
I0413 15:51:21.421146  7027 net.cpp:157] Top shape: 1 104 61 92 (583648)
I0413 15:51:21.421150  7027 net.cpp:165] Memory required for data: 3598080428
I0413 15:51:21.421159  7027 layer_factory.hpp:77] Creating layer rpn_big_loss_cls
I0413 15:51:21.421178  7027 net.cpp:100] Creating Layer rpn_big_loss_cls
I0413 15:51:21.421190  7027 net.cpp:434] rpn_big_loss_cls <- rpn_big_cls_score_reshape_rpn_big_cls_score_reshape_0_split_1
I0413 15:51:21.421200  7027 net.cpp:434] rpn_big_loss_cls <- rpn_big_anchor_target_labels
I0413 15:51:21.421213  7027 net.cpp:408] rpn_big_loss_cls -> rpn_big_loss_cls
I0413 15:51:21.421232  7027 layer_factory.hpp:77] Creating layer rpn_big_loss_cls
I0413 15:51:21.422034  7027 net.cpp:150] Setting up rpn_big_loss_cls
I0413 15:51:21.422047  7027 net.cpp:157] Top shape: (1)
I0413 15:51:21.422052  7027 net.cpp:160]     with loss weight 1
I0413 15:51:21.422070  7027 net.cpp:165] Memory required for data: 3598080432
I0413 15:51:21.422077  7027 layer_factory.hpp:77] Creating layer rpn_big_output_box
I0413 15:51:21.422096  7027 net.cpp:100] Creating Layer rpn_big_output_box
I0413 15:51:21.422104  7027 net.cpp:434] rpn_big_output_box <- rpn_big_conv2_rpn_big_conv2_drop_0_split_1
I0413 15:51:21.422118  7027 net.cpp:408] rpn_big_output_box -> rpn_big_output_box
I0413 15:51:21.441123  7027 net.cpp:150] Setting up rpn_big_output_box
I0413 15:51:21.441154  7027 net.cpp:157] Top shape: 1 384 63 94 (2274048)
I0413 15:51:21.441157  7027 net.cpp:165] Memory required for data: 3607176624
I0413 15:51:21.441167  7027 layer_factory.hpp:77] Creating layer rpn_big_output_box_relu
I0413 15:51:21.441181  7027 net.cpp:100] Creating Layer rpn_big_output_box_relu
I0413 15:51:21.441190  7027 net.cpp:434] rpn_big_output_box_relu <- rpn_big_output_box
I0413 15:51:21.441202  7027 net.cpp:395] rpn_big_output_box_relu -> rpn_big_output_box (in-place)
I0413 15:51:21.441218  7027 net.cpp:150] Setting up rpn_big_output_box_relu
I0413 15:51:21.441227  7027 net.cpp:157] Top shape: 1 384 63 94 (2274048)
I0413 15:51:21.441232  7027 net.cpp:165] Memory required for data: 3616272816
I0413 15:51:21.441237  7027 layer_factory.hpp:77] Creating layer rpn_big_bbox_pred
I0413 15:51:21.441252  7027 net.cpp:100] Creating Layer rpn_big_bbox_pred
I0413 15:51:21.441260  7027 net.cpp:434] rpn_big_bbox_pred <- rpn_big_output_box
I0413 15:51:21.441270  7027 net.cpp:408] rpn_big_bbox_pred -> rpn_big_bbox_pred
I0413 15:51:21.445502  7027 net.cpp:150] Setting up rpn_big_bbox_pred
I0413 15:51:21.445516  7027 net.cpp:157] Top shape: 1 104 61 92 (583648)
I0413 15:51:21.445520  7027 net.cpp:165] Memory required for data: 3618607408
I0413 15:51:21.445533  7027 layer_factory.hpp:77] Creating layer rpn_big_bbox_pred_rpn_big_bbox_pred_0_split
I0413 15:51:21.445545  7027 net.cpp:100] Creating Layer rpn_big_bbox_pred_rpn_big_bbox_pred_0_split
I0413 15:51:21.445554  7027 net.cpp:434] rpn_big_bbox_pred_rpn_big_bbox_pred_0_split <- rpn_big_bbox_pred
I0413 15:51:21.445564  7027 net.cpp:408] rpn_big_bbox_pred_rpn_big_bbox_pred_0_split -> rpn_big_bbox_pred_rpn_big_bbox_pred_0_split_0
I0413 15:51:21.445575  7027 net.cpp:408] rpn_big_bbox_pred_rpn_big_bbox_pred_0_split -> rpn_big_bbox_pred_rpn_big_bbox_pred_0_split_1
I0413 15:51:21.445627  7027 net.cpp:150] Setting up rpn_big_bbox_pred_rpn_big_bbox_pred_0_split
I0413 15:51:21.445639  7027 net.cpp:157] Top shape: 1 104 61 92 (583648)
I0413 15:51:21.445648  7027 net.cpp:157] Top shape: 1 104 61 92 (583648)
I0413 15:51:21.445655  7027 net.cpp:165] Memory required for data: 3623276592
I0413 15:51:21.445662  7027 layer_factory.hpp:77] Creating layer rpn_big_loss_bbox
I0413 15:51:21.446125  7027 net.cpp:100] Creating Layer rpn_big_loss_bbox
I0413 15:51:21.446135  7027 net.cpp:434] rpn_big_loss_bbox <- rpn_big_bbox_pred_rpn_big_bbox_pred_0_split_0
I0413 15:51:21.446141  7027 net.cpp:434] rpn_big_loss_bbox <- rpn_big_anchor_target_bbox_targets
I0413 15:51:21.446151  7027 net.cpp:434] rpn_big_loss_bbox <- rpn_big_anchor_target_inside_weights
I0413 15:51:21.446159  7027 net.cpp:434] rpn_big_loss_bbox <- rpn_big_anchor_target_outside_weights
I0413 15:51:21.446171  7027 net.cpp:408] rpn_big_loss_bbox -> rpn_big_loss_bbox
I0413 15:51:21.448194  7027 net.cpp:150] Setting up rpn_big_loss_bbox
I0413 15:51:21.448220  7027 net.cpp:157] Top shape: 1 (1)
I0413 15:51:21.448223  7027 net.cpp:160]     with loss weight 1
I0413 15:51:21.448238  7027 net.cpp:165] Memory required for data: 3623276596
I0413 15:51:21.448247  7027 layer_factory.hpp:77] Creating layer proposal
I0413 15:51:21.493552  7027 net.cpp:100] Creating Layer proposal
I0413 15:51:21.493589  7027 net.cpp:434] proposal <- rpn_big_cls_prob_reshape_rpn_big_cls_prob_reshape_0_split_1
I0413 15:51:21.493603  7027 net.cpp:434] proposal <- rpn_big_bbox_pred_rpn_big_bbox_pred_0_split_1
…
