…
I0413 17:27:59.803179 10207 solver.cpp:48] Initializing solver from parameters: 
base_lr: 0.001
display: 20
lr_policy: "multistep"
gamma: 0.1
momentum: 0.9
weight_decay: 0.0005
snapshot: 0
snapshot_prefix: "faces_example"
net_param {
  name: "GeneratedModel_13_04_2017_17_27"
  layer {
    name: "input"
    type: "Python"
    top: "input_data"
    top: "input_im_info"
    top: "input_gt_boxes"
    top: "input_ignored_boxes"
    python_param {
      module: "layers.roi_data_layer"
      layer: "RoIDataLayer"
      param_str: "{\"num_classes\": 2}"
    }
  }
  layer {
    name: "conv1_1"
    type: "Convolution"
    bottom: "input_data"
    top: "conv1_1"
    param {
      lr_mult: 0
      decay_mult: 0
    }
    param {
      lr_mult: 0
      decay_mult: 0
    }
    convolution_param {
      num_output: 64
      pad: 1
      kernel_size: 3
    }
  }
  layer {
    name: "relu1_1"
    type: "ReLU"
    bottom: "conv1_1"
    top: "conv1_1"
  }
  layer {
    name: "conv1_2"
    type: "Convolution"
    bottom: "conv1_1"
    top: "conv1_2"
    param {
      lr_mult: 0
      decay_mult: 0
    }
    param {
      lr_mult: 0
      decay_mult: 0
    }
    convolution_param {
      num_output: 64
      pad: 1
      kernel_size: 3
    }
  }
  layer {
    name: "relu1_2"
    type: "ReLU"
    bottom: "conv1_2"
    top: "conv1_2"
  }
  layer {
    name: "pool1"
    type: "Pooling"
    bottom: "conv1_2"
    top: "pool1"
    pooling_param {
      pool: MAX
      kernel_size: 2
      stride: 2
    }
  }
  layer {
    name: "conv2_1"
    type: "Convolution"
    bottom: "pool1"
    top: "conv2_1"
    param {
      lr_mult: 0
      decay_mult: 0
    }
    param {
      lr_mult: 0
      decay_mult: 0
    }
    convolution_param {
      num_output: 128
      pad: 1
      kernel_size: 3
    }
  }
  layer {
    name: "relu2_1"
    type: "ReLU"
    bottom: "conv2_1"
    top: "conv2_1"
  }
  layer {
    name: "conv2_2"
    type: "Convolution"
    bottom: "conv2_1"
    top: "conv2_2"
    param {
      lr_mult: 0
      decay_mult: 0
    }
    param {
      lr_mult: 0
      decay_mult: 0
    }
    convolution_param {
      num_output: 128
      pad: 1
      kernel_size: 3
    }
  }
  layer {
    name: "relu2_2"
    type: "ReLU"
    bottom: "conv2_2"
    top: "conv2_2"
  }
  layer {
    name: "pool2"
    type: "Pooling"
    bottom: "conv2_2"
    top: "pool2"
    pooling_param {
      pool: MAX
      kernel_size: 2
      stride: 2
    }
  }
  layer {
    name: "conv3_1"
    type: "Convolution"
    bottom: "pool2"
    top: "conv3_1"
    param {
      lr_mult: 1
    }
    param {
      lr_mult: 2
    }
    convolution_param {
      num_output: 256
      pad: 1
      kernel_size: 3
    }
  }
  layer {
    name: "relu3_1"
    type: "ReLU"
    bottom: "conv3_1"
    top: "conv3_1"
  }
  layer {
    name: "conv3_2"
    type: "Convolution"
    bottom: "conv3_1"
    top: "conv3_2"
    param {
      lr_mult: 1
    }
    param {
      lr_mult: 2
    }
    convolution_param {
      num_output: 256
      pad: 1
      kernel_size: 3
    }
  }
  layer {
    name: "relu3_2"
    type: "ReLU"
    bottom: "conv3_2"
    top: "conv3_2"
  }
  layer {
    name: "conv3_3"
    type: "Convolution"
    bottom: "conv3_2"
    top: "conv3_3"
    param {
      lr_mult: 1
    }
    param {
      lr_mult: 2
    }
    convolution_param {
      num_output: 256
      pad: 1
      kernel_size: 3
    }
  }
  layer {
    name: "relu3_3"
    type: "ReLU"
    bottom: "conv3_3"
    top: "conv3_3"
  }
  layer {
    name: "pool3"
    type: "Pooling"
    bottom: "conv3_3"
    top: "pool3"
    pooling_param {
      pool: MAX
      kernel_size: 2
      stride: 2
    }
  }
  layer {
    name: "conv4_1"
    type: "Convolution"
    bottom: "pool3"
    top: "conv4_1"
    param {
      lr_mult: 1
    }
    param {
      lr_mult: 2
    }
    convolution_param {
      num_output: 512
      pad: 1
      kernel_size: 3
    }
  }
  layer {
    name: "relu4_1"
    type: "ReLU"
    bottom: "conv4_1"
    top: "conv4_1"
  }
  layer {
    name: "conv4_2"
    type: "Convolution"
    bottom: "conv4_1"
    top: "conv4_2"
    param {
      lr_mult: 1
    }
    param {
      lr_mult: 2
    }
    convolution_param {
      num_output: 512
      pad: 1
      kernel_size: 3
    }
  }
  layer {
    name: "relu4_2"
    type: "ReLU"
    bottom: "conv4_2"
    top: "conv4_2"
  }
  layer {
    name: "conv4_3"
    type: "Convolution"
    bottom: "conv4_2"
    top: "conv4_3"
    param {
      lr_mult: 1
    }
    param {
      lr_mult: 2
    }
    convolution_param {
      num_output: 512
      pad: 1
      kernel_size: 3
    }
  }
  layer {
    name: "relu4_3"
    type: "ReLU"
    bottom: "conv4_3"
    top: "conv4_3"
  }
  layer {
    name: "pool4"
    type: "Pooling"
    bottom: "conv4_3"
    top: "pool4"
    pooling_param {
      pool: MAX
      kernel_size: 2
      stride: 2
    }
  }
  layer {
    name: "conv5_1"
    type: "Convolution"
    bottom: "pool4"
    top: "conv5_1"
    param {
      lr_mult: 1
    }
    param {
      lr_mult: 2
    }
    convolution_param {
      num_output: 512
      pad: 1
      kernel_size: 3
    }
  }
  layer {
    name: "relu5_1"
    type: "ReLU"
    bottom: "conv5_1"
    top: "conv5_1"
  }
  layer {
    name: "conv5_2"
    type: "Convolution"
    bottom: "conv5_1"
    top: "conv5_2"
    param {
      lr_mult: 1
    }
    param {
      lr_mult: 2
    }
    convolution_param {
      num_output: 512
      pad: 1
      kernel_size: 3
    }
  }
  layer {
    name: "relu5_2"
    type: "ReLU"
    bottom: "conv5_2"
    top: "conv5_2"
  }
  layer {
    name: "conv5_3"
    type: "Convolution"
    bottom: "conv5_2"
    top: "conv5_3"
    param {
      lr_mult: 1
    }
    param {
      lr_mult: 2
    }
    convolution_param {
      num_output: 512
      pad: 1
      kernel_size: 3
    }
  }
  layer {
    name: "relu5_3"
    type: "ReLU"
    bottom: "conv5_3"
    top: "conv5_3"
  }
  layer {
    name: "rpn_big_conv1"
    type: "Convolution"
    bottom: "conv5_3"
    top: "rpn_big_conv1"
    param {
      lr_mult: 1
    }
    param {
      lr_mult: 2
    }
    convolution_param {
      num_output: 512
      pad: 1
      kernel_size: 3
      stride: 1
      weight_filler {
        type: "gaussian"
        mean: 0
        std: 0.01
      }
      bias_filler {
        type: "constant"
      }
    }
  }
  layer {
    name: "rpn_big_conv1_relu"
    type: "ReLU"
    bottom: "rpn_big_conv1"
    top: "rpn_big_conv1"
    relu_param {
      negative_slope: 0
    }
  }
  layer {
    name: "rpn_big_conv2"
    type: "Convolution"
    bottom: "rpn_big_conv1"
    top: "rpn_big_conv2"
    param {
      lr_mult: 1
    }
    param {
      lr_mult: 2
    }
    convolution_param {
      num_output: 512
      pad: 1
      kernel_size: 3
      stride: 1
      weight_filler {
        type: "gaussian"
        mean: 0
        std: 0.01
      }
      bias_filler {
        type: "constant"
      }
    }
  }
  layer {
    name: "rpn_big_conv2_relu"
    type: "ReLU"
    bottom: "rpn_big_conv2"
    top: "rpn_big_conv2"
    relu_param {
      negative_slope: 0
    }
  }
  layer {
    name: "rpn_big_conv2_drop"
    type: "Dropout"
    bottom: "rpn_big_conv2"
    top: "rpn_big_conv2"
    dropout_param {
      dropout_ratio: 0.3
    }
  }
  layer {
    name: "rpn_big_output_cls"
    type: "Convolution"
    bottom: "rpn_big_conv2"
    top: "rpn_big_output_cls"
    param {
      lr_mult: 1
    }
    param {
      lr_mult: 2
    }
    convolution_param {
      num_output: 384
      pad: 1
      kernel_size: 3
      stride: 1
      weight_filler {
        type: "gaussian"
        mean: 0
        std: 0.01
      }
      bias_filler {
        type: "constant"
      }
    }
  }
  layer {
    name: "rpn_big_output_cls_relu"
    type: "ReLU"
    bottom: "rpn_big_output_cls"
    top: "rpn_big_output_cls"
    relu_param {
      negative_slope: 0
    }
  }
  layer {
    name: "rpn_big_cls_score"
    type: "Convolution"
    bottom: "rpn_big_output_cls"
    top: "rpn_big_cls_score"
    param {
      lr_mult: 1
    }
    param {
      lr_mult: 2
    }
    convolution_param {
      num_output: 52
      pad: 0
      kernel_size: 3
      stride: 1
      weight_filler {
        type: "gaussian"
        mean: 0
        std: 0.01
      }
      bias_filler {
        type: "constant"
      }
    }
  }
  layer {
    name: "rpn_big_cls_score_reshape"
    type: "Reshape"
    bottom: "rpn_big_cls_score"
    top: "rpn_big_cls_score_reshape"
    reshape_param {
      shape {
        dim: 0
        dim: 2
        dim: -1
        dim: 0
      }
    }
  }
  layer {
    name: "rpn_big_cls_prob"
    type: "Softmax"
    bottom: "rpn_big_cls_score_reshape"
    top: "rpn_big_cls_prob"
  }
  layer {
    name: "rpn_big_cls_prob_reshape"
    type: "Reshape"
    bottom: "rpn_big_cls_prob"
    top: "rpn_big_cls_prob_reshape"
    reshape_param {
      shape {
        dim: 0
        dim: 52
        dim: -1
        dim: 0
      }
    }
  }
  layer {
    name: "rpn_big_anchor_target"
    type: "Python"
    bottom: "rpn_big_cls_score"
    bottom: "input_gt_boxes"
    bottom: "input_ignored_boxes"
    bottom: "input_im_info"
    bottom: "input_data"
    bottom: "rpn_big_cls_prob_reshape"
    top: "rpn_big_anchor_target_labels"
    top: "rpn_big_anchor_target_bbox_targets"
    top: "rpn_big_anchor_target_inside_weights"
    top: "rpn_big_anchor_target_outside_weights"
    python_param {
      module: "rpn.anchor_target_layer"
      layer: "AnchorTargetLayer"
      param_str: "{\"batchsize\": 256, \"num_classes\": 1, \"feat_stride\": 16, \"negative_overlap\": 0.4, \"tn_fraction\": 0.2, \"anchor_scales\": [2.5, 3.025, 3.66025, 4.4289024999999995, 5.358972025, 6.484356150249999, 7.846070941802498, 9.493745839581022, 11.487432465893036, 13.899793283730574, 16.818749873313998, 20.350687346709933, 24.62433168951902, 29.795441344318014], \"anchor_shift_num_xy\": [[2, 2], [2, 2], [2, 2], [2, 2], [1, 1], [1, 1], [1, 1], [1, 1], [1, 1], [1, 1], [1, 1], [1, 1], [1, 1], [1, 1]], \"anchor_ratios\": [1.0], \"name\": \"rpn_big\", \"fg_fraction\": 0.5, \"square_targets\": true, \"positive_overlap\": 0.6}"
    }
  }
  layer {
    name: "rpn_big_loss_cls"
    type: "SoftmaxWithLoss"
    bottom: "rpn_big_cls_score_reshape"
    bottom: "rpn_big_anchor_target_labels"
    top: "rpn_big_loss_cls"
    loss_weight: 1
    propagate_down: true
    propagate_down: false
    loss_param {
      ignore_label: -1
      normalization: VALID
    }
  }
  layer {
    name: "rpn_big_output_box"
    type: "Convolution"
    bottom: "rpn_big_conv2"
    top: "rpn_big_output_box"
    param {
      lr_mult: 1
    }
    param {
      lr_mult: 2
    }
    convolution_param {
      num_output: 384
      pad: 1
      kernel_size: 3
      stride: 1
      weight_filler {
        type: "gaussian"
        mean: 0
        std: 0.01
      }
      bias_filler {
        type: "constant"
      }
    }
  }
  layer {
    name: "rpn_big_output_box_relu"
    type: "ReLU"
    bottom: "rpn_big_output_box"
    top: "rpn_big_output_box"
    relu_param {
      negative_slope: 0
    }
  }
  layer {
    name: "rpn_big_bbox_pred"
    type: "Convolution"
    bottom: "rpn_big_output_box"
    top: "rpn_big_bbox_pred"
    param {
      lr_mult: 1
    }
    param {
      lr_mult: 2
    }
    convolution_param {
      num_output: 104
      pad: 0
      kernel_size: 3
      stride: 1
      weight_filler {
        type: "gaussian"
        mean: 0
        std: 0.01
      }
      bias_filler {
        type: "constant"
      }
    }
  }
  layer {
    name: "rpn_big_loss_bbox"
    type: "Python"
    bottom: "rpn_big_bbox_pred"
    bottom: "rpn_big_anchor_target_bbox_targets"
    bottom: "rpn_big_anchor_target_inside_weights"
    bottom: "rpn_big_anchor_target_outside_weights"
    top: "rpn_big_loss_bbox"
    loss_weight: 1
    python_param {
      module: "layers.smooth_l1_loss"
      layer: "SmoothL1LossLayer"
      param_str: "{\"sigma\": 3}"
    }
  }
  layer {
    name: "proposal"
    type: "Python"
    bottom: "rpn_big_cls_prob_reshape"
    bottom: "rpn_big_bbox_pred"
    bottom: "input_im_info"
    top: "rpn_rois"
    python_param {
      module: "rpn.proposal_layer"
      layer: "ProposalLayer"
      param_str: "{\"anchor_shift_num_xy\": [[2, 2], [2, 2], [2, 2], [2, 2], [1, 1], [1, 1], [1, 1], [1, 1], [1, 1], [1, 1], [1, 1], [1, 1], [1, 1], [1, 1]], \"feat_stride\": 16, \"num_classes\": 1, \"anchor_scales\": [2.5, 3.025, 3.66025, 4.4289024999999995, 5.358972025, 6.484356150249999, 7.846070941802498, 9.493745839581022, 11.487432465893036, 13.899793283730574, 16.818749873313998, 20.350687346709933, 24.62433168951902, 29.795441344318014], \"square_targets\": true, \"name\": \"rpn_big\", \"batchsize\": 256, \"anchor_ratios\": [1.0]}"
    }
  }
}
average_loss: 100
stepvalue: 70000
stepvalue: 120000
iter_size: 2
I0413 17:27:59.803252 10207 solver.cpp:86] Creating training net specified in net_param.
I0413 17:27:59.803617 10207 net.cpp:58] Initializing net from parameters: 
name: "GeneratedModel_13_04_2017_17_27"
state {
  phase: TRAIN
}
layer {
  name: "input"
  type: "Python"
  top: "input_data"
  top: "input_im_info"
  top: "input_gt_boxes"
  top: "input_ignored_boxes"
  python_param {
    module: "layers.roi_data_layer"
    layer: "RoIDataLayer"
    param_str: "{\"num_classes\": 2}"
  }
}
layer {
  name: "conv1_1"
  type: "Convolution"
  bottom: "input_data"
  top: "conv1_1"
  param {
    lr_mult: 0
    decay_mult: 0
  }
  param {
    lr_mult: 0
    decay_mult: 0
  }
  convolution_param {
    num_output: 64
    pad: 1
    kernel_size: 3
  }
}
layer {
  name: "relu1_1"
  type: "ReLU"
  bottom: "conv1_1"
  top: "conv1_1"
}
layer {
  name: "conv1_2"
  type: "Convolution"
  bottom: "conv1_1"
  top: "conv1_2"
  param {
    lr_mult: 0
    decay_mult: 0
  }
  param {
    lr_mult: 0
    decay_mult: 0
  }
  convolution_param {
    num_output: 64
    pad: 1
    kernel_size: 3
  }
}
layer {
  name: "relu1_2"
  type: "ReLU"
  bottom: "conv1_2"
  top: "conv1_2"
}
layer {
  name: "pool1"
  type: "Pooling"
  bottom: "conv1_2"
  top: "pool1"
  pooling_param {
    pool: MAX
    kernel_size: 2
    stride: 2
  }
}
layer {
  name: "conv2_1"
  type: "Convolution"
  bottom: "pool1"
  top: "conv2_1"
  param {
    lr_mult: 0
    decay_mult: 0
  }
  param {
    lr_mult: 0
    decay_mult: 0
  }
  convolution_param {
    num_output: 128
    pad: 1
    kernel_size: 3
  }
}
layer {
  name: "relu2_1"
  type: "ReLU"
  bottom: "conv2_1"
  top: "conv2_1"
}
layer {
  name: "conv2_2"
  type: "Convolution"
  bottom: "conv2_1"
  top: "conv2_2"
  param {
    lr_mult: 0
    decay_mult: 0
  }
  param {
    lr_mult: 0
    decay_mult: 0
  }
  convolution_param {
    num_output: 128
    pad: 1
    kernel_size: 3
  }
}
layer {
  name: "relu2_2"
  type: "ReLU"
  bottom: "conv2_2"
  top: "conv2_2"
}
layer {
  name: "pool2"
  type: "Pooling"
  bottom: "conv2_2"
  top: "pool2"
  pooling_param {
    pool: MAX
    kernel_size: 2
    stride: 2
  }
}
layer {
  name: "conv3_1"
  type: "Convolution"
  bottom: "pool2"
  top: "conv3_1"
  param {
    lr_mult: 1
  }
  param {
    lr_mult: 2
  }
  convolution_param {
    num_output: 256
    pad: 1
    kernel_size: 3
  }
}
layer {
  name: "relu3_1"
  type: "ReLU"
  bottom: "conv3_1"
  top: "conv3_1"
}
layer {
  name: "conv3_2"
  type: "Convolution"
  bottom: "conv3_1"
  top: "conv3_2"
  param {
    lr_mult: 1
  }
  param {
    lr_mult: 2
  }
  convolution_param {
    num_output: 256
    pad: 1
    kernel_size: 3
  }
}
layer {
  name: "relu3_2"
  type: "ReLU"
  bottom: "conv3_2"
  top: "conv3_2"
}
layer {
  name: "conv3_3"
  type: "Convolution"
  bottom: "conv3_2"
  top: "conv3_3"
  param {
    lr_mult: 1
  }
  param {
    lr_mult: 2
  }
  convolution_param {
    num_output: 256
    pad: 1
    kernel_size: 3
  }
}
layer {
  name: "relu3_3"
  type: "ReLU"
  bottom: "conv3_3"
  top: "conv3_3"
}
layer {
  name: "pool3"
  type: "Pooling"
  bottom: "conv3_3"
  top: "pool3"
  pooling_param {
    pool: MAX
    kernel_size: 2
    stride: 2
  }
}
layer {
  name: "conv4_1"
  type: "Convolution"
  bottom: "pool3"
  top: "conv4_1"
  param {
    lr_mult: 1
  }
  param {
    lr_mult: 2
  }
  convolution_param {
    num_output: 512
    pad: 1
    kernel_size: 3
  }
}
layer {
  name: "relu4_1"
  type: "ReLU"
  bottom: "conv4_1"
  top: "conv4_1"
}
layer {
  name: "conv4_2"
  type: "Convolution"
  bottom: "conv4_1"
  top: "conv4_2"
  param {
    lr_mult: 1
  }
  param {
    lr_mult: 2
  }
  convolution_param {
    num_output: 512
    pad: 1
    kernel_size: 3
  }
}
layer {
  name: "relu4_2"
  type: "ReLU"
  bottom: "conv4_2"
  top: "conv4_2"
}
layer {
  name: "conv4_3"
  type: "Convolution"
  bottom: "conv4_2"
  top: "conv4_3"
  param {
    lr_mult: 1
  }
  param {
    lr_mult: 2
  }
  convolution_param {
    num_output: 512
    pad: 1
    kernel_size: 3
  }
}
layer {
  name: "relu4_3"
  type: "ReLU"
  bottom: "conv4_3"
  top: "conv4_3"
}
layer {
  name: "pool4"
  type: "Pooling"
  bottom: "conv4_3"
  top: "pool4"
  pooling_param {
    pool: MAX
    kernel_size: 2
    stride: 2
  }
}
layer {
  name: "conv5_1"
  type: "Convolution"
  bottom: "pool4"
  top: "conv5_1"
  param {
    lr_mult: 1
  }
  param {
    lr_mult: 2
  }
  convolution_param {
    num_output: 512
    pad: 1
    kernel_size: 3
  }
}
layer {
  name: "relu5_1"
  type: "ReLU"
  bottom: "conv5_1"
  top: "conv5_1"
}
layer {
  name: "conv5_2"
  type: "Convolution"
  bottom: "conv5_1"
  top: "conv5_2"
  param {
    lr_mult: 1
  }
  param {
    lr_mult: 2
  }
  convolution_param {
    num_output: 512
    pad: 1
    kernel_size: 3
  }
}
layer {
  name: "relu5_2"
  type: "ReLU"
  bottom: "conv5_2"
  top: "conv5_2"
}
layer {
  name: "conv5_3"
  type: "Convolution"
  bottom: "conv5_2"
  top: "conv5_3"
  param {
    lr_mult: 1
  }
  param {
    lr_mult: 2
  }
  convolution_param {
    num_output: 512
    pad: 1
    kernel_size: 3
  }
}
layer {
  name: "relu5_3"
  type: "ReLU"
  bottom: "conv5_3"
  top: "conv5_3"
}
layer {
  name: "rpn_big_conv1"
  type: "Convolution"
  bottom: "conv5_3"
  top: "rpn_big_conv1"
  param {
    lr_mult: 1
  }
  param {
    lr_mult: 2
  }
  convolution_param {
    num_output: 512
    pad: 1
    kernel_size: 3
    stride: 1
    weight_filler {
      type: "gaussian"
      mean: 0
      std: 0.01
    }
    bias_filler {
      type: "constant"
    }
  }
}
layer {
  name: "rpn_big_conv1_relu"
  type: "ReLU"
  bottom: "rpn_big_conv1"
  top: "rpn_big_conv1"
  relu_param {
    negative_slope: 0
  }
}
layer {
  name: "rpn_big_conv2"
  type: "Convolution"
  bottom: "rpn_big_conv1"
  top: "rpn_big_conv2"
  param {
    lr_mult: 1
  }
  param {
    lr_mult: 2
  }
  convolution_param {
    num_output: 512
    pad: 1
    kernel_size: 3
    stride: 1
    weight_filler {
      type: "gaussian"
      mean: 0
      std: 0.01
    }
    bias_filler {
      type: "constant"
    }
  }
}
layer {
  name: "rpn_big_conv2_relu"
  type: "ReLU"
  bottom: "rpn_big_conv2"
  top: "rpn_big_conv2"
  relu_param {
    negative_slope: 0
  }
}
layer {
  name: "rpn_big_conv2_drop"
  type: "Dropout"
  bottom: "rpn_big_conv2"
  top: "rpn_big_conv2"
  dropout_param {
    dropout_ratio: 0.3
  }
}
layer {
  name: "rpn_big_output_cls"
  type: "Convolution"
  bottom: "rpn_big_conv2"
  top: "rpn_big_output_cls"
  param {
    lr_mult: 1
  }
  param {
    lr_mult: 2
  }
  convolution_param {
    num_output: 384
    pad: 1
    kernel_size: 3
    stride: 1
    weight_filler {
      type: "gaussian"
      mean: 0
      std: 0.01
    }
    bias_filler {
      type: "constant"
    }
  }
}
layer {
  name: "rpn_big_output_cls_relu"
  type: "ReLU"
  bottom: "rpn_big_output_cls"
  top: "rpn_big_output_cls"
  relu_param {
    negative_slope: 0
  }
}
layer {
  name: "rpn_big_cls_score"
  type: "Convolution"
  bottom: "rpn_big_output_cls"
  top: "rpn_big_cls_score"
  param {
    lr_mult: 1
  }
  param {
    lr_mult: 2
  }
  convolution_param {
    num_output: 52
    pad: 0
    kernel_size: 3
    stride: 1
    weight_filler {
      type: "gaussian"
      mean: 0
      std: 0.01
    }
    bias_filler {
      type: "constant"
    }
  }
}
layer {
  name: "rpn_big_cls_score_reshape"
  type: "Reshape"
  bottom: "rpn_big_cls_score"
  top: "rpn_big_cls_score_reshape"
  reshape_param {
    shape {
      dim: 0
      dim: 2
      dim: -1
      dim: 0
    }
  }
}
layer {
  name: "rpn_big_cls_prob"
  type: "Softmax"
  bottom: "rpn_big_cls_score_reshape"
  top: "rpn_big_cls_prob"
}
layer {
  name: "rpn_big_cls_prob_reshape"
  type: "Reshape"
  bottom: "rpn_big_cls_prob"
  top: "rpn_big_cls_prob_reshape"
  reshape_param {
    shape {
      dim: 0
      dim: 52
      dim: -1
      dim: 0
    }
  }
}
layer {
  name: "rpn_big_anchor_target"
  type: "Python"
  bottom: "rpn_big_cls_score"
  bottom: "input_gt_boxes"
  bottom: "input_ignored_boxes"
  bottom: "input_im_info"
  bottom: "input_data"
  bottom: "rpn_big_cls_prob_reshape"
  top: "rpn_big_anchor_target_labels"
  top: "rpn_big_anchor_target_bbox_targets"
  top: "rpn_big_anchor_target_inside_weights"
  top: "rpn_big_anchor_target_outside_weights"
  python_param {
    module: "rpn.anchor_target_layer"
    layer: "AnchorTargetLayer"
    param_str: "{\"batchsize\": 256, \"num_classes\": 1, \"feat_stride\": 16, \"negative_overlap\": 0.4, \"tn_fraction\": 0.2, \"anchor_scales\": [2.5, 3.025, 3.66025, 4.4289024999999995, 5.358972025, 6.484356150249999, 7.846070941802498, 9.493745839581022, 11.487432465893036, 13.899793283730574, 16.818749873313998, 20.350687346709933, 24.62433168951902, 29.795441344318014], \"anchor_shift_num_xy\": [[2, 2], [2, 2], [2, 2], [2, 2], [1, 1], [1, 1], [1, 1], [1, 1], [1, 1], [1, 1], [1, 1], [1, 1], [1, 1], [1, 1]], \"anchor_ratios\": [1.0], \"name\": \"rpn_big\", \"fg_fraction\": 0.5, \"square_targets\": true, \"positive_overlap\": 0.6}"
  }
}
layer {
  name: "rpn_big_loss_cls"
  type: "SoftmaxWithLoss"
  bottom: "rpn_big_cls_score_reshape"
  bottom: "rpn_big_anchor_target_labels"
  top: "rpn_big_loss_cls"
  loss_weight: 1
  propagate_down: true
  propagate_down: false
  loss_param {
    ignore_label: -1
    normalization: VALID
  }
}
layer {
  name: "rpn_big_output_box"
  type: "Convolution"
  bottom: "rpn_big_conv2"
  top: "rpn_big_output_box"
  param {
    lr_mult: 1
  }
  param {
    lr_mult: 2
  }
  convolution_param {
    num_output: 384
    pad: 1
    kernel_size: 3
    stride: 1
    weight_filler {
      type: "gaussian"
      mean: 0
      std: 0.01
    }
    bias_filler {
      type: "constant"
    }
  }
}
layer {
  name: "rpn_big_output_box_relu"
  type: "ReLU"
  bottom: "rpn_big_output_box"
  top: "rpn_big_output_box"
  relu_param {
    negative_slope: 0
  }
}
layer {
  name: "rpn_big_bbox_pred"
  type: "Convolution"
  bottom: "rpn_big_output_box"
  top: "rpn_big_bbox_pred"
  param {
    lr_mult: 1
  }
  param {
    lr_mult: 2
  }
  convolution_param {
    num_output: 104
    pad: 0
    kernel_size: 3
    stride: 1
    weight_filler {
      type: "gaussian"
      mean: 0
      std: 0.01
    }
    bias_filler {
      type: "constant"
    }
  }
}
layer {
  name: "rpn_big_loss_bbox"
  type: "Python"
  bottom: "rpn_big_bbox_pred"
  bottom: "rpn_big_anchor_target_bbox_targets"
  bottom: "rpn_big_anchor_target_inside_weights"
  bottom: "rpn_big_anchor_target_outside_weights"
  top: "rpn_big_loss_bbox"
  loss_weight: 1
  python_param {
    module: "layers.smooth_l1_loss"
    layer: "SmoothL1LossLayer"
    param_str: "{\"sigma\": 3}"
  }
}
layer {
  name: "proposal"
  type: "Python"
  bottom: "rpn_big_cls_prob_reshape"
  bottom: "rpn_big_bbox_pred"
  bottom: "input_im_info"
  top: "rpn_rois"
  python_param {
    module: "rpn.proposal_layer"
    layer: "ProposalLayer"
    param_str: "{\"anchor_shift_num_xy\": [[2, 2], [2, 2], [2, 2], [2, 2], [1, 1], [1, 1], [1, 1], [1, 1], [1, 1], [1, 1], [1, 1], [1, 1], [1, 1], [1, 1]], \"feat_stride\": 16, \"num_classes\": 1, \"anchor_scales\": [2.5, 3.025, 3.66025, 4.4289024999999995, 5.358972025, 6.484356150249999, 7.846070941802498, 9.493745839581022, 11.487432465893036, 13.899793283730574, 16.818749873313998, 20.350687346709933, 24.62433168951902, 29.795441344318014], \"square_targets\": true, \"name\": \"rpn_big\", \"batchsize\": 256, \"anchor_ratios\": [1.0]}"
  }
}
I0413 17:27:59.803797 10207 layer_factory.hpp:77] Creating layer input
I0413 17:27:59.805070 10207 net.cpp:100] Creating Layer input
I0413 17:27:59.805088 10207 net.cpp:408] input -> input_data
I0413 17:27:59.805100 10207 net.cpp:408] input -> input_im_info
I0413 17:27:59.805107 10207 net.cpp:408] input -> input_gt_boxes
I0413 17:27:59.805114 10207 net.cpp:408] input -> input_ignored_boxes
RoiDataLayer: name_to_top: {'ignored_boxes': 3, 'data': 0, 'gt_boxes': 2, 'im_info': 1}
I0413 17:28:00.139032 10207 net.cpp:150] Setting up input
I0413 17:28:00.139067 10207 net.cpp:157] Top shape: 1 3 1000 1500 (4500000)
I0413 17:28:00.139088 10207 net.cpp:157] Top shape: 1 3 (3)
I0413 17:28:00.139097 10207 net.cpp:157] Top shape: 1 5 (5)
I0413 17:28:00.139108 10207 net.cpp:157] Top shape: 1 5 (5)
I0413 17:28:00.139117 10207 net.cpp:165] Memory required for data: 18000052
I0413 17:28:00.139128 10207 layer_factory.hpp:77] Creating layer input_data_input_0_split
I0413 17:28:00.139147 10207 net.cpp:100] Creating Layer input_data_input_0_split
I0413 17:28:00.139155 10207 net.cpp:434] input_data_input_0_split <- input_data
I0413 17:28:00.139166 10207 net.cpp:408] input_data_input_0_split -> input_data_input_0_split_0
I0413 17:28:00.139184 10207 net.cpp:408] input_data_input_0_split -> input_data_input_0_split_1
I0413 17:28:00.139225 10207 net.cpp:150] Setting up input_data_input_0_split
I0413 17:28:00.139233 10207 net.cpp:157] Top shape: 1 3 1000 1500 (4500000)
I0413 17:28:00.139241 10207 net.cpp:157] Top shape: 1 3 1000 1500 (4500000)
I0413 17:28:00.139247 10207 net.cpp:165] Memory required for data: 54000052
I0413 17:28:00.139253 10207 layer_factory.hpp:77] Creating layer input_im_info_input_1_split
I0413 17:28:00.139264 10207 net.cpp:100] Creating Layer input_im_info_input_1_split
I0413 17:28:00.139271 10207 net.cpp:434] input_im_info_input_1_split <- input_im_info
I0413 17:28:00.139279 10207 net.cpp:408] input_im_info_input_1_split -> input_im_info_input_1_split_0
I0413 17:28:00.139289 10207 net.cpp:408] input_im_info_input_1_split -> input_im_info_input_1_split_1
I0413 17:28:00.139323 10207 net.cpp:150] Setting up input_im_info_input_1_split
I0413 17:28:00.139330 10207 net.cpp:157] Top shape: 1 3 (3)
I0413 17:28:00.139338 10207 net.cpp:157] Top shape: 1 3 (3)
I0413 17:28:00.139343 10207 net.cpp:165] Memory required for data: 54000076
I0413 17:28:00.139348 10207 layer_factory.hpp:77] Creating layer conv1_1
I0413 17:28:00.139364 10207 net.cpp:100] Creating Layer conv1_1
I0413 17:28:00.139369 10207 net.cpp:434] conv1_1 <- input_data_input_0_split_0
I0413 17:28:00.139377 10207 net.cpp:408] conv1_1 -> conv1_1
I0413 17:28:00.142385 10207 net.cpp:150] Setting up conv1_1
I0413 17:28:00.142421 10207 net.cpp:157] Top shape: 1 64 1000 1500 (96000000)
I0413 17:28:00.142436 10207 net.cpp:165] Memory required for data: 438000076
I0413 17:28:00.142453 10207 layer_factory.hpp:77] Creating layer relu1_1
I0413 17:28:00.142468 10207 net.cpp:100] Creating Layer relu1_1
I0413 17:28:00.142477 10207 net.cpp:434] relu1_1 <- conv1_1
I0413 17:28:00.142487 10207 net.cpp:395] relu1_1 -> conv1_1 (in-place)
I0413 17:28:00.142503 10207 net.cpp:150] Setting up relu1_1
I0413 17:28:00.142510 10207 net.cpp:157] Top shape: 1 64 1000 1500 (96000000)
I0413 17:28:00.142516 10207 net.cpp:165] Memory required for data: 822000076
I0413 17:28:00.142523 10207 layer_factory.hpp:77] Creating layer conv1_2
I0413 17:28:00.142539 10207 net.cpp:100] Creating Layer conv1_2
I0413 17:28:00.142544 10207 net.cpp:434] conv1_2 <- conv1_1
I0413 17:28:00.142550 10207 net.cpp:408] conv1_2 -> conv1_2
I0413 17:28:00.145689 10207 net.cpp:150] Setting up conv1_2
I0413 17:28:00.145725 10207 net.cpp:157] Top shape: 1 64 1000 1500 (96000000)
I0413 17:28:00.145730 10207 net.cpp:165] Memory required for data: 1206000076
I0413 17:28:00.145747 10207 layer_factory.hpp:77] Creating layer relu1_2
I0413 17:28:00.145759 10207 net.cpp:100] Creating Layer relu1_2
I0413 17:28:00.145766 10207 net.cpp:434] relu1_2 <- conv1_2
I0413 17:28:00.145779 10207 net.cpp:395] relu1_2 -> conv1_2 (in-place)
I0413 17:28:00.145794 10207 net.cpp:150] Setting up relu1_2
I0413 17:28:00.145802 10207 net.cpp:157] Top shape: 1 64 1000 1500 (96000000)
I0413 17:28:00.145808 10207 net.cpp:165] Memory required for data: 1590000076
I0413 17:28:00.145814 10207 layer_factory.hpp:77] Creating layer pool1
I0413 17:28:00.145828 10207 net.cpp:100] Creating Layer pool1
I0413 17:28:00.145833 10207 net.cpp:434] pool1 <- conv1_2
I0413 17:28:00.145840 10207 net.cpp:408] pool1 -> pool1
I0413 17:28:00.145917 10207 net.cpp:150] Setting up pool1
I0413 17:28:00.145926 10207 net.cpp:157] Top shape: 1 64 500 750 (24000000)
I0413 17:28:00.145931 10207 net.cpp:165] Memory required for data: 1686000076
I0413 17:28:00.145936 10207 layer_factory.hpp:77] Creating layer conv2_1
I0413 17:28:00.145953 10207 net.cpp:100] Creating Layer conv2_1
I0413 17:28:00.145959 10207 net.cpp:434] conv2_1 <- pool1
I0413 17:28:00.145972 10207 net.cpp:408] conv2_1 -> conv2_1
I0413 17:28:00.147248 10207 net.cpp:150] Setting up conv2_1
I0413 17:28:00.147266 10207 net.cpp:157] Top shape: 1 128 500 750 (48000000)
I0413 17:28:00.147269 10207 net.cpp:165] Memory required for data: 1878000076
I0413 17:28:00.147290 10207 layer_factory.hpp:77] Creating layer relu2_1
I0413 17:28:00.147299 10207 net.cpp:100] Creating Layer relu2_1
I0413 17:28:00.147305 10207 net.cpp:434] relu2_1 <- conv2_1
I0413 17:28:00.147312 10207 net.cpp:395] relu2_1 -> conv2_1 (in-place)
I0413 17:28:00.147323 10207 net.cpp:150] Setting up relu2_1
I0413 17:28:00.147328 10207 net.cpp:157] Top shape: 1 128 500 750 (48000000)
I0413 17:28:00.147331 10207 net.cpp:165] Memory required for data: 2070000076
I0413 17:28:00.147337 10207 layer_factory.hpp:77] Creating layer conv2_2
I0413 17:28:00.147349 10207 net.cpp:100] Creating Layer conv2_2
I0413 17:28:00.147356 10207 net.cpp:434] conv2_2 <- conv2_1
I0413 17:28:00.147369 10207 net.cpp:408] conv2_2 -> conv2_2
I0413 17:28:00.148321 10207 net.cpp:150] Setting up conv2_2
I0413 17:28:00.148341 10207 net.cpp:157] Top shape: 1 128 500 750 (48000000)
I0413 17:28:00.148344 10207 net.cpp:165] Memory required for data: 2262000076
I0413 17:28:00.148362 10207 layer_factory.hpp:77] Creating layer relu2_2
I0413 17:28:00.148370 10207 net.cpp:100] Creating Layer relu2_2
I0413 17:28:00.148375 10207 net.cpp:434] relu2_2 <- conv2_2
I0413 17:28:00.148383 10207 net.cpp:395] relu2_2 -> conv2_2 (in-place)
I0413 17:28:00.148394 10207 net.cpp:150] Setting up relu2_2
I0413 17:28:00.148401 10207 net.cpp:157] Top shape: 1 128 500 750 (48000000)
I0413 17:28:00.148404 10207 net.cpp:165] Memory required for data: 2454000076
I0413 17:28:00.148411 10207 layer_factory.hpp:77] Creating layer pool2
I0413 17:28:00.148422 10207 net.cpp:100] Creating Layer pool2
I0413 17:28:00.148427 10207 net.cpp:434] pool2 <- conv2_2
I0413 17:28:00.148432 10207 net.cpp:408] pool2 -> pool2
I0413 17:28:00.148481 10207 net.cpp:150] Setting up pool2
I0413 17:28:00.148488 10207 net.cpp:157] Top shape: 1 128 250 375 (12000000)
I0413 17:28:00.148493 10207 net.cpp:165] Memory required for data: 2502000076
I0413 17:28:00.148499 10207 layer_factory.hpp:77] Creating layer conv3_1
I0413 17:28:00.148511 10207 net.cpp:100] Creating Layer conv3_1
I0413 17:28:00.148516 10207 net.cpp:434] conv3_1 <- pool2
I0413 17:28:00.148524 10207 net.cpp:408] conv3_1 -> conv3_1
I0413 17:28:00.149631 10207 net.cpp:150] Setting up conv3_1
I0413 17:28:00.149655 10207 net.cpp:157] Top shape: 1 256 250 375 (24000000)
I0413 17:28:00.149660 10207 net.cpp:165] Memory required for data: 2598000076
I0413 17:28:00.149677 10207 layer_factory.hpp:77] Creating layer relu3_1
I0413 17:28:00.149688 10207 net.cpp:100] Creating Layer relu3_1
I0413 17:28:00.149695 10207 net.cpp:434] relu3_1 <- conv3_1
I0413 17:28:00.149708 10207 net.cpp:395] relu3_1 -> conv3_1 (in-place)
I0413 17:28:00.149721 10207 net.cpp:150] Setting up relu3_1
I0413 17:28:00.149731 10207 net.cpp:157] Top shape: 1 256 250 375 (24000000)
I0413 17:28:00.149737 10207 net.cpp:165] Memory required for data: 2694000076
I0413 17:28:00.149744 10207 layer_factory.hpp:77] Creating layer conv3_2
I0413 17:28:00.149758 10207 net.cpp:100] Creating Layer conv3_2
I0413 17:28:00.149765 10207 net.cpp:434] conv3_2 <- conv3_1
I0413 17:28:00.149775 10207 net.cpp:408] conv3_2 -> conv3_2
I0413 17:28:00.150995 10207 net.cpp:150] Setting up conv3_2
I0413 17:28:00.151021 10207 net.cpp:157] Top shape: 1 256 250 375 (24000000)
I0413 17:28:00.151026 10207 net.cpp:165] Memory required for data: 2790000076
I0413 17:28:00.151041 10207 layer_factory.hpp:77] Creating layer relu3_2
I0413 17:28:00.151058 10207 net.cpp:100] Creating Layer relu3_2
I0413 17:28:00.151067 10207 net.cpp:434] relu3_2 <- conv3_2
I0413 17:28:00.151078 10207 net.cpp:395] relu3_2 -> conv3_2 (in-place)
I0413 17:28:00.151090 10207 net.cpp:150] Setting up relu3_2
I0413 17:28:00.151100 10207 net.cpp:157] Top shape: 1 256 250 375 (24000000)
I0413 17:28:00.151106 10207 net.cpp:165] Memory required for data: 2886000076
I0413 17:28:00.151113 10207 layer_factory.hpp:77] Creating layer conv3_3
I0413 17:28:00.151126 10207 net.cpp:100] Creating Layer conv3_3
I0413 17:28:00.151134 10207 net.cpp:434] conv3_3 <- conv3_2
I0413 17:28:00.151144 10207 net.cpp:408] conv3_3 -> conv3_3
I0413 17:28:00.152763 10207 net.cpp:150] Setting up conv3_3
I0413 17:28:00.152794 10207 net.cpp:157] Top shape: 1 256 250 375 (24000000)
I0413 17:28:00.152801 10207 net.cpp:165] Memory required for data: 2982000076
I0413 17:28:00.152822 10207 layer_factory.hpp:77] Creating layer relu3_3
I0413 17:28:00.152837 10207 net.cpp:100] Creating Layer relu3_3
I0413 17:28:00.152845 10207 net.cpp:434] relu3_3 <- conv3_3
I0413 17:28:00.152859 10207 net.cpp:395] relu3_3 -> conv3_3 (in-place)
I0413 17:28:00.152875 10207 net.cpp:150] Setting up relu3_3
I0413 17:28:00.152885 10207 net.cpp:157] Top shape: 1 256 250 375 (24000000)
I0413 17:28:00.152891 10207 net.cpp:165] Memory required for data: 3078000076
I0413 17:28:00.152899 10207 layer_factory.hpp:77] Creating layer pool3
I0413 17:28:00.152918 10207 net.cpp:100] Creating Layer pool3
I0413 17:28:00.152925 10207 net.cpp:434] pool3 <- conv3_3
I0413 17:28:00.152935 10207 net.cpp:408] pool3 -> pool3
I0413 17:28:00.152990 10207 net.cpp:150] Setting up pool3
I0413 17:28:00.153000 10207 net.cpp:157] Top shape: 1 256 125 188 (6016000)
I0413 17:28:00.153007 10207 net.cpp:165] Memory required for data: 3102064076
I0413 17:28:00.153012 10207 layer_factory.hpp:77] Creating layer conv4_1
I0413 17:28:00.153028 10207 net.cpp:100] Creating Layer conv4_1
I0413 17:28:00.153034 10207 net.cpp:434] conv4_1 <- pool3
I0413 17:28:00.153046 10207 net.cpp:408] conv4_1 -> conv4_1
I0413 17:28:00.155733 10207 net.cpp:150] Setting up conv4_1
I0413 17:28:00.155766 10207 net.cpp:157] Top shape: 1 512 125 188 (12032000)
I0413 17:28:00.155771 10207 net.cpp:165] Memory required for data: 3150192076
I0413 17:28:00.155786 10207 layer_factory.hpp:77] Creating layer relu4_1
I0413 17:28:00.155798 10207 net.cpp:100] Creating Layer relu4_1
I0413 17:28:00.155808 10207 net.cpp:434] relu4_1 <- conv4_1
I0413 17:28:00.155822 10207 net.cpp:395] relu4_1 -> conv4_1 (in-place)
I0413 17:28:00.155838 10207 net.cpp:150] Setting up relu4_1
I0413 17:28:00.155848 10207 net.cpp:157] Top shape: 1 512 125 188 (12032000)
I0413 17:28:00.155854 10207 net.cpp:165] Memory required for data: 3198320076
I0413 17:28:00.155859 10207 layer_factory.hpp:77] Creating layer conv4_2
I0413 17:28:00.155874 10207 net.cpp:100] Creating Layer conv4_2
I0413 17:28:00.155880 10207 net.cpp:434] conv4_2 <- conv4_1
I0413 17:28:00.155892 10207 net.cpp:408] conv4_2 -> conv4_2
I0413 17:28:00.160156 10207 net.cpp:150] Setting up conv4_2
I0413 17:28:00.160190 10207 net.cpp:157] Top shape: 1 512 125 188 (12032000)
I0413 17:28:00.160197 10207 net.cpp:165] Memory required for data: 3246448076
I0413 17:28:00.160218 10207 layer_factory.hpp:77] Creating layer relu4_2
I0413 17:28:00.160236 10207 net.cpp:100] Creating Layer relu4_2
I0413 17:28:00.160248 10207 net.cpp:434] relu4_2 <- conv4_2
I0413 17:28:00.160259 10207 net.cpp:395] relu4_2 -> conv4_2 (in-place)
I0413 17:28:00.160275 10207 net.cpp:150] Setting up relu4_2
I0413 17:28:00.160285 10207 net.cpp:157] Top shape: 1 512 125 188 (12032000)
I0413 17:28:00.160292 10207 net.cpp:165] Memory required for data: 3294576076
I0413 17:28:00.160300 10207 layer_factory.hpp:77] Creating layer conv4_3
I0413 17:28:00.160316 10207 net.cpp:100] Creating Layer conv4_3
I0413 17:28:00.160323 10207 net.cpp:434] conv4_3 <- conv4_2
I0413 17:28:00.160333 10207 net.cpp:408] conv4_3 -> conv4_3
I0413 17:28:00.164505 10207 net.cpp:150] Setting up conv4_3
I0413 17:28:00.164543 10207 net.cpp:157] Top shape: 1 512 125 188 (12032000)
I0413 17:28:00.164548 10207 net.cpp:165] Memory required for data: 3342704076
I0413 17:28:00.164562 10207 layer_factory.hpp:77] Creating layer relu4_3
I0413 17:28:00.164584 10207 net.cpp:100] Creating Layer relu4_3
I0413 17:28:00.164594 10207 net.cpp:434] relu4_3 <- conv4_3
I0413 17:28:00.164610 10207 net.cpp:395] relu4_3 -> conv4_3 (in-place)
I0413 17:28:00.164625 10207 net.cpp:150] Setting up relu4_3
I0413 17:28:00.164635 10207 net.cpp:157] Top shape: 1 512 125 188 (12032000)
I0413 17:28:00.164643 10207 net.cpp:165] Memory required for data: 3390832076
I0413 17:28:00.164649 10207 layer_factory.hpp:77] Creating layer pool4
I0413 17:28:00.164659 10207 net.cpp:100] Creating Layer pool4
I0413 17:28:00.164666 10207 net.cpp:434] pool4 <- conv4_3
I0413 17:28:00.164676 10207 net.cpp:408] pool4 -> pool4
I0413 17:28:00.164721 10207 net.cpp:150] Setting up pool4
I0413 17:28:00.164731 10207 net.cpp:157] Top shape: 1 512 63 94 (3032064)
I0413 17:28:00.164737 10207 net.cpp:165] Memory required for data: 3402960332
I0413 17:28:00.164746 10207 layer_factory.hpp:77] Creating layer conv5_1
I0413 17:28:00.164764 10207 net.cpp:100] Creating Layer conv5_1
I0413 17:28:00.164772 10207 net.cpp:434] conv5_1 <- pool4
I0413 17:28:00.164783 10207 net.cpp:408] conv5_1 -> conv5_1
I0413 17:28:00.169414 10207 net.cpp:150] Setting up conv5_1
I0413 17:28:00.169451 10207 net.cpp:157] Top shape: 1 512 63 94 (3032064)
I0413 17:28:00.169456 10207 net.cpp:165] Memory required for data: 3415088588
I0413 17:28:00.169472 10207 layer_factory.hpp:77] Creating layer relu5_1
I0413 17:28:00.169489 10207 net.cpp:100] Creating Layer relu5_1
I0413 17:28:00.169499 10207 net.cpp:434] relu5_1 <- conv5_1
I0413 17:28:00.169512 10207 net.cpp:395] relu5_1 -> conv5_1 (in-place)
I0413 17:28:00.169528 10207 net.cpp:150] Setting up relu5_1
I0413 17:28:00.169538 10207 net.cpp:157] Top shape: 1 512 63 94 (3032064)
I0413 17:28:00.169545 10207 net.cpp:165] Memory required for data: 3427216844
I0413 17:28:00.169551 10207 layer_factory.hpp:77] Creating layer conv5_2
I0413 17:28:00.169566 10207 net.cpp:100] Creating Layer conv5_2
I0413 17:28:00.169574 10207 net.cpp:434] conv5_2 <- conv5_1
I0413 17:28:00.169585 10207 net.cpp:408] conv5_2 -> conv5_2
I0413 17:28:00.173939 10207 net.cpp:150] Setting up conv5_2
I0413 17:28:00.173974 10207 net.cpp:157] Top shape: 1 512 63 94 (3032064)
I0413 17:28:00.173979 10207 net.cpp:165] Memory required for data: 3439345100
I0413 17:28:00.174002 10207 layer_factory.hpp:77] Creating layer relu5_2
I0413 17:28:00.174018 10207 net.cpp:100] Creating Layer relu5_2
I0413 17:28:00.174031 10207 net.cpp:434] relu5_2 <- conv5_2
I0413 17:28:00.174044 10207 net.cpp:395] relu5_2 -> conv5_2 (in-place)
I0413 17:28:00.174059 10207 net.cpp:150] Setting up relu5_2
I0413 17:28:00.174069 10207 net.cpp:157] Top shape: 1 512 63 94 (3032064)
I0413 17:28:00.174077 10207 net.cpp:165] Memory required for data: 3451473356
I0413 17:28:00.174083 10207 layer_factory.hpp:77] Creating layer conv5_3
I0413 17:28:00.174100 10207 net.cpp:100] Creating Layer conv5_3
I0413 17:28:00.174108 10207 net.cpp:434] conv5_3 <- conv5_2
I0413 17:28:00.174119 10207 net.cpp:408] conv5_3 -> conv5_3
I0413 17:28:00.178591 10207 net.cpp:150] Setting up conv5_3
I0413 17:28:00.178627 10207 net.cpp:157] Top shape: 1 512 63 94 (3032064)
I0413 17:28:00.178632 10207 net.cpp:165] Memory required for data: 3463601612
I0413 17:28:00.178647 10207 layer_factory.hpp:77] Creating layer relu5_3
I0413 17:28:00.178670 10207 net.cpp:100] Creating Layer relu5_3
I0413 17:28:00.178680 10207 net.cpp:434] relu5_3 <- conv5_3
I0413 17:28:00.178692 10207 net.cpp:395] relu5_3 -> conv5_3 (in-place)
I0413 17:28:00.178716 10207 net.cpp:150] Setting up relu5_3
I0413 17:28:00.178727 10207 net.cpp:157] Top shape: 1 512 63 94 (3032064)
I0413 17:28:00.178733 10207 net.cpp:165] Memory required for data: 3475729868
I0413 17:28:00.178740 10207 layer_factory.hpp:77] Creating layer rpn_big_conv1
I0413 17:28:00.178757 10207 net.cpp:100] Creating Layer rpn_big_conv1
I0413 17:28:00.178766 10207 net.cpp:434] rpn_big_conv1 <- conv5_3
I0413 17:28:00.178777 10207 net.cpp:408] rpn_big_conv1 -> rpn_big_conv1
I0413 17:28:00.203806 10207 net.cpp:150] Setting up rpn_big_conv1
I0413 17:28:00.203840 10207 net.cpp:157] Top shape: 1 512 63 94 (3032064)
I0413 17:28:00.203846 10207 net.cpp:165] Memory required for data: 3487858124
I0413 17:28:00.203868 10207 layer_factory.hpp:77] Creating layer rpn_big_conv1_relu
I0413 17:28:00.203886 10207 net.cpp:100] Creating Layer rpn_big_conv1_relu
I0413 17:28:00.203897 10207 net.cpp:434] rpn_big_conv1_relu <- rpn_big_conv1
I0413 17:28:00.203912 10207 net.cpp:395] rpn_big_conv1_relu -> rpn_big_conv1 (in-place)
I0413 17:28:00.203927 10207 net.cpp:150] Setting up rpn_big_conv1_relu
I0413 17:28:00.203936 10207 net.cpp:157] Top shape: 1 512 63 94 (3032064)
I0413 17:28:00.203943 10207 net.cpp:165] Memory required for data: 3499986380
I0413 17:28:00.203951 10207 layer_factory.hpp:77] Creating layer rpn_big_conv2
I0413 17:28:00.203966 10207 net.cpp:100] Creating Layer rpn_big_conv2
I0413 17:28:00.203974 10207 net.cpp:434] rpn_big_conv2 <- rpn_big_conv1
I0413 17:28:00.203986 10207 net.cpp:408] rpn_big_conv2 -> rpn_big_conv2
I0413 17:28:00.229503 10207 net.cpp:150] Setting up rpn_big_conv2
I0413 17:28:00.229535 10207 net.cpp:157] Top shape: 1 512 63 94 (3032064)
I0413 17:28:00.229542 10207 net.cpp:165] Memory required for data: 3512114636
I0413 17:28:00.229563 10207 layer_factory.hpp:77] Creating layer rpn_big_conv2_relu
I0413 17:28:00.229580 10207 net.cpp:100] Creating Layer rpn_big_conv2_relu
I0413 17:28:00.229589 10207 net.cpp:434] rpn_big_conv2_relu <- rpn_big_conv2
I0413 17:28:00.229601 10207 net.cpp:395] rpn_big_conv2_relu -> rpn_big_conv2 (in-place)
I0413 17:28:00.229619 10207 net.cpp:150] Setting up rpn_big_conv2_relu
I0413 17:28:00.229627 10207 net.cpp:157] Top shape: 1 512 63 94 (3032064)
I0413 17:28:00.229635 10207 net.cpp:165] Memory required for data: 3524242892
I0413 17:28:00.229641 10207 layer_factory.hpp:77] Creating layer rpn_big_conv2_drop
I0413 17:28:00.229655 10207 net.cpp:100] Creating Layer rpn_big_conv2_drop
I0413 17:28:00.229662 10207 net.cpp:434] rpn_big_conv2_drop <- rpn_big_conv2
I0413 17:28:00.229671 10207 net.cpp:395] rpn_big_conv2_drop -> rpn_big_conv2 (in-place)
I0413 17:28:00.229701 10207 net.cpp:150] Setting up rpn_big_conv2_drop
I0413 17:28:00.229713 10207 net.cpp:157] Top shape: 1 512 63 94 (3032064)
I0413 17:28:00.229720 10207 net.cpp:165] Memory required for data: 3536371148
I0413 17:28:00.229727 10207 layer_factory.hpp:77] Creating layer rpn_big_conv2_rpn_big_conv2_drop_0_split
I0413 17:28:00.229737 10207 net.cpp:100] Creating Layer rpn_big_conv2_rpn_big_conv2_drop_0_split
I0413 17:28:00.229744 10207 net.cpp:434] rpn_big_conv2_rpn_big_conv2_drop_0_split <- rpn_big_conv2
I0413 17:28:00.229756 10207 net.cpp:408] rpn_big_conv2_rpn_big_conv2_drop_0_split -> rpn_big_conv2_rpn_big_conv2_drop_0_split_0
I0413 17:28:00.229769 10207 net.cpp:408] rpn_big_conv2_rpn_big_conv2_drop_0_split -> rpn_big_conv2_rpn_big_conv2_drop_0_split_1
I0413 17:28:00.229809 10207 net.cpp:150] Setting up rpn_big_conv2_rpn_big_conv2_drop_0_split
I0413 17:28:00.229820 10207 net.cpp:157] Top shape: 1 512 63 94 (3032064)
I0413 17:28:00.229830 10207 net.cpp:157] Top shape: 1 512 63 94 (3032064)
I0413 17:28:00.229838 10207 net.cpp:165] Memory required for data: 3560627660
I0413 17:28:00.229845 10207 layer_factory.hpp:77] Creating layer rpn_big_output_cls
I0413 17:28:00.229862 10207 net.cpp:100] Creating Layer rpn_big_output_cls
I0413 17:28:00.229869 10207 net.cpp:434] rpn_big_output_cls <- rpn_big_conv2_rpn_big_conv2_drop_0_split_0
I0413 17:28:00.229882 10207 net.cpp:408] rpn_big_output_cls -> rpn_big_output_cls
I0413 17:28:00.249035 10207 net.cpp:150] Setting up rpn_big_output_cls
I0413 17:28:00.249068 10207 net.cpp:157] Top shape: 1 384 63 94 (2274048)
I0413 17:28:00.249074 10207 net.cpp:165] Memory required for data: 3569723852
I0413 17:28:00.249096 10207 layer_factory.hpp:77] Creating layer rpn_big_output_cls_relu
I0413 17:28:00.249114 10207 net.cpp:100] Creating Layer rpn_big_output_cls_relu
I0413 17:28:00.249122 10207 net.cpp:434] rpn_big_output_cls_relu <- rpn_big_output_cls
I0413 17:28:00.249137 10207 net.cpp:395] rpn_big_output_cls_relu -> rpn_big_output_cls (in-place)
I0413 17:28:00.249153 10207 net.cpp:150] Setting up rpn_big_output_cls_relu
I0413 17:28:00.249163 10207 net.cpp:157] Top shape: 1 384 63 94 (2274048)
I0413 17:28:00.249171 10207 net.cpp:165] Memory required for data: 3578820044
I0413 17:28:00.249177 10207 layer_factory.hpp:77] Creating layer rpn_big_cls_score
I0413 17:28:00.249195 10207 net.cpp:100] Creating Layer rpn_big_cls_score
I0413 17:28:00.249202 10207 net.cpp:434] rpn_big_cls_score <- rpn_big_output_cls
I0413 17:28:00.249215 10207 net.cpp:408] rpn_big_cls_score -> rpn_big_cls_score
I0413 17:28:00.251520 10207 net.cpp:150] Setting up rpn_big_cls_score
I0413 17:28:00.251534 10207 net.cpp:157] Top shape: 1 52 61 92 (291824)
I0413 17:28:00.251540 10207 net.cpp:165] Memory required for data: 3579987340
I0413 17:28:00.251562 10207 layer_factory.hpp:77] Creating layer rpn_big_cls_score_rpn_big_cls_score_0_split
I0413 17:28:00.251574 10207 net.cpp:100] Creating Layer rpn_big_cls_score_rpn_big_cls_score_0_split
I0413 17:28:00.251582 10207 net.cpp:434] rpn_big_cls_score_rpn_big_cls_score_0_split <- rpn_big_cls_score
I0413 17:28:00.251597 10207 net.cpp:408] rpn_big_cls_score_rpn_big_cls_score_0_split -> rpn_big_cls_score_rpn_big_cls_score_0_split_0
I0413 17:28:00.251610 10207 net.cpp:408] rpn_big_cls_score_rpn_big_cls_score_0_split -> rpn_big_cls_score_rpn_big_cls_score_0_split_1
I0413 17:28:00.251657 10207 net.cpp:150] Setting up rpn_big_cls_score_rpn_big_cls_score_0_split
I0413 17:28:00.251667 10207 net.cpp:157] Top shape: 1 52 61 92 (291824)
I0413 17:28:00.251675 10207 net.cpp:157] Top shape: 1 52 61 92 (291824)
I0413 17:28:00.251682 10207 net.cpp:165] Memory required for data: 3582321932
I0413 17:28:00.251689 10207 layer_factory.hpp:77] Creating layer rpn_big_cls_score_reshape
I0413 17:28:00.251704 10207 net.cpp:100] Creating Layer rpn_big_cls_score_reshape
I0413 17:28:00.251711 10207 net.cpp:434] rpn_big_cls_score_reshape <- rpn_big_cls_score_rpn_big_cls_score_0_split_0
I0413 17:28:00.251723 10207 net.cpp:408] rpn_big_cls_score_reshape -> rpn_big_cls_score_reshape
I0413 17:28:00.251754 10207 net.cpp:150] Setting up rpn_big_cls_score_reshape
I0413 17:28:00.251765 10207 net.cpp:157] Top shape: 1 2 1586 92 (291824)
I0413 17:28:00.251771 10207 net.cpp:165] Memory required for data: 3583489228
I0413 17:28:00.251780 10207 layer_factory.hpp:77] Creating layer rpn_big_cls_score_reshape_rpn_big_cls_score_reshape_0_split
I0413 17:28:00.251793 10207 net.cpp:100] Creating Layer rpn_big_cls_score_reshape_rpn_big_cls_score_reshape_0_split
I0413 17:28:00.251801 10207 net.cpp:434] rpn_big_cls_score_reshape_rpn_big_cls_score_reshape_0_split <- rpn_big_cls_score_reshape
I0413 17:28:00.251811 10207 net.cpp:408] rpn_big_cls_score_reshape_rpn_big_cls_score_reshape_0_split -> rpn_big_cls_score_reshape_rpn_big_cls_score_reshape_0_split_0
I0413 17:28:00.251826 10207 net.cpp:408] rpn_big_cls_score_reshape_rpn_big_cls_score_reshape_0_split -> rpn_big_cls_score_reshape_rpn_big_cls_score_reshape_0_split_1
I0413 17:28:00.251864 10207 net.cpp:150] Setting up rpn_big_cls_score_reshape_rpn_big_cls_score_reshape_0_split
I0413 17:28:00.251873 10207 net.cpp:157] Top shape: 1 2 1586 92 (291824)
I0413 17:28:00.251881 10207 net.cpp:157] Top shape: 1 2 1586 92 (291824)
I0413 17:28:00.251888 10207 net.cpp:165] Memory required for data: 3585823820
I0413 17:28:00.251895 10207 layer_factory.hpp:77] Creating layer rpn_big_cls_prob
I0413 17:28:00.251909 10207 net.cpp:100] Creating Layer rpn_big_cls_prob
I0413 17:28:00.251915 10207 net.cpp:434] rpn_big_cls_prob <- rpn_big_cls_score_reshape_rpn_big_cls_score_reshape_0_split_0
I0413 17:28:00.251925 10207 net.cpp:408] rpn_big_cls_prob -> rpn_big_cls_prob
I0413 17:28:00.251984 10207 net.cpp:150] Setting up rpn_big_cls_prob
I0413 17:28:00.251994 10207 net.cpp:157] Top shape: 1 2 1586 92 (291824)
I0413 17:28:00.252001 10207 net.cpp:165] Memory required for data: 3586991116
I0413 17:28:00.252008 10207 layer_factory.hpp:77] Creating layer rpn_big_cls_prob_reshape
I0413 17:28:00.252019 10207 net.cpp:100] Creating Layer rpn_big_cls_prob_reshape
I0413 17:28:00.252027 10207 net.cpp:434] rpn_big_cls_prob_reshape <- rpn_big_cls_prob
I0413 17:28:00.252039 10207 net.cpp:408] rpn_big_cls_prob_reshape -> rpn_big_cls_prob_reshape
I0413 17:28:00.252068 10207 net.cpp:150] Setting up rpn_big_cls_prob_reshape
I0413 17:28:00.252076 10207 net.cpp:157] Top shape: 1 52 61 92 (291824)
I0413 17:28:00.252082 10207 net.cpp:165] Memory required for data: 3588158412
I0413 17:28:00.252090 10207 layer_factory.hpp:77] Creating layer rpn_big_cls_prob_reshape_rpn_big_cls_prob_reshape_0_split
I0413 17:28:00.252101 10207 net.cpp:100] Creating Layer rpn_big_cls_prob_reshape_rpn_big_cls_prob_reshape_0_split
I0413 17:28:00.252110 10207 net.cpp:434] rpn_big_cls_prob_reshape_rpn_big_cls_prob_reshape_0_split <- rpn_big_cls_prob_reshape
I0413 17:28:00.252121 10207 net.cpp:408] rpn_big_cls_prob_reshape_rpn_big_cls_prob_reshape_0_split -> rpn_big_cls_prob_reshape_rpn_big_cls_prob_reshape_0_split_0
I0413 17:28:00.252135 10207 net.cpp:408] rpn_big_cls_prob_reshape_rpn_big_cls_prob_reshape_0_split -> rpn_big_cls_prob_reshape_rpn_big_cls_prob_reshape_0_split_1
I0413 17:28:00.252171 10207 net.cpp:150] Setting up rpn_big_cls_prob_reshape_rpn_big_cls_prob_reshape_0_split
I0413 17:28:00.252180 10207 net.cpp:157] Top shape: 1 52 61 92 (291824)
I0413 17:28:00.252188 10207 net.cpp:157] Top shape: 1 52 61 92 (291824)
I0413 17:28:00.252195 10207 net.cpp:165] Memory required for data: 3590493004
I0413 17:28:00.252202 10207 layer_factory.hpp:77] Creating layer rpn_big_anchor_target
I0413 17:28:00.253551 10207 net.cpp:100] Creating Layer rpn_big_anchor_target
I0413 17:28:00.253566 10207 net.cpp:434] rpn_big_anchor_target <- rpn_big_cls_score_rpn_big_cls_score_0_split_1
I0413 17:28:00.253576 10207 net.cpp:434] rpn_big_anchor_target <- input_gt_boxes
I0413 17:28:00.253584 10207 net.cpp:434] rpn_big_anchor_target <- input_ignored_boxes
I0413 17:28:00.253592 10207 net.cpp:434] rpn_big_anchor_target <- input_im_info_input_1_split_0
I0413 17:28:00.253602 10207 net.cpp:434] rpn_big_anchor_target <- input_data_input_0_split_1
I0413 17:28:00.253610 10207 net.cpp:434] rpn_big_anchor_target <- rpn_big_cls_prob_reshape_rpn_big_cls_prob_reshape_0_split_0
I0413 17:28:00.253625 10207 net.cpp:408] rpn_big_anchor_target -> rpn_big_anchor_target_labels
I0413 17:28:00.253643 10207 net.cpp:408] rpn_big_anchor_target -> rpn_big_anchor_target_bbox_targets
I0413 17:28:00.253657 10207 net.cpp:408] rpn_big_anchor_target -> rpn_big_anchor_target_inside_weights
I0413 17:28:00.253672 10207 net.cpp:408] rpn_big_anchor_target -> rpn_big_anchor_target_outside_weights
I0413 17:28:00.258563 10207 net.cpp:150] Setting up rpn_big_anchor_target
I0413 17:28:00.258592 10207 net.cpp:157] Top shape: 1 1 1586 92 (145912)
I0413 17:28:00.258600 10207 net.cpp:157] Top shape: 1 104 61 92 (583648)
I0413 17:28:00.258607 10207 net.cpp:157] Top shape: 1 104 61 92 (583648)
I0413 17:28:00.258615 10207 net.cpp:157] Top shape: 1 104 61 92 (583648)
I0413 17:28:00.258620 10207 net.cpp:165] Memory required for data: 3598080428
I0413 17:28:00.258628 10207 layer_factory.hpp:77] Creating layer rpn_big_loss_cls
I0413 17:28:00.258651 10207 net.cpp:100] Creating Layer rpn_big_loss_cls
I0413 17:28:00.258661 10207 net.cpp:434] rpn_big_loss_cls <- rpn_big_cls_score_reshape_rpn_big_cls_score_reshape_0_split_1
I0413 17:28:00.258673 10207 net.cpp:434] rpn_big_loss_cls <- rpn_big_anchor_target_labels
I0413 17:28:00.258685 10207 net.cpp:408] rpn_big_loss_cls -> rpn_big_loss_cls
I0413 17:28:00.258704 10207 layer_factory.hpp:77] Creating layer rpn_big_loss_cls
I0413 17:28:00.259323 10207 net.cpp:150] Setting up rpn_big_loss_cls
I0413 17:28:00.259340 10207 net.cpp:157] Top shape: (1)
I0413 17:28:00.259346 10207 net.cpp:160]     with loss weight 1
I0413 17:28:00.259361 10207 net.cpp:165] Memory required for data: 3598080432
I0413 17:28:00.259368 10207 layer_factory.hpp:77] Creating layer rpn_big_output_box
I0413 17:28:00.259389 10207 net.cpp:100] Creating Layer rpn_big_output_box
I0413 17:28:00.259397 10207 net.cpp:434] rpn_big_output_box <- rpn_big_conv2_rpn_big_conv2_drop_0_split_1
I0413 17:28:00.259409 10207 net.cpp:408] rpn_big_output_box -> rpn_big_output_box
I0413 17:28:00.278645 10207 net.cpp:150] Setting up rpn_big_output_box
I0413 17:28:00.278678 10207 net.cpp:157] Top shape: 1 384 63 94 (2274048)
I0413 17:28:00.278686 10207 net.cpp:165] Memory required for data: 3607176624
I0413 17:28:00.278700 10207 layer_factory.hpp:77] Creating layer rpn_big_output_box_relu
I0413 17:28:00.278724 10207 net.cpp:100] Creating Layer rpn_big_output_box_relu
I0413 17:28:00.278733 10207 net.cpp:434] rpn_big_output_box_relu <- rpn_big_output_box
I0413 17:28:00.278746 10207 net.cpp:395] rpn_big_output_box_relu -> rpn_big_output_box (in-place)
I0413 17:28:00.278764 10207 net.cpp:150] Setting up rpn_big_output_box_relu
I0413 17:28:00.278772 10207 net.cpp:157] Top shape: 1 384 63 94 (2274048)
I0413 17:28:00.278777 10207 net.cpp:165] Memory required for data: 3616272816
I0413 17:28:00.278784 10207 layer_factory.hpp:77] Creating layer rpn_big_bbox_pred
I0413 17:28:00.278806 10207 net.cpp:100] Creating Layer rpn_big_bbox_pred
I0413 17:28:00.278815 10207 net.cpp:434] rpn_big_bbox_pred <- rpn_big_output_box
I0413 17:28:00.278827 10207 net.cpp:408] rpn_big_bbox_pred -> rpn_big_bbox_pred
I0413 17:28:00.282984 10207 net.cpp:150] Setting up rpn_big_bbox_pred
I0413 17:28:00.283017 10207 net.cpp:157] Top shape: 1 104 61 92 (583648)
I0413 17:28:00.283025 10207 net.cpp:165] Memory required for data: 3618607408
I0413 17:28:00.283038 10207 layer_factory.hpp:77] Creating layer rpn_big_bbox_pred_rpn_big_bbox_pred_0_split
I0413 17:28:00.283058 10207 net.cpp:100] Creating Layer rpn_big_bbox_pred_rpn_big_bbox_pred_0_split
I0413 17:28:00.283069 10207 net.cpp:434] rpn_big_bbox_pred_rpn_big_bbox_pred_0_split <- rpn_big_bbox_pred
I0413 17:28:00.283084 10207 net.cpp:408] rpn_big_bbox_pred_rpn_big_bbox_pred_0_split -> rpn_big_bbox_pred_rpn_big_bbox_pred_0_split_0
I0413 17:28:00.283100 10207 net.cpp:408] rpn_big_bbox_pred_rpn_big_bbox_pred_0_split -> rpn_big_bbox_pred_rpn_big_bbox_pred_0_split_1
I0413 17:28:00.283143 10207 net.cpp:150] Setting up rpn_big_bbox_pred_rpn_big_bbox_pred_0_split
I0413 17:28:00.283152 10207 net.cpp:157] Top shape: 1 104 61 92 (583648)
I0413 17:28:00.283160 10207 net.cpp:157] Top shape: 1 104 61 92 (583648)
I0413 17:28:00.283167 10207 net.cpp:165] Memory required for data: 3623276592
I0413 17:28:00.283174 10207 layer_factory.hpp:77] Creating layer rpn_big_loss_bbox
I0413 17:28:00.283632 10207 net.cpp:100] Creating Layer rpn_big_loss_bbox
I0413 17:28:00.283660 10207 net.cpp:434] rpn_big_loss_bbox <- rpn_big_bbox_pred_rpn_big_bbox_pred_0_split_0
I0413 17:28:00.283670 10207 net.cpp:434] rpn_big_loss_bbox <- rpn_big_anchor_target_bbox_targets
I0413 17:28:00.283679 10207 net.cpp:434] rpn_big_loss_bbox <- rpn_big_anchor_target_inside_weights
I0413 17:28:00.283689 10207 net.cpp:434] rpn_big_loss_bbox <- rpn_big_anchor_target_outside_weights
I0413 17:28:00.283704 10207 net.cpp:408] rpn_big_loss_bbox -> rpn_big_loss_bbox
I0413 17:28:00.287266 10207 net.cpp:150] Setting up rpn_big_loss_bbox
I0413 17:28:00.287299 10207 net.cpp:157] Top shape: 1 (1)
I0413 17:28:00.287305 10207 net.cpp:160]     with loss weight 1
I0413 17:28:00.287328 10207 net.cpp:165] Memory required for data: 3623276596
I0413 17:28:00.287338 10207 layer_factory.hpp:77] Creating layer proposal
I0413 17:28:00.287744 10207 net.cpp:100] Creating Layer proposal
I0413 17:28:00.287755 10207 net.cpp:434] proposal <- rpn_big_cls_prob_reshape_rpn_big_cls_prob_reshape_0_split_1
I0413 17:28:00.287766 10207 net.cpp:434] proposal <- rpn_big_bbox_pred_rpn_big_bbox_pred_0_split_1
I0413 17:28:00.287784 10207 net.cpp:434] proposal <- input_im_info_input_1_split_1
I0413 17:28:00.287798 10207 net.cpp:408] proposal -> rpn_rois
I0413 17:28:00.292315 10207 net.cpp:150] Setting up proposal
I0413 17:28:00.292330 10207 net.cpp:157] Top shape: 1 5 (5)
I0413 17:28:00.292335 10207 net.cpp:165] Memory required for data: 3623276616
I0413 17:28:00.292351 10207 net.cpp:228] proposal does not need backward computation.
I0413 17:28:00.292359 10207 net.cpp:226] rpn_big_loss_bbox needs backward computation.
I0413 17:28:00.292369 10207 net.cpp:226] rpn_big_bbox_pred_rpn_big_bbox_pred_0_split needs backward computation.
I0413 17:28:00.292378 10207 net.cpp:226] rpn_big_bbox_pred needs backward computation.
…
