…
I0413 19:09:34.976343 15422 solver.cpp:48] Initializing solver from parameters: 
base_lr: 0.001
display: 20
lr_policy: "multistep"
gamma: 0.1
momentum: 0.9
weight_decay: 0.0005
snapshot: 0
snapshot_prefix: "faces_example"
net_param {
  name: "GeneratedModel_13_04_2017_19_09"
  layer {
    name: "input"
    type: "Python"
    top: "input_data"
    top: "input_im_info"
    top: "input_gt_boxes"
    top: "input_ignored_boxes"
    python_param {
      module: "layers.roi_data_layer"
      layer: "RoIDataLayer"
      param_str: "{\"num_classes\": 2}"
    }
  }
  layer {
    name: "conv1_1"
    type: "Convolution"
    bottom: "input_data"
    top: "conv1_1"
    param {
      lr_mult: 0
      decay_mult: 0
    }
    param {
      lr_mult: 0
      decay_mult: 0
    }
    convolution_param {
      num_output: 64
      pad: 1
      kernel_size: 3
    }
  }
  layer {
    name: "relu1_1"
    type: "ReLU"
    bottom: "conv1_1"
    top: "conv1_1"
  }
  layer {
    name: "conv1_2"
    type: "Convolution"
    bottom: "conv1_1"
    top: "conv1_2"
    param {
      lr_mult: 0
      decay_mult: 0
    }
    param {
      lr_mult: 0
      decay_mult: 0
    }
    convolution_param {
      num_output: 64
      pad: 1
      kernel_size: 3
    }
  }
  layer {
    name: "relu1_2"
    type: "ReLU"
    bottom: "conv1_2"
    top: "conv1_2"
  }
  layer {
    name: "pool1"
    type: "Pooling"
    bottom: "conv1_2"
    top: "pool1"
    pooling_param {
      pool: MAX
      kernel_size: 2
      stride: 2
    }
  }
  layer {
    name: "conv2_1"
    type: "Convolution"
    bottom: "pool1"
    top: "conv2_1"
    param {
      lr_mult: 0
      decay_mult: 0
    }
    param {
      lr_mult: 0
      decay_mult: 0
    }
    convolution_param {
      num_output: 128
      pad: 1
      kernel_size: 3
    }
  }
  layer {
    name: "relu2_1"
    type: "ReLU"
    bottom: "conv2_1"
    top: "conv2_1"
  }
  layer {
    name: "conv2_2"
    type: "Convolution"
    bottom: "conv2_1"
    top: "conv2_2"
    param {
      lr_mult: 0
      decay_mult: 0
    }
    param {
      lr_mult: 0
      decay_mult: 0
    }
    convolution_param {
      num_output: 128
      pad: 1
      kernel_size: 3
    }
  }
  layer {
    name: "relu2_2"
    type: "ReLU"
    bottom: "conv2_2"
    top: "conv2_2"
  }
  layer {
    name: "pool2"
    type: "Pooling"
    bottom: "conv2_2"
    top: "pool2"
    pooling_param {
      pool: MAX
      kernel_size: 2
      stride: 2
    }
  }
  layer {
    name: "conv3_1"
    type: "Convolution"
    bottom: "pool2"
    top: "conv3_1"
    param {
      lr_mult: 1
    }
    param {
      lr_mult: 2
    }
    convolution_param {
      num_output: 256
      pad: 1
      kernel_size: 3
    }
  }
  layer {
    name: "relu3_1"
    type: "ReLU"
    bottom: "conv3_1"
    top: "conv3_1"
  }
  layer {
    name: "conv3_2"
    type: "Convolution"
    bottom: "conv3_1"
    top: "conv3_2"
    param {
      lr_mult: 1
    }
    param {
      lr_mult: 2
    }
    convolution_param {
      num_output: 256
      pad: 1
      kernel_size: 3
    }
  }
  layer {
    name: "relu3_2"
    type: "ReLU"
    bottom: "conv3_2"
    top: "conv3_2"
  }
  layer {
    name: "conv3_3"
    type: "Convolution"
    bottom: "conv3_2"
    top: "conv3_3"
    param {
      lr_mult: 1
    }
    param {
      lr_mult: 2
    }
    convolution_param {
      num_output: 256
      pad: 1
      kernel_size: 3
    }
  }
  layer {
    name: "relu3_3"
    type: "ReLU"
    bottom: "conv3_3"
    top: "conv3_3"
  }
  layer {
    name: "pool3"
    type: "Pooling"
    bottom: "conv3_3"
    top: "pool3"
    pooling_param {
      pool: MAX
      kernel_size: 2
      stride: 2
    }
  }
  layer {
    name: "conv4_1"
    type: "Convolution"
    bottom: "pool3"
    top: "conv4_1"
    param {
      lr_mult: 1
    }
    param {
      lr_mult: 2
    }
    convolution_param {
      num_output: 512
      pad: 1
      kernel_size: 3
    }
  }
  layer {
    name: "relu4_1"
    type: "ReLU"
    bottom: "conv4_1"
    top: "conv4_1"
  }
  layer {
    name: "conv4_2"
    type: "Convolution"
    bottom: "conv4_1"
    top: "conv4_2"
    param {
      lr_mult: 1
    }
    param {
      lr_mult: 2
    }
    convolution_param {
      num_output: 512
      pad: 1
      kernel_size: 3
    }
  }
  layer {
    name: "relu4_2"
    type: "ReLU"
    bottom: "conv4_2"
    top: "conv4_2"
  }
  layer {
    name: "conv4_3"
    type: "Convolution"
    bottom: "conv4_2"
    top: "conv4_3"
    param {
      lr_mult: 1
    }
    param {
      lr_mult: 2
    }
    convolution_param {
      num_output: 512
      pad: 1
      kernel_size: 3
    }
  }
  layer {
    name: "relu4_3"
    type: "ReLU"
    bottom: "conv4_3"
    top: "conv4_3"
  }
  layer {
    name: "pool4"
    type: "Pooling"
    bottom: "conv4_3"
    top: "pool4"
    pooling_param {
      pool: MAX
      kernel_size: 2
      stride: 2
    }
  }
  layer {
    name: "conv5_1"
    type: "Convolution"
    bottom: "pool4"
    top: "conv5_1"
    param {
      lr_mult: 1
    }
    param {
      lr_mult: 2
    }
    convolution_param {
      num_output: 512
      pad: 1
      kernel_size: 3
    }
  }
  layer {
    name: "relu5_1"
    type: "ReLU"
    bottom: "conv5_1"
    top: "conv5_1"
  }
  layer {
    name: "conv5_2"
    type: "Convolution"
    bottom: "conv5_1"
    top: "conv5_2"
    param {
      lr_mult: 1
    }
    param {
      lr_mult: 2
    }
    convolution_param {
      num_output: 512
      pad: 1
      kernel_size: 3
    }
  }
  layer {
    name: "relu5_2"
    type: "ReLU"
    bottom: "conv5_2"
    top: "conv5_2"
  }
  layer {
    name: "conv5_3"
    type: "Convolution"
    bottom: "conv5_2"
    top: "conv5_3"
    param {
      lr_mult: 1
    }
    param {
      lr_mult: 2
    }
    convolution_param {
      num_output: 512
      pad: 1
      kernel_size: 3
    }
  }
  layer {
    name: "relu5_3"
    type: "ReLU"
    bottom: "conv5_3"
    top: "conv5_3"
  }
  layer {
    name: "rpn_big_conv1"
    type: "Convolution"
    bottom: "conv5_3"
    top: "rpn_big_conv1"
    param {
      lr_mult: 1
    }
    param {
      lr_mult: 2
    }
    convolution_param {
      num_output: 512
      pad: 1
      kernel_size: 3
      stride: 1
      weight_filler {
        type: "gaussian"
        mean: 0
        std: 0.01
      }
      bias_filler {
        type: "constant"
      }
    }
  }
  layer {
    name: "rpn_big_conv1_relu"
    type: "ReLU"
    bottom: "rpn_big_conv1"
    top: "rpn_big_conv1"
    relu_param {
      negative_slope: 0
    }
  }
  layer {
    name: "rpn_big_conv2"
    type: "Convolution"
    bottom: "rpn_big_conv1"
    top: "rpn_big_conv2"
    param {
      lr_mult: 1
    }
    param {
      lr_mult: 2
    }
    convolution_param {
      num_output: 512
      pad: 1
      kernel_size: 3
      stride: 1
      weight_filler {
        type: "gaussian"
        mean: 0
        std: 0.01
      }
      bias_filler {
        type: "constant"
      }
    }
  }
  layer {
    name: "rpn_big_conv2_relu"
    type: "ReLU"
    bottom: "rpn_big_conv2"
    top: "rpn_big_conv2"
    relu_param {
      negative_slope: 0
    }
  }
  layer {
    name: "rpn_big_conv2_drop"
    type: "Dropout"
    bottom: "rpn_big_conv2"
    top: "rpn_big_conv2"
    dropout_param {
      dropout_ratio: 0.3
    }
  }
  layer {
    name: "rpn_big_output_cls"
    type: "Convolution"
    bottom: "rpn_big_conv2"
    top: "rpn_big_output_cls"
    param {
      lr_mult: 1
    }
    param {
      lr_mult: 2
    }
    convolution_param {
      num_output: 384
      pad: 1
      kernel_size: 3
      stride: 1
      weight_filler {
        type: "gaussian"
        mean: 0
        std: 0.01
      }
      bias_filler {
        type: "constant"
      }
    }
  }
  layer {
    name: "rpn_big_output_cls_relu"
    type: "ReLU"
    bottom: "rpn_big_output_cls"
    top: "rpn_big_output_cls"
    relu_param {
      negative_slope: 0
    }
  }
  layer {
    name: "rpn_big_cls_score"
    type: "Convolution"
    bottom: "rpn_big_output_cls"
    top: "rpn_big_cls_score"
    param {
      lr_mult: 1
    }
    param {
      lr_mult: 2
    }
    convolution_param {
      num_output: 52
      pad: 0
      kernel_size: 3
      stride: 1
      weight_filler {
        type: "gaussian"
        mean: 0
        std: 0.01
      }
      bias_filler {
        type: "constant"
      }
    }
  }
  layer {
    name: "rpn_big_cls_score_reshape"
    type: "Reshape"
    bottom: "rpn_big_cls_score"
    top: "rpn_big_cls_score_reshape"
    reshape_param {
      shape {
        dim: 0
        dim: 2
        dim: -1
        dim: 0
      }
    }
  }
  layer {
    name: "rpn_big_cls_prob"
    type: "Softmax"
    bottom: "rpn_big_cls_score_reshape"
    top: "rpn_big_cls_prob"
  }
  layer {
    name: "rpn_big_cls_prob_reshape"
    type: "Reshape"
    bottom: "rpn_big_cls_prob"
    top: "rpn_big_cls_prob_reshape"
    reshape_param {
      shape {
        dim: 0
        dim: 52
        dim: -1
        dim: 0
      }
    }
  }
  layer {
    name: "rpn_big_anchor_target"
    type: "Python"
    bottom: "rpn_big_cls_score"
    bottom: "input_gt_boxes"
    bottom: "input_ignored_boxes"
    bottom: "input_im_info"
    bottom: "input_data"
    bottom: "rpn_big_cls_prob_reshape"
    top: "rpn_big_anchor_target_labels"
    top: "rpn_big_anchor_target_bbox_targets"
    top: "rpn_big_anchor_target_inside_weights"
    top: "rpn_big_anchor_target_outside_weights"
    python_param {
      module: "rpn.anchor_target_layer"
      layer: "AnchorTargetLayer"
      param_str: "{\"anchor_scales\": [2.5, 3.025, 3.66025, 4.4289024999999995, 5.358972025, 6.484356150249999, 7.846070941802498, 9.493745839581022, 11.487432465893036, 13.899793283730574, 16.818749873313998, 20.350687346709933, 24.62433168951902, 29.795441344318014], \"anchor_shift_num_xy\": [[2, 2], [2, 2], [2, 2], [2, 2], [1, 1], [1, 1], [1, 1], [1, 1], [1, 1], [1, 1], [1, 1], [1, 1], [1, 1], [1, 1]], \"fg_fraction\": 0.5, \"positive_overlap\": 0.6, \"tn_fraction\": 0.2, \"num_classes\": 1, \"square_targets\": true, \"negative_overlap\": 0.4, \"anchor_ratios\": [1.0], \"feat_stride\": 16, \"name\": \"rpn_big\", \"batchsize\": 256}"
    }
  }
  layer {
    name: "rpn_big_loss_cls"
    type: "SoftmaxWithLoss"
    bottom: "rpn_big_cls_score_reshape"
    bottom: "rpn_big_anchor_target_labels"
    top: "rpn_big_loss_cls"
    loss_weight: 1
    propagate_down: true
    propagate_down: false
    loss_param {
      ignore_label: -1
      normalization: VALID
    }
  }
  layer {
    name: "rpn_big_output_box"
    type: "Convolution"
    bottom: "rpn_big_conv2"
    top: "rpn_big_output_box"
    param {
      lr_mult: 1
    }
    param {
      lr_mult: 2
    }
    convolution_param {
      num_output: 384
      pad: 1
      kernel_size: 3
      stride: 1
      weight_filler {
        type: "gaussian"
        mean: 0
        std: 0.01
      }
      bias_filler {
        type: "constant"
      }
    }
  }
  layer {
    name: "rpn_big_output_box_relu"
    type: "ReLU"
    bottom: "rpn_big_output_box"
    top: "rpn_big_output_box"
    relu_param {
      negative_slope: 0
    }
  }
  layer {
    name: "rpn_big_bbox_pred"
    type: "Convolution"
    bottom: "rpn_big_output_box"
    top: "rpn_big_bbox_pred"
    param {
      lr_mult: 1
    }
    param {
      lr_mult: 2
    }
    convolution_param {
      num_output: 104
      pad: 0
      kernel_size: 3
      stride: 1
      weight_filler {
        type: "gaussian"
        mean: 0
        std: 0.01
      }
      bias_filler {
        type: "constant"
      }
    }
  }
  layer {
    name: "rpn_big_loss_bbox"
    type: "Python"
    bottom: "rpn_big_bbox_pred"
    bottom: "rpn_big_anchor_target_bbox_targets"
    bottom: "rpn_big_anchor_target_inside_weights"
    bottom: "rpn_big_anchor_target_outside_weights"
    top: "rpn_big_loss_bbox"
    loss_weight: 1
    python_param {
      module: "layers.smooth_l1_loss"
      layer: "SmoothL1LossLayer"
      param_str: "{\"sigma\": 3}"
    }
  }
  layer {
    name: "proposal"
    type: "Python"
    bottom: "rpn_big_cls_prob_reshape"
    bottom: "rpn_big_bbox_pred"
    bottom: "input_im_info"
    top: "rpn_rois"
    python_param {
      module: "rpn.proposal_layer"
      layer: "ProposalLayer"
      param_str: "{\"anchor_shift_num_xy\": [[2, 2], [2, 2], [2, 2], [2, 2], [1, 1], [1, 1], [1, 1], [1, 1], [1, 1], [1, 1], [1, 1], [1, 1], [1, 1], [1, 1]], \"feat_stride\": 16, \"num_classes\": 1, \"anchor_scales\": [2.5, 3.025, 3.66025, 4.4289024999999995, 5.358972025, 6.484356150249999, 7.846070941802498, 9.493745839581022, 11.487432465893036, 13.899793283730574, 16.818749873313998, 20.350687346709933, 24.62433168951902, 29.795441344318014], \"square_targets\": true, \"name\": \"rpn_big\", \"batchsize\": 256, \"anchor_ratios\": [1.0]}"
    }
  }
  layer {
    name: "roi-data"
    type: "Python"
    bottom: "rpn_rois"
    bottom: "input_gt_boxes"
    top: "rois"
    top: "labels"
    top: "bbox_targets"
    top: "bbox_inside_weights"
    top: "bbox_outside_weights"
    top: "pid_label"
    python_param {
      module: "rpn.proposal_target_layer"
      layer: "ProposalTargetLayer"
      param_str: "{\"num_classes\": 2, \"bg_aux_label\": 5532}"
    }
  }
  layer {
    name: "roi-pool"
    type: "ROIPooling"
    bottom: "conv5_3"
    bottom: "rois"
    top: "roi-pool"
    roi_pooling_param {
      pooled_h: 7
      pooled_w: 7
      spatial_scale: 0.0625
    }
  }
  layer {
    name: "fc6"
    type: "InnerProduct"
    bottom: "roi-pool"
    top: "fc6"
    param {
      lr_mult: 1
    }
    param {
      lr_mult: 2
    }
    inner_product_param {
      num_output: 4096
    }
  }
  layer {
    name: "relu6"
    type: "ReLU"
    bottom: "fc6"
    top: "fc6"
  }
  layer {
    name: "drop6"
    type: "Dropout"
    bottom: "fc6"
    top: "fc6"
    dropout_param {
      dropout_ratio: 0.5
    }
  }
  layer {
    name: "fc7"
    type: "InnerProduct"
    bottom: "fc6"
    top: "fc7"
    param {
      lr_mult: 1
    }
    param {
      lr_mult: 2
    }
    inner_product_param {
      num_output: 4096
    }
  }
  layer {
    name: "relu7"
    type: "ReLU"
    bottom: "fc7"
    top: "fc7"
  }
  layer {
    name: "drop7"
    type: "Dropout"
    bottom: "fc7"
    top: "fc7"
    dropout_param {
      dropout_ratio: 0.5
    }
  }
  layer {
    name: "bbox_pred"
    type: "InnerProduct"
    bottom: "fc7"
    top: "bbox_pred"
    param {
      lr_mult: 1
    }
    param {
      lr_mult: 2
    }
    inner_product_param {
      num_output: 8
      weight_filler {
        type: "gaussian"
        std: 0.001
      }
      bias_filler {
        type: "constant"
        value: 0
      }
    }
  }
  layer {
    name: "loss_bbox"
    type: "SmoothL1Loss"
    bottom: "bbox_pred"
    bottom: "bbox_targets"
    bottom: "bbox_inside_weights"
    bottom: "bbox_outside_weights"
    top: "loss_bbox"
    loss_weight: 1
  }
  layer {
    name: "feat"
    type: "InnerProduct"
    bottom: "fc7"
    top: "feat"
    param {
      lr_mult: 1
      decay_mult: 1
    }
    param {
      lr_mult: 2
      decay_mult: 0
    }
    inner_product_param {
      num_output: 256
      weight_filler {
        type: "gaussian"
        std: 0.01
      }
      bias_filler {
        type: "constant"
        value: 0
      }
    }
  }
  layer {
    name: "relu8"
    type: "ReLU"
    bottom: "feat"
    top: "feat"
  }
  layer {
    name: "drop8"
    type: "Dropout"
    bottom: "feat"
    top: "feat"
    dropout_param {
      dropout_ratio: 0.5
    }
  }
  layer {
    name: "pid_score"
    type: "InnerProduct"
    bottom: "feat"
    top: "pid_score"
    param {
      lr_mult: 1
      decay_mult: 1
    }
    param {
      lr_mult: 2
      decay_mult: 0
    }
    inner_product_param {
      num_output: 5533
      weight_filler {
        type: "gaussian"
        std: 0.001
      }
      bias_filler {
        type: "constant"
        value: 0
      }
    }
  }
  layer {
    name: "pid_loss"
    type: "SoftmaxWithLoss"
    bottom: "pid_label"
    bottom: "pid_label"
    top: "pid_loss"
    loss_weight: 1
    propagate_down: true
    propagate_down: false
    loss_param {
      ignore_label: -1
      normalize: true
    }
  }
}
average_loss: 100
stepvalue: 70000
stepvalue: 120000
iter_size: 2
I0413 19:09:34.976435 15422 solver.cpp:86] Creating training net specified in net_param.
I0413 19:09:34.976917 15422 net.cpp:58] Initializing net from parameters: 
name: "GeneratedModel_13_04_2017_19_09"
state {
  phase: TRAIN
}
layer {
  name: "input"
  type: "Python"
  top: "input_data"
  top: "input_im_info"
  top: "input_gt_boxes"
  top: "input_ignored_boxes"
  python_param {
    module: "layers.roi_data_layer"
    layer: "RoIDataLayer"
    param_str: "{\"num_classes\": 2}"
  }
}
layer {
  name: "conv1_1"
  type: "Convolution"
  bottom: "input_data"
  top: "conv1_1"
  param {
    lr_mult: 0
    decay_mult: 0
  }
  param {
    lr_mult: 0
    decay_mult: 0
  }
  convolution_param {
    num_output: 64
    pad: 1
    kernel_size: 3
  }
}
layer {
  name: "relu1_1"
  type: "ReLU"
  bottom: "conv1_1"
  top: "conv1_1"
}
layer {
  name: "conv1_2"
  type: "Convolution"
  bottom: "conv1_1"
  top: "conv1_2"
  param {
    lr_mult: 0
    decay_mult: 0
  }
  param {
    lr_mult: 0
    decay_mult: 0
  }
  convolution_param {
    num_output: 64
    pad: 1
    kernel_size: 3
  }
}
layer {
  name: "relu1_2"
  type: "ReLU"
  bottom: "conv1_2"
  top: "conv1_2"
}
layer {
  name: "pool1"
  type: "Pooling"
  bottom: "conv1_2"
  top: "pool1"
  pooling_param {
    pool: MAX
    kernel_size: 2
    stride: 2
  }
}
layer {
  name: "conv2_1"
  type: "Convolution"
  bottom: "pool1"
  top: "conv2_1"
  param {
    lr_mult: 0
    decay_mult: 0
  }
  param {
    lr_mult: 0
    decay_mult: 0
  }
  convolution_param {
    num_output: 128
    pad: 1
    kernel_size: 3
  }
}
layer {
  name: "relu2_1"
  type: "ReLU"
  bottom: "conv2_1"
  top: "conv2_1"
}
layer {
  name: "conv2_2"
  type: "Convolution"
  bottom: "conv2_1"
  top: "conv2_2"
  param {
    lr_mult: 0
    decay_mult: 0
  }
  param {
    lr_mult: 0
    decay_mult: 0
  }
  convolution_param {
    num_output: 128
    pad: 1
    kernel_size: 3
  }
}
layer {
  name: "relu2_2"
  type: "ReLU"
  bottom: "conv2_2"
  top: "conv2_2"
}
layer {
  name: "pool2"
  type: "Pooling"
  bottom: "conv2_2"
  top: "pool2"
  pooling_param {
    pool: MAX
    kernel_size: 2
    stride: 2
  }
}
layer {
  name: "conv3_1"
  type: "Convolution"
  bottom: "pool2"
  top: "conv3_1"
  param {
    lr_mult: 1
  }
  param {
    lr_mult: 2
  }
  convolution_param {
    num_output: 256
    pad: 1
    kernel_size: 3
  }
}
layer {
  name: "relu3_1"
  type: "ReLU"
  bottom: "conv3_1"
  top: "conv3_1"
}
layer {
  name: "conv3_2"
  type: "Convolution"
  bottom: "conv3_1"
  top: "conv3_2"
  param {
    lr_mult: 1
  }
  param {
    lr_mult: 2
  }
  convolution_param {
    num_output: 256
    pad: 1
    kernel_size: 3
  }
}
layer {
  name: "relu3_2"
  type: "ReLU"
  bottom: "conv3_2"
  top: "conv3_2"
}
layer {
  name: "conv3_3"
  type: "Convolution"
  bottom: "conv3_2"
  top: "conv3_3"
  param {
    lr_mult: 1
  }
  param {
    lr_mult: 2
  }
  convolution_param {
    num_output: 256
    pad: 1
    kernel_size: 3
  }
}
layer {
  name: "relu3_3"
  type: "ReLU"
  bottom: "conv3_3"
  top: "conv3_3"
}
layer {
  name: "pool3"
  type: "Pooling"
  bottom: "conv3_3"
  top: "pool3"
  pooling_param {
    pool: MAX
    kernel_size: 2
    stride: 2
  }
}
layer {
  name: "conv4_1"
  type: "Convolution"
  bottom: "pool3"
  top: "conv4_1"
  param {
    lr_mult: 1
  }
  param {
    lr_mult: 2
  }
  convolution_param {
    num_output: 512
    pad: 1
    kernel_size: 3
  }
}
layer {
  name: "relu4_1"
  type: "ReLU"
  bottom: "conv4_1"
  top: "conv4_1"
}
layer {
  name: "conv4_2"
  type: "Convolution"
  bottom: "conv4_1"
  top: "conv4_2"
  param {
    lr_mult: 1
  }
  param {
    lr_mult: 2
  }
  convolution_param {
    num_output: 512
    pad: 1
    kernel_size: 3
  }
}
layer {
  name: "relu4_2"
  type: "ReLU"
  bottom: "conv4_2"
  top: "conv4_2"
}
layer {
  name: "conv4_3"
  type: "Convolution"
  bottom: "conv4_2"
  top: "conv4_3"
  param {
    lr_mult: 1
  }
  param {
    lr_mult: 2
  }
  convolution_param {
    num_output: 512
    pad: 1
    kernel_size: 3
  }
}
layer {
  name: "relu4_3"
  type: "ReLU"
  bottom: "conv4_3"
  top: "conv4_3"
}
layer {
  name: "pool4"
  type: "Pooling"
  bottom: "conv4_3"
  top: "pool4"
  pooling_param {
    pool: MAX
    kernel_size: 2
    stride: 2
  }
}
layer {
  name: "conv5_1"
  type: "Convolution"
  bottom: "pool4"
  top: "conv5_1"
  param {
    lr_mult: 1
  }
  param {
    lr_mult: 2
  }
  convolution_param {
    num_output: 512
    pad: 1
    kernel_size: 3
  }
}
layer {
  name: "relu5_1"
  type: "ReLU"
  bottom: "conv5_1"
  top: "conv5_1"
}
layer {
  name: "conv5_2"
  type: "Convolution"
  bottom: "conv5_1"
  top: "conv5_2"
  param {
    lr_mult: 1
  }
  param {
    lr_mult: 2
  }
  convolution_param {
    num_output: 512
    pad: 1
    kernel_size: 3
  }
}
layer {
  name: "relu5_2"
  type: "ReLU"
  bottom: "conv5_2"
  top: "conv5_2"
}
layer {
  name: "conv5_3"
  type: "Convolution"
  bottom: "conv5_2"
  top: "conv5_3"
  param {
    lr_mult: 1
  }
  param {
    lr_mult: 2
  }
  convolution_param {
    num_output: 512
    pad: 1
    kernel_size: 3
  }
}
layer {
  name: "relu5_3"
  type: "ReLU"
  bottom: "conv5_3"
  top: "conv5_3"
}
layer {
  name: "rpn_big_conv1"
  type: "Convolution"
  bottom: "conv5_3"
  top: "rpn_big_conv1"
  param {
    lr_mult: 1
  }
  param {
    lr_mult: 2
  }
  convolution_param {
    num_output: 512
    pad: 1
    kernel_size: 3
    stride: 1
    weight_filler {
      type: "gaussian"
      mean: 0
      std: 0.01
    }
    bias_filler {
      type: "constant"
    }
  }
}
layer {
  name: "rpn_big_conv1_relu"
  type: "ReLU"
  bottom: "rpn_big_conv1"
  top: "rpn_big_conv1"
  relu_param {
    negative_slope: 0
  }
}
layer {
  name: "rpn_big_conv2"
  type: "Convolution"
  bottom: "rpn_big_conv1"
  top: "rpn_big_conv2"
  param {
    lr_mult: 1
  }
  param {
    lr_mult: 2
  }
  convolution_param {
    num_output: 512
    pad: 1
    kernel_size: 3
    stride: 1
    weight_filler {
      type: "gaussian"
      mean: 0
      std: 0.01
    }
    bias_filler {
      type: "constant"
    }
  }
}
layer {
  name: "rpn_big_conv2_relu"
  type: "ReLU"
  bottom: "rpn_big_conv2"
  top: "rpn_big_conv2"
  relu_param {
    negative_slope: 0
  }
}
layer {
  name: "rpn_big_conv2_drop"
  type: "Dropout"
  bottom: "rpn_big_conv2"
  top: "rpn_big_conv2"
  dropout_param {
    dropout_ratio: 0.3
  }
}
layer {
  name: "rpn_big_output_cls"
  type: "Convolution"
  bottom: "rpn_big_conv2"
  top: "rpn_big_output_cls"
  param {
    lr_mult: 1
  }
  param {
    lr_mult: 2
  }
  convolution_param {
    num_output: 384
    pad: 1
    kernel_size: 3
    stride: 1
    weight_filler {
      type: "gaussian"
      mean: 0
      std: 0.01
    }
    bias_filler {
      type: "constant"
    }
  }
}
layer {
  name: "rpn_big_output_cls_relu"
  type: "ReLU"
  bottom: "rpn_big_output_cls"
  top: "rpn_big_output_cls"
  relu_param {
    negative_slope: 0
  }
}
layer {
  name: "rpn_big_cls_score"
  type: "Convolution"
  bottom: "rpn_big_output_cls"
  top: "rpn_big_cls_score"
  param {
    lr_mult: 1
  }
  param {
    lr_mult: 2
  }
  convolution_param {
    num_output: 52
    pad: 0
    kernel_size: 3
    stride: 1
    weight_filler {
      type: "gaussian"
      mean: 0
      std: 0.01
    }
    bias_filler {
      type: "constant"
    }
  }
}
layer {
  name: "rpn_big_cls_score_reshape"
  type: "Reshape"
  bottom: "rpn_big_cls_score"
  top: "rpn_big_cls_score_reshape"
  reshape_param {
    shape {
      dim: 0
      dim: 2
      dim: -1
      dim: 0
    }
  }
}
layer {
  name: "rpn_big_cls_prob"
  type: "Softmax"
  bottom: "rpn_big_cls_score_reshape"
  top: "rpn_big_cls_prob"
}
layer {
  name: "rpn_big_cls_prob_reshape"
  type: "Reshape"
  bottom: "rpn_big_cls_prob"
  top: "rpn_big_cls_prob_reshape"
  reshape_param {
    shape {
      dim: 0
      dim: 52
      dim: -1
      dim: 0
    }
  }
}
layer {
  name: "rpn_big_anchor_target"
  type: "Python"
  bottom: "rpn_big_cls_score"
  bottom: "input_gt_boxes"
  bottom: "input_ignored_boxes"
  bottom: "input_im_info"
  bottom: "input_data"
  bottom: "rpn_big_cls_prob_reshape"
  top: "rpn_big_anchor_target_labels"
  top: "rpn_big_anchor_target_bbox_targets"
  top: "rpn_big_anchor_target_inside_weights"
  top: "rpn_big_anchor_target_outside_weights"
  python_param {
    module: "rpn.anchor_target_layer"
    layer: "AnchorTargetLayer"
    param_str: "{\"anchor_scales\": [2.5, 3.025, 3.66025, 4.4289024999999995, 5.358972025, 6.484356150249999, 7.846070941802498, 9.493745839581022, 11.487432465893036, 13.899793283730574, 16.818749873313998, 20.350687346709933, 24.62433168951902, 29.795441344318014], \"anchor_shift_num_xy\": [[2, 2], [2, 2], [2, 2], [2, 2], [1, 1], [1, 1], [1, 1], [1, 1], [1, 1], [1, 1], [1, 1], [1, 1], [1, 1], [1, 1]], \"fg_fraction\": 0.5, \"positive_overlap\": 0.6, \"tn_fraction\": 0.2, \"num_classes\": 1, \"square_targets\": true, \"negative_overlap\": 0.4, \"anchor_ratios\": [1.0], \"feat_stride\": 16, \"name\": \"rpn_big\", \"batchsize\": 256}"
  }
}
layer {
  name: "rpn_big_loss_cls"
  type: "SoftmaxWithLoss"
  bottom: "rpn_big_cls_score_reshape"
  bottom: "rpn_big_anchor_target_labels"
  top: "rpn_big_loss_cls"
  loss_weight: 1
  propagate_down: true
  propagate_down: false
  loss_param {
    ignore_label: -1
    normalization: VALID
  }
}
layer {
  name: "rpn_big_output_box"
  type: "Convolution"
  bottom: "rpn_big_conv2"
  top: "rpn_big_output_box"
  param {
    lr_mult: 1
  }
  param {
    lr_mult: 2
  }
  convolution_param {
    num_output: 384
    pad: 1
    kernel_size: 3
    stride: 1
    weight_filler {
      type: "gaussian"
      mean: 0
      std: 0.01
    }
    bias_filler {
      type: "constant"
    }
  }
}
layer {
  name: "rpn_big_output_box_relu"
  type: "ReLU"
  bottom: "rpn_big_output_box"
  top: "rpn_big_output_box"
  relu_param {
    negative_slope: 0
  }
}
layer {
  name: "rpn_big_bbox_pred"
  type: "Convolution"
  bottom: "rpn_big_output_box"
  top: "rpn_big_bbox_pred"
  param {
    lr_mult: 1
  }
  param {
    lr_mult: 2
  }
  convolution_param {
    num_output: 104
    pad: 0
    kernel_size: 3
    stride: 1
    weight_filler {
      type: "gaussian"
      mean: 0
      std: 0.01
    }
    bias_filler {
      type: "constant"
    }
  }
}
layer {
  name: "rpn_big_loss_bbox"
  type: "Python"
  bottom: "rpn_big_bbox_pred"
  bottom: "rpn_big_anchor_target_bbox_targets"
  bottom: "rpn_big_anchor_target_inside_weights"
  bottom: "rpn_big_anchor_target_outside_weights"
  top: "rpn_big_loss_bbox"
  loss_weight: 1
  python_param {
    module: "layers.smooth_l1_loss"
    layer: "SmoothL1LossLayer"
    param_str: "{\"sigma\": 3}"
  }
}
layer {
  name: "proposal"
  type: "Python"
  bottom: "rpn_big_cls_prob_reshape"
  bottom: "rpn_big_bbox_pred"
  bottom: "input_im_info"
  top: "rpn_rois"
  python_param {
    module: "rpn.proposal_layer"
    layer: "ProposalLayer"
    param_str: "{\"anchor_shift_num_xy\": [[2, 2], [2, 2], [2, 2], [2, 2], [1, 1], [1, 1], [1, 1], [1, 1], [1, 1], [1, 1], [1, 1], [1, 1], [1, 1], [1, 1]], \"feat_stride\": 16, \"num_classes\": 1, \"anchor_scales\": [2.5, 3.025, 3.66025, 4.4289024999999995, 5.358972025, 6.484356150249999, 7.846070941802498, 9.493745839581022, 11.487432465893036, 13.899793283730574, 16.818749873313998, 20.350687346709933, 24.62433168951902, 29.795441344318014], \"square_targets\": true, \"name\": \"rpn_big\", \"batchsize\": 256, \"anchor_ratios\": [1.0]}"
  }
}
layer {
  name: "roi-data"
  type: "Python"
  bottom: "rpn_rois"
  bottom: "input_gt_boxes"
  top: "rois"
  top: "labels"
  top: "bbox_targets"
  top: "bbox_inside_weights"
  top: "bbox_outside_weights"
  top: "pid_label"
  python_param {
    module: "rpn.proposal_target_layer"
    layer: "ProposalTargetLayer"
    param_str: "{\"num_classes\": 2, \"bg_aux_label\": 5532}"
  }
}
layer {
  name: "roi-pool"
  type: "ROIPooling"
  bottom: "conv5_3"
  bottom: "rois"
  top: "roi-pool"
  roi_pooling_param {
    pooled_h: 7
    pooled_w: 7
    spatial_scale: 0.0625
  }
}
layer {
  name: "fc6"
  type: "InnerProduct"
  bottom: "roi-pool"
  top: "fc6"
  param {
    lr_mult: 1
  }
  param {
    lr_mult: 2
  }
  inner_product_param {
    num_output: 4096
  }
}
layer {
  name: "relu6"
  type: "ReLU"
  bottom: "fc6"
  top: "fc6"
}
layer {
  name: "drop6"
  type: "Dropout"
  bottom: "fc6"
  top: "fc6"
  dropout_param {
    dropout_ratio: 0.5
  }
}
layer {
  name: "fc7"
  type: "InnerProduct"
  bottom: "fc6"
  top: "fc7"
  param {
    lr_mult: 1
  }
  param {
    lr_mult: 2
  }
  inner_product_param {
    num_output: 4096
  }
}
layer {
  name: "relu7"
  type: "ReLU"
  bottom: "fc7"
  top: "fc7"
}
layer {
  name: "drop7"
  type: "Dropout"
  bottom: "fc7"
  top: "fc7"
  dropout_param {
    dropout_ratio: 0.5
  }
}
layer {
  name: "bbox_pred"
  type: "InnerProduct"
  bottom: "fc7"
  top: "bbox_pred"
  param {
    lr_mult: 1
  }
  param {
    lr_mult: 2
  }
  inner_product_param {
    num_output: 8
    weight_filler {
      type: "gaussian"
      std: 0.001
    }
    bias_filler {
      type: "constant"
      value: 0
    }
  }
}
layer {
  name: "loss_bbox"
  type: "SmoothL1Loss"
  bottom: "bbox_pred"
  bottom: "bbox_targets"
  bottom: "bbox_inside_weights"
  bottom: "bbox_outside_weights"
  top: "loss_bbox"
  loss_weight: 1
}
layer {
  name: "feat"
  type: "InnerProduct"
  bottom: "fc7"
  top: "feat"
  param {
    lr_mult: 1
    decay_mult: 1
  }
  param {
    lr_mult: 2
    decay_mult: 0
  }
  inner_product_param {
    num_output: 256
    weight_filler {
      type: "gaussian"
      std: 0.01
    }
    bias_filler {
      type: "constant"
      value: 0
    }
  }
}
layer {
  name: "relu8"
  type: "ReLU"
  bottom: "feat"
  top: "feat"
}
layer {
  name: "drop8"
  type: "Dropout"
  bottom: "feat"
  top: "feat"
  dropout_param {
    dropout_ratio: 0.5
  }
}
layer {
  name: "pid_score"
  type: "InnerProduct"
  bottom: "feat"
  top: "pid_score"
  param {
    lr_mult: 1
    decay_mult: 1
  }
  param {
    lr_mult: 2
    decay_mult: 0
  }
  inner_product_param {
    num_output: 5533
    weight_filler {
      type: "gaussian"
      std: 0.001
    }
    bias_filler {
      type: "constant"
      value: 0
    }
  }
}
layer {
  name: "pid_loss"
  type: "SoftmaxWithLoss"
  bottom: "pid_label"
  bottom: "pid_label"
  top: "pid_loss"
  loss_weight: 1
  propagate_down: true
  propagate_down: false
  loss_param {
    ignore_label: -1
    normalize: true
  }
}
I0413 19:09:34.977170 15422 layer_factory.hpp:77] Creating layer input
I0413 19:09:34.978634 15422 net.cpp:100] Creating Layer input
I0413 19:09:34.978657 15422 net.cpp:408] input -> input_data
I0413 19:09:34.978669 15422 net.cpp:408] input -> input_im_info
I0413 19:09:34.978677 15422 net.cpp:408] input -> input_gt_boxes
I0413 19:09:34.978684 15422 net.cpp:408] input -> input_ignored_boxes
RoiDataLayer: name_to_top: {'im_info': 1, 'ignored_boxes': 3, 'gt_boxes': 2, 'data': 0}
I0413 19:09:35.303264 15422 net.cpp:150] Setting up input
I0413 19:09:35.303290 15422 net.cpp:157] Top shape: 1 3 1000 1500 (4500000)
I0413 19:09:35.303295 15422 net.cpp:157] Top shape: 1 3 (3)
I0413 19:09:35.303300 15422 net.cpp:157] Top shape: 1 5 (5)
I0413 19:09:35.303303 15422 net.cpp:157] Top shape: 1 5 (5)
I0413 19:09:35.303306 15422 net.cpp:165] Memory required for data: 18000052
I0413 19:09:35.303313 15422 layer_factory.hpp:77] Creating layer input_data_input_0_split
I0413 19:09:35.303325 15422 net.cpp:100] Creating Layer input_data_input_0_split
I0413 19:09:35.303330 15422 net.cpp:434] input_data_input_0_split <- input_data
I0413 19:09:35.303339 15422 net.cpp:408] input_data_input_0_split -> input_data_input_0_split_0
I0413 19:09:35.303351 15422 net.cpp:408] input_data_input_0_split -> input_data_input_0_split_1
I0413 19:09:35.303387 15422 net.cpp:150] Setting up input_data_input_0_split
I0413 19:09:35.303397 15422 net.cpp:157] Top shape: 1 3 1000 1500 (4500000)
I0413 19:09:35.303401 15422 net.cpp:157] Top shape: 1 3 1000 1500 (4500000)
I0413 19:09:35.303405 15422 net.cpp:165] Memory required for data: 54000052
I0413 19:09:35.303408 15422 layer_factory.hpp:77] Creating layer input_im_info_input_1_split
I0413 19:09:35.303413 15422 net.cpp:100] Creating Layer input_im_info_input_1_split
I0413 19:09:35.303417 15422 net.cpp:434] input_im_info_input_1_split <- input_im_info
I0413 19:09:35.303424 15422 net.cpp:408] input_im_info_input_1_split -> input_im_info_input_1_split_0
I0413 19:09:35.303431 15422 net.cpp:408] input_im_info_input_1_split -> input_im_info_input_1_split_1
I0413 19:09:35.303458 15422 net.cpp:150] Setting up input_im_info_input_1_split
I0413 19:09:35.303465 15422 net.cpp:157] Top shape: 1 3 (3)
I0413 19:09:35.303469 15422 net.cpp:157] Top shape: 1 3 (3)
I0413 19:09:35.303472 15422 net.cpp:165] Memory required for data: 54000076
I0413 19:09:35.303475 15422 layer_factory.hpp:77] Creating layer input_gt_boxes_input_2_split
I0413 19:09:35.303481 15422 net.cpp:100] Creating Layer input_gt_boxes_input_2_split
I0413 19:09:35.303484 15422 net.cpp:434] input_gt_boxes_input_2_split <- input_gt_boxes
I0413 19:09:35.303490 15422 net.cpp:408] input_gt_boxes_input_2_split -> input_gt_boxes_input_2_split_0
I0413 19:09:35.303498 15422 net.cpp:408] input_gt_boxes_input_2_split -> input_gt_boxes_input_2_split_1
I0413 19:09:35.303525 15422 net.cpp:150] Setting up input_gt_boxes_input_2_split
I0413 19:09:35.303532 15422 net.cpp:157] Top shape: 1 5 (5)
I0413 19:09:35.303536 15422 net.cpp:157] Top shape: 1 5 (5)
I0413 19:09:35.303539 15422 net.cpp:165] Memory required for data: 54000116
I0413 19:09:35.303542 15422 layer_factory.hpp:77] Creating layer conv1_1
I0413 19:09:35.303555 15422 net.cpp:100] Creating Layer conv1_1
I0413 19:09:35.303558 15422 net.cpp:434] conv1_1 <- input_data_input_0_split_0
I0413 19:09:35.303565 15422 net.cpp:408] conv1_1 -> conv1_1
I0413 19:09:35.306720 15422 net.cpp:150] Setting up conv1_1
I0413 19:09:35.306756 15422 net.cpp:157] Top shape: 1 64 1000 1500 (96000000)
I0413 19:09:35.306761 15422 net.cpp:165] Memory required for data: 438000116
I0413 19:09:35.306779 15422 layer_factory.hpp:77] Creating layer relu1_1
I0413 19:09:35.306792 15422 net.cpp:100] Creating Layer relu1_1
I0413 19:09:35.306797 15422 net.cpp:434] relu1_1 <- conv1_1
I0413 19:09:35.306802 15422 net.cpp:395] relu1_1 -> conv1_1 (in-place)
I0413 19:09:35.306814 15422 net.cpp:150] Setting up relu1_1
I0413 19:09:35.306818 15422 net.cpp:157] Top shape: 1 64 1000 1500 (96000000)
I0413 19:09:35.306821 15422 net.cpp:165] Memory required for data: 822000116
I0413 19:09:35.306824 15422 layer_factory.hpp:77] Creating layer conv1_2
I0413 19:09:35.306834 15422 net.cpp:100] Creating Layer conv1_2
I0413 19:09:35.306838 15422 net.cpp:434] conv1_2 <- conv1_1
I0413 19:09:35.306844 15422 net.cpp:408] conv1_2 -> conv1_2
I0413 19:09:35.311215 15422 net.cpp:150] Setting up conv1_2
I0413 19:09:35.311264 15422 net.cpp:157] Top shape: 1 64 1000 1500 (96000000)
I0413 19:09:35.311270 15422 net.cpp:165] Memory required for data: 1206000116
I0413 19:09:35.311293 15422 layer_factory.hpp:77] Creating layer relu1_2
I0413 19:09:35.311311 15422 net.cpp:100] Creating Layer relu1_2
I0413 19:09:35.311317 15422 net.cpp:434] relu1_2 <- conv1_2
I0413 19:09:35.311332 15422 net.cpp:395] relu1_2 -> conv1_2 (in-place)
I0413 19:09:35.311348 15422 net.cpp:150] Setting up relu1_2
I0413 19:09:35.311367 15422 net.cpp:157] Top shape: 1 64 1000 1500 (96000000)
I0413 19:09:35.311372 15422 net.cpp:165] Memory required for data: 1590000116
I0413 19:09:35.311378 15422 layer_factory.hpp:77] Creating layer pool1
I0413 19:09:35.311391 15422 net.cpp:100] Creating Layer pool1
I0413 19:09:35.311400 15422 net.cpp:434] pool1 <- conv1_2
I0413 19:09:35.311411 15422 net.cpp:408] pool1 -> pool1
I0413 19:09:35.311512 15422 net.cpp:150] Setting up pool1
I0413 19:09:35.311524 15422 net.cpp:157] Top shape: 1 64 500 750 (24000000)
I0413 19:09:35.311530 15422 net.cpp:165] Memory required for data: 1686000116
I0413 19:09:35.311537 15422 layer_factory.hpp:77] Creating layer conv2_1
I0413 19:09:35.311555 15422 net.cpp:100] Creating Layer conv2_1
I0413 19:09:35.311563 15422 net.cpp:434] conv2_1 <- pool1
I0413 19:09:35.311574 15422 net.cpp:408] conv2_1 -> conv2_1
I0413 19:09:35.312883 15422 net.cpp:150] Setting up conv2_1
I0413 19:09:35.312929 15422 net.cpp:157] Top shape: 1 128 500 750 (48000000)
I0413 19:09:35.312934 15422 net.cpp:165] Memory required for data: 1878000116
I0413 19:09:35.312947 15422 layer_factory.hpp:77] Creating layer relu2_1
I0413 19:09:35.312954 15422 net.cpp:100] Creating Layer relu2_1
I0413 19:09:35.312958 15422 net.cpp:434] relu2_1 <- conv2_1
I0413 19:09:35.312964 15422 net.cpp:395] relu2_1 -> conv2_1 (in-place)
I0413 19:09:35.312973 15422 net.cpp:150] Setting up relu2_1
I0413 19:09:35.312978 15422 net.cpp:157] Top shape: 1 128 500 750 (48000000)
I0413 19:09:35.312979 15422 net.cpp:165] Memory required for data: 2070000116
I0413 19:09:35.312983 15422 layer_factory.hpp:77] Creating layer conv2_2
I0413 19:09:35.312991 15422 net.cpp:100] Creating Layer conv2_2
I0413 19:09:35.312994 15422 net.cpp:434] conv2_2 <- conv2_1
I0413 19:09:35.313001 15422 net.cpp:408] conv2_2 -> conv2_2
I0413 19:09:35.313917 15422 net.cpp:150] Setting up conv2_2
I0413 19:09:35.313943 15422 net.cpp:157] Top shape: 1 128 500 750 (48000000)
I0413 19:09:35.313956 15422 net.cpp:165] Memory required for data: 2262000116
I0413 19:09:35.313966 15422 layer_factory.hpp:77] Creating layer relu2_2
I0413 19:09:35.313973 15422 net.cpp:100] Creating Layer relu2_2
I0413 19:09:35.313978 15422 net.cpp:434] relu2_2 <- conv2_2
I0413 19:09:35.313984 15422 net.cpp:395] relu2_2 -> conv2_2 (in-place)
I0413 19:09:35.313992 15422 net.cpp:150] Setting up relu2_2
I0413 19:09:35.313997 15422 net.cpp:157] Top shape: 1 128 500 750 (48000000)
I0413 19:09:35.313999 15422 net.cpp:165] Memory required for data: 2454000116
I0413 19:09:35.314002 15422 layer_factory.hpp:77] Creating layer pool2
I0413 19:09:35.314009 15422 net.cpp:100] Creating Layer pool2
I0413 19:09:35.314013 15422 net.cpp:434] pool2 <- conv2_2
I0413 19:09:35.314018 15422 net.cpp:408] pool2 -> pool2
I0413 19:09:35.314060 15422 net.cpp:150] Setting up pool2
I0413 19:09:35.314069 15422 net.cpp:157] Top shape: 1 128 250 375 (12000000)
I0413 19:09:35.314072 15422 net.cpp:165] Memory required for data: 2502000116
I0413 19:09:35.314075 15422 layer_factory.hpp:77] Creating layer conv3_1
I0413 19:09:35.314085 15422 net.cpp:100] Creating Layer conv3_1
I0413 19:09:35.314088 15422 net.cpp:434] conv3_1 <- pool2
I0413 19:09:35.314095 15422 net.cpp:408] conv3_1 -> conv3_1
I0413 19:09:35.315209 15422 net.cpp:150] Setting up conv3_1
I0413 19:09:35.315234 15422 net.cpp:157] Top shape: 1 256 250 375 (24000000)
I0413 19:09:35.315237 15422 net.cpp:165] Memory required for data: 2598000116
I0413 19:09:35.315251 15422 layer_factory.hpp:77] Creating layer relu3_1
I0413 19:09:35.315259 15422 net.cpp:100] Creating Layer relu3_1
I0413 19:09:35.315264 15422 net.cpp:434] relu3_1 <- conv3_1
I0413 19:09:35.315270 15422 net.cpp:395] relu3_1 -> conv3_1 (in-place)
I0413 19:09:35.315280 15422 net.cpp:150] Setting up relu3_1
I0413 19:09:35.315289 15422 net.cpp:157] Top shape: 1 256 250 375 (24000000)
I0413 19:09:35.315292 15422 net.cpp:165] Memory required for data: 2694000116
I0413 19:09:35.315297 15422 layer_factory.hpp:77] Creating layer conv3_2
I0413 19:09:35.315315 15422 net.cpp:100] Creating Layer conv3_2
I0413 19:09:35.315323 15422 net.cpp:434] conv3_2 <- conv3_1
I0413 19:09:35.315332 15422 net.cpp:408] conv3_2 -> conv3_2
I0413 19:09:35.316587 15422 net.cpp:150] Setting up conv3_2
I0413 19:09:35.316614 15422 net.cpp:157] Top shape: 1 256 250 375 (24000000)
I0413 19:09:35.316627 15422 net.cpp:165] Memory required for data: 2790000116
I0413 19:09:35.316635 15422 layer_factory.hpp:77] Creating layer relu3_2
I0413 19:09:35.316644 15422 net.cpp:100] Creating Layer relu3_2
I0413 19:09:35.316649 15422 net.cpp:434] relu3_2 <- conv3_2
I0413 19:09:35.316655 15422 net.cpp:395] relu3_2 -> conv3_2 (in-place)
I0413 19:09:35.316665 15422 net.cpp:150] Setting up relu3_2
I0413 19:09:35.316669 15422 net.cpp:157] Top shape: 1 256 250 375 (24000000)
I0413 19:09:35.316673 15422 net.cpp:165] Memory required for data: 2886000116
I0413 19:09:35.316675 15422 layer_factory.hpp:77] Creating layer conv3_3
I0413 19:09:35.316684 15422 net.cpp:100] Creating Layer conv3_3
I0413 19:09:35.316687 15422 net.cpp:434] conv3_3 <- conv3_2
I0413 19:09:35.316694 15422 net.cpp:408] conv3_3 -> conv3_3
I0413 19:09:35.318238 15422 net.cpp:150] Setting up conv3_3
I0413 19:09:35.318267 15422 net.cpp:157] Top shape: 1 256 250 375 (24000000)
I0413 19:09:35.318280 15422 net.cpp:165] Memory required for data: 2982000116
I0413 19:09:35.318289 15422 layer_factory.hpp:77] Creating layer relu3_3
I0413 19:09:35.318300 15422 net.cpp:100] Creating Layer relu3_3
I0413 19:09:35.318305 15422 net.cpp:434] relu3_3 <- conv3_3
I0413 19:09:35.318310 15422 net.cpp:395] relu3_3 -> conv3_3 (in-place)
I0413 19:09:35.318320 15422 net.cpp:150] Setting up relu3_3
I0413 19:09:35.318325 15422 net.cpp:157] Top shape: 1 256 250 375 (24000000)
I0413 19:09:35.318327 15422 net.cpp:165] Memory required for data: 3078000116
I0413 19:09:35.318331 15422 layer_factory.hpp:77] Creating layer pool3
I0413 19:09:35.318338 15422 net.cpp:100] Creating Layer pool3
I0413 19:09:35.318341 15422 net.cpp:434] pool3 <- conv3_3
I0413 19:09:35.318346 15422 net.cpp:408] pool3 -> pool3
I0413 19:09:35.318389 15422 net.cpp:150] Setting up pool3
I0413 19:09:35.318397 15422 net.cpp:157] Top shape: 1 256 125 188 (6016000)
I0413 19:09:35.318400 15422 net.cpp:165] Memory required for data: 3102064116
I0413 19:09:35.318403 15422 layer_factory.hpp:77] Creating layer conv4_1
I0413 19:09:35.318413 15422 net.cpp:100] Creating Layer conv4_1
I0413 19:09:35.318416 15422 net.cpp:434] conv4_1 <- pool3
I0413 19:09:35.318423 15422 net.cpp:408] conv4_1 -> conv4_1
I0413 19:09:35.321089 15422 net.cpp:150] Setting up conv4_1
I0413 19:09:35.321120 15422 net.cpp:157] Top shape: 1 512 125 188 (12032000)
I0413 19:09:35.321133 15422 net.cpp:165] Memory required for data: 3150192116
I0413 19:09:35.321144 15422 layer_factory.hpp:77] Creating layer relu4_1
I0413 19:09:35.321153 15422 net.cpp:100] Creating Layer relu4_1
I0413 19:09:35.321158 15422 net.cpp:434] relu4_1 <- conv4_1
I0413 19:09:35.321167 15422 net.cpp:395] relu4_1 -> conv4_1 (in-place)
I0413 19:09:35.321177 15422 net.cpp:150] Setting up relu4_1
I0413 19:09:35.321182 15422 net.cpp:157] Top shape: 1 512 125 188 (12032000)
I0413 19:09:35.321184 15422 net.cpp:165] Memory required for data: 3198320116
I0413 19:09:35.321188 15422 layer_factory.hpp:77] Creating layer conv4_2
I0413 19:09:35.321197 15422 net.cpp:100] Creating Layer conv4_2
I0413 19:09:35.321199 15422 net.cpp:434] conv4_2 <- conv4_1
I0413 19:09:35.321207 15422 net.cpp:408] conv4_2 -> conv4_2
I0413 19:09:35.325783 15422 net.cpp:150] Setting up conv4_2
I0413 19:09:35.325821 15422 net.cpp:157] Top shape: 1 512 125 188 (12032000)
I0413 19:09:35.325824 15422 net.cpp:165] Memory required for data: 3246448116
I0413 19:09:35.325841 15422 layer_factory.hpp:77] Creating layer relu4_2
I0413 19:09:35.325851 15422 net.cpp:100] Creating Layer relu4_2
I0413 19:09:35.325855 15422 net.cpp:434] relu4_2 <- conv4_2
I0413 19:09:35.325862 15422 net.cpp:395] relu4_2 -> conv4_2 (in-place)
I0413 19:09:35.325872 15422 net.cpp:150] Setting up relu4_2
I0413 19:09:35.325876 15422 net.cpp:157] Top shape: 1 512 125 188 (12032000)
I0413 19:09:35.325880 15422 net.cpp:165] Memory required for data: 3294576116
I0413 19:09:35.325882 15422 layer_factory.hpp:77] Creating layer conv4_3
I0413 19:09:35.325891 15422 net.cpp:100] Creating Layer conv4_3
I0413 19:09:35.325894 15422 net.cpp:434] conv4_3 <- conv4_2
I0413 19:09:35.325901 15422 net.cpp:408] conv4_3 -> conv4_3
I0413 19:09:35.331320 15422 net.cpp:150] Setting up conv4_3
I0413 19:09:35.331363 15422 net.cpp:157] Top shape: 1 512 125 188 (12032000)
I0413 19:09:35.331369 15422 net.cpp:165] Memory required for data: 3342704116
I0413 19:09:35.331384 15422 layer_factory.hpp:77] Creating layer relu4_3
I0413 19:09:35.331398 15422 net.cpp:100] Creating Layer relu4_3
I0413 19:09:35.331408 15422 net.cpp:434] relu4_3 <- conv4_3
I0413 19:09:35.331423 15422 net.cpp:395] relu4_3 -> conv4_3 (in-place)
I0413 19:09:35.331437 15422 net.cpp:150] Setting up relu4_3
I0413 19:09:35.331446 15422 net.cpp:157] Top shape: 1 512 125 188 (12032000)
I0413 19:09:35.331451 15422 net.cpp:165] Memory required for data: 3390832116
I0413 19:09:35.331457 15422 layer_factory.hpp:77] Creating layer pool4
I0413 19:09:35.331466 15422 net.cpp:100] Creating Layer pool4
I0413 19:09:35.331472 15422 net.cpp:434] pool4 <- conv4_3
I0413 19:09:35.331481 15422 net.cpp:408] pool4 -> pool4
I0413 19:09:35.331538 15422 net.cpp:150] Setting up pool4
I0413 19:09:35.331552 15422 net.cpp:157] Top shape: 1 512 63 94 (3032064)
I0413 19:09:35.331558 15422 net.cpp:165] Memory required for data: 3402960372
I0413 19:09:35.331564 15422 layer_factory.hpp:77] Creating layer conv5_1
I0413 19:09:35.331600 15422 net.cpp:100] Creating Layer conv5_1
I0413 19:09:35.331612 15422 net.cpp:434] conv5_1 <- pool4
I0413 19:09:35.331625 15422 net.cpp:408] conv5_1 -> conv5_1
I0413 19:09:35.338413 15422 net.cpp:150] Setting up conv5_1
I0413 19:09:35.338454 15422 net.cpp:157] Top shape: 1 512 63 94 (3032064)
I0413 19:09:35.338459 15422 net.cpp:165] Memory required for data: 3415088628
I0413 19:09:35.338480 15422 layer_factory.hpp:77] Creating layer relu5_1
I0413 19:09:35.338495 15422 net.cpp:100] Creating Layer relu5_1
I0413 19:09:35.338501 15422 net.cpp:434] relu5_1 <- conv5_1
I0413 19:09:35.338515 15422 net.cpp:395] relu5_1 -> conv5_1 (in-place)
I0413 19:09:35.338529 15422 net.cpp:150] Setting up relu5_1
I0413 19:09:35.338537 15422 net.cpp:157] Top shape: 1 512 63 94 (3032064)
I0413 19:09:35.338542 15422 net.cpp:165] Memory required for data: 3427216884
I0413 19:09:35.338548 15422 layer_factory.hpp:77] Creating layer conv5_2
I0413 19:09:35.338563 15422 net.cpp:100] Creating Layer conv5_2
I0413 19:09:35.338572 15422 net.cpp:434] conv5_2 <- conv5_1
I0413 19:09:35.338585 15422 net.cpp:408] conv5_2 -> conv5_2
I0413 19:09:35.344660 15422 net.cpp:150] Setting up conv5_2
I0413 19:09:35.344713 15422 net.cpp:157] Top shape: 1 512 63 94 (3032064)
I0413 19:09:35.344720 15422 net.cpp:165] Memory required for data: 3439345140
I0413 19:09:35.344738 15422 layer_factory.hpp:77] Creating layer relu5_2
I0413 19:09:35.344753 15422 net.cpp:100] Creating Layer relu5_2
I0413 19:09:35.344760 15422 net.cpp:434] relu5_2 <- conv5_2
I0413 19:09:35.344771 15422 net.cpp:395] relu5_2 -> conv5_2 (in-place)
I0413 19:09:35.344786 15422 net.cpp:150] Setting up relu5_2
I0413 19:09:35.344794 15422 net.cpp:157] Top shape: 1 512 63 94 (3032064)
I0413 19:09:35.344799 15422 net.cpp:165] Memory required for data: 3451473396
I0413 19:09:35.344805 15422 layer_factory.hpp:77] Creating layer conv5_3
I0413 19:09:35.344828 15422 net.cpp:100] Creating Layer conv5_3
I0413 19:09:35.344847 15422 net.cpp:434] conv5_3 <- conv5_2
I0413 19:09:35.344857 15422 net.cpp:408] conv5_3 -> conv5_3
I0413 19:09:35.350131 15422 net.cpp:150] Setting up conv5_3
I0413 19:09:35.350164 15422 net.cpp:157] Top shape: 1 512 63 94 (3032064)
I0413 19:09:35.350168 15422 net.cpp:165] Memory required for data: 3463601652
I0413 19:09:35.350178 15422 layer_factory.hpp:77] Creating layer relu5_3
I0413 19:09:35.350188 15422 net.cpp:100] Creating Layer relu5_3
I0413 19:09:35.350193 15422 net.cpp:434] relu5_3 <- conv5_3
I0413 19:09:35.350200 15422 net.cpp:395] relu5_3 -> conv5_3 (in-place)
I0413 19:09:35.350210 15422 net.cpp:150] Setting up relu5_3
I0413 19:09:35.350215 15422 net.cpp:157] Top shape: 1 512 63 94 (3032064)
I0413 19:09:35.350219 15422 net.cpp:165] Memory required for data: 3475729908
I0413 19:09:35.350221 15422 layer_factory.hpp:77] Creating layer conv5_3_relu5_3_0_split
I0413 19:09:35.350226 15422 net.cpp:100] Creating Layer conv5_3_relu5_3_0_split
I0413 19:09:35.350230 15422 net.cpp:434] conv5_3_relu5_3_0_split <- conv5_3
I0413 19:09:35.350237 15422 net.cpp:408] conv5_3_relu5_3_0_split -> conv5_3_relu5_3_0_split_0
I0413 19:09:35.350244 15422 net.cpp:408] conv5_3_relu5_3_0_split -> conv5_3_relu5_3_0_split_1
I0413 19:09:35.350276 15422 net.cpp:150] Setting up conv5_3_relu5_3_0_split
I0413 19:09:35.350286 15422 net.cpp:157] Top shape: 1 512 63 94 (3032064)
I0413 19:09:35.350289 15422 net.cpp:157] Top shape: 1 512 63 94 (3032064)
I0413 19:09:35.350292 15422 net.cpp:165] Memory required for data: 3499986420
I0413 19:09:35.350296 15422 layer_factory.hpp:77] Creating layer rpn_big_conv1
I0413 19:09:35.350307 15422 net.cpp:100] Creating Layer rpn_big_conv1
I0413 19:09:35.350311 15422 net.cpp:434] rpn_big_conv1 <- conv5_3_relu5_3_0_split_0
I0413 19:09:35.350317 15422 net.cpp:408] rpn_big_conv1 -> rpn_big_conv1
I0413 19:09:35.376574 15422 net.cpp:150] Setting up rpn_big_conv1
I0413 19:09:35.376603 15422 net.cpp:157] Top shape: 1 512 63 94 (3032064)
I0413 19:09:35.376607 15422 net.cpp:165] Memory required for data: 3512114676
I0413 19:09:35.376617 15422 layer_factory.hpp:77] Creating layer rpn_big_conv1_relu
I0413 19:09:35.376629 15422 net.cpp:100] Creating Layer rpn_big_conv1_relu
I0413 19:09:35.376634 15422 net.cpp:434] rpn_big_conv1_relu <- rpn_big_conv1
I0413 19:09:35.376642 15422 net.cpp:395] rpn_big_conv1_relu -> rpn_big_conv1 (in-place)
I0413 19:09:35.376654 15422 net.cpp:150] Setting up rpn_big_conv1_relu
I0413 19:09:35.376659 15422 net.cpp:157] Top shape: 1 512 63 94 (3032064)
I0413 19:09:35.376662 15422 net.cpp:165] Memory required for data: 3524242932
I0413 19:09:35.376665 15422 layer_factory.hpp:77] Creating layer rpn_big_conv2
I0413 19:09:35.376674 15422 net.cpp:100] Creating Layer rpn_big_conv2
I0413 19:09:35.376678 15422 net.cpp:434] rpn_big_conv2 <- rpn_big_conv1
I0413 19:09:35.376685 15422 net.cpp:408] rpn_big_conv2 -> rpn_big_conv2
I0413 19:09:35.401392 15422 net.cpp:150] Setting up rpn_big_conv2
I0413 19:09:35.401423 15422 net.cpp:157] Top shape: 1 512 63 94 (3032064)
I0413 19:09:35.401437 15422 net.cpp:165] Memory required for data: 3536371188
I0413 19:09:35.401446 15422 layer_factory.hpp:77] Creating layer rpn_big_conv2_relu
I0413 19:09:35.401458 15422 net.cpp:100] Creating Layer rpn_big_conv2_relu
I0413 19:09:35.401464 15422 net.cpp:434] rpn_big_conv2_relu <- rpn_big_conv2
I0413 19:09:35.401473 15422 net.cpp:395] rpn_big_conv2_relu -> rpn_big_conv2 (in-place)
I0413 19:09:35.401482 15422 net.cpp:150] Setting up rpn_big_conv2_relu
I0413 19:09:35.401486 15422 net.cpp:157] Top shape: 1 512 63 94 (3032064)
I0413 19:09:35.401489 15422 net.cpp:165] Memory required for data: 3548499444
I0413 19:09:35.401492 15422 layer_factory.hpp:77] Creating layer rpn_big_conv2_drop
I0413 19:09:35.401501 15422 net.cpp:100] Creating Layer rpn_big_conv2_drop
I0413 19:09:35.401504 15422 net.cpp:434] rpn_big_conv2_drop <- rpn_big_conv2
I0413 19:09:35.401510 15422 net.cpp:395] rpn_big_conv2_drop -> rpn_big_conv2 (in-place)
I0413 19:09:35.401530 15422 net.cpp:150] Setting up rpn_big_conv2_drop
I0413 19:09:35.401538 15422 net.cpp:157] Top shape: 1 512 63 94 (3032064)
I0413 19:09:35.401541 15422 net.cpp:165] Memory required for data: 3560627700
I0413 19:09:35.401545 15422 layer_factory.hpp:77] Creating layer rpn_big_conv2_rpn_big_conv2_drop_0_split
I0413 19:09:35.401551 15422 net.cpp:100] Creating Layer rpn_big_conv2_rpn_big_conv2_drop_0_split
I0413 19:09:35.401553 15422 net.cpp:434] rpn_big_conv2_rpn_big_conv2_drop_0_split <- rpn_big_conv2
I0413 19:09:35.401561 15422 net.cpp:408] rpn_big_conv2_rpn_big_conv2_drop_0_split -> rpn_big_conv2_rpn_big_conv2_drop_0_split_0
I0413 19:09:35.401567 15422 net.cpp:408] rpn_big_conv2_rpn_big_conv2_drop_0_split -> rpn_big_conv2_rpn_big_conv2_drop_0_split_1
I0413 19:09:35.401605 15422 net.cpp:150] Setting up rpn_big_conv2_rpn_big_conv2_drop_0_split
I0413 19:09:35.401613 15422 net.cpp:157] Top shape: 1 512 63 94 (3032064)
I0413 19:09:35.401619 15422 net.cpp:157] Top shape: 1 512 63 94 (3032064)
I0413 19:09:35.401623 15422 net.cpp:165] Memory required for data: 3584884212
I0413 19:09:35.401625 15422 layer_factory.hpp:77] Creating layer rpn_big_output_cls
I0413 19:09:35.401636 15422 net.cpp:100] Creating Layer rpn_big_output_cls
I0413 19:09:35.401640 15422 net.cpp:434] rpn_big_output_cls <- rpn_big_conv2_rpn_big_conv2_drop_0_split_0
I0413 19:09:35.401648 15422 net.cpp:408] rpn_big_output_cls -> rpn_big_output_cls
I0413 19:09:35.420361 15422 net.cpp:150] Setting up rpn_big_output_cls
I0413 19:09:35.420390 15422 net.cpp:157] Top shape: 1 384 63 94 (2274048)
I0413 19:09:35.420403 15422 net.cpp:165] Memory required for data: 3593980404
I0413 19:09:35.420414 15422 layer_factory.hpp:77] Creating layer rpn_big_output_cls_relu
I0413 19:09:35.420425 15422 net.cpp:100] Creating Layer rpn_big_output_cls_relu
I0413 19:09:35.420431 15422 net.cpp:434] rpn_big_output_cls_relu <- rpn_big_output_cls
I0413 19:09:35.420440 15422 net.cpp:395] rpn_big_output_cls_relu -> rpn_big_output_cls (in-place)
I0413 19:09:35.420450 15422 net.cpp:150] Setting up rpn_big_output_cls_relu
I0413 19:09:35.420455 15422 net.cpp:157] Top shape: 1 384 63 94 (2274048)
I0413 19:09:35.420459 15422 net.cpp:165] Memory required for data: 3603076596
I0413 19:09:35.420461 15422 layer_factory.hpp:77] Creating layer rpn_big_cls_score
I0413 19:09:35.420472 15422 net.cpp:100] Creating Layer rpn_big_cls_score
I0413 19:09:35.420476 15422 net.cpp:434] rpn_big_cls_score <- rpn_big_output_cls
I0413 19:09:35.420482 15422 net.cpp:408] rpn_big_cls_score -> rpn_big_cls_score
I0413 19:09:35.423096 15422 net.cpp:150] Setting up rpn_big_cls_score
I0413 19:09:35.423116 15422 net.cpp:157] Top shape: 1 52 61 92 (291824)
I0413 19:09:35.423120 15422 net.cpp:165] Memory required for data: 3604243892
I0413 19:09:35.423146 15422 layer_factory.hpp:77] Creating layer rpn_big_cls_score_rpn_big_cls_score_0_split
I0413 19:09:35.423153 15422 net.cpp:100] Creating Layer rpn_big_cls_score_rpn_big_cls_score_0_split
I0413 19:09:35.423157 15422 net.cpp:434] rpn_big_cls_score_rpn_big_cls_score_0_split <- rpn_big_cls_score
I0413 19:09:35.423163 15422 net.cpp:408] rpn_big_cls_score_rpn_big_cls_score_0_split -> rpn_big_cls_score_rpn_big_cls_score_0_split_0
I0413 19:09:35.423172 15422 net.cpp:408] rpn_big_cls_score_rpn_big_cls_score_0_split -> rpn_big_cls_score_rpn_big_cls_score_0_split_1
I0413 19:09:35.423207 15422 net.cpp:150] Setting up rpn_big_cls_score_rpn_big_cls_score_0_split
I0413 19:09:35.423213 15422 net.cpp:157] Top shape: 1 52 61 92 (291824)
I0413 19:09:35.423216 15422 net.cpp:157] Top shape: 1 52 61 92 (291824)
I0413 19:09:35.423219 15422 net.cpp:165] Memory required for data: 3606578484
I0413 19:09:35.423223 15422 layer_factory.hpp:77] Creating layer rpn_big_cls_score_reshape
I0413 19:09:35.423233 15422 net.cpp:100] Creating Layer rpn_big_cls_score_reshape
I0413 19:09:35.423236 15422 net.cpp:434] rpn_big_cls_score_reshape <- rpn_big_cls_score_rpn_big_cls_score_0_split_0
I0413 19:09:35.423243 15422 net.cpp:408] rpn_big_cls_score_reshape -> rpn_big_cls_score_reshape
I0413 19:09:35.423266 15422 net.cpp:150] Setting up rpn_big_cls_score_reshape
I0413 19:09:35.423274 15422 net.cpp:157] Top shape: 1 2 1586 92 (291824)
I0413 19:09:35.423276 15422 net.cpp:165] Memory required for data: 3607745780
I0413 19:09:35.423280 15422 layer_factory.hpp:77] Creating layer rpn_big_cls_score_reshape_rpn_big_cls_score_reshape_0_split
I0413 19:09:35.423290 15422 net.cpp:100] Creating Layer rpn_big_cls_score_reshape_rpn_big_cls_score_reshape_0_split
I0413 19:09:35.423295 15422 net.cpp:434] rpn_big_cls_score_reshape_rpn_big_cls_score_reshape_0_split <- rpn_big_cls_score_reshape
I0413 19:09:35.423300 15422 net.cpp:408] rpn_big_cls_score_reshape_rpn_big_cls_score_reshape_0_split -> rpn_big_cls_score_reshape_rpn_big_cls_score_reshape_0_split_0
I0413 19:09:35.423308 15422 net.cpp:408] rpn_big_cls_score_reshape_rpn_big_cls_score_reshape_0_split -> rpn_big_cls_score_reshape_rpn_big_cls_score_reshape_0_split_1
I0413 19:09:35.423336 15422 net.cpp:150] Setting up rpn_big_cls_score_reshape_rpn_big_cls_score_reshape_0_split
I0413 19:09:35.423344 15422 net.cpp:157] Top shape: 1 2 1586 92 (291824)
I0413 19:09:35.423349 15422 net.cpp:157] Top shape: 1 2 1586 92 (291824)
I0413 19:09:35.423352 15422 net.cpp:165] Memory required for data: 3610080372
I0413 19:09:35.423355 15422 layer_factory.hpp:77] Creating layer rpn_big_cls_prob
I0413 19:09:35.423360 15422 net.cpp:100] Creating Layer rpn_big_cls_prob
I0413 19:09:35.423364 15422 net.cpp:434] rpn_big_cls_prob <- rpn_big_cls_score_reshape_rpn_big_cls_score_reshape_0_split_0
I0413 19:09:35.423369 15422 net.cpp:408] rpn_big_cls_prob -> rpn_big_cls_prob
I0413 19:09:35.423419 15422 net.cpp:150] Setting up rpn_big_cls_prob
I0413 19:09:35.423426 15422 net.cpp:157] Top shape: 1 2 1586 92 (291824)
I0413 19:09:35.423429 15422 net.cpp:165] Memory required for data: 3611247668
I0413 19:09:35.423432 15422 layer_factory.hpp:77] Creating layer rpn_big_cls_prob_reshape
I0413 19:09:35.423439 15422 net.cpp:100] Creating Layer rpn_big_cls_prob_reshape
I0413 19:09:35.423441 15422 net.cpp:434] rpn_big_cls_prob_reshape <- rpn_big_cls_prob
I0413 19:09:35.423447 15422 net.cpp:408] rpn_big_cls_prob_reshape -> rpn_big_cls_prob_reshape
I0413 19:09:35.423467 15422 net.cpp:150] Setting up rpn_big_cls_prob_reshape
I0413 19:09:35.423475 15422 net.cpp:157] Top shape: 1 52 61 92 (291824)
I0413 19:09:35.423478 15422 net.cpp:165] Memory required for data: 3612414964
I0413 19:09:35.423481 15422 layer_factory.hpp:77] Creating layer rpn_big_cls_prob_reshape_rpn_big_cls_prob_reshape_0_split
I0413 19:09:35.423486 15422 net.cpp:100] Creating Layer rpn_big_cls_prob_reshape_rpn_big_cls_prob_reshape_0_split
I0413 19:09:35.423491 15422 net.cpp:434] rpn_big_cls_prob_reshape_rpn_big_cls_prob_reshape_0_split <- rpn_big_cls_prob_reshape
I0413 19:09:35.423496 15422 net.cpp:408] rpn_big_cls_prob_reshape_rpn_big_cls_prob_reshape_0_split -> rpn_big_cls_prob_reshape_rpn_big_cls_prob_reshape_0_split_0
I0413 19:09:35.423503 15422 net.cpp:408] rpn_big_cls_prob_reshape_rpn_big_cls_prob_reshape_0_split -> rpn_big_cls_prob_reshape_rpn_big_cls_prob_reshape_0_split_1
I0413 19:09:35.423532 15422 net.cpp:150] Setting up rpn_big_cls_prob_reshape_rpn_big_cls_prob_reshape_0_split
I0413 19:09:35.423538 15422 net.cpp:157] Top shape: 1 52 61 92 (291824)
I0413 19:09:35.423543 15422 net.cpp:157] Top shape: 1 52 61 92 (291824)
I0413 19:09:35.423545 15422 net.cpp:165] Memory required for data: 3614749556
I0413 19:09:35.423549 15422 layer_factory.hpp:77] Creating layer rpn_big_anchor_target
I0413 19:09:35.424854 15422 net.cpp:100] Creating Layer rpn_big_anchor_target
I0413 19:09:35.424871 15422 net.cpp:434] rpn_big_anchor_target <- rpn_big_cls_score_rpn_big_cls_score_0_split_1
I0413 19:09:35.424877 15422 net.cpp:434] rpn_big_anchor_target <- input_gt_boxes_input_2_split_0
I0413 19:09:35.424891 15422 net.cpp:434] rpn_big_anchor_target <- input_ignored_boxes
I0413 19:09:35.424896 15422 net.cpp:434] rpn_big_anchor_target <- input_im_info_input_1_split_0
I0413 19:09:35.424901 15422 net.cpp:434] rpn_big_anchor_target <- input_data_input_0_split_1
I0413 19:09:35.424923 15422 net.cpp:434] rpn_big_anchor_target <- rpn_big_cls_prob_reshape_rpn_big_cls_prob_reshape_0_split_0
I0413 19:09:35.424932 15422 net.cpp:408] rpn_big_anchor_target -> rpn_big_anchor_target_labels
I0413 19:09:35.424940 15422 net.cpp:408] rpn_big_anchor_target -> rpn_big_anchor_target_bbox_targets
I0413 19:09:35.424948 15422 net.cpp:408] rpn_big_anchor_target -> rpn_big_anchor_target_inside_weights
I0413 19:09:35.424957 15422 net.cpp:408] rpn_big_anchor_target -> rpn_big_anchor_target_outside_weights
I0413 19:09:35.429550 15422 net.cpp:150] Setting up rpn_big_anchor_target
I0413 19:09:35.429571 15422 net.cpp:157] Top shape: 1 1 1586 92 (145912)
I0413 19:09:35.429585 15422 net.cpp:157] Top shape: 1 104 61 92 (583648)
I0413 19:09:35.429589 15422 net.cpp:157] Top shape: 1 104 61 92 (583648)
I0413 19:09:35.429594 15422 net.cpp:157] Top shape: 1 104 61 92 (583648)
I0413 19:09:35.429596 15422 net.cpp:165] Memory required for data: 3622336980
I0413 19:09:35.429601 15422 layer_factory.hpp:77] Creating layer rpn_big_loss_cls
I0413 19:09:35.429610 15422 net.cpp:100] Creating Layer rpn_big_loss_cls
I0413 19:09:35.429615 15422 net.cpp:434] rpn_big_loss_cls <- rpn_big_cls_score_reshape_rpn_big_cls_score_reshape_0_split_1
I0413 19:09:35.429622 15422 net.cpp:434] rpn_big_loss_cls <- rpn_big_anchor_target_labels
I0413 19:09:35.429628 15422 net.cpp:408] rpn_big_loss_cls -> rpn_big_loss_cls
I0413 19:09:35.429641 15422 layer_factory.hpp:77] Creating layer rpn_big_loss_cls
I0413 19:09:35.430287 15422 net.cpp:150] Setting up rpn_big_loss_cls
I0413 19:09:35.430305 15422 net.cpp:157] Top shape: (1)
I0413 19:09:35.430308 15422 net.cpp:160]     with loss weight 1
I0413 19:09:35.430320 15422 net.cpp:165] Memory required for data: 3622336984
I0413 19:09:35.430325 15422 layer_factory.hpp:77] Creating layer rpn_big_output_box
I0413 19:09:35.430341 15422 net.cpp:100] Creating Layer rpn_big_output_box
I0413 19:09:35.430346 15422 net.cpp:434] rpn_big_output_box <- rpn_big_conv2_rpn_big_conv2_drop_0_split_1
I0413 19:09:35.430354 15422 net.cpp:408] rpn_big_output_box -> rpn_big_output_box
I0413 19:09:35.449090 15422 net.cpp:150] Setting up rpn_big_output_box
I0413 19:09:35.449122 15422 net.cpp:157] Top shape: 1 384 63 94 (2274048)
I0413 19:09:35.449136 15422 net.cpp:165] Memory required for data: 3631433176
I0413 19:09:35.449146 15422 layer_factory.hpp:77] Creating layer rpn_big_output_box_relu
I0413 19:09:35.449156 15422 net.cpp:100] Creating Layer rpn_big_output_box_relu
I0413 19:09:35.449162 15422 net.cpp:434] rpn_big_output_box_relu <- rpn_big_output_box
I0413 19:09:35.449169 15422 net.cpp:395] rpn_big_output_box_relu -> rpn_big_output_box (in-place)
I0413 19:09:35.449180 15422 net.cpp:150] Setting up rpn_big_output_box_relu
I0413 19:09:35.449184 15422 net.cpp:157] Top shape: 1 384 63 94 (2274048)
I0413 19:09:35.449187 15422 net.cpp:165] Memory required for data: 3640529368
I0413 19:09:35.449190 15422 layer_factory.hpp:77] Creating layer rpn_big_bbox_pred
I0413 19:09:35.449203 15422 net.cpp:100] Creating Layer rpn_big_bbox_pred
I0413 19:09:35.449208 15422 net.cpp:434] rpn_big_bbox_pred <- rpn_big_output_box
I0413 19:09:35.449213 15422 net.cpp:408] rpn_big_bbox_pred -> rpn_big_bbox_pred
I0413 19:09:35.453351 15422 net.cpp:150] Setting up rpn_big_bbox_pred
I0413 19:09:35.453378 15422 net.cpp:157] Top shape: 1 104 61 92 (583648)
I0413 19:09:35.453382 15422 net.cpp:165] Memory required for data: 3642863960
I0413 19:09:35.453390 15422 layer_factory.hpp:77] Creating layer rpn_big_bbox_pred_rpn_big_bbox_pred_0_split
I0413 19:09:35.453400 15422 net.cpp:100] Creating Layer rpn_big_bbox_pred_rpn_big_bbox_pred_0_split
I0413 19:09:35.453405 15422 net.cpp:434] rpn_big_bbox_pred_rpn_big_bbox_pred_0_split <- rpn_big_bbox_pred
I0413 19:09:35.453414 15422 net.cpp:408] rpn_big_bbox_pred_rpn_big_bbox_pred_0_split -> rpn_big_bbox_pred_rpn_big_bbox_pred_0_split_0
I0413 19:09:35.453424 15422 net.cpp:408] rpn_big_bbox_pred_rpn_big_bbox_pred_0_split -> rpn_big_bbox_pred_rpn_big_bbox_pred_0_split_1
I0413 19:09:35.453457 15422 net.cpp:150] Setting up rpn_big_bbox_pred_rpn_big_bbox_pred_0_split
I0413 19:09:35.453466 15422 net.cpp:157] Top shape: 1 104 61 92 (583648)
I0413 19:09:35.453470 15422 net.cpp:157] Top shape: 1 104 61 92 (583648)
I0413 19:09:35.453474 15422 net.cpp:165] Memory required for data: 3647533144
I0413 19:09:35.453476 15422 layer_factory.hpp:77] Creating layer rpn_big_loss_bbox
I0413 19:09:35.453840 15422 net.cpp:100] Creating Layer rpn_big_loss_bbox
I0413 19:09:35.453850 15422 net.cpp:434] rpn_big_loss_bbox <- rpn_big_bbox_pred_rpn_big_bbox_pred_0_split_0
I0413 19:09:35.453855 15422 net.cpp:434] rpn_big_loss_bbox <- rpn_big_anchor_target_bbox_targets
I0413 19:09:35.453860 15422 net.cpp:434] rpn_big_loss_bbox <- rpn_big_anchor_target_inside_weights
I0413 19:09:35.453865 15422 net.cpp:434] rpn_big_loss_bbox <- rpn_big_anchor_target_outside_weights
I0413 19:09:35.453871 15422 net.cpp:408] rpn_big_loss_bbox -> rpn_big_loss_bbox
I0413 19:09:35.455646 15422 net.cpp:150] Setting up rpn_big_loss_bbox
I0413 19:09:35.455682 15422 net.cpp:157] Top shape: 1 (1)
I0413 19:09:35.455684 15422 net.cpp:160]     with loss weight 1
I0413 19:09:35.455698 15422 net.cpp:165] Memory required for data: 3647533148
I0413 19:09:35.455704 15422 layer_factory.hpp:77] Creating layer proposal
I0413 19:09:35.456117 15422 net.cpp:100] Creating Layer proposal
I0413 19:09:35.456130 15422 net.cpp:434] proposal <- rpn_big_cls_prob_reshape_rpn_big_cls_prob_reshape_0_split_1
I0413 19:09:35.456137 15422 net.cpp:434] proposal <- rpn_big_bbox_pred_rpn_big_bbox_pred_0_split_1
I0413 19:09:35.456142 15422 net.cpp:434] proposal <- input_im_info_input_1_split_1
I0413 19:09:35.456149 15422 net.cpp:408] proposal -> rpn_rois
I0413 19:09:35.460433 15422 net.cpp:150] Setting up proposal
I0413 19:09:35.460454 15422 net.cpp:157] Top shape: 1 5 (5)
I0413 19:09:35.460458 15422 net.cpp:165] Memory required for data: 3647533168
I0413 19:09:35.460471 15422 layer_factory.hpp:77] Creating layer roi-data
I0413 19:09:35.460805 15422 net.cpp:100] Creating Layer roi-data
I0413 19:09:35.460816 15422 net.cpp:434] roi-data <- rpn_rois
I0413 19:09:35.460824 15422 net.cpp:434] roi-data <- input_gt_boxes_input_2_split_1
I0413 19:09:35.460829 15422 net.cpp:408] roi-data -> rois
I0413 19:09:35.460841 15422 net.cpp:408] roi-data -> labels
I0413 19:09:35.460850 15422 net.cpp:408] roi-data -> bbox_targets
I0413 19:09:35.460856 15422 net.cpp:408] roi-data -> bbox_inside_weights
I0413 19:09:35.460863 15422 net.cpp:408] roi-data -> bbox_outside_weights
I0413 19:09:35.460870 15422 net.cpp:408] roi-data -> pid_label
anchors:
<<<<<<<<<<<<<<<<<<<<<<<<<<<<<<<<<<<<<<<<<<<<<<<<<<<<<<<<<<<<<<<<<<<<<<<<<<<<<<<<<<<<<<<<<<<<<<<<<<<<<<<<<<<<<<<<<<<<<<<<<<<<<<<<<<<<<<<<<<<<<<<<<<<<<<<<<<<<<<<<<<<<<<<<<<<<<<<<<<<<<<<<<<<<<<<<<<<<<<<<<<<<<<<<<<<<<<<<<<<<<<<<<<<<<<<<<<<<<<<<<<<<<<<<<<<<<<<<<<<<<<<<<<<<<<<<<<<<<<<<<<<<<<<<<<<<<<<<<<<<
[[ -84.  -40.   99.   55.]
 [-176.  -88.  191.  103.]
 [-360. -184.  375.  199.]
 [ -56.  -56.   71.   71.]
 [-120. -120.  135.  135.]
 [-248. -248.  263.  263.]
 [ -36.  -80.   51.   95.]
 [ -80. -168.   95.  183.]
 [-168. -344.  183.  359.]]
I0413 19:09:35.463023 15422 net.cpp:150] Setting up roi-data
I0413 19:09:35.463048 15422 net.cpp:157] Top shape: 1 5 (5)
I0413 19:09:35.463052 15422 net.cpp:157] Top shape: 1 1 (1)
I0413 19:09:35.463057 15422 net.cpp:157] Top shape: 1 8 (8)
I0413 19:09:35.463059 15422 net.cpp:157] Top shape: 1 8 (8)
I0413 19:09:35.463063 15422 net.cpp:157] Top shape: 1 8 (8)
I0413 19:09:35.463066 15422 net.cpp:157] Top shape: (0)
I0413 19:09:35.463069 15422 net.cpp:165] Memory required for data: 3647533288
I0413 19:09:35.463075 15422 layer_factory.hpp:77] Creating layer pid_label_roi-data_5_split
I0413 19:09:35.463086 15422 net.cpp:100] Creating Layer pid_label_roi-data_5_split
I0413 19:09:35.463093 15422 net.cpp:434] pid_label_roi-data_5_split <- pid_label
I0413 19:09:35.463101 15422 net.cpp:408] pid_label_roi-data_5_split -> pid_label_roi-data_5_split_0
…
