…
I0413 19:10:35.552278 15542 solver.cpp:48] Initializing solver from parameters: 
base_lr: 0.001
display: 20
lr_policy: "multistep"
gamma: 0.1
momentum: 0.9
weight_decay: 0.0005
snapshot: 0
snapshot_prefix: "faces_example"
net_param {
  name: "GeneratedModel_13_04_2017_19_10"
  layer {
    name: "input"
    type: "Python"
    top: "input_data"
    top: "input_im_info"
    top: "input_gt_boxes"
    top: "input_ignored_boxes"
    python_param {
      module: "layers.roi_data_layer"
      layer: "RoIDataLayer"
      param_str: "{\"num_classes\": 2}"
    }
  }
  layer {
    name: "conv1_1"
    type: "Convolution"
    bottom: "input_data"
    top: "conv1_1"
    param {
      lr_mult: 0
      decay_mult: 0
    }
    param {
      lr_mult: 0
      decay_mult: 0
    }
    convolution_param {
      num_output: 64
      pad: 1
      kernel_size: 3
    }
  }
  layer {
    name: "relu1_1"
    type: "ReLU"
    bottom: "conv1_1"
    top: "conv1_1"
  }
  layer {
    name: "conv1_2"
    type: "Convolution"
    bottom: "conv1_1"
    top: "conv1_2"
    param {
      lr_mult: 0
      decay_mult: 0
    }
    param {
      lr_mult: 0
      decay_mult: 0
    }
    convolution_param {
      num_output: 64
      pad: 1
      kernel_size: 3
    }
  }
  layer {
    name: "relu1_2"
    type: "ReLU"
    bottom: "conv1_2"
    top: "conv1_2"
  }
  layer {
    name: "pool1"
    type: "Pooling"
    bottom: "conv1_2"
    top: "pool1"
    pooling_param {
      pool: MAX
      kernel_size: 2
      stride: 2
    }
  }
  layer {
    name: "conv2_1"
    type: "Convolution"
    bottom: "pool1"
    top: "conv2_1"
    param {
      lr_mult: 0
      decay_mult: 0
    }
    param {
      lr_mult: 0
      decay_mult: 0
    }
    convolution_param {
      num_output: 128
      pad: 1
      kernel_size: 3
    }
  }
  layer {
    name: "relu2_1"
    type: "ReLU"
    bottom: "conv2_1"
    top: "conv2_1"
  }
  layer {
    name: "conv2_2"
    type: "Convolution"
    bottom: "conv2_1"
    top: "conv2_2"
    param {
      lr_mult: 0
      decay_mult: 0
    }
    param {
      lr_mult: 0
      decay_mult: 0
    }
    convolution_param {
      num_output: 128
      pad: 1
      kernel_size: 3
    }
  }
  layer {
    name: "relu2_2"
    type: "ReLU"
    bottom: "conv2_2"
    top: "conv2_2"
  }
  layer {
    name: "pool2"
    type: "Pooling"
    bottom: "conv2_2"
    top: "pool2"
    pooling_param {
      pool: MAX
      kernel_size: 2
      stride: 2
    }
  }
  layer {
    name: "conv3_1"
    type: "Convolution"
    bottom: "pool2"
    top: "conv3_1"
    param {
      lr_mult: 1
    }
    param {
      lr_mult: 2
    }
    convolution_param {
      num_output: 256
      pad: 1
      kernel_size: 3
    }
  }
  layer {
    name: "relu3_1"
    type: "ReLU"
    bottom: "conv3_1"
    top: "conv3_1"
  }
  layer {
    name: "conv3_2"
    type: "Convolution"
    bottom: "conv3_1"
    top: "conv3_2"
    param {
      lr_mult: 1
    }
    param {
      lr_mult: 2
    }
    convolution_param {
      num_output: 256
      pad: 1
      kernel_size: 3
    }
  }
  layer {
    name: "relu3_2"
    type: "ReLU"
    bottom: "conv3_2"
    top: "conv3_2"
  }
  layer {
    name: "conv3_3"
    type: "Convolution"
    bottom: "conv3_2"
    top: "conv3_3"
    param {
      lr_mult: 1
    }
    param {
      lr_mult: 2
    }
    convolution_param {
      num_output: 256
      pad: 1
      kernel_size: 3
    }
  }
  layer {
    name: "relu3_3"
    type: "ReLU"
    bottom: "conv3_3"
    top: "conv3_3"
  }
  layer {
    name: "pool3"
    type: "Pooling"
    bottom: "conv3_3"
    top: "pool3"
    pooling_param {
      pool: MAX
      kernel_size: 2
      stride: 2
    }
  }
  layer {
    name: "conv4_1"
    type: "Convolution"
    bottom: "pool3"
    top: "conv4_1"
    param {
      lr_mult: 1
    }
    param {
      lr_mult: 2
    }
    convolution_param {
      num_output: 512
      pad: 1
      kernel_size: 3
    }
  }
  layer {
    name: "relu4_1"
    type: "ReLU"
    bottom: "conv4_1"
    top: "conv4_1"
  }
  layer {
    name: "conv4_2"
    type: "Convolution"
    bottom: "conv4_1"
    top: "conv4_2"
    param {
      lr_mult: 1
    }
    param {
      lr_mult: 2
    }
    convolution_param {
      num_output: 512
      pad: 1
      kernel_size: 3
    }
  }
  layer {
    name: "relu4_2"
    type: "ReLU"
    bottom: "conv4_2"
    top: "conv4_2"
  }
  layer {
    name: "conv4_3"
    type: "Convolution"
    bottom: "conv4_2"
    top: "conv4_3"
    param {
      lr_mult: 1
    }
    param {
      lr_mult: 2
    }
    convolution_param {
      num_output: 512
      pad: 1
      kernel_size: 3
    }
  }
  layer {
    name: "relu4_3"
    type: "ReLU"
    bottom: "conv4_3"
    top: "conv4_3"
  }
  layer {
    name: "pool4"
    type: "Pooling"
    bottom: "conv4_3"
    top: "pool4"
    pooling_param {
      pool: MAX
      kernel_size: 2
      stride: 2
    }
  }
  layer {
    name: "conv5_1"
    type: "Convolution"
    bottom: "pool4"
    top: "conv5_1"
    param {
      lr_mult: 1
    }
    param {
      lr_mult: 2
    }
    convolution_param {
      num_output: 512
      pad: 1
      kernel_size: 3
    }
  }
  layer {
    name: "relu5_1"
    type: "ReLU"
    bottom: "conv5_1"
    top: "conv5_1"
  }
  layer {
    name: "conv5_2"
    type: "Convolution"
    bottom: "conv5_1"
    top: "conv5_2"
    param {
      lr_mult: 1
    }
    param {
      lr_mult: 2
    }
    convolution_param {
      num_output: 512
      pad: 1
      kernel_size: 3
    }
  }
  layer {
    name: "relu5_2"
    type: "ReLU"
    bottom: "conv5_2"
    top: "conv5_2"
  }
  layer {
    name: "conv5_3"
    type: "Convolution"
    bottom: "conv5_2"
    top: "conv5_3"
    param {
      lr_mult: 1
    }
    param {
      lr_mult: 2
    }
    convolution_param {
      num_output: 512
      pad: 1
      kernel_size: 3
    }
  }
  layer {
    name: "relu5_3"
    type: "ReLU"
    bottom: "conv5_3"
    top: "conv5_3"
  }
  layer {
    name: "rpn_big_conv1"
    type: "Convolution"
    bottom: "conv5_3"
    top: "rpn_big_conv1"
    param {
      lr_mult: 1
    }
    param {
      lr_mult: 2
    }
    convolution_param {
      num_output: 512
      pad: 1
      kernel_size: 3
      stride: 1
      weight_filler {
        type: "gaussian"
        mean: 0
        std: 0.01
      }
      bias_filler {
        type: "constant"
      }
    }
  }
  layer {
    name: "rpn_big_conv1_relu"
    type: "ReLU"
    bottom: "rpn_big_conv1"
    top: "rpn_big_conv1"
    relu_param {
      negative_slope: 0
    }
  }
  layer {
    name: "rpn_big_conv2"
    type: "Convolution"
    bottom: "rpn_big_conv1"
    top: "rpn_big_conv2"
    param {
      lr_mult: 1
    }
    param {
      lr_mult: 2
    }
    convolution_param {
      num_output: 512
      pad: 1
      kernel_size: 3
      stride: 1
      weight_filler {
        type: "gaussian"
        mean: 0
        std: 0.01
      }
      bias_filler {
        type: "constant"
      }
    }
  }
  layer {
    name: "rpn_big_conv2_relu"
    type: "ReLU"
    bottom: "rpn_big_conv2"
    top: "rpn_big_conv2"
    relu_param {
      negative_slope: 0
    }
  }
  layer {
    name: "rpn_big_conv2_drop"
    type: "Dropout"
    bottom: "rpn_big_conv2"
    top: "rpn_big_conv2"
    dropout_param {
      dropout_ratio: 0.3
    }
  }
  layer {
    name: "rpn_big_output_cls"
    type: "Convolution"
    bottom: "rpn_big_conv2"
    top: "rpn_big_output_cls"
    param {
      lr_mult: 1
    }
    param {
      lr_mult: 2
    }
    convolution_param {
      num_output: 384
      pad: 1
      kernel_size: 3
      stride: 1
      weight_filler {
        type: "gaussian"
        mean: 0
        std: 0.01
      }
      bias_filler {
        type: "constant"
      }
    }
  }
  layer {
    name: "rpn_big_output_cls_relu"
    type: "ReLU"
    bottom: "rpn_big_output_cls"
    top: "rpn_big_output_cls"
    relu_param {
      negative_slope: 0
    }
  }
  layer {
    name: "rpn_big_cls_score"
    type: "Convolution"
    bottom: "rpn_big_output_cls"
    top: "rpn_big_cls_score"
    param {
      lr_mult: 1
    }
    param {
      lr_mult: 2
    }
    convolution_param {
      num_output: 52
      pad: 0
      kernel_size: 3
      stride: 1
      weight_filler {
        type: "gaussian"
        mean: 0
        std: 0.01
      }
      bias_filler {
        type: "constant"
      }
    }
  }
  layer {
    name: "rpn_big_cls_score_reshape"
    type: "Reshape"
    bottom: "rpn_big_cls_score"
    top: "rpn_big_cls_score_reshape"
    reshape_param {
      shape {
        dim: 0
        dim: 2
        dim: -1
        dim: 0
      }
    }
  }
  layer {
    name: "rpn_big_cls_prob"
    type: "Softmax"
    bottom: "rpn_big_cls_score_reshape"
    top: "rpn_big_cls_prob"
  }
  layer {
    name: "rpn_big_cls_prob_reshape"
    type: "Reshape"
    bottom: "rpn_big_cls_prob"
    top: "rpn_big_cls_prob_reshape"
    reshape_param {
      shape {
        dim: 0
        dim: 52
        dim: -1
        dim: 0
      }
    }
  }
  layer {
    name: "rpn_big_anchor_target"
    type: "Python"
    bottom: "rpn_big_cls_score"
    bottom: "input_gt_boxes"
    bottom: "input_ignored_boxes"
    bottom: "input_im_info"
    bottom: "input_data"
    bottom: "rpn_big_cls_prob_reshape"
    top: "rpn_big_anchor_target_labels"
    top: "rpn_big_anchor_target_bbox_targets"
    top: "rpn_big_anchor_target_inside_weights"
    top: "rpn_big_anchor_target_outside_weights"
    python_param {
      module: "rpn.anchor_target_layer"
      layer: "AnchorTargetLayer"
      param_str: "{\"feat_stride\": 16, \"negative_overlap\": 0.4, \"anchor_shift_num_xy\": [[2, 2], [2, 2], [2, 2], [2, 2], [1, 1], [1, 1], [1, 1], [1, 1], [1, 1], [1, 1], [1, 1], [1, 1], [1, 1], [1, 1]], \"name\": \"rpn_big\", \"positive_overlap\": 0.6, \"batchsize\": 256, \"anchor_ratios\": [1.0], \"square_targets\": true, \"num_classes\": 1, \"fg_fraction\": 0.5, \"anchor_scales\": [2.5, 3.025, 3.66025, 4.4289024999999995, 5.358972025, 6.484356150249999, 7.846070941802498, 9.493745839581022, 11.487432465893036, 13.899793283730574, 16.818749873313998, 20.350687346709933, 24.62433168951902, 29.795441344318014], \"tn_fraction\": 0.2}"
    }
  }
  layer {
    name: "rpn_big_loss_cls"
    type: "SoftmaxWithLoss"
    bottom: "rpn_big_cls_score_reshape"
    bottom: "rpn_big_anchor_target_labels"
    top: "rpn_big_loss_cls"
    loss_weight: 1
    propagate_down: true
    propagate_down: false
    loss_param {
      ignore_label: -1
      normalization: VALID
    }
  }
  layer {
    name: "rpn_big_output_box"
    type: "Convolution"
    bottom: "rpn_big_conv2"
    top: "rpn_big_output_box"
    param {
      lr_mult: 1
    }
    param {
      lr_mult: 2
    }
    convolution_param {
      num_output: 384
      pad: 1
      kernel_size: 3
      stride: 1
      weight_filler {
        type: "gaussian"
        mean: 0
        std: 0.01
      }
      bias_filler {
        type: "constant"
      }
    }
  }
  layer {
    name: "rpn_big_output_box_relu"
    type: "ReLU"
    bottom: "rpn_big_output_box"
    top: "rpn_big_output_box"
    relu_param {
      negative_slope: 0
    }
  }
  layer {
    name: "rpn_big_bbox_pred"
    type: "Convolution"
    bottom: "rpn_big_output_box"
    top: "rpn_big_bbox_pred"
    param {
      lr_mult: 1
    }
    param {
      lr_mult: 2
    }
    convolution_param {
      num_output: 104
      pad: 0
      kernel_size: 3
      stride: 1
      weight_filler {
        type: "gaussian"
        mean: 0
        std: 0.01
      }
      bias_filler {
        type: "constant"
      }
    }
  }
  layer {
    name: "rpn_big_loss_bbox"
    type: "Python"
    bottom: "rpn_big_bbox_pred"
    bottom: "rpn_big_anchor_target_bbox_targets"
    bottom: "rpn_big_anchor_target_inside_weights"
    bottom: "rpn_big_anchor_target_outside_weights"
    top: "rpn_big_loss_bbox"
    loss_weight: 1
    python_param {
      module: "layers.smooth_l1_loss"
      layer: "SmoothL1LossLayer"
      param_str: "{\"sigma\": 3}"
    }
  }
  layer {
    name: "proposal"
    type: "Python"
    bottom: "rpn_big_cls_prob_reshape"
    bottom: "rpn_big_bbox_pred"
    bottom: "input_im_info"
    top: "rpn_rois"
    python_param {
      module: "rpn.proposal_layer"
      layer: "ProposalLayer"
      param_str: "{\"anchor_shift_num_xy\": [[2, 2], [2, 2], [2, 2], [2, 2], [1, 1], [1, 1], [1, 1], [1, 1], [1, 1], [1, 1], [1, 1], [1, 1], [1, 1], [1, 1]], \"feat_stride\": 16, \"num_classes\": 1, \"anchor_scales\": [2.5, 3.025, 3.66025, 4.4289024999999995, 5.358972025, 6.484356150249999, 7.846070941802498, 9.493745839581022, 11.487432465893036, 13.899793283730574, 16.818749873313998, 20.350687346709933, 24.62433168951902, 29.795441344318014], \"square_targets\": true, \"name\": \"rpn_big\", \"batchsize\": 256, \"anchor_ratios\": [1.0]}"
    }
  }
  layer {
    name: "roi-data"
    type: "Python"
    bottom: "rpn_rois"
    bottom: "input_gt_boxes"
    top: "rois"
    top: "labels"
    top: "bbox_targets"
    top: "bbox_inside_weights"
    top: "bbox_outside_weights"
    top: "pid_label"
    python_param {
      module: "rpn.proposal_target_layer"
      layer: "ProposalTargetLayer"
      param_str: "{\"num_classes\": 2, \"bg_aux_label\": 5532}"
    }
  }
  layer {
    name: "roi-pool"
    type: "ROIPooling"
    bottom: "conv5_3"
    bottom: "rois"
    top: "roi-pool"
    roi_pooling_param {
      pooled_h: 7
      pooled_w: 7
      spatial_scale: 0.0625
    }
  }
  layer {
    name: "fc6"
    type: "InnerProduct"
    bottom: "roi-pool"
    top: "fc6"
    param {
      lr_mult: 1
    }
    param {
      lr_mult: 2
    }
    inner_product_param {
      num_output: 4096
    }
  }
  layer {
    name: "relu6"
    type: "ReLU"
    bottom: "fc6"
    top: "fc6"
  }
  layer {
    name: "drop6"
    type: "Dropout"
    bottom: "fc6"
    top: "fc6"
    dropout_param {
      dropout_ratio: 0.5
    }
  }
  layer {
    name: "fc7"
    type: "InnerProduct"
    bottom: "fc6"
    top: "fc7"
    param {
      lr_mult: 1
    }
    param {
      lr_mult: 2
    }
    inner_product_param {
      num_output: 4096
    }
  }
  layer {
    name: "relu7"
    type: "ReLU"
    bottom: "fc7"
    top: "fc7"
  }
  layer {
    name: "drop7"
    type: "Dropout"
    bottom: "fc7"
    top: "fc7"
    dropout_param {
      dropout_ratio: 0.5
    }
  }
  layer {
    name: "bbox_pred"
    type: "InnerProduct"
    bottom: "fc7"
    top: "bbox_pred"
    param {
      lr_mult: 1
    }
    param {
      lr_mult: 2
    }
    inner_product_param {
      num_output: 8
      weight_filler {
        type: "gaussian"
        std: 0.001
      }
      bias_filler {
        type: "constant"
        value: 0
      }
    }
  }
  layer {
    name: "loss_bbox"
    type: "SmoothL1Loss"
    bottom: "bbox_pred"
    bottom: "bbox_targets"
    bottom: "bbox_inside_weights"
    bottom: "bbox_outside_weights"
    top: "loss_bbox"
    loss_weight: 1
  }
  layer {
    name: "feat"
    type: "InnerProduct"
    bottom: "fc7"
    top: "feat"
    param {
      lr_mult: 1
      decay_mult: 1
    }
    param {
      lr_mult: 2
      decay_mult: 0
    }
    inner_product_param {
      num_output: 256
      weight_filler {
        type: "gaussian"
        std: 0.01
      }
      bias_filler {
        type: "constant"
        value: 0
      }
    }
  }
  layer {
    name: "relu8"
    type: "ReLU"
    bottom: "feat"
    top: "feat"
  }
  layer {
    name: "drop8"
    type: "Dropout"
    bottom: "feat"
    top: "feat"
    dropout_param {
      dropout_ratio: 0.5
    }
  }
  layer {
    name: "pid_score"
    type: "InnerProduct"
    bottom: "feat"
    top: "pid_score"
    param {
      lr_mult: 1
      decay_mult: 1
    }
    param {
      lr_mult: 2
      decay_mult: 0
    }
    inner_product_param {
      num_output: 5533
      weight_filler {
        type: "gaussian"
        std: 0.001
      }
      bias_filler {
        type: "constant"
        value: 0
      }
    }
  }
  layer {
    name: "pid_accuracy"
    type: "Accuracy"
    bottom: "pid_label"
    bottom: "pid_score"
    top: "pid_accuracy"
    accuracy_param {
      ignore_label: -1
    }
  }
}
average_loss: 100
stepvalue: 70000
stepvalue: 120000
iter_size: 2
I0413 19:10:35.552387 15542 solver.cpp:86] Creating training net specified in net_param.
I0413 19:10:35.552850 15542 net.cpp:58] Initializing net from parameters: 
name: "GeneratedModel_13_04_2017_19_10"
state {
  phase: TRAIN
}
layer {
  name: "input"
  type: "Python"
  top: "input_data"
  top: "input_im_info"
  top: "input_gt_boxes"
  top: "input_ignored_boxes"
  python_param {
    module: "layers.roi_data_layer"
    layer: "RoIDataLayer"
    param_str: "{\"num_classes\": 2}"
  }
}
layer {
  name: "conv1_1"
  type: "Convolution"
  bottom: "input_data"
  top: "conv1_1"
  param {
    lr_mult: 0
    decay_mult: 0
  }
  param {
    lr_mult: 0
    decay_mult: 0
  }
  convolution_param {
    num_output: 64
    pad: 1
    kernel_size: 3
  }
}
layer {
  name: "relu1_1"
  type: "ReLU"
  bottom: "conv1_1"
  top: "conv1_1"
}
layer {
  name: "conv1_2"
  type: "Convolution"
  bottom: "conv1_1"
  top: "conv1_2"
  param {
    lr_mult: 0
    decay_mult: 0
  }
  param {
    lr_mult: 0
    decay_mult: 0
  }
  convolution_param {
    num_output: 64
    pad: 1
    kernel_size: 3
  }
}
layer {
  name: "relu1_2"
  type: "ReLU"
  bottom: "conv1_2"
  top: "conv1_2"
}
layer {
  name: "pool1"
  type: "Pooling"
  bottom: "conv1_2"
  top: "pool1"
  pooling_param {
    pool: MAX
    kernel_size: 2
    stride: 2
  }
}
layer {
  name: "conv2_1"
  type: "Convolution"
  bottom: "pool1"
  top: "conv2_1"
  param {
    lr_mult: 0
    decay_mult: 0
  }
  param {
    lr_mult: 0
    decay_mult: 0
  }
  convolution_param {
    num_output: 128
    pad: 1
    kernel_size: 3
  }
}
layer {
  name: "relu2_1"
  type: "ReLU"
  bottom: "conv2_1"
  top: "conv2_1"
}
layer {
  name: "conv2_2"
  type: "Convolution"
  bottom: "conv2_1"
  top: "conv2_2"
  param {
    lr_mult: 0
    decay_mult: 0
  }
  param {
    lr_mult: 0
    decay_mult: 0
  }
  convolution_param {
    num_output: 128
    pad: 1
    kernel_size: 3
  }
}
layer {
  name: "relu2_2"
  type: "ReLU"
  bottom: "conv2_2"
  top: "conv2_2"
}
layer {
  name: "pool2"
  type: "Pooling"
  bottom: "conv2_2"
  top: "pool2"
  pooling_param {
    pool: MAX
    kernel_size: 2
    stride: 2
  }
}
layer {
  name: "conv3_1"
  type: "Convolution"
  bottom: "pool2"
  top: "conv3_1"
  param {
    lr_mult: 1
  }
  param {
    lr_mult: 2
  }
  convolution_param {
    num_output: 256
    pad: 1
    kernel_size: 3
  }
}
layer {
  name: "relu3_1"
  type: "ReLU"
  bottom: "conv3_1"
  top: "conv3_1"
}
layer {
  name: "conv3_2"
  type: "Convolution"
  bottom: "conv3_1"
  top: "conv3_2"
  param {
    lr_mult: 1
  }
  param {
    lr_mult: 2
  }
  convolution_param {
    num_output: 256
    pad: 1
    kernel_size: 3
  }
}
layer {
  name: "relu3_2"
  type: "ReLU"
  bottom: "conv3_2"
  top: "conv3_2"
}
layer {
  name: "conv3_3"
  type: "Convolution"
  bottom: "conv3_2"
  top: "conv3_3"
  param {
    lr_mult: 1
  }
  param {
    lr_mult: 2
  }
  convolution_param {
    num_output: 256
    pad: 1
    kernel_size: 3
  }
}
layer {
  name: "relu3_3"
  type: "ReLU"
  bottom: "conv3_3"
  top: "conv3_3"
}
layer {
  name: "pool3"
  type: "Pooling"
  bottom: "conv3_3"
  top: "pool3"
  pooling_param {
    pool: MAX
    kernel_size: 2
    stride: 2
  }
}
layer {
  name: "conv4_1"
  type: "Convolution"
  bottom: "pool3"
  top: "conv4_1"
  param {
    lr_mult: 1
  }
  param {
    lr_mult: 2
  }
  convolution_param {
    num_output: 512
    pad: 1
    kernel_size: 3
  }
}
layer {
  name: "relu4_1"
  type: "ReLU"
  bottom: "conv4_1"
  top: "conv4_1"
}
layer {
  name: "conv4_2"
  type: "Convolution"
  bottom: "conv4_1"
  top: "conv4_2"
  param {
    lr_mult: 1
  }
  param {
    lr_mult: 2
  }
  convolution_param {
    num_output: 512
    pad: 1
    kernel_size: 3
  }
}
layer {
  name: "relu4_2"
  type: "ReLU"
  bottom: "conv4_2"
  top: "conv4_2"
}
layer {
  name: "conv4_3"
  type: "Convolution"
  bottom: "conv4_2"
  top: "conv4_3"
  param {
    lr_mult: 1
  }
  param {
    lr_mult: 2
  }
  convolution_param {
    num_output: 512
    pad: 1
    kernel_size: 3
  }
}
layer {
  name: "relu4_3"
  type: "ReLU"
  bottom: "conv4_3"
  top: "conv4_3"
}
layer {
  name: "pool4"
  type: "Pooling"
  bottom: "conv4_3"
  top: "pool4"
  pooling_param {
    pool: MAX
    kernel_size: 2
    stride: 2
  }
}
layer {
  name: "conv5_1"
  type: "Convolution"
  bottom: "pool4"
  top: "conv5_1"
  param {
    lr_mult: 1
  }
  param {
    lr_mult: 2
  }
  convolution_param {
    num_output: 512
    pad: 1
    kernel_size: 3
  }
}
layer {
  name: "relu5_1"
  type: "ReLU"
  bottom: "conv5_1"
  top: "conv5_1"
}
layer {
  name: "conv5_2"
  type: "Convolution"
  bottom: "conv5_1"
  top: "conv5_2"
  param {
    lr_mult: 1
  }
  param {
    lr_mult: 2
  }
  convolution_param {
    num_output: 512
    pad: 1
    kernel_size: 3
  }
}
layer {
  name: "relu5_2"
  type: "ReLU"
  bottom: "conv5_2"
  top: "conv5_2"
}
layer {
  name: "conv5_3"
  type: "Convolution"
  bottom: "conv5_2"
  top: "conv5_3"
  param {
    lr_mult: 1
  }
  param {
    lr_mult: 2
  }
  convolution_param {
    num_output: 512
    pad: 1
    kernel_size: 3
  }
}
layer {
  name: "relu5_3"
  type: "ReLU"
  bottom: "conv5_3"
  top: "conv5_3"
}
layer {
  name: "rpn_big_conv1"
  type: "Convolution"
  bottom: "conv5_3"
  top: "rpn_big_conv1"
  param {
    lr_mult: 1
  }
  param {
    lr_mult: 2
  }
  convolution_param {
    num_output: 512
    pad: 1
    kernel_size: 3
    stride: 1
    weight_filler {
      type: "gaussian"
      mean: 0
      std: 0.01
    }
    bias_filler {
      type: "constant"
    }
  }
}
layer {
  name: "rpn_big_conv1_relu"
  type: "ReLU"
  bottom: "rpn_big_conv1"
  top: "rpn_big_conv1"
  relu_param {
    negative_slope: 0
  }
}
layer {
  name: "rpn_big_conv2"
  type: "Convolution"
  bottom: "rpn_big_conv1"
  top: "rpn_big_conv2"
  param {
    lr_mult: 1
  }
  param {
    lr_mult: 2
  }
  convolution_param {
    num_output: 512
    pad: 1
    kernel_size: 3
    stride: 1
    weight_filler {
      type: "gaussian"
      mean: 0
      std: 0.01
    }
    bias_filler {
      type: "constant"
    }
  }
}
layer {
  name: "rpn_big_conv2_relu"
  type: "ReLU"
  bottom: "rpn_big_conv2"
  top: "rpn_big_conv2"
  relu_param {
    negative_slope: 0
  }
}
layer {
  name: "rpn_big_conv2_drop"
  type: "Dropout"
  bottom: "rpn_big_conv2"
  top: "rpn_big_conv2"
  dropout_param {
    dropout_ratio: 0.3
  }
}
layer {
  name: "rpn_big_output_cls"
  type: "Convolution"
  bottom: "rpn_big_conv2"
  top: "rpn_big_output_cls"
  param {
    lr_mult: 1
  }
  param {
    lr_mult: 2
  }
  convolution_param {
    num_output: 384
    pad: 1
    kernel_size: 3
    stride: 1
    weight_filler {
      type: "gaussian"
      mean: 0
      std: 0.01
    }
    bias_filler {
      type: "constant"
    }
  }
}
layer {
  name: "rpn_big_output_cls_relu"
  type: "ReLU"
  bottom: "rpn_big_output_cls"
  top: "rpn_big_output_cls"
  relu_param {
    negative_slope: 0
  }
}
layer {
  name: "rpn_big_cls_score"
  type: "Convolution"
  bottom: "rpn_big_output_cls"
  top: "rpn_big_cls_score"
  param {
    lr_mult: 1
  }
  param {
    lr_mult: 2
  }
  convolution_param {
    num_output: 52
    pad: 0
    kernel_size: 3
    stride: 1
    weight_filler {
      type: "gaussian"
      mean: 0
      std: 0.01
    }
    bias_filler {
      type: "constant"
    }
  }
}
layer {
  name: "rpn_big_cls_score_reshape"
  type: "Reshape"
  bottom: "rpn_big_cls_score"
  top: "rpn_big_cls_score_reshape"
  reshape_param {
    shape {
      dim: 0
      dim: 2
      dim: -1
      dim: 0
    }
  }
}
layer {
  name: "rpn_big_cls_prob"
  type: "Softmax"
  bottom: "rpn_big_cls_score_reshape"
  top: "rpn_big_cls_prob"
}
layer {
  name: "rpn_big_cls_prob_reshape"
  type: "Reshape"
  bottom: "rpn_big_cls_prob"
  top: "rpn_big_cls_prob_reshape"
  reshape_param {
    shape {
      dim: 0
      dim: 52
      dim: -1
      dim: 0
    }
  }
}
layer {
  name: "rpn_big_anchor_target"
  type: "Python"
  bottom: "rpn_big_cls_score"
  bottom: "input_gt_boxes"
  bottom: "input_ignored_boxes"
  bottom: "input_im_info"
  bottom: "input_data"
  bottom: "rpn_big_cls_prob_reshape"
  top: "rpn_big_anchor_target_labels"
  top: "rpn_big_anchor_target_bbox_targets"
  top: "rpn_big_anchor_target_inside_weights"
  top: "rpn_big_anchor_target_outside_weights"
  python_param {
    module: "rpn.anchor_target_layer"
    layer: "AnchorTargetLayer"
    param_str: "{\"feat_stride\": 16, \"negative_overlap\": 0.4, \"anchor_shift_num_xy\": [[2, 2], [2, 2], [2, 2], [2, 2], [1, 1], [1, 1], [1, 1], [1, 1], [1, 1], [1, 1], [1, 1], [1, 1], [1, 1], [1, 1]], \"name\": \"rpn_big\", \"positive_overlap\": 0.6, \"batchsize\": 256, \"anchor_ratios\": [1.0], \"square_targets\": true, \"num_classes\": 1, \"fg_fraction\": 0.5, \"anchor_scales\": [2.5, 3.025, 3.66025, 4.4289024999999995, 5.358972025, 6.484356150249999, 7.846070941802498, 9.493745839581022, 11.487432465893036, 13.899793283730574, 16.818749873313998, 20.350687346709933, 24.62433168951902, 29.795441344318014], \"tn_fraction\": 0.2}"
  }
}
layer {
  name: "rpn_big_loss_cls"
  type: "SoftmaxWithLoss"
  bottom: "rpn_big_cls_score_reshape"
  bottom: "rpn_big_anchor_target_labels"
  top: "rpn_big_loss_cls"
  loss_weight: 1
  propagate_down: true
  propagate_down: false
  loss_param {
    ignore_label: -1
    normalization: VALID
  }
}
layer {
  name: "rpn_big_output_box"
  type: "Convolution"
  bottom: "rpn_big_conv2"
  top: "rpn_big_output_box"
  param {
    lr_mult: 1
  }
  param {
    lr_mult: 2
  }
  convolution_param {
    num_output: 384
    pad: 1
    kernel_size: 3
    stride: 1
    weight_filler {
      type: "gaussian"
      mean: 0
      std: 0.01
    }
    bias_filler {
      type: "constant"
    }
  }
}
layer {
  name: "rpn_big_output_box_relu"
  type: "ReLU"
  bottom: "rpn_big_output_box"
  top: "rpn_big_output_box"
  relu_param {
    negative_slope: 0
  }
}
layer {
  name: "rpn_big_bbox_pred"
  type: "Convolution"
  bottom: "rpn_big_output_box"
  top: "rpn_big_bbox_pred"
  param {
    lr_mult: 1
  }
  param {
    lr_mult: 2
  }
  convolution_param {
    num_output: 104
    pad: 0
    kernel_size: 3
    stride: 1
    weight_filler {
      type: "gaussian"
      mean: 0
      std: 0.01
    }
    bias_filler {
      type: "constant"
    }
  }
}
layer {
  name: "rpn_big_loss_bbox"
  type: "Python"
  bottom: "rpn_big_bbox_pred"
  bottom: "rpn_big_anchor_target_bbox_targets"
  bottom: "rpn_big_anchor_target_inside_weights"
  bottom: "rpn_big_anchor_target_outside_weights"
  top: "rpn_big_loss_bbox"
  loss_weight: 1
  python_param {
    module: "layers.smooth_l1_loss"
    layer: "SmoothL1LossLayer"
    param_str: "{\"sigma\": 3}"
  }
}
layer {
  name: "proposal"
  type: "Python"
  bottom: "rpn_big_cls_prob_reshape"
  bottom: "rpn_big_bbox_pred"
  bottom: "input_im_info"
  top: "rpn_rois"
  python_param {
    module: "rpn.proposal_layer"
    layer: "ProposalLayer"
    param_str: "{\"anchor_shift_num_xy\": [[2, 2], [2, 2], [2, 2], [2, 2], [1, 1], [1, 1], [1, 1], [1, 1], [1, 1], [1, 1], [1, 1], [1, 1], [1, 1], [1, 1]], \"feat_stride\": 16, \"num_classes\": 1, \"anchor_scales\": [2.5, 3.025, 3.66025, 4.4289024999999995, 5.358972025, 6.484356150249999, 7.846070941802498, 9.493745839581022, 11.487432465893036, 13.899793283730574, 16.818749873313998, 20.350687346709933, 24.62433168951902, 29.795441344318014], \"square_targets\": true, \"name\": \"rpn_big\", \"batchsize\": 256, \"anchor_ratios\": [1.0]}"
  }
}
layer {
  name: "roi-data"
  type: "Python"
  bottom: "rpn_rois"
  bottom: "input_gt_boxes"
  top: "rois"
  top: "labels"
  top: "bbox_targets"
  top: "bbox_inside_weights"
  top: "bbox_outside_weights"
  top: "pid_label"
  python_param {
    module: "rpn.proposal_target_layer"
    layer: "ProposalTargetLayer"
    param_str: "{\"num_classes\": 2, \"bg_aux_label\": 5532}"
  }
}
layer {
  name: "roi-pool"
  type: "ROIPooling"
  bottom: "conv5_3"
  bottom: "rois"
  top: "roi-pool"
  roi_pooling_param {
    pooled_h: 7
    pooled_w: 7
    spatial_scale: 0.0625
  }
}
layer {
  name: "fc6"
  type: "InnerProduct"
  bottom: "roi-pool"
  top: "fc6"
  param {
    lr_mult: 1
  }
  param {
    lr_mult: 2
  }
  inner_product_param {
    num_output: 4096
  }
}
layer {
  name: "relu6"
  type: "ReLU"
  bottom: "fc6"
  top: "fc6"
}
layer {
  name: "drop6"
  type: "Dropout"
  bottom: "fc6"
  top: "fc6"
  dropout_param {
    dropout_ratio: 0.5
  }
}
layer {
  name: "fc7"
  type: "InnerProduct"
  bottom: "fc6"
  top: "fc7"
  param {
    lr_mult: 1
  }
  param {
    lr_mult: 2
  }
  inner_product_param {
    num_output: 4096
  }
}
layer {
  name: "relu7"
  type: "ReLU"
  bottom: "fc7"
  top: "fc7"
}
layer {
  name: "drop7"
  type: "Dropout"
  bottom: "fc7"
  top: "fc7"
  dropout_param {
    dropout_ratio: 0.5
  }
}
layer {
  name: "bbox_pred"
  type: "InnerProduct"
  bottom: "fc7"
  top: "bbox_pred"
  param {
    lr_mult: 1
  }
  param {
    lr_mult: 2
  }
  inner_product_param {
    num_output: 8
    weight_filler {
      type: "gaussian"
      std: 0.001
    }
    bias_filler {
      type: "constant"
      value: 0
    }
  }
}
layer {
  name: "loss_bbox"
  type: "SmoothL1Loss"
  bottom: "bbox_pred"
  bottom: "bbox_targets"
  bottom: "bbox_inside_weights"
  bottom: "bbox_outside_weights"
  top: "loss_bbox"
  loss_weight: 1
}
layer {
  name: "feat"
  type: "InnerProduct"
  bottom: "fc7"
  top: "feat"
  param {
    lr_mult: 1
    decay_mult: 1
  }
  param {
    lr_mult: 2
    decay_mult: 0
  }
  inner_product_param {
    num_output: 256
    weight_filler {
      type: "gaussian"
      std: 0.01
    }
    bias_filler {
      type: "constant"
      value: 0
    }
  }
}
layer {
  name: "relu8"
  type: "ReLU"
  bottom: "feat"
  top: "feat"
}
layer {
  name: "drop8"
  type: "Dropout"
  bottom: "feat"
  top: "feat"
  dropout_param {
    dropout_ratio: 0.5
  }
}
layer {
  name: "pid_score"
  type: "InnerProduct"
  bottom: "feat"
  top: "pid_score"
  param {
    lr_mult: 1
    decay_mult: 1
  }
  param {
    lr_mult: 2
    decay_mult: 0
  }
  inner_product_param {
    num_output: 5533
    weight_filler {
      type: "gaussian"
      std: 0.001
    }
    bias_filler {
      type: "constant"
      value: 0
    }
  }
}
layer {
  name: "pid_accuracy"
  type: "Accuracy"
  bottom: "pid_label"
  bottom: "pid_score"
  top: "pid_accuracy"
  accuracy_param {
    ignore_label: -1
  }
}
I0413 19:10:35.553114 15542 layer_factory.hpp:77] Creating layer input
I0413 19:10:35.554343 15542 net.cpp:100] Creating Layer input
I0413 19:10:35.554360 15542 net.cpp:408] input -> input_data
I0413 19:10:35.554371 15542 net.cpp:408] input -> input_im_info
I0413 19:10:35.554378 15542 net.cpp:408] input -> input_gt_boxes
I0413 19:10:35.554386 15542 net.cpp:408] input -> input_ignored_boxes
RoiDataLayer: name_to_top: {'gt_boxes': 2, 'ignored_boxes': 3, 'data': 0, 'im_info': 1}
I0413 19:10:35.869705 15542 net.cpp:150] Setting up input
I0413 19:10:35.869730 15542 net.cpp:157] Top shape: 1 3 1000 1500 (4500000)
I0413 19:10:35.869735 15542 net.cpp:157] Top shape: 1 3 (3)
I0413 19:10:35.869740 15542 net.cpp:157] Top shape: 1 5 (5)
I0413 19:10:35.869743 15542 net.cpp:157] Top shape: 1 5 (5)
I0413 19:10:35.869745 15542 net.cpp:165] Memory required for data: 18000052
I0413 19:10:35.869753 15542 layer_factory.hpp:77] Creating layer input_data_input_0_split
I0413 19:10:35.869771 15542 net.cpp:100] Creating Layer input_data_input_0_split
I0413 19:10:35.869791 15542 net.cpp:434] input_data_input_0_split <- input_data
I0413 19:10:35.869806 15542 net.cpp:408] input_data_input_0_split -> input_data_input_0_split_0
I0413 19:10:35.869817 15542 net.cpp:408] input_data_input_0_split -> input_data_input_0_split_1
I0413 19:10:35.869853 15542 net.cpp:150] Setting up input_data_input_0_split
I0413 19:10:35.869860 15542 net.cpp:157] Top shape: 1 3 1000 1500 (4500000)
I0413 19:10:35.869864 15542 net.cpp:157] Top shape: 1 3 1000 1500 (4500000)
I0413 19:10:35.869868 15542 net.cpp:165] Memory required for data: 54000052
I0413 19:10:35.869871 15542 layer_factory.hpp:77] Creating layer input_im_info_input_1_split
I0413 19:10:35.869877 15542 net.cpp:100] Creating Layer input_im_info_input_1_split
I0413 19:10:35.869880 15542 net.cpp:434] input_im_info_input_1_split <- input_im_info
I0413 19:10:35.869885 15542 net.cpp:408] input_im_info_input_1_split -> input_im_info_input_1_split_0
I0413 19:10:35.869894 15542 net.cpp:408] input_im_info_input_1_split -> input_im_info_input_1_split_1
I0413 19:10:35.869921 15542 net.cpp:150] Setting up input_im_info_input_1_split
I0413 19:10:35.869928 15542 net.cpp:157] Top shape: 1 3 (3)
I0413 19:10:35.869932 15542 net.cpp:157] Top shape: 1 3 (3)
I0413 19:10:35.869935 15542 net.cpp:165] Memory required for data: 54000076
I0413 19:10:35.869938 15542 layer_factory.hpp:77] Creating layer input_gt_boxes_input_2_split
I0413 19:10:35.869945 15542 net.cpp:100] Creating Layer input_gt_boxes_input_2_split
I0413 19:10:35.869948 15542 net.cpp:434] input_gt_boxes_input_2_split <- input_gt_boxes
I0413 19:10:35.869953 15542 net.cpp:408] input_gt_boxes_input_2_split -> input_gt_boxes_input_2_split_0
I0413 19:10:35.869961 15542 net.cpp:408] input_gt_boxes_input_2_split -> input_gt_boxes_input_2_split_1
I0413 19:10:35.869988 15542 net.cpp:150] Setting up input_gt_boxes_input_2_split
I0413 19:10:35.869997 15542 net.cpp:157] Top shape: 1 5 (5)
I0413 19:10:35.870000 15542 net.cpp:157] Top shape: 1 5 (5)
I0413 19:10:35.870003 15542 net.cpp:165] Memory required for data: 54000116
I0413 19:10:35.870007 15542 layer_factory.hpp:77] Creating layer conv1_1
I0413 19:10:35.870018 15542 net.cpp:100] Creating Layer conv1_1
I0413 19:10:35.870023 15542 net.cpp:434] conv1_1 <- input_data_input_0_split_0
I0413 19:10:35.870028 15542 net.cpp:408] conv1_1 -> conv1_1
I0413 19:10:35.873076 15542 net.cpp:150] Setting up conv1_1
I0413 19:10:35.873111 15542 net.cpp:157] Top shape: 1 64 1000 1500 (96000000)
I0413 19:10:35.873114 15542 net.cpp:165] Memory required for data: 438000116
I0413 19:10:35.873131 15542 layer_factory.hpp:77] Creating layer relu1_1
I0413 19:10:35.873143 15542 net.cpp:100] Creating Layer relu1_1
I0413 19:10:35.873148 15542 net.cpp:434] relu1_1 <- conv1_1
I0413 19:10:35.873155 15542 net.cpp:395] relu1_1 -> conv1_1 (in-place)
I0413 19:10:35.873167 15542 net.cpp:150] Setting up relu1_1
I0413 19:10:35.873172 15542 net.cpp:157] Top shape: 1 64 1000 1500 (96000000)
I0413 19:10:35.873174 15542 net.cpp:165] Memory required for data: 822000116
I0413 19:10:35.873178 15542 layer_factory.hpp:77] Creating layer conv1_2
I0413 19:10:35.873188 15542 net.cpp:100] Creating Layer conv1_2
I0413 19:10:35.873190 15542 net.cpp:434] conv1_2 <- conv1_1
I0413 19:10:35.873195 15542 net.cpp:408] conv1_2 -> conv1_2
I0413 19:10:35.876340 15542 net.cpp:150] Setting up conv1_2
I0413 19:10:35.876380 15542 net.cpp:157] Top shape: 1 64 1000 1500 (96000000)
I0413 19:10:35.876384 15542 net.cpp:165] Memory required for data: 1206000116
I0413 19:10:35.876401 15542 layer_factory.hpp:77] Creating layer relu1_2
I0413 19:10:35.876412 15542 net.cpp:100] Creating Layer relu1_2
I0413 19:10:35.876417 15542 net.cpp:434] relu1_2 <- conv1_2
I0413 19:10:35.876425 15542 net.cpp:395] relu1_2 -> conv1_2 (in-place)
I0413 19:10:35.876436 15542 net.cpp:150] Setting up relu1_2
I0413 19:10:35.876441 15542 net.cpp:157] Top shape: 1 64 1000 1500 (96000000)
I0413 19:10:35.876444 15542 net.cpp:165] Memory required for data: 1590000116
I0413 19:10:35.876447 15542 layer_factory.hpp:77] Creating layer pool1
I0413 19:10:35.876456 15542 net.cpp:100] Creating Layer pool1
I0413 19:10:35.876461 15542 net.cpp:434] pool1 <- conv1_2
I0413 19:10:35.876466 15542 net.cpp:408] pool1 -> pool1
I0413 19:10:35.876536 15542 net.cpp:150] Setting up pool1
I0413 19:10:35.876544 15542 net.cpp:157] Top shape: 1 64 500 750 (24000000)
I0413 19:10:35.876547 15542 net.cpp:165] Memory required for data: 1686000116
I0413 19:10:35.876551 15542 layer_factory.hpp:77] Creating layer conv2_1
I0413 19:10:35.876562 15542 net.cpp:100] Creating Layer conv2_1
I0413 19:10:35.876565 15542 net.cpp:434] conv2_1 <- pool1
I0413 19:10:35.876572 15542 net.cpp:408] conv2_1 -> conv2_1
I0413 19:10:35.877787 15542 net.cpp:150] Setting up conv2_1
I0413 19:10:35.877821 15542 net.cpp:157] Top shape: 1 128 500 750 (48000000)
I0413 19:10:35.877825 15542 net.cpp:165] Memory required for data: 1878000116
I0413 19:10:35.877838 15542 layer_factory.hpp:77] Creating layer relu2_1
I0413 19:10:35.877846 15542 net.cpp:100] Creating Layer relu2_1
I0413 19:10:35.877851 15542 net.cpp:434] relu2_1 <- conv2_1
I0413 19:10:35.877856 15542 net.cpp:395] relu2_1 -> conv2_1 (in-place)
I0413 19:10:35.877866 15542 net.cpp:150] Setting up relu2_1
I0413 19:10:35.877869 15542 net.cpp:157] Top shape: 1 128 500 750 (48000000)
I0413 19:10:35.877872 15542 net.cpp:165] Memory required for data: 2070000116
I0413 19:10:35.877876 15542 layer_factory.hpp:77] Creating layer conv2_2
I0413 19:10:35.877883 15542 net.cpp:100] Creating Layer conv2_2
I0413 19:10:35.877887 15542 net.cpp:434] conv2_2 <- conv2_1
I0413 19:10:35.877894 15542 net.cpp:408] conv2_2 -> conv2_2
I0413 19:10:35.878813 15542 net.cpp:150] Setting up conv2_2
I0413 19:10:35.878837 15542 net.cpp:157] Top shape: 1 128 500 750 (48000000)
I0413 19:10:35.878840 15542 net.cpp:165] Memory required for data: 2262000116
I0413 19:10:35.878859 15542 layer_factory.hpp:77] Creating layer relu2_2
I0413 19:10:35.878867 15542 net.cpp:100] Creating Layer relu2_2
I0413 19:10:35.878872 15542 net.cpp:434] relu2_2 <- conv2_2
I0413 19:10:35.878878 15542 net.cpp:395] relu2_2 -> conv2_2 (in-place)
I0413 19:10:35.878887 15542 net.cpp:150] Setting up relu2_2
I0413 19:10:35.878891 15542 net.cpp:157] Top shape: 1 128 500 750 (48000000)
I0413 19:10:35.878895 15542 net.cpp:165] Memory required for data: 2454000116
I0413 19:10:35.878897 15542 layer_factory.hpp:77] Creating layer pool2
I0413 19:10:35.878903 15542 net.cpp:100] Creating Layer pool2
I0413 19:10:35.878906 15542 net.cpp:434] pool2 <- conv2_2
I0413 19:10:35.878913 15542 net.cpp:408] pool2 -> pool2
I0413 19:10:35.878954 15542 net.cpp:150] Setting up pool2
I0413 19:10:35.878962 15542 net.cpp:157] Top shape: 1 128 250 375 (12000000)
I0413 19:10:35.878965 15542 net.cpp:165] Memory required for data: 2502000116
I0413 19:10:35.878968 15542 layer_factory.hpp:77] Creating layer conv3_1
I0413 19:10:35.878978 15542 net.cpp:100] Creating Layer conv3_1
I0413 19:10:35.878980 15542 net.cpp:434] conv3_1 <- pool2
I0413 19:10:35.878986 15542 net.cpp:408] conv3_1 -> conv3_1
I0413 19:10:35.880173 15542 net.cpp:150] Setting up conv3_1
I0413 19:10:35.880216 15542 net.cpp:157] Top shape: 1 256 250 375 (24000000)
I0413 19:10:35.880223 15542 net.cpp:165] Memory required for data: 2598000116
I0413 19:10:35.880246 15542 layer_factory.hpp:77] Creating layer relu3_1
I0413 19:10:35.880260 15542 net.cpp:100] Creating Layer relu3_1
I0413 19:10:35.880267 15542 net.cpp:434] relu3_1 <- conv3_1
I0413 19:10:35.880278 15542 net.cpp:395] relu3_1 -> conv3_1 (in-place)
I0413 19:10:35.880291 15542 net.cpp:150] Setting up relu3_1
I0413 19:10:35.880300 15542 net.cpp:157] Top shape: 1 256 250 375 (24000000)
I0413 19:10:35.880306 15542 net.cpp:165] Memory required for data: 2694000116
I0413 19:10:35.880311 15542 layer_factory.hpp:77] Creating layer conv3_2
I0413 19:10:35.880331 15542 net.cpp:100] Creating Layer conv3_2
I0413 19:10:35.880339 15542 net.cpp:434] conv3_2 <- conv3_1
I0413 19:10:35.880349 15542 net.cpp:408] conv3_2 -> conv3_2
I0413 19:10:35.882122 15542 net.cpp:150] Setting up conv3_2
I0413 19:10:35.882156 15542 net.cpp:157] Top shape: 1 256 250 375 (24000000)
I0413 19:10:35.882160 15542 net.cpp:165] Memory required for data: 2790000116
I0413 19:10:35.882170 15542 layer_factory.hpp:77] Creating layer relu3_2
I0413 19:10:35.882179 15542 net.cpp:100] Creating Layer relu3_2
I0413 19:10:35.882184 15542 net.cpp:434] relu3_2 <- conv3_2
I0413 19:10:35.882191 15542 net.cpp:395] relu3_2 -> conv3_2 (in-place)
I0413 19:10:35.882201 15542 net.cpp:150] Setting up relu3_2
I0413 19:10:35.882206 15542 net.cpp:157] Top shape: 1 256 250 375 (24000000)
I0413 19:10:35.882210 15542 net.cpp:165] Memory required for data: 2886000116
I0413 19:10:35.882212 15542 layer_factory.hpp:77] Creating layer conv3_3
I0413 19:10:35.882221 15542 net.cpp:100] Creating Layer conv3_3
I0413 19:10:35.882225 15542 net.cpp:434] conv3_3 <- conv3_2
I0413 19:10:35.882231 15542 net.cpp:408] conv3_3 -> conv3_3
I0413 19:10:35.883851 15542 net.cpp:150] Setting up conv3_3
I0413 19:10:35.883882 15542 net.cpp:157] Top shape: 1 256 250 375 (24000000)
I0413 19:10:35.883886 15542 net.cpp:165] Memory required for data: 2982000116
I0413 19:10:35.883896 15542 layer_factory.hpp:77] Creating layer relu3_3
I0413 19:10:35.883905 15542 net.cpp:100] Creating Layer relu3_3
I0413 19:10:35.883909 15542 net.cpp:434] relu3_3 <- conv3_3
I0413 19:10:35.883916 15542 net.cpp:395] relu3_3 -> conv3_3 (in-place)
I0413 19:10:35.883925 15542 net.cpp:150] Setting up relu3_3
I0413 19:10:35.883929 15542 net.cpp:157] Top shape: 1 256 250 375 (24000000)
I0413 19:10:35.883932 15542 net.cpp:165] Memory required for data: 3078000116
I0413 19:10:35.883935 15542 layer_factory.hpp:77] Creating layer pool3
I0413 19:10:35.883942 15542 net.cpp:100] Creating Layer pool3
I0413 19:10:35.883946 15542 net.cpp:434] pool3 <- conv3_3
I0413 19:10:35.883951 15542 net.cpp:408] pool3 -> pool3
I0413 19:10:35.883993 15542 net.cpp:150] Setting up pool3
I0413 19:10:35.884003 15542 net.cpp:157] Top shape: 1 256 125 188 (6016000)
I0413 19:10:35.884008 15542 net.cpp:165] Memory required for data: 3102064116
I0413 19:10:35.884014 15542 layer_factory.hpp:77] Creating layer conv4_1
I0413 19:10:35.884029 15542 net.cpp:100] Creating Layer conv4_1
I0413 19:10:35.884047 15542 net.cpp:434] conv4_1 <- pool3
I0413 19:10:35.884057 15542 net.cpp:408] conv4_1 -> conv4_1
I0413 19:10:35.886778 15542 net.cpp:150] Setting up conv4_1
I0413 19:10:35.886814 15542 net.cpp:157] Top shape: 1 512 125 188 (12032000)
I0413 19:10:35.886819 15542 net.cpp:165] Memory required for data: 3150192116
I0413 19:10:35.886834 15542 layer_factory.hpp:77] Creating layer relu4_1
I0413 19:10:35.886858 15542 net.cpp:100] Creating Layer relu4_1
I0413 19:10:35.886869 15542 net.cpp:434] relu4_1 <- conv4_1
I0413 19:10:35.886883 15542 net.cpp:395] relu4_1 -> conv4_1 (in-place)
I0413 19:10:35.886898 15542 net.cpp:150] Setting up relu4_1
I0413 19:10:35.886909 15542 net.cpp:157] Top shape: 1 512 125 188 (12032000)
I0413 19:10:35.886917 15542 net.cpp:165] Memory required for data: 3198320116
I0413 19:10:35.886924 15542 layer_factory.hpp:77] Creating layer conv4_2
I0413 19:10:35.886941 15542 net.cpp:100] Creating Layer conv4_2
I0413 19:10:35.886948 15542 net.cpp:434] conv4_2 <- conv4_1
I0413 19:10:35.886960 15542 net.cpp:408] conv4_2 -> conv4_2
I0413 19:10:35.891162 15542 net.cpp:150] Setting up conv4_2
I0413 19:10:35.891201 15542 net.cpp:157] Top shape: 1 512 125 188 (12032000)
I0413 19:10:35.891206 15542 net.cpp:165] Memory required for data: 3246448116
I0413 19:10:35.891232 15542 layer_factory.hpp:77] Creating layer relu4_2
I0413 19:10:35.891247 15542 net.cpp:100] Creating Layer relu4_2
I0413 19:10:35.891258 15542 net.cpp:434] relu4_2 <- conv4_2
I0413 19:10:35.891268 15542 net.cpp:395] relu4_2 -> conv4_2 (in-place)
I0413 19:10:35.891284 15542 net.cpp:150] Setting up relu4_2
I0413 19:10:35.891294 15542 net.cpp:157] Top shape: 1 512 125 188 (12032000)
I0413 19:10:35.891300 15542 net.cpp:165] Memory required for data: 3294576116
I0413 19:10:35.891306 15542 layer_factory.hpp:77] Creating layer conv4_3
I0413 19:10:35.891324 15542 net.cpp:100] Creating Layer conv4_3
I0413 19:10:35.891330 15542 net.cpp:434] conv4_3 <- conv4_2
I0413 19:10:35.891340 15542 net.cpp:408] conv4_3 -> conv4_3
I0413 19:10:35.895611 15542 net.cpp:150] Setting up conv4_3
I0413 19:10:35.895648 15542 net.cpp:157] Top shape: 1 512 125 188 (12032000)
I0413 19:10:35.895653 15542 net.cpp:165] Memory required for data: 3342704116
I0413 19:10:35.895666 15542 layer_factory.hpp:77] Creating layer relu4_3
I0413 19:10:35.895691 15542 net.cpp:100] Creating Layer relu4_3
I0413 19:10:35.895701 15542 net.cpp:434] relu4_3 <- conv4_3
I0413 19:10:35.895714 15542 net.cpp:395] relu4_3 -> conv4_3 (in-place)
I0413 19:10:35.895730 15542 net.cpp:150] Setting up relu4_3
I0413 19:10:35.895740 15542 net.cpp:157] Top shape: 1 512 125 188 (12032000)
I0413 19:10:35.895753 15542 net.cpp:165] Memory required for data: 3390832116
I0413 19:10:35.895761 15542 layer_factory.hpp:77] Creating layer pool4
I0413 19:10:35.895772 15542 net.cpp:100] Creating Layer pool4
I0413 19:10:35.895779 15542 net.cpp:434] pool4 <- conv4_3
I0413 19:10:35.895790 15542 net.cpp:408] pool4 -> pool4
I0413 19:10:35.895834 15542 net.cpp:150] Setting up pool4
I0413 19:10:35.895844 15542 net.cpp:157] Top shape: 1 512 63 94 (3032064)
I0413 19:10:35.895850 15542 net.cpp:165] Memory required for data: 3402960372
I0413 19:10:35.895859 15542 layer_factory.hpp:77] Creating layer conv5_1
I0413 19:10:35.895877 15542 net.cpp:100] Creating Layer conv5_1
I0413 19:10:35.895884 15542 net.cpp:434] conv5_1 <- pool4
I0413 19:10:35.895896 15542 net.cpp:408] conv5_1 -> conv5_1
I0413 19:10:35.900841 15542 net.cpp:150] Setting up conv5_1
I0413 19:10:35.900935 15542 net.cpp:157] Top shape: 1 512 63 94 (3032064)
I0413 19:10:35.900960 15542 net.cpp:165] Memory required for data: 3415088628
I0413 19:10:35.900990 15542 layer_factory.hpp:77] Creating layer relu5_1
I0413 19:10:35.901018 15542 net.cpp:100] Creating Layer relu5_1
I0413 19:10:35.901041 15542 net.cpp:434] relu5_1 <- conv5_1
I0413 19:10:35.901065 15542 net.cpp:395] relu5_1 -> conv5_1 (in-place)
I0413 19:10:35.901093 15542 net.cpp:150] Setting up relu5_1
I0413 19:10:35.901114 15542 net.cpp:157] Top shape: 1 512 63 94 (3032064)
I0413 19:10:35.901131 15542 net.cpp:165] Memory required for data: 3427216884
I0413 19:10:35.901149 15542 layer_factory.hpp:77] Creating layer conv5_2
I0413 19:10:35.901187 15542 net.cpp:100] Creating Layer conv5_2
I0413 19:10:35.901208 15542 net.cpp:434] conv5_2 <- conv5_1
I0413 19:10:35.901232 15542 net.cpp:408] conv5_2 -> conv5_2
I0413 19:10:35.905925 15542 net.cpp:150] Setting up conv5_2
I0413 19:10:35.905972 15542 net.cpp:157] Top shape: 1 512 63 94 (3032064)
I0413 19:10:35.905979 15542 net.cpp:165] Memory required for data: 3439345140
I0413 19:10:35.905994 15542 layer_factory.hpp:77] Creating layer relu5_2
I0413 19:10:35.906008 15542 net.cpp:100] Creating Layer relu5_2
I0413 19:10:35.906016 15542 net.cpp:434] relu5_2 <- conv5_2
I0413 19:10:35.906025 15542 net.cpp:395] relu5_2 -> conv5_2 (in-place)
I0413 19:10:35.906038 15542 net.cpp:150] Setting up relu5_2
I0413 19:10:35.906049 15542 net.cpp:157] Top shape: 1 512 63 94 (3032064)
I0413 19:10:35.906056 15542 net.cpp:165] Memory required for data: 3451473396
I0413 19:10:35.906062 15542 layer_factory.hpp:77] Creating layer conv5_3
I0413 19:10:35.906085 15542 net.cpp:100] Creating Layer conv5_3
I0413 19:10:35.906093 15542 net.cpp:434] conv5_3 <- conv5_2
I0413 19:10:35.906102 15542 net.cpp:408] conv5_3 -> conv5_3
I0413 19:10:35.910758 15542 net.cpp:150] Setting up conv5_3
I0413 19:10:35.910804 15542 net.cpp:157] Top shape: 1 512 63 94 (3032064)
I0413 19:10:35.910810 15542 net.cpp:165] Memory required for data: 3463601652
I0413 19:10:35.910826 15542 layer_factory.hpp:77] Creating layer relu5_3
I0413 19:10:35.910841 15542 net.cpp:100] Creating Layer relu5_3
I0413 19:10:35.910850 15542 net.cpp:434] relu5_3 <- conv5_3
I0413 19:10:35.910862 15542 net.cpp:395] relu5_3 -> conv5_3 (in-place)
I0413 19:10:35.910877 15542 net.cpp:150] Setting up relu5_3
I0413 19:10:35.910887 15542 net.cpp:157] Top shape: 1 512 63 94 (3032064)
I0413 19:10:35.910892 15542 net.cpp:165] Memory required for data: 3475729908
I0413 19:10:35.910898 15542 layer_factory.hpp:77] Creating layer conv5_3_relu5_3_0_split
I0413 19:10:35.910912 15542 net.cpp:100] Creating Layer conv5_3_relu5_3_0_split
I0413 19:10:35.910941 15542 net.cpp:434] conv5_3_relu5_3_0_split <- conv5_3
I0413 19:10:35.910966 15542 net.cpp:408] conv5_3_relu5_3_0_split -> conv5_3_relu5_3_0_split_0
I0413 19:10:35.910995 15542 net.cpp:408] conv5_3_relu5_3_0_split -> conv5_3_relu5_3_0_split_1
I0413 19:10:35.911057 15542 net.cpp:150] Setting up conv5_3_relu5_3_0_split
I0413 19:10:35.911082 15542 net.cpp:157] Top shape: 1 512 63 94 (3032064)
I0413 19:10:35.911103 15542 net.cpp:157] Top shape: 1 512 63 94 (3032064)
I0413 19:10:35.911119 15542 net.cpp:165] Memory required for data: 3499986420
I0413 19:10:35.911137 15542 layer_factory.hpp:77] Creating layer rpn_big_conv1
I0413 19:10:35.911168 15542 net.cpp:100] Creating Layer rpn_big_conv1
I0413 19:10:35.911190 15542 net.cpp:434] rpn_big_conv1 <- conv5_3_relu5_3_0_split_0
I0413 19:10:35.911214 15542 net.cpp:408] rpn_big_conv1 -> rpn_big_conv1
I0413 19:10:35.937263 15542 net.cpp:150] Setting up rpn_big_conv1
I0413 19:10:35.937296 15542 net.cpp:157] Top shape: 1 512 63 94 (3032064)
I0413 19:10:35.937304 15542 net.cpp:165] Memory required for data: 3512114676
I0413 19:10:35.937319 15542 layer_factory.hpp:77] Creating layer rpn_big_conv1_relu
I0413 19:10:35.937336 15542 net.cpp:100] Creating Layer rpn_big_conv1_relu
I0413 19:10:35.937345 15542 net.cpp:434] rpn_big_conv1_relu <- rpn_big_conv1
I0413 19:10:35.937356 15542 net.cpp:395] rpn_big_conv1_relu -> rpn_big_conv1 (in-place)
I0413 19:10:35.937372 15542 net.cpp:150] Setting up rpn_big_conv1_relu
I0413 19:10:35.937399 15542 net.cpp:157] Top shape: 1 512 63 94 (3032064)
I0413 19:10:35.937407 15542 net.cpp:165] Memory required for data: 3524242932
I0413 19:10:35.937413 15542 layer_factory.hpp:77] Creating layer rpn_big_conv2
I0413 19:10:35.937429 15542 net.cpp:100] Creating Layer rpn_big_conv2
I0413 19:10:35.937435 15542 net.cpp:434] rpn_big_conv2 <- rpn_big_conv1
I0413 19:10:35.937448 15542 net.cpp:408] rpn_big_conv2 -> rpn_big_conv2
I0413 19:10:35.962510 15542 net.cpp:150] Setting up rpn_big_conv2
I0413 19:10:35.962543 15542 net.cpp:157] Top shape: 1 512 63 94 (3032064)
I0413 19:10:35.962556 15542 net.cpp:165] Memory required for data: 3536371188
I0413 19:10:35.962566 15542 layer_factory.hpp:77] Creating layer rpn_big_conv2_relu
I0413 19:10:35.962577 15542 net.cpp:100] Creating Layer rpn_big_conv2_relu
I0413 19:10:35.962582 15542 net.cpp:434] rpn_big_conv2_relu <- rpn_big_conv2
I0413 19:10:35.962595 15542 net.cpp:395] rpn_big_conv2_relu -> rpn_big_conv2 (in-place)
I0413 19:10:35.962612 15542 net.cpp:150] Setting up rpn_big_conv2_relu
I0413 19:10:35.962620 15542 net.cpp:157] Top shape: 1 512 63 94 (3032064)
I0413 19:10:35.962625 15542 net.cpp:165] Memory required for data: 3548499444
I0413 19:10:35.962630 15542 layer_factory.hpp:77] Creating layer rpn_big_conv2_drop
I0413 19:10:35.962640 15542 net.cpp:100] Creating Layer rpn_big_conv2_drop
I0413 19:10:35.962648 15542 net.cpp:434] rpn_big_conv2_drop <- rpn_big_conv2
I0413 19:10:35.962657 15542 net.cpp:395] rpn_big_conv2_drop -> rpn_big_conv2 (in-place)
I0413 19:10:35.962690 15542 net.cpp:150] Setting up rpn_big_conv2_drop
I0413 19:10:35.962700 15542 net.cpp:157] Top shape: 1 512 63 94 (3032064)
I0413 19:10:35.962707 15542 net.cpp:165] Memory required for data: 3560627700
I0413 19:10:35.962713 15542 layer_factory.hpp:77] Creating layer rpn_big_conv2_rpn_big_conv2_drop_0_split
I0413 19:10:35.962723 15542 net.cpp:100] Creating Layer rpn_big_conv2_rpn_big_conv2_drop_0_split
I0413 19:10:35.962731 15542 net.cpp:434] rpn_big_conv2_rpn_big_conv2_drop_0_split <- rpn_big_conv2
I0413 19:10:35.962740 15542 net.cpp:408] rpn_big_conv2_rpn_big_conv2_drop_0_split -> rpn_big_conv2_rpn_big_conv2_drop_0_split_0
I0413 19:10:35.962754 15542 net.cpp:408] rpn_big_conv2_rpn_big_conv2_drop_0_split -> rpn_big_conv2_rpn_big_conv2_drop_0_split_1
I0413 19:10:35.962810 15542 net.cpp:150] Setting up rpn_big_conv2_rpn_big_conv2_drop_0_split
I0413 19:10:35.962822 15542 net.cpp:157] Top shape: 1 512 63 94 (3032064)
I0413 19:10:35.962831 15542 net.cpp:157] Top shape: 1 512 63 94 (3032064)
I0413 19:10:35.962836 15542 net.cpp:165] Memory required for data: 3584884212
I0413 19:10:35.962842 15542 layer_factory.hpp:77] Creating layer rpn_big_output_cls
I0413 19:10:35.962860 15542 net.cpp:100] Creating Layer rpn_big_output_cls
I0413 19:10:35.962868 15542 net.cpp:434] rpn_big_output_cls <- rpn_big_conv2_rpn_big_conv2_drop_0_split_0
I0413 19:10:35.962879 15542 net.cpp:408] rpn_big_output_cls -> rpn_big_output_cls
I0413 19:10:35.982275 15542 net.cpp:150] Setting up rpn_big_output_cls
I0413 19:10:35.982306 15542 net.cpp:157] Top shape: 1 384 63 94 (2274048)
I0413 19:10:35.982309 15542 net.cpp:165] Memory required for data: 3593980404
I0413 19:10:35.982321 15542 layer_factory.hpp:77] Creating layer rpn_big_output_cls_relu
I0413 19:10:35.982336 15542 net.cpp:100] Creating Layer rpn_big_output_cls_relu
I0413 19:10:35.982344 15542 net.cpp:434] rpn_big_output_cls_relu <- rpn_big_output_cls
I0413 19:10:35.982354 15542 net.cpp:395] rpn_big_output_cls_relu -> rpn_big_output_cls (in-place)
I0413 19:10:35.982368 15542 net.cpp:150] Setting up rpn_big_output_cls_relu
I0413 19:10:35.982375 15542 net.cpp:157] Top shape: 1 384 63 94 (2274048)
I0413 19:10:35.982380 15542 net.cpp:165] Memory required for data: 3603076596
I0413 19:10:35.982385 15542 layer_factory.hpp:77] Creating layer rpn_big_cls_score
I0413 19:10:35.982404 15542 net.cpp:100] Creating Layer rpn_big_cls_score
I0413 19:10:35.982411 15542 net.cpp:434] rpn_big_cls_score <- rpn_big_output_cls
I0413 19:10:35.982420 15542 net.cpp:408] rpn_big_cls_score -> rpn_big_cls_score
I0413 19:10:35.984827 15542 net.cpp:150] Setting up rpn_big_cls_score
I0413 19:10:35.984844 15542 net.cpp:157] Top shape: 1 52 61 92 (291824)
I0413 19:10:35.984848 15542 net.cpp:165] Memory required for data: 3604243892
I0413 19:10:35.984868 15542 layer_factory.hpp:77] Creating layer rpn_big_cls_score_rpn_big_cls_score_0_split
I0413 19:10:35.984880 15542 net.cpp:100] Creating Layer rpn_big_cls_score_rpn_big_cls_score_0_split
I0413 19:10:35.984886 15542 net.cpp:434] rpn_big_cls_score_rpn_big_cls_score_0_split <- rpn_big_cls_score
I0413 19:10:35.984895 15542 net.cpp:408] rpn_big_cls_score_rpn_big_cls_score_0_split -> rpn_big_cls_score_rpn_big_cls_score_0_split_0
I0413 19:10:35.984915 15542 net.cpp:408] rpn_big_cls_score_rpn_big_cls_score_0_split -> rpn_big_cls_score_rpn_big_cls_score_0_split_1
I0413 19:10:35.984966 15542 net.cpp:150] Setting up rpn_big_cls_score_rpn_big_cls_score_0_split
I0413 19:10:35.984977 15542 net.cpp:157] Top shape: 1 52 61 92 (291824)
I0413 19:10:35.984985 15542 net.cpp:157] Top shape: 1 52 61 92 (291824)
I0413 19:10:35.984990 15542 net.cpp:165] Memory required for data: 3606578484
I0413 19:10:35.984995 15542 layer_factory.hpp:77] Creating layer rpn_big_cls_score_reshape
I0413 19:10:35.985007 15542 net.cpp:100] Creating Layer rpn_big_cls_score_reshape
I0413 19:10:35.985013 15542 net.cpp:434] rpn_big_cls_score_reshape <- rpn_big_cls_score_rpn_big_cls_score_0_split_0
I0413 19:10:35.985023 15542 net.cpp:408] rpn_big_cls_score_reshape -> rpn_big_cls_score_reshape
I0413 19:10:35.985057 15542 net.cpp:150] Setting up rpn_big_cls_score_reshape
I0413 19:10:35.985069 15542 net.cpp:157] Top shape: 1 2 1586 92 (291824)
I0413 19:10:35.985074 15542 net.cpp:165] Memory required for data: 3607745780
I0413 19:10:35.985079 15542 layer_factory.hpp:77] Creating layer rpn_big_cls_score_reshape_rpn_big_cls_score_reshape_0_split
I0413 19:10:35.985085 15542 net.cpp:100] Creating Layer rpn_big_cls_score_reshape_rpn_big_cls_score_reshape_0_split
I0413 19:10:35.985091 15542 net.cpp:434] rpn_big_cls_score_reshape_rpn_big_cls_score_reshape_0_split <- rpn_big_cls_score_reshape
I0413 19:10:35.985103 15542 net.cpp:408] rpn_big_cls_score_reshape_rpn_big_cls_score_reshape_0_split -> rpn_big_cls_score_reshape_rpn_big_cls_score_reshape_0_split_0
I0413 19:10:35.985115 15542 net.cpp:408] rpn_big_cls_score_reshape_rpn_big_cls_score_reshape_0_split -> rpn_big_cls_score_reshape_rpn_big_cls_score_reshape_0_split_1
I0413 19:10:35.985159 15542 net.cpp:150] Setting up rpn_big_cls_score_reshape_rpn_big_cls_score_reshape_0_split
I0413 19:10:35.985170 15542 net.cpp:157] Top shape: 1 2 1586 92 (291824)
I0413 19:10:35.985177 15542 net.cpp:157] Top shape: 1 2 1586 92 (291824)
I0413 19:10:35.985182 15542 net.cpp:165] Memory required for data: 3610080372
I0413 19:10:35.985188 15542 layer_factory.hpp:77] Creating layer rpn_big_cls_prob
I0413 19:10:35.985198 15542 net.cpp:100] Creating Layer rpn_big_cls_prob
I0413 19:10:35.985204 15542 net.cpp:434] rpn_big_cls_prob <- rpn_big_cls_score_reshape_rpn_big_cls_score_reshape_0_split_0
I0413 19:10:35.985213 15542 net.cpp:408] rpn_big_cls_prob -> rpn_big_cls_prob
I0413 19:10:35.985286 15542 net.cpp:150] Setting up rpn_big_cls_prob
I0413 19:10:35.985298 15542 net.cpp:157] Top shape: 1 2 1586 92 (291824)
I0413 19:10:35.985303 15542 net.cpp:165] Memory required for data: 3611247668
I0413 19:10:35.985308 15542 layer_factory.hpp:77] Creating layer rpn_big_cls_prob_reshape
I0413 19:10:35.985317 15542 net.cpp:100] Creating Layer rpn_big_cls_prob_reshape
I0413 19:10:35.985323 15542 net.cpp:434] rpn_big_cls_prob_reshape <- rpn_big_cls_prob
I0413 19:10:35.985332 15542 net.cpp:408] rpn_big_cls_prob_reshape -> rpn_big_cls_prob_reshape
I0413 19:10:35.985363 15542 net.cpp:150] Setting up rpn_big_cls_prob_reshape
I0413 19:10:35.985373 15542 net.cpp:157] Top shape: 1 52 61 92 (291824)
I0413 19:10:35.985378 15542 net.cpp:165] Memory required for data: 3612414964
I0413 19:10:35.985383 15542 layer_factory.hpp:77] Creating layer rpn_big_cls_prob_reshape_rpn_big_cls_prob_reshape_0_split
I0413 19:10:35.985390 15542 net.cpp:100] Creating Layer rpn_big_cls_prob_reshape_rpn_big_cls_prob_reshape_0_split
I0413 19:10:35.985396 15542 net.cpp:434] rpn_big_cls_prob_reshape_rpn_big_cls_prob_reshape_0_split <- rpn_big_cls_prob_reshape
I0413 19:10:35.985405 15542 net.cpp:408] rpn_big_cls_prob_reshape_rpn_big_cls_prob_reshape_0_split -> rpn_big_cls_prob_reshape_rpn_big_cls_prob_reshape_0_split_0
I0413 19:10:35.985416 15542 net.cpp:408] rpn_big_cls_prob_reshape_rpn_big_cls_prob_reshape_0_split -> rpn_big_cls_prob_reshape_rpn_big_cls_prob_reshape_0_split_1
I0413 19:10:35.985458 15542 net.cpp:150] Setting up rpn_big_cls_prob_reshape_rpn_big_cls_prob_reshape_0_split
I0413 19:10:35.985471 15542 net.cpp:157] Top shape: 1 52 61 92 (291824)
I0413 19:10:35.985477 15542 net.cpp:157] Top shape: 1 52 61 92 (291824)
I0413 19:10:35.985481 15542 net.cpp:165] Memory required for data: 3614749556
I0413 19:10:35.985486 15542 layer_factory.hpp:77] Creating layer rpn_big_anchor_target
I0413 19:10:35.987123 15542 net.cpp:100] Creating Layer rpn_big_anchor_target
I0413 19:10:35.987145 15542 net.cpp:434] rpn_big_anchor_target <- rpn_big_cls_score_rpn_big_cls_score_0_split_1
I0413 19:10:35.987154 15542 net.cpp:434] rpn_big_anchor_target <- input_gt_boxes_input_2_split_0
I0413 19:10:35.987162 15542 net.cpp:434] rpn_big_anchor_target <- input_ignored_boxes
I0413 19:10:35.987169 15542 net.cpp:434] rpn_big_anchor_target <- input_im_info_input_1_split_0
I0413 19:10:35.987176 15542 net.cpp:434] rpn_big_anchor_target <- input_data_input_0_split_1
I0413 19:10:35.987185 15542 net.cpp:434] rpn_big_anchor_target <- rpn_big_cls_prob_reshape_rpn_big_cls_prob_reshape_0_split_0
I0413 19:10:35.987196 15542 net.cpp:408] rpn_big_anchor_target -> rpn_big_anchor_target_labels
I0413 19:10:35.987213 15542 net.cpp:408] rpn_big_anchor_target -> rpn_big_anchor_target_bbox_targets
I0413 19:10:35.987234 15542 net.cpp:408] rpn_big_anchor_target -> rpn_big_anchor_target_inside_weights
I0413 19:10:35.987249 15542 net.cpp:408] rpn_big_anchor_target -> rpn_big_anchor_target_outside_weights
I0413 19:10:35.992185 15542 net.cpp:150] Setting up rpn_big_anchor_target
I0413 19:10:35.992211 15542 net.cpp:157] Top shape: 1 1 1586 92 (145912)
I0413 19:10:35.992226 15542 net.cpp:157] Top shape: 1 104 61 92 (583648)
I0413 19:10:35.992230 15542 net.cpp:157] Top shape: 1 104 61 92 (583648)
I0413 19:10:35.992234 15542 net.cpp:157] Top shape: 1 104 61 92 (583648)
I0413 19:10:35.992238 15542 net.cpp:165] Memory required for data: 3622336980
I0413 19:10:35.992243 15542 layer_factory.hpp:77] Creating layer rpn_big_loss_cls
I0413 19:10:35.992254 15542 net.cpp:100] Creating Layer rpn_big_loss_cls
I0413 19:10:35.992262 15542 net.cpp:434] rpn_big_loss_cls <- rpn_big_cls_score_reshape_rpn_big_cls_score_reshape_0_split_1
I0413 19:10:35.992272 15542 net.cpp:434] rpn_big_loss_cls <- rpn_big_anchor_target_labels
I0413 19:10:35.992282 15542 net.cpp:408] rpn_big_loss_cls -> rpn_big_loss_cls
I0413 19:10:35.992301 15542 layer_factory.hpp:77] Creating layer rpn_big_loss_cls
I0413 19:10:35.993038 15542 net.cpp:150] Setting up rpn_big_loss_cls
I0413 19:10:35.993053 15542 net.cpp:157] Top shape: (1)
I0413 19:10:35.993057 15542 net.cpp:160]     with loss weight 1
I0413 19:10:35.993074 15542 net.cpp:165] Memory required for data: 3622336984
I0413 19:10:35.993083 15542 layer_factory.hpp:77] Creating layer rpn_big_output_box
I0413 19:10:35.993103 15542 net.cpp:100] Creating Layer rpn_big_output_box
I0413 19:10:35.993113 15542 net.cpp:434] rpn_big_output_box <- rpn_big_conv2_rpn_big_conv2_drop_0_split_1
I0413 19:10:35.993124 15542 net.cpp:408] rpn_big_output_box -> rpn_big_output_box
I0413 19:10:36.013205 15542 net.cpp:150] Setting up rpn_big_output_box
I0413 19:10:36.013234 15542 net.cpp:157] Top shape: 1 384 63 94 (2274048)
I0413 19:10:36.013247 15542 net.cpp:165] Memory required for data: 3631433176
I0413 19:10:36.013257 15542 layer_factory.hpp:77] Creating layer rpn_big_output_box_relu
I0413 19:10:36.013270 15542 net.cpp:100] Creating Layer rpn_big_output_box_relu
I0413 19:10:36.013276 15542 net.cpp:434] rpn_big_output_box_relu <- rpn_big_output_box
I0413 19:10:36.013288 15542 net.cpp:395] rpn_big_output_box_relu -> rpn_big_output_box (in-place)
I0413 19:10:36.013303 15542 net.cpp:150] Setting up rpn_big_output_box_relu
I0413 19:10:36.013312 15542 net.cpp:157] Top shape: 1 384 63 94 (2274048)
I0413 19:10:36.013317 15542 net.cpp:165] Memory required for data: 3640529368
I0413 19:10:36.013324 15542 layer_factory.hpp:77] Creating layer rpn_big_bbox_pred
I0413 19:10:36.013339 15542 net.cpp:100] Creating Layer rpn_big_bbox_pred
I0413 19:10:36.013346 15542 net.cpp:434] rpn_big_bbox_pred <- rpn_big_output_box
I0413 19:10:36.013358 15542 net.cpp:408] rpn_big_bbox_pred -> rpn_big_bbox_pred
I0413 19:10:36.017535 15542 net.cpp:150] Setting up rpn_big_bbox_pred
I0413 19:10:36.017555 15542 net.cpp:157] Top shape: 1 104 61 92 (583648)
I0413 19:10:36.017559 15542 net.cpp:165] Memory required for data: 3642863960
I0413 19:10:36.017576 15542 layer_factory.hpp:77] Creating layer rpn_big_bbox_pred_rpn_big_bbox_pred_0_split
I0413 19:10:36.017585 15542 net.cpp:100] Creating Layer rpn_big_bbox_pred_rpn_big_bbox_pred_0_split
I0413 19:10:36.017590 15542 net.cpp:434] rpn_big_bbox_pred_rpn_big_bbox_pred_0_split <- rpn_big_bbox_pred
I0413 19:10:36.017598 15542 net.cpp:408] rpn_big_bbox_pred_rpn_big_bbox_pred_0_split -> rpn_big_bbox_pred_rpn_big_bbox_pred_0_split_0
I0413 19:10:36.017613 15542 net.cpp:408] rpn_big_bbox_pred_rpn_big_bbox_pred_0_split -> rpn_big_bbox_pred_rpn_big_bbox_pred_0_split_1
I0413 19:10:36.017671 15542 net.cpp:150] Setting up rpn_big_bbox_pred_rpn_big_bbox_pred_0_split
I0413 19:10:36.017681 15542 net.cpp:157] Top shape: 1 104 61 92 (583648)
I0413 19:10:36.017698 15542 net.cpp:157] Top shape: 1 104 61 92 (583648)
I0413 19:10:36.017702 15542 net.cpp:165] Memory required for data: 3647533144
I0413 19:10:36.017707 15542 layer_factory.hpp:77] Creating layer rpn_big_loss_bbox
I0413 19:10:36.018120 15542 net.cpp:100] Creating Layer rpn_big_loss_bbox
I0413 19:10:36.018129 15542 net.cpp:434] rpn_big_loss_bbox <- rpn_big_bbox_pred_rpn_big_bbox_pred_0_split_0
I0413 19:10:36.018134 15542 net.cpp:434] rpn_big_loss_bbox <- rpn_big_anchor_target_bbox_targets
I0413 19:10:36.018148 15542 net.cpp:434] rpn_big_loss_bbox <- rpn_big_anchor_target_inside_weights
I0413 19:10:36.018152 15542 net.cpp:434] rpn_big_loss_bbox <- rpn_big_anchor_target_outside_weights
I0413 19:10:36.018160 15542 net.cpp:408] rpn_big_loss_bbox -> rpn_big_loss_bbox
I0413 19:10:36.020148 15542 net.cpp:150] Setting up rpn_big_loss_bbox
I0413 19:10:36.020179 15542 net.cpp:157] Top shape: 1 (1)
I0413 19:10:36.020185 15542 net.cpp:160]     with loss weight 1
I0413 19:10:36.020201 15542 net.cpp:165] Memory required for data: 3647533148
I0413 19:10:36.020211 15542 layer_factory.hpp:77] Creating layer proposal
I0413 19:10:36.020669 15542 net.cpp:100] Creating Layer proposal
I0413 19:10:36.020683 15542 net.cpp:434] proposal <- rpn_big_cls_prob_reshape_rpn_big_cls_prob_reshape_0_split_1
I0413 19:10:36.020694 15542 net.cpp:434] proposal <- rpn_big_bbox_pred_rpn_big_bbox_pred_0_split_1
I0413 19:10:36.020720 15542 net.cpp:434] proposal <- input_im_info_input_1_split_1
I0413 19:10:36.020745 15542 net.cpp:408] proposal -> rpn_rois
I0413 19:10:36.025168 15542 net.cpp:150] Setting up proposal
I0413 19:10:36.025192 15542 net.cpp:157] Top shape: 1 5 (5)
I0413 19:10:36.025198 15542 net.cpp:165] Memory required for data: 3647533168
I0413 19:10:36.025207 15542 layer_factory.hpp:77] Creating layer roi-data
I0413 19:10:36.025565 15542 net.cpp:100] Creating Layer roi-data
I0413 19:10:36.025578 15542 net.cpp:434] roi-data <- rpn_rois
I0413 19:10:36.025588 15542 net.cpp:434] roi-data <- input_gt_boxes_input_2_split_1
I0413 19:10:36.025600 15542 net.cpp:408] roi-data -> rois
I0413 19:10:36.025617 15542 net.cpp:408] roi-data -> labels
I0413 19:10:36.025634 15542 net.cpp:408] roi-data -> bbox_targets
I0413 19:10:36.025648 15542 net.cpp:408] roi-data -> bbox_inside_weights
I0413 19:10:36.025662 15542 net.cpp:408] roi-data -> bbox_outside_weights
I0413 19:10:36.025677 15542 net.cpp:408] roi-data -> pid_label
anchors:
<<<<<<<<<<<<<<<<<<<<<<<<<<<<<<<<<<<<<<<<<<<<<<<<<<<<<<<<<<<<<<<<<<<<<<<<<<<<<<<<<<<<<<<<<<<<<<<<<<<<<<<<<<<<<<<<<<<<<<<<<<<<<<<<<<<<<<<<<<<<<<<<<<<<<<<<<<<<<<<<<<<<<<<<<<<<<<<<<<<<<<<<<<<<<<<<<<<<<<<<<<<<<<<<<<<<<<<<<<<<<<<<<<<<<<<<<<<<<<<<<<<<<<<<<<<<<<<<<<<<<<<<<<<<<<<<<<<<<<<<<<<<<<<<<<<<<<<<<<<<
[[ -84.  -40.   99.   55.]
 [-176.  -88.  191.  103.]
 [-360. -184.  375.  199.]
 [ -56.  -56.   71.   71.]
 [-120. -120.  135.  135.]
 [-248. -248.  263.  263.]
 [ -36.  -80.   51.   95.]
 [ -80. -168.   95.  183.]
 [-168. -344.  183.  359.]]
I0413 19:10:36.027791 15542 net.cpp:150] Setting up roi-data
I0413 19:10:36.027808 15542 net.cpp:157] Top shape: 1 5 (5)
I0413 19:10:36.027817 15542 net.cpp:157] Top shape: 1 1 (1)
I0413 19:10:36.027823 15542 net.cpp:157] Top shape: 1 8 (8)
I0413 19:10:36.027830 15542 net.cpp:157] Top shape: 1 8 (8)
I0413 19:10:36.027837 15542 net.cpp:157] Top shape: 1 8 (8)
I0413 19:10:36.027848 15542 net.cpp:157] Top shape: (0)
I0413 19:10:36.027855 15542 net.cpp:165] Memory required for data: 3647533288
I0413 19:10:36.027863 15542 layer_factory.hpp:77] Creating layer roi-pool
I0413 19:10:36.027879 15542 net.cpp:100] Creating Layer roi-pool
I0413 19:10:36.027887 15542 net.cpp:434] roi-pool <- conv5_3_relu5_3_0_split_1
I0413 19:10:36.027896 15542 net.cpp:434] roi-pool <- rois
I0413 19:10:36.027909 15542 net.cpp:408] roi-pool -> roi-pool
I0413 19:10:36.027927 15542 roi_pooling_layer.cpp:33] Spatial scale: 0.0625
I0413 19:10:36.027938 15542 roi_pooling_layer.cpp:34] Box scale: 1
I0413 19:10:36.027987 15542 net.cpp:150] Setting up roi-pool
I0413 19:10:36.027997 15542 net.cpp:157] Top shape: 1 512 7 7 (25088)
I0413 19:10:36.028002 15542 net.cpp:165] Memory required for data: 3647633640
I0413 19:10:36.028008 15542 layer_factory.hpp:77] Creating layer fc6
I0413 19:10:36.028022 15542 net.cpp:100] Creating Layer fc6
I0413 19:10:36.028029 15542 net.cpp:434] fc6 <- roi-pool
I0413 19:10:36.028039 15542 net.cpp:408] fc6 -> fc6
I0413 19:10:36.191251 15542 net.cpp:150] Setting up fc6
I0413 19:10:36.191285 15542 net.cpp:157] Top shape: 1 4096 (4096)
I0413 19:10:36.191292 15542 net.cpp:165] Memory required for data: 3647650024
I0413 19:10:36.191315 15542 layer_factory.hpp:77] Creating layer relu6
I0413 19:10:36.191329 15542 net.cpp:100] Creating Layer relu6
I0413 19:10:36.191339 15542 net.cpp:434] relu6 <- fc6
I0413 19:10:36.191351 15542 net.cpp:395] relu6 -> fc6 (in-place)
I0413 19:10:36.191365 15542 net.cpp:150] Setting up relu6
I0413 19:10:36.191372 15542 net.cpp:157] Top shape: 1 4096 (4096)
I0413 19:10:36.191378 15542 net.cpp:165] Memory required for data: 3647666408
I0413 19:10:36.191383 15542 layer_factory.hpp:77] Creating layer drop6
I0413 19:10:36.191392 15542 net.cpp:100] Creating Layer drop6
I0413 19:10:36.191398 15542 net.cpp:434] drop6 <- fc6
I0413 19:10:36.191407 15542 net.cpp:395] drop6 -> fc6 (in-place)
I0413 19:10:36.191443 15542 net.cpp:150] Setting up drop6
I0413 19:10:36.191454 15542 net.cpp:157] Top shape: 1 4096 (4096)
I0413 19:10:36.191459 15542 net.cpp:165] Memory required for data: 3647682792
I0413 19:10:36.191465 15542 layer_factory.hpp:77] Creating layer fc7
I0413 19:10:36.191478 15542 net.cpp:100] Creating Layer fc7
I0413 19:10:36.191483 15542 net.cpp:434] fc7 <- fc6
I0413 19:10:36.191493 15542 net.cpp:408] fc7 -> fc7
I0413 19:10:36.218988 15542 net.cpp:150] Setting up fc7
I0413 19:10:36.219027 15542 net.cpp:157] Top shape: 1 4096 (4096)
I0413 19:10:36.219032 15542 net.cpp:165] Memory required for data: 3647699176
I0413 19:10:36.219046 15542 layer_factory.hpp:77] Creating layer relu7
I0413 19:10:36.219084 15542 net.cpp:100] Creating Layer relu7
I0413 19:10:36.219094 15542 net.cpp:434] relu7 <- fc7
I0413 19:10:36.219105 15542 net.cpp:395] relu7 -> fc7 (in-place)
I0413 19:10:36.219120 15542 net.cpp:150] Setting up relu7
I0413 19:10:36.219130 15542 net.cpp:157] Top shape: 1 4096 (4096)
I0413 19:10:36.219135 15542 net.cpp:165] Memory required for data: 3647715560
I0413 19:10:36.219141 15542 layer_factory.hpp:77] Creating layer drop7
I0413 19:10:36.219154 15542 net.cpp:100] Creating Layer drop7
I0413 19:10:36.219162 15542 net.cpp:434] drop7 <- fc7
I0413 19:10:36.219172 15542 net.cpp:395] drop7 -> fc7 (in-place)
I0413 19:10:36.219202 15542 net.cpp:150] Setting up drop7
I0413 19:10:36.219210 15542 net.cpp:157] Top shape: 1 4096 (4096)
I0413 19:10:36.219216 15542 net.cpp:165] Memory required for data: 3647731944
I0413 19:10:36.219223 15542 layer_factory.hpp:77] Creating layer fc7_drop7_0_split
I0413 19:10:36.219238 15542 net.cpp:100] Creating Layer fc7_drop7_0_split
I0413 19:10:36.219244 15542 net.cpp:434] fc7_drop7_0_split <- fc7
I0413 19:10:36.219254 15542 net.cpp:408] fc7_drop7_0_split -> fc7_drop7_0_split_0
I0413 19:10:36.219283 15542 net.cpp:408] fc7_drop7_0_split -> fc7_drop7_0_split_1
I0413 19:10:36.219324 15542 net.cpp:150] Setting up fc7_drop7_0_split
I0413 19:10:36.219336 15542 net.cpp:157] Top shape: 1 4096 (4096)
I0413 19:10:36.219343 15542 net.cpp:157] Top shape: 1 4096 (4096)
I0413 19:10:36.219350 15542 net.cpp:165] Memory required for data: 3647764712
I0413 19:10:36.219357 15542 layer_factory.hpp:77] Creating layer bbox_pred
I0413 19:10:36.219370 15542 net.cpp:100] Creating Layer bbox_pred
I0413 19:10:36.219377 15542 net.cpp:434] bbox_pred <- fc7_drop7_0_split_0
I0413 19:10:36.219391 15542 net.cpp:408] bbox_pred -> bbox_pred
I0413 19:10:36.219820 15542 net.cpp:150] Setting up bbox_pred
I0413 19:10:36.219830 15542 net.cpp:157] Top shape: 1 8 (8)
I0413 19:10:36.219835 15542 net.cpp:165] Memory required for data: 3647764744
I0413 19:10:36.219846 15542 layer_factory.hpp:77] Creating layer loss_bbox
I0413 19:10:36.219857 15542 net.cpp:100] Creating Layer loss_bbox
I0413 19:10:36.219866 15542 net.cpp:434] loss_bbox <- bbox_pred
I0413 19:10:36.219873 15542 net.cpp:434] loss_bbox <- bbox_targets
I0413 19:10:36.219882 15542 net.cpp:434] loss_bbox <- bbox_inside_weights
I0413 19:10:36.219889 15542 net.cpp:434] loss_bbox <- bbox_outside_weights
I0413 19:10:36.219916 15542 net.cpp:408] loss_bbox -> loss_bbox
I0413 19:10:36.219991 15542 net.cpp:150] Setting up loss_bbox
I0413 19:10:36.220001 15542 net.cpp:157] Top shape: (1)
I0413 19:10:36.220007 15542 net.cpp:160]     with loss weight 1
I0413 19:10:36.220024 15542 net.cpp:165] Memory required for data: 3647764748
I0413 19:10:36.220031 15542 layer_factory.hpp:77] Creating layer feat
I0413 19:10:36.220042 15542 net.cpp:100] Creating Layer feat
I0413 19:10:36.220052 15542 net.cpp:434] feat <- fc7_drop7_0_split_1
I0413 19:10:36.220062 15542 net.cpp:408] feat -> feat
I0413 19:10:36.232100 15542 net.cpp:150] Setting up feat
I0413 19:10:36.232131 15542 net.cpp:157] Top shape: 1 256 (256)
I0413 19:10:36.232136 15542 net.cpp:165] Memory required for data: 3647765772
I0413 19:10:36.232153 15542 layer_factory.hpp:77] Creating layer relu8
I0413 19:10:36.232172 15542 net.cpp:100] Creating Layer relu8
I0413 19:10:36.232183 15542 net.cpp:434] relu8 <- feat
I0413 19:10:36.232195 15542 net.cpp:395] relu8 -> feat (in-place)
I0413 19:10:36.232211 15542 net.cpp:150] Setting up relu8
I0413 19:10:36.232220 15542 net.cpp:157] Top shape: 1 256 (256)
I0413 19:10:36.232228 15542 net.cpp:165] Memory required for data: 3647766796
I0413 19:10:36.232234 15542 layer_factory.hpp:77] Creating layer drop8
I0413 19:10:36.232246 15542 net.cpp:100] Creating Layer drop8
I0413 19:10:36.232254 15542 net.cpp:434] drop8 <- feat
I0413 19:10:36.232262 15542 net.cpp:395] drop8 -> feat (in-place)
I0413 19:10:36.232293 15542 net.cpp:150] Setting up drop8
I0413 19:10:36.232303 15542 net.cpp:157] Top shape: 1 256 (256)
I0413 19:10:36.232308 15542 net.cpp:165] Memory required for data: 3647767820
I0413 19:10:36.232316 15542 layer_factory.hpp:77] Creating layer pid_score
I0413 19:10:36.232327 15542 net.cpp:100] Creating Layer pid_score
I0413 19:10:36.232334 15542 net.cpp:434] pid_score <- feat
I0413 19:10:36.232345 15542 net.cpp:408] pid_score -> pid_score
I0413 19:10:36.247892 15542 net.cpp:150] Setting up pid_score
I0413 19:10:36.247923 15542 net.cpp:157] Top shape: 1 5533 (5533)
I0413 19:10:36.247930 15542 net.cpp:165] Memory required for data: 3647789952
I0413 19:10:36.247952 15542 layer_factory.hpp:77] Creating layer pid_accuracy
I0413 19:10:36.247969 15542 net.cpp:100] Creating Layer pid_accuracy
I0413 19:10:36.247979 15542 net.cpp:434] pid_accuracy <- pid_label
I0413 19:10:36.247992 15542 net.cpp:434] pid_accuracy <- pid_score
I0413 19:10:36.248004 15542 net.cpp:408] pid_accuracy -> pid_accuracy
…
