…
I0413 19:10:12.130879 15471 solver.cpp:48] Initializing solver from parameters: 
base_lr: 0.001
display: 20
lr_policy: "multistep"
gamma: 0.1
momentum: 0.9
weight_decay: 0.0005
snapshot: 0
snapshot_prefix: "faces_example"
net_param {
  name: "GeneratedModel_13_04_2017_19_10"
  layer {
    name: "input"
    type: "Python"
    top: "input_data"
    top: "input_im_info"
    top: "input_gt_boxes"
    top: "input_ignored_boxes"
    python_param {
      module: "layers.roi_data_layer"
      layer: "RoIDataLayer"
      param_str: "{\"num_classes\": 2}"
    }
  }
  layer {
    name: "conv1_1"
    type: "Convolution"
    bottom: "input_data"
    top: "conv1_1"
    param {
      lr_mult: 0
      decay_mult: 0
    }
    param {
      lr_mult: 0
      decay_mult: 0
    }
    convolution_param {
      num_output: 64
      pad: 1
      kernel_size: 3
    }
  }
  layer {
    name: "relu1_1"
    type: "ReLU"
    bottom: "conv1_1"
    top: "conv1_1"
  }
  layer {
    name: "conv1_2"
    type: "Convolution"
    bottom: "conv1_1"
    top: "conv1_2"
    param {
      lr_mult: 0
      decay_mult: 0
    }
    param {
      lr_mult: 0
      decay_mult: 0
    }
    convolution_param {
      num_output: 64
      pad: 1
      kernel_size: 3
    }
  }
  layer {
    name: "relu1_2"
    type: "ReLU"
    bottom: "conv1_2"
    top: "conv1_2"
  }
  layer {
    name: "pool1"
    type: "Pooling"
    bottom: "conv1_2"
    top: "pool1"
    pooling_param {
      pool: MAX
      kernel_size: 2
      stride: 2
    }
  }
  layer {
    name: "conv2_1"
    type: "Convolution"
    bottom: "pool1"
    top: "conv2_1"
    param {
      lr_mult: 0
      decay_mult: 0
    }
    param {
      lr_mult: 0
      decay_mult: 0
    }
    convolution_param {
      num_output: 128
      pad: 1
      kernel_size: 3
    }
  }
  layer {
    name: "relu2_1"
    type: "ReLU"
    bottom: "conv2_1"
    top: "conv2_1"
  }
  layer {
    name: "conv2_2"
    type: "Convolution"
    bottom: "conv2_1"
    top: "conv2_2"
    param {
      lr_mult: 0
      decay_mult: 0
    }
    param {
      lr_mult: 0
      decay_mult: 0
    }
    convolution_param {
      num_output: 128
      pad: 1
      kernel_size: 3
    }
  }
  layer {
    name: "relu2_2"
    type: "ReLU"
    bottom: "conv2_2"
    top: "conv2_2"
  }
  layer {
    name: "pool2"
    type: "Pooling"
    bottom: "conv2_2"
    top: "pool2"
    pooling_param {
      pool: MAX
      kernel_size: 2
      stride: 2
    }
  }
  layer {
    name: "conv3_1"
    type: "Convolution"
    bottom: "pool2"
    top: "conv3_1"
    param {
      lr_mult: 1
    }
    param {
      lr_mult: 2
    }
    convolution_param {
      num_output: 256
      pad: 1
      kernel_size: 3
    }
  }
  layer {
    name: "relu3_1"
    type: "ReLU"
    bottom: "conv3_1"
    top: "conv3_1"
  }
  layer {
    name: "conv3_2"
    type: "Convolution"
    bottom: "conv3_1"
    top: "conv3_2"
    param {
      lr_mult: 1
    }
    param {
      lr_mult: 2
    }
    convolution_param {
      num_output: 256
      pad: 1
      kernel_size: 3
    }
  }
  layer {
    name: "relu3_2"
    type: "ReLU"
    bottom: "conv3_2"
    top: "conv3_2"
  }
  layer {
    name: "conv3_3"
    type: "Convolution"
    bottom: "conv3_2"
    top: "conv3_3"
    param {
      lr_mult: 1
    }
    param {
      lr_mult: 2
    }
    convolution_param {
      num_output: 256
      pad: 1
      kernel_size: 3
    }
  }
  layer {
    name: "relu3_3"
    type: "ReLU"
    bottom: "conv3_3"
    top: "conv3_3"
  }
  layer {
    name: "pool3"
    type: "Pooling"
    bottom: "conv3_3"
    top: "pool3"
    pooling_param {
      pool: MAX
      kernel_size: 2
      stride: 2
    }
  }
  layer {
    name: "conv4_1"
    type: "Convolution"
    bottom: "pool3"
    top: "conv4_1"
    param {
      lr_mult: 1
    }
    param {
      lr_mult: 2
    }
    convolution_param {
      num_output: 512
      pad: 1
      kernel_size: 3
    }
  }
  layer {
    name: "relu4_1"
    type: "ReLU"
    bottom: "conv4_1"
    top: "conv4_1"
  }
  layer {
    name: "conv4_2"
    type: "Convolution"
    bottom: "conv4_1"
    top: "conv4_2"
    param {
      lr_mult: 1
    }
    param {
      lr_mult: 2
    }
    convolution_param {
      num_output: 512
      pad: 1
      kernel_size: 3
    }
  }
  layer {
    name: "relu4_2"
    type: "ReLU"
    bottom: "conv4_2"
    top: "conv4_2"
  }
  layer {
    name: "conv4_3"
    type: "Convolution"
    bottom: "conv4_2"
    top: "conv4_3"
    param {
      lr_mult: 1
    }
    param {
      lr_mult: 2
    }
    convolution_param {
      num_output: 512
      pad: 1
      kernel_size: 3
    }
  }
  layer {
    name: "relu4_3"
    type: "ReLU"
    bottom: "conv4_3"
    top: "conv4_3"
  }
  layer {
    name: "pool4"
    type: "Pooling"
    bottom: "conv4_3"
    top: "pool4"
    pooling_param {
      pool: MAX
      kernel_size: 2
      stride: 2
    }
  }
  layer {
    name: "conv5_1"
    type: "Convolution"
    bottom: "pool4"
    top: "conv5_1"
    param {
      lr_mult: 1
    }
    param {
      lr_mult: 2
    }
    convolution_param {
      num_output: 512
      pad: 1
      kernel_size: 3
    }
  }
  layer {
    name: "relu5_1"
    type: "ReLU"
    bottom: "conv5_1"
    top: "conv5_1"
  }
  layer {
    name: "conv5_2"
    type: "Convolution"
    bottom: "conv5_1"
    top: "conv5_2"
    param {
      lr_mult: 1
    }
    param {
      lr_mult: 2
    }
    convolution_param {
      num_output: 512
      pad: 1
      kernel_size: 3
    }
  }
  layer {
    name: "relu5_2"
    type: "ReLU"
    bottom: "conv5_2"
    top: "conv5_2"
  }
  layer {
    name: "conv5_3"
    type: "Convolution"
    bottom: "conv5_2"
    top: "conv5_3"
    param {
      lr_mult: 1
    }
    param {
      lr_mult: 2
    }
    convolution_param {
      num_output: 512
      pad: 1
      kernel_size: 3
    }
  }
  layer {
    name: "relu5_3"
    type: "ReLU"
    bottom: "conv5_3"
    top: "conv5_3"
  }
  layer {
    name: "rpn_big_conv1"
    type: "Convolution"
    bottom: "conv5_3"
    top: "rpn_big_conv1"
    param {
      lr_mult: 1
    }
    param {
      lr_mult: 2
    }
    convolution_param {
      num_output: 512
      pad: 1
      kernel_size: 3
      stride: 1
      weight_filler {
        type: "gaussian"
        mean: 0
        std: 0.01
      }
      bias_filler {
        type: "constant"
      }
    }
  }
  layer {
    name: "rpn_big_conv1_relu"
    type: "ReLU"
    bottom: "rpn_big_conv1"
    top: "rpn_big_conv1"
    relu_param {
      negative_slope: 0
    }
  }
  layer {
    name: "rpn_big_conv2"
    type: "Convolution"
    bottom: "rpn_big_conv1"
    top: "rpn_big_conv2"
    param {
      lr_mult: 1
    }
    param {
      lr_mult: 2
    }
    convolution_param {
      num_output: 512
      pad: 1
      kernel_size: 3
      stride: 1
      weight_filler {
        type: "gaussian"
        mean: 0
        std: 0.01
      }
      bias_filler {
        type: "constant"
      }
    }
  }
  layer {
    name: "rpn_big_conv2_relu"
    type: "ReLU"
    bottom: "rpn_big_conv2"
    top: "rpn_big_conv2"
    relu_param {
      negative_slope: 0
    }
  }
  layer {
    name: "rpn_big_conv2_drop"
    type: "Dropout"
    bottom: "rpn_big_conv2"
    top: "rpn_big_conv2"
    dropout_param {
      dropout_ratio: 0.3
    }
  }
  layer {
    name: "rpn_big_output_cls"
    type: "Convolution"
    bottom: "rpn_big_conv2"
    top: "rpn_big_output_cls"
    param {
      lr_mult: 1
    }
    param {
      lr_mult: 2
    }
    convolution_param {
      num_output: 384
      pad: 1
      kernel_size: 3
      stride: 1
      weight_filler {
        type: "gaussian"
        mean: 0
        std: 0.01
      }
      bias_filler {
        type: "constant"
      }
    }
  }
  layer {
    name: "rpn_big_output_cls_relu"
    type: "ReLU"
    bottom: "rpn_big_output_cls"
    top: "rpn_big_output_cls"
    relu_param {
      negative_slope: 0
    }
  }
  layer {
    name: "rpn_big_cls_score"
    type: "Convolution"
    bottom: "rpn_big_output_cls"
    top: "rpn_big_cls_score"
    param {
      lr_mult: 1
    }
    param {
      lr_mult: 2
    }
    convolution_param {
      num_output: 52
      pad: 0
      kernel_size: 3
      stride: 1
      weight_filler {
        type: "gaussian"
        mean: 0
        std: 0.01
      }
      bias_filler {
        type: "constant"
      }
    }
  }
  layer {
    name: "rpn_big_cls_score_reshape"
    type: "Reshape"
    bottom: "rpn_big_cls_score"
    top: "rpn_big_cls_score_reshape"
    reshape_param {
      shape {
        dim: 0
        dim: 2
        dim: -1
        dim: 0
      }
    }
  }
  layer {
    name: "rpn_big_cls_prob"
    type: "Softmax"
    bottom: "rpn_big_cls_score_reshape"
    top: "rpn_big_cls_prob"
  }
  layer {
    name: "rpn_big_cls_prob_reshape"
    type: "Reshape"
    bottom: "rpn_big_cls_prob"
    top: "rpn_big_cls_prob_reshape"
    reshape_param {
      shape {
        dim: 0
        dim: 52
        dim: -1
        dim: 0
      }
    }
  }
  layer {
    name: "rpn_big_anchor_target"
    type: "Python"
    bottom: "rpn_big_cls_score"
    bottom: "input_gt_boxes"
    bottom: "input_ignored_boxes"
    bottom: "input_im_info"
    bottom: "input_data"
    bottom: "rpn_big_cls_prob_reshape"
    top: "rpn_big_anchor_target_labels"
    top: "rpn_big_anchor_target_bbox_targets"
    top: "rpn_big_anchor_target_inside_weights"
    top: "rpn_big_anchor_target_outside_weights"
    python_param {
      module: "rpn.anchor_target_layer"
      layer: "AnchorTargetLayer"
      param_str: "{\"batchsize\": 256, \"name\": \"rpn_big\", \"fg_fraction\": 0.5, \"num_classes\": 1, \"positive_overlap\": 0.6, \"square_targets\": true, \"negative_overlap\": 0.4, \"anchor_ratios\": [1.0], \"anchor_shift_num_xy\": [[2, 2], [2, 2], [2, 2], [2, 2], [1, 1], [1, 1], [1, 1], [1, 1], [1, 1], [1, 1], [1, 1], [1, 1], [1, 1], [1, 1]], \"anchor_scales\": [2.5, 3.025, 3.66025, 4.4289024999999995, 5.358972025, 6.484356150249999, 7.846070941802498, 9.493745839581022, 11.487432465893036, 13.899793283730574, 16.818749873313998, 20.350687346709933, 24.62433168951902, 29.795441344318014], \"feat_stride\": 16, \"tn_fraction\": 0.2}"
    }
  }
  layer {
    name: "rpn_big_loss_cls"
    type: "SoftmaxWithLoss"
    bottom: "rpn_big_cls_score_reshape"
    bottom: "rpn_big_anchor_target_labels"
    top: "rpn_big_loss_cls"
    loss_weight: 1
    propagate_down: true
    propagate_down: false
    loss_param {
      ignore_label: -1
      normalization: VALID
    }
  }
  layer {
    name: "rpn_big_output_box"
    type: "Convolution"
    bottom: "rpn_big_conv2"
    top: "rpn_big_output_box"
    param {
      lr_mult: 1
    }
    param {
      lr_mult: 2
    }
    convolution_param {
      num_output: 384
      pad: 1
      kernel_size: 3
      stride: 1
      weight_filler {
        type: "gaussian"
        mean: 0
        std: 0.01
      }
      bias_filler {
        type: "constant"
      }
    }
  }
  layer {
    name: "rpn_big_output_box_relu"
    type: "ReLU"
    bottom: "rpn_big_output_box"
    top: "rpn_big_output_box"
    relu_param {
      negative_slope: 0
    }
  }
  layer {
    name: "rpn_big_bbox_pred"
    type: "Convolution"
    bottom: "rpn_big_output_box"
    top: "rpn_big_bbox_pred"
    param {
      lr_mult: 1
    }
    param {
      lr_mult: 2
    }
    convolution_param {
      num_output: 104
      pad: 0
      kernel_size: 3
      stride: 1
      weight_filler {
        type: "gaussian"
        mean: 0
        std: 0.01
      }
      bias_filler {
        type: "constant"
      }
    }
  }
  layer {
    name: "rpn_big_loss_bbox"
    type: "Python"
    bottom: "rpn_big_bbox_pred"
    bottom: "rpn_big_anchor_target_bbox_targets"
    bottom: "rpn_big_anchor_target_inside_weights"
    bottom: "rpn_big_anchor_target_outside_weights"
    top: "rpn_big_loss_bbox"
    loss_weight: 1
    python_param {
      module: "layers.smooth_l1_loss"
      layer: "SmoothL1LossLayer"
      param_str: "{\"sigma\": 3}"
    }
  }
  layer {
    name: "proposal"
    type: "Python"
    bottom: "rpn_big_cls_prob_reshape"
    bottom: "rpn_big_bbox_pred"
    bottom: "input_im_info"
    top: "rpn_rois"
    python_param {
      module: "rpn.proposal_layer"
      layer: "ProposalLayer"
      param_str: "{\"anchor_shift_num_xy\": [[2, 2], [2, 2], [2, 2], [2, 2], [1, 1], [1, 1], [1, 1], [1, 1], [1, 1], [1, 1], [1, 1], [1, 1], [1, 1], [1, 1]], \"feat_stride\": 16, \"num_classes\": 1, \"anchor_scales\": [2.5, 3.025, 3.66025, 4.4289024999999995, 5.358972025, 6.484356150249999, 7.846070941802498, 9.493745839581022, 11.487432465893036, 13.899793283730574, 16.818749873313998, 20.350687346709933, 24.62433168951902, 29.795441344318014], \"square_targets\": true, \"name\": \"rpn_big\", \"batchsize\": 256, \"anchor_ratios\": [1.0]}"
    }
  }
  layer {
    name: "roi-data"
    type: "Python"
    bottom: "rpn_rois"
    bottom: "input_gt_boxes"
    top: "rois"
    top: "labels"
    top: "bbox_targets"
    top: "bbox_inside_weights"
    top: "bbox_outside_weights"
    top: "pid_label"
    python_param {
      module: "rpn.proposal_target_layer"
      layer: "ProposalTargetLayer"
      param_str: "{\"num_classes\": 2, \"bg_aux_label\": 5532}"
    }
  }
  layer {
    name: "roi-pool"
    type: "ROIPooling"
    bottom: "conv5_3"
    bottom: "rois"
    top: "roi-pool"
    roi_pooling_param {
      pooled_h: 7
      pooled_w: 7
      spatial_scale: 0.0625
    }
  }
  layer {
    name: "fc6"
    type: "InnerProduct"
    bottom: "roi-pool"
    top: "fc6"
    param {
      lr_mult: 1
    }
    param {
      lr_mult: 2
    }
    inner_product_param {
      num_output: 4096
    }
  }
  layer {
    name: "relu6"
    type: "ReLU"
    bottom: "fc6"
    top: "fc6"
  }
  layer {
    name: "drop6"
    type: "Dropout"
    bottom: "fc6"
    top: "fc6"
    dropout_param {
      dropout_ratio: 0.5
    }
  }
  layer {
    name: "fc7"
    type: "InnerProduct"
    bottom: "fc6"
    top: "fc7"
    param {
      lr_mult: 1
    }
    param {
      lr_mult: 2
    }
    inner_product_param {
      num_output: 4096
    }
  }
  layer {
    name: "relu7"
    type: "ReLU"
    bottom: "fc7"
    top: "fc7"
  }
  layer {
    name: "drop7"
    type: "Dropout"
    bottom: "fc7"
    top: "fc7"
    dropout_param {
      dropout_ratio: 0.5
    }
  }
  layer {
    name: "bbox_pred"
    type: "InnerProduct"
    bottom: "fc7"
    top: "bbox_pred"
    param {
      lr_mult: 1
    }
    param {
      lr_mult: 2
    }
    inner_product_param {
      num_output: 8
      weight_filler {
        type: "gaussian"
        std: 0.001
      }
      bias_filler {
        type: "constant"
        value: 0
      }
    }
  }
  layer {
    name: "loss_bbox"
    type: "SmoothL1Loss"
    bottom: "bbox_pred"
    bottom: "bbox_targets"
    bottom: "bbox_inside_weights"
    bottom: "bbox_outside_weights"
    top: "loss_bbox"
    loss_weight: 1
  }
  layer {
    name: "feat"
    type: "InnerProduct"
    bottom: "fc7"
    top: "feat"
    param {
      lr_mult: 1
      decay_mult: 1
    }
    param {
      lr_mult: 2
      decay_mult: 0
    }
    inner_product_param {
      num_output: 256
      weight_filler {
        type: "gaussian"
        std: 0.01
      }
      bias_filler {
        type: "constant"
        value: 0
      }
    }
  }
  layer {
    name: "relu8"
    type: "ReLU"
    bottom: "feat"
    top: "feat"
  }
  layer {
    name: "drop8"
    type: "Dropout"
    bottom: "feat"
    top: "feat"
    dropout_param {
      dropout_ratio: 0.5
    }
  }
  layer {
    name: "pid_score"
    type: "InnerProduct"
    bottom: "feat"
    top: "pid_score"
    param {
      lr_mult: 1
      decay_mult: 1
    }
    param {
      lr_mult: 2
      decay_mult: 0
    }
    inner_product_param {
      num_output: 5533
      weight_filler {
        type: "gaussian"
        std: 0.001
      }
      bias_filler {
        type: "constant"
        value: 0
      }
    }
  }
  layer {
    name: "pid_loss"
    type: "SoftmaxWithLoss"
    bottom: "pid_score"
    bottom: "pid_label"
    top: "pid_loss"
    loss_weight: 1
    propagate_down: false
    propagate_down: false
    loss_param {
      ignore_label: -1
      normalize: true
    }
  }
}
average_loss: 100
stepvalue: 70000
stepvalue: 120000
iter_size: 2
I0413 19:10:12.130967 15471 solver.cpp:86] Creating training net specified in net_param.
I0413 19:10:12.131603 15471 net.cpp:58] Initializing net from parameters: 
name: "GeneratedModel_13_04_2017_19_10"
state {
  phase: TRAIN
}
layer {
  name: "input"
  type: "Python"
  top: "input_data"
  top: "input_im_info"
  top: "input_gt_boxes"
  top: "input_ignored_boxes"
  python_param {
    module: "layers.roi_data_layer"
    layer: "RoIDataLayer"
    param_str: "{\"num_classes\": 2}"
  }
}
layer {
  name: "conv1_1"
  type: "Convolution"
  bottom: "input_data"
  top: "conv1_1"
  param {
    lr_mult: 0
    decay_mult: 0
  }
  param {
    lr_mult: 0
    decay_mult: 0
  }
  convolution_param {
    num_output: 64
    pad: 1
    kernel_size: 3
  }
}
layer {
  name: "relu1_1"
  type: "ReLU"
  bottom: "conv1_1"
  top: "conv1_1"
}
layer {
  name: "conv1_2"
  type: "Convolution"
  bottom: "conv1_1"
  top: "conv1_2"
  param {
    lr_mult: 0
    decay_mult: 0
  }
  param {
    lr_mult: 0
    decay_mult: 0
  }
  convolution_param {
    num_output: 64
    pad: 1
    kernel_size: 3
  }
}
layer {
  name: "relu1_2"
  type: "ReLU"
  bottom: "conv1_2"
  top: "conv1_2"
}
layer {
  name: "pool1"
  type: "Pooling"
  bottom: "conv1_2"
  top: "pool1"
  pooling_param {
    pool: MAX
    kernel_size: 2
    stride: 2
  }
}
layer {
  name: "conv2_1"
  type: "Convolution"
  bottom: "pool1"
  top: "conv2_1"
  param {
    lr_mult: 0
    decay_mult: 0
  }
  param {
    lr_mult: 0
    decay_mult: 0
  }
  convolution_param {
    num_output: 128
    pad: 1
    kernel_size: 3
  }
}
layer {
  name: "relu2_1"
  type: "ReLU"
  bottom: "conv2_1"
  top: "conv2_1"
}
layer {
  name: "conv2_2"
  type: "Convolution"
  bottom: "conv2_1"
  top: "conv2_2"
  param {
    lr_mult: 0
    decay_mult: 0
  }
  param {
    lr_mult: 0
    decay_mult: 0
  }
  convolution_param {
    num_output: 128
    pad: 1
    kernel_size: 3
  }
}
layer {
  name: "relu2_2"
  type: "ReLU"
  bottom: "conv2_2"
  top: "conv2_2"
}
layer {
  name: "pool2"
  type: "Pooling"
  bottom: "conv2_2"
  top: "pool2"
  pooling_param {
    pool: MAX
    kernel_size: 2
    stride: 2
  }
}
layer {
  name: "conv3_1"
  type: "Convolution"
  bottom: "pool2"
  top: "conv3_1"
  param {
    lr_mult: 1
  }
  param {
    lr_mult: 2
  }
  convolution_param {
    num_output: 256
    pad: 1
    kernel_size: 3
  }
}
layer {
  name: "relu3_1"
  type: "ReLU"
  bottom: "conv3_1"
  top: "conv3_1"
}
layer {
  name: "conv3_2"
  type: "Convolution"
  bottom: "conv3_1"
  top: "conv3_2"
  param {
    lr_mult: 1
  }
  param {
    lr_mult: 2
  }
  convolution_param {
    num_output: 256
    pad: 1
    kernel_size: 3
  }
}
layer {
  name: "relu3_2"
  type: "ReLU"
  bottom: "conv3_2"
  top: "conv3_2"
}
layer {
  name: "conv3_3"
  type: "Convolution"
  bottom: "conv3_2"
  top: "conv3_3"
  param {
    lr_mult: 1
  }
  param {
    lr_mult: 2
  }
  convolution_param {
    num_output: 256
    pad: 1
    kernel_size: 3
  }
}
layer {
  name: "relu3_3"
  type: "ReLU"
  bottom: "conv3_3"
  top: "conv3_3"
}
layer {
  name: "pool3"
  type: "Pooling"
  bottom: "conv3_3"
  top: "pool3"
  pooling_param {
    pool: MAX
    kernel_size: 2
    stride: 2
  }
}
layer {
  name: "conv4_1"
  type: "Convolution"
  bottom: "pool3"
  top: "conv4_1"
  param {
    lr_mult: 1
  }
  param {
    lr_mult: 2
  }
  convolution_param {
    num_output: 512
    pad: 1
    kernel_size: 3
  }
}
layer {
  name: "relu4_1"
  type: "ReLU"
  bottom: "conv4_1"
  top: "conv4_1"
}
layer {
  name: "conv4_2"
  type: "Convolution"
  bottom: "conv4_1"
  top: "conv4_2"
  param {
    lr_mult: 1
  }
  param {
    lr_mult: 2
  }
  convolution_param {
    num_output: 512
    pad: 1
    kernel_size: 3
  }
}
layer {
  name: "relu4_2"
  type: "ReLU"
  bottom: "conv4_2"
  top: "conv4_2"
}
layer {
  name: "conv4_3"
  type: "Convolution"
  bottom: "conv4_2"
  top: "conv4_3"
  param {
    lr_mult: 1
  }
  param {
    lr_mult: 2
  }
  convolution_param {
    num_output: 512
    pad: 1
    kernel_size: 3
  }
}
layer {
  name: "relu4_3"
  type: "ReLU"
  bottom: "conv4_3"
  top: "conv4_3"
}
layer {
  name: "pool4"
  type: "Pooling"
  bottom: "conv4_3"
  top: "pool4"
  pooling_param {
    pool: MAX
    kernel_size: 2
    stride: 2
  }
}
layer {
  name: "conv5_1"
  type: "Convolution"
  bottom: "pool4"
  top: "conv5_1"
  param {
    lr_mult: 1
  }
  param {
    lr_mult: 2
  }
  convolution_param {
    num_output: 512
    pad: 1
    kernel_size: 3
  }
}
layer {
  name: "relu5_1"
  type: "ReLU"
  bottom: "conv5_1"
  top: "conv5_1"
}
layer {
  name: "conv5_2"
  type: "Convolution"
  bottom: "conv5_1"
  top: "conv5_2"
  param {
    lr_mult: 1
  }
  param {
    lr_mult: 2
  }
  convolution_param {
    num_output: 512
    pad: 1
    kernel_size: 3
  }
}
layer {
  name: "relu5_2"
  type: "ReLU"
  bottom: "conv5_2"
  top: "conv5_2"
}
layer {
  name: "conv5_3"
  type: "Convolution"
  bottom: "conv5_2"
  top: "conv5_3"
  param {
    lr_mult: 1
  }
  param {
    lr_mult: 2
  }
  convolution_param {
    num_output: 512
    pad: 1
    kernel_size: 3
  }
}
layer {
  name: "relu5_3"
  type: "ReLU"
  bottom: "conv5_3"
  top: "conv5_3"
}
layer {
  name: "rpn_big_conv1"
  type: "Convolution"
  bottom: "conv5_3"
  top: "rpn_big_conv1"
  param {
    lr_mult: 1
  }
  param {
    lr_mult: 2
  }
  convolution_param {
    num_output: 512
    pad: 1
    kernel_size: 3
    stride: 1
    weight_filler {
      type: "gaussian"
      mean: 0
      std: 0.01
    }
    bias_filler {
      type: "constant"
    }
  }
}
layer {
  name: "rpn_big_conv1_relu"
  type: "ReLU"
  bottom: "rpn_big_conv1"
  top: "rpn_big_conv1"
  relu_param {
    negative_slope: 0
  }
}
layer {
  name: "rpn_big_conv2"
  type: "Convolution"
  bottom: "rpn_big_conv1"
  top: "rpn_big_conv2"
  param {
    lr_mult: 1
  }
  param {
    lr_mult: 2
  }
  convolution_param {
    num_output: 512
    pad: 1
    kernel_size: 3
    stride: 1
    weight_filler {
      type: "gaussian"
      mean: 0
      std: 0.01
    }
    bias_filler {
      type: "constant"
    }
  }
}
layer {
  name: "rpn_big_conv2_relu"
  type: "ReLU"
  bottom: "rpn_big_conv2"
  top: "rpn_big_conv2"
  relu_param {
    negative_slope: 0
  }
}
layer {
  name: "rpn_big_conv2_drop"
  type: "Dropout"
  bottom: "rpn_big_conv2"
  top: "rpn_big_conv2"
  dropout_param {
    dropout_ratio: 0.3
  }
}
layer {
  name: "rpn_big_output_cls"
  type: "Convolution"
  bottom: "rpn_big_conv2"
  top: "rpn_big_output_cls"
  param {
    lr_mult: 1
  }
  param {
    lr_mult: 2
  }
  convolution_param {
    num_output: 384
    pad: 1
    kernel_size: 3
    stride: 1
    weight_filler {
      type: "gaussian"
      mean: 0
      std: 0.01
    }
    bias_filler {
      type: "constant"
    }
  }
}
layer {
  name: "rpn_big_output_cls_relu"
  type: "ReLU"
  bottom: "rpn_big_output_cls"
  top: "rpn_big_output_cls"
  relu_param {
    negative_slope: 0
  }
}
layer {
  name: "rpn_big_cls_score"
  type: "Convolution"
  bottom: "rpn_big_output_cls"
  top: "rpn_big_cls_score"
  param {
    lr_mult: 1
  }
  param {
    lr_mult: 2
  }
  convolution_param {
    num_output: 52
    pad: 0
    kernel_size: 3
    stride: 1
    weight_filler {
      type: "gaussian"
      mean: 0
      std: 0.01
    }
    bias_filler {
      type: "constant"
    }
  }
}
layer {
  name: "rpn_big_cls_score_reshape"
  type: "Reshape"
  bottom: "rpn_big_cls_score"
  top: "rpn_big_cls_score_reshape"
  reshape_param {
    shape {
      dim: 0
      dim: 2
      dim: -1
      dim: 0
    }
  }
}
layer {
  name: "rpn_big_cls_prob"
  type: "Softmax"
  bottom: "rpn_big_cls_score_reshape"
  top: "rpn_big_cls_prob"
}
layer {
  name: "rpn_big_cls_prob_reshape"
  type: "Reshape"
  bottom: "rpn_big_cls_prob"
  top: "rpn_big_cls_prob_reshape"
  reshape_param {
    shape {
      dim: 0
      dim: 52
      dim: -1
      dim: 0
    }
  }
}
layer {
  name: "rpn_big_anchor_target"
  type: "Python"
  bottom: "rpn_big_cls_score"
  bottom: "input_gt_boxes"
  bottom: "input_ignored_boxes"
  bottom: "input_im_info"
  bottom: "input_data"
  bottom: "rpn_big_cls_prob_reshape"
  top: "rpn_big_anchor_target_labels"
  top: "rpn_big_anchor_target_bbox_targets"
  top: "rpn_big_anchor_target_inside_weights"
  top: "rpn_big_anchor_target_outside_weights"
  python_param {
    module: "rpn.anchor_target_layer"
    layer: "AnchorTargetLayer"
    param_str: "{\"batchsize\": 256, \"name\": \"rpn_big\", \"fg_fraction\": 0.5, \"num_classes\": 1, \"positive_overlap\": 0.6, \"square_targets\": true, \"negative_overlap\": 0.4, \"anchor_ratios\": [1.0], \"anchor_shift_num_xy\": [[2, 2], [2, 2], [2, 2], [2, 2], [1, 1], [1, 1], [1, 1], [1, 1], [1, 1], [1, 1], [1, 1], [1, 1], [1, 1], [1, 1]], \"anchor_scales\": [2.5, 3.025, 3.66025, 4.4289024999999995, 5.358972025, 6.484356150249999, 7.846070941802498, 9.493745839581022, 11.487432465893036, 13.899793283730574, 16.818749873313998, 20.350687346709933, 24.62433168951902, 29.795441344318014], \"feat_stride\": 16, \"tn_fraction\": 0.2}"
  }
}
layer {
  name: "rpn_big_loss_cls"
  type: "SoftmaxWithLoss"
  bottom: "rpn_big_cls_score_reshape"
  bottom: "rpn_big_anchor_target_labels"
  top: "rpn_big_loss_cls"
  loss_weight: 1
  propagate_down: true
  propagate_down: false
  loss_param {
    ignore_label: -1
    normalization: VALID
  }
}
layer {
  name: "rpn_big_output_box"
  type: "Convolution"
  bottom: "rpn_big_conv2"
  top: "rpn_big_output_box"
  param {
    lr_mult: 1
  }
  param {
    lr_mult: 2
  }
  convolution_param {
    num_output: 384
    pad: 1
    kernel_size: 3
    stride: 1
    weight_filler {
      type: "gaussian"
      mean: 0
      std: 0.01
    }
    bias_filler {
      type: "constant"
    }
  }
}
layer {
  name: "rpn_big_output_box_relu"
  type: "ReLU"
  bottom: "rpn_big_output_box"
  top: "rpn_big_output_box"
  relu_param {
    negative_slope: 0
  }
}
layer {
  name: "rpn_big_bbox_pred"
  type: "Convolution"
  bottom: "rpn_big_output_box"
  top: "rpn_big_bbox_pred"
  param {
    lr_mult: 1
  }
  param {
    lr_mult: 2
  }
  convolution_param {
    num_output: 104
    pad: 0
    kernel_size: 3
    stride: 1
    weight_filler {
      type: "gaussian"
      mean: 0
      std: 0.01
    }
    bias_filler {
      type: "constant"
    }
  }
}
layer {
  name: "rpn_big_loss_bbox"
  type: "Python"
  bottom: "rpn_big_bbox_pred"
  bottom: "rpn_big_anchor_target_bbox_targets"
  bottom: "rpn_big_anchor_target_inside_weights"
  bottom: "rpn_big_anchor_target_outside_weights"
  top: "rpn_big_loss_bbox"
  loss_weight: 1
  python_param {
    module: "layers.smooth_l1_loss"
    layer: "SmoothL1LossLayer"
    param_str: "{\"sigma\": 3}"
  }
}
layer {
  name: "proposal"
  type: "Python"
  bottom: "rpn_big_cls_prob_reshape"
  bottom: "rpn_big_bbox_pred"
  bottom: "input_im_info"
  top: "rpn_rois"
  python_param {
    module: "rpn.proposal_layer"
    layer: "ProposalLayer"
    param_str: "{\"anchor_shift_num_xy\": [[2, 2], [2, 2], [2, 2], [2, 2], [1, 1], [1, 1], [1, 1], [1, 1], [1, 1], [1, 1], [1, 1], [1, 1], [1, 1], [1, 1]], \"feat_stride\": 16, \"num_classes\": 1, \"anchor_scales\": [2.5, 3.025, 3.66025, 4.4289024999999995, 5.358972025, 6.484356150249999, 7.846070941802498, 9.493745839581022, 11.487432465893036, 13.899793283730574, 16.818749873313998, 20.350687346709933, 24.62433168951902, 29.795441344318014], \"square_targets\": true, \"name\": \"rpn_big\", \"batchsize\": 256, \"anchor_ratios\": [1.0]}"
  }
}
layer {
  name: "roi-data"
  type: "Python"
  bottom: "rpn_rois"
  bottom: "input_gt_boxes"
  top: "rois"
  top: "labels"
  top: "bbox_targets"
  top: "bbox_inside_weights"
  top: "bbox_outside_weights"
  top: "pid_label"
  python_param {
    module: "rpn.proposal_target_layer"
    layer: "ProposalTargetLayer"
    param_str: "{\"num_classes\": 2, \"bg_aux_label\": 5532}"
  }
}
layer {
  name: "roi-pool"
  type: "ROIPooling"
  bottom: "conv5_3"
  bottom: "rois"
  top: "roi-pool"
  roi_pooling_param {
    pooled_h: 7
    pooled_w: 7
    spatial_scale: 0.0625
  }
}
layer {
  name: "fc6"
  type: "InnerProduct"
  bottom: "roi-pool"
  top: "fc6"
  param {
    lr_mult: 1
  }
  param {
    lr_mult: 2
  }
  inner_product_param {
    num_output: 4096
  }
}
layer {
  name: "relu6"
  type: "ReLU"
  bottom: "fc6"
  top: "fc6"
}
layer {
  name: "drop6"
  type: "Dropout"
  bottom: "fc6"
  top: "fc6"
  dropout_param {
    dropout_ratio: 0.5
  }
}
layer {
  name: "fc7"
  type: "InnerProduct"
  bottom: "fc6"
  top: "fc7"
  param {
    lr_mult: 1
  }
  param {
    lr_mult: 2
  }
  inner_product_param {
    num_output: 4096
  }
}
layer {
  name: "relu7"
  type: "ReLU"
  bottom: "fc7"
  top: "fc7"
}
layer {
  name: "drop7"
  type: "Dropout"
  bottom: "fc7"
  top: "fc7"
  dropout_param {
    dropout_ratio: 0.5
  }
}
layer {
  name: "bbox_pred"
  type: "InnerProduct"
  bottom: "fc7"
  top: "bbox_pred"
  param {
    lr_mult: 1
  }
  param {
    lr_mult: 2
  }
  inner_product_param {
    num_output: 8
    weight_filler {
      type: "gaussian"
      std: 0.001
    }
    bias_filler {
      type: "constant"
      value: 0
    }
  }
}
layer {
  name: "loss_bbox"
  type: "SmoothL1Loss"
  bottom: "bbox_pred"
  bottom: "bbox_targets"
  bottom: "bbox_inside_weights"
  bottom: "bbox_outside_weights"
  top: "loss_bbox"
  loss_weight: 1
}
layer {
  name: "feat"
  type: "InnerProduct"
  bottom: "fc7"
  top: "feat"
  param {
    lr_mult: 1
    decay_mult: 1
  }
  param {
    lr_mult: 2
    decay_mult: 0
  }
  inner_product_param {
    num_output: 256
    weight_filler {
      type: "gaussian"
      std: 0.01
    }
    bias_filler {
      type: "constant"
      value: 0
    }
  }
}
layer {
  name: "relu8"
  type: "ReLU"
  bottom: "feat"
  top: "feat"
}
layer {
  name: "drop8"
  type: "Dropout"
  bottom: "feat"
  top: "feat"
  dropout_param {
    dropout_ratio: 0.5
  }
}
layer {
  name: "pid_score"
  type: "InnerProduct"
  bottom: "feat"
  top: "pid_score"
  param {
    lr_mult: 1
    decay_mult: 1
  }
  param {
    lr_mult: 2
    decay_mult: 0
  }
  inner_product_param {
    num_output: 5533
    weight_filler {
      type: "gaussian"
      std: 0.001
    }
    bias_filler {
      type: "constant"
      value: 0
    }
  }
}
layer {
  name: "pid_loss"
  type: "SoftmaxWithLoss"
  bottom: "pid_score"
  bottom: "pid_label"
  top: "pid_loss"
  loss_weight: 1
  propagate_down: false
  propagate_down: false
  loss_param {
    ignore_label: -1
    normalize: true
  }
}
I0413 19:10:12.131862 15471 layer_factory.hpp:77] Creating layer input
I0413 19:10:12.133198 15471 net.cpp:100] Creating Layer input
I0413 19:10:12.133219 15471 net.cpp:408] input -> input_data
I0413 19:10:12.133229 15471 net.cpp:408] input -> input_im_info
I0413 19:10:12.133236 15471 net.cpp:408] input -> input_gt_boxes
I0413 19:10:12.133244 15471 net.cpp:408] input -> input_ignored_boxes
RoiDataLayer: name_to_top: {'ignored_boxes': 3, 'data': 0, 'im_info': 1, 'gt_boxes': 2}
I0413 19:10:12.464653 15471 net.cpp:150] Setting up input
I0413 19:10:12.464684 15471 net.cpp:157] Top shape: 1 3 1000 1500 (4500000)
I0413 19:10:12.464707 15471 net.cpp:157] Top shape: 1 3 (3)
I0413 19:10:12.464715 15471 net.cpp:157] Top shape: 1 5 (5)
I0413 19:10:12.464718 15471 net.cpp:157] Top shape: 1 5 (5)
I0413 19:10:12.464721 15471 net.cpp:165] Memory required for data: 18000052
I0413 19:10:12.464730 15471 layer_factory.hpp:77] Creating layer input_data_input_0_split
I0413 19:10:12.464741 15471 net.cpp:100] Creating Layer input_data_input_0_split
I0413 19:10:12.464747 15471 net.cpp:434] input_data_input_0_split <- input_data
I0413 19:10:12.464759 15471 net.cpp:408] input_data_input_0_split -> input_data_input_0_split_0
I0413 19:10:12.464776 15471 net.cpp:408] input_data_input_0_split -> input_data_input_0_split_1
I0413 19:10:12.464818 15471 net.cpp:150] Setting up input_data_input_0_split
I0413 19:10:12.464825 15471 net.cpp:157] Top shape: 1 3 1000 1500 (4500000)
I0413 19:10:12.464833 15471 net.cpp:157] Top shape: 1 3 1000 1500 (4500000)
I0413 19:10:12.464839 15471 net.cpp:165] Memory required for data: 54000052
I0413 19:10:12.464844 15471 layer_factory.hpp:77] Creating layer input_im_info_input_1_split
I0413 19:10:12.464855 15471 net.cpp:100] Creating Layer input_im_info_input_1_split
I0413 19:10:12.464861 15471 net.cpp:434] input_im_info_input_1_split <- input_im_info
I0413 19:10:12.464870 15471 net.cpp:408] input_im_info_input_1_split -> input_im_info_input_1_split_0
I0413 19:10:12.464880 15471 net.cpp:408] input_im_info_input_1_split -> input_im_info_input_1_split_1
I0413 19:10:12.464923 15471 net.cpp:150] Setting up input_im_info_input_1_split
I0413 19:10:12.464931 15471 net.cpp:157] Top shape: 1 3 (3)
I0413 19:10:12.464937 15471 net.cpp:157] Top shape: 1 3 (3)
I0413 19:10:12.464943 15471 net.cpp:165] Memory required for data: 54000076
I0413 19:10:12.464951 15471 layer_factory.hpp:77] Creating layer input_gt_boxes_input_2_split
I0413 19:10:12.464959 15471 net.cpp:100] Creating Layer input_gt_boxes_input_2_split
I0413 19:10:12.464964 15471 net.cpp:434] input_gt_boxes_input_2_split <- input_gt_boxes
I0413 19:10:12.464972 15471 net.cpp:408] input_gt_boxes_input_2_split -> input_gt_boxes_input_2_split_0
I0413 19:10:12.464987 15471 net.cpp:408] input_gt_boxes_input_2_split -> input_gt_boxes_input_2_split_1
I0413 19:10:12.465018 15471 net.cpp:150] Setting up input_gt_boxes_input_2_split
I0413 19:10:12.465024 15471 net.cpp:157] Top shape: 1 5 (5)
I0413 19:10:12.465030 15471 net.cpp:157] Top shape: 1 5 (5)
I0413 19:10:12.465037 15471 net.cpp:165] Memory required for data: 54000116
I0413 19:10:12.465044 15471 layer_factory.hpp:77] Creating layer conv1_1
I0413 19:10:12.465056 15471 net.cpp:100] Creating Layer conv1_1
I0413 19:10:12.465062 15471 net.cpp:434] conv1_1 <- input_data_input_0_split_0
I0413 19:10:12.465073 15471 net.cpp:408] conv1_1 -> conv1_1
I0413 19:10:12.468232 15471 net.cpp:150] Setting up conv1_1
I0413 19:10:12.468269 15471 net.cpp:157] Top shape: 1 64 1000 1500 (96000000)
I0413 19:10:12.468273 15471 net.cpp:165] Memory required for data: 438000116
I0413 19:10:12.468291 15471 layer_factory.hpp:77] Creating layer relu1_1
I0413 19:10:12.468305 15471 net.cpp:100] Creating Layer relu1_1
I0413 19:10:12.468310 15471 net.cpp:434] relu1_1 <- conv1_1
I0413 19:10:12.468318 15471 net.cpp:395] relu1_1 -> conv1_1 (in-place)
I0413 19:10:12.468329 15471 net.cpp:150] Setting up relu1_1
I0413 19:10:12.468335 15471 net.cpp:157] Top shape: 1 64 1000 1500 (96000000)
I0413 19:10:12.468338 15471 net.cpp:165] Memory required for data: 822000116
I0413 19:10:12.468341 15471 layer_factory.hpp:77] Creating layer conv1_2
I0413 19:10:12.468353 15471 net.cpp:100] Creating Layer conv1_2
I0413 19:10:12.468356 15471 net.cpp:434] conv1_2 <- conv1_1
I0413 19:10:12.468361 15471 net.cpp:408] conv1_2 -> conv1_2
I0413 19:10:12.471537 15471 net.cpp:150] Setting up conv1_2
I0413 19:10:12.471575 15471 net.cpp:157] Top shape: 1 64 1000 1500 (96000000)
I0413 19:10:12.471580 15471 net.cpp:165] Memory required for data: 1206000116
I0413 19:10:12.471607 15471 layer_factory.hpp:77] Creating layer relu1_2
I0413 19:10:12.471626 15471 net.cpp:100] Creating Layer relu1_2
I0413 19:10:12.471637 15471 net.cpp:434] relu1_2 <- conv1_2
I0413 19:10:12.471662 15471 net.cpp:395] relu1_2 -> conv1_2 (in-place)
I0413 19:10:12.471680 15471 net.cpp:150] Setting up relu1_2
I0413 19:10:12.471690 15471 net.cpp:157] Top shape: 1 64 1000 1500 (96000000)
I0413 19:10:12.471696 15471 net.cpp:165] Memory required for data: 1590000116
I0413 19:10:12.471705 15471 layer_factory.hpp:77] Creating layer pool1
I0413 19:10:12.471724 15471 net.cpp:100] Creating Layer pool1
I0413 19:10:12.471731 15471 net.cpp:434] pool1 <- conv1_2
I0413 19:10:12.471741 15471 net.cpp:408] pool1 -> pool1
I0413 19:10:12.471833 15471 net.cpp:150] Setting up pool1
I0413 19:10:12.471846 15471 net.cpp:157] Top shape: 1 64 500 750 (24000000)
I0413 19:10:12.471853 15471 net.cpp:165] Memory required for data: 1686000116
I0413 19:10:12.471860 15471 layer_factory.hpp:77] Creating layer conv2_1
I0413 19:10:12.471879 15471 net.cpp:100] Creating Layer conv2_1
I0413 19:10:12.471887 15471 net.cpp:434] conv2_1 <- pool1
I0413 19:10:12.471900 15471 net.cpp:408] conv2_1 -> conv2_1
I0413 19:10:12.473438 15471 net.cpp:150] Setting up conv2_1
I0413 19:10:12.473456 15471 net.cpp:157] Top shape: 1 128 500 750 (48000000)
I0413 19:10:12.473464 15471 net.cpp:165] Memory required for data: 1878000116
I0413 19:10:12.473479 15471 layer_factory.hpp:77] Creating layer relu2_1
I0413 19:10:12.473489 15471 net.cpp:100] Creating Layer relu2_1
I0413 19:10:12.473496 15471 net.cpp:434] relu2_1 <- conv2_1
I0413 19:10:12.473506 15471 net.cpp:395] relu2_1 -> conv2_1 (in-place)
I0413 19:10:12.473517 15471 net.cpp:150] Setting up relu2_1
I0413 19:10:12.473526 15471 net.cpp:157] Top shape: 1 128 500 750 (48000000)
I0413 19:10:12.473531 15471 net.cpp:165] Memory required for data: 2070000116
I0413 19:10:12.473537 15471 layer_factory.hpp:77] Creating layer conv2_2
I0413 19:10:12.473551 15471 net.cpp:100] Creating Layer conv2_2
I0413 19:10:12.473556 15471 net.cpp:434] conv2_2 <- conv2_1
I0413 19:10:12.473565 15471 net.cpp:408] conv2_2 -> conv2_2
I0413 19:10:12.474536 15471 net.cpp:150] Setting up conv2_2
I0413 19:10:12.474557 15471 net.cpp:157] Top shape: 1 128 500 750 (48000000)
I0413 19:10:12.474563 15471 net.cpp:165] Memory required for data: 2262000116
I0413 19:10:12.474577 15471 layer_factory.hpp:77] Creating layer relu2_2
I0413 19:10:12.474589 15471 net.cpp:100] Creating Layer relu2_2
I0413 19:10:12.474596 15471 net.cpp:434] relu2_2 <- conv2_2
I0413 19:10:12.474603 15471 net.cpp:395] relu2_2 -> conv2_2 (in-place)
I0413 19:10:12.474613 15471 net.cpp:150] Setting up relu2_2
I0413 19:10:12.474620 15471 net.cpp:157] Top shape: 1 128 500 750 (48000000)
I0413 19:10:12.474625 15471 net.cpp:165] Memory required for data: 2454000116
I0413 19:10:12.474630 15471 layer_factory.hpp:77] Creating layer pool2
I0413 19:10:12.474640 15471 net.cpp:100] Creating Layer pool2
I0413 19:10:12.474645 15471 net.cpp:434] pool2 <- conv2_2
I0413 19:10:12.474654 15471 net.cpp:408] pool2 -> pool2
I0413 19:10:12.474699 15471 net.cpp:150] Setting up pool2
I0413 19:10:12.474710 15471 net.cpp:157] Top shape: 1 128 250 375 (12000000)
I0413 19:10:12.474716 15471 net.cpp:165] Memory required for data: 2502000116
I0413 19:10:12.474721 15471 layer_factory.hpp:77] Creating layer conv3_1
I0413 19:10:12.474733 15471 net.cpp:100] Creating Layer conv3_1
I0413 19:10:12.474738 15471 net.cpp:434] conv3_1 <- pool2
I0413 19:10:12.474746 15471 net.cpp:408] conv3_1 -> conv3_1
I0413 19:10:12.475858 15471 net.cpp:150] Setting up conv3_1
I0413 19:10:12.475883 15471 net.cpp:157] Top shape: 1 256 250 375 (24000000)
I0413 19:10:12.475888 15471 net.cpp:165] Memory required for data: 2598000116
I0413 19:10:12.475908 15471 layer_factory.hpp:77] Creating layer relu3_1
I0413 19:10:12.475919 15471 net.cpp:100] Creating Layer relu3_1
I0413 19:10:12.475925 15471 net.cpp:434] relu3_1 <- conv3_1
I0413 19:10:12.475934 15471 net.cpp:395] relu3_1 -> conv3_1 (in-place)
I0413 19:10:12.475944 15471 net.cpp:150] Setting up relu3_1
I0413 19:10:12.475951 15471 net.cpp:157] Top shape: 1 256 250 375 (24000000)
I0413 19:10:12.475955 15471 net.cpp:165] Memory required for data: 2694000116
I0413 19:10:12.475962 15471 layer_factory.hpp:77] Creating layer conv3_2
I0413 19:10:12.475977 15471 net.cpp:100] Creating Layer conv3_2
I0413 19:10:12.475982 15471 net.cpp:434] conv3_2 <- conv3_1
I0413 19:10:12.475991 15471 net.cpp:408] conv3_2 -> conv3_2
I0413 19:10:12.477246 15471 net.cpp:150] Setting up conv3_2
I0413 19:10:12.477275 15471 net.cpp:157] Top shape: 1 256 250 375 (24000000)
I0413 19:10:12.477282 15471 net.cpp:165] Memory required for data: 2790000116
I0413 19:10:12.477295 15471 layer_factory.hpp:77] Creating layer relu3_2
I0413 19:10:12.477306 15471 net.cpp:100] Creating Layer relu3_2
I0413 19:10:12.477313 15471 net.cpp:434] relu3_2 <- conv3_2
I0413 19:10:12.477325 15471 net.cpp:395] relu3_2 -> conv3_2 (in-place)
I0413 19:10:12.477339 15471 net.cpp:150] Setting up relu3_2
I0413 19:10:12.477345 15471 net.cpp:157] Top shape: 1 256 250 375 (24000000)
I0413 19:10:12.477350 15471 net.cpp:165] Memory required for data: 2886000116
I0413 19:10:12.477357 15471 layer_factory.hpp:77] Creating layer conv3_3
I0413 19:10:12.477372 15471 net.cpp:100] Creating Layer conv3_3
I0413 19:10:12.477378 15471 net.cpp:434] conv3_3 <- conv3_2
I0413 19:10:12.477388 15471 net.cpp:408] conv3_3 -> conv3_3
I0413 19:10:12.478967 15471 net.cpp:150] Setting up conv3_3
I0413 19:10:12.478996 15471 net.cpp:157] Top shape: 1 256 250 375 (24000000)
I0413 19:10:12.479001 15471 net.cpp:165] Memory required for data: 2982000116
I0413 19:10:12.479017 15471 layer_factory.hpp:77] Creating layer relu3_3
I0413 19:10:12.479030 15471 net.cpp:100] Creating Layer relu3_3
I0413 19:10:12.479038 15471 net.cpp:434] relu3_3 <- conv3_3
I0413 19:10:12.479048 15471 net.cpp:395] relu3_3 -> conv3_3 (in-place)
I0413 19:10:12.479060 15471 net.cpp:150] Setting up relu3_3
I0413 19:10:12.479066 15471 net.cpp:157] Top shape: 1 256 250 375 (24000000)
I0413 19:10:12.479071 15471 net.cpp:165] Memory required for data: 3078000116
I0413 19:10:12.479079 15471 layer_factory.hpp:77] Creating layer pool3
I0413 19:10:12.479090 15471 net.cpp:100] Creating Layer pool3
I0413 19:10:12.479095 15471 net.cpp:434] pool3 <- conv3_3
I0413 19:10:12.479102 15471 net.cpp:408] pool3 -> pool3
I0413 19:10:12.479153 15471 net.cpp:150] Setting up pool3
I0413 19:10:12.479161 15471 net.cpp:157] Top shape: 1 256 125 188 (6016000)
I0413 19:10:12.479166 15471 net.cpp:165] Memory required for data: 3102064116
I0413 19:10:12.479172 15471 layer_factory.hpp:77] Creating layer conv4_1
I0413 19:10:12.479187 15471 net.cpp:100] Creating Layer conv4_1
I0413 19:10:12.479192 15471 net.cpp:434] conv4_1 <- pool3
I0413 19:10:12.479200 15471 net.cpp:408] conv4_1 -> conv4_1
I0413 19:10:12.481899 15471 net.cpp:150] Setting up conv4_1
I0413 19:10:12.481928 15471 net.cpp:157] Top shape: 1 512 125 188 (12032000)
I0413 19:10:12.481941 15471 net.cpp:165] Memory required for data: 3150192116
I0413 19:10:12.481951 15471 layer_factory.hpp:77] Creating layer relu4_1
I0413 19:10:12.481961 15471 net.cpp:100] Creating Layer relu4_1
I0413 19:10:12.481969 15471 net.cpp:434] relu4_1 <- conv4_1
I0413 19:10:12.481979 15471 net.cpp:395] relu4_1 -> conv4_1 (in-place)
I0413 19:10:12.481993 15471 net.cpp:150] Setting up relu4_1
I0413 19:10:12.482003 15471 net.cpp:157] Top shape: 1 512 125 188 (12032000)
I0413 19:10:12.482008 15471 net.cpp:165] Memory required for data: 3198320116
I0413 19:10:12.482014 15471 layer_factory.hpp:77] Creating layer conv4_2
I0413 19:10:12.482028 15471 net.cpp:100] Creating Layer conv4_2
I0413 19:10:12.482033 15471 net.cpp:434] conv4_2 <- conv4_1
I0413 19:10:12.482043 15471 net.cpp:408] conv4_2 -> conv4_2
I0413 19:10:12.486344 15471 net.cpp:150] Setting up conv4_2
I0413 19:10:12.486378 15471 net.cpp:157] Top shape: 1 512 125 188 (12032000)
I0413 19:10:12.486382 15471 net.cpp:165] Memory required for data: 3246448116
I0413 19:10:12.486409 15471 layer_factory.hpp:77] Creating layer relu4_2
I0413 19:10:12.486420 15471 net.cpp:100] Creating Layer relu4_2
I0413 19:10:12.486426 15471 net.cpp:434] relu4_2 <- conv4_2
I0413 19:10:12.486436 15471 net.cpp:395] relu4_2 -> conv4_2 (in-place)
I0413 19:10:12.486450 15471 net.cpp:150] Setting up relu4_2
I0413 19:10:12.486459 15471 net.cpp:157] Top shape: 1 512 125 188 (12032000)
I0413 19:10:12.486464 15471 net.cpp:165] Memory required for data: 3294576116
I0413 19:10:12.486469 15471 layer_factory.hpp:77] Creating layer conv4_3
I0413 19:10:12.486485 15471 net.cpp:100] Creating Layer conv4_3
I0413 19:10:12.486493 15471 net.cpp:434] conv4_3 <- conv4_2
I0413 19:10:12.486502 15471 net.cpp:408] conv4_3 -> conv4_3
I0413 19:10:12.492764 15471 net.cpp:150] Setting up conv4_3
I0413 19:10:12.492800 15471 net.cpp:157] Top shape: 1 512 125 188 (12032000)
I0413 19:10:12.492805 15471 net.cpp:165] Memory required for data: 3342704116
I0413 19:10:12.492815 15471 layer_factory.hpp:77] Creating layer relu4_3
I0413 19:10:12.492828 15471 net.cpp:100] Creating Layer relu4_3
I0413 19:10:12.492836 15471 net.cpp:434] relu4_3 <- conv4_3
I0413 19:10:12.492848 15471 net.cpp:395] relu4_3 -> conv4_3 (in-place)
I0413 19:10:12.492874 15471 net.cpp:150] Setting up relu4_3
I0413 19:10:12.492884 15471 net.cpp:157] Top shape: 1 512 125 188 (12032000)
I0413 19:10:12.492889 15471 net.cpp:165] Memory required for data: 3390832116
I0413 19:10:12.492895 15471 layer_factory.hpp:77] Creating layer pool4
I0413 19:10:12.492920 15471 net.cpp:100] Creating Layer pool4
I0413 19:10:12.492928 15471 net.cpp:434] pool4 <- conv4_3
I0413 19:10:12.492936 15471 net.cpp:408] pool4 -> pool4
I0413 19:10:12.492990 15471 net.cpp:150] Setting up pool4
I0413 19:10:12.493000 15471 net.cpp:157] Top shape: 1 512 63 94 (3032064)
I0413 19:10:12.493006 15471 net.cpp:165] Memory required for data: 3402960372
I0413 19:10:12.493012 15471 layer_factory.hpp:77] Creating layer conv5_1
I0413 19:10:12.493029 15471 net.cpp:100] Creating Layer conv5_1
I0413 19:10:12.493036 15471 net.cpp:434] conv5_1 <- pool4
I0413 19:10:12.493047 15471 net.cpp:408] conv5_1 -> conv5_1
I0413 19:10:12.497871 15471 net.cpp:150] Setting up conv5_1
I0413 19:10:12.497911 15471 net.cpp:157] Top shape: 1 512 63 94 (3032064)
I0413 19:10:12.497916 15471 net.cpp:165] Memory required for data: 3415088628
I0413 19:10:12.497926 15471 layer_factory.hpp:77] Creating layer relu5_1
I0413 19:10:12.497937 15471 net.cpp:100] Creating Layer relu5_1
I0413 19:10:12.497946 15471 net.cpp:434] relu5_1 <- conv5_1
I0413 19:10:12.497956 15471 net.cpp:395] relu5_1 -> conv5_1 (in-place)
I0413 19:10:12.497969 15471 net.cpp:150] Setting up relu5_1
I0413 19:10:12.497983 15471 net.cpp:157] Top shape: 1 512 63 94 (3032064)
I0413 19:10:12.497989 15471 net.cpp:165] Memory required for data: 3427216884
I0413 19:10:12.497994 15471 layer_factory.hpp:77] Creating layer conv5_2
I0413 19:10:12.498009 15471 net.cpp:100] Creating Layer conv5_2
I0413 19:10:12.498016 15471 net.cpp:434] conv5_2 <- conv5_1
I0413 19:10:12.498044 15471 net.cpp:408] conv5_2 -> conv5_2
I0413 19:10:12.502365 15471 net.cpp:150] Setting up conv5_2
I0413 19:10:12.502403 15471 net.cpp:157] Top shape: 1 512 63 94 (3032064)
I0413 19:10:12.502408 15471 net.cpp:165] Memory required for data: 3439345140
I0413 19:10:12.502418 15471 layer_factory.hpp:77] Creating layer relu5_2
I0413 19:10:12.502429 15471 net.cpp:100] Creating Layer relu5_2
I0413 19:10:12.502434 15471 net.cpp:434] relu5_2 <- conv5_2
I0413 19:10:12.502450 15471 net.cpp:395] relu5_2 -> conv5_2 (in-place)
I0413 19:10:12.502465 15471 net.cpp:150] Setting up relu5_2
I0413 19:10:12.502472 15471 net.cpp:157] Top shape: 1 512 63 94 (3032064)
I0413 19:10:12.502477 15471 net.cpp:165] Memory required for data: 3451473396
I0413 19:10:12.502483 15471 layer_factory.hpp:77] Creating layer conv5_3
I0413 19:10:12.502516 15471 net.cpp:100] Creating Layer conv5_3
I0413 19:10:12.502532 15471 net.cpp:434] conv5_3 <- conv5_2
I0413 19:10:12.502542 15471 net.cpp:408] conv5_3 -> conv5_3
I0413 19:10:12.507026 15471 net.cpp:150] Setting up conv5_3
I0413 19:10:12.507063 15471 net.cpp:157] Top shape: 1 512 63 94 (3032064)
I0413 19:10:12.507066 15471 net.cpp:165] Memory required for data: 3463601652
I0413 19:10:12.507081 15471 layer_factory.hpp:77] Creating layer relu5_3
I0413 19:10:12.507095 15471 net.cpp:100] Creating Layer relu5_3
I0413 19:10:12.507104 15471 net.cpp:434] relu5_3 <- conv5_3
I0413 19:10:12.507119 15471 net.cpp:395] relu5_3 -> conv5_3 (in-place)
I0413 19:10:12.507135 15471 net.cpp:150] Setting up relu5_3
I0413 19:10:12.507145 15471 net.cpp:157] Top shape: 1 512 63 94 (3032064)
I0413 19:10:12.507150 15471 net.cpp:165] Memory required for data: 3475729908
I0413 19:10:12.507156 15471 layer_factory.hpp:77] Creating layer conv5_3_relu5_3_0_split
I0413 19:10:12.507169 15471 net.cpp:100] Creating Layer conv5_3_relu5_3_0_split
I0413 19:10:12.507176 15471 net.cpp:434] conv5_3_relu5_3_0_split <- conv5_3
I0413 19:10:12.507186 15471 net.cpp:408] conv5_3_relu5_3_0_split -> conv5_3_relu5_3_0_split_0
I0413 19:10:12.507200 15471 net.cpp:408] conv5_3_relu5_3_0_split -> conv5_3_relu5_3_0_split_1
I0413 19:10:12.507237 15471 net.cpp:150] Setting up conv5_3_relu5_3_0_split
I0413 19:10:12.507246 15471 net.cpp:157] Top shape: 1 512 63 94 (3032064)
I0413 19:10:12.507253 15471 net.cpp:157] Top shape: 1 512 63 94 (3032064)
I0413 19:10:12.507259 15471 net.cpp:165] Memory required for data: 3499986420
I0413 19:10:12.507264 15471 layer_factory.hpp:77] Creating layer rpn_big_conv1
I0413 19:10:12.507282 15471 net.cpp:100] Creating Layer rpn_big_conv1
I0413 19:10:12.507287 15471 net.cpp:434] rpn_big_conv1 <- conv5_3_relu5_3_0_split_0
I0413 19:10:12.507297 15471 net.cpp:408] rpn_big_conv1 -> rpn_big_conv1
I0413 19:10:12.533227 15471 net.cpp:150] Setting up rpn_big_conv1
I0413 19:10:12.533263 15471 net.cpp:157] Top shape: 1 512 63 94 (3032064)
I0413 19:10:12.533272 15471 net.cpp:165] Memory required for data: 3512114676
I0413 19:10:12.533287 15471 layer_factory.hpp:77] Creating layer rpn_big_conv1_relu
I0413 19:10:12.533303 15471 net.cpp:100] Creating Layer rpn_big_conv1_relu
I0413 19:10:12.533313 15471 net.cpp:434] rpn_big_conv1_relu <- rpn_big_conv1
I0413 19:10:12.533325 15471 net.cpp:395] rpn_big_conv1_relu -> rpn_big_conv1 (in-place)
I0413 19:10:12.533340 15471 net.cpp:150] Setting up rpn_big_conv1_relu
I0413 19:10:12.533350 15471 net.cpp:157] Top shape: 1 512 63 94 (3032064)
I0413 19:10:12.533355 15471 net.cpp:165] Memory required for data: 3524242932
I0413 19:10:12.533361 15471 layer_factory.hpp:77] Creating layer rpn_big_conv2
I0413 19:10:12.533377 15471 net.cpp:100] Creating Layer rpn_big_conv2
I0413 19:10:12.533385 15471 net.cpp:434] rpn_big_conv2 <- rpn_big_conv1
I0413 19:10:12.533396 15471 net.cpp:408] rpn_big_conv2 -> rpn_big_conv2
I0413 19:10:12.558616 15471 net.cpp:150] Setting up rpn_big_conv2
I0413 19:10:12.558655 15471 net.cpp:157] Top shape: 1 512 63 94 (3032064)
I0413 19:10:12.558660 15471 net.cpp:165] Memory required for data: 3536371188
I0413 19:10:12.558670 15471 layer_factory.hpp:77] Creating layer rpn_big_conv2_relu
I0413 19:10:12.558683 15471 net.cpp:100] Creating Layer rpn_big_conv2_relu
I0413 19:10:12.558691 15471 net.cpp:434] rpn_big_conv2_relu <- rpn_big_conv2
I0413 19:10:12.558706 15471 net.cpp:395] rpn_big_conv2_relu -> rpn_big_conv2 (in-place)
I0413 19:10:12.558724 15471 net.cpp:150] Setting up rpn_big_conv2_relu
I0413 19:10:12.558742 15471 net.cpp:157] Top shape: 1 512 63 94 (3032064)
I0413 19:10:12.558755 15471 net.cpp:165] Memory required for data: 3548499444
I0413 19:10:12.558760 15471 layer_factory.hpp:77] Creating layer rpn_big_conv2_drop
I0413 19:10:12.558771 15471 net.cpp:100] Creating Layer rpn_big_conv2_drop
I0413 19:10:12.558778 15471 net.cpp:434] rpn_big_conv2_drop <- rpn_big_conv2
I0413 19:10:12.558785 15471 net.cpp:395] rpn_big_conv2_drop -> rpn_big_conv2 (in-place)
I0413 19:10:12.558826 15471 net.cpp:150] Setting up rpn_big_conv2_drop
I0413 19:10:12.558836 15471 net.cpp:157] Top shape: 1 512 63 94 (3032064)
I0413 19:10:12.558841 15471 net.cpp:165] Memory required for data: 3560627700
I0413 19:10:12.558854 15471 layer_factory.hpp:77] Creating layer rpn_big_conv2_rpn_big_conv2_drop_0_split
I0413 19:10:12.558866 15471 net.cpp:100] Creating Layer rpn_big_conv2_rpn_big_conv2_drop_0_split
I0413 19:10:12.558871 15471 net.cpp:434] rpn_big_conv2_rpn_big_conv2_drop_0_split <- rpn_big_conv2
I0413 19:10:12.558882 15471 net.cpp:408] rpn_big_conv2_rpn_big_conv2_drop_0_split -> rpn_big_conv2_rpn_big_conv2_drop_0_split_0
I0413 19:10:12.558894 15471 net.cpp:408] rpn_big_conv2_rpn_big_conv2_drop_0_split -> rpn_big_conv2_rpn_big_conv2_drop_0_split_1
I0413 19:10:12.558976 15471 net.cpp:150] Setting up rpn_big_conv2_rpn_big_conv2_drop_0_split
I0413 19:10:12.558987 15471 net.cpp:157] Top shape: 1 512 63 94 (3032064)
I0413 19:10:12.559005 15471 net.cpp:157] Top shape: 1 512 63 94 (3032064)
I0413 19:10:12.559008 15471 net.cpp:165] Memory required for data: 3584884212
I0413 19:10:12.559015 15471 layer_factory.hpp:77] Creating layer rpn_big_output_cls
I0413 19:10:12.559031 15471 net.cpp:100] Creating Layer rpn_big_output_cls
I0413 19:10:12.559039 15471 net.cpp:434] rpn_big_output_cls <- rpn_big_conv2_rpn_big_conv2_drop_0_split_0
I0413 19:10:12.559049 15471 net.cpp:408] rpn_big_output_cls -> rpn_big_output_cls
I0413 19:10:12.578240 15471 net.cpp:150] Setting up rpn_big_output_cls
I0413 19:10:12.578269 15471 net.cpp:157] Top shape: 1 384 63 94 (2274048)
I0413 19:10:12.578282 15471 net.cpp:165] Memory required for data: 3593980404
I0413 19:10:12.578292 15471 layer_factory.hpp:77] Creating layer rpn_big_output_cls_relu
I0413 19:10:12.578305 15471 net.cpp:100] Creating Layer rpn_big_output_cls_relu
I0413 19:10:12.578311 15471 net.cpp:434] rpn_big_output_cls_relu <- rpn_big_output_cls
I0413 19:10:12.578322 15471 net.cpp:395] rpn_big_output_cls_relu -> rpn_big_output_cls (in-place)
I0413 19:10:12.578341 15471 net.cpp:150] Setting up rpn_big_output_cls_relu
I0413 19:10:12.578349 15471 net.cpp:157] Top shape: 1 384 63 94 (2274048)
I0413 19:10:12.578354 15471 net.cpp:165] Memory required for data: 3603076596
I0413 19:10:12.578359 15471 layer_factory.hpp:77] Creating layer rpn_big_cls_score
I0413 19:10:12.578375 15471 net.cpp:100] Creating Layer rpn_big_cls_score
I0413 19:10:12.578382 15471 net.cpp:434] rpn_big_cls_score <- rpn_big_output_cls
I0413 19:10:12.578392 15471 net.cpp:408] rpn_big_cls_score -> rpn_big_cls_score
I0413 19:10:12.580770 15471 net.cpp:150] Setting up rpn_big_cls_score
I0413 19:10:12.580782 15471 net.cpp:157] Top shape: 1 52 61 92 (291824)
I0413 19:10:12.580785 15471 net.cpp:165] Memory required for data: 3604243892
I0413 19:10:12.580808 15471 layer_factory.hpp:77] Creating layer rpn_big_cls_score_rpn_big_cls_score_0_split
I0413 19:10:12.580818 15471 net.cpp:100] Creating Layer rpn_big_cls_score_rpn_big_cls_score_0_split
I0413 19:10:12.580826 15471 net.cpp:434] rpn_big_cls_score_rpn_big_cls_score_0_split <- rpn_big_cls_score
I0413 19:10:12.580837 15471 net.cpp:408] rpn_big_cls_score_rpn_big_cls_score_0_split -> rpn_big_cls_score_rpn_big_cls_score_0_split_0
I0413 19:10:12.580849 15471 net.cpp:408] rpn_big_cls_score_rpn_big_cls_score_0_split -> rpn_big_cls_score_rpn_big_cls_score_0_split_1
I0413 19:10:12.580900 15471 net.cpp:150] Setting up rpn_big_cls_score_rpn_big_cls_score_0_split
I0413 19:10:12.580919 15471 net.cpp:157] Top shape: 1 52 61 92 (291824)
I0413 19:10:12.580929 15471 net.cpp:157] Top shape: 1 52 61 92 (291824)
I0413 19:10:12.580935 15471 net.cpp:165] Memory required for data: 3606578484
I0413 19:10:12.580940 15471 layer_factory.hpp:77] Creating layer rpn_big_cls_score_reshape
I0413 19:10:12.580956 15471 net.cpp:100] Creating Layer rpn_big_cls_score_reshape
I0413 19:10:12.580966 15471 net.cpp:434] rpn_big_cls_score_reshape <- rpn_big_cls_score_rpn_big_cls_score_0_split_0
I0413 19:10:12.580976 15471 net.cpp:408] rpn_big_cls_score_reshape -> rpn_big_cls_score_reshape
I0413 19:10:12.581012 15471 net.cpp:150] Setting up rpn_big_cls_score_reshape
I0413 19:10:12.581023 15471 net.cpp:157] Top shape: 1 2 1586 92 (291824)
I0413 19:10:12.581030 15471 net.cpp:165] Memory required for data: 3607745780
I0413 19:10:12.581038 15471 layer_factory.hpp:77] Creating layer rpn_big_cls_score_reshape_rpn_big_cls_score_reshape_0_split
I0413 19:10:12.581049 15471 net.cpp:100] Creating Layer rpn_big_cls_score_reshape_rpn_big_cls_score_reshape_0_split
I0413 19:10:12.581055 15471 net.cpp:434] rpn_big_cls_score_reshape_rpn_big_cls_score_reshape_0_split <- rpn_big_cls_score_reshape
I0413 19:10:12.581066 15471 net.cpp:408] rpn_big_cls_score_reshape_rpn_big_cls_score_reshape_0_split -> rpn_big_cls_score_reshape_rpn_big_cls_score_reshape_0_split_0
I0413 19:10:12.581079 15471 net.cpp:408] rpn_big_cls_score_reshape_rpn_big_cls_score_reshape_0_split -> rpn_big_cls_score_reshape_rpn_big_cls_score_reshape_0_split_1
I0413 19:10:12.581126 15471 net.cpp:150] Setting up rpn_big_cls_score_reshape_rpn_big_cls_score_reshape_0_split
I0413 19:10:12.581137 15471 net.cpp:157] Top shape: 1 2 1586 92 (291824)
I0413 19:10:12.581146 15471 net.cpp:157] Top shape: 1 2 1586 92 (291824)
I0413 19:10:12.581152 15471 net.cpp:165] Memory required for data: 3610080372
I0413 19:10:12.581158 15471 layer_factory.hpp:77] Creating layer rpn_big_cls_prob
I0413 19:10:12.581171 15471 net.cpp:100] Creating Layer rpn_big_cls_prob
I0413 19:10:12.581178 15471 net.cpp:434] rpn_big_cls_prob <- rpn_big_cls_score_reshape_rpn_big_cls_score_reshape_0_split_0
I0413 19:10:12.581188 15471 net.cpp:408] rpn_big_cls_prob -> rpn_big_cls_prob
I0413 19:10:12.581264 15471 net.cpp:150] Setting up rpn_big_cls_prob
I0413 19:10:12.581274 15471 net.cpp:157] Top shape: 1 2 1586 92 (291824)
I0413 19:10:12.581279 15471 net.cpp:165] Memory required for data: 3611247668
I0413 19:10:12.581286 15471 layer_factory.hpp:77] Creating layer rpn_big_cls_prob_reshape
I0413 19:10:12.581297 15471 net.cpp:100] Creating Layer rpn_big_cls_prob_reshape
I0413 19:10:12.581305 15471 net.cpp:434] rpn_big_cls_prob_reshape <- rpn_big_cls_prob
I0413 19:10:12.581316 15471 net.cpp:408] rpn_big_cls_prob_reshape -> rpn_big_cls_prob_reshape
I0413 19:10:12.581347 15471 net.cpp:150] Setting up rpn_big_cls_prob_reshape
I0413 19:10:12.581358 15471 net.cpp:157] Top shape: 1 52 61 92 (291824)
I0413 19:10:12.581364 15471 net.cpp:165] Memory required for data: 3612414964
I0413 19:10:12.581372 15471 layer_factory.hpp:77] Creating layer rpn_big_cls_prob_reshape_rpn_big_cls_prob_reshape_0_split
I0413 19:10:12.581382 15471 net.cpp:100] Creating Layer rpn_big_cls_prob_reshape_rpn_big_cls_prob_reshape_0_split
I0413 19:10:12.581387 15471 net.cpp:434] rpn_big_cls_prob_reshape_rpn_big_cls_prob_reshape_0_split <- rpn_big_cls_prob_reshape
I0413 19:10:12.581398 15471 net.cpp:408] rpn_big_cls_prob_reshape_rpn_big_cls_prob_reshape_0_split -> rpn_big_cls_prob_reshape_rpn_big_cls_prob_reshape_0_split_0
I0413 19:10:12.581413 15471 net.cpp:408] rpn_big_cls_prob_reshape_rpn_big_cls_prob_reshape_0_split -> rpn_big_cls_prob_reshape_rpn_big_cls_prob_reshape_0_split_1
I0413 19:10:12.581456 15471 net.cpp:150] Setting up rpn_big_cls_prob_reshape_rpn_big_cls_prob_reshape_0_split
I0413 19:10:12.581466 15471 net.cpp:157] Top shape: 1 52 61 92 (291824)
I0413 19:10:12.581475 15471 net.cpp:157] Top shape: 1 52 61 92 (291824)
I0413 19:10:12.581480 15471 net.cpp:165] Memory required for data: 3614749556
I0413 19:10:12.581487 15471 layer_factory.hpp:77] Creating layer rpn_big_anchor_target
I0413 19:10:12.583057 15471 net.cpp:100] Creating Layer rpn_big_anchor_target
I0413 19:10:12.583072 15471 net.cpp:434] rpn_big_anchor_target <- rpn_big_cls_score_rpn_big_cls_score_0_split_1
I0413 19:10:12.583081 15471 net.cpp:434] rpn_big_anchor_target <- input_gt_boxes_input_2_split_0
I0413 19:10:12.583091 15471 net.cpp:434] rpn_big_anchor_target <- input_ignored_boxes
I0413 19:10:12.583101 15471 net.cpp:434] rpn_big_anchor_target <- input_im_info_input_1_split_0
I0413 19:10:12.583108 15471 net.cpp:434] rpn_big_anchor_target <- input_data_input_0_split_1
I0413 19:10:12.583117 15471 net.cpp:434] rpn_big_anchor_target <- rpn_big_cls_prob_reshape_rpn_big_cls_prob_reshape_0_split_0
I0413 19:10:12.583128 15471 net.cpp:408] rpn_big_anchor_target -> rpn_big_anchor_target_labels
I0413 19:10:12.583143 15471 net.cpp:408] rpn_big_anchor_target -> rpn_big_anchor_target_bbox_targets
I0413 19:10:12.583158 15471 net.cpp:408] rpn_big_anchor_target -> rpn_big_anchor_target_inside_weights
I0413 19:10:12.583173 15471 net.cpp:408] rpn_big_anchor_target -> rpn_big_anchor_target_outside_weights
I0413 19:10:12.587999 15471 net.cpp:150] Setting up rpn_big_anchor_target
I0413 19:10:12.588027 15471 net.cpp:157] Top shape: 1 1 1586 92 (145912)
I0413 19:10:12.588032 15471 net.cpp:157] Top shape: 1 104 61 92 (583648)
I0413 19:10:12.588037 15471 net.cpp:157] Top shape: 1 104 61 92 (583648)
I0413 19:10:12.588042 15471 net.cpp:157] Top shape: 1 104 61 92 (583648)
I0413 19:10:12.588047 15471 net.cpp:165] Memory required for data: 3622336980
I0413 19:10:12.588055 15471 layer_factory.hpp:77] Creating layer rpn_big_loss_cls
I0413 19:10:12.588070 15471 net.cpp:100] Creating Layer rpn_big_loss_cls
I0413 19:10:12.588080 15471 net.cpp:434] rpn_big_loss_cls <- rpn_big_cls_score_reshape_rpn_big_cls_score_reshape_0_split_1
I0413 19:10:12.588093 15471 net.cpp:434] rpn_big_loss_cls <- rpn_big_anchor_target_labels
I0413 19:10:12.588104 15471 net.cpp:408] rpn_big_loss_cls -> rpn_big_loss_cls
I0413 19:10:12.588119 15471 layer_factory.hpp:77] Creating layer rpn_big_loss_cls
I0413 19:10:12.588752 15471 net.cpp:150] Setting up rpn_big_loss_cls
I0413 19:10:12.588769 15471 net.cpp:157] Top shape: (1)
I0413 19:10:12.588773 15471 net.cpp:160]     with loss weight 1
I0413 19:10:12.588783 15471 net.cpp:165] Memory required for data: 3622336984
I0413 19:10:12.588788 15471 layer_factory.hpp:77] Creating layer rpn_big_output_box
I0413 19:10:12.588802 15471 net.cpp:100] Creating Layer rpn_big_output_box
I0413 19:10:12.588809 15471 net.cpp:434] rpn_big_output_box <- rpn_big_conv2_rpn_big_conv2_drop_0_split_1
I0413 19:10:12.588815 15471 net.cpp:408] rpn_big_output_box -> rpn_big_output_box
I0413 19:10:12.607867 15471 net.cpp:150] Setting up rpn_big_output_box
I0413 19:10:12.607900 15471 net.cpp:157] Top shape: 1 384 63 94 (2274048)
I0413 19:10:12.607904 15471 net.cpp:165] Memory required for data: 3631433176
I0413 19:10:12.607916 15471 layer_factory.hpp:77] Creating layer rpn_big_output_box_relu
I0413 19:10:12.607933 15471 net.cpp:100] Creating Layer rpn_big_output_box_relu
I0413 19:10:12.607941 15471 net.cpp:434] rpn_big_output_box_relu <- rpn_big_output_box
I0413 19:10:12.607952 15471 net.cpp:395] rpn_big_output_box_relu -> rpn_big_output_box (in-place)
I0413 19:10:12.607969 15471 net.cpp:150] Setting up rpn_big_output_box_relu
I0413 19:10:12.607978 15471 net.cpp:157] Top shape: 1 384 63 94 (2274048)
I0413 19:10:12.607988 15471 net.cpp:165] Memory required for data: 3640529368
I0413 19:10:12.607998 15471 layer_factory.hpp:77] Creating layer rpn_big_bbox_pred
I0413 19:10:12.608018 15471 net.cpp:100] Creating Layer rpn_big_bbox_pred
I0413 19:10:12.608026 15471 net.cpp:434] rpn_big_bbox_pred <- rpn_big_output_box
I0413 19:10:12.608038 15471 net.cpp:408] rpn_big_bbox_pred -> rpn_big_bbox_pred
I0413 19:10:12.612332 15471 net.cpp:150] Setting up rpn_big_bbox_pred
I0413 19:10:12.612360 15471 net.cpp:157] Top shape: 1 104 61 92 (583648)
I0413 19:10:12.612363 15471 net.cpp:165] Memory required for data: 3642863960
I0413 19:10:12.612378 15471 layer_factory.hpp:77] Creating layer rpn_big_bbox_pred_rpn_big_bbox_pred_0_split
I0413 19:10:12.612391 15471 net.cpp:100] Creating Layer rpn_big_bbox_pred_rpn_big_bbox_pred_0_split
I0413 19:10:12.612402 15471 net.cpp:434] rpn_big_bbox_pred_rpn_big_bbox_pred_0_split <- rpn_big_bbox_pred
I0413 19:10:12.612416 15471 net.cpp:408] rpn_big_bbox_pred_rpn_big_bbox_pred_0_split -> rpn_big_bbox_pred_rpn_big_bbox_pred_0_split_0
I0413 19:10:12.612432 15471 net.cpp:408] rpn_big_bbox_pred_rpn_big_bbox_pred_0_split -> rpn_big_bbox_pred_rpn_big_bbox_pred_0_split_1
I0413 19:10:12.612483 15471 net.cpp:150] Setting up rpn_big_bbox_pred_rpn_big_bbox_pred_0_split
I0413 19:10:12.612495 15471 net.cpp:157] Top shape: 1 104 61 92 (583648)
I0413 19:10:12.612504 15471 net.cpp:157] Top shape: 1 104 61 92 (583648)
I0413 19:10:12.612510 15471 net.cpp:165] Memory required for data: 3647533144
I0413 19:10:12.612515 15471 layer_factory.hpp:77] Creating layer rpn_big_loss_bbox
I0413 19:10:12.612957 15471 net.cpp:100] Creating Layer rpn_big_loss_bbox
I0413 19:10:12.612968 15471 net.cpp:434] rpn_big_loss_bbox <- rpn_big_bbox_pred_rpn_big_bbox_pred_0_split_0
I0413 19:10:12.612974 15471 net.cpp:434] rpn_big_loss_bbox <- rpn_big_anchor_target_bbox_targets
I0413 19:10:12.612979 15471 net.cpp:434] rpn_big_loss_bbox <- rpn_big_anchor_target_inside_weights
I0413 19:10:12.612983 15471 net.cpp:434] rpn_big_loss_bbox <- rpn_big_anchor_target_outside_weights
I0413 19:10:12.612989 15471 net.cpp:408] rpn_big_loss_bbox -> rpn_big_loss_bbox
I0413 19:10:12.614877 15471 net.cpp:150] Setting up rpn_big_loss_bbox
I0413 19:10:12.614910 15471 net.cpp:157] Top shape: 1 (1)
I0413 19:10:12.614917 15471 net.cpp:160]     with loss weight 1
I0413 19:10:12.614933 15471 net.cpp:165] Memory required for data: 3647533148
I0413 19:10:12.614943 15471 layer_factory.hpp:77] Creating layer proposal
I0413 19:10:12.615417 15471 net.cpp:100] Creating Layer proposal
I0413 19:10:12.615429 15471 net.cpp:434] proposal <- rpn_big_cls_prob_reshape_rpn_big_cls_prob_reshape_0_split_1
I0413 19:10:12.615439 15471 net.cpp:434] proposal <- rpn_big_bbox_pred_rpn_big_bbox_pred_0_split_1
I0413 19:10:12.615448 15471 net.cpp:434] proposal <- input_im_info_input_1_split_1
I0413 19:10:12.615461 15471 net.cpp:408] proposal -> rpn_rois
I0413 19:10:12.619647 15471 net.cpp:150] Setting up proposal
I0413 19:10:12.619663 15471 net.cpp:157] Top shape: 1 5 (5)
I0413 19:10:12.619678 15471 net.cpp:165] Memory required for data: 3647533168
I0413 19:10:12.619684 15471 layer_factory.hpp:77] Creating layer roi-data
I0413 19:10:12.620029 15471 net.cpp:100] Creating Layer roi-data
I0413 19:10:12.620039 15471 net.cpp:434] roi-data <- rpn_rois
I0413 19:10:12.620045 15471 net.cpp:434] roi-data <- input_gt_boxes_input_2_split_1
I0413 19:10:12.620060 15471 net.cpp:408] roi-data -> rois
I0413 19:10:12.620072 15471 net.cpp:408] roi-data -> labels
I0413 19:10:12.620087 15471 net.cpp:408] roi-data -> bbox_targets
I0413 19:10:12.620100 15471 net.cpp:408] roi-data -> bbox_inside_weights
I0413 19:10:12.620112 15471 net.cpp:408] roi-data -> bbox_outside_weights
I0413 19:10:12.620126 15471 net.cpp:408] roi-data -> pid_label
anchors:
<<<<<<<<<<<<<<<<<<<<<<<<<<<<<<<<<<<<<<<<<<<<<<<<<<<<<<<<<<<<<<<<<<<<<<<<<<<<<<<<<<<<<<<<<<<<<<<<<<<<<<<<<<<<<<<<<<<<<<<<<<<<<<<<<<<<<<<<<<<<<<<<<<<<<<<<<<<<<<<<<<<<<<<<<<<<<<<<<<<<<<<<<<<<<<<<<<<<<<<<<<<<<<<<<<<<<<<<<<<<<<<<<<<<<<<<<<<<<<<<<<<<<<<<<<<<<<<<<<<<<<<<<<<<<<<<<<<<<<<<<<<<<<<<<<<<<<<<<<<<
[[ -84.  -40.   99.   55.]
 [-176.  -88.  191.  103.]
 [-360. -184.  375.  199.]
 [ -56.  -56.   71.   71.]
 [-120. -120.  135.  135.]
 [-248. -248.  263.  263.]
 [ -36.  -80.   51.   95.]
 [ -80. -168.   95.  183.]
 [-168. -344.  183.  359.]]
I0413 19:10:12.622462 15471 net.cpp:150] Setting up roi-data
I0413 19:10:12.622475 15471 net.cpp:157] Top shape: 1 5 (5)
I0413 19:10:12.622479 15471 net.cpp:157] Top shape: 1 1 (1)
I0413 19:10:12.622493 15471 net.cpp:157] Top shape: 1 8 (8)
I0413 19:10:12.622496 15471 net.cpp:157] Top shape: 1 8 (8)
I0413 19:10:12.622499 15471 net.cpp:157] Top shape: 1 8 (8)
I0413 19:10:12.622503 15471 net.cpp:157] Top shape: (0)
I0413 19:10:12.622506 15471 net.cpp:165] Memory required for data: 3647533288
I0413 19:10:12.622514 15471 layer_factory.hpp:77] Creating layer roi-pool
I0413 19:10:12.622525 15471 net.cpp:100] Creating Layer roi-pool
I0413 19:10:12.622535 15471 net.cpp:434] roi-pool <- conv5_3_relu5_3_0_split_1
I0413 19:10:12.622545 15471 net.cpp:434] roi-pool <- rois
I0413 19:10:12.622555 15471 net.cpp:408] roi-pool -> roi-pool
I0413 19:10:12.622570 15471 roi_pooling_layer.cpp:33] Spatial scale: 0.0625
I0413 19:10:12.622591 15471 roi_pooling_layer.cpp:34] Box scale: 1
I0413 19:10:12.622658 15471 net.cpp:150] Setting up roi-pool
I0413 19:10:12.622668 15471 net.cpp:157] Top shape: 1 512 7 7 (25088)
I0413 19:10:12.622674 15471 net.cpp:165] Memory required for data: 3647633640
I0413 19:10:12.622687 15471 layer_factory.hpp:77] Creating layer fc6
I0413 19:10:12.622699 15471 net.cpp:100] Creating Layer fc6
I0413 19:10:12.622714 15471 net.cpp:434] fc6 <- roi-pool
I0413 19:10:12.622730 15471 net.cpp:408] fc6 -> fc6
I0413 19:10:12.787289 15471 net.cpp:150] Setting up fc6
I0413 19:10:12.787325 15471 net.cpp:157] Top shape: 1 4096 (4096)
I0413 19:10:12.787338 15471 net.cpp:165] Memory required for data: 3647650024
I0413 19:10:12.787350 15471 layer_factory.hpp:77] Creating layer relu6
I0413 19:10:12.787360 15471 net.cpp:100] Creating Layer relu6
I0413 19:10:12.787365 15471 net.cpp:434] relu6 <- fc6
I0413 19:10:12.787376 15471 net.cpp:395] relu6 -> fc6 (in-place)
I0413 19:10:12.787392 15471 net.cpp:150] Setting up relu6
I0413 19:10:12.787400 15471 net.cpp:157] Top shape: 1 4096 (4096)
I0413 19:10:12.787405 15471 net.cpp:165] Memory required for data: 3647666408
I0413 19:10:12.787411 15471 layer_factory.hpp:77] Creating layer drop6
I0413 19:10:12.787421 15471 net.cpp:100] Creating Layer drop6
I0413 19:10:12.787430 15471 net.cpp:434] drop6 <- fc6
I0413 19:10:12.787439 15471 net.cpp:395] drop6 -> fc6 (in-place)
I0413 19:10:12.787469 15471 net.cpp:150] Setting up drop6
I0413 19:10:12.787480 15471 net.cpp:157] Top shape: 1 4096 (4096)
I0413 19:10:12.787485 15471 net.cpp:165] Memory required for data: 3647682792
I0413 19:10:12.787492 15471 layer_factory.hpp:77] Creating layer fc7
I0413 19:10:12.787504 15471 net.cpp:100] Creating Layer fc7
I0413 19:10:12.787510 15471 net.cpp:434] fc7 <- fc6
I0413 19:10:12.787519 15471 net.cpp:408] fc7 -> fc7
I0413 19:10:12.814170 15471 net.cpp:150] Setting up fc7
I0413 19:10:12.814205 15471 net.cpp:157] Top shape: 1 4096 (4096)
I0413 19:10:12.814218 15471 net.cpp:165] Memory required for data: 3647699176
I0413 19:10:12.814230 15471 layer_factory.hpp:77] Creating layer relu7
I0413 19:10:12.814254 15471 net.cpp:100] Creating Layer relu7
I0413 19:10:12.814263 15471 net.cpp:434] relu7 <- fc7
I0413 19:10:12.814275 15471 net.cpp:395] relu7 -> fc7 (in-place)
I0413 19:10:12.814288 15471 net.cpp:150] Setting up relu7
I0413 19:10:12.814301 15471 net.cpp:157] Top shape: 1 4096 (4096)
I0413 19:10:12.814307 15471 net.cpp:165] Memory required for data: 3647715560
I0413 19:10:12.814316 15471 layer_factory.hpp:77] Creating layer drop7
I0413 19:10:12.814327 15471 net.cpp:100] Creating Layer drop7
I0413 19:10:12.814333 15471 net.cpp:434] drop7 <- fc7
I0413 19:10:12.814340 15471 net.cpp:395] drop7 -> fc7 (in-place)
I0413 19:10:12.814370 15471 net.cpp:150] Setting up drop7
I0413 19:10:12.814388 15471 net.cpp:157] Top shape: 1 4096 (4096)
I0413 19:10:12.814391 15471 net.cpp:165] Memory required for data: 3647731944
I0413 19:10:12.814405 15471 layer_factory.hpp:77] Creating layer fc7_drop7_0_split
I0413 19:10:12.814416 15471 net.cpp:100] Creating Layer fc7_drop7_0_split
I0413 19:10:12.814422 15471 net.cpp:434] fc7_drop7_0_split <- fc7
I0413 19:10:12.814430 15471 net.cpp:408] fc7_drop7_0_split -> fc7_drop7_0_split_0
I0413 19:10:12.814458 15471 net.cpp:408] fc7_drop7_0_split -> fc7_drop7_0_split_1
I0413 19:10:12.814505 15471 net.cpp:150] Setting up fc7_drop7_0_split
I0413 19:10:12.814524 15471 net.cpp:157] Top shape: 1 4096 (4096)
I0413 19:10:12.814539 15471 net.cpp:157] Top shape: 1 4096 (4096)
I0413 19:10:12.814543 15471 net.cpp:165] Memory required for data: 3647764712
I0413 19:10:12.814548 15471 layer_factory.hpp:77] Creating layer bbox_pred
I0413 19:10:12.814560 15471 net.cpp:100] Creating Layer bbox_pred
I0413 19:10:12.814569 15471 net.cpp:434] bbox_pred <- fc7_drop7_0_split_0
I0413 19:10:12.814581 15471 net.cpp:408] bbox_pred -> bbox_pred
I0413 19:10:12.815223 15471 net.cpp:150] Setting up bbox_pred
I0413 19:10:12.815237 15471 net.cpp:157] Top shape: 1 8 (8)
I0413 19:10:12.815243 15471 net.cpp:165] Memory required for data: 3647764744
I0413 19:10:12.815253 15471 layer_factory.hpp:77] Creating layer loss_bbox
I0413 19:10:12.815268 15471 net.cpp:100] Creating Layer loss_bbox
I0413 19:10:12.815274 15471 net.cpp:434] loss_bbox <- bbox_pred
I0413 19:10:12.815281 15471 net.cpp:434] loss_bbox <- bbox_targets
I0413 19:10:12.815289 15471 net.cpp:434] loss_bbox <- bbox_inside_weights
I0413 19:10:12.815299 15471 net.cpp:434] loss_bbox <- bbox_outside_weights
I0413 19:10:12.815309 15471 net.cpp:408] loss_bbox -> loss_bbox
I0413 19:10:12.815413 15471 net.cpp:150] Setting up loss_bbox
I0413 19:10:12.815424 15471 net.cpp:157] Top shape: (1)
I0413 19:10:12.815430 15471 net.cpp:160]     with loss weight 1
I0413 19:10:12.815444 15471 net.cpp:165] Memory required for data: 3647764748
I0413 19:10:12.815451 15471 layer_factory.hpp:77] Creating layer feat
I0413 19:10:12.815461 15471 net.cpp:100] Creating Layer feat
I0413 19:10:12.815469 15471 net.cpp:434] feat <- fc7_drop7_0_split_1
I0413 19:10:12.815480 15471 net.cpp:408] feat -> feat
I0413 19:10:12.826612 15471 net.cpp:150] Setting up feat
I0413 19:10:12.826650 15471 net.cpp:157] Top shape: 1 256 (256)
I0413 19:10:12.826663 15471 net.cpp:165] Memory required for data: 3647765772
I0413 19:10:12.826675 15471 layer_factory.hpp:77] Creating layer relu8
I0413 19:10:12.826685 15471 net.cpp:100] Creating Layer relu8
I0413 19:10:12.826694 15471 net.cpp:434] relu8 <- feat
I0413 19:10:12.826705 15471 net.cpp:395] relu8 -> feat (in-place)
I0413 19:10:12.826720 15471 net.cpp:150] Setting up relu8
I0413 19:10:12.826728 15471 net.cpp:157] Top shape: 1 256 (256)
I0413 19:10:12.826735 15471 net.cpp:165] Memory required for data: 3647766796
I0413 19:10:12.826738 15471 layer_factory.hpp:77] Creating layer drop8
I0413 19:10:12.826747 15471 net.cpp:100] Creating Layer drop8
I0413 19:10:12.826753 15471 net.cpp:434] drop8 <- feat
I0413 19:10:12.826761 15471 net.cpp:395] drop8 -> feat (in-place)
I0413 19:10:12.826803 15471 net.cpp:150] Setting up drop8
I0413 19:10:12.826812 15471 net.cpp:157] Top shape: 1 256 (256)
I0413 19:10:12.826817 15471 net.cpp:165] Memory required for data: 3647767820
I0413 19:10:12.826830 15471 layer_factory.hpp:77] Creating layer pid_score
I0413 19:10:12.826839 15471 net.cpp:100] Creating Layer pid_score
I0413 19:10:12.826844 15471 net.cpp:434] pid_score <- feat
I0413 19:10:12.826855 15471 net.cpp:408] pid_score -> pid_score
I0413 19:10:12.842665 15471 net.cpp:150] Setting up pid_score
I0413 19:10:12.842694 15471 net.cpp:157] Top shape: 1 5533 (5533)
I0413 19:10:12.842705 15471 net.cpp:165] Memory required for data: 3647789952
I0413 19:10:12.842717 15471 layer_factory.hpp:77] Creating layer pid_loss
I0413 19:10:12.842734 15471 net.cpp:100] Creating Layer pid_loss
I0413 19:10:12.842742 15471 net.cpp:434] pid_loss <- pid_score
I0413 19:10:12.842751 15471 net.cpp:434] pid_loss <- pid_label
I0413 19:10:12.842774 15471 net.cpp:408] pid_loss -> pid_loss
…
