…
I0412 20:26:48.046074  4436 solver.cpp:48] Initializing solver from parameters: 
base_lr: 0.001
display: 20
lr_policy: "multistep"
gamma: 0.1
momentum: 0.9
weight_decay: 0.0005
snapshot: 0
snapshot_prefix: "faces_example"
net_param {
  name: "GeneratedModel_12_04_2017_20_26"
  layer {
    name: "input"
    type: "Python"
    top: "input_data"
    top: "input_im_info"
    top: "input_gt_boxes"
    top: "input_ignored_boxes"
    python_param {
      module: "layers.roi_data_layer"
      layer: "RoIDataLayer"
      param_str: "{\"num_classes\": 2}"
    }
  }
  layer {
    name: "conv1_1"
    type: "Convolution"
    bottom: "input_data"
    top: "conv1_1"
    param {
      lr_mult: 0
      decay_mult: 0
    }
    param {
      lr_mult: 0
      decay_mult: 0
    }
    convolution_param {
      num_output: 64
      pad: 1
      kernel_size: 3
    }
  }
  layer {
    name: "relu1_1"
    type: "ReLU"
    bottom: "conv1_1"
    top: "conv1_1"
  }
  layer {
    name: "conv1_2"
    type: "Convolution"
    bottom: "conv1_1"
    top: "conv1_2"
    param {
      lr_mult: 0
      decay_mult: 0
    }
    param {
      lr_mult: 0
      decay_mult: 0
    }
    convolution_param {
      num_output: 64
      pad: 1
      kernel_size: 3
    }
  }
  layer {
    name: "relu1_2"
    type: "ReLU"
    bottom: "conv1_2"
    top: "conv1_2"
  }
  layer {
    name: "pool1"
    type: "Pooling"
    bottom: "conv1_2"
    top: "pool1"
    pooling_param {
      pool: MAX
      kernel_size: 2
      stride: 2
    }
  }
  layer {
    name: "conv2_1"
    type: "Convolution"
    bottom: "pool1"
    top: "conv2_1"
    param {
      lr_mult: 0
      decay_mult: 0
    }
    param {
      lr_mult: 0
      decay_mult: 0
    }
    convolution_param {
      num_output: 128
      pad: 1
      kernel_size: 3
    }
  }
  layer {
    name: "relu2_1"
    type: "ReLU"
    bottom: "conv2_1"
    top: "conv2_1"
  }
  layer {
    name: "conv2_2"
    type: "Convolution"
    bottom: "conv2_1"
    top: "conv2_2"
    param {
      lr_mult: 0
      decay_mult: 0
    }
    param {
      lr_mult: 0
      decay_mult: 0
    }
    convolution_param {
      num_output: 128
      pad: 1
      kernel_size: 3
    }
  }
  layer {
    name: "relu2_2"
    type: "ReLU"
    bottom: "conv2_2"
    top: "conv2_2"
  }
  layer {
    name: "pool2"
    type: "Pooling"
    bottom: "conv2_2"
    top: "pool2"
    pooling_param {
      pool: MAX
      kernel_size: 2
      stride: 2
    }
  }
  layer {
    name: "conv3_1"
    type: "Convolution"
    bottom: "pool2"
    top: "conv3_1"
    param {
      lr_mult: 1
    }
    param {
      lr_mult: 2
    }
    convolution_param {
      num_output: 256
      pad: 1
      kernel_size: 3
    }
  }
  layer {
    name: "relu3_1"
    type: "ReLU"
    bottom: "conv3_1"
    top: "conv3_1"
  }
  layer {
    name: "conv3_2"
    type: "Convolution"
    bottom: "conv3_1"
    top: "conv3_2"
    param {
      lr_mult: 1
    }
    param {
      lr_mult: 2
    }
    convolution_param {
      num_output: 256
      pad: 1
      kernel_size: 3
    }
  }
  layer {
    name: "relu3_2"
    type: "ReLU"
    bottom: "conv3_2"
    top: "conv3_2"
  }
  layer {
    name: "conv3_3"
    type: "Convolution"
    bottom: "conv3_2"
    top: "conv3_3"
    param {
      lr_mult: 1
    }
    param {
      lr_mult: 2
    }
    convolution_param {
      num_output: 256
      pad: 1
      kernel_size: 3
    }
  }
  layer {
    name: "relu3_3"
    type: "ReLU"
    bottom: "conv3_3"
    top: "conv3_3"
  }
  layer {
    name: "pool3"
    type: "Pooling"
    bottom: "conv3_3"
    top: "pool3"
    pooling_param {
      pool: MAX
      kernel_size: 2
      stride: 2
    }
  }
  layer {
    name: "conv4_1"
    type: "Convolution"
    bottom: "pool3"
    top: "conv4_1"
    param {
      lr_mult: 1
    }
    param {
      lr_mult: 2
    }
    convolution_param {
      num_output: 512
      pad: 1
      kernel_size: 3
    }
  }
  layer {
    name: "relu4_1"
    type: "ReLU"
    bottom: "conv4_1"
    top: "conv4_1"
  }
  layer {
    name: "conv4_2"
    type: "Convolution"
    bottom: "conv4_1"
    top: "conv4_2"
    param {
      lr_mult: 1
    }
    param {
      lr_mult: 2
    }
    convolution_param {
      num_output: 512
      pad: 1
      kernel_size: 3
    }
  }
  layer {
    name: "relu4_2"
    type: "ReLU"
    bottom: "conv4_2"
    top: "conv4_2"
  }
  layer {
    name: "conv4_3"
    type: "Convolution"
    bottom: "conv4_2"
    top: "conv4_3"
    param {
      lr_mult: 1
    }
    param {
      lr_mult: 2
    }
    convolution_param {
      num_output: 512
      pad: 1
      kernel_size: 3
    }
  }
  layer {
    name: "relu4_3"
    type: "ReLU"
    bottom: "conv4_3"
    top: "conv4_3"
  }
  layer {
    name: "pool4"
    type: "Pooling"
    bottom: "conv4_3"
    top: "pool4"
    pooling_param {
      pool: MAX
      kernel_size: 2
      stride: 2
    }
  }
  layer {
    name: "conv5_1"
    type: "Convolution"
    bottom: "pool4"
    top: "conv5_1"
    param {
      lr_mult: 1
    }
    param {
      lr_mult: 2
    }
    convolution_param {
      num_output: 512
      pad: 1
      kernel_size: 3
    }
  }
  layer {
    name: "relu5_1"
    type: "ReLU"
    bottom: "conv5_1"
    top: "conv5_1"
  }
  layer {
    name: "conv5_2"
    type: "Convolution"
    bottom: "conv5_1"
    top: "conv5_2"
    param {
      lr_mult: 1
    }
    param {
      lr_mult: 2
    }
    convolution_param {
      num_output: 512
      pad: 1
      kernel_size: 3
    }
  }
  layer {
    name: "relu5_2"
    type: "ReLU"
    bottom: "conv5_2"
    top: "conv5_2"
  }
  layer {
    name: "conv5_3"
    type: "Convolution"
    bottom: "conv5_2"
    top: "conv5_3"
    param {
      lr_mult: 1
    }
    param {
      lr_mult: 2
    }
    convolution_param {
      num_output: 512
      pad: 1
      kernel_size: 3
    }
  }
  layer {
    name: "relu5_3"
    type: "ReLU"
    bottom: "conv5_3"
    top: "conv5_3"
  }
  layer {
    name: "rpn_big_conv1"
    type: "Convolution"
    bottom: "conv5_3"
    top: "rpn_big_conv1"
    param {
      lr_mult: 1
    }
    param {
      lr_mult: 2
    }
    convolution_param {
      num_output: 512
      pad: 1
      kernel_size: 3
      stride: 1
      weight_filler {
        type: "gaussian"
        mean: 0
        std: 0.01
      }
      bias_filler {
        type: "constant"
      }
    }
  }
  layer {
    name: "rpn_big_conv1_relu"
    type: "ReLU"
    bottom: "rpn_big_conv1"
    top: "rpn_big_conv1"
    relu_param {
      negative_slope: 0
    }
  }
  layer {
    name: "rpn_big_conv2"
    type: "Convolution"
    bottom: "rpn_big_conv1"
    top: "rpn_big_conv2"
    param {
      lr_mult: 1
    }
    param {
      lr_mult: 2
    }
    convolution_param {
      num_output: 512
      pad: 1
      kernel_size: 3
      stride: 1
      weight_filler {
        type: "gaussian"
        mean: 0
        std: 0.01
      }
      bias_filler {
        type: "constant"
      }
    }
  }
  layer {
    name: "rpn_big_conv2_relu"
    type: "ReLU"
    bottom: "rpn_big_conv2"
    top: "rpn_big_conv2"
    relu_param {
      negative_slope: 0
    }
  }
  layer {
    name: "rpn_big_conv2_drop"
    type: "Dropout"
    bottom: "rpn_big_conv2"
    top: "rpn_big_conv2"
    dropout_param {
      dropout_ratio: 0.3
    }
  }
  layer {
    name: "rpn_big_output_cls"
    type: "Convolution"
    bottom: "rpn_big_conv2"
    top: "rpn_big_output_cls"
    param {
      lr_mult: 1
    }
    param {
      lr_mult: 2
    }
    convolution_param {
      num_output: 384
      pad: 1
      kernel_size: 3
      stride: 1
      weight_filler {
        type: "gaussian"
        mean: 0
        std: 0.01
      }
      bias_filler {
        type: "constant"
      }
    }
  }
  layer {
    name: "rpn_big_output_cls_relu"
    type: "ReLU"
    bottom: "rpn_big_output_cls"
    top: "rpn_big_output_cls"
    relu_param {
      negative_slope: 0
    }
  }
  layer {
    name: "rpn_big_cls_score"
    type: "Convolution"
    bottom: "rpn_big_output_cls"
    top: "rpn_big_cls_score"
    param {
      lr_mult: 1
    }
    param {
      lr_mult: 2
    }
    convolution_param {
      num_output: 52
      pad: 0
      kernel_size: 3
      stride: 1
      weight_filler {
        type: "gaussian"
        mean: 0
        std: 0.01
      }
      bias_filler {
        type: "constant"
      }
    }
  }
  layer {
    name: "rpn_big_cls_score_reshape"
    type: "Reshape"
    bottom: "rpn_big_cls_score"
    top: "rpn_big_cls_score_reshape"
    reshape_param {
      shape {
        dim: 0
        dim: 2
        dim: -1
        dim: 0
      }
    }
  }
  layer {
    name: "rpn_big_cls_prob"
    type: "Softmax"
    bottom: "rpn_big_cls_score_reshape"
    top: "rpn_big_cls_prob"
  }
  layer {
    name: "rpn_big_cls_prob_reshape"
    type: "Reshape"
    bottom: "rpn_big_cls_prob"
    top: "rpn_big_cls_prob_reshape"
    reshape_param {
      shape {
        dim: 0
        dim: 52
        dim: -1
        dim: 0
      }
    }
  }
  layer {
    name: "rpn_big_anchor_target"
    type: "Python"
    bottom: "rpn_big_cls_score"
    bottom: "input_gt_boxes"
    bottom: "input_ignored_boxes"
    bottom: "input_im_info"
    bottom: "input_data"
    bottom: "rpn_big_cls_prob_reshape"
    top: "rpn_big_anchor_target_labels"
    top: "rpn_big_anchor_target_bbox_targets"
    top: "rpn_big_anchor_target_inside_weights"
    top: "rpn_big_anchor_target_outside_weights"
    python_param {
      module: "rpn.anchor_target_layer"
      layer: "AnchorTargetLayer"
      param_str: "{\"anchor_scales\": [2.5, 3.025, 3.66025, 4.4289024999999995, 5.358972025, 6.484356150249999, 7.846070941802498, 9.493745839581022, 11.487432465893036, 13.899793283730574, 16.818749873313998, 20.350687346709933, 24.62433168951902, 29.795441344318014], \"positive_overlap\": 0.6, \"negative_overlap\": 0.4, \"name\": \"rpn_big\", \"fg_fraction\": 0.5, \"batchsize\": 256, \"feat_stride\": 16, \"tn_fraction\": 0.2, \"anchor_shift_num_xy\": [[2, 2], [2, 2], [2, 2], [2, 2], [1, 1], [1, 1], [1, 1], [1, 1], [1, 1], [1, 1], [1, 1], [1, 1], [1, 1], [1, 1]], \"num_classes\": 1, \"anchor_ratios\": [1.0], \"square_targets\": true}"
    }
  }
  layer {
    name: "rpn_big_loss_cls"
    type: "SoftmaxWithLoss"
    bottom: "rpn_big_cls_score_reshape"
    bottom: "rpn_big_anchor_target_labels"
    top: "rpn_big_loss_cls"
    loss_weight: 1
    propagate_down: true
    propagate_down: false
    loss_param {
      ignore_label: -1
      normalization: VALID
    }
  }
  layer {
    name: "rpn_big_output_box"
    type: "Convolution"
    bottom: "rpn_big_conv2"
    top: "rpn_big_output_box"
    param {
      lr_mult: 1
    }
    param {
      lr_mult: 2
    }
    convolution_param {
      num_output: 384
      pad: 1
      kernel_size: 3
      stride: 1
      weight_filler {
        type: "gaussian"
        mean: 0
        std: 0.01
      }
      bias_filler {
        type: "constant"
      }
    }
  }
  layer {
    name: "rpn_big_output_box_relu"
    type: "ReLU"
    bottom: "rpn_big_output_box"
    top: "rpn_big_output_box"
    relu_param {
      negative_slope: 0
    }
  }
  layer {
    name: "rpn_big_bbox_pred"
    type: "Convolution"
    bottom: "rpn_big_output_box"
    top: "rpn_big_bbox_pred"
    param {
      lr_mult: 1
    }
    param {
      lr_mult: 2
    }
    convolution_param {
      num_output: 104
      pad: 0
      kernel_size: 3
      stride: 1
      weight_filler {
        type: "gaussian"
        mean: 0
        std: 0.01
      }
      bias_filler {
        type: "constant"
      }
    }
  }
  layer {
    name: "rpn_big_loss_bbox"
    type: "Python"
    bottom: "rpn_big_bbox_pred"
    bottom: "rpn_big_anchor_target_bbox_targets"
    bottom: "rpn_big_anchor_target_inside_weights"
    bottom: "rpn_big_anchor_target_outside_weights"
    top: "rpn_big_loss_bbox"
    loss_weight: 1
    python_param {
      module: "layers.smooth_l1_loss"
      layer: "SmoothL1LossLayer"
      param_str: "{\"sigma\": 3}"
    }
  }
}
average_loss: 100
stepvalue: 70000
stepvalue: 120000
iter_size: 2
I0412 20:26:48.046177  4436 solver.cpp:86] Creating training net specified in net_param.
I0412 20:26:48.046774  4436 net.cpp:58] Initializing net from parameters: 
name: "GeneratedModel_12_04_2017_20_26"
state {
  phase: TRAIN
}
layer {
  name: "input"
  type: "Python"
  top: "input_data"
  top: "input_im_info"
  top: "input_gt_boxes"
  top: "input_ignored_boxes"
  python_param {
    module: "layers.roi_data_layer"
    layer: "RoIDataLayer"
    param_str: "{\"num_classes\": 2}"
  }
}
layer {
  name: "conv1_1"
  type: "Convolution"
  bottom: "input_data"
  top: "conv1_1"
  param {
    lr_mult: 0
    decay_mult: 0
  }
  param {
    lr_mult: 0
    decay_mult: 0
  }
  convolution_param {
    num_output: 64
    pad: 1
    kernel_size: 3
  }
}
layer {
  name: "relu1_1"
  type: "ReLU"
  bottom: "conv1_1"
  top: "conv1_1"
}
layer {
  name: "conv1_2"
  type: "Convolution"
  bottom: "conv1_1"
  top: "conv1_2"
  param {
    lr_mult: 0
    decay_mult: 0
  }
  param {
    lr_mult: 0
    decay_mult: 0
  }
  convolution_param {
    num_output: 64
    pad: 1
    kernel_size: 3
  }
}
layer {
  name: "relu1_2"
  type: "ReLU"
  bottom: "conv1_2"
  top: "conv1_2"
}
layer {
  name: "pool1"
  type: "Pooling"
  bottom: "conv1_2"
  top: "pool1"
  pooling_param {
    pool: MAX
    kernel_size: 2
    stride: 2
  }
}
layer {
  name: "conv2_1"
  type: "Convolution"
  bottom: "pool1"
  top: "conv2_1"
  param {
    lr_mult: 0
    decay_mult: 0
  }
  param {
    lr_mult: 0
    decay_mult: 0
  }
  convolution_param {
    num_output: 128
    pad: 1
    kernel_size: 3
  }
}
layer {
  name: "relu2_1"
  type: "ReLU"
  bottom: "conv2_1"
  top: "conv2_1"
}
layer {
  name: "conv2_2"
  type: "Convolution"
  bottom: "conv2_1"
  top: "conv2_2"
  param {
    lr_mult: 0
    decay_mult: 0
  }
  param {
    lr_mult: 0
    decay_mult: 0
  }
  convolution_param {
    num_output: 128
    pad: 1
    kernel_size: 3
  }
}
layer {
  name: "relu2_2"
  type: "ReLU"
  bottom: "conv2_2"
  top: "conv2_2"
}
layer {
  name: "pool2"
  type: "Pooling"
  bottom: "conv2_2"
  top: "pool2"
  pooling_param {
    pool: MAX
    kernel_size: 2
    stride: 2
  }
}
layer {
  name: "conv3_1"
  type: "Convolution"
  bottom: "pool2"
  top: "conv3_1"
  param {
    lr_mult: 1
  }
  param {
    lr_mult: 2
  }
  convolution_param {
    num_output: 256
    pad: 1
    kernel_size: 3
  }
}
layer {
  name: "relu3_1"
  type: "ReLU"
  bottom: "conv3_1"
  top: "conv3_1"
}
layer {
  name: "conv3_2"
  type: "Convolution"
  bottom: "conv3_1"
  top: "conv3_2"
  param {
    lr_mult: 1
  }
  param {
    lr_mult: 2
  }
  convolution_param {
    num_output: 256
    pad: 1
    kernel_size: 3
  }
}
layer {
  name: "relu3_2"
  type: "ReLU"
  bottom: "conv3_2"
  top: "conv3_2"
}
layer {
  name: "conv3_3"
  type: "Convolution"
  bottom: "conv3_2"
  top: "conv3_3"
  param {
    lr_mult: 1
  }
  param {
    lr_mult: 2
  }
  convolution_param {
    num_output: 256
    pad: 1
    kernel_size: 3
  }
}
layer {
  name: "relu3_3"
  type: "ReLU"
  bottom: "conv3_3"
  top: "conv3_3"
}
layer {
  name: "pool3"
  type: "Pooling"
  bottom: "conv3_3"
  top: "pool3"
  pooling_param {
    pool: MAX
    kernel_size: 2
    stride: 2
  }
}
layer {
  name: "conv4_1"
  type: "Convolution"
  bottom: "pool3"
  top: "conv4_1"
  param {
    lr_mult: 1
  }
  param {
    lr_mult: 2
  }
  convolution_param {
    num_output: 512
    pad: 1
    kernel_size: 3
  }
}
layer {
  name: "relu4_1"
  type: "ReLU"
  bottom: "conv4_1"
  top: "conv4_1"
}
layer {
  name: "conv4_2"
  type: "Convolution"
  bottom: "conv4_1"
  top: "conv4_2"
  param {
    lr_mult: 1
  }
  param {
    lr_mult: 2
  }
  convolution_param {
    num_output: 512
    pad: 1
    kernel_size: 3
  }
}
layer {
  name: "relu4_2"
  type: "ReLU"
  bottom: "conv4_2"
  top: "conv4_2"
}
layer {
  name: "conv4_3"
  type: "Convolution"
  bottom: "conv4_2"
  top: "conv4_3"
  param {
    lr_mult: 1
  }
  param {
    lr_mult: 2
  }
  convolution_param {
    num_output: 512
    pad: 1
    kernel_size: 3
  }
}
layer {
  name: "relu4_3"
  type: "ReLU"
  bottom: "conv4_3"
  top: "conv4_3"
}
layer {
  name: "pool4"
  type: "Pooling"
  bottom: "conv4_3"
  top: "pool4"
  pooling_param {
    pool: MAX
    kernel_size: 2
    stride: 2
  }
}
layer {
  name: "conv5_1"
  type: "Convolution"
  bottom: "pool4"
  top: "conv5_1"
  param {
    lr_mult: 1
  }
  param {
    lr_mult: 2
  }
  convolution_param {
    num_output: 512
    pad: 1
    kernel_size: 3
  }
}
layer {
  name: "relu5_1"
  type: "ReLU"
  bottom: "conv5_1"
  top: "conv5_1"
}
layer {
  name: "conv5_2"
  type: "Convolution"
  bottom: "conv5_1"
  top: "conv5_2"
  param {
    lr_mult: 1
  }
  param {
    lr_mult: 2
  }
  convolution_param {
    num_output: 512
    pad: 1
    kernel_size: 3
  }
}
layer {
  name: "relu5_2"
  type: "ReLU"
  bottom: "conv5_2"
  top: "conv5_2"
}
layer {
  name: "conv5_3"
  type: "Convolution"
  bottom: "conv5_2"
  top: "conv5_3"
  param {
    lr_mult: 1
  }
  param {
    lr_mult: 2
  }
  convolution_param {
    num_output: 512
    pad: 1
    kernel_size: 3
  }
}
layer {
  name: "relu5_3"
  type: "ReLU"
  bottom: "conv5_3"
  top: "conv5_3"
}
layer {
  name: "rpn_big_conv1"
  type: "Convolution"
  bottom: "conv5_3"
  top: "rpn_big_conv1"
  param {
    lr_mult: 1
  }
  param {
    lr_mult: 2
  }
  convolution_param {
    num_output: 512
    pad: 1
    kernel_size: 3
    stride: 1
    weight_filler {
      type: "gaussian"
      mean: 0
      std: 0.01
    }
    bias_filler {
      type: "constant"
    }
  }
}
layer {
  name: "rpn_big_conv1_relu"
  type: "ReLU"
  bottom: "rpn_big_conv1"
  top: "rpn_big_conv1"
  relu_param {
    negative_slope: 0
  }
}
layer {
  name: "rpn_big_conv2"
  type: "Convolution"
  bottom: "rpn_big_conv1"
  top: "rpn_big_conv2"
  param {
    lr_mult: 1
  }
  param {
    lr_mult: 2
  }
  convolution_param {
    num_output: 512
    pad: 1
    kernel_size: 3
    stride: 1
    weight_filler {
      type: "gaussian"
      mean: 0
      std: 0.01
    }
    bias_filler {
      type: "constant"
    }
  }
}
layer {
  name: "rpn_big_conv2_relu"
  type: "ReLU"
  bottom: "rpn_big_conv2"
  top: "rpn_big_conv2"
  relu_param {
    negative_slope: 0
  }
}
layer {
  name: "rpn_big_conv2_drop"
  type: "Dropout"
  bottom: "rpn_big_conv2"
  top: "rpn_big_conv2"
  dropout_param {
    dropout_ratio: 0.3
  }
}
layer {
  name: "rpn_big_output_cls"
  type: "Convolution"
  bottom: "rpn_big_conv2"
  top: "rpn_big_output_cls"
  param {
    lr_mult: 1
  }
  param {
    lr_mult: 2
  }
  convolution_param {
    num_output: 384
    pad: 1
    kernel_size: 3
    stride: 1
    weight_filler {
      type: "gaussian"
      mean: 0
      std: 0.01
    }
    bias_filler {
      type: "constant"
    }
  }
}
layer {
  name: "rpn_big_output_cls_relu"
  type: "ReLU"
  bottom: "rpn_big_output_cls"
  top: "rpn_big_output_cls"
  relu_param {
    negative_slope: 0
  }
}
layer {
  name: "rpn_big_cls_score"
  type: "Convolution"
  bottom: "rpn_big_output_cls"
  top: "rpn_big_cls_score"
  param {
    lr_mult: 1
  }
  param {
    lr_mult: 2
  }
  convolution_param {
    num_output: 52
    pad: 0
    kernel_size: 3
    stride: 1
    weight_filler {
      type: "gaussian"
      mean: 0
      std: 0.01
    }
    bias_filler {
      type: "constant"
    }
  }
}
layer {
  name: "rpn_big_cls_score_reshape"
  type: "Reshape"
  bottom: "rpn_big_cls_score"
  top: "rpn_big_cls_score_reshape"
  reshape_param {
    shape {
      dim: 0
      dim: 2
      dim: -1
      dim: 0
    }
  }
}
layer {
  name: "rpn_big_cls_prob"
  type: "Softmax"
  bottom: "rpn_big_cls_score_reshape"
  top: "rpn_big_cls_prob"
}
layer {
  name: "rpn_big_cls_prob_reshape"
  type: "Reshape"
  bottom: "rpn_big_cls_prob"
  top: "rpn_big_cls_prob_reshape"
  reshape_param {
    shape {
      dim: 0
      dim: 52
      dim: -1
      dim: 0
    }
  }
}
layer {
  name: "rpn_big_anchor_target"
  type: "Python"
  bottom: "rpn_big_cls_score"
  bottom: "input_gt_boxes"
  bottom: "input_ignored_boxes"
  bottom: "input_im_info"
  bottom: "input_data"
  bottom: "rpn_big_cls_prob_reshape"
  top: "rpn_big_anchor_target_labels"
  top: "rpn_big_anchor_target_bbox_targets"
  top: "rpn_big_anchor_target_inside_weights"
  top: "rpn_big_anchor_target_outside_weights"
  python_param {
    module: "rpn.anchor_target_layer"
    layer: "AnchorTargetLayer"
    param_str: "{\"anchor_scales\": [2.5, 3.025, 3.66025, 4.4289024999999995, 5.358972025, 6.484356150249999, 7.846070941802498, 9.493745839581022, 11.487432465893036, 13.899793283730574, 16.818749873313998, 20.350687346709933, 24.62433168951902, 29.795441344318014], \"positive_overlap\": 0.6, \"negative_overlap\": 0.4, \"name\": \"rpn_big\", \"fg_fraction\": 0.5, \"batchsize\": 256, \"feat_stride\": 16, \"tn_fraction\": 0.2, \"anchor_shift_num_xy\": [[2, 2], [2, 2], [2, 2], [2, 2], [1, 1], [1, 1], [1, 1], [1, 1], [1, 1], [1, 1], [1, 1], [1, 1], [1, 1], [1, 1]], \"num_classes\": 1, \"anchor_ratios\": [1.0], \"square_targets\": true}"
  }
}
layer {
  name: "rpn_big_loss_cls"
  type: "SoftmaxWithLoss"
  bottom: "rpn_big_cls_score_reshape"
  bottom: "rpn_big_anchor_target_labels"
  top: "rpn_big_loss_cls"
  loss_weight: 1
  propagate_down: true
  propagate_down: false
  loss_param {
    ignore_label: -1
    normalization: VALID
  }
}
layer {
  name: "rpn_big_output_box"
  type: "Convolution"
  bottom: "rpn_big_conv2"
  top: "rpn_big_output_box"
  param {
    lr_mult: 1
  }
  param {
    lr_mult: 2
  }
  convolution_param {
    num_output: 384
    pad: 1
    kernel_size: 3
    stride: 1
    weight_filler {
      type: "gaussian"
      mean: 0
      std: 0.01
    }
    bias_filler {
      type: "constant"
    }
  }
}
layer {
  name: "rpn_big_output_box_relu"
  type: "ReLU"
  bottom: "rpn_big_output_box"
  top: "rpn_big_output_box"
  relu_param {
    negative_slope: 0
  }
}
layer {
  name: "rpn_big_bbox_pred"
  type: "Convolution"
  bottom: "rpn_big_output_box"
  top: "rpn_big_bbox_pred"
  param {
    lr_mult: 1
  }
  param {
    lr_mult: 2
  }
  convolution_param {
    num_output: 104
    pad: 0
    kernel_size: 3
    stride: 1
    weight_filler {
      type: "gaussian"
      mean: 0
      std: 0.01
    }
    bias_filler {
      type: "constant"
    }
  }
}
layer {
  name: "rpn_big_loss_bbox"
  type: "Python"
  bottom: "rpn_big_bbox_pred"
  bottom: "rpn_big_anchor_target_bbox_targets"
  bottom: "rpn_big_anchor_target_inside_weights"
  bottom: "rpn_big_anchor_target_outside_weights"
  top: "rpn_big_loss_bbox"
  loss_weight: 1
  python_param {
    module: "layers.smooth_l1_loss"
    layer: "SmoothL1LossLayer"
    param_str: "{\"sigma\": 3}"
  }
}
I0412 20:26:48.047031  4436 layer_factory.hpp:77] Creating layer input
I0412 20:26:48.048830  4436 net.cpp:100] Creating Layer input
I0412 20:26:48.048851  4436 net.cpp:408] input -> input_data
I0412 20:26:48.048867  4436 net.cpp:408] input -> input_im_info
I0412 20:26:48.048879  4436 net.cpp:408] input -> input_gt_boxes
I0412 20:26:48.048890  4436 net.cpp:408] input -> input_ignored_boxes
RoiDataLayer: name_to_top: {'ignored_boxes': 3, 'gt_boxes': 2, 'im_info': 1, 'data': 0}
I0412 20:26:48.376176  4436 net.cpp:150] Setting up input
I0412 20:26:48.376205  4436 net.cpp:157] Top shape: 1 3 1000 1500 (4500000)
I0412 20:26:48.376214  4436 net.cpp:157] Top shape: 1 3 (3)
I0412 20:26:48.376236  4436 net.cpp:157] Top shape: 1 5 (5)
I0412 20:26:48.376242  4436 net.cpp:157] Top shape: 1 5 (5)
I0412 20:26:48.376247  4436 net.cpp:165] Memory required for data: 18000052
I0412 20:26:48.376256  4436 layer_factory.hpp:77] Creating layer input_data_input_0_split
I0412 20:26:48.376271  4436 net.cpp:100] Creating Layer input_data_input_0_split
I0412 20:26:48.376279  4436 net.cpp:434] input_data_input_0_split <- input_data
I0412 20:26:48.376291  4436 net.cpp:408] input_data_input_0_split -> input_data_input_0_split_0
I0412 20:26:48.376307  4436 net.cpp:408] input_data_input_0_split -> input_data_input_0_split_1
I0412 20:26:48.376353  4436 net.cpp:150] Setting up input_data_input_0_split
I0412 20:26:48.376365  4436 net.cpp:157] Top shape: 1 3 1000 1500 (4500000)
I0412 20:26:48.376372  4436 net.cpp:157] Top shape: 1 3 1000 1500 (4500000)
I0412 20:26:48.376377  4436 net.cpp:165] Memory required for data: 54000052
I0412 20:26:48.376382  4436 layer_factory.hpp:77] Creating layer conv1_1
I0412 20:26:48.376397  4436 net.cpp:100] Creating Layer conv1_1
I0412 20:26:48.376405  4436 net.cpp:434] conv1_1 <- input_data_input_0_split_0
I0412 20:26:48.376412  4436 net.cpp:408] conv1_1 -> conv1_1
I0412 20:26:48.379767  4436 net.cpp:150] Setting up conv1_1
I0412 20:26:48.379827  4436 net.cpp:157] Top shape: 1 64 1000 1500 (96000000)
I0412 20:26:48.379830  4436 net.cpp:165] Memory required for data: 438000052
I0412 20:26:48.379849  4436 layer_factory.hpp:77] Creating layer relu1_1
I0412 20:26:48.379861  4436 net.cpp:100] Creating Layer relu1_1
I0412 20:26:48.379868  4436 net.cpp:434] relu1_1 <- conv1_1
I0412 20:26:48.379880  4436 net.cpp:395] relu1_1 -> conv1_1 (in-place)
I0412 20:26:48.379896  4436 net.cpp:150] Setting up relu1_1
I0412 20:26:48.379905  4436 net.cpp:157] Top shape: 1 64 1000 1500 (96000000)
I0412 20:26:48.379910  4436 net.cpp:165] Memory required for data: 822000052
I0412 20:26:48.379915  4436 layer_factory.hpp:77] Creating layer conv1_2
I0412 20:26:48.379930  4436 net.cpp:100] Creating Layer conv1_2
I0412 20:26:48.379936  4436 net.cpp:434] conv1_2 <- conv1_1
I0412 20:26:48.379947  4436 net.cpp:408] conv1_2 -> conv1_2
I0412 20:26:48.384488  4436 net.cpp:150] Setting up conv1_2
I0412 20:26:48.384526  4436 net.cpp:157] Top shape: 1 64 1000 1500 (96000000)
I0412 20:26:48.384531  4436 net.cpp:165] Memory required for data: 1206000052
I0412 20:26:48.384552  4436 layer_factory.hpp:77] Creating layer relu1_2
I0412 20:26:48.384570  4436 net.cpp:100] Creating Layer relu1_2
I0412 20:26:48.384578  4436 net.cpp:434] relu1_2 <- conv1_2
I0412 20:26:48.384588  4436 net.cpp:395] relu1_2 -> conv1_2 (in-place)
I0412 20:26:48.384604  4436 net.cpp:150] Setting up relu1_2
I0412 20:26:48.384611  4436 net.cpp:157] Top shape: 1 64 1000 1500 (96000000)
I0412 20:26:48.384616  4436 net.cpp:165] Memory required for data: 1590000052
I0412 20:26:48.384620  4436 layer_factory.hpp:77] Creating layer pool1
I0412 20:26:48.384631  4436 net.cpp:100] Creating Layer pool1
I0412 20:26:48.384637  4436 net.cpp:434] pool1 <- conv1_2
I0412 20:26:48.384647  4436 net.cpp:408] pool1 -> pool1
I0412 20:26:48.384742  4436 net.cpp:150] Setting up pool1
I0412 20:26:48.384757  4436 net.cpp:157] Top shape: 1 64 500 750 (24000000)
I0412 20:26:48.384760  4436 net.cpp:165] Memory required for data: 1686000052
I0412 20:26:48.384764  4436 layer_factory.hpp:77] Creating layer conv2_1
I0412 20:26:48.384773  4436 net.cpp:100] Creating Layer conv2_1
I0412 20:26:48.384776  4436 net.cpp:434] conv2_1 <- pool1
I0412 20:26:48.384783  4436 net.cpp:408] conv2_1 -> conv2_1
I0412 20:26:48.385998  4436 net.cpp:150] Setting up conv2_1
I0412 20:26:48.386023  4436 net.cpp:157] Top shape: 1 128 500 750 (48000000)
I0412 20:26:48.386028  4436 net.cpp:165] Memory required for data: 1878000052
I0412 20:26:48.386039  4436 layer_factory.hpp:77] Creating layer relu2_1
I0412 20:26:48.386050  4436 net.cpp:100] Creating Layer relu2_1
I0412 20:26:48.386055  4436 net.cpp:434] relu2_1 <- conv2_1
I0412 20:26:48.386061  4436 net.cpp:395] relu2_1 -> conv2_1 (in-place)
I0412 20:26:48.386070  4436 net.cpp:150] Setting up relu2_1
I0412 20:26:48.386073  4436 net.cpp:157] Top shape: 1 128 500 750 (48000000)
I0412 20:26:48.386076  4436 net.cpp:165] Memory required for data: 2070000052
I0412 20:26:48.386080  4436 layer_factory.hpp:77] Creating layer conv2_2
I0412 20:26:48.386090  4436 net.cpp:100] Creating Layer conv2_2
I0412 20:26:48.386092  4436 net.cpp:434] conv2_2 <- conv2_1
I0412 20:26:48.386098  4436 net.cpp:408] conv2_2 -> conv2_2
I0412 20:26:48.387315  4436 net.cpp:150] Setting up conv2_2
I0412 20:26:48.387348  4436 net.cpp:157] Top shape: 1 128 500 750 (48000000)
I0412 20:26:48.387356  4436 net.cpp:165] Memory required for data: 2262000052
I0412 20:26:48.387372  4436 layer_factory.hpp:77] Creating layer relu2_2
I0412 20:26:48.387388  4436 net.cpp:100] Creating Layer relu2_2
I0412 20:26:48.387399  4436 net.cpp:434] relu2_2 <- conv2_2
I0412 20:26:48.387413  4436 net.cpp:395] relu2_2 -> conv2_2 (in-place)
I0412 20:26:48.387431  4436 net.cpp:150] Setting up relu2_2
I0412 20:26:48.387442  4436 net.cpp:157] Top shape: 1 128 500 750 (48000000)
I0412 20:26:48.387449  4436 net.cpp:165] Memory required for data: 2454000052
I0412 20:26:48.387454  4436 layer_factory.hpp:77] Creating layer pool2
I0412 20:26:48.387465  4436 net.cpp:100] Creating Layer pool2
I0412 20:26:48.387471  4436 net.cpp:434] pool2 <- conv2_2
I0412 20:26:48.387483  4436 net.cpp:408] pool2 -> pool2
I0412 20:26:48.387550  4436 net.cpp:150] Setting up pool2
I0412 20:26:48.387563  4436 net.cpp:157] Top shape: 1 128 250 375 (12000000)
I0412 20:26:48.387568  4436 net.cpp:165] Memory required for data: 2502000052
I0412 20:26:48.387575  4436 layer_factory.hpp:77] Creating layer conv3_1
I0412 20:26:48.387591  4436 net.cpp:100] Creating Layer conv3_1
I0412 20:26:48.387600  4436 net.cpp:434] conv3_1 <- pool2
I0412 20:26:48.387617  4436 net.cpp:408] conv3_1 -> conv3_1
I0412 20:26:48.388900  4436 net.cpp:150] Setting up conv3_1
I0412 20:26:48.388931  4436 net.cpp:157] Top shape: 1 256 250 375 (24000000)
I0412 20:26:48.388936  4436 net.cpp:165] Memory required for data: 2598000052
I0412 20:26:48.388958  4436 layer_factory.hpp:77] Creating layer relu3_1
I0412 20:26:48.388972  4436 net.cpp:100] Creating Layer relu3_1
I0412 20:26:48.388979  4436 net.cpp:434] relu3_1 <- conv3_1
I0412 20:26:48.388990  4436 net.cpp:395] relu3_1 -> conv3_1 (in-place)
I0412 20:26:48.389004  4436 net.cpp:150] Setting up relu3_1
I0412 20:26:48.389014  4436 net.cpp:157] Top shape: 1 256 250 375 (24000000)
I0412 20:26:48.389019  4436 net.cpp:165] Memory required for data: 2694000052
I0412 20:26:48.389025  4436 layer_factory.hpp:77] Creating layer conv3_2
I0412 20:26:48.389040  4436 net.cpp:100] Creating Layer conv3_2
I0412 20:26:48.389048  4436 net.cpp:434] conv3_2 <- conv3_1
I0412 20:26:48.389060  4436 net.cpp:408] conv3_2 -> conv3_2
I0412 20:26:48.390388  4436 net.cpp:150] Setting up conv3_2
I0412 20:26:48.390420  4436 net.cpp:157] Top shape: 1 256 250 375 (24000000)
I0412 20:26:48.390426  4436 net.cpp:165] Memory required for data: 2790000052
I0412 20:26:48.390439  4436 layer_factory.hpp:77] Creating layer relu3_2
I0412 20:26:48.390452  4436 net.cpp:100] Creating Layer relu3_2
I0412 20:26:48.390460  4436 net.cpp:434] relu3_2 <- conv3_2
I0412 20:26:48.390470  4436 net.cpp:395] relu3_2 -> conv3_2 (in-place)
I0412 20:26:48.390485  4436 net.cpp:150] Setting up relu3_2
I0412 20:26:48.390493  4436 net.cpp:157] Top shape: 1 256 250 375 (24000000)
I0412 20:26:48.390499  4436 net.cpp:165] Memory required for data: 2886000052
I0412 20:26:48.390506  4436 layer_factory.hpp:77] Creating layer conv3_3
I0412 20:26:48.390527  4436 net.cpp:100] Creating Layer conv3_3
I0412 20:26:48.390537  4436 net.cpp:434] conv3_3 <- conv3_2
I0412 20:26:48.390548  4436 net.cpp:408] conv3_3 -> conv3_3
I0412 20:26:48.392614  4436 net.cpp:150] Setting up conv3_3
I0412 20:26:48.392654  4436 net.cpp:157] Top shape: 1 256 250 375 (24000000)
I0412 20:26:48.392660  4436 net.cpp:165] Memory required for data: 2982000052
I0412 20:26:48.392685  4436 layer_factory.hpp:77] Creating layer relu3_3
I0412 20:26:48.392699  4436 net.cpp:100] Creating Layer relu3_3
I0412 20:26:48.392705  4436 net.cpp:434] relu3_3 <- conv3_3
I0412 20:26:48.392725  4436 net.cpp:395] relu3_3 -> conv3_3 (in-place)
I0412 20:26:48.392743  4436 net.cpp:150] Setting up relu3_3
I0412 20:26:48.392750  4436 net.cpp:157] Top shape: 1 256 250 375 (24000000)
I0412 20:26:48.392755  4436 net.cpp:165] Memory required for data: 3078000052
I0412 20:26:48.392760  4436 layer_factory.hpp:77] Creating layer pool3
I0412 20:26:48.392782  4436 net.cpp:100] Creating Layer pool3
I0412 20:26:48.392787  4436 net.cpp:434] pool3 <- conv3_3
I0412 20:26:48.392796  4436 net.cpp:408] pool3 -> pool3
I0412 20:26:48.392874  4436 net.cpp:150] Setting up pool3
I0412 20:26:48.392887  4436 net.cpp:157] Top shape: 1 256 125 188 (6016000)
I0412 20:26:48.392892  4436 net.cpp:165] Memory required for data: 3102064052
I0412 20:26:48.392897  4436 layer_factory.hpp:77] Creating layer conv4_1
I0412 20:26:48.392911  4436 net.cpp:100] Creating Layer conv4_1
I0412 20:26:48.392916  4436 net.cpp:434] conv4_1 <- pool3
I0412 20:26:48.392926  4436 net.cpp:408] conv4_1 -> conv4_1
I0412 20:26:48.395959  4436 net.cpp:150] Setting up conv4_1
I0412 20:26:48.395992  4436 net.cpp:157] Top shape: 1 512 125 188 (12032000)
I0412 20:26:48.395995  4436 net.cpp:165] Memory required for data: 3150192052
I0412 20:26:48.396006  4436 layer_factory.hpp:77] Creating layer relu4_1
I0412 20:26:48.396016  4436 net.cpp:100] Creating Layer relu4_1
I0412 20:26:48.396021  4436 net.cpp:434] relu4_1 <- conv4_1
I0412 20:26:48.396030  4436 net.cpp:395] relu4_1 -> conv4_1 (in-place)
I0412 20:26:48.396044  4436 net.cpp:150] Setting up relu4_1
I0412 20:26:48.396054  4436 net.cpp:157] Top shape: 1 512 125 188 (12032000)
I0412 20:26:48.396059  4436 net.cpp:165] Memory required for data: 3198320052
I0412 20:26:48.396064  4436 layer_factory.hpp:77] Creating layer conv4_2
I0412 20:26:48.396077  4436 net.cpp:100] Creating Layer conv4_2
I0412 20:26:48.396085  4436 net.cpp:434] conv4_2 <- conv4_1
I0412 20:26:48.396095  4436 net.cpp:408] conv4_2 -> conv4_2
I0412 20:26:48.400874  4436 net.cpp:150] Setting up conv4_2
I0412 20:26:48.400908  4436 net.cpp:157] Top shape: 1 512 125 188 (12032000)
I0412 20:26:48.400913  4436 net.cpp:165] Memory required for data: 3246448052
I0412 20:26:48.400933  4436 layer_factory.hpp:77] Creating layer relu4_2
I0412 20:26:48.400948  4436 net.cpp:100] Creating Layer relu4_2
I0412 20:26:48.400955  4436 net.cpp:434] relu4_2 <- conv4_2
I0412 20:26:48.400969  4436 net.cpp:395] relu4_2 -> conv4_2 (in-place)
I0412 20:26:48.400981  4436 net.cpp:150] Setting up relu4_2
I0412 20:26:48.400990  4436 net.cpp:157] Top shape: 1 512 125 188 (12032000)
I0412 20:26:48.400995  4436 net.cpp:165] Memory required for data: 3294576052
I0412 20:26:48.401000  4436 layer_factory.hpp:77] Creating layer conv4_3
I0412 20:26:48.401012  4436 net.cpp:100] Creating Layer conv4_3
I0412 20:26:48.401020  4436 net.cpp:434] conv4_3 <- conv4_2
I0412 20:26:48.401031  4436 net.cpp:408] conv4_3 -> conv4_3
I0412 20:26:48.405432  4436 net.cpp:150] Setting up conv4_3
I0412 20:26:48.405465  4436 net.cpp:157] Top shape: 1 512 125 188 (12032000)
I0412 20:26:48.405469  4436 net.cpp:165] Memory required for data: 3342704052
I0412 20:26:48.405479  4436 layer_factory.hpp:77] Creating layer relu4_3
I0412 20:26:48.405488  4436 net.cpp:100] Creating Layer relu4_3
I0412 20:26:48.405493  4436 net.cpp:434] relu4_3 <- conv4_3
I0412 20:26:48.405500  4436 net.cpp:395] relu4_3 -> conv4_3 (in-place)
I0412 20:26:48.405510  4436 net.cpp:150] Setting up relu4_3
I0412 20:26:48.405515  4436 net.cpp:157] Top shape: 1 512 125 188 (12032000)
I0412 20:26:48.405519  4436 net.cpp:165] Memory required for data: 3390832052
I0412 20:26:48.405520  4436 layer_factory.hpp:77] Creating layer pool4
I0412 20:26:48.405529  4436 net.cpp:100] Creating Layer pool4
I0412 20:26:48.405531  4436 net.cpp:434] pool4 <- conv4_3
I0412 20:26:48.405536  4436 net.cpp:408] pool4 -> pool4
I0412 20:26:48.405571  4436 net.cpp:150] Setting up pool4
I0412 20:26:48.405577  4436 net.cpp:157] Top shape: 1 512 63 94 (3032064)
I0412 20:26:48.405580  4436 net.cpp:165] Memory required for data: 3402960308
I0412 20:26:48.405582  4436 layer_factory.hpp:77] Creating layer conv5_1
I0412 20:26:48.405596  4436 net.cpp:100] Creating Layer conv5_1
I0412 20:26:48.405598  4436 net.cpp:434] conv5_1 <- pool4
I0412 20:26:48.405604  4436 net.cpp:408] conv5_1 -> conv5_1
I0412 20:26:48.410466  4436 net.cpp:150] Setting up conv5_1
I0412 20:26:48.410500  4436 net.cpp:157] Top shape: 1 512 63 94 (3032064)
I0412 20:26:48.410503  4436 net.cpp:165] Memory required for data: 3415088564
I0412 20:26:48.410513  4436 layer_factory.hpp:77] Creating layer relu5_1
I0412 20:26:48.410528  4436 net.cpp:100] Creating Layer relu5_1
I0412 20:26:48.410534  4436 net.cpp:434] relu5_1 <- conv5_1
I0412 20:26:48.410547  4436 net.cpp:395] relu5_1 -> conv5_1 (in-place)
I0412 20:26:48.410562  4436 net.cpp:150] Setting up relu5_1
I0412 20:26:48.410568  4436 net.cpp:157] Top shape: 1 512 63 94 (3032064)
I0412 20:26:48.410573  4436 net.cpp:165] Memory required for data: 3427216820
I0412 20:26:48.410578  4436 layer_factory.hpp:77] Creating layer conv5_2
I0412 20:26:48.410591  4436 net.cpp:100] Creating Layer conv5_2
I0412 20:26:48.410596  4436 net.cpp:434] conv5_2 <- conv5_1
I0412 20:26:48.410606  4436 net.cpp:408] conv5_2 -> conv5_2
I0412 20:26:48.415055  4436 net.cpp:150] Setting up conv5_2
I0412 20:26:48.415098  4436 net.cpp:157] Top shape: 1 512 63 94 (3032064)
I0412 20:26:48.415102  4436 net.cpp:165] Memory required for data: 3439345076
I0412 20:26:48.415112  4436 layer_factory.hpp:77] Creating layer relu5_2
I0412 20:26:48.415123  4436 net.cpp:100] Creating Layer relu5_2
I0412 20:26:48.415128  4436 net.cpp:434] relu5_2 <- conv5_2
I0412 20:26:48.415138  4436 net.cpp:395] relu5_2 -> conv5_2 (in-place)
I0412 20:26:48.415153  4436 net.cpp:150] Setting up relu5_2
I0412 20:26:48.415159  4436 net.cpp:157] Top shape: 1 512 63 94 (3032064)
I0412 20:26:48.415164  4436 net.cpp:165] Memory required for data: 3451473332
I0412 20:26:48.415170  4436 layer_factory.hpp:77] Creating layer conv5_3
I0412 20:26:48.415184  4436 net.cpp:100] Creating Layer conv5_3
I0412 20:26:48.415190  4436 net.cpp:434] conv5_3 <- conv5_2
I0412 20:26:48.415199  4436 net.cpp:408] conv5_3 -> conv5_3
I0412 20:26:48.419739  4436 net.cpp:150] Setting up conv5_3
I0412 20:26:48.419780  4436 net.cpp:157] Top shape: 1 512 63 94 (3032064)
I0412 20:26:48.419785  4436 net.cpp:165] Memory required for data: 3463601588
I0412 20:26:48.419795  4436 layer_factory.hpp:77] Creating layer relu5_3
I0412 20:26:48.419809  4436 net.cpp:100] Creating Layer relu5_3
I0412 20:26:48.419819  4436 net.cpp:434] relu5_3 <- conv5_3
I0412 20:26:48.419832  4436 net.cpp:395] relu5_3 -> conv5_3 (in-place)
I0412 20:26:48.419847  4436 net.cpp:150] Setting up relu5_3
I0412 20:26:48.419854  4436 net.cpp:157] Top shape: 1 512 63 94 (3032064)
I0412 20:26:48.419859  4436 net.cpp:165] Memory required for data: 3475729844
I0412 20:26:48.419864  4436 layer_factory.hpp:77] Creating layer rpn_big_conv1
I0412 20:26:48.419886  4436 net.cpp:100] Creating Layer rpn_big_conv1
I0412 20:26:48.419894  4436 net.cpp:434] rpn_big_conv1 <- conv5_3
I0412 20:26:48.419904  4436 net.cpp:408] rpn_big_conv1 -> rpn_big_conv1
I0412 20:26:48.446955  4436 net.cpp:150] Setting up rpn_big_conv1
I0412 20:26:48.446986  4436 net.cpp:157] Top shape: 1 512 63 94 (3032064)
I0412 20:26:48.447000  4436 net.cpp:165] Memory required for data: 3487858100
I0412 20:26:48.447010  4436 layer_factory.hpp:77] Creating layer rpn_big_conv1_relu
I0412 20:26:48.447021  4436 net.cpp:100] Creating Layer rpn_big_conv1_relu
I0412 20:26:48.447026  4436 net.cpp:434] rpn_big_conv1_relu <- rpn_big_conv1
I0412 20:26:48.447038  4436 net.cpp:395] rpn_big_conv1_relu -> rpn_big_conv1 (in-place)
I0412 20:26:48.447053  4436 net.cpp:150] Setting up rpn_big_conv1_relu
I0412 20:26:48.447062  4436 net.cpp:157] Top shape: 1 512 63 94 (3032064)
I0412 20:26:48.447067  4436 net.cpp:165] Memory required for data: 3499986356
I0412 20:26:48.447073  4436 layer_factory.hpp:77] Creating layer rpn_big_conv2
I0412 20:26:48.447088  4436 net.cpp:100] Creating Layer rpn_big_conv2
I0412 20:26:48.447096  4436 net.cpp:434] rpn_big_conv2 <- rpn_big_conv1
I0412 20:26:48.447108  4436 net.cpp:408] rpn_big_conv2 -> rpn_big_conv2
I0412 20:26:48.473006  4436 net.cpp:150] Setting up rpn_big_conv2
I0412 20:26:48.473037  4436 net.cpp:157] Top shape: 1 512 63 94 (3032064)
I0412 20:26:48.473049  4436 net.cpp:165] Memory required for data: 3512114612
I0412 20:26:48.473059  4436 layer_factory.hpp:77] Creating layer rpn_big_conv2_relu
I0412 20:26:48.473070  4436 net.cpp:100] Creating Layer rpn_big_conv2_relu
I0412 20:26:48.473075  4436 net.cpp:434] rpn_big_conv2_relu <- rpn_big_conv2
I0412 20:26:48.473086  4436 net.cpp:395] rpn_big_conv2_relu -> rpn_big_conv2 (in-place)
I0412 20:26:48.473101  4436 net.cpp:150] Setting up rpn_big_conv2_relu
I0412 20:26:48.473110  4436 net.cpp:157] Top shape: 1 512 63 94 (3032064)
I0412 20:26:48.473131  4436 net.cpp:165] Memory required for data: 3524242868
I0412 20:26:48.473136  4436 layer_factory.hpp:77] Creating layer rpn_big_conv2_drop
I0412 20:26:48.473146  4436 net.cpp:100] Creating Layer rpn_big_conv2_drop
I0412 20:26:48.473151  4436 net.cpp:434] rpn_big_conv2_drop <- rpn_big_conv2
I0412 20:26:48.473161  4436 net.cpp:395] rpn_big_conv2_drop -> rpn_big_conv2 (in-place)
I0412 20:26:48.473201  4436 net.cpp:150] Setting up rpn_big_conv2_drop
I0412 20:26:48.473211  4436 net.cpp:157] Top shape: 1 512 63 94 (3032064)
I0412 20:26:48.473215  4436 net.cpp:165] Memory required for data: 3536371124
I0412 20:26:48.473228  4436 layer_factory.hpp:77] Creating layer rpn_big_conv2_rpn_big_conv2_drop_0_split
I0412 20:26:48.473238  4436 net.cpp:100] Creating Layer rpn_big_conv2_rpn_big_conv2_drop_0_split
I0412 20:26:48.473244  4436 net.cpp:434] rpn_big_conv2_rpn_big_conv2_drop_0_split <- rpn_big_conv2
I0412 20:26:48.473253  4436 net.cpp:408] rpn_big_conv2_rpn_big_conv2_drop_0_split -> rpn_big_conv2_rpn_big_conv2_drop_0_split_0
I0412 20:26:48.473265  4436 net.cpp:408] rpn_big_conv2_rpn_big_conv2_drop_0_split -> rpn_big_conv2_rpn_big_conv2_drop_0_split_1
I0412 20:26:48.473312  4436 net.cpp:150] Setting up rpn_big_conv2_rpn_big_conv2_drop_0_split
I0412 20:26:48.473323  4436 net.cpp:157] Top shape: 1 512 63 94 (3032064)
I0412 20:26:48.473330  4436 net.cpp:157] Top shape: 1 512 63 94 (3032064)
I0412 20:26:48.473335  4436 net.cpp:165] Memory required for data: 3560627636
I0412 20:26:48.473340  4436 layer_factory.hpp:77] Creating layer rpn_big_output_cls
I0412 20:26:48.473357  4436 net.cpp:100] Creating Layer rpn_big_output_cls
I0412 20:26:48.473364  4436 net.cpp:434] rpn_big_output_cls <- rpn_big_conv2_rpn_big_conv2_drop_0_split_0
I0412 20:26:48.473374  4436 net.cpp:408] rpn_big_output_cls -> rpn_big_output_cls
I0412 20:26:48.492663  4436 net.cpp:150] Setting up rpn_big_output_cls
I0412 20:26:48.492710  4436 net.cpp:157] Top shape: 1 384 63 94 (2274048)
I0412 20:26:48.492715  4436 net.cpp:165] Memory required for data: 3569723828
I0412 20:26:48.492725  4436 layer_factory.hpp:77] Creating layer rpn_big_output_cls_relu
I0412 20:26:48.492738  4436 net.cpp:100] Creating Layer rpn_big_output_cls_relu
I0412 20:26:48.492744  4436 net.cpp:434] rpn_big_output_cls_relu <- rpn_big_output_cls
I0412 20:26:48.492755  4436 net.cpp:395] rpn_big_output_cls_relu -> rpn_big_output_cls (in-place)
I0412 20:26:48.492771  4436 net.cpp:150] Setting up rpn_big_output_cls_relu
I0412 20:26:48.492780  4436 net.cpp:157] Top shape: 1 384 63 94 (2274048)
I0412 20:26:48.492785  4436 net.cpp:165] Memory required for data: 3578820020
I0412 20:26:48.492791  4436 layer_factory.hpp:77] Creating layer rpn_big_cls_score
I0412 20:26:48.492807  4436 net.cpp:100] Creating Layer rpn_big_cls_score
I0412 20:26:48.492815  4436 net.cpp:434] rpn_big_cls_score <- rpn_big_output_cls
I0412 20:26:48.492826  4436 net.cpp:408] rpn_big_cls_score -> rpn_big_cls_score
I0412 20:26:48.495440  4436 net.cpp:150] Setting up rpn_big_cls_score
I0412 20:26:48.495470  4436 net.cpp:157] Top shape: 1 52 61 92 (291824)
I0412 20:26:48.495474  4436 net.cpp:165] Memory required for data: 3579987316
I0412 20:26:48.495496  4436 layer_factory.hpp:77] Creating layer rpn_big_cls_score_rpn_big_cls_score_0_split
I0412 20:26:48.495527  4436 net.cpp:100] Creating Layer rpn_big_cls_score_rpn_big_cls_score_0_split
I0412 20:26:48.495535  4436 net.cpp:434] rpn_big_cls_score_rpn_big_cls_score_0_split <- rpn_big_cls_score
I0412 20:26:48.495545  4436 net.cpp:408] rpn_big_cls_score_rpn_big_cls_score_0_split -> rpn_big_cls_score_rpn_big_cls_score_0_split_0
I0412 20:26:48.495560  4436 net.cpp:408] rpn_big_cls_score_rpn_big_cls_score_0_split -> rpn_big_cls_score_rpn_big_cls_score_0_split_1
I0412 20:26:48.495612  4436 net.cpp:150] Setting up rpn_big_cls_score_rpn_big_cls_score_0_split
I0412 20:26:48.495625  4436 net.cpp:157] Top shape: 1 52 61 92 (291824)
I0412 20:26:48.495635  4436 net.cpp:157] Top shape: 1 52 61 92 (291824)
I0412 20:26:48.495640  4436 net.cpp:165] Memory required for data: 3582321908
I0412 20:26:48.495646  4436 layer_factory.hpp:77] Creating layer rpn_big_cls_score_reshape
I0412 20:26:48.495658  4436 net.cpp:100] Creating Layer rpn_big_cls_score_reshape
I0412 20:26:48.495666  4436 net.cpp:434] rpn_big_cls_score_reshape <- rpn_big_cls_score_rpn_big_cls_score_0_split_0
I0412 20:26:48.495676  4436 net.cpp:408] rpn_big_cls_score_reshape -> rpn_big_cls_score_reshape
I0412 20:26:48.495712  4436 net.cpp:150] Setting up rpn_big_cls_score_reshape
I0412 20:26:48.495721  4436 net.cpp:157] Top shape: 1 2 1586 92 (291824)
I0412 20:26:48.495728  4436 net.cpp:165] Memory required for data: 3583489204
I0412 20:26:48.495733  4436 layer_factory.hpp:77] Creating layer rpn_big_cls_score_reshape_rpn_big_cls_score_reshape_0_split
I0412 20:26:48.495743  4436 net.cpp:100] Creating Layer rpn_big_cls_score_reshape_rpn_big_cls_score_reshape_0_split
I0412 20:26:48.495749  4436 net.cpp:434] rpn_big_cls_score_reshape_rpn_big_cls_score_reshape_0_split <- rpn_big_cls_score_reshape
I0412 20:26:48.495760  4436 net.cpp:408] rpn_big_cls_score_reshape_rpn_big_cls_score_reshape_0_split -> rpn_big_cls_score_reshape_rpn_big_cls_score_reshape_0_split_0
I0412 20:26:48.495787  4436 net.cpp:408] rpn_big_cls_score_reshape_rpn_big_cls_score_reshape_0_split -> rpn_big_cls_score_reshape_rpn_big_cls_score_reshape_0_split_1
I0412 20:26:48.495836  4436 net.cpp:150] Setting up rpn_big_cls_score_reshape_rpn_big_cls_score_reshape_0_split
I0412 20:26:48.495849  4436 net.cpp:157] Top shape: 1 2 1586 92 (291824)
I0412 20:26:48.495857  4436 net.cpp:157] Top shape: 1 2 1586 92 (291824)
I0412 20:26:48.495863  4436 net.cpp:165] Memory required for data: 3585823796
I0412 20:26:48.495869  4436 layer_factory.hpp:77] Creating layer rpn_big_cls_prob
I0412 20:26:48.495879  4436 net.cpp:100] Creating Layer rpn_big_cls_prob
I0412 20:26:48.495887  4436 net.cpp:434] rpn_big_cls_prob <- rpn_big_cls_score_reshape_rpn_big_cls_score_reshape_0_split_0
I0412 20:26:48.495898  4436 net.cpp:408] rpn_big_cls_prob -> rpn_big_cls_prob
I0412 20:26:48.495975  4436 net.cpp:150] Setting up rpn_big_cls_prob
I0412 20:26:48.495985  4436 net.cpp:157] Top shape: 1 2 1586 92 (291824)
I0412 20:26:48.495991  4436 net.cpp:165] Memory required for data: 3586991092
I0412 20:26:48.495996  4436 layer_factory.hpp:77] Creating layer rpn_big_cls_prob_reshape
I0412 20:26:48.496006  4436 net.cpp:100] Creating Layer rpn_big_cls_prob_reshape
I0412 20:26:48.496012  4436 net.cpp:434] rpn_big_cls_prob_reshape <- rpn_big_cls_prob
I0412 20:26:48.496022  4436 net.cpp:408] rpn_big_cls_prob_reshape -> rpn_big_cls_prob_reshape
I0412 20:26:48.496053  4436 net.cpp:150] Setting up rpn_big_cls_prob_reshape
I0412 20:26:48.496064  4436 net.cpp:157] Top shape: 1 52 61 92 (291824)
I0412 20:26:48.496069  4436 net.cpp:165] Memory required for data: 3588158388
I0412 20:26:48.496075  4436 layer_factory.hpp:77] Creating layer rpn_big_anchor_target
I0412 20:26:48.497700  4436 net.cpp:100] Creating Layer rpn_big_anchor_target
I0412 20:26:48.497717  4436 net.cpp:434] rpn_big_anchor_target <- rpn_big_cls_score_rpn_big_cls_score_0_split_1
I0412 20:26:48.497725  4436 net.cpp:434] rpn_big_anchor_target <- input_gt_boxes
I0412 20:26:48.497732  4436 net.cpp:434] rpn_big_anchor_target <- input_ignored_boxes
I0412 20:26:48.497742  4436 net.cpp:434] rpn_big_anchor_target <- input_im_info
I0412 20:26:48.497750  4436 net.cpp:434] rpn_big_anchor_target <- input_data_input_0_split_1
I0412 20:26:48.497759  4436 net.cpp:434] rpn_big_anchor_target <- rpn_big_cls_prob_reshape
I0412 20:26:48.497771  4436 net.cpp:408] rpn_big_anchor_target -> rpn_big_anchor_target_labels
I0412 20:26:48.497786  4436 net.cpp:408] rpn_big_anchor_target -> rpn_big_anchor_target_bbox_targets
I0412 20:26:48.497799  4436 net.cpp:408] rpn_big_anchor_target -> rpn_big_anchor_target_inside_weights
I0412 20:26:48.497812  4436 net.cpp:408] rpn_big_anchor_target -> rpn_big_anchor_target_outside_weights
I0412 20:26:48.502573  4436 net.cpp:150] Setting up rpn_big_anchor_target
I0412 20:26:48.502594  4436 net.cpp:157] Top shape: 1 1 1586 92 (145912)
I0412 20:26:48.502600  4436 net.cpp:157] Top shape: 1 104 61 92 (583648)
I0412 20:26:48.502607  4436 net.cpp:157] Top shape: 1 104 61 92 (583648)
I0412 20:26:48.502614  4436 net.cpp:157] Top shape: 1 104 61 92 (583648)
I0412 20:26:48.502621  4436 net.cpp:165] Memory required for data: 3595745812
I0412 20:26:48.502629  4436 layer_factory.hpp:77] Creating layer rpn_big_loss_cls
I0412 20:26:48.502643  4436 net.cpp:100] Creating Layer rpn_big_loss_cls
I0412 20:26:48.502651  4436 net.cpp:434] rpn_big_loss_cls <- rpn_big_cls_score_reshape_rpn_big_cls_score_reshape_0_split_1
I0412 20:26:48.502661  4436 net.cpp:434] rpn_big_loss_cls <- rpn_big_anchor_target_labels
I0412 20:26:48.502672  4436 net.cpp:408] rpn_big_loss_cls -> rpn_big_loss_cls
I0412 20:26:48.502691  4436 layer_factory.hpp:77] Creating layer rpn_big_loss_cls
I0412 20:26:48.503404  4436 net.cpp:150] Setting up rpn_big_loss_cls
I0412 20:26:48.503420  4436 net.cpp:157] Top shape: (1)
I0412 20:26:48.503423  4436 net.cpp:160]     with loss weight 1
I0412 20:26:48.503440  4436 net.cpp:165] Memory required for data: 3595745816
I0412 20:26:48.503448  4436 layer_factory.hpp:77] Creating layer rpn_big_output_box
I0412 20:26:48.503468  4436 net.cpp:100] Creating Layer rpn_big_output_box
I0412 20:26:48.503476  4436 net.cpp:434] rpn_big_output_box <- rpn_big_conv2_rpn_big_conv2_drop_0_split_1
I0412 20:26:48.503489  4436 net.cpp:408] rpn_big_output_box -> rpn_big_output_box
I0412 20:26:48.522792  4436 net.cpp:150] Setting up rpn_big_output_box
I0412 20:26:48.522822  4436 net.cpp:157] Top shape: 1 384 63 94 (2274048)
I0412 20:26:48.522835  4436 net.cpp:165] Memory required for data: 3604842008
I0412 20:26:48.522845  4436 layer_factory.hpp:77] Creating layer rpn_big_output_box_relu
I0412 20:26:48.522855  4436 net.cpp:100] Creating Layer rpn_big_output_box_relu
I0412 20:26:48.522861  4436 net.cpp:434] rpn_big_output_box_relu <- rpn_big_output_box
I0412 20:26:48.522873  4436 net.cpp:395] rpn_big_output_box_relu -> rpn_big_output_box (in-place)
I0412 20:26:48.522888  4436 net.cpp:150] Setting up rpn_big_output_box_relu
I0412 20:26:48.522899  4436 net.cpp:157] Top shape: 1 384 63 94 (2274048)
I0412 20:26:48.522904  4436 net.cpp:165] Memory required for data: 3613938200
I0412 20:26:48.522909  4436 layer_factory.hpp:77] Creating layer rpn_big_bbox_pred
I0412 20:26:48.522925  4436 net.cpp:100] Creating Layer rpn_big_bbox_pred
I0412 20:26:48.522933  4436 net.cpp:434] rpn_big_bbox_pred <- rpn_big_output_box
I0412 20:26:48.522944  4436 net.cpp:408] rpn_big_bbox_pred -> rpn_big_bbox_pred
I0412 20:26:48.527230  4436 net.cpp:150] Setting up rpn_big_bbox_pred
I0412 20:26:48.527259  4436 net.cpp:157] Top shape: 1 104 61 92 (583648)
I0412 20:26:48.527263  4436 net.cpp:165] Memory required for data: 3616272792
I0412 20:26:48.527271  4436 layer_factory.hpp:77] Creating layer rpn_big_loss_bbox
I0412 20:26:48.527636  4436 net.cpp:100] Creating Layer rpn_big_loss_bbox
I0412 20:26:48.527644  4436 net.cpp:434] rpn_big_loss_bbox <- rpn_big_bbox_pred
I0412 20:26:48.527652  4436 net.cpp:434] rpn_big_loss_bbox <- rpn_big_anchor_target_bbox_targets
I0412 20:26:48.527657  4436 net.cpp:434] rpn_big_loss_bbox <- rpn_big_anchor_target_inside_weights
I0412 20:26:48.527660  4436 net.cpp:434] rpn_big_loss_bbox <- rpn_big_anchor_target_outside_weights
I0412 20:26:48.527667  4436 net.cpp:408] rpn_big_loss_bbox -> rpn_big_loss_bbox
I0412 20:26:48.529610  4436 net.cpp:150] Setting up rpn_big_loss_bbox
I0412 20:26:48.529641  4436 net.cpp:157] Top shape: 1 (1)
I0412 20:26:48.529644  4436 net.cpp:160]     with loss weight 1
I0412 20:26:48.529655  4436 net.cpp:165] Memory required for data: 3616272796
I0412 20:26:48.529661  4436 net.cpp:226] rpn_big_loss_bbox needs backward computation.
I0412 20:26:48.529669  4436 net.cpp:226] rpn_big_bbox_pred needs backward computation.
I0412 20:26:48.529671  4436 net.cpp:226] rpn_big_output_box_relu needs backward computation.
…
