…
I0413 16:10:43.635454  8092 solver.cpp:48] Initializing solver from parameters: 
base_lr: 0.001
display: 20
lr_policy: "multistep"
gamma: 0.1
momentum: 0.9
weight_decay: 0.0005
snapshot: 0
snapshot_prefix: "faces_example"
net_param {
  name: "GeneratedModel_13_04_2017_16_10"
  layer {
    name: "input"
    type: "Python"
    top: "input_data"
    top: "input_im_info"
    top: "input_gt_boxes"
    top: "input_ignored_boxes"
    python_param {
      module: "layers.roi_data_layer"
      layer: "RoIDataLayer"
      param_str: "{\"num_classes\": 2}"
    }
  }
  layer {
    name: "conv1_1"
    type: "Convolution"
    bottom: "input_data"
    top: "conv1_1"
    param {
      lr_mult: 0
      decay_mult: 0
    }
    param {
      lr_mult: 0
      decay_mult: 0
    }
    convolution_param {
      num_output: 64
      pad: 1
      kernel_size: 3
    }
  }
  layer {
    name: "relu1_1"
    type: "ReLU"
    bottom: "conv1_1"
    top: "conv1_1"
  }
  layer {
    name: "conv1_2"
    type: "Convolution"
    bottom: "conv1_1"
    top: "conv1_2"
    param {
      lr_mult: 0
      decay_mult: 0
    }
    param {
      lr_mult: 0
      decay_mult: 0
    }
    convolution_param {
      num_output: 64
      pad: 1
      kernel_size: 3
    }
  }
  layer {
    name: "relu1_2"
    type: "ReLU"
    bottom: "conv1_2"
    top: "conv1_2"
  }
  layer {
    name: "pool1"
    type: "Pooling"
    bottom: "conv1_2"
    top: "pool1"
    pooling_param {
      pool: MAX
      kernel_size: 2
      stride: 2
    }
  }
  layer {
    name: "conv2_1"
    type: "Convolution"
    bottom: "pool1"
    top: "conv2_1"
    param {
      lr_mult: 0
      decay_mult: 0
    }
    param {
      lr_mult: 0
      decay_mult: 0
    }
    convolution_param {
      num_output: 128
      pad: 1
      kernel_size: 3
    }
  }
  layer {
    name: "relu2_1"
    type: "ReLU"
    bottom: "conv2_1"
    top: "conv2_1"
  }
  layer {
    name: "conv2_2"
    type: "Convolution"
    bottom: "conv2_1"
    top: "conv2_2"
    param {
      lr_mult: 0
      decay_mult: 0
    }
    param {
      lr_mult: 0
      decay_mult: 0
    }
    convolution_param {
      num_output: 128
      pad: 1
      kernel_size: 3
    }
  }
  layer {
    name: "relu2_2"
    type: "ReLU"
    bottom: "conv2_2"
    top: "conv2_2"
  }
  layer {
    name: "pool2"
    type: "Pooling"
    bottom: "conv2_2"
    top: "pool2"
    pooling_param {
      pool: MAX
      kernel_size: 2
      stride: 2
    }
  }
  layer {
    name: "conv3_1"
    type: "Convolution"
    bottom: "pool2"
    top: "conv3_1"
    param {
      lr_mult: 1
    }
    param {
      lr_mult: 2
    }
    convolution_param {
      num_output: 256
      pad: 1
      kernel_size: 3
    }
  }
  layer {
    name: "relu3_1"
    type: "ReLU"
    bottom: "conv3_1"
    top: "conv3_1"
  }
  layer {
    name: "conv3_2"
    type: "Convolution"
    bottom: "conv3_1"
    top: "conv3_2"
    param {
      lr_mult: 1
    }
    param {
      lr_mult: 2
    }
    convolution_param {
      num_output: 256
      pad: 1
      kernel_size: 3
    }
  }
  layer {
    name: "relu3_2"
    type: "ReLU"
    bottom: "conv3_2"
    top: "conv3_2"
  }
  layer {
    name: "conv3_3"
    type: "Convolution"
    bottom: "conv3_2"
    top: "conv3_3"
    param {
      lr_mult: 1
    }
    param {
      lr_mult: 2
    }
    convolution_param {
      num_output: 256
      pad: 1
      kernel_size: 3
    }
  }
  layer {
    name: "relu3_3"
    type: "ReLU"
    bottom: "conv3_3"
    top: "conv3_3"
  }
  layer {
    name: "pool3"
    type: "Pooling"
    bottom: "conv3_3"
    top: "pool3"
    pooling_param {
      pool: MAX
      kernel_size: 2
      stride: 2
    }
  }
  layer {
    name: "conv4_1"
    type: "Convolution"
    bottom: "pool3"
    top: "conv4_1"
    param {
      lr_mult: 1
    }
    param {
      lr_mult: 2
    }
    convolution_param {
      num_output: 512
      pad: 1
      kernel_size: 3
    }
  }
  layer {
    name: "relu4_1"
    type: "ReLU"
    bottom: "conv4_1"
    top: "conv4_1"
  }
  layer {
    name: "conv4_2"
    type: "Convolution"
    bottom: "conv4_1"
    top: "conv4_2"
    param {
      lr_mult: 1
    }
    param {
      lr_mult: 2
    }
    convolution_param {
      num_output: 512
      pad: 1
      kernel_size: 3
    }
  }
  layer {
    name: "relu4_2"
    type: "ReLU"
    bottom: "conv4_2"
    top: "conv4_2"
  }
  layer {
    name: "conv4_3"
    type: "Convolution"
    bottom: "conv4_2"
    top: "conv4_3"
    param {
      lr_mult: 1
    }
    param {
      lr_mult: 2
    }
    convolution_param {
      num_output: 512
      pad: 1
      kernel_size: 3
    }
  }
  layer {
    name: "relu4_3"
    type: "ReLU"
    bottom: "conv4_3"
    top: "conv4_3"
  }
  layer {
    name: "pool4"
    type: "Pooling"
    bottom: "conv4_3"
    top: "pool4"
    pooling_param {
      pool: MAX
      kernel_size: 2
      stride: 2
    }
  }
  layer {
    name: "conv5_1"
    type: "Convolution"
    bottom: "pool4"
    top: "conv5_1"
    param {
      lr_mult: 1
    }
    param {
      lr_mult: 2
    }
    convolution_param {
      num_output: 512
      pad: 1
      kernel_size: 3
    }
  }
  layer {
    name: "relu5_1"
    type: "ReLU"
    bottom: "conv5_1"
    top: "conv5_1"
  }
  layer {
    name: "conv5_2"
    type: "Convolution"
    bottom: "conv5_1"
    top: "conv5_2"
    param {
      lr_mult: 1
    }
    param {
      lr_mult: 2
    }
    convolution_param {
      num_output: 512
      pad: 1
      kernel_size: 3
    }
  }
  layer {
    name: "relu5_2"
    type: "ReLU"
    bottom: "conv5_2"
    top: "conv5_2"
  }
  layer {
    name: "conv5_3"
    type: "Convolution"
    bottom: "conv5_2"
    top: "conv5_3"
    param {
      lr_mult: 1
    }
    param {
      lr_mult: 2
    }
    convolution_param {
      num_output: 512
      pad: 1
      kernel_size: 3
    }
  }
  layer {
    name: "relu5_3"
    type: "ReLU"
    bottom: "conv5_3"
    top: "conv5_3"
  }
  layer {
    name: "rpn_big_conv1"
    type: "Convolution"
    bottom: "conv5_3"
    top: "rpn_big_conv1"
    param {
      lr_mult: 1
    }
    param {
      lr_mult: 2
    }
    convolution_param {
      num_output: 512
      pad: 1
      kernel_size: 3
      stride: 1
      weight_filler {
        type: "gaussian"
        mean: 0
        std: 0.01
      }
      bias_filler {
        type: "constant"
      }
    }
  }
  layer {
    name: "rpn_big_conv1_relu"
    type: "ReLU"
    bottom: "rpn_big_conv1"
    top: "rpn_big_conv1"
    relu_param {
      negative_slope: 0
    }
  }
  layer {
    name: "rpn_big_conv2"
    type: "Convolution"
    bottom: "rpn_big_conv1"
    top: "rpn_big_conv2"
    param {
      lr_mult: 1
    }
    param {
      lr_mult: 2
    }
    convolution_param {
      num_output: 512
      pad: 1
      kernel_size: 3
      stride: 1
      weight_filler {
        type: "gaussian"
        mean: 0
        std: 0.01
      }
      bias_filler {
        type: "constant"
      }
    }
  }
  layer {
    name: "rpn_big_conv2_relu"
    type: "ReLU"
    bottom: "rpn_big_conv2"
    top: "rpn_big_conv2"
    relu_param {
      negative_slope: 0
    }
  }
  layer {
    name: "rpn_big_conv2_drop"
    type: "Dropout"
    bottom: "rpn_big_conv2"
    top: "rpn_big_conv2"
    dropout_param {
      dropout_ratio: 0.3
    }
  }
  layer {
    name: "rpn_big_output_cls"
    type: "Convolution"
    bottom: "rpn_big_conv2"
    top: "rpn_big_output_cls"
    param {
      lr_mult: 1
    }
    param {
      lr_mult: 2
    }
    convolution_param {
      num_output: 384
      pad: 1
      kernel_size: 3
      stride: 1
      weight_filler {
        type: "gaussian"
        mean: 0
        std: 0.01
      }
      bias_filler {
        type: "constant"
      }
    }
  }
  layer {
    name: "rpn_big_output_cls_relu"
    type: "ReLU"
    bottom: "rpn_big_output_cls"
    top: "rpn_big_output_cls"
    relu_param {
      negative_slope: 0
    }
  }
  layer {
    name: "rpn_big_cls_score"
    type: "Convolution"
    bottom: "rpn_big_output_cls"
    top: "rpn_big_cls_score"
    param {
      lr_mult: 1
    }
    param {
      lr_mult: 2
    }
    convolution_param {
      num_output: 52
      pad: 0
      kernel_size: 3
      stride: 1
      weight_filler {
        type: "gaussian"
        mean: 0
        std: 0.01
      }
      bias_filler {
        type: "constant"
      }
    }
  }
  layer {
    name: "rpn_big_cls_score_reshape"
    type: "Reshape"
    bottom: "rpn_big_cls_score"
    top: "rpn_big_cls_score_reshape"
    reshape_param {
      shape {
        dim: 0
        dim: 2
        dim: -1
        dim: 0
      }
    }
  }
  layer {
    name: "rpn_big_cls_prob"
    type: "Softmax"
    bottom: "rpn_big_cls_score_reshape"
    top: "rpn_big_cls_prob"
  }
  layer {
    name: "rpn_big_cls_prob_reshape"
    type: "Reshape"
    bottom: "rpn_big_cls_prob"
    top: "rpn_big_cls_prob_reshape"
    reshape_param {
      shape {
        dim: 0
        dim: 52
        dim: -1
        dim: 0
      }
    }
  }
  layer {
    name: "rpn_big_anchor_target"
    type: "Python"
    bottom: "rpn_big_cls_score"
    bottom: "input_gt_boxes"
    bottom: "input_ignored_boxes"
    bottom: "input_im_info"
    bottom: "input_data"
    bottom: "rpn_big_cls_prob_reshape"
    top: "rpn_big_anchor_target_labels"
    top: "rpn_big_anchor_target_bbox_targets"
    top: "rpn_big_anchor_target_inside_weights"
    top: "rpn_big_anchor_target_outside_weights"
    python_param {
      module: "rpn.anchor_target_layer"
      layer: "AnchorTargetLayer"
      param_str: "{\"batchsize\": 256, \"num_classes\": 1, \"anchor_ratios\": [1.0], \"anchor_scales\": [2.5, 3.025, 3.66025, 4.4289024999999995, 5.358972025, 6.484356150249999, 7.846070941802498, 9.493745839581022, 11.487432465893036, 13.899793283730574, 16.818749873313998, 20.350687346709933, 24.62433168951902, 29.795441344318014], \"fg_fraction\": 0.5, \"tn_fraction\": 0.2, \"positive_overlap\": 0.6, \"feat_stride\": 16, \"square_targets\": true, \"anchor_shift_num_xy\": [[2, 2], [2, 2], [2, 2], [2, 2], [1, 1], [1, 1], [1, 1], [1, 1], [1, 1], [1, 1], [1, 1], [1, 1], [1, 1], [1, 1]], \"name\": \"rpn_big\", \"negative_overlap\": 0.4}"
    }
  }
  layer {
    name: "rpn_big_loss_cls"
    type: "SoftmaxWithLoss"
    bottom: "rpn_big_cls_score_reshape"
    bottom: "rpn_big_anchor_target_labels"
    top: "rpn_big_loss_cls"
    loss_weight: 1
    propagate_down: true
    propagate_down: false
    loss_param {
      ignore_label: -1
      normalization: VALID
    }
  }
  layer {
    name: "rpn_big_output_box"
    type: "Convolution"
    bottom: "rpn_big_conv2"
    top: "rpn_big_output_box"
    param {
      lr_mult: 1
    }
    param {
      lr_mult: 2
    }
    convolution_param {
      num_output: 384
      pad: 1
      kernel_size: 3
      stride: 1
      weight_filler {
        type: "gaussian"
        mean: 0
        std: 0.01
      }
      bias_filler {
        type: "constant"
      }
    }
  }
  layer {
    name: "rpn_big_output_box_relu"
    type: "ReLU"
    bottom: "rpn_big_output_box"
    top: "rpn_big_output_box"
    relu_param {
      negative_slope: 0
    }
  }
  layer {
    name: "rpn_big_bbox_pred"
    type: "Convolution"
    bottom: "rpn_big_output_box"
    top: "rpn_big_bbox_pred"
    param {
      lr_mult: 1
    }
    param {
      lr_mult: 2
    }
    convolution_param {
      num_output: 104
      pad: 0
      kernel_size: 3
      stride: 1
      weight_filler {
        type: "gaussian"
        mean: 0
        std: 0.01
      }
      bias_filler {
        type: "constant"
      }
    }
  }
  layer {
    name: "rpn_big_loss_bbox"
    type: "Python"
    bottom: "rpn_big_bbox_pred"
    bottom: "rpn_big_anchor_target_bbox_targets"
    bottom: "rpn_big_anchor_target_inside_weights"
    bottom: "rpn_big_anchor_target_outside_weights"
    top: "rpn_big_loss_bbox"
    loss_weight: 1
    python_param {
      module: "layers.smooth_l1_loss"
      layer: "SmoothL1LossLayer"
      param_str: "{\"sigma\": 3}"
    }
  }
  layer {
    name: "proposal"
    type: "Python"
    bottom: "rpn_big_cls_prob_reshape"
    bottom: "rpn_big_bbox_pred"
    bottom: "input_im_info"
    top: "rpn_rois"
    python_param {
      module: "rpn.proposal_layer"
      layer: "ProposalLayer"
      param_str: "\'feat_stride\': 16 ;\'scales\': !!python/tuple [4, 8, 16, 32]"
    }
  }
}
average_loss: 100
stepvalue: 70000
stepvalue: 120000
iter_size: 2
I0413 16:10:43.635547  8092 solver.cpp:86] Creating training net specified in net_param.
I0413 16:10:43.635958  8092 net.cpp:58] Initializing net from parameters: 
name: "GeneratedModel_13_04_2017_16_10"
state {
  phase: TRAIN
}
layer {
  name: "input"
  type: "Python"
  top: "input_data"
  top: "input_im_info"
  top: "input_gt_boxes"
  top: "input_ignored_boxes"
  python_param {
    module: "layers.roi_data_layer"
    layer: "RoIDataLayer"
    param_str: "{\"num_classes\": 2}"
  }
}
layer {
  name: "conv1_1"
  type: "Convolution"
  bottom: "input_data"
  top: "conv1_1"
  param {
    lr_mult: 0
    decay_mult: 0
  }
  param {
    lr_mult: 0
    decay_mult: 0
  }
  convolution_param {
    num_output: 64
    pad: 1
    kernel_size: 3
  }
}
layer {
  name: "relu1_1"
  type: "ReLU"
  bottom: "conv1_1"
  top: "conv1_1"
}
layer {
  name: "conv1_2"
  type: "Convolution"
  bottom: "conv1_1"
  top: "conv1_2"
  param {
    lr_mult: 0
    decay_mult: 0
  }
  param {
    lr_mult: 0
    decay_mult: 0
  }
  convolution_param {
    num_output: 64
    pad: 1
    kernel_size: 3
  }
}
layer {
  name: "relu1_2"
  type: "ReLU"
  bottom: "conv1_2"
  top: "conv1_2"
}
layer {
  name: "pool1"
  type: "Pooling"
  bottom: "conv1_2"
  top: "pool1"
  pooling_param {
    pool: MAX
    kernel_size: 2
    stride: 2
  }
}
layer {
  name: "conv2_1"
  type: "Convolution"
  bottom: "pool1"
  top: "conv2_1"
  param {
    lr_mult: 0
    decay_mult: 0
  }
  param {
    lr_mult: 0
    decay_mult: 0
  }
  convolution_param {
    num_output: 128
    pad: 1
    kernel_size: 3
  }
}
layer {
  name: "relu2_1"
  type: "ReLU"
  bottom: "conv2_1"
  top: "conv2_1"
}
layer {
  name: "conv2_2"
  type: "Convolution"
  bottom: "conv2_1"
  top: "conv2_2"
  param {
    lr_mult: 0
    decay_mult: 0
  }
  param {
    lr_mult: 0
    decay_mult: 0
  }
  convolution_param {
    num_output: 128
    pad: 1
    kernel_size: 3
  }
}
layer {
  name: "relu2_2"
  type: "ReLU"
  bottom: "conv2_2"
  top: "conv2_2"
}
layer {
  name: "pool2"
  type: "Pooling"
  bottom: "conv2_2"
  top: "pool2"
  pooling_param {
    pool: MAX
    kernel_size: 2
    stride: 2
  }
}
layer {
  name: "conv3_1"
  type: "Convolution"
  bottom: "pool2"
  top: "conv3_1"
  param {
    lr_mult: 1
  }
  param {
    lr_mult: 2
  }
  convolution_param {
    num_output: 256
    pad: 1
    kernel_size: 3
  }
}
layer {
  name: "relu3_1"
  type: "ReLU"
  bottom: "conv3_1"
  top: "conv3_1"
}
layer {
  name: "conv3_2"
  type: "Convolution"
  bottom: "conv3_1"
  top: "conv3_2"
  param {
    lr_mult: 1
  }
  param {
    lr_mult: 2
  }
  convolution_param {
    num_output: 256
    pad: 1
    kernel_size: 3
  }
}
layer {
  name: "relu3_2"
  type: "ReLU"
  bottom: "conv3_2"
  top: "conv3_2"
}
layer {
  name: "conv3_3"
  type: "Convolution"
  bottom: "conv3_2"
  top: "conv3_3"
  param {
    lr_mult: 1
  }
  param {
    lr_mult: 2
  }
  convolution_param {
    num_output: 256
    pad: 1
    kernel_size: 3
  }
}
layer {
  name: "relu3_3"
  type: "ReLU"
  bottom: "conv3_3"
  top: "conv3_3"
}
layer {
  name: "pool3"
  type: "Pooling"
  bottom: "conv3_3"
  top: "pool3"
  pooling_param {
    pool: MAX
    kernel_size: 2
    stride: 2
  }
}
layer {
  name: "conv4_1"
  type: "Convolution"
  bottom: "pool3"
  top: "conv4_1"
  param {
    lr_mult: 1
  }
  param {
    lr_mult: 2
  }
  convolution_param {
    num_output: 512
    pad: 1
    kernel_size: 3
  }
}
layer {
  name: "relu4_1"
  type: "ReLU"
  bottom: "conv4_1"
  top: "conv4_1"
}
layer {
  name: "conv4_2"
  type: "Convolution"
  bottom: "conv4_1"
  top: "conv4_2"
  param {
    lr_mult: 1
  }
  param {
    lr_mult: 2
  }
  convolution_param {
    num_output: 512
    pad: 1
    kernel_size: 3
  }
}
layer {
  name: "relu4_2"
  type: "ReLU"
  bottom: "conv4_2"
  top: "conv4_2"
}
layer {
  name: "conv4_3"
  type: "Convolution"
  bottom: "conv4_2"
  top: "conv4_3"
  param {
    lr_mult: 1
  }
  param {
    lr_mult: 2
  }
  convolution_param {
    num_output: 512
    pad: 1
    kernel_size: 3
  }
}
layer {
  name: "relu4_3"
  type: "ReLU"
  bottom: "conv4_3"
  top: "conv4_3"
}
layer {
  name: "pool4"
  type: "Pooling"
  bottom: "conv4_3"
  top: "pool4"
  pooling_param {
    pool: MAX
    kernel_size: 2
    stride: 2
  }
}
layer {
  name: "conv5_1"
  type: "Convolution"
  bottom: "pool4"
  top: "conv5_1"
  param {
    lr_mult: 1
  }
  param {
    lr_mult: 2
  }
  convolution_param {
    num_output: 512
    pad: 1
    kernel_size: 3
  }
}
layer {
  name: "relu5_1"
  type: "ReLU"
  bottom: "conv5_1"
  top: "conv5_1"
}
layer {
  name: "conv5_2"
  type: "Convolution"
  bottom: "conv5_1"
  top: "conv5_2"
  param {
    lr_mult: 1
  }
  param {
    lr_mult: 2
  }
  convolution_param {
    num_output: 512
    pad: 1
    kernel_size: 3
  }
}
layer {
  name: "relu5_2"
  type: "ReLU"
  bottom: "conv5_2"
  top: "conv5_2"
}
layer {
  name: "conv5_3"
  type: "Convolution"
  bottom: "conv5_2"
  top: "conv5_3"
  param {
    lr_mult: 1
  }
  param {
    lr_mult: 2
  }
  convolution_param {
    num_output: 512
    pad: 1
    kernel_size: 3
  }
}
layer {
  name: "relu5_3"
  type: "ReLU"
  bottom: "conv5_3"
  top: "conv5_3"
}
layer {
  name: "rpn_big_conv1"
  type: "Convolution"
  bottom: "conv5_3"
  top: "rpn_big_conv1"
  param {
    lr_mult: 1
  }
  param {
    lr_mult: 2
  }
  convolution_param {
    num_output: 512
    pad: 1
    kernel_size: 3
    stride: 1
    weight_filler {
      type: "gaussian"
      mean: 0
      std: 0.01
    }
    bias_filler {
      type: "constant"
    }
  }
}
layer {
  name: "rpn_big_conv1_relu"
  type: "ReLU"
  bottom: "rpn_big_conv1"
  top: "rpn_big_conv1"
  relu_param {
    negative_slope: 0
  }
}
layer {
  name: "rpn_big_conv2"
  type: "Convolution"
  bottom: "rpn_big_conv1"
  top: "rpn_big_conv2"
  param {
    lr_mult: 1
  }
  param {
    lr_mult: 2
  }
  convolution_param {
    num_output: 512
    pad: 1
    kernel_size: 3
    stride: 1
    weight_filler {
      type: "gaussian"
      mean: 0
      std: 0.01
    }
    bias_filler {
      type: "constant"
    }
  }
}
layer {
  name: "rpn_big_conv2_relu"
  type: "ReLU"
  bottom: "rpn_big_conv2"
  top: "rpn_big_conv2"
  relu_param {
    negative_slope: 0
  }
}
layer {
  name: "rpn_big_conv2_drop"
  type: "Dropout"
  bottom: "rpn_big_conv2"
  top: "rpn_big_conv2"
  dropout_param {
    dropout_ratio: 0.3
  }
}
layer {
  name: "rpn_big_output_cls"
  type: "Convolution"
  bottom: "rpn_big_conv2"
  top: "rpn_big_output_cls"
  param {
    lr_mult: 1
  }
  param {
    lr_mult: 2
  }
  convolution_param {
    num_output: 384
    pad: 1
    kernel_size: 3
    stride: 1
    weight_filler {
      type: "gaussian"
      mean: 0
      std: 0.01
    }
    bias_filler {
      type: "constant"
    }
  }
}
layer {
  name: "rpn_big_output_cls_relu"
  type: "ReLU"
  bottom: "rpn_big_output_cls"
  top: "rpn_big_output_cls"
  relu_param {
    negative_slope: 0
  }
}
layer {
  name: "rpn_big_cls_score"
  type: "Convolution"
  bottom: "rpn_big_output_cls"
  top: "rpn_big_cls_score"
  param {
    lr_mult: 1
  }
  param {
    lr_mult: 2
  }
  convolution_param {
    num_output: 52
    pad: 0
    kernel_size: 3
    stride: 1
    weight_filler {
      type: "gaussian"
      mean: 0
      std: 0.01
    }
    bias_filler {
      type: "constant"
    }
  }
}
layer {
  name: "rpn_big_cls_score_reshape"
  type: "Reshape"
  bottom: "rpn_big_cls_score"
  top: "rpn_big_cls_score_reshape"
  reshape_param {
    shape {
      dim: 0
      dim: 2
      dim: -1
      dim: 0
    }
  }
}
layer {
  name: "rpn_big_cls_prob"
  type: "Softmax"
  bottom: "rpn_big_cls_score_reshape"
  top: "rpn_big_cls_prob"
}
layer {
  name: "rpn_big_cls_prob_reshape"
  type: "Reshape"
  bottom: "rpn_big_cls_prob"
  top: "rpn_big_cls_prob_reshape"
  reshape_param {
    shape {
      dim: 0
      dim: 52
      dim: -1
      dim: 0
    }
  }
}
layer {
  name: "rpn_big_anchor_target"
  type: "Python"
  bottom: "rpn_big_cls_score"
  bottom: "input_gt_boxes"
  bottom: "input_ignored_boxes"
  bottom: "input_im_info"
  bottom: "input_data"
  bottom: "rpn_big_cls_prob_reshape"
  top: "rpn_big_anchor_target_labels"
  top: "rpn_big_anchor_target_bbox_targets"
  top: "rpn_big_anchor_target_inside_weights"
  top: "rpn_big_anchor_target_outside_weights"
  python_param {
    module: "rpn.anchor_target_layer"
    layer: "AnchorTargetLayer"
    param_str: "{\"batchsize\": 256, \"num_classes\": 1, \"anchor_ratios\": [1.0], \"anchor_scales\": [2.5, 3.025, 3.66025, 4.4289024999999995, 5.358972025, 6.484356150249999, 7.846070941802498, 9.493745839581022, 11.487432465893036, 13.899793283730574, 16.818749873313998, 20.350687346709933, 24.62433168951902, 29.795441344318014], \"fg_fraction\": 0.5, \"tn_fraction\": 0.2, \"positive_overlap\": 0.6, \"feat_stride\": 16, \"square_targets\": true, \"anchor_shift_num_xy\": [[2, 2], [2, 2], [2, 2], [2, 2], [1, 1], [1, 1], [1, 1], [1, 1], [1, 1], [1, 1], [1, 1], [1, 1], [1, 1], [1, 1]], \"name\": \"rpn_big\", \"negative_overlap\": 0.4}"
  }
}
layer {
  name: "rpn_big_loss_cls"
  type: "SoftmaxWithLoss"
  bottom: "rpn_big_cls_score_reshape"
  bottom: "rpn_big_anchor_target_labels"
  top: "rpn_big_loss_cls"
  loss_weight: 1
  propagate_down: true
  propagate_down: false
  loss_param {
    ignore_label: -1
    normalization: VALID
  }
}
layer {
  name: "rpn_big_output_box"
  type: "Convolution"
  bottom: "rpn_big_conv2"
  top: "rpn_big_output_box"
  param {
    lr_mult: 1
  }
  param {
    lr_mult: 2
  }
  convolution_param {
    num_output: 384
    pad: 1
    kernel_size: 3
    stride: 1
    weight_filler {
      type: "gaussian"
      mean: 0
      std: 0.01
    }
    bias_filler {
      type: "constant"
    }
  }
}
layer {
  name: "rpn_big_output_box_relu"
  type: "ReLU"
  bottom: "rpn_big_output_box"
  top: "rpn_big_output_box"
  relu_param {
    negative_slope: 0
  }
}
layer {
  name: "rpn_big_bbox_pred"
  type: "Convolution"
  bottom: "rpn_big_output_box"
  top: "rpn_big_bbox_pred"
  param {
    lr_mult: 1
  }
  param {
    lr_mult: 2
  }
  convolution_param {
    num_output: 104
    pad: 0
    kernel_size: 3
    stride: 1
    weight_filler {
      type: "gaussian"
      mean: 0
      std: 0.01
    }
    bias_filler {
      type: "constant"
    }
  }
}
layer {
  name: "rpn_big_loss_bbox"
  type: "Python"
  bottom: "rpn_big_bbox_pred"
  bottom: "rpn_big_anchor_target_bbox_targets"
  bottom: "rpn_big_anchor_target_inside_weights"
  bottom: "rpn_big_anchor_target_outside_weights"
  top: "rpn_big_loss_bbox"
  loss_weight: 1
  python_param {
    module: "layers.smooth_l1_loss"
    layer: "SmoothL1LossLayer"
    param_str: "{\"sigma\": 3}"
  }
}
layer {
  name: "proposal"
  type: "Python"
  bottom: "rpn_big_cls_prob_reshape"
  bottom: "rpn_big_bbox_pred"
  bottom: "input_im_info"
  top: "rpn_rois"
  python_param {
    module: "rpn.proposal_layer"
    layer: "ProposalLayer"
    param_str: "\'feat_stride\': 16 ;\'scales\': !!python/tuple [4, 8, 16, 32]"
  }
}
I0413 16:10:43.645012  8092 layer_factory.hpp:77] Creating layer input
I0413 16:10:43.647572  8092 net.cpp:100] Creating Layer input
I0413 16:10:43.647596  8092 net.cpp:408] input -> input_data
I0413 16:10:43.647613  8092 net.cpp:408] input -> input_im_info
I0413 16:10:43.647624  8092 net.cpp:408] input -> input_gt_boxes
I0413 16:10:43.647635  8092 net.cpp:408] input -> input_ignored_boxes
RoiDataLayer: name_to_top: {'im_info': 1, 'data': 0, 'ignored_boxes': 3, 'gt_boxes': 2}
I0413 16:10:43.976176  8092 net.cpp:150] Setting up input
I0413 16:10:43.976210  8092 net.cpp:157] Top shape: 1 3 1000 1500 (4500000)
I0413 16:10:43.976218  8092 net.cpp:157] Top shape: 1 3 (3)
I0413 16:10:43.976225  8092 net.cpp:157] Top shape: 1 5 (5)
I0413 16:10:43.976231  8092 net.cpp:157] Top shape: 1 5 (5)
I0413 16:10:43.976235  8092 net.cpp:165] Memory required for data: 18000052
I0413 16:10:43.976245  8092 layer_factory.hpp:77] Creating layer input_data_input_0_split
I0413 16:10:43.976263  8092 net.cpp:100] Creating Layer input_data_input_0_split
I0413 16:10:43.976270  8092 net.cpp:434] input_data_input_0_split <- input_data
I0413 16:10:43.976282  8092 net.cpp:408] input_data_input_0_split -> input_data_input_0_split_0
I0413 16:10:43.976300  8092 net.cpp:408] input_data_input_0_split -> input_data_input_0_split_1
I0413 16:10:43.976349  8092 net.cpp:150] Setting up input_data_input_0_split
I0413 16:10:43.976363  8092 net.cpp:157] Top shape: 1 3 1000 1500 (4500000)
I0413 16:10:43.976372  8092 net.cpp:157] Top shape: 1 3 1000 1500 (4500000)
I0413 16:10:43.976377  8092 net.cpp:165] Memory required for data: 54000052
I0413 16:10:43.976384  8092 layer_factory.hpp:77] Creating layer input_im_info_input_1_split
I0413 16:10:43.976394  8092 net.cpp:100] Creating Layer input_im_info_input_1_split
I0413 16:10:43.976402  8092 net.cpp:434] input_im_info_input_1_split <- input_im_info
I0413 16:10:43.976410  8092 net.cpp:408] input_im_info_input_1_split -> input_im_info_input_1_split_0
I0413 16:10:43.976423  8092 net.cpp:408] input_im_info_input_1_split -> input_im_info_input_1_split_1
I0413 16:10:43.976462  8092 net.cpp:150] Setting up input_im_info_input_1_split
I0413 16:10:43.976472  8092 net.cpp:157] Top shape: 1 3 (3)
I0413 16:10:43.976480  8092 net.cpp:157] Top shape: 1 3 (3)
I0413 16:10:43.976485  8092 net.cpp:165] Memory required for data: 54000076
I0413 16:10:43.976492  8092 layer_factory.hpp:77] Creating layer conv1_1
I0413 16:10:43.976508  8092 net.cpp:100] Creating Layer conv1_1
I0413 16:10:43.976514  8092 net.cpp:434] conv1_1 <- input_data_input_0_split_0
I0413 16:10:43.976526  8092 net.cpp:408] conv1_1 -> conv1_1
I0413 16:10:43.979632  8092 net.cpp:150] Setting up conv1_1
I0413 16:10:43.979671  8092 net.cpp:157] Top shape: 1 64 1000 1500 (96000000)
I0413 16:10:43.979677  8092 net.cpp:165] Memory required for data: 438000076
I0413 16:10:43.979701  8092 layer_factory.hpp:77] Creating layer relu1_1
I0413 16:10:43.979718  8092 net.cpp:100] Creating Layer relu1_1
I0413 16:10:43.979727  8092 net.cpp:434] relu1_1 <- conv1_1
I0413 16:10:43.979740  8092 net.cpp:395] relu1_1 -> conv1_1 (in-place)
I0413 16:10:43.979758  8092 net.cpp:150] Setting up relu1_1
I0413 16:10:43.979769  8092 net.cpp:157] Top shape: 1 64 1000 1500 (96000000)
I0413 16:10:43.979774  8092 net.cpp:165] Memory required for data: 822000076
I0413 16:10:43.979780  8092 layer_factory.hpp:77] Creating layer conv1_2
I0413 16:10:43.979794  8092 net.cpp:100] Creating Layer conv1_2
I0413 16:10:43.979801  8092 net.cpp:434] conv1_2 <- conv1_1
I0413 16:10:43.979811  8092 net.cpp:408] conv1_2 -> conv1_2
I0413 16:10:43.983124  8092 net.cpp:150] Setting up conv1_2
I0413 16:10:43.983165  8092 net.cpp:157] Top shape: 1 64 1000 1500 (96000000)
I0413 16:10:43.983171  8092 net.cpp:165] Memory required for data: 1206000076
I0413 16:10:43.983194  8092 layer_factory.hpp:77] Creating layer relu1_2
I0413 16:10:43.983212  8092 net.cpp:100] Creating Layer relu1_2
I0413 16:10:43.983220  8092 net.cpp:434] relu1_2 <- conv1_2
I0413 16:10:43.983232  8092 net.cpp:395] relu1_2 -> conv1_2 (in-place)
I0413 16:10:43.983248  8092 net.cpp:150] Setting up relu1_2
I0413 16:10:43.983260  8092 net.cpp:157] Top shape: 1 64 1000 1500 (96000000)
I0413 16:10:43.983266  8092 net.cpp:165] Memory required for data: 1590000076
I0413 16:10:43.983273  8092 layer_factory.hpp:77] Creating layer pool1
I0413 16:10:43.983283  8092 net.cpp:100] Creating Layer pool1
I0413 16:10:43.983289  8092 net.cpp:434] pool1 <- conv1_2
I0413 16:10:43.983299  8092 net.cpp:408] pool1 -> pool1
I0413 16:10:43.983392  8092 net.cpp:150] Setting up pool1
I0413 16:10:43.983407  8092 net.cpp:157] Top shape: 1 64 500 750 (24000000)
I0413 16:10:43.983413  8092 net.cpp:165] Memory required for data: 1686000076
I0413 16:10:43.983420  8092 layer_factory.hpp:77] Creating layer conv2_1
I0413 16:10:43.983440  8092 net.cpp:100] Creating Layer conv2_1
I0413 16:10:43.983450  8092 net.cpp:434] conv2_1 <- pool1
I0413 16:10:43.983460  8092 net.cpp:408] conv2_1 -> conv2_1
I0413 16:10:43.984819  8092 net.cpp:150] Setting up conv2_1
I0413 16:10:43.984843  8092 net.cpp:157] Top shape: 1 128 500 750 (48000000)
I0413 16:10:43.984848  8092 net.cpp:165] Memory required for data: 1878000076
I0413 16:10:43.984874  8092 layer_factory.hpp:77] Creating layer relu2_1
I0413 16:10:43.984889  8092 net.cpp:100] Creating Layer relu2_1
I0413 16:10:43.984899  8092 net.cpp:434] relu2_1 <- conv2_1
I0413 16:10:43.984920  8092 net.cpp:395] relu2_1 -> conv2_1 (in-place)
I0413 16:10:43.984935  8092 net.cpp:150] Setting up relu2_1
I0413 16:10:43.984943  8092 net.cpp:157] Top shape: 1 128 500 750 (48000000)
I0413 16:10:43.984948  8092 net.cpp:165] Memory required for data: 2070000076
I0413 16:10:43.984954  8092 layer_factory.hpp:77] Creating layer conv2_2
I0413 16:10:43.984967  8092 net.cpp:100] Creating Layer conv2_2
I0413 16:10:43.984973  8092 net.cpp:434] conv2_2 <- conv2_1
I0413 16:10:43.984982  8092 net.cpp:408] conv2_2 -> conv2_2
I0413 16:10:43.986043  8092 net.cpp:150] Setting up conv2_2
I0413 16:10:43.986066  8092 net.cpp:157] Top shape: 1 128 500 750 (48000000)
I0413 16:10:43.986070  8092 net.cpp:165] Memory required for data: 2262000076
I0413 16:10:43.986083  8092 layer_factory.hpp:77] Creating layer relu2_2
I0413 16:10:43.986094  8092 net.cpp:100] Creating Layer relu2_2
I0413 16:10:43.986102  8092 net.cpp:434] relu2_2 <- conv2_2
I0413 16:10:43.986114  8092 net.cpp:395] relu2_2 -> conv2_2 (in-place)
I0413 16:10:43.986126  8092 net.cpp:150] Setting up relu2_2
I0413 16:10:43.986135  8092 net.cpp:157] Top shape: 1 128 500 750 (48000000)
I0413 16:10:43.986141  8092 net.cpp:165] Memory required for data: 2454000076
I0413 16:10:43.986146  8092 layer_factory.hpp:77] Creating layer pool2
I0413 16:10:43.986155  8092 net.cpp:100] Creating Layer pool2
I0413 16:10:43.986161  8092 net.cpp:434] pool2 <- conv2_2
I0413 16:10:43.986171  8092 net.cpp:408] pool2 -> pool2
I0413 16:10:43.986227  8092 net.cpp:150] Setting up pool2
I0413 16:10:43.986238  8092 net.cpp:157] Top shape: 1 128 250 375 (12000000)
I0413 16:10:43.986246  8092 net.cpp:165] Memory required for data: 2502000076
I0413 16:10:43.986251  8092 layer_factory.hpp:77] Creating layer conv3_1
I0413 16:10:43.986264  8092 net.cpp:100] Creating Layer conv3_1
I0413 16:10:43.986271  8092 net.cpp:434] conv3_1 <- pool2
I0413 16:10:43.986284  8092 net.cpp:408] conv3_1 -> conv3_1
I0413 16:10:43.987561  8092 net.cpp:150] Setting up conv3_1
I0413 16:10:43.987589  8092 net.cpp:157] Top shape: 1 256 250 375 (24000000)
I0413 16:10:43.987593  8092 net.cpp:165] Memory required for data: 2598000076
I0413 16:10:43.987612  8092 layer_factory.hpp:77] Creating layer relu3_1
I0413 16:10:43.987627  8092 net.cpp:100] Creating Layer relu3_1
I0413 16:10:43.987633  8092 net.cpp:434] relu3_1 <- conv3_1
I0413 16:10:43.987643  8092 net.cpp:395] relu3_1 -> conv3_1 (in-place)
I0413 16:10:43.987655  8092 net.cpp:150] Setting up relu3_1
I0413 16:10:43.987663  8092 net.cpp:157] Top shape: 1 256 250 375 (24000000)
I0413 16:10:43.987668  8092 net.cpp:165] Memory required for data: 2694000076
I0413 16:10:43.987673  8092 layer_factory.hpp:77] Creating layer conv3_2
I0413 16:10:43.987687  8092 net.cpp:100] Creating Layer conv3_2
I0413 16:10:43.987697  8092 net.cpp:434] conv3_2 <- conv3_1
I0413 16:10:43.987707  8092 net.cpp:408] conv3_2 -> conv3_2
I0413 16:10:43.989178  8092 net.cpp:150] Setting up conv3_2
I0413 16:10:43.989210  8092 net.cpp:157] Top shape: 1 256 250 375 (24000000)
I0413 16:10:43.989214  8092 net.cpp:165] Memory required for data: 2790000076
I0413 16:10:43.989228  8092 layer_factory.hpp:77] Creating layer relu3_2
I0413 16:10:43.989244  8092 net.cpp:100] Creating Layer relu3_2
I0413 16:10:43.989253  8092 net.cpp:434] relu3_2 <- conv3_2
I0413 16:10:43.989265  8092 net.cpp:395] relu3_2 -> conv3_2 (in-place)
I0413 16:10:43.989280  8092 net.cpp:150] Setting up relu3_2
I0413 16:10:43.989289  8092 net.cpp:157] Top shape: 1 256 250 375 (24000000)
I0413 16:10:43.989295  8092 net.cpp:165] Memory required for data: 2886000076
I0413 16:10:43.989300  8092 layer_factory.hpp:77] Creating layer conv3_3
I0413 16:10:43.989312  8092 net.cpp:100] Creating Layer conv3_3
I0413 16:10:43.989320  8092 net.cpp:434] conv3_3 <- conv3_2
I0413 16:10:43.989331  8092 net.cpp:408] conv3_3 -> conv3_3
I0413 16:10:43.991243  8092 net.cpp:150] Setting up conv3_3
I0413 16:10:43.991274  8092 net.cpp:157] Top shape: 1 256 250 375 (24000000)
I0413 16:10:43.991277  8092 net.cpp:165] Memory required for data: 2982000076
I0413 16:10:43.991291  8092 layer_factory.hpp:77] Creating layer relu3_3
I0413 16:10:43.991305  8092 net.cpp:100] Creating Layer relu3_3
I0413 16:10:43.991314  8092 net.cpp:434] relu3_3 <- conv3_3
I0413 16:10:43.991327  8092 net.cpp:395] relu3_3 -> conv3_3 (in-place)
I0413 16:10:43.991341  8092 net.cpp:150] Setting up relu3_3
I0413 16:10:43.991349  8092 net.cpp:157] Top shape: 1 256 250 375 (24000000)
I0413 16:10:43.991354  8092 net.cpp:165] Memory required for data: 3078000076
I0413 16:10:43.991359  8092 layer_factory.hpp:77] Creating layer pool3
I0413 16:10:43.991371  8092 net.cpp:100] Creating Layer pool3
I0413 16:10:43.991377  8092 net.cpp:434] pool3 <- conv3_3
I0413 16:10:43.991385  8092 net.cpp:408] pool3 -> pool3
I0413 16:10:43.991441  8092 net.cpp:150] Setting up pool3
I0413 16:10:43.991453  8092 net.cpp:157] Top shape: 1 256 125 188 (6016000)
I0413 16:10:43.991459  8092 net.cpp:165] Memory required for data: 3102064076
I0413 16:10:43.991466  8092 layer_factory.hpp:77] Creating layer conv4_1
I0413 16:10:43.991478  8092 net.cpp:100] Creating Layer conv4_1
I0413 16:10:43.991485  8092 net.cpp:434] conv4_1 <- pool3
I0413 16:10:43.991497  8092 net.cpp:408] conv4_1 -> conv4_1
I0413 16:10:43.994444  8092 net.cpp:150] Setting up conv4_1
I0413 16:10:43.994478  8092 net.cpp:157] Top shape: 1 512 125 188 (12032000)
I0413 16:10:43.994482  8092 net.cpp:165] Memory required for data: 3150192076
I0413 16:10:43.994495  8092 layer_factory.hpp:77] Creating layer relu4_1
I0413 16:10:43.994508  8092 net.cpp:100] Creating Layer relu4_1
I0413 16:10:43.994518  8092 net.cpp:434] relu4_1 <- conv4_1
I0413 16:10:43.994529  8092 net.cpp:395] relu4_1 -> conv4_1 (in-place)
I0413 16:10:43.994544  8092 net.cpp:150] Setting up relu4_1
I0413 16:10:43.994551  8092 net.cpp:157] Top shape: 1 512 125 188 (12032000)
I0413 16:10:43.994557  8092 net.cpp:165] Memory required for data: 3198320076
I0413 16:10:43.994562  8092 layer_factory.hpp:77] Creating layer conv4_2
I0413 16:10:43.994576  8092 net.cpp:100] Creating Layer conv4_2
I0413 16:10:43.994583  8092 net.cpp:434] conv4_2 <- conv4_1
I0413 16:10:43.994595  8092 net.cpp:408] conv4_2 -> conv4_2
I0413 16:10:43.998924  8092 net.cpp:150] Setting up conv4_2
I0413 16:10:43.998960  8092 net.cpp:157] Top shape: 1 512 125 188 (12032000)
I0413 16:10:43.998963  8092 net.cpp:165] Memory required for data: 3246448076
I0413 16:10:43.998981  8092 layer_factory.hpp:77] Creating layer relu4_2
I0413 16:10:43.998991  8092 net.cpp:100] Creating Layer relu4_2
I0413 16:10:43.999006  8092 net.cpp:434] relu4_2 <- conv4_2
I0413 16:10:43.999019  8092 net.cpp:395] relu4_2 -> conv4_2 (in-place)
I0413 16:10:43.999035  8092 net.cpp:150] Setting up relu4_2
I0413 16:10:43.999045  8092 net.cpp:157] Top shape: 1 512 125 188 (12032000)
I0413 16:10:43.999050  8092 net.cpp:165] Memory required for data: 3294576076
I0413 16:10:43.999056  8092 layer_factory.hpp:77] Creating layer conv4_3
I0413 16:10:43.999070  8092 net.cpp:100] Creating Layer conv4_3
I0413 16:10:43.999075  8092 net.cpp:434] conv4_3 <- conv4_2
I0413 16:10:43.999081  8092 net.cpp:408] conv4_3 -> conv4_3
I0413 16:10:44.003971  8092 net.cpp:150] Setting up conv4_3
I0413 16:10:44.004007  8092 net.cpp:157] Top shape: 1 512 125 188 (12032000)
I0413 16:10:44.004011  8092 net.cpp:165] Memory required for data: 3342704076
I0413 16:10:44.004025  8092 layer_factory.hpp:77] Creating layer relu4_3
I0413 16:10:44.004040  8092 net.cpp:100] Creating Layer relu4_3
I0413 16:10:44.004050  8092 net.cpp:434] relu4_3 <- conv4_3
I0413 16:10:44.004060  8092 net.cpp:395] relu4_3 -> conv4_3 (in-place)
I0413 16:10:44.004073  8092 net.cpp:150] Setting up relu4_3
I0413 16:10:44.004081  8092 net.cpp:157] Top shape: 1 512 125 188 (12032000)
I0413 16:10:44.004086  8092 net.cpp:165] Memory required for data: 3390832076
I0413 16:10:44.004091  8092 layer_factory.hpp:77] Creating layer pool4
I0413 16:10:44.004101  8092 net.cpp:100] Creating Layer pool4
I0413 16:10:44.004107  8092 net.cpp:434] pool4 <- conv4_3
I0413 16:10:44.004117  8092 net.cpp:408] pool4 -> pool4
I0413 16:10:44.004168  8092 net.cpp:150] Setting up pool4
I0413 16:10:44.004180  8092 net.cpp:157] Top shape: 1 512 63 94 (3032064)
I0413 16:10:44.004185  8092 net.cpp:165] Memory required for data: 3402960332
I0413 16:10:44.004190  8092 layer_factory.hpp:77] Creating layer conv5_1
I0413 16:10:44.004205  8092 net.cpp:100] Creating Layer conv5_1
I0413 16:10:44.004211  8092 net.cpp:434] conv5_1 <- pool4
I0413 16:10:44.004220  8092 net.cpp:408] conv5_1 -> conv5_1
I0413 16:10:44.010532  8092 net.cpp:150] Setting up conv5_1
I0413 16:10:44.010570  8092 net.cpp:157] Top shape: 1 512 63 94 (3032064)
I0413 16:10:44.010576  8092 net.cpp:165] Memory required for data: 3415088588
I0413 16:10:44.010591  8092 layer_factory.hpp:77] Creating layer relu5_1
I0413 16:10:44.010607  8092 net.cpp:100] Creating Layer relu5_1
I0413 16:10:44.010615  8092 net.cpp:434] relu5_1 <- conv5_1
I0413 16:10:44.010625  8092 net.cpp:395] relu5_1 -> conv5_1 (in-place)
I0413 16:10:44.010638  8092 net.cpp:150] Setting up relu5_1
I0413 16:10:44.010645  8092 net.cpp:157] Top shape: 1 512 63 94 (3032064)
I0413 16:10:44.010651  8092 net.cpp:165] Memory required for data: 3427216844
I0413 16:10:44.010658  8092 layer_factory.hpp:77] Creating layer conv5_2
I0413 16:10:44.010673  8092 net.cpp:100] Creating Layer conv5_2
I0413 16:10:44.010692  8092 net.cpp:434] conv5_2 <- conv5_1
I0413 16:10:44.010702  8092 net.cpp:408] conv5_2 -> conv5_2
I0413 16:10:44.014928  8092 net.cpp:150] Setting up conv5_2
I0413 16:10:44.014964  8092 net.cpp:157] Top shape: 1 512 63 94 (3032064)
I0413 16:10:44.014977  8092 net.cpp:165] Memory required for data: 3439345100
I0413 16:10:44.014988  8092 layer_factory.hpp:77] Creating layer relu5_2
I0413 16:10:44.014997  8092 net.cpp:100] Creating Layer relu5_2
I0413 16:10:44.015002  8092 net.cpp:434] relu5_2 <- conv5_2
I0413 16:10:44.015012  8092 net.cpp:395] relu5_2 -> conv5_2 (in-place)
I0413 16:10:44.015022  8092 net.cpp:150] Setting up relu5_2
I0413 16:10:44.015027  8092 net.cpp:157] Top shape: 1 512 63 94 (3032064)
I0413 16:10:44.015030  8092 net.cpp:165] Memory required for data: 3451473356
I0413 16:10:44.015033  8092 layer_factory.hpp:77] Creating layer conv5_3
I0413 16:10:44.015043  8092 net.cpp:100] Creating Layer conv5_3
I0413 16:10:44.015045  8092 net.cpp:434] conv5_3 <- conv5_2
I0413 16:10:44.015051  8092 net.cpp:408] conv5_3 -> conv5_3
I0413 16:10:44.019515  8092 net.cpp:150] Setting up conv5_3
I0413 16:10:44.019554  8092 net.cpp:157] Top shape: 1 512 63 94 (3032064)
I0413 16:10:44.019562  8092 net.cpp:165] Memory required for data: 3463601612
I0413 16:10:44.019577  8092 layer_factory.hpp:77] Creating layer relu5_3
I0413 16:10:44.019599  8092 net.cpp:100] Creating Layer relu5_3
I0413 16:10:44.019608  8092 net.cpp:434] relu5_3 <- conv5_3
I0413 16:10:44.019618  8092 net.cpp:395] relu5_3 -> conv5_3 (in-place)
I0413 16:10:44.019634  8092 net.cpp:150] Setting up relu5_3
I0413 16:10:44.019646  8092 net.cpp:157] Top shape: 1 512 63 94 (3032064)
I0413 16:10:44.019651  8092 net.cpp:165] Memory required for data: 3475729868
I0413 16:10:44.019657  8092 layer_factory.hpp:77] Creating layer rpn_big_conv1
I0413 16:10:44.019672  8092 net.cpp:100] Creating Layer rpn_big_conv1
I0413 16:10:44.019678  8092 net.cpp:434] rpn_big_conv1 <- conv5_3
I0413 16:10:44.019691  8092 net.cpp:408] rpn_big_conv1 -> rpn_big_conv1
I0413 16:10:44.046057  8092 net.cpp:150] Setting up rpn_big_conv1
I0413 16:10:44.046087  8092 net.cpp:157] Top shape: 1 512 63 94 (3032064)
I0413 16:10:44.046098  8092 net.cpp:165] Memory required for data: 3487858124
I0413 16:10:44.046108  8092 layer_factory.hpp:77] Creating layer rpn_big_conv1_relu
I0413 16:10:44.046119  8092 net.cpp:100] Creating Layer rpn_big_conv1_relu
I0413 16:10:44.046124  8092 net.cpp:434] rpn_big_conv1_relu <- rpn_big_conv1
I0413 16:10:44.046133  8092 net.cpp:395] rpn_big_conv1_relu -> rpn_big_conv1 (in-place)
I0413 16:10:44.046144  8092 net.cpp:150] Setting up rpn_big_conv1_relu
I0413 16:10:44.046149  8092 net.cpp:157] Top shape: 1 512 63 94 (3032064)
I0413 16:10:44.046152  8092 net.cpp:165] Memory required for data: 3499986380
I0413 16:10:44.046155  8092 layer_factory.hpp:77] Creating layer rpn_big_conv2
I0413 16:10:44.046169  8092 net.cpp:100] Creating Layer rpn_big_conv2
I0413 16:10:44.046175  8092 net.cpp:434] rpn_big_conv2 <- rpn_big_conv1
I0413 16:10:44.046181  8092 net.cpp:408] rpn_big_conv2 -> rpn_big_conv2
I0413 16:10:44.073218  8092 net.cpp:150] Setting up rpn_big_conv2
I0413 16:10:44.073247  8092 net.cpp:157] Top shape: 1 512 63 94 (3032064)
I0413 16:10:44.073259  8092 net.cpp:165] Memory required for data: 3512114636
I0413 16:10:44.073271  8092 layer_factory.hpp:77] Creating layer rpn_big_conv2_relu
I0413 16:10:44.073282  8092 net.cpp:100] Creating Layer rpn_big_conv2_relu
I0413 16:10:44.073287  8092 net.cpp:434] rpn_big_conv2_relu <- rpn_big_conv2
I0413 16:10:44.073294  8092 net.cpp:395] rpn_big_conv2_relu -> rpn_big_conv2 (in-place)
I0413 16:10:44.073305  8092 net.cpp:150] Setting up rpn_big_conv2_relu
I0413 16:10:44.073309  8092 net.cpp:157] Top shape: 1 512 63 94 (3032064)
I0413 16:10:44.073312  8092 net.cpp:165] Memory required for data: 3524242892
I0413 16:10:44.073315  8092 layer_factory.hpp:77] Creating layer rpn_big_conv2_drop
I0413 16:10:44.073323  8092 net.cpp:100] Creating Layer rpn_big_conv2_drop
I0413 16:10:44.073325  8092 net.cpp:434] rpn_big_conv2_drop <- rpn_big_conv2
I0413 16:10:44.073331  8092 net.cpp:395] rpn_big_conv2_drop -> rpn_big_conv2 (in-place)
I0413 16:10:44.073352  8092 net.cpp:150] Setting up rpn_big_conv2_drop
I0413 16:10:44.073359  8092 net.cpp:157] Top shape: 1 512 63 94 (3032064)
I0413 16:10:44.073361  8092 net.cpp:165] Memory required for data: 3536371148
I0413 16:10:44.073364  8092 layer_factory.hpp:77] Creating layer rpn_big_conv2_rpn_big_conv2_drop_0_split
I0413 16:10:44.073371  8092 net.cpp:100] Creating Layer rpn_big_conv2_rpn_big_conv2_drop_0_split
I0413 16:10:44.073375  8092 net.cpp:434] rpn_big_conv2_rpn_big_conv2_drop_0_split <- rpn_big_conv2
I0413 16:10:44.073380  8092 net.cpp:408] rpn_big_conv2_rpn_big_conv2_drop_0_split -> rpn_big_conv2_rpn_big_conv2_drop_0_split_0
I0413 16:10:44.073388  8092 net.cpp:408] rpn_big_conv2_rpn_big_conv2_drop_0_split -> rpn_big_conv2_rpn_big_conv2_drop_0_split_1
I0413 16:10:44.073420  8092 net.cpp:150] Setting up rpn_big_conv2_rpn_big_conv2_drop_0_split
I0413 16:10:44.073428  8092 net.cpp:157] Top shape: 1 512 63 94 (3032064)
I0413 16:10:44.073432  8092 net.cpp:157] Top shape: 1 512 63 94 (3032064)
I0413 16:10:44.073436  8092 net.cpp:165] Memory required for data: 3560627660
I0413 16:10:44.073438  8092 layer_factory.hpp:77] Creating layer rpn_big_output_cls
I0413 16:10:44.073451  8092 net.cpp:100] Creating Layer rpn_big_output_cls
I0413 16:10:44.073454  8092 net.cpp:434] rpn_big_output_cls <- rpn_big_conv2_rpn_big_conv2_drop_0_split_0
I0413 16:10:44.073460  8092 net.cpp:408] rpn_big_output_cls -> rpn_big_output_cls
I0413 16:10:44.093252  8092 net.cpp:150] Setting up rpn_big_output_cls
I0413 16:10:44.093281  8092 net.cpp:157] Top shape: 1 384 63 94 (2274048)
I0413 16:10:44.093294  8092 net.cpp:165] Memory required for data: 3569723852
I0413 16:10:44.093304  8092 layer_factory.hpp:77] Creating layer rpn_big_output_cls_relu
I0413 16:10:44.093315  8092 net.cpp:100] Creating Layer rpn_big_output_cls_relu
I0413 16:10:44.093320  8092 net.cpp:434] rpn_big_output_cls_relu <- rpn_big_output_cls
I0413 16:10:44.093329  8092 net.cpp:395] rpn_big_output_cls_relu -> rpn_big_output_cls (in-place)
I0413 16:10:44.093339  8092 net.cpp:150] Setting up rpn_big_output_cls_relu
I0413 16:10:44.093344  8092 net.cpp:157] Top shape: 1 384 63 94 (2274048)
I0413 16:10:44.093348  8092 net.cpp:165] Memory required for data: 3578820044
I0413 16:10:44.093350  8092 layer_factory.hpp:77] Creating layer rpn_big_cls_score
I0413 16:10:44.093360  8092 net.cpp:100] Creating Layer rpn_big_cls_score
I0413 16:10:44.093372  8092 net.cpp:434] rpn_big_cls_score <- rpn_big_output_cls
I0413 16:10:44.093380  8092 net.cpp:408] rpn_big_cls_score -> rpn_big_cls_score
I0413 16:10:44.095654  8092 net.cpp:150] Setting up rpn_big_cls_score
I0413 16:10:44.095667  8092 net.cpp:157] Top shape: 1 52 61 92 (291824)
I0413 16:10:44.095670  8092 net.cpp:165] Memory required for data: 3579987340
I0413 16:10:44.095693  8092 layer_factory.hpp:77] Creating layer rpn_big_cls_score_rpn_big_cls_score_0_split
I0413 16:10:44.095702  8092 net.cpp:100] Creating Layer rpn_big_cls_score_rpn_big_cls_score_0_split
I0413 16:10:44.095706  8092 net.cpp:434] rpn_big_cls_score_rpn_big_cls_score_0_split <- rpn_big_cls_score
I0413 16:10:44.095712  8092 net.cpp:408] rpn_big_cls_score_rpn_big_cls_score_0_split -> rpn_big_cls_score_rpn_big_cls_score_0_split_0
I0413 16:10:44.095719  8092 net.cpp:408] rpn_big_cls_score_rpn_big_cls_score_0_split -> rpn_big_cls_score_rpn_big_cls_score_0_split_1
I0413 16:10:44.095758  8092 net.cpp:150] Setting up rpn_big_cls_score_rpn_big_cls_score_0_split
I0413 16:10:44.095767  8092 net.cpp:157] Top shape: 1 52 61 92 (291824)
I0413 16:10:44.095770  8092 net.cpp:157] Top shape: 1 52 61 92 (291824)
I0413 16:10:44.095773  8092 net.cpp:165] Memory required for data: 3582321932
I0413 16:10:44.095777  8092 layer_factory.hpp:77] Creating layer rpn_big_cls_score_reshape
I0413 16:10:44.095784  8092 net.cpp:100] Creating Layer rpn_big_cls_score_reshape
I0413 16:10:44.095788  8092 net.cpp:434] rpn_big_cls_score_reshape <- rpn_big_cls_score_rpn_big_cls_score_0_split_0
I0413 16:10:44.095794  8092 net.cpp:408] rpn_big_cls_score_reshape -> rpn_big_cls_score_reshape
I0413 16:10:44.095823  8092 net.cpp:150] Setting up rpn_big_cls_score_reshape
I0413 16:10:44.095829  8092 net.cpp:157] Top shape: 1 2 1586 92 (291824)
I0413 16:10:44.095832  8092 net.cpp:165] Memory required for data: 3583489228
I0413 16:10:44.095835  8092 layer_factory.hpp:77] Creating layer rpn_big_cls_score_reshape_rpn_big_cls_score_reshape_0_split
I0413 16:10:44.095840  8092 net.cpp:100] Creating Layer rpn_big_cls_score_reshape_rpn_big_cls_score_reshape_0_split
I0413 16:10:44.095844  8092 net.cpp:434] rpn_big_cls_score_reshape_rpn_big_cls_score_reshape_0_split <- rpn_big_cls_score_reshape
I0413 16:10:44.095851  8092 net.cpp:408] rpn_big_cls_score_reshape_rpn_big_cls_score_reshape_0_split -> rpn_big_cls_score_reshape_rpn_big_cls_score_reshape_0_split_0
I0413 16:10:44.095859  8092 net.cpp:408] rpn_big_cls_score_reshape_rpn_big_cls_score_reshape_0_split -> rpn_big_cls_score_reshape_rpn_big_cls_score_reshape_0_split_1
I0413 16:10:44.095890  8092 net.cpp:150] Setting up rpn_big_cls_score_reshape_rpn_big_cls_score_reshape_0_split
I0413 16:10:44.095896  8092 net.cpp:157] Top shape: 1 2 1586 92 (291824)
I0413 16:10:44.095901  8092 net.cpp:157] Top shape: 1 2 1586 92 (291824)
I0413 16:10:44.095902  8092 net.cpp:165] Memory required for data: 3585823820
I0413 16:10:44.095906  8092 layer_factory.hpp:77] Creating layer rpn_big_cls_prob
I0413 16:10:44.095911  8092 net.cpp:100] Creating Layer rpn_big_cls_prob
I0413 16:10:44.095914  8092 net.cpp:434] rpn_big_cls_prob <- rpn_big_cls_score_reshape_rpn_big_cls_score_reshape_0_split_0
I0413 16:10:44.095921  8092 net.cpp:408] rpn_big_cls_prob -> rpn_big_cls_prob
I0413 16:10:44.095968  8092 net.cpp:150] Setting up rpn_big_cls_prob
I0413 16:10:44.095975  8092 net.cpp:157] Top shape: 1 2 1586 92 (291824)
I0413 16:10:44.095978  8092 net.cpp:165] Memory required for data: 3586991116
I0413 16:10:44.095981  8092 layer_factory.hpp:77] Creating layer rpn_big_cls_prob_reshape
I0413 16:10:44.095986  8092 net.cpp:100] Creating Layer rpn_big_cls_prob_reshape
I0413 16:10:44.095990  8092 net.cpp:434] rpn_big_cls_prob_reshape <- rpn_big_cls_prob
I0413 16:10:44.095995  8092 net.cpp:408] rpn_big_cls_prob_reshape -> rpn_big_cls_prob_reshape
I0413 16:10:44.096016  8092 net.cpp:150] Setting up rpn_big_cls_prob_reshape
I0413 16:10:44.096024  8092 net.cpp:157] Top shape: 1 52 61 92 (291824)
I0413 16:10:44.096026  8092 net.cpp:165] Memory required for data: 3588158412
I0413 16:10:44.096029  8092 layer_factory.hpp:77] Creating layer rpn_big_cls_prob_reshape_rpn_big_cls_prob_reshape_0_split
I0413 16:10:44.096035  8092 net.cpp:100] Creating Layer rpn_big_cls_prob_reshape_rpn_big_cls_prob_reshape_0_split
I0413 16:10:44.096038  8092 net.cpp:434] rpn_big_cls_prob_reshape_rpn_big_cls_prob_reshape_0_split <- rpn_big_cls_prob_reshape
I0413 16:10:44.096043  8092 net.cpp:408] rpn_big_cls_prob_reshape_rpn_big_cls_prob_reshape_0_split -> rpn_big_cls_prob_reshape_rpn_big_cls_prob_reshape_0_split_0
I0413 16:10:44.096050  8092 net.cpp:408] rpn_big_cls_prob_reshape_rpn_big_cls_prob_reshape_0_split -> rpn_big_cls_prob_reshape_rpn_big_cls_prob_reshape_0_split_1
I0413 16:10:44.096079  8092 net.cpp:150] Setting up rpn_big_cls_prob_reshape_rpn_big_cls_prob_reshape_0_split
I0413 16:10:44.096086  8092 net.cpp:157] Top shape: 1 52 61 92 (291824)
I0413 16:10:44.096091  8092 net.cpp:157] Top shape: 1 52 61 92 (291824)
I0413 16:10:44.096092  8092 net.cpp:165] Memory required for data: 3590493004
I0413 16:10:44.096096  8092 layer_factory.hpp:77] Creating layer rpn_big_anchor_target
I0413 16:10:44.097419  8092 net.cpp:100] Creating Layer rpn_big_anchor_target
I0413 16:10:44.097434  8092 net.cpp:434] rpn_big_anchor_target <- rpn_big_cls_score_rpn_big_cls_score_0_split_1
I0413 16:10:44.097440  8092 net.cpp:434] rpn_big_anchor_target <- input_gt_boxes
I0413 16:10:44.097445  8092 net.cpp:434] rpn_big_anchor_target <- input_ignored_boxes
I0413 16:10:44.097450  8092 net.cpp:434] rpn_big_anchor_target <- input_im_info_input_1_split_0
I0413 16:10:44.097453  8092 net.cpp:434] rpn_big_anchor_target <- input_data_input_0_split_1
I0413 16:10:44.097457  8092 net.cpp:434] rpn_big_anchor_target <- rpn_big_cls_prob_reshape_rpn_big_cls_prob_reshape_0_split_0
I0413 16:10:44.097465  8092 net.cpp:408] rpn_big_anchor_target -> rpn_big_anchor_target_labels
I0413 16:10:44.097476  8092 net.cpp:408] rpn_big_anchor_target -> rpn_big_anchor_target_bbox_targets
I0413 16:10:44.097483  8092 net.cpp:408] rpn_big_anchor_target -> rpn_big_anchor_target_inside_weights
I0413 16:10:44.097492  8092 net.cpp:408] rpn_big_anchor_target -> rpn_big_anchor_target_outside_weights
I0413 16:10:44.103631  8092 net.cpp:150] Setting up rpn_big_anchor_target
I0413 16:10:44.103662  8092 net.cpp:157] Top shape: 1 1 1586 92 (145912)
I0413 16:10:44.103667  8092 net.cpp:157] Top shape: 1 104 61 92 (583648)
I0413 16:10:44.103670  8092 net.cpp:157] Top shape: 1 104 61 92 (583648)
I0413 16:10:44.103674  8092 net.cpp:157] Top shape: 1 104 61 92 (583648)
I0413 16:10:44.103677  8092 net.cpp:165] Memory required for data: 3598080428
I0413 16:10:44.103683  8092 layer_factory.hpp:77] Creating layer rpn_big_loss_cls
I0413 16:10:44.103695  8092 net.cpp:100] Creating Layer rpn_big_loss_cls
I0413 16:10:44.103701  8092 net.cpp:434] rpn_big_loss_cls <- rpn_big_cls_score_reshape_rpn_big_cls_score_reshape_0_split_1
I0413 16:10:44.103709  8092 net.cpp:434] rpn_big_loss_cls <- rpn_big_anchor_target_labels
I0413 16:10:44.103715  8092 net.cpp:408] rpn_big_loss_cls -> rpn_big_loss_cls
I0413 16:10:44.103729  8092 layer_factory.hpp:77] Creating layer rpn_big_loss_cls
I0413 16:10:44.104447  8092 net.cpp:150] Setting up rpn_big_loss_cls
I0413 16:10:44.104468  8092 net.cpp:157] Top shape: (1)
I0413 16:10:44.104472  8092 net.cpp:160]     with loss weight 1
I0413 16:10:44.104483  8092 net.cpp:165] Memory required for data: 3598080432
I0413 16:10:44.104487  8092 layer_factory.hpp:77] Creating layer rpn_big_output_box
I0413 16:10:44.104503  8092 net.cpp:100] Creating Layer rpn_big_output_box
I0413 16:10:44.104508  8092 net.cpp:434] rpn_big_output_box <- rpn_big_conv2_rpn_big_conv2_drop_0_split_1
I0413 16:10:44.104516  8092 net.cpp:408] rpn_big_output_box -> rpn_big_output_box
I0413 16:10:44.124234  8092 net.cpp:150] Setting up rpn_big_output_box
I0413 16:10:44.124265  8092 net.cpp:157] Top shape: 1 384 63 94 (2274048)
I0413 16:10:44.124269  8092 net.cpp:165] Memory required for data: 3607176624
I0413 16:10:44.124279  8092 layer_factory.hpp:77] Creating layer rpn_big_output_box_relu
I0413 16:10:44.124290  8092 net.cpp:100] Creating Layer rpn_big_output_box_relu
I0413 16:10:44.124297  8092 net.cpp:434] rpn_big_output_box_relu <- rpn_big_output_box
I0413 16:10:44.124305  8092 net.cpp:395] rpn_big_output_box_relu -> rpn_big_output_box (in-place)
I0413 16:10:44.124315  8092 net.cpp:150] Setting up rpn_big_output_box_relu
I0413 16:10:44.124320  8092 net.cpp:157] Top shape: 1 384 63 94 (2274048)
I0413 16:10:44.124322  8092 net.cpp:165] Memory required for data: 3616272816
I0413 16:10:44.124325  8092 layer_factory.hpp:77] Creating layer rpn_big_bbox_pred
I0413 16:10:44.124342  8092 net.cpp:100] Creating Layer rpn_big_bbox_pred
I0413 16:10:44.124346  8092 net.cpp:434] rpn_big_bbox_pred <- rpn_big_output_box
I0413 16:10:44.124354  8092 net.cpp:408] rpn_big_bbox_pred -> rpn_big_bbox_pred
I0413 16:10:44.128398  8092 net.cpp:150] Setting up rpn_big_bbox_pred
I0413 16:10:44.128414  8092 net.cpp:157] Top shape: 1 104 61 92 (583648)
I0413 16:10:44.128418  8092 net.cpp:165] Memory required for data: 3618607408
I0413 16:10:44.128435  8092 layer_factory.hpp:77] Creating layer rpn_big_bbox_pred_rpn_big_bbox_pred_0_split
I0413 16:10:44.128445  8092 net.cpp:100] Creating Layer rpn_big_bbox_pred_rpn_big_bbox_pred_0_split
I0413 16:10:44.128449  8092 net.cpp:434] rpn_big_bbox_pred_rpn_big_bbox_pred_0_split <- rpn_big_bbox_pred
I0413 16:10:44.128456  8092 net.cpp:408] rpn_big_bbox_pred_rpn_big_bbox_pred_0_split -> rpn_big_bbox_pred_rpn_big_bbox_pred_0_split_0
I0413 16:10:44.128464  8092 net.cpp:408] rpn_big_bbox_pred_rpn_big_bbox_pred_0_split -> rpn_big_bbox_pred_rpn_big_bbox_pred_0_split_1
I0413 16:10:44.128499  8092 net.cpp:150] Setting up rpn_big_bbox_pred_rpn_big_bbox_pred_0_split
I0413 16:10:44.128506  8092 net.cpp:157] Top shape: 1 104 61 92 (583648)
I0413 16:10:44.128511  8092 net.cpp:157] Top shape: 1 104 61 92 (583648)
I0413 16:10:44.128515  8092 net.cpp:165] Memory required for data: 3623276592
I0413 16:10:44.128517  8092 layer_factory.hpp:77] Creating layer rpn_big_loss_bbox
I0413 16:10:44.128885  8092 net.cpp:100] Creating Layer rpn_big_loss_bbox
I0413 16:10:44.128895  8092 net.cpp:434] rpn_big_loss_bbox <- rpn_big_bbox_pred_rpn_big_bbox_pred_0_split_0
I0413 16:10:44.128900  8092 net.cpp:434] rpn_big_loss_bbox <- rpn_big_anchor_target_bbox_targets
I0413 16:10:44.128924  8092 net.cpp:434] rpn_big_loss_bbox <- rpn_big_anchor_target_inside_weights
I0413 16:10:44.128932  8092 net.cpp:434] rpn_big_loss_bbox <- rpn_big_anchor_target_outside_weights
I0413 16:10:44.128939  8092 net.cpp:408] rpn_big_loss_bbox -> rpn_big_loss_bbox
I0413 16:10:44.131911  8092 net.cpp:150] Setting up rpn_big_loss_bbox
I0413 16:10:44.131942  8092 net.cpp:157] Top shape: 1 (1)
I0413 16:10:44.131945  8092 net.cpp:160]     with loss weight 1
I0413 16:10:44.131958  8092 net.cpp:165] Memory required for data: 3623276596
I0413 16:10:44.131963  8092 layer_factory.hpp:77] Creating layer proposal
I0413 16:10:44.133793  8092 net.cpp:100] Creating Layer proposal
I0413 16:10:44.133810  8092 net.cpp:434] proposal <- rpn_big_cls_prob_reshape_rpn_big_cls_prob_reshape_0_split_1
I0413 16:10:44.133826  8092 net.cpp:434] proposal <- rpn_big_bbox_pred_rpn_big_bbox_pred_0_split_1
…
