…
I0413 18:54:16.611927 14489 solver.cpp:48] Initializing solver from parameters: 
base_lr: 0.001
display: 20
lr_policy: "multistep"
gamma: 0.1
momentum: 0.9
weight_decay: 0.0005
snapshot: 0
snapshot_prefix: "faces_example"
net_param {
  name: "GeneratedModel_13_04_2017_18_54"
  layer {
    name: "input"
    type: "Python"
    top: "input_data"
    top: "input_im_info"
    top: "input_gt_boxes"
    top: "input_ignored_boxes"
    python_param {
      module: "layers.roi_data_layer"
      layer: "RoIDataLayer"
      param_str: "{\"num_classes\": 2}"
    }
  }
  layer {
    name: "conv1_1"
    type: "Convolution"
    bottom: "input_data"
    top: "conv1_1"
    param {
      lr_mult: 0
      decay_mult: 0
    }
    param {
      lr_mult: 0
      decay_mult: 0
    }
    convolution_param {
      num_output: 64
      pad: 1
      kernel_size: 3
    }
  }
  layer {
    name: "relu1_1"
    type: "ReLU"
    bottom: "conv1_1"
    top: "conv1_1"
  }
  layer {
    name: "conv1_2"
    type: "Convolution"
    bottom: "conv1_1"
    top: "conv1_2"
    param {
      lr_mult: 0
      decay_mult: 0
    }
    param {
      lr_mult: 0
      decay_mult: 0
    }
    convolution_param {
      num_output: 64
      pad: 1
      kernel_size: 3
    }
  }
  layer {
    name: "relu1_2"
    type: "ReLU"
    bottom: "conv1_2"
    top: "conv1_2"
  }
  layer {
    name: "pool1"
    type: "Pooling"
    bottom: "conv1_2"
    top: "pool1"
    pooling_param {
      pool: MAX
      kernel_size: 2
      stride: 2
    }
  }
  layer {
    name: "conv2_1"
    type: "Convolution"
    bottom: "pool1"
    top: "conv2_1"
    param {
      lr_mult: 0
      decay_mult: 0
    }
    param {
      lr_mult: 0
      decay_mult: 0
    }
    convolution_param {
      num_output: 128
      pad: 1
      kernel_size: 3
    }
  }
  layer {
    name: "relu2_1"
    type: "ReLU"
    bottom: "conv2_1"
    top: "conv2_1"
  }
  layer {
    name: "conv2_2"
    type: "Convolution"
    bottom: "conv2_1"
    top: "conv2_2"
    param {
      lr_mult: 0
      decay_mult: 0
    }
    param {
      lr_mult: 0
      decay_mult: 0
    }
    convolution_param {
      num_output: 128
      pad: 1
      kernel_size: 3
    }
  }
  layer {
    name: "relu2_2"
    type: "ReLU"
    bottom: "conv2_2"
    top: "conv2_2"
  }
  layer {
    name: "pool2"
    type: "Pooling"
    bottom: "conv2_2"
    top: "pool2"
    pooling_param {
      pool: MAX
      kernel_size: 2
      stride: 2
    }
  }
  layer {
    name: "conv3_1"
    type: "Convolution"
    bottom: "pool2"
    top: "conv3_1"
    param {
      lr_mult: 1
    }
    param {
      lr_mult: 2
    }
    convolution_param {
      num_output: 256
      pad: 1
      kernel_size: 3
    }
  }
  layer {
    name: "relu3_1"
    type: "ReLU"
    bottom: "conv3_1"
    top: "conv3_1"
  }
  layer {
    name: "conv3_2"
    type: "Convolution"
    bottom: "conv3_1"
    top: "conv3_2"
    param {
      lr_mult: 1
    }
    param {
      lr_mult: 2
    }
    convolution_param {
      num_output: 256
      pad: 1
      kernel_size: 3
    }
  }
  layer {
    name: "relu3_2"
    type: "ReLU"
    bottom: "conv3_2"
    top: "conv3_2"
  }
  layer {
    name: "conv3_3"
    type: "Convolution"
    bottom: "conv3_2"
    top: "conv3_3"
    param {
      lr_mult: 1
    }
    param {
      lr_mult: 2
    }
    convolution_param {
      num_output: 256
      pad: 1
      kernel_size: 3
    }
  }
  layer {
    name: "relu3_3"
    type: "ReLU"
    bottom: "conv3_3"
    top: "conv3_3"
  }
  layer {
    name: "pool3"
    type: "Pooling"
    bottom: "conv3_3"
    top: "pool3"
    pooling_param {
      pool: MAX
      kernel_size: 2
      stride: 2
    }
  }
  layer {
    name: "conv4_1"
    type: "Convolution"
    bottom: "pool3"
    top: "conv4_1"
    param {
      lr_mult: 1
    }
    param {
      lr_mult: 2
    }
    convolution_param {
      num_output: 512
      pad: 1
      kernel_size: 3
    }
  }
  layer {
    name: "relu4_1"
    type: "ReLU"
    bottom: "conv4_1"
    top: "conv4_1"
  }
  layer {
    name: "conv4_2"
    type: "Convolution"
    bottom: "conv4_1"
    top: "conv4_2"
    param {
      lr_mult: 1
    }
    param {
      lr_mult: 2
    }
    convolution_param {
      num_output: 512
      pad: 1
      kernel_size: 3
    }
  }
  layer {
    name: "relu4_2"
    type: "ReLU"
    bottom: "conv4_2"
    top: "conv4_2"
  }
  layer {
    name: "conv4_3"
    type: "Convolution"
    bottom: "conv4_2"
    top: "conv4_3"
    param {
      lr_mult: 1
    }
    param {
      lr_mult: 2
    }
    convolution_param {
      num_output: 512
      pad: 1
      kernel_size: 3
    }
  }
  layer {
    name: "relu4_3"
    type: "ReLU"
    bottom: "conv4_3"
    top: "conv4_3"
  }
  layer {
    name: "pool4"
    type: "Pooling"
    bottom: "conv4_3"
    top: "pool4"
    pooling_param {
      pool: MAX
      kernel_size: 2
      stride: 2
    }
  }
  layer {
    name: "conv5_1"
    type: "Convolution"
    bottom: "pool4"
    top: "conv5_1"
    param {
      lr_mult: 1
    }
    param {
      lr_mult: 2
    }
    convolution_param {
      num_output: 512
      pad: 1
      kernel_size: 3
    }
  }
  layer {
    name: "relu5_1"
    type: "ReLU"
    bottom: "conv5_1"
    top: "conv5_1"
  }
  layer {
    name: "conv5_2"
    type: "Convolution"
    bottom: "conv5_1"
    top: "conv5_2"
    param {
      lr_mult: 1
    }
    param {
      lr_mult: 2
    }
    convolution_param {
      num_output: 512
      pad: 1
      kernel_size: 3
    }
  }
  layer {
    name: "relu5_2"
    type: "ReLU"
    bottom: "conv5_2"
    top: "conv5_2"
  }
  layer {
    name: "conv5_3"
    type: "Convolution"
    bottom: "conv5_2"
    top: "conv5_3"
    param {
      lr_mult: 1
    }
    param {
      lr_mult: 2
    }
    convolution_param {
      num_output: 512
      pad: 1
      kernel_size: 3
    }
  }
  layer {
    name: "relu5_3"
    type: "ReLU"
    bottom: "conv5_3"
    top: "conv5_3"
  }
  layer {
    name: "rpn_big_conv1"
    type: "Convolution"
    bottom: "conv5_3"
    top: "rpn_big_conv1"
    param {
      lr_mult: 1
    }
    param {
      lr_mult: 2
    }
    convolution_param {
      num_output: 512
      pad: 1
      kernel_size: 3
      stride: 1
      weight_filler {
        type: "gaussian"
        mean: 0
        std: 0.01
      }
      bias_filler {
        type: "constant"
      }
    }
  }
  layer {
    name: "rpn_big_conv1_relu"
    type: "ReLU"
    bottom: "rpn_big_conv1"
    top: "rpn_big_conv1"
    relu_param {
      negative_slope: 0
    }
  }
  layer {
    name: "rpn_big_conv2"
    type: "Convolution"
    bottom: "rpn_big_conv1"
    top: "rpn_big_conv2"
    param {
      lr_mult: 1
    }
    param {
      lr_mult: 2
    }
    convolution_param {
      num_output: 512
      pad: 1
      kernel_size: 3
      stride: 1
      weight_filler {
        type: "gaussian"
        mean: 0
        std: 0.01
      }
      bias_filler {
        type: "constant"
      }
    }
  }
  layer {
    name: "rpn_big_conv2_relu"
    type: "ReLU"
    bottom: "rpn_big_conv2"
    top: "rpn_big_conv2"
    relu_param {
      negative_slope: 0
    }
  }
  layer {
    name: "rpn_big_conv2_drop"
    type: "Dropout"
    bottom: "rpn_big_conv2"
    top: "rpn_big_conv2"
    dropout_param {
      dropout_ratio: 0.3
    }
  }
  layer {
    name: "rpn_big_output_cls"
    type: "Convolution"
    bottom: "rpn_big_conv2"
    top: "rpn_big_output_cls"
    param {
      lr_mult: 1
    }
    param {
      lr_mult: 2
    }
    convolution_param {
      num_output: 384
      pad: 1
      kernel_size: 3
      stride: 1
      weight_filler {
        type: "gaussian"
        mean: 0
        std: 0.01
      }
      bias_filler {
        type: "constant"
      }
    }
  }
  layer {
    name: "rpn_big_output_cls_relu"
    type: "ReLU"
    bottom: "rpn_big_output_cls"
    top: "rpn_big_output_cls"
    relu_param {
      negative_slope: 0
    }
  }
  layer {
    name: "rpn_big_cls_score"
    type: "Convolution"
    bottom: "rpn_big_output_cls"
    top: "rpn_big_cls_score"
    param {
      lr_mult: 1
    }
    param {
      lr_mult: 2
    }
    convolution_param {
      num_output: 52
      pad: 0
      kernel_size: 3
      stride: 1
      weight_filler {
        type: "gaussian"
        mean: 0
        std: 0.01
      }
      bias_filler {
        type: "constant"
      }
    }
  }
  layer {
    name: "rpn_big_cls_score_reshape"
    type: "Reshape"
    bottom: "rpn_big_cls_score"
    top: "rpn_big_cls_score_reshape"
    reshape_param {
      shape {
        dim: 0
        dim: 2
        dim: -1
        dim: 0
      }
    }
  }
  layer {
    name: "rpn_big_cls_prob"
    type: "Softmax"
    bottom: "rpn_big_cls_score_reshape"
    top: "rpn_big_cls_prob"
  }
  layer {
    name: "rpn_big_cls_prob_reshape"
    type: "Reshape"
    bottom: "rpn_big_cls_prob"
    top: "rpn_big_cls_prob_reshape"
    reshape_param {
      shape {
        dim: 0
        dim: 52
        dim: -1
        dim: 0
      }
    }
  }
  layer {
    name: "rpn_big_anchor_target"
    type: "Python"
    bottom: "rpn_big_cls_score"
    bottom: "input_gt_boxes"
    bottom: "input_ignored_boxes"
    bottom: "input_im_info"
    bottom: "input_data"
    bottom: "rpn_big_cls_prob_reshape"
    top: "rpn_big_anchor_target_labels"
    top: "rpn_big_anchor_target_bbox_targets"
    top: "rpn_big_anchor_target_inside_weights"
    top: "rpn_big_anchor_target_outside_weights"
    python_param {
      module: "rpn.anchor_target_layer"
      layer: "AnchorTargetLayer"
      param_str: "{\"num_classes\": 1, \"fg_fraction\": 0.5, \"name\": \"rpn_big\", \"anchor_ratios\": [1.0], \"tn_fraction\": 0.2, \"anchor_scales\": [2.5, 3.025, 3.66025, 4.4289024999999995, 5.358972025, 6.484356150249999, 7.846070941802498, 9.493745839581022, 11.487432465893036, 13.899793283730574, 16.818749873313998, 20.350687346709933, 24.62433168951902, 29.795441344318014], \"square_targets\": true, \"anchor_shift_num_xy\": [[2, 2], [2, 2], [2, 2], [2, 2], [1, 1], [1, 1], [1, 1], [1, 1], [1, 1], [1, 1], [1, 1], [1, 1], [1, 1], [1, 1]], \"batchsize\": 256, \"feat_stride\": 16, \"positive_overlap\": 0.6, \"negative_overlap\": 0.4}"
    }
  }
  layer {
    name: "rpn_big_loss_cls"
    type: "SoftmaxWithLoss"
    bottom: "rpn_big_cls_score_reshape"
    bottom: "rpn_big_anchor_target_labels"
    top: "rpn_big_loss_cls"
    loss_weight: 1
    propagate_down: true
    propagate_down: false
    loss_param {
      ignore_label: -1
      normalization: VALID
    }
  }
  layer {
    name: "rpn_big_output_box"
    type: "Convolution"
    bottom: "rpn_big_conv2"
    top: "rpn_big_output_box"
    param {
      lr_mult: 1
    }
    param {
      lr_mult: 2
    }
    convolution_param {
      num_output: 384
      pad: 1
      kernel_size: 3
      stride: 1
      weight_filler {
        type: "gaussian"
        mean: 0
        std: 0.01
      }
      bias_filler {
        type: "constant"
      }
    }
  }
  layer {
    name: "rpn_big_output_box_relu"
    type: "ReLU"
    bottom: "rpn_big_output_box"
    top: "rpn_big_output_box"
    relu_param {
      negative_slope: 0
    }
  }
  layer {
    name: "rpn_big_bbox_pred"
    type: "Convolution"
    bottom: "rpn_big_output_box"
    top: "rpn_big_bbox_pred"
    param {
      lr_mult: 1
    }
    param {
      lr_mult: 2
    }
    convolution_param {
      num_output: 104
      pad: 0
      kernel_size: 3
      stride: 1
      weight_filler {
        type: "gaussian"
        mean: 0
        std: 0.01
      }
      bias_filler {
        type: "constant"
      }
    }
  }
  layer {
    name: "rpn_big_loss_bbox"
    type: "Python"
    bottom: "rpn_big_bbox_pred"
    bottom: "rpn_big_anchor_target_bbox_targets"
    bottom: "rpn_big_anchor_target_inside_weights"
    bottom: "rpn_big_anchor_target_outside_weights"
    top: "rpn_big_loss_bbox"
    loss_weight: 1
    python_param {
      module: "layers.smooth_l1_loss"
      layer: "SmoothL1LossLayer"
      param_str: "{\"sigma\": 3}"
    }
  }
  layer {
    name: "proposal"
    type: "Python"
    bottom: "rpn_big_cls_prob_reshape"
    bottom: "rpn_big_bbox_pred"
    bottom: "input_im_info"
    top: "rpn_rois"
    python_param {
      module: "rpn.proposal_layer"
      layer: "ProposalLayer"
      param_str: "{\"anchor_shift_num_xy\": [[2, 2], [2, 2], [2, 2], [2, 2], [1, 1], [1, 1], [1, 1], [1, 1], [1, 1], [1, 1], [1, 1], [1, 1], [1, 1], [1, 1]], \"feat_stride\": 16, \"num_classes\": 1, \"anchor_scales\": [2.5, 3.025, 3.66025, 4.4289024999999995, 5.358972025, 6.484356150249999, 7.846070941802498, 9.493745839581022, 11.487432465893036, 13.899793283730574, 16.818749873313998, 20.350687346709933, 24.62433168951902, 29.795441344318014], \"square_targets\": true, \"name\": \"rpn_big\", \"batchsize\": 256, \"anchor_ratios\": [1.0]}"
    }
  }
  layer {
    name: "roi-data"
    type: "Python"
    bottom: "rpn_rois"
    bottom: "input_gt_boxes"
    top: "rois"
    top: "labels"
    top: "bbox_targets"
    top: "bbox_inside_weights"
    top: "bbox_outside_weights"
    top: "pid_label"
    python_param {
      module: "rpn.proposal_target_layer"
      layer: "ProposalTargetLayer"
      param_str: "{\"num_classes\": 2, \"bg_aux_label\": 5532}"
    }
  }
  layer {
    name: "roi-pool"
    type: "ROIPooling"
    bottom: "conv5_3"
    bottom: "rois"
    top: "roi-pool"
    roi_pooling_param {
      pooled_h: 7
      pooled_w: 7
      spatial_scale: 0.0625
    }
  }
  layer {
    name: "fc6"
    type: "InnerProduct"
    bottom: "roi-pool"
    top: "fc6"
    param {
      lr_mult: 1
    }
    param {
      lr_mult: 2
    }
    inner_product_param {
      num_output: 4096
    }
  }
  layer {
    name: "relu6"
    type: "ReLU"
    bottom: "fc6"
    top: "fc6"
  }
  layer {
    name: "drop6"
    type: "Dropout"
    bottom: "fc6"
    top: "fc6"
    dropout_param {
      dropout_ratio: 0.5
    }
  }
  layer {
    name: "fc7"
    type: "InnerProduct"
    bottom: "fc6"
    top: "fc7"
    param {
      lr_mult: 1
    }
    param {
      lr_mult: 2
    }
    inner_product_param {
      num_output: 4096
    }
  }
  layer {
    name: "relu7"
    type: "ReLU"
    bottom: "fc7"
    top: "fc7"
  }
  layer {
    name: "drop7"
    type: "Dropout"
    bottom: "fc7"
    top: "fc7"
    dropout_param {
      dropout_ratio: 0.5
    }
  }
  layer {
    name: "bbox_pred"
    type: "InnerProduct"
    bottom: "fc7"
    top: "bbox_pred"
    param {
      lr_mult: 1
    }
    param {
      lr_mult: 2
    }
    inner_product_param {
      num_output: 8
      weight_filler {
        type: "gaussian"
        std: 0.001
      }
      bias_filler {
        type: "constant"
        value: 0
      }
    }
  }
  layer {
    name: "loss_bbox"
    type: "SmoothL1Loss"
    bottom: "bbox_pred"
    bottom: "bbox_targets"
    bottom: "bbox_inside_weights"
    bottom: "bbox_outside_weights"
    top: "loss_bbox"
    loss_weight: 1
  }
  layer {
    name: "feat"
    type: "InnerProduct"
    bottom: "fc7"
    top: "feat"
    param {
      lr_mult: 1
      decay_mult: 1
    }
    param {
      lr_mult: 2
      decay_mult: 0
    }
    inner_product_param {
      num_output: 256
      weight_filler {
        type: "gaussian"
        std: 0.01
      }
      bias_filler {
        type: "constant"
        value: 0
      }
    }
  }
  layer {
    name: "relu8"
    type: "ReLU"
    bottom: "feat"
    top: "feat"
  }
  layer {
    name: "drop8"
    type: "Dropout"
    bottom: "feat"
    top: "feat"
    dropout_param {
      dropout_ratio: 0.5
    }
  }
  layer {
    name: "pid_score"
    type: "InnerProduct"
    bottom: "feat"
    top: "pid_score"
    param {
      lr_mult: 1
      decay_mult: 1
    }
    param {
      lr_mult: 2
      decay_mult: 0
    }
    inner_product_param {
      num_output: 5533
      weight_filler {
        type: "gaussian"
        std: 0.001
      }
      bias_filler {
        type: "constant"
        value: 0
      }
    }
  }
  layer {
    name: "pid_loss"
    type: "SoftmaxWithLoss"
    bottom: "pid_score"
    bottom: "pid_label"
    top: "pid_loss"
    loss_weight: 1
    propagate_down: true
    propagate_down: false
    loss_param {
      ignore_label: -1
      normalize: true
    }
  }
}
average_loss: 100
stepvalue: 70000
stepvalue: 120000
iter_size: 2
I0413 18:54:16.612056 14489 solver.cpp:86] Creating training net specified in net_param.
I0413 18:54:16.612958 14489 net.cpp:58] Initializing net from parameters: 
name: "GeneratedModel_13_04_2017_18_54"
state {
  phase: TRAIN
}
layer {
  name: "input"
  type: "Python"
  top: "input_data"
  top: "input_im_info"
  top: "input_gt_boxes"
  top: "input_ignored_boxes"
  python_param {
    module: "layers.roi_data_layer"
    layer: "RoIDataLayer"
    param_str: "{\"num_classes\": 2}"
  }
}
layer {
  name: "conv1_1"
  type: "Convolution"
  bottom: "input_data"
  top: "conv1_1"
  param {
    lr_mult: 0
    decay_mult: 0
  }
  param {
    lr_mult: 0
    decay_mult: 0
  }
  convolution_param {
    num_output: 64
    pad: 1
    kernel_size: 3
  }
}
layer {
  name: "relu1_1"
  type: "ReLU"
  bottom: "conv1_1"
  top: "conv1_1"
}
layer {
  name: "conv1_2"
  type: "Convolution"
  bottom: "conv1_1"
  top: "conv1_2"
  param {
    lr_mult: 0
    decay_mult: 0
  }
  param {
    lr_mult: 0
    decay_mult: 0
  }
  convolution_param {
    num_output: 64
    pad: 1
    kernel_size: 3
  }
}
layer {
  name: "relu1_2"
  type: "ReLU"
  bottom: "conv1_2"
  top: "conv1_2"
}
layer {
  name: "pool1"
  type: "Pooling"
  bottom: "conv1_2"
  top: "pool1"
  pooling_param {
    pool: MAX
    kernel_size: 2
    stride: 2
  }
}
layer {
  name: "conv2_1"
  type: "Convolution"
  bottom: "pool1"
  top: "conv2_1"
  param {
    lr_mult: 0
    decay_mult: 0
  }
  param {
    lr_mult: 0
    decay_mult: 0
  }
  convolution_param {
    num_output: 128
    pad: 1
    kernel_size: 3
  }
}
layer {
  name: "relu2_1"
  type: "ReLU"
  bottom: "conv2_1"
  top: "conv2_1"
}
layer {
  name: "conv2_2"
  type: "Convolution"
  bottom: "conv2_1"
  top: "conv2_2"
  param {
    lr_mult: 0
    decay_mult: 0
  }
  param {
    lr_mult: 0
    decay_mult: 0
  }
  convolution_param {
    num_output: 128
    pad: 1
    kernel_size: 3
  }
}
layer {
  name: "relu2_2"
  type: "ReLU"
  bottom: "conv2_2"
  top: "conv2_2"
}
layer {
  name: "pool2"
  type: "Pooling"
  bottom: "conv2_2"
  top: "pool2"
  pooling_param {
    pool: MAX
    kernel_size: 2
    stride: 2
  }
}
layer {
  name: "conv3_1"
  type: "Convolution"
  bottom: "pool2"
  top: "conv3_1"
  param {
    lr_mult: 1
  }
  param {
    lr_mult: 2
  }
  convolution_param {
    num_output: 256
    pad: 1
    kernel_size: 3
  }
}
layer {
  name: "relu3_1"
  type: "ReLU"
  bottom: "conv3_1"
  top: "conv3_1"
}
layer {
  name: "conv3_2"
  type: "Convolution"
  bottom: "conv3_1"
  top: "conv3_2"
  param {
    lr_mult: 1
  }
  param {
    lr_mult: 2
  }
  convolution_param {
    num_output: 256
    pad: 1
    kernel_size: 3
  }
}
layer {
  name: "relu3_2"
  type: "ReLU"
  bottom: "conv3_2"
  top: "conv3_2"
}
layer {
  name: "conv3_3"
  type: "Convolution"
  bottom: "conv3_2"
  top: "conv3_3"
  param {
    lr_mult: 1
  }
  param {
    lr_mult: 2
  }
  convolution_param {
    num_output: 256
    pad: 1
    kernel_size: 3
  }
}
layer {
  name: "relu3_3"
  type: "ReLU"
  bottom: "conv3_3"
  top: "conv3_3"
}
layer {
  name: "pool3"
  type: "Pooling"
  bottom: "conv3_3"
  top: "pool3"
  pooling_param {
    pool: MAX
    kernel_size: 2
    stride: 2
  }
}
layer {
  name: "conv4_1"
  type: "Convolution"
  bottom: "pool3"
  top: "conv4_1"
  param {
    lr_mult: 1
  }
  param {
    lr_mult: 2
  }
  convolution_param {
    num_output: 512
    pad: 1
    kernel_size: 3
  }
}
layer {
  name: "relu4_1"
  type: "ReLU"
  bottom: "conv4_1"
  top: "conv4_1"
}
layer {
  name: "conv4_2"
  type: "Convolution"
  bottom: "conv4_1"
  top: "conv4_2"
  param {
    lr_mult: 1
  }
  param {
    lr_mult: 2
  }
  convolution_param {
    num_output: 512
    pad: 1
    kernel_size: 3
  }
}
layer {
  name: "relu4_2"
  type: "ReLU"
  bottom: "conv4_2"
  top: "conv4_2"
}
layer {
  name: "conv4_3"
  type: "Convolution"
  bottom: "conv4_2"
  top: "conv4_3"
  param {
    lr_mult: 1
  }
  param {
    lr_mult: 2
  }
  convolution_param {
    num_output: 512
    pad: 1
    kernel_size: 3
  }
}
layer {
  name: "relu4_3"
  type: "ReLU"
  bottom: "conv4_3"
  top: "conv4_3"
}
layer {
  name: "pool4"
  type: "Pooling"
  bottom: "conv4_3"
  top: "pool4"
  pooling_param {
    pool: MAX
    kernel_size: 2
    stride: 2
  }
}
layer {
  name: "conv5_1"
  type: "Convolution"
  bottom: "pool4"
  top: "conv5_1"
  param {
    lr_mult: 1
  }
  param {
    lr_mult: 2
  }
  convolution_param {
    num_output: 512
    pad: 1
    kernel_size: 3
  }
}
layer {
  name: "relu5_1"
  type: "ReLU"
  bottom: "conv5_1"
  top: "conv5_1"
}
layer {
  name: "conv5_2"
  type: "Convolution"
  bottom: "conv5_1"
  top: "conv5_2"
  param {
    lr_mult: 1
  }
  param {
    lr_mult: 2
  }
  convolution_param {
    num_output: 512
    pad: 1
    kernel_size: 3
  }
}
layer {
  name: "relu5_2"
  type: "ReLU"
  bottom: "conv5_2"
  top: "conv5_2"
}
layer {
  name: "conv5_3"
  type: "Convolution"
  bottom: "conv5_2"
  top: "conv5_3"
  param {
    lr_mult: 1
  }
  param {
    lr_mult: 2
  }
  convolution_param {
    num_output: 512
    pad: 1
    kernel_size: 3
  }
}
layer {
  name: "relu5_3"
  type: "ReLU"
  bottom: "conv5_3"
  top: "conv5_3"
}
layer {
  name: "rpn_big_conv1"
  type: "Convolution"
  bottom: "conv5_3"
  top: "rpn_big_conv1"
  param {
    lr_mult: 1
  }
  param {
    lr_mult: 2
  }
  convolution_param {
    num_output: 512
    pad: 1
    kernel_size: 3
    stride: 1
    weight_filler {
      type: "gaussian"
      mean: 0
      std: 0.01
    }
    bias_filler {
      type: "constant"
    }
  }
}
layer {
  name: "rpn_big_conv1_relu"
  type: "ReLU"
  bottom: "rpn_big_conv1"
  top: "rpn_big_conv1"
  relu_param {
    negative_slope: 0
  }
}
layer {
  name: "rpn_big_conv2"
  type: "Convolution"
  bottom: "rpn_big_conv1"
  top: "rpn_big_conv2"
  param {
    lr_mult: 1
  }
  param {
    lr_mult: 2
  }
  convolution_param {
    num_output: 512
    pad: 1
    kernel_size: 3
    stride: 1
    weight_filler {
      type: "gaussian"
      mean: 0
      std: 0.01
    }
    bias_filler {
      type: "constant"
    }
  }
}
layer {
  name: "rpn_big_conv2_relu"
  type: "ReLU"
  bottom: "rpn_big_conv2"
  top: "rpn_big_conv2"
  relu_param {
    negative_slope: 0
  }
}
layer {
  name: "rpn_big_conv2_drop"
  type: "Dropout"
  bottom: "rpn_big_conv2"
  top: "rpn_big_conv2"
  dropout_param {
    dropout_ratio: 0.3
  }
}
layer {
  name: "rpn_big_output_cls"
  type: "Convolution"
  bottom: "rpn_big_conv2"
  top: "rpn_big_output_cls"
  param {
    lr_mult: 1
  }
  param {
    lr_mult: 2
  }
  convolution_param {
    num_output: 384
    pad: 1
    kernel_size: 3
    stride: 1
    weight_filler {
      type: "gaussian"
      mean: 0
      std: 0.01
    }
    bias_filler {
      type: "constant"
    }
  }
}
layer {
  name: "rpn_big_output_cls_relu"
  type: "ReLU"
  bottom: "rpn_big_output_cls"
  top: "rpn_big_output_cls"
  relu_param {
    negative_slope: 0
  }
}
layer {
  name: "rpn_big_cls_score"
  type: "Convolution"
  bottom: "rpn_big_output_cls"
  top: "rpn_big_cls_score"
  param {
    lr_mult: 1
  }
  param {
    lr_mult: 2
  }
  convolution_param {
    num_output: 52
    pad: 0
    kernel_size: 3
    stride: 1
    weight_filler {
      type: "gaussian"
      mean: 0
      std: 0.01
    }
    bias_filler {
      type: "constant"
    }
  }
}
layer {
  name: "rpn_big_cls_score_reshape"
  type: "Reshape"
  bottom: "rpn_big_cls_score"
  top: "rpn_big_cls_score_reshape"
  reshape_param {
    shape {
      dim: 0
      dim: 2
      dim: -1
      dim: 0
    }
  }
}
layer {
  name: "rpn_big_cls_prob"
  type: "Softmax"
  bottom: "rpn_big_cls_score_reshape"
  top: "rpn_big_cls_prob"
}
layer {
  name: "rpn_big_cls_prob_reshape"
  type: "Reshape"
  bottom: "rpn_big_cls_prob"
  top: "rpn_big_cls_prob_reshape"
  reshape_param {
    shape {
      dim: 0
      dim: 52
      dim: -1
      dim: 0
    }
  }
}
layer {
  name: "rpn_big_anchor_target"
  type: "Python"
  bottom: "rpn_big_cls_score"
  bottom: "input_gt_boxes"
  bottom: "input_ignored_boxes"
  bottom: "input_im_info"
  bottom: "input_data"
  bottom: "rpn_big_cls_prob_reshape"
  top: "rpn_big_anchor_target_labels"
  top: "rpn_big_anchor_target_bbox_targets"
  top: "rpn_big_anchor_target_inside_weights"
  top: "rpn_big_anchor_target_outside_weights"
  python_param {
    module: "rpn.anchor_target_layer"
    layer: "AnchorTargetLayer"
    param_str: "{\"num_classes\": 1, \"fg_fraction\": 0.5, \"name\": \"rpn_big\", \"anchor_ratios\": [1.0], \"tn_fraction\": 0.2, \"anchor_scales\": [2.5, 3.025, 3.66025, 4.4289024999999995, 5.358972025, 6.484356150249999, 7.846070941802498, 9.493745839581022, 11.487432465893036, 13.899793283730574, 16.818749873313998, 20.350687346709933, 24.62433168951902, 29.795441344318014], \"square_targets\": true, \"anchor_shift_num_xy\": [[2, 2], [2, 2], [2, 2], [2, 2], [1, 1], [1, 1], [1, 1], [1, 1], [1, 1], [1, 1], [1, 1], [1, 1], [1, 1], [1, 1]], \"batchsize\": 256, \"feat_stride\": 16, \"positive_overlap\": 0.6, \"negative_overlap\": 0.4}"
  }
}
layer {
  name: "rpn_big_loss_cls"
  type: "SoftmaxWithLoss"
  bottom: "rpn_big_cls_score_reshape"
  bottom: "rpn_big_anchor_target_labels"
  top: "rpn_big_loss_cls"
  loss_weight: 1
  propagate_down: true
  propagate_down: false
  loss_param {
    ignore_label: -1
    normalization: VALID
  }
}
layer {
  name: "rpn_big_output_box"
  type: "Convolution"
  bottom: "rpn_big_conv2"
  top: "rpn_big_output_box"
  param {
    lr_mult: 1
  }
  param {
    lr_mult: 2
  }
  convolution_param {
    num_output: 384
    pad: 1
    kernel_size: 3
    stride: 1
    weight_filler {
      type: "gaussian"
      mean: 0
      std: 0.01
    }
    bias_filler {
      type: "constant"
    }
  }
}
layer {
  name: "rpn_big_output_box_relu"
  type: "ReLU"
  bottom: "rpn_big_output_box"
  top: "rpn_big_output_box"
  relu_param {
    negative_slope: 0
  }
}
layer {
  name: "rpn_big_bbox_pred"
  type: "Convolution"
  bottom: "rpn_big_output_box"
  top: "rpn_big_bbox_pred"
  param {
    lr_mult: 1
  }
  param {
    lr_mult: 2
  }
  convolution_param {
    num_output: 104
    pad: 0
    kernel_size: 3
    stride: 1
    weight_filler {
      type: "gaussian"
      mean: 0
      std: 0.01
    }
    bias_filler {
      type: "constant"
    }
  }
}
layer {
  name: "rpn_big_loss_bbox"
  type: "Python"
  bottom: "rpn_big_bbox_pred"
  bottom: "rpn_big_anchor_target_bbox_targets"
  bottom: "rpn_big_anchor_target_inside_weights"
  bottom: "rpn_big_anchor_target_outside_weights"
  top: "rpn_big_loss_bbox"
  loss_weight: 1
  python_param {
    module: "layers.smooth_l1_loss"
    layer: "SmoothL1LossLayer"
    param_str: "{\"sigma\": 3}"
  }
}
layer {
  name: "proposal"
  type: "Python"
  bottom: "rpn_big_cls_prob_reshape"
  bottom: "rpn_big_bbox_pred"
  bottom: "input_im_info"
  top: "rpn_rois"
  python_param {
    module: "rpn.proposal_layer"
    layer: "ProposalLayer"
    param_str: "{\"anchor_shift_num_xy\": [[2, 2], [2, 2], [2, 2], [2, 2], [1, 1], [1, 1], [1, 1], [1, 1], [1, 1], [1, 1], [1, 1], [1, 1], [1, 1], [1, 1]], \"feat_stride\": 16, \"num_classes\": 1, \"anchor_scales\": [2.5, 3.025, 3.66025, 4.4289024999999995, 5.358972025, 6.484356150249999, 7.846070941802498, 9.493745839581022, 11.487432465893036, 13.899793283730574, 16.818749873313998, 20.350687346709933, 24.62433168951902, 29.795441344318014], \"square_targets\": true, \"name\": \"rpn_big\", \"batchsize\": 256, \"anchor_ratios\": [1.0]}"
  }
}
layer {
  name: "roi-data"
  type: "Python"
  bottom: "rpn_rois"
  bottom: "input_gt_boxes"
  top: "rois"
  top: "labels"
  top: "bbox_targets"
  top: "bbox_inside_weights"
  top: "bbox_outside_weights"
  top: "pid_label"
  python_param {
    module: "rpn.proposal_target_layer"
    layer: "ProposalTargetLayer"
    param_str: "{\"num_classes\": 2, \"bg_aux_label\": 5532}"
  }
}
layer {
  name: "roi-pool"
  type: "ROIPooling"
  bottom: "conv5_3"
  bottom: "rois"
  top: "roi-pool"
  roi_pooling_param {
    pooled_h: 7
    pooled_w: 7
    spatial_scale: 0.0625
  }
}
layer {
  name: "fc6"
  type: "InnerProduct"
  bottom: "roi-pool"
  top: "fc6"
  param {
    lr_mult: 1
  }
  param {
    lr_mult: 2
  }
  inner_product_param {
    num_output: 4096
  }
}
layer {
  name: "relu6"
  type: "ReLU"
  bottom: "fc6"
  top: "fc6"
}
layer {
  name: "drop6"
  type: "Dropout"
  bottom: "fc6"
  top: "fc6"
  dropout_param {
    dropout_ratio: 0.5
  }
}
layer {
  name: "fc7"
  type: "InnerProduct"
  bottom: "fc6"
  top: "fc7"
  param {
    lr_mult: 1
  }
  param {
    lr_mult: 2
  }
  inner_product_param {
    num_output: 4096
  }
}
layer {
  name: "relu7"
  type: "ReLU"
  bottom: "fc7"
  top: "fc7"
}
layer {
  name: "drop7"
  type: "Dropout"
  bottom: "fc7"
  top: "fc7"
  dropout_param {
    dropout_ratio: 0.5
  }
}
layer {
  name: "bbox_pred"
  type: "InnerProduct"
  bottom: "fc7"
  top: "bbox_pred"
  param {
    lr_mult: 1
  }
  param {
    lr_mult: 2
  }
  inner_product_param {
    num_output: 8
    weight_filler {
      type: "gaussian"
      std: 0.001
    }
    bias_filler {
      type: "constant"
      value: 0
    }
  }
}
layer {
  name: "loss_bbox"
  type: "SmoothL1Loss"
  bottom: "bbox_pred"
  bottom: "bbox_targets"
  bottom: "bbox_inside_weights"
  bottom: "bbox_outside_weights"
  top: "loss_bbox"
  loss_weight: 1
}
layer {
  name: "feat"
  type: "InnerProduct"
  bottom: "fc7"
  top: "feat"
  param {
    lr_mult: 1
    decay_mult: 1
  }
  param {
    lr_mult: 2
    decay_mult: 0
  }
  inner_product_param {
    num_output: 256
    weight_filler {
      type: "gaussian"
      std: 0.01
    }
    bias_filler {
      type: "constant"
      value: 0
    }
  }
}
layer {
  name: "relu8"
  type: "ReLU"
  bottom: "feat"
  top: "feat"
}
layer {
  name: "drop8"
  type: "Dropout"
  bottom: "feat"
  top: "feat"
  dropout_param {
    dropout_ratio: 0.5
  }
}
layer {
  name: "pid_score"
  type: "InnerProduct"
  bottom: "feat"
  top: "pid_score"
  param {
    lr_mult: 1
    decay_mult: 1
  }
  param {
    lr_mult: 2
    decay_mult: 0
  }
  inner_product_param {
    num_output: 5533
    weight_filler {
      type: "gaussian"
      std: 0.001
    }
    bias_filler {
      type: "constant"
      value: 0
    }
  }
}
layer {
  name: "pid_loss"
  type: "SoftmaxWithLoss"
  bottom: "pid_score"
  bottom: "pid_label"
  top: "pid_loss"
  loss_weight: 1
  propagate_down: true
  propagate_down: false
  loss_param {
    ignore_label: -1
    normalize: true
  }
}
I0413 18:54:16.613394 14489 layer_factory.hpp:77] Creating layer input
I0413 18:54:16.615322 14489 net.cpp:100] Creating Layer input
I0413 18:54:16.615346 14489 net.cpp:408] input -> input_data
I0413 18:54:16.615365 14489 net.cpp:408] input -> input_im_info
I0413 18:54:16.615377 14489 net.cpp:408] input -> input_gt_boxes
I0413 18:54:16.615391 14489 net.cpp:408] input -> input_ignored_boxes
RoiDataLayer: name_to_top: {'ignored_boxes': 3, 'gt_boxes': 2, 'im_info': 1, 'data': 0}
I0413 18:54:16.938575 14489 net.cpp:150] Setting up input
I0413 18:54:16.938622 14489 net.cpp:157] Top shape: 1 3 1000 1500 (4500000)
I0413 18:54:16.938647 14489 net.cpp:157] Top shape: 1 3 (3)
I0413 18:54:16.938668 14489 net.cpp:157] Top shape: 1 5 (5)
I0413 18:54:16.938680 14489 net.cpp:157] Top shape: 1 5 (5)
I0413 18:54:16.938686 14489 net.cpp:165] Memory required for data: 18000052
I0413 18:54:16.938696 14489 layer_factory.hpp:77] Creating layer input_data_input_0_split
I0413 18:54:16.938717 14489 net.cpp:100] Creating Layer input_data_input_0_split
I0413 18:54:16.938724 14489 net.cpp:434] input_data_input_0_split <- input_data
I0413 18:54:16.938738 14489 net.cpp:408] input_data_input_0_split -> input_data_input_0_split_0
I0413 18:54:16.938755 14489 net.cpp:408] input_data_input_0_split -> input_data_input_0_split_1
I0413 18:54:16.938796 14489 net.cpp:150] Setting up input_data_input_0_split
I0413 18:54:16.938807 14489 net.cpp:157] Top shape: 1 3 1000 1500 (4500000)
I0413 18:54:16.938817 14489 net.cpp:157] Top shape: 1 3 1000 1500 (4500000)
I0413 18:54:16.938824 14489 net.cpp:165] Memory required for data: 54000052
I0413 18:54:16.938830 14489 layer_factory.hpp:77] Creating layer input_im_info_input_1_split
I0413 18:54:16.938843 14489 net.cpp:100] Creating Layer input_im_info_input_1_split
I0413 18:54:16.938850 14489 net.cpp:434] input_im_info_input_1_split <- input_im_info
I0413 18:54:16.938860 14489 net.cpp:408] input_im_info_input_1_split -> input_im_info_input_1_split_0
I0413 18:54:16.938872 14489 net.cpp:408] input_im_info_input_1_split -> input_im_info_input_1_split_1
I0413 18:54:16.938907 14489 net.cpp:150] Setting up input_im_info_input_1_split
I0413 18:54:16.938917 14489 net.cpp:157] Top shape: 1 3 (3)
I0413 18:54:16.938971 14489 net.cpp:157] Top shape: 1 3 (3)
I0413 18:54:16.938977 14489 net.cpp:165] Memory required for data: 54000076
I0413 18:54:16.938982 14489 layer_factory.hpp:77] Creating layer input_gt_boxes_input_2_split
I0413 18:54:16.938995 14489 net.cpp:100] Creating Layer input_gt_boxes_input_2_split
I0413 18:54:16.939003 14489 net.cpp:434] input_gt_boxes_input_2_split <- input_gt_boxes
I0413 18:54:16.939013 14489 net.cpp:408] input_gt_boxes_input_2_split -> input_gt_boxes_input_2_split_0
I0413 18:54:16.939028 14489 net.cpp:408] input_gt_boxes_input_2_split -> input_gt_boxes_input_2_split_1
I0413 18:54:16.939066 14489 net.cpp:150] Setting up input_gt_boxes_input_2_split
I0413 18:54:16.939076 14489 net.cpp:157] Top shape: 1 5 (5)
I0413 18:54:16.939085 14489 net.cpp:157] Top shape: 1 5 (5)
I0413 18:54:16.939091 14489 net.cpp:165] Memory required for data: 54000116
I0413 18:54:16.939098 14489 layer_factory.hpp:77] Creating layer conv1_1
I0413 18:54:16.939116 14489 net.cpp:100] Creating Layer conv1_1
I0413 18:54:16.939122 14489 net.cpp:434] conv1_1 <- input_data_input_0_split_0
I0413 18:54:16.939132 14489 net.cpp:408] conv1_1 -> conv1_1
I0413 18:54:16.942299 14489 net.cpp:150] Setting up conv1_1
I0413 18:54:16.942340 14489 net.cpp:157] Top shape: 1 64 1000 1500 (96000000)
I0413 18:54:16.942348 14489 net.cpp:165] Memory required for data: 438000116
I0413 18:54:16.942373 14489 layer_factory.hpp:77] Creating layer relu1_1
I0413 18:54:16.942392 14489 net.cpp:100] Creating Layer relu1_1
I0413 18:54:16.942401 14489 net.cpp:434] relu1_1 <- conv1_1
I0413 18:54:16.942415 14489 net.cpp:395] relu1_1 -> conv1_1 (in-place)
I0413 18:54:16.942433 14489 net.cpp:150] Setting up relu1_1
I0413 18:54:16.942445 14489 net.cpp:157] Top shape: 1 64 1000 1500 (96000000)
I0413 18:54:16.942453 14489 net.cpp:165] Memory required for data: 822000116
I0413 18:54:16.942459 14489 layer_factory.hpp:77] Creating layer conv1_2
I0413 18:54:16.942476 14489 net.cpp:100] Creating Layer conv1_2
I0413 18:54:16.942484 14489 net.cpp:434] conv1_2 <- conv1_1
I0413 18:54:16.942495 14489 net.cpp:408] conv1_2 -> conv1_2
I0413 18:54:16.945834 14489 net.cpp:150] Setting up conv1_2
I0413 18:54:16.945880 14489 net.cpp:157] Top shape: 1 64 1000 1500 (96000000)
I0413 18:54:16.945888 14489 net.cpp:165] Memory required for data: 1206000116
I0413 18:54:16.945912 14489 layer_factory.hpp:77] Creating layer relu1_2
I0413 18:54:16.945931 14489 net.cpp:100] Creating Layer relu1_2
I0413 18:54:16.945940 14489 net.cpp:434] relu1_2 <- conv1_2
I0413 18:54:16.945951 14489 net.cpp:395] relu1_2 -> conv1_2 (in-place)
I0413 18:54:16.945967 14489 net.cpp:150] Setting up relu1_2
I0413 18:54:16.945976 14489 net.cpp:157] Top shape: 1 64 1000 1500 (96000000)
I0413 18:54:16.945981 14489 net.cpp:165] Memory required for data: 1590000116
I0413 18:54:16.945986 14489 layer_factory.hpp:77] Creating layer pool1
I0413 18:54:16.945997 14489 net.cpp:100] Creating Layer pool1
I0413 18:54:16.946007 14489 net.cpp:434] pool1 <- conv1_2
I0413 18:54:16.946015 14489 net.cpp:408] pool1 -> pool1
I0413 18:54:16.946105 14489 net.cpp:150] Setting up pool1
I0413 18:54:16.946117 14489 net.cpp:157] Top shape: 1 64 500 750 (24000000)
I0413 18:54:16.946123 14489 net.cpp:165] Memory required for data: 1686000116
I0413 18:54:16.946128 14489 layer_factory.hpp:77] Creating layer conv2_1
I0413 18:54:16.946143 14489 net.cpp:100] Creating Layer conv2_1
I0413 18:54:16.946151 14489 net.cpp:434] conv2_1 <- pool1
I0413 18:54:16.946161 14489 net.cpp:408] conv2_1 -> conv2_1
I0413 18:54:16.950700 14489 net.cpp:150] Setting up conv2_1
I0413 18:54:16.950768 14489 net.cpp:157] Top shape: 1 128 500 750 (48000000)
I0413 18:54:16.950780 14489 net.cpp:165] Memory required for data: 1878000116
I0413 18:54:16.950814 14489 layer_factory.hpp:77] Creating layer relu2_1
I0413 18:54:16.950834 14489 net.cpp:100] Creating Layer relu2_1
I0413 18:54:16.950846 14489 net.cpp:434] relu2_1 <- conv2_1
I0413 18:54:16.950862 14489 net.cpp:395] relu2_1 -> conv2_1 (in-place)
I0413 18:54:16.950892 14489 net.cpp:150] Setting up relu2_1
I0413 18:54:16.950897 14489 net.cpp:157] Top shape: 1 128 500 750 (48000000)
I0413 18:54:16.950901 14489 net.cpp:165] Memory required for data: 2070000116
I0413 18:54:16.950903 14489 layer_factory.hpp:77] Creating layer conv2_2
I0413 18:54:16.950913 14489 net.cpp:100] Creating Layer conv2_2
I0413 18:54:16.950919 14489 net.cpp:434] conv2_2 <- conv2_1
I0413 18:54:16.950928 14489 net.cpp:408] conv2_2 -> conv2_2
I0413 18:54:16.952720 14489 net.cpp:150] Setting up conv2_2
I0413 18:54:16.952747 14489 net.cpp:157] Top shape: 1 128 500 750 (48000000)
I0413 18:54:16.952750 14489 net.cpp:165] Memory required for data: 2262000116
I0413 18:54:16.952761 14489 layer_factory.hpp:77] Creating layer relu2_2
I0413 18:54:16.952777 14489 net.cpp:100] Creating Layer relu2_2
I0413 18:54:16.952787 14489 net.cpp:434] relu2_2 <- conv2_2
I0413 18:54:16.952797 14489 net.cpp:395] relu2_2 -> conv2_2 (in-place)
I0413 18:54:16.952811 14489 net.cpp:150] Setting up relu2_2
I0413 18:54:16.952818 14489 net.cpp:157] Top shape: 1 128 500 750 (48000000)
I0413 18:54:16.952824 14489 net.cpp:165] Memory required for data: 2454000116
I0413 18:54:16.952831 14489 layer_factory.hpp:77] Creating layer pool2
I0413 18:54:16.952844 14489 net.cpp:100] Creating Layer pool2
I0413 18:54:16.952852 14489 net.cpp:434] pool2 <- conv2_2
I0413 18:54:16.952860 14489 net.cpp:408] pool2 -> pool2
I0413 18:54:16.952947 14489 net.cpp:150] Setting up pool2
I0413 18:54:16.952960 14489 net.cpp:157] Top shape: 1 128 250 375 (12000000)
I0413 18:54:16.952965 14489 net.cpp:165] Memory required for data: 2502000116
I0413 18:54:16.952970 14489 layer_factory.hpp:77] Creating layer conv3_1
I0413 18:54:16.952986 14489 net.cpp:100] Creating Layer conv3_1
I0413 18:54:16.952992 14489 net.cpp:434] conv3_1 <- pool2
I0413 18:54:16.953002 14489 net.cpp:408] conv3_1 -> conv3_1
I0413 18:54:16.954257 14489 net.cpp:150] Setting up conv3_1
I0413 18:54:16.954283 14489 net.cpp:157] Top shape: 1 256 250 375 (24000000)
I0413 18:54:16.954286 14489 net.cpp:165] Memory required for data: 2598000116
I0413 18:54:16.954301 14489 layer_factory.hpp:77] Creating layer relu3_1
I0413 18:54:16.954311 14489 net.cpp:100] Creating Layer relu3_1
I0413 18:54:16.954318 14489 net.cpp:434] relu3_1 <- conv3_1
I0413 18:54:16.954327 14489 net.cpp:395] relu3_1 -> conv3_1 (in-place)
I0413 18:54:16.954341 14489 net.cpp:150] Setting up relu3_1
I0413 18:54:16.954350 14489 net.cpp:157] Top shape: 1 256 250 375 (24000000)
I0413 18:54:16.954355 14489 net.cpp:165] Memory required for data: 2694000116
I0413 18:54:16.954360 14489 layer_factory.hpp:77] Creating layer conv3_2
I0413 18:54:16.954378 14489 net.cpp:100] Creating Layer conv3_2
I0413 18:54:16.954385 14489 net.cpp:434] conv3_2 <- conv3_1
I0413 18:54:16.954394 14489 net.cpp:408] conv3_2 -> conv3_2
I0413 18:54:16.955689 14489 net.cpp:150] Setting up conv3_2
I0413 18:54:16.955716 14489 net.cpp:157] Top shape: 1 256 250 375 (24000000)
I0413 18:54:16.955720 14489 net.cpp:165] Memory required for data: 2790000116
I0413 18:54:16.955730 14489 layer_factory.hpp:77] Creating layer relu3_2
I0413 18:54:16.955742 14489 net.cpp:100] Creating Layer relu3_2
I0413 18:54:16.955751 14489 net.cpp:434] relu3_2 <- conv3_2
I0413 18:54:16.955766 14489 net.cpp:395] relu3_2 -> conv3_2 (in-place)
I0413 18:54:16.955780 14489 net.cpp:150] Setting up relu3_2
I0413 18:54:16.955788 14489 net.cpp:157] Top shape: 1 256 250 375 (24000000)
I0413 18:54:16.955795 14489 net.cpp:165] Memory required for data: 2886000116
I0413 18:54:16.955801 14489 layer_factory.hpp:77] Creating layer conv3_3
I0413 18:54:16.955812 14489 net.cpp:100] Creating Layer conv3_3
I0413 18:54:16.955819 14489 net.cpp:434] conv3_3 <- conv3_2
I0413 18:54:16.955832 14489 net.cpp:408] conv3_3 -> conv3_3
I0413 18:54:16.957490 14489 net.cpp:150] Setting up conv3_3
I0413 18:54:16.957525 14489 net.cpp:157] Top shape: 1 256 250 375 (24000000)
I0413 18:54:16.957527 14489 net.cpp:165] Memory required for data: 2982000116
I0413 18:54:16.957540 14489 layer_factory.hpp:77] Creating layer relu3_3
I0413 18:54:16.957552 14489 net.cpp:100] Creating Layer relu3_3
I0413 18:54:16.957562 14489 net.cpp:434] relu3_3 <- conv3_3
I0413 18:54:16.957576 14489 net.cpp:395] relu3_3 -> conv3_3 (in-place)
I0413 18:54:16.957590 14489 net.cpp:150] Setting up relu3_3
I0413 18:54:16.957598 14489 net.cpp:157] Top shape: 1 256 250 375 (24000000)
I0413 18:54:16.957604 14489 net.cpp:165] Memory required for data: 3078000116
I0413 18:54:16.957609 14489 layer_factory.hpp:77] Creating layer pool3
I0413 18:54:16.957622 14489 net.cpp:100] Creating Layer pool3
I0413 18:54:16.957628 14489 net.cpp:434] pool3 <- conv3_3
I0413 18:54:16.957635 14489 net.cpp:408] pool3 -> pool3
I0413 18:54:16.957698 14489 net.cpp:150] Setting up pool3
I0413 18:54:16.957710 14489 net.cpp:157] Top shape: 1 256 125 188 (6016000)
I0413 18:54:16.957715 14489 net.cpp:165] Memory required for data: 3102064116
I0413 18:54:16.957720 14489 layer_factory.hpp:77] Creating layer conv4_1
I0413 18:54:16.957737 14489 net.cpp:100] Creating Layer conv4_1
I0413 18:54:16.957744 14489 net.cpp:434] conv4_1 <- pool3
I0413 18:54:16.957756 14489 net.cpp:408] conv4_1 -> conv4_1
I0413 18:54:16.960649 14489 net.cpp:150] Setting up conv4_1
I0413 18:54:16.960680 14489 net.cpp:157] Top shape: 1 512 125 188 (12032000)
I0413 18:54:16.960683 14489 net.cpp:165] Memory required for data: 3150192116
I0413 18:54:16.960692 14489 layer_factory.hpp:77] Creating layer relu4_1
I0413 18:54:16.960702 14489 net.cpp:100] Creating Layer relu4_1
I0413 18:54:16.960707 14489 net.cpp:434] relu4_1 <- conv4_1
I0413 18:54:16.960716 14489 net.cpp:395] relu4_1 -> conv4_1 (in-place)
I0413 18:54:16.960727 14489 net.cpp:150] Setting up relu4_1
I0413 18:54:16.960732 14489 net.cpp:157] Top shape: 1 512 125 188 (12032000)
I0413 18:54:16.960736 14489 net.cpp:165] Memory required for data: 3198320116
I0413 18:54:16.960738 14489 layer_factory.hpp:77] Creating layer conv4_2
I0413 18:54:16.960747 14489 net.cpp:100] Creating Layer conv4_2
I0413 18:54:16.960752 14489 net.cpp:434] conv4_2 <- conv4_1
I0413 18:54:16.960757 14489 net.cpp:408] conv4_2 -> conv4_2
I0413 18:54:16.966601 14489 net.cpp:150] Setting up conv4_2
I0413 18:54:16.966634 14489 net.cpp:157] Top shape: 1 512 125 188 (12032000)
I0413 18:54:16.966639 14489 net.cpp:165] Memory required for data: 3246448116
I0413 18:54:16.966657 14489 layer_factory.hpp:77] Creating layer relu4_2
I0413 18:54:16.966673 14489 net.cpp:100] Creating Layer relu4_2
I0413 18:54:16.966683 14489 net.cpp:434] relu4_2 <- conv4_2
I0413 18:54:16.966698 14489 net.cpp:395] relu4_2 -> conv4_2 (in-place)
I0413 18:54:16.966711 14489 net.cpp:150] Setting up relu4_2
I0413 18:54:16.966720 14489 net.cpp:157] Top shape: 1 512 125 188 (12032000)
I0413 18:54:16.966727 14489 net.cpp:165] Memory required for data: 3294576116
I0413 18:54:16.966732 14489 layer_factory.hpp:77] Creating layer conv4_3
I0413 18:54:16.966745 14489 net.cpp:100] Creating Layer conv4_3
I0413 18:54:16.966753 14489 net.cpp:434] conv4_3 <- conv4_2
I0413 18:54:16.966763 14489 net.cpp:408] conv4_3 -> conv4_3
I0413 18:54:16.971633 14489 net.cpp:150] Setting up conv4_3
I0413 18:54:16.971668 14489 net.cpp:157] Top shape: 1 512 125 188 (12032000)
I0413 18:54:16.971671 14489 net.cpp:165] Memory required for data: 3342704116
I0413 18:54:16.971681 14489 layer_factory.hpp:77] Creating layer relu4_3
I0413 18:54:16.971693 14489 net.cpp:100] Creating Layer relu4_3
I0413 18:54:16.971700 14489 net.cpp:434] relu4_3 <- conv4_3
I0413 18:54:16.971714 14489 net.cpp:395] relu4_3 -> conv4_3 (in-place)
I0413 18:54:16.971729 14489 net.cpp:150] Setting up relu4_3
I0413 18:54:16.971746 14489 net.cpp:157] Top shape: 1 512 125 188 (12032000)
I0413 18:54:16.971751 14489 net.cpp:165] Memory required for data: 3390832116
I0413 18:54:16.971756 14489 layer_factory.hpp:77] Creating layer pool4
I0413 18:54:16.971766 14489 net.cpp:100] Creating Layer pool4
I0413 18:54:16.971771 14489 net.cpp:434] pool4 <- conv4_3
I0413 18:54:16.971781 14489 net.cpp:408] pool4 -> pool4
I0413 18:54:16.971832 14489 net.cpp:150] Setting up pool4
I0413 18:54:16.971843 14489 net.cpp:157] Top shape: 1 512 63 94 (3032064)
I0413 18:54:16.971848 14489 net.cpp:165] Memory required for data: 3402960372
I0413 18:54:16.971853 14489 layer_factory.hpp:77] Creating layer conv5_1
I0413 18:54:16.971866 14489 net.cpp:100] Creating Layer conv5_1
I0413 18:54:16.971873 14489 net.cpp:434] conv5_1 <- pool4
I0413 18:54:16.971886 14489 net.cpp:408] conv5_1 -> conv5_1
I0413 18:54:16.976656 14489 net.cpp:150] Setting up conv5_1
I0413 18:54:16.976696 14489 net.cpp:157] Top shape: 1 512 63 94 (3032064)
I0413 18:54:16.976703 14489 net.cpp:165] Memory required for data: 3415088628
I0413 18:54:16.976719 14489 layer_factory.hpp:77] Creating layer relu5_1
I0413 18:54:16.976733 14489 net.cpp:100] Creating Layer relu5_1
I0413 18:54:16.976748 14489 net.cpp:434] relu5_1 <- conv5_1
I0413 18:54:16.976763 14489 net.cpp:395] relu5_1 -> conv5_1 (in-place)
I0413 18:54:16.976783 14489 net.cpp:150] Setting up relu5_1
I0413 18:54:16.976794 14489 net.cpp:157] Top shape: 1 512 63 94 (3032064)
I0413 18:54:16.976799 14489 net.cpp:165] Memory required for data: 3427216884
I0413 18:54:16.976806 14489 layer_factory.hpp:77] Creating layer conv5_2
I0413 18:54:16.976819 14489 net.cpp:100] Creating Layer conv5_2
I0413 18:54:16.976828 14489 net.cpp:434] conv5_2 <- conv5_1
I0413 18:54:16.976841 14489 net.cpp:408] conv5_2 -> conv5_2
I0413 18:54:16.981222 14489 net.cpp:150] Setting up conv5_2
I0413 18:54:16.981258 14489 net.cpp:157] Top shape: 1 512 63 94 (3032064)
I0413 18:54:16.981266 14489 net.cpp:165] Memory required for data: 3439345140
I0413 18:54:16.981279 14489 layer_factory.hpp:77] Creating layer relu5_2
I0413 18:54:16.981297 14489 net.cpp:100] Creating Layer relu5_2
I0413 18:54:16.981308 14489 net.cpp:434] relu5_2 <- conv5_2
I0413 18:54:16.981320 14489 net.cpp:395] relu5_2 -> conv5_2 (in-place)
I0413 18:54:16.981338 14489 net.cpp:150] Setting up relu5_2
I0413 18:54:16.981349 14489 net.cpp:157] Top shape: 1 512 63 94 (3032064)
I0413 18:54:16.981359 14489 net.cpp:165] Memory required for data: 3451473396
I0413 18:54:16.981366 14489 layer_factory.hpp:77] Creating layer conv5_3
I0413 18:54:16.981393 14489 net.cpp:100] Creating Layer conv5_3
I0413 18:54:16.981400 14489 net.cpp:434] conv5_3 <- conv5_2
I0413 18:54:16.981411 14489 net.cpp:408] conv5_3 -> conv5_3
I0413 18:54:16.986022 14489 net.cpp:150] Setting up conv5_3
I0413 18:54:16.986059 14489 net.cpp:157] Top shape: 1 512 63 94 (3032064)
I0413 18:54:16.986065 14489 net.cpp:165] Memory required for data: 3463601652
I0413 18:54:16.986088 14489 layer_factory.hpp:77] Creating layer relu5_3
I0413 18:54:16.986104 14489 net.cpp:100] Creating Layer relu5_3
I0413 18:54:16.986110 14489 net.cpp:434] relu5_3 <- conv5_3
I0413 18:54:16.986129 14489 net.cpp:395] relu5_3 -> conv5_3 (in-place)
I0413 18:54:16.986145 14489 net.cpp:150] Setting up relu5_3
I0413 18:54:16.986155 14489 net.cpp:157] Top shape: 1 512 63 94 (3032064)
I0413 18:54:16.986162 14489 net.cpp:165] Memory required for data: 3475729908
I0413 18:54:16.986169 14489 layer_factory.hpp:77] Creating layer conv5_3_relu5_3_0_split
I0413 18:54:16.986181 14489 net.cpp:100] Creating Layer conv5_3_relu5_3_0_split
I0413 18:54:16.986188 14489 net.cpp:434] conv5_3_relu5_3_0_split <- conv5_3
I0413 18:54:16.986202 14489 net.cpp:408] conv5_3_relu5_3_0_split -> conv5_3_relu5_3_0_split_0
I0413 18:54:16.986215 14489 net.cpp:408] conv5_3_relu5_3_0_split -> conv5_3_relu5_3_0_split_1
I0413 18:54:16.986258 14489 net.cpp:150] Setting up conv5_3_relu5_3_0_split
I0413 18:54:16.986268 14489 net.cpp:157] Top shape: 1 512 63 94 (3032064)
I0413 18:54:16.986277 14489 net.cpp:157] Top shape: 1 512 63 94 (3032064)
I0413 18:54:16.986284 14489 net.cpp:165] Memory required for data: 3499986420
I0413 18:54:16.986290 14489 layer_factory.hpp:77] Creating layer rpn_big_conv1
I0413 18:54:16.986311 14489 net.cpp:100] Creating Layer rpn_big_conv1
I0413 18:54:16.986320 14489 net.cpp:434] rpn_big_conv1 <- conv5_3_relu5_3_0_split_0
I0413 18:54:16.986330 14489 net.cpp:408] rpn_big_conv1 -> rpn_big_conv1
I0413 18:54:17.012615 14489 net.cpp:150] Setting up rpn_big_conv1
I0413 18:54:17.012647 14489 net.cpp:157] Top shape: 1 512 63 94 (3032064)
I0413 18:54:17.012653 14489 net.cpp:165] Memory required for data: 3512114676
I0413 18:54:17.012670 14489 layer_factory.hpp:77] Creating layer rpn_big_conv1_relu
I0413 18:54:17.012686 14489 net.cpp:100] Creating Layer rpn_big_conv1_relu
I0413 18:54:17.012697 14489 net.cpp:434] rpn_big_conv1_relu <- rpn_big_conv1
I0413 18:54:17.012712 14489 net.cpp:395] rpn_big_conv1_relu -> rpn_big_conv1 (in-place)
I0413 18:54:17.012729 14489 net.cpp:150] Setting up rpn_big_conv1_relu
I0413 18:54:17.012740 14489 net.cpp:157] Top shape: 1 512 63 94 (3032064)
I0413 18:54:17.012747 14489 net.cpp:165] Memory required for data: 3524242932
I0413 18:54:17.012756 14489 layer_factory.hpp:77] Creating layer rpn_big_conv2
I0413 18:54:17.012778 14489 net.cpp:100] Creating Layer rpn_big_conv2
I0413 18:54:17.012784 14489 net.cpp:434] rpn_big_conv2 <- rpn_big_conv1
I0413 18:54:17.012795 14489 net.cpp:408] rpn_big_conv2 -> rpn_big_conv2
I0413 18:54:17.038554 14489 net.cpp:150] Setting up rpn_big_conv2
I0413 18:54:17.038589 14489 net.cpp:157] Top shape: 1 512 63 94 (3032064)
I0413 18:54:17.038594 14489 net.cpp:165] Memory required for data: 3536371188
I0413 18:54:17.038617 14489 layer_factory.hpp:77] Creating layer rpn_big_conv2_relu
I0413 18:54:17.038633 14489 net.cpp:100] Creating Layer rpn_big_conv2_relu
I0413 18:54:17.038642 14489 net.cpp:434] rpn_big_conv2_relu <- rpn_big_conv2
I0413 18:54:17.038657 14489 net.cpp:395] rpn_big_conv2_relu -> rpn_big_conv2 (in-place)
I0413 18:54:17.038672 14489 net.cpp:150] Setting up rpn_big_conv2_relu
I0413 18:54:17.038681 14489 net.cpp:157] Top shape: 1 512 63 94 (3032064)
I0413 18:54:17.038688 14489 net.cpp:165] Memory required for data: 3548499444
I0413 18:54:17.038696 14489 layer_factory.hpp:77] Creating layer rpn_big_conv2_drop
I0413 18:54:17.038709 14489 net.cpp:100] Creating Layer rpn_big_conv2_drop
I0413 18:54:17.038717 14489 net.cpp:434] rpn_big_conv2_drop <- rpn_big_conv2
I0413 18:54:17.038725 14489 net.cpp:395] rpn_big_conv2_drop -> rpn_big_conv2 (in-place)
I0413 18:54:17.038776 14489 net.cpp:150] Setting up rpn_big_conv2_drop
I0413 18:54:17.038787 14489 net.cpp:157] Top shape: 1 512 63 94 (3032064)
I0413 18:54:17.038794 14489 net.cpp:165] Memory required for data: 3560627700
I0413 18:54:17.038800 14489 layer_factory.hpp:77] Creating layer rpn_big_conv2_rpn_big_conv2_drop_0_split
I0413 18:54:17.038811 14489 net.cpp:100] Creating Layer rpn_big_conv2_rpn_big_conv2_drop_0_split
I0413 18:54:17.038820 14489 net.cpp:434] rpn_big_conv2_rpn_big_conv2_drop_0_split <- rpn_big_conv2
I0413 18:54:17.038832 14489 net.cpp:408] rpn_big_conv2_rpn_big_conv2_drop_0_split -> rpn_big_conv2_rpn_big_conv2_drop_0_split_0
I0413 18:54:17.038846 14489 net.cpp:408] rpn_big_conv2_rpn_big_conv2_drop_0_split -> rpn_big_conv2_rpn_big_conv2_drop_0_split_1
I0413 18:54:17.038893 14489 net.cpp:150] Setting up rpn_big_conv2_rpn_big_conv2_drop_0_split
I0413 18:54:17.038904 14489 net.cpp:157] Top shape: 1 512 63 94 (3032064)
I0413 18:54:17.038913 14489 net.cpp:157] Top shape: 1 512 63 94 (3032064)
I0413 18:54:17.038920 14489 net.cpp:165] Memory required for data: 3584884212
I0413 18:54:17.038926 14489 layer_factory.hpp:77] Creating layer rpn_big_output_cls
I0413 18:54:17.038944 14489 net.cpp:100] Creating Layer rpn_big_output_cls
I0413 18:54:17.038952 14489 net.cpp:434] rpn_big_output_cls <- rpn_big_conv2_rpn_big_conv2_drop_0_split_0
I0413 18:54:17.038965 14489 net.cpp:408] rpn_big_output_cls -> rpn_big_output_cls
I0413 18:54:17.058203 14489 net.cpp:150] Setting up rpn_big_output_cls
I0413 18:54:17.058235 14489 net.cpp:157] Top shape: 1 384 63 94 (2274048)
I0413 18:54:17.058241 14489 net.cpp:165] Memory required for data: 3593980404
I0413 18:54:17.058264 14489 layer_factory.hpp:77] Creating layer rpn_big_output_cls_relu
I0413 18:54:17.058279 14489 net.cpp:100] Creating Layer rpn_big_output_cls_relu
I0413 18:54:17.058298 14489 net.cpp:434] rpn_big_output_cls_relu <- rpn_big_output_cls
I0413 18:54:17.058316 14489 net.cpp:395] rpn_big_output_cls_relu -> rpn_big_output_cls (in-place)
I0413 18:54:17.058332 14489 net.cpp:150] Setting up rpn_big_output_cls_relu
I0413 18:54:17.058341 14489 net.cpp:157] Top shape: 1 384 63 94 (2274048)
I0413 18:54:17.058348 14489 net.cpp:165] Memory required for data: 3603076596
I0413 18:54:17.058356 14489 layer_factory.hpp:77] Creating layer rpn_big_cls_score
I0413 18:54:17.058375 14489 net.cpp:100] Creating Layer rpn_big_cls_score
I0413 18:54:17.058382 14489 net.cpp:434] rpn_big_cls_score <- rpn_big_output_cls
I0413 18:54:17.058396 14489 net.cpp:408] rpn_big_cls_score -> rpn_big_cls_score
I0413 18:54:17.060729 14489 net.cpp:150] Setting up rpn_big_cls_score
I0413 18:54:17.060750 14489 net.cpp:157] Top shape: 1 52 61 92 (291824)
I0413 18:54:17.060756 14489 net.cpp:165] Memory required for data: 3604243892
I0413 18:54:17.060781 14489 layer_factory.hpp:77] Creating layer rpn_big_cls_score_rpn_big_cls_score_0_split
I0413 18:54:17.060794 14489 net.cpp:100] Creating Layer rpn_big_cls_score_rpn_big_cls_score_0_split
I0413 18:54:17.060802 14489 net.cpp:434] rpn_big_cls_score_rpn_big_cls_score_0_split <- rpn_big_cls_score
I0413 18:54:17.060817 14489 net.cpp:408] rpn_big_cls_score_rpn_big_cls_score_0_split -> rpn_big_cls_score_rpn_big_cls_score_0_split_0
I0413 18:54:17.060830 14489 net.cpp:408] rpn_big_cls_score_rpn_big_cls_score_0_split -> rpn_big_cls_score_rpn_big_cls_score_0_split_1
I0413 18:54:17.060883 14489 net.cpp:150] Setting up rpn_big_cls_score_rpn_big_cls_score_0_split
I0413 18:54:17.060897 14489 net.cpp:157] Top shape: 1 52 61 92 (291824)
I0413 18:54:17.060915 14489 net.cpp:157] Top shape: 1 52 61 92 (291824)
I0413 18:54:17.060922 14489 net.cpp:165] Memory required for data: 3606578484
I0413 18:54:17.060928 14489 layer_factory.hpp:77] Creating layer rpn_big_cls_score_reshape
I0413 18:54:17.060940 14489 net.cpp:100] Creating Layer rpn_big_cls_score_reshape
I0413 18:54:17.060948 14489 net.cpp:434] rpn_big_cls_score_reshape <- rpn_big_cls_score_rpn_big_cls_score_0_split_0
I0413 18:54:17.060958 14489 net.cpp:408] rpn_big_cls_score_reshape -> rpn_big_cls_score_reshape
I0413 18:54:17.060995 14489 net.cpp:150] Setting up rpn_big_cls_score_reshape
I0413 18:54:17.061007 14489 net.cpp:157] Top shape: 1 2 1586 92 (291824)
I0413 18:54:17.061014 14489 net.cpp:165] Memory required for data: 3607745780
I0413 18:54:17.061020 14489 layer_factory.hpp:77] Creating layer rpn_big_cls_score_reshape_rpn_big_cls_score_reshape_0_split
I0413 18:54:17.061029 14489 net.cpp:100] Creating Layer rpn_big_cls_score_reshape_rpn_big_cls_score_reshape_0_split
I0413 18:54:17.061038 14489 net.cpp:434] rpn_big_cls_score_reshape_rpn_big_cls_score_reshape_0_split <- rpn_big_cls_score_reshape
I0413 18:54:17.061048 14489 net.cpp:408] rpn_big_cls_score_reshape_rpn_big_cls_score_reshape_0_split -> rpn_big_cls_score_reshape_rpn_big_cls_score_reshape_0_split_0
I0413 18:54:17.061063 14489 net.cpp:408] rpn_big_cls_score_reshape_rpn_big_cls_score_reshape_0_split -> rpn_big_cls_score_reshape_rpn_big_cls_score_reshape_0_split_1
I0413 18:54:17.061101 14489 net.cpp:150] Setting up rpn_big_cls_score_reshape_rpn_big_cls_score_reshape_0_split
I0413 18:54:17.061111 14489 net.cpp:157] Top shape: 1 2 1586 92 (291824)
I0413 18:54:17.061120 14489 net.cpp:157] Top shape: 1 2 1586 92 (291824)
I0413 18:54:17.061126 14489 net.cpp:165] Memory required for data: 3610080372
I0413 18:54:17.061132 14489 layer_factory.hpp:77] Creating layer rpn_big_cls_prob
I0413 18:54:17.061144 14489 net.cpp:100] Creating Layer rpn_big_cls_prob
I0413 18:54:17.061152 14489 net.cpp:434] rpn_big_cls_prob <- rpn_big_cls_score_reshape_rpn_big_cls_score_reshape_0_split_0
I0413 18:54:17.061162 14489 net.cpp:408] rpn_big_cls_prob -> rpn_big_cls_prob
I0413 18:54:17.061226 14489 net.cpp:150] Setting up rpn_big_cls_prob
I0413 18:54:17.061238 14489 net.cpp:157] Top shape: 1 2 1586 92 (291824)
I0413 18:54:17.061244 14489 net.cpp:165] Memory required for data: 3611247668
I0413 18:54:17.061249 14489 layer_factory.hpp:77] Creating layer rpn_big_cls_prob_reshape
I0413 18:54:17.061259 14489 net.cpp:100] Creating Layer rpn_big_cls_prob_reshape
I0413 18:54:17.061265 14489 net.cpp:434] rpn_big_cls_prob_reshape <- rpn_big_cls_prob
I0413 18:54:17.061276 14489 net.cpp:408] rpn_big_cls_prob_reshape -> rpn_big_cls_prob_reshape
I0413 18:54:17.061308 14489 net.cpp:150] Setting up rpn_big_cls_prob_reshape
I0413 18:54:17.061318 14489 net.cpp:157] Top shape: 1 52 61 92 (291824)
I0413 18:54:17.061324 14489 net.cpp:165] Memory required for data: 3612414964
I0413 18:54:17.061331 14489 layer_factory.hpp:77] Creating layer rpn_big_cls_prob_reshape_rpn_big_cls_prob_reshape_0_split
I0413 18:54:17.061339 14489 net.cpp:100] Creating Layer rpn_big_cls_prob_reshape_rpn_big_cls_prob_reshape_0_split
I0413 18:54:17.061347 14489 net.cpp:434] rpn_big_cls_prob_reshape_rpn_big_cls_prob_reshape_0_split <- rpn_big_cls_prob_reshape
I0413 18:54:17.061357 14489 net.cpp:408] rpn_big_cls_prob_reshape_rpn_big_cls_prob_reshape_0_split -> rpn_big_cls_prob_reshape_rpn_big_cls_prob_reshape_0_split_0
I0413 18:54:17.061368 14489 net.cpp:408] rpn_big_cls_prob_reshape_rpn_big_cls_prob_reshape_0_split -> rpn_big_cls_prob_reshape_rpn_big_cls_prob_reshape_0_split_1
I0413 18:54:17.061410 14489 net.cpp:150] Setting up rpn_big_cls_prob_reshape_rpn_big_cls_prob_reshape_0_split
I0413 18:54:17.061420 14489 net.cpp:157] Top shape: 1 52 61 92 (291824)
I0413 18:54:17.061429 14489 net.cpp:157] Top shape: 1 52 61 92 (291824)
I0413 18:54:17.061434 14489 net.cpp:165] Memory required for data: 3614749556
I0413 18:54:17.061440 14489 layer_factory.hpp:77] Creating layer rpn_big_anchor_target
I0413 18:54:17.062999 14489 net.cpp:100] Creating Layer rpn_big_anchor_target
I0413 18:54:17.063045 14489 net.cpp:434] rpn_big_anchor_target <- rpn_big_cls_score_rpn_big_cls_score_0_split_1
I0413 18:54:17.063069 14489 net.cpp:434] rpn_big_anchor_target <- input_gt_boxes_input_2_split_0
I0413 18:54:17.063091 14489 net.cpp:434] rpn_big_anchor_target <- input_ignored_boxes
I0413 18:54:17.063112 14489 net.cpp:434] rpn_big_anchor_target <- input_im_info_input_1_split_0
I0413 18:54:17.063132 14489 net.cpp:434] rpn_big_anchor_target <- input_data_input_0_split_1
I0413 18:54:17.063153 14489 net.cpp:434] rpn_big_anchor_target <- rpn_big_cls_prob_reshape_rpn_big_cls_prob_reshape_0_split_0
I0413 18:54:17.063177 14489 net.cpp:408] rpn_big_anchor_target -> rpn_big_anchor_target_labels
I0413 18:54:17.063205 14489 net.cpp:408] rpn_big_anchor_target -> rpn_big_anchor_target_bbox_targets
I0413 18:54:17.063233 14489 net.cpp:408] rpn_big_anchor_target -> rpn_big_anchor_target_inside_weights
I0413 18:54:17.063261 14489 net.cpp:408] rpn_big_anchor_target -> rpn_big_anchor_target_outside_weights
I0413 18:54:17.071144 14489 net.cpp:150] Setting up rpn_big_anchor_target
I0413 18:54:17.071177 14489 net.cpp:157] Top shape: 1 1 1586 92 (145912)
I0413 18:54:17.071185 14489 net.cpp:157] Top shape: 1 104 61 92 (583648)
I0413 18:54:17.071192 14489 net.cpp:157] Top shape: 1 104 61 92 (583648)
I0413 18:54:17.071198 14489 net.cpp:157] Top shape: 1 104 61 92 (583648)
I0413 18:54:17.071203 14489 net.cpp:165] Memory required for data: 3622336980
I0413 18:54:17.071213 14489 layer_factory.hpp:77] Creating layer rpn_big_loss_cls
I0413 18:54:17.071229 14489 net.cpp:100] Creating Layer rpn_big_loss_cls
I0413 18:54:17.071239 14489 net.cpp:434] rpn_big_loss_cls <- rpn_big_cls_score_reshape_rpn_big_cls_score_reshape_0_split_1
I0413 18:54:17.071249 14489 net.cpp:434] rpn_big_loss_cls <- rpn_big_anchor_target_labels
I0413 18:54:17.071259 14489 net.cpp:408] rpn_big_loss_cls -> rpn_big_loss_cls
I0413 18:54:17.071280 14489 layer_factory.hpp:77] Creating layer rpn_big_loss_cls
I0413 18:54:17.072031 14489 net.cpp:150] Setting up rpn_big_loss_cls
I0413 18:54:17.072041 14489 net.cpp:157] Top shape: (1)
I0413 18:54:17.072044 14489 net.cpp:160]     with loss weight 1
I0413 18:54:17.072060 14489 net.cpp:165] Memory required for data: 3622336984
I0413 18:54:17.072067 14489 layer_factory.hpp:77] Creating layer rpn_big_output_box
I0413 18:54:17.072085 14489 net.cpp:100] Creating Layer rpn_big_output_box
I0413 18:54:17.072093 14489 net.cpp:434] rpn_big_output_box <- rpn_big_conv2_rpn_big_conv2_drop_0_split_1
I0413 18:54:17.072108 14489 net.cpp:408] rpn_big_output_box -> rpn_big_output_box
I0413 18:54:17.091142 14489 net.cpp:150] Setting up rpn_big_output_box
I0413 18:54:17.091173 14489 net.cpp:157] Top shape: 1 384 63 94 (2274048)
I0413 18:54:17.091181 14489 net.cpp:165] Memory required for data: 3631433176
I0413 18:54:17.091195 14489 layer_factory.hpp:77] Creating layer rpn_big_output_box_relu
I0413 18:54:17.091229 14489 net.cpp:100] Creating Layer rpn_big_output_box_relu
I0413 18:54:17.091253 14489 net.cpp:434] rpn_big_output_box_relu <- rpn_big_output_box
I0413 18:54:17.091277 14489 net.cpp:395] rpn_big_output_box_relu -> rpn_big_output_box (in-place)
I0413 18:54:17.091301 14489 net.cpp:150] Setting up rpn_big_output_box_relu
I0413 18:54:17.091320 14489 net.cpp:157] Top shape: 1 384 63 94 (2274048)
I0413 18:54:17.091326 14489 net.cpp:165] Memory required for data: 3640529368
I0413 18:54:17.091331 14489 layer_factory.hpp:77] Creating layer rpn_big_bbox_pred
I0413 18:54:17.091346 14489 net.cpp:100] Creating Layer rpn_big_bbox_pred
I0413 18:54:17.091352 14489 net.cpp:434] rpn_big_bbox_pred <- rpn_big_output_box
I0413 18:54:17.091363 14489 net.cpp:408] rpn_big_bbox_pred -> rpn_big_bbox_pred
I0413 18:54:17.095559 14489 net.cpp:150] Setting up rpn_big_bbox_pred
I0413 18:54:17.095582 14489 net.cpp:157] Top shape: 1 104 61 92 (583648)
I0413 18:54:17.095594 14489 net.cpp:165] Memory required for data: 3642863960
I0413 18:54:17.095603 14489 layer_factory.hpp:77] Creating layer rpn_big_bbox_pred_rpn_big_bbox_pred_0_split
I0413 18:54:17.095613 14489 net.cpp:100] Creating Layer rpn_big_bbox_pred_rpn_big_bbox_pred_0_split
I0413 18:54:17.095618 14489 net.cpp:434] rpn_big_bbox_pred_rpn_big_bbox_pred_0_split <- rpn_big_bbox_pred
I0413 18:54:17.095628 14489 net.cpp:408] rpn_big_bbox_pred_rpn_big_bbox_pred_0_split -> rpn_big_bbox_pred_rpn_big_bbox_pred_0_split_0
I0413 18:54:17.095641 14489 net.cpp:408] rpn_big_bbox_pred_rpn_big_bbox_pred_0_split -> rpn_big_bbox_pred_rpn_big_bbox_pred_0_split_1
I0413 18:54:17.095702 14489 net.cpp:150] Setting up rpn_big_bbox_pred_rpn_big_bbox_pred_0_split
I0413 18:54:17.095713 14489 net.cpp:157] Top shape: 1 104 61 92 (583648)
I0413 18:54:17.095721 14489 net.cpp:157] Top shape: 1 104 61 92 (583648)
I0413 18:54:17.095733 14489 net.cpp:165] Memory required for data: 3647533144
I0413 18:54:17.095738 14489 layer_factory.hpp:77] Creating layer rpn_big_loss_bbox
I0413 18:54:17.096163 14489 net.cpp:100] Creating Layer rpn_big_loss_bbox
I0413 18:54:17.096173 14489 net.cpp:434] rpn_big_loss_bbox <- rpn_big_bbox_pred_rpn_big_bbox_pred_0_split_0
I0413 18:54:17.096177 14489 net.cpp:434] rpn_big_loss_bbox <- rpn_big_anchor_target_bbox_targets
I0413 18:54:17.096191 14489 net.cpp:434] rpn_big_loss_bbox <- rpn_big_anchor_target_inside_weights
I0413 18:54:17.096196 14489 net.cpp:434] rpn_big_loss_bbox <- rpn_big_anchor_target_outside_weights
I0413 18:54:17.096204 14489 net.cpp:408] rpn_big_loss_bbox -> rpn_big_loss_bbox
I0413 18:54:17.098271 14489 net.cpp:150] Setting up rpn_big_loss_bbox
I0413 18:54:17.098302 14489 net.cpp:157] Top shape: 1 (1)
I0413 18:54:17.098315 14489 net.cpp:160]     with loss weight 1
I0413 18:54:17.098326 14489 net.cpp:165] Memory required for data: 3647533148
I0413 18:54:17.098332 14489 layer_factory.hpp:77] Creating layer proposal
I0413 18:54:17.098788 14489 net.cpp:100] Creating Layer proposal
I0413 18:54:17.098798 14489 net.cpp:434] proposal <- rpn_big_cls_prob_reshape_rpn_big_cls_prob_reshape_0_split_1
I0413 18:54:17.098805 14489 net.cpp:434] proposal <- rpn_big_bbox_pred_rpn_big_bbox_pred_0_split_1
I0413 18:54:17.098819 14489 net.cpp:434] proposal <- input_im_info_input_1_split_1
I0413 18:54:17.098826 14489 net.cpp:408] proposal -> rpn_rois
I0413 18:54:17.103014 14489 net.cpp:150] Setting up proposal
I0413 18:54:17.103039 14489 net.cpp:157] Top shape: 1 5 (5)
I0413 18:54:17.103045 14489 net.cpp:165] Memory required for data: 3647533168
I0413 18:54:17.103054 14489 layer_factory.hpp:77] Creating layer roi-data
I0413 18:54:17.103468 14489 net.cpp:100] Creating Layer roi-data
I0413 18:54:17.103482 14489 net.cpp:434] roi-data <- rpn_rois
I0413 18:54:17.103492 14489 net.cpp:434] roi-data <- input_gt_boxes_input_2_split_1
I0413 18:54:17.103503 14489 net.cpp:408] roi-data -> rois
I0413 18:54:17.103536 14489 net.cpp:408] roi-data -> labels
I0413 18:54:17.103564 14489 net.cpp:408] roi-data -> bbox_targets
I0413 18:54:17.103587 14489 net.cpp:408] roi-data -> bbox_inside_weights
I0413 18:54:17.103612 14489 net.cpp:408] roi-data -> bbox_outside_weights
I0413 18:54:17.103638 14489 net.cpp:408] roi-data -> pid_label
I0413 18:54:17.104652 14489 net.cpp:150] Setting up roi-data
I0413 18:54:17.104668 14489 net.cpp:157] Top shape: 1 5 (5)
I0413 18:54:17.104676 14489 net.cpp:157] Top shape: 1 1 (1)
I0413 18:54:17.104683 14489 net.cpp:157] Top shape: 1 8 (8)
I0413 18:54:17.104691 14489 net.cpp:157] Top shape: 1 8 (8)
I0413 18:54:17.104697 14489 net.cpp:157] Top shape: 1 8 (8)
I0413 18:54:17.104722 14489 net.cpp:157] Top shape: (0)
I0413 18:54:17.104738 14489 net.cpp:165] Memory required for data: 3647533288
I0413 18:54:17.104766 14489 layer_factory.hpp:77] Creating layer roi-pool
I0413 18:54:17.104789 14489 net.cpp:100] Creating Layer roi-pool
I0413 18:54:17.104807 14489 net.cpp:434] roi-pool <- conv5_3_relu5_3_0_split_1
I0413 18:54:17.104828 14489 net.cpp:434] roi-pool <- rois
I0413 18:54:17.104849 14489 net.cpp:408] roi-pool -> roi-pool
I0413 18:54:17.104876 14489 roi_pooling_layer.cpp:33] Spatial scale: 0.0625
I0413 18:54:17.104909 14489 roi_pooling_layer.cpp:34] Box scale: 1
I0413 18:54:17.104980 14489 net.cpp:150] Setting up roi-pool
I0413 18:54:17.105003 14489 net.cpp:157] Top shape: 1 512 7 7 (25088)
I0413 18:54:17.105020 14489 net.cpp:165] Memory required for data: 3647633640
I0413 18:54:17.105037 14489 layer_factory.hpp:77] Creating layer fc6
I0413 18:54:17.105060 14489 net.cpp:100] Creating Layer fc6
I0413 18:54:17.105079 14489 net.cpp:434] fc6 <- roi-pool
I0413 18:54:17.105101 14489 net.cpp:408] fc6 -> fc6
I0413 18:54:17.271787 14489 net.cpp:150] Setting up fc6
I0413 18:54:17.271826 14489 net.cpp:157] Top shape: 1 4096 (4096)
I0413 18:54:17.271833 14489 net.cpp:165] Memory required for data: 3647650024
I0413 18:54:17.271850 14489 layer_factory.hpp:77] Creating layer relu6
I0413 18:54:17.271865 14489 net.cpp:100] Creating Layer relu6
I0413 18:54:17.271874 14489 net.cpp:434] relu6 <- fc6
I0413 18:54:17.271888 14489 net.cpp:395] relu6 -> fc6 (in-place)
I0413 18:54:17.271903 14489 net.cpp:150] Setting up relu6
I0413 18:54:17.271913 14489 net.cpp:157] Top shape: 1 4096 (4096)
I0413 18:54:17.271919 14489 net.cpp:165] Memory required for data: 3647666408
I0413 18:54:17.271924 14489 layer_factory.hpp:77] Creating layer drop6
I0413 18:54:17.271934 14489 net.cpp:100] Creating Layer drop6
I0413 18:54:17.271941 14489 net.cpp:434] drop6 <- fc6
I0413 18:54:17.271950 14489 net.cpp:395] drop6 -> fc6 (in-place)
I0413 18:54:17.271983 14489 net.cpp:150] Setting up drop6
I0413 18:54:17.272012 14489 net.cpp:157] Top shape: 1 4096 (4096)
I0413 18:54:17.272032 14489 net.cpp:165] Memory required for data: 3647682792
I0413 18:54:17.272049 14489 layer_factory.hpp:77] Creating layer fc7
I0413 18:54:17.272073 14489 net.cpp:100] Creating Layer fc7
I0413 18:54:17.272092 14489 net.cpp:434] fc7 <- fc6
I0413 18:54:17.272114 14489 net.cpp:408] fc7 -> fc7
I0413 18:54:17.299687 14489 net.cpp:150] Setting up fc7
I0413 18:54:17.299731 14489 net.cpp:157] Top shape: 1 4096 (4096)
I0413 18:54:17.299736 14489 net.cpp:165] Memory required for data: 3647699176
I0413 18:54:17.299747 14489 layer_factory.hpp:77] Creating layer relu7
I0413 18:54:17.299774 14489 net.cpp:100] Creating Layer relu7
I0413 18:54:17.299783 14489 net.cpp:434] relu7 <- fc7
I0413 18:54:17.299794 14489 net.cpp:395] relu7 -> fc7 (in-place)
I0413 18:54:17.299808 14489 net.cpp:150] Setting up relu7
I0413 18:54:17.299816 14489 net.cpp:157] Top shape: 1 4096 (4096)
I0413 18:54:17.299820 14489 net.cpp:165] Memory required for data: 3647715560
I0413 18:54:17.299826 14489 layer_factory.hpp:77] Creating layer drop7
I0413 18:54:17.299836 14489 net.cpp:100] Creating Layer drop7
I0413 18:54:17.299844 14489 net.cpp:434] drop7 <- fc7
I0413 18:54:17.299850 14489 net.cpp:395] drop7 -> fc7 (in-place)
I0413 18:54:17.299880 14489 net.cpp:150] Setting up drop7
I0413 18:54:17.299890 14489 net.cpp:157] Top shape: 1 4096 (4096)
I0413 18:54:17.299896 14489 net.cpp:165] Memory required for data: 3647731944
I0413 18:54:17.299901 14489 layer_factory.hpp:77] Creating layer fc7_drop7_0_split
I0413 18:54:17.299911 14489 net.cpp:100] Creating Layer fc7_drop7_0_split
I0413 18:54:17.299917 14489 net.cpp:434] fc7_drop7_0_split <- fc7
I0413 18:54:17.299926 14489 net.cpp:408] fc7_drop7_0_split -> fc7_drop7_0_split_0
I0413 18:54:17.299952 14489 net.cpp:408] fc7_drop7_0_split -> fc7_drop7_0_split_1
I0413 18:54:17.299999 14489 net.cpp:150] Setting up fc7_drop7_0_split
I0413 18:54:17.300010 14489 net.cpp:157] Top shape: 1 4096 (4096)
I0413 18:54:17.300019 14489 net.cpp:157] Top shape: 1 4096 (4096)
I0413 18:54:17.300024 14489 net.cpp:165] Memory required for data: 3647764712
I0413 18:54:17.300029 14489 layer_factory.hpp:77] Creating layer bbox_pred
I0413 18:54:17.300040 14489 net.cpp:100] Creating Layer bbox_pred
I0413 18:54:17.300045 14489 net.cpp:434] bbox_pred <- fc7_drop7_0_split_0
I0413 18:54:17.300057 14489 net.cpp:408] bbox_pred -> bbox_pred
I0413 18:54:17.300688 14489 net.cpp:150] Setting up bbox_pred
I0413 18:54:17.300696 14489 net.cpp:157] Top shape: 1 8 (8)
I0413 18:54:17.300700 14489 net.cpp:165] Memory required for data: 3647764744
I0413 18:54:17.300710 14489 layer_factory.hpp:77] Creating layer loss_bbox
I0413 18:54:17.300724 14489 net.cpp:100] Creating Layer loss_bbox
I0413 18:54:17.300731 14489 net.cpp:434] loss_bbox <- bbox_pred
I0413 18:54:17.300739 14489 net.cpp:434] loss_bbox <- bbox_targets
I0413 18:54:17.300746 14489 net.cpp:434] loss_bbox <- bbox_inside_weights
I0413 18:54:17.300753 14489 net.cpp:434] loss_bbox <- bbox_outside_weights
I0413 18:54:17.300762 14489 net.cpp:408] loss_bbox -> loss_bbox
I0413 18:54:17.300865 14489 net.cpp:150] Setting up loss_bbox
I0413 18:54:17.300875 14489 net.cpp:157] Top shape: (1)
I0413 18:54:17.300882 14489 net.cpp:160]     with loss weight 1
I0413 18:54:17.300897 14489 net.cpp:165] Memory required for data: 3647764748
I0413 18:54:17.300914 14489 layer_factory.hpp:77] Creating layer feat
I0413 18:54:17.300926 14489 net.cpp:100] Creating Layer feat
I0413 18:54:17.300932 14489 net.cpp:434] feat <- fc7_drop7_0_split_1
I0413 18:54:17.300941 14489 net.cpp:408] feat -> feat
I0413 18:54:17.312341 14489 net.cpp:150] Setting up feat
I0413 18:54:17.312371 14489 net.cpp:157] Top shape: 1 256 (256)
I0413 18:54:17.312383 14489 net.cpp:165] Memory required for data: 3647765772
I0413 18:54:17.312396 14489 layer_factory.hpp:77] Creating layer relu8
I0413 18:54:17.312407 14489 net.cpp:100] Creating Layer relu8
I0413 18:54:17.312414 14489 net.cpp:434] relu8 <- feat
I0413 18:54:17.312427 14489 net.cpp:395] relu8 -> feat (in-place)
I0413 18:54:17.312439 14489 net.cpp:150] Setting up relu8
I0413 18:54:17.312448 14489 net.cpp:157] Top shape: 1 256 (256)
I0413 18:54:17.312453 14489 net.cpp:165] Memory required for data: 3647766796
I0413 18:54:17.312458 14489 layer_factory.hpp:77] Creating layer drop8
I0413 18:54:17.312469 14489 net.cpp:100] Creating Layer drop8
I0413 18:54:17.312475 14489 net.cpp:434] drop8 <- feat
I0413 18:54:17.312484 14489 net.cpp:395] drop8 -> feat (in-place)
I0413 18:54:17.312513 14489 net.cpp:150] Setting up drop8
I0413 18:54:17.312523 14489 net.cpp:157] Top shape: 1 256 (256)
I0413 18:54:17.312530 14489 net.cpp:165] Memory required for data: 3647767820
I0413 18:54:17.312535 14489 layer_factory.hpp:77] Creating layer pid_score
I0413 18:54:17.312546 14489 net.cpp:100] Creating Layer pid_score
I0413 18:54:17.312552 14489 net.cpp:434] pid_score <- feat
I0413 18:54:17.312563 14489 net.cpp:408] pid_score -> pid_score
I0413 18:54:17.327658 14489 net.cpp:150] Setting up pid_score
I0413 18:54:17.327687 14489 net.cpp:157] Top shape: 1 5533 (5533)
I0413 18:54:17.327698 14489 net.cpp:165] Memory required for data: 3647789952
I0413 18:54:17.327710 14489 layer_factory.hpp:77] Creating layer pid_loss
I0413 18:54:17.327721 14489 net.cpp:100] Creating Layer pid_loss
I0413 18:54:17.327728 14489 net.cpp:434] pid_loss <- pid_score
I0413 18:54:17.327735 14489 net.cpp:434] pid_loss <- pid_label
I0413 18:54:17.327744 14489 net.cpp:408] pid_loss -> pid_loss
…
