…
I0413 18:58:25.926200 14801 solver.cpp:48] Initializing solver from parameters: 
base_lr: 0.001
display: 20
lr_policy: "multistep"
gamma: 0.1
momentum: 0.9
weight_decay: 0.0005
snapshot: 0
snapshot_prefix: "faces_example"
net_param {
  name: "GeneratedModel_13_04_2017_18_58"
  layer {
    name: "input"
    type: "Python"
    top: "input_data"
    top: "input_im_info"
    top: "input_gt_boxes"
    top: "input_ignored_boxes"
    python_param {
      module: "layers.roi_data_layer"
      layer: "RoIDataLayer"
      param_str: "{\"num_classes\": 2}"
    }
  }
  layer {
    name: "conv1_1"
    type: "Convolution"
    bottom: "input_data"
    top: "conv1_1"
    param {
      lr_mult: 0
      decay_mult: 0
    }
    param {
      lr_mult: 0
      decay_mult: 0
    }
    convolution_param {
      num_output: 64
      pad: 1
      kernel_size: 3
    }
  }
  layer {
    name: "relu1_1"
    type: "ReLU"
    bottom: "conv1_1"
    top: "conv1_1"
  }
  layer {
    name: "conv1_2"
    type: "Convolution"
    bottom: "conv1_1"
    top: "conv1_2"
    param {
      lr_mult: 0
      decay_mult: 0
    }
    param {
      lr_mult: 0
      decay_mult: 0
    }
    convolution_param {
      num_output: 64
      pad: 1
      kernel_size: 3
    }
  }
  layer {
    name: "relu1_2"
    type: "ReLU"
    bottom: "conv1_2"
    top: "conv1_2"
  }
  layer {
    name: "pool1"
    type: "Pooling"
    bottom: "conv1_2"
    top: "pool1"
    pooling_param {
      pool: MAX
      kernel_size: 2
      stride: 2
    }
  }
  layer {
    name: "conv2_1"
    type: "Convolution"
    bottom: "pool1"
    top: "conv2_1"
    param {
      lr_mult: 0
      decay_mult: 0
    }
    param {
      lr_mult: 0
      decay_mult: 0
    }
    convolution_param {
      num_output: 128
      pad: 1
      kernel_size: 3
    }
  }
  layer {
    name: "relu2_1"
    type: "ReLU"
    bottom: "conv2_1"
    top: "conv2_1"
  }
  layer {
    name: "conv2_2"
    type: "Convolution"
    bottom: "conv2_1"
    top: "conv2_2"
    param {
      lr_mult: 0
      decay_mult: 0
    }
    param {
      lr_mult: 0
      decay_mult: 0
    }
    convolution_param {
      num_output: 128
      pad: 1
      kernel_size: 3
    }
  }
  layer {
    name: "relu2_2"
    type: "ReLU"
    bottom: "conv2_2"
    top: "conv2_2"
  }
  layer {
    name: "pool2"
    type: "Pooling"
    bottom: "conv2_2"
    top: "pool2"
    pooling_param {
      pool: MAX
      kernel_size: 2
      stride: 2
    }
  }
  layer {
    name: "conv3_1"
    type: "Convolution"
    bottom: "pool2"
    top: "conv3_1"
    param {
      lr_mult: 1
    }
    param {
      lr_mult: 2
    }
    convolution_param {
      num_output: 256
      pad: 1
      kernel_size: 3
    }
  }
  layer {
    name: "relu3_1"
    type: "ReLU"
    bottom: "conv3_1"
    top: "conv3_1"
  }
  layer {
    name: "conv3_2"
    type: "Convolution"
    bottom: "conv3_1"
    top: "conv3_2"
    param {
      lr_mult: 1
    }
    param {
      lr_mult: 2
    }
    convolution_param {
      num_output: 256
      pad: 1
      kernel_size: 3
    }
  }
  layer {
    name: "relu3_2"
    type: "ReLU"
    bottom: "conv3_2"
    top: "conv3_2"
  }
  layer {
    name: "conv3_3"
    type: "Convolution"
    bottom: "conv3_2"
    top: "conv3_3"
    param {
      lr_mult: 1
    }
    param {
      lr_mult: 2
    }
    convolution_param {
      num_output: 256
      pad: 1
      kernel_size: 3
    }
  }
  layer {
    name: "relu3_3"
    type: "ReLU"
    bottom: "conv3_3"
    top: "conv3_3"
  }
  layer {
    name: "pool3"
    type: "Pooling"
    bottom: "conv3_3"
    top: "pool3"
    pooling_param {
      pool: MAX
      kernel_size: 2
      stride: 2
    }
  }
  layer {
    name: "conv4_1"
    type: "Convolution"
    bottom: "pool3"
    top: "conv4_1"
    param {
      lr_mult: 1
    }
    param {
      lr_mult: 2
    }
    convolution_param {
      num_output: 512
      pad: 1
      kernel_size: 3
    }
  }
  layer {
    name: "relu4_1"
    type: "ReLU"
    bottom: "conv4_1"
    top: "conv4_1"
  }
  layer {
    name: "conv4_2"
    type: "Convolution"
    bottom: "conv4_1"
    top: "conv4_2"
    param {
      lr_mult: 1
    }
    param {
      lr_mult: 2
    }
    convolution_param {
      num_output: 512
      pad: 1
      kernel_size: 3
    }
  }
  layer {
    name: "relu4_2"
    type: "ReLU"
    bottom: "conv4_2"
    top: "conv4_2"
  }
  layer {
    name: "conv4_3"
    type: "Convolution"
    bottom: "conv4_2"
    top: "conv4_3"
    param {
      lr_mult: 1
    }
    param {
      lr_mult: 2
    }
    convolution_param {
      num_output: 512
      pad: 1
      kernel_size: 3
    }
  }
  layer {
    name: "relu4_3"
    type: "ReLU"
    bottom: "conv4_3"
    top: "conv4_3"
  }
  layer {
    name: "pool4"
    type: "Pooling"
    bottom: "conv4_3"
    top: "pool4"
    pooling_param {
      pool: MAX
      kernel_size: 2
      stride: 2
    }
  }
  layer {
    name: "conv5_1"
    type: "Convolution"
    bottom: "pool4"
    top: "conv5_1"
    param {
      lr_mult: 1
    }
    param {
      lr_mult: 2
    }
    convolution_param {
      num_output: 512
      pad: 1
      kernel_size: 3
    }
  }
  layer {
    name: "relu5_1"
    type: "ReLU"
    bottom: "conv5_1"
    top: "conv5_1"
  }
  layer {
    name: "conv5_2"
    type: "Convolution"
    bottom: "conv5_1"
    top: "conv5_2"
    param {
      lr_mult: 1
    }
    param {
      lr_mult: 2
    }
    convolution_param {
      num_output: 512
      pad: 1
      kernel_size: 3
    }
  }
  layer {
    name: "relu5_2"
    type: "ReLU"
    bottom: "conv5_2"
    top: "conv5_2"
  }
  layer {
    name: "conv5_3"
    type: "Convolution"
    bottom: "conv5_2"
    top: "conv5_3"
    param {
      lr_mult: 1
    }
    param {
      lr_mult: 2
    }
    convolution_param {
      num_output: 512
      pad: 1
      kernel_size: 3
    }
  }
  layer {
    name: "relu5_3"
    type: "ReLU"
    bottom: "conv5_3"
    top: "conv5_3"
  }
  layer {
    name: "rpn_big_conv1"
    type: "Convolution"
    bottom: "conv5_3"
    top: "rpn_big_conv1"
    param {
      lr_mult: 1
    }
    param {
      lr_mult: 2
    }
    convolution_param {
      num_output: 512
      pad: 1
      kernel_size: 3
      stride: 1
      weight_filler {
        type: "gaussian"
        mean: 0
        std: 0.01
      }
      bias_filler {
        type: "constant"
      }
    }
  }
  layer {
    name: "rpn_big_conv1_relu"
    type: "ReLU"
    bottom: "rpn_big_conv1"
    top: "rpn_big_conv1"
    relu_param {
      negative_slope: 0
    }
  }
  layer {
    name: "rpn_big_conv2"
    type: "Convolution"
    bottom: "rpn_big_conv1"
    top: "rpn_big_conv2"
    param {
      lr_mult: 1
    }
    param {
      lr_mult: 2
    }
    convolution_param {
      num_output: 512
      pad: 1
      kernel_size: 3
      stride: 1
      weight_filler {
        type: "gaussian"
        mean: 0
        std: 0.01
      }
      bias_filler {
        type: "constant"
      }
    }
  }
  layer {
    name: "rpn_big_conv2_relu"
    type: "ReLU"
    bottom: "rpn_big_conv2"
    top: "rpn_big_conv2"
    relu_param {
      negative_slope: 0
    }
  }
  layer {
    name: "rpn_big_conv2_drop"
    type: "Dropout"
    bottom: "rpn_big_conv2"
    top: "rpn_big_conv2"
    dropout_param {
      dropout_ratio: 0.3
    }
  }
  layer {
    name: "rpn_big_output_cls"
    type: "Convolution"
    bottom: "rpn_big_conv2"
    top: "rpn_big_output_cls"
    param {
      lr_mult: 1
    }
    param {
      lr_mult: 2
    }
    convolution_param {
      num_output: 384
      pad: 1
      kernel_size: 3
      stride: 1
      weight_filler {
        type: "gaussian"
        mean: 0
        std: 0.01
      }
      bias_filler {
        type: "constant"
      }
    }
  }
  layer {
    name: "rpn_big_output_cls_relu"
    type: "ReLU"
    bottom: "rpn_big_output_cls"
    top: "rpn_big_output_cls"
    relu_param {
      negative_slope: 0
    }
  }
  layer {
    name: "rpn_big_cls_score"
    type: "Convolution"
    bottom: "rpn_big_output_cls"
    top: "rpn_big_cls_score"
    param {
      lr_mult: 1
    }
    param {
      lr_mult: 2
    }
    convolution_param {
      num_output: 52
      pad: 0
      kernel_size: 3
      stride: 1
      weight_filler {
        type: "gaussian"
        mean: 0
        std: 0.01
      }
      bias_filler {
        type: "constant"
      }
    }
  }
  layer {
    name: "rpn_big_cls_score_reshape"
    type: "Reshape"
    bottom: "rpn_big_cls_score"
    top: "rpn_big_cls_score_reshape"
    reshape_param {
      shape {
        dim: 0
        dim: 2
        dim: -1
        dim: 0
      }
    }
  }
  layer {
    name: "rpn_big_cls_prob"
    type: "Softmax"
    bottom: "rpn_big_cls_score_reshape"
    top: "rpn_big_cls_prob"
  }
  layer {
    name: "rpn_big_cls_prob_reshape"
    type: "Reshape"
    bottom: "rpn_big_cls_prob"
    top: "rpn_big_cls_prob_reshape"
    reshape_param {
      shape {
        dim: 0
        dim: 52
        dim: -1
        dim: 0
      }
    }
  }
  layer {
    name: "rpn_big_anchor_target"
    type: "Python"
    bottom: "rpn_big_cls_score"
    bottom: "input_gt_boxes"
    bottom: "input_ignored_boxes"
    bottom: "input_im_info"
    bottom: "input_data"
    bottom: "rpn_big_cls_prob_reshape"
    top: "rpn_big_anchor_target_labels"
    top: "rpn_big_anchor_target_bbox_targets"
    top: "rpn_big_anchor_target_inside_weights"
    top: "rpn_big_anchor_target_outside_weights"
    python_param {
      module: "rpn.anchor_target_layer"
      layer: "AnchorTargetLayer"
      param_str: "{\"negative_overlap\": 0.4, \"square_targets\": true, \"num_classes\": 1, \"positive_overlap\": 0.6, \"anchor_scales\": [2.5, 3.025, 3.66025, 4.4289024999999995, 5.358972025, 6.484356150249999, 7.846070941802498, 9.493745839581022, 11.487432465893036, 13.899793283730574, 16.818749873313998, 20.350687346709933, 24.62433168951902, 29.795441344318014], \"fg_fraction\": 0.5, \"anchor_shift_num_xy\": [[2, 2], [2, 2], [2, 2], [2, 2], [1, 1], [1, 1], [1, 1], [1, 1], [1, 1], [1, 1], [1, 1], [1, 1], [1, 1], [1, 1]], \"batchsize\": 256, \"feat_stride\": 16, \"anchor_ratios\": [1.0], \"name\": \"rpn_big\", \"tn_fraction\": 0.2}"
    }
  }
  layer {
    name: "rpn_big_loss_cls"
    type: "SoftmaxWithLoss"
    bottom: "rpn_big_cls_score_reshape"
    bottom: "rpn_big_anchor_target_labels"
    top: "rpn_big_loss_cls"
    loss_weight: 1
    propagate_down: true
    propagate_down: false
    loss_param {
      ignore_label: -1
      normalization: VALID
    }
  }
  layer {
    name: "rpn_big_output_box"
    type: "Convolution"
    bottom: "rpn_big_conv2"
    top: "rpn_big_output_box"
    param {
      lr_mult: 1
    }
    param {
      lr_mult: 2
    }
    convolution_param {
      num_output: 384
      pad: 1
      kernel_size: 3
      stride: 1
      weight_filler {
        type: "gaussian"
        mean: 0
        std: 0.01
      }
      bias_filler {
        type: "constant"
      }
    }
  }
  layer {
    name: "rpn_big_output_box_relu"
    type: "ReLU"
    bottom: "rpn_big_output_box"
    top: "rpn_big_output_box"
    relu_param {
      negative_slope: 0
    }
  }
  layer {
    name: "rpn_big_bbox_pred"
    type: "Convolution"
    bottom: "rpn_big_output_box"
    top: "rpn_big_bbox_pred"
    param {
      lr_mult: 1
    }
    param {
      lr_mult: 2
    }
    convolution_param {
      num_output: 104
      pad: 0
      kernel_size: 3
      stride: 1
      weight_filler {
        type: "gaussian"
        mean: 0
        std: 0.01
      }
      bias_filler {
        type: "constant"
      }
    }
  }
  layer {
    name: "rpn_big_loss_bbox"
    type: "Python"
    bottom: "rpn_big_bbox_pred"
    bottom: "rpn_big_anchor_target_bbox_targets"
    bottom: "rpn_big_anchor_target_inside_weights"
    bottom: "rpn_big_anchor_target_outside_weights"
    top: "rpn_big_loss_bbox"
    loss_weight: 1
    python_param {
      module: "layers.smooth_l1_loss"
      layer: "SmoothL1LossLayer"
      param_str: "{\"sigma\": 3}"
    }
  }
  layer {
    name: "proposal"
    type: "Python"
    bottom: "rpn_big_cls_prob_reshape"
    bottom: "rpn_big_bbox_pred"
    bottom: "input_im_info"
    top: "rpn_rois"
    python_param {
      module: "rpn.proposal_layer"
      layer: "ProposalLayer"
      param_str: "{\"anchor_shift_num_xy\": [[2, 2], [2, 2], [2, 2], [2, 2], [1, 1], [1, 1], [1, 1], [1, 1], [1, 1], [1, 1], [1, 1], [1, 1], [1, 1], [1, 1]], \"feat_stride\": 16, \"num_classes\": 1, \"anchor_scales\": [2.5, 3.025, 3.66025, 4.4289024999999995, 5.358972025, 6.484356150249999, 7.846070941802498, 9.493745839581022, 11.487432465893036, 13.899793283730574, 16.818749873313998, 20.350687346709933, 24.62433168951902, 29.795441344318014], \"square_targets\": true, \"name\": \"rpn_big\", \"batchsize\": 256, \"anchor_ratios\": [1.0]}"
    }
  }
  layer {
    name: "roi-data"
    type: "Python"
    bottom: "rpn_rois"
    bottom: "input_gt_boxes"
    top: "rois"
    top: "labels"
    top: "bbox_targets"
    top: "bbox_inside_weights"
    top: "bbox_outside_weights"
    top: "pid_label"
    python_param {
      module: "rpn.proposal_target_layer"
      layer: "ProposalTargetLayer"
      param_str: "{\"num_classes\": 2, \"bg_aux_label\": 5532}"
    }
  }
  layer {
    name: "roi-pool"
    type: "ROIPooling"
    bottom: "conv5_3"
    bottom: "rois"
    top: "roi-pool"
    roi_pooling_param {
      pooled_h: 7
      pooled_w: 7
      spatial_scale: 0.0625
    }
  }
  layer {
    name: "fc6"
    type: "InnerProduct"
    bottom: "roi-pool"
    top: "fc6"
    param {
      lr_mult: 1
    }
    param {
      lr_mult: 2
    }
    inner_product_param {
      num_output: 4096
    }
  }
  layer {
    name: "relu6"
    type: "ReLU"
    bottom: "fc6"
    top: "fc6"
  }
  layer {
    name: "drop6"
    type: "Dropout"
    bottom: "fc6"
    top: "fc6"
    dropout_param {
      dropout_ratio: 0.5
    }
  }
  layer {
    name: "fc7"
    type: "InnerProduct"
    bottom: "fc6"
    top: "fc7"
    param {
      lr_mult: 1
    }
    param {
      lr_mult: 2
    }
    inner_product_param {
      num_output: 4096
    }
  }
  layer {
    name: "relu7"
    type: "ReLU"
    bottom: "fc7"
    top: "fc7"
  }
  layer {
    name: "drop7"
    type: "Dropout"
    bottom: "fc7"
    top: "fc7"
    dropout_param {
      dropout_ratio: 0.5
    }
  }
  layer {
    name: "bbox_pred"
    type: "InnerProduct"
    bottom: "fc7"
    top: "bbox_pred"
    param {
      lr_mult: 1
    }
    param {
      lr_mult: 2
    }
    inner_product_param {
      num_output: 8
      weight_filler {
        type: "gaussian"
        std: 0.001
      }
      bias_filler {
        type: "constant"
        value: 0
      }
    }
  }
  layer {
    name: "loss_bbox"
    type: "SmoothL1Loss"
    bottom: "bbox_pred"
    bottom: "bbox_targets"
    bottom: "bbox_inside_weights"
    bottom: "bbox_outside_weights"
    top: "loss_bbox"
    loss_weight: 1
  }
  layer {
    name: "feat"
    type: "InnerProduct"
    bottom: "fc7"
    top: "feat"
    param {
      lr_mult: 1
      decay_mult: 1
    }
    param {
      lr_mult: 2
      decay_mult: 0
    }
    inner_product_param {
      num_output: 256
      weight_filler {
        type: "gaussian"
        std: 0.01
      }
      bias_filler {
        type: "constant"
        value: 0
      }
    }
  }
  layer {
    name: "relu8"
    type: "ReLU"
    bottom: "feat"
    top: "feat"
  }
  layer {
    name: "drop8"
    type: "Dropout"
    bottom: "feat"
    top: "feat"
    dropout_param {
      dropout_ratio: 0.5
    }
  }
  layer {
    name: "pid_score"
    type: "InnerProduct"
    bottom: "feat"
    top: "pid_score"
    param {
      lr_mult: 1
      decay_mult: 1
    }
    param {
      lr_mult: 2
      decay_mult: 0
    }
    inner_product_param {
      num_output: 5533
      weight_filler {
        type: "gaussian"
        std: 0.001
      }
      bias_filler {
        type: "constant"
        value: 0
      }
    }
  }
  layer {
    name: "pid_loss"
    type: "SoftmaxWithLoss"
    bottom: "pid_score"
    bottom: "pid_label"
    top: "pid_loss"
    loss_weight: 1
    propagate_down: true
    propagate_down: false
    loss_param {
      ignore_label: -1
      normalize: true
    }
  }
}
average_loss: 100
stepvalue: 70000
stepvalue: 120000
iter_size: 2
I0413 18:58:25.926327 14801 solver.cpp:86] Creating training net specified in net_param.
I0413 18:58:25.927243 14801 net.cpp:58] Initializing net from parameters: 
name: "GeneratedModel_13_04_2017_18_58"
state {
  phase: TRAIN
}
layer {
  name: "input"
  type: "Python"
  top: "input_data"
  top: "input_im_info"
  top: "input_gt_boxes"
  top: "input_ignored_boxes"
  python_param {
    module: "layers.roi_data_layer"
    layer: "RoIDataLayer"
    param_str: "{\"num_classes\": 2}"
  }
}
layer {
  name: "conv1_1"
  type: "Convolution"
  bottom: "input_data"
  top: "conv1_1"
  param {
    lr_mult: 0
    decay_mult: 0
  }
  param {
    lr_mult: 0
    decay_mult: 0
  }
  convolution_param {
    num_output: 64
    pad: 1
    kernel_size: 3
  }
}
layer {
  name: "relu1_1"
  type: "ReLU"
  bottom: "conv1_1"
  top: "conv1_1"
}
layer {
  name: "conv1_2"
  type: "Convolution"
  bottom: "conv1_1"
  top: "conv1_2"
  param {
    lr_mult: 0
    decay_mult: 0
  }
  param {
    lr_mult: 0
    decay_mult: 0
  }
  convolution_param {
    num_output: 64
    pad: 1
    kernel_size: 3
  }
}
layer {
  name: "relu1_2"
  type: "ReLU"
  bottom: "conv1_2"
  top: "conv1_2"
}
layer {
  name: "pool1"
  type: "Pooling"
  bottom: "conv1_2"
  top: "pool1"
  pooling_param {
    pool: MAX
    kernel_size: 2
    stride: 2
  }
}
layer {
  name: "conv2_1"
  type: "Convolution"
  bottom: "pool1"
  top: "conv2_1"
  param {
    lr_mult: 0
    decay_mult: 0
  }
  param {
    lr_mult: 0
    decay_mult: 0
  }
  convolution_param {
    num_output: 128
    pad: 1
    kernel_size: 3
  }
}
layer {
  name: "relu2_1"
  type: "ReLU"
  bottom: "conv2_1"
  top: "conv2_1"
}
layer {
  name: "conv2_2"
  type: "Convolution"
  bottom: "conv2_1"
  top: "conv2_2"
  param {
    lr_mult: 0
    decay_mult: 0
  }
  param {
    lr_mult: 0
    decay_mult: 0
  }
  convolution_param {
    num_output: 128
    pad: 1
    kernel_size: 3
  }
}
layer {
  name: "relu2_2"
  type: "ReLU"
  bottom: "conv2_2"
  top: "conv2_2"
}
layer {
  name: "pool2"
  type: "Pooling"
  bottom: "conv2_2"
  top: "pool2"
  pooling_param {
    pool: MAX
    kernel_size: 2
    stride: 2
  }
}
layer {
  name: "conv3_1"
  type: "Convolution"
  bottom: "pool2"
  top: "conv3_1"
  param {
    lr_mult: 1
  }
  param {
    lr_mult: 2
  }
  convolution_param {
    num_output: 256
    pad: 1
    kernel_size: 3
  }
}
layer {
  name: "relu3_1"
  type: "ReLU"
  bottom: "conv3_1"
  top: "conv3_1"
}
layer {
  name: "conv3_2"
  type: "Convolution"
  bottom: "conv3_1"
  top: "conv3_2"
  param {
    lr_mult: 1
  }
  param {
    lr_mult: 2
  }
  convolution_param {
    num_output: 256
    pad: 1
    kernel_size: 3
  }
}
layer {
  name: "relu3_2"
  type: "ReLU"
  bottom: "conv3_2"
  top: "conv3_2"
}
layer {
  name: "conv3_3"
  type: "Convolution"
  bottom: "conv3_2"
  top: "conv3_3"
  param {
    lr_mult: 1
  }
  param {
    lr_mult: 2
  }
  convolution_param {
    num_output: 256
    pad: 1
    kernel_size: 3
  }
}
layer {
  name: "relu3_3"
  type: "ReLU"
  bottom: "conv3_3"
  top: "conv3_3"
}
layer {
  name: "pool3"
  type: "Pooling"
  bottom: "conv3_3"
  top: "pool3"
  pooling_param {
    pool: MAX
    kernel_size: 2
    stride: 2
  }
}
layer {
  name: "conv4_1"
  type: "Convolution"
  bottom: "pool3"
  top: "conv4_1"
  param {
    lr_mult: 1
  }
  param {
    lr_mult: 2
  }
  convolution_param {
    num_output: 512
    pad: 1
    kernel_size: 3
  }
}
layer {
  name: "relu4_1"
  type: "ReLU"
  bottom: "conv4_1"
  top: "conv4_1"
}
layer {
  name: "conv4_2"
  type: "Convolution"
  bottom: "conv4_1"
  top: "conv4_2"
  param {
    lr_mult: 1
  }
  param {
    lr_mult: 2
  }
  convolution_param {
    num_output: 512
    pad: 1
    kernel_size: 3
  }
}
layer {
  name: "relu4_2"
  type: "ReLU"
  bottom: "conv4_2"
  top: "conv4_2"
}
layer {
  name: "conv4_3"
  type: "Convolution"
  bottom: "conv4_2"
  top: "conv4_3"
  param {
    lr_mult: 1
  }
  param {
    lr_mult: 2
  }
  convolution_param {
    num_output: 512
    pad: 1
    kernel_size: 3
  }
}
layer {
  name: "relu4_3"
  type: "ReLU"
  bottom: "conv4_3"
  top: "conv4_3"
}
layer {
  name: "pool4"
  type: "Pooling"
  bottom: "conv4_3"
  top: "pool4"
  pooling_param {
    pool: MAX
    kernel_size: 2
    stride: 2
  }
}
layer {
  name: "conv5_1"
  type: "Convolution"
  bottom: "pool4"
  top: "conv5_1"
  param {
    lr_mult: 1
  }
  param {
    lr_mult: 2
  }
  convolution_param {
    num_output: 512
    pad: 1
    kernel_size: 3
  }
}
layer {
  name: "relu5_1"
  type: "ReLU"
  bottom: "conv5_1"
  top: "conv5_1"
}
layer {
  name: "conv5_2"
  type: "Convolution"
  bottom: "conv5_1"
  top: "conv5_2"
  param {
    lr_mult: 1
  }
  param {
    lr_mult: 2
  }
  convolution_param {
    num_output: 512
    pad: 1
    kernel_size: 3
  }
}
layer {
  name: "relu5_2"
  type: "ReLU"
  bottom: "conv5_2"
  top: "conv5_2"
}
layer {
  name: "conv5_3"
  type: "Convolution"
  bottom: "conv5_2"
  top: "conv5_3"
  param {
    lr_mult: 1
  }
  param {
    lr_mult: 2
  }
  convolution_param {
    num_output: 512
    pad: 1
    kernel_size: 3
  }
}
layer {
  name: "relu5_3"
  type: "ReLU"
  bottom: "conv5_3"
  top: "conv5_3"
}
layer {
  name: "rpn_big_conv1"
  type: "Convolution"
  bottom: "conv5_3"
  top: "rpn_big_conv1"
  param {
    lr_mult: 1
  }
  param {
    lr_mult: 2
  }
  convolution_param {
    num_output: 512
    pad: 1
    kernel_size: 3
    stride: 1
    weight_filler {
      type: "gaussian"
      mean: 0
      std: 0.01
    }
    bias_filler {
      type: "constant"
    }
  }
}
layer {
  name: "rpn_big_conv1_relu"
  type: "ReLU"
  bottom: "rpn_big_conv1"
  top: "rpn_big_conv1"
  relu_param {
    negative_slope: 0
  }
}
layer {
  name: "rpn_big_conv2"
  type: "Convolution"
  bottom: "rpn_big_conv1"
  top: "rpn_big_conv2"
  param {
    lr_mult: 1
  }
  param {
    lr_mult: 2
  }
  convolution_param {
    num_output: 512
    pad: 1
    kernel_size: 3
    stride: 1
    weight_filler {
      type: "gaussian"
      mean: 0
      std: 0.01
    }
    bias_filler {
      type: "constant"
    }
  }
}
layer {
  name: "rpn_big_conv2_relu"
  type: "ReLU"
  bottom: "rpn_big_conv2"
  top: "rpn_big_conv2"
  relu_param {
    negative_slope: 0
  }
}
layer {
  name: "rpn_big_conv2_drop"
  type: "Dropout"
  bottom: "rpn_big_conv2"
  top: "rpn_big_conv2"
  dropout_param {
    dropout_ratio: 0.3
  }
}
layer {
  name: "rpn_big_output_cls"
  type: "Convolution"
  bottom: "rpn_big_conv2"
  top: "rpn_big_output_cls"
  param {
    lr_mult: 1
  }
  param {
    lr_mult: 2
  }
  convolution_param {
    num_output: 384
    pad: 1
    kernel_size: 3
    stride: 1
    weight_filler {
      type: "gaussian"
      mean: 0
      std: 0.01
    }
    bias_filler {
      type: "constant"
    }
  }
}
layer {
  name: "rpn_big_output_cls_relu"
  type: "ReLU"
  bottom: "rpn_big_output_cls"
  top: "rpn_big_output_cls"
  relu_param {
    negative_slope: 0
  }
}
layer {
  name: "rpn_big_cls_score"
  type: "Convolution"
  bottom: "rpn_big_output_cls"
  top: "rpn_big_cls_score"
  param {
    lr_mult: 1
  }
  param {
    lr_mult: 2
  }
  convolution_param {
    num_output: 52
    pad: 0
    kernel_size: 3
    stride: 1
    weight_filler {
      type: "gaussian"
      mean: 0
      std: 0.01
    }
    bias_filler {
      type: "constant"
    }
  }
}
layer {
  name: "rpn_big_cls_score_reshape"
  type: "Reshape"
  bottom: "rpn_big_cls_score"
  top: "rpn_big_cls_score_reshape"
  reshape_param {
    shape {
      dim: 0
      dim: 2
      dim: -1
      dim: 0
    }
  }
}
layer {
  name: "rpn_big_cls_prob"
  type: "Softmax"
  bottom: "rpn_big_cls_score_reshape"
  top: "rpn_big_cls_prob"
}
layer {
  name: "rpn_big_cls_prob_reshape"
  type: "Reshape"
  bottom: "rpn_big_cls_prob"
  top: "rpn_big_cls_prob_reshape"
  reshape_param {
    shape {
      dim: 0
      dim: 52
      dim: -1
      dim: 0
    }
  }
}
layer {
  name: "rpn_big_anchor_target"
  type: "Python"
  bottom: "rpn_big_cls_score"
  bottom: "input_gt_boxes"
  bottom: "input_ignored_boxes"
  bottom: "input_im_info"
  bottom: "input_data"
  bottom: "rpn_big_cls_prob_reshape"
  top: "rpn_big_anchor_target_labels"
  top: "rpn_big_anchor_target_bbox_targets"
  top: "rpn_big_anchor_target_inside_weights"
  top: "rpn_big_anchor_target_outside_weights"
  python_param {
    module: "rpn.anchor_target_layer"
    layer: "AnchorTargetLayer"
    param_str: "{\"negative_overlap\": 0.4, \"square_targets\": true, \"num_classes\": 1, \"positive_overlap\": 0.6, \"anchor_scales\": [2.5, 3.025, 3.66025, 4.4289024999999995, 5.358972025, 6.484356150249999, 7.846070941802498, 9.493745839581022, 11.487432465893036, 13.899793283730574, 16.818749873313998, 20.350687346709933, 24.62433168951902, 29.795441344318014], \"fg_fraction\": 0.5, \"anchor_shift_num_xy\": [[2, 2], [2, 2], [2, 2], [2, 2], [1, 1], [1, 1], [1, 1], [1, 1], [1, 1], [1, 1], [1, 1], [1, 1], [1, 1], [1, 1]], \"batchsize\": 256, \"feat_stride\": 16, \"anchor_ratios\": [1.0], \"name\": \"rpn_big\", \"tn_fraction\": 0.2}"
  }
}
layer {
  name: "rpn_big_loss_cls"
  type: "SoftmaxWithLoss"
  bottom: "rpn_big_cls_score_reshape"
  bottom: "rpn_big_anchor_target_labels"
  top: "rpn_big_loss_cls"
  loss_weight: 1
  propagate_down: true
  propagate_down: false
  loss_param {
    ignore_label: -1
    normalization: VALID
  }
}
layer {
  name: "rpn_big_output_box"
  type: "Convolution"
  bottom: "rpn_big_conv2"
  top: "rpn_big_output_box"
  param {
    lr_mult: 1
  }
  param {
    lr_mult: 2
  }
  convolution_param {
    num_output: 384
    pad: 1
    kernel_size: 3
    stride: 1
    weight_filler {
      type: "gaussian"
      mean: 0
      std: 0.01
    }
    bias_filler {
      type: "constant"
    }
  }
}
layer {
  name: "rpn_big_output_box_relu"
  type: "ReLU"
  bottom: "rpn_big_output_box"
  top: "rpn_big_output_box"
  relu_param {
    negative_slope: 0
  }
}
layer {
  name: "rpn_big_bbox_pred"
  type: "Convolution"
  bottom: "rpn_big_output_box"
  top: "rpn_big_bbox_pred"
  param {
    lr_mult: 1
  }
  param {
    lr_mult: 2
  }
  convolution_param {
    num_output: 104
    pad: 0
    kernel_size: 3
    stride: 1
    weight_filler {
      type: "gaussian"
      mean: 0
      std: 0.01
    }
    bias_filler {
      type: "constant"
    }
  }
}
layer {
  name: "rpn_big_loss_bbox"
  type: "Python"
  bottom: "rpn_big_bbox_pred"
  bottom: "rpn_big_anchor_target_bbox_targets"
  bottom: "rpn_big_anchor_target_inside_weights"
  bottom: "rpn_big_anchor_target_outside_weights"
  top: "rpn_big_loss_bbox"
  loss_weight: 1
  python_param {
    module: "layers.smooth_l1_loss"
    layer: "SmoothL1LossLayer"
    param_str: "{\"sigma\": 3}"
  }
}
layer {
  name: "proposal"
  type: "Python"
  bottom: "rpn_big_cls_prob_reshape"
  bottom: "rpn_big_bbox_pred"
  bottom: "input_im_info"
  top: "rpn_rois"
  python_param {
    module: "rpn.proposal_layer"
    layer: "ProposalLayer"
    param_str: "{\"anchor_shift_num_xy\": [[2, 2], [2, 2], [2, 2], [2, 2], [1, 1], [1, 1], [1, 1], [1, 1], [1, 1], [1, 1], [1, 1], [1, 1], [1, 1], [1, 1]], \"feat_stride\": 16, \"num_classes\": 1, \"anchor_scales\": [2.5, 3.025, 3.66025, 4.4289024999999995, 5.358972025, 6.484356150249999, 7.846070941802498, 9.493745839581022, 11.487432465893036, 13.899793283730574, 16.818749873313998, 20.350687346709933, 24.62433168951902, 29.795441344318014], \"square_targets\": true, \"name\": \"rpn_big\", \"batchsize\": 256, \"anchor_ratios\": [1.0]}"
  }
}
layer {
  name: "roi-data"
  type: "Python"
  bottom: "rpn_rois"
  bottom: "input_gt_boxes"
  top: "rois"
  top: "labels"
  top: "bbox_targets"
  top: "bbox_inside_weights"
  top: "bbox_outside_weights"
  top: "pid_label"
  python_param {
    module: "rpn.proposal_target_layer"
    layer: "ProposalTargetLayer"
    param_str: "{\"num_classes\": 2, \"bg_aux_label\": 5532}"
  }
}
layer {
  name: "roi-pool"
  type: "ROIPooling"
  bottom: "conv5_3"
  bottom: "rois"
  top: "roi-pool"
  roi_pooling_param {
    pooled_h: 7
    pooled_w: 7
    spatial_scale: 0.0625
  }
}
layer {
  name: "fc6"
  type: "InnerProduct"
  bottom: "roi-pool"
  top: "fc6"
  param {
    lr_mult: 1
  }
  param {
    lr_mult: 2
  }
  inner_product_param {
    num_output: 4096
  }
}
layer {
  name: "relu6"
  type: "ReLU"
  bottom: "fc6"
  top: "fc6"
}
layer {
  name: "drop6"
  type: "Dropout"
  bottom: "fc6"
  top: "fc6"
  dropout_param {
    dropout_ratio: 0.5
  }
}
layer {
  name: "fc7"
  type: "InnerProduct"
  bottom: "fc6"
  top: "fc7"
  param {
    lr_mult: 1
  }
  param {
    lr_mult: 2
  }
  inner_product_param {
    num_output: 4096
  }
}
layer {
  name: "relu7"
  type: "ReLU"
  bottom: "fc7"
  top: "fc7"
}
layer {
  name: "drop7"
  type: "Dropout"
  bottom: "fc7"
  top: "fc7"
  dropout_param {
    dropout_ratio: 0.5
  }
}
layer {
  name: "bbox_pred"
  type: "InnerProduct"
  bottom: "fc7"
  top: "bbox_pred"
  param {
    lr_mult: 1
  }
  param {
    lr_mult: 2
  }
  inner_product_param {
    num_output: 8
    weight_filler {
      type: "gaussian"
      std: 0.001
    }
    bias_filler {
      type: "constant"
      value: 0
    }
  }
}
layer {
  name: "loss_bbox"
  type: "SmoothL1Loss"
  bottom: "bbox_pred"
  bottom: "bbox_targets"
  bottom: "bbox_inside_weights"
  bottom: "bbox_outside_weights"
  top: "loss_bbox"
  loss_weight: 1
}
layer {
  name: "feat"
  type: "InnerProduct"
  bottom: "fc7"
  top: "feat"
  param {
    lr_mult: 1
    decay_mult: 1
  }
  param {
    lr_mult: 2
    decay_mult: 0
  }
  inner_product_param {
    num_output: 256
    weight_filler {
      type: "gaussian"
      std: 0.01
    }
    bias_filler {
      type: "constant"
      value: 0
    }
  }
}
layer {
  name: "relu8"
  type: "ReLU"
  bottom: "feat"
  top: "feat"
}
layer {
  name: "drop8"
  type: "Dropout"
  bottom: "feat"
  top: "feat"
  dropout_param {
    dropout_ratio: 0.5
  }
}
layer {
  name: "pid_score"
  type: "InnerProduct"
  bottom: "feat"
  top: "pid_score"
  param {
    lr_mult: 1
    decay_mult: 1
  }
  param {
    lr_mult: 2
    decay_mult: 0
  }
  inner_product_param {
    num_output: 5533
    weight_filler {
      type: "gaussian"
      std: 0.001
    }
    bias_filler {
      type: "constant"
      value: 0
    }
  }
}
layer {
  name: "pid_loss"
  type: "SoftmaxWithLoss"
  bottom: "pid_score"
  bottom: "pid_label"
  top: "pid_loss"
  loss_weight: 1
  propagate_down: true
  propagate_down: false
  loss_param {
    ignore_label: -1
    normalize: true
  }
}
I0413 18:58:25.927667 14801 layer_factory.hpp:77] Creating layer input
I0413 18:58:25.929582 14801 net.cpp:100] Creating Layer input
I0413 18:58:25.929600 14801 net.cpp:408] input -> input_data
I0413 18:58:25.929615 14801 net.cpp:408] input -> input_im_info
I0413 18:58:25.929627 14801 net.cpp:408] input -> input_gt_boxes
I0413 18:58:25.929639 14801 net.cpp:408] input -> input_ignored_boxes
RoiDataLayer: name_to_top: {'gt_boxes': 2, 'data': 0, 'im_info': 1, 'ignored_boxes': 3}
I0413 18:58:26.266032 14801 net.cpp:150] Setting up input
I0413 18:58:26.266065 14801 net.cpp:157] Top shape: 1 3 1000 1500 (4500000)
I0413 18:58:26.266073 14801 net.cpp:157] Top shape: 1 3 (3)
I0413 18:58:26.266080 14801 net.cpp:157] Top shape: 1 5 (5)
I0413 18:58:26.266088 14801 net.cpp:157] Top shape: 1 5 (5)
I0413 18:58:26.266093 14801 net.cpp:165] Memory required for data: 18000052
I0413 18:58:26.266103 14801 layer_factory.hpp:77] Creating layer input_data_input_0_split
I0413 18:58:26.266122 14801 net.cpp:100] Creating Layer input_data_input_0_split
I0413 18:58:26.266130 14801 net.cpp:434] input_data_input_0_split <- input_data
I0413 18:58:26.266144 14801 net.cpp:408] input_data_input_0_split -> input_data_input_0_split_0
I0413 18:58:26.266162 14801 net.cpp:408] input_data_input_0_split -> input_data_input_0_split_1
I0413 18:58:26.266204 14801 net.cpp:150] Setting up input_data_input_0_split
I0413 18:58:26.266216 14801 net.cpp:157] Top shape: 1 3 1000 1500 (4500000)
I0413 18:58:26.266227 14801 net.cpp:157] Top shape: 1 3 1000 1500 (4500000)
I0413 18:58:26.266235 14801 net.cpp:165] Memory required for data: 54000052
I0413 18:58:26.266242 14801 layer_factory.hpp:77] Creating layer input_im_info_input_1_split
I0413 18:58:26.266252 14801 net.cpp:100] Creating Layer input_im_info_input_1_split
I0413 18:58:26.266259 14801 net.cpp:434] input_im_info_input_1_split <- input_im_info
I0413 18:58:26.266269 14801 net.cpp:408] input_im_info_input_1_split -> input_im_info_input_1_split_0
I0413 18:58:26.266283 14801 net.cpp:408] input_im_info_input_1_split -> input_im_info_input_1_split_1
I0413 18:58:26.266319 14801 net.cpp:150] Setting up input_im_info_input_1_split
I0413 18:58:26.266329 14801 net.cpp:157] Top shape: 1 3 (3)
I0413 18:58:26.266335 14801 net.cpp:157] Top shape: 1 3 (3)
I0413 18:58:26.266342 14801 net.cpp:165] Memory required for data: 54000076
I0413 18:58:26.266348 14801 layer_factory.hpp:77] Creating layer input_gt_boxes_input_2_split
I0413 18:58:26.266360 14801 net.cpp:100] Creating Layer input_gt_boxes_input_2_split
I0413 18:58:26.266366 14801 net.cpp:434] input_gt_boxes_input_2_split <- input_gt_boxes
I0413 18:58:26.266374 14801 net.cpp:408] input_gt_boxes_input_2_split -> input_gt_boxes_input_2_split_0
I0413 18:58:26.266391 14801 net.cpp:408] input_gt_boxes_input_2_split -> input_gt_boxes_input_2_split_1
I0413 18:58:26.266425 14801 net.cpp:150] Setting up input_gt_boxes_input_2_split
I0413 18:58:26.266436 14801 net.cpp:157] Top shape: 1 5 (5)
I0413 18:58:26.266445 14801 net.cpp:157] Top shape: 1 5 (5)
I0413 18:58:26.266453 14801 net.cpp:165] Memory required for data: 54000116
I0413 18:58:26.266458 14801 layer_factory.hpp:77] Creating layer conv1_1
I0413 18:58:26.266476 14801 net.cpp:100] Creating Layer conv1_1
I0413 18:58:26.266484 14801 net.cpp:434] conv1_1 <- input_data_input_0_split_0
I0413 18:58:26.266494 14801 net.cpp:408] conv1_1 -> conv1_1
I0413 18:58:26.269562 14801 net.cpp:150] Setting up conv1_1
I0413 18:58:26.269601 14801 net.cpp:157] Top shape: 1 64 1000 1500 (96000000)
I0413 18:58:26.269609 14801 net.cpp:165] Memory required for data: 438000116
I0413 18:58:26.269641 14801 layer_factory.hpp:77] Creating layer relu1_1
I0413 18:58:26.269664 14801 net.cpp:100] Creating Layer relu1_1
I0413 18:58:26.269675 14801 net.cpp:434] relu1_1 <- conv1_1
I0413 18:58:26.269690 14801 net.cpp:395] relu1_1 -> conv1_1 (in-place)
I0413 18:58:26.269707 14801 net.cpp:150] Setting up relu1_1
I0413 18:58:26.269717 14801 net.cpp:157] Top shape: 1 64 1000 1500 (96000000)
I0413 18:58:26.269726 14801 net.cpp:165] Memory required for data: 822000116
I0413 18:58:26.269733 14801 layer_factory.hpp:77] Creating layer conv1_2
I0413 18:58:26.269752 14801 net.cpp:100] Creating Layer conv1_2
I0413 18:58:26.269758 14801 net.cpp:434] conv1_2 <- conv1_1
I0413 18:58:26.269770 14801 net.cpp:408] conv1_2 -> conv1_2
I0413 18:58:26.273114 14801 net.cpp:150] Setting up conv1_2
I0413 18:58:26.273150 14801 net.cpp:157] Top shape: 1 64 1000 1500 (96000000)
I0413 18:58:26.273156 14801 net.cpp:165] Memory required for data: 1206000116
I0413 18:58:26.273180 14801 layer_factory.hpp:77] Creating layer relu1_2
I0413 18:58:26.273193 14801 net.cpp:100] Creating Layer relu1_2
I0413 18:58:26.273201 14801 net.cpp:434] relu1_2 <- conv1_2
I0413 18:58:26.273212 14801 net.cpp:395] relu1_2 -> conv1_2 (in-place)
I0413 18:58:26.273228 14801 net.cpp:150] Setting up relu1_2
I0413 18:58:26.273239 14801 net.cpp:157] Top shape: 1 64 1000 1500 (96000000)
I0413 18:58:26.273246 14801 net.cpp:165] Memory required for data: 1590000116
I0413 18:58:26.273252 14801 layer_factory.hpp:77] Creating layer pool1
I0413 18:58:26.273267 14801 net.cpp:100] Creating Layer pool1
I0413 18:58:26.273277 14801 net.cpp:434] pool1 <- conv1_2
I0413 18:58:26.273286 14801 net.cpp:408] pool1 -> pool1
I0413 18:58:26.273356 14801 net.cpp:150] Setting up pool1
I0413 18:58:26.273367 14801 net.cpp:157] Top shape: 1 64 500 750 (24000000)
I0413 18:58:26.273373 14801 net.cpp:165] Memory required for data: 1686000116
I0413 18:58:26.273380 14801 layer_factory.hpp:77] Creating layer conv2_1
I0413 18:58:26.273397 14801 net.cpp:100] Creating Layer conv2_1
I0413 18:58:26.273406 14801 net.cpp:434] conv2_1 <- pool1
I0413 18:58:26.273417 14801 net.cpp:408] conv2_1 -> conv2_1
I0413 18:58:26.274646 14801 net.cpp:150] Setting up conv2_1
I0413 18:58:26.274670 14801 net.cpp:157] Top shape: 1 128 500 750 (48000000)
I0413 18:58:26.274677 14801 net.cpp:165] Memory required for data: 1878000116
I0413 18:58:26.274696 14801 layer_factory.hpp:77] Creating layer relu2_1
I0413 18:58:26.274709 14801 net.cpp:100] Creating Layer relu2_1
I0413 18:58:26.274718 14801 net.cpp:434] relu2_1 <- conv2_1
I0413 18:58:26.274727 14801 net.cpp:395] relu2_1 -> conv2_1 (in-place)
I0413 18:58:26.274741 14801 net.cpp:150] Setting up relu2_1
I0413 18:58:26.274749 14801 net.cpp:157] Top shape: 1 128 500 750 (48000000)
I0413 18:58:26.274755 14801 net.cpp:165] Memory required for data: 2070000116
I0413 18:58:26.274761 14801 layer_factory.hpp:77] Creating layer conv2_2
I0413 18:58:26.274775 14801 net.cpp:100] Creating Layer conv2_2
I0413 18:58:26.274785 14801 net.cpp:434] conv2_2 <- conv2_1
I0413 18:58:26.274797 14801 net.cpp:408] conv2_2 -> conv2_2
I0413 18:58:26.275729 14801 net.cpp:150] Setting up conv2_2
I0413 18:58:26.275753 14801 net.cpp:157] Top shape: 1 128 500 750 (48000000)
I0413 18:58:26.275759 14801 net.cpp:165] Memory required for data: 2262000116
I0413 18:58:26.275773 14801 layer_factory.hpp:77] Creating layer relu2_2
I0413 18:58:26.275786 14801 net.cpp:100] Creating Layer relu2_2
I0413 18:58:26.275794 14801 net.cpp:434] relu2_2 <- conv2_2
I0413 18:58:26.275804 14801 net.cpp:395] relu2_2 -> conv2_2 (in-place)
I0413 18:58:26.275816 14801 net.cpp:150] Setting up relu2_2
I0413 18:58:26.275825 14801 net.cpp:157] Top shape: 1 128 500 750 (48000000)
I0413 18:58:26.275830 14801 net.cpp:165] Memory required for data: 2454000116
I0413 18:58:26.275836 14801 layer_factory.hpp:77] Creating layer pool2
I0413 18:58:26.275846 14801 net.cpp:100] Creating Layer pool2
I0413 18:58:26.275852 14801 net.cpp:434] pool2 <- conv2_2
I0413 18:58:26.275863 14801 net.cpp:408] pool2 -> pool2
I0413 18:58:26.275918 14801 net.cpp:150] Setting up pool2
I0413 18:58:26.275929 14801 net.cpp:157] Top shape: 1 128 250 375 (12000000)
I0413 18:58:26.275935 14801 net.cpp:165] Memory required for data: 2502000116
I0413 18:58:26.275943 14801 layer_factory.hpp:77] Creating layer conv3_1
I0413 18:58:26.275956 14801 net.cpp:100] Creating Layer conv3_1
I0413 18:58:26.275964 14801 net.cpp:434] conv3_1 <- pool2
I0413 18:58:26.275974 14801 net.cpp:408] conv3_1 -> conv3_1
I0413 18:58:26.277091 14801 net.cpp:150] Setting up conv3_1
I0413 18:58:26.277117 14801 net.cpp:157] Top shape: 1 256 250 375 (24000000)
I0413 18:58:26.277123 14801 net.cpp:165] Memory required for data: 2598000116
I0413 18:58:26.277144 14801 layer_factory.hpp:77] Creating layer relu3_1
I0413 18:58:26.277156 14801 net.cpp:100] Creating Layer relu3_1
I0413 18:58:26.277164 14801 net.cpp:434] relu3_1 <- conv3_1
I0413 18:58:26.277175 14801 net.cpp:395] relu3_1 -> conv3_1 (in-place)
I0413 18:58:26.277189 14801 net.cpp:150] Setting up relu3_1
I0413 18:58:26.277197 14801 net.cpp:157] Top shape: 1 256 250 375 (24000000)
I0413 18:58:26.277204 14801 net.cpp:165] Memory required for data: 2694000116
I0413 18:58:26.277210 14801 layer_factory.hpp:77] Creating layer conv3_2
I0413 18:58:26.277230 14801 net.cpp:100] Creating Layer conv3_2
I0413 18:58:26.277237 14801 net.cpp:434] conv3_2 <- conv3_1
I0413 18:58:26.277247 14801 net.cpp:408] conv3_2 -> conv3_2
I0413 18:58:26.278529 14801 net.cpp:150] Setting up conv3_2
I0413 18:58:26.278563 14801 net.cpp:157] Top shape: 1 256 250 375 (24000000)
I0413 18:58:26.278568 14801 net.cpp:165] Memory required for data: 2790000116
I0413 18:58:26.278583 14801 layer_factory.hpp:77] Creating layer relu3_2
I0413 18:58:26.278595 14801 net.cpp:100] Creating Layer relu3_2
I0413 18:58:26.278602 14801 net.cpp:434] relu3_2 <- conv3_2
I0413 18:58:26.278612 14801 net.cpp:395] relu3_2 -> conv3_2 (in-place)
I0413 18:58:26.278627 14801 net.cpp:150] Setting up relu3_2
I0413 18:58:26.278635 14801 net.cpp:157] Top shape: 1 256 250 375 (24000000)
I0413 18:58:26.278641 14801 net.cpp:165] Memory required for data: 2886000116
I0413 18:58:26.278647 14801 layer_factory.hpp:77] Creating layer conv3_3
I0413 18:58:26.278662 14801 net.cpp:100] Creating Layer conv3_3
I0413 18:58:26.278669 14801 net.cpp:434] conv3_3 <- conv3_2
I0413 18:58:26.278682 14801 net.cpp:408] conv3_3 -> conv3_3
I0413 18:58:26.280282 14801 net.cpp:150] Setting up conv3_3
I0413 18:58:26.280310 14801 net.cpp:157] Top shape: 1 256 250 375 (24000000)
I0413 18:58:26.280316 14801 net.cpp:165] Memory required for data: 2982000116
I0413 18:58:26.280339 14801 layer_factory.hpp:77] Creating layer relu3_3
I0413 18:58:26.280352 14801 net.cpp:100] Creating Layer relu3_3
I0413 18:58:26.280362 14801 net.cpp:434] relu3_3 <- conv3_3
I0413 18:58:26.280375 14801 net.cpp:395] relu3_3 -> conv3_3 (in-place)
I0413 18:58:26.280390 14801 net.cpp:150] Setting up relu3_3
I0413 18:58:26.280400 14801 net.cpp:157] Top shape: 1 256 250 375 (24000000)
I0413 18:58:26.280407 14801 net.cpp:165] Memory required for data: 3078000116
I0413 18:58:26.280414 14801 layer_factory.hpp:77] Creating layer pool3
I0413 18:58:26.280427 14801 net.cpp:100] Creating Layer pool3
I0413 18:58:26.280434 14801 net.cpp:434] pool3 <- conv3_3
I0413 18:58:26.280443 14801 net.cpp:408] pool3 -> pool3
I0413 18:58:26.280496 14801 net.cpp:150] Setting up pool3
I0413 18:58:26.280506 14801 net.cpp:157] Top shape: 1 256 125 188 (6016000)
I0413 18:58:26.280513 14801 net.cpp:165] Memory required for data: 3102064116
I0413 18:58:26.280519 14801 layer_factory.hpp:77] Creating layer conv4_1
I0413 18:58:26.280534 14801 net.cpp:100] Creating Layer conv4_1
I0413 18:58:26.280542 14801 net.cpp:434] conv4_1 <- pool3
I0413 18:58:26.280552 14801 net.cpp:408] conv4_1 -> conv4_1
I0413 18:58:26.283229 14801 net.cpp:150] Setting up conv4_1
I0413 18:58:26.283267 14801 net.cpp:157] Top shape: 1 512 125 188 (12032000)
I0413 18:58:26.283272 14801 net.cpp:165] Memory required for data: 3150192116
I0413 18:58:26.283288 14801 layer_factory.hpp:77] Creating layer relu4_1
I0413 18:58:26.283303 14801 net.cpp:100] Creating Layer relu4_1
I0413 18:58:26.283313 14801 net.cpp:434] relu4_1 <- conv4_1
I0413 18:58:26.283326 14801 net.cpp:395] relu4_1 -> conv4_1 (in-place)
I0413 18:58:26.283341 14801 net.cpp:150] Setting up relu4_1
I0413 18:58:26.283350 14801 net.cpp:157] Top shape: 1 512 125 188 (12032000)
I0413 18:58:26.283361 14801 net.cpp:165] Memory required for data: 3198320116
I0413 18:58:26.283368 14801 layer_factory.hpp:77] Creating layer conv4_2
I0413 18:58:26.283382 14801 net.cpp:100] Creating Layer conv4_2
I0413 18:58:26.283388 14801 net.cpp:434] conv4_2 <- conv4_1
I0413 18:58:26.283401 14801 net.cpp:408] conv4_2 -> conv4_2
I0413 18:58:26.287606 14801 net.cpp:150] Setting up conv4_2
I0413 18:58:26.287644 14801 net.cpp:157] Top shape: 1 512 125 188 (12032000)
I0413 18:58:26.287649 14801 net.cpp:165] Memory required for data: 3246448116
I0413 18:58:26.287681 14801 layer_factory.hpp:77] Creating layer relu4_2
I0413 18:58:26.287696 14801 net.cpp:100] Creating Layer relu4_2
I0413 18:58:26.287714 14801 net.cpp:434] relu4_2 <- conv4_2
I0413 18:58:26.287725 14801 net.cpp:395] relu4_2 -> conv4_2 (in-place)
I0413 18:58:26.287740 14801 net.cpp:150] Setting up relu4_2
I0413 18:58:26.287752 14801 net.cpp:157] Top shape: 1 512 125 188 (12032000)
I0413 18:58:26.287758 14801 net.cpp:165] Memory required for data: 3294576116
I0413 18:58:26.287765 14801 layer_factory.hpp:77] Creating layer conv4_3
I0413 18:58:26.287780 14801 net.cpp:100] Creating Layer conv4_3
I0413 18:58:26.287788 14801 net.cpp:434] conv4_3 <- conv4_2
I0413 18:58:26.287799 14801 net.cpp:408] conv4_3 -> conv4_3
I0413 18:58:26.292104 14801 net.cpp:150] Setting up conv4_3
I0413 18:58:26.292140 14801 net.cpp:157] Top shape: 1 512 125 188 (12032000)
I0413 18:58:26.292148 14801 net.cpp:165] Memory required for data: 3342704116
I0413 18:58:26.292165 14801 layer_factory.hpp:77] Creating layer relu4_3
I0413 18:58:26.292181 14801 net.cpp:100] Creating Layer relu4_3
I0413 18:58:26.292191 14801 net.cpp:434] relu4_3 <- conv4_3
I0413 18:58:26.292204 14801 net.cpp:395] relu4_3 -> conv4_3 (in-place)
I0413 18:58:26.292225 14801 net.cpp:150] Setting up relu4_3
I0413 18:58:26.292243 14801 net.cpp:157] Top shape: 1 512 125 188 (12032000)
I0413 18:58:26.292248 14801 net.cpp:165] Memory required for data: 3390832116
I0413 18:58:26.292255 14801 layer_factory.hpp:77] Creating layer pool4
I0413 18:58:26.292268 14801 net.cpp:100] Creating Layer pool4
I0413 18:58:26.292273 14801 net.cpp:434] pool4 <- conv4_3
I0413 18:58:26.292284 14801 net.cpp:408] pool4 -> pool4
I0413 18:58:26.292363 14801 net.cpp:150] Setting up pool4
I0413 18:58:26.292379 14801 net.cpp:157] Top shape: 1 512 63 94 (3032064)
I0413 18:58:26.292385 14801 net.cpp:165] Memory required for data: 3402960372
I0413 18:58:26.292392 14801 layer_factory.hpp:77] Creating layer conv5_1
I0413 18:58:26.292412 14801 net.cpp:100] Creating Layer conv5_1
I0413 18:58:26.292421 14801 net.cpp:434] conv5_1 <- pool4
I0413 18:58:26.292434 14801 net.cpp:408] conv5_1 -> conv5_1
I0413 18:58:26.297359 14801 net.cpp:150] Setting up conv5_1
I0413 18:58:26.297397 14801 net.cpp:157] Top shape: 1 512 63 94 (3032064)
I0413 18:58:26.297406 14801 net.cpp:165] Memory required for data: 3415088628
I0413 18:58:26.297423 14801 layer_factory.hpp:77] Creating layer relu5_1
I0413 18:58:26.297438 14801 net.cpp:100] Creating Layer relu5_1
I0413 18:58:26.297446 14801 net.cpp:434] relu5_1 <- conv5_1
I0413 18:58:26.297459 14801 net.cpp:395] relu5_1 -> conv5_1 (in-place)
I0413 18:58:26.297474 14801 net.cpp:150] Setting up relu5_1
I0413 18:58:26.297484 14801 net.cpp:157] Top shape: 1 512 63 94 (3032064)
I0413 18:58:26.297490 14801 net.cpp:165] Memory required for data: 3427216884
I0413 18:58:26.297497 14801 layer_factory.hpp:77] Creating layer conv5_2
I0413 18:58:26.297513 14801 net.cpp:100] Creating Layer conv5_2
I0413 18:58:26.297520 14801 net.cpp:434] conv5_2 <- conv5_1
I0413 18:58:26.297533 14801 net.cpp:408] conv5_2 -> conv5_2
I0413 18:58:26.301985 14801 net.cpp:150] Setting up conv5_2
I0413 18:58:26.302022 14801 net.cpp:157] Top shape: 1 512 63 94 (3032064)
I0413 18:58:26.302031 14801 net.cpp:165] Memory required for data: 3439345140
I0413 18:58:26.302055 14801 layer_factory.hpp:77] Creating layer relu5_2
I0413 18:58:26.302073 14801 net.cpp:100] Creating Layer relu5_2
I0413 18:58:26.302084 14801 net.cpp:434] relu5_2 <- conv5_2
I0413 18:58:26.302098 14801 net.cpp:395] relu5_2 -> conv5_2 (in-place)
I0413 18:58:26.302115 14801 net.cpp:150] Setting up relu5_2
I0413 18:58:26.302126 14801 net.cpp:157] Top shape: 1 512 63 94 (3032064)
I0413 18:58:26.302134 14801 net.cpp:165] Memory required for data: 3451473396
I0413 18:58:26.302141 14801 layer_factory.hpp:77] Creating layer conv5_3
I0413 18:58:26.302166 14801 net.cpp:100] Creating Layer conv5_3
I0413 18:58:26.302173 14801 net.cpp:434] conv5_3 <- conv5_2
I0413 18:58:26.302186 14801 net.cpp:408] conv5_3 -> conv5_3
I0413 18:58:26.306386 14801 net.cpp:150] Setting up conv5_3
I0413 18:58:26.306419 14801 net.cpp:157] Top shape: 1 512 63 94 (3032064)
I0413 18:58:26.306428 14801 net.cpp:165] Memory required for data: 3463601652
I0413 18:58:26.306444 14801 layer_factory.hpp:77] Creating layer relu5_3
I0413 18:58:26.306460 14801 net.cpp:100] Creating Layer relu5_3
I0413 18:58:26.306471 14801 net.cpp:434] relu5_3 <- conv5_3
I0413 18:58:26.306484 14801 net.cpp:395] relu5_3 -> conv5_3 (in-place)
I0413 18:58:26.306500 14801 net.cpp:150] Setting up relu5_3
I0413 18:58:26.306511 14801 net.cpp:157] Top shape: 1 512 63 94 (3032064)
I0413 18:58:26.306519 14801 net.cpp:165] Memory required for data: 3475729908
I0413 18:58:26.306525 14801 layer_factory.hpp:77] Creating layer conv5_3_relu5_3_0_split
I0413 18:58:26.306540 14801 net.cpp:100] Creating Layer conv5_3_relu5_3_0_split
I0413 18:58:26.306547 14801 net.cpp:434] conv5_3_relu5_3_0_split <- conv5_3
I0413 18:58:26.306558 14801 net.cpp:408] conv5_3_relu5_3_0_split -> conv5_3_relu5_3_0_split_0
I0413 18:58:26.306576 14801 net.cpp:408] conv5_3_relu5_3_0_split -> conv5_3_relu5_3_0_split_1
I0413 18:58:26.306625 14801 net.cpp:150] Setting up conv5_3_relu5_3_0_split
I0413 18:58:26.306638 14801 net.cpp:157] Top shape: 1 512 63 94 (3032064)
I0413 18:58:26.306645 14801 net.cpp:157] Top shape: 1 512 63 94 (3032064)
I0413 18:58:26.306653 14801 net.cpp:165] Memory required for data: 3499986420
I0413 18:58:26.306659 14801 layer_factory.hpp:77] Creating layer rpn_big_conv1
I0413 18:58:26.306681 14801 net.cpp:100] Creating Layer rpn_big_conv1
I0413 18:58:26.306689 14801 net.cpp:434] rpn_big_conv1 <- conv5_3_relu5_3_0_split_0
I0413 18:58:26.306702 14801 net.cpp:408] rpn_big_conv1 -> rpn_big_conv1
I0413 18:58:26.334012 14801 net.cpp:150] Setting up rpn_big_conv1
I0413 18:58:26.334045 14801 net.cpp:157] Top shape: 1 512 63 94 (3032064)
I0413 18:58:26.334053 14801 net.cpp:165] Memory required for data: 3512114676
I0413 18:58:26.334077 14801 layer_factory.hpp:77] Creating layer rpn_big_conv1_relu
I0413 18:58:26.334100 14801 net.cpp:100] Creating Layer rpn_big_conv1_relu
I0413 18:58:26.334111 14801 net.cpp:434] rpn_big_conv1_relu <- rpn_big_conv1
I0413 18:58:26.334125 14801 net.cpp:395] rpn_big_conv1_relu -> rpn_big_conv1 (in-place)
I0413 18:58:26.334142 14801 net.cpp:150] Setting up rpn_big_conv1_relu
I0413 18:58:26.334153 14801 net.cpp:157] Top shape: 1 512 63 94 (3032064)
I0413 18:58:26.334159 14801 net.cpp:165] Memory required for data: 3524242932
I0413 18:58:26.334167 14801 layer_factory.hpp:77] Creating layer rpn_big_conv2
I0413 18:58:26.334187 14801 net.cpp:100] Creating Layer rpn_big_conv2
I0413 18:58:26.334194 14801 net.cpp:434] rpn_big_conv2 <- rpn_big_conv1
I0413 18:58:26.334208 14801 net.cpp:408] rpn_big_conv2 -> rpn_big_conv2
I0413 18:58:26.358947 14801 net.cpp:150] Setting up rpn_big_conv2
I0413 18:58:26.358980 14801 net.cpp:157] Top shape: 1 512 63 94 (3032064)
I0413 18:58:26.358986 14801 net.cpp:165] Memory required for data: 3536371188
I0413 18:58:26.359000 14801 layer_factory.hpp:77] Creating layer rpn_big_conv2_relu
I0413 18:58:26.359016 14801 net.cpp:100] Creating Layer rpn_big_conv2_relu
I0413 18:58:26.359025 14801 net.cpp:434] rpn_big_conv2_relu <- rpn_big_conv2
I0413 18:58:26.359041 14801 net.cpp:395] rpn_big_conv2_relu -> rpn_big_conv2 (in-place)
I0413 18:58:26.359067 14801 net.cpp:150] Setting up rpn_big_conv2_relu
I0413 18:58:26.359079 14801 net.cpp:157] Top shape: 1 512 63 94 (3032064)
I0413 18:58:26.359086 14801 net.cpp:165] Memory required for data: 3548499444
I0413 18:58:26.359091 14801 layer_factory.hpp:77] Creating layer rpn_big_conv2_drop
I0413 18:58:26.359102 14801 net.cpp:100] Creating Layer rpn_big_conv2_drop
I0413 18:58:26.359108 14801 net.cpp:434] rpn_big_conv2_drop <- rpn_big_conv2
I0413 18:58:26.359123 14801 net.cpp:395] rpn_big_conv2_drop -> rpn_big_conv2 (in-place)
I0413 18:58:26.359154 14801 net.cpp:150] Setting up rpn_big_conv2_drop
I0413 18:58:26.359164 14801 net.cpp:157] Top shape: 1 512 63 94 (3032064)
I0413 18:58:26.359170 14801 net.cpp:165] Memory required for data: 3560627700
I0413 18:58:26.359176 14801 layer_factory.hpp:77] Creating layer rpn_big_conv2_rpn_big_conv2_drop_0_split
I0413 18:58:26.359189 14801 net.cpp:100] Creating Layer rpn_big_conv2_rpn_big_conv2_drop_0_split
I0413 18:58:26.359196 14801 net.cpp:434] rpn_big_conv2_rpn_big_conv2_drop_0_split <- rpn_big_conv2
I0413 18:58:26.359207 14801 net.cpp:408] rpn_big_conv2_rpn_big_conv2_drop_0_split -> rpn_big_conv2_rpn_big_conv2_drop_0_split_0
I0413 18:58:26.359220 14801 net.cpp:408] rpn_big_conv2_rpn_big_conv2_drop_0_split -> rpn_big_conv2_rpn_big_conv2_drop_0_split_1
I0413 18:58:26.359269 14801 net.cpp:150] Setting up rpn_big_conv2_rpn_big_conv2_drop_0_split
I0413 18:58:26.359279 14801 net.cpp:157] Top shape: 1 512 63 94 (3032064)
I0413 18:58:26.359289 14801 net.cpp:157] Top shape: 1 512 63 94 (3032064)
I0413 18:58:26.359295 14801 net.cpp:165] Memory required for data: 3584884212
I0413 18:58:26.359302 14801 layer_factory.hpp:77] Creating layer rpn_big_output_cls
I0413 18:58:26.359320 14801 net.cpp:100] Creating Layer rpn_big_output_cls
I0413 18:58:26.359329 14801 net.cpp:434] rpn_big_output_cls <- rpn_big_conv2_rpn_big_conv2_drop_0_split_0
I0413 18:58:26.359341 14801 net.cpp:408] rpn_big_output_cls -> rpn_big_output_cls
I0413 18:58:26.377979 14801 net.cpp:150] Setting up rpn_big_output_cls
I0413 18:58:26.378010 14801 net.cpp:157] Top shape: 1 384 63 94 (2274048)
I0413 18:58:26.378015 14801 net.cpp:165] Memory required for data: 3593980404
I0413 18:58:26.378031 14801 layer_factory.hpp:77] Creating layer rpn_big_output_cls_relu
I0413 18:58:26.378046 14801 net.cpp:100] Creating Layer rpn_big_output_cls_relu
I0413 18:58:26.378053 14801 net.cpp:434] rpn_big_output_cls_relu <- rpn_big_output_cls
I0413 18:58:26.378065 14801 net.cpp:395] rpn_big_output_cls_relu -> rpn_big_output_cls (in-place)
I0413 18:58:26.378082 14801 net.cpp:150] Setting up rpn_big_output_cls_relu
I0413 18:58:26.378098 14801 net.cpp:157] Top shape: 1 384 63 94 (2274048)
I0413 18:58:26.378104 14801 net.cpp:165] Memory required for data: 3603076596
I0413 18:58:26.378110 14801 layer_factory.hpp:77] Creating layer rpn_big_cls_score
I0413 18:58:26.378131 14801 net.cpp:100] Creating Layer rpn_big_cls_score
I0413 18:58:26.378141 14801 net.cpp:434] rpn_big_cls_score <- rpn_big_output_cls
I0413 18:58:26.378154 14801 net.cpp:408] rpn_big_cls_score -> rpn_big_cls_score
I0413 18:58:26.380501 14801 net.cpp:150] Setting up rpn_big_cls_score
I0413 18:58:26.380525 14801 net.cpp:157] Top shape: 1 52 61 92 (291824)
I0413 18:58:26.380532 14801 net.cpp:165] Memory required for data: 3604243892
I0413 18:58:26.380553 14801 layer_factory.hpp:77] Creating layer rpn_big_cls_score_rpn_big_cls_score_0_split
I0413 18:58:26.380564 14801 net.cpp:100] Creating Layer rpn_big_cls_score_rpn_big_cls_score_0_split
I0413 18:58:26.380573 14801 net.cpp:434] rpn_big_cls_score_rpn_big_cls_score_0_split <- rpn_big_cls_score
I0413 18:58:26.380584 14801 net.cpp:408] rpn_big_cls_score_rpn_big_cls_score_0_split -> rpn_big_cls_score_rpn_big_cls_score_0_split_0
I0413 18:58:26.380596 14801 net.cpp:408] rpn_big_cls_score_rpn_big_cls_score_0_split -> rpn_big_cls_score_rpn_big_cls_score_0_split_1
I0413 18:58:26.380648 14801 net.cpp:150] Setting up rpn_big_cls_score_rpn_big_cls_score_0_split
I0413 18:58:26.380658 14801 net.cpp:157] Top shape: 1 52 61 92 (291824)
I0413 18:58:26.380666 14801 net.cpp:157] Top shape: 1 52 61 92 (291824)
I0413 18:58:26.380673 14801 net.cpp:165] Memory required for data: 3606578484
I0413 18:58:26.380678 14801 layer_factory.hpp:77] Creating layer rpn_big_cls_score_reshape
I0413 18:58:26.380692 14801 net.cpp:100] Creating Layer rpn_big_cls_score_reshape
I0413 18:58:26.380698 14801 net.cpp:434] rpn_big_cls_score_reshape <- rpn_big_cls_score_rpn_big_cls_score_0_split_0
I0413 18:58:26.380707 14801 net.cpp:408] rpn_big_cls_score_reshape -> rpn_big_cls_score_reshape
I0413 18:58:26.380741 14801 net.cpp:150] Setting up rpn_big_cls_score_reshape
I0413 18:58:26.380751 14801 net.cpp:157] Top shape: 1 2 1586 92 (291824)
I0413 18:58:26.380759 14801 net.cpp:165] Memory required for data: 3607745780
I0413 18:58:26.380764 14801 layer_factory.hpp:77] Creating layer rpn_big_cls_score_reshape_rpn_big_cls_score_reshape_0_split
I0413 18:58:26.380772 14801 net.cpp:100] Creating Layer rpn_big_cls_score_reshape_rpn_big_cls_score_reshape_0_split
I0413 18:58:26.380777 14801 net.cpp:434] rpn_big_cls_score_reshape_rpn_big_cls_score_reshape_0_split <- rpn_big_cls_score_reshape
I0413 18:58:26.380795 14801 net.cpp:408] rpn_big_cls_score_reshape_rpn_big_cls_score_reshape_0_split -> rpn_big_cls_score_reshape_rpn_big_cls_score_reshape_0_split_0
I0413 18:58:26.380808 14801 net.cpp:408] rpn_big_cls_score_reshape_rpn_big_cls_score_reshape_0_split -> rpn_big_cls_score_reshape_rpn_big_cls_score_reshape_0_split_1
I0413 18:58:26.380853 14801 net.cpp:150] Setting up rpn_big_cls_score_reshape_rpn_big_cls_score_reshape_0_split
I0413 18:58:26.380864 14801 net.cpp:157] Top shape: 1 2 1586 92 (291824)
I0413 18:58:26.380872 14801 net.cpp:157] Top shape: 1 2 1586 92 (291824)
I0413 18:58:26.380877 14801 net.cpp:165] Memory required for data: 3610080372
I0413 18:58:26.380882 14801 layer_factory.hpp:77] Creating layer rpn_big_cls_prob
I0413 18:58:26.380894 14801 net.cpp:100] Creating Layer rpn_big_cls_prob
I0413 18:58:26.380901 14801 net.cpp:434] rpn_big_cls_prob <- rpn_big_cls_score_reshape_rpn_big_cls_score_reshape_0_split_0
I0413 18:58:26.380918 14801 net.cpp:408] rpn_big_cls_prob -> rpn_big_cls_prob
I0413 18:58:26.381002 14801 net.cpp:150] Setting up rpn_big_cls_prob
I0413 18:58:26.381016 14801 net.cpp:157] Top shape: 1 2 1586 92 (291824)
I0413 18:58:26.381022 14801 net.cpp:165] Memory required for data: 3611247668
I0413 18:58:26.381029 14801 layer_factory.hpp:77] Creating layer rpn_big_cls_prob_reshape
I0413 18:58:26.381039 14801 net.cpp:100] Creating Layer rpn_big_cls_prob_reshape
I0413 18:58:26.381047 14801 net.cpp:434] rpn_big_cls_prob_reshape <- rpn_big_cls_prob
I0413 18:58:26.381058 14801 net.cpp:408] rpn_big_cls_prob_reshape -> rpn_big_cls_prob_reshape
I0413 18:58:26.381089 14801 net.cpp:150] Setting up rpn_big_cls_prob_reshape
I0413 18:58:26.381099 14801 net.cpp:157] Top shape: 1 52 61 92 (291824)
I0413 18:58:26.381105 14801 net.cpp:165] Memory required for data: 3612414964
I0413 18:58:26.381111 14801 layer_factory.hpp:77] Creating layer rpn_big_cls_prob_reshape_rpn_big_cls_prob_reshape_0_split
I0413 18:58:26.381120 14801 net.cpp:100] Creating Layer rpn_big_cls_prob_reshape_rpn_big_cls_prob_reshape_0_split
I0413 18:58:26.381126 14801 net.cpp:434] rpn_big_cls_prob_reshape_rpn_big_cls_prob_reshape_0_split <- rpn_big_cls_prob_reshape
I0413 18:58:26.381136 14801 net.cpp:408] rpn_big_cls_prob_reshape_rpn_big_cls_prob_reshape_0_split -> rpn_big_cls_prob_reshape_rpn_big_cls_prob_reshape_0_split_0
I0413 18:58:26.381150 14801 net.cpp:408] rpn_big_cls_prob_reshape_rpn_big_cls_prob_reshape_0_split -> rpn_big_cls_prob_reshape_rpn_big_cls_prob_reshape_0_split_1
I0413 18:58:26.381192 14801 net.cpp:150] Setting up rpn_big_cls_prob_reshape_rpn_big_cls_prob_reshape_0_split
I0413 18:58:26.381202 14801 net.cpp:157] Top shape: 1 52 61 92 (291824)
I0413 18:58:26.381211 14801 net.cpp:157] Top shape: 1 52 61 92 (291824)
I0413 18:58:26.381217 14801 net.cpp:165] Memory required for data: 3614749556
I0413 18:58:26.381222 14801 layer_factory.hpp:77] Creating layer rpn_big_anchor_target
I0413 18:58:26.382647 14801 net.cpp:100] Creating Layer rpn_big_anchor_target
I0413 18:58:26.382668 14801 net.cpp:434] rpn_big_anchor_target <- rpn_big_cls_score_rpn_big_cls_score_0_split_1
I0413 18:58:26.382679 14801 net.cpp:434] rpn_big_anchor_target <- input_gt_boxes_input_2_split_0
I0413 18:58:26.382688 14801 net.cpp:434] rpn_big_anchor_target <- input_ignored_boxes
I0413 18:58:26.382695 14801 net.cpp:434] rpn_big_anchor_target <- input_im_info_input_1_split_0
I0413 18:58:26.382702 14801 net.cpp:434] rpn_big_anchor_target <- input_data_input_0_split_1
I0413 18:58:26.382710 14801 net.cpp:434] rpn_big_anchor_target <- rpn_big_cls_prob_reshape_rpn_big_cls_prob_reshape_0_split_0
I0413 18:58:26.382721 14801 net.cpp:408] rpn_big_anchor_target -> rpn_big_anchor_target_labels
I0413 18:58:26.382738 14801 net.cpp:408] rpn_big_anchor_target -> rpn_big_anchor_target_bbox_targets
I0413 18:58:26.382753 14801 net.cpp:408] rpn_big_anchor_target -> rpn_big_anchor_target_inside_weights
I0413 18:58:26.382767 14801 net.cpp:408] rpn_big_anchor_target -> rpn_big_anchor_target_outside_weights
I0413 18:58:26.387547 14801 net.cpp:150] Setting up rpn_big_anchor_target
I0413 18:58:26.387574 14801 net.cpp:157] Top shape: 1 1 1586 92 (145912)
I0413 18:58:26.387583 14801 net.cpp:157] Top shape: 1 104 61 92 (583648)
I0413 18:58:26.387598 14801 net.cpp:157] Top shape: 1 104 61 92 (583648)
I0413 18:58:26.387609 14801 net.cpp:157] Top shape: 1 104 61 92 (583648)
I0413 18:58:26.387614 14801 net.cpp:165] Memory required for data: 3622336980
I0413 18:58:26.387621 14801 layer_factory.hpp:77] Creating layer rpn_big_loss_cls
I0413 18:58:26.387637 14801 net.cpp:100] Creating Layer rpn_big_loss_cls
I0413 18:58:26.387645 14801 net.cpp:434] rpn_big_loss_cls <- rpn_big_cls_score_reshape_rpn_big_cls_score_reshape_0_split_1
I0413 18:58:26.387656 14801 net.cpp:434] rpn_big_loss_cls <- rpn_big_anchor_target_labels
I0413 18:58:26.387670 14801 net.cpp:408] rpn_big_loss_cls -> rpn_big_loss_cls
I0413 18:58:26.387691 14801 layer_factory.hpp:77] Creating layer rpn_big_loss_cls
I0413 18:58:26.388340 14801 net.cpp:150] Setting up rpn_big_loss_cls
I0413 18:58:26.388356 14801 net.cpp:157] Top shape: (1)
I0413 18:58:26.388362 14801 net.cpp:160]     with loss weight 1
I0413 18:58:26.388381 14801 net.cpp:165] Memory required for data: 3622336984
I0413 18:58:26.388387 14801 layer_factory.hpp:77] Creating layer rpn_big_output_box
I0413 18:58:26.388406 14801 net.cpp:100] Creating Layer rpn_big_output_box
I0413 18:58:26.388414 14801 net.cpp:434] rpn_big_output_box <- rpn_big_conv2_rpn_big_conv2_drop_0_split_1
I0413 18:58:26.388427 14801 net.cpp:408] rpn_big_output_box -> rpn_big_output_box
I0413 18:58:26.407485 14801 net.cpp:150] Setting up rpn_big_output_box
I0413 18:58:26.407517 14801 net.cpp:157] Top shape: 1 384 63 94 (2274048)
I0413 18:58:26.407522 14801 net.cpp:165] Memory required for data: 3631433176
I0413 18:58:26.407544 14801 layer_factory.hpp:77] Creating layer rpn_big_output_box_relu
I0413 18:58:26.407564 14801 net.cpp:100] Creating Layer rpn_big_output_box_relu
I0413 18:58:26.407574 14801 net.cpp:434] rpn_big_output_box_relu <- rpn_big_output_box
I0413 18:58:26.407588 14801 net.cpp:395] rpn_big_output_box_relu -> rpn_big_output_box (in-place)
I0413 18:58:26.407605 14801 net.cpp:150] Setting up rpn_big_output_box_relu
I0413 18:58:26.407614 14801 net.cpp:157] Top shape: 1 384 63 94 (2274048)
I0413 18:58:26.407621 14801 net.cpp:165] Memory required for data: 3640529368
I0413 18:58:26.407627 14801 layer_factory.hpp:77] Creating layer rpn_big_bbox_pred
I0413 18:58:26.407645 14801 net.cpp:100] Creating Layer rpn_big_bbox_pred
I0413 18:58:26.407655 14801 net.cpp:434] rpn_big_bbox_pred <- rpn_big_output_box
I0413 18:58:26.407668 14801 net.cpp:408] rpn_big_bbox_pred -> rpn_big_bbox_pred
I0413 18:58:26.411639 14801 net.cpp:150] Setting up rpn_big_bbox_pred
I0413 18:58:26.411666 14801 net.cpp:157] Top shape: 1 104 61 92 (583648)
I0413 18:58:26.411674 14801 net.cpp:165] Memory required for data: 3642863960
I0413 18:58:26.411686 14801 layer_factory.hpp:77] Creating layer rpn_big_bbox_pred_rpn_big_bbox_pred_0_split
I0413 18:58:26.411698 14801 net.cpp:100] Creating Layer rpn_big_bbox_pred_rpn_big_bbox_pred_0_split
I0413 18:58:26.411705 14801 net.cpp:434] rpn_big_bbox_pred_rpn_big_bbox_pred_0_split <- rpn_big_bbox_pred
I0413 18:58:26.411716 14801 net.cpp:408] rpn_big_bbox_pred_rpn_big_bbox_pred_0_split -> rpn_big_bbox_pred_rpn_big_bbox_pred_0_split_0
I0413 18:58:26.411732 14801 net.cpp:408] rpn_big_bbox_pred_rpn_big_bbox_pred_0_split -> rpn_big_bbox_pred_rpn_big_bbox_pred_0_split_1
I0413 18:58:26.411784 14801 net.cpp:150] Setting up rpn_big_bbox_pred_rpn_big_bbox_pred_0_split
I0413 18:58:26.411794 14801 net.cpp:157] Top shape: 1 104 61 92 (583648)
I0413 18:58:26.411803 14801 net.cpp:157] Top shape: 1 104 61 92 (583648)
I0413 18:58:26.411809 14801 net.cpp:165] Memory required for data: 3647533144
I0413 18:58:26.411815 14801 layer_factory.hpp:77] Creating layer rpn_big_loss_bbox
I0413 18:58:26.412204 14801 net.cpp:100] Creating Layer rpn_big_loss_bbox
I0413 18:58:26.412216 14801 net.cpp:434] rpn_big_loss_bbox <- rpn_big_bbox_pred_rpn_big_bbox_pred_0_split_0
I0413 18:58:26.412226 14801 net.cpp:434] rpn_big_loss_bbox <- rpn_big_anchor_target_bbox_targets
I0413 18:58:26.412235 14801 net.cpp:434] rpn_big_loss_bbox <- rpn_big_anchor_target_inside_weights
I0413 18:58:26.412242 14801 net.cpp:434] rpn_big_loss_bbox <- rpn_big_anchor_target_outside_weights
I0413 18:58:26.412253 14801 net.cpp:408] rpn_big_loss_bbox -> rpn_big_loss_bbox
I0413 18:58:26.416266 14801 net.cpp:150] Setting up rpn_big_loss_bbox
I0413 18:58:26.416304 14801 net.cpp:157] Top shape: 1 (1)
I0413 18:58:26.416309 14801 net.cpp:160]     with loss weight 1
I0413 18:58:26.416326 14801 net.cpp:165] Memory required for data: 3647533148
I0413 18:58:26.416337 14801 layer_factory.hpp:77] Creating layer proposal
I0413 18:58:26.416743 14801 net.cpp:100] Creating Layer proposal
I0413 18:58:26.416754 14801 net.cpp:434] proposal <- rpn_big_cls_prob_reshape_rpn_big_cls_prob_reshape_0_split_1
I0413 18:58:26.416766 14801 net.cpp:434] proposal <- rpn_big_bbox_pred_rpn_big_bbox_pred_0_split_1
I0413 18:58:26.416775 14801 net.cpp:434] proposal <- input_im_info_input_1_split_1
I0413 18:58:26.416787 14801 net.cpp:408] proposal -> rpn_rois
I0413 18:58:26.420948 14801 net.cpp:150] Setting up proposal
I0413 18:58:26.420966 14801 net.cpp:157] Top shape: 1 5 (5)
I0413 18:58:26.420974 14801 net.cpp:165] Memory required for data: 3647533168
I0413 18:58:26.420980 14801 layer_factory.hpp:77] Creating layer roi-data
I0413 18:58:26.421311 14801 net.cpp:100] Creating Layer roi-data
I0413 18:58:26.421322 14801 net.cpp:434] roi-data <- rpn_rois
I0413 18:58:26.421334 14801 net.cpp:434] roi-data <- input_gt_boxes_input_2_split_1
I0413 18:58:26.421344 14801 net.cpp:408] roi-data -> rois
I0413 18:58:26.421360 14801 net.cpp:408] roi-data -> labels
I0413 18:58:26.421378 14801 net.cpp:408] roi-data -> bbox_targets
I0413 18:58:26.421394 14801 net.cpp:408] roi-data -> bbox_inside_weights
I0413 18:58:26.421409 14801 net.cpp:408] roi-data -> bbox_outside_weights
I0413 18:58:26.421425 14801 net.cpp:408] roi-data -> pid_label
I0413 18:58:26.422364 14801 net.cpp:150] Setting up roi-data
I0413 18:58:26.422379 14801 net.cpp:157] Top shape: 1 5 (5)
I0413 18:58:26.422386 14801 net.cpp:157] Top shape: 1 1 (1)
I0413 18:58:26.422394 14801 net.cpp:157] Top shape: 1 8 (8)
I0413 18:58:26.422399 14801 net.cpp:157] Top shape: 1 8 (8)
I0413 18:58:26.422407 14801 net.cpp:157] Top shape: 1 8 (8)
I0413 18:58:26.422415 14801 net.cpp:157] Top shape: (0)
I0413 18:58:26.422420 14801 net.cpp:165] Memory required for data: 3647533288
I0413 18:58:26.422427 14801 layer_factory.hpp:77] Creating layer roi-pool
I0413 18:58:26.422443 14801 net.cpp:100] Creating Layer roi-pool
I0413 18:58:26.422451 14801 net.cpp:434] roi-pool <- conv5_3_relu5_3_0_split_1
I0413 18:58:26.422459 14801 net.cpp:434] roi-pool <- rois
I0413 18:58:26.422469 14801 net.cpp:408] roi-pool -> roi-pool
I0413 18:58:26.422482 14801 roi_pooling_layer.cpp:33] Spatial scale: 0.0625
I0413 18:58:26.422499 14801 roi_pooling_layer.cpp:34] Box scale: 1
I0413 18:58:26.422550 14801 net.cpp:150] Setting up roi-pool
I0413 18:58:26.422561 14801 net.cpp:157] Top shape: 1 512 7 7 (25088)
I0413 18:58:26.422567 14801 net.cpp:165] Memory required for data: 3647633640
I0413 18:58:26.422574 14801 layer_factory.hpp:77] Creating layer fc6
I0413 18:58:26.422587 14801 net.cpp:100] Creating Layer fc6
I0413 18:58:26.422595 14801 net.cpp:434] fc6 <- roi-pool
I0413 18:58:26.422605 14801 net.cpp:408] fc6 -> fc6
I0413 18:58:26.586638 14801 net.cpp:150] Setting up fc6
I0413 18:58:26.586678 14801 net.cpp:157] Top shape: 1 4096 (4096)
I0413 18:58:26.586683 14801 net.cpp:165] Memory required for data: 3647650024
I0413 18:58:26.586701 14801 layer_factory.hpp:77] Creating layer relu6
I0413 18:58:26.586715 14801 net.cpp:100] Creating Layer relu6
I0413 18:58:26.586724 14801 net.cpp:434] relu6 <- fc6
I0413 18:58:26.586737 14801 net.cpp:395] relu6 -> fc6 (in-place)
I0413 18:58:26.586755 14801 net.cpp:150] Setting up relu6
I0413 18:58:26.586763 14801 net.cpp:157] Top shape: 1 4096 (4096)
I0413 18:58:26.586768 14801 net.cpp:165] Memory required for data: 3647666408
I0413 18:58:26.586776 14801 layer_factory.hpp:77] Creating layer drop6
I0413 18:58:26.586786 14801 net.cpp:100] Creating Layer drop6
I0413 18:58:26.586792 14801 net.cpp:434] drop6 <- fc6
I0413 18:58:26.586802 14801 net.cpp:395] drop6 -> fc6 (in-place)
I0413 18:58:26.586838 14801 net.cpp:150] Setting up drop6
I0413 18:58:26.586846 14801 net.cpp:157] Top shape: 1 4096 (4096)
I0413 18:58:26.586853 14801 net.cpp:165] Memory required for data: 3647682792
I0413 18:58:26.586859 14801 layer_factory.hpp:77] Creating layer fc7
I0413 18:58:26.586869 14801 net.cpp:100] Creating Layer fc7
I0413 18:58:26.586876 14801 net.cpp:434] fc7 <- fc6
I0413 18:58:26.586886 14801 net.cpp:408] fc7 -> fc7
I0413 18:58:26.614029 14801 net.cpp:150] Setting up fc7
I0413 18:58:26.614068 14801 net.cpp:157] Top shape: 1 4096 (4096)
I0413 18:58:26.614073 14801 net.cpp:165] Memory required for data: 3647699176
I0413 18:58:26.614090 14801 layer_factory.hpp:77] Creating layer relu7
I0413 18:58:26.614123 14801 net.cpp:100] Creating Layer relu7
I0413 18:58:26.614133 14801 net.cpp:434] relu7 <- fc7
I0413 18:58:26.614146 14801 net.cpp:395] relu7 -> fc7 (in-place)
I0413 18:58:26.614171 14801 net.cpp:150] Setting up relu7
I0413 18:58:26.614181 14801 net.cpp:157] Top shape: 1 4096 (4096)
I0413 18:58:26.614187 14801 net.cpp:165] Memory required for data: 3647715560
I0413 18:58:26.614194 14801 layer_factory.hpp:77] Creating layer drop7
I0413 18:58:26.614204 14801 net.cpp:100] Creating Layer drop7
I0413 18:58:26.614212 14801 net.cpp:434] drop7 <- fc7
I0413 18:58:26.614219 14801 net.cpp:395] drop7 -> fc7 (in-place)
I0413 18:58:26.614253 14801 net.cpp:150] Setting up drop7
I0413 18:58:26.614262 14801 net.cpp:157] Top shape: 1 4096 (4096)
I0413 18:58:26.614267 14801 net.cpp:165] Memory required for data: 3647731944
I0413 18:58:26.614274 14801 layer_factory.hpp:77] Creating layer fc7_drop7_0_split
I0413 18:58:26.614284 14801 net.cpp:100] Creating Layer fc7_drop7_0_split
I0413 18:58:26.614291 14801 net.cpp:434] fc7_drop7_0_split <- fc7
I0413 18:58:26.614303 14801 net.cpp:408] fc7_drop7_0_split -> fc7_drop7_0_split_0
I0413 18:58:26.614331 14801 net.cpp:408] fc7_drop7_0_split -> fc7_drop7_0_split_1
I0413 18:58:26.614374 14801 net.cpp:150] Setting up fc7_drop7_0_split
I0413 18:58:26.614387 14801 net.cpp:157] Top shape: 1 4096 (4096)
I0413 18:58:26.614394 14801 net.cpp:157] Top shape: 1 4096 (4096)
I0413 18:58:26.614400 14801 net.cpp:165] Memory required for data: 3647764712
I0413 18:58:26.614406 14801 layer_factory.hpp:77] Creating layer bbox_pred
I0413 18:58:26.614419 14801 net.cpp:100] Creating Layer bbox_pred
I0413 18:58:26.614426 14801 net.cpp:434] bbox_pred <- fc7_drop7_0_split_0
I0413 18:58:26.614439 14801 net.cpp:408] bbox_pred -> bbox_pred
I0413 18:58:26.614876 14801 net.cpp:150] Setting up bbox_pred
I0413 18:58:26.614887 14801 net.cpp:157] Top shape: 1 8 (8)
I0413 18:58:26.614893 14801 net.cpp:165] Memory required for data: 3647764744
I0413 18:58:26.614904 14801 layer_factory.hpp:77] Creating layer loss_bbox
I0413 18:58:26.614917 14801 net.cpp:100] Creating Layer loss_bbox
I0413 18:58:26.614923 14801 net.cpp:434] loss_bbox <- bbox_pred
I0413 18:58:26.614931 14801 net.cpp:434] loss_bbox <- bbox_targets
I0413 18:58:26.614939 14801 net.cpp:434] loss_bbox <- bbox_inside_weights
I0413 18:58:26.614946 14801 net.cpp:434] loss_bbox <- bbox_outside_weights
I0413 18:58:26.614959 14801 net.cpp:408] loss_bbox -> loss_bbox
I0413 18:58:26.615056 14801 net.cpp:150] Setting up loss_bbox
I0413 18:58:26.615084 14801 net.cpp:157] Top shape: (1)
I0413 18:58:26.615092 14801 net.cpp:160]     with loss weight 1
I0413 18:58:26.615106 14801 net.cpp:165] Memory required for data: 3647764748
I0413 18:58:26.615113 14801 layer_factory.hpp:77] Creating layer feat
I0413 18:58:26.615123 14801 net.cpp:100] Creating Layer feat
I0413 18:58:26.615130 14801 net.cpp:434] feat <- fc7_drop7_0_split_1
I0413 18:58:26.615140 14801 net.cpp:408] feat -> feat
I0413 18:58:26.626935 14801 net.cpp:150] Setting up feat
I0413 18:58:26.626966 14801 net.cpp:157] Top shape: 1 256 (256)
I0413 18:58:26.626972 14801 net.cpp:165] Memory required for data: 3647765772
I0413 18:58:26.626987 14801 layer_factory.hpp:77] Creating layer relu8
I0413 18:58:26.627002 14801 net.cpp:100] Creating Layer relu8
I0413 18:58:26.627009 14801 net.cpp:434] relu8 <- feat
I0413 18:58:26.627019 14801 net.cpp:395] relu8 -> feat (in-place)
I0413 18:58:26.627041 14801 net.cpp:150] Setting up relu8
I0413 18:58:26.627049 14801 net.cpp:157] Top shape: 1 256 (256)
I0413 18:58:26.627053 14801 net.cpp:165] Memory required for data: 3647766796
I0413 18:58:26.627058 14801 layer_factory.hpp:77] Creating layer drop8
I0413 18:58:26.627068 14801 net.cpp:100] Creating Layer drop8
I0413 18:58:26.627074 14801 net.cpp:434] drop8 <- feat
I0413 18:58:26.627081 14801 net.cpp:395] drop8 -> feat (in-place)
I0413 18:58:26.627115 14801 net.cpp:150] Setting up drop8
I0413 18:58:26.627127 14801 net.cpp:157] Top shape: 1 256 (256)
I0413 18:58:26.627132 14801 net.cpp:165] Memory required for data: 3647767820
I0413 18:58:26.627140 14801 layer_factory.hpp:77] Creating layer pid_score
I0413 18:58:26.627153 14801 net.cpp:100] Creating Layer pid_score
I0413 18:58:26.627164 14801 net.cpp:434] pid_score <- feat
I0413 18:58:26.627176 14801 net.cpp:408] pid_score -> pid_score
I0413 18:58:26.642531 14801 net.cpp:150] Setting up pid_score
I0413 18:58:26.642561 14801 net.cpp:157] Top shape: 1 5533 (5533)
I0413 18:58:26.642566 14801 net.cpp:165] Memory required for data: 3647789952
I0413 18:58:26.642590 14801 layer_factory.hpp:77] Creating layer pid_loss
I0413 18:58:26.642611 14801 net.cpp:100] Creating Layer pid_loss
I0413 18:58:26.642626 14801 net.cpp:434] pid_loss <- pid_score
I0413 18:58:26.642637 14801 net.cpp:434] pid_loss <- pid_label
I0413 18:58:26.642648 14801 net.cpp:408] pid_loss -> pid_loss
…
