…
I0413 19:28:28.625012 15914 solver.cpp:48] Initializing solver from parameters: 
base_lr: 0.001
display: 20
lr_policy: "multistep"
gamma: 0.1
momentum: 0.9
weight_decay: 0.0005
snapshot: 0
snapshot_prefix: "faces_example"
net_param {
  name: "GeneratedModel_13_04_2017_19_28"
  layer {
    name: "input"
    type: "Python"
    top: "input_data"
    top: "input_im_info"
    top: "input_gt_boxes"
    top: "input_ignored_boxes"
    python_param {
      module: "layers.roi_data_layer"
      layer: "RoIDataLayer"
      param_str: "{\"num_classes\": 2}"
    }
  }
  layer {
    name: "conv1_1"
    type: "Convolution"
    bottom: "input_data"
    top: "conv1_1"
    param {
      lr_mult: 0
      decay_mult: 0
    }
    param {
      lr_mult: 0
      decay_mult: 0
    }
    convolution_param {
      num_output: 64
      pad: 1
      kernel_size: 3
    }
  }
  layer {
    name: "relu1_1"
    type: "ReLU"
    bottom: "conv1_1"
    top: "conv1_1"
  }
  layer {
    name: "conv1_2"
    type: "Convolution"
    bottom: "conv1_1"
    top: "conv1_2"
    param {
      lr_mult: 0
      decay_mult: 0
    }
    param {
      lr_mult: 0
      decay_mult: 0
    }
    convolution_param {
      num_output: 64
      pad: 1
      kernel_size: 3
    }
  }
  layer {
    name: "relu1_2"
    type: "ReLU"
    bottom: "conv1_2"
    top: "conv1_2"
  }
  layer {
    name: "pool1"
    type: "Pooling"
    bottom: "conv1_2"
    top: "pool1"
    pooling_param {
      pool: MAX
      kernel_size: 2
      stride: 2
    }
  }
  layer {
    name: "conv2_1"
    type: "Convolution"
    bottom: "pool1"
    top: "conv2_1"
    param {
      lr_mult: 0
      decay_mult: 0
    }
    param {
      lr_mult: 0
      decay_mult: 0
    }
    convolution_param {
      num_output: 128
      pad: 1
      kernel_size: 3
    }
  }
  layer {
    name: "relu2_1"
    type: "ReLU"
    bottom: "conv2_1"
    top: "conv2_1"
  }
  layer {
    name: "conv2_2"
    type: "Convolution"
    bottom: "conv2_1"
    top: "conv2_2"
    param {
      lr_mult: 0
      decay_mult: 0
    }
    param {
      lr_mult: 0
      decay_mult: 0
    }
    convolution_param {
      num_output: 128
      pad: 1
      kernel_size: 3
    }
  }
  layer {
    name: "relu2_2"
    type: "ReLU"
    bottom: "conv2_2"
    top: "conv2_2"
  }
  layer {
    name: "pool2"
    type: "Pooling"
    bottom: "conv2_2"
    top: "pool2"
    pooling_param {
      pool: MAX
      kernel_size: 2
      stride: 2
    }
  }
  layer {
    name: "conv3_1"
    type: "Convolution"
    bottom: "pool2"
    top: "conv3_1"
    param {
      lr_mult: 1
    }
    param {
      lr_mult: 2
    }
    convolution_param {
      num_output: 256
      pad: 1
      kernel_size: 3
    }
  }
  layer {
    name: "relu3_1"
    type: "ReLU"
    bottom: "conv3_1"
    top: "conv3_1"
  }
  layer {
    name: "conv3_2"
    type: "Convolution"
    bottom: "conv3_1"
    top: "conv3_2"
    param {
      lr_mult: 1
    }
    param {
      lr_mult: 2
    }
    convolution_param {
      num_output: 256
      pad: 1
      kernel_size: 3
    }
  }
  layer {
    name: "relu3_2"
    type: "ReLU"
    bottom: "conv3_2"
    top: "conv3_2"
  }
  layer {
    name: "conv3_3"
    type: "Convolution"
    bottom: "conv3_2"
    top: "conv3_3"
    param {
      lr_mult: 1
    }
    param {
      lr_mult: 2
    }
    convolution_param {
      num_output: 256
      pad: 1
      kernel_size: 3
    }
  }
  layer {
    name: "relu3_3"
    type: "ReLU"
    bottom: "conv3_3"
    top: "conv3_3"
  }
  layer {
    name: "pool3"
    type: "Pooling"
    bottom: "conv3_3"
    top: "pool3"
    pooling_param {
      pool: MAX
      kernel_size: 2
      stride: 2
    }
  }
  layer {
    name: "conv4_1"
    type: "Convolution"
    bottom: "pool3"
    top: "conv4_1"
    param {
      lr_mult: 1
    }
    param {
      lr_mult: 2
    }
    convolution_param {
      num_output: 512
      pad: 1
      kernel_size: 3
    }
  }
  layer {
    name: "relu4_1"
    type: "ReLU"
    bottom: "conv4_1"
    top: "conv4_1"
  }
  layer {
    name: "conv4_2"
    type: "Convolution"
    bottom: "conv4_1"
    top: "conv4_2"
    param {
      lr_mult: 1
    }
    param {
      lr_mult: 2
    }
    convolution_param {
      num_output: 512
      pad: 1
      kernel_size: 3
    }
  }
  layer {
    name: "relu4_2"
    type: "ReLU"
    bottom: "conv4_2"
    top: "conv4_2"
  }
  layer {
    name: "conv4_3"
    type: "Convolution"
    bottom: "conv4_2"
    top: "conv4_3"
    param {
      lr_mult: 1
    }
    param {
      lr_mult: 2
    }
    convolution_param {
      num_output: 512
      pad: 1
      kernel_size: 3
    }
  }
  layer {
    name: "relu4_3"
    type: "ReLU"
    bottom: "conv4_3"
    top: "conv4_3"
  }
  layer {
    name: "pool4"
    type: "Pooling"
    bottom: "conv4_3"
    top: "pool4"
    pooling_param {
      pool: MAX
      kernel_size: 2
      stride: 2
    }
  }
  layer {
    name: "conv5_1"
    type: "Convolution"
    bottom: "pool4"
    top: "conv5_1"
    param {
      lr_mult: 1
    }
    param {
      lr_mult: 2
    }
    convolution_param {
      num_output: 512
      pad: 1
      kernel_size: 3
    }
  }
  layer {
    name: "relu5_1"
    type: "ReLU"
    bottom: "conv5_1"
    top: "conv5_1"
  }
  layer {
    name: "conv5_2"
    type: "Convolution"
    bottom: "conv5_1"
    top: "conv5_2"
    param {
      lr_mult: 1
    }
    param {
      lr_mult: 2
    }
    convolution_param {
      num_output: 512
      pad: 1
      kernel_size: 3
    }
  }
  layer {
    name: "relu5_2"
    type: "ReLU"
    bottom: "conv5_2"
    top: "conv5_2"
  }
  layer {
    name: "conv5_3"
    type: "Convolution"
    bottom: "conv5_2"
    top: "conv5_3"
    param {
      lr_mult: 1
    }
    param {
      lr_mult: 2
    }
    convolution_param {
      num_output: 512
      pad: 1
      kernel_size: 3
    }
  }
  layer {
    name: "relu5_3"
    type: "ReLU"
    bottom: "conv5_3"
    top: "conv5_3"
  }
  layer {
    name: "rpn_big_conv1"
    type: "Convolution"
    bottom: "conv5_3"
    top: "rpn_big_conv1"
    param {
      lr_mult: 1
    }
    param {
      lr_mult: 2
    }
    convolution_param {
      num_output: 512
      pad: 1
      kernel_size: 3
      stride: 1
      weight_filler {
        type: "gaussian"
        mean: 0
        std: 0.01
      }
      bias_filler {
        type: "constant"
      }
    }
  }
  layer {
    name: "rpn_big_conv1_relu"
    type: "ReLU"
    bottom: "rpn_big_conv1"
    top: "rpn_big_conv1"
    relu_param {
      negative_slope: 0
    }
  }
  layer {
    name: "rpn_big_conv2"
    type: "Convolution"
    bottom: "rpn_big_conv1"
    top: "rpn_big_conv2"
    param {
      lr_mult: 1
    }
    param {
      lr_mult: 2
    }
    convolution_param {
      num_output: 512
      pad: 1
      kernel_size: 3
      stride: 1
      weight_filler {
        type: "gaussian"
        mean: 0
        std: 0.01
      }
      bias_filler {
        type: "constant"
      }
    }
  }
  layer {
    name: "rpn_big_conv2_relu"
    type: "ReLU"
    bottom: "rpn_big_conv2"
    top: "rpn_big_conv2"
    relu_param {
      negative_slope: 0
    }
  }
  layer {
    name: "rpn_big_conv2_drop"
    type: "Dropout"
    bottom: "rpn_big_conv2"
    top: "rpn_big_conv2"
    dropout_param {
      dropout_ratio: 0.3
    }
  }
  layer {
    name: "rpn_big_output_cls"
    type: "Convolution"
    bottom: "rpn_big_conv2"
    top: "rpn_big_output_cls"
    param {
      lr_mult: 1
    }
    param {
      lr_mult: 2
    }
    convolution_param {
      num_output: 384
      pad: 1
      kernel_size: 3
      stride: 1
      weight_filler {
        type: "gaussian"
        mean: 0
        std: 0.01
      }
      bias_filler {
        type: "constant"
      }
    }
  }
  layer {
    name: "rpn_big_output_cls_relu"
    type: "ReLU"
    bottom: "rpn_big_output_cls"
    top: "rpn_big_output_cls"
    relu_param {
      negative_slope: 0
    }
  }
  layer {
    name: "rpn_big_cls_score"
    type: "Convolution"
    bottom: "rpn_big_output_cls"
    top: "rpn_big_cls_score"
    param {
      lr_mult: 1
    }
    param {
      lr_mult: 2
    }
    convolution_param {
      num_output: 52
      pad: 0
      kernel_size: 3
      stride: 1
      weight_filler {
        type: "gaussian"
        mean: 0
        std: 0.01
      }
      bias_filler {
        type: "constant"
      }
    }
  }
  layer {
    name: "rpn_big_cls_score_reshape"
    type: "Reshape"
    bottom: "rpn_big_cls_score"
    top: "rpn_big_cls_score_reshape"
    reshape_param {
      shape {
        dim: 0
        dim: 2
        dim: -1
        dim: 0
      }
    }
  }
  layer {
    name: "rpn_big_cls_prob"
    type: "Softmax"
    bottom: "rpn_big_cls_score_reshape"
    top: "rpn_big_cls_prob"
  }
  layer {
    name: "rpn_big_cls_prob_reshape"
    type: "Reshape"
    bottom: "rpn_big_cls_prob"
    top: "rpn_big_cls_prob_reshape"
    reshape_param {
      shape {
        dim: 0
        dim: 52
        dim: -1
        dim: 0
      }
    }
  }
  layer {
    name: "rpn_big_anchor_target"
    type: "Python"
    bottom: "rpn_big_cls_score"
    bottom: "input_gt_boxes"
    bottom: "input_ignored_boxes"
    bottom: "input_im_info"
    bottom: "input_data"
    bottom: "rpn_big_cls_prob_reshape"
    top: "rpn_big_anchor_target_labels"
    top: "rpn_big_anchor_target_bbox_targets"
    top: "rpn_big_anchor_target_inside_weights"
    top: "rpn_big_anchor_target_outside_weights"
    python_param {
      module: "rpn.anchor_target_layer"
      layer: "AnchorTargetLayer"
      param_str: "{\"tn_fraction\": 0.2, \"square_targets\": true, \"positive_overlap\": 0.6, \"feat_stride\": 16, \"negative_overlap\": 0.4, \"num_classes\": 1, \"name\": \"rpn_big\", \"anchor_ratios\": [1.0], \"fg_fraction\": 0.5, \"batchsize\": 256, \"anchor_shift_num_xy\": [[2, 2], [2, 2], [2, 2], [2, 2], [1, 1], [1, 1], [1, 1], [1, 1], [1, 1], [1, 1], [1, 1], [1, 1], [1, 1], [1, 1]], \"anchor_scales\": [2.5, 3.025, 3.66025, 4.4289024999999995, 5.358972025, 6.484356150249999, 7.846070941802498, 9.493745839581022, 11.487432465893036, 13.899793283730574, 16.818749873313998, 20.350687346709933, 24.62433168951902, 29.795441344318014]}"
    }
  }
  layer {
    name: "rpn_big_loss_cls"
    type: "SoftmaxWithLoss"
    bottom: "rpn_big_cls_score_reshape"
    bottom: "rpn_big_anchor_target_labels"
    top: "rpn_big_loss_cls"
    loss_weight: 1
    propagate_down: true
    propagate_down: false
    loss_param {
      ignore_label: -1
      normalization: VALID
    }
  }
  layer {
    name: "rpn_big_output_box"
    type: "Convolution"
    bottom: "rpn_big_conv2"
    top: "rpn_big_output_box"
    param {
      lr_mult: 1
    }
    param {
      lr_mult: 2
    }
    convolution_param {
      num_output: 384
      pad: 1
      kernel_size: 3
      stride: 1
      weight_filler {
        type: "gaussian"
        mean: 0
        std: 0.01
      }
      bias_filler {
        type: "constant"
      }
    }
  }
  layer {
    name: "rpn_big_output_box_relu"
    type: "ReLU"
    bottom: "rpn_big_output_box"
    top: "rpn_big_output_box"
    relu_param {
      negative_slope: 0
    }
  }
  layer {
    name: "rpn_big_bbox_pred"
    type: "Convolution"
    bottom: "rpn_big_output_box"
    top: "rpn_big_bbox_pred"
    param {
      lr_mult: 1
    }
    param {
      lr_mult: 2
    }
    convolution_param {
      num_output: 104
      pad: 0
      kernel_size: 3
      stride: 1
      weight_filler {
        type: "gaussian"
        mean: 0
        std: 0.01
      }
      bias_filler {
        type: "constant"
      }
    }
  }
  layer {
    name: "rpn_big_loss_bbox"
    type: "Python"
    bottom: "rpn_big_bbox_pred"
    bottom: "rpn_big_anchor_target_bbox_targets"
    bottom: "rpn_big_anchor_target_inside_weights"
    bottom: "rpn_big_anchor_target_outside_weights"
    top: "rpn_big_loss_bbox"
    loss_weight: 1
    python_param {
      module: "layers.smooth_l1_loss"
      layer: "SmoothL1LossLayer"
      param_str: "{\"sigma\": 3}"
    }
  }
  layer {
    name: "proposal"
    type: "Python"
    bottom: "rpn_big_cls_prob_reshape"
    bottom: "rpn_big_bbox_pred"
    bottom: "input_im_info"
    top: "rpn_rois"
    python_param {
      module: "rpn.proposal_layer"
      layer: "ProposalLayer"
      param_str: "{\"anchor_shift_num_xy\": [[2, 2], [2, 2], [2, 2], [2, 2], [1, 1], [1, 1], [1, 1], [1, 1], [1, 1], [1, 1], [1, 1], [1, 1], [1, 1], [1, 1]], \"feat_stride\": 16, \"num_classes\": 1, \"anchor_scales\": [2.5, 3.025, 3.66025, 4.4289024999999995, 5.358972025, 6.484356150249999, 7.846070941802498, 9.493745839581022, 11.487432465893036, 13.899793283730574, 16.818749873313998, 20.350687346709933, 24.62433168951902, 29.795441344318014], \"square_targets\": true, \"name\": \"rpn_big\", \"batchsize\": 256, \"anchor_ratios\": [1.0]}"
    }
  }
  layer {
    name: "roi-data"
    type: "Python"
    bottom: "rpn_rois"
    bottom: "input_gt_boxes"
    top: "rois"
    top: "labels"
    top: "bbox_targets"
    top: "bbox_inside_weights"
    top: "bbox_outside_weights"
    top: "pid_label"
    python_param {
      module: "rpn.proposal_target_layer"
      layer: "ProposalTargetLayer"
      param_str: "{\"num_classes\": 2, \"bg_aux_label\": 5532}"
    }
  }
  layer {
    name: "roi-pool"
    type: "ROIPooling"
    bottom: "conv5_3"
    bottom: "rois"
    top: "roi-pool"
    roi_pooling_param {
      pooled_h: 7
      pooled_w: 7
      spatial_scale: 0.0625
    }
  }
  layer {
    name: "fc6"
    type: "InnerProduct"
    bottom: "roi-pool"
    top: "fc6"
    param {
      lr_mult: 1
    }
    param {
      lr_mult: 2
    }
    inner_product_param {
      num_output: 4096
    }
  }
  layer {
    name: "relu6"
    type: "ReLU"
    bottom: "fc6"
    top: "fc6"
  }
  layer {
    name: "drop6"
    type: "Dropout"
    bottom: "fc6"
    top: "fc6"
    dropout_param {
      dropout_ratio: 0.5
    }
  }
  layer {
    name: "fc7"
    type: "InnerProduct"
    bottom: "fc6"
    top: "fc7"
    param {
      lr_mult: 1
    }
    param {
      lr_mult: 2
    }
    inner_product_param {
      num_output: 4096
    }
  }
  layer {
    name: "relu7"
    type: "ReLU"
    bottom: "fc7"
    top: "fc7"
  }
  layer {
    name: "drop7"
    type: "Dropout"
    bottom: "fc7"
    top: "fc7"
    dropout_param {
      dropout_ratio: 0.5
    }
  }
  layer {
    name: "bbox_pred"
    type: "InnerProduct"
    bottom: "fc7"
    top: "bbox_pred"
    param {
      lr_mult: 1
    }
    param {
      lr_mult: 2
    }
    inner_product_param {
      num_output: 8
      weight_filler {
        type: "gaussian"
        std: 0.001
      }
      bias_filler {
        type: "constant"
        value: 0
      }
    }
  }
  layer {
    name: "loss_bbox"
    type: "SmoothL1Loss"
    bottom: "bbox_pred"
    bottom: "bbox_targets"
    bottom: "bbox_inside_weights"
    bottom: "bbox_outside_weights"
    top: "loss_bbox"
    loss_weight: 1
  }
  layer {
    name: "feat"
    type: "InnerProduct"
    bottom: "fc7"
    top: "feat"
    param {
      lr_mult: 1
      decay_mult: 1
    }
    param {
      lr_mult: 2
      decay_mult: 0
    }
    inner_product_param {
      num_output: 256
      weight_filler {
        type: "gaussian"
        std: 0.01
      }
      bias_filler {
        type: "constant"
        value: 0
      }
    }
  }
  layer {
    name: "relu8"
    type: "ReLU"
    bottom: "feat"
    top: "feat"
  }
  layer {
    name: "drop8"
    type: "Dropout"
    bottom: "feat"
    top: "feat"
    dropout_param {
      dropout_ratio: 0.5
    }
  }
  layer {
    name: "pid_score"
    type: "InnerProduct"
    bottom: "feat"
    top: "pid_score"
    param {
      lr_mult: 1
      decay_mult: 1
    }
    param {
      lr_mult: 2
      decay_mult: 0
    }
    inner_product_param {
      num_output: 5533
      weight_filler {
        type: "gaussian"
        std: 0.001
      }
      bias_filler {
        type: "constant"
        value: 0
      }
    }
  }
  layer {
    name: "pid_accuracy"
    type: "Accuracy"
    bottom: "pid_score"
    bottom: "pid_label"
    top: "pid_accuracy"
    accuracy_param {
      ignore_label: -1
    }
  }
}
average_loss: 100
stepvalue: 70000
stepvalue: 120000
iter_size: 2
I0413 19:28:28.625130 15914 solver.cpp:86] Creating training net specified in net_param.
I0413 19:28:28.625926 15914 net.cpp:58] Initializing net from parameters: 
name: "GeneratedModel_13_04_2017_19_28"
state {
  phase: TRAIN
}
layer {
  name: "input"
  type: "Python"
  top: "input_data"
  top: "input_im_info"
  top: "input_gt_boxes"
  top: "input_ignored_boxes"
  python_param {
    module: "layers.roi_data_layer"
    layer: "RoIDataLayer"
    param_str: "{\"num_classes\": 2}"
  }
}
layer {
  name: "conv1_1"
  type: "Convolution"
  bottom: "input_data"
  top: "conv1_1"
  param {
    lr_mult: 0
    decay_mult: 0
  }
  param {
    lr_mult: 0
    decay_mult: 0
  }
  convolution_param {
    num_output: 64
    pad: 1
    kernel_size: 3
  }
}
layer {
  name: "relu1_1"
  type: "ReLU"
  bottom: "conv1_1"
  top: "conv1_1"
}
layer {
  name: "conv1_2"
  type: "Convolution"
  bottom: "conv1_1"
  top: "conv1_2"
  param {
    lr_mult: 0
    decay_mult: 0
  }
  param {
    lr_mult: 0
    decay_mult: 0
  }
  convolution_param {
    num_output: 64
    pad: 1
    kernel_size: 3
  }
}
layer {
  name: "relu1_2"
  type: "ReLU"
  bottom: "conv1_2"
  top: "conv1_2"
}
layer {
  name: "pool1"
  type: "Pooling"
  bottom: "conv1_2"
  top: "pool1"
  pooling_param {
    pool: MAX
    kernel_size: 2
    stride: 2
  }
}
layer {
  name: "conv2_1"
  type: "Convolution"
  bottom: "pool1"
  top: "conv2_1"
  param {
    lr_mult: 0
    decay_mult: 0
  }
  param {
    lr_mult: 0
    decay_mult: 0
  }
  convolution_param {
    num_output: 128
    pad: 1
    kernel_size: 3
  }
}
layer {
  name: "relu2_1"
  type: "ReLU"
  bottom: "conv2_1"
  top: "conv2_1"
}
layer {
  name: "conv2_2"
  type: "Convolution"
  bottom: "conv2_1"
  top: "conv2_2"
  param {
    lr_mult: 0
    decay_mult: 0
  }
  param {
    lr_mult: 0
    decay_mult: 0
  }
  convolution_param {
    num_output: 128
    pad: 1
    kernel_size: 3
  }
}
layer {
  name: "relu2_2"
  type: "ReLU"
  bottom: "conv2_2"
  top: "conv2_2"
}
layer {
  name: "pool2"
  type: "Pooling"
  bottom: "conv2_2"
  top: "pool2"
  pooling_param {
    pool: MAX
    kernel_size: 2
    stride: 2
  }
}
layer {
  name: "conv3_1"
  type: "Convolution"
  bottom: "pool2"
  top: "conv3_1"
  param {
    lr_mult: 1
  }
  param {
    lr_mult: 2
  }
  convolution_param {
    num_output: 256
    pad: 1
    kernel_size: 3
  }
}
layer {
  name: "relu3_1"
  type: "ReLU"
  bottom: "conv3_1"
  top: "conv3_1"
}
layer {
  name: "conv3_2"
  type: "Convolution"
  bottom: "conv3_1"
  top: "conv3_2"
  param {
    lr_mult: 1
  }
  param {
    lr_mult: 2
  }
  convolution_param {
    num_output: 256
    pad: 1
    kernel_size: 3
  }
}
layer {
  name: "relu3_2"
  type: "ReLU"
  bottom: "conv3_2"
  top: "conv3_2"
}
layer {
  name: "conv3_3"
  type: "Convolution"
  bottom: "conv3_2"
  top: "conv3_3"
  param {
    lr_mult: 1
  }
  param {
    lr_mult: 2
  }
  convolution_param {
    num_output: 256
    pad: 1
    kernel_size: 3
  }
}
layer {
  name: "relu3_3"
  type: "ReLU"
  bottom: "conv3_3"
  top: "conv3_3"
}
layer {
  name: "pool3"
  type: "Pooling"
  bottom: "conv3_3"
  top: "pool3"
  pooling_param {
    pool: MAX
    kernel_size: 2
    stride: 2
  }
}
layer {
  name: "conv4_1"
  type: "Convolution"
  bottom: "pool3"
  top: "conv4_1"
  param {
    lr_mult: 1
  }
  param {
    lr_mult: 2
  }
  convolution_param {
    num_output: 512
    pad: 1
    kernel_size: 3
  }
}
layer {
  name: "relu4_1"
  type: "ReLU"
  bottom: "conv4_1"
  top: "conv4_1"
}
layer {
  name: "conv4_2"
  type: "Convolution"
  bottom: "conv4_1"
  top: "conv4_2"
  param {
    lr_mult: 1
  }
  param {
    lr_mult: 2
  }
  convolution_param {
    num_output: 512
    pad: 1
    kernel_size: 3
  }
}
layer {
  name: "relu4_2"
  type: "ReLU"
  bottom: "conv4_2"
  top: "conv4_2"
}
layer {
  name: "conv4_3"
  type: "Convolution"
  bottom: "conv4_2"
  top: "conv4_3"
  param {
    lr_mult: 1
  }
  param {
    lr_mult: 2
  }
  convolution_param {
    num_output: 512
    pad: 1
    kernel_size: 3
  }
}
layer {
  name: "relu4_3"
  type: "ReLU"
  bottom: "conv4_3"
  top: "conv4_3"
}
layer {
  name: "pool4"
  type: "Pooling"
  bottom: "conv4_3"
  top: "pool4"
  pooling_param {
    pool: MAX
    kernel_size: 2
    stride: 2
  }
}
layer {
  name: "conv5_1"
  type: "Convolution"
  bottom: "pool4"
  top: "conv5_1"
  param {
    lr_mult: 1
  }
  param {
    lr_mult: 2
  }
  convolution_param {
    num_output: 512
    pad: 1
    kernel_size: 3
  }
}
layer {
  name: "relu5_1"
  type: "ReLU"
  bottom: "conv5_1"
  top: "conv5_1"
}
layer {
  name: "conv5_2"
  type: "Convolution"
  bottom: "conv5_1"
  top: "conv5_2"
  param {
    lr_mult: 1
  }
  param {
    lr_mult: 2
  }
  convolution_param {
    num_output: 512
    pad: 1
    kernel_size: 3
  }
}
layer {
  name: "relu5_2"
  type: "ReLU"
  bottom: "conv5_2"
  top: "conv5_2"
}
layer {
  name: "conv5_3"
  type: "Convolution"
  bottom: "conv5_2"
  top: "conv5_3"
  param {
    lr_mult: 1
  }
  param {
    lr_mult: 2
  }
  convolution_param {
    num_output: 512
    pad: 1
    kernel_size: 3
  }
}
layer {
  name: "relu5_3"
  type: "ReLU"
  bottom: "conv5_3"
  top: "conv5_3"
}
layer {
  name: "rpn_big_conv1"
  type: "Convolution"
  bottom: "conv5_3"
  top: "rpn_big_conv1"
  param {
    lr_mult: 1
  }
  param {
    lr_mult: 2
  }
  convolution_param {
    num_output: 512
    pad: 1
    kernel_size: 3
    stride: 1
    weight_filler {
      type: "gaussian"
      mean: 0
      std: 0.01
    }
    bias_filler {
      type: "constant"
    }
  }
}
layer {
  name: "rpn_big_conv1_relu"
  type: "ReLU"
  bottom: "rpn_big_conv1"
  top: "rpn_big_conv1"
  relu_param {
    negative_slope: 0
  }
}
layer {
  name: "rpn_big_conv2"
  type: "Convolution"
  bottom: "rpn_big_conv1"
  top: "rpn_big_conv2"
  param {
    lr_mult: 1
  }
  param {
    lr_mult: 2
  }
  convolution_param {
    num_output: 512
    pad: 1
    kernel_size: 3
    stride: 1
    weight_filler {
      type: "gaussian"
      mean: 0
      std: 0.01
    }
    bias_filler {
      type: "constant"
    }
  }
}
layer {
  name: "rpn_big_conv2_relu"
  type: "ReLU"
  bottom: "rpn_big_conv2"
  top: "rpn_big_conv2"
  relu_param {
    negative_slope: 0
  }
}
layer {
  name: "rpn_big_conv2_drop"
  type: "Dropout"
  bottom: "rpn_big_conv2"
  top: "rpn_big_conv2"
  dropout_param {
    dropout_ratio: 0.3
  }
}
layer {
  name: "rpn_big_output_cls"
  type: "Convolution"
  bottom: "rpn_big_conv2"
  top: "rpn_big_output_cls"
  param {
    lr_mult: 1
  }
  param {
    lr_mult: 2
  }
  convolution_param {
    num_output: 384
    pad: 1
    kernel_size: 3
    stride: 1
    weight_filler {
      type: "gaussian"
      mean: 0
      std: 0.01
    }
    bias_filler {
      type: "constant"
    }
  }
}
layer {
  name: "rpn_big_output_cls_relu"
  type: "ReLU"
  bottom: "rpn_big_output_cls"
  top: "rpn_big_output_cls"
  relu_param {
    negative_slope: 0
  }
}
layer {
  name: "rpn_big_cls_score"
  type: "Convolution"
  bottom: "rpn_big_output_cls"
  top: "rpn_big_cls_score"
  param {
    lr_mult: 1
  }
  param {
    lr_mult: 2
  }
  convolution_param {
    num_output: 52
    pad: 0
    kernel_size: 3
    stride: 1
    weight_filler {
      type: "gaussian"
      mean: 0
      std: 0.01
    }
    bias_filler {
      type: "constant"
    }
  }
}
layer {
  name: "rpn_big_cls_score_reshape"
  type: "Reshape"
  bottom: "rpn_big_cls_score"
  top: "rpn_big_cls_score_reshape"
  reshape_param {
    shape {
      dim: 0
      dim: 2
      dim: -1
      dim: 0
    }
  }
}
layer {
  name: "rpn_big_cls_prob"
  type: "Softmax"
  bottom: "rpn_big_cls_score_reshape"
  top: "rpn_big_cls_prob"
}
layer {
  name: "rpn_big_cls_prob_reshape"
  type: "Reshape"
  bottom: "rpn_big_cls_prob"
  top: "rpn_big_cls_prob_reshape"
  reshape_param {
    shape {
      dim: 0
      dim: 52
      dim: -1
      dim: 0
    }
  }
}
layer {
  name: "rpn_big_anchor_target"
  type: "Python"
  bottom: "rpn_big_cls_score"
  bottom: "input_gt_boxes"
  bottom: "input_ignored_boxes"
  bottom: "input_im_info"
  bottom: "input_data"
  bottom: "rpn_big_cls_prob_reshape"
  top: "rpn_big_anchor_target_labels"
  top: "rpn_big_anchor_target_bbox_targets"
  top: "rpn_big_anchor_target_inside_weights"
  top: "rpn_big_anchor_target_outside_weights"
  python_param {
    module: "rpn.anchor_target_layer"
    layer: "AnchorTargetLayer"
    param_str: "{\"tn_fraction\": 0.2, \"square_targets\": true, \"positive_overlap\": 0.6, \"feat_stride\": 16, \"negative_overlap\": 0.4, \"num_classes\": 1, \"name\": \"rpn_big\", \"anchor_ratios\": [1.0], \"fg_fraction\": 0.5, \"batchsize\": 256, \"anchor_shift_num_xy\": [[2, 2], [2, 2], [2, 2], [2, 2], [1, 1], [1, 1], [1, 1], [1, 1], [1, 1], [1, 1], [1, 1], [1, 1], [1, 1], [1, 1]], \"anchor_scales\": [2.5, 3.025, 3.66025, 4.4289024999999995, 5.358972025, 6.484356150249999, 7.846070941802498, 9.493745839581022, 11.487432465893036, 13.899793283730574, 16.818749873313998, 20.350687346709933, 24.62433168951902, 29.795441344318014]}"
  }
}
layer {
  name: "rpn_big_loss_cls"
  type: "SoftmaxWithLoss"
  bottom: "rpn_big_cls_score_reshape"
  bottom: "rpn_big_anchor_target_labels"
  top: "rpn_big_loss_cls"
  loss_weight: 1
  propagate_down: true
  propagate_down: false
  loss_param {
    ignore_label: -1
    normalization: VALID
  }
}
layer {
  name: "rpn_big_output_box"
  type: "Convolution"
  bottom: "rpn_big_conv2"
  top: "rpn_big_output_box"
  param {
    lr_mult: 1
  }
  param {
    lr_mult: 2
  }
  convolution_param {
    num_output: 384
    pad: 1
    kernel_size: 3
    stride: 1
    weight_filler {
      type: "gaussian"
      mean: 0
      std: 0.01
    }
    bias_filler {
      type: "constant"
    }
  }
}
layer {
  name: "rpn_big_output_box_relu"
  type: "ReLU"
  bottom: "rpn_big_output_box"
  top: "rpn_big_output_box"
  relu_param {
    negative_slope: 0
  }
}
layer {
  name: "rpn_big_bbox_pred"
  type: "Convolution"
  bottom: "rpn_big_output_box"
  top: "rpn_big_bbox_pred"
  param {
    lr_mult: 1
  }
  param {
    lr_mult: 2
  }
  convolution_param {
    num_output: 104
    pad: 0
    kernel_size: 3
    stride: 1
    weight_filler {
      type: "gaussian"
      mean: 0
      std: 0.01
    }
    bias_filler {
      type: "constant"
    }
  }
}
layer {
  name: "rpn_big_loss_bbox"
  type: "Python"
  bottom: "rpn_big_bbox_pred"
  bottom: "rpn_big_anchor_target_bbox_targets"
  bottom: "rpn_big_anchor_target_inside_weights"
  bottom: "rpn_big_anchor_target_outside_weights"
  top: "rpn_big_loss_bbox"
  loss_weight: 1
  python_param {
    module: "layers.smooth_l1_loss"
    layer: "SmoothL1LossLayer"
    param_str: "{\"sigma\": 3}"
  }
}
layer {
  name: "proposal"
  type: "Python"
  bottom: "rpn_big_cls_prob_reshape"
  bottom: "rpn_big_bbox_pred"
  bottom: "input_im_info"
  top: "rpn_rois"
  python_param {
    module: "rpn.proposal_layer"
    layer: "ProposalLayer"
    param_str: "{\"anchor_shift_num_xy\": [[2, 2], [2, 2], [2, 2], [2, 2], [1, 1], [1, 1], [1, 1], [1, 1], [1, 1], [1, 1], [1, 1], [1, 1], [1, 1], [1, 1]], \"feat_stride\": 16, \"num_classes\": 1, \"anchor_scales\": [2.5, 3.025, 3.66025, 4.4289024999999995, 5.358972025, 6.484356150249999, 7.846070941802498, 9.493745839581022, 11.487432465893036, 13.899793283730574, 16.818749873313998, 20.350687346709933, 24.62433168951902, 29.795441344318014], \"square_targets\": true, \"name\": \"rpn_big\", \"batchsize\": 256, \"anchor_ratios\": [1.0]}"
  }
}
layer {
  name: "roi-data"
  type: "Python"
  bottom: "rpn_rois"
  bottom: "input_gt_boxes"
  top: "rois"
  top: "labels"
  top: "bbox_targets"
  top: "bbox_inside_weights"
  top: "bbox_outside_weights"
  top: "pid_label"
  python_param {
    module: "rpn.proposal_target_layer"
    layer: "ProposalTargetLayer"
    param_str: "{\"num_classes\": 2, \"bg_aux_label\": 5532}"
  }
}
layer {
  name: "roi-pool"
  type: "ROIPooling"
  bottom: "conv5_3"
  bottom: "rois"
  top: "roi-pool"
  roi_pooling_param {
    pooled_h: 7
    pooled_w: 7
    spatial_scale: 0.0625
  }
}
layer {
  name: "fc6"
  type: "InnerProduct"
  bottom: "roi-pool"
  top: "fc6"
  param {
    lr_mult: 1
  }
  param {
    lr_mult: 2
  }
  inner_product_param {
    num_output: 4096
  }
}
layer {
  name: "relu6"
  type: "ReLU"
  bottom: "fc6"
  top: "fc6"
}
layer {
  name: "drop6"
  type: "Dropout"
  bottom: "fc6"
  top: "fc6"
  dropout_param {
    dropout_ratio: 0.5
  }
}
layer {
  name: "fc7"
  type: "InnerProduct"
  bottom: "fc6"
  top: "fc7"
  param {
    lr_mult: 1
  }
  param {
    lr_mult: 2
  }
  inner_product_param {
    num_output: 4096
  }
}
layer {
  name: "relu7"
  type: "ReLU"
  bottom: "fc7"
  top: "fc7"
}
layer {
  name: "drop7"
  type: "Dropout"
  bottom: "fc7"
  top: "fc7"
  dropout_param {
    dropout_ratio: 0.5
  }
}
layer {
  name: "bbox_pred"
  type: "InnerProduct"
  bottom: "fc7"
  top: "bbox_pred"
  param {
    lr_mult: 1
  }
  param {
    lr_mult: 2
  }
  inner_product_param {
    num_output: 8
    weight_filler {
      type: "gaussian"
      std: 0.001
    }
    bias_filler {
      type: "constant"
      value: 0
    }
  }
}
layer {
  name: "loss_bbox"
  type: "SmoothL1Loss"
  bottom: "bbox_pred"
  bottom: "bbox_targets"
  bottom: "bbox_inside_weights"
  bottom: "bbox_outside_weights"
  top: "loss_bbox"
  loss_weight: 1
}
layer {
  name: "feat"
  type: "InnerProduct"
  bottom: "fc7"
  top: "feat"
  param {
    lr_mult: 1
    decay_mult: 1
  }
  param {
    lr_mult: 2
    decay_mult: 0
  }
  inner_product_param {
    num_output: 256
    weight_filler {
      type: "gaussian"
      std: 0.01
    }
    bias_filler {
      type: "constant"
      value: 0
    }
  }
}
layer {
  name: "relu8"
  type: "ReLU"
  bottom: "feat"
  top: "feat"
}
layer {
  name: "drop8"
  type: "Dropout"
  bottom: "feat"
  top: "feat"
  dropout_param {
    dropout_ratio: 0.5
  }
}
layer {
  name: "pid_score"
  type: "InnerProduct"
  bottom: "feat"
  top: "pid_score"
  param {
    lr_mult: 1
    decay_mult: 1
  }
  param {
    lr_mult: 2
    decay_mult: 0
  }
  inner_product_param {
    num_output: 5533
    weight_filler {
      type: "gaussian"
      std: 0.001
    }
    bias_filler {
      type: "constant"
      value: 0
    }
  }
}
layer {
  name: "pid_accuracy"
  type: "Accuracy"
  bottom: "pid_score"
  bottom: "pid_label"
  top: "pid_accuracy"
  accuracy_param {
    ignore_label: -1
  }
}
I0413 19:28:28.626320 15914 layer_factory.hpp:77] Creating layer input
I0413 19:28:28.628114 15914 net.cpp:100] Creating Layer input
I0413 19:28:28.628134 15914 net.cpp:408] input -> input_data
I0413 19:28:28.628150 15914 net.cpp:408] input -> input_im_info
I0413 19:28:28.628163 15914 net.cpp:408] input -> input_gt_boxes
I0413 19:28:28.628175 15914 net.cpp:408] input -> input_ignored_boxes
RoiDataLayer: name_to_top: {'im_info': 1, 'data': 0, 'ignored_boxes': 3, 'gt_boxes': 2}
I0413 19:28:28.947356 15914 net.cpp:150] Setting up input
I0413 19:28:28.947388 15914 net.cpp:157] Top shape: 1 3 1000 1500 (4500000)
I0413 19:28:28.947397 15914 net.cpp:157] Top shape: 1 3 (3)
I0413 19:28:28.947404 15914 net.cpp:157] Top shape: 1 5 (5)
I0413 19:28:28.947412 15914 net.cpp:157] Top shape: 1 5 (5)
I0413 19:28:28.947417 15914 net.cpp:165] Memory required for data: 18000052
I0413 19:28:28.947427 15914 layer_factory.hpp:77] Creating layer input_data_input_0_split
I0413 19:28:28.947454 15914 net.cpp:100] Creating Layer input_data_input_0_split
I0413 19:28:28.947463 15914 net.cpp:434] input_data_input_0_split <- input_data
I0413 19:28:28.947475 15914 net.cpp:408] input_data_input_0_split -> input_data_input_0_split_0
I0413 19:28:28.947495 15914 net.cpp:408] input_data_input_0_split -> input_data_input_0_split_1
I0413 19:28:28.947541 15914 net.cpp:150] Setting up input_data_input_0_split
I0413 19:28:28.947552 15914 net.cpp:157] Top shape: 1 3 1000 1500 (4500000)
I0413 19:28:28.947561 15914 net.cpp:157] Top shape: 1 3 1000 1500 (4500000)
I0413 19:28:28.947567 15914 net.cpp:165] Memory required for data: 54000052
I0413 19:28:28.947574 15914 layer_factory.hpp:77] Creating layer input_im_info_input_1_split
I0413 19:28:28.947585 15914 net.cpp:100] Creating Layer input_im_info_input_1_split
I0413 19:28:28.947593 15914 net.cpp:434] input_im_info_input_1_split <- input_im_info
I0413 19:28:28.947605 15914 net.cpp:408] input_im_info_input_1_split -> input_im_info_input_1_split_0
I0413 19:28:28.947618 15914 net.cpp:408] input_im_info_input_1_split -> input_im_info_input_1_split_1
I0413 19:28:28.947656 15914 net.cpp:150] Setting up input_im_info_input_1_split
I0413 19:28:28.947665 15914 net.cpp:157] Top shape: 1 3 (3)
I0413 19:28:28.947674 15914 net.cpp:157] Top shape: 1 3 (3)
I0413 19:28:28.947680 15914 net.cpp:165] Memory required for data: 54000076
I0413 19:28:28.947686 15914 layer_factory.hpp:77] Creating layer input_gt_boxes_input_2_split
I0413 19:28:28.947697 15914 net.cpp:100] Creating Layer input_gt_boxes_input_2_split
I0413 19:28:28.947705 15914 net.cpp:434] input_gt_boxes_input_2_split <- input_gt_boxes
I0413 19:28:28.947716 15914 net.cpp:408] input_gt_boxes_input_2_split -> input_gt_boxes_input_2_split_0
I0413 19:28:28.947731 15914 net.cpp:408] input_gt_boxes_input_2_split -> input_gt_boxes_input_2_split_1
I0413 19:28:28.947768 15914 net.cpp:150] Setting up input_gt_boxes_input_2_split
I0413 19:28:28.947778 15914 net.cpp:157] Top shape: 1 5 (5)
I0413 19:28:28.947785 15914 net.cpp:157] Top shape: 1 5 (5)
I0413 19:28:28.947791 15914 net.cpp:165] Memory required for data: 54000116
I0413 19:28:28.947798 15914 layer_factory.hpp:77] Creating layer conv1_1
I0413 19:28:28.947816 15914 net.cpp:100] Creating Layer conv1_1
I0413 19:28:28.947824 15914 net.cpp:434] conv1_1 <- input_data_input_0_split_0
I0413 19:28:28.947835 15914 net.cpp:408] conv1_1 -> conv1_1
I0413 19:28:28.951007 15914 net.cpp:150] Setting up conv1_1
I0413 19:28:28.951046 15914 net.cpp:157] Top shape: 1 64 1000 1500 (96000000)
I0413 19:28:28.951052 15914 net.cpp:165] Memory required for data: 438000116
I0413 19:28:28.951082 15914 layer_factory.hpp:77] Creating layer relu1_1
I0413 19:28:28.951098 15914 net.cpp:100] Creating Layer relu1_1
I0413 19:28:28.951107 15914 net.cpp:434] relu1_1 <- conv1_1
I0413 19:28:28.951122 15914 net.cpp:395] relu1_1 -> conv1_1 (in-place)
I0413 19:28:28.951143 15914 net.cpp:150] Setting up relu1_1
I0413 19:28:28.951153 15914 net.cpp:157] Top shape: 1 64 1000 1500 (96000000)
I0413 19:28:28.951159 15914 net.cpp:165] Memory required for data: 822000116
I0413 19:28:28.951165 15914 layer_factory.hpp:77] Creating layer conv1_2
I0413 19:28:28.951179 15914 net.cpp:100] Creating Layer conv1_2
I0413 19:28:28.951186 15914 net.cpp:434] conv1_2 <- conv1_1
I0413 19:28:28.951198 15914 net.cpp:408] conv1_2 -> conv1_2
I0413 19:28:28.954553 15914 net.cpp:150] Setting up conv1_2
I0413 19:28:28.954588 15914 net.cpp:157] Top shape: 1 64 1000 1500 (96000000)
I0413 19:28:28.954594 15914 net.cpp:165] Memory required for data: 1206000116
I0413 19:28:28.954617 15914 layer_factory.hpp:77] Creating layer relu1_2
I0413 19:28:28.954644 15914 net.cpp:100] Creating Layer relu1_2
I0413 19:28:28.954655 15914 net.cpp:434] relu1_2 <- conv1_2
I0413 19:28:28.954668 15914 net.cpp:395] relu1_2 -> conv1_2 (in-place)
I0413 19:28:28.954685 15914 net.cpp:150] Setting up relu1_2
I0413 19:28:28.954692 15914 net.cpp:157] Top shape: 1 64 1000 1500 (96000000)
I0413 19:28:28.954697 15914 net.cpp:165] Memory required for data: 1590000116
I0413 19:28:28.954702 15914 layer_factory.hpp:77] Creating layer pool1
I0413 19:28:28.954713 15914 net.cpp:100] Creating Layer pool1
I0413 19:28:28.954723 15914 net.cpp:434] pool1 <- conv1_2
I0413 19:28:28.954731 15914 net.cpp:408] pool1 -> pool1
I0413 19:28:28.954818 15914 net.cpp:150] Setting up pool1
I0413 19:28:28.954833 15914 net.cpp:157] Top shape: 1 64 500 750 (24000000)
I0413 19:28:28.954838 15914 net.cpp:165] Memory required for data: 1686000116
I0413 19:28:28.954843 15914 layer_factory.hpp:77] Creating layer conv2_1
I0413 19:28:28.954854 15914 net.cpp:100] Creating Layer conv2_1
I0413 19:28:28.954859 15914 net.cpp:434] conv2_1 <- pool1
I0413 19:28:28.954879 15914 net.cpp:408] conv2_1 -> conv2_1
I0413 19:28:28.956233 15914 net.cpp:150] Setting up conv2_1
I0413 19:28:28.956252 15914 net.cpp:157] Top shape: 1 128 500 750 (48000000)
I0413 19:28:28.956255 15914 net.cpp:165] Memory required for data: 1878000116
I0413 19:28:28.956269 15914 layer_factory.hpp:77] Creating layer relu2_1
I0413 19:28:28.956282 15914 net.cpp:100] Creating Layer relu2_1
I0413 19:28:28.956290 15914 net.cpp:434] relu2_1 <- conv2_1
I0413 19:28:28.956301 15914 net.cpp:395] relu2_1 -> conv2_1 (in-place)
I0413 19:28:28.956313 15914 net.cpp:150] Setting up relu2_1
I0413 19:28:28.956322 15914 net.cpp:157] Top shape: 1 128 500 750 (48000000)
I0413 19:28:28.956327 15914 net.cpp:165] Memory required for data: 2070000116
I0413 19:28:28.956333 15914 layer_factory.hpp:77] Creating layer conv2_2
I0413 19:28:28.956347 15914 net.cpp:100] Creating Layer conv2_2
I0413 19:28:28.956354 15914 net.cpp:434] conv2_2 <- conv2_1
I0413 19:28:28.956362 15914 net.cpp:408] conv2_2 -> conv2_2
I0413 19:28:28.957489 15914 net.cpp:150] Setting up conv2_2
I0413 19:28:28.957520 15914 net.cpp:157] Top shape: 1 128 500 750 (48000000)
I0413 19:28:28.957525 15914 net.cpp:165] Memory required for data: 2262000116
I0413 19:28:28.957535 15914 layer_factory.hpp:77] Creating layer relu2_2
I0413 19:28:28.957543 15914 net.cpp:100] Creating Layer relu2_2
I0413 19:28:28.957548 15914 net.cpp:434] relu2_2 <- conv2_2
I0413 19:28:28.957554 15914 net.cpp:395] relu2_2 -> conv2_2 (in-place)
I0413 19:28:28.957564 15914 net.cpp:150] Setting up relu2_2
I0413 19:28:28.957568 15914 net.cpp:157] Top shape: 1 128 500 750 (48000000)
I0413 19:28:28.957571 15914 net.cpp:165] Memory required for data: 2454000116
I0413 19:28:28.957574 15914 layer_factory.hpp:77] Creating layer pool2
I0413 19:28:28.957581 15914 net.cpp:100] Creating Layer pool2
I0413 19:28:28.957586 15914 net.cpp:434] pool2 <- conv2_2
I0413 19:28:28.957590 15914 net.cpp:408] pool2 -> pool2
I0413 19:28:28.957641 15914 net.cpp:150] Setting up pool2
I0413 19:28:28.957648 15914 net.cpp:157] Top shape: 1 128 250 375 (12000000)
I0413 19:28:28.957650 15914 net.cpp:165] Memory required for data: 2502000116
I0413 19:28:28.957654 15914 layer_factory.hpp:77] Creating layer conv3_1
I0413 19:28:28.957664 15914 net.cpp:100] Creating Layer conv3_1
I0413 19:28:28.957667 15914 net.cpp:434] conv3_1 <- pool2
I0413 19:28:28.957675 15914 net.cpp:408] conv3_1 -> conv3_1
I0413 19:28:28.958760 15914 net.cpp:150] Setting up conv3_1
I0413 19:28:28.958783 15914 net.cpp:157] Top shape: 1 256 250 375 (24000000)
I0413 19:28:28.958786 15914 net.cpp:165] Memory required for data: 2598000116
I0413 19:28:28.958798 15914 layer_factory.hpp:77] Creating layer relu3_1
I0413 19:28:28.958806 15914 net.cpp:100] Creating Layer relu3_1
I0413 19:28:28.958809 15914 net.cpp:434] relu3_1 <- conv3_1
I0413 19:28:28.958816 15914 net.cpp:395] relu3_1 -> conv3_1 (in-place)
I0413 19:28:28.958822 15914 net.cpp:150] Setting up relu3_1
I0413 19:28:28.958827 15914 net.cpp:157] Top shape: 1 256 250 375 (24000000)
I0413 19:28:28.958830 15914 net.cpp:165] Memory required for data: 2694000116
I0413 19:28:28.958832 15914 layer_factory.hpp:77] Creating layer conv3_2
I0413 19:28:28.958844 15914 net.cpp:100] Creating Layer conv3_2
I0413 19:28:28.958848 15914 net.cpp:434] conv3_2 <- conv3_1
I0413 19:28:28.958853 15914 net.cpp:408] conv3_2 -> conv3_2
I0413 19:28:28.960170 15914 net.cpp:150] Setting up conv3_2
I0413 19:28:28.960201 15914 net.cpp:157] Top shape: 1 256 250 375 (24000000)
I0413 19:28:28.960207 15914 net.cpp:165] Memory required for data: 2790000116
I0413 19:28:28.960220 15914 layer_factory.hpp:77] Creating layer relu3_2
I0413 19:28:28.960233 15914 net.cpp:100] Creating Layer relu3_2
I0413 19:28:28.960242 15914 net.cpp:434] relu3_2 <- conv3_2
I0413 19:28:28.960255 15914 net.cpp:395] relu3_2 -> conv3_2 (in-place)
I0413 19:28:28.960269 15914 net.cpp:150] Setting up relu3_2
I0413 19:28:28.960278 15914 net.cpp:157] Top shape: 1 256 250 375 (24000000)
I0413 19:28:28.960284 15914 net.cpp:165] Memory required for data: 2886000116
I0413 19:28:28.960289 15914 layer_factory.hpp:77] Creating layer conv3_3
I0413 19:28:28.960302 15914 net.cpp:100] Creating Layer conv3_3
I0413 19:28:28.960310 15914 net.cpp:434] conv3_3 <- conv3_2
I0413 19:28:28.960319 15914 net.cpp:408] conv3_3 -> conv3_3
I0413 19:28:28.962260 15914 net.cpp:150] Setting up conv3_3
I0413 19:28:28.962293 15914 net.cpp:157] Top shape: 1 256 250 375 (24000000)
I0413 19:28:28.962297 15914 net.cpp:165] Memory required for data: 2982000116
I0413 19:28:28.962311 15914 layer_factory.hpp:77] Creating layer relu3_3
I0413 19:28:28.962324 15914 net.cpp:100] Creating Layer relu3_3
I0413 19:28:28.962333 15914 net.cpp:434] relu3_3 <- conv3_3
I0413 19:28:28.962345 15914 net.cpp:395] relu3_3 -> conv3_3 (in-place)
I0413 19:28:28.962359 15914 net.cpp:150] Setting up relu3_3
I0413 19:28:28.962368 15914 net.cpp:157] Top shape: 1 256 250 375 (24000000)
I0413 19:28:28.962373 15914 net.cpp:165] Memory required for data: 3078000116
I0413 19:28:28.962378 15914 layer_factory.hpp:77] Creating layer pool3
I0413 19:28:28.962386 15914 net.cpp:100] Creating Layer pool3
I0413 19:28:28.962393 15914 net.cpp:434] pool3 <- conv3_3
I0413 19:28:28.962404 15914 net.cpp:408] pool3 -> pool3
I0413 19:28:28.962466 15914 net.cpp:150] Setting up pool3
I0413 19:28:28.962476 15914 net.cpp:157] Top shape: 1 256 125 188 (6016000)
I0413 19:28:28.962482 15914 net.cpp:165] Memory required for data: 3102064116
I0413 19:28:28.962488 15914 layer_factory.hpp:77] Creating layer conv4_1
I0413 19:28:28.962502 15914 net.cpp:100] Creating Layer conv4_1
I0413 19:28:28.962508 15914 net.cpp:434] conv4_1 <- pool3
I0413 19:28:28.962518 15914 net.cpp:408] conv4_1 -> conv4_1
I0413 19:28:28.966922 15914 net.cpp:150] Setting up conv4_1
I0413 19:28:28.966951 15914 net.cpp:157] Top shape: 1 512 125 188 (12032000)
I0413 19:28:28.966964 15914 net.cpp:165] Memory required for data: 3150192116
I0413 19:28:28.966974 15914 layer_factory.hpp:77] Creating layer relu4_1
I0413 19:28:28.966986 15914 net.cpp:100] Creating Layer relu4_1
I0413 19:28:28.966994 15914 net.cpp:434] relu4_1 <- conv4_1
I0413 19:28:28.967006 15914 net.cpp:395] relu4_1 -> conv4_1 (in-place)
I0413 19:28:28.967022 15914 net.cpp:150] Setting up relu4_1
I0413 19:28:28.967031 15914 net.cpp:157] Top shape: 1 512 125 188 (12032000)
I0413 19:28:28.967036 15914 net.cpp:165] Memory required for data: 3198320116
I0413 19:28:28.967041 15914 layer_factory.hpp:77] Creating layer conv4_2
I0413 19:28:28.967053 15914 net.cpp:100] Creating Layer conv4_2
I0413 19:28:28.967059 15914 net.cpp:434] conv4_2 <- conv4_1
I0413 19:28:28.967069 15914 net.cpp:408] conv4_2 -> conv4_2
I0413 19:28:28.971400 15914 net.cpp:150] Setting up conv4_2
I0413 19:28:28.971437 15914 net.cpp:157] Top shape: 1 512 125 188 (12032000)
I0413 19:28:28.971441 15914 net.cpp:165] Memory required for data: 3246448116
I0413 19:28:28.971462 15914 layer_factory.hpp:77] Creating layer relu4_2
I0413 19:28:28.971475 15914 net.cpp:100] Creating Layer relu4_2
I0413 19:28:28.971485 15914 net.cpp:434] relu4_2 <- conv4_2
I0413 19:28:28.971498 15914 net.cpp:395] relu4_2 -> conv4_2 (in-place)
I0413 19:28:28.971513 15914 net.cpp:150] Setting up relu4_2
I0413 19:28:28.971520 15914 net.cpp:157] Top shape: 1 512 125 188 (12032000)
I0413 19:28:28.971526 15914 net.cpp:165] Memory required for data: 3294576116
I0413 19:28:28.971531 15914 layer_factory.hpp:77] Creating layer conv4_3
I0413 19:28:28.971549 15914 net.cpp:100] Creating Layer conv4_3
I0413 19:28:28.971555 15914 net.cpp:434] conv4_3 <- conv4_2
I0413 19:28:28.971565 15914 net.cpp:408] conv4_3 -> conv4_3
I0413 19:28:28.975971 15914 net.cpp:150] Setting up conv4_3
I0413 19:28:28.976004 15914 net.cpp:157] Top shape: 1 512 125 188 (12032000)
I0413 19:28:28.976008 15914 net.cpp:165] Memory required for data: 3342704116
I0413 19:28:28.976022 15914 layer_factory.hpp:77] Creating layer relu4_3
I0413 19:28:28.976034 15914 net.cpp:100] Creating Layer relu4_3
I0413 19:28:28.976047 15914 net.cpp:434] relu4_3 <- conv4_3
I0413 19:28:28.976058 15914 net.cpp:395] relu4_3 -> conv4_3 (in-place)
I0413 19:28:28.976071 15914 net.cpp:150] Setting up relu4_3
I0413 19:28:28.976080 15914 net.cpp:157] Top shape: 1 512 125 188 (12032000)
I0413 19:28:28.976085 15914 net.cpp:165] Memory required for data: 3390832116
I0413 19:28:28.976090 15914 layer_factory.hpp:77] Creating layer pool4
I0413 19:28:28.976099 15914 net.cpp:100] Creating Layer pool4
I0413 19:28:28.976106 15914 net.cpp:434] pool4 <- conv4_3
I0413 19:28:28.976116 15914 net.cpp:408] pool4 -> pool4
I0413 19:28:28.976169 15914 net.cpp:150] Setting up pool4
I0413 19:28:28.976181 15914 net.cpp:157] Top shape: 1 512 63 94 (3032064)
I0413 19:28:28.976186 15914 net.cpp:165] Memory required for data: 3402960372
I0413 19:28:28.976191 15914 layer_factory.hpp:77] Creating layer conv5_1
I0413 19:28:28.976207 15914 net.cpp:100] Creating Layer conv5_1
I0413 19:28:28.976220 15914 net.cpp:434] conv5_1 <- pool4
I0413 19:28:28.976230 15914 net.cpp:408] conv5_1 -> conv5_1
I0413 19:28:28.981035 15914 net.cpp:150] Setting up conv5_1
I0413 19:28:28.981070 15914 net.cpp:157] Top shape: 1 512 63 94 (3032064)
I0413 19:28:28.981073 15914 net.cpp:165] Memory required for data: 3415088628
I0413 19:28:28.981084 15914 layer_factory.hpp:77] Creating layer relu5_1
I0413 19:28:28.981097 15914 net.cpp:100] Creating Layer relu5_1
I0413 19:28:28.981104 15914 net.cpp:434] relu5_1 <- conv5_1
I0413 19:28:28.981117 15914 net.cpp:395] relu5_1 -> conv5_1 (in-place)
I0413 19:28:28.981132 15914 net.cpp:150] Setting up relu5_1
I0413 19:28:28.981138 15914 net.cpp:157] Top shape: 1 512 63 94 (3032064)
I0413 19:28:28.981143 15914 net.cpp:165] Memory required for data: 3427216884
I0413 19:28:28.981148 15914 layer_factory.hpp:77] Creating layer conv5_2
I0413 19:28:28.981163 15914 net.cpp:100] Creating Layer conv5_2
I0413 19:28:28.981168 15914 net.cpp:434] conv5_2 <- conv5_1
I0413 19:28:28.981178 15914 net.cpp:408] conv5_2 -> conv5_2
I0413 19:28:28.985543 15914 net.cpp:150] Setting up conv5_2
I0413 19:28:28.985576 15914 net.cpp:157] Top shape: 1 512 63 94 (3032064)
I0413 19:28:28.985589 15914 net.cpp:165] Memory required for data: 3439345140
I0413 19:28:28.985599 15914 layer_factory.hpp:77] Creating layer relu5_2
I0413 19:28:28.985610 15914 net.cpp:100] Creating Layer relu5_2
I0413 19:28:28.985615 15914 net.cpp:434] relu5_2 <- conv5_2
I0413 19:28:28.985623 15914 net.cpp:395] relu5_2 -> conv5_2 (in-place)
I0413 19:28:28.985635 15914 net.cpp:150] Setting up relu5_2
I0413 19:28:28.985642 15914 net.cpp:157] Top shape: 1 512 63 94 (3032064)
I0413 19:28:28.985647 15914 net.cpp:165] Memory required for data: 3451473396
I0413 19:28:28.985652 15914 layer_factory.hpp:77] Creating layer conv5_3
I0413 19:28:28.985674 15914 net.cpp:100] Creating Layer conv5_3
I0413 19:28:28.985690 15914 net.cpp:434] conv5_3 <- conv5_2
I0413 19:28:28.985707 15914 net.cpp:408] conv5_3 -> conv5_3
I0413 19:28:28.990082 15914 net.cpp:150] Setting up conv5_3
I0413 19:28:28.990118 15914 net.cpp:157] Top shape: 1 512 63 94 (3032064)
I0413 19:28:28.990131 15914 net.cpp:165] Memory required for data: 3463601652
I0413 19:28:28.990141 15914 layer_factory.hpp:77] Creating layer relu5_3
I0413 19:28:28.990151 15914 net.cpp:100] Creating Layer relu5_3
I0413 19:28:28.990156 15914 net.cpp:434] relu5_3 <- conv5_3
I0413 19:28:28.990165 15914 net.cpp:395] relu5_3 -> conv5_3 (in-place)
I0413 19:28:28.990177 15914 net.cpp:150] Setting up relu5_3
I0413 19:28:28.990185 15914 net.cpp:157] Top shape: 1 512 63 94 (3032064)
I0413 19:28:28.990190 15914 net.cpp:165] Memory required for data: 3475729908
I0413 19:28:28.990195 15914 layer_factory.hpp:77] Creating layer conv5_3_relu5_3_0_split
I0413 19:28:28.990203 15914 net.cpp:100] Creating Layer conv5_3_relu5_3_0_split
I0413 19:28:28.990209 15914 net.cpp:434] conv5_3_relu5_3_0_split <- conv5_3
I0413 19:28:28.990221 15914 net.cpp:408] conv5_3_relu5_3_0_split -> conv5_3_relu5_3_0_split_0
I0413 19:28:28.990234 15914 net.cpp:408] conv5_3_relu5_3_0_split -> conv5_3_relu5_3_0_split_1
I0413 19:28:28.990280 15914 net.cpp:150] Setting up conv5_3_relu5_3_0_split
I0413 19:28:28.990291 15914 net.cpp:157] Top shape: 1 512 63 94 (3032064)
I0413 19:28:28.990298 15914 net.cpp:157] Top shape: 1 512 63 94 (3032064)
I0413 19:28:28.990303 15914 net.cpp:165] Memory required for data: 3499986420
I0413 19:28:28.990309 15914 layer_factory.hpp:77] Creating layer rpn_big_conv1
I0413 19:28:28.990326 15914 net.cpp:100] Creating Layer rpn_big_conv1
I0413 19:28:28.990334 15914 net.cpp:434] rpn_big_conv1 <- conv5_3_relu5_3_0_split_0
I0413 19:28:28.990345 15914 net.cpp:408] rpn_big_conv1 -> rpn_big_conv1
I0413 19:28:29.015619 15914 net.cpp:150] Setting up rpn_big_conv1
I0413 19:28:29.015647 15914 net.cpp:157] Top shape: 1 512 63 94 (3032064)
I0413 19:28:29.015661 15914 net.cpp:165] Memory required for data: 3512114676
I0413 19:28:29.015671 15914 layer_factory.hpp:77] Creating layer rpn_big_conv1_relu
I0413 19:28:29.015681 15914 net.cpp:100] Creating Layer rpn_big_conv1_relu
I0413 19:28:29.015686 15914 net.cpp:434] rpn_big_conv1_relu <- rpn_big_conv1
I0413 19:28:29.015699 15914 net.cpp:395] rpn_big_conv1_relu -> rpn_big_conv1 (in-place)
I0413 19:28:29.015713 15914 net.cpp:150] Setting up rpn_big_conv1_relu
I0413 19:28:29.015722 15914 net.cpp:157] Top shape: 1 512 63 94 (3032064)
I0413 19:28:29.015728 15914 net.cpp:165] Memory required for data: 3524242932
I0413 19:28:29.015733 15914 layer_factory.hpp:77] Creating layer rpn_big_conv2
I0413 19:28:29.015748 15914 net.cpp:100] Creating Layer rpn_big_conv2
I0413 19:28:29.015755 15914 net.cpp:434] rpn_big_conv2 <- rpn_big_conv1
I0413 19:28:29.015764 15914 net.cpp:408] rpn_big_conv2 -> rpn_big_conv2
I0413 19:28:29.040990 15914 net.cpp:150] Setting up rpn_big_conv2
I0413 19:28:29.041018 15914 net.cpp:157] Top shape: 1 512 63 94 (3032064)
I0413 19:28:29.041030 15914 net.cpp:165] Memory required for data: 3536371188
I0413 19:28:29.041041 15914 layer_factory.hpp:77] Creating layer rpn_big_conv2_relu
I0413 19:28:29.041052 15914 net.cpp:100] Creating Layer rpn_big_conv2_relu
I0413 19:28:29.041057 15914 net.cpp:434] rpn_big_conv2_relu <- rpn_big_conv2
I0413 19:28:29.041069 15914 net.cpp:395] rpn_big_conv2_relu -> rpn_big_conv2 (in-place)
I0413 19:28:29.041085 15914 net.cpp:150] Setting up rpn_big_conv2_relu
I0413 19:28:29.041093 15914 net.cpp:157] Top shape: 1 512 63 94 (3032064)
I0413 19:28:29.041098 15914 net.cpp:165] Memory required for data: 3548499444
I0413 19:28:29.041103 15914 layer_factory.hpp:77] Creating layer rpn_big_conv2_drop
I0413 19:28:29.041113 15914 net.cpp:100] Creating Layer rpn_big_conv2_drop
I0413 19:28:29.041119 15914 net.cpp:434] rpn_big_conv2_drop <- rpn_big_conv2
I0413 19:28:29.041127 15914 net.cpp:395] rpn_big_conv2_drop -> rpn_big_conv2 (in-place)
I0413 19:28:29.041162 15914 net.cpp:150] Setting up rpn_big_conv2_drop
I0413 19:28:29.041172 15914 net.cpp:157] Top shape: 1 512 63 94 (3032064)
I0413 19:28:29.041178 15914 net.cpp:165] Memory required for data: 3560627700
I0413 19:28:29.041183 15914 layer_factory.hpp:77] Creating layer rpn_big_conv2_rpn_big_conv2_drop_0_split
I0413 19:28:29.041191 15914 net.cpp:100] Creating Layer rpn_big_conv2_rpn_big_conv2_drop_0_split
I0413 19:28:29.041199 15914 net.cpp:434] rpn_big_conv2_rpn_big_conv2_drop_0_split <- rpn_big_conv2
I0413 19:28:29.041213 15914 net.cpp:408] rpn_big_conv2_rpn_big_conv2_drop_0_split -> rpn_big_conv2_rpn_big_conv2_drop_0_split_0
I0413 19:28:29.041226 15914 net.cpp:408] rpn_big_conv2_rpn_big_conv2_drop_0_split -> rpn_big_conv2_rpn_big_conv2_drop_0_split_1
I0413 19:28:29.041281 15914 net.cpp:150] Setting up rpn_big_conv2_rpn_big_conv2_drop_0_split
I0413 19:28:29.041292 15914 net.cpp:157] Top shape: 1 512 63 94 (3032064)
I0413 19:28:29.041301 15914 net.cpp:157] Top shape: 1 512 63 94 (3032064)
I0413 19:28:29.041306 15914 net.cpp:165] Memory required for data: 3584884212
I0413 19:28:29.041311 15914 layer_factory.hpp:77] Creating layer rpn_big_output_cls
I0413 19:28:29.041328 15914 net.cpp:100] Creating Layer rpn_big_output_cls
I0413 19:28:29.041335 15914 net.cpp:434] rpn_big_output_cls <- rpn_big_conv2_rpn_big_conv2_drop_0_split_0
I0413 19:28:29.041348 15914 net.cpp:408] rpn_big_output_cls -> rpn_big_output_cls
I0413 19:28:29.060559 15914 net.cpp:150] Setting up rpn_big_output_cls
I0413 19:28:29.060590 15914 net.cpp:157] Top shape: 1 384 63 94 (2274048)
I0413 19:28:29.060592 15914 net.cpp:165] Memory required for data: 3593980404
I0413 19:28:29.060603 15914 layer_factory.hpp:77] Creating layer rpn_big_output_cls_relu
I0413 19:28:29.060616 15914 net.cpp:100] Creating Layer rpn_big_output_cls_relu
I0413 19:28:29.060626 15914 net.cpp:434] rpn_big_output_cls_relu <- rpn_big_output_cls
I0413 19:28:29.060638 15914 net.cpp:395] rpn_big_output_cls_relu -> rpn_big_output_cls (in-place)
I0413 19:28:29.060652 15914 net.cpp:150] Setting up rpn_big_output_cls_relu
I0413 19:28:29.060660 15914 net.cpp:157] Top shape: 1 384 63 94 (2274048)
I0413 19:28:29.060664 15914 net.cpp:165] Memory required for data: 3603076596
I0413 19:28:29.060669 15914 layer_factory.hpp:77] Creating layer rpn_big_cls_score
I0413 19:28:29.060685 15914 net.cpp:100] Creating Layer rpn_big_cls_score
I0413 19:28:29.060691 15914 net.cpp:434] rpn_big_cls_score <- rpn_big_output_cls
I0413 19:28:29.060703 15914 net.cpp:408] rpn_big_cls_score -> rpn_big_cls_score
I0413 19:28:29.063102 15914 net.cpp:150] Setting up rpn_big_cls_score
I0413 19:28:29.063118 15914 net.cpp:157] Top shape: 1 52 61 92 (291824)
I0413 19:28:29.063122 15914 net.cpp:165] Memory required for data: 3604243892
I0413 19:28:29.063145 15914 layer_factory.hpp:77] Creating layer rpn_big_cls_score_rpn_big_cls_score_0_split
I0413 19:28:29.063153 15914 net.cpp:100] Creating Layer rpn_big_cls_score_rpn_big_cls_score_0_split
I0413 19:28:29.063158 15914 net.cpp:434] rpn_big_cls_score_rpn_big_cls_score_0_split <- rpn_big_cls_score
I0413 19:28:29.063169 15914 net.cpp:408] rpn_big_cls_score_rpn_big_cls_score_0_split -> rpn_big_cls_score_rpn_big_cls_score_0_split_0
I0413 19:28:29.063181 15914 net.cpp:408] rpn_big_cls_score_rpn_big_cls_score_0_split -> rpn_big_cls_score_rpn_big_cls_score_0_split_1
I0413 19:28:29.063237 15914 net.cpp:150] Setting up rpn_big_cls_score_rpn_big_cls_score_0_split
I0413 19:28:29.063249 15914 net.cpp:157] Top shape: 1 52 61 92 (291824)
I0413 19:28:29.063264 15914 net.cpp:157] Top shape: 1 52 61 92 (291824)
I0413 19:28:29.063268 15914 net.cpp:165] Memory required for data: 3606578484
I0413 19:28:29.063273 15914 layer_factory.hpp:77] Creating layer rpn_big_cls_score_reshape
I0413 19:28:29.063287 15914 net.cpp:100] Creating Layer rpn_big_cls_score_reshape
I0413 19:28:29.063295 15914 net.cpp:434] rpn_big_cls_score_reshape <- rpn_big_cls_score_rpn_big_cls_score_0_split_0
I0413 19:28:29.063305 15914 net.cpp:408] rpn_big_cls_score_reshape -> rpn_big_cls_score_reshape
I0413 19:28:29.063340 15914 net.cpp:150] Setting up rpn_big_cls_score_reshape
I0413 19:28:29.063350 15914 net.cpp:157] Top shape: 1 2 1586 92 (291824)
I0413 19:28:29.063356 15914 net.cpp:165] Memory required for data: 3607745780
I0413 19:28:29.063362 15914 layer_factory.hpp:77] Creating layer rpn_big_cls_score_reshape_rpn_big_cls_score_reshape_0_split
I0413 19:28:29.063377 15914 net.cpp:100] Creating Layer rpn_big_cls_score_reshape_rpn_big_cls_score_reshape_0_split
I0413 19:28:29.063385 15914 net.cpp:434] rpn_big_cls_score_reshape_rpn_big_cls_score_reshape_0_split <- rpn_big_cls_score_reshape
I0413 19:28:29.063396 15914 net.cpp:408] rpn_big_cls_score_reshape_rpn_big_cls_score_reshape_0_split -> rpn_big_cls_score_reshape_rpn_big_cls_score_reshape_0_split_0
I0413 19:28:29.063407 15914 net.cpp:408] rpn_big_cls_score_reshape_rpn_big_cls_score_reshape_0_split -> rpn_big_cls_score_reshape_rpn_big_cls_score_reshape_0_split_1
I0413 19:28:29.063453 15914 net.cpp:150] Setting up rpn_big_cls_score_reshape_rpn_big_cls_score_reshape_0_split
I0413 19:28:29.063463 15914 net.cpp:157] Top shape: 1 2 1586 92 (291824)
I0413 19:28:29.063472 15914 net.cpp:157] Top shape: 1 2 1586 92 (291824)
I0413 19:28:29.063478 15914 net.cpp:165] Memory required for data: 3610080372
I0413 19:28:29.063483 15914 layer_factory.hpp:77] Creating layer rpn_big_cls_prob
I0413 19:28:29.063491 15914 net.cpp:100] Creating Layer rpn_big_cls_prob
I0413 19:28:29.063499 15914 net.cpp:434] rpn_big_cls_prob <- rpn_big_cls_score_reshape_rpn_big_cls_score_reshape_0_split_0
I0413 19:28:29.063511 15914 net.cpp:408] rpn_big_cls_prob -> rpn_big_cls_prob
I0413 19:28:29.063590 15914 net.cpp:150] Setting up rpn_big_cls_prob
I0413 19:28:29.063599 15914 net.cpp:157] Top shape: 1 2 1586 92 (291824)
I0413 19:28:29.063606 15914 net.cpp:165] Memory required for data: 3611247668
I0413 19:28:29.063611 15914 layer_factory.hpp:77] Creating layer rpn_big_cls_prob_reshape
I0413 19:28:29.063621 15914 net.cpp:100] Creating Layer rpn_big_cls_prob_reshape
I0413 19:28:29.063628 15914 net.cpp:434] rpn_big_cls_prob_reshape <- rpn_big_cls_prob
I0413 19:28:29.063640 15914 net.cpp:408] rpn_big_cls_prob_reshape -> rpn_big_cls_prob_reshape
I0413 19:28:29.063671 15914 net.cpp:150] Setting up rpn_big_cls_prob_reshape
I0413 19:28:29.063681 15914 net.cpp:157] Top shape: 1 52 61 92 (291824)
I0413 19:28:29.063688 15914 net.cpp:165] Memory required for data: 3612414964
I0413 19:28:29.063694 15914 layer_factory.hpp:77] Creating layer rpn_big_cls_prob_reshape_rpn_big_cls_prob_reshape_0_split
I0413 19:28:29.063702 15914 net.cpp:100] Creating Layer rpn_big_cls_prob_reshape_rpn_big_cls_prob_reshape_0_split
I0413 19:28:29.063709 15914 net.cpp:434] rpn_big_cls_prob_reshape_rpn_big_cls_prob_reshape_0_split <- rpn_big_cls_prob_reshape
I0413 19:28:29.063720 15914 net.cpp:408] rpn_big_cls_prob_reshape_rpn_big_cls_prob_reshape_0_split -> rpn_big_cls_prob_reshape_rpn_big_cls_prob_reshape_0_split_0
I0413 19:28:29.063731 15914 net.cpp:408] rpn_big_cls_prob_reshape_rpn_big_cls_prob_reshape_0_split -> rpn_big_cls_prob_reshape_rpn_big_cls_prob_reshape_0_split_1
I0413 19:28:29.063776 15914 net.cpp:150] Setting up rpn_big_cls_prob_reshape_rpn_big_cls_prob_reshape_0_split
I0413 19:28:29.063787 15914 net.cpp:157] Top shape: 1 52 61 92 (291824)
I0413 19:28:29.063793 15914 net.cpp:157] Top shape: 1 52 61 92 (291824)
I0413 19:28:29.063799 15914 net.cpp:165] Memory required for data: 3614749556
I0413 19:28:29.063805 15914 layer_factory.hpp:77] Creating layer rpn_big_anchor_target
I0413 19:28:29.065353 15914 net.cpp:100] Creating Layer rpn_big_anchor_target
I0413 19:28:29.065369 15914 net.cpp:434] rpn_big_anchor_target <- rpn_big_cls_score_rpn_big_cls_score_0_split_1
I0413 19:28:29.065376 15914 net.cpp:434] rpn_big_anchor_target <- input_gt_boxes_input_2_split_0
I0413 19:28:29.065384 15914 net.cpp:434] rpn_big_anchor_target <- input_ignored_boxes
I0413 19:28:29.065393 15914 net.cpp:434] rpn_big_anchor_target <- input_im_info_input_1_split_0
I0413 19:28:29.065400 15914 net.cpp:434] rpn_big_anchor_target <- input_data_input_0_split_1
I0413 19:28:29.065409 15914 net.cpp:434] rpn_big_anchor_target <- rpn_big_cls_prob_reshape_rpn_big_cls_prob_reshape_0_split_0
I0413 19:28:29.065420 15914 net.cpp:408] rpn_big_anchor_target -> rpn_big_anchor_target_labels
I0413 19:28:29.065436 15914 net.cpp:408] rpn_big_anchor_target -> rpn_big_anchor_target_bbox_targets
I0413 19:28:29.065450 15914 net.cpp:408] rpn_big_anchor_target -> rpn_big_anchor_target_inside_weights
I0413 19:28:29.065464 15914 net.cpp:408] rpn_big_anchor_target -> rpn_big_anchor_target_outside_weights
I0413 19:28:29.070396 15914 net.cpp:150] Setting up rpn_big_anchor_target
I0413 19:28:29.070435 15914 net.cpp:157] Top shape: 1 1 1586 92 (145912)
I0413 19:28:29.070439 15914 net.cpp:157] Top shape: 1 104 61 92 (583648)
I0413 19:28:29.070443 15914 net.cpp:157] Top shape: 1 104 61 92 (583648)
I0413 19:28:29.070447 15914 net.cpp:157] Top shape: 1 104 61 92 (583648)
I0413 19:28:29.070451 15914 net.cpp:165] Memory required for data: 3622336980
I0413 19:28:29.070456 15914 layer_factory.hpp:77] Creating layer rpn_big_loss_cls
I0413 19:28:29.070468 15914 net.cpp:100] Creating Layer rpn_big_loss_cls
I0413 19:28:29.070473 15914 net.cpp:434] rpn_big_loss_cls <- rpn_big_cls_score_reshape_rpn_big_cls_score_reshape_0_split_1
I0413 19:28:29.070480 15914 net.cpp:434] rpn_big_loss_cls <- rpn_big_anchor_target_labels
I0413 19:28:29.070487 15914 net.cpp:408] rpn_big_loss_cls -> rpn_big_loss_cls
I0413 19:28:29.070500 15914 layer_factory.hpp:77] Creating layer rpn_big_loss_cls
I0413 19:28:29.071436 15914 net.cpp:150] Setting up rpn_big_loss_cls
I0413 19:28:29.071454 15914 net.cpp:157] Top shape: (1)
I0413 19:28:29.071456 15914 net.cpp:160]     with loss weight 1
I0413 19:28:29.071476 15914 net.cpp:165] Memory required for data: 3622336984
I0413 19:28:29.071480 15914 layer_factory.hpp:77] Creating layer rpn_big_output_box
I0413 19:28:29.071501 15914 net.cpp:100] Creating Layer rpn_big_output_box
I0413 19:28:29.071511 15914 net.cpp:434] rpn_big_output_box <- rpn_big_conv2_rpn_big_conv2_drop_0_split_1
I0413 19:28:29.071522 15914 net.cpp:408] rpn_big_output_box -> rpn_big_output_box
I0413 19:28:29.090518 15914 net.cpp:150] Setting up rpn_big_output_box
I0413 19:28:29.090545 15914 net.cpp:157] Top shape: 1 384 63 94 (2274048)
I0413 19:28:29.090559 15914 net.cpp:165] Memory required for data: 3631433176
I0413 19:28:29.090569 15914 layer_factory.hpp:77] Creating layer rpn_big_output_box_relu
I0413 19:28:29.090579 15914 net.cpp:100] Creating Layer rpn_big_output_box_relu
I0413 19:28:29.090585 15914 net.cpp:434] rpn_big_output_box_relu <- rpn_big_output_box
I0413 19:28:29.090595 15914 net.cpp:395] rpn_big_output_box_relu -> rpn_big_output_box (in-place)
I0413 19:28:29.090610 15914 net.cpp:150] Setting up rpn_big_output_box_relu
I0413 19:28:29.090620 15914 net.cpp:157] Top shape: 1 384 63 94 (2274048)
I0413 19:28:29.090625 15914 net.cpp:165] Memory required for data: 3640529368
I0413 19:28:29.090629 15914 layer_factory.hpp:77] Creating layer rpn_big_bbox_pred
I0413 19:28:29.090646 15914 net.cpp:100] Creating Layer rpn_big_bbox_pred
I0413 19:28:29.090661 15914 net.cpp:434] rpn_big_bbox_pred <- rpn_big_output_box
I0413 19:28:29.090670 15914 net.cpp:408] rpn_big_bbox_pred -> rpn_big_bbox_pred
I0413 19:28:29.094830 15914 net.cpp:150] Setting up rpn_big_bbox_pred
I0413 19:28:29.094844 15914 net.cpp:157] Top shape: 1 104 61 92 (583648)
I0413 19:28:29.094847 15914 net.cpp:165] Memory required for data: 3642863960
I0413 19:28:29.094863 15914 layer_factory.hpp:77] Creating layer rpn_big_bbox_pred_rpn_big_bbox_pred_0_split
I0413 19:28:29.094871 15914 net.cpp:100] Creating Layer rpn_big_bbox_pred_rpn_big_bbox_pred_0_split
I0413 19:28:29.094876 15914 net.cpp:434] rpn_big_bbox_pred_rpn_big_bbox_pred_0_split <- rpn_big_bbox_pred
I0413 19:28:29.094883 15914 net.cpp:408] rpn_big_bbox_pred_rpn_big_bbox_pred_0_split -> rpn_big_bbox_pred_rpn_big_bbox_pred_0_split_0
I0413 19:28:29.094897 15914 net.cpp:408] rpn_big_bbox_pred_rpn_big_bbox_pred_0_split -> rpn_big_bbox_pred_rpn_big_bbox_pred_0_split_1
I0413 19:28:29.094956 15914 net.cpp:150] Setting up rpn_big_bbox_pred_rpn_big_bbox_pred_0_split
I0413 19:28:29.094966 15914 net.cpp:157] Top shape: 1 104 61 92 (583648)
I0413 19:28:29.094982 15914 net.cpp:157] Top shape: 1 104 61 92 (583648)
I0413 19:28:29.094986 15914 net.cpp:165] Memory required for data: 3647533144
I0413 19:28:29.094992 15914 layer_factory.hpp:77] Creating layer rpn_big_loss_bbox
I0413 19:28:29.095427 15914 net.cpp:100] Creating Layer rpn_big_loss_bbox
I0413 19:28:29.095437 15914 net.cpp:434] rpn_big_loss_bbox <- rpn_big_bbox_pred_rpn_big_bbox_pred_0_split_0
I0413 19:28:29.095441 15914 net.cpp:434] rpn_big_loss_bbox <- rpn_big_anchor_target_bbox_targets
I0413 19:28:29.095455 15914 net.cpp:434] rpn_big_loss_bbox <- rpn_big_anchor_target_inside_weights
I0413 19:28:29.095459 15914 net.cpp:434] rpn_big_loss_bbox <- rpn_big_anchor_target_outside_weights
I0413 19:28:29.095466 15914 net.cpp:408] rpn_big_loss_bbox -> rpn_big_loss_bbox
I0413 19:28:29.099303 15914 net.cpp:150] Setting up rpn_big_loss_bbox
I0413 19:28:29.099335 15914 net.cpp:157] Top shape: 1 (1)
I0413 19:28:29.099339 15914 net.cpp:160]     with loss weight 1
I0413 19:28:29.099349 15914 net.cpp:165] Memory required for data: 3647533148
I0413 19:28:29.099356 15914 layer_factory.hpp:77] Creating layer proposal
I0413 19:28:29.099817 15914 net.cpp:100] Creating Layer proposal
I0413 19:28:29.099828 15914 net.cpp:434] proposal <- rpn_big_cls_prob_reshape_rpn_big_cls_prob_reshape_0_split_1
I0413 19:28:29.099836 15914 net.cpp:434] proposal <- rpn_big_bbox_pred_rpn_big_bbox_pred_0_split_1
I0413 19:28:29.099845 15914 net.cpp:434] proposal <- input_im_info_input_1_split_1
I0413 19:28:29.099858 15914 net.cpp:408] proposal -> rpn_rois
I0413 19:28:29.104537 15914 net.cpp:150] Setting up proposal
I0413 19:28:29.104559 15914 net.cpp:157] Top shape: 1 5 (5)
I0413 19:28:29.104563 15914 net.cpp:165] Memory required for data: 3647533168
I0413 19:28:29.104568 15914 layer_factory.hpp:77] Creating layer roi-data
I0413 19:28:29.106580 15914 net.cpp:100] Creating Layer roi-data
I0413 19:28:29.106597 15914 net.cpp:434] roi-data <- rpn_rois
I0413 19:28:29.106614 15914 net.cpp:434] roi-data <- input_gt_boxes_input_2_split_1
I0413 19:28:29.106622 15914 net.cpp:408] roi-data -> rois
I0413 19:28:29.106634 15914 net.cpp:408] roi-data -> labels
I0413 19:28:29.106648 15914 net.cpp:408] roi-data -> bbox_targets
I0413 19:28:29.106678 15914 net.cpp:408] roi-data -> bbox_inside_weights
I0413 19:28:29.106688 15914 net.cpp:408] roi-data -> bbox_outside_weights
I0413 19:28:29.106699 15914 net.cpp:408] roi-data -> pid_label
anchors:
<<<<<<<<<<<<<<<<<<<<<<<<<<<<<<<<<<<<<<<<<<<<<<<<<<<<<<<<<<<<<<<<<<<<<<<<<<<<<<<<<<<<<<<<<<<<<<<<<<<<<<<<<<<<<<<<<<<<<<<<<<<<<<<<<<<<<<<<<<<<<<<<<<<<<<<<<<<<<<<<<<<<<<<<<<<<<<<<<<<<<<<<<<<<<<<<<<<<<<<<<<<<<<<<<<<<<<<<<<<<<<<<<<<<<<<<<<<<<<<<<<<<<<<<<<<<<<<<<<<<<<<<<<<<<<<<<<<<<<<<<<<<<<<<<<<<<<<<<<<<
<caffe._caffe.Blob object at 0x7f4f6dd32f30>
I0413 19:28:29.107851 15914 net.cpp:150] Setting up roi-data
I0413 19:28:29.107874 15914 net.cpp:157] Top shape: 1 5 (5)
I0413 19:28:29.107878 15914 net.cpp:157] Top shape: 1 1 (1)
I0413 19:28:29.107892 15914 net.cpp:157] Top shape: 1 8 (8)
I0413 19:28:29.107895 15914 net.cpp:157] Top shape: 1 8 (8)
I0413 19:28:29.107899 15914 net.cpp:157] Top shape: 1 8 (8)
I0413 19:28:29.107906 15914 net.cpp:157] Top shape: (0)
I0413 19:28:29.107913 15914 net.cpp:165] Memory required for data: 3647533288
I0413 19:28:29.107919 15914 layer_factory.hpp:77] Creating layer roi-pool
I0413 19:28:29.107934 15914 net.cpp:100] Creating Layer roi-pool
I0413 19:28:29.107944 15914 net.cpp:434] roi-pool <- conv5_3_relu5_3_0_split_1
I0413 19:28:29.107951 15914 net.cpp:434] roi-pool <- rois
I0413 19:28:29.107964 15914 net.cpp:408] roi-pool -> roi-pool
I0413 19:28:29.107976 15914 roi_pooling_layer.cpp:33] Spatial scale: 0.0625
I0413 19:28:29.107991 15914 roi_pooling_layer.cpp:34] Box scale: 1
I0413 19:28:29.108042 15914 net.cpp:150] Setting up roi-pool
I0413 19:28:29.108054 15914 net.cpp:157] Top shape: 1 512 7 7 (25088)
I0413 19:28:29.108062 15914 net.cpp:165] Memory required for data: 3647633640
I0413 19:28:29.108067 15914 layer_factory.hpp:77] Creating layer fc6
I0413 19:28:29.108078 15914 net.cpp:100] Creating Layer fc6
I0413 19:28:29.108084 15914 net.cpp:434] fc6 <- roi-pool
I0413 19:28:29.108094 15914 net.cpp:408] fc6 -> fc6
I0413 19:28:29.277122 15914 net.cpp:150] Setting up fc6
I0413 19:28:29.277160 15914 net.cpp:157] Top shape: 1 4096 (4096)
I0413 19:28:29.277164 15914 net.cpp:165] Memory required for data: 3647650024
I0413 19:28:29.277176 15914 layer_factory.hpp:77] Creating layer relu6
I0413 19:28:29.277186 15914 net.cpp:100] Creating Layer relu6
I0413 19:28:29.277192 15914 net.cpp:434] relu6 <- fc6
I0413 19:28:29.277199 15914 net.cpp:395] relu6 -> fc6 (in-place)
I0413 19:28:29.277209 15914 net.cpp:150] Setting up relu6
I0413 19:28:29.277214 15914 net.cpp:157] Top shape: 1 4096 (4096)
I0413 19:28:29.277216 15914 net.cpp:165] Memory required for data: 3647666408
I0413 19:28:29.277220 15914 layer_factory.hpp:77] Creating layer drop6
I0413 19:28:29.277226 15914 net.cpp:100] Creating Layer drop6
I0413 19:28:29.277230 15914 net.cpp:434] drop6 <- fc6
I0413 19:28:29.277235 15914 net.cpp:395] drop6 -> fc6 (in-place)
I0413 19:28:29.277256 15914 net.cpp:150] Setting up drop6
I0413 19:28:29.277261 15914 net.cpp:157] Top shape: 1 4096 (4096)
I0413 19:28:29.277264 15914 net.cpp:165] Memory required for data: 3647682792
I0413 19:28:29.277267 15914 layer_factory.hpp:77] Creating layer fc7
I0413 19:28:29.277273 15914 net.cpp:100] Creating Layer fc7
I0413 19:28:29.277277 15914 net.cpp:434] fc7 <- fc6
I0413 19:28:29.277282 15914 net.cpp:408] fc7 -> fc7
I0413 19:28:29.305820 15914 net.cpp:150] Setting up fc7
I0413 19:28:29.305857 15914 net.cpp:157] Top shape: 1 4096 (4096)
I0413 19:28:29.305861 15914 net.cpp:165] Memory required for data: 3647699176
I0413 19:28:29.305874 15914 layer_factory.hpp:77] Creating layer relu7
I0413 19:28:29.305894 15914 net.cpp:100] Creating Layer relu7
I0413 19:28:29.305908 15914 net.cpp:434] relu7 <- fc7
I0413 19:28:29.305917 15914 net.cpp:395] relu7 -> fc7 (in-place)
I0413 19:28:29.305927 15914 net.cpp:150] Setting up relu7
I0413 19:28:29.305932 15914 net.cpp:157] Top shape: 1 4096 (4096)
I0413 19:28:29.305934 15914 net.cpp:165] Memory required for data: 3647715560
I0413 19:28:29.305938 15914 layer_factory.hpp:77] Creating layer drop7
I0413 19:28:29.305944 15914 net.cpp:100] Creating Layer drop7
I0413 19:28:29.305960 15914 net.cpp:434] drop7 <- fc7
I0413 19:28:29.305965 15914 net.cpp:395] drop7 -> fc7 (in-place)
I0413 19:28:29.305986 15914 net.cpp:150] Setting up drop7
I0413 19:28:29.305994 15914 net.cpp:157] Top shape: 1 4096 (4096)
I0413 19:28:29.305996 15914 net.cpp:165] Memory required for data: 3647731944
I0413 19:28:29.305999 15914 layer_factory.hpp:77] Creating layer fc7_drop7_0_split
I0413 19:28:29.306005 15914 net.cpp:100] Creating Layer fc7_drop7_0_split
I0413 19:28:29.306008 15914 net.cpp:434] fc7_drop7_0_split <- fc7
I0413 19:28:29.306013 15914 net.cpp:408] fc7_drop7_0_split -> fc7_drop7_0_split_0
I0413 19:28:29.306030 15914 net.cpp:408] fc7_drop7_0_split -> fc7_drop7_0_split_1
I0413 19:28:29.306061 15914 net.cpp:150] Setting up fc7_drop7_0_split
I0413 19:28:29.306066 15914 net.cpp:157] Top shape: 1 4096 (4096)
I0413 19:28:29.306071 15914 net.cpp:157] Top shape: 1 4096 (4096)
I0413 19:28:29.306073 15914 net.cpp:165] Memory required for data: 3647764712
I0413 19:28:29.306077 15914 layer_factory.hpp:77] Creating layer bbox_pred
I0413 19:28:29.306083 15914 net.cpp:100] Creating Layer bbox_pred
I0413 19:28:29.306087 15914 net.cpp:434] bbox_pred <- fc7_drop7_0_split_0
I0413 19:28:29.306093 15914 net.cpp:408] bbox_pred -> bbox_pred
I0413 19:28:29.306521 15914 net.cpp:150] Setting up bbox_pred
I0413 19:28:29.306529 15914 net.cpp:157] Top shape: 1 8 (8)
I0413 19:28:29.306533 15914 net.cpp:165] Memory required for data: 3647764744
I0413 19:28:29.306540 15914 layer_factory.hpp:77] Creating layer loss_bbox
I0413 19:28:29.306546 15914 net.cpp:100] Creating Layer loss_bbox
I0413 19:28:29.306551 15914 net.cpp:434] loss_bbox <- bbox_pred
I0413 19:28:29.306556 15914 net.cpp:434] loss_bbox <- bbox_targets
I0413 19:28:29.306560 15914 net.cpp:434] loss_bbox <- bbox_inside_weights
I0413 19:28:29.306565 15914 net.cpp:434] loss_bbox <- bbox_outside_weights
I0413 19:28:29.306571 15914 net.cpp:408] loss_bbox -> loss_bbox
I0413 19:28:29.306649 15914 net.cpp:150] Setting up loss_bbox
I0413 19:28:29.306658 15914 net.cpp:157] Top shape: (1)
I0413 19:28:29.306660 15914 net.cpp:160]     with loss weight 1
I0413 19:28:29.306673 15914 net.cpp:165] Memory required for data: 3647764748
I0413 19:28:29.306675 15914 layer_factory.hpp:77] Creating layer feat
I0413 19:28:29.306682 15914 net.cpp:100] Creating Layer feat
I0413 19:28:29.306685 15914 net.cpp:434] feat <- fc7_drop7_0_split_1
I0413 19:28:29.306691 15914 net.cpp:408] feat -> feat
I0413 19:28:29.319079 15914 net.cpp:150] Setting up feat
I0413 19:28:29.319111 15914 net.cpp:157] Top shape: 1 256 (256)
I0413 19:28:29.319115 15914 net.cpp:165] Memory required for data: 3647765772
I0413 19:28:29.319128 15914 layer_factory.hpp:77] Creating layer relu8
I0413 19:28:29.319138 15914 net.cpp:100] Creating Layer relu8
I0413 19:28:29.319142 15914 net.cpp:434] relu8 <- feat
I0413 19:28:29.319150 15914 net.cpp:395] relu8 -> feat (in-place)
I0413 19:28:29.319160 15914 net.cpp:150] Setting up relu8
I0413 19:28:29.319167 15914 net.cpp:157] Top shape: 1 256 (256)
I0413 19:28:29.319170 15914 net.cpp:165] Memory required for data: 3647766796
I0413 19:28:29.319174 15914 layer_factory.hpp:77] Creating layer drop8
I0413 19:28:29.319180 15914 net.cpp:100] Creating Layer drop8
I0413 19:28:29.319183 15914 net.cpp:434] drop8 <- feat
I0413 19:28:29.319188 15914 net.cpp:395] drop8 -> feat (in-place)
I0413 19:28:29.319209 15914 net.cpp:150] Setting up drop8
I0413 19:28:29.319216 15914 net.cpp:157] Top shape: 1 256 (256)
I0413 19:28:29.319218 15914 net.cpp:165] Memory required for data: 3647767820
I0413 19:28:29.319222 15914 layer_factory.hpp:77] Creating layer pid_score
I0413 19:28:29.319228 15914 net.cpp:100] Creating Layer pid_score
I0413 19:28:29.319233 15914 net.cpp:434] pid_score <- feat
I0413 19:28:29.319239 15914 net.cpp:408] pid_score -> pid_score
I0413 19:28:29.335427 15914 net.cpp:150] Setting up pid_score
I0413 19:28:29.335455 15914 net.cpp:157] Top shape: 1 5533 (5533)
I0413 19:28:29.335458 15914 net.cpp:165] Memory required for data: 3647789952
I0413 19:28:29.335469 15914 layer_factory.hpp:77] Creating layer pid_accuracy
I0413 19:28:29.335479 15914 net.cpp:100] Creating Layer pid_accuracy
I0413 19:28:29.335484 15914 net.cpp:434] pid_accuracy <- pid_score
I0413 19:28:29.335490 15914 net.cpp:434] pid_accuracy <- pid_label
I0413 19:28:29.335507 15914 net.cpp:408] pid_accuracy -> pid_accuracy
…
