…
I0413 19:06:17.440564 15200 solver.cpp:48] Initializing solver from parameters: 
base_lr: 0.001
display: 20
lr_policy: "multistep"
gamma: 0.1
momentum: 0.9
weight_decay: 0.0005
snapshot: 0
snapshot_prefix: "faces_example"
net_param {
  name: "GeneratedModel_13_04_2017_19_06"
  layer {
    name: "input"
    type: "Python"
    top: "input_data"
    top: "input_im_info"
    top: "input_gt_boxes"
    top: "input_ignored_boxes"
    python_param {
      module: "layers.roi_data_layer"
      layer: "RoIDataLayer"
      param_str: "{\"num_classes\": 2}"
    }
  }
  layer {
    name: "conv1_1"
    type: "Convolution"
    bottom: "input_data"
    top: "conv1_1"
    param {
      lr_mult: 0
      decay_mult: 0
    }
    param {
      lr_mult: 0
      decay_mult: 0
    }
    convolution_param {
      num_output: 64
      pad: 1
      kernel_size: 3
    }
  }
  layer {
    name: "relu1_1"
    type: "ReLU"
    bottom: "conv1_1"
    top: "conv1_1"
  }
  layer {
    name: "conv1_2"
    type: "Convolution"
    bottom: "conv1_1"
    top: "conv1_2"
    param {
      lr_mult: 0
      decay_mult: 0
    }
    param {
      lr_mult: 0
      decay_mult: 0
    }
    convolution_param {
      num_output: 64
      pad: 1
      kernel_size: 3
    }
  }
  layer {
    name: "relu1_2"
    type: "ReLU"
    bottom: "conv1_2"
    top: "conv1_2"
  }
  layer {
    name: "pool1"
    type: "Pooling"
    bottom: "conv1_2"
    top: "pool1"
    pooling_param {
      pool: MAX
      kernel_size: 2
      stride: 2
    }
  }
  layer {
    name: "conv2_1"
    type: "Convolution"
    bottom: "pool1"
    top: "conv2_1"
    param {
      lr_mult: 0
      decay_mult: 0
    }
    param {
      lr_mult: 0
      decay_mult: 0
    }
    convolution_param {
      num_output: 128
      pad: 1
      kernel_size: 3
    }
  }
  layer {
    name: "relu2_1"
    type: "ReLU"
    bottom: "conv2_1"
    top: "conv2_1"
  }
  layer {
    name: "conv2_2"
    type: "Convolution"
    bottom: "conv2_1"
    top: "conv2_2"
    param {
      lr_mult: 0
      decay_mult: 0
    }
    param {
      lr_mult: 0
      decay_mult: 0
    }
    convolution_param {
      num_output: 128
      pad: 1
      kernel_size: 3
    }
  }
  layer {
    name: "relu2_2"
    type: "ReLU"
    bottom: "conv2_2"
    top: "conv2_2"
  }
  layer {
    name: "pool2"
    type: "Pooling"
    bottom: "conv2_2"
    top: "pool2"
    pooling_param {
      pool: MAX
      kernel_size: 2
      stride: 2
    }
  }
  layer {
    name: "conv3_1"
    type: "Convolution"
    bottom: "pool2"
    top: "conv3_1"
    param {
      lr_mult: 1
    }
    param {
      lr_mult: 2
    }
    convolution_param {
      num_output: 256
      pad: 1
      kernel_size: 3
    }
  }
  layer {
    name: "relu3_1"
    type: "ReLU"
    bottom: "conv3_1"
    top: "conv3_1"
  }
  layer {
    name: "conv3_2"
    type: "Convolution"
    bottom: "conv3_1"
    top: "conv3_2"
    param {
      lr_mult: 1
    }
    param {
      lr_mult: 2
    }
    convolution_param {
      num_output: 256
      pad: 1
      kernel_size: 3
    }
  }
  layer {
    name: "relu3_2"
    type: "ReLU"
    bottom: "conv3_2"
    top: "conv3_2"
  }
  layer {
    name: "conv3_3"
    type: "Convolution"
    bottom: "conv3_2"
    top: "conv3_3"
    param {
      lr_mult: 1
    }
    param {
      lr_mult: 2
    }
    convolution_param {
      num_output: 256
      pad: 1
      kernel_size: 3
    }
  }
  layer {
    name: "relu3_3"
    type: "ReLU"
    bottom: "conv3_3"
    top: "conv3_3"
  }
  layer {
    name: "pool3"
    type: "Pooling"
    bottom: "conv3_3"
    top: "pool3"
    pooling_param {
      pool: MAX
      kernel_size: 2
      stride: 2
    }
  }
  layer {
    name: "conv4_1"
    type: "Convolution"
    bottom: "pool3"
    top: "conv4_1"
    param {
      lr_mult: 1
    }
    param {
      lr_mult: 2
    }
    convolution_param {
      num_output: 512
      pad: 1
      kernel_size: 3
    }
  }
  layer {
    name: "relu4_1"
    type: "ReLU"
    bottom: "conv4_1"
    top: "conv4_1"
  }
  layer {
    name: "conv4_2"
    type: "Convolution"
    bottom: "conv4_1"
    top: "conv4_2"
    param {
      lr_mult: 1
    }
    param {
      lr_mult: 2
    }
    convolution_param {
      num_output: 512
      pad: 1
      kernel_size: 3
    }
  }
  layer {
    name: "relu4_2"
    type: "ReLU"
    bottom: "conv4_2"
    top: "conv4_2"
  }
  layer {
    name: "conv4_3"
    type: "Convolution"
    bottom: "conv4_2"
    top: "conv4_3"
    param {
      lr_mult: 1
    }
    param {
      lr_mult: 2
    }
    convolution_param {
      num_output: 512
      pad: 1
      kernel_size: 3
    }
  }
  layer {
    name: "relu4_3"
    type: "ReLU"
    bottom: "conv4_3"
    top: "conv4_3"
  }
  layer {
    name: "pool4"
    type: "Pooling"
    bottom: "conv4_3"
    top: "pool4"
    pooling_param {
      pool: MAX
      kernel_size: 2
      stride: 2
    }
  }
  layer {
    name: "conv5_1"
    type: "Convolution"
    bottom: "pool4"
    top: "conv5_1"
    param {
      lr_mult: 1
    }
    param {
      lr_mult: 2
    }
    convolution_param {
      num_output: 512
      pad: 1
      kernel_size: 3
    }
  }
  layer {
    name: "relu5_1"
    type: "ReLU"
    bottom: "conv5_1"
    top: "conv5_1"
  }
  layer {
    name: "conv5_2"
    type: "Convolution"
    bottom: "conv5_1"
    top: "conv5_2"
    param {
      lr_mult: 1
    }
    param {
      lr_mult: 2
    }
    convolution_param {
      num_output: 512
      pad: 1
      kernel_size: 3
    }
  }
  layer {
    name: "relu5_2"
    type: "ReLU"
    bottom: "conv5_2"
    top: "conv5_2"
  }
  layer {
    name: "conv5_3"
    type: "Convolution"
    bottom: "conv5_2"
    top: "conv5_3"
    param {
      lr_mult: 1
    }
    param {
      lr_mult: 2
    }
    convolution_param {
      num_output: 512
      pad: 1
      kernel_size: 3
    }
  }
  layer {
    name: "relu5_3"
    type: "ReLU"
    bottom: "conv5_3"
    top: "conv5_3"
  }
  layer {
    name: "rpn_big_conv1"
    type: "Convolution"
    bottom: "conv5_3"
    top: "rpn_big_conv1"
    param {
      lr_mult: 1
    }
    param {
      lr_mult: 2
    }
    convolution_param {
      num_output: 512
      pad: 1
      kernel_size: 3
      stride: 1
      weight_filler {
        type: "gaussian"
        mean: 0
        std: 0.01
      }
      bias_filler {
        type: "constant"
      }
    }
  }
  layer {
    name: "rpn_big_conv1_relu"
    type: "ReLU"
    bottom: "rpn_big_conv1"
    top: "rpn_big_conv1"
    relu_param {
      negative_slope: 0
    }
  }
  layer {
    name: "rpn_big_conv2"
    type: "Convolution"
    bottom: "rpn_big_conv1"
    top: "rpn_big_conv2"
    param {
      lr_mult: 1
    }
    param {
      lr_mult: 2
    }
    convolution_param {
      num_output: 512
      pad: 1
      kernel_size: 3
      stride: 1
      weight_filler {
        type: "gaussian"
        mean: 0
        std: 0.01
      }
      bias_filler {
        type: "constant"
      }
    }
  }
  layer {
    name: "rpn_big_conv2_relu"
    type: "ReLU"
    bottom: "rpn_big_conv2"
    top: "rpn_big_conv2"
    relu_param {
      negative_slope: 0
    }
  }
  layer {
    name: "rpn_big_conv2_drop"
    type: "Dropout"
    bottom: "rpn_big_conv2"
    top: "rpn_big_conv2"
    dropout_param {
      dropout_ratio: 0.3
    }
  }
  layer {
    name: "rpn_big_output_cls"
    type: "Convolution"
    bottom: "rpn_big_conv2"
    top: "rpn_big_output_cls"
    param {
      lr_mult: 1
    }
    param {
      lr_mult: 2
    }
    convolution_param {
      num_output: 384
      pad: 1
      kernel_size: 3
      stride: 1
      weight_filler {
        type: "gaussian"
        mean: 0
        std: 0.01
      }
      bias_filler {
        type: "constant"
      }
    }
  }
  layer {
    name: "rpn_big_output_cls_relu"
    type: "ReLU"
    bottom: "rpn_big_output_cls"
    top: "rpn_big_output_cls"
    relu_param {
      negative_slope: 0
    }
  }
  layer {
    name: "rpn_big_cls_score"
    type: "Convolution"
    bottom: "rpn_big_output_cls"
    top: "rpn_big_cls_score"
    param {
      lr_mult: 1
    }
    param {
      lr_mult: 2
    }
    convolution_param {
      num_output: 52
      pad: 0
      kernel_size: 3
      stride: 1
      weight_filler {
        type: "gaussian"
        mean: 0
        std: 0.01
      }
      bias_filler {
        type: "constant"
      }
    }
  }
  layer {
    name: "rpn_big_cls_score_reshape"
    type: "Reshape"
    bottom: "rpn_big_cls_score"
    top: "rpn_big_cls_score_reshape"
    reshape_param {
      shape {
        dim: 0
        dim: 2
        dim: -1
        dim: 0
      }
    }
  }
  layer {
    name: "rpn_big_cls_prob"
    type: "Softmax"
    bottom: "rpn_big_cls_score_reshape"
    top: "rpn_big_cls_prob"
  }
  layer {
    name: "rpn_big_cls_prob_reshape"
    type: "Reshape"
    bottom: "rpn_big_cls_prob"
    top: "rpn_big_cls_prob_reshape"
    reshape_param {
      shape {
        dim: 0
        dim: 52
        dim: -1
        dim: 0
      }
    }
  }
  layer {
    name: "rpn_big_anchor_target"
    type: "Python"
    bottom: "rpn_big_cls_score"
    bottom: "input_gt_boxes"
    bottom: "input_ignored_boxes"
    bottom: "input_im_info"
    bottom: "input_data"
    bottom: "rpn_big_cls_prob_reshape"
    top: "rpn_big_anchor_target_labels"
    top: "rpn_big_anchor_target_bbox_targets"
    top: "rpn_big_anchor_target_inside_weights"
    top: "rpn_big_anchor_target_outside_weights"
    python_param {
      module: "rpn.anchor_target_layer"
      layer: "AnchorTargetLayer"
      param_str: "{\"anchor_ratios\": [1.0], \"anchor_shift_num_xy\": [[2, 2], [2, 2], [2, 2], [2, 2], [1, 1], [1, 1], [1, 1], [1, 1], [1, 1], [1, 1], [1, 1], [1, 1], [1, 1], [1, 1]], \"feat_stride\": 16, \"square_targets\": true, \"name\": \"rpn_big\", \"negative_overlap\": 0.4, \"batchsize\": 256, \"fg_fraction\": 0.5, \"num_classes\": 1, \"positive_overlap\": 0.6, \"anchor_scales\": [2.5, 3.025, 3.66025, 4.4289024999999995, 5.358972025, 6.484356150249999, 7.846070941802498, 9.493745839581022, 11.487432465893036, 13.899793283730574, 16.818749873313998, 20.350687346709933, 24.62433168951902, 29.795441344318014], \"tn_fraction\": 0.2}"
    }
  }
  layer {
    name: "rpn_big_loss_cls"
    type: "SoftmaxWithLoss"
    bottom: "rpn_big_cls_score_reshape"
    bottom: "rpn_big_anchor_target_labels"
    top: "rpn_big_loss_cls"
    loss_weight: 1
    propagate_down: true
    propagate_down: false
    loss_param {
      ignore_label: -1
      normalization: VALID
    }
  }
  layer {
    name: "rpn_big_output_box"
    type: "Convolution"
    bottom: "rpn_big_conv2"
    top: "rpn_big_output_box"
    param {
      lr_mult: 1
    }
    param {
      lr_mult: 2
    }
    convolution_param {
      num_output: 384
      pad: 1
      kernel_size: 3
      stride: 1
      weight_filler {
        type: "gaussian"
        mean: 0
        std: 0.01
      }
      bias_filler {
        type: "constant"
      }
    }
  }
  layer {
    name: "rpn_big_output_box_relu"
    type: "ReLU"
    bottom: "rpn_big_output_box"
    top: "rpn_big_output_box"
    relu_param {
      negative_slope: 0
    }
  }
  layer {
    name: "rpn_big_bbox_pred"
    type: "Convolution"
    bottom: "rpn_big_output_box"
    top: "rpn_big_bbox_pred"
    param {
      lr_mult: 1
    }
    param {
      lr_mult: 2
    }
    convolution_param {
      num_output: 104
      pad: 0
      kernel_size: 3
      stride: 1
      weight_filler {
        type: "gaussian"
        mean: 0
        std: 0.01
      }
      bias_filler {
        type: "constant"
      }
    }
  }
  layer {
    name: "rpn_big_loss_bbox"
    type: "Python"
    bottom: "rpn_big_bbox_pred"
    bottom: "rpn_big_anchor_target_bbox_targets"
    bottom: "rpn_big_anchor_target_inside_weights"
    bottom: "rpn_big_anchor_target_outside_weights"
    top: "rpn_big_loss_bbox"
    loss_weight: 1
    python_param {
      module: "layers.smooth_l1_loss"
      layer: "SmoothL1LossLayer"
      param_str: "{\"sigma\": 3}"
    }
  }
  layer {
    name: "proposal"
    type: "Python"
    bottom: "rpn_big_cls_prob_reshape"
    bottom: "rpn_big_bbox_pred"
    bottom: "input_im_info"
    top: "rpn_rois"
    python_param {
      module: "rpn.proposal_layer"
      layer: "ProposalLayer"
      param_str: "{\"anchor_shift_num_xy\": [[2, 2], [2, 2], [2, 2], [2, 2], [1, 1], [1, 1], [1, 1], [1, 1], [1, 1], [1, 1], [1, 1], [1, 1], [1, 1], [1, 1]], \"feat_stride\": 16, \"num_classes\": 1, \"anchor_scales\": [2.5, 3.025, 3.66025, 4.4289024999999995, 5.358972025, 6.484356150249999, 7.846070941802498, 9.493745839581022, 11.487432465893036, 13.899793283730574, 16.818749873313998, 20.350687346709933, 24.62433168951902, 29.795441344318014], \"square_targets\": true, \"name\": \"rpn_big\", \"batchsize\": 256, \"anchor_ratios\": [1.0]}"
    }
  }
  layer {
    name: "roi-data"
    type: "Python"
    bottom: "rpn_rois"
    bottom: "input_gt_boxes"
    top: "rois"
    top: "labels"
    top: "bbox_targets"
    top: "bbox_inside_weights"
    top: "bbox_outside_weights"
    top: "pid_label"
    python_param {
      module: "rpn.proposal_target_layer"
      layer: "ProposalTargetLayer"
      param_str: "{\"num_classes\": 2, \"bg_aux_label\": 5532}"
    }
  }
  layer {
    name: "roi-pool"
    type: "ROIPooling"
    bottom: "conv5_3"
    bottom: "rois"
    top: "roi-pool"
    roi_pooling_param {
      pooled_h: 7
      pooled_w: 7
      spatial_scale: 0.0625
    }
  }
  layer {
    name: "fc6"
    type: "InnerProduct"
    bottom: "roi-pool"
    top: "fc6"
    param {
      lr_mult: 1
    }
    param {
      lr_mult: 2
    }
    inner_product_param {
      num_output: 4096
    }
  }
  layer {
    name: "relu6"
    type: "ReLU"
    bottom: "fc6"
    top: "fc6"
  }
  layer {
    name: "drop6"
    type: "Dropout"
    bottom: "fc6"
    top: "fc6"
    dropout_param {
      dropout_ratio: 0.5
    }
  }
  layer {
    name: "fc7"
    type: "InnerProduct"
    bottom: "fc6"
    top: "fc7"
    param {
      lr_mult: 1
    }
    param {
      lr_mult: 2
    }
    inner_product_param {
      num_output: 4096
    }
  }
  layer {
    name: "relu7"
    type: "ReLU"
    bottom: "fc7"
    top: "fc7"
  }
  layer {
    name: "drop7"
    type: "Dropout"
    bottom: "fc7"
    top: "fc7"
    dropout_param {
      dropout_ratio: 0.5
    }
  }
  layer {
    name: "bbox_pred"
    type: "InnerProduct"
    bottom: "fc7"
    top: "bbox_pred"
    param {
      lr_mult: 1
    }
    param {
      lr_mult: 2
    }
    inner_product_param {
      num_output: 8
      weight_filler {
        type: "gaussian"
        std: 0.001
      }
      bias_filler {
        type: "constant"
        value: 0
      }
    }
  }
  layer {
    name: "loss_bbox"
    type: "SmoothL1Loss"
    bottom: "bbox_pred"
    bottom: "bbox_targets"
    bottom: "bbox_inside_weights"
    bottom: "bbox_outside_weights"
    top: "loss_bbox"
    loss_weight: 1
  }
  layer {
    name: "feat"
    type: "InnerProduct"
    bottom: "fc7"
    top: "feat"
    param {
      lr_mult: 1
      decay_mult: 1
    }
    param {
      lr_mult: 2
      decay_mult: 0
    }
    inner_product_param {
      num_output: 256
      weight_filler {
        type: "gaussian"
        std: 0.01
      }
      bias_filler {
        type: "constant"
        value: 0
      }
    }
  }
  layer {
    name: "relu8"
    type: "ReLU"
    bottom: "feat"
    top: "feat"
  }
  layer {
    name: "drop8"
    type: "Dropout"
    bottom: "feat"
    top: "feat"
    dropout_param {
      dropout_ratio: 0.5
    }
  }
  layer {
    name: "pid_score"
    type: "InnerProduct"
    bottom: "feat"
    top: "pid_score"
    param {
      lr_mult: 1
      decay_mult: 1
    }
    param {
      lr_mult: 2
      decay_mult: 0
    }
    inner_product_param {
      num_output: 5533
      weight_filler {
        type: "gaussian"
        std: 0.001
      }
      bias_filler {
        type: "constant"
        value: 0
      }
    }
  }
  layer {
    name: "pid_loss"
    type: "SoftmaxWithLoss"
    bottom: "pid_score"
    bottom: "pid_label"
    top: "pid_loss"
    loss_weight: 1
    propagate_down: true
    propagate_down: false
    loss_param {
      ignore_label: -1
      normalize: true
    }
  }
}
average_loss: 100
stepvalue: 70000
stepvalue: 120000
iter_size: 2
I0413 19:06:17.440652 15200 solver.cpp:86] Creating training net specified in net_param.
I0413 19:06:17.441131 15200 net.cpp:58] Initializing net from parameters: 
name: "GeneratedModel_13_04_2017_19_06"
state {
  phase: TRAIN
}
layer {
  name: "input"
  type: "Python"
  top: "input_data"
  top: "input_im_info"
  top: "input_gt_boxes"
  top: "input_ignored_boxes"
  python_param {
    module: "layers.roi_data_layer"
    layer: "RoIDataLayer"
    param_str: "{\"num_classes\": 2}"
  }
}
layer {
  name: "conv1_1"
  type: "Convolution"
  bottom: "input_data"
  top: "conv1_1"
  param {
    lr_mult: 0
    decay_mult: 0
  }
  param {
    lr_mult: 0
    decay_mult: 0
  }
  convolution_param {
    num_output: 64
    pad: 1
    kernel_size: 3
  }
}
layer {
  name: "relu1_1"
  type: "ReLU"
  bottom: "conv1_1"
  top: "conv1_1"
}
layer {
  name: "conv1_2"
  type: "Convolution"
  bottom: "conv1_1"
  top: "conv1_2"
  param {
    lr_mult: 0
    decay_mult: 0
  }
  param {
    lr_mult: 0
    decay_mult: 0
  }
  convolution_param {
    num_output: 64
    pad: 1
    kernel_size: 3
  }
}
layer {
  name: "relu1_2"
  type: "ReLU"
  bottom: "conv1_2"
  top: "conv1_2"
}
layer {
  name: "pool1"
  type: "Pooling"
  bottom: "conv1_2"
  top: "pool1"
  pooling_param {
    pool: MAX
    kernel_size: 2
    stride: 2
  }
}
layer {
  name: "conv2_1"
  type: "Convolution"
  bottom: "pool1"
  top: "conv2_1"
  param {
    lr_mult: 0
    decay_mult: 0
  }
  param {
    lr_mult: 0
    decay_mult: 0
  }
  convolution_param {
    num_output: 128
    pad: 1
    kernel_size: 3
  }
}
layer {
  name: "relu2_1"
  type: "ReLU"
  bottom: "conv2_1"
  top: "conv2_1"
}
layer {
  name: "conv2_2"
  type: "Convolution"
  bottom: "conv2_1"
  top: "conv2_2"
  param {
    lr_mult: 0
    decay_mult: 0
  }
  param {
    lr_mult: 0
    decay_mult: 0
  }
  convolution_param {
    num_output: 128
    pad: 1
    kernel_size: 3
  }
}
layer {
  name: "relu2_2"
  type: "ReLU"
  bottom: "conv2_2"
  top: "conv2_2"
}
layer {
  name: "pool2"
  type: "Pooling"
  bottom: "conv2_2"
  top: "pool2"
  pooling_param {
    pool: MAX
    kernel_size: 2
    stride: 2
  }
}
layer {
  name: "conv3_1"
  type: "Convolution"
  bottom: "pool2"
  top: "conv3_1"
  param {
    lr_mult: 1
  }
  param {
    lr_mult: 2
  }
  convolution_param {
    num_output: 256
    pad: 1
    kernel_size: 3
  }
}
layer {
  name: "relu3_1"
  type: "ReLU"
  bottom: "conv3_1"
  top: "conv3_1"
}
layer {
  name: "conv3_2"
  type: "Convolution"
  bottom: "conv3_1"
  top: "conv3_2"
  param {
    lr_mult: 1
  }
  param {
    lr_mult: 2
  }
  convolution_param {
    num_output: 256
    pad: 1
    kernel_size: 3
  }
}
layer {
  name: "relu3_2"
  type: "ReLU"
  bottom: "conv3_2"
  top: "conv3_2"
}
layer {
  name: "conv3_3"
  type: "Convolution"
  bottom: "conv3_2"
  top: "conv3_3"
  param {
    lr_mult: 1
  }
  param {
    lr_mult: 2
  }
  convolution_param {
    num_output: 256
    pad: 1
    kernel_size: 3
  }
}
layer {
  name: "relu3_3"
  type: "ReLU"
  bottom: "conv3_3"
  top: "conv3_3"
}
layer {
  name: "pool3"
  type: "Pooling"
  bottom: "conv3_3"
  top: "pool3"
  pooling_param {
    pool: MAX
    kernel_size: 2
    stride: 2
  }
}
layer {
  name: "conv4_1"
  type: "Convolution"
  bottom: "pool3"
  top: "conv4_1"
  param {
    lr_mult: 1
  }
  param {
    lr_mult: 2
  }
  convolution_param {
    num_output: 512
    pad: 1
    kernel_size: 3
  }
}
layer {
  name: "relu4_1"
  type: "ReLU"
  bottom: "conv4_1"
  top: "conv4_1"
}
layer {
  name: "conv4_2"
  type: "Convolution"
  bottom: "conv4_1"
  top: "conv4_2"
  param {
    lr_mult: 1
  }
  param {
    lr_mult: 2
  }
  convolution_param {
    num_output: 512
    pad: 1
    kernel_size: 3
  }
}
layer {
  name: "relu4_2"
  type: "ReLU"
  bottom: "conv4_2"
  top: "conv4_2"
}
layer {
  name: "conv4_3"
  type: "Convolution"
  bottom: "conv4_2"
  top: "conv4_3"
  param {
    lr_mult: 1
  }
  param {
    lr_mult: 2
  }
  convolution_param {
    num_output: 512
    pad: 1
    kernel_size: 3
  }
}
layer {
  name: "relu4_3"
  type: "ReLU"
  bottom: "conv4_3"
  top: "conv4_3"
}
layer {
  name: "pool4"
  type: "Pooling"
  bottom: "conv4_3"
  top: "pool4"
  pooling_param {
    pool: MAX
    kernel_size: 2
    stride: 2
  }
}
layer {
  name: "conv5_1"
  type: "Convolution"
  bottom: "pool4"
  top: "conv5_1"
  param {
    lr_mult: 1
  }
  param {
    lr_mult: 2
  }
  convolution_param {
    num_output: 512
    pad: 1
    kernel_size: 3
  }
}
layer {
  name: "relu5_1"
  type: "ReLU"
  bottom: "conv5_1"
  top: "conv5_1"
}
layer {
  name: "conv5_2"
  type: "Convolution"
  bottom: "conv5_1"
  top: "conv5_2"
  param {
    lr_mult: 1
  }
  param {
    lr_mult: 2
  }
  convolution_param {
    num_output: 512
    pad: 1
    kernel_size: 3
  }
}
layer {
  name: "relu5_2"
  type: "ReLU"
  bottom: "conv5_2"
  top: "conv5_2"
}
layer {
  name: "conv5_3"
  type: "Convolution"
  bottom: "conv5_2"
  top: "conv5_3"
  param {
    lr_mult: 1
  }
  param {
    lr_mult: 2
  }
  convolution_param {
    num_output: 512
    pad: 1
    kernel_size: 3
  }
}
layer {
  name: "relu5_3"
  type: "ReLU"
  bottom: "conv5_3"
  top: "conv5_3"
}
layer {
  name: "rpn_big_conv1"
  type: "Convolution"
  bottom: "conv5_3"
  top: "rpn_big_conv1"
  param {
    lr_mult: 1
  }
  param {
    lr_mult: 2
  }
  convolution_param {
    num_output: 512
    pad: 1
    kernel_size: 3
    stride: 1
    weight_filler {
      type: "gaussian"
      mean: 0
      std: 0.01
    }
    bias_filler {
      type: "constant"
    }
  }
}
layer {
  name: "rpn_big_conv1_relu"
  type: "ReLU"
  bottom: "rpn_big_conv1"
  top: "rpn_big_conv1"
  relu_param {
    negative_slope: 0
  }
}
layer {
  name: "rpn_big_conv2"
  type: "Convolution"
  bottom: "rpn_big_conv1"
  top: "rpn_big_conv2"
  param {
    lr_mult: 1
  }
  param {
    lr_mult: 2
  }
  convolution_param {
    num_output: 512
    pad: 1
    kernel_size: 3
    stride: 1
    weight_filler {
      type: "gaussian"
      mean: 0
      std: 0.01
    }
    bias_filler {
      type: "constant"
    }
  }
}
layer {
  name: "rpn_big_conv2_relu"
  type: "ReLU"
  bottom: "rpn_big_conv2"
  top: "rpn_big_conv2"
  relu_param {
    negative_slope: 0
  }
}
layer {
  name: "rpn_big_conv2_drop"
  type: "Dropout"
  bottom: "rpn_big_conv2"
  top: "rpn_big_conv2"
  dropout_param {
    dropout_ratio: 0.3
  }
}
layer {
  name: "rpn_big_output_cls"
  type: "Convolution"
  bottom: "rpn_big_conv2"
  top: "rpn_big_output_cls"
  param {
    lr_mult: 1
  }
  param {
    lr_mult: 2
  }
  convolution_param {
    num_output: 384
    pad: 1
    kernel_size: 3
    stride: 1
    weight_filler {
      type: "gaussian"
      mean: 0
      std: 0.01
    }
    bias_filler {
      type: "constant"
    }
  }
}
layer {
  name: "rpn_big_output_cls_relu"
  type: "ReLU"
  bottom: "rpn_big_output_cls"
  top: "rpn_big_output_cls"
  relu_param {
    negative_slope: 0
  }
}
layer {
  name: "rpn_big_cls_score"
  type: "Convolution"
  bottom: "rpn_big_output_cls"
  top: "rpn_big_cls_score"
  param {
    lr_mult: 1
  }
  param {
    lr_mult: 2
  }
  convolution_param {
    num_output: 52
    pad: 0
    kernel_size: 3
    stride: 1
    weight_filler {
      type: "gaussian"
      mean: 0
      std: 0.01
    }
    bias_filler {
      type: "constant"
    }
  }
}
layer {
  name: "rpn_big_cls_score_reshape"
  type: "Reshape"
  bottom: "rpn_big_cls_score"
  top: "rpn_big_cls_score_reshape"
  reshape_param {
    shape {
      dim: 0
      dim: 2
      dim: -1
      dim: 0
    }
  }
}
layer {
  name: "rpn_big_cls_prob"
  type: "Softmax"
  bottom: "rpn_big_cls_score_reshape"
  top: "rpn_big_cls_prob"
}
layer {
  name: "rpn_big_cls_prob_reshape"
  type: "Reshape"
  bottom: "rpn_big_cls_prob"
  top: "rpn_big_cls_prob_reshape"
  reshape_param {
    shape {
      dim: 0
      dim: 52
      dim: -1
      dim: 0
    }
  }
}
layer {
  name: "rpn_big_anchor_target"
  type: "Python"
  bottom: "rpn_big_cls_score"
  bottom: "input_gt_boxes"
  bottom: "input_ignored_boxes"
  bottom: "input_im_info"
  bottom: "input_data"
  bottom: "rpn_big_cls_prob_reshape"
  top: "rpn_big_anchor_target_labels"
  top: "rpn_big_anchor_target_bbox_targets"
  top: "rpn_big_anchor_target_inside_weights"
  top: "rpn_big_anchor_target_outside_weights"
  python_param {
    module: "rpn.anchor_target_layer"
    layer: "AnchorTargetLayer"
    param_str: "{\"anchor_ratios\": [1.0], \"anchor_shift_num_xy\": [[2, 2], [2, 2], [2, 2], [2, 2], [1, 1], [1, 1], [1, 1], [1, 1], [1, 1], [1, 1], [1, 1], [1, 1], [1, 1], [1, 1]], \"feat_stride\": 16, \"square_targets\": true, \"name\": \"rpn_big\", \"negative_overlap\": 0.4, \"batchsize\": 256, \"fg_fraction\": 0.5, \"num_classes\": 1, \"positive_overlap\": 0.6, \"anchor_scales\": [2.5, 3.025, 3.66025, 4.4289024999999995, 5.358972025, 6.484356150249999, 7.846070941802498, 9.493745839581022, 11.487432465893036, 13.899793283730574, 16.818749873313998, 20.350687346709933, 24.62433168951902, 29.795441344318014], \"tn_fraction\": 0.2}"
  }
}
layer {
  name: "rpn_big_loss_cls"
  type: "SoftmaxWithLoss"
  bottom: "rpn_big_cls_score_reshape"
  bottom: "rpn_big_anchor_target_labels"
  top: "rpn_big_loss_cls"
  loss_weight: 1
  propagate_down: true
  propagate_down: false
  loss_param {
    ignore_label: -1
    normalization: VALID
  }
}
layer {
  name: "rpn_big_output_box"
  type: "Convolution"
  bottom: "rpn_big_conv2"
  top: "rpn_big_output_box"
  param {
    lr_mult: 1
  }
  param {
    lr_mult: 2
  }
  convolution_param {
    num_output: 384
    pad: 1
    kernel_size: 3
    stride: 1
    weight_filler {
      type: "gaussian"
      mean: 0
      std: 0.01
    }
    bias_filler {
      type: "constant"
    }
  }
}
layer {
  name: "rpn_big_output_box_relu"
  type: "ReLU"
  bottom: "rpn_big_output_box"
  top: "rpn_big_output_box"
  relu_param {
    negative_slope: 0
  }
}
layer {
  name: "rpn_big_bbox_pred"
  type: "Convolution"
  bottom: "rpn_big_output_box"
  top: "rpn_big_bbox_pred"
  param {
    lr_mult: 1
  }
  param {
    lr_mult: 2
  }
  convolution_param {
    num_output: 104
    pad: 0
    kernel_size: 3
    stride: 1
    weight_filler {
      type: "gaussian"
      mean: 0
      std: 0.01
    }
    bias_filler {
      type: "constant"
    }
  }
}
layer {
  name: "rpn_big_loss_bbox"
  type: "Python"
  bottom: "rpn_big_bbox_pred"
  bottom: "rpn_big_anchor_target_bbox_targets"
  bottom: "rpn_big_anchor_target_inside_weights"
  bottom: "rpn_big_anchor_target_outside_weights"
  top: "rpn_big_loss_bbox"
  loss_weight: 1
  python_param {
    module: "layers.smooth_l1_loss"
    layer: "SmoothL1LossLayer"
    param_str: "{\"sigma\": 3}"
  }
}
layer {
  name: "proposal"
  type: "Python"
  bottom: "rpn_big_cls_prob_reshape"
  bottom: "rpn_big_bbox_pred"
  bottom: "input_im_info"
  top: "rpn_rois"
  python_param {
    module: "rpn.proposal_layer"
    layer: "ProposalLayer"
    param_str: "{\"anchor_shift_num_xy\": [[2, 2], [2, 2], [2, 2], [2, 2], [1, 1], [1, 1], [1, 1], [1, 1], [1, 1], [1, 1], [1, 1], [1, 1], [1, 1], [1, 1]], \"feat_stride\": 16, \"num_classes\": 1, \"anchor_scales\": [2.5, 3.025, 3.66025, 4.4289024999999995, 5.358972025, 6.484356150249999, 7.846070941802498, 9.493745839581022, 11.487432465893036, 13.899793283730574, 16.818749873313998, 20.350687346709933, 24.62433168951902, 29.795441344318014], \"square_targets\": true, \"name\": \"rpn_big\", \"batchsize\": 256, \"anchor_ratios\": [1.0]}"
  }
}
layer {
  name: "roi-data"
  type: "Python"
  bottom: "rpn_rois"
  bottom: "input_gt_boxes"
  top: "rois"
  top: "labels"
  top: "bbox_targets"
  top: "bbox_inside_weights"
  top: "bbox_outside_weights"
  top: "pid_label"
  python_param {
    module: "rpn.proposal_target_layer"
    layer: "ProposalTargetLayer"
    param_str: "{\"num_classes\": 2, \"bg_aux_label\": 5532}"
  }
}
layer {
  name: "roi-pool"
  type: "ROIPooling"
  bottom: "conv5_3"
  bottom: "rois"
  top: "roi-pool"
  roi_pooling_param {
    pooled_h: 7
    pooled_w: 7
    spatial_scale: 0.0625
  }
}
layer {
  name: "fc6"
  type: "InnerProduct"
  bottom: "roi-pool"
  top: "fc6"
  param {
    lr_mult: 1
  }
  param {
    lr_mult: 2
  }
  inner_product_param {
    num_output: 4096
  }
}
layer {
  name: "relu6"
  type: "ReLU"
  bottom: "fc6"
  top: "fc6"
}
layer {
  name: "drop6"
  type: "Dropout"
  bottom: "fc6"
  top: "fc6"
  dropout_param {
    dropout_ratio: 0.5
  }
}
layer {
  name: "fc7"
  type: "InnerProduct"
  bottom: "fc6"
  top: "fc7"
  param {
    lr_mult: 1
  }
  param {
    lr_mult: 2
  }
  inner_product_param {
    num_output: 4096
  }
}
layer {
  name: "relu7"
  type: "ReLU"
  bottom: "fc7"
  top: "fc7"
}
layer {
  name: "drop7"
  type: "Dropout"
  bottom: "fc7"
  top: "fc7"
  dropout_param {
    dropout_ratio: 0.5
  }
}
layer {
  name: "bbox_pred"
  type: "InnerProduct"
  bottom: "fc7"
  top: "bbox_pred"
  param {
    lr_mult: 1
  }
  param {
    lr_mult: 2
  }
  inner_product_param {
    num_output: 8
    weight_filler {
      type: "gaussian"
      std: 0.001
    }
    bias_filler {
      type: "constant"
      value: 0
    }
  }
}
layer {
  name: "loss_bbox"
  type: "SmoothL1Loss"
  bottom: "bbox_pred"
  bottom: "bbox_targets"
  bottom: "bbox_inside_weights"
  bottom: "bbox_outside_weights"
  top: "loss_bbox"
  loss_weight: 1
}
layer {
  name: "feat"
  type: "InnerProduct"
  bottom: "fc7"
  top: "feat"
  param {
    lr_mult: 1
    decay_mult: 1
  }
  param {
    lr_mult: 2
    decay_mult: 0
  }
  inner_product_param {
    num_output: 256
    weight_filler {
      type: "gaussian"
      std: 0.01
    }
    bias_filler {
      type: "constant"
      value: 0
    }
  }
}
layer {
  name: "relu8"
  type: "ReLU"
  bottom: "feat"
  top: "feat"
}
layer {
  name: "drop8"
  type: "Dropout"
  bottom: "feat"
  top: "feat"
  dropout_param {
    dropout_ratio: 0.5
  }
}
layer {
  name: "pid_score"
  type: "InnerProduct"
  bottom: "feat"
  top: "pid_score"
  param {
    lr_mult: 1
    decay_mult: 1
  }
  param {
    lr_mult: 2
    decay_mult: 0
  }
  inner_product_param {
    num_output: 5533
    weight_filler {
      type: "gaussian"
      std: 0.001
    }
    bias_filler {
      type: "constant"
      value: 0
    }
  }
}
layer {
  name: "pid_loss"
  type: "SoftmaxWithLoss"
  bottom: "pid_score"
  bottom: "pid_label"
  top: "pid_loss"
  loss_weight: 1
  propagate_down: true
  propagate_down: false
  loss_param {
    ignore_label: -1
    normalize: true
  }
}
I0413 19:06:17.441377 15200 layer_factory.hpp:77] Creating layer input
I0413 19:06:17.442582 15200 net.cpp:100] Creating Layer input
I0413 19:06:17.442598 15200 net.cpp:408] input -> input_data
I0413 19:06:17.442610 15200 net.cpp:408] input -> input_im_info
I0413 19:06:17.442617 15200 net.cpp:408] input -> input_gt_boxes
I0413 19:06:17.442625 15200 net.cpp:408] input -> input_ignored_boxes
RoiDataLayer: name_to_top: {'data': 0, 'ignored_boxes': 3, 'im_info': 1, 'gt_boxes': 2}
I0413 19:06:17.757292 15200 net.cpp:150] Setting up input
I0413 19:06:17.757324 15200 net.cpp:157] Top shape: 1 3 1000 1500 (4500000)
I0413 19:06:17.757333 15200 net.cpp:157] Top shape: 1 3 (3)
I0413 19:06:17.757341 15200 net.cpp:157] Top shape: 1 5 (5)
I0413 19:06:17.757349 15200 net.cpp:157] Top shape: 1 5 (5)
I0413 19:06:17.757354 15200 net.cpp:165] Memory required for data: 18000052
I0413 19:06:17.757365 15200 layer_factory.hpp:77] Creating layer input_data_input_0_split
I0413 19:06:17.757385 15200 net.cpp:100] Creating Layer input_data_input_0_split
I0413 19:06:17.757393 15200 net.cpp:434] input_data_input_0_split <- input_data
I0413 19:06:17.757406 15200 net.cpp:408] input_data_input_0_split -> input_data_input_0_split_0
I0413 19:06:17.757426 15200 net.cpp:408] input_data_input_0_split -> input_data_input_0_split_1
I0413 19:06:17.757465 15200 net.cpp:150] Setting up input_data_input_0_split
I0413 19:06:17.757477 15200 net.cpp:157] Top shape: 1 3 1000 1500 (4500000)
I0413 19:06:17.757485 15200 net.cpp:157] Top shape: 1 3 1000 1500 (4500000)
I0413 19:06:17.757491 15200 net.cpp:165] Memory required for data: 54000052
I0413 19:06:17.757498 15200 layer_factory.hpp:77] Creating layer input_im_info_input_1_split
I0413 19:06:17.757508 15200 net.cpp:100] Creating Layer input_im_info_input_1_split
I0413 19:06:17.757516 15200 net.cpp:434] input_im_info_input_1_split <- input_im_info
I0413 19:06:17.757526 15200 net.cpp:408] input_im_info_input_1_split -> input_im_info_input_1_split_0
I0413 19:06:17.757542 15200 net.cpp:408] input_im_info_input_1_split -> input_im_info_input_1_split_1
I0413 19:06:17.757580 15200 net.cpp:150] Setting up input_im_info_input_1_split
I0413 19:06:17.757591 15200 net.cpp:157] Top shape: 1 3 (3)
I0413 19:06:17.757597 15200 net.cpp:157] Top shape: 1 3 (3)
I0413 19:06:17.757604 15200 net.cpp:165] Memory required for data: 54000076
I0413 19:06:17.757611 15200 layer_factory.hpp:77] Creating layer input_gt_boxes_input_2_split
I0413 19:06:17.757623 15200 net.cpp:100] Creating Layer input_gt_boxes_input_2_split
I0413 19:06:17.757630 15200 net.cpp:434] input_gt_boxes_input_2_split <- input_gt_boxes
I0413 19:06:17.757640 15200 net.cpp:408] input_gt_boxes_input_2_split -> input_gt_boxes_input_2_split_0
I0413 19:06:17.757657 15200 net.cpp:408] input_gt_boxes_input_2_split -> input_gt_boxes_input_2_split_1
I0413 19:06:17.757694 15200 net.cpp:150] Setting up input_gt_boxes_input_2_split
I0413 19:06:17.757706 15200 net.cpp:157] Top shape: 1 5 (5)
I0413 19:06:17.757716 15200 net.cpp:157] Top shape: 1 5 (5)
I0413 19:06:17.757724 15200 net.cpp:165] Memory required for data: 54000116
I0413 19:06:17.757730 15200 layer_factory.hpp:77] Creating layer conv1_1
I0413 19:06:17.757748 15200 net.cpp:100] Creating Layer conv1_1
I0413 19:06:17.757755 15200 net.cpp:434] conv1_1 <- input_data_input_0_split_0
I0413 19:06:17.757766 15200 net.cpp:408] conv1_1 -> conv1_1
I0413 19:06:17.760831 15200 net.cpp:150] Setting up conv1_1
I0413 19:06:17.760870 15200 net.cpp:157] Top shape: 1 64 1000 1500 (96000000)
I0413 19:06:17.760876 15200 net.cpp:165] Memory required for data: 438000116
I0413 19:06:17.760901 15200 layer_factory.hpp:77] Creating layer relu1_1
I0413 19:06:17.760936 15200 net.cpp:100] Creating Layer relu1_1
I0413 19:06:17.760962 15200 net.cpp:434] relu1_1 <- conv1_1
I0413 19:06:17.760984 15200 net.cpp:395] relu1_1 -> conv1_1 (in-place)
I0413 19:06:17.761013 15200 net.cpp:150] Setting up relu1_1
I0413 19:06:17.761034 15200 net.cpp:157] Top shape: 1 64 1000 1500 (96000000)
I0413 19:06:17.761050 15200 net.cpp:165] Memory required for data: 822000116
I0413 19:06:17.761067 15200 layer_factory.hpp:77] Creating layer conv1_2
I0413 19:06:17.761096 15200 net.cpp:100] Creating Layer conv1_2
I0413 19:06:17.761116 15200 net.cpp:434] conv1_2 <- conv1_1
I0413 19:06:17.761139 15200 net.cpp:408] conv1_2 -> conv1_2
I0413 19:06:17.765089 15200 net.cpp:150] Setting up conv1_2
I0413 19:06:17.765139 15200 net.cpp:157] Top shape: 1 64 1000 1500 (96000000)
I0413 19:06:17.765146 15200 net.cpp:165] Memory required for data: 1206000116
I0413 19:06:17.765169 15200 layer_factory.hpp:77] Creating layer relu1_2
I0413 19:06:17.765184 15200 net.cpp:100] Creating Layer relu1_2
I0413 19:06:17.765192 15200 net.cpp:434] relu1_2 <- conv1_2
I0413 19:06:17.765202 15200 net.cpp:395] relu1_2 -> conv1_2 (in-place)
I0413 19:06:17.765215 15200 net.cpp:150] Setting up relu1_2
I0413 19:06:17.765223 15200 net.cpp:157] Top shape: 1 64 1000 1500 (96000000)
I0413 19:06:17.765226 15200 net.cpp:165] Memory required for data: 1590000116
I0413 19:06:17.765231 15200 layer_factory.hpp:77] Creating layer pool1
I0413 19:06:17.765245 15200 net.cpp:100] Creating Layer pool1
I0413 19:06:17.765251 15200 net.cpp:434] pool1 <- conv1_2
I0413 19:06:17.765259 15200 net.cpp:408] pool1 -> pool1
I0413 19:06:17.765357 15200 net.cpp:150] Setting up pool1
I0413 19:06:17.765368 15200 net.cpp:157] Top shape: 1 64 500 750 (24000000)
I0413 19:06:17.765373 15200 net.cpp:165] Memory required for data: 1686000116
I0413 19:06:17.765379 15200 layer_factory.hpp:77] Creating layer conv2_1
I0413 19:06:17.765396 15200 net.cpp:100] Creating Layer conv2_1
I0413 19:06:17.765403 15200 net.cpp:434] conv2_1 <- pool1
I0413 19:06:17.765413 15200 net.cpp:408] conv2_1 -> conv2_1
I0413 19:06:17.766705 15200 net.cpp:150] Setting up conv2_1
I0413 19:06:17.766727 15200 net.cpp:157] Top shape: 1 128 500 750 (48000000)
I0413 19:06:17.766731 15200 net.cpp:165] Memory required for data: 1878000116
I0413 19:06:17.766754 15200 layer_factory.hpp:77] Creating layer relu2_1
I0413 19:06:17.766762 15200 net.cpp:100] Creating Layer relu2_1
I0413 19:06:17.766767 15200 net.cpp:434] relu2_1 <- conv2_1
I0413 19:06:17.766773 15200 net.cpp:395] relu2_1 -> conv2_1 (in-place)
I0413 19:06:17.766782 15200 net.cpp:150] Setting up relu2_1
I0413 19:06:17.766786 15200 net.cpp:157] Top shape: 1 128 500 750 (48000000)
I0413 19:06:17.766789 15200 net.cpp:165] Memory required for data: 2070000116
I0413 19:06:17.766793 15200 layer_factory.hpp:77] Creating layer conv2_2
I0413 19:06:17.766801 15200 net.cpp:100] Creating Layer conv2_2
I0413 19:06:17.766804 15200 net.cpp:434] conv2_2 <- conv2_1
I0413 19:06:17.766810 15200 net.cpp:408] conv2_2 -> conv2_2
I0413 19:06:17.767768 15200 net.cpp:150] Setting up conv2_2
I0413 19:06:17.767789 15200 net.cpp:157] Top shape: 1 128 500 750 (48000000)
I0413 19:06:17.767793 15200 net.cpp:165] Memory required for data: 2262000116
I0413 19:06:17.767812 15200 layer_factory.hpp:77] Creating layer relu2_2
I0413 19:06:17.767818 15200 net.cpp:100] Creating Layer relu2_2
I0413 19:06:17.767824 15200 net.cpp:434] relu2_2 <- conv2_2
I0413 19:06:17.767832 15200 net.cpp:395] relu2_2 -> conv2_2 (in-place)
I0413 19:06:17.767839 15200 net.cpp:150] Setting up relu2_2
I0413 19:06:17.767843 15200 net.cpp:157] Top shape: 1 128 500 750 (48000000)
I0413 19:06:17.767846 15200 net.cpp:165] Memory required for data: 2454000116
I0413 19:06:17.767849 15200 layer_factory.hpp:77] Creating layer pool2
I0413 19:06:17.767855 15200 net.cpp:100] Creating Layer pool2
I0413 19:06:17.767858 15200 net.cpp:434] pool2 <- conv2_2
I0413 19:06:17.767864 15200 net.cpp:408] pool2 -> pool2
I0413 19:06:17.767907 15200 net.cpp:150] Setting up pool2
I0413 19:06:17.767915 15200 net.cpp:157] Top shape: 1 128 250 375 (12000000)
I0413 19:06:17.767917 15200 net.cpp:165] Memory required for data: 2502000116
I0413 19:06:17.767921 15200 layer_factory.hpp:77] Creating layer conv3_1
I0413 19:06:17.767930 15200 net.cpp:100] Creating Layer conv3_1
I0413 19:06:17.767935 15200 net.cpp:434] conv3_1 <- pool2
I0413 19:06:17.767940 15200 net.cpp:408] conv3_1 -> conv3_1
I0413 19:06:17.769650 15200 net.cpp:150] Setting up conv3_1
I0413 19:06:17.769722 15200 net.cpp:157] Top shape: 1 256 250 375 (24000000)
I0413 19:06:17.769742 15200 net.cpp:165] Memory required for data: 2598000116
I0413 19:06:17.769775 15200 layer_factory.hpp:77] Creating layer relu3_1
I0413 19:06:17.769801 15200 net.cpp:100] Creating Layer relu3_1
I0413 19:06:17.769821 15200 net.cpp:434] relu3_1 <- conv3_1
I0413 19:06:17.769843 15200 net.cpp:395] relu3_1 -> conv3_1 (in-place)
I0413 19:06:17.769870 15200 net.cpp:150] Setting up relu3_1
I0413 19:06:17.769891 15200 net.cpp:157] Top shape: 1 256 250 375 (24000000)
I0413 19:06:17.769909 15200 net.cpp:165] Memory required for data: 2694000116
I0413 19:06:17.769928 15200 layer_factory.hpp:77] Creating layer conv3_2
I0413 19:06:17.769959 15200 net.cpp:100] Creating Layer conv3_2
I0413 19:06:17.769979 15200 net.cpp:434] conv3_2 <- conv3_1
I0413 19:06:17.770001 15200 net.cpp:408] conv3_2 -> conv3_2
I0413 19:06:17.771265 15200 net.cpp:150] Setting up conv3_2
I0413 19:06:17.771296 15200 net.cpp:157] Top shape: 1 256 250 375 (24000000)
I0413 19:06:17.771302 15200 net.cpp:165] Memory required for data: 2790000116
I0413 19:06:17.771316 15200 layer_factory.hpp:77] Creating layer relu3_2
I0413 19:06:17.771328 15200 net.cpp:100] Creating Layer relu3_2
I0413 19:06:17.771337 15200 net.cpp:434] relu3_2 <- conv3_2
I0413 19:06:17.771347 15200 net.cpp:395] relu3_2 -> conv3_2 (in-place)
I0413 19:06:17.771360 15200 net.cpp:150] Setting up relu3_2
I0413 19:06:17.771369 15200 net.cpp:157] Top shape: 1 256 250 375 (24000000)
I0413 19:06:17.771375 15200 net.cpp:165] Memory required for data: 2886000116
I0413 19:06:17.771380 15200 layer_factory.hpp:77] Creating layer conv3_3
I0413 19:06:17.771396 15200 net.cpp:100] Creating Layer conv3_3
I0413 19:06:17.771402 15200 net.cpp:434] conv3_3 <- conv3_2
I0413 19:06:17.771415 15200 net.cpp:408] conv3_3 -> conv3_3
I0413 19:06:17.773031 15200 net.cpp:150] Setting up conv3_3
I0413 19:06:17.773066 15200 net.cpp:157] Top shape: 1 256 250 375 (24000000)
I0413 19:06:17.773072 15200 net.cpp:165] Memory required for data: 2982000116
I0413 19:06:17.773094 15200 layer_factory.hpp:77] Creating layer relu3_3
I0413 19:06:17.773111 15200 net.cpp:100] Creating Layer relu3_3
I0413 19:06:17.773123 15200 net.cpp:434] relu3_3 <- conv3_3
I0413 19:06:17.773134 15200 net.cpp:395] relu3_3 -> conv3_3 (in-place)
I0413 19:06:17.773150 15200 net.cpp:150] Setting up relu3_3
I0413 19:06:17.773160 15200 net.cpp:157] Top shape: 1 256 250 375 (24000000)
I0413 19:06:17.773166 15200 net.cpp:165] Memory required for data: 3078000116
I0413 19:06:17.773174 15200 layer_factory.hpp:77] Creating layer pool3
I0413 19:06:17.773186 15200 net.cpp:100] Creating Layer pool3
I0413 19:06:17.773193 15200 net.cpp:434] pool3 <- conv3_3
I0413 19:06:17.773203 15200 net.cpp:408] pool3 -> pool3
I0413 19:06:17.773260 15200 net.cpp:150] Setting up pool3
I0413 19:06:17.773269 15200 net.cpp:157] Top shape: 1 256 125 188 (6016000)
I0413 19:06:17.773277 15200 net.cpp:165] Memory required for data: 3102064116
I0413 19:06:17.773283 15200 layer_factory.hpp:77] Creating layer conv4_1
I0413 19:06:17.773299 15200 net.cpp:100] Creating Layer conv4_1
I0413 19:06:17.773308 15200 net.cpp:434] conv4_1 <- pool3
I0413 19:06:17.773319 15200 net.cpp:408] conv4_1 -> conv4_1
I0413 19:06:17.775975 15200 net.cpp:150] Setting up conv4_1
I0413 19:06:17.776010 15200 net.cpp:157] Top shape: 1 512 125 188 (12032000)
I0413 19:06:17.776016 15200 net.cpp:165] Memory required for data: 3150192116
I0413 19:06:17.776032 15200 layer_factory.hpp:77] Creating layer relu4_1
I0413 19:06:17.776049 15200 net.cpp:100] Creating Layer relu4_1
I0413 19:06:17.776058 15200 net.cpp:434] relu4_1 <- conv4_1
I0413 19:06:17.776072 15200 net.cpp:395] relu4_1 -> conv4_1 (in-place)
I0413 19:06:17.776087 15200 net.cpp:150] Setting up relu4_1
I0413 19:06:17.776096 15200 net.cpp:157] Top shape: 1 512 125 188 (12032000)
I0413 19:06:17.776103 15200 net.cpp:165] Memory required for data: 3198320116
I0413 19:06:17.776110 15200 layer_factory.hpp:77] Creating layer conv4_2
I0413 19:06:17.776126 15200 net.cpp:100] Creating Layer conv4_2
I0413 19:06:17.776134 15200 net.cpp:434] conv4_2 <- conv4_1
I0413 19:06:17.776145 15200 net.cpp:408] conv4_2 -> conv4_2
I0413 19:06:17.780354 15200 net.cpp:150] Setting up conv4_2
I0413 19:06:17.780391 15200 net.cpp:157] Top shape: 1 512 125 188 (12032000)
I0413 19:06:17.780397 15200 net.cpp:165] Memory required for data: 3246448116
I0413 19:06:17.780421 15200 layer_factory.hpp:77] Creating layer relu4_2
I0413 19:06:17.780438 15200 net.cpp:100] Creating Layer relu4_2
I0413 19:06:17.780448 15200 net.cpp:434] relu4_2 <- conv4_2
I0413 19:06:17.780462 15200 net.cpp:395] relu4_2 -> conv4_2 (in-place)
I0413 19:06:17.780477 15200 net.cpp:150] Setting up relu4_2
I0413 19:06:17.780485 15200 net.cpp:157] Top shape: 1 512 125 188 (12032000)
I0413 19:06:17.780493 15200 net.cpp:165] Memory required for data: 3294576116
I0413 19:06:17.780499 15200 layer_factory.hpp:77] Creating layer conv4_3
I0413 19:06:17.780517 15200 net.cpp:100] Creating Layer conv4_3
I0413 19:06:17.780524 15200 net.cpp:434] conv4_3 <- conv4_2
I0413 19:06:17.780534 15200 net.cpp:408] conv4_3 -> conv4_3
I0413 19:06:17.785025 15200 net.cpp:150] Setting up conv4_3
I0413 19:06:17.785060 15200 net.cpp:157] Top shape: 1 512 125 188 (12032000)
I0413 19:06:17.785068 15200 net.cpp:165] Memory required for data: 3342704116
I0413 19:06:17.785089 15200 layer_factory.hpp:77] Creating layer relu4_3
I0413 19:06:17.785105 15200 net.cpp:100] Creating Layer relu4_3
I0413 19:06:17.785115 15200 net.cpp:434] relu4_3 <- conv4_3
I0413 19:06:17.785135 15200 net.cpp:395] relu4_3 -> conv4_3 (in-place)
I0413 19:06:17.785151 15200 net.cpp:150] Setting up relu4_3
I0413 19:06:17.785159 15200 net.cpp:157] Top shape: 1 512 125 188 (12032000)
I0413 19:06:17.785167 15200 net.cpp:165] Memory required for data: 3390832116
I0413 19:06:17.785173 15200 layer_factory.hpp:77] Creating layer pool4
I0413 19:06:17.785187 15200 net.cpp:100] Creating Layer pool4
I0413 19:06:17.785194 15200 net.cpp:434] pool4 <- conv4_3
I0413 19:06:17.785202 15200 net.cpp:408] pool4 -> pool4
I0413 19:06:17.785256 15200 net.cpp:150] Setting up pool4
I0413 19:06:17.785266 15200 net.cpp:157] Top shape: 1 512 63 94 (3032064)
I0413 19:06:17.785274 15200 net.cpp:165] Memory required for data: 3402960372
I0413 19:06:17.785280 15200 layer_factory.hpp:77] Creating layer conv5_1
I0413 19:06:17.785296 15200 net.cpp:100] Creating Layer conv5_1
I0413 19:06:17.785302 15200 net.cpp:434] conv5_1 <- pool4
I0413 19:06:17.785312 15200 net.cpp:408] conv5_1 -> conv5_1
I0413 19:06:17.790944 15200 net.cpp:150] Setting up conv5_1
I0413 19:06:17.790979 15200 net.cpp:157] Top shape: 1 512 63 94 (3032064)
I0413 19:06:17.790987 15200 net.cpp:165] Memory required for data: 3415088628
I0413 19:06:17.791002 15200 layer_factory.hpp:77] Creating layer relu5_1
I0413 19:06:17.791018 15200 net.cpp:100] Creating Layer relu5_1
I0413 19:06:17.791025 15200 net.cpp:434] relu5_1 <- conv5_1
I0413 19:06:17.791038 15200 net.cpp:395] relu5_1 -> conv5_1 (in-place)
I0413 19:06:17.791052 15200 net.cpp:150] Setting up relu5_1
I0413 19:06:17.791064 15200 net.cpp:157] Top shape: 1 512 63 94 (3032064)
I0413 19:06:17.791069 15200 net.cpp:165] Memory required for data: 3427216884
I0413 19:06:17.791075 15200 layer_factory.hpp:77] Creating layer conv5_2
I0413 19:06:17.791090 15200 net.cpp:100] Creating Layer conv5_2
I0413 19:06:17.791098 15200 net.cpp:434] conv5_2 <- conv5_1
I0413 19:06:17.791110 15200 net.cpp:408] conv5_2 -> conv5_2
I0413 19:06:17.795601 15200 net.cpp:150] Setting up conv5_2
I0413 19:06:17.795636 15200 net.cpp:157] Top shape: 1 512 63 94 (3032064)
I0413 19:06:17.795642 15200 net.cpp:165] Memory required for data: 3439345140
I0413 19:06:17.795673 15200 layer_factory.hpp:77] Creating layer relu5_2
I0413 19:06:17.795688 15200 net.cpp:100] Creating Layer relu5_2
I0413 19:06:17.795696 15200 net.cpp:434] relu5_2 <- conv5_2
I0413 19:06:17.795706 15200 net.cpp:395] relu5_2 -> conv5_2 (in-place)
I0413 19:06:17.795718 15200 net.cpp:150] Setting up relu5_2
I0413 19:06:17.795727 15200 net.cpp:157] Top shape: 1 512 63 94 (3032064)
I0413 19:06:17.795732 15200 net.cpp:165] Memory required for data: 3451473396
I0413 19:06:17.795737 15200 layer_factory.hpp:77] Creating layer conv5_3
I0413 19:06:17.795765 15200 net.cpp:100] Creating Layer conv5_3
I0413 19:06:17.795771 15200 net.cpp:434] conv5_3 <- conv5_2
I0413 19:06:17.795783 15200 net.cpp:408] conv5_3 -> conv5_3
I0413 19:06:17.800272 15200 net.cpp:150] Setting up conv5_3
I0413 19:06:17.800309 15200 net.cpp:157] Top shape: 1 512 63 94 (3032064)
I0413 19:06:17.800315 15200 net.cpp:165] Memory required for data: 3463601652
I0413 19:06:17.800338 15200 layer_factory.hpp:77] Creating layer relu5_3
I0413 19:06:17.800351 15200 net.cpp:100] Creating Layer relu5_3
I0413 19:06:17.800357 15200 net.cpp:434] relu5_3 <- conv5_3
I0413 19:06:17.800369 15200 net.cpp:395] relu5_3 -> conv5_3 (in-place)
I0413 19:06:17.800385 15200 net.cpp:150] Setting up relu5_3
I0413 19:06:17.800395 15200 net.cpp:157] Top shape: 1 512 63 94 (3032064)
I0413 19:06:17.800402 15200 net.cpp:165] Memory required for data: 3475729908
I0413 19:06:17.800408 15200 layer_factory.hpp:77] Creating layer conv5_3_relu5_3_0_split
I0413 19:06:17.800421 15200 net.cpp:100] Creating Layer conv5_3_relu5_3_0_split
I0413 19:06:17.800429 15200 net.cpp:434] conv5_3_relu5_3_0_split <- conv5_3
I0413 19:06:17.800439 15200 net.cpp:408] conv5_3_relu5_3_0_split -> conv5_3_relu5_3_0_split_0
I0413 19:06:17.800452 15200 net.cpp:408] conv5_3_relu5_3_0_split -> conv5_3_relu5_3_0_split_1
I0413 19:06:17.800494 15200 net.cpp:150] Setting up conv5_3_relu5_3_0_split
I0413 19:06:17.800504 15200 net.cpp:157] Top shape: 1 512 63 94 (3032064)
I0413 19:06:17.800513 15200 net.cpp:157] Top shape: 1 512 63 94 (3032064)
I0413 19:06:17.800518 15200 net.cpp:165] Memory required for data: 3499986420
I0413 19:06:17.800524 15200 layer_factory.hpp:77] Creating layer rpn_big_conv1
I0413 19:06:17.800544 15200 net.cpp:100] Creating Layer rpn_big_conv1
I0413 19:06:17.800554 15200 net.cpp:434] rpn_big_conv1 <- conv5_3_relu5_3_0_split_0
I0413 19:06:17.800566 15200 net.cpp:408] rpn_big_conv1 -> rpn_big_conv1
I0413 19:06:17.828057 15200 net.cpp:150] Setting up rpn_big_conv1
I0413 19:06:17.828089 15200 net.cpp:157] Top shape: 1 512 63 94 (3032064)
I0413 19:06:17.828096 15200 net.cpp:165] Memory required for data: 3512114676
I0413 19:06:17.828119 15200 layer_factory.hpp:77] Creating layer rpn_big_conv1_relu
I0413 19:06:17.828135 15200 net.cpp:100] Creating Layer rpn_big_conv1_relu
I0413 19:06:17.828146 15200 net.cpp:434] rpn_big_conv1_relu <- rpn_big_conv1
I0413 19:06:17.828160 15200 net.cpp:395] rpn_big_conv1_relu -> rpn_big_conv1 (in-place)
I0413 19:06:17.828176 15200 net.cpp:150] Setting up rpn_big_conv1_relu
I0413 19:06:17.828186 15200 net.cpp:157] Top shape: 1 512 63 94 (3032064)
I0413 19:06:17.828192 15200 net.cpp:165] Memory required for data: 3524242932
I0413 19:06:17.828198 15200 layer_factory.hpp:77] Creating layer rpn_big_conv2
I0413 19:06:17.828217 15200 net.cpp:100] Creating Layer rpn_big_conv2
I0413 19:06:17.828225 15200 net.cpp:434] rpn_big_conv2 <- rpn_big_conv1
I0413 19:06:17.828239 15200 net.cpp:408] rpn_big_conv2 -> rpn_big_conv2
I0413 19:06:17.854631 15200 net.cpp:150] Setting up rpn_big_conv2
I0413 19:06:17.854665 15200 net.cpp:157] Top shape: 1 512 63 94 (3032064)
I0413 19:06:17.854671 15200 net.cpp:165] Memory required for data: 3536371188
I0413 19:06:17.854693 15200 layer_factory.hpp:77] Creating layer rpn_big_conv2_relu
I0413 19:06:17.854708 15200 net.cpp:100] Creating Layer rpn_big_conv2_relu
I0413 19:06:17.854727 15200 net.cpp:434] rpn_big_conv2_relu <- rpn_big_conv2
I0413 19:06:17.854743 15200 net.cpp:395] rpn_big_conv2_relu -> rpn_big_conv2 (in-place)
I0413 19:06:17.854759 15200 net.cpp:150] Setting up rpn_big_conv2_relu
I0413 19:06:17.854769 15200 net.cpp:157] Top shape: 1 512 63 94 (3032064)
I0413 19:06:17.854775 15200 net.cpp:165] Memory required for data: 3548499444
I0413 19:06:17.854784 15200 layer_factory.hpp:77] Creating layer rpn_big_conv2_drop
I0413 19:06:17.854796 15200 net.cpp:100] Creating Layer rpn_big_conv2_drop
I0413 19:06:17.854805 15200 net.cpp:434] rpn_big_conv2_drop <- rpn_big_conv2
I0413 19:06:17.854817 15200 net.cpp:395] rpn_big_conv2_drop -> rpn_big_conv2 (in-place)
I0413 19:06:17.854848 15200 net.cpp:150] Setting up rpn_big_conv2_drop
I0413 19:06:17.854858 15200 net.cpp:157] Top shape: 1 512 63 94 (3032064)
I0413 19:06:17.854863 15200 net.cpp:165] Memory required for data: 3560627700
I0413 19:06:17.854871 15200 layer_factory.hpp:77] Creating layer rpn_big_conv2_rpn_big_conv2_drop_0_split
I0413 19:06:17.854883 15200 net.cpp:100] Creating Layer rpn_big_conv2_rpn_big_conv2_drop_0_split
I0413 19:06:17.854890 15200 net.cpp:434] rpn_big_conv2_rpn_big_conv2_drop_0_split <- rpn_big_conv2
I0413 19:06:17.854900 15200 net.cpp:408] rpn_big_conv2_rpn_big_conv2_drop_0_split -> rpn_big_conv2_rpn_big_conv2_drop_0_split_0
I0413 19:06:17.854917 15200 net.cpp:408] rpn_big_conv2_rpn_big_conv2_drop_0_split -> rpn_big_conv2_rpn_big_conv2_drop_0_split_1
I0413 19:06:17.854962 15200 net.cpp:150] Setting up rpn_big_conv2_rpn_big_conv2_drop_0_split
I0413 19:06:17.854974 15200 net.cpp:157] Top shape: 1 512 63 94 (3032064)
I0413 19:06:17.854982 15200 net.cpp:157] Top shape: 1 512 63 94 (3032064)
I0413 19:06:17.854990 15200 net.cpp:165] Memory required for data: 3584884212
I0413 19:06:17.854996 15200 layer_factory.hpp:77] Creating layer rpn_big_output_cls
I0413 19:06:17.855015 15200 net.cpp:100] Creating Layer rpn_big_output_cls
I0413 19:06:17.855023 15200 net.cpp:434] rpn_big_output_cls <- rpn_big_conv2_rpn_big_conv2_drop_0_split_0
I0413 19:06:17.855034 15200 net.cpp:408] rpn_big_output_cls -> rpn_big_output_cls
I0413 19:06:17.876459 15200 net.cpp:150] Setting up rpn_big_output_cls
I0413 19:06:17.876494 15200 net.cpp:157] Top shape: 1 384 63 94 (2274048)
I0413 19:06:17.876500 15200 net.cpp:165] Memory required for data: 3593980404
I0413 19:06:17.876514 15200 layer_factory.hpp:77] Creating layer rpn_big_output_cls_relu
I0413 19:06:17.876530 15200 net.cpp:100] Creating Layer rpn_big_output_cls_relu
I0413 19:06:17.876539 15200 net.cpp:434] rpn_big_output_cls_relu <- rpn_big_output_cls
I0413 19:06:17.876554 15200 net.cpp:395] rpn_big_output_cls_relu -> rpn_big_output_cls (in-place)
I0413 19:06:17.876569 15200 net.cpp:150] Setting up rpn_big_output_cls_relu
I0413 19:06:17.876577 15200 net.cpp:157] Top shape: 1 384 63 94 (2274048)
I0413 19:06:17.876585 15200 net.cpp:165] Memory required for data: 3603076596
I0413 19:06:17.876590 15200 layer_factory.hpp:77] Creating layer rpn_big_cls_score
I0413 19:06:17.876610 15200 net.cpp:100] Creating Layer rpn_big_cls_score
I0413 19:06:17.876616 15200 net.cpp:434] rpn_big_cls_score <- rpn_big_output_cls
I0413 19:06:17.876628 15200 net.cpp:408] rpn_big_cls_score -> rpn_big_cls_score
I0413 19:06:17.878963 15200 net.cpp:150] Setting up rpn_big_cls_score
I0413 19:06:17.878979 15200 net.cpp:157] Top shape: 1 52 61 92 (291824)
I0413 19:06:17.878986 15200 net.cpp:165] Memory required for data: 3604243892
I0413 19:06:17.879006 15200 layer_factory.hpp:77] Creating layer rpn_big_cls_score_rpn_big_cls_score_0_split
I0413 19:06:17.879019 15200 net.cpp:100] Creating Layer rpn_big_cls_score_rpn_big_cls_score_0_split
I0413 19:06:17.879026 15200 net.cpp:434] rpn_big_cls_score_rpn_big_cls_score_0_split <- rpn_big_cls_score
I0413 19:06:17.879037 15200 net.cpp:408] rpn_big_cls_score_rpn_big_cls_score_0_split -> rpn_big_cls_score_rpn_big_cls_score_0_split_0
I0413 19:06:17.879050 15200 net.cpp:408] rpn_big_cls_score_rpn_big_cls_score_0_split -> rpn_big_cls_score_rpn_big_cls_score_0_split_1
I0413 19:06:17.879091 15200 net.cpp:150] Setting up rpn_big_cls_score_rpn_big_cls_score_0_split
I0413 19:06:17.879101 15200 net.cpp:157] Top shape: 1 52 61 92 (291824)
I0413 19:06:17.879111 15200 net.cpp:157] Top shape: 1 52 61 92 (291824)
I0413 19:06:17.879117 15200 net.cpp:165] Memory required for data: 3606578484
I0413 19:06:17.879123 15200 layer_factory.hpp:77] Creating layer rpn_big_cls_score_reshape
I0413 19:06:17.879137 15200 net.cpp:100] Creating Layer rpn_big_cls_score_reshape
I0413 19:06:17.879144 15200 net.cpp:434] rpn_big_cls_score_reshape <- rpn_big_cls_score_rpn_big_cls_score_0_split_0
I0413 19:06:17.879156 15200 net.cpp:408] rpn_big_cls_score_reshape -> rpn_big_cls_score_reshape
I0413 19:06:17.879189 15200 net.cpp:150] Setting up rpn_big_cls_score_reshape
I0413 19:06:17.879199 15200 net.cpp:157] Top shape: 1 2 1586 92 (291824)
I0413 19:06:17.879204 15200 net.cpp:165] Memory required for data: 3607745780
I0413 19:06:17.879214 15200 layer_factory.hpp:77] Creating layer rpn_big_cls_score_reshape_rpn_big_cls_score_reshape_0_split
I0413 19:06:17.879225 15200 net.cpp:100] Creating Layer rpn_big_cls_score_reshape_rpn_big_cls_score_reshape_0_split
I0413 19:06:17.879231 15200 net.cpp:434] rpn_big_cls_score_reshape_rpn_big_cls_score_reshape_0_split <- rpn_big_cls_score_reshape
I0413 19:06:17.879245 15200 net.cpp:408] rpn_big_cls_score_reshape_rpn_big_cls_score_reshape_0_split -> rpn_big_cls_score_reshape_rpn_big_cls_score_reshape_0_split_0
I0413 19:06:17.879257 15200 net.cpp:408] rpn_big_cls_score_reshape_rpn_big_cls_score_reshape_0_split -> rpn_big_cls_score_reshape_rpn_big_cls_score_reshape_0_split_1
I0413 19:06:17.879295 15200 net.cpp:150] Setting up rpn_big_cls_score_reshape_rpn_big_cls_score_reshape_0_split
I0413 19:06:17.879305 15200 net.cpp:157] Top shape: 1 2 1586 92 (291824)
I0413 19:06:17.879314 15200 net.cpp:157] Top shape: 1 2 1586 92 (291824)
I0413 19:06:17.879320 15200 net.cpp:165] Memory required for data: 3610080372
I0413 19:06:17.879328 15200 layer_factory.hpp:77] Creating layer rpn_big_cls_prob
I0413 19:06:17.879340 15200 net.cpp:100] Creating Layer rpn_big_cls_prob
I0413 19:06:17.879348 15200 net.cpp:434] rpn_big_cls_prob <- rpn_big_cls_score_reshape_rpn_big_cls_score_reshape_0_split_0
I0413 19:06:17.879357 15200 net.cpp:408] rpn_big_cls_prob -> rpn_big_cls_prob
I0413 19:06:17.879415 15200 net.cpp:150] Setting up rpn_big_cls_prob
I0413 19:06:17.879426 15200 net.cpp:157] Top shape: 1 2 1586 92 (291824)
I0413 19:06:17.879431 15200 net.cpp:165] Memory required for data: 3611247668
I0413 19:06:17.879439 15200 layer_factory.hpp:77] Creating layer rpn_big_cls_prob_reshape
I0413 19:06:17.879449 15200 net.cpp:100] Creating Layer rpn_big_cls_prob_reshape
I0413 19:06:17.879457 15200 net.cpp:434] rpn_big_cls_prob_reshape <- rpn_big_cls_prob
I0413 19:06:17.879467 15200 net.cpp:408] rpn_big_cls_prob_reshape -> rpn_big_cls_prob_reshape
I0413 19:06:17.879497 15200 net.cpp:150] Setting up rpn_big_cls_prob_reshape
I0413 19:06:17.879506 15200 net.cpp:157] Top shape: 1 52 61 92 (291824)
I0413 19:06:17.879514 15200 net.cpp:165] Memory required for data: 3612414964
I0413 19:06:17.879520 15200 layer_factory.hpp:77] Creating layer rpn_big_cls_prob_reshape_rpn_big_cls_prob_reshape_0_split
I0413 19:06:17.879530 15200 net.cpp:100] Creating Layer rpn_big_cls_prob_reshape_rpn_big_cls_prob_reshape_0_split
I0413 19:06:17.879539 15200 net.cpp:434] rpn_big_cls_prob_reshape_rpn_big_cls_prob_reshape_0_split <- rpn_big_cls_prob_reshape
I0413 19:06:17.879550 15200 net.cpp:408] rpn_big_cls_prob_reshape_rpn_big_cls_prob_reshape_0_split -> rpn_big_cls_prob_reshape_rpn_big_cls_prob_reshape_0_split_0
I0413 19:06:17.879565 15200 net.cpp:408] rpn_big_cls_prob_reshape_rpn_big_cls_prob_reshape_0_split -> rpn_big_cls_prob_reshape_rpn_big_cls_prob_reshape_0_split_1
I0413 19:06:17.879602 15200 net.cpp:150] Setting up rpn_big_cls_prob_reshape_rpn_big_cls_prob_reshape_0_split
I0413 19:06:17.879612 15200 net.cpp:157] Top shape: 1 52 61 92 (291824)
I0413 19:06:17.879622 15200 net.cpp:157] Top shape: 1 52 61 92 (291824)
I0413 19:06:17.879629 15200 net.cpp:165] Memory required for data: 3614749556
I0413 19:06:17.879636 15200 layer_factory.hpp:77] Creating layer rpn_big_anchor_target
I0413 19:06:17.880990 15200 net.cpp:100] Creating Layer rpn_big_anchor_target
I0413 19:06:17.881007 15200 net.cpp:434] rpn_big_anchor_target <- rpn_big_cls_score_rpn_big_cls_score_0_split_1
I0413 19:06:17.881017 15200 net.cpp:434] rpn_big_anchor_target <- input_gt_boxes_input_2_split_0
I0413 19:06:17.881026 15200 net.cpp:434] rpn_big_anchor_target <- input_ignored_boxes
I0413 19:06:17.881033 15200 net.cpp:434] rpn_big_anchor_target <- input_im_info_input_1_split_0
I0413 19:06:17.881043 15200 net.cpp:434] rpn_big_anchor_target <- input_data_input_0_split_1
I0413 19:06:17.881054 15200 net.cpp:434] rpn_big_anchor_target <- rpn_big_cls_prob_reshape_rpn_big_cls_prob_reshape_0_split_0
I0413 19:06:17.881067 15200 net.cpp:408] rpn_big_anchor_target -> rpn_big_anchor_target_labels
I0413 19:06:17.881083 15200 net.cpp:408] rpn_big_anchor_target -> rpn_big_anchor_target_bbox_targets
I0413 19:06:17.881098 15200 net.cpp:408] rpn_big_anchor_target -> rpn_big_anchor_target_inside_weights
I0413 19:06:17.881114 15200 net.cpp:408] rpn_big_anchor_target -> rpn_big_anchor_target_outside_weights
I0413 19:06:17.886374 15200 net.cpp:150] Setting up rpn_big_anchor_target
I0413 19:06:17.886404 15200 net.cpp:157] Top shape: 1 1 1586 92 (145912)
I0413 19:06:17.886442 15200 net.cpp:157] Top shape: 1 104 61 92 (583648)
I0413 19:06:17.886452 15200 net.cpp:157] Top shape: 1 104 61 92 (583648)
I0413 19:06:17.886461 15200 net.cpp:157] Top shape: 1 104 61 92 (583648)
I0413 19:06:17.886468 15200 net.cpp:165] Memory required for data: 3622336980
I0413 19:06:17.886478 15200 layer_factory.hpp:77] Creating layer rpn_big_loss_cls
I0413 19:06:17.886494 15200 net.cpp:100] Creating Layer rpn_big_loss_cls
I0413 19:06:17.886503 15200 net.cpp:434] rpn_big_loss_cls <- rpn_big_cls_score_reshape_rpn_big_cls_score_reshape_0_split_1
I0413 19:06:17.886515 15200 net.cpp:434] rpn_big_loss_cls <- rpn_big_anchor_target_labels
I0413 19:06:17.886528 15200 net.cpp:408] rpn_big_loss_cls -> rpn_big_loss_cls
I0413 19:06:17.886548 15200 layer_factory.hpp:77] Creating layer rpn_big_loss_cls
I0413 19:06:17.887254 15200 net.cpp:150] Setting up rpn_big_loss_cls
I0413 19:06:17.887270 15200 net.cpp:157] Top shape: (1)
I0413 19:06:17.887276 15200 net.cpp:160]     with loss weight 1
I0413 19:06:17.887293 15200 net.cpp:165] Memory required for data: 3622336984
I0413 19:06:17.887301 15200 layer_factory.hpp:77] Creating layer rpn_big_output_box
I0413 19:06:17.887321 15200 net.cpp:100] Creating Layer rpn_big_output_box
I0413 19:06:17.887329 15200 net.cpp:434] rpn_big_output_box <- rpn_big_conv2_rpn_big_conv2_drop_0_split_1
I0413 19:06:17.887342 15200 net.cpp:408] rpn_big_output_box -> rpn_big_output_box
I0413 19:06:17.908239 15200 net.cpp:150] Setting up rpn_big_output_box
I0413 19:06:17.908272 15200 net.cpp:157] Top shape: 1 384 63 94 (2274048)
I0413 19:06:17.908277 15200 net.cpp:165] Memory required for data: 3631433176
I0413 19:06:17.908300 15200 layer_factory.hpp:77] Creating layer rpn_big_output_box_relu
I0413 19:06:17.908318 15200 net.cpp:100] Creating Layer rpn_big_output_box_relu
I0413 19:06:17.908329 15200 net.cpp:434] rpn_big_output_box_relu <- rpn_big_output_box
I0413 19:06:17.908341 15200 net.cpp:395] rpn_big_output_box_relu -> rpn_big_output_box (in-place)
I0413 19:06:17.908360 15200 net.cpp:150] Setting up rpn_big_output_box_relu
I0413 19:06:17.908368 15200 net.cpp:157] Top shape: 1 384 63 94 (2274048)
I0413 19:06:17.908375 15200 net.cpp:165] Memory required for data: 3640529368
I0413 19:06:17.908382 15200 layer_factory.hpp:77] Creating layer rpn_big_bbox_pred
I0413 19:06:17.908401 15200 net.cpp:100] Creating Layer rpn_big_bbox_pred
I0413 19:06:17.908409 15200 net.cpp:434] rpn_big_bbox_pred <- rpn_big_output_box
I0413 19:06:17.908423 15200 net.cpp:408] rpn_big_bbox_pred -> rpn_big_bbox_pred
I0413 19:06:17.912619 15200 net.cpp:150] Setting up rpn_big_bbox_pred
I0413 19:06:17.912650 15200 net.cpp:157] Top shape: 1 104 61 92 (583648)
I0413 19:06:17.912657 15200 net.cpp:165] Memory required for data: 3642863960
I0413 19:06:17.912672 15200 layer_factory.hpp:77] Creating layer rpn_big_bbox_pred_rpn_big_bbox_pred_0_split
I0413 19:06:17.912684 15200 net.cpp:100] Creating Layer rpn_big_bbox_pred_rpn_big_bbox_pred_0_split
I0413 19:06:17.912693 15200 net.cpp:434] rpn_big_bbox_pred_rpn_big_bbox_pred_0_split <- rpn_big_bbox_pred
I0413 19:06:17.912706 15200 net.cpp:408] rpn_big_bbox_pred_rpn_big_bbox_pred_0_split -> rpn_big_bbox_pred_rpn_big_bbox_pred_0_split_0
I0413 19:06:17.912724 15200 net.cpp:408] rpn_big_bbox_pred_rpn_big_bbox_pred_0_split -> rpn_big_bbox_pred_rpn_big_bbox_pred_0_split_1
I0413 19:06:17.912773 15200 net.cpp:150] Setting up rpn_big_bbox_pred_rpn_big_bbox_pred_0_split
I0413 19:06:17.912783 15200 net.cpp:157] Top shape: 1 104 61 92 (583648)
I0413 19:06:17.912791 15200 net.cpp:157] Top shape: 1 104 61 92 (583648)
I0413 19:06:17.912797 15200 net.cpp:165] Memory required for data: 3647533144
I0413 19:06:17.912804 15200 layer_factory.hpp:77] Creating layer rpn_big_loss_bbox
I0413 19:06:17.913167 15200 net.cpp:100] Creating Layer rpn_big_loss_bbox
I0413 19:06:17.913178 15200 net.cpp:434] rpn_big_loss_bbox <- rpn_big_bbox_pred_rpn_big_bbox_pred_0_split_0
I0413 19:06:17.913187 15200 net.cpp:434] rpn_big_loss_bbox <- rpn_big_anchor_target_bbox_targets
I0413 19:06:17.913197 15200 net.cpp:434] rpn_big_loss_bbox <- rpn_big_anchor_target_inside_weights
I0413 19:06:17.913204 15200 net.cpp:434] rpn_big_loss_bbox <- rpn_big_anchor_target_outside_weights
I0413 19:06:17.913216 15200 net.cpp:408] rpn_big_loss_bbox -> rpn_big_loss_bbox
I0413 19:06:17.915143 15200 net.cpp:150] Setting up rpn_big_loss_bbox
I0413 19:06:17.915179 15200 net.cpp:157] Top shape: 1 (1)
I0413 19:06:17.915182 15200 net.cpp:160]     with loss weight 1
I0413 19:06:17.915199 15200 net.cpp:165] Memory required for data: 3647533148
I0413 19:06:17.915215 15200 layer_factory.hpp:77] Creating layer proposal
I0413 19:06:17.915616 15200 net.cpp:100] Creating Layer proposal
I0413 19:06:17.915627 15200 net.cpp:434] proposal <- rpn_big_cls_prob_reshape_rpn_big_cls_prob_reshape_0_split_1
I0413 19:06:17.915639 15200 net.cpp:434] proposal <- rpn_big_bbox_pred_rpn_big_bbox_pred_0_split_1
I0413 19:06:17.915658 15200 net.cpp:434] proposal <- input_im_info_input_1_split_1
I0413 19:06:17.915673 15200 net.cpp:408] proposal -> rpn_rois
I0413 19:06:17.920531 15200 net.cpp:150] Setting up proposal
I0413 19:06:17.920552 15200 net.cpp:157] Top shape: 1 5 (5)
I0413 19:06:17.920557 15200 net.cpp:165] Memory required for data: 3647533168
I0413 19:06:17.920563 15200 layer_factory.hpp:77] Creating layer roi-data
I0413 19:06:17.922615 15200 net.cpp:100] Creating Layer roi-data
I0413 19:06:17.922634 15200 net.cpp:434] roi-data <- rpn_rois
I0413 19:06:17.922646 15200 net.cpp:434] roi-data <- input_gt_boxes_input_2_split_1
I0413 19:06:17.922658 15200 net.cpp:408] roi-data -> rois
I0413 19:06:17.922675 15200 net.cpp:408] roi-data -> labels
I0413 19:06:17.922689 15200 net.cpp:408] roi-data -> bbox_targets
I0413 19:06:17.922703 15200 net.cpp:408] roi-data -> bbox_inside_weights
I0413 19:06:17.922716 15200 net.cpp:408] roi-data -> bbox_outside_weights
I0413 19:06:17.922731 15200 net.cpp:408] roi-data -> pid_label
I0413 19:06:17.923773 15200 net.cpp:150] Setting up roi-data
I0413 19:06:17.923789 15200 net.cpp:157] Top shape: 1 5 (5)
I0413 19:06:17.923797 15200 net.cpp:157] Top shape: 1 1 (1)
I0413 19:06:17.923807 15200 net.cpp:157] Top shape: 1 8 (8)
I0413 19:06:17.923816 15200 net.cpp:157] Top shape: 1 8 (8)
I0413 19:06:17.923825 15200 net.cpp:157] Top shape: 1 8 (8)
I0413 19:06:17.923835 15200 net.cpp:157] Top shape: (0)
I0413 19:06:17.923842 15200 net.cpp:165] Memory required for data: 3647533288
I0413 19:06:17.923851 15200 layer_factory.hpp:77] Creating layer roi-pool
I0413 19:06:17.923862 15200 net.cpp:100] Creating Layer roi-pool
I0413 19:06:17.923871 15200 net.cpp:434] roi-pool <- conv5_3_relu5_3_0_split_1
I0413 19:06:17.923882 15200 net.cpp:434] roi-pool <- rois
I0413 19:06:17.923894 15200 net.cpp:408] roi-pool -> roi-pool
I0413 19:06:17.923909 15200 roi_pooling_layer.cpp:33] Spatial scale: 0.0625
I0413 19:06:17.923924 15200 roi_pooling_layer.cpp:34] Box scale: 1
I0413 19:06:17.923970 15200 net.cpp:150] Setting up roi-pool
I0413 19:06:17.923981 15200 net.cpp:157] Top shape: 1 512 7 7 (25088)
I0413 19:06:17.923987 15200 net.cpp:165] Memory required for data: 3647633640
I0413 19:06:17.923995 15200 layer_factory.hpp:77] Creating layer fc6
I0413 19:06:17.924008 15200 net.cpp:100] Creating Layer fc6
I0413 19:06:17.924016 15200 net.cpp:434] fc6 <- roi-pool
I0413 19:06:17.924027 15200 net.cpp:408] fc6 -> fc6
I0413 19:06:18.088762 15200 net.cpp:150] Setting up fc6
I0413 19:06:18.088804 15200 net.cpp:157] Top shape: 1 4096 (4096)
I0413 19:06:18.088809 15200 net.cpp:165] Memory required for data: 3647650024
I0413 19:06:18.088825 15200 layer_factory.hpp:77] Creating layer relu6
I0413 19:06:18.088847 15200 net.cpp:100] Creating Layer relu6
I0413 19:06:18.088855 15200 net.cpp:434] relu6 <- fc6
I0413 19:06:18.088868 15200 net.cpp:395] relu6 -> fc6 (in-place)
I0413 19:06:18.088893 15200 net.cpp:150] Setting up relu6
I0413 19:06:18.088913 15200 net.cpp:157] Top shape: 1 4096 (4096)
I0413 19:06:18.088919 15200 net.cpp:165] Memory required for data: 3647666408
I0413 19:06:18.088925 15200 layer_factory.hpp:77] Creating layer drop6
I0413 19:06:18.088937 15200 net.cpp:100] Creating Layer drop6
I0413 19:06:18.088945 15200 net.cpp:434] drop6 <- fc6
I0413 19:06:18.088954 15200 net.cpp:395] drop6 -> fc6 (in-place)
I0413 19:06:18.088985 15200 net.cpp:150] Setting up drop6
I0413 19:06:18.088995 15200 net.cpp:157] Top shape: 1 4096 (4096)
I0413 19:06:18.089001 15200 net.cpp:165] Memory required for data: 3647682792
I0413 19:06:18.089007 15200 layer_factory.hpp:77] Creating layer fc7
I0413 19:06:18.089020 15200 net.cpp:100] Creating Layer fc7
I0413 19:06:18.089026 15200 net.cpp:434] fc7 <- fc6
I0413 19:06:18.089037 15200 net.cpp:408] fc7 -> fc7
I0413 19:06:18.115635 15200 net.cpp:150] Setting up fc7
I0413 19:06:18.115675 15200 net.cpp:157] Top shape: 1 4096 (4096)
I0413 19:06:18.115680 15200 net.cpp:165] Memory required for data: 3647699176
I0413 19:06:18.115695 15200 layer_factory.hpp:77] Creating layer relu7
I0413 19:06:18.115731 15200 net.cpp:100] Creating Layer relu7
I0413 19:06:18.115739 15200 net.cpp:434] relu7 <- fc7
I0413 19:06:18.115752 15200 net.cpp:395] relu7 -> fc7 (in-place)
I0413 19:06:18.115767 15200 net.cpp:150] Setting up relu7
I0413 19:06:18.115777 15200 net.cpp:157] Top shape: 1 4096 (4096)
I0413 19:06:18.115783 15200 net.cpp:165] Memory required for data: 3647715560
I0413 19:06:18.115792 15200 layer_factory.hpp:77] Creating layer drop7
I0413 19:06:18.115804 15200 net.cpp:100] Creating Layer drop7
I0413 19:06:18.115811 15200 net.cpp:434] drop7 <- fc7
I0413 19:06:18.115821 15200 net.cpp:395] drop7 -> fc7 (in-place)
I0413 19:06:18.115852 15200 net.cpp:150] Setting up drop7
I0413 19:06:18.115861 15200 net.cpp:157] Top shape: 1 4096 (4096)
I0413 19:06:18.115866 15200 net.cpp:165] Memory required for data: 3647731944
I0413 19:06:18.115873 15200 layer_factory.hpp:77] Creating layer fc7_drop7_0_split
I0413 19:06:18.115883 15200 net.cpp:100] Creating Layer fc7_drop7_0_split
I0413 19:06:18.115890 15200 net.cpp:434] fc7_drop7_0_split <- fc7
I0413 19:06:18.115900 15200 net.cpp:408] fc7_drop7_0_split -> fc7_drop7_0_split_0
I0413 19:06:18.115923 15200 net.cpp:408] fc7_drop7_0_split -> fc7_drop7_0_split_1
I0413 19:06:18.115962 15200 net.cpp:150] Setting up fc7_drop7_0_split
I0413 19:06:18.115972 15200 net.cpp:157] Top shape: 1 4096 (4096)
I0413 19:06:18.115983 15200 net.cpp:157] Top shape: 1 4096 (4096)
I0413 19:06:18.115989 15200 net.cpp:165] Memory required for data: 3647764712
I0413 19:06:18.115996 15200 layer_factory.hpp:77] Creating layer bbox_pred
I0413 19:06:18.116008 15200 net.cpp:100] Creating Layer bbox_pred
I0413 19:06:18.116014 15200 net.cpp:434] bbox_pred <- fc7_drop7_0_split_0
I0413 19:06:18.116024 15200 net.cpp:408] bbox_pred -> bbox_pred
I0413 19:06:18.116447 15200 net.cpp:150] Setting up bbox_pred
I0413 19:06:18.116457 15200 net.cpp:157] Top shape: 1 8 (8)
I0413 19:06:18.116463 15200 net.cpp:165] Memory required for data: 3647764744
I0413 19:06:18.116477 15200 layer_factory.hpp:77] Creating layer loss_bbox
I0413 19:06:18.116487 15200 net.cpp:100] Creating Layer loss_bbox
I0413 19:06:18.116495 15200 net.cpp:434] loss_bbox <- bbox_pred
I0413 19:06:18.116503 15200 net.cpp:434] loss_bbox <- bbox_targets
I0413 19:06:18.116513 15200 net.cpp:434] loss_bbox <- bbox_inside_weights
I0413 19:06:18.116521 15200 net.cpp:434] loss_bbox <- bbox_outside_weights
I0413 19:06:18.116533 15200 net.cpp:408] loss_bbox -> loss_bbox
I0413 19:06:18.116613 15200 net.cpp:150] Setting up loss_bbox
I0413 19:06:18.116623 15200 net.cpp:157] Top shape: (1)
I0413 19:06:18.116629 15200 net.cpp:160]     with loss weight 1
I0413 19:06:18.116644 15200 net.cpp:165] Memory required for data: 3647764748
I0413 19:06:18.116652 15200 layer_factory.hpp:77] Creating layer feat
I0413 19:06:18.116663 15200 net.cpp:100] Creating Layer feat
I0413 19:06:18.116672 15200 net.cpp:434] feat <- fc7_drop7_0_split_1
I0413 19:06:18.116683 15200 net.cpp:408] feat -> feat
I0413 19:06:18.127972 15200 net.cpp:150] Setting up feat
I0413 19:06:18.128006 15200 net.cpp:157] Top shape: 1 256 (256)
I0413 19:06:18.128011 15200 net.cpp:165] Memory required for data: 3647765772
I0413 19:06:18.128027 15200 layer_factory.hpp:77] Creating layer relu8
I0413 19:06:18.128041 15200 net.cpp:100] Creating Layer relu8
I0413 19:06:18.128051 15200 net.cpp:434] relu8 <- feat
I0413 19:06:18.128064 15200 net.cpp:395] relu8 -> feat (in-place)
I0413 19:06:18.128079 15200 net.cpp:150] Setting up relu8
I0413 19:06:18.128088 15200 net.cpp:157] Top shape: 1 256 (256)
I0413 19:06:18.128093 15200 net.cpp:165] Memory required for data: 3647766796
I0413 19:06:18.128099 15200 layer_factory.hpp:77] Creating layer drop8
I0413 19:06:18.128111 15200 net.cpp:100] Creating Layer drop8
I0413 19:06:18.128119 15200 net.cpp:434] drop8 <- feat
I0413 19:06:18.128129 15200 net.cpp:395] drop8 -> feat (in-place)
I0413 19:06:18.128157 15200 net.cpp:150] Setting up drop8
I0413 19:06:18.128166 15200 net.cpp:157] Top shape: 1 256 (256)
I0413 19:06:18.128172 15200 net.cpp:165] Memory required for data: 3647767820
I0413 19:06:18.128178 15200 layer_factory.hpp:77] Creating layer pid_score
I0413 19:06:18.128191 15200 net.cpp:100] Creating Layer pid_score
I0413 19:06:18.128198 15200 net.cpp:434] pid_score <- feat
I0413 19:06:18.128209 15200 net.cpp:408] pid_score -> pid_score
I0413 19:06:18.143362 15200 net.cpp:150] Setting up pid_score
I0413 19:06:18.143390 15200 net.cpp:157] Top shape: 1 5533 (5533)
I0413 19:06:18.143396 15200 net.cpp:165] Memory required for data: 3647789952
I0413 19:06:18.143419 15200 layer_factory.hpp:77] Creating layer pid_loss
I0413 19:06:18.143446 15200 net.cpp:100] Creating Layer pid_loss
I0413 19:06:18.143460 15200 net.cpp:434] pid_loss <- pid_score
I0413 19:06:18.143471 15200 net.cpp:434] pid_loss <- pid_label
I0413 19:06:18.143481 15200 net.cpp:408] pid_loss -> pid_loss
…
