…
I0413 19:10:49.185441 15566 solver.cpp:48] Initializing solver from parameters: 
base_lr: 0.001
display: 20
lr_policy: "multistep"
gamma: 0.1
momentum: 0.9
weight_decay: 0.0005
snapshot: 0
snapshot_prefix: "faces_example"
net_param {
  name: "GeneratedModel_13_04_2017_19_10"
  layer {
    name: "input"
    type: "Python"
    top: "input_data"
    top: "input_im_info"
    top: "input_gt_boxes"
    top: "input_ignored_boxes"
    python_param {
      module: "layers.roi_data_layer"
      layer: "RoIDataLayer"
      param_str: "{\"num_classes\": 2}"
    }
  }
  layer {
    name: "conv1_1"
    type: "Convolution"
    bottom: "input_data"
    top: "conv1_1"
    param {
      lr_mult: 0
      decay_mult: 0
    }
    param {
      lr_mult: 0
      decay_mult: 0
    }
    convolution_param {
      num_output: 64
      pad: 1
      kernel_size: 3
    }
  }
  layer {
    name: "relu1_1"
    type: "ReLU"
    bottom: "conv1_1"
    top: "conv1_1"
  }
  layer {
    name: "conv1_2"
    type: "Convolution"
    bottom: "conv1_1"
    top: "conv1_2"
    param {
      lr_mult: 0
      decay_mult: 0
    }
    param {
      lr_mult: 0
      decay_mult: 0
    }
    convolution_param {
      num_output: 64
      pad: 1
      kernel_size: 3
    }
  }
  layer {
    name: "relu1_2"
    type: "ReLU"
    bottom: "conv1_2"
    top: "conv1_2"
  }
  layer {
    name: "pool1"
    type: "Pooling"
    bottom: "conv1_2"
    top: "pool1"
    pooling_param {
      pool: MAX
      kernel_size: 2
      stride: 2
    }
  }
  layer {
    name: "conv2_1"
    type: "Convolution"
    bottom: "pool1"
    top: "conv2_1"
    param {
      lr_mult: 0
      decay_mult: 0
    }
    param {
      lr_mult: 0
      decay_mult: 0
    }
    convolution_param {
      num_output: 128
      pad: 1
      kernel_size: 3
    }
  }
  layer {
    name: "relu2_1"
    type: "ReLU"
    bottom: "conv2_1"
    top: "conv2_1"
  }
  layer {
    name: "conv2_2"
    type: "Convolution"
    bottom: "conv2_1"
    top: "conv2_2"
    param {
      lr_mult: 0
      decay_mult: 0
    }
    param {
      lr_mult: 0
      decay_mult: 0
    }
    convolution_param {
      num_output: 128
      pad: 1
      kernel_size: 3
    }
  }
  layer {
    name: "relu2_2"
    type: "ReLU"
    bottom: "conv2_2"
    top: "conv2_2"
  }
  layer {
    name: "pool2"
    type: "Pooling"
    bottom: "conv2_2"
    top: "pool2"
    pooling_param {
      pool: MAX
      kernel_size: 2
      stride: 2
    }
  }
  layer {
    name: "conv3_1"
    type: "Convolution"
    bottom: "pool2"
    top: "conv3_1"
    param {
      lr_mult: 1
    }
    param {
      lr_mult: 2
    }
    convolution_param {
      num_output: 256
      pad: 1
      kernel_size: 3
    }
  }
  layer {
    name: "relu3_1"
    type: "ReLU"
    bottom: "conv3_1"
    top: "conv3_1"
  }
  layer {
    name: "conv3_2"
    type: "Convolution"
    bottom: "conv3_1"
    top: "conv3_2"
    param {
      lr_mult: 1
    }
    param {
      lr_mult: 2
    }
    convolution_param {
      num_output: 256
      pad: 1
      kernel_size: 3
    }
  }
  layer {
    name: "relu3_2"
    type: "ReLU"
    bottom: "conv3_2"
    top: "conv3_2"
  }
  layer {
    name: "conv3_3"
    type: "Convolution"
    bottom: "conv3_2"
    top: "conv3_3"
    param {
      lr_mult: 1
    }
    param {
      lr_mult: 2
    }
    convolution_param {
      num_output: 256
      pad: 1
      kernel_size: 3
    }
  }
  layer {
    name: "relu3_3"
    type: "ReLU"
    bottom: "conv3_3"
    top: "conv3_3"
  }
  layer {
    name: "pool3"
    type: "Pooling"
    bottom: "conv3_3"
    top: "pool3"
    pooling_param {
      pool: MAX
      kernel_size: 2
      stride: 2
    }
  }
  layer {
    name: "conv4_1"
    type: "Convolution"
    bottom: "pool3"
    top: "conv4_1"
    param {
      lr_mult: 1
    }
    param {
      lr_mult: 2
    }
    convolution_param {
      num_output: 512
      pad: 1
      kernel_size: 3
    }
  }
  layer {
    name: "relu4_1"
    type: "ReLU"
    bottom: "conv4_1"
    top: "conv4_1"
  }
  layer {
    name: "conv4_2"
    type: "Convolution"
    bottom: "conv4_1"
    top: "conv4_2"
    param {
      lr_mult: 1
    }
    param {
      lr_mult: 2
    }
    convolution_param {
      num_output: 512
      pad: 1
      kernel_size: 3
    }
  }
  layer {
    name: "relu4_2"
    type: "ReLU"
    bottom: "conv4_2"
    top: "conv4_2"
  }
  layer {
    name: "conv4_3"
    type: "Convolution"
    bottom: "conv4_2"
    top: "conv4_3"
    param {
      lr_mult: 1
    }
    param {
      lr_mult: 2
    }
    convolution_param {
      num_output: 512
      pad: 1
      kernel_size: 3
    }
  }
  layer {
    name: "relu4_3"
    type: "ReLU"
    bottom: "conv4_3"
    top: "conv4_3"
  }
  layer {
    name: "pool4"
    type: "Pooling"
    bottom: "conv4_3"
    top: "pool4"
    pooling_param {
      pool: MAX
      kernel_size: 2
      stride: 2
    }
  }
  layer {
    name: "conv5_1"
    type: "Convolution"
    bottom: "pool4"
    top: "conv5_1"
    param {
      lr_mult: 1
    }
    param {
      lr_mult: 2
    }
    convolution_param {
      num_output: 512
      pad: 1
      kernel_size: 3
    }
  }
  layer {
    name: "relu5_1"
    type: "ReLU"
    bottom: "conv5_1"
    top: "conv5_1"
  }
  layer {
    name: "conv5_2"
    type: "Convolution"
    bottom: "conv5_1"
    top: "conv5_2"
    param {
      lr_mult: 1
    }
    param {
      lr_mult: 2
    }
    convolution_param {
      num_output: 512
      pad: 1
      kernel_size: 3
    }
  }
  layer {
    name: "relu5_2"
    type: "ReLU"
    bottom: "conv5_2"
    top: "conv5_2"
  }
  layer {
    name: "conv5_3"
    type: "Convolution"
    bottom: "conv5_2"
    top: "conv5_3"
    param {
      lr_mult: 1
    }
    param {
      lr_mult: 2
    }
    convolution_param {
      num_output: 512
      pad: 1
      kernel_size: 3
    }
  }
  layer {
    name: "relu5_3"
    type: "ReLU"
    bottom: "conv5_3"
    top: "conv5_3"
  }
  layer {
    name: "rpn_big_conv1"
    type: "Convolution"
    bottom: "conv5_3"
    top: "rpn_big_conv1"
    param {
      lr_mult: 1
    }
    param {
      lr_mult: 2
    }
    convolution_param {
      num_output: 512
      pad: 1
      kernel_size: 3
      stride: 1
      weight_filler {
        type: "gaussian"
        mean: 0
        std: 0.01
      }
      bias_filler {
        type: "constant"
      }
    }
  }
  layer {
    name: "rpn_big_conv1_relu"
    type: "ReLU"
    bottom: "rpn_big_conv1"
    top: "rpn_big_conv1"
    relu_param {
      negative_slope: 0
    }
  }
  layer {
    name: "rpn_big_conv2"
    type: "Convolution"
    bottom: "rpn_big_conv1"
    top: "rpn_big_conv2"
    param {
      lr_mult: 1
    }
    param {
      lr_mult: 2
    }
    convolution_param {
      num_output: 512
      pad: 1
      kernel_size: 3
      stride: 1
      weight_filler {
        type: "gaussian"
        mean: 0
        std: 0.01
      }
      bias_filler {
        type: "constant"
      }
    }
  }
  layer {
    name: "rpn_big_conv2_relu"
    type: "ReLU"
    bottom: "rpn_big_conv2"
    top: "rpn_big_conv2"
    relu_param {
      negative_slope: 0
    }
  }
  layer {
    name: "rpn_big_conv2_drop"
    type: "Dropout"
    bottom: "rpn_big_conv2"
    top: "rpn_big_conv2"
    dropout_param {
      dropout_ratio: 0.3
    }
  }
  layer {
    name: "rpn_big_output_cls"
    type: "Convolution"
    bottom: "rpn_big_conv2"
    top: "rpn_big_output_cls"
    param {
      lr_mult: 1
    }
    param {
      lr_mult: 2
    }
    convolution_param {
      num_output: 384
      pad: 1
      kernel_size: 3
      stride: 1
      weight_filler {
        type: "gaussian"
        mean: 0
        std: 0.01
      }
      bias_filler {
        type: "constant"
      }
    }
  }
  layer {
    name: "rpn_big_output_cls_relu"
    type: "ReLU"
    bottom: "rpn_big_output_cls"
    top: "rpn_big_output_cls"
    relu_param {
      negative_slope: 0
    }
  }
  layer {
    name: "rpn_big_cls_score"
    type: "Convolution"
    bottom: "rpn_big_output_cls"
    top: "rpn_big_cls_score"
    param {
      lr_mult: 1
    }
    param {
      lr_mult: 2
    }
    convolution_param {
      num_output: 52
      pad: 0
      kernel_size: 3
      stride: 1
      weight_filler {
        type: "gaussian"
        mean: 0
        std: 0.01
      }
      bias_filler {
        type: "constant"
      }
    }
  }
  layer {
    name: "rpn_big_cls_score_reshape"
    type: "Reshape"
    bottom: "rpn_big_cls_score"
    top: "rpn_big_cls_score_reshape"
    reshape_param {
      shape {
        dim: 0
        dim: 2
        dim: -1
        dim: 0
      }
    }
  }
  layer {
    name: "rpn_big_cls_prob"
    type: "Softmax"
    bottom: "rpn_big_cls_score_reshape"
    top: "rpn_big_cls_prob"
  }
  layer {
    name: "rpn_big_cls_prob_reshape"
    type: "Reshape"
    bottom: "rpn_big_cls_prob"
    top: "rpn_big_cls_prob_reshape"
    reshape_param {
      shape {
        dim: 0
        dim: 52
        dim: -1
        dim: 0
      }
    }
  }
  layer {
    name: "rpn_big_anchor_target"
    type: "Python"
    bottom: "rpn_big_cls_score"
    bottom: "input_gt_boxes"
    bottom: "input_ignored_boxes"
    bottom: "input_im_info"
    bottom: "input_data"
    bottom: "rpn_big_cls_prob_reshape"
    top: "rpn_big_anchor_target_labels"
    top: "rpn_big_anchor_target_bbox_targets"
    top: "rpn_big_anchor_target_inside_weights"
    top: "rpn_big_anchor_target_outside_weights"
    python_param {
      module: "rpn.anchor_target_layer"
      layer: "AnchorTargetLayer"
      param_str: "{\"square_targets\": true, \"name\": \"rpn_big\", \"feat_stride\": 16, \"anchor_shift_num_xy\": [[2, 2], [2, 2], [2, 2], [2, 2], [1, 1], [1, 1], [1, 1], [1, 1], [1, 1], [1, 1], [1, 1], [1, 1], [1, 1], [1, 1]], \"num_classes\": 1, \"batchsize\": 256, \"positive_overlap\": 0.6, \"anchor_scales\": [2.5, 3.025, 3.66025, 4.4289024999999995, 5.358972025, 6.484356150249999, 7.846070941802498, 9.493745839581022, 11.487432465893036, 13.899793283730574, 16.818749873313998, 20.350687346709933, 24.62433168951902, 29.795441344318014], \"tn_fraction\": 0.2, \"fg_fraction\": 0.5, \"negative_overlap\": 0.4, \"anchor_ratios\": [1.0]}"
    }
  }
  layer {
    name: "rpn_big_loss_cls"
    type: "SoftmaxWithLoss"
    bottom: "rpn_big_cls_score_reshape"
    bottom: "rpn_big_anchor_target_labels"
    top: "rpn_big_loss_cls"
    loss_weight: 1
    propagate_down: true
    propagate_down: false
    loss_param {
      ignore_label: -1
      normalization: VALID
    }
  }
  layer {
    name: "rpn_big_output_box"
    type: "Convolution"
    bottom: "rpn_big_conv2"
    top: "rpn_big_output_box"
    param {
      lr_mult: 1
    }
    param {
      lr_mult: 2
    }
    convolution_param {
      num_output: 384
      pad: 1
      kernel_size: 3
      stride: 1
      weight_filler {
        type: "gaussian"
        mean: 0
        std: 0.01
      }
      bias_filler {
        type: "constant"
      }
    }
  }
  layer {
    name: "rpn_big_output_box_relu"
    type: "ReLU"
    bottom: "rpn_big_output_box"
    top: "rpn_big_output_box"
    relu_param {
      negative_slope: 0
    }
  }
  layer {
    name: "rpn_big_bbox_pred"
    type: "Convolution"
    bottom: "rpn_big_output_box"
    top: "rpn_big_bbox_pred"
    param {
      lr_mult: 1
    }
    param {
      lr_mult: 2
    }
    convolution_param {
      num_output: 104
      pad: 0
      kernel_size: 3
      stride: 1
      weight_filler {
        type: "gaussian"
        mean: 0
        std: 0.01
      }
      bias_filler {
        type: "constant"
      }
    }
  }
  layer {
    name: "rpn_big_loss_bbox"
    type: "Python"
    bottom: "rpn_big_bbox_pred"
    bottom: "rpn_big_anchor_target_bbox_targets"
    bottom: "rpn_big_anchor_target_inside_weights"
    bottom: "rpn_big_anchor_target_outside_weights"
    top: "rpn_big_loss_bbox"
    loss_weight: 1
    python_param {
      module: "layers.smooth_l1_loss"
      layer: "SmoothL1LossLayer"
      param_str: "{\"sigma\": 3}"
    }
  }
  layer {
    name: "proposal"
    type: "Python"
    bottom: "rpn_big_cls_prob_reshape"
    bottom: "rpn_big_bbox_pred"
    bottom: "input_im_info"
    top: "rpn_rois"
    python_param {
      module: "rpn.proposal_layer"
      layer: "ProposalLayer"
      param_str: "{\"anchor_shift_num_xy\": [[2, 2], [2, 2], [2, 2], [2, 2], [1, 1], [1, 1], [1, 1], [1, 1], [1, 1], [1, 1], [1, 1], [1, 1], [1, 1], [1, 1]], \"feat_stride\": 16, \"num_classes\": 1, \"anchor_scales\": [2.5, 3.025, 3.66025, 4.4289024999999995, 5.358972025, 6.484356150249999, 7.846070941802498, 9.493745839581022, 11.487432465893036, 13.899793283730574, 16.818749873313998, 20.350687346709933, 24.62433168951902, 29.795441344318014], \"square_targets\": true, \"name\": \"rpn_big\", \"batchsize\": 256, \"anchor_ratios\": [1.0]}"
    }
  }
  layer {
    name: "roi-data"
    type: "Python"
    bottom: "rpn_rois"
    bottom: "input_gt_boxes"
    top: "rois"
    top: "labels"
    top: "bbox_targets"
    top: "bbox_inside_weights"
    top: "bbox_outside_weights"
    top: "pid_label"
    python_param {
      module: "rpn.proposal_target_layer"
      layer: "ProposalTargetLayer"
      param_str: "{\"num_classes\": 2, \"bg_aux_label\": 5532}"
    }
  }
  layer {
    name: "roi-pool"
    type: "ROIPooling"
    bottom: "conv5_3"
    bottom: "rois"
    top: "roi-pool"
    roi_pooling_param {
      pooled_h: 7
      pooled_w: 7
      spatial_scale: 0.0625
    }
  }
  layer {
    name: "fc6"
    type: "InnerProduct"
    bottom: "roi-pool"
    top: "fc6"
    param {
      lr_mult: 1
    }
    param {
      lr_mult: 2
    }
    inner_product_param {
      num_output: 4096
    }
  }
  layer {
    name: "relu6"
    type: "ReLU"
    bottom: "fc6"
    top: "fc6"
  }
  layer {
    name: "drop6"
    type: "Dropout"
    bottom: "fc6"
    top: "fc6"
    dropout_param {
      dropout_ratio: 0.5
    }
  }
  layer {
    name: "fc7"
    type: "InnerProduct"
    bottom: "fc6"
    top: "fc7"
    param {
      lr_mult: 1
    }
    param {
      lr_mult: 2
    }
    inner_product_param {
      num_output: 4096
    }
  }
  layer {
    name: "relu7"
    type: "ReLU"
    bottom: "fc7"
    top: "fc7"
  }
  layer {
    name: "drop7"
    type: "Dropout"
    bottom: "fc7"
    top: "fc7"
    dropout_param {
      dropout_ratio: 0.5
    }
  }
  layer {
    name: "bbox_pred"
    type: "InnerProduct"
    bottom: "fc7"
    top: "bbox_pred"
    param {
      lr_mult: 1
    }
    param {
      lr_mult: 2
    }
    inner_product_param {
      num_output: 8
      weight_filler {
        type: "gaussian"
        std: 0.001
      }
      bias_filler {
        type: "constant"
        value: 0
      }
    }
  }
  layer {
    name: "loss_bbox"
    type: "SmoothL1Loss"
    bottom: "bbox_pred"
    bottom: "bbox_targets"
    bottom: "bbox_inside_weights"
    bottom: "bbox_outside_weights"
    top: "loss_bbox"
    loss_weight: 1
  }
  layer {
    name: "feat"
    type: "InnerProduct"
    bottom: "fc7"
    top: "feat"
    param {
      lr_mult: 1
      decay_mult: 1
    }
    param {
      lr_mult: 2
      decay_mult: 0
    }
    inner_product_param {
      num_output: 256
      weight_filler {
        type: "gaussian"
        std: 0.01
      }
      bias_filler {
        type: "constant"
        value: 0
      }
    }
  }
  layer {
    name: "relu8"
    type: "ReLU"
    bottom: "feat"
    top: "feat"
  }
  layer {
    name: "drop8"
    type: "Dropout"
    bottom: "feat"
    top: "feat"
    dropout_param {
      dropout_ratio: 0.5
    }
  }
  layer {
    name: "pid_score"
    type: "InnerProduct"
    bottom: "feat"
    top: "pid_score"
    param {
      lr_mult: 1
      decay_mult: 1
    }
    param {
      lr_mult: 2
      decay_mult: 0
    }
    inner_product_param {
      num_output: 5533
      weight_filler {
        type: "gaussian"
        std: 0.001
      }
      bias_filler {
        type: "constant"
        value: 0
      }
    }
  }
  layer {
    name: "pid_accuracy"
    type: "Accuracy"
    bottom: "pid_score"
    bottom: "pid_label"
    top: "pid_accuracy"
    accuracy_param {
      ignore_label: -1
    }
  }
}
average_loss: 100
stepvalue: 70000
stepvalue: 120000
iter_size: 2
I0413 19:10:49.185566 15566 solver.cpp:86] Creating training net specified in net_param.
I0413 19:10:49.186331 15566 net.cpp:58] Initializing net from parameters: 
name: "GeneratedModel_13_04_2017_19_10"
state {
  phase: TRAIN
}
layer {
  name: "input"
  type: "Python"
  top: "input_data"
  top: "input_im_info"
  top: "input_gt_boxes"
  top: "input_ignored_boxes"
  python_param {
    module: "layers.roi_data_layer"
    layer: "RoIDataLayer"
    param_str: "{\"num_classes\": 2}"
  }
}
layer {
  name: "conv1_1"
  type: "Convolution"
  bottom: "input_data"
  top: "conv1_1"
  param {
    lr_mult: 0
    decay_mult: 0
  }
  param {
    lr_mult: 0
    decay_mult: 0
  }
  convolution_param {
    num_output: 64
    pad: 1
    kernel_size: 3
  }
}
layer {
  name: "relu1_1"
  type: "ReLU"
  bottom: "conv1_1"
  top: "conv1_1"
}
layer {
  name: "conv1_2"
  type: "Convolution"
  bottom: "conv1_1"
  top: "conv1_2"
  param {
    lr_mult: 0
    decay_mult: 0
  }
  param {
    lr_mult: 0
    decay_mult: 0
  }
  convolution_param {
    num_output: 64
    pad: 1
    kernel_size: 3
  }
}
layer {
  name: "relu1_2"
  type: "ReLU"
  bottom: "conv1_2"
  top: "conv1_2"
}
layer {
  name: "pool1"
  type: "Pooling"
  bottom: "conv1_2"
  top: "pool1"
  pooling_param {
    pool: MAX
    kernel_size: 2
    stride: 2
  }
}
layer {
  name: "conv2_1"
  type: "Convolution"
  bottom: "pool1"
  top: "conv2_1"
  param {
    lr_mult: 0
    decay_mult: 0
  }
  param {
    lr_mult: 0
    decay_mult: 0
  }
  convolution_param {
    num_output: 128
    pad: 1
    kernel_size: 3
  }
}
layer {
  name: "relu2_1"
  type: "ReLU"
  bottom: "conv2_1"
  top: "conv2_1"
}
layer {
  name: "conv2_2"
  type: "Convolution"
  bottom: "conv2_1"
  top: "conv2_2"
  param {
    lr_mult: 0
    decay_mult: 0
  }
  param {
    lr_mult: 0
    decay_mult: 0
  }
  convolution_param {
    num_output: 128
    pad: 1
    kernel_size: 3
  }
}
layer {
  name: "relu2_2"
  type: "ReLU"
  bottom: "conv2_2"
  top: "conv2_2"
}
layer {
  name: "pool2"
  type: "Pooling"
  bottom: "conv2_2"
  top: "pool2"
  pooling_param {
    pool: MAX
    kernel_size: 2
    stride: 2
  }
}
layer {
  name: "conv3_1"
  type: "Convolution"
  bottom: "pool2"
  top: "conv3_1"
  param {
    lr_mult: 1
  }
  param {
    lr_mult: 2
  }
  convolution_param {
    num_output: 256
    pad: 1
    kernel_size: 3
  }
}
layer {
  name: "relu3_1"
  type: "ReLU"
  bottom: "conv3_1"
  top: "conv3_1"
}
layer {
  name: "conv3_2"
  type: "Convolution"
  bottom: "conv3_1"
  top: "conv3_2"
  param {
    lr_mult: 1
  }
  param {
    lr_mult: 2
  }
  convolution_param {
    num_output: 256
    pad: 1
    kernel_size: 3
  }
}
layer {
  name: "relu3_2"
  type: "ReLU"
  bottom: "conv3_2"
  top: "conv3_2"
}
layer {
  name: "conv3_3"
  type: "Convolution"
  bottom: "conv3_2"
  top: "conv3_3"
  param {
    lr_mult: 1
  }
  param {
    lr_mult: 2
  }
  convolution_param {
    num_output: 256
    pad: 1
    kernel_size: 3
  }
}
layer {
  name: "relu3_3"
  type: "ReLU"
  bottom: "conv3_3"
  top: "conv3_3"
}
layer {
  name: "pool3"
  type: "Pooling"
  bottom: "conv3_3"
  top: "pool3"
  pooling_param {
    pool: MAX
    kernel_size: 2
    stride: 2
  }
}
layer {
  name: "conv4_1"
  type: "Convolution"
  bottom: "pool3"
  top: "conv4_1"
  param {
    lr_mult: 1
  }
  param {
    lr_mult: 2
  }
  convolution_param {
    num_output: 512
    pad: 1
    kernel_size: 3
  }
}
layer {
  name: "relu4_1"
  type: "ReLU"
  bottom: "conv4_1"
  top: "conv4_1"
}
layer {
  name: "conv4_2"
  type: "Convolution"
  bottom: "conv4_1"
  top: "conv4_2"
  param {
    lr_mult: 1
  }
  param {
    lr_mult: 2
  }
  convolution_param {
    num_output: 512
    pad: 1
    kernel_size: 3
  }
}
layer {
  name: "relu4_2"
  type: "ReLU"
  bottom: "conv4_2"
  top: "conv4_2"
}
layer {
  name: "conv4_3"
  type: "Convolution"
  bottom: "conv4_2"
  top: "conv4_3"
  param {
    lr_mult: 1
  }
  param {
    lr_mult: 2
  }
  convolution_param {
    num_output: 512
    pad: 1
    kernel_size: 3
  }
}
layer {
  name: "relu4_3"
  type: "ReLU"
  bottom: "conv4_3"
  top: "conv4_3"
}
layer {
  name: "pool4"
  type: "Pooling"
  bottom: "conv4_3"
  top: "pool4"
  pooling_param {
    pool: MAX
    kernel_size: 2
    stride: 2
  }
}
layer {
  name: "conv5_1"
  type: "Convolution"
  bottom: "pool4"
  top: "conv5_1"
  param {
    lr_mult: 1
  }
  param {
    lr_mult: 2
  }
  convolution_param {
    num_output: 512
    pad: 1
    kernel_size: 3
  }
}
layer {
  name: "relu5_1"
  type: "ReLU"
  bottom: "conv5_1"
  top: "conv5_1"
}
layer {
  name: "conv5_2"
  type: "Convolution"
  bottom: "conv5_1"
  top: "conv5_2"
  param {
    lr_mult: 1
  }
  param {
    lr_mult: 2
  }
  convolution_param {
    num_output: 512
    pad: 1
    kernel_size: 3
  }
}
layer {
  name: "relu5_2"
  type: "ReLU"
  bottom: "conv5_2"
  top: "conv5_2"
}
layer {
  name: "conv5_3"
  type: "Convolution"
  bottom: "conv5_2"
  top: "conv5_3"
  param {
    lr_mult: 1
  }
  param {
    lr_mult: 2
  }
  convolution_param {
    num_output: 512
    pad: 1
    kernel_size: 3
  }
}
layer {
  name: "relu5_3"
  type: "ReLU"
  bottom: "conv5_3"
  top: "conv5_3"
}
layer {
  name: "rpn_big_conv1"
  type: "Convolution"
  bottom: "conv5_3"
  top: "rpn_big_conv1"
  param {
    lr_mult: 1
  }
  param {
    lr_mult: 2
  }
  convolution_param {
    num_output: 512
    pad: 1
    kernel_size: 3
    stride: 1
    weight_filler {
      type: "gaussian"
      mean: 0
      std: 0.01
    }
    bias_filler {
      type: "constant"
    }
  }
}
layer {
  name: "rpn_big_conv1_relu"
  type: "ReLU"
  bottom: "rpn_big_conv1"
  top: "rpn_big_conv1"
  relu_param {
    negative_slope: 0
  }
}
layer {
  name: "rpn_big_conv2"
  type: "Convolution"
  bottom: "rpn_big_conv1"
  top: "rpn_big_conv2"
  param {
    lr_mult: 1
  }
  param {
    lr_mult: 2
  }
  convolution_param {
    num_output: 512
    pad: 1
    kernel_size: 3
    stride: 1
    weight_filler {
      type: "gaussian"
      mean: 0
      std: 0.01
    }
    bias_filler {
      type: "constant"
    }
  }
}
layer {
  name: "rpn_big_conv2_relu"
  type: "ReLU"
  bottom: "rpn_big_conv2"
  top: "rpn_big_conv2"
  relu_param {
    negative_slope: 0
  }
}
layer {
  name: "rpn_big_conv2_drop"
  type: "Dropout"
  bottom: "rpn_big_conv2"
  top: "rpn_big_conv2"
  dropout_param {
    dropout_ratio: 0.3
  }
}
layer {
  name: "rpn_big_output_cls"
  type: "Convolution"
  bottom: "rpn_big_conv2"
  top: "rpn_big_output_cls"
  param {
    lr_mult: 1
  }
  param {
    lr_mult: 2
  }
  convolution_param {
    num_output: 384
    pad: 1
    kernel_size: 3
    stride: 1
    weight_filler {
      type: "gaussian"
      mean: 0
      std: 0.01
    }
    bias_filler {
      type: "constant"
    }
  }
}
layer {
  name: "rpn_big_output_cls_relu"
  type: "ReLU"
  bottom: "rpn_big_output_cls"
  top: "rpn_big_output_cls"
  relu_param {
    negative_slope: 0
  }
}
layer {
  name: "rpn_big_cls_score"
  type: "Convolution"
  bottom: "rpn_big_output_cls"
  top: "rpn_big_cls_score"
  param {
    lr_mult: 1
  }
  param {
    lr_mult: 2
  }
  convolution_param {
    num_output: 52
    pad: 0
    kernel_size: 3
    stride: 1
    weight_filler {
      type: "gaussian"
      mean: 0
      std: 0.01
    }
    bias_filler {
      type: "constant"
    }
  }
}
layer {
  name: "rpn_big_cls_score_reshape"
  type: "Reshape"
  bottom: "rpn_big_cls_score"
  top: "rpn_big_cls_score_reshape"
  reshape_param {
    shape {
      dim: 0
      dim: 2
      dim: -1
      dim: 0
    }
  }
}
layer {
  name: "rpn_big_cls_prob"
  type: "Softmax"
  bottom: "rpn_big_cls_score_reshape"
  top: "rpn_big_cls_prob"
}
layer {
  name: "rpn_big_cls_prob_reshape"
  type: "Reshape"
  bottom: "rpn_big_cls_prob"
  top: "rpn_big_cls_prob_reshape"
  reshape_param {
    shape {
      dim: 0
      dim: 52
      dim: -1
      dim: 0
    }
  }
}
layer {
  name: "rpn_big_anchor_target"
  type: "Python"
  bottom: "rpn_big_cls_score"
  bottom: "input_gt_boxes"
  bottom: "input_ignored_boxes"
  bottom: "input_im_info"
  bottom: "input_data"
  bottom: "rpn_big_cls_prob_reshape"
  top: "rpn_big_anchor_target_labels"
  top: "rpn_big_anchor_target_bbox_targets"
  top: "rpn_big_anchor_target_inside_weights"
  top: "rpn_big_anchor_target_outside_weights"
  python_param {
    module: "rpn.anchor_target_layer"
    layer: "AnchorTargetLayer"
    param_str: "{\"square_targets\": true, \"name\": \"rpn_big\", \"feat_stride\": 16, \"anchor_shift_num_xy\": [[2, 2], [2, 2], [2, 2], [2, 2], [1, 1], [1, 1], [1, 1], [1, 1], [1, 1], [1, 1], [1, 1], [1, 1], [1, 1], [1, 1]], \"num_classes\": 1, \"batchsize\": 256, \"positive_overlap\": 0.6, \"anchor_scales\": [2.5, 3.025, 3.66025, 4.4289024999999995, 5.358972025, 6.484356150249999, 7.846070941802498, 9.493745839581022, 11.487432465893036, 13.899793283730574, 16.818749873313998, 20.350687346709933, 24.62433168951902, 29.795441344318014], \"tn_fraction\": 0.2, \"fg_fraction\": 0.5, \"negative_overlap\": 0.4, \"anchor_ratios\": [1.0]}"
  }
}
layer {
  name: "rpn_big_loss_cls"
  type: "SoftmaxWithLoss"
  bottom: "rpn_big_cls_score_reshape"
  bottom: "rpn_big_anchor_target_labels"
  top: "rpn_big_loss_cls"
  loss_weight: 1
  propagate_down: true
  propagate_down: false
  loss_param {
    ignore_label: -1
    normalization: VALID
  }
}
layer {
  name: "rpn_big_output_box"
  type: "Convolution"
  bottom: "rpn_big_conv2"
  top: "rpn_big_output_box"
  param {
    lr_mult: 1
  }
  param {
    lr_mult: 2
  }
  convolution_param {
    num_output: 384
    pad: 1
    kernel_size: 3
    stride: 1
    weight_filler {
      type: "gaussian"
      mean: 0
      std: 0.01
    }
    bias_filler {
      type: "constant"
    }
  }
}
layer {
  name: "rpn_big_output_box_relu"
  type: "ReLU"
  bottom: "rpn_big_output_box"
  top: "rpn_big_output_box"
  relu_param {
    negative_slope: 0
  }
}
layer {
  name: "rpn_big_bbox_pred"
  type: "Convolution"
  bottom: "rpn_big_output_box"
  top: "rpn_big_bbox_pred"
  param {
    lr_mult: 1
  }
  param {
    lr_mult: 2
  }
  convolution_param {
    num_output: 104
    pad: 0
    kernel_size: 3
    stride: 1
    weight_filler {
      type: "gaussian"
      mean: 0
      std: 0.01
    }
    bias_filler {
      type: "constant"
    }
  }
}
layer {
  name: "rpn_big_loss_bbox"
  type: "Python"
  bottom: "rpn_big_bbox_pred"
  bottom: "rpn_big_anchor_target_bbox_targets"
  bottom: "rpn_big_anchor_target_inside_weights"
  bottom: "rpn_big_anchor_target_outside_weights"
  top: "rpn_big_loss_bbox"
  loss_weight: 1
  python_param {
    module: "layers.smooth_l1_loss"
    layer: "SmoothL1LossLayer"
    param_str: "{\"sigma\": 3}"
  }
}
layer {
  name: "proposal"
  type: "Python"
  bottom: "rpn_big_cls_prob_reshape"
  bottom: "rpn_big_bbox_pred"
  bottom: "input_im_info"
  top: "rpn_rois"
  python_param {
    module: "rpn.proposal_layer"
    layer: "ProposalLayer"
    param_str: "{\"anchor_shift_num_xy\": [[2, 2], [2, 2], [2, 2], [2, 2], [1, 1], [1, 1], [1, 1], [1, 1], [1, 1], [1, 1], [1, 1], [1, 1], [1, 1], [1, 1]], \"feat_stride\": 16, \"num_classes\": 1, \"anchor_scales\": [2.5, 3.025, 3.66025, 4.4289024999999995, 5.358972025, 6.484356150249999, 7.846070941802498, 9.493745839581022, 11.487432465893036, 13.899793283730574, 16.818749873313998, 20.350687346709933, 24.62433168951902, 29.795441344318014], \"square_targets\": true, \"name\": \"rpn_big\", \"batchsize\": 256, \"anchor_ratios\": [1.0]}"
  }
}
layer {
  name: "roi-data"
  type: "Python"
  bottom: "rpn_rois"
  bottom: "input_gt_boxes"
  top: "rois"
  top: "labels"
  top: "bbox_targets"
  top: "bbox_inside_weights"
  top: "bbox_outside_weights"
  top: "pid_label"
  python_param {
    module: "rpn.proposal_target_layer"
    layer: "ProposalTargetLayer"
    param_str: "{\"num_classes\": 2, \"bg_aux_label\": 5532}"
  }
}
layer {
  name: "roi-pool"
  type: "ROIPooling"
  bottom: "conv5_3"
  bottom: "rois"
  top: "roi-pool"
  roi_pooling_param {
    pooled_h: 7
    pooled_w: 7
    spatial_scale: 0.0625
  }
}
layer {
  name: "fc6"
  type: "InnerProduct"
  bottom: "roi-pool"
  top: "fc6"
  param {
    lr_mult: 1
  }
  param {
    lr_mult: 2
  }
  inner_product_param {
    num_output: 4096
  }
}
layer {
  name: "relu6"
  type: "ReLU"
  bottom: "fc6"
  top: "fc6"
}
layer {
  name: "drop6"
  type: "Dropout"
  bottom: "fc6"
  top: "fc6"
  dropout_param {
    dropout_ratio: 0.5
  }
}
layer {
  name: "fc7"
  type: "InnerProduct"
  bottom: "fc6"
  top: "fc7"
  param {
    lr_mult: 1
  }
  param {
    lr_mult: 2
  }
  inner_product_param {
    num_output: 4096
  }
}
layer {
  name: "relu7"
  type: "ReLU"
  bottom: "fc7"
  top: "fc7"
}
layer {
  name: "drop7"
  type: "Dropout"
  bottom: "fc7"
  top: "fc7"
  dropout_param {
    dropout_ratio: 0.5
  }
}
layer {
  name: "bbox_pred"
  type: "InnerProduct"
  bottom: "fc7"
  top: "bbox_pred"
  param {
    lr_mult: 1
  }
  param {
    lr_mult: 2
  }
  inner_product_param {
    num_output: 8
    weight_filler {
      type: "gaussian"
      std: 0.001
    }
    bias_filler {
      type: "constant"
      value: 0
    }
  }
}
layer {
  name: "loss_bbox"
  type: "SmoothL1Loss"
  bottom: "bbox_pred"
  bottom: "bbox_targets"
  bottom: "bbox_inside_weights"
  bottom: "bbox_outside_weights"
  top: "loss_bbox"
  loss_weight: 1
}
layer {
  name: "feat"
  type: "InnerProduct"
  bottom: "fc7"
  top: "feat"
  param {
    lr_mult: 1
    decay_mult: 1
  }
  param {
    lr_mult: 2
    decay_mult: 0
  }
  inner_product_param {
    num_output: 256
    weight_filler {
      type: "gaussian"
      std: 0.01
    }
    bias_filler {
      type: "constant"
      value: 0
    }
  }
}
layer {
  name: "relu8"
  type: "ReLU"
  bottom: "feat"
  top: "feat"
}
layer {
  name: "drop8"
  type: "Dropout"
  bottom: "feat"
  top: "feat"
  dropout_param {
    dropout_ratio: 0.5
  }
}
layer {
  name: "pid_score"
  type: "InnerProduct"
  bottom: "feat"
  top: "pid_score"
  param {
    lr_mult: 1
    decay_mult: 1
  }
  param {
    lr_mult: 2
    decay_mult: 0
  }
  inner_product_param {
    num_output: 5533
    weight_filler {
      type: "gaussian"
      std: 0.001
    }
    bias_filler {
      type: "constant"
      value: 0
    }
  }
}
layer {
  name: "pid_accuracy"
  type: "Accuracy"
  bottom: "pid_score"
  bottom: "pid_label"
  top: "pid_accuracy"
  accuracy_param {
    ignore_label: -1
  }
}
I0413 19:10:49.186736 15566 layer_factory.hpp:77] Creating layer input
I0413 19:10:49.188554 15566 net.cpp:100] Creating Layer input
I0413 19:10:49.188578 15566 net.cpp:408] input -> input_data
I0413 19:10:49.188594 15566 net.cpp:408] input -> input_im_info
I0413 19:10:49.188606 15566 net.cpp:408] input -> input_gt_boxes
I0413 19:10:49.188616 15566 net.cpp:408] input -> input_ignored_boxes
RoiDataLayer: name_to_top: {'im_info': 1, 'gt_boxes': 2, 'data': 0, 'ignored_boxes': 3}
I0413 19:10:49.505430 15566 net.cpp:150] Setting up input
I0413 19:10:49.505462 15566 net.cpp:157] Top shape: 1 3 1000 1500 (4500000)
I0413 19:10:49.505471 15566 net.cpp:157] Top shape: 1 3 (3)
I0413 19:10:49.505477 15566 net.cpp:157] Top shape: 1 5 (5)
I0413 19:10:49.505483 15566 net.cpp:157] Top shape: 1 5 (5)
I0413 19:10:49.505488 15566 net.cpp:165] Memory required for data: 18000052
I0413 19:10:49.505498 15566 layer_factory.hpp:77] Creating layer input_data_input_0_split
I0413 19:10:49.505517 15566 net.cpp:100] Creating Layer input_data_input_0_split
I0413 19:10:49.505524 15566 net.cpp:434] input_data_input_0_split <- input_data
I0413 19:10:49.505539 15566 net.cpp:408] input_data_input_0_split -> input_data_input_0_split_0
I0413 19:10:49.505558 15566 net.cpp:408] input_data_input_0_split -> input_data_input_0_split_1
I0413 19:10:49.505599 15566 net.cpp:150] Setting up input_data_input_0_split
I0413 19:10:49.505609 15566 net.cpp:157] Top shape: 1 3 1000 1500 (4500000)
I0413 19:10:49.505619 15566 net.cpp:157] Top shape: 1 3 1000 1500 (4500000)
I0413 19:10:49.505626 15566 net.cpp:165] Memory required for data: 54000052
I0413 19:10:49.505632 15566 layer_factory.hpp:77] Creating layer input_im_info_input_1_split
I0413 19:10:49.505646 15566 net.cpp:100] Creating Layer input_im_info_input_1_split
I0413 19:10:49.505653 15566 net.cpp:434] input_im_info_input_1_split <- input_im_info
I0413 19:10:49.505662 15566 net.cpp:408] input_im_info_input_1_split -> input_im_info_input_1_split_0
I0413 19:10:49.505676 15566 net.cpp:408] input_im_info_input_1_split -> input_im_info_input_1_split_1
I0413 19:10:49.505720 15566 net.cpp:150] Setting up input_im_info_input_1_split
I0413 19:10:49.505729 15566 net.cpp:157] Top shape: 1 3 (3)
I0413 19:10:49.505738 15566 net.cpp:157] Top shape: 1 3 (3)
I0413 19:10:49.505744 15566 net.cpp:165] Memory required for data: 54000076
I0413 19:10:49.505751 15566 layer_factory.hpp:77] Creating layer input_gt_boxes_input_2_split
I0413 19:10:49.505761 15566 net.cpp:100] Creating Layer input_gt_boxes_input_2_split
I0413 19:10:49.505769 15566 net.cpp:434] input_gt_boxes_input_2_split <- input_gt_boxes
I0413 19:10:49.505781 15566 net.cpp:408] input_gt_boxes_input_2_split -> input_gt_boxes_input_2_split_0
I0413 19:10:49.505796 15566 net.cpp:408] input_gt_boxes_input_2_split -> input_gt_boxes_input_2_split_1
I0413 19:10:49.505832 15566 net.cpp:150] Setting up input_gt_boxes_input_2_split
I0413 19:10:49.505842 15566 net.cpp:157] Top shape: 1 5 (5)
I0413 19:10:49.505851 15566 net.cpp:157] Top shape: 1 5 (5)
I0413 19:10:49.505857 15566 net.cpp:165] Memory required for data: 54000116
I0413 19:10:49.505864 15566 layer_factory.hpp:77] Creating layer conv1_1
I0413 19:10:49.505883 15566 net.cpp:100] Creating Layer conv1_1
I0413 19:10:49.505892 15566 net.cpp:434] conv1_1 <- input_data_input_0_split_0
I0413 19:10:49.505904 15566 net.cpp:408] conv1_1 -> conv1_1
I0413 19:10:49.509008 15566 net.cpp:150] Setting up conv1_1
I0413 19:10:49.509047 15566 net.cpp:157] Top shape: 1 64 1000 1500 (96000000)
I0413 19:10:49.509052 15566 net.cpp:165] Memory required for data: 438000116
I0413 19:10:49.509078 15566 layer_factory.hpp:77] Creating layer relu1_1
I0413 19:10:49.509093 15566 net.cpp:100] Creating Layer relu1_1
I0413 19:10:49.509101 15566 net.cpp:434] relu1_1 <- conv1_1
I0413 19:10:49.509115 15566 net.cpp:395] relu1_1 -> conv1_1 (in-place)
I0413 19:10:49.509131 15566 net.cpp:150] Setting up relu1_1
I0413 19:10:49.509140 15566 net.cpp:157] Top shape: 1 64 1000 1500 (96000000)
I0413 19:10:49.509146 15566 net.cpp:165] Memory required for data: 822000116
I0413 19:10:49.509153 15566 layer_factory.hpp:77] Creating layer conv1_2
I0413 19:10:49.509168 15566 net.cpp:100] Creating Layer conv1_2
I0413 19:10:49.509177 15566 net.cpp:434] conv1_2 <- conv1_1
I0413 19:10:49.509188 15566 net.cpp:408] conv1_2 -> conv1_2
I0413 19:10:49.512560 15566 net.cpp:150] Setting up conv1_2
I0413 19:10:49.512605 15566 net.cpp:157] Top shape: 1 64 1000 1500 (96000000)
I0413 19:10:49.512612 15566 net.cpp:165] Memory required for data: 1206000116
I0413 19:10:49.512636 15566 layer_factory.hpp:77] Creating layer relu1_2
I0413 19:10:49.512656 15566 net.cpp:100] Creating Layer relu1_2
I0413 19:10:49.512666 15566 net.cpp:434] relu1_2 <- conv1_2
I0413 19:10:49.512681 15566 net.cpp:395] relu1_2 -> conv1_2 (in-place)
I0413 19:10:49.512699 15566 net.cpp:150] Setting up relu1_2
I0413 19:10:49.512711 15566 net.cpp:157] Top shape: 1 64 1000 1500 (96000000)
I0413 19:10:49.512717 15566 net.cpp:165] Memory required for data: 1590000116
I0413 19:10:49.512723 15566 layer_factory.hpp:77] Creating layer pool1
I0413 19:10:49.512740 15566 net.cpp:100] Creating Layer pool1
I0413 19:10:49.512748 15566 net.cpp:434] pool1 <- conv1_2
I0413 19:10:49.512760 15566 net.cpp:408] pool1 -> pool1
I0413 19:10:49.512852 15566 net.cpp:150] Setting up pool1
I0413 19:10:49.512866 15566 net.cpp:157] Top shape: 1 64 500 750 (24000000)
I0413 19:10:49.512873 15566 net.cpp:165] Memory required for data: 1686000116
I0413 19:10:49.512879 15566 layer_factory.hpp:77] Creating layer conv2_1
I0413 19:10:49.512900 15566 net.cpp:100] Creating Layer conv2_1
I0413 19:10:49.512922 15566 net.cpp:434] conv2_1 <- pool1
I0413 19:10:49.512933 15566 net.cpp:408] conv2_1 -> conv2_1
I0413 19:10:49.514672 15566 net.cpp:150] Setting up conv2_1
I0413 19:10:49.514703 15566 net.cpp:157] Top shape: 1 128 500 750 (48000000)
I0413 19:10:49.514708 15566 net.cpp:165] Memory required for data: 1878000116
I0413 19:10:49.514731 15566 layer_factory.hpp:77] Creating layer relu2_1
I0413 19:10:49.514749 15566 net.cpp:100] Creating Layer relu2_1
I0413 19:10:49.514757 15566 net.cpp:434] relu2_1 <- conv2_1
I0413 19:10:49.514770 15566 net.cpp:395] relu2_1 -> conv2_1 (in-place)
I0413 19:10:49.514786 15566 net.cpp:150] Setting up relu2_1
I0413 19:10:49.514796 15566 net.cpp:157] Top shape: 1 128 500 750 (48000000)
I0413 19:10:49.514801 15566 net.cpp:165] Memory required for data: 2070000116
I0413 19:10:49.514807 15566 layer_factory.hpp:77] Creating layer conv2_2
I0413 19:10:49.514824 15566 net.cpp:100] Creating Layer conv2_2
I0413 19:10:49.514832 15566 net.cpp:434] conv2_2 <- conv2_1
I0413 19:10:49.514842 15566 net.cpp:408] conv2_2 -> conv2_2
I0413 19:10:49.515837 15566 net.cpp:150] Setting up conv2_2
I0413 19:10:49.515861 15566 net.cpp:157] Top shape: 1 128 500 750 (48000000)
I0413 19:10:49.515866 15566 net.cpp:165] Memory required for data: 2262000116
I0413 19:10:49.515880 15566 layer_factory.hpp:77] Creating layer relu2_2
I0413 19:10:49.515894 15566 net.cpp:100] Creating Layer relu2_2
I0413 19:10:49.515903 15566 net.cpp:434] relu2_2 <- conv2_2
I0413 19:10:49.515918 15566 net.cpp:395] relu2_2 -> conv2_2 (in-place)
I0413 19:10:49.515931 15566 net.cpp:150] Setting up relu2_2
I0413 19:10:49.515941 15566 net.cpp:157] Top shape: 1 128 500 750 (48000000)
I0413 19:10:49.515949 15566 net.cpp:165] Memory required for data: 2454000116
I0413 19:10:49.515954 15566 layer_factory.hpp:77] Creating layer pool2
I0413 19:10:49.515964 15566 net.cpp:100] Creating Layer pool2
I0413 19:10:49.515971 15566 net.cpp:434] pool2 <- conv2_2
I0413 19:10:49.515980 15566 net.cpp:408] pool2 -> pool2
I0413 19:10:49.516036 15566 net.cpp:150] Setting up pool2
I0413 19:10:49.516047 15566 net.cpp:157] Top shape: 1 128 250 375 (12000000)
I0413 19:10:49.516052 15566 net.cpp:165] Memory required for data: 2502000116
I0413 19:10:49.516057 15566 layer_factory.hpp:77] Creating layer conv3_1
I0413 19:10:49.516074 15566 net.cpp:100] Creating Layer conv3_1
I0413 19:10:49.516080 15566 net.cpp:434] conv3_1 <- pool2
I0413 19:10:49.516093 15566 net.cpp:408] conv3_1 -> conv3_1
I0413 19:10:49.517292 15566 net.cpp:150] Setting up conv3_1
I0413 19:10:49.517323 15566 net.cpp:157] Top shape: 1 256 250 375 (24000000)
I0413 19:10:49.517328 15566 net.cpp:165] Memory required for data: 2598000116
I0413 19:10:49.517350 15566 layer_factory.hpp:77] Creating layer relu3_1
I0413 19:10:49.517364 15566 net.cpp:100] Creating Layer relu3_1
I0413 19:10:49.517372 15566 net.cpp:434] relu3_1 <- conv3_1
I0413 19:10:49.517386 15566 net.cpp:395] relu3_1 -> conv3_1 (in-place)
I0413 19:10:49.517402 15566 net.cpp:150] Setting up relu3_1
I0413 19:10:49.517410 15566 net.cpp:157] Top shape: 1 256 250 375 (24000000)
I0413 19:10:49.517417 15566 net.cpp:165] Memory required for data: 2694000116
I0413 19:10:49.517423 15566 layer_factory.hpp:77] Creating layer conv3_2
I0413 19:10:49.517441 15566 net.cpp:100] Creating Layer conv3_2
I0413 19:10:49.517448 15566 net.cpp:434] conv3_2 <- conv3_1
I0413 19:10:49.517459 15566 net.cpp:408] conv3_2 -> conv3_2
I0413 19:10:49.518846 15566 net.cpp:150] Setting up conv3_2
I0413 19:10:49.518878 15566 net.cpp:157] Top shape: 1 256 250 375 (24000000)
I0413 19:10:49.518883 15566 net.cpp:165] Memory required for data: 2790000116
I0413 19:10:49.518898 15566 layer_factory.hpp:77] Creating layer relu3_2
I0413 19:10:49.518909 15566 net.cpp:100] Creating Layer relu3_2
I0413 19:10:49.518919 15566 net.cpp:434] relu3_2 <- conv3_2
I0413 19:10:49.518934 15566 net.cpp:395] relu3_2 -> conv3_2 (in-place)
I0413 19:10:49.518947 15566 net.cpp:150] Setting up relu3_2
I0413 19:10:49.518956 15566 net.cpp:157] Top shape: 1 256 250 375 (24000000)
I0413 19:10:49.518962 15566 net.cpp:165] Memory required for data: 2886000116
I0413 19:10:49.518968 15566 layer_factory.hpp:77] Creating layer conv3_3
I0413 19:10:49.518985 15566 net.cpp:100] Creating Layer conv3_3
I0413 19:10:49.518990 15566 net.cpp:434] conv3_3 <- conv3_2
I0413 19:10:49.519001 15566 net.cpp:408] conv3_3 -> conv3_3
I0413 19:10:49.520807 15566 net.cpp:150] Setting up conv3_3
I0413 19:10:49.520838 15566 net.cpp:157] Top shape: 1 256 250 375 (24000000)
I0413 19:10:49.520843 15566 net.cpp:165] Memory required for data: 2982000116
I0413 19:10:49.520859 15566 layer_factory.hpp:77] Creating layer relu3_3
I0413 19:10:49.520872 15566 net.cpp:100] Creating Layer relu3_3
I0413 19:10:49.520881 15566 net.cpp:434] relu3_3 <- conv3_3
I0413 19:10:49.520897 15566 net.cpp:395] relu3_3 -> conv3_3 (in-place)
I0413 19:10:49.520929 15566 net.cpp:150] Setting up relu3_3
I0413 19:10:49.520939 15566 net.cpp:157] Top shape: 1 256 250 375 (24000000)
I0413 19:10:49.520944 15566 net.cpp:165] Memory required for data: 3078000116
I0413 19:10:49.520951 15566 layer_factory.hpp:77] Creating layer pool3
I0413 19:10:49.520962 15566 net.cpp:100] Creating Layer pool3
I0413 19:10:49.520969 15566 net.cpp:434] pool3 <- conv3_3
I0413 19:10:49.520983 15566 net.cpp:408] pool3 -> pool3
I0413 19:10:49.521034 15566 net.cpp:150] Setting up pool3
I0413 19:10:49.521044 15566 net.cpp:157] Top shape: 1 256 125 188 (6016000)
I0413 19:10:49.521051 15566 net.cpp:165] Memory required for data: 3102064116
I0413 19:10:49.521057 15566 layer_factory.hpp:77] Creating layer conv4_1
I0413 19:10:49.521073 15566 net.cpp:100] Creating Layer conv4_1
I0413 19:10:49.521080 15566 net.cpp:434] conv4_1 <- pool3
I0413 19:10:49.521091 15566 net.cpp:408] conv4_1 -> conv4_1
I0413 19:10:49.523849 15566 net.cpp:150] Setting up conv4_1
I0413 19:10:49.523881 15566 net.cpp:157] Top shape: 1 512 125 188 (12032000)
I0413 19:10:49.523886 15566 net.cpp:165] Memory required for data: 3150192116
I0413 19:10:49.523908 15566 layer_factory.hpp:77] Creating layer relu4_1
I0413 19:10:49.523922 15566 net.cpp:100] Creating Layer relu4_1
I0413 19:10:49.523931 15566 net.cpp:434] relu4_1 <- conv4_1
I0413 19:10:49.523947 15566 net.cpp:395] relu4_1 -> conv4_1 (in-place)
I0413 19:10:49.523962 15566 net.cpp:150] Setting up relu4_1
I0413 19:10:49.523970 15566 net.cpp:157] Top shape: 1 512 125 188 (12032000)
I0413 19:10:49.523977 15566 net.cpp:165] Memory required for data: 3198320116
I0413 19:10:49.523983 15566 layer_factory.hpp:77] Creating layer conv4_2
I0413 19:10:49.523998 15566 net.cpp:100] Creating Layer conv4_2
I0413 19:10:49.524004 15566 net.cpp:434] conv4_2 <- conv4_1
I0413 19:10:49.524014 15566 net.cpp:408] conv4_2 -> conv4_2
I0413 19:10:49.528272 15566 net.cpp:150] Setting up conv4_2
I0413 19:10:49.528306 15566 net.cpp:157] Top shape: 1 512 125 188 (12032000)
I0413 19:10:49.528312 15566 net.cpp:165] Memory required for data: 3246448116
I0413 19:10:49.528344 15566 layer_factory.hpp:77] Creating layer relu4_2
I0413 19:10:49.528362 15566 net.cpp:100] Creating Layer relu4_2
I0413 19:10:49.528369 15566 net.cpp:434] relu4_2 <- conv4_2
I0413 19:10:49.528385 15566 net.cpp:395] relu4_2 -> conv4_2 (in-place)
I0413 19:10:49.528400 15566 net.cpp:150] Setting up relu4_2
I0413 19:10:49.528409 15566 net.cpp:157] Top shape: 1 512 125 188 (12032000)
I0413 19:10:49.528415 15566 net.cpp:165] Memory required for data: 3294576116
I0413 19:10:49.528421 15566 layer_factory.hpp:77] Creating layer conv4_3
I0413 19:10:49.528435 15566 net.cpp:100] Creating Layer conv4_3
I0413 19:10:49.528441 15566 net.cpp:434] conv4_3 <- conv4_2
I0413 19:10:49.528455 15566 net.cpp:408] conv4_3 -> conv4_3
I0413 19:10:49.532824 15566 net.cpp:150] Setting up conv4_3
I0413 19:10:49.532863 15566 net.cpp:157] Top shape: 1 512 125 188 (12032000)
I0413 19:10:49.532869 15566 net.cpp:165] Memory required for data: 3342704116
I0413 19:10:49.532886 15566 layer_factory.hpp:77] Creating layer relu4_3
I0413 19:10:49.532901 15566 net.cpp:100] Creating Layer relu4_3
I0413 19:10:49.532927 15566 net.cpp:434] relu4_3 <- conv4_3
I0413 19:10:49.532943 15566 net.cpp:395] relu4_3 -> conv4_3 (in-place)
I0413 19:10:49.532959 15566 net.cpp:150] Setting up relu4_3
I0413 19:10:49.532970 15566 net.cpp:157] Top shape: 1 512 125 188 (12032000)
I0413 19:10:49.532977 15566 net.cpp:165] Memory required for data: 3390832116
I0413 19:10:49.532984 15566 layer_factory.hpp:77] Creating layer pool4
I0413 19:10:49.532997 15566 net.cpp:100] Creating Layer pool4
I0413 19:10:49.533006 15566 net.cpp:434] pool4 <- conv4_3
I0413 19:10:49.533016 15566 net.cpp:408] pool4 -> pool4
I0413 19:10:49.533071 15566 net.cpp:150] Setting up pool4
I0413 19:10:49.533085 15566 net.cpp:157] Top shape: 1 512 63 94 (3032064)
I0413 19:10:49.533093 15566 net.cpp:165] Memory required for data: 3402960372
I0413 19:10:49.533102 15566 layer_factory.hpp:77] Creating layer conv5_1
I0413 19:10:49.533116 15566 net.cpp:100] Creating Layer conv5_1
I0413 19:10:49.533124 15566 net.cpp:434] conv5_1 <- pool4
I0413 19:10:49.533141 15566 net.cpp:408] conv5_1 -> conv5_1
I0413 19:10:49.538199 15566 net.cpp:150] Setting up conv5_1
I0413 19:10:49.538236 15566 net.cpp:157] Top shape: 1 512 63 94 (3032064)
I0413 19:10:49.538242 15566 net.cpp:165] Memory required for data: 3415088628
I0413 19:10:49.538259 15566 layer_factory.hpp:77] Creating layer relu5_1
I0413 19:10:49.538271 15566 net.cpp:100] Creating Layer relu5_1
I0413 19:10:49.538283 15566 net.cpp:434] relu5_1 <- conv5_1
I0413 19:10:49.538297 15566 net.cpp:395] relu5_1 -> conv5_1 (in-place)
I0413 19:10:49.538316 15566 net.cpp:150] Setting up relu5_1
I0413 19:10:49.538326 15566 net.cpp:157] Top shape: 1 512 63 94 (3032064)
I0413 19:10:49.538334 15566 net.cpp:165] Memory required for data: 3427216884
I0413 19:10:49.538341 15566 layer_factory.hpp:77] Creating layer conv5_2
I0413 19:10:49.538359 15566 net.cpp:100] Creating Layer conv5_2
I0413 19:10:49.538367 15566 net.cpp:434] conv5_2 <- conv5_1
I0413 19:10:49.538377 15566 net.cpp:408] conv5_2 -> conv5_2
I0413 19:10:49.542879 15566 net.cpp:150] Setting up conv5_2
I0413 19:10:49.542915 15566 net.cpp:157] Top shape: 1 512 63 94 (3032064)
I0413 19:10:49.542922 15566 net.cpp:165] Memory required for data: 3439345140
I0413 19:10:49.542935 15566 layer_factory.hpp:77] Creating layer relu5_2
I0413 19:10:49.542949 15566 net.cpp:100] Creating Layer relu5_2
I0413 19:10:49.542958 15566 net.cpp:434] relu5_2 <- conv5_2
I0413 19:10:49.542973 15566 net.cpp:395] relu5_2 -> conv5_2 (in-place)
I0413 19:10:49.542995 15566 net.cpp:150] Setting up relu5_2
I0413 19:10:49.543004 15566 net.cpp:157] Top shape: 1 512 63 94 (3032064)
I0413 19:10:49.543009 15566 net.cpp:165] Memory required for data: 3451473396
I0413 19:10:49.543015 15566 layer_factory.hpp:77] Creating layer conv5_3
I0413 19:10:49.543035 15566 net.cpp:100] Creating Layer conv5_3
I0413 19:10:49.543041 15566 net.cpp:434] conv5_3 <- conv5_2
I0413 19:10:49.543051 15566 net.cpp:408] conv5_3 -> conv5_3
I0413 19:10:49.547427 15566 net.cpp:150] Setting up conv5_3
I0413 19:10:49.547461 15566 net.cpp:157] Top shape: 1 512 63 94 (3032064)
I0413 19:10:49.547464 15566 net.cpp:165] Memory required for data: 3463601652
I0413 19:10:49.547479 15566 layer_factory.hpp:77] Creating layer relu5_3
I0413 19:10:49.547498 15566 net.cpp:100] Creating Layer relu5_3
I0413 19:10:49.547508 15566 net.cpp:434] relu5_3 <- conv5_3
I0413 19:10:49.547518 15566 net.cpp:395] relu5_3 -> conv5_3 (in-place)
I0413 19:10:49.547533 15566 net.cpp:150] Setting up relu5_3
I0413 19:10:49.547541 15566 net.cpp:157] Top shape: 1 512 63 94 (3032064)
I0413 19:10:49.547547 15566 net.cpp:165] Memory required for data: 3475729908
I0413 19:10:49.547552 15566 layer_factory.hpp:77] Creating layer conv5_3_relu5_3_0_split
I0413 19:10:49.547562 15566 net.cpp:100] Creating Layer conv5_3_relu5_3_0_split
I0413 19:10:49.547569 15566 net.cpp:434] conv5_3_relu5_3_0_split <- conv5_3
I0413 19:10:49.547580 15566 net.cpp:408] conv5_3_relu5_3_0_split -> conv5_3_relu5_3_0_split_0
I0413 19:10:49.547591 15566 net.cpp:408] conv5_3_relu5_3_0_split -> conv5_3_relu5_3_0_split_1
I0413 19:10:49.547641 15566 net.cpp:150] Setting up conv5_3_relu5_3_0_split
I0413 19:10:49.547652 15566 net.cpp:157] Top shape: 1 512 63 94 (3032064)
I0413 19:10:49.547658 15566 net.cpp:157] Top shape: 1 512 63 94 (3032064)
I0413 19:10:49.547662 15566 net.cpp:165] Memory required for data: 3499986420
I0413 19:10:49.547668 15566 layer_factory.hpp:77] Creating layer rpn_big_conv1
I0413 19:10:49.547686 15566 net.cpp:100] Creating Layer rpn_big_conv1
I0413 19:10:49.547694 15566 net.cpp:434] rpn_big_conv1 <- conv5_3_relu5_3_0_split_0
I0413 19:10:49.547705 15566 net.cpp:408] rpn_big_conv1 -> rpn_big_conv1
I0413 19:10:49.575191 15566 net.cpp:150] Setting up rpn_big_conv1
I0413 19:10:49.575222 15566 net.cpp:157] Top shape: 1 512 63 94 (3032064)
I0413 19:10:49.575234 15566 net.cpp:165] Memory required for data: 3512114676
I0413 19:10:49.575243 15566 layer_factory.hpp:77] Creating layer rpn_big_conv1_relu
I0413 19:10:49.575254 15566 net.cpp:100] Creating Layer rpn_big_conv1_relu
I0413 19:10:49.575259 15566 net.cpp:434] rpn_big_conv1_relu <- rpn_big_conv1
I0413 19:10:49.575273 15566 net.cpp:395] rpn_big_conv1_relu -> rpn_big_conv1 (in-place)
I0413 19:10:49.575286 15566 net.cpp:150] Setting up rpn_big_conv1_relu
I0413 19:10:49.575295 15566 net.cpp:157] Top shape: 1 512 63 94 (3032064)
I0413 19:10:49.575300 15566 net.cpp:165] Memory required for data: 3524242932
I0413 19:10:49.575305 15566 layer_factory.hpp:77] Creating layer rpn_big_conv2
I0413 19:10:49.575321 15566 net.cpp:100] Creating Layer rpn_big_conv2
I0413 19:10:49.575327 15566 net.cpp:434] rpn_big_conv2 <- rpn_big_conv1
I0413 19:10:49.575337 15566 net.cpp:408] rpn_big_conv2 -> rpn_big_conv2
I0413 19:10:49.600548 15566 net.cpp:150] Setting up rpn_big_conv2
I0413 19:10:49.600586 15566 net.cpp:157] Top shape: 1 512 63 94 (3032064)
I0413 19:10:49.600591 15566 net.cpp:165] Memory required for data: 3536371188
I0413 19:10:49.600600 15566 layer_factory.hpp:77] Creating layer rpn_big_conv2_relu
I0413 19:10:49.600611 15566 net.cpp:100] Creating Layer rpn_big_conv2_relu
I0413 19:10:49.600616 15566 net.cpp:434] rpn_big_conv2_relu <- rpn_big_conv2
I0413 19:10:49.600626 15566 net.cpp:395] rpn_big_conv2_relu -> rpn_big_conv2 (in-place)
I0413 19:10:49.600642 15566 net.cpp:150] Setting up rpn_big_conv2_relu
I0413 19:10:49.600651 15566 net.cpp:157] Top shape: 1 512 63 94 (3032064)
I0413 19:10:49.600656 15566 net.cpp:165] Memory required for data: 3548499444
I0413 19:10:49.600661 15566 layer_factory.hpp:77] Creating layer rpn_big_conv2_drop
I0413 19:10:49.600669 15566 net.cpp:100] Creating Layer rpn_big_conv2_drop
I0413 19:10:49.600677 15566 net.cpp:434] rpn_big_conv2_drop <- rpn_big_conv2
I0413 19:10:49.600683 15566 net.cpp:395] rpn_big_conv2_drop -> rpn_big_conv2 (in-place)
I0413 19:10:49.600716 15566 net.cpp:150] Setting up rpn_big_conv2_drop
I0413 19:10:49.600728 15566 net.cpp:157] Top shape: 1 512 63 94 (3032064)
I0413 19:10:49.600733 15566 net.cpp:165] Memory required for data: 3560627700
I0413 19:10:49.600739 15566 layer_factory.hpp:77] Creating layer rpn_big_conv2_rpn_big_conv2_drop_0_split
I0413 19:10:49.600747 15566 net.cpp:100] Creating Layer rpn_big_conv2_rpn_big_conv2_drop_0_split
I0413 19:10:49.600754 15566 net.cpp:434] rpn_big_conv2_rpn_big_conv2_drop_0_split <- rpn_big_conv2
I0413 19:10:49.600765 15566 net.cpp:408] rpn_big_conv2_rpn_big_conv2_drop_0_split -> rpn_big_conv2_rpn_big_conv2_drop_0_split_0
I0413 19:10:49.600777 15566 net.cpp:408] rpn_big_conv2_rpn_big_conv2_drop_0_split -> rpn_big_conv2_rpn_big_conv2_drop_0_split_1
I0413 19:10:49.600836 15566 net.cpp:150] Setting up rpn_big_conv2_rpn_big_conv2_drop_0_split
I0413 19:10:49.600847 15566 net.cpp:157] Top shape: 1 512 63 94 (3032064)
I0413 19:10:49.600854 15566 net.cpp:157] Top shape: 1 512 63 94 (3032064)
I0413 19:10:49.600860 15566 net.cpp:165] Memory required for data: 3584884212
I0413 19:10:49.600867 15566 layer_factory.hpp:77] Creating layer rpn_big_output_cls
I0413 19:10:49.600883 15566 net.cpp:100] Creating Layer rpn_big_output_cls
I0413 19:10:49.600889 15566 net.cpp:434] rpn_big_output_cls <- rpn_big_conv2_rpn_big_conv2_drop_0_split_0
I0413 19:10:49.600901 15566 net.cpp:408] rpn_big_output_cls -> rpn_big_output_cls
I0413 19:10:49.622334 15566 net.cpp:150] Setting up rpn_big_output_cls
I0413 19:10:49.622366 15566 net.cpp:157] Top shape: 1 384 63 94 (2274048)
I0413 19:10:49.622370 15566 net.cpp:165] Memory required for data: 3593980404
I0413 19:10:49.622380 15566 layer_factory.hpp:77] Creating layer rpn_big_output_cls_relu
I0413 19:10:49.622398 15566 net.cpp:100] Creating Layer rpn_big_output_cls_relu
I0413 19:10:49.622407 15566 net.cpp:434] rpn_big_output_cls_relu <- rpn_big_output_cls
I0413 19:10:49.622424 15566 net.cpp:395] rpn_big_output_cls_relu -> rpn_big_output_cls (in-place)
I0413 19:10:49.622440 15566 net.cpp:150] Setting up rpn_big_output_cls_relu
I0413 19:10:49.622448 15566 net.cpp:157] Top shape: 1 384 63 94 (2274048)
I0413 19:10:49.622453 15566 net.cpp:165] Memory required for data: 3603076596
I0413 19:10:49.622458 15566 layer_factory.hpp:77] Creating layer rpn_big_cls_score
I0413 19:10:49.622475 15566 net.cpp:100] Creating Layer rpn_big_cls_score
I0413 19:10:49.622483 15566 net.cpp:434] rpn_big_cls_score <- rpn_big_output_cls
I0413 19:10:49.622494 15566 net.cpp:408] rpn_big_cls_score -> rpn_big_cls_score
I0413 19:10:49.624891 15566 net.cpp:150] Setting up rpn_big_cls_score
I0413 19:10:49.624923 15566 net.cpp:157] Top shape: 1 52 61 92 (291824)
I0413 19:10:49.624928 15566 net.cpp:165] Memory required for data: 3604243892
I0413 19:10:49.624941 15566 layer_factory.hpp:77] Creating layer rpn_big_cls_score_rpn_big_cls_score_0_split
I0413 19:10:49.624950 15566 net.cpp:100] Creating Layer rpn_big_cls_score_rpn_big_cls_score_0_split
I0413 19:10:49.624958 15566 net.cpp:434] rpn_big_cls_score_rpn_big_cls_score_0_split <- rpn_big_cls_score
I0413 19:10:49.624969 15566 net.cpp:408] rpn_big_cls_score_rpn_big_cls_score_0_split -> rpn_big_cls_score_rpn_big_cls_score_0_split_0
I0413 19:10:49.624981 15566 net.cpp:408] rpn_big_cls_score_rpn_big_cls_score_0_split -> rpn_big_cls_score_rpn_big_cls_score_0_split_1
I0413 19:10:49.625030 15566 net.cpp:150] Setting up rpn_big_cls_score_rpn_big_cls_score_0_split
I0413 19:10:49.625041 15566 net.cpp:157] Top shape: 1 52 61 92 (291824)
I0413 19:10:49.625048 15566 net.cpp:157] Top shape: 1 52 61 92 (291824)
I0413 19:10:49.625056 15566 net.cpp:165] Memory required for data: 3606578484
I0413 19:10:49.625061 15566 layer_factory.hpp:77] Creating layer rpn_big_cls_score_reshape
I0413 19:10:49.625072 15566 net.cpp:100] Creating Layer rpn_big_cls_score_reshape
I0413 19:10:49.625078 15566 net.cpp:434] rpn_big_cls_score_reshape <- rpn_big_cls_score_rpn_big_cls_score_0_split_0
I0413 19:10:49.625092 15566 net.cpp:408] rpn_big_cls_score_reshape -> rpn_big_cls_score_reshape
I0413 19:10:49.625129 15566 net.cpp:150] Setting up rpn_big_cls_score_reshape
I0413 19:10:49.625139 15566 net.cpp:157] Top shape: 1 2 1586 92 (291824)
I0413 19:10:49.625145 15566 net.cpp:165] Memory required for data: 3607745780
I0413 19:10:49.625150 15566 layer_factory.hpp:77] Creating layer rpn_big_cls_score_reshape_rpn_big_cls_score_reshape_0_split
I0413 19:10:49.625160 15566 net.cpp:100] Creating Layer rpn_big_cls_score_reshape_rpn_big_cls_score_reshape_0_split
I0413 19:10:49.625167 15566 net.cpp:434] rpn_big_cls_score_reshape_rpn_big_cls_score_reshape_0_split <- rpn_big_cls_score_reshape
I0413 19:10:49.625177 15566 net.cpp:408] rpn_big_cls_score_reshape_rpn_big_cls_score_reshape_0_split -> rpn_big_cls_score_reshape_rpn_big_cls_score_reshape_0_split_0
I0413 19:10:49.625188 15566 net.cpp:408] rpn_big_cls_score_reshape_rpn_big_cls_score_reshape_0_split -> rpn_big_cls_score_reshape_rpn_big_cls_score_reshape_0_split_1
I0413 19:10:49.625236 15566 net.cpp:150] Setting up rpn_big_cls_score_reshape_rpn_big_cls_score_reshape_0_split
I0413 19:10:49.625247 15566 net.cpp:157] Top shape: 1 2 1586 92 (291824)
I0413 19:10:49.625253 15566 net.cpp:157] Top shape: 1 2 1586 92 (291824)
I0413 19:10:49.625259 15566 net.cpp:165] Memory required for data: 3610080372
I0413 19:10:49.625264 15566 layer_factory.hpp:77] Creating layer rpn_big_cls_prob
I0413 19:10:49.625273 15566 net.cpp:100] Creating Layer rpn_big_cls_prob
I0413 19:10:49.625279 15566 net.cpp:434] rpn_big_cls_prob <- rpn_big_cls_score_reshape_rpn_big_cls_score_reshape_0_split_0
I0413 19:10:49.625291 15566 net.cpp:408] rpn_big_cls_prob -> rpn_big_cls_prob
I0413 19:10:49.625367 15566 net.cpp:150] Setting up rpn_big_cls_prob
I0413 19:10:49.625377 15566 net.cpp:157] Top shape: 1 2 1586 92 (291824)
I0413 19:10:49.625383 15566 net.cpp:165] Memory required for data: 3611247668
I0413 19:10:49.625388 15566 layer_factory.hpp:77] Creating layer rpn_big_cls_prob_reshape
I0413 19:10:49.625398 15566 net.cpp:100] Creating Layer rpn_big_cls_prob_reshape
I0413 19:10:49.625406 15566 net.cpp:434] rpn_big_cls_prob_reshape <- rpn_big_cls_prob
I0413 19:10:49.625413 15566 net.cpp:408] rpn_big_cls_prob_reshape -> rpn_big_cls_prob_reshape
I0413 19:10:49.625445 15566 net.cpp:150] Setting up rpn_big_cls_prob_reshape
I0413 19:10:49.625455 15566 net.cpp:157] Top shape: 1 52 61 92 (291824)
I0413 19:10:49.625460 15566 net.cpp:165] Memory required for data: 3612414964
I0413 19:10:49.625466 15566 layer_factory.hpp:77] Creating layer rpn_big_cls_prob_reshape_rpn_big_cls_prob_reshape_0_split
I0413 19:10:49.625475 15566 net.cpp:100] Creating Layer rpn_big_cls_prob_reshape_rpn_big_cls_prob_reshape_0_split
I0413 19:10:49.625481 15566 net.cpp:434] rpn_big_cls_prob_reshape_rpn_big_cls_prob_reshape_0_split <- rpn_big_cls_prob_reshape
I0413 19:10:49.625489 15566 net.cpp:408] rpn_big_cls_prob_reshape_rpn_big_cls_prob_reshape_0_split -> rpn_big_cls_prob_reshape_rpn_big_cls_prob_reshape_0_split_0
I0413 19:10:49.625500 15566 net.cpp:408] rpn_big_cls_prob_reshape_rpn_big_cls_prob_reshape_0_split -> rpn_big_cls_prob_reshape_rpn_big_cls_prob_reshape_0_split_1
I0413 19:10:49.625545 15566 net.cpp:150] Setting up rpn_big_cls_prob_reshape_rpn_big_cls_prob_reshape_0_split
I0413 19:10:49.625556 15566 net.cpp:157] Top shape: 1 52 61 92 (291824)
I0413 19:10:49.625562 15566 net.cpp:157] Top shape: 1 52 61 92 (291824)
I0413 19:10:49.625568 15566 net.cpp:165] Memory required for data: 3614749556
I0413 19:10:49.625573 15566 layer_factory.hpp:77] Creating layer rpn_big_anchor_target
I0413 19:10:49.627089 15566 net.cpp:100] Creating Layer rpn_big_anchor_target
I0413 19:10:49.627104 15566 net.cpp:434] rpn_big_anchor_target <- rpn_big_cls_score_rpn_big_cls_score_0_split_1
I0413 19:10:49.627111 15566 net.cpp:434] rpn_big_anchor_target <- input_gt_boxes_input_2_split_0
I0413 19:10:49.627120 15566 net.cpp:434] rpn_big_anchor_target <- input_ignored_boxes
I0413 19:10:49.627128 15566 net.cpp:434] rpn_big_anchor_target <- input_im_info_input_1_split_0
I0413 19:10:49.627137 15566 net.cpp:434] rpn_big_anchor_target <- input_data_input_0_split_1
I0413 19:10:49.627146 15566 net.cpp:434] rpn_big_anchor_target <- rpn_big_cls_prob_reshape_rpn_big_cls_prob_reshape_0_split_0
I0413 19:10:49.627156 15566 net.cpp:408] rpn_big_anchor_target -> rpn_big_anchor_target_labels
I0413 19:10:49.627172 15566 net.cpp:408] rpn_big_anchor_target -> rpn_big_anchor_target_bbox_targets
I0413 19:10:49.627187 15566 net.cpp:408] rpn_big_anchor_target -> rpn_big_anchor_target_inside_weights
I0413 19:10:49.627199 15566 net.cpp:408] rpn_big_anchor_target -> rpn_big_anchor_target_outside_weights
I0413 19:10:49.631974 15566 net.cpp:150] Setting up rpn_big_anchor_target
I0413 19:10:49.632000 15566 net.cpp:157] Top shape: 1 1 1586 92 (145912)
I0413 19:10:49.632006 15566 net.cpp:157] Top shape: 1 104 61 92 (583648)
I0413 19:10:49.632014 15566 net.cpp:157] Top shape: 1 104 61 92 (583648)
I0413 19:10:49.632020 15566 net.cpp:157] Top shape: 1 104 61 92 (583648)
I0413 19:10:49.632027 15566 net.cpp:165] Memory required for data: 3622336980
I0413 19:10:49.632035 15566 layer_factory.hpp:77] Creating layer rpn_big_loss_cls
I0413 19:10:49.632052 15566 net.cpp:100] Creating Layer rpn_big_loss_cls
I0413 19:10:49.632061 15566 net.cpp:434] rpn_big_loss_cls <- rpn_big_cls_score_reshape_rpn_big_cls_score_reshape_0_split_1
I0413 19:10:49.632071 15566 net.cpp:434] rpn_big_loss_cls <- rpn_big_anchor_target_labels
I0413 19:10:49.632081 15566 net.cpp:408] rpn_big_loss_cls -> rpn_big_loss_cls
I0413 19:10:49.632099 15566 layer_factory.hpp:77] Creating layer rpn_big_loss_cls
I0413 19:10:49.633762 15566 net.cpp:150] Setting up rpn_big_loss_cls
I0413 19:10:49.633779 15566 net.cpp:157] Top shape: (1)
I0413 19:10:49.633781 15566 net.cpp:160]     with loss weight 1
I0413 19:10:49.633796 15566 net.cpp:165] Memory required for data: 3622336984
I0413 19:10:49.633805 15566 layer_factory.hpp:77] Creating layer rpn_big_output_box
I0413 19:10:49.633822 15566 net.cpp:100] Creating Layer rpn_big_output_box
I0413 19:10:49.633831 15566 net.cpp:434] rpn_big_output_box <- rpn_big_conv2_rpn_big_conv2_drop_0_split_1
I0413 19:10:49.633846 15566 net.cpp:408] rpn_big_output_box -> rpn_big_output_box
I0413 19:10:49.653220 15566 net.cpp:150] Setting up rpn_big_output_box
I0413 19:10:49.653249 15566 net.cpp:157] Top shape: 1 384 63 94 (2274048)
I0413 19:10:49.653262 15566 net.cpp:165] Memory required for data: 3631433176
I0413 19:10:49.653271 15566 layer_factory.hpp:77] Creating layer rpn_big_output_box_relu
I0413 19:10:49.653282 15566 net.cpp:100] Creating Layer rpn_big_output_box_relu
I0413 19:10:49.653288 15566 net.cpp:434] rpn_big_output_box_relu <- rpn_big_output_box
I0413 19:10:49.653301 15566 net.cpp:395] rpn_big_output_box_relu -> rpn_big_output_box (in-place)
I0413 19:10:49.653316 15566 net.cpp:150] Setting up rpn_big_output_box_relu
I0413 19:10:49.653326 15566 net.cpp:157] Top shape: 1 384 63 94 (2274048)
I0413 19:10:49.653331 15566 net.cpp:165] Memory required for data: 3640529368
I0413 19:10:49.653336 15566 layer_factory.hpp:77] Creating layer rpn_big_bbox_pred
I0413 19:10:49.653352 15566 net.cpp:100] Creating Layer rpn_big_bbox_pred
I0413 19:10:49.653358 15566 net.cpp:434] rpn_big_bbox_pred <- rpn_big_output_box
I0413 19:10:49.653368 15566 net.cpp:408] rpn_big_bbox_pred -> rpn_big_bbox_pred
I0413 19:10:49.657630 15566 net.cpp:150] Setting up rpn_big_bbox_pred
I0413 19:10:49.657649 15566 net.cpp:157] Top shape: 1 104 61 92 (583648)
I0413 19:10:49.657651 15566 net.cpp:165] Memory required for data: 3642863960
I0413 19:10:49.657662 15566 layer_factory.hpp:77] Creating layer rpn_big_bbox_pred_rpn_big_bbox_pred_0_split
I0413 19:10:49.657675 15566 net.cpp:100] Creating Layer rpn_big_bbox_pred_rpn_big_bbox_pred_0_split
I0413 19:10:49.657685 15566 net.cpp:434] rpn_big_bbox_pred_rpn_big_bbox_pred_0_split <- rpn_big_bbox_pred
I0413 19:10:49.657697 15566 net.cpp:408] rpn_big_bbox_pred_rpn_big_bbox_pred_0_split -> rpn_big_bbox_pred_rpn_big_bbox_pred_0_split_0
I0413 19:10:49.657711 15566 net.cpp:408] rpn_big_bbox_pred_rpn_big_bbox_pred_0_split -> rpn_big_bbox_pred_rpn_big_bbox_pred_0_split_1
I0413 19:10:49.657763 15566 net.cpp:150] Setting up rpn_big_bbox_pred_rpn_big_bbox_pred_0_split
I0413 19:10:49.657775 15566 net.cpp:157] Top shape: 1 104 61 92 (583648)
I0413 19:10:49.657783 15566 net.cpp:157] Top shape: 1 104 61 92 (583648)
I0413 19:10:49.657788 15566 net.cpp:165] Memory required for data: 3647533144
I0413 19:10:49.657793 15566 layer_factory.hpp:77] Creating layer rpn_big_loss_bbox
I0413 19:10:49.658198 15566 net.cpp:100] Creating Layer rpn_big_loss_bbox
I0413 19:10:49.658207 15566 net.cpp:434] rpn_big_loss_bbox <- rpn_big_bbox_pred_rpn_big_bbox_pred_0_split_0
I0413 19:10:49.658215 15566 net.cpp:434] rpn_big_loss_bbox <- rpn_big_anchor_target_bbox_targets
I0413 19:10:49.658224 15566 net.cpp:434] rpn_big_loss_bbox <- rpn_big_anchor_target_inside_weights
I0413 19:10:49.658232 15566 net.cpp:434] rpn_big_loss_bbox <- rpn_big_anchor_target_outside_weights
I0413 19:10:49.658243 15566 net.cpp:408] rpn_big_loss_bbox -> rpn_big_loss_bbox
I0413 19:10:49.660337 15566 net.cpp:150] Setting up rpn_big_loss_bbox
I0413 19:10:49.660368 15566 net.cpp:157] Top shape: 1 (1)
I0413 19:10:49.660372 15566 net.cpp:160]     with loss weight 1
I0413 19:10:49.660382 15566 net.cpp:165] Memory required for data: 3647533148
I0413 19:10:49.660388 15566 layer_factory.hpp:77] Creating layer proposal
I0413 19:10:49.660785 15566 net.cpp:100] Creating Layer proposal
I0413 19:10:49.660794 15566 net.cpp:434] proposal <- rpn_big_cls_prob_reshape_rpn_big_cls_prob_reshape_0_split_1
I0413 19:10:49.660801 15566 net.cpp:434] proposal <- rpn_big_bbox_pred_rpn_big_bbox_pred_0_split_1
I0413 19:10:49.660806 15566 net.cpp:434] proposal <- input_im_info_input_1_split_1
I0413 19:10:49.660814 15566 net.cpp:408] proposal -> rpn_rois
I0413 19:10:49.664899 15566 net.cpp:150] Setting up proposal
I0413 19:10:49.664925 15566 net.cpp:157] Top shape: 1 5 (5)
I0413 19:10:49.664930 15566 net.cpp:165] Memory required for data: 3647533168
I0413 19:10:49.664934 15566 layer_factory.hpp:77] Creating layer roi-data
I0413 19:10:49.665243 15566 net.cpp:100] Creating Layer roi-data
I0413 19:10:49.665251 15566 net.cpp:434] roi-data <- rpn_rois
I0413 19:10:49.665257 15566 net.cpp:434] roi-data <- input_gt_boxes_input_2_split_1
I0413 19:10:49.665264 15566 net.cpp:408] roi-data -> rois
I0413 19:10:49.665272 15566 net.cpp:408] roi-data -> labels
I0413 19:10:49.665280 15566 net.cpp:408] roi-data -> bbox_targets
I0413 19:10:49.665287 15566 net.cpp:408] roi-data -> bbox_inside_weights
I0413 19:10:49.665292 15566 net.cpp:408] roi-data -> bbox_outside_weights
I0413 19:10:49.665299 15566 net.cpp:408] roi-data -> pid_label
anchors:
<<<<<<<<<<<<<<<<<<<<<<<<<<<<<<<<<<<<<<<<<<<<<<<<<<<<<<<<<<<<<<<<<<<<<<<<<<<<<<<<<<<<<<<<<<<<<<<<<<<<<<<<<<<<<<<<<<<<<<<<<<<<<<<<<<<<<<<<<<<<<<<<<<<<<<<<<<<<<<<<<<<<<<<<<<<<<<<<<<<<<<<<<<<<<<<<<<<<<<<<<<<<<<<<<<<<<<<<<<<<<<<<<<<<<<<<<<<<<<<<<<<<<<<<<<<<<<<<<<<<<<<<<<<<<<<<<<<<<<<<<<<<<<<<<<<<<<<<<<<<
[[ -84.  -40.   99.   55.]
 [-176.  -88.  191.  103.]
 [-360. -184.  375.  199.]
 [ -56.  -56.   71.   71.]
 [-120. -120.  135.  135.]
 [-248. -248.  263.  263.]
 [ -36.  -80.   51.   95.]
 [ -80. -168.   95.  183.]
 [-168. -344.  183.  359.]]
I0413 19:10:49.667786 15566 net.cpp:150] Setting up roi-data
I0413 19:10:49.667809 15566 net.cpp:157] Top shape: 1 5 (5)
I0413 19:10:49.667814 15566 net.cpp:157] Top shape: 1 1 (1)
I0413 19:10:49.667816 15566 net.cpp:157] Top shape: 1 8 (8)
I0413 19:10:49.667820 15566 net.cpp:157] Top shape: 1 8 (8)
I0413 19:10:49.667824 15566 net.cpp:157] Top shape: 1 8 (8)
I0413 19:10:49.667829 15566 net.cpp:157] Top shape: (0)
I0413 19:10:49.667834 15566 net.cpp:165] Memory required for data: 3647533288
I0413 19:10:49.667841 15566 layer_factory.hpp:77] Creating layer roi-pool
I0413 19:10:49.667856 15566 net.cpp:100] Creating Layer roi-pool
I0413 19:10:49.667865 15566 net.cpp:434] roi-pool <- conv5_3_relu5_3_0_split_1
I0413 19:10:49.667875 15566 net.cpp:434] roi-pool <- rois
I0413 19:10:49.667887 15566 net.cpp:408] roi-pool -> roi-pool
I0413 19:10:49.667903 15566 roi_pooling_layer.cpp:33] Spatial scale: 0.0625
I0413 19:10:49.667915 15566 roi_pooling_layer.cpp:34] Box scale: 1
I0413 19:10:49.667971 15566 net.cpp:150] Setting up roi-pool
I0413 19:10:49.667985 15566 net.cpp:157] Top shape: 1 512 7 7 (25088)
I0413 19:10:49.667991 15566 net.cpp:165] Memory required for data: 3647633640
I0413 19:10:49.667997 15566 layer_factory.hpp:77] Creating layer fc6
I0413 19:10:49.668009 15566 net.cpp:100] Creating Layer fc6
I0413 19:10:49.668015 15566 net.cpp:434] fc6 <- roi-pool
I0413 19:10:49.668022 15566 net.cpp:408] fc6 -> fc6
I0413 19:10:49.834609 15566 net.cpp:150] Setting up fc6
I0413 19:10:49.834645 15566 net.cpp:157] Top shape: 1 4096 (4096)
I0413 19:10:49.834658 15566 net.cpp:165] Memory required for data: 3647650024
I0413 19:10:49.834669 15566 layer_factory.hpp:77] Creating layer relu6
I0413 19:10:49.834681 15566 net.cpp:100] Creating Layer relu6
I0413 19:10:49.834686 15566 net.cpp:434] relu6 <- fc6
I0413 19:10:49.834694 15566 net.cpp:395] relu6 -> fc6 (in-place)
I0413 19:10:49.834708 15566 net.cpp:150] Setting up relu6
I0413 19:10:49.834715 15566 net.cpp:157] Top shape: 1 4096 (4096)
I0413 19:10:49.834720 15566 net.cpp:165] Memory required for data: 3647666408
I0413 19:10:49.834725 15566 layer_factory.hpp:77] Creating layer drop6
I0413 19:10:49.834736 15566 net.cpp:100] Creating Layer drop6
I0413 19:10:49.834753 15566 net.cpp:434] drop6 <- fc6
I0413 19:10:49.834760 15566 net.cpp:395] drop6 -> fc6 (in-place)
I0413 19:10:49.834790 15566 net.cpp:150] Setting up drop6
I0413 19:10:49.834800 15566 net.cpp:157] Top shape: 1 4096 (4096)
I0413 19:10:49.834805 15566 net.cpp:165] Memory required for data: 3647682792
I0413 19:10:49.834810 15566 layer_factory.hpp:77] Creating layer fc7
I0413 19:10:49.834822 15566 net.cpp:100] Creating Layer fc7
I0413 19:10:49.834830 15566 net.cpp:434] fc7 <- fc6
I0413 19:10:49.834841 15566 net.cpp:408] fc7 -> fc7
I0413 19:10:49.863740 15566 net.cpp:150] Setting up fc7
I0413 19:10:49.863780 15566 net.cpp:157] Top shape: 1 4096 (4096)
I0413 19:10:49.863782 15566 net.cpp:165] Memory required for data: 3647699176
I0413 19:10:49.863795 15566 layer_factory.hpp:77] Creating layer relu7
I0413 19:10:49.863823 15566 net.cpp:100] Creating Layer relu7
I0413 19:10:49.863832 15566 net.cpp:434] relu7 <- fc7
I0413 19:10:49.863842 15566 net.cpp:395] relu7 -> fc7 (in-place)
I0413 19:10:49.863867 15566 net.cpp:150] Setting up relu7
I0413 19:10:49.863874 15566 net.cpp:157] Top shape: 1 4096 (4096)
I0413 19:10:49.863879 15566 net.cpp:165] Memory required for data: 3647715560
I0413 19:10:49.863884 15566 layer_factory.hpp:77] Creating layer drop7
I0413 19:10:49.863893 15566 net.cpp:100] Creating Layer drop7
I0413 19:10:49.863903 15566 net.cpp:434] drop7 <- fc7
I0413 19:10:49.863909 15566 net.cpp:395] drop7 -> fc7 (in-place)
I0413 19:10:49.863939 15566 net.cpp:150] Setting up drop7
I0413 19:10:49.863948 15566 net.cpp:157] Top shape: 1 4096 (4096)
I0413 19:10:49.863953 15566 net.cpp:165] Memory required for data: 3647731944
I0413 19:10:49.863958 15566 layer_factory.hpp:77] Creating layer fc7_drop7_0_split
I0413 19:10:49.863967 15566 net.cpp:100] Creating Layer fc7_drop7_0_split
I0413 19:10:49.863976 15566 net.cpp:434] fc7_drop7_0_split <- fc7
I0413 19:10:49.863987 15566 net.cpp:408] fc7_drop7_0_split -> fc7_drop7_0_split_0
I0413 19:10:49.864013 15566 net.cpp:408] fc7_drop7_0_split -> fc7_drop7_0_split_1
I0413 19:10:49.864061 15566 net.cpp:150] Setting up fc7_drop7_0_split
I0413 19:10:49.864071 15566 net.cpp:157] Top shape: 1 4096 (4096)
I0413 19:10:49.864078 15566 net.cpp:157] Top shape: 1 4096 (4096)
I0413 19:10:49.864083 15566 net.cpp:165] Memory required for data: 3647764712
I0413 19:10:49.864087 15566 layer_factory.hpp:77] Creating layer bbox_pred
I0413 19:10:49.864099 15566 net.cpp:100] Creating Layer bbox_pred
I0413 19:10:49.864106 15566 net.cpp:434] bbox_pred <- fc7_drop7_0_split_0
I0413 19:10:49.864118 15566 net.cpp:408] bbox_pred -> bbox_pred
I0413 19:10:49.864759 15566 net.cpp:150] Setting up bbox_pred
I0413 19:10:49.864768 15566 net.cpp:157] Top shape: 1 8 (8)
I0413 19:10:49.864770 15566 net.cpp:165] Memory required for data: 3647764744
I0413 19:10:49.864779 15566 layer_factory.hpp:77] Creating layer loss_bbox
I0413 19:10:49.864792 15566 net.cpp:100] Creating Layer loss_bbox
I0413 19:10:49.864799 15566 net.cpp:434] loss_bbox <- bbox_pred
I0413 19:10:49.864806 15566 net.cpp:434] loss_bbox <- bbox_targets
I0413 19:10:49.864812 15566 net.cpp:434] loss_bbox <- bbox_inside_weights
I0413 19:10:49.864820 15566 net.cpp:434] loss_bbox <- bbox_outside_weights
I0413 19:10:49.864830 15566 net.cpp:408] loss_bbox -> loss_bbox
I0413 19:10:49.864939 15566 net.cpp:150] Setting up loss_bbox
I0413 19:10:49.864950 15566 net.cpp:157] Top shape: (1)
I0413 19:10:49.864954 15566 net.cpp:160]     with loss weight 1
I0413 19:10:49.864970 15566 net.cpp:165] Memory required for data: 3647764748
I0413 19:10:49.864976 15566 layer_factory.hpp:77] Creating layer feat
I0413 19:10:49.864987 15566 net.cpp:100] Creating Layer feat
I0413 19:10:49.864995 15566 net.cpp:434] feat <- fc7_drop7_0_split_1
I0413 19:10:49.865003 15566 net.cpp:408] feat -> feat
I0413 19:10:49.876117 15566 net.cpp:150] Setting up feat
I0413 19:10:49.876145 15566 net.cpp:157] Top shape: 1 256 (256)
I0413 19:10:49.876157 15566 net.cpp:165] Memory required for data: 3647765772
I0413 19:10:49.876168 15566 layer_factory.hpp:77] Creating layer relu8
I0413 19:10:49.876178 15566 net.cpp:100] Creating Layer relu8
I0413 19:10:49.876183 15566 net.cpp:434] relu8 <- feat
I0413 19:10:49.876194 15566 net.cpp:395] relu8 -> feat (in-place)
I0413 19:10:49.876209 15566 net.cpp:150] Setting up relu8
I0413 19:10:49.876217 15566 net.cpp:157] Top shape: 1 256 (256)
I0413 19:10:49.876221 15566 net.cpp:165] Memory required for data: 3647766796
I0413 19:10:49.876226 15566 layer_factory.hpp:77] Creating layer drop8
I0413 19:10:49.876235 15566 net.cpp:100] Creating Layer drop8
I0413 19:10:49.876242 15566 net.cpp:434] drop8 <- feat
I0413 19:10:49.876250 15566 net.cpp:395] drop8 -> feat (in-place)
I0413 19:10:49.876281 15566 net.cpp:150] Setting up drop8
I0413 19:10:49.876289 15566 net.cpp:157] Top shape: 1 256 (256)
I0413 19:10:49.876294 15566 net.cpp:165] Memory required for data: 3647767820
I0413 19:10:49.876299 15566 layer_factory.hpp:77] Creating layer pid_score
I0413 19:10:49.876310 15566 net.cpp:100] Creating Layer pid_score
I0413 19:10:49.876317 15566 net.cpp:434] pid_score <- feat
I0413 19:10:49.876327 15566 net.cpp:408] pid_score -> pid_score
I0413 19:10:49.891434 15566 net.cpp:150] Setting up pid_score
I0413 19:10:49.891463 15566 net.cpp:157] Top shape: 1 5533 (5533)
I0413 19:10:49.891474 15566 net.cpp:165] Memory required for data: 3647789952
I0413 19:10:49.891485 15566 layer_factory.hpp:77] Creating layer pid_accuracy
I0413 19:10:49.891496 15566 net.cpp:100] Creating Layer pid_accuracy
I0413 19:10:49.891500 15566 net.cpp:434] pid_accuracy <- pid_score
I0413 19:10:49.891508 15566 net.cpp:434] pid_accuracy <- pid_label
I0413 19:10:49.891520 15566 net.cpp:408] pid_accuracy -> pid_accuracy
…
