…
I0413 18:40:56.480396 13783 solver.cpp:48] Initializing solver from parameters: 
base_lr: 0.001
display: 20
lr_policy: "multistep"
gamma: 0.1
momentum: 0.9
weight_decay: 0.0005
snapshot: 0
snapshot_prefix: "faces_example"
net_param {
  name: "GeneratedModel_13_04_2017_18_40"
  layer {
    name: "input"
    type: "Python"
    top: "input_data"
    top: "input_im_info"
    top: "input_gt_boxes"
    top: "input_ignored_boxes"
    python_param {
      module: "layers.roi_data_layer"
      layer: "RoIDataLayer"
      param_str: "{\"num_classes\": 2}"
    }
  }
  layer {
    name: "conv1_1"
    type: "Convolution"
    bottom: "input_data"
    top: "conv1_1"
    param {
      lr_mult: 0
      decay_mult: 0
    }
    param {
      lr_mult: 0
      decay_mult: 0
    }
    convolution_param {
      num_output: 64
      pad: 1
      kernel_size: 3
    }
  }
  layer {
    name: "relu1_1"
    type: "ReLU"
    bottom: "conv1_1"
    top: "conv1_1"
  }
  layer {
    name: "conv1_2"
    type: "Convolution"
    bottom: "conv1_1"
    top: "conv1_2"
    param {
      lr_mult: 0
      decay_mult: 0
    }
    param {
      lr_mult: 0
      decay_mult: 0
    }
    convolution_param {
      num_output: 64
      pad: 1
      kernel_size: 3
    }
  }
  layer {
    name: "relu1_2"
    type: "ReLU"
    bottom: "conv1_2"
    top: "conv1_2"
  }
  layer {
    name: "pool1"
    type: "Pooling"
    bottom: "conv1_2"
    top: "pool1"
    pooling_param {
      pool: MAX
      kernel_size: 2
      stride: 2
    }
  }
  layer {
    name: "conv2_1"
    type: "Convolution"
    bottom: "pool1"
    top: "conv2_1"
    param {
      lr_mult: 0
      decay_mult: 0
    }
    param {
      lr_mult: 0
      decay_mult: 0
    }
    convolution_param {
      num_output: 128
      pad: 1
      kernel_size: 3
    }
  }
  layer {
    name: "relu2_1"
    type: "ReLU"
    bottom: "conv2_1"
    top: "conv2_1"
  }
  layer {
    name: "conv2_2"
    type: "Convolution"
    bottom: "conv2_1"
    top: "conv2_2"
    param {
      lr_mult: 0
      decay_mult: 0
    }
    param {
      lr_mult: 0
      decay_mult: 0
    }
    convolution_param {
      num_output: 128
      pad: 1
      kernel_size: 3
    }
  }
  layer {
    name: "relu2_2"
    type: "ReLU"
    bottom: "conv2_2"
    top: "conv2_2"
  }
  layer {
    name: "pool2"
    type: "Pooling"
    bottom: "conv2_2"
    top: "pool2"
    pooling_param {
      pool: MAX
      kernel_size: 2
      stride: 2
    }
  }
  layer {
    name: "conv3_1"
    type: "Convolution"
    bottom: "pool2"
    top: "conv3_1"
    param {
      lr_mult: 1
    }
    param {
      lr_mult: 2
    }
    convolution_param {
      num_output: 256
      pad: 1
      kernel_size: 3
    }
  }
  layer {
    name: "relu3_1"
    type: "ReLU"
    bottom: "conv3_1"
    top: "conv3_1"
  }
  layer {
    name: "conv3_2"
    type: "Convolution"
    bottom: "conv3_1"
    top: "conv3_2"
    param {
      lr_mult: 1
    }
    param {
      lr_mult: 2
    }
    convolution_param {
      num_output: 256
      pad: 1
      kernel_size: 3
    }
  }
  layer {
    name: "relu3_2"
    type: "ReLU"
    bottom: "conv3_2"
    top: "conv3_2"
  }
  layer {
    name: "conv3_3"
    type: "Convolution"
    bottom: "conv3_2"
    top: "conv3_3"
    param {
      lr_mult: 1
    }
    param {
      lr_mult: 2
    }
    convolution_param {
      num_output: 256
      pad: 1
      kernel_size: 3
    }
  }
  layer {
    name: "relu3_3"
    type: "ReLU"
    bottom: "conv3_3"
    top: "conv3_3"
  }
  layer {
    name: "pool3"
    type: "Pooling"
    bottom: "conv3_3"
    top: "pool3"
    pooling_param {
      pool: MAX
      kernel_size: 2
      stride: 2
    }
  }
  layer {
    name: "conv4_1"
    type: "Convolution"
    bottom: "pool3"
    top: "conv4_1"
    param {
      lr_mult: 1
    }
    param {
      lr_mult: 2
    }
    convolution_param {
      num_output: 512
      pad: 1
      kernel_size: 3
    }
  }
  layer {
    name: "relu4_1"
    type: "ReLU"
    bottom: "conv4_1"
    top: "conv4_1"
  }
  layer {
    name: "conv4_2"
    type: "Convolution"
    bottom: "conv4_1"
    top: "conv4_2"
    param {
      lr_mult: 1
    }
    param {
      lr_mult: 2
    }
    convolution_param {
      num_output: 512
      pad: 1
      kernel_size: 3
    }
  }
  layer {
    name: "relu4_2"
    type: "ReLU"
    bottom: "conv4_2"
    top: "conv4_2"
  }
  layer {
    name: "conv4_3"
    type: "Convolution"
    bottom: "conv4_2"
    top: "conv4_3"
    param {
      lr_mult: 1
    }
    param {
      lr_mult: 2
    }
    convolution_param {
      num_output: 512
      pad: 1
      kernel_size: 3
    }
  }
  layer {
    name: "relu4_3"
    type: "ReLU"
    bottom: "conv4_3"
    top: "conv4_3"
  }
  layer {
    name: "pool4"
    type: "Pooling"
    bottom: "conv4_3"
    top: "pool4"
    pooling_param {
      pool: MAX
      kernel_size: 2
      stride: 2
    }
  }
  layer {
    name: "conv5_1"
    type: "Convolution"
    bottom: "pool4"
    top: "conv5_1"
    param {
      lr_mult: 1
    }
    param {
      lr_mult: 2
    }
    convolution_param {
      num_output: 512
      pad: 1
      kernel_size: 3
    }
  }
  layer {
    name: "relu5_1"
    type: "ReLU"
    bottom: "conv5_1"
    top: "conv5_1"
  }
  layer {
    name: "conv5_2"
    type: "Convolution"
    bottom: "conv5_1"
    top: "conv5_2"
    param {
      lr_mult: 1
    }
    param {
      lr_mult: 2
    }
    convolution_param {
      num_output: 512
      pad: 1
      kernel_size: 3
    }
  }
  layer {
    name: "relu5_2"
    type: "ReLU"
    bottom: "conv5_2"
    top: "conv5_2"
  }
  layer {
    name: "conv5_3"
    type: "Convolution"
    bottom: "conv5_2"
    top: "conv5_3"
    param {
      lr_mult: 1
    }
    param {
      lr_mult: 2
    }
    convolution_param {
      num_output: 512
      pad: 1
      kernel_size: 3
    }
  }
  layer {
    name: "relu5_3"
    type: "ReLU"
    bottom: "conv5_3"
    top: "conv5_3"
  }
  layer {
    name: "rpn_big_conv1"
    type: "Convolution"
    bottom: "conv5_3"
    top: "rpn_big_conv1"
    param {
      lr_mult: 1
    }
    param {
      lr_mult: 2
    }
    convolution_param {
      num_output: 512
      pad: 1
      kernel_size: 3
      stride: 1
      weight_filler {
        type: "gaussian"
        mean: 0
        std: 0.01
      }
      bias_filler {
        type: "constant"
      }
    }
  }
  layer {
    name: "rpn_big_conv1_relu"
    type: "ReLU"
    bottom: "rpn_big_conv1"
    top: "rpn_big_conv1"
    relu_param {
      negative_slope: 0
    }
  }
  layer {
    name: "rpn_big_conv2"
    type: "Convolution"
    bottom: "rpn_big_conv1"
    top: "rpn_big_conv2"
    param {
      lr_mult: 1
    }
    param {
      lr_mult: 2
    }
    convolution_param {
      num_output: 512
      pad: 1
      kernel_size: 3
      stride: 1
      weight_filler {
        type: "gaussian"
        mean: 0
        std: 0.01
      }
      bias_filler {
        type: "constant"
      }
    }
  }
  layer {
    name: "rpn_big_conv2_relu"
    type: "ReLU"
    bottom: "rpn_big_conv2"
    top: "rpn_big_conv2"
    relu_param {
      negative_slope: 0
    }
  }
  layer {
    name: "rpn_big_conv2_drop"
    type: "Dropout"
    bottom: "rpn_big_conv2"
    top: "rpn_big_conv2"
    dropout_param {
      dropout_ratio: 0.3
    }
  }
  layer {
    name: "rpn_big_output_cls"
    type: "Convolution"
    bottom: "rpn_big_conv2"
    top: "rpn_big_output_cls"
    param {
      lr_mult: 1
    }
    param {
      lr_mult: 2
    }
    convolution_param {
      num_output: 384
      pad: 1
      kernel_size: 3
      stride: 1
      weight_filler {
        type: "gaussian"
        mean: 0
        std: 0.01
      }
      bias_filler {
        type: "constant"
      }
    }
  }
  layer {
    name: "rpn_big_output_cls_relu"
    type: "ReLU"
    bottom: "rpn_big_output_cls"
    top: "rpn_big_output_cls"
    relu_param {
      negative_slope: 0
    }
  }
  layer {
    name: "rpn_big_cls_score"
    type: "Convolution"
    bottom: "rpn_big_output_cls"
    top: "rpn_big_cls_score"
    param {
      lr_mult: 1
    }
    param {
      lr_mult: 2
    }
    convolution_param {
      num_output: 52
      pad: 0
      kernel_size: 3
      stride: 1
      weight_filler {
        type: "gaussian"
        mean: 0
        std: 0.01
      }
      bias_filler {
        type: "constant"
      }
    }
  }
  layer {
    name: "rpn_big_cls_score_reshape"
    type: "Reshape"
    bottom: "rpn_big_cls_score"
    top: "rpn_big_cls_score_reshape"
    reshape_param {
      shape {
        dim: 0
        dim: 2
        dim: -1
        dim: 0
      }
    }
  }
  layer {
    name: "rpn_big_cls_prob"
    type: "Softmax"
    bottom: "rpn_big_cls_score_reshape"
    top: "rpn_big_cls_prob"
  }
  layer {
    name: "rpn_big_cls_prob_reshape"
    type: "Reshape"
    bottom: "rpn_big_cls_prob"
    top: "rpn_big_cls_prob_reshape"
    reshape_param {
      shape {
        dim: 0
        dim: 52
        dim: -1
        dim: 0
      }
    }
  }
  layer {
    name: "rpn_big_anchor_target"
    type: "Python"
    bottom: "rpn_big_cls_score"
    bottom: "input_gt_boxes"
    bottom: "input_ignored_boxes"
    bottom: "input_im_info"
    bottom: "input_data"
    bottom: "rpn_big_cls_prob_reshape"
    top: "rpn_big_anchor_target_labels"
    top: "rpn_big_anchor_target_bbox_targets"
    top: "rpn_big_anchor_target_inside_weights"
    top: "rpn_big_anchor_target_outside_weights"
    python_param {
      module: "rpn.anchor_target_layer"
      layer: "AnchorTargetLayer"
      param_str: "{\"anchor_shift_num_xy\": [[2, 2], [2, 2], [2, 2], [2, 2], [1, 1], [1, 1], [1, 1], [1, 1], [1, 1], [1, 1], [1, 1], [1, 1], [1, 1], [1, 1]], \"fg_fraction\": 0.5, \"positive_overlap\": 0.6, \"num_classes\": 1, \"square_targets\": true, \"anchor_ratios\": [1.0], \"feat_stride\": 16, \"negative_overlap\": 0.4, \"name\": \"rpn_big\", \"batchsize\": 256, \"tn_fraction\": 0.2, \"anchor_scales\": [2.5, 3.025, 3.66025, 4.4289024999999995, 5.358972025, 6.484356150249999, 7.846070941802498, 9.493745839581022, 11.487432465893036, 13.899793283730574, 16.818749873313998, 20.350687346709933, 24.62433168951902, 29.795441344318014]}"
    }
  }
  layer {
    name: "rpn_big_loss_cls"
    type: "SoftmaxWithLoss"
    bottom: "rpn_big_cls_score_reshape"
    bottom: "rpn_big_anchor_target_labels"
    top: "rpn_big_loss_cls"
    loss_weight: 1
    propagate_down: true
    propagate_down: false
    loss_param {
      ignore_label: -1
      normalization: VALID
    }
  }
  layer {
    name: "rpn_big_output_box"
    type: "Convolution"
    bottom: "rpn_big_conv2"
    top: "rpn_big_output_box"
    param {
      lr_mult: 1
    }
    param {
      lr_mult: 2
    }
    convolution_param {
      num_output: 384
      pad: 1
      kernel_size: 3
      stride: 1
      weight_filler {
        type: "gaussian"
        mean: 0
        std: 0.01
      }
      bias_filler {
        type: "constant"
      }
    }
  }
  layer {
    name: "rpn_big_output_box_relu"
    type: "ReLU"
    bottom: "rpn_big_output_box"
    top: "rpn_big_output_box"
    relu_param {
      negative_slope: 0
    }
  }
  layer {
    name: "rpn_big_bbox_pred"
    type: "Convolution"
    bottom: "rpn_big_output_box"
    top: "rpn_big_bbox_pred"
    param {
      lr_mult: 1
    }
    param {
      lr_mult: 2
    }
    convolution_param {
      num_output: 104
      pad: 0
      kernel_size: 3
      stride: 1
      weight_filler {
        type: "gaussian"
        mean: 0
        std: 0.01
      }
      bias_filler {
        type: "constant"
      }
    }
  }
  layer {
    name: "rpn_big_loss_bbox"
    type: "Python"
    bottom: "rpn_big_bbox_pred"
    bottom: "rpn_big_anchor_target_bbox_targets"
    bottom: "rpn_big_anchor_target_inside_weights"
    bottom: "rpn_big_anchor_target_outside_weights"
    top: "rpn_big_loss_bbox"
    loss_weight: 1
    python_param {
      module: "layers.smooth_l1_loss"
      layer: "SmoothL1LossLayer"
      param_str: "{\"sigma\": 3}"
    }
  }
  layer {
    name: "proposal"
    type: "Python"
    bottom: "rpn_big_cls_prob_reshape"
    bottom: "rpn_big_bbox_pred"
    bottom: "input_im_info"
    top: "rpn_rois"
    python_param {
      module: "rpn.proposal_layer"
      layer: "ProposalLayer"
      param_str: "{\"anchor_shift_num_xy\": [[2, 2], [2, 2], [2, 2], [2, 2], [1, 1], [1, 1], [1, 1], [1, 1], [1, 1], [1, 1], [1, 1], [1, 1], [1, 1], [1, 1]], \"feat_stride\": 16, \"num_classes\": 1, \"anchor_scales\": [2.5, 3.025, 3.66025, 4.4289024999999995, 5.358972025, 6.484356150249999, 7.846070941802498, 9.493745839581022, 11.487432465893036, 13.899793283730574, 16.818749873313998, 20.350687346709933, 24.62433168951902, 29.795441344318014], \"square_targets\": true, \"name\": \"rpn_big\", \"batchsize\": 256, \"anchor_ratios\": [1.0]}"
    }
  }
  layer {
    name: "roi-data"
    type: "Python"
    bottom: "rpn_rois"
    bottom: "input_gt_boxes"
    top: "rois"
    top: "labels"
    top: "bbox_targets"
    top: "bbox_inside_weights"
    top: "bbox_outside_weights"
    top: "pid_label"
    python_param {
      module: "rpn.proposal_target_layer"
      layer: "ProposalTargetLayer"
      param_str: "{\"num_classes\": 2, \"bg_aux_label\": 5532}"
    }
  }
  layer {
    name: "roi-pool"
    type: "ROIPooling"
    bottom: "conv5_3"
    bottom: "rois"
    top: "roi-pool"
    roi_pooling_param {
      pooled_h: 7
      pooled_w: 7
      spatial_scale: 0.0625
    }
  }
  layer {
    name: "fc6"
    type: "InnerProduct"
    bottom: "roi-pool"
    top: "fc6"
    param {
      lr_mult: 1
    }
    param {
      lr_mult: 2
    }
    inner_product_param {
      num_output: 4096
    }
  }
  layer {
    name: "relu6"
    type: "ReLU"
    bottom: "fc6"
    top: "fc6"
  }
  layer {
    name: "drop6"
    type: "Dropout"
    bottom: "fc6"
    top: "fc6"
    dropout_param {
      dropout_ratio: 0.5
    }
  }
  layer {
    name: "fc7"
    type: "InnerProduct"
    bottom: "fc6"
    top: "fc7"
    param {
      lr_mult: 1
    }
    param {
      lr_mult: 2
    }
    inner_product_param {
      num_output: 4096
    }
  }
  layer {
    name: "relu7"
    type: "ReLU"
    bottom: "fc7"
    top: "fc7"
  }
  layer {
    name: "drop7"
    type: "Dropout"
    bottom: "fc7"
    top: "fc7"
    dropout_param {
      dropout_ratio: 0.5
    }
  }
  layer {
    name: "bbox_pred"
    type: "InnerProduct"
    bottom: "fc7"
    top: "bbox_pred"
    param {
      lr_mult: 1
    }
    param {
      lr_mult: 2
    }
    inner_product_param {
      num_output: 8
      weight_filler {
        type: "gaussian"
        std: 0.001
      }
      bias_filler {
        type: "constant"
        value: 0
      }
    }
  }
  layer {
    name: "loss_bbox"
    type: "SmoothL1Loss"
    bottom: "bbox_pred"
    bottom: "bbox_targets"
    bottom: "bbox_inside_weights"
    bottom: "bbox_outside_weights"
    top: "loss_bbox"
    loss_weight: 1
  }
  layer {
    name: "feat"
    type: "InnerProduct"
    bottom: "fc7"
    top: "feat"
    param {
      lr_mult: 1
      decay_mult: 1
    }
    param {
      lr_mult: 2
      decay_mult: 0
    }
    inner_product_param {
      num_output: 256
      weight_filler {
        type: "gaussian"
        std: 0.01
      }
      bias_filler {
        type: "constant"
        value: 0
      }
    }
  }
  layer {
    name: "relu8"
    type: "ReLU"
    bottom: "feat"
    top: "feat"
  }
  layer {
    name: "drop8"
    type: "Dropout"
    bottom: "feat"
    top: "feat"
    dropout_param {
      dropout_ratio: 0.5
    }
  }
  layer {
    name: "pid_score"
    type: "InnerProduct"
    bottom: "feat"
    top: "pid_score"
    param {
      lr_mult: 1
      decay_mult: 1
    }
    param {
      lr_mult: 2
      decay_mult: 0
    }
    inner_product_param {
      num_output: 5533
      weight_filler {
        type: "gaussian"
        std: 0.001
      }
      bias_filler {
        type: "constant"
        value: 0
      }
    }
  }
  layer {
    name: "pid_loss"
    type: "RandomSamplingSoftmaxLoss"
    bottom: "pid_score"
    bottom: "pid_label"
    top: "pid_loss"
  }
}
average_loss: 100
stepvalue: 70000
stepvalue: 120000
iter_size: 2
I0413 18:40:56.480479 13783 solver.cpp:86] Creating training net specified in net_param.
I0413 18:40:56.480955 13783 net.cpp:58] Initializing net from parameters: 
name: "GeneratedModel_13_04_2017_18_40"
state {
  phase: TRAIN
}
layer {
  name: "input"
  type: "Python"
  top: "input_data"
  top: "input_im_info"
  top: "input_gt_boxes"
  top: "input_ignored_boxes"
  python_param {
    module: "layers.roi_data_layer"
    layer: "RoIDataLayer"
    param_str: "{\"num_classes\": 2}"
  }
}
layer {
  name: "conv1_1"
  type: "Convolution"
  bottom: "input_data"
  top: "conv1_1"
  param {
    lr_mult: 0
    decay_mult: 0
  }
  param {
    lr_mult: 0
    decay_mult: 0
  }
  convolution_param {
    num_output: 64
    pad: 1
    kernel_size: 3
  }
}
layer {
  name: "relu1_1"
  type: "ReLU"
  bottom: "conv1_1"
  top: "conv1_1"
}
layer {
  name: "conv1_2"
  type: "Convolution"
  bottom: "conv1_1"
  top: "conv1_2"
  param {
    lr_mult: 0
    decay_mult: 0
  }
  param {
    lr_mult: 0
    decay_mult: 0
  }
  convolution_param {
    num_output: 64
    pad: 1
    kernel_size: 3
  }
}
layer {
  name: "relu1_2"
  type: "ReLU"
  bottom: "conv1_2"
  top: "conv1_2"
}
layer {
  name: "pool1"
  type: "Pooling"
  bottom: "conv1_2"
  top: "pool1"
  pooling_param {
    pool: MAX
    kernel_size: 2
    stride: 2
  }
}
layer {
  name: "conv2_1"
  type: "Convolution"
  bottom: "pool1"
  top: "conv2_1"
  param {
    lr_mult: 0
    decay_mult: 0
  }
  param {
    lr_mult: 0
    decay_mult: 0
  }
  convolution_param {
    num_output: 128
    pad: 1
    kernel_size: 3
  }
}
layer {
  name: "relu2_1"
  type: "ReLU"
  bottom: "conv2_1"
  top: "conv2_1"
}
layer {
  name: "conv2_2"
  type: "Convolution"
  bottom: "conv2_1"
  top: "conv2_2"
  param {
    lr_mult: 0
    decay_mult: 0
  }
  param {
    lr_mult: 0
    decay_mult: 0
  }
  convolution_param {
    num_output: 128
    pad: 1
    kernel_size: 3
  }
}
layer {
  name: "relu2_2"
  type: "ReLU"
  bottom: "conv2_2"
  top: "conv2_2"
}
layer {
  name: "pool2"
  type: "Pooling"
  bottom: "conv2_2"
  top: "pool2"
  pooling_param {
    pool: MAX
    kernel_size: 2
    stride: 2
  }
}
layer {
  name: "conv3_1"
  type: "Convolution"
  bottom: "pool2"
  top: "conv3_1"
  param {
    lr_mult: 1
  }
  param {
    lr_mult: 2
  }
  convolution_param {
    num_output: 256
    pad: 1
    kernel_size: 3
  }
}
layer {
  name: "relu3_1"
  type: "ReLU"
  bottom: "conv3_1"
  top: "conv3_1"
}
layer {
  name: "conv3_2"
  type: "Convolution"
  bottom: "conv3_1"
  top: "conv3_2"
  param {
    lr_mult: 1
  }
  param {
    lr_mult: 2
  }
  convolution_param {
    num_output: 256
    pad: 1
    kernel_size: 3
  }
}
layer {
  name: "relu3_2"
  type: "ReLU"
  bottom: "conv3_2"
  top: "conv3_2"
}
layer {
  name: "conv3_3"
  type: "Convolution"
  bottom: "conv3_2"
  top: "conv3_3"
  param {
    lr_mult: 1
  }
  param {
    lr_mult: 2
  }
  convolution_param {
    num_output: 256
    pad: 1
    kernel_size: 3
  }
}
layer {
  name: "relu3_3"
  type: "ReLU"
  bottom: "conv3_3"
  top: "conv3_3"
}
layer {
  name: "pool3"
  type: "Pooling"
  bottom: "conv3_3"
  top: "pool3"
  pooling_param {
    pool: MAX
    kernel_size: 2
    stride: 2
  }
}
layer {
  name: "conv4_1"
  type: "Convolution"
  bottom: "pool3"
  top: "conv4_1"
  param {
    lr_mult: 1
  }
  param {
    lr_mult: 2
  }
  convolution_param {
    num_output: 512
    pad: 1
    kernel_size: 3
  }
}
layer {
  name: "relu4_1"
  type: "ReLU"
  bottom: "conv4_1"
  top: "conv4_1"
}
layer {
  name: "conv4_2"
  type: "Convolution"
  bottom: "conv4_1"
  top: "conv4_2"
  param {
    lr_mult: 1
  }
  param {
    lr_mult: 2
  }
  convolution_param {
    num_output: 512
    pad: 1
    kernel_size: 3
  }
}
layer {
  name: "relu4_2"
  type: "ReLU"
  bottom: "conv4_2"
  top: "conv4_2"
}
layer {
  name: "conv4_3"
  type: "Convolution"
  bottom: "conv4_2"
  top: "conv4_3"
  param {
    lr_mult: 1
  }
  param {
    lr_mult: 2
  }
  convolution_param {
    num_output: 512
    pad: 1
    kernel_size: 3
  }
}
layer {
  name: "relu4_3"
  type: "ReLU"
  bottom: "conv4_3"
  top: "conv4_3"
}
layer {
  name: "pool4"
  type: "Pooling"
  bottom: "conv4_3"
  top: "pool4"
  pooling_param {
    pool: MAX
    kernel_size: 2
    stride: 2
  }
}
layer {
  name: "conv5_1"
  type: "Convolution"
  bottom: "pool4"
  top: "conv5_1"
  param {
    lr_mult: 1
  }
  param {
    lr_mult: 2
  }
  convolution_param {
    num_output: 512
    pad: 1
    kernel_size: 3
  }
}
layer {
  name: "relu5_1"
  type: "ReLU"
  bottom: "conv5_1"
  top: "conv5_1"
}
layer {
  name: "conv5_2"
  type: "Convolution"
  bottom: "conv5_1"
  top: "conv5_2"
  param {
    lr_mult: 1
  }
  param {
    lr_mult: 2
  }
  convolution_param {
    num_output: 512
    pad: 1
    kernel_size: 3
  }
}
layer {
  name: "relu5_2"
  type: "ReLU"
  bottom: "conv5_2"
  top: "conv5_2"
}
layer {
  name: "conv5_3"
  type: "Convolution"
  bottom: "conv5_2"
  top: "conv5_3"
  param {
    lr_mult: 1
  }
  param {
    lr_mult: 2
  }
  convolution_param {
    num_output: 512
    pad: 1
    kernel_size: 3
  }
}
layer {
  name: "relu5_3"
  type: "ReLU"
  bottom: "conv5_3"
  top: "conv5_3"
}
layer {
  name: "rpn_big_conv1"
  type: "Convolution"
  bottom: "conv5_3"
  top: "rpn_big_conv1"
  param {
    lr_mult: 1
  }
  param {
    lr_mult: 2
  }
  convolution_param {
    num_output: 512
    pad: 1
    kernel_size: 3
    stride: 1
    weight_filler {
      type: "gaussian"
      mean: 0
      std: 0.01
    }
    bias_filler {
      type: "constant"
    }
  }
}
layer {
  name: "rpn_big_conv1_relu"
  type: "ReLU"
  bottom: "rpn_big_conv1"
  top: "rpn_big_conv1"
  relu_param {
    negative_slope: 0
  }
}
layer {
  name: "rpn_big_conv2"
  type: "Convolution"
  bottom: "rpn_big_conv1"
  top: "rpn_big_conv2"
  param {
    lr_mult: 1
  }
  param {
    lr_mult: 2
  }
  convolution_param {
    num_output: 512
    pad: 1
    kernel_size: 3
    stride: 1
    weight_filler {
      type: "gaussian"
      mean: 0
      std: 0.01
    }
    bias_filler {
      type: "constant"
    }
  }
}
layer {
  name: "rpn_big_conv2_relu"
  type: "ReLU"
  bottom: "rpn_big_conv2"
  top: "rpn_big_conv2"
  relu_param {
    negative_slope: 0
  }
}
layer {
  name: "rpn_big_conv2_drop"
  type: "Dropout"
  bottom: "rpn_big_conv2"
  top: "rpn_big_conv2"
  dropout_param {
    dropout_ratio: 0.3
  }
}
layer {
  name: "rpn_big_output_cls"
  type: "Convolution"
  bottom: "rpn_big_conv2"
  top: "rpn_big_output_cls"
  param {
    lr_mult: 1
  }
  param {
    lr_mult: 2
  }
  convolution_param {
    num_output: 384
    pad: 1
    kernel_size: 3
    stride: 1
    weight_filler {
      type: "gaussian"
      mean: 0
      std: 0.01
    }
    bias_filler {
      type: "constant"
    }
  }
}
layer {
  name: "rpn_big_output_cls_relu"
  type: "ReLU"
  bottom: "rpn_big_output_cls"
  top: "rpn_big_output_cls"
  relu_param {
    negative_slope: 0
  }
}
layer {
  name: "rpn_big_cls_score"
  type: "Convolution"
  bottom: "rpn_big_output_cls"
  top: "rpn_big_cls_score"
  param {
    lr_mult: 1
  }
  param {
    lr_mult: 2
  }
  convolution_param {
    num_output: 52
    pad: 0
    kernel_size: 3
    stride: 1
    weight_filler {
      type: "gaussian"
      mean: 0
      std: 0.01
    }
    bias_filler {
      type: "constant"
    }
  }
}
layer {
  name: "rpn_big_cls_score_reshape"
  type: "Reshape"
  bottom: "rpn_big_cls_score"
  top: "rpn_big_cls_score_reshape"
  reshape_param {
    shape {
      dim: 0
      dim: 2
      dim: -1
      dim: 0
    }
  }
}
layer {
  name: "rpn_big_cls_prob"
  type: "Softmax"
  bottom: "rpn_big_cls_score_reshape"
  top: "rpn_big_cls_prob"
}
layer {
  name: "rpn_big_cls_prob_reshape"
  type: "Reshape"
  bottom: "rpn_big_cls_prob"
  top: "rpn_big_cls_prob_reshape"
  reshape_param {
    shape {
      dim: 0
      dim: 52
      dim: -1
      dim: 0
    }
  }
}
layer {
  name: "rpn_big_anchor_target"
  type: "Python"
  bottom: "rpn_big_cls_score"
  bottom: "input_gt_boxes"
  bottom: "input_ignored_boxes"
  bottom: "input_im_info"
  bottom: "input_data"
  bottom: "rpn_big_cls_prob_reshape"
  top: "rpn_big_anchor_target_labels"
  top: "rpn_big_anchor_target_bbox_targets"
  top: "rpn_big_anchor_target_inside_weights"
  top: "rpn_big_anchor_target_outside_weights"
  python_param {
    module: "rpn.anchor_target_layer"
    layer: "AnchorTargetLayer"
    param_str: "{\"anchor_shift_num_xy\": [[2, 2], [2, 2], [2, 2], [2, 2], [1, 1], [1, 1], [1, 1], [1, 1], [1, 1], [1, 1], [1, 1], [1, 1], [1, 1], [1, 1]], \"fg_fraction\": 0.5, \"positive_overlap\": 0.6, \"num_classes\": 1, \"square_targets\": true, \"anchor_ratios\": [1.0], \"feat_stride\": 16, \"negative_overlap\": 0.4, \"name\": \"rpn_big\", \"batchsize\": 256, \"tn_fraction\": 0.2, \"anchor_scales\": [2.5, 3.025, 3.66025, 4.4289024999999995, 5.358972025, 6.484356150249999, 7.846070941802498, 9.493745839581022, 11.487432465893036, 13.899793283730574, 16.818749873313998, 20.350687346709933, 24.62433168951902, 29.795441344318014]}"
  }
}
layer {
  name: "rpn_big_loss_cls"
  type: "SoftmaxWithLoss"
  bottom: "rpn_big_cls_score_reshape"
  bottom: "rpn_big_anchor_target_labels"
  top: "rpn_big_loss_cls"
  loss_weight: 1
  propagate_down: true
  propagate_down: false
  loss_param {
    ignore_label: -1
    normalization: VALID
  }
}
layer {
  name: "rpn_big_output_box"
  type: "Convolution"
  bottom: "rpn_big_conv2"
  top: "rpn_big_output_box"
  param {
    lr_mult: 1
  }
  param {
    lr_mult: 2
  }
  convolution_param {
    num_output: 384
    pad: 1
    kernel_size: 3
    stride: 1
    weight_filler {
      type: "gaussian"
      mean: 0
      std: 0.01
    }
    bias_filler {
      type: "constant"
    }
  }
}
layer {
  name: "rpn_big_output_box_relu"
  type: "ReLU"
  bottom: "rpn_big_output_box"
  top: "rpn_big_output_box"
  relu_param {
    negative_slope: 0
  }
}
layer {
  name: "rpn_big_bbox_pred"
  type: "Convolution"
  bottom: "rpn_big_output_box"
  top: "rpn_big_bbox_pred"
  param {
    lr_mult: 1
  }
  param {
    lr_mult: 2
  }
  convolution_param {
    num_output: 104
    pad: 0
    kernel_size: 3
    stride: 1
    weight_filler {
      type: "gaussian"
      mean: 0
      std: 0.01
    }
    bias_filler {
      type: "constant"
    }
  }
}
layer {
  name: "rpn_big_loss_bbox"
  type: "Python"
  bottom: "rpn_big_bbox_pred"
  bottom: "rpn_big_anchor_target_bbox_targets"
  bottom: "rpn_big_anchor_target_inside_weights"
  bottom: "rpn_big_anchor_target_outside_weights"
  top: "rpn_big_loss_bbox"
  loss_weight: 1
  python_param {
    module: "layers.smooth_l1_loss"
    layer: "SmoothL1LossLayer"
    param_str: "{\"sigma\": 3}"
  }
}
layer {
  name: "proposal"
  type: "Python"
  bottom: "rpn_big_cls_prob_reshape"
  bottom: "rpn_big_bbox_pred"
  bottom: "input_im_info"
  top: "rpn_rois"
  python_param {
    module: "rpn.proposal_layer"
    layer: "ProposalLayer"
    param_str: "{\"anchor_shift_num_xy\": [[2, 2], [2, 2], [2, 2], [2, 2], [1, 1], [1, 1], [1, 1], [1, 1], [1, 1], [1, 1], [1, 1], [1, 1], [1, 1], [1, 1]], \"feat_stride\": 16, \"num_classes\": 1, \"anchor_scales\": [2.5, 3.025, 3.66025, 4.4289024999999995, 5.358972025, 6.484356150249999, 7.846070941802498, 9.493745839581022, 11.487432465893036, 13.899793283730574, 16.818749873313998, 20.350687346709933, 24.62433168951902, 29.795441344318014], \"square_targets\": true, \"name\": \"rpn_big\", \"batchsize\": 256, \"anchor_ratios\": [1.0]}"
  }
}
layer {
  name: "roi-data"
  type: "Python"
  bottom: "rpn_rois"
  bottom: "input_gt_boxes"
  top: "rois"
  top: "labels"
  top: "bbox_targets"
  top: "bbox_inside_weights"
  top: "bbox_outside_weights"
  top: "pid_label"
  python_param {
    module: "rpn.proposal_target_layer"
    layer: "ProposalTargetLayer"
    param_str: "{\"num_classes\": 2, \"bg_aux_label\": 5532}"
  }
}
layer {
  name: "roi-pool"
  type: "ROIPooling"
  bottom: "conv5_3"
  bottom: "rois"
  top: "roi-pool"
  roi_pooling_param {
    pooled_h: 7
    pooled_w: 7
    spatial_scale: 0.0625
  }
}
layer {
  name: "fc6"
  type: "InnerProduct"
  bottom: "roi-pool"
  top: "fc6"
  param {
    lr_mult: 1
  }
  param {
    lr_mult: 2
  }
  inner_product_param {
    num_output: 4096
  }
}
layer {
  name: "relu6"
  type: "ReLU"
  bottom: "fc6"
  top: "fc6"
}
layer {
  name: "drop6"
  type: "Dropout"
  bottom: "fc6"
  top: "fc6"
  dropout_param {
    dropout_ratio: 0.5
  }
}
layer {
  name: "fc7"
  type: "InnerProduct"
  bottom: "fc6"
  top: "fc7"
  param {
    lr_mult: 1
  }
  param {
    lr_mult: 2
  }
  inner_product_param {
    num_output: 4096
  }
}
layer {
  name: "relu7"
  type: "ReLU"
  bottom: "fc7"
  top: "fc7"
}
layer {
  name: "drop7"
  type: "Dropout"
  bottom: "fc7"
  top: "fc7"
  dropout_param {
    dropout_ratio: 0.5
  }
}
layer {
  name: "bbox_pred"
  type: "InnerProduct"
  bottom: "fc7"
  top: "bbox_pred"
  param {
    lr_mult: 1
  }
  param {
    lr_mult: 2
  }
  inner_product_param {
    num_output: 8
    weight_filler {
      type: "gaussian"
      std: 0.001
    }
    bias_filler {
      type: "constant"
      value: 0
    }
  }
}
layer {
  name: "loss_bbox"
  type: "SmoothL1Loss"
  bottom: "bbox_pred"
  bottom: "bbox_targets"
  bottom: "bbox_inside_weights"
  bottom: "bbox_outside_weights"
  top: "loss_bbox"
  loss_weight: 1
}
layer {
  name: "feat"
  type: "InnerProduct"
  bottom: "fc7"
  top: "feat"
  param {
    lr_mult: 1
    decay_mult: 1
  }
  param {
    lr_mult: 2
    decay_mult: 0
  }
  inner_product_param {
    num_output: 256
    weight_filler {
      type: "gaussian"
      std: 0.01
    }
    bias_filler {
      type: "constant"
      value: 0
    }
  }
}
layer {
  name: "relu8"
  type: "ReLU"
  bottom: "feat"
  top: "feat"
}
layer {
  name: "drop8"
  type: "Dropout"
  bottom: "feat"
  top: "feat"
  dropout_param {
    dropout_ratio: 0.5
  }
}
layer {
  name: "pid_score"
  type: "InnerProduct"
  bottom: "feat"
  top: "pid_score"
  param {
    lr_mult: 1
    decay_mult: 1
  }
  param {
    lr_mult: 2
    decay_mult: 0
  }
  inner_product_param {
    num_output: 5533
    weight_filler {
      type: "gaussian"
      std: 0.001
    }
    bias_filler {
      type: "constant"
      value: 0
    }
  }
}
layer {
  name: "pid_loss"
  type: "RandomSamplingSoftmaxLoss"
  bottom: "pid_score"
  bottom: "pid_label"
  top: "pid_loss"
}
I0413 18:40:56.481200 13783 layer_factory.hpp:77] Creating layer input
I0413 18:40:56.482403 13783 net.cpp:100] Creating Layer input
I0413 18:40:56.482414 13783 net.cpp:408] input -> input_data
I0413 18:40:56.482425 13783 net.cpp:408] input -> input_im_info
I0413 18:40:56.482432 13783 net.cpp:408] input -> input_gt_boxes
I0413 18:40:56.482439 13783 net.cpp:408] input -> input_ignored_boxes
RoiDataLayer: name_to_top: {'gt_boxes': 2, 'ignored_boxes': 3, 'im_info': 1, 'data': 0}
I0413 18:40:56.797529 13783 net.cpp:150] Setting up input
I0413 18:40:56.797559 13783 net.cpp:157] Top shape: 1 3 1000 1500 (4500000)
I0413 18:40:56.797580 13783 net.cpp:157] Top shape: 1 3 (3)
I0413 18:40:56.797590 13783 net.cpp:157] Top shape: 1 5 (5)
I0413 18:40:56.797596 13783 net.cpp:157] Top shape: 1 5 (5)
I0413 18:40:56.797602 13783 net.cpp:165] Memory required for data: 18000052
I0413 18:40:56.797612 13783 layer_factory.hpp:77] Creating layer input_data_input_0_split
I0413 18:40:56.797629 13783 net.cpp:100] Creating Layer input_data_input_0_split
I0413 18:40:56.797639 13783 net.cpp:434] input_data_input_0_split <- input_data
I0413 18:40:56.797653 13783 net.cpp:408] input_data_input_0_split -> input_data_input_0_split_0
I0413 18:40:56.797672 13783 net.cpp:408] input_data_input_0_split -> input_data_input_0_split_1
I0413 18:40:56.797718 13783 net.cpp:150] Setting up input_data_input_0_split
I0413 18:40:56.797729 13783 net.cpp:157] Top shape: 1 3 1000 1500 (4500000)
I0413 18:40:56.797737 13783 net.cpp:157] Top shape: 1 3 1000 1500 (4500000)
I0413 18:40:56.797744 13783 net.cpp:165] Memory required for data: 54000052
I0413 18:40:56.797749 13783 layer_factory.hpp:77] Creating layer input_im_info_input_1_split
I0413 18:40:56.797760 13783 net.cpp:100] Creating Layer input_im_info_input_1_split
I0413 18:40:56.797767 13783 net.cpp:434] input_im_info_input_1_split <- input_im_info
I0413 18:40:56.797778 13783 net.cpp:408] input_im_info_input_1_split -> input_im_info_input_1_split_0
I0413 18:40:56.797791 13783 net.cpp:408] input_im_info_input_1_split -> input_im_info_input_1_split_1
I0413 18:40:56.797835 13783 net.cpp:150] Setting up input_im_info_input_1_split
I0413 18:40:56.797845 13783 net.cpp:157] Top shape: 1 3 (3)
I0413 18:40:56.797853 13783 net.cpp:157] Top shape: 1 3 (3)
I0413 18:40:56.797858 13783 net.cpp:165] Memory required for data: 54000076
I0413 18:40:56.797864 13783 layer_factory.hpp:77] Creating layer input_gt_boxes_input_2_split
I0413 18:40:56.797873 13783 net.cpp:100] Creating Layer input_gt_boxes_input_2_split
I0413 18:40:56.797879 13783 net.cpp:434] input_gt_boxes_input_2_split <- input_gt_boxes
I0413 18:40:56.797891 13783 net.cpp:408] input_gt_boxes_input_2_split -> input_gt_boxes_input_2_split_0
I0413 18:40:56.797905 13783 net.cpp:408] input_gt_boxes_input_2_split -> input_gt_boxes_input_2_split_1
I0413 18:40:56.797945 13783 net.cpp:150] Setting up input_gt_boxes_input_2_split
I0413 18:40:56.797955 13783 net.cpp:157] Top shape: 1 5 (5)
I0413 18:40:56.797962 13783 net.cpp:157] Top shape: 1 5 (5)
I0413 18:40:56.797968 13783 net.cpp:165] Memory required for data: 54000116
I0413 18:40:56.797974 13783 layer_factory.hpp:77] Creating layer conv1_1
I0413 18:40:56.797992 13783 net.cpp:100] Creating Layer conv1_1
I0413 18:40:56.797999 13783 net.cpp:434] conv1_1 <- input_data_input_0_split_0
I0413 18:40:56.798012 13783 net.cpp:408] conv1_1 -> conv1_1
I0413 18:40:56.801136 13783 net.cpp:150] Setting up conv1_1
I0413 18:40:56.801177 13783 net.cpp:157] Top shape: 1 64 1000 1500 (96000000)
I0413 18:40:56.801182 13783 net.cpp:165] Memory required for data: 438000116
I0413 18:40:56.801211 13783 layer_factory.hpp:77] Creating layer relu1_1
I0413 18:40:56.801226 13783 net.cpp:100] Creating Layer relu1_1
I0413 18:40:56.801234 13783 net.cpp:434] relu1_1 <- conv1_1
I0413 18:40:56.801245 13783 net.cpp:395] relu1_1 -> conv1_1 (in-place)
I0413 18:40:56.801261 13783 net.cpp:150] Setting up relu1_1
I0413 18:40:56.801291 13783 net.cpp:157] Top shape: 1 64 1000 1500 (96000000)
I0413 18:40:56.801312 13783 net.cpp:165] Memory required for data: 822000116
I0413 18:40:56.801331 13783 layer_factory.hpp:77] Creating layer conv1_2
I0413 18:40:56.801357 13783 net.cpp:100] Creating Layer conv1_2
I0413 18:40:56.801375 13783 net.cpp:434] conv1_2 <- conv1_1
I0413 18:40:56.801400 13783 net.cpp:408] conv1_2 -> conv1_2
I0413 18:40:56.804577 13783 net.cpp:150] Setting up conv1_2
I0413 18:40:56.804616 13783 net.cpp:157] Top shape: 1 64 1000 1500 (96000000)
I0413 18:40:56.804620 13783 net.cpp:165] Memory required for data: 1206000116
I0413 18:40:56.804637 13783 layer_factory.hpp:77] Creating layer relu1_2
I0413 18:40:56.804647 13783 net.cpp:100] Creating Layer relu1_2
I0413 18:40:56.804652 13783 net.cpp:434] relu1_2 <- conv1_2
I0413 18:40:56.804662 13783 net.cpp:395] relu1_2 -> conv1_2 (in-place)
I0413 18:40:56.804678 13783 net.cpp:150] Setting up relu1_2
I0413 18:40:56.804687 13783 net.cpp:157] Top shape: 1 64 1000 1500 (96000000)
I0413 18:40:56.804703 13783 net.cpp:165] Memory required for data: 1590000116
I0413 18:40:56.804711 13783 layer_factory.hpp:77] Creating layer pool1
I0413 18:40:56.804724 13783 net.cpp:100] Creating Layer pool1
I0413 18:40:56.804731 13783 net.cpp:434] pool1 <- conv1_2
I0413 18:40:56.804744 13783 net.cpp:408] pool1 -> pool1
I0413 18:40:56.804831 13783 net.cpp:150] Setting up pool1
I0413 18:40:56.804847 13783 net.cpp:157] Top shape: 1 64 500 750 (24000000)
I0413 18:40:56.804852 13783 net.cpp:165] Memory required for data: 1686000116
I0413 18:40:56.804857 13783 layer_factory.hpp:77] Creating layer conv2_1
I0413 18:40:56.804868 13783 net.cpp:100] Creating Layer conv2_1
I0413 18:40:56.804875 13783 net.cpp:434] conv2_1 <- pool1
I0413 18:40:56.804885 13783 net.cpp:408] conv2_1 -> conv2_1
I0413 18:40:56.806201 13783 net.cpp:150] Setting up conv2_1
I0413 18:40:56.806223 13783 net.cpp:157] Top shape: 1 128 500 750 (48000000)
I0413 18:40:56.806226 13783 net.cpp:165] Memory required for data: 1878000116
I0413 18:40:56.806247 13783 layer_factory.hpp:77] Creating layer relu2_1
I0413 18:40:56.806254 13783 net.cpp:100] Creating Layer relu2_1
I0413 18:40:56.806259 13783 net.cpp:434] relu2_1 <- conv2_1
I0413 18:40:56.806272 13783 net.cpp:395] relu2_1 -> conv2_1 (in-place)
I0413 18:40:56.806285 13783 net.cpp:150] Setting up relu2_1
I0413 18:40:56.806294 13783 net.cpp:157] Top shape: 1 128 500 750 (48000000)
I0413 18:40:56.806299 13783 net.cpp:165] Memory required for data: 2070000116
I0413 18:40:56.806304 13783 layer_factory.hpp:77] Creating layer conv2_2
I0413 18:40:56.806314 13783 net.cpp:100] Creating Layer conv2_2
I0413 18:40:56.806319 13783 net.cpp:434] conv2_2 <- conv2_1
I0413 18:40:56.806330 13783 net.cpp:408] conv2_2 -> conv2_2
I0413 18:40:56.807384 13783 net.cpp:150] Setting up conv2_2
I0413 18:40:56.807409 13783 net.cpp:157] Top shape: 1 128 500 750 (48000000)
I0413 18:40:56.807415 13783 net.cpp:165] Memory required for data: 2262000116
I0413 18:40:56.807428 13783 layer_factory.hpp:77] Creating layer relu2_2
I0413 18:40:56.807441 13783 net.cpp:100] Creating Layer relu2_2
I0413 18:40:56.807449 13783 net.cpp:434] relu2_2 <- conv2_2
I0413 18:40:56.807459 13783 net.cpp:395] relu2_2 -> conv2_2 (in-place)
I0413 18:40:56.807471 13783 net.cpp:150] Setting up relu2_2
I0413 18:40:56.807481 13783 net.cpp:157] Top shape: 1 128 500 750 (48000000)
I0413 18:40:56.807485 13783 net.cpp:165] Memory required for data: 2454000116
I0413 18:40:56.807490 13783 layer_factory.hpp:77] Creating layer pool2
I0413 18:40:56.807502 13783 net.cpp:100] Creating Layer pool2
I0413 18:40:56.807507 13783 net.cpp:434] pool2 <- conv2_2
I0413 18:40:56.807514 13783 net.cpp:408] pool2 -> pool2
I0413 18:40:56.807576 13783 net.cpp:150] Setting up pool2
I0413 18:40:56.807587 13783 net.cpp:157] Top shape: 1 128 250 375 (12000000)
I0413 18:40:56.807595 13783 net.cpp:165] Memory required for data: 2502000116
I0413 18:40:56.807600 13783 layer_factory.hpp:77] Creating layer conv3_1
I0413 18:40:56.807611 13783 net.cpp:100] Creating Layer conv3_1
I0413 18:40:56.807618 13783 net.cpp:434] conv3_1 <- pool2
I0413 18:40:56.807628 13783 net.cpp:408] conv3_1 -> conv3_1
I0413 18:40:56.808866 13783 net.cpp:150] Setting up conv3_1
I0413 18:40:56.808892 13783 net.cpp:157] Top shape: 1 256 250 375 (24000000)
I0413 18:40:56.808897 13783 net.cpp:165] Memory required for data: 2598000116
I0413 18:40:56.808923 13783 layer_factory.hpp:77] Creating layer relu3_1
I0413 18:40:56.808938 13783 net.cpp:100] Creating Layer relu3_1
I0413 18:40:56.808948 13783 net.cpp:434] relu3_1 <- conv3_1
I0413 18:40:56.808956 13783 net.cpp:395] relu3_1 -> conv3_1 (in-place)
I0413 18:40:56.808969 13783 net.cpp:150] Setting up relu3_1
I0413 18:40:56.808979 13783 net.cpp:157] Top shape: 1 256 250 375 (24000000)
I0413 18:40:56.808984 13783 net.cpp:165] Memory required for data: 2694000116
I0413 18:40:56.808989 13783 layer_factory.hpp:77] Creating layer conv3_2
I0413 18:40:56.809005 13783 net.cpp:100] Creating Layer conv3_2
I0413 18:40:56.809012 13783 net.cpp:434] conv3_2 <- conv3_1
I0413 18:40:56.809021 13783 net.cpp:408] conv3_2 -> conv3_2
I0413 18:40:56.810317 13783 net.cpp:150] Setting up conv3_2
I0413 18:40:56.810341 13783 net.cpp:157] Top shape: 1 256 250 375 (24000000)
I0413 18:40:56.810344 13783 net.cpp:165] Memory required for data: 2790000116
I0413 18:40:56.810356 13783 layer_factory.hpp:77] Creating layer relu3_2
I0413 18:40:56.810367 13783 net.cpp:100] Creating Layer relu3_2
I0413 18:40:56.810375 13783 net.cpp:434] relu3_2 <- conv3_2
I0413 18:40:56.810384 13783 net.cpp:395] relu3_2 -> conv3_2 (in-place)
I0413 18:40:56.810400 13783 net.cpp:150] Setting up relu3_2
I0413 18:40:56.810407 13783 net.cpp:157] Top shape: 1 256 250 375 (24000000)
I0413 18:40:56.810415 13783 net.cpp:165] Memory required for data: 2886000116
I0413 18:40:56.810420 13783 layer_factory.hpp:77] Creating layer conv3_3
I0413 18:40:56.810431 13783 net.cpp:100] Creating Layer conv3_3
I0413 18:40:56.810438 13783 net.cpp:434] conv3_3 <- conv3_2
I0413 18:40:56.810449 13783 net.cpp:408] conv3_3 -> conv3_3
I0413 18:40:56.812088 13783 net.cpp:150] Setting up conv3_3
I0413 18:40:56.812120 13783 net.cpp:157] Top shape: 1 256 250 375 (24000000)
I0413 18:40:56.812124 13783 net.cpp:165] Memory required for data: 2982000116
I0413 18:40:56.812137 13783 layer_factory.hpp:77] Creating layer relu3_3
I0413 18:40:56.812150 13783 net.cpp:100] Creating Layer relu3_3
I0413 18:40:56.812157 13783 net.cpp:434] relu3_3 <- conv3_3
I0413 18:40:56.812170 13783 net.cpp:395] relu3_3 -> conv3_3 (in-place)
I0413 18:40:56.812185 13783 net.cpp:150] Setting up relu3_3
I0413 18:40:56.812192 13783 net.cpp:157] Top shape: 1 256 250 375 (24000000)
I0413 18:40:56.812199 13783 net.cpp:165] Memory required for data: 3078000116
I0413 18:40:56.812204 13783 layer_factory.hpp:77] Creating layer pool3
I0413 18:40:56.812212 13783 net.cpp:100] Creating Layer pool3
I0413 18:40:56.812219 13783 net.cpp:434] pool3 <- conv3_3
I0413 18:40:56.812229 13783 net.cpp:408] pool3 -> pool3
I0413 18:40:56.812289 13783 net.cpp:150] Setting up pool3
I0413 18:40:56.812301 13783 net.cpp:157] Top shape: 1 256 125 188 (6016000)
I0413 18:40:56.812309 13783 net.cpp:165] Memory required for data: 3102064116
I0413 18:40:56.812314 13783 layer_factory.hpp:77] Creating layer conv4_1
I0413 18:40:56.812328 13783 net.cpp:100] Creating Layer conv4_1
I0413 18:40:56.812336 13783 net.cpp:434] conv4_1 <- pool3
I0413 18:40:56.812350 13783 net.cpp:408] conv4_1 -> conv4_1
I0413 18:40:56.815148 13783 net.cpp:150] Setting up conv4_1
I0413 18:40:56.815181 13783 net.cpp:157] Top shape: 1 512 125 188 (12032000)
I0413 18:40:56.815184 13783 net.cpp:165] Memory required for data: 3150192116
I0413 18:40:56.815197 13783 layer_factory.hpp:77] Creating layer relu4_1
I0413 18:40:56.815212 13783 net.cpp:100] Creating Layer relu4_1
I0413 18:40:56.815220 13783 net.cpp:434] relu4_1 <- conv4_1
I0413 18:40:56.815233 13783 net.cpp:395] relu4_1 -> conv4_1 (in-place)
I0413 18:40:56.815248 13783 net.cpp:150] Setting up relu4_1
I0413 18:40:56.815256 13783 net.cpp:157] Top shape: 1 512 125 188 (12032000)
I0413 18:40:56.815261 13783 net.cpp:165] Memory required for data: 3198320116
I0413 18:40:56.815268 13783 layer_factory.hpp:77] Creating layer conv4_2
I0413 18:40:56.815280 13783 net.cpp:100] Creating Layer conv4_2
I0413 18:40:56.815287 13783 net.cpp:434] conv4_2 <- conv4_1
I0413 18:40:56.815296 13783 net.cpp:408] conv4_2 -> conv4_2
I0413 18:40:56.819780 13783 net.cpp:150] Setting up conv4_2
I0413 18:40:56.819820 13783 net.cpp:157] Top shape: 1 512 125 188 (12032000)
I0413 18:40:56.819826 13783 net.cpp:165] Memory required for data: 3246448116
I0413 18:40:56.819850 13783 layer_factory.hpp:77] Creating layer relu4_2
I0413 18:40:56.819864 13783 net.cpp:100] Creating Layer relu4_2
I0413 18:40:56.819874 13783 net.cpp:434] relu4_2 <- conv4_2
I0413 18:40:56.819885 13783 net.cpp:395] relu4_2 -> conv4_2 (in-place)
I0413 18:40:56.819900 13783 net.cpp:150] Setting up relu4_2
I0413 18:40:56.819927 13783 net.cpp:157] Top shape: 1 512 125 188 (12032000)
I0413 18:40:56.819947 13783 net.cpp:165] Memory required for data: 3294576116
I0413 18:40:56.819965 13783 layer_factory.hpp:77] Creating layer conv4_3
I0413 18:40:56.819993 13783 net.cpp:100] Creating Layer conv4_3
I0413 18:40:56.820013 13783 net.cpp:434] conv4_3 <- conv4_2
I0413 18:40:56.820040 13783 net.cpp:408] conv4_3 -> conv4_3
I0413 18:40:56.824790 13783 net.cpp:150] Setting up conv4_3
I0413 18:40:56.824828 13783 net.cpp:157] Top shape: 1 512 125 188 (12032000)
I0413 18:40:56.824832 13783 net.cpp:165] Memory required for data: 3342704116
I0413 18:40:56.824848 13783 layer_factory.hpp:77] Creating layer relu4_3
I0413 18:40:56.824863 13783 net.cpp:100] Creating Layer relu4_3
I0413 18:40:56.824878 13783 net.cpp:434] relu4_3 <- conv4_3
I0413 18:40:56.824897 13783 net.cpp:395] relu4_3 -> conv4_3 (in-place)
I0413 18:40:56.824925 13783 net.cpp:150] Setting up relu4_3
I0413 18:40:56.824936 13783 net.cpp:157] Top shape: 1 512 125 188 (12032000)
I0413 18:40:56.824944 13783 net.cpp:165] Memory required for data: 3390832116
I0413 18:40:56.824951 13783 layer_factory.hpp:77] Creating layer pool4
I0413 18:40:56.824962 13783 net.cpp:100] Creating Layer pool4
I0413 18:40:56.824970 13783 net.cpp:434] pool4 <- conv4_3
I0413 18:40:56.824982 13783 net.cpp:408] pool4 -> pool4
I0413 18:40:56.825034 13783 net.cpp:150] Setting up pool4
I0413 18:40:56.825068 13783 net.cpp:157] Top shape: 1 512 63 94 (3032064)
I0413 18:40:56.825076 13783 net.cpp:165] Memory required for data: 3402960372
I0413 18:40:56.825083 13783 layer_factory.hpp:77] Creating layer conv5_1
I0413 18:40:56.825100 13783 net.cpp:100] Creating Layer conv5_1
I0413 18:40:56.825109 13783 net.cpp:434] conv5_1 <- pool4
I0413 18:40:56.825120 13783 net.cpp:408] conv5_1 -> conv5_1
I0413 18:40:56.829895 13783 net.cpp:150] Setting up conv5_1
I0413 18:40:56.829931 13783 net.cpp:157] Top shape: 1 512 63 94 (3032064)
I0413 18:40:56.829933 13783 net.cpp:165] Memory required for data: 3415088628
I0413 18:40:56.829947 13783 layer_factory.hpp:77] Creating layer relu5_1
I0413 18:40:56.829962 13783 net.cpp:100] Creating Layer relu5_1
I0413 18:40:56.829969 13783 net.cpp:434] relu5_1 <- conv5_1
I0413 18:40:56.829988 13783 net.cpp:395] relu5_1 -> conv5_1 (in-place)
I0413 18:40:56.830004 13783 net.cpp:150] Setting up relu5_1
I0413 18:40:56.830013 13783 net.cpp:157] Top shape: 1 512 63 94 (3032064)
I0413 18:40:56.830020 13783 net.cpp:165] Memory required for data: 3427216884
I0413 18:40:56.830025 13783 layer_factory.hpp:77] Creating layer conv5_2
I0413 18:40:56.830040 13783 net.cpp:100] Creating Layer conv5_2
I0413 18:40:56.830047 13783 net.cpp:434] conv5_2 <- conv5_1
I0413 18:40:56.830056 13783 net.cpp:408] conv5_2 -> conv5_2
I0413 18:40:56.834785 13783 net.cpp:150] Setting up conv5_2
I0413 18:40:56.834818 13783 net.cpp:157] Top shape: 1 512 63 94 (3032064)
I0413 18:40:56.834831 13783 net.cpp:165] Memory required for data: 3439345140
I0413 18:40:56.834841 13783 layer_factory.hpp:77] Creating layer relu5_2
I0413 18:40:56.834856 13783 net.cpp:100] Creating Layer relu5_2
I0413 18:40:56.834862 13783 net.cpp:434] relu5_2 <- conv5_2
I0413 18:40:56.834873 13783 net.cpp:395] relu5_2 -> conv5_2 (in-place)
I0413 18:40:56.834888 13783 net.cpp:150] Setting up relu5_2
I0413 18:40:56.834898 13783 net.cpp:157] Top shape: 1 512 63 94 (3032064)
I0413 18:40:56.834904 13783 net.cpp:165] Memory required for data: 3451473396
I0413 18:40:56.834911 13783 layer_factory.hpp:77] Creating layer conv5_3
I0413 18:40:56.834935 13783 net.cpp:100] Creating Layer conv5_3
I0413 18:40:56.834944 13783 net.cpp:434] conv5_3 <- conv5_2
I0413 18:40:56.834954 13783 net.cpp:408] conv5_3 -> conv5_3
I0413 18:40:56.839649 13783 net.cpp:150] Setting up conv5_3
I0413 18:40:56.839686 13783 net.cpp:157] Top shape: 1 512 63 94 (3032064)
I0413 18:40:56.839692 13783 net.cpp:165] Memory required for data: 3463601652
I0413 18:40:56.839707 13783 layer_factory.hpp:77] Creating layer relu5_3
I0413 18:40:56.839721 13783 net.cpp:100] Creating Layer relu5_3
I0413 18:40:56.839730 13783 net.cpp:434] relu5_3 <- conv5_3
I0413 18:40:56.839743 13783 net.cpp:395] relu5_3 -> conv5_3 (in-place)
I0413 18:40:56.839758 13783 net.cpp:150] Setting up relu5_3
I0413 18:40:56.839767 13783 net.cpp:157] Top shape: 1 512 63 94 (3032064)
I0413 18:40:56.839773 13783 net.cpp:165] Memory required for data: 3475729908
I0413 18:40:56.839779 13783 layer_factory.hpp:77] Creating layer conv5_3_relu5_3_0_split
I0413 18:40:56.839789 13783 net.cpp:100] Creating Layer conv5_3_relu5_3_0_split
I0413 18:40:56.839797 13783 net.cpp:434] conv5_3_relu5_3_0_split <- conv5_3
I0413 18:40:56.839808 13783 net.cpp:408] conv5_3_relu5_3_0_split -> conv5_3_relu5_3_0_split_0
I0413 18:40:56.839821 13783 net.cpp:408] conv5_3_relu5_3_0_split -> conv5_3_relu5_3_0_split_1
I0413 18:40:56.839869 13783 net.cpp:150] Setting up conv5_3_relu5_3_0_split
I0413 18:40:56.839903 13783 net.cpp:157] Top shape: 1 512 63 94 (3032064)
I0413 18:40:56.839925 13783 net.cpp:157] Top shape: 1 512 63 94 (3032064)
I0413 18:40:56.839942 13783 net.cpp:165] Memory required for data: 3499986420
I0413 18:40:56.839962 13783 layer_factory.hpp:77] Creating layer rpn_big_conv1
I0413 18:40:56.839990 13783 net.cpp:100] Creating Layer rpn_big_conv1
I0413 18:40:56.840010 13783 net.cpp:434] rpn_big_conv1 <- conv5_3_relu5_3_0_split_0
I0413 18:40:56.840034 13783 net.cpp:408] rpn_big_conv1 -> rpn_big_conv1
I0413 18:40:56.865593 13783 net.cpp:150] Setting up rpn_big_conv1
I0413 18:40:56.865634 13783 net.cpp:157] Top shape: 1 512 63 94 (3032064)
I0413 18:40:56.865648 13783 net.cpp:165] Memory required for data: 3512114676
I0413 18:40:56.865658 13783 layer_factory.hpp:77] Creating layer rpn_big_conv1_relu
I0413 18:40:56.865669 13783 net.cpp:100] Creating Layer rpn_big_conv1_relu
I0413 18:40:56.865676 13783 net.cpp:434] rpn_big_conv1_relu <- rpn_big_conv1
I0413 18:40:56.865689 13783 net.cpp:395] rpn_big_conv1_relu -> rpn_big_conv1 (in-place)
I0413 18:40:56.865705 13783 net.cpp:150] Setting up rpn_big_conv1_relu
I0413 18:40:56.865713 13783 net.cpp:157] Top shape: 1 512 63 94 (3032064)
I0413 18:40:56.865722 13783 net.cpp:165] Memory required for data: 3524242932
I0413 18:40:56.865728 13783 layer_factory.hpp:77] Creating layer rpn_big_conv2
I0413 18:40:56.865746 13783 net.cpp:100] Creating Layer rpn_big_conv2
I0413 18:40:56.865753 13783 net.cpp:434] rpn_big_conv2 <- rpn_big_conv1
I0413 18:40:56.865763 13783 net.cpp:408] rpn_big_conv2 -> rpn_big_conv2
I0413 18:40:56.891794 13783 net.cpp:150] Setting up rpn_big_conv2
I0413 18:40:56.891826 13783 net.cpp:157] Top shape: 1 512 63 94 (3032064)
I0413 18:40:56.891839 13783 net.cpp:165] Memory required for data: 3536371188
I0413 18:40:56.891849 13783 layer_factory.hpp:77] Creating layer rpn_big_conv2_relu
I0413 18:40:56.891863 13783 net.cpp:100] Creating Layer rpn_big_conv2_relu
I0413 18:40:56.891871 13783 net.cpp:434] rpn_big_conv2_relu <- rpn_big_conv2
I0413 18:40:56.891882 13783 net.cpp:395] rpn_big_conv2_relu -> rpn_big_conv2 (in-place)
I0413 18:40:56.891896 13783 net.cpp:150] Setting up rpn_big_conv2_relu
I0413 18:40:56.891913 13783 net.cpp:157] Top shape: 1 512 63 94 (3032064)
I0413 18:40:56.891921 13783 net.cpp:165] Memory required for data: 3548499444
I0413 18:40:56.891927 13783 layer_factory.hpp:77] Creating layer rpn_big_conv2_drop
I0413 18:40:56.891940 13783 net.cpp:100] Creating Layer rpn_big_conv2_drop
I0413 18:40:56.891947 13783 net.cpp:434] rpn_big_conv2_drop <- rpn_big_conv2
I0413 18:40:56.891954 13783 net.cpp:395] rpn_big_conv2_drop -> rpn_big_conv2 (in-place)
I0413 18:40:56.891994 13783 net.cpp:150] Setting up rpn_big_conv2_drop
I0413 18:40:56.892007 13783 net.cpp:157] Top shape: 1 512 63 94 (3032064)
I0413 18:40:56.892012 13783 net.cpp:165] Memory required for data: 3560627700
I0413 18:40:56.892025 13783 layer_factory.hpp:77] Creating layer rpn_big_conv2_rpn_big_conv2_drop_0_split
I0413 18:40:56.892033 13783 net.cpp:100] Creating Layer rpn_big_conv2_rpn_big_conv2_drop_0_split
I0413 18:40:56.892040 13783 net.cpp:434] rpn_big_conv2_rpn_big_conv2_drop_0_split <- rpn_big_conv2
I0413 18:40:56.892052 13783 net.cpp:408] rpn_big_conv2_rpn_big_conv2_drop_0_split -> rpn_big_conv2_rpn_big_conv2_drop_0_split_0
I0413 18:40:56.892065 13783 net.cpp:408] rpn_big_conv2_rpn_big_conv2_drop_0_split -> rpn_big_conv2_rpn_big_conv2_drop_0_split_1
I0413 18:40:56.892122 13783 net.cpp:150] Setting up rpn_big_conv2_rpn_big_conv2_drop_0_split
I0413 18:40:56.892134 13783 net.cpp:157] Top shape: 1 512 63 94 (3032064)
I0413 18:40:56.892144 13783 net.cpp:157] Top shape: 1 512 63 94 (3032064)
I0413 18:40:56.892150 13783 net.cpp:165] Memory required for data: 3584884212
I0413 18:40:56.892156 13783 layer_factory.hpp:77] Creating layer rpn_big_output_cls
I0413 18:40:56.892174 13783 net.cpp:100] Creating Layer rpn_big_output_cls
I0413 18:40:56.892181 13783 net.cpp:434] rpn_big_output_cls <- rpn_big_conv2_rpn_big_conv2_drop_0_split_0
I0413 18:40:56.892194 13783 net.cpp:408] rpn_big_output_cls -> rpn_big_output_cls
I0413 18:40:56.911581 13783 net.cpp:150] Setting up rpn_big_output_cls
I0413 18:40:56.911613 13783 net.cpp:157] Top shape: 1 384 63 94 (2274048)
I0413 18:40:56.911625 13783 net.cpp:165] Memory required for data: 3593980404
I0413 18:40:56.911636 13783 layer_factory.hpp:77] Creating layer rpn_big_output_cls_relu
I0413 18:40:56.911648 13783 net.cpp:100] Creating Layer rpn_big_output_cls_relu
I0413 18:40:56.911656 13783 net.cpp:434] rpn_big_output_cls_relu <- rpn_big_output_cls
I0413 18:40:56.911669 13783 net.cpp:395] rpn_big_output_cls_relu -> rpn_big_output_cls (in-place)
I0413 18:40:56.911690 13783 net.cpp:150] Setting up rpn_big_output_cls_relu
I0413 18:40:56.911700 13783 net.cpp:157] Top shape: 1 384 63 94 (2274048)
I0413 18:40:56.911705 13783 net.cpp:165] Memory required for data: 3603076596
I0413 18:40:56.911710 13783 layer_factory.hpp:77] Creating layer rpn_big_cls_score
I0413 18:40:56.911726 13783 net.cpp:100] Creating Layer rpn_big_cls_score
I0413 18:40:56.911733 13783 net.cpp:434] rpn_big_cls_score <- rpn_big_output_cls
I0413 18:40:56.911746 13783 net.cpp:408] rpn_big_cls_score -> rpn_big_cls_score
I0413 18:40:56.914156 13783 net.cpp:150] Setting up rpn_big_cls_score
I0413 18:40:56.914168 13783 net.cpp:157] Top shape: 1 52 61 92 (291824)
I0413 18:40:56.914171 13783 net.cpp:165] Memory required for data: 3604243892
I0413 18:40:56.914196 13783 layer_factory.hpp:77] Creating layer rpn_big_cls_score_rpn_big_cls_score_0_split
I0413 18:40:56.914203 13783 net.cpp:100] Creating Layer rpn_big_cls_score_rpn_big_cls_score_0_split
I0413 18:40:56.914211 13783 net.cpp:434] rpn_big_cls_score_rpn_big_cls_score_0_split <- rpn_big_cls_score
I0413 18:40:56.914222 13783 net.cpp:408] rpn_big_cls_score_rpn_big_cls_score_0_split -> rpn_big_cls_score_rpn_big_cls_score_0_split_0
I0413 18:40:56.914237 13783 net.cpp:408] rpn_big_cls_score_rpn_big_cls_score_0_split -> rpn_big_cls_score_rpn_big_cls_score_0_split_1
I0413 18:40:56.914294 13783 net.cpp:150] Setting up rpn_big_cls_score_rpn_big_cls_score_0_split
I0413 18:40:56.914304 13783 net.cpp:157] Top shape: 1 52 61 92 (291824)
I0413 18:40:56.914319 13783 net.cpp:157] Top shape: 1 52 61 92 (291824)
I0413 18:40:56.914324 13783 net.cpp:165] Memory required for data: 3606578484
I0413 18:40:56.914330 13783 layer_factory.hpp:77] Creating layer rpn_big_cls_score_reshape
I0413 18:40:56.914343 13783 net.cpp:100] Creating Layer rpn_big_cls_score_reshape
I0413 18:40:56.914350 13783 net.cpp:434] rpn_big_cls_score_reshape <- rpn_big_cls_score_rpn_big_cls_score_0_split_0
I0413 18:40:56.914361 13783 net.cpp:408] rpn_big_cls_score_reshape -> rpn_big_cls_score_reshape
I0413 18:40:56.914417 13783 net.cpp:150] Setting up rpn_big_cls_score_reshape
I0413 18:40:56.914429 13783 net.cpp:157] Top shape: 1 2 1586 92 (291824)
I0413 18:40:56.914435 13783 net.cpp:165] Memory required for data: 3607745780
I0413 18:40:56.914441 13783 layer_factory.hpp:77] Creating layer rpn_big_cls_score_reshape_rpn_big_cls_score_reshape_0_split
I0413 18:40:56.914451 13783 net.cpp:100] Creating Layer rpn_big_cls_score_reshape_rpn_big_cls_score_reshape_0_split
I0413 18:40:56.914458 13783 net.cpp:434] rpn_big_cls_score_reshape_rpn_big_cls_score_reshape_0_split <- rpn_big_cls_score_reshape
I0413 18:40:56.914465 13783 net.cpp:408] rpn_big_cls_score_reshape_rpn_big_cls_score_reshape_0_split -> rpn_big_cls_score_reshape_rpn_big_cls_score_reshape_0_split_0
I0413 18:40:56.914481 13783 net.cpp:408] rpn_big_cls_score_reshape_rpn_big_cls_score_reshape_0_split -> rpn_big_cls_score_reshape_rpn_big_cls_score_reshape_0_split_1
I0413 18:40:56.914528 13783 net.cpp:150] Setting up rpn_big_cls_score_reshape_rpn_big_cls_score_reshape_0_split
I0413 18:40:56.914541 13783 net.cpp:157] Top shape: 1 2 1586 92 (291824)
I0413 18:40:56.914549 13783 net.cpp:157] Top shape: 1 2 1586 92 (291824)
I0413 18:40:56.914554 13783 net.cpp:165] Memory required for data: 3610080372
I0413 18:40:56.914559 13783 layer_factory.hpp:77] Creating layer rpn_big_cls_prob
I0413 18:40:56.914569 13783 net.cpp:100] Creating Layer rpn_big_cls_prob
I0413 18:40:56.914577 13783 net.cpp:434] rpn_big_cls_prob <- rpn_big_cls_score_reshape_rpn_big_cls_score_reshape_0_split_0
I0413 18:40:56.914587 13783 net.cpp:408] rpn_big_cls_prob -> rpn_big_cls_prob
I0413 18:40:56.914661 13783 net.cpp:150] Setting up rpn_big_cls_prob
I0413 18:40:56.914671 13783 net.cpp:157] Top shape: 1 2 1586 92 (291824)
I0413 18:40:56.914676 13783 net.cpp:165] Memory required for data: 3611247668
I0413 18:40:56.914698 13783 layer_factory.hpp:77] Creating layer rpn_big_cls_prob_reshape
I0413 18:40:56.914722 13783 net.cpp:100] Creating Layer rpn_big_cls_prob_reshape
I0413 18:40:56.914741 13783 net.cpp:434] rpn_big_cls_prob_reshape <- rpn_big_cls_prob
I0413 18:40:56.914763 13783 net.cpp:408] rpn_big_cls_prob_reshape -> rpn_big_cls_prob_reshape
I0413 18:40:56.914798 13783 net.cpp:150] Setting up rpn_big_cls_prob_reshape
I0413 18:40:56.914822 13783 net.cpp:157] Top shape: 1 52 61 92 (291824)
I0413 18:40:56.914840 13783 net.cpp:165] Memory required for data: 3612414964
I0413 18:40:56.914858 13783 layer_factory.hpp:77] Creating layer rpn_big_cls_prob_reshape_rpn_big_cls_prob_reshape_0_split
I0413 18:40:56.914878 13783 net.cpp:100] Creating Layer rpn_big_cls_prob_reshape_rpn_big_cls_prob_reshape_0_split
I0413 18:40:56.914886 13783 net.cpp:434] rpn_big_cls_prob_reshape_rpn_big_cls_prob_reshape_0_split <- rpn_big_cls_prob_reshape
I0413 18:40:56.914897 13783 net.cpp:408] rpn_big_cls_prob_reshape_rpn_big_cls_prob_reshape_0_split -> rpn_big_cls_prob_reshape_rpn_big_cls_prob_reshape_0_split_0
I0413 18:40:56.914909 13783 net.cpp:408] rpn_big_cls_prob_reshape_rpn_big_cls_prob_reshape_0_split -> rpn_big_cls_prob_reshape_rpn_big_cls_prob_reshape_0_split_1
I0413 18:40:56.914955 13783 net.cpp:150] Setting up rpn_big_cls_prob_reshape_rpn_big_cls_prob_reshape_0_split
I0413 18:40:56.914966 13783 net.cpp:157] Top shape: 1 52 61 92 (291824)
I0413 18:40:56.914973 13783 net.cpp:157] Top shape: 1 52 61 92 (291824)
I0413 18:40:56.914976 13783 net.cpp:165] Memory required for data: 3614749556
I0413 18:40:56.914983 13783 layer_factory.hpp:77] Creating layer rpn_big_anchor_target
I0413 18:40:56.916458 13783 net.cpp:100] Creating Layer rpn_big_anchor_target
I0413 18:40:56.916473 13783 net.cpp:434] rpn_big_anchor_target <- rpn_big_cls_score_rpn_big_cls_score_0_split_1
I0413 18:40:56.916481 13783 net.cpp:434] rpn_big_anchor_target <- input_gt_boxes_input_2_split_0
I0413 18:40:56.916489 13783 net.cpp:434] rpn_big_anchor_target <- input_ignored_boxes
I0413 18:40:56.916497 13783 net.cpp:434] rpn_big_anchor_target <- input_im_info_input_1_split_0
I0413 18:40:56.916507 13783 net.cpp:434] rpn_big_anchor_target <- input_data_input_0_split_1
I0413 18:40:56.916514 13783 net.cpp:434] rpn_big_anchor_target <- rpn_big_cls_prob_reshape_rpn_big_cls_prob_reshape_0_split_0
I0413 18:40:56.916527 13783 net.cpp:408] rpn_big_anchor_target -> rpn_big_anchor_target_labels
I0413 18:40:56.916543 13783 net.cpp:408] rpn_big_anchor_target -> rpn_big_anchor_target_bbox_targets
I0413 18:40:56.916556 13783 net.cpp:408] rpn_big_anchor_target -> rpn_big_anchor_target_inside_weights
I0413 18:40:56.916571 13783 net.cpp:408] rpn_big_anchor_target -> rpn_big_anchor_target_outside_weights
I0413 18:40:56.921525 13783 net.cpp:150] Setting up rpn_big_anchor_target
I0413 18:40:56.921553 13783 net.cpp:157] Top shape: 1 1 1586 92 (145912)
I0413 18:40:56.921558 13783 net.cpp:157] Top shape: 1 104 61 92 (583648)
I0413 18:40:56.921562 13783 net.cpp:157] Top shape: 1 104 61 92 (583648)
I0413 18:40:56.921568 13783 net.cpp:157] Top shape: 1 104 61 92 (583648)
I0413 18:40:56.921573 13783 net.cpp:165] Memory required for data: 3622336980
I0413 18:40:56.921581 13783 layer_factory.hpp:77] Creating layer rpn_big_loss_cls
I0413 18:40:56.921598 13783 net.cpp:100] Creating Layer rpn_big_loss_cls
I0413 18:40:56.921607 13783 net.cpp:434] rpn_big_loss_cls <- rpn_big_cls_score_reshape_rpn_big_cls_score_reshape_0_split_1
I0413 18:40:56.921617 13783 net.cpp:434] rpn_big_loss_cls <- rpn_big_anchor_target_labels
I0413 18:40:56.921627 13783 net.cpp:408] rpn_big_loss_cls -> rpn_big_loss_cls
I0413 18:40:56.921644 13783 layer_factory.hpp:77] Creating layer rpn_big_loss_cls
I0413 18:40:56.922366 13783 net.cpp:150] Setting up rpn_big_loss_cls
I0413 18:40:56.922381 13783 net.cpp:157] Top shape: (1)
I0413 18:40:56.922384 13783 net.cpp:160]     with loss weight 1
I0413 18:40:56.922397 13783 net.cpp:165] Memory required for data: 3622336984
I0413 18:40:56.922405 13783 layer_factory.hpp:77] Creating layer rpn_big_output_box
I0413 18:40:56.922423 13783 net.cpp:100] Creating Layer rpn_big_output_box
I0413 18:40:56.922432 13783 net.cpp:434] rpn_big_output_box <- rpn_big_conv2_rpn_big_conv2_drop_0_split_1
I0413 18:40:56.922444 13783 net.cpp:408] rpn_big_output_box -> rpn_big_output_box
I0413 18:40:56.941864 13783 net.cpp:150] Setting up rpn_big_output_box
I0413 18:40:56.941895 13783 net.cpp:157] Top shape: 1 384 63 94 (2274048)
I0413 18:40:56.941897 13783 net.cpp:165] Memory required for data: 3631433176
I0413 18:40:56.941910 13783 layer_factory.hpp:77] Creating layer rpn_big_output_box_relu
I0413 18:40:56.941925 13783 net.cpp:100] Creating Layer rpn_big_output_box_relu
I0413 18:40:56.941933 13783 net.cpp:434] rpn_big_output_box_relu <- rpn_big_output_box
I0413 18:40:56.941943 13783 net.cpp:395] rpn_big_output_box_relu -> rpn_big_output_box (in-place)
I0413 18:40:56.941956 13783 net.cpp:150] Setting up rpn_big_output_box_relu
I0413 18:40:56.941963 13783 net.cpp:157] Top shape: 1 384 63 94 (2274048)
I0413 18:40:56.941968 13783 net.cpp:165] Memory required for data: 3640529368
I0413 18:40:56.941973 13783 layer_factory.hpp:77] Creating layer rpn_big_bbox_pred
I0413 18:40:56.941992 13783 net.cpp:100] Creating Layer rpn_big_bbox_pred
I0413 18:40:56.941998 13783 net.cpp:434] rpn_big_bbox_pred <- rpn_big_output_box
I0413 18:40:56.942009 13783 net.cpp:408] rpn_big_bbox_pred -> rpn_big_bbox_pred
I0413 18:40:56.946142 13783 net.cpp:150] Setting up rpn_big_bbox_pred
I0413 18:40:56.946161 13783 net.cpp:157] Top shape: 1 104 61 92 (583648)
I0413 18:40:56.946164 13783 net.cpp:165] Memory required for data: 3642863960
I0413 18:40:56.946182 13783 layer_factory.hpp:77] Creating layer rpn_big_bbox_pred_rpn_big_bbox_pred_0_split
I0413 18:40:56.946189 13783 net.cpp:100] Creating Layer rpn_big_bbox_pred_rpn_big_bbox_pred_0_split
I0413 18:40:56.946193 13783 net.cpp:434] rpn_big_bbox_pred_rpn_big_bbox_pred_0_split <- rpn_big_bbox_pred
I0413 18:40:56.946202 13783 net.cpp:408] rpn_big_bbox_pred_rpn_big_bbox_pred_0_split -> rpn_big_bbox_pred_rpn_big_bbox_pred_0_split_0
I0413 18:40:56.946213 13783 net.cpp:408] rpn_big_bbox_pred_rpn_big_bbox_pred_0_split -> rpn_big_bbox_pred_rpn_big_bbox_pred_0_split_1
I0413 18:40:56.946270 13783 net.cpp:150] Setting up rpn_big_bbox_pred_rpn_big_bbox_pred_0_split
I0413 18:40:56.946280 13783 net.cpp:157] Top shape: 1 104 61 92 (583648)
I0413 18:40:56.946287 13783 net.cpp:157] Top shape: 1 104 61 92 (583648)
I0413 18:40:56.946300 13783 net.cpp:165] Memory required for data: 3647533144
I0413 18:40:56.946305 13783 layer_factory.hpp:77] Creating layer rpn_big_loss_bbox
I0413 18:40:56.946732 13783 net.cpp:100] Creating Layer rpn_big_loss_bbox
I0413 18:40:56.946743 13783 net.cpp:434] rpn_big_loss_bbox <- rpn_big_bbox_pred_rpn_big_bbox_pred_0_split_0
I0413 18:40:56.946749 13783 net.cpp:434] rpn_big_loss_bbox <- rpn_big_anchor_target_bbox_targets
I0413 18:40:56.946758 13783 net.cpp:434] rpn_big_loss_bbox <- rpn_big_anchor_target_inside_weights
I0413 18:40:56.946766 13783 net.cpp:434] rpn_big_loss_bbox <- rpn_big_anchor_target_outside_weights
I0413 18:40:56.946779 13783 net.cpp:408] rpn_big_loss_bbox -> rpn_big_loss_bbox
I0413 18:40:56.950702 13783 net.cpp:150] Setting up rpn_big_loss_bbox
I0413 18:40:56.950737 13783 net.cpp:157] Top shape: 1 (1)
I0413 18:40:56.950749 13783 net.cpp:160]     with loss weight 1
I0413 18:40:56.950762 13783 net.cpp:165] Memory required for data: 3647533148
I0413 18:40:56.950768 13783 layer_factory.hpp:77] Creating layer proposal
I0413 18:40:56.951213 13783 net.cpp:100] Creating Layer proposal
I0413 18:40:56.951225 13783 net.cpp:434] proposal <- rpn_big_cls_prob_reshape_rpn_big_cls_prob_reshape_0_split_1
I0413 18:40:56.951241 13783 net.cpp:434] proposal <- rpn_big_bbox_pred_rpn_big_bbox_pred_0_split_1
I0413 18:40:56.951246 13783 net.cpp:434] proposal <- input_im_info_input_1_split_1
I0413 18:40:56.951254 13783 net.cpp:408] proposal -> rpn_rois
I0413 18:40:56.955937 13783 net.cpp:150] Setting up proposal
I0413 18:40:56.955966 13783 net.cpp:157] Top shape: 1 5 (5)
I0413 18:40:56.955971 13783 net.cpp:165] Memory required for data: 3647533168
I0413 18:40:56.955976 13783 layer_factory.hpp:77] Creating layer roi-data
I0413 18:40:56.956347 13783 net.cpp:100] Creating Layer roi-data
I0413 18:40:56.956360 13783 net.cpp:434] roi-data <- rpn_rois
I0413 18:40:56.956370 13783 net.cpp:434] roi-data <- input_gt_boxes_input_2_split_1
I0413 18:40:56.956382 13783 net.cpp:408] roi-data -> rois
I0413 18:40:56.956404 13783 net.cpp:408] roi-data -> labels
I0413 18:40:56.956420 13783 net.cpp:408] roi-data -> bbox_targets
I0413 18:40:56.956435 13783 net.cpp:408] roi-data -> bbox_inside_weights
I0413 18:40:56.956446 13783 net.cpp:408] roi-data -> bbox_outside_weights
I0413 18:40:56.956459 13783 net.cpp:408] roi-data -> pid_label
I0413 18:40:56.957473 13783 net.cpp:150] Setting up roi-data
I0413 18:40:56.957487 13783 net.cpp:157] Top shape: 1 5 (5)
I0413 18:40:56.957494 13783 net.cpp:157] Top shape: 1 1 (1)
I0413 18:40:56.957499 13783 net.cpp:157] Top shape: 1 8 (8)
I0413 18:40:56.957506 13783 net.cpp:157] Top shape: 1 8 (8)
I0413 18:40:56.957512 13783 net.cpp:157] Top shape: 1 8 (8)
I0413 18:40:56.957520 13783 net.cpp:157] Top shape: (0)
I0413 18:40:56.957527 13783 net.cpp:165] Memory required for data: 3647533288
I0413 18:40:56.957533 13783 layer_factory.hpp:77] Creating layer roi-pool
I0413 18:40:56.957545 13783 net.cpp:100] Creating Layer roi-pool
I0413 18:40:56.957553 13783 net.cpp:434] roi-pool <- conv5_3_relu5_3_0_split_1
I0413 18:40:56.957562 13783 net.cpp:434] roi-pool <- rois
I0413 18:40:56.957574 13783 net.cpp:408] roi-pool -> roi-pool
I0413 18:40:56.957588 13783 roi_pooling_layer.cpp:33] Spatial scale: 0.0625
I0413 18:40:56.957605 13783 roi_pooling_layer.cpp:34] Box scale: 1
I0413 18:40:56.957659 13783 net.cpp:150] Setting up roi-pool
I0413 18:40:56.957669 13783 net.cpp:157] Top shape: 1 512 7 7 (25088)
I0413 18:40:56.957674 13783 net.cpp:165] Memory required for data: 3647633640
I0413 18:40:56.957680 13783 layer_factory.hpp:77] Creating layer fc6
I0413 18:40:56.957691 13783 net.cpp:100] Creating Layer fc6
I0413 18:40:56.957698 13783 net.cpp:434] fc6 <- roi-pool
I0413 18:40:56.957708 13783 net.cpp:408] fc6 -> fc6
I0413 18:40:57.120087 13783 net.cpp:150] Setting up fc6
I0413 18:40:57.120124 13783 net.cpp:157] Top shape: 1 4096 (4096)
I0413 18:40:57.120136 13783 net.cpp:165] Memory required for data: 3647650024
I0413 18:40:57.120148 13783 layer_factory.hpp:77] Creating layer relu6
I0413 18:40:57.120158 13783 net.cpp:100] Creating Layer relu6
I0413 18:40:57.120165 13783 net.cpp:434] relu6 <- fc6
I0413 18:40:57.120172 13783 net.cpp:395] relu6 -> fc6 (in-place)
I0413 18:40:57.120187 13783 net.cpp:150] Setting up relu6
I0413 18:40:57.120193 13783 net.cpp:157] Top shape: 1 4096 (4096)
I0413 18:40:57.120198 13783 net.cpp:165] Memory required for data: 3647666408
I0413 18:40:57.120203 13783 layer_factory.hpp:77] Creating layer drop6
I0413 18:40:57.120213 13783 net.cpp:100] Creating Layer drop6
I0413 18:40:57.120218 13783 net.cpp:434] drop6 <- fc6
I0413 18:40:57.120229 13783 net.cpp:395] drop6 -> fc6 (in-place)
I0413 18:40:57.120265 13783 net.cpp:150] Setting up drop6
I0413 18:40:57.120296 13783 net.cpp:157] Top shape: 1 4096 (4096)
I0413 18:40:57.120316 13783 net.cpp:165] Memory required for data: 3647682792
I0413 18:40:57.120324 13783 layer_factory.hpp:77] Creating layer fc7
I0413 18:40:57.120333 13783 net.cpp:100] Creating Layer fc7
I0413 18:40:57.120339 13783 net.cpp:434] fc7 <- fc6
I0413 18:40:57.120348 13783 net.cpp:408] fc7 -> fc7
I0413 18:40:57.148087 13783 net.cpp:150] Setting up fc7
I0413 18:40:57.148121 13783 net.cpp:157] Top shape: 1 4096 (4096)
I0413 18:40:57.148134 13783 net.cpp:165] Memory required for data: 3647699176
I0413 18:40:57.148145 13783 layer_factory.hpp:77] Creating layer relu7
I0413 18:40:57.148172 13783 net.cpp:100] Creating Layer relu7
I0413 18:40:57.148180 13783 net.cpp:434] relu7 <- fc7
I0413 18:40:57.148191 13783 net.cpp:395] relu7 -> fc7 (in-place)
I0413 18:40:57.148216 13783 net.cpp:150] Setting up relu7
I0413 18:40:57.148223 13783 net.cpp:157] Top shape: 1 4096 (4096)
I0413 18:40:57.148228 13783 net.cpp:165] Memory required for data: 3647715560
I0413 18:40:57.148234 13783 layer_factory.hpp:77] Creating layer drop7
I0413 18:40:57.148243 13783 net.cpp:100] Creating Layer drop7
I0413 18:40:57.148250 13783 net.cpp:434] drop7 <- fc7
I0413 18:40:57.148257 13783 net.cpp:395] drop7 -> fc7 (in-place)
I0413 18:40:57.148299 13783 net.cpp:150] Setting up drop7
I0413 18:40:57.148309 13783 net.cpp:157] Top shape: 1 4096 (4096)
I0413 18:40:57.148314 13783 net.cpp:165] Memory required for data: 3647731944
I0413 18:40:57.148327 13783 layer_factory.hpp:77] Creating layer fc7_drop7_0_split
I0413 18:40:57.148339 13783 net.cpp:100] Creating Layer fc7_drop7_0_split
I0413 18:40:57.148345 13783 net.cpp:434] fc7_drop7_0_split <- fc7
I0413 18:40:57.148355 13783 net.cpp:408] fc7_drop7_0_split -> fc7_drop7_0_split_0
I0413 18:40:57.148398 13783 net.cpp:408] fc7_drop7_0_split -> fc7_drop7_0_split_1
I0413 18:40:57.148447 13783 net.cpp:150] Setting up fc7_drop7_0_split
I0413 18:40:57.148458 13783 net.cpp:157] Top shape: 1 4096 (4096)
I0413 18:40:57.148466 13783 net.cpp:157] Top shape: 1 4096 (4096)
I0413 18:40:57.148473 13783 net.cpp:165] Memory required for data: 3647764712
I0413 18:40:57.148479 13783 layer_factory.hpp:77] Creating layer bbox_pred
I0413 18:40:57.148494 13783 net.cpp:100] Creating Layer bbox_pred
I0413 18:40:57.148502 13783 net.cpp:434] bbox_pred <- fc7_drop7_0_split_0
I0413 18:40:57.148514 13783 net.cpp:408] bbox_pred -> bbox_pred
I0413 18:40:57.149173 13783 net.cpp:150] Setting up bbox_pred
I0413 18:40:57.149183 13783 net.cpp:157] Top shape: 1 8 (8)
I0413 18:40:57.149188 13783 net.cpp:165] Memory required for data: 3647764744
I0413 18:40:57.149199 13783 layer_factory.hpp:77] Creating layer loss_bbox
I0413 18:40:57.149214 13783 net.cpp:100] Creating Layer loss_bbox
I0413 18:40:57.149221 13783 net.cpp:434] loss_bbox <- bbox_pred
I0413 18:40:57.149230 13783 net.cpp:434] loss_bbox <- bbox_targets
I0413 18:40:57.149238 13783 net.cpp:434] loss_bbox <- bbox_inside_weights
I0413 18:40:57.149247 13783 net.cpp:434] loss_bbox <- bbox_outside_weights
I0413 18:40:57.149257 13783 net.cpp:408] loss_bbox -> loss_bbox
I0413 18:40:57.149358 13783 net.cpp:150] Setting up loss_bbox
I0413 18:40:57.149369 13783 net.cpp:157] Top shape: (1)
I0413 18:40:57.149375 13783 net.cpp:160]     with loss weight 1
I0413 18:40:57.149390 13783 net.cpp:165] Memory required for data: 3647764748
I0413 18:40:57.149396 13783 layer_factory.hpp:77] Creating layer feat
I0413 18:40:57.149405 13783 net.cpp:100] Creating Layer feat
I0413 18:40:57.149412 13783 net.cpp:434] feat <- fc7_drop7_0_split_1
I0413 18:40:57.149426 13783 net.cpp:408] feat -> feat
I0413 18:40:57.160962 13783 net.cpp:150] Setting up feat
I0413 18:40:57.160996 13783 net.cpp:157] Top shape: 1 256 (256)
I0413 18:40:57.161002 13783 net.cpp:165] Memory required for data: 3647765772
I0413 18:40:57.161017 13783 layer_factory.hpp:77] Creating layer relu8
I0413 18:40:57.161031 13783 net.cpp:100] Creating Layer relu8
I0413 18:40:57.161041 13783 net.cpp:434] relu8 <- feat
I0413 18:40:57.161052 13783 net.cpp:395] relu8 -> feat (in-place)
I0413 18:40:57.161068 13783 net.cpp:150] Setting up relu8
I0413 18:40:57.161082 13783 net.cpp:157] Top shape: 1 256 (256)
I0413 18:40:57.161087 13783 net.cpp:165] Memory required for data: 3647766796
I0413 18:40:57.161094 13783 layer_factory.hpp:77] Creating layer drop8
I0413 18:40:57.161104 13783 net.cpp:100] Creating Layer drop8
I0413 18:40:57.161111 13783 net.cpp:434] drop8 <- feat
I0413 18:40:57.161120 13783 net.cpp:395] drop8 -> feat (in-place)
I0413 18:40:57.161154 13783 net.cpp:150] Setting up drop8
I0413 18:40:57.161165 13783 net.cpp:157] Top shape: 1 256 (256)
I0413 18:40:57.161170 13783 net.cpp:165] Memory required for data: 3647767820
I0413 18:40:57.161176 13783 layer_factory.hpp:77] Creating layer pid_score
I0413 18:40:57.161187 13783 net.cpp:100] Creating Layer pid_score
I0413 18:40:57.161195 13783 net.cpp:434] pid_score <- feat
I0413 18:40:57.161206 13783 net.cpp:408] pid_score -> pid_score
I0413 18:40:57.176668 13783 net.cpp:150] Setting up pid_score
I0413 18:40:57.176699 13783 net.cpp:157] Top shape: 1 5533 (5533)
I0413 18:40:57.176705 13783 net.cpp:165] Memory required for data: 3647789952
I0413 18:40:57.176729 13783 layer_factory.hpp:77] Creating layer pid_loss
F0413 18:40:57.176764 13783 layer_factory.hpp:81] Check failed: registry.count(type) == 1 (0 vs. 1) Unknown layer type: RandomSamplingSoftmaxLoss (known types: AbsVal, Accuracy, ArgMax, BNLL, BatchNorm, BatchReindex, Bias, Concat, Cont
…
