…
I0413 18:55:30.872673 14613 solver.cpp:48] Initializing solver from parameters: 
base_lr: 0.001
display: 20
lr_policy: "multistep"
gamma: 0.1
momentum: 0.9
weight_decay: 0.0005
snapshot: 0
snapshot_prefix: "faces_example"
net_param {
  name: "GeneratedModel_13_04_2017_18_55"
  layer {
    name: "input"
    type: "Python"
    top: "input_data"
    top: "input_im_info"
    top: "input_gt_boxes"
    top: "input_ignored_boxes"
    python_param {
      module: "layers.roi_data_layer"
      layer: "RoIDataLayer"
      param_str: "{\"num_classes\": 2}"
    }
  }
  layer {
    name: "conv1_1"
    type: "Convolution"
    bottom: "input_data"
    top: "conv1_1"
    param {
      lr_mult: 0
      decay_mult: 0
    }
    param {
      lr_mult: 0
      decay_mult: 0
    }
    convolution_param {
      num_output: 64
      pad: 1
      kernel_size: 3
    }
  }
  layer {
    name: "relu1_1"
    type: "ReLU"
    bottom: "conv1_1"
    top: "conv1_1"
  }
  layer {
    name: "conv1_2"
    type: "Convolution"
    bottom: "conv1_1"
    top: "conv1_2"
    param {
      lr_mult: 0
      decay_mult: 0
    }
    param {
      lr_mult: 0
      decay_mult: 0
    }
    convolution_param {
      num_output: 64
      pad: 1
      kernel_size: 3
    }
  }
  layer {
    name: "relu1_2"
    type: "ReLU"
    bottom: "conv1_2"
    top: "conv1_2"
  }
  layer {
    name: "pool1"
    type: "Pooling"
    bottom: "conv1_2"
    top: "pool1"
    pooling_param {
      pool: MAX
      kernel_size: 2
      stride: 2
    }
  }
  layer {
    name: "conv2_1"
    type: "Convolution"
    bottom: "pool1"
    top: "conv2_1"
    param {
      lr_mult: 0
      decay_mult: 0
    }
    param {
      lr_mult: 0
      decay_mult: 0
    }
    convolution_param {
      num_output: 128
      pad: 1
      kernel_size: 3
    }
  }
  layer {
    name: "relu2_1"
    type: "ReLU"
    bottom: "conv2_1"
    top: "conv2_1"
  }
  layer {
    name: "conv2_2"
    type: "Convolution"
    bottom: "conv2_1"
    top: "conv2_2"
    param {
      lr_mult: 0
      decay_mult: 0
    }
    param {
      lr_mult: 0
      decay_mult: 0
    }
    convolution_param {
      num_output: 128
      pad: 1
      kernel_size: 3
    }
  }
  layer {
    name: "relu2_2"
    type: "ReLU"
    bottom: "conv2_2"
    top: "conv2_2"
  }
  layer {
    name: "pool2"
    type: "Pooling"
    bottom: "conv2_2"
    top: "pool2"
    pooling_param {
      pool: MAX
      kernel_size: 2
      stride: 2
    }
  }
  layer {
    name: "conv3_1"
    type: "Convolution"
    bottom: "pool2"
    top: "conv3_1"
    param {
      lr_mult: 1
    }
    param {
      lr_mult: 2
    }
    convolution_param {
      num_output: 256
      pad: 1
      kernel_size: 3
    }
  }
  layer {
    name: "relu3_1"
    type: "ReLU"
    bottom: "conv3_1"
    top: "conv3_1"
  }
  layer {
    name: "conv3_2"
    type: "Convolution"
    bottom: "conv3_1"
    top: "conv3_2"
    param {
      lr_mult: 1
    }
    param {
      lr_mult: 2
    }
    convolution_param {
      num_output: 256
      pad: 1
      kernel_size: 3
    }
  }
  layer {
    name: "relu3_2"
    type: "ReLU"
    bottom: "conv3_2"
    top: "conv3_2"
  }
  layer {
    name: "conv3_3"
    type: "Convolution"
    bottom: "conv3_2"
    top: "conv3_3"
    param {
      lr_mult: 1
    }
    param {
      lr_mult: 2
    }
    convolution_param {
      num_output: 256
      pad: 1
      kernel_size: 3
    }
  }
  layer {
    name: "relu3_3"
    type: "ReLU"
    bottom: "conv3_3"
    top: "conv3_3"
  }
  layer {
    name: "pool3"
    type: "Pooling"
    bottom: "conv3_3"
    top: "pool3"
    pooling_param {
      pool: MAX
      kernel_size: 2
      stride: 2
    }
  }
  layer {
    name: "conv4_1"
    type: "Convolution"
    bottom: "pool3"
    top: "conv4_1"
    param {
      lr_mult: 1
    }
    param {
      lr_mult: 2
    }
    convolution_param {
      num_output: 512
      pad: 1
      kernel_size: 3
    }
  }
  layer {
    name: "relu4_1"
    type: "ReLU"
    bottom: "conv4_1"
    top: "conv4_1"
  }
  layer {
    name: "conv4_2"
    type: "Convolution"
    bottom: "conv4_1"
    top: "conv4_2"
    param {
      lr_mult: 1
    }
    param {
      lr_mult: 2
    }
    convolution_param {
      num_output: 512
      pad: 1
      kernel_size: 3
    }
  }
  layer {
    name: "relu4_2"
    type: "ReLU"
    bottom: "conv4_2"
    top: "conv4_2"
  }
  layer {
    name: "conv4_3"
    type: "Convolution"
    bottom: "conv4_2"
    top: "conv4_3"
    param {
      lr_mult: 1
    }
    param {
      lr_mult: 2
    }
    convolution_param {
      num_output: 512
      pad: 1
      kernel_size: 3
    }
  }
  layer {
    name: "relu4_3"
    type: "ReLU"
    bottom: "conv4_3"
    top: "conv4_3"
  }
  layer {
    name: "pool4"
    type: "Pooling"
    bottom: "conv4_3"
    top: "pool4"
    pooling_param {
      pool: MAX
      kernel_size: 2
      stride: 2
    }
  }
  layer {
    name: "conv5_1"
    type: "Convolution"
    bottom: "pool4"
    top: "conv5_1"
    param {
      lr_mult: 1
    }
    param {
      lr_mult: 2
    }
    convolution_param {
      num_output: 512
      pad: 1
      kernel_size: 3
    }
  }
  layer {
    name: "relu5_1"
    type: "ReLU"
    bottom: "conv5_1"
    top: "conv5_1"
  }
  layer {
    name: "conv5_2"
    type: "Convolution"
    bottom: "conv5_1"
    top: "conv5_2"
    param {
      lr_mult: 1
    }
    param {
      lr_mult: 2
    }
    convolution_param {
      num_output: 512
      pad: 1
      kernel_size: 3
    }
  }
  layer {
    name: "relu5_2"
    type: "ReLU"
    bottom: "conv5_2"
    top: "conv5_2"
  }
  layer {
    name: "conv5_3"
    type: "Convolution"
    bottom: "conv5_2"
    top: "conv5_3"
    param {
      lr_mult: 1
    }
    param {
      lr_mult: 2
    }
    convolution_param {
      num_output: 512
      pad: 1
      kernel_size: 3
    }
  }
  layer {
    name: "relu5_3"
    type: "ReLU"
    bottom: "conv5_3"
    top: "conv5_3"
  }
  layer {
    name: "rpn_big_conv1"
    type: "Convolution"
    bottom: "conv5_3"
    top: "rpn_big_conv1"
    param {
      lr_mult: 1
    }
    param {
      lr_mult: 2
    }
    convolution_param {
      num_output: 512
      pad: 1
      kernel_size: 3
      stride: 1
      weight_filler {
        type: "gaussian"
        mean: 0
        std: 0.01
      }
      bias_filler {
        type: "constant"
      }
    }
  }
  layer {
    name: "rpn_big_conv1_relu"
    type: "ReLU"
    bottom: "rpn_big_conv1"
    top: "rpn_big_conv1"
    relu_param {
      negative_slope: 0
    }
  }
  layer {
    name: "rpn_big_conv2"
    type: "Convolution"
    bottom: "rpn_big_conv1"
    top: "rpn_big_conv2"
    param {
      lr_mult: 1
    }
    param {
      lr_mult: 2
    }
    convolution_param {
      num_output: 512
      pad: 1
      kernel_size: 3
      stride: 1
      weight_filler {
        type: "gaussian"
        mean: 0
        std: 0.01
      }
      bias_filler {
        type: "constant"
      }
    }
  }
  layer {
    name: "rpn_big_conv2_relu"
    type: "ReLU"
    bottom: "rpn_big_conv2"
    top: "rpn_big_conv2"
    relu_param {
      negative_slope: 0
    }
  }
  layer {
    name: "rpn_big_conv2_drop"
    type: "Dropout"
    bottom: "rpn_big_conv2"
    top: "rpn_big_conv2"
    dropout_param {
      dropout_ratio: 0.3
    }
  }
  layer {
    name: "rpn_big_output_cls"
    type: "Convolution"
    bottom: "rpn_big_conv2"
    top: "rpn_big_output_cls"
    param {
      lr_mult: 1
    }
    param {
      lr_mult: 2
    }
    convolution_param {
      num_output: 384
      pad: 1
      kernel_size: 3
      stride: 1
      weight_filler {
        type: "gaussian"
        mean: 0
        std: 0.01
      }
      bias_filler {
        type: "constant"
      }
    }
  }
  layer {
    name: "rpn_big_output_cls_relu"
    type: "ReLU"
    bottom: "rpn_big_output_cls"
    top: "rpn_big_output_cls"
    relu_param {
      negative_slope: 0
    }
  }
  layer {
    name: "rpn_big_cls_score"
    type: "Convolution"
    bottom: "rpn_big_output_cls"
    top: "rpn_big_cls_score"
    param {
      lr_mult: 1
    }
    param {
      lr_mult: 2
    }
    convolution_param {
      num_output: 52
      pad: 0
      kernel_size: 3
      stride: 1
      weight_filler {
        type: "gaussian"
        mean: 0
        std: 0.01
      }
      bias_filler {
        type: "constant"
      }
    }
  }
  layer {
    name: "rpn_big_cls_score_reshape"
    type: "Reshape"
    bottom: "rpn_big_cls_score"
    top: "rpn_big_cls_score_reshape"
    reshape_param {
      shape {
        dim: 0
        dim: 2
        dim: -1
        dim: 0
      }
    }
  }
  layer {
    name: "rpn_big_cls_prob"
    type: "Softmax"
    bottom: "rpn_big_cls_score_reshape"
    top: "rpn_big_cls_prob"
  }
  layer {
    name: "rpn_big_cls_prob_reshape"
    type: "Reshape"
    bottom: "rpn_big_cls_prob"
    top: "rpn_big_cls_prob_reshape"
    reshape_param {
      shape {
        dim: 0
        dim: 52
        dim: -1
        dim: 0
      }
    }
  }
  layer {
    name: "rpn_big_anchor_target"
    type: "Python"
    bottom: "rpn_big_cls_score"
    bottom: "input_gt_boxes"
    bottom: "input_ignored_boxes"
    bottom: "input_im_info"
    bottom: "input_data"
    bottom: "rpn_big_cls_prob_reshape"
    top: "rpn_big_anchor_target_labels"
    top: "rpn_big_anchor_target_bbox_targets"
    top: "rpn_big_anchor_target_inside_weights"
    top: "rpn_big_anchor_target_outside_weights"
    python_param {
      module: "rpn.anchor_target_layer"
      layer: "AnchorTargetLayer"
      param_str: "{\"positive_overlap\": 0.6, \"name\": \"rpn_big\", \"fg_fraction\": 0.5, \"feat_stride\": 16, \"anchor_scales\": [2.5, 3.025, 3.66025, 4.4289024999999995, 5.358972025, 6.484356150249999, 7.846070941802498, 9.493745839581022, 11.487432465893036, 13.899793283730574, 16.818749873313998, 20.350687346709933, 24.62433168951902, 29.795441344318014], \"square_targets\": true, \"tn_fraction\": 0.2, \"anchor_ratios\": [1.0], \"num_classes\": 1, \"anchor_shift_num_xy\": [[2, 2], [2, 2], [2, 2], [2, 2], [1, 1], [1, 1], [1, 1], [1, 1], [1, 1], [1, 1], [1, 1], [1, 1], [1, 1], [1, 1]], \"batchsize\": 256, \"negative_overlap\": 0.4}"
    }
  }
  layer {
    name: "rpn_big_loss_cls"
    type: "SoftmaxWithLoss"
    bottom: "rpn_big_cls_score_reshape"
    bottom: "rpn_big_anchor_target_labels"
    top: "rpn_big_loss_cls"
    loss_weight: 1
    propagate_down: true
    propagate_down: false
    loss_param {
      ignore_label: -1
      normalization: VALID
    }
  }
  layer {
    name: "rpn_big_output_box"
    type: "Convolution"
    bottom: "rpn_big_conv2"
    top: "rpn_big_output_box"
    param {
      lr_mult: 1
    }
    param {
      lr_mult: 2
    }
    convolution_param {
      num_output: 384
      pad: 1
      kernel_size: 3
      stride: 1
      weight_filler {
        type: "gaussian"
        mean: 0
        std: 0.01
      }
      bias_filler {
        type: "constant"
      }
    }
  }
  layer {
    name: "rpn_big_output_box_relu"
    type: "ReLU"
    bottom: "rpn_big_output_box"
    top: "rpn_big_output_box"
    relu_param {
      negative_slope: 0
    }
  }
  layer {
    name: "rpn_big_bbox_pred"
    type: "Convolution"
    bottom: "rpn_big_output_box"
    top: "rpn_big_bbox_pred"
    param {
      lr_mult: 1
    }
    param {
      lr_mult: 2
    }
    convolution_param {
      num_output: 104
      pad: 0
      kernel_size: 3
      stride: 1
      weight_filler {
        type: "gaussian"
        mean: 0
        std: 0.01
      }
      bias_filler {
        type: "constant"
      }
    }
  }
  layer {
    name: "rpn_big_loss_bbox"
    type: "Python"
    bottom: "rpn_big_bbox_pred"
    bottom: "rpn_big_anchor_target_bbox_targets"
    bottom: "rpn_big_anchor_target_inside_weights"
    bottom: "rpn_big_anchor_target_outside_weights"
    top: "rpn_big_loss_bbox"
    loss_weight: 1
    python_param {
      module: "layers.smooth_l1_loss"
      layer: "SmoothL1LossLayer"
      param_str: "{\"sigma\": 3}"
    }
  }
  layer {
    name: "proposal"
    type: "Python"
    bottom: "rpn_big_cls_prob_reshape"
    bottom: "rpn_big_bbox_pred"
    bottom: "input_im_info"
    top: "rpn_rois"
    python_param {
      module: "rpn.proposal_layer"
      layer: "ProposalLayer"
      param_str: "{\"anchor_shift_num_xy\": [[2, 2], [2, 2], [2, 2], [2, 2], [1, 1], [1, 1], [1, 1], [1, 1], [1, 1], [1, 1], [1, 1], [1, 1], [1, 1], [1, 1]], \"feat_stride\": 16, \"num_classes\": 1, \"anchor_scales\": [2.5, 3.025, 3.66025, 4.4289024999999995, 5.358972025, 6.484356150249999, 7.846070941802498, 9.493745839581022, 11.487432465893036, 13.899793283730574, 16.818749873313998, 20.350687346709933, 24.62433168951902, 29.795441344318014], \"square_targets\": true, \"name\": \"rpn_big\", \"batchsize\": 256, \"anchor_ratios\": [1.0]}"
    }
  }
  layer {
    name: "roi-data"
    type: "Python"
    bottom: "rpn_rois"
    bottom: "input_gt_boxes"
    top: "rois"
    top: "labels"
    top: "bbox_targets"
    top: "bbox_inside_weights"
    top: "bbox_outside_weights"
    top: "pid_label"
    python_param {
      module: "rpn.proposal_target_layer"
      layer: "ProposalTargetLayer"
      param_str: "{\"num_classes\": 2, \"bg_aux_label\": 5532}"
    }
  }
  layer {
    name: "roi-pool"
    type: "ROIPooling"
    bottom: "conv5_3"
    bottom: "rois"
    top: "roi-pool"
    roi_pooling_param {
      pooled_h: 7
      pooled_w: 7
      spatial_scale: 0.0625
    }
  }
  layer {
    name: "fc6"
    type: "InnerProduct"
    bottom: "roi-pool"
    top: "fc6"
    param {
      lr_mult: 1
    }
    param {
      lr_mult: 2
    }
    inner_product_param {
      num_output: 4096
    }
  }
  layer {
    name: "relu6"
    type: "ReLU"
    bottom: "fc6"
    top: "fc6"
  }
  layer {
    name: "drop6"
    type: "Dropout"
    bottom: "fc6"
    top: "fc6"
    dropout_param {
      dropout_ratio: 0.5
    }
  }
  layer {
    name: "fc7"
    type: "InnerProduct"
    bottom: "fc6"
    top: "fc7"
    param {
      lr_mult: 1
    }
    param {
      lr_mult: 2
    }
    inner_product_param {
      num_output: 4096
    }
  }
  layer {
    name: "relu7"
    type: "ReLU"
    bottom: "fc7"
    top: "fc7"
  }
  layer {
    name: "drop7"
    type: "Dropout"
    bottom: "fc7"
    top: "fc7"
    dropout_param {
      dropout_ratio: 0.5
    }
  }
  layer {
    name: "bbox_pred"
    type: "InnerProduct"
    bottom: "fc7"
    top: "bbox_pred"
    param {
      lr_mult: 1
    }
    param {
      lr_mult: 2
    }
    inner_product_param {
      num_output: 8
      weight_filler {
        type: "gaussian"
        std: 0.001
      }
      bias_filler {
        type: "constant"
        value: 0
      }
    }
  }
  layer {
    name: "loss_bbox"
    type: "SmoothL1Loss"
    bottom: "bbox_pred"
    bottom: "bbox_targets"
    bottom: "bbox_inside_weights"
    bottom: "bbox_outside_weights"
    top: "loss_bbox"
    loss_weight: 1
  }
  layer {
    name: "feat"
    type: "InnerProduct"
    bottom: "fc7"
    top: "feat"
    param {
      lr_mult: 1
      decay_mult: 1
    }
    param {
      lr_mult: 2
      decay_mult: 0
    }
    inner_product_param {
      num_output: 256
      weight_filler {
        type: "gaussian"
        std: 0.01
      }
      bias_filler {
        type: "constant"
        value: 0
      }
    }
  }
  layer {
    name: "relu8"
    type: "ReLU"
    bottom: "feat"
    top: "feat"
  }
  layer {
    name: "drop8"
    type: "Dropout"
    bottom: "feat"
    top: "feat"
    dropout_param {
      dropout_ratio: 0.5
    }
  }
  layer {
    name: "pid_score"
    type: "InnerProduct"
    bottom: "feat"
    top: "pid_score"
    param {
      lr_mult: 1
      decay_mult: 1
    }
    param {
      lr_mult: 2
      decay_mult: 0
    }
    inner_product_param {
      num_output: 5533
      weight_filler {
        type: "gaussian"
        std: 0.001
      }
      bias_filler {
        type: "constant"
        value: 0
      }
    }
  }
  layer {
    name: "pid_loss"
    type: "SoftmaxWithLoss"
    bottom: "pid_score"
    bottom: "labels"
    top: "pid_loss"
    loss_weight: 1
    propagate_down: true
    propagate_down: false
    loss_param {
      ignore_label: -1
      normalize: true
    }
  }
}
average_loss: 100
stepvalue: 70000
stepvalue: 120000
iter_size: 2
I0413 18:55:30.872802 14613 solver.cpp:86] Creating training net specified in net_param.
I0413 18:55:30.873651 14613 net.cpp:58] Initializing net from parameters: 
name: "GeneratedModel_13_04_2017_18_55"
state {
  phase: TRAIN
}
layer {
  name: "input"
  type: "Python"
  top: "input_data"
  top: "input_im_info"
  top: "input_gt_boxes"
  top: "input_ignored_boxes"
  python_param {
    module: "layers.roi_data_layer"
    layer: "RoIDataLayer"
    param_str: "{\"num_classes\": 2}"
  }
}
layer {
  name: "conv1_1"
  type: "Convolution"
  bottom: "input_data"
  top: "conv1_1"
  param {
    lr_mult: 0
    decay_mult: 0
  }
  param {
    lr_mult: 0
    decay_mult: 0
  }
  convolution_param {
    num_output: 64
    pad: 1
    kernel_size: 3
  }
}
layer {
  name: "relu1_1"
  type: "ReLU"
  bottom: "conv1_1"
  top: "conv1_1"
}
layer {
  name: "conv1_2"
  type: "Convolution"
  bottom: "conv1_1"
  top: "conv1_2"
  param {
    lr_mult: 0
    decay_mult: 0
  }
  param {
    lr_mult: 0
    decay_mult: 0
  }
  convolution_param {
    num_output: 64
    pad: 1
    kernel_size: 3
  }
}
layer {
  name: "relu1_2"
  type: "ReLU"
  bottom: "conv1_2"
  top: "conv1_2"
}
layer {
  name: "pool1"
  type: "Pooling"
  bottom: "conv1_2"
  top: "pool1"
  pooling_param {
    pool: MAX
    kernel_size: 2
    stride: 2
  }
}
layer {
  name: "conv2_1"
  type: "Convolution"
  bottom: "pool1"
  top: "conv2_1"
  param {
    lr_mult: 0
    decay_mult: 0
  }
  param {
    lr_mult: 0
    decay_mult: 0
  }
  convolution_param {
    num_output: 128
    pad: 1
    kernel_size: 3
  }
}
layer {
  name: "relu2_1"
  type: "ReLU"
  bottom: "conv2_1"
  top: "conv2_1"
}
layer {
  name: "conv2_2"
  type: "Convolution"
  bottom: "conv2_1"
  top: "conv2_2"
  param {
    lr_mult: 0
    decay_mult: 0
  }
  param {
    lr_mult: 0
    decay_mult: 0
  }
  convolution_param {
    num_output: 128
    pad: 1
    kernel_size: 3
  }
}
layer {
  name: "relu2_2"
  type: "ReLU"
  bottom: "conv2_2"
  top: "conv2_2"
}
layer {
  name: "pool2"
  type: "Pooling"
  bottom: "conv2_2"
  top: "pool2"
  pooling_param {
    pool: MAX
    kernel_size: 2
    stride: 2
  }
}
layer {
  name: "conv3_1"
  type: "Convolution"
  bottom: "pool2"
  top: "conv3_1"
  param {
    lr_mult: 1
  }
  param {
    lr_mult: 2
  }
  convolution_param {
    num_output: 256
    pad: 1
    kernel_size: 3
  }
}
layer {
  name: "relu3_1"
  type: "ReLU"
  bottom: "conv3_1"
  top: "conv3_1"
}
layer {
  name: "conv3_2"
  type: "Convolution"
  bottom: "conv3_1"
  top: "conv3_2"
  param {
    lr_mult: 1
  }
  param {
    lr_mult: 2
  }
  convolution_param {
    num_output: 256
    pad: 1
    kernel_size: 3
  }
}
layer {
  name: "relu3_2"
  type: "ReLU"
  bottom: "conv3_2"
  top: "conv3_2"
}
layer {
  name: "conv3_3"
  type: "Convolution"
  bottom: "conv3_2"
  top: "conv3_3"
  param {
    lr_mult: 1
  }
  param {
    lr_mult: 2
  }
  convolution_param {
    num_output: 256
    pad: 1
    kernel_size: 3
  }
}
layer {
  name: "relu3_3"
  type: "ReLU"
  bottom: "conv3_3"
  top: "conv3_3"
}
layer {
  name: "pool3"
  type: "Pooling"
  bottom: "conv3_3"
  top: "pool3"
  pooling_param {
    pool: MAX
    kernel_size: 2
    stride: 2
  }
}
layer {
  name: "conv4_1"
  type: "Convolution"
  bottom: "pool3"
  top: "conv4_1"
  param {
    lr_mult: 1
  }
  param {
    lr_mult: 2
  }
  convolution_param {
    num_output: 512
    pad: 1
    kernel_size: 3
  }
}
layer {
  name: "relu4_1"
  type: "ReLU"
  bottom: "conv4_1"
  top: "conv4_1"
}
layer {
  name: "conv4_2"
  type: "Convolution"
  bottom: "conv4_1"
  top: "conv4_2"
  param {
    lr_mult: 1
  }
  param {
    lr_mult: 2
  }
  convolution_param {
    num_output: 512
    pad: 1
    kernel_size: 3
  }
}
layer {
  name: "relu4_2"
  type: "ReLU"
  bottom: "conv4_2"
  top: "conv4_2"
}
layer {
  name: "conv4_3"
  type: "Convolution"
  bottom: "conv4_2"
  top: "conv4_3"
  param {
    lr_mult: 1
  }
  param {
    lr_mult: 2
  }
  convolution_param {
    num_output: 512
    pad: 1
    kernel_size: 3
  }
}
layer {
  name: "relu4_3"
  type: "ReLU"
  bottom: "conv4_3"
  top: "conv4_3"
}
layer {
  name: "pool4"
  type: "Pooling"
  bottom: "conv4_3"
  top: "pool4"
  pooling_param {
    pool: MAX
    kernel_size: 2
    stride: 2
  }
}
layer {
  name: "conv5_1"
  type: "Convolution"
  bottom: "pool4"
  top: "conv5_1"
  param {
    lr_mult: 1
  }
  param {
    lr_mult: 2
  }
  convolution_param {
    num_output: 512
    pad: 1
    kernel_size: 3
  }
}
layer {
  name: "relu5_1"
  type: "ReLU"
  bottom: "conv5_1"
  top: "conv5_1"
}
layer {
  name: "conv5_2"
  type: "Convolution"
  bottom: "conv5_1"
  top: "conv5_2"
  param {
    lr_mult: 1
  }
  param {
    lr_mult: 2
  }
  convolution_param {
    num_output: 512
    pad: 1
    kernel_size: 3
  }
}
layer {
  name: "relu5_2"
  type: "ReLU"
  bottom: "conv5_2"
  top: "conv5_2"
}
layer {
  name: "conv5_3"
  type: "Convolution"
  bottom: "conv5_2"
  top: "conv5_3"
  param {
    lr_mult: 1
  }
  param {
    lr_mult: 2
  }
  convolution_param {
    num_output: 512
    pad: 1
    kernel_size: 3
  }
}
layer {
  name: "relu5_3"
  type: "ReLU"
  bottom: "conv5_3"
  top: "conv5_3"
}
layer {
  name: "rpn_big_conv1"
  type: "Convolution"
  bottom: "conv5_3"
  top: "rpn_big_conv1"
  param {
    lr_mult: 1
  }
  param {
    lr_mult: 2
  }
  convolution_param {
    num_output: 512
    pad: 1
    kernel_size: 3
    stride: 1
    weight_filler {
      type: "gaussian"
      mean: 0
      std: 0.01
    }
    bias_filler {
      type: "constant"
    }
  }
}
layer {
  name: "rpn_big_conv1_relu"
  type: "ReLU"
  bottom: "rpn_big_conv1"
  top: "rpn_big_conv1"
  relu_param {
    negative_slope: 0
  }
}
layer {
  name: "rpn_big_conv2"
  type: "Convolution"
  bottom: "rpn_big_conv1"
  top: "rpn_big_conv2"
  param {
    lr_mult: 1
  }
  param {
    lr_mult: 2
  }
  convolution_param {
    num_output: 512
    pad: 1
    kernel_size: 3
    stride: 1
    weight_filler {
      type: "gaussian"
      mean: 0
      std: 0.01
    }
    bias_filler {
      type: "constant"
    }
  }
}
layer {
  name: "rpn_big_conv2_relu"
  type: "ReLU"
  bottom: "rpn_big_conv2"
  top: "rpn_big_conv2"
  relu_param {
    negative_slope: 0
  }
}
layer {
  name: "rpn_big_conv2_drop"
  type: "Dropout"
  bottom: "rpn_big_conv2"
  top: "rpn_big_conv2"
  dropout_param {
    dropout_ratio: 0.3
  }
}
layer {
  name: "rpn_big_output_cls"
  type: "Convolution"
  bottom: "rpn_big_conv2"
  top: "rpn_big_output_cls"
  param {
    lr_mult: 1
  }
  param {
    lr_mult: 2
  }
  convolution_param {
    num_output: 384
    pad: 1
    kernel_size: 3
    stride: 1
    weight_filler {
      type: "gaussian"
      mean: 0
      std: 0.01
    }
    bias_filler {
      type: "constant"
    }
  }
}
layer {
  name: "rpn_big_output_cls_relu"
  type: "ReLU"
  bottom: "rpn_big_output_cls"
  top: "rpn_big_output_cls"
  relu_param {
    negative_slope: 0
  }
}
layer {
  name: "rpn_big_cls_score"
  type: "Convolution"
  bottom: "rpn_big_output_cls"
  top: "rpn_big_cls_score"
  param {
    lr_mult: 1
  }
  param {
    lr_mult: 2
  }
  convolution_param {
    num_output: 52
    pad: 0
    kernel_size: 3
    stride: 1
    weight_filler {
      type: "gaussian"
      mean: 0
      std: 0.01
    }
    bias_filler {
      type: "constant"
    }
  }
}
layer {
  name: "rpn_big_cls_score_reshape"
  type: "Reshape"
  bottom: "rpn_big_cls_score"
  top: "rpn_big_cls_score_reshape"
  reshape_param {
    shape {
      dim: 0
      dim: 2
      dim: -1
      dim: 0
    }
  }
}
layer {
  name: "rpn_big_cls_prob"
  type: "Softmax"
  bottom: "rpn_big_cls_score_reshape"
  top: "rpn_big_cls_prob"
}
layer {
  name: "rpn_big_cls_prob_reshape"
  type: "Reshape"
  bottom: "rpn_big_cls_prob"
  top: "rpn_big_cls_prob_reshape"
  reshape_param {
    shape {
      dim: 0
      dim: 52
      dim: -1
      dim: 0
    }
  }
}
layer {
  name: "rpn_big_anchor_target"
  type: "Python"
  bottom: "rpn_big_cls_score"
  bottom: "input_gt_boxes"
  bottom: "input_ignored_boxes"
  bottom: "input_im_info"
  bottom: "input_data"
  bottom: "rpn_big_cls_prob_reshape"
  top: "rpn_big_anchor_target_labels"
  top: "rpn_big_anchor_target_bbox_targets"
  top: "rpn_big_anchor_target_inside_weights"
  top: "rpn_big_anchor_target_outside_weights"
  python_param {
    module: "rpn.anchor_target_layer"
    layer: "AnchorTargetLayer"
    param_str: "{\"positive_overlap\": 0.6, \"name\": \"rpn_big\", \"fg_fraction\": 0.5, \"feat_stride\": 16, \"anchor_scales\": [2.5, 3.025, 3.66025, 4.4289024999999995, 5.358972025, 6.484356150249999, 7.846070941802498, 9.493745839581022, 11.487432465893036, 13.899793283730574, 16.818749873313998, 20.350687346709933, 24.62433168951902, 29.795441344318014], \"square_targets\": true, \"tn_fraction\": 0.2, \"anchor_ratios\": [1.0], \"num_classes\": 1, \"anchor_shift_num_xy\": [[2, 2], [2, 2], [2, 2], [2, 2], [1, 1], [1, 1], [1, 1], [1, 1], [1, 1], [1, 1], [1, 1], [1, 1], [1, 1], [1, 1]], \"batchsize\": 256, \"negative_overlap\": 0.4}"
  }
}
layer {
  name: "rpn_big_loss_cls"
  type: "SoftmaxWithLoss"
  bottom: "rpn_big_cls_score_reshape"
  bottom: "rpn_big_anchor_target_labels"
  top: "rpn_big_loss_cls"
  loss_weight: 1
  propagate_down: true
  propagate_down: false
  loss_param {
    ignore_label: -1
    normalization: VALID
  }
}
layer {
  name: "rpn_big_output_box"
  type: "Convolution"
  bottom: "rpn_big_conv2"
  top: "rpn_big_output_box"
  param {
    lr_mult: 1
  }
  param {
    lr_mult: 2
  }
  convolution_param {
    num_output: 384
    pad: 1
    kernel_size: 3
    stride: 1
    weight_filler {
      type: "gaussian"
      mean: 0
      std: 0.01
    }
    bias_filler {
      type: "constant"
    }
  }
}
layer {
  name: "rpn_big_output_box_relu"
  type: "ReLU"
  bottom: "rpn_big_output_box"
  top: "rpn_big_output_box"
  relu_param {
    negative_slope: 0
  }
}
layer {
  name: "rpn_big_bbox_pred"
  type: "Convolution"
  bottom: "rpn_big_output_box"
  top: "rpn_big_bbox_pred"
  param {
    lr_mult: 1
  }
  param {
    lr_mult: 2
  }
  convolution_param {
    num_output: 104
    pad: 0
    kernel_size: 3
    stride: 1
    weight_filler {
      type: "gaussian"
      mean: 0
      std: 0.01
    }
    bias_filler {
      type: "constant"
    }
  }
}
layer {
  name: "rpn_big_loss_bbox"
  type: "Python"
  bottom: "rpn_big_bbox_pred"
  bottom: "rpn_big_anchor_target_bbox_targets"
  bottom: "rpn_big_anchor_target_inside_weights"
  bottom: "rpn_big_anchor_target_outside_weights"
  top: "rpn_big_loss_bbox"
  loss_weight: 1
  python_param {
    module: "layers.smooth_l1_loss"
    layer: "SmoothL1LossLayer"
    param_str: "{\"sigma\": 3}"
  }
}
layer {
  name: "proposal"
  type: "Python"
  bottom: "rpn_big_cls_prob_reshape"
  bottom: "rpn_big_bbox_pred"
  bottom: "input_im_info"
  top: "rpn_rois"
  python_param {
    module: "rpn.proposal_layer"
    layer: "ProposalLayer"
    param_str: "{\"anchor_shift_num_xy\": [[2, 2], [2, 2], [2, 2], [2, 2], [1, 1], [1, 1], [1, 1], [1, 1], [1, 1], [1, 1], [1, 1], [1, 1], [1, 1], [1, 1]], \"feat_stride\": 16, \"num_classes\": 1, \"anchor_scales\": [2.5, 3.025, 3.66025, 4.4289024999999995, 5.358972025, 6.484356150249999, 7.846070941802498, 9.493745839581022, 11.487432465893036, 13.899793283730574, 16.818749873313998, 20.350687346709933, 24.62433168951902, 29.795441344318014], \"square_targets\": true, \"name\": \"rpn_big\", \"batchsize\": 256, \"anchor_ratios\": [1.0]}"
  }
}
layer {
  name: "roi-data"
  type: "Python"
  bottom: "rpn_rois"
  bottom: "input_gt_boxes"
  top: "rois"
  top: "labels"
  top: "bbox_targets"
  top: "bbox_inside_weights"
  top: "bbox_outside_weights"
  top: "pid_label"
  python_param {
    module: "rpn.proposal_target_layer"
    layer: "ProposalTargetLayer"
    param_str: "{\"num_classes\": 2, \"bg_aux_label\": 5532}"
  }
}
layer {
  name: "roi-pool"
  type: "ROIPooling"
  bottom: "conv5_3"
  bottom: "rois"
  top: "roi-pool"
  roi_pooling_param {
    pooled_h: 7
    pooled_w: 7
    spatial_scale: 0.0625
  }
}
layer {
  name: "fc6"
  type: "InnerProduct"
  bottom: "roi-pool"
  top: "fc6"
  param {
    lr_mult: 1
  }
  param {
    lr_mult: 2
  }
  inner_product_param {
    num_output: 4096
  }
}
layer {
  name: "relu6"
  type: "ReLU"
  bottom: "fc6"
  top: "fc6"
}
layer {
  name: "drop6"
  type: "Dropout"
  bottom: "fc6"
  top: "fc6"
  dropout_param {
    dropout_ratio: 0.5
  }
}
layer {
  name: "fc7"
  type: "InnerProduct"
  bottom: "fc6"
  top: "fc7"
  param {
    lr_mult: 1
  }
  param {
    lr_mult: 2
  }
  inner_product_param {
    num_output: 4096
  }
}
layer {
  name: "relu7"
  type: "ReLU"
  bottom: "fc7"
  top: "fc7"
}
layer {
  name: "drop7"
  type: "Dropout"
  bottom: "fc7"
  top: "fc7"
  dropout_param {
    dropout_ratio: 0.5
  }
}
layer {
  name: "bbox_pred"
  type: "InnerProduct"
  bottom: "fc7"
  top: "bbox_pred"
  param {
    lr_mult: 1
  }
  param {
    lr_mult: 2
  }
  inner_product_param {
    num_output: 8
    weight_filler {
      type: "gaussian"
      std: 0.001
    }
    bias_filler {
      type: "constant"
      value: 0
    }
  }
}
layer {
  name: "loss_bbox"
  type: "SmoothL1Loss"
  bottom: "bbox_pred"
  bottom: "bbox_targets"
  bottom: "bbox_inside_weights"
  bottom: "bbox_outside_weights"
  top: "loss_bbox"
  loss_weight: 1
}
layer {
  name: "feat"
  type: "InnerProduct"
  bottom: "fc7"
  top: "feat"
  param {
    lr_mult: 1
    decay_mult: 1
  }
  param {
    lr_mult: 2
    decay_mult: 0
  }
  inner_product_param {
    num_output: 256
    weight_filler {
      type: "gaussian"
      std: 0.01
    }
    bias_filler {
      type: "constant"
      value: 0
    }
  }
}
layer {
  name: "relu8"
  type: "ReLU"
  bottom: "feat"
  top: "feat"
}
layer {
  name: "drop8"
  type: "Dropout"
  bottom: "feat"
  top: "feat"
  dropout_param {
    dropout_ratio: 0.5
  }
}
layer {
  name: "pid_score"
  type: "InnerProduct"
  bottom: "feat"
  top: "pid_score"
  param {
    lr_mult: 1
    decay_mult: 1
  }
  param {
    lr_mult: 2
    decay_mult: 0
  }
  inner_product_param {
    num_output: 5533
    weight_filler {
      type: "gaussian"
      std: 0.001
    }
    bias_filler {
      type: "constant"
      value: 0
    }
  }
}
layer {
  name: "pid_loss"
  type: "SoftmaxWithLoss"
  bottom: "pid_score"
  bottom: "labels"
  top: "pid_loss"
  loss_weight: 1
  propagate_down: true
  propagate_down: false
  loss_param {
    ignore_label: -1
    normalize: true
  }
}
I0413 18:55:30.874061 14613 layer_factory.hpp:77] Creating layer input
I0413 18:55:30.875946 14613 net.cpp:100] Creating Layer input
I0413 18:55:30.875965 14613 net.cpp:408] input -> input_data
I0413 18:55:30.875977 14613 net.cpp:408] input -> input_im_info
I0413 18:55:30.875984 14613 net.cpp:408] input -> input_gt_boxes
I0413 18:55:30.875993 14613 net.cpp:408] input -> input_ignored_boxes
RoiDataLayer: name_to_top: {'data': 0, 'im_info': 1, 'ignored_boxes': 3, 'gt_boxes': 2}
I0413 18:55:31.186779 14613 net.cpp:150] Setting up input
I0413 18:55:31.186806 14613 net.cpp:157] Top shape: 1 3 1000 1500 (4500000)
I0413 18:55:31.186811 14613 net.cpp:157] Top shape: 1 3 (3)
I0413 18:55:31.186816 14613 net.cpp:157] Top shape: 1 5 (5)
I0413 18:55:31.186820 14613 net.cpp:157] Top shape: 1 5 (5)
I0413 18:55:31.186822 14613 net.cpp:165] Memory required for data: 18000052
I0413 18:55:31.186830 14613 layer_factory.hpp:77] Creating layer input_data_input_0_split
I0413 18:55:31.186841 14613 net.cpp:100] Creating Layer input_data_input_0_split
I0413 18:55:31.186846 14613 net.cpp:434] input_data_input_0_split <- input_data
I0413 18:55:31.186856 14613 net.cpp:408] input_data_input_0_split -> input_data_input_0_split_0
I0413 18:55:31.186866 14613 net.cpp:408] input_data_input_0_split -> input_data_input_0_split_1
I0413 18:55:31.186903 14613 net.cpp:150] Setting up input_data_input_0_split
I0413 18:55:31.186913 14613 net.cpp:157] Top shape: 1 3 1000 1500 (4500000)
I0413 18:55:31.186918 14613 net.cpp:157] Top shape: 1 3 1000 1500 (4500000)
I0413 18:55:31.186920 14613 net.cpp:165] Memory required for data: 54000052
I0413 18:55:31.186923 14613 layer_factory.hpp:77] Creating layer input_im_info_input_1_split
I0413 18:55:31.186931 14613 net.cpp:100] Creating Layer input_im_info_input_1_split
I0413 18:55:31.186934 14613 net.cpp:434] input_im_info_input_1_split <- input_im_info
I0413 18:55:31.186940 14613 net.cpp:408] input_im_info_input_1_split -> input_im_info_input_1_split_0
I0413 18:55:31.186947 14613 net.cpp:408] input_im_info_input_1_split -> input_im_info_input_1_split_1
I0413 18:55:31.186975 14613 net.cpp:150] Setting up input_im_info_input_1_split
I0413 18:55:31.186990 14613 net.cpp:157] Top shape: 1 3 (3)
I0413 18:55:31.186995 14613 net.cpp:157] Top shape: 1 3 (3)
I0413 18:55:31.186996 14613 net.cpp:165] Memory required for data: 54000076
I0413 18:55:31.187000 14613 layer_factory.hpp:77] Creating layer input_gt_boxes_input_2_split
I0413 18:55:31.187006 14613 net.cpp:100] Creating Layer input_gt_boxes_input_2_split
I0413 18:55:31.187010 14613 net.cpp:434] input_gt_boxes_input_2_split <- input_gt_boxes
I0413 18:55:31.187014 14613 net.cpp:408] input_gt_boxes_input_2_split -> input_gt_boxes_input_2_split_0
I0413 18:55:31.187022 14613 net.cpp:408] input_gt_boxes_input_2_split -> input_gt_boxes_input_2_split_1
I0413 18:55:31.187049 14613 net.cpp:150] Setting up input_gt_boxes_input_2_split
I0413 18:55:31.187057 14613 net.cpp:157] Top shape: 1 5 (5)
I0413 18:55:31.187060 14613 net.cpp:157] Top shape: 1 5 (5)
I0413 18:55:31.187062 14613 net.cpp:165] Memory required for data: 54000116
I0413 18:55:31.187067 14613 layer_factory.hpp:77] Creating layer conv1_1
I0413 18:55:31.187078 14613 net.cpp:100] Creating Layer conv1_1
I0413 18:55:31.187083 14613 net.cpp:434] conv1_1 <- input_data_input_0_split_0
I0413 18:55:31.187088 14613 net.cpp:408] conv1_1 -> conv1_1
I0413 18:55:31.190091 14613 net.cpp:150] Setting up conv1_1
I0413 18:55:31.190125 14613 net.cpp:157] Top shape: 1 64 1000 1500 (96000000)
I0413 18:55:31.190129 14613 net.cpp:165] Memory required for data: 438000116
I0413 18:55:31.190148 14613 layer_factory.hpp:77] Creating layer relu1_1
I0413 18:55:31.190160 14613 net.cpp:100] Creating Layer relu1_1
I0413 18:55:31.190165 14613 net.cpp:434] relu1_1 <- conv1_1
I0413 18:55:31.190172 14613 net.cpp:395] relu1_1 -> conv1_1 (in-place)
I0413 18:55:31.190186 14613 net.cpp:150] Setting up relu1_1
I0413 18:55:31.190189 14613 net.cpp:157] Top shape: 1 64 1000 1500 (96000000)
I0413 18:55:31.190192 14613 net.cpp:165] Memory required for data: 822000116
I0413 18:55:31.190196 14613 layer_factory.hpp:77] Creating layer conv1_2
I0413 18:55:31.190206 14613 net.cpp:100] Creating Layer conv1_2
I0413 18:55:31.190208 14613 net.cpp:434] conv1_2 <- conv1_1
I0413 18:55:31.190214 14613 net.cpp:408] conv1_2 -> conv1_2
I0413 18:55:31.193353 14613 net.cpp:150] Setting up conv1_2
I0413 18:55:31.193389 14613 net.cpp:157] Top shape: 1 64 1000 1500 (96000000)
I0413 18:55:31.193393 14613 net.cpp:165] Memory required for data: 1206000116
I0413 18:55:31.193410 14613 layer_factory.hpp:77] Creating layer relu1_2
I0413 18:55:31.193423 14613 net.cpp:100] Creating Layer relu1_2
I0413 18:55:31.193428 14613 net.cpp:434] relu1_2 <- conv1_2
I0413 18:55:31.193435 14613 net.cpp:395] relu1_2 -> conv1_2 (in-place)
I0413 18:55:31.193447 14613 net.cpp:150] Setting up relu1_2
I0413 18:55:31.193452 14613 net.cpp:157] Top shape: 1 64 1000 1500 (96000000)
I0413 18:55:31.193455 14613 net.cpp:165] Memory required for data: 1590000116
I0413 18:55:31.193459 14613 layer_factory.hpp:77] Creating layer pool1
I0413 18:55:31.193469 14613 net.cpp:100] Creating Layer pool1
I0413 18:55:31.193471 14613 net.cpp:434] pool1 <- conv1_2
I0413 18:55:31.193476 14613 net.cpp:408] pool1 -> pool1
I0413 18:55:31.193550 14613 net.cpp:150] Setting up pool1
I0413 18:55:31.193558 14613 net.cpp:157] Top shape: 1 64 500 750 (24000000)
I0413 18:55:31.193562 14613 net.cpp:165] Memory required for data: 1686000116
I0413 18:55:31.193564 14613 layer_factory.hpp:77] Creating layer conv2_1
I0413 18:55:31.193574 14613 net.cpp:100] Creating Layer conv2_1
I0413 18:55:31.193581 14613 net.cpp:434] conv2_1 <- pool1
I0413 18:55:31.193589 14613 net.cpp:408] conv2_1 -> conv2_1
I0413 18:55:31.194758 14613 net.cpp:150] Setting up conv2_1
I0413 18:55:31.194779 14613 net.cpp:157] Top shape: 1 128 500 750 (48000000)
I0413 18:55:31.194783 14613 net.cpp:165] Memory required for data: 1878000116
I0413 18:55:31.194803 14613 layer_factory.hpp:77] Creating layer relu2_1
I0413 18:55:31.194811 14613 net.cpp:100] Creating Layer relu2_1
I0413 18:55:31.194815 14613 net.cpp:434] relu2_1 <- conv2_1
I0413 18:55:31.194821 14613 net.cpp:395] relu2_1 -> conv2_1 (in-place)
I0413 18:55:31.194828 14613 net.cpp:150] Setting up relu2_1
I0413 18:55:31.194833 14613 net.cpp:157] Top shape: 1 128 500 750 (48000000)
I0413 18:55:31.194836 14613 net.cpp:165] Memory required for data: 2070000116
I0413 18:55:31.194839 14613 layer_factory.hpp:77] Creating layer conv2_2
I0413 18:55:31.194847 14613 net.cpp:100] Creating Layer conv2_2
I0413 18:55:31.194850 14613 net.cpp:434] conv2_2 <- conv2_1
I0413 18:55:31.194855 14613 net.cpp:408] conv2_2 -> conv2_2
I0413 18:55:31.195763 14613 net.cpp:150] Setting up conv2_2
I0413 18:55:31.195788 14613 net.cpp:157] Top shape: 1 128 500 750 (48000000)
I0413 18:55:31.195791 14613 net.cpp:165] Memory required for data: 2262000116
I0413 18:55:31.195811 14613 layer_factory.hpp:77] Creating layer relu2_2
I0413 18:55:31.195818 14613 net.cpp:100] Creating Layer relu2_2
I0413 18:55:31.195822 14613 net.cpp:434] relu2_2 <- conv2_2
I0413 18:55:31.195830 14613 net.cpp:395] relu2_2 -> conv2_2 (in-place)
I0413 18:55:31.195838 14613 net.cpp:150] Setting up relu2_2
I0413 18:55:31.195843 14613 net.cpp:157] Top shape: 1 128 500 750 (48000000)
I0413 18:55:31.195847 14613 net.cpp:165] Memory required for data: 2454000116
I0413 18:55:31.195848 14613 layer_factory.hpp:77] Creating layer pool2
I0413 18:55:31.195854 14613 net.cpp:100] Creating Layer pool2
I0413 18:55:31.195858 14613 net.cpp:434] pool2 <- conv2_2
I0413 18:55:31.195863 14613 net.cpp:408] pool2 -> pool2
I0413 18:55:31.195906 14613 net.cpp:150] Setting up pool2
I0413 18:55:31.195914 14613 net.cpp:157] Top shape: 1 128 250 375 (12000000)
I0413 18:55:31.195917 14613 net.cpp:165] Memory required for data: 2502000116
I0413 18:55:31.195920 14613 layer_factory.hpp:77] Creating layer conv3_1
I0413 18:55:31.195929 14613 net.cpp:100] Creating Layer conv3_1
I0413 18:55:31.195931 14613 net.cpp:434] conv3_1 <- pool2
I0413 18:55:31.195938 14613 net.cpp:408] conv3_1 -> conv3_1
I0413 18:55:31.197011 14613 net.cpp:150] Setting up conv3_1
I0413 18:55:31.197037 14613 net.cpp:157] Top shape: 1 256 250 375 (24000000)
I0413 18:55:31.197049 14613 net.cpp:165] Memory required for data: 2598000116
I0413 18:55:31.197062 14613 layer_factory.hpp:77] Creating layer relu3_1
I0413 18:55:31.197072 14613 net.cpp:100] Creating Layer relu3_1
I0413 18:55:31.197077 14613 net.cpp:434] relu3_1 <- conv3_1
I0413 18:55:31.197082 14613 net.cpp:395] relu3_1 -> conv3_1 (in-place)
I0413 18:55:31.197089 14613 net.cpp:150] Setting up relu3_1
I0413 18:55:31.197094 14613 net.cpp:157] Top shape: 1 256 250 375 (24000000)
I0413 18:55:31.197098 14613 net.cpp:165] Memory required for data: 2694000116
I0413 18:55:31.197100 14613 layer_factory.hpp:77] Creating layer conv3_2
I0413 18:55:31.197111 14613 net.cpp:100] Creating Layer conv3_2
I0413 18:55:31.197114 14613 net.cpp:434] conv3_2 <- conv3_1
I0413 18:55:31.197124 14613 net.cpp:408] conv3_2 -> conv3_2
I0413 18:55:31.198314 14613 net.cpp:150] Setting up conv3_2
I0413 18:55:31.198341 14613 net.cpp:157] Top shape: 1 256 250 375 (24000000)
I0413 18:55:31.198354 14613 net.cpp:165] Memory required for data: 2790000116
I0413 18:55:31.198362 14613 layer_factory.hpp:77] Creating layer relu3_2
I0413 18:55:31.198372 14613 net.cpp:100] Creating Layer relu3_2
I0413 18:55:31.198377 14613 net.cpp:434] relu3_2 <- conv3_2
I0413 18:55:31.198385 14613 net.cpp:395] relu3_2 -> conv3_2 (in-place)
I0413 18:55:31.198392 14613 net.cpp:150] Setting up relu3_2
I0413 18:55:31.198397 14613 net.cpp:157] Top shape: 1 256 250 375 (24000000)
I0413 18:55:31.198400 14613 net.cpp:165] Memory required for data: 2886000116
I0413 18:55:31.198402 14613 layer_factory.hpp:77] Creating layer conv3_3
I0413 18:55:31.198412 14613 net.cpp:100] Creating Layer conv3_3
I0413 18:55:31.198415 14613 net.cpp:434] conv3_3 <- conv3_2
I0413 18:55:31.198421 14613 net.cpp:408] conv3_3 -> conv3_3
I0413 18:55:31.199919 14613 net.cpp:150] Setting up conv3_3
I0413 18:55:31.199949 14613 net.cpp:157] Top shape: 1 256 250 375 (24000000)
I0413 18:55:31.199961 14613 net.cpp:165] Memory required for data: 2982000116
I0413 18:55:31.199971 14613 layer_factory.hpp:77] Creating layer relu3_3
I0413 18:55:31.199981 14613 net.cpp:100] Creating Layer relu3_3
I0413 18:55:31.199986 14613 net.cpp:434] relu3_3 <- conv3_3
I0413 18:55:31.199993 14613 net.cpp:395] relu3_3 -> conv3_3 (in-place)
I0413 18:55:31.200003 14613 net.cpp:150] Setting up relu3_3
I0413 18:55:31.200007 14613 net.cpp:157] Top shape: 1 256 250 375 (24000000)
I0413 18:55:31.200011 14613 net.cpp:165] Memory required for data: 3078000116
I0413 18:55:31.200013 14613 layer_factory.hpp:77] Creating layer pool3
I0413 18:55:31.200021 14613 net.cpp:100] Creating Layer pool3
I0413 18:55:31.200024 14613 net.cpp:434] pool3 <- conv3_3
I0413 18:55:31.200029 14613 net.cpp:408] pool3 -> pool3
I0413 18:55:31.200074 14613 net.cpp:150] Setting up pool3
I0413 18:55:31.200083 14613 net.cpp:157] Top shape: 1 256 125 188 (6016000)
I0413 18:55:31.200086 14613 net.cpp:165] Memory required for data: 3102064116
I0413 18:55:31.200089 14613 layer_factory.hpp:77] Creating layer conv4_1
I0413 18:55:31.200098 14613 net.cpp:100] Creating Layer conv4_1
I0413 18:55:31.200103 14613 net.cpp:434] conv4_1 <- pool3
I0413 18:55:31.200108 14613 net.cpp:408] conv4_1 -> conv4_1
I0413 18:55:31.202741 14613 net.cpp:150] Setting up conv4_1
I0413 18:55:31.202783 14613 net.cpp:157] Top shape: 1 512 125 188 (12032000)
I0413 18:55:31.202787 14613 net.cpp:165] Memory required for data: 3150192116
I0413 18:55:31.202798 14613 layer_factory.hpp:77] Creating layer relu4_1
I0413 18:55:31.202808 14613 net.cpp:100] Creating Layer relu4_1
I0413 18:55:31.202812 14613 net.cpp:434] relu4_1 <- conv4_1
I0413 18:55:31.202821 14613 net.cpp:395] relu4_1 -> conv4_1 (in-place)
I0413 18:55:31.202831 14613 net.cpp:150] Setting up relu4_1
I0413 18:55:31.202834 14613 net.cpp:157] Top shape: 1 512 125 188 (12032000)
I0413 18:55:31.202837 14613 net.cpp:165] Memory required for data: 3198320116
I0413 18:55:31.202841 14613 layer_factory.hpp:77] Creating layer conv4_2
I0413 18:55:31.202850 14613 net.cpp:100] Creating Layer conv4_2
I0413 18:55:31.202854 14613 net.cpp:434] conv4_2 <- conv4_1
I0413 18:55:31.202862 14613 net.cpp:408] conv4_2 -> conv4_2
I0413 18:55:31.207653 14613 net.cpp:150] Setting up conv4_2
I0413 18:55:31.207693 14613 net.cpp:157] Top shape: 1 512 125 188 (12032000)
I0413 18:55:31.207700 14613 net.cpp:165] Memory required for data: 3246448116
I0413 18:55:31.207723 14613 layer_factory.hpp:77] Creating layer relu4_2
I0413 18:55:31.207737 14613 net.cpp:100] Creating Layer relu4_2
I0413 18:55:31.207751 14613 net.cpp:434] relu4_2 <- conv4_2
I0413 18:55:31.207764 14613 net.cpp:395] relu4_2 -> conv4_2 (in-place)
I0413 18:55:31.207778 14613 net.cpp:150] Setting up relu4_2
I0413 18:55:31.207788 14613 net.cpp:157] Top shape: 1 512 125 188 (12032000)
I0413 18:55:31.207795 14613 net.cpp:165] Memory required for data: 3294576116
I0413 18:55:31.207803 14613 layer_factory.hpp:77] Creating layer conv4_3
I0413 18:55:31.207820 14613 net.cpp:100] Creating Layer conv4_3
I0413 18:55:31.207828 14613 net.cpp:434] conv4_3 <- conv4_2
I0413 18:55:31.207837 14613 net.cpp:408] conv4_3 -> conv4_3
I0413 18:55:31.213165 14613 net.cpp:150] Setting up conv4_3
I0413 18:55:31.213210 14613 net.cpp:157] Top shape: 1 512 125 188 (12032000)
I0413 18:55:31.213217 14613 net.cpp:165] Memory required for data: 3342704116
I0413 18:55:31.213233 14613 layer_factory.hpp:77] Creating layer relu4_3
I0413 18:55:31.213248 14613 net.cpp:100] Creating Layer relu4_3
I0413 18:55:31.213263 14613 net.cpp:434] relu4_3 <- conv4_3
I0413 18:55:31.213274 14613 net.cpp:395] relu4_3 -> conv4_3 (in-place)
I0413 18:55:31.213289 14613 net.cpp:150] Setting up relu4_3
I0413 18:55:31.213296 14613 net.cpp:157] Top shape: 1 512 125 188 (12032000)
I0413 18:55:31.213301 14613 net.cpp:165] Memory required for data: 3390832116
I0413 18:55:31.213306 14613 layer_factory.hpp:77] Creating layer pool4
I0413 18:55:31.213317 14613 net.cpp:100] Creating Layer pool4
I0413 18:55:31.213322 14613 net.cpp:434] pool4 <- conv4_3
I0413 18:55:31.213331 14613 net.cpp:408] pool4 -> pool4
I0413 18:55:31.213387 14613 net.cpp:150] Setting up pool4
I0413 18:55:31.213398 14613 net.cpp:157] Top shape: 1 512 63 94 (3032064)
I0413 18:55:31.213403 14613 net.cpp:165] Memory required for data: 3402960372
I0413 18:55:31.213409 14613 layer_factory.hpp:77] Creating layer conv5_1
I0413 18:55:31.213424 14613 net.cpp:100] Creating Layer conv5_1
I0413 18:55:31.213433 14613 net.cpp:434] conv5_1 <- pool4
I0413 18:55:31.213441 14613 net.cpp:408] conv5_1 -> conv5_1
I0413 18:55:31.218296 14613 net.cpp:150] Setting up conv5_1
I0413 18:55:31.218327 14613 net.cpp:157] Top shape: 1 512 63 94 (3032064)
I0413 18:55:31.218339 14613 net.cpp:165] Memory required for data: 3415088628
I0413 18:55:31.218350 14613 layer_factory.hpp:77] Creating layer relu5_1
I0413 18:55:31.218361 14613 net.cpp:100] Creating Layer relu5_1
I0413 18:55:31.218366 14613 net.cpp:434] relu5_1 <- conv5_1
I0413 18:55:31.218375 14613 net.cpp:395] relu5_1 -> conv5_1 (in-place)
I0413 18:55:31.218390 14613 net.cpp:150] Setting up relu5_1
I0413 18:55:31.218400 14613 net.cpp:157] Top shape: 1 512 63 94 (3032064)
I0413 18:55:31.218405 14613 net.cpp:165] Memory required for data: 3427216884
I0413 18:55:31.218411 14613 layer_factory.hpp:77] Creating layer conv5_2
I0413 18:55:31.218425 14613 net.cpp:100] Creating Layer conv5_2
I0413 18:55:31.218432 14613 net.cpp:434] conv5_2 <- conv5_1
I0413 18:55:31.218444 14613 net.cpp:408] conv5_2 -> conv5_2
I0413 18:55:31.225435 14613 net.cpp:150] Setting up conv5_2
I0413 18:55:31.225471 14613 net.cpp:157] Top shape: 1 512 63 94 (3032064)
I0413 18:55:31.225477 14613 net.cpp:165] Memory required for data: 3439345140
I0413 18:55:31.225493 14613 layer_factory.hpp:77] Creating layer relu5_2
I0413 18:55:31.225507 14613 net.cpp:100] Creating Layer relu5_2
I0413 18:55:31.225515 14613 net.cpp:434] relu5_2 <- conv5_2
I0413 18:55:31.225529 14613 net.cpp:395] relu5_2 -> conv5_2 (in-place)
I0413 18:55:31.225544 14613 net.cpp:150] Setting up relu5_2
I0413 18:55:31.225553 14613 net.cpp:157] Top shape: 1 512 63 94 (3032064)
I0413 18:55:31.225558 14613 net.cpp:165] Memory required for data: 3451473396
I0413 18:55:31.225564 14613 layer_factory.hpp:77] Creating layer conv5_3
I0413 18:55:31.225587 14613 net.cpp:100] Creating Layer conv5_3
I0413 18:55:31.225597 14613 net.cpp:434] conv5_3 <- conv5_2
I0413 18:55:31.225607 14613 net.cpp:408] conv5_3 -> conv5_3
I0413 18:55:31.231438 14613 net.cpp:150] Setting up conv5_3
I0413 18:55:31.231473 14613 net.cpp:157] Top shape: 1 512 63 94 (3032064)
I0413 18:55:31.231477 14613 net.cpp:165] Memory required for data: 3463601652
I0413 18:55:31.231488 14613 layer_factory.hpp:77] Creating layer relu5_3
I0413 18:55:31.231500 14613 net.cpp:100] Creating Layer relu5_3
I0413 18:55:31.231505 14613 net.cpp:434] relu5_3 <- conv5_3
I0413 18:55:31.231513 14613 net.cpp:395] relu5_3 -> conv5_3 (in-place)
I0413 18:55:31.231523 14613 net.cpp:150] Setting up relu5_3
I0413 18:55:31.231528 14613 net.cpp:157] Top shape: 1 512 63 94 (3032064)
I0413 18:55:31.231530 14613 net.cpp:165] Memory required for data: 3475729908
I0413 18:55:31.231534 14613 layer_factory.hpp:77] Creating layer conv5_3_relu5_3_0_split
I0413 18:55:31.231541 14613 net.cpp:100] Creating Layer conv5_3_relu5_3_0_split
I0413 18:55:31.231544 14613 net.cpp:434] conv5_3_relu5_3_0_split <- conv5_3
I0413 18:55:31.231550 14613 net.cpp:408] conv5_3_relu5_3_0_split -> conv5_3_relu5_3_0_split_0
I0413 18:55:31.231557 14613 net.cpp:408] conv5_3_relu5_3_0_split -> conv5_3_relu5_3_0_split_1
I0413 18:55:31.231590 14613 net.cpp:150] Setting up conv5_3_relu5_3_0_split
I0413 18:55:31.231598 14613 net.cpp:157] Top shape: 1 512 63 94 (3032064)
I0413 18:55:31.231602 14613 net.cpp:157] Top shape: 1 512 63 94 (3032064)
I0413 18:55:31.231606 14613 net.cpp:165] Memory required for data: 3499986420
I0413 18:55:31.231609 14613 layer_factory.hpp:77] Creating layer rpn_big_conv1
I0413 18:55:31.231627 14613 net.cpp:100] Creating Layer rpn_big_conv1
I0413 18:55:31.231636 14613 net.cpp:434] rpn_big_conv1 <- conv5_3_relu5_3_0_split_0
I0413 18:55:31.231649 14613 net.cpp:408] rpn_big_conv1 -> rpn_big_conv1
I0413 18:55:31.258635 14613 net.cpp:150] Setting up rpn_big_conv1
I0413 18:55:31.258666 14613 net.cpp:157] Top shape: 1 512 63 94 (3032064)
I0413 18:55:31.258680 14613 net.cpp:165] Memory required for data: 3512114676
I0413 18:55:31.258690 14613 layer_factory.hpp:77] Creating layer rpn_big_conv1_relu
I0413 18:55:31.258703 14613 net.cpp:100] Creating Layer rpn_big_conv1_relu
I0413 18:55:31.258708 14613 net.cpp:434] rpn_big_conv1_relu <- rpn_big_conv1
I0413 18:55:31.258716 14613 net.cpp:395] rpn_big_conv1_relu -> rpn_big_conv1 (in-place)
I0413 18:55:31.258728 14613 net.cpp:150] Setting up rpn_big_conv1_relu
I0413 18:55:31.258731 14613 net.cpp:157] Top shape: 1 512 63 94 (3032064)
I0413 18:55:31.258734 14613 net.cpp:165] Memory required for data: 3524242932
I0413 18:55:31.258738 14613 layer_factory.hpp:77] Creating layer rpn_big_conv2
I0413 18:55:31.258749 14613 net.cpp:100] Creating Layer rpn_big_conv2
I0413 18:55:31.258752 14613 net.cpp:434] rpn_big_conv2 <- rpn_big_conv1
I0413 18:55:31.258759 14613 net.cpp:408] rpn_big_conv2 -> rpn_big_conv2
I0413 18:55:31.285904 14613 net.cpp:150] Setting up rpn_big_conv2
I0413 18:55:31.285935 14613 net.cpp:157] Top shape: 1 512 63 94 (3032064)
I0413 18:55:31.285948 14613 net.cpp:165] Memory required for data: 3536371188
I0413 18:55:31.285959 14613 layer_factory.hpp:77] Creating layer rpn_big_conv2_relu
I0413 18:55:31.285969 14613 net.cpp:100] Creating Layer rpn_big_conv2_relu
I0413 18:55:31.285974 14613 net.cpp:434] rpn_big_conv2_relu <- rpn_big_conv2
I0413 18:55:31.285984 14613 net.cpp:395] rpn_big_conv2_relu -> rpn_big_conv2 (in-place)
I0413 18:55:31.285995 14613 net.cpp:150] Setting up rpn_big_conv2_relu
I0413 18:55:31.286000 14613 net.cpp:157] Top shape: 1 512 63 94 (3032064)
I0413 18:55:31.286001 14613 net.cpp:165] Memory required for data: 3548499444
I0413 18:55:31.286005 14613 layer_factory.hpp:77] Creating layer rpn_big_conv2_drop
I0413 18:55:31.286010 14613 net.cpp:100] Creating Layer rpn_big_conv2_drop
I0413 18:55:31.286015 14613 net.cpp:434] rpn_big_conv2_drop <- rpn_big_conv2
I0413 18:55:31.286020 14613 net.cpp:395] rpn_big_conv2_drop -> rpn_big_conv2 (in-place)
I0413 18:55:31.286042 14613 net.cpp:150] Setting up rpn_big_conv2_drop
I0413 18:55:31.286048 14613 net.cpp:157] Top shape: 1 512 63 94 (3032064)
I0413 18:55:31.286051 14613 net.cpp:165] Memory required for data: 3560627700
I0413 18:55:31.286054 14613 layer_factory.hpp:77] Creating layer rpn_big_conv2_rpn_big_conv2_drop_0_split
I0413 18:55:31.286062 14613 net.cpp:100] Creating Layer rpn_big_conv2_rpn_big_conv2_drop_0_split
I0413 18:55:31.286064 14613 net.cpp:434] rpn_big_conv2_rpn_big_conv2_drop_0_split <- rpn_big_conv2
I0413 18:55:31.286069 14613 net.cpp:408] rpn_big_conv2_rpn_big_conv2_drop_0_split -> rpn_big_conv2_rpn_big_conv2_drop_0_split_0
I0413 18:55:31.286079 14613 net.cpp:408] rpn_big_conv2_rpn_big_conv2_drop_0_split -> rpn_big_conv2_rpn_big_conv2_drop_0_split_1
I0413 18:55:31.286114 14613 net.cpp:150] Setting up rpn_big_conv2_rpn_big_conv2_drop_0_split
I0413 18:55:31.286123 14613 net.cpp:157] Top shape: 1 512 63 94 (3032064)
I0413 18:55:31.286128 14613 net.cpp:157] Top shape: 1 512 63 94 (3032064)
I0413 18:55:31.286130 14613 net.cpp:165] Memory required for data: 3584884212
I0413 18:55:31.286134 14613 layer_factory.hpp:77] Creating layer rpn_big_output_cls
I0413 18:55:31.286144 14613 net.cpp:100] Creating Layer rpn_big_output_cls
I0413 18:55:31.286147 14613 net.cpp:434] rpn_big_output_cls <- rpn_big_conv2_rpn_big_conv2_drop_0_split_0
I0413 18:55:31.286154 14613 net.cpp:408] rpn_big_output_cls -> rpn_big_output_cls
I0413 18:55:31.306759 14613 net.cpp:150] Setting up rpn_big_output_cls
I0413 18:55:31.306789 14613 net.cpp:157] Top shape: 1 384 63 94 (2274048)
I0413 18:55:31.306793 14613 net.cpp:165] Memory required for data: 3593980404
I0413 18:55:31.306803 14613 layer_factory.hpp:77] Creating layer rpn_big_output_cls_relu
I0413 18:55:31.306816 14613 net.cpp:100] Creating Layer rpn_big_output_cls_relu
I0413 18:55:31.306821 14613 net.cpp:434] rpn_big_output_cls_relu <- rpn_big_output_cls
I0413 18:55:31.306829 14613 net.cpp:395] rpn_big_output_cls_relu -> rpn_big_output_cls (in-place)
I0413 18:55:31.306839 14613 net.cpp:150] Setting up rpn_big_output_cls_relu
I0413 18:55:31.306844 14613 net.cpp:157] Top shape: 1 384 63 94 (2274048)
I0413 18:55:31.306848 14613 net.cpp:165] Memory required for data: 3603076596
I0413 18:55:31.306850 14613 layer_factory.hpp:77] Creating layer rpn_big_cls_score
I0413 18:55:31.306861 14613 net.cpp:100] Creating Layer rpn_big_cls_score
I0413 18:55:31.306864 14613 net.cpp:434] rpn_big_cls_score <- rpn_big_output_cls
I0413 18:55:31.306877 14613 net.cpp:408] rpn_big_cls_score -> rpn_big_cls_score
I0413 18:55:31.309201 14613 net.cpp:150] Setting up rpn_big_cls_score
I0413 18:55:31.309226 14613 net.cpp:157] Top shape: 1 52 61 92 (291824)
I0413 18:55:31.309229 14613 net.cpp:165] Memory required for data: 3604243892
I0413 18:55:31.309245 14613 layer_factory.hpp:77] Creating layer rpn_big_cls_score_rpn_big_cls_score_0_split
I0413 18:55:31.309253 14613 net.cpp:100] Creating Layer rpn_big_cls_score_rpn_big_cls_score_0_split
I0413 18:55:31.309258 14613 net.cpp:434] rpn_big_cls_score_rpn_big_cls_score_0_split <- rpn_big_cls_score
I0413 18:55:31.309267 14613 net.cpp:408] rpn_big_cls_score_rpn_big_cls_score_0_split -> rpn_big_cls_score_rpn_big_cls_score_0_split_0
I0413 18:55:31.309275 14613 net.cpp:408] rpn_big_cls_score_rpn_big_cls_score_0_split -> rpn_big_cls_score_rpn_big_cls_score_0_split_1
I0413 18:55:31.309309 14613 net.cpp:150] Setting up rpn_big_cls_score_rpn_big_cls_score_0_split
I0413 18:55:31.309317 14613 net.cpp:157] Top shape: 1 52 61 92 (291824)
I0413 18:55:31.309322 14613 net.cpp:157] Top shape: 1 52 61 92 (291824)
I0413 18:55:31.309325 14613 net.cpp:165] Memory required for data: 3606578484
I0413 18:55:31.309329 14613 layer_factory.hpp:77] Creating layer rpn_big_cls_score_reshape
I0413 18:55:31.309335 14613 net.cpp:100] Creating Layer rpn_big_cls_score_reshape
I0413 18:55:31.309340 14613 net.cpp:434] rpn_big_cls_score_reshape <- rpn_big_cls_score_rpn_big_cls_score_0_split_0
I0413 18:55:31.309346 14613 net.cpp:408] rpn_big_cls_score_reshape -> rpn_big_cls_score_reshape
I0413 18:55:31.309370 14613 net.cpp:150] Setting up rpn_big_cls_score_reshape
I0413 18:55:31.309376 14613 net.cpp:157] Top shape: 1 2 1586 92 (291824)
I0413 18:55:31.309378 14613 net.cpp:165] Memory required for data: 3607745780
I0413 18:55:31.309382 14613 layer_factory.hpp:77] Creating layer rpn_big_cls_score_reshape_rpn_big_cls_score_reshape_0_split
I0413 18:55:31.309387 14613 net.cpp:100] Creating Layer rpn_big_cls_score_reshape_rpn_big_cls_score_reshape_0_split
I0413 18:55:31.309391 14613 net.cpp:434] rpn_big_cls_score_reshape_rpn_big_cls_score_reshape_0_split <- rpn_big_cls_score_reshape
I0413 18:55:31.309396 14613 net.cpp:408] rpn_big_cls_score_reshape_rpn_big_cls_score_reshape_0_split -> rpn_big_cls_score_reshape_rpn_big_cls_score_reshape_0_split_0
I0413 18:55:31.309403 14613 net.cpp:408] rpn_big_cls_score_reshape_rpn_big_cls_score_reshape_0_split -> rpn_big_cls_score_reshape_rpn_big_cls_score_reshape_0_split_1
I0413 18:55:31.309433 14613 net.cpp:150] Setting up rpn_big_cls_score_reshape_rpn_big_cls_score_reshape_0_split
I0413 18:55:31.309442 14613 net.cpp:157] Top shape: 1 2 1586 92 (291824)
I0413 18:55:31.309445 14613 net.cpp:157] Top shape: 1 2 1586 92 (291824)
I0413 18:55:31.309448 14613 net.cpp:165] Memory required for data: 3610080372
I0413 18:55:31.309451 14613 layer_factory.hpp:77] Creating layer rpn_big_cls_prob
I0413 18:55:31.309458 14613 net.cpp:100] Creating Layer rpn_big_cls_prob
I0413 18:55:31.309460 14613 net.cpp:434] rpn_big_cls_prob <- rpn_big_cls_score_reshape_rpn_big_cls_score_reshape_0_split_0
I0413 18:55:31.309466 14613 net.cpp:408] rpn_big_cls_prob -> rpn_big_cls_prob
I0413 18:55:31.309517 14613 net.cpp:150] Setting up rpn_big_cls_prob
I0413 18:55:31.309525 14613 net.cpp:157] Top shape: 1 2 1586 92 (291824)
I0413 18:55:31.309527 14613 net.cpp:165] Memory required for data: 3611247668
I0413 18:55:31.309531 14613 layer_factory.hpp:77] Creating layer rpn_big_cls_prob_reshape
I0413 18:55:31.309538 14613 net.cpp:100] Creating Layer rpn_big_cls_prob_reshape
I0413 18:55:31.309542 14613 net.cpp:434] rpn_big_cls_prob_reshape <- rpn_big_cls_prob
I0413 18:55:31.309547 14613 net.cpp:408] rpn_big_cls_prob_reshape -> rpn_big_cls_prob_reshape
I0413 18:55:31.309566 14613 net.cpp:150] Setting up rpn_big_cls_prob_reshape
I0413 18:55:31.309572 14613 net.cpp:157] Top shape: 1 52 61 92 (291824)
I0413 18:55:31.309576 14613 net.cpp:165] Memory required for data: 3612414964
I0413 18:55:31.309578 14613 layer_factory.hpp:77] Creating layer rpn_big_cls_prob_reshape_rpn_big_cls_prob_reshape_0_split
I0413 18:55:31.309584 14613 net.cpp:100] Creating Layer rpn_big_cls_prob_reshape_rpn_big_cls_prob_reshape_0_split
I0413 18:55:31.309588 14613 net.cpp:434] rpn_big_cls_prob_reshape_rpn_big_cls_prob_reshape_0_split <- rpn_big_cls_prob_reshape
I0413 18:55:31.309593 14613 net.cpp:408] rpn_big_cls_prob_reshape_rpn_big_cls_prob_reshape_0_split -> rpn_big_cls_prob_reshape_rpn_big_cls_prob_reshape_0_split_0
I0413 18:55:31.309599 14613 net.cpp:408] rpn_big_cls_prob_reshape_rpn_big_cls_prob_reshape_0_split -> rpn_big_cls_prob_reshape_rpn_big_cls_prob_reshape_0_split_1
I0413 18:55:31.309628 14613 net.cpp:150] Setting up rpn_big_cls_prob_reshape_rpn_big_cls_prob_reshape_0_split
I0413 18:55:31.309633 14613 net.cpp:157] Top shape: 1 52 61 92 (291824)
I0413 18:55:31.309638 14613 net.cpp:157] Top shape: 1 52 61 92 (291824)
I0413 18:55:31.309639 14613 net.cpp:165] Memory required for data: 3614749556
I0413 18:55:31.309643 14613 layer_factory.hpp:77] Creating layer rpn_big_anchor_target
I0413 18:55:31.310942 14613 net.cpp:100] Creating Layer rpn_big_anchor_target
I0413 18:55:31.310961 14613 net.cpp:434] rpn_big_anchor_target <- rpn_big_cls_score_rpn_big_cls_score_0_split_1
I0413 18:55:31.310968 14613 net.cpp:434] rpn_big_anchor_target <- input_gt_boxes_input_2_split_0
I0413 18:55:31.310973 14613 net.cpp:434] rpn_big_anchor_target <- input_ignored_boxes
I0413 18:55:31.310977 14613 net.cpp:434] rpn_big_anchor_target <- input_im_info_input_1_split_0
I0413 18:55:31.310981 14613 net.cpp:434] rpn_big_anchor_target <- input_data_input_0_split_1
I0413 18:55:31.310986 14613 net.cpp:434] rpn_big_anchor_target <- rpn_big_cls_prob_reshape_rpn_big_cls_prob_reshape_0_split_0
I0413 18:55:31.310992 14613 net.cpp:408] rpn_big_anchor_target -> rpn_big_anchor_target_labels
I0413 18:55:31.311002 14613 net.cpp:408] rpn_big_anchor_target -> rpn_big_anchor_target_bbox_targets
I0413 18:55:31.311010 14613 net.cpp:408] rpn_big_anchor_target -> rpn_big_anchor_target_inside_weights
I0413 18:55:31.311017 14613 net.cpp:408] rpn_big_anchor_target -> rpn_big_anchor_target_outside_weights
I0413 18:55:31.316059 14613 net.cpp:150] Setting up rpn_big_anchor_target
I0413 18:55:31.316090 14613 net.cpp:157] Top shape: 1 1 1586 92 (145912)
I0413 18:55:31.316095 14613 net.cpp:157] Top shape: 1 104 61 92 (583648)
I0413 18:55:31.316099 14613 net.cpp:157] Top shape: 1 104 61 92 (583648)
I0413 18:55:31.316103 14613 net.cpp:157] Top shape: 1 104 61 92 (583648)
I0413 18:55:31.316107 14613 net.cpp:165] Memory required for data: 3622336980
I0413 18:55:31.316112 14613 layer_factory.hpp:77] Creating layer rpn_big_loss_cls
I0413 18:55:31.316123 14613 net.cpp:100] Creating Layer rpn_big_loss_cls
I0413 18:55:31.316130 14613 net.cpp:434] rpn_big_loss_cls <- rpn_big_cls_score_reshape_rpn_big_cls_score_reshape_0_split_1
I0413 18:55:31.316138 14613 net.cpp:434] rpn_big_loss_cls <- rpn_big_anchor_target_labels
I0413 18:55:31.316144 14613 net.cpp:408] rpn_big_loss_cls -> rpn_big_loss_cls
I0413 18:55:31.316157 14613 layer_factory.hpp:77] Creating layer rpn_big_loss_cls
I0413 18:55:31.316795 14613 net.cpp:150] Setting up rpn_big_loss_cls
I0413 18:55:31.316810 14613 net.cpp:157] Top shape: (1)
I0413 18:55:31.316813 14613 net.cpp:160]     with loss weight 1
I0413 18:55:31.316823 14613 net.cpp:165] Memory required for data: 3622336984
I0413 18:55:31.316828 14613 layer_factory.hpp:77] Creating layer rpn_big_output_box
I0413 18:55:31.316841 14613 net.cpp:100] Creating Layer rpn_big_output_box
I0413 18:55:31.316846 14613 net.cpp:434] rpn_big_output_box <- rpn_big_conv2_rpn_big_conv2_drop_0_split_1
I0413 18:55:31.316854 14613 net.cpp:408] rpn_big_output_box -> rpn_big_output_box
I0413 18:55:31.335611 14613 net.cpp:150] Setting up rpn_big_output_box
I0413 18:55:31.335642 14613 net.cpp:157] Top shape: 1 384 63 94 (2274048)
I0413 18:55:31.335655 14613 net.cpp:165] Memory required for data: 3631433176
I0413 18:55:31.335665 14613 layer_factory.hpp:77] Creating layer rpn_big_output_box_relu
I0413 18:55:31.335676 14613 net.cpp:100] Creating Layer rpn_big_output_box_relu
I0413 18:55:31.335681 14613 net.cpp:434] rpn_big_output_box_relu <- rpn_big_output_box
I0413 18:55:31.335691 14613 net.cpp:395] rpn_big_output_box_relu -> rpn_big_output_box (in-place)
I0413 18:55:31.335702 14613 net.cpp:150] Setting up rpn_big_output_box_relu
I0413 18:55:31.335706 14613 net.cpp:157] Top shape: 1 384 63 94 (2274048)
I0413 18:55:31.335710 14613 net.cpp:165] Memory required for data: 3640529368
I0413 18:55:31.335712 14613 layer_factory.hpp:77] Creating layer rpn_big_bbox_pred
I0413 18:55:31.335723 14613 net.cpp:100] Creating Layer rpn_big_bbox_pred
I0413 18:55:31.335727 14613 net.cpp:434] rpn_big_bbox_pred <- rpn_big_output_box
I0413 18:55:31.335734 14613 net.cpp:408] rpn_big_bbox_pred -> rpn_big_bbox_pred
I0413 18:55:31.341506 14613 net.cpp:150] Setting up rpn_big_bbox_pred
I0413 18:55:31.341532 14613 net.cpp:157] Top shape: 1 104 61 92 (583648)
I0413 18:55:31.341536 14613 net.cpp:165] Memory required for data: 3642863960
I0413 18:55:31.341545 14613 layer_factory.hpp:77] Creating layer rpn_big_bbox_pred_rpn_big_bbox_pred_0_split
I0413 18:55:31.341557 14613 net.cpp:100] Creating Layer rpn_big_bbox_pred_rpn_big_bbox_pred_0_split
I0413 18:55:31.341562 14613 net.cpp:434] rpn_big_bbox_pred_rpn_big_bbox_pred_0_split <- rpn_big_bbox_pred
I0413 18:55:31.341569 14613 net.cpp:408] rpn_big_bbox_pred_rpn_big_bbox_pred_0_split -> rpn_big_bbox_pred_rpn_big_bbox_pred_0_split_0
I0413 18:55:31.341580 14613 net.cpp:408] rpn_big_bbox_pred_rpn_big_bbox_pred_0_split -> rpn_big_bbox_pred_rpn_big_bbox_pred_0_split_1
I0413 18:55:31.341614 14613 net.cpp:150] Setting up rpn_big_bbox_pred_rpn_big_bbox_pred_0_split
I0413 18:55:31.341621 14613 net.cpp:157] Top shape: 1 104 61 92 (583648)
I0413 18:55:31.341625 14613 net.cpp:157] Top shape: 1 104 61 92 (583648)
I0413 18:55:31.341629 14613 net.cpp:165] Memory required for data: 3647533144
I0413 18:55:31.341631 14613 layer_factory.hpp:77] Creating layer rpn_big_loss_bbox
I0413 18:55:31.341986 14613 net.cpp:100] Creating Layer rpn_big_loss_bbox
I0413 18:55:31.341997 14613 net.cpp:434] rpn_big_loss_bbox <- rpn_big_bbox_pred_rpn_big_bbox_pred_0_split_0
I0413 18:55:31.342003 14613 net.cpp:434] rpn_big_loss_bbox <- rpn_big_anchor_target_bbox_targets
I0413 18:55:31.342007 14613 net.cpp:434] rpn_big_loss_bbox <- rpn_big_anchor_target_inside_weights
I0413 18:55:31.342012 14613 net.cpp:434] rpn_big_loss_bbox <- rpn_big_anchor_target_outside_weights
I0413 18:55:31.342018 14613 net.cpp:408] rpn_big_loss_bbox -> rpn_big_loss_bbox
I0413 18:55:31.343976 14613 net.cpp:150] Setting up rpn_big_loss_bbox
I0413 18:55:31.344004 14613 net.cpp:157] Top shape: 1 (1)
I0413 18:55:31.344017 14613 net.cpp:160]     with loss weight 1
I0413 18:55:31.344029 14613 net.cpp:165] Memory required for data: 3647533148
I0413 18:55:31.344035 14613 layer_factory.hpp:77] Creating layer proposal
I0413 18:55:31.344434 14613 net.cpp:100] Creating Layer proposal
I0413 18:55:31.344444 14613 net.cpp:434] proposal <- rpn_big_cls_prob_reshape_rpn_big_cls_prob_reshape_0_split_1
I0413 18:55:31.344460 14613 net.cpp:434] proposal <- rpn_big_bbox_pred_rpn_big_bbox_pred_0_split_1
I0413 18:55:31.344465 14613 net.cpp:434] proposal <- input_im_info_input_1_split_1
I0413 18:55:31.344472 14613 net.cpp:408] proposal -> rpn_rois
I0413 18:55:31.349128 14613 net.cpp:150] Setting up proposal
I0413 18:55:31.349151 14613 net.cpp:157] Top shape: 1 5 (5)
I0413 18:55:31.349155 14613 net.cpp:165] Memory required for data: 3647533168
I0413 18:55:31.349160 14613 layer_factory.hpp:77] Creating layer roi-data
I0413 18:55:31.349491 14613 net.cpp:100] Creating Layer roi-data
I0413 18:55:31.349503 14613 net.cpp:434] roi-data <- rpn_rois
I0413 18:55:31.349509 14613 net.cpp:434] roi-data <- input_gt_boxes_input_2_split_1
I0413 18:55:31.349515 14613 net.cpp:408] roi-data -> rois
I0413 18:55:31.349525 14613 net.cpp:408] roi-data -> labels
I0413 18:55:31.349532 14613 net.cpp:408] roi-data -> bbox_targets
I0413 18:55:31.349539 14613 net.cpp:408] roi-data -> bbox_inside_weights
I0413 18:55:31.349545 14613 net.cpp:408] roi-data -> bbox_outside_weights
I0413 18:55:31.349553 14613 net.cpp:408] roi-data -> pid_label
I0413 18:55:31.350507 14613 net.cpp:150] Setting up roi-data
I0413 18:55:31.350519 14613 net.cpp:157] Top shape: 1 5 (5)
I0413 18:55:31.350523 14613 net.cpp:157] Top shape: 1 1 (1)
I0413 18:55:31.350528 14613 net.cpp:157] Top shape: 1 8 (8)
I0413 18:55:31.350530 14613 net.cpp:157] Top shape: 1 8 (8)
I0413 18:55:31.350534 14613 net.cpp:157] Top shape: 1 8 (8)
I0413 18:55:31.350538 14613 net.cpp:157] Top shape: (0)
I0413 18:55:31.350540 14613 net.cpp:165] Memory required for data: 3647533288
I0413 18:55:31.350543 14613 layer_factory.hpp:77] Creating layer roi-pool
I0413 18:55:31.350553 14613 net.cpp:100] Creating Layer roi-pool
I0413 18:55:31.350556 14613 net.cpp:434] roi-pool <- conv5_3_relu5_3_0_split_1
I0413 18:55:31.350563 14613 net.cpp:434] roi-pool <- rois
I0413 18:55:31.350567 14613 net.cpp:408] roi-pool -> roi-pool
I0413 18:55:31.350575 14613 roi_pooling_layer.cpp:33] Spatial scale: 0.0625
I0413 18:55:31.350586 14613 roi_pooling_layer.cpp:34] Box scale: 1
I0413 18:55:31.350623 14613 net.cpp:150] Setting up roi-pool
I0413 18:55:31.350631 14613 net.cpp:157] Top shape: 1 512 7 7 (25088)
I0413 18:55:31.350634 14613 net.cpp:165] Memory required for data: 3647633640
I0413 18:55:31.350637 14613 layer_factory.hpp:77] Creating layer fc6
I0413 18:55:31.350644 14613 net.cpp:100] Creating Layer fc6
I0413 18:55:31.350647 14613 net.cpp:434] fc6 <- roi-pool
I0413 18:55:31.350654 14613 net.cpp:408] fc6 -> fc6
I0413 18:55:31.513247 14613 net.cpp:150] Setting up fc6
I0413 18:55:31.513283 14613 net.cpp:157] Top shape: 1 4096 (4096)
I0413 18:55:31.513286 14613 net.cpp:165] Memory required for data: 3647650024
I0413 18:55:31.513298 14613 layer_factory.hpp:77] Creating layer relu6
I0413 18:55:31.513310 14613 net.cpp:100] Creating Layer relu6
I0413 18:55:31.513315 14613 net.cpp:434] relu6 <- fc6
I0413 18:55:31.513322 14613 net.cpp:395] relu6 -> fc6 (in-place)
I0413 18:55:31.513332 14613 net.cpp:150] Setting up relu6
I0413 18:55:31.513336 14613 net.cpp:157] Top shape: 1 4096 (4096)
I0413 18:55:31.513339 14613 net.cpp:165] Memory required for data: 3647666408
I0413 18:55:31.513341 14613 layer_factory.hpp:77] Creating layer drop6
I0413 18:55:31.513350 14613 net.cpp:100] Creating Layer drop6
I0413 18:55:31.513353 14613 net.cpp:434] drop6 <- fc6
I0413 18:55:31.513357 14613 net.cpp:395] drop6 -> fc6 (in-place)
I0413 18:55:31.513378 14613 net.cpp:150] Setting up drop6
I0413 18:55:31.513383 14613 net.cpp:157] Top shape: 1 4096 (4096)
I0413 18:55:31.513386 14613 net.cpp:165] Memory required for data: 3647682792
I0413 18:55:31.513389 14613 layer_factory.hpp:77] Creating layer fc7
I0413 18:55:31.513396 14613 net.cpp:100] Creating Layer fc7
I0413 18:55:31.513399 14613 net.cpp:434] fc7 <- fc6
I0413 18:55:31.513406 14613 net.cpp:408] fc7 -> fc7
I0413 18:55:31.539886 14613 net.cpp:150] Setting up fc7
I0413 18:55:31.539921 14613 net.cpp:157] Top shape: 1 4096 (4096)
I0413 18:55:31.539933 14613 net.cpp:165] Memory required for data: 3647699176
I0413 18:55:31.539944 14613 layer_factory.hpp:77] Creating layer relu7
I0413 18:55:31.539973 14613 net.cpp:100] Creating Layer relu7
I0413 18:55:31.539979 14613 net.cpp:434] relu7 <- fc7
I0413 18:55:31.539988 14613 net.cpp:395] relu7 -> fc7 (in-place)
I0413 18:55:31.539997 14613 net.cpp:150] Setting up relu7
I0413 18:55:31.540002 14613 net.cpp:157] Top shape: 1 4096 (4096)
I0413 18:55:31.540004 14613 net.cpp:165] Memory required for data: 3647715560
I0413 18:55:31.540009 14613 layer_factory.hpp:77] Creating layer drop7
I0413 18:55:31.540014 14613 net.cpp:100] Creating Layer drop7
I0413 18:55:31.540017 14613 net.cpp:434] drop7 <- fc7
I0413 18:55:31.540021 14613 net.cpp:395] drop7 -> fc7 (in-place)
I0413 18:55:31.540043 14613 net.cpp:150] Setting up drop7
I0413 18:55:31.540062 14613 net.cpp:157] Top shape: 1 4096 (4096)
I0413 18:55:31.540066 14613 net.cpp:165] Memory required for data: 3647731944
I0413 18:55:31.540068 14613 layer_factory.hpp:77] Creating layer fc7_drop7_0_split
I0413 18:55:31.540074 14613 net.cpp:100] Creating Layer fc7_drop7_0_split
I0413 18:55:31.540077 14613 net.cpp:434] fc7_drop7_0_split <- fc7
I0413 18:55:31.540082 14613 net.cpp:408] fc7_drop7_0_split -> fc7_drop7_0_split_0
I0413 18:55:31.540098 14613 net.cpp:408] fc7_drop7_0_split -> fc7_drop7_0_split_1
I0413 18:55:31.540128 14613 net.cpp:150] Setting up fc7_drop7_0_split
I0413 18:55:31.540135 14613 net.cpp:157] Top shape: 1 4096 (4096)
I0413 18:55:31.540139 14613 net.cpp:157] Top shape: 1 4096 (4096)
I0413 18:55:31.540143 14613 net.cpp:165] Memory required for data: 3647764712
I0413 18:55:31.540145 14613 layer_factory.hpp:77] Creating layer bbox_pred
I0413 18:55:31.540153 14613 net.cpp:100] Creating Layer bbox_pred
I0413 18:55:31.540156 14613 net.cpp:434] bbox_pred <- fc7_drop7_0_split_0
I0413 18:55:31.540164 14613 net.cpp:408] bbox_pred -> bbox_pred
I0413 18:55:31.540583 14613 net.cpp:150] Setting up bbox_pred
I0413 18:55:31.540592 14613 net.cpp:157] Top shape: 1 8 (8)
I0413 18:55:31.540594 14613 net.cpp:165] Memory required for data: 3647764744
I0413 18:55:31.540601 14613 layer_factory.hpp:77] Creating layer loss_bbox
I0413 18:55:31.540608 14613 net.cpp:100] Creating Layer loss_bbox
I0413 18:55:31.540613 14613 net.cpp:434] loss_bbox <- bbox_pred
I0413 18:55:31.540617 14613 net.cpp:434] loss_bbox <- bbox_targets
I0413 18:55:31.540621 14613 net.cpp:434] loss_bbox <- bbox_inside_weights
I0413 18:55:31.540626 14613 net.cpp:434] loss_bbox <- bbox_outside_weights
I0413 18:55:31.540630 14613 net.cpp:408] loss_bbox -> loss_bbox
I0413 18:55:31.540696 14613 net.cpp:150] Setting up loss_bbox
I0413 18:55:31.540704 14613 net.cpp:157] Top shape: (1)
I0413 18:55:31.540706 14613 net.cpp:160]     with loss weight 1
I0413 18:55:31.540716 14613 net.cpp:165] Memory required for data: 3647764748
I0413 18:55:31.540719 14613 layer_factory.hpp:77] Creating layer feat
I0413 18:55:31.540725 14613 net.cpp:100] Creating Layer feat
I0413 18:55:31.540729 14613 net.cpp:434] feat <- fc7_drop7_0_split_1
I0413 18:55:31.540735 14613 net.cpp:408] feat -> feat
I0413 18:55:31.551767 14613 net.cpp:150] Setting up feat
I0413 18:55:31.551797 14613 net.cpp:157] Top shape: 1 256 (256)
I0413 18:55:31.551800 14613 net.cpp:165] Memory required for data: 3647765772
I0413 18:55:31.551811 14613 layer_factory.hpp:77] Creating layer relu8
I0413 18:55:31.551821 14613 net.cpp:100] Creating Layer relu8
I0413 18:55:31.551826 14613 net.cpp:434] relu8 <- feat
I0413 18:55:31.551833 14613 net.cpp:395] relu8 -> feat (in-place)
I0413 18:55:31.551843 14613 net.cpp:150] Setting up relu8
I0413 18:55:31.551847 14613 net.cpp:157] Top shape: 1 256 (256)
I0413 18:55:31.551851 14613 net.cpp:165] Memory required for data: 3647766796
I0413 18:55:31.551853 14613 layer_factory.hpp:77] Creating layer drop8
I0413 18:55:31.551859 14613 net.cpp:100] Creating Layer drop8
I0413 18:55:31.551862 14613 net.cpp:434] drop8 <- feat
I0413 18:55:31.551868 14613 net.cpp:395] drop8 -> feat (in-place)
I0413 18:55:31.551889 14613 net.cpp:150] Setting up drop8
I0413 18:55:31.551894 14613 net.cpp:157] Top shape: 1 256 (256)
I0413 18:55:31.551898 14613 net.cpp:165] Memory required for data: 3647767820
I0413 18:55:31.551900 14613 layer_factory.hpp:77] Creating layer pid_score
I0413 18:55:31.551906 14613 net.cpp:100] Creating Layer pid_score
I0413 18:55:31.551910 14613 net.cpp:434] pid_score <- feat
I0413 18:55:31.551918 14613 net.cpp:408] pid_score -> pid_score
I0413 18:55:31.566540 14613 net.cpp:150] Setting up pid_score
I0413 18:55:31.566567 14613 net.cpp:157] Top shape: 1 5533 (5533)
I0413 18:55:31.566579 14613 net.cpp:165] Memory required for data: 3647789952
I0413 18:55:31.566591 14613 layer_factory.hpp:77] Creating layer pid_loss
I0413 18:55:31.566603 14613 net.cpp:100] Creating Layer pid_loss
I0413 18:55:31.566609 14613 net.cpp:434] pid_loss <- pid_score
I0413 18:55:31.566615 14613 net.cpp:434] pid_loss <- labels
I0413 18:55:31.566622 14613 net.cpp:408] pid_loss -> pid_loss
…
