…
I0413 19:03:48.986649 15071 solver.cpp:48] Initializing solver from parameters: 
base_lr: 0.001
display: 20
lr_policy: "multistep"
gamma: 0.1
momentum: 0.9
weight_decay: 0.0005
snapshot: 0
snapshot_prefix: "faces_example"
net_param {
  name: "GeneratedModel_13_04_2017_19_03"
  layer {
    name: "input"
    type: "Python"
    top: "input_data"
    top: "input_im_info"
    top: "input_gt_boxes"
    top: "input_ignored_boxes"
    python_param {
      module: "layers.roi_data_layer"
      layer: "RoIDataLayer"
      param_str: "{\"num_classes\": 2}"
    }
  }
  layer {
    name: "conv1_1"
    type: "Convolution"
    bottom: "input_data"
    top: "conv1_1"
    param {
      lr_mult: 0
      decay_mult: 0
    }
    param {
      lr_mult: 0
      decay_mult: 0
    }
    convolution_param {
      num_output: 64
      pad: 1
      kernel_size: 3
    }
  }
  layer {
    name: "relu1_1"
    type: "ReLU"
    bottom: "conv1_1"
    top: "conv1_1"
  }
  layer {
    name: "conv1_2"
    type: "Convolution"
    bottom: "conv1_1"
    top: "conv1_2"
    param {
      lr_mult: 0
      decay_mult: 0
    }
    param {
      lr_mult: 0
      decay_mult: 0
    }
    convolution_param {
      num_output: 64
      pad: 1
      kernel_size: 3
    }
  }
  layer {
    name: "relu1_2"
    type: "ReLU"
    bottom: "conv1_2"
    top: "conv1_2"
  }
  layer {
    name: "pool1"
    type: "Pooling"
    bottom: "conv1_2"
    top: "pool1"
    pooling_param {
      pool: MAX
      kernel_size: 2
      stride: 2
    }
  }
  layer {
    name: "conv2_1"
    type: "Convolution"
    bottom: "pool1"
    top: "conv2_1"
    param {
      lr_mult: 0
      decay_mult: 0
    }
    param {
      lr_mult: 0
      decay_mult: 0
    }
    convolution_param {
      num_output: 128
      pad: 1
      kernel_size: 3
    }
  }
  layer {
    name: "relu2_1"
    type: "ReLU"
    bottom: "conv2_1"
    top: "conv2_1"
  }
  layer {
    name: "conv2_2"
    type: "Convolution"
    bottom: "conv2_1"
    top: "conv2_2"
    param {
      lr_mult: 0
      decay_mult: 0
    }
    param {
      lr_mult: 0
      decay_mult: 0
    }
    convolution_param {
      num_output: 128
      pad: 1
      kernel_size: 3
    }
  }
  layer {
    name: "relu2_2"
    type: "ReLU"
    bottom: "conv2_2"
    top: "conv2_2"
  }
  layer {
    name: "pool2"
    type: "Pooling"
    bottom: "conv2_2"
    top: "pool2"
    pooling_param {
      pool: MAX
      kernel_size: 2
      stride: 2
    }
  }
  layer {
    name: "conv3_1"
    type: "Convolution"
    bottom: "pool2"
    top: "conv3_1"
    param {
      lr_mult: 1
    }
    param {
      lr_mult: 2
    }
    convolution_param {
      num_output: 256
      pad: 1
      kernel_size: 3
    }
  }
  layer {
    name: "relu3_1"
    type: "ReLU"
    bottom: "conv3_1"
    top: "conv3_1"
  }
  layer {
    name: "conv3_2"
    type: "Convolution"
    bottom: "conv3_1"
    top: "conv3_2"
    param {
      lr_mult: 1
    }
    param {
      lr_mult: 2
    }
    convolution_param {
      num_output: 256
      pad: 1
      kernel_size: 3
    }
  }
  layer {
    name: "relu3_2"
    type: "ReLU"
    bottom: "conv3_2"
    top: "conv3_2"
  }
  layer {
    name: "conv3_3"
    type: "Convolution"
    bottom: "conv3_2"
    top: "conv3_3"
    param {
      lr_mult: 1
    }
    param {
      lr_mult: 2
    }
    convolution_param {
      num_output: 256
      pad: 1
      kernel_size: 3
    }
  }
  layer {
    name: "relu3_3"
    type: "ReLU"
    bottom: "conv3_3"
    top: "conv3_3"
  }
  layer {
    name: "pool3"
    type: "Pooling"
    bottom: "conv3_3"
    top: "pool3"
    pooling_param {
      pool: MAX
      kernel_size: 2
      stride: 2
    }
  }
  layer {
    name: "conv4_1"
    type: "Convolution"
    bottom: "pool3"
    top: "conv4_1"
    param {
      lr_mult: 1
    }
    param {
      lr_mult: 2
    }
    convolution_param {
      num_output: 512
      pad: 1
      kernel_size: 3
    }
  }
  layer {
    name: "relu4_1"
    type: "ReLU"
    bottom: "conv4_1"
    top: "conv4_1"
  }
  layer {
    name: "conv4_2"
    type: "Convolution"
    bottom: "conv4_1"
    top: "conv4_2"
    param {
      lr_mult: 1
    }
    param {
      lr_mult: 2
    }
    convolution_param {
      num_output: 512
      pad: 1
      kernel_size: 3
    }
  }
  layer {
    name: "relu4_2"
    type: "ReLU"
    bottom: "conv4_2"
    top: "conv4_2"
  }
  layer {
    name: "conv4_3"
    type: "Convolution"
    bottom: "conv4_2"
    top: "conv4_3"
    param {
      lr_mult: 1
    }
    param {
      lr_mult: 2
    }
    convolution_param {
      num_output: 512
      pad: 1
      kernel_size: 3
    }
  }
  layer {
    name: "relu4_3"
    type: "ReLU"
    bottom: "conv4_3"
    top: "conv4_3"
  }
  layer {
    name: "pool4"
    type: "Pooling"
    bottom: "conv4_3"
    top: "pool4"
    pooling_param {
      pool: MAX
      kernel_size: 2
      stride: 2
    }
  }
  layer {
    name: "conv5_1"
    type: "Convolution"
    bottom: "pool4"
    top: "conv5_1"
    param {
      lr_mult: 1
    }
    param {
      lr_mult: 2
    }
    convolution_param {
      num_output: 512
      pad: 1
      kernel_size: 3
    }
  }
  layer {
    name: "relu5_1"
    type: "ReLU"
    bottom: "conv5_1"
    top: "conv5_1"
  }
  layer {
    name: "conv5_2"
    type: "Convolution"
    bottom: "conv5_1"
    top: "conv5_2"
    param {
      lr_mult: 1
    }
    param {
      lr_mult: 2
    }
    convolution_param {
      num_output: 512
      pad: 1
      kernel_size: 3
    }
  }
  layer {
    name: "relu5_2"
    type: "ReLU"
    bottom: "conv5_2"
    top: "conv5_2"
  }
  layer {
    name: "conv5_3"
    type: "Convolution"
    bottom: "conv5_2"
    top: "conv5_3"
    param {
      lr_mult: 1
    }
    param {
      lr_mult: 2
    }
    convolution_param {
      num_output: 512
      pad: 1
      kernel_size: 3
    }
  }
  layer {
    name: "relu5_3"
    type: "ReLU"
    bottom: "conv5_3"
    top: "conv5_3"
  }
  layer {
    name: "rpn_big_conv1"
    type: "Convolution"
    bottom: "conv5_3"
    top: "rpn_big_conv1"
    param {
      lr_mult: 1
    }
    param {
      lr_mult: 2
    }
    convolution_param {
      num_output: 512
      pad: 1
      kernel_size: 3
      stride: 1
      weight_filler {
        type: "gaussian"
        mean: 0
        std: 0.01
      }
      bias_filler {
        type: "constant"
      }
    }
  }
  layer {
    name: "rpn_big_conv1_relu"
    type: "ReLU"
    bottom: "rpn_big_conv1"
    top: "rpn_big_conv1"
    relu_param {
      negative_slope: 0
    }
  }
  layer {
    name: "rpn_big_conv2"
    type: "Convolution"
    bottom: "rpn_big_conv1"
    top: "rpn_big_conv2"
    param {
      lr_mult: 1
    }
    param {
      lr_mult: 2
    }
    convolution_param {
      num_output: 512
      pad: 1
      kernel_size: 3
      stride: 1
      weight_filler {
        type: "gaussian"
        mean: 0
        std: 0.01
      }
      bias_filler {
        type: "constant"
      }
    }
  }
  layer {
    name: "rpn_big_conv2_relu"
    type: "ReLU"
    bottom: "rpn_big_conv2"
    top: "rpn_big_conv2"
    relu_param {
      negative_slope: 0
    }
  }
  layer {
    name: "rpn_big_conv2_drop"
    type: "Dropout"
    bottom: "rpn_big_conv2"
    top: "rpn_big_conv2"
    dropout_param {
      dropout_ratio: 0.3
    }
  }
  layer {
    name: "rpn_big_output_cls"
    type: "Convolution"
    bottom: "rpn_big_conv2"
    top: "rpn_big_output_cls"
    param {
      lr_mult: 1
    }
    param {
      lr_mult: 2
    }
    convolution_param {
      num_output: 384
      pad: 1
      kernel_size: 3
      stride: 1
      weight_filler {
        type: "gaussian"
        mean: 0
        std: 0.01
      }
      bias_filler {
        type: "constant"
      }
    }
  }
  layer {
    name: "rpn_big_output_cls_relu"
    type: "ReLU"
    bottom: "rpn_big_output_cls"
    top: "rpn_big_output_cls"
    relu_param {
      negative_slope: 0
    }
  }
  layer {
    name: "rpn_big_cls_score"
    type: "Convolution"
    bottom: "rpn_big_output_cls"
    top: "rpn_big_cls_score"
    param {
      lr_mult: 1
    }
    param {
      lr_mult: 2
    }
    convolution_param {
      num_output: 52
      pad: 0
      kernel_size: 3
      stride: 1
      weight_filler {
        type: "gaussian"
        mean: 0
        std: 0.01
      }
      bias_filler {
        type: "constant"
      }
    }
  }
  layer {
    name: "rpn_big_cls_score_reshape"
    type: "Reshape"
    bottom: "rpn_big_cls_score"
    top: "rpn_big_cls_score_reshape"
    reshape_param {
      shape {
        dim: 0
        dim: 2
        dim: -1
        dim: 0
      }
    }
  }
  layer {
    name: "rpn_big_cls_prob"
    type: "Softmax"
    bottom: "rpn_big_cls_score_reshape"
    top: "rpn_big_cls_prob"
  }
  layer {
    name: "rpn_big_cls_prob_reshape"
    type: "Reshape"
    bottom: "rpn_big_cls_prob"
    top: "rpn_big_cls_prob_reshape"
    reshape_param {
      shape {
        dim: 0
        dim: 52
        dim: -1
        dim: 0
      }
    }
  }
  layer {
    name: "rpn_big_anchor_target"
    type: "Python"
    bottom: "rpn_big_cls_score"
    bottom: "input_gt_boxes"
    bottom: "input_ignored_boxes"
    bottom: "input_im_info"
    bottom: "input_data"
    bottom: "rpn_big_cls_prob_reshape"
    top: "rpn_big_anchor_target_labels"
    top: "rpn_big_anchor_target_bbox_targets"
    top: "rpn_big_anchor_target_inside_weights"
    top: "rpn_big_anchor_target_outside_weights"
    python_param {
      module: "rpn.anchor_target_layer"
      layer: "AnchorTargetLayer"
      param_str: "{\"batchsize\": 256, \"tn_fraction\": 0.2, \"square_targets\": true, \"num_classes\": 1, \"anchor_shift_num_xy\": [[2, 2], [2, 2], [2, 2], [2, 2], [1, 1], [1, 1], [1, 1], [1, 1], [1, 1], [1, 1], [1, 1], [1, 1], [1, 1], [1, 1]], \"name\": \"rpn_big\", \"fg_fraction\": 0.5, \"feat_stride\": 16, \"anchor_ratios\": [1.0], \"negative_overlap\": 0.4, \"anchor_scales\": [2.5, 3.025, 3.66025, 4.4289024999999995, 5.358972025, 6.484356150249999, 7.846070941802498, 9.493745839581022, 11.487432465893036, 13.899793283730574, 16.818749873313998, 20.350687346709933, 24.62433168951902, 29.795441344318014], \"positive_overlap\": 0.6}"
    }
  }
  layer {
    name: "rpn_big_loss_cls"
    type: "SoftmaxWithLoss"
    bottom: "rpn_big_cls_score_reshape"
    bottom: "rpn_big_anchor_target_labels"
    top: "rpn_big_loss_cls"
    loss_weight: 1
    propagate_down: true
    propagate_down: false
    loss_param {
      ignore_label: -1
      normalization: VALID
    }
  }
  layer {
    name: "rpn_big_output_box"
    type: "Convolution"
    bottom: "rpn_big_conv2"
    top: "rpn_big_output_box"
    param {
      lr_mult: 1
    }
    param {
      lr_mult: 2
    }
    convolution_param {
      num_output: 384
      pad: 1
      kernel_size: 3
      stride: 1
      weight_filler {
        type: "gaussian"
        mean: 0
        std: 0.01
      }
      bias_filler {
        type: "constant"
      }
    }
  }
  layer {
    name: "rpn_big_output_box_relu"
    type: "ReLU"
    bottom: "rpn_big_output_box"
    top: "rpn_big_output_box"
    relu_param {
      negative_slope: 0
    }
  }
  layer {
    name: "rpn_big_bbox_pred"
    type: "Convolution"
    bottom: "rpn_big_output_box"
    top: "rpn_big_bbox_pred"
    param {
      lr_mult: 1
    }
    param {
      lr_mult: 2
    }
    convolution_param {
      num_output: 104
      pad: 0
      kernel_size: 3
      stride: 1
      weight_filler {
        type: "gaussian"
        mean: 0
        std: 0.01
      }
      bias_filler {
        type: "constant"
      }
    }
  }
  layer {
    name: "rpn_big_loss_bbox"
    type: "Python"
    bottom: "rpn_big_bbox_pred"
    bottom: "rpn_big_anchor_target_bbox_targets"
    bottom: "rpn_big_anchor_target_inside_weights"
    bottom: "rpn_big_anchor_target_outside_weights"
    top: "rpn_big_loss_bbox"
    loss_weight: 1
    python_param {
      module: "layers.smooth_l1_loss"
      layer: "SmoothL1LossLayer"
      param_str: "{\"sigma\": 3}"
    }
  }
  layer {
    name: "proposal"
    type: "Python"
    bottom: "rpn_big_cls_prob_reshape"
    bottom: "rpn_big_bbox_pred"
    bottom: "input_im_info"
    top: "rpn_rois"
    python_param {
      module: "rpn.proposal_layer"
      layer: "ProposalLayer"
      param_str: "{\"anchor_shift_num_xy\": [[2, 2], [2, 2], [2, 2], [2, 2], [1, 1], [1, 1], [1, 1], [1, 1], [1, 1], [1, 1], [1, 1], [1, 1], [1, 1], [1, 1]], \"feat_stride\": 16, \"num_classes\": 1, \"anchor_scales\": [2.5, 3.025, 3.66025, 4.4289024999999995, 5.358972025, 6.484356150249999, 7.846070941802498, 9.493745839581022, 11.487432465893036, 13.899793283730574, 16.818749873313998, 20.350687346709933, 24.62433168951902, 29.795441344318014], \"square_targets\": true, \"name\": \"rpn_big\", \"batchsize\": 256, \"anchor_ratios\": [1.0]}"
    }
  }
  layer {
    name: "roi-data"
    type: "Python"
    bottom: "rpn_rois"
    bottom: "input_gt_boxes"
    top: "rois"
    top: "labels"
    top: "bbox_targets"
    top: "bbox_inside_weights"
    top: "bbox_outside_weights"
    top: "pid_label"
    python_param {
      module: "rpn.proposal_target_layer"
      layer: "ProposalTargetLayer"
      param_str: "{\"num_classes\": 2, \"bg_aux_label\": 5532}"
    }
  }
  layer {
    name: "roi-pool"
    type: "ROIPooling"
    bottom: "conv5_3"
    bottom: "rois"
    top: "roi-pool"
    roi_pooling_param {
      pooled_h: 7
      pooled_w: 7
      spatial_scale: 0.0625
    }
  }
  layer {
    name: "fc6"
    type: "InnerProduct"
    bottom: "roi-pool"
    top: "fc6"
    param {
      lr_mult: 1
    }
    param {
      lr_mult: 2
    }
    inner_product_param {
      num_output: 4096
    }
  }
  layer {
    name: "relu6"
    type: "ReLU"
    bottom: "fc6"
    top: "fc6"
  }
  layer {
    name: "drop6"
    type: "Dropout"
    bottom: "fc6"
    top: "fc6"
    dropout_param {
      dropout_ratio: 0.5
    }
  }
  layer {
    name: "fc7"
    type: "InnerProduct"
    bottom: "fc6"
    top: "fc7"
    param {
      lr_mult: 1
    }
    param {
      lr_mult: 2
    }
    inner_product_param {
      num_output: 4096
    }
  }
  layer {
    name: "relu7"
    type: "ReLU"
    bottom: "fc7"
    top: "fc7"
  }
  layer {
    name: "drop7"
    type: "Dropout"
    bottom: "fc7"
    top: "fc7"
    dropout_param {
      dropout_ratio: 0.5
    }
  }
  layer {
    name: "bbox_pred"
    type: "InnerProduct"
    bottom: "fc7"
    top: "bbox_pred"
    param {
      lr_mult: 1
    }
    param {
      lr_mult: 2
    }
    inner_product_param {
      num_output: 8
      weight_filler {
        type: "gaussian"
        std: 0.001
      }
      bias_filler {
        type: "constant"
        value: 0
      }
    }
  }
  layer {
    name: "loss_bbox"
    type: "SmoothL1Loss"
    bottom: "bbox_pred"
    bottom: "bbox_targets"
    bottom: "bbox_inside_weights"
    bottom: "bbox_outside_weights"
    top: "loss_bbox"
    loss_weight: 1
  }
  layer {
    name: "feat"
    type: "InnerProduct"
    bottom: "fc7"
    top: "feat"
    param {
      lr_mult: 1
      decay_mult: 1
    }
    param {
      lr_mult: 2
      decay_mult: 0
    }
    inner_product_param {
      num_output: 256
      weight_filler {
        type: "gaussian"
        std: 0.01
      }
      bias_filler {
        type: "constant"
        value: 0
      }
    }
  }
  layer {
    name: "relu8"
    type: "ReLU"
    bottom: "feat"
    top: "feat"
  }
  layer {
    name: "drop8"
    type: "Dropout"
    bottom: "feat"
    top: "feat"
    dropout_param {
      dropout_ratio: 0.5
    }
  }
  layer {
    name: "pid_score"
    type: "InnerProduct"
    bottom: "feat"
    top: "pid_score"
    param {
      lr_mult: 1
      decay_mult: 1
    }
    param {
      lr_mult: 2
      decay_mult: 0
    }
    inner_product_param {
      num_output: 5533
      weight_filler {
        type: "gaussian"
        std: 0.001
      }
      bias_filler {
        type: "constant"
        value: 0
      }
    }
  }
  layer {
    name: "pid_loss"
    type: "SoftmaxWithLoss"
    bottom: "pid_score"
    bottom: "pid_label"
    top: "pid_loss"
    loss_weight: 1
    propagate_down: true
    propagate_down: false
    loss_param {
      ignore_label: -1
      normalize: true
    }
  }
}
average_loss: 100
stepvalue: 70000
stepvalue: 120000
iter_size: 2
I0413 19:03:48.986755 15071 solver.cpp:86] Creating training net specified in net_param.
I0413 19:03:48.987390 15071 net.cpp:58] Initializing net from parameters: 
name: "GeneratedModel_13_04_2017_19_03"
state {
  phase: TRAIN
}
layer {
  name: "input"
  type: "Python"
  top: "input_data"
  top: "input_im_info"
  top: "input_gt_boxes"
  top: "input_ignored_boxes"
  python_param {
    module: "layers.roi_data_layer"
    layer: "RoIDataLayer"
    param_str: "{\"num_classes\": 2}"
  }
}
layer {
  name: "conv1_1"
  type: "Convolution"
  bottom: "input_data"
  top: "conv1_1"
  param {
    lr_mult: 0
    decay_mult: 0
  }
  param {
    lr_mult: 0
    decay_mult: 0
  }
  convolution_param {
    num_output: 64
    pad: 1
    kernel_size: 3
  }
}
layer {
  name: "relu1_1"
  type: "ReLU"
  bottom: "conv1_1"
  top: "conv1_1"
}
layer {
  name: "conv1_2"
  type: "Convolution"
  bottom: "conv1_1"
  top: "conv1_2"
  param {
    lr_mult: 0
    decay_mult: 0
  }
  param {
    lr_mult: 0
    decay_mult: 0
  }
  convolution_param {
    num_output: 64
    pad: 1
    kernel_size: 3
  }
}
layer {
  name: "relu1_2"
  type: "ReLU"
  bottom: "conv1_2"
  top: "conv1_2"
}
layer {
  name: "pool1"
  type: "Pooling"
  bottom: "conv1_2"
  top: "pool1"
  pooling_param {
    pool: MAX
    kernel_size: 2
    stride: 2
  }
}
layer {
  name: "conv2_1"
  type: "Convolution"
  bottom: "pool1"
  top: "conv2_1"
  param {
    lr_mult: 0
    decay_mult: 0
  }
  param {
    lr_mult: 0
    decay_mult: 0
  }
  convolution_param {
    num_output: 128
    pad: 1
    kernel_size: 3
  }
}
layer {
  name: "relu2_1"
  type: "ReLU"
  bottom: "conv2_1"
  top: "conv2_1"
}
layer {
  name: "conv2_2"
  type: "Convolution"
  bottom: "conv2_1"
  top: "conv2_2"
  param {
    lr_mult: 0
    decay_mult: 0
  }
  param {
    lr_mult: 0
    decay_mult: 0
  }
  convolution_param {
    num_output: 128
    pad: 1
    kernel_size: 3
  }
}
layer {
  name: "relu2_2"
  type: "ReLU"
  bottom: "conv2_2"
  top: "conv2_2"
}
layer {
  name: "pool2"
  type: "Pooling"
  bottom: "conv2_2"
  top: "pool2"
  pooling_param {
    pool: MAX
    kernel_size: 2
    stride: 2
  }
}
layer {
  name: "conv3_1"
  type: "Convolution"
  bottom: "pool2"
  top: "conv3_1"
  param {
    lr_mult: 1
  }
  param {
    lr_mult: 2
  }
  convolution_param {
    num_output: 256
    pad: 1
    kernel_size: 3
  }
}
layer {
  name: "relu3_1"
  type: "ReLU"
  bottom: "conv3_1"
  top: "conv3_1"
}
layer {
  name: "conv3_2"
  type: "Convolution"
  bottom: "conv3_1"
  top: "conv3_2"
  param {
    lr_mult: 1
  }
  param {
    lr_mult: 2
  }
  convolution_param {
    num_output: 256
    pad: 1
    kernel_size: 3
  }
}
layer {
  name: "relu3_2"
  type: "ReLU"
  bottom: "conv3_2"
  top: "conv3_2"
}
layer {
  name: "conv3_3"
  type: "Convolution"
  bottom: "conv3_2"
  top: "conv3_3"
  param {
    lr_mult: 1
  }
  param {
    lr_mult: 2
  }
  convolution_param {
    num_output: 256
    pad: 1
    kernel_size: 3
  }
}
layer {
  name: "relu3_3"
  type: "ReLU"
  bottom: "conv3_3"
  top: "conv3_3"
}
layer {
  name: "pool3"
  type: "Pooling"
  bottom: "conv3_3"
  top: "pool3"
  pooling_param {
    pool: MAX
    kernel_size: 2
    stride: 2
  }
}
layer {
  name: "conv4_1"
  type: "Convolution"
  bottom: "pool3"
  top: "conv4_1"
  param {
    lr_mult: 1
  }
  param {
    lr_mult: 2
  }
  convolution_param {
    num_output: 512
    pad: 1
    kernel_size: 3
  }
}
layer {
  name: "relu4_1"
  type: "ReLU"
  bottom: "conv4_1"
  top: "conv4_1"
}
layer {
  name: "conv4_2"
  type: "Convolution"
  bottom: "conv4_1"
  top: "conv4_2"
  param {
    lr_mult: 1
  }
  param {
    lr_mult: 2
  }
  convolution_param {
    num_output: 512
    pad: 1
    kernel_size: 3
  }
}
layer {
  name: "relu4_2"
  type: "ReLU"
  bottom: "conv4_2"
  top: "conv4_2"
}
layer {
  name: "conv4_3"
  type: "Convolution"
  bottom: "conv4_2"
  top: "conv4_3"
  param {
    lr_mult: 1
  }
  param {
    lr_mult: 2
  }
  convolution_param {
    num_output: 512
    pad: 1
    kernel_size: 3
  }
}
layer {
  name: "relu4_3"
  type: "ReLU"
  bottom: "conv4_3"
  top: "conv4_3"
}
layer {
  name: "pool4"
  type: "Pooling"
  bottom: "conv4_3"
  top: "pool4"
  pooling_param {
    pool: MAX
    kernel_size: 2
    stride: 2
  }
}
layer {
  name: "conv5_1"
  type: "Convolution"
  bottom: "pool4"
  top: "conv5_1"
  param {
    lr_mult: 1
  }
  param {
    lr_mult: 2
  }
  convolution_param {
    num_output: 512
    pad: 1
    kernel_size: 3
  }
}
layer {
  name: "relu5_1"
  type: "ReLU"
  bottom: "conv5_1"
  top: "conv5_1"
}
layer {
  name: "conv5_2"
  type: "Convolution"
  bottom: "conv5_1"
  top: "conv5_2"
  param {
    lr_mult: 1
  }
  param {
    lr_mult: 2
  }
  convolution_param {
    num_output: 512
    pad: 1
    kernel_size: 3
  }
}
layer {
  name: "relu5_2"
  type: "ReLU"
  bottom: "conv5_2"
  top: "conv5_2"
}
layer {
  name: "conv5_3"
  type: "Convolution"
  bottom: "conv5_2"
  top: "conv5_3"
  param {
    lr_mult: 1
  }
  param {
    lr_mult: 2
  }
  convolution_param {
    num_output: 512
    pad: 1
    kernel_size: 3
  }
}
layer {
  name: "relu5_3"
  type: "ReLU"
  bottom: "conv5_3"
  top: "conv5_3"
}
layer {
  name: "rpn_big_conv1"
  type: "Convolution"
  bottom: "conv5_3"
  top: "rpn_big_conv1"
  param {
    lr_mult: 1
  }
  param {
    lr_mult: 2
  }
  convolution_param {
    num_output: 512
    pad: 1
    kernel_size: 3
    stride: 1
    weight_filler {
      type: "gaussian"
      mean: 0
      std: 0.01
    }
    bias_filler {
      type: "constant"
    }
  }
}
layer {
  name: "rpn_big_conv1_relu"
  type: "ReLU"
  bottom: "rpn_big_conv1"
  top: "rpn_big_conv1"
  relu_param {
    negative_slope: 0
  }
}
layer {
  name: "rpn_big_conv2"
  type: "Convolution"
  bottom: "rpn_big_conv1"
  top: "rpn_big_conv2"
  param {
    lr_mult: 1
  }
  param {
    lr_mult: 2
  }
  convolution_param {
    num_output: 512
    pad: 1
    kernel_size: 3
    stride: 1
    weight_filler {
      type: "gaussian"
      mean: 0
      std: 0.01
    }
    bias_filler {
      type: "constant"
    }
  }
}
layer {
  name: "rpn_big_conv2_relu"
  type: "ReLU"
  bottom: "rpn_big_conv2"
  top: "rpn_big_conv2"
  relu_param {
    negative_slope: 0
  }
}
layer {
  name: "rpn_big_conv2_drop"
  type: "Dropout"
  bottom: "rpn_big_conv2"
  top: "rpn_big_conv2"
  dropout_param {
    dropout_ratio: 0.3
  }
}
layer {
  name: "rpn_big_output_cls"
  type: "Convolution"
  bottom: "rpn_big_conv2"
  top: "rpn_big_output_cls"
  param {
    lr_mult: 1
  }
  param {
    lr_mult: 2
  }
  convolution_param {
    num_output: 384
    pad: 1
    kernel_size: 3
    stride: 1
    weight_filler {
      type: "gaussian"
      mean: 0
      std: 0.01
    }
    bias_filler {
      type: "constant"
    }
  }
}
layer {
  name: "rpn_big_output_cls_relu"
  type: "ReLU"
  bottom: "rpn_big_output_cls"
  top: "rpn_big_output_cls"
  relu_param {
    negative_slope: 0
  }
}
layer {
  name: "rpn_big_cls_score"
  type: "Convolution"
  bottom: "rpn_big_output_cls"
  top: "rpn_big_cls_score"
  param {
    lr_mult: 1
  }
  param {
    lr_mult: 2
  }
  convolution_param {
    num_output: 52
    pad: 0
    kernel_size: 3
    stride: 1
    weight_filler {
      type: "gaussian"
      mean: 0
      std: 0.01
    }
    bias_filler {
      type: "constant"
    }
  }
}
layer {
  name: "rpn_big_cls_score_reshape"
  type: "Reshape"
  bottom: "rpn_big_cls_score"
  top: "rpn_big_cls_score_reshape"
  reshape_param {
    shape {
      dim: 0
      dim: 2
      dim: -1
      dim: 0
    }
  }
}
layer {
  name: "rpn_big_cls_prob"
  type: "Softmax"
  bottom: "rpn_big_cls_score_reshape"
  top: "rpn_big_cls_prob"
}
layer {
  name: "rpn_big_cls_prob_reshape"
  type: "Reshape"
  bottom: "rpn_big_cls_prob"
  top: "rpn_big_cls_prob_reshape"
  reshape_param {
    shape {
      dim: 0
      dim: 52
      dim: -1
      dim: 0
    }
  }
}
layer {
  name: "rpn_big_anchor_target"
  type: "Python"
  bottom: "rpn_big_cls_score"
  bottom: "input_gt_boxes"
  bottom: "input_ignored_boxes"
  bottom: "input_im_info"
  bottom: "input_data"
  bottom: "rpn_big_cls_prob_reshape"
  top: "rpn_big_anchor_target_labels"
  top: "rpn_big_anchor_target_bbox_targets"
  top: "rpn_big_anchor_target_inside_weights"
  top: "rpn_big_anchor_target_outside_weights"
  python_param {
    module: "rpn.anchor_target_layer"
    layer: "AnchorTargetLayer"
    param_str: "{\"batchsize\": 256, \"tn_fraction\": 0.2, \"square_targets\": true, \"num_classes\": 1, \"anchor_shift_num_xy\": [[2, 2], [2, 2], [2, 2], [2, 2], [1, 1], [1, 1], [1, 1], [1, 1], [1, 1], [1, 1], [1, 1], [1, 1], [1, 1], [1, 1]], \"name\": \"rpn_big\", \"fg_fraction\": 0.5, \"feat_stride\": 16, \"anchor_ratios\": [1.0], \"negative_overlap\": 0.4, \"anchor_scales\": [2.5, 3.025, 3.66025, 4.4289024999999995, 5.358972025, 6.484356150249999, 7.846070941802498, 9.493745839581022, 11.487432465893036, 13.899793283730574, 16.818749873313998, 20.350687346709933, 24.62433168951902, 29.795441344318014], \"positive_overlap\": 0.6}"
  }
}
layer {
  name: "rpn_big_loss_cls"
  type: "SoftmaxWithLoss"
  bottom: "rpn_big_cls_score_reshape"
  bottom: "rpn_big_anchor_target_labels"
  top: "rpn_big_loss_cls"
  loss_weight: 1
  propagate_down: true
  propagate_down: false
  loss_param {
    ignore_label: -1
    normalization: VALID
  }
}
layer {
  name: "rpn_big_output_box"
  type: "Convolution"
  bottom: "rpn_big_conv2"
  top: "rpn_big_output_box"
  param {
    lr_mult: 1
  }
  param {
    lr_mult: 2
  }
  convolution_param {
    num_output: 384
    pad: 1
    kernel_size: 3
    stride: 1
    weight_filler {
      type: "gaussian"
      mean: 0
      std: 0.01
    }
    bias_filler {
      type: "constant"
    }
  }
}
layer {
  name: "rpn_big_output_box_relu"
  type: "ReLU"
  bottom: "rpn_big_output_box"
  top: "rpn_big_output_box"
  relu_param {
    negative_slope: 0
  }
}
layer {
  name: "rpn_big_bbox_pred"
  type: "Convolution"
  bottom: "rpn_big_output_box"
  top: "rpn_big_bbox_pred"
  param {
    lr_mult: 1
  }
  param {
    lr_mult: 2
  }
  convolution_param {
    num_output: 104
    pad: 0
    kernel_size: 3
    stride: 1
    weight_filler {
      type: "gaussian"
      mean: 0
      std: 0.01
    }
    bias_filler {
      type: "constant"
    }
  }
}
layer {
  name: "rpn_big_loss_bbox"
  type: "Python"
  bottom: "rpn_big_bbox_pred"
  bottom: "rpn_big_anchor_target_bbox_targets"
  bottom: "rpn_big_anchor_target_inside_weights"
  bottom: "rpn_big_anchor_target_outside_weights"
  top: "rpn_big_loss_bbox"
  loss_weight: 1
  python_param {
    module: "layers.smooth_l1_loss"
    layer: "SmoothL1LossLayer"
    param_str: "{\"sigma\": 3}"
  }
}
layer {
  name: "proposal"
  type: "Python"
  bottom: "rpn_big_cls_prob_reshape"
  bottom: "rpn_big_bbox_pred"
  bottom: "input_im_info"
  top: "rpn_rois"
  python_param {
    module: "rpn.proposal_layer"
    layer: "ProposalLayer"
    param_str: "{\"anchor_shift_num_xy\": [[2, 2], [2, 2], [2, 2], [2, 2], [1, 1], [1, 1], [1, 1], [1, 1], [1, 1], [1, 1], [1, 1], [1, 1], [1, 1], [1, 1]], \"feat_stride\": 16, \"num_classes\": 1, \"anchor_scales\": [2.5, 3.025, 3.66025, 4.4289024999999995, 5.358972025, 6.484356150249999, 7.846070941802498, 9.493745839581022, 11.487432465893036, 13.899793283730574, 16.818749873313998, 20.350687346709933, 24.62433168951902, 29.795441344318014], \"square_targets\": true, \"name\": \"rpn_big\", \"batchsize\": 256, \"anchor_ratios\": [1.0]}"
  }
}
layer {
  name: "roi-data"
  type: "Python"
  bottom: "rpn_rois"
  bottom: "input_gt_boxes"
  top: "rois"
  top: "labels"
  top: "bbox_targets"
  top: "bbox_inside_weights"
  top: "bbox_outside_weights"
  top: "pid_label"
  python_param {
    module: "rpn.proposal_target_layer"
    layer: "ProposalTargetLayer"
    param_str: "{\"num_classes\": 2, \"bg_aux_label\": 5532}"
  }
}
layer {
  name: "roi-pool"
  type: "ROIPooling"
  bottom: "conv5_3"
  bottom: "rois"
  top: "roi-pool"
  roi_pooling_param {
    pooled_h: 7
    pooled_w: 7
    spatial_scale: 0.0625
  }
}
layer {
  name: "fc6"
  type: "InnerProduct"
  bottom: "roi-pool"
  top: "fc6"
  param {
    lr_mult: 1
  }
  param {
    lr_mult: 2
  }
  inner_product_param {
    num_output: 4096
  }
}
layer {
  name: "relu6"
  type: "ReLU"
  bottom: "fc6"
  top: "fc6"
}
layer {
  name: "drop6"
  type: "Dropout"
  bottom: "fc6"
  top: "fc6"
  dropout_param {
    dropout_ratio: 0.5
  }
}
layer {
  name: "fc7"
  type: "InnerProduct"
  bottom: "fc6"
  top: "fc7"
  param {
    lr_mult: 1
  }
  param {
    lr_mult: 2
  }
  inner_product_param {
    num_output: 4096
  }
}
layer {
  name: "relu7"
  type: "ReLU"
  bottom: "fc7"
  top: "fc7"
}
layer {
  name: "drop7"
  type: "Dropout"
  bottom: "fc7"
  top: "fc7"
  dropout_param {
    dropout_ratio: 0.5
  }
}
layer {
  name: "bbox_pred"
  type: "InnerProduct"
  bottom: "fc7"
  top: "bbox_pred"
  param {
    lr_mult: 1
  }
  param {
    lr_mult: 2
  }
  inner_product_param {
    num_output: 8
    weight_filler {
      type: "gaussian"
      std: 0.001
    }
    bias_filler {
      type: "constant"
      value: 0
    }
  }
}
layer {
  name: "loss_bbox"
  type: "SmoothL1Loss"
  bottom: "bbox_pred"
  bottom: "bbox_targets"
  bottom: "bbox_inside_weights"
  bottom: "bbox_outside_weights"
  top: "loss_bbox"
  loss_weight: 1
}
layer {
  name: "feat"
  type: "InnerProduct"
  bottom: "fc7"
  top: "feat"
  param {
    lr_mult: 1
    decay_mult: 1
  }
  param {
    lr_mult: 2
    decay_mult: 0
  }
  inner_product_param {
    num_output: 256
    weight_filler {
      type: "gaussian"
      std: 0.01
    }
    bias_filler {
      type: "constant"
      value: 0
    }
  }
}
layer {
  name: "relu8"
  type: "ReLU"
  bottom: "feat"
  top: "feat"
}
layer {
  name: "drop8"
  type: "Dropout"
  bottom: "feat"
  top: "feat"
  dropout_param {
    dropout_ratio: 0.5
  }
}
layer {
  name: "pid_score"
  type: "InnerProduct"
  bottom: "feat"
  top: "pid_score"
  param {
    lr_mult: 1
    decay_mult: 1
  }
  param {
    lr_mult: 2
    decay_mult: 0
  }
  inner_product_param {
    num_output: 5533
    weight_filler {
      type: "gaussian"
      std: 0.001
    }
    bias_filler {
      type: "constant"
      value: 0
    }
  }
}
layer {
  name: "pid_loss"
  type: "SoftmaxWithLoss"
  bottom: "pid_score"
  bottom: "pid_label"
  top: "pid_loss"
  loss_weight: 1
  propagate_down: true
  propagate_down: false
  loss_param {
    ignore_label: -1
    normalize: true
  }
}
I0413 19:03:48.987642 15071 layer_factory.hpp:77] Creating layer input
I0413 19:03:48.989336 15071 net.cpp:100] Creating Layer input
I0413 19:03:48.989357 15071 net.cpp:408] input -> input_data
I0413 19:03:48.989373 15071 net.cpp:408] input -> input_im_info
I0413 19:03:48.989384 15071 net.cpp:408] input -> input_gt_boxes
I0413 19:03:48.989395 15071 net.cpp:408] input -> input_ignored_boxes
RoiDataLayer: name_to_top: {'ignored_boxes': 3, 'data': 0, 'im_info': 1, 'gt_boxes': 2}
I0413 19:03:49.319870 15071 net.cpp:150] Setting up input
I0413 19:03:49.319901 15071 net.cpp:157] Top shape: 1 3 1000 1500 (4500000)
I0413 19:03:49.319922 15071 net.cpp:157] Top shape: 1 3 (3)
I0413 19:03:49.319938 15071 net.cpp:157] Top shape: 1 5 (5)
I0413 19:03:49.319948 15071 net.cpp:157] Top shape: 1 5 (5)
I0413 19:03:49.319959 15071 net.cpp:165] Memory required for data: 18000052
I0413 19:03:49.319969 15071 layer_factory.hpp:77] Creating layer input_data_input_0_split
I0413 19:03:49.319986 15071 net.cpp:100] Creating Layer input_data_input_0_split
I0413 19:03:49.319995 15071 net.cpp:434] input_data_input_0_split <- input_data
I0413 19:03:49.320008 15071 net.cpp:408] input_data_input_0_split -> input_data_input_0_split_0
I0413 19:03:49.320025 15071 net.cpp:408] input_data_input_0_split -> input_data_input_0_split_1
I0413 19:03:49.320080 15071 net.cpp:150] Setting up input_data_input_0_split
I0413 19:03:49.320092 15071 net.cpp:157] Top shape: 1 3 1000 1500 (4500000)
I0413 19:03:49.320101 15071 net.cpp:157] Top shape: 1 3 1000 1500 (4500000)
I0413 19:03:49.320106 15071 net.cpp:165] Memory required for data: 54000052
I0413 19:03:49.320112 15071 layer_factory.hpp:77] Creating layer input_im_info_input_1_split
I0413 19:03:49.320124 15071 net.cpp:100] Creating Layer input_im_info_input_1_split
I0413 19:03:49.320132 15071 net.cpp:434] input_im_info_input_1_split <- input_im_info
I0413 19:03:49.320142 15071 net.cpp:408] input_im_info_input_1_split -> input_im_info_input_1_split_0
I0413 19:03:49.320152 15071 net.cpp:408] input_im_info_input_1_split -> input_im_info_input_1_split_1
I0413 19:03:49.320197 15071 net.cpp:150] Setting up input_im_info_input_1_split
I0413 19:03:49.320209 15071 net.cpp:157] Top shape: 1 3 (3)
I0413 19:03:49.320215 15071 net.cpp:157] Top shape: 1 3 (3)
I0413 19:03:49.320220 15071 net.cpp:165] Memory required for data: 54000076
I0413 19:03:49.320226 15071 layer_factory.hpp:77] Creating layer input_gt_boxes_input_2_split
I0413 19:03:49.320237 15071 net.cpp:100] Creating Layer input_gt_boxes_input_2_split
I0413 19:03:49.320243 15071 net.cpp:434] input_gt_boxes_input_2_split <- input_gt_boxes
I0413 19:03:49.320252 15071 net.cpp:408] input_gt_boxes_input_2_split -> input_gt_boxes_input_2_split_0
I0413 19:03:49.320267 15071 net.cpp:408] input_gt_boxes_input_2_split -> input_gt_boxes_input_2_split_1
I0413 19:03:49.320309 15071 net.cpp:150] Setting up input_gt_boxes_input_2_split
I0413 19:03:49.320319 15071 net.cpp:157] Top shape: 1 5 (5)
I0413 19:03:49.320328 15071 net.cpp:157] Top shape: 1 5 (5)
I0413 19:03:49.320333 15071 net.cpp:165] Memory required for data: 54000116
I0413 19:03:49.320338 15071 layer_factory.hpp:77] Creating layer conv1_1
I0413 19:03:49.320356 15071 net.cpp:100] Creating Layer conv1_1
I0413 19:03:49.320363 15071 net.cpp:434] conv1_1 <- input_data_input_0_split_0
I0413 19:03:49.320374 15071 net.cpp:408] conv1_1 -> conv1_1
I0413 19:03:49.323647 15071 net.cpp:150] Setting up conv1_1
I0413 19:03:49.323683 15071 net.cpp:157] Top shape: 1 64 1000 1500 (96000000)
I0413 19:03:49.323688 15071 net.cpp:165] Memory required for data: 438000116
I0413 19:03:49.323711 15071 layer_factory.hpp:77] Creating layer relu1_1
I0413 19:03:49.323729 15071 net.cpp:100] Creating Layer relu1_1
I0413 19:03:49.323740 15071 net.cpp:434] relu1_1 <- conv1_1
I0413 19:03:49.323755 15071 net.cpp:395] relu1_1 -> conv1_1 (in-place)
I0413 19:03:49.323771 15071 net.cpp:150] Setting up relu1_1
I0413 19:03:49.323782 15071 net.cpp:157] Top shape: 1 64 1000 1500 (96000000)
I0413 19:03:49.323787 15071 net.cpp:165] Memory required for data: 822000116
I0413 19:03:49.323793 15071 layer_factory.hpp:77] Creating layer conv1_2
I0413 19:03:49.323808 15071 net.cpp:100] Creating Layer conv1_2
I0413 19:03:49.323817 15071 net.cpp:434] conv1_2 <- conv1_1
I0413 19:03:49.323825 15071 net.cpp:408] conv1_2 -> conv1_2
I0413 19:03:49.327188 15071 net.cpp:150] Setting up conv1_2
I0413 19:03:49.327220 15071 net.cpp:157] Top shape: 1 64 1000 1500 (96000000)
I0413 19:03:49.327234 15071 net.cpp:165] Memory required for data: 1206000116
I0413 19:03:49.327255 15071 layer_factory.hpp:77] Creating layer relu1_2
I0413 19:03:49.327268 15071 net.cpp:100] Creating Layer relu1_2
I0413 19:03:49.327276 15071 net.cpp:434] relu1_2 <- conv1_2
I0413 19:03:49.327288 15071 net.cpp:395] relu1_2 -> conv1_2 (in-place)
I0413 19:03:49.327304 15071 net.cpp:150] Setting up relu1_2
I0413 19:03:49.327316 15071 net.cpp:157] Top shape: 1 64 1000 1500 (96000000)
I0413 19:03:49.327322 15071 net.cpp:165] Memory required for data: 1590000116
I0413 19:03:49.327327 15071 layer_factory.hpp:77] Creating layer pool1
I0413 19:03:49.327345 15071 net.cpp:100] Creating Layer pool1
I0413 19:03:49.327353 15071 net.cpp:434] pool1 <- conv1_2
I0413 19:03:49.327363 15071 net.cpp:408] pool1 -> pool1
I0413 19:03:49.327453 15071 net.cpp:150] Setting up pool1
I0413 19:03:49.327466 15071 net.cpp:157] Top shape: 1 64 500 750 (24000000)
I0413 19:03:49.327474 15071 net.cpp:165] Memory required for data: 1686000116
I0413 19:03:49.327481 15071 layer_factory.hpp:77] Creating layer conv2_1
I0413 19:03:49.327497 15071 net.cpp:100] Creating Layer conv2_1
I0413 19:03:49.327504 15071 net.cpp:434] conv2_1 <- pool1
I0413 19:03:49.327513 15071 net.cpp:408] conv2_1 -> conv2_1
I0413 19:03:49.329047 15071 net.cpp:150] Setting up conv2_1
I0413 19:03:49.329068 15071 net.cpp:157] Top shape: 1 128 500 750 (48000000)
I0413 19:03:49.329072 15071 net.cpp:165] Memory required for data: 1878000116
I0413 19:03:49.329088 15071 layer_factory.hpp:77] Creating layer relu2_1
I0413 19:03:49.329103 15071 net.cpp:100] Creating Layer relu2_1
I0413 19:03:49.329111 15071 net.cpp:434] relu2_1 <- conv2_1
I0413 19:03:49.329120 15071 net.cpp:395] relu2_1 -> conv2_1 (in-place)
I0413 19:03:49.329156 15071 net.cpp:150] Setting up relu2_1
I0413 19:03:49.329167 15071 net.cpp:157] Top shape: 1 128 500 750 (48000000)
I0413 19:03:49.329174 15071 net.cpp:165] Memory required for data: 2070000116
I0413 19:03:49.329180 15071 layer_factory.hpp:77] Creating layer conv2_2
I0413 19:03:49.329195 15071 net.cpp:100] Creating Layer conv2_2
I0413 19:03:49.329201 15071 net.cpp:434] conv2_2 <- conv2_1
I0413 19:03:49.329210 15071 net.cpp:408] conv2_2 -> conv2_2
I0413 19:03:49.330379 15071 net.cpp:150] Setting up conv2_2
I0413 19:03:49.330402 15071 net.cpp:157] Top shape: 1 128 500 750 (48000000)
I0413 19:03:49.330406 15071 net.cpp:165] Memory required for data: 2262000116
I0413 19:03:49.330418 15071 layer_factory.hpp:77] Creating layer relu2_2
I0413 19:03:49.330430 15071 net.cpp:100] Creating Layer relu2_2
I0413 19:03:49.330438 15071 net.cpp:434] relu2_2 <- conv2_2
I0413 19:03:49.330451 15071 net.cpp:395] relu2_2 -> conv2_2 (in-place)
I0413 19:03:49.330462 15071 net.cpp:150] Setting up relu2_2
I0413 19:03:49.330471 15071 net.cpp:157] Top shape: 1 128 500 750 (48000000)
I0413 19:03:49.330477 15071 net.cpp:165] Memory required for data: 2454000116
I0413 19:03:49.330482 15071 layer_factory.hpp:77] Creating layer pool2
I0413 19:03:49.330492 15071 net.cpp:100] Creating Layer pool2
I0413 19:03:49.330498 15071 net.cpp:434] pool2 <- conv2_2
I0413 19:03:49.330507 15071 net.cpp:408] pool2 -> pool2
I0413 19:03:49.330570 15071 net.cpp:150] Setting up pool2
I0413 19:03:49.330581 15071 net.cpp:157] Top shape: 1 128 250 375 (12000000)
I0413 19:03:49.330587 15071 net.cpp:165] Memory required for data: 2502000116
I0413 19:03:49.330593 15071 layer_factory.hpp:77] Creating layer conv3_1
I0413 19:03:49.330606 15071 net.cpp:100] Creating Layer conv3_1
I0413 19:03:49.330615 15071 net.cpp:434] conv3_1 <- pool2
I0413 19:03:49.330624 15071 net.cpp:408] conv3_1 -> conv3_1
I0413 19:03:49.331992 15071 net.cpp:150] Setting up conv3_1
I0413 19:03:49.332021 15071 net.cpp:157] Top shape: 1 256 250 375 (24000000)
I0413 19:03:49.332026 15071 net.cpp:165] Memory required for data: 2598000116
I0413 19:03:49.332044 15071 layer_factory.hpp:77] Creating layer relu3_1
I0413 19:03:49.332062 15071 net.cpp:100] Creating Layer relu3_1
I0413 19:03:49.332069 15071 net.cpp:434] relu3_1 <- conv3_1
I0413 19:03:49.332080 15071 net.cpp:395] relu3_1 -> conv3_1 (in-place)
I0413 19:03:49.332094 15071 net.cpp:150] Setting up relu3_1
I0413 19:03:49.332103 15071 net.cpp:157] Top shape: 1 256 250 375 (24000000)
I0413 19:03:49.332108 15071 net.cpp:165] Memory required for data: 2694000116
I0413 19:03:49.332113 15071 layer_factory.hpp:77] Creating layer conv3_2
I0413 19:03:49.332129 15071 net.cpp:100] Creating Layer conv3_2
I0413 19:03:49.332136 15071 net.cpp:434] conv3_2 <- conv3_1
I0413 19:03:49.332147 15071 net.cpp:408] conv3_2 -> conv3_2
I0413 19:03:49.333673 15071 net.cpp:150] Setting up conv3_2
I0413 19:03:49.333706 15071 net.cpp:157] Top shape: 1 256 250 375 (24000000)
I0413 19:03:49.333714 15071 net.cpp:165] Memory required for data: 2790000116
I0413 19:03:49.333729 15071 layer_factory.hpp:77] Creating layer relu3_2
I0413 19:03:49.333747 15071 net.cpp:100] Creating Layer relu3_2
I0413 19:03:49.333755 15071 net.cpp:434] relu3_2 <- conv3_2
I0413 19:03:49.333766 15071 net.cpp:395] relu3_2 -> conv3_2 (in-place)
I0413 19:03:49.333780 15071 net.cpp:150] Setting up relu3_2
I0413 19:03:49.333788 15071 net.cpp:157] Top shape: 1 256 250 375 (24000000)
I0413 19:03:49.333793 15071 net.cpp:165] Memory required for data: 2886000116
I0413 19:03:49.333799 15071 layer_factory.hpp:77] Creating layer conv3_3
I0413 19:03:49.333814 15071 net.cpp:100] Creating Layer conv3_3
I0413 19:03:49.333822 15071 net.cpp:434] conv3_3 <- conv3_2
I0413 19:03:49.333833 15071 net.cpp:408] conv3_3 -> conv3_3
I0413 19:03:49.336685 15071 net.cpp:150] Setting up conv3_3
I0413 19:03:49.336714 15071 net.cpp:157] Top shape: 1 256 250 375 (24000000)
I0413 19:03:49.336716 15071 net.cpp:165] Memory required for data: 2982000116
I0413 19:03:49.336730 15071 layer_factory.hpp:77] Creating layer relu3_3
I0413 19:03:49.336746 15071 net.cpp:100] Creating Layer relu3_3
I0413 19:03:49.336755 15071 net.cpp:434] relu3_3 <- conv3_3
I0413 19:03:49.336766 15071 net.cpp:395] relu3_3 -> conv3_3 (in-place)
I0413 19:03:49.336779 15071 net.cpp:150] Setting up relu3_3
I0413 19:03:49.336787 15071 net.cpp:157] Top shape: 1 256 250 375 (24000000)
I0413 19:03:49.336793 15071 net.cpp:165] Memory required for data: 3078000116
I0413 19:03:49.336799 15071 layer_factory.hpp:77] Creating layer pool3
I0413 19:03:49.336809 15071 net.cpp:100] Creating Layer pool3
I0413 19:03:49.336817 15071 net.cpp:434] pool3 <- conv3_3
I0413 19:03:49.336827 15071 net.cpp:408] pool3 -> pool3
I0413 19:03:49.336884 15071 net.cpp:150] Setting up pool3
I0413 19:03:49.336894 15071 net.cpp:157] Top shape: 1 256 125 188 (6016000)
I0413 19:03:49.336900 15071 net.cpp:165] Memory required for data: 3102064116
I0413 19:03:49.336916 15071 layer_factory.hpp:77] Creating layer conv4_1
I0413 19:03:49.336931 15071 net.cpp:100] Creating Layer conv4_1
I0413 19:03:49.336937 15071 net.cpp:434] conv4_1 <- pool3
I0413 19:03:49.336948 15071 net.cpp:408] conv4_1 -> conv4_1
I0413 19:03:49.339725 15071 net.cpp:150] Setting up conv4_1
I0413 19:03:49.339759 15071 net.cpp:157] Top shape: 1 512 125 188 (12032000)
I0413 19:03:49.339762 15071 net.cpp:165] Memory required for data: 3150192116
I0413 19:03:49.339776 15071 layer_factory.hpp:77] Creating layer relu4_1
I0413 19:03:49.339790 15071 net.cpp:100] Creating Layer relu4_1
I0413 19:03:49.339799 15071 net.cpp:434] relu4_1 <- conv4_1
I0413 19:03:49.339812 15071 net.cpp:395] relu4_1 -> conv4_1 (in-place)
I0413 19:03:49.339825 15071 net.cpp:150] Setting up relu4_1
I0413 19:03:49.339833 15071 net.cpp:157] Top shape: 1 512 125 188 (12032000)
I0413 19:03:49.339839 15071 net.cpp:165] Memory required for data: 3198320116
I0413 19:03:49.339844 15071 layer_factory.hpp:77] Creating layer conv4_2
I0413 19:03:49.339857 15071 net.cpp:100] Creating Layer conv4_2
I0413 19:03:49.339864 15071 net.cpp:434] conv4_2 <- conv4_1
I0413 19:03:49.339875 15071 net.cpp:408] conv4_2 -> conv4_2
I0413 19:03:49.344321 15071 net.cpp:150] Setting up conv4_2
I0413 19:03:49.344352 15071 net.cpp:157] Top shape: 1 512 125 188 (12032000)
I0413 19:03:49.344365 15071 net.cpp:165] Memory required for data: 3246448116
I0413 19:03:49.344383 15071 layer_factory.hpp:77] Creating layer relu4_2
I0413 19:03:49.344393 15071 net.cpp:100] Creating Layer relu4_2
I0413 19:03:49.344400 15071 net.cpp:434] relu4_2 <- conv4_2
I0413 19:03:49.344413 15071 net.cpp:395] relu4_2 -> conv4_2 (in-place)
I0413 19:03:49.344429 15071 net.cpp:150] Setting up relu4_2
I0413 19:03:49.344436 15071 net.cpp:157] Top shape: 1 512 125 188 (12032000)
I0413 19:03:49.344441 15071 net.cpp:165] Memory required for data: 3294576116
I0413 19:03:49.344446 15071 layer_factory.hpp:77] Creating layer conv4_3
I0413 19:03:49.344457 15071 net.cpp:100] Creating Layer conv4_3
I0413 19:03:49.344463 15071 net.cpp:434] conv4_3 <- conv4_2
I0413 19:03:49.344475 15071 net.cpp:408] conv4_3 -> conv4_3
I0413 19:03:49.349167 15071 net.cpp:150] Setting up conv4_3
I0413 19:03:49.349213 15071 net.cpp:157] Top shape: 1 512 125 188 (12032000)
I0413 19:03:49.349220 15071 net.cpp:165] Memory required for data: 3342704116
I0413 19:03:49.349236 15071 layer_factory.hpp:77] Creating layer relu4_3
I0413 19:03:49.349252 15071 net.cpp:100] Creating Layer relu4_3
I0413 19:03:49.349261 15071 net.cpp:434] relu4_3 <- conv4_3
I0413 19:03:49.349272 15071 net.cpp:395] relu4_3 -> conv4_3 (in-place)
I0413 19:03:49.349289 15071 net.cpp:150] Setting up relu4_3
I0413 19:03:49.349299 15071 net.cpp:157] Top shape: 1 512 125 188 (12032000)
I0413 19:03:49.349304 15071 net.cpp:165] Memory required for data: 3390832116
I0413 19:03:49.349310 15071 layer_factory.hpp:77] Creating layer pool4
I0413 19:03:49.349321 15071 net.cpp:100] Creating Layer pool4
I0413 19:03:49.349326 15071 net.cpp:434] pool4 <- conv4_3
I0413 19:03:49.349334 15071 net.cpp:408] pool4 -> pool4
I0413 19:03:49.349383 15071 net.cpp:150] Setting up pool4
I0413 19:03:49.349393 15071 net.cpp:157] Top shape: 1 512 63 94 (3032064)
I0413 19:03:49.349400 15071 net.cpp:165] Memory required for data: 3402960372
I0413 19:03:49.349405 15071 layer_factory.hpp:77] Creating layer conv5_1
I0413 19:03:49.349418 15071 net.cpp:100] Creating Layer conv5_1
I0413 19:03:49.349424 15071 net.cpp:434] conv5_1 <- pool4
I0413 19:03:49.349432 15071 net.cpp:408] conv5_1 -> conv5_1
I0413 19:03:49.356478 15071 net.cpp:150] Setting up conv5_1
I0413 19:03:49.356518 15071 net.cpp:157] Top shape: 1 512 63 94 (3032064)
I0413 19:03:49.356523 15071 net.cpp:165] Memory required for data: 3415088628
I0413 19:03:49.356534 15071 layer_factory.hpp:77] Creating layer relu5_1
I0413 19:03:49.356549 15071 net.cpp:100] Creating Layer relu5_1
I0413 19:03:49.356555 15071 net.cpp:434] relu5_1 <- conv5_1
I0413 19:03:49.356566 15071 net.cpp:395] relu5_1 -> conv5_1 (in-place)
I0413 19:03:49.356580 15071 net.cpp:150] Setting up relu5_1
I0413 19:03:49.356590 15071 net.cpp:157] Top shape: 1 512 63 94 (3032064)
I0413 19:03:49.356595 15071 net.cpp:165] Memory required for data: 3427216884
I0413 19:03:49.356598 15071 layer_factory.hpp:77] Creating layer conv5_2
I0413 19:03:49.356612 15071 net.cpp:100] Creating Layer conv5_2
I0413 19:03:49.356619 15071 net.cpp:434] conv5_2 <- conv5_1
I0413 19:03:49.356631 15071 net.cpp:408] conv5_2 -> conv5_2
I0413 19:03:49.361094 15071 net.cpp:150] Setting up conv5_2
I0413 19:03:49.361140 15071 net.cpp:157] Top shape: 1 512 63 94 (3032064)
I0413 19:03:49.361143 15071 net.cpp:165] Memory required for data: 3439345140
I0413 19:03:49.361153 15071 layer_factory.hpp:77] Creating layer relu5_2
I0413 19:03:49.361163 15071 net.cpp:100] Creating Layer relu5_2
I0413 19:03:49.361168 15071 net.cpp:434] relu5_2 <- conv5_2
I0413 19:03:49.361177 15071 net.cpp:395] relu5_2 -> conv5_2 (in-place)
I0413 19:03:49.361191 15071 net.cpp:150] Setting up relu5_2
I0413 19:03:49.361197 15071 net.cpp:157] Top shape: 1 512 63 94 (3032064)
I0413 19:03:49.361202 15071 net.cpp:165] Memory required for data: 3451473396
I0413 19:03:49.361207 15071 layer_factory.hpp:77] Creating layer conv5_3
I0413 19:03:49.361227 15071 net.cpp:100] Creating Layer conv5_3
I0413 19:03:49.361234 15071 net.cpp:434] conv5_3 <- conv5_2
I0413 19:03:49.361244 15071 net.cpp:408] conv5_3 -> conv5_3
I0413 19:03:49.365644 15071 net.cpp:150] Setting up conv5_3
I0413 19:03:49.365690 15071 net.cpp:157] Top shape: 1 512 63 94 (3032064)
I0413 19:03:49.365695 15071 net.cpp:165] Memory required for data: 3463601652
I0413 19:03:49.365705 15071 layer_factory.hpp:77] Creating layer relu5_3
I0413 19:03:49.365715 15071 net.cpp:100] Creating Layer relu5_3
I0413 19:03:49.365720 15071 net.cpp:434] relu5_3 <- conv5_3
I0413 19:03:49.365727 15071 net.cpp:395] relu5_3 -> conv5_3 (in-place)
I0413 19:03:49.365739 15071 net.cpp:150] Setting up relu5_3
I0413 19:03:49.365746 15071 net.cpp:157] Top shape: 1 512 63 94 (3032064)
I0413 19:03:49.365751 15071 net.cpp:165] Memory required for data: 3475729908
I0413 19:03:49.365756 15071 layer_factory.hpp:77] Creating layer conv5_3_relu5_3_0_split
I0413 19:03:49.365767 15071 net.cpp:100] Creating Layer conv5_3_relu5_3_0_split
I0413 19:03:49.365774 15071 net.cpp:434] conv5_3_relu5_3_0_split <- conv5_3
I0413 19:03:49.365782 15071 net.cpp:408] conv5_3_relu5_3_0_split -> conv5_3_relu5_3_0_split_0
I0413 19:03:49.365793 15071 net.cpp:408] conv5_3_relu5_3_0_split -> conv5_3_relu5_3_0_split_1
I0413 19:03:49.365839 15071 net.cpp:150] Setting up conv5_3_relu5_3_0_split
I0413 19:03:49.365850 15071 net.cpp:157] Top shape: 1 512 63 94 (3032064)
I0413 19:03:49.365857 15071 net.cpp:157] Top shape: 1 512 63 94 (3032064)
I0413 19:03:49.365864 15071 net.cpp:165] Memory required for data: 3499986420
I0413 19:03:49.365869 15071 layer_factory.hpp:77] Creating layer rpn_big_conv1
I0413 19:03:49.365887 15071 net.cpp:100] Creating Layer rpn_big_conv1
I0413 19:03:49.365895 15071 net.cpp:434] rpn_big_conv1 <- conv5_3_relu5_3_0_split_0
I0413 19:03:49.365906 15071 net.cpp:408] rpn_big_conv1 -> rpn_big_conv1
I0413 19:03:49.393976 15071 net.cpp:150] Setting up rpn_big_conv1
I0413 19:03:49.394006 15071 net.cpp:157] Top shape: 1 512 63 94 (3032064)
I0413 19:03:49.394019 15071 net.cpp:165] Memory required for data: 3512114676
I0413 19:03:49.394029 15071 layer_factory.hpp:77] Creating layer rpn_big_conv1_relu
I0413 19:03:49.394040 15071 net.cpp:100] Creating Layer rpn_big_conv1_relu
I0413 19:03:49.394045 15071 net.cpp:434] rpn_big_conv1_relu <- rpn_big_conv1
I0413 19:03:49.394057 15071 net.cpp:395] rpn_big_conv1_relu -> rpn_big_conv1 (in-place)
I0413 19:03:49.394071 15071 net.cpp:150] Setting up rpn_big_conv1_relu
I0413 19:03:49.394081 15071 net.cpp:157] Top shape: 1 512 63 94 (3032064)
I0413 19:03:49.394088 15071 net.cpp:165] Memory required for data: 3524242932
I0413 19:03:49.394091 15071 layer_factory.hpp:77] Creating layer rpn_big_conv2
I0413 19:03:49.394107 15071 net.cpp:100] Creating Layer rpn_big_conv2
I0413 19:03:49.394114 15071 net.cpp:434] rpn_big_conv2 <- rpn_big_conv1
I0413 19:03:49.394124 15071 net.cpp:408] rpn_big_conv2 -> rpn_big_conv2
I0413 19:03:49.420094 15071 net.cpp:150] Setting up rpn_big_conv2
I0413 19:03:49.420130 15071 net.cpp:157] Top shape: 1 512 63 94 (3032064)
I0413 19:03:49.420142 15071 net.cpp:165] Memory required for data: 3536371188
I0413 19:03:49.420152 15071 layer_factory.hpp:77] Creating layer rpn_big_conv2_relu
I0413 19:03:49.420163 15071 net.cpp:100] Creating Layer rpn_big_conv2_relu
I0413 19:03:49.420168 15071 net.cpp:434] rpn_big_conv2_relu <- rpn_big_conv2
I0413 19:03:49.420181 15071 net.cpp:395] rpn_big_conv2_relu -> rpn_big_conv2 (in-place)
I0413 19:03:49.420194 15071 net.cpp:150] Setting up rpn_big_conv2_relu
I0413 19:03:49.420204 15071 net.cpp:157] Top shape: 1 512 63 94 (3032064)
I0413 19:03:49.420212 15071 net.cpp:165] Memory required for data: 3548499444
I0413 19:03:49.420217 15071 layer_factory.hpp:77] Creating layer rpn_big_conv2_drop
I0413 19:03:49.420227 15071 net.cpp:100] Creating Layer rpn_big_conv2_drop
I0413 19:03:49.420233 15071 net.cpp:434] rpn_big_conv2_drop <- rpn_big_conv2
I0413 19:03:49.420243 15071 net.cpp:395] rpn_big_conv2_drop -> rpn_big_conv2 (in-place)
I0413 19:03:49.420274 15071 net.cpp:150] Setting up rpn_big_conv2_drop
I0413 19:03:49.420284 15071 net.cpp:157] Top shape: 1 512 63 94 (3032064)
I0413 19:03:49.420290 15071 net.cpp:165] Memory required for data: 3560627700
I0413 19:03:49.420295 15071 layer_factory.hpp:77] Creating layer rpn_big_conv2_rpn_big_conv2_drop_0_split
I0413 19:03:49.420305 15071 net.cpp:100] Creating Layer rpn_big_conv2_rpn_big_conv2_drop_0_split
I0413 19:03:49.420312 15071 net.cpp:434] rpn_big_conv2_rpn_big_conv2_drop_0_split <- rpn_big_conv2
I0413 19:03:49.420320 15071 net.cpp:408] rpn_big_conv2_rpn_big_conv2_drop_0_split -> rpn_big_conv2_rpn_big_conv2_drop_0_split_0
I0413 19:03:49.420333 15071 net.cpp:408] rpn_big_conv2_rpn_big_conv2_drop_0_split -> rpn_big_conv2_rpn_big_conv2_drop_0_split_1
I0413 19:03:49.420387 15071 net.cpp:150] Setting up rpn_big_conv2_rpn_big_conv2_drop_0_split
I0413 19:03:49.420397 15071 net.cpp:157] Top shape: 1 512 63 94 (3032064)
I0413 19:03:49.420406 15071 net.cpp:157] Top shape: 1 512 63 94 (3032064)
I0413 19:03:49.420413 15071 net.cpp:165] Memory required for data: 3584884212
I0413 19:03:49.420420 15071 layer_factory.hpp:77] Creating layer rpn_big_output_cls
I0413 19:03:49.420439 15071 net.cpp:100] Creating Layer rpn_big_output_cls
I0413 19:03:49.420449 15071 net.cpp:434] rpn_big_output_cls <- rpn_big_conv2_rpn_big_conv2_drop_0_split_0
I0413 19:03:49.420459 15071 net.cpp:408] rpn_big_output_cls -> rpn_big_output_cls
I0413 19:03:49.439882 15071 net.cpp:150] Setting up rpn_big_output_cls
I0413 19:03:49.439924 15071 net.cpp:157] Top shape: 1 384 63 94 (2274048)
I0413 19:03:49.439929 15071 net.cpp:165] Memory required for data: 3593980404
I0413 19:03:49.439939 15071 layer_factory.hpp:77] Creating layer rpn_big_output_cls_relu
I0413 19:03:49.439949 15071 net.cpp:100] Creating Layer rpn_big_output_cls_relu
I0413 19:03:49.439955 15071 net.cpp:434] rpn_big_output_cls_relu <- rpn_big_output_cls
I0413 19:03:49.439965 15071 net.cpp:395] rpn_big_output_cls_relu -> rpn_big_output_cls (in-place)
I0413 19:03:49.439980 15071 net.cpp:150] Setting up rpn_big_output_cls_relu
I0413 19:03:49.439990 15071 net.cpp:157] Top shape: 1 384 63 94 (2274048)
I0413 19:03:49.439996 15071 net.cpp:165] Memory required for data: 3603076596
I0413 19:03:49.440001 15071 layer_factory.hpp:77] Creating layer rpn_big_cls_score
I0413 19:03:49.440016 15071 net.cpp:100] Creating Layer rpn_big_cls_score
I0413 19:03:49.440023 15071 net.cpp:434] rpn_big_cls_score <- rpn_big_output_cls
I0413 19:03:49.440035 15071 net.cpp:408] rpn_big_cls_score -> rpn_big_cls_score
I0413 19:03:49.442503 15071 net.cpp:150] Setting up rpn_big_cls_score
I0413 19:03:49.442517 15071 net.cpp:157] Top shape: 1 52 61 92 (291824)
I0413 19:03:49.442522 15071 net.cpp:165] Memory required for data: 3604243892
I0413 19:03:49.442540 15071 layer_factory.hpp:77] Creating layer rpn_big_cls_score_rpn_big_cls_score_0_split
I0413 19:03:49.442554 15071 net.cpp:100] Creating Layer rpn_big_cls_score_rpn_big_cls_score_0_split
I0413 19:03:49.442561 15071 net.cpp:434] rpn_big_cls_score_rpn_big_cls_score_0_split <- rpn_big_cls_score
I0413 19:03:49.442571 15071 net.cpp:408] rpn_big_cls_score_rpn_big_cls_score_0_split -> rpn_big_cls_score_rpn_big_cls_score_0_split_0
I0413 19:03:49.442581 15071 net.cpp:408] rpn_big_cls_score_rpn_big_cls_score_0_split -> rpn_big_cls_score_rpn_big_cls_score_0_split_1
I0413 19:03:49.442631 15071 net.cpp:150] Setting up rpn_big_cls_score_rpn_big_cls_score_0_split
I0413 19:03:49.442642 15071 net.cpp:157] Top shape: 1 52 61 92 (291824)
I0413 19:03:49.442651 15071 net.cpp:157] Top shape: 1 52 61 92 (291824)
I0413 19:03:49.442657 15071 net.cpp:165] Memory required for data: 3606578484
I0413 19:03:49.442662 15071 layer_factory.hpp:77] Creating layer rpn_big_cls_score_reshape
I0413 19:03:49.442672 15071 net.cpp:100] Creating Layer rpn_big_cls_score_reshape
I0413 19:03:49.442679 15071 net.cpp:434] rpn_big_cls_score_reshape <- rpn_big_cls_score_rpn_big_cls_score_0_split_0
I0413 19:03:49.442694 15071 net.cpp:408] rpn_big_cls_score_reshape -> rpn_big_cls_score_reshape
I0413 19:03:49.442733 15071 net.cpp:150] Setting up rpn_big_cls_score_reshape
I0413 19:03:49.442744 15071 net.cpp:157] Top shape: 1 2 1586 92 (291824)
I0413 19:03:49.442749 15071 net.cpp:165] Memory required for data: 3607745780
I0413 19:03:49.442754 15071 layer_factory.hpp:77] Creating layer rpn_big_cls_score_reshape_rpn_big_cls_score_reshape_0_split
I0413 19:03:49.442764 15071 net.cpp:100] Creating Layer rpn_big_cls_score_reshape_rpn_big_cls_score_reshape_0_split
I0413 19:03:49.442770 15071 net.cpp:434] rpn_big_cls_score_reshape_rpn_big_cls_score_reshape_0_split <- rpn_big_cls_score_reshape
I0413 19:03:49.442783 15071 net.cpp:408] rpn_big_cls_score_reshape_rpn_big_cls_score_reshape_0_split -> rpn_big_cls_score_reshape_rpn_big_cls_score_reshape_0_split_0
I0413 19:03:49.442795 15071 net.cpp:408] rpn_big_cls_score_reshape_rpn_big_cls_score_reshape_0_split -> rpn_big_cls_score_reshape_rpn_big_cls_score_reshape_0_split_1
I0413 19:03:49.442842 15071 net.cpp:150] Setting up rpn_big_cls_score_reshape_rpn_big_cls_score_reshape_0_split
I0413 19:03:49.442852 15071 net.cpp:157] Top shape: 1 2 1586 92 (291824)
I0413 19:03:49.442859 15071 net.cpp:157] Top shape: 1 2 1586 92 (291824)
I0413 19:03:49.442865 15071 net.cpp:165] Memory required for data: 3610080372
I0413 19:03:49.442872 15071 layer_factory.hpp:77] Creating layer rpn_big_cls_prob
I0413 19:03:49.442881 15071 net.cpp:100] Creating Layer rpn_big_cls_prob
I0413 19:03:49.442889 15071 net.cpp:434] rpn_big_cls_prob <- rpn_big_cls_score_reshape_rpn_big_cls_score_reshape_0_split_0
I0413 19:03:49.442901 15071 net.cpp:408] rpn_big_cls_prob -> rpn_big_cls_prob
I0413 19:03:49.442976 15071 net.cpp:150] Setting up rpn_big_cls_prob
I0413 19:03:49.442987 15071 net.cpp:157] Top shape: 1 2 1586 92 (291824)
I0413 19:03:49.442992 15071 net.cpp:165] Memory required for data: 3611247668
I0413 19:03:49.442997 15071 layer_factory.hpp:77] Creating layer rpn_big_cls_prob_reshape
I0413 19:03:49.443006 15071 net.cpp:100] Creating Layer rpn_big_cls_prob_reshape
I0413 19:03:49.443012 15071 net.cpp:434] rpn_big_cls_prob_reshape <- rpn_big_cls_prob
I0413 19:03:49.443022 15071 net.cpp:408] rpn_big_cls_prob_reshape -> rpn_big_cls_prob_reshape
I0413 19:03:49.443053 15071 net.cpp:150] Setting up rpn_big_cls_prob_reshape
I0413 19:03:49.443063 15071 net.cpp:157] Top shape: 1 52 61 92 (291824)
I0413 19:03:49.443068 15071 net.cpp:165] Memory required for data: 3612414964
I0413 19:03:49.443073 15071 layer_factory.hpp:77] Creating layer rpn_big_cls_prob_reshape_rpn_big_cls_prob_reshape_0_split
I0413 19:03:49.443081 15071 net.cpp:100] Creating Layer rpn_big_cls_prob_reshape_rpn_big_cls_prob_reshape_0_split
I0413 19:03:49.443089 15071 net.cpp:434] rpn_big_cls_prob_reshape_rpn_big_cls_prob_reshape_0_split <- rpn_big_cls_prob_reshape
I0413 19:03:49.443097 15071 net.cpp:408] rpn_big_cls_prob_reshape_rpn_big_cls_prob_reshape_0_split -> rpn_big_cls_prob_reshape_rpn_big_cls_prob_reshape_0_split_0
I0413 19:03:49.443109 15071 net.cpp:408] rpn_big_cls_prob_reshape_rpn_big_cls_prob_reshape_0_split -> rpn_big_cls_prob_reshape_rpn_big_cls_prob_reshape_0_split_1
I0413 19:03:49.443152 15071 net.cpp:150] Setting up rpn_big_cls_prob_reshape_rpn_big_cls_prob_reshape_0_split
I0413 19:03:49.443163 15071 net.cpp:157] Top shape: 1 52 61 92 (291824)
I0413 19:03:49.443171 15071 net.cpp:157] Top shape: 1 52 61 92 (291824)
I0413 19:03:49.443176 15071 net.cpp:165] Memory required for data: 3614749556
I0413 19:03:49.443181 15071 layer_factory.hpp:77] Creating layer rpn_big_anchor_target
I0413 19:03:49.444926 15071 net.cpp:100] Creating Layer rpn_big_anchor_target
I0413 19:03:49.444942 15071 net.cpp:434] rpn_big_anchor_target <- rpn_big_cls_score_rpn_big_cls_score_0_split_1
I0413 19:03:49.444950 15071 net.cpp:434] rpn_big_anchor_target <- input_gt_boxes_input_2_split_0
I0413 19:03:49.444958 15071 net.cpp:434] rpn_big_anchor_target <- input_ignored_boxes
I0413 19:03:49.444967 15071 net.cpp:434] rpn_big_anchor_target <- input_im_info_input_1_split_0
I0413 19:03:49.444977 15071 net.cpp:434] rpn_big_anchor_target <- input_data_input_0_split_1
I0413 19:03:49.444983 15071 net.cpp:434] rpn_big_anchor_target <- rpn_big_cls_prob_reshape_rpn_big_cls_prob_reshape_0_split_0
I0413 19:03:49.444994 15071 net.cpp:408] rpn_big_anchor_target -> rpn_big_anchor_target_labels
I0413 19:03:49.445010 15071 net.cpp:408] rpn_big_anchor_target -> rpn_big_anchor_target_bbox_targets
I0413 19:03:49.445024 15071 net.cpp:408] rpn_big_anchor_target -> rpn_big_anchor_target_inside_weights
I0413 19:03:49.445039 15071 net.cpp:408] rpn_big_anchor_target -> rpn_big_anchor_target_outside_weights
I0413 19:03:49.451505 15071 net.cpp:150] Setting up rpn_big_anchor_target
I0413 19:03:49.451539 15071 net.cpp:157] Top shape: 1 1 1586 92 (145912)
I0413 19:03:49.451547 15071 net.cpp:157] Top shape: 1 104 61 92 (583648)
I0413 19:03:49.451555 15071 net.cpp:157] Top shape: 1 104 61 92 (583648)
I0413 19:03:49.451562 15071 net.cpp:157] Top shape: 1 104 61 92 (583648)
I0413 19:03:49.451570 15071 net.cpp:165] Memory required for data: 3622336980
I0413 19:03:49.451577 15071 layer_factory.hpp:77] Creating layer rpn_big_loss_cls
I0413 19:03:49.451593 15071 net.cpp:100] Creating Layer rpn_big_loss_cls
I0413 19:03:49.451602 15071 net.cpp:434] rpn_big_loss_cls <- rpn_big_cls_score_reshape_rpn_big_cls_score_reshape_0_split_1
I0413 19:03:49.451612 15071 net.cpp:434] rpn_big_loss_cls <- rpn_big_anchor_target_labels
I0413 19:03:49.451623 15071 net.cpp:408] rpn_big_loss_cls -> rpn_big_loss_cls
I0413 19:03:49.451642 15071 layer_factory.hpp:77] Creating layer rpn_big_loss_cls
I0413 19:03:49.452500 15071 net.cpp:150] Setting up rpn_big_loss_cls
I0413 19:03:49.452520 15071 net.cpp:157] Top shape: (1)
I0413 19:03:49.452527 15071 net.cpp:160]     with loss weight 1
I0413 19:03:49.452551 15071 net.cpp:165] Memory required for data: 3622336984
I0413 19:03:49.452559 15071 layer_factory.hpp:77] Creating layer rpn_big_output_box
I0413 19:03:49.452584 15071 net.cpp:100] Creating Layer rpn_big_output_box
I0413 19:03:49.452592 15071 net.cpp:434] rpn_big_output_box <- rpn_big_conv2_rpn_big_conv2_drop_0_split_1
I0413 19:03:49.452605 15071 net.cpp:408] rpn_big_output_box -> rpn_big_output_box
I0413 19:03:49.472784 15071 net.cpp:150] Setting up rpn_big_output_box
I0413 19:03:49.472812 15071 net.cpp:157] Top shape: 1 384 63 94 (2274048)
I0413 19:03:49.472825 15071 net.cpp:165] Memory required for data: 3631433176
I0413 19:03:49.472834 15071 layer_factory.hpp:77] Creating layer rpn_big_output_box_relu
I0413 19:03:49.472847 15071 net.cpp:100] Creating Layer rpn_big_output_box_relu
I0413 19:03:49.472856 15071 net.cpp:434] rpn_big_output_box_relu <- rpn_big_output_box
I0413 19:03:49.472868 15071 net.cpp:395] rpn_big_output_box_relu -> rpn_big_output_box (in-place)
I0413 19:03:49.472884 15071 net.cpp:150] Setting up rpn_big_output_box_relu
I0413 19:03:49.472893 15071 net.cpp:157] Top shape: 1 384 63 94 (2274048)
I0413 19:03:49.472898 15071 net.cpp:165] Memory required for data: 3640529368
I0413 19:03:49.472910 15071 layer_factory.hpp:77] Creating layer rpn_big_bbox_pred
I0413 19:03:49.472928 15071 net.cpp:100] Creating Layer rpn_big_bbox_pred
I0413 19:03:49.472937 15071 net.cpp:434] rpn_big_bbox_pred <- rpn_big_output_box
I0413 19:03:49.472951 15071 net.cpp:408] rpn_big_bbox_pred -> rpn_big_bbox_pred
I0413 19:03:49.477221 15071 net.cpp:150] Setting up rpn_big_bbox_pred
I0413 19:03:49.477241 15071 net.cpp:157] Top shape: 1 104 61 92 (583648)
I0413 19:03:49.477247 15071 net.cpp:165] Memory required for data: 3642863960
I0413 19:03:49.477258 15071 layer_factory.hpp:77] Creating layer rpn_big_bbox_pred_rpn_big_bbox_pred_0_split
I0413 19:03:49.477273 15071 net.cpp:100] Creating Layer rpn_big_bbox_pred_rpn_big_bbox_pred_0_split
I0413 19:03:49.477283 15071 net.cpp:434] rpn_big_bbox_pred_rpn_big_bbox_pred_0_split <- rpn_big_bbox_pred
I0413 19:03:49.477291 15071 net.cpp:408] rpn_big_bbox_pred_rpn_big_bbox_pred_0_split -> rpn_big_bbox_pred_rpn_big_bbox_pred_0_split_0
I0413 19:03:49.477308 15071 net.cpp:408] rpn_big_bbox_pred_rpn_big_bbox_pred_0_split -> rpn_big_bbox_pred_rpn_big_bbox_pred_0_split_1
I0413 19:03:49.477357 15071 net.cpp:150] Setting up rpn_big_bbox_pred_rpn_big_bbox_pred_0_split
I0413 19:03:49.477365 15071 net.cpp:157] Top shape: 1 104 61 92 (583648)
I0413 19:03:49.477370 15071 net.cpp:157] Top shape: 1 104 61 92 (583648)
I0413 19:03:49.477372 15071 net.cpp:165] Memory required for data: 3647533144
I0413 19:03:49.477376 15071 layer_factory.hpp:77] Creating layer rpn_big_loss_bbox
I0413 19:03:49.477816 15071 net.cpp:100] Creating Layer rpn_big_loss_bbox
I0413 19:03:49.477833 15071 net.cpp:434] rpn_big_loss_bbox <- rpn_big_bbox_pred_rpn_big_bbox_pred_0_split_0
I0413 19:03:49.477843 15071 net.cpp:434] rpn_big_loss_bbox <- rpn_big_anchor_target_bbox_targets
I0413 19:03:49.477849 15071 net.cpp:434] rpn_big_loss_bbox <- rpn_big_anchor_target_inside_weights
I0413 19:03:49.477854 15071 net.cpp:434] rpn_big_loss_bbox <- rpn_big_anchor_target_outside_weights
I0413 19:03:49.477861 15071 net.cpp:408] rpn_big_loss_bbox -> rpn_big_loss_bbox
I0413 19:03:49.479992 15071 net.cpp:150] Setting up rpn_big_loss_bbox
I0413 19:03:49.480022 15071 net.cpp:157] Top shape: 1 (1)
I0413 19:03:49.480026 15071 net.cpp:160]     with loss weight 1
I0413 19:03:49.480039 15071 net.cpp:165] Memory required for data: 3647533148
I0413 19:03:49.480046 15071 layer_factory.hpp:77] Creating layer proposal
I0413 19:03:49.480453 15071 net.cpp:100] Creating Layer proposal
I0413 19:03:49.480463 15071 net.cpp:434] proposal <- rpn_big_cls_prob_reshape_rpn_big_cls_prob_reshape_0_split_1
I0413 19:03:49.480471 15071 net.cpp:434] proposal <- rpn_big_bbox_pred_rpn_big_bbox_pred_0_split_1
I0413 19:03:49.480476 15071 net.cpp:434] proposal <- input_im_info_input_1_split_1
I0413 19:03:49.480484 15071 net.cpp:408] proposal -> rpn_rois
I0413 19:03:49.485586 15071 net.cpp:150] Setting up proposal
I0413 19:03:49.485610 15071 net.cpp:157] Top shape: 1 5 (5)
I0413 19:03:49.485622 15071 net.cpp:165] Memory required for data: 3647533168
I0413 19:03:49.485630 15071 layer_factory.hpp:77] Creating layer roi-data
I0413 19:03:49.487524 15071 net.cpp:100] Creating Layer roi-data
I0413 19:03:49.487541 15071 net.cpp:434] roi-data <- rpn_rois
I0413 19:03:49.487558 15071 net.cpp:434] roi-data <- input_gt_boxes_input_2_split_1
I0413 19:03:49.487565 15071 net.cpp:408] roi-data -> rois
I0413 19:03:49.487576 15071 net.cpp:408] roi-data -> labels
I0413 19:03:49.487582 15071 net.cpp:408] roi-data -> bbox_targets
I0413 19:03:49.487589 15071 net.cpp:408] roi-data -> bbox_inside_weights
I0413 19:03:49.487596 15071 net.cpp:408] roi-data -> bbox_outside_weights
I0413 19:03:49.487602 15071 net.cpp:408] roi-data -> pid_label
I0413 19:03:49.488569 15071 net.cpp:150] Setting up roi-data
I0413 19:03:49.488582 15071 net.cpp:157] Top shape: 1 5 (5)
I0413 19:03:49.488586 15071 net.cpp:157] Top shape: 1 1 (1)
I0413 19:03:49.488600 15071 net.cpp:157] Top shape: 1 8 (8)
I0413 19:03:49.488603 15071 net.cpp:157] Top shape: 1 8 (8)
I0413 19:03:49.488607 15071 net.cpp:157] Top shape: 1 8 (8)
I0413 19:03:49.488611 15071 net.cpp:157] Top shape: (0)
I0413 19:03:49.488613 15071 net.cpp:165] Memory required for data: 3647533288
I0413 19:03:49.488618 15071 layer_factory.hpp:77] Creating layer roi-pool
I0413 19:03:49.488626 15071 net.cpp:100] Creating Layer roi-pool
I0413 19:03:49.488631 15071 net.cpp:434] roi-pool <- conv5_3_relu5_3_0_split_1
I0413 19:03:49.488636 15071 net.cpp:434] roi-pool <- rois
I0413 19:03:49.488641 15071 net.cpp:408] roi-pool -> roi-pool
I0413 19:03:49.488648 15071 roi_pooling_layer.cpp:33] Spatial scale: 0.0625
I0413 19:03:49.488659 15071 roi_pooling_layer.cpp:34] Box scale: 1
I0413 19:03:49.488694 15071 net.cpp:150] Setting up roi-pool
I0413 19:03:49.488701 15071 net.cpp:157] Top shape: 1 512 7 7 (25088)
I0413 19:03:49.488705 15071 net.cpp:165] Memory required for data: 3647633640
I0413 19:03:49.488708 15071 layer_factory.hpp:77] Creating layer fc6
I0413 19:03:49.488714 15071 net.cpp:100] Creating Layer fc6
I0413 19:03:49.488718 15071 net.cpp:434] fc6 <- roi-pool
I0413 19:03:49.488723 15071 net.cpp:408] fc6 -> fc6
I0413 19:03:49.656074 15071 net.cpp:150] Setting up fc6
I0413 19:03:49.656107 15071 net.cpp:157] Top shape: 1 4096 (4096)
I0413 19:03:49.656121 15071 net.cpp:165] Memory required for data: 3647650024
I0413 19:03:49.656132 15071 layer_factory.hpp:77] Creating layer relu6
I0413 19:03:49.656142 15071 net.cpp:100] Creating Layer relu6
I0413 19:03:49.656148 15071 net.cpp:434] relu6 <- fc6
I0413 19:03:49.656155 15071 net.cpp:395] relu6 -> fc6 (in-place)
I0413 19:03:49.656167 15071 net.cpp:150] Setting up relu6
I0413 19:03:49.656170 15071 net.cpp:157] Top shape: 1 4096 (4096)
I0413 19:03:49.656173 15071 net.cpp:165] Memory required for data: 3647666408
I0413 19:03:49.656177 15071 layer_factory.hpp:77] Creating layer drop6
I0413 19:03:49.656183 15071 net.cpp:100] Creating Layer drop6
I0413 19:03:49.656186 15071 net.cpp:434] drop6 <- fc6
I0413 19:03:49.656190 15071 net.cpp:395] drop6 -> fc6 (in-place)
I0413 19:03:49.656211 15071 net.cpp:150] Setting up drop6
I0413 19:03:49.656217 15071 net.cpp:157] Top shape: 1 4096 (4096)
I0413 19:03:49.656219 15071 net.cpp:165] Memory required for data: 3647682792
I0413 19:03:49.656222 15071 layer_factory.hpp:77] Creating layer fc7
I0413 19:03:49.656229 15071 net.cpp:100] Creating Layer fc7
I0413 19:03:49.656232 15071 net.cpp:434] fc7 <- fc6
I0413 19:03:49.656237 15071 net.cpp:408] fc7 -> fc7
I0413 19:03:49.683326 15071 net.cpp:150] Setting up fc7
I0413 19:03:49.683360 15071 net.cpp:157] Top shape: 1 4096 (4096)
I0413 19:03:49.683364 15071 net.cpp:165] Memory required for data: 3647699176
I0413 19:03:49.683377 15071 layer_factory.hpp:77] Creating layer relu7
I0413 19:03:49.683398 15071 net.cpp:100] Creating Layer relu7
I0413 19:03:49.683403 15071 net.cpp:434] relu7 <- fc7
I0413 19:03:49.683408 15071 net.cpp:395] relu7 -> fc7 (in-place)
I0413 19:03:49.683418 15071 net.cpp:150] Setting up relu7
I0413 19:03:49.683423 15071 net.cpp:157] Top shape: 1 4096 (4096)
I0413 19:03:49.683425 15071 net.cpp:165] Memory required for data: 3647715560
I0413 19:03:49.683429 15071 layer_factory.hpp:77] Creating layer drop7
I0413 19:03:49.683435 15071 net.cpp:100] Creating Layer drop7
I0413 19:03:49.683439 15071 net.cpp:434] drop7 <- fc7
I0413 19:03:49.683444 15071 net.cpp:395] drop7 -> fc7 (in-place)
I0413 19:03:49.683464 15071 net.cpp:150] Setting up drop7
I0413 19:03:49.683470 15071 net.cpp:157] Top shape: 1 4096 (4096)
I0413 19:03:49.683472 15071 net.cpp:165] Memory required for data: 3647731944
I0413 19:03:49.683475 15071 layer_factory.hpp:77] Creating layer fc7_drop7_0_split
I0413 19:03:49.683481 15071 net.cpp:100] Creating Layer fc7_drop7_0_split
I0413 19:03:49.683485 15071 net.cpp:434] fc7_drop7_0_split <- fc7
I0413 19:03:49.683490 15071 net.cpp:408] fc7_drop7_0_split -> fc7_drop7_0_split_0
I0413 19:03:49.683504 15071 net.cpp:408] fc7_drop7_0_split -> fc7_drop7_0_split_1
I0413 19:03:49.683533 15071 net.cpp:150] Setting up fc7_drop7_0_split
I0413 19:03:49.683539 15071 net.cpp:157] Top shape: 1 4096 (4096)
I0413 19:03:49.683543 15071 net.cpp:157] Top shape: 1 4096 (4096)
I0413 19:03:49.683547 15071 net.cpp:165] Memory required for data: 3647764712
I0413 19:03:49.683549 15071 layer_factory.hpp:77] Creating layer bbox_pred
I0413 19:03:49.683557 15071 net.cpp:100] Creating Layer bbox_pred
I0413 19:03:49.683559 15071 net.cpp:434] bbox_pred <- fc7_drop7_0_split_0
I0413 19:03:49.683565 15071 net.cpp:408] bbox_pred -> bbox_pred
I0413 19:03:49.683982 15071 net.cpp:150] Setting up bbox_pred
I0413 19:03:49.683991 15071 net.cpp:157] Top shape: 1 8 (8)
I0413 19:03:49.683995 15071 net.cpp:165] Memory required for data: 3647764744
I0413 19:03:49.684000 15071 layer_factory.hpp:77] Creating layer loss_bbox
I0413 19:03:49.684007 15071 net.cpp:100] Creating Layer loss_bbox
I0413 19:03:49.684011 15071 net.cpp:434] loss_bbox <- bbox_pred
I0413 19:03:49.684015 15071 net.cpp:434] loss_bbox <- bbox_targets
I0413 19:03:49.684020 15071 net.cpp:434] loss_bbox <- bbox_inside_weights
I0413 19:03:49.684023 15071 net.cpp:434] loss_bbox <- bbox_outside_weights
I0413 19:03:49.684041 15071 net.cpp:408] loss_bbox -> loss_bbox
I0413 19:03:49.684105 15071 net.cpp:150] Setting up loss_bbox
I0413 19:03:49.684111 15071 net.cpp:157] Top shape: (1)
I0413 19:03:49.684114 15071 net.cpp:160]     with loss weight 1
I0413 19:03:49.684125 15071 net.cpp:165] Memory required for data: 3647764748
I0413 19:03:49.684128 15071 layer_factory.hpp:77] Creating layer feat
I0413 19:03:49.684134 15071 net.cpp:100] Creating Layer feat
I0413 19:03:49.684137 15071 net.cpp:434] feat <- fc7_drop7_0_split_1
I0413 19:03:49.684144 15071 net.cpp:408] feat -> feat
I0413 19:03:49.695278 15071 net.cpp:150] Setting up feat
I0413 19:03:49.695308 15071 net.cpp:157] Top shape: 1 256 (256)
I0413 19:03:49.695322 15071 net.cpp:165] Memory required for data: 3647765772
I0413 19:03:49.695333 15071 layer_factory.hpp:77] Creating layer relu8
I0413 19:03:49.695343 15071 net.cpp:100] Creating Layer relu8
I0413 19:03:49.695348 15071 net.cpp:434] relu8 <- feat
I0413 19:03:49.695354 15071 net.cpp:395] relu8 -> feat (in-place)
I0413 19:03:49.695364 15071 net.cpp:150] Setting up relu8
I0413 19:03:49.695369 15071 net.cpp:157] Top shape: 1 256 (256)
I0413 19:03:49.695371 15071 net.cpp:165] Memory required for data: 3647766796
I0413 19:03:49.695374 15071 layer_factory.hpp:77] Creating layer drop8
I0413 19:03:49.695380 15071 net.cpp:100] Creating Layer drop8
I0413 19:03:49.695384 15071 net.cpp:434] drop8 <- feat
I0413 19:03:49.695387 15071 net.cpp:395] drop8 -> feat (in-place)
I0413 19:03:49.695407 15071 net.cpp:150] Setting up drop8
I0413 19:03:49.695415 15071 net.cpp:157] Top shape: 1 256 (256)
I0413 19:03:49.695417 15071 net.cpp:165] Memory required for data: 3647767820
I0413 19:03:49.695420 15071 layer_factory.hpp:77] Creating layer pid_score
I0413 19:03:49.695426 15071 net.cpp:100] Creating Layer pid_score
I0413 19:03:49.695430 15071 net.cpp:434] pid_score <- feat
I0413 19:03:49.695436 15071 net.cpp:408] pid_score -> pid_score
I0413 19:03:49.710563 15071 net.cpp:150] Setting up pid_score
I0413 19:03:49.710593 15071 net.cpp:157] Top shape: 1 5533 (5533)
I0413 19:03:49.710597 15071 net.cpp:165] Memory required for data: 3647789952
I0413 19:03:49.710608 15071 layer_factory.hpp:77] Creating layer pid_loss
I0413 19:03:49.710621 15071 net.cpp:100] Creating Layer pid_loss
I0413 19:03:49.710628 15071 net.cpp:434] pid_loss <- pid_score
I0413 19:03:49.710634 15071 net.cpp:434] pid_loss <- pid_label
I0413 19:03:49.710640 15071 net.cpp:408] pid_loss -> pid_loss
…
