…
I0412 20:26:03.427278  4377 solver.cpp:48] Initializing solver from parameters: 
base_lr: 0.001
display: 20
lr_policy: "multistep"
gamma: 0.1
momentum: 0.9
weight_decay: 0.0005
snapshot: 0
snapshot_prefix: "faces_example"
net_param {
  name: "GeneratedModel_12_04_2017_20_26"
  layer {
    name: "input"
    type: "Python"
    top: "input_data"
    top: "input_im_info"
    top: "input_gt_boxes"
    top: "input_ignored_boxes"
    python_param {
      module: "layers.roi_data_layer"
      layer: "RoIDataLayer"
      param_str: "{\"num_classes\": 2}"
    }
  }
  layer {
    name: "conv1_1"
    type: "Convolution"
    bottom: "input_data"
    top: "conv1_1"
    param {
      lr_mult: 0
      decay_mult: 0
    }
    param {
      lr_mult: 0
      decay_mult: 0
    }
    convolution_param {
      num_output: 64
      pad: 1
      kernel_size: 3
    }
  }
  layer {
    name: "relu1_1"
    type: "ReLU"
    bottom: "conv1_1"
    top: "conv1_1"
  }
  layer {
    name: "conv1_2"
    type: "Convolution"
    bottom: "conv1_1"
    top: "conv1_2"
    param {
      lr_mult: 0
      decay_mult: 0
    }
    param {
      lr_mult: 0
      decay_mult: 0
    }
    convolution_param {
      num_output: 64
      pad: 1
      kernel_size: 3
    }
  }
  layer {
    name: "relu1_2"
    type: "ReLU"
    bottom: "conv1_2"
    top: "conv1_2"
  }
  layer {
    name: "pool1"
    type: "Pooling"
    bottom: "conv1_2"
    top: "pool1"
    pooling_param {
      pool: MAX
      kernel_size: 2
      stride: 2
    }
  }
  layer {
    name: "conv2_1"
    type: "Convolution"
    bottom: "pool1"
    top: "conv2_1"
    param {
      lr_mult: 0
      decay_mult: 0
    }
    param {
      lr_mult: 0
      decay_mult: 0
    }
    convolution_param {
      num_output: 128
      pad: 1
      kernel_size: 3
    }
  }
  layer {
    name: "relu2_1"
    type: "ReLU"
    bottom: "conv2_1"
    top: "conv2_1"
  }
  layer {
    name: "conv2_2"
    type: "Convolution"
    bottom: "conv2_1"
    top: "conv2_2"
    param {
      lr_mult: 0
      decay_mult: 0
    }
    param {
      lr_mult: 0
      decay_mult: 0
    }
    convolution_param {
      num_output: 128
      pad: 1
      kernel_size: 3
    }
  }
  layer {
    name: "relu2_2"
    type: "ReLU"
    bottom: "conv2_2"
    top: "conv2_2"
  }
  layer {
    name: "pool2"
    type: "Pooling"
    bottom: "conv2_2"
    top: "pool2"
    pooling_param {
      pool: MAX
      kernel_size: 2
      stride: 2
    }
  }
  layer {
    name: "conv3_1"
    type: "Convolution"
    bottom: "pool2"
    top: "conv3_1"
    param {
      lr_mult: 1
    }
    param {
      lr_mult: 2
    }
    convolution_param {
      num_output: 256
      pad: 1
      kernel_size: 3
    }
  }
  layer {
    name: "relu3_1"
    type: "ReLU"
    bottom: "conv3_1"
    top: "conv3_1"
  }
  layer {
    name: "conv3_2"
    type: "Convolution"
    bottom: "conv3_1"
    top: "conv3_2"
    param {
      lr_mult: 1
    }
    param {
      lr_mult: 2
    }
    convolution_param {
      num_output: 256
      pad: 1
      kernel_size: 3
    }
  }
  layer {
    name: "relu3_2"
    type: "ReLU"
    bottom: "conv3_2"
    top: "conv3_2"
  }
  layer {
    name: "conv3_3"
    type: "Convolution"
    bottom: "conv3_2"
    top: "conv3_3"
    param {
      lr_mult: 1
    }
    param {
      lr_mult: 2
    }
    convolution_param {
      num_output: 256
      pad: 1
      kernel_size: 3
    }
  }
  layer {
    name: "relu3_3"
    type: "ReLU"
    bottom: "conv3_3"
    top: "conv3_3"
  }
  layer {
    name: "pool3"
    type: "Pooling"
    bottom: "conv3_3"
    top: "pool3"
    pooling_param {
      pool: MAX
      kernel_size: 2
      stride: 2
    }
  }
  layer {
    name: "conv4_1"
    type: "Convolution"
    bottom: "pool3"
    top: "conv4_1"
    param {
      lr_mult: 1
    }
    param {
      lr_mult: 2
    }
    convolution_param {
      num_output: 512
      pad: 1
      kernel_size: 3
    }
  }
  layer {
    name: "relu4_1"
    type: "ReLU"
    bottom: "conv4_1"
    top: "conv4_1"
  }
  layer {
    name: "conv4_2"
    type: "Convolution"
    bottom: "conv4_1"
    top: "conv4_2"
    param {
      lr_mult: 1
    }
    param {
      lr_mult: 2
    }
    convolution_param {
      num_output: 512
      pad: 1
      kernel_size: 3
    }
  }
  layer {
    name: "relu4_2"
    type: "ReLU"
    bottom: "conv4_2"
    top: "conv4_2"
  }
  layer {
    name: "conv4_3"
    type: "Convolution"
    bottom: "conv4_2"
    top: "conv4_3"
    param {
      lr_mult: 1
    }
    param {
      lr_mult: 2
    }
    convolution_param {
      num_output: 512
      pad: 1
      kernel_size: 3
    }
  }
  layer {
    name: "relu4_3"
    type: "ReLU"
    bottom: "conv4_3"
    top: "conv4_3"
  }
  layer {
    name: "pool4"
    type: "Pooling"
    bottom: "conv4_3"
    top: "pool4"
    pooling_param {
      pool: MAX
      kernel_size: 2
      stride: 2
    }
  }
  layer {
    name: "conv5_1"
    type: "Convolution"
    bottom: "pool4"
    top: "conv5_1"
    param {
      lr_mult: 1
    }
    param {
      lr_mult: 2
    }
    convolution_param {
      num_output: 512
      pad: 1
      kernel_size: 3
    }
  }
  layer {
    name: "relu5_1"
    type: "ReLU"
    bottom: "conv5_1"
    top: "conv5_1"
  }
  layer {
    name: "conv5_2"
    type: "Convolution"
    bottom: "conv5_1"
    top: "conv5_2"
    param {
      lr_mult: 1
    }
    param {
      lr_mult: 2
    }
    convolution_param {
      num_output: 512
      pad: 1
      kernel_size: 3
    }
  }
  layer {
    name: "relu5_2"
    type: "ReLU"
    bottom: "conv5_2"
    top: "conv5_2"
  }
  layer {
    name: "conv5_3"
    type: "Convolution"
    bottom: "conv5_2"
    top: "conv5_3"
    param {
      lr_mult: 1
    }
    param {
      lr_mult: 2
    }
    convolution_param {
      num_output: 512
      pad: 1
      kernel_size: 3
    }
  }
  layer {
    name: "relu5_3"
    type: "ReLU"
    bottom: "conv5_3"
    top: "conv5_3"
  }
  layer {
    name: "rpn_big_conv1"
    type: "Convolution"
    bottom: "conv5_3"
    top: "rpn_big_conv1"
    param {
      lr_mult: 1
    }
    param {
      lr_mult: 2
    }
    convolution_param {
      num_output: 512
      pad: 1
      kernel_size: 3
      stride: 1
      weight_filler {
        type: "gaussian"
        mean: 0
        std: 0.01
      }
      bias_filler {
        type: "constant"
      }
    }
  }
  layer {
    name: "rpn_big_conv1_relu"
    type: "ReLU"
    bottom: "rpn_big_conv1"
    top: "rpn_big_conv1"
    relu_param {
      negative_slope: 0
    }
  }
  layer {
    name: "rpn_big_conv2"
    type: "Convolution"
    bottom: "rpn_big_conv1"
    top: "rpn_big_conv2"
    param {
      lr_mult: 1
    }
    param {
      lr_mult: 2
    }
    convolution_param {
      num_output: 512
      pad: 1
      kernel_size: 3
      stride: 1
      weight_filler {
        type: "gaussian"
        mean: 0
        std: 0.01
      }
      bias_filler {
        type: "constant"
      }
    }
  }
  layer {
    name: "rpn_big_conv2_relu"
    type: "ReLU"
    bottom: "rpn_big_conv2"
    top: "rpn_big_conv2"
    relu_param {
      negative_slope: 0
    }
  }
  layer {
    name: "rpn_big_conv2_drop"
    type: "Dropout"
    bottom: "rpn_big_conv2"
    top: "rpn_big_conv2"
    dropout_param {
      dropout_ratio: 0.3
    }
  }
  layer {
    name: "rpn_big_output_cls"
    type: "Convolution"
    bottom: "rpn_big_conv2"
    top: "rpn_big_output_cls"
    param {
      lr_mult: 1
    }
    param {
      lr_mult: 2
    }
    convolution_param {
      num_output: 384
      pad: 1
      kernel_size: 3
      stride: 1
      weight_filler {
        type: "gaussian"
        mean: 0
        std: 0.01
      }
      bias_filler {
        type: "constant"
      }
    }
  }
  layer {
    name: "rpn_big_output_cls_relu"
    type: "ReLU"
    bottom: "rpn_big_output_cls"
    top: "rpn_big_output_cls"
    relu_param {
      negative_slope: 0
    }
  }
  layer {
    name: "rpn_big_cls_score"
    type: "Convolution"
    bottom: "rpn_big_output_cls"
    top: "rpn_big_cls_score"
    param {
      lr_mult: 1
    }
    param {
      lr_mult: 2
    }
    convolution_param {
      num_output: 52
      pad: 0
      kernel_size: 3
      stride: 1
      weight_filler {
        type: "gaussian"
        mean: 0
        std: 0.01
      }
      bias_filler {
        type: "constant"
      }
    }
  }
  layer {
    name: "rpn_big_cls_score_reshape"
    type: "Reshape"
    bottom: "rpn_big_cls_score"
    top: "rpn_big_cls_score_reshape"
    reshape_param {
      shape {
        dim: 0
        dim: 2
        dim: -1
        dim: 0
      }
    }
  }
  layer {
    name: "rpn_big_cls_prob"
    type: "Softmax"
    bottom: "rpn_big_cls_score_reshape"
    top: "rpn_big_cls_prob"
  }
  layer {
    name: "rpn_big_cls_prob_reshape"
    type: "Reshape"
    bottom: "rpn_big_cls_prob"
    top: "rpn_big_cls_prob_reshape"
    reshape_param {
      shape {
        dim: 0
        dim: 52
        dim: -1
        dim: 0
      }
    }
  }
  layer {
    name: "rpn_big_anchor_target"
    type: "Python"
    bottom: "rpn_big_cls_score"
    bottom: "input_gt_boxes"
    bottom: "input_ignored_boxes"
    bottom: "input_im_info"
    bottom: "input_data"
    bottom: "rpn_big_cls_prob_reshape"
    top: "rpn_big_anchor_target_labels"
    top: "rpn_big_anchor_target_bbox_targets"
    top: "rpn_big_anchor_target_inside_weights"
    top: "rpn_big_anchor_target_outside_weights"
    python_param {
      module: "rpn.anchor_target_layer"
      layer: "AnchorTargetLayer"
      param_str: "{\"anchor_ratios\": [1.0], \"anchor_scales\": [2.5, 3.025, 3.66025, 4.4289024999999995, 5.358972025, 6.484356150249999, 7.846070941802498, 9.493745839581022, 11.487432465893036, 13.899793283730574, 16.818749873313998, 20.350687346709933, 24.62433168951902, 29.795441344318014], \"positive_overlap\": 0.6, \"anchor_shift_num_xy\": [[2, 2], [2, 2], [2, 2], [2, 2], [1, 1], [1, 1], [1, 1], [1, 1], [1, 1], [1, 1], [1, 1], [1, 1], [1, 1], [1, 1]], \"batchsize\": 256, \"fg_fraction\": 0.5, \"feat_stride\": 16, \"name\": \"rpn_big\", \"negative_overlap\": 0.4, \"num_classes\": 1, \"tn_fraction\": 0.2, \"square_targets\": true}"
    }
  }
  layer {
    name: "rpn_big_loss_cls"
    type: "SoftmaxWithLoss"
    bottom: "rpn_big_cls_score_reshape"
    bottom: "rpn_big_anchor_target_labels"
    top: "rpn_big_loss_cls"
    loss_weight: 1
    propagate_down: true
    propagate_down: false
    loss_param {
      ignore_label: -1
      normalization: VALID
    }
  }
  layer {
    name: "rpn_big_output_box"
    type: "Convolution"
    bottom: "rpn_big_conv2"
    top: "rpn_big_output_box"
    param {
      lr_mult: 1
    }
    param {
      lr_mult: 2
    }
    convolution_param {
      num_output: 384
      pad: 1
      kernel_size: 3
      stride: 1
      weight_filler {
        type: "gaussian"
        mean: 0
        std: 0.01
      }
      bias_filler {
        type: "constant"
      }
    }
  }
  layer {
    name: "rpn_big_output_box_relu"
    type: "ReLU"
    bottom: "rpn_big_output_box"
    top: "rpn_big_output_box"
    relu_param {
      negative_slope: 0
    }
  }
  layer {
    name: "rpn_big_bbox_pred"
    type: "Convolution"
    bottom: "rpn_big_output_box"
    top: "rpn_big_bbox_pred"
    param {
      lr_mult: 1
    }
    param {
      lr_mult: 2
    }
    convolution_param {
      num_output: 104
      pad: 0
      kernel_size: 3
      stride: 1
      weight_filler {
        type: "gaussian"
        mean: 0
        std: 0.01
      }
      bias_filler {
        type: "constant"
      }
    }
  }
  layer {
    name: "rpn_big_loss_bbox"
    type: "Python"
    bottom: "rpn_big_bbox_pred"
    bottom: "rpn_big_anchor_target_bbox_targets"
    bottom: "rpn_big_anchor_target_inside_weights"
    bottom: "rpn_big_anchor_target_outside_weights"
    top: "rpn_big_loss_bbox"
    loss_weight: 1
    python_param {
      module: "layers.smooth_l1_loss"
      layer: "SmoothL1LossLayer"
      param_str: "{\"sigma\": 3}"
    }
  }
}
average_loss: 100
stepvalue: 70000
stepvalue: 120000
iter_size: 2
I0412 20:26:03.427347  4377 solver.cpp:86] Creating training net specified in net_param.
I0412 20:26:03.427718  4377 net.cpp:58] Initializing net from parameters: 
name: "GeneratedModel_12_04_2017_20_26"
state {
  phase: TRAIN
}
layer {
  name: "input"
  type: "Python"
  top: "input_data"
  top: "input_im_info"
  top: "input_gt_boxes"
  top: "input_ignored_boxes"
  python_param {
    module: "layers.roi_data_layer"
    layer: "RoIDataLayer"
    param_str: "{\"num_classes\": 2}"
  }
}
layer {
  name: "conv1_1"
  type: "Convolution"
  bottom: "input_data"
  top: "conv1_1"
  param {
    lr_mult: 0
    decay_mult: 0
  }
  param {
    lr_mult: 0
    decay_mult: 0
  }
  convolution_param {
    num_output: 64
    pad: 1
    kernel_size: 3
  }
}
layer {
  name: "relu1_1"
  type: "ReLU"
  bottom: "conv1_1"
  top: "conv1_1"
}
layer {
  name: "conv1_2"
  type: "Convolution"
  bottom: "conv1_1"
  top: "conv1_2"
  param {
    lr_mult: 0
    decay_mult: 0
  }
  param {
    lr_mult: 0
    decay_mult: 0
  }
  convolution_param {
    num_output: 64
    pad: 1
    kernel_size: 3
  }
}
layer {
  name: "relu1_2"
  type: "ReLU"
  bottom: "conv1_2"
  top: "conv1_2"
}
layer {
  name: "pool1"
  type: "Pooling"
  bottom: "conv1_2"
  top: "pool1"
  pooling_param {
    pool: MAX
    kernel_size: 2
    stride: 2
  }
}
layer {
  name: "conv2_1"
  type: "Convolution"
  bottom: "pool1"
  top: "conv2_1"
  param {
    lr_mult: 0
    decay_mult: 0
  }
  param {
    lr_mult: 0
    decay_mult: 0
  }
  convolution_param {
    num_output: 128
    pad: 1
    kernel_size: 3
  }
}
layer {
  name: "relu2_1"
  type: "ReLU"
  bottom: "conv2_1"
  top: "conv2_1"
}
layer {
  name: "conv2_2"
  type: "Convolution"
  bottom: "conv2_1"
  top: "conv2_2"
  param {
    lr_mult: 0
    decay_mult: 0
  }
  param {
    lr_mult: 0
    decay_mult: 0
  }
  convolution_param {
    num_output: 128
    pad: 1
    kernel_size: 3
  }
}
layer {
  name: "relu2_2"
  type: "ReLU"
  bottom: "conv2_2"
  top: "conv2_2"
}
layer {
  name: "pool2"
  type: "Pooling"
  bottom: "conv2_2"
  top: "pool2"
  pooling_param {
    pool: MAX
    kernel_size: 2
    stride: 2
  }
}
layer {
  name: "conv3_1"
  type: "Convolution"
  bottom: "pool2"
  top: "conv3_1"
  param {
    lr_mult: 1
  }
  param {
    lr_mult: 2
  }
  convolution_param {
    num_output: 256
    pad: 1
    kernel_size: 3
  }
}
layer {
  name: "relu3_1"
  type: "ReLU"
  bottom: "conv3_1"
  top: "conv3_1"
}
layer {
  name: "conv3_2"
  type: "Convolution"
  bottom: "conv3_1"
  top: "conv3_2"
  param {
    lr_mult: 1
  }
  param {
    lr_mult: 2
  }
  convolution_param {
    num_output: 256
    pad: 1
    kernel_size: 3
  }
}
layer {
  name: "relu3_2"
  type: "ReLU"
  bottom: "conv3_2"
  top: "conv3_2"
}
layer {
  name: "conv3_3"
  type: "Convolution"
  bottom: "conv3_2"
  top: "conv3_3"
  param {
    lr_mult: 1
  }
  param {
    lr_mult: 2
  }
  convolution_param {
    num_output: 256
    pad: 1
    kernel_size: 3
  }
}
layer {
  name: "relu3_3"
  type: "ReLU"
  bottom: "conv3_3"
  top: "conv3_3"
}
layer {
  name: "pool3"
  type: "Pooling"
  bottom: "conv3_3"
  top: "pool3"
  pooling_param {
    pool: MAX
    kernel_size: 2
    stride: 2
  }
}
layer {
  name: "conv4_1"
  type: "Convolution"
  bottom: "pool3"
  top: "conv4_1"
  param {
    lr_mult: 1
  }
  param {
    lr_mult: 2
  }
  convolution_param {
    num_output: 512
    pad: 1
    kernel_size: 3
  }
}
layer {
  name: "relu4_1"
  type: "ReLU"
  bottom: "conv4_1"
  top: "conv4_1"
}
layer {
  name: "conv4_2"
  type: "Convolution"
  bottom: "conv4_1"
  top: "conv4_2"
  param {
    lr_mult: 1
  }
  param {
    lr_mult: 2
  }
  convolution_param {
    num_output: 512
    pad: 1
    kernel_size: 3
  }
}
layer {
  name: "relu4_2"
  type: "ReLU"
  bottom: "conv4_2"
  top: "conv4_2"
}
layer {
  name: "conv4_3"
  type: "Convolution"
  bottom: "conv4_2"
  top: "conv4_3"
  param {
    lr_mult: 1
  }
  param {
    lr_mult: 2
  }
  convolution_param {
    num_output: 512
    pad: 1
    kernel_size: 3
  }
}
layer {
  name: "relu4_3"
  type: "ReLU"
  bottom: "conv4_3"
  top: "conv4_3"
}
layer {
  name: "pool4"
  type: "Pooling"
  bottom: "conv4_3"
  top: "pool4"
  pooling_param {
    pool: MAX
    kernel_size: 2
    stride: 2
  }
}
layer {
  name: "conv5_1"
  type: "Convolution"
  bottom: "pool4"
  top: "conv5_1"
  param {
    lr_mult: 1
  }
  param {
    lr_mult: 2
  }
  convolution_param {
    num_output: 512
    pad: 1
    kernel_size: 3
  }
}
layer {
  name: "relu5_1"
  type: "ReLU"
  bottom: "conv5_1"
  top: "conv5_1"
}
layer {
  name: "conv5_2"
  type: "Convolution"
  bottom: "conv5_1"
  top: "conv5_2"
  param {
    lr_mult: 1
  }
  param {
    lr_mult: 2
  }
  convolution_param {
    num_output: 512
    pad: 1
    kernel_size: 3
  }
}
layer {
  name: "relu5_2"
  type: "ReLU"
  bottom: "conv5_2"
  top: "conv5_2"
}
layer {
  name: "conv5_3"
  type: "Convolution"
  bottom: "conv5_2"
  top: "conv5_3"
  param {
    lr_mult: 1
  }
  param {
    lr_mult: 2
  }
  convolution_param {
    num_output: 512
    pad: 1
    kernel_size: 3
  }
}
layer {
  name: "relu5_3"
  type: "ReLU"
  bottom: "conv5_3"
  top: "conv5_3"
}
layer {
  name: "rpn_big_conv1"
  type: "Convolution"
  bottom: "conv5_3"
  top: "rpn_big_conv1"
  param {
    lr_mult: 1
  }
  param {
    lr_mult: 2
  }
  convolution_param {
    num_output: 512
    pad: 1
    kernel_size: 3
    stride: 1
    weight_filler {
      type: "gaussian"
      mean: 0
      std: 0.01
    }
    bias_filler {
      type: "constant"
    }
  }
}
layer {
  name: "rpn_big_conv1_relu"
  type: "ReLU"
  bottom: "rpn_big_conv1"
  top: "rpn_big_conv1"
  relu_param {
    negative_slope: 0
  }
}
layer {
  name: "rpn_big_conv2"
  type: "Convolution"
  bottom: "rpn_big_conv1"
  top: "rpn_big_conv2"
  param {
    lr_mult: 1
  }
  param {
    lr_mult: 2
  }
  convolution_param {
    num_output: 512
    pad: 1
    kernel_size: 3
    stride: 1
    weight_filler {
      type: "gaussian"
      mean: 0
      std: 0.01
    }
    bias_filler {
      type: "constant"
    }
  }
}
layer {
  name: "rpn_big_conv2_relu"
  type: "ReLU"
  bottom: "rpn_big_conv2"
  top: "rpn_big_conv2"
  relu_param {
    negative_slope: 0
  }
}
layer {
  name: "rpn_big_conv2_drop"
  type: "Dropout"
  bottom: "rpn_big_conv2"
  top: "rpn_big_conv2"
  dropout_param {
    dropout_ratio: 0.3
  }
}
layer {
  name: "rpn_big_output_cls"
  type: "Convolution"
  bottom: "rpn_big_conv2"
  top: "rpn_big_output_cls"
  param {
    lr_mult: 1
  }
  param {
    lr_mult: 2
  }
  convolution_param {
    num_output: 384
    pad: 1
    kernel_size: 3
    stride: 1
    weight_filler {
      type: "gaussian"
      mean: 0
      std: 0.01
    }
    bias_filler {
      type: "constant"
    }
  }
}
layer {
  name: "rpn_big_output_cls_relu"
  type: "ReLU"
  bottom: "rpn_big_output_cls"
  top: "rpn_big_output_cls"
  relu_param {
    negative_slope: 0
  }
}
layer {
  name: "rpn_big_cls_score"
  type: "Convolution"
  bottom: "rpn_big_output_cls"
  top: "rpn_big_cls_score"
  param {
    lr_mult: 1
  }
  param {
    lr_mult: 2
  }
  convolution_param {
    num_output: 52
    pad: 0
    kernel_size: 3
    stride: 1
    weight_filler {
      type: "gaussian"
      mean: 0
      std: 0.01
    }
    bias_filler {
      type: "constant"
    }
  }
}
layer {
  name: "rpn_big_cls_score_reshape"
  type: "Reshape"
  bottom: "rpn_big_cls_score"
  top: "rpn_big_cls_score_reshape"
  reshape_param {
    shape {
      dim: 0
      dim: 2
      dim: -1
      dim: 0
    }
  }
}
layer {
  name: "rpn_big_cls_prob"
  type: "Softmax"
  bottom: "rpn_big_cls_score_reshape"
  top: "rpn_big_cls_prob"
}
layer {
  name: "rpn_big_cls_prob_reshape"
  type: "Reshape"
  bottom: "rpn_big_cls_prob"
  top: "rpn_big_cls_prob_reshape"
  reshape_param {
    shape {
      dim: 0
      dim: 52
      dim: -1
      dim: 0
    }
  }
}
layer {
  name: "rpn_big_anchor_target"
  type: "Python"
  bottom: "rpn_big_cls_score"
  bottom: "input_gt_boxes"
  bottom: "input_ignored_boxes"
  bottom: "input_im_info"
  bottom: "input_data"
  bottom: "rpn_big_cls_prob_reshape"
  top: "rpn_big_anchor_target_labels"
  top: "rpn_big_anchor_target_bbox_targets"
  top: "rpn_big_anchor_target_inside_weights"
  top: "rpn_big_anchor_target_outside_weights"
  python_param {
    module: "rpn.anchor_target_layer"
    layer: "AnchorTargetLayer"
    param_str: "{\"anchor_ratios\": [1.0], \"anchor_scales\": [2.5, 3.025, 3.66025, 4.4289024999999995, 5.358972025, 6.484356150249999, 7.846070941802498, 9.493745839581022, 11.487432465893036, 13.899793283730574, 16.818749873313998, 20.350687346709933, 24.62433168951902, 29.795441344318014], \"positive_overlap\": 0.6, \"anchor_shift_num_xy\": [[2, 2], [2, 2], [2, 2], [2, 2], [1, 1], [1, 1], [1, 1], [1, 1], [1, 1], [1, 1], [1, 1], [1, 1], [1, 1], [1, 1]], \"batchsize\": 256, \"fg_fraction\": 0.5, \"feat_stride\": 16, \"name\": \"rpn_big\", \"negative_overlap\": 0.4, \"num_classes\": 1, \"tn_fraction\": 0.2, \"square_targets\": true}"
  }
}
layer {
  name: "rpn_big_loss_cls"
  type: "SoftmaxWithLoss"
  bottom: "rpn_big_cls_score_reshape"
  bottom: "rpn_big_anchor_target_labels"
  top: "rpn_big_loss_cls"
  loss_weight: 1
  propagate_down: true
  propagate_down: false
  loss_param {
    ignore_label: -1
    normalization: VALID
  }
}
layer {
  name: "rpn_big_output_box"
  type: "Convolution"
  bottom: "rpn_big_conv2"
  top: "rpn_big_output_box"
  param {
    lr_mult: 1
  }
  param {
    lr_mult: 2
  }
  convolution_param {
    num_output: 384
    pad: 1
    kernel_size: 3
    stride: 1
    weight_filler {
      type: "gaussian"
      mean: 0
      std: 0.01
    }
    bias_filler {
      type: "constant"
    }
  }
}
layer {
  name: "rpn_big_output_box_relu"
  type: "ReLU"
  bottom: "rpn_big_output_box"
  top: "rpn_big_output_box"
  relu_param {
    negative_slope: 0
  }
}
layer {
  name: "rpn_big_bbox_pred"
  type: "Convolution"
  bottom: "rpn_big_output_box"
  top: "rpn_big_bbox_pred"
  param {
    lr_mult: 1
  }
  param {
    lr_mult: 2
  }
  convolution_param {
    num_output: 104
    pad: 0
    kernel_size: 3
    stride: 1
    weight_filler {
      type: "gaussian"
      mean: 0
      std: 0.01
    }
    bias_filler {
      type: "constant"
    }
  }
}
layer {
  name: "rpn_big_loss_bbox"
  type: "Python"
  bottom: "rpn_big_bbox_pred"
  bottom: "rpn_big_anchor_target_bbox_targets"
  bottom: "rpn_big_anchor_target_inside_weights"
  bottom: "rpn_big_anchor_target_outside_weights"
  top: "rpn_big_loss_bbox"
  loss_weight: 1
  python_param {
    module: "layers.smooth_l1_loss"
    layer: "SmoothL1LossLayer"
    param_str: "{\"sigma\": 3}"
  }
}
I0412 20:26:03.427891  4377 layer_factory.hpp:77] Creating layer input
I0412 20:26:03.429694  4377 net.cpp:100] Creating Layer input
I0412 20:26:03.429720  4377 net.cpp:408] input -> input_data
I0412 20:26:03.429736  4377 net.cpp:408] input -> input_im_info
I0412 20:26:03.429746  4377 net.cpp:408] input -> input_gt_boxes
I0412 20:26:03.429756  4377 net.cpp:408] input -> input_ignored_boxes
RoiDataLayer: name_to_top: {'data': 0, 'im_info': 1, 'ignored_boxes': 3, 'gt_boxes': 2}
I0412 20:26:03.748092  4377 net.cpp:150] Setting up input
I0412 20:26:03.748121  4377 net.cpp:157] Top shape: 1 3 1000 1500 (4500000)
I0412 20:26:03.748131  4377 net.cpp:157] Top shape: 1 3 (3)
I0412 20:26:03.748136  4377 net.cpp:157] Top shape: 1 5 (5)
I0412 20:26:03.748143  4377 net.cpp:157] Top shape: 1 5 (5)
I0412 20:26:03.748147  4377 net.cpp:165] Memory required for data: 18000052
I0412 20:26:03.748157  4377 layer_factory.hpp:77] Creating layer input_data_input_0_split
I0412 20:26:03.748175  4377 net.cpp:100] Creating Layer input_data_input_0_split
I0412 20:26:03.748186  4377 net.cpp:434] input_data_input_0_split <- input_data
I0412 20:26:03.748199  4377 net.cpp:408] input_data_input_0_split -> input_data_input_0_split_0
I0412 20:26:03.748215  4377 net.cpp:408] input_data_input_0_split -> input_data_input_0_split_1
I0412 20:26:03.748250  4377 net.cpp:150] Setting up input_data_input_0_split
I0412 20:26:03.748256  4377 net.cpp:157] Top shape: 1 3 1000 1500 (4500000)
I0412 20:26:03.748261  4377 net.cpp:157] Top shape: 1 3 1000 1500 (4500000)
I0412 20:26:03.748265  4377 net.cpp:165] Memory required for data: 54000052
I0412 20:26:03.748267  4377 layer_factory.hpp:77] Creating layer conv1_1
I0412 20:26:03.748278  4377 net.cpp:100] Creating Layer conv1_1
I0412 20:26:03.748282  4377 net.cpp:434] conv1_1 <- input_data_input_0_split_0
I0412 20:26:03.748287  4377 net.cpp:408] conv1_1 -> conv1_1
I0412 20:26:03.751735  4377 net.cpp:150] Setting up conv1_1
I0412 20:26:03.751786  4377 net.cpp:157] Top shape: 1 64 1000 1500 (96000000)
I0412 20:26:03.751794  4377 net.cpp:165] Memory required for data: 438000052
I0412 20:26:03.751821  4377 layer_factory.hpp:77] Creating layer relu1_1
I0412 20:26:03.751838  4377 net.cpp:100] Creating Layer relu1_1
I0412 20:26:03.751847  4377 net.cpp:434] relu1_1 <- conv1_1
I0412 20:26:03.751857  4377 net.cpp:395] relu1_1 -> conv1_1 (in-place)
I0412 20:26:03.751871  4377 net.cpp:150] Setting up relu1_1
I0412 20:26:03.751880  4377 net.cpp:157] Top shape: 1 64 1000 1500 (96000000)
I0412 20:26:03.751885  4377 net.cpp:165] Memory required for data: 822000052
I0412 20:26:03.751890  4377 layer_factory.hpp:77] Creating layer conv1_2
I0412 20:26:03.751906  4377 net.cpp:100] Creating Layer conv1_2
I0412 20:26:03.751912  4377 net.cpp:434] conv1_2 <- conv1_1
I0412 20:26:03.751924  4377 net.cpp:408] conv1_2 -> conv1_2
I0412 20:26:03.756121  4377 net.cpp:150] Setting up conv1_2
I0412 20:26:03.756155  4377 net.cpp:157] Top shape: 1 64 1000 1500 (96000000)
I0412 20:26:03.756168  4377 net.cpp:165] Memory required for data: 1206000052
I0412 20:26:03.756184  4377 layer_factory.hpp:77] Creating layer relu1_2
I0412 20:26:03.756196  4377 net.cpp:100] Creating Layer relu1_2
I0412 20:26:03.756201  4377 net.cpp:434] relu1_2 <- conv1_2
I0412 20:26:03.756209  4377 net.cpp:395] relu1_2 -> conv1_2 (in-place)
I0412 20:26:03.756220  4377 net.cpp:150] Setting up relu1_2
I0412 20:26:03.756225  4377 net.cpp:157] Top shape: 1 64 1000 1500 (96000000)
I0412 20:26:03.756228  4377 net.cpp:165] Memory required for data: 1590000052
I0412 20:26:03.756232  4377 layer_factory.hpp:77] Creating layer pool1
I0412 20:26:03.756237  4377 net.cpp:100] Creating Layer pool1
I0412 20:26:03.756240  4377 net.cpp:434] pool1 <- conv1_2
I0412 20:26:03.756245  4377 net.cpp:408] pool1 -> pool1
I0412 20:26:03.756316  4377 net.cpp:150] Setting up pool1
I0412 20:26:03.756327  4377 net.cpp:157] Top shape: 1 64 500 750 (24000000)
I0412 20:26:03.756330  4377 net.cpp:165] Memory required for data: 1686000052
I0412 20:26:03.756333  4377 layer_factory.hpp:77] Creating layer conv2_1
I0412 20:26:03.756342  4377 net.cpp:100] Creating Layer conv2_1
I0412 20:26:03.756348  4377 net.cpp:434] conv2_1 <- pool1
I0412 20:26:03.756362  4377 net.cpp:408] conv2_1 -> conv2_1
I0412 20:26:03.757540  4377 net.cpp:150] Setting up conv2_1
I0412 20:26:03.757561  4377 net.cpp:157] Top shape: 1 128 500 750 (48000000)
I0412 20:26:03.757565  4377 net.cpp:165] Memory required for data: 1878000052
I0412 20:26:03.757586  4377 layer_factory.hpp:77] Creating layer relu2_1
I0412 20:26:03.757596  4377 net.cpp:100] Creating Layer relu2_1
I0412 20:26:03.757601  4377 net.cpp:434] relu2_1 <- conv2_1
I0412 20:26:03.757606  4377 net.cpp:395] relu2_1 -> conv2_1 (in-place)
I0412 20:26:03.757612  4377 net.cpp:150] Setting up relu2_1
I0412 20:26:03.757617  4377 net.cpp:157] Top shape: 1 128 500 750 (48000000)
I0412 20:26:03.757621  4377 net.cpp:165] Memory required for data: 2070000052
I0412 20:26:03.757623  4377 layer_factory.hpp:77] Creating layer conv2_2
I0412 20:26:03.757632  4377 net.cpp:100] Creating Layer conv2_2
I0412 20:26:03.757635  4377 net.cpp:434] conv2_2 <- conv2_1
I0412 20:26:03.757640  4377 net.cpp:408] conv2_2 -> conv2_2
I0412 20:26:03.758563  4377 net.cpp:150] Setting up conv2_2
I0412 20:26:03.758586  4377 net.cpp:157] Top shape: 1 128 500 750 (48000000)
I0412 20:26:03.758589  4377 net.cpp:165] Memory required for data: 2262000052
I0412 20:26:03.758608  4377 layer_factory.hpp:77] Creating layer relu2_2
I0412 20:26:03.758616  4377 net.cpp:100] Creating Layer relu2_2
I0412 20:26:03.758621  4377 net.cpp:434] relu2_2 <- conv2_2
I0412 20:26:03.758628  4377 net.cpp:395] relu2_2 -> conv2_2 (in-place)
I0412 20:26:03.758637  4377 net.cpp:150] Setting up relu2_2
I0412 20:26:03.758642  4377 net.cpp:157] Top shape: 1 128 500 750 (48000000)
I0412 20:26:03.758646  4377 net.cpp:165] Memory required for data: 2454000052
I0412 20:26:03.758648  4377 layer_factory.hpp:77] Creating layer pool2
I0412 20:26:03.758653  4377 net.cpp:100] Creating Layer pool2
I0412 20:26:03.758656  4377 net.cpp:434] pool2 <- conv2_2
I0412 20:26:03.758663  4377 net.cpp:408] pool2 -> pool2
I0412 20:26:03.758703  4377 net.cpp:150] Setting up pool2
I0412 20:26:03.758711  4377 net.cpp:157] Top shape: 1 128 250 375 (12000000)
I0412 20:26:03.758714  4377 net.cpp:165] Memory required for data: 2502000052
I0412 20:26:03.758718  4377 layer_factory.hpp:77] Creating layer conv3_1
I0412 20:26:03.758726  4377 net.cpp:100] Creating Layer conv3_1
I0412 20:26:03.758730  4377 net.cpp:434] conv3_1 <- pool2
I0412 20:26:03.758736  4377 net.cpp:408] conv3_1 -> conv3_1
I0412 20:26:03.759847  4377 net.cpp:150] Setting up conv3_1
I0412 20:26:03.759872  4377 net.cpp:157] Top shape: 1 256 250 375 (24000000)
I0412 20:26:03.759884  4377 net.cpp:165] Memory required for data: 2598000052
I0412 20:26:03.759901  4377 layer_factory.hpp:77] Creating layer relu3_1
I0412 20:26:03.759908  4377 net.cpp:100] Creating Layer relu3_1
I0412 20:26:03.759913  4377 net.cpp:434] relu3_1 <- conv3_1
I0412 20:26:03.759919  4377 net.cpp:395] relu3_1 -> conv3_1 (in-place)
I0412 20:26:03.759928  4377 net.cpp:150] Setting up relu3_1
I0412 20:26:03.759932  4377 net.cpp:157] Top shape: 1 256 250 375 (24000000)
I0412 20:26:03.759935  4377 net.cpp:165] Memory required for data: 2694000052
I0412 20:26:03.759938  4377 layer_factory.hpp:77] Creating layer conv3_2
I0412 20:26:03.759948  4377 net.cpp:100] Creating Layer conv3_2
I0412 20:26:03.759951  4377 net.cpp:434] conv3_2 <- conv3_1
I0412 20:26:03.759958  4377 net.cpp:408] conv3_2 -> conv3_2
I0412 20:26:03.761119  4377 net.cpp:150] Setting up conv3_2
I0412 20:26:03.761147  4377 net.cpp:157] Top shape: 1 256 250 375 (24000000)
I0412 20:26:03.761159  4377 net.cpp:165] Memory required for data: 2790000052
I0412 20:26:03.761168  4377 layer_factory.hpp:77] Creating layer relu3_2
I0412 20:26:03.761176  4377 net.cpp:100] Creating Layer relu3_2
I0412 20:26:03.761181  4377 net.cpp:434] relu3_2 <- conv3_2
I0412 20:26:03.761188  4377 net.cpp:395] relu3_2 -> conv3_2 (in-place)
I0412 20:26:03.761195  4377 net.cpp:150] Setting up relu3_2
I0412 20:26:03.761200  4377 net.cpp:157] Top shape: 1 256 250 375 (24000000)
I0412 20:26:03.761204  4377 net.cpp:165] Memory required for data: 2886000052
I0412 20:26:03.761206  4377 layer_factory.hpp:77] Creating layer conv3_3
I0412 20:26:03.761219  4377 net.cpp:100] Creating Layer conv3_3
I0412 20:26:03.761234  4377 net.cpp:434] conv3_3 <- conv3_2
I0412 20:26:03.761238  4377 net.cpp:408] conv3_3 -> conv3_3
I0412 20:26:03.762785  4377 net.cpp:150] Setting up conv3_3
I0412 20:26:03.762815  4377 net.cpp:157] Top shape: 1 256 250 375 (24000000)
I0412 20:26:03.762827  4377 net.cpp:165] Memory required for data: 2982000052
I0412 20:26:03.762838  4377 layer_factory.hpp:77] Creating layer relu3_3
I0412 20:26:03.762848  4377 net.cpp:100] Creating Layer relu3_3
I0412 20:26:03.762852  4377 net.cpp:434] relu3_3 <- conv3_3
I0412 20:26:03.762861  4377 net.cpp:395] relu3_3 -> conv3_3 (in-place)
I0412 20:26:03.762871  4377 net.cpp:150] Setting up relu3_3
I0412 20:26:03.762876  4377 net.cpp:157] Top shape: 1 256 250 375 (24000000)
I0412 20:26:03.762878  4377 net.cpp:165] Memory required for data: 3078000052
I0412 20:26:03.762881  4377 layer_factory.hpp:77] Creating layer pool3
I0412 20:26:03.762887  4377 net.cpp:100] Creating Layer pool3
I0412 20:26:03.762890  4377 net.cpp:434] pool3 <- conv3_3
I0412 20:26:03.762895  4377 net.cpp:408] pool3 -> pool3
I0412 20:26:03.762941  4377 net.cpp:150] Setting up pool3
I0412 20:26:03.762948  4377 net.cpp:157] Top shape: 1 256 125 188 (6016000)
I0412 20:26:03.762951  4377 net.cpp:165] Memory required for data: 3102064052
I0412 20:26:03.762954  4377 layer_factory.hpp:77] Creating layer conv4_1
I0412 20:26:03.762964  4377 net.cpp:100] Creating Layer conv4_1
I0412 20:26:03.762967  4377 net.cpp:434] conv4_1 <- pool3
I0412 20:26:03.762975  4377 net.cpp:408] conv4_1 -> conv4_1
I0412 20:26:03.765642  4377 net.cpp:150] Setting up conv4_1
I0412 20:26:03.765687  4377 net.cpp:157] Top shape: 1 512 125 188 (12032000)
I0412 20:26:03.765691  4377 net.cpp:165] Memory required for data: 3150192052
I0412 20:26:03.765702  4377 layer_factory.hpp:77] Creating layer relu4_1
I0412 20:26:03.765712  4377 net.cpp:100] Creating Layer relu4_1
I0412 20:26:03.765717  4377 net.cpp:434] relu4_1 <- conv4_1
I0412 20:26:03.765723  4377 net.cpp:395] relu4_1 -> conv4_1 (in-place)
I0412 20:26:03.765733  4377 net.cpp:150] Setting up relu4_1
I0412 20:26:03.765738  4377 net.cpp:157] Top shape: 1 512 125 188 (12032000)
I0412 20:26:03.765741  4377 net.cpp:165] Memory required for data: 3198320052
I0412 20:26:03.765744  4377 layer_factory.hpp:77] Creating layer conv4_2
I0412 20:26:03.765753  4377 net.cpp:100] Creating Layer conv4_2
I0412 20:26:03.765756  4377 net.cpp:434] conv4_2 <- conv4_1
I0412 20:26:03.765763  4377 net.cpp:408] conv4_2 -> conv4_2
I0412 20:26:03.769887  4377 net.cpp:150] Setting up conv4_2
I0412 20:26:03.769933  4377 net.cpp:157] Top shape: 1 512 125 188 (12032000)
I0412 20:26:03.769937  4377 net.cpp:165] Memory required for data: 3246448052
I0412 20:26:03.769954  4377 layer_factory.hpp:77] Creating layer relu4_2
I0412 20:26:03.769965  4377 net.cpp:100] Creating Layer relu4_2
I0412 20:26:03.769969  4377 net.cpp:434] relu4_2 <- conv4_2
I0412 20:26:03.769979  4377 net.cpp:395] relu4_2 -> conv4_2 (in-place)
I0412 20:26:03.769989  4377 net.cpp:150] Setting up relu4_2
I0412 20:26:03.769992  4377 net.cpp:157] Top shape: 1 512 125 188 (12032000)
I0412 20:26:03.769995  4377 net.cpp:165] Memory required for data: 3294576052
I0412 20:26:03.769999  4377 layer_factory.hpp:77] Creating layer conv4_3
I0412 20:26:03.770006  4377 net.cpp:100] Creating Layer conv4_3
I0412 20:26:03.770009  4377 net.cpp:434] conv4_3 <- conv4_2
I0412 20:26:03.770016  4377 net.cpp:408] conv4_3 -> conv4_3
I0412 20:26:03.775578  4377 net.cpp:150] Setting up conv4_3
I0412 20:26:03.775678  4377 net.cpp:157] Top shape: 1 512 125 188 (12032000)
I0412 20:26:03.775704  4377 net.cpp:165] Memory required for data: 3342704052
I0412 20:26:03.775735  4377 layer_factory.hpp:77] Creating layer relu4_3
I0412 20:26:03.775765  4377 net.cpp:100] Creating Layer relu4_3
I0412 20:26:03.775799  4377 net.cpp:434] relu4_3 <- conv4_3
I0412 20:26:03.775825  4377 net.cpp:395] relu4_3 -> conv4_3 (in-place)
I0412 20:26:03.775854  4377 net.cpp:150] Setting up relu4_3
I0412 20:26:03.775876  4377 net.cpp:157] Top shape: 1 512 125 188 (12032000)
I0412 20:26:03.775897  4377 net.cpp:165] Memory required for data: 3390832052
I0412 20:26:03.775915  4377 layer_factory.hpp:77] Creating layer pool4
I0412 20:26:03.775938  4377 net.cpp:100] Creating Layer pool4
I0412 20:26:03.775954  4377 net.cpp:434] pool4 <- conv4_3
I0412 20:26:03.775974  4377 net.cpp:408] pool4 -> pool4
I0412 20:26:03.776036  4377 net.cpp:150] Setting up pool4
I0412 20:26:03.776059  4377 net.cpp:157] Top shape: 1 512 63 94 (3032064)
I0412 20:26:03.776077  4377 net.cpp:165] Memory required for data: 3402960308
I0412 20:26:03.776098  4377 layer_factory.hpp:77] Creating layer conv5_1
I0412 20:26:03.776130  4377 net.cpp:100] Creating Layer conv5_1
I0412 20:26:03.776151  4377 net.cpp:434] conv5_1 <- pool4
I0412 20:26:03.776175  4377 net.cpp:408] conv5_1 -> conv5_1
I0412 20:26:03.780975  4377 net.cpp:150] Setting up conv5_1
I0412 20:26:03.781013  4377 net.cpp:157] Top shape: 1 512 63 94 (3032064)
I0412 20:26:03.781016  4377 net.cpp:165] Memory required for data: 3415088564
I0412 20:26:03.781028  4377 layer_factory.hpp:77] Creating layer relu5_1
I0412 20:26:03.781038  4377 net.cpp:100] Creating Layer relu5_1
I0412 20:26:03.781042  4377 net.cpp:434] relu5_1 <- conv5_1
I0412 20:26:03.781051  4377 net.cpp:395] relu5_1 -> conv5_1 (in-place)
I0412 20:26:03.781061  4377 net.cpp:150] Setting up relu5_1
I0412 20:26:03.781078  4377 net.cpp:157] Top shape: 1 512 63 94 (3032064)
I0412 20:26:03.781081  4377 net.cpp:165] Memory required for data: 3427216820
I0412 20:26:03.781085  4377 layer_factory.hpp:77] Creating layer conv5_2
I0412 20:26:03.781095  4377 net.cpp:100] Creating Layer conv5_2
I0412 20:26:03.781100  4377 net.cpp:434] conv5_2 <- conv5_1
I0412 20:26:03.781105  4377 net.cpp:408] conv5_2 -> conv5_2
I0412 20:26:03.785248  4377 net.cpp:150] Setting up conv5_2
I0412 20:26:03.785284  4377 net.cpp:157] Top shape: 1 512 63 94 (3032064)
I0412 20:26:03.785298  4377 net.cpp:165] Memory required for data: 3439345076
I0412 20:26:03.785310  4377 layer_factory.hpp:77] Creating layer relu5_2
I0412 20:26:03.785320  4377 net.cpp:100] Creating Layer relu5_2
I0412 20:26:03.785326  4377 net.cpp:434] relu5_2 <- conv5_2
I0412 20:26:03.785336  4377 net.cpp:395] relu5_2 -> conv5_2 (in-place)
I0412 20:26:03.785349  4377 net.cpp:150] Setting up relu5_2
I0412 20:26:03.785356  4377 net.cpp:157] Top shape: 1 512 63 94 (3032064)
I0412 20:26:03.785358  4377 net.cpp:165] Memory required for data: 3451473332
I0412 20:26:03.785362  4377 layer_factory.hpp:77] Creating layer conv5_3
I0412 20:26:03.785373  4377 net.cpp:100] Creating Layer conv5_3
I0412 20:26:03.785378  4377 net.cpp:434] conv5_3 <- conv5_2
I0412 20:26:03.785384  4377 net.cpp:408] conv5_3 -> conv5_3
I0412 20:26:03.789460  4377 net.cpp:150] Setting up conv5_3
I0412 20:26:03.789494  4377 net.cpp:157] Top shape: 1 512 63 94 (3032064)
I0412 20:26:03.789499  4377 net.cpp:165] Memory required for data: 3463601588
I0412 20:26:03.789508  4377 layer_factory.hpp:77] Creating layer relu5_3
I0412 20:26:03.789520  4377 net.cpp:100] Creating Layer relu5_3
I0412 20:26:03.789525  4377 net.cpp:434] relu5_3 <- conv5_3
I0412 20:26:03.789531  4377 net.cpp:395] relu5_3 -> conv5_3 (in-place)
I0412 20:26:03.789542  4377 net.cpp:150] Setting up relu5_3
I0412 20:26:03.789548  4377 net.cpp:157] Top shape: 1 512 63 94 (3032064)
I0412 20:26:03.789552  4377 net.cpp:165] Memory required for data: 3475729844
I0412 20:26:03.789556  4377 layer_factory.hpp:77] Creating layer rpn_big_conv1
I0412 20:26:03.789575  4377 net.cpp:100] Creating Layer rpn_big_conv1
I0412 20:26:03.789579  4377 net.cpp:434] rpn_big_conv1 <- conv5_3
I0412 20:26:03.789587  4377 net.cpp:408] rpn_big_conv1 -> rpn_big_conv1
I0412 20:26:03.816666  4377 net.cpp:150] Setting up rpn_big_conv1
I0412 20:26:03.816709  4377 net.cpp:157] Top shape: 1 512 63 94 (3032064)
I0412 20:26:03.816715  4377 net.cpp:165] Memory required for data: 3487858100
I0412 20:26:03.816725  4377 layer_factory.hpp:77] Creating layer rpn_big_conv1_relu
I0412 20:26:03.816737  4377 net.cpp:100] Creating Layer rpn_big_conv1_relu
I0412 20:26:03.816743  4377 net.cpp:434] rpn_big_conv1_relu <- rpn_big_conv1
I0412 20:26:03.816752  4377 net.cpp:395] rpn_big_conv1_relu -> rpn_big_conv1 (in-place)
I0412 20:26:03.816766  4377 net.cpp:150] Setting up rpn_big_conv1_relu
I0412 20:26:03.816771  4377 net.cpp:157] Top shape: 1 512 63 94 (3032064)
I0412 20:26:03.816773  4377 net.cpp:165] Memory required for data: 3499986356
I0412 20:26:03.816777  4377 layer_factory.hpp:77] Creating layer rpn_big_conv2
I0412 20:26:03.816788  4377 net.cpp:100] Creating Layer rpn_big_conv2
I0412 20:26:03.816804  4377 net.cpp:434] rpn_big_conv2 <- rpn_big_conv1
I0412 20:26:03.816813  4377 net.cpp:408] rpn_big_conv2 -> rpn_big_conv2
I0412 20:26:03.846271  4377 net.cpp:150] Setting up rpn_big_conv2
I0412 20:26:03.846304  4377 net.cpp:157] Top shape: 1 512 63 94 (3032064)
I0412 20:26:03.846312  4377 net.cpp:165] Memory required for data: 3512114612
I0412 20:26:03.846328  4377 layer_factory.hpp:77] Creating layer rpn_big_conv2_relu
I0412 20:26:03.846340  4377 net.cpp:100] Creating Layer rpn_big_conv2_relu
I0412 20:26:03.846346  4377 net.cpp:434] rpn_big_conv2_relu <- rpn_big_conv2
I0412 20:26:03.846357  4377 net.cpp:395] rpn_big_conv2_relu -> rpn_big_conv2 (in-place)
I0412 20:26:03.846369  4377 net.cpp:150] Setting up rpn_big_conv2_relu
I0412 20:26:03.846375  4377 net.cpp:157] Top shape: 1 512 63 94 (3032064)
I0412 20:26:03.846379  4377 net.cpp:165] Memory required for data: 3524242868
I0412 20:26:03.846384  4377 layer_factory.hpp:77] Creating layer rpn_big_conv2_drop
I0412 20:26:03.846390  4377 net.cpp:100] Creating Layer rpn_big_conv2_drop
I0412 20:26:03.846395  4377 net.cpp:434] rpn_big_conv2_drop <- rpn_big_conv2
I0412 20:26:03.846402  4377 net.cpp:395] rpn_big_conv2_drop -> rpn_big_conv2 (in-place)
I0412 20:26:03.846428  4377 net.cpp:150] Setting up rpn_big_conv2_drop
I0412 20:26:03.846437  4377 net.cpp:157] Top shape: 1 512 63 94 (3032064)
I0412 20:26:03.846441  4377 net.cpp:165] Memory required for data: 3536371124
I0412 20:26:03.846446  4377 layer_factory.hpp:77] Creating layer rpn_big_conv2_rpn_big_conv2_drop_0_split
I0412 20:26:03.846454  4377 net.cpp:100] Creating Layer rpn_big_conv2_rpn_big_conv2_drop_0_split
I0412 20:26:03.846458  4377 net.cpp:434] rpn_big_conv2_rpn_big_conv2_drop_0_split <- rpn_big_conv2
I0412 20:26:03.846464  4377 net.cpp:408] rpn_big_conv2_rpn_big_conv2_drop_0_split -> rpn_big_conv2_rpn_big_conv2_drop_0_split_0
I0412 20:26:03.846474  4377 net.cpp:408] rpn_big_conv2_rpn_big_conv2_drop_0_split -> rpn_big_conv2_rpn_big_conv2_drop_0_split_1
I0412 20:26:03.846510  4377 net.cpp:150] Setting up rpn_big_conv2_rpn_big_conv2_drop_0_split
I0412 20:26:03.846519  4377 net.cpp:157] Top shape: 1 512 63 94 (3032064)
I0412 20:26:03.846524  4377 net.cpp:157] Top shape: 1 512 63 94 (3032064)
I0412 20:26:03.846529  4377 net.cpp:165] Memory required for data: 3560627636
I0412 20:26:03.846532  4377 layer_factory.hpp:77] Creating layer rpn_big_output_cls
I0412 20:26:03.846545  4377 net.cpp:100] Creating Layer rpn_big_output_cls
I0412 20:26:03.846550  4377 net.cpp:434] rpn_big_output_cls <- rpn_big_conv2_rpn_big_conv2_drop_0_split_0
I0412 20:26:03.846560  4377 net.cpp:408] rpn_big_output_cls -> rpn_big_output_cls
I0412 20:26:03.869904  4377 net.cpp:150] Setting up rpn_big_output_cls
I0412 20:26:03.869943  4377 net.cpp:157] Top shape: 1 384 63 94 (2274048)
I0412 20:26:03.869947  4377 net.cpp:165] Memory required for data: 3569723828
I0412 20:26:03.869959  4377 layer_factory.hpp:77] Creating layer rpn_big_output_cls_relu
I0412 20:26:03.869973  4377 net.cpp:100] Creating Layer rpn_big_output_cls_relu
I0412 20:26:03.869979  4377 net.cpp:434] rpn_big_output_cls_relu <- rpn_big_output_cls
I0412 20:26:03.869988  4377 net.cpp:395] rpn_big_output_cls_relu -> rpn_big_output_cls (in-place)
I0412 20:26:03.869999  4377 net.cpp:150] Setting up rpn_big_output_cls_relu
I0412 20:26:03.870007  4377 net.cpp:157] Top shape: 1 384 63 94 (2274048)
I0412 20:26:03.870009  4377 net.cpp:165] Memory required for data: 3578820020
I0412 20:26:03.870013  4377 layer_factory.hpp:77] Creating layer rpn_big_cls_score
I0412 20:26:03.870025  4377 net.cpp:100] Creating Layer rpn_big_cls_score
I0412 20:26:03.870029  4377 net.cpp:434] rpn_big_cls_score <- rpn_big_output_cls
I0412 20:26:03.870039  4377 net.cpp:408] rpn_big_cls_score -> rpn_big_cls_score
I0412 20:26:03.872755  4377 net.cpp:150] Setting up rpn_big_cls_score
I0412 20:26:03.872782  4377 net.cpp:157] Top shape: 1 52 61 92 (291824)
I0412 20:26:03.872789  4377 net.cpp:165] Memory required for data: 3579987316
I0412 20:26:03.872822  4377 layer_factory.hpp:77] Creating layer rpn_big_cls_score_rpn_big_cls_score_0_split
I0412 20:26:03.872844  4377 net.cpp:100] Creating Layer rpn_big_cls_score_rpn_big_cls_score_0_split
I0412 20:26:03.872855  4377 net.cpp:434] rpn_big_cls_score_rpn_big_cls_score_0_split <- rpn_big_cls_score
I0412 20:26:03.872869  4377 net.cpp:408] rpn_big_cls_score_rpn_big_cls_score_0_split -> rpn_big_cls_score_rpn_big_cls_score_0_split_0
I0412 20:26:03.872886  4377 net.cpp:408] rpn_big_cls_score_rpn_big_cls_score_0_split -> rpn_big_cls_score_rpn_big_cls_score_0_split_1
I0412 20:26:03.872943  4377 net.cpp:150] Setting up rpn_big_cls_score_rpn_big_cls_score_0_split
I0412 20:26:03.872957  4377 net.cpp:157] Top shape: 1 52 61 92 (291824)
I0412 20:26:03.872967  4377 net.cpp:157] Top shape: 1 52 61 92 (291824)
I0412 20:26:03.872974  4377 net.cpp:165] Memory required for data: 3582321908
I0412 20:26:03.872982  4377 layer_factory.hpp:77] Creating layer rpn_big_cls_score_reshape
I0412 20:26:03.872995  4377 net.cpp:100] Creating Layer rpn_big_cls_score_reshape
I0412 20:26:03.873005  4377 net.cpp:434] rpn_big_cls_score_reshape <- rpn_big_cls_score_rpn_big_cls_score_0_split_0
I0412 20:26:03.873018  4377 net.cpp:408] rpn_big_cls_score_reshape -> rpn_big_cls_score_reshape
I0412 20:26:03.873064  4377 net.cpp:150] Setting up rpn_big_cls_score_reshape
I0412 20:26:03.873085  4377 net.cpp:157] Top shape: 1 2 1586 92 (291824)
I0412 20:26:03.873091  4377 net.cpp:165] Memory required for data: 3583489204
I0412 20:26:03.873098  4377 layer_factory.hpp:77] Creating layer rpn_big_cls_score_reshape_rpn_big_cls_score_reshape_0_split
I0412 20:26:03.873108  4377 net.cpp:100] Creating Layer rpn_big_cls_score_reshape_rpn_big_cls_score_reshape_0_split
I0412 20:26:03.873129  4377 net.cpp:434] rpn_big_cls_score_reshape_rpn_big_cls_score_reshape_0_split <- rpn_big_cls_score_reshape
I0412 20:26:03.873142  4377 net.cpp:408] rpn_big_cls_score_reshape_rpn_big_cls_score_reshape_0_split -> rpn_big_cls_score_reshape_rpn_big_cls_score_reshape_0_split_0
I0412 20:26:03.873167  4377 net.cpp:408] rpn_big_cls_score_reshape_rpn_big_cls_score_reshape_0_split -> rpn_big_cls_score_reshape_rpn_big_cls_score_reshape_0_split_1
I0412 20:26:03.873221  4377 net.cpp:150] Setting up rpn_big_cls_score_reshape_rpn_big_cls_score_reshape_0_split
I0412 20:26:03.873234  4377 net.cpp:157] Top shape: 1 2 1586 92 (291824)
I0412 20:26:03.873245  4377 net.cpp:157] Top shape: 1 2 1586 92 (291824)
I0412 20:26:03.873255  4377 net.cpp:165] Memory required for data: 3585823796
I0412 20:26:03.873261  4377 layer_factory.hpp:77] Creating layer rpn_big_cls_prob
I0412 20:26:03.873281  4377 net.cpp:100] Creating Layer rpn_big_cls_prob
I0412 20:26:03.873289  4377 net.cpp:434] rpn_big_cls_prob <- rpn_big_cls_score_reshape_rpn_big_cls_score_reshape_0_split_0
I0412 20:26:03.873303  4377 net.cpp:408] rpn_big_cls_prob -> rpn_big_cls_prob
I0412 20:26:03.873365  4377 net.cpp:150] Setting up rpn_big_cls_prob
I0412 20:26:03.873376  4377 net.cpp:157] Top shape: 1 2 1586 92 (291824)
I0412 20:26:03.873383  4377 net.cpp:165] Memory required for data: 3586991092
I0412 20:26:03.873389  4377 layer_factory.hpp:77] Creating layer rpn_big_cls_prob_reshape
I0412 20:26:03.873400  4377 net.cpp:100] Creating Layer rpn_big_cls_prob_reshape
I0412 20:26:03.873409  4377 net.cpp:434] rpn_big_cls_prob_reshape <- rpn_big_cls_prob
I0412 20:26:03.873420  4377 net.cpp:408] rpn_big_cls_prob_reshape -> rpn_big_cls_prob_reshape
I0412 20:26:03.873451  4377 net.cpp:150] Setting up rpn_big_cls_prob_reshape
I0412 20:26:03.873461  4377 net.cpp:157] Top shape: 1 52 61 92 (291824)
I0412 20:26:03.873468  4377 net.cpp:165] Memory required for data: 3588158388
I0412 20:26:03.873474  4377 layer_factory.hpp:77] Creating layer rpn_big_anchor_target
I0412 20:26:03.874871  4377 net.cpp:100] Creating Layer rpn_big_anchor_target
I0412 20:26:03.874891  4377 net.cpp:434] rpn_big_anchor_target <- rpn_big_cls_score_rpn_big_cls_score_0_split_1
I0412 20:26:03.874902  4377 net.cpp:434] rpn_big_anchor_target <- input_gt_boxes
I0412 20:26:03.874909  4377 net.cpp:434] rpn_big_anchor_target <- input_ignored_boxes
I0412 20:26:03.874917  4377 net.cpp:434] rpn_big_anchor_target <- input_im_info
I0412 20:26:03.874924  4377 net.cpp:434] rpn_big_anchor_target <- input_data_input_0_split_1
I0412 20:26:03.874933  4377 net.cpp:434] rpn_big_anchor_target <- rpn_big_cls_prob_reshape
I0412 20:26:03.874945  4377 net.cpp:408] rpn_big_anchor_target -> rpn_big_anchor_target_labels
I0412 20:26:03.874963  4377 net.cpp:408] rpn_big_anchor_target -> rpn_big_anchor_target_bbox_targets
I0412 20:26:03.874979  4377 net.cpp:408] rpn_big_anchor_target -> rpn_big_anchor_target_inside_weights
I0412 20:26:03.874995  4377 net.cpp:408] rpn_big_anchor_target -> rpn_big_anchor_target_outside_weights
I0412 20:26:03.881778  4377 net.cpp:150] Setting up rpn_big_anchor_target
I0412 20:26:03.881809  4377 net.cpp:157] Top shape: 1 1 1586 92 (145912)
I0412 20:26:03.881819  4377 net.cpp:157] Top shape: 1 104 61 92 (583648)
I0412 20:26:03.881825  4377 net.cpp:157] Top shape: 1 104 61 92 (583648)
I0412 20:26:03.881832  4377 net.cpp:157] Top shape: 1 104 61 92 (583648)
I0412 20:26:03.881839  4377 net.cpp:165] Memory required for data: 3595745812
I0412 20:26:03.881847  4377 layer_factory.hpp:77] Creating layer rpn_big_loss_cls
I0412 20:26:03.881866  4377 net.cpp:100] Creating Layer rpn_big_loss_cls
I0412 20:26:03.881878  4377 net.cpp:434] rpn_big_loss_cls <- rpn_big_cls_score_reshape_rpn_big_cls_score_reshape_0_split_1
I0412 20:26:03.881891  4377 net.cpp:434] rpn_big_loss_cls <- rpn_big_anchor_target_labels
I0412 20:26:03.881904  4377 net.cpp:408] rpn_big_loss_cls -> rpn_big_loss_cls
I0412 20:26:03.881927  4377 layer_factory.hpp:77] Creating layer rpn_big_loss_cls
I0412 20:26:03.883203  4377 net.cpp:150] Setting up rpn_big_loss_cls
I0412 20:26:03.883221  4377 net.cpp:157] Top shape: (1)
I0412 20:26:03.883227  4377 net.cpp:160]     with loss weight 1
I0412 20:26:03.883244  4377 net.cpp:165] Memory required for data: 3595745816
I0412 20:26:03.883252  4377 layer_factory.hpp:77] Creating layer rpn_big_output_box
I0412 20:26:03.883273  4377 net.cpp:100] Creating Layer rpn_big_output_box
I0412 20:26:03.883281  4377 net.cpp:434] rpn_big_output_box <- rpn_big_conv2_rpn_big_conv2_drop_0_split_1
I0412 20:26:03.883294  4377 net.cpp:408] rpn_big_output_box -> rpn_big_output_box
I0412 20:26:03.903548  4377 net.cpp:150] Setting up rpn_big_output_box
I0412 20:26:03.903580  4377 net.cpp:157] Top shape: 1 384 63 94 (2274048)
I0412 20:26:03.903586  4377 net.cpp:165] Memory required for data: 3604842008
I0412 20:26:03.903602  4377 layer_factory.hpp:77] Creating layer rpn_big_output_box_relu
I0412 20:26:03.903619  4377 net.cpp:100] Creating Layer rpn_big_output_box_relu
I0412 20:26:03.903630  4377 net.cpp:434] rpn_big_output_box_relu <- rpn_big_output_box
I0412 20:26:03.903642  4377 net.cpp:395] rpn_big_output_box_relu -> rpn_big_output_box (in-place)
I0412 20:26:03.903661  4377 net.cpp:150] Setting up rpn_big_output_box_relu
I0412 20:26:03.903671  4377 net.cpp:157] Top shape: 1 384 63 94 (2274048)
I0412 20:26:03.903676  4377 net.cpp:165] Memory required for data: 3613938200
I0412 20:26:03.903686  4377 layer_factory.hpp:77] Creating layer rpn_big_bbox_pred
I0412 20:26:03.903703  4377 net.cpp:100] Creating Layer rpn_big_bbox_pred
I0412 20:26:03.903710  4377 net.cpp:434] rpn_big_bbox_pred <- rpn_big_output_box
I0412 20:26:03.903725  4377 net.cpp:408] rpn_big_bbox_pred -> rpn_big_bbox_pred
I0412 20:26:03.907973  4377 net.cpp:150] Setting up rpn_big_bbox_pred
I0412 20:26:03.907992  4377 net.cpp:157] Top shape: 1 104 61 92 (583648)
I0412 20:26:03.907999  4377 net.cpp:165] Memory required for data: 3616272792
I0412 20:26:03.908012  4377 layer_factory.hpp:77] Creating layer rpn_big_loss_bbox
I0412 20:26:03.908383  4377 net.cpp:100] Creating Layer rpn_big_loss_bbox
I0412 20:26:03.908396  4377 net.cpp:434] rpn_big_loss_bbox <- rpn_big_bbox_pred
I0412 20:26:03.908404  4377 net.cpp:434] rpn_big_loss_bbox <- rpn_big_anchor_target_bbox_targets
I0412 20:26:03.908413  4377 net.cpp:434] rpn_big_loss_bbox <- rpn_big_anchor_target_inside_weights
I0412 20:26:03.908424  4377 net.cpp:434] rpn_big_loss_bbox <- rpn_big_anchor_target_outside_weights
I0412 20:26:03.908437  4377 net.cpp:408] rpn_big_loss_bbox -> rpn_big_loss_bbox
I0412 20:26:03.910176  4377 net.cpp:150] Setting up rpn_big_loss_bbox
I0412 20:26:03.910214  4377 net.cpp:157] Top shape: 1 (1)
I0412 20:26:03.910220  4377 net.cpp:160]     with loss weight 1
I0412 20:26:03.910236  4377 net.cpp:165] Memory required for data: 3616272796
I0412 20:26:03.910245  4377 net.cpp:226] rpn_big_loss_bbox needs backward computation.
I0412 20:26:03.910257  4377 net.cpp:226] rpn_big_bbox_pred needs backward computation.
I0412 20:26:03.910265  4377 net.cpp:226] rpn_big_output_box_relu needs backward computation.
…
