…
I0406 15:17:40.851944  6379 solver.cpp:48] Initializing solver from parameters: 
base_lr: 0.001
display: 20
lr_policy: "multistep"
gamma: 0.1
momentum: 0.9
weight_decay: 0.0005
snapshot: 0
snapshot_prefix: "faces_example"
net_param {
  name: "GeneratedModel_06_04_2017_15_17"
  layer {
    name: "input"
    type: "Python"
    top: "input_data"
    top: "input_im_info"
    top: "input_gt_boxes"
    top: "input_ignored_boxes"
    python_param {
      module: "layers.roi_data_layer"
      layer: "RoIDataLayer"
      param_str: "{\"num_classes\": 2}"
    }
  }
  layer {
    name: "conv1_1"
    type: "Convolution"
    bottom: "input_data"
    top: "conv1_1"
    param {
      lr_mult: 0
      decay_mult: 0
    }
    param {
      lr_mult: 0
      decay_mult: 0
    }
    convolution_param {
      num_output: 64
      pad: 1
      kernel_size: 3
    }
  }
  layer {
    name: "relu1_1"
    type: "ReLU"
    bottom: "conv1_1"
    top: "conv1_1"
  }
  layer {
    name: "conv1_2"
    type: "Convolution"
    bottom: "conv1_1"
    top: "conv1_2"
    param {
      lr_mult: 0
      decay_mult: 0
    }
    param {
      lr_mult: 0
      decay_mult: 0
    }
    convolution_param {
      num_output: 64
      pad: 1
      kernel_size: 3
    }
  }
  layer {
    name: "relu1_2"
    type: "ReLU"
    bottom: "conv1_2"
    top: "conv1_2"
  }
  layer {
    name: "pool1"
    type: "Pooling"
    bottom: "conv1_2"
    top: "pool1"
    pooling_param {
      pool: MAX
      kernel_size: 2
      stride: 2
    }
  }
  layer {
    name: "conv2_1"
    type: "Convolution"
    bottom: "pool1"
    top: "conv2_1"
    param {
      lr_mult: 0
      decay_mult: 0
    }
    param {
      lr_mult: 0
      decay_mult: 0
    }
    convolution_param {
      num_output: 128
      pad: 1
      kernel_size: 3
    }
  }
  layer {
    name: "relu2_1"
    type: "ReLU"
    bottom: "conv2_1"
    top: "conv2_1"
  }
  layer {
    name: "conv2_2"
    type: "Convolution"
    bottom: "conv2_1"
    top: "conv2_2"
    param {
      lr_mult: 0
      decay_mult: 0
    }
    param {
      lr_mult: 0
      decay_mult: 0
    }
    convolution_param {
      num_output: 128
      pad: 1
      kernel_size: 3
    }
  }
  layer {
    name: "relu2_2"
    type: "ReLU"
    bottom: "conv2_2"
    top: "conv2_2"
  }
  layer {
    name: "pool2"
    type: "Pooling"
    bottom: "conv2_2"
    top: "pool2"
    pooling_param {
      pool: MAX
      kernel_size: 2
      stride: 2
    }
  }
  layer {
    name: "conv3_1"
    type: "Convolution"
    bottom: "pool2"
    top: "conv3_1"
    param {
      lr_mult: 1
    }
    param {
      lr_mult: 2
    }
    convolution_param {
      num_output: 256
      pad: 1
      kernel_size: 3
    }
  }
  layer {
    name: "relu3_1"
    type: "ReLU"
    bottom: "conv3_1"
    top: "conv3_1"
  }
  layer {
    name: "conv3_2"
    type: "Convolution"
    bottom: "conv3_1"
    top: "conv3_2"
    param {
      lr_mult: 1
    }
    param {
      lr_mult: 2
    }
    convolution_param {
      num_output: 256
      pad: 1
      kernel_size: 3
    }
  }
  layer {
    name: "relu3_2"
    type: "ReLU"
    bottom: "conv3_2"
    top: "conv3_2"
  }
  layer {
    name: "conv3_3"
    type: "Convolution"
    bottom: "conv3_2"
    top: "conv3_3"
    param {
      lr_mult: 1
    }
    param {
      lr_mult: 2
    }
    convolution_param {
      num_output: 256
      pad: 1
      kernel_size: 3
    }
  }
  layer {
    name: "relu3_3"
    type: "ReLU"
    bottom: "conv3_3"
    top: "conv3_3"
  }
  layer {
    name: "pool3"
    type: "Pooling"
    bottom: "conv3_3"
    top: "pool3"
    pooling_param {
      pool: MAX
      kernel_size: 2
      stride: 2
    }
  }
  layer {
    name: "conv4_1"
    type: "Convolution"
    bottom: "pool3"
    top: "conv4_1"
    param {
      lr_mult: 1
    }
    param {
      lr_mult: 2
    }
    convolution_param {
      num_output: 512
      pad: 1
      kernel_size: 3
    }
  }
  layer {
    name: "relu4_1"
    type: "ReLU"
    bottom: "conv4_1"
    top: "conv4_1"
  }
  layer {
    name: "conv4_2"
    type: "Convolution"
    bottom: "conv4_1"
    top: "conv4_2"
    param {
      lr_mult: 1
    }
    param {
      lr_mult: 2
    }
    convolution_param {
      num_output: 512
      pad: 1
      kernel_size: 3
    }
  }
  layer {
    name: "relu4_2"
    type: "ReLU"
    bottom: "conv4_2"
    top: "conv4_2"
  }
  layer {
    name: "conv4_3"
    type: "Convolution"
    bottom: "conv4_2"
    top: "conv4_3"
    param {
      lr_mult: 1
    }
    param {
      lr_mult: 2
    }
    convolution_param {
      num_output: 512
      pad: 1
      kernel_size: 3
    }
  }
  layer {
    name: "relu4_3"
    type: "ReLU"
    bottom: "conv4_3"
    top: "conv4_3"
  }
  layer {
    name: "pool4"
    type: "Pooling"
    bottom: "conv4_3"
    top: "pool4"
    pooling_param {
      pool: MAX
      kernel_size: 2
      stride: 2
    }
  }
  layer {
    name: "conv5_1"
    type: "Convolution"
    bottom: "pool4"
    top: "conv5_1"
    param {
      lr_mult: 1
    }
    param {
      lr_mult: 2
    }
    convolution_param {
      num_output: 512
      pad: 1
      kernel_size: 3
    }
  }
  layer {
    name: "relu5_1"
    type: "ReLU"
    bottom: "conv5_1"
    top: "conv5_1"
  }
  layer {
    name: "conv5_2"
    type: "Convolution"
    bottom: "conv5_1"
    top: "conv5_2"
    param {
      lr_mult: 1
    }
    param {
      lr_mult: 2
    }
    convolution_param {
      num_output: 512
      pad: 1
      kernel_size: 3
    }
  }
  layer {
    name: "relu5_2"
    type: "ReLU"
    bottom: "conv5_2"
    top: "conv5_2"
  }
  layer {
    name: "conv5_3"
    type: "Convolution"
    bottom: "conv5_2"
    top: "conv5_3"
    param {
      lr_mult: 1
    }
    param {
      lr_mult: 2
    }
    convolution_param {
      num_output: 512
      pad: 1
      kernel_size: 3
    }
  }
  layer {
    name: "relu5_3"
    type: "ReLU"
    bottom: "conv5_3"
    top: "conv5_3"
  }
  layer {
    name: "rpn_big_conv1"
    type: "Convolution"
    bottom: "conv5_3"
    top: "rpn_big_conv1"
    param {
      lr_mult: 1
    }
    param {
      lr_mult: 2
    }
    convolution_param {
      num_output: 512
      pad: 1
      kernel_size: 3
      stride: 1
      weight_filler {
        type: "gaussian"
        mean: 0
        std: 0.01
      }
      bias_filler {
        type: "constant"
      }
    }
  }
  layer {
    name: "rpn_big_conv1_relu"
    type: "ReLU"
    bottom: "rpn_big_conv1"
    top: "rpn_big_conv1"
    relu_param {
      negative_slope: 0
    }
  }
  layer {
    name: "rpn_big_conv2"
    type: "Convolution"
    bottom: "rpn_big_conv1"
    top: "rpn_big_conv2"
    param {
      lr_mult: 1
    }
    param {
      lr_mult: 2
    }
    convolution_param {
      num_output: 512
      pad: 1
      kernel_size: 3
      stride: 1
      weight_filler {
        type: "gaussian"
        mean: 0
        std: 0.01
      }
      bias_filler {
        type: "constant"
      }
    }
  }
  layer {
    name: "rpn_big_conv2_relu"
    type: "ReLU"
    bottom: "rpn_big_conv2"
    top: "rpn_big_conv2"
    relu_param {
      negative_slope: 0
    }
  }
  layer {
    name: "rpn_big_conv2_drop"
    type: "Dropout"
    bottom: "rpn_big_conv2"
    top: "rpn_big_conv2"
    dropout_param {
      dropout_ratio: 0.3
    }
  }
  layer {
    name: "rpn_big_output_cls"
    type: "Convolution"
    bottom: "rpn_big_conv2"
    top: "rpn_big_output_cls"
    param {
      lr_mult: 1
    }
    param {
      lr_mult: 2
    }
    convolution_param {
      num_output: 384
      pad: 1
      kernel_size: 3
      stride: 1
      weight_filler {
        type: "gaussian"
        mean: 0
        std: 0.01
      }
      bias_filler {
        type: "constant"
      }
    }
  }
  layer {
    name: "rpn_big_output_cls_relu"
    type: "ReLU"
    bottom: "rpn_big_output_cls"
    top: "rpn_big_output_cls"
    relu_param {
      negative_slope: 0
    }
  }
  layer {
    name: "rpn_big_cls_score"
    type: "Convolution"
    bottom: "rpn_big_output_cls"
    top: "rpn_big_cls_score"
    param {
      lr_mult: 1
    }
    param {
      lr_mult: 2
    }
    convolution_param {
      num_output: 52
      pad: 0
      kernel_size: 3
      stride: 1
      weight_filler {
        type: "gaussian"
        mean: 0
        std: 0.01
      }
      bias_filler {
        type: "constant"
      }
    }
  }
  layer {
    name: "rpn_big_cls_score_reshape"
    type: "Reshape"
    bottom: "rpn_big_cls_score"
    top: "rpn_big_cls_score_reshape"
    reshape_param {
      shape {
        dim: 0
        dim: 2
        dim: -1
        dim: 0
      }
    }
  }
  layer {
    name: "rpn_big_cls_prob"
    type: "Softmax"
    bottom: "rpn_big_cls_score_reshape"
    top: "rpn_big_cls_prob"
  }
  layer {
    name: "rpn_big_cls_prob_reshape"
    type: "Reshape"
    bottom: "rpn_big_cls_prob"
    top: "rpn_big_cls_prob_reshape"
    reshape_param {
      shape {
        dim: 0
        dim: 52
        dim: -1
        dim: 0
      }
    }
  }
  layer {
    name: "rpn_big_anchor_target"
    type: "Python"
    bottom: "rpn_big_cls_score"
    bottom: "input_gt_boxes"
    bottom: "input_ignored_boxes"
    bottom: "input_im_info"
    bottom: "input_data"
    bottom: "rpn_big_cls_prob_reshape"
    top: "rpn_big_anchor_target_labels"
    top: "rpn_big_anchor_target_bbox_targets"
    top: "rpn_big_anchor_target_inside_weights"
    top: "rpn_big_anchor_target_outside_weights"
    python_param {
      module: "rpn.anchor_target_layer"
      layer: "AnchorTargetLayer"
      param_str: "{\"anchor_shift_num_xy\": [[2, 2], [2, 2], [2, 2], [2, 2], [1, 1], [1, 1], [1, 1], [1, 1], [1, 1], [1, 1], [1, 1], [1, 1], [1, 1], [1, 1]], \"fg_fraction\": 0.5, \"batchsize\": 256, \"positive_overlap\": 0.6, \"tn_fraction\": 0.2, \"negative_overlap\": 0.4, \"square_targets\": true, \"anchor_ratios\": [1.0], \"feat_stride\": 16, \"name\": \"rpn_big\", \"num_classes\": 1, \"anchor_scales\": [2.5, 3.025, 3.66025, 4.4289024999999995, 5.358972025, 6.484356150249999, 7.846070941802498, 9.493745839581022, 11.487432465893036, 13.899793283730574, 16.818749873313998, 20.350687346709933, 24.62433168951902, 29.795441344318014]}"
    }
  }
  layer {
    name: "rpn_big_loss_cls"
    type: "SoftmaxWithLoss"
    bottom: "rpn_big_cls_score_reshape"
    bottom: "rpn_big_anchor_target_labels"
    top: "rpn_big_loss_cls"
    loss_weight: 1
    propagate_down: true
    propagate_down: false
    loss_param {
      ignore_label: -1
      normalization: VALID
    }
  }
  layer {
    name: "rpn_big_output_box"
    type: "Convolution"
    bottom: "rpn_big_conv2"
    top: "rpn_big_output_box"
    param {
      lr_mult: 1
    }
    param {
      lr_mult: 2
    }
    convolution_param {
      num_output: 384
      pad: 1
      kernel_size: 3
      stride: 1
      weight_filler {
        type: "gaussian"
        mean: 0
        std: 0.01
      }
      bias_filler {
        type: "constant"
      }
    }
  }
  layer {
    name: "rpn_big_output_box_relu"
    type: "ReLU"
    bottom: "rpn_big_output_box"
    top: "rpn_big_output_box"
    relu_param {
      negative_slope: 0
    }
  }
  layer {
    name: "rpn_big_bbox_pred"
    type: "Convolution"
    bottom: "rpn_big_output_box"
    top: "rpn_big_bbox_pred"
    param {
      lr_mult: 1
    }
    param {
      lr_mult: 2
    }
    convolution_param {
      num_output: 104
      pad: 0
      kernel_size: 3
      stride: 1
      weight_filler {
        type: "gaussian"
        mean: 0
        std: 0.01
      }
      bias_filler {
        type: "constant"
      }
    }
  }
  layer {
    name: "rpn_big_loss_bbox"
    type: "Python"
    bottom: "rpn_big_bbox_pred"
    bottom: "rpn_big_anchor_target_bbox_targets"
    bottom: "rpn_big_anchor_target_inside_weights"
    bottom: "rpn_big_anchor_target_outside_weights"
    top: "rpn_big_loss_bbox"
    loss_weight: 1
    python_param {
      module: "layers.smooth_l1_loss"
      layer: "SmoothL1LossLayer"
      param_str: "{\"sigma\": 3}"
    }
  }
}
average_loss: 100
stepvalue: 70000
stepvalue: 120000
iter_size: 2
I0406 15:17:40.852531  6379 solver.cpp:86] Creating training net specified in net_param.
I0406 15:17:40.852891  6379 net.cpp:49] Initializing net from parameters: 
name: "GeneratedModel_06_04_2017_15_17"
state {
  phase: TRAIN
}
layer {
  name: "input"
  type: "Python"
  top: "input_data"
  top: "input_im_info"
  top: "input_gt_boxes"
  top: "input_ignored_boxes"
  python_param {
    module: "layers.roi_data_layer"
    layer: "RoIDataLayer"
    param_str: "{\"num_classes\": 2}"
  }
}
layer {
  name: "conv1_1"
  type: "Convolution"
  bottom: "input_data"
  top: "conv1_1"
  param {
    lr_mult: 0
    decay_mult: 0
  }
  param {
    lr_mult: 0
    decay_mult: 0
  }
  convolution_param {
    num_output: 64
    pad: 1
    kernel_size: 3
  }
}
layer {
  name: "relu1_1"
  type: "ReLU"
  bottom: "conv1_1"
  top: "conv1_1"
}
layer {
  name: "conv1_2"
  type: "Convolution"
  bottom: "conv1_1"
  top: "conv1_2"
  param {
    lr_mult: 0
    decay_mult: 0
  }
  param {
    lr_mult: 0
    decay_mult: 0
  }
  convolution_param {
    num_output: 64
    pad: 1
    kernel_size: 3
  }
}
layer {
  name: "relu1_2"
  type: "ReLU"
  bottom: "conv1_2"
  top: "conv1_2"
}
layer {
  name: "pool1"
  type: "Pooling"
  bottom: "conv1_2"
  top: "pool1"
  pooling_param {
    pool: MAX
    kernel_size: 2
    stride: 2
  }
}
layer {
  name: "conv2_1"
  type: "Convolution"
  bottom: "pool1"
  top: "conv2_1"
  param {
    lr_mult: 0
    decay_mult: 0
  }
  param {
    lr_mult: 0
    decay_mult: 0
  }
  convolution_param {
    num_output: 128
    pad: 1
    kernel_size: 3
  }
}
layer {
  name: "relu2_1"
  type: "ReLU"
  bottom: "conv2_1"
  top: "conv2_1"
}
layer {
  name: "conv2_2"
  type: "Convolution"
  bottom: "conv2_1"
  top: "conv2_2"
  param {
    lr_mult: 0
    decay_mult: 0
  }
  param {
    lr_mult: 0
    decay_mult: 0
  }
  convolution_param {
    num_output: 128
    pad: 1
    kernel_size: 3
  }
}
layer {
  name: "relu2_2"
  type: "ReLU"
  bottom: "conv2_2"
  top: "conv2_2"
}
layer {
  name: "pool2"
  type: "Pooling"
  bottom: "conv2_2"
  top: "pool2"
  pooling_param {
    pool: MAX
    kernel_size: 2
    stride: 2
  }
}
layer {
  name: "conv3_1"
  type: "Convolution"
  bottom: "pool2"
  top: "conv3_1"
  param {
    lr_mult: 1
  }
  param {
    lr_mult: 2
  }
  convolution_param {
    num_output: 256
    pad: 1
    kernel_size: 3
  }
}
layer {
  name: "relu3_1"
  type: "ReLU"
  bottom: "conv3_1"
  top: "conv3_1"
}
layer {
  name: "conv3_2"
  type: "Convolution"
  bottom: "conv3_1"
  top: "conv3_2"
  param {
    lr_mult: 1
  }
  param {
    lr_mult: 2
  }
  convolution_param {
    num_output: 256
    pad: 1
    kernel_size: 3
  }
}
layer {
  name: "relu3_2"
  type: "ReLU"
  bottom: "conv3_2"
  top: "conv3_2"
}
layer {
  name: "conv3_3"
  type: "Convolution"
  bottom: "conv3_2"
  top: "conv3_3"
  param {
    lr_mult: 1
  }
  param {
    lr_mult: 2
  }
  convolution_param {
    num_output: 256
    pad: 1
    kernel_size: 3
  }
}
layer {
  name: "relu3_3"
  type: "ReLU"
  bottom: "conv3_3"
  top: "conv3_3"
}
layer {
  name: "pool3"
  type: "Pooling"
  bottom: "conv3_3"
  top: "pool3"
  pooling_param {
    pool: MAX
    kernel_size: 2
    stride: 2
  }
}
layer {
  name: "conv4_1"
  type: "Convolution"
  bottom: "pool3"
  top: "conv4_1"
  param {
    lr_mult: 1
  }
  param {
    lr_mult: 2
  }
  convolution_param {
    num_output: 512
    pad: 1
    kernel_size: 3
  }
}
layer {
  name: "relu4_1"
  type: "ReLU"
  bottom: "conv4_1"
  top: "conv4_1"
}
layer {
  name: "conv4_2"
  type: "Convolution"
  bottom: "conv4_1"
  top: "conv4_2"
  param {
    lr_mult: 1
  }
  param {
    lr_mult: 2
  }
  convolution_param {
    num_output: 512
    pad: 1
    kernel_size: 3
  }
}
layer {
  name: "relu4_2"
  type: "ReLU"
  bottom: "conv4_2"
  top: "conv4_2"
}
layer {
  name: "conv4_3"
  type: "Convolution"
  bottom: "conv4_2"
  top: "conv4_3"
  param {
    lr_mult: 1
  }
  param {
    lr_mult: 2
  }
  convolution_param {
    num_output: 512
    pad: 1
    kernel_size: 3
  }
}
layer {
  name: "relu4_3"
  type: "ReLU"
  bottom: "conv4_3"
  top: "conv4_3"
}
layer {
  name: "pool4"
  type: "Pooling"
  bottom: "conv4_3"
  top: "pool4"
  pooling_param {
    pool: MAX
    kernel_size: 2
    stride: 2
  }
}
layer {
  name: "conv5_1"
  type: "Convolution"
  bottom: "pool4"
  top: "conv5_1"
  param {
    lr_mult: 1
  }
  param {
    lr_mult: 2
  }
  convolution_param {
    num_output: 512
    pad: 1
    kernel_size: 3
  }
}
layer {
  name: "relu5_1"
  type: "ReLU"
  bottom: "conv5_1"
  top: "conv5_1"
}
layer {
  name: "conv5_2"
  type: "Convolution"
  bottom: "conv5_1"
  top: "conv5_2"
  param {
    lr_mult: 1
  }
  param {
    lr_mult: 2
  }
  convolution_param {
    num_output: 512
    pad: 1
    kernel_size: 3
  }
}
layer {
  name: "relu5_2"
  type: "ReLU"
  bottom: "conv5_2"
  top: "conv5_2"
}
layer {
  name: "conv5_3"
  type: "Convolution"
  bottom: "conv5_2"
  top: "conv5_3"
  param {
    lr_mult: 1
  }
  param {
    lr_mult: 2
  }
  convolution_param {
    num_output: 512
    pad: 1
    kernel_size: 3
  }
}
layer {
  name: "relu5_3"
  type: "ReLU"
  bottom: "conv5_3"
  top: "conv5_3"
}
layer {
  name: "rpn_big_conv1"
  type: "Convolution"
  bottom: "conv5_3"
  top: "rpn_big_conv1"
  param {
    lr_mult: 1
  }
  param {
    lr_mult: 2
  }
  convolution_param {
    num_output: 512
    pad: 1
    kernel_size: 3
    stride: 1
    weight_filler {
      type: "gaussian"
      mean: 0
      std: 0.01
    }
    bias_filler {
      type: "constant"
    }
  }
}
layer {
  name: "rpn_big_conv1_relu"
  type: "ReLU"
  bottom: "rpn_big_conv1"
  top: "rpn_big_conv1"
  relu_param {
    negative_slope: 0
  }
}
layer {
  name: "rpn_big_conv2"
  type: "Convolution"
  bottom: "rpn_big_conv1"
  top: "rpn_big_conv2"
  param {
    lr_mult: 1
  }
  param {
    lr_mult: 2
  }
  convolution_param {
    num_output: 512
    pad: 1
    kernel_size: 3
    stride: 1
    weight_filler {
      type: "gaussian"
      mean: 0
      std: 0.01
    }
    bias_filler {
      type: "constant"
    }
  }
}
layer {
  name: "rpn_big_conv2_relu"
  type: "ReLU"
  bottom: "rpn_big_conv2"
  top: "rpn_big_conv2"
  relu_param {
    negative_slope: 0
  }
}
layer {
  name: "rpn_big_conv2_drop"
  type: "Dropout"
  bottom: "rpn_big_conv2"
  top: "rpn_big_conv2"
  dropout_param {
    dropout_ratio: 0.3
  }
}
layer {
  name: "rpn_big_output_cls"
  type: "Convolution"
  bottom: "rpn_big_conv2"
  top: "rpn_big_output_cls"
  param {
    lr_mult: 1
  }
  param {
    lr_mult: 2
  }
  convolution_param {
    num_output: 384
    pad: 1
    kernel_size: 3
    stride: 1
    weight_filler {
      type: "gaussian"
      mean: 0
      std: 0.01
    }
    bias_filler {
      type: "constant"
    }
  }
}
layer {
  name: "rpn_big_output_cls_relu"
  type: "ReLU"
  bottom: "rpn_big_output_cls"
  top: "rpn_big_output_cls"
  relu_param {
    negative_slope: 0
  }
}
layer {
  name: "rpn_big_cls_score"
  type: "Convolution"
  bottom: "rpn_big_output_cls"
  top: "rpn_big_cls_score"
  param {
    lr_mult: 1
  }
  param {
    lr_mult: 2
  }
  convolution_param {
    num_output: 52
    pad: 0
    kernel_size: 3
    stride: 1
    weight_filler {
      type: "gaussian"
      mean: 0
      std: 0.01
    }
    bias_filler {
      type: "constant"
    }
  }
}
layer {
  name: "rpn_big_cls_score_reshape"
  type: "Reshape"
  bottom: "rpn_big_cls_score"
  top: "rpn_big_cls_score_reshape"
  reshape_param {
    shape {
      dim: 0
      dim: 2
      dim: -1
      dim: 0
    }
  }
}
layer {
  name: "rpn_big_cls_prob"
  type: "Softmax"
  bottom: "rpn_big_cls_score_reshape"
  top: "rpn_big_cls_prob"
}
layer {
  name: "rpn_big_cls_prob_reshape"
  type: "Reshape"
  bottom: "rpn_big_cls_prob"
  top: "rpn_big_cls_prob_reshape"
  reshape_param {
    shape {
      dim: 0
      dim: 52
      dim: -1
      dim: 0
    }
  }
}
layer {
  name: "rpn_big_anchor_target"
  type: "Python"
  bottom: "rpn_big_cls_score"
  bottom: "input_gt_boxes"
  bottom: "input_ignored_boxes"
  bottom: "input_im_info"
  bottom: "input_data"
  bottom: "rpn_big_cls_prob_reshape"
  top: "rpn_big_anchor_target_labels"
  top: "rpn_big_anchor_target_bbox_targets"
  top: "rpn_big_anchor_target_inside_weights"
  top: "rpn_big_anchor_target_outside_weights"
  python_param {
    module: "rpn.anchor_target_layer"
    layer: "AnchorTargetLayer"
    param_str: "{\"anchor_shift_num_xy\": [[2, 2], [2, 2], [2, 2], [2, 2], [1, 1], [1, 1], [1, 1], [1, 1], [1, 1], [1, 1], [1, 1], [1, 1], [1, 1], [1, 1]], \"fg_fraction\": 0.5, \"batchsize\": 256, \"positive_overlap\": 0.6, \"tn_fraction\": 0.2, \"negative_overlap\": 0.4, \"square_targets\": true, \"anchor_ratios\": [1.0], \"feat_stride\": 16, \"name\": \"rpn_big\", \"num_classes\": 1, \"anchor_scales\": [2.5, 3.025, 3.66025, 4.4289024999999995, 5.358972025, 6.484356150249999, 7.846070941802498, 9.493745839581022, 11.487432465893036, 13.899793283730574, 16.818749873313998, 20.350687346709933, 24.62433168951902, 29.795441344318014]}"
  }
}
layer {
  name: "rpn_big_loss_cls"
  type: "SoftmaxWithLoss"
  bottom: "rpn_big_cls_score_reshape"
  bottom: "rpn_big_anchor_target_labels"
  top: "rpn_big_loss_cls"
  loss_weight: 1
  propagate_down: true
  propagate_down: false
  loss_param {
    ignore_label: -1
    normalization: VALID
  }
}
layer {
  name: "rpn_big_output_box"
  type: "Convolution"
  bottom: "rpn_big_conv2"
  top: "rpn_big_output_box"
  param {
    lr_mult: 1
  }
  param {
    lr_mult: 2
  }
  convolution_param {
    num_output: 384
    pad: 1
    kernel_size: 3
    stride: 1
    weight_filler {
      type: "gaussian"
      mean: 0
      std: 0.01
    }
    bias_filler {
      type: "constant"
    }
  }
}
layer {
  name: "rpn_big_output_box_relu"
  type: "ReLU"
  bottom: "rpn_big_output_box"
  top: "rpn_big_output_box"
  relu_param {
    negative_slope: 0
  }
}
layer {
  name: "rpn_big_bbox_pred"
  type: "Convolution"
  bottom: "rpn_big_output_box"
  top: "rpn_big_bbox_pred"
  param {
    lr_mult: 1
  }
  param {
    lr_mult: 2
  }
  convolution_param {
    num_output: 104
    pad: 0
    kernel_size: 3
    stride: 1
    weight_filler {
      type: "gaussian"
      mean: 0
      std: 0.01
    }
    bias_filler {
      type: "constant"
    }
  }
}
layer {
  name: "rpn_big_loss_bbox"
  type: "Python"
  bottom: "rpn_big_bbox_pred"
  bottom: "rpn_big_anchor_target_bbox_targets"
  bottom: "rpn_big_anchor_target_inside_weights"
  bottom: "rpn_big_anchor_target_outside_weights"
  top: "rpn_big_loss_bbox"
  loss_weight: 1
  python_param {
    module: "layers.smooth_l1_loss"
    layer: "SmoothL1LossLayer"
    param_str: "{\"sigma\": 3}"
  }
}
I0406 15:17:40.853055  6379 layer_factory.hpp:77] Creating layer input
I0406 15:17:40.854261  6379 net.cpp:106] Creating Layer input
I0406 15:17:40.854284  6379 net.cpp:411] input -> input_data
I0406 15:17:40.854295  6379 net.cpp:411] input -> input_im_info
I0406 15:17:40.854302  6379 net.cpp:411] input -> input_gt_boxes
I0406 15:17:40.854310  6379 net.cpp:411] input -> input_ignored_boxes
RoiDataLayer: name_to_top: {'im_info': 1, 'ignored_boxes': 3, 'data': 0, 'gt_boxes': 2}
I0406 15:17:41.171237  6379 net.cpp:150] Setting up input
I0406 15:17:41.171262  6379 net.cpp:157] Top shape: 1 3 1000 1500 (4500000)
I0406 15:17:41.171267  6379 net.cpp:157] Top shape: 1 3 (3)
I0406 15:17:41.171272  6379 net.cpp:157] Top shape: 1 5 (5)
I0406 15:17:41.171274  6379 net.cpp:157] Top shape: 1 5 (5)
I0406 15:17:41.171277  6379 net.cpp:165] Memory required for data: 18000052
I0406 15:17:41.171283  6379 layer_factory.hpp:77] Creating layer input_data_input_0_split
I0406 15:17:41.171296  6379 net.cpp:106] Creating Layer input_data_input_0_split
I0406 15:17:41.171303  6379 net.cpp:454] input_data_input_0_split <- input_data
I0406 15:17:41.171313  6379 net.cpp:411] input_data_input_0_split -> input_data_input_0_split_0
I0406 15:17:41.171324  6379 net.cpp:411] input_data_input_0_split -> input_data_input_0_split_1
I0406 15:17:41.171355  6379 net.cpp:150] Setting up input_data_input_0_split
I0406 15:17:41.171368  6379 net.cpp:157] Top shape: 1 3 1000 1500 (4500000)
I0406 15:17:41.171373  6379 net.cpp:157] Top shape: 1 3 1000 1500 (4500000)
I0406 15:17:41.171376  6379 net.cpp:165] Memory required for data: 54000052
I0406 15:17:41.171380  6379 layer_factory.hpp:77] Creating layer conv1_1
I0406 15:17:41.171391  6379 net.cpp:106] Creating Layer conv1_1
I0406 15:17:41.171396  6379 net.cpp:454] conv1_1 <- input_data_input_0_split_0
I0406 15:17:41.171403  6379 net.cpp:411] conv1_1 -> conv1_1
I0406 15:17:41.174334  6379 net.cpp:150] Setting up conv1_1
I0406 15:17:41.174368  6379 net.cpp:157] Top shape: 1 64 1000 1500 (96000000)
I0406 15:17:41.174372  6379 net.cpp:165] Memory required for data: 438000052
I0406 15:17:41.174389  6379 layer_factory.hpp:77] Creating layer relu1_1
I0406 15:17:41.174401  6379 net.cpp:106] Creating Layer relu1_1
I0406 15:17:41.174406  6379 net.cpp:454] relu1_1 <- conv1_1
I0406 15:17:41.174412  6379 net.cpp:397] relu1_1 -> conv1_1 (in-place)
I0406 15:17:41.174422  6379 net.cpp:150] Setting up relu1_1
I0406 15:17:41.174427  6379 net.cpp:157] Top shape: 1 64 1000 1500 (96000000)
I0406 15:17:41.174430  6379 net.cpp:165] Memory required for data: 822000052
I0406 15:17:41.174433  6379 layer_factory.hpp:77] Creating layer conv1_2
I0406 15:17:41.174444  6379 net.cpp:106] Creating Layer conv1_2
I0406 15:17:41.174448  6379 net.cpp:454] conv1_2 <- conv1_1
I0406 15:17:41.174454  6379 net.cpp:411] conv1_2 -> conv1_2
I0406 15:17:41.177577  6379 net.cpp:150] Setting up conv1_2
I0406 15:17:41.177613  6379 net.cpp:157] Top shape: 1 64 1000 1500 (96000000)
I0406 15:17:41.177616  6379 net.cpp:165] Memory required for data: 1206000052
I0406 15:17:41.177634  6379 layer_factory.hpp:77] Creating layer relu1_2
I0406 15:17:41.177644  6379 net.cpp:106] Creating Layer relu1_2
I0406 15:17:41.177649  6379 net.cpp:454] relu1_2 <- conv1_2
I0406 15:17:41.177657  6379 net.cpp:397] relu1_2 -> conv1_2 (in-place)
I0406 15:17:41.177669  6379 net.cpp:150] Setting up relu1_2
I0406 15:17:41.177673  6379 net.cpp:157] Top shape: 1 64 1000 1500 (96000000)
I0406 15:17:41.177676  6379 net.cpp:165] Memory required for data: 1590000052
I0406 15:17:41.177680  6379 layer_factory.hpp:77] Creating layer pool1
I0406 15:17:41.177686  6379 net.cpp:106] Creating Layer pool1
I0406 15:17:41.177690  6379 net.cpp:454] pool1 <- conv1_2
I0406 15:17:41.177695  6379 net.cpp:411] pool1 -> pool1
I0406 15:17:41.177767  6379 net.cpp:150] Setting up pool1
I0406 15:17:41.177776  6379 net.cpp:157] Top shape: 1 64 500 750 (24000000)
I0406 15:17:41.177779  6379 net.cpp:165] Memory required for data: 1686000052
I0406 15:17:41.177783  6379 layer_factory.hpp:77] Creating layer conv2_1
I0406 15:17:41.177794  6379 net.cpp:106] Creating Layer conv2_1
I0406 15:17:41.177798  6379 net.cpp:454] conv2_1 <- pool1
I0406 15:17:41.177804  6379 net.cpp:411] conv2_1 -> conv2_1
I0406 15:17:41.179013  6379 net.cpp:150] Setting up conv2_1
I0406 15:17:41.179035  6379 net.cpp:157] Top shape: 1 128 500 750 (48000000)
I0406 15:17:41.179039  6379 net.cpp:165] Memory required for data: 1878000052
I0406 15:17:41.179059  6379 layer_factory.hpp:77] Creating layer relu2_1
I0406 15:17:41.179069  6379 net.cpp:106] Creating Layer relu2_1
I0406 15:17:41.179072  6379 net.cpp:454] relu2_1 <- conv2_1
I0406 15:17:41.179080  6379 net.cpp:397] relu2_1 -> conv2_1 (in-place)
I0406 15:17:41.179087  6379 net.cpp:150] Setting up relu2_1
I0406 15:17:41.179091  6379 net.cpp:157] Top shape: 1 128 500 750 (48000000)
I0406 15:17:41.179095  6379 net.cpp:165] Memory required for data: 2070000052
I0406 15:17:41.179098  6379 layer_factory.hpp:77] Creating layer conv2_2
I0406 15:17:41.179105  6379 net.cpp:106] Creating Layer conv2_2
I0406 15:17:41.179108  6379 net.cpp:454] conv2_2 <- conv2_1
I0406 15:17:41.179114  6379 net.cpp:411] conv2_2 -> conv2_2
I0406 15:17:41.180063  6379 net.cpp:150] Setting up conv2_2
I0406 15:17:41.180086  6379 net.cpp:157] Top shape: 1 128 500 750 (48000000)
I0406 15:17:41.180099  6379 net.cpp:165] Memory required for data: 2262000052
I0406 15:17:41.180107  6379 layer_factory.hpp:77] Creating layer relu2_2
I0406 15:17:41.180115  6379 net.cpp:106] Creating Layer relu2_2
I0406 15:17:41.180120  6379 net.cpp:454] relu2_2 <- conv2_2
I0406 15:17:41.180126  6379 net.cpp:397] relu2_2 -> conv2_2 (in-place)
I0406 15:17:41.180135  6379 net.cpp:150] Setting up relu2_2
I0406 15:17:41.180138  6379 net.cpp:157] Top shape: 1 128 500 750 (48000000)
I0406 15:17:41.180141  6379 net.cpp:165] Memory required for data: 2454000052
I0406 15:17:41.180145  6379 layer_factory.hpp:77] Creating layer pool2
I0406 15:17:41.180151  6379 net.cpp:106] Creating Layer pool2
I0406 15:17:41.180155  6379 net.cpp:454] pool2 <- conv2_2
I0406 15:17:41.180160  6379 net.cpp:411] pool2 -> pool2
I0406 15:17:41.180202  6379 net.cpp:150] Setting up pool2
I0406 15:17:41.180209  6379 net.cpp:157] Top shape: 1 128 250 375 (12000000)
I0406 15:17:41.180212  6379 net.cpp:165] Memory required for data: 2502000052
I0406 15:17:41.180215  6379 layer_factory.hpp:77] Creating layer conv3_1
I0406 15:17:41.180225  6379 net.cpp:106] Creating Layer conv3_1
I0406 15:17:41.180228  6379 net.cpp:454] conv3_1 <- pool2
I0406 15:17:41.180234  6379 net.cpp:411] conv3_1 -> conv3_1
I0406 15:17:41.181422  6379 net.cpp:150] Setting up conv3_1
I0406 15:17:41.181444  6379 net.cpp:157] Top shape: 1 256 250 375 (24000000)
I0406 15:17:41.181448  6379 net.cpp:165] Memory required for data: 2598000052
I0406 15:17:41.181473  6379 layer_factory.hpp:77] Creating layer relu3_1
I0406 15:17:41.181480  6379 net.cpp:106] Creating Layer relu3_1
I0406 15:17:41.181485  6379 net.cpp:454] relu3_1 <- conv3_1
I0406 15:17:41.181491  6379 net.cpp:397] relu3_1 -> conv3_1 (in-place)
I0406 15:17:41.181499  6379 net.cpp:150] Setting up relu3_1
I0406 15:17:41.181504  6379 net.cpp:157] Top shape: 1 256 250 375 (24000000)
I0406 15:17:41.181507  6379 net.cpp:165] Memory required for data: 2694000052
I0406 15:17:41.181510  6379 layer_factory.hpp:77] Creating layer conv3_2
I0406 15:17:41.181519  6379 net.cpp:106] Creating Layer conv3_2
I0406 15:17:41.181524  6379 net.cpp:454] conv3_2 <- conv3_1
I0406 15:17:41.181529  6379 net.cpp:411] conv3_2 -> conv3_2
I0406 15:17:41.182760  6379 net.cpp:150] Setting up conv3_2
I0406 15:17:41.182785  6379 net.cpp:157] Top shape: 1 256 250 375 (24000000)
I0406 15:17:41.182787  6379 net.cpp:165] Memory required for data: 2790000052
I0406 15:17:41.182806  6379 layer_factory.hpp:77] Creating layer relu3_2
I0406 15:17:41.182816  6379 net.cpp:106] Creating Layer relu3_2
I0406 15:17:41.182821  6379 net.cpp:454] relu3_2 <- conv3_2
I0406 15:17:41.182826  6379 net.cpp:397] relu3_2 -> conv3_2 (in-place)
I0406 15:17:41.182834  6379 net.cpp:150] Setting up relu3_2
I0406 15:17:41.182839  6379 net.cpp:157] Top shape: 1 256 250 375 (24000000)
I0406 15:17:41.182842  6379 net.cpp:165] Memory required for data: 2886000052
I0406 15:17:41.182845  6379 layer_factory.hpp:77] Creating layer conv3_3
I0406 15:17:41.182855  6379 net.cpp:106] Creating Layer conv3_3
I0406 15:17:41.182870  6379 net.cpp:454] conv3_3 <- conv3_2
I0406 15:17:41.182876  6379 net.cpp:411] conv3_3 -> conv3_3
I0406 15:17:41.184387  6379 net.cpp:150] Setting up conv3_3
I0406 15:17:41.184428  6379 net.cpp:157] Top shape: 1 256 250 375 (24000000)
I0406 15:17:41.184442  6379 net.cpp:165] Memory required for data: 2982000052
I0406 15:17:41.184450  6379 layer_factory.hpp:77] Creating layer relu3_3
I0406 15:17:41.184461  6379 net.cpp:106] Creating Layer relu3_3
I0406 15:17:41.184466  6379 net.cpp:454] relu3_3 <- conv3_3
I0406 15:17:41.184473  6379 net.cpp:397] relu3_3 -> conv3_3 (in-place)
I0406 15:17:41.184483  6379 net.cpp:150] Setting up relu3_3
I0406 15:17:41.184487  6379 net.cpp:157] Top shape: 1 256 250 375 (24000000)
I0406 15:17:41.184490  6379 net.cpp:165] Memory required for data: 3078000052
I0406 15:17:41.184494  6379 layer_factory.hpp:77] Creating layer pool3
I0406 15:17:41.184500  6379 net.cpp:106] Creating Layer pool3
I0406 15:17:41.184504  6379 net.cpp:454] pool3 <- conv3_3
I0406 15:17:41.184509  6379 net.cpp:411] pool3 -> pool3
I0406 15:17:41.184552  6379 net.cpp:150] Setting up pool3
I0406 15:17:41.184559  6379 net.cpp:157] Top shape: 1 256 125 188 (6016000)
I0406 15:17:41.184563  6379 net.cpp:165] Memory required for data: 3102064052
I0406 15:17:41.184566  6379 layer_factory.hpp:77] Creating layer conv4_1
I0406 15:17:41.184576  6379 net.cpp:106] Creating Layer conv4_1
I0406 15:17:41.184579  6379 net.cpp:454] conv4_1 <- pool3
I0406 15:17:41.184584  6379 net.cpp:411] conv4_1 -> conv4_1
I0406 15:17:41.187193  6379 net.cpp:150] Setting up conv4_1
I0406 15:17:41.187222  6379 net.cpp:157] Top shape: 1 512 125 188 (12032000)
I0406 15:17:41.187235  6379 net.cpp:165] Memory required for data: 3150192052
I0406 15:17:41.187244  6379 layer_factory.hpp:77] Creating layer relu4_1
I0406 15:17:41.187254  6379 net.cpp:106] Creating Layer relu4_1
I0406 15:17:41.187259  6379 net.cpp:454] relu4_1 <- conv4_1
I0406 15:17:41.187268  6379 net.cpp:397] relu4_1 -> conv4_1 (in-place)
I0406 15:17:41.187276  6379 net.cpp:150] Setting up relu4_1
I0406 15:17:41.187281  6379 net.cpp:157] Top shape: 1 512 125 188 (12032000)
I0406 15:17:41.187284  6379 net.cpp:165] Memory required for data: 3198320052
I0406 15:17:41.187288  6379 layer_factory.hpp:77] Creating layer conv4_2
I0406 15:17:41.187295  6379 net.cpp:106] Creating Layer conv4_2
I0406 15:17:41.187299  6379 net.cpp:454] conv4_2 <- conv4_1
I0406 15:17:41.187305  6379 net.cpp:411] conv4_2 -> conv4_2
I0406 15:17:41.191715  6379 net.cpp:150] Setting up conv4_2
I0406 15:17:41.191751  6379 net.cpp:157] Top shape: 1 512 125 188 (12032000)
I0406 15:17:41.191756  6379 net.cpp:165] Memory required for data: 3246448052
I0406 15:17:41.191769  6379 layer_factory.hpp:77] Creating layer relu4_2
I0406 15:17:41.191781  6379 net.cpp:106] Creating Layer relu4_2
I0406 15:17:41.191784  6379 net.cpp:454] relu4_2 <- conv4_2
I0406 15:17:41.191792  6379 net.cpp:397] relu4_2 -> conv4_2 (in-place)
I0406 15:17:41.191800  6379 net.cpp:150] Setting up relu4_2
I0406 15:17:41.191805  6379 net.cpp:157] Top shape: 1 512 125 188 (12032000)
I0406 15:17:41.191808  6379 net.cpp:165] Memory required for data: 3294576052
I0406 15:17:41.191812  6379 layer_factory.hpp:77] Creating layer conv4_3
I0406 15:17:41.191820  6379 net.cpp:106] Creating Layer conv4_3
I0406 15:17:41.191824  6379 net.cpp:454] conv4_3 <- conv4_2
I0406 15:17:41.191829  6379 net.cpp:411] conv4_3 -> conv4_3
I0406 15:17:41.196292  6379 net.cpp:150] Setting up conv4_3
I0406 15:17:41.196334  6379 net.cpp:157] Top shape: 1 512 125 188 (12032000)
I0406 15:17:41.196338  6379 net.cpp:165] Memory required for data: 3342704052
I0406 15:17:41.196348  6379 layer_factory.hpp:77] Creating layer relu4_3
I0406 15:17:41.196357  6379 net.cpp:106] Creating Layer relu4_3
I0406 15:17:41.196362  6379 net.cpp:454] relu4_3 <- conv4_3
I0406 15:17:41.196370  6379 net.cpp:397] relu4_3 -> conv4_3 (in-place)
I0406 15:17:41.196379  6379 net.cpp:150] Setting up relu4_3
I0406 15:17:41.196384  6379 net.cpp:157] Top shape: 1 512 125 188 (12032000)
I0406 15:17:41.196388  6379 net.cpp:165] Memory required for data: 3390832052
I0406 15:17:41.196390  6379 layer_factory.hpp:77] Creating layer pool4
I0406 15:17:41.196398  6379 net.cpp:106] Creating Layer pool4
I0406 15:17:41.196401  6379 net.cpp:454] pool4 <- conv4_3
I0406 15:17:41.196419  6379 net.cpp:411] pool4 -> pool4
I0406 15:17:41.196460  6379 net.cpp:150] Setting up pool4
I0406 15:17:41.196468  6379 net.cpp:157] Top shape: 1 512 63 94 (3032064)
I0406 15:17:41.196472  6379 net.cpp:165] Memory required for data: 3402960308
I0406 15:17:41.196475  6379 layer_factory.hpp:77] Creating layer conv5_1
I0406 15:17:41.196488  6379 net.cpp:106] Creating Layer conv5_1
I0406 15:17:41.196492  6379 net.cpp:454] conv5_1 <- pool4
I0406 15:17:41.196497  6379 net.cpp:411] conv5_1 -> conv5_1
I0406 15:17:41.201375  6379 net.cpp:150] Setting up conv5_1
I0406 15:17:41.201408  6379 net.cpp:157] Top shape: 1 512 63 94 (3032064)
I0406 15:17:41.201412  6379 net.cpp:165] Memory required for data: 3415088564
I0406 15:17:41.201422  6379 layer_factory.hpp:77] Creating layer relu5_1
I0406 15:17:41.201432  6379 net.cpp:106] Creating Layer relu5_1
I0406 15:17:41.201437  6379 net.cpp:454] relu5_1 <- conv5_1
I0406 15:17:41.201445  6379 net.cpp:397] relu5_1 -> conv5_1 (in-place)
I0406 15:17:41.201455  6379 net.cpp:150] Setting up relu5_1
I0406 15:17:41.201460  6379 net.cpp:157] Top shape: 1 512 63 94 (3032064)
I0406 15:17:41.201463  6379 net.cpp:165] Memory required for data: 3427216820
I0406 15:17:41.201467  6379 layer_factory.hpp:77] Creating layer conv5_2
I0406 15:17:41.201477  6379 net.cpp:106] Creating Layer conv5_2
I0406 15:17:41.201480  6379 net.cpp:454] conv5_2 <- conv5_1
I0406 15:17:41.201485  6379 net.cpp:411] conv5_2 -> conv5_2
I0406 15:17:41.205962  6379 net.cpp:150] Setting up conv5_2
I0406 15:17:41.205997  6379 net.cpp:157] Top shape: 1 512 63 94 (3032064)
I0406 15:17:41.206001  6379 net.cpp:165] Memory required for data: 3439345076
I0406 15:17:41.206010  6379 layer_factory.hpp:77] Creating layer relu5_2
I0406 15:17:41.206020  6379 net.cpp:106] Creating Layer relu5_2
I0406 15:17:41.206025  6379 net.cpp:454] relu5_2 <- conv5_2
I0406 15:17:41.206032  6379 net.cpp:397] relu5_2 -> conv5_2 (in-place)
I0406 15:17:41.206043  6379 net.cpp:150] Setting up relu5_2
I0406 15:17:41.206046  6379 net.cpp:157] Top shape: 1 512 63 94 (3032064)
I0406 15:17:41.206049  6379 net.cpp:165] Memory required for data: 3451473332
I0406 15:17:41.206053  6379 layer_factory.hpp:77] Creating layer conv5_3
I0406 15:17:41.206063  6379 net.cpp:106] Creating Layer conv5_3
I0406 15:17:41.206066  6379 net.cpp:454] conv5_3 <- conv5_2
I0406 15:17:41.206073  6379 net.cpp:411] conv5_3 -> conv5_3
I0406 15:17:41.210516  6379 net.cpp:150] Setting up conv5_3
I0406 15:17:41.210548  6379 net.cpp:157] Top shape: 1 512 63 94 (3032064)
I0406 15:17:41.210552  6379 net.cpp:165] Memory required for data: 3463601588
I0406 15:17:41.210562  6379 layer_factory.hpp:77] Creating layer relu5_3
I0406 15:17:41.210573  6379 net.cpp:106] Creating Layer relu5_3
I0406 15:17:41.210578  6379 net.cpp:454] relu5_3 <- conv5_3
I0406 15:17:41.210587  6379 net.cpp:397] relu5_3 -> conv5_3 (in-place)
I0406 15:17:41.210597  6379 net.cpp:150] Setting up relu5_3
I0406 15:17:41.210600  6379 net.cpp:157] Top shape: 1 512 63 94 (3032064)
I0406 15:17:41.210603  6379 net.cpp:165] Memory required for data: 3475729844
I0406 15:17:41.210606  6379 layer_factory.hpp:77] Creating layer rpn_big_conv1
I0406 15:17:41.210623  6379 net.cpp:106] Creating Layer rpn_big_conv1
I0406 15:17:41.210626  6379 net.cpp:454] rpn_big_conv1 <- conv5_3
I0406 15:17:41.210633  6379 net.cpp:411] rpn_big_conv1 -> rpn_big_conv1
I0406 15:17:41.235792  6379 net.cpp:150] Setting up rpn_big_conv1
I0406 15:17:41.235823  6379 net.cpp:157] Top shape: 1 512 63 94 (3032064)
I0406 15:17:41.235827  6379 net.cpp:165] Memory required for data: 3487858100
I0406 15:17:41.235836  6379 layer_factory.hpp:77] Creating layer rpn_big_conv1_relu
I0406 15:17:41.235847  6379 net.cpp:106] Creating Layer rpn_big_conv1_relu
I0406 15:17:41.235852  6379 net.cpp:454] rpn_big_conv1_relu <- rpn_big_conv1
I0406 15:17:41.235860  6379 net.cpp:397] rpn_big_conv1_relu -> rpn_big_conv1 (in-place)
I0406 15:17:41.235869  6379 net.cpp:150] Setting up rpn_big_conv1_relu
I0406 15:17:41.235873  6379 net.cpp:157] Top shape: 1 512 63 94 (3032064)
I0406 15:17:41.235877  6379 net.cpp:165] Memory required for data: 3499986356
I0406 15:17:41.235879  6379 layer_factory.hpp:77] Creating layer rpn_big_conv2
I0406 15:17:41.235891  6379 net.cpp:106] Creating Layer rpn_big_conv2
I0406 15:17:41.235894  6379 net.cpp:454] rpn_big_conv2 <- rpn_big_conv1
I0406 15:17:41.235901  6379 net.cpp:411] rpn_big_conv2 -> rpn_big_conv2
I0406 15:17:41.266144  6379 net.cpp:150] Setting up rpn_big_conv2
I0406 15:17:41.266180  6379 net.cpp:157] Top shape: 1 512 63 94 (3032064)
I0406 15:17:41.266193  6379 net.cpp:165] Memory required for data: 3512114612
I0406 15:17:41.266203  6379 layer_factory.hpp:77] Creating layer rpn_big_conv2_relu
I0406 15:17:41.266214  6379 net.cpp:106] Creating Layer rpn_big_conv2_relu
I0406 15:17:41.266219  6379 net.cpp:454] rpn_big_conv2_relu <- rpn_big_conv2
I0406 15:17:41.266229  6379 net.cpp:397] rpn_big_conv2_relu -> rpn_big_conv2 (in-place)
I0406 15:17:41.266239  6379 net.cpp:150] Setting up rpn_big_conv2_relu
I0406 15:17:41.266243  6379 net.cpp:157] Top shape: 1 512 63 94 (3032064)
I0406 15:17:41.266247  6379 net.cpp:165] Memory required for data: 3524242868
I0406 15:17:41.266250  6379 layer_factory.hpp:77] Creating layer rpn_big_conv2_drop
I0406 15:17:41.266258  6379 net.cpp:106] Creating Layer rpn_big_conv2_drop
I0406 15:17:41.266260  6379 net.cpp:454] rpn_big_conv2_drop <- rpn_big_conv2
I0406 15:17:41.266266  6379 net.cpp:397] rpn_big_conv2_drop -> rpn_big_conv2 (in-place)
I0406 15:17:41.266288  6379 net.cpp:150] Setting up rpn_big_conv2_drop
I0406 15:17:41.266294  6379 net.cpp:157] Top shape: 1 512 63 94 (3032064)
I0406 15:17:41.266297  6379 net.cpp:165] Memory required for data: 3536371124
I0406 15:17:41.266300  6379 layer_factory.hpp:77] Creating layer rpn_big_conv2_rpn_big_conv2_drop_0_split
I0406 15:17:41.266309  6379 net.cpp:106] Creating Layer rpn_big_conv2_rpn_big_conv2_drop_0_split
I0406 15:17:41.266311  6379 net.cpp:454] rpn_big_conv2_rpn_big_conv2_drop_0_split <- rpn_big_conv2
I0406 15:17:41.266316  6379 net.cpp:411] rpn_big_conv2_rpn_big_conv2_drop_0_split -> rpn_big_conv2_rpn_big_conv2_drop_0_split_0
I0406 15:17:41.266324  6379 net.cpp:411] rpn_big_conv2_rpn_big_conv2_drop_0_split -> rpn_big_conv2_rpn_big_conv2_drop_0_split_1
I0406 15:17:41.266356  6379 net.cpp:150] Setting up rpn_big_conv2_rpn_big_conv2_drop_0_split
I0406 15:17:41.266362  6379 net.cpp:157] Top shape: 1 512 63 94 (3032064)
I0406 15:17:41.266366  6379 net.cpp:157] Top shape: 1 512 63 94 (3032064)
I0406 15:17:41.266369  6379 net.cpp:165] Memory required for data: 3560627636
I0406 15:17:41.266372  6379 layer_factory.hpp:77] Creating layer rpn_big_output_cls
I0406 15:17:41.266384  6379 net.cpp:106] Creating Layer rpn_big_output_cls
I0406 15:17:41.266388  6379 net.cpp:454] rpn_big_output_cls <- rpn_big_conv2_rpn_big_conv2_drop_0_split_0
I0406 15:17:41.266394  6379 net.cpp:411] rpn_big_output_cls -> rpn_big_output_cls
I0406 15:17:41.287333  6379 net.cpp:150] Setting up rpn_big_output_cls
I0406 15:17:41.287377  6379 net.cpp:157] Top shape: 1 384 63 94 (2274048)
I0406 15:17:41.287382  6379 net.cpp:165] Memory required for data: 3569723828
I0406 15:17:41.287392  6379 layer_factory.hpp:77] Creating layer rpn_big_output_cls_relu
I0406 15:17:41.287406  6379 net.cpp:106] Creating Layer rpn_big_output_cls_relu
I0406 15:17:41.287415  6379 net.cpp:454] rpn_big_output_cls_relu <- rpn_big_output_cls
I0406 15:17:41.287425  6379 net.cpp:397] rpn_big_output_cls_relu -> rpn_big_output_cls (in-place)
I0406 15:17:41.287439  6379 net.cpp:150] Setting up rpn_big_output_cls_relu
I0406 15:17:41.287446  6379 net.cpp:157] Top shape: 1 384 63 94 (2274048)
I0406 15:17:41.287451  6379 net.cpp:165] Memory required for data: 3578820020
I0406 15:17:41.287457  6379 layer_factory.hpp:77] Creating layer rpn_big_cls_score
I0406 15:17:41.287477  6379 net.cpp:106] Creating Layer rpn_big_cls_score
I0406 15:17:41.287482  6379 net.cpp:454] rpn_big_cls_score <- rpn_big_output_cls
I0406 15:17:41.287493  6379 net.cpp:411] rpn_big_cls_score -> rpn_big_cls_score
I0406 15:17:41.289947  6379 net.cpp:150] Setting up rpn_big_cls_score
I0406 15:17:41.289973  6379 net.cpp:157] Top shape: 1 52 61 92 (291824)
I0406 15:17:41.289976  6379 net.cpp:165] Memory required for data: 3579987316
I0406 15:17:41.289996  6379 layer_factory.hpp:77] Creating layer rpn_big_cls_score_rpn_big_cls_score_0_split
I0406 15:17:41.290012  6379 net.cpp:106] Creating Layer rpn_big_cls_score_rpn_big_cls_score_0_split
I0406 15:17:41.290019  6379 net.cpp:454] rpn_big_cls_score_rpn_big_cls_score_0_split <- rpn_big_cls_score
I0406 15:17:41.290030  6379 net.cpp:411] rpn_big_cls_score_rpn_big_cls_score_0_split -> rpn_big_cls_score_rpn_big_cls_score_0_split_0
I0406 15:17:41.290045  6379 net.cpp:411] rpn_big_cls_score_rpn_big_cls_score_0_split -> rpn_big_cls_score_rpn_big_cls_score_0_split_1
I0406 15:17:41.290084  6379 net.cpp:150] Setting up rpn_big_cls_score_rpn_big_cls_score_0_split
I0406 15:17:41.290092  6379 net.cpp:157] Top shape: 1 52 61 92 (291824)
I0406 15:17:41.290099  6379 net.cpp:157] Top shape: 1 52 61 92 (291824)
I0406 15:17:41.290105  6379 net.cpp:165] Memory required for data: 3582321908
I0406 15:17:41.290110  6379 layer_factory.hpp:77] Creating layer rpn_big_cls_score_reshape
I0406 15:17:41.290122  6379 net.cpp:106] Creating Layer rpn_big_cls_score_reshape
I0406 15:17:41.290127  6379 net.cpp:454] rpn_big_cls_score_reshape <- rpn_big_cls_score_rpn_big_cls_score_0_split_0
I0406 15:17:41.290138  6379 net.cpp:411] rpn_big_cls_score_reshape -> rpn_big_cls_score_reshape
I0406 15:17:41.290168  6379 net.cpp:150] Setting up rpn_big_cls_score_reshape
I0406 15:17:41.290174  6379 net.cpp:157] Top shape: 1 2 1586 92 (291824)
I0406 15:17:41.290179  6379 net.cpp:165] Memory required for data: 3583489204
I0406 15:17:41.290185  6379 layer_factory.hpp:77] Creating layer rpn_big_cls_score_reshape_rpn_big_cls_score_reshape_0_split
I0406 15:17:41.290195  6379 net.cpp:106] Creating Layer rpn_big_cls_score_reshape_rpn_big_cls_score_reshape_0_split
I0406 15:17:41.290202  6379 net.cpp:454] rpn_big_cls_score_reshape_rpn_big_cls_score_reshape_0_split <- rpn_big_cls_score_reshape
I0406 15:17:41.290212  6379 net.cpp:411] rpn_big_cls_score_reshape_rpn_big_cls_score_reshape_0_split -> rpn_big_cls_score_reshape_rpn_big_cls_score_reshape_0_split_0
I0406 15:17:41.290228  6379 net.cpp:411] rpn_big_cls_score_reshape_rpn_big_cls_score_reshape_0_split -> rpn_big_cls_score_reshape_rpn_big_cls_score_reshape_0_split_1
I0406 15:17:41.290263  6379 net.cpp:150] Setting up rpn_big_cls_score_reshape_rpn_big_cls_score_reshape_0_split
I0406 15:17:41.290273  6379 net.cpp:157] Top shape: 1 2 1586 92 (291824)
I0406 15:17:41.290282  6379 net.cpp:157] Top shape: 1 2 1586 92 (291824)
I0406 15:17:41.290287  6379 net.cpp:165] Memory required for data: 3585823796
I0406 15:17:41.290292  6379 layer_factory.hpp:77] Creating layer rpn_big_cls_prob
I0406 15:17:41.290302  6379 net.cpp:106] Creating Layer rpn_big_cls_prob
I0406 15:17:41.290308  6379 net.cpp:454] rpn_big_cls_prob <- rpn_big_cls_score_reshape_rpn_big_cls_score_reshape_0_split_0
I0406 15:17:41.290316  6379 net.cpp:411] rpn_big_cls_prob -> rpn_big_cls_prob
I0406 15:17:41.290374  6379 net.cpp:150] Setting up rpn_big_cls_prob
I0406 15:17:41.290383  6379 net.cpp:157] Top shape: 1 2 1586 92 (291824)
I0406 15:17:41.290387  6379 net.cpp:165] Memory required for data: 3586991092
I0406 15:17:41.290392  6379 layer_factory.hpp:77] Creating layer rpn_big_cls_prob_reshape
I0406 15:17:41.290402  6379 net.cpp:106] Creating Layer rpn_big_cls_prob_reshape
I0406 15:17:41.290410  6379 net.cpp:454] rpn_big_cls_prob_reshape <- rpn_big_cls_prob
I0406 15:17:41.290421  6379 net.cpp:411] rpn_big_cls_prob_reshape -> rpn_big_cls_prob_reshape
I0406 15:17:41.290446  6379 net.cpp:150] Setting up rpn_big_cls_prob_reshape
I0406 15:17:41.290454  6379 net.cpp:157] Top shape: 1 52 61 92 (291824)
I0406 15:17:41.290459  6379 net.cpp:165] Memory required for data: 3588158388
I0406 15:17:41.290465  6379 layer_factory.hpp:77] Creating layer rpn_big_anchor_target
I0406 15:17:41.291887  6379 net.cpp:106] Creating Layer rpn_big_anchor_target
I0406 15:17:41.291903  6379 net.cpp:454] rpn_big_anchor_target <- rpn_big_cls_score_rpn_big_cls_score_0_split_1
I0406 15:17:41.291909  6379 net.cpp:454] rpn_big_anchor_target <- input_gt_boxes
I0406 15:17:41.291918  6379 net.cpp:454] rpn_big_anchor_target <- input_ignored_boxes
I0406 15:17:41.291924  6379 net.cpp:454] rpn_big_anchor_target <- input_im_info
I0406 15:17:41.291930  6379 net.cpp:454] rpn_big_anchor_target <- input_data_input_0_split_1
I0406 15:17:41.291939  6379 net.cpp:454] rpn_big_anchor_target <- rpn_big_cls_prob_reshape
I0406 15:17:41.291949  6379 net.cpp:411] rpn_big_anchor_target -> rpn_big_anchor_target_labels
I0406 15:17:41.291963  6379 net.cpp:411] rpn_big_anchor_target -> rpn_big_anchor_target_bbox_targets
I0406 15:17:41.291973  6379 net.cpp:411] rpn_big_anchor_target -> rpn_big_anchor_target_inside_weights
I0406 15:17:41.291985  6379 net.cpp:411] rpn_big_anchor_target -> rpn_big_anchor_target_outside_weights
I0406 15:17:41.297364  6379 net.cpp:150] Setting up rpn_big_anchor_target
I0406 15:17:41.297394  6379 net.cpp:157] Top shape: 1 1 1586 92 (145912)
I0406 15:17:41.297408  6379 net.cpp:157] Top shape: 1 104 61 92 (583648)
I0406 15:17:41.297412  6379 net.cpp:157] Top shape: 1 104 61 92 (583648)
I0406 15:17:41.297417  6379 net.cpp:157] Top shape: 1 104 61 92 (583648)
I0406 15:17:41.297420  6379 net.cpp:165] Memory required for data: 3595745812
I0406 15:17:41.297426  6379 layer_factory.hpp:77] Creating layer rpn_big_loss_cls
I0406 15:17:41.297441  6379 net.cpp:106] Creating Layer rpn_big_loss_cls
I0406 15:17:41.297449  6379 net.cpp:454] rpn_big_loss_cls <- rpn_big_cls_score_reshape_rpn_big_cls_score_reshape_0_split_1
I0406 15:17:41.297461  6379 net.cpp:454] rpn_big_loss_cls <- rpn_big_anchor_target_labels
I0406 15:17:41.297473  6379 net.cpp:411] rpn_big_loss_cls -> rpn_big_loss_cls
I0406 15:17:41.297492  6379 layer_factory.hpp:77] Creating layer rpn_big_loss_cls
I0406 15:17:41.298243  6379 net.cpp:150] Setting up rpn_big_loss_cls
I0406 15:17:41.298255  6379 net.cpp:157] Top shape: (1)
I0406 15:17:41.298259  6379 net.cpp:160]     with loss weight 1
I0406 15:17:41.298279  6379 net.cpp:165] Memory required for data: 3595745816
I0406 15:17:41.298283  6379 layer_factory.hpp:77] Creating layer rpn_big_output_box
I0406 15:17:41.298301  6379 net.cpp:106] Creating Layer rpn_big_output_box
I0406 15:17:41.298311  6379 net.cpp:454] rpn_big_output_box <- rpn_big_conv2_rpn_big_conv2_drop_0_split_1
I0406 15:17:41.298323  6379 net.cpp:411] rpn_big_output_box -> rpn_big_output_box
I0406 15:17:41.317462  6379 net.cpp:150] Setting up rpn_big_output_box
I0406 15:17:41.317492  6379 net.cpp:157] Top shape: 1 384 63 94 (2274048)
I0406 15:17:41.317504  6379 net.cpp:165] Memory required for data: 3604842008
I0406 15:17:41.317514  6379 layer_factory.hpp:77] Creating layer rpn_big_output_box_relu
I0406 15:17:41.317526  6379 net.cpp:106] Creating Layer rpn_big_output_box_relu
I0406 15:17:41.317534  6379 net.cpp:454] rpn_big_output_box_relu <- rpn_big_output_box
I0406 15:17:41.317545  6379 net.cpp:397] rpn_big_output_box_relu -> rpn_big_output_box (in-place)
I0406 15:17:41.317559  6379 net.cpp:150] Setting up rpn_big_output_box_relu
I0406 15:17:41.317570  6379 net.cpp:157] Top shape: 1 384 63 94 (2274048)
I0406 15:17:41.317579  6379 net.cpp:165] Memory required for data: 3613938200
I0406 15:17:41.317584  6379 layer_factory.hpp:77] Creating layer rpn_big_bbox_pred
I0406 15:17:41.317602  6379 net.cpp:106] Creating Layer rpn_big_bbox_pred
I0406 15:17:41.317610  6379 net.cpp:454] rpn_big_bbox_pred <- rpn_big_output_box
I0406 15:17:41.317621  6379 net.cpp:411] rpn_big_bbox_pred -> rpn_big_bbox_pred
I0406 15:17:41.323601  6379 net.cpp:150] Setting up rpn_big_bbox_pred
I0406 15:17:41.323617  6379 net.cpp:157] Top shape: 1 104 61 92 (583648)
I0406 15:17:41.323621  6379 net.cpp:165] Memory required for data: 3616272792
I0406 15:17:41.323637  6379 layer_factory.hpp:77] Creating layer rpn_big_loss_bbox
I0406 15:17:41.324057  6379 net.cpp:106] Creating Layer rpn_big_loss_bbox
I0406 15:17:41.324069  6379 net.cpp:454] rpn_big_loss_bbox <- rpn_big_bbox_pred
I0406 15:17:41.324074  6379 net.cpp:454] rpn_big_loss_bbox <- rpn_big_anchor_target_bbox_targets
I0406 15:17:41.324089  6379 net.cpp:454] rpn_big_loss_bbox <- rpn_big_anchor_target_inside_weights
I0406 15:17:41.324092  6379 net.cpp:454] rpn_big_loss_bbox <- rpn_big_anchor_target_outside_weights
I0406 15:17:41.324100  6379 net.cpp:411] rpn_big_loss_bbox -> rpn_big_loss_bbox
I0406 15:17:41.326091  6379 net.cpp:150] Setting up rpn_big_loss_bbox
I0406 15:17:41.326124  6379 net.cpp:157] Top shape: 1 (1)
I0406 15:17:41.326138  6379 net.cpp:160]     with loss weight 1
I0406 15:17:41.326149  6379 net.cpp:165] Memory required for data: 3616272796
I0406 15:17:41.326156  6379 net.cpp:226] rpn_big_loss_bbox needs backward computation.
I0406 15:17:41.326165  6379 net.cpp:226] rpn_big_bbox_pred needs backward computation.
I0406 15:17:41.326170  6379 net.cpp:226] rpn_big_output_box_relu needs backward computation.
…
