…
I0413 18:54:25.193619 14510 solver.cpp:48] Initializing solver from parameters: 
base_lr: 0.001
display: 20
lr_policy: "multistep"
gamma: 0.1
momentum: 0.9
weight_decay: 0.0005
snapshot: 0
snapshot_prefix: "faces_example"
net_param {
  name: "GeneratedModel_13_04_2017_18_54"
  layer {
    name: "input"
    type: "Python"
    top: "input_data"
    top: "input_im_info"
    top: "input_gt_boxes"
    top: "input_ignored_boxes"
    python_param {
      module: "layers.roi_data_layer"
      layer: "RoIDataLayer"
      param_str: "{\"num_classes\": 2}"
    }
  }
  layer {
    name: "conv1_1"
    type: "Convolution"
    bottom: "input_data"
    top: "conv1_1"
    param {
      lr_mult: 0
      decay_mult: 0
    }
    param {
      lr_mult: 0
      decay_mult: 0
    }
    convolution_param {
      num_output: 64
      pad: 1
      kernel_size: 3
    }
  }
  layer {
    name: "relu1_1"
    type: "ReLU"
    bottom: "conv1_1"
    top: "conv1_1"
  }
  layer {
    name: "conv1_2"
    type: "Convolution"
    bottom: "conv1_1"
    top: "conv1_2"
    param {
      lr_mult: 0
      decay_mult: 0
    }
    param {
      lr_mult: 0
      decay_mult: 0
    }
    convolution_param {
      num_output: 64
      pad: 1
      kernel_size: 3
    }
  }
  layer {
    name: "relu1_2"
    type: "ReLU"
    bottom: "conv1_2"
    top: "conv1_2"
  }
  layer {
    name: "pool1"
    type: "Pooling"
    bottom: "conv1_2"
    top: "pool1"
    pooling_param {
      pool: MAX
      kernel_size: 2
      stride: 2
    }
  }
  layer {
    name: "conv2_1"
    type: "Convolution"
    bottom: "pool1"
    top: "conv2_1"
    param {
      lr_mult: 0
      decay_mult: 0
    }
    param {
      lr_mult: 0
      decay_mult: 0
    }
    convolution_param {
      num_output: 128
      pad: 1
      kernel_size: 3
    }
  }
  layer {
    name: "relu2_1"
    type: "ReLU"
    bottom: "conv2_1"
    top: "conv2_1"
  }
  layer {
    name: "conv2_2"
    type: "Convolution"
    bottom: "conv2_1"
    top: "conv2_2"
    param {
      lr_mult: 0
      decay_mult: 0
    }
    param {
      lr_mult: 0
      decay_mult: 0
    }
    convolution_param {
      num_output: 128
      pad: 1
      kernel_size: 3
    }
  }
  layer {
    name: "relu2_2"
    type: "ReLU"
    bottom: "conv2_2"
    top: "conv2_2"
  }
  layer {
    name: "pool2"
    type: "Pooling"
    bottom: "conv2_2"
    top: "pool2"
    pooling_param {
      pool: MAX
      kernel_size: 2
      stride: 2
    }
  }
  layer {
    name: "conv3_1"
    type: "Convolution"
    bottom: "pool2"
    top: "conv3_1"
    param {
      lr_mult: 1
    }
    param {
      lr_mult: 2
    }
    convolution_param {
      num_output: 256
      pad: 1
      kernel_size: 3
    }
  }
  layer {
    name: "relu3_1"
    type: "ReLU"
    bottom: "conv3_1"
    top: "conv3_1"
  }
  layer {
    name: "conv3_2"
    type: "Convolution"
    bottom: "conv3_1"
    top: "conv3_2"
    param {
      lr_mult: 1
    }
    param {
      lr_mult: 2
    }
    convolution_param {
      num_output: 256
      pad: 1
      kernel_size: 3
    }
  }
  layer {
    name: "relu3_2"
    type: "ReLU"
    bottom: "conv3_2"
    top: "conv3_2"
  }
  layer {
    name: "conv3_3"
    type: "Convolution"
    bottom: "conv3_2"
    top: "conv3_3"
    param {
      lr_mult: 1
    }
    param {
      lr_mult: 2
    }
    convolution_param {
      num_output: 256
      pad: 1
      kernel_size: 3
    }
  }
  layer {
    name: "relu3_3"
    type: "ReLU"
    bottom: "conv3_3"
    top: "conv3_3"
  }
  layer {
    name: "pool3"
    type: "Pooling"
    bottom: "conv3_3"
    top: "pool3"
    pooling_param {
      pool: MAX
      kernel_size: 2
      stride: 2
    }
  }
  layer {
    name: "conv4_1"
    type: "Convolution"
    bottom: "pool3"
    top: "conv4_1"
    param {
      lr_mult: 1
    }
    param {
      lr_mult: 2
    }
    convolution_param {
      num_output: 512
      pad: 1
      kernel_size: 3
    }
  }
  layer {
    name: "relu4_1"
    type: "ReLU"
    bottom: "conv4_1"
    top: "conv4_1"
  }
  layer {
    name: "conv4_2"
    type: "Convolution"
    bottom: "conv4_1"
    top: "conv4_2"
    param {
      lr_mult: 1
    }
    param {
      lr_mult: 2
    }
    convolution_param {
      num_output: 512
      pad: 1
      kernel_size: 3
    }
  }
  layer {
    name: "relu4_2"
    type: "ReLU"
    bottom: "conv4_2"
    top: "conv4_2"
  }
  layer {
    name: "conv4_3"
    type: "Convolution"
    bottom: "conv4_2"
    top: "conv4_3"
    param {
      lr_mult: 1
    }
    param {
      lr_mult: 2
    }
    convolution_param {
      num_output: 512
      pad: 1
      kernel_size: 3
    }
  }
  layer {
    name: "relu4_3"
    type: "ReLU"
    bottom: "conv4_3"
    top: "conv4_3"
  }
  layer {
    name: "pool4"
    type: "Pooling"
    bottom: "conv4_3"
    top: "pool4"
    pooling_param {
      pool: MAX
      kernel_size: 2
      stride: 2
    }
  }
  layer {
    name: "conv5_1"
    type: "Convolution"
    bottom: "pool4"
    top: "conv5_1"
    param {
      lr_mult: 1
    }
    param {
      lr_mult: 2
    }
    convolution_param {
      num_output: 512
      pad: 1
      kernel_size: 3
    }
  }
  layer {
    name: "relu5_1"
    type: "ReLU"
    bottom: "conv5_1"
    top: "conv5_1"
  }
  layer {
    name: "conv5_2"
    type: "Convolution"
    bottom: "conv5_1"
    top: "conv5_2"
    param {
      lr_mult: 1
    }
    param {
      lr_mult: 2
    }
    convolution_param {
      num_output: 512
      pad: 1
      kernel_size: 3
    }
  }
  layer {
    name: "relu5_2"
    type: "ReLU"
    bottom: "conv5_2"
    top: "conv5_2"
  }
  layer {
    name: "conv5_3"
    type: "Convolution"
    bottom: "conv5_2"
    top: "conv5_3"
    param {
      lr_mult: 1
    }
    param {
      lr_mult: 2
    }
    convolution_param {
      num_output: 512
      pad: 1
      kernel_size: 3
    }
  }
  layer {
    name: "relu5_3"
    type: "ReLU"
    bottom: "conv5_3"
    top: "conv5_3"
  }
  layer {
    name: "rpn_big_conv1"
    type: "Convolution"
    bottom: "conv5_3"
    top: "rpn_big_conv1"
    param {
      lr_mult: 1
    }
    param {
      lr_mult: 2
    }
    convolution_param {
      num_output: 512
      pad: 1
      kernel_size: 3
      stride: 1
      weight_filler {
        type: "gaussian"
        mean: 0
        std: 0.01
      }
      bias_filler {
        type: "constant"
      }
    }
  }
  layer {
    name: "rpn_big_conv1_relu"
    type: "ReLU"
    bottom: "rpn_big_conv1"
    top: "rpn_big_conv1"
    relu_param {
      negative_slope: 0
    }
  }
  layer {
    name: "rpn_big_conv2"
    type: "Convolution"
    bottom: "rpn_big_conv1"
    top: "rpn_big_conv2"
    param {
      lr_mult: 1
    }
    param {
      lr_mult: 2
    }
    convolution_param {
      num_output: 512
      pad: 1
      kernel_size: 3
      stride: 1
      weight_filler {
        type: "gaussian"
        mean: 0
        std: 0.01
      }
      bias_filler {
        type: "constant"
      }
    }
  }
  layer {
    name: "rpn_big_conv2_relu"
    type: "ReLU"
    bottom: "rpn_big_conv2"
    top: "rpn_big_conv2"
    relu_param {
      negative_slope: 0
    }
  }
  layer {
    name: "rpn_big_conv2_drop"
    type: "Dropout"
    bottom: "rpn_big_conv2"
    top: "rpn_big_conv2"
    dropout_param {
      dropout_ratio: 0.3
    }
  }
  layer {
    name: "rpn_big_output_cls"
    type: "Convolution"
    bottom: "rpn_big_conv2"
    top: "rpn_big_output_cls"
    param {
      lr_mult: 1
    }
    param {
      lr_mult: 2
    }
    convolution_param {
      num_output: 384
      pad: 1
      kernel_size: 3
      stride: 1
      weight_filler {
        type: "gaussian"
        mean: 0
        std: 0.01
      }
      bias_filler {
        type: "constant"
      }
    }
  }
  layer {
    name: "rpn_big_output_cls_relu"
    type: "ReLU"
    bottom: "rpn_big_output_cls"
    top: "rpn_big_output_cls"
    relu_param {
      negative_slope: 0
    }
  }
  layer {
    name: "rpn_big_cls_score"
    type: "Convolution"
    bottom: "rpn_big_output_cls"
    top: "rpn_big_cls_score"
    param {
      lr_mult: 1
    }
    param {
      lr_mult: 2
    }
    convolution_param {
      num_output: 52
      pad: 0
      kernel_size: 3
      stride: 1
      weight_filler {
        type: "gaussian"
        mean: 0
        std: 0.01
      }
      bias_filler {
        type: "constant"
      }
    }
  }
  layer {
    name: "rpn_big_cls_score_reshape"
    type: "Reshape"
    bottom: "rpn_big_cls_score"
    top: "rpn_big_cls_score_reshape"
    reshape_param {
      shape {
        dim: 0
        dim: 2
        dim: -1
        dim: 0
      }
    }
  }
  layer {
    name: "rpn_big_cls_prob"
    type: "Softmax"
    bottom: "rpn_big_cls_score_reshape"
    top: "rpn_big_cls_prob"
  }
  layer {
    name: "rpn_big_cls_prob_reshape"
    type: "Reshape"
    bottom: "rpn_big_cls_prob"
    top: "rpn_big_cls_prob_reshape"
    reshape_param {
      shape {
        dim: 0
        dim: 52
        dim: -1
        dim: 0
      }
    }
  }
  layer {
    name: "rpn_big_anchor_target"
    type: "Python"
    bottom: "rpn_big_cls_score"
    bottom: "input_gt_boxes"
    bottom: "input_ignored_boxes"
    bottom: "input_im_info"
    bottom: "input_data"
    bottom: "rpn_big_cls_prob_reshape"
    top: "rpn_big_anchor_target_labels"
    top: "rpn_big_anchor_target_bbox_targets"
    top: "rpn_big_anchor_target_inside_weights"
    top: "rpn_big_anchor_target_outside_weights"
    python_param {
      module: "rpn.anchor_target_layer"
      layer: "AnchorTargetLayer"
      param_str: "{\"num_classes\": 1, \"batchsize\": 256, \"positive_overlap\": 0.6, \"negative_overlap\": 0.4, \"fg_fraction\": 0.5, \"tn_fraction\": 0.2, \"anchor_scales\": [2.5, 3.025, 3.66025, 4.4289024999999995, 5.358972025, 6.484356150249999, 7.846070941802498, 9.493745839581022, 11.487432465893036, 13.899793283730574, 16.818749873313998, 20.350687346709933, 24.62433168951902, 29.795441344318014], \"square_targets\": true, \"anchor_shift_num_xy\": [[2, 2], [2, 2], [2, 2], [2, 2], [1, 1], [1, 1], [1, 1], [1, 1], [1, 1], [1, 1], [1, 1], [1, 1], [1, 1], [1, 1]], \"name\": \"rpn_big\", \"anchor_ratios\": [1.0], \"feat_stride\": 16}"
    }
  }
  layer {
    name: "rpn_big_loss_cls"
    type: "SoftmaxWithLoss"
    bottom: "rpn_big_cls_score_reshape"
    bottom: "rpn_big_anchor_target_labels"
    top: "rpn_big_loss_cls"
    loss_weight: 1
    propagate_down: true
    propagate_down: false
    loss_param {
      ignore_label: -1
      normalization: VALID
    }
  }
  layer {
    name: "rpn_big_output_box"
    type: "Convolution"
    bottom: "rpn_big_conv2"
    top: "rpn_big_output_box"
    param {
      lr_mult: 1
    }
    param {
      lr_mult: 2
    }
    convolution_param {
      num_output: 384
      pad: 1
      kernel_size: 3
      stride: 1
      weight_filler {
        type: "gaussian"
        mean: 0
        std: 0.01
      }
      bias_filler {
        type: "constant"
      }
    }
  }
  layer {
    name: "rpn_big_output_box_relu"
    type: "ReLU"
    bottom: "rpn_big_output_box"
    top: "rpn_big_output_box"
    relu_param {
      negative_slope: 0
    }
  }
  layer {
    name: "rpn_big_bbox_pred"
    type: "Convolution"
    bottom: "rpn_big_output_box"
    top: "rpn_big_bbox_pred"
    param {
      lr_mult: 1
    }
    param {
      lr_mult: 2
    }
    convolution_param {
      num_output: 104
      pad: 0
      kernel_size: 3
      stride: 1
      weight_filler {
        type: "gaussian"
        mean: 0
        std: 0.01
      }
      bias_filler {
        type: "constant"
      }
    }
  }
  layer {
    name: "rpn_big_loss_bbox"
    type: "Python"
    bottom: "rpn_big_bbox_pred"
    bottom: "rpn_big_anchor_target_bbox_targets"
    bottom: "rpn_big_anchor_target_inside_weights"
    bottom: "rpn_big_anchor_target_outside_weights"
    top: "rpn_big_loss_bbox"
    loss_weight: 1
    python_param {
      module: "layers.smooth_l1_loss"
      layer: "SmoothL1LossLayer"
      param_str: "{\"sigma\": 3}"
    }
  }
  layer {
    name: "proposal"
    type: "Python"
    bottom: "rpn_big_cls_prob_reshape"
    bottom: "rpn_big_bbox_pred"
    bottom: "input_im_info"
    top: "rpn_rois"
    python_param {
      module: "rpn.proposal_layer"
      layer: "ProposalLayer"
      param_str: "{\"anchor_shift_num_xy\": [[2, 2], [2, 2], [2, 2], [2, 2], [1, 1], [1, 1], [1, 1], [1, 1], [1, 1], [1, 1], [1, 1], [1, 1], [1, 1], [1, 1]], \"feat_stride\": 16, \"num_classes\": 1, \"anchor_scales\": [2.5, 3.025, 3.66025, 4.4289024999999995, 5.358972025, 6.484356150249999, 7.846070941802498, 9.493745839581022, 11.487432465893036, 13.899793283730574, 16.818749873313998, 20.350687346709933, 24.62433168951902, 29.795441344318014], \"square_targets\": true, \"name\": \"rpn_big\", \"batchsize\": 256, \"anchor_ratios\": [1.0]}"
    }
  }
  layer {
    name: "roi-data"
    type: "Python"
    bottom: "rpn_rois"
    bottom: "input_gt_boxes"
    top: "rois"
    top: "labels"
    top: "bbox_targets"
    top: "bbox_inside_weights"
    top: "bbox_outside_weights"
    top: "pid_label"
    python_param {
      module: "rpn.proposal_target_layer"
      layer: "ProposalTargetLayer"
      param_str: "{\"num_classes\": 2, \"bg_aux_label\": 5532}"
    }
  }
  layer {
    name: "roi-pool"
    type: "ROIPooling"
    bottom: "conv5_3"
    bottom: "rois"
    top: "roi-pool"
    roi_pooling_param {
      pooled_h: 7
      pooled_w: 7
      spatial_scale: 0.0625
    }
  }
  layer {
    name: "fc6"
    type: "InnerProduct"
    bottom: "roi-pool"
    top: "fc6"
    param {
      lr_mult: 1
    }
    param {
      lr_mult: 2
    }
    inner_product_param {
      num_output: 4096
    }
  }
  layer {
    name: "relu6"
    type: "ReLU"
    bottom: "fc6"
    top: "fc6"
  }
  layer {
    name: "drop6"
    type: "Dropout"
    bottom: "fc6"
    top: "fc6"
    dropout_param {
      dropout_ratio: 0.5
    }
  }
  layer {
    name: "fc7"
    type: "InnerProduct"
    bottom: "fc6"
    top: "fc7"
    param {
      lr_mult: 1
    }
    param {
      lr_mult: 2
    }
    inner_product_param {
      num_output: 4096
    }
  }
  layer {
    name: "relu7"
    type: "ReLU"
    bottom: "fc7"
    top: "fc7"
  }
  layer {
    name: "drop7"
    type: "Dropout"
    bottom: "fc7"
    top: "fc7"
    dropout_param {
      dropout_ratio: 0.5
    }
  }
  layer {
    name: "bbox_pred"
    type: "InnerProduct"
    bottom: "fc7"
    top: "bbox_pred"
    param {
      lr_mult: 1
    }
    param {
      lr_mult: 2
    }
    inner_product_param {
      num_output: 8
      weight_filler {
        type: "gaussian"
        std: 0.001
      }
      bias_filler {
        type: "constant"
        value: 0
      }
    }
  }
  layer {
    name: "loss_bbox"
    type: "SmoothL1Loss"
    bottom: "bbox_pred"
    bottom: "bbox_targets"
    bottom: "bbox_inside_weights"
    bottom: "bbox_outside_weights"
    top: "loss_bbox"
    loss_weight: 1
  }
  layer {
    name: "feat"
    type: "InnerProduct"
    bottom: "fc7"
    top: "feat"
    param {
      lr_mult: 1
      decay_mult: 1
    }
    param {
      lr_mult: 2
      decay_mult: 0
    }
    inner_product_param {
      num_output: 256
      weight_filler {
        type: "gaussian"
        std: 0.01
      }
      bias_filler {
        type: "constant"
        value: 0
      }
    }
  }
  layer {
    name: "relu8"
    type: "ReLU"
    bottom: "feat"
    top: "feat"
  }
  layer {
    name: "drop8"
    type: "Dropout"
    bottom: "feat"
    top: "feat"
    dropout_param {
      dropout_ratio: 0.5
    }
  }
  layer {
    name: "pid_score"
    type: "InnerProduct"
    bottom: "feat"
    top: "pid_score"
    param {
      lr_mult: 1
      decay_mult: 1
    }
    param {
      lr_mult: 2
      decay_mult: 0
    }
    inner_product_param {
      num_output: 5533
      weight_filler {
        type: "gaussian"
        std: 0.001
      }
      bias_filler {
        type: "constant"
        value: 0
      }
    }
  }
  layer {
    name: "pid_loss"
    type: "SoftmaxWithLoss"
    bottom: "pid_score"
    bottom: "pid_label"
    top: "pid_loss"
    loss_weight: 1
    propagate_down: true
    propagate_down: false
    loss_param {
      ignore_label: -1
      normalize: true
    }
  }
  layer {
    name: "pid_accuracy"
    type: "Accuracy"
    bottom: "pid_label"
    bottom: "pid_score"
    top: "pid_accuracy"
    accuracy_param {
      ignore_label: -1
    }
  }
}
average_loss: 100
stepvalue: 70000
stepvalue: 120000
iter_size: 2
I0413 18:54:25.193708 14510 solver.cpp:86] Creating training net specified in net_param.
I0413 18:54:25.194170 14510 net.cpp:58] Initializing net from parameters: 
name: "GeneratedModel_13_04_2017_18_54"
state {
  phase: TRAIN
}
layer {
  name: "input"
  type: "Python"
  top: "input_data"
  top: "input_im_info"
  top: "input_gt_boxes"
  top: "input_ignored_boxes"
  python_param {
    module: "layers.roi_data_layer"
    layer: "RoIDataLayer"
    param_str: "{\"num_classes\": 2}"
  }
}
layer {
  name: "conv1_1"
  type: "Convolution"
  bottom: "input_data"
  top: "conv1_1"
  param {
    lr_mult: 0
    decay_mult: 0
  }
  param {
    lr_mult: 0
    decay_mult: 0
  }
  convolution_param {
    num_output: 64
    pad: 1
    kernel_size: 3
  }
}
layer {
  name: "relu1_1"
  type: "ReLU"
  bottom: "conv1_1"
  top: "conv1_1"
}
layer {
  name: "conv1_2"
  type: "Convolution"
  bottom: "conv1_1"
  top: "conv1_2"
  param {
    lr_mult: 0
    decay_mult: 0
  }
  param {
    lr_mult: 0
    decay_mult: 0
  }
  convolution_param {
    num_output: 64
    pad: 1
    kernel_size: 3
  }
}
layer {
  name: "relu1_2"
  type: "ReLU"
  bottom: "conv1_2"
  top: "conv1_2"
}
layer {
  name: "pool1"
  type: "Pooling"
  bottom: "conv1_2"
  top: "pool1"
  pooling_param {
    pool: MAX
    kernel_size: 2
    stride: 2
  }
}
layer {
  name: "conv2_1"
  type: "Convolution"
  bottom: "pool1"
  top: "conv2_1"
  param {
    lr_mult: 0
    decay_mult: 0
  }
  param {
    lr_mult: 0
    decay_mult: 0
  }
  convolution_param {
    num_output: 128
    pad: 1
    kernel_size: 3
  }
}
layer {
  name: "relu2_1"
  type: "ReLU"
  bottom: "conv2_1"
  top: "conv2_1"
}
layer {
  name: "conv2_2"
  type: "Convolution"
  bottom: "conv2_1"
  top: "conv2_2"
  param {
    lr_mult: 0
    decay_mult: 0
  }
  param {
    lr_mult: 0
    decay_mult: 0
  }
  convolution_param {
    num_output: 128
    pad: 1
    kernel_size: 3
  }
}
layer {
  name: "relu2_2"
  type: "ReLU"
  bottom: "conv2_2"
  top: "conv2_2"
}
layer {
  name: "pool2"
  type: "Pooling"
  bottom: "conv2_2"
  top: "pool2"
  pooling_param {
    pool: MAX
    kernel_size: 2
    stride: 2
  }
}
layer {
  name: "conv3_1"
  type: "Convolution"
  bottom: "pool2"
  top: "conv3_1"
  param {
    lr_mult: 1
  }
  param {
    lr_mult: 2
  }
  convolution_param {
    num_output: 256
    pad: 1
    kernel_size: 3
  }
}
layer {
  name: "relu3_1"
  type: "ReLU"
  bottom: "conv3_1"
  top: "conv3_1"
}
layer {
  name: "conv3_2"
  type: "Convolution"
  bottom: "conv3_1"
  top: "conv3_2"
  param {
    lr_mult: 1
  }
  param {
    lr_mult: 2
  }
  convolution_param {
    num_output: 256
    pad: 1
    kernel_size: 3
  }
}
layer {
  name: "relu3_2"
  type: "ReLU"
  bottom: "conv3_2"
  top: "conv3_2"
}
layer {
  name: "conv3_3"
  type: "Convolution"
  bottom: "conv3_2"
  top: "conv3_3"
  param {
    lr_mult: 1
  }
  param {
    lr_mult: 2
  }
  convolution_param {
    num_output: 256
    pad: 1
    kernel_size: 3
  }
}
layer {
  name: "relu3_3"
  type: "ReLU"
  bottom: "conv3_3"
  top: "conv3_3"
}
layer {
  name: "pool3"
  type: "Pooling"
  bottom: "conv3_3"
  top: "pool3"
  pooling_param {
    pool: MAX
    kernel_size: 2
    stride: 2
  }
}
layer {
  name: "conv4_1"
  type: "Convolution"
  bottom: "pool3"
  top: "conv4_1"
  param {
    lr_mult: 1
  }
  param {
    lr_mult: 2
  }
  convolution_param {
    num_output: 512
    pad: 1
    kernel_size: 3
  }
}
layer {
  name: "relu4_1"
  type: "ReLU"
  bottom: "conv4_1"
  top: "conv4_1"
}
layer {
  name: "conv4_2"
  type: "Convolution"
  bottom: "conv4_1"
  top: "conv4_2"
  param {
    lr_mult: 1
  }
  param {
    lr_mult: 2
  }
  convolution_param {
    num_output: 512
    pad: 1
    kernel_size: 3
  }
}
layer {
  name: "relu4_2"
  type: "ReLU"
  bottom: "conv4_2"
  top: "conv4_2"
}
layer {
  name: "conv4_3"
  type: "Convolution"
  bottom: "conv4_2"
  top: "conv4_3"
  param {
    lr_mult: 1
  }
  param {
    lr_mult: 2
  }
  convolution_param {
    num_output: 512
    pad: 1
    kernel_size: 3
  }
}
layer {
  name: "relu4_3"
  type: "ReLU"
  bottom: "conv4_3"
  top: "conv4_3"
}
layer {
  name: "pool4"
  type: "Pooling"
  bottom: "conv4_3"
  top: "pool4"
  pooling_param {
    pool: MAX
    kernel_size: 2
    stride: 2
  }
}
layer {
  name: "conv5_1"
  type: "Convolution"
  bottom: "pool4"
  top: "conv5_1"
  param {
    lr_mult: 1
  }
  param {
    lr_mult: 2
  }
  convolution_param {
    num_output: 512
    pad: 1
    kernel_size: 3
  }
}
layer {
  name: "relu5_1"
  type: "ReLU"
  bottom: "conv5_1"
  top: "conv5_1"
}
layer {
  name: "conv5_2"
  type: "Convolution"
  bottom: "conv5_1"
  top: "conv5_2"
  param {
    lr_mult: 1
  }
  param {
    lr_mult: 2
  }
  convolution_param {
    num_output: 512
    pad: 1
    kernel_size: 3
  }
}
layer {
  name: "relu5_2"
  type: "ReLU"
  bottom: "conv5_2"
  top: "conv5_2"
}
layer {
  name: "conv5_3"
  type: "Convolution"
  bottom: "conv5_2"
  top: "conv5_3"
  param {
    lr_mult: 1
  }
  param {
    lr_mult: 2
  }
  convolution_param {
    num_output: 512
    pad: 1
    kernel_size: 3
  }
}
layer {
  name: "relu5_3"
  type: "ReLU"
  bottom: "conv5_3"
  top: "conv5_3"
}
layer {
  name: "rpn_big_conv1"
  type: "Convolution"
  bottom: "conv5_3"
  top: "rpn_big_conv1"
  param {
    lr_mult: 1
  }
  param {
    lr_mult: 2
  }
  convolution_param {
    num_output: 512
    pad: 1
    kernel_size: 3
    stride: 1
    weight_filler {
      type: "gaussian"
      mean: 0
      std: 0.01
    }
    bias_filler {
      type: "constant"
    }
  }
}
layer {
  name: "rpn_big_conv1_relu"
  type: "ReLU"
  bottom: "rpn_big_conv1"
  top: "rpn_big_conv1"
  relu_param {
    negative_slope: 0
  }
}
layer {
  name: "rpn_big_conv2"
  type: "Convolution"
  bottom: "rpn_big_conv1"
  top: "rpn_big_conv2"
  param {
    lr_mult: 1
  }
  param {
    lr_mult: 2
  }
  convolution_param {
    num_output: 512
    pad: 1
    kernel_size: 3
    stride: 1
    weight_filler {
      type: "gaussian"
      mean: 0
      std: 0.01
    }
    bias_filler {
      type: "constant"
    }
  }
}
layer {
  name: "rpn_big_conv2_relu"
  type: "ReLU"
  bottom: "rpn_big_conv2"
  top: "rpn_big_conv2"
  relu_param {
    negative_slope: 0
  }
}
layer {
  name: "rpn_big_conv2_drop"
  type: "Dropout"
  bottom: "rpn_big_conv2"
  top: "rpn_big_conv2"
  dropout_param {
    dropout_ratio: 0.3
  }
}
layer {
  name: "rpn_big_output_cls"
  type: "Convolution"
  bottom: "rpn_big_conv2"
  top: "rpn_big_output_cls"
  param {
    lr_mult: 1
  }
  param {
    lr_mult: 2
  }
  convolution_param {
    num_output: 384
    pad: 1
    kernel_size: 3
    stride: 1
    weight_filler {
      type: "gaussian"
      mean: 0
      std: 0.01
    }
    bias_filler {
      type: "constant"
    }
  }
}
layer {
  name: "rpn_big_output_cls_relu"
  type: "ReLU"
  bottom: "rpn_big_output_cls"
  top: "rpn_big_output_cls"
  relu_param {
    negative_slope: 0
  }
}
layer {
  name: "rpn_big_cls_score"
  type: "Convolution"
  bottom: "rpn_big_output_cls"
  top: "rpn_big_cls_score"
  param {
    lr_mult: 1
  }
  param {
    lr_mult: 2
  }
  convolution_param {
    num_output: 52
    pad: 0
    kernel_size: 3
    stride: 1
    weight_filler {
      type: "gaussian"
      mean: 0
      std: 0.01
    }
    bias_filler {
      type: "constant"
    }
  }
}
layer {
  name: "rpn_big_cls_score_reshape"
  type: "Reshape"
  bottom: "rpn_big_cls_score"
  top: "rpn_big_cls_score_reshape"
  reshape_param {
    shape {
      dim: 0
      dim: 2
      dim: -1
      dim: 0
    }
  }
}
layer {
  name: "rpn_big_cls_prob"
  type: "Softmax"
  bottom: "rpn_big_cls_score_reshape"
  top: "rpn_big_cls_prob"
}
layer {
  name: "rpn_big_cls_prob_reshape"
  type: "Reshape"
  bottom: "rpn_big_cls_prob"
  top: "rpn_big_cls_prob_reshape"
  reshape_param {
    shape {
      dim: 0
      dim: 52
      dim: -1
      dim: 0
    }
  }
}
layer {
  name: "rpn_big_anchor_target"
  type: "Python"
  bottom: "rpn_big_cls_score"
  bottom: "input_gt_boxes"
  bottom: "input_ignored_boxes"
  bottom: "input_im_info"
  bottom: "input_data"
  bottom: "rpn_big_cls_prob_reshape"
  top: "rpn_big_anchor_target_labels"
  top: "rpn_big_anchor_target_bbox_targets"
  top: "rpn_big_anchor_target_inside_weights"
  top: "rpn_big_anchor_target_outside_weights"
  python_param {
    module: "rpn.anchor_target_layer"
    layer: "AnchorTargetLayer"
    param_str: "{\"num_classes\": 1, \"batchsize\": 256, \"positive_overlap\": 0.6, \"negative_overlap\": 0.4, \"fg_fraction\": 0.5, \"tn_fraction\": 0.2, \"anchor_scales\": [2.5, 3.025, 3.66025, 4.4289024999999995, 5.358972025, 6.484356150249999, 7.846070941802498, 9.493745839581022, 11.487432465893036, 13.899793283730574, 16.818749873313998, 20.350687346709933, 24.62433168951902, 29.795441344318014], \"square_targets\": true, \"anchor_shift_num_xy\": [[2, 2], [2, 2], [2, 2], [2, 2], [1, 1], [1, 1], [1, 1], [1, 1], [1, 1], [1, 1], [1, 1], [1, 1], [1, 1], [1, 1]], \"name\": \"rpn_big\", \"anchor_ratios\": [1.0], \"feat_stride\": 16}"
  }
}
layer {
  name: "rpn_big_loss_cls"
  type: "SoftmaxWithLoss"
  bottom: "rpn_big_cls_score_reshape"
  bottom: "rpn_big_anchor_target_labels"
  top: "rpn_big_loss_cls"
  loss_weight: 1
  propagate_down: true
  propagate_down: false
  loss_param {
    ignore_label: -1
    normalization: VALID
  }
}
layer {
  name: "rpn_big_output_box"
  type: "Convolution"
  bottom: "rpn_big_conv2"
  top: "rpn_big_output_box"
  param {
    lr_mult: 1
  }
  param {
    lr_mult: 2
  }
  convolution_param {
    num_output: 384
    pad: 1
    kernel_size: 3
    stride: 1
    weight_filler {
      type: "gaussian"
      mean: 0
      std: 0.01
    }
    bias_filler {
      type: "constant"
    }
  }
}
layer {
  name: "rpn_big_output_box_relu"
  type: "ReLU"
  bottom: "rpn_big_output_box"
  top: "rpn_big_output_box"
  relu_param {
    negative_slope: 0
  }
}
layer {
  name: "rpn_big_bbox_pred"
  type: "Convolution"
  bottom: "rpn_big_output_box"
  top: "rpn_big_bbox_pred"
  param {
    lr_mult: 1
  }
  param {
    lr_mult: 2
  }
  convolution_param {
    num_output: 104
    pad: 0
    kernel_size: 3
    stride: 1
    weight_filler {
      type: "gaussian"
      mean: 0
      std: 0.01
    }
    bias_filler {
      type: "constant"
    }
  }
}
layer {
  name: "rpn_big_loss_bbox"
  type: "Python"
  bottom: "rpn_big_bbox_pred"
  bottom: "rpn_big_anchor_target_bbox_targets"
  bottom: "rpn_big_anchor_target_inside_weights"
  bottom: "rpn_big_anchor_target_outside_weights"
  top: "rpn_big_loss_bbox"
  loss_weight: 1
  python_param {
    module: "layers.smooth_l1_loss"
    layer: "SmoothL1LossLayer"
    param_str: "{\"sigma\": 3}"
  }
}
layer {
  name: "proposal"
  type: "Python"
  bottom: "rpn_big_cls_prob_reshape"
  bottom: "rpn_big_bbox_pred"
  bottom: "input_im_info"
  top: "rpn_rois"
  python_param {
    module: "rpn.proposal_layer"
    layer: "ProposalLayer"
    param_str: "{\"anchor_shift_num_xy\": [[2, 2], [2, 2], [2, 2], [2, 2], [1, 1], [1, 1], [1, 1], [1, 1], [1, 1], [1, 1], [1, 1], [1, 1], [1, 1], [1, 1]], \"feat_stride\": 16, \"num_classes\": 1, \"anchor_scales\": [2.5, 3.025, 3.66025, 4.4289024999999995, 5.358972025, 6.484356150249999, 7.846070941802498, 9.493745839581022, 11.487432465893036, 13.899793283730574, 16.818749873313998, 20.350687346709933, 24.62433168951902, 29.795441344318014], \"square_targets\": true, \"name\": \"rpn_big\", \"batchsize\": 256, \"anchor_ratios\": [1.0]}"
  }
}
layer {
  name: "roi-data"
  type: "Python"
  bottom: "rpn_rois"
  bottom: "input_gt_boxes"
  top: "rois"
  top: "labels"
  top: "bbox_targets"
  top: "bbox_inside_weights"
  top: "bbox_outside_weights"
  top: "pid_label"
  python_param {
    module: "rpn.proposal_target_layer"
    layer: "ProposalTargetLayer"
    param_str: "{\"num_classes\": 2, \"bg_aux_label\": 5532}"
  }
}
layer {
  name: "roi-pool"
  type: "ROIPooling"
  bottom: "conv5_3"
  bottom: "rois"
  top: "roi-pool"
  roi_pooling_param {
    pooled_h: 7
    pooled_w: 7
    spatial_scale: 0.0625
  }
}
layer {
  name: "fc6"
  type: "InnerProduct"
  bottom: "roi-pool"
  top: "fc6"
  param {
    lr_mult: 1
  }
  param {
    lr_mult: 2
  }
  inner_product_param {
    num_output: 4096
  }
}
layer {
  name: "relu6"
  type: "ReLU"
  bottom: "fc6"
  top: "fc6"
}
layer {
  name: "drop6"
  type: "Dropout"
  bottom: "fc6"
  top: "fc6"
  dropout_param {
    dropout_ratio: 0.5
  }
}
layer {
  name: "fc7"
  type: "InnerProduct"
  bottom: "fc6"
  top: "fc7"
  param {
    lr_mult: 1
  }
  param {
    lr_mult: 2
  }
  inner_product_param {
    num_output: 4096
  }
}
layer {
  name: "relu7"
  type: "ReLU"
  bottom: "fc7"
  top: "fc7"
}
layer {
  name: "drop7"
  type: "Dropout"
  bottom: "fc7"
  top: "fc7"
  dropout_param {
    dropout_ratio: 0.5
  }
}
layer {
  name: "bbox_pred"
  type: "InnerProduct"
  bottom: "fc7"
  top: "bbox_pred"
  param {
    lr_mult: 1
  }
  param {
    lr_mult: 2
  }
  inner_product_param {
    num_output: 8
    weight_filler {
      type: "gaussian"
      std: 0.001
    }
    bias_filler {
      type: "constant"
      value: 0
    }
  }
}
layer {
  name: "loss_bbox"
  type: "SmoothL1Loss"
  bottom: "bbox_pred"
  bottom: "bbox_targets"
  bottom: "bbox_inside_weights"
  bottom: "bbox_outside_weights"
  top: "loss_bbox"
  loss_weight: 1
}
layer {
  name: "feat"
  type: "InnerProduct"
  bottom: "fc7"
  top: "feat"
  param {
    lr_mult: 1
    decay_mult: 1
  }
  param {
    lr_mult: 2
    decay_mult: 0
  }
  inner_product_param {
    num_output: 256
    weight_filler {
      type: "gaussian"
      std: 0.01
    }
    bias_filler {
      type: "constant"
      value: 0
    }
  }
}
layer {
  name: "relu8"
  type: "ReLU"
  bottom: "feat"
  top: "feat"
}
layer {
  name: "drop8"
  type: "Dropout"
  bottom: "feat"
  top: "feat"
  dropout_param {
    dropout_ratio: 0.5
  }
}
layer {
  name: "pid_score"
  type: "InnerProduct"
  bottom: "feat"
  top: "pid_score"
  param {
    lr_mult: 1
    decay_mult: 1
  }
  param {
    lr_mult: 2
    decay_mult: 0
  }
  inner_product_param {
    num_output: 5533
    weight_filler {
      type: "gaussian"
      std: 0.001
    }
    bias_filler {
      type: "constant"
      value: 0
    }
  }
}
layer {
  name: "pid_loss"
  type: "SoftmaxWithLoss"
  bottom: "pid_score"
  bottom: "pid_label"
  top: "pid_loss"
  loss_weight: 1
  propagate_down: true
  propagate_down: false
  loss_param {
    ignore_label: -1
    normalize: true
  }
}
layer {
  name: "pid_accuracy"
  type: "Accuracy"
  bottom: "pid_label"
  bottom: "pid_score"
  top: "pid_accuracy"
  accuracy_param {
    ignore_label: -1
  }
}
I0413 18:54:25.194435 14510 layer_factory.hpp:77] Creating layer input
I0413 18:54:25.195698 14510 net.cpp:100] Creating Layer input
I0413 18:54:25.195708 14510 net.cpp:408] input -> input_data
I0413 18:54:25.195719 14510 net.cpp:408] input -> input_im_info
I0413 18:54:25.195726 14510 net.cpp:408] input -> input_gt_boxes
I0413 18:54:25.195734 14510 net.cpp:408] input -> input_ignored_boxes
RoiDataLayer: name_to_top: {'data': 0, 'im_info': 1, 'gt_boxes': 2, 'ignored_boxes': 3}
I0413 18:54:25.523656 14510 net.cpp:150] Setting up input
I0413 18:54:25.523689 14510 net.cpp:157] Top shape: 1 3 1000 1500 (4500000)
I0413 18:54:25.523697 14510 net.cpp:157] Top shape: 1 3 (3)
I0413 18:54:25.523705 14510 net.cpp:157] Top shape: 1 5 (5)
I0413 18:54:25.523711 14510 net.cpp:157] Top shape: 1 5 (5)
I0413 18:54:25.523715 14510 net.cpp:165] Memory required for data: 18000052
I0413 18:54:25.523725 14510 layer_factory.hpp:77] Creating layer input_data_input_0_split
I0413 18:54:25.523741 14510 net.cpp:100] Creating Layer input_data_input_0_split
I0413 18:54:25.523754 14510 net.cpp:434] input_data_input_0_split <- input_data
I0413 18:54:25.523766 14510 net.cpp:408] input_data_input_0_split -> input_data_input_0_split_0
I0413 18:54:25.523783 14510 net.cpp:408] input_data_input_0_split -> input_data_input_0_split_1
I0413 18:54:25.523838 14510 net.cpp:150] Setting up input_data_input_0_split
I0413 18:54:25.523849 14510 net.cpp:157] Top shape: 1 3 1000 1500 (4500000)
I0413 18:54:25.523864 14510 net.cpp:157] Top shape: 1 3 1000 1500 (4500000)
I0413 18:54:25.523869 14510 net.cpp:165] Memory required for data: 54000052
I0413 18:54:25.523874 14510 layer_factory.hpp:77] Creating layer input_im_info_input_1_split
I0413 18:54:25.523882 14510 net.cpp:100] Creating Layer input_im_info_input_1_split
I0413 18:54:25.523888 14510 net.cpp:434] input_im_info_input_1_split <- input_im_info
I0413 18:54:25.523896 14510 net.cpp:408] input_im_info_input_1_split -> input_im_info_input_1_split_0
I0413 18:54:25.523905 14510 net.cpp:408] input_im_info_input_1_split -> input_im_info_input_1_split_1
I0413 18:54:25.523943 14510 net.cpp:150] Setting up input_im_info_input_1_split
I0413 18:54:25.523953 14510 net.cpp:157] Top shape: 1 3 (3)
I0413 18:54:25.523960 14510 net.cpp:157] Top shape: 1 3 (3)
I0413 18:54:25.523965 14510 net.cpp:165] Memory required for data: 54000076
I0413 18:54:25.523972 14510 layer_factory.hpp:77] Creating layer input_gt_boxes_input_2_split
I0413 18:54:25.523980 14510 net.cpp:100] Creating Layer input_gt_boxes_input_2_split
I0413 18:54:25.523986 14510 net.cpp:434] input_gt_boxes_input_2_split <- input_gt_boxes
I0413 18:54:25.523994 14510 net.cpp:408] input_gt_boxes_input_2_split -> input_gt_boxes_input_2_split_0
I0413 18:54:25.524008 14510 net.cpp:408] input_gt_boxes_input_2_split -> input_gt_boxes_input_2_split_1
I0413 18:54:25.524045 14510 net.cpp:150] Setting up input_gt_boxes_input_2_split
I0413 18:54:25.524056 14510 net.cpp:157] Top shape: 1 5 (5)
I0413 18:54:25.524065 14510 net.cpp:157] Top shape: 1 5 (5)
I0413 18:54:25.524071 14510 net.cpp:165] Memory required for data: 54000116
I0413 18:54:25.524076 14510 layer_factory.hpp:77] Creating layer conv1_1
I0413 18:54:25.524091 14510 net.cpp:100] Creating Layer conv1_1
I0413 18:54:25.524098 14510 net.cpp:434] conv1_1 <- input_data_input_0_split_0
I0413 18:54:25.524108 14510 net.cpp:408] conv1_1 -> conv1_1
I0413 18:54:25.527346 14510 net.cpp:150] Setting up conv1_1
I0413 18:54:25.527389 14510 net.cpp:157] Top shape: 1 64 1000 1500 (96000000)
I0413 18:54:25.527392 14510 net.cpp:165] Memory required for data: 438000116
I0413 18:54:25.527416 14510 layer_factory.hpp:77] Creating layer relu1_1
I0413 18:54:25.527432 14510 net.cpp:100] Creating Layer relu1_1
I0413 18:54:25.527441 14510 net.cpp:434] relu1_1 <- conv1_1
I0413 18:54:25.527453 14510 net.cpp:395] relu1_1 -> conv1_1 (in-place)
I0413 18:54:25.527468 14510 net.cpp:150] Setting up relu1_1
I0413 18:54:25.527477 14510 net.cpp:157] Top shape: 1 64 1000 1500 (96000000)
I0413 18:54:25.527482 14510 net.cpp:165] Memory required for data: 822000116
I0413 18:54:25.527488 14510 layer_factory.hpp:77] Creating layer conv1_2
I0413 18:54:25.527501 14510 net.cpp:100] Creating Layer conv1_2
I0413 18:54:25.527508 14510 net.cpp:434] conv1_2 <- conv1_1
I0413 18:54:25.527518 14510 net.cpp:408] conv1_2 -> conv1_2
I0413 18:54:25.530809 14510 net.cpp:150] Setting up conv1_2
I0413 18:54:25.530846 14510 net.cpp:157] Top shape: 1 64 1000 1500 (96000000)
I0413 18:54:25.530850 14510 net.cpp:165] Memory required for data: 1206000116
I0413 18:54:25.530872 14510 layer_factory.hpp:77] Creating layer relu1_2
I0413 18:54:25.530891 14510 net.cpp:100] Creating Layer relu1_2
I0413 18:54:25.530900 14510 net.cpp:434] relu1_2 <- conv1_2
I0413 18:54:25.530911 14510 net.cpp:395] relu1_2 -> conv1_2 (in-place)
I0413 18:54:25.530926 14510 net.cpp:150] Setting up relu1_2
I0413 18:54:25.530933 14510 net.cpp:157] Top shape: 1 64 1000 1500 (96000000)
I0413 18:54:25.530938 14510 net.cpp:165] Memory required for data: 1590000116
I0413 18:54:25.530944 14510 layer_factory.hpp:77] Creating layer pool1
I0413 18:54:25.530956 14510 net.cpp:100] Creating Layer pool1
I0413 18:54:25.530961 14510 net.cpp:434] pool1 <- conv1_2
I0413 18:54:25.530972 14510 net.cpp:408] pool1 -> pool1
I0413 18:54:25.531059 14510 net.cpp:150] Setting up pool1
I0413 18:54:25.531070 14510 net.cpp:157] Top shape: 1 64 500 750 (24000000)
I0413 18:54:25.531076 14510 net.cpp:165] Memory required for data: 1686000116
I0413 18:54:25.531082 14510 layer_factory.hpp:77] Creating layer conv2_1
I0413 18:54:25.531100 14510 net.cpp:100] Creating Layer conv2_1
I0413 18:54:25.531108 14510 net.cpp:434] conv2_1 <- pool1
I0413 18:54:25.531116 14510 net.cpp:408] conv2_1 -> conv2_1
I0413 18:54:25.532450 14510 net.cpp:150] Setting up conv2_1
I0413 18:54:25.532474 14510 net.cpp:157] Top shape: 1 128 500 750 (48000000)
I0413 18:54:25.532477 14510 net.cpp:165] Memory required for data: 1878000116
I0413 18:54:25.532490 14510 layer_factory.hpp:77] Creating layer relu2_1
I0413 18:54:25.532500 14510 net.cpp:100] Creating Layer relu2_1
I0413 18:54:25.532508 14510 net.cpp:434] relu2_1 <- conv2_1
I0413 18:54:25.532519 14510 net.cpp:395] relu2_1 -> conv2_1 (in-place)
I0413 18:54:25.532531 14510 net.cpp:150] Setting up relu2_1
I0413 18:54:25.532539 14510 net.cpp:157] Top shape: 1 128 500 750 (48000000)
I0413 18:54:25.532546 14510 net.cpp:165] Memory required for data: 2070000116
I0413 18:54:25.532551 14510 layer_factory.hpp:77] Creating layer conv2_2
I0413 18:54:25.532562 14510 net.cpp:100] Creating Layer conv2_2
I0413 18:54:25.532567 14510 net.cpp:434] conv2_2 <- conv2_1
I0413 18:54:25.532577 14510 net.cpp:408] conv2_2 -> conv2_2
I0413 18:54:25.533663 14510 net.cpp:150] Setting up conv2_2
I0413 18:54:25.533692 14510 net.cpp:157] Top shape: 1 128 500 750 (48000000)
I0413 18:54:25.533695 14510 net.cpp:165] Memory required for data: 2262000116
I0413 18:54:25.533705 14510 layer_factory.hpp:77] Creating layer relu2_2
I0413 18:54:25.533715 14510 net.cpp:100] Creating Layer relu2_2
I0413 18:54:25.533720 14510 net.cpp:434] relu2_2 <- conv2_2
I0413 18:54:25.533725 14510 net.cpp:395] relu2_2 -> conv2_2 (in-place)
I0413 18:54:25.533736 14510 net.cpp:150] Setting up relu2_2
I0413 18:54:25.533741 14510 net.cpp:157] Top shape: 1 128 500 750 (48000000)
I0413 18:54:25.533745 14510 net.cpp:165] Memory required for data: 2454000116
I0413 18:54:25.533747 14510 layer_factory.hpp:77] Creating layer pool2
I0413 18:54:25.533753 14510 net.cpp:100] Creating Layer pool2
I0413 18:54:25.533756 14510 net.cpp:434] pool2 <- conv2_2
I0413 18:54:25.533761 14510 net.cpp:408] pool2 -> pool2
I0413 18:54:25.533807 14510 net.cpp:150] Setting up pool2
I0413 18:54:25.533813 14510 net.cpp:157] Top shape: 1 128 250 375 (12000000)
I0413 18:54:25.533818 14510 net.cpp:165] Memory required for data: 2502000116
I0413 18:54:25.533823 14510 layer_factory.hpp:77] Creating layer conv3_1
I0413 18:54:25.533838 14510 net.cpp:100] Creating Layer conv3_1
I0413 18:54:25.533844 14510 net.cpp:434] conv3_1 <- pool2
I0413 18:54:25.533854 14510 net.cpp:408] conv3_1 -> conv3_1
I0413 18:54:25.535233 14510 net.cpp:150] Setting up conv3_1
I0413 18:54:25.535264 14510 net.cpp:157] Top shape: 1 256 250 375 (24000000)
I0413 18:54:25.535267 14510 net.cpp:165] Memory required for data: 2598000116
I0413 18:54:25.535287 14510 layer_factory.hpp:77] Creating layer relu3_1
I0413 18:54:25.535302 14510 net.cpp:100] Creating Layer relu3_1
I0413 18:54:25.535310 14510 net.cpp:434] relu3_1 <- conv3_1
I0413 18:54:25.535323 14510 net.cpp:395] relu3_1 -> conv3_1 (in-place)
I0413 18:54:25.535337 14510 net.cpp:150] Setting up relu3_1
I0413 18:54:25.535346 14510 net.cpp:157] Top shape: 1 256 250 375 (24000000)
I0413 18:54:25.535352 14510 net.cpp:165] Memory required for data: 2694000116
I0413 18:54:25.535357 14510 layer_factory.hpp:77] Creating layer conv3_2
I0413 18:54:25.535374 14510 net.cpp:100] Creating Layer conv3_2
I0413 18:54:25.535382 14510 net.cpp:434] conv3_2 <- conv3_1
I0413 18:54:25.535390 14510 net.cpp:408] conv3_2 -> conv3_2
I0413 18:54:25.536792 14510 net.cpp:150] Setting up conv3_2
I0413 18:54:25.536821 14510 net.cpp:157] Top shape: 1 256 250 375 (24000000)
I0413 18:54:25.536825 14510 net.cpp:165] Memory required for data: 2790000116
I0413 18:54:25.536839 14510 layer_factory.hpp:77] Creating layer relu3_2
I0413 18:54:25.536850 14510 net.cpp:100] Creating Layer relu3_2
I0413 18:54:25.536859 14510 net.cpp:434] relu3_2 <- conv3_2
I0413 18:54:25.536871 14510 net.cpp:395] relu3_2 -> conv3_2 (in-place)
I0413 18:54:25.536886 14510 net.cpp:150] Setting up relu3_2
I0413 18:54:25.536895 14510 net.cpp:157] Top shape: 1 256 250 375 (24000000)
I0413 18:54:25.536900 14510 net.cpp:165] Memory required for data: 2886000116
I0413 18:54:25.536916 14510 layer_factory.hpp:77] Creating layer conv3_3
I0413 18:54:25.536929 14510 net.cpp:100] Creating Layer conv3_3
I0413 18:54:25.536936 14510 net.cpp:434] conv3_3 <- conv3_2
I0413 18:54:25.536947 14510 net.cpp:408] conv3_3 -> conv3_3
I0413 18:54:25.538781 14510 net.cpp:150] Setting up conv3_3
I0413 18:54:25.538816 14510 net.cpp:157] Top shape: 1 256 250 375 (24000000)
I0413 18:54:25.538821 14510 net.cpp:165] Memory required for data: 2982000116
I0413 18:54:25.538832 14510 layer_factory.hpp:77] Creating layer relu3_3
I0413 18:54:25.538842 14510 net.cpp:100] Creating Layer relu3_3
I0413 18:54:25.538847 14510 net.cpp:434] relu3_3 <- conv3_3
I0413 18:54:25.538856 14510 net.cpp:395] relu3_3 -> conv3_3 (in-place)
I0413 18:54:25.538866 14510 net.cpp:150] Setting up relu3_3
I0413 18:54:25.538872 14510 net.cpp:157] Top shape: 1 256 250 375 (24000000)
I0413 18:54:25.538874 14510 net.cpp:165] Memory required for data: 3078000116
I0413 18:54:25.538877 14510 layer_factory.hpp:77] Creating layer pool3
I0413 18:54:25.538882 14510 net.cpp:100] Creating Layer pool3
I0413 18:54:25.538885 14510 net.cpp:434] pool3 <- conv3_3
I0413 18:54:25.538892 14510 net.cpp:408] pool3 -> pool3
I0413 18:54:25.538933 14510 net.cpp:150] Setting up pool3
I0413 18:54:25.538940 14510 net.cpp:157] Top shape: 1 256 125 188 (6016000)
I0413 18:54:25.538942 14510 net.cpp:165] Memory required for data: 3102064116
I0413 18:54:25.538946 14510 layer_factory.hpp:77] Creating layer conv4_1
I0413 18:54:25.538955 14510 net.cpp:100] Creating Layer conv4_1
I0413 18:54:25.538959 14510 net.cpp:434] conv4_1 <- pool3
I0413 18:54:25.538965 14510 net.cpp:408] conv4_1 -> conv4_1
I0413 18:54:25.541646 14510 net.cpp:150] Setting up conv4_1
I0413 18:54:25.541676 14510 net.cpp:157] Top shape: 1 512 125 188 (12032000)
I0413 18:54:25.541681 14510 net.cpp:165] Memory required for data: 3150192116
I0413 18:54:25.541689 14510 layer_factory.hpp:77] Creating layer relu4_1
I0413 18:54:25.541698 14510 net.cpp:100] Creating Layer relu4_1
I0413 18:54:25.541703 14510 net.cpp:434] relu4_1 <- conv4_1
I0413 18:54:25.541712 14510 net.cpp:395] relu4_1 -> conv4_1 (in-place)
I0413 18:54:25.541721 14510 net.cpp:150] Setting up relu4_1
I0413 18:54:25.541725 14510 net.cpp:157] Top shape: 1 512 125 188 (12032000)
I0413 18:54:25.541728 14510 net.cpp:165] Memory required for data: 3198320116
I0413 18:54:25.541731 14510 layer_factory.hpp:77] Creating layer conv4_2
I0413 18:54:25.541740 14510 net.cpp:100] Creating Layer conv4_2
I0413 18:54:25.541744 14510 net.cpp:434] conv4_2 <- conv4_1
I0413 18:54:25.541749 14510 net.cpp:408] conv4_2 -> conv4_2
I0413 18:54:25.546313 14510 net.cpp:150] Setting up conv4_2
I0413 18:54:25.546356 14510 net.cpp:157] Top shape: 1 512 125 188 (12032000)
I0413 18:54:25.546360 14510 net.cpp:165] Memory required for data: 3246448116
I0413 18:54:25.546377 14510 layer_factory.hpp:77] Creating layer relu4_2
I0413 18:54:25.546388 14510 net.cpp:100] Creating Layer relu4_2
I0413 18:54:25.546396 14510 net.cpp:434] relu4_2 <- conv4_2
I0413 18:54:25.546407 14510 net.cpp:395] relu4_2 -> conv4_2 (in-place)
I0413 18:54:25.546422 14510 net.cpp:150] Setting up relu4_2
I0413 18:54:25.546432 14510 net.cpp:157] Top shape: 1 512 125 188 (12032000)
I0413 18:54:25.546437 14510 net.cpp:165] Memory required for data: 3294576116
I0413 18:54:25.546442 14510 layer_factory.hpp:77] Creating layer conv4_3
I0413 18:54:25.546455 14510 net.cpp:100] Creating Layer conv4_3
I0413 18:54:25.546461 14510 net.cpp:434] conv4_3 <- conv4_2
I0413 18:54:25.546473 14510 net.cpp:408] conv4_3 -> conv4_3
I0413 18:54:25.552525 14510 net.cpp:150] Setting up conv4_3
I0413 18:54:25.552561 14510 net.cpp:157] Top shape: 1 512 125 188 (12032000)
I0413 18:54:25.552563 14510 net.cpp:165] Memory required for data: 3342704116
I0413 18:54:25.552575 14510 layer_factory.hpp:77] Creating layer relu4_3
I0413 18:54:25.552588 14510 net.cpp:100] Creating Layer relu4_3
I0413 18:54:25.552597 14510 net.cpp:434] relu4_3 <- conv4_3
I0413 18:54:25.552610 14510 net.cpp:395] relu4_3 -> conv4_3 (in-place)
I0413 18:54:25.552625 14510 net.cpp:150] Setting up relu4_3
I0413 18:54:25.552633 14510 net.cpp:157] Top shape: 1 512 125 188 (12032000)
I0413 18:54:25.552637 14510 net.cpp:165] Memory required for data: 3390832116
I0413 18:54:25.552642 14510 layer_factory.hpp:77] Creating layer pool4
I0413 18:54:25.552651 14510 net.cpp:100] Creating Layer pool4
I0413 18:54:25.552656 14510 net.cpp:434] pool4 <- conv4_3
I0413 18:54:25.552667 14510 net.cpp:408] pool4 -> pool4
I0413 18:54:25.552718 14510 net.cpp:150] Setting up pool4
I0413 18:54:25.552732 14510 net.cpp:157] Top shape: 1 512 63 94 (3032064)
I0413 18:54:25.552737 14510 net.cpp:165] Memory required for data: 3402960372
I0413 18:54:25.552742 14510 layer_factory.hpp:77] Creating layer conv5_1
I0413 18:54:25.552755 14510 net.cpp:100] Creating Layer conv5_1
I0413 18:54:25.552764 14510 net.cpp:434] conv5_1 <- pool4
I0413 18:54:25.552776 14510 net.cpp:408] conv5_1 -> conv5_1
I0413 18:54:25.557600 14510 net.cpp:150] Setting up conv5_1
I0413 18:54:25.557636 14510 net.cpp:157] Top shape: 1 512 63 94 (3032064)
I0413 18:54:25.557641 14510 net.cpp:165] Memory required for data: 3415088628
I0413 18:54:25.557651 14510 layer_factory.hpp:77] Creating layer relu5_1
I0413 18:54:25.557662 14510 net.cpp:100] Creating Layer relu5_1
I0413 18:54:25.557669 14510 net.cpp:434] relu5_1 <- conv5_1
I0413 18:54:25.557684 14510 net.cpp:395] relu5_1 -> conv5_1 (in-place)
I0413 18:54:25.557698 14510 net.cpp:150] Setting up relu5_1
I0413 18:54:25.557705 14510 net.cpp:157] Top shape: 1 512 63 94 (3032064)
I0413 18:54:25.557710 14510 net.cpp:165] Memory required for data: 3427216884
I0413 18:54:25.557715 14510 layer_factory.hpp:77] Creating layer conv5_2
I0413 18:54:25.557726 14510 net.cpp:100] Creating Layer conv5_2
I0413 18:54:25.557731 14510 net.cpp:434] conv5_2 <- conv5_1
I0413 18:54:25.557744 14510 net.cpp:408] conv5_2 -> conv5_2
I0413 18:54:25.562139 14510 net.cpp:150] Setting up conv5_2
I0413 18:54:25.562177 14510 net.cpp:157] Top shape: 1 512 63 94 (3032064)
I0413 18:54:25.562181 14510 net.cpp:165] Memory required for data: 3439345140
I0413 18:54:25.562192 14510 layer_factory.hpp:77] Creating layer relu5_2
I0413 18:54:25.562204 14510 net.cpp:100] Creating Layer relu5_2
I0413 18:54:25.562211 14510 net.cpp:434] relu5_2 <- conv5_2
I0413 18:54:25.562227 14510 net.cpp:395] relu5_2 -> conv5_2 (in-place)
I0413 18:54:25.562240 14510 net.cpp:150] Setting up relu5_2
I0413 18:54:25.562248 14510 net.cpp:157] Top shape: 1 512 63 94 (3032064)
I0413 18:54:25.562253 14510 net.cpp:165] Memory required for data: 3451473396
I0413 18:54:25.562258 14510 layer_factory.hpp:77] Creating layer conv5_3
I0413 18:54:25.562279 14510 net.cpp:100] Creating Layer conv5_3
I0413 18:54:25.562296 14510 net.cpp:434] conv5_3 <- conv5_2
I0413 18:54:25.562306 14510 net.cpp:408] conv5_3 -> conv5_3
I0413 18:54:25.569634 14510 net.cpp:150] Setting up conv5_3
I0413 18:54:25.569679 14510 net.cpp:157] Top shape: 1 512 63 94 (3032064)
I0413 18:54:25.569682 14510 net.cpp:165] Memory required for data: 3463601652
I0413 18:54:25.569692 14510 layer_factory.hpp:77] Creating layer relu5_3
I0413 18:54:25.569702 14510 net.cpp:100] Creating Layer relu5_3
I0413 18:54:25.569707 14510 net.cpp:434] relu5_3 <- conv5_3
I0413 18:54:25.569716 14510 net.cpp:395] relu5_3 -> conv5_3 (in-place)
I0413 18:54:25.569730 14510 net.cpp:150] Setting up relu5_3
I0413 18:54:25.569737 14510 net.cpp:157] Top shape: 1 512 63 94 (3032064)
I0413 18:54:25.569742 14510 net.cpp:165] Memory required for data: 3475729908
I0413 18:54:25.569747 14510 layer_factory.hpp:77] Creating layer conv5_3_relu5_3_0_split
I0413 18:54:25.569756 14510 net.cpp:100] Creating Layer conv5_3_relu5_3_0_split
I0413 18:54:25.569761 14510 net.cpp:434] conv5_3_relu5_3_0_split <- conv5_3
I0413 18:54:25.569772 14510 net.cpp:408] conv5_3_relu5_3_0_split -> conv5_3_relu5_3_0_split_0
I0413 18:54:25.569785 14510 net.cpp:408] conv5_3_relu5_3_0_split -> conv5_3_relu5_3_0_split_1
I0413 18:54:25.569830 14510 net.cpp:150] Setting up conv5_3_relu5_3_0_split
I0413 18:54:25.569840 14510 net.cpp:157] Top shape: 1 512 63 94 (3032064)
I0413 18:54:25.569849 14510 net.cpp:157] Top shape: 1 512 63 94 (3032064)
I0413 18:54:25.569855 14510 net.cpp:165] Memory required for data: 3499986420
I0413 18:54:25.569860 14510 layer_factory.hpp:77] Creating layer rpn_big_conv1
I0413 18:54:25.569878 14510 net.cpp:100] Creating Layer rpn_big_conv1
I0413 18:54:25.569885 14510 net.cpp:434] rpn_big_conv1 <- conv5_3_relu5_3_0_split_0
I0413 18:54:25.569902 14510 net.cpp:408] rpn_big_conv1 -> rpn_big_conv1
I0413 18:54:25.595083 14510 net.cpp:150] Setting up rpn_big_conv1
I0413 18:54:25.595114 14510 net.cpp:157] Top shape: 1 512 63 94 (3032064)
I0413 18:54:25.595127 14510 net.cpp:165] Memory required for data: 3512114676
I0413 18:54:25.595137 14510 layer_factory.hpp:77] Creating layer rpn_big_conv1_relu
I0413 18:54:25.595149 14510 net.cpp:100] Creating Layer rpn_big_conv1_relu
I0413 18:54:25.595154 14510 net.cpp:434] rpn_big_conv1_relu <- rpn_big_conv1
I0413 18:54:25.595165 14510 net.cpp:395] rpn_big_conv1_relu -> rpn_big_conv1 (in-place)
I0413 18:54:25.595180 14510 net.cpp:150] Setting up rpn_big_conv1_relu
I0413 18:54:25.595188 14510 net.cpp:157] Top shape: 1 512 63 94 (3032064)
I0413 18:54:25.595193 14510 net.cpp:165] Memory required for data: 3524242932
I0413 18:54:25.595198 14510 layer_factory.hpp:77] Creating layer rpn_big_conv2
I0413 18:54:25.595214 14510 net.cpp:100] Creating Layer rpn_big_conv2
I0413 18:54:25.595221 14510 net.cpp:434] rpn_big_conv2 <- rpn_big_conv1
I0413 18:54:25.595230 14510 net.cpp:408] rpn_big_conv2 -> rpn_big_conv2
I0413 18:54:25.621523 14510 net.cpp:150] Setting up rpn_big_conv2
I0413 18:54:25.621563 14510 net.cpp:157] Top shape: 1 512 63 94 (3032064)
I0413 18:54:25.621568 14510 net.cpp:165] Memory required for data: 3536371188
I0413 18:54:25.621578 14510 layer_factory.hpp:77] Creating layer rpn_big_conv2_relu
I0413 18:54:25.621589 14510 net.cpp:100] Creating Layer rpn_big_conv2_relu
I0413 18:54:25.621598 14510 net.cpp:434] rpn_big_conv2_relu <- rpn_big_conv2
I0413 18:54:25.621608 14510 net.cpp:395] rpn_big_conv2_relu -> rpn_big_conv2 (in-place)
I0413 18:54:25.621623 14510 net.cpp:150] Setting up rpn_big_conv2_relu
I0413 18:54:25.621634 14510 net.cpp:157] Top shape: 1 512 63 94 (3032064)
I0413 18:54:25.621639 14510 net.cpp:165] Memory required for data: 3548499444
I0413 18:54:25.621645 14510 layer_factory.hpp:77] Creating layer rpn_big_conv2_drop
I0413 18:54:25.621656 14510 net.cpp:100] Creating Layer rpn_big_conv2_drop
I0413 18:54:25.621664 14510 net.cpp:434] rpn_big_conv2_drop <- rpn_big_conv2
I0413 18:54:25.621673 14510 net.cpp:395] rpn_big_conv2_drop -> rpn_big_conv2 (in-place)
I0413 18:54:25.621707 14510 net.cpp:150] Setting up rpn_big_conv2_drop
I0413 18:54:25.621717 14510 net.cpp:157] Top shape: 1 512 63 94 (3032064)
I0413 18:54:25.621723 14510 net.cpp:165] Memory required for data: 3560627700
I0413 18:54:25.621729 14510 layer_factory.hpp:77] Creating layer rpn_big_conv2_rpn_big_conv2_drop_0_split
I0413 18:54:25.621737 14510 net.cpp:100] Creating Layer rpn_big_conv2_rpn_big_conv2_drop_0_split
I0413 18:54:25.621743 14510 net.cpp:434] rpn_big_conv2_rpn_big_conv2_drop_0_split <- rpn_big_conv2
I0413 18:54:25.621755 14510 net.cpp:408] rpn_big_conv2_rpn_big_conv2_drop_0_split -> rpn_big_conv2_rpn_big_conv2_drop_0_split_0
I0413 18:54:25.621767 14510 net.cpp:408] rpn_big_conv2_rpn_big_conv2_drop_0_split -> rpn_big_conv2_rpn_big_conv2_drop_0_split_1
I0413 18:54:25.621825 14510 net.cpp:150] Setting up rpn_big_conv2_rpn_big_conv2_drop_0_split
I0413 18:54:25.621839 14510 net.cpp:157] Top shape: 1 512 63 94 (3032064)
I0413 18:54:25.621846 14510 net.cpp:157] Top shape: 1 512 63 94 (3032064)
I0413 18:54:25.621850 14510 net.cpp:165] Memory required for data: 3584884212
I0413 18:54:25.621856 14510 layer_factory.hpp:77] Creating layer rpn_big_output_cls
I0413 18:54:25.621871 14510 net.cpp:100] Creating Layer rpn_big_output_cls
I0413 18:54:25.621878 14510 net.cpp:434] rpn_big_output_cls <- rpn_big_conv2_rpn_big_conv2_drop_0_split_0
I0413 18:54:25.621891 14510 net.cpp:408] rpn_big_output_cls -> rpn_big_output_cls
I0413 18:54:25.640722 14510 net.cpp:150] Setting up rpn_big_output_cls
I0413 18:54:25.640751 14510 net.cpp:157] Top shape: 1 384 63 94 (2274048)
I0413 18:54:25.640755 14510 net.cpp:165] Memory required for data: 3593980404
I0413 18:54:25.640766 14510 layer_factory.hpp:77] Creating layer rpn_big_output_cls_relu
I0413 18:54:25.640780 14510 net.cpp:100] Creating Layer rpn_big_output_cls_relu
I0413 18:54:25.640789 14510 net.cpp:434] rpn_big_output_cls_relu <- rpn_big_output_cls
I0413 18:54:25.640802 14510 net.cpp:395] rpn_big_output_cls_relu -> rpn_big_output_cls (in-place)
I0413 18:54:25.640816 14510 net.cpp:150] Setting up rpn_big_output_cls_relu
I0413 18:54:25.640823 14510 net.cpp:157] Top shape: 1 384 63 94 (2274048)
I0413 18:54:25.640828 14510 net.cpp:165] Memory required for data: 3603076596
I0413 18:54:25.640833 14510 layer_factory.hpp:77] Creating layer rpn_big_cls_score
I0413 18:54:25.640851 14510 net.cpp:100] Creating Layer rpn_big_cls_score
I0413 18:54:25.640857 14510 net.cpp:434] rpn_big_cls_score <- rpn_big_output_cls
I0413 18:54:25.640867 14510 net.cpp:408] rpn_big_cls_score -> rpn_big_cls_score
I0413 18:54:25.643276 14510 net.cpp:150] Setting up rpn_big_cls_score
I0413 18:54:25.643296 14510 net.cpp:157] Top shape: 1 52 61 92 (291824)
I0413 18:54:25.643301 14510 net.cpp:165] Memory required for data: 3604243892
I0413 18:54:25.643318 14510 layer_factory.hpp:77] Creating layer rpn_big_cls_score_rpn_big_cls_score_0_split
I0413 18:54:25.643332 14510 net.cpp:100] Creating Layer rpn_big_cls_score_rpn_big_cls_score_0_split
I0413 18:54:25.643338 14510 net.cpp:434] rpn_big_cls_score_rpn_big_cls_score_0_split <- rpn_big_cls_score
I0413 18:54:25.643348 14510 net.cpp:408] rpn_big_cls_score_rpn_big_cls_score_0_split -> rpn_big_cls_score_rpn_big_cls_score_0_split_0
I0413 18:54:25.643362 14510 net.cpp:408] rpn_big_cls_score_rpn_big_cls_score_0_split -> rpn_big_cls_score_rpn_big_cls_score_0_split_1
I0413 18:54:25.643410 14510 net.cpp:150] Setting up rpn_big_cls_score_rpn_big_cls_score_0_split
I0413 18:54:25.643425 14510 net.cpp:157] Top shape: 1 52 61 92 (291824)
I0413 18:54:25.643432 14510 net.cpp:157] Top shape: 1 52 61 92 (291824)
I0413 18:54:25.643436 14510 net.cpp:165] Memory required for data: 3606578484
I0413 18:54:25.643442 14510 layer_factory.hpp:77] Creating layer rpn_big_cls_score_reshape
I0413 18:54:25.643452 14510 net.cpp:100] Creating Layer rpn_big_cls_score_reshape
I0413 18:54:25.643457 14510 net.cpp:434] rpn_big_cls_score_reshape <- rpn_big_cls_score_rpn_big_cls_score_0_split_0
I0413 18:54:25.643470 14510 net.cpp:408] rpn_big_cls_score_reshape -> rpn_big_cls_score_reshape
I0413 18:54:25.643503 14510 net.cpp:150] Setting up rpn_big_cls_score_reshape
I0413 18:54:25.643517 14510 net.cpp:157] Top shape: 1 2 1586 92 (291824)
I0413 18:54:25.643520 14510 net.cpp:165] Memory required for data: 3607745780
I0413 18:54:25.643527 14510 layer_factory.hpp:77] Creating layer rpn_big_cls_score_reshape_rpn_big_cls_score_reshape_0_split
I0413 18:54:25.643534 14510 net.cpp:100] Creating Layer rpn_big_cls_score_reshape_rpn_big_cls_score_reshape_0_split
I0413 18:54:25.643539 14510 net.cpp:434] rpn_big_cls_score_reshape_rpn_big_cls_score_reshape_0_split <- rpn_big_cls_score_reshape
I0413 18:54:25.643548 14510 net.cpp:408] rpn_big_cls_score_reshape_rpn_big_cls_score_reshape_0_split -> rpn_big_cls_score_reshape_rpn_big_cls_score_reshape_0_split_0
I0413 18:54:25.643559 14510 net.cpp:408] rpn_big_cls_score_reshape_rpn_big_cls_score_reshape_0_split -> rpn_big_cls_score_reshape_rpn_big_cls_score_reshape_0_split_1
I0413 18:54:25.643607 14510 net.cpp:150] Setting up rpn_big_cls_score_reshape_rpn_big_cls_score_reshape_0_split
I0413 18:54:25.643618 14510 net.cpp:157] Top shape: 1 2 1586 92 (291824)
I0413 18:54:25.643625 14510 net.cpp:157] Top shape: 1 2 1586 92 (291824)
I0413 18:54:25.643630 14510 net.cpp:165] Memory required for data: 3610080372
I0413 18:54:25.643635 14510 layer_factory.hpp:77] Creating layer rpn_big_cls_prob
I0413 18:54:25.643646 14510 net.cpp:100] Creating Layer rpn_big_cls_prob
I0413 18:54:25.643651 14510 net.cpp:434] rpn_big_cls_prob <- rpn_big_cls_score_reshape_rpn_big_cls_score_reshape_0_split_0
I0413 18:54:25.643661 14510 net.cpp:408] rpn_big_cls_prob -> rpn_big_cls_prob
I0413 18:54:25.643739 14510 net.cpp:150] Setting up rpn_big_cls_prob
I0413 18:54:25.643750 14510 net.cpp:157] Top shape: 1 2 1586 92 (291824)
I0413 18:54:25.643754 14510 net.cpp:165] Memory required for data: 3611247668
I0413 18:54:25.643760 14510 layer_factory.hpp:77] Creating layer rpn_big_cls_prob_reshape
I0413 18:54:25.643769 14510 net.cpp:100] Creating Layer rpn_big_cls_prob_reshape
I0413 18:54:25.643774 14510 net.cpp:434] rpn_big_cls_prob_reshape <- rpn_big_cls_prob
I0413 18:54:25.643782 14510 net.cpp:408] rpn_big_cls_prob_reshape -> rpn_big_cls_prob_reshape
I0413 18:54:25.643813 14510 net.cpp:150] Setting up rpn_big_cls_prob_reshape
I0413 18:54:25.643823 14510 net.cpp:157] Top shape: 1 52 61 92 (291824)
I0413 18:54:25.643827 14510 net.cpp:165] Memory required for data: 3612414964
I0413 18:54:25.643832 14510 layer_factory.hpp:77] Creating layer rpn_big_cls_prob_reshape_rpn_big_cls_prob_reshape_0_split
I0413 18:54:25.643841 14510 net.cpp:100] Creating Layer rpn_big_cls_prob_reshape_rpn_big_cls_prob_reshape_0_split
I0413 18:54:25.643846 14510 net.cpp:434] rpn_big_cls_prob_reshape_rpn_big_cls_prob_reshape_0_split <- rpn_big_cls_prob_reshape
I0413 18:54:25.643853 14510 net.cpp:408] rpn_big_cls_prob_reshape_rpn_big_cls_prob_reshape_0_split -> rpn_big_cls_prob_reshape_rpn_big_cls_prob_reshape_0_split_0
I0413 18:54:25.643863 14510 net.cpp:408] rpn_big_cls_prob_reshape_rpn_big_cls_prob_reshape_0_split -> rpn_big_cls_prob_reshape_rpn_big_cls_prob_reshape_0_split_1
I0413 18:54:25.643905 14510 net.cpp:150] Setting up rpn_big_cls_prob_reshape_rpn_big_cls_prob_reshape_0_split
I0413 18:54:25.643916 14510 net.cpp:157] Top shape: 1 52 61 92 (291824)
I0413 18:54:25.643923 14510 net.cpp:157] Top shape: 1 52 61 92 (291824)
I0413 18:54:25.643928 14510 net.cpp:165] Memory required for data: 3614749556
I0413 18:54:25.643932 14510 layer_factory.hpp:77] Creating layer rpn_big_anchor_target
I0413 18:54:25.645488 14510 net.cpp:100] Creating Layer rpn_big_anchor_target
I0413 18:54:25.645505 14510 net.cpp:434] rpn_big_anchor_target <- rpn_big_cls_score_rpn_big_cls_score_0_split_1
I0413 18:54:25.645514 14510 net.cpp:434] rpn_big_anchor_target <- input_gt_boxes_input_2_split_0
I0413 18:54:25.645521 14510 net.cpp:434] rpn_big_anchor_target <- input_ignored_boxes
I0413 18:54:25.645529 14510 net.cpp:434] rpn_big_anchor_target <- input_im_info_input_1_split_0
I0413 18:54:25.645536 14510 net.cpp:434] rpn_big_anchor_target <- input_data_input_0_split_1
I0413 18:54:25.645543 14510 net.cpp:434] rpn_big_anchor_target <- rpn_big_cls_prob_reshape_rpn_big_cls_prob_reshape_0_split_0
I0413 18:54:25.645555 14510 net.cpp:408] rpn_big_anchor_target -> rpn_big_anchor_target_labels
I0413 18:54:25.645570 14510 net.cpp:408] rpn_big_anchor_target -> rpn_big_anchor_target_bbox_targets
I0413 18:54:25.645586 14510 net.cpp:408] rpn_big_anchor_target -> rpn_big_anchor_target_inside_weights
I0413 18:54:25.645598 14510 net.cpp:408] rpn_big_anchor_target -> rpn_big_anchor_target_outside_weights
I0413 18:54:25.650475 14510 net.cpp:150] Setting up rpn_big_anchor_target
I0413 18:54:25.650501 14510 net.cpp:157] Top shape: 1 1 1586 92 (145912)
I0413 18:54:25.650516 14510 net.cpp:157] Top shape: 1 104 61 92 (583648)
I0413 18:54:25.650521 14510 net.cpp:157] Top shape: 1 104 61 92 (583648)
I0413 18:54:25.650524 14510 net.cpp:157] Top shape: 1 104 61 92 (583648)
I0413 18:54:25.650527 14510 net.cpp:165] Memory required for data: 3622336980
I0413 18:54:25.650532 14510 layer_factory.hpp:77] Creating layer rpn_big_loss_cls
I0413 18:54:25.650542 14510 net.cpp:100] Creating Layer rpn_big_loss_cls
I0413 18:54:25.650550 14510 net.cpp:434] rpn_big_loss_cls <- rpn_big_cls_score_reshape_rpn_big_cls_score_reshape_0_split_1
I0413 18:54:25.650559 14510 net.cpp:434] rpn_big_loss_cls <- rpn_big_anchor_target_labels
I0413 18:54:25.650570 14510 net.cpp:408] rpn_big_loss_cls -> rpn_big_loss_cls
I0413 18:54:25.650588 14510 layer_factory.hpp:77] Creating layer rpn_big_loss_cls
I0413 18:54:25.651294 14510 net.cpp:150] Setting up rpn_big_loss_cls
I0413 18:54:25.651307 14510 net.cpp:157] Top shape: (1)
I0413 18:54:25.651310 14510 net.cpp:160]     with loss weight 1
I0413 18:54:25.651330 14510 net.cpp:165] Memory required for data: 3622336984
I0413 18:54:25.651335 14510 layer_factory.hpp:77] Creating layer rpn_big_output_box
I0413 18:54:25.651348 14510 net.cpp:100] Creating Layer rpn_big_output_box
I0413 18:54:25.651355 14510 net.cpp:434] rpn_big_output_box <- rpn_big_conv2_rpn_big_conv2_drop_0_split_1
I0413 18:54:25.651370 14510 net.cpp:408] rpn_big_output_box -> rpn_big_output_box
I0413 18:54:25.670209 14510 net.cpp:150] Setting up rpn_big_output_box
I0413 18:54:25.670240 14510 net.cpp:157] Top shape: 1 384 63 94 (2274048)
I0413 18:54:25.670253 14510 net.cpp:165] Memory required for data: 3631433176
I0413 18:54:25.670264 14510 layer_factory.hpp:77] Creating layer rpn_big_output_box_relu
I0413 18:54:25.670275 14510 net.cpp:100] Creating Layer rpn_big_output_box_relu
I0413 18:54:25.670280 14510 net.cpp:434] rpn_big_output_box_relu <- rpn_big_output_box
I0413 18:54:25.670294 14510 net.cpp:395] rpn_big_output_box_relu -> rpn_big_output_box (in-place)
I0413 18:54:25.670308 14510 net.cpp:150] Setting up rpn_big_output_box_relu
I0413 18:54:25.670316 14510 net.cpp:157] Top shape: 1 384 63 94 (2274048)
I0413 18:54:25.670321 14510 net.cpp:165] Memory required for data: 3640529368
I0413 18:54:25.670326 14510 layer_factory.hpp:77] Creating layer rpn_big_bbox_pred
I0413 18:54:25.670342 14510 net.cpp:100] Creating Layer rpn_big_bbox_pred
I0413 18:54:25.670351 14510 net.cpp:434] rpn_big_bbox_pred <- rpn_big_output_box
I0413 18:54:25.670361 14510 net.cpp:408] rpn_big_bbox_pred -> rpn_big_bbox_pred
I0413 18:54:25.674537 14510 net.cpp:150] Setting up rpn_big_bbox_pred
I0413 18:54:25.674552 14510 net.cpp:157] Top shape: 1 104 61 92 (583648)
I0413 18:54:25.674556 14510 net.cpp:165] Memory required for data: 3642863960
I0413 18:54:25.674572 14510 layer_factory.hpp:77] Creating layer rpn_big_bbox_pred_rpn_big_bbox_pred_0_split
I0413 18:54:25.674579 14510 net.cpp:100] Creating Layer rpn_big_bbox_pred_rpn_big_bbox_pred_0_split
I0413 18:54:25.674584 14510 net.cpp:434] rpn_big_bbox_pred_rpn_big_bbox_pred_0_split <- rpn_big_bbox_pred
I0413 18:54:25.674592 14510 net.cpp:408] rpn_big_bbox_pred_rpn_big_bbox_pred_0_split -> rpn_big_bbox_pred_rpn_big_bbox_pred_0_split_0
I0413 18:54:25.674605 14510 net.cpp:408] rpn_big_bbox_pred_rpn_big_bbox_pred_0_split -> rpn_big_bbox_pred_rpn_big_bbox_pred_0_split_1
I0413 18:54:25.674664 14510 net.cpp:150] Setting up rpn_big_bbox_pred_rpn_big_bbox_pred_0_split
I0413 18:54:25.674674 14510 net.cpp:157] Top shape: 1 104 61 92 (583648)
I0413 18:54:25.674690 14510 net.cpp:157] Top shape: 1 104 61 92 (583648)
I0413 18:54:25.674695 14510 net.cpp:165] Memory required for data: 3647533144
I0413 18:54:25.674700 14510 layer_factory.hpp:77] Creating layer rpn_big_loss_bbox
I0413 18:54:25.675109 14510 net.cpp:100] Creating Layer rpn_big_loss_bbox
I0413 18:54:25.675118 14510 net.cpp:434] rpn_big_loss_bbox <- rpn_big_bbox_pred_rpn_big_bbox_pred_0_split_0
I0413 18:54:25.675123 14510 net.cpp:434] rpn_big_loss_bbox <- rpn_big_anchor_target_bbox_targets
I0413 18:54:25.675137 14510 net.cpp:434] rpn_big_loss_bbox <- rpn_big_anchor_target_inside_weights
I0413 18:54:25.675143 14510 net.cpp:434] rpn_big_loss_bbox <- rpn_big_anchor_target_outside_weights
I0413 18:54:25.675149 14510 net.cpp:408] rpn_big_loss_bbox -> rpn_big_loss_bbox
I0413 18:54:25.677094 14510 net.cpp:150] Setting up rpn_big_loss_bbox
I0413 18:54:25.677129 14510 net.cpp:157] Top shape: 1 (1)
I0413 18:54:25.677132 14510 net.cpp:160]     with loss weight 1
I0413 18:54:25.677145 14510 net.cpp:165] Memory required for data: 3647533148
I0413 18:54:25.677151 14510 layer_factory.hpp:77] Creating layer proposal
I0413 18:54:25.677609 14510 net.cpp:100] Creating Layer proposal
I0413 18:54:25.677620 14510 net.cpp:434] proposal <- rpn_big_cls_prob_reshape_rpn_big_cls_prob_reshape_0_split_1
I0413 18:54:25.677628 14510 net.cpp:434] proposal <- rpn_big_bbox_pred_rpn_big_bbox_pred_0_split_1
I0413 18:54:25.677634 14510 net.cpp:434] proposal <- input_im_info_input_1_split_1
I0413 18:54:25.677646 14510 net.cpp:408] proposal -> rpn_rois
I0413 18:54:25.682157 14510 net.cpp:150] Setting up proposal
I0413 18:54:25.682191 14510 net.cpp:157] Top shape: 1 5 (5)
I0413 18:54:25.682196 14510 net.cpp:165] Memory required for data: 3647533168
I0413 18:54:25.682202 14510 layer_factory.hpp:77] Creating layer roi-data
I0413 18:54:25.682618 14510 net.cpp:100] Creating Layer roi-data
I0413 18:54:25.682631 14510 net.cpp:434] roi-data <- rpn_rois
I0413 18:54:25.682638 14510 net.cpp:434] roi-data <- input_gt_boxes_input_2_split_1
I0413 18:54:25.682649 14510 net.cpp:408] roi-data -> rois
I0413 18:54:25.682667 14510 net.cpp:408] roi-data -> labels
I0413 18:54:25.682678 14510 net.cpp:408] roi-data -> bbox_targets
I0413 18:54:25.682692 14510 net.cpp:408] roi-data -> bbox_inside_weights
I0413 18:54:25.682703 14510 net.cpp:408] roi-data -> bbox_outside_weights
I0413 18:54:25.682718 14510 net.cpp:408] roi-data -> pid_label
I0413 18:54:25.683763 14510 net.cpp:150] Setting up roi-data
I0413 18:54:25.683776 14510 net.cpp:157] Top shape: 1 5 (5)
I0413 18:54:25.683781 14510 net.cpp:157] Top shape: 1 1 (1)
I0413 18:54:25.683787 14510 net.cpp:157] Top shape: 1 8 (8)
I0413 18:54:25.683794 14510 net.cpp:157] Top shape: 1 8 (8)
I0413 18:54:25.683800 14510 net.cpp:157] Top shape: 1 8 (8)
I0413 18:54:25.683805 14510 net.cpp:157] Top shape: (0)
I0413 18:54:25.683809 14510 net.cpp:165] Memory required for data: 3647533288
I0413 18:54:25.683815 14510 layer_factory.hpp:77] Creating layer pid_label_roi-data_5_split
I0413 18:54:25.683825 14510 net.cpp:100] Creating Layer pid_label_roi-data_5_split
I0413 18:54:25.683831 14510 net.cpp:434] pid_label_roi-data_5_split <- pid_label
I0413 18:54:25.683841 14510 net.cpp:408] pid_label_roi-data_5_split -> pid_label_roi-data_5_split_0
…
