…
I0413 17:35:25.594172 10475 solver.cpp:48] Initializing solver from parameters: 
base_lr: 0.001
display: 20
lr_policy: "multistep"
gamma: 0.1
momentum: 0.9
weight_decay: 0.0005
snapshot: 0
snapshot_prefix: "faces_example"
net_param {
  name: "GeneratedModel_13_04_2017_17_35"
  layer {
    name: "input"
    type: "Python"
    top: "input_data"
    top: "input_im_info"
    top: "input_gt_boxes"
    top: "input_ignored_boxes"
    python_param {
      module: "layers.roi_data_layer"
      layer: "RoIDataLayer"
      param_str: "{\"num_classes\": 2}"
    }
  }
  layer {
    name: "conv1_1"
    type: "Convolution"
    bottom: "input_data"
    top: "conv1_1"
    param {
      lr_mult: 0
      decay_mult: 0
    }
    param {
      lr_mult: 0
      decay_mult: 0
    }
    convolution_param {
      num_output: 64
      pad: 1
      kernel_size: 3
    }
  }
  layer {
    name: "relu1_1"
    type: "ReLU"
    bottom: "conv1_1"
    top: "conv1_1"
  }
  layer {
    name: "conv1_2"
    type: "Convolution"
    bottom: "conv1_1"
    top: "conv1_2"
    param {
      lr_mult: 0
      decay_mult: 0
    }
    param {
      lr_mult: 0
      decay_mult: 0
    }
    convolution_param {
      num_output: 64
      pad: 1
      kernel_size: 3
    }
  }
  layer {
    name: "relu1_2"
    type: "ReLU"
    bottom: "conv1_2"
    top: "conv1_2"
  }
  layer {
    name: "pool1"
    type: "Pooling"
    bottom: "conv1_2"
    top: "pool1"
    pooling_param {
      pool: MAX
      kernel_size: 2
      stride: 2
    }
  }
  layer {
    name: "conv2_1"
    type: "Convolution"
    bottom: "pool1"
    top: "conv2_1"
    param {
      lr_mult: 0
      decay_mult: 0
    }
    param {
      lr_mult: 0
      decay_mult: 0
    }
    convolution_param {
      num_output: 128
      pad: 1
      kernel_size: 3
    }
  }
  layer {
    name: "relu2_1"
    type: "ReLU"
    bottom: "conv2_1"
    top: "conv2_1"
  }
  layer {
    name: "conv2_2"
    type: "Convolution"
    bottom: "conv2_1"
    top: "conv2_2"
    param {
      lr_mult: 0
      decay_mult: 0
    }
    param {
      lr_mult: 0
      decay_mult: 0
    }
    convolution_param {
      num_output: 128
      pad: 1
      kernel_size: 3
    }
  }
  layer {
    name: "relu2_2"
    type: "ReLU"
    bottom: "conv2_2"
    top: "conv2_2"
  }
  layer {
    name: "pool2"
    type: "Pooling"
    bottom: "conv2_2"
    top: "pool2"
    pooling_param {
      pool: MAX
      kernel_size: 2
      stride: 2
    }
  }
  layer {
    name: "conv3_1"
    type: "Convolution"
    bottom: "pool2"
    top: "conv3_1"
    param {
      lr_mult: 1
    }
    param {
      lr_mult: 2
    }
    convolution_param {
      num_output: 256
      pad: 1
      kernel_size: 3
    }
  }
  layer {
    name: "relu3_1"
    type: "ReLU"
    bottom: "conv3_1"
    top: "conv3_1"
  }
  layer {
    name: "conv3_2"
    type: "Convolution"
    bottom: "conv3_1"
    top: "conv3_2"
    param {
      lr_mult: 1
    }
    param {
      lr_mult: 2
    }
    convolution_param {
      num_output: 256
      pad: 1
      kernel_size: 3
    }
  }
  layer {
    name: "relu3_2"
    type: "ReLU"
    bottom: "conv3_2"
    top: "conv3_2"
  }
  layer {
    name: "conv3_3"
    type: "Convolution"
    bottom: "conv3_2"
    top: "conv3_3"
    param {
      lr_mult: 1
    }
    param {
      lr_mult: 2
    }
    convolution_param {
      num_output: 256
      pad: 1
      kernel_size: 3
    }
  }
  layer {
    name: "relu3_3"
    type: "ReLU"
    bottom: "conv3_3"
    top: "conv3_3"
  }
  layer {
    name: "pool3"
    type: "Pooling"
    bottom: "conv3_3"
    top: "pool3"
    pooling_param {
      pool: MAX
      kernel_size: 2
      stride: 2
    }
  }
  layer {
    name: "conv4_1"
    type: "Convolution"
    bottom: "pool3"
    top: "conv4_1"
    param {
      lr_mult: 1
    }
    param {
      lr_mult: 2
    }
    convolution_param {
      num_output: 512
      pad: 1
      kernel_size: 3
    }
  }
  layer {
    name: "relu4_1"
    type: "ReLU"
    bottom: "conv4_1"
    top: "conv4_1"
  }
  layer {
    name: "conv4_2"
    type: "Convolution"
    bottom: "conv4_1"
    top: "conv4_2"
    param {
      lr_mult: 1
    }
    param {
      lr_mult: 2
    }
    convolution_param {
      num_output: 512
      pad: 1
      kernel_size: 3
    }
  }
  layer {
    name: "relu4_2"
    type: "ReLU"
    bottom: "conv4_2"
    top: "conv4_2"
  }
  layer {
    name: "conv4_3"
    type: "Convolution"
    bottom: "conv4_2"
    top: "conv4_3"
    param {
      lr_mult: 1
    }
    param {
      lr_mult: 2
    }
    convolution_param {
      num_output: 512
      pad: 1
      kernel_size: 3
    }
  }
  layer {
    name: "relu4_3"
    type: "ReLU"
    bottom: "conv4_3"
    top: "conv4_3"
  }
  layer {
    name: "pool4"
    type: "Pooling"
    bottom: "conv4_3"
    top: "pool4"
    pooling_param {
      pool: MAX
      kernel_size: 2
      stride: 2
    }
  }
  layer {
    name: "conv5_1"
    type: "Convolution"
    bottom: "pool4"
    top: "conv5_1"
    param {
      lr_mult: 1
    }
    param {
      lr_mult: 2
    }
    convolution_param {
      num_output: 512
      pad: 1
      kernel_size: 3
    }
  }
  layer {
    name: "relu5_1"
    type: "ReLU"
    bottom: "conv5_1"
    top: "conv5_1"
  }
  layer {
    name: "conv5_2"
    type: "Convolution"
    bottom: "conv5_1"
    top: "conv5_2"
    param {
      lr_mult: 1
    }
    param {
      lr_mult: 2
    }
    convolution_param {
      num_output: 512
      pad: 1
      kernel_size: 3
    }
  }
  layer {
    name: "relu5_2"
    type: "ReLU"
    bottom: "conv5_2"
    top: "conv5_2"
  }
  layer {
    name: "conv5_3"
    type: "Convolution"
    bottom: "conv5_2"
    top: "conv5_3"
    param {
      lr_mult: 1
    }
    param {
      lr_mult: 2
    }
    convolution_param {
      num_output: 512
      pad: 1
      kernel_size: 3
    }
  }
  layer {
    name: "relu5_3"
    type: "ReLU"
    bottom: "conv5_3"
    top: "conv5_3"
  }
  layer {
    name: "rpn_big_conv1"
    type: "Convolution"
    bottom: "conv5_3"
    top: "rpn_big_conv1"
    param {
      lr_mult: 1
    }
    param {
      lr_mult: 2
    }
    convolution_param {
      num_output: 512
      pad: 1
      kernel_size: 3
      stride: 1
      weight_filler {
        type: "gaussian"
        mean: 0
        std: 0.01
      }
      bias_filler {
        type: "constant"
      }
    }
  }
  layer {
    name: "rpn_big_conv1_relu"
    type: "ReLU"
    bottom: "rpn_big_conv1"
    top: "rpn_big_conv1"
    relu_param {
      negative_slope: 0
    }
  }
  layer {
    name: "rpn_big_conv2"
    type: "Convolution"
    bottom: "rpn_big_conv1"
    top: "rpn_big_conv2"
    param {
      lr_mult: 1
    }
    param {
      lr_mult: 2
    }
    convolution_param {
      num_output: 512
      pad: 1
      kernel_size: 3
      stride: 1
      weight_filler {
        type: "gaussian"
        mean: 0
        std: 0.01
      }
      bias_filler {
        type: "constant"
      }
    }
  }
  layer {
    name: "rpn_big_conv2_relu"
    type: "ReLU"
    bottom: "rpn_big_conv2"
    top: "rpn_big_conv2"
    relu_param {
      negative_slope: 0
    }
  }
  layer {
    name: "rpn_big_conv2_drop"
    type: "Dropout"
    bottom: "rpn_big_conv2"
    top: "rpn_big_conv2"
    dropout_param {
      dropout_ratio: 0.3
    }
  }
  layer {
    name: "rpn_big_output_cls"
    type: "Convolution"
    bottom: "rpn_big_conv2"
    top: "rpn_big_output_cls"
    param {
      lr_mult: 1
    }
    param {
      lr_mult: 2
    }
    convolution_param {
      num_output: 384
      pad: 1
      kernel_size: 3
      stride: 1
      weight_filler {
        type: "gaussian"
        mean: 0
        std: 0.01
      }
      bias_filler {
        type: "constant"
      }
    }
  }
  layer {
    name: "rpn_big_output_cls_relu"
    type: "ReLU"
    bottom: "rpn_big_output_cls"
    top: "rpn_big_output_cls"
    relu_param {
      negative_slope: 0
    }
  }
  layer {
    name: "rpn_big_cls_score"
    type: "Convolution"
    bottom: "rpn_big_output_cls"
    top: "rpn_big_cls_score"
    param {
      lr_mult: 1
    }
    param {
      lr_mult: 2
    }
    convolution_param {
      num_output: 52
      pad: 0
      kernel_size: 3
      stride: 1
      weight_filler {
        type: "gaussian"
        mean: 0
        std: 0.01
      }
      bias_filler {
        type: "constant"
      }
    }
  }
  layer {
    name: "rpn_big_cls_score_reshape"
    type: "Reshape"
    bottom: "rpn_big_cls_score"
    top: "rpn_big_cls_score_reshape"
    reshape_param {
      shape {
        dim: 0
        dim: 2
        dim: -1
        dim: 0
      }
    }
  }
  layer {
    name: "rpn_big_cls_prob"
    type: "Softmax"
    bottom: "rpn_big_cls_score_reshape"
    top: "rpn_big_cls_prob"
  }
  layer {
    name: "rpn_big_cls_prob_reshape"
    type: "Reshape"
    bottom: "rpn_big_cls_prob"
    top: "rpn_big_cls_prob_reshape"
    reshape_param {
      shape {
        dim: 0
        dim: 52
        dim: -1
        dim: 0
      }
    }
  }
  layer {
    name: "rpn_big_anchor_target"
    type: "Python"
    bottom: "rpn_big_cls_score"
    bottom: "input_gt_boxes"
    bottom: "input_ignored_boxes"
    bottom: "input_im_info"
    bottom: "input_data"
    bottom: "rpn_big_cls_prob_reshape"
    top: "rpn_big_anchor_target_labels"
    top: "rpn_big_anchor_target_bbox_targets"
    top: "rpn_big_anchor_target_inside_weights"
    top: "rpn_big_anchor_target_outside_weights"
    python_param {
      module: "rpn.anchor_target_layer"
      layer: "AnchorTargetLayer"
      param_str: "{\"batchsize\": 256, \"feat_stride\": 16, \"num_classes\": 1, \"anchor_ratios\": [1.0], \"tn_fraction\": 0.2, \"anchor_shift_num_xy\": [[2, 2], [2, 2], [2, 2], [2, 2], [1, 1], [1, 1], [1, 1], [1, 1], [1, 1], [1, 1], [1, 1], [1, 1], [1, 1], [1, 1]], \"fg_fraction\": 0.5, \"positive_overlap\": 0.6, \"negative_overlap\": 0.4, \"name\": \"rpn_big\", \"square_targets\": true, \"anchor_scales\": [2.5, 3.025, 3.66025, 4.4289024999999995, 5.358972025, 6.484356150249999, 7.846070941802498, 9.493745839581022, 11.487432465893036, 13.899793283730574, 16.818749873313998, 20.350687346709933, 24.62433168951902, 29.795441344318014]}"
    }
  }
  layer {
    name: "rpn_big_loss_cls"
    type: "SoftmaxWithLoss"
    bottom: "rpn_big_cls_score_reshape"
    bottom: "rpn_big_anchor_target_labels"
    top: "rpn_big_loss_cls"
    loss_weight: 1
    propagate_down: true
    propagate_down: false
    loss_param {
      ignore_label: -1
      normalization: VALID
    }
  }
  layer {
    name: "rpn_big_output_box"
    type: "Convolution"
    bottom: "rpn_big_conv2"
    top: "rpn_big_output_box"
    param {
      lr_mult: 1
    }
    param {
      lr_mult: 2
    }
    convolution_param {
      num_output: 384
      pad: 1
      kernel_size: 3
      stride: 1
      weight_filler {
        type: "gaussian"
        mean: 0
        std: 0.01
      }
      bias_filler {
        type: "constant"
      }
    }
  }
  layer {
    name: "rpn_big_output_box_relu"
    type: "ReLU"
    bottom: "rpn_big_output_box"
    top: "rpn_big_output_box"
    relu_param {
      negative_slope: 0
    }
  }
  layer {
    name: "rpn_big_bbox_pred"
    type: "Convolution"
    bottom: "rpn_big_output_box"
    top: "rpn_big_bbox_pred"
    param {
      lr_mult: 1
    }
    param {
      lr_mult: 2
    }
    convolution_param {
      num_output: 104
      pad: 0
      kernel_size: 3
      stride: 1
      weight_filler {
        type: "gaussian"
        mean: 0
        std: 0.01
      }
      bias_filler {
        type: "constant"
      }
    }
  }
  layer {
    name: "rpn_big_loss_bbox"
    type: "Python"
    bottom: "rpn_big_bbox_pred"
    bottom: "rpn_big_anchor_target_bbox_targets"
    bottom: "rpn_big_anchor_target_inside_weights"
    bottom: "rpn_big_anchor_target_outside_weights"
    top: "rpn_big_loss_bbox"
    loss_weight: 1
    python_param {
      module: "layers.smooth_l1_loss"
      layer: "SmoothL1LossLayer"
      param_str: "{\"sigma\": 3}"
    }
  }
  layer {
    name: "proposal"
    type: "Python"
    bottom: "rpn_big_cls_prob_reshape"
    bottom: "rpn_big_bbox_pred"
    bottom: "input_im_info"
    top: "rpn_rois"
    python_param {
      module: "rpn.proposal_layer"
      layer: "ProposalLayer"
      param_str: "{\"anchor_shift_num_xy\": [[2, 2], [2, 2], [2, 2], [2, 2], [1, 1], [1, 1], [1, 1], [1, 1], [1, 1], [1, 1], [1, 1], [1, 1], [1, 1], [1, 1]], \"feat_stride\": 16, \"num_classes\": 1, \"anchor_scales\": [2.5, 3.025, 3.66025, 4.4289024999999995, 5.358972025, 6.484356150249999, 7.846070941802498, 9.493745839581022, 11.487432465893036, 13.899793283730574, 16.818749873313998, 20.350687346709933, 24.62433168951902, 29.795441344318014], \"square_targets\": true, \"name\": \"rpn_big\", \"batchsize\": 256, \"anchor_ratios\": [1.0]}"
    }
  }
  layer {
    name: "roi-data"
    type: "Python"
    bottom: "rpn_rois"
    bottom: "input_gt_boxes"
    top: "rois"
    top: "labels"
    top: "bbox_targets"
    top: "bbox_inside_weights"
    top: "bbox_outside_weights"
    top: "pid_label"
    python_param {
      module: "rpn.proposal_target_layer"
      layer: "ProposalTargetLayer"
      param_str: "{\"num_classes\": 2, \"bg_aux_label\": 5532}"
    }
  }
}
average_loss: 100
stepvalue: 70000
stepvalue: 120000
iter_size: 2
I0413 17:35:25.594357 10475 solver.cpp:86] Creating training net specified in net_param.
I0413 17:35:25.594717 10475 net.cpp:58] Initializing net from parameters: 
name: "GeneratedModel_13_04_2017_17_35"
state {
  phase: TRAIN
}
layer {
  name: "input"
  type: "Python"
  top: "input_data"
  top: "input_im_info"
  top: "input_gt_boxes"
  top: "input_ignored_boxes"
  python_param {
    module: "layers.roi_data_layer"
    layer: "RoIDataLayer"
    param_str: "{\"num_classes\": 2}"
  }
}
layer {
  name: "conv1_1"
  type: "Convolution"
  bottom: "input_data"
  top: "conv1_1"
  param {
    lr_mult: 0
    decay_mult: 0
  }
  param {
    lr_mult: 0
    decay_mult: 0
  }
  convolution_param {
    num_output: 64
    pad: 1
    kernel_size: 3
  }
}
layer {
  name: "relu1_1"
  type: "ReLU"
  bottom: "conv1_1"
  top: "conv1_1"
}
layer {
  name: "conv1_2"
  type: "Convolution"
  bottom: "conv1_1"
  top: "conv1_2"
  param {
    lr_mult: 0
    decay_mult: 0
  }
  param {
    lr_mult: 0
    decay_mult: 0
  }
  convolution_param {
    num_output: 64
    pad: 1
    kernel_size: 3
  }
}
layer {
  name: "relu1_2"
  type: "ReLU"
  bottom: "conv1_2"
  top: "conv1_2"
}
layer {
  name: "pool1"
  type: "Pooling"
  bottom: "conv1_2"
  top: "pool1"
  pooling_param {
    pool: MAX
    kernel_size: 2
    stride: 2
  }
}
layer {
  name: "conv2_1"
  type: "Convolution"
  bottom: "pool1"
  top: "conv2_1"
  param {
    lr_mult: 0
    decay_mult: 0
  }
  param {
    lr_mult: 0
    decay_mult: 0
  }
  convolution_param {
    num_output: 128
    pad: 1
    kernel_size: 3
  }
}
layer {
  name: "relu2_1"
  type: "ReLU"
  bottom: "conv2_1"
  top: "conv2_1"
}
layer {
  name: "conv2_2"
  type: "Convolution"
  bottom: "conv2_1"
  top: "conv2_2"
  param {
    lr_mult: 0
    decay_mult: 0
  }
  param {
    lr_mult: 0
    decay_mult: 0
  }
  convolution_param {
    num_output: 128
    pad: 1
    kernel_size: 3
  }
}
layer {
  name: "relu2_2"
  type: "ReLU"
  bottom: "conv2_2"
  top: "conv2_2"
}
layer {
  name: "pool2"
  type: "Pooling"
  bottom: "conv2_2"
  top: "pool2"
  pooling_param {
    pool: MAX
    kernel_size: 2
    stride: 2
  }
}
layer {
  name: "conv3_1"
  type: "Convolution"
  bottom: "pool2"
  top: "conv3_1"
  param {
    lr_mult: 1
  }
  param {
    lr_mult: 2
  }
  convolution_param {
    num_output: 256
    pad: 1
    kernel_size: 3
  }
}
layer {
  name: "relu3_1"
  type: "ReLU"
  bottom: "conv3_1"
  top: "conv3_1"
}
layer {
  name: "conv3_2"
  type: "Convolution"
  bottom: "conv3_1"
  top: "conv3_2"
  param {
    lr_mult: 1
  }
  param {
    lr_mult: 2
  }
  convolution_param {
    num_output: 256
    pad: 1
    kernel_size: 3
  }
}
layer {
  name: "relu3_2"
  type: "ReLU"
  bottom: "conv3_2"
  top: "conv3_2"
}
layer {
  name: "conv3_3"
  type: "Convolution"
  bottom: "conv3_2"
  top: "conv3_3"
  param {
    lr_mult: 1
  }
  param {
    lr_mult: 2
  }
  convolution_param {
    num_output: 256
    pad: 1
    kernel_size: 3
  }
}
layer {
  name: "relu3_3"
  type: "ReLU"
  bottom: "conv3_3"
  top: "conv3_3"
}
layer {
  name: "pool3"
  type: "Pooling"
  bottom: "conv3_3"
  top: "pool3"
  pooling_param {
    pool: MAX
    kernel_size: 2
    stride: 2
  }
}
layer {
  name: "conv4_1"
  type: "Convolution"
  bottom: "pool3"
  top: "conv4_1"
  param {
    lr_mult: 1
  }
  param {
    lr_mult: 2
  }
  convolution_param {
    num_output: 512
    pad: 1
    kernel_size: 3
  }
}
layer {
  name: "relu4_1"
  type: "ReLU"
  bottom: "conv4_1"
  top: "conv4_1"
}
layer {
  name: "conv4_2"
  type: "Convolution"
  bottom: "conv4_1"
  top: "conv4_2"
  param {
    lr_mult: 1
  }
  param {
    lr_mult: 2
  }
  convolution_param {
    num_output: 512
    pad: 1
    kernel_size: 3
  }
}
layer {
  name: "relu4_2"
  type: "ReLU"
  bottom: "conv4_2"
  top: "conv4_2"
}
layer {
  name: "conv4_3"
  type: "Convolution"
  bottom: "conv4_2"
  top: "conv4_3"
  param {
    lr_mult: 1
  }
  param {
    lr_mult: 2
  }
  convolution_param {
    num_output: 512
    pad: 1
    kernel_size: 3
  }
}
layer {
  name: "relu4_3"
  type: "ReLU"
  bottom: "conv4_3"
  top: "conv4_3"
}
layer {
  name: "pool4"
  type: "Pooling"
  bottom: "conv4_3"
  top: "pool4"
  pooling_param {
    pool: MAX
    kernel_size: 2
    stride: 2
  }
}
layer {
  name: "conv5_1"
  type: "Convolution"
  bottom: "pool4"
  top: "conv5_1"
  param {
    lr_mult: 1
  }
  param {
    lr_mult: 2
  }
  convolution_param {
    num_output: 512
    pad: 1
    kernel_size: 3
  }
}
layer {
  name: "relu5_1"
  type: "ReLU"
  bottom: "conv5_1"
  top: "conv5_1"
}
layer {
  name: "conv5_2"
  type: "Convolution"
  bottom: "conv5_1"
  top: "conv5_2"
  param {
    lr_mult: 1
  }
  param {
    lr_mult: 2
  }
  convolution_param {
    num_output: 512
    pad: 1
    kernel_size: 3
  }
}
layer {
  name: "relu5_2"
  type: "ReLU"
  bottom: "conv5_2"
  top: "conv5_2"
}
layer {
  name: "conv5_3"
  type: "Convolution"
  bottom: "conv5_2"
  top: "conv5_3"
  param {
    lr_mult: 1
  }
  param {
    lr_mult: 2
  }
  convolution_param {
    num_output: 512
    pad: 1
    kernel_size: 3
  }
}
layer {
  name: "relu5_3"
  type: "ReLU"
  bottom: "conv5_3"
  top: "conv5_3"
}
layer {
  name: "rpn_big_conv1"
  type: "Convolution"
  bottom: "conv5_3"
  top: "rpn_big_conv1"
  param {
    lr_mult: 1
  }
  param {
    lr_mult: 2
  }
  convolution_param {
    num_output: 512
    pad: 1
    kernel_size: 3
    stride: 1
    weight_filler {
      type: "gaussian"
      mean: 0
      std: 0.01
    }
    bias_filler {
      type: "constant"
    }
  }
}
layer {
  name: "rpn_big_conv1_relu"
  type: "ReLU"
  bottom: "rpn_big_conv1"
  top: "rpn_big_conv1"
  relu_param {
    negative_slope: 0
  }
}
layer {
  name: "rpn_big_conv2"
  type: "Convolution"
  bottom: "rpn_big_conv1"
  top: "rpn_big_conv2"
  param {
    lr_mult: 1
  }
  param {
    lr_mult: 2
  }
  convolution_param {
    num_output: 512
    pad: 1
    kernel_size: 3
    stride: 1
    weight_filler {
      type: "gaussian"
      mean: 0
      std: 0.01
    }
    bias_filler {
      type: "constant"
    }
  }
}
layer {
  name: "rpn_big_conv2_relu"
  type: "ReLU"
  bottom: "rpn_big_conv2"
  top: "rpn_big_conv2"
  relu_param {
    negative_slope: 0
  }
}
layer {
  name: "rpn_big_conv2_drop"
  type: "Dropout"
  bottom: "rpn_big_conv2"
  top: "rpn_big_conv2"
  dropout_param {
    dropout_ratio: 0.3
  }
}
layer {
  name: "rpn_big_output_cls"
  type: "Convolution"
  bottom: "rpn_big_conv2"
  top: "rpn_big_output_cls"
  param {
    lr_mult: 1
  }
  param {
    lr_mult: 2
  }
  convolution_param {
    num_output: 384
    pad: 1
    kernel_size: 3
    stride: 1
    weight_filler {
      type: "gaussian"
      mean: 0
      std: 0.01
    }
    bias_filler {
      type: "constant"
    }
  }
}
layer {
  name: "rpn_big_output_cls_relu"
  type: "ReLU"
  bottom: "rpn_big_output_cls"
  top: "rpn_big_output_cls"
  relu_param {
    negative_slope: 0
  }
}
layer {
  name: "rpn_big_cls_score"
  type: "Convolution"
  bottom: "rpn_big_output_cls"
  top: "rpn_big_cls_score"
  param {
    lr_mult: 1
  }
  param {
    lr_mult: 2
  }
  convolution_param {
    num_output: 52
    pad: 0
    kernel_size: 3
    stride: 1
    weight_filler {
      type: "gaussian"
      mean: 0
      std: 0.01
    }
    bias_filler {
      type: "constant"
    }
  }
}
layer {
  name: "rpn_big_cls_score_reshape"
  type: "Reshape"
  bottom: "rpn_big_cls_score"
  top: "rpn_big_cls_score_reshape"
  reshape_param {
    shape {
      dim: 0
      dim: 2
      dim: -1
      dim: 0
    }
  }
}
layer {
  name: "rpn_big_cls_prob"
  type: "Softmax"
  bottom: "rpn_big_cls_score_reshape"
  top: "rpn_big_cls_prob"
}
layer {
  name: "rpn_big_cls_prob_reshape"
  type: "Reshape"
  bottom: "rpn_big_cls_prob"
  top: "rpn_big_cls_prob_reshape"
  reshape_param {
    shape {
      dim: 0
      dim: 52
      dim: -1
      dim: 0
    }
  }
}
layer {
  name: "rpn_big_anchor_target"
  type: "Python"
  bottom: "rpn_big_cls_score"
  bottom: "input_gt_boxes"
  bottom: "input_ignored_boxes"
  bottom: "input_im_info"
  bottom: "input_data"
  bottom: "rpn_big_cls_prob_reshape"
  top: "rpn_big_anchor_target_labels"
  top: "rpn_big_anchor_target_bbox_targets"
  top: "rpn_big_anchor_target_inside_weights"
  top: "rpn_big_anchor_target_outside_weights"
  python_param {
    module: "rpn.anchor_target_layer"
    layer: "AnchorTargetLayer"
    param_str: "{\"batchsize\": 256, \"feat_stride\": 16, \"num_classes\": 1, \"anchor_ratios\": [1.0], \"tn_fraction\": 0.2, \"anchor_shift_num_xy\": [[2, 2], [2, 2], [2, 2], [2, 2], [1, 1], [1, 1], [1, 1], [1, 1], [1, 1], [1, 1], [1, 1], [1, 1], [1, 1], [1, 1]], \"fg_fraction\": 0.5, \"positive_overlap\": 0.6, \"negative_overlap\": 0.4, \"name\": \"rpn_big\", \"square_targets\": true, \"anchor_scales\": [2.5, 3.025, 3.66025, 4.4289024999999995, 5.358972025, 6.484356150249999, 7.846070941802498, 9.493745839581022, 11.487432465893036, 13.899793283730574, 16.818749873313998, 20.350687346709933, 24.62433168951902, 29.795441344318014]}"
  }
}
layer {
  name: "rpn_big_loss_cls"
  type: "SoftmaxWithLoss"
  bottom: "rpn_big_cls_score_reshape"
  bottom: "rpn_big_anchor_target_labels"
  top: "rpn_big_loss_cls"
  loss_weight: 1
  propagate_down: true
  propagate_down: false
  loss_param {
    ignore_label: -1
    normalization: VALID
  }
}
layer {
  name: "rpn_big_output_box"
  type: "Convolution"
  bottom: "rpn_big_conv2"
  top: "rpn_big_output_box"
  param {
    lr_mult: 1
  }
  param {
    lr_mult: 2
  }
  convolution_param {
    num_output: 384
    pad: 1
    kernel_size: 3
    stride: 1
    weight_filler {
      type: "gaussian"
      mean: 0
      std: 0.01
    }
    bias_filler {
      type: "constant"
    }
  }
}
layer {
  name: "rpn_big_output_box_relu"
  type: "ReLU"
  bottom: "rpn_big_output_box"
  top: "rpn_big_output_box"
  relu_param {
    negative_slope: 0
  }
}
layer {
  name: "rpn_big_bbox_pred"
  type: "Convolution"
  bottom: "rpn_big_output_box"
  top: "rpn_big_bbox_pred"
  param {
    lr_mult: 1
  }
  param {
    lr_mult: 2
  }
  convolution_param {
    num_output: 104
    pad: 0
    kernel_size: 3
    stride: 1
    weight_filler {
      type: "gaussian"
      mean: 0
      std: 0.01
    }
    bias_filler {
      type: "constant"
    }
  }
}
layer {
  name: "rpn_big_loss_bbox"
  type: "Python"
  bottom: "rpn_big_bbox_pred"
  bottom: "rpn_big_anchor_target_bbox_targets"
  bottom: "rpn_big_anchor_target_inside_weights"
  bottom: "rpn_big_anchor_target_outside_weights"
  top: "rpn_big_loss_bbox"
  loss_weight: 1
  python_param {
    module: "layers.smooth_l1_loss"
    layer: "SmoothL1LossLayer"
    param_str: "{\"sigma\": 3}"
  }
}
layer {
  name: "proposal"
  type: "Python"
  bottom: "rpn_big_cls_prob_reshape"
  bottom: "rpn_big_bbox_pred"
  bottom: "input_im_info"
  top: "rpn_rois"
  python_param {
    module: "rpn.proposal_layer"
    layer: "ProposalLayer"
    param_str: "{\"anchor_shift_num_xy\": [[2, 2], [2, 2], [2, 2], [2, 2], [1, 1], [1, 1], [1, 1], [1, 1], [1, 1], [1, 1], [1, 1], [1, 1], [1, 1], [1, 1]], \"feat_stride\": 16, \"num_classes\": 1, \"anchor_scales\": [2.5, 3.025, 3.66025, 4.4289024999999995, 5.358972025, 6.484356150249999, 7.846070941802498, 9.493745839581022, 11.487432465893036, 13.899793283730574, 16.818749873313998, 20.350687346709933, 24.62433168951902, 29.795441344318014], \"square_targets\": true, \"name\": \"rpn_big\", \"batchsize\": 256, \"anchor_ratios\": [1.0]}"
  }
}
layer {
  name: "roi-data"
  type: "Python"
  bottom: "rpn_rois"
  bottom: "input_gt_boxes"
  top: "rois"
  top: "labels"
  top: "bbox_targets"
  top: "bbox_inside_weights"
  top: "bbox_outside_weights"
  top: "pid_label"
  python_param {
    module: "rpn.proposal_target_layer"
    layer: "ProposalTargetLayer"
    param_str: "{\"num_classes\": 2, \"bg_aux_label\": 5532}"
  }
}
I0413 17:35:25.594911 10475 layer_factory.hpp:77] Creating layer input
I0413 17:35:25.596144 10475 net.cpp:100] Creating Layer input
I0413 17:35:25.596160 10475 net.cpp:408] input -> input_data
I0413 17:35:25.596173 10475 net.cpp:408] input -> input_im_info
I0413 17:35:25.596179 10475 net.cpp:408] input -> input_gt_boxes
I0413 17:35:25.596186 10475 net.cpp:408] input -> input_ignored_boxes
RoiDataLayer: name_to_top: {'data': 0, 'ignored_boxes': 3, 'gt_boxes': 2, 'im_info': 1}
I0413 17:35:25.908239 10475 net.cpp:150] Setting up input
I0413 17:35:25.908264 10475 net.cpp:157] Top shape: 1 3 1000 1500 (4500000)
I0413 17:35:25.908269 10475 net.cpp:157] Top shape: 1 3 (3)
I0413 17:35:25.908273 10475 net.cpp:157] Top shape: 1 5 (5)
I0413 17:35:25.908277 10475 net.cpp:157] Top shape: 1 5 (5)
I0413 17:35:25.908280 10475 net.cpp:165] Memory required for data: 18000052
I0413 17:35:25.908288 10475 layer_factory.hpp:77] Creating layer input_data_input_0_split
I0413 17:35:25.908299 10475 net.cpp:100] Creating Layer input_data_input_0_split
I0413 17:35:25.908304 10475 net.cpp:434] input_data_input_0_split <- input_data
I0413 17:35:25.908314 10475 net.cpp:408] input_data_input_0_split -> input_data_input_0_split_0
I0413 17:35:25.908326 10475 net.cpp:408] input_data_input_0_split -> input_data_input_0_split_1
I0413 17:35:25.908361 10475 net.cpp:150] Setting up input_data_input_0_split
I0413 17:35:25.908368 10475 net.cpp:157] Top shape: 1 3 1000 1500 (4500000)
I0413 17:35:25.908372 10475 net.cpp:157] Top shape: 1 3 1000 1500 (4500000)
I0413 17:35:25.908375 10475 net.cpp:165] Memory required for data: 54000052
I0413 17:35:25.908378 10475 layer_factory.hpp:77] Creating layer input_im_info_input_1_split
I0413 17:35:25.908386 10475 net.cpp:100] Creating Layer input_im_info_input_1_split
I0413 17:35:25.908390 10475 net.cpp:434] input_im_info_input_1_split <- input_im_info
I0413 17:35:25.908396 10475 net.cpp:408] input_im_info_input_1_split -> input_im_info_input_1_split_0
I0413 17:35:25.908401 10475 net.cpp:408] input_im_info_input_1_split -> input_im_info_input_1_split_1
I0413 17:35:25.908428 10475 net.cpp:150] Setting up input_im_info_input_1_split
I0413 17:35:25.908434 10475 net.cpp:157] Top shape: 1 3 (3)
I0413 17:35:25.908437 10475 net.cpp:157] Top shape: 1 3 (3)
I0413 17:35:25.908440 10475 net.cpp:165] Memory required for data: 54000076
I0413 17:35:25.908443 10475 layer_factory.hpp:77] Creating layer input_gt_boxes_input_2_split
I0413 17:35:25.908449 10475 net.cpp:100] Creating Layer input_gt_boxes_input_2_split
I0413 17:35:25.908452 10475 net.cpp:434] input_gt_boxes_input_2_split <- input_gt_boxes
I0413 17:35:25.908457 10475 net.cpp:408] input_gt_boxes_input_2_split -> input_gt_boxes_input_2_split_0
I0413 17:35:25.908465 10475 net.cpp:408] input_gt_boxes_input_2_split -> input_gt_boxes_input_2_split_1
I0413 17:35:25.908493 10475 net.cpp:150] Setting up input_gt_boxes_input_2_split
I0413 17:35:25.908499 10475 net.cpp:157] Top shape: 1 5 (5)
I0413 17:35:25.908501 10475 net.cpp:157] Top shape: 1 5 (5)
I0413 17:35:25.908504 10475 net.cpp:165] Memory required for data: 54000116
I0413 17:35:25.908507 10475 layer_factory.hpp:77] Creating layer conv1_1
I0413 17:35:25.908520 10475 net.cpp:100] Creating Layer conv1_1
I0413 17:35:25.908524 10475 net.cpp:434] conv1_1 <- input_data_input_0_split_0
I0413 17:35:25.908529 10475 net.cpp:408] conv1_1 -> conv1_1
I0413 17:35:25.911519 10475 net.cpp:150] Setting up conv1_1
I0413 17:35:25.911557 10475 net.cpp:157] Top shape: 1 64 1000 1500 (96000000)
I0413 17:35:25.911571 10475 net.cpp:165] Memory required for data: 438000116
I0413 17:35:25.911589 10475 layer_factory.hpp:77] Creating layer relu1_1
I0413 17:35:25.911602 10475 net.cpp:100] Creating Layer relu1_1
I0413 17:35:25.911605 10475 net.cpp:434] relu1_1 <- conv1_1
I0413 17:35:25.911614 10475 net.cpp:395] relu1_1 -> conv1_1 (in-place)
I0413 17:35:25.911626 10475 net.cpp:150] Setting up relu1_1
I0413 17:35:25.911630 10475 net.cpp:157] Top shape: 1 64 1000 1500 (96000000)
I0413 17:35:25.911633 10475 net.cpp:165] Memory required for data: 822000116
I0413 17:35:25.911636 10475 layer_factory.hpp:77] Creating layer conv1_2
I0413 17:35:25.911644 10475 net.cpp:100] Creating Layer conv1_2
I0413 17:35:25.911648 10475 net.cpp:434] conv1_2 <- conv1_1
I0413 17:35:25.911654 10475 net.cpp:408] conv1_2 -> conv1_2
I0413 17:35:25.914818 10475 net.cpp:150] Setting up conv1_2
I0413 17:35:25.914852 10475 net.cpp:157] Top shape: 1 64 1000 1500 (96000000)
I0413 17:35:25.914856 10475 net.cpp:165] Memory required for data: 1206000116
I0413 17:35:25.914873 10475 layer_factory.hpp:77] Creating layer relu1_2
I0413 17:35:25.914885 10475 net.cpp:100] Creating Layer relu1_2
I0413 17:35:25.914891 10475 net.cpp:434] relu1_2 <- conv1_2
I0413 17:35:25.914898 10475 net.cpp:395] relu1_2 -> conv1_2 (in-place)
I0413 17:35:25.914909 10475 net.cpp:150] Setting up relu1_2
I0413 17:35:25.914914 10475 net.cpp:157] Top shape: 1 64 1000 1500 (96000000)
I0413 17:35:25.914917 10475 net.cpp:165] Memory required for data: 1590000116
I0413 17:35:25.914921 10475 layer_factory.hpp:77] Creating layer pool1
I0413 17:35:25.914930 10475 net.cpp:100] Creating Layer pool1
I0413 17:35:25.914933 10475 net.cpp:434] pool1 <- conv1_2
I0413 17:35:25.914938 10475 net.cpp:408] pool1 -> pool1
I0413 17:35:25.915011 10475 net.cpp:150] Setting up pool1
I0413 17:35:25.915019 10475 net.cpp:157] Top shape: 1 64 500 750 (24000000)
I0413 17:35:25.915022 10475 net.cpp:165] Memory required for data: 1686000116
I0413 17:35:25.915026 10475 layer_factory.hpp:77] Creating layer conv2_1
I0413 17:35:25.915035 10475 net.cpp:100] Creating Layer conv2_1
I0413 17:35:25.915040 10475 net.cpp:434] conv2_1 <- pool1
I0413 17:35:25.915045 10475 net.cpp:408] conv2_1 -> conv2_1
I0413 17:35:25.916225 10475 net.cpp:150] Setting up conv2_1
I0413 17:35:25.916245 10475 net.cpp:157] Top shape: 1 128 500 750 (48000000)
I0413 17:35:25.916249 10475 net.cpp:165] Memory required for data: 1878000116
I0413 17:35:25.916267 10475 layer_factory.hpp:77] Creating layer relu2_1
I0413 17:35:25.916277 10475 net.cpp:100] Creating Layer relu2_1
I0413 17:35:25.916281 10475 net.cpp:434] relu2_1 <- conv2_1
I0413 17:35:25.916286 10475 net.cpp:395] relu2_1 -> conv2_1 (in-place)
I0413 17:35:25.916293 10475 net.cpp:150] Setting up relu2_1
I0413 17:35:25.916298 10475 net.cpp:157] Top shape: 1 128 500 750 (48000000)
I0413 17:35:25.916301 10475 net.cpp:165] Memory required for data: 2070000116
I0413 17:35:25.916303 10475 layer_factory.hpp:77] Creating layer conv2_2
I0413 17:35:25.916311 10475 net.cpp:100] Creating Layer conv2_2
I0413 17:35:25.916316 10475 net.cpp:434] conv2_2 <- conv2_1
I0413 17:35:25.916321 10475 net.cpp:408] conv2_2 -> conv2_2
I0413 17:35:25.917289 10475 net.cpp:150] Setting up conv2_2
I0413 17:35:25.917313 10475 net.cpp:157] Top shape: 1 128 500 750 (48000000)
I0413 17:35:25.917316 10475 net.cpp:165] Memory required for data: 2262000116
I0413 17:35:25.917335 10475 layer_factory.hpp:77] Creating layer relu2_2
I0413 17:35:25.917342 10475 net.cpp:100] Creating Layer relu2_2
I0413 17:35:25.917347 10475 net.cpp:434] relu2_2 <- conv2_2
I0413 17:35:25.917354 10475 net.cpp:395] relu2_2 -> conv2_2 (in-place)
I0413 17:35:25.917363 10475 net.cpp:150] Setting up relu2_2
I0413 17:35:25.917368 10475 net.cpp:157] Top shape: 1 128 500 750 (48000000)
I0413 17:35:25.917371 10475 net.cpp:165] Memory required for data: 2454000116
I0413 17:35:25.917374 10475 layer_factory.hpp:77] Creating layer pool2
I0413 17:35:25.917379 10475 net.cpp:100] Creating Layer pool2
I0413 17:35:25.917382 10475 net.cpp:434] pool2 <- conv2_2
I0413 17:35:25.917388 10475 net.cpp:408] pool2 -> pool2
I0413 17:35:25.917430 10475 net.cpp:150] Setting up pool2
I0413 17:35:25.917438 10475 net.cpp:157] Top shape: 1 128 250 375 (12000000)
I0413 17:35:25.917441 10475 net.cpp:165] Memory required for data: 2502000116
I0413 17:35:25.917444 10475 layer_factory.hpp:77] Creating layer conv3_1
I0413 17:35:25.917454 10475 net.cpp:100] Creating Layer conv3_1
I0413 17:35:25.917457 10475 net.cpp:434] conv3_1 <- pool2
I0413 17:35:25.917464 10475 net.cpp:408] conv3_1 -> conv3_1
I0413 17:35:25.918537 10475 net.cpp:150] Setting up conv3_1
I0413 17:35:25.918562 10475 net.cpp:157] Top shape: 1 256 250 375 (24000000)
I0413 17:35:25.918565 10475 net.cpp:165] Memory required for data: 2598000116
I0413 17:35:25.918587 10475 layer_factory.hpp:77] Creating layer relu3_1
I0413 17:35:25.918594 10475 net.cpp:100] Creating Layer relu3_1
I0413 17:35:25.918598 10475 net.cpp:434] relu3_1 <- conv3_1
I0413 17:35:25.918606 10475 net.cpp:395] relu3_1 -> conv3_1 (in-place)
I0413 17:35:25.918614 10475 net.cpp:150] Setting up relu3_1
I0413 17:35:25.918619 10475 net.cpp:157] Top shape: 1 256 250 375 (24000000)
I0413 17:35:25.918622 10475 net.cpp:165] Memory required for data: 2694000116
I0413 17:35:25.918625 10475 layer_factory.hpp:77] Creating layer conv3_2
I0413 17:35:25.918637 10475 net.cpp:100] Creating Layer conv3_2
I0413 17:35:25.918639 10475 net.cpp:434] conv3_2 <- conv3_1
I0413 17:35:25.918645 10475 net.cpp:408] conv3_2 -> conv3_2
I0413 17:35:25.919847 10475 net.cpp:150] Setting up conv3_2
I0413 17:35:25.919870 10475 net.cpp:157] Top shape: 1 256 250 375 (24000000)
I0413 17:35:25.919874 10475 net.cpp:165] Memory required for data: 2790000116
I0413 17:35:25.919891 10475 layer_factory.hpp:77] Creating layer relu3_2
I0413 17:35:25.919901 10475 net.cpp:100] Creating Layer relu3_2
I0413 17:35:25.919905 10475 net.cpp:434] relu3_2 <- conv3_2
I0413 17:35:25.919914 10475 net.cpp:395] relu3_2 -> conv3_2 (in-place)
I0413 17:35:25.919921 10475 net.cpp:150] Setting up relu3_2
I0413 17:35:25.919926 10475 net.cpp:157] Top shape: 1 256 250 375 (24000000)
I0413 17:35:25.919929 10475 net.cpp:165] Memory required for data: 2886000116
I0413 17:35:25.919931 10475 layer_factory.hpp:77] Creating layer conv3_3
I0413 17:35:25.919940 10475 net.cpp:100] Creating Layer conv3_3
I0413 17:35:25.919944 10475 net.cpp:434] conv3_3 <- conv3_2
I0413 17:35:25.919950 10475 net.cpp:408] conv3_3 -> conv3_3
I0413 17:35:25.921491 10475 net.cpp:150] Setting up conv3_3
I0413 17:35:25.921521 10475 net.cpp:157] Top shape: 1 256 250 375 (24000000)
I0413 17:35:25.921535 10475 net.cpp:165] Memory required for data: 2982000116
I0413 17:35:25.921543 10475 layer_factory.hpp:77] Creating layer relu3_3
I0413 17:35:25.921552 10475 net.cpp:100] Creating Layer relu3_3
I0413 17:35:25.921557 10475 net.cpp:434] relu3_3 <- conv3_3
I0413 17:35:25.921566 10475 net.cpp:395] relu3_3 -> conv3_3 (in-place)
I0413 17:35:25.921574 10475 net.cpp:150] Setting up relu3_3
I0413 17:35:25.921578 10475 net.cpp:157] Top shape: 1 256 250 375 (24000000)
I0413 17:35:25.921581 10475 net.cpp:165] Memory required for data: 3078000116
I0413 17:35:25.921584 10475 layer_factory.hpp:77] Creating layer pool3
I0413 17:35:25.921591 10475 net.cpp:100] Creating Layer pool3
I0413 17:35:25.921594 10475 net.cpp:434] pool3 <- conv3_3
I0413 17:35:25.921600 10475 net.cpp:408] pool3 -> pool3
I0413 17:35:25.921639 10475 net.cpp:150] Setting up pool3
I0413 17:35:25.921648 10475 net.cpp:157] Top shape: 1 256 125 188 (6016000)
I0413 17:35:25.921651 10475 net.cpp:165] Memory required for data: 3102064116
I0413 17:35:25.921654 10475 layer_factory.hpp:77] Creating layer conv4_1
I0413 17:35:25.921663 10475 net.cpp:100] Creating Layer conv4_1
I0413 17:35:25.921672 10475 net.cpp:434] conv4_1 <- pool3
I0413 17:35:25.921681 10475 net.cpp:408] conv4_1 -> conv4_1
I0413 17:35:25.924278 10475 net.cpp:150] Setting up conv4_1
I0413 17:35:25.924314 10475 net.cpp:157] Top shape: 1 512 125 188 (12032000)
I0413 17:35:25.924326 10475 net.cpp:165] Memory required for data: 3150192116
I0413 17:35:25.924337 10475 layer_factory.hpp:77] Creating layer relu4_1
I0413 17:35:25.924348 10475 net.cpp:100] Creating Layer relu4_1
I0413 17:35:25.924352 10475 net.cpp:434] relu4_1 <- conv4_1
I0413 17:35:25.924360 10475 net.cpp:395] relu4_1 -> conv4_1 (in-place)
I0413 17:35:25.924371 10475 net.cpp:150] Setting up relu4_1
I0413 17:35:25.924376 10475 net.cpp:157] Top shape: 1 512 125 188 (12032000)
I0413 17:35:25.924378 10475 net.cpp:165] Memory required for data: 3198320116
I0413 17:35:25.924381 10475 layer_factory.hpp:77] Creating layer conv4_2
I0413 17:35:25.924391 10475 net.cpp:100] Creating Layer conv4_2
I0413 17:35:25.924394 10475 net.cpp:434] conv4_2 <- conv4_1
I0413 17:35:25.924401 10475 net.cpp:408] conv4_2 -> conv4_2
I0413 17:35:25.929111 10475 net.cpp:150] Setting up conv4_2
I0413 17:35:25.929146 10475 net.cpp:157] Top shape: 1 512 125 188 (12032000)
I0413 17:35:25.929152 10475 net.cpp:165] Memory required for data: 3246448116
I0413 17:35:25.929177 10475 layer_factory.hpp:77] Creating layer relu4_2
I0413 17:35:25.929193 10475 net.cpp:100] Creating Layer relu4_2
I0413 17:35:25.929203 10475 net.cpp:434] relu4_2 <- conv4_2
I0413 17:35:25.929215 10475 net.cpp:395] relu4_2 -> conv4_2 (in-place)
I0413 17:35:25.929236 10475 net.cpp:150] Setting up relu4_2
I0413 17:35:25.929249 10475 net.cpp:157] Top shape: 1 512 125 188 (12032000)
I0413 17:35:25.929255 10475 net.cpp:165] Memory required for data: 3294576116
I0413 17:35:25.929261 10475 layer_factory.hpp:77] Creating layer conv4_3
I0413 17:35:25.929275 10475 net.cpp:100] Creating Layer conv4_3
I0413 17:35:25.929281 10475 net.cpp:434] conv4_3 <- conv4_2
I0413 17:35:25.929294 10475 net.cpp:408] conv4_3 -> conv4_3
I0413 17:35:25.933514 10475 net.cpp:150] Setting up conv4_3
I0413 17:35:25.933553 10475 net.cpp:157] Top shape: 1 512 125 188 (12032000)
I0413 17:35:25.933560 10475 net.cpp:165] Memory required for data: 3342704116
I0413 17:35:25.933574 10475 layer_factory.hpp:77] Creating layer relu4_3
I0413 17:35:25.933589 10475 net.cpp:100] Creating Layer relu4_3
I0413 17:35:25.933598 10475 net.cpp:434] relu4_3 <- conv4_3
I0413 17:35:25.933610 10475 net.cpp:395] relu4_3 -> conv4_3 (in-place)
I0413 17:35:25.933634 10475 net.cpp:150] Setting up relu4_3
I0413 17:35:25.933645 10475 net.cpp:157] Top shape: 1 512 125 188 (12032000)
I0413 17:35:25.933650 10475 net.cpp:165] Memory required for data: 3390832116
I0413 17:35:25.933657 10475 layer_factory.hpp:77] Creating layer pool4
I0413 17:35:25.933670 10475 net.cpp:100] Creating Layer pool4
I0413 17:35:25.933677 10475 net.cpp:434] pool4 <- conv4_3
I0413 17:35:25.933687 10475 net.cpp:408] pool4 -> pool4
I0413 17:35:25.933734 10475 net.cpp:150] Setting up pool4
I0413 17:35:25.933744 10475 net.cpp:157] Top shape: 1 512 63 94 (3032064)
I0413 17:35:25.933750 10475 net.cpp:165] Memory required for data: 3402960372
I0413 17:35:25.933758 10475 layer_factory.hpp:77] Creating layer conv5_1
I0413 17:35:25.933778 10475 net.cpp:100] Creating Layer conv5_1
I0413 17:35:25.933786 10475 net.cpp:434] conv5_1 <- pool4
I0413 17:35:25.933797 10475 net.cpp:408] conv5_1 -> conv5_1
I0413 17:35:25.938359 10475 net.cpp:150] Setting up conv5_1
I0413 17:35:25.938393 10475 net.cpp:157] Top shape: 1 512 63 94 (3032064)
I0413 17:35:25.938400 10475 net.cpp:165] Memory required for data: 3415088628
I0413 17:35:25.938421 10475 layer_factory.hpp:77] Creating layer relu5_1
I0413 17:35:25.938436 10475 net.cpp:100] Creating Layer relu5_1
I0413 17:35:25.938446 10475 net.cpp:434] relu5_1 <- conv5_1
I0413 17:35:25.938462 10475 net.cpp:395] relu5_1 -> conv5_1 (in-place)
I0413 17:35:25.938477 10475 net.cpp:150] Setting up relu5_1
I0413 17:35:25.938488 10475 net.cpp:157] Top shape: 1 512 63 94 (3032064)
I0413 17:35:25.938493 10475 net.cpp:165] Memory required for data: 3427216884
I0413 17:35:25.938500 10475 layer_factory.hpp:77] Creating layer conv5_2
I0413 17:35:25.938516 10475 net.cpp:100] Creating Layer conv5_2
I0413 17:35:25.938524 10475 net.cpp:434] conv5_2 <- conv5_1
I0413 17:35:25.938534 10475 net.cpp:408] conv5_2 -> conv5_2
I0413 17:35:25.942790 10475 net.cpp:150] Setting up conv5_2
I0413 17:35:25.942826 10475 net.cpp:157] Top shape: 1 512 63 94 (3032064)
I0413 17:35:25.942831 10475 net.cpp:165] Memory required for data: 3439345140
I0413 17:35:25.942853 10475 layer_factory.hpp:77] Creating layer relu5_2
I0413 17:35:25.942867 10475 net.cpp:100] Creating Layer relu5_2
I0413 17:35:25.942883 10475 net.cpp:434] relu5_2 <- conv5_2
I0413 17:35:25.942896 10475 net.cpp:395] relu5_2 -> conv5_2 (in-place)
I0413 17:35:25.942912 10475 net.cpp:150] Setting up relu5_2
I0413 17:35:25.942922 10475 net.cpp:157] Top shape: 1 512 63 94 (3032064)
I0413 17:35:25.942929 10475 net.cpp:165] Memory required for data: 3451473396
I0413 17:35:25.942937 10475 layer_factory.hpp:77] Creating layer conv5_3
I0413 17:35:25.942960 10475 net.cpp:100] Creating Layer conv5_3
I0413 17:35:25.942966 10475 net.cpp:434] conv5_3 <- conv5_2
I0413 17:35:25.942976 10475 net.cpp:408] conv5_3 -> conv5_3
I0413 17:35:25.947388 10475 net.cpp:150] Setting up conv5_3
I0413 17:35:25.947469 10475 net.cpp:157] Top shape: 1 512 63 94 (3032064)
I0413 17:35:25.947505 10475 net.cpp:165] Memory required for data: 3463601652
I0413 17:35:25.947537 10475 layer_factory.hpp:77] Creating layer relu5_3
I0413 17:35:25.947567 10475 net.cpp:100] Creating Layer relu5_3
I0413 17:35:25.947590 10475 net.cpp:434] relu5_3 <- conv5_3
I0413 17:35:25.947616 10475 net.cpp:395] relu5_3 -> conv5_3 (in-place)
I0413 17:35:25.947644 10475 net.cpp:150] Setting up relu5_3
I0413 17:35:25.947667 10475 net.cpp:157] Top shape: 1 512 63 94 (3032064)
I0413 17:35:25.947687 10475 net.cpp:165] Memory required for data: 3475729908
I0413 17:35:25.947706 10475 layer_factory.hpp:77] Creating layer rpn_big_conv1
I0413 17:35:25.947737 10475 net.cpp:100] Creating Layer rpn_big_conv1
I0413 17:35:25.947759 10475 net.cpp:434] rpn_big_conv1 <- conv5_3
I0413 17:35:25.947785 10475 net.cpp:408] rpn_big_conv1 -> rpn_big_conv1
I0413 17:35:25.974534 10475 net.cpp:150] Setting up rpn_big_conv1
I0413 17:35:25.974575 10475 net.cpp:157] Top shape: 1 512 63 94 (3032064)
I0413 17:35:25.974580 10475 net.cpp:165] Memory required for data: 3487858164
I0413 17:35:25.974589 10475 layer_factory.hpp:77] Creating layer rpn_big_conv1_relu
I0413 17:35:25.974601 10475 net.cpp:100] Creating Layer rpn_big_conv1_relu
I0413 17:35:25.974606 10475 net.cpp:434] rpn_big_conv1_relu <- rpn_big_conv1
I0413 17:35:25.974614 10475 net.cpp:395] rpn_big_conv1_relu -> rpn_big_conv1 (in-place)
I0413 17:35:25.974625 10475 net.cpp:150] Setting up rpn_big_conv1_relu
I0413 17:35:25.974629 10475 net.cpp:157] Top shape: 1 512 63 94 (3032064)
I0413 17:35:25.974632 10475 net.cpp:165] Memory required for data: 3499986420
I0413 17:35:25.974635 10475 layer_factory.hpp:77] Creating layer rpn_big_conv2
I0413 17:35:25.974647 10475 net.cpp:100] Creating Layer rpn_big_conv2
I0413 17:35:25.974649 10475 net.cpp:434] rpn_big_conv2 <- rpn_big_conv1
I0413 17:35:25.974656 10475 net.cpp:408] rpn_big_conv2 -> rpn_big_conv2
I0413 17:35:25.999876 10475 net.cpp:150] Setting up rpn_big_conv2
I0413 17:35:25.999908 10475 net.cpp:157] Top shape: 1 512 63 94 (3032064)
I0413 17:35:25.999922 10475 net.cpp:165] Memory required for data: 3512114676
I0413 17:35:25.999933 10475 layer_factory.hpp:77] Creating layer rpn_big_conv2_relu
I0413 17:35:25.999943 10475 net.cpp:100] Creating Layer rpn_big_conv2_relu
I0413 17:35:25.999948 10475 net.cpp:434] rpn_big_conv2_relu <- rpn_big_conv2
I0413 17:35:25.999958 10475 net.cpp:395] rpn_big_conv2_relu -> rpn_big_conv2 (in-place)
I0413 17:35:25.999967 10475 net.cpp:150] Setting up rpn_big_conv2_relu
I0413 17:35:25.999972 10475 net.cpp:157] Top shape: 1 512 63 94 (3032064)
I0413 17:35:25.999975 10475 net.cpp:165] Memory required for data: 3524242932
I0413 17:35:25.999979 10475 layer_factory.hpp:77] Creating layer rpn_big_conv2_drop
I0413 17:35:25.999985 10475 net.cpp:100] Creating Layer rpn_big_conv2_drop
I0413 17:35:25.999989 10475 net.cpp:434] rpn_big_conv2_drop <- rpn_big_conv2
I0413 17:35:25.999992 10475 net.cpp:395] rpn_big_conv2_drop -> rpn_big_conv2 (in-place)
I0413 17:35:26.000015 10475 net.cpp:150] Setting up rpn_big_conv2_drop
I0413 17:35:26.000022 10475 net.cpp:157] Top shape: 1 512 63 94 (3032064)
I0413 17:35:26.000025 10475 net.cpp:165] Memory required for data: 3536371188
I0413 17:35:26.000028 10475 layer_factory.hpp:77] Creating layer rpn_big_conv2_rpn_big_conv2_drop_0_split
I0413 17:35:26.000035 10475 net.cpp:100] Creating Layer rpn_big_conv2_rpn_big_conv2_drop_0_split
I0413 17:35:26.000037 10475 net.cpp:434] rpn_big_conv2_rpn_big_conv2_drop_0_split <- rpn_big_conv2
I0413 17:35:26.000043 10475 net.cpp:408] rpn_big_conv2_rpn_big_conv2_drop_0_split -> rpn_big_conv2_rpn_big_conv2_drop_0_split_0
I0413 17:35:26.000051 10475 net.cpp:408] rpn_big_conv2_rpn_big_conv2_drop_0_split -> rpn_big_conv2_rpn_big_conv2_drop_0_split_1
I0413 17:35:26.000082 10475 net.cpp:150] Setting up rpn_big_conv2_rpn_big_conv2_drop_0_split
I0413 17:35:26.000090 10475 net.cpp:157] Top shape: 1 512 63 94 (3032064)
I0413 17:35:26.000094 10475 net.cpp:157] Top shape: 1 512 63 94 (3032064)
I0413 17:35:26.000097 10475 net.cpp:165] Memory required for data: 3560627700
I0413 17:35:26.000100 10475 layer_factory.hpp:77] Creating layer rpn_big_output_cls
I0413 17:35:26.000111 10475 net.cpp:100] Creating Layer rpn_big_output_cls
I0413 17:35:26.000115 10475 net.cpp:434] rpn_big_output_cls <- rpn_big_conv2_rpn_big_conv2_drop_0_split_0
I0413 17:35:26.000123 10475 net.cpp:408] rpn_big_output_cls -> rpn_big_output_cls
I0413 17:35:26.019340 10475 net.cpp:150] Setting up rpn_big_output_cls
I0413 17:35:26.019371 10475 net.cpp:157] Top shape: 1 384 63 94 (2274048)
I0413 17:35:26.019384 10475 net.cpp:165] Memory required for data: 3569723892
I0413 17:35:26.019394 10475 layer_factory.hpp:77] Creating layer rpn_big_output_cls_relu
I0413 17:35:26.019407 10475 net.cpp:100] Creating Layer rpn_big_output_cls_relu
I0413 17:35:26.019412 10475 net.cpp:434] rpn_big_output_cls_relu <- rpn_big_output_cls
I0413 17:35:26.019420 10475 net.cpp:395] rpn_big_output_cls_relu -> rpn_big_output_cls (in-place)
I0413 17:35:26.019431 10475 net.cpp:150] Setting up rpn_big_output_cls_relu
I0413 17:35:26.019435 10475 net.cpp:157] Top shape: 1 384 63 94 (2274048)
I0413 17:35:26.019438 10475 net.cpp:165] Memory required for data: 3578820084
I0413 17:35:26.019441 10475 layer_factory.hpp:77] Creating layer rpn_big_cls_score
I0413 17:35:26.019453 10475 net.cpp:100] Creating Layer rpn_big_cls_score
I0413 17:35:26.019469 10475 net.cpp:434] rpn_big_cls_score <- rpn_big_output_cls
I0413 17:35:26.019476 10475 net.cpp:408] rpn_big_cls_score -> rpn_big_cls_score
I0413 17:35:26.021718 10475 net.cpp:150] Setting up rpn_big_cls_score
I0413 17:35:26.021730 10475 net.cpp:157] Top shape: 1 52 61 92 (291824)
I0413 17:35:26.021734 10475 net.cpp:165] Memory required for data: 3579987380
I0413 17:35:26.021755 10475 layer_factory.hpp:77] Creating layer rpn_big_cls_score_rpn_big_cls_score_0_split
I0413 17:35:26.021764 10475 net.cpp:100] Creating Layer rpn_big_cls_score_rpn_big_cls_score_0_split
I0413 17:35:26.021766 10475 net.cpp:434] rpn_big_cls_score_rpn_big_cls_score_0_split <- rpn_big_cls_score
I0413 17:35:26.021773 10475 net.cpp:408] rpn_big_cls_score_rpn_big_cls_score_0_split -> rpn_big_cls_score_rpn_big_cls_score_0_split_0
I0413 17:35:26.021781 10475 net.cpp:408] rpn_big_cls_score_rpn_big_cls_score_0_split -> rpn_big_cls_score_rpn_big_cls_score_0_split_1
I0413 17:35:26.021814 10475 net.cpp:150] Setting up rpn_big_cls_score_rpn_big_cls_score_0_split
I0413 17:35:26.021822 10475 net.cpp:157] Top shape: 1 52 61 92 (291824)
I0413 17:35:26.021826 10475 net.cpp:157] Top shape: 1 52 61 92 (291824)
I0413 17:35:26.021829 10475 net.cpp:165] Memory required for data: 3582321972
I0413 17:35:26.021832 10475 layer_factory.hpp:77] Creating layer rpn_big_cls_score_reshape
I0413 17:35:26.021841 10475 net.cpp:100] Creating Layer rpn_big_cls_score_reshape
I0413 17:35:26.021843 10475 net.cpp:434] rpn_big_cls_score_reshape <- rpn_big_cls_score_rpn_big_cls_score_0_split_0
I0413 17:35:26.021850 10475 net.cpp:408] rpn_big_cls_score_reshape -> rpn_big_cls_score_reshape
I0413 17:35:26.021879 10475 net.cpp:150] Setting up rpn_big_cls_score_reshape
I0413 17:35:26.021886 10475 net.cpp:157] Top shape: 1 2 1586 92 (291824)
I0413 17:35:26.021890 10475 net.cpp:165] Memory required for data: 3583489268
I0413 17:35:26.021893 10475 layer_factory.hpp:77] Creating layer rpn_big_cls_score_reshape_rpn_big_cls_score_reshape_0_split
I0413 17:35:26.021898 10475 net.cpp:100] Creating Layer rpn_big_cls_score_reshape_rpn_big_cls_score_reshape_0_split
I0413 17:35:26.021901 10475 net.cpp:434] rpn_big_cls_score_reshape_rpn_big_cls_score_reshape_0_split <- rpn_big_cls_score_reshape
I0413 17:35:26.021908 10475 net.cpp:408] rpn_big_cls_score_reshape_rpn_big_cls_score_reshape_0_split -> rpn_big_cls_score_reshape_rpn_big_cls_score_reshape_0_split_0
I0413 17:35:26.021914 10475 net.cpp:408] rpn_big_cls_score_reshape_rpn_big_cls_score_reshape_0_split -> rpn_big_cls_score_reshape_rpn_big_cls_score_reshape_0_split_1
I0413 17:35:26.021945 10475 net.cpp:150] Setting up rpn_big_cls_score_reshape_rpn_big_cls_score_reshape_0_split
I0413 17:35:26.021952 10475 net.cpp:157] Top shape: 1 2 1586 92 (291824)
I0413 17:35:26.021956 10475 net.cpp:157] Top shape: 1 2 1586 92 (291824)
I0413 17:35:26.021960 10475 net.cpp:165] Memory required for data: 3585823860
I0413 17:35:26.021962 10475 layer_factory.hpp:77] Creating layer rpn_big_cls_prob
I0413 17:35:26.021967 10475 net.cpp:100] Creating Layer rpn_big_cls_prob
I0413 17:35:26.021971 10475 net.cpp:434] rpn_big_cls_prob <- rpn_big_cls_score_reshape_rpn_big_cls_score_reshape_0_split_0
I0413 17:35:26.021977 10475 net.cpp:408] rpn_big_cls_prob -> rpn_big_cls_prob
I0413 17:35:26.022027 10475 net.cpp:150] Setting up rpn_big_cls_prob
I0413 17:35:26.022034 10475 net.cpp:157] Top shape: 1 2 1586 92 (291824)
I0413 17:35:26.022038 10475 net.cpp:165] Memory required for data: 3586991156
I0413 17:35:26.022042 10475 layer_factory.hpp:77] Creating layer rpn_big_cls_prob_reshape
I0413 17:35:26.022047 10475 net.cpp:100] Creating Layer rpn_big_cls_prob_reshape
I0413 17:35:26.022049 10475 net.cpp:434] rpn_big_cls_prob_reshape <- rpn_big_cls_prob
I0413 17:35:26.022054 10475 net.cpp:408] rpn_big_cls_prob_reshape -> rpn_big_cls_prob_reshape
I0413 17:35:26.022075 10475 net.cpp:150] Setting up rpn_big_cls_prob_reshape
I0413 17:35:26.022083 10475 net.cpp:157] Top shape: 1 52 61 92 (291824)
I0413 17:35:26.022085 10475 net.cpp:165] Memory required for data: 3588158452
I0413 17:35:26.022089 10475 layer_factory.hpp:77] Creating layer rpn_big_cls_prob_reshape_rpn_big_cls_prob_reshape_0_split
I0413 17:35:26.022094 10475 net.cpp:100] Creating Layer rpn_big_cls_prob_reshape_rpn_big_cls_prob_reshape_0_split
I0413 17:35:26.022097 10475 net.cpp:434] rpn_big_cls_prob_reshape_rpn_big_cls_prob_reshape_0_split <- rpn_big_cls_prob_reshape
I0413 17:35:26.022102 10475 net.cpp:408] rpn_big_cls_prob_reshape_rpn_big_cls_prob_reshape_0_split -> rpn_big_cls_prob_reshape_rpn_big_cls_prob_reshape_0_split_0
I0413 17:35:26.022109 10475 net.cpp:408] rpn_big_cls_prob_reshape_rpn_big_cls_prob_reshape_0_split -> rpn_big_cls_prob_reshape_rpn_big_cls_prob_reshape_0_split_1
I0413 17:35:26.022137 10475 net.cpp:150] Setting up rpn_big_cls_prob_reshape_rpn_big_cls_prob_reshape_0_split
I0413 17:35:26.022143 10475 net.cpp:157] Top shape: 1 52 61 92 (291824)
I0413 17:35:26.022147 10475 net.cpp:157] Top shape: 1 52 61 92 (291824)
I0413 17:35:26.022150 10475 net.cpp:165] Memory required for data: 3590493044
I0413 17:35:26.022153 10475 layer_factory.hpp:77] Creating layer rpn_big_anchor_target
I0413 17:35:26.023468 10475 net.cpp:100] Creating Layer rpn_big_anchor_target
I0413 17:35:26.023488 10475 net.cpp:434] rpn_big_anchor_target <- rpn_big_cls_score_rpn_big_cls_score_0_split_1
I0413 17:35:26.023495 10475 net.cpp:434] rpn_big_anchor_target <- input_gt_boxes_input_2_split_0
I0413 17:35:26.023500 10475 net.cpp:434] rpn_big_anchor_target <- input_ignored_boxes
I0413 17:35:26.023504 10475 net.cpp:434] rpn_big_anchor_target <- input_im_info_input_1_split_0
I0413 17:35:26.023509 10475 net.cpp:434] rpn_big_anchor_target <- input_data_input_0_split_1
I0413 17:35:26.023512 10475 net.cpp:434] rpn_big_anchor_target <- rpn_big_cls_prob_reshape_rpn_big_cls_prob_reshape_0_split_0
I0413 17:35:26.023519 10475 net.cpp:408] rpn_big_anchor_target -> rpn_big_anchor_target_labels
I0413 17:35:26.023530 10475 net.cpp:408] rpn_big_anchor_target -> rpn_big_anchor_target_bbox_targets
I0413 17:35:26.023537 10475 net.cpp:408] rpn_big_anchor_target -> rpn_big_anchor_target_inside_weights
I0413 17:35:26.023545 10475 net.cpp:408] rpn_big_anchor_target -> rpn_big_anchor_target_outside_weights
I0413 17:35:26.030735 10475 net.cpp:150] Setting up rpn_big_anchor_target
I0413 17:35:26.030769 10475 net.cpp:157] Top shape: 1 1 1586 92 (145912)
I0413 17:35:26.030777 10475 net.cpp:157] Top shape: 1 104 61 92 (583648)
I0413 17:35:26.030784 10475 net.cpp:157] Top shape: 1 104 61 92 (583648)
I0413 17:35:26.030792 10475 net.cpp:157] Top shape: 1 104 61 92 (583648)
I0413 17:35:26.030797 10475 net.cpp:165] Memory required for data: 3598080468
I0413 17:35:26.030807 10475 layer_factory.hpp:77] Creating layer rpn_big_loss_cls
I0413 17:35:26.030841 10475 net.cpp:100] Creating Layer rpn_big_loss_cls
I0413 17:35:26.030851 10475 net.cpp:434] rpn_big_loss_cls <- rpn_big_cls_score_reshape_rpn_big_cls_score_reshape_0_split_1
I0413 17:35:26.030863 10475 net.cpp:434] rpn_big_loss_cls <- rpn_big_anchor_target_labels
I0413 17:35:26.030874 10475 net.cpp:408] rpn_big_loss_cls -> rpn_big_loss_cls
I0413 17:35:26.030899 10475 layer_factory.hpp:77] Creating layer rpn_big_loss_cls
I0413 17:35:26.032029 10475 net.cpp:150] Setting up rpn_big_loss_cls
I0413 17:35:26.032052 10475 net.cpp:157] Top shape: (1)
I0413 17:35:26.032058 10475 net.cpp:160]     with loss weight 1
I0413 17:35:26.032073 10475 net.cpp:165] Memory required for data: 3598080472
I0413 17:35:26.032083 10475 layer_factory.hpp:77] Creating layer rpn_big_output_box
I0413 17:35:26.032105 10475 net.cpp:100] Creating Layer rpn_big_output_box
I0413 17:35:26.032114 10475 net.cpp:434] rpn_big_output_box <- rpn_big_conv2_rpn_big_conv2_drop_0_split_1
I0413 17:35:26.032130 10475 net.cpp:408] rpn_big_output_box -> rpn_big_output_box
I0413 17:35:26.052085 10475 net.cpp:150] Setting up rpn_big_output_box
I0413 17:35:26.052119 10475 net.cpp:157] Top shape: 1 384 63 94 (2274048)
I0413 17:35:26.052134 10475 net.cpp:165] Memory required for data: 3607176664
I0413 17:35:26.052150 10475 layer_factory.hpp:77] Creating layer rpn_big_output_box_relu
I0413 17:35:26.052165 10475 net.cpp:100] Creating Layer rpn_big_output_box_relu
I0413 17:35:26.052172 10475 net.cpp:434] rpn_big_output_box_relu <- rpn_big_output_box
I0413 17:35:26.052186 10475 net.cpp:395] rpn_big_output_box_relu -> rpn_big_output_box (in-place)
I0413 17:35:26.052202 10475 net.cpp:150] Setting up rpn_big_output_box_relu
I0413 17:35:26.052211 10475 net.cpp:157] Top shape: 1 384 63 94 (2274048)
I0413 17:35:26.052217 10475 net.cpp:165] Memory required for data: 3616272856
I0413 17:35:26.052222 10475 layer_factory.hpp:77] Creating layer rpn_big_bbox_pred
I0413 17:35:26.052237 10475 net.cpp:100] Creating Layer rpn_big_bbox_pred
I0413 17:35:26.052240 10475 net.cpp:434] rpn_big_bbox_pred <- rpn_big_output_box
I0413 17:35:26.052248 10475 net.cpp:408] rpn_big_bbox_pred -> rpn_big_bbox_pred
I0413 17:35:26.056210 10475 net.cpp:150] Setting up rpn_big_bbox_pred
I0413 17:35:26.056231 10475 net.cpp:157] Top shape: 1 104 61 92 (583648)
I0413 17:35:26.056234 10475 net.cpp:165] Memory required for data: 3618607448
I0413 17:35:26.056252 10475 layer_factory.hpp:77] Creating layer rpn_big_bbox_pred_rpn_big_bbox_pred_0_split
I0413 17:35:26.056262 10475 net.cpp:100] Creating Layer rpn_big_bbox_pred_rpn_big_bbox_pred_0_split
I0413 17:35:26.056267 10475 net.cpp:434] rpn_big_bbox_pred_rpn_big_bbox_pred_0_split <- rpn_big_bbox_pred
I0413 17:35:26.056273 10475 net.cpp:408] rpn_big_bbox_pred_rpn_big_bbox_pred_0_split -> rpn_big_bbox_pred_rpn_big_bbox_pred_0_split_0
I0413 17:35:26.056282 10475 net.cpp:408] rpn_big_bbox_pred_rpn_big_bbox_pred_0_split -> rpn_big_bbox_pred_rpn_big_bbox_pred_0_split_1
I0413 17:35:26.056315 10475 net.cpp:150] Setting up rpn_big_bbox_pred_rpn_big_bbox_pred_0_split
I0413 17:35:26.056323 10475 net.cpp:157] Top shape: 1 104 61 92 (583648)
I0413 17:35:26.056326 10475 net.cpp:157] Top shape: 1 104 61 92 (583648)
I0413 17:35:26.056329 10475 net.cpp:165] Memory required for data: 3623276632
I0413 17:35:26.056332 10475 layer_factory.hpp:77] Creating layer rpn_big_loss_bbox
I0413 17:35:26.056694 10475 net.cpp:100] Creating Layer rpn_big_loss_bbox
I0413 17:35:26.056704 10475 net.cpp:434] rpn_big_loss_bbox <- rpn_big_bbox_pred_rpn_big_bbox_pred_0_split_0
I0413 17:35:26.056710 10475 net.cpp:434] rpn_big_loss_bbox <- rpn_big_anchor_target_bbox_targets
I0413 17:35:26.056722 10475 net.cpp:434] rpn_big_loss_bbox <- rpn_big_anchor_target_inside_weights
I0413 17:35:26.056727 10475 net.cpp:434] rpn_big_loss_bbox <- rpn_big_anchor_target_outside_weights
I0413 17:35:26.056733 10475 net.cpp:408] rpn_big_loss_bbox -> rpn_big_loss_bbox
I0413 17:35:26.058639 10475 net.cpp:150] Setting up rpn_big_loss_bbox
I0413 17:35:26.058666 10475 net.cpp:157] Top shape: 1 (1)
I0413 17:35:26.058670 10475 net.cpp:160]     with loss weight 1
I0413 17:35:26.058682 10475 net.cpp:165] Memory required for data: 3623276636
I0413 17:35:26.058689 10475 layer_factory.hpp:77] Creating layer proposal
I0413 17:35:26.059078 10475 net.cpp:100] Creating Layer proposal
I0413 17:35:26.059089 10475 net.cpp:434] proposal <- rpn_big_cls_prob_reshape_rpn_big_cls_prob_reshape_0_split_1
I0413 17:35:26.059097 10475 net.cpp:434] proposal <- rpn_big_bbox_pred_rpn_big_bbox_pred_0_split_1
I0413 17:35:26.059110 10475 net.cpp:434] proposal <- input_im_info_input_1_split_1
I0413 17:35:26.059118 10475 net.cpp:408] proposal -> rpn_rois
I0413 17:35:26.063223 10475 net.cpp:150] Setting up proposal
I0413 17:35:26.063236 10475 net.cpp:157] Top shape: 1 5 (5)
I0413 17:35:26.063241 10475 net.cpp:165] Memory required for data: 3623276656
I0413 17:35:26.063252 10475 layer_factory.hpp:77] Creating layer roi-data
I0413 17:35:26.110455 10475 net.cpp:100] Creating Layer roi-data
I0413 17:35:26.110489 10475 net.cpp:434] roi-data <- rpn_rois
I0413 17:35:26.110502 10475 net.cpp:434] roi-data <- input_gt_boxes_input_2_split_1
I0413 17:35:26.110514 10475 net.cpp:408] roi-data -> rois
I0413 17:35:26.110529 10475 net.cpp:408] roi-data -> labels
I0413 17:35:26.110540 10475 net.cpp:408] roi-data -> bbox_targets
I0413 17:35:26.110551 10475 net.cpp:408] roi-data -> bbox_inside_weights
I0413 17:35:26.110570 10475 net.cpp:408] roi-data -> bbox_outside_weights
I0413 17:35:26.110579 10475 net.cpp:408] roi-data -> pid_label
I0413 17:35:26.112082 10475 net.cpp:150] Setting up roi-data
I0413 17:35:26.112105 10475 net.cpp:157] Top shape: 1 5 (5)
I0413 17:35:26.112112 10475 net.cpp:157] Top shape: 1 1 (1)
I0413 17:35:26.112118 10475 net.cpp:157] Top shape: 1 8 (8)
I0413 17:35:26.112124 10475 net.cpp:157] Top shape: 1 8 (8)
I0413 17:35:26.112130 10475 net.cpp:157] Top shape: 1 8 (8)
I0413 17:35:26.112136 10475 net.cpp:157] Top shape: (0)
I0413 17:35:26.112140 10475 net.cpp:165] Memory required for data: 3623276776
I0413 17:35:26.112148 10475 net.cpp:228] roi-data does not need backward computation.
I0413 17:35:26.112155 10475 net.cpp:228] proposal does not need backward computation.
I0413 17:35:26.112162 10475 net.cpp:226] rpn_big_loss_bbox needs backward computation.
I0413 17:35:26.112179 10475 net.cpp:226] rpn_big_bbox_pred_rpn_big_bbox_pred_0_split needs backward computation.
…
