…
I0406 15:19:34.997997  6433 solver.cpp:48] Initializing solver from parameters: 
base_lr: 0.001
display: 20
lr_policy: "multistep"
gamma: 0.1
momentum: 0.9
weight_decay: 0.0005
snapshot: 0
snapshot_prefix: "faces_example"
net_param {
  name: "GeneratedModel_06_04_2017_15_19"
  layer {
    name: "input"
    type: "Python"
    top: "input_data"
    top: "input_im_info"
    top: "input_gt_boxes"
    top: "input_ignored_boxes"
    python_param {
      module: "layers.roi_data_layer"
      layer: "RoIDataLayer"
      param_str: "{\"num_classes\": 2}"
    }
  }
  layer {
    name: "conv1_1"
    type: "Convolution"
    bottom: "input_data"
    top: "conv1_1"
    param {
      lr_mult: 0
      decay_mult: 0
    }
    param {
      lr_mult: 0
      decay_mult: 0
    }
    convolution_param {
      num_output: 64
      pad: 1
      kernel_size: 3
    }
  }
  layer {
    name: "relu1_1"
    type: "ReLU"
    bottom: "conv1_1"
    top: "conv1_1"
  }
  layer {
    name: "conv1_2"
    type: "Convolution"
    bottom: "conv1_1"
    top: "conv1_2"
    param {
      lr_mult: 0
      decay_mult: 0
    }
    param {
      lr_mult: 0
      decay_mult: 0
    }
    convolution_param {
      num_output: 64
      pad: 1
      kernel_size: 3
    }
  }
  layer {
    name: "relu1_2"
    type: "ReLU"
    bottom: "conv1_2"
    top: "conv1_2"
  }
  layer {
    name: "pool1"
    type: "Pooling"
    bottom: "conv1_2"
    top: "pool1"
    pooling_param {
      pool: MAX
      kernel_size: 2
      stride: 2
    }
  }
  layer {
    name: "conv2_1"
    type: "Convolution"
    bottom: "pool1"
    top: "conv2_1"
    param {
      lr_mult: 0
      decay_mult: 0
    }
    param {
      lr_mult: 0
      decay_mult: 0
    }
    convolution_param {
      num_output: 128
      pad: 1
      kernel_size: 3
    }
  }
  layer {
    name: "relu2_1"
    type: "ReLU"
    bottom: "conv2_1"
    top: "conv2_1"
  }
  layer {
    name: "conv2_2"
    type: "Convolution"
    bottom: "conv2_1"
    top: "conv2_2"
    param {
      lr_mult: 0
      decay_mult: 0
    }
    param {
      lr_mult: 0
      decay_mult: 0
    }
    convolution_param {
      num_output: 128
      pad: 1
      kernel_size: 3
    }
  }
  layer {
    name: "relu2_2"
    type: "ReLU"
    bottom: "conv2_2"
    top: "conv2_2"
  }
  layer {
    name: "pool2"
    type: "Pooling"
    bottom: "conv2_2"
    top: "pool2"
    pooling_param {
      pool: MAX
      kernel_size: 2
      stride: 2
    }
  }
  layer {
    name: "conv3_1"
    type: "Convolution"
    bottom: "pool2"
    top: "conv3_1"
    param {
      lr_mult: 1
    }
    param {
      lr_mult: 2
    }
    convolution_param {
      num_output: 256
      pad: 1
      kernel_size: 3
    }
  }
  layer {
    name: "relu3_1"
    type: "ReLU"
    bottom: "conv3_1"
    top: "conv3_1"
  }
  layer {
    name: "conv3_2"
    type: "Convolution"
    bottom: "conv3_1"
    top: "conv3_2"
    param {
      lr_mult: 1
    }
    param {
      lr_mult: 2
    }
    convolution_param {
      num_output: 256
      pad: 1
      kernel_size: 3
    }
  }
  layer {
    name: "relu3_2"
    type: "ReLU"
    bottom: "conv3_2"
    top: "conv3_2"
  }
  layer {
    name: "conv3_3"
    type: "Convolution"
    bottom: "conv3_2"
    top: "conv3_3"
    param {
      lr_mult: 1
    }
    param {
      lr_mult: 2
    }
    convolution_param {
      num_output: 256
      pad: 1
      kernel_size: 3
    }
  }
  layer {
    name: "relu3_3"
    type: "ReLU"
    bottom: "conv3_3"
    top: "conv3_3"
  }
  layer {
    name: "pool3"
    type: "Pooling"
    bottom: "conv3_3"
    top: "pool3"
    pooling_param {
      pool: MAX
      kernel_size: 2
      stride: 2
    }
  }
  layer {
    name: "conv4_1"
    type: "Convolution"
    bottom: "pool3"
    top: "conv4_1"
    param {
      lr_mult: 1
    }
    param {
      lr_mult: 2
    }
    convolution_param {
      num_output: 512
      pad: 1
      kernel_size: 3
    }
  }
  layer {
    name: "relu4_1"
    type: "ReLU"
    bottom: "conv4_1"
    top: "conv4_1"
  }
  layer {
    name: "conv4_2"
    type: "Convolution"
    bottom: "conv4_1"
    top: "conv4_2"
    param {
      lr_mult: 1
    }
    param {
      lr_mult: 2
    }
    convolution_param {
      num_output: 512
      pad: 1
      kernel_size: 3
    }
  }
  layer {
    name: "relu4_2"
    type: "ReLU"
    bottom: "conv4_2"
    top: "conv4_2"
  }
  layer {
    name: "conv4_3"
    type: "Convolution"
    bottom: "conv4_2"
    top: "conv4_3"
    param {
      lr_mult: 1
    }
    param {
      lr_mult: 2
    }
    convolution_param {
      num_output: 512
      pad: 1
      kernel_size: 3
    }
  }
  layer {
    name: "relu4_3"
    type: "ReLU"
    bottom: "conv4_3"
    top: "conv4_3"
  }
  layer {
    name: "pool4"
    type: "Pooling"
    bottom: "conv4_3"
    top: "pool4"
    pooling_param {
      pool: MAX
      kernel_size: 2
      stride: 2
    }
  }
  layer {
    name: "conv5_1"
    type: "Convolution"
    bottom: "pool4"
    top: "conv5_1"
    param {
      lr_mult: 1
    }
    param {
      lr_mult: 2
    }
    convolution_param {
      num_output: 512
      pad: 1
      kernel_size: 3
    }
  }
  layer {
    name: "relu5_1"
    type: "ReLU"
    bottom: "conv5_1"
    top: "conv5_1"
  }
  layer {
    name: "conv5_2"
    type: "Convolution"
    bottom: "conv5_1"
    top: "conv5_2"
    param {
      lr_mult: 1
    }
    param {
      lr_mult: 2
    }
    convolution_param {
      num_output: 512
      pad: 1
      kernel_size: 3
    }
  }
  layer {
    name: "relu5_2"
    type: "ReLU"
    bottom: "conv5_2"
    top: "conv5_2"
  }
  layer {
    name: "conv5_3"
    type: "Convolution"
    bottom: "conv5_2"
    top: "conv5_3"
    param {
      lr_mult: 1
    }
    param {
      lr_mult: 2
    }
    convolution_param {
      num_output: 512
      pad: 1
      kernel_size: 3
    }
  }
  layer {
    name: "relu5_3"
    type: "ReLU"
    bottom: "conv5_3"
    top: "conv5_3"
  }
  layer {
    name: "rpn_big_conv1"
    type: "Convolution"
    bottom: "conv5_3"
    top: "rpn_big_conv1"
    param {
      lr_mult: 1
    }
    param {
      lr_mult: 2
    }
    convolution_param {
      num_output: 512
      pad: 1
      kernel_size: 3
      stride: 1
      weight_filler {
        type: "gaussian"
        mean: 0
        std: 0.01
      }
      bias_filler {
        type: "constant"
      }
    }
  }
  layer {
    name: "rpn_big_conv1_relu"
    type: "ReLU"
    bottom: "rpn_big_conv1"
    top: "rpn_big_conv1"
    relu_param {
      negative_slope: 0
    }
  }
  layer {
    name: "rpn_big_conv2"
    type: "Convolution"
    bottom: "rpn_big_conv1"
    top: "rpn_big_conv2"
    param {
      lr_mult: 1
    }
    param {
      lr_mult: 2
    }
    convolution_param {
      num_output: 512
      pad: 1
      kernel_size: 3
      stride: 1
      weight_filler {
        type: "gaussian"
        mean: 0
        std: 0.01
      }
      bias_filler {
        type: "constant"
      }
    }
  }
  layer {
    name: "rpn_big_conv2_relu"
    type: "ReLU"
    bottom: "rpn_big_conv2"
    top: "rpn_big_conv2"
    relu_param {
      negative_slope: 0
    }
  }
  layer {
    name: "rpn_big_conv2_drop"
    type: "Dropout"
    bottom: "rpn_big_conv2"
    top: "rpn_big_conv2"
    dropout_param {
      dropout_ratio: 0.3
    }
  }
  layer {
    name: "rpn_big_output_cls"
    type: "Convolution"
    bottom: "rpn_big_conv2"
    top: "rpn_big_output_cls"
    param {
      lr_mult: 1
    }
    param {
      lr_mult: 2
    }
    convolution_param {
      num_output: 384
      pad: 1
      kernel_size: 3
      stride: 1
      weight_filler {
        type: "gaussian"
        mean: 0
        std: 0.01
      }
      bias_filler {
        type: "constant"
      }
    }
  }
  layer {
    name: "rpn_big_output_cls_relu"
    type: "ReLU"
    bottom: "rpn_big_output_cls"
    top: "rpn_big_output_cls"
    relu_param {
      negative_slope: 0
    }
  }
  layer {
    name: "rpn_big_cls_score"
    type: "Convolution"
    bottom: "rpn_big_output_cls"
    top: "rpn_big_cls_score"
    param {
      lr_mult: 1
    }
    param {
      lr_mult: 2
    }
    convolution_param {
      num_output: 52
      pad: 0
      kernel_size: 3
      stride: 1
      weight_filler {
        type: "gaussian"
        mean: 0
        std: 0.01
      }
      bias_filler {
        type: "constant"
      }
    }
  }
  layer {
    name: "rpn_big_cls_score_reshape"
    type: "Reshape"
    bottom: "rpn_big_cls_score"
    top: "rpn_big_cls_score_reshape"
    reshape_param {
      shape {
        dim: 0
        dim: 2
        dim: -1
        dim: 0
      }
    }
  }
  layer {
    name: "rpn_big_cls_prob"
    type: "Softmax"
    bottom: "rpn_big_cls_score_reshape"
    top: "rpn_big_cls_prob"
  }
  layer {
    name: "rpn_big_cls_prob_reshape"
    type: "Reshape"
    bottom: "rpn_big_cls_prob"
    top: "rpn_big_cls_prob_reshape"
    reshape_param {
      shape {
        dim: 0
        dim: 52
        dim: -1
        dim: 0
      }
    }
  }
  layer {
    name: "rpn_big_anchor_target"
    type: "Python"
    bottom: "rpn_big_cls_score"
    bottom: "input_gt_boxes"
    bottom: "input_ignored_boxes"
    bottom: "input_im_info"
    bottom: "input_data"
    bottom: "rpn_big_cls_prob_reshape"
    top: "rpn_big_anchor_target_labels"
    top: "rpn_big_anchor_target_bbox_targets"
    top: "rpn_big_anchor_target_inside_weights"
    top: "rpn_big_anchor_target_outside_weights"
    python_param {
      module: "rpn.anchor_target_layer"
      layer: "AnchorTargetLayer"
      param_str: "{\"tn_fraction\": 0.2, \"batchsize\": 256, \"feat_stride\": 16, \"negative_overlap\": 0.4, \"anchor_shift_num_xy\": [[2, 2], [2, 2], [2, 2], [2, 2], [1, 1], [1, 1], [1, 1], [1, 1], [1, 1], [1, 1], [1, 1], [1, 1], [1, 1], [1, 1]], \"num_classes\": 1, \"fg_fraction\": 0.5, \"square_targets\": true, \"name\": \"rpn_big\", \"anchor_scales\": [2.5, 3.025, 3.66025, 4.4289024999999995, 5.358972025, 6.484356150249999, 7.846070941802498, 9.493745839581022, 11.487432465893036, 13.899793283730574, 16.818749873313998, 20.350687346709933, 24.62433168951902, 29.795441344318014], \"anchor_ratios\": [1.0], \"positive_overlap\": 0.6}"
    }
  }
  layer {
    name: "rpn_big_loss_cls"
    type: "SoftmaxWithLoss"
    bottom: "rpn_big_cls_score_reshape"
    bottom: "rpn_big_anchor_target_labels"
    top: "rpn_big_loss_cls"
    loss_weight: 1
    propagate_down: true
    propagate_down: false
    loss_param {
      ignore_label: -1
      normalization: VALID
    }
  }
  layer {
    name: "rpn_big_output_box"
    type: "Convolution"
    bottom: "rpn_big_conv2"
    top: "rpn_big_output_box"
    param {
      lr_mult: 1
    }
    param {
      lr_mult: 2
    }
    convolution_param {
      num_output: 384
      pad: 1
      kernel_size: 3
      stride: 1
      weight_filler {
        type: "gaussian"
        mean: 0
        std: 0.01
      }
      bias_filler {
        type: "constant"
      }
    }
  }
  layer {
    name: "rpn_big_output_box_relu"
    type: "ReLU"
    bottom: "rpn_big_output_box"
    top: "rpn_big_output_box"
    relu_param {
      negative_slope: 0
    }
  }
  layer {
    name: "rpn_big_bbox_pred"
    type: "Convolution"
    bottom: "rpn_big_output_box"
    top: "rpn_big_bbox_pred"
    param {
      lr_mult: 1
    }
    param {
      lr_mult: 2
    }
    convolution_param {
      num_output: 104
      pad: 0
      kernel_size: 3
      stride: 1
      weight_filler {
        type: "gaussian"
        mean: 0
        std: 0.01
      }
      bias_filler {
        type: "constant"
      }
    }
  }
  layer {
    name: "rpn_big_loss_bbox"
    type: "Python"
    bottom: "rpn_big_bbox_pred"
    bottom: "rpn_big_anchor_target_bbox_targets"
    bottom: "rpn_big_anchor_target_inside_weights"
    bottom: "rpn_big_anchor_target_outside_weights"
    top: "rpn_big_loss_bbox"
    loss_weight: 1
    python_param {
      module: "layers.smooth_l1_loss"
      layer: "SmoothL1LossLayer"
      param_str: "{\"sigma\": 3}"
    }
  }
}
average_loss: 100
stepvalue: 70000
stepvalue: 120000
iter_size: 2
I0406 15:19:34.998075  6433 solver.cpp:86] Creating training net specified in net_param.
I0406 15:19:34.998425  6433 net.cpp:49] Initializing net from parameters: 
name: "GeneratedModel_06_04_2017_15_19"
state {
  phase: TRAIN
}
layer {
  name: "input"
  type: "Python"
  top: "input_data"
  top: "input_im_info"
  top: "input_gt_boxes"
  top: "input_ignored_boxes"
  python_param {
    module: "layers.roi_data_layer"
    layer: "RoIDataLayer"
    param_str: "{\"num_classes\": 2}"
  }
}
layer {
  name: "conv1_1"
  type: "Convolution"
  bottom: "input_data"
  top: "conv1_1"
  param {
    lr_mult: 0
    decay_mult: 0
  }
  param {
    lr_mult: 0
    decay_mult: 0
  }
  convolution_param {
    num_output: 64
    pad: 1
    kernel_size: 3
  }
}
layer {
  name: "relu1_1"
  type: "ReLU"
  bottom: "conv1_1"
  top: "conv1_1"
}
layer {
  name: "conv1_2"
  type: "Convolution"
  bottom: "conv1_1"
  top: "conv1_2"
  param {
    lr_mult: 0
    decay_mult: 0
  }
  param {
    lr_mult: 0
    decay_mult: 0
  }
  convolution_param {
    num_output: 64
    pad: 1
    kernel_size: 3
  }
}
layer {
  name: "relu1_2"
  type: "ReLU"
  bottom: "conv1_2"
  top: "conv1_2"
}
layer {
  name: "pool1"
  type: "Pooling"
  bottom: "conv1_2"
  top: "pool1"
  pooling_param {
    pool: MAX
    kernel_size: 2
    stride: 2
  }
}
layer {
  name: "conv2_1"
  type: "Convolution"
  bottom: "pool1"
  top: "conv2_1"
  param {
    lr_mult: 0
    decay_mult: 0
  }
  param {
    lr_mult: 0
    decay_mult: 0
  }
  convolution_param {
    num_output: 128
    pad: 1
    kernel_size: 3
  }
}
layer {
  name: "relu2_1"
  type: "ReLU"
  bottom: "conv2_1"
  top: "conv2_1"
}
layer {
  name: "conv2_2"
  type: "Convolution"
  bottom: "conv2_1"
  top: "conv2_2"
  param {
    lr_mult: 0
    decay_mult: 0
  }
  param {
    lr_mult: 0
    decay_mult: 0
  }
  convolution_param {
    num_output: 128
    pad: 1
    kernel_size: 3
  }
}
layer {
  name: "relu2_2"
  type: "ReLU"
  bottom: "conv2_2"
  top: "conv2_2"
}
layer {
  name: "pool2"
  type: "Pooling"
  bottom: "conv2_2"
  top: "pool2"
  pooling_param {
    pool: MAX
    kernel_size: 2
    stride: 2
  }
}
layer {
  name: "conv3_1"
  type: "Convolution"
  bottom: "pool2"
  top: "conv3_1"
  param {
    lr_mult: 1
  }
  param {
    lr_mult: 2
  }
  convolution_param {
    num_output: 256
    pad: 1
    kernel_size: 3
  }
}
layer {
  name: "relu3_1"
  type: "ReLU"
  bottom: "conv3_1"
  top: "conv3_1"
}
layer {
  name: "conv3_2"
  type: "Convolution"
  bottom: "conv3_1"
  top: "conv3_2"
  param {
    lr_mult: 1
  }
  param {
    lr_mult: 2
  }
  convolution_param {
    num_output: 256
    pad: 1
    kernel_size: 3
  }
}
layer {
  name: "relu3_2"
  type: "ReLU"
  bottom: "conv3_2"
  top: "conv3_2"
}
layer {
  name: "conv3_3"
  type: "Convolution"
  bottom: "conv3_2"
  top: "conv3_3"
  param {
    lr_mult: 1
  }
  param {
    lr_mult: 2
  }
  convolution_param {
    num_output: 256
    pad: 1
    kernel_size: 3
  }
}
layer {
  name: "relu3_3"
  type: "ReLU"
  bottom: "conv3_3"
  top: "conv3_3"
}
layer {
  name: "pool3"
  type: "Pooling"
  bottom: "conv3_3"
  top: "pool3"
  pooling_param {
    pool: MAX
    kernel_size: 2
    stride: 2
  }
}
layer {
  name: "conv4_1"
  type: "Convolution"
  bottom: "pool3"
  top: "conv4_1"
  param {
    lr_mult: 1
  }
  param {
    lr_mult: 2
  }
  convolution_param {
    num_output: 512
    pad: 1
    kernel_size: 3
  }
}
layer {
  name: "relu4_1"
  type: "ReLU"
  bottom: "conv4_1"
  top: "conv4_1"
}
layer {
  name: "conv4_2"
  type: "Convolution"
  bottom: "conv4_1"
  top: "conv4_2"
  param {
    lr_mult: 1
  }
  param {
    lr_mult: 2
  }
  convolution_param {
    num_output: 512
    pad: 1
    kernel_size: 3
  }
}
layer {
  name: "relu4_2"
  type: "ReLU"
  bottom: "conv4_2"
  top: "conv4_2"
}
layer {
  name: "conv4_3"
  type: "Convolution"
  bottom: "conv4_2"
  top: "conv4_3"
  param {
    lr_mult: 1
  }
  param {
    lr_mult: 2
  }
  convolution_param {
    num_output: 512
    pad: 1
    kernel_size: 3
  }
}
layer {
  name: "relu4_3"
  type: "ReLU"
  bottom: "conv4_3"
  top: "conv4_3"
}
layer {
  name: "pool4"
  type: "Pooling"
  bottom: "conv4_3"
  top: "pool4"
  pooling_param {
    pool: MAX
    kernel_size: 2
    stride: 2
  }
}
layer {
  name: "conv5_1"
  type: "Convolution"
  bottom: "pool4"
  top: "conv5_1"
  param {
    lr_mult: 1
  }
  param {
    lr_mult: 2
  }
  convolution_param {
    num_output: 512
    pad: 1
    kernel_size: 3
  }
}
layer {
  name: "relu5_1"
  type: "ReLU"
  bottom: "conv5_1"
  top: "conv5_1"
}
layer {
  name: "conv5_2"
  type: "Convolution"
  bottom: "conv5_1"
  top: "conv5_2"
  param {
    lr_mult: 1
  }
  param {
    lr_mult: 2
  }
  convolution_param {
    num_output: 512
    pad: 1
    kernel_size: 3
  }
}
layer {
  name: "relu5_2"
  type: "ReLU"
  bottom: "conv5_2"
  top: "conv5_2"
}
layer {
  name: "conv5_3"
  type: "Convolution"
  bottom: "conv5_2"
  top: "conv5_3"
  param {
    lr_mult: 1
  }
  param {
    lr_mult: 2
  }
  convolution_param {
    num_output: 512
    pad: 1
    kernel_size: 3
  }
}
layer {
  name: "relu5_3"
  type: "ReLU"
  bottom: "conv5_3"
  top: "conv5_3"
}
layer {
  name: "rpn_big_conv1"
  type: "Convolution"
  bottom: "conv5_3"
  top: "rpn_big_conv1"
  param {
    lr_mult: 1
  }
  param {
    lr_mult: 2
  }
  convolution_param {
    num_output: 512
    pad: 1
    kernel_size: 3
    stride: 1
    weight_filler {
      type: "gaussian"
      mean: 0
      std: 0.01
    }
    bias_filler {
      type: "constant"
    }
  }
}
layer {
  name: "rpn_big_conv1_relu"
  type: "ReLU"
  bottom: "rpn_big_conv1"
  top: "rpn_big_conv1"
  relu_param {
    negative_slope: 0
  }
}
layer {
  name: "rpn_big_conv2"
  type: "Convolution"
  bottom: "rpn_big_conv1"
  top: "rpn_big_conv2"
  param {
    lr_mult: 1
  }
  param {
    lr_mult: 2
  }
  convolution_param {
    num_output: 512
    pad: 1
    kernel_size: 3
    stride: 1
    weight_filler {
      type: "gaussian"
      mean: 0
      std: 0.01
    }
    bias_filler {
      type: "constant"
    }
  }
}
layer {
  name: "rpn_big_conv2_relu"
  type: "ReLU"
  bottom: "rpn_big_conv2"
  top: "rpn_big_conv2"
  relu_param {
    negative_slope: 0
  }
}
layer {
  name: "rpn_big_conv2_drop"
  type: "Dropout"
  bottom: "rpn_big_conv2"
  top: "rpn_big_conv2"
  dropout_param {
    dropout_ratio: 0.3
  }
}
layer {
  name: "rpn_big_output_cls"
  type: "Convolution"
  bottom: "rpn_big_conv2"
  top: "rpn_big_output_cls"
  param {
    lr_mult: 1
  }
  param {
    lr_mult: 2
  }
  convolution_param {
    num_output: 384
    pad: 1
    kernel_size: 3
    stride: 1
    weight_filler {
      type: "gaussian"
      mean: 0
      std: 0.01
    }
    bias_filler {
      type: "constant"
    }
  }
}
layer {
  name: "rpn_big_output_cls_relu"
  type: "ReLU"
  bottom: "rpn_big_output_cls"
  top: "rpn_big_output_cls"
  relu_param {
    negative_slope: 0
  }
}
layer {
  name: "rpn_big_cls_score"
  type: "Convolution"
  bottom: "rpn_big_output_cls"
  top: "rpn_big_cls_score"
  param {
    lr_mult: 1
  }
  param {
    lr_mult: 2
  }
  convolution_param {
    num_output: 52
    pad: 0
    kernel_size: 3
    stride: 1
    weight_filler {
      type: "gaussian"
      mean: 0
      std: 0.01
    }
    bias_filler {
      type: "constant"
    }
  }
}
layer {
  name: "rpn_big_cls_score_reshape"
  type: "Reshape"
  bottom: "rpn_big_cls_score"
  top: "rpn_big_cls_score_reshape"
  reshape_param {
    shape {
      dim: 0
      dim: 2
      dim: -1
      dim: 0
    }
  }
}
layer {
  name: "rpn_big_cls_prob"
  type: "Softmax"
  bottom: "rpn_big_cls_score_reshape"
  top: "rpn_big_cls_prob"
}
layer {
  name: "rpn_big_cls_prob_reshape"
  type: "Reshape"
  bottom: "rpn_big_cls_prob"
  top: "rpn_big_cls_prob_reshape"
  reshape_param {
    shape {
      dim: 0
      dim: 52
      dim: -1
      dim: 0
    }
  }
}
layer {
  name: "rpn_big_anchor_target"
  type: "Python"
  bottom: "rpn_big_cls_score"
  bottom: "input_gt_boxes"
  bottom: "input_ignored_boxes"
  bottom: "input_im_info"
  bottom: "input_data"
  bottom: "rpn_big_cls_prob_reshape"
  top: "rpn_big_anchor_target_labels"
  top: "rpn_big_anchor_target_bbox_targets"
  top: "rpn_big_anchor_target_inside_weights"
  top: "rpn_big_anchor_target_outside_weights"
  python_param {
    module: "rpn.anchor_target_layer"
    layer: "AnchorTargetLayer"
    param_str: "{\"tn_fraction\": 0.2, \"batchsize\": 256, \"feat_stride\": 16, \"negative_overlap\": 0.4, \"anchor_shift_num_xy\": [[2, 2], [2, 2], [2, 2], [2, 2], [1, 1], [1, 1], [1, 1], [1, 1], [1, 1], [1, 1], [1, 1], [1, 1], [1, 1], [1, 1]], \"num_classes\": 1, \"fg_fraction\": 0.5, \"square_targets\": true, \"name\": \"rpn_big\", \"anchor_scales\": [2.5, 3.025, 3.66025, 4.4289024999999995, 5.358972025, 6.484356150249999, 7.846070941802498, 9.493745839581022, 11.487432465893036, 13.899793283730574, 16.818749873313998, 20.350687346709933, 24.62433168951902, 29.795441344318014], \"anchor_ratios\": [1.0], \"positive_overlap\": 0.6}"
  }
}
layer {
  name: "rpn_big_loss_cls"
  type: "SoftmaxWithLoss"
  bottom: "rpn_big_cls_score_reshape"
  bottom: "rpn_big_anchor_target_labels"
  top: "rpn_big_loss_cls"
  loss_weight: 1
  propagate_down: true
  propagate_down: false
  loss_param {
    ignore_label: -1
    normalization: VALID
  }
}
layer {
  name: "rpn_big_output_box"
  type: "Convolution"
  bottom: "rpn_big_conv2"
  top: "rpn_big_output_box"
  param {
    lr_mult: 1
  }
  param {
    lr_mult: 2
  }
  convolution_param {
    num_output: 384
    pad: 1
    kernel_size: 3
    stride: 1
    weight_filler {
      type: "gaussian"
      mean: 0
      std: 0.01
    }
    bias_filler {
      type: "constant"
    }
  }
}
layer {
  name: "rpn_big_output_box_relu"
  type: "ReLU"
  bottom: "rpn_big_output_box"
  top: "rpn_big_output_box"
  relu_param {
    negative_slope: 0
  }
}
layer {
  name: "rpn_big_bbox_pred"
  type: "Convolution"
  bottom: "rpn_big_output_box"
  top: "rpn_big_bbox_pred"
  param {
    lr_mult: 1
  }
  param {
    lr_mult: 2
  }
  convolution_param {
    num_output: 104
    pad: 0
    kernel_size: 3
    stride: 1
    weight_filler {
      type: "gaussian"
      mean: 0
      std: 0.01
    }
    bias_filler {
      type: "constant"
    }
  }
}
layer {
  name: "rpn_big_loss_bbox"
  type: "Python"
  bottom: "rpn_big_bbox_pred"
  bottom: "rpn_big_anchor_target_bbox_targets"
  bottom: "rpn_big_anchor_target_inside_weights"
  bottom: "rpn_big_anchor_target_outside_weights"
  top: "rpn_big_loss_bbox"
  loss_weight: 1
  python_param {
    module: "layers.smooth_l1_loss"
    layer: "SmoothL1LossLayer"
    param_str: "{\"sigma\": 3}"
  }
}
I0406 15:19:34.998589  6433 layer_factory.hpp:77] Creating layer input
I0406 15:19:34.999754  6433 net.cpp:106] Creating Layer input
I0406 15:19:34.999770  6433 net.cpp:411] input -> input_data
I0406 15:19:34.999781  6433 net.cpp:411] input -> input_im_info
I0406 15:19:34.999788  6433 net.cpp:411] input -> input_gt_boxes
I0406 15:19:34.999795  6433 net.cpp:411] input -> input_ignored_boxes
RoiDataLayer: name_to_top: {'ignored_boxes': 3, 'im_info': 1, 'data': 0, 'gt_boxes': 2}
I0406 15:19:35.314607  6433 net.cpp:150] Setting up input
I0406 15:19:35.314632  6433 net.cpp:157] Top shape: 1 3 1000 1500 (4500000)
I0406 15:19:35.314637  6433 net.cpp:157] Top shape: 1 3 (3)
I0406 15:19:35.314641  6433 net.cpp:157] Top shape: 1 5 (5)
I0406 15:19:35.314646  6433 net.cpp:157] Top shape: 1 5 (5)
I0406 15:19:35.314648  6433 net.cpp:165] Memory required for data: 18000052
I0406 15:19:35.314656  6433 layer_factory.hpp:77] Creating layer input_data_input_0_split
I0406 15:19:35.314667  6433 net.cpp:106] Creating Layer input_data_input_0_split
I0406 15:19:35.314672  6433 net.cpp:454] input_data_input_0_split <- input_data
I0406 15:19:35.314682  6433 net.cpp:411] input_data_input_0_split -> input_data_input_0_split_0
I0406 15:19:35.314692  6433 net.cpp:411] input_data_input_0_split -> input_data_input_0_split_1
I0406 15:19:35.314725  6433 net.cpp:150] Setting up input_data_input_0_split
I0406 15:19:35.314731  6433 net.cpp:157] Top shape: 1 3 1000 1500 (4500000)
I0406 15:19:35.314735  6433 net.cpp:157] Top shape: 1 3 1000 1500 (4500000)
I0406 15:19:35.314738  6433 net.cpp:165] Memory required for data: 54000052
I0406 15:19:35.314743  6433 layer_factory.hpp:77] Creating layer conv1_1
I0406 15:19:35.314754  6433 net.cpp:106] Creating Layer conv1_1
I0406 15:19:35.314757  6433 net.cpp:454] conv1_1 <- input_data_input_0_split_0
I0406 15:19:35.314762  6433 net.cpp:411] conv1_1 -> conv1_1
I0406 15:19:35.317742  6433 net.cpp:150] Setting up conv1_1
I0406 15:19:35.317775  6433 net.cpp:157] Top shape: 1 64 1000 1500 (96000000)
I0406 15:19:35.317778  6433 net.cpp:165] Memory required for data: 438000052
I0406 15:19:35.317795  6433 layer_factory.hpp:77] Creating layer relu1_1
I0406 15:19:35.317806  6433 net.cpp:106] Creating Layer relu1_1
I0406 15:19:35.317811  6433 net.cpp:454] relu1_1 <- conv1_1
I0406 15:19:35.317818  6433 net.cpp:397] relu1_1 -> conv1_1 (in-place)
I0406 15:19:35.317829  6433 net.cpp:150] Setting up relu1_1
I0406 15:19:35.317833  6433 net.cpp:157] Top shape: 1 64 1000 1500 (96000000)
I0406 15:19:35.317836  6433 net.cpp:165] Memory required for data: 822000052
I0406 15:19:35.317839  6433 layer_factory.hpp:77] Creating layer conv1_2
I0406 15:19:35.317852  6433 net.cpp:106] Creating Layer conv1_2
I0406 15:19:35.317855  6433 net.cpp:454] conv1_2 <- conv1_1
I0406 15:19:35.317860  6433 net.cpp:411] conv1_2 -> conv1_2
I0406 15:19:35.321048  6433 net.cpp:150] Setting up conv1_2
I0406 15:19:35.321084  6433 net.cpp:157] Top shape: 1 64 1000 1500 (96000000)
I0406 15:19:35.321087  6433 net.cpp:165] Memory required for data: 1206000052
I0406 15:19:35.321105  6433 layer_factory.hpp:77] Creating layer relu1_2
I0406 15:19:35.321116  6433 net.cpp:106] Creating Layer relu1_2
I0406 15:19:35.321121  6433 net.cpp:454] relu1_2 <- conv1_2
I0406 15:19:35.321128  6433 net.cpp:397] relu1_2 -> conv1_2 (in-place)
I0406 15:19:35.321140  6433 net.cpp:150] Setting up relu1_2
I0406 15:19:35.321143  6433 net.cpp:157] Top shape: 1 64 1000 1500 (96000000)
I0406 15:19:35.321146  6433 net.cpp:165] Memory required for data: 1590000052
I0406 15:19:35.321149  6433 layer_factory.hpp:77] Creating layer pool1
I0406 15:19:35.321156  6433 net.cpp:106] Creating Layer pool1
I0406 15:19:35.321158  6433 net.cpp:454] pool1 <- conv1_2
I0406 15:19:35.321164  6433 net.cpp:411] pool1 -> pool1
I0406 15:19:35.321236  6433 net.cpp:150] Setting up pool1
I0406 15:19:35.321245  6433 net.cpp:157] Top shape: 1 64 500 750 (24000000)
I0406 15:19:35.321249  6433 net.cpp:165] Memory required for data: 1686000052
I0406 15:19:35.321251  6433 layer_factory.hpp:77] Creating layer conv2_1
I0406 15:19:35.321264  6433 net.cpp:106] Creating Layer conv2_1
I0406 15:19:35.321269  6433 net.cpp:454] conv2_1 <- pool1
I0406 15:19:35.321274  6433 net.cpp:411] conv2_1 -> conv2_1
I0406 15:19:35.322464  6433 net.cpp:150] Setting up conv2_1
I0406 15:19:35.322487  6433 net.cpp:157] Top shape: 1 128 500 750 (48000000)
I0406 15:19:35.322490  6433 net.cpp:165] Memory required for data: 1878000052
I0406 15:19:35.322510  6433 layer_factory.hpp:77] Creating layer relu2_1
I0406 15:19:35.322521  6433 net.cpp:106] Creating Layer relu2_1
I0406 15:19:35.322525  6433 net.cpp:454] relu2_1 <- conv2_1
I0406 15:19:35.322531  6433 net.cpp:397] relu2_1 -> conv2_1 (in-place)
I0406 15:19:35.322540  6433 net.cpp:150] Setting up relu2_1
I0406 15:19:35.322543  6433 net.cpp:157] Top shape: 1 128 500 750 (48000000)
I0406 15:19:35.322546  6433 net.cpp:165] Memory required for data: 2070000052
I0406 15:19:35.322549  6433 layer_factory.hpp:77] Creating layer conv2_2
I0406 15:19:35.322557  6433 net.cpp:106] Creating Layer conv2_2
I0406 15:19:35.322561  6433 net.cpp:454] conv2_2 <- conv2_1
I0406 15:19:35.322566  6433 net.cpp:411] conv2_2 -> conv2_2
I0406 15:19:35.323493  6433 net.cpp:150] Setting up conv2_2
I0406 15:19:35.323514  6433 net.cpp:157] Top shape: 1 128 500 750 (48000000)
I0406 15:19:35.323518  6433 net.cpp:165] Memory required for data: 2262000052
I0406 15:19:35.323535  6433 layer_factory.hpp:77] Creating layer relu2_2
I0406 15:19:35.323544  6433 net.cpp:106] Creating Layer relu2_2
I0406 15:19:35.323547  6433 net.cpp:454] relu2_2 <- conv2_2
I0406 15:19:35.323554  6433 net.cpp:397] relu2_2 -> conv2_2 (in-place)
I0406 15:19:35.323563  6433 net.cpp:150] Setting up relu2_2
I0406 15:19:35.323567  6433 net.cpp:157] Top shape: 1 128 500 750 (48000000)
I0406 15:19:35.323570  6433 net.cpp:165] Memory required for data: 2454000052
I0406 15:19:35.323573  6433 layer_factory.hpp:77] Creating layer pool2
I0406 15:19:35.323580  6433 net.cpp:106] Creating Layer pool2
I0406 15:19:35.323582  6433 net.cpp:454] pool2 <- conv2_2
I0406 15:19:35.323586  6433 net.cpp:411] pool2 -> pool2
I0406 15:19:35.323632  6433 net.cpp:150] Setting up pool2
I0406 15:19:35.323638  6433 net.cpp:157] Top shape: 1 128 250 375 (12000000)
I0406 15:19:35.323642  6433 net.cpp:165] Memory required for data: 2502000052
I0406 15:19:35.323644  6433 layer_factory.hpp:77] Creating layer conv3_1
I0406 15:19:35.323654  6433 net.cpp:106] Creating Layer conv3_1
I0406 15:19:35.323657  6433 net.cpp:454] conv3_1 <- pool2
I0406 15:19:35.323664  6433 net.cpp:411] conv3_1 -> conv3_1
I0406 15:19:35.324745  6433 net.cpp:150] Setting up conv3_1
I0406 15:19:35.324769  6433 net.cpp:157] Top shape: 1 256 250 375 (24000000)
I0406 15:19:35.324774  6433 net.cpp:165] Memory required for data: 2598000052
I0406 15:19:35.324795  6433 layer_factory.hpp:77] Creating layer relu3_1
I0406 15:19:35.324802  6433 net.cpp:106] Creating Layer relu3_1
I0406 15:19:35.324807  6433 net.cpp:454] relu3_1 <- conv3_1
I0406 15:19:35.324815  6433 net.cpp:397] relu3_1 -> conv3_1 (in-place)
I0406 15:19:35.324822  6433 net.cpp:150] Setting up relu3_1
I0406 15:19:35.324827  6433 net.cpp:157] Top shape: 1 256 250 375 (24000000)
I0406 15:19:35.324829  6433 net.cpp:165] Memory required for data: 2694000052
I0406 15:19:35.324832  6433 layer_factory.hpp:77] Creating layer conv3_2
I0406 15:19:35.324841  6433 net.cpp:106] Creating Layer conv3_2
I0406 15:19:35.324846  6433 net.cpp:454] conv3_2 <- conv3_1
I0406 15:19:35.324851  6433 net.cpp:411] conv3_2 -> conv3_2
I0406 15:19:35.326038  6433 net.cpp:150] Setting up conv3_2
I0406 15:19:35.326062  6433 net.cpp:157] Top shape: 1 256 250 375 (24000000)
I0406 15:19:35.326066  6433 net.cpp:165] Memory required for data: 2790000052
I0406 15:19:35.326083  6433 layer_factory.hpp:77] Creating layer relu3_2
I0406 15:19:35.326092  6433 net.cpp:106] Creating Layer relu3_2
I0406 15:19:35.326095  6433 net.cpp:454] relu3_2 <- conv3_2
I0406 15:19:35.326102  6433 net.cpp:397] relu3_2 -> conv3_2 (in-place)
I0406 15:19:35.326109  6433 net.cpp:150] Setting up relu3_2
I0406 15:19:35.326113  6433 net.cpp:157] Top shape: 1 256 250 375 (24000000)
I0406 15:19:35.326117  6433 net.cpp:165] Memory required for data: 2886000052
I0406 15:19:35.326119  6433 layer_factory.hpp:77] Creating layer conv3_3
I0406 15:19:35.326131  6433 net.cpp:106] Creating Layer conv3_3
I0406 15:19:35.326135  6433 net.cpp:454] conv3_3 <- conv3_2
I0406 15:19:35.326140  6433 net.cpp:411] conv3_3 -> conv3_3
I0406 15:19:35.332443  6433 net.cpp:150] Setting up conv3_3
I0406 15:19:35.332484  6433 net.cpp:157] Top shape: 1 256 250 375 (24000000)
I0406 15:19:35.332490  6433 net.cpp:165] Memory required for data: 2982000052
I0406 15:19:35.332506  6433 layer_factory.hpp:77] Creating layer relu3_3
I0406 15:19:35.332521  6433 net.cpp:106] Creating Layer relu3_3
I0406 15:19:35.332530  6433 net.cpp:454] relu3_3 <- conv3_3
I0406 15:19:35.332543  6433 net.cpp:397] relu3_3 -> conv3_3 (in-place)
I0406 15:19:35.332559  6433 net.cpp:150] Setting up relu3_3
I0406 15:19:35.332568  6433 net.cpp:157] Top shape: 1 256 250 375 (24000000)
I0406 15:19:35.332574  6433 net.cpp:165] Memory required for data: 3078000052
I0406 15:19:35.332581  6433 layer_factory.hpp:77] Creating layer pool3
I0406 15:19:35.332592  6433 net.cpp:106] Creating Layer pool3
I0406 15:19:35.332598  6433 net.cpp:454] pool3 <- conv3_3
I0406 15:19:35.332609  6433 net.cpp:411] pool3 -> pool3
I0406 15:19:35.332672  6433 net.cpp:150] Setting up pool3
I0406 15:19:35.332684  6433 net.cpp:157] Top shape: 1 256 125 188 (6016000)
I0406 15:19:35.332690  6433 net.cpp:165] Memory required for data: 3102064052
I0406 15:19:35.332695  6433 layer_factory.hpp:77] Creating layer conv4_1
I0406 15:19:35.332713  6433 net.cpp:106] Creating Layer conv4_1
I0406 15:19:35.332725  6433 net.cpp:454] conv4_1 <- pool3
I0406 15:19:35.332736  6433 net.cpp:411] conv4_1 -> conv4_1
I0406 15:19:35.335417  6433 net.cpp:150] Setting up conv4_1
I0406 15:19:35.335450  6433 net.cpp:157] Top shape: 1 512 125 188 (12032000)
I0406 15:19:35.335456  6433 net.cpp:165] Memory required for data: 3150192052
I0406 15:19:35.335477  6433 layer_factory.hpp:77] Creating layer relu4_1
I0406 15:19:35.335491  6433 net.cpp:106] Creating Layer relu4_1
I0406 15:19:35.335505  6433 net.cpp:454] relu4_1 <- conv4_1
I0406 15:19:35.335517  6433 net.cpp:397] relu4_1 -> conv4_1 (in-place)
I0406 15:19:35.335532  6433 net.cpp:150] Setting up relu4_1
I0406 15:19:35.335543  6433 net.cpp:157] Top shape: 1 512 125 188 (12032000)
I0406 15:19:35.335549  6433 net.cpp:165] Memory required for data: 3198320052
I0406 15:19:35.335556  6433 layer_factory.hpp:77] Creating layer conv4_2
I0406 15:19:35.335572  6433 net.cpp:106] Creating Layer conv4_2
I0406 15:19:35.335580  6433 net.cpp:454] conv4_2 <- conv4_1
I0406 15:19:35.335592  6433 net.cpp:411] conv4_2 -> conv4_2
I0406 15:19:35.342506  6433 net.cpp:150] Setting up conv4_2
I0406 15:19:35.342542  6433 net.cpp:157] Top shape: 1 512 125 188 (12032000)
I0406 15:19:35.342548  6433 net.cpp:165] Memory required for data: 3246448052
I0406 15:19:35.342577  6433 layer_factory.hpp:77] Creating layer relu4_2
I0406 15:19:35.342593  6433 net.cpp:106] Creating Layer relu4_2
I0406 15:19:35.342602  6433 net.cpp:454] relu4_2 <- conv4_2
I0406 15:19:35.342612  6433 net.cpp:397] relu4_2 -> conv4_2 (in-place)
I0406 15:19:35.342628  6433 net.cpp:150] Setting up relu4_2
I0406 15:19:35.342636  6433 net.cpp:157] Top shape: 1 512 125 188 (12032000)
I0406 15:19:35.342643  6433 net.cpp:165] Memory required for data: 3294576052
I0406 15:19:35.342648  6433 layer_factory.hpp:77] Creating layer conv4_3
I0406 15:19:35.342666  6433 net.cpp:106] Creating Layer conv4_3
I0406 15:19:35.342672  6433 net.cpp:454] conv4_3 <- conv4_2
I0406 15:19:35.342685  6433 net.cpp:411] conv4_3 -> conv4_3
I0406 15:19:35.346969  6433 net.cpp:150] Setting up conv4_3
I0406 15:19:35.347007  6433 net.cpp:157] Top shape: 1 512 125 188 (12032000)
I0406 15:19:35.347013  6433 net.cpp:165] Memory required for data: 3342704052
I0406 15:19:35.347028  6433 layer_factory.hpp:77] Creating layer relu4_3
I0406 15:19:35.347044  6433 net.cpp:106] Creating Layer relu4_3
I0406 15:19:35.347061  6433 net.cpp:454] relu4_3 <- conv4_3
I0406 15:19:35.347076  6433 net.cpp:397] relu4_3 -> conv4_3 (in-place)
I0406 15:19:35.347090  6433 net.cpp:150] Setting up relu4_3
I0406 15:19:35.347101  6433 net.cpp:157] Top shape: 1 512 125 188 (12032000)
I0406 15:19:35.347111  6433 net.cpp:165] Memory required for data: 3390832052
I0406 15:19:35.347117  6433 layer_factory.hpp:77] Creating layer pool4
I0406 15:19:35.347128  6433 net.cpp:106] Creating Layer pool4
I0406 15:19:35.347136  6433 net.cpp:454] pool4 <- conv4_3
I0406 15:19:35.347146  6433 net.cpp:411] pool4 -> pool4
I0406 15:19:35.347190  6433 net.cpp:150] Setting up pool4
I0406 15:19:35.347200  6433 net.cpp:157] Top shape: 1 512 63 94 (3032064)
I0406 15:19:35.347206  6433 net.cpp:165] Memory required for data: 3402960308
I0406 15:19:35.347213  6433 layer_factory.hpp:77] Creating layer conv5_1
I0406 15:19:35.347231  6433 net.cpp:106] Creating Layer conv5_1
I0406 15:19:35.347237  6433 net.cpp:454] conv5_1 <- pool4
I0406 15:19:35.347249  6433 net.cpp:411] conv5_1 -> conv5_1
I0406 15:19:35.352020  6433 net.cpp:150] Setting up conv5_1
I0406 15:19:35.352053  6433 net.cpp:157] Top shape: 1 512 63 94 (3032064)
I0406 15:19:35.352059  6433 net.cpp:165] Memory required for data: 3415088564
I0406 15:19:35.352074  6433 layer_factory.hpp:77] Creating layer relu5_1
I0406 15:19:35.352088  6433 net.cpp:106] Creating Layer relu5_1
I0406 15:19:35.352097  6433 net.cpp:454] relu5_1 <- conv5_1
I0406 15:19:35.352108  6433 net.cpp:397] relu5_1 -> conv5_1 (in-place)
I0406 15:19:35.352120  6433 net.cpp:150] Setting up relu5_1
I0406 15:19:35.352129  6433 net.cpp:157] Top shape: 1 512 63 94 (3032064)
I0406 15:19:35.352135  6433 net.cpp:165] Memory required for data: 3427216820
I0406 15:19:35.352141  6433 layer_factory.hpp:77] Creating layer conv5_2
I0406 15:19:35.352157  6433 net.cpp:106] Creating Layer conv5_2
I0406 15:19:35.352164  6433 net.cpp:454] conv5_2 <- conv5_1
I0406 15:19:35.352176  6433 net.cpp:411] conv5_2 -> conv5_2
I0406 15:19:35.356597  6433 net.cpp:150] Setting up conv5_2
I0406 15:19:35.356636  6433 net.cpp:157] Top shape: 1 512 63 94 (3032064)
I0406 15:19:35.356642  6433 net.cpp:165] Memory required for data: 3439345076
I0406 15:19:35.356664  6433 layer_factory.hpp:77] Creating layer relu5_2
I0406 15:19:35.356681  6433 net.cpp:106] Creating Layer relu5_2
I0406 15:19:35.356693  6433 net.cpp:454] relu5_2 <- conv5_2
I0406 15:19:35.356705  6433 net.cpp:397] relu5_2 -> conv5_2 (in-place)
I0406 15:19:35.356719  6433 net.cpp:150] Setting up relu5_2
I0406 15:19:35.356729  6433 net.cpp:157] Top shape: 1 512 63 94 (3032064)
I0406 15:19:35.356737  6433 net.cpp:165] Memory required for data: 3451473332
I0406 15:19:35.356745  6433 layer_factory.hpp:77] Creating layer conv5_3
I0406 15:19:35.356760  6433 net.cpp:106] Creating Layer conv5_3
I0406 15:19:35.356767  6433 net.cpp:454] conv5_3 <- conv5_2
I0406 15:19:35.356776  6433 net.cpp:411] conv5_3 -> conv5_3
I0406 15:19:35.361059  6433 net.cpp:150] Setting up conv5_3
I0406 15:19:35.361096  6433 net.cpp:157] Top shape: 1 512 63 94 (3032064)
I0406 15:19:35.361104  6433 net.cpp:165] Memory required for data: 3463601588
I0406 15:19:35.361121  6433 layer_factory.hpp:77] Creating layer relu5_3
I0406 15:19:35.361142  6433 net.cpp:106] Creating Layer relu5_3
I0406 15:19:35.361157  6433 net.cpp:454] relu5_3 <- conv5_3
I0406 15:19:35.361171  6433 net.cpp:397] relu5_3 -> conv5_3 (in-place)
I0406 15:19:35.361187  6433 net.cpp:150] Setting up relu5_3
I0406 15:19:35.361198  6433 net.cpp:157] Top shape: 1 512 63 94 (3032064)
I0406 15:19:35.361207  6433 net.cpp:165] Memory required for data: 3475729844
I0406 15:19:35.361213  6433 layer_factory.hpp:77] Creating layer rpn_big_conv1
I0406 15:19:35.361241  6433 net.cpp:106] Creating Layer rpn_big_conv1
I0406 15:19:35.361248  6433 net.cpp:454] rpn_big_conv1 <- conv5_3
I0406 15:19:35.361261  6433 net.cpp:411] rpn_big_conv1 -> rpn_big_conv1
I0406 15:19:35.386230  6433 net.cpp:150] Setting up rpn_big_conv1
I0406 15:19:35.386266  6433 net.cpp:157] Top shape: 1 512 63 94 (3032064)
I0406 15:19:35.386273  6433 net.cpp:165] Memory required for data: 3487858100
I0406 15:19:35.386298  6433 layer_factory.hpp:77] Creating layer rpn_big_conv1_relu
I0406 15:19:35.386314  6433 net.cpp:106] Creating Layer rpn_big_conv1_relu
I0406 15:19:35.386327  6433 net.cpp:454] rpn_big_conv1_relu <- rpn_big_conv1
I0406 15:19:35.386345  6433 net.cpp:397] rpn_big_conv1_relu -> rpn_big_conv1 (in-place)
I0406 15:19:35.386363  6433 net.cpp:150] Setting up rpn_big_conv1_relu
I0406 15:19:35.386374  6433 net.cpp:157] Top shape: 1 512 63 94 (3032064)
I0406 15:19:35.386380  6433 net.cpp:165] Memory required for data: 3499986356
I0406 15:19:35.386389  6433 layer_factory.hpp:77] Creating layer rpn_big_conv2
I0406 15:19:35.386409  6433 net.cpp:106] Creating Layer rpn_big_conv2
I0406 15:19:35.386416  6433 net.cpp:454] rpn_big_conv2 <- rpn_big_conv1
I0406 15:19:35.386427  6433 net.cpp:411] rpn_big_conv2 -> rpn_big_conv2
I0406 15:19:35.411501  6433 net.cpp:150] Setting up rpn_big_conv2
I0406 15:19:35.411538  6433 net.cpp:157] Top shape: 1 512 63 94 (3032064)
I0406 15:19:35.411554  6433 net.cpp:165] Memory required for data: 3512114612
I0406 15:19:35.411572  6433 layer_factory.hpp:77] Creating layer rpn_big_conv2_relu
I0406 15:19:35.411595  6433 net.cpp:106] Creating Layer rpn_big_conv2_relu
I0406 15:19:35.411607  6433 net.cpp:454] rpn_big_conv2_relu <- rpn_big_conv2
I0406 15:19:35.411619  6433 net.cpp:397] rpn_big_conv2_relu -> rpn_big_conv2 (in-place)
I0406 15:19:35.411638  6433 net.cpp:150] Setting up rpn_big_conv2_relu
I0406 15:19:35.411648  6433 net.cpp:157] Top shape: 1 512 63 94 (3032064)
I0406 15:19:35.411653  6433 net.cpp:165] Memory required for data: 3524242868
I0406 15:19:35.411662  6433 layer_factory.hpp:77] Creating layer rpn_big_conv2_drop
I0406 15:19:35.411676  6433 net.cpp:106] Creating Layer rpn_big_conv2_drop
I0406 15:19:35.411684  6433 net.cpp:454] rpn_big_conv2_drop <- rpn_big_conv2
I0406 15:19:35.411694  6433 net.cpp:397] rpn_big_conv2_drop -> rpn_big_conv2 (in-place)
I0406 15:19:35.411734  6433 net.cpp:150] Setting up rpn_big_conv2_drop
I0406 15:19:35.411746  6433 net.cpp:157] Top shape: 1 512 63 94 (3032064)
I0406 15:19:35.411751  6433 net.cpp:165] Memory required for data: 3536371124
I0406 15:19:35.411759  6433 layer_factory.hpp:77] Creating layer rpn_big_conv2_rpn_big_conv2_drop_0_split
I0406 15:19:35.411772  6433 net.cpp:106] Creating Layer rpn_big_conv2_rpn_big_conv2_drop_0_split
I0406 15:19:35.411779  6433 net.cpp:454] rpn_big_conv2_rpn_big_conv2_drop_0_split <- rpn_big_conv2
I0406 15:19:35.411793  6433 net.cpp:411] rpn_big_conv2_rpn_big_conv2_drop_0_split -> rpn_big_conv2_rpn_big_conv2_drop_0_split_0
I0406 15:19:35.411805  6433 net.cpp:411] rpn_big_conv2_rpn_big_conv2_drop_0_split -> rpn_big_conv2_rpn_big_conv2_drop_0_split_1
I0406 15:19:35.411851  6433 net.cpp:150] Setting up rpn_big_conv2_rpn_big_conv2_drop_0_split
I0406 15:19:35.411861  6433 net.cpp:157] Top shape: 1 512 63 94 (3032064)
I0406 15:19:35.411870  6433 net.cpp:157] Top shape: 1 512 63 94 (3032064)
I0406 15:19:35.411875  6433 net.cpp:165] Memory required for data: 3560627636
I0406 15:19:35.411881  6433 layer_factory.hpp:77] Creating layer rpn_big_output_cls
I0406 15:19:35.411900  6433 net.cpp:106] Creating Layer rpn_big_output_cls
I0406 15:19:35.411906  6433 net.cpp:454] rpn_big_output_cls <- rpn_big_conv2_rpn_big_conv2_drop_0_split_0
I0406 15:19:35.411919  6433 net.cpp:411] rpn_big_output_cls -> rpn_big_output_cls
I0406 15:19:35.431274  6433 net.cpp:150] Setting up rpn_big_output_cls
I0406 15:19:35.431305  6433 net.cpp:157] Top shape: 1 384 63 94 (2274048)
I0406 15:19:35.431313  6433 net.cpp:165] Memory required for data: 3569723828
I0406 15:19:35.431327  6433 layer_factory.hpp:77] Creating layer rpn_big_output_cls_relu
I0406 15:19:35.431344  6433 net.cpp:106] Creating Layer rpn_big_output_cls_relu
I0406 15:19:35.431354  6433 net.cpp:454] rpn_big_output_cls_relu <- rpn_big_output_cls
I0406 15:19:35.431370  6433 net.cpp:397] rpn_big_output_cls_relu -> rpn_big_output_cls (in-place)
I0406 15:19:35.431386  6433 net.cpp:150] Setting up rpn_big_output_cls_relu
I0406 15:19:35.431403  6433 net.cpp:157] Top shape: 1 384 63 94 (2274048)
I0406 15:19:35.431409  6433 net.cpp:165] Memory required for data: 3578820020
I0406 15:19:35.431416  6433 layer_factory.hpp:77] Creating layer rpn_big_cls_score
I0406 15:19:35.431435  6433 net.cpp:106] Creating Layer rpn_big_cls_score
I0406 15:19:35.431447  6433 net.cpp:454] rpn_big_cls_score <- rpn_big_output_cls
I0406 15:19:35.431458  6433 net.cpp:411] rpn_big_cls_score -> rpn_big_cls_score
I0406 15:19:35.433905  6433 net.cpp:150] Setting up rpn_big_cls_score
I0406 15:19:35.433955  6433 net.cpp:157] Top shape: 1 52 61 92 (291824)
I0406 15:19:35.433962  6433 net.cpp:165] Memory required for data: 3579987316
I0406 15:19:35.433984  6433 layer_factory.hpp:77] Creating layer rpn_big_cls_score_rpn_big_cls_score_0_split
I0406 15:19:35.434015  6433 net.cpp:106] Creating Layer rpn_big_cls_score_rpn_big_cls_score_0_split
I0406 15:19:35.434037  6433 net.cpp:454] rpn_big_cls_score_rpn_big_cls_score_0_split <- rpn_big_cls_score
I0406 15:19:35.434062  6433 net.cpp:411] rpn_big_cls_score_rpn_big_cls_score_0_split -> rpn_big_cls_score_rpn_big_cls_score_0_split_0
I0406 15:19:35.434092  6433 net.cpp:411] rpn_big_cls_score_rpn_big_cls_score_0_split -> rpn_big_cls_score_rpn_big_cls_score_0_split_1
I0406 15:19:35.434151  6433 net.cpp:150] Setting up rpn_big_cls_score_rpn_big_cls_score_0_split
I0406 15:19:35.434164  6433 net.cpp:157] Top shape: 1 52 61 92 (291824)
I0406 15:19:35.434170  6433 net.cpp:157] Top shape: 1 52 61 92 (291824)
I0406 15:19:35.434175  6433 net.cpp:165] Memory required for data: 3582321908
I0406 15:19:35.434180  6433 layer_factory.hpp:77] Creating layer rpn_big_cls_score_reshape
I0406 15:19:35.434193  6433 net.cpp:106] Creating Layer rpn_big_cls_score_reshape
I0406 15:19:35.434201  6433 net.cpp:454] rpn_big_cls_score_reshape <- rpn_big_cls_score_rpn_big_cls_score_0_split_0
I0406 15:19:35.434209  6433 net.cpp:411] rpn_big_cls_score_reshape -> rpn_big_cls_score_reshape
I0406 15:19:35.434262  6433 net.cpp:150] Setting up rpn_big_cls_score_reshape
I0406 15:19:35.434286  6433 net.cpp:157] Top shape: 1 2 1586 92 (291824)
I0406 15:19:35.434294  6433 net.cpp:165] Memory required for data: 3583489204
I0406 15:19:35.434300  6433 layer_factory.hpp:77] Creating layer rpn_big_cls_score_reshape_rpn_big_cls_score_reshape_0_split
I0406 15:19:35.434310  6433 net.cpp:106] Creating Layer rpn_big_cls_score_reshape_rpn_big_cls_score_reshape_0_split
I0406 15:19:35.434320  6433 net.cpp:454] rpn_big_cls_score_reshape_rpn_big_cls_score_reshape_0_split <- rpn_big_cls_score_reshape
I0406 15:19:35.434330  6433 net.cpp:411] rpn_big_cls_score_reshape_rpn_big_cls_score_reshape_0_split -> rpn_big_cls_score_reshape_rpn_big_cls_score_reshape_0_split_0
I0406 15:19:35.434360  6433 net.cpp:411] rpn_big_cls_score_reshape_rpn_big_cls_score_reshape_0_split -> rpn_big_cls_score_reshape_rpn_big_cls_score_reshape_0_split_1
I0406 15:19:35.434424  6433 net.cpp:150] Setting up rpn_big_cls_score_reshape_rpn_big_cls_score_reshape_0_split
I0406 15:19:35.434435  6433 net.cpp:157] Top shape: 1 2 1586 92 (291824)
I0406 15:19:35.434444  6433 net.cpp:157] Top shape: 1 2 1586 92 (291824)
I0406 15:19:35.434450  6433 net.cpp:165] Memory required for data: 3585823796
I0406 15:19:35.434456  6433 layer_factory.hpp:77] Creating layer rpn_big_cls_prob
I0406 15:19:35.434468  6433 net.cpp:106] Creating Layer rpn_big_cls_prob
I0406 15:19:35.434473  6433 net.cpp:454] rpn_big_cls_prob <- rpn_big_cls_score_reshape_rpn_big_cls_score_reshape_0_split_0
I0406 15:19:35.434485  6433 net.cpp:411] rpn_big_cls_prob -> rpn_big_cls_prob
I0406 15:19:35.434551  6433 net.cpp:150] Setting up rpn_big_cls_prob
I0406 15:19:35.434561  6433 net.cpp:157] Top shape: 1 2 1586 92 (291824)
I0406 15:19:35.434567  6433 net.cpp:165] Memory required for data: 3586991092
I0406 15:19:35.434573  6433 layer_factory.hpp:77] Creating layer rpn_big_cls_prob_reshape
I0406 15:19:35.434583  6433 net.cpp:106] Creating Layer rpn_big_cls_prob_reshape
I0406 15:19:35.434590  6433 net.cpp:454] rpn_big_cls_prob_reshape <- rpn_big_cls_prob
I0406 15:19:35.434599  6433 net.cpp:411] rpn_big_cls_prob_reshape -> rpn_big_cls_prob_reshape
I0406 15:19:35.434633  6433 net.cpp:150] Setting up rpn_big_cls_prob_reshape
I0406 15:19:35.434643  6433 net.cpp:157] Top shape: 1 52 61 92 (291824)
I0406 15:19:35.434648  6433 net.cpp:165] Memory required for data: 3588158388
I0406 15:19:35.434655  6433 layer_factory.hpp:77] Creating layer rpn_big_anchor_target
I0406 15:19:35.436028  6433 net.cpp:106] Creating Layer rpn_big_anchor_target
I0406 15:19:35.436043  6433 net.cpp:454] rpn_big_anchor_target <- rpn_big_cls_score_rpn_big_cls_score_0_split_1
I0406 15:19:35.436053  6433 net.cpp:454] rpn_big_anchor_target <- input_gt_boxes
I0406 15:19:35.436061  6433 net.cpp:454] rpn_big_anchor_target <- input_ignored_boxes
I0406 15:19:35.436069  6433 net.cpp:454] rpn_big_anchor_target <- input_im_info
I0406 15:19:35.436075  6433 net.cpp:454] rpn_big_anchor_target <- input_data_input_0_split_1
I0406 15:19:35.436082  6433 net.cpp:454] rpn_big_anchor_target <- rpn_big_cls_prob_reshape
I0406 15:19:35.436094  6433 net.cpp:411] rpn_big_anchor_target -> rpn_big_anchor_target_labels
I0406 15:19:35.436110  6433 net.cpp:411] rpn_big_anchor_target -> rpn_big_anchor_target_bbox_targets
I0406 15:19:35.436123  6433 net.cpp:411] rpn_big_anchor_target -> rpn_big_anchor_target_inside_weights
I0406 15:19:35.436141  6433 net.cpp:411] rpn_big_anchor_target -> rpn_big_anchor_target_outside_weights
I0406 15:19:35.441092  6433 net.cpp:150] Setting up rpn_big_anchor_target
I0406 15:19:35.441118  6433 net.cpp:157] Top shape: 1 1 1586 92 (145912)
I0406 15:19:35.441125  6433 net.cpp:157] Top shape: 1 104 61 92 (583648)
I0406 15:19:35.441140  6433 net.cpp:157] Top shape: 1 104 61 92 (583648)
I0406 15:19:35.441148  6433 net.cpp:157] Top shape: 1 104 61 92 (583648)
I0406 15:19:35.441153  6433 net.cpp:165] Memory required for data: 3595745812
I0406 15:19:35.441161  6433 layer_factory.hpp:77] Creating layer rpn_big_loss_cls
I0406 15:19:35.441177  6433 net.cpp:106] Creating Layer rpn_big_loss_cls
I0406 15:19:35.441187  6433 net.cpp:454] rpn_big_loss_cls <- rpn_big_cls_score_reshape_rpn_big_cls_score_reshape_0_split_1
I0406 15:19:35.441198  6433 net.cpp:454] rpn_big_loss_cls <- rpn_big_anchor_target_labels
I0406 15:19:35.441210  6433 net.cpp:411] rpn_big_loss_cls -> rpn_big_loss_cls
I0406 15:19:35.441237  6433 layer_factory.hpp:77] Creating layer rpn_big_loss_cls
I0406 15:19:35.441877  6433 net.cpp:150] Setting up rpn_big_loss_cls
I0406 15:19:35.441892  6433 net.cpp:157] Top shape: (1)
I0406 15:19:35.441897  6433 net.cpp:160]     with loss weight 1
I0406 15:19:35.441922  6433 net.cpp:165] Memory required for data: 3595745816
I0406 15:19:35.441931  6433 layer_factory.hpp:77] Creating layer rpn_big_output_box
I0406 15:19:35.441948  6433 net.cpp:106] Creating Layer rpn_big_output_box
I0406 15:19:35.441956  6433 net.cpp:454] rpn_big_output_box <- rpn_big_conv2_rpn_big_conv2_drop_0_split_1
I0406 15:19:35.441970  6433 net.cpp:411] rpn_big_output_box -> rpn_big_output_box
I0406 15:19:35.463632  6433 net.cpp:150] Setting up rpn_big_output_box
I0406 15:19:35.463666  6433 net.cpp:157] Top shape: 1 384 63 94 (2274048)
I0406 15:19:35.463672  6433 net.cpp:165] Memory required for data: 3604842008
I0406 15:19:35.463693  6433 layer_factory.hpp:77] Creating layer rpn_big_output_box_relu
I0406 15:19:35.463711  6433 net.cpp:106] Creating Layer rpn_big_output_box_relu
I0406 15:19:35.463722  6433 net.cpp:454] rpn_big_output_box_relu <- rpn_big_output_box
I0406 15:19:35.463737  6433 net.cpp:397] rpn_big_output_box_relu -> rpn_big_output_box (in-place)
I0406 15:19:35.463755  6433 net.cpp:150] Setting up rpn_big_output_box_relu
I0406 15:19:35.463764  6433 net.cpp:157] Top shape: 1 384 63 94 (2274048)
I0406 15:19:35.463770  6433 net.cpp:165] Memory required for data: 3613938200
I0406 15:19:35.463776  6433 layer_factory.hpp:77] Creating layer rpn_big_bbox_pred
I0406 15:19:35.463793  6433 net.cpp:106] Creating Layer rpn_big_bbox_pred
I0406 15:19:35.463799  6433 net.cpp:454] rpn_big_bbox_pred <- rpn_big_output_box
I0406 15:19:35.463812  6433 net.cpp:411] rpn_big_bbox_pred -> rpn_big_bbox_pred
I0406 15:19:35.467908  6433 net.cpp:150] Setting up rpn_big_bbox_pred
I0406 15:19:35.467931  6433 net.cpp:157] Top shape: 1 104 61 92 (583648)
I0406 15:19:35.467936  6433 net.cpp:165] Memory required for data: 3616272792
I0406 15:19:35.467949  6433 layer_factory.hpp:77] Creating layer rpn_big_loss_bbox
I0406 15:19:35.468365  6433 net.cpp:106] Creating Layer rpn_big_loss_bbox
I0406 15:19:35.468379  6433 net.cpp:454] rpn_big_loss_bbox <- rpn_big_bbox_pred
I0406 15:19:35.468389  6433 net.cpp:454] rpn_big_loss_bbox <- rpn_big_anchor_target_bbox_targets
I0406 15:19:35.468396  6433 net.cpp:454] rpn_big_loss_bbox <- rpn_big_anchor_target_inside_weights
I0406 15:19:35.468420  6433 net.cpp:454] rpn_big_loss_bbox <- rpn_big_anchor_target_outside_weights
I0406 15:19:35.468433  6433 net.cpp:411] rpn_big_loss_bbox -> rpn_big_loss_bbox
I0406 15:19:35.470656  6433 net.cpp:150] Setting up rpn_big_loss_bbox
I0406 15:19:35.470693  6433 net.cpp:157] Top shape: 1 (1)
I0406 15:19:35.470698  6433 net.cpp:160]     with loss weight 1
I0406 15:19:35.470715  6433 net.cpp:165] Memory required for data: 3616272796
I0406 15:19:35.470723  6433 net.cpp:226] rpn_big_loss_bbox needs backward computation.
I0406 15:19:35.470736  6433 net.cpp:226] rpn_big_bbox_pred needs backward computation.
I0406 15:19:35.470743  6433 net.cpp:226] rpn_big_output_box_relu needs backward computation.
…
