…
I0413 16:05:04.132061  7739 solver.cpp:48] Initializing solver from parameters: 
base_lr: 0.001
display: 20
lr_policy: "multistep"
gamma: 0.1
momentum: 0.9
weight_decay: 0.0005
snapshot: 0
snapshot_prefix: "faces_example"
net_param {
  name: "GeneratedModel_13_04_2017_16_05"
  layer {
    name: "input"
    type: "Python"
    top: "input_data"
    top: "input_im_info"
    top: "input_gt_boxes"
    top: "input_ignored_boxes"
    python_param {
      module: "layers.roi_data_layer"
      layer: "RoIDataLayer"
      param_str: "{\"num_classes\": 2}"
    }
  }
  layer {
    name: "conv1_1"
    type: "Convolution"
    bottom: "input_data"
    top: "conv1_1"
    param {
      lr_mult: 0
      decay_mult: 0
    }
    param {
      lr_mult: 0
      decay_mult: 0
    }
    convolution_param {
      num_output: 64
      pad: 1
      kernel_size: 3
    }
  }
  layer {
    name: "relu1_1"
    type: "ReLU"
    bottom: "conv1_1"
    top: "conv1_1"
  }
  layer {
    name: "conv1_2"
    type: "Convolution"
    bottom: "conv1_1"
    top: "conv1_2"
    param {
      lr_mult: 0
      decay_mult: 0
    }
    param {
      lr_mult: 0
      decay_mult: 0
    }
    convolution_param {
      num_output: 64
      pad: 1
      kernel_size: 3
    }
  }
  layer {
    name: "relu1_2"
    type: "ReLU"
    bottom: "conv1_2"
    top: "conv1_2"
  }
  layer {
    name: "pool1"
    type: "Pooling"
    bottom: "conv1_2"
    top: "pool1"
    pooling_param {
      pool: MAX
      kernel_size: 2
      stride: 2
    }
  }
  layer {
    name: "conv2_1"
    type: "Convolution"
    bottom: "pool1"
    top: "conv2_1"
    param {
      lr_mult: 0
      decay_mult: 0
    }
    param {
      lr_mult: 0
      decay_mult: 0
    }
    convolution_param {
      num_output: 128
      pad: 1
      kernel_size: 3
    }
  }
  layer {
    name: "relu2_1"
    type: "ReLU"
    bottom: "conv2_1"
    top: "conv2_1"
  }
  layer {
    name: "conv2_2"
    type: "Convolution"
    bottom: "conv2_1"
    top: "conv2_2"
    param {
      lr_mult: 0
      decay_mult: 0
    }
    param {
      lr_mult: 0
      decay_mult: 0
    }
    convolution_param {
      num_output: 128
      pad: 1
      kernel_size: 3
    }
  }
  layer {
    name: "relu2_2"
    type: "ReLU"
    bottom: "conv2_2"
    top: "conv2_2"
  }
  layer {
    name: "pool2"
    type: "Pooling"
    bottom: "conv2_2"
    top: "pool2"
    pooling_param {
      pool: MAX
      kernel_size: 2
      stride: 2
    }
  }
  layer {
    name: "conv3_1"
    type: "Convolution"
    bottom: "pool2"
    top: "conv3_1"
    param {
      lr_mult: 1
    }
    param {
      lr_mult: 2
    }
    convolution_param {
      num_output: 256
      pad: 1
      kernel_size: 3
    }
  }
  layer {
    name: "relu3_1"
    type: "ReLU"
    bottom: "conv3_1"
    top: "conv3_1"
  }
  layer {
    name: "conv3_2"
    type: "Convolution"
    bottom: "conv3_1"
    top: "conv3_2"
    param {
      lr_mult: 1
    }
    param {
      lr_mult: 2
    }
    convolution_param {
      num_output: 256
      pad: 1
      kernel_size: 3
    }
  }
  layer {
    name: "relu3_2"
    type: "ReLU"
    bottom: "conv3_2"
    top: "conv3_2"
  }
  layer {
    name: "conv3_3"
    type: "Convolution"
    bottom: "conv3_2"
    top: "conv3_3"
    param {
      lr_mult: 1
    }
    param {
      lr_mult: 2
    }
    convolution_param {
      num_output: 256
      pad: 1
      kernel_size: 3
    }
  }
  layer {
    name: "relu3_3"
    type: "ReLU"
    bottom: "conv3_3"
    top: "conv3_3"
  }
  layer {
    name: "pool3"
    type: "Pooling"
    bottom: "conv3_3"
    top: "pool3"
    pooling_param {
      pool: MAX
      kernel_size: 2
      stride: 2
    }
  }
  layer {
    name: "conv4_1"
    type: "Convolution"
    bottom: "pool3"
    top: "conv4_1"
    param {
      lr_mult: 1
    }
    param {
      lr_mult: 2
    }
    convolution_param {
      num_output: 512
      pad: 1
      kernel_size: 3
    }
  }
  layer {
    name: "relu4_1"
    type: "ReLU"
    bottom: "conv4_1"
    top: "conv4_1"
  }
  layer {
    name: "conv4_2"
    type: "Convolution"
    bottom: "conv4_1"
    top: "conv4_2"
    param {
      lr_mult: 1
    }
    param {
      lr_mult: 2
    }
    convolution_param {
      num_output: 512
      pad: 1
      kernel_size: 3
    }
  }
  layer {
    name: "relu4_2"
    type: "ReLU"
    bottom: "conv4_2"
    top: "conv4_2"
  }
  layer {
    name: "conv4_3"
    type: "Convolution"
    bottom: "conv4_2"
    top: "conv4_3"
    param {
      lr_mult: 1
    }
    param {
      lr_mult: 2
    }
    convolution_param {
      num_output: 512
      pad: 1
      kernel_size: 3
    }
  }
  layer {
    name: "relu4_3"
    type: "ReLU"
    bottom: "conv4_3"
    top: "conv4_3"
  }
  layer {
    name: "pool4"
    type: "Pooling"
    bottom: "conv4_3"
    top: "pool4"
    pooling_param {
      pool: MAX
      kernel_size: 2
      stride: 2
    }
  }
  layer {
    name: "conv5_1"
    type: "Convolution"
    bottom: "pool4"
    top: "conv5_1"
    param {
      lr_mult: 1
    }
    param {
      lr_mult: 2
    }
    convolution_param {
      num_output: 512
      pad: 1
      kernel_size: 3
    }
  }
  layer {
    name: "relu5_1"
    type: "ReLU"
    bottom: "conv5_1"
    top: "conv5_1"
  }
  layer {
    name: "conv5_2"
    type: "Convolution"
    bottom: "conv5_1"
    top: "conv5_2"
    param {
      lr_mult: 1
    }
    param {
      lr_mult: 2
    }
    convolution_param {
      num_output: 512
      pad: 1
      kernel_size: 3
    }
  }
  layer {
    name: "relu5_2"
    type: "ReLU"
    bottom: "conv5_2"
    top: "conv5_2"
  }
  layer {
    name: "conv5_3"
    type: "Convolution"
    bottom: "conv5_2"
    top: "conv5_3"
    param {
      lr_mult: 1
    }
    param {
      lr_mult: 2
    }
    convolution_param {
      num_output: 512
      pad: 1
      kernel_size: 3
    }
  }
  layer {
    name: "relu5_3"
    type: "ReLU"
    bottom: "conv5_3"
    top: "conv5_3"
  }
  layer {
    name: "rpn_big_conv1"
    type: "Convolution"
    bottom: "conv5_3"
    top: "rpn_big_conv1"
    param {
      lr_mult: 1
    }
    param {
      lr_mult: 2
    }
    convolution_param {
      num_output: 512
      pad: 1
      kernel_size: 3
      stride: 1
      weight_filler {
        type: "gaussian"
        mean: 0
        std: 0.01
      }
      bias_filler {
        type: "constant"
      }
    }
  }
  layer {
    name: "rpn_big_conv1_relu"
    type: "ReLU"
    bottom: "rpn_big_conv1"
    top: "rpn_big_conv1"
    relu_param {
      negative_slope: 0
    }
  }
  layer {
    name: "rpn_big_conv2"
    type: "Convolution"
    bottom: "rpn_big_conv1"
    top: "rpn_big_conv2"
    param {
      lr_mult: 1
    }
    param {
      lr_mult: 2
    }
    convolution_param {
      num_output: 512
      pad: 1
      kernel_size: 3
      stride: 1
      weight_filler {
        type: "gaussian"
        mean: 0
        std: 0.01
      }
      bias_filler {
        type: "constant"
      }
    }
  }
  layer {
    name: "rpn_big_conv2_relu"
    type: "ReLU"
    bottom: "rpn_big_conv2"
    top: "rpn_big_conv2"
    relu_param {
      negative_slope: 0
    }
  }
  layer {
    name: "rpn_big_conv2_drop"
    type: "Dropout"
    bottom: "rpn_big_conv2"
    top: "rpn_big_conv2"
    dropout_param {
      dropout_ratio: 0.3
    }
  }
  layer {
    name: "rpn_big_output_cls"
    type: "Convolution"
    bottom: "rpn_big_conv2"
    top: "rpn_big_output_cls"
    param {
      lr_mult: 1
    }
    param {
      lr_mult: 2
    }
    convolution_param {
      num_output: 384
      pad: 1
      kernel_size: 3
      stride: 1
      weight_filler {
        type: "gaussian"
        mean: 0
        std: 0.01
      }
      bias_filler {
        type: "constant"
      }
    }
  }
  layer {
    name: "rpn_big_output_cls_relu"
    type: "ReLU"
    bottom: "rpn_big_output_cls"
    top: "rpn_big_output_cls"
    relu_param {
      negative_slope: 0
    }
  }
  layer {
    name: "rpn_big_cls_score"
    type: "Convolution"
    bottom: "rpn_big_output_cls"
    top: "rpn_big_cls_score"
    param {
      lr_mult: 1
    }
    param {
      lr_mult: 2
    }
    convolution_param {
      num_output: 52
      pad: 0
      kernel_size: 3
      stride: 1
      weight_filler {
        type: "gaussian"
        mean: 0
        std: 0.01
      }
      bias_filler {
        type: "constant"
      }
    }
  }
  layer {
    name: "rpn_big_cls_score_reshape"
    type: "Reshape"
    bottom: "rpn_big_cls_score"
    top: "rpn_big_cls_score_reshape"
    reshape_param {
      shape {
        dim: 0
        dim: 2
        dim: -1
        dim: 0
      }
    }
  }
  layer {
    name: "rpn_big_cls_prob"
    type: "Softmax"
    bottom: "rpn_big_cls_score_reshape"
    top: "rpn_big_cls_prob"
  }
  layer {
    name: "rpn_big_cls_prob_reshape"
    type: "Reshape"
    bottom: "rpn_big_cls_prob"
    top: "rpn_big_cls_prob_reshape"
    reshape_param {
      shape {
        dim: 0
        dim: 52
        dim: -1
        dim: 0
      }
    }
  }
  layer {
    name: "rpn_big_anchor_target"
    type: "Python"
    bottom: "rpn_big_cls_score"
    bottom: "input_gt_boxes"
    bottom: "input_ignored_boxes"
    bottom: "input_im_info"
    bottom: "input_data"
    bottom: "rpn_big_cls_prob_reshape"
    top: "rpn_big_anchor_target_labels"
    top: "rpn_big_anchor_target_bbox_targets"
    top: "rpn_big_anchor_target_inside_weights"
    top: "rpn_big_anchor_target_outside_weights"
    python_param {
      module: "rpn.anchor_target_layer"
      layer: "AnchorTargetLayer"
      param_str: "{\"name\": \"rpn_big\", \"anchor_shift_num_xy\": [[2, 2], [2, 2], [2, 2], [2, 2], [1, 1], [1, 1], [1, 1], [1, 1], [1, 1], [1, 1], [1, 1], [1, 1], [1, 1], [1, 1]], \"anchor_scales\": [2.5, 3.025, 3.66025, 4.4289024999999995, 5.358972025, 6.484356150249999, 7.846070941802498, 9.493745839581022, 11.487432465893036, 13.899793283730574, 16.818749873313998, 20.350687346709933, 24.62433168951902, 29.795441344318014], \"positive_overlap\": 0.6, \"square_targets\": true, \"tn_fraction\": 0.2, \"fg_fraction\": 0.5, \"negative_overlap\": 0.4, \"batchsize\": 256, \"feat_stride\": 16, \"num_classes\": 1, \"anchor_ratios\": [1.0]}"
    }
  }
  layer {
    name: "rpn_big_loss_cls"
    type: "SoftmaxWithLoss"
    bottom: "rpn_big_cls_score_reshape"
    bottom: "rpn_big_anchor_target_labels"
    top: "rpn_big_loss_cls"
    loss_weight: 1
    propagate_down: true
    propagate_down: false
    loss_param {
      ignore_label: -1
      normalization: VALID
    }
  }
  layer {
    name: "rpn_big_output_box"
    type: "Convolution"
    bottom: "rpn_big_conv2"
    top: "rpn_big_output_box"
    param {
      lr_mult: 1
    }
    param {
      lr_mult: 2
    }
    convolution_param {
      num_output: 384
      pad: 1
      kernel_size: 3
      stride: 1
      weight_filler {
        type: "gaussian"
        mean: 0
        std: 0.01
      }
      bias_filler {
        type: "constant"
      }
    }
  }
  layer {
    name: "rpn_big_output_box_relu"
    type: "ReLU"
    bottom: "rpn_big_output_box"
    top: "rpn_big_output_box"
    relu_param {
      negative_slope: 0
    }
  }
  layer {
    name: "rpn_big_bbox_pred"
    type: "Convolution"
    bottom: "rpn_big_output_box"
    top: "rpn_big_bbox_pred"
    param {
      lr_mult: 1
    }
    param {
      lr_mult: 2
    }
    convolution_param {
      num_output: 104
      pad: 0
      kernel_size: 3
      stride: 1
      weight_filler {
        type: "gaussian"
        mean: 0
        std: 0.01
      }
      bias_filler {
        type: "constant"
      }
    }
  }
  layer {
    name: "rpn_big_loss_bbox"
    type: "Python"
    bottom: "rpn_big_bbox_pred"
    bottom: "rpn_big_anchor_target_bbox_targets"
    bottom: "rpn_big_anchor_target_inside_weights"
    bottom: "rpn_big_anchor_target_outside_weights"
    top: "rpn_big_loss_bbox"
    loss_weight: 1
    python_param {
      module: "layers.smooth_l1_loss"
      layer: "SmoothL1LossLayer"
      param_str: "{\"sigma\": 3}"
    }
  }
  layer {
    name: "proposal"
    type: "Python"
    bottom: "rpn_big_cls_prob_reshape"
    bottom: "rpn_big_bbox_pred"
    bottom: "input_im_info"
    top: "rpn_rois"
    python_param {
      module: "rpn.proposal_layer"
      layer: "ProposalLayer"
      param_str: "\'feat_stride\': 16; \'scales\': !!python/tuple [4, 8, 16, 32]"
    }
  }
}
average_loss: 100
stepvalue: 70000
stepvalue: 120000
iter_size: 2
I0413 16:05:04.132159  7739 solver.cpp:86] Creating training net specified in net_param.
I0413 16:05:04.132529  7739 net.cpp:58] Initializing net from parameters: 
name: "GeneratedModel_13_04_2017_16_05"
state {
  phase: TRAIN
}
layer {
  name: "input"
  type: "Python"
  top: "input_data"
  top: "input_im_info"
  top: "input_gt_boxes"
  top: "input_ignored_boxes"
  python_param {
    module: "layers.roi_data_layer"
    layer: "RoIDataLayer"
    param_str: "{\"num_classes\": 2}"
  }
}
layer {
  name: "conv1_1"
  type: "Convolution"
  bottom: "input_data"
  top: "conv1_1"
  param {
    lr_mult: 0
    decay_mult: 0
  }
  param {
    lr_mult: 0
    decay_mult: 0
  }
  convolution_param {
    num_output: 64
    pad: 1
    kernel_size: 3
  }
}
layer {
  name: "relu1_1"
  type: "ReLU"
  bottom: "conv1_1"
  top: "conv1_1"
}
layer {
  name: "conv1_2"
  type: "Convolution"
  bottom: "conv1_1"
  top: "conv1_2"
  param {
    lr_mult: 0
    decay_mult: 0
  }
  param {
    lr_mult: 0
    decay_mult: 0
  }
  convolution_param {
    num_output: 64
    pad: 1
    kernel_size: 3
  }
}
layer {
  name: "relu1_2"
  type: "ReLU"
  bottom: "conv1_2"
  top: "conv1_2"
}
layer {
  name: "pool1"
  type: "Pooling"
  bottom: "conv1_2"
  top: "pool1"
  pooling_param {
    pool: MAX
    kernel_size: 2
    stride: 2
  }
}
layer {
  name: "conv2_1"
  type: "Convolution"
  bottom: "pool1"
  top: "conv2_1"
  param {
    lr_mult: 0
    decay_mult: 0
  }
  param {
    lr_mult: 0
    decay_mult: 0
  }
  convolution_param {
    num_output: 128
    pad: 1
    kernel_size: 3
  }
}
layer {
  name: "relu2_1"
  type: "ReLU"
  bottom: "conv2_1"
  top: "conv2_1"
}
layer {
  name: "conv2_2"
  type: "Convolution"
  bottom: "conv2_1"
  top: "conv2_2"
  param {
    lr_mult: 0
    decay_mult: 0
  }
  param {
    lr_mult: 0
    decay_mult: 0
  }
  convolution_param {
    num_output: 128
    pad: 1
    kernel_size: 3
  }
}
layer {
  name: "relu2_2"
  type: "ReLU"
  bottom: "conv2_2"
  top: "conv2_2"
}
layer {
  name: "pool2"
  type: "Pooling"
  bottom: "conv2_2"
  top: "pool2"
  pooling_param {
    pool: MAX
    kernel_size: 2
    stride: 2
  }
}
layer {
  name: "conv3_1"
  type: "Convolution"
  bottom: "pool2"
  top: "conv3_1"
  param {
    lr_mult: 1
  }
  param {
    lr_mult: 2
  }
  convolution_param {
    num_output: 256
    pad: 1
    kernel_size: 3
  }
}
layer {
  name: "relu3_1"
  type: "ReLU"
  bottom: "conv3_1"
  top: "conv3_1"
}
layer {
  name: "conv3_2"
  type: "Convolution"
  bottom: "conv3_1"
  top: "conv3_2"
  param {
    lr_mult: 1
  }
  param {
    lr_mult: 2
  }
  convolution_param {
    num_output: 256
    pad: 1
    kernel_size: 3
  }
}
layer {
  name: "relu3_2"
  type: "ReLU"
  bottom: "conv3_2"
  top: "conv3_2"
}
layer {
  name: "conv3_3"
  type: "Convolution"
  bottom: "conv3_2"
  top: "conv3_3"
  param {
    lr_mult: 1
  }
  param {
    lr_mult: 2
  }
  convolution_param {
    num_output: 256
    pad: 1
    kernel_size: 3
  }
}
layer {
  name: "relu3_3"
  type: "ReLU"
  bottom: "conv3_3"
  top: "conv3_3"
}
layer {
  name: "pool3"
  type: "Pooling"
  bottom: "conv3_3"
  top: "pool3"
  pooling_param {
    pool: MAX
    kernel_size: 2
    stride: 2
  }
}
layer {
  name: "conv4_1"
  type: "Convolution"
  bottom: "pool3"
  top: "conv4_1"
  param {
    lr_mult: 1
  }
  param {
    lr_mult: 2
  }
  convolution_param {
    num_output: 512
    pad: 1
    kernel_size: 3
  }
}
layer {
  name: "relu4_1"
  type: "ReLU"
  bottom: "conv4_1"
  top: "conv4_1"
}
layer {
  name: "conv4_2"
  type: "Convolution"
  bottom: "conv4_1"
  top: "conv4_2"
  param {
    lr_mult: 1
  }
  param {
    lr_mult: 2
  }
  convolution_param {
    num_output: 512
    pad: 1
    kernel_size: 3
  }
}
layer {
  name: "relu4_2"
  type: "ReLU"
  bottom: "conv4_2"
  top: "conv4_2"
}
layer {
  name: "conv4_3"
  type: "Convolution"
  bottom: "conv4_2"
  top: "conv4_3"
  param {
    lr_mult: 1
  }
  param {
    lr_mult: 2
  }
  convolution_param {
    num_output: 512
    pad: 1
    kernel_size: 3
  }
}
layer {
  name: "relu4_3"
  type: "ReLU"
  bottom: "conv4_3"
  top: "conv4_3"
}
layer {
  name: "pool4"
  type: "Pooling"
  bottom: "conv4_3"
  top: "pool4"
  pooling_param {
    pool: MAX
    kernel_size: 2
    stride: 2
  }
}
layer {
  name: "conv5_1"
  type: "Convolution"
  bottom: "pool4"
  top: "conv5_1"
  param {
    lr_mult: 1
  }
  param {
    lr_mult: 2
  }
  convolution_param {
    num_output: 512
    pad: 1
    kernel_size: 3
  }
}
layer {
  name: "relu5_1"
  type: "ReLU"
  bottom: "conv5_1"
  top: "conv5_1"
}
layer {
  name: "conv5_2"
  type: "Convolution"
  bottom: "conv5_1"
  top: "conv5_2"
  param {
    lr_mult: 1
  }
  param {
    lr_mult: 2
  }
  convolution_param {
    num_output: 512
    pad: 1
    kernel_size: 3
  }
}
layer {
  name: "relu5_2"
  type: "ReLU"
  bottom: "conv5_2"
  top: "conv5_2"
}
layer {
  name: "conv5_3"
  type: "Convolution"
  bottom: "conv5_2"
  top: "conv5_3"
  param {
    lr_mult: 1
  }
  param {
    lr_mult: 2
  }
  convolution_param {
    num_output: 512
    pad: 1
    kernel_size: 3
  }
}
layer {
  name: "relu5_3"
  type: "ReLU"
  bottom: "conv5_3"
  top: "conv5_3"
}
layer {
  name: "rpn_big_conv1"
  type: "Convolution"
  bottom: "conv5_3"
  top: "rpn_big_conv1"
  param {
    lr_mult: 1
  }
  param {
    lr_mult: 2
  }
  convolution_param {
    num_output: 512
    pad: 1
    kernel_size: 3
    stride: 1
    weight_filler {
      type: "gaussian"
      mean: 0
      std: 0.01
    }
    bias_filler {
      type: "constant"
    }
  }
}
layer {
  name: "rpn_big_conv1_relu"
  type: "ReLU"
  bottom: "rpn_big_conv1"
  top: "rpn_big_conv1"
  relu_param {
    negative_slope: 0
  }
}
layer {
  name: "rpn_big_conv2"
  type: "Convolution"
  bottom: "rpn_big_conv1"
  top: "rpn_big_conv2"
  param {
    lr_mult: 1
  }
  param {
    lr_mult: 2
  }
  convolution_param {
    num_output: 512
    pad: 1
    kernel_size: 3
    stride: 1
    weight_filler {
      type: "gaussian"
      mean: 0
      std: 0.01
    }
    bias_filler {
      type: "constant"
    }
  }
}
layer {
  name: "rpn_big_conv2_relu"
  type: "ReLU"
  bottom: "rpn_big_conv2"
  top: "rpn_big_conv2"
  relu_param {
    negative_slope: 0
  }
}
layer {
  name: "rpn_big_conv2_drop"
  type: "Dropout"
  bottom: "rpn_big_conv2"
  top: "rpn_big_conv2"
  dropout_param {
    dropout_ratio: 0.3
  }
}
layer {
  name: "rpn_big_output_cls"
  type: "Convolution"
  bottom: "rpn_big_conv2"
  top: "rpn_big_output_cls"
  param {
    lr_mult: 1
  }
  param {
    lr_mult: 2
  }
  convolution_param {
    num_output: 384
    pad: 1
    kernel_size: 3
    stride: 1
    weight_filler {
      type: "gaussian"
      mean: 0
      std: 0.01
    }
    bias_filler {
      type: "constant"
    }
  }
}
layer {
  name: "rpn_big_output_cls_relu"
  type: "ReLU"
  bottom: "rpn_big_output_cls"
  top: "rpn_big_output_cls"
  relu_param {
    negative_slope: 0
  }
}
layer {
  name: "rpn_big_cls_score"
  type: "Convolution"
  bottom: "rpn_big_output_cls"
  top: "rpn_big_cls_score"
  param {
    lr_mult: 1
  }
  param {
    lr_mult: 2
  }
  convolution_param {
    num_output: 52
    pad: 0
    kernel_size: 3
    stride: 1
    weight_filler {
      type: "gaussian"
      mean: 0
      std: 0.01
    }
    bias_filler {
      type: "constant"
    }
  }
}
layer {
  name: "rpn_big_cls_score_reshape"
  type: "Reshape"
  bottom: "rpn_big_cls_score"
  top: "rpn_big_cls_score_reshape"
  reshape_param {
    shape {
      dim: 0
      dim: 2
      dim: -1
      dim: 0
    }
  }
}
layer {
  name: "rpn_big_cls_prob"
  type: "Softmax"
  bottom: "rpn_big_cls_score_reshape"
  top: "rpn_big_cls_prob"
}
layer {
  name: "rpn_big_cls_prob_reshape"
  type: "Reshape"
  bottom: "rpn_big_cls_prob"
  top: "rpn_big_cls_prob_reshape"
  reshape_param {
    shape {
      dim: 0
      dim: 52
      dim: -1
      dim: 0
    }
  }
}
layer {
  name: "rpn_big_anchor_target"
  type: "Python"
  bottom: "rpn_big_cls_score"
  bottom: "input_gt_boxes"
  bottom: "input_ignored_boxes"
  bottom: "input_im_info"
  bottom: "input_data"
  bottom: "rpn_big_cls_prob_reshape"
  top: "rpn_big_anchor_target_labels"
  top: "rpn_big_anchor_target_bbox_targets"
  top: "rpn_big_anchor_target_inside_weights"
  top: "rpn_big_anchor_target_outside_weights"
  python_param {
    module: "rpn.anchor_target_layer"
    layer: "AnchorTargetLayer"
    param_str: "{\"name\": \"rpn_big\", \"anchor_shift_num_xy\": [[2, 2], [2, 2], [2, 2], [2, 2], [1, 1], [1, 1], [1, 1], [1, 1], [1, 1], [1, 1], [1, 1], [1, 1], [1, 1], [1, 1]], \"anchor_scales\": [2.5, 3.025, 3.66025, 4.4289024999999995, 5.358972025, 6.484356150249999, 7.846070941802498, 9.493745839581022, 11.487432465893036, 13.899793283730574, 16.818749873313998, 20.350687346709933, 24.62433168951902, 29.795441344318014], \"positive_overlap\": 0.6, \"square_targets\": true, \"tn_fraction\": 0.2, \"fg_fraction\": 0.5, \"negative_overlap\": 0.4, \"batchsize\": 256, \"feat_stride\": 16, \"num_classes\": 1, \"anchor_ratios\": [1.0]}"
  }
}
layer {
  name: "rpn_big_loss_cls"
  type: "SoftmaxWithLoss"
  bottom: "rpn_big_cls_score_reshape"
  bottom: "rpn_big_anchor_target_labels"
  top: "rpn_big_loss_cls"
  loss_weight: 1
  propagate_down: true
  propagate_down: false
  loss_param {
    ignore_label: -1
    normalization: VALID
  }
}
layer {
  name: "rpn_big_output_box"
  type: "Convolution"
  bottom: "rpn_big_conv2"
  top: "rpn_big_output_box"
  param {
    lr_mult: 1
  }
  param {
    lr_mult: 2
  }
  convolution_param {
    num_output: 384
    pad: 1
    kernel_size: 3
    stride: 1
    weight_filler {
      type: "gaussian"
      mean: 0
      std: 0.01
    }
    bias_filler {
      type: "constant"
    }
  }
}
layer {
  name: "rpn_big_output_box_relu"
  type: "ReLU"
  bottom: "rpn_big_output_box"
  top: "rpn_big_output_box"
  relu_param {
    negative_slope: 0
  }
}
layer {
  name: "rpn_big_bbox_pred"
  type: "Convolution"
  bottom: "rpn_big_output_box"
  top: "rpn_big_bbox_pred"
  param {
    lr_mult: 1
  }
  param {
    lr_mult: 2
  }
  convolution_param {
    num_output: 104
    pad: 0
    kernel_size: 3
    stride: 1
    weight_filler {
      type: "gaussian"
      mean: 0
      std: 0.01
    }
    bias_filler {
      type: "constant"
    }
  }
}
layer {
  name: "rpn_big_loss_bbox"
  type: "Python"
  bottom: "rpn_big_bbox_pred"
  bottom: "rpn_big_anchor_target_bbox_targets"
  bottom: "rpn_big_anchor_target_inside_weights"
  bottom: "rpn_big_anchor_target_outside_weights"
  top: "rpn_big_loss_bbox"
  loss_weight: 1
  python_param {
    module: "layers.smooth_l1_loss"
    layer: "SmoothL1LossLayer"
    param_str: "{\"sigma\": 3}"
  }
}
layer {
  name: "proposal"
  type: "Python"
  bottom: "rpn_big_cls_prob_reshape"
  bottom: "rpn_big_bbox_pred"
  bottom: "input_im_info"
  top: "rpn_rois"
  python_param {
    module: "rpn.proposal_layer"
    layer: "ProposalLayer"
    param_str: "\'feat_stride\': 16; \'scales\': !!python/tuple [4, 8, 16, 32]"
  }
}
I0413 16:05:04.132733  7739 layer_factory.hpp:77] Creating layer input
I0413 16:05:04.134058  7739 net.cpp:100] Creating Layer input
I0413 16:05:04.134074  7739 net.cpp:408] input -> input_data
I0413 16:05:04.134086  7739 net.cpp:408] input -> input_im_info
I0413 16:05:04.134093  7739 net.cpp:408] input -> input_gt_boxes
I0413 16:05:04.134100  7739 net.cpp:408] input -> input_ignored_boxes
RoiDataLayer: name_to_top: {'gt_boxes': 2, 'data': 0, 'im_info': 1, 'ignored_boxes': 3}
I0413 16:05:04.448195  7739 net.cpp:150] Setting up input
I0413 16:05:04.448243  7739 net.cpp:157] Top shape: 1 3 1000 1500 (4500000)
I0413 16:05:04.448254  7739 net.cpp:157] Top shape: 1 3 (3)
I0413 16:05:04.448262  7739 net.cpp:157] Top shape: 1 5 (5)
I0413 16:05:04.448271  7739 net.cpp:157] Top shape: 1 5 (5)
I0413 16:05:04.448279  7739 net.cpp:165] Memory required for data: 18000052
I0413 16:05:04.448290  7739 layer_factory.hpp:77] Creating layer input_data_input_0_split
I0413 16:05:04.448308  7739 net.cpp:100] Creating Layer input_data_input_0_split
I0413 16:05:04.448317  7739 net.cpp:434] input_data_input_0_split <- input_data
I0413 16:05:04.448329  7739 net.cpp:408] input_data_input_0_split -> input_data_input_0_split_0
I0413 16:05:04.448349  7739 net.cpp:408] input_data_input_0_split -> input_data_input_0_split_1
I0413 16:05:04.448395  7739 net.cpp:150] Setting up input_data_input_0_split
I0413 16:05:04.448405  7739 net.cpp:157] Top shape: 1 3 1000 1500 (4500000)
I0413 16:05:04.448415  7739 net.cpp:157] Top shape: 1 3 1000 1500 (4500000)
I0413 16:05:04.448421  7739 net.cpp:165] Memory required for data: 54000052
I0413 16:05:04.448427  7739 layer_factory.hpp:77] Creating layer input_im_info_input_1_split
I0413 16:05:04.448437  7739 net.cpp:100] Creating Layer input_im_info_input_1_split
I0413 16:05:04.448444  7739 net.cpp:434] input_im_info_input_1_split <- input_im_info
I0413 16:05:04.448454  7739 net.cpp:408] input_im_info_input_1_split -> input_im_info_input_1_split_0
I0413 16:05:04.448467  7739 net.cpp:408] input_im_info_input_1_split -> input_im_info_input_1_split_1
I0413 16:05:04.448508  7739 net.cpp:150] Setting up input_im_info_input_1_split
I0413 16:05:04.448519  7739 net.cpp:157] Top shape: 1 3 (3)
I0413 16:05:04.448528  7739 net.cpp:157] Top shape: 1 3 (3)
I0413 16:05:04.448532  7739 net.cpp:165] Memory required for data: 54000076
I0413 16:05:04.448539  7739 layer_factory.hpp:77] Creating layer conv1_1
I0413 16:05:04.448551  7739 net.cpp:100] Creating Layer conv1_1
I0413 16:05:04.448557  7739 net.cpp:434] conv1_1 <- input_data_input_0_split_0
I0413 16:05:04.448566  7739 net.cpp:408] conv1_1 -> conv1_1
I0413 16:05:04.451761  7739 net.cpp:150] Setting up conv1_1
I0413 16:05:04.451803  7739 net.cpp:157] Top shape: 1 64 1000 1500 (96000000)
I0413 16:05:04.451808  7739 net.cpp:165] Memory required for data: 438000076
I0413 16:05:04.451841  7739 layer_factory.hpp:77] Creating layer relu1_1
I0413 16:05:04.451860  7739 net.cpp:100] Creating Layer relu1_1
I0413 16:05:04.451869  7739 net.cpp:434] relu1_1 <- conv1_1
I0413 16:05:04.451881  7739 net.cpp:395] relu1_1 -> conv1_1 (in-place)
I0413 16:05:04.451897  7739 net.cpp:150] Setting up relu1_1
I0413 16:05:04.451905  7739 net.cpp:157] Top shape: 1 64 1000 1500 (96000000)
I0413 16:05:04.451912  7739 net.cpp:165] Memory required for data: 822000076
I0413 16:05:04.451920  7739 layer_factory.hpp:77] Creating layer conv1_2
I0413 16:05:04.451934  7739 net.cpp:100] Creating Layer conv1_2
I0413 16:05:04.451941  7739 net.cpp:434] conv1_2 <- conv1_1
I0413 16:05:04.451951  7739 net.cpp:408] conv1_2 -> conv1_2
I0413 16:05:04.455121  7739 net.cpp:150] Setting up conv1_2
I0413 16:05:04.455163  7739 net.cpp:157] Top shape: 1 64 1000 1500 (96000000)
I0413 16:05:04.455168  7739 net.cpp:165] Memory required for data: 1206000076
I0413 16:05:04.455193  7739 layer_factory.hpp:77] Creating layer relu1_2
I0413 16:05:04.455209  7739 net.cpp:100] Creating Layer relu1_2
I0413 16:05:04.455219  7739 net.cpp:434] relu1_2 <- conv1_2
I0413 16:05:04.455230  7739 net.cpp:395] relu1_2 -> conv1_2 (in-place)
I0413 16:05:04.455246  7739 net.cpp:150] Setting up relu1_2
I0413 16:05:04.455255  7739 net.cpp:157] Top shape: 1 64 1000 1500 (96000000)
I0413 16:05:04.455262  7739 net.cpp:165] Memory required for data: 1590000076
I0413 16:05:04.455269  7739 layer_factory.hpp:77] Creating layer pool1
I0413 16:05:04.455281  7739 net.cpp:100] Creating Layer pool1
I0413 16:05:04.455288  7739 net.cpp:434] pool1 <- conv1_2
I0413 16:05:04.455297  7739 net.cpp:408] pool1 -> pool1
I0413 16:05:04.455373  7739 net.cpp:150] Setting up pool1
I0413 16:05:04.455382  7739 net.cpp:157] Top shape: 1 64 500 750 (24000000)
I0413 16:05:04.455389  7739 net.cpp:165] Memory required for data: 1686000076
I0413 16:05:04.455396  7739 layer_factory.hpp:77] Creating layer conv2_1
I0413 16:05:04.455413  7739 net.cpp:100] Creating Layer conv2_1
I0413 16:05:04.455420  7739 net.cpp:434] conv2_1 <- pool1
I0413 16:05:04.455430  7739 net.cpp:408] conv2_1 -> conv2_1
I0413 16:05:04.456650  7739 net.cpp:150] Setting up conv2_1
I0413 16:05:04.456674  7739 net.cpp:157] Top shape: 1 128 500 750 (48000000)
I0413 16:05:04.456681  7739 net.cpp:165] Memory required for data: 1878000076
I0413 16:05:04.456698  7739 layer_factory.hpp:77] Creating layer relu2_1
I0413 16:05:04.456709  7739 net.cpp:100] Creating Layer relu2_1
I0413 16:05:04.456718  7739 net.cpp:434] relu2_1 <- conv2_1
I0413 16:05:04.456732  7739 net.cpp:395] relu2_1 -> conv2_1 (in-place)
I0413 16:05:04.456745  7739 net.cpp:150] Setting up relu2_1
I0413 16:05:04.456754  7739 net.cpp:157] Top shape: 1 128 500 750 (48000000)
I0413 16:05:04.456761  7739 net.cpp:165] Memory required for data: 2070000076
I0413 16:05:04.456768  7739 layer_factory.hpp:77] Creating layer conv2_2
I0413 16:05:04.456781  7739 net.cpp:100] Creating Layer conv2_2
I0413 16:05:04.456789  7739 net.cpp:434] conv2_2 <- conv2_1
I0413 16:05:04.456801  7739 net.cpp:408] conv2_2 -> conv2_2
I0413 16:05:04.457746  7739 net.cpp:150] Setting up conv2_2
I0413 16:05:04.457773  7739 net.cpp:157] Top shape: 1 128 500 750 (48000000)
I0413 16:05:04.457779  7739 net.cpp:165] Memory required for data: 2262000076
I0413 16:05:04.457794  7739 layer_factory.hpp:77] Creating layer relu2_2
I0413 16:05:04.457805  7739 net.cpp:100] Creating Layer relu2_2
I0413 16:05:04.457814  7739 net.cpp:434] relu2_2 <- conv2_2
I0413 16:05:04.457826  7739 net.cpp:395] relu2_2 -> conv2_2 (in-place)
I0413 16:05:04.457839  7739 net.cpp:150] Setting up relu2_2
I0413 16:05:04.457849  7739 net.cpp:157] Top shape: 1 128 500 750 (48000000)
I0413 16:05:04.457855  7739 net.cpp:165] Memory required for data: 2454000076
I0413 16:05:04.457862  7739 layer_factory.hpp:77] Creating layer pool2
I0413 16:05:04.457873  7739 net.cpp:100] Creating Layer pool2
I0413 16:05:04.457881  7739 net.cpp:434] pool2 <- conv2_2
I0413 16:05:04.457890  7739 net.cpp:408] pool2 -> pool2
I0413 16:05:04.457939  7739 net.cpp:150] Setting up pool2
I0413 16:05:04.457949  7739 net.cpp:157] Top shape: 1 128 250 375 (12000000)
I0413 16:05:04.457955  7739 net.cpp:165] Memory required for data: 2502000076
I0413 16:05:04.457962  7739 layer_factory.hpp:77] Creating layer conv3_1
I0413 16:05:04.457978  7739 net.cpp:100] Creating Layer conv3_1
I0413 16:05:04.457985  7739 net.cpp:434] conv3_1 <- pool2
I0413 16:05:04.457996  7739 net.cpp:408] conv3_1 -> conv3_1
I0413 16:05:04.459086  7739 net.cpp:150] Setting up conv3_1
I0413 16:05:04.459115  7739 net.cpp:157] Top shape: 1 256 250 375 (24000000)
I0413 16:05:04.459120  7739 net.cpp:165] Memory required for data: 2598000076
I0413 16:05:04.459139  7739 layer_factory.hpp:77] Creating layer relu3_1
I0413 16:05:04.459152  7739 net.cpp:100] Creating Layer relu3_1
I0413 16:05:04.459161  7739 net.cpp:434] relu3_1 <- conv3_1
I0413 16:05:04.459172  7739 net.cpp:395] relu3_1 -> conv3_1 (in-place)
I0413 16:05:04.459185  7739 net.cpp:150] Setting up relu3_1
I0413 16:05:04.459194  7739 net.cpp:157] Top shape: 1 256 250 375 (24000000)
I0413 16:05:04.459202  7739 net.cpp:165] Memory required for data: 2694000076
I0413 16:05:04.459208  7739 layer_factory.hpp:77] Creating layer conv3_2
I0413 16:05:04.459223  7739 net.cpp:100] Creating Layer conv3_2
I0413 16:05:04.459230  7739 net.cpp:434] conv3_2 <- conv3_1
I0413 16:05:04.459242  7739 net.cpp:408] conv3_2 -> conv3_2
I0413 16:05:04.460435  7739 net.cpp:150] Setting up conv3_2
I0413 16:05:04.460464  7739 net.cpp:157] Top shape: 1 256 250 375 (24000000)
I0413 16:05:04.460470  7739 net.cpp:165] Memory required for data: 2790000076
I0413 16:05:04.460484  7739 layer_factory.hpp:77] Creating layer relu3_2
I0413 16:05:04.460502  7739 net.cpp:100] Creating Layer relu3_2
I0413 16:05:04.460510  7739 net.cpp:434] relu3_2 <- conv3_2
I0413 16:05:04.460523  7739 net.cpp:395] relu3_2 -> conv3_2 (in-place)
I0413 16:05:04.460537  7739 net.cpp:150] Setting up relu3_2
I0413 16:05:04.460546  7739 net.cpp:157] Top shape: 1 256 250 375 (24000000)
I0413 16:05:04.460553  7739 net.cpp:165] Memory required for data: 2886000076
I0413 16:05:04.460561  7739 layer_factory.hpp:77] Creating layer conv3_3
I0413 16:05:04.460575  7739 net.cpp:100] Creating Layer conv3_3
I0413 16:05:04.460582  7739 net.cpp:434] conv3_3 <- conv3_2
I0413 16:05:04.460592  7739 net.cpp:408] conv3_3 -> conv3_3
I0413 16:05:04.463912  7739 net.cpp:150] Setting up conv3_3
I0413 16:05:04.463946  7739 net.cpp:157] Top shape: 1 256 250 375 (24000000)
I0413 16:05:04.463953  7739 net.cpp:165] Memory required for data: 2982000076
I0413 16:05:04.463969  7739 layer_factory.hpp:77] Creating layer relu3_3
I0413 16:05:04.463987  7739 net.cpp:100] Creating Layer relu3_3
I0413 16:05:04.463995  7739 net.cpp:434] relu3_3 <- conv3_3
I0413 16:05:04.464007  7739 net.cpp:395] relu3_3 -> conv3_3 (in-place)
I0413 16:05:04.464023  7739 net.cpp:150] Setting up relu3_3
I0413 16:05:04.464032  7739 net.cpp:157] Top shape: 1 256 250 375 (24000000)
I0413 16:05:04.464040  7739 net.cpp:165] Memory required for data: 3078000076
I0413 16:05:04.464046  7739 layer_factory.hpp:77] Creating layer pool3
I0413 16:05:04.464058  7739 net.cpp:100] Creating Layer pool3
I0413 16:05:04.464066  7739 net.cpp:434] pool3 <- conv3_3
I0413 16:05:04.464074  7739 net.cpp:408] pool3 -> pool3
I0413 16:05:04.464133  7739 net.cpp:150] Setting up pool3
I0413 16:05:04.464143  7739 net.cpp:157] Top shape: 1 256 125 188 (6016000)
I0413 16:05:04.464149  7739 net.cpp:165] Memory required for data: 3102064076
I0413 16:05:04.464154  7739 layer_factory.hpp:77] Creating layer conv4_1
I0413 16:05:04.464170  7739 net.cpp:100] Creating Layer conv4_1
I0413 16:05:04.464177  7739 net.cpp:434] conv4_1 <- pool3
I0413 16:05:04.464187  7739 net.cpp:408] conv4_1 -> conv4_1
I0413 16:05:04.466877  7739 net.cpp:150] Setting up conv4_1
I0413 16:05:04.466915  7739 net.cpp:157] Top shape: 1 512 125 188 (12032000)
I0413 16:05:04.466922  7739 net.cpp:165] Memory required for data: 3150192076
I0413 16:05:04.466938  7739 layer_factory.hpp:77] Creating layer relu4_1
I0413 16:05:04.466953  7739 net.cpp:100] Creating Layer relu4_1
I0413 16:05:04.466961  7739 net.cpp:434] relu4_1 <- conv4_1
I0413 16:05:04.466974  7739 net.cpp:395] relu4_1 -> conv4_1 (in-place)
I0413 16:05:04.466989  7739 net.cpp:150] Setting up relu4_1
I0413 16:05:04.466998  7739 net.cpp:157] Top shape: 1 512 125 188 (12032000)
I0413 16:05:04.467005  7739 net.cpp:165] Memory required for data: 3198320076
I0413 16:05:04.467011  7739 layer_factory.hpp:77] Creating layer conv4_2
I0413 16:05:04.467027  7739 net.cpp:100] Creating Layer conv4_2
I0413 16:05:04.467034  7739 net.cpp:434] conv4_2 <- conv4_1
I0413 16:05:04.467046  7739 net.cpp:408] conv4_2 -> conv4_2
I0413 16:05:04.471221  7739 net.cpp:150] Setting up conv4_2
I0413 16:05:04.471262  7739 net.cpp:157] Top shape: 1 512 125 188 (12032000)
I0413 16:05:04.471269  7739 net.cpp:165] Memory required for data: 3246448076
I0413 16:05:04.471292  7739 layer_factory.hpp:77] Creating layer relu4_2
I0413 16:05:04.471309  7739 net.cpp:100] Creating Layer relu4_2
I0413 16:05:04.471318  7739 net.cpp:434] relu4_2 <- conv4_2
I0413 16:05:04.471333  7739 net.cpp:395] relu4_2 -> conv4_2 (in-place)
I0413 16:05:04.471349  7739 net.cpp:150] Setting up relu4_2
I0413 16:05:04.471357  7739 net.cpp:157] Top shape: 1 512 125 188 (12032000)
I0413 16:05:04.471364  7739 net.cpp:165] Memory required for data: 3294576076
I0413 16:05:04.471371  7739 layer_factory.hpp:77] Creating layer conv4_3
I0413 16:05:04.471387  7739 net.cpp:100] Creating Layer conv4_3
I0413 16:05:04.471393  7739 net.cpp:434] conv4_3 <- conv4_2
I0413 16:05:04.471405  7739 net.cpp:408] conv4_3 -> conv4_3
I0413 16:05:04.475617  7739 net.cpp:150] Setting up conv4_3
I0413 16:05:04.475656  7739 net.cpp:157] Top shape: 1 512 125 188 (12032000)
I0413 16:05:04.475663  7739 net.cpp:165] Memory required for data: 3342704076
I0413 16:05:04.475679  7739 layer_factory.hpp:77] Creating layer relu4_3
I0413 16:05:04.475693  7739 net.cpp:100] Creating Layer relu4_3
I0413 16:05:04.475703  7739 net.cpp:434] relu4_3 <- conv4_3
I0413 16:05:04.475718  7739 net.cpp:395] relu4_3 -> conv4_3 (in-place)
I0413 16:05:04.475733  7739 net.cpp:150] Setting up relu4_3
I0413 16:05:04.475741  7739 net.cpp:157] Top shape: 1 512 125 188 (12032000)
I0413 16:05:04.475749  7739 net.cpp:165] Memory required for data: 3390832076
I0413 16:05:04.475754  7739 layer_factory.hpp:77] Creating layer pool4
I0413 16:05:04.475769  7739 net.cpp:100] Creating Layer pool4
I0413 16:05:04.475776  7739 net.cpp:434] pool4 <- conv4_3
I0413 16:05:04.475785  7739 net.cpp:408] pool4 -> pool4
I0413 16:05:04.475829  7739 net.cpp:150] Setting up pool4
I0413 16:05:04.475841  7739 net.cpp:157] Top shape: 1 512 63 94 (3032064)
I0413 16:05:04.475847  7739 net.cpp:165] Memory required for data: 3402960332
I0413 16:05:04.475852  7739 layer_factory.hpp:77] Creating layer conv5_1
I0413 16:05:04.475870  7739 net.cpp:100] Creating Layer conv5_1
I0413 16:05:04.475878  7739 net.cpp:434] conv5_1 <- pool4
I0413 16:05:04.475888  7739 net.cpp:408] conv5_1 -> conv5_1
I0413 16:05:04.480600  7739 net.cpp:150] Setting up conv5_1
I0413 16:05:04.480656  7739 net.cpp:157] Top shape: 1 512 63 94 (3032064)
I0413 16:05:04.480664  7739 net.cpp:165] Memory required for data: 3415088588
I0413 16:05:04.480679  7739 layer_factory.hpp:77] Creating layer relu5_1
I0413 16:05:04.480696  7739 net.cpp:100] Creating Layer relu5_1
I0413 16:05:04.480705  7739 net.cpp:434] relu5_1 <- conv5_1
I0413 16:05:04.480723  7739 net.cpp:395] relu5_1 -> conv5_1 (in-place)
I0413 16:05:04.480743  7739 net.cpp:150] Setting up relu5_1
I0413 16:05:04.480753  7739 net.cpp:157] Top shape: 1 512 63 94 (3032064)
I0413 16:05:04.480761  7739 net.cpp:165] Memory required for data: 3427216844
I0413 16:05:04.480767  7739 layer_factory.hpp:77] Creating layer conv5_2
I0413 16:05:04.480784  7739 net.cpp:100] Creating Layer conv5_2
I0413 16:05:04.480790  7739 net.cpp:434] conv5_2 <- conv5_1
I0413 16:05:04.480803  7739 net.cpp:408] conv5_2 -> conv5_2
I0413 16:05:04.485147  7739 net.cpp:150] Setting up conv5_2
I0413 16:05:04.485180  7739 net.cpp:157] Top shape: 1 512 63 94 (3032064)
I0413 16:05:04.485188  7739 net.cpp:165] Memory required for data: 3439345100
I0413 16:05:04.485203  7739 layer_factory.hpp:77] Creating layer relu5_2
I0413 16:05:04.485218  7739 net.cpp:100] Creating Layer relu5_2
I0413 16:05:04.485225  7739 net.cpp:434] relu5_2 <- conv5_2
I0413 16:05:04.485239  7739 net.cpp:395] relu5_2 -> conv5_2 (in-place)
I0413 16:05:04.485255  7739 net.cpp:150] Setting up relu5_2
I0413 16:05:04.485265  7739 net.cpp:157] Top shape: 1 512 63 94 (3032064)
I0413 16:05:04.485270  7739 net.cpp:165] Memory required for data: 3451473356
I0413 16:05:04.485276  7739 layer_factory.hpp:77] Creating layer conv5_3
I0413 16:05:04.485291  7739 net.cpp:100] Creating Layer conv5_3
I0413 16:05:04.485298  7739 net.cpp:434] conv5_3 <- conv5_2
I0413 16:05:04.485309  7739 net.cpp:408] conv5_3 -> conv5_3
I0413 16:05:04.489804  7739 net.cpp:150] Setting up conv5_3
I0413 16:05:04.489837  7739 net.cpp:157] Top shape: 1 512 63 94 (3032064)
I0413 16:05:04.489842  7739 net.cpp:165] Memory required for data: 3463601612
I0413 16:05:04.489864  7739 layer_factory.hpp:77] Creating layer relu5_3
I0413 16:05:04.489887  7739 net.cpp:100] Creating Layer relu5_3
I0413 16:05:04.489903  7739 net.cpp:434] relu5_3 <- conv5_3
I0413 16:05:04.489915  7739 net.cpp:395] relu5_3 -> conv5_3 (in-place)
I0413 16:05:04.489933  7739 net.cpp:150] Setting up relu5_3
I0413 16:05:04.489945  7739 net.cpp:157] Top shape: 1 512 63 94 (3032064)
I0413 16:05:04.489951  7739 net.cpp:165] Memory required for data: 3475729868
I0413 16:05:04.489959  7739 layer_factory.hpp:77] Creating layer rpn_big_conv1
I0413 16:05:04.489974  7739 net.cpp:100] Creating Layer rpn_big_conv1
I0413 16:05:04.489979  7739 net.cpp:434] rpn_big_conv1 <- conv5_3
I0413 16:05:04.489994  7739 net.cpp:408] rpn_big_conv1 -> rpn_big_conv1
I0413 16:05:04.515262  7739 net.cpp:150] Setting up rpn_big_conv1
I0413 16:05:04.515295  7739 net.cpp:157] Top shape: 1 512 63 94 (3032064)
I0413 16:05:04.515301  7739 net.cpp:165] Memory required for data: 3487858124
I0413 16:05:04.515323  7739 layer_factory.hpp:77] Creating layer rpn_big_conv1_relu
I0413 16:05:04.515341  7739 net.cpp:100] Creating Layer rpn_big_conv1_relu
I0413 16:05:04.515350  7739 net.cpp:434] rpn_big_conv1_relu <- rpn_big_conv1
I0413 16:05:04.515362  7739 net.cpp:395] rpn_big_conv1_relu -> rpn_big_conv1 (in-place)
I0413 16:05:04.515380  7739 net.cpp:150] Setting up rpn_big_conv1_relu
I0413 16:05:04.515389  7739 net.cpp:157] Top shape: 1 512 63 94 (3032064)
I0413 16:05:04.515396  7739 net.cpp:165] Memory required for data: 3499986380
I0413 16:05:04.515403  7739 layer_factory.hpp:77] Creating layer rpn_big_conv2
I0413 16:05:04.515424  7739 net.cpp:100] Creating Layer rpn_big_conv2
I0413 16:05:04.515430  7739 net.cpp:434] rpn_big_conv2 <- rpn_big_conv1
I0413 16:05:04.515444  7739 net.cpp:408] rpn_big_conv2 -> rpn_big_conv2
I0413 16:05:04.540680  7739 net.cpp:150] Setting up rpn_big_conv2
I0413 16:05:04.540714  7739 net.cpp:157] Top shape: 1 512 63 94 (3032064)
I0413 16:05:04.540729  7739 net.cpp:165] Memory required for data: 3512114636
I0413 16:05:04.540743  7739 layer_factory.hpp:77] Creating layer rpn_big_conv2_relu
I0413 16:05:04.540760  7739 net.cpp:100] Creating Layer rpn_big_conv2_relu
I0413 16:05:04.540769  7739 net.cpp:434] rpn_big_conv2_relu <- rpn_big_conv2
I0413 16:05:04.540784  7739 net.cpp:395] rpn_big_conv2_relu -> rpn_big_conv2 (in-place)
I0413 16:05:04.540801  7739 net.cpp:150] Setting up rpn_big_conv2_relu
I0413 16:05:04.540809  7739 net.cpp:157] Top shape: 1 512 63 94 (3032064)
I0413 16:05:04.540814  7739 net.cpp:165] Memory required for data: 3524242892
I0413 16:05:04.540822  7739 layer_factory.hpp:77] Creating layer rpn_big_conv2_drop
I0413 16:05:04.540834  7739 net.cpp:100] Creating Layer rpn_big_conv2_drop
I0413 16:05:04.540843  7739 net.cpp:434] rpn_big_conv2_drop <- rpn_big_conv2
I0413 16:05:04.540853  7739 net.cpp:395] rpn_big_conv2_drop -> rpn_big_conv2 (in-place)
I0413 16:05:04.540885  7739 net.cpp:150] Setting up rpn_big_conv2_drop
I0413 16:05:04.540895  7739 net.cpp:157] Top shape: 1 512 63 94 (3032064)
I0413 16:05:04.540901  7739 net.cpp:165] Memory required for data: 3536371148
I0413 16:05:04.540912  7739 layer_factory.hpp:77] Creating layer rpn_big_conv2_rpn_big_conv2_drop_0_split
I0413 16:05:04.540925  7739 net.cpp:100] Creating Layer rpn_big_conv2_rpn_big_conv2_drop_0_split
I0413 16:05:04.540932  7739 net.cpp:434] rpn_big_conv2_rpn_big_conv2_drop_0_split <- rpn_big_conv2
I0413 16:05:04.540942  7739 net.cpp:408] rpn_big_conv2_rpn_big_conv2_drop_0_split -> rpn_big_conv2_rpn_big_conv2_drop_0_split_0
I0413 16:05:04.540958  7739 net.cpp:408] rpn_big_conv2_rpn_big_conv2_drop_0_split -> rpn_big_conv2_rpn_big_conv2_drop_0_split_1
I0413 16:05:04.540999  7739 net.cpp:150] Setting up rpn_big_conv2_rpn_big_conv2_drop_0_split
I0413 16:05:04.541012  7739 net.cpp:157] Top shape: 1 512 63 94 (3032064)
I0413 16:05:04.541021  7739 net.cpp:157] Top shape: 1 512 63 94 (3032064)
I0413 16:05:04.541028  7739 net.cpp:165] Memory required for data: 3560627660
I0413 16:05:04.541035  7739 layer_factory.hpp:77] Creating layer rpn_big_output_cls
I0413 16:05:04.541052  7739 net.cpp:100] Creating Layer rpn_big_output_cls
I0413 16:05:04.541059  7739 net.cpp:434] rpn_big_output_cls <- rpn_big_conv2_rpn_big_conv2_drop_0_split_0
I0413 16:05:04.541070  7739 net.cpp:408] rpn_big_output_cls -> rpn_big_output_cls
I0413 16:05:04.562563  7739 net.cpp:150] Setting up rpn_big_output_cls
I0413 16:05:04.562598  7739 net.cpp:157] Top shape: 1 384 63 94 (2274048)
I0413 16:05:04.562604  7739 net.cpp:165] Memory required for data: 3569723852
I0413 16:05:04.562628  7739 layer_factory.hpp:77] Creating layer rpn_big_output_cls_relu
I0413 16:05:04.562644  7739 net.cpp:100] Creating Layer rpn_big_output_cls_relu
I0413 16:05:04.562656  7739 net.cpp:434] rpn_big_output_cls_relu <- rpn_big_output_cls
I0413 16:05:04.562674  7739 net.cpp:395] rpn_big_output_cls_relu -> rpn_big_output_cls (in-place)
I0413 16:05:04.562691  7739 net.cpp:150] Setting up rpn_big_output_cls_relu
I0413 16:05:04.562700  7739 net.cpp:157] Top shape: 1 384 63 94 (2274048)
I0413 16:05:04.562706  7739 net.cpp:165] Memory required for data: 3578820044
I0413 16:05:04.562712  7739 layer_factory.hpp:77] Creating layer rpn_big_cls_score
I0413 16:05:04.562731  7739 net.cpp:100] Creating Layer rpn_big_cls_score
I0413 16:05:04.562738  7739 net.cpp:434] rpn_big_cls_score <- rpn_big_output_cls
I0413 16:05:04.562749  7739 net.cpp:408] rpn_big_cls_score -> rpn_big_cls_score
I0413 16:05:04.565150  7739 net.cpp:150] Setting up rpn_big_cls_score
I0413 16:05:04.565212  7739 net.cpp:157] Top shape: 1 52 61 92 (291824)
I0413 16:05:04.565222  7739 net.cpp:165] Memory required for data: 3579987340
I0413 16:05:04.565248  7739 layer_factory.hpp:77] Creating layer rpn_big_cls_score_rpn_big_cls_score_0_split
I0413 16:05:04.565265  7739 net.cpp:100] Creating Layer rpn_big_cls_score_rpn_big_cls_score_0_split
I0413 16:05:04.565275  7739 net.cpp:434] rpn_big_cls_score_rpn_big_cls_score_0_split <- rpn_big_cls_score
I0413 16:05:04.565289  7739 net.cpp:408] rpn_big_cls_score_rpn_big_cls_score_0_split -> rpn_big_cls_score_rpn_big_cls_score_0_split_0
I0413 16:05:04.565305  7739 net.cpp:408] rpn_big_cls_score_rpn_big_cls_score_0_split -> rpn_big_cls_score_rpn_big_cls_score_0_split_1
I0413 16:05:04.565358  7739 net.cpp:150] Setting up rpn_big_cls_score_rpn_big_cls_score_0_split
I0413 16:05:04.565369  7739 net.cpp:157] Top shape: 1 52 61 92 (291824)
I0413 16:05:04.565378  7739 net.cpp:157] Top shape: 1 52 61 92 (291824)
I0413 16:05:04.565387  7739 net.cpp:165] Memory required for data: 3582321932
I0413 16:05:04.565397  7739 layer_factory.hpp:77] Creating layer rpn_big_cls_score_reshape
I0413 16:05:04.565408  7739 net.cpp:100] Creating Layer rpn_big_cls_score_reshape
I0413 16:05:04.565413  7739 net.cpp:434] rpn_big_cls_score_reshape <- rpn_big_cls_score_rpn_big_cls_score_0_split_0
I0413 16:05:04.565426  7739 net.cpp:408] rpn_big_cls_score_reshape -> rpn_big_cls_score_reshape
I0413 16:05:04.565459  7739 net.cpp:150] Setting up rpn_big_cls_score_reshape
I0413 16:05:04.565469  7739 net.cpp:157] Top shape: 1 2 1586 92 (291824)
I0413 16:05:04.565476  7739 net.cpp:165] Memory required for data: 3583489228
I0413 16:05:04.565484  7739 layer_factory.hpp:77] Creating layer rpn_big_cls_score_reshape_rpn_big_cls_score_reshape_0_split
I0413 16:05:04.565492  7739 net.cpp:100] Creating Layer rpn_big_cls_score_reshape_rpn_big_cls_score_reshape_0_split
I0413 16:05:04.565500  7739 net.cpp:434] rpn_big_cls_score_reshape_rpn_big_cls_score_reshape_0_split <- rpn_big_cls_score_reshape
I0413 16:05:04.565508  7739 net.cpp:408] rpn_big_cls_score_reshape_rpn_big_cls_score_reshape_0_split -> rpn_big_cls_score_reshape_rpn_big_cls_score_reshape_0_split_0
I0413 16:05:04.565520  7739 net.cpp:408] rpn_big_cls_score_reshape_rpn_big_cls_score_reshape_0_split -> rpn_big_cls_score_reshape_rpn_big_cls_score_reshape_0_split_1
I0413 16:05:04.565567  7739 net.cpp:150] Setting up rpn_big_cls_score_reshape_rpn_big_cls_score_reshape_0_split
I0413 16:05:04.565579  7739 net.cpp:157] Top shape: 1 2 1586 92 (291824)
I0413 16:05:04.565589  7739 net.cpp:157] Top shape: 1 2 1586 92 (291824)
I0413 16:05:04.565596  7739 net.cpp:165] Memory required for data: 3585823820
I0413 16:05:04.565603  7739 layer_factory.hpp:77] Creating layer rpn_big_cls_prob
I0413 16:05:04.565614  7739 net.cpp:100] Creating Layer rpn_big_cls_prob
I0413 16:05:04.565624  7739 net.cpp:434] rpn_big_cls_prob <- rpn_big_cls_score_reshape_rpn_big_cls_score_reshape_0_split_0
I0413 16:05:04.565634  7739 net.cpp:408] rpn_big_cls_prob -> rpn_big_cls_prob
I0413 16:05:04.565695  7739 net.cpp:150] Setting up rpn_big_cls_prob
I0413 16:05:04.565706  7739 net.cpp:157] Top shape: 1 2 1586 92 (291824)
I0413 16:05:04.565711  7739 net.cpp:165] Memory required for data: 3586991116
I0413 16:05:04.565719  7739 layer_factory.hpp:77] Creating layer rpn_big_cls_prob_reshape
I0413 16:05:04.565731  7739 net.cpp:100] Creating Layer rpn_big_cls_prob_reshape
I0413 16:05:04.565738  7739 net.cpp:434] rpn_big_cls_prob_reshape <- rpn_big_cls_prob
I0413 16:05:04.565749  7739 net.cpp:408] rpn_big_cls_prob_reshape -> rpn_big_cls_prob_reshape
I0413 16:05:04.565779  7739 net.cpp:150] Setting up rpn_big_cls_prob_reshape
I0413 16:05:04.565789  7739 net.cpp:157] Top shape: 1 52 61 92 (291824)
I0413 16:05:04.565795  7739 net.cpp:165] Memory required for data: 3588158412
I0413 16:05:04.565804  7739 layer_factory.hpp:77] Creating layer rpn_big_cls_prob_reshape_rpn_big_cls_prob_reshape_0_split
I0413 16:05:04.565814  7739 net.cpp:100] Creating Layer rpn_big_cls_prob_reshape_rpn_big_cls_prob_reshape_0_split
I0413 16:05:04.565822  7739 net.cpp:434] rpn_big_cls_prob_reshape_rpn_big_cls_prob_reshape_0_split <- rpn_big_cls_prob_reshape
I0413 16:05:04.565832  7739 net.cpp:408] rpn_big_cls_prob_reshape_rpn_big_cls_prob_reshape_0_split -> rpn_big_cls_prob_reshape_rpn_big_cls_prob_reshape_0_split_0
I0413 16:05:04.565847  7739 net.cpp:408] rpn_big_cls_prob_reshape_rpn_big_cls_prob_reshape_0_split -> rpn_big_cls_prob_reshape_rpn_big_cls_prob_reshape_0_split_1
I0413 16:05:04.565883  7739 net.cpp:150] Setting up rpn_big_cls_prob_reshape_rpn_big_cls_prob_reshape_0_split
I0413 16:05:04.565893  7739 net.cpp:157] Top shape: 1 52 61 92 (291824)
I0413 16:05:04.565901  7739 net.cpp:157] Top shape: 1 52 61 92 (291824)
I0413 16:05:04.565908  7739 net.cpp:165] Memory required for data: 3590493004
I0413 16:05:04.565915  7739 layer_factory.hpp:77] Creating layer rpn_big_anchor_target
I0413 16:05:04.567318  7739 net.cpp:100] Creating Layer rpn_big_anchor_target
I0413 16:05:04.567332  7739 net.cpp:434] rpn_big_anchor_target <- rpn_big_cls_score_rpn_big_cls_score_0_split_1
I0413 16:05:04.567342  7739 net.cpp:434] rpn_big_anchor_target <- input_gt_boxes
I0413 16:05:04.567351  7739 net.cpp:434] rpn_big_anchor_target <- input_ignored_boxes
I0413 16:05:04.567358  7739 net.cpp:434] rpn_big_anchor_target <- input_im_info_input_1_split_0
I0413 16:05:04.567366  7739 net.cpp:434] rpn_big_anchor_target <- input_data_input_0_split_1
I0413 16:05:04.567374  7739 net.cpp:434] rpn_big_anchor_target <- rpn_big_cls_prob_reshape_rpn_big_cls_prob_reshape_0_split_0
I0413 16:05:04.567384  7739 net.cpp:408] rpn_big_anchor_target -> rpn_big_anchor_target_labels
I0413 16:05:04.567397  7739 net.cpp:408] rpn_big_anchor_target -> rpn_big_anchor_target_bbox_targets
I0413 16:05:04.567410  7739 net.cpp:408] rpn_big_anchor_target -> rpn_big_anchor_target_inside_weights
I0413 16:05:04.567423  7739 net.cpp:408] rpn_big_anchor_target -> rpn_big_anchor_target_outside_weights
I0413 16:05:04.572141  7739 net.cpp:150] Setting up rpn_big_anchor_target
I0413 16:05:04.572175  7739 net.cpp:157] Top shape: 1 1 1586 92 (145912)
I0413 16:05:04.572185  7739 net.cpp:157] Top shape: 1 104 61 92 (583648)
I0413 16:05:04.572190  7739 net.cpp:157] Top shape: 1 104 61 92 (583648)
I0413 16:05:04.572197  7739 net.cpp:157] Top shape: 1 104 61 92 (583648)
I0413 16:05:04.572202  7739 net.cpp:165] Memory required for data: 3598080428
I0413 16:05:04.572211  7739 layer_factory.hpp:77] Creating layer rpn_big_loss_cls
I0413 16:05:04.572228  7739 net.cpp:100] Creating Layer rpn_big_loss_cls
I0413 16:05:04.572238  7739 net.cpp:434] rpn_big_loss_cls <- rpn_big_cls_score_reshape_rpn_big_cls_score_reshape_0_split_1
I0413 16:05:04.572249  7739 net.cpp:434] rpn_big_loss_cls <- rpn_big_anchor_target_labels
I0413 16:05:04.572258  7739 net.cpp:408] rpn_big_loss_cls -> rpn_big_loss_cls
I0413 16:05:04.572276  7739 layer_factory.hpp:77] Creating layer rpn_big_loss_cls
I0413 16:05:04.572921  7739 net.cpp:150] Setting up rpn_big_loss_cls
I0413 16:05:04.572937  7739 net.cpp:157] Top shape: (1)
I0413 16:05:04.572943  7739 net.cpp:160]     with loss weight 1
I0413 16:05:04.572958  7739 net.cpp:165] Memory required for data: 3598080432
I0413 16:05:04.572965  7739 layer_factory.hpp:77] Creating layer rpn_big_output_box
I0413 16:05:04.572988  7739 net.cpp:100] Creating Layer rpn_big_output_box
I0413 16:05:04.572999  7739 net.cpp:434] rpn_big_output_box <- rpn_big_conv2_rpn_big_conv2_drop_0_split_1
I0413 16:05:04.573012  7739 net.cpp:408] rpn_big_output_box -> rpn_big_output_box
I0413 16:05:04.592438  7739 net.cpp:150] Setting up rpn_big_output_box
I0413 16:05:04.592468  7739 net.cpp:157] Top shape: 1 384 63 94 (2274048)
I0413 16:05:04.592474  7739 net.cpp:165] Memory required for data: 3607176624
I0413 16:05:04.592497  7739 layer_factory.hpp:77] Creating layer rpn_big_output_box_relu
I0413 16:05:04.592512  7739 net.cpp:100] Creating Layer rpn_big_output_box_relu
I0413 16:05:04.592526  7739 net.cpp:434] rpn_big_output_box_relu <- rpn_big_output_box
I0413 16:05:04.592540  7739 net.cpp:395] rpn_big_output_box_relu -> rpn_big_output_box (in-place)
I0413 16:05:04.592557  7739 net.cpp:150] Setting up rpn_big_output_box_relu
I0413 16:05:04.592567  7739 net.cpp:157] Top shape: 1 384 63 94 (2274048)
I0413 16:05:04.592573  7739 net.cpp:165] Memory required for data: 3616272816
I0413 16:05:04.592579  7739 layer_factory.hpp:77] Creating layer rpn_big_bbox_pred
I0413 16:05:04.592597  7739 net.cpp:100] Creating Layer rpn_big_bbox_pred
I0413 16:05:04.592604  7739 net.cpp:434] rpn_big_bbox_pred <- rpn_big_output_box
I0413 16:05:04.592618  7739 net.cpp:408] rpn_big_bbox_pred -> rpn_big_bbox_pred
I0413 16:05:04.596789  7739 net.cpp:150] Setting up rpn_big_bbox_pred
I0413 16:05:04.596818  7739 net.cpp:157] Top shape: 1 104 61 92 (583648)
I0413 16:05:04.596824  7739 net.cpp:165] Memory required for data: 3618607408
I0413 16:05:04.596837  7739 layer_factory.hpp:77] Creating layer rpn_big_bbox_pred_rpn_big_bbox_pred_0_split
I0413 16:05:04.596848  7739 net.cpp:100] Creating Layer rpn_big_bbox_pred_rpn_big_bbox_pred_0_split
I0413 16:05:04.596855  7739 net.cpp:434] rpn_big_bbox_pred_rpn_big_bbox_pred_0_split <- rpn_big_bbox_pred
I0413 16:05:04.596865  7739 net.cpp:408] rpn_big_bbox_pred_rpn_big_bbox_pred_0_split -> rpn_big_bbox_pred_rpn_big_bbox_pred_0_split_0
I0413 16:05:04.596887  7739 net.cpp:408] rpn_big_bbox_pred_rpn_big_bbox_pred_0_split -> rpn_big_bbox_pred_rpn_big_bbox_pred_0_split_1
I0413 16:05:04.596948  7739 net.cpp:150] Setting up rpn_big_bbox_pred_rpn_big_bbox_pred_0_split
I0413 16:05:04.596961  7739 net.cpp:157] Top shape: 1 104 61 92 (583648)
I0413 16:05:04.596968  7739 net.cpp:157] Top shape: 1 104 61 92 (583648)
I0413 16:05:04.596974  7739 net.cpp:165] Memory required for data: 3623276592
I0413 16:05:04.596981  7739 layer_factory.hpp:77] Creating layer rpn_big_loss_bbox
I0413 16:05:04.597465  7739 net.cpp:100] Creating Layer rpn_big_loss_bbox
I0413 16:05:04.597479  7739 net.cpp:434] rpn_big_loss_bbox <- rpn_big_bbox_pred_rpn_big_bbox_pred_0_split_0
I0413 16:05:04.597488  7739 net.cpp:434] rpn_big_loss_bbox <- rpn_big_anchor_target_bbox_targets
I0413 16:05:04.597506  7739 net.cpp:434] rpn_big_loss_bbox <- rpn_big_anchor_target_inside_weights
I0413 16:05:04.597517  7739 net.cpp:434] rpn_big_loss_bbox <- rpn_big_anchor_target_outside_weights
I0413 16:05:04.597529  7739 net.cpp:408] rpn_big_loss_bbox -> rpn_big_loss_bbox
I0413 16:05:04.601408  7739 net.cpp:150] Setting up rpn_big_loss_bbox
I0413 16:05:04.601442  7739 net.cpp:157] Top shape: 1 (1)
I0413 16:05:04.601449  7739 net.cpp:160]     with loss weight 1
I0413 16:05:04.601470  7739 net.cpp:165] Memory required for data: 3623276596
I0413 16:05:04.601480  7739 layer_factory.hpp:77] Creating layer proposal
I0413 16:05:04.601907  7739 net.cpp:100] Creating Layer proposal
I0413 16:05:04.601918  7739 net.cpp:434] proposal <- rpn_big_cls_prob_reshape_rpn_big_cls_prob_reshape_0_split_1
I0413 16:05:04.601930  7739 net.cpp:434] proposal <- rpn_big_bbox_pred_rpn_big_bbox_pred_0_split_1
…
