…
I0413 18:14:47.541833 12671 solver.cpp:48] Initializing solver from parameters: 
base_lr: 0.001
display: 20
lr_policy: "multistep"
gamma: 0.1
momentum: 0.9
weight_decay: 0.0005
snapshot: 0
snapshot_prefix: "faces_example"
net_param {
  name: "GeneratedModel_13_04_2017_18_14"
  layer {
    name: "input"
    type: "Python"
    top: "input_data"
    top: "input_im_info"
    top: "input_gt_boxes"
    top: "input_ignored_boxes"
    python_param {
      module: "layers.roi_data_layer"
      layer: "RoIDataLayer"
      param_str: "{\"num_classes\": 2}"
    }
  }
  layer {
    name: "conv1_1"
    type: "Convolution"
    bottom: "input_data"
    top: "conv1_1"
    param {
      lr_mult: 0
      decay_mult: 0
    }
    param {
      lr_mult: 0
      decay_mult: 0
    }
    convolution_param {
      num_output: 64
      pad: 1
      kernel_size: 3
    }
  }
  layer {
    name: "relu1_1"
    type: "ReLU"
    bottom: "conv1_1"
    top: "conv1_1"
  }
  layer {
    name: "conv1_2"
    type: "Convolution"
    bottom: "conv1_1"
    top: "conv1_2"
    param {
      lr_mult: 0
      decay_mult: 0
    }
    param {
      lr_mult: 0
      decay_mult: 0
    }
    convolution_param {
      num_output: 64
      pad: 1
      kernel_size: 3
    }
  }
  layer {
    name: "relu1_2"
    type: "ReLU"
    bottom: "conv1_2"
    top: "conv1_2"
  }
  layer {
    name: "pool1"
    type: "Pooling"
    bottom: "conv1_2"
    top: "pool1"
    pooling_param {
      pool: MAX
      kernel_size: 2
      stride: 2
    }
  }
  layer {
    name: "conv2_1"
    type: "Convolution"
    bottom: "pool1"
    top: "conv2_1"
    param {
      lr_mult: 0
      decay_mult: 0
    }
    param {
      lr_mult: 0
      decay_mult: 0
    }
    convolution_param {
      num_output: 128
      pad: 1
      kernel_size: 3
    }
  }
  layer {
    name: "relu2_1"
    type: "ReLU"
    bottom: "conv2_1"
    top: "conv2_1"
  }
  layer {
    name: "conv2_2"
    type: "Convolution"
    bottom: "conv2_1"
    top: "conv2_2"
    param {
      lr_mult: 0
      decay_mult: 0
    }
    param {
      lr_mult: 0
      decay_mult: 0
    }
    convolution_param {
      num_output: 128
      pad: 1
      kernel_size: 3
    }
  }
  layer {
    name: "relu2_2"
    type: "ReLU"
    bottom: "conv2_2"
    top: "conv2_2"
  }
  layer {
    name: "pool2"
    type: "Pooling"
    bottom: "conv2_2"
    top: "pool2"
    pooling_param {
      pool: MAX
      kernel_size: 2
      stride: 2
    }
  }
  layer {
    name: "conv3_1"
    type: "Convolution"
    bottom: "pool2"
    top: "conv3_1"
    param {
      lr_mult: 1
    }
    param {
      lr_mult: 2
    }
    convolution_param {
      num_output: 256
      pad: 1
      kernel_size: 3
    }
  }
  layer {
    name: "relu3_1"
    type: "ReLU"
    bottom: "conv3_1"
    top: "conv3_1"
  }
  layer {
    name: "conv3_2"
    type: "Convolution"
    bottom: "conv3_1"
    top: "conv3_2"
    param {
      lr_mult: 1
    }
    param {
      lr_mult: 2
    }
    convolution_param {
      num_output: 256
      pad: 1
      kernel_size: 3
    }
  }
  layer {
    name: "relu3_2"
    type: "ReLU"
    bottom: "conv3_2"
    top: "conv3_2"
  }
  layer {
    name: "conv3_3"
    type: "Convolution"
    bottom: "conv3_2"
    top: "conv3_3"
    param {
      lr_mult: 1
    }
    param {
      lr_mult: 2
    }
    convolution_param {
      num_output: 256
      pad: 1
      kernel_size: 3
    }
  }
  layer {
    name: "relu3_3"
    type: "ReLU"
    bottom: "conv3_3"
    top: "conv3_3"
  }
  layer {
    name: "pool3"
    type: "Pooling"
    bottom: "conv3_3"
    top: "pool3"
    pooling_param {
      pool: MAX
      kernel_size: 2
      stride: 2
    }
  }
  layer {
    name: "conv4_1"
    type: "Convolution"
    bottom: "pool3"
    top: "conv4_1"
    param {
      lr_mult: 1
    }
    param {
      lr_mult: 2
    }
    convolution_param {
      num_output: 512
      pad: 1
      kernel_size: 3
    }
  }
  layer {
    name: "relu4_1"
    type: "ReLU"
    bottom: "conv4_1"
    top: "conv4_1"
  }
  layer {
    name: "conv4_2"
    type: "Convolution"
    bottom: "conv4_1"
    top: "conv4_2"
    param {
      lr_mult: 1
    }
    param {
      lr_mult: 2
    }
    convolution_param {
      num_output: 512
      pad: 1
      kernel_size: 3
    }
  }
  layer {
    name: "relu4_2"
    type: "ReLU"
    bottom: "conv4_2"
    top: "conv4_2"
  }
  layer {
    name: "conv4_3"
    type: "Convolution"
    bottom: "conv4_2"
    top: "conv4_3"
    param {
      lr_mult: 1
    }
    param {
      lr_mult: 2
    }
    convolution_param {
      num_output: 512
      pad: 1
      kernel_size: 3
    }
  }
  layer {
    name: "relu4_3"
    type: "ReLU"
    bottom: "conv4_3"
    top: "conv4_3"
  }
  layer {
    name: "pool4"
    type: "Pooling"
    bottom: "conv4_3"
    top: "pool4"
    pooling_param {
      pool: MAX
      kernel_size: 2
      stride: 2
    }
  }
  layer {
    name: "conv5_1"
    type: "Convolution"
    bottom: "pool4"
    top: "conv5_1"
    param {
      lr_mult: 1
    }
    param {
      lr_mult: 2
    }
    convolution_param {
      num_output: 512
      pad: 1
      kernel_size: 3
    }
  }
  layer {
    name: "relu5_1"
    type: "ReLU"
    bottom: "conv5_1"
    top: "conv5_1"
  }
  layer {
    name: "conv5_2"
    type: "Convolution"
    bottom: "conv5_1"
    top: "conv5_2"
    param {
      lr_mult: 1
    }
    param {
      lr_mult: 2
    }
    convolution_param {
      num_output: 512
      pad: 1
      kernel_size: 3
    }
  }
  layer {
    name: "relu5_2"
    type: "ReLU"
    bottom: "conv5_2"
    top: "conv5_2"
  }
  layer {
    name: "conv5_3"
    type: "Convolution"
    bottom: "conv5_2"
    top: "conv5_3"
    param {
      lr_mult: 1
    }
    param {
      lr_mult: 2
    }
    convolution_param {
      num_output: 512
      pad: 1
      kernel_size: 3
    }
  }
  layer {
    name: "relu5_3"
    type: "ReLU"
    bottom: "conv5_3"
    top: "conv5_3"
  }
  layer {
    name: "rpn_big_conv1"
    type: "Convolution"
    bottom: "conv5_3"
    top: "rpn_big_conv1"
    param {
      lr_mult: 1
    }
    param {
      lr_mult: 2
    }
    convolution_param {
      num_output: 512
      pad: 1
      kernel_size: 3
      stride: 1
      weight_filler {
        type: "gaussian"
        mean: 0
        std: 0.01
      }
      bias_filler {
        type: "constant"
      }
    }
  }
  layer {
    name: "rpn_big_conv1_relu"
    type: "ReLU"
    bottom: "rpn_big_conv1"
    top: "rpn_big_conv1"
    relu_param {
      negative_slope: 0
    }
  }
  layer {
    name: "rpn_big_conv2"
    type: "Convolution"
    bottom: "rpn_big_conv1"
    top: "rpn_big_conv2"
    param {
      lr_mult: 1
    }
    param {
      lr_mult: 2
    }
    convolution_param {
      num_output: 512
      pad: 1
      kernel_size: 3
      stride: 1
      weight_filler {
        type: "gaussian"
        mean: 0
        std: 0.01
      }
      bias_filler {
        type: "constant"
      }
    }
  }
  layer {
    name: "rpn_big_conv2_relu"
    type: "ReLU"
    bottom: "rpn_big_conv2"
    top: "rpn_big_conv2"
    relu_param {
      negative_slope: 0
    }
  }
  layer {
    name: "rpn_big_conv2_drop"
    type: "Dropout"
    bottom: "rpn_big_conv2"
    top: "rpn_big_conv2"
    dropout_param {
      dropout_ratio: 0.3
    }
  }
  layer {
    name: "rpn_big_output_cls"
    type: "Convolution"
    bottom: "rpn_big_conv2"
    top: "rpn_big_output_cls"
    param {
      lr_mult: 1
    }
    param {
      lr_mult: 2
    }
    convolution_param {
      num_output: 384
      pad: 1
      kernel_size: 3
      stride: 1
      weight_filler {
        type: "gaussian"
        mean: 0
        std: 0.01
      }
      bias_filler {
        type: "constant"
      }
    }
  }
  layer {
    name: "rpn_big_output_cls_relu"
    type: "ReLU"
    bottom: "rpn_big_output_cls"
    top: "rpn_big_output_cls"
    relu_param {
      negative_slope: 0
    }
  }
  layer {
    name: "rpn_big_cls_score"
    type: "Convolution"
    bottom: "rpn_big_output_cls"
    top: "rpn_big_cls_score"
    param {
      lr_mult: 1
    }
    param {
      lr_mult: 2
    }
    convolution_param {
      num_output: 52
      pad: 0
      kernel_size: 3
      stride: 1
      weight_filler {
        type: "gaussian"
        mean: 0
        std: 0.01
      }
      bias_filler {
        type: "constant"
      }
    }
  }
  layer {
    name: "rpn_big_cls_score_reshape"
    type: "Reshape"
    bottom: "rpn_big_cls_score"
    top: "rpn_big_cls_score_reshape"
    reshape_param {
      shape {
        dim: 0
        dim: 2
        dim: -1
        dim: 0
      }
    }
  }
  layer {
    name: "rpn_big_cls_prob"
    type: "Softmax"
    bottom: "rpn_big_cls_score_reshape"
    top: "rpn_big_cls_prob"
  }
  layer {
    name: "rpn_big_cls_prob_reshape"
    type: "Reshape"
    bottom: "rpn_big_cls_prob"
    top: "rpn_big_cls_prob_reshape"
    reshape_param {
      shape {
        dim: 0
        dim: 52
        dim: -1
        dim: 0
      }
    }
  }
  layer {
    name: "rpn_big_anchor_target"
    type: "Python"
    bottom: "rpn_big_cls_score"
    bottom: "input_gt_boxes"
    bottom: "input_ignored_boxes"
    bottom: "input_im_info"
    bottom: "input_data"
    bottom: "rpn_big_cls_prob_reshape"
    top: "rpn_big_anchor_target_labels"
    top: "rpn_big_anchor_target_bbox_targets"
    top: "rpn_big_anchor_target_inside_weights"
    top: "rpn_big_anchor_target_outside_weights"
    python_param {
      module: "rpn.anchor_target_layer"
      layer: "AnchorTargetLayer"
      param_str: "{\"feat_stride\": 16, \"name\": \"rpn_big\", \"tn_fraction\": 0.2, \"anchor_shift_num_xy\": [[2, 2], [2, 2], [2, 2], [2, 2], [1, 1], [1, 1], [1, 1], [1, 1], [1, 1], [1, 1], [1, 1], [1, 1], [1, 1], [1, 1]], \"fg_fraction\": 0.5, \"anchor_ratios\": [1.0], \"anchor_scales\": [2.5, 3.025, 3.66025, 4.4289024999999995, 5.358972025, 6.484356150249999, 7.846070941802498, 9.493745839581022, 11.487432465893036, 13.899793283730574, 16.818749873313998, 20.350687346709933, 24.62433168951902, 29.795441344318014], \"num_classes\": 1, \"square_targets\": true, \"batchsize\": 256, \"positive_overlap\": 0.6, \"negative_overlap\": 0.4}"
    }
  }
  layer {
    name: "rpn_big_loss_cls"
    type: "SoftmaxWithLoss"
    bottom: "rpn_big_cls_score_reshape"
    bottom: "rpn_big_anchor_target_labels"
    top: "rpn_big_loss_cls"
    loss_weight: 1
    propagate_down: true
    propagate_down: false
    loss_param {
      ignore_label: -1
      normalization: VALID
    }
  }
  layer {
    name: "rpn_big_output_box"
    type: "Convolution"
    bottom: "rpn_big_conv2"
    top: "rpn_big_output_box"
    param {
      lr_mult: 1
    }
    param {
      lr_mult: 2
    }
    convolution_param {
      num_output: 384
      pad: 1
      kernel_size: 3
      stride: 1
      weight_filler {
        type: "gaussian"
        mean: 0
        std: 0.01
      }
      bias_filler {
        type: "constant"
      }
    }
  }
  layer {
    name: "rpn_big_output_box_relu"
    type: "ReLU"
    bottom: "rpn_big_output_box"
    top: "rpn_big_output_box"
    relu_param {
      negative_slope: 0
    }
  }
  layer {
    name: "rpn_big_bbox_pred"
    type: "Convolution"
    bottom: "rpn_big_output_box"
    top: "rpn_big_bbox_pred"
    param {
      lr_mult: 1
    }
    param {
      lr_mult: 2
    }
    convolution_param {
      num_output: 104
      pad: 0
      kernel_size: 3
      stride: 1
      weight_filler {
        type: "gaussian"
        mean: 0
        std: 0.01
      }
      bias_filler {
        type: "constant"
      }
    }
  }
  layer {
    name: "rpn_big_loss_bbox"
    type: "Python"
    bottom: "rpn_big_bbox_pred"
    bottom: "rpn_big_anchor_target_bbox_targets"
    bottom: "rpn_big_anchor_target_inside_weights"
    bottom: "rpn_big_anchor_target_outside_weights"
    top: "rpn_big_loss_bbox"
    loss_weight: 1
    python_param {
      module: "layers.smooth_l1_loss"
      layer: "SmoothL1LossLayer"
      param_str: "{\"sigma\": 3}"
    }
  }
  layer {
    name: "proposal"
    type: "Python"
    bottom: "rpn_big_cls_prob_reshape"
    bottom: "rpn_big_bbox_pred"
    bottom: "input_im_info"
    top: "rpn_rois"
    python_param {
      module: "rpn.proposal_layer"
      layer: "ProposalLayer"
      param_str: "{\"anchor_shift_num_xy\": [[2, 2], [2, 2], [2, 2], [2, 2], [1, 1], [1, 1], [1, 1], [1, 1], [1, 1], [1, 1], [1, 1], [1, 1], [1, 1], [1, 1]], \"feat_stride\": 16, \"num_classes\": 1, \"anchor_scales\": [2.5, 3.025, 3.66025, 4.4289024999999995, 5.358972025, 6.484356150249999, 7.846070941802498, 9.493745839581022, 11.487432465893036, 13.899793283730574, 16.818749873313998, 20.350687346709933, 24.62433168951902, 29.795441344318014], \"square_targets\": true, \"name\": \"rpn_big\", \"batchsize\": 256, \"anchor_ratios\": [1.0]}"
    }
  }
  layer {
    name: "roi-data"
    type: "Python"
    bottom: "rpn_rois"
    bottom: "input_gt_boxes"
    top: "rois"
    top: "labels"
    top: "bbox_targets"
    top: "bbox_inside_weights"
    top: "bbox_outside_weights"
    top: "pid_label"
    python_param {
      module: "rpn.proposal_target_layer"
      layer: "ProposalTargetLayer"
      param_str: "{\"num_classes\": 2, \"bg_aux_label\": 5532}"
    }
  }
  layer {
    name: "roi-pool"
    type: "ROIPooling"
    bottom: "conv5_3"
    bottom: "rois"
    top: "roi-pool"
    roi_pooling_param {
      pooled_h: 7
      pooled_w: 7
      spatial_scale: 0.0625
    }
  }
  layer {
    name: "fc6"
    type: "InnerProduct"
    bottom: "roi-pool"
    top: "fc6"
    param {
      lr_mult: 1
    }
    param {
      lr_mult: 2
    }
    inner_product_param {
      num_output: 4096
    }
  }
  layer {
    name: "relu6"
    type: "ReLU"
    bottom: "fc6"
    top: "fc6"
  }
  layer {
    name: "drop6"
    type: "Dropout"
    bottom: "fc6"
    top: "fc6"
    dropout_param {
      dropout_ratio: 0.5
    }
  }
  layer {
    name: "fc7"
    type: "InnerProduct"
    bottom: "fc6"
    top: "fc7"
    param {
      lr_mult: 1
    }
    param {
      lr_mult: 2
    }
    inner_product_param {
      num_output: 4096
    }
  }
  layer {
    name: "relu7"
    type: "ReLU"
    bottom: "fc7"
    top: "fc7"
  }
  layer {
    name: "drop7"
    type: "Dropout"
    bottom: "fc7"
    top: "fc7"
    dropout_param {
      dropout_ratio: 0.5
    }
  }
}
average_loss: 100
stepvalue: 70000
stepvalue: 120000
iter_size: 2
I0413 18:14:47.541950 12671 solver.cpp:86] Creating training net specified in net_param.
I0413 18:14:47.542568 12671 net.cpp:58] Initializing net from parameters: 
name: "GeneratedModel_13_04_2017_18_14"
state {
  phase: TRAIN
}
layer {
  name: "input"
  type: "Python"
  top: "input_data"
  top: "input_im_info"
  top: "input_gt_boxes"
  top: "input_ignored_boxes"
  python_param {
    module: "layers.roi_data_layer"
    layer: "RoIDataLayer"
    param_str: "{\"num_classes\": 2}"
  }
}
layer {
  name: "conv1_1"
  type: "Convolution"
  bottom: "input_data"
  top: "conv1_1"
  param {
    lr_mult: 0
    decay_mult: 0
  }
  param {
    lr_mult: 0
    decay_mult: 0
  }
  convolution_param {
    num_output: 64
    pad: 1
    kernel_size: 3
  }
}
layer {
  name: "relu1_1"
  type: "ReLU"
  bottom: "conv1_1"
  top: "conv1_1"
}
layer {
  name: "conv1_2"
  type: "Convolution"
  bottom: "conv1_1"
  top: "conv1_2"
  param {
    lr_mult: 0
    decay_mult: 0
  }
  param {
    lr_mult: 0
    decay_mult: 0
  }
  convolution_param {
    num_output: 64
    pad: 1
    kernel_size: 3
  }
}
layer {
  name: "relu1_2"
  type: "ReLU"
  bottom: "conv1_2"
  top: "conv1_2"
}
layer {
  name: "pool1"
  type: "Pooling"
  bottom: "conv1_2"
  top: "pool1"
  pooling_param {
    pool: MAX
    kernel_size: 2
    stride: 2
  }
}
layer {
  name: "conv2_1"
  type: "Convolution"
  bottom: "pool1"
  top: "conv2_1"
  param {
    lr_mult: 0
    decay_mult: 0
  }
  param {
    lr_mult: 0
    decay_mult: 0
  }
  convolution_param {
    num_output: 128
    pad: 1
    kernel_size: 3
  }
}
layer {
  name: "relu2_1"
  type: "ReLU"
  bottom: "conv2_1"
  top: "conv2_1"
}
layer {
  name: "conv2_2"
  type: "Convolution"
  bottom: "conv2_1"
  top: "conv2_2"
  param {
    lr_mult: 0
    decay_mult: 0
  }
  param {
    lr_mult: 0
    decay_mult: 0
  }
  convolution_param {
    num_output: 128
    pad: 1
    kernel_size: 3
  }
}
layer {
  name: "relu2_2"
  type: "ReLU"
  bottom: "conv2_2"
  top: "conv2_2"
}
layer {
  name: "pool2"
  type: "Pooling"
  bottom: "conv2_2"
  top: "pool2"
  pooling_param {
    pool: MAX
    kernel_size: 2
    stride: 2
  }
}
layer {
  name: "conv3_1"
  type: "Convolution"
  bottom: "pool2"
  top: "conv3_1"
  param {
    lr_mult: 1
  }
  param {
    lr_mult: 2
  }
  convolution_param {
    num_output: 256
    pad: 1
    kernel_size: 3
  }
}
layer {
  name: "relu3_1"
  type: "ReLU"
  bottom: "conv3_1"
  top: "conv3_1"
}
layer {
  name: "conv3_2"
  type: "Convolution"
  bottom: "conv3_1"
  top: "conv3_2"
  param {
    lr_mult: 1
  }
  param {
    lr_mult: 2
  }
  convolution_param {
    num_output: 256
    pad: 1
    kernel_size: 3
  }
}
layer {
  name: "relu3_2"
  type: "ReLU"
  bottom: "conv3_2"
  top: "conv3_2"
}
layer {
  name: "conv3_3"
  type: "Convolution"
  bottom: "conv3_2"
  top: "conv3_3"
  param {
    lr_mult: 1
  }
  param {
    lr_mult: 2
  }
  convolution_param {
    num_output: 256
    pad: 1
    kernel_size: 3
  }
}
layer {
  name: "relu3_3"
  type: "ReLU"
  bottom: "conv3_3"
  top: "conv3_3"
}
layer {
  name: "pool3"
  type: "Pooling"
  bottom: "conv3_3"
  top: "pool3"
  pooling_param {
    pool: MAX
    kernel_size: 2
    stride: 2
  }
}
layer {
  name: "conv4_1"
  type: "Convolution"
  bottom: "pool3"
  top: "conv4_1"
  param {
    lr_mult: 1
  }
  param {
    lr_mult: 2
  }
  convolution_param {
    num_output: 512
    pad: 1
    kernel_size: 3
  }
}
layer {
  name: "relu4_1"
  type: "ReLU"
  bottom: "conv4_1"
  top: "conv4_1"
}
layer {
  name: "conv4_2"
  type: "Convolution"
  bottom: "conv4_1"
  top: "conv4_2"
  param {
    lr_mult: 1
  }
  param {
    lr_mult: 2
  }
  convolution_param {
    num_output: 512
    pad: 1
    kernel_size: 3
  }
}
layer {
  name: "relu4_2"
  type: "ReLU"
  bottom: "conv4_2"
  top: "conv4_2"
}
layer {
  name: "conv4_3"
  type: "Convolution"
  bottom: "conv4_2"
  top: "conv4_3"
  param {
    lr_mult: 1
  }
  param {
    lr_mult: 2
  }
  convolution_param {
    num_output: 512
    pad: 1
    kernel_size: 3
  }
}
layer {
  name: "relu4_3"
  type: "ReLU"
  bottom: "conv4_3"
  top: "conv4_3"
}
layer {
  name: "pool4"
  type: "Pooling"
  bottom: "conv4_3"
  top: "pool4"
  pooling_param {
    pool: MAX
    kernel_size: 2
    stride: 2
  }
}
layer {
  name: "conv5_1"
  type: "Convolution"
  bottom: "pool4"
  top: "conv5_1"
  param {
    lr_mult: 1
  }
  param {
    lr_mult: 2
  }
  convolution_param {
    num_output: 512
    pad: 1
    kernel_size: 3
  }
}
layer {
  name: "relu5_1"
  type: "ReLU"
  bottom: "conv5_1"
  top: "conv5_1"
}
layer {
  name: "conv5_2"
  type: "Convolution"
  bottom: "conv5_1"
  top: "conv5_2"
  param {
    lr_mult: 1
  }
  param {
    lr_mult: 2
  }
  convolution_param {
    num_output: 512
    pad: 1
    kernel_size: 3
  }
}
layer {
  name: "relu5_2"
  type: "ReLU"
  bottom: "conv5_2"
  top: "conv5_2"
}
layer {
  name: "conv5_3"
  type: "Convolution"
  bottom: "conv5_2"
  top: "conv5_3"
  param {
    lr_mult: 1
  }
  param {
    lr_mult: 2
  }
  convolution_param {
    num_output: 512
    pad: 1
    kernel_size: 3
  }
}
layer {
  name: "relu5_3"
  type: "ReLU"
  bottom: "conv5_3"
  top: "conv5_3"
}
layer {
  name: "rpn_big_conv1"
  type: "Convolution"
  bottom: "conv5_3"
  top: "rpn_big_conv1"
  param {
    lr_mult: 1
  }
  param {
    lr_mult: 2
  }
  convolution_param {
    num_output: 512
    pad: 1
    kernel_size: 3
    stride: 1
    weight_filler {
      type: "gaussian"
      mean: 0
      std: 0.01
    }
    bias_filler {
      type: "constant"
    }
  }
}
layer {
  name: "rpn_big_conv1_relu"
  type: "ReLU"
  bottom: "rpn_big_conv1"
  top: "rpn_big_conv1"
  relu_param {
    negative_slope: 0
  }
}
layer {
  name: "rpn_big_conv2"
  type: "Convolution"
  bottom: "rpn_big_conv1"
  top: "rpn_big_conv2"
  param {
    lr_mult: 1
  }
  param {
    lr_mult: 2
  }
  convolution_param {
    num_output: 512
    pad: 1
    kernel_size: 3
    stride: 1
    weight_filler {
      type: "gaussian"
      mean: 0
      std: 0.01
    }
    bias_filler {
      type: "constant"
    }
  }
}
layer {
  name: "rpn_big_conv2_relu"
  type: "ReLU"
  bottom: "rpn_big_conv2"
  top: "rpn_big_conv2"
  relu_param {
    negative_slope: 0
  }
}
layer {
  name: "rpn_big_conv2_drop"
  type: "Dropout"
  bottom: "rpn_big_conv2"
  top: "rpn_big_conv2"
  dropout_param {
    dropout_ratio: 0.3
  }
}
layer {
  name: "rpn_big_output_cls"
  type: "Convolution"
  bottom: "rpn_big_conv2"
  top: "rpn_big_output_cls"
  param {
    lr_mult: 1
  }
  param {
    lr_mult: 2
  }
  convolution_param {
    num_output: 384
    pad: 1
    kernel_size: 3
    stride: 1
    weight_filler {
      type: "gaussian"
      mean: 0
      std: 0.01
    }
    bias_filler {
      type: "constant"
    }
  }
}
layer {
  name: "rpn_big_output_cls_relu"
  type: "ReLU"
  bottom: "rpn_big_output_cls"
  top: "rpn_big_output_cls"
  relu_param {
    negative_slope: 0
  }
}
layer {
  name: "rpn_big_cls_score"
  type: "Convolution"
  bottom: "rpn_big_output_cls"
  top: "rpn_big_cls_score"
  param {
    lr_mult: 1
  }
  param {
    lr_mult: 2
  }
  convolution_param {
    num_output: 52
    pad: 0
    kernel_size: 3
    stride: 1
    weight_filler {
      type: "gaussian"
      mean: 0
      std: 0.01
    }
    bias_filler {
      type: "constant"
    }
  }
}
layer {
  name: "rpn_big_cls_score_reshape"
  type: "Reshape"
  bottom: "rpn_big_cls_score"
  top: "rpn_big_cls_score_reshape"
  reshape_param {
    shape {
      dim: 0
      dim: 2
      dim: -1
      dim: 0
    }
  }
}
layer {
  name: "rpn_big_cls_prob"
  type: "Softmax"
  bottom: "rpn_big_cls_score_reshape"
  top: "rpn_big_cls_prob"
}
layer {
  name: "rpn_big_cls_prob_reshape"
  type: "Reshape"
  bottom: "rpn_big_cls_prob"
  top: "rpn_big_cls_prob_reshape"
  reshape_param {
    shape {
      dim: 0
      dim: 52
      dim: -1
      dim: 0
    }
  }
}
layer {
  name: "rpn_big_anchor_target"
  type: "Python"
  bottom: "rpn_big_cls_score"
  bottom: "input_gt_boxes"
  bottom: "input_ignored_boxes"
  bottom: "input_im_info"
  bottom: "input_data"
  bottom: "rpn_big_cls_prob_reshape"
  top: "rpn_big_anchor_target_labels"
  top: "rpn_big_anchor_target_bbox_targets"
  top: "rpn_big_anchor_target_inside_weights"
  top: "rpn_big_anchor_target_outside_weights"
  python_param {
    module: "rpn.anchor_target_layer"
    layer: "AnchorTargetLayer"
    param_str: "{\"feat_stride\": 16, \"name\": \"rpn_big\", \"tn_fraction\": 0.2, \"anchor_shift_num_xy\": [[2, 2], [2, 2], [2, 2], [2, 2], [1, 1], [1, 1], [1, 1], [1, 1], [1, 1], [1, 1], [1, 1], [1, 1], [1, 1], [1, 1]], \"fg_fraction\": 0.5, \"anchor_ratios\": [1.0], \"anchor_scales\": [2.5, 3.025, 3.66025, 4.4289024999999995, 5.358972025, 6.484356150249999, 7.846070941802498, 9.493745839581022, 11.487432465893036, 13.899793283730574, 16.818749873313998, 20.350687346709933, 24.62433168951902, 29.795441344318014], \"num_classes\": 1, \"square_targets\": true, \"batchsize\": 256, \"positive_overlap\": 0.6, \"negative_overlap\": 0.4}"
  }
}
layer {
  name: "rpn_big_loss_cls"
  type: "SoftmaxWithLoss"
  bottom: "rpn_big_cls_score_reshape"
  bottom: "rpn_big_anchor_target_labels"
  top: "rpn_big_loss_cls"
  loss_weight: 1
  propagate_down: true
  propagate_down: false
  loss_param {
    ignore_label: -1
    normalization: VALID
  }
}
layer {
  name: "rpn_big_output_box"
  type: "Convolution"
  bottom: "rpn_big_conv2"
  top: "rpn_big_output_box"
  param {
    lr_mult: 1
  }
  param {
    lr_mult: 2
  }
  convolution_param {
    num_output: 384
    pad: 1
    kernel_size: 3
    stride: 1
    weight_filler {
      type: "gaussian"
      mean: 0
      std: 0.01
    }
    bias_filler {
      type: "constant"
    }
  }
}
layer {
  name: "rpn_big_output_box_relu"
  type: "ReLU"
  bottom: "rpn_big_output_box"
  top: "rpn_big_output_box"
  relu_param {
    negative_slope: 0
  }
}
layer {
  name: "rpn_big_bbox_pred"
  type: "Convolution"
  bottom: "rpn_big_output_box"
  top: "rpn_big_bbox_pred"
  param {
    lr_mult: 1
  }
  param {
    lr_mult: 2
  }
  convolution_param {
    num_output: 104
    pad: 0
    kernel_size: 3
    stride: 1
    weight_filler {
      type: "gaussian"
      mean: 0
      std: 0.01
    }
    bias_filler {
      type: "constant"
    }
  }
}
layer {
  name: "rpn_big_loss_bbox"
  type: "Python"
  bottom: "rpn_big_bbox_pred"
  bottom: "rpn_big_anchor_target_bbox_targets"
  bottom: "rpn_big_anchor_target_inside_weights"
  bottom: "rpn_big_anchor_target_outside_weights"
  top: "rpn_big_loss_bbox"
  loss_weight: 1
  python_param {
    module: "layers.smooth_l1_loss"
    layer: "SmoothL1LossLayer"
    param_str: "{\"sigma\": 3}"
  }
}
layer {
  name: "proposal"
  type: "Python"
  bottom: "rpn_big_cls_prob_reshape"
  bottom: "rpn_big_bbox_pred"
  bottom: "input_im_info"
  top: "rpn_rois"
  python_param {
    module: "rpn.proposal_layer"
    layer: "ProposalLayer"
    param_str: "{\"anchor_shift_num_xy\": [[2, 2], [2, 2], [2, 2], [2, 2], [1, 1], [1, 1], [1, 1], [1, 1], [1, 1], [1, 1], [1, 1], [1, 1], [1, 1], [1, 1]], \"feat_stride\": 16, \"num_classes\": 1, \"anchor_scales\": [2.5, 3.025, 3.66025, 4.4289024999999995, 5.358972025, 6.484356150249999, 7.846070941802498, 9.493745839581022, 11.487432465893036, 13.899793283730574, 16.818749873313998, 20.350687346709933, 24.62433168951902, 29.795441344318014], \"square_targets\": true, \"name\": \"rpn_big\", \"batchsize\": 256, \"anchor_ratios\": [1.0]}"
  }
}
layer {
  name: "roi-data"
  type: "Python"
  bottom: "rpn_rois"
  bottom: "input_gt_boxes"
  top: "rois"
  top: "labels"
  top: "bbox_targets"
  top: "bbox_inside_weights"
  top: "bbox_outside_weights"
  top: "pid_label"
  python_param {
    module: "rpn.proposal_target_layer"
    layer: "ProposalTargetLayer"
    param_str: "{\"num_classes\": 2, \"bg_aux_label\": 5532}"
  }
}
layer {
  name: "roi-pool"
  type: "ROIPooling"
  bottom: "conv5_3"
  bottom: "rois"
  top: "roi-pool"
  roi_pooling_param {
    pooled_h: 7
    pooled_w: 7
    spatial_scale: 0.0625
  }
}
layer {
  name: "fc6"
  type: "InnerProduct"
  bottom: "roi-pool"
  top: "fc6"
  param {
    lr_mult: 1
  }
  param {
    lr_mult: 2
  }
  inner_product_param {
    num_output: 4096
  }
}
layer {
  name: "relu6"
  type: "ReLU"
  bottom: "fc6"
  top: "fc6"
}
layer {
  name: "drop6"
  type: "Dropout"
  bottom: "fc6"
  top: "fc6"
  dropout_param {
    dropout_ratio: 0.5
  }
}
layer {
  name: "fc7"
  type: "InnerProduct"
  bottom: "fc6"
  top: "fc7"
  param {
    lr_mult: 1
  }
  param {
    lr_mult: 2
  }
  inner_product_param {
    num_output: 4096
  }
}
layer {
  name: "relu7"
  type: "ReLU"
  bottom: "fc7"
  top: "fc7"
}
layer {
  name: "drop7"
  type: "Dropout"
  bottom: "fc7"
  top: "fc7"
  dropout_param {
    dropout_ratio: 0.5
  }
}
I0413 18:14:47.545262 12671 layer_factory.hpp:77] Creating layer input
I0413 18:14:47.546651 12671 net.cpp:100] Creating Layer input
I0413 18:14:47.546669 12671 net.cpp:408] input -> input_data
I0413 18:14:47.546679 12671 net.cpp:408] input -> input_im_info
I0413 18:14:47.546687 12671 net.cpp:408] input -> input_gt_boxes
I0413 18:14:47.546694 12671 net.cpp:408] input -> input_ignored_boxes
RoiDataLayer: name_to_top: {'ignored_boxes': 3, 'gt_boxes': 2, 'data': 0, 'im_info': 1}
I0413 18:14:47.864970 12671 net.cpp:150] Setting up input
I0413 18:14:47.865000 12671 net.cpp:157] Top shape: 1 3 1000 1500 (4500000)
I0413 18:14:47.865010 12671 net.cpp:157] Top shape: 1 3 (3)
I0413 18:14:47.865015 12671 net.cpp:157] Top shape: 1 5 (5)
I0413 18:14:47.865022 12671 net.cpp:157] Top shape: 1 5 (5)
I0413 18:14:47.865027 12671 net.cpp:165] Memory required for data: 18000052
I0413 18:14:47.865037 12671 layer_factory.hpp:77] Creating layer input_data_input_0_split
I0413 18:14:47.865056 12671 net.cpp:100] Creating Layer input_data_input_0_split
I0413 18:14:47.865063 12671 net.cpp:434] input_data_input_0_split <- input_data
I0413 18:14:47.865075 12671 net.cpp:408] input_data_input_0_split -> input_data_input_0_split_0
I0413 18:14:47.865094 12671 net.cpp:408] input_data_input_0_split -> input_data_input_0_split_1
I0413 18:14:47.865136 12671 net.cpp:150] Setting up input_data_input_0_split
I0413 18:14:47.865147 12671 net.cpp:157] Top shape: 1 3 1000 1500 (4500000)
I0413 18:14:47.865155 12671 net.cpp:157] Top shape: 1 3 1000 1500 (4500000)
I0413 18:14:47.865161 12671 net.cpp:165] Memory required for data: 54000052
I0413 18:14:47.865169 12671 layer_factory.hpp:77] Creating layer input_im_info_input_1_split
I0413 18:14:47.865180 12671 net.cpp:100] Creating Layer input_im_info_input_1_split
I0413 18:14:47.865188 12671 net.cpp:434] input_im_info_input_1_split <- input_im_info
I0413 18:14:47.865197 12671 net.cpp:408] input_im_info_input_1_split -> input_im_info_input_1_split_0
I0413 18:14:47.865211 12671 net.cpp:408] input_im_info_input_1_split -> input_im_info_input_1_split_1
I0413 18:14:47.865248 12671 net.cpp:150] Setting up input_im_info_input_1_split
I0413 18:14:47.865258 12671 net.cpp:157] Top shape: 1 3 (3)
I0413 18:14:47.865265 12671 net.cpp:157] Top shape: 1 3 (3)
I0413 18:14:47.865272 12671 net.cpp:165] Memory required for data: 54000076
I0413 18:14:47.865278 12671 layer_factory.hpp:77] Creating layer input_gt_boxes_input_2_split
I0413 18:14:47.865290 12671 net.cpp:100] Creating Layer input_gt_boxes_input_2_split
I0413 18:14:47.865298 12671 net.cpp:434] input_gt_boxes_input_2_split <- input_gt_boxes
I0413 18:14:47.865308 12671 net.cpp:408] input_gt_boxes_input_2_split -> input_gt_boxes_input_2_split_0
I0413 18:14:47.865322 12671 net.cpp:408] input_gt_boxes_input_2_split -> input_gt_boxes_input_2_split_1
I0413 18:14:47.865358 12671 net.cpp:150] Setting up input_gt_boxes_input_2_split
I0413 18:14:47.865368 12671 net.cpp:157] Top shape: 1 5 (5)
I0413 18:14:47.865376 12671 net.cpp:157] Top shape: 1 5 (5)
I0413 18:14:47.865382 12671 net.cpp:165] Memory required for data: 54000116
I0413 18:14:47.865388 12671 layer_factory.hpp:77] Creating layer conv1_1
I0413 18:14:47.865406 12671 net.cpp:100] Creating Layer conv1_1
I0413 18:14:47.865413 12671 net.cpp:434] conv1_1 <- input_data_input_0_split_0
I0413 18:14:47.865423 12671 net.cpp:408] conv1_1 -> conv1_1
I0413 18:14:47.868476 12671 net.cpp:150] Setting up conv1_1
I0413 18:14:47.868515 12671 net.cpp:157] Top shape: 1 64 1000 1500 (96000000)
I0413 18:14:47.868520 12671 net.cpp:165] Memory required for data: 438000116
I0413 18:14:47.868544 12671 layer_factory.hpp:77] Creating layer relu1_1
I0413 18:14:47.868559 12671 net.cpp:100] Creating Layer relu1_1
I0413 18:14:47.868568 12671 net.cpp:434] relu1_1 <- conv1_1
I0413 18:14:47.868585 12671 net.cpp:395] relu1_1 -> conv1_1 (in-place)
I0413 18:14:47.868602 12671 net.cpp:150] Setting up relu1_1
I0413 18:14:47.868612 12671 net.cpp:157] Top shape: 1 64 1000 1500 (96000000)
I0413 18:14:47.868618 12671 net.cpp:165] Memory required for data: 822000116
I0413 18:14:47.868624 12671 layer_factory.hpp:77] Creating layer conv1_2
I0413 18:14:47.868641 12671 net.cpp:100] Creating Layer conv1_2
I0413 18:14:47.868649 12671 net.cpp:434] conv1_2 <- conv1_1
I0413 18:14:47.868659 12671 net.cpp:408] conv1_2 -> conv1_2
I0413 18:14:47.871829 12671 net.cpp:150] Setting up conv1_2
I0413 18:14:47.871870 12671 net.cpp:157] Top shape: 1 64 1000 1500 (96000000)
I0413 18:14:47.871876 12671 net.cpp:165] Memory required for data: 1206000116
I0413 18:14:47.871899 12671 layer_factory.hpp:77] Creating layer relu1_2
I0413 18:14:47.871917 12671 net.cpp:100] Creating Layer relu1_2
I0413 18:14:47.871927 12671 net.cpp:434] relu1_2 <- conv1_2
I0413 18:14:47.871939 12671 net.cpp:395] relu1_2 -> conv1_2 (in-place)
I0413 18:14:47.871956 12671 net.cpp:150] Setting up relu1_2
I0413 18:14:47.871965 12671 net.cpp:157] Top shape: 1 64 1000 1500 (96000000)
I0413 18:14:47.871973 12671 net.cpp:165] Memory required for data: 1590000116
I0413 18:14:47.871978 12671 layer_factory.hpp:77] Creating layer pool1
I0413 18:14:47.871995 12671 net.cpp:100] Creating Layer pool1
I0413 18:14:47.872002 12671 net.cpp:434] pool1 <- conv1_2
I0413 18:14:47.872011 12671 net.cpp:408] pool1 -> pool1
I0413 18:14:47.872088 12671 net.cpp:150] Setting up pool1
I0413 18:14:47.872098 12671 net.cpp:157] Top shape: 1 64 500 750 (24000000)
I0413 18:14:47.872104 12671 net.cpp:165] Memory required for data: 1686000116
I0413 18:14:47.872110 12671 layer_factory.hpp:77] Creating layer conv2_1
I0413 18:14:47.872128 12671 net.cpp:100] Creating Layer conv2_1
I0413 18:14:47.872134 12671 net.cpp:434] conv2_1 <- pool1
I0413 18:14:47.872143 12671 net.cpp:408] conv2_1 -> conv2_1
I0413 18:14:47.873375 12671 net.cpp:150] Setting up conv2_1
I0413 18:14:47.873397 12671 net.cpp:157] Top shape: 1 128 500 750 (48000000)
I0413 18:14:47.873404 12671 net.cpp:165] Memory required for data: 1878000116
I0413 18:14:47.873420 12671 layer_factory.hpp:77] Creating layer relu2_1
I0413 18:14:47.873433 12671 net.cpp:100] Creating Layer relu2_1
I0413 18:14:47.873442 12671 net.cpp:434] relu2_1 <- conv2_1
I0413 18:14:47.873452 12671 net.cpp:395] relu2_1 -> conv2_1 (in-place)
I0413 18:14:47.873466 12671 net.cpp:150] Setting up relu2_1
I0413 18:14:47.873474 12671 net.cpp:157] Top shape: 1 128 500 750 (48000000)
I0413 18:14:47.873482 12671 net.cpp:165] Memory required for data: 2070000116
I0413 18:14:47.873488 12671 layer_factory.hpp:77] Creating layer conv2_2
I0413 18:14:47.873504 12671 net.cpp:100] Creating Layer conv2_2
I0413 18:14:47.873510 12671 net.cpp:434] conv2_2 <- conv2_1
I0413 18:14:47.873520 12671 net.cpp:408] conv2_2 -> conv2_2
I0413 18:14:47.874450 12671 net.cpp:150] Setting up conv2_2
I0413 18:14:47.874475 12671 net.cpp:157] Top shape: 1 128 500 750 (48000000)
I0413 18:14:47.874480 12671 net.cpp:165] Memory required for data: 2262000116
I0413 18:14:47.874495 12671 layer_factory.hpp:77] Creating layer relu2_2
I0413 18:14:47.874510 12671 net.cpp:100] Creating Layer relu2_2
I0413 18:14:47.874517 12671 net.cpp:434] relu2_2 <- conv2_2
I0413 18:14:47.874531 12671 net.cpp:395] relu2_2 -> conv2_2 (in-place)
I0413 18:14:47.874544 12671 net.cpp:150] Setting up relu2_2
I0413 18:14:47.874553 12671 net.cpp:157] Top shape: 1 128 500 750 (48000000)
I0413 18:14:47.874560 12671 net.cpp:165] Memory required for data: 2454000116
I0413 18:14:47.874567 12671 layer_factory.hpp:77] Creating layer pool2
I0413 18:14:47.874577 12671 net.cpp:100] Creating Layer pool2
I0413 18:14:47.874583 12671 net.cpp:434] pool2 <- conv2_2
I0413 18:14:47.874594 12671 net.cpp:408] pool2 -> pool2
I0413 18:14:47.874645 12671 net.cpp:150] Setting up pool2
I0413 18:14:47.874655 12671 net.cpp:157] Top shape: 1 128 250 375 (12000000)
I0413 18:14:47.874661 12671 net.cpp:165] Memory required for data: 2502000116
I0413 18:14:47.874670 12671 layer_factory.hpp:77] Creating layer conv3_1
I0413 18:14:47.874685 12671 net.cpp:100] Creating Layer conv3_1
I0413 18:14:47.874691 12671 net.cpp:434] conv3_1 <- pool2
I0413 18:14:47.874702 12671 net.cpp:408] conv3_1 -> conv3_1
I0413 18:14:47.875788 12671 net.cpp:150] Setting up conv3_1
I0413 18:14:47.875814 12671 net.cpp:157] Top shape: 1 256 250 375 (24000000)
I0413 18:14:47.875820 12671 net.cpp:165] Memory required for data: 2598000116
I0413 18:14:47.875839 12671 layer_factory.hpp:77] Creating layer relu3_1
I0413 18:14:47.875851 12671 net.cpp:100] Creating Layer relu3_1
I0413 18:14:47.875860 12671 net.cpp:434] relu3_1 <- conv3_1
I0413 18:14:47.875875 12671 net.cpp:395] relu3_1 -> conv3_1 (in-place)
I0413 18:14:47.875890 12671 net.cpp:150] Setting up relu3_1
I0413 18:14:47.875898 12671 net.cpp:157] Top shape: 1 256 250 375 (24000000)
I0413 18:14:47.875906 12671 net.cpp:165] Memory required for data: 2694000116
I0413 18:14:47.875912 12671 layer_factory.hpp:77] Creating layer conv3_2
I0413 18:14:47.875931 12671 net.cpp:100] Creating Layer conv3_2
I0413 18:14:47.875937 12671 net.cpp:434] conv3_2 <- conv3_1
I0413 18:14:47.875947 12671 net.cpp:408] conv3_2 -> conv3_2
I0413 18:14:47.877151 12671 net.cpp:150] Setting up conv3_2
I0413 18:14:47.877180 12671 net.cpp:157] Top shape: 1 256 250 375 (24000000)
I0413 18:14:47.877187 12671 net.cpp:165] Memory required for data: 2790000116
I0413 18:14:47.877200 12671 layer_factory.hpp:77] Creating layer relu3_2
I0413 18:14:47.877215 12671 net.cpp:100] Creating Layer relu3_2
I0413 18:14:47.877223 12671 net.cpp:434] relu3_2 <- conv3_2
I0413 18:14:47.877239 12671 net.cpp:395] relu3_2 -> conv3_2 (in-place)
I0413 18:14:47.877252 12671 net.cpp:150] Setting up relu3_2
I0413 18:14:47.877262 12671 net.cpp:157] Top shape: 1 256 250 375 (24000000)
I0413 18:14:47.877269 12671 net.cpp:165] Memory required for data: 2886000116
I0413 18:14:47.877275 12671 layer_factory.hpp:77] Creating layer conv3_3
I0413 18:14:47.877290 12671 net.cpp:100] Creating Layer conv3_3
I0413 18:14:47.877297 12671 net.cpp:434] conv3_3 <- conv3_2
I0413 18:14:47.877307 12671 net.cpp:408] conv3_3 -> conv3_3
I0413 18:14:47.878880 12671 net.cpp:150] Setting up conv3_3
I0413 18:14:47.878911 12671 net.cpp:157] Top shape: 1 256 250 375 (24000000)
I0413 18:14:47.878917 12671 net.cpp:165] Memory required for data: 2982000116
I0413 18:14:47.878932 12671 layer_factory.hpp:77] Creating layer relu3_3
I0413 18:14:47.878947 12671 net.cpp:100] Creating Layer relu3_3
I0413 18:14:47.878955 12671 net.cpp:434] relu3_3 <- conv3_3
I0413 18:14:47.878970 12671 net.cpp:395] relu3_3 -> conv3_3 (in-place)
I0413 18:14:47.878986 12671 net.cpp:150] Setting up relu3_3
I0413 18:14:47.878995 12671 net.cpp:157] Top shape: 1 256 250 375 (24000000)
I0413 18:14:47.879003 12671 net.cpp:165] Memory required for data: 3078000116
I0413 18:14:47.879009 12671 layer_factory.hpp:77] Creating layer pool3
I0413 18:14:47.879020 12671 net.cpp:100] Creating Layer pool3
I0413 18:14:47.879029 12671 net.cpp:434] pool3 <- conv3_3
I0413 18:14:47.879040 12671 net.cpp:408] pool3 -> pool3
I0413 18:14:47.879101 12671 net.cpp:150] Setting up pool3
I0413 18:14:47.879112 12671 net.cpp:157] Top shape: 1 256 125 188 (6016000)
I0413 18:14:47.879120 12671 net.cpp:165] Memory required for data: 3102064116
I0413 18:14:47.879127 12671 layer_factory.hpp:77] Creating layer conv4_1
I0413 18:14:47.879139 12671 net.cpp:100] Creating Layer conv4_1
I0413 18:14:47.879146 12671 net.cpp:434] conv4_1 <- pool3
I0413 18:14:47.879158 12671 net.cpp:408] conv4_1 -> conv4_1
I0413 18:14:47.882241 12671 net.cpp:150] Setting up conv4_1
I0413 18:14:47.882277 12671 net.cpp:157] Top shape: 1 512 125 188 (12032000)
I0413 18:14:47.882283 12671 net.cpp:165] Memory required for data: 3150192116
I0413 18:14:47.882299 12671 layer_factory.hpp:77] Creating layer relu4_1
I0413 18:14:47.882314 12671 net.cpp:100] Creating Layer relu4_1
I0413 18:14:47.882323 12671 net.cpp:434] relu4_1 <- conv4_1
I0413 18:14:47.882335 12671 net.cpp:395] relu4_1 -> conv4_1 (in-place)
I0413 18:14:47.882350 12671 net.cpp:150] Setting up relu4_1
I0413 18:14:47.882360 12671 net.cpp:157] Top shape: 1 512 125 188 (12032000)
I0413 18:14:47.882366 12671 net.cpp:165] Memory required for data: 3198320116
I0413 18:14:47.882372 12671 layer_factory.hpp:77] Creating layer conv4_2
I0413 18:14:47.882388 12671 net.cpp:100] Creating Layer conv4_2
I0413 18:14:47.882398 12671 net.cpp:434] conv4_2 <- conv4_1
I0413 18:14:47.882412 12671 net.cpp:408] conv4_2 -> conv4_2
I0413 18:14:47.886926 12671 net.cpp:150] Setting up conv4_2
I0413 18:14:47.886962 12671 net.cpp:157] Top shape: 1 512 125 188 (12032000)
I0413 18:14:47.886968 12671 net.cpp:165] Memory required for data: 3246448116
I0413 18:14:47.886992 12671 layer_factory.hpp:77] Creating layer relu4_2
I0413 18:14:47.887007 12671 net.cpp:100] Creating Layer relu4_2
I0413 18:14:47.887015 12671 net.cpp:434] relu4_2 <- conv4_2
I0413 18:14:47.887028 12671 net.cpp:395] relu4_2 -> conv4_2 (in-place)
I0413 18:14:47.887043 12671 net.cpp:150] Setting up relu4_2
I0413 18:14:47.887073 12671 net.cpp:157] Top shape: 1 512 125 188 (12032000)
I0413 18:14:47.887091 12671 net.cpp:165] Memory required for data: 3294576116
I0413 18:14:47.887109 12671 layer_factory.hpp:77] Creating layer conv4_3
I0413 18:14:47.887135 12671 net.cpp:100] Creating Layer conv4_3
I0413 18:14:47.887152 12671 net.cpp:434] conv4_3 <- conv4_2
I0413 18:14:47.887178 12671 net.cpp:408] conv4_3 -> conv4_3
I0413 18:14:47.891559 12671 net.cpp:150] Setting up conv4_3
I0413 18:14:47.891597 12671 net.cpp:157] Top shape: 1 512 125 188 (12032000)
I0413 18:14:47.891600 12671 net.cpp:165] Memory required for data: 3342704116
I0413 18:14:47.891610 12671 layer_factory.hpp:77] Creating layer relu4_3
I0413 18:14:47.891620 12671 net.cpp:100] Creating Layer relu4_3
I0413 18:14:47.891625 12671 net.cpp:434] relu4_3 <- conv4_3
I0413 18:14:47.891636 12671 net.cpp:395] relu4_3 -> conv4_3 (in-place)
I0413 18:14:47.891650 12671 net.cpp:150] Setting up relu4_3
I0413 18:14:47.891680 12671 net.cpp:157] Top shape: 1 512 125 188 (12032000)
I0413 18:14:47.891686 12671 net.cpp:165] Memory required for data: 3390832116
I0413 18:14:47.891692 12671 layer_factory.hpp:77] Creating layer pool4
I0413 18:14:47.891705 12671 net.cpp:100] Creating Layer pool4
I0413 18:14:47.891712 12671 net.cpp:434] pool4 <- conv4_3
I0413 18:14:47.891721 12671 net.cpp:408] pool4 -> pool4
I0413 18:14:47.891798 12671 net.cpp:150] Setting up pool4
I0413 18:14:47.891808 12671 net.cpp:157] Top shape: 1 512 63 94 (3032064)
I0413 18:14:47.891813 12671 net.cpp:165] Memory required for data: 3402960372
I0413 18:14:47.891825 12671 layer_factory.hpp:77] Creating layer conv5_1
I0413 18:14:47.891844 12671 net.cpp:100] Creating Layer conv5_1
I0413 18:14:47.891858 12671 net.cpp:434] conv5_1 <- pool4
I0413 18:14:47.891867 12671 net.cpp:408] conv5_1 -> conv5_1
I0413 18:14:47.899041 12671 net.cpp:150] Setting up conv5_1
I0413 18:14:47.899070 12671 net.cpp:157] Top shape: 1 512 63 94 (3032064)
I0413 18:14:47.899083 12671 net.cpp:165] Memory required for data: 3415088628
I0413 18:14:47.899093 12671 layer_factory.hpp:77] Creating layer relu5_1
I0413 18:14:47.899102 12671 net.cpp:100] Creating Layer relu5_1
I0413 18:14:47.899107 12671 net.cpp:434] relu5_1 <- conv5_1
I0413 18:14:47.899117 12671 net.cpp:395] relu5_1 -> conv5_1 (in-place)
I0413 18:14:47.899132 12671 net.cpp:150] Setting up relu5_1
I0413 18:14:47.899142 12671 net.cpp:157] Top shape: 1 512 63 94 (3032064)
I0413 18:14:47.899147 12671 net.cpp:165] Memory required for data: 3427216884
I0413 18:14:47.899152 12671 layer_factory.hpp:77] Creating layer conv5_2
I0413 18:14:47.899164 12671 net.cpp:100] Creating Layer conv5_2
I0413 18:14:47.899171 12671 net.cpp:434] conv5_2 <- conv5_1
I0413 18:14:47.899180 12671 net.cpp:408] conv5_2 -> conv5_2
I0413 18:14:47.903616 12671 net.cpp:150] Setting up conv5_2
I0413 18:14:47.903651 12671 net.cpp:157] Top shape: 1 512 63 94 (3032064)
I0413 18:14:47.903657 12671 net.cpp:165] Memory required for data: 3439345140
I0413 18:14:47.903671 12671 layer_factory.hpp:77] Creating layer relu5_2
I0413 18:14:47.903686 12671 net.cpp:100] Creating Layer relu5_2
I0413 18:14:47.903692 12671 net.cpp:434] relu5_2 <- conv5_2
I0413 18:14:47.903707 12671 net.cpp:395] relu5_2 -> conv5_2 (in-place)
I0413 18:14:47.903723 12671 net.cpp:150] Setting up relu5_2
I0413 18:14:47.903731 12671 net.cpp:157] Top shape: 1 512 63 94 (3032064)
I0413 18:14:47.903736 12671 net.cpp:165] Memory required for data: 3451473396
I0413 18:14:47.903743 12671 layer_factory.hpp:77] Creating layer conv5_3
I0413 18:14:47.903767 12671 net.cpp:100] Creating Layer conv5_3
I0413 18:14:47.903794 12671 net.cpp:434] conv5_3 <- conv5_2
I0413 18:14:47.903817 12671 net.cpp:408] conv5_3 -> conv5_3
I0413 18:14:47.908398 12671 net.cpp:150] Setting up conv5_3
I0413 18:14:47.908433 12671 net.cpp:157] Top shape: 1 512 63 94 (3032064)
I0413 18:14:47.908439 12671 net.cpp:165] Memory required for data: 3463601652
I0413 18:14:47.908454 12671 layer_factory.hpp:77] Creating layer relu5_3
I0413 18:14:47.908469 12671 net.cpp:100] Creating Layer relu5_3
I0413 18:14:47.908478 12671 net.cpp:434] relu5_3 <- conv5_3
I0413 18:14:47.908489 12671 net.cpp:395] relu5_3 -> conv5_3 (in-place)
I0413 18:14:47.908505 12671 net.cpp:150] Setting up relu5_3
I0413 18:14:47.908514 12671 net.cpp:157] Top shape: 1 512 63 94 (3032064)
I0413 18:14:47.908519 12671 net.cpp:165] Memory required for data: 3475729908
I0413 18:14:47.908524 12671 layer_factory.hpp:77] Creating layer conv5_3_relu5_3_0_split
I0413 18:14:47.908535 12671 net.cpp:100] Creating Layer conv5_3_relu5_3_0_split
I0413 18:14:47.908540 12671 net.cpp:434] conv5_3_relu5_3_0_split <- conv5_3
I0413 18:14:47.908550 12671 net.cpp:408] conv5_3_relu5_3_0_split -> conv5_3_relu5_3_0_split_0
I0413 18:14:47.908560 12671 net.cpp:408] conv5_3_relu5_3_0_split -> conv5_3_relu5_3_0_split_1
I0413 18:14:47.908609 12671 net.cpp:150] Setting up conv5_3_relu5_3_0_split
I0413 18:14:47.908620 12671 net.cpp:157] Top shape: 1 512 63 94 (3032064)
I0413 18:14:47.908627 12671 net.cpp:157] Top shape: 1 512 63 94 (3032064)
I0413 18:14:47.908632 12671 net.cpp:165] Memory required for data: 3499986420
I0413 18:14:47.908637 12671 layer_factory.hpp:77] Creating layer rpn_big_conv1
I0413 18:14:47.908653 12671 net.cpp:100] Creating Layer rpn_big_conv1
I0413 18:14:47.908660 12671 net.cpp:434] rpn_big_conv1 <- conv5_3_relu5_3_0_split_0
I0413 18:14:47.908674 12671 net.cpp:408] rpn_big_conv1 -> rpn_big_conv1
I0413 18:14:47.934309 12671 net.cpp:150] Setting up rpn_big_conv1
I0413 18:14:47.934343 12671 net.cpp:157] Top shape: 1 512 63 94 (3032064)
I0413 18:14:47.934350 12671 net.cpp:165] Memory required for data: 3512114676
I0413 18:14:47.934371 12671 layer_factory.hpp:77] Creating layer rpn_big_conv1_relu
I0413 18:14:47.934386 12671 net.cpp:100] Creating Layer rpn_big_conv1_relu
I0413 18:14:47.934396 12671 net.cpp:434] rpn_big_conv1_relu <- rpn_big_conv1
I0413 18:14:47.934408 12671 net.cpp:395] rpn_big_conv1_relu -> rpn_big_conv1 (in-place)
I0413 18:14:47.934423 12671 net.cpp:150] Setting up rpn_big_conv1_relu
I0413 18:14:47.934432 12671 net.cpp:157] Top shape: 1 512 63 94 (3032064)
I0413 18:14:47.934437 12671 net.cpp:165] Memory required for data: 3524242932
I0413 18:14:47.934443 12671 layer_factory.hpp:77] Creating layer rpn_big_conv2
I0413 18:14:47.934460 12671 net.cpp:100] Creating Layer rpn_big_conv2
I0413 18:14:47.934468 12671 net.cpp:434] rpn_big_conv2 <- rpn_big_conv1
I0413 18:14:47.934481 12671 net.cpp:408] rpn_big_conv2 -> rpn_big_conv2
I0413 18:14:47.960019 12671 net.cpp:150] Setting up rpn_big_conv2
I0413 18:14:47.960052 12671 net.cpp:157] Top shape: 1 512 63 94 (3032064)
I0413 18:14:47.960057 12671 net.cpp:165] Memory required for data: 3536371188
I0413 18:14:47.960078 12671 layer_factory.hpp:77] Creating layer rpn_big_conv2_relu
I0413 18:14:47.960093 12671 net.cpp:100] Creating Layer rpn_big_conv2_relu
I0413 18:14:47.960109 12671 net.cpp:434] rpn_big_conv2_relu <- rpn_big_conv2
I0413 18:14:47.960125 12671 net.cpp:395] rpn_big_conv2_relu -> rpn_big_conv2 (in-place)
I0413 18:14:47.960141 12671 net.cpp:150] Setting up rpn_big_conv2_relu
I0413 18:14:47.960152 12671 net.cpp:157] Top shape: 1 512 63 94 (3032064)
I0413 18:14:47.960158 12671 net.cpp:165] Memory required for data: 3548499444
I0413 18:14:47.960163 12671 layer_factory.hpp:77] Creating layer rpn_big_conv2_drop
I0413 18:14:47.960175 12671 net.cpp:100] Creating Layer rpn_big_conv2_drop
I0413 18:14:47.960185 12671 net.cpp:434] rpn_big_conv2_drop <- rpn_big_conv2
I0413 18:14:47.960193 12671 net.cpp:395] rpn_big_conv2_drop -> rpn_big_conv2 (in-place)
I0413 18:14:47.960227 12671 net.cpp:150] Setting up rpn_big_conv2_drop
I0413 18:14:47.960237 12671 net.cpp:157] Top shape: 1 512 63 94 (3032064)
I0413 18:14:47.960242 12671 net.cpp:165] Memory required for data: 3560627700
I0413 18:14:47.960247 12671 layer_factory.hpp:77] Creating layer rpn_big_conv2_rpn_big_conv2_drop_0_split
I0413 18:14:47.960259 12671 net.cpp:100] Creating Layer rpn_big_conv2_rpn_big_conv2_drop_0_split
I0413 18:14:47.960268 12671 net.cpp:434] rpn_big_conv2_rpn_big_conv2_drop_0_split <- rpn_big_conv2
I0413 18:14:47.960276 12671 net.cpp:408] rpn_big_conv2_rpn_big_conv2_drop_0_split -> rpn_big_conv2_rpn_big_conv2_drop_0_split_0
I0413 18:14:47.960289 12671 net.cpp:408] rpn_big_conv2_rpn_big_conv2_drop_0_split -> rpn_big_conv2_rpn_big_conv2_drop_0_split_1
I0413 18:14:47.960336 12671 net.cpp:150] Setting up rpn_big_conv2_rpn_big_conv2_drop_0_split
I0413 18:14:47.960346 12671 net.cpp:157] Top shape: 1 512 63 94 (3032064)
I0413 18:14:47.960355 12671 net.cpp:157] Top shape: 1 512 63 94 (3032064)
I0413 18:14:47.960362 12671 net.cpp:165] Memory required for data: 3584884212
I0413 18:14:47.960368 12671 layer_factory.hpp:77] Creating layer rpn_big_output_cls
I0413 18:14:47.960386 12671 net.cpp:100] Creating Layer rpn_big_output_cls
I0413 18:14:47.960394 12671 net.cpp:434] rpn_big_output_cls <- rpn_big_conv2_rpn_big_conv2_drop_0_split_0
I0413 18:14:47.960413 12671 net.cpp:408] rpn_big_output_cls -> rpn_big_output_cls
I0413 18:14:47.981881 12671 net.cpp:150] Setting up rpn_big_output_cls
I0413 18:14:47.981922 12671 net.cpp:157] Top shape: 1 384 63 94 (2274048)
I0413 18:14:47.981928 12671 net.cpp:165] Memory required for data: 3593980404
I0413 18:14:47.981943 12671 layer_factory.hpp:77] Creating layer rpn_big_output_cls_relu
I0413 18:14:47.981961 12671 net.cpp:100] Creating Layer rpn_big_output_cls_relu
I0413 18:14:47.981971 12671 net.cpp:434] rpn_big_output_cls_relu <- rpn_big_output_cls
I0413 18:14:47.981982 12671 net.cpp:395] rpn_big_output_cls_relu -> rpn_big_output_cls (in-place)
I0413 18:14:47.981998 12671 net.cpp:150] Setting up rpn_big_output_cls_relu
I0413 18:14:47.982012 12671 net.cpp:157] Top shape: 1 384 63 94 (2274048)
I0413 18:14:47.982018 12671 net.cpp:165] Memory required for data: 3603076596
I0413 18:14:47.982024 12671 layer_factory.hpp:77] Creating layer rpn_big_cls_score
I0413 18:14:47.982043 12671 net.cpp:100] Creating Layer rpn_big_cls_score
I0413 18:14:47.982053 12671 net.cpp:434] rpn_big_cls_score <- rpn_big_output_cls
I0413 18:14:47.982066 12671 net.cpp:408] rpn_big_cls_score -> rpn_big_cls_score
I0413 18:14:47.984421 12671 net.cpp:150] Setting up rpn_big_cls_score
I0413 18:14:47.984443 12671 net.cpp:157] Top shape: 1 52 61 92 (291824)
I0413 18:14:47.984449 12671 net.cpp:165] Memory required for data: 3604243892
I0413 18:14:47.984473 12671 layer_factory.hpp:77] Creating layer rpn_big_cls_score_rpn_big_cls_score_0_split
I0413 18:14:47.984488 12671 net.cpp:100] Creating Layer rpn_big_cls_score_rpn_big_cls_score_0_split
I0413 18:14:47.984513 12671 net.cpp:434] rpn_big_cls_score_rpn_big_cls_score_0_split <- rpn_big_cls_score
I0413 18:14:47.984541 12671 net.cpp:408] rpn_big_cls_score_rpn_big_cls_score_0_split -> rpn_big_cls_score_rpn_big_cls_score_0_split_0
I0413 18:14:47.984568 12671 net.cpp:408] rpn_big_cls_score_rpn_big_cls_score_0_split -> rpn_big_cls_score_rpn_big_cls_score_0_split_1
I0413 18:14:47.984635 12671 net.cpp:150] Setting up rpn_big_cls_score_rpn_big_cls_score_0_split
I0413 18:14:47.984659 12671 net.cpp:157] Top shape: 1 52 61 92 (291824)
I0413 18:14:47.984680 12671 net.cpp:157] Top shape: 1 52 61 92 (291824)
I0413 18:14:47.984699 12671 net.cpp:165] Memory required for data: 3606578484
I0413 18:14:47.984716 12671 layer_factory.hpp:77] Creating layer rpn_big_cls_score_reshape
I0413 18:14:47.984740 12671 net.cpp:100] Creating Layer rpn_big_cls_score_reshape
I0413 18:14:47.984758 12671 net.cpp:434] rpn_big_cls_score_reshape <- rpn_big_cls_score_rpn_big_cls_score_0_split_0
I0413 18:14:47.984782 12671 net.cpp:408] rpn_big_cls_score_reshape -> rpn_big_cls_score_reshape
I0413 18:14:47.984833 12671 net.cpp:150] Setting up rpn_big_cls_score_reshape
I0413 18:14:47.984858 12671 net.cpp:157] Top shape: 1 2 1586 92 (291824)
I0413 18:14:47.984875 12671 net.cpp:165] Memory required for data: 3607745780
I0413 18:14:47.984894 12671 layer_factory.hpp:77] Creating layer rpn_big_cls_score_reshape_rpn_big_cls_score_reshape_0_split
I0413 18:14:47.984912 12671 net.cpp:100] Creating Layer rpn_big_cls_score_reshape_rpn_big_cls_score_reshape_0_split
I0413 18:14:47.984920 12671 net.cpp:434] rpn_big_cls_score_reshape_rpn_big_cls_score_reshape_0_split <- rpn_big_cls_score_reshape
I0413 18:14:47.984932 12671 net.cpp:408] rpn_big_cls_score_reshape_rpn_big_cls_score_reshape_0_split -> rpn_big_cls_score_reshape_rpn_big_cls_score_reshape_0_split_0
I0413 18:14:47.984946 12671 net.cpp:408] rpn_big_cls_score_reshape_rpn_big_cls_score_reshape_0_split -> rpn_big_cls_score_reshape_rpn_big_cls_score_reshape_0_split_1
I0413 18:14:47.984992 12671 net.cpp:150] Setting up rpn_big_cls_score_reshape_rpn_big_cls_score_reshape_0_split
I0413 18:14:47.985002 12671 net.cpp:157] Top shape: 1 2 1586 92 (291824)
I0413 18:14:47.985011 12671 net.cpp:157] Top shape: 1 2 1586 92 (291824)
I0413 18:14:47.985016 12671 net.cpp:165] Memory required for data: 3610080372
I0413 18:14:47.985023 12671 layer_factory.hpp:77] Creating layer rpn_big_cls_prob
I0413 18:14:47.985033 12671 net.cpp:100] Creating Layer rpn_big_cls_prob
I0413 18:14:47.985039 12671 net.cpp:434] rpn_big_cls_prob <- rpn_big_cls_score_reshape_rpn_big_cls_score_reshape_0_split_0
I0413 18:14:47.985051 12671 net.cpp:408] rpn_big_cls_prob -> rpn_big_cls_prob
I0413 18:14:47.985115 12671 net.cpp:150] Setting up rpn_big_cls_prob
I0413 18:14:47.985126 12671 net.cpp:157] Top shape: 1 2 1586 92 (291824)
I0413 18:14:47.985131 12671 net.cpp:165] Memory required for data: 3611247668
I0413 18:14:47.985137 12671 layer_factory.hpp:77] Creating layer rpn_big_cls_prob_reshape
I0413 18:14:47.985148 12671 net.cpp:100] Creating Layer rpn_big_cls_prob_reshape
I0413 18:14:47.985155 12671 net.cpp:434] rpn_big_cls_prob_reshape <- rpn_big_cls_prob
I0413 18:14:47.985167 12671 net.cpp:408] rpn_big_cls_prob_reshape -> rpn_big_cls_prob_reshape
I0413 18:14:47.985198 12671 net.cpp:150] Setting up rpn_big_cls_prob_reshape
I0413 18:14:47.985208 12671 net.cpp:157] Top shape: 1 52 61 92 (291824)
I0413 18:14:47.985214 12671 net.cpp:165] Memory required for data: 3612414964
I0413 18:14:47.985220 12671 layer_factory.hpp:77] Creating layer rpn_big_cls_prob_reshape_rpn_big_cls_prob_reshape_0_split
I0413 18:14:47.985230 12671 net.cpp:100] Creating Layer rpn_big_cls_prob_reshape_rpn_big_cls_prob_reshape_0_split
I0413 18:14:47.985236 12671 net.cpp:434] rpn_big_cls_prob_reshape_rpn_big_cls_prob_reshape_0_split <- rpn_big_cls_prob_reshape
I0413 18:14:47.985247 12671 net.cpp:408] rpn_big_cls_prob_reshape_rpn_big_cls_prob_reshape_0_split -> rpn_big_cls_prob_reshape_rpn_big_cls_prob_reshape_0_split_0
I0413 18:14:47.985260 12671 net.cpp:408] rpn_big_cls_prob_reshape_rpn_big_cls_prob_reshape_0_split -> rpn_big_cls_prob_reshape_rpn_big_cls_prob_reshape_0_split_1
I0413 18:14:47.985302 12671 net.cpp:150] Setting up rpn_big_cls_prob_reshape_rpn_big_cls_prob_reshape_0_split
I0413 18:14:47.985313 12671 net.cpp:157] Top shape: 1 52 61 92 (291824)
I0413 18:14:47.985321 12671 net.cpp:157] Top shape: 1 52 61 92 (291824)
I0413 18:14:47.985327 12671 net.cpp:165] Memory required for data: 3614749556
I0413 18:14:47.985332 12671 layer_factory.hpp:77] Creating layer rpn_big_anchor_target
I0413 18:14:47.986771 12671 net.cpp:100] Creating Layer rpn_big_anchor_target
I0413 18:14:47.986801 12671 net.cpp:434] rpn_big_anchor_target <- rpn_big_cls_score_rpn_big_cls_score_0_split_1
I0413 18:14:47.986814 12671 net.cpp:434] rpn_big_anchor_target <- input_gt_boxes_input_2_split_0
I0413 18:14:47.986822 12671 net.cpp:434] rpn_big_anchor_target <- input_ignored_boxes
I0413 18:14:47.986830 12671 net.cpp:434] rpn_big_anchor_target <- input_im_info_input_1_split_0
I0413 18:14:47.986836 12671 net.cpp:434] rpn_big_anchor_target <- input_data_input_0_split_1
I0413 18:14:47.986845 12671 net.cpp:434] rpn_big_anchor_target <- rpn_big_cls_prob_reshape_rpn_big_cls_prob_reshape_0_split_0
I0413 18:14:47.986857 12671 net.cpp:408] rpn_big_anchor_target -> rpn_big_anchor_target_labels
I0413 18:14:47.986876 12671 net.cpp:408] rpn_big_anchor_target -> rpn_big_anchor_target_bbox_targets
I0413 18:14:47.986891 12671 net.cpp:408] rpn_big_anchor_target -> rpn_big_anchor_target_inside_weights
I0413 18:14:47.986912 12671 net.cpp:408] rpn_big_anchor_target -> rpn_big_anchor_target_outside_weights
I0413 18:14:47.992612 12671 net.cpp:150] Setting up rpn_big_anchor_target
I0413 18:14:47.992645 12671 net.cpp:157] Top shape: 1 1 1586 92 (145912)
I0413 18:14:47.992655 12671 net.cpp:157] Top shape: 1 104 61 92 (583648)
I0413 18:14:47.992661 12671 net.cpp:157] Top shape: 1 104 61 92 (583648)
I0413 18:14:47.992668 12671 net.cpp:157] Top shape: 1 104 61 92 (583648)
I0413 18:14:47.992673 12671 net.cpp:165] Memory required for data: 3622336980
I0413 18:14:47.992681 12671 layer_factory.hpp:77] Creating layer rpn_big_loss_cls
I0413 18:14:47.992702 12671 net.cpp:100] Creating Layer rpn_big_loss_cls
I0413 18:14:47.992710 12671 net.cpp:434] rpn_big_loss_cls <- rpn_big_cls_score_reshape_rpn_big_cls_score_reshape_0_split_1
I0413 18:14:47.992722 12671 net.cpp:434] rpn_big_loss_cls <- rpn_big_anchor_target_labels
I0413 18:14:47.992739 12671 net.cpp:408] rpn_big_loss_cls -> rpn_big_loss_cls
I0413 18:14:47.992763 12671 layer_factory.hpp:77] Creating layer rpn_big_loss_cls
I0413 18:14:47.993453 12671 net.cpp:150] Setting up rpn_big_loss_cls
I0413 18:14:47.993468 12671 net.cpp:157] Top shape: (1)
I0413 18:14:47.993472 12671 net.cpp:160]     with loss weight 1
I0413 18:14:47.993497 12671 net.cpp:165] Memory required for data: 3622336984
I0413 18:14:47.993505 12671 layer_factory.hpp:77] Creating layer rpn_big_output_box
I0413 18:14:47.993526 12671 net.cpp:100] Creating Layer rpn_big_output_box
I0413 18:14:47.993535 12671 net.cpp:434] rpn_big_output_box <- rpn_big_conv2_rpn_big_conv2_drop_0_split_1
I0413 18:14:47.993546 12671 net.cpp:408] rpn_big_output_box -> rpn_big_output_box
I0413 18:14:48.012826 12671 net.cpp:150] Setting up rpn_big_output_box
I0413 18:14:48.012899 12671 net.cpp:157] Top shape: 1 384 63 94 (2274048)
I0413 18:14:48.012931 12671 net.cpp:165] Memory required for data: 3631433176
I0413 18:14:48.012959 12671 layer_factory.hpp:77] Creating layer rpn_big_output_box_relu
I0413 18:14:48.012996 12671 net.cpp:100] Creating Layer rpn_big_output_box_relu
I0413 18:14:48.013018 12671 net.cpp:434] rpn_big_output_box_relu <- rpn_big_output_box
I0413 18:14:48.013046 12671 net.cpp:395] rpn_big_output_box_relu -> rpn_big_output_box (in-place)
I0413 18:14:48.013064 12671 net.cpp:150] Setting up rpn_big_output_box_relu
I0413 18:14:48.013077 12671 net.cpp:157] Top shape: 1 384 63 94 (2274048)
I0413 18:14:48.013084 12671 net.cpp:165] Memory required for data: 3640529368
I0413 18:14:48.013090 12671 layer_factory.hpp:77] Creating layer rpn_big_bbox_pred
I0413 18:14:48.013110 12671 net.cpp:100] Creating Layer rpn_big_bbox_pred
I0413 18:14:48.013118 12671 net.cpp:434] rpn_big_bbox_pred <- rpn_big_output_box
I0413 18:14:48.013131 12671 net.cpp:408] rpn_big_bbox_pred -> rpn_big_bbox_pred
I0413 18:14:48.017273 12671 net.cpp:150] Setting up rpn_big_bbox_pred
I0413 18:14:48.017289 12671 net.cpp:157] Top shape: 1 104 61 92 (583648)
I0413 18:14:48.017295 12671 net.cpp:165] Memory required for data: 3642863960
I0413 18:14:48.017307 12671 layer_factory.hpp:77] Creating layer rpn_big_bbox_pred_rpn_big_bbox_pred_0_split
I0413 18:14:48.017323 12671 net.cpp:100] Creating Layer rpn_big_bbox_pred_rpn_big_bbox_pred_0_split
I0413 18:14:48.017331 12671 net.cpp:434] rpn_big_bbox_pred_rpn_big_bbox_pred_0_split <- rpn_big_bbox_pred
I0413 18:14:48.017343 12671 net.cpp:408] rpn_big_bbox_pred_rpn_big_bbox_pred_0_split -> rpn_big_bbox_pred_rpn_big_bbox_pred_0_split_0
I0413 18:14:48.017359 12671 net.cpp:408] rpn_big_bbox_pred_rpn_big_bbox_pred_0_split -> rpn_big_bbox_pred_rpn_big_bbox_pred_0_split_1
I0413 18:14:48.017400 12671 net.cpp:150] Setting up rpn_big_bbox_pred_rpn_big_bbox_pred_0_split
I0413 18:14:48.017410 12671 net.cpp:157] Top shape: 1 104 61 92 (583648)
I0413 18:14:48.017418 12671 net.cpp:157] Top shape: 1 104 61 92 (583648)
I0413 18:14:48.017426 12671 net.cpp:165] Memory required for data: 3647533144
I0413 18:14:48.017432 12671 layer_factory.hpp:77] Creating layer rpn_big_loss_bbox
I0413 18:14:48.017805 12671 net.cpp:100] Creating Layer rpn_big_loss_bbox
I0413 18:14:48.017817 12671 net.cpp:434] rpn_big_loss_bbox <- rpn_big_bbox_pred_rpn_big_bbox_pred_0_split_0
I0413 18:14:48.017827 12671 net.cpp:434] rpn_big_loss_bbox <- rpn_big_anchor_target_bbox_targets
I0413 18:14:48.017835 12671 net.cpp:434] rpn_big_loss_bbox <- rpn_big_anchor_target_inside_weights
I0413 18:14:48.017844 12671 net.cpp:434] rpn_big_loss_bbox <- rpn_big_anchor_target_outside_weights
I0413 18:14:48.017858 12671 net.cpp:408] rpn_big_loss_bbox -> rpn_big_loss_bbox
I0413 18:14:48.019815 12671 net.cpp:150] Setting up rpn_big_loss_bbox
I0413 18:14:48.019848 12671 net.cpp:157] Top shape: 1 (1)
I0413 18:14:48.019855 12671 net.cpp:160]     with loss weight 1
I0413 18:14:48.019870 12671 net.cpp:165] Memory required for data: 3647533148
I0413 18:14:48.019879 12671 layer_factory.hpp:77] Creating layer proposal
I0413 18:14:48.020277 12671 net.cpp:100] Creating Layer proposal
I0413 18:14:48.020290 12671 net.cpp:434] proposal <- rpn_big_cls_prob_reshape_rpn_big_cls_prob_reshape_0_split_1
I0413 18:14:48.020303 12671 net.cpp:434] proposal <- rpn_big_bbox_pred_rpn_big_bbox_pred_0_split_1
I0413 18:14:48.020313 12671 net.cpp:434] proposal <- input_im_info_input_1_split_1
I0413 18:14:48.020325 12671 net.cpp:408] proposal -> rpn_rois
I0413 18:14:48.024900 12671 net.cpp:150] Setting up proposal
I0413 18:14:48.024965 12671 net.cpp:157] Top shape: 1 5 (5)
I0413 18:14:48.024972 12671 net.cpp:165] Memory required for data: 3647533168
I0413 18:14:48.024981 12671 layer_factory.hpp:77] Creating layer roi-data
I0413 18:14:48.025461 12671 net.cpp:100] Creating Layer roi-data
I0413 18:14:48.025475 12671 net.cpp:434] roi-data <- rpn_rois
I0413 18:14:48.025486 12671 net.cpp:434] roi-data <- input_gt_boxes_input_2_split_1
I0413 18:14:48.025499 12671 net.cpp:408] roi-data -> rois
I0413 18:14:48.025514 12671 net.cpp:408] roi-data -> labels
I0413 18:14:48.025539 12671 net.cpp:408] roi-data -> bbox_targets
I0413 18:14:48.025554 12671 net.cpp:408] roi-data -> bbox_inside_weights
I0413 18:14:48.025569 12671 net.cpp:408] roi-data -> bbox_outside_weights
I0413 18:14:48.025585 12671 net.cpp:408] roi-data -> pid_label
I0413 18:14:48.026688 12671 net.cpp:150] Setting up roi-data
I0413 18:14:48.026702 12671 net.cpp:157] Top shape: 1 5 (5)
I0413 18:14:48.026710 12671 net.cpp:157] Top shape: 1 1 (1)
I0413 18:14:48.026718 12671 net.cpp:157] Top shape: 1 8 (8)
I0413 18:14:48.026726 12671 net.cpp:157] Top shape: 1 8 (8)
I0413 18:14:48.026733 12671 net.cpp:157] Top shape: 1 8 (8)
I0413 18:14:48.026739 12671 net.cpp:157] Top shape: (0)
I0413 18:14:48.026746 12671 net.cpp:165] Memory required for data: 3647533288
I0413 18:14:48.026752 12671 layer_factory.hpp:77] Creating layer roi-pool
I0413 18:14:48.026772 12671 net.cpp:100] Creating Layer roi-pool
I0413 18:14:48.026780 12671 net.cpp:434] roi-pool <- conv5_3_relu5_3_0_split_1
I0413 18:14:48.026790 12671 net.cpp:434] roi-pool <- rois
I0413 18:14:48.026800 12671 net.cpp:408] roi-pool -> roi-pool
I0413 18:14:48.026813 12671 roi_pooling_layer.cpp:33] Spatial scale: 0.0625
I0413 18:14:48.026829 12671 roi_pooling_layer.cpp:34] Box scale: 1
I0413 18:14:48.026880 12671 net.cpp:150] Setting up roi-pool
I0413 18:14:48.026892 12671 net.cpp:157] Top shape: 1 512 7 7 (25088)
I0413 18:14:48.026899 12671 net.cpp:165] Memory required for data: 3647633640
I0413 18:14:48.026906 12671 layer_factory.hpp:77] Creating layer fc6
I0413 18:14:48.026916 12671 net.cpp:100] Creating Layer fc6
I0413 18:14:48.026926 12671 net.cpp:434] fc6 <- roi-pool
I0413 18:14:48.026937 12671 net.cpp:408] fc6 -> fc6
I0413 18:14:48.188961 12671 net.cpp:150] Setting up fc6
I0413 18:14:48.188998 12671 net.cpp:157] Top shape: 1 4096 (4096)
I0413 18:14:48.189012 12671 net.cpp:165] Memory required for data: 3647650024
I0413 18:14:48.189023 12671 layer_factory.hpp:77] Creating layer relu6
I0413 18:14:48.189034 12671 net.cpp:100] Creating Layer relu6
I0413 18:14:48.189039 12671 net.cpp:434] relu6 <- fc6
I0413 18:14:48.189046 12671 net.cpp:395] relu6 -> fc6 (in-place)
I0413 18:14:48.189057 12671 net.cpp:150] Setting up relu6
I0413 18:14:48.189061 12671 net.cpp:157] Top shape: 1 4096 (4096)
I0413 18:14:48.189064 12671 net.cpp:165] Memory required for data: 3647666408
I0413 18:14:48.189067 12671 layer_factory.hpp:77] Creating layer drop6
I0413 18:14:48.189075 12671 net.cpp:100] Creating Layer drop6
I0413 18:14:48.189079 12671 net.cpp:434] drop6 <- fc6
I0413 18:14:48.189082 12671 net.cpp:395] drop6 -> fc6 (in-place)
I0413 18:14:48.189105 12671 net.cpp:150] Setting up drop6
I0413 18:14:48.189110 12671 net.cpp:157] Top shape: 1 4096 (4096)
I0413 18:14:48.189112 12671 net.cpp:165] Memory required for data: 3647682792
I0413 18:14:48.189116 12671 layer_factory.hpp:77] Creating layer fc7
I0413 18:14:48.189121 12671 net.cpp:100] Creating Layer fc7
I0413 18:14:48.189124 12671 net.cpp:434] fc7 <- fc6
I0413 18:14:48.189133 12671 net.cpp:408] fc7 -> fc7
I0413 18:14:48.216305 12671 net.cpp:150] Setting up fc7
I0413 18:14:48.216342 12671 net.cpp:157] Top shape: 1 4096 (4096)
I0413 18:14:48.216356 12671 net.cpp:165] Memory required for data: 3647699176
I0413 18:14:48.216367 12671 layer_factory.hpp:77] Creating layer relu7
I0413 18:14:48.216387 12671 net.cpp:100] Creating Layer relu7
I0413 18:14:48.216393 12671 net.cpp:434] relu7 <- fc7
I0413 18:14:48.216400 12671 net.cpp:395] relu7 -> fc7 (in-place)
I0413 18:14:48.216411 12671 net.cpp:150] Setting up relu7
I0413 18:14:48.216415 12671 net.cpp:157] Top shape: 1 4096 (4096)
I0413 18:14:48.216418 12671 net.cpp:165] Memory required for data: 3647715560
I0413 18:14:48.216421 12671 layer_factory.hpp:77] Creating layer drop7
I0413 18:14:48.216428 12671 net.cpp:100] Creating Layer drop7
I0413 18:14:48.216430 12671 net.cpp:434] drop7 <- fc7
I0413 18:14:48.216435 12671 net.cpp:395] drop7 -> fc7 (in-place)
I0413 18:14:48.216457 12671 net.cpp:150] Setting up drop7
I0413 18:14:48.216465 12671 net.cpp:157] Top shape: 1 4096 (4096)
I0413 18:14:48.216469 12671 net.cpp:165] Memory required for data: 3647731944
I0413 18:14:48.216472 12671 net.cpp:228] drop7 does not need backward computation.
I0413 18:14:48.216476 12671 net.cpp:228] relu7 does not need backward computation.
I0413 18:14:48.216480 12671 net.cpp:228] fc7 does not need backward computation.
I0413 18:14:48.216482 12671 net.cpp:228] drop6 does not need backward computation.
…
