…
I0413 19:08:48.107193 15367 solver.cpp:48] Initializing solver from parameters: 
base_lr: 0.001
display: 20
lr_policy: "multistep"
gamma: 0.1
momentum: 0.9
weight_decay: 0.0005
snapshot: 0
snapshot_prefix: "faces_example"
net_param {
  name: "GeneratedModel_13_04_2017_19_08"
  layer {
    name: "input"
    type: "Python"
    top: "input_data"
    top: "input_im_info"
    top: "input_gt_boxes"
    top: "input_ignored_boxes"
    python_param {
      module: "layers.roi_data_layer"
      layer: "RoIDataLayer"
      param_str: "{\"num_classes\": 2}"
    }
  }
  layer {
    name: "conv1_1"
    type: "Convolution"
    bottom: "input_data"
    top: "conv1_1"
    param {
      lr_mult: 0
      decay_mult: 0
    }
    param {
      lr_mult: 0
      decay_mult: 0
    }
    convolution_param {
      num_output: 64
      pad: 1
      kernel_size: 3
    }
  }
  layer {
    name: "relu1_1"
    type: "ReLU"
    bottom: "conv1_1"
    top: "conv1_1"
  }
  layer {
    name: "conv1_2"
    type: "Convolution"
    bottom: "conv1_1"
    top: "conv1_2"
    param {
      lr_mult: 0
      decay_mult: 0
    }
    param {
      lr_mult: 0
      decay_mult: 0
    }
    convolution_param {
      num_output: 64
      pad: 1
      kernel_size: 3
    }
  }
  layer {
    name: "relu1_2"
    type: "ReLU"
    bottom: "conv1_2"
    top: "conv1_2"
  }
  layer {
    name: "pool1"
    type: "Pooling"
    bottom: "conv1_2"
    top: "pool1"
    pooling_param {
      pool: MAX
      kernel_size: 2
      stride: 2
    }
  }
  layer {
    name: "conv2_1"
    type: "Convolution"
    bottom: "pool1"
    top: "conv2_1"
    param {
      lr_mult: 0
      decay_mult: 0
    }
    param {
      lr_mult: 0
      decay_mult: 0
    }
    convolution_param {
      num_output: 128
      pad: 1
      kernel_size: 3
    }
  }
  layer {
    name: "relu2_1"
    type: "ReLU"
    bottom: "conv2_1"
    top: "conv2_1"
  }
  layer {
    name: "conv2_2"
    type: "Convolution"
    bottom: "conv2_1"
    top: "conv2_2"
    param {
      lr_mult: 0
      decay_mult: 0
    }
    param {
      lr_mult: 0
      decay_mult: 0
    }
    convolution_param {
      num_output: 128
      pad: 1
      kernel_size: 3
    }
  }
  layer {
    name: "relu2_2"
    type: "ReLU"
    bottom: "conv2_2"
    top: "conv2_2"
  }
  layer {
    name: "pool2"
    type: "Pooling"
    bottom: "conv2_2"
    top: "pool2"
    pooling_param {
      pool: MAX
      kernel_size: 2
      stride: 2
    }
  }
  layer {
    name: "conv3_1"
    type: "Convolution"
    bottom: "pool2"
    top: "conv3_1"
    param {
      lr_mult: 1
    }
    param {
      lr_mult: 2
    }
    convolution_param {
      num_output: 256
      pad: 1
      kernel_size: 3
    }
  }
  layer {
    name: "relu3_1"
    type: "ReLU"
    bottom: "conv3_1"
    top: "conv3_1"
  }
  layer {
    name: "conv3_2"
    type: "Convolution"
    bottom: "conv3_1"
    top: "conv3_2"
    param {
      lr_mult: 1
    }
    param {
      lr_mult: 2
    }
    convolution_param {
      num_output: 256
      pad: 1
      kernel_size: 3
    }
  }
  layer {
    name: "relu3_2"
    type: "ReLU"
    bottom: "conv3_2"
    top: "conv3_2"
  }
  layer {
    name: "conv3_3"
    type: "Convolution"
    bottom: "conv3_2"
    top: "conv3_3"
    param {
      lr_mult: 1
    }
    param {
      lr_mult: 2
    }
    convolution_param {
      num_output: 256
      pad: 1
      kernel_size: 3
    }
  }
  layer {
    name: "relu3_3"
    type: "ReLU"
    bottom: "conv3_3"
    top: "conv3_3"
  }
  layer {
    name: "pool3"
    type: "Pooling"
    bottom: "conv3_3"
    top: "pool3"
    pooling_param {
      pool: MAX
      kernel_size: 2
      stride: 2
    }
  }
  layer {
    name: "conv4_1"
    type: "Convolution"
    bottom: "pool3"
    top: "conv4_1"
    param {
      lr_mult: 1
    }
    param {
      lr_mult: 2
    }
    convolution_param {
      num_output: 512
      pad: 1
      kernel_size: 3
    }
  }
  layer {
    name: "relu4_1"
    type: "ReLU"
    bottom: "conv4_1"
    top: "conv4_1"
  }
  layer {
    name: "conv4_2"
    type: "Convolution"
    bottom: "conv4_1"
    top: "conv4_2"
    param {
      lr_mult: 1
    }
    param {
      lr_mult: 2
    }
    convolution_param {
      num_output: 512
      pad: 1
      kernel_size: 3
    }
  }
  layer {
    name: "relu4_2"
    type: "ReLU"
    bottom: "conv4_2"
    top: "conv4_2"
  }
  layer {
    name: "conv4_3"
    type: "Convolution"
    bottom: "conv4_2"
    top: "conv4_3"
    param {
      lr_mult: 1
    }
    param {
      lr_mult: 2
    }
    convolution_param {
      num_output: 512
      pad: 1
      kernel_size: 3
    }
  }
  layer {
    name: "relu4_3"
    type: "ReLU"
    bottom: "conv4_3"
    top: "conv4_3"
  }
  layer {
    name: "pool4"
    type: "Pooling"
    bottom: "conv4_3"
    top: "pool4"
    pooling_param {
      pool: MAX
      kernel_size: 2
      stride: 2
    }
  }
  layer {
    name: "conv5_1"
    type: "Convolution"
    bottom: "pool4"
    top: "conv5_1"
    param {
      lr_mult: 1
    }
    param {
      lr_mult: 2
    }
    convolution_param {
      num_output: 512
      pad: 1
      kernel_size: 3
    }
  }
  layer {
    name: "relu5_1"
    type: "ReLU"
    bottom: "conv5_1"
    top: "conv5_1"
  }
  layer {
    name: "conv5_2"
    type: "Convolution"
    bottom: "conv5_1"
    top: "conv5_2"
    param {
      lr_mult: 1
    }
    param {
      lr_mult: 2
    }
    convolution_param {
      num_output: 512
      pad: 1
      kernel_size: 3
    }
  }
  layer {
    name: "relu5_2"
    type: "ReLU"
    bottom: "conv5_2"
    top: "conv5_2"
  }
  layer {
    name: "conv5_3"
    type: "Convolution"
    bottom: "conv5_2"
    top: "conv5_3"
    param {
      lr_mult: 1
    }
    param {
      lr_mult: 2
    }
    convolution_param {
      num_output: 512
      pad: 1
      kernel_size: 3
    }
  }
  layer {
    name: "relu5_3"
    type: "ReLU"
    bottom: "conv5_3"
    top: "conv5_3"
  }
  layer {
    name: "rpn_big_conv1"
    type: "Convolution"
    bottom: "conv5_3"
    top: "rpn_big_conv1"
    param {
      lr_mult: 1
    }
    param {
      lr_mult: 2
    }
    convolution_param {
      num_output: 512
      pad: 1
      kernel_size: 3
      stride: 1
      weight_filler {
        type: "gaussian"
        mean: 0
        std: 0.01
      }
      bias_filler {
        type: "constant"
      }
    }
  }
  layer {
    name: "rpn_big_conv1_relu"
    type: "ReLU"
    bottom: "rpn_big_conv1"
    top: "rpn_big_conv1"
    relu_param {
      negative_slope: 0
    }
  }
  layer {
    name: "rpn_big_conv2"
    type: "Convolution"
    bottom: "rpn_big_conv1"
    top: "rpn_big_conv2"
    param {
      lr_mult: 1
    }
    param {
      lr_mult: 2
    }
    convolution_param {
      num_output: 512
      pad: 1
      kernel_size: 3
      stride: 1
      weight_filler {
        type: "gaussian"
        mean: 0
        std: 0.01
      }
      bias_filler {
        type: "constant"
      }
    }
  }
  layer {
    name: "rpn_big_conv2_relu"
    type: "ReLU"
    bottom: "rpn_big_conv2"
    top: "rpn_big_conv2"
    relu_param {
      negative_slope: 0
    }
  }
  layer {
    name: "rpn_big_conv2_drop"
    type: "Dropout"
    bottom: "rpn_big_conv2"
    top: "rpn_big_conv2"
    dropout_param {
      dropout_ratio: 0.3
    }
  }
  layer {
    name: "rpn_big_output_cls"
    type: "Convolution"
    bottom: "rpn_big_conv2"
    top: "rpn_big_output_cls"
    param {
      lr_mult: 1
    }
    param {
      lr_mult: 2
    }
    convolution_param {
      num_output: 384
      pad: 1
      kernel_size: 3
      stride: 1
      weight_filler {
        type: "gaussian"
        mean: 0
        std: 0.01
      }
      bias_filler {
        type: "constant"
      }
    }
  }
  layer {
    name: "rpn_big_output_cls_relu"
    type: "ReLU"
    bottom: "rpn_big_output_cls"
    top: "rpn_big_output_cls"
    relu_param {
      negative_slope: 0
    }
  }
  layer {
    name: "rpn_big_cls_score"
    type: "Convolution"
    bottom: "rpn_big_output_cls"
    top: "rpn_big_cls_score"
    param {
      lr_mult: 1
    }
    param {
      lr_mult: 2
    }
    convolution_param {
      num_output: 52
      pad: 0
      kernel_size: 3
      stride: 1
      weight_filler {
        type: "gaussian"
        mean: 0
        std: 0.01
      }
      bias_filler {
        type: "constant"
      }
    }
  }
  layer {
    name: "rpn_big_cls_score_reshape"
    type: "Reshape"
    bottom: "rpn_big_cls_score"
    top: "rpn_big_cls_score_reshape"
    reshape_param {
      shape {
        dim: 0
        dim: 2
        dim: -1
        dim: 0
      }
    }
  }
  layer {
    name: "rpn_big_cls_prob"
    type: "Softmax"
    bottom: "rpn_big_cls_score_reshape"
    top: "rpn_big_cls_prob"
  }
  layer {
    name: "rpn_big_cls_prob_reshape"
    type: "Reshape"
    bottom: "rpn_big_cls_prob"
    top: "rpn_big_cls_prob_reshape"
    reshape_param {
      shape {
        dim: 0
        dim: 52
        dim: -1
        dim: 0
      }
    }
  }
  layer {
    name: "rpn_big_anchor_target"
    type: "Python"
    bottom: "rpn_big_cls_score"
    bottom: "input_gt_boxes"
    bottom: "input_ignored_boxes"
    bottom: "input_im_info"
    bottom: "input_data"
    bottom: "rpn_big_cls_prob_reshape"
    top: "rpn_big_anchor_target_labels"
    top: "rpn_big_anchor_target_bbox_targets"
    top: "rpn_big_anchor_target_inside_weights"
    top: "rpn_big_anchor_target_outside_weights"
    python_param {
      module: "rpn.anchor_target_layer"
      layer: "AnchorTargetLayer"
      param_str: "{\"num_classes\": 1, \"fg_fraction\": 0.5, \"anchor_ratios\": [1.0], \"batchsize\": 256, \"tn_fraction\": 0.2, \"square_targets\": true, \"negative_overlap\": 0.4, \"name\": \"rpn_big\", \"anchor_scales\": [2.5, 3.025, 3.66025, 4.4289024999999995, 5.358972025, 6.484356150249999, 7.846070941802498, 9.493745839581022, 11.487432465893036, 13.899793283730574, 16.818749873313998, 20.350687346709933, 24.62433168951902, 29.795441344318014], \"positive_overlap\": 0.6, \"anchor_shift_num_xy\": [[2, 2], [2, 2], [2, 2], [2, 2], [1, 1], [1, 1], [1, 1], [1, 1], [1, 1], [1, 1], [1, 1], [1, 1], [1, 1], [1, 1]], \"feat_stride\": 16}"
    }
  }
  layer {
    name: "rpn_big_loss_cls"
    type: "SoftmaxWithLoss"
    bottom: "rpn_big_cls_score_reshape"
    bottom: "rpn_big_anchor_target_labels"
    top: "rpn_big_loss_cls"
    loss_weight: 1
    propagate_down: true
    propagate_down: false
    loss_param {
      ignore_label: -1
      normalization: VALID
    }
  }
  layer {
    name: "rpn_big_output_box"
    type: "Convolution"
    bottom: "rpn_big_conv2"
    top: "rpn_big_output_box"
    param {
      lr_mult: 1
    }
    param {
      lr_mult: 2
    }
    convolution_param {
      num_output: 384
      pad: 1
      kernel_size: 3
      stride: 1
      weight_filler {
        type: "gaussian"
        mean: 0
        std: 0.01
      }
      bias_filler {
        type: "constant"
      }
    }
  }
  layer {
    name: "rpn_big_output_box_relu"
    type: "ReLU"
    bottom: "rpn_big_output_box"
    top: "rpn_big_output_box"
    relu_param {
      negative_slope: 0
    }
  }
  layer {
    name: "rpn_big_bbox_pred"
    type: "Convolution"
    bottom: "rpn_big_output_box"
    top: "rpn_big_bbox_pred"
    param {
      lr_mult: 1
    }
    param {
      lr_mult: 2
    }
    convolution_param {
      num_output: 104
      pad: 0
      kernel_size: 3
      stride: 1
      weight_filler {
        type: "gaussian"
        mean: 0
        std: 0.01
      }
      bias_filler {
        type: "constant"
      }
    }
  }
  layer {
    name: "rpn_big_loss_bbox"
    type: "Python"
    bottom: "rpn_big_bbox_pred"
    bottom: "rpn_big_anchor_target_bbox_targets"
    bottom: "rpn_big_anchor_target_inside_weights"
    bottom: "rpn_big_anchor_target_outside_weights"
    top: "rpn_big_loss_bbox"
    loss_weight: 1
    python_param {
      module: "layers.smooth_l1_loss"
      layer: "SmoothL1LossLayer"
      param_str: "{\"sigma\": 3}"
    }
  }
  layer {
    name: "proposal"
    type: "Python"
    bottom: "rpn_big_cls_prob_reshape"
    bottom: "rpn_big_bbox_pred"
    bottom: "input_im_info"
    top: "rpn_rois"
    python_param {
      module: "rpn.proposal_layer"
      layer: "ProposalLayer"
      param_str: "{\"anchor_shift_num_xy\": [[2, 2], [2, 2], [2, 2], [2, 2], [1, 1], [1, 1], [1, 1], [1, 1], [1, 1], [1, 1], [1, 1], [1, 1], [1, 1], [1, 1]], \"feat_stride\": 16, \"num_classes\": 1, \"anchor_scales\": [2.5, 3.025, 3.66025, 4.4289024999999995, 5.358972025, 6.484356150249999, 7.846070941802498, 9.493745839581022, 11.487432465893036, 13.899793283730574, 16.818749873313998, 20.350687346709933, 24.62433168951902, 29.795441344318014], \"square_targets\": true, \"name\": \"rpn_big\", \"batchsize\": 256, \"anchor_ratios\": [1.0]}"
    }
  }
  layer {
    name: "roi-data"
    type: "Python"
    bottom: "rpn_rois"
    bottom: "input_gt_boxes"
    top: "rois"
    top: "labels"
    top: "bbox_targets"
    top: "bbox_inside_weights"
    top: "bbox_outside_weights"
    top: "pid_label"
    python_param {
      module: "rpn.proposal_target_layer"
      layer: "ProposalTargetLayer"
      param_str: "{\"num_classes\": 2, \"bg_aux_label\": 5532}"
    }
  }
  layer {
    name: "roi-pool"
    type: "ROIPooling"
    bottom: "conv5_3"
    bottom: "rois"
    top: "roi-pool"
    roi_pooling_param {
      pooled_h: 7
      pooled_w: 7
      spatial_scale: 0.0625
    }
  }
  layer {
    name: "fc6"
    type: "InnerProduct"
    bottom: "roi-pool"
    top: "fc6"
    param {
      lr_mult: 1
    }
    param {
      lr_mult: 2
    }
    inner_product_param {
      num_output: 4096
    }
  }
  layer {
    name: "relu6"
    type: "ReLU"
    bottom: "fc6"
    top: "fc6"
  }
  layer {
    name: "drop6"
    type: "Dropout"
    bottom: "fc6"
    top: "fc6"
    dropout_param {
      dropout_ratio: 0.5
    }
  }
  layer {
    name: "fc7"
    type: "InnerProduct"
    bottom: "fc6"
    top: "fc7"
    param {
      lr_mult: 1
    }
    param {
      lr_mult: 2
    }
    inner_product_param {
      num_output: 4096
    }
  }
  layer {
    name: "relu7"
    type: "ReLU"
    bottom: "fc7"
    top: "fc7"
  }
  layer {
    name: "drop7"
    type: "Dropout"
    bottom: "fc7"
    top: "fc7"
    dropout_param {
      dropout_ratio: 0.5
    }
  }
  layer {
    name: "bbox_pred"
    type: "InnerProduct"
    bottom: "fc7"
    top: "bbox_pred"
    param {
      lr_mult: 1
    }
    param {
      lr_mult: 2
    }
    inner_product_param {
      num_output: 8
      weight_filler {
        type: "gaussian"
        std: 0.001
      }
      bias_filler {
        type: "constant"
        value: 0
      }
    }
  }
  layer {
    name: "loss_bbox"
    type: "SmoothL1Loss"
    bottom: "bbox_pred"
    bottom: "bbox_targets"
    bottom: "bbox_inside_weights"
    bottom: "bbox_outside_weights"
    top: "loss_bbox"
    loss_weight: 1
  }
  layer {
    name: "feat"
    type: "InnerProduct"
    bottom: "fc7"
    top: "feat"
    param {
      lr_mult: 1
      decay_mult: 1
    }
    param {
      lr_mult: 2
      decay_mult: 0
    }
    inner_product_param {
      num_output: 256
      weight_filler {
        type: "gaussian"
        std: 0.01
      }
      bias_filler {
        type: "constant"
        value: 0
      }
    }
  }
  layer {
    name: "relu8"
    type: "ReLU"
    bottom: "feat"
    top: "feat"
  }
  layer {
    name: "drop8"
    type: "Dropout"
    bottom: "feat"
    top: "feat"
    dropout_param {
      dropout_ratio: 0.5
    }
  }
  layer {
    name: "pid_score"
    type: "InnerProduct"
    bottom: "feat"
    top: "pid_score"
    param {
      lr_mult: 1
      decay_mult: 1
    }
    param {
      lr_mult: 2
      decay_mult: 0
    }
    inner_product_param {
      num_output: 5533
      weight_filler {
        type: "gaussian"
        std: 0.001
      }
      bias_filler {
        type: "constant"
        value: 0
      }
    }
  }
  layer {
    name: "pid_loss"
    type: "SoftmaxWithLoss"
    bottom: "pid_score"
    bottom: "pid_label"
    top: "pid_loss"
    loss_weight: 1
    propagate_down: true
    propagate_down: false
    loss_param {
      ignore_label: -1
      normalize: true
    }
  }
}
average_loss: 100
stepvalue: 70000
stepvalue: 120000
iter_size: 2
I0413 19:08:48.107319 15367 solver.cpp:86] Creating training net specified in net_param.
I0413 19:08:48.108098 15367 net.cpp:58] Initializing net from parameters: 
name: "GeneratedModel_13_04_2017_19_08"
state {
  phase: TRAIN
}
layer {
  name: "input"
  type: "Python"
  top: "input_data"
  top: "input_im_info"
  top: "input_gt_boxes"
  top: "input_ignored_boxes"
  python_param {
    module: "layers.roi_data_layer"
    layer: "RoIDataLayer"
    param_str: "{\"num_classes\": 2}"
  }
}
layer {
  name: "conv1_1"
  type: "Convolution"
  bottom: "input_data"
  top: "conv1_1"
  param {
    lr_mult: 0
    decay_mult: 0
  }
  param {
    lr_mult: 0
    decay_mult: 0
  }
  convolution_param {
    num_output: 64
    pad: 1
    kernel_size: 3
  }
}
layer {
  name: "relu1_1"
  type: "ReLU"
  bottom: "conv1_1"
  top: "conv1_1"
}
layer {
  name: "conv1_2"
  type: "Convolution"
  bottom: "conv1_1"
  top: "conv1_2"
  param {
    lr_mult: 0
    decay_mult: 0
  }
  param {
    lr_mult: 0
    decay_mult: 0
  }
  convolution_param {
    num_output: 64
    pad: 1
    kernel_size: 3
  }
}
layer {
  name: "relu1_2"
  type: "ReLU"
  bottom: "conv1_2"
  top: "conv1_2"
}
layer {
  name: "pool1"
  type: "Pooling"
  bottom: "conv1_2"
  top: "pool1"
  pooling_param {
    pool: MAX
    kernel_size: 2
    stride: 2
  }
}
layer {
  name: "conv2_1"
  type: "Convolution"
  bottom: "pool1"
  top: "conv2_1"
  param {
    lr_mult: 0
    decay_mult: 0
  }
  param {
    lr_mult: 0
    decay_mult: 0
  }
  convolution_param {
    num_output: 128
    pad: 1
    kernel_size: 3
  }
}
layer {
  name: "relu2_1"
  type: "ReLU"
  bottom: "conv2_1"
  top: "conv2_1"
}
layer {
  name: "conv2_2"
  type: "Convolution"
  bottom: "conv2_1"
  top: "conv2_2"
  param {
    lr_mult: 0
    decay_mult: 0
  }
  param {
    lr_mult: 0
    decay_mult: 0
  }
  convolution_param {
    num_output: 128
    pad: 1
    kernel_size: 3
  }
}
layer {
  name: "relu2_2"
  type: "ReLU"
  bottom: "conv2_2"
  top: "conv2_2"
}
layer {
  name: "pool2"
  type: "Pooling"
  bottom: "conv2_2"
  top: "pool2"
  pooling_param {
    pool: MAX
    kernel_size: 2
    stride: 2
  }
}
layer {
  name: "conv3_1"
  type: "Convolution"
  bottom: "pool2"
  top: "conv3_1"
  param {
    lr_mult: 1
  }
  param {
    lr_mult: 2
  }
  convolution_param {
    num_output: 256
    pad: 1
    kernel_size: 3
  }
}
layer {
  name: "relu3_1"
  type: "ReLU"
  bottom: "conv3_1"
  top: "conv3_1"
}
layer {
  name: "conv3_2"
  type: "Convolution"
  bottom: "conv3_1"
  top: "conv3_2"
  param {
    lr_mult: 1
  }
  param {
    lr_mult: 2
  }
  convolution_param {
    num_output: 256
    pad: 1
    kernel_size: 3
  }
}
layer {
  name: "relu3_2"
  type: "ReLU"
  bottom: "conv3_2"
  top: "conv3_2"
}
layer {
  name: "conv3_3"
  type: "Convolution"
  bottom: "conv3_2"
  top: "conv3_3"
  param {
    lr_mult: 1
  }
  param {
    lr_mult: 2
  }
  convolution_param {
    num_output: 256
    pad: 1
    kernel_size: 3
  }
}
layer {
  name: "relu3_3"
  type: "ReLU"
  bottom: "conv3_3"
  top: "conv3_3"
}
layer {
  name: "pool3"
  type: "Pooling"
  bottom: "conv3_3"
  top: "pool3"
  pooling_param {
    pool: MAX
    kernel_size: 2
    stride: 2
  }
}
layer {
  name: "conv4_1"
  type: "Convolution"
  bottom: "pool3"
  top: "conv4_1"
  param {
    lr_mult: 1
  }
  param {
    lr_mult: 2
  }
  convolution_param {
    num_output: 512
    pad: 1
    kernel_size: 3
  }
}
layer {
  name: "relu4_1"
  type: "ReLU"
  bottom: "conv4_1"
  top: "conv4_1"
}
layer {
  name: "conv4_2"
  type: "Convolution"
  bottom: "conv4_1"
  top: "conv4_2"
  param {
    lr_mult: 1
  }
  param {
    lr_mult: 2
  }
  convolution_param {
    num_output: 512
    pad: 1
    kernel_size: 3
  }
}
layer {
  name: "relu4_2"
  type: "ReLU"
  bottom: "conv4_2"
  top: "conv4_2"
}
layer {
  name: "conv4_3"
  type: "Convolution"
  bottom: "conv4_2"
  top: "conv4_3"
  param {
    lr_mult: 1
  }
  param {
    lr_mult: 2
  }
  convolution_param {
    num_output: 512
    pad: 1
    kernel_size: 3
  }
}
layer {
  name: "relu4_3"
  type: "ReLU"
  bottom: "conv4_3"
  top: "conv4_3"
}
layer {
  name: "pool4"
  type: "Pooling"
  bottom: "conv4_3"
  top: "pool4"
  pooling_param {
    pool: MAX
    kernel_size: 2
    stride: 2
  }
}
layer {
  name: "conv5_1"
  type: "Convolution"
  bottom: "pool4"
  top: "conv5_1"
  param {
    lr_mult: 1
  }
  param {
    lr_mult: 2
  }
  convolution_param {
    num_output: 512
    pad: 1
    kernel_size: 3
  }
}
layer {
  name: "relu5_1"
  type: "ReLU"
  bottom: "conv5_1"
  top: "conv5_1"
}
layer {
  name: "conv5_2"
  type: "Convolution"
  bottom: "conv5_1"
  top: "conv5_2"
  param {
    lr_mult: 1
  }
  param {
    lr_mult: 2
  }
  convolution_param {
    num_output: 512
    pad: 1
    kernel_size: 3
  }
}
layer {
  name: "relu5_2"
  type: "ReLU"
  bottom: "conv5_2"
  top: "conv5_2"
}
layer {
  name: "conv5_3"
  type: "Convolution"
  bottom: "conv5_2"
  top: "conv5_3"
  param {
    lr_mult: 1
  }
  param {
    lr_mult: 2
  }
  convolution_param {
    num_output: 512
    pad: 1
    kernel_size: 3
  }
}
layer {
  name: "relu5_3"
  type: "ReLU"
  bottom: "conv5_3"
  top: "conv5_3"
}
layer {
  name: "rpn_big_conv1"
  type: "Convolution"
  bottom: "conv5_3"
  top: "rpn_big_conv1"
  param {
    lr_mult: 1
  }
  param {
    lr_mult: 2
  }
  convolution_param {
    num_output: 512
    pad: 1
    kernel_size: 3
    stride: 1
    weight_filler {
      type: "gaussian"
      mean: 0
      std: 0.01
    }
    bias_filler {
      type: "constant"
    }
  }
}
layer {
  name: "rpn_big_conv1_relu"
  type: "ReLU"
  bottom: "rpn_big_conv1"
  top: "rpn_big_conv1"
  relu_param {
    negative_slope: 0
  }
}
layer {
  name: "rpn_big_conv2"
  type: "Convolution"
  bottom: "rpn_big_conv1"
  top: "rpn_big_conv2"
  param {
    lr_mult: 1
  }
  param {
    lr_mult: 2
  }
  convolution_param {
    num_output: 512
    pad: 1
    kernel_size: 3
    stride: 1
    weight_filler {
      type: "gaussian"
      mean: 0
      std: 0.01
    }
    bias_filler {
      type: "constant"
    }
  }
}
layer {
  name: "rpn_big_conv2_relu"
  type: "ReLU"
  bottom: "rpn_big_conv2"
  top: "rpn_big_conv2"
  relu_param {
    negative_slope: 0
  }
}
layer {
  name: "rpn_big_conv2_drop"
  type: "Dropout"
  bottom: "rpn_big_conv2"
  top: "rpn_big_conv2"
  dropout_param {
    dropout_ratio: 0.3
  }
}
layer {
  name: "rpn_big_output_cls"
  type: "Convolution"
  bottom: "rpn_big_conv2"
  top: "rpn_big_output_cls"
  param {
    lr_mult: 1
  }
  param {
    lr_mult: 2
  }
  convolution_param {
    num_output: 384
    pad: 1
    kernel_size: 3
    stride: 1
    weight_filler {
      type: "gaussian"
      mean: 0
      std: 0.01
    }
    bias_filler {
      type: "constant"
    }
  }
}
layer {
  name: "rpn_big_output_cls_relu"
  type: "ReLU"
  bottom: "rpn_big_output_cls"
  top: "rpn_big_output_cls"
  relu_param {
    negative_slope: 0
  }
}
layer {
  name: "rpn_big_cls_score"
  type: "Convolution"
  bottom: "rpn_big_output_cls"
  top: "rpn_big_cls_score"
  param {
    lr_mult: 1
  }
  param {
    lr_mult: 2
  }
  convolution_param {
    num_output: 52
    pad: 0
    kernel_size: 3
    stride: 1
    weight_filler {
      type: "gaussian"
      mean: 0
      std: 0.01
    }
    bias_filler {
      type: "constant"
    }
  }
}
layer {
  name: "rpn_big_cls_score_reshape"
  type: "Reshape"
  bottom: "rpn_big_cls_score"
  top: "rpn_big_cls_score_reshape"
  reshape_param {
    shape {
      dim: 0
      dim: 2
      dim: -1
      dim: 0
    }
  }
}
layer {
  name: "rpn_big_cls_prob"
  type: "Softmax"
  bottom: "rpn_big_cls_score_reshape"
  top: "rpn_big_cls_prob"
}
layer {
  name: "rpn_big_cls_prob_reshape"
  type: "Reshape"
  bottom: "rpn_big_cls_prob"
  top: "rpn_big_cls_prob_reshape"
  reshape_param {
    shape {
      dim: 0
      dim: 52
      dim: -1
      dim: 0
    }
  }
}
layer {
  name: "rpn_big_anchor_target"
  type: "Python"
  bottom: "rpn_big_cls_score"
  bottom: "input_gt_boxes"
  bottom: "input_ignored_boxes"
  bottom: "input_im_info"
  bottom: "input_data"
  bottom: "rpn_big_cls_prob_reshape"
  top: "rpn_big_anchor_target_labels"
  top: "rpn_big_anchor_target_bbox_targets"
  top: "rpn_big_anchor_target_inside_weights"
  top: "rpn_big_anchor_target_outside_weights"
  python_param {
    module: "rpn.anchor_target_layer"
    layer: "AnchorTargetLayer"
    param_str: "{\"num_classes\": 1, \"fg_fraction\": 0.5, \"anchor_ratios\": [1.0], \"batchsize\": 256, \"tn_fraction\": 0.2, \"square_targets\": true, \"negative_overlap\": 0.4, \"name\": \"rpn_big\", \"anchor_scales\": [2.5, 3.025, 3.66025, 4.4289024999999995, 5.358972025, 6.484356150249999, 7.846070941802498, 9.493745839581022, 11.487432465893036, 13.899793283730574, 16.818749873313998, 20.350687346709933, 24.62433168951902, 29.795441344318014], \"positive_overlap\": 0.6, \"anchor_shift_num_xy\": [[2, 2], [2, 2], [2, 2], [2, 2], [1, 1], [1, 1], [1, 1], [1, 1], [1, 1], [1, 1], [1, 1], [1, 1], [1, 1], [1, 1]], \"feat_stride\": 16}"
  }
}
layer {
  name: "rpn_big_loss_cls"
  type: "SoftmaxWithLoss"
  bottom: "rpn_big_cls_score_reshape"
  bottom: "rpn_big_anchor_target_labels"
  top: "rpn_big_loss_cls"
  loss_weight: 1
  propagate_down: true
  propagate_down: false
  loss_param {
    ignore_label: -1
    normalization: VALID
  }
}
layer {
  name: "rpn_big_output_box"
  type: "Convolution"
  bottom: "rpn_big_conv2"
  top: "rpn_big_output_box"
  param {
    lr_mult: 1
  }
  param {
    lr_mult: 2
  }
  convolution_param {
    num_output: 384
    pad: 1
    kernel_size: 3
    stride: 1
    weight_filler {
      type: "gaussian"
      mean: 0
      std: 0.01
    }
    bias_filler {
      type: "constant"
    }
  }
}
layer {
  name: "rpn_big_output_box_relu"
  type: "ReLU"
  bottom: "rpn_big_output_box"
  top: "rpn_big_output_box"
  relu_param {
    negative_slope: 0
  }
}
layer {
  name: "rpn_big_bbox_pred"
  type: "Convolution"
  bottom: "rpn_big_output_box"
  top: "rpn_big_bbox_pred"
  param {
    lr_mult: 1
  }
  param {
    lr_mult: 2
  }
  convolution_param {
    num_output: 104
    pad: 0
    kernel_size: 3
    stride: 1
    weight_filler {
      type: "gaussian"
      mean: 0
      std: 0.01
    }
    bias_filler {
      type: "constant"
    }
  }
}
layer {
  name: "rpn_big_loss_bbox"
  type: "Python"
  bottom: "rpn_big_bbox_pred"
  bottom: "rpn_big_anchor_target_bbox_targets"
  bottom: "rpn_big_anchor_target_inside_weights"
  bottom: "rpn_big_anchor_target_outside_weights"
  top: "rpn_big_loss_bbox"
  loss_weight: 1
  python_param {
    module: "layers.smooth_l1_loss"
    layer: "SmoothL1LossLayer"
    param_str: "{\"sigma\": 3}"
  }
}
layer {
  name: "proposal"
  type: "Python"
  bottom: "rpn_big_cls_prob_reshape"
  bottom: "rpn_big_bbox_pred"
  bottom: "input_im_info"
  top: "rpn_rois"
  python_param {
    module: "rpn.proposal_layer"
    layer: "ProposalLayer"
    param_str: "{\"anchor_shift_num_xy\": [[2, 2], [2, 2], [2, 2], [2, 2], [1, 1], [1, 1], [1, 1], [1, 1], [1, 1], [1, 1], [1, 1], [1, 1], [1, 1], [1, 1]], \"feat_stride\": 16, \"num_classes\": 1, \"anchor_scales\": [2.5, 3.025, 3.66025, 4.4289024999999995, 5.358972025, 6.484356150249999, 7.846070941802498, 9.493745839581022, 11.487432465893036, 13.899793283730574, 16.818749873313998, 20.350687346709933, 24.62433168951902, 29.795441344318014], \"square_targets\": true, \"name\": \"rpn_big\", \"batchsize\": 256, \"anchor_ratios\": [1.0]}"
  }
}
layer {
  name: "roi-data"
  type: "Python"
  bottom: "rpn_rois"
  bottom: "input_gt_boxes"
  top: "rois"
  top: "labels"
  top: "bbox_targets"
  top: "bbox_inside_weights"
  top: "bbox_outside_weights"
  top: "pid_label"
  python_param {
    module: "rpn.proposal_target_layer"
    layer: "ProposalTargetLayer"
    param_str: "{\"num_classes\": 2, \"bg_aux_label\": 5532}"
  }
}
layer {
  name: "roi-pool"
  type: "ROIPooling"
  bottom: "conv5_3"
  bottom: "rois"
  top: "roi-pool"
  roi_pooling_param {
    pooled_h: 7
    pooled_w: 7
    spatial_scale: 0.0625
  }
}
layer {
  name: "fc6"
  type: "InnerProduct"
  bottom: "roi-pool"
  top: "fc6"
  param {
    lr_mult: 1
  }
  param {
    lr_mult: 2
  }
  inner_product_param {
    num_output: 4096
  }
}
layer {
  name: "relu6"
  type: "ReLU"
  bottom: "fc6"
  top: "fc6"
}
layer {
  name: "drop6"
  type: "Dropout"
  bottom: "fc6"
  top: "fc6"
  dropout_param {
    dropout_ratio: 0.5
  }
}
layer {
  name: "fc7"
  type: "InnerProduct"
  bottom: "fc6"
  top: "fc7"
  param {
    lr_mult: 1
  }
  param {
    lr_mult: 2
  }
  inner_product_param {
    num_output: 4096
  }
}
layer {
  name: "relu7"
  type: "ReLU"
  bottom: "fc7"
  top: "fc7"
}
layer {
  name: "drop7"
  type: "Dropout"
  bottom: "fc7"
  top: "fc7"
  dropout_param {
    dropout_ratio: 0.5
  }
}
layer {
  name: "bbox_pred"
  type: "InnerProduct"
  bottom: "fc7"
  top: "bbox_pred"
  param {
    lr_mult: 1
  }
  param {
    lr_mult: 2
  }
  inner_product_param {
    num_output: 8
    weight_filler {
      type: "gaussian"
      std: 0.001
    }
    bias_filler {
      type: "constant"
      value: 0
    }
  }
}
layer {
  name: "loss_bbox"
  type: "SmoothL1Loss"
  bottom: "bbox_pred"
  bottom: "bbox_targets"
  bottom: "bbox_inside_weights"
  bottom: "bbox_outside_weights"
  top: "loss_bbox"
  loss_weight: 1
}
layer {
  name: "feat"
  type: "InnerProduct"
  bottom: "fc7"
  top: "feat"
  param {
    lr_mult: 1
    decay_mult: 1
  }
  param {
    lr_mult: 2
    decay_mult: 0
  }
  inner_product_param {
    num_output: 256
    weight_filler {
      type: "gaussian"
      std: 0.01
    }
    bias_filler {
      type: "constant"
      value: 0
    }
  }
}
layer {
  name: "relu8"
  type: "ReLU"
  bottom: "feat"
  top: "feat"
}
layer {
  name: "drop8"
  type: "Dropout"
  bottom: "feat"
  top: "feat"
  dropout_param {
    dropout_ratio: 0.5
  }
}
layer {
  name: "pid_score"
  type: "InnerProduct"
  bottom: "feat"
  top: "pid_score"
  param {
    lr_mult: 1
    decay_mult: 1
  }
  param {
    lr_mult: 2
    decay_mult: 0
  }
  inner_product_param {
    num_output: 5533
    weight_filler {
      type: "gaussian"
      std: 0.001
    }
    bias_filler {
      type: "constant"
      value: 0
    }
  }
}
layer {
  name: "pid_loss"
  type: "SoftmaxWithLoss"
  bottom: "pid_score"
  bottom: "pid_label"
  top: "pid_loss"
  loss_weight: 1
  propagate_down: true
  propagate_down: false
  loss_param {
    ignore_label: -1
    normalize: true
  }
}
I0413 19:08:48.108487 15367 layer_factory.hpp:77] Creating layer input
I0413 19:08:48.110277 15367 net.cpp:100] Creating Layer input
I0413 19:08:48.110303 15367 net.cpp:408] input -> input_data
I0413 19:08:48.110321 15367 net.cpp:408] input -> input_im_info
I0413 19:08:48.110332 15367 net.cpp:408] input -> input_gt_boxes
I0413 19:08:48.110343 15367 net.cpp:408] input -> input_ignored_boxes
RoiDataLayer: name_to_top: {'gt_boxes': 2, 'im_info': 1, 'data': 0, 'ignored_boxes': 3}
I0413 19:08:48.438858 15367 net.cpp:150] Setting up input
I0413 19:08:48.438889 15367 net.cpp:157] Top shape: 1 3 1000 1500 (4500000)
I0413 19:08:48.438902 15367 net.cpp:157] Top shape: 1 3 (3)
I0413 19:08:48.438912 15367 net.cpp:157] Top shape: 1 5 (5)
I0413 19:08:48.438922 15367 net.cpp:157] Top shape: 1 5 (5)
I0413 19:08:48.438930 15367 net.cpp:165] Memory required for data: 18000052
I0413 19:08:48.438941 15367 layer_factory.hpp:77] Creating layer input_data_input_0_split
I0413 19:08:48.438959 15367 net.cpp:100] Creating Layer input_data_input_0_split
I0413 19:08:48.438967 15367 net.cpp:434] input_data_input_0_split <- input_data
I0413 19:08:48.438982 15367 net.cpp:408] input_data_input_0_split -> input_data_input_0_split_0
I0413 19:08:48.439000 15367 net.cpp:408] input_data_input_0_split -> input_data_input_0_split_1
I0413 19:08:48.439043 15367 net.cpp:150] Setting up input_data_input_0_split
I0413 19:08:48.439054 15367 net.cpp:157] Top shape: 1 3 1000 1500 (4500000)
I0413 19:08:48.439064 15367 net.cpp:157] Top shape: 1 3 1000 1500 (4500000)
I0413 19:08:48.439070 15367 net.cpp:165] Memory required for data: 54000052
I0413 19:08:48.439077 15367 layer_factory.hpp:77] Creating layer input_im_info_input_1_split
I0413 19:08:48.439093 15367 net.cpp:100] Creating Layer input_im_info_input_1_split
I0413 19:08:48.439100 15367 net.cpp:434] input_im_info_input_1_split <- input_im_info
I0413 19:08:48.439112 15367 net.cpp:408] input_im_info_input_1_split -> input_im_info_input_1_split_0
I0413 19:08:48.439124 15367 net.cpp:408] input_im_info_input_1_split -> input_im_info_input_1_split_1
I0413 19:08:48.439162 15367 net.cpp:150] Setting up input_im_info_input_1_split
I0413 19:08:48.439172 15367 net.cpp:157] Top shape: 1 3 (3)
I0413 19:08:48.439179 15367 net.cpp:157] Top shape: 1 3 (3)
I0413 19:08:48.439187 15367 net.cpp:165] Memory required for data: 54000076
I0413 19:08:48.439193 15367 layer_factory.hpp:77] Creating layer input_gt_boxes_input_2_split
I0413 19:08:48.439204 15367 net.cpp:100] Creating Layer input_gt_boxes_input_2_split
I0413 19:08:48.439213 15367 net.cpp:434] input_gt_boxes_input_2_split <- input_gt_boxes
I0413 19:08:48.439223 15367 net.cpp:408] input_gt_boxes_input_2_split -> input_gt_boxes_input_2_split_0
I0413 19:08:48.439239 15367 net.cpp:408] input_gt_boxes_input_2_split -> input_gt_boxes_input_2_split_1
I0413 19:08:48.439275 15367 net.cpp:150] Setting up input_gt_boxes_input_2_split
I0413 19:08:48.439285 15367 net.cpp:157] Top shape: 1 5 (5)
I0413 19:08:48.439292 15367 net.cpp:157] Top shape: 1 5 (5)
I0413 19:08:48.439298 15367 net.cpp:165] Memory required for data: 54000116
I0413 19:08:48.439304 15367 layer_factory.hpp:77] Creating layer conv1_1
I0413 19:08:48.439323 15367 net.cpp:100] Creating Layer conv1_1
I0413 19:08:48.439329 15367 net.cpp:434] conv1_1 <- input_data_input_0_split_0
I0413 19:08:48.439340 15367 net.cpp:408] conv1_1 -> conv1_1
I0413 19:08:48.442553 15367 net.cpp:150] Setting up conv1_1
I0413 19:08:48.442590 15367 net.cpp:157] Top shape: 1 64 1000 1500 (96000000)
I0413 19:08:48.442595 15367 net.cpp:165] Memory required for data: 438000116
I0413 19:08:48.442620 15367 layer_factory.hpp:77] Creating layer relu1_1
I0413 19:08:48.442636 15367 net.cpp:100] Creating Layer relu1_1
I0413 19:08:48.442646 15367 net.cpp:434] relu1_1 <- conv1_1
I0413 19:08:48.442659 15367 net.cpp:395] relu1_1 -> conv1_1 (in-place)
I0413 19:08:48.442677 15367 net.cpp:150] Setting up relu1_1
I0413 19:08:48.442685 15367 net.cpp:157] Top shape: 1 64 1000 1500 (96000000)
I0413 19:08:48.442692 15367 net.cpp:165] Memory required for data: 822000116
I0413 19:08:48.442699 15367 layer_factory.hpp:77] Creating layer conv1_2
I0413 19:08:48.442713 15367 net.cpp:100] Creating Layer conv1_2
I0413 19:08:48.442720 15367 net.cpp:434] conv1_2 <- conv1_1
I0413 19:08:48.442733 15367 net.cpp:408] conv1_2 -> conv1_2
I0413 19:08:48.445971 15367 net.cpp:150] Setting up conv1_2
I0413 19:08:48.446008 15367 net.cpp:157] Top shape: 1 64 1000 1500 (96000000)
I0413 19:08:48.446014 15367 net.cpp:165] Memory required for data: 1206000116
I0413 19:08:48.446038 15367 layer_factory.hpp:77] Creating layer relu1_2
I0413 19:08:48.446055 15367 net.cpp:100] Creating Layer relu1_2
I0413 19:08:48.446072 15367 net.cpp:434] relu1_2 <- conv1_2
I0413 19:08:48.446085 15367 net.cpp:395] relu1_2 -> conv1_2 (in-place)
I0413 19:08:48.446105 15367 net.cpp:150] Setting up relu1_2
I0413 19:08:48.446115 15367 net.cpp:157] Top shape: 1 64 1000 1500 (96000000)
I0413 19:08:48.446120 15367 net.cpp:165] Memory required for data: 1590000116
I0413 19:08:48.446126 15367 layer_factory.hpp:77] Creating layer pool1
I0413 19:08:48.446144 15367 net.cpp:100] Creating Layer pool1
I0413 19:08:48.446151 15367 net.cpp:434] pool1 <- conv1_2
I0413 19:08:48.446161 15367 net.cpp:408] pool1 -> pool1
I0413 19:08:48.446238 15367 net.cpp:150] Setting up pool1
I0413 19:08:48.446249 15367 net.cpp:157] Top shape: 1 64 500 750 (24000000)
I0413 19:08:48.446254 15367 net.cpp:165] Memory required for data: 1686000116
I0413 19:08:48.446261 15367 layer_factory.hpp:77] Creating layer conv2_1
I0413 19:08:48.446276 15367 net.cpp:100] Creating Layer conv2_1
I0413 19:08:48.446283 15367 net.cpp:434] conv2_1 <- pool1
I0413 19:08:48.446293 15367 net.cpp:408] conv2_1 -> conv2_1
I0413 19:08:48.447492 15367 net.cpp:150] Setting up conv2_1
I0413 19:08:48.447516 15367 net.cpp:157] Top shape: 1 128 500 750 (48000000)
I0413 19:08:48.447521 15367 net.cpp:165] Memory required for data: 1878000116
I0413 19:08:48.447546 15367 layer_factory.hpp:77] Creating layer relu2_1
I0413 19:08:48.447564 15367 net.cpp:100] Creating Layer relu2_1
I0413 19:08:48.447572 15367 net.cpp:434] relu2_1 <- conv2_1
I0413 19:08:48.447584 15367 net.cpp:395] relu2_1 -> conv2_1 (in-place)
I0413 19:08:48.447599 15367 net.cpp:150] Setting up relu2_1
I0413 19:08:48.447608 15367 net.cpp:157] Top shape: 1 128 500 750 (48000000)
I0413 19:08:48.447615 15367 net.cpp:165] Memory required for data: 2070000116
I0413 19:08:48.447623 15367 layer_factory.hpp:77] Creating layer conv2_2
I0413 19:08:48.447636 15367 net.cpp:100] Creating Layer conv2_2
I0413 19:08:48.447643 15367 net.cpp:434] conv2_2 <- conv2_1
I0413 19:08:48.447654 15367 net.cpp:408] conv2_2 -> conv2_2
I0413 19:08:48.448608 15367 net.cpp:150] Setting up conv2_2
I0413 19:08:48.448634 15367 net.cpp:157] Top shape: 1 128 500 750 (48000000)
I0413 19:08:48.448640 15367 net.cpp:165] Memory required for data: 2262000116
I0413 19:08:48.448654 15367 layer_factory.hpp:77] Creating layer relu2_2
I0413 19:08:48.448668 15367 net.cpp:100] Creating Layer relu2_2
I0413 19:08:48.448676 15367 net.cpp:434] relu2_2 <- conv2_2
I0413 19:08:48.448688 15367 net.cpp:395] relu2_2 -> conv2_2 (in-place)
I0413 19:08:48.448703 15367 net.cpp:150] Setting up relu2_2
I0413 19:08:48.448710 15367 net.cpp:157] Top shape: 1 128 500 750 (48000000)
I0413 19:08:48.448719 15367 net.cpp:165] Memory required for data: 2454000116
I0413 19:08:48.448724 15367 layer_factory.hpp:77] Creating layer pool2
I0413 19:08:48.448735 15367 net.cpp:100] Creating Layer pool2
I0413 19:08:48.448743 15367 net.cpp:434] pool2 <- conv2_2
I0413 19:08:48.448755 15367 net.cpp:408] pool2 -> pool2
I0413 19:08:48.448804 15367 net.cpp:150] Setting up pool2
I0413 19:08:48.448814 15367 net.cpp:157] Top shape: 1 128 250 375 (12000000)
I0413 19:08:48.448820 15367 net.cpp:165] Memory required for data: 2502000116
I0413 19:08:48.448828 15367 layer_factory.hpp:77] Creating layer conv3_1
I0413 19:08:48.448844 15367 net.cpp:100] Creating Layer conv3_1
I0413 19:08:48.448853 15367 net.cpp:434] conv3_1 <- pool2
I0413 19:08:48.448864 15367 net.cpp:408] conv3_1 -> conv3_1
I0413 19:08:48.450006 15367 net.cpp:150] Setting up conv3_1
I0413 19:08:48.450032 15367 net.cpp:157] Top shape: 1 256 250 375 (24000000)
I0413 19:08:48.450038 15367 net.cpp:165] Memory required for data: 2598000116
I0413 19:08:48.450057 15367 layer_factory.hpp:77] Creating layer relu3_1
I0413 19:08:48.450070 15367 net.cpp:100] Creating Layer relu3_1
I0413 19:08:48.450078 15367 net.cpp:434] relu3_1 <- conv3_1
I0413 19:08:48.450094 15367 net.cpp:395] relu3_1 -> conv3_1 (in-place)
I0413 19:08:48.450109 15367 net.cpp:150] Setting up relu3_1
I0413 19:08:48.450119 15367 net.cpp:157] Top shape: 1 256 250 375 (24000000)
I0413 19:08:48.450125 15367 net.cpp:165] Memory required for data: 2694000116
I0413 19:08:48.450132 15367 layer_factory.hpp:77] Creating layer conv3_2
I0413 19:08:48.450151 15367 net.cpp:100] Creating Layer conv3_2
I0413 19:08:48.450158 15367 net.cpp:434] conv3_2 <- conv3_1
I0413 19:08:48.450170 15367 net.cpp:408] conv3_2 -> conv3_2
I0413 19:08:48.451421 15367 net.cpp:150] Setting up conv3_2
I0413 19:08:48.451447 15367 net.cpp:157] Top shape: 1 256 250 375 (24000000)
I0413 19:08:48.451453 15367 net.cpp:165] Memory required for data: 2790000116
I0413 19:08:48.451467 15367 layer_factory.hpp:77] Creating layer relu3_2
I0413 19:08:48.451481 15367 net.cpp:100] Creating Layer relu3_2
I0413 19:08:48.451489 15367 net.cpp:434] relu3_2 <- conv3_2
I0413 19:08:48.451505 15367 net.cpp:395] relu3_2 -> conv3_2 (in-place)
I0413 19:08:48.451519 15367 net.cpp:150] Setting up relu3_2
I0413 19:08:48.451529 15367 net.cpp:157] Top shape: 1 256 250 375 (24000000)
I0413 19:08:48.451535 15367 net.cpp:165] Memory required for data: 2886000116
I0413 19:08:48.451542 15367 layer_factory.hpp:77] Creating layer conv3_3
I0413 19:08:48.451558 15367 net.cpp:100] Creating Layer conv3_3
I0413 19:08:48.451565 15367 net.cpp:434] conv3_3 <- conv3_2
I0413 19:08:48.451575 15367 net.cpp:408] conv3_3 -> conv3_3
I0413 19:08:48.454272 15367 net.cpp:150] Setting up conv3_3
I0413 19:08:48.454303 15367 net.cpp:157] Top shape: 1 256 250 375 (24000000)
I0413 19:08:48.454310 15367 net.cpp:165] Memory required for data: 2982000116
I0413 19:08:48.454325 15367 layer_factory.hpp:77] Creating layer relu3_3
I0413 19:08:48.454340 15367 net.cpp:100] Creating Layer relu3_3
I0413 19:08:48.454349 15367 net.cpp:434] relu3_3 <- conv3_3
I0413 19:08:48.454365 15367 net.cpp:395] relu3_3 -> conv3_3 (in-place)
I0413 19:08:48.454380 15367 net.cpp:150] Setting up relu3_3
I0413 19:08:48.454390 15367 net.cpp:157] Top shape: 1 256 250 375 (24000000)
I0413 19:08:48.454396 15367 net.cpp:165] Memory required for data: 3078000116
I0413 19:08:48.454402 15367 layer_factory.hpp:77] Creating layer pool3
I0413 19:08:48.454416 15367 net.cpp:100] Creating Layer pool3
I0413 19:08:48.454423 15367 net.cpp:434] pool3 <- conv3_3
I0413 19:08:48.454433 15367 net.cpp:408] pool3 -> pool3
I0413 19:08:48.454483 15367 net.cpp:150] Setting up pool3
I0413 19:08:48.454494 15367 net.cpp:157] Top shape: 1 256 125 188 (6016000)
I0413 19:08:48.454501 15367 net.cpp:165] Memory required for data: 3102064116
I0413 19:08:48.454509 15367 layer_factory.hpp:77] Creating layer conv4_1
I0413 19:08:48.454522 15367 net.cpp:100] Creating Layer conv4_1
I0413 19:08:48.454530 15367 net.cpp:434] conv4_1 <- pool3
I0413 19:08:48.454541 15367 net.cpp:408] conv4_1 -> conv4_1
I0413 19:08:48.457170 15367 net.cpp:150] Setting up conv4_1
I0413 19:08:48.457204 15367 net.cpp:157] Top shape: 1 512 125 188 (12032000)
I0413 19:08:48.457211 15367 net.cpp:165] Memory required for data: 3150192116
I0413 19:08:48.457226 15367 layer_factory.hpp:77] Creating layer relu4_1
I0413 19:08:48.457238 15367 net.cpp:100] Creating Layer relu4_1
I0413 19:08:48.457248 15367 net.cpp:434] relu4_1 <- conv4_1
I0413 19:08:48.457262 15367 net.cpp:395] relu4_1 -> conv4_1 (in-place)
I0413 19:08:48.457276 15367 net.cpp:150] Setting up relu4_1
I0413 19:08:48.457285 15367 net.cpp:157] Top shape: 1 512 125 188 (12032000)
I0413 19:08:48.457293 15367 net.cpp:165] Memory required for data: 3198320116
I0413 19:08:48.457299 15367 layer_factory.hpp:77] Creating layer conv4_2
I0413 19:08:48.457315 15367 net.cpp:100] Creating Layer conv4_2
I0413 19:08:48.457322 15367 net.cpp:434] conv4_2 <- conv4_1
I0413 19:08:48.457335 15367 net.cpp:408] conv4_2 -> conv4_2
I0413 19:08:48.461930 15367 net.cpp:150] Setting up conv4_2
I0413 19:08:48.461968 15367 net.cpp:157] Top shape: 1 512 125 188 (12032000)
I0413 19:08:48.461976 15367 net.cpp:165] Memory required for data: 3246448116
I0413 19:08:48.462002 15367 layer_factory.hpp:77] Creating layer relu4_2
I0413 19:08:48.462018 15367 net.cpp:100] Creating Layer relu4_2
I0413 19:08:48.462028 15367 net.cpp:434] relu4_2 <- conv4_2
I0413 19:08:48.462044 15367 net.cpp:395] relu4_2 -> conv4_2 (in-place)
I0413 19:08:48.462059 15367 net.cpp:150] Setting up relu4_2
I0413 19:08:48.462069 15367 net.cpp:157] Top shape: 1 512 125 188 (12032000)
I0413 19:08:48.462075 15367 net.cpp:165] Memory required for data: 3294576116
I0413 19:08:48.462081 15367 layer_factory.hpp:77] Creating layer conv4_3
I0413 19:08:48.462095 15367 net.cpp:100] Creating Layer conv4_3
I0413 19:08:48.462101 15367 net.cpp:434] conv4_3 <- conv4_2
I0413 19:08:48.462115 15367 net.cpp:408] conv4_3 -> conv4_3
I0413 19:08:48.466626 15367 net.cpp:150] Setting up conv4_3
I0413 19:08:48.466662 15367 net.cpp:157] Top shape: 1 512 125 188 (12032000)
I0413 19:08:48.466668 15367 net.cpp:165] Memory required for data: 3342704116
I0413 19:08:48.466683 15367 layer_factory.hpp:77] Creating layer relu4_3
I0413 19:08:48.466697 15367 net.cpp:100] Creating Layer relu4_3
I0413 19:08:48.466706 15367 net.cpp:434] relu4_3 <- conv4_3
I0413 19:08:48.466720 15367 net.cpp:395] relu4_3 -> conv4_3 (in-place)
I0413 19:08:48.466737 15367 net.cpp:150] Setting up relu4_3
I0413 19:08:48.466745 15367 net.cpp:157] Top shape: 1 512 125 188 (12032000)
I0413 19:08:48.466753 15367 net.cpp:165] Memory required for data: 3390832116
I0413 19:08:48.466760 15367 layer_factory.hpp:77] Creating layer pool4
I0413 19:08:48.466773 15367 net.cpp:100] Creating Layer pool4
I0413 19:08:48.466780 15367 net.cpp:434] pool4 <- conv4_3
I0413 19:08:48.466790 15367 net.cpp:408] pool4 -> pool4
I0413 19:08:48.466833 15367 net.cpp:150] Setting up pool4
I0413 19:08:48.466843 15367 net.cpp:157] Top shape: 1 512 63 94 (3032064)
I0413 19:08:48.466851 15367 net.cpp:165] Memory required for data: 3402960372
I0413 19:08:48.466858 15367 layer_factory.hpp:77] Creating layer conv5_1
I0413 19:08:48.466877 15367 net.cpp:100] Creating Layer conv5_1
I0413 19:08:48.466884 15367 net.cpp:434] conv5_1 <- pool4
I0413 19:08:48.466894 15367 net.cpp:408] conv5_1 -> conv5_1
I0413 19:08:48.472604 15367 net.cpp:150] Setting up conv5_1
I0413 19:08:48.472637 15367 net.cpp:157] Top shape: 1 512 63 94 (3032064)
I0413 19:08:48.472643 15367 net.cpp:165] Memory required for data: 3415088628
I0413 19:08:48.472666 15367 layer_factory.hpp:77] Creating layer relu5_1
I0413 19:08:48.472681 15367 net.cpp:100] Creating Layer relu5_1
I0413 19:08:48.472689 15367 net.cpp:434] relu5_1 <- conv5_1
I0413 19:08:48.472703 15367 net.cpp:395] relu5_1 -> conv5_1 (in-place)
I0413 19:08:48.472728 15367 net.cpp:150] Setting up relu5_1
I0413 19:08:48.472740 15367 net.cpp:157] Top shape: 1 512 63 94 (3032064)
I0413 19:08:48.472746 15367 net.cpp:165] Memory required for data: 3427216884
I0413 19:08:48.472753 15367 layer_factory.hpp:77] Creating layer conv5_2
I0413 19:08:48.472769 15367 net.cpp:100] Creating Layer conv5_2
I0413 19:08:48.472776 15367 net.cpp:434] conv5_2 <- conv5_1
I0413 19:08:48.472787 15367 net.cpp:408] conv5_2 -> conv5_2
I0413 19:08:48.477319 15367 net.cpp:150] Setting up conv5_2
I0413 19:08:48.477352 15367 net.cpp:157] Top shape: 1 512 63 94 (3032064)
I0413 19:08:48.477358 15367 net.cpp:165] Memory required for data: 3439345140
I0413 19:08:48.477380 15367 layer_factory.hpp:77] Creating layer relu5_2
I0413 19:08:48.477396 15367 net.cpp:100] Creating Layer relu5_2
I0413 19:08:48.477406 15367 net.cpp:434] relu5_2 <- conv5_2
I0413 19:08:48.477421 15367 net.cpp:395] relu5_2 -> conv5_2 (in-place)
I0413 19:08:48.477437 15367 net.cpp:150] Setting up relu5_2
I0413 19:08:48.477447 15367 net.cpp:157] Top shape: 1 512 63 94 (3032064)
I0413 19:08:48.477454 15367 net.cpp:165] Memory required for data: 3451473396
I0413 19:08:48.477461 15367 layer_factory.hpp:77] Creating layer conv5_3
I0413 19:08:48.477485 15367 net.cpp:100] Creating Layer conv5_3
I0413 19:08:48.477493 15367 net.cpp:434] conv5_3 <- conv5_2
I0413 19:08:48.477502 15367 net.cpp:408] conv5_3 -> conv5_3
I0413 19:08:48.481823 15367 net.cpp:150] Setting up conv5_3
I0413 19:08:48.481865 15367 net.cpp:157] Top shape: 1 512 63 94 (3032064)
I0413 19:08:48.481873 15367 net.cpp:165] Memory required for data: 3463601652
I0413 19:08:48.481887 15367 layer_factory.hpp:77] Creating layer relu5_3
I0413 19:08:48.481920 15367 net.cpp:100] Creating Layer relu5_3
I0413 19:08:48.481930 15367 net.cpp:434] relu5_3 <- conv5_3
I0413 19:08:48.481945 15367 net.cpp:395] relu5_3 -> conv5_3 (in-place)
I0413 19:08:48.481961 15367 net.cpp:150] Setting up relu5_3
I0413 19:08:48.481969 15367 net.cpp:157] Top shape: 1 512 63 94 (3032064)
I0413 19:08:48.481976 15367 net.cpp:165] Memory required for data: 3475729908
I0413 19:08:48.481983 15367 layer_factory.hpp:77] Creating layer conv5_3_relu5_3_0_split
I0413 19:08:48.481997 15367 net.cpp:100] Creating Layer conv5_3_relu5_3_0_split
I0413 19:08:48.482004 15367 net.cpp:434] conv5_3_relu5_3_0_split <- conv5_3
I0413 19:08:48.482015 15367 net.cpp:408] conv5_3_relu5_3_0_split -> conv5_3_relu5_3_0_split_0
I0413 19:08:48.482028 15367 net.cpp:408] conv5_3_relu5_3_0_split -> conv5_3_relu5_3_0_split_1
I0413 19:08:48.482071 15367 net.cpp:150] Setting up conv5_3_relu5_3_0_split
I0413 19:08:48.482082 15367 net.cpp:157] Top shape: 1 512 63 94 (3032064)
I0413 19:08:48.482090 15367 net.cpp:157] Top shape: 1 512 63 94 (3032064)
I0413 19:08:48.482097 15367 net.cpp:165] Memory required for data: 3499986420
I0413 19:08:48.482105 15367 layer_factory.hpp:77] Creating layer rpn_big_conv1
I0413 19:08:48.482123 15367 net.cpp:100] Creating Layer rpn_big_conv1
I0413 19:08:48.482131 15367 net.cpp:434] rpn_big_conv1 <- conv5_3_relu5_3_0_split_0
I0413 19:08:48.482144 15367 net.cpp:408] rpn_big_conv1 -> rpn_big_conv1
I0413 19:08:48.509268 15367 net.cpp:150] Setting up rpn_big_conv1
I0413 19:08:48.509313 15367 net.cpp:157] Top shape: 1 512 63 94 (3032064)
I0413 19:08:48.509320 15367 net.cpp:165] Memory required for data: 3512114676
I0413 19:08:48.509335 15367 layer_factory.hpp:77] Creating layer rpn_big_conv1_relu
I0413 19:08:48.509351 15367 net.cpp:100] Creating Layer rpn_big_conv1_relu
I0413 19:08:48.509362 15367 net.cpp:434] rpn_big_conv1_relu <- rpn_big_conv1
I0413 19:08:48.509380 15367 net.cpp:395] rpn_big_conv1_relu -> rpn_big_conv1 (in-place)
I0413 19:08:48.509399 15367 net.cpp:150] Setting up rpn_big_conv1_relu
I0413 19:08:48.509410 15367 net.cpp:157] Top shape: 1 512 63 94 (3032064)
I0413 19:08:48.509418 15367 net.cpp:165] Memory required for data: 3524242932
I0413 19:08:48.509425 15367 layer_factory.hpp:77] Creating layer rpn_big_conv2
I0413 19:08:48.509445 15367 net.cpp:100] Creating Layer rpn_big_conv2
I0413 19:08:48.509455 15367 net.cpp:434] rpn_big_conv2 <- rpn_big_conv1
I0413 19:08:48.509472 15367 net.cpp:408] rpn_big_conv2 -> rpn_big_conv2
I0413 19:08:48.535817 15367 net.cpp:150] Setting up rpn_big_conv2
I0413 19:08:48.535861 15367 net.cpp:157] Top shape: 1 512 63 94 (3032064)
I0413 19:08:48.535867 15367 net.cpp:165] Memory required for data: 3536371188
I0413 19:08:48.535881 15367 layer_factory.hpp:77] Creating layer rpn_big_conv2_relu
I0413 19:08:48.535897 15367 net.cpp:100] Creating Layer rpn_big_conv2_relu
I0413 19:08:48.535907 15367 net.cpp:434] rpn_big_conv2_relu <- rpn_big_conv2
I0413 19:08:48.535922 15367 net.cpp:395] rpn_big_conv2_relu -> rpn_big_conv2 (in-place)
I0413 19:08:48.535948 15367 net.cpp:150] Setting up rpn_big_conv2_relu
I0413 19:08:48.535959 15367 net.cpp:157] Top shape: 1 512 63 94 (3032064)
I0413 19:08:48.535965 15367 net.cpp:165] Memory required for data: 3548499444
I0413 19:08:48.535971 15367 layer_factory.hpp:77] Creating layer rpn_big_conv2_drop
I0413 19:08:48.535982 15367 net.cpp:100] Creating Layer rpn_big_conv2_drop
I0413 19:08:48.535989 15367 net.cpp:434] rpn_big_conv2_drop <- rpn_big_conv2
I0413 19:08:48.536000 15367 net.cpp:395] rpn_big_conv2_drop -> rpn_big_conv2 (in-place)
I0413 19:08:48.536034 15367 net.cpp:150] Setting up rpn_big_conv2_drop
I0413 19:08:48.536044 15367 net.cpp:157] Top shape: 1 512 63 94 (3032064)
I0413 19:08:48.536051 15367 net.cpp:165] Memory required for data: 3560627700
I0413 19:08:48.536057 15367 layer_factory.hpp:77] Creating layer rpn_big_conv2_rpn_big_conv2_drop_0_split
I0413 19:08:48.536072 15367 net.cpp:100] Creating Layer rpn_big_conv2_rpn_big_conv2_drop_0_split
I0413 19:08:48.536079 15367 net.cpp:434] rpn_big_conv2_rpn_big_conv2_drop_0_split <- rpn_big_conv2
I0413 19:08:48.536089 15367 net.cpp:408] rpn_big_conv2_rpn_big_conv2_drop_0_split -> rpn_big_conv2_rpn_big_conv2_drop_0_split_0
I0413 19:08:48.536101 15367 net.cpp:408] rpn_big_conv2_rpn_big_conv2_drop_0_split -> rpn_big_conv2_rpn_big_conv2_drop_0_split_1
I0413 19:08:48.536149 15367 net.cpp:150] Setting up rpn_big_conv2_rpn_big_conv2_drop_0_split
I0413 19:08:48.536159 15367 net.cpp:157] Top shape: 1 512 63 94 (3032064)
I0413 19:08:48.536168 15367 net.cpp:157] Top shape: 1 512 63 94 (3032064)
I0413 19:08:48.536175 15367 net.cpp:165] Memory required for data: 3584884212
I0413 19:08:48.536180 15367 layer_factory.hpp:77] Creating layer rpn_big_output_cls
I0413 19:08:48.536198 15367 net.cpp:100] Creating Layer rpn_big_output_cls
I0413 19:08:48.536209 15367 net.cpp:434] rpn_big_output_cls <- rpn_big_conv2_rpn_big_conv2_drop_0_split_0
I0413 19:08:48.536226 15367 net.cpp:408] rpn_big_output_cls -> rpn_big_output_cls
I0413 19:08:48.555258 15367 net.cpp:150] Setting up rpn_big_output_cls
I0413 19:08:48.555290 15367 net.cpp:157] Top shape: 1 384 63 94 (2274048)
I0413 19:08:48.555296 15367 net.cpp:165] Memory required for data: 3593980404
I0413 19:08:48.555318 15367 layer_factory.hpp:77] Creating layer rpn_big_output_cls_relu
I0413 19:08:48.555336 15367 net.cpp:100] Creating Layer rpn_big_output_cls_relu
I0413 19:08:48.555346 15367 net.cpp:434] rpn_big_output_cls_relu <- rpn_big_output_cls
I0413 19:08:48.555361 15367 net.cpp:395] rpn_big_output_cls_relu -> rpn_big_output_cls (in-place)
I0413 19:08:48.555378 15367 net.cpp:150] Setting up rpn_big_output_cls_relu
I0413 19:08:48.555387 15367 net.cpp:157] Top shape: 1 384 63 94 (2274048)
I0413 19:08:48.555395 15367 net.cpp:165] Memory required for data: 3603076596
I0413 19:08:48.555402 15367 layer_factory.hpp:77] Creating layer rpn_big_cls_score
I0413 19:08:48.555421 15367 net.cpp:100] Creating Layer rpn_big_cls_score
I0413 19:08:48.555428 15367 net.cpp:434] rpn_big_cls_score <- rpn_big_output_cls
I0413 19:08:48.555443 15367 net.cpp:408] rpn_big_cls_score -> rpn_big_cls_score
I0413 19:08:48.557893 15367 net.cpp:150] Setting up rpn_big_cls_score
I0413 19:08:48.557919 15367 net.cpp:157] Top shape: 1 52 61 92 (291824)
I0413 19:08:48.557925 15367 net.cpp:165] Memory required for data: 3604243892
I0413 19:08:48.557948 15367 layer_factory.hpp:77] Creating layer rpn_big_cls_score_rpn_big_cls_score_0_split
I0413 19:08:48.557965 15367 net.cpp:100] Creating Layer rpn_big_cls_score_rpn_big_cls_score_0_split
I0413 19:08:48.557974 15367 net.cpp:434] rpn_big_cls_score_rpn_big_cls_score_0_split <- rpn_big_cls_score
I0413 19:08:48.557987 15367 net.cpp:408] rpn_big_cls_score_rpn_big_cls_score_0_split -> rpn_big_cls_score_rpn_big_cls_score_0_split_0
I0413 19:08:48.558002 15367 net.cpp:408] rpn_big_cls_score_rpn_big_cls_score_0_split -> rpn_big_cls_score_rpn_big_cls_score_0_split_1
I0413 19:08:48.558058 15367 net.cpp:150] Setting up rpn_big_cls_score_rpn_big_cls_score_0_split
I0413 19:08:48.558073 15367 net.cpp:157] Top shape: 1 52 61 92 (291824)
I0413 19:08:48.558081 15367 net.cpp:157] Top shape: 1 52 61 92 (291824)
I0413 19:08:48.558089 15367 net.cpp:165] Memory required for data: 3606578484
I0413 19:08:48.558095 15367 layer_factory.hpp:77] Creating layer rpn_big_cls_score_reshape
I0413 19:08:48.558109 15367 net.cpp:100] Creating Layer rpn_big_cls_score_reshape
I0413 19:08:48.558118 15367 net.cpp:434] rpn_big_cls_score_reshape <- rpn_big_cls_score_rpn_big_cls_score_0_split_0
I0413 19:08:48.558131 15367 net.cpp:408] rpn_big_cls_score_reshape -> rpn_big_cls_score_reshape
I0413 19:08:48.558167 15367 net.cpp:150] Setting up rpn_big_cls_score_reshape
I0413 19:08:48.558177 15367 net.cpp:157] Top shape: 1 2 1586 92 (291824)
I0413 19:08:48.558183 15367 net.cpp:165] Memory required for data: 3607745780
I0413 19:08:48.558190 15367 layer_factory.hpp:77] Creating layer rpn_big_cls_score_reshape_rpn_big_cls_score_reshape_0_split
I0413 19:08:48.558202 15367 net.cpp:100] Creating Layer rpn_big_cls_score_reshape_rpn_big_cls_score_reshape_0_split
I0413 19:08:48.558210 15367 net.cpp:434] rpn_big_cls_score_reshape_rpn_big_cls_score_reshape_0_split <- rpn_big_cls_score_reshape
I0413 19:08:48.558223 15367 net.cpp:408] rpn_big_cls_score_reshape_rpn_big_cls_score_reshape_0_split -> rpn_big_cls_score_reshape_rpn_big_cls_score_reshape_0_split_0
I0413 19:08:48.558238 15367 net.cpp:408] rpn_big_cls_score_reshape_rpn_big_cls_score_reshape_0_split -> rpn_big_cls_score_reshape_rpn_big_cls_score_reshape_0_split_1
I0413 19:08:48.558280 15367 net.cpp:150] Setting up rpn_big_cls_score_reshape_rpn_big_cls_score_reshape_0_split
I0413 19:08:48.558290 15367 net.cpp:157] Top shape: 1 2 1586 92 (291824)
I0413 19:08:48.558298 15367 net.cpp:157] Top shape: 1 2 1586 92 (291824)
I0413 19:08:48.558305 15367 net.cpp:165] Memory required for data: 3610080372
I0413 19:08:48.558312 15367 layer_factory.hpp:77] Creating layer rpn_big_cls_prob
I0413 19:08:48.558323 15367 net.cpp:100] Creating Layer rpn_big_cls_prob
I0413 19:08:48.558331 15367 net.cpp:434] rpn_big_cls_prob <- rpn_big_cls_score_reshape_rpn_big_cls_score_reshape_0_split_0
I0413 19:08:48.558343 15367 net.cpp:408] rpn_big_cls_prob -> rpn_big_cls_prob
I0413 19:08:48.558404 15367 net.cpp:150] Setting up rpn_big_cls_prob
I0413 19:08:48.558414 15367 net.cpp:157] Top shape: 1 2 1586 92 (291824)
I0413 19:08:48.558420 15367 net.cpp:165] Memory required for data: 3611247668
I0413 19:08:48.558428 15367 layer_factory.hpp:77] Creating layer rpn_big_cls_prob_reshape
I0413 19:08:48.558439 15367 net.cpp:100] Creating Layer rpn_big_cls_prob_reshape
I0413 19:08:48.558446 15367 net.cpp:434] rpn_big_cls_prob_reshape <- rpn_big_cls_prob
I0413 19:08:48.558457 15367 net.cpp:408] rpn_big_cls_prob_reshape -> rpn_big_cls_prob_reshape
I0413 19:08:48.558485 15367 net.cpp:150] Setting up rpn_big_cls_prob_reshape
I0413 19:08:48.558495 15367 net.cpp:157] Top shape: 1 52 61 92 (291824)
I0413 19:08:48.558501 15367 net.cpp:165] Memory required for data: 3612414964
I0413 19:08:48.558509 15367 layer_factory.hpp:77] Creating layer rpn_big_cls_prob_reshape_rpn_big_cls_prob_reshape_0_split
I0413 19:08:48.558518 15367 net.cpp:100] Creating Layer rpn_big_cls_prob_reshape_rpn_big_cls_prob_reshape_0_split
I0413 19:08:48.558526 15367 net.cpp:434] rpn_big_cls_prob_reshape_rpn_big_cls_prob_reshape_0_split <- rpn_big_cls_prob_reshape
I0413 19:08:48.558538 15367 net.cpp:408] rpn_big_cls_prob_reshape_rpn_big_cls_prob_reshape_0_split -> rpn_big_cls_prob_reshape_rpn_big_cls_prob_reshape_0_split_0
I0413 19:08:48.558552 15367 net.cpp:408] rpn_big_cls_prob_reshape_rpn_big_cls_prob_reshape_0_split -> rpn_big_cls_prob_reshape_rpn_big_cls_prob_reshape_0_split_1
I0413 19:08:48.558591 15367 net.cpp:150] Setting up rpn_big_cls_prob_reshape_rpn_big_cls_prob_reshape_0_split
I0413 19:08:48.558600 15367 net.cpp:157] Top shape: 1 52 61 92 (291824)
I0413 19:08:48.558609 15367 net.cpp:157] Top shape: 1 52 61 92 (291824)
I0413 19:08:48.558615 15367 net.cpp:165] Memory required for data: 3614749556
I0413 19:08:48.558622 15367 layer_factory.hpp:77] Creating layer rpn_big_anchor_target
I0413 19:08:48.560179 15367 net.cpp:100] Creating Layer rpn_big_anchor_target
I0413 19:08:48.560204 15367 net.cpp:434] rpn_big_anchor_target <- rpn_big_cls_score_rpn_big_cls_score_0_split_1
I0413 19:08:48.560214 15367 net.cpp:434] rpn_big_anchor_target <- input_gt_boxes_input_2_split_0
I0413 19:08:48.560231 15367 net.cpp:434] rpn_big_anchor_target <- input_ignored_boxes
I0413 19:08:48.560241 15367 net.cpp:434] rpn_big_anchor_target <- input_im_info_input_1_split_0
I0413 19:08:48.560251 15367 net.cpp:434] rpn_big_anchor_target <- input_data_input_0_split_1
I0413 19:08:48.560261 15367 net.cpp:434] rpn_big_anchor_target <- rpn_big_cls_prob_reshape_rpn_big_cls_prob_reshape_0_split_0
I0413 19:08:48.560274 15367 net.cpp:408] rpn_big_anchor_target -> rpn_big_anchor_target_labels
I0413 19:08:48.560292 15367 net.cpp:408] rpn_big_anchor_target -> rpn_big_anchor_target_bbox_targets
I0413 19:08:48.560307 15367 net.cpp:408] rpn_big_anchor_target -> rpn_big_anchor_target_inside_weights
I0413 19:08:48.560323 15367 net.cpp:408] rpn_big_anchor_target -> rpn_big_anchor_target_outside_weights
I0413 19:08:48.565138 15367 net.cpp:150] Setting up rpn_big_anchor_target
I0413 19:08:48.565168 15367 net.cpp:157] Top shape: 1 1 1586 92 (145912)
I0413 19:08:48.565177 15367 net.cpp:157] Top shape: 1 104 61 92 (583648)
I0413 19:08:48.565184 15367 net.cpp:157] Top shape: 1 104 61 92 (583648)
I0413 19:08:48.565191 15367 net.cpp:157] Top shape: 1 104 61 92 (583648)
I0413 19:08:48.565197 15367 net.cpp:165] Memory required for data: 3622336980
I0413 19:08:48.565207 15367 layer_factory.hpp:77] Creating layer rpn_big_loss_cls
I0413 19:08:48.565233 15367 net.cpp:100] Creating Layer rpn_big_loss_cls
I0413 19:08:48.565243 15367 net.cpp:434] rpn_big_loss_cls <- rpn_big_cls_score_reshape_rpn_big_cls_score_reshape_0_split_1
I0413 19:08:48.565256 15367 net.cpp:434] rpn_big_loss_cls <- rpn_big_anchor_target_labels
I0413 19:08:48.565269 15367 net.cpp:408] rpn_big_loss_cls -> rpn_big_loss_cls
I0413 19:08:48.565289 15367 layer_factory.hpp:77] Creating layer rpn_big_loss_cls
I0413 19:08:48.565923 15367 net.cpp:150] Setting up rpn_big_loss_cls
I0413 19:08:48.565939 15367 net.cpp:157] Top shape: (1)
I0413 19:08:48.565945 15367 net.cpp:160]     with loss weight 1
I0413 19:08:48.565961 15367 net.cpp:165] Memory required for data: 3622336984
I0413 19:08:48.565971 15367 layer_factory.hpp:77] Creating layer rpn_big_output_box
I0413 19:08:48.565994 15367 net.cpp:100] Creating Layer rpn_big_output_box
I0413 19:08:48.566000 15367 net.cpp:434] rpn_big_output_box <- rpn_big_conv2_rpn_big_conv2_drop_0_split_1
I0413 19:08:48.566014 15367 net.cpp:408] rpn_big_output_box -> rpn_big_output_box
I0413 19:08:48.585095 15367 net.cpp:150] Setting up rpn_big_output_box
I0413 19:08:48.585129 15367 net.cpp:157] Top shape: 1 384 63 94 (2274048)
I0413 19:08:48.585135 15367 net.cpp:165] Memory required for data: 3631433176
I0413 19:08:48.585150 15367 layer_factory.hpp:77] Creating layer rpn_big_output_box_relu
I0413 19:08:48.585166 15367 net.cpp:100] Creating Layer rpn_big_output_box_relu
I0413 19:08:48.585180 15367 net.cpp:434] rpn_big_output_box_relu <- rpn_big_output_box
I0413 19:08:48.585198 15367 net.cpp:395] rpn_big_output_box_relu -> rpn_big_output_box (in-place)
I0413 19:08:48.585216 15367 net.cpp:150] Setting up rpn_big_output_box_relu
I0413 19:08:48.585227 15367 net.cpp:157] Top shape: 1 384 63 94 (2274048)
I0413 19:08:48.585237 15367 net.cpp:165] Memory required for data: 3640529368
I0413 19:08:48.585242 15367 layer_factory.hpp:77] Creating layer rpn_big_bbox_pred
I0413 19:08:48.585263 15367 net.cpp:100] Creating Layer rpn_big_bbox_pred
I0413 19:08:48.585273 15367 net.cpp:434] rpn_big_bbox_pred <- rpn_big_output_box
I0413 19:08:48.585286 15367 net.cpp:408] rpn_big_bbox_pred -> rpn_big_bbox_pred
I0413 19:08:48.589366 15367 net.cpp:150] Setting up rpn_big_bbox_pred
I0413 19:08:48.589388 15367 net.cpp:157] Top shape: 1 104 61 92 (583648)
I0413 19:08:48.589393 15367 net.cpp:165] Memory required for data: 3642863960
I0413 19:08:48.589416 15367 layer_factory.hpp:77] Creating layer rpn_big_bbox_pred_rpn_big_bbox_pred_0_split
I0413 19:08:48.589429 15367 net.cpp:100] Creating Layer rpn_big_bbox_pred_rpn_big_bbox_pred_0_split
I0413 19:08:48.589437 15367 net.cpp:434] rpn_big_bbox_pred_rpn_big_bbox_pred_0_split <- rpn_big_bbox_pred
I0413 19:08:48.589453 15367 net.cpp:408] rpn_big_bbox_pred_rpn_big_bbox_pred_0_split -> rpn_big_bbox_pred_rpn_big_bbox_pred_0_split_0
I0413 19:08:48.589468 15367 net.cpp:408] rpn_big_bbox_pred_rpn_big_bbox_pred_0_split -> rpn_big_bbox_pred_rpn_big_bbox_pred_0_split_1
I0413 19:08:48.589510 15367 net.cpp:150] Setting up rpn_big_bbox_pred_rpn_big_bbox_pred_0_split
I0413 19:08:48.589520 15367 net.cpp:157] Top shape: 1 104 61 92 (583648)
I0413 19:08:48.589529 15367 net.cpp:157] Top shape: 1 104 61 92 (583648)
I0413 19:08:48.589536 15367 net.cpp:165] Memory required for data: 3647533144
I0413 19:08:48.589543 15367 layer_factory.hpp:77] Creating layer rpn_big_loss_bbox
I0413 19:08:48.589908 15367 net.cpp:100] Creating Layer rpn_big_loss_bbox
I0413 19:08:48.589920 15367 net.cpp:434] rpn_big_loss_bbox <- rpn_big_bbox_pred_rpn_big_bbox_pred_0_split_0
I0413 19:08:48.589928 15367 net.cpp:434] rpn_big_loss_bbox <- rpn_big_anchor_target_bbox_targets
I0413 19:08:48.589937 15367 net.cpp:434] rpn_big_loss_bbox <- rpn_big_anchor_target_inside_weights
I0413 19:08:48.589946 15367 net.cpp:434] rpn_big_loss_bbox <- rpn_big_anchor_target_outside_weights
I0413 19:08:48.589958 15367 net.cpp:408] rpn_big_loss_bbox -> rpn_big_loss_bbox
I0413 19:08:48.593904 15367 net.cpp:150] Setting up rpn_big_loss_bbox
I0413 19:08:48.593948 15367 net.cpp:157] Top shape: 1 (1)
I0413 19:08:48.593955 15367 net.cpp:160]     with loss weight 1
I0413 19:08:48.593971 15367 net.cpp:165] Memory required for data: 3647533148
I0413 19:08:48.593981 15367 layer_factory.hpp:77] Creating layer proposal
I0413 19:08:48.594409 15367 net.cpp:100] Creating Layer proposal
I0413 19:08:48.594420 15367 net.cpp:434] proposal <- rpn_big_cls_prob_reshape_rpn_big_cls_prob_reshape_0_split_1
I0413 19:08:48.594429 15367 net.cpp:434] proposal <- rpn_big_bbox_pred_rpn_big_bbox_pred_0_split_1
I0413 19:08:48.594432 15367 net.cpp:434] proposal <- input_im_info_input_1_split_1
I0413 19:08:48.594440 15367 net.cpp:408] proposal -> rpn_rois
I0413 19:08:48.598510 15367 net.cpp:150] Setting up proposal
I0413 19:08:48.598523 15367 net.cpp:157] Top shape: 1 5 (5)
I0413 19:08:48.598526 15367 net.cpp:165] Memory required for data: 3647533168
I0413 19:08:48.598539 15367 layer_factory.hpp:77] Creating layer roi-data
I0413 19:08:48.598820 15367 net.cpp:100] Creating Layer roi-data
I0413 19:08:48.598829 15367 net.cpp:434] roi-data <- rpn_rois
I0413 19:08:48.598835 15367 net.cpp:434] roi-data <- input_gt_boxes_input_2_split_1
I0413 19:08:48.598850 15367 net.cpp:408] roi-data -> rois
I0413 19:08:48.598860 15367 net.cpp:408] roi-data -> labels
I0413 19:08:48.598866 15367 net.cpp:408] roi-data -> bbox_targets
I0413 19:08:48.598873 15367 net.cpp:408] roi-data -> bbox_inside_weights
I0413 19:08:48.598879 15367 net.cpp:408] roi-data -> bbox_outside_weights
I0413 19:08:48.598886 15367 net.cpp:408] roi-data -> pid_label
anchors:
<<<<<<<<<<<<<<<<<<<<<<<<<<<<<<<<<<<<<<<<<<<<<<<<<<<<<<<<<<<<<<<<<<<<<<<<<<<<<<<<<<<<<<<<<<<<<<<<<<<<<<<<<<<<<<<<<<<<<<<<<<<<<<<<<<<<<<<<<<<<<<<<<<<<<<<<<<<<<<<<<<<<<<<<<<<<<<<<<<<<<<<<<<<<<<<<<<<<<<<<<<<<<<<<<<<<<<<<<<<<<<<<<<<<<<<<<<<<<<<<<<<<<<<<<<<<<<<<<<<<<<<<<<<<<<<<<<<<<<<<<<<<<<<<<<<<<<<<<<<<
[[ -84.  -40.   99.   55.]
 [-176.  -88.  191.  103.]
 [-360. -184.  375.  199.]
 [ -56.  -56.   71.   71.]
 [-120. -120.  135.  135.]
 [-248. -248.  263.  263.]
 [ -36.  -80.   51.   95.]
 [ -80. -168.   95.  183.]
 [-168. -344.  183.  359.]]
I0413 19:08:48.600956 15367 net.cpp:150] Setting up roi-data
I0413 19:08:48.600971 15367 net.cpp:157] Top shape: 1 5 (5)
I0413 19:08:48.600976 15367 net.cpp:157] Top shape: 1 1 (1)
I0413 19:08:48.600989 15367 net.cpp:157] Top shape: 1 8 (8)
I0413 19:08:48.600992 15367 net.cpp:157] Top shape: 1 8 (8)
I0413 19:08:48.600996 15367 net.cpp:157] Top shape: 1 8 (8)
I0413 19:08:48.600999 15367 net.cpp:157] Top shape: (0)
I0413 19:08:48.601001 15367 net.cpp:165] Memory required for data: 3647533288
I0413 19:08:48.601006 15367 layer_factory.hpp:77] Creating layer roi-pool
I0413 19:08:48.601013 15367 net.cpp:100] Creating Layer roi-pool
I0413 19:08:48.601017 15367 net.cpp:434] roi-pool <- conv5_3_relu5_3_0_split_1
I0413 19:08:48.601023 15367 net.cpp:434] roi-pool <- rois
I0413 19:08:48.601030 15367 net.cpp:408] roi-pool -> roi-pool
I0413 19:08:48.601039 15367 roi_pooling_layer.cpp:33] Spatial scale: 0.0625
I0413 19:08:48.601047 15367 roi_pooling_layer.cpp:34] Box scale: 1
I0413 19:08:48.601086 15367 net.cpp:150] Setting up roi-pool
I0413 19:08:48.601094 15367 net.cpp:157] Top shape: 1 512 7 7 (25088)
I0413 19:08:48.601097 15367 net.cpp:165] Memory required for data: 3647633640
I0413 19:08:48.601100 15367 layer_factory.hpp:77] Creating layer fc6
I0413 19:08:48.601107 15367 net.cpp:100] Creating Layer fc6
I0413 19:08:48.601111 15367 net.cpp:434] fc6 <- roi-pool
I0413 19:08:48.601117 15367 net.cpp:408] fc6 -> fc6
I0413 19:08:48.764242 15367 net.cpp:150] Setting up fc6
I0413 19:08:48.764287 15367 net.cpp:157] Top shape: 1 4096 (4096)
I0413 19:08:48.764292 15367 net.cpp:165] Memory required for data: 3647650024
I0413 19:08:48.764302 15367 layer_factory.hpp:77] Creating layer relu6
I0413 19:08:48.764313 15367 net.cpp:100] Creating Layer relu6
I0413 19:08:48.764318 15367 net.cpp:434] relu6 <- fc6
I0413 19:08:48.764325 15367 net.cpp:395] relu6 -> fc6 (in-place)
I0413 19:08:48.764336 15367 net.cpp:150] Setting up relu6
I0413 19:08:48.764340 15367 net.cpp:157] Top shape: 1 4096 (4096)
I0413 19:08:48.764343 15367 net.cpp:165] Memory required for data: 3647666408
I0413 19:08:48.764348 15367 layer_factory.hpp:77] Creating layer drop6
I0413 19:08:48.764355 15367 net.cpp:100] Creating Layer drop6
I0413 19:08:48.764358 15367 net.cpp:434] drop6 <- fc6
I0413 19:08:48.764364 15367 net.cpp:395] drop6 -> fc6 (in-place)
I0413 19:08:48.764385 15367 net.cpp:150] Setting up drop6
I0413 19:08:48.764391 15367 net.cpp:157] Top shape: 1 4096 (4096)
I0413 19:08:48.764394 15367 net.cpp:165] Memory required for data: 3647682792
I0413 19:08:48.764397 15367 layer_factory.hpp:77] Creating layer fc7
I0413 19:08:48.764405 15367 net.cpp:100] Creating Layer fc7
I0413 19:08:48.764407 15367 net.cpp:434] fc7 <- fc6
I0413 19:08:48.764415 15367 net.cpp:408] fc7 -> fc7
I0413 19:08:48.790923 15367 net.cpp:150] Setting up fc7
I0413 19:08:48.790954 15367 net.cpp:157] Top shape: 1 4096 (4096)
I0413 19:08:48.790967 15367 net.cpp:165] Memory required for data: 3647699176
I0413 19:08:48.790978 15367 layer_factory.hpp:77] Creating layer relu7
I0413 19:08:48.791002 15367 net.cpp:100] Creating Layer relu7
I0413 19:08:48.791008 15367 net.cpp:434] relu7 <- fc7
I0413 19:08:48.791016 15367 net.cpp:395] relu7 -> fc7 (in-place)
I0413 19:08:48.791028 15367 net.cpp:150] Setting up relu7
I0413 19:08:48.791031 15367 net.cpp:157] Top shape: 1 4096 (4096)
I0413 19:08:48.791034 15367 net.cpp:165] Memory required for data: 3647715560
I0413 19:08:48.791038 15367 layer_factory.hpp:77] Creating layer drop7
I0413 19:08:48.791043 15367 net.cpp:100] Creating Layer drop7
I0413 19:08:48.791046 15367 net.cpp:434] drop7 <- fc7
I0413 19:08:48.791050 15367 net.cpp:395] drop7 -> fc7 (in-place)
I0413 19:08:48.791072 15367 net.cpp:150] Setting up drop7
I0413 19:08:48.791079 15367 net.cpp:157] Top shape: 1 4096 (4096)
I0413 19:08:48.791081 15367 net.cpp:165] Memory required for data: 3647731944
I0413 19:08:48.791085 15367 layer_factory.hpp:77] Creating layer fc7_drop7_0_split
I0413 19:08:48.791090 15367 net.cpp:100] Creating Layer fc7_drop7_0_split
I0413 19:08:48.791093 15367 net.cpp:434] fc7_drop7_0_split <- fc7
I0413 19:08:48.791098 15367 net.cpp:408] fc7_drop7_0_split -> fc7_drop7_0_split_0
I0413 19:08:48.791115 15367 net.cpp:408] fc7_drop7_0_split -> fc7_drop7_0_split_1
I0413 19:08:48.791146 15367 net.cpp:150] Setting up fc7_drop7_0_split
I0413 19:08:48.791152 15367 net.cpp:157] Top shape: 1 4096 (4096)
I0413 19:08:48.791157 15367 net.cpp:157] Top shape: 1 4096 (4096)
I0413 19:08:48.791159 15367 net.cpp:165] Memory required for data: 3647764712
I0413 19:08:48.791162 15367 layer_factory.hpp:77] Creating layer bbox_pred
I0413 19:08:48.791169 15367 net.cpp:100] Creating Layer bbox_pred
I0413 19:08:48.791172 15367 net.cpp:434] bbox_pred <- fc7_drop7_0_split_0
I0413 19:08:48.791180 15367 net.cpp:408] bbox_pred -> bbox_pred
I0413 19:08:48.791601 15367 net.cpp:150] Setting up bbox_pred
I0413 19:08:48.791610 15367 net.cpp:157] Top shape: 1 8 (8)
I0413 19:08:48.791612 15367 net.cpp:165] Memory required for data: 3647764744
I0413 19:08:48.791618 15367 layer_factory.hpp:77] Creating layer loss_bbox
I0413 19:08:48.791625 15367 net.cpp:100] Creating Layer loss_bbox
I0413 19:08:48.791628 15367 net.cpp:434] loss_bbox <- bbox_pred
I0413 19:08:48.791632 15367 net.cpp:434] loss_bbox <- bbox_targets
I0413 19:08:48.791636 15367 net.cpp:434] loss_bbox <- bbox_inside_weights
I0413 19:08:48.791640 15367 net.cpp:434] loss_bbox <- bbox_outside_weights
I0413 19:08:48.791646 15367 net.cpp:408] loss_bbox -> loss_bbox
I0413 19:08:48.791712 15367 net.cpp:150] Setting up loss_bbox
I0413 19:08:48.791719 15367 net.cpp:157] Top shape: (1)
I0413 19:08:48.791723 15367 net.cpp:160]     with loss weight 1
I0413 19:08:48.791733 15367 net.cpp:165] Memory required for data: 3647764748
I0413 19:08:48.791736 15367 layer_factory.hpp:77] Creating layer feat
I0413 19:08:48.791741 15367 net.cpp:100] Creating Layer feat
I0413 19:08:48.791745 15367 net.cpp:434] feat <- fc7_drop7_0_split_1
I0413 19:08:48.791752 15367 net.cpp:408] feat -> feat
I0413 19:08:48.802959 15367 net.cpp:150] Setting up feat
I0413 19:08:48.802989 15367 net.cpp:157] Top shape: 1 256 (256)
I0413 19:08:48.803002 15367 net.cpp:165] Memory required for data: 3647765772
I0413 19:08:48.803014 15367 layer_factory.hpp:77] Creating layer relu8
I0413 19:08:48.803025 15367 net.cpp:100] Creating Layer relu8
I0413 19:08:48.803030 15367 net.cpp:434] relu8 <- feat
I0413 19:08:48.803036 15367 net.cpp:395] relu8 -> feat (in-place)
I0413 19:08:48.803046 15367 net.cpp:150] Setting up relu8
I0413 19:08:48.803051 15367 net.cpp:157] Top shape: 1 256 (256)
I0413 19:08:48.803053 15367 net.cpp:165] Memory required for data: 3647766796
I0413 19:08:48.803056 15367 layer_factory.hpp:77] Creating layer drop8
I0413 19:08:48.803062 15367 net.cpp:100] Creating Layer drop8
I0413 19:08:48.803066 15367 net.cpp:434] drop8 <- feat
I0413 19:08:48.803071 15367 net.cpp:395] drop8 -> feat (in-place)
I0413 19:08:48.803092 15367 net.cpp:150] Setting up drop8
I0413 19:08:48.803098 15367 net.cpp:157] Top shape: 1 256 (256)
I0413 19:08:48.803100 15367 net.cpp:165] Memory required for data: 3647767820
I0413 19:08:48.803103 15367 layer_factory.hpp:77] Creating layer pid_score
I0413 19:08:48.803110 15367 net.cpp:100] Creating Layer pid_score
I0413 19:08:48.803113 15367 net.cpp:434] pid_score <- feat
I0413 19:08:48.803122 15367 net.cpp:408] pid_score -> pid_score
I0413 19:08:48.818255 15367 net.cpp:150] Setting up pid_score
I0413 19:08:48.818295 15367 net.cpp:157] Top shape: 1 5533 (5533)
I0413 19:08:48.818300 15367 net.cpp:165] Memory required for data: 3647789952
I0413 19:08:48.818310 15367 layer_factory.hpp:77] Creating layer pid_loss
I0413 19:08:48.818323 15367 net.cpp:100] Creating Layer pid_loss
I0413 19:08:48.818330 15367 net.cpp:434] pid_loss <- pid_score
I0413 19:08:48.818336 15367 net.cpp:434] pid_loss <- pid_label
I0413 19:08:48.818342 15367 net.cpp:408] pid_loss -> pid_loss
…
