…
I0413 16:08:08.918401  7912 solver.cpp:48] Initializing solver from parameters: 
base_lr: 0.001
display: 20
lr_policy: "multistep"
gamma: 0.1
momentum: 0.9
weight_decay: 0.0005
snapshot: 0
snapshot_prefix: "faces_example"
net_param {
  name: "GeneratedModel_13_04_2017_16_08"
  layer {
    name: "input"
    type: "Python"
    top: "input_data"
    top: "input_im_info"
    top: "input_gt_boxes"
    top: "input_ignored_boxes"
    python_param {
      module: "layers.roi_data_layer"
      layer: "RoIDataLayer"
      param_str: "{\"num_classes\": 2}"
    }
  }
  layer {
    name: "conv1_1"
    type: "Convolution"
    bottom: "input_data"
    top: "conv1_1"
    param {
      lr_mult: 0
      decay_mult: 0
    }
    param {
      lr_mult: 0
      decay_mult: 0
    }
    convolution_param {
      num_output: 64
      pad: 1
      kernel_size: 3
    }
  }
  layer {
    name: "relu1_1"
    type: "ReLU"
    bottom: "conv1_1"
    top: "conv1_1"
  }
  layer {
    name: "conv1_2"
    type: "Convolution"
    bottom: "conv1_1"
    top: "conv1_2"
    param {
      lr_mult: 0
      decay_mult: 0
    }
    param {
      lr_mult: 0
      decay_mult: 0
    }
    convolution_param {
      num_output: 64
      pad: 1
      kernel_size: 3
    }
  }
  layer {
    name: "relu1_2"
    type: "ReLU"
    bottom: "conv1_2"
    top: "conv1_2"
  }
  layer {
    name: "pool1"
    type: "Pooling"
    bottom: "conv1_2"
    top: "pool1"
    pooling_param {
      pool: MAX
      kernel_size: 2
      stride: 2
    }
  }
  layer {
    name: "conv2_1"
    type: "Convolution"
    bottom: "pool1"
    top: "conv2_1"
    param {
      lr_mult: 0
      decay_mult: 0
    }
    param {
      lr_mult: 0
      decay_mult: 0
    }
    convolution_param {
      num_output: 128
      pad: 1
      kernel_size: 3
    }
  }
  layer {
    name: "relu2_1"
    type: "ReLU"
    bottom: "conv2_1"
    top: "conv2_1"
  }
  layer {
    name: "conv2_2"
    type: "Convolution"
    bottom: "conv2_1"
    top: "conv2_2"
    param {
      lr_mult: 0
      decay_mult: 0
    }
    param {
      lr_mult: 0
      decay_mult: 0
    }
    convolution_param {
      num_output: 128
      pad: 1
      kernel_size: 3
    }
  }
  layer {
    name: "relu2_2"
    type: "ReLU"
    bottom: "conv2_2"
    top: "conv2_2"
  }
  layer {
    name: "pool2"
    type: "Pooling"
    bottom: "conv2_2"
    top: "pool2"
    pooling_param {
      pool: MAX
      kernel_size: 2
      stride: 2
    }
  }
  layer {
    name: "conv3_1"
    type: "Convolution"
    bottom: "pool2"
    top: "conv3_1"
    param {
      lr_mult: 1
    }
    param {
      lr_mult: 2
    }
    convolution_param {
      num_output: 256
      pad: 1
      kernel_size: 3
    }
  }
  layer {
    name: "relu3_1"
    type: "ReLU"
    bottom: "conv3_1"
    top: "conv3_1"
  }
  layer {
    name: "conv3_2"
    type: "Convolution"
    bottom: "conv3_1"
    top: "conv3_2"
    param {
      lr_mult: 1
    }
    param {
      lr_mult: 2
    }
    convolution_param {
      num_output: 256
      pad: 1
      kernel_size: 3
    }
  }
  layer {
    name: "relu3_2"
    type: "ReLU"
    bottom: "conv3_2"
    top: "conv3_2"
  }
  layer {
    name: "conv3_3"
    type: "Convolution"
    bottom: "conv3_2"
    top: "conv3_3"
    param {
      lr_mult: 1
    }
    param {
      lr_mult: 2
    }
    convolution_param {
      num_output: 256
      pad: 1
      kernel_size: 3
    }
  }
  layer {
    name: "relu3_3"
    type: "ReLU"
    bottom: "conv3_3"
    top: "conv3_3"
  }
  layer {
    name: "pool3"
    type: "Pooling"
    bottom: "conv3_3"
    top: "pool3"
    pooling_param {
      pool: MAX
      kernel_size: 2
      stride: 2
    }
  }
  layer {
    name: "conv4_1"
    type: "Convolution"
    bottom: "pool3"
    top: "conv4_1"
    param {
      lr_mult: 1
    }
    param {
      lr_mult: 2
    }
    convolution_param {
      num_output: 512
      pad: 1
      kernel_size: 3
    }
  }
  layer {
    name: "relu4_1"
    type: "ReLU"
    bottom: "conv4_1"
    top: "conv4_1"
  }
  layer {
    name: "conv4_2"
    type: "Convolution"
    bottom: "conv4_1"
    top: "conv4_2"
    param {
      lr_mult: 1
    }
    param {
      lr_mult: 2
    }
    convolution_param {
      num_output: 512
      pad: 1
      kernel_size: 3
    }
  }
  layer {
    name: "relu4_2"
    type: "ReLU"
    bottom: "conv4_2"
    top: "conv4_2"
  }
  layer {
    name: "conv4_3"
    type: "Convolution"
    bottom: "conv4_2"
    top: "conv4_3"
    param {
      lr_mult: 1
    }
    param {
      lr_mult: 2
    }
    convolution_param {
      num_output: 512
      pad: 1
      kernel_size: 3
    }
  }
  layer {
    name: "relu4_3"
    type: "ReLU"
    bottom: "conv4_3"
    top: "conv4_3"
  }
  layer {
    name: "pool4"
    type: "Pooling"
    bottom: "conv4_3"
    top: "pool4"
    pooling_param {
      pool: MAX
      kernel_size: 2
      stride: 2
    }
  }
  layer {
    name: "conv5_1"
    type: "Convolution"
    bottom: "pool4"
    top: "conv5_1"
    param {
      lr_mult: 1
    }
    param {
      lr_mult: 2
    }
    convolution_param {
      num_output: 512
      pad: 1
      kernel_size: 3
    }
  }
  layer {
    name: "relu5_1"
    type: "ReLU"
    bottom: "conv5_1"
    top: "conv5_1"
  }
  layer {
    name: "conv5_2"
    type: "Convolution"
    bottom: "conv5_1"
    top: "conv5_2"
    param {
      lr_mult: 1
    }
    param {
      lr_mult: 2
    }
    convolution_param {
      num_output: 512
      pad: 1
      kernel_size: 3
    }
  }
  layer {
    name: "relu5_2"
    type: "ReLU"
    bottom: "conv5_2"
    top: "conv5_2"
  }
  layer {
    name: "conv5_3"
    type: "Convolution"
    bottom: "conv5_2"
    top: "conv5_3"
    param {
      lr_mult: 1
    }
    param {
      lr_mult: 2
    }
    convolution_param {
      num_output: 512
      pad: 1
      kernel_size: 3
    }
  }
  layer {
    name: "relu5_3"
    type: "ReLU"
    bottom: "conv5_3"
    top: "conv5_3"
  }
  layer {
    name: "rpn_big_conv1"
    type: "Convolution"
    bottom: "conv5_3"
    top: "rpn_big_conv1"
    param {
      lr_mult: 1
    }
    param {
      lr_mult: 2
    }
    convolution_param {
      num_output: 512
      pad: 1
      kernel_size: 3
      stride: 1
      weight_filler {
        type: "gaussian"
        mean: 0
        std: 0.01
      }
      bias_filler {
        type: "constant"
      }
    }
  }
  layer {
    name: "rpn_big_conv1_relu"
    type: "ReLU"
    bottom: "rpn_big_conv1"
    top: "rpn_big_conv1"
    relu_param {
      negative_slope: 0
    }
  }
  layer {
    name: "rpn_big_conv2"
    type: "Convolution"
    bottom: "rpn_big_conv1"
    top: "rpn_big_conv2"
    param {
      lr_mult: 1
    }
    param {
      lr_mult: 2
    }
    convolution_param {
      num_output: 512
      pad: 1
      kernel_size: 3
      stride: 1
      weight_filler {
        type: "gaussian"
        mean: 0
        std: 0.01
      }
      bias_filler {
        type: "constant"
      }
    }
  }
  layer {
    name: "rpn_big_conv2_relu"
    type: "ReLU"
    bottom: "rpn_big_conv2"
    top: "rpn_big_conv2"
    relu_param {
      negative_slope: 0
    }
  }
  layer {
    name: "rpn_big_conv2_drop"
    type: "Dropout"
    bottom: "rpn_big_conv2"
    top: "rpn_big_conv2"
    dropout_param {
      dropout_ratio: 0.3
    }
  }
  layer {
    name: "rpn_big_output_cls"
    type: "Convolution"
    bottom: "rpn_big_conv2"
    top: "rpn_big_output_cls"
    param {
      lr_mult: 1
    }
    param {
      lr_mult: 2
    }
    convolution_param {
      num_output: 384
      pad: 1
      kernel_size: 3
      stride: 1
      weight_filler {
        type: "gaussian"
        mean: 0
        std: 0.01
      }
      bias_filler {
        type: "constant"
      }
    }
  }
  layer {
    name: "rpn_big_output_cls_relu"
    type: "ReLU"
    bottom: "rpn_big_output_cls"
    top: "rpn_big_output_cls"
    relu_param {
      negative_slope: 0
    }
  }
  layer {
    name: "rpn_big_cls_score"
    type: "Convolution"
    bottom: "rpn_big_output_cls"
    top: "rpn_big_cls_score"
    param {
      lr_mult: 1
    }
    param {
      lr_mult: 2
    }
    convolution_param {
      num_output: 52
      pad: 0
      kernel_size: 3
      stride: 1
      weight_filler {
        type: "gaussian"
        mean: 0
        std: 0.01
      }
      bias_filler {
        type: "constant"
      }
    }
  }
  layer {
    name: "rpn_big_cls_score_reshape"
    type: "Reshape"
    bottom: "rpn_big_cls_score"
    top: "rpn_big_cls_score_reshape"
    reshape_param {
      shape {
        dim: 0
        dim: 2
        dim: -1
        dim: 0
      }
    }
  }
  layer {
    name: "rpn_big_cls_prob"
    type: "Softmax"
    bottom: "rpn_big_cls_score_reshape"
    top: "rpn_big_cls_prob"
  }
  layer {
    name: "rpn_big_cls_prob_reshape"
    type: "Reshape"
    bottom: "rpn_big_cls_prob"
    top: "rpn_big_cls_prob_reshape"
    reshape_param {
      shape {
        dim: 0
        dim: 52
        dim: -1
        dim: 0
      }
    }
  }
  layer {
    name: "rpn_big_anchor_target"
    type: "Python"
    bottom: "rpn_big_cls_score"
    bottom: "input_gt_boxes"
    bottom: "input_ignored_boxes"
    bottom: "input_im_info"
    bottom: "input_data"
    bottom: "rpn_big_cls_prob_reshape"
    top: "rpn_big_anchor_target_labels"
    top: "rpn_big_anchor_target_bbox_targets"
    top: "rpn_big_anchor_target_inside_weights"
    top: "rpn_big_anchor_target_outside_weights"
    python_param {
      module: "rpn.anchor_target_layer"
      layer: "AnchorTargetLayer"
      param_str: "{\"batchsize\": 256, \"anchor_ratios\": [1.0], \"tn_fraction\": 0.2, \"anchor_scales\": [2.5, 3.025, 3.66025, 4.4289024999999995, 5.358972025, 6.484356150249999, 7.846070941802498, 9.493745839581022, 11.487432465893036, 13.899793283730574, 16.818749873313998, 20.350687346709933, 24.62433168951902, 29.795441344318014], \"anchor_shift_num_xy\": [[2, 2], [2, 2], [2, 2], [2, 2], [1, 1], [1, 1], [1, 1], [1, 1], [1, 1], [1, 1], [1, 1], [1, 1], [1, 1], [1, 1]], \"feat_stride\": 16, \"num_classes\": 1, \"positive_overlap\": 0.6, \"negative_overlap\": 0.4, \"name\": \"rpn_big\", \"fg_fraction\": 0.5, \"square_targets\": true}"
    }
  }
  layer {
    name: "rpn_big_loss_cls"
    type: "SoftmaxWithLoss"
    bottom: "rpn_big_cls_score_reshape"
    bottom: "rpn_big_anchor_target_labels"
    top: "rpn_big_loss_cls"
    loss_weight: 1
    propagate_down: true
    propagate_down: false
    loss_param {
      ignore_label: -1
      normalization: VALID
    }
  }
  layer {
    name: "rpn_big_output_box"
    type: "Convolution"
    bottom: "rpn_big_conv2"
    top: "rpn_big_output_box"
    param {
      lr_mult: 1
    }
    param {
      lr_mult: 2
    }
    convolution_param {
      num_output: 384
      pad: 1
      kernel_size: 3
      stride: 1
      weight_filler {
        type: "gaussian"
        mean: 0
        std: 0.01
      }
      bias_filler {
        type: "constant"
      }
    }
  }
  layer {
    name: "rpn_big_output_box_relu"
    type: "ReLU"
    bottom: "rpn_big_output_box"
    top: "rpn_big_output_box"
    relu_param {
      negative_slope: 0
    }
  }
  layer {
    name: "rpn_big_bbox_pred"
    type: "Convolution"
    bottom: "rpn_big_output_box"
    top: "rpn_big_bbox_pred"
    param {
      lr_mult: 1
    }
    param {
      lr_mult: 2
    }
    convolution_param {
      num_output: 104
      pad: 0
      kernel_size: 3
      stride: 1
      weight_filler {
        type: "gaussian"
        mean: 0
        std: 0.01
      }
      bias_filler {
        type: "constant"
      }
    }
  }
  layer {
    name: "rpn_big_loss_bbox"
    type: "Python"
    bottom: "rpn_big_bbox_pred"
    bottom: "rpn_big_anchor_target_bbox_targets"
    bottom: "rpn_big_anchor_target_inside_weights"
    bottom: "rpn_big_anchor_target_outside_weights"
    top: "rpn_big_loss_bbox"
    loss_weight: 1
    python_param {
      module: "layers.smooth_l1_loss"
      layer: "SmoothL1LossLayer"
      param_str: "{\"sigma\": 3}"
    }
  }
  layer {
    name: "proposal"
    type: "Python"
    bottom: "rpn_big_cls_prob_reshape"
    bottom: "rpn_big_bbox_pred"
    bottom: "input_im_info"
    top: "rpn_rois"
    python_param {
      module: "rpn.proposal_layer"
      layer: "ProposalLayer"
      param_str: "\'feat_stride\': 16; \'scales\': !!python/tuple [4, 8, 16, 32]"
    }
  }
}
average_loss: 100
stepvalue: 70000
stepvalue: 120000
iter_size: 2
I0413 16:08:08.918472  7912 solver.cpp:86] Creating training net specified in net_param.
I0413 16:08:08.918896  7912 net.cpp:58] Initializing net from parameters: 
name: "GeneratedModel_13_04_2017_16_08"
state {
  phase: TRAIN
}
layer {
  name: "input"
  type: "Python"
  top: "input_data"
  top: "input_im_info"
  top: "input_gt_boxes"
  top: "input_ignored_boxes"
  python_param {
    module: "layers.roi_data_layer"
    layer: "RoIDataLayer"
    param_str: "{\"num_classes\": 2}"
  }
}
layer {
  name: "conv1_1"
  type: "Convolution"
  bottom: "input_data"
  top: "conv1_1"
  param {
    lr_mult: 0
    decay_mult: 0
  }
  param {
    lr_mult: 0
    decay_mult: 0
  }
  convolution_param {
    num_output: 64
    pad: 1
    kernel_size: 3
  }
}
layer {
  name: "relu1_1"
  type: "ReLU"
  bottom: "conv1_1"
  top: "conv1_1"
}
layer {
  name: "conv1_2"
  type: "Convolution"
  bottom: "conv1_1"
  top: "conv1_2"
  param {
    lr_mult: 0
    decay_mult: 0
  }
  param {
    lr_mult: 0
    decay_mult: 0
  }
  convolution_param {
    num_output: 64
    pad: 1
    kernel_size: 3
  }
}
layer {
  name: "relu1_2"
  type: "ReLU"
  bottom: "conv1_2"
  top: "conv1_2"
}
layer {
  name: "pool1"
  type: "Pooling"
  bottom: "conv1_2"
  top: "pool1"
  pooling_param {
    pool: MAX
    kernel_size: 2
    stride: 2
  }
}
layer {
  name: "conv2_1"
  type: "Convolution"
  bottom: "pool1"
  top: "conv2_1"
  param {
    lr_mult: 0
    decay_mult: 0
  }
  param {
    lr_mult: 0
    decay_mult: 0
  }
  convolution_param {
    num_output: 128
    pad: 1
    kernel_size: 3
  }
}
layer {
  name: "relu2_1"
  type: "ReLU"
  bottom: "conv2_1"
  top: "conv2_1"
}
layer {
  name: "conv2_2"
  type: "Convolution"
  bottom: "conv2_1"
  top: "conv2_2"
  param {
    lr_mult: 0
    decay_mult: 0
  }
  param {
    lr_mult: 0
    decay_mult: 0
  }
  convolution_param {
    num_output: 128
    pad: 1
    kernel_size: 3
  }
}
layer {
  name: "relu2_2"
  type: "ReLU"
  bottom: "conv2_2"
  top: "conv2_2"
}
layer {
  name: "pool2"
  type: "Pooling"
  bottom: "conv2_2"
  top: "pool2"
  pooling_param {
    pool: MAX
    kernel_size: 2
    stride: 2
  }
}
layer {
  name: "conv3_1"
  type: "Convolution"
  bottom: "pool2"
  top: "conv3_1"
  param {
    lr_mult: 1
  }
  param {
    lr_mult: 2
  }
  convolution_param {
    num_output: 256
    pad: 1
    kernel_size: 3
  }
}
layer {
  name: "relu3_1"
  type: "ReLU"
  bottom: "conv3_1"
  top: "conv3_1"
}
layer {
  name: "conv3_2"
  type: "Convolution"
  bottom: "conv3_1"
  top: "conv3_2"
  param {
    lr_mult: 1
  }
  param {
    lr_mult: 2
  }
  convolution_param {
    num_output: 256
    pad: 1
    kernel_size: 3
  }
}
layer {
  name: "relu3_2"
  type: "ReLU"
  bottom: "conv3_2"
  top: "conv3_2"
}
layer {
  name: "conv3_3"
  type: "Convolution"
  bottom: "conv3_2"
  top: "conv3_3"
  param {
    lr_mult: 1
  }
  param {
    lr_mult: 2
  }
  convolution_param {
    num_output: 256
    pad: 1
    kernel_size: 3
  }
}
layer {
  name: "relu3_3"
  type: "ReLU"
  bottom: "conv3_3"
  top: "conv3_3"
}
layer {
  name: "pool3"
  type: "Pooling"
  bottom: "conv3_3"
  top: "pool3"
  pooling_param {
    pool: MAX
    kernel_size: 2
    stride: 2
  }
}
layer {
  name: "conv4_1"
  type: "Convolution"
  bottom: "pool3"
  top: "conv4_1"
  param {
    lr_mult: 1
  }
  param {
    lr_mult: 2
  }
  convolution_param {
    num_output: 512
    pad: 1
    kernel_size: 3
  }
}
layer {
  name: "relu4_1"
  type: "ReLU"
  bottom: "conv4_1"
  top: "conv4_1"
}
layer {
  name: "conv4_2"
  type: "Convolution"
  bottom: "conv4_1"
  top: "conv4_2"
  param {
    lr_mult: 1
  }
  param {
    lr_mult: 2
  }
  convolution_param {
    num_output: 512
    pad: 1
    kernel_size: 3
  }
}
layer {
  name: "relu4_2"
  type: "ReLU"
  bottom: "conv4_2"
  top: "conv4_2"
}
layer {
  name: "conv4_3"
  type: "Convolution"
  bottom: "conv4_2"
  top: "conv4_3"
  param {
    lr_mult: 1
  }
  param {
    lr_mult: 2
  }
  convolution_param {
    num_output: 512
    pad: 1
    kernel_size: 3
  }
}
layer {
  name: "relu4_3"
  type: "ReLU"
  bottom: "conv4_3"
  top: "conv4_3"
}
layer {
  name: "pool4"
  type: "Pooling"
  bottom: "conv4_3"
  top: "pool4"
  pooling_param {
    pool: MAX
    kernel_size: 2
    stride: 2
  }
}
layer {
  name: "conv5_1"
  type: "Convolution"
  bottom: "pool4"
  top: "conv5_1"
  param {
    lr_mult: 1
  }
  param {
    lr_mult: 2
  }
  convolution_param {
    num_output: 512
    pad: 1
    kernel_size: 3
  }
}
layer {
  name: "relu5_1"
  type: "ReLU"
  bottom: "conv5_1"
  top: "conv5_1"
}
layer {
  name: "conv5_2"
  type: "Convolution"
  bottom: "conv5_1"
  top: "conv5_2"
  param {
    lr_mult: 1
  }
  param {
    lr_mult: 2
  }
  convolution_param {
    num_output: 512
    pad: 1
    kernel_size: 3
  }
}
layer {
  name: "relu5_2"
  type: "ReLU"
  bottom: "conv5_2"
  top: "conv5_2"
}
layer {
  name: "conv5_3"
  type: "Convolution"
  bottom: "conv5_2"
  top: "conv5_3"
  param {
    lr_mult: 1
  }
  param {
    lr_mult: 2
  }
  convolution_param {
    num_output: 512
    pad: 1
    kernel_size: 3
  }
}
layer {
  name: "relu5_3"
  type: "ReLU"
  bottom: "conv5_3"
  top: "conv5_3"
}
layer {
  name: "rpn_big_conv1"
  type: "Convolution"
  bottom: "conv5_3"
  top: "rpn_big_conv1"
  param {
    lr_mult: 1
  }
  param {
    lr_mult: 2
  }
  convolution_param {
    num_output: 512
    pad: 1
    kernel_size: 3
    stride: 1
    weight_filler {
      type: "gaussian"
      mean: 0
      std: 0.01
    }
    bias_filler {
      type: "constant"
    }
  }
}
layer {
  name: "rpn_big_conv1_relu"
  type: "ReLU"
  bottom: "rpn_big_conv1"
  top: "rpn_big_conv1"
  relu_param {
    negative_slope: 0
  }
}
layer {
  name: "rpn_big_conv2"
  type: "Convolution"
  bottom: "rpn_big_conv1"
  top: "rpn_big_conv2"
  param {
    lr_mult: 1
  }
  param {
    lr_mult: 2
  }
  convolution_param {
    num_output: 512
    pad: 1
    kernel_size: 3
    stride: 1
    weight_filler {
      type: "gaussian"
      mean: 0
      std: 0.01
    }
    bias_filler {
      type: "constant"
    }
  }
}
layer {
  name: "rpn_big_conv2_relu"
  type: "ReLU"
  bottom: "rpn_big_conv2"
  top: "rpn_big_conv2"
  relu_param {
    negative_slope: 0
  }
}
layer {
  name: "rpn_big_conv2_drop"
  type: "Dropout"
  bottom: "rpn_big_conv2"
  top: "rpn_big_conv2"
  dropout_param {
    dropout_ratio: 0.3
  }
}
layer {
  name: "rpn_big_output_cls"
  type: "Convolution"
  bottom: "rpn_big_conv2"
  top: "rpn_big_output_cls"
  param {
    lr_mult: 1
  }
  param {
    lr_mult: 2
  }
  convolution_param {
    num_output: 384
    pad: 1
    kernel_size: 3
    stride: 1
    weight_filler {
      type: "gaussian"
      mean: 0
      std: 0.01
    }
    bias_filler {
      type: "constant"
    }
  }
}
layer {
  name: "rpn_big_output_cls_relu"
  type: "ReLU"
  bottom: "rpn_big_output_cls"
  top: "rpn_big_output_cls"
  relu_param {
    negative_slope: 0
  }
}
layer {
  name: "rpn_big_cls_score"
  type: "Convolution"
  bottom: "rpn_big_output_cls"
  top: "rpn_big_cls_score"
  param {
    lr_mult: 1
  }
  param {
    lr_mult: 2
  }
  convolution_param {
    num_output: 52
    pad: 0
    kernel_size: 3
    stride: 1
    weight_filler {
      type: "gaussian"
      mean: 0
      std: 0.01
    }
    bias_filler {
      type: "constant"
    }
  }
}
layer {
  name: "rpn_big_cls_score_reshape"
  type: "Reshape"
  bottom: "rpn_big_cls_score"
  top: "rpn_big_cls_score_reshape"
  reshape_param {
    shape {
      dim: 0
      dim: 2
      dim: -1
      dim: 0
    }
  }
}
layer {
  name: "rpn_big_cls_prob"
  type: "Softmax"
  bottom: "rpn_big_cls_score_reshape"
  top: "rpn_big_cls_prob"
}
layer {
  name: "rpn_big_cls_prob_reshape"
  type: "Reshape"
  bottom: "rpn_big_cls_prob"
  top: "rpn_big_cls_prob_reshape"
  reshape_param {
    shape {
      dim: 0
      dim: 52
      dim: -1
      dim: 0
    }
  }
}
layer {
  name: "rpn_big_anchor_target"
  type: "Python"
  bottom: "rpn_big_cls_score"
  bottom: "input_gt_boxes"
  bottom: "input_ignored_boxes"
  bottom: "input_im_info"
  bottom: "input_data"
  bottom: "rpn_big_cls_prob_reshape"
  top: "rpn_big_anchor_target_labels"
  top: "rpn_big_anchor_target_bbox_targets"
  top: "rpn_big_anchor_target_inside_weights"
  top: "rpn_big_anchor_target_outside_weights"
  python_param {
    module: "rpn.anchor_target_layer"
    layer: "AnchorTargetLayer"
    param_str: "{\"batchsize\": 256, \"anchor_ratios\": [1.0], \"tn_fraction\": 0.2, \"anchor_scales\": [2.5, 3.025, 3.66025, 4.4289024999999995, 5.358972025, 6.484356150249999, 7.846070941802498, 9.493745839581022, 11.487432465893036, 13.899793283730574, 16.818749873313998, 20.350687346709933, 24.62433168951902, 29.795441344318014], \"anchor_shift_num_xy\": [[2, 2], [2, 2], [2, 2], [2, 2], [1, 1], [1, 1], [1, 1], [1, 1], [1, 1], [1, 1], [1, 1], [1, 1], [1, 1], [1, 1]], \"feat_stride\": 16, \"num_classes\": 1, \"positive_overlap\": 0.6, \"negative_overlap\": 0.4, \"name\": \"rpn_big\", \"fg_fraction\": 0.5, \"square_targets\": true}"
  }
}
layer {
  name: "rpn_big_loss_cls"
  type: "SoftmaxWithLoss"
  bottom: "rpn_big_cls_score_reshape"
  bottom: "rpn_big_anchor_target_labels"
  top: "rpn_big_loss_cls"
  loss_weight: 1
  propagate_down: true
  propagate_down: false
  loss_param {
    ignore_label: -1
    normalization: VALID
  }
}
layer {
  name: "rpn_big_output_box"
  type: "Convolution"
  bottom: "rpn_big_conv2"
  top: "rpn_big_output_box"
  param {
    lr_mult: 1
  }
  param {
    lr_mult: 2
  }
  convolution_param {
    num_output: 384
    pad: 1
    kernel_size: 3
    stride: 1
    weight_filler {
      type: "gaussian"
      mean: 0
      std: 0.01
    }
    bias_filler {
      type: "constant"
    }
  }
}
layer {
  name: "rpn_big_output_box_relu"
  type: "ReLU"
  bottom: "rpn_big_output_box"
  top: "rpn_big_output_box"
  relu_param {
    negative_slope: 0
  }
}
layer {
  name: "rpn_big_bbox_pred"
  type: "Convolution"
  bottom: "rpn_big_output_box"
  top: "rpn_big_bbox_pred"
  param {
    lr_mult: 1
  }
  param {
    lr_mult: 2
  }
  convolution_param {
    num_output: 104
    pad: 0
    kernel_size: 3
    stride: 1
    weight_filler {
      type: "gaussian"
      mean: 0
      std: 0.01
    }
    bias_filler {
      type: "constant"
    }
  }
}
layer {
  name: "rpn_big_loss_bbox"
  type: "Python"
  bottom: "rpn_big_bbox_pred"
  bottom: "rpn_big_anchor_target_bbox_targets"
  bottom: "rpn_big_anchor_target_inside_weights"
  bottom: "rpn_big_anchor_target_outside_weights"
  top: "rpn_big_loss_bbox"
  loss_weight: 1
  python_param {
    module: "layers.smooth_l1_loss"
    layer: "SmoothL1LossLayer"
    param_str: "{\"sigma\": 3}"
  }
}
layer {
  name: "proposal"
  type: "Python"
  bottom: "rpn_big_cls_prob_reshape"
  bottom: "rpn_big_bbox_pred"
  bottom: "input_im_info"
  top: "rpn_rois"
  python_param {
    module: "rpn.proposal_layer"
    layer: "ProposalLayer"
    param_str: "\'feat_stride\': 16; \'scales\': !!python/tuple [4, 8, 16, 32]"
  }
}
I0413 16:08:08.919080  7912 layer_factory.hpp:77] Creating layer input
I0413 16:08:08.920331  7912 net.cpp:100] Creating Layer input
I0413 16:08:08.920348  7912 net.cpp:408] input -> input_data
I0413 16:08:08.920361  7912 net.cpp:408] input -> input_im_info
I0413 16:08:08.920367  7912 net.cpp:408] input -> input_gt_boxes
I0413 16:08:08.920374  7912 net.cpp:408] input -> input_ignored_boxes
RoiDataLayer: name_to_top: {'gt_boxes': 2, 'ignored_boxes': 3, 'im_info': 1, 'data': 0}
I0413 16:08:09.245920  7912 net.cpp:150] Setting up input
I0413 16:08:09.245951  7912 net.cpp:157] Top shape: 1 3 1000 1500 (4500000)
I0413 16:08:09.245959  7912 net.cpp:157] Top shape: 1 3 (3)
I0413 16:08:09.245967  7912 net.cpp:157] Top shape: 1 5 (5)
I0413 16:08:09.245975  7912 net.cpp:157] Top shape: 1 5 (5)
I0413 16:08:09.245980  7912 net.cpp:165] Memory required for data: 18000052
I0413 16:08:09.245990  7912 layer_factory.hpp:77] Creating layer input_data_input_0_split
I0413 16:08:09.246013  7912 net.cpp:100] Creating Layer input_data_input_0_split
I0413 16:08:09.246021  7912 net.cpp:434] input_data_input_0_split <- input_data
I0413 16:08:09.246034  7912 net.cpp:408] input_data_input_0_split -> input_data_input_0_split_0
I0413 16:08:09.246049  7912 net.cpp:408] input_data_input_0_split -> input_data_input_0_split_1
I0413 16:08:09.246089  7912 net.cpp:150] Setting up input_data_input_0_split
I0413 16:08:09.246098  7912 net.cpp:157] Top shape: 1 3 1000 1500 (4500000)
I0413 16:08:09.246105  7912 net.cpp:157] Top shape: 1 3 1000 1500 (4500000)
I0413 16:08:09.246111  7912 net.cpp:165] Memory required for data: 54000052
I0413 16:08:09.246115  7912 layer_factory.hpp:77] Creating layer input_im_info_input_1_split
I0413 16:08:09.246129  7912 net.cpp:100] Creating Layer input_im_info_input_1_split
I0413 16:08:09.246134  7912 net.cpp:434] input_im_info_input_1_split <- input_im_info
I0413 16:08:09.246141  7912 net.cpp:408] input_im_info_input_1_split -> input_im_info_input_1_split_0
I0413 16:08:09.246151  7912 net.cpp:408] input_im_info_input_1_split -> input_im_info_input_1_split_1
I0413 16:08:09.246186  7912 net.cpp:150] Setting up input_im_info_input_1_split
I0413 16:08:09.246192  7912 net.cpp:157] Top shape: 1 3 (3)
I0413 16:08:09.246198  7912 net.cpp:157] Top shape: 1 3 (3)
I0413 16:08:09.246206  7912 net.cpp:165] Memory required for data: 54000076
I0413 16:08:09.246212  7912 layer_factory.hpp:77] Creating layer conv1_1
I0413 16:08:09.246227  7912 net.cpp:100] Creating Layer conv1_1
I0413 16:08:09.246233  7912 net.cpp:434] conv1_1 <- input_data_input_0_split_0
I0413 16:08:09.246243  7912 net.cpp:408] conv1_1 -> conv1_1
I0413 16:08:09.249449  7912 net.cpp:150] Setting up conv1_1
I0413 16:08:09.249483  7912 net.cpp:157] Top shape: 1 64 1000 1500 (96000000)
I0413 16:08:09.249487  7912 net.cpp:165] Memory required for data: 438000076
I0413 16:08:09.249505  7912 layer_factory.hpp:77] Creating layer relu1_1
I0413 16:08:09.249517  7912 net.cpp:100] Creating Layer relu1_1
I0413 16:08:09.249522  7912 net.cpp:434] relu1_1 <- conv1_1
I0413 16:08:09.249529  7912 net.cpp:395] relu1_1 -> conv1_1 (in-place)
I0413 16:08:09.249539  7912 net.cpp:150] Setting up relu1_1
I0413 16:08:09.249544  7912 net.cpp:157] Top shape: 1 64 1000 1500 (96000000)
I0413 16:08:09.249547  7912 net.cpp:165] Memory required for data: 822000076
I0413 16:08:09.249550  7912 layer_factory.hpp:77] Creating layer conv1_2
I0413 16:08:09.249559  7912 net.cpp:100] Creating Layer conv1_2
I0413 16:08:09.249563  7912 net.cpp:434] conv1_2 <- conv1_1
I0413 16:08:09.249568  7912 net.cpp:408] conv1_2 -> conv1_2
I0413 16:08:09.252952  7912 net.cpp:150] Setting up conv1_2
I0413 16:08:09.252990  7912 net.cpp:157] Top shape: 1 64 1000 1500 (96000000)
I0413 16:08:09.252992  7912 net.cpp:165] Memory required for data: 1206000076
I0413 16:08:09.253013  7912 layer_factory.hpp:77] Creating layer relu1_2
I0413 16:08:09.253032  7912 net.cpp:100] Creating Layer relu1_2
I0413 16:08:09.253043  7912 net.cpp:434] relu1_2 <- conv1_2
I0413 16:08:09.253056  7912 net.cpp:395] relu1_2 -> conv1_2 (in-place)
I0413 16:08:09.253072  7912 net.cpp:150] Setting up relu1_2
I0413 16:08:09.253080  7912 net.cpp:157] Top shape: 1 64 1000 1500 (96000000)
I0413 16:08:09.253085  7912 net.cpp:165] Memory required for data: 1590000076
I0413 16:08:09.253092  7912 layer_factory.hpp:77] Creating layer pool1
I0413 16:08:09.253100  7912 net.cpp:100] Creating Layer pool1
I0413 16:08:09.253109  7912 net.cpp:434] pool1 <- conv1_2
I0413 16:08:09.253120  7912 net.cpp:408] pool1 -> pool1
I0413 16:08:09.253212  7912 net.cpp:150] Setting up pool1
I0413 16:08:09.253224  7912 net.cpp:157] Top shape: 1 64 500 750 (24000000)
I0413 16:08:09.253232  7912 net.cpp:165] Memory required for data: 1686000076
I0413 16:08:09.253237  7912 layer_factory.hpp:77] Creating layer conv2_1
I0413 16:08:09.253255  7912 net.cpp:100] Creating Layer conv2_1
I0413 16:08:09.253263  7912 net.cpp:434] conv2_1 <- pool1
I0413 16:08:09.253273  7912 net.cpp:408] conv2_1 -> conv2_1
I0413 16:08:09.254613  7912 net.cpp:150] Setting up conv2_1
I0413 16:08:09.254639  7912 net.cpp:157] Top shape: 1 128 500 750 (48000000)
I0413 16:08:09.254643  7912 net.cpp:165] Memory required for data: 1878000076
I0413 16:08:09.254662  7912 layer_factory.hpp:77] Creating layer relu2_1
I0413 16:08:09.254693  7912 net.cpp:100] Creating Layer relu2_1
I0413 16:08:09.254699  7912 net.cpp:434] relu2_1 <- conv2_1
I0413 16:08:09.254711  7912 net.cpp:395] relu2_1 -> conv2_1 (in-place)
I0413 16:08:09.254739  7912 net.cpp:150] Setting up relu2_1
I0413 16:08:09.254747  7912 net.cpp:157] Top shape: 1 128 500 750 (48000000)
I0413 16:08:09.254752  7912 net.cpp:165] Memory required for data: 2070000076
I0413 16:08:09.254758  7912 layer_factory.hpp:77] Creating layer conv2_2
I0413 16:08:09.254772  7912 net.cpp:100] Creating Layer conv2_2
I0413 16:08:09.254779  7912 net.cpp:434] conv2_2 <- conv2_1
I0413 16:08:09.254787  7912 net.cpp:408] conv2_2 -> conv2_2
I0413 16:08:09.255842  7912 net.cpp:150] Setting up conv2_2
I0413 16:08:09.255867  7912 net.cpp:157] Top shape: 1 128 500 750 (48000000)
I0413 16:08:09.255873  7912 net.cpp:165] Memory required for data: 2262000076
I0413 16:08:09.255889  7912 layer_factory.hpp:77] Creating layer relu2_2
I0413 16:08:09.255900  7912 net.cpp:100] Creating Layer relu2_2
I0413 16:08:09.255908  7912 net.cpp:434] relu2_2 <- conv2_2
I0413 16:08:09.255919  7912 net.cpp:395] relu2_2 -> conv2_2 (in-place)
I0413 16:08:09.255933  7912 net.cpp:150] Setting up relu2_2
I0413 16:08:09.255940  7912 net.cpp:157] Top shape: 1 128 500 750 (48000000)
I0413 16:08:09.255945  7912 net.cpp:165] Memory required for data: 2454000076
I0413 16:08:09.255951  7912 layer_factory.hpp:77] Creating layer pool2
I0413 16:08:09.255960  7912 net.cpp:100] Creating Layer pool2
I0413 16:08:09.255966  7912 net.cpp:434] pool2 <- conv2_2
I0413 16:08:09.255976  7912 net.cpp:408] pool2 -> pool2
I0413 16:08:09.256021  7912 net.cpp:150] Setting up pool2
I0413 16:08:09.256031  7912 net.cpp:157] Top shape: 1 128 250 375 (12000000)
I0413 16:08:09.256036  7912 net.cpp:165] Memory required for data: 2502000076
I0413 16:08:09.256042  7912 layer_factory.hpp:77] Creating layer conv3_1
I0413 16:08:09.256053  7912 net.cpp:100] Creating Layer conv3_1
I0413 16:08:09.256058  7912 net.cpp:434] conv3_1 <- pool2
I0413 16:08:09.256068  7912 net.cpp:408] conv3_1 -> conv3_1
I0413 16:08:09.257172  7912 net.cpp:150] Setting up conv3_1
I0413 16:08:09.257197  7912 net.cpp:157] Top shape: 1 256 250 375 (24000000)
I0413 16:08:09.257201  7912 net.cpp:165] Memory required for data: 2598000076
I0413 16:08:09.257221  7912 layer_factory.hpp:77] Creating layer relu3_1
I0413 16:08:09.257232  7912 net.cpp:100] Creating Layer relu3_1
I0413 16:08:09.257239  7912 net.cpp:434] relu3_1 <- conv3_1
I0413 16:08:09.257249  7912 net.cpp:395] relu3_1 -> conv3_1 (in-place)
I0413 16:08:09.257261  7912 net.cpp:150] Setting up relu3_1
I0413 16:08:09.257267  7912 net.cpp:157] Top shape: 1 256 250 375 (24000000)
I0413 16:08:09.257272  7912 net.cpp:165] Memory required for data: 2694000076
I0413 16:08:09.257278  7912 layer_factory.hpp:77] Creating layer conv3_2
I0413 16:08:09.257292  7912 net.cpp:100] Creating Layer conv3_2
I0413 16:08:09.257297  7912 net.cpp:434] conv3_2 <- conv3_1
I0413 16:08:09.257306  7912 net.cpp:408] conv3_2 -> conv3_2
I0413 16:08:09.258483  7912 net.cpp:150] Setting up conv3_2
I0413 16:08:09.258512  7912 net.cpp:157] Top shape: 1 256 250 375 (24000000)
I0413 16:08:09.258515  7912 net.cpp:165] Memory required for data: 2790000076
I0413 16:08:09.258529  7912 layer_factory.hpp:77] Creating layer relu3_2
I0413 16:08:09.258544  7912 net.cpp:100] Creating Layer relu3_2
I0413 16:08:09.258550  7912 net.cpp:434] relu3_2 <- conv3_2
I0413 16:08:09.258563  7912 net.cpp:395] relu3_2 -> conv3_2 (in-place)
I0413 16:08:09.258574  7912 net.cpp:150] Setting up relu3_2
I0413 16:08:09.258580  7912 net.cpp:157] Top shape: 1 256 250 375 (24000000)
I0413 16:08:09.258585  7912 net.cpp:165] Memory required for data: 2886000076
I0413 16:08:09.258591  7912 layer_factory.hpp:77] Creating layer conv3_3
I0413 16:08:09.258604  7912 net.cpp:100] Creating Layer conv3_3
I0413 16:08:09.258610  7912 net.cpp:434] conv3_3 <- conv3_2
I0413 16:08:09.258617  7912 net.cpp:408] conv3_3 -> conv3_3
I0413 16:08:09.260169  7912 net.cpp:150] Setting up conv3_3
I0413 16:08:09.260202  7912 net.cpp:157] Top shape: 1 256 250 375 (24000000)
I0413 16:08:09.260205  7912 net.cpp:165] Memory required for data: 2982000076
I0413 16:08:09.260221  7912 layer_factory.hpp:77] Creating layer relu3_3
I0413 16:08:09.260238  7912 net.cpp:100] Creating Layer relu3_3
I0413 16:08:09.260244  7912 net.cpp:434] relu3_3 <- conv3_3
I0413 16:08:09.260255  7912 net.cpp:395] relu3_3 -> conv3_3 (in-place)
I0413 16:08:09.260268  7912 net.cpp:150] Setting up relu3_3
I0413 16:08:09.260274  7912 net.cpp:157] Top shape: 1 256 250 375 (24000000)
I0413 16:08:09.260278  7912 net.cpp:165] Memory required for data: 3078000076
I0413 16:08:09.260285  7912 layer_factory.hpp:77] Creating layer pool3
I0413 16:08:09.260296  7912 net.cpp:100] Creating Layer pool3
I0413 16:08:09.260301  7912 net.cpp:434] pool3 <- conv3_3
I0413 16:08:09.260308  7912 net.cpp:408] pool3 -> pool3
I0413 16:08:09.260357  7912 net.cpp:150] Setting up pool3
I0413 16:08:09.260365  7912 net.cpp:157] Top shape: 1 256 125 188 (6016000)
I0413 16:08:09.260368  7912 net.cpp:165] Memory required for data: 3102064076
I0413 16:08:09.260375  7912 layer_factory.hpp:77] Creating layer conv4_1
I0413 16:08:09.260385  7912 net.cpp:100] Creating Layer conv4_1
I0413 16:08:09.260391  7912 net.cpp:434] conv4_1 <- pool3
I0413 16:08:09.260398  7912 net.cpp:408] conv4_1 -> conv4_1
I0413 16:08:09.263025  7912 net.cpp:150] Setting up conv4_1
I0413 16:08:09.263069  7912 net.cpp:157] Top shape: 1 512 125 188 (12032000)
I0413 16:08:09.263073  7912 net.cpp:165] Memory required for data: 3150192076
I0413 16:08:09.263083  7912 layer_factory.hpp:77] Creating layer relu4_1
I0413 16:08:09.263093  7912 net.cpp:100] Creating Layer relu4_1
I0413 16:08:09.263098  7912 net.cpp:434] relu4_1 <- conv4_1
I0413 16:08:09.263108  7912 net.cpp:395] relu4_1 -> conv4_1 (in-place)
I0413 16:08:09.263121  7912 net.cpp:150] Setting up relu4_1
I0413 16:08:09.263128  7912 net.cpp:157] Top shape: 1 512 125 188 (12032000)
I0413 16:08:09.263133  7912 net.cpp:165] Memory required for data: 3198320076
I0413 16:08:09.263139  7912 layer_factory.hpp:77] Creating layer conv4_2
I0413 16:08:09.263152  7912 net.cpp:100] Creating Layer conv4_2
I0413 16:08:09.263157  7912 net.cpp:434] conv4_2 <- conv4_1
I0413 16:08:09.263165  7912 net.cpp:408] conv4_2 -> conv4_2
I0413 16:08:09.267324  7912 net.cpp:150] Setting up conv4_2
I0413 16:08:09.267357  7912 net.cpp:157] Top shape: 1 512 125 188 (12032000)
I0413 16:08:09.267369  7912 net.cpp:165] Memory required for data: 3246448076
I0413 16:08:09.267386  7912 layer_factory.hpp:77] Creating layer relu4_2
I0413 16:08:09.267397  7912 net.cpp:100] Creating Layer relu4_2
I0413 16:08:09.267405  7912 net.cpp:434] relu4_2 <- conv4_2
I0413 16:08:09.267417  7912 net.cpp:395] relu4_2 -> conv4_2 (in-place)
I0413 16:08:09.267431  7912 net.cpp:150] Setting up relu4_2
I0413 16:08:09.267437  7912 net.cpp:157] Top shape: 1 512 125 188 (12032000)
I0413 16:08:09.267441  7912 net.cpp:165] Memory required for data: 3294576076
I0413 16:08:09.267447  7912 layer_factory.hpp:77] Creating layer conv4_3
I0413 16:08:09.267462  7912 net.cpp:100] Creating Layer conv4_3
I0413 16:08:09.267467  7912 net.cpp:434] conv4_3 <- conv4_2
I0413 16:08:09.267473  7912 net.cpp:408] conv4_3 -> conv4_3
I0413 16:08:09.271842  7912 net.cpp:150] Setting up conv4_3
I0413 16:08:09.271875  7912 net.cpp:157] Top shape: 1 512 125 188 (12032000)
I0413 16:08:09.271879  7912 net.cpp:165] Memory required for data: 3342704076
I0413 16:08:09.271895  7912 layer_factory.hpp:77] Creating layer relu4_3
I0413 16:08:09.271908  7912 net.cpp:100] Creating Layer relu4_3
I0413 16:08:09.271917  7912 net.cpp:434] relu4_3 <- conv4_3
I0413 16:08:09.271929  7912 net.cpp:395] relu4_3 -> conv4_3 (in-place)
I0413 16:08:09.271944  7912 net.cpp:150] Setting up relu4_3
I0413 16:08:09.271955  7912 net.cpp:157] Top shape: 1 512 125 188 (12032000)
I0413 16:08:09.271960  7912 net.cpp:165] Memory required for data: 3390832076
I0413 16:08:09.271965  7912 layer_factory.hpp:77] Creating layer pool4
I0413 16:08:09.271977  7912 net.cpp:100] Creating Layer pool4
I0413 16:08:09.271984  7912 net.cpp:434] pool4 <- conv4_3
I0413 16:08:09.271992  7912 net.cpp:408] pool4 -> pool4
I0413 16:08:09.272047  7912 net.cpp:150] Setting up pool4
I0413 16:08:09.272058  7912 net.cpp:157] Top shape: 1 512 63 94 (3032064)
I0413 16:08:09.272063  7912 net.cpp:165] Memory required for data: 3402960332
I0413 16:08:09.272069  7912 layer_factory.hpp:77] Creating layer conv5_1
I0413 16:08:09.272084  7912 net.cpp:100] Creating Layer conv5_1
I0413 16:08:09.272091  7912 net.cpp:434] conv5_1 <- pool4
I0413 16:08:09.272101  7912 net.cpp:408] conv5_1 -> conv5_1
I0413 16:08:09.277000  7912 net.cpp:150] Setting up conv5_1
I0413 16:08:09.277039  7912 net.cpp:157] Top shape: 1 512 63 94 (3032064)
I0413 16:08:09.277042  7912 net.cpp:165] Memory required for data: 3415088588
I0413 16:08:09.277052  7912 layer_factory.hpp:77] Creating layer relu5_1
I0413 16:08:09.277066  7912 net.cpp:100] Creating Layer relu5_1
I0413 16:08:09.277074  7912 net.cpp:434] relu5_1 <- conv5_1
I0413 16:08:09.277084  7912 net.cpp:395] relu5_1 -> conv5_1 (in-place)
I0413 16:08:09.277099  7912 net.cpp:150] Setting up relu5_1
I0413 16:08:09.277109  7912 net.cpp:157] Top shape: 1 512 63 94 (3032064)
I0413 16:08:09.277117  7912 net.cpp:165] Memory required for data: 3427216844
I0413 16:08:09.277122  7912 layer_factory.hpp:77] Creating layer conv5_2
I0413 16:08:09.277137  7912 net.cpp:100] Creating Layer conv5_2
I0413 16:08:09.277145  7912 net.cpp:434] conv5_2 <- conv5_1
I0413 16:08:09.277170  7912 net.cpp:408] conv5_2 -> conv5_2
I0413 16:08:09.281575  7912 net.cpp:150] Setting up conv5_2
I0413 16:08:09.281611  7912 net.cpp:157] Top shape: 1 512 63 94 (3032064)
I0413 16:08:09.281615  7912 net.cpp:165] Memory required for data: 3439345100
I0413 16:08:09.281630  7912 layer_factory.hpp:77] Creating layer relu5_2
I0413 16:08:09.281644  7912 net.cpp:100] Creating Layer relu5_2
I0413 16:08:09.281654  7912 net.cpp:434] relu5_2 <- conv5_2
I0413 16:08:09.281668  7912 net.cpp:395] relu5_2 -> conv5_2 (in-place)
I0413 16:08:09.281684  7912 net.cpp:150] Setting up relu5_2
I0413 16:08:09.281692  7912 net.cpp:157] Top shape: 1 512 63 94 (3032064)
I0413 16:08:09.281699  7912 net.cpp:165] Memory required for data: 3451473356
I0413 16:08:09.281704  7912 layer_factory.hpp:77] Creating layer conv5_3
I0413 16:08:09.281720  7912 net.cpp:100] Creating Layer conv5_3
I0413 16:08:09.281728  7912 net.cpp:434] conv5_3 <- conv5_2
I0413 16:08:09.281738  7912 net.cpp:408] conv5_3 -> conv5_3
I0413 16:08:09.286139  7912 net.cpp:150] Setting up conv5_3
I0413 16:08:09.286176  7912 net.cpp:157] Top shape: 1 512 63 94 (3032064)
I0413 16:08:09.286180  7912 net.cpp:165] Memory required for data: 3463601612
I0413 16:08:09.286191  7912 layer_factory.hpp:77] Creating layer relu5_3
I0413 16:08:09.286214  7912 net.cpp:100] Creating Layer relu5_3
I0413 16:08:09.286247  7912 net.cpp:434] relu5_3 <- conv5_3
I0413 16:08:09.286258  7912 net.cpp:395] relu5_3 -> conv5_3 (in-place)
I0413 16:08:09.286274  7912 net.cpp:150] Setting up relu5_3
I0413 16:08:09.286280  7912 net.cpp:157] Top shape: 1 512 63 94 (3032064)
I0413 16:08:09.286285  7912 net.cpp:165] Memory required for data: 3475729868
I0413 16:08:09.286293  7912 layer_factory.hpp:77] Creating layer rpn_big_conv1
I0413 16:08:09.286309  7912 net.cpp:100] Creating Layer rpn_big_conv1
I0413 16:08:09.286314  7912 net.cpp:434] rpn_big_conv1 <- conv5_3
I0413 16:08:09.286324  7912 net.cpp:408] rpn_big_conv1 -> rpn_big_conv1
I0413 16:08:09.312572  7912 net.cpp:150] Setting up rpn_big_conv1
I0413 16:08:09.312602  7912 net.cpp:157] Top shape: 1 512 63 94 (3032064)
I0413 16:08:09.312615  7912 net.cpp:165] Memory required for data: 3487858124
I0413 16:08:09.312624  7912 layer_factory.hpp:77] Creating layer rpn_big_conv1_relu
I0413 16:08:09.312638  7912 net.cpp:100] Creating Layer rpn_big_conv1_relu
I0413 16:08:09.312645  7912 net.cpp:434] rpn_big_conv1_relu <- rpn_big_conv1
I0413 16:08:09.312659  7912 net.cpp:395] rpn_big_conv1_relu -> rpn_big_conv1 (in-place)
I0413 16:08:09.312674  7912 net.cpp:150] Setting up rpn_big_conv1_relu
I0413 16:08:09.312680  7912 net.cpp:157] Top shape: 1 512 63 94 (3032064)
I0413 16:08:09.312683  7912 net.cpp:165] Memory required for data: 3499986380
I0413 16:08:09.312688  7912 layer_factory.hpp:77] Creating layer rpn_big_conv2
I0413 16:08:09.312705  7912 net.cpp:100] Creating Layer rpn_big_conv2
I0413 16:08:09.312711  7912 net.cpp:434] rpn_big_conv2 <- rpn_big_conv1
I0413 16:08:09.312721  7912 net.cpp:408] rpn_big_conv2 -> rpn_big_conv2
I0413 16:08:09.338409  7912 net.cpp:150] Setting up rpn_big_conv2
I0413 16:08:09.338439  7912 net.cpp:157] Top shape: 1 512 63 94 (3032064)
I0413 16:08:09.338452  7912 net.cpp:165] Memory required for data: 3512114636
I0413 16:08:09.338462  7912 layer_factory.hpp:77] Creating layer rpn_big_conv2_relu
I0413 16:08:09.338474  7912 net.cpp:100] Creating Layer rpn_big_conv2_relu
I0413 16:08:09.338484  7912 net.cpp:434] rpn_big_conv2_relu <- rpn_big_conv2
I0413 16:08:09.338495  7912 net.cpp:395] rpn_big_conv2_relu -> rpn_big_conv2 (in-place)
I0413 16:08:09.338506  7912 net.cpp:150] Setting up rpn_big_conv2_relu
I0413 16:08:09.338515  7912 net.cpp:157] Top shape: 1 512 63 94 (3032064)
I0413 16:08:09.338521  7912 net.cpp:165] Memory required for data: 3524242892
I0413 16:08:09.338526  7912 layer_factory.hpp:77] Creating layer rpn_big_conv2_drop
I0413 16:08:09.338536  7912 net.cpp:100] Creating Layer rpn_big_conv2_drop
I0413 16:08:09.338543  7912 net.cpp:434] rpn_big_conv2_drop <- rpn_big_conv2
I0413 16:08:09.338551  7912 net.cpp:395] rpn_big_conv2_drop -> rpn_big_conv2 (in-place)
I0413 16:08:09.338580  7912 net.cpp:150] Setting up rpn_big_conv2_drop
I0413 16:08:09.338587  7912 net.cpp:157] Top shape: 1 512 63 94 (3032064)
I0413 16:08:09.338591  7912 net.cpp:165] Memory required for data: 3536371148
I0413 16:08:09.338598  7912 layer_factory.hpp:77] Creating layer rpn_big_conv2_rpn_big_conv2_drop_0_split
I0413 16:08:09.338608  7912 net.cpp:100] Creating Layer rpn_big_conv2_rpn_big_conv2_drop_0_split
I0413 16:08:09.338613  7912 net.cpp:434] rpn_big_conv2_rpn_big_conv2_drop_0_split <- rpn_big_conv2
I0413 16:08:09.338620  7912 net.cpp:408] rpn_big_conv2_rpn_big_conv2_drop_0_split -> rpn_big_conv2_rpn_big_conv2_drop_0_split_0
I0413 16:08:09.338634  7912 net.cpp:408] rpn_big_conv2_rpn_big_conv2_drop_0_split -> rpn_big_conv2_rpn_big_conv2_drop_0_split_1
I0413 16:08:09.338670  7912 net.cpp:150] Setting up rpn_big_conv2_rpn_big_conv2_drop_0_split
I0413 16:08:09.338676  7912 net.cpp:157] Top shape: 1 512 63 94 (3032064)
I0413 16:08:09.338682  7912 net.cpp:157] Top shape: 1 512 63 94 (3032064)
I0413 16:08:09.338687  7912 net.cpp:165] Memory required for data: 3560627660
I0413 16:08:09.338695  7912 layer_factory.hpp:77] Creating layer rpn_big_output_cls
I0413 16:08:09.338711  7912 net.cpp:100] Creating Layer rpn_big_output_cls
I0413 16:08:09.338716  7912 net.cpp:434] rpn_big_output_cls <- rpn_big_conv2_rpn_big_conv2_drop_0_split_0
I0413 16:08:09.338723  7912 net.cpp:408] rpn_big_output_cls -> rpn_big_output_cls
I0413 16:08:09.357870  7912 net.cpp:150] Setting up rpn_big_output_cls
I0413 16:08:09.357899  7912 net.cpp:157] Top shape: 1 384 63 94 (2274048)
I0413 16:08:09.357913  7912 net.cpp:165] Memory required for data: 3569723852
I0413 16:08:09.357923  7912 layer_factory.hpp:77] Creating layer rpn_big_output_cls_relu
I0413 16:08:09.357933  7912 net.cpp:100] Creating Layer rpn_big_output_cls_relu
I0413 16:08:09.357940  7912 net.cpp:434] rpn_big_output_cls_relu <- rpn_big_output_cls
I0413 16:08:09.357954  7912 net.cpp:395] rpn_big_output_cls_relu -> rpn_big_output_cls (in-place)
I0413 16:08:09.357969  7912 net.cpp:150] Setting up rpn_big_output_cls_relu
I0413 16:08:09.357976  7912 net.cpp:157] Top shape: 1 384 63 94 (2274048)
I0413 16:08:09.357980  7912 net.cpp:165] Memory required for data: 3578820044
I0413 16:08:09.357982  7912 layer_factory.hpp:77] Creating layer rpn_big_cls_score
I0413 16:08:09.357995  7912 net.cpp:100] Creating Layer rpn_big_cls_score
I0413 16:08:09.357998  7912 net.cpp:434] rpn_big_cls_score <- rpn_big_output_cls
I0413 16:08:09.358006  7912 net.cpp:408] rpn_big_cls_score -> rpn_big_cls_score
I0413 16:08:09.360394  7912 net.cpp:150] Setting up rpn_big_cls_score
I0413 16:08:09.360414  7912 net.cpp:157] Top shape: 1 52 61 92 (291824)
I0413 16:08:09.360429  7912 net.cpp:165] Memory required for data: 3579987340
I0413 16:08:09.360448  7912 layer_factory.hpp:77] Creating layer rpn_big_cls_score_rpn_big_cls_score_0_split
I0413 16:08:09.360462  7912 net.cpp:100] Creating Layer rpn_big_cls_score_rpn_big_cls_score_0_split
I0413 16:08:09.360471  7912 net.cpp:434] rpn_big_cls_score_rpn_big_cls_score_0_split <- rpn_big_cls_score
I0413 16:08:09.360478  7912 net.cpp:408] rpn_big_cls_score_rpn_big_cls_score_0_split -> rpn_big_cls_score_rpn_big_cls_score_0_split_0
I0413 16:08:09.360491  7912 net.cpp:408] rpn_big_cls_score_rpn_big_cls_score_0_split -> rpn_big_cls_score_rpn_big_cls_score_0_split_1
I0413 16:08:09.360535  7912 net.cpp:150] Setting up rpn_big_cls_score_rpn_big_cls_score_0_split
I0413 16:08:09.360543  7912 net.cpp:157] Top shape: 1 52 61 92 (291824)
I0413 16:08:09.360549  7912 net.cpp:157] Top shape: 1 52 61 92 (291824)
I0413 16:08:09.360555  7912 net.cpp:165] Memory required for data: 3582321932
I0413 16:08:09.360559  7912 layer_factory.hpp:77] Creating layer rpn_big_cls_score_reshape
I0413 16:08:09.360569  7912 net.cpp:100] Creating Layer rpn_big_cls_score_reshape
I0413 16:08:09.360574  7912 net.cpp:434] rpn_big_cls_score_reshape <- rpn_big_cls_score_rpn_big_cls_score_0_split_0
I0413 16:08:09.360584  7912 net.cpp:408] rpn_big_cls_score_reshape -> rpn_big_cls_score_reshape
I0413 16:08:09.360612  7912 net.cpp:150] Setting up rpn_big_cls_score_reshape
I0413 16:08:09.360620  7912 net.cpp:157] Top shape: 1 2 1586 92 (291824)
I0413 16:08:09.360625  7912 net.cpp:165] Memory required for data: 3583489228
I0413 16:08:09.360631  7912 layer_factory.hpp:77] Creating layer rpn_big_cls_score_reshape_rpn_big_cls_score_reshape_0_split
I0413 16:08:09.360641  7912 net.cpp:100] Creating Layer rpn_big_cls_score_reshape_rpn_big_cls_score_reshape_0_split
I0413 16:08:09.360647  7912 net.cpp:434] rpn_big_cls_score_reshape_rpn_big_cls_score_reshape_0_split <- rpn_big_cls_score_reshape
I0413 16:08:09.360657  7912 net.cpp:408] rpn_big_cls_score_reshape_rpn_big_cls_score_reshape_0_split -> rpn_big_cls_score_reshape_rpn_big_cls_score_reshape_0_split_0
I0413 16:08:09.360667  7912 net.cpp:408] rpn_big_cls_score_reshape_rpn_big_cls_score_reshape_0_split -> rpn_big_cls_score_reshape_rpn_big_cls_score_reshape_0_split_1
I0413 16:08:09.360703  7912 net.cpp:150] Setting up rpn_big_cls_score_reshape_rpn_big_cls_score_reshape_0_split
I0413 16:08:09.360712  7912 net.cpp:157] Top shape: 1 2 1586 92 (291824)
I0413 16:08:09.360718  7912 net.cpp:157] Top shape: 1 2 1586 92 (291824)
I0413 16:08:09.360724  7912 net.cpp:165] Memory required for data: 3585823820
I0413 16:08:09.360730  7912 layer_factory.hpp:77] Creating layer rpn_big_cls_prob
I0413 16:08:09.360739  7912 net.cpp:100] Creating Layer rpn_big_cls_prob
I0413 16:08:09.360745  7912 net.cpp:434] rpn_big_cls_prob <- rpn_big_cls_score_reshape_rpn_big_cls_score_reshape_0_split_0
I0413 16:08:09.360755  7912 net.cpp:408] rpn_big_cls_prob -> rpn_big_cls_prob
I0413 16:08:09.360810  7912 net.cpp:150] Setting up rpn_big_cls_prob
I0413 16:08:09.360817  7912 net.cpp:157] Top shape: 1 2 1586 92 (291824)
I0413 16:08:09.360821  7912 net.cpp:165] Memory required for data: 3586991116
I0413 16:08:09.360827  7912 layer_factory.hpp:77] Creating layer rpn_big_cls_prob_reshape
I0413 16:08:09.360836  7912 net.cpp:100] Creating Layer rpn_big_cls_prob_reshape
I0413 16:08:09.360841  7912 net.cpp:434] rpn_big_cls_prob_reshape <- rpn_big_cls_prob
I0413 16:08:09.360851  7912 net.cpp:408] rpn_big_cls_prob_reshape -> rpn_big_cls_prob_reshape
I0413 16:08:09.360877  7912 net.cpp:150] Setting up rpn_big_cls_prob_reshape
I0413 16:08:09.360884  7912 net.cpp:157] Top shape: 1 52 61 92 (291824)
I0413 16:08:09.360888  7912 net.cpp:165] Memory required for data: 3588158412
I0413 16:08:09.360895  7912 layer_factory.hpp:77] Creating layer rpn_big_cls_prob_reshape_rpn_big_cls_prob_reshape_0_split
I0413 16:08:09.360913  7912 net.cpp:100] Creating Layer rpn_big_cls_prob_reshape_rpn_big_cls_prob_reshape_0_split
I0413 16:08:09.360918  7912 net.cpp:434] rpn_big_cls_prob_reshape_rpn_big_cls_prob_reshape_0_split <- rpn_big_cls_prob_reshape
I0413 16:08:09.360924  7912 net.cpp:408] rpn_big_cls_prob_reshape_rpn_big_cls_prob_reshape_0_split -> rpn_big_cls_prob_reshape_rpn_big_cls_prob_reshape_0_split_0
I0413 16:08:09.360934  7912 net.cpp:408] rpn_big_cls_prob_reshape_rpn_big_cls_prob_reshape_0_split -> rpn_big_cls_prob_reshape_rpn_big_cls_prob_reshape_0_split_1
I0413 16:08:09.360968  7912 net.cpp:150] Setting up rpn_big_cls_prob_reshape_rpn_big_cls_prob_reshape_0_split
I0413 16:08:09.360975  7912 net.cpp:157] Top shape: 1 52 61 92 (291824)
I0413 16:08:09.360982  7912 net.cpp:157] Top shape: 1 52 61 92 (291824)
I0413 16:08:09.360988  7912 net.cpp:165] Memory required for data: 3590493004
I0413 16:08:09.360993  7912 layer_factory.hpp:77] Creating layer rpn_big_anchor_target
I0413 16:08:09.362383  7912 net.cpp:100] Creating Layer rpn_big_anchor_target
I0413 16:08:09.362399  7912 net.cpp:434] rpn_big_anchor_target <- rpn_big_cls_score_rpn_big_cls_score_0_split_1
I0413 16:08:09.362408  7912 net.cpp:434] rpn_big_anchor_target <- input_gt_boxes
I0413 16:08:09.362416  7912 net.cpp:434] rpn_big_anchor_target <- input_ignored_boxes
I0413 16:08:09.362422  7912 net.cpp:434] rpn_big_anchor_target <- input_im_info_input_1_split_0
I0413 16:08:09.362431  7912 net.cpp:434] rpn_big_anchor_target <- input_data_input_0_split_1
I0413 16:08:09.362438  7912 net.cpp:434] rpn_big_anchor_target <- rpn_big_cls_prob_reshape_rpn_big_cls_prob_reshape_0_split_0
I0413 16:08:09.362448  7912 net.cpp:408] rpn_big_anchor_target -> rpn_big_anchor_target_labels
I0413 16:08:09.362462  7912 net.cpp:408] rpn_big_anchor_target -> rpn_big_anchor_target_bbox_targets
I0413 16:08:09.362474  7912 net.cpp:408] rpn_big_anchor_target -> rpn_big_anchor_target_inside_weights
I0413 16:08:09.362486  7912 net.cpp:408] rpn_big_anchor_target -> rpn_big_anchor_target_outside_weights
I0413 16:08:09.367296  7912 net.cpp:150] Setting up rpn_big_anchor_target
I0413 16:08:09.367319  7912 net.cpp:157] Top shape: 1 1 1586 92 (145912)
I0413 16:08:09.367327  7912 net.cpp:157] Top shape: 1 104 61 92 (583648)
I0413 16:08:09.367334  7912 net.cpp:157] Top shape: 1 104 61 92 (583648)
I0413 16:08:09.367343  7912 net.cpp:157] Top shape: 1 104 61 92 (583648)
I0413 16:08:09.367348  7912 net.cpp:165] Memory required for data: 3598080428
I0413 16:08:09.367357  7912 layer_factory.hpp:77] Creating layer rpn_big_loss_cls
I0413 16:08:09.367374  7912 net.cpp:100] Creating Layer rpn_big_loss_cls
I0413 16:08:09.367382  7912 net.cpp:434] rpn_big_loss_cls <- rpn_big_cls_score_reshape_rpn_big_cls_score_reshape_0_split_1
I0413 16:08:09.367390  7912 net.cpp:434] rpn_big_loss_cls <- rpn_big_anchor_target_labels
I0413 16:08:09.367399  7912 net.cpp:408] rpn_big_loss_cls -> rpn_big_loss_cls
I0413 16:08:09.367415  7912 layer_factory.hpp:77] Creating layer rpn_big_loss_cls
I0413 16:08:09.368034  7912 net.cpp:150] Setting up rpn_big_loss_cls
I0413 16:08:09.368047  7912 net.cpp:157] Top shape: (1)
I0413 16:08:09.368052  7912 net.cpp:160]     with loss weight 1
I0413 16:08:09.368067  7912 net.cpp:165] Memory required for data: 3598080432
I0413 16:08:09.368072  7912 layer_factory.hpp:77] Creating layer rpn_big_output_box
I0413 16:08:09.368089  7912 net.cpp:100] Creating Layer rpn_big_output_box
I0413 16:08:09.368095  7912 net.cpp:434] rpn_big_output_box <- rpn_big_conv2_rpn_big_conv2_drop_0_split_1
I0413 16:08:09.368105  7912 net.cpp:408] rpn_big_output_box -> rpn_big_output_box
I0413 16:08:09.387130  7912 net.cpp:150] Setting up rpn_big_output_box
I0413 16:08:09.387171  7912 net.cpp:157] Top shape: 1 384 63 94 (2274048)
I0413 16:08:09.387174  7912 net.cpp:165] Memory required for data: 3607176624
I0413 16:08:09.387184  7912 layer_factory.hpp:77] Creating layer rpn_big_output_box_relu
I0413 16:08:09.387197  7912 net.cpp:100] Creating Layer rpn_big_output_box_relu
I0413 16:08:09.387204  7912 net.cpp:434] rpn_big_output_box_relu <- rpn_big_output_box
I0413 16:08:09.387218  7912 net.cpp:395] rpn_big_output_box_relu -> rpn_big_output_box (in-place)
I0413 16:08:09.387233  7912 net.cpp:150] Setting up rpn_big_output_box_relu
I0413 16:08:09.387240  7912 net.cpp:157] Top shape: 1 384 63 94 (2274048)
I0413 16:08:09.387243  7912 net.cpp:165] Memory required for data: 3616272816
I0413 16:08:09.387248  7912 layer_factory.hpp:77] Creating layer rpn_big_bbox_pred
I0413 16:08:09.387274  7912 net.cpp:100] Creating Layer rpn_big_bbox_pred
I0413 16:08:09.387279  7912 net.cpp:434] rpn_big_bbox_pred <- rpn_big_output_box
I0413 16:08:09.387290  7912 net.cpp:408] rpn_big_bbox_pred -> rpn_big_bbox_pred
I0413 16:08:09.391429  7912 net.cpp:150] Setting up rpn_big_bbox_pred
I0413 16:08:09.391456  7912 net.cpp:157] Top shape: 1 104 61 92 (583648)
I0413 16:08:09.391460  7912 net.cpp:165] Memory required for data: 3618607408
I0413 16:08:09.391472  7912 layer_factory.hpp:77] Creating layer rpn_big_bbox_pred_rpn_big_bbox_pred_0_split
I0413 16:08:09.391487  7912 net.cpp:100] Creating Layer rpn_big_bbox_pred_rpn_big_bbox_pred_0_split
I0413 16:08:09.391496  7912 net.cpp:434] rpn_big_bbox_pred_rpn_big_bbox_pred_0_split <- rpn_big_bbox_pred
I0413 16:08:09.391507  7912 net.cpp:408] rpn_big_bbox_pred_rpn_big_bbox_pred_0_split -> rpn_big_bbox_pred_rpn_big_bbox_pred_0_split_0
I0413 16:08:09.391525  7912 net.cpp:408] rpn_big_bbox_pred_rpn_big_bbox_pred_0_split -> rpn_big_bbox_pred_rpn_big_bbox_pred_0_split_1
I0413 16:08:09.391578  7912 net.cpp:150] Setting up rpn_big_bbox_pred_rpn_big_bbox_pred_0_split
I0413 16:08:09.391590  7912 net.cpp:157] Top shape: 1 104 61 92 (583648)
I0413 16:08:09.391598  7912 net.cpp:157] Top shape: 1 104 61 92 (583648)
I0413 16:08:09.391603  7912 net.cpp:165] Memory required for data: 3623276592
I0413 16:08:09.391608  7912 layer_factory.hpp:77] Creating layer rpn_big_loss_bbox
I0413 16:08:09.392056  7912 net.cpp:100] Creating Layer rpn_big_loss_bbox
I0413 16:08:09.392066  7912 net.cpp:434] rpn_big_loss_bbox <- rpn_big_bbox_pred_rpn_big_bbox_pred_0_split_0
I0413 16:08:09.392072  7912 net.cpp:434] rpn_big_loss_bbox <- rpn_big_anchor_target_bbox_targets
I0413 16:08:09.392081  7912 net.cpp:434] rpn_big_loss_bbox <- rpn_big_anchor_target_inside_weights
I0413 16:08:09.392089  7912 net.cpp:434] rpn_big_loss_bbox <- rpn_big_anchor_target_outside_weights
I0413 16:08:09.392101  7912 net.cpp:408] rpn_big_loss_bbox -> rpn_big_loss_bbox
I0413 16:08:09.394064  7912 net.cpp:150] Setting up rpn_big_loss_bbox
I0413 16:08:09.394099  7912 net.cpp:157] Top shape: 1 (1)
I0413 16:08:09.394107  7912 net.cpp:160]     with loss weight 1
I0413 16:08:09.394120  7912 net.cpp:165] Memory required for data: 3623276596
I0413 16:08:09.394130  7912 layer_factory.hpp:77] Creating layer proposal
I0413 16:08:09.396592  7912 net.cpp:100] Creating Layer proposal
I0413 16:08:09.396617  7912 net.cpp:434] proposal <- rpn_big_cls_prob_reshape_rpn_big_cls_prob_reshape_0_split_1
I0413 16:08:09.396628  7912 net.cpp:434] proposal <- rpn_big_bbox_pred_rpn_big_bbox_pred_0_split_1
…
