…
I0408 13:25:40.682996  9794 solver.cpp:48] Initializing solver from parameters: 
base_lr: 0.001
display: 20
lr_policy: "multistep"
gamma: 0.1
momentum: 0.9
weight_decay: 0.0005
snapshot: 0
snapshot_prefix: "faces_example"
net_param {
  name: "GeneratedModel_08_04_2017_13_25"
  layer {
    name: "input"
    type: "Python"
    top: "input_data"
    top: "input_im_info"
    top: "input_gt_boxes"
    top: "input_ignored_boxes"
    python_param {
      module: "layers.roi_data_layer"
      layer: "RoIDataLayer"
      param_str: "{\"num_classes\": 2}"
    }
  }
  layer {
    name: "conv1_1"
    type: "Convolution"
    bottom: "input_data"
    top: "conv1_1"
    param {
      lr_mult: 0
      decay_mult: 0
    }
    param {
      lr_mult: 0
      decay_mult: 0
    }
    convolution_param {
      num_output: 64
      pad: 1
      kernel_size: 3
    }
  }
  layer {
    name: "relu1_1"
    type: "ReLU"
    bottom: "conv1_1"
    top: "conv1_1"
  }
  layer {
    name: "conv1_2"
    type: "Convolution"
    bottom: "conv1_1"
    top: "conv1_2"
    param {
      lr_mult: 0
      decay_mult: 0
    }
    param {
      lr_mult: 0
      decay_mult: 0
    }
    convolution_param {
      num_output: 64
      pad: 1
      kernel_size: 3
    }
  }
  layer {
    name: "relu1_2"
    type: "ReLU"
    bottom: "conv1_2"
    top: "conv1_2"
  }
  layer {
    name: "pool1"
    type: "Pooling"
    bottom: "conv1_2"
    top: "pool1"
    pooling_param {
      pool: MAX
      kernel_size: 2
      stride: 2
    }
  }
  layer {
    name: "conv2_1"
    type: "Convolution"
    bottom: "pool1"
    top: "conv2_1"
    param {
      lr_mult: 0
      decay_mult: 0
    }
    param {
      lr_mult: 0
      decay_mult: 0
    }
    convolution_param {
      num_output: 128
      pad: 1
      kernel_size: 3
    }
  }
  layer {
    name: "relu2_1"
    type: "ReLU"
    bottom: "conv2_1"
    top: "conv2_1"
  }
  layer {
    name: "conv2_2"
    type: "Convolution"
    bottom: "conv2_1"
    top: "conv2_2"
    param {
      lr_mult: 0
      decay_mult: 0
    }
    param {
      lr_mult: 0
      decay_mult: 0
    }
    convolution_param {
      num_output: 128
      pad: 1
      kernel_size: 3
    }
  }
  layer {
    name: "relu2_2"
    type: "ReLU"
    bottom: "conv2_2"
    top: "conv2_2"
  }
  layer {
    name: "pool2"
    type: "Pooling"
    bottom: "conv2_2"
    top: "pool2"
    pooling_param {
      pool: MAX
      kernel_size: 2
      stride: 2
    }
  }
  layer {
    name: "conv3_1"
    type: "Convolution"
    bottom: "pool2"
    top: "conv3_1"
    param {
      lr_mult: 1
    }
    param {
      lr_mult: 2
    }
    convolution_param {
      num_output: 256
      pad: 1
      kernel_size: 3
    }
  }
  layer {
    name: "relu3_1"
    type: "ReLU"
    bottom: "conv3_1"
    top: "conv3_1"
  }
  layer {
    name: "conv3_2"
    type: "Convolution"
    bottom: "conv3_1"
    top: "conv3_2"
    param {
      lr_mult: 1
    }
    param {
      lr_mult: 2
    }
    convolution_param {
      num_output: 256
      pad: 1
      kernel_size: 3
    }
  }
  layer {
    name: "relu3_2"
    type: "ReLU"
    bottom: "conv3_2"
    top: "conv3_2"
  }
  layer {
    name: "conv3_3"
    type: "Convolution"
    bottom: "conv3_2"
    top: "conv3_3"
    param {
      lr_mult: 1
    }
    param {
      lr_mult: 2
    }
    convolution_param {
      num_output: 256
      pad: 1
      kernel_size: 3
    }
  }
  layer {
    name: "relu3_3"
    type: "ReLU"
    bottom: "conv3_3"
    top: "conv3_3"
  }
  layer {
    name: "pool3"
    type: "Pooling"
    bottom: "conv3_3"
    top: "pool3"
    pooling_param {
      pool: MAX
      kernel_size: 2
      stride: 2
    }
  }
  layer {
    name: "conv4_1"
    type: "Convolution"
    bottom: "pool3"
    top: "conv4_1"
    param {
      lr_mult: 1
    }
    param {
      lr_mult: 2
    }
    convolution_param {
      num_output: 512
      pad: 1
      kernel_size: 3
    }
  }
  layer {
    name: "relu4_1"
    type: "ReLU"
    bottom: "conv4_1"
    top: "conv4_1"
  }
  layer {
    name: "conv4_2"
    type: "Convolution"
    bottom: "conv4_1"
    top: "conv4_2"
    param {
      lr_mult: 1
    }
    param {
      lr_mult: 2
    }
    convolution_param {
      num_output: 512
      pad: 1
      kernel_size: 3
    }
  }
  layer {
    name: "relu4_2"
    type: "ReLU"
    bottom: "conv4_2"
    top: "conv4_2"
  }
  layer {
    name: "conv4_3"
    type: "Convolution"
    bottom: "conv4_2"
    top: "conv4_3"
    param {
      lr_mult: 1
    }
    param {
      lr_mult: 2
    }
    convolution_param {
      num_output: 512
      pad: 1
      kernel_size: 3
    }
  }
  layer {
    name: "relu4_3"
    type: "ReLU"
    bottom: "conv4_3"
    top: "conv4_3"
  }
  layer {
    name: "pool4"
    type: "Pooling"
    bottom: "conv4_3"
    top: "pool4"
    pooling_param {
      pool: MAX
      kernel_size: 2
      stride: 2
    }
  }
  layer {
    name: "conv5_1"
    type: "Convolution"
    bottom: "pool4"
    top: "conv5_1"
    param {
      lr_mult: 1
    }
    param {
      lr_mult: 2
    }
    convolution_param {
      num_output: 512
      pad: 1
      kernel_size: 3
    }
  }
  layer {
    name: "relu5_1"
    type: "ReLU"
    bottom: "conv5_1"
    top: "conv5_1"
  }
  layer {
    name: "conv5_2"
    type: "Convolution"
    bottom: "conv5_1"
    top: "conv5_2"
    param {
      lr_mult: 1
    }
    param {
      lr_mult: 2
    }
    convolution_param {
      num_output: 512
      pad: 1
      kernel_size: 3
    }
  }
  layer {
    name: "relu5_2"
    type: "ReLU"
    bottom: "conv5_2"
    top: "conv5_2"
  }
  layer {
    name: "conv5_3"
    type: "Convolution"
    bottom: "conv5_2"
    top: "conv5_3"
    param {
      lr_mult: 1
    }
    param {
      lr_mult: 2
    }
    convolution_param {
      num_output: 512
      pad: 1
      kernel_size: 3
    }
  }
  layer {
    name: "relu5_3"
    type: "ReLU"
    bottom: "conv5_3"
    top: "conv5_3"
  }
  layer {
    name: "rpn_big_conv1"
    type: "Convolution"
    bottom: "conv5_3"
    top: "rpn_big_conv1"
    param {
      lr_mult: 1
    }
    param {
      lr_mult: 2
    }
    convolution_param {
      num_output: 512
      pad: 1
      kernel_size: 3
      stride: 1
      weight_filler {
        type: "gaussian"
        mean: 0
        std: 0.01
      }
      bias_filler {
        type: "constant"
      }
    }
  }
  layer {
    name: "rpn_big_conv1_relu"
    type: "ReLU"
    bottom: "rpn_big_conv1"
    top: "rpn_big_conv1"
    relu_param {
      negative_slope: 0
    }
  }
  layer {
    name: "rpn_big_conv2"
    type: "Convolution"
    bottom: "rpn_big_conv1"
    top: "rpn_big_conv2"
    param {
      lr_mult: 1
    }
    param {
      lr_mult: 2
    }
    convolution_param {
      num_output: 512
      pad: 1
      kernel_size: 3
      stride: 1
      weight_filler {
        type: "gaussian"
        mean: 0
        std: 0.01
      }
      bias_filler {
        type: "constant"
      }
    }
  }
  layer {
    name: "rpn_big_conv2_relu"
    type: "ReLU"
    bottom: "rpn_big_conv2"
    top: "rpn_big_conv2"
    relu_param {
      negative_slope: 0
    }
  }
  layer {
    name: "rpn_big_conv2_drop"
    type: "Dropout"
    bottom: "rpn_big_conv2"
    top: "rpn_big_conv2"
    dropout_param {
      dropout_ratio: 0.3
    }
  }
  layer {
    name: "rpn_big_output_cls"
    type: "Convolution"
    bottom: "rpn_big_conv2"
    top: "rpn_big_output_cls"
    param {
      lr_mult: 1
    }
    param {
      lr_mult: 2
    }
    convolution_param {
      num_output: 384
      pad: 1
      kernel_size: 3
      stride: 1
      weight_filler {
        type: "gaussian"
        mean: 0
        std: 0.01
      }
      bias_filler {
        type: "constant"
      }
    }
  }
  layer {
    name: "rpn_big_output_cls_relu"
    type: "ReLU"
    bottom: "rpn_big_output_cls"
    top: "rpn_big_output_cls"
    relu_param {
      negative_slope: 0
    }
  }
  layer {
    name: "rpn_big_cls_score"
    type: "Convolution"
    bottom: "rpn_big_output_cls"
    top: "rpn_big_cls_score"
    param {
      lr_mult: 1
    }
    param {
      lr_mult: 2
    }
    convolution_param {
      num_output: 52
      pad: 0
      kernel_size: 3
      stride: 1
      weight_filler {
        type: "gaussian"
        mean: 0
        std: 0.01
      }
      bias_filler {
        type: "constant"
      }
    }
  }
  layer {
    name: "rpn_big_cls_score_reshape"
    type: "Reshape"
    bottom: "rpn_big_cls_score"
    top: "rpn_big_cls_score_reshape"
    reshape_param {
      shape {
        dim: 0
        dim: 2
        dim: -1
        dim: 0
      }
    }
  }
  layer {
    name: "rpn_big_cls_prob"
    type: "Softmax"
    bottom: "rpn_big_cls_score_reshape"
    top: "rpn_big_cls_prob"
  }
  layer {
    name: "rpn_big_cls_prob_reshape"
    type: "Reshape"
    bottom: "rpn_big_cls_prob"
    top: "rpn_big_cls_prob_reshape"
    reshape_param {
      shape {
        dim: 0
        dim: 52
        dim: -1
        dim: 0
      }
    }
  }
  layer {
    name: "rpn_big_anchor_target"
    type: "Python"
    bottom: "rpn_big_cls_score"
    bottom: "input_gt_boxes"
    bottom: "input_ignored_boxes"
    bottom: "input_im_info"
    bottom: "input_data"
    bottom: "rpn_big_cls_prob_reshape"
    top: "rpn_big_anchor_target_labels"
    top: "rpn_big_anchor_target_bbox_targets"
    top: "rpn_big_anchor_target_inside_weights"
    top: "rpn_big_anchor_target_outside_weights"
    python_param {
      module: "rpn.anchor_target_layer"
      layer: "AnchorTargetLayer"
      param_str: "{\"square_targets\": true, \"anchor_scales\": [2.5, 3.025, 3.66025, 4.4289024999999995, 5.358972025, 6.484356150249999, 7.846070941802498, 9.493745839581022, 11.487432465893036, 13.899793283730574, 16.818749873313998, 20.350687346709933, 24.62433168951902, 29.795441344318014], \"negative_overlap\": 0.4, \"anchor_ratios\": [1.0], \"tn_fraction\": 0.2, \"feat_stride\": 16, \"name\": \"rpn_big\", \"fg_fraction\": 0.5, \"batchsize\": 256, \"positive_overlap\": 0.6, \"anchor_shift_num_xy\": [[2, 2], [2, 2], [2, 2], [2, 2], [1, 1], [1, 1], [1, 1], [1, 1], [1, 1], [1, 1], [1, 1], [1, 1], [1, 1], [1, 1]], \"num_classes\": 1}"
    }
  }
  layer {
    name: "rpn_big_loss_cls"
    type: "SoftmaxWithLoss"
    bottom: "rpn_big_cls_score_reshape"
    bottom: "rpn_big_anchor_target_labels"
    top: "rpn_big_loss_cls"
    loss_weight: 1
    propagate_down: true
    propagate_down: false
    loss_param {
      ignore_label: -1
      normalization: VALID
    }
  }
  layer {
    name: "rpn_big_output_box"
    type: "Convolution"
    bottom: "rpn_big_conv2"
    top: "rpn_big_output_box"
    param {
      lr_mult: 1
    }
    param {
      lr_mult: 2
    }
    convolution_param {
      num_output: 384
      pad: 1
      kernel_size: 3
      stride: 1
      weight_filler {
        type: "gaussian"
        mean: 0
        std: 0.01
      }
      bias_filler {
        type: "constant"
      }
    }
  }
  layer {
    name: "rpn_big_output_box_relu"
    type: "ReLU"
    bottom: "rpn_big_output_box"
    top: "rpn_big_output_box"
    relu_param {
      negative_slope: 0
    }
  }
  layer {
    name: "rpn_big_bbox_pred"
    type: "Convolution"
    bottom: "rpn_big_output_box"
    top: "rpn_big_bbox_pred"
    param {
      lr_mult: 1
    }
    param {
      lr_mult: 2
    }
    convolution_param {
      num_output: 104
      pad: 0
      kernel_size: 3
      stride: 1
      weight_filler {
        type: "gaussian"
        mean: 0
        std: 0.01
      }
      bias_filler {
        type: "constant"
      }
    }
  }
  layer {
    name: "rpn_big_loss_bbox"
    type: "Python"
    bottom: "rpn_big_bbox_pred"
    bottom: "rpn_big_anchor_target_bbox_targets"
    bottom: "rpn_big_anchor_target_inside_weights"
    bottom: "rpn_big_anchor_target_outside_weights"
    top: "rpn_big_loss_bbox"
    loss_weight: 1
    python_param {
      module: "layers.smooth_l1_loss"
      layer: "SmoothL1LossLayer"
      param_str: "{\"sigma\": 3}"
    }
  }
}
average_loss: 100
stepvalue: 70000
stepvalue: 120000
iter_size: 2
I0408 13:25:40.683068  9794 solver.cpp:86] Creating training net specified in net_param.
I0408 13:25:40.683440  9794 net.cpp:58] Initializing net from parameters: 
name: "GeneratedModel_08_04_2017_13_25"
state {
  phase: TRAIN
}
layer {
  name: "input"
  type: "Python"
  top: "input_data"
  top: "input_im_info"
  top: "input_gt_boxes"
  top: "input_ignored_boxes"
  python_param {
    module: "layers.roi_data_layer"
    layer: "RoIDataLayer"
    param_str: "{\"num_classes\": 2}"
  }
}
layer {
  name: "conv1_1"
  type: "Convolution"
  bottom: "input_data"
  top: "conv1_1"
  param {
    lr_mult: 0
    decay_mult: 0
  }
  param {
    lr_mult: 0
    decay_mult: 0
  }
  convolution_param {
    num_output: 64
    pad: 1
    kernel_size: 3
  }
}
layer {
  name: "relu1_1"
  type: "ReLU"
  bottom: "conv1_1"
  top: "conv1_1"
}
layer {
  name: "conv1_2"
  type: "Convolution"
  bottom: "conv1_1"
  top: "conv1_2"
  param {
    lr_mult: 0
    decay_mult: 0
  }
  param {
    lr_mult: 0
    decay_mult: 0
  }
  convolution_param {
    num_output: 64
    pad: 1
    kernel_size: 3
  }
}
layer {
  name: "relu1_2"
  type: "ReLU"
  bottom: "conv1_2"
  top: "conv1_2"
}
layer {
  name: "pool1"
  type: "Pooling"
  bottom: "conv1_2"
  top: "pool1"
  pooling_param {
    pool: MAX
    kernel_size: 2
    stride: 2
  }
}
layer {
  name: "conv2_1"
  type: "Convolution"
  bottom: "pool1"
  top: "conv2_1"
  param {
    lr_mult: 0
    decay_mult: 0
  }
  param {
    lr_mult: 0
    decay_mult: 0
  }
  convolution_param {
    num_output: 128
    pad: 1
    kernel_size: 3
  }
}
layer {
  name: "relu2_1"
  type: "ReLU"
  bottom: "conv2_1"
  top: "conv2_1"
}
layer {
  name: "conv2_2"
  type: "Convolution"
  bottom: "conv2_1"
  top: "conv2_2"
  param {
    lr_mult: 0
    decay_mult: 0
  }
  param {
    lr_mult: 0
    decay_mult: 0
  }
  convolution_param {
    num_output: 128
    pad: 1
    kernel_size: 3
  }
}
layer {
  name: "relu2_2"
  type: "ReLU"
  bottom: "conv2_2"
  top: "conv2_2"
}
layer {
  name: "pool2"
  type: "Pooling"
  bottom: "conv2_2"
  top: "pool2"
  pooling_param {
    pool: MAX
    kernel_size: 2
    stride: 2
  }
}
layer {
  name: "conv3_1"
  type: "Convolution"
  bottom: "pool2"
  top: "conv3_1"
  param {
    lr_mult: 1
  }
  param {
    lr_mult: 2
  }
  convolution_param {
    num_output: 256
    pad: 1
    kernel_size: 3
  }
}
layer {
  name: "relu3_1"
  type: "ReLU"
  bottom: "conv3_1"
  top: "conv3_1"
}
layer {
  name: "conv3_2"
  type: "Convolution"
  bottom: "conv3_1"
  top: "conv3_2"
  param {
    lr_mult: 1
  }
  param {
    lr_mult: 2
  }
  convolution_param {
    num_output: 256
    pad: 1
    kernel_size: 3
  }
}
layer {
  name: "relu3_2"
  type: "ReLU"
  bottom: "conv3_2"
  top: "conv3_2"
}
layer {
  name: "conv3_3"
  type: "Convolution"
  bottom: "conv3_2"
  top: "conv3_3"
  param {
    lr_mult: 1
  }
  param {
    lr_mult: 2
  }
  convolution_param {
    num_output: 256
    pad: 1
    kernel_size: 3
  }
}
layer {
  name: "relu3_3"
  type: "ReLU"
  bottom: "conv3_3"
  top: "conv3_3"
}
layer {
  name: "pool3"
  type: "Pooling"
  bottom: "conv3_3"
  top: "pool3"
  pooling_param {
    pool: MAX
    kernel_size: 2
    stride: 2
  }
}
layer {
  name: "conv4_1"
  type: "Convolution"
  bottom: "pool3"
  top: "conv4_1"
  param {
    lr_mult: 1
  }
  param {
    lr_mult: 2
  }
  convolution_param {
    num_output: 512
    pad: 1
    kernel_size: 3
  }
}
layer {
  name: "relu4_1"
  type: "ReLU"
  bottom: "conv4_1"
  top: "conv4_1"
}
layer {
  name: "conv4_2"
  type: "Convolution"
  bottom: "conv4_1"
  top: "conv4_2"
  param {
    lr_mult: 1
  }
  param {
    lr_mult: 2
  }
  convolution_param {
    num_output: 512
    pad: 1
    kernel_size: 3
  }
}
layer {
  name: "relu4_2"
  type: "ReLU"
  bottom: "conv4_2"
  top: "conv4_2"
}
layer {
  name: "conv4_3"
  type: "Convolution"
  bottom: "conv4_2"
  top: "conv4_3"
  param {
    lr_mult: 1
  }
  param {
    lr_mult: 2
  }
  convolution_param {
    num_output: 512
    pad: 1
    kernel_size: 3
  }
}
layer {
  name: "relu4_3"
  type: "ReLU"
  bottom: "conv4_3"
  top: "conv4_3"
}
layer {
  name: "pool4"
  type: "Pooling"
  bottom: "conv4_3"
  top: "pool4"
  pooling_param {
    pool: MAX
    kernel_size: 2
    stride: 2
  }
}
layer {
  name: "conv5_1"
  type: "Convolution"
  bottom: "pool4"
  top: "conv5_1"
  param {
    lr_mult: 1
  }
  param {
    lr_mult: 2
  }
  convolution_param {
    num_output: 512
    pad: 1
    kernel_size: 3
  }
}
layer {
  name: "relu5_1"
  type: "ReLU"
  bottom: "conv5_1"
  top: "conv5_1"
}
layer {
  name: "conv5_2"
  type: "Convolution"
  bottom: "conv5_1"
  top: "conv5_2"
  param {
    lr_mult: 1
  }
  param {
    lr_mult: 2
  }
  convolution_param {
    num_output: 512
    pad: 1
    kernel_size: 3
  }
}
layer {
  name: "relu5_2"
  type: "ReLU"
  bottom: "conv5_2"
  top: "conv5_2"
}
layer {
  name: "conv5_3"
  type: "Convolution"
  bottom: "conv5_2"
  top: "conv5_3"
  param {
    lr_mult: 1
  }
  param {
    lr_mult: 2
  }
  convolution_param {
    num_output: 512
    pad: 1
    kernel_size: 3
  }
}
layer {
  name: "relu5_3"
  type: "ReLU"
  bottom: "conv5_3"
  top: "conv5_3"
}
layer {
  name: "rpn_big_conv1"
  type: "Convolution"
  bottom: "conv5_3"
  top: "rpn_big_conv1"
  param {
    lr_mult: 1
  }
  param {
    lr_mult: 2
  }
  convolution_param {
    num_output: 512
    pad: 1
    kernel_size: 3
    stride: 1
    weight_filler {
      type: "gaussian"
      mean: 0
      std: 0.01
    }
    bias_filler {
      type: "constant"
    }
  }
}
layer {
  name: "rpn_big_conv1_relu"
  type: "ReLU"
  bottom: "rpn_big_conv1"
  top: "rpn_big_conv1"
  relu_param {
    negative_slope: 0
  }
}
layer {
  name: "rpn_big_conv2"
  type: "Convolution"
  bottom: "rpn_big_conv1"
  top: "rpn_big_conv2"
  param {
    lr_mult: 1
  }
  param {
    lr_mult: 2
  }
  convolution_param {
    num_output: 512
    pad: 1
    kernel_size: 3
    stride: 1
    weight_filler {
      type: "gaussian"
      mean: 0
      std: 0.01
    }
    bias_filler {
      type: "constant"
    }
  }
}
layer {
  name: "rpn_big_conv2_relu"
  type: "ReLU"
  bottom: "rpn_big_conv2"
  top: "rpn_big_conv2"
  relu_param {
    negative_slope: 0
  }
}
layer {
  name: "rpn_big_conv2_drop"
  type: "Dropout"
  bottom: "rpn_big_conv2"
  top: "rpn_big_conv2"
  dropout_param {
    dropout_ratio: 0.3
  }
}
layer {
  name: "rpn_big_output_cls"
  type: "Convolution"
  bottom: "rpn_big_conv2"
  top: "rpn_big_output_cls"
  param {
    lr_mult: 1
  }
  param {
    lr_mult: 2
  }
  convolution_param {
    num_output: 384
    pad: 1
    kernel_size: 3
    stride: 1
    weight_filler {
      type: "gaussian"
      mean: 0
      std: 0.01
    }
    bias_filler {
      type: "constant"
    }
  }
}
layer {
  name: "rpn_big_output_cls_relu"
  type: "ReLU"
  bottom: "rpn_big_output_cls"
  top: "rpn_big_output_cls"
  relu_param {
    negative_slope: 0
  }
}
layer {
  name: "rpn_big_cls_score"
  type: "Convolution"
  bottom: "rpn_big_output_cls"
  top: "rpn_big_cls_score"
  param {
    lr_mult: 1
  }
  param {
    lr_mult: 2
  }
  convolution_param {
    num_output: 52
    pad: 0
    kernel_size: 3
    stride: 1
    weight_filler {
      type: "gaussian"
      mean: 0
      std: 0.01
    }
    bias_filler {
      type: "constant"
    }
  }
}
layer {
  name: "rpn_big_cls_score_reshape"
  type: "Reshape"
  bottom: "rpn_big_cls_score"
  top: "rpn_big_cls_score_reshape"
  reshape_param {
    shape {
      dim: 0
      dim: 2
      dim: -1
      dim: 0
    }
  }
}
layer {
  name: "rpn_big_cls_prob"
  type: "Softmax"
  bottom: "rpn_big_cls_score_reshape"
  top: "rpn_big_cls_prob"
}
layer {
  name: "rpn_big_cls_prob_reshape"
  type: "Reshape"
  bottom: "rpn_big_cls_prob"
  top: "rpn_big_cls_prob_reshape"
  reshape_param {
    shape {
      dim: 0
      dim: 52
      dim: -1
      dim: 0
    }
  }
}
layer {
  name: "rpn_big_anchor_target"
  type: "Python"
  bottom: "rpn_big_cls_score"
  bottom: "input_gt_boxes"
  bottom: "input_ignored_boxes"
  bottom: "input_im_info"
  bottom: "input_data"
  bottom: "rpn_big_cls_prob_reshape"
  top: "rpn_big_anchor_target_labels"
  top: "rpn_big_anchor_target_bbox_targets"
  top: "rpn_big_anchor_target_inside_weights"
  top: "rpn_big_anchor_target_outside_weights"
  python_param {
    module: "rpn.anchor_target_layer"
    layer: "AnchorTargetLayer"
    param_str: "{\"square_targets\": true, \"anchor_scales\": [2.5, 3.025, 3.66025, 4.4289024999999995, 5.358972025, 6.484356150249999, 7.846070941802498, 9.493745839581022, 11.487432465893036, 13.899793283730574, 16.818749873313998, 20.350687346709933, 24.62433168951902, 29.795441344318014], \"negative_overlap\": 0.4, \"anchor_ratios\": [1.0], \"tn_fraction\": 0.2, \"feat_stride\": 16, \"name\": \"rpn_big\", \"fg_fraction\": 0.5, \"batchsize\": 256, \"positive_overlap\": 0.6, \"anchor_shift_num_xy\": [[2, 2], [2, 2], [2, 2], [2, 2], [1, 1], [1, 1], [1, 1], [1, 1], [1, 1], [1, 1], [1, 1], [1, 1], [1, 1], [1, 1]], \"num_classes\": 1}"
  }
}
layer {
  name: "rpn_big_loss_cls"
  type: "SoftmaxWithLoss"
  bottom: "rpn_big_cls_score_reshape"
  bottom: "rpn_big_anchor_target_labels"
  top: "rpn_big_loss_cls"
  loss_weight: 1
  propagate_down: true
  propagate_down: false
  loss_param {
    ignore_label: -1
    normalization: VALID
  }
}
layer {
  name: "rpn_big_output_box"
  type: "Convolution"
  bottom: "rpn_big_conv2"
  top: "rpn_big_output_box"
  param {
    lr_mult: 1
  }
  param {
    lr_mult: 2
  }
  convolution_param {
    num_output: 384
    pad: 1
    kernel_size: 3
    stride: 1
    weight_filler {
      type: "gaussian"
      mean: 0
      std: 0.01
    }
    bias_filler {
      type: "constant"
    }
  }
}
layer {
  name: "rpn_big_output_box_relu"
  type: "ReLU"
  bottom: "rpn_big_output_box"
  top: "rpn_big_output_box"
  relu_param {
    negative_slope: 0
  }
}
layer {
  name: "rpn_big_bbox_pred"
  type: "Convolution"
  bottom: "rpn_big_output_box"
  top: "rpn_big_bbox_pred"
  param {
    lr_mult: 1
  }
  param {
    lr_mult: 2
  }
  convolution_param {
    num_output: 104
    pad: 0
    kernel_size: 3
    stride: 1
    weight_filler {
      type: "gaussian"
      mean: 0
      std: 0.01
    }
    bias_filler {
      type: "constant"
    }
  }
}
layer {
  name: "rpn_big_loss_bbox"
  type: "Python"
  bottom: "rpn_big_bbox_pred"
  bottom: "rpn_big_anchor_target_bbox_targets"
  bottom: "rpn_big_anchor_target_inside_weights"
  bottom: "rpn_big_anchor_target_outside_weights"
  top: "rpn_big_loss_bbox"
  loss_weight: 1
  python_param {
    module: "layers.smooth_l1_loss"
    layer: "SmoothL1LossLayer"
    param_str: "{\"sigma\": 3}"
  }
}
I0408 13:25:40.683604  9794 layer_factory.hpp:77] Creating layer input
I0408 13:25:40.687086  9794 net.cpp:100] Creating Layer input
I0408 13:25:40.687113  9794 net.cpp:408] input -> input_data
I0408 13:25:40.687124  9794 net.cpp:408] input -> input_im_info
I0408 13:25:40.687132  9794 net.cpp:408] input -> input_gt_boxes
I0408 13:25:40.687139  9794 net.cpp:408] input -> input_ignored_boxes
RoiDataLayer: name_to_top: {'gt_boxes': 2, 'ignored_boxes': 3, 'data': 0, 'im_info': 1}
I0408 13:25:45.797562  9794 net.cpp:150] Setting up input
I0408 13:25:45.797616  9794 net.cpp:157] Top shape: 1 3 1000 1500 (4500000)
I0408 13:25:45.797657  9794 net.cpp:157] Top shape: 1 3 (3)
I0408 13:25:45.797677  9794 net.cpp:157] Top shape: 1 5 (5)
I0408 13:25:45.797691  9794 net.cpp:157] Top shape: 1 5 (5)
I0408 13:25:45.797703  9794 net.cpp:165] Memory required for data: 18000052
I0408 13:25:45.797720  9794 layer_factory.hpp:77] Creating layer input_data_input_0_split
I0408 13:25:45.797750  9794 net.cpp:100] Creating Layer input_data_input_0_split
I0408 13:25:45.797765  9794 net.cpp:434] input_data_input_0_split <- input_data
I0408 13:25:45.797788  9794 net.cpp:408] input_data_input_0_split -> input_data_input_0_split_0
I0408 13:25:45.797827  9794 net.cpp:408] input_data_input_0_split -> input_data_input_0_split_1
I0408 13:25:45.797940  9794 net.cpp:150] Setting up input_data_input_0_split
I0408 13:25:45.797963  9794 net.cpp:157] Top shape: 1 3 1000 1500 (4500000)
I0408 13:25:45.797973  9794 net.cpp:157] Top shape: 1 3 1000 1500 (4500000)
I0408 13:25:45.797981  9794 net.cpp:165] Memory required for data: 54000052
I0408 13:25:45.797989  9794 layer_factory.hpp:77] Creating layer conv1_1
I0408 13:25:45.798012  9794 net.cpp:100] Creating Layer conv1_1
I0408 13:25:45.798025  9794 net.cpp:434] conv1_1 <- input_data_input_0_split_0
I0408 13:25:45.798038  9794 net.cpp:408] conv1_1 -> conv1_1
I0408 13:25:45.804366  9794 net.cpp:150] Setting up conv1_1
I0408 13:25:45.804425  9794 net.cpp:157] Top shape: 1 64 1000 1500 (96000000)
I0408 13:25:45.804432  9794 net.cpp:165] Memory required for data: 438000052
I0408 13:25:45.804466  9794 layer_factory.hpp:77] Creating layer relu1_1
I0408 13:25:45.804489  9794 net.cpp:100] Creating Layer relu1_1
I0408 13:25:45.804500  9794 net.cpp:434] relu1_1 <- conv1_1
I0408 13:25:45.804513  9794 net.cpp:395] relu1_1 -> conv1_1 (in-place)
I0408 13:25:45.804534  9794 net.cpp:150] Setting up relu1_1
I0408 13:25:45.804569  9794 net.cpp:157] Top shape: 1 64 1000 1500 (96000000)
I0408 13:25:45.804575  9794 net.cpp:165] Memory required for data: 822000052
I0408 13:25:45.804582  9794 layer_factory.hpp:77] Creating layer conv1_2
I0408 13:25:45.804603  9794 net.cpp:100] Creating Layer conv1_2
I0408 13:25:45.804613  9794 net.cpp:434] conv1_2 <- conv1_1
I0408 13:25:45.804630  9794 net.cpp:408] conv1_2 -> conv1_2
I0408 13:25:45.811851  9794 net.cpp:150] Setting up conv1_2
I0408 13:25:45.811908  9794 net.cpp:157] Top shape: 1 64 1000 1500 (96000000)
I0408 13:25:45.811916  9794 net.cpp:165] Memory required for data: 1206000052
I0408 13:25:45.811945  9794 layer_factory.hpp:77] Creating layer relu1_2
I0408 13:25:45.811964  9794 net.cpp:100] Creating Layer relu1_2
I0408 13:25:45.811974  9794 net.cpp:434] relu1_2 <- conv1_2
I0408 13:25:45.811988  9794 net.cpp:395] relu1_2 -> conv1_2 (in-place)
I0408 13:25:45.812008  9794 net.cpp:150] Setting up relu1_2
I0408 13:25:45.812018  9794 net.cpp:157] Top shape: 1 64 1000 1500 (96000000)
I0408 13:25:45.812026  9794 net.cpp:165] Memory required for data: 1590000052
I0408 13:25:45.812031  9794 layer_factory.hpp:77] Creating layer pool1
I0408 13:25:45.812049  9794 net.cpp:100] Creating Layer pool1
I0408 13:25:45.812057  9794 net.cpp:434] pool1 <- conv1_2
I0408 13:25:45.812068  9794 net.cpp:408] pool1 -> pool1
I0408 13:25:45.812193  9794 net.cpp:150] Setting up pool1
I0408 13:25:45.812213  9794 net.cpp:157] Top shape: 1 64 500 750 (24000000)
I0408 13:25:45.812221  9794 net.cpp:165] Memory required for data: 1686000052
I0408 13:25:45.812227  9794 layer_factory.hpp:77] Creating layer conv2_1
I0408 13:25:45.812250  9794 net.cpp:100] Creating Layer conv2_1
I0408 13:25:45.812258  9794 net.cpp:434] conv2_1 <- pool1
I0408 13:25:45.812273  9794 net.cpp:408] conv2_1 -> conv2_1
I0408 13:25:45.815552  9794 net.cpp:150] Setting up conv2_1
I0408 13:25:45.815603  9794 net.cpp:157] Top shape: 1 128 500 750 (48000000)
I0408 13:25:45.815611  9794 net.cpp:165] Memory required for data: 1878000052
I0408 13:25:45.815637  9794 layer_factory.hpp:77] Creating layer relu2_1
I0408 13:25:45.815668  9794 net.cpp:100] Creating Layer relu2_1
I0408 13:25:45.815680  9794 net.cpp:434] relu2_1 <- conv2_1
I0408 13:25:45.815696  9794 net.cpp:395] relu2_1 -> conv2_1 (in-place)
I0408 13:25:45.815917  9794 net.cpp:150] Setting up relu2_1
I0408 13:25:45.815934  9794 net.cpp:157] Top shape: 1 128 500 750 (48000000)
I0408 13:25:45.815942  9794 net.cpp:165] Memory required for data: 2070000052
I0408 13:25:45.815948  9794 layer_factory.hpp:77] Creating layer conv2_2
I0408 13:25:45.815964  9794 net.cpp:100] Creating Layer conv2_2
I0408 13:25:45.815971  9794 net.cpp:434] conv2_2 <- conv2_1
I0408 13:25:45.815986  9794 net.cpp:408] conv2_2 -> conv2_2
I0408 13:25:45.818048  9794 net.cpp:150] Setting up conv2_2
I0408 13:25:45.818091  9794 net.cpp:157] Top shape: 1 128 500 750 (48000000)
I0408 13:25:45.818099  9794 net.cpp:165] Memory required for data: 2262000052
I0408 13:25:45.818116  9794 layer_factory.hpp:77] Creating layer relu2_2
I0408 13:25:45.818131  9794 net.cpp:100] Creating Layer relu2_2
I0408 13:25:45.818140  9794 net.cpp:434] relu2_2 <- conv2_2
I0408 13:25:45.818161  9794 net.cpp:395] relu2_2 -> conv2_2 (in-place)
I0408 13:25:45.818177  9794 net.cpp:150] Setting up relu2_2
I0408 13:25:45.818186  9794 net.cpp:157] Top shape: 1 128 500 750 (48000000)
I0408 13:25:45.818192  9794 net.cpp:165] Memory required for data: 2454000052
I0408 13:25:45.818199  9794 layer_factory.hpp:77] Creating layer pool2
I0408 13:25:45.818212  9794 net.cpp:100] Creating Layer pool2
I0408 13:25:45.818235  9794 net.cpp:434] pool2 <- conv2_2
I0408 13:25:45.818246  9794 net.cpp:408] pool2 -> pool2
I0408 13:25:45.818327  9794 net.cpp:150] Setting up pool2
I0408 13:25:45.818342  9794 net.cpp:157] Top shape: 1 128 250 375 (12000000)
I0408 13:25:45.818348  9794 net.cpp:165] Memory required for data: 2502000052
I0408 13:25:45.818354  9794 layer_factory.hpp:77] Creating layer conv3_1
I0408 13:25:45.818372  9794 net.cpp:100] Creating Layer conv3_1
I0408 13:25:45.818382  9794 net.cpp:434] conv3_1 <- pool2
I0408 13:25:45.818392  9794 net.cpp:408] conv3_1 -> conv3_1
I0408 13:25:45.820633  9794 net.cpp:150] Setting up conv3_1
I0408 13:25:45.820673  9794 net.cpp:157] Top shape: 1 256 250 375 (24000000)
I0408 13:25:45.820680  9794 net.cpp:165] Memory required for data: 2598000052
I0408 13:25:45.820703  9794 layer_factory.hpp:77] Creating layer relu3_1
I0408 13:25:45.820720  9794 net.cpp:100] Creating Layer relu3_1
I0408 13:25:45.820729  9794 net.cpp:434] relu3_1 <- conv3_1
I0408 13:25:45.820740  9794 net.cpp:395] relu3_1 -> conv3_1 (in-place)
I0408 13:25:45.820756  9794 net.cpp:150] Setting up relu3_1
I0408 13:25:45.820765  9794 net.cpp:157] Top shape: 1 256 250 375 (24000000)
I0408 13:25:45.820771  9794 net.cpp:165] Memory required for data: 2694000052
I0408 13:25:45.820777  9794 layer_factory.hpp:77] Creating layer conv3_2
I0408 13:25:45.820794  9794 net.cpp:100] Creating Layer conv3_2
I0408 13:25:45.820801  9794 net.cpp:434] conv3_2 <- conv3_1
I0408 13:25:45.820812  9794 net.cpp:408] conv3_2 -> conv3_2
I0408 13:25:45.823143  9794 net.cpp:150] Setting up conv3_2
I0408 13:25:45.823184  9794 net.cpp:157] Top shape: 1 256 250 375 (24000000)
I0408 13:25:45.823191  9794 net.cpp:165] Memory required for data: 2790000052
I0408 13:25:45.823207  9794 layer_factory.hpp:77] Creating layer relu3_2
I0408 13:25:45.823222  9794 net.cpp:100] Creating Layer relu3_2
I0408 13:25:45.823230  9794 net.cpp:434] relu3_2 <- conv3_2
I0408 13:25:45.823246  9794 net.cpp:395] relu3_2 -> conv3_2 (in-place)
I0408 13:25:45.823261  9794 net.cpp:150] Setting up relu3_2
I0408 13:25:45.823269  9794 net.cpp:157] Top shape: 1 256 250 375 (24000000)
I0408 13:25:45.823276  9794 net.cpp:165] Memory required for data: 2886000052
I0408 13:25:45.823282  9794 layer_factory.hpp:77] Creating layer conv3_3
I0408 13:25:45.823302  9794 net.cpp:100] Creating Layer conv3_3
I0408 13:25:45.823324  9794 net.cpp:434] conv3_3 <- conv3_2
I0408 13:25:45.823338  9794 net.cpp:408] conv3_3 -> conv3_3
I0408 13:25:45.828236  9794 net.cpp:150] Setting up conv3_3
I0408 13:25:45.828312  9794 net.cpp:157] Top shape: 1 256 250 375 (24000000)
I0408 13:25:45.828337  9794 net.cpp:165] Memory required for data: 2982000052
I0408 13:25:45.828364  9794 layer_factory.hpp:77] Creating layer relu3_3
I0408 13:25:45.828387  9794 net.cpp:100] Creating Layer relu3_3
I0408 13:25:45.828400  9794 net.cpp:434] relu3_3 <- conv3_3
I0408 13:25:45.828418  9794 net.cpp:395] relu3_3 -> conv3_3 (in-place)
I0408 13:25:45.828440  9794 net.cpp:150] Setting up relu3_3
I0408 13:25:45.828455  9794 net.cpp:157] Top shape: 1 256 250 375 (24000000)
I0408 13:25:45.828465  9794 net.cpp:165] Memory required for data: 3078000052
I0408 13:25:45.828476  9794 layer_factory.hpp:77] Creating layer pool3
I0408 13:25:45.828497  9794 net.cpp:100] Creating Layer pool3
I0408 13:25:45.828508  9794 net.cpp:434] pool3 <- conv3_3
I0408 13:25:45.828524  9794 net.cpp:408] pool3 -> pool3
I0408 13:25:45.828640  9794 net.cpp:150] Setting up pool3
I0408 13:25:45.828666  9794 net.cpp:157] Top shape: 1 256 125 188 (6016000)
I0408 13:25:45.828677  9794 net.cpp:165] Memory required for data: 3102064052
I0408 13:25:45.828688  9794 layer_factory.hpp:77] Creating layer conv4_1
I0408 13:25:45.828714  9794 net.cpp:100] Creating Layer conv4_1
I0408 13:25:45.828727  9794 net.cpp:434] conv4_1 <- pool3
I0408 13:25:45.828742  9794 net.cpp:408] conv4_1 -> conv4_1
I0408 13:25:45.833961  9794 net.cpp:150] Setting up conv4_1
I0408 13:25:45.834013  9794 net.cpp:157] Top shape: 1 512 125 188 (12032000)
I0408 13:25:45.834025  9794 net.cpp:165] Memory required for data: 3150192052
I0408 13:25:45.834049  9794 layer_factory.hpp:77] Creating layer relu4_1
I0408 13:25:45.834081  9794 net.cpp:100] Creating Layer relu4_1
I0408 13:25:45.834094  9794 net.cpp:434] relu4_1 <- conv4_1
I0408 13:25:45.834115  9794 net.cpp:395] relu4_1 -> conv4_1 (in-place)
I0408 13:25:45.834148  9794 net.cpp:150] Setting up relu4_1
I0408 13:25:45.834174  9794 net.cpp:157] Top shape: 1 512 125 188 (12032000)
I0408 13:25:45.834183  9794 net.cpp:165] Memory required for data: 3198320052
I0408 13:25:45.834193  9794 layer_factory.hpp:77] Creating layer conv4_2
I0408 13:25:45.834216  9794 net.cpp:100] Creating Layer conv4_2
I0408 13:25:45.834228  9794 net.cpp:434] conv4_2 <- conv4_1
I0408 13:25:45.834246  9794 net.cpp:408] conv4_2 -> conv4_2
I0408 13:25:45.841858  9794 net.cpp:150] Setting up conv4_2
I0408 13:25:45.841907  9794 net.cpp:157] Top shape: 1 512 125 188 (12032000)
I0408 13:25:45.841913  9794 net.cpp:165] Memory required for data: 3246448052
I0408 13:25:45.841940  9794 layer_factory.hpp:77] Creating layer relu4_2
I0408 13:25:45.841958  9794 net.cpp:100] Creating Layer relu4_2
I0408 13:25:45.841976  9794 net.cpp:434] relu4_2 <- conv4_2
I0408 13:25:45.841987  9794 net.cpp:395] relu4_2 -> conv4_2 (in-place)
I0408 13:25:45.842002  9794 net.cpp:150] Setting up relu4_2
I0408 13:25:45.842010  9794 net.cpp:157] Top shape: 1 512 125 188 (12032000)
I0408 13:25:45.842015  9794 net.cpp:165] Memory required for data: 3294576052
I0408 13:25:45.842021  9794 layer_factory.hpp:77] Creating layer conv4_3
I0408 13:25:45.842039  9794 net.cpp:100] Creating Layer conv4_3
I0408 13:25:45.842056  9794 net.cpp:434] conv4_3 <- conv4_2
I0408 13:25:45.842070  9794 net.cpp:408] conv4_3 -> conv4_3
I0408 13:25:45.848896  9794 net.cpp:150] Setting up conv4_3
I0408 13:25:45.848938  9794 net.cpp:157] Top shape: 1 512 125 188 (12032000)
I0408 13:25:45.848945  9794 net.cpp:165] Memory required for data: 3342704052
I0408 13:25:45.848959  9794 layer_factory.hpp:77] Creating layer relu4_3
I0408 13:25:45.848973  9794 net.cpp:100] Creating Layer relu4_3
I0408 13:25:45.848980  9794 net.cpp:434] relu4_3 <- conv4_3
I0408 13:25:45.848994  9794 net.cpp:395] relu4_3 -> conv4_3 (in-place)
I0408 13:25:45.849007  9794 net.cpp:150] Setting up relu4_3
I0408 13:25:45.849015  9794 net.cpp:157] Top shape: 1 512 125 188 (12032000)
I0408 13:25:45.849020  9794 net.cpp:165] Memory required for data: 3390832052
I0408 13:25:45.849025  9794 layer_factory.hpp:77] Creating layer pool4
I0408 13:25:45.849035  9794 net.cpp:100] Creating Layer pool4
I0408 13:25:45.849040  9794 net.cpp:434] pool4 <- conv4_3
I0408 13:25:45.849050  9794 net.cpp:408] pool4 -> pool4
I0408 13:25:45.849107  9794 net.cpp:150] Setting up pool4
I0408 13:25:45.849117  9794 net.cpp:157] Top shape: 1 512 63 94 (3032064)
I0408 13:25:45.849123  9794 net.cpp:165] Memory required for data: 3402960308
I0408 13:25:45.849128  9794 layer_factory.hpp:77] Creating layer conv5_1
I0408 13:25:45.849143  9794 net.cpp:100] Creating Layer conv5_1
I0408 13:25:45.849148  9794 net.cpp:434] conv5_1 <- pool4
I0408 13:25:45.849161  9794 net.cpp:408] conv5_1 -> conv5_1
I0408 13:25:45.856381  9794 net.cpp:150] Setting up conv5_1
I0408 13:25:45.856420  9794 net.cpp:157] Top shape: 1 512 63 94 (3032064)
I0408 13:25:45.856426  9794 net.cpp:165] Memory required for data: 3415088564
I0408 13:25:45.856441  9794 layer_factory.hpp:77] Creating layer relu5_1
I0408 13:25:45.856456  9794 net.cpp:100] Creating Layer relu5_1
I0408 13:25:45.856462  9794 net.cpp:434] relu5_1 <- conv5_1
I0408 13:25:45.856477  9794 net.cpp:395] relu5_1 -> conv5_1 (in-place)
I0408 13:25:45.856492  9794 net.cpp:150] Setting up relu5_1
I0408 13:25:45.856503  9794 net.cpp:157] Top shape: 1 512 63 94 (3032064)
I0408 13:25:45.856508  9794 net.cpp:165] Memory required for data: 3427216820
I0408 13:25:45.856513  9794 layer_factory.hpp:77] Creating layer conv5_2
I0408 13:25:45.856525  9794 net.cpp:100] Creating Layer conv5_2
I0408 13:25:45.856534  9794 net.cpp:434] conv5_2 <- conv5_1
I0408 13:25:45.856542  9794 net.cpp:408] conv5_2 -> conv5_2
I0408 13:25:45.862943  9794 net.cpp:150] Setting up conv5_2
I0408 13:25:45.862992  9794 net.cpp:157] Top shape: 1 512 63 94 (3032064)
I0408 13:25:45.862998  9794 net.cpp:165] Memory required for data: 3439345076
I0408 13:25:45.863013  9794 layer_factory.hpp:77] Creating layer relu5_2
I0408 13:25:45.863036  9794 net.cpp:100] Creating Layer relu5_2
I0408 13:25:45.863045  9794 net.cpp:434] relu5_2 <- conv5_2
I0408 13:25:45.863055  9794 net.cpp:395] relu5_2 -> conv5_2 (in-place)
I0408 13:25:45.863080  9794 net.cpp:150] Setting up relu5_2
I0408 13:25:45.863086  9794 net.cpp:157] Top shape: 1 512 63 94 (3032064)
I0408 13:25:45.863091  9794 net.cpp:165] Memory required for data: 3451473332
I0408 13:25:45.863096  9794 layer_factory.hpp:77] Creating layer conv5_3
I0408 13:25:45.863111  9794 net.cpp:100] Creating Layer conv5_3
I0408 13:25:45.863126  9794 net.cpp:434] conv5_3 <- conv5_2
I0408 13:25:45.863137  9794 net.cpp:408] conv5_3 -> conv5_3
I0408 13:25:45.869940  9794 net.cpp:150] Setting up conv5_3
I0408 13:25:45.869987  9794 net.cpp:157] Top shape: 1 512 63 94 (3032064)
I0408 13:25:45.869993  9794 net.cpp:165] Memory required for data: 3463601588
I0408 13:25:45.870018  9794 layer_factory.hpp:77] Creating layer relu5_3
I0408 13:25:45.870033  9794 net.cpp:100] Creating Layer relu5_3
I0408 13:25:45.870041  9794 net.cpp:434] relu5_3 <- conv5_3
I0408 13:25:45.870051  9794 net.cpp:395] relu5_3 -> conv5_3 (in-place)
I0408 13:25:45.870064  9794 net.cpp:150] Setting up relu5_3
I0408 13:25:45.870071  9794 net.cpp:157] Top shape: 1 512 63 94 (3032064)
I0408 13:25:45.870076  9794 net.cpp:165] Memory required for data: 3475729844
I0408 13:25:45.870081  9794 layer_factory.hpp:77] Creating layer rpn_big_conv1
I0408 13:25:45.870105  9794 net.cpp:100] Creating Layer rpn_big_conv1
I0408 13:25:45.870112  9794 net.cpp:434] rpn_big_conv1 <- conv5_3
I0408 13:25:45.870121  9794 net.cpp:408] rpn_big_conv1 -> rpn_big_conv1
I0408 13:25:45.911557  9794 net.cpp:150] Setting up rpn_big_conv1
I0408 13:25:45.911595  9794 net.cpp:157] Top shape: 1 512 63 94 (3032064)
I0408 13:25:45.911600  9794 net.cpp:165] Memory required for data: 3487858100
I0408 13:25:45.911613  9794 layer_factory.hpp:77] Creating layer rpn_big_conv1_relu
I0408 13:25:45.911626  9794 net.cpp:100] Creating Layer rpn_big_conv1_relu
I0408 13:25:45.911633  9794 net.cpp:434] rpn_big_conv1_relu <- rpn_big_conv1
I0408 13:25:45.911645  9794 net.cpp:395] rpn_big_conv1_relu -> rpn_big_conv1 (in-place)
I0408 13:25:45.911659  9794 net.cpp:150] Setting up rpn_big_conv1_relu
I0408 13:25:45.911664  9794 net.cpp:157] Top shape: 1 512 63 94 (3032064)
I0408 13:25:45.911669  9794 net.cpp:165] Memory required for data: 3499986356
I0408 13:25:45.911674  9794 layer_factory.hpp:77] Creating layer rpn_big_conv2
I0408 13:25:45.911687  9794 net.cpp:100] Creating Layer rpn_big_conv2
I0408 13:25:45.911702  9794 net.cpp:434] rpn_big_conv2 <- rpn_big_conv1
I0408 13:25:45.911710  9794 net.cpp:408] rpn_big_conv2 -> rpn_big_conv2
I0408 13:25:45.946045  9794 net.cpp:150] Setting up rpn_big_conv2
I0408 13:25:45.946082  9794 net.cpp:157] Top shape: 1 512 63 94 (3032064)
I0408 13:25:45.946087  9794 net.cpp:165] Memory required for data: 3512114612
I0408 13:25:45.946099  9794 layer_factory.hpp:77] Creating layer rpn_big_conv2_relu
I0408 13:25:45.946111  9794 net.cpp:100] Creating Layer rpn_big_conv2_relu
I0408 13:25:45.946117  9794 net.cpp:434] rpn_big_conv2_relu <- rpn_big_conv2
I0408 13:25:45.946125  9794 net.cpp:395] rpn_big_conv2_relu -> rpn_big_conv2 (in-place)
I0408 13:25:45.946137  9794 net.cpp:150] Setting up rpn_big_conv2_relu
I0408 13:25:45.946143  9794 net.cpp:157] Top shape: 1 512 63 94 (3032064)
I0408 13:25:45.946147  9794 net.cpp:165] Memory required for data: 3524242868
I0408 13:25:45.946151  9794 layer_factory.hpp:77] Creating layer rpn_big_conv2_drop
I0408 13:25:45.946161  9794 net.cpp:100] Creating Layer rpn_big_conv2_drop
I0408 13:25:45.946175  9794 net.cpp:434] rpn_big_conv2_drop <- rpn_big_conv2
I0408 13:25:45.946182  9794 net.cpp:395] rpn_big_conv2_drop -> rpn_big_conv2 (in-place)
I0408 13:25:45.946210  9794 net.cpp:150] Setting up rpn_big_conv2_drop
I0408 13:25:45.946219  9794 net.cpp:157] Top shape: 1 512 63 94 (3032064)
I0408 13:25:45.946223  9794 net.cpp:165] Memory required for data: 3536371124
I0408 13:25:45.946228  9794 layer_factory.hpp:77] Creating layer rpn_big_conv2_rpn_big_conv2_drop_0_split
I0408 13:25:45.946234  9794 net.cpp:100] Creating Layer rpn_big_conv2_rpn_big_conv2_drop_0_split
I0408 13:25:45.946243  9794 net.cpp:434] rpn_big_conv2_rpn_big_conv2_drop_0_split <- rpn_big_conv2
I0408 13:25:45.946250  9794 net.cpp:408] rpn_big_conv2_rpn_big_conv2_drop_0_split -> rpn_big_conv2_rpn_big_conv2_drop_0_split_0
I0408 13:25:45.946261  9794 net.cpp:408] rpn_big_conv2_rpn_big_conv2_drop_0_split -> rpn_big_conv2_rpn_big_conv2_drop_0_split_1
I0408 13:25:45.946305  9794 net.cpp:150] Setting up rpn_big_conv2_rpn_big_conv2_drop_0_split
I0408 13:25:45.946315  9794 net.cpp:157] Top shape: 1 512 63 94 (3032064)
I0408 13:25:45.946319  9794 net.cpp:157] Top shape: 1 512 63 94 (3032064)
I0408 13:25:45.946323  9794 net.cpp:165] Memory required for data: 3560627636
I0408 13:25:45.946327  9794 layer_factory.hpp:77] Creating layer rpn_big_output_cls
I0408 13:25:45.946341  9794 net.cpp:100] Creating Layer rpn_big_output_cls
I0408 13:25:45.946346  9794 net.cpp:434] rpn_big_output_cls <- rpn_big_conv2_rpn_big_conv2_drop_0_split_0
I0408 13:25:45.946354  9794 net.cpp:408] rpn_big_output_cls -> rpn_big_output_cls
I0408 13:25:45.967543  9794 net.cpp:150] Setting up rpn_big_output_cls
I0408 13:25:45.967576  9794 net.cpp:157] Top shape: 1 384 63 94 (2274048)
I0408 13:25:45.967581  9794 net.cpp:165] Memory required for data: 3569723828
I0408 13:25:45.967591  9794 layer_factory.hpp:77] Creating layer rpn_big_output_cls_relu
I0408 13:25:45.967602  9794 net.cpp:100] Creating Layer rpn_big_output_cls_relu
I0408 13:25:45.967608  9794 net.cpp:434] rpn_big_output_cls_relu <- rpn_big_output_cls
I0408 13:25:45.967628  9794 net.cpp:395] rpn_big_output_cls_relu -> rpn_big_output_cls (in-place)
I0408 13:25:45.967639  9794 net.cpp:150] Setting up rpn_big_output_cls_relu
I0408 13:25:45.967643  9794 net.cpp:157] Top shape: 1 384 63 94 (2274048)
I0408 13:25:45.967646  9794 net.cpp:165] Memory required for data: 3578820020
I0408 13:25:45.967650  9794 layer_factory.hpp:77] Creating layer rpn_big_cls_score
I0408 13:25:45.967661  9794 net.cpp:100] Creating Layer rpn_big_cls_score
I0408 13:25:45.967674  9794 net.cpp:434] rpn_big_cls_score <- rpn_big_output_cls
I0408 13:25:45.967680  9794 net.cpp:408] rpn_big_cls_score -> rpn_big_cls_score
I0408 13:25:45.972267  9794 net.cpp:150] Setting up rpn_big_cls_score
I0408 13:25:45.972299  9794 net.cpp:157] Top shape: 1 52 61 92 (291824)
I0408 13:25:45.972303  9794 net.cpp:165] Memory required for data: 3579987316
I0408 13:25:45.972319  9794 layer_factory.hpp:77] Creating layer rpn_big_cls_score_rpn_big_cls_score_0_split
I0408 13:25:45.972328  9794 net.cpp:100] Creating Layer rpn_big_cls_score_rpn_big_cls_score_0_split
I0408 13:25:45.972332  9794 net.cpp:434] rpn_big_cls_score_rpn_big_cls_score_0_split <- rpn_big_cls_score
I0408 13:25:45.972340  9794 net.cpp:408] rpn_big_cls_score_rpn_big_cls_score_0_split -> rpn_big_cls_score_rpn_big_cls_score_0_split_0
I0408 13:25:45.972350  9794 net.cpp:408] rpn_big_cls_score_rpn_big_cls_score_0_split -> rpn_big_cls_score_rpn_big_cls_score_0_split_1
I0408 13:25:45.972384  9794 net.cpp:150] Setting up rpn_big_cls_score_rpn_big_cls_score_0_split
I0408 13:25:45.972393  9794 net.cpp:157] Top shape: 1 52 61 92 (291824)
I0408 13:25:45.972398  9794 net.cpp:157] Top shape: 1 52 61 92 (291824)
I0408 13:25:45.972400  9794 net.cpp:165] Memory required for data: 3582321908
I0408 13:25:45.972404  9794 layer_factory.hpp:77] Creating layer rpn_big_cls_score_reshape
I0408 13:25:45.972412  9794 net.cpp:100] Creating Layer rpn_big_cls_score_reshape
I0408 13:25:45.972416  9794 net.cpp:434] rpn_big_cls_score_reshape <- rpn_big_cls_score_rpn_big_cls_score_0_split_0
I0408 13:25:45.972424  9794 net.cpp:408] rpn_big_cls_score_reshape -> rpn_big_cls_score_reshape
I0408 13:25:45.972445  9794 net.cpp:150] Setting up rpn_big_cls_score_reshape
I0408 13:25:45.972450  9794 net.cpp:157] Top shape: 1 2 1586 92 (291824)
I0408 13:25:45.972453  9794 net.cpp:165] Memory required for data: 3583489204
I0408 13:25:45.972456  9794 layer_factory.hpp:77] Creating layer rpn_big_cls_score_reshape_rpn_big_cls_score_reshape_0_split
I0408 13:25:45.972462  9794 net.cpp:100] Creating Layer rpn_big_cls_score_reshape_rpn_big_cls_score_reshape_0_split
I0408 13:25:45.972466  9794 net.cpp:434] rpn_big_cls_score_reshape_rpn_big_cls_score_reshape_0_split <- rpn_big_cls_score_reshape
I0408 13:25:45.972472  9794 net.cpp:408] rpn_big_cls_score_reshape_rpn_big_cls_score_reshape_0_split -> rpn_big_cls_score_reshape_rpn_big_cls_score_reshape_0_split_0
I0408 13:25:45.972484  9794 net.cpp:408] rpn_big_cls_score_reshape_rpn_big_cls_score_reshape_0_split -> rpn_big_cls_score_reshape_rpn_big_cls_score_reshape_0_split_1
I0408 13:25:45.972512  9794 net.cpp:150] Setting up rpn_big_cls_score_reshape_rpn_big_cls_score_reshape_0_split
I0408 13:25:45.972519  9794 net.cpp:157] Top shape: 1 2 1586 92 (291824)
I0408 13:25:45.972523  9794 net.cpp:157] Top shape: 1 2 1586 92 (291824)
I0408 13:25:45.972527  9794 net.cpp:165] Memory required for data: 3585823796
I0408 13:25:45.972529  9794 layer_factory.hpp:77] Creating layer rpn_big_cls_prob
I0408 13:25:45.972537  9794 net.cpp:100] Creating Layer rpn_big_cls_prob
I0408 13:25:45.972540  9794 net.cpp:434] rpn_big_cls_prob <- rpn_big_cls_score_reshape_rpn_big_cls_score_reshape_0_split_0
I0408 13:25:45.972546  9794 net.cpp:408] rpn_big_cls_prob -> rpn_big_cls_prob
I0408 13:25:45.972595  9794 net.cpp:150] Setting up rpn_big_cls_prob
I0408 13:25:45.972602  9794 net.cpp:157] Top shape: 1 2 1586 92 (291824)
I0408 13:25:45.972605  9794 net.cpp:165] Memory required for data: 3586991092
I0408 13:25:45.972609  9794 layer_factory.hpp:77] Creating layer rpn_big_cls_prob_reshape
I0408 13:25:45.972615  9794 net.cpp:100] Creating Layer rpn_big_cls_prob_reshape
I0408 13:25:45.972617  9794 net.cpp:434] rpn_big_cls_prob_reshape <- rpn_big_cls_prob
I0408 13:25:45.972622  9794 net.cpp:408] rpn_big_cls_prob_reshape -> rpn_big_cls_prob_reshape
I0408 13:25:45.972643  9794 net.cpp:150] Setting up rpn_big_cls_prob_reshape
I0408 13:25:45.972650  9794 net.cpp:157] Top shape: 1 52 61 92 (291824)
I0408 13:25:45.972652  9794 net.cpp:165] Memory required for data: 3588158388
I0408 13:25:45.972656  9794 layer_factory.hpp:77] Creating layer rpn_big_anchor_target
I0408 13:25:46.005435  9794 net.cpp:100] Creating Layer rpn_big_anchor_target
I0408 13:25:46.005470  9794 net.cpp:434] rpn_big_anchor_target <- rpn_big_cls_score_rpn_big_cls_score_0_split_1
I0408 13:25:46.005482  9794 net.cpp:434] rpn_big_anchor_target <- input_gt_boxes
…
