…
I0413 16:08:54.675581  7950 solver.cpp:48] Initializing solver from parameters: 
base_lr: 0.001
display: 20
lr_policy: "multistep"
gamma: 0.1
momentum: 0.9
weight_decay: 0.0005
snapshot: 0
snapshot_prefix: "faces_example"
net_param {
  name: "GeneratedModel_13_04_2017_16_08"
  layer {
    name: "input"
    type: "Python"
    top: "input_data"
    top: "input_im_info"
    top: "input_gt_boxes"
    top: "input_ignored_boxes"
    python_param {
      module: "layers.roi_data_layer"
      layer: "RoIDataLayer"
      param_str: "{\"num_classes\": 2}"
    }
  }
  layer {
    name: "conv1_1"
    type: "Convolution"
    bottom: "input_data"
    top: "conv1_1"
    param {
      lr_mult: 0
      decay_mult: 0
    }
    param {
      lr_mult: 0
      decay_mult: 0
    }
    convolution_param {
      num_output: 64
      pad: 1
      kernel_size: 3
    }
  }
  layer {
    name: "relu1_1"
    type: "ReLU"
    bottom: "conv1_1"
    top: "conv1_1"
  }
  layer {
    name: "conv1_2"
    type: "Convolution"
    bottom: "conv1_1"
    top: "conv1_2"
    param {
      lr_mult: 0
      decay_mult: 0
    }
    param {
      lr_mult: 0
      decay_mult: 0
    }
    convolution_param {
      num_output: 64
      pad: 1
      kernel_size: 3
    }
  }
  layer {
    name: "relu1_2"
    type: "ReLU"
    bottom: "conv1_2"
    top: "conv1_2"
  }
  layer {
    name: "pool1"
    type: "Pooling"
    bottom: "conv1_2"
    top: "pool1"
    pooling_param {
      pool: MAX
      kernel_size: 2
      stride: 2
    }
  }
  layer {
    name: "conv2_1"
    type: "Convolution"
    bottom: "pool1"
    top: "conv2_1"
    param {
      lr_mult: 0
      decay_mult: 0
    }
    param {
      lr_mult: 0
      decay_mult: 0
    }
    convolution_param {
      num_output: 128
      pad: 1
      kernel_size: 3
    }
  }
  layer {
    name: "relu2_1"
    type: "ReLU"
    bottom: "conv2_1"
    top: "conv2_1"
  }
  layer {
    name: "conv2_2"
    type: "Convolution"
    bottom: "conv2_1"
    top: "conv2_2"
    param {
      lr_mult: 0
      decay_mult: 0
    }
    param {
      lr_mult: 0
      decay_mult: 0
    }
    convolution_param {
      num_output: 128
      pad: 1
      kernel_size: 3
    }
  }
  layer {
    name: "relu2_2"
    type: "ReLU"
    bottom: "conv2_2"
    top: "conv2_2"
  }
  layer {
    name: "pool2"
    type: "Pooling"
    bottom: "conv2_2"
    top: "pool2"
    pooling_param {
      pool: MAX
      kernel_size: 2
      stride: 2
    }
  }
  layer {
    name: "conv3_1"
    type: "Convolution"
    bottom: "pool2"
    top: "conv3_1"
    param {
      lr_mult: 1
    }
    param {
      lr_mult: 2
    }
    convolution_param {
      num_output: 256
      pad: 1
      kernel_size: 3
    }
  }
  layer {
    name: "relu3_1"
    type: "ReLU"
    bottom: "conv3_1"
    top: "conv3_1"
  }
  layer {
    name: "conv3_2"
    type: "Convolution"
    bottom: "conv3_1"
    top: "conv3_2"
    param {
      lr_mult: 1
    }
    param {
      lr_mult: 2
    }
    convolution_param {
      num_output: 256
      pad: 1
      kernel_size: 3
    }
  }
  layer {
    name: "relu3_2"
    type: "ReLU"
    bottom: "conv3_2"
    top: "conv3_2"
  }
  layer {
    name: "conv3_3"
    type: "Convolution"
    bottom: "conv3_2"
    top: "conv3_3"
    param {
      lr_mult: 1
    }
    param {
      lr_mult: 2
    }
    convolution_param {
      num_output: 256
      pad: 1
      kernel_size: 3
    }
  }
  layer {
    name: "relu3_3"
    type: "ReLU"
    bottom: "conv3_3"
    top: "conv3_3"
  }
  layer {
    name: "pool3"
    type: "Pooling"
    bottom: "conv3_3"
    top: "pool3"
    pooling_param {
      pool: MAX
      kernel_size: 2
      stride: 2
    }
  }
  layer {
    name: "conv4_1"
    type: "Convolution"
    bottom: "pool3"
    top: "conv4_1"
    param {
      lr_mult: 1
    }
    param {
      lr_mult: 2
    }
    convolution_param {
      num_output: 512
      pad: 1
      kernel_size: 3
    }
  }
  layer {
    name: "relu4_1"
    type: "ReLU"
    bottom: "conv4_1"
    top: "conv4_1"
  }
  layer {
    name: "conv4_2"
    type: "Convolution"
    bottom: "conv4_1"
    top: "conv4_2"
    param {
      lr_mult: 1
    }
    param {
      lr_mult: 2
    }
    convolution_param {
      num_output: 512
      pad: 1
      kernel_size: 3
    }
  }
  layer {
    name: "relu4_2"
    type: "ReLU"
    bottom: "conv4_2"
    top: "conv4_2"
  }
  layer {
    name: "conv4_3"
    type: "Convolution"
    bottom: "conv4_2"
    top: "conv4_3"
    param {
      lr_mult: 1
    }
    param {
      lr_mult: 2
    }
    convolution_param {
      num_output: 512
      pad: 1
      kernel_size: 3
    }
  }
  layer {
    name: "relu4_3"
    type: "ReLU"
    bottom: "conv4_3"
    top: "conv4_3"
  }
  layer {
    name: "pool4"
    type: "Pooling"
    bottom: "conv4_3"
    top: "pool4"
    pooling_param {
      pool: MAX
      kernel_size: 2
      stride: 2
    }
  }
  layer {
    name: "conv5_1"
    type: "Convolution"
    bottom: "pool4"
    top: "conv5_1"
    param {
      lr_mult: 1
    }
    param {
      lr_mult: 2
    }
    convolution_param {
      num_output: 512
      pad: 1
      kernel_size: 3
    }
  }
  layer {
    name: "relu5_1"
    type: "ReLU"
    bottom: "conv5_1"
    top: "conv5_1"
  }
  layer {
    name: "conv5_2"
    type: "Convolution"
    bottom: "conv5_1"
    top: "conv5_2"
    param {
      lr_mult: 1
    }
    param {
      lr_mult: 2
    }
    convolution_param {
      num_output: 512
      pad: 1
      kernel_size: 3
    }
  }
  layer {
    name: "relu5_2"
    type: "ReLU"
    bottom: "conv5_2"
    top: "conv5_2"
  }
  layer {
    name: "conv5_3"
    type: "Convolution"
    bottom: "conv5_2"
    top: "conv5_3"
    param {
      lr_mult: 1
    }
    param {
      lr_mult: 2
    }
    convolution_param {
      num_output: 512
      pad: 1
      kernel_size: 3
    }
  }
  layer {
    name: "relu5_3"
    type: "ReLU"
    bottom: "conv5_3"
    top: "conv5_3"
  }
  layer {
    name: "rpn_big_conv1"
    type: "Convolution"
    bottom: "conv5_3"
    top: "rpn_big_conv1"
    param {
      lr_mult: 1
    }
    param {
      lr_mult: 2
    }
    convolution_param {
      num_output: 512
      pad: 1
      kernel_size: 3
      stride: 1
      weight_filler {
        type: "gaussian"
        mean: 0
        std: 0.01
      }
      bias_filler {
        type: "constant"
      }
    }
  }
  layer {
    name: "rpn_big_conv1_relu"
    type: "ReLU"
    bottom: "rpn_big_conv1"
    top: "rpn_big_conv1"
    relu_param {
      negative_slope: 0
    }
  }
  layer {
    name: "rpn_big_conv2"
    type: "Convolution"
    bottom: "rpn_big_conv1"
    top: "rpn_big_conv2"
    param {
      lr_mult: 1
    }
    param {
      lr_mult: 2
    }
    convolution_param {
      num_output: 512
      pad: 1
      kernel_size: 3
      stride: 1
      weight_filler {
        type: "gaussian"
        mean: 0
        std: 0.01
      }
      bias_filler {
        type: "constant"
      }
    }
  }
  layer {
    name: "rpn_big_conv2_relu"
    type: "ReLU"
    bottom: "rpn_big_conv2"
    top: "rpn_big_conv2"
    relu_param {
      negative_slope: 0
    }
  }
  layer {
    name: "rpn_big_conv2_drop"
    type: "Dropout"
    bottom: "rpn_big_conv2"
    top: "rpn_big_conv2"
    dropout_param {
      dropout_ratio: 0.3
    }
  }
  layer {
    name: "rpn_big_output_cls"
    type: "Convolution"
    bottom: "rpn_big_conv2"
    top: "rpn_big_output_cls"
    param {
      lr_mult: 1
    }
    param {
      lr_mult: 2
    }
    convolution_param {
      num_output: 384
      pad: 1
      kernel_size: 3
      stride: 1
      weight_filler {
        type: "gaussian"
        mean: 0
        std: 0.01
      }
      bias_filler {
        type: "constant"
      }
    }
  }
  layer {
    name: "rpn_big_output_cls_relu"
    type: "ReLU"
    bottom: "rpn_big_output_cls"
    top: "rpn_big_output_cls"
    relu_param {
      negative_slope: 0
    }
  }
  layer {
    name: "rpn_big_cls_score"
    type: "Convolution"
    bottom: "rpn_big_output_cls"
    top: "rpn_big_cls_score"
    param {
      lr_mult: 1
    }
    param {
      lr_mult: 2
    }
    convolution_param {
      num_output: 52
      pad: 0
      kernel_size: 3
      stride: 1
      weight_filler {
        type: "gaussian"
        mean: 0
        std: 0.01
      }
      bias_filler {
        type: "constant"
      }
    }
  }
  layer {
    name: "rpn_big_cls_score_reshape"
    type: "Reshape"
    bottom: "rpn_big_cls_score"
    top: "rpn_big_cls_score_reshape"
    reshape_param {
      shape {
        dim: 0
        dim: 2
        dim: -1
        dim: 0
      }
    }
  }
  layer {
    name: "rpn_big_cls_prob"
    type: "Softmax"
    bottom: "rpn_big_cls_score_reshape"
    top: "rpn_big_cls_prob"
  }
  layer {
    name: "rpn_big_cls_prob_reshape"
    type: "Reshape"
    bottom: "rpn_big_cls_prob"
    top: "rpn_big_cls_prob_reshape"
    reshape_param {
      shape {
        dim: 0
        dim: 52
        dim: -1
        dim: 0
      }
    }
  }
  layer {
    name: "rpn_big_anchor_target"
    type: "Python"
    bottom: "rpn_big_cls_score"
    bottom: "input_gt_boxes"
    bottom: "input_ignored_boxes"
    bottom: "input_im_info"
    bottom: "input_data"
    bottom: "rpn_big_cls_prob_reshape"
    top: "rpn_big_anchor_target_labels"
    top: "rpn_big_anchor_target_bbox_targets"
    top: "rpn_big_anchor_target_inside_weights"
    top: "rpn_big_anchor_target_outside_weights"
    python_param {
      module: "rpn.anchor_target_layer"
      layer: "AnchorTargetLayer"
      param_str: "{\"fg_fraction\": 0.5, \"feat_stride\": 16, \"name\": \"rpn_big\", \"square_targets\": true, \"negative_overlap\": 0.4, \"anchor_shift_num_xy\": [[2, 2], [2, 2], [2, 2], [2, 2], [1, 1], [1, 1], [1, 1], [1, 1], [1, 1], [1, 1], [1, 1], [1, 1], [1, 1], [1, 1]], \"tn_fraction\": 0.2, \"anchor_scales\": [2.5, 3.025, 3.66025, 4.4289024999999995, 5.358972025, 6.484356150249999, 7.846070941802498, 9.493745839581022, 11.487432465893036, 13.899793283730574, 16.818749873313998, 20.350687346709933, 24.62433168951902, 29.795441344318014], \"batchsize\": 256, \"anchor_ratios\": [1.0], \"num_classes\": 1, \"positive_overlap\": 0.6}"
    }
  }
  layer {
    name: "rpn_big_loss_cls"
    type: "SoftmaxWithLoss"
    bottom: "rpn_big_cls_score_reshape"
    bottom: "rpn_big_anchor_target_labels"
    top: "rpn_big_loss_cls"
    loss_weight: 1
    propagate_down: true
    propagate_down: false
    loss_param {
      ignore_label: -1
      normalization: VALID
    }
  }
  layer {
    name: "rpn_big_output_box"
    type: "Convolution"
    bottom: "rpn_big_conv2"
    top: "rpn_big_output_box"
    param {
      lr_mult: 1
    }
    param {
      lr_mult: 2
    }
    convolution_param {
      num_output: 384
      pad: 1
      kernel_size: 3
      stride: 1
      weight_filler {
        type: "gaussian"
        mean: 0
        std: 0.01
      }
      bias_filler {
        type: "constant"
      }
    }
  }
  layer {
    name: "rpn_big_output_box_relu"
    type: "ReLU"
    bottom: "rpn_big_output_box"
    top: "rpn_big_output_box"
    relu_param {
      negative_slope: 0
    }
  }
  layer {
    name: "rpn_big_bbox_pred"
    type: "Convolution"
    bottom: "rpn_big_output_box"
    top: "rpn_big_bbox_pred"
    param {
      lr_mult: 1
    }
    param {
      lr_mult: 2
    }
    convolution_param {
      num_output: 104
      pad: 0
      kernel_size: 3
      stride: 1
      weight_filler {
        type: "gaussian"
        mean: 0
        std: 0.01
      }
      bias_filler {
        type: "constant"
      }
    }
  }
  layer {
    name: "rpn_big_loss_bbox"
    type: "Python"
    bottom: "rpn_big_bbox_pred"
    bottom: "rpn_big_anchor_target_bbox_targets"
    bottom: "rpn_big_anchor_target_inside_weights"
    bottom: "rpn_big_anchor_target_outside_weights"
    top: "rpn_big_loss_bbox"
    loss_weight: 1
    python_param {
      module: "layers.smooth_l1_loss"
      layer: "SmoothL1LossLayer"
      param_str: "{\"sigma\": 3}"
    }
  }
  layer {
    name: "proposal"
    type: "Python"
    bottom: "rpn_big_cls_prob_reshape"
    bottom: "rpn_big_bbox_pred"
    bottom: "input_im_info"
    top: "rpn_rois"
    python_param {
      module: "rpn.proposal_layer"
      layer: "ProposalLayer"
      param_str: "\'feat_stride\': 16; \'scales\': !!python/tuple [4, 8, 16, 32]"
    }
  }
}
average_loss: 100
stepvalue: 70000
stepvalue: 120000
iter_size: 2
I0413 16:08:54.675673  7950 solver.cpp:86] Creating training net specified in net_param.
I0413 16:08:54.676038  7950 net.cpp:58] Initializing net from parameters: 
name: "GeneratedModel_13_04_2017_16_08"
state {
  phase: TRAIN
}
layer {
  name: "input"
  type: "Python"
  top: "input_data"
  top: "input_im_info"
  top: "input_gt_boxes"
  top: "input_ignored_boxes"
  python_param {
    module: "layers.roi_data_layer"
    layer: "RoIDataLayer"
    param_str: "{\"num_classes\": 2}"
  }
}
layer {
  name: "conv1_1"
  type: "Convolution"
  bottom: "input_data"
  top: "conv1_1"
  param {
    lr_mult: 0
    decay_mult: 0
  }
  param {
    lr_mult: 0
    decay_mult: 0
  }
  convolution_param {
    num_output: 64
    pad: 1
    kernel_size: 3
  }
}
layer {
  name: "relu1_1"
  type: "ReLU"
  bottom: "conv1_1"
  top: "conv1_1"
}
layer {
  name: "conv1_2"
  type: "Convolution"
  bottom: "conv1_1"
  top: "conv1_2"
  param {
    lr_mult: 0
    decay_mult: 0
  }
  param {
    lr_mult: 0
    decay_mult: 0
  }
  convolution_param {
    num_output: 64
    pad: 1
    kernel_size: 3
  }
}
layer {
  name: "relu1_2"
  type: "ReLU"
  bottom: "conv1_2"
  top: "conv1_2"
}
layer {
  name: "pool1"
  type: "Pooling"
  bottom: "conv1_2"
  top: "pool1"
  pooling_param {
    pool: MAX
    kernel_size: 2
    stride: 2
  }
}
layer {
  name: "conv2_1"
  type: "Convolution"
  bottom: "pool1"
  top: "conv2_1"
  param {
    lr_mult: 0
    decay_mult: 0
  }
  param {
    lr_mult: 0
    decay_mult: 0
  }
  convolution_param {
    num_output: 128
    pad: 1
    kernel_size: 3
  }
}
layer {
  name: "relu2_1"
  type: "ReLU"
  bottom: "conv2_1"
  top: "conv2_1"
}
layer {
  name: "conv2_2"
  type: "Convolution"
  bottom: "conv2_1"
  top: "conv2_2"
  param {
    lr_mult: 0
    decay_mult: 0
  }
  param {
    lr_mult: 0
    decay_mult: 0
  }
  convolution_param {
    num_output: 128
    pad: 1
    kernel_size: 3
  }
}
layer {
  name: "relu2_2"
  type: "ReLU"
  bottom: "conv2_2"
  top: "conv2_2"
}
layer {
  name: "pool2"
  type: "Pooling"
  bottom: "conv2_2"
  top: "pool2"
  pooling_param {
    pool: MAX
    kernel_size: 2
    stride: 2
  }
}
layer {
  name: "conv3_1"
  type: "Convolution"
  bottom: "pool2"
  top: "conv3_1"
  param {
    lr_mult: 1
  }
  param {
    lr_mult: 2
  }
  convolution_param {
    num_output: 256
    pad: 1
    kernel_size: 3
  }
}
layer {
  name: "relu3_1"
  type: "ReLU"
  bottom: "conv3_1"
  top: "conv3_1"
}
layer {
  name: "conv3_2"
  type: "Convolution"
  bottom: "conv3_1"
  top: "conv3_2"
  param {
    lr_mult: 1
  }
  param {
    lr_mult: 2
  }
  convolution_param {
    num_output: 256
    pad: 1
    kernel_size: 3
  }
}
layer {
  name: "relu3_2"
  type: "ReLU"
  bottom: "conv3_2"
  top: "conv3_2"
}
layer {
  name: "conv3_3"
  type: "Convolution"
  bottom: "conv3_2"
  top: "conv3_3"
  param {
    lr_mult: 1
  }
  param {
    lr_mult: 2
  }
  convolution_param {
    num_output: 256
    pad: 1
    kernel_size: 3
  }
}
layer {
  name: "relu3_3"
  type: "ReLU"
  bottom: "conv3_3"
  top: "conv3_3"
}
layer {
  name: "pool3"
  type: "Pooling"
  bottom: "conv3_3"
  top: "pool3"
  pooling_param {
    pool: MAX
    kernel_size: 2
    stride: 2
  }
}
layer {
  name: "conv4_1"
  type: "Convolution"
  bottom: "pool3"
  top: "conv4_1"
  param {
    lr_mult: 1
  }
  param {
    lr_mult: 2
  }
  convolution_param {
    num_output: 512
    pad: 1
    kernel_size: 3
  }
}
layer {
  name: "relu4_1"
  type: "ReLU"
  bottom: "conv4_1"
  top: "conv4_1"
}
layer {
  name: "conv4_2"
  type: "Convolution"
  bottom: "conv4_1"
  top: "conv4_2"
  param {
    lr_mult: 1
  }
  param {
    lr_mult: 2
  }
  convolution_param {
    num_output: 512
    pad: 1
    kernel_size: 3
  }
}
layer {
  name: "relu4_2"
  type: "ReLU"
  bottom: "conv4_2"
  top: "conv4_2"
}
layer {
  name: "conv4_3"
  type: "Convolution"
  bottom: "conv4_2"
  top: "conv4_3"
  param {
    lr_mult: 1
  }
  param {
    lr_mult: 2
  }
  convolution_param {
    num_output: 512
    pad: 1
    kernel_size: 3
  }
}
layer {
  name: "relu4_3"
  type: "ReLU"
  bottom: "conv4_3"
  top: "conv4_3"
}
layer {
  name: "pool4"
  type: "Pooling"
  bottom: "conv4_3"
  top: "pool4"
  pooling_param {
    pool: MAX
    kernel_size: 2
    stride: 2
  }
}
layer {
  name: "conv5_1"
  type: "Convolution"
  bottom: "pool4"
  top: "conv5_1"
  param {
    lr_mult: 1
  }
  param {
    lr_mult: 2
  }
  convolution_param {
    num_output: 512
    pad: 1
    kernel_size: 3
  }
}
layer {
  name: "relu5_1"
  type: "ReLU"
  bottom: "conv5_1"
  top: "conv5_1"
}
layer {
  name: "conv5_2"
  type: "Convolution"
  bottom: "conv5_1"
  top: "conv5_2"
  param {
    lr_mult: 1
  }
  param {
    lr_mult: 2
  }
  convolution_param {
    num_output: 512
    pad: 1
    kernel_size: 3
  }
}
layer {
  name: "relu5_2"
  type: "ReLU"
  bottom: "conv5_2"
  top: "conv5_2"
}
layer {
  name: "conv5_3"
  type: "Convolution"
  bottom: "conv5_2"
  top: "conv5_3"
  param {
    lr_mult: 1
  }
  param {
    lr_mult: 2
  }
  convolution_param {
    num_output: 512
    pad: 1
    kernel_size: 3
  }
}
layer {
  name: "relu5_3"
  type: "ReLU"
  bottom: "conv5_3"
  top: "conv5_3"
}
layer {
  name: "rpn_big_conv1"
  type: "Convolution"
  bottom: "conv5_3"
  top: "rpn_big_conv1"
  param {
    lr_mult: 1
  }
  param {
    lr_mult: 2
  }
  convolution_param {
    num_output: 512
    pad: 1
    kernel_size: 3
    stride: 1
    weight_filler {
      type: "gaussian"
      mean: 0
      std: 0.01
    }
    bias_filler {
      type: "constant"
    }
  }
}
layer {
  name: "rpn_big_conv1_relu"
  type: "ReLU"
  bottom: "rpn_big_conv1"
  top: "rpn_big_conv1"
  relu_param {
    negative_slope: 0
  }
}
layer {
  name: "rpn_big_conv2"
  type: "Convolution"
  bottom: "rpn_big_conv1"
  top: "rpn_big_conv2"
  param {
    lr_mult: 1
  }
  param {
    lr_mult: 2
  }
  convolution_param {
    num_output: 512
    pad: 1
    kernel_size: 3
    stride: 1
    weight_filler {
      type: "gaussian"
      mean: 0
      std: 0.01
    }
    bias_filler {
      type: "constant"
    }
  }
}
layer {
  name: "rpn_big_conv2_relu"
  type: "ReLU"
  bottom: "rpn_big_conv2"
  top: "rpn_big_conv2"
  relu_param {
    negative_slope: 0
  }
}
layer {
  name: "rpn_big_conv2_drop"
  type: "Dropout"
  bottom: "rpn_big_conv2"
  top: "rpn_big_conv2"
  dropout_param {
    dropout_ratio: 0.3
  }
}
layer {
  name: "rpn_big_output_cls"
  type: "Convolution"
  bottom: "rpn_big_conv2"
  top: "rpn_big_output_cls"
  param {
    lr_mult: 1
  }
  param {
    lr_mult: 2
  }
  convolution_param {
    num_output: 384
    pad: 1
    kernel_size: 3
    stride: 1
    weight_filler {
      type: "gaussian"
      mean: 0
      std: 0.01
    }
    bias_filler {
      type: "constant"
    }
  }
}
layer {
  name: "rpn_big_output_cls_relu"
  type: "ReLU"
  bottom: "rpn_big_output_cls"
  top: "rpn_big_output_cls"
  relu_param {
    negative_slope: 0
  }
}
layer {
  name: "rpn_big_cls_score"
  type: "Convolution"
  bottom: "rpn_big_output_cls"
  top: "rpn_big_cls_score"
  param {
    lr_mult: 1
  }
  param {
    lr_mult: 2
  }
  convolution_param {
    num_output: 52
    pad: 0
    kernel_size: 3
    stride: 1
    weight_filler {
      type: "gaussian"
      mean: 0
      std: 0.01
    }
    bias_filler {
      type: "constant"
    }
  }
}
layer {
  name: "rpn_big_cls_score_reshape"
  type: "Reshape"
  bottom: "rpn_big_cls_score"
  top: "rpn_big_cls_score_reshape"
  reshape_param {
    shape {
      dim: 0
      dim: 2
      dim: -1
      dim: 0
    }
  }
}
layer {
  name: "rpn_big_cls_prob"
  type: "Softmax"
  bottom: "rpn_big_cls_score_reshape"
  top: "rpn_big_cls_prob"
}
layer {
  name: "rpn_big_cls_prob_reshape"
  type: "Reshape"
  bottom: "rpn_big_cls_prob"
  top: "rpn_big_cls_prob_reshape"
  reshape_param {
    shape {
      dim: 0
      dim: 52
      dim: -1
      dim: 0
    }
  }
}
layer {
  name: "rpn_big_anchor_target"
  type: "Python"
  bottom: "rpn_big_cls_score"
  bottom: "input_gt_boxes"
  bottom: "input_ignored_boxes"
  bottom: "input_im_info"
  bottom: "input_data"
  bottom: "rpn_big_cls_prob_reshape"
  top: "rpn_big_anchor_target_labels"
  top: "rpn_big_anchor_target_bbox_targets"
  top: "rpn_big_anchor_target_inside_weights"
  top: "rpn_big_anchor_target_outside_weights"
  python_param {
    module: "rpn.anchor_target_layer"
    layer: "AnchorTargetLayer"
    param_str: "{\"fg_fraction\": 0.5, \"feat_stride\": 16, \"name\": \"rpn_big\", \"square_targets\": true, \"negative_overlap\": 0.4, \"anchor_shift_num_xy\": [[2, 2], [2, 2], [2, 2], [2, 2], [1, 1], [1, 1], [1, 1], [1, 1], [1, 1], [1, 1], [1, 1], [1, 1], [1, 1], [1, 1]], \"tn_fraction\": 0.2, \"anchor_scales\": [2.5, 3.025, 3.66025, 4.4289024999999995, 5.358972025, 6.484356150249999, 7.846070941802498, 9.493745839581022, 11.487432465893036, 13.899793283730574, 16.818749873313998, 20.350687346709933, 24.62433168951902, 29.795441344318014], \"batchsize\": 256, \"anchor_ratios\": [1.0], \"num_classes\": 1, \"positive_overlap\": 0.6}"
  }
}
layer {
  name: "rpn_big_loss_cls"
  type: "SoftmaxWithLoss"
  bottom: "rpn_big_cls_score_reshape"
  bottom: "rpn_big_anchor_target_labels"
  top: "rpn_big_loss_cls"
  loss_weight: 1
  propagate_down: true
  propagate_down: false
  loss_param {
    ignore_label: -1
    normalization: VALID
  }
}
layer {
  name: "rpn_big_output_box"
  type: "Convolution"
  bottom: "rpn_big_conv2"
  top: "rpn_big_output_box"
  param {
    lr_mult: 1
  }
  param {
    lr_mult: 2
  }
  convolution_param {
    num_output: 384
    pad: 1
    kernel_size: 3
    stride: 1
    weight_filler {
      type: "gaussian"
      mean: 0
      std: 0.01
    }
    bias_filler {
      type: "constant"
    }
  }
}
layer {
  name: "rpn_big_output_box_relu"
  type: "ReLU"
  bottom: "rpn_big_output_box"
  top: "rpn_big_output_box"
  relu_param {
    negative_slope: 0
  }
}
layer {
  name: "rpn_big_bbox_pred"
  type: "Convolution"
  bottom: "rpn_big_output_box"
  top: "rpn_big_bbox_pred"
  param {
    lr_mult: 1
  }
  param {
    lr_mult: 2
  }
  convolution_param {
    num_output: 104
    pad: 0
    kernel_size: 3
    stride: 1
    weight_filler {
      type: "gaussian"
      mean: 0
      std: 0.01
    }
    bias_filler {
      type: "constant"
    }
  }
}
layer {
  name: "rpn_big_loss_bbox"
  type: "Python"
  bottom: "rpn_big_bbox_pred"
  bottom: "rpn_big_anchor_target_bbox_targets"
  bottom: "rpn_big_anchor_target_inside_weights"
  bottom: "rpn_big_anchor_target_outside_weights"
  top: "rpn_big_loss_bbox"
  loss_weight: 1
  python_param {
    module: "layers.smooth_l1_loss"
    layer: "SmoothL1LossLayer"
    param_str: "{\"sigma\": 3}"
  }
}
layer {
  name: "proposal"
  type: "Python"
  bottom: "rpn_big_cls_prob_reshape"
  bottom: "rpn_big_bbox_pred"
  bottom: "input_im_info"
  top: "rpn_rois"
  python_param {
    module: "rpn.proposal_layer"
    layer: "ProposalLayer"
    param_str: "\'feat_stride\': 16; \'scales\': !!python/tuple [4, 8, 16, 32]"
  }
}
I0413 16:08:54.676214  7950 layer_factory.hpp:77] Creating layer input
I0413 16:08:54.678223  7950 net.cpp:100] Creating Layer input
I0413 16:08:54.678257  7950 net.cpp:408] input -> input_data
I0413 16:08:54.678279  7950 net.cpp:408] input -> input_im_info
I0413 16:08:54.678294  7950 net.cpp:408] input -> input_gt_boxes
I0413 16:08:54.678308  7950 net.cpp:408] input -> input_ignored_boxes
RoiDataLayer: name_to_top: {'data': 0, 'gt_boxes': 2, 'ignored_boxes': 3, 'im_info': 1}
I0413 16:08:55.006391  7950 net.cpp:150] Setting up input
I0413 16:08:55.006417  7950 net.cpp:157] Top shape: 1 3 1000 1500 (4500000)
I0413 16:08:55.006422  7950 net.cpp:157] Top shape: 1 3 (3)
I0413 16:08:55.006425  7950 net.cpp:157] Top shape: 1 5 (5)
I0413 16:08:55.006429  7950 net.cpp:157] Top shape: 1 5 (5)
I0413 16:08:55.006433  7950 net.cpp:165] Memory required for data: 18000052
I0413 16:08:55.006439  7950 layer_factory.hpp:77] Creating layer input_data_input_0_split
I0413 16:08:55.006450  7950 net.cpp:100] Creating Layer input_data_input_0_split
I0413 16:08:55.006455  7950 net.cpp:434] input_data_input_0_split <- input_data
I0413 16:08:55.006464  7950 net.cpp:408] input_data_input_0_split -> input_data_input_0_split_0
I0413 16:08:55.006476  7950 net.cpp:408] input_data_input_0_split -> input_data_input_0_split_1
I0413 16:08:55.006510  7950 net.cpp:150] Setting up input_data_input_0_split
I0413 16:08:55.006516  7950 net.cpp:157] Top shape: 1 3 1000 1500 (4500000)
I0413 16:08:55.006520  7950 net.cpp:157] Top shape: 1 3 1000 1500 (4500000)
I0413 16:08:55.006523  7950 net.cpp:165] Memory required for data: 54000052
I0413 16:08:55.006526  7950 layer_factory.hpp:77] Creating layer input_im_info_input_1_split
I0413 16:08:55.006533  7950 net.cpp:100] Creating Layer input_im_info_input_1_split
I0413 16:08:55.006537  7950 net.cpp:434] input_im_info_input_1_split <- input_im_info
I0413 16:08:55.006542  7950 net.cpp:408] input_im_info_input_1_split -> input_im_info_input_1_split_0
I0413 16:08:55.006548  7950 net.cpp:408] input_im_info_input_1_split -> input_im_info_input_1_split_1
I0413 16:08:55.006589  7950 net.cpp:150] Setting up input_im_info_input_1_split
I0413 16:08:55.006599  7950 net.cpp:157] Top shape: 1 3 (3)
I0413 16:08:55.006603  7950 net.cpp:157] Top shape: 1 3 (3)
I0413 16:08:55.006606  7950 net.cpp:165] Memory required for data: 54000076
I0413 16:08:55.006609  7950 layer_factory.hpp:77] Creating layer conv1_1
I0413 16:08:55.006620  7950 net.cpp:100] Creating Layer conv1_1
I0413 16:08:55.006624  7950 net.cpp:434] conv1_1 <- input_data_input_0_split_0
I0413 16:08:55.006631  7950 net.cpp:408] conv1_1 -> conv1_1
I0413 16:08:55.009613  7950 net.cpp:150] Setting up conv1_1
I0413 16:08:55.009665  7950 net.cpp:157] Top shape: 1 64 1000 1500 (96000000)
I0413 16:08:55.009668  7950 net.cpp:165] Memory required for data: 438000076
I0413 16:08:55.009687  7950 layer_factory.hpp:77] Creating layer relu1_1
I0413 16:08:55.009701  7950 net.cpp:100] Creating Layer relu1_1
I0413 16:08:55.009706  7950 net.cpp:434] relu1_1 <- conv1_1
I0413 16:08:55.009713  7950 net.cpp:395] relu1_1 -> conv1_1 (in-place)
I0413 16:08:55.009726  7950 net.cpp:150] Setting up relu1_1
I0413 16:08:55.009729  7950 net.cpp:157] Top shape: 1 64 1000 1500 (96000000)
I0413 16:08:55.009732  7950 net.cpp:165] Memory required for data: 822000076
I0413 16:08:55.009735  7950 layer_factory.hpp:77] Creating layer conv1_2
I0413 16:08:55.009744  7950 net.cpp:100] Creating Layer conv1_2
I0413 16:08:55.009760  7950 net.cpp:434] conv1_2 <- conv1_1
I0413 16:08:55.009768  7950 net.cpp:408] conv1_2 -> conv1_2
I0413 16:08:55.012922  7950 net.cpp:150] Setting up conv1_2
I0413 16:08:55.012958  7950 net.cpp:157] Top shape: 1 64 1000 1500 (96000000)
I0413 16:08:55.012960  7950 net.cpp:165] Memory required for data: 1206000076
I0413 16:08:55.012977  7950 layer_factory.hpp:77] Creating layer relu1_2
I0413 16:08:55.012989  7950 net.cpp:100] Creating Layer relu1_2
I0413 16:08:55.012995  7950 net.cpp:434] relu1_2 <- conv1_2
I0413 16:08:55.013002  7950 net.cpp:395] relu1_2 -> conv1_2 (in-place)
I0413 16:08:55.013013  7950 net.cpp:150] Setting up relu1_2
I0413 16:08:55.013018  7950 net.cpp:157] Top shape: 1 64 1000 1500 (96000000)
I0413 16:08:55.013020  7950 net.cpp:165] Memory required for data: 1590000076
I0413 16:08:55.013025  7950 layer_factory.hpp:77] Creating layer pool1
I0413 16:08:55.013029  7950 net.cpp:100] Creating Layer pool1
I0413 16:08:55.013032  7950 net.cpp:434] pool1 <- conv1_2
I0413 16:08:55.013041  7950 net.cpp:408] pool1 -> pool1
I0413 16:08:55.013128  7950 net.cpp:150] Setting up pool1
I0413 16:08:55.013139  7950 net.cpp:157] Top shape: 1 64 500 750 (24000000)
I0413 16:08:55.013142  7950 net.cpp:165] Memory required for data: 1686000076
I0413 16:08:55.013145  7950 layer_factory.hpp:77] Creating layer conv2_1
I0413 16:08:55.013161  7950 net.cpp:100] Creating Layer conv2_1
I0413 16:08:55.013169  7950 net.cpp:434] conv2_1 <- pool1
I0413 16:08:55.013175  7950 net.cpp:408] conv2_1 -> conv2_1
I0413 16:08:55.014377  7950 net.cpp:150] Setting up conv2_1
I0413 16:08:55.014399  7950 net.cpp:157] Top shape: 1 128 500 750 (48000000)
I0413 16:08:55.014402  7950 net.cpp:165] Memory required for data: 1878000076
I0413 16:08:55.014422  7950 layer_factory.hpp:77] Creating layer relu2_1
I0413 16:08:55.014430  7950 net.cpp:100] Creating Layer relu2_1
I0413 16:08:55.014436  7950 net.cpp:434] relu2_1 <- conv2_1
I0413 16:08:55.014447  7950 net.cpp:395] relu2_1 -> conv2_1 (in-place)
I0413 16:08:55.014458  7950 net.cpp:150] Setting up relu2_1
I0413 16:08:55.014467  7950 net.cpp:157] Top shape: 1 128 500 750 (48000000)
I0413 16:08:55.014470  7950 net.cpp:165] Memory required for data: 2070000076
I0413 16:08:55.014475  7950 layer_factory.hpp:77] Creating layer conv2_2
I0413 16:08:55.014489  7950 net.cpp:100] Creating Layer conv2_2
I0413 16:08:55.014495  7950 net.cpp:434] conv2_2 <- conv2_1
I0413 16:08:55.014502  7950 net.cpp:408] conv2_2 -> conv2_2
I0413 16:08:55.015419  7950 net.cpp:150] Setting up conv2_2
I0413 16:08:55.015442  7950 net.cpp:157] Top shape: 1 128 500 750 (48000000)
I0413 16:08:55.015445  7950 net.cpp:165] Memory required for data: 2262000076
I0413 16:08:55.015463  7950 layer_factory.hpp:77] Creating layer relu2_2
I0413 16:08:55.015471  7950 net.cpp:100] Creating Layer relu2_2
I0413 16:08:55.015475  7950 net.cpp:434] relu2_2 <- conv2_2
I0413 16:08:55.015486  7950 net.cpp:395] relu2_2 -> conv2_2 (in-place)
I0413 16:08:55.015497  7950 net.cpp:150] Setting up relu2_2
I0413 16:08:55.015501  7950 net.cpp:157] Top shape: 1 128 500 750 (48000000)
I0413 16:08:55.015504  7950 net.cpp:165] Memory required for data: 2454000076
I0413 16:08:55.015511  7950 layer_factory.hpp:77] Creating layer pool2
I0413 16:08:55.015519  7950 net.cpp:100] Creating Layer pool2
I0413 16:08:55.015525  7950 net.cpp:434] pool2 <- conv2_2
I0413 16:08:55.015535  7950 net.cpp:408] pool2 -> pool2
I0413 16:08:55.015581  7950 net.cpp:150] Setting up pool2
I0413 16:08:55.015589  7950 net.cpp:157] Top shape: 1 128 250 375 (12000000)
I0413 16:08:55.015594  7950 net.cpp:165] Memory required for data: 2502000076
I0413 16:08:55.015599  7950 layer_factory.hpp:77] Creating layer conv3_1
I0413 16:08:55.015612  7950 net.cpp:100] Creating Layer conv3_1
I0413 16:08:55.015619  7950 net.cpp:434] conv3_1 <- pool2
I0413 16:08:55.015626  7950 net.cpp:408] conv3_1 -> conv3_1
I0413 16:08:55.016744  7950 net.cpp:150] Setting up conv3_1
I0413 16:08:55.016779  7950 net.cpp:157] Top shape: 1 256 250 375 (24000000)
I0413 16:08:55.016793  7950 net.cpp:165] Memory required for data: 2598000076
I0413 16:08:55.016808  7950 layer_factory.hpp:77] Creating layer relu3_1
I0413 16:08:55.016818  7950 net.cpp:100] Creating Layer relu3_1
I0413 16:08:55.016824  7950 net.cpp:434] relu3_1 <- conv3_1
I0413 16:08:55.016832  7950 net.cpp:395] relu3_1 -> conv3_1 (in-place)
I0413 16:08:55.016847  7950 net.cpp:150] Setting up relu3_1
I0413 16:08:55.016856  7950 net.cpp:157] Top shape: 1 256 250 375 (24000000)
I0413 16:08:55.016861  7950 net.cpp:165] Memory required for data: 2694000076
I0413 16:08:55.016866  7950 layer_factory.hpp:77] Creating layer conv3_2
I0413 16:08:55.016880  7950 net.cpp:100] Creating Layer conv3_2
I0413 16:08:55.016886  7950 net.cpp:434] conv3_2 <- conv3_1
I0413 16:08:55.016896  7950 net.cpp:408] conv3_2 -> conv3_2
I0413 16:08:55.018116  7950 net.cpp:150] Setting up conv3_2
I0413 16:08:55.018143  7950 net.cpp:157] Top shape: 1 256 250 375 (24000000)
I0413 16:08:55.018156  7950 net.cpp:165] Memory required for data: 2790000076
I0413 16:08:55.018164  7950 layer_factory.hpp:77] Creating layer relu3_2
I0413 16:08:55.018177  7950 net.cpp:100] Creating Layer relu3_2
I0413 16:08:55.018184  7950 net.cpp:434] relu3_2 <- conv3_2
I0413 16:08:55.018195  7950 net.cpp:395] relu3_2 -> conv3_2 (in-place)
I0413 16:08:55.018208  7950 net.cpp:150] Setting up relu3_2
I0413 16:08:55.018214  7950 net.cpp:157] Top shape: 1 256 250 375 (24000000)
I0413 16:08:55.018219  7950 net.cpp:165] Memory required for data: 2886000076
I0413 16:08:55.018226  7950 layer_factory.hpp:77] Creating layer conv3_3
I0413 16:08:55.018239  7950 net.cpp:100] Creating Layer conv3_3
I0413 16:08:55.018244  7950 net.cpp:434] conv3_3 <- conv3_2
I0413 16:08:55.018254  7950 net.cpp:408] conv3_3 -> conv3_3
I0413 16:08:55.019783  7950 net.cpp:150] Setting up conv3_3
I0413 16:08:55.019816  7950 net.cpp:157] Top shape: 1 256 250 375 (24000000)
I0413 16:08:55.019819  7950 net.cpp:165] Memory required for data: 2982000076
I0413 16:08:55.019829  7950 layer_factory.hpp:77] Creating layer relu3_3
I0413 16:08:55.019839  7950 net.cpp:100] Creating Layer relu3_3
I0413 16:08:55.019843  7950 net.cpp:434] relu3_3 <- conv3_3
I0413 16:08:55.019852  7950 net.cpp:395] relu3_3 -> conv3_3 (in-place)
I0413 16:08:55.019866  7950 net.cpp:150] Setting up relu3_3
I0413 16:08:55.019873  7950 net.cpp:157] Top shape: 1 256 250 375 (24000000)
I0413 16:08:55.019878  7950 net.cpp:165] Memory required for data: 3078000076
I0413 16:08:55.019884  7950 layer_factory.hpp:77] Creating layer pool3
I0413 16:08:55.019896  7950 net.cpp:100] Creating Layer pool3
I0413 16:08:55.019903  7950 net.cpp:434] pool3 <- conv3_3
I0413 16:08:55.019912  7950 net.cpp:408] pool3 -> pool3
I0413 16:08:55.019961  7950 net.cpp:150] Setting up pool3
I0413 16:08:55.019970  7950 net.cpp:157] Top shape: 1 256 125 188 (6016000)
I0413 16:08:55.019975  7950 net.cpp:165] Memory required for data: 3102064076
I0413 16:08:55.019980  7950 layer_factory.hpp:77] Creating layer conv4_1
I0413 16:08:55.019990  7950 net.cpp:100] Creating Layer conv4_1
I0413 16:08:55.019996  7950 net.cpp:434] conv4_1 <- pool3
I0413 16:08:55.020006  7950 net.cpp:408] conv4_1 -> conv4_1
I0413 16:08:55.022727  7950 net.cpp:150] Setting up conv4_1
I0413 16:08:55.022758  7950 net.cpp:157] Top shape: 1 512 125 188 (12032000)
I0413 16:08:55.022770  7950 net.cpp:165] Memory required for data: 3150192076
I0413 16:08:55.022780  7950 layer_factory.hpp:77] Creating layer relu4_1
I0413 16:08:55.022791  7950 net.cpp:100] Creating Layer relu4_1
I0413 16:08:55.022796  7950 net.cpp:434] relu4_1 <- conv4_1
I0413 16:08:55.022806  7950 net.cpp:395] relu4_1 -> conv4_1 (in-place)
I0413 16:08:55.022819  7950 net.cpp:150] Setting up relu4_1
I0413 16:08:55.022827  7950 net.cpp:157] Top shape: 1 512 125 188 (12032000)
I0413 16:08:55.022835  7950 net.cpp:165] Memory required for data: 3198320076
I0413 16:08:55.022840  7950 layer_factory.hpp:77] Creating layer conv4_2
I0413 16:08:55.022853  7950 net.cpp:100] Creating Layer conv4_2
I0413 16:08:55.022858  7950 net.cpp:434] conv4_2 <- conv4_1
I0413 16:08:55.022867  7950 net.cpp:408] conv4_2 -> conv4_2
I0413 16:08:55.027794  7950 net.cpp:150] Setting up conv4_2
I0413 16:08:55.027828  7950 net.cpp:157] Top shape: 1 512 125 188 (12032000)
I0413 16:08:55.027842  7950 net.cpp:165] Memory required for data: 3246448076
I0413 16:08:55.027868  7950 layer_factory.hpp:77] Creating layer relu4_2
I0413 16:08:55.027884  7950 net.cpp:100] Creating Layer relu4_2
I0413 16:08:55.027891  7950 net.cpp:434] relu4_2 <- conv4_2
I0413 16:08:55.027905  7950 net.cpp:395] relu4_2 -> conv4_2 (in-place)
I0413 16:08:55.027920  7950 net.cpp:150] Setting up relu4_2
I0413 16:08:55.027927  7950 net.cpp:157] Top shape: 1 512 125 188 (12032000)
I0413 16:08:55.027932  7950 net.cpp:165] Memory required for data: 3294576076
I0413 16:08:55.027937  7950 layer_factory.hpp:77] Creating layer conv4_3
I0413 16:08:55.027950  7950 net.cpp:100] Creating Layer conv4_3
I0413 16:08:55.027956  7950 net.cpp:434] conv4_3 <- conv4_2
I0413 16:08:55.027967  7950 net.cpp:408] conv4_3 -> conv4_3
I0413 16:08:55.032557  7950 net.cpp:150] Setting up conv4_3
I0413 16:08:55.032599  7950 net.cpp:157] Top shape: 1 512 125 188 (12032000)
I0413 16:08:55.032603  7950 net.cpp:165] Memory required for data: 3342704076
I0413 16:08:55.032613  7950 layer_factory.hpp:77] Creating layer relu4_3
I0413 16:08:55.032624  7950 net.cpp:100] Creating Layer relu4_3
I0413 16:08:55.032629  7950 net.cpp:434] relu4_3 <- conv4_3
I0413 16:08:55.032636  7950 net.cpp:395] relu4_3 -> conv4_3 (in-place)
I0413 16:08:55.032646  7950 net.cpp:150] Setting up relu4_3
I0413 16:08:55.032651  7950 net.cpp:157] Top shape: 1 512 125 188 (12032000)
I0413 16:08:55.032655  7950 net.cpp:165] Memory required for data: 3390832076
I0413 16:08:55.032656  7950 layer_factory.hpp:77] Creating layer pool4
I0413 16:08:55.032665  7950 net.cpp:100] Creating Layer pool4
I0413 16:08:55.032667  7950 net.cpp:434] pool4 <- conv4_3
I0413 16:08:55.032672  7950 net.cpp:408] pool4 -> pool4
I0413 16:08:55.032707  7950 net.cpp:150] Setting up pool4
I0413 16:08:55.032714  7950 net.cpp:157] Top shape: 1 512 63 94 (3032064)
I0413 16:08:55.032717  7950 net.cpp:165] Memory required for data: 3402960332
I0413 16:08:55.032721  7950 layer_factory.hpp:77] Creating layer conv5_1
I0413 16:08:55.032732  7950 net.cpp:100] Creating Layer conv5_1
I0413 16:08:55.032738  7950 net.cpp:434] conv5_1 <- pool4
I0413 16:08:55.032743  7950 net.cpp:408] conv5_1 -> conv5_1
I0413 16:08:55.038350  7950 net.cpp:150] Setting up conv5_1
I0413 16:08:55.038383  7950 net.cpp:157] Top shape: 1 512 63 94 (3032064)
I0413 16:08:55.038395  7950 net.cpp:165] Memory required for data: 3415088588
I0413 16:08:55.038405  7950 layer_factory.hpp:77] Creating layer relu5_1
I0413 16:08:55.038415  7950 net.cpp:100] Creating Layer relu5_1
I0413 16:08:55.038419  7950 net.cpp:434] relu5_1 <- conv5_1
I0413 16:08:55.038429  7950 net.cpp:395] relu5_1 -> conv5_1 (in-place)
I0413 16:08:55.038439  7950 net.cpp:150] Setting up relu5_1
I0413 16:08:55.038444  7950 net.cpp:157] Top shape: 1 512 63 94 (3032064)
I0413 16:08:55.038446  7950 net.cpp:165] Memory required for data: 3427216844
I0413 16:08:55.038450  7950 layer_factory.hpp:77] Creating layer conv5_2
I0413 16:08:55.038460  7950 net.cpp:100] Creating Layer conv5_2
I0413 16:08:55.038463  7950 net.cpp:434] conv5_2 <- conv5_1
I0413 16:08:55.038468  7950 net.cpp:408] conv5_2 -> conv5_2
I0413 16:08:55.042847  7950 net.cpp:150] Setting up conv5_2
I0413 16:08:55.042881  7950 net.cpp:157] Top shape: 1 512 63 94 (3032064)
I0413 16:08:55.042893  7950 net.cpp:165] Memory required for data: 3439345100
I0413 16:08:55.042903  7950 layer_factory.hpp:77] Creating layer relu5_2
I0413 16:08:55.042913  7950 net.cpp:100] Creating Layer relu5_2
I0413 16:08:55.042917  7950 net.cpp:434] relu5_2 <- conv5_2
I0413 16:08:55.042927  7950 net.cpp:395] relu5_2 -> conv5_2 (in-place)
I0413 16:08:55.042937  7950 net.cpp:150] Setting up relu5_2
I0413 16:08:55.042942  7950 net.cpp:157] Top shape: 1 512 63 94 (3032064)
I0413 16:08:55.042944  7950 net.cpp:165] Memory required for data: 3451473356
I0413 16:08:55.042948  7950 layer_factory.hpp:77] Creating layer conv5_3
I0413 16:08:55.042958  7950 net.cpp:100] Creating Layer conv5_3
I0413 16:08:55.042961  7950 net.cpp:434] conv5_3 <- conv5_2
I0413 16:08:55.042966  7950 net.cpp:408] conv5_3 -> conv5_3
I0413 16:08:55.047956  7950 net.cpp:150] Setting up conv5_3
I0413 16:08:55.048002  7950 net.cpp:157] Top shape: 1 512 63 94 (3032064)
I0413 16:08:55.048008  7950 net.cpp:165] Memory required for data: 3463601612
I0413 16:08:55.048024  7950 layer_factory.hpp:77] Creating layer relu5_3
I0413 16:08:55.048045  7950 net.cpp:100] Creating Layer relu5_3
I0413 16:08:55.048054  7950 net.cpp:434] relu5_3 <- conv5_3
I0413 16:08:55.048065  7950 net.cpp:395] relu5_3 -> conv5_3 (in-place)
I0413 16:08:55.048089  7950 net.cpp:150] Setting up relu5_3
I0413 16:08:55.048099  7950 net.cpp:157] Top shape: 1 512 63 94 (3032064)
I0413 16:08:55.048105  7950 net.cpp:165] Memory required for data: 3475729868
I0413 16:08:55.048110  7950 layer_factory.hpp:77] Creating layer rpn_big_conv1
I0413 16:08:55.048127  7950 net.cpp:100] Creating Layer rpn_big_conv1
I0413 16:08:55.048135  7950 net.cpp:434] rpn_big_conv1 <- conv5_3
I0413 16:08:55.048148  7950 net.cpp:408] rpn_big_conv1 -> rpn_big_conv1
I0413 16:08:55.076567  7950 net.cpp:150] Setting up rpn_big_conv1
I0413 16:08:55.076597  7950 net.cpp:157] Top shape: 1 512 63 94 (3032064)
I0413 16:08:55.076611  7950 net.cpp:165] Memory required for data: 3487858124
I0413 16:08:55.076620  7950 layer_factory.hpp:77] Creating layer rpn_big_conv1_relu
I0413 16:08:55.076632  7950 net.cpp:100] Creating Layer rpn_big_conv1_relu
I0413 16:08:55.076635  7950 net.cpp:434] rpn_big_conv1_relu <- rpn_big_conv1
I0413 16:08:55.076645  7950 net.cpp:395] rpn_big_conv1_relu -> rpn_big_conv1 (in-place)
I0413 16:08:55.076655  7950 net.cpp:150] Setting up rpn_big_conv1_relu
I0413 16:08:55.076660  7950 net.cpp:157] Top shape: 1 512 63 94 (3032064)
I0413 16:08:55.076663  7950 net.cpp:165] Memory required for data: 3499986380
I0413 16:08:55.076665  7950 layer_factory.hpp:77] Creating layer rpn_big_conv2
I0413 16:08:55.076676  7950 net.cpp:100] Creating Layer rpn_big_conv2
I0413 16:08:55.076689  7950 net.cpp:434] rpn_big_conv2 <- rpn_big_conv1
I0413 16:08:55.076695  7950 net.cpp:408] rpn_big_conv2 -> rpn_big_conv2
I0413 16:08:55.104914  7950 net.cpp:150] Setting up rpn_big_conv2
I0413 16:08:55.104944  7950 net.cpp:157] Top shape: 1 512 63 94 (3032064)
I0413 16:08:55.104948  7950 net.cpp:165] Memory required for data: 3512114636
I0413 16:08:55.104959  7950 layer_factory.hpp:77] Creating layer rpn_big_conv2_relu
I0413 16:08:55.104970  7950 net.cpp:100] Creating Layer rpn_big_conv2_relu
I0413 16:08:55.104975  7950 net.cpp:434] rpn_big_conv2_relu <- rpn_big_conv2
I0413 16:08:55.104984  7950 net.cpp:395] rpn_big_conv2_relu -> rpn_big_conv2 (in-place)
I0413 16:08:55.104995  7950 net.cpp:150] Setting up rpn_big_conv2_relu
I0413 16:08:55.105000  7950 net.cpp:157] Top shape: 1 512 63 94 (3032064)
I0413 16:08:55.105002  7950 net.cpp:165] Memory required for data: 3524242892
I0413 16:08:55.105005  7950 layer_factory.hpp:77] Creating layer rpn_big_conv2_drop
I0413 16:08:55.105012  7950 net.cpp:100] Creating Layer rpn_big_conv2_drop
I0413 16:08:55.105015  7950 net.cpp:434] rpn_big_conv2_drop <- rpn_big_conv2
I0413 16:08:55.105020  7950 net.cpp:395] rpn_big_conv2_drop -> rpn_big_conv2 (in-place)
I0413 16:08:55.105042  7950 net.cpp:150] Setting up rpn_big_conv2_drop
I0413 16:08:55.105049  7950 net.cpp:157] Top shape: 1 512 63 94 (3032064)
I0413 16:08:55.105052  7950 net.cpp:165] Memory required for data: 3536371148
I0413 16:08:55.105057  7950 layer_factory.hpp:77] Creating layer rpn_big_conv2_rpn_big_conv2_drop_0_split
I0413 16:08:55.105062  7950 net.cpp:100] Creating Layer rpn_big_conv2_rpn_big_conv2_drop_0_split
I0413 16:08:55.105064  7950 net.cpp:434] rpn_big_conv2_rpn_big_conv2_drop_0_split <- rpn_big_conv2
I0413 16:08:55.105072  7950 net.cpp:408] rpn_big_conv2_rpn_big_conv2_drop_0_split -> rpn_big_conv2_rpn_big_conv2_drop_0_split_0
I0413 16:08:55.105082  7950 net.cpp:408] rpn_big_conv2_rpn_big_conv2_drop_0_split -> rpn_big_conv2_rpn_big_conv2_drop_0_split_1
I0413 16:08:55.105115  7950 net.cpp:150] Setting up rpn_big_conv2_rpn_big_conv2_drop_0_split
I0413 16:08:55.105123  7950 net.cpp:157] Top shape: 1 512 63 94 (3032064)
I0413 16:08:55.105126  7950 net.cpp:157] Top shape: 1 512 63 94 (3032064)
I0413 16:08:55.105129  7950 net.cpp:165] Memory required for data: 3560627660
I0413 16:08:55.105132  7950 layer_factory.hpp:77] Creating layer rpn_big_output_cls
I0413 16:08:55.105144  7950 net.cpp:100] Creating Layer rpn_big_output_cls
I0413 16:08:55.105149  7950 net.cpp:434] rpn_big_output_cls <- rpn_big_conv2_rpn_big_conv2_drop_0_split_0
I0413 16:08:55.105155  7950 net.cpp:408] rpn_big_output_cls -> rpn_big_output_cls
I0413 16:08:55.123610  7950 net.cpp:150] Setting up rpn_big_output_cls
I0413 16:08:55.123641  7950 net.cpp:157] Top shape: 1 384 63 94 (2274048)
I0413 16:08:55.123654  7950 net.cpp:165] Memory required for data: 3569723852
I0413 16:08:55.123664  7950 layer_factory.hpp:77] Creating layer rpn_big_output_cls_relu
I0413 16:08:55.123677  7950 net.cpp:100] Creating Layer rpn_big_output_cls_relu
I0413 16:08:55.123683  7950 net.cpp:434] rpn_big_output_cls_relu <- rpn_big_output_cls
I0413 16:08:55.123692  7950 net.cpp:395] rpn_big_output_cls_relu -> rpn_big_output_cls (in-place)
I0413 16:08:55.123703  7950 net.cpp:150] Setting up rpn_big_output_cls_relu
I0413 16:08:55.123708  7950 net.cpp:157] Top shape: 1 384 63 94 (2274048)
I0413 16:08:55.123709  7950 net.cpp:165] Memory required for data: 3578820044
I0413 16:08:55.123713  7950 layer_factory.hpp:77] Creating layer rpn_big_cls_score
I0413 16:08:55.123723  7950 net.cpp:100] Creating Layer rpn_big_cls_score
I0413 16:08:55.123728  7950 net.cpp:434] rpn_big_cls_score <- rpn_big_output_cls
I0413 16:08:55.123734  7950 net.cpp:408] rpn_big_cls_score -> rpn_big_cls_score
I0413 16:08:55.129364  7950 net.cpp:150] Setting up rpn_big_cls_score
I0413 16:08:55.129391  7950 net.cpp:157] Top shape: 1 52 61 92 (291824)
I0413 16:08:55.129405  7950 net.cpp:165] Memory required for data: 3579987340
I0413 16:08:55.129428  7950 layer_factory.hpp:77] Creating layer rpn_big_cls_score_rpn_big_cls_score_0_split
I0413 16:08:55.129441  7950 net.cpp:100] Creating Layer rpn_big_cls_score_rpn_big_cls_score_0_split
I0413 16:08:55.129449  7950 net.cpp:434] rpn_big_cls_score_rpn_big_cls_score_0_split <- rpn_big_cls_score
I0413 16:08:55.129462  7950 net.cpp:408] rpn_big_cls_score_rpn_big_cls_score_0_split -> rpn_big_cls_score_rpn_big_cls_score_0_split_0
I0413 16:08:55.129482  7950 net.cpp:408] rpn_big_cls_score_rpn_big_cls_score_0_split -> rpn_big_cls_score_rpn_big_cls_score_0_split_1
I0413 16:08:55.129541  7950 net.cpp:150] Setting up rpn_big_cls_score_rpn_big_cls_score_0_split
I0413 16:08:55.129554  7950 net.cpp:157] Top shape: 1 52 61 92 (291824)
I0413 16:08:55.129562  7950 net.cpp:157] Top shape: 1 52 61 92 (291824)
I0413 16:08:55.129567  7950 net.cpp:165] Memory required for data: 3582321932
I0413 16:08:55.129573  7950 layer_factory.hpp:77] Creating layer rpn_big_cls_score_reshape
I0413 16:08:55.129585  7950 net.cpp:100] Creating Layer rpn_big_cls_score_reshape
I0413 16:08:55.129595  7950 net.cpp:434] rpn_big_cls_score_reshape <- rpn_big_cls_score_rpn_big_cls_score_0_split_0
I0413 16:08:55.129607  7950 net.cpp:408] rpn_big_cls_score_reshape -> rpn_big_cls_score_reshape
I0413 16:08:55.129648  7950 net.cpp:150] Setting up rpn_big_cls_score_reshape
I0413 16:08:55.129659  7950 net.cpp:157] Top shape: 1 2 1586 92 (291824)
I0413 16:08:55.129665  7950 net.cpp:165] Memory required for data: 3583489228
I0413 16:08:55.129672  7950 layer_factory.hpp:77] Creating layer rpn_big_cls_score_reshape_rpn_big_cls_score_reshape_0_split
I0413 16:08:55.129681  7950 net.cpp:100] Creating Layer rpn_big_cls_score_reshape_rpn_big_cls_score_reshape_0_split
I0413 16:08:55.129689  7950 net.cpp:434] rpn_big_cls_score_reshape_rpn_big_cls_score_reshape_0_split <- rpn_big_cls_score_reshape
I0413 16:08:55.129701  7950 net.cpp:408] rpn_big_cls_score_reshape_rpn_big_cls_score_reshape_0_split -> rpn_big_cls_score_reshape_rpn_big_cls_score_reshape_0_split_0
I0413 16:08:55.129714  7950 net.cpp:408] rpn_big_cls_score_reshape_rpn_big_cls_score_reshape_0_split -> rpn_big_cls_score_reshape_rpn_big_cls_score_reshape_0_split_1
I0413 16:08:55.129765  7950 net.cpp:150] Setting up rpn_big_cls_score_reshape_rpn_big_cls_score_reshape_0_split
I0413 16:08:55.129776  7950 net.cpp:157] Top shape: 1 2 1586 92 (291824)
I0413 16:08:55.129783  7950 net.cpp:157] Top shape: 1 2 1586 92 (291824)
I0413 16:08:55.129791  7950 net.cpp:165] Memory required for data: 3585823820
I0413 16:08:55.129796  7950 layer_factory.hpp:77] Creating layer rpn_big_cls_prob
I0413 16:08:55.129806  7950 net.cpp:100] Creating Layer rpn_big_cls_prob
I0413 16:08:55.129813  7950 net.cpp:434] rpn_big_cls_prob <- rpn_big_cls_score_reshape_rpn_big_cls_score_reshape_0_split_0
I0413 16:08:55.129825  7950 net.cpp:408] rpn_big_cls_prob -> rpn_big_cls_prob
I0413 16:08:55.129906  7950 net.cpp:150] Setting up rpn_big_cls_prob
I0413 16:08:55.129918  7950 net.cpp:157] Top shape: 1 2 1586 92 (291824)
I0413 16:08:55.129922  7950 net.cpp:165] Memory required for data: 3586991116
I0413 16:08:55.129928  7950 layer_factory.hpp:77] Creating layer rpn_big_cls_prob_reshape
I0413 16:08:55.129936  7950 net.cpp:100] Creating Layer rpn_big_cls_prob_reshape
I0413 16:08:55.129943  7950 net.cpp:434] rpn_big_cls_prob_reshape <- rpn_big_cls_prob
I0413 16:08:55.129952  7950 net.cpp:408] rpn_big_cls_prob_reshape -> rpn_big_cls_prob_reshape
I0413 16:08:55.129987  7950 net.cpp:150] Setting up rpn_big_cls_prob_reshape
I0413 16:08:55.129999  7950 net.cpp:157] Top shape: 1 52 61 92 (291824)
I0413 16:08:55.130007  7950 net.cpp:165] Memory required for data: 3588158412
I0413 16:08:55.130012  7950 layer_factory.hpp:77] Creating layer rpn_big_cls_prob_reshape_rpn_big_cls_prob_reshape_0_split
I0413 16:08:55.130023  7950 net.cpp:100] Creating Layer rpn_big_cls_prob_reshape_rpn_big_cls_prob_reshape_0_split
I0413 16:08:55.130030  7950 net.cpp:434] rpn_big_cls_prob_reshape_rpn_big_cls_prob_reshape_0_split <- rpn_big_cls_prob_reshape
I0413 16:08:55.130039  7950 net.cpp:408] rpn_big_cls_prob_reshape_rpn_big_cls_prob_reshape_0_split -> rpn_big_cls_prob_reshape_rpn_big_cls_prob_reshape_0_split_0
I0413 16:08:55.130051  7950 net.cpp:408] rpn_big_cls_prob_reshape_rpn_big_cls_prob_reshape_0_split -> rpn_big_cls_prob_reshape_rpn_big_cls_prob_reshape_0_split_1
I0413 16:08:55.130098  7950 net.cpp:150] Setting up rpn_big_cls_prob_reshape_rpn_big_cls_prob_reshape_0_split
I0413 16:08:55.130110  7950 net.cpp:157] Top shape: 1 52 61 92 (291824)
I0413 16:08:55.130117  7950 net.cpp:157] Top shape: 1 52 61 92 (291824)
I0413 16:08:55.130123  7950 net.cpp:165] Memory required for data: 3590493004
I0413 16:08:55.130129  7950 layer_factory.hpp:77] Creating layer rpn_big_anchor_target
I0413 16:08:55.131520  7950 net.cpp:100] Creating Layer rpn_big_anchor_target
I0413 16:08:55.131536  7950 net.cpp:434] rpn_big_anchor_target <- rpn_big_cls_score_rpn_big_cls_score_0_split_1
I0413 16:08:55.131543  7950 net.cpp:434] rpn_big_anchor_target <- input_gt_boxes
I0413 16:08:55.131548  7950 net.cpp:434] rpn_big_anchor_target <- input_ignored_boxes
I0413 16:08:55.131552  7950 net.cpp:434] rpn_big_anchor_target <- input_im_info_input_1_split_0
I0413 16:08:55.131556  7950 net.cpp:434] rpn_big_anchor_target <- input_data_input_0_split_1
I0413 16:08:55.131561  7950 net.cpp:434] rpn_big_anchor_target <- rpn_big_cls_prob_reshape_rpn_big_cls_prob_reshape_0_split_0
I0413 16:08:55.131567  7950 net.cpp:408] rpn_big_anchor_target -> rpn_big_anchor_target_labels
I0413 16:08:55.131577  7950 net.cpp:408] rpn_big_anchor_target -> rpn_big_anchor_target_bbox_targets
I0413 16:08:55.131584  7950 net.cpp:408] rpn_big_anchor_target -> rpn_big_anchor_target_inside_weights
I0413 16:08:55.131592  7950 net.cpp:408] rpn_big_anchor_target -> rpn_big_anchor_target_outside_weights
I0413 16:08:55.136797  7950 net.cpp:150] Setting up rpn_big_anchor_target
I0413 16:08:55.136826  7950 net.cpp:157] Top shape: 1 1 1586 92 (145912)
I0413 16:08:55.136840  7950 net.cpp:157] Top shape: 1 104 61 92 (583648)
I0413 16:08:55.136844  7950 net.cpp:157] Top shape: 1 104 61 92 (583648)
I0413 16:08:55.136848  7950 net.cpp:157] Top shape: 1 104 61 92 (583648)
I0413 16:08:55.136852  7950 net.cpp:165] Memory required for data: 3598080428
I0413 16:08:55.136857  7950 layer_factory.hpp:77] Creating layer rpn_big_loss_cls
I0413 16:08:55.136869  7950 net.cpp:100] Creating Layer rpn_big_loss_cls
I0413 16:08:55.136875  7950 net.cpp:434] rpn_big_loss_cls <- rpn_big_cls_score_reshape_rpn_big_cls_score_reshape_0_split_1
I0413 16:08:55.136883  7950 net.cpp:434] rpn_big_loss_cls <- rpn_big_anchor_target_labels
I0413 16:08:55.136888  7950 net.cpp:408] rpn_big_loss_cls -> rpn_big_loss_cls
I0413 16:08:55.136909  7950 layer_factory.hpp:77] Creating layer rpn_big_loss_cls
I0413 16:08:55.137770  7950 net.cpp:150] Setting up rpn_big_loss_cls
I0413 16:08:55.137825  7950 net.cpp:157] Top shape: (1)
I0413 16:08:55.137845  7950 net.cpp:160]     with loss weight 1
I0413 16:08:55.137861  7950 net.cpp:165] Memory required for data: 3598080432
I0413 16:08:55.137868  7950 layer_factory.hpp:77] Creating layer rpn_big_output_box
I0413 16:08:55.137889  7950 net.cpp:100] Creating Layer rpn_big_output_box
I0413 16:08:55.137898  7950 net.cpp:434] rpn_big_output_box <- rpn_big_conv2_rpn_big_conv2_drop_0_split_1
I0413 16:08:55.137915  7950 net.cpp:408] rpn_big_output_box -> rpn_big_output_box
I0413 16:08:55.159152  7950 net.cpp:150] Setting up rpn_big_output_box
I0413 16:08:55.159181  7950 net.cpp:157] Top shape: 1 384 63 94 (2274048)
I0413 16:08:55.159188  7950 net.cpp:165] Memory required for data: 3607176624
I0413 16:08:55.159210  7950 layer_factory.hpp:77] Creating layer rpn_big_output_box_relu
I0413 16:08:55.159225  7950 net.cpp:100] Creating Layer rpn_big_output_box_relu
I0413 16:08:55.159237  7950 net.cpp:434] rpn_big_output_box_relu <- rpn_big_output_box
I0413 16:08:55.159263  7950 net.cpp:395] rpn_big_output_box_relu -> rpn_big_output_box (in-place)
I0413 16:08:55.159282  7950 net.cpp:150] Setting up rpn_big_output_box_relu
I0413 16:08:55.159292  7950 net.cpp:157] Top shape: 1 384 63 94 (2274048)
I0413 16:08:55.159301  7950 net.cpp:165] Memory required for data: 3616272816
I0413 16:08:55.159307  7950 layer_factory.hpp:77] Creating layer rpn_big_bbox_pred
I0413 16:08:55.159327  7950 net.cpp:100] Creating Layer rpn_big_bbox_pred
I0413 16:08:55.159333  7950 net.cpp:434] rpn_big_bbox_pred <- rpn_big_output_box
I0413 16:08:55.159348  7950 net.cpp:408] rpn_big_bbox_pred -> rpn_big_bbox_pred
I0413 16:08:55.163522  7950 net.cpp:150] Setting up rpn_big_bbox_pred
I0413 16:08:55.163545  7950 net.cpp:157] Top shape: 1 104 61 92 (583648)
I0413 16:08:55.163552  7950 net.cpp:165] Memory required for data: 3618607408
I0413 16:08:55.163573  7950 layer_factory.hpp:77] Creating layer rpn_big_bbox_pred_rpn_big_bbox_pred_0_split
I0413 16:08:55.163590  7950 net.cpp:100] Creating Layer rpn_big_bbox_pred_rpn_big_bbox_pred_0_split
I0413 16:08:55.163599  7950 net.cpp:434] rpn_big_bbox_pred_rpn_big_bbox_pred_0_split <- rpn_big_bbox_pred
I0413 16:08:55.163610  7950 net.cpp:408] rpn_big_bbox_pred_rpn_big_bbox_pred_0_split -> rpn_big_bbox_pred_rpn_big_bbox_pred_0_split_0
I0413 16:08:55.163625  7950 net.cpp:408] rpn_big_bbox_pred_rpn_big_bbox_pred_0_split -> rpn_big_bbox_pred_rpn_big_bbox_pred_0_split_1
I0413 16:08:55.163671  7950 net.cpp:150] Setting up rpn_big_bbox_pred_rpn_big_bbox_pred_0_split
I0413 16:08:55.163681  7950 net.cpp:157] Top shape: 1 104 61 92 (583648)
I0413 16:08:55.163688  7950 net.cpp:157] Top shape: 1 104 61 92 (583648)
I0413 16:08:55.163696  7950 net.cpp:165] Memory required for data: 3623276592
I0413 16:08:55.163702  7950 layer_factory.hpp:77] Creating layer rpn_big_loss_bbox
I0413 16:08:55.164062  7950 net.cpp:100] Creating Layer rpn_big_loss_bbox
I0413 16:08:55.164072  7950 net.cpp:434] rpn_big_loss_bbox <- rpn_big_bbox_pred_rpn_big_bbox_pred_0_split_0
I0413 16:08:55.164082  7950 net.cpp:434] rpn_big_loss_bbox <- rpn_big_anchor_target_bbox_targets
I0413 16:08:55.164089  7950 net.cpp:434] rpn_big_loss_bbox <- rpn_big_anchor_target_inside_weights
I0413 16:08:55.164098  7950 net.cpp:434] rpn_big_loss_bbox <- rpn_big_anchor_target_outside_weights
I0413 16:08:55.164111  7950 net.cpp:408] rpn_big_loss_bbox -> rpn_big_loss_bbox
I0413 16:08:55.166548  7950 net.cpp:150] Setting up rpn_big_loss_bbox
I0413 16:08:55.166584  7950 net.cpp:157] Top shape: 1 (1)
I0413 16:08:55.166590  7950 net.cpp:160]     with loss weight 1
I0413 16:08:55.166606  7950 net.cpp:165] Memory required for data: 3623276596
I0413 16:08:55.166616  7950 layer_factory.hpp:77] Creating layer proposal
I0413 16:08:55.169109  7950 net.cpp:100] Creating Layer proposal
I0413 16:08:55.169137  7950 net.cpp:434] proposal <- rpn_big_cls_prob_reshape_rpn_big_cls_prob_reshape_0_split_1
I0413 16:08:55.169157  7950 net.cpp:434] proposal <- rpn_big_bbox_pred_rpn_big_bbox_pred_0_split_1
…
