…
I0413 15:59:29.514024  7391 solver.cpp:48] Initializing solver from parameters: 
base_lr: 0.001
display: 20
lr_policy: "multistep"
gamma: 0.1
momentum: 0.9
weight_decay: 0.0005
snapshot: 0
snapshot_prefix: "faces_example"
net_param {
  name: "GeneratedModel_13_04_2017_15_59"
  layer {
    name: "input"
    type: "Python"
    top: "input_data"
    top: "input_im_info"
    top: "input_gt_boxes"
    top: "input_ignored_boxes"
    python_param {
      module: "layers.roi_data_layer"
      layer: "RoIDataLayer"
      param_str: "{\"num_classes\": 2}"
    }
  }
  layer {
    name: "conv1_1"
    type: "Convolution"
    bottom: "input_data"
    top: "conv1_1"
    param {
      lr_mult: 0
      decay_mult: 0
    }
    param {
      lr_mult: 0
      decay_mult: 0
    }
    convolution_param {
      num_output: 64
      pad: 1
      kernel_size: 3
    }
  }
  layer {
    name: "relu1_1"
    type: "ReLU"
    bottom: "conv1_1"
    top: "conv1_1"
  }
  layer {
    name: "conv1_2"
    type: "Convolution"
    bottom: "conv1_1"
    top: "conv1_2"
    param {
      lr_mult: 0
      decay_mult: 0
    }
    param {
      lr_mult: 0
      decay_mult: 0
    }
    convolution_param {
      num_output: 64
      pad: 1
      kernel_size: 3
    }
  }
  layer {
    name: "relu1_2"
    type: "ReLU"
    bottom: "conv1_2"
    top: "conv1_2"
  }
  layer {
    name: "pool1"
    type: "Pooling"
    bottom: "conv1_2"
    top: "pool1"
    pooling_param {
      pool: MAX
      kernel_size: 2
      stride: 2
    }
  }
  layer {
    name: "conv2_1"
    type: "Convolution"
    bottom: "pool1"
    top: "conv2_1"
    param {
      lr_mult: 0
      decay_mult: 0
    }
    param {
      lr_mult: 0
      decay_mult: 0
    }
    convolution_param {
      num_output: 128
      pad: 1
      kernel_size: 3
    }
  }
  layer {
    name: "relu2_1"
    type: "ReLU"
    bottom: "conv2_1"
    top: "conv2_1"
  }
  layer {
    name: "conv2_2"
    type: "Convolution"
    bottom: "conv2_1"
    top: "conv2_2"
    param {
      lr_mult: 0
      decay_mult: 0
    }
    param {
      lr_mult: 0
      decay_mult: 0
    }
    convolution_param {
      num_output: 128
      pad: 1
      kernel_size: 3
    }
  }
  layer {
    name: "relu2_2"
    type: "ReLU"
    bottom: "conv2_2"
    top: "conv2_2"
  }
  layer {
    name: "pool2"
    type: "Pooling"
    bottom: "conv2_2"
    top: "pool2"
    pooling_param {
      pool: MAX
      kernel_size: 2
      stride: 2
    }
  }
  layer {
    name: "conv3_1"
    type: "Convolution"
    bottom: "pool2"
    top: "conv3_1"
    param {
      lr_mult: 1
    }
    param {
      lr_mult: 2
    }
    convolution_param {
      num_output: 256
      pad: 1
      kernel_size: 3
    }
  }
  layer {
    name: "relu3_1"
    type: "ReLU"
    bottom: "conv3_1"
    top: "conv3_1"
  }
  layer {
    name: "conv3_2"
    type: "Convolution"
    bottom: "conv3_1"
    top: "conv3_2"
    param {
      lr_mult: 1
    }
    param {
      lr_mult: 2
    }
    convolution_param {
      num_output: 256
      pad: 1
      kernel_size: 3
    }
  }
  layer {
    name: "relu3_2"
    type: "ReLU"
    bottom: "conv3_2"
    top: "conv3_2"
  }
  layer {
    name: "conv3_3"
    type: "Convolution"
    bottom: "conv3_2"
    top: "conv3_3"
    param {
      lr_mult: 1
    }
    param {
      lr_mult: 2
    }
    convolution_param {
      num_output: 256
      pad: 1
      kernel_size: 3
    }
  }
  layer {
    name: "relu3_3"
    type: "ReLU"
    bottom: "conv3_3"
    top: "conv3_3"
  }
  layer {
    name: "pool3"
    type: "Pooling"
    bottom: "conv3_3"
    top: "pool3"
    pooling_param {
      pool: MAX
      kernel_size: 2
      stride: 2
    }
  }
  layer {
    name: "conv4_1"
    type: "Convolution"
    bottom: "pool3"
    top: "conv4_1"
    param {
      lr_mult: 1
    }
    param {
      lr_mult: 2
    }
    convolution_param {
      num_output: 512
      pad: 1
      kernel_size: 3
    }
  }
  layer {
    name: "relu4_1"
    type: "ReLU"
    bottom: "conv4_1"
    top: "conv4_1"
  }
  layer {
    name: "conv4_2"
    type: "Convolution"
    bottom: "conv4_1"
    top: "conv4_2"
    param {
      lr_mult: 1
    }
    param {
      lr_mult: 2
    }
    convolution_param {
      num_output: 512
      pad: 1
      kernel_size: 3
    }
  }
  layer {
    name: "relu4_2"
    type: "ReLU"
    bottom: "conv4_2"
    top: "conv4_2"
  }
  layer {
    name: "conv4_3"
    type: "Convolution"
    bottom: "conv4_2"
    top: "conv4_3"
    param {
      lr_mult: 1
    }
    param {
      lr_mult: 2
    }
    convolution_param {
      num_output: 512
      pad: 1
      kernel_size: 3
    }
  }
  layer {
    name: "relu4_3"
    type: "ReLU"
    bottom: "conv4_3"
    top: "conv4_3"
  }
  layer {
    name: "pool4"
    type: "Pooling"
    bottom: "conv4_3"
    top: "pool4"
    pooling_param {
      pool: MAX
      kernel_size: 2
      stride: 2
    }
  }
  layer {
    name: "conv5_1"
    type: "Convolution"
    bottom: "pool4"
    top: "conv5_1"
    param {
      lr_mult: 1
    }
    param {
      lr_mult: 2
    }
    convolution_param {
      num_output: 512
      pad: 1
      kernel_size: 3
    }
  }
  layer {
    name: "relu5_1"
    type: "ReLU"
    bottom: "conv5_1"
    top: "conv5_1"
  }
  layer {
    name: "conv5_2"
    type: "Convolution"
    bottom: "conv5_1"
    top: "conv5_2"
    param {
      lr_mult: 1
    }
    param {
      lr_mult: 2
    }
    convolution_param {
      num_output: 512
      pad: 1
      kernel_size: 3
    }
  }
  layer {
    name: "relu5_2"
    type: "ReLU"
    bottom: "conv5_2"
    top: "conv5_2"
  }
  layer {
    name: "conv5_3"
    type: "Convolution"
    bottom: "conv5_2"
    top: "conv5_3"
    param {
      lr_mult: 1
    }
    param {
      lr_mult: 2
    }
    convolution_param {
      num_output: 512
      pad: 1
      kernel_size: 3
    }
  }
  layer {
    name: "relu5_3"
    type: "ReLU"
    bottom: "conv5_3"
    top: "conv5_3"
  }
  layer {
    name: "rpn_big_conv1"
    type: "Convolution"
    bottom: "conv5_3"
    top: "rpn_big_conv1"
    param {
      lr_mult: 1
    }
    param {
      lr_mult: 2
    }
    convolution_param {
      num_output: 512
      pad: 1
      kernel_size: 3
      stride: 1
      weight_filler {
        type: "gaussian"
        mean: 0
        std: 0.01
      }
      bias_filler {
        type: "constant"
      }
    }
  }
  layer {
    name: "rpn_big_conv1_relu"
    type: "ReLU"
    bottom: "rpn_big_conv1"
    top: "rpn_big_conv1"
    relu_param {
      negative_slope: 0
    }
  }
  layer {
    name: "rpn_big_conv2"
    type: "Convolution"
    bottom: "rpn_big_conv1"
    top: "rpn_big_conv2"
    param {
      lr_mult: 1
    }
    param {
      lr_mult: 2
    }
    convolution_param {
      num_output: 512
      pad: 1
      kernel_size: 3
      stride: 1
      weight_filler {
        type: "gaussian"
        mean: 0
        std: 0.01
      }
      bias_filler {
        type: "constant"
      }
    }
  }
  layer {
    name: "rpn_big_conv2_relu"
    type: "ReLU"
    bottom: "rpn_big_conv2"
    top: "rpn_big_conv2"
    relu_param {
      negative_slope: 0
    }
  }
  layer {
    name: "rpn_big_conv2_drop"
    type: "Dropout"
    bottom: "rpn_big_conv2"
    top: "rpn_big_conv2"
    dropout_param {
      dropout_ratio: 0.3
    }
  }
  layer {
    name: "rpn_big_output_cls"
    type: "Convolution"
    bottom: "rpn_big_conv2"
    top: "rpn_big_output_cls"
    param {
      lr_mult: 1
    }
    param {
      lr_mult: 2
    }
    convolution_param {
      num_output: 384
      pad: 1
      kernel_size: 3
      stride: 1
      weight_filler {
        type: "gaussian"
        mean: 0
        std: 0.01
      }
      bias_filler {
        type: "constant"
      }
    }
  }
  layer {
    name: "rpn_big_output_cls_relu"
    type: "ReLU"
    bottom: "rpn_big_output_cls"
    top: "rpn_big_output_cls"
    relu_param {
      negative_slope: 0
    }
  }
  layer {
    name: "rpn_big_cls_score"
    type: "Convolution"
    bottom: "rpn_big_output_cls"
    top: "rpn_big_cls_score"
    param {
      lr_mult: 1
    }
    param {
      lr_mult: 2
    }
    convolution_param {
      num_output: 52
      pad: 0
      kernel_size: 3
      stride: 1
      weight_filler {
        type: "gaussian"
        mean: 0
        std: 0.01
      }
      bias_filler {
        type: "constant"
      }
    }
  }
  layer {
    name: "rpn_big_cls_score_reshape"
    type: "Reshape"
    bottom: "rpn_big_cls_score"
    top: "rpn_big_cls_score_reshape"
    reshape_param {
      shape {
        dim: 0
        dim: 2
        dim: -1
        dim: 0
      }
    }
  }
  layer {
    name: "rpn_big_cls_prob"
    type: "Softmax"
    bottom: "rpn_big_cls_score_reshape"
    top: "rpn_big_cls_prob"
  }
  layer {
    name: "rpn_big_cls_prob_reshape"
    type: "Reshape"
    bottom: "rpn_big_cls_prob"
    top: "rpn_big_cls_prob_reshape"
    reshape_param {
      shape {
        dim: 0
        dim: 52
        dim: -1
        dim: 0
      }
    }
  }
  layer {
    name: "rpn_big_anchor_target"
    type: "Python"
    bottom: "rpn_big_cls_score"
    bottom: "input_gt_boxes"
    bottom: "input_ignored_boxes"
    bottom: "input_im_info"
    bottom: "input_data"
    bottom: "rpn_big_cls_prob_reshape"
    top: "rpn_big_anchor_target_labels"
    top: "rpn_big_anchor_target_bbox_targets"
    top: "rpn_big_anchor_target_inside_weights"
    top: "rpn_big_anchor_target_outside_weights"
    python_param {
      module: "rpn.anchor_target_layer"
      layer: "AnchorTargetLayer"
      param_str: "{\"square_targets\": true, \"fg_fraction\": 0.5, \"name\": \"rpn_big\", \"anchor_shift_num_xy\": [[2, 2], [2, 2], [2, 2], [2, 2], [1, 1], [1, 1], [1, 1], [1, 1], [1, 1], [1, 1], [1, 1], [1, 1], [1, 1], [1, 1]], \"negative_overlap\": 0.4, \"positive_overlap\": 0.6, \"feat_stride\": 16, \"batchsize\": 256, \"num_classes\": 1, \"tn_fraction\": 0.2, \"anchor_scales\": [2.5, 3.025, 3.66025, 4.4289024999999995, 5.358972025, 6.484356150249999, 7.846070941802498, 9.493745839581022, 11.487432465893036, 13.899793283730574, 16.818749873313998, 20.350687346709933, 24.62433168951902, 29.795441344318014], \"anchor_ratios\": [1.0]}"
    }
  }
  layer {
    name: "rpn_big_loss_cls"
    type: "SoftmaxWithLoss"
    bottom: "rpn_big_cls_score_reshape"
    bottom: "rpn_big_anchor_target_labels"
    top: "rpn_big_loss_cls"
    loss_weight: 1
    propagate_down: true
    propagate_down: false
    loss_param {
      ignore_label: -1
      normalization: VALID
    }
  }
  layer {
    name: "rpn_big_output_box"
    type: "Convolution"
    bottom: "rpn_big_conv2"
    top: "rpn_big_output_box"
    param {
      lr_mult: 1
    }
    param {
      lr_mult: 2
    }
    convolution_param {
      num_output: 384
      pad: 1
      kernel_size: 3
      stride: 1
      weight_filler {
        type: "gaussian"
        mean: 0
        std: 0.01
      }
      bias_filler {
        type: "constant"
      }
    }
  }
  layer {
    name: "rpn_big_output_box_relu"
    type: "ReLU"
    bottom: "rpn_big_output_box"
    top: "rpn_big_output_box"
    relu_param {
      negative_slope: 0
    }
  }
  layer {
    name: "rpn_big_bbox_pred"
    type: "Convolution"
    bottom: "rpn_big_output_box"
    top: "rpn_big_bbox_pred"
    param {
      lr_mult: 1
    }
    param {
      lr_mult: 2
    }
    convolution_param {
      num_output: 104
      pad: 0
      kernel_size: 3
      stride: 1
      weight_filler {
        type: "gaussian"
        mean: 0
        std: 0.01
      }
      bias_filler {
        type: "constant"
      }
    }
  }
  layer {
    name: "rpn_big_loss_bbox"
    type: "Python"
    bottom: "rpn_big_bbox_pred"
    bottom: "rpn_big_anchor_target_bbox_targets"
    bottom: "rpn_big_anchor_target_inside_weights"
    bottom: "rpn_big_anchor_target_outside_weights"
    top: "rpn_big_loss_bbox"
    loss_weight: 1
    python_param {
      module: "layers.smooth_l1_loss"
      layer: "SmoothL1LossLayer"
      param_str: "{\"sigma\": 3}"
    }
  }
  layer {
    name: "proposal"
    type: "Python"
    bottom: "rpn_big_cls_prob_reshape"
    bottom: "rpn_big_bbox_pred"
    bottom: "input_im_info"
    top: "rpn_rois"
    python_param {
      module: "rpn.proposal_layer"
      layer: "ProposalLayer"
      param_str: "\'feat_stride\': 16 \n\'scales\': !!python/tuple [4, 8, 16, 32]"
    }
  }
}
average_loss: 100
stepvalue: 70000
stepvalue: 120000
iter_size: 2
I0413 15:59:29.514099  7391 solver.cpp:86] Creating training net specified in net_param.
I0413 15:59:29.514479  7391 net.cpp:58] Initializing net from parameters: 
name: "GeneratedModel_13_04_2017_15_59"
state {
  phase: TRAIN
}
layer {
  name: "input"
  type: "Python"
  top: "input_data"
  top: "input_im_info"
  top: "input_gt_boxes"
  top: "input_ignored_boxes"
  python_param {
    module: "layers.roi_data_layer"
    layer: "RoIDataLayer"
    param_str: "{\"num_classes\": 2}"
  }
}
layer {
  name: "conv1_1"
  type: "Convolution"
  bottom: "input_data"
  top: "conv1_1"
  param {
    lr_mult: 0
    decay_mult: 0
  }
  param {
    lr_mult: 0
    decay_mult: 0
  }
  convolution_param {
    num_output: 64
    pad: 1
    kernel_size: 3
  }
}
layer {
  name: "relu1_1"
  type: "ReLU"
  bottom: "conv1_1"
  top: "conv1_1"
}
layer {
  name: "conv1_2"
  type: "Convolution"
  bottom: "conv1_1"
  top: "conv1_2"
  param {
    lr_mult: 0
    decay_mult: 0
  }
  param {
    lr_mult: 0
    decay_mult: 0
  }
  convolution_param {
    num_output: 64
    pad: 1
    kernel_size: 3
  }
}
layer {
  name: "relu1_2"
  type: "ReLU"
  bottom: "conv1_2"
  top: "conv1_2"
}
layer {
  name: "pool1"
  type: "Pooling"
  bottom: "conv1_2"
  top: "pool1"
  pooling_param {
    pool: MAX
    kernel_size: 2
    stride: 2
  }
}
layer {
  name: "conv2_1"
  type: "Convolution"
  bottom: "pool1"
  top: "conv2_1"
  param {
    lr_mult: 0
    decay_mult: 0
  }
  param {
    lr_mult: 0
    decay_mult: 0
  }
  convolution_param {
    num_output: 128
    pad: 1
    kernel_size: 3
  }
}
layer {
  name: "relu2_1"
  type: "ReLU"
  bottom: "conv2_1"
  top: "conv2_1"
}
layer {
  name: "conv2_2"
  type: "Convolution"
  bottom: "conv2_1"
  top: "conv2_2"
  param {
    lr_mult: 0
    decay_mult: 0
  }
  param {
    lr_mult: 0
    decay_mult: 0
  }
  convolution_param {
    num_output: 128
    pad: 1
    kernel_size: 3
  }
}
layer {
  name: "relu2_2"
  type: "ReLU"
  bottom: "conv2_2"
  top: "conv2_2"
}
layer {
  name: "pool2"
  type: "Pooling"
  bottom: "conv2_2"
  top: "pool2"
  pooling_param {
    pool: MAX
    kernel_size: 2
    stride: 2
  }
}
layer {
  name: "conv3_1"
  type: "Convolution"
  bottom: "pool2"
  top: "conv3_1"
  param {
    lr_mult: 1
  }
  param {
    lr_mult: 2
  }
  convolution_param {
    num_output: 256
    pad: 1
    kernel_size: 3
  }
}
layer {
  name: "relu3_1"
  type: "ReLU"
  bottom: "conv3_1"
  top: "conv3_1"
}
layer {
  name: "conv3_2"
  type: "Convolution"
  bottom: "conv3_1"
  top: "conv3_2"
  param {
    lr_mult: 1
  }
  param {
    lr_mult: 2
  }
  convolution_param {
    num_output: 256
    pad: 1
    kernel_size: 3
  }
}
layer {
  name: "relu3_2"
  type: "ReLU"
  bottom: "conv3_2"
  top: "conv3_2"
}
layer {
  name: "conv3_3"
  type: "Convolution"
  bottom: "conv3_2"
  top: "conv3_3"
  param {
    lr_mult: 1
  }
  param {
    lr_mult: 2
  }
  convolution_param {
    num_output: 256
    pad: 1
    kernel_size: 3
  }
}
layer {
  name: "relu3_3"
  type: "ReLU"
  bottom: "conv3_3"
  top: "conv3_3"
}
layer {
  name: "pool3"
  type: "Pooling"
  bottom: "conv3_3"
  top: "pool3"
  pooling_param {
    pool: MAX
    kernel_size: 2
    stride: 2
  }
}
layer {
  name: "conv4_1"
  type: "Convolution"
  bottom: "pool3"
  top: "conv4_1"
  param {
    lr_mult: 1
  }
  param {
    lr_mult: 2
  }
  convolution_param {
    num_output: 512
    pad: 1
    kernel_size: 3
  }
}
layer {
  name: "relu4_1"
  type: "ReLU"
  bottom: "conv4_1"
  top: "conv4_1"
}
layer {
  name: "conv4_2"
  type: "Convolution"
  bottom: "conv4_1"
  top: "conv4_2"
  param {
    lr_mult: 1
  }
  param {
    lr_mult: 2
  }
  convolution_param {
    num_output: 512
    pad: 1
    kernel_size: 3
  }
}
layer {
  name: "relu4_2"
  type: "ReLU"
  bottom: "conv4_2"
  top: "conv4_2"
}
layer {
  name: "conv4_3"
  type: "Convolution"
  bottom: "conv4_2"
  top: "conv4_3"
  param {
    lr_mult: 1
  }
  param {
    lr_mult: 2
  }
  convolution_param {
    num_output: 512
    pad: 1
    kernel_size: 3
  }
}
layer {
  name: "relu4_3"
  type: "ReLU"
  bottom: "conv4_3"
  top: "conv4_3"
}
layer {
  name: "pool4"
  type: "Pooling"
  bottom: "conv4_3"
  top: "pool4"
  pooling_param {
    pool: MAX
    kernel_size: 2
    stride: 2
  }
}
layer {
  name: "conv5_1"
  type: "Convolution"
  bottom: "pool4"
  top: "conv5_1"
  param {
    lr_mult: 1
  }
  param {
    lr_mult: 2
  }
  convolution_param {
    num_output: 512
    pad: 1
    kernel_size: 3
  }
}
layer {
  name: "relu5_1"
  type: "ReLU"
  bottom: "conv5_1"
  top: "conv5_1"
}
layer {
  name: "conv5_2"
  type: "Convolution"
  bottom: "conv5_1"
  top: "conv5_2"
  param {
    lr_mult: 1
  }
  param {
    lr_mult: 2
  }
  convolution_param {
    num_output: 512
    pad: 1
    kernel_size: 3
  }
}
layer {
  name: "relu5_2"
  type: "ReLU"
  bottom: "conv5_2"
  top: "conv5_2"
}
layer {
  name: "conv5_3"
  type: "Convolution"
  bottom: "conv5_2"
  top: "conv5_3"
  param {
    lr_mult: 1
  }
  param {
    lr_mult: 2
  }
  convolution_param {
    num_output: 512
    pad: 1
    kernel_size: 3
  }
}
layer {
  name: "relu5_3"
  type: "ReLU"
  bottom: "conv5_3"
  top: "conv5_3"
}
layer {
  name: "rpn_big_conv1"
  type: "Convolution"
  bottom: "conv5_3"
  top: "rpn_big_conv1"
  param {
    lr_mult: 1
  }
  param {
    lr_mult: 2
  }
  convolution_param {
    num_output: 512
    pad: 1
    kernel_size: 3
    stride: 1
    weight_filler {
      type: "gaussian"
      mean: 0
      std: 0.01
    }
    bias_filler {
      type: "constant"
    }
  }
}
layer {
  name: "rpn_big_conv1_relu"
  type: "ReLU"
  bottom: "rpn_big_conv1"
  top: "rpn_big_conv1"
  relu_param {
    negative_slope: 0
  }
}
layer {
  name: "rpn_big_conv2"
  type: "Convolution"
  bottom: "rpn_big_conv1"
  top: "rpn_big_conv2"
  param {
    lr_mult: 1
  }
  param {
    lr_mult: 2
  }
  convolution_param {
    num_output: 512
    pad: 1
    kernel_size: 3
    stride: 1
    weight_filler {
      type: "gaussian"
      mean: 0
      std: 0.01
    }
    bias_filler {
      type: "constant"
    }
  }
}
layer {
  name: "rpn_big_conv2_relu"
  type: "ReLU"
  bottom: "rpn_big_conv2"
  top: "rpn_big_conv2"
  relu_param {
    negative_slope: 0
  }
}
layer {
  name: "rpn_big_conv2_drop"
  type: "Dropout"
  bottom: "rpn_big_conv2"
  top: "rpn_big_conv2"
  dropout_param {
    dropout_ratio: 0.3
  }
}
layer {
  name: "rpn_big_output_cls"
  type: "Convolution"
  bottom: "rpn_big_conv2"
  top: "rpn_big_output_cls"
  param {
    lr_mult: 1
  }
  param {
    lr_mult: 2
  }
  convolution_param {
    num_output: 384
    pad: 1
    kernel_size: 3
    stride: 1
    weight_filler {
      type: "gaussian"
      mean: 0
      std: 0.01
    }
    bias_filler {
      type: "constant"
    }
  }
}
layer {
  name: "rpn_big_output_cls_relu"
  type: "ReLU"
  bottom: "rpn_big_output_cls"
  top: "rpn_big_output_cls"
  relu_param {
    negative_slope: 0
  }
}
layer {
  name: "rpn_big_cls_score"
  type: "Convolution"
  bottom: "rpn_big_output_cls"
  top: "rpn_big_cls_score"
  param {
    lr_mult: 1
  }
  param {
    lr_mult: 2
  }
  convolution_param {
    num_output: 52
    pad: 0
    kernel_size: 3
    stride: 1
    weight_filler {
      type: "gaussian"
      mean: 0
      std: 0.01
    }
    bias_filler {
      type: "constant"
    }
  }
}
layer {
  name: "rpn_big_cls_score_reshape"
  type: "Reshape"
  bottom: "rpn_big_cls_score"
  top: "rpn_big_cls_score_reshape"
  reshape_param {
    shape {
      dim: 0
      dim: 2
      dim: -1
      dim: 0
    }
  }
}
layer {
  name: "rpn_big_cls_prob"
  type: "Softmax"
  bottom: "rpn_big_cls_score_reshape"
  top: "rpn_big_cls_prob"
}
layer {
  name: "rpn_big_cls_prob_reshape"
  type: "Reshape"
  bottom: "rpn_big_cls_prob"
  top: "rpn_big_cls_prob_reshape"
  reshape_param {
    shape {
      dim: 0
      dim: 52
      dim: -1
      dim: 0
    }
  }
}
layer {
  name: "rpn_big_anchor_target"
  type: "Python"
  bottom: "rpn_big_cls_score"
  bottom: "input_gt_boxes"
  bottom: "input_ignored_boxes"
  bottom: "input_im_info"
  bottom: "input_data"
  bottom: "rpn_big_cls_prob_reshape"
  top: "rpn_big_anchor_target_labels"
  top: "rpn_big_anchor_target_bbox_targets"
  top: "rpn_big_anchor_target_inside_weights"
  top: "rpn_big_anchor_target_outside_weights"
  python_param {
    module: "rpn.anchor_target_layer"
    layer: "AnchorTargetLayer"
    param_str: "{\"square_targets\": true, \"fg_fraction\": 0.5, \"name\": \"rpn_big\", \"anchor_shift_num_xy\": [[2, 2], [2, 2], [2, 2], [2, 2], [1, 1], [1, 1], [1, 1], [1, 1], [1, 1], [1, 1], [1, 1], [1, 1], [1, 1], [1, 1]], \"negative_overlap\": 0.4, \"positive_overlap\": 0.6, \"feat_stride\": 16, \"batchsize\": 256, \"num_classes\": 1, \"tn_fraction\": 0.2, \"anchor_scales\": [2.5, 3.025, 3.66025, 4.4289024999999995, 5.358972025, 6.484356150249999, 7.846070941802498, 9.493745839581022, 11.487432465893036, 13.899793283730574, 16.818749873313998, 20.350687346709933, 24.62433168951902, 29.795441344318014], \"anchor_ratios\": [1.0]}"
  }
}
layer {
  name: "rpn_big_loss_cls"
  type: "SoftmaxWithLoss"
  bottom: "rpn_big_cls_score_reshape"
  bottom: "rpn_big_anchor_target_labels"
  top: "rpn_big_loss_cls"
  loss_weight: 1
  propagate_down: true
  propagate_down: false
  loss_param {
    ignore_label: -1
    normalization: VALID
  }
}
layer {
  name: "rpn_big_output_box"
  type: "Convolution"
  bottom: "rpn_big_conv2"
  top: "rpn_big_output_box"
  param {
    lr_mult: 1
  }
  param {
    lr_mult: 2
  }
  convolution_param {
    num_output: 384
    pad: 1
    kernel_size: 3
    stride: 1
    weight_filler {
      type: "gaussian"
      mean: 0
      std: 0.01
    }
    bias_filler {
      type: "constant"
    }
  }
}
layer {
  name: "rpn_big_output_box_relu"
  type: "ReLU"
  bottom: "rpn_big_output_box"
  top: "rpn_big_output_box"
  relu_param {
    negative_slope: 0
  }
}
layer {
  name: "rpn_big_bbox_pred"
  type: "Convolution"
  bottom: "rpn_big_output_box"
  top: "rpn_big_bbox_pred"
  param {
    lr_mult: 1
  }
  param {
    lr_mult: 2
  }
  convolution_param {
    num_output: 104
    pad: 0
    kernel_size: 3
    stride: 1
    weight_filler {
      type: "gaussian"
      mean: 0
      std: 0.01
    }
    bias_filler {
      type: "constant"
    }
  }
}
layer {
  name: "rpn_big_loss_bbox"
  type: "Python"
  bottom: "rpn_big_bbox_pred"
  bottom: "rpn_big_anchor_target_bbox_targets"
  bottom: "rpn_big_anchor_target_inside_weights"
  bottom: "rpn_big_anchor_target_outside_weights"
  top: "rpn_big_loss_bbox"
  loss_weight: 1
  python_param {
    module: "layers.smooth_l1_loss"
    layer: "SmoothL1LossLayer"
    param_str: "{\"sigma\": 3}"
  }
}
layer {
  name: "proposal"
  type: "Python"
  bottom: "rpn_big_cls_prob_reshape"
  bottom: "rpn_big_bbox_pred"
  bottom: "input_im_info"
  top: "rpn_rois"
  python_param {
    module: "rpn.proposal_layer"
    layer: "ProposalLayer"
    param_str: "\'feat_stride\': 16 \n\'scales\': !!python/tuple [4, 8, 16, 32]"
  }
}
I0413 15:59:29.514678  7391 layer_factory.hpp:77] Creating layer input
I0413 15:59:29.515947  7391 net.cpp:100] Creating Layer input
I0413 15:59:29.515969  7391 net.cpp:408] input -> input_data
I0413 15:59:29.515986  7391 net.cpp:408] input -> input_im_info
I0413 15:59:29.515998  7391 net.cpp:408] input -> input_gt_boxes
I0413 15:59:29.516008  7391 net.cpp:408] input -> input_ignored_boxes
RoiDataLayer: name_to_top: {'data': 0, 'gt_boxes': 2, 'ignored_boxes': 3, 'im_info': 1}
I0413 15:59:29.841639  7391 net.cpp:150] Setting up input
I0413 15:59:29.841675  7391 net.cpp:157] Top shape: 1 3 1000 1500 (4500000)
I0413 15:59:29.841687  7391 net.cpp:157] Top shape: 1 3 (3)
I0413 15:59:29.841696  7391 net.cpp:157] Top shape: 1 5 (5)
I0413 15:59:29.841704  7391 net.cpp:157] Top shape: 1 5 (5)
I0413 15:59:29.841711  7391 net.cpp:165] Memory required for data: 18000052
I0413 15:59:29.841720  7391 layer_factory.hpp:77] Creating layer input_data_input_0_split
I0413 15:59:29.841739  7391 net.cpp:100] Creating Layer input_data_input_0_split
I0413 15:59:29.841748  7391 net.cpp:434] input_data_input_0_split <- input_data
I0413 15:59:29.841761  7391 net.cpp:408] input_data_input_0_split -> input_data_input_0_split_0
I0413 15:59:29.841780  7391 net.cpp:408] input_data_input_0_split -> input_data_input_0_split_1
I0413 15:59:29.841832  7391 net.cpp:150] Setting up input_data_input_0_split
I0413 15:59:29.841843  7391 net.cpp:157] Top shape: 1 3 1000 1500 (4500000)
I0413 15:59:29.841852  7391 net.cpp:157] Top shape: 1 3 1000 1500 (4500000)
I0413 15:59:29.841858  7391 net.cpp:165] Memory required for data: 54000052
I0413 15:59:29.841864  7391 layer_factory.hpp:77] Creating layer input_im_info_input_1_split
I0413 15:59:29.841873  7391 net.cpp:100] Creating Layer input_im_info_input_1_split
I0413 15:59:29.841879  7391 net.cpp:434] input_im_info_input_1_split <- input_im_info
I0413 15:59:29.841888  7391 net.cpp:408] input_im_info_input_1_split -> input_im_info_input_1_split_0
I0413 15:59:29.841898  7391 net.cpp:408] input_im_info_input_1_split -> input_im_info_input_1_split_1
I0413 15:59:29.841938  7391 net.cpp:150] Setting up input_im_info_input_1_split
I0413 15:59:29.841948  7391 net.cpp:157] Top shape: 1 3 (3)
I0413 15:59:29.841955  7391 net.cpp:157] Top shape: 1 3 (3)
I0413 15:59:29.841961  7391 net.cpp:165] Memory required for data: 54000076
I0413 15:59:29.841967  7391 layer_factory.hpp:77] Creating layer conv1_1
I0413 15:59:29.841981  7391 net.cpp:100] Creating Layer conv1_1
I0413 15:59:29.841989  7391 net.cpp:434] conv1_1 <- input_data_input_0_split_0
I0413 15:59:29.841998  7391 net.cpp:408] conv1_1 -> conv1_1
I0413 15:59:29.845280  7391 net.cpp:150] Setting up conv1_1
I0413 15:59:29.845315  7391 net.cpp:157] Top shape: 1 64 1000 1500 (96000000)
I0413 15:59:29.845319  7391 net.cpp:165] Memory required for data: 438000076
I0413 15:59:29.845341  7391 layer_factory.hpp:77] Creating layer relu1_1
I0413 15:59:29.845360  7391 net.cpp:100] Creating Layer relu1_1
I0413 15:59:29.845367  7391 net.cpp:434] relu1_1 <- conv1_1
I0413 15:59:29.845377  7391 net.cpp:395] relu1_1 -> conv1_1 (in-place)
I0413 15:59:29.845391  7391 net.cpp:150] Setting up relu1_1
I0413 15:59:29.845399  7391 net.cpp:157] Top shape: 1 64 1000 1500 (96000000)
I0413 15:59:29.845404  7391 net.cpp:165] Memory required for data: 822000076
I0413 15:59:29.845408  7391 layer_factory.hpp:77] Creating layer conv1_2
I0413 15:59:29.845422  7391 net.cpp:100] Creating Layer conv1_2
I0413 15:59:29.845427  7391 net.cpp:434] conv1_2 <- conv1_1
I0413 15:59:29.845438  7391 net.cpp:408] conv1_2 -> conv1_2
I0413 15:59:29.848711  7391 net.cpp:150] Setting up conv1_2
I0413 15:59:29.848749  7391 net.cpp:157] Top shape: 1 64 1000 1500 (96000000)
I0413 15:59:29.848753  7391 net.cpp:165] Memory required for data: 1206000076
I0413 15:59:29.848775  7391 layer_factory.hpp:77] Creating layer relu1_2
I0413 15:59:29.848789  7391 net.cpp:100] Creating Layer relu1_2
I0413 15:59:29.848798  7391 net.cpp:434] relu1_2 <- conv1_2
I0413 15:59:29.848810  7391 net.cpp:395] relu1_2 -> conv1_2 (in-place)
I0413 15:59:29.848825  7391 net.cpp:150] Setting up relu1_2
I0413 15:59:29.848835  7391 net.cpp:157] Top shape: 1 64 1000 1500 (96000000)
I0413 15:59:29.848840  7391 net.cpp:165] Memory required for data: 1590000076
I0413 15:59:29.848845  7391 layer_factory.hpp:77] Creating layer pool1
I0413 15:59:29.848856  7391 net.cpp:100] Creating Layer pool1
I0413 15:59:29.848865  7391 net.cpp:434] pool1 <- conv1_2
I0413 15:59:29.848873  7391 net.cpp:408] pool1 -> pool1
I0413 15:59:29.848974  7391 net.cpp:150] Setting up pool1
I0413 15:59:29.848987  7391 net.cpp:157] Top shape: 1 64 500 750 (24000000)
I0413 15:59:29.848995  7391 net.cpp:165] Memory required for data: 1686000076
I0413 15:59:29.849000  7391 layer_factory.hpp:77] Creating layer conv2_1
I0413 15:59:29.849019  7391 net.cpp:100] Creating Layer conv2_1
I0413 15:59:29.849026  7391 net.cpp:434] conv2_1 <- pool1
I0413 15:59:29.849040  7391 net.cpp:408] conv2_1 -> conv2_1
I0413 15:59:29.850400  7391 net.cpp:150] Setting up conv2_1
I0413 15:59:29.850424  7391 net.cpp:157] Top shape: 1 128 500 750 (48000000)
I0413 15:59:29.850426  7391 net.cpp:165] Memory required for data: 1878000076
I0413 15:59:29.850443  7391 layer_factory.hpp:77] Creating layer relu2_1
I0413 15:59:29.850456  7391 net.cpp:100] Creating Layer relu2_1
I0413 15:59:29.850463  7391 net.cpp:434] relu2_1 <- conv2_1
I0413 15:59:29.850472  7391 net.cpp:395] relu2_1 -> conv2_1 (in-place)
I0413 15:59:29.850486  7391 net.cpp:150] Setting up relu2_1
I0413 15:59:29.850494  7391 net.cpp:157] Top shape: 1 128 500 750 (48000000)
I0413 15:59:29.850499  7391 net.cpp:165] Memory required for data: 2070000076
I0413 15:59:29.850504  7391 layer_factory.hpp:77] Creating layer conv2_2
I0413 15:59:29.850519  7391 net.cpp:100] Creating Layer conv2_2
I0413 15:59:29.850527  7391 net.cpp:434] conv2_2 <- conv2_1
I0413 15:59:29.850538  7391 net.cpp:408] conv2_2 -> conv2_2
I0413 15:59:29.851564  7391 net.cpp:150] Setting up conv2_2
I0413 15:59:29.851588  7391 net.cpp:157] Top shape: 1 128 500 750 (48000000)
I0413 15:59:29.851590  7391 net.cpp:165] Memory required for data: 2262000076
I0413 15:59:29.851603  7391 layer_factory.hpp:77] Creating layer relu2_2
I0413 15:59:29.851618  7391 net.cpp:100] Creating Layer relu2_2
I0413 15:59:29.851626  7391 net.cpp:434] relu2_2 <- conv2_2
I0413 15:59:29.851636  7391 net.cpp:395] relu2_2 -> conv2_2 (in-place)
I0413 15:59:29.851647  7391 net.cpp:150] Setting up relu2_2
I0413 15:59:29.851657  7391 net.cpp:157] Top shape: 1 128 500 750 (48000000)
I0413 15:59:29.851665  7391 net.cpp:165] Memory required for data: 2454000076
I0413 15:59:29.851670  7391 layer_factory.hpp:77] Creating layer pool2
I0413 15:59:29.851678  7391 net.cpp:100] Creating Layer pool2
I0413 15:59:29.851686  7391 net.cpp:434] pool2 <- conv2_2
I0413 15:59:29.851696  7391 net.cpp:408] pool2 -> pool2
I0413 15:59:29.851753  7391 net.cpp:150] Setting up pool2
I0413 15:59:29.851766  7391 net.cpp:157] Top shape: 1 128 250 375 (12000000)
I0413 15:59:29.851773  7391 net.cpp:165] Memory required for data: 2502000076
I0413 15:59:29.851779  7391 layer_factory.hpp:77] Creating layer conv3_1
I0413 15:59:29.851794  7391 net.cpp:100] Creating Layer conv3_1
I0413 15:59:29.851800  7391 net.cpp:434] conv3_1 <- pool2
I0413 15:59:29.851810  7391 net.cpp:408] conv3_1 -> conv3_1
I0413 15:59:29.853068  7391 net.cpp:150] Setting up conv3_1
I0413 15:59:29.853094  7391 net.cpp:157] Top shape: 1 256 250 375 (24000000)
I0413 15:59:29.853098  7391 net.cpp:165] Memory required for data: 2598000076
I0413 15:59:29.853121  7391 layer_factory.hpp:77] Creating layer relu3_1
I0413 15:59:29.853133  7391 net.cpp:100] Creating Layer relu3_1
I0413 15:59:29.853142  7391 net.cpp:434] relu3_1 <- conv3_1
I0413 15:59:29.853152  7391 net.cpp:395] relu3_1 -> conv3_1 (in-place)
I0413 15:59:29.853166  7391 net.cpp:150] Setting up relu3_1
I0413 15:59:29.853175  7391 net.cpp:157] Top shape: 1 256 250 375 (24000000)
I0413 15:59:29.853180  7391 net.cpp:165] Memory required for data: 2694000076
I0413 15:59:29.853186  7391 layer_factory.hpp:77] Creating layer conv3_2
I0413 15:59:29.853199  7391 net.cpp:100] Creating Layer conv3_2
I0413 15:59:29.853205  7391 net.cpp:434] conv3_2 <- conv3_1
I0413 15:59:29.853216  7391 net.cpp:408] conv3_2 -> conv3_2
I0413 15:59:29.854502  7391 net.cpp:150] Setting up conv3_2
I0413 15:59:29.854527  7391 net.cpp:157] Top shape: 1 256 250 375 (24000000)
I0413 15:59:29.854532  7391 net.cpp:165] Memory required for data: 2790000076
I0413 15:59:29.854542  7391 layer_factory.hpp:77] Creating layer relu3_2
I0413 15:59:29.854560  7391 net.cpp:100] Creating Layer relu3_2
I0413 15:59:29.854569  7391 net.cpp:434] relu3_2 <- conv3_2
I0413 15:59:29.854579  7391 net.cpp:395] relu3_2 -> conv3_2 (in-place)
I0413 15:59:29.854593  7391 net.cpp:150] Setting up relu3_2
I0413 15:59:29.854602  7391 net.cpp:157] Top shape: 1 256 250 375 (24000000)
I0413 15:59:29.854609  7391 net.cpp:165] Memory required for data: 2886000076
I0413 15:59:29.854614  7391 layer_factory.hpp:77] Creating layer conv3_3
I0413 15:59:29.854629  7391 net.cpp:100] Creating Layer conv3_3
I0413 15:59:29.854635  7391 net.cpp:434] conv3_3 <- conv3_2
I0413 15:59:29.854645  7391 net.cpp:408] conv3_3 -> conv3_3
I0413 15:59:29.856333  7391 net.cpp:150] Setting up conv3_3
I0413 15:59:29.856367  7391 net.cpp:157] Top shape: 1 256 250 375 (24000000)
I0413 15:59:29.856371  7391 net.cpp:165] Memory required for data: 2982000076
I0413 15:59:29.856384  7391 layer_factory.hpp:77] Creating layer relu3_3
I0413 15:59:29.856398  7391 net.cpp:100] Creating Layer relu3_3
I0413 15:59:29.856407  7391 net.cpp:434] relu3_3 <- conv3_3
I0413 15:59:29.856420  7391 net.cpp:395] relu3_3 -> conv3_3 (in-place)
I0413 15:59:29.856433  7391 net.cpp:150] Setting up relu3_3
I0413 15:59:29.856443  7391 net.cpp:157] Top shape: 1 256 250 375 (24000000)
I0413 15:59:29.856448  7391 net.cpp:165] Memory required for data: 3078000076
I0413 15:59:29.856453  7391 layer_factory.hpp:77] Creating layer pool3
I0413 15:59:29.856467  7391 net.cpp:100] Creating Layer pool3
I0413 15:59:29.856474  7391 net.cpp:434] pool3 <- conv3_3
I0413 15:59:29.856484  7391 net.cpp:408] pool3 -> pool3
I0413 15:59:29.856546  7391 net.cpp:150] Setting up pool3
I0413 15:59:29.856559  7391 net.cpp:157] Top shape: 1 256 125 188 (6016000)
I0413 15:59:29.856564  7391 net.cpp:165] Memory required for data: 3102064076
I0413 15:59:29.856570  7391 layer_factory.hpp:77] Creating layer conv4_1
I0413 15:59:29.856582  7391 net.cpp:100] Creating Layer conv4_1
I0413 15:59:29.856590  7391 net.cpp:434] conv4_1 <- pool3
I0413 15:59:29.856600  7391 net.cpp:408] conv4_1 -> conv4_1
I0413 15:59:29.861274  7391 net.cpp:150] Setting up conv4_1
I0413 15:59:29.861307  7391 net.cpp:157] Top shape: 1 512 125 188 (12032000)
I0413 15:59:29.861311  7391 net.cpp:165] Memory required for data: 3150192076
I0413 15:59:29.861321  7391 layer_factory.hpp:77] Creating layer relu4_1
I0413 15:59:29.861335  7391 net.cpp:100] Creating Layer relu4_1
I0413 15:59:29.861341  7391 net.cpp:434] relu4_1 <- conv4_1
I0413 15:59:29.861353  7391 net.cpp:395] relu4_1 -> conv4_1 (in-place)
I0413 15:59:29.861369  7391 net.cpp:150] Setting up relu4_1
I0413 15:59:29.861378  7391 net.cpp:157] Top shape: 1 512 125 188 (12032000)
I0413 15:59:29.861383  7391 net.cpp:165] Memory required for data: 3198320076
I0413 15:59:29.861388  7391 layer_factory.hpp:77] Creating layer conv4_2
I0413 15:59:29.861399  7391 net.cpp:100] Creating Layer conv4_2
I0413 15:59:29.861405  7391 net.cpp:434] conv4_2 <- conv4_1
I0413 15:59:29.861415  7391 net.cpp:408] conv4_2 -> conv4_2
I0413 15:59:29.865753  7391 net.cpp:150] Setting up conv4_2
I0413 15:59:29.865788  7391 net.cpp:157] Top shape: 1 512 125 188 (12032000)
I0413 15:59:29.865792  7391 net.cpp:165] Memory required for data: 3246448076
I0413 15:59:29.865810  7391 layer_factory.hpp:77] Creating layer relu4_2
I0413 15:59:29.865821  7391 net.cpp:100] Creating Layer relu4_2
I0413 15:59:29.865835  7391 net.cpp:434] relu4_2 <- conv4_2
I0413 15:59:29.865842  7391 net.cpp:395] relu4_2 -> conv4_2 (in-place)
I0413 15:59:29.865854  7391 net.cpp:150] Setting up relu4_2
I0413 15:59:29.865862  7391 net.cpp:157] Top shape: 1 512 125 188 (12032000)
I0413 15:59:29.865867  7391 net.cpp:165] Memory required for data: 3294576076
I0413 15:59:29.865872  7391 layer_factory.hpp:77] Creating layer conv4_3
I0413 15:59:29.865886  7391 net.cpp:100] Creating Layer conv4_3
I0413 15:59:29.865893  7391 net.cpp:434] conv4_3 <- conv4_2
I0413 15:59:29.865901  7391 net.cpp:408] conv4_3 -> conv4_3
I0413 15:59:29.870232  7391 net.cpp:150] Setting up conv4_3
I0413 15:59:29.870270  7391 net.cpp:157] Top shape: 1 512 125 188 (12032000)
I0413 15:59:29.870272  7391 net.cpp:165] Memory required for data: 3342704076
I0413 15:59:29.870283  7391 layer_factory.hpp:77] Creating layer relu4_3
I0413 15:59:29.870296  7391 net.cpp:100] Creating Layer relu4_3
I0413 15:59:29.870302  7391 net.cpp:434] relu4_3 <- conv4_3
I0413 15:59:29.870318  7391 net.cpp:395] relu4_3 -> conv4_3 (in-place)
I0413 15:59:29.870332  7391 net.cpp:150] Setting up relu4_3
I0413 15:59:29.870342  7391 net.cpp:157] Top shape: 1 512 125 188 (12032000)
I0413 15:59:29.870347  7391 net.cpp:165] Memory required for data: 3390832076
I0413 15:59:29.870352  7391 layer_factory.hpp:77] Creating layer pool4
I0413 15:59:29.870362  7391 net.cpp:100] Creating Layer pool4
I0413 15:59:29.870367  7391 net.cpp:434] pool4 <- conv4_3
I0413 15:59:29.870375  7391 net.cpp:408] pool4 -> pool4
I0413 15:59:29.870427  7391 net.cpp:150] Setting up pool4
I0413 15:59:29.870438  7391 net.cpp:157] Top shape: 1 512 63 94 (3032064)
I0413 15:59:29.870443  7391 net.cpp:165] Memory required for data: 3402960332
I0413 15:59:29.870448  7391 layer_factory.hpp:77] Creating layer conv5_1
I0413 15:59:29.870463  7391 net.cpp:100] Creating Layer conv5_1
I0413 15:59:29.870471  7391 net.cpp:434] conv5_1 <- pool4
I0413 15:59:29.870481  7391 net.cpp:408] conv5_1 -> conv5_1
I0413 15:59:29.875241  7391 net.cpp:150] Setting up conv5_1
I0413 15:59:29.875277  7391 net.cpp:157] Top shape: 1 512 63 94 (3032064)
I0413 15:59:29.875282  7391 net.cpp:165] Memory required for data: 3415088588
I0413 15:59:29.875293  7391 layer_factory.hpp:77] Creating layer relu5_1
I0413 15:59:29.875308  7391 net.cpp:100] Creating Layer relu5_1
I0413 15:59:29.875319  7391 net.cpp:434] relu5_1 <- conv5_1
I0413 15:59:29.875330  7391 net.cpp:395] relu5_1 -> conv5_1 (in-place)
I0413 15:59:29.875344  7391 net.cpp:150] Setting up relu5_1
I0413 15:59:29.875354  7391 net.cpp:157] Top shape: 1 512 63 94 (3032064)
I0413 15:59:29.875360  7391 net.cpp:165] Memory required for data: 3427216844
I0413 15:59:29.875365  7391 layer_factory.hpp:77] Creating layer conv5_2
I0413 15:59:29.875381  7391 net.cpp:100] Creating Layer conv5_2
I0413 15:59:29.875389  7391 net.cpp:434] conv5_2 <- conv5_1
I0413 15:59:29.875403  7391 net.cpp:408] conv5_2 -> conv5_2
I0413 15:59:29.879788  7391 net.cpp:150] Setting up conv5_2
I0413 15:59:29.879822  7391 net.cpp:157] Top shape: 1 512 63 94 (3032064)
I0413 15:59:29.879827  7391 net.cpp:165] Memory required for data: 3439345100
I0413 15:59:29.879835  7391 layer_factory.hpp:77] Creating layer relu5_2
I0413 15:59:29.879845  7391 net.cpp:100] Creating Layer relu5_2
I0413 15:59:29.879850  7391 net.cpp:434] relu5_2 <- conv5_2
I0413 15:59:29.879858  7391 net.cpp:395] relu5_2 -> conv5_2 (in-place)
I0413 15:59:29.879866  7391 net.cpp:150] Setting up relu5_2
I0413 15:59:29.879871  7391 net.cpp:157] Top shape: 1 512 63 94 (3032064)
I0413 15:59:29.879874  7391 net.cpp:165] Memory required for data: 3451473356
I0413 15:59:29.879878  7391 layer_factory.hpp:77] Creating layer conv5_3
I0413 15:59:29.879886  7391 net.cpp:100] Creating Layer conv5_3
I0413 15:59:29.879890  7391 net.cpp:434] conv5_3 <- conv5_2
I0413 15:59:29.879896  7391 net.cpp:408] conv5_3 -> conv5_3
I0413 15:59:29.884361  7391 net.cpp:150] Setting up conv5_3
I0413 15:59:29.884397  7391 net.cpp:157] Top shape: 1 512 63 94 (3032064)
I0413 15:59:29.884402  7391 net.cpp:165] Memory required for data: 3463601612
I0413 15:59:29.884412  7391 layer_factory.hpp:77] Creating layer relu5_3
I0413 15:59:29.884431  7391 net.cpp:100] Creating Layer relu5_3
I0413 15:59:29.884439  7391 net.cpp:434] relu5_3 <- conv5_3
I0413 15:59:29.884452  7391 net.cpp:395] relu5_3 -> conv5_3 (in-place)
I0413 15:59:29.884466  7391 net.cpp:150] Setting up relu5_3
I0413 15:59:29.884474  7391 net.cpp:157] Top shape: 1 512 63 94 (3032064)
I0413 15:59:29.884479  7391 net.cpp:165] Memory required for data: 3475729868
I0413 15:59:29.884483  7391 layer_factory.hpp:77] Creating layer rpn_big_conv1
I0413 15:59:29.884500  7391 net.cpp:100] Creating Layer rpn_big_conv1
I0413 15:59:29.884505  7391 net.cpp:434] rpn_big_conv1 <- conv5_3
I0413 15:59:29.884516  7391 net.cpp:408] rpn_big_conv1 -> rpn_big_conv1
I0413 15:59:29.909536  7391 net.cpp:150] Setting up rpn_big_conv1
I0413 15:59:29.909567  7391 net.cpp:157] Top shape: 1 512 63 94 (3032064)
I0413 15:59:29.909571  7391 net.cpp:165] Memory required for data: 3487858124
I0413 15:59:29.909580  7391 layer_factory.hpp:77] Creating layer rpn_big_conv1_relu
I0413 15:59:29.909591  7391 net.cpp:100] Creating Layer rpn_big_conv1_relu
I0413 15:59:29.909600  7391 net.cpp:434] rpn_big_conv1_relu <- rpn_big_conv1
I0413 15:59:29.909610  7391 net.cpp:395] rpn_big_conv1_relu -> rpn_big_conv1 (in-place)
I0413 15:59:29.909634  7391 net.cpp:150] Setting up rpn_big_conv1_relu
I0413 15:59:29.909643  7391 net.cpp:157] Top shape: 1 512 63 94 (3032064)
I0413 15:59:29.909651  7391 net.cpp:165] Memory required for data: 3499986380
I0413 15:59:29.909656  7391 layer_factory.hpp:77] Creating layer rpn_big_conv2
I0413 15:59:29.909670  7391 net.cpp:100] Creating Layer rpn_big_conv2
I0413 15:59:29.909677  7391 net.cpp:434] rpn_big_conv2 <- rpn_big_conv1
I0413 15:59:29.909688  7391 net.cpp:408] rpn_big_conv2 -> rpn_big_conv2
I0413 15:59:29.934803  7391 net.cpp:150] Setting up rpn_big_conv2
I0413 15:59:29.934830  7391 net.cpp:157] Top shape: 1 512 63 94 (3032064)
I0413 15:59:29.934844  7391 net.cpp:165] Memory required for data: 3512114636
I0413 15:59:29.934854  7391 layer_factory.hpp:77] Creating layer rpn_big_conv2_relu
I0413 15:59:29.934865  7391 net.cpp:100] Creating Layer rpn_big_conv2_relu
I0413 15:59:29.934870  7391 net.cpp:434] rpn_big_conv2_relu <- rpn_big_conv2
I0413 15:59:29.934880  7391 net.cpp:395] rpn_big_conv2_relu -> rpn_big_conv2 (in-place)
I0413 15:59:29.934893  7391 net.cpp:150] Setting up rpn_big_conv2_relu
I0413 15:59:29.934901  7391 net.cpp:157] Top shape: 1 512 63 94 (3032064)
I0413 15:59:29.934906  7391 net.cpp:165] Memory required for data: 3524242892
I0413 15:59:29.934911  7391 layer_factory.hpp:77] Creating layer rpn_big_conv2_drop
I0413 15:59:29.934921  7391 net.cpp:100] Creating Layer rpn_big_conv2_drop
I0413 15:59:29.934927  7391 net.cpp:434] rpn_big_conv2_drop <- rpn_big_conv2
I0413 15:59:29.934938  7391 net.cpp:395] rpn_big_conv2_drop -> rpn_big_conv2 (in-place)
I0413 15:59:29.934970  7391 net.cpp:150] Setting up rpn_big_conv2_drop
I0413 15:59:29.934983  7391 net.cpp:157] Top shape: 1 512 63 94 (3032064)
I0413 15:59:29.934989  7391 net.cpp:165] Memory required for data: 3536371148
I0413 15:59:29.934994  7391 layer_factory.hpp:77] Creating layer rpn_big_conv2_rpn_big_conv2_drop_0_split
I0413 15:59:29.935003  7391 net.cpp:100] Creating Layer rpn_big_conv2_rpn_big_conv2_drop_0_split
I0413 15:59:29.935009  7391 net.cpp:434] rpn_big_conv2_rpn_big_conv2_drop_0_split <- rpn_big_conv2
I0413 15:59:29.935020  7391 net.cpp:408] rpn_big_conv2_rpn_big_conv2_drop_0_split -> rpn_big_conv2_rpn_big_conv2_drop_0_split_0
I0413 15:59:29.935031  7391 net.cpp:408] rpn_big_conv2_rpn_big_conv2_drop_0_split -> rpn_big_conv2_rpn_big_conv2_drop_0_split_1
I0413 15:59:29.935078  7391 net.cpp:150] Setting up rpn_big_conv2_rpn_big_conv2_drop_0_split
I0413 15:59:29.935089  7391 net.cpp:157] Top shape: 1 512 63 94 (3032064)
I0413 15:59:29.935097  7391 net.cpp:157] Top shape: 1 512 63 94 (3032064)
I0413 15:59:29.935103  7391 net.cpp:165] Memory required for data: 3560627660
I0413 15:59:29.935108  7391 layer_factory.hpp:77] Creating layer rpn_big_output_cls
I0413 15:59:29.935124  7391 net.cpp:100] Creating Layer rpn_big_output_cls
I0413 15:59:29.935133  7391 net.cpp:434] rpn_big_output_cls <- rpn_big_conv2_rpn_big_conv2_drop_0_split_0
I0413 15:59:29.935147  7391 net.cpp:408] rpn_big_output_cls -> rpn_big_output_cls
I0413 15:59:29.954373  7391 net.cpp:150] Setting up rpn_big_output_cls
I0413 15:59:29.954402  7391 net.cpp:157] Top shape: 1 384 63 94 (2274048)
I0413 15:59:29.954416  7391 net.cpp:165] Memory required for data: 3569723852
I0413 15:59:29.954426  7391 layer_factory.hpp:77] Creating layer rpn_big_output_cls_relu
I0413 15:59:29.954437  7391 net.cpp:100] Creating Layer rpn_big_output_cls_relu
I0413 15:59:29.954442  7391 net.cpp:434] rpn_big_output_cls_relu <- rpn_big_output_cls
I0413 15:59:29.954454  7391 net.cpp:395] rpn_big_output_cls_relu -> rpn_big_output_cls (in-place)
I0413 15:59:29.954469  7391 net.cpp:150] Setting up rpn_big_output_cls_relu
I0413 15:59:29.954481  7391 net.cpp:157] Top shape: 1 384 63 94 (2274048)
I0413 15:59:29.954486  7391 net.cpp:165] Memory required for data: 3578820044
I0413 15:59:29.954493  7391 layer_factory.hpp:77] Creating layer rpn_big_cls_score
I0413 15:59:29.954507  7391 net.cpp:100] Creating Layer rpn_big_cls_score
I0413 15:59:29.954514  7391 net.cpp:434] rpn_big_cls_score <- rpn_big_output_cls
I0413 15:59:29.954524  7391 net.cpp:408] rpn_big_cls_score -> rpn_big_cls_score
I0413 15:59:29.956953  7391 net.cpp:150] Setting up rpn_big_cls_score
I0413 15:59:29.956965  7391 net.cpp:157] Top shape: 1 52 61 92 (291824)
I0413 15:59:29.956969  7391 net.cpp:165] Memory required for data: 3579987340
I0413 15:59:29.956990  7391 layer_factory.hpp:77] Creating layer rpn_big_cls_score_rpn_big_cls_score_0_split
I0413 15:59:29.957002  7391 net.cpp:100] Creating Layer rpn_big_cls_score_rpn_big_cls_score_0_split
I0413 15:59:29.957010  7391 net.cpp:434] rpn_big_cls_score_rpn_big_cls_score_0_split <- rpn_big_cls_score
I0413 15:59:29.957020  7391 net.cpp:408] rpn_big_cls_score_rpn_big_cls_score_0_split -> rpn_big_cls_score_rpn_big_cls_score_0_split_0
I0413 15:59:29.957033  7391 net.cpp:408] rpn_big_cls_score_rpn_big_cls_score_0_split -> rpn_big_cls_score_rpn_big_cls_score_0_split_1
I0413 15:59:29.957089  7391 net.cpp:150] Setting up rpn_big_cls_score_rpn_big_cls_score_0_split
I0413 15:59:29.957100  7391 net.cpp:157] Top shape: 1 52 61 92 (291824)
I0413 15:59:29.957111  7391 net.cpp:157] Top shape: 1 52 61 92 (291824)
I0413 15:59:29.957116  7391 net.cpp:165] Memory required for data: 3582321932
I0413 15:59:29.957123  7391 layer_factory.hpp:77] Creating layer rpn_big_cls_score_reshape
I0413 15:59:29.957132  7391 net.cpp:100] Creating Layer rpn_big_cls_score_reshape
I0413 15:59:29.957139  7391 net.cpp:434] rpn_big_cls_score_reshape <- rpn_big_cls_score_rpn_big_cls_score_0_split_0
I0413 15:59:29.957150  7391 net.cpp:408] rpn_big_cls_score_reshape -> rpn_big_cls_score_reshape
I0413 15:59:29.957186  7391 net.cpp:150] Setting up rpn_big_cls_score_reshape
I0413 15:59:29.957196  7391 net.cpp:157] Top shape: 1 2 1586 92 (291824)
I0413 15:59:29.957202  7391 net.cpp:165] Memory required for data: 3583489228
I0413 15:59:29.957208  7391 layer_factory.hpp:77] Creating layer rpn_big_cls_score_reshape_rpn_big_cls_score_reshape_0_split
I0413 15:59:29.957219  7391 net.cpp:100] Creating Layer rpn_big_cls_score_reshape_rpn_big_cls_score_reshape_0_split
I0413 15:59:29.957227  7391 net.cpp:434] rpn_big_cls_score_reshape_rpn_big_cls_score_reshape_0_split <- rpn_big_cls_score_reshape
I0413 15:59:29.957237  7391 net.cpp:408] rpn_big_cls_score_reshape_rpn_big_cls_score_reshape_0_split -> rpn_big_cls_score_reshape_rpn_big_cls_score_reshape_0_split_0
I0413 15:59:29.957249  7391 net.cpp:408] rpn_big_cls_score_reshape_rpn_big_cls_score_reshape_0_split -> rpn_big_cls_score_reshape_rpn_big_cls_score_reshape_0_split_1
I0413 15:59:29.957295  7391 net.cpp:150] Setting up rpn_big_cls_score_reshape_rpn_big_cls_score_reshape_0_split
I0413 15:59:29.957305  7391 net.cpp:157] Top shape: 1 2 1586 92 (291824)
I0413 15:59:29.957314  7391 net.cpp:157] Top shape: 1 2 1586 92 (291824)
I0413 15:59:29.957319  7391 net.cpp:165] Memory required for data: 3585823820
I0413 15:59:29.957325  7391 layer_factory.hpp:77] Creating layer rpn_big_cls_prob
I0413 15:59:29.957336  7391 net.cpp:100] Creating Layer rpn_big_cls_prob
I0413 15:59:29.957343  7391 net.cpp:434] rpn_big_cls_prob <- rpn_big_cls_score_reshape_rpn_big_cls_score_reshape_0_split_0
I0413 15:59:29.957352  7391 net.cpp:408] rpn_big_cls_prob -> rpn_big_cls_prob
I0413 15:59:29.957427  7391 net.cpp:150] Setting up rpn_big_cls_prob
I0413 15:59:29.957437  7391 net.cpp:157] Top shape: 1 2 1586 92 (291824)
I0413 15:59:29.957442  7391 net.cpp:165] Memory required for data: 3586991116
I0413 15:59:29.957448  7391 layer_factory.hpp:77] Creating layer rpn_big_cls_prob_reshape
I0413 15:59:29.957459  7391 net.cpp:100] Creating Layer rpn_big_cls_prob_reshape
I0413 15:59:29.957466  7391 net.cpp:434] rpn_big_cls_prob_reshape <- rpn_big_cls_prob
I0413 15:59:29.957474  7391 net.cpp:408] rpn_big_cls_prob_reshape -> rpn_big_cls_prob_reshape
I0413 15:59:29.957504  7391 net.cpp:150] Setting up rpn_big_cls_prob_reshape
I0413 15:59:29.957515  7391 net.cpp:157] Top shape: 1 52 61 92 (291824)
I0413 15:59:29.957520  7391 net.cpp:165] Memory required for data: 3588158412
I0413 15:59:29.957526  7391 layer_factory.hpp:77] Creating layer rpn_big_cls_prob_reshape_rpn_big_cls_prob_reshape_0_split
I0413 15:59:29.957537  7391 net.cpp:100] Creating Layer rpn_big_cls_prob_reshape_rpn_big_cls_prob_reshape_0_split
I0413 15:59:29.957545  7391 net.cpp:434] rpn_big_cls_prob_reshape_rpn_big_cls_prob_reshape_0_split <- rpn_big_cls_prob_reshape
I0413 15:59:29.957554  7391 net.cpp:408] rpn_big_cls_prob_reshape_rpn_big_cls_prob_reshape_0_split -> rpn_big_cls_prob_reshape_rpn_big_cls_prob_reshape_0_split_0
I0413 15:59:29.957566  7391 net.cpp:408] rpn_big_cls_prob_reshape_rpn_big_cls_prob_reshape_0_split -> rpn_big_cls_prob_reshape_rpn_big_cls_prob_reshape_0_split_1
I0413 15:59:29.957612  7391 net.cpp:150] Setting up rpn_big_cls_prob_reshape_rpn_big_cls_prob_reshape_0_split
I0413 15:59:29.957622  7391 net.cpp:157] Top shape: 1 52 61 92 (291824)
I0413 15:59:29.957629  7391 net.cpp:157] Top shape: 1 52 61 92 (291824)
I0413 15:59:29.957635  7391 net.cpp:165] Memory required for data: 3590493004
I0413 15:59:29.957641  7391 layer_factory.hpp:77] Creating layer rpn_big_anchor_target
I0413 15:59:29.959206  7391 net.cpp:100] Creating Layer rpn_big_anchor_target
I0413 15:59:29.959229  7391 net.cpp:434] rpn_big_anchor_target <- rpn_big_cls_score_rpn_big_cls_score_0_split_1
I0413 15:59:29.959239  7391 net.cpp:434] rpn_big_anchor_target <- input_gt_boxes
I0413 15:59:29.959245  7391 net.cpp:434] rpn_big_anchor_target <- input_ignored_boxes
I0413 15:59:29.959252  7391 net.cpp:434] rpn_big_anchor_target <- input_im_info_input_1_split_0
I0413 15:59:29.959259  7391 net.cpp:434] rpn_big_anchor_target <- input_data_input_0_split_1
I0413 15:59:29.959267  7391 net.cpp:434] rpn_big_anchor_target <- rpn_big_cls_prob_reshape_rpn_big_cls_prob_reshape_0_split_0
I0413 15:59:29.959280  7391 net.cpp:408] rpn_big_anchor_target -> rpn_big_anchor_target_labels
I0413 15:59:29.959296  7391 net.cpp:408] rpn_big_anchor_target -> rpn_big_anchor_target_bbox_targets
I0413 15:59:29.959311  7391 net.cpp:408] rpn_big_anchor_target -> rpn_big_anchor_target_inside_weights
I0413 15:59:29.959324  7391 net.cpp:408] rpn_big_anchor_target -> rpn_big_anchor_target_outside_weights
I0413 15:59:29.964071  7391 net.cpp:150] Setting up rpn_big_anchor_target
I0413 15:59:29.964100  7391 net.cpp:157] Top shape: 1 1 1586 92 (145912)
I0413 15:59:29.964105  7391 net.cpp:157] Top shape: 1 104 61 92 (583648)
I0413 15:59:29.964109  7391 net.cpp:157] Top shape: 1 104 61 92 (583648)
I0413 15:59:29.964117  7391 net.cpp:157] Top shape: 1 104 61 92 (583648)
I0413 15:59:29.964120  7391 net.cpp:165] Memory required for data: 3598080428
I0413 15:59:29.964128  7391 layer_factory.hpp:77] Creating layer rpn_big_loss_cls
I0413 15:59:29.964143  7391 net.cpp:100] Creating Layer rpn_big_loss_cls
I0413 15:59:29.964151  7391 net.cpp:434] rpn_big_loss_cls <- rpn_big_cls_score_reshape_rpn_big_cls_score_reshape_0_split_1
I0413 15:59:29.964160  7391 net.cpp:434] rpn_big_loss_cls <- rpn_big_anchor_target_labels
I0413 15:59:29.964169  7391 net.cpp:408] rpn_big_loss_cls -> rpn_big_loss_cls
I0413 15:59:29.964185  7391 layer_factory.hpp:77] Creating layer rpn_big_loss_cls
I0413 15:59:29.964973  7391 net.cpp:150] Setting up rpn_big_loss_cls
I0413 15:59:29.964994  7391 net.cpp:157] Top shape: (1)
I0413 15:59:29.964998  7391 net.cpp:160]     with loss weight 1
I0413 15:59:29.965010  7391 net.cpp:165] Memory required for data: 3598080432
I0413 15:59:29.965018  7391 layer_factory.hpp:77] Creating layer rpn_big_output_box
I0413 15:59:29.965039  7391 net.cpp:100] Creating Layer rpn_big_output_box
I0413 15:59:29.965046  7391 net.cpp:434] rpn_big_output_box <- rpn_big_conv2_rpn_big_conv2_drop_0_split_1
I0413 15:59:29.965061  7391 net.cpp:408] rpn_big_output_box -> rpn_big_output_box
I0413 15:59:29.986073  7391 net.cpp:150] Setting up rpn_big_output_box
I0413 15:59:29.986102  7391 net.cpp:157] Top shape: 1 384 63 94 (2274048)
I0413 15:59:29.986106  7391 net.cpp:165] Memory required for data: 3607176624
I0413 15:59:29.986116  7391 layer_factory.hpp:77] Creating layer rpn_big_output_box_relu
I0413 15:59:29.986143  7391 net.cpp:100] Creating Layer rpn_big_output_box_relu
I0413 15:59:29.986152  7391 net.cpp:434] rpn_big_output_box_relu <- rpn_big_output_box
I0413 15:59:29.986165  7391 net.cpp:395] rpn_big_output_box_relu -> rpn_big_output_box (in-place)
I0413 15:59:29.986179  7391 net.cpp:150] Setting up rpn_big_output_box_relu
I0413 15:59:29.986187  7391 net.cpp:157] Top shape: 1 384 63 94 (2274048)
I0413 15:59:29.986192  7391 net.cpp:165] Memory required for data: 3616272816
I0413 15:59:29.986197  7391 layer_factory.hpp:77] Creating layer rpn_big_bbox_pred
I0413 15:59:29.986213  7391 net.cpp:100] Creating Layer rpn_big_bbox_pred
I0413 15:59:29.986219  7391 net.cpp:434] rpn_big_bbox_pred <- rpn_big_output_box
I0413 15:59:29.986232  7391 net.cpp:408] rpn_big_bbox_pred -> rpn_big_bbox_pred
I0413 15:59:29.990484  7391 net.cpp:150] Setting up rpn_big_bbox_pred
I0413 15:59:29.990506  7391 net.cpp:157] Top shape: 1 104 61 92 (583648)
I0413 15:59:29.990510  7391 net.cpp:165] Memory required for data: 3618607408
I0413 15:59:29.990527  7391 layer_factory.hpp:77] Creating layer rpn_big_bbox_pred_rpn_big_bbox_pred_0_split
I0413 15:59:29.990537  7391 net.cpp:100] Creating Layer rpn_big_bbox_pred_rpn_big_bbox_pred_0_split
I0413 15:59:29.990542  7391 net.cpp:434] rpn_big_bbox_pred_rpn_big_bbox_pred_0_split <- rpn_big_bbox_pred
I0413 15:59:29.990552  7391 net.cpp:408] rpn_big_bbox_pred_rpn_big_bbox_pred_0_split -> rpn_big_bbox_pred_rpn_big_bbox_pred_0_split_0
I0413 15:59:29.990566  7391 net.cpp:408] rpn_big_bbox_pred_rpn_big_bbox_pred_0_split -> rpn_big_bbox_pred_rpn_big_bbox_pred_0_split_1
I0413 15:59:29.990622  7391 net.cpp:150] Setting up rpn_big_bbox_pred_rpn_big_bbox_pred_0_split
I0413 15:59:29.990635  7391 net.cpp:157] Top shape: 1 104 61 92 (583648)
I0413 15:59:29.990651  7391 net.cpp:157] Top shape: 1 104 61 92 (583648)
I0413 15:59:29.990655  7391 net.cpp:165] Memory required for data: 3623276592
I0413 15:59:29.990660  7391 layer_factory.hpp:77] Creating layer rpn_big_loss_bbox
I0413 15:59:29.991094  7391 net.cpp:100] Creating Layer rpn_big_loss_bbox
I0413 15:59:29.991104  7391 net.cpp:434] rpn_big_loss_bbox <- rpn_big_bbox_pred_rpn_big_bbox_pred_0_split_0
I0413 15:59:29.991111  7391 net.cpp:434] rpn_big_loss_bbox <- rpn_big_anchor_target_bbox_targets
I0413 15:59:29.991123  7391 net.cpp:434] rpn_big_loss_bbox <- rpn_big_anchor_target_inside_weights
I0413 15:59:29.991128  7391 net.cpp:434] rpn_big_loss_bbox <- rpn_big_anchor_target_outside_weights
I0413 15:59:29.991137  7391 net.cpp:408] rpn_big_loss_bbox -> rpn_big_loss_bbox
I0413 15:59:29.992928  7391 net.cpp:150] Setting up rpn_big_loss_bbox
I0413 15:59:29.992971  7391 net.cpp:157] Top shape: 1 (1)
I0413 15:59:29.992974  7391 net.cpp:160]     with loss weight 1
I0413 15:59:29.992988  7391 net.cpp:165] Memory required for data: 3623276596
I0413 15:59:29.992996  7391 layer_factory.hpp:77] Creating layer proposal
I0413 15:59:29.993438  7391 net.cpp:100] Creating Layer proposal
I0413 15:59:29.993448  7391 net.cpp:434] proposal <- rpn_big_cls_prob_reshape_rpn_big_cls_prob_reshape_0_split_1
I0413 15:59:29.993464  7391 net.cpp:434] proposal <- rpn_big_bbox_pred_rpn_big_bbox_pred_0_split_1
…
