…
I0413 18:33:44.335147 13527 solver.cpp:48] Initializing solver from parameters: 
base_lr: 0.001
display: 20
lr_policy: "multistep"
gamma: 0.1
momentum: 0.9
weight_decay: 0.0005
snapshot: 0
snapshot_prefix: "faces_example"
net_param {
  name: "GeneratedModel_13_04_2017_18_33"
  layer {
    name: "input"
    type: "Python"
    top: "input_data"
    top: "input_im_info"
    top: "input_gt_boxes"
    top: "input_ignored_boxes"
    python_param {
      module: "layers.roi_data_layer"
      layer: "RoIDataLayer"
      param_str: "{\"num_classes\": 2}"
    }
  }
  layer {
    name: "conv1_1"
    type: "Convolution"
    bottom: "input_data"
    top: "conv1_1"
    param {
      lr_mult: 0
      decay_mult: 0
    }
    param {
      lr_mult: 0
      decay_mult: 0
    }
    convolution_param {
      num_output: 64
      pad: 1
      kernel_size: 3
    }
  }
  layer {
    name: "relu1_1"
    type: "ReLU"
    bottom: "conv1_1"
    top: "conv1_1"
  }
  layer {
    name: "conv1_2"
    type: "Convolution"
    bottom: "conv1_1"
    top: "conv1_2"
    param {
      lr_mult: 0
      decay_mult: 0
    }
    param {
      lr_mult: 0
      decay_mult: 0
    }
    convolution_param {
      num_output: 64
      pad: 1
      kernel_size: 3
    }
  }
  layer {
    name: "relu1_2"
    type: "ReLU"
    bottom: "conv1_2"
    top: "conv1_2"
  }
  layer {
    name: "pool1"
    type: "Pooling"
    bottom: "conv1_2"
    top: "pool1"
    pooling_param {
      pool: MAX
      kernel_size: 2
      stride: 2
    }
  }
  layer {
    name: "conv2_1"
    type: "Convolution"
    bottom: "pool1"
    top: "conv2_1"
    param {
      lr_mult: 0
      decay_mult: 0
    }
    param {
      lr_mult: 0
      decay_mult: 0
    }
    convolution_param {
      num_output: 128
      pad: 1
      kernel_size: 3
    }
  }
  layer {
    name: "relu2_1"
    type: "ReLU"
    bottom: "conv2_1"
    top: "conv2_1"
  }
  layer {
    name: "conv2_2"
    type: "Convolution"
    bottom: "conv2_1"
    top: "conv2_2"
    param {
      lr_mult: 0
      decay_mult: 0
    }
    param {
      lr_mult: 0
      decay_mult: 0
    }
    convolution_param {
      num_output: 128
      pad: 1
      kernel_size: 3
    }
  }
  layer {
    name: "relu2_2"
    type: "ReLU"
    bottom: "conv2_2"
    top: "conv2_2"
  }
  layer {
    name: "pool2"
    type: "Pooling"
    bottom: "conv2_2"
    top: "pool2"
    pooling_param {
      pool: MAX
      kernel_size: 2
      stride: 2
    }
  }
  layer {
    name: "conv3_1"
    type: "Convolution"
    bottom: "pool2"
    top: "conv3_1"
    param {
      lr_mult: 1
    }
    param {
      lr_mult: 2
    }
    convolution_param {
      num_output: 256
      pad: 1
      kernel_size: 3
    }
  }
  layer {
    name: "relu3_1"
    type: "ReLU"
    bottom: "conv3_1"
    top: "conv3_1"
  }
  layer {
    name: "conv3_2"
    type: "Convolution"
    bottom: "conv3_1"
    top: "conv3_2"
    param {
      lr_mult: 1
    }
    param {
      lr_mult: 2
    }
    convolution_param {
      num_output: 256
      pad: 1
      kernel_size: 3
    }
  }
  layer {
    name: "relu3_2"
    type: "ReLU"
    bottom: "conv3_2"
    top: "conv3_2"
  }
  layer {
    name: "conv3_3"
    type: "Convolution"
    bottom: "conv3_2"
    top: "conv3_3"
    param {
      lr_mult: 1
    }
    param {
      lr_mult: 2
    }
    convolution_param {
      num_output: 256
      pad: 1
      kernel_size: 3
    }
  }
  layer {
    name: "relu3_3"
    type: "ReLU"
    bottom: "conv3_3"
    top: "conv3_3"
  }
  layer {
    name: "pool3"
    type: "Pooling"
    bottom: "conv3_3"
    top: "pool3"
    pooling_param {
      pool: MAX
      kernel_size: 2
      stride: 2
    }
  }
  layer {
    name: "conv4_1"
    type: "Convolution"
    bottom: "pool3"
    top: "conv4_1"
    param {
      lr_mult: 1
    }
    param {
      lr_mult: 2
    }
    convolution_param {
      num_output: 512
      pad: 1
      kernel_size: 3
    }
  }
  layer {
    name: "relu4_1"
    type: "ReLU"
    bottom: "conv4_1"
    top: "conv4_1"
  }
  layer {
    name: "conv4_2"
    type: "Convolution"
    bottom: "conv4_1"
    top: "conv4_2"
    param {
      lr_mult: 1
    }
    param {
      lr_mult: 2
    }
    convolution_param {
      num_output: 512
      pad: 1
      kernel_size: 3
    }
  }
  layer {
    name: "relu4_2"
    type: "ReLU"
    bottom: "conv4_2"
    top: "conv4_2"
  }
  layer {
    name: "conv4_3"
    type: "Convolution"
    bottom: "conv4_2"
    top: "conv4_3"
    param {
      lr_mult: 1
    }
    param {
      lr_mult: 2
    }
    convolution_param {
      num_output: 512
      pad: 1
      kernel_size: 3
    }
  }
  layer {
    name: "relu4_3"
    type: "ReLU"
    bottom: "conv4_3"
    top: "conv4_3"
  }
  layer {
    name: "pool4"
    type: "Pooling"
    bottom: "conv4_3"
    top: "pool4"
    pooling_param {
      pool: MAX
      kernel_size: 2
      stride: 2
    }
  }
  layer {
    name: "conv5_1"
    type: "Convolution"
    bottom: "pool4"
    top: "conv5_1"
    param {
      lr_mult: 1
    }
    param {
      lr_mult: 2
    }
    convolution_param {
      num_output: 512
      pad: 1
      kernel_size: 3
    }
  }
  layer {
    name: "relu5_1"
    type: "ReLU"
    bottom: "conv5_1"
    top: "conv5_1"
  }
  layer {
    name: "conv5_2"
    type: "Convolution"
    bottom: "conv5_1"
    top: "conv5_2"
    param {
      lr_mult: 1
    }
    param {
      lr_mult: 2
    }
    convolution_param {
      num_output: 512
      pad: 1
      kernel_size: 3
    }
  }
  layer {
    name: "relu5_2"
    type: "ReLU"
    bottom: "conv5_2"
    top: "conv5_2"
  }
  layer {
    name: "conv5_3"
    type: "Convolution"
    bottom: "conv5_2"
    top: "conv5_3"
    param {
      lr_mult: 1
    }
    param {
      lr_mult: 2
    }
    convolution_param {
      num_output: 512
      pad: 1
      kernel_size: 3
    }
  }
  layer {
    name: "relu5_3"
    type: "ReLU"
    bottom: "conv5_3"
    top: "conv5_3"
  }
  layer {
    name: "rpn_big_conv1"
    type: "Convolution"
    bottom: "conv5_3"
    top: "rpn_big_conv1"
    param {
      lr_mult: 1
    }
    param {
      lr_mult: 2
    }
    convolution_param {
      num_output: 512
      pad: 1
      kernel_size: 3
      stride: 1
      weight_filler {
        type: "gaussian"
        mean: 0
        std: 0.01
      }
      bias_filler {
        type: "constant"
      }
    }
  }
  layer {
    name: "rpn_big_conv1_relu"
    type: "ReLU"
    bottom: "rpn_big_conv1"
    top: "rpn_big_conv1"
    relu_param {
      negative_slope: 0
    }
  }
  layer {
    name: "rpn_big_conv2"
    type: "Convolution"
    bottom: "rpn_big_conv1"
    top: "rpn_big_conv2"
    param {
      lr_mult: 1
    }
    param {
      lr_mult: 2
    }
    convolution_param {
      num_output: 512
      pad: 1
      kernel_size: 3
      stride: 1
      weight_filler {
        type: "gaussian"
        mean: 0
        std: 0.01
      }
      bias_filler {
        type: "constant"
      }
    }
  }
  layer {
    name: "rpn_big_conv2_relu"
    type: "ReLU"
    bottom: "rpn_big_conv2"
    top: "rpn_big_conv2"
    relu_param {
      negative_slope: 0
    }
  }
  layer {
    name: "rpn_big_conv2_drop"
    type: "Dropout"
    bottom: "rpn_big_conv2"
    top: "rpn_big_conv2"
    dropout_param {
      dropout_ratio: 0.3
    }
  }
  layer {
    name: "rpn_big_output_cls"
    type: "Convolution"
    bottom: "rpn_big_conv2"
    top: "rpn_big_output_cls"
    param {
      lr_mult: 1
    }
    param {
      lr_mult: 2
    }
    convolution_param {
      num_output: 384
      pad: 1
      kernel_size: 3
      stride: 1
      weight_filler {
        type: "gaussian"
        mean: 0
        std: 0.01
      }
      bias_filler {
        type: "constant"
      }
    }
  }
  layer {
    name: "rpn_big_output_cls_relu"
    type: "ReLU"
    bottom: "rpn_big_output_cls"
    top: "rpn_big_output_cls"
    relu_param {
      negative_slope: 0
    }
  }
  layer {
    name: "rpn_big_cls_score"
    type: "Convolution"
    bottom: "rpn_big_output_cls"
    top: "rpn_big_cls_score"
    param {
      lr_mult: 1
    }
    param {
      lr_mult: 2
    }
    convolution_param {
      num_output: 52
      pad: 0
      kernel_size: 3
      stride: 1
      weight_filler {
        type: "gaussian"
        mean: 0
        std: 0.01
      }
      bias_filler {
        type: "constant"
      }
    }
  }
  layer {
    name: "rpn_big_cls_score_reshape"
    type: "Reshape"
    bottom: "rpn_big_cls_score"
    top: "rpn_big_cls_score_reshape"
    reshape_param {
      shape {
        dim: 0
        dim: 2
        dim: -1
        dim: 0
      }
    }
  }
  layer {
    name: "rpn_big_cls_prob"
    type: "Softmax"
    bottom: "rpn_big_cls_score_reshape"
    top: "rpn_big_cls_prob"
  }
  layer {
    name: "rpn_big_cls_prob_reshape"
    type: "Reshape"
    bottom: "rpn_big_cls_prob"
    top: "rpn_big_cls_prob_reshape"
    reshape_param {
      shape {
        dim: 0
        dim: 52
        dim: -1
        dim: 0
      }
    }
  }
  layer {
    name: "rpn_big_anchor_target"
    type: "Python"
    bottom: "rpn_big_cls_score"
    bottom: "input_gt_boxes"
    bottom: "input_ignored_boxes"
    bottom: "input_im_info"
    bottom: "input_data"
    bottom: "rpn_big_cls_prob_reshape"
    top: "rpn_big_anchor_target_labels"
    top: "rpn_big_anchor_target_bbox_targets"
    top: "rpn_big_anchor_target_inside_weights"
    top: "rpn_big_anchor_target_outside_weights"
    python_param {
      module: "rpn.anchor_target_layer"
      layer: "AnchorTargetLayer"
      param_str: "{\"fg_fraction\": 0.5, \"anchor_ratios\": [1.0], \"negative_overlap\": 0.4, \"anchor_scales\": [2.5, 3.025, 3.66025, 4.4289024999999995, 5.358972025, 6.484356150249999, 7.846070941802498, 9.493745839581022, 11.487432465893036, 13.899793283730574, 16.818749873313998, 20.350687346709933, 24.62433168951902, 29.795441344318014], \"positive_overlap\": 0.6, \"name\": \"rpn_big\", \"num_classes\": 1, \"batchsize\": 256, \"feat_stride\": 16, \"tn_fraction\": 0.2, \"square_targets\": true, \"anchor_shift_num_xy\": [[2, 2], [2, 2], [2, 2], [2, 2], [1, 1], [1, 1], [1, 1], [1, 1], [1, 1], [1, 1], [1, 1], [1, 1], [1, 1], [1, 1]]}"
    }
  }
  layer {
    name: "rpn_big_loss_cls"
    type: "SoftmaxWithLoss"
    bottom: "rpn_big_cls_score_reshape"
    bottom: "rpn_big_anchor_target_labels"
    top: "rpn_big_loss_cls"
    loss_weight: 1
    propagate_down: true
    propagate_down: false
    loss_param {
      ignore_label: -1
      normalization: VALID
    }
  }
  layer {
    name: "rpn_big_output_box"
    type: "Convolution"
    bottom: "rpn_big_conv2"
    top: "rpn_big_output_box"
    param {
      lr_mult: 1
    }
    param {
      lr_mult: 2
    }
    convolution_param {
      num_output: 384
      pad: 1
      kernel_size: 3
      stride: 1
      weight_filler {
        type: "gaussian"
        mean: 0
        std: 0.01
      }
      bias_filler {
        type: "constant"
      }
    }
  }
  layer {
    name: "rpn_big_output_box_relu"
    type: "ReLU"
    bottom: "rpn_big_output_box"
    top: "rpn_big_output_box"
    relu_param {
      negative_slope: 0
    }
  }
  layer {
    name: "rpn_big_bbox_pred"
    type: "Convolution"
    bottom: "rpn_big_output_box"
    top: "rpn_big_bbox_pred"
    param {
      lr_mult: 1
    }
    param {
      lr_mult: 2
    }
    convolution_param {
      num_output: 104
      pad: 0
      kernel_size: 3
      stride: 1
      weight_filler {
        type: "gaussian"
        mean: 0
        std: 0.01
      }
      bias_filler {
        type: "constant"
      }
    }
  }
  layer {
    name: "rpn_big_loss_bbox"
    type: "Python"
    bottom: "rpn_big_bbox_pred"
    bottom: "rpn_big_anchor_target_bbox_targets"
    bottom: "rpn_big_anchor_target_inside_weights"
    bottom: "rpn_big_anchor_target_outside_weights"
    top: "rpn_big_loss_bbox"
    loss_weight: 1
    python_param {
      module: "layers.smooth_l1_loss"
      layer: "SmoothL1LossLayer"
      param_str: "{\"sigma\": 3}"
    }
  }
  layer {
    name: "proposal"
    type: "Python"
    bottom: "rpn_big_cls_prob_reshape"
    bottom: "rpn_big_bbox_pred"
    bottom: "input_im_info"
    top: "rpn_rois"
    python_param {
      module: "rpn.proposal_layer"
      layer: "ProposalLayer"
      param_str: "{\"anchor_shift_num_xy\": [[2, 2], [2, 2], [2, 2], [2, 2], [1, 1], [1, 1], [1, 1], [1, 1], [1, 1], [1, 1], [1, 1], [1, 1], [1, 1], [1, 1]], \"feat_stride\": 16, \"num_classes\": 1, \"anchor_scales\": [2.5, 3.025, 3.66025, 4.4289024999999995, 5.358972025, 6.484356150249999, 7.846070941802498, 9.493745839581022, 11.487432465893036, 13.899793283730574, 16.818749873313998, 20.350687346709933, 24.62433168951902, 29.795441344318014], \"square_targets\": true, \"name\": \"rpn_big\", \"batchsize\": 256, \"anchor_ratios\": [1.0]}"
    }
  }
  layer {
    name: "roi-data"
    type: "Python"
    bottom: "rpn_rois"
    bottom: "input_gt_boxes"
    top: "rois"
    top: "labels"
    top: "bbox_targets"
    top: "bbox_inside_weights"
    top: "bbox_outside_weights"
    top: "pid_label"
    python_param {
      module: "rpn.proposal_target_layer"
      layer: "ProposalTargetLayer"
      param_str: "{\"num_classes\": 2, \"bg_aux_label\": 5532}"
    }
  }
  layer {
    name: "roi-pool"
    type: "ROIPooling"
    bottom: "conv5_3"
    bottom: "rois"
    top: "roi-pool"
    roi_pooling_param {
      pooled_h: 7
      pooled_w: 7
      spatial_scale: 0.0625
    }
  }
  layer {
    name: "fc6"
    type: "InnerProduct"
    bottom: "roi-pool"
    top: "fc6"
    param {
      lr_mult: 1
    }
    param {
      lr_mult: 2
    }
    inner_product_param {
      num_output: 4096
    }
  }
  layer {
    name: "relu6"
    type: "ReLU"
    bottom: "fc6"
    top: "fc6"
  }
  layer {
    name: "drop6"
    type: "Dropout"
    bottom: "fc6"
    top: "fc6"
    dropout_param {
      dropout_ratio: 0.5
    }
  }
  layer {
    name: "fc7"
    type: "InnerProduct"
    bottom: "fc6"
    top: "fc7"
    param {
      lr_mult: 1
    }
    param {
      lr_mult: 2
    }
    inner_product_param {
      num_output: 4096
    }
  }
  layer {
    name: "relu7"
    type: "ReLU"
    bottom: "fc7"
    top: "fc7"
  }
  layer {
    name: "drop7"
    type: "Dropout"
    bottom: "fc7"
    top: "fc7"
    dropout_param {
      dropout_ratio: 0.5
    }
  }
  layer {
    name: "bbox_pred"
    type: "InnerProduct"
    bottom: "fc7"
    top: "bbox_pred"
    param {
      lr_mult: 1
    }
    param {
      lr_mult: 2
    }
    inner_product_param {
      num_output: 8
      weight_filler {
        type: "gaussian"
        std: 0.001
      }
      bias_filler {
        type: "constant"
        value: 0
      }
    }
  }
  layer {
    name: "loss_bbox"
    type: "SmoothL1Loss"
    bottom: "bbox_pred"
    bottom: "bbox_targets"
    bottom: "bbox_inside_weights"
    bottom: "bbox_outside_weights"
    top: "loss_bbox"
    loss_weight: 1
  }
  layer {
    name: "feat"
    type: "InnerProduct"
    bottom: "fc7"
    top: "feat"
    param {
      lr_mult: 1
      decay_mult: 1
    }
    param {
      lr_mult: 2
      decay_mult: 0
    }
    inner_product_param {
      num_output: 256
      weight_filler {
        type: "gaussian"
        std: 0.01
      }
      bias_filler {
        type: "constant"
        value: 0
      }
    }
  }
  layer {
    name: "relu8"
    type: "ReLU"
    bottom: "feat"
    top: "feat"
  }
  layer {
    name: "drop8"
    type: "Dropout"
    bottom: "feat"
    top: "feat"
    dropout_param {
      dropout_ratio: 0.5
    }
  }
  layer {
    name: "pid_score"
    type: "InnerProduct"
    bottom: "feat"
    top: "pid_score"
    param {
      lr_mult: 1
      decay_mult: 1
    }
    param {
      lr_mult: 2
      decay_mult: 0
    }
    inner_product_param {
      num_output: 5533
      weight_filler {
        type: "gaussian"
        std: 0.001
      }
      bias_filler {
        type: "constant"
        value: 0
      }
    }
  }
  layer {
    name: "pid_accuracy"
    type: "Accuracy"
    bottom: "pid_score"
    bottom: "pid_label"
    top: "pid_accuracy"
    accuracy_param {
      ignore_label: -1
    }
  }
}
average_loss: 100
stepvalue: 70000
stepvalue: 120000
iter_size: 2
I0413 18:33:44.335234 13527 solver.cpp:86] Creating training net specified in net_param.
I0413 18:33:44.335697 13527 net.cpp:58] Initializing net from parameters: 
name: "GeneratedModel_13_04_2017_18_33"
state {
  phase: TRAIN
}
layer {
  name: "input"
  type: "Python"
  top: "input_data"
  top: "input_im_info"
  top: "input_gt_boxes"
  top: "input_ignored_boxes"
  python_param {
    module: "layers.roi_data_layer"
    layer: "RoIDataLayer"
    param_str: "{\"num_classes\": 2}"
  }
}
layer {
  name: "conv1_1"
  type: "Convolution"
  bottom: "input_data"
  top: "conv1_1"
  param {
    lr_mult: 0
    decay_mult: 0
  }
  param {
    lr_mult: 0
    decay_mult: 0
  }
  convolution_param {
    num_output: 64
    pad: 1
    kernel_size: 3
  }
}
layer {
  name: "relu1_1"
  type: "ReLU"
  bottom: "conv1_1"
  top: "conv1_1"
}
layer {
  name: "conv1_2"
  type: "Convolution"
  bottom: "conv1_1"
  top: "conv1_2"
  param {
    lr_mult: 0
    decay_mult: 0
  }
  param {
    lr_mult: 0
    decay_mult: 0
  }
  convolution_param {
    num_output: 64
    pad: 1
    kernel_size: 3
  }
}
layer {
  name: "relu1_2"
  type: "ReLU"
  bottom: "conv1_2"
  top: "conv1_2"
}
layer {
  name: "pool1"
  type: "Pooling"
  bottom: "conv1_2"
  top: "pool1"
  pooling_param {
    pool: MAX
    kernel_size: 2
    stride: 2
  }
}
layer {
  name: "conv2_1"
  type: "Convolution"
  bottom: "pool1"
  top: "conv2_1"
  param {
    lr_mult: 0
    decay_mult: 0
  }
  param {
    lr_mult: 0
    decay_mult: 0
  }
  convolution_param {
    num_output: 128
    pad: 1
    kernel_size: 3
  }
}
layer {
  name: "relu2_1"
  type: "ReLU"
  bottom: "conv2_1"
  top: "conv2_1"
}
layer {
  name: "conv2_2"
  type: "Convolution"
  bottom: "conv2_1"
  top: "conv2_2"
  param {
    lr_mult: 0
    decay_mult: 0
  }
  param {
    lr_mult: 0
    decay_mult: 0
  }
  convolution_param {
    num_output: 128
    pad: 1
    kernel_size: 3
  }
}
layer {
  name: "relu2_2"
  type: "ReLU"
  bottom: "conv2_2"
  top: "conv2_2"
}
layer {
  name: "pool2"
  type: "Pooling"
  bottom: "conv2_2"
  top: "pool2"
  pooling_param {
    pool: MAX
    kernel_size: 2
    stride: 2
  }
}
layer {
  name: "conv3_1"
  type: "Convolution"
  bottom: "pool2"
  top: "conv3_1"
  param {
    lr_mult: 1
  }
  param {
    lr_mult: 2
  }
  convolution_param {
    num_output: 256
    pad: 1
    kernel_size: 3
  }
}
layer {
  name: "relu3_1"
  type: "ReLU"
  bottom: "conv3_1"
  top: "conv3_1"
}
layer {
  name: "conv3_2"
  type: "Convolution"
  bottom: "conv3_1"
  top: "conv3_2"
  param {
    lr_mult: 1
  }
  param {
    lr_mult: 2
  }
  convolution_param {
    num_output: 256
    pad: 1
    kernel_size: 3
  }
}
layer {
  name: "relu3_2"
  type: "ReLU"
  bottom: "conv3_2"
  top: "conv3_2"
}
layer {
  name: "conv3_3"
  type: "Convolution"
  bottom: "conv3_2"
  top: "conv3_3"
  param {
    lr_mult: 1
  }
  param {
    lr_mult: 2
  }
  convolution_param {
    num_output: 256
    pad: 1
    kernel_size: 3
  }
}
layer {
  name: "relu3_3"
  type: "ReLU"
  bottom: "conv3_3"
  top: "conv3_3"
}
layer {
  name: "pool3"
  type: "Pooling"
  bottom: "conv3_3"
  top: "pool3"
  pooling_param {
    pool: MAX
    kernel_size: 2
    stride: 2
  }
}
layer {
  name: "conv4_1"
  type: "Convolution"
  bottom: "pool3"
  top: "conv4_1"
  param {
    lr_mult: 1
  }
  param {
    lr_mult: 2
  }
  convolution_param {
    num_output: 512
    pad: 1
    kernel_size: 3
  }
}
layer {
  name: "relu4_1"
  type: "ReLU"
  bottom: "conv4_1"
  top: "conv4_1"
}
layer {
  name: "conv4_2"
  type: "Convolution"
  bottom: "conv4_1"
  top: "conv4_2"
  param {
    lr_mult: 1
  }
  param {
    lr_mult: 2
  }
  convolution_param {
    num_output: 512
    pad: 1
    kernel_size: 3
  }
}
layer {
  name: "relu4_2"
  type: "ReLU"
  bottom: "conv4_2"
  top: "conv4_2"
}
layer {
  name: "conv4_3"
  type: "Convolution"
  bottom: "conv4_2"
  top: "conv4_3"
  param {
    lr_mult: 1
  }
  param {
    lr_mult: 2
  }
  convolution_param {
    num_output: 512
    pad: 1
    kernel_size: 3
  }
}
layer {
  name: "relu4_3"
  type: "ReLU"
  bottom: "conv4_3"
  top: "conv4_3"
}
layer {
  name: "pool4"
  type: "Pooling"
  bottom: "conv4_3"
  top: "pool4"
  pooling_param {
    pool: MAX
    kernel_size: 2
    stride: 2
  }
}
layer {
  name: "conv5_1"
  type: "Convolution"
  bottom: "pool4"
  top: "conv5_1"
  param {
    lr_mult: 1
  }
  param {
    lr_mult: 2
  }
  convolution_param {
    num_output: 512
    pad: 1
    kernel_size: 3
  }
}
layer {
  name: "relu5_1"
  type: "ReLU"
  bottom: "conv5_1"
  top: "conv5_1"
}
layer {
  name: "conv5_2"
  type: "Convolution"
  bottom: "conv5_1"
  top: "conv5_2"
  param {
    lr_mult: 1
  }
  param {
    lr_mult: 2
  }
  convolution_param {
    num_output: 512
    pad: 1
    kernel_size: 3
  }
}
layer {
  name: "relu5_2"
  type: "ReLU"
  bottom: "conv5_2"
  top: "conv5_2"
}
layer {
  name: "conv5_3"
  type: "Convolution"
  bottom: "conv5_2"
  top: "conv5_3"
  param {
    lr_mult: 1
  }
  param {
    lr_mult: 2
  }
  convolution_param {
    num_output: 512
    pad: 1
    kernel_size: 3
  }
}
layer {
  name: "relu5_3"
  type: "ReLU"
  bottom: "conv5_3"
  top: "conv5_3"
}
layer {
  name: "rpn_big_conv1"
  type: "Convolution"
  bottom: "conv5_3"
  top: "rpn_big_conv1"
  param {
    lr_mult: 1
  }
  param {
    lr_mult: 2
  }
  convolution_param {
    num_output: 512
    pad: 1
    kernel_size: 3
    stride: 1
    weight_filler {
      type: "gaussian"
      mean: 0
      std: 0.01
    }
    bias_filler {
      type: "constant"
    }
  }
}
layer {
  name: "rpn_big_conv1_relu"
  type: "ReLU"
  bottom: "rpn_big_conv1"
  top: "rpn_big_conv1"
  relu_param {
    negative_slope: 0
  }
}
layer {
  name: "rpn_big_conv2"
  type: "Convolution"
  bottom: "rpn_big_conv1"
  top: "rpn_big_conv2"
  param {
    lr_mult: 1
  }
  param {
    lr_mult: 2
  }
  convolution_param {
    num_output: 512
    pad: 1
    kernel_size: 3
    stride: 1
    weight_filler {
      type: "gaussian"
      mean: 0
      std: 0.01
    }
    bias_filler {
      type: "constant"
    }
  }
}
layer {
  name: "rpn_big_conv2_relu"
  type: "ReLU"
  bottom: "rpn_big_conv2"
  top: "rpn_big_conv2"
  relu_param {
    negative_slope: 0
  }
}
layer {
  name: "rpn_big_conv2_drop"
  type: "Dropout"
  bottom: "rpn_big_conv2"
  top: "rpn_big_conv2"
  dropout_param {
    dropout_ratio: 0.3
  }
}
layer {
  name: "rpn_big_output_cls"
  type: "Convolution"
  bottom: "rpn_big_conv2"
  top: "rpn_big_output_cls"
  param {
    lr_mult: 1
  }
  param {
    lr_mult: 2
  }
  convolution_param {
    num_output: 384
    pad: 1
    kernel_size: 3
    stride: 1
    weight_filler {
      type: "gaussian"
      mean: 0
      std: 0.01
    }
    bias_filler {
      type: "constant"
    }
  }
}
layer {
  name: "rpn_big_output_cls_relu"
  type: "ReLU"
  bottom: "rpn_big_output_cls"
  top: "rpn_big_output_cls"
  relu_param {
    negative_slope: 0
  }
}
layer {
  name: "rpn_big_cls_score"
  type: "Convolution"
  bottom: "rpn_big_output_cls"
  top: "rpn_big_cls_score"
  param {
    lr_mult: 1
  }
  param {
    lr_mult: 2
  }
  convolution_param {
    num_output: 52
    pad: 0
    kernel_size: 3
    stride: 1
    weight_filler {
      type: "gaussian"
      mean: 0
      std: 0.01
    }
    bias_filler {
      type: "constant"
    }
  }
}
layer {
  name: "rpn_big_cls_score_reshape"
  type: "Reshape"
  bottom: "rpn_big_cls_score"
  top: "rpn_big_cls_score_reshape"
  reshape_param {
    shape {
      dim: 0
      dim: 2
      dim: -1
      dim: 0
    }
  }
}
layer {
  name: "rpn_big_cls_prob"
  type: "Softmax"
  bottom: "rpn_big_cls_score_reshape"
  top: "rpn_big_cls_prob"
}
layer {
  name: "rpn_big_cls_prob_reshape"
  type: "Reshape"
  bottom: "rpn_big_cls_prob"
  top: "rpn_big_cls_prob_reshape"
  reshape_param {
    shape {
      dim: 0
      dim: 52
      dim: -1
      dim: 0
    }
  }
}
layer {
  name: "rpn_big_anchor_target"
  type: "Python"
  bottom: "rpn_big_cls_score"
  bottom: "input_gt_boxes"
  bottom: "input_ignored_boxes"
  bottom: "input_im_info"
  bottom: "input_data"
  bottom: "rpn_big_cls_prob_reshape"
  top: "rpn_big_anchor_target_labels"
  top: "rpn_big_anchor_target_bbox_targets"
  top: "rpn_big_anchor_target_inside_weights"
  top: "rpn_big_anchor_target_outside_weights"
  python_param {
    module: "rpn.anchor_target_layer"
    layer: "AnchorTargetLayer"
    param_str: "{\"fg_fraction\": 0.5, \"anchor_ratios\": [1.0], \"negative_overlap\": 0.4, \"anchor_scales\": [2.5, 3.025, 3.66025, 4.4289024999999995, 5.358972025, 6.484356150249999, 7.846070941802498, 9.493745839581022, 11.487432465893036, 13.899793283730574, 16.818749873313998, 20.350687346709933, 24.62433168951902, 29.795441344318014], \"positive_overlap\": 0.6, \"name\": \"rpn_big\", \"num_classes\": 1, \"batchsize\": 256, \"feat_stride\": 16, \"tn_fraction\": 0.2, \"square_targets\": true, \"anchor_shift_num_xy\": [[2, 2], [2, 2], [2, 2], [2, 2], [1, 1], [1, 1], [1, 1], [1, 1], [1, 1], [1, 1], [1, 1], [1, 1], [1, 1], [1, 1]]}"
  }
}
layer {
  name: "rpn_big_loss_cls"
  type: "SoftmaxWithLoss"
  bottom: "rpn_big_cls_score_reshape"
  bottom: "rpn_big_anchor_target_labels"
  top: "rpn_big_loss_cls"
  loss_weight: 1
  propagate_down: true
  propagate_down: false
  loss_param {
    ignore_label: -1
    normalization: VALID
  }
}
layer {
  name: "rpn_big_output_box"
  type: "Convolution"
  bottom: "rpn_big_conv2"
  top: "rpn_big_output_box"
  param {
    lr_mult: 1
  }
  param {
    lr_mult: 2
  }
  convolution_param {
    num_output: 384
    pad: 1
    kernel_size: 3
    stride: 1
    weight_filler {
      type: "gaussian"
      mean: 0
      std: 0.01
    }
    bias_filler {
      type: "constant"
    }
  }
}
layer {
  name: "rpn_big_output_box_relu"
  type: "ReLU"
  bottom: "rpn_big_output_box"
  top: "rpn_big_output_box"
  relu_param {
    negative_slope: 0
  }
}
layer {
  name: "rpn_big_bbox_pred"
  type: "Convolution"
  bottom: "rpn_big_output_box"
  top: "rpn_big_bbox_pred"
  param {
    lr_mult: 1
  }
  param {
    lr_mult: 2
  }
  convolution_param {
    num_output: 104
    pad: 0
    kernel_size: 3
    stride: 1
    weight_filler {
      type: "gaussian"
      mean: 0
      std: 0.01
    }
    bias_filler {
      type: "constant"
    }
  }
}
layer {
  name: "rpn_big_loss_bbox"
  type: "Python"
  bottom: "rpn_big_bbox_pred"
  bottom: "rpn_big_anchor_target_bbox_targets"
  bottom: "rpn_big_anchor_target_inside_weights"
  bottom: "rpn_big_anchor_target_outside_weights"
  top: "rpn_big_loss_bbox"
  loss_weight: 1
  python_param {
    module: "layers.smooth_l1_loss"
    layer: "SmoothL1LossLayer"
    param_str: "{\"sigma\": 3}"
  }
}
layer {
  name: "proposal"
  type: "Python"
  bottom: "rpn_big_cls_prob_reshape"
  bottom: "rpn_big_bbox_pred"
  bottom: "input_im_info"
  top: "rpn_rois"
  python_param {
    module: "rpn.proposal_layer"
    layer: "ProposalLayer"
    param_str: "{\"anchor_shift_num_xy\": [[2, 2], [2, 2], [2, 2], [2, 2], [1, 1], [1, 1], [1, 1], [1, 1], [1, 1], [1, 1], [1, 1], [1, 1], [1, 1], [1, 1]], \"feat_stride\": 16, \"num_classes\": 1, \"anchor_scales\": [2.5, 3.025, 3.66025, 4.4289024999999995, 5.358972025, 6.484356150249999, 7.846070941802498, 9.493745839581022, 11.487432465893036, 13.899793283730574, 16.818749873313998, 20.350687346709933, 24.62433168951902, 29.795441344318014], \"square_targets\": true, \"name\": \"rpn_big\", \"batchsize\": 256, \"anchor_ratios\": [1.0]}"
  }
}
layer {
  name: "roi-data"
  type: "Python"
  bottom: "rpn_rois"
  bottom: "input_gt_boxes"
  top: "rois"
  top: "labels"
  top: "bbox_targets"
  top: "bbox_inside_weights"
  top: "bbox_outside_weights"
  top: "pid_label"
  python_param {
    module: "rpn.proposal_target_layer"
    layer: "ProposalTargetLayer"
    param_str: "{\"num_classes\": 2, \"bg_aux_label\": 5532}"
  }
}
layer {
  name: "roi-pool"
  type: "ROIPooling"
  bottom: "conv5_3"
  bottom: "rois"
  top: "roi-pool"
  roi_pooling_param {
    pooled_h: 7
    pooled_w: 7
    spatial_scale: 0.0625
  }
}
layer {
  name: "fc6"
  type: "InnerProduct"
  bottom: "roi-pool"
  top: "fc6"
  param {
    lr_mult: 1
  }
  param {
    lr_mult: 2
  }
  inner_product_param {
    num_output: 4096
  }
}
layer {
  name: "relu6"
  type: "ReLU"
  bottom: "fc6"
  top: "fc6"
}
layer {
  name: "drop6"
  type: "Dropout"
  bottom: "fc6"
  top: "fc6"
  dropout_param {
    dropout_ratio: 0.5
  }
}
layer {
  name: "fc7"
  type: "InnerProduct"
  bottom: "fc6"
  top: "fc7"
  param {
    lr_mult: 1
  }
  param {
    lr_mult: 2
  }
  inner_product_param {
    num_output: 4096
  }
}
layer {
  name: "relu7"
  type: "ReLU"
  bottom: "fc7"
  top: "fc7"
}
layer {
  name: "drop7"
  type: "Dropout"
  bottom: "fc7"
  top: "fc7"
  dropout_param {
    dropout_ratio: 0.5
  }
}
layer {
  name: "bbox_pred"
  type: "InnerProduct"
  bottom: "fc7"
  top: "bbox_pred"
  param {
    lr_mult: 1
  }
  param {
    lr_mult: 2
  }
  inner_product_param {
    num_output: 8
    weight_filler {
      type: "gaussian"
      std: 0.001
    }
    bias_filler {
      type: "constant"
      value: 0
    }
  }
}
layer {
  name: "loss_bbox"
  type: "SmoothL1Loss"
  bottom: "bbox_pred"
  bottom: "bbox_targets"
  bottom: "bbox_inside_weights"
  bottom: "bbox_outside_weights"
  top: "loss_bbox"
  loss_weight: 1
}
layer {
  name: "feat"
  type: "InnerProduct"
  bottom: "fc7"
  top: "feat"
  param {
    lr_mult: 1
    decay_mult: 1
  }
  param {
    lr_mult: 2
    decay_mult: 0
  }
  inner_product_param {
    num_output: 256
    weight_filler {
      type: "gaussian"
      std: 0.01
    }
    bias_filler {
      type: "constant"
      value: 0
    }
  }
}
layer {
  name: "relu8"
  type: "ReLU"
  bottom: "feat"
  top: "feat"
}
layer {
  name: "drop8"
  type: "Dropout"
  bottom: "feat"
  top: "feat"
  dropout_param {
    dropout_ratio: 0.5
  }
}
layer {
  name: "pid_score"
  type: "InnerProduct"
  bottom: "feat"
  top: "pid_score"
  param {
    lr_mult: 1
    decay_mult: 1
  }
  param {
    lr_mult: 2
    decay_mult: 0
  }
  inner_product_param {
    num_output: 5533
    weight_filler {
      type: "gaussian"
      std: 0.001
    }
    bias_filler {
      type: "constant"
      value: 0
    }
  }
}
layer {
  name: "pid_accuracy"
  type: "Accuracy"
  bottom: "pid_score"
  bottom: "pid_label"
  top: "pid_accuracy"
  accuracy_param {
    ignore_label: -1
  }
}
I0413 18:33:44.335971 13527 layer_factory.hpp:77] Creating layer input
I0413 18:33:44.337245 13527 net.cpp:100] Creating Layer input
I0413 18:33:44.337265 13527 net.cpp:408] input -> input_data
I0413 18:33:44.337282 13527 net.cpp:408] input -> input_im_info
I0413 18:33:44.337294 13527 net.cpp:408] input -> input_gt_boxes
I0413 18:33:44.337304 13527 net.cpp:408] input -> input_ignored_boxes
RoiDataLayer: name_to_top: {'im_info': 1, 'gt_boxes': 2, 'ignored_boxes': 3, 'data': 0}
I0413 18:33:44.661629 13527 net.cpp:150] Setting up input
I0413 18:33:44.661662 13527 net.cpp:157] Top shape: 1 3 1000 1500 (4500000)
I0413 18:33:44.661671 13527 net.cpp:157] Top shape: 1 3 (3)
I0413 18:33:44.661677 13527 net.cpp:157] Top shape: 1 5 (5)
I0413 18:33:44.661684 13527 net.cpp:157] Top shape: 1 5 (5)
I0413 18:33:44.661689 13527 net.cpp:165] Memory required for data: 18000052
I0413 18:33:44.661698 13527 layer_factory.hpp:77] Creating layer input_data_input_0_split
I0413 18:33:44.661715 13527 net.cpp:100] Creating Layer input_data_input_0_split
I0413 18:33:44.661721 13527 net.cpp:434] input_data_input_0_split <- input_data
I0413 18:33:44.661733 13527 net.cpp:408] input_data_input_0_split -> input_data_input_0_split_0
I0413 18:33:44.661756 13527 net.cpp:408] input_data_input_0_split -> input_data_input_0_split_1
I0413 18:33:44.661801 13527 net.cpp:150] Setting up input_data_input_0_split
I0413 18:33:44.661813 13527 net.cpp:157] Top shape: 1 3 1000 1500 (4500000)
I0413 18:33:44.661821 13527 net.cpp:157] Top shape: 1 3 1000 1500 (4500000)
I0413 18:33:44.661829 13527 net.cpp:165] Memory required for data: 54000052
I0413 18:33:44.661835 13527 layer_factory.hpp:77] Creating layer input_im_info_input_1_split
I0413 18:33:44.661846 13527 net.cpp:100] Creating Layer input_im_info_input_1_split
I0413 18:33:44.661854 13527 net.cpp:434] input_im_info_input_1_split <- input_im_info
I0413 18:33:44.661864 13527 net.cpp:408] input_im_info_input_1_split -> input_im_info_input_1_split_0
I0413 18:33:44.661877 13527 net.cpp:408] input_im_info_input_1_split -> input_im_info_input_1_split_1
I0413 18:33:44.661914 13527 net.cpp:150] Setting up input_im_info_input_1_split
I0413 18:33:44.661923 13527 net.cpp:157] Top shape: 1 3 (3)
I0413 18:33:44.661931 13527 net.cpp:157] Top shape: 1 3 (3)
I0413 18:33:44.661938 13527 net.cpp:165] Memory required for data: 54000076
I0413 18:33:44.661945 13527 layer_factory.hpp:77] Creating layer input_gt_boxes_input_2_split
I0413 18:33:44.661955 13527 net.cpp:100] Creating Layer input_gt_boxes_input_2_split
I0413 18:33:44.661963 13527 net.cpp:434] input_gt_boxes_input_2_split <- input_gt_boxes
I0413 18:33:44.661972 13527 net.cpp:408] input_gt_boxes_input_2_split -> input_gt_boxes_input_2_split_0
I0413 18:33:44.661988 13527 net.cpp:408] input_gt_boxes_input_2_split -> input_gt_boxes_input_2_split_1
I0413 18:33:44.662022 13527 net.cpp:150] Setting up input_gt_boxes_input_2_split
I0413 18:33:44.662032 13527 net.cpp:157] Top shape: 1 5 (5)
I0413 18:33:44.662041 13527 net.cpp:157] Top shape: 1 5 (5)
I0413 18:33:44.662048 13527 net.cpp:165] Memory required for data: 54000116
I0413 18:33:44.662055 13527 layer_factory.hpp:77] Creating layer conv1_1
I0413 18:33:44.662072 13527 net.cpp:100] Creating Layer conv1_1
I0413 18:33:44.662081 13527 net.cpp:434] conv1_1 <- input_data_input_0_split_0
I0413 18:33:44.662091 13527 net.cpp:408] conv1_1 -> conv1_1
I0413 18:33:44.665566 13527 net.cpp:150] Setting up conv1_1
I0413 18:33:44.665609 13527 net.cpp:157] Top shape: 1 64 1000 1500 (96000000)
I0413 18:33:44.665616 13527 net.cpp:165] Memory required for data: 438000116
I0413 18:33:44.665640 13527 layer_factory.hpp:77] Creating layer relu1_1
I0413 18:33:44.665658 13527 net.cpp:100] Creating Layer relu1_1
I0413 18:33:44.665668 13527 net.cpp:434] relu1_1 <- conv1_1
I0413 18:33:44.665683 13527 net.cpp:395] relu1_1 -> conv1_1 (in-place)
I0413 18:33:44.665700 13527 net.cpp:150] Setting up relu1_1
I0413 18:33:44.665712 13527 net.cpp:157] Top shape: 1 64 1000 1500 (96000000)
I0413 18:33:44.665719 13527 net.cpp:165] Memory required for data: 822000116
I0413 18:33:44.665729 13527 layer_factory.hpp:77] Creating layer conv1_2
I0413 18:33:44.665743 13527 net.cpp:100] Creating Layer conv1_2
I0413 18:33:44.665751 13527 net.cpp:434] conv1_2 <- conv1_1
I0413 18:33:44.665762 13527 net.cpp:408] conv1_2 -> conv1_2
I0413 18:33:44.669121 13527 net.cpp:150] Setting up conv1_2
I0413 18:33:44.669158 13527 net.cpp:157] Top shape: 1 64 1000 1500 (96000000)
I0413 18:33:44.669164 13527 net.cpp:165] Memory required for data: 1206000116
I0413 18:33:44.669188 13527 layer_factory.hpp:77] Creating layer relu1_2
I0413 18:33:44.669205 13527 net.cpp:100] Creating Layer relu1_2
I0413 18:33:44.669219 13527 net.cpp:434] relu1_2 <- conv1_2
I0413 18:33:44.669230 13527 net.cpp:395] relu1_2 -> conv1_2 (in-place)
I0413 18:33:44.669250 13527 net.cpp:150] Setting up relu1_2
I0413 18:33:44.669258 13527 net.cpp:157] Top shape: 1 64 1000 1500 (96000000)
I0413 18:33:44.669265 13527 net.cpp:165] Memory required for data: 1590000116
I0413 18:33:44.669271 13527 layer_factory.hpp:77] Creating layer pool1
I0413 18:33:44.669287 13527 net.cpp:100] Creating Layer pool1
I0413 18:33:44.669294 13527 net.cpp:434] pool1 <- conv1_2
I0413 18:33:44.669303 13527 net.cpp:408] pool1 -> pool1
I0413 18:33:44.669383 13527 net.cpp:150] Setting up pool1
I0413 18:33:44.669392 13527 net.cpp:157] Top shape: 1 64 500 750 (24000000)
I0413 18:33:44.669399 13527 net.cpp:165] Memory required for data: 1686000116
I0413 18:33:44.669404 13527 layer_factory.hpp:77] Creating layer conv2_1
I0413 18:33:44.669425 13527 net.cpp:100] Creating Layer conv2_1
I0413 18:33:44.669431 13527 net.cpp:434] conv2_1 <- pool1
I0413 18:33:44.669443 13527 net.cpp:408] conv2_1 -> conv2_1
I0413 18:33:44.670644 13527 net.cpp:150] Setting up conv2_1
I0413 18:33:44.670667 13527 net.cpp:157] Top shape: 1 128 500 750 (48000000)
I0413 18:33:44.670673 13527 net.cpp:165] Memory required for data: 1878000116
I0413 18:33:44.670691 13527 layer_factory.hpp:77] Creating layer relu2_1
I0413 18:33:44.670706 13527 net.cpp:100] Creating Layer relu2_1
I0413 18:33:44.670714 13527 net.cpp:434] relu2_1 <- conv2_1
I0413 18:33:44.670725 13527 net.cpp:395] relu2_1 -> conv2_1 (in-place)
I0413 18:33:44.670737 13527 net.cpp:150] Setting up relu2_1
I0413 18:33:44.670747 13527 net.cpp:157] Top shape: 1 128 500 750 (48000000)
I0413 18:33:44.670754 13527 net.cpp:165] Memory required for data: 2070000116
I0413 18:33:44.670760 13527 layer_factory.hpp:77] Creating layer conv2_2
I0413 18:33:44.670776 13527 net.cpp:100] Creating Layer conv2_2
I0413 18:33:44.670783 13527 net.cpp:434] conv2_2 <- conv2_1
I0413 18:33:44.670794 13527 net.cpp:408] conv2_2 -> conv2_2
I0413 18:33:44.671970 13527 net.cpp:150] Setting up conv2_2
I0413 18:33:44.671998 13527 net.cpp:157] Top shape: 1 128 500 750 (48000000)
I0413 18:33:44.672003 13527 net.cpp:165] Memory required for data: 2262000116
I0413 18:33:44.672027 13527 layer_factory.hpp:77] Creating layer relu2_2
I0413 18:33:44.672041 13527 net.cpp:100] Creating Layer relu2_2
I0413 18:33:44.672050 13527 net.cpp:434] relu2_2 <- conv2_2
I0413 18:33:44.672066 13527 net.cpp:395] relu2_2 -> conv2_2 (in-place)
I0413 18:33:44.672082 13527 net.cpp:150] Setting up relu2_2
I0413 18:33:44.672091 13527 net.cpp:157] Top shape: 1 128 500 750 (48000000)
I0413 18:33:44.672098 13527 net.cpp:165] Memory required for data: 2454000116
I0413 18:33:44.672104 13527 layer_factory.hpp:77] Creating layer pool2
I0413 18:33:44.672113 13527 net.cpp:100] Creating Layer pool2
I0413 18:33:44.672122 13527 net.cpp:434] pool2 <- conv2_2
I0413 18:33:44.672133 13527 net.cpp:408] pool2 -> pool2
I0413 18:33:44.672190 13527 net.cpp:150] Setting up pool2
I0413 18:33:44.672204 13527 net.cpp:157] Top shape: 1 128 250 375 (12000000)
I0413 18:33:44.672211 13527 net.cpp:165] Memory required for data: 2502000116
I0413 18:33:44.672219 13527 layer_factory.hpp:77] Creating layer conv3_1
I0413 18:33:44.672233 13527 net.cpp:100] Creating Layer conv3_1
I0413 18:33:44.672240 13527 net.cpp:434] conv3_1 <- pool2
I0413 18:33:44.672252 13527 net.cpp:408] conv3_1 -> conv3_1
I0413 18:33:44.673530 13527 net.cpp:150] Setting up conv3_1
I0413 18:33:44.673559 13527 net.cpp:157] Top shape: 1 256 250 375 (24000000)
I0413 18:33:44.673566 13527 net.cpp:165] Memory required for data: 2598000116
I0413 18:33:44.673588 13527 layer_factory.hpp:77] Creating layer relu3_1
I0413 18:33:44.673604 13527 net.cpp:100] Creating Layer relu3_1
I0413 18:33:44.673614 13527 net.cpp:434] relu3_1 <- conv3_1
I0413 18:33:44.673625 13527 net.cpp:395] relu3_1 -> conv3_1 (in-place)
I0413 18:33:44.673640 13527 net.cpp:150] Setting up relu3_1
I0413 18:33:44.673650 13527 net.cpp:157] Top shape: 1 256 250 375 (24000000)
I0413 18:33:44.673655 13527 net.cpp:165] Memory required for data: 2694000116
I0413 18:33:44.673662 13527 layer_factory.hpp:77] Creating layer conv3_2
I0413 18:33:44.673681 13527 net.cpp:100] Creating Layer conv3_2
I0413 18:33:44.673688 13527 net.cpp:434] conv3_2 <- conv3_1
I0413 18:33:44.673701 13527 net.cpp:408] conv3_2 -> conv3_2
I0413 18:33:44.674914 13527 net.cpp:150] Setting up conv3_2
I0413 18:33:44.674945 13527 net.cpp:157] Top shape: 1 256 250 375 (24000000)
I0413 18:33:44.674950 13527 net.cpp:165] Memory required for data: 2790000116
I0413 18:33:44.674963 13527 layer_factory.hpp:77] Creating layer relu3_2
I0413 18:33:44.674978 13527 net.cpp:100] Creating Layer relu3_2
I0413 18:33:44.674985 13527 net.cpp:434] relu3_2 <- conv3_2
I0413 18:33:44.675001 13527 net.cpp:395] relu3_2 -> conv3_2 (in-place)
I0413 18:33:44.675016 13527 net.cpp:150] Setting up relu3_2
I0413 18:33:44.675026 13527 net.cpp:157] Top shape: 1 256 250 375 (24000000)
I0413 18:33:44.675032 13527 net.cpp:165] Memory required for data: 2886000116
I0413 18:33:44.675037 13527 layer_factory.hpp:77] Creating layer conv3_3
I0413 18:33:44.675050 13527 net.cpp:100] Creating Layer conv3_3
I0413 18:33:44.675056 13527 net.cpp:434] conv3_3 <- conv3_2
I0413 18:33:44.675065 13527 net.cpp:408] conv3_3 -> conv3_3
I0413 18:33:44.678719 13527 net.cpp:150] Setting up conv3_3
I0413 18:33:44.678756 13527 net.cpp:157] Top shape: 1 256 250 375 (24000000)
I0413 18:33:44.678764 13527 net.cpp:165] Memory required for data: 2982000116
I0413 18:33:44.678782 13527 layer_factory.hpp:77] Creating layer relu3_3
I0413 18:33:44.678799 13527 net.cpp:100] Creating Layer relu3_3
I0413 18:33:44.678808 13527 net.cpp:434] relu3_3 <- conv3_3
I0413 18:33:44.678820 13527 net.cpp:395] relu3_3 -> conv3_3 (in-place)
I0413 18:33:44.678836 13527 net.cpp:150] Setting up relu3_3
I0413 18:33:44.678845 13527 net.cpp:157] Top shape: 1 256 250 375 (24000000)
I0413 18:33:44.678851 13527 net.cpp:165] Memory required for data: 3078000116
I0413 18:33:44.678858 13527 layer_factory.hpp:77] Creating layer pool3
I0413 18:33:44.678870 13527 net.cpp:100] Creating Layer pool3
I0413 18:33:44.678876 13527 net.cpp:434] pool3 <- conv3_3
I0413 18:33:44.678885 13527 net.cpp:408] pool3 -> pool3
I0413 18:33:44.678975 13527 net.cpp:150] Setting up pool3
I0413 18:33:44.678989 13527 net.cpp:157] Top shape: 1 256 125 188 (6016000)
I0413 18:33:44.678997 13527 net.cpp:165] Memory required for data: 3102064116
I0413 18:33:44.679003 13527 layer_factory.hpp:77] Creating layer conv4_1
I0413 18:33:44.679018 13527 net.cpp:100] Creating Layer conv4_1
I0413 18:33:44.679026 13527 net.cpp:434] conv4_1 <- pool3
I0413 18:33:44.679036 13527 net.cpp:408] conv4_1 -> conv4_1
I0413 18:33:44.683431 13527 net.cpp:150] Setting up conv4_1
I0413 18:33:44.683477 13527 net.cpp:157] Top shape: 1 512 125 188 (12032000)
I0413 18:33:44.683483 13527 net.cpp:165] Memory required for data: 3150192116
I0413 18:33:44.683497 13527 layer_factory.hpp:77] Creating layer relu4_1
I0413 18:33:44.683511 13527 net.cpp:100] Creating Layer relu4_1
I0413 18:33:44.683516 13527 net.cpp:434] relu4_1 <- conv4_1
I0413 18:33:44.683526 13527 net.cpp:395] relu4_1 -> conv4_1 (in-place)
I0413 18:33:44.683538 13527 net.cpp:150] Setting up relu4_1
I0413 18:33:44.683545 13527 net.cpp:157] Top shape: 1 512 125 188 (12032000)
I0413 18:33:44.683549 13527 net.cpp:165] Memory required for data: 3198320116
I0413 18:33:44.683553 13527 layer_factory.hpp:77] Creating layer conv4_2
I0413 18:33:44.683567 13527 net.cpp:100] Creating Layer conv4_2
I0413 18:33:44.683570 13527 net.cpp:434] conv4_2 <- conv4_1
I0413 18:33:44.683580 13527 net.cpp:408] conv4_2 -> conv4_2
I0413 18:33:44.689131 13527 net.cpp:150] Setting up conv4_2
I0413 18:33:44.689173 13527 net.cpp:157] Top shape: 1 512 125 188 (12032000)
I0413 18:33:44.689180 13527 net.cpp:165] Memory required for data: 3246448116
I0413 18:33:44.689203 13527 layer_factory.hpp:77] Creating layer relu4_2
I0413 18:33:44.689216 13527 net.cpp:100] Creating Layer relu4_2
I0413 18:33:44.689224 13527 net.cpp:434] relu4_2 <- conv4_2
I0413 18:33:44.689239 13527 net.cpp:395] relu4_2 -> conv4_2 (in-place)
I0413 18:33:44.689254 13527 net.cpp:150] Setting up relu4_2
I0413 18:33:44.689265 13527 net.cpp:157] Top shape: 1 512 125 188 (12032000)
I0413 18:33:44.689270 13527 net.cpp:165] Memory required for data: 3294576116
I0413 18:33:44.689276 13527 layer_factory.hpp:77] Creating layer conv4_3
I0413 18:33:44.689292 13527 net.cpp:100] Creating Layer conv4_3
I0413 18:33:44.689299 13527 net.cpp:434] conv4_3 <- conv4_2
I0413 18:33:44.689307 13527 net.cpp:408] conv4_3 -> conv4_3
I0413 18:33:44.694725 13527 net.cpp:150] Setting up conv4_3
I0413 18:33:44.694767 13527 net.cpp:157] Top shape: 1 512 125 188 (12032000)
I0413 18:33:44.694772 13527 net.cpp:165] Memory required for data: 3342704116
I0413 18:33:44.694782 13527 layer_factory.hpp:77] Creating layer relu4_3
I0413 18:33:44.694792 13527 net.cpp:100] Creating Layer relu4_3
I0413 18:33:44.694797 13527 net.cpp:434] relu4_3 <- conv4_3
I0413 18:33:44.694803 13527 net.cpp:395] relu4_3 -> conv4_3 (in-place)
I0413 18:33:44.694813 13527 net.cpp:150] Setting up relu4_3
I0413 18:33:44.694818 13527 net.cpp:157] Top shape: 1 512 125 188 (12032000)
I0413 18:33:44.694821 13527 net.cpp:165] Memory required for data: 3390832116
I0413 18:33:44.694824 13527 layer_factory.hpp:77] Creating layer pool4
I0413 18:33:44.694831 13527 net.cpp:100] Creating Layer pool4
I0413 18:33:44.694834 13527 net.cpp:434] pool4 <- conv4_3
I0413 18:33:44.694839 13527 net.cpp:408] pool4 -> pool4
I0413 18:33:44.694876 13527 net.cpp:150] Setting up pool4
I0413 18:33:44.694885 13527 net.cpp:157] Top shape: 1 512 63 94 (3032064)
I0413 18:33:44.694887 13527 net.cpp:165] Memory required for data: 3402960372
I0413 18:33:44.694890 13527 layer_factory.hpp:77] Creating layer conv5_1
I0413 18:33:44.694900 13527 net.cpp:100] Creating Layer conv5_1
I0413 18:33:44.694905 13527 net.cpp:434] conv5_1 <- pool4
I0413 18:33:44.694910 13527 net.cpp:408] conv5_1 -> conv5_1
I0413 18:33:44.699534 13527 net.cpp:150] Setting up conv5_1
I0413 18:33:44.699568 13527 net.cpp:157] Top shape: 1 512 63 94 (3032064)
I0413 18:33:44.699581 13527 net.cpp:165] Memory required for data: 3415088628
I0413 18:33:44.699591 13527 layer_factory.hpp:77] Creating layer relu5_1
I0413 18:33:44.699604 13527 net.cpp:100] Creating Layer relu5_1
I0413 18:33:44.699609 13527 net.cpp:434] relu5_1 <- conv5_1
I0413 18:33:44.699615 13527 net.cpp:395] relu5_1 -> conv5_1 (in-place)
I0413 18:33:44.699625 13527 net.cpp:150] Setting up relu5_1
I0413 18:33:44.699630 13527 net.cpp:157] Top shape: 1 512 63 94 (3032064)
I0413 18:33:44.699632 13527 net.cpp:165] Memory required for data: 3427216884
I0413 18:33:44.699635 13527 layer_factory.hpp:77] Creating layer conv5_2
I0413 18:33:44.699645 13527 net.cpp:100] Creating Layer conv5_2
I0413 18:33:44.699648 13527 net.cpp:434] conv5_2 <- conv5_1
I0413 18:33:44.699654 13527 net.cpp:408] conv5_2 -> conv5_2
I0413 18:33:44.703817 13527 net.cpp:150] Setting up conv5_2
I0413 18:33:44.703850 13527 net.cpp:157] Top shape: 1 512 63 94 (3032064)
I0413 18:33:44.703861 13527 net.cpp:165] Memory required for data: 3439345140
I0413 18:33:44.703871 13527 layer_factory.hpp:77] Creating layer relu5_2
I0413 18:33:44.703881 13527 net.cpp:100] Creating Layer relu5_2
I0413 18:33:44.703886 13527 net.cpp:434] relu5_2 <- conv5_2
I0413 18:33:44.703894 13527 net.cpp:395] relu5_2 -> conv5_2 (in-place)
I0413 18:33:44.703904 13527 net.cpp:150] Setting up relu5_2
I0413 18:33:44.703909 13527 net.cpp:157] Top shape: 1 512 63 94 (3032064)
I0413 18:33:44.703912 13527 net.cpp:165] Memory required for data: 3451473396
I0413 18:33:44.703914 13527 layer_factory.hpp:77] Creating layer conv5_3
I0413 18:33:44.703929 13527 net.cpp:100] Creating Layer conv5_3
I0413 18:33:44.703933 13527 net.cpp:434] conv5_3 <- conv5_2
I0413 18:33:44.703938 13527 net.cpp:408] conv5_3 -> conv5_3
I0413 18:33:44.708369 13527 net.cpp:150] Setting up conv5_3
I0413 18:33:44.708406 13527 net.cpp:157] Top shape: 1 512 63 94 (3032064)
I0413 18:33:44.708410 13527 net.cpp:165] Memory required for data: 3463601652
I0413 18:33:44.708420 13527 layer_factory.hpp:77] Creating layer relu5_3
I0413 18:33:44.708431 13527 net.cpp:100] Creating Layer relu5_3
I0413 18:33:44.708436 13527 net.cpp:434] relu5_3 <- conv5_3
I0413 18:33:44.708443 13527 net.cpp:395] relu5_3 -> conv5_3 (in-place)
I0413 18:33:44.708453 13527 net.cpp:150] Setting up relu5_3
I0413 18:33:44.708457 13527 net.cpp:157] Top shape: 1 512 63 94 (3032064)
I0413 18:33:44.708461 13527 net.cpp:165] Memory required for data: 3475729908
I0413 18:33:44.708463 13527 layer_factory.hpp:77] Creating layer conv5_3_relu5_3_0_split
I0413 18:33:44.708470 13527 net.cpp:100] Creating Layer conv5_3_relu5_3_0_split
I0413 18:33:44.708474 13527 net.cpp:434] conv5_3_relu5_3_0_split <- conv5_3
I0413 18:33:44.708479 13527 net.cpp:408] conv5_3_relu5_3_0_split -> conv5_3_relu5_3_0_split_0
I0413 18:33:44.708487 13527 net.cpp:408] conv5_3_relu5_3_0_split -> conv5_3_relu5_3_0_split_1
I0413 18:33:44.708518 13527 net.cpp:150] Setting up conv5_3_relu5_3_0_split
I0413 18:33:44.708524 13527 net.cpp:157] Top shape: 1 512 63 94 (3032064)
I0413 18:33:44.708528 13527 net.cpp:157] Top shape: 1 512 63 94 (3032064)
I0413 18:33:44.708531 13527 net.cpp:165] Memory required for data: 3499986420
I0413 18:33:44.708534 13527 layer_factory.hpp:77] Creating layer rpn_big_conv1
I0413 18:33:44.708547 13527 net.cpp:100] Creating Layer rpn_big_conv1
I0413 18:33:44.708551 13527 net.cpp:434] rpn_big_conv1 <- conv5_3_relu5_3_0_split_0
I0413 18:33:44.708559 13527 net.cpp:408] rpn_big_conv1 -> rpn_big_conv1
I0413 18:33:44.733592 13527 net.cpp:150] Setting up rpn_big_conv1
I0413 18:33:44.733628 13527 net.cpp:157] Top shape: 1 512 63 94 (3032064)
I0413 18:33:44.733630 13527 net.cpp:165] Memory required for data: 3512114676
I0413 18:33:44.733640 13527 layer_factory.hpp:77] Creating layer rpn_big_conv1_relu
I0413 18:33:44.733654 13527 net.cpp:100] Creating Layer rpn_big_conv1_relu
I0413 18:33:44.733659 13527 net.cpp:434] rpn_big_conv1_relu <- rpn_big_conv1
I0413 18:33:44.733666 13527 net.cpp:395] rpn_big_conv1_relu -> rpn_big_conv1 (in-place)
I0413 18:33:44.733678 13527 net.cpp:150] Setting up rpn_big_conv1_relu
I0413 18:33:44.733686 13527 net.cpp:157] Top shape: 1 512 63 94 (3032064)
I0413 18:33:44.733690 13527 net.cpp:165] Memory required for data: 3524242932
I0413 18:33:44.733693 13527 layer_factory.hpp:77] Creating layer rpn_big_conv2
I0413 18:33:44.733705 13527 net.cpp:100] Creating Layer rpn_big_conv2
I0413 18:33:44.733710 13527 net.cpp:434] rpn_big_conv2 <- rpn_big_conv1
I0413 18:33:44.733716 13527 net.cpp:408] rpn_big_conv2 -> rpn_big_conv2
I0413 18:33:44.758842 13527 net.cpp:150] Setting up rpn_big_conv2
I0413 18:33:44.758874 13527 net.cpp:157] Top shape: 1 512 63 94 (3032064)
I0413 18:33:44.758878 13527 net.cpp:165] Memory required for data: 3536371188
I0413 18:33:44.758888 13527 layer_factory.hpp:77] Creating layer rpn_big_conv2_relu
I0413 18:33:44.758899 13527 net.cpp:100] Creating Layer rpn_big_conv2_relu
I0413 18:33:44.758904 13527 net.cpp:434] rpn_big_conv2_relu <- rpn_big_conv2
I0413 18:33:44.758913 13527 net.cpp:395] rpn_big_conv2_relu -> rpn_big_conv2 (in-place)
I0413 18:33:44.758922 13527 net.cpp:150] Setting up rpn_big_conv2_relu
I0413 18:33:44.758929 13527 net.cpp:157] Top shape: 1 512 63 94 (3032064)
I0413 18:33:44.758932 13527 net.cpp:165] Memory required for data: 3548499444
I0413 18:33:44.758935 13527 layer_factory.hpp:77] Creating layer rpn_big_conv2_drop
I0413 18:33:44.758941 13527 net.cpp:100] Creating Layer rpn_big_conv2_drop
I0413 18:33:44.758945 13527 net.cpp:434] rpn_big_conv2_drop <- rpn_big_conv2
I0413 18:33:44.758951 13527 net.cpp:395] rpn_big_conv2_drop -> rpn_big_conv2 (in-place)
I0413 18:33:44.758972 13527 net.cpp:150] Setting up rpn_big_conv2_drop
I0413 18:33:44.758981 13527 net.cpp:157] Top shape: 1 512 63 94 (3032064)
I0413 18:33:44.758985 13527 net.cpp:165] Memory required for data: 3560627700
I0413 18:33:44.758987 13527 layer_factory.hpp:77] Creating layer rpn_big_conv2_rpn_big_conv2_drop_0_split
I0413 18:33:44.758994 13527 net.cpp:100] Creating Layer rpn_big_conv2_rpn_big_conv2_drop_0_split
I0413 18:33:44.758998 13527 net.cpp:434] rpn_big_conv2_rpn_big_conv2_drop_0_split <- rpn_big_conv2
I0413 18:33:44.759003 13527 net.cpp:408] rpn_big_conv2_rpn_big_conv2_drop_0_split -> rpn_big_conv2_rpn_big_conv2_drop_0_split_0
I0413 18:33:44.759011 13527 net.cpp:408] rpn_big_conv2_rpn_big_conv2_drop_0_split -> rpn_big_conv2_rpn_big_conv2_drop_0_split_1
I0413 18:33:44.759048 13527 net.cpp:150] Setting up rpn_big_conv2_rpn_big_conv2_drop_0_split
I0413 18:33:44.759055 13527 net.cpp:157] Top shape: 1 512 63 94 (3032064)
I0413 18:33:44.759061 13527 net.cpp:157] Top shape: 1 512 63 94 (3032064)
I0413 18:33:44.759064 13527 net.cpp:165] Memory required for data: 3584884212
I0413 18:33:44.759068 13527 layer_factory.hpp:77] Creating layer rpn_big_output_cls
I0413 18:33:44.759078 13527 net.cpp:100] Creating Layer rpn_big_output_cls
I0413 18:33:44.759081 13527 net.cpp:434] rpn_big_output_cls <- rpn_big_conv2_rpn_big_conv2_drop_0_split_0
I0413 18:33:44.759093 13527 net.cpp:408] rpn_big_output_cls -> rpn_big_output_cls
I0413 18:33:44.779059 13527 net.cpp:150] Setting up rpn_big_output_cls
I0413 18:33:44.779090 13527 net.cpp:157] Top shape: 1 384 63 94 (2274048)
I0413 18:33:44.779103 13527 net.cpp:165] Memory required for data: 3593980404
I0413 18:33:44.779114 13527 layer_factory.hpp:77] Creating layer rpn_big_output_cls_relu
I0413 18:33:44.779125 13527 net.cpp:100] Creating Layer rpn_big_output_cls_relu
I0413 18:33:44.779131 13527 net.cpp:434] rpn_big_output_cls_relu <- rpn_big_output_cls
I0413 18:33:44.779139 13527 net.cpp:395] rpn_big_output_cls_relu -> rpn_big_output_cls (in-place)
I0413 18:33:44.779150 13527 net.cpp:150] Setting up rpn_big_output_cls_relu
I0413 18:33:44.779153 13527 net.cpp:157] Top shape: 1 384 63 94 (2274048)
I0413 18:33:44.779156 13527 net.cpp:165] Memory required for data: 3603076596
I0413 18:33:44.779160 13527 layer_factory.hpp:77] Creating layer rpn_big_cls_score
I0413 18:33:44.779171 13527 net.cpp:100] Creating Layer rpn_big_cls_score
I0413 18:33:44.779175 13527 net.cpp:434] rpn_big_cls_score <- rpn_big_output_cls
I0413 18:33:44.779182 13527 net.cpp:408] rpn_big_cls_score -> rpn_big_cls_score
I0413 18:33:44.781467 13527 net.cpp:150] Setting up rpn_big_cls_score
I0413 18:33:44.781482 13527 net.cpp:157] Top shape: 1 52 61 92 (291824)
I0413 18:33:44.781486 13527 net.cpp:165] Memory required for data: 3604243892
I0413 18:33:44.781508 13527 layer_factory.hpp:77] Creating layer rpn_big_cls_score_rpn_big_cls_score_0_split
I0413 18:33:44.781515 13527 net.cpp:100] Creating Layer rpn_big_cls_score_rpn_big_cls_score_0_split
I0413 18:33:44.781519 13527 net.cpp:434] rpn_big_cls_score_rpn_big_cls_score_0_split <- rpn_big_cls_score
I0413 18:33:44.781527 13527 net.cpp:408] rpn_big_cls_score_rpn_big_cls_score_0_split -> rpn_big_cls_score_rpn_big_cls_score_0_split_0
I0413 18:33:44.781534 13527 net.cpp:408] rpn_big_cls_score_rpn_big_cls_score_0_split -> rpn_big_cls_score_rpn_big_cls_score_0_split_1
I0413 18:33:44.781569 13527 net.cpp:150] Setting up rpn_big_cls_score_rpn_big_cls_score_0_split
I0413 18:33:44.781576 13527 net.cpp:157] Top shape: 1 52 61 92 (291824)
I0413 18:33:44.781580 13527 net.cpp:157] Top shape: 1 52 61 92 (291824)
I0413 18:33:44.781584 13527 net.cpp:165] Memory required for data: 3606578484
I0413 18:33:44.781586 13527 layer_factory.hpp:77] Creating layer rpn_big_cls_score_reshape
I0413 18:33:44.781594 13527 net.cpp:100] Creating Layer rpn_big_cls_score_reshape
I0413 18:33:44.781599 13527 net.cpp:434] rpn_big_cls_score_reshape <- rpn_big_cls_score_rpn_big_cls_score_0_split_0
I0413 18:33:44.781605 13527 net.cpp:408] rpn_big_cls_score_reshape -> rpn_big_cls_score_reshape
I0413 18:33:44.781630 13527 net.cpp:150] Setting up rpn_big_cls_score_reshape
I0413 18:33:44.781636 13527 net.cpp:157] Top shape: 1 2 1586 92 (291824)
I0413 18:33:44.781639 13527 net.cpp:165] Memory required for data: 3607745780
I0413 18:33:44.781642 13527 layer_factory.hpp:77] Creating layer rpn_big_cls_score_reshape_rpn_big_cls_score_reshape_0_split
I0413 18:33:44.781647 13527 net.cpp:100] Creating Layer rpn_big_cls_score_reshape_rpn_big_cls_score_reshape_0_split
I0413 18:33:44.781651 13527 net.cpp:434] rpn_big_cls_score_reshape_rpn_big_cls_score_reshape_0_split <- rpn_big_cls_score_reshape
I0413 18:33:44.781657 13527 net.cpp:408] rpn_big_cls_score_reshape_rpn_big_cls_score_reshape_0_split -> rpn_big_cls_score_reshape_rpn_big_cls_score_reshape_0_split_0
I0413 18:33:44.781663 13527 net.cpp:408] rpn_big_cls_score_reshape_rpn_big_cls_score_reshape_0_split -> rpn_big_cls_score_reshape_rpn_big_cls_score_reshape_0_split_1
I0413 18:33:44.781693 13527 net.cpp:150] Setting up rpn_big_cls_score_reshape_rpn_big_cls_score_reshape_0_split
I0413 18:33:44.781700 13527 net.cpp:157] Top shape: 1 2 1586 92 (291824)
I0413 18:33:44.781704 13527 net.cpp:157] Top shape: 1 2 1586 92 (291824)
I0413 18:33:44.781708 13527 net.cpp:165] Memory required for data: 3610080372
I0413 18:33:44.781710 13527 layer_factory.hpp:77] Creating layer rpn_big_cls_prob
I0413 18:33:44.781716 13527 net.cpp:100] Creating Layer rpn_big_cls_prob
I0413 18:33:44.781719 13527 net.cpp:434] rpn_big_cls_prob <- rpn_big_cls_score_reshape_rpn_big_cls_score_reshape_0_split_0
I0413 18:33:44.781725 13527 net.cpp:408] rpn_big_cls_prob -> rpn_big_cls_prob
I0413 18:33:44.781775 13527 net.cpp:150] Setting up rpn_big_cls_prob
I0413 18:33:44.781782 13527 net.cpp:157] Top shape: 1 2 1586 92 (291824)
I0413 18:33:44.781785 13527 net.cpp:165] Memory required for data: 3611247668
I0413 18:33:44.781788 13527 layer_factory.hpp:77] Creating layer rpn_big_cls_prob_reshape
I0413 18:33:44.781795 13527 net.cpp:100] Creating Layer rpn_big_cls_prob_reshape
I0413 18:33:44.781800 13527 net.cpp:434] rpn_big_cls_prob_reshape <- rpn_big_cls_prob
I0413 18:33:44.781805 13527 net.cpp:408] rpn_big_cls_prob_reshape -> rpn_big_cls_prob_reshape
I0413 18:33:44.781826 13527 net.cpp:150] Setting up rpn_big_cls_prob_reshape
I0413 18:33:44.781833 13527 net.cpp:157] Top shape: 1 52 61 92 (291824)
I0413 18:33:44.781836 13527 net.cpp:165] Memory required for data: 3612414964
I0413 18:33:44.781839 13527 layer_factory.hpp:77] Creating layer rpn_big_cls_prob_reshape_rpn_big_cls_prob_reshape_0_split
I0413 18:33:44.781847 13527 net.cpp:100] Creating Layer rpn_big_cls_prob_reshape_rpn_big_cls_prob_reshape_0_split
I0413 18:33:44.781852 13527 net.cpp:434] rpn_big_cls_prob_reshape_rpn_big_cls_prob_reshape_0_split <- rpn_big_cls_prob_reshape
I0413 18:33:44.781857 13527 net.cpp:408] rpn_big_cls_prob_reshape_rpn_big_cls_prob_reshape_0_split -> rpn_big_cls_prob_reshape_rpn_big_cls_prob_reshape_0_split_0
I0413 18:33:44.781863 13527 net.cpp:408] rpn_big_cls_prob_reshape_rpn_big_cls_prob_reshape_0_split -> rpn_big_cls_prob_reshape_rpn_big_cls_prob_reshape_0_split_1
I0413 18:33:44.781893 13527 net.cpp:150] Setting up rpn_big_cls_prob_reshape_rpn_big_cls_prob_reshape_0_split
I0413 18:33:44.781899 13527 net.cpp:157] Top shape: 1 52 61 92 (291824)
I0413 18:33:44.781903 13527 net.cpp:157] Top shape: 1 52 61 92 (291824)
I0413 18:33:44.781905 13527 net.cpp:165] Memory required for data: 3614749556
I0413 18:33:44.781909 13527 layer_factory.hpp:77] Creating layer rpn_big_anchor_target
I0413 18:33:44.783224 13527 net.cpp:100] Creating Layer rpn_big_anchor_target
I0413 18:33:44.783241 13527 net.cpp:434] rpn_big_anchor_target <- rpn_big_cls_score_rpn_big_cls_score_0_split_1
I0413 18:33:44.783247 13527 net.cpp:434] rpn_big_anchor_target <- input_gt_boxes_input_2_split_0
I0413 18:33:44.783252 13527 net.cpp:434] rpn_big_anchor_target <- input_ignored_boxes
I0413 18:33:44.783257 13527 net.cpp:434] rpn_big_anchor_target <- input_im_info_input_1_split_0
I0413 18:33:44.783262 13527 net.cpp:434] rpn_big_anchor_target <- input_data_input_0_split_1
I0413 18:33:44.783265 13527 net.cpp:434] rpn_big_anchor_target <- rpn_big_cls_prob_reshape_rpn_big_cls_prob_reshape_0_split_0
I0413 18:33:44.783272 13527 net.cpp:408] rpn_big_anchor_target -> rpn_big_anchor_target_labels
I0413 18:33:44.783284 13527 net.cpp:408] rpn_big_anchor_target -> rpn_big_anchor_target_bbox_targets
I0413 18:33:44.783293 13527 net.cpp:408] rpn_big_anchor_target -> rpn_big_anchor_target_inside_weights
I0413 18:33:44.783303 13527 net.cpp:408] rpn_big_anchor_target -> rpn_big_anchor_target_outside_weights
I0413 18:33:44.788787 13527 net.cpp:150] Setting up rpn_big_anchor_target
I0413 18:33:44.788820 13527 net.cpp:157] Top shape: 1 1 1586 92 (145912)
I0413 18:33:44.788825 13527 net.cpp:157] Top shape: 1 104 61 92 (583648)
I0413 18:33:44.788828 13527 net.cpp:157] Top shape: 1 104 61 92 (583648)
I0413 18:33:44.788832 13527 net.cpp:157] Top shape: 1 104 61 92 (583648)
I0413 18:33:44.788836 13527 net.cpp:165] Memory required for data: 3622336980
I0413 18:33:44.788841 13527 layer_factory.hpp:77] Creating layer rpn_big_loss_cls
I0413 18:33:44.788852 13527 net.cpp:100] Creating Layer rpn_big_loss_cls
I0413 18:33:44.788857 13527 net.cpp:434] rpn_big_loss_cls <- rpn_big_cls_score_reshape_rpn_big_cls_score_reshape_0_split_1
I0413 18:33:44.788864 13527 net.cpp:434] rpn_big_loss_cls <- rpn_big_anchor_target_labels
I0413 18:33:44.788872 13527 net.cpp:408] rpn_big_loss_cls -> rpn_big_loss_cls
I0413 18:33:44.788884 13527 layer_factory.hpp:77] Creating layer rpn_big_loss_cls
I0413 18:33:44.789521 13527 net.cpp:150] Setting up rpn_big_loss_cls
I0413 18:33:44.789541 13527 net.cpp:157] Top shape: (1)
I0413 18:33:44.789543 13527 net.cpp:160]     with loss weight 1
I0413 18:33:44.789554 13527 net.cpp:165] Memory required for data: 3622336984
I0413 18:33:44.789559 13527 layer_factory.hpp:77] Creating layer rpn_big_output_box
I0413 18:33:44.789573 13527 net.cpp:100] Creating Layer rpn_big_output_box
I0413 18:33:44.789578 13527 net.cpp:434] rpn_big_output_box <- rpn_big_conv2_rpn_big_conv2_drop_0_split_1
I0413 18:33:44.789587 13527 net.cpp:408] rpn_big_output_box -> rpn_big_output_box
I0413 18:33:44.811687 13527 net.cpp:150] Setting up rpn_big_output_box
I0413 18:33:44.811718 13527 net.cpp:157] Top shape: 1 384 63 94 (2274048)
I0413 18:33:44.811731 13527 net.cpp:165] Memory required for data: 3631433176
I0413 18:33:44.811741 13527 layer_factory.hpp:77] Creating layer rpn_big_output_box_relu
I0413 18:33:44.811753 13527 net.cpp:100] Creating Layer rpn_big_output_box_relu
I0413 18:33:44.811758 13527 net.cpp:434] rpn_big_output_box_relu <- rpn_big_output_box
I0413 18:33:44.811766 13527 net.cpp:395] rpn_big_output_box_relu -> rpn_big_output_box (in-place)
I0413 18:33:44.811777 13527 net.cpp:150] Setting up rpn_big_output_box_relu
I0413 18:33:44.811781 13527 net.cpp:157] Top shape: 1 384 63 94 (2274048)
I0413 18:33:44.811784 13527 net.cpp:165] Memory required for data: 3640529368
I0413 18:33:44.811787 13527 layer_factory.hpp:77] Creating layer rpn_big_bbox_pred
I0413 18:33:44.811800 13527 net.cpp:100] Creating Layer rpn_big_bbox_pred
I0413 18:33:44.811805 13527 net.cpp:434] rpn_big_bbox_pred <- rpn_big_output_box
I0413 18:33:44.811812 13527 net.cpp:408] rpn_big_bbox_pred -> rpn_big_bbox_pred
I0413 18:33:44.816004 13527 net.cpp:150] Setting up rpn_big_bbox_pred
I0413 18:33:44.816025 13527 net.cpp:157] Top shape: 1 104 61 92 (583648)
I0413 18:33:44.816028 13527 net.cpp:165] Memory required for data: 3642863960
I0413 18:33:44.816037 13527 layer_factory.hpp:77] Creating layer rpn_big_bbox_pred_rpn_big_bbox_pred_0_split
I0413 18:33:44.816046 13527 net.cpp:100] Creating Layer rpn_big_bbox_pred_rpn_big_bbox_pred_0_split
I0413 18:33:44.816052 13527 net.cpp:434] rpn_big_bbox_pred_rpn_big_bbox_pred_0_split <- rpn_big_bbox_pred
I0413 18:33:44.816059 13527 net.cpp:408] rpn_big_bbox_pred_rpn_big_bbox_pred_0_split -> rpn_big_bbox_pred_rpn_big_bbox_pred_0_split_0
I0413 18:33:44.816069 13527 net.cpp:408] rpn_big_bbox_pred_rpn_big_bbox_pred_0_split -> rpn_big_bbox_pred_rpn_big_bbox_pred_0_split_1
I0413 18:33:44.816103 13527 net.cpp:150] Setting up rpn_big_bbox_pred_rpn_big_bbox_pred_0_split
I0413 18:33:44.816110 13527 net.cpp:157] Top shape: 1 104 61 92 (583648)
I0413 18:33:44.816114 13527 net.cpp:157] Top shape: 1 104 61 92 (583648)
I0413 18:33:44.816118 13527 net.cpp:165] Memory required for data: 3647533144
I0413 18:33:44.816120 13527 layer_factory.hpp:77] Creating layer rpn_big_loss_bbox
I0413 18:33:44.816498 13527 net.cpp:100] Creating Layer rpn_big_loss_bbox
I0413 18:33:44.816514 13527 net.cpp:434] rpn_big_loss_bbox <- rpn_big_bbox_pred_rpn_big_bbox_pred_0_split_0
I0413 18:33:44.816522 13527 net.cpp:434] rpn_big_loss_bbox <- rpn_big_anchor_target_bbox_targets
I0413 18:33:44.816530 13527 net.cpp:434] rpn_big_loss_bbox <- rpn_big_anchor_target_inside_weights
I0413 18:33:44.816536 13527 net.cpp:434] rpn_big_loss_bbox <- rpn_big_anchor_target_outside_weights
I0413 18:33:44.816547 13527 net.cpp:408] rpn_big_loss_bbox -> rpn_big_loss_bbox
I0413 18:33:44.818866 13527 net.cpp:150] Setting up rpn_big_loss_bbox
I0413 18:33:44.818899 13527 net.cpp:157] Top shape: 1 (1)
I0413 18:33:44.818912 13527 net.cpp:160]     with loss weight 1
I0413 18:33:44.818923 13527 net.cpp:165] Memory required for data: 3647533148
I0413 18:33:44.818930 13527 layer_factory.hpp:77] Creating layer proposal
I0413 18:33:44.819326 13527 net.cpp:100] Creating Layer proposal
I0413 18:33:44.819336 13527 net.cpp:434] proposal <- rpn_big_cls_prob_reshape_rpn_big_cls_prob_reshape_0_split_1
I0413 18:33:44.819353 13527 net.cpp:434] proposal <- rpn_big_bbox_pred_rpn_big_bbox_pred_0_split_1
I0413 18:33:44.819358 13527 net.cpp:434] proposal <- input_im_info_input_1_split_1
I0413 18:33:44.819365 13527 net.cpp:408] proposal -> rpn_rois
I0413 18:33:44.823612 13527 net.cpp:150] Setting up proposal
I0413 18:33:44.823626 13527 net.cpp:157] Top shape: 1 5 (5)
I0413 18:33:44.823631 13527 net.cpp:165] Memory required for data: 3647533168
I0413 18:33:44.823642 13527 layer_factory.hpp:77] Creating layer roi-data
I0413 18:33:44.823927 13527 net.cpp:100] Creating Layer roi-data
I0413 18:33:44.823937 13527 net.cpp:434] roi-data <- rpn_rois
I0413 18:33:44.823943 13527 net.cpp:434] roi-data <- input_gt_boxes_input_2_split_1
I0413 18:33:44.823958 13527 net.cpp:408] roi-data -> rois
I0413 18:33:44.823967 13527 net.cpp:408] roi-data -> labels
I0413 18:33:44.823974 13527 net.cpp:408] roi-data -> bbox_targets
I0413 18:33:44.823982 13527 net.cpp:408] roi-data -> bbox_inside_weights
I0413 18:33:44.823988 13527 net.cpp:408] roi-data -> bbox_outside_weights
I0413 18:33:44.824000 13527 net.cpp:408] roi-data -> pid_label
I0413 18:33:44.824935 13527 net.cpp:150] Setting up roi-data
I0413 18:33:44.824947 13527 net.cpp:157] Top shape: 1 5 (5)
I0413 18:33:44.824952 13527 net.cpp:157] Top shape: 1 1 (1)
I0413 18:33:44.824965 13527 net.cpp:157] Top shape: 1 8 (8)
I0413 18:33:44.824968 13527 net.cpp:157] Top shape: 1 8 (8)
I0413 18:33:44.824972 13527 net.cpp:157] Top shape: 1 8 (8)
I0413 18:33:44.824975 13527 net.cpp:157] Top shape: (0)
I0413 18:33:44.824978 13527 net.cpp:165] Memory required for data: 3647533288
I0413 18:33:44.824981 13527 layer_factory.hpp:77] Creating layer roi-pool
I0413 18:33:44.824990 13527 net.cpp:100] Creating Layer roi-pool
I0413 18:33:44.824995 13527 net.cpp:434] roi-pool <- conv5_3_relu5_3_0_split_1
I0413 18:33:44.825001 13527 net.cpp:434] roi-pool <- rois
I0413 18:33:44.825006 13527 net.cpp:408] roi-pool -> roi-pool
I0413 18:33:44.825014 13527 roi_pooling_layer.cpp:33] Spatial scale: 0.0625
I0413 18:33:44.825026 13527 roi_pooling_layer.cpp:34] Box scale: 1
I0413 18:33:44.825064 13527 net.cpp:150] Setting up roi-pool
I0413 18:33:44.825073 13527 net.cpp:157] Top shape: 1 512 7 7 (25088)
I0413 18:33:44.825076 13527 net.cpp:165] Memory required for data: 3647633640
I0413 18:33:44.825080 13527 layer_factory.hpp:77] Creating layer fc6
I0413 18:33:44.825086 13527 net.cpp:100] Creating Layer fc6
I0413 18:33:44.825089 13527 net.cpp:434] fc6 <- roi-pool
I0413 18:33:44.825096 13527 net.cpp:408] fc6 -> fc6
I0413 18:33:44.996022 13527 net.cpp:150] Setting up fc6
I0413 18:33:44.996057 13527 net.cpp:157] Top shape: 1 4096 (4096)
I0413 18:33:44.996070 13527 net.cpp:165] Memory required for data: 3647650024
I0413 18:33:44.996083 13527 layer_factory.hpp:77] Creating layer relu6
I0413 18:33:44.996093 13527 net.cpp:100] Creating Layer relu6
I0413 18:33:44.996098 13527 net.cpp:434] relu6 <- fc6
I0413 18:33:44.996104 13527 net.cpp:395] relu6 -> fc6 (in-place)
I0413 18:33:44.996115 13527 net.cpp:150] Setting up relu6
I0413 18:33:44.996120 13527 net.cpp:157] Top shape: 1 4096 (4096)
I0413 18:33:44.996122 13527 net.cpp:165] Memory required for data: 3647666408
I0413 18:33:44.996125 13527 layer_factory.hpp:77] Creating layer drop6
I0413 18:33:44.996136 13527 net.cpp:100] Creating Layer drop6
I0413 18:33:44.996142 13527 net.cpp:434] drop6 <- fc6
I0413 18:33:44.996150 13527 net.cpp:395] drop6 -> fc6 (in-place)
I0413 18:33:44.996181 13527 net.cpp:150] Setting up drop6
I0413 18:33:44.996193 13527 net.cpp:157] Top shape: 1 4096 (4096)
I0413 18:33:44.996196 13527 net.cpp:165] Memory required for data: 3647682792
I0413 18:33:44.996201 13527 layer_factory.hpp:77] Creating layer fc7
I0413 18:33:44.996206 13527 net.cpp:100] Creating Layer fc7
I0413 18:33:44.996209 13527 net.cpp:434] fc7 <- fc6
I0413 18:33:44.996218 13527 net.cpp:408] fc7 -> fc7
I0413 18:33:45.022603 13527 net.cpp:150] Setting up fc7
I0413 18:33:45.022650 13527 net.cpp:157] Top shape: 1 4096 (4096)
I0413 18:33:45.022653 13527 net.cpp:165] Memory required for data: 3647699176
I0413 18:33:45.022665 13527 layer_factory.hpp:77] Creating layer relu7
I0413 18:33:45.022688 13527 net.cpp:100] Creating Layer relu7
I0413 18:33:45.022694 13527 net.cpp:434] relu7 <- fc7
I0413 18:33:45.022701 13527 net.cpp:395] relu7 -> fc7 (in-place)
I0413 18:33:45.022711 13527 net.cpp:150] Setting up relu7
I0413 18:33:45.022716 13527 net.cpp:157] Top shape: 1 4096 (4096)
I0413 18:33:45.022718 13527 net.cpp:165] Memory required for data: 3647715560
I0413 18:33:45.022722 13527 layer_factory.hpp:77] Creating layer drop7
I0413 18:33:45.022727 13527 net.cpp:100] Creating Layer drop7
I0413 18:33:45.022732 13527 net.cpp:434] drop7 <- fc7
I0413 18:33:45.022735 13527 net.cpp:395] drop7 -> fc7 (in-place)
I0413 18:33:45.022758 13527 net.cpp:150] Setting up drop7
I0413 18:33:45.022764 13527 net.cpp:157] Top shape: 1 4096 (4096)
I0413 18:33:45.022768 13527 net.cpp:165] Memory required for data: 3647731944
I0413 18:33:45.022770 13527 layer_factory.hpp:77] Creating layer fc7_drop7_0_split
I0413 18:33:45.022776 13527 net.cpp:100] Creating Layer fc7_drop7_0_split
I0413 18:33:45.022780 13527 net.cpp:434] fc7_drop7_0_split <- fc7
I0413 18:33:45.022785 13527 net.cpp:408] fc7_drop7_0_split -> fc7_drop7_0_split_0
I0413 18:33:45.022802 13527 net.cpp:408] fc7_drop7_0_split -> fc7_drop7_0_split_1
I0413 18:33:45.022833 13527 net.cpp:150] Setting up fc7_drop7_0_split
I0413 18:33:45.022841 13527 net.cpp:157] Top shape: 1 4096 (4096)
I0413 18:33:45.022845 13527 net.cpp:157] Top shape: 1 4096 (4096)
I0413 18:33:45.022847 13527 net.cpp:165] Memory required for data: 3647764712
I0413 18:33:45.022851 13527 layer_factory.hpp:77] Creating layer bbox_pred
I0413 18:33:45.022857 13527 net.cpp:100] Creating Layer bbox_pred
I0413 18:33:45.022861 13527 net.cpp:434] bbox_pred <- fc7_drop7_0_split_0
I0413 18:33:45.022869 13527 net.cpp:408] bbox_pred -> bbox_pred
I0413 18:33:45.023290 13527 net.cpp:150] Setting up bbox_pred
I0413 18:33:45.023299 13527 net.cpp:157] Top shape: 1 8 (8)
I0413 18:33:45.023303 13527 net.cpp:165] Memory required for data: 3647764744
I0413 18:33:45.023308 13527 layer_factory.hpp:77] Creating layer loss_bbox
I0413 18:33:45.023317 13527 net.cpp:100] Creating Layer loss_bbox
I0413 18:33:45.023320 13527 net.cpp:434] loss_bbox <- bbox_pred
I0413 18:33:45.023325 13527 net.cpp:434] loss_bbox <- bbox_targets
I0413 18:33:45.023329 13527 net.cpp:434] loss_bbox <- bbox_inside_weights
I0413 18:33:45.023334 13527 net.cpp:434] loss_bbox <- bbox_outside_weights
I0413 18:33:45.023339 13527 net.cpp:408] loss_bbox -> loss_bbox
I0413 18:33:45.023404 13527 net.cpp:150] Setting up loss_bbox
I0413 18:33:45.023411 13527 net.cpp:157] Top shape: (1)
I0413 18:33:45.023416 13527 net.cpp:160]     with loss weight 1
I0413 18:33:45.023425 13527 net.cpp:165] Memory required for data: 3647764748
I0413 18:33:45.023429 13527 layer_factory.hpp:77] Creating layer feat
I0413 18:33:45.023435 13527 net.cpp:100] Creating Layer feat
I0413 18:33:45.023438 13527 net.cpp:434] feat <- fc7_drop7_0_split_1
I0413 18:33:45.023447 13527 net.cpp:408] feat -> feat
I0413 18:33:45.034922 13527 net.cpp:150] Setting up feat
I0413 18:33:45.034955 13527 net.cpp:157] Top shape: 1 256 (256)
I0413 18:33:45.034974 13527 net.cpp:165] Memory required for data: 3647765772
I0413 18:33:45.034991 13527 layer_factory.hpp:77] Creating layer relu8
I0413 18:33:45.035003 13527 net.cpp:100] Creating Layer relu8
I0413 18:33:45.035012 13527 net.cpp:434] relu8 <- feat
I0413 18:33:45.035022 13527 net.cpp:395] relu8 -> feat (in-place)
I0413 18:33:45.035035 13527 net.cpp:150] Setting up relu8
I0413 18:33:45.035042 13527 net.cpp:157] Top shape: 1 256 (256)
I0413 18:33:45.035043 13527 net.cpp:165] Memory required for data: 3647766796
I0413 18:33:45.035048 13527 layer_factory.hpp:77] Creating layer drop8
I0413 18:33:45.035053 13527 net.cpp:100] Creating Layer drop8
I0413 18:33:45.035058 13527 net.cpp:434] drop8 <- feat
I0413 18:33:45.035063 13527 net.cpp:395] drop8 -> feat (in-place)
I0413 18:33:45.035086 13527 net.cpp:150] Setting up drop8
I0413 18:33:45.035099 13527 net.cpp:157] Top shape: 1 256 (256)
I0413 18:33:45.035101 13527 net.cpp:165] Memory required for data: 3647767820
I0413 18:33:45.035105 13527 layer_factory.hpp:77] Creating layer pid_score
I0413 18:33:45.035112 13527 net.cpp:100] Creating Layer pid_score
I0413 18:33:45.035116 13527 net.cpp:434] pid_score <- feat
I0413 18:33:45.035123 13527 net.cpp:408] pid_score -> pid_score
I0413 18:33:45.050102 13527 net.cpp:150] Setting up pid_score
I0413 18:33:45.050132 13527 net.cpp:157] Top shape: 1 5533 (5533)
I0413 18:33:45.050135 13527 net.cpp:165] Memory required for data: 3647789952
I0413 18:33:45.050146 13527 layer_factory.hpp:77] Creating layer pid_accuracy
I0413 18:33:45.050158 13527 net.cpp:100] Creating Layer pid_accuracy
I0413 18:33:45.050163 13527 net.cpp:434] pid_accuracy <- pid_score
I0413 18:33:45.050169 13527 net.cpp:434] pid_accuracy <- pid_label
I0413 18:33:45.050175 13527 net.cpp:408] pid_accuracy -> pid_accuracy
…
