…
I0413 18:16:32.395725 12794 solver.cpp:48] Initializing solver from parameters: 
base_lr: 0.001
display: 20
lr_policy: "multistep"
gamma: 0.1
momentum: 0.9
weight_decay: 0.0005
snapshot: 0
snapshot_prefix: "faces_example"
net_param {
  name: "GeneratedModel_13_04_2017_18_16"
  layer {
    name: "input"
    type: "Python"
    top: "input_data"
    top: "input_im_info"
    top: "input_gt_boxes"
    top: "input_ignored_boxes"
    python_param {
      module: "layers.roi_data_layer"
      layer: "RoIDataLayer"
      param_str: "{\"num_classes\": 2}"
    }
  }
  layer {
    name: "conv1_1"
    type: "Convolution"
    bottom: "input_data"
    top: "conv1_1"
    param {
      lr_mult: 0
      decay_mult: 0
    }
    param {
      lr_mult: 0
      decay_mult: 0
    }
    convolution_param {
      num_output: 64
      pad: 1
      kernel_size: 3
    }
  }
  layer {
    name: "relu1_1"
    type: "ReLU"
    bottom: "conv1_1"
    top: "conv1_1"
  }
  layer {
    name: "conv1_2"
    type: "Convolution"
    bottom: "conv1_1"
    top: "conv1_2"
    param {
      lr_mult: 0
      decay_mult: 0
    }
    param {
      lr_mult: 0
      decay_mult: 0
    }
    convolution_param {
      num_output: 64
      pad: 1
      kernel_size: 3
    }
  }
  layer {
    name: "relu1_2"
    type: "ReLU"
    bottom: "conv1_2"
    top: "conv1_2"
  }
  layer {
    name: "pool1"
    type: "Pooling"
    bottom: "conv1_2"
    top: "pool1"
    pooling_param {
      pool: MAX
      kernel_size: 2
      stride: 2
    }
  }
  layer {
    name: "conv2_1"
    type: "Convolution"
    bottom: "pool1"
    top: "conv2_1"
    param {
      lr_mult: 0
      decay_mult: 0
    }
    param {
      lr_mult: 0
      decay_mult: 0
    }
    convolution_param {
      num_output: 128
      pad: 1
      kernel_size: 3
    }
  }
  layer {
    name: "relu2_1"
    type: "ReLU"
    bottom: "conv2_1"
    top: "conv2_1"
  }
  layer {
    name: "conv2_2"
    type: "Convolution"
    bottom: "conv2_1"
    top: "conv2_2"
    param {
      lr_mult: 0
      decay_mult: 0
    }
    param {
      lr_mult: 0
      decay_mult: 0
    }
    convolution_param {
      num_output: 128
      pad: 1
      kernel_size: 3
    }
  }
  layer {
    name: "relu2_2"
    type: "ReLU"
    bottom: "conv2_2"
    top: "conv2_2"
  }
  layer {
    name: "pool2"
    type: "Pooling"
    bottom: "conv2_2"
    top: "pool2"
    pooling_param {
      pool: MAX
      kernel_size: 2
      stride: 2
    }
  }
  layer {
    name: "conv3_1"
    type: "Convolution"
    bottom: "pool2"
    top: "conv3_1"
    param {
      lr_mult: 1
    }
    param {
      lr_mult: 2
    }
    convolution_param {
      num_output: 256
      pad: 1
      kernel_size: 3
    }
  }
  layer {
    name: "relu3_1"
    type: "ReLU"
    bottom: "conv3_1"
    top: "conv3_1"
  }
  layer {
    name: "conv3_2"
    type: "Convolution"
    bottom: "conv3_1"
    top: "conv3_2"
    param {
      lr_mult: 1
    }
    param {
      lr_mult: 2
    }
    convolution_param {
      num_output: 256
      pad: 1
      kernel_size: 3
    }
  }
  layer {
    name: "relu3_2"
    type: "ReLU"
    bottom: "conv3_2"
    top: "conv3_2"
  }
  layer {
    name: "conv3_3"
    type: "Convolution"
    bottom: "conv3_2"
    top: "conv3_3"
    param {
      lr_mult: 1
    }
    param {
      lr_mult: 2
    }
    convolution_param {
      num_output: 256
      pad: 1
      kernel_size: 3
    }
  }
  layer {
    name: "relu3_3"
    type: "ReLU"
    bottom: "conv3_3"
    top: "conv3_3"
  }
  layer {
    name: "pool3"
    type: "Pooling"
    bottom: "conv3_3"
    top: "pool3"
    pooling_param {
      pool: MAX
      kernel_size: 2
      stride: 2
    }
  }
  layer {
    name: "conv4_1"
    type: "Convolution"
    bottom: "pool3"
    top: "conv4_1"
    param {
      lr_mult: 1
    }
    param {
      lr_mult: 2
    }
    convolution_param {
      num_output: 512
      pad: 1
      kernel_size: 3
    }
  }
  layer {
    name: "relu4_1"
    type: "ReLU"
    bottom: "conv4_1"
    top: "conv4_1"
  }
  layer {
    name: "conv4_2"
    type: "Convolution"
    bottom: "conv4_1"
    top: "conv4_2"
    param {
      lr_mult: 1
    }
    param {
      lr_mult: 2
    }
    convolution_param {
      num_output: 512
      pad: 1
      kernel_size: 3
    }
  }
  layer {
    name: "relu4_2"
    type: "ReLU"
    bottom: "conv4_2"
    top: "conv4_2"
  }
  layer {
    name: "conv4_3"
    type: "Convolution"
    bottom: "conv4_2"
    top: "conv4_3"
    param {
      lr_mult: 1
    }
    param {
      lr_mult: 2
    }
    convolution_param {
      num_output: 512
      pad: 1
      kernel_size: 3
    }
  }
  layer {
    name: "relu4_3"
    type: "ReLU"
    bottom: "conv4_3"
    top: "conv4_3"
  }
  layer {
    name: "pool4"
    type: "Pooling"
    bottom: "conv4_3"
    top: "pool4"
    pooling_param {
      pool: MAX
      kernel_size: 2
      stride: 2
    }
  }
  layer {
    name: "conv5_1"
    type: "Convolution"
    bottom: "pool4"
    top: "conv5_1"
    param {
      lr_mult: 1
    }
    param {
      lr_mult: 2
    }
    convolution_param {
      num_output: 512
      pad: 1
      kernel_size: 3
    }
  }
  layer {
    name: "relu5_1"
    type: "ReLU"
    bottom: "conv5_1"
    top: "conv5_1"
  }
  layer {
    name: "conv5_2"
    type: "Convolution"
    bottom: "conv5_1"
    top: "conv5_2"
    param {
      lr_mult: 1
    }
    param {
      lr_mult: 2
    }
    convolution_param {
      num_output: 512
      pad: 1
      kernel_size: 3
    }
  }
  layer {
    name: "relu5_2"
    type: "ReLU"
    bottom: "conv5_2"
    top: "conv5_2"
  }
  layer {
    name: "conv5_3"
    type: "Convolution"
    bottom: "conv5_2"
    top: "conv5_3"
    param {
      lr_mult: 1
    }
    param {
      lr_mult: 2
    }
    convolution_param {
      num_output: 512
      pad: 1
      kernel_size: 3
    }
  }
  layer {
    name: "relu5_3"
    type: "ReLU"
    bottom: "conv5_3"
    top: "conv5_3"
  }
  layer {
    name: "rpn_big_conv1"
    type: "Convolution"
    bottom: "conv5_3"
    top: "rpn_big_conv1"
    param {
      lr_mult: 1
    }
    param {
      lr_mult: 2
    }
    convolution_param {
      num_output: 512
      pad: 1
      kernel_size: 3
      stride: 1
      weight_filler {
        type: "gaussian"
        mean: 0
        std: 0.01
      }
      bias_filler {
        type: "constant"
      }
    }
  }
  layer {
    name: "rpn_big_conv1_relu"
    type: "ReLU"
    bottom: "rpn_big_conv1"
    top: "rpn_big_conv1"
    relu_param {
      negative_slope: 0
    }
  }
  layer {
    name: "rpn_big_conv2"
    type: "Convolution"
    bottom: "rpn_big_conv1"
    top: "rpn_big_conv2"
    param {
      lr_mult: 1
    }
    param {
      lr_mult: 2
    }
    convolution_param {
      num_output: 512
      pad: 1
      kernel_size: 3
      stride: 1
      weight_filler {
        type: "gaussian"
        mean: 0
        std: 0.01
      }
      bias_filler {
        type: "constant"
      }
    }
  }
  layer {
    name: "rpn_big_conv2_relu"
    type: "ReLU"
    bottom: "rpn_big_conv2"
    top: "rpn_big_conv2"
    relu_param {
      negative_slope: 0
    }
  }
  layer {
    name: "rpn_big_conv2_drop"
    type: "Dropout"
    bottom: "rpn_big_conv2"
    top: "rpn_big_conv2"
    dropout_param {
      dropout_ratio: 0.3
    }
  }
  layer {
    name: "rpn_big_output_cls"
    type: "Convolution"
    bottom: "rpn_big_conv2"
    top: "rpn_big_output_cls"
    param {
      lr_mult: 1
    }
    param {
      lr_mult: 2
    }
    convolution_param {
      num_output: 384
      pad: 1
      kernel_size: 3
      stride: 1
      weight_filler {
        type: "gaussian"
        mean: 0
        std: 0.01
      }
      bias_filler {
        type: "constant"
      }
    }
  }
  layer {
    name: "rpn_big_output_cls_relu"
    type: "ReLU"
    bottom: "rpn_big_output_cls"
    top: "rpn_big_output_cls"
    relu_param {
      negative_slope: 0
    }
  }
  layer {
    name: "rpn_big_cls_score"
    type: "Convolution"
    bottom: "rpn_big_output_cls"
    top: "rpn_big_cls_score"
    param {
      lr_mult: 1
    }
    param {
      lr_mult: 2
    }
    convolution_param {
      num_output: 52
      pad: 0
      kernel_size: 3
      stride: 1
      weight_filler {
        type: "gaussian"
        mean: 0
        std: 0.01
      }
      bias_filler {
        type: "constant"
      }
    }
  }
  layer {
    name: "rpn_big_cls_score_reshape"
    type: "Reshape"
    bottom: "rpn_big_cls_score"
    top: "rpn_big_cls_score_reshape"
    reshape_param {
      shape {
        dim: 0
        dim: 2
        dim: -1
        dim: 0
      }
    }
  }
  layer {
    name: "rpn_big_cls_prob"
    type: "Softmax"
    bottom: "rpn_big_cls_score_reshape"
    top: "rpn_big_cls_prob"
  }
  layer {
    name: "rpn_big_cls_prob_reshape"
    type: "Reshape"
    bottom: "rpn_big_cls_prob"
    top: "rpn_big_cls_prob_reshape"
    reshape_param {
      shape {
        dim: 0
        dim: 52
        dim: -1
        dim: 0
      }
    }
  }
  layer {
    name: "rpn_big_anchor_target"
    type: "Python"
    bottom: "rpn_big_cls_score"
    bottom: "input_gt_boxes"
    bottom: "input_ignored_boxes"
    bottom: "input_im_info"
    bottom: "input_data"
    bottom: "rpn_big_cls_prob_reshape"
    top: "rpn_big_anchor_target_labels"
    top: "rpn_big_anchor_target_bbox_targets"
    top: "rpn_big_anchor_target_inside_weights"
    top: "rpn_big_anchor_target_outside_weights"
    python_param {
      module: "rpn.anchor_target_layer"
      layer: "AnchorTargetLayer"
      param_str: "{\"fg_fraction\": 0.5, \"feat_stride\": 16, \"tn_fraction\": 0.2, \"square_targets\": true, \"anchor_ratios\": [1.0], \"num_classes\": 1, \"batchsize\": 256, \"anchor_shift_num_xy\": [[2, 2], [2, 2], [2, 2], [2, 2], [1, 1], [1, 1], [1, 1], [1, 1], [1, 1], [1, 1], [1, 1], [1, 1], [1, 1], [1, 1]], \"anchor_scales\": [2.5, 3.025, 3.66025, 4.4289024999999995, 5.358972025, 6.484356150249999, 7.846070941802498, 9.493745839581022, 11.487432465893036, 13.899793283730574, 16.818749873313998, 20.350687346709933, 24.62433168951902, 29.795441344318014], \"name\": \"rpn_big\", \"positive_overlap\": 0.6, \"negative_overlap\": 0.4}"
    }
  }
  layer {
    name: "rpn_big_loss_cls"
    type: "SoftmaxWithLoss"
    bottom: "rpn_big_cls_score_reshape"
    bottom: "rpn_big_anchor_target_labels"
    top: "rpn_big_loss_cls"
    loss_weight: 1
    propagate_down: true
    propagate_down: false
    loss_param {
      ignore_label: -1
      normalization: VALID
    }
  }
  layer {
    name: "rpn_big_output_box"
    type: "Convolution"
    bottom: "rpn_big_conv2"
    top: "rpn_big_output_box"
    param {
      lr_mult: 1
    }
    param {
      lr_mult: 2
    }
    convolution_param {
      num_output: 384
      pad: 1
      kernel_size: 3
      stride: 1
      weight_filler {
        type: "gaussian"
        mean: 0
        std: 0.01
      }
      bias_filler {
        type: "constant"
      }
    }
  }
  layer {
    name: "rpn_big_output_box_relu"
    type: "ReLU"
    bottom: "rpn_big_output_box"
    top: "rpn_big_output_box"
    relu_param {
      negative_slope: 0
    }
  }
  layer {
    name: "rpn_big_bbox_pred"
    type: "Convolution"
    bottom: "rpn_big_output_box"
    top: "rpn_big_bbox_pred"
    param {
      lr_mult: 1
    }
    param {
      lr_mult: 2
    }
    convolution_param {
      num_output: 104
      pad: 0
      kernel_size: 3
      stride: 1
      weight_filler {
        type: "gaussian"
        mean: 0
        std: 0.01
      }
      bias_filler {
        type: "constant"
      }
    }
  }
  layer {
    name: "rpn_big_loss_bbox"
    type: "Python"
    bottom: "rpn_big_bbox_pred"
    bottom: "rpn_big_anchor_target_bbox_targets"
    bottom: "rpn_big_anchor_target_inside_weights"
    bottom: "rpn_big_anchor_target_outside_weights"
    top: "rpn_big_loss_bbox"
    loss_weight: 1
    python_param {
      module: "layers.smooth_l1_loss"
      layer: "SmoothL1LossLayer"
      param_str: "{\"sigma\": 3}"
    }
  }
  layer {
    name: "proposal"
    type: "Python"
    bottom: "rpn_big_cls_prob_reshape"
    bottom: "rpn_big_bbox_pred"
    bottom: "input_im_info"
    top: "rpn_rois"
    python_param {
      module: "rpn.proposal_layer"
      layer: "ProposalLayer"
      param_str: "{\"anchor_shift_num_xy\": [[2, 2], [2, 2], [2, 2], [2, 2], [1, 1], [1, 1], [1, 1], [1, 1], [1, 1], [1, 1], [1, 1], [1, 1], [1, 1], [1, 1]], \"feat_stride\": 16, \"num_classes\": 1, \"anchor_scales\": [2.5, 3.025, 3.66025, 4.4289024999999995, 5.358972025, 6.484356150249999, 7.846070941802498, 9.493745839581022, 11.487432465893036, 13.899793283730574, 16.818749873313998, 20.350687346709933, 24.62433168951902, 29.795441344318014], \"square_targets\": true, \"name\": \"rpn_big\", \"batchsize\": 256, \"anchor_ratios\": [1.0]}"
    }
  }
  layer {
    name: "roi-data"
    type: "Python"
    bottom: "rpn_rois"
    bottom: "input_gt_boxes"
    top: "rois"
    top: "labels"
    top: "bbox_targets"
    top: "bbox_inside_weights"
    top: "bbox_outside_weights"
    top: "pid_label"
    python_param {
      module: "rpn.proposal_target_layer"
      layer: "ProposalTargetLayer"
      param_str: "{\"num_classes\": 2, \"bg_aux_label\": 5532}"
    }
  }
  layer {
    name: "roi-pool"
    type: "ROIPooling"
    bottom: "conv5_3"
    bottom: "rois"
    top: "roi-pool"
    roi_pooling_param {
      pooled_h: 7
      pooled_w: 7
      spatial_scale: 0.0625
    }
  }
  layer {
    name: "fc6"
    type: "InnerProduct"
    bottom: "roi-pool"
    top: "fc6"
    param {
      lr_mult: 1
    }
    param {
      lr_mult: 2
    }
    inner_product_param {
      num_output: 4096
    }
  }
  layer {
    name: "relu6"
    type: "ReLU"
    bottom: "fc6"
    top: "fc6"
  }
  layer {
    name: "drop6"
    type: "Dropout"
    bottom: "fc6"
    top: "fc6"
    dropout_param {
      dropout_ratio: 0.5
    }
  }
  layer {
    name: "fc7"
    type: "InnerProduct"
    bottom: "fc6"
    top: "fc7"
    param {
      lr_mult: 1
    }
    param {
      lr_mult: 2
    }
    inner_product_param {
      num_output: 4096
    }
  }
  layer {
    name: "relu7"
    type: "ReLU"
    bottom: "fc7"
    top: "fc7"
  }
  layer {
    name: "drop7"
    type: "Dropout"
    bottom: "fc7"
    top: "fc7"
    dropout_param {
      dropout_ratio: 0.5
    }
  }
  layer {
    name: "fc8"
    type: "InnerProduct"
    bottom: "fc7"
    top: "fc8"
    param {
      lr_mult: 1
    }
    param {
      lr_mult: 2
    }
    inner_product_param {
      num_output: 0
      weight_filler {
        type: "gaussian"
        std: 0.001
      }
      bias_filler {
        type: "constant"
        value: 0
      }
    }
  }
}
average_loss: 100
stepvalue: 70000
stepvalue: 120000
iter_size: 2
I0413 18:16:32.395808 12794 solver.cpp:86] Creating training net specified in net_param.
I0413 18:16:32.396230 12794 net.cpp:58] Initializing net from parameters: 
name: "GeneratedModel_13_04_2017_18_16"
state {
  phase: TRAIN
}
layer {
  name: "input"
  type: "Python"
  top: "input_data"
  top: "input_im_info"
  top: "input_gt_boxes"
  top: "input_ignored_boxes"
  python_param {
    module: "layers.roi_data_layer"
    layer: "RoIDataLayer"
    param_str: "{\"num_classes\": 2}"
  }
}
layer {
  name: "conv1_1"
  type: "Convolution"
  bottom: "input_data"
  top: "conv1_1"
  param {
    lr_mult: 0
    decay_mult: 0
  }
  param {
    lr_mult: 0
    decay_mult: 0
  }
  convolution_param {
    num_output: 64
    pad: 1
    kernel_size: 3
  }
}
layer {
  name: "relu1_1"
  type: "ReLU"
  bottom: "conv1_1"
  top: "conv1_1"
}
layer {
  name: "conv1_2"
  type: "Convolution"
  bottom: "conv1_1"
  top: "conv1_2"
  param {
    lr_mult: 0
    decay_mult: 0
  }
  param {
    lr_mult: 0
    decay_mult: 0
  }
  convolution_param {
    num_output: 64
    pad: 1
    kernel_size: 3
  }
}
layer {
  name: "relu1_2"
  type: "ReLU"
  bottom: "conv1_2"
  top: "conv1_2"
}
layer {
  name: "pool1"
  type: "Pooling"
  bottom: "conv1_2"
  top: "pool1"
  pooling_param {
    pool: MAX
    kernel_size: 2
    stride: 2
  }
}
layer {
  name: "conv2_1"
  type: "Convolution"
  bottom: "pool1"
  top: "conv2_1"
  param {
    lr_mult: 0
    decay_mult: 0
  }
  param {
    lr_mult: 0
    decay_mult: 0
  }
  convolution_param {
    num_output: 128
    pad: 1
    kernel_size: 3
  }
}
layer {
  name: "relu2_1"
  type: "ReLU"
  bottom: "conv2_1"
  top: "conv2_1"
}
layer {
  name: "conv2_2"
  type: "Convolution"
  bottom: "conv2_1"
  top: "conv2_2"
  param {
    lr_mult: 0
    decay_mult: 0
  }
  param {
    lr_mult: 0
    decay_mult: 0
  }
  convolution_param {
    num_output: 128
    pad: 1
    kernel_size: 3
  }
}
layer {
  name: "relu2_2"
  type: "ReLU"
  bottom: "conv2_2"
  top: "conv2_2"
}
layer {
  name: "pool2"
  type: "Pooling"
  bottom: "conv2_2"
  top: "pool2"
  pooling_param {
    pool: MAX
    kernel_size: 2
    stride: 2
  }
}
layer {
  name: "conv3_1"
  type: "Convolution"
  bottom: "pool2"
  top: "conv3_1"
  param {
    lr_mult: 1
  }
  param {
    lr_mult: 2
  }
  convolution_param {
    num_output: 256
    pad: 1
    kernel_size: 3
  }
}
layer {
  name: "relu3_1"
  type: "ReLU"
  bottom: "conv3_1"
  top: "conv3_1"
}
layer {
  name: "conv3_2"
  type: "Convolution"
  bottom: "conv3_1"
  top: "conv3_2"
  param {
    lr_mult: 1
  }
  param {
    lr_mult: 2
  }
  convolution_param {
    num_output: 256
    pad: 1
    kernel_size: 3
  }
}
layer {
  name: "relu3_2"
  type: "ReLU"
  bottom: "conv3_2"
  top: "conv3_2"
}
layer {
  name: "conv3_3"
  type: "Convolution"
  bottom: "conv3_2"
  top: "conv3_3"
  param {
    lr_mult: 1
  }
  param {
    lr_mult: 2
  }
  convolution_param {
    num_output: 256
    pad: 1
    kernel_size: 3
  }
}
layer {
  name: "relu3_3"
  type: "ReLU"
  bottom: "conv3_3"
  top: "conv3_3"
}
layer {
  name: "pool3"
  type: "Pooling"
  bottom: "conv3_3"
  top: "pool3"
  pooling_param {
    pool: MAX
    kernel_size: 2
    stride: 2
  }
}
layer {
  name: "conv4_1"
  type: "Convolution"
  bottom: "pool3"
  top: "conv4_1"
  param {
    lr_mult: 1
  }
  param {
    lr_mult: 2
  }
  convolution_param {
    num_output: 512
    pad: 1
    kernel_size: 3
  }
}
layer {
  name: "relu4_1"
  type: "ReLU"
  bottom: "conv4_1"
  top: "conv4_1"
}
layer {
  name: "conv4_2"
  type: "Convolution"
  bottom: "conv4_1"
  top: "conv4_2"
  param {
    lr_mult: 1
  }
  param {
    lr_mult: 2
  }
  convolution_param {
    num_output: 512
    pad: 1
    kernel_size: 3
  }
}
layer {
  name: "relu4_2"
  type: "ReLU"
  bottom: "conv4_2"
  top: "conv4_2"
}
layer {
  name: "conv4_3"
  type: "Convolution"
  bottom: "conv4_2"
  top: "conv4_3"
  param {
    lr_mult: 1
  }
  param {
    lr_mult: 2
  }
  convolution_param {
    num_output: 512
    pad: 1
    kernel_size: 3
  }
}
layer {
  name: "relu4_3"
  type: "ReLU"
  bottom: "conv4_3"
  top: "conv4_3"
}
layer {
  name: "pool4"
  type: "Pooling"
  bottom: "conv4_3"
  top: "pool4"
  pooling_param {
    pool: MAX
    kernel_size: 2
    stride: 2
  }
}
layer {
  name: "conv5_1"
  type: "Convolution"
  bottom: "pool4"
  top: "conv5_1"
  param {
    lr_mult: 1
  }
  param {
    lr_mult: 2
  }
  convolution_param {
    num_output: 512
    pad: 1
    kernel_size: 3
  }
}
layer {
  name: "relu5_1"
  type: "ReLU"
  bottom: "conv5_1"
  top: "conv5_1"
}
layer {
  name: "conv5_2"
  type: "Convolution"
  bottom: "conv5_1"
  top: "conv5_2"
  param {
    lr_mult: 1
  }
  param {
    lr_mult: 2
  }
  convolution_param {
    num_output: 512
    pad: 1
    kernel_size: 3
  }
}
layer {
  name: "relu5_2"
  type: "ReLU"
  bottom: "conv5_2"
  top: "conv5_2"
}
layer {
  name: "conv5_3"
  type: "Convolution"
  bottom: "conv5_2"
  top: "conv5_3"
  param {
    lr_mult: 1
  }
  param {
    lr_mult: 2
  }
  convolution_param {
    num_output: 512
    pad: 1
    kernel_size: 3
  }
}
layer {
  name: "relu5_3"
  type: "ReLU"
  bottom: "conv5_3"
  top: "conv5_3"
}
layer {
  name: "rpn_big_conv1"
  type: "Convolution"
  bottom: "conv5_3"
  top: "rpn_big_conv1"
  param {
    lr_mult: 1
  }
  param {
    lr_mult: 2
  }
  convolution_param {
    num_output: 512
    pad: 1
    kernel_size: 3
    stride: 1
    weight_filler {
      type: "gaussian"
      mean: 0
      std: 0.01
    }
    bias_filler {
      type: "constant"
    }
  }
}
layer {
  name: "rpn_big_conv1_relu"
  type: "ReLU"
  bottom: "rpn_big_conv1"
  top: "rpn_big_conv1"
  relu_param {
    negative_slope: 0
  }
}
layer {
  name: "rpn_big_conv2"
  type: "Convolution"
  bottom: "rpn_big_conv1"
  top: "rpn_big_conv2"
  param {
    lr_mult: 1
  }
  param {
    lr_mult: 2
  }
  convolution_param {
    num_output: 512
    pad: 1
    kernel_size: 3
    stride: 1
    weight_filler {
      type: "gaussian"
      mean: 0
      std: 0.01
    }
    bias_filler {
      type: "constant"
    }
  }
}
layer {
  name: "rpn_big_conv2_relu"
  type: "ReLU"
  bottom: "rpn_big_conv2"
  top: "rpn_big_conv2"
  relu_param {
    negative_slope: 0
  }
}
layer {
  name: "rpn_big_conv2_drop"
  type: "Dropout"
  bottom: "rpn_big_conv2"
  top: "rpn_big_conv2"
  dropout_param {
    dropout_ratio: 0.3
  }
}
layer {
  name: "rpn_big_output_cls"
  type: "Convolution"
  bottom: "rpn_big_conv2"
  top: "rpn_big_output_cls"
  param {
    lr_mult: 1
  }
  param {
    lr_mult: 2
  }
  convolution_param {
    num_output: 384
    pad: 1
    kernel_size: 3
    stride: 1
    weight_filler {
      type: "gaussian"
      mean: 0
      std: 0.01
    }
    bias_filler {
      type: "constant"
    }
  }
}
layer {
  name: "rpn_big_output_cls_relu"
  type: "ReLU"
  bottom: "rpn_big_output_cls"
  top: "rpn_big_output_cls"
  relu_param {
    negative_slope: 0
  }
}
layer {
  name: "rpn_big_cls_score"
  type: "Convolution"
  bottom: "rpn_big_output_cls"
  top: "rpn_big_cls_score"
  param {
    lr_mult: 1
  }
  param {
    lr_mult: 2
  }
  convolution_param {
    num_output: 52
    pad: 0
    kernel_size: 3
    stride: 1
    weight_filler {
      type: "gaussian"
      mean: 0
      std: 0.01
    }
    bias_filler {
      type: "constant"
    }
  }
}
layer {
  name: "rpn_big_cls_score_reshape"
  type: "Reshape"
  bottom: "rpn_big_cls_score"
  top: "rpn_big_cls_score_reshape"
  reshape_param {
    shape {
      dim: 0
      dim: 2
      dim: -1
      dim: 0
    }
  }
}
layer {
  name: "rpn_big_cls_prob"
  type: "Softmax"
  bottom: "rpn_big_cls_score_reshape"
  top: "rpn_big_cls_prob"
}
layer {
  name: "rpn_big_cls_prob_reshape"
  type: "Reshape"
  bottom: "rpn_big_cls_prob"
  top: "rpn_big_cls_prob_reshape"
  reshape_param {
    shape {
      dim: 0
      dim: 52
      dim: -1
      dim: 0
    }
  }
}
layer {
  name: "rpn_big_anchor_target"
  type: "Python"
  bottom: "rpn_big_cls_score"
  bottom: "input_gt_boxes"
  bottom: "input_ignored_boxes"
  bottom: "input_im_info"
  bottom: "input_data"
  bottom: "rpn_big_cls_prob_reshape"
  top: "rpn_big_anchor_target_labels"
  top: "rpn_big_anchor_target_bbox_targets"
  top: "rpn_big_anchor_target_inside_weights"
  top: "rpn_big_anchor_target_outside_weights"
  python_param {
    module: "rpn.anchor_target_layer"
    layer: "AnchorTargetLayer"
    param_str: "{\"fg_fraction\": 0.5, \"feat_stride\": 16, \"tn_fraction\": 0.2, \"square_targets\": true, \"anchor_ratios\": [1.0], \"num_classes\": 1, \"batchsize\": 256, \"anchor_shift_num_xy\": [[2, 2], [2, 2], [2, 2], [2, 2], [1, 1], [1, 1], [1, 1], [1, 1], [1, 1], [1, 1], [1, 1], [1, 1], [1, 1], [1, 1]], \"anchor_scales\": [2.5, 3.025, 3.66025, 4.4289024999999995, 5.358972025, 6.484356150249999, 7.846070941802498, 9.493745839581022, 11.487432465893036, 13.899793283730574, 16.818749873313998, 20.350687346709933, 24.62433168951902, 29.795441344318014], \"name\": \"rpn_big\", \"positive_overlap\": 0.6, \"negative_overlap\": 0.4}"
  }
}
layer {
  name: "rpn_big_loss_cls"
  type: "SoftmaxWithLoss"
  bottom: "rpn_big_cls_score_reshape"
  bottom: "rpn_big_anchor_target_labels"
  top: "rpn_big_loss_cls"
  loss_weight: 1
  propagate_down: true
  propagate_down: false
  loss_param {
    ignore_label: -1
    normalization: VALID
  }
}
layer {
  name: "rpn_big_output_box"
  type: "Convolution"
  bottom: "rpn_big_conv2"
  top: "rpn_big_output_box"
  param {
    lr_mult: 1
  }
  param {
    lr_mult: 2
  }
  convolution_param {
    num_output: 384
    pad: 1
    kernel_size: 3
    stride: 1
    weight_filler {
      type: "gaussian"
      mean: 0
      std: 0.01
    }
    bias_filler {
      type: "constant"
    }
  }
}
layer {
  name: "rpn_big_output_box_relu"
  type: "ReLU"
  bottom: "rpn_big_output_box"
  top: "rpn_big_output_box"
  relu_param {
    negative_slope: 0
  }
}
layer {
  name: "rpn_big_bbox_pred"
  type: "Convolution"
  bottom: "rpn_big_output_box"
  top: "rpn_big_bbox_pred"
  param {
    lr_mult: 1
  }
  param {
    lr_mult: 2
  }
  convolution_param {
    num_output: 104
    pad: 0
    kernel_size: 3
    stride: 1
    weight_filler {
      type: "gaussian"
      mean: 0
      std: 0.01
    }
    bias_filler {
      type: "constant"
    }
  }
}
layer {
  name: "rpn_big_loss_bbox"
  type: "Python"
  bottom: "rpn_big_bbox_pred"
  bottom: "rpn_big_anchor_target_bbox_targets"
  bottom: "rpn_big_anchor_target_inside_weights"
  bottom: "rpn_big_anchor_target_outside_weights"
  top: "rpn_big_loss_bbox"
  loss_weight: 1
  python_param {
    module: "layers.smooth_l1_loss"
    layer: "SmoothL1LossLayer"
    param_str: "{\"sigma\": 3}"
  }
}
layer {
  name: "proposal"
  type: "Python"
  bottom: "rpn_big_cls_prob_reshape"
  bottom: "rpn_big_bbox_pred"
  bottom: "input_im_info"
  top: "rpn_rois"
  python_param {
    module: "rpn.proposal_layer"
    layer: "ProposalLayer"
    param_str: "{\"anchor_shift_num_xy\": [[2, 2], [2, 2], [2, 2], [2, 2], [1, 1], [1, 1], [1, 1], [1, 1], [1, 1], [1, 1], [1, 1], [1, 1], [1, 1], [1, 1]], \"feat_stride\": 16, \"num_classes\": 1, \"anchor_scales\": [2.5, 3.025, 3.66025, 4.4289024999999995, 5.358972025, 6.484356150249999, 7.846070941802498, 9.493745839581022, 11.487432465893036, 13.899793283730574, 16.818749873313998, 20.350687346709933, 24.62433168951902, 29.795441344318014], \"square_targets\": true, \"name\": \"rpn_big\", \"batchsize\": 256, \"anchor_ratios\": [1.0]}"
  }
}
layer {
  name: "roi-data"
  type: "Python"
  bottom: "rpn_rois"
  bottom: "input_gt_boxes"
  top: "rois"
  top: "labels"
  top: "bbox_targets"
  top: "bbox_inside_weights"
  top: "bbox_outside_weights"
  top: "pid_label"
  python_param {
    module: "rpn.proposal_target_layer"
    layer: "ProposalTargetLayer"
    param_str: "{\"num_classes\": 2, \"bg_aux_label\": 5532}"
  }
}
layer {
  name: "roi-pool"
  type: "ROIPooling"
  bottom: "conv5_3"
  bottom: "rois"
  top: "roi-pool"
  roi_pooling_param {
    pooled_h: 7
    pooled_w: 7
    spatial_scale: 0.0625
  }
}
layer {
  name: "fc6"
  type: "InnerProduct"
  bottom: "roi-pool"
  top: "fc6"
  param {
    lr_mult: 1
  }
  param {
    lr_mult: 2
  }
  inner_product_param {
    num_output: 4096
  }
}
layer {
  name: "relu6"
  type: "ReLU"
  bottom: "fc6"
  top: "fc6"
}
layer {
  name: "drop6"
  type: "Dropout"
  bottom: "fc6"
  top: "fc6"
  dropout_param {
    dropout_ratio: 0.5
  }
}
layer {
  name: "fc7"
  type: "InnerProduct"
  bottom: "fc6"
  top: "fc7"
  param {
    lr_mult: 1
  }
  param {
    lr_mult: 2
  }
  inner_product_param {
    num_output: 4096
  }
}
layer {
  name: "relu7"
  type: "ReLU"
  bottom: "fc7"
  top: "fc7"
}
layer {
  name: "drop7"
  type: "Dropout"
  bottom: "fc7"
  top: "fc7"
  dropout_param {
    dropout_ratio: 0.5
  }
}
layer {
  name: "fc8"
  type: "InnerProduct"
  bottom: "fc7"
  top: "fc8"
  param {
    lr_mult: 1
  }
  param {
    lr_mult: 2
  }
  inner_product_param {
    num_output: 0
    weight_filler {
      type: "gaussian"
      std: 0.001
    }
    bias_filler {
      type: "constant"
      value: 0
    }
  }
}
I0413 18:16:32.396459 12794 layer_factory.hpp:77] Creating layer input
I0413 18:16:32.397761 12794 net.cpp:100] Creating Layer input
I0413 18:16:32.397775 12794 net.cpp:408] input -> input_data
I0413 18:16:32.397786 12794 net.cpp:408] input -> input_im_info
I0413 18:16:32.397794 12794 net.cpp:408] input -> input_gt_boxes
I0413 18:16:32.397801 12794 net.cpp:408] input -> input_ignored_boxes
RoiDataLayer: name_to_top: {'im_info': 1, 'data': 0, 'gt_boxes': 2, 'ignored_boxes': 3}
I0413 18:16:32.716053 12794 net.cpp:150] Setting up input
I0413 18:16:32.716078 12794 net.cpp:157] Top shape: 1 3 1000 1500 (4500000)
I0413 18:16:32.716084 12794 net.cpp:157] Top shape: 1 3 (3)
I0413 18:16:32.716089 12794 net.cpp:157] Top shape: 1 5 (5)
I0413 18:16:32.716095 12794 net.cpp:157] Top shape: 1 5 (5)
I0413 18:16:32.716100 12794 net.cpp:165] Memory required for data: 18000052
I0413 18:16:32.716109 12794 layer_factory.hpp:77] Creating layer input_data_input_0_split
I0413 18:16:32.716128 12794 net.cpp:100] Creating Layer input_data_input_0_split
I0413 18:16:32.716136 12794 net.cpp:434] input_data_input_0_split <- input_data
I0413 18:16:32.716150 12794 net.cpp:408] input_data_input_0_split -> input_data_input_0_split_0
I0413 18:16:32.716174 12794 net.cpp:408] input_data_input_0_split -> input_data_input_0_split_1
I0413 18:16:32.716210 12794 net.cpp:150] Setting up input_data_input_0_split
I0413 18:16:32.716220 12794 net.cpp:157] Top shape: 1 3 1000 1500 (4500000)
I0413 18:16:32.716225 12794 net.cpp:157] Top shape: 1 3 1000 1500 (4500000)
I0413 18:16:32.716228 12794 net.cpp:165] Memory required for data: 54000052
I0413 18:16:32.716231 12794 layer_factory.hpp:77] Creating layer input_im_info_input_1_split
I0413 18:16:32.716238 12794 net.cpp:100] Creating Layer input_im_info_input_1_split
I0413 18:16:32.716241 12794 net.cpp:434] input_im_info_input_1_split <- input_im_info
I0413 18:16:32.716246 12794 net.cpp:408] input_im_info_input_1_split -> input_im_info_input_1_split_0
I0413 18:16:32.716254 12794 net.cpp:408] input_im_info_input_1_split -> input_im_info_input_1_split_1
I0413 18:16:32.716282 12794 net.cpp:150] Setting up input_im_info_input_1_split
I0413 18:16:32.716292 12794 net.cpp:157] Top shape: 1 3 (3)
I0413 18:16:32.716296 12794 net.cpp:157] Top shape: 1 3 (3)
I0413 18:16:32.716300 12794 net.cpp:165] Memory required for data: 54000076
I0413 18:16:32.716302 12794 layer_factory.hpp:77] Creating layer input_gt_boxes_input_2_split
I0413 18:16:32.716308 12794 net.cpp:100] Creating Layer input_gt_boxes_input_2_split
I0413 18:16:32.716312 12794 net.cpp:434] input_gt_boxes_input_2_split <- input_gt_boxes
I0413 18:16:32.716317 12794 net.cpp:408] input_gt_boxes_input_2_split -> input_gt_boxes_input_2_split_0
I0413 18:16:32.716325 12794 net.cpp:408] input_gt_boxes_input_2_split -> input_gt_boxes_input_2_split_1
I0413 18:16:32.716353 12794 net.cpp:150] Setting up input_gt_boxes_input_2_split
I0413 18:16:32.716361 12794 net.cpp:157] Top shape: 1 5 (5)
I0413 18:16:32.716365 12794 net.cpp:157] Top shape: 1 5 (5)
I0413 18:16:32.716368 12794 net.cpp:165] Memory required for data: 54000116
I0413 18:16:32.716372 12794 layer_factory.hpp:77] Creating layer conv1_1
I0413 18:16:32.716383 12794 net.cpp:100] Creating Layer conv1_1
I0413 18:16:32.716387 12794 net.cpp:434] conv1_1 <- input_data_input_0_split_0
I0413 18:16:32.716392 12794 net.cpp:408] conv1_1 -> conv1_1
I0413 18:16:32.719429 12794 net.cpp:150] Setting up conv1_1
I0413 18:16:32.719473 12794 net.cpp:157] Top shape: 1 64 1000 1500 (96000000)
I0413 18:16:32.719478 12794 net.cpp:165] Memory required for data: 438000116
I0413 18:16:32.719497 12794 layer_factory.hpp:77] Creating layer relu1_1
I0413 18:16:32.719511 12794 net.cpp:100] Creating Layer relu1_1
I0413 18:16:32.719516 12794 net.cpp:434] relu1_1 <- conv1_1
I0413 18:16:32.719522 12794 net.cpp:395] relu1_1 -> conv1_1 (in-place)
I0413 18:16:32.719533 12794 net.cpp:150] Setting up relu1_1
I0413 18:16:32.719538 12794 net.cpp:157] Top shape: 1 64 1000 1500 (96000000)
I0413 18:16:32.719542 12794 net.cpp:165] Memory required for data: 822000116
I0413 18:16:32.719545 12794 layer_factory.hpp:77] Creating layer conv1_2
I0413 18:16:32.719557 12794 net.cpp:100] Creating Layer conv1_2
I0413 18:16:32.719588 12794 net.cpp:434] conv1_2 <- conv1_1
I0413 18:16:32.719599 12794 net.cpp:408] conv1_2 -> conv1_2
I0413 18:16:32.722867 12794 net.cpp:150] Setting up conv1_2
I0413 18:16:32.722918 12794 net.cpp:157] Top shape: 1 64 1000 1500 (96000000)
I0413 18:16:32.722925 12794 net.cpp:165] Memory required for data: 1206000116
I0413 18:16:32.722947 12794 layer_factory.hpp:77] Creating layer relu1_2
I0413 18:16:32.722966 12794 net.cpp:100] Creating Layer relu1_2
I0413 18:16:32.722975 12794 net.cpp:434] relu1_2 <- conv1_2
I0413 18:16:32.722986 12794 net.cpp:395] relu1_2 -> conv1_2 (in-place)
I0413 18:16:32.723001 12794 net.cpp:150] Setting up relu1_2
I0413 18:16:32.723008 12794 net.cpp:157] Top shape: 1 64 1000 1500 (96000000)
I0413 18:16:32.723013 12794 net.cpp:165] Memory required for data: 1590000116
I0413 18:16:32.723019 12794 layer_factory.hpp:77] Creating layer pool1
I0413 18:16:32.723033 12794 net.cpp:100] Creating Layer pool1
I0413 18:16:32.723039 12794 net.cpp:434] pool1 <- conv1_2
I0413 18:16:32.723047 12794 net.cpp:408] pool1 -> pool1
I0413 18:16:32.723141 12794 net.cpp:150] Setting up pool1
I0413 18:16:32.723153 12794 net.cpp:157] Top shape: 1 64 500 750 (24000000)
I0413 18:16:32.723158 12794 net.cpp:165] Memory required for data: 1686000116
I0413 18:16:32.723165 12794 layer_factory.hpp:77] Creating layer conv2_1
I0413 18:16:32.723179 12794 net.cpp:100] Creating Layer conv2_1
I0413 18:16:32.723186 12794 net.cpp:434] conv2_1 <- pool1
I0413 18:16:32.723196 12794 net.cpp:408] conv2_1 -> conv2_1
I0413 18:16:32.724542 12794 net.cpp:150] Setting up conv2_1
I0413 18:16:32.724572 12794 net.cpp:157] Top shape: 1 128 500 750 (48000000)
I0413 18:16:32.724586 12794 net.cpp:165] Memory required for data: 1878000116
I0413 18:16:32.724606 12794 layer_factory.hpp:77] Creating layer relu2_1
I0413 18:16:32.724617 12794 net.cpp:100] Creating Layer relu2_1
I0413 18:16:32.724625 12794 net.cpp:434] relu2_1 <- conv2_1
I0413 18:16:32.724635 12794 net.cpp:395] relu2_1 -> conv2_1 (in-place)
I0413 18:16:32.724651 12794 net.cpp:150] Setting up relu2_1
I0413 18:16:32.724659 12794 net.cpp:157] Top shape: 1 128 500 750 (48000000)
I0413 18:16:32.724664 12794 net.cpp:165] Memory required for data: 2070000116
I0413 18:16:32.724670 12794 layer_factory.hpp:77] Creating layer conv2_2
I0413 18:16:32.724683 12794 net.cpp:100] Creating Layer conv2_2
I0413 18:16:32.724689 12794 net.cpp:434] conv2_2 <- conv2_1
I0413 18:16:32.724700 12794 net.cpp:408] conv2_2 -> conv2_2
I0413 18:16:32.725832 12794 net.cpp:150] Setting up conv2_2
I0413 18:16:32.725857 12794 net.cpp:157] Top shape: 1 128 500 750 (48000000)
I0413 18:16:32.725860 12794 net.cpp:165] Memory required for data: 2262000116
I0413 18:16:32.725873 12794 layer_factory.hpp:77] Creating layer relu2_2
I0413 18:16:32.725888 12794 net.cpp:100] Creating Layer relu2_2
I0413 18:16:32.725895 12794 net.cpp:434] relu2_2 <- conv2_2
I0413 18:16:32.725905 12794 net.cpp:395] relu2_2 -> conv2_2 (in-place)
I0413 18:16:32.725917 12794 net.cpp:150] Setting up relu2_2
I0413 18:16:32.725926 12794 net.cpp:157] Top shape: 1 128 500 750 (48000000)
I0413 18:16:32.725932 12794 net.cpp:165] Memory required for data: 2454000116
I0413 18:16:32.725937 12794 layer_factory.hpp:77] Creating layer pool2
I0413 18:16:32.725946 12794 net.cpp:100] Creating Layer pool2
I0413 18:16:32.725952 12794 net.cpp:434] pool2 <- conv2_2
I0413 18:16:32.725962 12794 net.cpp:408] pool2 -> pool2
I0413 18:16:32.726021 12794 net.cpp:150] Setting up pool2
I0413 18:16:32.726032 12794 net.cpp:157] Top shape: 1 128 250 375 (12000000)
I0413 18:16:32.726038 12794 net.cpp:165] Memory required for data: 2502000116
I0413 18:16:32.726044 12794 layer_factory.hpp:77] Creating layer conv3_1
I0413 18:16:32.726059 12794 net.cpp:100] Creating Layer conv3_1
I0413 18:16:32.726066 12794 net.cpp:434] conv3_1 <- pool2
I0413 18:16:32.726075 12794 net.cpp:408] conv3_1 -> conv3_1
I0413 18:16:32.727300 12794 net.cpp:150] Setting up conv3_1
I0413 18:16:32.727325 12794 net.cpp:157] Top shape: 1 256 250 375 (24000000)
I0413 18:16:32.727329 12794 net.cpp:165] Memory required for data: 2598000116
I0413 18:16:32.727350 12794 layer_factory.hpp:77] Creating layer relu3_1
I0413 18:16:32.727365 12794 net.cpp:100] Creating Layer relu3_1
I0413 18:16:32.727372 12794 net.cpp:434] relu3_1 <- conv3_1
I0413 18:16:32.727382 12794 net.cpp:395] relu3_1 -> conv3_1 (in-place)
I0413 18:16:32.727396 12794 net.cpp:150] Setting up relu3_1
I0413 18:16:32.727404 12794 net.cpp:157] Top shape: 1 256 250 375 (24000000)
I0413 18:16:32.727411 12794 net.cpp:165] Memory required for data: 2694000116
I0413 18:16:32.727416 12794 layer_factory.hpp:77] Creating layer conv3_2
I0413 18:16:32.727433 12794 net.cpp:100] Creating Layer conv3_2
I0413 18:16:32.727442 12794 net.cpp:434] conv3_2 <- conv3_1
I0413 18:16:32.727453 12794 net.cpp:408] conv3_2 -> conv3_2
I0413 18:16:32.728771 12794 net.cpp:150] Setting up conv3_2
I0413 18:16:32.728799 12794 net.cpp:157] Top shape: 1 256 250 375 (24000000)
I0413 18:16:32.728803 12794 net.cpp:165] Memory required for data: 2790000116
I0413 18:16:32.728816 12794 layer_factory.hpp:77] Creating layer relu3_2
I0413 18:16:32.728828 12794 net.cpp:100] Creating Layer relu3_2
I0413 18:16:32.728837 12794 net.cpp:434] relu3_2 <- conv3_2
I0413 18:16:32.728847 12794 net.cpp:395] relu3_2 -> conv3_2 (in-place)
I0413 18:16:32.728859 12794 net.cpp:150] Setting up relu3_2
I0413 18:16:32.728868 12794 net.cpp:157] Top shape: 1 256 250 375 (24000000)
I0413 18:16:32.728874 12794 net.cpp:165] Memory required for data: 2886000116
I0413 18:16:32.728879 12794 layer_factory.hpp:77] Creating layer conv3_3
I0413 18:16:32.728893 12794 net.cpp:100] Creating Layer conv3_3
I0413 18:16:32.728900 12794 net.cpp:434] conv3_3 <- conv3_2
I0413 18:16:32.728922 12794 net.cpp:408] conv3_3 -> conv3_3
I0413 18:16:32.730677 12794 net.cpp:150] Setting up conv3_3
I0413 18:16:32.730715 12794 net.cpp:157] Top shape: 1 256 250 375 (24000000)
I0413 18:16:32.730720 12794 net.cpp:165] Memory required for data: 2982000116
I0413 18:16:32.730737 12794 layer_factory.hpp:77] Creating layer relu3_3
I0413 18:16:32.730751 12794 net.cpp:100] Creating Layer relu3_3
I0413 18:16:32.730758 12794 net.cpp:434] relu3_3 <- conv3_3
I0413 18:16:32.730769 12794 net.cpp:395] relu3_3 -> conv3_3 (in-place)
I0413 18:16:32.730784 12794 net.cpp:150] Setting up relu3_3
I0413 18:16:32.730793 12794 net.cpp:157] Top shape: 1 256 250 375 (24000000)
I0413 18:16:32.730799 12794 net.cpp:165] Memory required for data: 3078000116
I0413 18:16:32.730805 12794 layer_factory.hpp:77] Creating layer pool3
I0413 18:16:32.730818 12794 net.cpp:100] Creating Layer pool3
I0413 18:16:32.730824 12794 net.cpp:434] pool3 <- conv3_3
I0413 18:16:32.730835 12794 net.cpp:408] pool3 -> pool3
I0413 18:16:32.730901 12794 net.cpp:150] Setting up pool3
I0413 18:16:32.730931 12794 net.cpp:157] Top shape: 1 256 125 188 (6016000)
I0413 18:16:32.730948 12794 net.cpp:165] Memory required for data: 3102064116
I0413 18:16:32.730967 12794 layer_factory.hpp:77] Creating layer conv4_1
I0413 18:16:32.730993 12794 net.cpp:100] Creating Layer conv4_1
I0413 18:16:32.731012 12794 net.cpp:434] conv4_1 <- pool3
I0413 18:16:32.731035 12794 net.cpp:408] conv4_1 -> conv4_1
I0413 18:16:32.733960 12794 net.cpp:150] Setting up conv4_1
I0413 18:16:32.733995 12794 net.cpp:157] Top shape: 1 512 125 188 (12032000)
I0413 18:16:32.733999 12794 net.cpp:165] Memory required for data: 3150192116
I0413 18:16:32.734014 12794 layer_factory.hpp:77] Creating layer relu4_1
I0413 18:16:32.734030 12794 net.cpp:100] Creating Layer relu4_1
I0413 18:16:32.734040 12794 net.cpp:434] relu4_1 <- conv4_1
I0413 18:16:32.734053 12794 net.cpp:395] relu4_1 -> conv4_1 (in-place)
I0413 18:16:32.734068 12794 net.cpp:150] Setting up relu4_1
I0413 18:16:32.734078 12794 net.cpp:157] Top shape: 1 512 125 188 (12032000)
I0413 18:16:32.734084 12794 net.cpp:165] Memory required for data: 3198320116
I0413 18:16:32.734091 12794 layer_factory.hpp:77] Creating layer conv4_2
I0413 18:16:32.734105 12794 net.cpp:100] Creating Layer conv4_2
I0413 18:16:32.734113 12794 net.cpp:434] conv4_2 <- conv4_1
I0413 18:16:32.734127 12794 net.cpp:408] conv4_2 -> conv4_2
I0413 18:16:32.738545 12794 net.cpp:150] Setting up conv4_2
I0413 18:16:32.738584 12794 net.cpp:157] Top shape: 1 512 125 188 (12032000)
I0413 18:16:32.738589 12794 net.cpp:165] Memory required for data: 3246448116
I0413 18:16:32.738611 12794 layer_factory.hpp:77] Creating layer relu4_2
I0413 18:16:32.738638 12794 net.cpp:100] Creating Layer relu4_2
I0413 18:16:32.738648 12794 net.cpp:434] relu4_2 <- conv4_2
I0413 18:16:32.738661 12794 net.cpp:395] relu4_2 -> conv4_2 (in-place)
I0413 18:16:32.738677 12794 net.cpp:150] Setting up relu4_2
I0413 18:16:32.738685 12794 net.cpp:157] Top shape: 1 512 125 188 (12032000)
I0413 18:16:32.738692 12794 net.cpp:165] Memory required for data: 3294576116
I0413 18:16:32.738698 12794 layer_factory.hpp:77] Creating layer conv4_3
I0413 18:16:32.738713 12794 net.cpp:100] Creating Layer conv4_3
I0413 18:16:32.738721 12794 net.cpp:434] conv4_3 <- conv4_2
I0413 18:16:32.738731 12794 net.cpp:408] conv4_3 -> conv4_3
I0413 18:16:32.743310 12794 net.cpp:150] Setting up conv4_3
I0413 18:16:32.743346 12794 net.cpp:157] Top shape: 1 512 125 188 (12032000)
I0413 18:16:32.743350 12794 net.cpp:165] Memory required for data: 3342704116
I0413 18:16:32.743365 12794 layer_factory.hpp:77] Creating layer relu4_3
I0413 18:16:32.743381 12794 net.cpp:100] Creating Layer relu4_3
I0413 18:16:32.743391 12794 net.cpp:434] relu4_3 <- conv4_3
I0413 18:16:32.743403 12794 net.cpp:395] relu4_3 -> conv4_3 (in-place)
I0413 18:16:32.743418 12794 net.cpp:150] Setting up relu4_3
I0413 18:16:32.743427 12794 net.cpp:157] Top shape: 1 512 125 188 (12032000)
I0413 18:16:32.743435 12794 net.cpp:165] Memory required for data: 3390832116
I0413 18:16:32.743443 12794 layer_factory.hpp:77] Creating layer pool4
I0413 18:16:32.743453 12794 net.cpp:100] Creating Layer pool4
I0413 18:16:32.743458 12794 net.cpp:434] pool4 <- conv4_3
I0413 18:16:32.743465 12794 net.cpp:408] pool4 -> pool4
I0413 18:16:32.743517 12794 net.cpp:150] Setting up pool4
I0413 18:16:32.743530 12794 net.cpp:157] Top shape: 1 512 63 94 (3032064)
I0413 18:16:32.743537 12794 net.cpp:165] Memory required for data: 3402960372
I0413 18:16:32.743542 12794 layer_factory.hpp:77] Creating layer conv5_1
I0413 18:16:32.743557 12794 net.cpp:100] Creating Layer conv5_1
I0413 18:16:32.743564 12794 net.cpp:434] conv5_1 <- pool4
I0413 18:16:32.743577 12794 net.cpp:408] conv5_1 -> conv5_1
I0413 18:16:32.748327 12794 net.cpp:150] Setting up conv5_1
I0413 18:16:32.748361 12794 net.cpp:157] Top shape: 1 512 63 94 (3032064)
I0413 18:16:32.748365 12794 net.cpp:165] Memory required for data: 3415088628
I0413 18:16:32.748379 12794 layer_factory.hpp:77] Creating layer relu5_1
I0413 18:16:32.748394 12794 net.cpp:100] Creating Layer relu5_1
I0413 18:16:32.748404 12794 net.cpp:434] relu5_1 <- conv5_1
I0413 18:16:32.748414 12794 net.cpp:395] relu5_1 -> conv5_1 (in-place)
I0413 18:16:32.748428 12794 net.cpp:150] Setting up relu5_1
I0413 18:16:32.748436 12794 net.cpp:157] Top shape: 1 512 63 94 (3032064)
I0413 18:16:32.748442 12794 net.cpp:165] Memory required for data: 3427216884
I0413 18:16:32.748448 12794 layer_factory.hpp:77] Creating layer conv5_2
I0413 18:16:32.748462 12794 net.cpp:100] Creating Layer conv5_2
I0413 18:16:32.748469 12794 net.cpp:434] conv5_2 <- conv5_1
I0413 18:16:32.748481 12794 net.cpp:408] conv5_2 -> conv5_2
I0413 18:16:32.752898 12794 net.cpp:150] Setting up conv5_2
I0413 18:16:32.752946 12794 net.cpp:157] Top shape: 1 512 63 94 (3032064)
I0413 18:16:32.752952 12794 net.cpp:165] Memory required for data: 3439345140
I0413 18:16:32.752969 12794 layer_factory.hpp:77] Creating layer relu5_2
I0413 18:16:32.752984 12794 net.cpp:100] Creating Layer relu5_2
I0413 18:16:32.752993 12794 net.cpp:434] relu5_2 <- conv5_2
I0413 18:16:32.753010 12794 net.cpp:395] relu5_2 -> conv5_2 (in-place)
I0413 18:16:32.753026 12794 net.cpp:150] Setting up relu5_2
I0413 18:16:32.753036 12794 net.cpp:157] Top shape: 1 512 63 94 (3032064)
I0413 18:16:32.753042 12794 net.cpp:165] Memory required for data: 3451473396
I0413 18:16:32.753052 12794 layer_factory.hpp:77] Creating layer conv5_3
I0413 18:16:32.753077 12794 net.cpp:100] Creating Layer conv5_3
I0413 18:16:32.753083 12794 net.cpp:434] conv5_3 <- conv5_2
I0413 18:16:32.753093 12794 net.cpp:408] conv5_3 -> conv5_3
I0413 18:16:32.757802 12794 net.cpp:150] Setting up conv5_3
I0413 18:16:32.757838 12794 net.cpp:157] Top shape: 1 512 63 94 (3032064)
I0413 18:16:32.757843 12794 net.cpp:165] Memory required for data: 3463601652
I0413 18:16:32.757866 12794 layer_factory.hpp:77] Creating layer relu5_3
I0413 18:16:32.757880 12794 net.cpp:100] Creating Layer relu5_3
I0413 18:16:32.757891 12794 net.cpp:434] relu5_3 <- conv5_3
I0413 18:16:32.757905 12794 net.cpp:395] relu5_3 -> conv5_3 (in-place)
I0413 18:16:32.757923 12794 net.cpp:150] Setting up relu5_3
I0413 18:16:32.757932 12794 net.cpp:157] Top shape: 1 512 63 94 (3032064)
I0413 18:16:32.757939 12794 net.cpp:165] Memory required for data: 3475729908
I0413 18:16:32.757946 12794 layer_factory.hpp:77] Creating layer conv5_3_relu5_3_0_split
I0413 18:16:32.757959 12794 net.cpp:100] Creating Layer conv5_3_relu5_3_0_split
I0413 18:16:32.757966 12794 net.cpp:434] conv5_3_relu5_3_0_split <- conv5_3
I0413 18:16:32.757977 12794 net.cpp:408] conv5_3_relu5_3_0_split -> conv5_3_relu5_3_0_split_0
I0413 18:16:32.757993 12794 net.cpp:408] conv5_3_relu5_3_0_split -> conv5_3_relu5_3_0_split_1
I0413 18:16:32.758033 12794 net.cpp:150] Setting up conv5_3_relu5_3_0_split
I0413 18:16:32.758044 12794 net.cpp:157] Top shape: 1 512 63 94 (3032064)
I0413 18:16:32.758051 12794 net.cpp:157] Top shape: 1 512 63 94 (3032064)
I0413 18:16:32.758059 12794 net.cpp:165] Memory required for data: 3499986420
I0413 18:16:32.758064 12794 layer_factory.hpp:77] Creating layer rpn_big_conv1
I0413 18:16:32.758085 12794 net.cpp:100] Creating Layer rpn_big_conv1
I0413 18:16:32.758092 12794 net.cpp:434] rpn_big_conv1 <- conv5_3_relu5_3_0_split_0
I0413 18:16:32.758105 12794 net.cpp:408] rpn_big_conv1 -> rpn_big_conv1
I0413 18:16:32.783684 12794 net.cpp:150] Setting up rpn_big_conv1
I0413 18:16:32.783717 12794 net.cpp:157] Top shape: 1 512 63 94 (3032064)
I0413 18:16:32.783725 12794 net.cpp:165] Memory required for data: 3512114676
I0413 18:16:32.783747 12794 layer_factory.hpp:77] Creating layer rpn_big_conv1_relu
I0413 18:16:32.783766 12794 net.cpp:100] Creating Layer rpn_big_conv1_relu
I0413 18:16:32.783776 12794 net.cpp:434] rpn_big_conv1_relu <- rpn_big_conv1
I0413 18:16:32.783788 12794 net.cpp:395] rpn_big_conv1_relu -> rpn_big_conv1 (in-place)
I0413 18:16:32.783803 12794 net.cpp:150] Setting up rpn_big_conv1_relu
I0413 18:16:32.783814 12794 net.cpp:157] Top shape: 1 512 63 94 (3032064)
I0413 18:16:32.783821 12794 net.cpp:165] Memory required for data: 3524242932
I0413 18:16:32.783828 12794 layer_factory.hpp:77] Creating layer rpn_big_conv2
I0413 18:16:32.783849 12794 net.cpp:100] Creating Layer rpn_big_conv2
I0413 18:16:32.783854 12794 net.cpp:434] rpn_big_conv2 <- rpn_big_conv1
I0413 18:16:32.783869 12794 net.cpp:408] rpn_big_conv2 -> rpn_big_conv2
I0413 18:16:32.809418 12794 net.cpp:150] Setting up rpn_big_conv2
I0413 18:16:32.809453 12794 net.cpp:157] Top shape: 1 512 63 94 (3032064)
I0413 18:16:32.809458 12794 net.cpp:165] Memory required for data: 3536371188
I0413 18:16:32.809483 12794 layer_factory.hpp:77] Creating layer rpn_big_conv2_relu
I0413 18:16:32.809499 12794 net.cpp:100] Creating Layer rpn_big_conv2_relu
I0413 18:16:32.809510 12794 net.cpp:434] rpn_big_conv2_relu <- rpn_big_conv2
I0413 18:16:32.809528 12794 net.cpp:395] rpn_big_conv2_relu -> rpn_big_conv2 (in-place)
I0413 18:16:32.809545 12794 net.cpp:150] Setting up rpn_big_conv2_relu
I0413 18:16:32.809554 12794 net.cpp:157] Top shape: 1 512 63 94 (3032064)
I0413 18:16:32.809561 12794 net.cpp:165] Memory required for data: 3548499444
I0413 18:16:32.809568 12794 layer_factory.hpp:77] Creating layer rpn_big_conv2_drop
I0413 18:16:32.809581 12794 net.cpp:100] Creating Layer rpn_big_conv2_drop
I0413 18:16:32.809587 12794 net.cpp:434] rpn_big_conv2_drop <- rpn_big_conv2
I0413 18:16:32.809599 12794 net.cpp:395] rpn_big_conv2_drop -> rpn_big_conv2 (in-place)
I0413 18:16:32.809629 12794 net.cpp:150] Setting up rpn_big_conv2_drop
I0413 18:16:32.809639 12794 net.cpp:157] Top shape: 1 512 63 94 (3032064)
I0413 18:16:32.809645 12794 net.cpp:165] Memory required for data: 3560627700
I0413 18:16:32.809653 12794 layer_factory.hpp:77] Creating layer rpn_big_conv2_rpn_big_conv2_drop_0_split
I0413 18:16:32.809667 12794 net.cpp:100] Creating Layer rpn_big_conv2_rpn_big_conv2_drop_0_split
I0413 18:16:32.809675 12794 net.cpp:434] rpn_big_conv2_rpn_big_conv2_drop_0_split <- rpn_big_conv2
I0413 18:16:32.809686 12794 net.cpp:408] rpn_big_conv2_rpn_big_conv2_drop_0_split -> rpn_big_conv2_rpn_big_conv2_drop_0_split_0
I0413 18:16:32.809700 12794 net.cpp:408] rpn_big_conv2_rpn_big_conv2_drop_0_split -> rpn_big_conv2_rpn_big_conv2_drop_0_split_1
I0413 18:16:32.809746 12794 net.cpp:150] Setting up rpn_big_conv2_rpn_big_conv2_drop_0_split
I0413 18:16:32.809756 12794 net.cpp:157] Top shape: 1 512 63 94 (3032064)
I0413 18:16:32.809765 12794 net.cpp:157] Top shape: 1 512 63 94 (3032064)
I0413 18:16:32.809772 12794 net.cpp:165] Memory required for data: 3584884212
I0413 18:16:32.809778 12794 layer_factory.hpp:77] Creating layer rpn_big_output_cls
I0413 18:16:32.809795 12794 net.cpp:100] Creating Layer rpn_big_output_cls
I0413 18:16:32.809803 12794 net.cpp:434] rpn_big_output_cls <- rpn_big_conv2_rpn_big_conv2_drop_0_split_0
I0413 18:16:32.809815 12794 net.cpp:408] rpn_big_output_cls -> rpn_big_output_cls
I0413 18:16:32.829844 12794 net.cpp:150] Setting up rpn_big_output_cls
I0413 18:16:32.829877 12794 net.cpp:157] Top shape: 1 384 63 94 (2274048)
I0413 18:16:32.829883 12794 net.cpp:165] Memory required for data: 3593980404
I0413 18:16:32.829906 12794 layer_factory.hpp:77] Creating layer rpn_big_output_cls_relu
I0413 18:16:32.829922 12794 net.cpp:100] Creating Layer rpn_big_output_cls_relu
I0413 18:16:32.829931 12794 net.cpp:434] rpn_big_output_cls_relu <- rpn_big_output_cls
I0413 18:16:32.829944 12794 net.cpp:395] rpn_big_output_cls_relu -> rpn_big_output_cls (in-place)
I0413 18:16:32.829962 12794 net.cpp:150] Setting up rpn_big_output_cls_relu
I0413 18:16:32.829972 12794 net.cpp:157] Top shape: 1 384 63 94 (2274048)
I0413 18:16:32.829978 12794 net.cpp:165] Memory required for data: 3603076596
I0413 18:16:32.829984 12794 layer_factory.hpp:77] Creating layer rpn_big_cls_score
I0413 18:16:32.830005 12794 net.cpp:100] Creating Layer rpn_big_cls_score
I0413 18:16:32.830032 12794 net.cpp:434] rpn_big_cls_score <- rpn_big_output_cls
I0413 18:16:32.830060 12794 net.cpp:408] rpn_big_cls_score -> rpn_big_cls_score
I0413 18:16:32.833494 12794 net.cpp:150] Setting up rpn_big_cls_score
I0413 18:16:32.833523 12794 net.cpp:157] Top shape: 1 52 61 92 (291824)
I0413 18:16:32.833537 12794 net.cpp:165] Memory required for data: 3604243892
I0413 18:16:32.833561 12794 layer_factory.hpp:77] Creating layer rpn_big_cls_score_rpn_big_cls_score_0_split
I0413 18:16:32.833575 12794 net.cpp:100] Creating Layer rpn_big_cls_score_rpn_big_cls_score_0_split
I0413 18:16:32.833582 12794 net.cpp:434] rpn_big_cls_score_rpn_big_cls_score_0_split <- rpn_big_cls_score
I0413 18:16:32.833593 12794 net.cpp:408] rpn_big_cls_score_rpn_big_cls_score_0_split -> rpn_big_cls_score_rpn_big_cls_score_0_split_0
I0413 18:16:32.833616 12794 net.cpp:408] rpn_big_cls_score_rpn_big_cls_score_0_split -> rpn_big_cls_score_rpn_big_cls_score_0_split_1
I0413 18:16:32.833670 12794 net.cpp:150] Setting up rpn_big_cls_score_rpn_big_cls_score_0_split
I0413 18:16:32.833683 12794 net.cpp:157] Top shape: 1 52 61 92 (291824)
I0413 18:16:32.833690 12794 net.cpp:157] Top shape: 1 52 61 92 (291824)
I0413 18:16:32.833698 12794 net.cpp:165] Memory required for data: 3606578484
I0413 18:16:32.833705 12794 layer_factory.hpp:77] Creating layer rpn_big_cls_score_reshape
I0413 18:16:32.833724 12794 net.cpp:100] Creating Layer rpn_big_cls_score_reshape
I0413 18:16:32.833751 12794 net.cpp:434] rpn_big_cls_score_reshape <- rpn_big_cls_score_rpn_big_cls_score_0_split_0
I0413 18:16:32.833778 12794 net.cpp:408] rpn_big_cls_score_reshape -> rpn_big_cls_score_reshape
I0413 18:16:32.833830 12794 net.cpp:150] Setting up rpn_big_cls_score_reshape
I0413 18:16:32.833855 12794 net.cpp:157] Top shape: 1 2 1586 92 (291824)
I0413 18:16:32.833873 12794 net.cpp:165] Memory required for data: 3607745780
I0413 18:16:32.833892 12794 layer_factory.hpp:77] Creating layer rpn_big_cls_score_reshape_rpn_big_cls_score_reshape_0_split
I0413 18:16:32.833914 12794 net.cpp:100] Creating Layer rpn_big_cls_score_reshape_rpn_big_cls_score_reshape_0_split
I0413 18:16:32.833932 12794 net.cpp:434] rpn_big_cls_score_reshape_rpn_big_cls_score_reshape_0_split <- rpn_big_cls_score_reshape
I0413 18:16:32.833957 12794 net.cpp:408] rpn_big_cls_score_reshape_rpn_big_cls_score_reshape_0_split -> rpn_big_cls_score_reshape_rpn_big_cls_score_reshape_0_split_0
I0413 18:16:32.833982 12794 net.cpp:408] rpn_big_cls_score_reshape_rpn_big_cls_score_reshape_0_split -> rpn_big_cls_score_reshape_rpn_big_cls_score_reshape_0_split_1
I0413 18:16:32.834048 12794 net.cpp:150] Setting up rpn_big_cls_score_reshape_rpn_big_cls_score_reshape_0_split
I0413 18:16:32.834071 12794 net.cpp:157] Top shape: 1 2 1586 92 (291824)
I0413 18:16:32.834092 12794 net.cpp:157] Top shape: 1 2 1586 92 (291824)
I0413 18:16:32.834110 12794 net.cpp:165] Memory required for data: 3610080372
I0413 18:16:32.834128 12794 layer_factory.hpp:77] Creating layer rpn_big_cls_prob
I0413 18:16:32.834153 12794 net.cpp:100] Creating Layer rpn_big_cls_prob
I0413 18:16:32.834172 12794 net.cpp:434] rpn_big_cls_prob <- rpn_big_cls_score_reshape_rpn_big_cls_score_reshape_0_split_0
I0413 18:16:32.834194 12794 net.cpp:408] rpn_big_cls_prob -> rpn_big_cls_prob
I0413 18:16:32.834290 12794 net.cpp:150] Setting up rpn_big_cls_prob
I0413 18:16:32.834302 12794 net.cpp:157] Top shape: 1 2 1586 92 (291824)
I0413 18:16:32.834308 12794 net.cpp:165] Memory required for data: 3611247668
I0413 18:16:32.834314 12794 layer_factory.hpp:77] Creating layer rpn_big_cls_prob_reshape
I0413 18:16:32.834323 12794 net.cpp:100] Creating Layer rpn_big_cls_prob_reshape
I0413 18:16:32.834331 12794 net.cpp:434] rpn_big_cls_prob_reshape <- rpn_big_cls_prob
I0413 18:16:32.834342 12794 net.cpp:408] rpn_big_cls_prob_reshape -> rpn_big_cls_prob_reshape
I0413 18:16:32.834374 12794 net.cpp:150] Setting up rpn_big_cls_prob_reshape
I0413 18:16:32.834385 12794 net.cpp:157] Top shape: 1 52 61 92 (291824)
I0413 18:16:32.834391 12794 net.cpp:165] Memory required for data: 3612414964
I0413 18:16:32.834398 12794 layer_factory.hpp:77] Creating layer rpn_big_cls_prob_reshape_rpn_big_cls_prob_reshape_0_split
I0413 18:16:32.834408 12794 net.cpp:100] Creating Layer rpn_big_cls_prob_reshape_rpn_big_cls_prob_reshape_0_split
I0413 18:16:32.834414 12794 net.cpp:434] rpn_big_cls_prob_reshape_rpn_big_cls_prob_reshape_0_split <- rpn_big_cls_prob_reshape
I0413 18:16:32.834424 12794 net.cpp:408] rpn_big_cls_prob_reshape_rpn_big_cls_prob_reshape_0_split -> rpn_big_cls_prob_reshape_rpn_big_cls_prob_reshape_0_split_0
I0413 18:16:32.834439 12794 net.cpp:408] rpn_big_cls_prob_reshape_rpn_big_cls_prob_reshape_0_split -> rpn_big_cls_prob_reshape_rpn_big_cls_prob_reshape_0_split_1
I0413 18:16:32.834483 12794 net.cpp:150] Setting up rpn_big_cls_prob_reshape_rpn_big_cls_prob_reshape_0_split
I0413 18:16:32.834494 12794 net.cpp:157] Top shape: 1 52 61 92 (291824)
I0413 18:16:32.834503 12794 net.cpp:157] Top shape: 1 52 61 92 (291824)
I0413 18:16:32.834511 12794 net.cpp:165] Memory required for data: 3614749556
I0413 18:16:32.834517 12794 layer_factory.hpp:77] Creating layer rpn_big_anchor_target
I0413 18:16:32.835903 12794 net.cpp:100] Creating Layer rpn_big_anchor_target
I0413 18:16:32.835919 12794 net.cpp:434] rpn_big_anchor_target <- rpn_big_cls_score_rpn_big_cls_score_0_split_1
I0413 18:16:32.835927 12794 net.cpp:434] rpn_big_anchor_target <- input_gt_boxes_input_2_split_0
I0413 18:16:32.835932 12794 net.cpp:434] rpn_big_anchor_target <- input_ignored_boxes
I0413 18:16:32.835935 12794 net.cpp:434] rpn_big_anchor_target <- input_im_info_input_1_split_0
I0413 18:16:32.835939 12794 net.cpp:434] rpn_big_anchor_target <- input_data_input_0_split_1
I0413 18:16:32.835943 12794 net.cpp:434] rpn_big_anchor_target <- rpn_big_cls_prob_reshape_rpn_big_cls_prob_reshape_0_split_0
I0413 18:16:32.835950 12794 net.cpp:408] rpn_big_anchor_target -> rpn_big_anchor_target_labels
I0413 18:16:32.835959 12794 net.cpp:408] rpn_big_anchor_target -> rpn_big_anchor_target_bbox_targets
I0413 18:16:32.835969 12794 net.cpp:408] rpn_big_anchor_target -> rpn_big_anchor_target_inside_weights
I0413 18:16:32.835978 12794 net.cpp:408] rpn_big_anchor_target -> rpn_big_anchor_target_outside_weights
I0413 18:16:32.840854 12794 net.cpp:150] Setting up rpn_big_anchor_target
I0413 18:16:32.840878 12794 net.cpp:157] Top shape: 1 1 1586 92 (145912)
I0413 18:16:32.840893 12794 net.cpp:157] Top shape: 1 104 61 92 (583648)
I0413 18:16:32.840896 12794 net.cpp:157] Top shape: 1 104 61 92 (583648)
I0413 18:16:32.840900 12794 net.cpp:157] Top shape: 1 104 61 92 (583648)
I0413 18:16:32.840909 12794 net.cpp:165] Memory required for data: 3622336980
I0413 18:16:32.840915 12794 layer_factory.hpp:77] Creating layer rpn_big_loss_cls
I0413 18:16:32.840924 12794 net.cpp:100] Creating Layer rpn_big_loss_cls
I0413 18:16:32.840929 12794 net.cpp:434] rpn_big_loss_cls <- rpn_big_cls_score_reshape_rpn_big_cls_score_reshape_0_split_1
I0413 18:16:32.840936 12794 net.cpp:434] rpn_big_loss_cls <- rpn_big_anchor_target_labels
I0413 18:16:32.840942 12794 net.cpp:408] rpn_big_loss_cls -> rpn_big_loss_cls
I0413 18:16:32.840955 12794 layer_factory.hpp:77] Creating layer rpn_big_loss_cls
I0413 18:16:32.841568 12794 net.cpp:150] Setting up rpn_big_loss_cls
I0413 18:16:32.841583 12794 net.cpp:157] Top shape: (1)
I0413 18:16:32.841585 12794 net.cpp:160]     with loss weight 1
I0413 18:16:32.841604 12794 net.cpp:165] Memory required for data: 3622336984
I0413 18:16:32.841609 12794 layer_factory.hpp:77] Creating layer rpn_big_output_box
I0413 18:16:32.841624 12794 net.cpp:100] Creating Layer rpn_big_output_box
I0413 18:16:32.841627 12794 net.cpp:434] rpn_big_output_box <- rpn_big_conv2_rpn_big_conv2_drop_0_split_1
I0413 18:16:32.841635 12794 net.cpp:408] rpn_big_output_box -> rpn_big_output_box
I0413 18:16:32.860591 12794 net.cpp:150] Setting up rpn_big_output_box
I0413 18:16:32.860621 12794 net.cpp:157] Top shape: 1 384 63 94 (2274048)
I0413 18:16:32.860635 12794 net.cpp:165] Memory required for data: 3631433176
I0413 18:16:32.860646 12794 layer_factory.hpp:77] Creating layer rpn_big_output_box_relu
I0413 18:16:32.860657 12794 net.cpp:100] Creating Layer rpn_big_output_box_relu
I0413 18:16:32.860663 12794 net.cpp:434] rpn_big_output_box_relu <- rpn_big_output_box
I0413 18:16:32.860671 12794 net.cpp:395] rpn_big_output_box_relu -> rpn_big_output_box (in-place)
I0413 18:16:32.860682 12794 net.cpp:150] Setting up rpn_big_output_box_relu
I0413 18:16:32.860687 12794 net.cpp:157] Top shape: 1 384 63 94 (2274048)
I0413 18:16:32.860690 12794 net.cpp:165] Memory required for data: 3640529368
I0413 18:16:32.860693 12794 layer_factory.hpp:77] Creating layer rpn_big_bbox_pred
I0413 18:16:32.860704 12794 net.cpp:100] Creating Layer rpn_big_bbox_pred
I0413 18:16:32.860715 12794 net.cpp:434] rpn_big_bbox_pred <- rpn_big_output_box
I0413 18:16:32.860723 12794 net.cpp:408] rpn_big_bbox_pred -> rpn_big_bbox_pred
I0413 18:16:32.865136 12794 net.cpp:150] Setting up rpn_big_bbox_pred
I0413 18:16:32.865154 12794 net.cpp:157] Top shape: 1 104 61 92 (583648)
I0413 18:16:32.865156 12794 net.cpp:165] Memory required for data: 3642863960
I0413 18:16:32.865173 12794 layer_factory.hpp:77] Creating layer rpn_big_bbox_pred_rpn_big_bbox_pred_0_split
I0413 18:16:32.865181 12794 net.cpp:100] Creating Layer rpn_big_bbox_pred_rpn_big_bbox_pred_0_split
I0413 18:16:32.865185 12794 net.cpp:434] rpn_big_bbox_pred_rpn_big_bbox_pred_0_split <- rpn_big_bbox_pred
I0413 18:16:32.865191 12794 net.cpp:408] rpn_big_bbox_pred_rpn_big_bbox_pred_0_split -> rpn_big_bbox_pred_rpn_big_bbox_pred_0_split_0
I0413 18:16:32.865200 12794 net.cpp:408] rpn_big_bbox_pred_rpn_big_bbox_pred_0_split -> rpn_big_bbox_pred_rpn_big_bbox_pred_0_split_1
I0413 18:16:32.865239 12794 net.cpp:150] Setting up rpn_big_bbox_pred_rpn_big_bbox_pred_0_split
I0413 18:16:32.865248 12794 net.cpp:157] Top shape: 1 104 61 92 (583648)
I0413 18:16:32.865252 12794 net.cpp:157] Top shape: 1 104 61 92 (583648)
I0413 18:16:32.865255 12794 net.cpp:165] Memory required for data: 3647533144
I0413 18:16:32.865259 12794 layer_factory.hpp:77] Creating layer rpn_big_loss_bbox
I0413 18:16:32.865664 12794 net.cpp:100] Creating Layer rpn_big_loss_bbox
I0413 18:16:32.865674 12794 net.cpp:434] rpn_big_loss_bbox <- rpn_big_bbox_pred_rpn_big_bbox_pred_0_split_0
I0413 18:16:32.865679 12794 net.cpp:434] rpn_big_loss_bbox <- rpn_big_anchor_target_bbox_targets
I0413 18:16:32.865692 12794 net.cpp:434] rpn_big_loss_bbox <- rpn_big_anchor_target_inside_weights
I0413 18:16:32.865697 12794 net.cpp:434] rpn_big_loss_bbox <- rpn_big_anchor_target_outside_weights
I0413 18:16:32.865703 12794 net.cpp:408] rpn_big_loss_bbox -> rpn_big_loss_bbox
I0413 18:16:32.867678 12794 net.cpp:150] Setting up rpn_big_loss_bbox
I0413 18:16:32.867712 12794 net.cpp:157] Top shape: 1 (1)
I0413 18:16:32.867723 12794 net.cpp:160]     with loss weight 1
I0413 18:16:32.867735 12794 net.cpp:165] Memory required for data: 3647533148
I0413 18:16:32.867741 12794 layer_factory.hpp:77] Creating layer proposal
I0413 18:16:32.868145 12794 net.cpp:100] Creating Layer proposal
I0413 18:16:32.868156 12794 net.cpp:434] proposal <- rpn_big_cls_prob_reshape_rpn_big_cls_prob_reshape_0_split_1
I0413 18:16:32.868173 12794 net.cpp:434] proposal <- rpn_big_bbox_pred_rpn_big_bbox_pred_0_split_1
I0413 18:16:32.868178 12794 net.cpp:434] proposal <- input_im_info_input_1_split_1
I0413 18:16:32.868185 12794 net.cpp:408] proposal -> rpn_rois
I0413 18:16:32.872371 12794 net.cpp:150] Setting up proposal
I0413 18:16:32.872395 12794 net.cpp:157] Top shape: 1 5 (5)
I0413 18:16:32.872401 12794 net.cpp:165] Memory required for data: 3647533168
I0413 18:16:32.872408 12794 layer_factory.hpp:77] Creating layer roi-data
I0413 18:16:32.872761 12794 net.cpp:100] Creating Layer roi-data
I0413 18:16:32.872773 12794 net.cpp:434] roi-data <- rpn_rois
I0413 18:16:32.872784 12794 net.cpp:434] roi-data <- input_gt_boxes_input_2_split_1
I0413 18:16:32.872797 12794 net.cpp:408] roi-data -> rois
I0413 18:16:32.872812 12794 net.cpp:408] roi-data -> labels
I0413 18:16:32.872849 12794 net.cpp:408] roi-data -> bbox_targets
I0413 18:16:32.872874 12794 net.cpp:408] roi-data -> bbox_inside_weights
I0413 18:16:32.872898 12794 net.cpp:408] roi-data -> bbox_outside_weights
I0413 18:16:32.872936 12794 net.cpp:408] roi-data -> pid_label
I0413 18:16:32.873898 12794 net.cpp:150] Setting up roi-data
I0413 18:16:32.873913 12794 net.cpp:157] Top shape: 1 5 (5)
I0413 18:16:32.873920 12794 net.cpp:157] Top shape: 1 1 (1)
I0413 18:16:32.873929 12794 net.cpp:157] Top shape: 1 8 (8)
I0413 18:16:32.873935 12794 net.cpp:157] Top shape: 1 8 (8)
I0413 18:16:32.873942 12794 net.cpp:157] Top shape: 1 8 (8)
I0413 18:16:32.873950 12794 net.cpp:157] Top shape: (0)
I0413 18:16:32.873955 12794 net.cpp:165] Memory required for data: 3647533288
I0413 18:16:32.873961 12794 layer_factory.hpp:77] Creating layer roi-pool
I0413 18:16:32.873976 12794 net.cpp:100] Creating Layer roi-pool
I0413 18:16:32.873984 12794 net.cpp:434] roi-pool <- conv5_3_relu5_3_0_split_1
I0413 18:16:32.873993 12794 net.cpp:434] roi-pool <- rois
I0413 18:16:32.874003 12794 net.cpp:408] roi-pool -> roi-pool
I0413 18:16:32.874017 12794 roi_pooling_layer.cpp:33] Spatial scale: 0.0625
I0413 18:16:32.874034 12794 roi_pooling_layer.cpp:34] Box scale: 1
I0413 18:16:32.874086 12794 net.cpp:150] Setting up roi-pool
I0413 18:16:32.874097 12794 net.cpp:157] Top shape: 1 512 7 7 (25088)
I0413 18:16:32.874104 12794 net.cpp:165] Memory required for data: 3647633640
I0413 18:16:32.874109 12794 layer_factory.hpp:77] Creating layer fc6
I0413 18:16:32.874120 12794 net.cpp:100] Creating Layer fc6
I0413 18:16:32.874127 12794 net.cpp:434] fc6 <- roi-pool
I0413 18:16:32.874137 12794 net.cpp:408] fc6 -> fc6
I0413 18:16:33.040014 12794 net.cpp:150] Setting up fc6
I0413 18:16:33.040053 12794 net.cpp:157] Top shape: 1 4096 (4096)
I0413 18:16:33.040060 12794 net.cpp:165] Memory required for data: 3647650024
I0413 18:16:33.040076 12794 layer_factory.hpp:77] Creating layer relu6
I0413 18:16:33.040098 12794 net.cpp:100] Creating Layer relu6
I0413 18:16:33.040107 12794 net.cpp:434] relu6 <- fc6
I0413 18:16:33.040119 12794 net.cpp:395] relu6 -> fc6 (in-place)
I0413 18:16:33.040135 12794 net.cpp:150] Setting up relu6
I0413 18:16:33.040144 12794 net.cpp:157] Top shape: 1 4096 (4096)
I0413 18:16:33.040150 12794 net.cpp:165] Memory required for data: 3647666408
I0413 18:16:33.040156 12794 layer_factory.hpp:77] Creating layer drop6
I0413 18:16:33.040169 12794 net.cpp:100] Creating Layer drop6
I0413 18:16:33.040174 12794 net.cpp:434] drop6 <- fc6
I0413 18:16:33.040184 12794 net.cpp:395] drop6 -> fc6 (in-place)
I0413 18:16:33.040220 12794 net.cpp:150] Setting up drop6
I0413 18:16:33.040230 12794 net.cpp:157] Top shape: 1 4096 (4096)
I0413 18:16:33.040236 12794 net.cpp:165] Memory required for data: 3647682792
I0413 18:16:33.040242 12794 layer_factory.hpp:77] Creating layer fc7
I0413 18:16:33.040253 12794 net.cpp:100] Creating Layer fc7
I0413 18:16:33.040259 12794 net.cpp:434] fc7 <- fc6
I0413 18:16:33.040269 12794 net.cpp:408] fc7 -> fc7
I0413 18:16:33.067396 12794 net.cpp:150] Setting up fc7
I0413 18:16:33.067435 12794 net.cpp:157] Top shape: 1 4096 (4096)
I0413 18:16:33.067441 12794 net.cpp:165] Memory required for data: 3647699176
I0413 18:16:33.067456 12794 layer_factory.hpp:77] Creating layer relu7
I0413 18:16:33.067494 12794 net.cpp:100] Creating Layer relu7
I0413 18:16:33.067505 12794 net.cpp:434] relu7 <- fc7
I0413 18:16:33.067519 12794 net.cpp:395] relu7 -> fc7 (in-place)
I0413 18:16:33.067538 12794 net.cpp:150] Setting up relu7
I0413 18:16:33.067548 12794 net.cpp:157] Top shape: 1 4096 (4096)
I0413 18:16:33.067553 12794 net.cpp:165] Memory required for data: 3647715560
I0413 18:16:33.067560 12794 layer_factory.hpp:77] Creating layer drop7
I0413 18:16:33.067569 12794 net.cpp:100] Creating Layer drop7
I0413 18:16:33.067577 12794 net.cpp:434] drop7 <- fc7
I0413 18:16:33.067587 12794 net.cpp:395] drop7 -> fc7 (in-place)
I0413 18:16:33.067620 12794 net.cpp:150] Setting up drop7
I0413 18:16:33.067628 12794 net.cpp:157] Top shape: 1 4096 (4096)
I0413 18:16:33.067634 12794 net.cpp:165] Memory required for data: 3647731944
I0413 18:16:33.067641 12794 layer_factory.hpp:77] Creating layer fc8
I0413 18:16:33.067656 12794 net.cpp:100] Creating Layer fc8
I0413 18:16:33.067663 12794 net.cpp:434] fc8 <- fc7
I0413 18:16:33.067673 12794 net.cpp:408] fc8 -> fc8
F0413 18:16:33.067718 12794 blob.cpp:186] Check failed: data_ 
*** Check failure stack trace: ***
…
