…
I0413 19:07:45.527473 15327 solver.cpp:48] Initializing solver from parameters: 
base_lr: 0.001
display: 20
lr_policy: "multistep"
gamma: 0.1
momentum: 0.9
weight_decay: 0.0005
snapshot: 0
snapshot_prefix: "faces_example"
net_param {
  name: "GeneratedModel_13_04_2017_19_07"
  layer {
    name: "input"
    type: "Python"
    top: "input_data"
    top: "input_im_info"
    top: "input_gt_boxes"
    top: "input_ignored_boxes"
    python_param {
      module: "layers.roi_data_layer"
      layer: "RoIDataLayer"
      param_str: "{\"num_classes\": 2}"
    }
  }
  layer {
    name: "conv1_1"
    type: "Convolution"
    bottom: "input_data"
    top: "conv1_1"
    param {
      lr_mult: 0
      decay_mult: 0
    }
    param {
      lr_mult: 0
      decay_mult: 0
    }
    convolution_param {
      num_output: 64
      pad: 1
      kernel_size: 3
    }
  }
  layer {
    name: "relu1_1"
    type: "ReLU"
    bottom: "conv1_1"
    top: "conv1_1"
  }
  layer {
    name: "conv1_2"
    type: "Convolution"
    bottom: "conv1_1"
    top: "conv1_2"
    param {
      lr_mult: 0
      decay_mult: 0
    }
    param {
      lr_mult: 0
      decay_mult: 0
    }
    convolution_param {
      num_output: 64
      pad: 1
      kernel_size: 3
    }
  }
  layer {
    name: "relu1_2"
    type: "ReLU"
    bottom: "conv1_2"
    top: "conv1_2"
  }
  layer {
    name: "pool1"
    type: "Pooling"
    bottom: "conv1_2"
    top: "pool1"
    pooling_param {
      pool: MAX
      kernel_size: 2
      stride: 2
    }
  }
  layer {
    name: "conv2_1"
    type: "Convolution"
    bottom: "pool1"
    top: "conv2_1"
    param {
      lr_mult: 0
      decay_mult: 0
    }
    param {
      lr_mult: 0
      decay_mult: 0
    }
    convolution_param {
      num_output: 128
      pad: 1
      kernel_size: 3
    }
  }
  layer {
    name: "relu2_1"
    type: "ReLU"
    bottom: "conv2_1"
    top: "conv2_1"
  }
  layer {
    name: "conv2_2"
    type: "Convolution"
    bottom: "conv2_1"
    top: "conv2_2"
    param {
      lr_mult: 0
      decay_mult: 0
    }
    param {
      lr_mult: 0
      decay_mult: 0
    }
    convolution_param {
      num_output: 128
      pad: 1
      kernel_size: 3
    }
  }
  layer {
    name: "relu2_2"
    type: "ReLU"
    bottom: "conv2_2"
    top: "conv2_2"
  }
  layer {
    name: "pool2"
    type: "Pooling"
    bottom: "conv2_2"
    top: "pool2"
    pooling_param {
      pool: MAX
      kernel_size: 2
      stride: 2
    }
  }
  layer {
    name: "conv3_1"
    type: "Convolution"
    bottom: "pool2"
    top: "conv3_1"
    param {
      lr_mult: 1
    }
    param {
      lr_mult: 2
    }
    convolution_param {
      num_output: 256
      pad: 1
      kernel_size: 3
    }
  }
  layer {
    name: "relu3_1"
    type: "ReLU"
    bottom: "conv3_1"
    top: "conv3_1"
  }
  layer {
    name: "conv3_2"
    type: "Convolution"
    bottom: "conv3_1"
    top: "conv3_2"
    param {
      lr_mult: 1
    }
    param {
      lr_mult: 2
    }
    convolution_param {
      num_output: 256
      pad: 1
      kernel_size: 3
    }
  }
  layer {
    name: "relu3_2"
    type: "ReLU"
    bottom: "conv3_2"
    top: "conv3_2"
  }
  layer {
    name: "conv3_3"
    type: "Convolution"
    bottom: "conv3_2"
    top: "conv3_3"
    param {
      lr_mult: 1
    }
    param {
      lr_mult: 2
    }
    convolution_param {
      num_output: 256
      pad: 1
      kernel_size: 3
    }
  }
  layer {
    name: "relu3_3"
    type: "ReLU"
    bottom: "conv3_3"
    top: "conv3_3"
  }
  layer {
    name: "pool3"
    type: "Pooling"
    bottom: "conv3_3"
    top: "pool3"
    pooling_param {
      pool: MAX
      kernel_size: 2
      stride: 2
    }
  }
  layer {
    name: "conv4_1"
    type: "Convolution"
    bottom: "pool3"
    top: "conv4_1"
    param {
      lr_mult: 1
    }
    param {
      lr_mult: 2
    }
    convolution_param {
      num_output: 512
      pad: 1
      kernel_size: 3
    }
  }
  layer {
    name: "relu4_1"
    type: "ReLU"
    bottom: "conv4_1"
    top: "conv4_1"
  }
  layer {
    name: "conv4_2"
    type: "Convolution"
    bottom: "conv4_1"
    top: "conv4_2"
    param {
      lr_mult: 1
    }
    param {
      lr_mult: 2
    }
    convolution_param {
      num_output: 512
      pad: 1
      kernel_size: 3
    }
  }
  layer {
    name: "relu4_2"
    type: "ReLU"
    bottom: "conv4_2"
    top: "conv4_2"
  }
  layer {
    name: "conv4_3"
    type: "Convolution"
    bottom: "conv4_2"
    top: "conv4_3"
    param {
      lr_mult: 1
    }
    param {
      lr_mult: 2
    }
    convolution_param {
      num_output: 512
      pad: 1
      kernel_size: 3
    }
  }
  layer {
    name: "relu4_3"
    type: "ReLU"
    bottom: "conv4_3"
    top: "conv4_3"
  }
  layer {
    name: "pool4"
    type: "Pooling"
    bottom: "conv4_3"
    top: "pool4"
    pooling_param {
      pool: MAX
      kernel_size: 2
      stride: 2
    }
  }
  layer {
    name: "conv5_1"
    type: "Convolution"
    bottom: "pool4"
    top: "conv5_1"
    param {
      lr_mult: 1
    }
    param {
      lr_mult: 2
    }
    convolution_param {
      num_output: 512
      pad: 1
      kernel_size: 3
    }
  }
  layer {
    name: "relu5_1"
    type: "ReLU"
    bottom: "conv5_1"
    top: "conv5_1"
  }
  layer {
    name: "conv5_2"
    type: "Convolution"
    bottom: "conv5_1"
    top: "conv5_2"
    param {
      lr_mult: 1
    }
    param {
      lr_mult: 2
    }
    convolution_param {
      num_output: 512
      pad: 1
      kernel_size: 3
    }
  }
  layer {
    name: "relu5_2"
    type: "ReLU"
    bottom: "conv5_2"
    top: "conv5_2"
  }
  layer {
    name: "conv5_3"
    type: "Convolution"
    bottom: "conv5_2"
    top: "conv5_3"
    param {
      lr_mult: 1
    }
    param {
      lr_mult: 2
    }
    convolution_param {
      num_output: 512
      pad: 1
      kernel_size: 3
    }
  }
  layer {
    name: "relu5_3"
    type: "ReLU"
    bottom: "conv5_3"
    top: "conv5_3"
  }
  layer {
    name: "rpn_big_conv1"
    type: "Convolution"
    bottom: "conv5_3"
    top: "rpn_big_conv1"
    param {
      lr_mult: 1
    }
    param {
      lr_mult: 2
    }
    convolution_param {
      num_output: 512
      pad: 1
      kernel_size: 3
      stride: 1
      weight_filler {
        type: "gaussian"
        mean: 0
        std: 0.01
      }
      bias_filler {
        type: "constant"
      }
    }
  }
  layer {
    name: "rpn_big_conv1_relu"
    type: "ReLU"
    bottom: "rpn_big_conv1"
    top: "rpn_big_conv1"
    relu_param {
      negative_slope: 0
    }
  }
  layer {
    name: "rpn_big_conv2"
    type: "Convolution"
    bottom: "rpn_big_conv1"
    top: "rpn_big_conv2"
    param {
      lr_mult: 1
    }
    param {
      lr_mult: 2
    }
    convolution_param {
      num_output: 512
      pad: 1
      kernel_size: 3
      stride: 1
      weight_filler {
        type: "gaussian"
        mean: 0
        std: 0.01
      }
      bias_filler {
        type: "constant"
      }
    }
  }
  layer {
    name: "rpn_big_conv2_relu"
    type: "ReLU"
    bottom: "rpn_big_conv2"
    top: "rpn_big_conv2"
    relu_param {
      negative_slope: 0
    }
  }
  layer {
    name: "rpn_big_conv2_drop"
    type: "Dropout"
    bottom: "rpn_big_conv2"
    top: "rpn_big_conv2"
    dropout_param {
      dropout_ratio: 0.3
    }
  }
  layer {
    name: "rpn_big_output_cls"
    type: "Convolution"
    bottom: "rpn_big_conv2"
    top: "rpn_big_output_cls"
    param {
      lr_mult: 1
    }
    param {
      lr_mult: 2
    }
    convolution_param {
      num_output: 384
      pad: 1
      kernel_size: 3
      stride: 1
      weight_filler {
        type: "gaussian"
        mean: 0
        std: 0.01
      }
      bias_filler {
        type: "constant"
      }
    }
  }
  layer {
    name: "rpn_big_output_cls_relu"
    type: "ReLU"
    bottom: "rpn_big_output_cls"
    top: "rpn_big_output_cls"
    relu_param {
      negative_slope: 0
    }
  }
  layer {
    name: "rpn_big_cls_score"
    type: "Convolution"
    bottom: "rpn_big_output_cls"
    top: "rpn_big_cls_score"
    param {
      lr_mult: 1
    }
    param {
      lr_mult: 2
    }
    convolution_param {
      num_output: 52
      pad: 0
      kernel_size: 3
      stride: 1
      weight_filler {
        type: "gaussian"
        mean: 0
        std: 0.01
      }
      bias_filler {
        type: "constant"
      }
    }
  }
  layer {
    name: "rpn_big_cls_score_reshape"
    type: "Reshape"
    bottom: "rpn_big_cls_score"
    top: "rpn_big_cls_score_reshape"
    reshape_param {
      shape {
        dim: 0
        dim: 2
        dim: -1
        dim: 0
      }
    }
  }
  layer {
    name: "rpn_big_cls_prob"
    type: "Softmax"
    bottom: "rpn_big_cls_score_reshape"
    top: "rpn_big_cls_prob"
  }
  layer {
    name: "rpn_big_cls_prob_reshape"
    type: "Reshape"
    bottom: "rpn_big_cls_prob"
    top: "rpn_big_cls_prob_reshape"
    reshape_param {
      shape {
        dim: 0
        dim: 52
        dim: -1
        dim: 0
      }
    }
  }
  layer {
    name: "rpn_big_anchor_target"
    type: "Python"
    bottom: "rpn_big_cls_score"
    bottom: "input_gt_boxes"
    bottom: "input_ignored_boxes"
    bottom: "input_im_info"
    bottom: "input_data"
    bottom: "rpn_big_cls_prob_reshape"
    top: "rpn_big_anchor_target_labels"
    top: "rpn_big_anchor_target_bbox_targets"
    top: "rpn_big_anchor_target_inside_weights"
    top: "rpn_big_anchor_target_outside_weights"
    python_param {
      module: "rpn.anchor_target_layer"
      layer: "AnchorTargetLayer"
      param_str: "{\"anchor_shift_num_xy\": [[2, 2], [2, 2], [2, 2], [2, 2], [1, 1], [1, 1], [1, 1], [1, 1], [1, 1], [1, 1], [1, 1], [1, 1], [1, 1], [1, 1]], \"feat_stride\": 16, \"anchor_ratios\": [1.0], \"num_classes\": 1, \"fg_fraction\": 0.5, \"negative_overlap\": 0.4, \"positive_overlap\": 0.6, \"tn_fraction\": 0.2, \"anchor_scales\": [2.5, 3.025, 3.66025, 4.4289024999999995, 5.358972025, 6.484356150249999, 7.846070941802498, 9.493745839581022, 11.487432465893036, 13.899793283730574, 16.818749873313998, 20.350687346709933, 24.62433168951902, 29.795441344318014], \"name\": \"rpn_big\", \"square_targets\": true, \"batchsize\": 256}"
    }
  }
  layer {
    name: "rpn_big_loss_cls"
    type: "SoftmaxWithLoss"
    bottom: "rpn_big_cls_score_reshape"
    bottom: "rpn_big_anchor_target_labels"
    top: "rpn_big_loss_cls"
    loss_weight: 1
    propagate_down: true
    propagate_down: false
    loss_param {
      ignore_label: -1
      normalization: VALID
    }
  }
  layer {
    name: "rpn_big_output_box"
    type: "Convolution"
    bottom: "rpn_big_conv2"
    top: "rpn_big_output_box"
    param {
      lr_mult: 1
    }
    param {
      lr_mult: 2
    }
    convolution_param {
      num_output: 384
      pad: 1
      kernel_size: 3
      stride: 1
      weight_filler {
        type: "gaussian"
        mean: 0
        std: 0.01
      }
      bias_filler {
        type: "constant"
      }
    }
  }
  layer {
    name: "rpn_big_output_box_relu"
    type: "ReLU"
    bottom: "rpn_big_output_box"
    top: "rpn_big_output_box"
    relu_param {
      negative_slope: 0
    }
  }
  layer {
    name: "rpn_big_bbox_pred"
    type: "Convolution"
    bottom: "rpn_big_output_box"
    top: "rpn_big_bbox_pred"
    param {
      lr_mult: 1
    }
    param {
      lr_mult: 2
    }
    convolution_param {
      num_output: 104
      pad: 0
      kernel_size: 3
      stride: 1
      weight_filler {
        type: "gaussian"
        mean: 0
        std: 0.01
      }
      bias_filler {
        type: "constant"
      }
    }
  }
  layer {
    name: "rpn_big_loss_bbox"
    type: "Python"
    bottom: "rpn_big_bbox_pred"
    bottom: "rpn_big_anchor_target_bbox_targets"
    bottom: "rpn_big_anchor_target_inside_weights"
    bottom: "rpn_big_anchor_target_outside_weights"
    top: "rpn_big_loss_bbox"
    loss_weight: 1
    python_param {
      module: "layers.smooth_l1_loss"
      layer: "SmoothL1LossLayer"
      param_str: "{\"sigma\": 3}"
    }
  }
  layer {
    name: "proposal"
    type: "Python"
    bottom: "rpn_big_cls_prob_reshape"
    bottom: "rpn_big_bbox_pred"
    bottom: "input_im_info"
    top: "rpn_rois"
    python_param {
      module: "rpn.proposal_layer"
      layer: "ProposalLayer"
      param_str: "{\"anchor_shift_num_xy\": [[2, 2], [2, 2], [2, 2], [2, 2], [1, 1], [1, 1], [1, 1], [1, 1], [1, 1], [1, 1], [1, 1], [1, 1], [1, 1], [1, 1]], \"feat_stride\": 16, \"num_classes\": 1, \"anchor_scales\": [2.5, 3.025, 3.66025, 4.4289024999999995, 5.358972025, 6.484356150249999, 7.846070941802498, 9.493745839581022, 11.487432465893036, 13.899793283730574, 16.818749873313998, 20.350687346709933, 24.62433168951902, 29.795441344318014], \"square_targets\": true, \"name\": \"rpn_big\", \"batchsize\": 256, \"anchor_ratios\": [1.0]}"
    }
  }
  layer {
    name: "roi-data"
    type: "Python"
    bottom: "rpn_rois"
    bottom: "input_gt_boxes"
    top: "rois"
    top: "labels"
    top: "bbox_targets"
    top: "bbox_inside_weights"
    top: "bbox_outside_weights"
    python_param {
      module: "rpn.proposal_target_layer"
      layer: "ProposalTargetLayer"
      param_str: "{\"num_classes\": 2, \"bg_aux_label\": 5532}"
    }
  }
  layer {
    name: "roi-pool"
    type: "ROIPooling"
    bottom: "conv5_3"
    bottom: "rois"
    top: "roi-pool"
    roi_pooling_param {
      pooled_h: 7
      pooled_w: 7
      spatial_scale: 0.0625
    }
  }
  layer {
    name: "fc6"
    type: "InnerProduct"
    bottom: "roi-pool"
    top: "fc6"
    param {
      lr_mult: 1
    }
    param {
      lr_mult: 2
    }
    inner_product_param {
      num_output: 4096
    }
  }
  layer {
    name: "relu6"
    type: "ReLU"
    bottom: "fc6"
    top: "fc6"
  }
  layer {
    name: "drop6"
    type: "Dropout"
    bottom: "fc6"
    top: "fc6"
    dropout_param {
      dropout_ratio: 0.5
    }
  }
  layer {
    name: "fc7"
    type: "InnerProduct"
    bottom: "fc6"
    top: "fc7"
    param {
      lr_mult: 1
    }
    param {
      lr_mult: 2
    }
    inner_product_param {
      num_output: 4096
    }
  }
  layer {
    name: "relu7"
    type: "ReLU"
    bottom: "fc7"
    top: "fc7"
  }
  layer {
    name: "drop7"
    type: "Dropout"
    bottom: "fc7"
    top: "fc7"
    dropout_param {
      dropout_ratio: 0.5
    }
  }
  layer {
    name: "bbox_pred"
    type: "InnerProduct"
    bottom: "fc7"
    top: "bbox_pred"
    param {
      lr_mult: 1
    }
    param {
      lr_mult: 2
    }
    inner_product_param {
      num_output: 8
      weight_filler {
        type: "gaussian"
        std: 0.001
      }
      bias_filler {
        type: "constant"
        value: 0
      }
    }
  }
  layer {
    name: "loss_bbox"
    type: "SmoothL1Loss"
    bottom: "bbox_pred"
    bottom: "bbox_targets"
    bottom: "bbox_inside_weights"
    bottom: "bbox_outside_weights"
    top: "loss_bbox"
    loss_weight: 1
  }
  layer {
    name: "feat"
    type: "InnerProduct"
    bottom: "fc7"
    top: "feat"
    param {
      lr_mult: 1
      decay_mult: 1
    }
    param {
      lr_mult: 2
      decay_mult: 0
    }
    inner_product_param {
      num_output: 256
      weight_filler {
        type: "gaussian"
        std: 0.01
      }
      bias_filler {
        type: "constant"
        value: 0
      }
    }
  }
  layer {
    name: "relu8"
    type: "ReLU"
    bottom: "feat"
    top: "feat"
  }
  layer {
    name: "drop8"
    type: "Dropout"
    bottom: "feat"
    top: "feat"
    dropout_param {
      dropout_ratio: 0.5
    }
  }
  layer {
    name: "pid_score"
    type: "InnerProduct"
    bottom: "feat"
    top: "pid_score"
    param {
      lr_mult: 1
      decay_mult: 1
    }
    param {
      lr_mult: 2
      decay_mult: 0
    }
    inner_product_param {
      num_output: 5533
      weight_filler {
        type: "gaussian"
        std: 0.001
      }
      bias_filler {
        type: "constant"
        value: 0
      }
    }
  }
}
average_loss: 100
stepvalue: 70000
stepvalue: 120000
iter_size: 2
I0413 19:07:45.527565 15327 solver.cpp:86] Creating training net specified in net_param.
I0413 19:07:45.528087 15327 net.cpp:58] Initializing net from parameters: 
name: "GeneratedModel_13_04_2017_19_07"
state {
  phase: TRAIN
}
layer {
  name: "input"
  type: "Python"
  top: "input_data"
  top: "input_im_info"
  top: "input_gt_boxes"
  top: "input_ignored_boxes"
  python_param {
    module: "layers.roi_data_layer"
    layer: "RoIDataLayer"
    param_str: "{\"num_classes\": 2}"
  }
}
layer {
  name: "conv1_1"
  type: "Convolution"
  bottom: "input_data"
  top: "conv1_1"
  param {
    lr_mult: 0
    decay_mult: 0
  }
  param {
    lr_mult: 0
    decay_mult: 0
  }
  convolution_param {
    num_output: 64
    pad: 1
    kernel_size: 3
  }
}
layer {
  name: "relu1_1"
  type: "ReLU"
  bottom: "conv1_1"
  top: "conv1_1"
}
layer {
  name: "conv1_2"
  type: "Convolution"
  bottom: "conv1_1"
  top: "conv1_2"
  param {
    lr_mult: 0
    decay_mult: 0
  }
  param {
    lr_mult: 0
    decay_mult: 0
  }
  convolution_param {
    num_output: 64
    pad: 1
    kernel_size: 3
  }
}
layer {
  name: "relu1_2"
  type: "ReLU"
  bottom: "conv1_2"
  top: "conv1_2"
}
layer {
  name: "pool1"
  type: "Pooling"
  bottom: "conv1_2"
  top: "pool1"
  pooling_param {
    pool: MAX
    kernel_size: 2
    stride: 2
  }
}
layer {
  name: "conv2_1"
  type: "Convolution"
  bottom: "pool1"
  top: "conv2_1"
  param {
    lr_mult: 0
    decay_mult: 0
  }
  param {
    lr_mult: 0
    decay_mult: 0
  }
  convolution_param {
    num_output: 128
    pad: 1
    kernel_size: 3
  }
}
layer {
  name: "relu2_1"
  type: "ReLU"
  bottom: "conv2_1"
  top: "conv2_1"
}
layer {
  name: "conv2_2"
  type: "Convolution"
  bottom: "conv2_1"
  top: "conv2_2"
  param {
    lr_mult: 0
    decay_mult: 0
  }
  param {
    lr_mult: 0
    decay_mult: 0
  }
  convolution_param {
    num_output: 128
    pad: 1
    kernel_size: 3
  }
}
layer {
  name: "relu2_2"
  type: "ReLU"
  bottom: "conv2_2"
  top: "conv2_2"
}
layer {
  name: "pool2"
  type: "Pooling"
  bottom: "conv2_2"
  top: "pool2"
  pooling_param {
    pool: MAX
    kernel_size: 2
    stride: 2
  }
}
layer {
  name: "conv3_1"
  type: "Convolution"
  bottom: "pool2"
  top: "conv3_1"
  param {
    lr_mult: 1
  }
  param {
    lr_mult: 2
  }
  convolution_param {
    num_output: 256
    pad: 1
    kernel_size: 3
  }
}
layer {
  name: "relu3_1"
  type: "ReLU"
  bottom: "conv3_1"
  top: "conv3_1"
}
layer {
  name: "conv3_2"
  type: "Convolution"
  bottom: "conv3_1"
  top: "conv3_2"
  param {
    lr_mult: 1
  }
  param {
    lr_mult: 2
  }
  convolution_param {
    num_output: 256
    pad: 1
    kernel_size: 3
  }
}
layer {
  name: "relu3_2"
  type: "ReLU"
  bottom: "conv3_2"
  top: "conv3_2"
}
layer {
  name: "conv3_3"
  type: "Convolution"
  bottom: "conv3_2"
  top: "conv3_3"
  param {
    lr_mult: 1
  }
  param {
    lr_mult: 2
  }
  convolution_param {
    num_output: 256
    pad: 1
    kernel_size: 3
  }
}
layer {
  name: "relu3_3"
  type: "ReLU"
  bottom: "conv3_3"
  top: "conv3_3"
}
layer {
  name: "pool3"
  type: "Pooling"
  bottom: "conv3_3"
  top: "pool3"
  pooling_param {
    pool: MAX
    kernel_size: 2
    stride: 2
  }
}
layer {
  name: "conv4_1"
  type: "Convolution"
  bottom: "pool3"
  top: "conv4_1"
  param {
    lr_mult: 1
  }
  param {
    lr_mult: 2
  }
  convolution_param {
    num_output: 512
    pad: 1
    kernel_size: 3
  }
}
layer {
  name: "relu4_1"
  type: "ReLU"
  bottom: "conv4_1"
  top: "conv4_1"
}
layer {
  name: "conv4_2"
  type: "Convolution"
  bottom: "conv4_1"
  top: "conv4_2"
  param {
    lr_mult: 1
  }
  param {
    lr_mult: 2
  }
  convolution_param {
    num_output: 512
    pad: 1
    kernel_size: 3
  }
}
layer {
  name: "relu4_2"
  type: "ReLU"
  bottom: "conv4_2"
  top: "conv4_2"
}
layer {
  name: "conv4_3"
  type: "Convolution"
  bottom: "conv4_2"
  top: "conv4_3"
  param {
    lr_mult: 1
  }
  param {
    lr_mult: 2
  }
  convolution_param {
    num_output: 512
    pad: 1
    kernel_size: 3
  }
}
layer {
  name: "relu4_3"
  type: "ReLU"
  bottom: "conv4_3"
  top: "conv4_3"
}
layer {
  name: "pool4"
  type: "Pooling"
  bottom: "conv4_3"
  top: "pool4"
  pooling_param {
    pool: MAX
    kernel_size: 2
    stride: 2
  }
}
layer {
  name: "conv5_1"
  type: "Convolution"
  bottom: "pool4"
  top: "conv5_1"
  param {
    lr_mult: 1
  }
  param {
    lr_mult: 2
  }
  convolution_param {
    num_output: 512
    pad: 1
    kernel_size: 3
  }
}
layer {
  name: "relu5_1"
  type: "ReLU"
  bottom: "conv5_1"
  top: "conv5_1"
}
layer {
  name: "conv5_2"
  type: "Convolution"
  bottom: "conv5_1"
  top: "conv5_2"
  param {
    lr_mult: 1
  }
  param {
    lr_mult: 2
  }
  convolution_param {
    num_output: 512
    pad: 1
    kernel_size: 3
  }
}
layer {
  name: "relu5_2"
  type: "ReLU"
  bottom: "conv5_2"
  top: "conv5_2"
}
layer {
  name: "conv5_3"
  type: "Convolution"
  bottom: "conv5_2"
  top: "conv5_3"
  param {
    lr_mult: 1
  }
  param {
    lr_mult: 2
  }
  convolution_param {
    num_output: 512
    pad: 1
    kernel_size: 3
  }
}
layer {
  name: "relu5_3"
  type: "ReLU"
  bottom: "conv5_3"
  top: "conv5_3"
}
layer {
  name: "rpn_big_conv1"
  type: "Convolution"
  bottom: "conv5_3"
  top: "rpn_big_conv1"
  param {
    lr_mult: 1
  }
  param {
    lr_mult: 2
  }
  convolution_param {
    num_output: 512
    pad: 1
    kernel_size: 3
    stride: 1
    weight_filler {
      type: "gaussian"
      mean: 0
      std: 0.01
    }
    bias_filler {
      type: "constant"
    }
  }
}
layer {
  name: "rpn_big_conv1_relu"
  type: "ReLU"
  bottom: "rpn_big_conv1"
  top: "rpn_big_conv1"
  relu_param {
    negative_slope: 0
  }
}
layer {
  name: "rpn_big_conv2"
  type: "Convolution"
  bottom: "rpn_big_conv1"
  top: "rpn_big_conv2"
  param {
    lr_mult: 1
  }
  param {
    lr_mult: 2
  }
  convolution_param {
    num_output: 512
    pad: 1
    kernel_size: 3
    stride: 1
    weight_filler {
      type: "gaussian"
      mean: 0
      std: 0.01
    }
    bias_filler {
      type: "constant"
    }
  }
}
layer {
  name: "rpn_big_conv2_relu"
  type: "ReLU"
  bottom: "rpn_big_conv2"
  top: "rpn_big_conv2"
  relu_param {
    negative_slope: 0
  }
}
layer {
  name: "rpn_big_conv2_drop"
  type: "Dropout"
  bottom: "rpn_big_conv2"
  top: "rpn_big_conv2"
  dropout_param {
    dropout_ratio: 0.3
  }
}
layer {
  name: "rpn_big_output_cls"
  type: "Convolution"
  bottom: "rpn_big_conv2"
  top: "rpn_big_output_cls"
  param {
    lr_mult: 1
  }
  param {
    lr_mult: 2
  }
  convolution_param {
    num_output: 384
    pad: 1
    kernel_size: 3
    stride: 1
    weight_filler {
      type: "gaussian"
      mean: 0
      std: 0.01
    }
    bias_filler {
      type: "constant"
    }
  }
}
layer {
  name: "rpn_big_output_cls_relu"
  type: "ReLU"
  bottom: "rpn_big_output_cls"
  top: "rpn_big_output_cls"
  relu_param {
    negative_slope: 0
  }
}
layer {
  name: "rpn_big_cls_score"
  type: "Convolution"
  bottom: "rpn_big_output_cls"
  top: "rpn_big_cls_score"
  param {
    lr_mult: 1
  }
  param {
    lr_mult: 2
  }
  convolution_param {
    num_output: 52
    pad: 0
    kernel_size: 3
    stride: 1
    weight_filler {
      type: "gaussian"
      mean: 0
      std: 0.01
    }
    bias_filler {
      type: "constant"
    }
  }
}
layer {
  name: "rpn_big_cls_score_reshape"
  type: "Reshape"
  bottom: "rpn_big_cls_score"
  top: "rpn_big_cls_score_reshape"
  reshape_param {
    shape {
      dim: 0
      dim: 2
      dim: -1
      dim: 0
    }
  }
}
layer {
  name: "rpn_big_cls_prob"
  type: "Softmax"
  bottom: "rpn_big_cls_score_reshape"
  top: "rpn_big_cls_prob"
}
layer {
  name: "rpn_big_cls_prob_reshape"
  type: "Reshape"
  bottom: "rpn_big_cls_prob"
  top: "rpn_big_cls_prob_reshape"
  reshape_param {
    shape {
      dim: 0
      dim: 52
      dim: -1
      dim: 0
    }
  }
}
layer {
  name: "rpn_big_anchor_target"
  type: "Python"
  bottom: "rpn_big_cls_score"
  bottom: "input_gt_boxes"
  bottom: "input_ignored_boxes"
  bottom: "input_im_info"
  bottom: "input_data"
  bottom: "rpn_big_cls_prob_reshape"
  top: "rpn_big_anchor_target_labels"
  top: "rpn_big_anchor_target_bbox_targets"
  top: "rpn_big_anchor_target_inside_weights"
  top: "rpn_big_anchor_target_outside_weights"
  python_param {
    module: "rpn.anchor_target_layer"
    layer: "AnchorTargetLayer"
    param_str: "{\"anchor_shift_num_xy\": [[2, 2], [2, 2], [2, 2], [2, 2], [1, 1], [1, 1], [1, 1], [1, 1], [1, 1], [1, 1], [1, 1], [1, 1], [1, 1], [1, 1]], \"feat_stride\": 16, \"anchor_ratios\": [1.0], \"num_classes\": 1, \"fg_fraction\": 0.5, \"negative_overlap\": 0.4, \"positive_overlap\": 0.6, \"tn_fraction\": 0.2, \"anchor_scales\": [2.5, 3.025, 3.66025, 4.4289024999999995, 5.358972025, 6.484356150249999, 7.846070941802498, 9.493745839581022, 11.487432465893036, 13.899793283730574, 16.818749873313998, 20.350687346709933, 24.62433168951902, 29.795441344318014], \"name\": \"rpn_big\", \"square_targets\": true, \"batchsize\": 256}"
  }
}
layer {
  name: "rpn_big_loss_cls"
  type: "SoftmaxWithLoss"
  bottom: "rpn_big_cls_score_reshape"
  bottom: "rpn_big_anchor_target_labels"
  top: "rpn_big_loss_cls"
  loss_weight: 1
  propagate_down: true
  propagate_down: false
  loss_param {
    ignore_label: -1
    normalization: VALID
  }
}
layer {
  name: "rpn_big_output_box"
  type: "Convolution"
  bottom: "rpn_big_conv2"
  top: "rpn_big_output_box"
  param {
    lr_mult: 1
  }
  param {
    lr_mult: 2
  }
  convolution_param {
    num_output: 384
    pad: 1
    kernel_size: 3
    stride: 1
    weight_filler {
      type: "gaussian"
      mean: 0
      std: 0.01
    }
    bias_filler {
      type: "constant"
    }
  }
}
layer {
  name: "rpn_big_output_box_relu"
  type: "ReLU"
  bottom: "rpn_big_output_box"
  top: "rpn_big_output_box"
  relu_param {
    negative_slope: 0
  }
}
layer {
  name: "rpn_big_bbox_pred"
  type: "Convolution"
  bottom: "rpn_big_output_box"
  top: "rpn_big_bbox_pred"
  param {
    lr_mult: 1
  }
  param {
    lr_mult: 2
  }
  convolution_param {
    num_output: 104
    pad: 0
    kernel_size: 3
    stride: 1
    weight_filler {
      type: "gaussian"
      mean: 0
      std: 0.01
    }
    bias_filler {
      type: "constant"
    }
  }
}
layer {
  name: "rpn_big_loss_bbox"
  type: "Python"
  bottom: "rpn_big_bbox_pred"
  bottom: "rpn_big_anchor_target_bbox_targets"
  bottom: "rpn_big_anchor_target_inside_weights"
  bottom: "rpn_big_anchor_target_outside_weights"
  top: "rpn_big_loss_bbox"
  loss_weight: 1
  python_param {
    module: "layers.smooth_l1_loss"
    layer: "SmoothL1LossLayer"
    param_str: "{\"sigma\": 3}"
  }
}
layer {
  name: "proposal"
  type: "Python"
  bottom: "rpn_big_cls_prob_reshape"
  bottom: "rpn_big_bbox_pred"
  bottom: "input_im_info"
  top: "rpn_rois"
  python_param {
    module: "rpn.proposal_layer"
    layer: "ProposalLayer"
    param_str: "{\"anchor_shift_num_xy\": [[2, 2], [2, 2], [2, 2], [2, 2], [1, 1], [1, 1], [1, 1], [1, 1], [1, 1], [1, 1], [1, 1], [1, 1], [1, 1], [1, 1]], \"feat_stride\": 16, \"num_classes\": 1, \"anchor_scales\": [2.5, 3.025, 3.66025, 4.4289024999999995, 5.358972025, 6.484356150249999, 7.846070941802498, 9.493745839581022, 11.487432465893036, 13.899793283730574, 16.818749873313998, 20.350687346709933, 24.62433168951902, 29.795441344318014], \"square_targets\": true, \"name\": \"rpn_big\", \"batchsize\": 256, \"anchor_ratios\": [1.0]}"
  }
}
layer {
  name: "roi-data"
  type: "Python"
  bottom: "rpn_rois"
  bottom: "input_gt_boxes"
  top: "rois"
  top: "labels"
  top: "bbox_targets"
  top: "bbox_inside_weights"
  top: "bbox_outside_weights"
  python_param {
    module: "rpn.proposal_target_layer"
    layer: "ProposalTargetLayer"
    param_str: "{\"num_classes\": 2, \"bg_aux_label\": 5532}"
  }
}
layer {
  name: "roi-pool"
  type: "ROIPooling"
  bottom: "conv5_3"
  bottom: "rois"
  top: "roi-pool"
  roi_pooling_param {
    pooled_h: 7
    pooled_w: 7
    spatial_scale: 0.0625
  }
}
layer {
  name: "fc6"
  type: "InnerProduct"
  bottom: "roi-pool"
  top: "fc6"
  param {
    lr_mult: 1
  }
  param {
    lr_mult: 2
  }
  inner_product_param {
    num_output: 4096
  }
}
layer {
  name: "relu6"
  type: "ReLU"
  bottom: "fc6"
  top: "fc6"
}
layer {
  name: "drop6"
  type: "Dropout"
  bottom: "fc6"
  top: "fc6"
  dropout_param {
    dropout_ratio: 0.5
  }
}
layer {
  name: "fc7"
  type: "InnerProduct"
  bottom: "fc6"
  top: "fc7"
  param {
    lr_mult: 1
  }
  param {
    lr_mult: 2
  }
  inner_product_param {
    num_output: 4096
  }
}
layer {
  name: "relu7"
  type: "ReLU"
  bottom: "fc7"
  top: "fc7"
}
layer {
  name: "drop7"
  type: "Dropout"
  bottom: "fc7"
  top: "fc7"
  dropout_param {
    dropout_ratio: 0.5
  }
}
layer {
  name: "bbox_pred"
  type: "InnerProduct"
  bottom: "fc7"
  top: "bbox_pred"
  param {
    lr_mult: 1
  }
  param {
    lr_mult: 2
  }
  inner_product_param {
    num_output: 8
    weight_filler {
      type: "gaussian"
      std: 0.001
    }
    bias_filler {
      type: "constant"
      value: 0
    }
  }
}
layer {
  name: "loss_bbox"
  type: "SmoothL1Loss"
  bottom: "bbox_pred"
  bottom: "bbox_targets"
  bottom: "bbox_inside_weights"
  bottom: "bbox_outside_weights"
  top: "loss_bbox"
  loss_weight: 1
}
layer {
  name: "feat"
  type: "InnerProduct"
  bottom: "fc7"
  top: "feat"
  param {
    lr_mult: 1
    decay_mult: 1
  }
  param {
    lr_mult: 2
    decay_mult: 0
  }
  inner_product_param {
    num_output: 256
    weight_filler {
      type: "gaussian"
      std: 0.01
    }
    bias_filler {
      type: "constant"
      value: 0
    }
  }
}
layer {
  name: "relu8"
  type: "ReLU"
  bottom: "feat"
  top: "feat"
}
layer {
  name: "drop8"
  type: "Dropout"
  bottom: "feat"
  top: "feat"
  dropout_param {
    dropout_ratio: 0.5
  }
}
layer {
  name: "pid_score"
  type: "InnerProduct"
  bottom: "feat"
  top: "pid_score"
  param {
    lr_mult: 1
    decay_mult: 1
  }
  param {
    lr_mult: 2
    decay_mult: 0
  }
  inner_product_param {
    num_output: 5533
    weight_filler {
      type: "gaussian"
      std: 0.001
    }
    bias_filler {
      type: "constant"
      value: 0
    }
  }
}
I0413 19:07:45.528403 15327 layer_factory.hpp:77] Creating layer input
I0413 19:07:45.529774 15327 net.cpp:100] Creating Layer input
I0413 19:07:45.529793 15327 net.cpp:408] input -> input_data
I0413 19:07:45.529806 15327 net.cpp:408] input -> input_im_info
I0413 19:07:45.529814 15327 net.cpp:408] input -> input_gt_boxes
I0413 19:07:45.529820 15327 net.cpp:408] input -> input_ignored_boxes
RoiDataLayer: name_to_top: {'ignored_boxes': 3, 'im_info': 1, 'data': 0, 'gt_boxes': 2}
I0413 19:07:45.842885 15327 net.cpp:150] Setting up input
I0413 19:07:45.842921 15327 net.cpp:157] Top shape: 1 3 1000 1500 (4500000)
I0413 19:07:45.842931 15327 net.cpp:157] Top shape: 1 3 (3)
I0413 19:07:45.842939 15327 net.cpp:157] Top shape: 1 5 (5)
I0413 19:07:45.842947 15327 net.cpp:157] Top shape: 1 5 (5)
I0413 19:07:45.842952 15327 net.cpp:165] Memory required for data: 18000052
I0413 19:07:45.842963 15327 layer_factory.hpp:77] Creating layer input_data_input_0_split
I0413 19:07:45.842980 15327 net.cpp:100] Creating Layer input_data_input_0_split
I0413 19:07:45.842993 15327 net.cpp:434] input_data_input_0_split <- input_data
I0413 19:07:45.843006 15327 net.cpp:408] input_data_input_0_split -> input_data_input_0_split_0
I0413 19:07:45.843029 15327 net.cpp:408] input_data_input_0_split -> input_data_input_0_split_1
I0413 19:07:45.843072 15327 net.cpp:150] Setting up input_data_input_0_split
I0413 19:07:45.843083 15327 net.cpp:157] Top shape: 1 3 1000 1500 (4500000)
I0413 19:07:45.843091 15327 net.cpp:157] Top shape: 1 3 1000 1500 (4500000)
I0413 19:07:45.843097 15327 net.cpp:165] Memory required for data: 54000052
I0413 19:07:45.843104 15327 layer_factory.hpp:77] Creating layer input_im_info_input_1_split
I0413 19:07:45.843116 15327 net.cpp:100] Creating Layer input_im_info_input_1_split
I0413 19:07:45.843122 15327 net.cpp:434] input_im_info_input_1_split <- input_im_info
I0413 19:07:45.843130 15327 net.cpp:408] input_im_info_input_1_split -> input_im_info_input_1_split_0
I0413 19:07:45.843142 15327 net.cpp:408] input_im_info_input_1_split -> input_im_info_input_1_split_1
I0413 19:07:45.843183 15327 net.cpp:150] Setting up input_im_info_input_1_split
I0413 19:07:45.843191 15327 net.cpp:157] Top shape: 1 3 (3)
I0413 19:07:45.843199 15327 net.cpp:157] Top shape: 1 3 (3)
I0413 19:07:45.843205 15327 net.cpp:165] Memory required for data: 54000076
I0413 19:07:45.843211 15327 layer_factory.hpp:77] Creating layer input_gt_boxes_input_2_split
I0413 19:07:45.843221 15327 net.cpp:100] Creating Layer input_gt_boxes_input_2_split
I0413 19:07:45.843227 15327 net.cpp:434] input_gt_boxes_input_2_split <- input_gt_boxes
I0413 19:07:45.843237 15327 net.cpp:408] input_gt_boxes_input_2_split -> input_gt_boxes_input_2_split_0
I0413 19:07:45.843250 15327 net.cpp:408] input_gt_boxes_input_2_split -> input_gt_boxes_input_2_split_1
I0413 19:07:45.843288 15327 net.cpp:150] Setting up input_gt_boxes_input_2_split
I0413 19:07:45.843297 15327 net.cpp:157] Top shape: 1 5 (5)
I0413 19:07:45.843305 15327 net.cpp:157] Top shape: 1 5 (5)
I0413 19:07:45.843312 15327 net.cpp:165] Memory required for data: 54000116
I0413 19:07:45.843317 15327 layer_factory.hpp:77] Creating layer conv1_1
I0413 19:07:45.843334 15327 net.cpp:100] Creating Layer conv1_1
I0413 19:07:45.843341 15327 net.cpp:434] conv1_1 <- input_data_input_0_split_0
I0413 19:07:45.843351 15327 net.cpp:408] conv1_1 -> conv1_1
I0413 19:07:45.846377 15327 net.cpp:150] Setting up conv1_1
I0413 19:07:45.846416 15327 net.cpp:157] Top shape: 1 64 1000 1500 (96000000)
I0413 19:07:45.846421 15327 net.cpp:165] Memory required for data: 438000116
I0413 19:07:45.846452 15327 layer_factory.hpp:77] Creating layer relu1_1
I0413 19:07:45.846467 15327 net.cpp:100] Creating Layer relu1_1
I0413 19:07:45.846475 15327 net.cpp:434] relu1_1 <- conv1_1
I0413 19:07:45.846487 15327 net.cpp:395] relu1_1 -> conv1_1 (in-place)
I0413 19:07:45.846506 15327 net.cpp:150] Setting up relu1_1
I0413 19:07:45.846515 15327 net.cpp:157] Top shape: 1 64 1000 1500 (96000000)
I0413 19:07:45.846524 15327 net.cpp:165] Memory required for data: 822000116
I0413 19:07:45.846529 15327 layer_factory.hpp:77] Creating layer conv1_2
I0413 19:07:45.846544 15327 net.cpp:100] Creating Layer conv1_2
I0413 19:07:45.846550 15327 net.cpp:434] conv1_2 <- conv1_1
I0413 19:07:45.846561 15327 net.cpp:408] conv1_2 -> conv1_2
I0413 19:07:45.849829 15327 net.cpp:150] Setting up conv1_2
I0413 19:07:45.849867 15327 net.cpp:157] Top shape: 1 64 1000 1500 (96000000)
I0413 19:07:45.849874 15327 net.cpp:165] Memory required for data: 1206000116
I0413 19:07:45.849898 15327 layer_factory.hpp:77] Creating layer relu1_2
I0413 19:07:45.849915 15327 net.cpp:100] Creating Layer relu1_2
I0413 19:07:45.849925 15327 net.cpp:434] relu1_2 <- conv1_2
I0413 19:07:45.849937 15327 net.cpp:395] relu1_2 -> conv1_2 (in-place)
I0413 19:07:45.849953 15327 net.cpp:150] Setting up relu1_2
I0413 19:07:45.849962 15327 net.cpp:157] Top shape: 1 64 1000 1500 (96000000)
I0413 19:07:45.849969 15327 net.cpp:165] Memory required for data: 1590000116
I0413 19:07:45.849975 15327 layer_factory.hpp:77] Creating layer pool1
I0413 19:07:45.849992 15327 net.cpp:100] Creating Layer pool1
I0413 19:07:45.849998 15327 net.cpp:434] pool1 <- conv1_2
I0413 19:07:45.850008 15327 net.cpp:408] pool1 -> pool1
I0413 19:07:45.850085 15327 net.cpp:150] Setting up pool1
I0413 19:07:45.850095 15327 net.cpp:157] Top shape: 1 64 500 750 (24000000)
I0413 19:07:45.850101 15327 net.cpp:165] Memory required for data: 1686000116
I0413 19:07:45.850109 15327 layer_factory.hpp:77] Creating layer conv2_1
I0413 19:07:45.850126 15327 net.cpp:100] Creating Layer conv2_1
I0413 19:07:45.850133 15327 net.cpp:434] conv2_1 <- pool1
I0413 19:07:45.850145 15327 net.cpp:408] conv2_1 -> conv2_1
I0413 19:07:45.851373 15327 net.cpp:150] Setting up conv2_1
I0413 19:07:45.851397 15327 net.cpp:157] Top shape: 1 128 500 750 (48000000)
I0413 19:07:45.851402 15327 net.cpp:165] Memory required for data: 1878000116
I0413 19:07:45.851421 15327 layer_factory.hpp:77] Creating layer relu2_1
I0413 19:07:45.851434 15327 net.cpp:100] Creating Layer relu2_1
I0413 19:07:45.851442 15327 net.cpp:434] relu2_1 <- conv2_1
I0413 19:07:45.851454 15327 net.cpp:395] relu2_1 -> conv2_1 (in-place)
I0413 19:07:45.851467 15327 net.cpp:150] Setting up relu2_1
I0413 19:07:45.851476 15327 net.cpp:157] Top shape: 1 128 500 750 (48000000)
I0413 19:07:45.851483 15327 net.cpp:165] Memory required for data: 2070000116
I0413 19:07:45.851490 15327 layer_factory.hpp:77] Creating layer conv2_2
I0413 19:07:45.851505 15327 net.cpp:100] Creating Layer conv2_2
I0413 19:07:45.851512 15327 net.cpp:434] conv2_2 <- conv2_1
I0413 19:07:45.851524 15327 net.cpp:408] conv2_2 -> conv2_2
I0413 19:07:45.852499 15327 net.cpp:150] Setting up conv2_2
I0413 19:07:45.852525 15327 net.cpp:157] Top shape: 1 128 500 750 (48000000)
I0413 19:07:45.852531 15327 net.cpp:165] Memory required for data: 2262000116
I0413 19:07:45.852545 15327 layer_factory.hpp:77] Creating layer relu2_2
I0413 19:07:45.852557 15327 net.cpp:100] Creating Layer relu2_2
I0413 19:07:45.852567 15327 net.cpp:434] relu2_2 <- conv2_2
I0413 19:07:45.852579 15327 net.cpp:395] relu2_2 -> conv2_2 (in-place)
I0413 19:07:45.852593 15327 net.cpp:150] Setting up relu2_2
I0413 19:07:45.852602 15327 net.cpp:157] Top shape: 1 128 500 750 (48000000)
I0413 19:07:45.852609 15327 net.cpp:165] Memory required for data: 2454000116
I0413 19:07:45.852615 15327 layer_factory.hpp:77] Creating layer pool2
I0413 19:07:45.852627 15327 net.cpp:100] Creating Layer pool2
I0413 19:07:45.852634 15327 net.cpp:434] pool2 <- conv2_2
I0413 19:07:45.852645 15327 net.cpp:408] pool2 -> pool2
I0413 19:07:45.852705 15327 net.cpp:150] Setting up pool2
I0413 19:07:45.852717 15327 net.cpp:157] Top shape: 1 128 250 375 (12000000)
I0413 19:07:45.852726 15327 net.cpp:165] Memory required for data: 2502000116
I0413 19:07:45.852732 15327 layer_factory.hpp:77] Creating layer conv3_1
I0413 19:07:45.852748 15327 net.cpp:100] Creating Layer conv3_1
I0413 19:07:45.852756 15327 net.cpp:434] conv3_1 <- pool2
I0413 19:07:45.852766 15327 net.cpp:408] conv3_1 -> conv3_1
I0413 19:07:45.853859 15327 net.cpp:150] Setting up conv3_1
I0413 19:07:45.853884 15327 net.cpp:157] Top shape: 1 256 250 375 (24000000)
I0413 19:07:45.853890 15327 net.cpp:165] Memory required for data: 2598000116
I0413 19:07:45.853910 15327 layer_factory.hpp:77] Creating layer relu3_1
I0413 19:07:45.853924 15327 net.cpp:100] Creating Layer relu3_1
I0413 19:07:45.853931 15327 net.cpp:434] relu3_1 <- conv3_1
I0413 19:07:45.853941 15327 net.cpp:395] relu3_1 -> conv3_1 (in-place)
I0413 19:07:45.853955 15327 net.cpp:150] Setting up relu3_1
I0413 19:07:45.853965 15327 net.cpp:157] Top shape: 1 256 250 375 (24000000)
I0413 19:07:45.853971 15327 net.cpp:165] Memory required for data: 2694000116
I0413 19:07:45.853977 15327 layer_factory.hpp:77] Creating layer conv3_2
I0413 19:07:45.853996 15327 net.cpp:100] Creating Layer conv3_2
I0413 19:07:45.854003 15327 net.cpp:434] conv3_2 <- conv3_1
I0413 19:07:45.854012 15327 net.cpp:408] conv3_2 -> conv3_2
I0413 19:07:45.855273 15327 net.cpp:150] Setting up conv3_2
I0413 19:07:45.855304 15327 net.cpp:157] Top shape: 1 256 250 375 (24000000)
I0413 19:07:45.855310 15327 net.cpp:165] Memory required for data: 2790000116
I0413 19:07:45.855324 15327 layer_factory.hpp:77] Creating layer relu3_2
I0413 19:07:45.855337 15327 net.cpp:100] Creating Layer relu3_2
I0413 19:07:45.855345 15327 net.cpp:434] relu3_2 <- conv3_2
I0413 19:07:45.855355 15327 net.cpp:395] relu3_2 -> conv3_2 (in-place)
I0413 19:07:45.855370 15327 net.cpp:150] Setting up relu3_2
I0413 19:07:45.855379 15327 net.cpp:157] Top shape: 1 256 250 375 (24000000)
I0413 19:07:45.855386 15327 net.cpp:165] Memory required for data: 2886000116
I0413 19:07:45.855391 15327 layer_factory.hpp:77] Creating layer conv3_3
I0413 19:07:45.855406 15327 net.cpp:100] Creating Layer conv3_3
I0413 19:07:45.855417 15327 net.cpp:434] conv3_3 <- conv3_2
I0413 19:07:45.855428 15327 net.cpp:408] conv3_3 -> conv3_3
I0413 19:07:45.857012 15327 net.cpp:150] Setting up conv3_3
I0413 19:07:45.857048 15327 net.cpp:157] Top shape: 1 256 250 375 (24000000)
I0413 19:07:45.857053 15327 net.cpp:165] Memory required for data: 2982000116
I0413 19:07:45.857069 15327 layer_factory.hpp:77] Creating layer relu3_3
I0413 19:07:45.857082 15327 net.cpp:100] Creating Layer relu3_3
I0413 19:07:45.857090 15327 net.cpp:434] relu3_3 <- conv3_3
I0413 19:07:45.857102 15327 net.cpp:395] relu3_3 -> conv3_3 (in-place)
I0413 19:07:45.857117 15327 net.cpp:150] Setting up relu3_3
I0413 19:07:45.857127 15327 net.cpp:157] Top shape: 1 256 250 375 (24000000)
I0413 19:07:45.857133 15327 net.cpp:165] Memory required for data: 3078000116
I0413 19:07:45.857141 15327 layer_factory.hpp:77] Creating layer pool3
I0413 19:07:45.857152 15327 net.cpp:100] Creating Layer pool3
I0413 19:07:45.857158 15327 net.cpp:434] pool3 <- conv3_3
I0413 19:07:45.857168 15327 net.cpp:408] pool3 -> pool3
I0413 19:07:45.857223 15327 net.cpp:150] Setting up pool3
I0413 19:07:45.857234 15327 net.cpp:157] Top shape: 1 256 125 188 (6016000)
I0413 19:07:45.857239 15327 net.cpp:165] Memory required for data: 3102064116
I0413 19:07:45.857246 15327 layer_factory.hpp:77] Creating layer conv4_1
I0413 19:07:45.857261 15327 net.cpp:100] Creating Layer conv4_1
I0413 19:07:45.857270 15327 net.cpp:434] conv4_1 <- pool3
I0413 19:07:45.857280 15327 net.cpp:408] conv4_1 -> conv4_1
I0413 19:07:45.859963 15327 net.cpp:150] Setting up conv4_1
I0413 19:07:45.860000 15327 net.cpp:157] Top shape: 1 512 125 188 (12032000)
I0413 19:07:45.860005 15327 net.cpp:165] Memory required for data: 3150192116
I0413 19:07:45.860020 15327 layer_factory.hpp:77] Creating layer relu4_1
I0413 19:07:45.860035 15327 net.cpp:100] Creating Layer relu4_1
I0413 19:07:45.860045 15327 net.cpp:434] relu4_1 <- conv4_1
I0413 19:07:45.860059 15327 net.cpp:395] relu4_1 -> conv4_1 (in-place)
I0413 19:07:45.860074 15327 net.cpp:150] Setting up relu4_1
I0413 19:07:45.860082 15327 net.cpp:157] Top shape: 1 512 125 188 (12032000)
I0413 19:07:45.860088 15327 net.cpp:165] Memory required for data: 3198320116
I0413 19:07:45.860095 15327 layer_factory.hpp:77] Creating layer conv4_2
I0413 19:07:45.860111 15327 net.cpp:100] Creating Layer conv4_2
I0413 19:07:45.860117 15327 net.cpp:434] conv4_2 <- conv4_1
I0413 19:07:45.860131 15327 net.cpp:408] conv4_2 -> conv4_2
I0413 19:07:45.864344 15327 net.cpp:150] Setting up conv4_2
I0413 19:07:45.864382 15327 net.cpp:157] Top shape: 1 512 125 188 (12032000)
I0413 19:07:45.864388 15327 net.cpp:165] Memory required for data: 3246448116
I0413 19:07:45.864413 15327 layer_factory.hpp:77] Creating layer relu4_2
I0413 19:07:45.864428 15327 net.cpp:100] Creating Layer relu4_2
I0413 19:07:45.864436 15327 net.cpp:434] relu4_2 <- conv4_2
I0413 19:07:45.864449 15327 net.cpp:395] relu4_2 -> conv4_2 (in-place)
I0413 19:07:45.864464 15327 net.cpp:150] Setting up relu4_2
I0413 19:07:45.864475 15327 net.cpp:157] Top shape: 1 512 125 188 (12032000)
I0413 19:07:45.864481 15327 net.cpp:165] Memory required for data: 3294576116
I0413 19:07:45.864487 15327 layer_factory.hpp:77] Creating layer conv4_3
I0413 19:07:45.864504 15327 net.cpp:100] Creating Layer conv4_3
I0413 19:07:45.864521 15327 net.cpp:434] conv4_3 <- conv4_2
I0413 19:07:45.864533 15327 net.cpp:408] conv4_3 -> conv4_3
I0413 19:07:45.870163 15327 net.cpp:150] Setting up conv4_3
I0413 19:07:45.870198 15327 net.cpp:157] Top shape: 1 512 125 188 (12032000)
I0413 19:07:45.870204 15327 net.cpp:165] Memory required for data: 3342704116
I0413 19:07:45.870219 15327 layer_factory.hpp:77] Creating layer relu4_3
I0413 19:07:45.870236 15327 net.cpp:100] Creating Layer relu4_3
I0413 19:07:45.870244 15327 net.cpp:434] relu4_3 <- conv4_3
I0413 19:07:45.870257 15327 net.cpp:395] relu4_3 -> conv4_3 (in-place)
I0413 19:07:45.870271 15327 net.cpp:150] Setting up relu4_3
I0413 19:07:45.870282 15327 net.cpp:157] Top shape: 1 512 125 188 (12032000)
I0413 19:07:45.870288 15327 net.cpp:165] Memory required for data: 3390832116
I0413 19:07:45.870296 15327 layer_factory.hpp:77] Creating layer pool4
I0413 19:07:45.870307 15327 net.cpp:100] Creating Layer pool4
I0413 19:07:45.870314 15327 net.cpp:434] pool4 <- conv4_3
I0413 19:07:45.870324 15327 net.cpp:408] pool4 -> pool4
I0413 19:07:45.870370 15327 net.cpp:150] Setting up pool4
I0413 19:07:45.870381 15327 net.cpp:157] Top shape: 1 512 63 94 (3032064)
I0413 19:07:45.870388 15327 net.cpp:165] Memory required for data: 3402960372
I0413 19:07:45.870394 15327 layer_factory.hpp:77] Creating layer conv5_1
I0413 19:07:45.870411 15327 net.cpp:100] Creating Layer conv5_1
I0413 19:07:45.870420 15327 net.cpp:434] conv5_1 <- pool4
I0413 19:07:45.870434 15327 net.cpp:408] conv5_1 -> conv5_1
I0413 19:07:45.875252 15327 net.cpp:150] Setting up conv5_1
I0413 19:07:45.875288 15327 net.cpp:157] Top shape: 1 512 63 94 (3032064)
I0413 19:07:45.875295 15327 net.cpp:165] Memory required for data: 3415088628
I0413 19:07:45.875310 15327 layer_factory.hpp:77] Creating layer relu5_1
I0413 19:07:45.875325 15327 net.cpp:100] Creating Layer relu5_1
I0413 19:07:45.875334 15327 net.cpp:434] relu5_1 <- conv5_1
I0413 19:07:45.875346 15327 net.cpp:395] relu5_1 -> conv5_1 (in-place)
I0413 19:07:45.875361 15327 net.cpp:150] Setting up relu5_1
I0413 19:07:45.875380 15327 net.cpp:157] Top shape: 1 512 63 94 (3032064)
I0413 19:07:45.875385 15327 net.cpp:165] Memory required for data: 3427216884
I0413 19:07:45.875391 15327 layer_factory.hpp:77] Creating layer conv5_2
I0413 19:07:45.875407 15327 net.cpp:100] Creating Layer conv5_2
I0413 19:07:45.875414 15327 net.cpp:434] conv5_2 <- conv5_1
I0413 19:07:45.875427 15327 net.cpp:408] conv5_2 -> conv5_2
I0413 19:07:45.879746 15327 net.cpp:150] Setting up conv5_2
I0413 19:07:45.879799 15327 net.cpp:157] Top shape: 1 512 63 94 (3032064)
I0413 19:07:45.879806 15327 net.cpp:165] Memory required for data: 3439345140
I0413 19:07:45.879820 15327 layer_factory.hpp:77] Creating layer relu5_2
I0413 19:07:45.879837 15327 net.cpp:100] Creating Layer relu5_2
I0413 19:07:45.879843 15327 net.cpp:434] relu5_2 <- conv5_2
I0413 19:07:45.879853 15327 net.cpp:395] relu5_2 -> conv5_2 (in-place)
I0413 19:07:45.879866 15327 net.cpp:150] Setting up relu5_2
I0413 19:07:45.879887 15327 net.cpp:157] Top shape: 1 512 63 94 (3032064)
I0413 19:07:45.879894 15327 net.cpp:165] Memory required for data: 3451473396
I0413 19:07:45.879899 15327 layer_factory.hpp:77] Creating layer conv5_3
I0413 19:07:45.879921 15327 net.cpp:100] Creating Layer conv5_3
I0413 19:07:45.879930 15327 net.cpp:434] conv5_3 <- conv5_2
I0413 19:07:45.879940 15327 net.cpp:408] conv5_3 -> conv5_3
I0413 19:07:45.884562 15327 net.cpp:150] Setting up conv5_3
I0413 19:07:45.884603 15327 net.cpp:157] Top shape: 1 512 63 94 (3032064)
I0413 19:07:45.884606 15327 net.cpp:165] Memory required for data: 3463601652
I0413 19:07:45.884616 15327 layer_factory.hpp:77] Creating layer relu5_3
I0413 19:07:45.884629 15327 net.cpp:100] Creating Layer relu5_3
I0413 19:07:45.884636 15327 net.cpp:434] relu5_3 <- conv5_3
I0413 19:07:45.884647 15327 net.cpp:395] relu5_3 -> conv5_3 (in-place)
I0413 19:07:45.884663 15327 net.cpp:150] Setting up relu5_3
I0413 19:07:45.884671 15327 net.cpp:157] Top shape: 1 512 63 94 (3032064)
I0413 19:07:45.884676 15327 net.cpp:165] Memory required for data: 3475729908
I0413 19:07:45.884681 15327 layer_factory.hpp:77] Creating layer conv5_3_relu5_3_0_split
I0413 19:07:45.884692 15327 net.cpp:100] Creating Layer conv5_3_relu5_3_0_split
I0413 19:07:45.884697 15327 net.cpp:434] conv5_3_relu5_3_0_split <- conv5_3
I0413 19:07:45.884706 15327 net.cpp:408] conv5_3_relu5_3_0_split -> conv5_3_relu5_3_0_split_0
I0413 19:07:45.884721 15327 net.cpp:408] conv5_3_relu5_3_0_split -> conv5_3_relu5_3_0_split_1
I0413 19:07:45.884766 15327 net.cpp:150] Setting up conv5_3_relu5_3_0_split
I0413 19:07:45.884776 15327 net.cpp:157] Top shape: 1 512 63 94 (3032064)
I0413 19:07:45.884784 15327 net.cpp:157] Top shape: 1 512 63 94 (3032064)
I0413 19:07:45.884790 15327 net.cpp:165] Memory required for data: 3499986420
I0413 19:07:45.884795 15327 layer_factory.hpp:77] Creating layer rpn_big_conv1
I0413 19:07:45.884814 15327 net.cpp:100] Creating Layer rpn_big_conv1
I0413 19:07:45.884822 15327 net.cpp:434] rpn_big_conv1 <- conv5_3_relu5_3_0_split_0
I0413 19:07:45.884834 15327 net.cpp:408] rpn_big_conv1 -> rpn_big_conv1
I0413 19:07:45.910174 15327 net.cpp:150] Setting up rpn_big_conv1
I0413 19:07:45.910215 15327 net.cpp:157] Top shape: 1 512 63 94 (3032064)
I0413 19:07:45.910219 15327 net.cpp:165] Memory required for data: 3512114676
I0413 19:07:45.910230 15327 layer_factory.hpp:77] Creating layer rpn_big_conv1_relu
I0413 19:07:45.910243 15327 net.cpp:100] Creating Layer rpn_big_conv1_relu
I0413 19:07:45.910248 15327 net.cpp:434] rpn_big_conv1_relu <- rpn_big_conv1
I0413 19:07:45.910259 15327 net.cpp:395] rpn_big_conv1_relu -> rpn_big_conv1 (in-place)
I0413 19:07:45.910274 15327 net.cpp:150] Setting up rpn_big_conv1_relu
I0413 19:07:45.910282 15327 net.cpp:157] Top shape: 1 512 63 94 (3032064)
I0413 19:07:45.910287 15327 net.cpp:165] Memory required for data: 3524242932
I0413 19:07:45.910293 15327 layer_factory.hpp:77] Creating layer rpn_big_conv2
I0413 19:07:45.910308 15327 net.cpp:100] Creating Layer rpn_big_conv2
I0413 19:07:45.910315 15327 net.cpp:434] rpn_big_conv2 <- rpn_big_conv1
I0413 19:07:45.910326 15327 net.cpp:408] rpn_big_conv2 -> rpn_big_conv2
I0413 19:07:45.936110 15327 net.cpp:150] Setting up rpn_big_conv2
I0413 19:07:45.936147 15327 net.cpp:157] Top shape: 1 512 63 94 (3032064)
I0413 19:07:45.936159 15327 net.cpp:165] Memory required for data: 3536371188
I0413 19:07:45.936170 15327 layer_factory.hpp:77] Creating layer rpn_big_conv2_relu
I0413 19:07:45.936182 15327 net.cpp:100] Creating Layer rpn_big_conv2_relu
I0413 19:07:45.936187 15327 net.cpp:434] rpn_big_conv2_relu <- rpn_big_conv2
I0413 19:07:45.936197 15327 net.cpp:395] rpn_big_conv2_relu -> rpn_big_conv2 (in-place)
I0413 19:07:45.936211 15327 net.cpp:150] Setting up rpn_big_conv2_relu
I0413 19:07:45.936219 15327 net.cpp:157] Top shape: 1 512 63 94 (3032064)
I0413 19:07:45.936224 15327 net.cpp:165] Memory required for data: 3548499444
I0413 19:07:45.936229 15327 layer_factory.hpp:77] Creating layer rpn_big_conv2_drop
I0413 19:07:45.936239 15327 net.cpp:100] Creating Layer rpn_big_conv2_drop
I0413 19:07:45.936245 15327 net.cpp:434] rpn_big_conv2_drop <- rpn_big_conv2
I0413 19:07:45.936254 15327 net.cpp:395] rpn_big_conv2_drop -> rpn_big_conv2 (in-place)
I0413 19:07:45.936287 15327 net.cpp:150] Setting up rpn_big_conv2_drop
I0413 19:07:45.936298 15327 net.cpp:157] Top shape: 1 512 63 94 (3032064)
I0413 19:07:45.936303 15327 net.cpp:165] Memory required for data: 3560627700
I0413 19:07:45.936308 15327 layer_factory.hpp:77] Creating layer rpn_big_conv2_rpn_big_conv2_drop_0_split
I0413 19:07:45.936319 15327 net.cpp:100] Creating Layer rpn_big_conv2_rpn_big_conv2_drop_0_split
I0413 19:07:45.936326 15327 net.cpp:434] rpn_big_conv2_rpn_big_conv2_drop_0_split <- rpn_big_conv2
I0413 19:07:45.936334 15327 net.cpp:408] rpn_big_conv2_rpn_big_conv2_drop_0_split -> rpn_big_conv2_rpn_big_conv2_drop_0_split_0
I0413 19:07:45.936347 15327 net.cpp:408] rpn_big_conv2_rpn_big_conv2_drop_0_split -> rpn_big_conv2_rpn_big_conv2_drop_0_split_1
I0413 19:07:45.936403 15327 net.cpp:150] Setting up rpn_big_conv2_rpn_big_conv2_drop_0_split
I0413 19:07:45.936414 15327 net.cpp:157] Top shape: 1 512 63 94 (3032064)
I0413 19:07:45.936422 15327 net.cpp:157] Top shape: 1 512 63 94 (3032064)
I0413 19:07:45.936429 15327 net.cpp:165] Memory required for data: 3584884212
I0413 19:07:45.936435 15327 layer_factory.hpp:77] Creating layer rpn_big_output_cls
I0413 19:07:45.936452 15327 net.cpp:100] Creating Layer rpn_big_output_cls
I0413 19:07:45.936460 15327 net.cpp:434] rpn_big_output_cls <- rpn_big_conv2_rpn_big_conv2_drop_0_split_0
I0413 19:07:45.936471 15327 net.cpp:408] rpn_big_output_cls -> rpn_big_output_cls
I0413 19:07:45.956553 15327 net.cpp:150] Setting up rpn_big_output_cls
I0413 19:07:45.956581 15327 net.cpp:157] Top shape: 1 384 63 94 (2274048)
I0413 19:07:45.956585 15327 net.cpp:165] Memory required for data: 3593980404
I0413 19:07:45.956596 15327 layer_factory.hpp:77] Creating layer rpn_big_output_cls_relu
I0413 19:07:45.956611 15327 net.cpp:100] Creating Layer rpn_big_output_cls_relu
I0413 19:07:45.956619 15327 net.cpp:434] rpn_big_output_cls_relu <- rpn_big_output_cls
I0413 19:07:45.956630 15327 net.cpp:395] rpn_big_output_cls_relu -> rpn_big_output_cls (in-place)
I0413 19:07:45.956645 15327 net.cpp:150] Setting up rpn_big_output_cls_relu
I0413 19:07:45.956651 15327 net.cpp:157] Top shape: 1 384 63 94 (2274048)
I0413 19:07:45.956656 15327 net.cpp:165] Memory required for data: 3603076596
I0413 19:07:45.956661 15327 layer_factory.hpp:77] Creating layer rpn_big_cls_score
I0413 19:07:45.956682 15327 net.cpp:100] Creating Layer rpn_big_cls_score
I0413 19:07:45.956689 15327 net.cpp:434] rpn_big_cls_score <- rpn_big_output_cls
I0413 19:07:45.956698 15327 net.cpp:408] rpn_big_cls_score -> rpn_big_cls_score
I0413 19:07:45.959172 15327 net.cpp:150] Setting up rpn_big_cls_score
I0413 19:07:45.959192 15327 net.cpp:157] Top shape: 1 52 61 92 (291824)
I0413 19:07:45.959195 15327 net.cpp:165] Memory required for data: 3604243892
I0413 19:07:45.959215 15327 layer_factory.hpp:77] Creating layer rpn_big_cls_score_rpn_big_cls_score_0_split
I0413 19:07:45.959228 15327 net.cpp:100] Creating Layer rpn_big_cls_score_rpn_big_cls_score_0_split
I0413 19:07:45.959234 15327 net.cpp:434] rpn_big_cls_score_rpn_big_cls_score_0_split <- rpn_big_cls_score
I0413 19:07:45.959244 15327 net.cpp:408] rpn_big_cls_score_rpn_big_cls_score_0_split -> rpn_big_cls_score_rpn_big_cls_score_0_split_0
I0413 19:07:45.959256 15327 net.cpp:408] rpn_big_cls_score_rpn_big_cls_score_0_split -> rpn_big_cls_score_rpn_big_cls_score_0_split_1
I0413 19:07:45.959306 15327 net.cpp:150] Setting up rpn_big_cls_score_rpn_big_cls_score_0_split
I0413 19:07:45.959317 15327 net.cpp:157] Top shape: 1 52 61 92 (291824)
I0413 19:07:45.959326 15327 net.cpp:157] Top shape: 1 52 61 92 (291824)
I0413 19:07:45.959329 15327 net.cpp:165] Memory required for data: 3606578484
I0413 19:07:45.959334 15327 layer_factory.hpp:77] Creating layer rpn_big_cls_score_reshape
I0413 19:07:45.959345 15327 net.cpp:100] Creating Layer rpn_big_cls_score_reshape
I0413 19:07:45.959352 15327 net.cpp:434] rpn_big_cls_score_reshape <- rpn_big_cls_score_rpn_big_cls_score_0_split_0
I0413 19:07:45.959367 15327 net.cpp:408] rpn_big_cls_score_reshape -> rpn_big_cls_score_reshape
I0413 19:07:45.959403 15327 net.cpp:150] Setting up rpn_big_cls_score_reshape
I0413 19:07:45.959413 15327 net.cpp:157] Top shape: 1 2 1586 92 (291824)
I0413 19:07:45.959416 15327 net.cpp:165] Memory required for data: 3607745780
I0413 19:07:45.959421 15327 layer_factory.hpp:77] Creating layer rpn_big_cls_score_reshape_rpn_big_cls_score_reshape_0_split
I0413 19:07:45.959429 15327 net.cpp:100] Creating Layer rpn_big_cls_score_reshape_rpn_big_cls_score_reshape_0_split
I0413 19:07:45.959435 15327 net.cpp:434] rpn_big_cls_score_reshape_rpn_big_cls_score_reshape_0_split <- rpn_big_cls_score_reshape
I0413 19:07:45.959445 15327 net.cpp:408] rpn_big_cls_score_reshape_rpn_big_cls_score_reshape_0_split -> rpn_big_cls_score_reshape_rpn_big_cls_score_reshape_0_split_0
I0413 19:07:45.959455 15327 net.cpp:408] rpn_big_cls_score_reshape_rpn_big_cls_score_reshape_0_split -> rpn_big_cls_score_reshape_rpn_big_cls_score_reshape_0_split_1
I0413 19:07:45.959501 15327 net.cpp:150] Setting up rpn_big_cls_score_reshape_rpn_big_cls_score_reshape_0_split
I0413 19:07:45.959511 15327 net.cpp:157] Top shape: 1 2 1586 92 (291824)
I0413 19:07:45.959518 15327 net.cpp:157] Top shape: 1 2 1586 92 (291824)
I0413 19:07:45.959523 15327 net.cpp:165] Memory required for data: 3610080372
I0413 19:07:45.959528 15327 layer_factory.hpp:77] Creating layer rpn_big_cls_prob
I0413 19:07:45.959538 15327 net.cpp:100] Creating Layer rpn_big_cls_prob
I0413 19:07:45.959545 15327 net.cpp:434] rpn_big_cls_prob <- rpn_big_cls_score_reshape_rpn_big_cls_score_reshape_0_split_0
I0413 19:07:45.959553 15327 net.cpp:408] rpn_big_cls_prob -> rpn_big_cls_prob
I0413 19:07:45.959628 15327 net.cpp:150] Setting up rpn_big_cls_prob
I0413 19:07:45.959662 15327 net.cpp:157] Top shape: 1 2 1586 92 (291824)
I0413 19:07:45.959683 15327 net.cpp:165] Memory required for data: 3611247668
I0413 19:07:45.959702 15327 layer_factory.hpp:77] Creating layer rpn_big_cls_prob_reshape
I0413 19:07:45.959723 15327 net.cpp:100] Creating Layer rpn_big_cls_prob_reshape
I0413 19:07:45.959743 15327 net.cpp:434] rpn_big_cls_prob_reshape <- rpn_big_cls_prob
I0413 19:07:45.959764 15327 net.cpp:408] rpn_big_cls_prob_reshape -> rpn_big_cls_prob_reshape
I0413 19:07:45.959818 15327 net.cpp:150] Setting up rpn_big_cls_prob_reshape
I0413 19:07:45.959830 15327 net.cpp:157] Top shape: 1 52 61 92 (291824)
I0413 19:07:45.959836 15327 net.cpp:165] Memory required for data: 3612414964
I0413 19:07:45.959842 15327 layer_factory.hpp:77] Creating layer rpn_big_cls_prob_reshape_rpn_big_cls_prob_reshape_0_split
I0413 19:07:45.959852 15327 net.cpp:100] Creating Layer rpn_big_cls_prob_reshape_rpn_big_cls_prob_reshape_0_split
I0413 19:07:45.959859 15327 net.cpp:434] rpn_big_cls_prob_reshape_rpn_big_cls_prob_reshape_0_split <- rpn_big_cls_prob_reshape
I0413 19:07:45.959867 15327 net.cpp:408] rpn_big_cls_prob_reshape_rpn_big_cls_prob_reshape_0_split -> rpn_big_cls_prob_reshape_rpn_big_cls_prob_reshape_0_split_0
I0413 19:07:45.959882 15327 net.cpp:408] rpn_big_cls_prob_reshape_rpn_big_cls_prob_reshape_0_split -> rpn_big_cls_prob_reshape_rpn_big_cls_prob_reshape_0_split_1
I0413 19:07:45.959925 15327 net.cpp:150] Setting up rpn_big_cls_prob_reshape_rpn_big_cls_prob_reshape_0_split
I0413 19:07:45.959936 15327 net.cpp:157] Top shape: 1 52 61 92 (291824)
I0413 19:07:45.959945 15327 net.cpp:157] Top shape: 1 52 61 92 (291824)
I0413 19:07:45.959951 15327 net.cpp:165] Memory required for data: 3614749556
I0413 19:07:45.959959 15327 layer_factory.hpp:77] Creating layer rpn_big_anchor_target
I0413 19:07:45.961573 15327 net.cpp:100] Creating Layer rpn_big_anchor_target
I0413 19:07:45.961599 15327 net.cpp:434] rpn_big_anchor_target <- rpn_big_cls_score_rpn_big_cls_score_0_split_1
I0413 19:07:45.961611 15327 net.cpp:434] rpn_big_anchor_target <- input_gt_boxes_input_2_split_0
I0413 19:07:45.961619 15327 net.cpp:434] rpn_big_anchor_target <- input_ignored_boxes
I0413 19:07:45.961627 15327 net.cpp:434] rpn_big_anchor_target <- input_im_info_input_1_split_0
I0413 19:07:45.961635 15327 net.cpp:434] rpn_big_anchor_target <- input_data_input_0_split_1
I0413 19:07:45.961643 15327 net.cpp:434] rpn_big_anchor_target <- rpn_big_cls_prob_reshape_rpn_big_cls_prob_reshape_0_split_0
I0413 19:07:45.961657 15327 net.cpp:408] rpn_big_anchor_target -> rpn_big_anchor_target_labels
I0413 19:07:45.961673 15327 net.cpp:408] rpn_big_anchor_target -> rpn_big_anchor_target_bbox_targets
I0413 19:07:45.961709 15327 net.cpp:408] rpn_big_anchor_target -> rpn_big_anchor_target_inside_weights
I0413 19:07:45.961737 15327 net.cpp:408] rpn_big_anchor_target -> rpn_big_anchor_target_outside_weights
I0413 19:07:45.966652 15327 net.cpp:150] Setting up rpn_big_anchor_target
I0413 19:07:45.966680 15327 net.cpp:157] Top shape: 1 1 1586 92 (145912)
I0413 19:07:45.966687 15327 net.cpp:157] Top shape: 1 104 61 92 (583648)
I0413 19:07:45.966696 15327 net.cpp:157] Top shape: 1 104 61 92 (583648)
I0413 19:07:45.966702 15327 net.cpp:157] Top shape: 1 104 61 92 (583648)
I0413 19:07:45.966707 15327 net.cpp:165] Memory required for data: 3622336980
I0413 19:07:45.966717 15327 layer_factory.hpp:77] Creating layer rpn_big_loss_cls
I0413 19:07:45.966734 15327 net.cpp:100] Creating Layer rpn_big_loss_cls
I0413 19:07:45.966743 15327 net.cpp:434] rpn_big_loss_cls <- rpn_big_cls_score_reshape_rpn_big_cls_score_reshape_0_split_1
I0413 19:07:45.966755 15327 net.cpp:434] rpn_big_loss_cls <- rpn_big_anchor_target_labels
I0413 19:07:45.966766 15327 net.cpp:408] rpn_big_loss_cls -> rpn_big_loss_cls
I0413 19:07:45.966791 15327 layer_factory.hpp:77] Creating layer rpn_big_loss_cls
I0413 19:07:45.967448 15327 net.cpp:150] Setting up rpn_big_loss_cls
I0413 19:07:45.967463 15327 net.cpp:157] Top shape: (1)
I0413 19:07:45.967468 15327 net.cpp:160]     with loss weight 1
I0413 19:07:45.967491 15327 net.cpp:165] Memory required for data: 3622336984
I0413 19:07:45.967499 15327 layer_factory.hpp:77] Creating layer rpn_big_output_box
I0413 19:07:45.967519 15327 net.cpp:100] Creating Layer rpn_big_output_box
I0413 19:07:45.967527 15327 net.cpp:434] rpn_big_output_box <- rpn_big_conv2_rpn_big_conv2_drop_0_split_1
I0413 19:07:45.967541 15327 net.cpp:408] rpn_big_output_box -> rpn_big_output_box
I0413 19:07:45.988811 15327 net.cpp:150] Setting up rpn_big_output_box
I0413 19:07:45.988844 15327 net.cpp:157] Top shape: 1 384 63 94 (2274048)
I0413 19:07:45.988850 15327 net.cpp:165] Memory required for data: 3631433176
I0413 19:07:45.988873 15327 layer_factory.hpp:77] Creating layer rpn_big_output_box_relu
I0413 19:07:45.988889 15327 net.cpp:100] Creating Layer rpn_big_output_box_relu
I0413 19:07:45.988901 15327 net.cpp:434] rpn_big_output_box_relu <- rpn_big_output_box
I0413 19:07:45.988920 15327 net.cpp:395] rpn_big_output_box_relu -> rpn_big_output_box (in-place)
I0413 19:07:45.988940 15327 net.cpp:150] Setting up rpn_big_output_box_relu
I0413 19:07:45.988948 15327 net.cpp:157] Top shape: 1 384 63 94 (2274048)
I0413 19:07:45.988955 15327 net.cpp:165] Memory required for data: 3640529368
I0413 19:07:45.988962 15327 layer_factory.hpp:77] Creating layer rpn_big_bbox_pred
I0413 19:07:45.988981 15327 net.cpp:100] Creating Layer rpn_big_bbox_pred
I0413 19:07:45.988989 15327 net.cpp:434] rpn_big_bbox_pred <- rpn_big_output_box
I0413 19:07:45.989002 15327 net.cpp:408] rpn_big_bbox_pred -> rpn_big_bbox_pred
I0413 19:07:45.993119 15327 net.cpp:150] Setting up rpn_big_bbox_pred
I0413 19:07:45.993144 15327 net.cpp:157] Top shape: 1 104 61 92 (583648)
I0413 19:07:45.993150 15327 net.cpp:165] Memory required for data: 3642863960
I0413 19:07:45.993163 15327 layer_factory.hpp:77] Creating layer rpn_big_bbox_pred_rpn_big_bbox_pred_0_split
I0413 19:07:45.993176 15327 net.cpp:100] Creating Layer rpn_big_bbox_pred_rpn_big_bbox_pred_0_split
I0413 19:07:45.993185 15327 net.cpp:434] rpn_big_bbox_pred_rpn_big_bbox_pred_0_split <- rpn_big_bbox_pred
I0413 19:07:45.993196 15327 net.cpp:408] rpn_big_bbox_pred_rpn_big_bbox_pred_0_split -> rpn_big_bbox_pred_rpn_big_bbox_pred_0_split_0
I0413 19:07:45.993211 15327 net.cpp:408] rpn_big_bbox_pred_rpn_big_bbox_pred_0_split -> rpn_big_bbox_pred_rpn_big_bbox_pred_0_split_1
I0413 19:07:45.993258 15327 net.cpp:150] Setting up rpn_big_bbox_pred_rpn_big_bbox_pred_0_split
I0413 19:07:45.993269 15327 net.cpp:157] Top shape: 1 104 61 92 (583648)
I0413 19:07:45.993278 15327 net.cpp:157] Top shape: 1 104 61 92 (583648)
I0413 19:07:45.993283 15327 net.cpp:165] Memory required for data: 3647533144
I0413 19:07:45.993290 15327 layer_factory.hpp:77] Creating layer rpn_big_loss_bbox
I0413 19:07:45.993656 15327 net.cpp:100] Creating Layer rpn_big_loss_bbox
I0413 19:07:45.993667 15327 net.cpp:434] rpn_big_loss_bbox <- rpn_big_bbox_pred_rpn_big_bbox_pred_0_split_0
I0413 19:07:45.993676 15327 net.cpp:434] rpn_big_loss_bbox <- rpn_big_anchor_target_bbox_targets
I0413 19:07:45.993685 15327 net.cpp:434] rpn_big_loss_bbox <- rpn_big_anchor_target_inside_weights
I0413 19:07:45.993693 15327 net.cpp:434] rpn_big_loss_bbox <- rpn_big_anchor_target_outside_weights
I0413 19:07:45.993705 15327 net.cpp:408] rpn_big_loss_bbox -> rpn_big_loss_bbox
I0413 19:07:45.995532 15327 net.cpp:150] Setting up rpn_big_loss_bbox
I0413 19:07:45.995566 15327 net.cpp:157] Top shape: 1 (1)
I0413 19:07:45.995573 15327 net.cpp:160]     with loss weight 1
I0413 19:07:45.995589 15327 net.cpp:165] Memory required for data: 3647533148
I0413 19:07:45.995599 15327 layer_factory.hpp:77] Creating layer proposal
I0413 19:07:45.996009 15327 net.cpp:100] Creating Layer proposal
I0413 19:07:45.996022 15327 net.cpp:434] proposal <- rpn_big_cls_prob_reshape_rpn_big_cls_prob_reshape_0_split_1
I0413 19:07:45.996034 15327 net.cpp:434] proposal <- rpn_big_bbox_pred_rpn_big_bbox_pred_0_split_1
I0413 19:07:45.996043 15327 net.cpp:434] proposal <- input_im_info_input_1_split_1
I0413 19:07:45.996055 15327 net.cpp:408] proposal -> rpn_rois
I0413 19:07:46.000414 15327 net.cpp:150] Setting up proposal
I0413 19:07:46.000438 15327 net.cpp:157] Top shape: 1 5 (5)
I0413 19:07:46.000444 15327 net.cpp:165] Memory required for data: 3647533168
I0413 19:07:46.000459 15327 layer_factory.hpp:77] Creating layer roi-data
I0413 19:07:46.002488 15327 net.cpp:100] Creating Layer roi-data
I0413 19:07:46.002509 15327 net.cpp:434] roi-data <- rpn_rois
I0413 19:07:46.002521 15327 net.cpp:434] roi-data <- input_gt_boxes_input_2_split_1
I0413 19:07:46.002545 15327 net.cpp:408] roi-data -> rois
I0413 19:07:46.002562 15327 net.cpp:408] roi-data -> labels
I0413 19:07:46.002576 15327 net.cpp:408] roi-data -> bbox_targets
I0413 19:07:46.002593 15327 net.cpp:408] roi-data -> bbox_inside_weights
I0413 19:07:46.002606 15327 net.cpp:408] roi-data -> bbox_outside_weights
anchors:
<<<<<<<<<<<<<<<<<<<<<<<<<<<<<<<<<<<<<<<<<<<<<<<<<<<<<<<<<<<<<<<<<<<<<<<<<<<<<<<<<<<<<<<<<<<<<<<<<<<<<<<<<<<<<<<<<<<<<<<<<<<<<<<<<<<<<<<<<<<<<<<<<<<<<<<<<<<<<<<<<<<<<<<<<<<<<<<<<<<<<<<<<<<<<<<<<<<<<<<<<<<<<<<<<<<<<<<<<<<<<<<<<<<<<<<<<<<<<<<<<<<<<<<<<<<<<<<<<<<<<<<<<<<<<<<<<<<<<<<<<<<<<<<<<<<<<<<<<<<<
[[ -84.  -40.   99.   55.]
 [-176.  -88.  191.  103.]
 [-360. -184.  375.  199.]
 [ -56.  -56.   71.   71.]
 [-120. -120.  135.  135.]
 [-248. -248.  263.  263.]
 [ -36.  -80.   51.   95.]
 [ -80. -168.   95.  183.]
 [-168. -344.  183.  359.]]
I0413 19:07:46.004881 15327 net.cpp:150] Setting up roi-data
I0413 19:07:46.004915 15327 net.cpp:157] Top shape: 1 5 (5)
I0413 19:07:46.004925 15327 net.cpp:157] Top shape: 1 1 (1)
I0413 19:07:46.004933 15327 net.cpp:157] Top shape: 1 8 (8)
I0413 19:07:46.004940 15327 net.cpp:157] Top shape: 1 8 (8)
I0413 19:07:46.004950 15327 net.cpp:157] Top shape: 1 8 (8)
I0413 19:07:46.004957 15327 net.cpp:165] Memory required for data: 3647533288
I0413 19:07:46.004966 15327 layer_factory.hpp:77] Creating layer roi-pool
I0413 19:07:46.004981 15327 net.cpp:100] Creating Layer roi-pool
I0413 19:07:46.004988 15327 net.cpp:434] roi-pool <- conv5_3_relu5_3_0_split_1
I0413 19:07:46.004997 15327 net.cpp:434] roi-pool <- rois
I0413 19:07:46.005008 15327 net.cpp:408] roi-pool -> roi-pool
I0413 19:07:46.005023 15327 roi_pooling_layer.cpp:33] Spatial scale: 0.0625
I0413 19:07:46.005035 15327 roi_pooling_layer.cpp:34] Box scale: 1
I0413 19:07:46.005080 15327 net.cpp:150] Setting up roi-pool
I0413 19:07:46.005090 15327 net.cpp:157] Top shape: 1 512 7 7 (25088)
I0413 19:07:46.005097 15327 net.cpp:165] Memory required for data: 3647633640
I0413 19:07:46.005105 15327 layer_factory.hpp:77] Creating layer fc6
I0413 19:07:46.005118 15327 net.cpp:100] Creating Layer fc6
I0413 19:07:46.005125 15327 net.cpp:434] fc6 <- roi-pool
I0413 19:07:46.005136 15327 net.cpp:408] fc6 -> fc6
I0413 19:07:46.169394 15327 net.cpp:150] Setting up fc6
I0413 19:07:46.169430 15327 net.cpp:157] Top shape: 1 4096 (4096)
I0413 19:07:46.169435 15327 net.cpp:165] Memory required for data: 3647650024
I0413 19:07:46.169461 15327 layer_factory.hpp:77] Creating layer relu6
I0413 19:07:46.169474 15327 net.cpp:100] Creating Layer relu6
I0413 19:07:46.169483 15327 net.cpp:434] relu6 <- fc6
I0413 19:07:46.169495 15327 net.cpp:395] relu6 -> fc6 (in-place)
I0413 19:07:46.169512 15327 net.cpp:150] Setting up relu6
I0413 19:07:46.169524 15327 net.cpp:157] Top shape: 1 4096 (4096)
I0413 19:07:46.169530 15327 net.cpp:165] Memory required for data: 3647666408
I0413 19:07:46.169536 15327 layer_factory.hpp:77] Creating layer drop6
I0413 19:07:46.169548 15327 net.cpp:100] Creating Layer drop6
I0413 19:07:46.169554 15327 net.cpp:434] drop6 <- fc6
I0413 19:07:46.169564 15327 net.cpp:395] drop6 -> fc6 (in-place)
I0413 19:07:46.169595 15327 net.cpp:150] Setting up drop6
I0413 19:07:46.169605 15327 net.cpp:157] Top shape: 1 4096 (4096)
I0413 19:07:46.169610 15327 net.cpp:165] Memory required for data: 3647682792
I0413 19:07:46.169617 15327 layer_factory.hpp:77] Creating layer fc7
I0413 19:07:46.169628 15327 net.cpp:100] Creating Layer fc7
I0413 19:07:46.169634 15327 net.cpp:434] fc7 <- fc6
I0413 19:07:46.169646 15327 net.cpp:408] fc7 -> fc7
I0413 19:07:46.196234 15327 net.cpp:150] Setting up fc7
I0413 19:07:46.196270 15327 net.cpp:157] Top shape: 1 4096 (4096)
I0413 19:07:46.196276 15327 net.cpp:165] Memory required for data: 3647699176
I0413 19:07:46.196300 15327 layer_factory.hpp:77] Creating layer relu7
I0413 19:07:46.196326 15327 net.cpp:100] Creating Layer relu7
I0413 19:07:46.196336 15327 net.cpp:434] relu7 <- fc7
I0413 19:07:46.196348 15327 net.cpp:395] relu7 -> fc7 (in-place)
I0413 19:07:46.196365 15327 net.cpp:150] Setting up relu7
I0413 19:07:46.196375 15327 net.cpp:157] Top shape: 1 4096 (4096)
I0413 19:07:46.196380 15327 net.cpp:165] Memory required for data: 3647715560
I0413 19:07:46.196388 15327 layer_factory.hpp:77] Creating layer drop7
I0413 19:07:46.196399 15327 net.cpp:100] Creating Layer drop7
I0413 19:07:46.196408 15327 net.cpp:434] drop7 <- fc7
I0413 19:07:46.196418 15327 net.cpp:395] drop7 -> fc7 (in-place)
I0413 19:07:46.196447 15327 net.cpp:150] Setting up drop7
I0413 19:07:46.196456 15327 net.cpp:157] Top shape: 1 4096 (4096)
I0413 19:07:46.196462 15327 net.cpp:165] Memory required for data: 3647731944
I0413 19:07:46.196468 15327 layer_factory.hpp:77] Creating layer fc7_drop7_0_split
I0413 19:07:46.196480 15327 net.cpp:100] Creating Layer fc7_drop7_0_split
I0413 19:07:46.196486 15327 net.cpp:434] fc7_drop7_0_split <- fc7
I0413 19:07:46.196497 15327 net.cpp:408] fc7_drop7_0_split -> fc7_drop7_0_split_0
I0413 19:07:46.196511 15327 net.cpp:408] fc7_drop7_0_split -> fc7_drop7_0_split_1
I0413 19:07:46.196557 15327 net.cpp:150] Setting up fc7_drop7_0_split
I0413 19:07:46.196568 15327 net.cpp:157] Top shape: 1 4096 (4096)
I0413 19:07:46.196575 15327 net.cpp:157] Top shape: 1 4096 (4096)
I0413 19:07:46.196583 15327 net.cpp:165] Memory required for data: 3647764712
I0413 19:07:46.196589 15327 layer_factory.hpp:77] Creating layer bbox_pred
I0413 19:07:46.196602 15327 net.cpp:100] Creating Layer bbox_pred
I0413 19:07:46.196609 15327 net.cpp:434] bbox_pred <- fc7_drop7_0_split_0
I0413 19:07:46.196620 15327 net.cpp:408] bbox_pred -> bbox_pred
I0413 19:07:46.197058 15327 net.cpp:150] Setting up bbox_pred
I0413 19:07:46.197069 15327 net.cpp:157] Top shape: 1 8 (8)
I0413 19:07:46.197075 15327 net.cpp:165] Memory required for data: 3647764744
I0413 19:07:46.197085 15327 layer_factory.hpp:77] Creating layer loss_bbox
I0413 19:07:46.197098 15327 net.cpp:100] Creating Layer loss_bbox
I0413 19:07:46.197105 15327 net.cpp:434] loss_bbox <- bbox_pred
I0413 19:07:46.197114 15327 net.cpp:434] loss_bbox <- bbox_targets
I0413 19:07:46.197124 15327 net.cpp:434] loss_bbox <- bbox_inside_weights
I0413 19:07:46.197132 15327 net.cpp:434] loss_bbox <- bbox_outside_weights
I0413 19:07:46.197144 15327 net.cpp:408] loss_bbox -> loss_bbox
I0413 19:07:46.197229 15327 net.cpp:150] Setting up loss_bbox
I0413 19:07:46.197239 15327 net.cpp:157] Top shape: (1)
I0413 19:07:46.197245 15327 net.cpp:160]     with loss weight 1
I0413 19:07:46.197260 15327 net.cpp:165] Memory required for data: 3647764748
I0413 19:07:46.197268 15327 layer_factory.hpp:77] Creating layer feat
I0413 19:07:46.197279 15327 net.cpp:100] Creating Layer feat
I0413 19:07:46.197288 15327 net.cpp:434] feat <- fc7_drop7_0_split_1
I0413 19:07:46.197301 15327 net.cpp:408] feat -> feat
I0413 19:07:46.208391 15327 net.cpp:150] Setting up feat
I0413 19:07:46.208425 15327 net.cpp:157] Top shape: 1 256 (256)
I0413 19:07:46.208431 15327 net.cpp:165] Memory required for data: 3647765772
I0413 19:07:46.208454 15327 layer_factory.hpp:77] Creating layer relu8
I0413 19:07:46.208467 15327 net.cpp:100] Creating Layer relu8
I0413 19:07:46.208474 15327 net.cpp:434] relu8 <- feat
I0413 19:07:46.208485 15327 net.cpp:395] relu8 -> feat (in-place)
I0413 19:07:46.208499 15327 net.cpp:150] Setting up relu8
I0413 19:07:46.208509 15327 net.cpp:157] Top shape: 1 256 (256)
I0413 19:07:46.208515 15327 net.cpp:165] Memory required for data: 3647766796
I0413 19:07:46.208520 15327 layer_factory.hpp:77] Creating layer drop8
I0413 19:07:46.208533 15327 net.cpp:100] Creating Layer drop8
I0413 19:07:46.208539 15327 net.cpp:434] drop8 <- feat
I0413 19:07:46.208549 15327 net.cpp:395] drop8 -> feat (in-place)
I0413 19:07:46.208581 15327 net.cpp:150] Setting up drop8
I0413 19:07:46.208590 15327 net.cpp:157] Top shape: 1 256 (256)
I0413 19:07:46.208595 15327 net.cpp:165] Memory required for data: 3647767820
I0413 19:07:46.208601 15327 layer_factory.hpp:77] Creating layer pid_score
I0413 19:07:46.208616 15327 net.cpp:100] Creating Layer pid_score
I0413 19:07:46.208622 15327 net.cpp:434] pid_score <- feat
I0413 19:07:46.208633 15327 net.cpp:408] pid_score -> pid_score
I0413 19:07:46.224043 15327 net.cpp:150] Setting up pid_score
I0413 19:07:46.224072 15327 net.cpp:157] Top shape: 1 5533 (5533)
I0413 19:07:46.224078 15327 net.cpp:165] Memory required for data: 3647789952
I0413 19:07:46.224093 15327 net.cpp:228] pid_score does not need backward computation.
I0413 19:07:46.224102 15327 net.cpp:228] drop8 does not need backward computation.
I0413 19:07:46.224107 15327 net.cpp:228] relu8 does not need backward computation.
I0413 19:07:46.224113 15327 net.cpp:228] feat does not need backward computation.
…
