…
I0413 16:52:27.367955  9622 solver.cpp:48] Initializing solver from parameters: 
base_lr: 0.001
display: 20
lr_policy: "multistep"
gamma: 0.1
momentum: 0.9
weight_decay: 0.0005
snapshot: 0
snapshot_prefix: "faces_example"
net_param {
  name: "GeneratedModel_13_04_2017_16_52"
  layer {
    name: "input"
    type: "Python"
    top: "input_data"
    top: "input_im_info"
    top: "input_gt_boxes"
    top: "input_ignored_boxes"
    python_param {
      module: "layers.roi_data_layer"
      layer: "RoIDataLayer"
      param_str: "{\"num_classes\": 2}"
    }
  }
  layer {
    name: "conv1_1"
    type: "Convolution"
    bottom: "input_data"
    top: "conv1_1"
    param {
      lr_mult: 0
      decay_mult: 0
    }
    param {
      lr_mult: 0
      decay_mult: 0
    }
    convolution_param {
      num_output: 64
      pad: 1
      kernel_size: 3
    }
  }
  layer {
    name: "relu1_1"
    type: "ReLU"
    bottom: "conv1_1"
    top: "conv1_1"
  }
  layer {
    name: "conv1_2"
    type: "Convolution"
    bottom: "conv1_1"
    top: "conv1_2"
    param {
      lr_mult: 0
      decay_mult: 0
    }
    param {
      lr_mult: 0
      decay_mult: 0
    }
    convolution_param {
      num_output: 64
      pad: 1
      kernel_size: 3
    }
  }
  layer {
    name: "relu1_2"
    type: "ReLU"
    bottom: "conv1_2"
    top: "conv1_2"
  }
  layer {
    name: "pool1"
    type: "Pooling"
    bottom: "conv1_2"
    top: "pool1"
    pooling_param {
      pool: MAX
      kernel_size: 2
      stride: 2
    }
  }
  layer {
    name: "conv2_1"
    type: "Convolution"
    bottom: "pool1"
    top: "conv2_1"
    param {
      lr_mult: 0
      decay_mult: 0
    }
    param {
      lr_mult: 0
      decay_mult: 0
    }
    convolution_param {
      num_output: 128
      pad: 1
      kernel_size: 3
    }
  }
  layer {
    name: "relu2_1"
    type: "ReLU"
    bottom: "conv2_1"
    top: "conv2_1"
  }
  layer {
    name: "conv2_2"
    type: "Convolution"
    bottom: "conv2_1"
    top: "conv2_2"
    param {
      lr_mult: 0
      decay_mult: 0
    }
    param {
      lr_mult: 0
      decay_mult: 0
    }
    convolution_param {
      num_output: 128
      pad: 1
      kernel_size: 3
    }
  }
  layer {
    name: "relu2_2"
    type: "ReLU"
    bottom: "conv2_2"
    top: "conv2_2"
  }
  layer {
    name: "pool2"
    type: "Pooling"
    bottom: "conv2_2"
    top: "pool2"
    pooling_param {
      pool: MAX
      kernel_size: 2
      stride: 2
    }
  }
  layer {
    name: "conv3_1"
    type: "Convolution"
    bottom: "pool2"
    top: "conv3_1"
    param {
      lr_mult: 1
    }
    param {
      lr_mult: 2
    }
    convolution_param {
      num_output: 256
      pad: 1
      kernel_size: 3
    }
  }
  layer {
    name: "relu3_1"
    type: "ReLU"
    bottom: "conv3_1"
    top: "conv3_1"
  }
  layer {
    name: "conv3_2"
    type: "Convolution"
    bottom: "conv3_1"
    top: "conv3_2"
    param {
      lr_mult: 1
    }
    param {
      lr_mult: 2
    }
    convolution_param {
      num_output: 256
      pad: 1
      kernel_size: 3
    }
  }
  layer {
    name: "relu3_2"
    type: "ReLU"
    bottom: "conv3_2"
    top: "conv3_2"
  }
  layer {
    name: "conv3_3"
    type: "Convolution"
    bottom: "conv3_2"
    top: "conv3_3"
    param {
      lr_mult: 1
    }
    param {
      lr_mult: 2
    }
    convolution_param {
      num_output: 256
      pad: 1
      kernel_size: 3
    }
  }
  layer {
    name: "relu3_3"
    type: "ReLU"
    bottom: "conv3_3"
    top: "conv3_3"
  }
  layer {
    name: "pool3"
    type: "Pooling"
    bottom: "conv3_3"
    top: "pool3"
    pooling_param {
      pool: MAX
      kernel_size: 2
      stride: 2
    }
  }
  layer {
    name: "conv4_1"
    type: "Convolution"
    bottom: "pool3"
    top: "conv4_1"
    param {
      lr_mult: 1
    }
    param {
      lr_mult: 2
    }
    convolution_param {
      num_output: 512
      pad: 1
      kernel_size: 3
    }
  }
  layer {
    name: "relu4_1"
    type: "ReLU"
    bottom: "conv4_1"
    top: "conv4_1"
  }
  layer {
    name: "conv4_2"
    type: "Convolution"
    bottom: "conv4_1"
    top: "conv4_2"
    param {
      lr_mult: 1
    }
    param {
      lr_mult: 2
    }
    convolution_param {
      num_output: 512
      pad: 1
      kernel_size: 3
    }
  }
  layer {
    name: "relu4_2"
    type: "ReLU"
    bottom: "conv4_2"
    top: "conv4_2"
  }
  layer {
    name: "conv4_3"
    type: "Convolution"
    bottom: "conv4_2"
    top: "conv4_3"
    param {
      lr_mult: 1
    }
    param {
      lr_mult: 2
    }
    convolution_param {
      num_output: 512
      pad: 1
      kernel_size: 3
    }
  }
  layer {
    name: "relu4_3"
    type: "ReLU"
    bottom: "conv4_3"
    top: "conv4_3"
  }
  layer {
    name: "pool4"
    type: "Pooling"
    bottom: "conv4_3"
    top: "pool4"
    pooling_param {
      pool: MAX
      kernel_size: 2
      stride: 2
    }
  }
  layer {
    name: "conv5_1"
    type: "Convolution"
    bottom: "pool4"
    top: "conv5_1"
    param {
      lr_mult: 1
    }
    param {
      lr_mult: 2
    }
    convolution_param {
      num_output: 512
      pad: 1
      kernel_size: 3
    }
  }
  layer {
    name: "relu5_1"
    type: "ReLU"
    bottom: "conv5_1"
    top: "conv5_1"
  }
  layer {
    name: "conv5_2"
    type: "Convolution"
    bottom: "conv5_1"
    top: "conv5_2"
    param {
      lr_mult: 1
    }
    param {
      lr_mult: 2
    }
    convolution_param {
      num_output: 512
      pad: 1
      kernel_size: 3
    }
  }
  layer {
    name: "relu5_2"
    type: "ReLU"
    bottom: "conv5_2"
    top: "conv5_2"
  }
  layer {
    name: "conv5_3"
    type: "Convolution"
    bottom: "conv5_2"
    top: "conv5_3"
    param {
      lr_mult: 1
    }
    param {
      lr_mult: 2
    }
    convolution_param {
      num_output: 512
      pad: 1
      kernel_size: 3
    }
  }
  layer {
    name: "relu5_3"
    type: "ReLU"
    bottom: "conv5_3"
    top: "conv5_3"
  }
  layer {
    name: "rpn_big_conv1"
    type: "Convolution"
    bottom: "conv5_3"
    top: "rpn_big_conv1"
    param {
      lr_mult: 1
    }
    param {
      lr_mult: 2
    }
    convolution_param {
      num_output: 512
      pad: 1
      kernel_size: 3
      stride: 1
      weight_filler {
        type: "gaussian"
        mean: 0
        std: 0.01
      }
      bias_filler {
        type: "constant"
      }
    }
  }
  layer {
    name: "rpn_big_conv1_relu"
    type: "ReLU"
    bottom: "rpn_big_conv1"
    top: "rpn_big_conv1"
    relu_param {
      negative_slope: 0
    }
  }
  layer {
    name: "rpn_big_conv2"
    type: "Convolution"
    bottom: "rpn_big_conv1"
    top: "rpn_big_conv2"
    param {
      lr_mult: 1
    }
    param {
      lr_mult: 2
    }
    convolution_param {
      num_output: 512
      pad: 1
      kernel_size: 3
      stride: 1
      weight_filler {
        type: "gaussian"
        mean: 0
        std: 0.01
      }
      bias_filler {
        type: "constant"
      }
    }
  }
  layer {
    name: "rpn_big_conv2_relu"
    type: "ReLU"
    bottom: "rpn_big_conv2"
    top: "rpn_big_conv2"
    relu_param {
      negative_slope: 0
    }
  }
  layer {
    name: "rpn_big_conv2_drop"
    type: "Dropout"
    bottom: "rpn_big_conv2"
    top: "rpn_big_conv2"
    dropout_param {
      dropout_ratio: 0.3
    }
  }
  layer {
    name: "rpn_big_output_cls"
    type: "Convolution"
    bottom: "rpn_big_conv2"
    top: "rpn_big_output_cls"
    param {
      lr_mult: 1
    }
    param {
      lr_mult: 2
    }
    convolution_param {
      num_output: 384
      pad: 1
      kernel_size: 3
      stride: 1
      weight_filler {
        type: "gaussian"
        mean: 0
        std: 0.01
      }
      bias_filler {
        type: "constant"
      }
    }
  }
  layer {
    name: "rpn_big_output_cls_relu"
    type: "ReLU"
    bottom: "rpn_big_output_cls"
    top: "rpn_big_output_cls"
    relu_param {
      negative_slope: 0
    }
  }
  layer {
    name: "rpn_big_cls_score"
    type: "Convolution"
    bottom: "rpn_big_output_cls"
    top: "rpn_big_cls_score"
    param {
      lr_mult: 1
    }
    param {
      lr_mult: 2
    }
    convolution_param {
      num_output: 52
      pad: 0
      kernel_size: 3
      stride: 1
      weight_filler {
        type: "gaussian"
        mean: 0
        std: 0.01
      }
      bias_filler {
        type: "constant"
      }
    }
  }
  layer {
    name: "rpn_big_cls_score_reshape"
    type: "Reshape"
    bottom: "rpn_big_cls_score"
    top: "rpn_big_cls_score_reshape"
    reshape_param {
      shape {
        dim: 0
        dim: 2
        dim: -1
        dim: 0
      }
    }
  }
  layer {
    name: "rpn_big_cls_prob"
    type: "Softmax"
    bottom: "rpn_big_cls_score_reshape"
    top: "rpn_big_cls_prob"
  }
  layer {
    name: "rpn_big_cls_prob_reshape"
    type: "Reshape"
    bottom: "rpn_big_cls_prob"
    top: "rpn_big_cls_prob_reshape"
    reshape_param {
      shape {
        dim: 0
        dim: 52
        dim: -1
        dim: 0
      }
    }
  }
  layer {
    name: "rpn_big_anchor_target"
    type: "Python"
    bottom: "rpn_big_cls_score"
    bottom: "input_gt_boxes"
    bottom: "input_ignored_boxes"
    bottom: "input_im_info"
    bottom: "input_data"
    bottom: "rpn_big_cls_prob_reshape"
    top: "rpn_big_anchor_target_labels"
    top: "rpn_big_anchor_target_bbox_targets"
    top: "rpn_big_anchor_target_inside_weights"
    top: "rpn_big_anchor_target_outside_weights"
    python_param {
      module: "rpn.anchor_target_layer"
      layer: "AnchorTargetLayer"
      param_str: "{\"fg_fraction\": 0.5, \"feat_stride\": 16, \"anchor_ratios\": [1.0], \"anchor_shift_num_xy\": [[2, 2], [2, 2], [2, 2], [2, 2], [1, 1], [1, 1], [1, 1], [1, 1], [1, 1], [1, 1], [1, 1], [1, 1], [1, 1], [1, 1]], \"positive_overlap\": 0.6, \"name\": \"rpn_big\", \"square_targets\": true, \"batchsize\": 256, \"anchor_scales\": [2.5, 3.025, 3.66025, 4.4289024999999995, 5.358972025, 6.484356150249999, 7.846070941802498, 9.493745839581022, 11.487432465893036, 13.899793283730574, 16.818749873313998, 20.350687346709933, 24.62433168951902, 29.795441344318014], \"num_classes\": 1, \"negative_overlap\": 0.4, \"tn_fraction\": 0.2}"
    }
  }
  layer {
    name: "rpn_big_loss_cls"
    type: "SoftmaxWithLoss"
    bottom: "rpn_big_cls_score_reshape"
    bottom: "rpn_big_anchor_target_labels"
    top: "rpn_big_loss_cls"
    loss_weight: 1
    propagate_down: true
    propagate_down: false
    loss_param {
      ignore_label: -1
      normalization: VALID
    }
  }
  layer {
    name: "rpn_big_output_box"
    type: "Convolution"
    bottom: "rpn_big_conv2"
    top: "rpn_big_output_box"
    param {
      lr_mult: 1
    }
    param {
      lr_mult: 2
    }
    convolution_param {
      num_output: 384
      pad: 1
      kernel_size: 3
      stride: 1
      weight_filler {
        type: "gaussian"
        mean: 0
        std: 0.01
      }
      bias_filler {
        type: "constant"
      }
    }
  }
  layer {
    name: "rpn_big_output_box_relu"
    type: "ReLU"
    bottom: "rpn_big_output_box"
    top: "rpn_big_output_box"
    relu_param {
      negative_slope: 0
    }
  }
  layer {
    name: "rpn_big_bbox_pred"
    type: "Convolution"
    bottom: "rpn_big_output_box"
    top: "rpn_big_bbox_pred"
    param {
      lr_mult: 1
    }
    param {
      lr_mult: 2
    }
    convolution_param {
      num_output: 104
      pad: 0
      kernel_size: 3
      stride: 1
      weight_filler {
        type: "gaussian"
        mean: 0
        std: 0.01
      }
      bias_filler {
        type: "constant"
      }
    }
  }
  layer {
    name: "rpn_big_loss_bbox"
    type: "Python"
    bottom: "rpn_big_bbox_pred"
    bottom: "rpn_big_anchor_target_bbox_targets"
    bottom: "rpn_big_anchor_target_inside_weights"
    bottom: "rpn_big_anchor_target_outside_weights"
    top: "rpn_big_loss_bbox"
    loss_weight: 1
    python_param {
      module: "layers.smooth_l1_loss"
      layer: "SmoothL1LossLayer"
      param_str: "{\"sigma\": 3}"
    }
  }
  layer {
    name: "proposal"
    type: "Python"
    bottom: "rpn_big_cls_prob_reshape"
    bottom: "rpn_big_bbox_pred"
    bottom: "input_im_info"
    top: "rpn_rois"
    python_param {
      module: "rpn.proposal_layer"
      layer: "ProposalLayer"
      param_str: "{\"anchor_shift_num_xy\": [[2, 2], [2, 2], [2, 2], [2, 2], [1, 1], [1, 1], [1, 1], [1, 1], [1, 1], [1, 1], [1, 1], [1, 1], [1, 1], [1, 1]], \"feat_stride\": 16, \"num_classes\": 1, \"anchor_scales\": [2.5, 3.025, 3.66025, 4.4289024999999995, 5.358972025, 6.484356150249999, 7.846070941802498, 9.493745839581022, 11.487432465893036, 13.899793283730574, 16.818749873313998, 20.350687346709933, 24.62433168951902, 29.795441344318014], \"square_targets\": true, \"name\": \"rpn_big\", \"batchsize\": 256, \"anchor_ratios\": [1.0]}"
    }
  }
}
average_loss: 100
stepvalue: 70000
stepvalue: 120000
iter_size: 2
I0413 16:52:27.368062  9622 solver.cpp:86] Creating training net specified in net_param.
I0413 16:52:27.368672  9622 net.cpp:58] Initializing net from parameters: 
name: "GeneratedModel_13_04_2017_16_52"
state {
  phase: TRAIN
}
layer {
  name: "input"
  type: "Python"
  top: "input_data"
  top: "input_im_info"
  top: "input_gt_boxes"
  top: "input_ignored_boxes"
  python_param {
    module: "layers.roi_data_layer"
    layer: "RoIDataLayer"
    param_str: "{\"num_classes\": 2}"
  }
}
layer {
  name: "conv1_1"
  type: "Convolution"
  bottom: "input_data"
  top: "conv1_1"
  param {
    lr_mult: 0
    decay_mult: 0
  }
  param {
    lr_mult: 0
    decay_mult: 0
  }
  convolution_param {
    num_output: 64
    pad: 1
    kernel_size: 3
  }
}
layer {
  name: "relu1_1"
  type: "ReLU"
  bottom: "conv1_1"
  top: "conv1_1"
}
layer {
  name: "conv1_2"
  type: "Convolution"
  bottom: "conv1_1"
  top: "conv1_2"
  param {
    lr_mult: 0
    decay_mult: 0
  }
  param {
    lr_mult: 0
    decay_mult: 0
  }
  convolution_param {
    num_output: 64
    pad: 1
    kernel_size: 3
  }
}
layer {
  name: "relu1_2"
  type: "ReLU"
  bottom: "conv1_2"
  top: "conv1_2"
}
layer {
  name: "pool1"
  type: "Pooling"
  bottom: "conv1_2"
  top: "pool1"
  pooling_param {
    pool: MAX
    kernel_size: 2
    stride: 2
  }
}
layer {
  name: "conv2_1"
  type: "Convolution"
  bottom: "pool1"
  top: "conv2_1"
  param {
    lr_mult: 0
    decay_mult: 0
  }
  param {
    lr_mult: 0
    decay_mult: 0
  }
  convolution_param {
    num_output: 128
    pad: 1
    kernel_size: 3
  }
}
layer {
  name: "relu2_1"
  type: "ReLU"
  bottom: "conv2_1"
  top: "conv2_1"
}
layer {
  name: "conv2_2"
  type: "Convolution"
  bottom: "conv2_1"
  top: "conv2_2"
  param {
    lr_mult: 0
    decay_mult: 0
  }
  param {
    lr_mult: 0
    decay_mult: 0
  }
  convolution_param {
    num_output: 128
    pad: 1
    kernel_size: 3
  }
}
layer {
  name: "relu2_2"
  type: "ReLU"
  bottom: "conv2_2"
  top: "conv2_2"
}
layer {
  name: "pool2"
  type: "Pooling"
  bottom: "conv2_2"
  top: "pool2"
  pooling_param {
    pool: MAX
    kernel_size: 2
    stride: 2
  }
}
layer {
  name: "conv3_1"
  type: "Convolution"
  bottom: "pool2"
  top: "conv3_1"
  param {
    lr_mult: 1
  }
  param {
    lr_mult: 2
  }
  convolution_param {
    num_output: 256
    pad: 1
    kernel_size: 3
  }
}
layer {
  name: "relu3_1"
  type: "ReLU"
  bottom: "conv3_1"
  top: "conv3_1"
}
layer {
  name: "conv3_2"
  type: "Convolution"
  bottom: "conv3_1"
  top: "conv3_2"
  param {
    lr_mult: 1
  }
  param {
    lr_mult: 2
  }
  convolution_param {
    num_output: 256
    pad: 1
    kernel_size: 3
  }
}
layer {
  name: "relu3_2"
  type: "ReLU"
  bottom: "conv3_2"
  top: "conv3_2"
}
layer {
  name: "conv3_3"
  type: "Convolution"
  bottom: "conv3_2"
  top: "conv3_3"
  param {
    lr_mult: 1
  }
  param {
    lr_mult: 2
  }
  convolution_param {
    num_output: 256
    pad: 1
    kernel_size: 3
  }
}
layer {
  name: "relu3_3"
  type: "ReLU"
  bottom: "conv3_3"
  top: "conv3_3"
}
layer {
  name: "pool3"
  type: "Pooling"
  bottom: "conv3_3"
  top: "pool3"
  pooling_param {
    pool: MAX
    kernel_size: 2
    stride: 2
  }
}
layer {
  name: "conv4_1"
  type: "Convolution"
  bottom: "pool3"
  top: "conv4_1"
  param {
    lr_mult: 1
  }
  param {
    lr_mult: 2
  }
  convolution_param {
    num_output: 512
    pad: 1
    kernel_size: 3
  }
}
layer {
  name: "relu4_1"
  type: "ReLU"
  bottom: "conv4_1"
  top: "conv4_1"
}
layer {
  name: "conv4_2"
  type: "Convolution"
  bottom: "conv4_1"
  top: "conv4_2"
  param {
    lr_mult: 1
  }
  param {
    lr_mult: 2
  }
  convolution_param {
    num_output: 512
    pad: 1
    kernel_size: 3
  }
}
layer {
  name: "relu4_2"
  type: "ReLU"
  bottom: "conv4_2"
  top: "conv4_2"
}
layer {
  name: "conv4_3"
  type: "Convolution"
  bottom: "conv4_2"
  top: "conv4_3"
  param {
    lr_mult: 1
  }
  param {
    lr_mult: 2
  }
  convolution_param {
    num_output: 512
    pad: 1
    kernel_size: 3
  }
}
layer {
  name: "relu4_3"
  type: "ReLU"
  bottom: "conv4_3"
  top: "conv4_3"
}
layer {
  name: "pool4"
  type: "Pooling"
  bottom: "conv4_3"
  top: "pool4"
  pooling_param {
    pool: MAX
    kernel_size: 2
    stride: 2
  }
}
layer {
  name: "conv5_1"
  type: "Convolution"
  bottom: "pool4"
  top: "conv5_1"
  param {
    lr_mult: 1
  }
  param {
    lr_mult: 2
  }
  convolution_param {
    num_output: 512
    pad: 1
    kernel_size: 3
  }
}
layer {
  name: "relu5_1"
  type: "ReLU"
  bottom: "conv5_1"
  top: "conv5_1"
}
layer {
  name: "conv5_2"
  type: "Convolution"
  bottom: "conv5_1"
  top: "conv5_2"
  param {
    lr_mult: 1
  }
  param {
    lr_mult: 2
  }
  convolution_param {
    num_output: 512
    pad: 1
    kernel_size: 3
  }
}
layer {
  name: "relu5_2"
  type: "ReLU"
  bottom: "conv5_2"
  top: "conv5_2"
}
layer {
  name: "conv5_3"
  type: "Convolution"
  bottom: "conv5_2"
  top: "conv5_3"
  param {
    lr_mult: 1
  }
  param {
    lr_mult: 2
  }
  convolution_param {
    num_output: 512
    pad: 1
    kernel_size: 3
  }
}
layer {
  name: "relu5_3"
  type: "ReLU"
  bottom: "conv5_3"
  top: "conv5_3"
}
layer {
  name: "rpn_big_conv1"
  type: "Convolution"
  bottom: "conv5_3"
  top: "rpn_big_conv1"
  param {
    lr_mult: 1
  }
  param {
    lr_mult: 2
  }
  convolution_param {
    num_output: 512
    pad: 1
    kernel_size: 3
    stride: 1
    weight_filler {
      type: "gaussian"
      mean: 0
      std: 0.01
    }
    bias_filler {
      type: "constant"
    }
  }
}
layer {
  name: "rpn_big_conv1_relu"
  type: "ReLU"
  bottom: "rpn_big_conv1"
  top: "rpn_big_conv1"
  relu_param {
    negative_slope: 0
  }
}
layer {
  name: "rpn_big_conv2"
  type: "Convolution"
  bottom: "rpn_big_conv1"
  top: "rpn_big_conv2"
  param {
    lr_mult: 1
  }
  param {
    lr_mult: 2
  }
  convolution_param {
    num_output: 512
    pad: 1
    kernel_size: 3
    stride: 1
    weight_filler {
      type: "gaussian"
      mean: 0
      std: 0.01
    }
    bias_filler {
      type: "constant"
    }
  }
}
layer {
  name: "rpn_big_conv2_relu"
  type: "ReLU"
  bottom: "rpn_big_conv2"
  top: "rpn_big_conv2"
  relu_param {
    negative_slope: 0
  }
}
layer {
  name: "rpn_big_conv2_drop"
  type: "Dropout"
  bottom: "rpn_big_conv2"
  top: "rpn_big_conv2"
  dropout_param {
    dropout_ratio: 0.3
  }
}
layer {
  name: "rpn_big_output_cls"
  type: "Convolution"
  bottom: "rpn_big_conv2"
  top: "rpn_big_output_cls"
  param {
    lr_mult: 1
  }
  param {
    lr_mult: 2
  }
  convolution_param {
    num_output: 384
    pad: 1
    kernel_size: 3
    stride: 1
    weight_filler {
      type: "gaussian"
      mean: 0
      std: 0.01
    }
    bias_filler {
      type: "constant"
    }
  }
}
layer {
  name: "rpn_big_output_cls_relu"
  type: "ReLU"
  bottom: "rpn_big_output_cls"
  top: "rpn_big_output_cls"
  relu_param {
    negative_slope: 0
  }
}
layer {
  name: "rpn_big_cls_score"
  type: "Convolution"
  bottom: "rpn_big_output_cls"
  top: "rpn_big_cls_score"
  param {
    lr_mult: 1
  }
  param {
    lr_mult: 2
  }
  convolution_param {
    num_output: 52
    pad: 0
    kernel_size: 3
    stride: 1
    weight_filler {
      type: "gaussian"
      mean: 0
      std: 0.01
    }
    bias_filler {
      type: "constant"
    }
  }
}
layer {
  name: "rpn_big_cls_score_reshape"
  type: "Reshape"
  bottom: "rpn_big_cls_score"
  top: "rpn_big_cls_score_reshape"
  reshape_param {
    shape {
      dim: 0
      dim: 2
      dim: -1
      dim: 0
    }
  }
}
layer {
  name: "rpn_big_cls_prob"
  type: "Softmax"
  bottom: "rpn_big_cls_score_reshape"
  top: "rpn_big_cls_prob"
}
layer {
  name: "rpn_big_cls_prob_reshape"
  type: "Reshape"
  bottom: "rpn_big_cls_prob"
  top: "rpn_big_cls_prob_reshape"
  reshape_param {
    shape {
      dim: 0
      dim: 52
      dim: -1
      dim: 0
    }
  }
}
layer {
  name: "rpn_big_anchor_target"
  type: "Python"
  bottom: "rpn_big_cls_score"
  bottom: "input_gt_boxes"
  bottom: "input_ignored_boxes"
  bottom: "input_im_info"
  bottom: "input_data"
  bottom: "rpn_big_cls_prob_reshape"
  top: "rpn_big_anchor_target_labels"
  top: "rpn_big_anchor_target_bbox_targets"
  top: "rpn_big_anchor_target_inside_weights"
  top: "rpn_big_anchor_target_outside_weights"
  python_param {
    module: "rpn.anchor_target_layer"
    layer: "AnchorTargetLayer"
    param_str: "{\"fg_fraction\": 0.5, \"feat_stride\": 16, \"anchor_ratios\": [1.0], \"anchor_shift_num_xy\": [[2, 2], [2, 2], [2, 2], [2, 2], [1, 1], [1, 1], [1, 1], [1, 1], [1, 1], [1, 1], [1, 1], [1, 1], [1, 1], [1, 1]], \"positive_overlap\": 0.6, \"name\": \"rpn_big\", \"square_targets\": true, \"batchsize\": 256, \"anchor_scales\": [2.5, 3.025, 3.66025, 4.4289024999999995, 5.358972025, 6.484356150249999, 7.846070941802498, 9.493745839581022, 11.487432465893036, 13.899793283730574, 16.818749873313998, 20.350687346709933, 24.62433168951902, 29.795441344318014], \"num_classes\": 1, \"negative_overlap\": 0.4, \"tn_fraction\": 0.2}"
  }
}
layer {
  name: "rpn_big_loss_cls"
  type: "SoftmaxWithLoss"
  bottom: "rpn_big_cls_score_reshape"
  bottom: "rpn_big_anchor_target_labels"
  top: "rpn_big_loss_cls"
  loss_weight: 1
  propagate_down: true
  propagate_down: false
  loss_param {
    ignore_label: -1
    normalization: VALID
  }
}
layer {
  name: "rpn_big_output_box"
  type: "Convolution"
  bottom: "rpn_big_conv2"
  top: "rpn_big_output_box"
  param {
    lr_mult: 1
  }
  param {
    lr_mult: 2
  }
  convolution_param {
    num_output: 384
    pad: 1
    kernel_size: 3
    stride: 1
    weight_filler {
      type: "gaussian"
      mean: 0
      std: 0.01
    }
    bias_filler {
      type: "constant"
    }
  }
}
layer {
  name: "rpn_big_output_box_relu"
  type: "ReLU"
  bottom: "rpn_big_output_box"
  top: "rpn_big_output_box"
  relu_param {
    negative_slope: 0
  }
}
layer {
  name: "rpn_big_bbox_pred"
  type: "Convolution"
  bottom: "rpn_big_output_box"
  top: "rpn_big_bbox_pred"
  param {
    lr_mult: 1
  }
  param {
    lr_mult: 2
  }
  convolution_param {
    num_output: 104
    pad: 0
    kernel_size: 3
    stride: 1
    weight_filler {
      type: "gaussian"
      mean: 0
      std: 0.01
    }
    bias_filler {
      type: "constant"
    }
  }
}
layer {
  name: "rpn_big_loss_bbox"
  type: "Python"
  bottom: "rpn_big_bbox_pred"
  bottom: "rpn_big_anchor_target_bbox_targets"
  bottom: "rpn_big_anchor_target_inside_weights"
  bottom: "rpn_big_anchor_target_outside_weights"
  top: "rpn_big_loss_bbox"
  loss_weight: 1
  python_param {
    module: "layers.smooth_l1_loss"
    layer: "SmoothL1LossLayer"
    param_str: "{\"sigma\": 3}"
  }
}
layer {
  name: "proposal"
  type: "Python"
  bottom: "rpn_big_cls_prob_reshape"
  bottom: "rpn_big_bbox_pred"
  bottom: "input_im_info"
  top: "rpn_rois"
  python_param {
    module: "rpn.proposal_layer"
    layer: "ProposalLayer"
    param_str: "{\"anchor_shift_num_xy\": [[2, 2], [2, 2], [2, 2], [2, 2], [1, 1], [1, 1], [1, 1], [1, 1], [1, 1], [1, 1], [1, 1], [1, 1], [1, 1], [1, 1]], \"feat_stride\": 16, \"num_classes\": 1, \"anchor_scales\": [2.5, 3.025, 3.66025, 4.4289024999999995, 5.358972025, 6.484356150249999, 7.846070941802498, 9.493745839581022, 11.487432465893036, 13.899793283730574, 16.818749873313998, 20.350687346709933, 24.62433168951902, 29.795441344318014], \"square_targets\": true, \"name\": \"rpn_big\", \"batchsize\": 256, \"anchor_ratios\": [1.0]}"
  }
}
I0413 16:52:27.368966  9622 layer_factory.hpp:77] Creating layer input
I0413 16:52:27.370743  9622 net.cpp:100] Creating Layer input
I0413 16:52:27.370764  9622 net.cpp:408] input -> input_data
I0413 16:52:27.370779  9622 net.cpp:408] input -> input_im_info
I0413 16:52:27.370789  9622 net.cpp:408] input -> input_gt_boxes
I0413 16:52:27.370800  9622 net.cpp:408] input -> input_ignored_boxes
RoiDataLayer: name_to_top: {'ignored_boxes': 3, 'im_info': 1, 'data': 0, 'gt_boxes': 2}
I0413 16:52:27.698683  9622 net.cpp:150] Setting up input
I0413 16:52:27.698717  9622 net.cpp:157] Top shape: 1 3 1000 1500 (4500000)
I0413 16:52:27.698734  9622 net.cpp:157] Top shape: 1 3 (3)
I0413 16:52:27.698742  9622 net.cpp:157] Top shape: 1 5 (5)
I0413 16:52:27.698750  9622 net.cpp:157] Top shape: 1 5 (5)
I0413 16:52:27.698755  9622 net.cpp:165] Memory required for data: 18000052
I0413 16:52:27.698765  9622 layer_factory.hpp:77] Creating layer input_data_input_0_split
I0413 16:52:27.698783  9622 net.cpp:100] Creating Layer input_data_input_0_split
I0413 16:52:27.698792  9622 net.cpp:434] input_data_input_0_split <- input_data
I0413 16:52:27.698806  9622 net.cpp:408] input_data_input_0_split -> input_data_input_0_split_0
I0413 16:52:27.698828  9622 net.cpp:408] input_data_input_0_split -> input_data_input_0_split_1
I0413 16:52:27.698876  9622 net.cpp:150] Setting up input_data_input_0_split
I0413 16:52:27.698887  9622 net.cpp:157] Top shape: 1 3 1000 1500 (4500000)
I0413 16:52:27.698895  9622 net.cpp:157] Top shape: 1 3 1000 1500 (4500000)
I0413 16:52:27.698901  9622 net.cpp:165] Memory required for data: 54000052
I0413 16:52:27.698909  9622 layer_factory.hpp:77] Creating layer input_im_info_input_1_split
I0413 16:52:27.698920  9622 net.cpp:100] Creating Layer input_im_info_input_1_split
I0413 16:52:27.698925  9622 net.cpp:434] input_im_info_input_1_split <- input_im_info
I0413 16:52:27.698936  9622 net.cpp:408] input_im_info_input_1_split -> input_im_info_input_1_split_0
I0413 16:52:27.698949  9622 net.cpp:408] input_im_info_input_1_split -> input_im_info_input_1_split_1
I0413 16:52:27.698994  9622 net.cpp:150] Setting up input_im_info_input_1_split
I0413 16:52:27.699003  9622 net.cpp:157] Top shape: 1 3 (3)
I0413 16:52:27.699012  9622 net.cpp:157] Top shape: 1 3 (3)
I0413 16:52:27.699018  9622 net.cpp:165] Memory required for data: 54000076
I0413 16:52:27.699023  9622 layer_factory.hpp:77] Creating layer conv1_1
I0413 16:52:27.699040  9622 net.cpp:100] Creating Layer conv1_1
I0413 16:52:27.699049  9622 net.cpp:434] conv1_1 <- input_data_input_0_split_0
I0413 16:52:27.699059  9622 net.cpp:408] conv1_1 -> conv1_1
I0413 16:52:27.702116  9622 net.cpp:150] Setting up conv1_1
I0413 16:52:27.702155  9622 net.cpp:157] Top shape: 1 64 1000 1500 (96000000)
I0413 16:52:27.702160  9622 net.cpp:165] Memory required for data: 438000076
I0413 16:52:27.702184  9622 layer_factory.hpp:77] Creating layer relu1_1
I0413 16:52:27.702205  9622 net.cpp:100] Creating Layer relu1_1
I0413 16:52:27.702214  9622 net.cpp:434] relu1_1 <- conv1_1
I0413 16:52:27.702224  9622 net.cpp:395] relu1_1 -> conv1_1 (in-place)
I0413 16:52:27.702244  9622 net.cpp:150] Setting up relu1_1
I0413 16:52:27.702253  9622 net.cpp:157] Top shape: 1 64 1000 1500 (96000000)
I0413 16:52:27.702260  9622 net.cpp:165] Memory required for data: 822000076
I0413 16:52:27.702267  9622 layer_factory.hpp:77] Creating layer conv1_2
I0413 16:52:27.702283  9622 net.cpp:100] Creating Layer conv1_2
I0413 16:52:27.702289  9622 net.cpp:434] conv1_2 <- conv1_1
I0413 16:52:27.702302  9622 net.cpp:408] conv1_2 -> conv1_2
I0413 16:52:27.705495  9622 net.cpp:150] Setting up conv1_2
I0413 16:52:27.705531  9622 net.cpp:157] Top shape: 1 64 1000 1500 (96000000)
I0413 16:52:27.705538  9622 net.cpp:165] Memory required for data: 1206000076
I0413 16:52:27.705562  9622 layer_factory.hpp:77] Creating layer relu1_2
I0413 16:52:27.705580  9622 net.cpp:100] Creating Layer relu1_2
I0413 16:52:27.705587  9622 net.cpp:434] relu1_2 <- conv1_2
I0413 16:52:27.705602  9622 net.cpp:395] relu1_2 -> conv1_2 (in-place)
I0413 16:52:27.705618  9622 net.cpp:150] Setting up relu1_2
I0413 16:52:27.705627  9622 net.cpp:157] Top shape: 1 64 1000 1500 (96000000)
I0413 16:52:27.705634  9622 net.cpp:165] Memory required for data: 1590000076
I0413 16:52:27.705641  9622 layer_factory.hpp:77] Creating layer pool1
I0413 16:52:27.705651  9622 net.cpp:100] Creating Layer pool1
I0413 16:52:27.705659  9622 net.cpp:434] pool1 <- conv1_2
I0413 16:52:27.705669  9622 net.cpp:408] pool1 -> pool1
I0413 16:52:27.705747  9622 net.cpp:150] Setting up pool1
I0413 16:52:27.705757  9622 net.cpp:157] Top shape: 1 64 500 750 (24000000)
I0413 16:52:27.705763  9622 net.cpp:165] Memory required for data: 1686000076
I0413 16:52:27.705771  9622 layer_factory.hpp:77] Creating layer conv2_1
I0413 16:52:27.705790  9622 net.cpp:100] Creating Layer conv2_1
I0413 16:52:27.705797  9622 net.cpp:434] conv2_1 <- pool1
I0413 16:52:27.705809  9622 net.cpp:408] conv2_1 -> conv2_1
I0413 16:52:27.707026  9622 net.cpp:150] Setting up conv2_1
I0413 16:52:27.707046  9622 net.cpp:157] Top shape: 1 128 500 750 (48000000)
I0413 16:52:27.707051  9622 net.cpp:165] Memory required for data: 1878000076
I0413 16:52:27.707068  9622 layer_factory.hpp:77] Creating layer relu2_1
I0413 16:52:27.707080  9622 net.cpp:100] Creating Layer relu2_1
I0413 16:52:27.707087  9622 net.cpp:434] relu2_1 <- conv2_1
I0413 16:52:27.707098  9622 net.cpp:395] relu2_1 -> conv2_1 (in-place)
I0413 16:52:27.707110  9622 net.cpp:150] Setting up relu2_1
I0413 16:52:27.707119  9622 net.cpp:157] Top shape: 1 128 500 750 (48000000)
I0413 16:52:27.707126  9622 net.cpp:165] Memory required for data: 2070000076
I0413 16:52:27.707132  9622 layer_factory.hpp:77] Creating layer conv2_2
I0413 16:52:27.707147  9622 net.cpp:100] Creating Layer conv2_2
I0413 16:52:27.707154  9622 net.cpp:434] conv2_2 <- conv2_1
I0413 16:52:27.707167  9622 net.cpp:408] conv2_2 -> conv2_2
I0413 16:52:27.708101  9622 net.cpp:150] Setting up conv2_2
I0413 16:52:27.708127  9622 net.cpp:157] Top shape: 1 128 500 750 (48000000)
I0413 16:52:27.708132  9622 net.cpp:165] Memory required for data: 2262000076
I0413 16:52:27.708145  9622 layer_factory.hpp:77] Creating layer relu2_2
I0413 16:52:27.708158  9622 net.cpp:100] Creating Layer relu2_2
I0413 16:52:27.708166  9622 net.cpp:434] relu2_2 <- conv2_2
I0413 16:52:27.708178  9622 net.cpp:395] relu2_2 -> conv2_2 (in-place)
I0413 16:52:27.708190  9622 net.cpp:150] Setting up relu2_2
I0413 16:52:27.708200  9622 net.cpp:157] Top shape: 1 128 500 750 (48000000)
I0413 16:52:27.708206  9622 net.cpp:165] Memory required for data: 2454000076
I0413 16:52:27.708212  9622 layer_factory.hpp:77] Creating layer pool2
I0413 16:52:27.708225  9622 net.cpp:100] Creating Layer pool2
I0413 16:52:27.708231  9622 net.cpp:434] pool2 <- conv2_2
I0413 16:52:27.708240  9622 net.cpp:408] pool2 -> pool2
I0413 16:52:27.708292  9622 net.cpp:150] Setting up pool2
I0413 16:52:27.708302  9622 net.cpp:157] Top shape: 1 128 250 375 (12000000)
I0413 16:52:27.708307  9622 net.cpp:165] Memory required for data: 2502000076
I0413 16:52:27.708315  9622 layer_factory.hpp:77] Creating layer conv3_1
I0413 16:52:27.708330  9622 net.cpp:100] Creating Layer conv3_1
I0413 16:52:27.708336  9622 net.cpp:434] conv3_1 <- pool2
I0413 16:52:27.708346  9622 net.cpp:408] conv3_1 -> conv3_1
I0413 16:52:27.709444  9622 net.cpp:150] Setting up conv3_1
I0413 16:52:27.709471  9622 net.cpp:157] Top shape: 1 256 250 375 (24000000)
I0413 16:52:27.709478  9622 net.cpp:165] Memory required for data: 2598000076
I0413 16:52:27.709497  9622 layer_factory.hpp:77] Creating layer relu3_1
I0413 16:52:27.709508  9622 net.cpp:100] Creating Layer relu3_1
I0413 16:52:27.709519  9622 net.cpp:434] relu3_1 <- conv3_1
I0413 16:52:27.709532  9622 net.cpp:395] relu3_1 -> conv3_1 (in-place)
I0413 16:52:27.709545  9622 net.cpp:150] Setting up relu3_1
I0413 16:52:27.709554  9622 net.cpp:157] Top shape: 1 256 250 375 (24000000)
I0413 16:52:27.709561  9622 net.cpp:165] Memory required for data: 2694000076
I0413 16:52:27.709568  9622 layer_factory.hpp:77] Creating layer conv3_2
I0413 16:52:27.709583  9622 net.cpp:100] Creating Layer conv3_2
I0413 16:52:27.709590  9622 net.cpp:434] conv3_2 <- conv3_1
I0413 16:52:27.709600  9622 net.cpp:408] conv3_2 -> conv3_2
I0413 16:52:27.710772  9622 net.cpp:150] Setting up conv3_2
I0413 16:52:27.710799  9622 net.cpp:157] Top shape: 1 256 250 375 (24000000)
I0413 16:52:27.710804  9622 net.cpp:165] Memory required for data: 2790000076
I0413 16:52:27.710816  9622 layer_factory.hpp:77] Creating layer relu3_2
I0413 16:52:27.710834  9622 net.cpp:100] Creating Layer relu3_2
I0413 16:52:27.710842  9622 net.cpp:434] relu3_2 <- conv3_2
I0413 16:52:27.710853  9622 net.cpp:395] relu3_2 -> conv3_2 (in-place)
I0413 16:52:27.710867  9622 net.cpp:150] Setting up relu3_2
I0413 16:52:27.710876  9622 net.cpp:157] Top shape: 1 256 250 375 (24000000)
I0413 16:52:27.710883  9622 net.cpp:165] Memory required for data: 2886000076
I0413 16:52:27.710889  9622 layer_factory.hpp:77] Creating layer conv3_3
I0413 16:52:27.710906  9622 net.cpp:100] Creating Layer conv3_3
I0413 16:52:27.710911  9622 net.cpp:434] conv3_3 <- conv3_2
I0413 16:52:27.710924  9622 net.cpp:408] conv3_3 -> conv3_3
I0413 16:52:27.712473  9622 net.cpp:150] Setting up conv3_3
I0413 16:52:27.712507  9622 net.cpp:157] Top shape: 1 256 250 375 (24000000)
I0413 16:52:27.712512  9622 net.cpp:165] Memory required for data: 2982000076
I0413 16:52:27.712527  9622 layer_factory.hpp:77] Creating layer relu3_3
I0413 16:52:27.712540  9622 net.cpp:100] Creating Layer relu3_3
I0413 16:52:27.712548  9622 net.cpp:434] relu3_3 <- conv3_3
I0413 16:52:27.712561  9622 net.cpp:395] relu3_3 -> conv3_3 (in-place)
I0413 16:52:27.712577  9622 net.cpp:150] Setting up relu3_3
I0413 16:52:27.712585  9622 net.cpp:157] Top shape: 1 256 250 375 (24000000)
I0413 16:52:27.712592  9622 net.cpp:165] Memory required for data: 3078000076
I0413 16:52:27.712599  9622 layer_factory.hpp:77] Creating layer pool3
I0413 16:52:27.712610  9622 net.cpp:100] Creating Layer pool3
I0413 16:52:27.712615  9622 net.cpp:434] pool3 <- conv3_3
I0413 16:52:27.712625  9622 net.cpp:408] pool3 -> pool3
I0413 16:52:27.712677  9622 net.cpp:150] Setting up pool3
I0413 16:52:27.712687  9622 net.cpp:157] Top shape: 1 256 125 188 (6016000)
I0413 16:52:27.712693  9622 net.cpp:165] Memory required for data: 3102064076
I0413 16:52:27.712702  9622 layer_factory.hpp:77] Creating layer conv4_1
I0413 16:52:27.712716  9622 net.cpp:100] Creating Layer conv4_1
I0413 16:52:27.712723  9622 net.cpp:434] conv4_1 <- pool3
I0413 16:52:27.712734  9622 net.cpp:408] conv4_1 -> conv4_1
I0413 16:52:27.715445  9622 net.cpp:150] Setting up conv4_1
I0413 16:52:27.715476  9622 net.cpp:157] Top shape: 1 512 125 188 (12032000)
I0413 16:52:27.715483  9622 net.cpp:165] Memory required for data: 3150192076
I0413 16:52:27.715498  9622 layer_factory.hpp:77] Creating layer relu4_1
I0413 16:52:27.715515  9622 net.cpp:100] Creating Layer relu4_1
I0413 16:52:27.715524  9622 net.cpp:434] relu4_1 <- conv4_1
I0413 16:52:27.715539  9622 net.cpp:395] relu4_1 -> conv4_1 (in-place)
I0413 16:52:27.715553  9622 net.cpp:150] Setting up relu4_1
I0413 16:52:27.715562  9622 net.cpp:157] Top shape: 1 512 125 188 (12032000)
I0413 16:52:27.715569  9622 net.cpp:165] Memory required for data: 3198320076
I0413 16:52:27.715576  9622 layer_factory.hpp:77] Creating layer conv4_2
I0413 16:52:27.715590  9622 net.cpp:100] Creating Layer conv4_2
I0413 16:52:27.715595  9622 net.cpp:434] conv4_2 <- conv4_1
I0413 16:52:27.715610  9622 net.cpp:408] conv4_2 -> conv4_2
I0413 16:52:27.719795  9622 net.cpp:150] Setting up conv4_2
I0413 16:52:27.719831  9622 net.cpp:157] Top shape: 1 512 125 188 (12032000)
I0413 16:52:27.719837  9622 net.cpp:165] Memory required for data: 3246448076
I0413 16:52:27.719867  9622 layer_factory.hpp:77] Creating layer relu4_2
I0413 16:52:27.719882  9622 net.cpp:100] Creating Layer relu4_2
I0413 16:52:27.719898  9622 net.cpp:434] relu4_2 <- conv4_2
I0413 16:52:27.719911  9622 net.cpp:395] relu4_2 -> conv4_2 (in-place)
I0413 16:52:27.719928  9622 net.cpp:150] Setting up relu4_2
I0413 16:52:27.719935  9622 net.cpp:157] Top shape: 1 512 125 188 (12032000)
I0413 16:52:27.719944  9622 net.cpp:165] Memory required for data: 3294576076
I0413 16:52:27.719949  9622 layer_factory.hpp:77] Creating layer conv4_3
I0413 16:52:27.719967  9622 net.cpp:100] Creating Layer conv4_3
I0413 16:52:27.719974  9622 net.cpp:434] conv4_3 <- conv4_2
I0413 16:52:27.719990  9622 net.cpp:408] conv4_3 -> conv4_3
I0413 16:52:27.724210  9622 net.cpp:150] Setting up conv4_3
I0413 16:52:27.724251  9622 net.cpp:157] Top shape: 1 512 125 188 (12032000)
I0413 16:52:27.724256  9622 net.cpp:165] Memory required for data: 3342704076
I0413 16:52:27.724272  9622 layer_factory.hpp:77] Creating layer relu4_3
I0413 16:52:27.724285  9622 net.cpp:100] Creating Layer relu4_3
I0413 16:52:27.724293  9622 net.cpp:434] relu4_3 <- conv4_3
I0413 16:52:27.724308  9622 net.cpp:395] relu4_3 -> conv4_3 (in-place)
I0413 16:52:27.724323  9622 net.cpp:150] Setting up relu4_3
I0413 16:52:27.724339  9622 net.cpp:157] Top shape: 1 512 125 188 (12032000)
I0413 16:52:27.724345  9622 net.cpp:165] Memory required for data: 3390832076
I0413 16:52:27.724351  9622 layer_factory.hpp:77] Creating layer pool4
I0413 16:52:27.724362  9622 net.cpp:100] Creating Layer pool4
I0413 16:52:27.724369  9622 net.cpp:434] pool4 <- conv4_3
I0413 16:52:27.724380  9622 net.cpp:408] pool4 -> pool4
I0413 16:52:27.724428  9622 net.cpp:150] Setting up pool4
I0413 16:52:27.724438  9622 net.cpp:157] Top shape: 1 512 63 94 (3032064)
I0413 16:52:27.724444  9622 net.cpp:165] Memory required for data: 3402960332
I0413 16:52:27.724452  9622 layer_factory.hpp:77] Creating layer conv5_1
I0413 16:52:27.724467  9622 net.cpp:100] Creating Layer conv5_1
I0413 16:52:27.724474  9622 net.cpp:434] conv5_1 <- pool4
I0413 16:52:27.724488  9622 net.cpp:408] conv5_1 -> conv5_1
I0413 16:52:27.729063  9622 net.cpp:150] Setting up conv5_1
I0413 16:52:27.729099  9622 net.cpp:157] Top shape: 1 512 63 94 (3032064)
I0413 16:52:27.729104  9622 net.cpp:165] Memory required for data: 3415088588
I0413 16:52:27.729118  9622 layer_factory.hpp:77] Creating layer relu5_1
I0413 16:52:27.729140  9622 net.cpp:100] Creating Layer relu5_1
I0413 16:52:27.729149  9622 net.cpp:434] relu5_1 <- conv5_1
I0413 16:52:27.729161  9622 net.cpp:395] relu5_1 -> conv5_1 (in-place)
I0413 16:52:27.729179  9622 net.cpp:150] Setting up relu5_1
I0413 16:52:27.729189  9622 net.cpp:157] Top shape: 1 512 63 94 (3032064)
I0413 16:52:27.729194  9622 net.cpp:165] Memory required for data: 3427216844
I0413 16:52:27.729202  9622 layer_factory.hpp:77] Creating layer conv5_2
I0413 16:52:27.729216  9622 net.cpp:100] Creating Layer conv5_2
I0413 16:52:27.729223  9622 net.cpp:434] conv5_2 <- conv5_1
I0413 16:52:27.729235  9622 net.cpp:408] conv5_2 -> conv5_2
I0413 16:52:27.733424  9622 net.cpp:150] Setting up conv5_2
I0413 16:52:27.733459  9622 net.cpp:157] Top shape: 1 512 63 94 (3032064)
I0413 16:52:27.733465  9622 net.cpp:165] Memory required for data: 3439345100
I0413 16:52:27.733480  9622 layer_factory.hpp:77] Creating layer relu5_2
I0413 16:52:27.733494  9622 net.cpp:100] Creating Layer relu5_2
I0413 16:52:27.733503  9622 net.cpp:434] relu5_2 <- conv5_2
I0413 16:52:27.733515  9622 net.cpp:395] relu5_2 -> conv5_2 (in-place)
I0413 16:52:27.733530  9622 net.cpp:150] Setting up relu5_2
I0413 16:52:27.733539  9622 net.cpp:157] Top shape: 1 512 63 94 (3032064)
I0413 16:52:27.733546  9622 net.cpp:165] Memory required for data: 3451473356
I0413 16:52:27.733552  9622 layer_factory.hpp:77] Creating layer conv5_3
I0413 16:52:27.733568  9622 net.cpp:100] Creating Layer conv5_3
I0413 16:52:27.733575  9622 net.cpp:434] conv5_3 <- conv5_2
I0413 16:52:27.733588  9622 net.cpp:408] conv5_3 -> conv5_3
I0413 16:52:27.738481  9622 net.cpp:150] Setting up conv5_3
I0413 16:52:27.738526  9622 net.cpp:157] Top shape: 1 512 63 94 (3032064)
I0413 16:52:27.738533  9622 net.cpp:165] Memory required for data: 3463601612
I0413 16:52:27.738548  9622 layer_factory.hpp:77] Creating layer relu5_3
I0413 16:52:27.738572  9622 net.cpp:100] Creating Layer relu5_3
I0413 16:52:27.738581  9622 net.cpp:434] relu5_3 <- conv5_3
I0413 16:52:27.738595  9622 net.cpp:395] relu5_3 -> conv5_3 (in-place)
I0413 16:52:27.738610  9622 net.cpp:150] Setting up relu5_3
I0413 16:52:27.738621  9622 net.cpp:157] Top shape: 1 512 63 94 (3032064)
I0413 16:52:27.738627  9622 net.cpp:165] Memory required for data: 3475729868
I0413 16:52:27.738633  9622 layer_factory.hpp:77] Creating layer rpn_big_conv1
I0413 16:52:27.738651  9622 net.cpp:100] Creating Layer rpn_big_conv1
I0413 16:52:27.738661  9622 net.cpp:434] rpn_big_conv1 <- conv5_3
I0413 16:52:27.738672  9622 net.cpp:408] rpn_big_conv1 -> rpn_big_conv1
I0413 16:52:27.766681  9622 net.cpp:150] Setting up rpn_big_conv1
I0413 16:52:27.766712  9622 net.cpp:157] Top shape: 1 512 63 94 (3032064)
I0413 16:52:27.766718  9622 net.cpp:165] Memory required for data: 3487858124
I0413 16:52:27.766741  9622 layer_factory.hpp:77] Creating layer rpn_big_conv1_relu
I0413 16:52:27.766757  9622 net.cpp:100] Creating Layer rpn_big_conv1_relu
I0413 16:52:27.766765  9622 net.cpp:434] rpn_big_conv1_relu <- rpn_big_conv1
I0413 16:52:27.766777  9622 net.cpp:395] rpn_big_conv1_relu -> rpn_big_conv1 (in-place)
I0413 16:52:27.766795  9622 net.cpp:150] Setting up rpn_big_conv1_relu
I0413 16:52:27.766804  9622 net.cpp:157] Top shape: 1 512 63 94 (3032064)
I0413 16:52:27.766811  9622 net.cpp:165] Memory required for data: 3499986380
I0413 16:52:27.766818  9622 layer_factory.hpp:77] Creating layer rpn_big_conv2
I0413 16:52:27.766836  9622 net.cpp:100] Creating Layer rpn_big_conv2
I0413 16:52:27.766844  9622 net.cpp:434] rpn_big_conv2 <- rpn_big_conv1
I0413 16:52:27.766855  9622 net.cpp:408] rpn_big_conv2 -> rpn_big_conv2
I0413 16:52:27.793859  9622 net.cpp:150] Setting up rpn_big_conv2
I0413 16:52:27.793892  9622 net.cpp:157] Top shape: 1 512 63 94 (3032064)
I0413 16:52:27.793898  9622 net.cpp:165] Memory required for data: 3512114636
I0413 16:52:27.793921  9622 layer_factory.hpp:77] Creating layer rpn_big_conv2_relu
I0413 16:52:27.793936  9622 net.cpp:100] Creating Layer rpn_big_conv2_relu
I0413 16:52:27.793946  9622 net.cpp:434] rpn_big_conv2_relu <- rpn_big_conv2
I0413 16:52:27.793958  9622 net.cpp:395] rpn_big_conv2_relu -> rpn_big_conv2 (in-place)
I0413 16:52:27.793977  9622 net.cpp:150] Setting up rpn_big_conv2_relu
I0413 16:52:27.793985  9622 net.cpp:157] Top shape: 1 512 63 94 (3032064)
I0413 16:52:27.793992  9622 net.cpp:165] Memory required for data: 3524242892
I0413 16:52:27.793998  9622 layer_factory.hpp:77] Creating layer rpn_big_conv2_drop
I0413 16:52:27.794013  9622 net.cpp:100] Creating Layer rpn_big_conv2_drop
I0413 16:52:27.794020  9622 net.cpp:434] rpn_big_conv2_drop <- rpn_big_conv2
I0413 16:52:27.794029  9622 net.cpp:395] rpn_big_conv2_drop -> rpn_big_conv2 (in-place)
I0413 16:52:27.794061  9622 net.cpp:150] Setting up rpn_big_conv2_drop
I0413 16:52:27.794071  9622 net.cpp:157] Top shape: 1 512 63 94 (3032064)
I0413 16:52:27.794077  9622 net.cpp:165] Memory required for data: 3536371148
I0413 16:52:27.794083  9622 layer_factory.hpp:77] Creating layer rpn_big_conv2_rpn_big_conv2_drop_0_split
I0413 16:52:27.794095  9622 net.cpp:100] Creating Layer rpn_big_conv2_rpn_big_conv2_drop_0_split
I0413 16:52:27.794102  9622 net.cpp:434] rpn_big_conv2_rpn_big_conv2_drop_0_split <- rpn_big_conv2
I0413 16:52:27.794116  9622 net.cpp:408] rpn_big_conv2_rpn_big_conv2_drop_0_split -> rpn_big_conv2_rpn_big_conv2_drop_0_split_0
I0413 16:52:27.794129  9622 net.cpp:408] rpn_big_conv2_rpn_big_conv2_drop_0_split -> rpn_big_conv2_rpn_big_conv2_drop_0_split_1
I0413 16:52:27.794170  9622 net.cpp:150] Setting up rpn_big_conv2_rpn_big_conv2_drop_0_split
I0413 16:52:27.794180  9622 net.cpp:157] Top shape: 1 512 63 94 (3032064)
I0413 16:52:27.794188  9622 net.cpp:157] Top shape: 1 512 63 94 (3032064)
I0413 16:52:27.794195  9622 net.cpp:165] Memory required for data: 3560627660
I0413 16:52:27.794201  9622 layer_factory.hpp:77] Creating layer rpn_big_output_cls
I0413 16:52:27.794219  9622 net.cpp:100] Creating Layer rpn_big_output_cls
I0413 16:52:27.794225  9622 net.cpp:434] rpn_big_output_cls <- rpn_big_conv2_rpn_big_conv2_drop_0_split_0
I0413 16:52:27.794239  9622 net.cpp:408] rpn_big_output_cls -> rpn_big_output_cls
I0413 16:52:27.813431  9622 net.cpp:150] Setting up rpn_big_output_cls
I0413 16:52:27.813463  9622 net.cpp:157] Top shape: 1 384 63 94 (2274048)
I0413 16:52:27.813469  9622 net.cpp:165] Memory required for data: 3569723852
I0413 16:52:27.813491  9622 layer_factory.hpp:77] Creating layer rpn_big_output_cls_relu
I0413 16:52:27.813506  9622 net.cpp:100] Creating Layer rpn_big_output_cls_relu
I0413 16:52:27.813516  9622 net.cpp:434] rpn_big_output_cls_relu <- rpn_big_output_cls
I0413 16:52:27.813534  9622 net.cpp:395] rpn_big_output_cls_relu -> rpn_big_output_cls (in-place)
I0413 16:52:27.813550  9622 net.cpp:150] Setting up rpn_big_output_cls_relu
I0413 16:52:27.813560  9622 net.cpp:157] Top shape: 1 384 63 94 (2274048)
I0413 16:52:27.813565  9622 net.cpp:165] Memory required for data: 3578820044
I0413 16:52:27.813572  9622 layer_factory.hpp:77] Creating layer rpn_big_cls_score
I0413 16:52:27.813591  9622 net.cpp:100] Creating Layer rpn_big_cls_score
I0413 16:52:27.813597  9622 net.cpp:434] rpn_big_cls_score <- rpn_big_output_cls
I0413 16:52:27.813609  9622 net.cpp:408] rpn_big_cls_score -> rpn_big_cls_score
I0413 16:52:27.815981  9622 net.cpp:150] Setting up rpn_big_cls_score
I0413 16:52:27.816004  9622 net.cpp:157] Top shape: 1 52 61 92 (291824)
I0413 16:52:27.816009  9622 net.cpp:165] Memory required for data: 3579987340
I0413 16:52:27.816033  9622 layer_factory.hpp:77] Creating layer rpn_big_cls_score_rpn_big_cls_score_0_split
I0413 16:52:27.816047  9622 net.cpp:100] Creating Layer rpn_big_cls_score_rpn_big_cls_score_0_split
I0413 16:52:27.816056  9622 net.cpp:434] rpn_big_cls_score_rpn_big_cls_score_0_split <- rpn_big_cls_score
I0413 16:52:27.816068  9622 net.cpp:408] rpn_big_cls_score_rpn_big_cls_score_0_split -> rpn_big_cls_score_rpn_big_cls_score_0_split_0
I0413 16:52:27.816082  9622 net.cpp:408] rpn_big_cls_score_rpn_big_cls_score_0_split -> rpn_big_cls_score_rpn_big_cls_score_0_split_1
I0413 16:52:27.816139  9622 net.cpp:150] Setting up rpn_big_cls_score_rpn_big_cls_score_0_split
I0413 16:52:27.816156  9622 net.cpp:157] Top shape: 1 52 61 92 (291824)
I0413 16:52:27.816165  9622 net.cpp:157] Top shape: 1 52 61 92 (291824)
I0413 16:52:27.816171  9622 net.cpp:165] Memory required for data: 3582321932
I0413 16:52:27.816179  9622 layer_factory.hpp:77] Creating layer rpn_big_cls_score_reshape
I0413 16:52:27.816190  9622 net.cpp:100] Creating Layer rpn_big_cls_score_reshape
I0413 16:52:27.816197  9622 net.cpp:434] rpn_big_cls_score_reshape <- rpn_big_cls_score_rpn_big_cls_score_0_split_0
I0413 16:52:27.816208  9622 net.cpp:408] rpn_big_cls_score_reshape -> rpn_big_cls_score_reshape
I0413 16:52:27.816244  9622 net.cpp:150] Setting up rpn_big_cls_score_reshape
I0413 16:52:27.816258  9622 net.cpp:157] Top shape: 1 2 1586 92 (291824)
I0413 16:52:27.816265  9622 net.cpp:165] Memory required for data: 3583489228
I0413 16:52:27.816272  9622 layer_factory.hpp:77] Creating layer rpn_big_cls_score_reshape_rpn_big_cls_score_reshape_0_split
I0413 16:52:27.816280  9622 net.cpp:100] Creating Layer rpn_big_cls_score_reshape_rpn_big_cls_score_reshape_0_split
I0413 16:52:27.816287  9622 net.cpp:434] rpn_big_cls_score_reshape_rpn_big_cls_score_reshape_0_split <- rpn_big_cls_score_reshape
I0413 16:52:27.816298  9622 net.cpp:408] rpn_big_cls_score_reshape_rpn_big_cls_score_reshape_0_split -> rpn_big_cls_score_reshape_rpn_big_cls_score_reshape_0_split_0
I0413 16:52:27.816313  9622 net.cpp:408] rpn_big_cls_score_reshape_rpn_big_cls_score_reshape_0_split -> rpn_big_cls_score_reshape_rpn_big_cls_score_reshape_0_split_1
I0413 16:52:27.816359  9622 net.cpp:150] Setting up rpn_big_cls_score_reshape_rpn_big_cls_score_reshape_0_split
I0413 16:52:27.816371  9622 net.cpp:157] Top shape: 1 2 1586 92 (291824)
I0413 16:52:27.816380  9622 net.cpp:157] Top shape: 1 2 1586 92 (291824)
I0413 16:52:27.816386  9622 net.cpp:165] Memory required for data: 3585823820
I0413 16:52:27.816392  9622 layer_factory.hpp:77] Creating layer rpn_big_cls_prob
I0413 16:52:27.816404  9622 net.cpp:100] Creating Layer rpn_big_cls_prob
I0413 16:52:27.816412  9622 net.cpp:434] rpn_big_cls_prob <- rpn_big_cls_score_reshape_rpn_big_cls_score_reshape_0_split_0
I0413 16:52:27.816421  9622 net.cpp:408] rpn_big_cls_prob -> rpn_big_cls_prob
I0413 16:52:27.816503  9622 net.cpp:150] Setting up rpn_big_cls_prob
I0413 16:52:27.816514  9622 net.cpp:157] Top shape: 1 2 1586 92 (291824)
I0413 16:52:27.816520  9622 net.cpp:165] Memory required for data: 3586991116
I0413 16:52:27.816527  9622 layer_factory.hpp:77] Creating layer rpn_big_cls_prob_reshape
I0413 16:52:27.816536  9622 net.cpp:100] Creating Layer rpn_big_cls_prob_reshape
I0413 16:52:27.816543  9622 net.cpp:434] rpn_big_cls_prob_reshape <- rpn_big_cls_prob
I0413 16:52:27.816552  9622 net.cpp:408] rpn_big_cls_prob_reshape -> rpn_big_cls_prob_reshape
I0413 16:52:27.816589  9622 net.cpp:150] Setting up rpn_big_cls_prob_reshape
I0413 16:52:27.816601  9622 net.cpp:157] Top shape: 1 52 61 92 (291824)
I0413 16:52:27.816607  9622 net.cpp:165] Memory required for data: 3588158412
I0413 16:52:27.816614  9622 layer_factory.hpp:77] Creating layer rpn_big_cls_prob_reshape_rpn_big_cls_prob_reshape_0_split
I0413 16:52:27.816623  9622 net.cpp:100] Creating Layer rpn_big_cls_prob_reshape_rpn_big_cls_prob_reshape_0_split
I0413 16:52:27.816630  9622 net.cpp:434] rpn_big_cls_prob_reshape_rpn_big_cls_prob_reshape_0_split <- rpn_big_cls_prob_reshape
I0413 16:52:27.816639  9622 net.cpp:408] rpn_big_cls_prob_reshape_rpn_big_cls_prob_reshape_0_split -> rpn_big_cls_prob_reshape_rpn_big_cls_prob_reshape_0_split_0
I0413 16:52:27.816650  9622 net.cpp:408] rpn_big_cls_prob_reshape_rpn_big_cls_prob_reshape_0_split -> rpn_big_cls_prob_reshape_rpn_big_cls_prob_reshape_0_split_1
I0413 16:52:27.816697  9622 net.cpp:150] Setting up rpn_big_cls_prob_reshape_rpn_big_cls_prob_reshape_0_split
I0413 16:52:27.816709  9622 net.cpp:157] Top shape: 1 52 61 92 (291824)
I0413 16:52:27.816717  9622 net.cpp:157] Top shape: 1 52 61 92 (291824)
I0413 16:52:27.816723  9622 net.cpp:165] Memory required for data: 3590493004
I0413 16:52:27.816730  9622 layer_factory.hpp:77] Creating layer rpn_big_anchor_target
I0413 16:52:27.818425  9622 net.cpp:100] Creating Layer rpn_big_anchor_target
I0413 16:52:27.818446  9622 net.cpp:434] rpn_big_anchor_target <- rpn_big_cls_score_rpn_big_cls_score_0_split_1
I0413 16:52:27.818457  9622 net.cpp:434] rpn_big_anchor_target <- input_gt_boxes
I0413 16:52:27.818466  9622 net.cpp:434] rpn_big_anchor_target <- input_ignored_boxes
I0413 16:52:27.818473  9622 net.cpp:434] rpn_big_anchor_target <- input_im_info_input_1_split_0
I0413 16:52:27.818481  9622 net.cpp:434] rpn_big_anchor_target <- input_data_input_0_split_1
I0413 16:52:27.818488  9622 net.cpp:434] rpn_big_anchor_target <- rpn_big_cls_prob_reshape_rpn_big_cls_prob_reshape_0_split_0
I0413 16:52:27.818500  9622 net.cpp:408] rpn_big_anchor_target -> rpn_big_anchor_target_labels
I0413 16:52:27.818517  9622 net.cpp:408] rpn_big_anchor_target -> rpn_big_anchor_target_bbox_targets
I0413 16:52:27.818532  9622 net.cpp:408] rpn_big_anchor_target -> rpn_big_anchor_target_inside_weights
I0413 16:52:27.818552  9622 net.cpp:408] rpn_big_anchor_target -> rpn_big_anchor_target_outside_weights
I0413 16:52:27.824519  9622 net.cpp:150] Setting up rpn_big_anchor_target
I0413 16:52:27.824550  9622 net.cpp:157] Top shape: 1 1 1586 92 (145912)
I0413 16:52:27.824558  9622 net.cpp:157] Top shape: 1 104 61 92 (583648)
I0413 16:52:27.824565  9622 net.cpp:157] Top shape: 1 104 61 92 (583648)
I0413 16:52:27.824573  9622 net.cpp:157] Top shape: 1 104 61 92 (583648)
I0413 16:52:27.824581  9622 net.cpp:165] Memory required for data: 3598080428
I0413 16:52:27.824590  9622 layer_factory.hpp:77] Creating layer rpn_big_loss_cls
I0413 16:52:27.824607  9622 net.cpp:100] Creating Layer rpn_big_loss_cls
I0413 16:52:27.824615  9622 net.cpp:434] rpn_big_loss_cls <- rpn_big_cls_score_reshape_rpn_big_cls_score_reshape_0_split_1
I0413 16:52:27.824628  9622 net.cpp:434] rpn_big_loss_cls <- rpn_big_anchor_target_labels
I0413 16:52:27.824641  9622 net.cpp:408] rpn_big_loss_cls -> rpn_big_loss_cls
I0413 16:52:27.824661  9622 layer_factory.hpp:77] Creating layer rpn_big_loss_cls
I0413 16:52:27.825371  9622 net.cpp:150] Setting up rpn_big_loss_cls
I0413 16:52:27.825387  9622 net.cpp:157] Top shape: (1)
I0413 16:52:27.825393  9622 net.cpp:160]     with loss weight 1
I0413 16:52:27.825410  9622 net.cpp:165] Memory required for data: 3598080432
I0413 16:52:27.825418  9622 layer_factory.hpp:77] Creating layer rpn_big_output_box
I0413 16:52:27.825439  9622 net.cpp:100] Creating Layer rpn_big_output_box
I0413 16:52:27.825446  9622 net.cpp:434] rpn_big_output_box <- rpn_big_conv2_rpn_big_conv2_drop_0_split_1
I0413 16:52:27.825461  9622 net.cpp:408] rpn_big_output_box -> rpn_big_output_box
I0413 16:52:27.844698  9622 net.cpp:150] Setting up rpn_big_output_box
I0413 16:52:27.844730  9622 net.cpp:157] Top shape: 1 384 63 94 (2274048)
I0413 16:52:27.844736  9622 net.cpp:165] Memory required for data: 3607176624
I0413 16:52:27.844758  9622 layer_factory.hpp:77] Creating layer rpn_big_output_box_relu
I0413 16:52:27.844776  9622 net.cpp:100] Creating Layer rpn_big_output_box_relu
I0413 16:52:27.844786  9622 net.cpp:434] rpn_big_output_box_relu <- rpn_big_output_box
I0413 16:52:27.844799  9622 net.cpp:395] rpn_big_output_box_relu -> rpn_big_output_box (in-place)
I0413 16:52:27.844818  9622 net.cpp:150] Setting up rpn_big_output_box_relu
I0413 16:52:27.844827  9622 net.cpp:157] Top shape: 1 384 63 94 (2274048)
I0413 16:52:27.844833  9622 net.cpp:165] Memory required for data: 3616272816
I0413 16:52:27.844841  9622 layer_factory.hpp:77] Creating layer rpn_big_bbox_pred
I0413 16:52:27.844856  9622 net.cpp:100] Creating Layer rpn_big_bbox_pred
I0413 16:52:27.844866  9622 net.cpp:434] rpn_big_bbox_pred <- rpn_big_output_box
I0413 16:52:27.844880  9622 net.cpp:408] rpn_big_bbox_pred -> rpn_big_bbox_pred
I0413 16:52:27.848882  9622 net.cpp:150] Setting up rpn_big_bbox_pred
I0413 16:52:27.848914  9622 net.cpp:157] Top shape: 1 104 61 92 (583648)
I0413 16:52:27.848922  9622 net.cpp:165] Memory required for data: 3618607408
I0413 16:52:27.848933  9622 layer_factory.hpp:77] Creating layer rpn_big_bbox_pred_rpn_big_bbox_pred_0_split
I0413 16:52:27.848947  9622 net.cpp:100] Creating Layer rpn_big_bbox_pred_rpn_big_bbox_pred_0_split
I0413 16:52:27.848954  9622 net.cpp:434] rpn_big_bbox_pred_rpn_big_bbox_pred_0_split <- rpn_big_bbox_pred
I0413 16:52:27.848968  9622 net.cpp:408] rpn_big_bbox_pred_rpn_big_bbox_pred_0_split -> rpn_big_bbox_pred_rpn_big_bbox_pred_0_split_0
I0413 16:52:27.848980  9622 net.cpp:408] rpn_big_bbox_pred_rpn_big_bbox_pred_0_split -> rpn_big_bbox_pred_rpn_big_bbox_pred_0_split_1
I0413 16:52:27.849035  9622 net.cpp:150] Setting up rpn_big_bbox_pred_rpn_big_bbox_pred_0_split
I0413 16:52:27.849050  9622 net.cpp:157] Top shape: 1 104 61 92 (583648)
I0413 16:52:27.849058  9622 net.cpp:157] Top shape: 1 104 61 92 (583648)
I0413 16:52:27.849064  9622 net.cpp:165] Memory required for data: 3623276592
I0413 16:52:27.849071  9622 layer_factory.hpp:77] Creating layer rpn_big_loss_bbox
I0413 16:52:27.849437  9622 net.cpp:100] Creating Layer rpn_big_loss_bbox
I0413 16:52:27.849448  9622 net.cpp:434] rpn_big_loss_bbox <- rpn_big_bbox_pred_rpn_big_bbox_pred_0_split_0
I0413 16:52:27.849458  9622 net.cpp:434] rpn_big_loss_bbox <- rpn_big_anchor_target_bbox_targets
I0413 16:52:27.849467  9622 net.cpp:434] rpn_big_loss_bbox <- rpn_big_anchor_target_inside_weights
I0413 16:52:27.849474  9622 net.cpp:434] rpn_big_loss_bbox <- rpn_big_anchor_target_outside_weights
I0413 16:52:27.849485  9622 net.cpp:408] rpn_big_loss_bbox -> rpn_big_loss_bbox
I0413 16:52:27.851547  9622 net.cpp:150] Setting up rpn_big_loss_bbox
I0413 16:52:27.851588  9622 net.cpp:157] Top shape: 1 (1)
I0413 16:52:27.851593  9622 net.cpp:160]     with loss weight 1
I0413 16:52:27.851616  9622 net.cpp:165] Memory required for data: 3623276596
I0413 16:52:27.851625  9622 layer_factory.hpp:77] Creating layer proposal
I0413 16:52:27.852042  9622 net.cpp:100] Creating Layer proposal
I0413 16:52:27.852053  9622 net.cpp:434] proposal <- rpn_big_cls_prob_reshape_rpn_big_cls_prob_reshape_0_split_1
I0413 16:52:27.852064  9622 net.cpp:434] proposal <- rpn_big_bbox_pred_rpn_big_bbox_pred_0_split_1
I0413 16:52:27.852082  9622 net.cpp:434] proposal <- input_im_info_input_1_split_1
I0413 16:52:27.852097  9622 net.cpp:408] proposal -> rpn_rois
I0413 16:52:27.856334  9622 net.cpp:150] Setting up proposal
I0413 16:52:27.856359  9622 net.cpp:157] Top shape: 1 5 (5)
I0413 16:52:27.856365  9622 net.cpp:165] Memory required for data: 3623276616
I0413 16:52:27.856374  9622 net.cpp:228] proposal does not need backward computation.
I0413 16:52:27.856384  9622 net.cpp:226] rpn_big_loss_bbox needs backward computation.
I0413 16:52:27.856397  9622 net.cpp:226] rpn_big_bbox_pred_rpn_big_bbox_pred_0_split needs backward computation.
I0413 16:52:27.856405  9622 net.cpp:226] rpn_big_bbox_pred needs backward computation.
…
