…
I0412 20:26:28.271703  4405 solver.cpp:48] Initializing solver from parameters: 
base_lr: 0.001
display: 20
lr_policy: "multistep"
gamma: 0.1
momentum: 0.9
weight_decay: 0.0005
snapshot: 0
snapshot_prefix: "faces_example"
net_param {
  name: "GeneratedModel_12_04_2017_20_26"
  layer {
    name: "input"
    type: "Python"
    top: "input_data"
    top: "input_im_info"
    top: "input_gt_boxes"
    top: "input_ignored_boxes"
    python_param {
      module: "layers.roi_data_layer"
      layer: "RoIDataLayer"
      param_str: "{\"num_classes\": 2}"
    }
  }
  layer {
    name: "conv1_1"
    type: "Convolution"
    bottom: "input_data"
    top: "conv1_1"
    param {
      lr_mult: 0
      decay_mult: 0
    }
    param {
      lr_mult: 0
      decay_mult: 0
    }
    convolution_param {
      num_output: 64
      pad: 1
      kernel_size: 3
    }
  }
  layer {
    name: "relu1_1"
    type: "ReLU"
    bottom: "conv1_1"
    top: "conv1_1"
  }
  layer {
    name: "conv1_2"
    type: "Convolution"
    bottom: "conv1_1"
    top: "conv1_2"
    param {
      lr_mult: 0
      decay_mult: 0
    }
    param {
      lr_mult: 0
      decay_mult: 0
    }
    convolution_param {
      num_output: 64
      pad: 1
      kernel_size: 3
    }
  }
  layer {
    name: "relu1_2"
    type: "ReLU"
    bottom: "conv1_2"
    top: "conv1_2"
  }
  layer {
    name: "pool1"
    type: "Pooling"
    bottom: "conv1_2"
    top: "pool1"
    pooling_param {
      pool: MAX
      kernel_size: 2
      stride: 2
    }
  }
  layer {
    name: "conv2_1"
    type: "Convolution"
    bottom: "pool1"
    top: "conv2_1"
    param {
      lr_mult: 0
      decay_mult: 0
    }
    param {
      lr_mult: 0
      decay_mult: 0
    }
    convolution_param {
      num_output: 128
      pad: 1
      kernel_size: 3
    }
  }
  layer {
    name: "relu2_1"
    type: "ReLU"
    bottom: "conv2_1"
    top: "conv2_1"
  }
  layer {
    name: "conv2_2"
    type: "Convolution"
    bottom: "conv2_1"
    top: "conv2_2"
    param {
      lr_mult: 0
      decay_mult: 0
    }
    param {
      lr_mult: 0
      decay_mult: 0
    }
    convolution_param {
      num_output: 128
      pad: 1
      kernel_size: 3
    }
  }
  layer {
    name: "relu2_2"
    type: "ReLU"
    bottom: "conv2_2"
    top: "conv2_2"
  }
  layer {
    name: "pool2"
    type: "Pooling"
    bottom: "conv2_2"
    top: "pool2"
    pooling_param {
      pool: MAX
      kernel_size: 2
      stride: 2
    }
  }
  layer {
    name: "conv3_1"
    type: "Convolution"
    bottom: "pool2"
    top: "conv3_1"
    param {
      lr_mult: 1
    }
    param {
      lr_mult: 2
    }
    convolution_param {
      num_output: 256
      pad: 1
      kernel_size: 3
    }
  }
  layer {
    name: "relu3_1"
    type: "ReLU"
    bottom: "conv3_1"
    top: "conv3_1"
  }
  layer {
    name: "conv3_2"
    type: "Convolution"
    bottom: "conv3_1"
    top: "conv3_2"
    param {
      lr_mult: 1
    }
    param {
      lr_mult: 2
    }
    convolution_param {
      num_output: 256
      pad: 1
      kernel_size: 3
    }
  }
  layer {
    name: "relu3_2"
    type: "ReLU"
    bottom: "conv3_2"
    top: "conv3_2"
  }
  layer {
    name: "conv3_3"
    type: "Convolution"
    bottom: "conv3_2"
    top: "conv3_3"
    param {
      lr_mult: 1
    }
    param {
      lr_mult: 2
    }
    convolution_param {
      num_output: 256
      pad: 1
      kernel_size: 3
    }
  }
  layer {
    name: "relu3_3"
    type: "ReLU"
    bottom: "conv3_3"
    top: "conv3_3"
  }
  layer {
    name: "pool3"
    type: "Pooling"
    bottom: "conv3_3"
    top: "pool3"
    pooling_param {
      pool: MAX
      kernel_size: 2
      stride: 2
    }
  }
  layer {
    name: "conv4_1"
    type: "Convolution"
    bottom: "pool3"
    top: "conv4_1"
    param {
      lr_mult: 1
    }
    param {
      lr_mult: 2
    }
    convolution_param {
      num_output: 512
      pad: 1
      kernel_size: 3
    }
  }
  layer {
    name: "relu4_1"
    type: "ReLU"
    bottom: "conv4_1"
    top: "conv4_1"
  }
  layer {
    name: "conv4_2"
    type: "Convolution"
    bottom: "conv4_1"
    top: "conv4_2"
    param {
      lr_mult: 1
    }
    param {
      lr_mult: 2
    }
    convolution_param {
      num_output: 512
      pad: 1
      kernel_size: 3
    }
  }
  layer {
    name: "relu4_2"
    type: "ReLU"
    bottom: "conv4_2"
    top: "conv4_2"
  }
  layer {
    name: "conv4_3"
    type: "Convolution"
    bottom: "conv4_2"
    top: "conv4_3"
    param {
      lr_mult: 1
    }
    param {
      lr_mult: 2
    }
    convolution_param {
      num_output: 512
      pad: 1
      kernel_size: 3
    }
  }
  layer {
    name: "relu4_3"
    type: "ReLU"
    bottom: "conv4_3"
    top: "conv4_3"
  }
  layer {
    name: "pool4"
    type: "Pooling"
    bottom: "conv4_3"
    top: "pool4"
    pooling_param {
      pool: MAX
      kernel_size: 2
      stride: 2
    }
  }
  layer {
    name: "conv5_1"
    type: "Convolution"
    bottom: "pool4"
    top: "conv5_1"
    param {
      lr_mult: 1
    }
    param {
      lr_mult: 2
    }
    convolution_param {
      num_output: 512
      pad: 1
      kernel_size: 3
    }
  }
  layer {
    name: "relu5_1"
    type: "ReLU"
    bottom: "conv5_1"
    top: "conv5_1"
  }
  layer {
    name: "conv5_2"
    type: "Convolution"
    bottom: "conv5_1"
    top: "conv5_2"
    param {
      lr_mult: 1
    }
    param {
      lr_mult: 2
    }
    convolution_param {
      num_output: 512
      pad: 1
      kernel_size: 3
    }
  }
  layer {
    name: "relu5_2"
    type: "ReLU"
    bottom: "conv5_2"
    top: "conv5_2"
  }
  layer {
    name: "conv5_3"
    type: "Convolution"
    bottom: "conv5_2"
    top: "conv5_3"
    param {
      lr_mult: 1
    }
    param {
      lr_mult: 2
    }
    convolution_param {
      num_output: 512
      pad: 1
      kernel_size: 3
    }
  }
  layer {
    name: "relu5_3"
    type: "ReLU"
    bottom: "conv5_3"
    top: "conv5_3"
  }
  layer {
    name: "rpn_big_conv1"
    type: "Convolution"
    bottom: "conv5_3"
    top: "rpn_big_conv1"
    param {
      lr_mult: 1
    }
    param {
      lr_mult: 2
    }
    convolution_param {
      num_output: 512
      pad: 1
      kernel_size: 3
      stride: 1
      weight_filler {
        type: "gaussian"
        mean: 0
        std: 0.01
      }
      bias_filler {
        type: "constant"
      }
    }
  }
  layer {
    name: "rpn_big_conv1_relu"
    type: "ReLU"
    bottom: "rpn_big_conv1"
    top: "rpn_big_conv1"
    relu_param {
      negative_slope: 0
    }
  }
  layer {
    name: "rpn_big_conv2"
    type: "Convolution"
    bottom: "rpn_big_conv1"
    top: "rpn_big_conv2"
    param {
      lr_mult: 1
    }
    param {
      lr_mult: 2
    }
    convolution_param {
      num_output: 512
      pad: 1
      kernel_size: 3
      stride: 1
      weight_filler {
        type: "gaussian"
        mean: 0
        std: 0.01
      }
      bias_filler {
        type: "constant"
      }
    }
  }
  layer {
    name: "rpn_big_conv2_relu"
    type: "ReLU"
    bottom: "rpn_big_conv2"
    top: "rpn_big_conv2"
    relu_param {
      negative_slope: 0
    }
  }
  layer {
    name: "rpn_big_conv2_drop"
    type: "Dropout"
    bottom: "rpn_big_conv2"
    top: "rpn_big_conv2"
    dropout_param {
      dropout_ratio: 0.3
    }
  }
  layer {
    name: "rpn_big_output_cls"
    type: "Convolution"
    bottom: "rpn_big_conv2"
    top: "rpn_big_output_cls"
    param {
      lr_mult: 1
    }
    param {
      lr_mult: 2
    }
    convolution_param {
      num_output: 384
      pad: 1
      kernel_size: 3
      stride: 1
      weight_filler {
        type: "gaussian"
        mean: 0
        std: 0.01
      }
      bias_filler {
        type: "constant"
      }
    }
  }
  layer {
    name: "rpn_big_output_cls_relu"
    type: "ReLU"
    bottom: "rpn_big_output_cls"
    top: "rpn_big_output_cls"
    relu_param {
      negative_slope: 0
    }
  }
  layer {
    name: "rpn_big_cls_score"
    type: "Convolution"
    bottom: "rpn_big_output_cls"
    top: "rpn_big_cls_score"
    param {
      lr_mult: 1
    }
    param {
      lr_mult: 2
    }
    convolution_param {
      num_output: 52
      pad: 0
      kernel_size: 3
      stride: 1
      weight_filler {
        type: "gaussian"
        mean: 0
        std: 0.01
      }
      bias_filler {
        type: "constant"
      }
    }
  }
  layer {
    name: "rpn_big_cls_score_reshape"
    type: "Reshape"
    bottom: "rpn_big_cls_score"
    top: "rpn_big_cls_score_reshape"
    reshape_param {
      shape {
        dim: 0
        dim: 2
        dim: -1
        dim: 0
      }
    }
  }
  layer {
    name: "rpn_big_cls_prob"
    type: "Softmax"
    bottom: "rpn_big_cls_score_reshape"
    top: "rpn_big_cls_prob"
  }
  layer {
    name: "rpn_big_cls_prob_reshape"
    type: "Reshape"
    bottom: "rpn_big_cls_prob"
    top: "rpn_big_cls_prob_reshape"
    reshape_param {
      shape {
        dim: 0
        dim: 52
        dim: -1
        dim: 0
      }
    }
  }
  layer {
    name: "rpn_big_anchor_target"
    type: "Python"
    bottom: "rpn_big_cls_score"
    bottom: "input_gt_boxes"
    bottom: "input_ignored_boxes"
    bottom: "input_im_info"
    bottom: "input_data"
    bottom: "rpn_big_cls_prob_reshape"
    top: "rpn_big_anchor_target_labels"
    top: "rpn_big_anchor_target_bbox_targets"
    top: "rpn_big_anchor_target_inside_weights"
    top: "rpn_big_anchor_target_outside_weights"
    python_param {
      module: "rpn.anchor_target_layer"
      layer: "AnchorTargetLayer"
      param_str: "{\"num_classes\": 1, \"name\": \"rpn_big\", \"batchsize\": 256, \"tn_fraction\": 0.2, \"positive_overlap\": 0.6, \"square_targets\": true, \"fg_fraction\": 0.5, \"anchor_shift_num_xy\": [[2, 2], [2, 2], [2, 2], [2, 2], [1, 1], [1, 1], [1, 1], [1, 1], [1, 1], [1, 1], [1, 1], [1, 1], [1, 1], [1, 1]], \"anchor_ratios\": [1.0], \"feat_stride\": 16, \"negative_overlap\": 0.4, \"anchor_scales\": [2.5, 3.025, 3.66025, 4.4289024999999995, 5.358972025, 6.484356150249999, 7.846070941802498, 9.493745839581022, 11.487432465893036, 13.899793283730574, 16.818749873313998, 20.350687346709933, 24.62433168951902, 29.795441344318014]}"
    }
  }
  layer {
    name: "rpn_big_loss_cls"
    type: "SoftmaxWithLoss"
    bottom: "rpn_big_cls_score_reshape"
    bottom: "rpn_big_anchor_target_labels"
    top: "rpn_big_loss_cls"
    loss_weight: 1
    propagate_down: true
    propagate_down: false
    loss_param {
      ignore_label: -1
      normalization: VALID
    }
  }
  layer {
    name: "rpn_big_output_box"
    type: "Convolution"
    bottom: "rpn_big_conv2"
    top: "rpn_big_output_box"
    param {
      lr_mult: 1
    }
    param {
      lr_mult: 2
    }
    convolution_param {
      num_output: 384
      pad: 1
      kernel_size: 3
      stride: 1
      weight_filler {
        type: "gaussian"
        mean: 0
        std: 0.01
      }
      bias_filler {
        type: "constant"
      }
    }
  }
  layer {
    name: "rpn_big_output_box_relu"
    type: "ReLU"
    bottom: "rpn_big_output_box"
    top: "rpn_big_output_box"
    relu_param {
      negative_slope: 0
    }
  }
  layer {
    name: "rpn_big_bbox_pred"
    type: "Convolution"
    bottom: "rpn_big_output_box"
    top: "rpn_big_bbox_pred"
    param {
      lr_mult: 1
    }
    param {
      lr_mult: 2
    }
    convolution_param {
      num_output: 104
      pad: 0
      kernel_size: 3
      stride: 1
      weight_filler {
        type: "gaussian"
        mean: 0
        std: 0.01
      }
      bias_filler {
        type: "constant"
      }
    }
  }
  layer {
    name: "rpn_big_loss_bbox"
    type: "Python"
    bottom: "rpn_big_bbox_pred"
    bottom: "rpn_big_anchor_target_bbox_targets"
    bottom: "rpn_big_anchor_target_inside_weights"
    bottom: "rpn_big_anchor_target_outside_weights"
    top: "rpn_big_loss_bbox"
    loss_weight: 1
    python_param {
      module: "layers.smooth_l1_loss"
      layer: "SmoothL1LossLayer"
      param_str: "{\"sigma\": 3}"
    }
  }
  layer {
    name: "MyLoss"
    type: "InnerProduct"
    bottom: "conv3_1"
    top: "MyLoss"
  }
}
average_loss: 100
stepvalue: 70000
stepvalue: 120000
iter_size: 2
I0412 20:26:28.271795  4405 solver.cpp:86] Creating training net specified in net_param.
I0412 20:26:28.272153  4405 net.cpp:58] Initializing net from parameters: 
name: "GeneratedModel_12_04_2017_20_26"
state {
  phase: TRAIN
}
layer {
  name: "input"
  type: "Python"
  top: "input_data"
  top: "input_im_info"
  top: "input_gt_boxes"
  top: "input_ignored_boxes"
  python_param {
    module: "layers.roi_data_layer"
    layer: "RoIDataLayer"
    param_str: "{\"num_classes\": 2}"
  }
}
layer {
  name: "conv1_1"
  type: "Convolution"
  bottom: "input_data"
  top: "conv1_1"
  param {
    lr_mult: 0
    decay_mult: 0
  }
  param {
    lr_mult: 0
    decay_mult: 0
  }
  convolution_param {
    num_output: 64
    pad: 1
    kernel_size: 3
  }
}
layer {
  name: "relu1_1"
  type: "ReLU"
  bottom: "conv1_1"
  top: "conv1_1"
}
layer {
  name: "conv1_2"
  type: "Convolution"
  bottom: "conv1_1"
  top: "conv1_2"
  param {
    lr_mult: 0
    decay_mult: 0
  }
  param {
    lr_mult: 0
    decay_mult: 0
  }
  convolution_param {
    num_output: 64
    pad: 1
    kernel_size: 3
  }
}
layer {
  name: "relu1_2"
  type: "ReLU"
  bottom: "conv1_2"
  top: "conv1_2"
}
layer {
  name: "pool1"
  type: "Pooling"
  bottom: "conv1_2"
  top: "pool1"
  pooling_param {
    pool: MAX
    kernel_size: 2
    stride: 2
  }
}
layer {
  name: "conv2_1"
  type: "Convolution"
  bottom: "pool1"
  top: "conv2_1"
  param {
    lr_mult: 0
    decay_mult: 0
  }
  param {
    lr_mult: 0
    decay_mult: 0
  }
  convolution_param {
    num_output: 128
    pad: 1
    kernel_size: 3
  }
}
layer {
  name: "relu2_1"
  type: "ReLU"
  bottom: "conv2_1"
  top: "conv2_1"
}
layer {
  name: "conv2_2"
  type: "Convolution"
  bottom: "conv2_1"
  top: "conv2_2"
  param {
    lr_mult: 0
    decay_mult: 0
  }
  param {
    lr_mult: 0
    decay_mult: 0
  }
  convolution_param {
    num_output: 128
    pad: 1
    kernel_size: 3
  }
}
layer {
  name: "relu2_2"
  type: "ReLU"
  bottom: "conv2_2"
  top: "conv2_2"
}
layer {
  name: "pool2"
  type: "Pooling"
  bottom: "conv2_2"
  top: "pool2"
  pooling_param {
    pool: MAX
    kernel_size: 2
    stride: 2
  }
}
layer {
  name: "conv3_1"
  type: "Convolution"
  bottom: "pool2"
  top: "conv3_1"
  param {
    lr_mult: 1
  }
  param {
    lr_mult: 2
  }
  convolution_param {
    num_output: 256
    pad: 1
    kernel_size: 3
  }
}
layer {
  name: "relu3_1"
  type: "ReLU"
  bottom: "conv3_1"
  top: "conv3_1"
}
layer {
  name: "conv3_2"
  type: "Convolution"
  bottom: "conv3_1"
  top: "conv3_2"
  param {
    lr_mult: 1
  }
  param {
    lr_mult: 2
  }
  convolution_param {
    num_output: 256
    pad: 1
    kernel_size: 3
  }
}
layer {
  name: "relu3_2"
  type: "ReLU"
  bottom: "conv3_2"
  top: "conv3_2"
}
layer {
  name: "conv3_3"
  type: "Convolution"
  bottom: "conv3_2"
  top: "conv3_3"
  param {
    lr_mult: 1
  }
  param {
    lr_mult: 2
  }
  convolution_param {
    num_output: 256
    pad: 1
    kernel_size: 3
  }
}
layer {
  name: "relu3_3"
  type: "ReLU"
  bottom: "conv3_3"
  top: "conv3_3"
}
layer {
  name: "pool3"
  type: "Pooling"
  bottom: "conv3_3"
  top: "pool3"
  pooling_param {
    pool: MAX
    kernel_size: 2
    stride: 2
  }
}
layer {
  name: "conv4_1"
  type: "Convolution"
  bottom: "pool3"
  top: "conv4_1"
  param {
    lr_mult: 1
  }
  param {
    lr_mult: 2
  }
  convolution_param {
    num_output: 512
    pad: 1
    kernel_size: 3
  }
}
layer {
  name: "relu4_1"
  type: "ReLU"
  bottom: "conv4_1"
  top: "conv4_1"
}
layer {
  name: "conv4_2"
  type: "Convolution"
  bottom: "conv4_1"
  top: "conv4_2"
  param {
    lr_mult: 1
  }
  param {
    lr_mult: 2
  }
  convolution_param {
    num_output: 512
    pad: 1
    kernel_size: 3
  }
}
layer {
  name: "relu4_2"
  type: "ReLU"
  bottom: "conv4_2"
  top: "conv4_2"
}
layer {
  name: "conv4_3"
  type: "Convolution"
  bottom: "conv4_2"
  top: "conv4_3"
  param {
    lr_mult: 1
  }
  param {
    lr_mult: 2
  }
  convolution_param {
    num_output: 512
    pad: 1
    kernel_size: 3
  }
}
layer {
  name: "relu4_3"
  type: "ReLU"
  bottom: "conv4_3"
  top: "conv4_3"
}
layer {
  name: "pool4"
  type: "Pooling"
  bottom: "conv4_3"
  top: "pool4"
  pooling_param {
    pool: MAX
    kernel_size: 2
    stride: 2
  }
}
layer {
  name: "conv5_1"
  type: "Convolution"
  bottom: "pool4"
  top: "conv5_1"
  param {
    lr_mult: 1
  }
  param {
    lr_mult: 2
  }
  convolution_param {
    num_output: 512
    pad: 1
    kernel_size: 3
  }
}
layer {
  name: "relu5_1"
  type: "ReLU"
  bottom: "conv5_1"
  top: "conv5_1"
}
layer {
  name: "conv5_2"
  type: "Convolution"
  bottom: "conv5_1"
  top: "conv5_2"
  param {
    lr_mult: 1
  }
  param {
    lr_mult: 2
  }
  convolution_param {
    num_output: 512
    pad: 1
    kernel_size: 3
  }
}
layer {
  name: "relu5_2"
  type: "ReLU"
  bottom: "conv5_2"
  top: "conv5_2"
}
layer {
  name: "conv5_3"
  type: "Convolution"
  bottom: "conv5_2"
  top: "conv5_3"
  param {
    lr_mult: 1
  }
  param {
    lr_mult: 2
  }
  convolution_param {
    num_output: 512
    pad: 1
    kernel_size: 3
  }
}
layer {
  name: "relu5_3"
  type: "ReLU"
  bottom: "conv5_3"
  top: "conv5_3"
}
layer {
  name: "rpn_big_conv1"
  type: "Convolution"
  bottom: "conv5_3"
  top: "rpn_big_conv1"
  param {
    lr_mult: 1
  }
  param {
    lr_mult: 2
  }
  convolution_param {
    num_output: 512
    pad: 1
    kernel_size: 3
    stride: 1
    weight_filler {
      type: "gaussian"
      mean: 0
      std: 0.01
    }
    bias_filler {
      type: "constant"
    }
  }
}
layer {
  name: "rpn_big_conv1_relu"
  type: "ReLU"
  bottom: "rpn_big_conv1"
  top: "rpn_big_conv1"
  relu_param {
    negative_slope: 0
  }
}
layer {
  name: "rpn_big_conv2"
  type: "Convolution"
  bottom: "rpn_big_conv1"
  top: "rpn_big_conv2"
  param {
    lr_mult: 1
  }
  param {
    lr_mult: 2
  }
  convolution_param {
    num_output: 512
    pad: 1
    kernel_size: 3
    stride: 1
    weight_filler {
      type: "gaussian"
      mean: 0
      std: 0.01
    }
    bias_filler {
      type: "constant"
    }
  }
}
layer {
  name: "rpn_big_conv2_relu"
  type: "ReLU"
  bottom: "rpn_big_conv2"
  top: "rpn_big_conv2"
  relu_param {
    negative_slope: 0
  }
}
layer {
  name: "rpn_big_conv2_drop"
  type: "Dropout"
  bottom: "rpn_big_conv2"
  top: "rpn_big_conv2"
  dropout_param {
    dropout_ratio: 0.3
  }
}
layer {
  name: "rpn_big_output_cls"
  type: "Convolution"
  bottom: "rpn_big_conv2"
  top: "rpn_big_output_cls"
  param {
    lr_mult: 1
  }
  param {
    lr_mult: 2
  }
  convolution_param {
    num_output: 384
    pad: 1
    kernel_size: 3
    stride: 1
    weight_filler {
      type: "gaussian"
      mean: 0
      std: 0.01
    }
    bias_filler {
      type: "constant"
    }
  }
}
layer {
  name: "rpn_big_output_cls_relu"
  type: "ReLU"
  bottom: "rpn_big_output_cls"
  top: "rpn_big_output_cls"
  relu_param {
    negative_slope: 0
  }
}
layer {
  name: "rpn_big_cls_score"
  type: "Convolution"
  bottom: "rpn_big_output_cls"
  top: "rpn_big_cls_score"
  param {
    lr_mult: 1
  }
  param {
    lr_mult: 2
  }
  convolution_param {
    num_output: 52
    pad: 0
    kernel_size: 3
    stride: 1
    weight_filler {
      type: "gaussian"
      mean: 0
      std: 0.01
    }
    bias_filler {
      type: "constant"
    }
  }
}
layer {
  name: "rpn_big_cls_score_reshape"
  type: "Reshape"
  bottom: "rpn_big_cls_score"
  top: "rpn_big_cls_score_reshape"
  reshape_param {
    shape {
      dim: 0
      dim: 2
      dim: -1
      dim: 0
    }
  }
}
layer {
  name: "rpn_big_cls_prob"
  type: "Softmax"
  bottom: "rpn_big_cls_score_reshape"
  top: "rpn_big_cls_prob"
}
layer {
  name: "rpn_big_cls_prob_reshape"
  type: "Reshape"
  bottom: "rpn_big_cls_prob"
  top: "rpn_big_cls_prob_reshape"
  reshape_param {
    shape {
      dim: 0
      dim: 52
      dim: -1
      dim: 0
    }
  }
}
layer {
  name: "rpn_big_anchor_target"
  type: "Python"
  bottom: "rpn_big_cls_score"
  bottom: "input_gt_boxes"
  bottom: "input_ignored_boxes"
  bottom: "input_im_info"
  bottom: "input_data"
  bottom: "rpn_big_cls_prob_reshape"
  top: "rpn_big_anchor_target_labels"
  top: "rpn_big_anchor_target_bbox_targets"
  top: "rpn_big_anchor_target_inside_weights"
  top: "rpn_big_anchor_target_outside_weights"
  python_param {
    module: "rpn.anchor_target_layer"
    layer: "AnchorTargetLayer"
    param_str: "{\"num_classes\": 1, \"name\": \"rpn_big\", \"batchsize\": 256, \"tn_fraction\": 0.2, \"positive_overlap\": 0.6, \"square_targets\": true, \"fg_fraction\": 0.5, \"anchor_shift_num_xy\": [[2, 2], [2, 2], [2, 2], [2, 2], [1, 1], [1, 1], [1, 1], [1, 1], [1, 1], [1, 1], [1, 1], [1, 1], [1, 1], [1, 1]], \"anchor_ratios\": [1.0], \"feat_stride\": 16, \"negative_overlap\": 0.4, \"anchor_scales\": [2.5, 3.025, 3.66025, 4.4289024999999995, 5.358972025, 6.484356150249999, 7.846070941802498, 9.493745839581022, 11.487432465893036, 13.899793283730574, 16.818749873313998, 20.350687346709933, 24.62433168951902, 29.795441344318014]}"
  }
}
layer {
  name: "rpn_big_loss_cls"
  type: "SoftmaxWithLoss"
  bottom: "rpn_big_cls_score_reshape"
  bottom: "rpn_big_anchor_target_labels"
  top: "rpn_big_loss_cls"
  loss_weight: 1
  propagate_down: true
  propagate_down: false
  loss_param {
    ignore_label: -1
    normalization: VALID
  }
}
layer {
  name: "rpn_big_output_box"
  type: "Convolution"
  bottom: "rpn_big_conv2"
  top: "rpn_big_output_box"
  param {
    lr_mult: 1
  }
  param {
    lr_mult: 2
  }
  convolution_param {
    num_output: 384
    pad: 1
    kernel_size: 3
    stride: 1
    weight_filler {
      type: "gaussian"
      mean: 0
      std: 0.01
    }
    bias_filler {
      type: "constant"
    }
  }
}
layer {
  name: "rpn_big_output_box_relu"
  type: "ReLU"
  bottom: "rpn_big_output_box"
  top: "rpn_big_output_box"
  relu_param {
    negative_slope: 0
  }
}
layer {
  name: "rpn_big_bbox_pred"
  type: "Convolution"
  bottom: "rpn_big_output_box"
  top: "rpn_big_bbox_pred"
  param {
    lr_mult: 1
  }
  param {
    lr_mult: 2
  }
  convolution_param {
    num_output: 104
    pad: 0
    kernel_size: 3
    stride: 1
    weight_filler {
      type: "gaussian"
      mean: 0
      std: 0.01
    }
    bias_filler {
      type: "constant"
    }
  }
}
layer {
  name: "rpn_big_loss_bbox"
  type: "Python"
  bottom: "rpn_big_bbox_pred"
  bottom: "rpn_big_anchor_target_bbox_targets"
  bottom: "rpn_big_anchor_target_inside_weights"
  bottom: "rpn_big_anchor_target_outside_weights"
  top: "rpn_big_loss_bbox"
  loss_weight: 1
  python_param {
    module: "layers.smooth_l1_loss"
    layer: "SmoothL1LossLayer"
    param_str: "{\"sigma\": 3}"
  }
}
layer {
  name: "MyLoss"
  type: "InnerProduct"
  bottom: "conv3_1"
  top: "MyLoss"
}
I0412 20:26:28.272320  4405 layer_factory.hpp:77] Creating layer input
I0412 20:26:28.273582  4405 net.cpp:100] Creating Layer input
I0412 20:26:28.273597  4405 net.cpp:408] input -> input_data
I0412 20:26:28.273608  4405 net.cpp:408] input -> input_im_info
I0412 20:26:28.273615  4405 net.cpp:408] input -> input_gt_boxes
I0412 20:26:28.273623  4405 net.cpp:408] input -> input_ignored_boxes
RoiDataLayer: name_to_top: {'im_info': 1, 'data': 0, 'gt_boxes': 2, 'ignored_boxes': 3}
I0412 20:26:28.610697  4405 net.cpp:150] Setting up input
I0412 20:26:28.610733  4405 net.cpp:157] Top shape: 1 3 1000 1500 (4500000)
I0412 20:26:28.610744  4405 net.cpp:157] Top shape: 1 3 (3)
I0412 20:26:28.610756  4405 net.cpp:157] Top shape: 1 5 (5)
I0412 20:26:28.610766  4405 net.cpp:157] Top shape: 1 5 (5)
I0412 20:26:28.610774  4405 net.cpp:165] Memory required for data: 18000052
I0412 20:26:28.610783  4405 layer_factory.hpp:77] Creating layer input_data_input_0_split
I0412 20:26:28.610801  4405 net.cpp:100] Creating Layer input_data_input_0_split
I0412 20:26:28.610816  4405 net.cpp:434] input_data_input_0_split <- input_data
I0412 20:26:28.610828  4405 net.cpp:408] input_data_input_0_split -> input_data_input_0_split_0
I0412 20:26:28.610848  4405 net.cpp:408] input_data_input_0_split -> input_data_input_0_split_1
I0412 20:26:28.610898  4405 net.cpp:150] Setting up input_data_input_0_split
I0412 20:26:28.610908  4405 net.cpp:157] Top shape: 1 3 1000 1500 (4500000)
I0412 20:26:28.610916  4405 net.cpp:157] Top shape: 1 3 1000 1500 (4500000)
I0412 20:26:28.610922  4405 net.cpp:165] Memory required for data: 54000052
I0412 20:26:28.610929  4405 layer_factory.hpp:77] Creating layer conv1_1
I0412 20:26:28.610949  4405 net.cpp:100] Creating Layer conv1_1
I0412 20:26:28.610957  4405 net.cpp:434] conv1_1 <- input_data_input_0_split_0
I0412 20:26:28.610968  4405 net.cpp:408] conv1_1 -> conv1_1
I0412 20:26:28.614061  4405 net.cpp:150] Setting up conv1_1
I0412 20:26:28.614099  4405 net.cpp:157] Top shape: 1 64 1000 1500 (96000000)
I0412 20:26:28.614104  4405 net.cpp:165] Memory required for data: 438000052
I0412 20:26:28.614128  4405 layer_factory.hpp:77] Creating layer relu1_1
I0412 20:26:28.614146  4405 net.cpp:100] Creating Layer relu1_1
I0412 20:26:28.614154  4405 net.cpp:434] relu1_1 <- conv1_1
I0412 20:26:28.614166  4405 net.cpp:395] relu1_1 -> conv1_1 (in-place)
I0412 20:26:28.614183  4405 net.cpp:150] Setting up relu1_1
I0412 20:26:28.614194  4405 net.cpp:157] Top shape: 1 64 1000 1500 (96000000)
I0412 20:26:28.614200  4405 net.cpp:165] Memory required for data: 822000052
I0412 20:26:28.614207  4405 layer_factory.hpp:77] Creating layer conv1_2
I0412 20:26:28.614224  4405 net.cpp:100] Creating Layer conv1_2
I0412 20:26:28.614231  4405 net.cpp:434] conv1_2 <- conv1_1
I0412 20:26:28.614243  4405 net.cpp:408] conv1_2 -> conv1_2
I0412 20:26:28.617559  4405 net.cpp:150] Setting up conv1_2
I0412 20:26:28.617599  4405 net.cpp:157] Top shape: 1 64 1000 1500 (96000000)
I0412 20:26:28.617605  4405 net.cpp:165] Memory required for data: 1206000052
I0412 20:26:28.617629  4405 layer_factory.hpp:77] Creating layer relu1_2
I0412 20:26:28.617643  4405 net.cpp:100] Creating Layer relu1_2
I0412 20:26:28.617651  4405 net.cpp:434] relu1_2 <- conv1_2
I0412 20:26:28.617663  4405 net.cpp:395] relu1_2 -> conv1_2 (in-place)
I0412 20:26:28.617678  4405 net.cpp:150] Setting up relu1_2
I0412 20:26:28.617687  4405 net.cpp:157] Top shape: 1 64 1000 1500 (96000000)
I0412 20:26:28.617693  4405 net.cpp:165] Memory required for data: 1590000052
I0412 20:26:28.617699  4405 layer_factory.hpp:77] Creating layer pool1
I0412 20:26:28.617712  4405 net.cpp:100] Creating Layer pool1
I0412 20:26:28.617718  4405 net.cpp:434] pool1 <- conv1_2
I0412 20:26:28.617728  4405 net.cpp:408] pool1 -> pool1
I0412 20:26:28.617854  4405 net.cpp:150] Setting up pool1
I0412 20:26:28.617868  4405 net.cpp:157] Top shape: 1 64 500 750 (24000000)
I0412 20:26:28.617874  4405 net.cpp:165] Memory required for data: 1686000052
I0412 20:26:28.617880  4405 layer_factory.hpp:77] Creating layer conv2_1
I0412 20:26:28.617899  4405 net.cpp:100] Creating Layer conv2_1
I0412 20:26:28.617908  4405 net.cpp:434] conv2_1 <- pool1
I0412 20:26:28.617920  4405 net.cpp:408] conv2_1 -> conv2_1
I0412 20:26:28.619325  4405 net.cpp:150] Setting up conv2_1
I0412 20:26:28.619360  4405 net.cpp:157] Top shape: 1 128 500 750 (48000000)
I0412 20:26:28.619365  4405 net.cpp:165] Memory required for data: 1878000052
I0412 20:26:28.619392  4405 layer_factory.hpp:77] Creating layer relu2_1
I0412 20:26:28.619410  4405 net.cpp:100] Creating Layer relu2_1
I0412 20:26:28.619416  4405 net.cpp:434] relu2_1 <- conv2_1
I0412 20:26:28.619428  4405 net.cpp:395] relu2_1 -> conv2_1 (in-place)
I0412 20:26:28.619441  4405 net.cpp:150] Setting up relu2_1
I0412 20:26:28.619451  4405 net.cpp:157] Top shape: 1 128 500 750 (48000000)
I0412 20:26:28.619455  4405 net.cpp:165] Memory required for data: 2070000052
I0412 20:26:28.619460  4405 layer_factory.hpp:77] Creating layer conv2_2
I0412 20:26:28.619472  4405 net.cpp:100] Creating Layer conv2_2
I0412 20:26:28.619480  4405 net.cpp:434] conv2_2 <- conv2_1
I0412 20:26:28.619489  4405 net.cpp:408] conv2_2 -> conv2_2
I0412 20:26:28.620566  4405 net.cpp:150] Setting up conv2_2
I0412 20:26:28.620591  4405 net.cpp:157] Top shape: 1 128 500 750 (48000000)
I0412 20:26:28.620595  4405 net.cpp:165] Memory required for data: 2262000052
I0412 20:26:28.620606  4405 layer_factory.hpp:77] Creating layer relu2_2
I0412 20:26:28.620620  4405 net.cpp:100] Creating Layer relu2_2
I0412 20:26:28.620627  4405 net.cpp:434] relu2_2 <- conv2_2
I0412 20:26:28.620637  4405 net.cpp:395] relu2_2 -> conv2_2 (in-place)
I0412 20:26:28.620648  4405 net.cpp:150] Setting up relu2_2
I0412 20:26:28.620658  4405 net.cpp:157] Top shape: 1 128 500 750 (48000000)
I0412 20:26:28.620663  4405 net.cpp:165] Memory required for data: 2454000052
I0412 20:26:28.620668  4405 layer_factory.hpp:77] Creating layer pool2
I0412 20:26:28.620679  4405 net.cpp:100] Creating Layer pool2
I0412 20:26:28.620687  4405 net.cpp:434] pool2 <- conv2_2
I0412 20:26:28.620695  4405 net.cpp:408] pool2 -> pool2
I0412 20:26:28.620753  4405 net.cpp:150] Setting up pool2
I0412 20:26:28.620764  4405 net.cpp:157] Top shape: 1 128 250 375 (12000000)
I0412 20:26:28.620769  4405 net.cpp:165] Memory required for data: 2502000052
I0412 20:26:28.620777  4405 layer_factory.hpp:77] Creating layer conv3_1
I0412 20:26:28.620791  4405 net.cpp:100] Creating Layer conv3_1
I0412 20:26:28.620798  4405 net.cpp:434] conv3_1 <- pool2
I0412 20:26:28.620810  4405 net.cpp:408] conv3_1 -> conv3_1
I0412 20:26:28.622084  4405 net.cpp:150] Setting up conv3_1
I0412 20:26:28.622110  4405 net.cpp:157] Top shape: 1 256 250 375 (24000000)
I0412 20:26:28.622114  4405 net.cpp:165] Memory required for data: 2598000052
I0412 20:26:28.622135  4405 layer_factory.hpp:77] Creating layer relu3_1
I0412 20:26:28.622148  4405 net.cpp:100] Creating Layer relu3_1
I0412 20:26:28.622156  4405 net.cpp:434] relu3_1 <- conv3_1
I0412 20:26:28.622167  4405 net.cpp:395] relu3_1 -> conv3_1 (in-place)
I0412 20:26:28.622180  4405 net.cpp:150] Setting up relu3_1
I0412 20:26:28.622189  4405 net.cpp:157] Top shape: 1 256 250 375 (24000000)
I0412 20:26:28.622195  4405 net.cpp:165] Memory required for data: 2694000052
I0412 20:26:28.622201  4405 layer_factory.hpp:77] Creating layer conv3_1_relu3_1_0_split
I0412 20:26:28.622210  4405 net.cpp:100] Creating Layer conv3_1_relu3_1_0_split
I0412 20:26:28.622215  4405 net.cpp:434] conv3_1_relu3_1_0_split <- conv3_1
I0412 20:26:28.622228  4405 net.cpp:408] conv3_1_relu3_1_0_split -> conv3_1_relu3_1_0_split_0
I0412 20:26:28.622241  4405 net.cpp:408] conv3_1_relu3_1_0_split -> conv3_1_relu3_1_0_split_1
I0412 20:26:28.622292  4405 net.cpp:150] Setting up conv3_1_relu3_1_0_split
I0412 20:26:28.622303  4405 net.cpp:157] Top shape: 1 256 250 375 (24000000)
I0412 20:26:28.622310  4405 net.cpp:157] Top shape: 1 256 250 375 (24000000)
I0412 20:26:28.622316  4405 net.cpp:165] Memory required for data: 2886000052
I0412 20:26:28.622321  4405 layer_factory.hpp:77] Creating layer conv3_2
I0412 20:26:28.622335  4405 net.cpp:100] Creating Layer conv3_2
I0412 20:26:28.622344  4405 net.cpp:434] conv3_2 <- conv3_1_relu3_1_0_split_0
I0412 20:26:28.622354  4405 net.cpp:408] conv3_2 -> conv3_2
I0412 20:26:28.623755  4405 net.cpp:150] Setting up conv3_2
I0412 20:26:28.623803  4405 net.cpp:157] Top shape: 1 256 250 375 (24000000)
I0412 20:26:28.623807  4405 net.cpp:165] Memory required for data: 2982000052
I0412 20:26:28.623821  4405 layer_factory.hpp:77] Creating layer relu3_2
I0412 20:26:28.623841  4405 net.cpp:100] Creating Layer relu3_2
I0412 20:26:28.623848  4405 net.cpp:434] relu3_2 <- conv3_2
I0412 20:26:28.623859  4405 net.cpp:395] relu3_2 -> conv3_2 (in-place)
I0412 20:26:28.623872  4405 net.cpp:150] Setting up relu3_2
I0412 20:26:28.623880  4405 net.cpp:157] Top shape: 1 256 250 375 (24000000)
I0412 20:26:28.623886  4405 net.cpp:165] Memory required for data: 3078000052
I0412 20:26:28.623891  4405 layer_factory.hpp:77] Creating layer conv3_3
I0412 20:26:28.623905  4405 net.cpp:100] Creating Layer conv3_3
I0412 20:26:28.623913  4405 net.cpp:434] conv3_3 <- conv3_2
I0412 20:26:28.623924  4405 net.cpp:408] conv3_3 -> conv3_3
I0412 20:26:28.625591  4405 net.cpp:150] Setting up conv3_3
I0412 20:26:28.625622  4405 net.cpp:157] Top shape: 1 256 250 375 (24000000)
I0412 20:26:28.625627  4405 net.cpp:165] Memory required for data: 3174000052
I0412 20:26:28.625640  4405 layer_factory.hpp:77] Creating layer relu3_3
I0412 20:26:28.625655  4405 net.cpp:100] Creating Layer relu3_3
I0412 20:26:28.625664  4405 net.cpp:434] relu3_3 <- conv3_3
I0412 20:26:28.625676  4405 net.cpp:395] relu3_3 -> conv3_3 (in-place)
I0412 20:26:28.625692  4405 net.cpp:150] Setting up relu3_3
I0412 20:26:28.625700  4405 net.cpp:157] Top shape: 1 256 250 375 (24000000)
I0412 20:26:28.625705  4405 net.cpp:165] Memory required for data: 3270000052
I0412 20:26:28.625711  4405 layer_factory.hpp:77] Creating layer pool3
I0412 20:26:28.625720  4405 net.cpp:100] Creating Layer pool3
I0412 20:26:28.625726  4405 net.cpp:434] pool3 <- conv3_3
I0412 20:26:28.625735  4405 net.cpp:408] pool3 -> pool3
I0412 20:26:28.625797  4405 net.cpp:150] Setting up pool3
I0412 20:26:28.625808  4405 net.cpp:157] Top shape: 1 256 125 188 (6016000)
I0412 20:26:28.625813  4405 net.cpp:165] Memory required for data: 3294064052
I0412 20:26:28.625821  4405 layer_factory.hpp:77] Creating layer conv4_1
I0412 20:26:28.625836  4405 net.cpp:100] Creating Layer conv4_1
I0412 20:26:28.625844  4405 net.cpp:434] conv4_1 <- pool3
I0412 20:26:28.625854  4405 net.cpp:408] conv4_1 -> conv4_1
I0412 20:26:28.628676  4405 net.cpp:150] Setting up conv4_1
I0412 20:26:28.628710  4405 net.cpp:157] Top shape: 1 512 125 188 (12032000)
I0412 20:26:28.628712  4405 net.cpp:165] Memory required for data: 3342192052
I0412 20:26:28.628724  4405 layer_factory.hpp:77] Creating layer relu4_1
I0412 20:26:28.628738  4405 net.cpp:100] Creating Layer relu4_1
I0412 20:26:28.628746  4405 net.cpp:434] relu4_1 <- conv4_1
I0412 20:26:28.628759  4405 net.cpp:395] relu4_1 -> conv4_1 (in-place)
I0412 20:26:28.628773  4405 net.cpp:150] Setting up relu4_1
I0412 20:26:28.628782  4405 net.cpp:157] Top shape: 1 512 125 188 (12032000)
I0412 20:26:28.628787  4405 net.cpp:165] Memory required for data: 3390320052
I0412 20:26:28.628793  4405 layer_factory.hpp:77] Creating layer conv4_2
I0412 20:26:28.628805  4405 net.cpp:100] Creating Layer conv4_2
I0412 20:26:28.628813  4405 net.cpp:434] conv4_2 <- conv4_1
I0412 20:26:28.628823  4405 net.cpp:408] conv4_2 -> conv4_2
I0412 20:26:28.633096  4405 net.cpp:150] Setting up conv4_2
I0412 20:26:28.633133  4405 net.cpp:157] Top shape: 1 512 125 188 (12032000)
I0412 20:26:28.633136  4405 net.cpp:165] Memory required for data: 3438448052
I0412 20:26:28.633157  4405 layer_factory.hpp:77] Creating layer relu4_2
I0412 20:26:28.633170  4405 net.cpp:100] Creating Layer relu4_2
I0412 20:26:28.633179  4405 net.cpp:434] relu4_2 <- conv4_2
I0412 20:26:28.633190  4405 net.cpp:395] relu4_2 -> conv4_2 (in-place)
I0412 20:26:28.633204  4405 net.cpp:150] Setting up relu4_2
I0412 20:26:28.633213  4405 net.cpp:157] Top shape: 1 512 125 188 (12032000)
I0412 20:26:28.633219  4405 net.cpp:165] Memory required for data: 3486576052
I0412 20:26:28.633224  4405 layer_factory.hpp:77] Creating layer conv4_3
I0412 20:26:28.633239  4405 net.cpp:100] Creating Layer conv4_3
I0412 20:26:28.633244  4405 net.cpp:434] conv4_3 <- conv4_2
I0412 20:26:28.633254  4405 net.cpp:408] conv4_3 -> conv4_3
I0412 20:26:28.637717  4405 net.cpp:150] Setting up conv4_3
I0412 20:26:28.637754  4405 net.cpp:157] Top shape: 1 512 125 188 (12032000)
I0412 20:26:28.637758  4405 net.cpp:165] Memory required for data: 3534704052
I0412 20:26:28.637768  4405 layer_factory.hpp:77] Creating layer relu4_3
I0412 20:26:28.637779  4405 net.cpp:100] Creating Layer relu4_3
I0412 20:26:28.637786  4405 net.cpp:434] relu4_3 <- conv4_3
I0412 20:26:28.637800  4405 net.cpp:395] relu4_3 -> conv4_3 (in-place)
I0412 20:26:28.637814  4405 net.cpp:150] Setting up relu4_3
I0412 20:26:28.637822  4405 net.cpp:157] Top shape: 1 512 125 188 (12032000)
I0412 20:26:28.637826  4405 net.cpp:165] Memory required for data: 3582832052
I0412 20:26:28.637831  4405 layer_factory.hpp:77] Creating layer pool4
I0412 20:26:28.637840  4405 net.cpp:100] Creating Layer pool4
I0412 20:26:28.637846  4405 net.cpp:434] pool4 <- conv4_3
I0412 20:26:28.637856  4405 net.cpp:408] pool4 -> pool4
I0412 20:26:28.637905  4405 net.cpp:150] Setting up pool4
I0412 20:26:28.637919  4405 net.cpp:157] Top shape: 1 512 63 94 (3032064)
I0412 20:26:28.637924  4405 net.cpp:165] Memory required for data: 3594960308
I0412 20:26:28.637928  4405 layer_factory.hpp:77] Creating layer conv5_1
I0412 20:26:28.637941  4405 net.cpp:100] Creating Layer conv5_1
I0412 20:26:28.637948  4405 net.cpp:434] conv5_1 <- pool4
I0412 20:26:28.637959  4405 net.cpp:408] conv5_1 -> conv5_1
I0412 20:26:28.642839  4405 net.cpp:150] Setting up conv5_1
I0412 20:26:28.642873  4405 net.cpp:157] Top shape: 1 512 63 94 (3032064)
I0412 20:26:28.642885  4405 net.cpp:165] Memory required for data: 3607088564
I0412 20:26:28.642895  4405 layer_factory.hpp:77] Creating layer relu5_1
I0412 20:26:28.642906  4405 net.cpp:100] Creating Layer relu5_1
I0412 20:26:28.642911  4405 net.cpp:434] relu5_1 <- conv5_1
I0412 20:26:28.642921  4405 net.cpp:395] relu5_1 -> conv5_1 (in-place)
I0412 20:26:28.642935  4405 net.cpp:150] Setting up relu5_1
I0412 20:26:28.642945  4405 net.cpp:157] Top shape: 1 512 63 94 (3032064)
I0412 20:26:28.642949  4405 net.cpp:165] Memory required for data: 3619216820
I0412 20:26:28.642954  4405 layer_factory.hpp:77] Creating layer conv5_2
I0412 20:26:28.642966  4405 net.cpp:100] Creating Layer conv5_2
I0412 20:26:28.642972  4405 net.cpp:434] conv5_2 <- conv5_1
I0412 20:26:28.642982  4405 net.cpp:408] conv5_2 -> conv5_2
I0412 20:26:28.647312  4405 net.cpp:150] Setting up conv5_2
I0412 20:26:28.647344  4405 net.cpp:157] Top shape: 1 512 63 94 (3032064)
I0412 20:26:28.647348  4405 net.cpp:165] Memory required for data: 3631345076
I0412 20:26:28.647361  4405 layer_factory.hpp:77] Creating layer relu5_2
I0412 20:26:28.647374  4405 net.cpp:100] Creating Layer relu5_2
I0412 20:26:28.647383  4405 net.cpp:434] relu5_2 <- conv5_2
I0412 20:26:28.647397  4405 net.cpp:395] relu5_2 -> conv5_2 (in-place)
I0412 20:26:28.647411  4405 net.cpp:150] Setting up relu5_2
I0412 20:26:28.647420  4405 net.cpp:157] Top shape: 1 512 63 94 (3032064)
I0412 20:26:28.647425  4405 net.cpp:165] Memory required for data: 3643473332
I0412 20:26:28.647429  4405 layer_factory.hpp:77] Creating layer conv5_3
I0412 20:26:28.647441  4405 net.cpp:100] Creating Layer conv5_3
I0412 20:26:28.647449  4405 net.cpp:434] conv5_3 <- conv5_2
I0412 20:26:28.647460  4405 net.cpp:408] conv5_3 -> conv5_3
I0412 20:26:28.651983  4405 net.cpp:150] Setting up conv5_3
I0412 20:26:28.652019  4405 net.cpp:157] Top shape: 1 512 63 94 (3032064)
I0412 20:26:28.652022  4405 net.cpp:165] Memory required for data: 3655601588
I0412 20:26:28.652034  4405 layer_factory.hpp:77] Creating layer relu5_3
I0412 20:26:28.652057  4405 net.cpp:100] Creating Layer relu5_3
I0412 20:26:28.652068  4405 net.cpp:434] relu5_3 <- conv5_3
I0412 20:26:28.652081  4405 net.cpp:395] relu5_3 -> conv5_3 (in-place)
I0412 20:26:28.652096  4405 net.cpp:150] Setting up relu5_3
I0412 20:26:28.652106  4405 net.cpp:157] Top shape: 1 512 63 94 (3032064)
I0412 20:26:28.652112  4405 net.cpp:165] Memory required for data: 3667729844
I0412 20:26:28.652117  4405 layer_factory.hpp:77] Creating layer rpn_big_conv1
I0412 20:26:28.652133  4405 net.cpp:100] Creating Layer rpn_big_conv1
I0412 20:26:28.652140  4405 net.cpp:434] rpn_big_conv1 <- conv5_3
I0412 20:26:28.652153  4405 net.cpp:408] rpn_big_conv1 -> rpn_big_conv1
I0412 20:26:28.677611  4405 net.cpp:150] Setting up rpn_big_conv1
I0412 20:26:28.677641  4405 net.cpp:157] Top shape: 1 512 63 94 (3032064)
I0412 20:26:28.677654  4405 net.cpp:165] Memory required for data: 3679858100
I0412 20:26:28.677664  4405 layer_factory.hpp:77] Creating layer rpn_big_conv1_relu
I0412 20:26:28.677675  4405 net.cpp:100] Creating Layer rpn_big_conv1_relu
I0412 20:26:28.677680  4405 net.cpp:434] rpn_big_conv1_relu <- rpn_big_conv1
I0412 20:26:28.677690  4405 net.cpp:395] rpn_big_conv1_relu -> rpn_big_conv1 (in-place)
I0412 20:26:28.677705  4405 net.cpp:150] Setting up rpn_big_conv1_relu
I0412 20:26:28.677713  4405 net.cpp:157] Top shape: 1 512 63 94 (3032064)
I0412 20:26:28.677718  4405 net.cpp:165] Memory required for data: 3691986356
I0412 20:26:28.677723  4405 layer_factory.hpp:77] Creating layer rpn_big_conv2
I0412 20:26:28.677738  4405 net.cpp:100] Creating Layer rpn_big_conv2
I0412 20:26:28.677745  4405 net.cpp:434] rpn_big_conv2 <- rpn_big_conv1
I0412 20:26:28.677755  4405 net.cpp:408] rpn_big_conv2 -> rpn_big_conv2
I0412 20:26:28.704319  4405 net.cpp:150] Setting up rpn_big_conv2
I0412 20:26:28.704349  4405 net.cpp:157] Top shape: 1 512 63 94 (3032064)
I0412 20:26:28.704362  4405 net.cpp:165] Memory required for data: 3704114612
I0412 20:26:28.704371  4405 layer_factory.hpp:77] Creating layer rpn_big_conv2_relu
I0412 20:26:28.704383  4405 net.cpp:100] Creating Layer rpn_big_conv2_relu
I0412 20:26:28.704388  4405 net.cpp:434] rpn_big_conv2_relu <- rpn_big_conv2
I0412 20:26:28.704398  4405 net.cpp:395] rpn_big_conv2_relu -> rpn_big_conv2 (in-place)
I0412 20:26:28.704413  4405 net.cpp:150] Setting up rpn_big_conv2_relu
I0412 20:26:28.704422  4405 net.cpp:157] Top shape: 1 512 63 94 (3032064)
I0412 20:26:28.704427  4405 net.cpp:165] Memory required for data: 3716242868
I0412 20:26:28.704432  4405 layer_factory.hpp:77] Creating layer rpn_big_conv2_drop
I0412 20:26:28.704442  4405 net.cpp:100] Creating Layer rpn_big_conv2_drop
I0412 20:26:28.704448  4405 net.cpp:434] rpn_big_conv2_drop <- rpn_big_conv2
I0412 20:26:28.704455  4405 net.cpp:395] rpn_big_conv2_drop -> rpn_big_conv2 (in-place)
I0412 20:26:28.704488  4405 net.cpp:150] Setting up rpn_big_conv2_drop
I0412 20:26:28.704497  4405 net.cpp:157] Top shape: 1 512 63 94 (3032064)
I0412 20:26:28.704504  4405 net.cpp:165] Memory required for data: 3728371124
I0412 20:26:28.704511  4405 layer_factory.hpp:77] Creating layer rpn_big_conv2_rpn_big_conv2_drop_0_split
I0412 20:26:28.704521  4405 net.cpp:100] Creating Layer rpn_big_conv2_rpn_big_conv2_drop_0_split
I0412 20:26:28.704527  4405 net.cpp:434] rpn_big_conv2_rpn_big_conv2_drop_0_split <- rpn_big_conv2
I0412 20:26:28.704537  4405 net.cpp:408] rpn_big_conv2_rpn_big_conv2_drop_0_split -> rpn_big_conv2_rpn_big_conv2_drop_0_split_0
I0412 20:26:28.704550  4405 net.cpp:408] rpn_big_conv2_rpn_big_conv2_drop_0_split -> rpn_big_conv2_rpn_big_conv2_drop_0_split_1
I0412 20:26:28.704597  4405 net.cpp:150] Setting up rpn_big_conv2_rpn_big_conv2_drop_0_split
I0412 20:26:28.704607  4405 net.cpp:157] Top shape: 1 512 63 94 (3032064)
I0412 20:26:28.704615  4405 net.cpp:157] Top shape: 1 512 63 94 (3032064)
I0412 20:26:28.704622  4405 net.cpp:165] Memory required for data: 3752627636
I0412 20:26:28.704627  4405 layer_factory.hpp:77] Creating layer rpn_big_output_cls
I0412 20:26:28.704643  4405 net.cpp:100] Creating Layer rpn_big_output_cls
I0412 20:26:28.704651  4405 net.cpp:434] rpn_big_output_cls <- rpn_big_conv2_rpn_big_conv2_drop_0_split_0
I0412 20:26:28.704664  4405 net.cpp:408] rpn_big_output_cls -> rpn_big_output_cls
I0412 20:26:28.724068  4405 net.cpp:150] Setting up rpn_big_output_cls
I0412 20:26:28.724107  4405 net.cpp:157] Top shape: 1 384 63 94 (2274048)
I0412 20:26:28.724112  4405 net.cpp:165] Memory required for data: 3761723828
I0412 20:26:28.724122  4405 layer_factory.hpp:77] Creating layer rpn_big_output_cls_relu
I0412 20:26:28.724133  4405 net.cpp:100] Creating Layer rpn_big_output_cls_relu
I0412 20:26:28.724138  4405 net.cpp:434] rpn_big_output_cls_relu <- rpn_big_output_cls
I0412 20:26:28.724149  4405 net.cpp:395] rpn_big_output_cls_relu -> rpn_big_output_cls (in-place)
I0412 20:26:28.724162  4405 net.cpp:150] Setting up rpn_big_output_cls_relu
I0412 20:26:28.724171  4405 net.cpp:157] Top shape: 1 384 63 94 (2274048)
I0412 20:26:28.724176  4405 net.cpp:165] Memory required for data: 3770820020
I0412 20:26:28.724181  4405 layer_factory.hpp:77] Creating layer rpn_big_cls_score
I0412 20:26:28.724196  4405 net.cpp:100] Creating Layer rpn_big_cls_score
I0412 20:26:28.724212  4405 net.cpp:434] rpn_big_cls_score <- rpn_big_output_cls
I0412 20:26:28.724231  4405 net.cpp:408] rpn_big_cls_score -> rpn_big_cls_score
I0412 20:26:28.726651  4405 net.cpp:150] Setting up rpn_big_cls_score
I0412 20:26:28.726667  4405 net.cpp:157] Top shape: 1 52 61 92 (291824)
I0412 20:26:28.726671  4405 net.cpp:165] Memory required for data: 3771987316
I0412 20:26:28.726691  4405 layer_factory.hpp:77] Creating layer rpn_big_cls_score_rpn_big_cls_score_0_split
I0412 20:26:28.726711  4405 net.cpp:100] Creating Layer rpn_big_cls_score_rpn_big_cls_score_0_split
I0412 20:26:28.726718  4405 net.cpp:434] rpn_big_cls_score_rpn_big_cls_score_0_split <- rpn_big_cls_score
I0412 20:26:28.726737  4405 net.cpp:408] rpn_big_cls_score_rpn_big_cls_score_0_split -> rpn_big_cls_score_rpn_big_cls_score_0_split_0
I0412 20:26:28.726749  4405 net.cpp:408] rpn_big_cls_score_rpn_big_cls_score_0_split -> rpn_big_cls_score_rpn_big_cls_score_0_split_1
I0412 20:26:28.726811  4405 net.cpp:150] Setting up rpn_big_cls_score_rpn_big_cls_score_0_split
I0412 20:26:28.726822  4405 net.cpp:157] Top shape: 1 52 61 92 (291824)
I0412 20:26:28.726840  4405 net.cpp:157] Top shape: 1 52 61 92 (291824)
I0412 20:26:28.726845  4405 net.cpp:165] Memory required for data: 3774321908
I0412 20:26:28.726850  4405 layer_factory.hpp:77] Creating layer rpn_big_cls_score_reshape
I0412 20:26:28.726861  4405 net.cpp:100] Creating Layer rpn_big_cls_score_reshape
I0412 20:26:28.726866  4405 net.cpp:434] rpn_big_cls_score_reshape <- rpn_big_cls_score_rpn_big_cls_score_0_split_0
I0412 20:26:28.726876  4405 net.cpp:408] rpn_big_cls_score_reshape -> rpn_big_cls_score_reshape
I0412 20:26:28.726909  4405 net.cpp:150] Setting up rpn_big_cls_score_reshape
I0412 20:26:28.726919  4405 net.cpp:157] Top shape: 1 2 1586 92 (291824)
I0412 20:26:28.726924  4405 net.cpp:165] Memory required for data: 3775489204
I0412 20:26:28.726932  4405 layer_factory.hpp:77] Creating layer rpn_big_cls_score_reshape_rpn_big_cls_score_reshape_0_split
I0412 20:26:28.726943  4405 net.cpp:100] Creating Layer rpn_big_cls_score_reshape_rpn_big_cls_score_reshape_0_split
I0412 20:26:28.726949  4405 net.cpp:434] rpn_big_cls_score_reshape_rpn_big_cls_score_reshape_0_split <- rpn_big_cls_score_reshape
I0412 20:26:28.726963  4405 net.cpp:408] rpn_big_cls_score_reshape_rpn_big_cls_score_reshape_0_split -> rpn_big_cls_score_reshape_rpn_big_cls_score_reshape_0_split_0
I0412 20:26:28.726975  4405 net.cpp:408] rpn_big_cls_score_reshape_rpn_big_cls_score_reshape_0_split -> rpn_big_cls_score_reshape_rpn_big_cls_score_reshape_0_split_1
I0412 20:26:28.727020  4405 net.cpp:150] Setting up rpn_big_cls_score_reshape_rpn_big_cls_score_reshape_0_split
I0412 20:26:28.727032  4405 net.cpp:157] Top shape: 1 2 1586 92 (291824)
I0412 20:26:28.727041  4405 net.cpp:157] Top shape: 1 2 1586 92 (291824)
I0412 20:26:28.727046  4405 net.cpp:165] Memory required for data: 3777823796
I0412 20:26:28.727051  4405 layer_factory.hpp:77] Creating layer rpn_big_cls_prob
I0412 20:26:28.727061  4405 net.cpp:100] Creating Layer rpn_big_cls_prob
I0412 20:26:28.727067  4405 net.cpp:434] rpn_big_cls_prob <- rpn_big_cls_score_reshape_rpn_big_cls_score_reshape_0_split_0
I0412 20:26:28.727077  4405 net.cpp:408] rpn_big_cls_prob -> rpn_big_cls_prob
I0412 20:26:28.727152  4405 net.cpp:150] Setting up rpn_big_cls_prob
I0412 20:26:28.727162  4405 net.cpp:157] Top shape: 1 2 1586 92 (291824)
I0412 20:26:28.727169  4405 net.cpp:165] Memory required for data: 3778991092
I0412 20:26:28.727174  4405 layer_factory.hpp:77] Creating layer rpn_big_cls_prob_reshape
I0412 20:26:28.727183  4405 net.cpp:100] Creating Layer rpn_big_cls_prob_reshape
I0412 20:26:28.727190  4405 net.cpp:434] rpn_big_cls_prob_reshape <- rpn_big_cls_prob
I0412 20:26:28.727201  4405 net.cpp:408] rpn_big_cls_prob_reshape -> rpn_big_cls_prob_reshape
I0412 20:26:28.727232  4405 net.cpp:150] Setting up rpn_big_cls_prob_reshape
I0412 20:26:28.727242  4405 net.cpp:157] Top shape: 1 52 61 92 (291824)
I0412 20:26:28.727247  4405 net.cpp:165] Memory required for data: 3780158388
I0412 20:26:28.727253  4405 layer_factory.hpp:77] Creating layer rpn_big_anchor_target
I0412 20:26:28.728775  4405 net.cpp:100] Creating Layer rpn_big_anchor_target
I0412 20:26:28.728793  4405 net.cpp:434] rpn_big_anchor_target <- rpn_big_cls_score_rpn_big_cls_score_0_split_1
I0412 20:26:28.728801  4405 net.cpp:434] rpn_big_anchor_target <- input_gt_boxes
I0412 20:26:28.728808  4405 net.cpp:434] rpn_big_anchor_target <- input_ignored_boxes
I0412 20:26:28.728816  4405 net.cpp:434] rpn_big_anchor_target <- input_im_info
I0412 20:26:28.728823  4405 net.cpp:434] rpn_big_anchor_target <- input_data_input_0_split_1
I0412 20:26:28.728832  4405 net.cpp:434] rpn_big_anchor_target <- rpn_big_cls_prob_reshape
I0412 20:26:28.728842  4405 net.cpp:408] rpn_big_anchor_target -> rpn_big_anchor_target_labels
I0412 20:26:28.728857  4405 net.cpp:408] rpn_big_anchor_target -> rpn_big_anchor_target_bbox_targets
I0412 20:26:28.728871  4405 net.cpp:408] rpn_big_anchor_target -> rpn_big_anchor_target_inside_weights
I0412 20:26:28.728884  4405 net.cpp:408] rpn_big_anchor_target -> rpn_big_anchor_target_outside_weights
I0412 20:26:28.733711  4405 net.cpp:150] Setting up rpn_big_anchor_target
I0412 20:26:28.733733  4405 net.cpp:157] Top shape: 1 1 1586 92 (145912)
I0412 20:26:28.733739  4405 net.cpp:157] Top shape: 1 104 61 92 (583648)
I0412 20:26:28.733743  4405 net.cpp:157] Top shape: 1 104 61 92 (583648)
I0412 20:26:28.733747  4405 net.cpp:157] Top shape: 1 104 61 92 (583648)
I0412 20:26:28.733750  4405 net.cpp:165] Memory required for data: 3787745812
I0412 20:26:28.733755  4405 layer_factory.hpp:77] Creating layer rpn_big_loss_cls
I0412 20:26:28.733775  4405 net.cpp:100] Creating Layer rpn_big_loss_cls
I0412 20:26:28.733783  4405 net.cpp:434] rpn_big_loss_cls <- rpn_big_cls_score_reshape_rpn_big_cls_score_reshape_0_split_1
I0412 20:26:28.733793  4405 net.cpp:434] rpn_big_loss_cls <- rpn_big_anchor_target_labels
I0412 20:26:28.733803  4405 net.cpp:408] rpn_big_loss_cls -> rpn_big_loss_cls
I0412 20:26:28.733819  4405 layer_factory.hpp:77] Creating layer rpn_big_loss_cls
I0412 20:26:28.734537  4405 net.cpp:150] Setting up rpn_big_loss_cls
I0412 20:26:28.734558  4405 net.cpp:157] Top shape: (1)
I0412 20:26:28.734562  4405 net.cpp:160]     with loss weight 1
I0412 20:26:28.734573  4405 net.cpp:165] Memory required for data: 3787745816
I0412 20:26:28.734578  4405 layer_factory.hpp:77] Creating layer rpn_big_output_box
I0412 20:26:28.734593  4405 net.cpp:100] Creating Layer rpn_big_output_box
I0412 20:26:28.734598  4405 net.cpp:434] rpn_big_output_box <- rpn_big_conv2_rpn_big_conv2_drop_0_split_1
I0412 20:26:28.734607  4405 net.cpp:408] rpn_big_output_box -> rpn_big_output_box
I0412 20:26:28.753793  4405 net.cpp:150] Setting up rpn_big_output_box
I0412 20:26:28.753829  4405 net.cpp:157] Top shape: 1 384 63 94 (2274048)
I0412 20:26:28.753834  4405 net.cpp:165] Memory required for data: 3796842008
I0412 20:26:28.753849  4405 layer_factory.hpp:77] Creating layer rpn_big_output_box_relu
I0412 20:26:28.753867  4405 net.cpp:100] Creating Layer rpn_big_output_box_relu
I0412 20:26:28.753876  4405 net.cpp:434] rpn_big_output_box_relu <- rpn_big_output_box
I0412 20:26:28.753890  4405 net.cpp:395] rpn_big_output_box_relu -> rpn_big_output_box (in-place)
I0412 20:26:28.753906  4405 net.cpp:150] Setting up rpn_big_output_box_relu
I0412 20:26:28.753921  4405 net.cpp:157] Top shape: 1 384 63 94 (2274048)
I0412 20:26:28.753927  4405 net.cpp:165] Memory required for data: 3805938200
I0412 20:26:28.753933  4405 layer_factory.hpp:77] Creating layer rpn_big_bbox_pred
I0412 20:26:28.753952  4405 net.cpp:100] Creating Layer rpn_big_bbox_pred
I0412 20:26:28.753962  4405 net.cpp:434] rpn_big_bbox_pred <- rpn_big_output_box
I0412 20:26:28.753976  4405 net.cpp:408] rpn_big_bbox_pred -> rpn_big_bbox_pred
I0412 20:26:28.758172  4405 net.cpp:150] Setting up rpn_big_bbox_pred
I0412 20:26:28.758199  4405 net.cpp:157] Top shape: 1 104 61 92 (583648)
I0412 20:26:28.758205  4405 net.cpp:165] Memory required for data: 3808272792
I0412 20:26:28.758219  4405 layer_factory.hpp:77] Creating layer rpn_big_loss_bbox
I0412 20:26:28.758596  4405 net.cpp:100] Creating Layer rpn_big_loss_bbox
I0412 20:26:28.758608  4405 net.cpp:434] rpn_big_loss_bbox <- rpn_big_bbox_pred
I0412 20:26:28.758620  4405 net.cpp:434] rpn_big_loss_bbox <- rpn_big_anchor_target_bbox_targets
I0412 20:26:28.758633  4405 net.cpp:434] rpn_big_loss_bbox <- rpn_big_anchor_target_inside_weights
I0412 20:26:28.758646  4405 net.cpp:434] rpn_big_loss_bbox <- rpn_big_anchor_target_outside_weights
I0412 20:26:28.758659  4405 net.cpp:408] rpn_big_loss_bbox -> rpn_big_loss_bbox
I0412 20:26:28.760679  4405 net.cpp:150] Setting up rpn_big_loss_bbox
I0412 20:26:28.760715  4405 net.cpp:157] Top shape: 1 (1)
I0412 20:26:28.760721  4405 net.cpp:160]     with loss weight 1
I0412 20:26:28.760737  4405 net.cpp:165] Memory required for data: 3808272796
I0412 20:26:28.760746  4405 layer_factory.hpp:77] Creating layer MyLoss
I0412 20:26:28.760762  4405 net.cpp:100] Creating Layer MyLoss
I0412 20:26:28.760774  4405 net.cpp:434] MyLoss <- conv3_1_relu3_1_0_split_1
I0412 20:26:28.760787  4405 net.cpp:408] MyLoss -> MyLoss
…
