…
I0412 20:28:10.547441  4540 solver.cpp:48] Initializing solver from parameters: 
base_lr: 0.001
display: 20
lr_policy: "multistep"
gamma: 0.1
momentum: 0.9
weight_decay: 0.0005
snapshot: 0
snapshot_prefix: "faces_example"
net_param {
  name: "GeneratedModel_12_04_2017_20_28"
  layer {
    name: "input"
    type: "Python"
    top: "input_data"
    top: "input_im_info"
    top: "input_gt_boxes"
    top: "input_ignored_boxes"
    python_param {
      module: "layers.roi_data_layer"
      layer: "RoIDataLayer"
      param_str: "{\"num_classes\": 2}"
    }
  }
  layer {
    name: "conv1_1"
    type: "Convolution"
    bottom: "input_data"
    top: "conv1_1"
    param {
      lr_mult: 0
      decay_mult: 0
    }
    param {
      lr_mult: 0
      decay_mult: 0
    }
    convolution_param {
      num_output: 64
      pad: 1
      kernel_size: 3
    }
  }
  layer {
    name: "relu1_1"
    type: "ReLU"
    bottom: "conv1_1"
    top: "conv1_1"
  }
  layer {
    name: "conv1_2"
    type: "Convolution"
    bottom: "conv1_1"
    top: "conv1_2"
    param {
      lr_mult: 0
      decay_mult: 0
    }
    param {
      lr_mult: 0
      decay_mult: 0
    }
    convolution_param {
      num_output: 64
      pad: 1
      kernel_size: 3
    }
  }
  layer {
    name: "relu1_2"
    type: "ReLU"
    bottom: "conv1_2"
    top: "conv1_2"
  }
  layer {
    name: "pool1"
    type: "Pooling"
    bottom: "conv1_2"
    top: "pool1"
    pooling_param {
      pool: MAX
      kernel_size: 2
      stride: 2
    }
  }
  layer {
    name: "conv2_1"
    type: "Convolution"
    bottom: "pool1"
    top: "conv2_1"
    param {
      lr_mult: 0
      decay_mult: 0
    }
    param {
      lr_mult: 0
      decay_mult: 0
    }
    convolution_param {
      num_output: 128
      pad: 1
      kernel_size: 3
    }
  }
  layer {
    name: "relu2_1"
    type: "ReLU"
    bottom: "conv2_1"
    top: "conv2_1"
  }
  layer {
    name: "conv2_2"
    type: "Convolution"
    bottom: "conv2_1"
    top: "conv2_2"
    param {
      lr_mult: 0
      decay_mult: 0
    }
    param {
      lr_mult: 0
      decay_mult: 0
    }
    convolution_param {
      num_output: 128
      pad: 1
      kernel_size: 3
    }
  }
  layer {
    name: "relu2_2"
    type: "ReLU"
    bottom: "conv2_2"
    top: "conv2_2"
  }
  layer {
    name: "pool2"
    type: "Pooling"
    bottom: "conv2_2"
    top: "pool2"
    pooling_param {
      pool: MAX
      kernel_size: 2
      stride: 2
    }
  }
  layer {
    name: "conv3_1"
    type: "Convolution"
    bottom: "pool2"
    top: "conv3_1"
    param {
      lr_mult: 1
    }
    param {
      lr_mult: 2
    }
    convolution_param {
      num_output: 256
      pad: 1
      kernel_size: 3
    }
  }
  layer {
    name: "relu3_1"
    type: "ReLU"
    bottom: "conv3_1"
    top: "conv3_1"
  }
  layer {
    name: "conv3_2"
    type: "Convolution"
    bottom: "conv3_1"
    top: "conv3_2"
    param {
      lr_mult: 1
    }
    param {
      lr_mult: 2
    }
    convolution_param {
      num_output: 256
      pad: 1
      kernel_size: 3
    }
  }
  layer {
    name: "relu3_2"
    type: "ReLU"
    bottom: "conv3_2"
    top: "conv3_2"
  }
  layer {
    name: "conv3_3"
    type: "Convolution"
    bottom: "conv3_2"
    top: "conv3_3"
    param {
      lr_mult: 1
    }
    param {
      lr_mult: 2
    }
    convolution_param {
      num_output: 256
      pad: 1
      kernel_size: 3
    }
  }
  layer {
    name: "relu3_3"
    type: "ReLU"
    bottom: "conv3_3"
    top: "conv3_3"
  }
  layer {
    name: "pool3"
    type: "Pooling"
    bottom: "conv3_3"
    top: "pool3"
    pooling_param {
      pool: MAX
      kernel_size: 2
      stride: 2
    }
  }
  layer {
    name: "conv4_1"
    type: "Convolution"
    bottom: "pool3"
    top: "conv4_1"
    param {
      lr_mult: 1
    }
    param {
      lr_mult: 2
    }
    convolution_param {
      num_output: 512
      pad: 1
      kernel_size: 3
    }
  }
  layer {
    name: "relu4_1"
    type: "ReLU"
    bottom: "conv4_1"
    top: "conv4_1"
  }
  layer {
    name: "conv4_2"
    type: "Convolution"
    bottom: "conv4_1"
    top: "conv4_2"
    param {
      lr_mult: 1
    }
    param {
      lr_mult: 2
    }
    convolution_param {
      num_output: 512
      pad: 1
      kernel_size: 3
    }
  }
  layer {
    name: "relu4_2"
    type: "ReLU"
    bottom: "conv4_2"
    top: "conv4_2"
  }
  layer {
    name: "conv4_3"
    type: "Convolution"
    bottom: "conv4_2"
    top: "conv4_3"
    param {
      lr_mult: 1
    }
    param {
      lr_mult: 2
    }
    convolution_param {
      num_output: 512
      pad: 1
      kernel_size: 3
    }
  }
  layer {
    name: "relu4_3"
    type: "ReLU"
    bottom: "conv4_3"
    top: "conv4_3"
  }
  layer {
    name: "pool4"
    type: "Pooling"
    bottom: "conv4_3"
    top: "pool4"
    pooling_param {
      pool: MAX
      kernel_size: 2
      stride: 2
    }
  }
  layer {
    name: "conv5_1"
    type: "Convolution"
    bottom: "pool4"
    top: "conv5_1"
    param {
      lr_mult: 1
    }
    param {
      lr_mult: 2
    }
    convolution_param {
      num_output: 512
      pad: 1
      kernel_size: 3
    }
  }
  layer {
    name: "relu5_1"
    type: "ReLU"
    bottom: "conv5_1"
    top: "conv5_1"
  }
  layer {
    name: "conv5_2"
    type: "Convolution"
    bottom: "conv5_1"
    top: "conv5_2"
    param {
      lr_mult: 1
    }
    param {
      lr_mult: 2
    }
    convolution_param {
      num_output: 512
      pad: 1
      kernel_size: 3
    }
  }
  layer {
    name: "relu5_2"
    type: "ReLU"
    bottom: "conv5_2"
    top: "conv5_2"
  }
  layer {
    name: "conv5_3"
    type: "Convolution"
    bottom: "conv5_2"
    top: "conv5_3"
    param {
      lr_mult: 1
    }
    param {
      lr_mult: 2
    }
    convolution_param {
      num_output: 512
      pad: 1
      kernel_size: 3
    }
  }
  layer {
    name: "relu5_3"
    type: "ReLU"
    bottom: "conv5_3"
    top: "conv5_3"
  }
  layer {
    name: "rpn_big_conv1"
    type: "Convolution"
    bottom: "conv5_3"
    top: "rpn_big_conv1"
    param {
      lr_mult: 1
    }
    param {
      lr_mult: 2
    }
    convolution_param {
      num_output: 512
      pad: 1
      kernel_size: 3
      stride: 1
      weight_filler {
        type: "gaussian"
        mean: 0
        std: 0.01
      }
      bias_filler {
        type: "constant"
      }
    }
  }
  layer {
    name: "rpn_big_conv1_relu"
    type: "ReLU"
    bottom: "rpn_big_conv1"
    top: "rpn_big_conv1"
    relu_param {
      negative_slope: 0
    }
  }
  layer {
    name: "rpn_big_conv2"
    type: "Convolution"
    bottom: "rpn_big_conv1"
    top: "rpn_big_conv2"
    param {
      lr_mult: 1
    }
    param {
      lr_mult: 2
    }
    convolution_param {
      num_output: 512
      pad: 1
      kernel_size: 3
      stride: 1
      weight_filler {
        type: "gaussian"
        mean: 0
        std: 0.01
      }
      bias_filler {
        type: "constant"
      }
    }
  }
  layer {
    name: "rpn_big_conv2_relu"
    type: "ReLU"
    bottom: "rpn_big_conv2"
    top: "rpn_big_conv2"
    relu_param {
      negative_slope: 0
    }
  }
  layer {
    name: "rpn_big_conv2_drop"
    type: "Dropout"
    bottom: "rpn_big_conv2"
    top: "rpn_big_conv2"
    dropout_param {
      dropout_ratio: 0.3
    }
  }
  layer {
    name: "rpn_big_output_cls"
    type: "Convolution"
    bottom: "rpn_big_conv2"
    top: "rpn_big_output_cls"
    param {
      lr_mult: 1
    }
    param {
      lr_mult: 2
    }
    convolution_param {
      num_output: 384
      pad: 1
      kernel_size: 3
      stride: 1
      weight_filler {
        type: "gaussian"
        mean: 0
        std: 0.01
      }
      bias_filler {
        type: "constant"
      }
    }
  }
  layer {
    name: "rpn_big_output_cls_relu"
    type: "ReLU"
    bottom: "rpn_big_output_cls"
    top: "rpn_big_output_cls"
    relu_param {
      negative_slope: 0
    }
  }
  layer {
    name: "rpn_big_cls_score"
    type: "Convolution"
    bottom: "rpn_big_output_cls"
    top: "rpn_big_cls_score"
    param {
      lr_mult: 1
    }
    param {
      lr_mult: 2
    }
    convolution_param {
      num_output: 52
      pad: 0
      kernel_size: 3
      stride: 1
      weight_filler {
        type: "gaussian"
        mean: 0
        std: 0.01
      }
      bias_filler {
        type: "constant"
      }
    }
  }
  layer {
    name: "rpn_big_cls_score_reshape"
    type: "Reshape"
    bottom: "rpn_big_cls_score"
    top: "rpn_big_cls_score_reshape"
    reshape_param {
      shape {
        dim: 0
        dim: 2
        dim: -1
        dim: 0
      }
    }
  }
  layer {
    name: "rpn_big_cls_prob"
    type: "Softmax"
    bottom: "rpn_big_cls_score_reshape"
    top: "rpn_big_cls_prob"
  }
  layer {
    name: "rpn_big_cls_prob_reshape"
    type: "Reshape"
    bottom: "rpn_big_cls_prob"
    top: "rpn_big_cls_prob_reshape"
    reshape_param {
      shape {
        dim: 0
        dim: 52
        dim: -1
        dim: 0
      }
    }
  }
  layer {
    name: "rpn_big_anchor_target"
    type: "Python"
    bottom: "rpn_big_cls_score"
    bottom: "input_gt_boxes"
    bottom: "input_ignored_boxes"
    bottom: "input_im_info"
    bottom: "input_data"
    bottom: "rpn_big_cls_prob_reshape"
    top: "rpn_big_anchor_target_labels"
    top: "rpn_big_anchor_target_bbox_targets"
    top: "rpn_big_anchor_target_inside_weights"
    top: "rpn_big_anchor_target_outside_weights"
    python_param {
      module: "rpn.anchor_target_layer"
      layer: "AnchorTargetLayer"
      param_str: "{\"batchsize\": 256, \"feat_stride\": 16, \"tn_fraction\": 0.2, \"negative_overlap\": 0.4, \"anchor_shift_num_xy\": [[2, 2], [2, 2], [2, 2], [2, 2], [1, 1], [1, 1], [1, 1], [1, 1], [1, 1], [1, 1], [1, 1], [1, 1], [1, 1], [1, 1]], \"square_targets\": true, \"anchor_scales\": [2.5, 3.025, 3.66025, 4.4289024999999995, 5.358972025, 6.484356150249999, 7.846070941802498, 9.493745839581022, 11.487432465893036, 13.899793283730574, 16.818749873313998, 20.350687346709933, 24.62433168951902, 29.795441344318014], \"anchor_ratios\": [1.0], \"fg_fraction\": 0.5, \"num_classes\": 1, \"name\": \"rpn_big\", \"positive_overlap\": 0.6}"
    }
  }
  layer {
    name: "rpn_big_loss_cls"
    type: "SoftmaxWithLoss"
    bottom: "rpn_big_cls_score_reshape"
    bottom: "rpn_big_anchor_target_labels"
    top: "rpn_big_loss_cls"
    loss_weight: 1
    propagate_down: true
    propagate_down: false
    loss_param {
      ignore_label: -1
      normalization: VALID
    }
  }
  layer {
    name: "rpn_big_output_box"
    type: "Convolution"
    bottom: "rpn_big_conv2"
    top: "rpn_big_output_box"
    param {
      lr_mult: 1
    }
    param {
      lr_mult: 2
    }
    convolution_param {
      num_output: 384
      pad: 1
      kernel_size: 3
      stride: 1
      weight_filler {
        type: "gaussian"
        mean: 0
        std: 0.01
      }
      bias_filler {
        type: "constant"
      }
    }
  }
  layer {
    name: "rpn_big_output_box_relu"
    type: "ReLU"
    bottom: "rpn_big_output_box"
    top: "rpn_big_output_box"
    relu_param {
      negative_slope: 0
    }
  }
  layer {
    name: "rpn_big_bbox_pred"
    type: "Convolution"
    bottom: "rpn_big_output_box"
    top: "rpn_big_bbox_pred"
    param {
      lr_mult: 1
    }
    param {
      lr_mult: 2
    }
    convolution_param {
      num_output: 104
      pad: 0
      kernel_size: 3
      stride: 1
      weight_filler {
        type: "gaussian"
        mean: 0
        std: 0.01
      }
      bias_filler {
        type: "constant"
      }
    }
  }
  layer {
    name: "rpn_big_loss_bbox"
    type: "Python"
    bottom: "rpn_big_bbox_pred"
    bottom: "rpn_big_anchor_target_bbox_targets"
    bottom: "rpn_big_anchor_target_inside_weights"
    bottom: "rpn_big_anchor_target_outside_weights"
    top: "rpn_big_loss_bbox"
    loss_weight: 1
    python_param {
      module: "layers.smooth_l1_loss"
      layer: "SmoothL1LossLayer"
      param_str: "{\"sigma\": 3}"
    }
  }
  layer {
    name: "MyLoss"
    type: "Accuracy"
    bottom: "conv3_1"
    bottom: "conv3_1"
    top: "MyLoss"
  }
}
average_loss: 100
stepvalue: 70000
stepvalue: 120000
iter_size: 2
I0412 20:28:10.547513  4540 solver.cpp:86] Creating training net specified in net_param.
I0412 20:28:10.547886  4540 net.cpp:58] Initializing net from parameters: 
name: "GeneratedModel_12_04_2017_20_28"
state {
  phase: TRAIN
}
layer {
  name: "input"
  type: "Python"
  top: "input_data"
  top: "input_im_info"
  top: "input_gt_boxes"
  top: "input_ignored_boxes"
  python_param {
    module: "layers.roi_data_layer"
    layer: "RoIDataLayer"
    param_str: "{\"num_classes\": 2}"
  }
}
layer {
  name: "conv1_1"
  type: "Convolution"
  bottom: "input_data"
  top: "conv1_1"
  param {
    lr_mult: 0
    decay_mult: 0
  }
  param {
    lr_mult: 0
    decay_mult: 0
  }
  convolution_param {
    num_output: 64
    pad: 1
    kernel_size: 3
  }
}
layer {
  name: "relu1_1"
  type: "ReLU"
  bottom: "conv1_1"
  top: "conv1_1"
}
layer {
  name: "conv1_2"
  type: "Convolution"
  bottom: "conv1_1"
  top: "conv1_2"
  param {
    lr_mult: 0
    decay_mult: 0
  }
  param {
    lr_mult: 0
    decay_mult: 0
  }
  convolution_param {
    num_output: 64
    pad: 1
    kernel_size: 3
  }
}
layer {
  name: "relu1_2"
  type: "ReLU"
  bottom: "conv1_2"
  top: "conv1_2"
}
layer {
  name: "pool1"
  type: "Pooling"
  bottom: "conv1_2"
  top: "pool1"
  pooling_param {
    pool: MAX
    kernel_size: 2
    stride: 2
  }
}
layer {
  name: "conv2_1"
  type: "Convolution"
  bottom: "pool1"
  top: "conv2_1"
  param {
    lr_mult: 0
    decay_mult: 0
  }
  param {
    lr_mult: 0
    decay_mult: 0
  }
  convolution_param {
    num_output: 128
    pad: 1
    kernel_size: 3
  }
}
layer {
  name: "relu2_1"
  type: "ReLU"
  bottom: "conv2_1"
  top: "conv2_1"
}
layer {
  name: "conv2_2"
  type: "Convolution"
  bottom: "conv2_1"
  top: "conv2_2"
  param {
    lr_mult: 0
    decay_mult: 0
  }
  param {
    lr_mult: 0
    decay_mult: 0
  }
  convolution_param {
    num_output: 128
    pad: 1
    kernel_size: 3
  }
}
layer {
  name: "relu2_2"
  type: "ReLU"
  bottom: "conv2_2"
  top: "conv2_2"
}
layer {
  name: "pool2"
  type: "Pooling"
  bottom: "conv2_2"
  top: "pool2"
  pooling_param {
    pool: MAX
    kernel_size: 2
    stride: 2
  }
}
layer {
  name: "conv3_1"
  type: "Convolution"
  bottom: "pool2"
  top: "conv3_1"
  param {
    lr_mult: 1
  }
  param {
    lr_mult: 2
  }
  convolution_param {
    num_output: 256
    pad: 1
    kernel_size: 3
  }
}
layer {
  name: "relu3_1"
  type: "ReLU"
  bottom: "conv3_1"
  top: "conv3_1"
}
layer {
  name: "conv3_2"
  type: "Convolution"
  bottom: "conv3_1"
  top: "conv3_2"
  param {
    lr_mult: 1
  }
  param {
    lr_mult: 2
  }
  convolution_param {
    num_output: 256
    pad: 1
    kernel_size: 3
  }
}
layer {
  name: "relu3_2"
  type: "ReLU"
  bottom: "conv3_2"
  top: "conv3_2"
}
layer {
  name: "conv3_3"
  type: "Convolution"
  bottom: "conv3_2"
  top: "conv3_3"
  param {
    lr_mult: 1
  }
  param {
    lr_mult: 2
  }
  convolution_param {
    num_output: 256
    pad: 1
    kernel_size: 3
  }
}
layer {
  name: "relu3_3"
  type: "ReLU"
  bottom: "conv3_3"
  top: "conv3_3"
}
layer {
  name: "pool3"
  type: "Pooling"
  bottom: "conv3_3"
  top: "pool3"
  pooling_param {
    pool: MAX
    kernel_size: 2
    stride: 2
  }
}
layer {
  name: "conv4_1"
  type: "Convolution"
  bottom: "pool3"
  top: "conv4_1"
  param {
    lr_mult: 1
  }
  param {
    lr_mult: 2
  }
  convolution_param {
    num_output: 512
    pad: 1
    kernel_size: 3
  }
}
layer {
  name: "relu4_1"
  type: "ReLU"
  bottom: "conv4_1"
  top: "conv4_1"
}
layer {
  name: "conv4_2"
  type: "Convolution"
  bottom: "conv4_1"
  top: "conv4_2"
  param {
    lr_mult: 1
  }
  param {
    lr_mult: 2
  }
  convolution_param {
    num_output: 512
    pad: 1
    kernel_size: 3
  }
}
layer {
  name: "relu4_2"
  type: "ReLU"
  bottom: "conv4_2"
  top: "conv4_2"
}
layer {
  name: "conv4_3"
  type: "Convolution"
  bottom: "conv4_2"
  top: "conv4_3"
  param {
    lr_mult: 1
  }
  param {
    lr_mult: 2
  }
  convolution_param {
    num_output: 512
    pad: 1
    kernel_size: 3
  }
}
layer {
  name: "relu4_3"
  type: "ReLU"
  bottom: "conv4_3"
  top: "conv4_3"
}
layer {
  name: "pool4"
  type: "Pooling"
  bottom: "conv4_3"
  top: "pool4"
  pooling_param {
    pool: MAX
    kernel_size: 2
    stride: 2
  }
}
layer {
  name: "conv5_1"
  type: "Convolution"
  bottom: "pool4"
  top: "conv5_1"
  param {
    lr_mult: 1
  }
  param {
    lr_mult: 2
  }
  convolution_param {
    num_output: 512
    pad: 1
    kernel_size: 3
  }
}
layer {
  name: "relu5_1"
  type: "ReLU"
  bottom: "conv5_1"
  top: "conv5_1"
}
layer {
  name: "conv5_2"
  type: "Convolution"
  bottom: "conv5_1"
  top: "conv5_2"
  param {
    lr_mult: 1
  }
  param {
    lr_mult: 2
  }
  convolution_param {
    num_output: 512
    pad: 1
    kernel_size: 3
  }
}
layer {
  name: "relu5_2"
  type: "ReLU"
  bottom: "conv5_2"
  top: "conv5_2"
}
layer {
  name: "conv5_3"
  type: "Convolution"
  bottom: "conv5_2"
  top: "conv5_3"
  param {
    lr_mult: 1
  }
  param {
    lr_mult: 2
  }
  convolution_param {
    num_output: 512
    pad: 1
    kernel_size: 3
  }
}
layer {
  name: "relu5_3"
  type: "ReLU"
  bottom: "conv5_3"
  top: "conv5_3"
}
layer {
  name: "rpn_big_conv1"
  type: "Convolution"
  bottom: "conv5_3"
  top: "rpn_big_conv1"
  param {
    lr_mult: 1
  }
  param {
    lr_mult: 2
  }
  convolution_param {
    num_output: 512
    pad: 1
    kernel_size: 3
    stride: 1
    weight_filler {
      type: "gaussian"
      mean: 0
      std: 0.01
    }
    bias_filler {
      type: "constant"
    }
  }
}
layer {
  name: "rpn_big_conv1_relu"
  type: "ReLU"
  bottom: "rpn_big_conv1"
  top: "rpn_big_conv1"
  relu_param {
    negative_slope: 0
  }
}
layer {
  name: "rpn_big_conv2"
  type: "Convolution"
  bottom: "rpn_big_conv1"
  top: "rpn_big_conv2"
  param {
    lr_mult: 1
  }
  param {
    lr_mult: 2
  }
  convolution_param {
    num_output: 512
    pad: 1
    kernel_size: 3
    stride: 1
    weight_filler {
      type: "gaussian"
      mean: 0
      std: 0.01
    }
    bias_filler {
      type: "constant"
    }
  }
}
layer {
  name: "rpn_big_conv2_relu"
  type: "ReLU"
  bottom: "rpn_big_conv2"
  top: "rpn_big_conv2"
  relu_param {
    negative_slope: 0
  }
}
layer {
  name: "rpn_big_conv2_drop"
  type: "Dropout"
  bottom: "rpn_big_conv2"
  top: "rpn_big_conv2"
  dropout_param {
    dropout_ratio: 0.3
  }
}
layer {
  name: "rpn_big_output_cls"
  type: "Convolution"
  bottom: "rpn_big_conv2"
  top: "rpn_big_output_cls"
  param {
    lr_mult: 1
  }
  param {
    lr_mult: 2
  }
  convolution_param {
    num_output: 384
    pad: 1
    kernel_size: 3
    stride: 1
    weight_filler {
      type: "gaussian"
      mean: 0
      std: 0.01
    }
    bias_filler {
      type: "constant"
    }
  }
}
layer {
  name: "rpn_big_output_cls_relu"
  type: "ReLU"
  bottom: "rpn_big_output_cls"
  top: "rpn_big_output_cls"
  relu_param {
    negative_slope: 0
  }
}
layer {
  name: "rpn_big_cls_score"
  type: "Convolution"
  bottom: "rpn_big_output_cls"
  top: "rpn_big_cls_score"
  param {
    lr_mult: 1
  }
  param {
    lr_mult: 2
  }
  convolution_param {
    num_output: 52
    pad: 0
    kernel_size: 3
    stride: 1
    weight_filler {
      type: "gaussian"
      mean: 0
      std: 0.01
    }
    bias_filler {
      type: "constant"
    }
  }
}
layer {
  name: "rpn_big_cls_score_reshape"
  type: "Reshape"
  bottom: "rpn_big_cls_score"
  top: "rpn_big_cls_score_reshape"
  reshape_param {
    shape {
      dim: 0
      dim: 2
      dim: -1
      dim: 0
    }
  }
}
layer {
  name: "rpn_big_cls_prob"
  type: "Softmax"
  bottom: "rpn_big_cls_score_reshape"
  top: "rpn_big_cls_prob"
}
layer {
  name: "rpn_big_cls_prob_reshape"
  type: "Reshape"
  bottom: "rpn_big_cls_prob"
  top: "rpn_big_cls_prob_reshape"
  reshape_param {
    shape {
      dim: 0
      dim: 52
      dim: -1
      dim: 0
    }
  }
}
layer {
  name: "rpn_big_anchor_target"
  type: "Python"
  bottom: "rpn_big_cls_score"
  bottom: "input_gt_boxes"
  bottom: "input_ignored_boxes"
  bottom: "input_im_info"
  bottom: "input_data"
  bottom: "rpn_big_cls_prob_reshape"
  top: "rpn_big_anchor_target_labels"
  top: "rpn_big_anchor_target_bbox_targets"
  top: "rpn_big_anchor_target_inside_weights"
  top: "rpn_big_anchor_target_outside_weights"
  python_param {
    module: "rpn.anchor_target_layer"
    layer: "AnchorTargetLayer"
    param_str: "{\"batchsize\": 256, \"feat_stride\": 16, \"tn_fraction\": 0.2, \"negative_overlap\": 0.4, \"anchor_shift_num_xy\": [[2, 2], [2, 2], [2, 2], [2, 2], [1, 1], [1, 1], [1, 1], [1, 1], [1, 1], [1, 1], [1, 1], [1, 1], [1, 1], [1, 1]], \"square_targets\": true, \"anchor_scales\": [2.5, 3.025, 3.66025, 4.4289024999999995, 5.358972025, 6.484356150249999, 7.846070941802498, 9.493745839581022, 11.487432465893036, 13.899793283730574, 16.818749873313998, 20.350687346709933, 24.62433168951902, 29.795441344318014], \"anchor_ratios\": [1.0], \"fg_fraction\": 0.5, \"num_classes\": 1, \"name\": \"rpn_big\", \"positive_overlap\": 0.6}"
  }
}
layer {
  name: "rpn_big_loss_cls"
  type: "SoftmaxWithLoss"
  bottom: "rpn_big_cls_score_reshape"
  bottom: "rpn_big_anchor_target_labels"
  top: "rpn_big_loss_cls"
  loss_weight: 1
  propagate_down: true
  propagate_down: false
  loss_param {
    ignore_label: -1
    normalization: VALID
  }
}
layer {
  name: "rpn_big_output_box"
  type: "Convolution"
  bottom: "rpn_big_conv2"
  top: "rpn_big_output_box"
  param {
    lr_mult: 1
  }
  param {
    lr_mult: 2
  }
  convolution_param {
    num_output: 384
    pad: 1
    kernel_size: 3
    stride: 1
    weight_filler {
      type: "gaussian"
      mean: 0
      std: 0.01
    }
    bias_filler {
      type: "constant"
    }
  }
}
layer {
  name: "rpn_big_output_box_relu"
  type: "ReLU"
  bottom: "rpn_big_output_box"
  top: "rpn_big_output_box"
  relu_param {
    negative_slope: 0
  }
}
layer {
  name: "rpn_big_bbox_pred"
  type: "Convolution"
  bottom: "rpn_big_output_box"
  top: "rpn_big_bbox_pred"
  param {
    lr_mult: 1
  }
  param {
    lr_mult: 2
  }
  convolution_param {
    num_output: 104
    pad: 0
    kernel_size: 3
    stride: 1
    weight_filler {
      type: "gaussian"
      mean: 0
      std: 0.01
    }
    bias_filler {
      type: "constant"
    }
  }
}
layer {
  name: "rpn_big_loss_bbox"
  type: "Python"
  bottom: "rpn_big_bbox_pred"
  bottom: "rpn_big_anchor_target_bbox_targets"
  bottom: "rpn_big_anchor_target_inside_weights"
  bottom: "rpn_big_anchor_target_outside_weights"
  top: "rpn_big_loss_bbox"
  loss_weight: 1
  python_param {
    module: "layers.smooth_l1_loss"
    layer: "SmoothL1LossLayer"
    param_str: "{\"sigma\": 3}"
  }
}
layer {
  name: "MyLoss"
  type: "Accuracy"
  bottom: "conv3_1"
  bottom: "conv3_1"
  top: "MyLoss"
}
I0412 20:28:10.548054  4540 layer_factory.hpp:77] Creating layer input
I0412 20:28:10.549312  4540 net.cpp:100] Creating Layer input
I0412 20:28:10.549329  4540 net.cpp:408] input -> input_data
I0412 20:28:10.549340  4540 net.cpp:408] input -> input_im_info
I0412 20:28:10.549348  4540 net.cpp:408] input -> input_gt_boxes
I0412 20:28:10.549355  4540 net.cpp:408] input -> input_ignored_boxes
RoiDataLayer: name_to_top: {'gt_boxes': 2, 'data': 0, 'im_info': 1, 'ignored_boxes': 3}
I0412 20:28:10.881106  4540 net.cpp:150] Setting up input
I0412 20:28:10.881134  4540 net.cpp:157] Top shape: 1 3 1000 1500 (4500000)
I0412 20:28:10.881141  4540 net.cpp:157] Top shape: 1 3 (3)
I0412 20:28:10.881148  4540 net.cpp:157] Top shape: 1 5 (5)
I0412 20:28:10.881155  4540 net.cpp:157] Top shape: 1 5 (5)
I0412 20:28:10.881160  4540 net.cpp:165] Memory required for data: 18000052
I0412 20:28:10.881168  4540 layer_factory.hpp:77] Creating layer input_data_input_0_split
I0412 20:28:10.881194  4540 net.cpp:100] Creating Layer input_data_input_0_split
I0412 20:28:10.881201  4540 net.cpp:434] input_data_input_0_split <- input_data
I0412 20:28:10.881208  4540 net.cpp:408] input_data_input_0_split -> input_data_input_0_split_0
I0412 20:28:10.881220  4540 net.cpp:408] input_data_input_0_split -> input_data_input_0_split_1
I0412 20:28:10.881253  4540 net.cpp:150] Setting up input_data_input_0_split
I0412 20:28:10.881263  4540 net.cpp:157] Top shape: 1 3 1000 1500 (4500000)
I0412 20:28:10.881270  4540 net.cpp:157] Top shape: 1 3 1000 1500 (4500000)
I0412 20:28:10.881279  4540 net.cpp:165] Memory required for data: 54000052
I0412 20:28:10.881285  4540 layer_factory.hpp:77] Creating layer conv1_1
I0412 20:28:10.881301  4540 net.cpp:100] Creating Layer conv1_1
I0412 20:28:10.881306  4540 net.cpp:434] conv1_1 <- input_data_input_0_split_0
I0412 20:28:10.881312  4540 net.cpp:408] conv1_1 -> conv1_1
I0412 20:28:10.884477  4540 net.cpp:150] Setting up conv1_1
I0412 20:28:10.884522  4540 net.cpp:157] Top shape: 1 64 1000 1500 (96000000)
I0412 20:28:10.884536  4540 net.cpp:165] Memory required for data: 438000052
I0412 20:28:10.884554  4540 layer_factory.hpp:77] Creating layer relu1_1
I0412 20:28:10.884565  4540 net.cpp:100] Creating Layer relu1_1
I0412 20:28:10.884570  4540 net.cpp:434] relu1_1 <- conv1_1
I0412 20:28:10.884577  4540 net.cpp:395] relu1_1 -> conv1_1 (in-place)
I0412 20:28:10.884588  4540 net.cpp:150] Setting up relu1_1
I0412 20:28:10.884593  4540 net.cpp:157] Top shape: 1 64 1000 1500 (96000000)
I0412 20:28:10.884596  4540 net.cpp:165] Memory required for data: 822000052
I0412 20:28:10.884599  4540 layer_factory.hpp:77] Creating layer conv1_2
I0412 20:28:10.884610  4540 net.cpp:100] Creating Layer conv1_2
I0412 20:28:10.884613  4540 net.cpp:434] conv1_2 <- conv1_1
I0412 20:28:10.884618  4540 net.cpp:408] conv1_2 -> conv1_2
I0412 20:28:10.887733  4540 net.cpp:150] Setting up conv1_2
I0412 20:28:10.887789  4540 net.cpp:157] Top shape: 1 64 1000 1500 (96000000)
I0412 20:28:10.887796  4540 net.cpp:165] Memory required for data: 1206000052
I0412 20:28:10.887820  4540 layer_factory.hpp:77] Creating layer relu1_2
I0412 20:28:10.887838  4540 net.cpp:100] Creating Layer relu1_2
I0412 20:28:10.887845  4540 net.cpp:434] relu1_2 <- conv1_2
I0412 20:28:10.887854  4540 net.cpp:395] relu1_2 -> conv1_2 (in-place)
I0412 20:28:10.887881  4540 net.cpp:150] Setting up relu1_2
I0412 20:28:10.887889  4540 net.cpp:157] Top shape: 1 64 1000 1500 (96000000)
I0412 20:28:10.887894  4540 net.cpp:165] Memory required for data: 1590000052
I0412 20:28:10.887899  4540 layer_factory.hpp:77] Creating layer pool1
I0412 20:28:10.887908  4540 net.cpp:100] Creating Layer pool1
I0412 20:28:10.887917  4540 net.cpp:434] pool1 <- conv1_2
I0412 20:28:10.887928  4540 net.cpp:408] pool1 -> pool1
I0412 20:28:10.888015  4540 net.cpp:150] Setting up pool1
I0412 20:28:10.888023  4540 net.cpp:157] Top shape: 1 64 500 750 (24000000)
I0412 20:28:10.888027  4540 net.cpp:165] Memory required for data: 1686000052
I0412 20:28:10.888031  4540 layer_factory.hpp:77] Creating layer conv2_1
I0412 20:28:10.888043  4540 net.cpp:100] Creating Layer conv2_1
I0412 20:28:10.888051  4540 net.cpp:434] conv2_1 <- pool1
I0412 20:28:10.888059  4540 net.cpp:408] conv2_1 -> conv2_1
I0412 20:28:10.891059  4540 net.cpp:150] Setting up conv2_1
I0412 20:28:10.891086  4540 net.cpp:157] Top shape: 1 128 500 750 (48000000)
I0412 20:28:10.891098  4540 net.cpp:165] Memory required for data: 1878000052
I0412 20:28:10.891113  4540 layer_factory.hpp:77] Creating layer relu2_1
I0412 20:28:10.891126  4540 net.cpp:100] Creating Layer relu2_1
I0412 20:28:10.891134  4540 net.cpp:434] relu2_1 <- conv2_1
I0412 20:28:10.891141  4540 net.cpp:395] relu2_1 -> conv2_1 (in-place)
I0412 20:28:10.891156  4540 net.cpp:150] Setting up relu2_1
I0412 20:28:10.891163  4540 net.cpp:157] Top shape: 1 128 500 750 (48000000)
I0412 20:28:10.891168  4540 net.cpp:165] Memory required for data: 2070000052
I0412 20:28:10.891173  4540 layer_factory.hpp:77] Creating layer conv2_2
I0412 20:28:10.891186  4540 net.cpp:100] Creating Layer conv2_2
I0412 20:28:10.891191  4540 net.cpp:434] conv2_2 <- conv2_1
I0412 20:28:10.891201  4540 net.cpp:408] conv2_2 -> conv2_2
I0412 20:28:10.892554  4540 net.cpp:150] Setting up conv2_2
I0412 20:28:10.892588  4540 net.cpp:157] Top shape: 1 128 500 750 (48000000)
I0412 20:28:10.892594  4540 net.cpp:165] Memory required for data: 2262000052
I0412 20:28:10.892611  4540 layer_factory.hpp:77] Creating layer relu2_2
I0412 20:28:10.892628  4540 net.cpp:100] Creating Layer relu2_2
I0412 20:28:10.892637  4540 net.cpp:434] relu2_2 <- conv2_2
I0412 20:28:10.892647  4540 net.cpp:395] relu2_2 -> conv2_2 (in-place)
I0412 20:28:10.892660  4540 net.cpp:150] Setting up relu2_2
I0412 20:28:10.892671  4540 net.cpp:157] Top shape: 1 128 500 750 (48000000)
I0412 20:28:10.892676  4540 net.cpp:165] Memory required for data: 2454000052
I0412 20:28:10.892683  4540 layer_factory.hpp:77] Creating layer pool2
I0412 20:28:10.892694  4540 net.cpp:100] Creating Layer pool2
I0412 20:28:10.892699  4540 net.cpp:434] pool2 <- conv2_2
I0412 20:28:10.892709  4540 net.cpp:408] pool2 -> pool2
I0412 20:28:10.892774  4540 net.cpp:150] Setting up pool2
I0412 20:28:10.892787  4540 net.cpp:157] Top shape: 1 128 250 375 (12000000)
I0412 20:28:10.892793  4540 net.cpp:165] Memory required for data: 2502000052
I0412 20:28:10.892798  4540 layer_factory.hpp:77] Creating layer conv3_1
I0412 20:28:10.892812  4540 net.cpp:100] Creating Layer conv3_1
I0412 20:28:10.892818  4540 net.cpp:434] conv3_1 <- pool2
I0412 20:28:10.892827  4540 net.cpp:408] conv3_1 -> conv3_1
I0412 20:28:10.894227  4540 net.cpp:150] Setting up conv3_1
I0412 20:28:10.894255  4540 net.cpp:157] Top shape: 1 256 250 375 (24000000)
I0412 20:28:10.894259  4540 net.cpp:165] Memory required for data: 2598000052
I0412 20:28:10.894273  4540 layer_factory.hpp:77] Creating layer relu3_1
I0412 20:28:10.894284  4540 net.cpp:100] Creating Layer relu3_1
I0412 20:28:10.894287  4540 net.cpp:434] relu3_1 <- conv3_1
I0412 20:28:10.894295  4540 net.cpp:395] relu3_1 -> conv3_1 (in-place)
I0412 20:28:10.894304  4540 net.cpp:150] Setting up relu3_1
I0412 20:28:10.894309  4540 net.cpp:157] Top shape: 1 256 250 375 (24000000)
I0412 20:28:10.894312  4540 net.cpp:165] Memory required for data: 2694000052
I0412 20:28:10.894315  4540 layer_factory.hpp:77] Creating layer conv3_1_relu3_1_0_split
I0412 20:28:10.894320  4540 net.cpp:100] Creating Layer conv3_1_relu3_1_0_split
I0412 20:28:10.894323  4540 net.cpp:434] conv3_1_relu3_1_0_split <- conv3_1
I0412 20:28:10.894330  4540 net.cpp:408] conv3_1_relu3_1_0_split -> conv3_1_relu3_1_0_split_0
I0412 20:28:10.894337  4540 net.cpp:408] conv3_1_relu3_1_0_split -> conv3_1_relu3_1_0_split_1
I0412 20:28:10.894343  4540 net.cpp:408] conv3_1_relu3_1_0_split -> conv3_1_relu3_1_0_split_2
I0412 20:28:10.894388  4540 net.cpp:150] Setting up conv3_1_relu3_1_0_split
I0412 20:28:10.894395  4540 net.cpp:157] Top shape: 1 256 250 375 (24000000)
I0412 20:28:10.894399  4540 net.cpp:157] Top shape: 1 256 250 375 (24000000)
I0412 20:28:10.894403  4540 net.cpp:157] Top shape: 1 256 250 375 (24000000)
I0412 20:28:10.894407  4540 net.cpp:165] Memory required for data: 2982000052
I0412 20:28:10.894409  4540 layer_factory.hpp:77] Creating layer conv3_2
I0412 20:28:10.894419  4540 net.cpp:100] Creating Layer conv3_2
I0412 20:28:10.894423  4540 net.cpp:434] conv3_2 <- conv3_1_relu3_1_0_split_0
I0412 20:28:10.894428  4540 net.cpp:408] conv3_2 -> conv3_2
I0412 20:28:10.895599  4540 net.cpp:150] Setting up conv3_2
I0412 20:28:10.895628  4540 net.cpp:157] Top shape: 1 256 250 375 (24000000)
I0412 20:28:10.895632  4540 net.cpp:165] Memory required for data: 3078000052
I0412 20:28:10.895640  4540 layer_factory.hpp:77] Creating layer relu3_2
I0412 20:28:10.895653  4540 net.cpp:100] Creating Layer relu3_2
I0412 20:28:10.895658  4540 net.cpp:434] relu3_2 <- conv3_2
I0412 20:28:10.895665  4540 net.cpp:395] relu3_2 -> conv3_2 (in-place)
I0412 20:28:10.895673  4540 net.cpp:150] Setting up relu3_2
I0412 20:28:10.895678  4540 net.cpp:157] Top shape: 1 256 250 375 (24000000)
I0412 20:28:10.895684  4540 net.cpp:165] Memory required for data: 3174000052
I0412 20:28:10.895689  4540 layer_factory.hpp:77] Creating layer conv3_3
I0412 20:28:10.895699  4540 net.cpp:100] Creating Layer conv3_3
I0412 20:28:10.895704  4540 net.cpp:434] conv3_3 <- conv3_2
I0412 20:28:10.895715  4540 net.cpp:408] conv3_3 -> conv3_3
I0412 20:28:10.897393  4540 net.cpp:150] Setting up conv3_3
I0412 20:28:10.897436  4540 net.cpp:157] Top shape: 1 256 250 375 (24000000)
I0412 20:28:10.897442  4540 net.cpp:165] Memory required for data: 3270000052
I0412 20:28:10.897459  4540 layer_factory.hpp:77] Creating layer relu3_3
I0412 20:28:10.897471  4540 net.cpp:100] Creating Layer relu3_3
I0412 20:28:10.897477  4540 net.cpp:434] relu3_3 <- conv3_3
I0412 20:28:10.897486  4540 net.cpp:395] relu3_3 -> conv3_3 (in-place)
I0412 20:28:10.897496  4540 net.cpp:150] Setting up relu3_3
I0412 20:28:10.897500  4540 net.cpp:157] Top shape: 1 256 250 375 (24000000)
I0412 20:28:10.897503  4540 net.cpp:165] Memory required for data: 3366000052
I0412 20:28:10.897506  4540 layer_factory.hpp:77] Creating layer pool3
I0412 20:28:10.897512  4540 net.cpp:100] Creating Layer pool3
I0412 20:28:10.897516  4540 net.cpp:434] pool3 <- conv3_3
I0412 20:28:10.897521  4540 net.cpp:408] pool3 -> pool3
I0412 20:28:10.897572  4540 net.cpp:150] Setting up pool3
I0412 20:28:10.897579  4540 net.cpp:157] Top shape: 1 256 125 188 (6016000)
I0412 20:28:10.897583  4540 net.cpp:165] Memory required for data: 3390064052
I0412 20:28:10.897586  4540 layer_factory.hpp:77] Creating layer conv4_1
I0412 20:28:10.897595  4540 net.cpp:100] Creating Layer conv4_1
I0412 20:28:10.897599  4540 net.cpp:434] conv4_1 <- pool3
I0412 20:28:10.897605  4540 net.cpp:408] conv4_1 -> conv4_1
I0412 20:28:10.901077  4540 net.cpp:150] Setting up conv4_1
I0412 20:28:10.901118  4540 net.cpp:157] Top shape: 1 512 125 188 (12032000)
I0412 20:28:10.901123  4540 net.cpp:165] Memory required for data: 3438192052
I0412 20:28:10.901136  4540 layer_factory.hpp:77] Creating layer relu4_1
I0412 20:28:10.901149  4540 net.cpp:100] Creating Layer relu4_1
I0412 20:28:10.901155  4540 net.cpp:434] relu4_1 <- conv4_1
I0412 20:28:10.901167  4540 net.cpp:395] relu4_1 -> conv4_1 (in-place)
I0412 20:28:10.901180  4540 net.cpp:150] Setting up relu4_1
I0412 20:28:10.901186  4540 net.cpp:157] Top shape: 1 512 125 188 (12032000)
I0412 20:28:10.901191  4540 net.cpp:165] Memory required for data: 3486320052
I0412 20:28:10.901196  4540 layer_factory.hpp:77] Creating layer conv4_2
I0412 20:28:10.901206  4540 net.cpp:100] Creating Layer conv4_2
I0412 20:28:10.901212  4540 net.cpp:434] conv4_2 <- conv4_1
I0412 20:28:10.901221  4540 net.cpp:408] conv4_2 -> conv4_2
I0412 20:28:10.908293  4540 net.cpp:150] Setting up conv4_2
I0412 20:28:10.908325  4540 net.cpp:157] Top shape: 1 512 125 188 (12032000)
I0412 20:28:10.908339  4540 net.cpp:165] Memory required for data: 3534448052
I0412 20:28:10.908354  4540 layer_factory.hpp:77] Creating layer relu4_2
I0412 20:28:10.908365  4540 net.cpp:100] Creating Layer relu4_2
I0412 20:28:10.908370  4540 net.cpp:434] relu4_2 <- conv4_2
I0412 20:28:10.908377  4540 net.cpp:395] relu4_2 -> conv4_2 (in-place)
I0412 20:28:10.908387  4540 net.cpp:150] Setting up relu4_2
I0412 20:28:10.908392  4540 net.cpp:157] Top shape: 1 512 125 188 (12032000)
I0412 20:28:10.908396  4540 net.cpp:165] Memory required for data: 3582576052
I0412 20:28:10.908398  4540 layer_factory.hpp:77] Creating layer conv4_3
I0412 20:28:10.908407  4540 net.cpp:100] Creating Layer conv4_3
I0412 20:28:10.908411  4540 net.cpp:434] conv4_3 <- conv4_2
I0412 20:28:10.908416  4540 net.cpp:408] conv4_3 -> conv4_3
I0412 20:28:10.912739  4540 net.cpp:150] Setting up conv4_3
I0412 20:28:10.912771  4540 net.cpp:157] Top shape: 1 512 125 188 (12032000)
I0412 20:28:10.912775  4540 net.cpp:165] Memory required for data: 3630704052
I0412 20:28:10.912786  4540 layer_factory.hpp:77] Creating layer relu4_3
I0412 20:28:10.912794  4540 net.cpp:100] Creating Layer relu4_3
I0412 20:28:10.912799  4540 net.cpp:434] relu4_3 <- conv4_3
I0412 20:28:10.912807  4540 net.cpp:395] relu4_3 -> conv4_3 (in-place)
I0412 20:28:10.912817  4540 net.cpp:150] Setting up relu4_3
I0412 20:28:10.912822  4540 net.cpp:157] Top shape: 1 512 125 188 (12032000)
I0412 20:28:10.912824  4540 net.cpp:165] Memory required for data: 3678832052
I0412 20:28:10.912827  4540 layer_factory.hpp:77] Creating layer pool4
I0412 20:28:10.912832  4540 net.cpp:100] Creating Layer pool4
I0412 20:28:10.912835  4540 net.cpp:434] pool4 <- conv4_3
I0412 20:28:10.912842  4540 net.cpp:408] pool4 -> pool4
I0412 20:28:10.912876  4540 net.cpp:150] Setting up pool4
I0412 20:28:10.912883  4540 net.cpp:157] Top shape: 1 512 63 94 (3032064)
I0412 20:28:10.912885  4540 net.cpp:165] Memory required for data: 3690960308
I0412 20:28:10.912889  4540 layer_factory.hpp:77] Creating layer conv5_1
I0412 20:28:10.912899  4540 net.cpp:100] Creating Layer conv5_1
I0412 20:28:10.912904  4540 net.cpp:434] conv5_1 <- pool4
I0412 20:28:10.912909  4540 net.cpp:408] conv5_1 -> conv5_1
I0412 20:28:10.917565  4540 net.cpp:150] Setting up conv5_1
I0412 20:28:10.917600  4540 net.cpp:157] Top shape: 1 512 63 94 (3032064)
I0412 20:28:10.917604  4540 net.cpp:165] Memory required for data: 3703088564
I0412 20:28:10.917614  4540 layer_factory.hpp:77] Creating layer relu5_1
I0412 20:28:10.917624  4540 net.cpp:100] Creating Layer relu5_1
I0412 20:28:10.917629  4540 net.cpp:434] relu5_1 <- conv5_1
I0412 20:28:10.917636  4540 net.cpp:395] relu5_1 -> conv5_1 (in-place)
I0412 20:28:10.917647  4540 net.cpp:150] Setting up relu5_1
I0412 20:28:10.917652  4540 net.cpp:157] Top shape: 1 512 63 94 (3032064)
I0412 20:28:10.917655  4540 net.cpp:165] Memory required for data: 3715216820
I0412 20:28:10.917659  4540 layer_factory.hpp:77] Creating layer conv5_2
I0412 20:28:10.917665  4540 net.cpp:100] Creating Layer conv5_2
I0412 20:28:10.917668  4540 net.cpp:434] conv5_2 <- conv5_1
I0412 20:28:10.917675  4540 net.cpp:408] conv5_2 -> conv5_2
I0412 20:28:10.922180  4540 net.cpp:150] Setting up conv5_2
I0412 20:28:10.922214  4540 net.cpp:157] Top shape: 1 512 63 94 (3032064)
I0412 20:28:10.922219  4540 net.cpp:165] Memory required for data: 3727345076
I0412 20:28:10.922229  4540 layer_factory.hpp:77] Creating layer relu5_2
I0412 20:28:10.922241  4540 net.cpp:100] Creating Layer relu5_2
I0412 20:28:10.922246  4540 net.cpp:434] relu5_2 <- conv5_2
I0412 20:28:10.922255  4540 net.cpp:395] relu5_2 -> conv5_2 (in-place)
I0412 20:28:10.922264  4540 net.cpp:150] Setting up relu5_2
I0412 20:28:10.922269  4540 net.cpp:157] Top shape: 1 512 63 94 (3032064)
I0412 20:28:10.922272  4540 net.cpp:165] Memory required for data: 3739473332
I0412 20:28:10.922276  4540 layer_factory.hpp:77] Creating layer conv5_3
I0412 20:28:10.922284  4540 net.cpp:100] Creating Layer conv5_3
I0412 20:28:10.922288  4540 net.cpp:434] conv5_3 <- conv5_2
I0412 20:28:10.922296  4540 net.cpp:408] conv5_3 -> conv5_3
I0412 20:28:10.928778  4540 net.cpp:150] Setting up conv5_3
I0412 20:28:10.928815  4540 net.cpp:157] Top shape: 1 512 63 94 (3032064)
I0412 20:28:10.928819  4540 net.cpp:165] Memory required for data: 3751601588
I0412 20:28:10.928830  4540 layer_factory.hpp:77] Creating layer relu5_3
I0412 20:28:10.928848  4540 net.cpp:100] Creating Layer relu5_3
I0412 20:28:10.928853  4540 net.cpp:434] relu5_3 <- conv5_3
I0412 20:28:10.928860  4540 net.cpp:395] relu5_3 -> conv5_3 (in-place)
I0412 20:28:10.928870  4540 net.cpp:150] Setting up relu5_3
I0412 20:28:10.928874  4540 net.cpp:157] Top shape: 1 512 63 94 (3032064)
I0412 20:28:10.928877  4540 net.cpp:165] Memory required for data: 3763729844
I0412 20:28:10.928880  4540 layer_factory.hpp:77] Creating layer rpn_big_conv1
I0412 20:28:10.928890  4540 net.cpp:100] Creating Layer rpn_big_conv1
I0412 20:28:10.928894  4540 net.cpp:434] rpn_big_conv1 <- conv5_3
I0412 20:28:10.928900  4540 net.cpp:408] rpn_big_conv1 -> rpn_big_conv1
I0412 20:28:10.955242  4540 net.cpp:150] Setting up rpn_big_conv1
I0412 20:28:10.955273  4540 net.cpp:157] Top shape: 1 512 63 94 (3032064)
I0412 20:28:10.955286  4540 net.cpp:165] Memory required for data: 3775858100
I0412 20:28:10.955296  4540 layer_factory.hpp:77] Creating layer rpn_big_conv1_relu
I0412 20:28:10.955308  4540 net.cpp:100] Creating Layer rpn_big_conv1_relu
I0412 20:28:10.955313  4540 net.cpp:434] rpn_big_conv1_relu <- rpn_big_conv1
I0412 20:28:10.955322  4540 net.cpp:395] rpn_big_conv1_relu -> rpn_big_conv1 (in-place)
I0412 20:28:10.955333  4540 net.cpp:150] Setting up rpn_big_conv1_relu
I0412 20:28:10.955338  4540 net.cpp:157] Top shape: 1 512 63 94 (3032064)
I0412 20:28:10.955340  4540 net.cpp:165] Memory required for data: 3787986356
I0412 20:28:10.955343  4540 layer_factory.hpp:77] Creating layer rpn_big_conv2
I0412 20:28:10.955353  4540 net.cpp:100] Creating Layer rpn_big_conv2
I0412 20:28:10.955358  4540 net.cpp:434] rpn_big_conv2 <- rpn_big_conv1
I0412 20:28:10.955363  4540 net.cpp:408] rpn_big_conv2 -> rpn_big_conv2
I0412 20:28:10.983127  4540 net.cpp:150] Setting up rpn_big_conv2
I0412 20:28:10.983156  4540 net.cpp:157] Top shape: 1 512 63 94 (3032064)
I0412 20:28:10.983160  4540 net.cpp:165] Memory required for data: 3800114612
I0412 20:28:10.983170  4540 layer_factory.hpp:77] Creating layer rpn_big_conv2_relu
I0412 20:28:10.983182  4540 net.cpp:100] Creating Layer rpn_big_conv2_relu
I0412 20:28:10.983187  4540 net.cpp:434] rpn_big_conv2_relu <- rpn_big_conv2
I0412 20:28:10.983194  4540 net.cpp:395] rpn_big_conv2_relu -> rpn_big_conv2 (in-place)
I0412 20:28:10.983206  4540 net.cpp:150] Setting up rpn_big_conv2_relu
I0412 20:28:10.983209  4540 net.cpp:157] Top shape: 1 512 63 94 (3032064)
I0412 20:28:10.983212  4540 net.cpp:165] Memory required for data: 3812242868
I0412 20:28:10.983216  4540 layer_factory.hpp:77] Creating layer rpn_big_conv2_drop
I0412 20:28:10.983223  4540 net.cpp:100] Creating Layer rpn_big_conv2_drop
I0412 20:28:10.983227  4540 net.cpp:434] rpn_big_conv2_drop <- rpn_big_conv2
I0412 20:28:10.983232  4540 net.cpp:395] rpn_big_conv2_drop -> rpn_big_conv2 (in-place)
I0412 20:28:10.983253  4540 net.cpp:150] Setting up rpn_big_conv2_drop
I0412 20:28:10.983259  4540 net.cpp:157] Top shape: 1 512 63 94 (3032064)
I0412 20:28:10.983263  4540 net.cpp:165] Memory required for data: 3824371124
I0412 20:28:10.983265  4540 layer_factory.hpp:77] Creating layer rpn_big_conv2_rpn_big_conv2_drop_0_split
I0412 20:28:10.983271  4540 net.cpp:100] Creating Layer rpn_big_conv2_rpn_big_conv2_drop_0_split
I0412 20:28:10.983274  4540 net.cpp:434] rpn_big_conv2_rpn_big_conv2_drop_0_split <- rpn_big_conv2
I0412 20:28:10.983280  4540 net.cpp:408] rpn_big_conv2_rpn_big_conv2_drop_0_split -> rpn_big_conv2_rpn_big_conv2_drop_0_split_0
I0412 20:28:10.983288  4540 net.cpp:408] rpn_big_conv2_rpn_big_conv2_drop_0_split -> rpn_big_conv2_rpn_big_conv2_drop_0_split_1
I0412 20:28:10.983319  4540 net.cpp:150] Setting up rpn_big_conv2_rpn_big_conv2_drop_0_split
I0412 20:28:10.983330  4540 net.cpp:157] Top shape: 1 512 63 94 (3032064)
I0412 20:28:10.983333  4540 net.cpp:157] Top shape: 1 512 63 94 (3032064)
I0412 20:28:10.983336  4540 net.cpp:165] Memory required for data: 3848627636
I0412 20:28:10.983340  4540 layer_factory.hpp:77] Creating layer rpn_big_output_cls
I0412 20:28:10.983351  4540 net.cpp:100] Creating Layer rpn_big_output_cls
I0412 20:28:10.983355  4540 net.cpp:434] rpn_big_output_cls <- rpn_big_conv2_rpn_big_conv2_drop_0_split_0
I0412 20:28:10.983362  4540 net.cpp:408] rpn_big_output_cls -> rpn_big_output_cls
I0412 20:28:11.003295  4540 net.cpp:150] Setting up rpn_big_output_cls
I0412 20:28:11.003329  4540 net.cpp:157] Top shape: 1 384 63 94 (2274048)
I0412 20:28:11.003335  4540 net.cpp:165] Memory required for data: 3857723828
I0412 20:28:11.003353  4540 layer_factory.hpp:77] Creating layer rpn_big_output_cls_relu
I0412 20:28:11.003367  4540 net.cpp:100] Creating Layer rpn_big_output_cls_relu
I0412 20:28:11.003376  4540 net.cpp:434] rpn_big_output_cls_relu <- rpn_big_output_cls
I0412 20:28:11.003387  4540 net.cpp:395] rpn_big_output_cls_relu -> rpn_big_output_cls (in-place)
I0412 20:28:11.003406  4540 net.cpp:150] Setting up rpn_big_output_cls_relu
I0412 20:28:11.003417  4540 net.cpp:157] Top shape: 1 384 63 94 (2274048)
I0412 20:28:11.003425  4540 net.cpp:165] Memory required for data: 3866820020
I0412 20:28:11.003432  4540 layer_factory.hpp:77] Creating layer rpn_big_cls_score
I0412 20:28:11.003448  4540 net.cpp:100] Creating Layer rpn_big_cls_score
I0412 20:28:11.003454  4540 net.cpp:434] rpn_big_cls_score <- rpn_big_output_cls
I0412 20:28:11.003463  4540 net.cpp:408] rpn_big_cls_score -> rpn_big_cls_score
I0412 20:28:11.005806  4540 net.cpp:150] Setting up rpn_big_cls_score
I0412 20:28:11.005821  4540 net.cpp:157] Top shape: 1 52 61 92 (291824)
I0412 20:28:11.005825  4540 net.cpp:165] Memory required for data: 3867987316
I0412 20:28:11.005839  4540 layer_factory.hpp:77] Creating layer rpn_big_cls_score_rpn_big_cls_score_0_split
I0412 20:28:11.005846  4540 net.cpp:100] Creating Layer rpn_big_cls_score_rpn_big_cls_score_0_split
I0412 20:28:11.005851  4540 net.cpp:434] rpn_big_cls_score_rpn_big_cls_score_0_split <- rpn_big_cls_score
I0412 20:28:11.005857  4540 net.cpp:408] rpn_big_cls_score_rpn_big_cls_score_0_split -> rpn_big_cls_score_rpn_big_cls_score_0_split_0
I0412 20:28:11.005868  4540 net.cpp:408] rpn_big_cls_score_rpn_big_cls_score_0_split -> rpn_big_cls_score_rpn_big_cls_score_0_split_1
I0412 20:28:11.005901  4540 net.cpp:150] Setting up rpn_big_cls_score_rpn_big_cls_score_0_split
I0412 20:28:11.005909  4540 net.cpp:157] Top shape: 1 52 61 92 (291824)
I0412 20:28:11.005913  4540 net.cpp:157] Top shape: 1 52 61 92 (291824)
I0412 20:28:11.005916  4540 net.cpp:165] Memory required for data: 3870321908
I0412 20:28:11.005919  4540 layer_factory.hpp:77] Creating layer rpn_big_cls_score_reshape
I0412 20:28:11.005928  4540 net.cpp:100] Creating Layer rpn_big_cls_score_reshape
I0412 20:28:11.005933  4540 net.cpp:434] rpn_big_cls_score_reshape <- rpn_big_cls_score_rpn_big_cls_score_0_split_0
I0412 20:28:11.005941  4540 net.cpp:408] rpn_big_cls_score_reshape -> rpn_big_cls_score_reshape
I0412 20:28:11.005977  4540 net.cpp:150] Setting up rpn_big_cls_score_reshape
I0412 20:28:11.005988  4540 net.cpp:157] Top shape: 1 2 1586 92 (291824)
I0412 20:28:11.005993  4540 net.cpp:165] Memory required for data: 3871489204
I0412 20:28:11.006000  4540 layer_factory.hpp:77] Creating layer rpn_big_cls_score_reshape_rpn_big_cls_score_reshape_0_split
I0412 20:28:11.006012  4540 net.cpp:100] Creating Layer rpn_big_cls_score_reshape_rpn_big_cls_score_reshape_0_split
I0412 20:28:11.006016  4540 net.cpp:434] rpn_big_cls_score_reshape_rpn_big_cls_score_reshape_0_split <- rpn_big_cls_score_reshape
I0412 20:28:11.006022  4540 net.cpp:408] rpn_big_cls_score_reshape_rpn_big_cls_score_reshape_0_split -> rpn_big_cls_score_reshape_rpn_big_cls_score_reshape_0_split_0
I0412 20:28:11.006031  4540 net.cpp:408] rpn_big_cls_score_reshape_rpn_big_cls_score_reshape_0_split -> rpn_big_cls_score_reshape_rpn_big_cls_score_reshape_0_split_1
I0412 20:28:11.006062  4540 net.cpp:150] Setting up rpn_big_cls_score_reshape_rpn_big_cls_score_reshape_0_split
I0412 20:28:11.006070  4540 net.cpp:157] Top shape: 1 2 1586 92 (291824)
I0412 20:28:11.006075  4540 net.cpp:157] Top shape: 1 2 1586 92 (291824)
I0412 20:28:11.006079  4540 net.cpp:165] Memory required for data: 3873823796
I0412 20:28:11.006083  4540 layer_factory.hpp:77] Creating layer rpn_big_cls_prob
I0412 20:28:11.006088  4540 net.cpp:100] Creating Layer rpn_big_cls_prob
I0412 20:28:11.006093  4540 net.cpp:434] rpn_big_cls_prob <- rpn_big_cls_score_reshape_rpn_big_cls_score_reshape_0_split_0
I0412 20:28:11.006098  4540 net.cpp:408] rpn_big_cls_prob -> rpn_big_cls_prob
I0412 20:28:11.006147  4540 net.cpp:150] Setting up rpn_big_cls_prob
I0412 20:28:11.006155  4540 net.cpp:157] Top shape: 1 2 1586 92 (291824)
I0412 20:28:11.006157  4540 net.cpp:165] Memory required for data: 3874991092
I0412 20:28:11.006160  4540 layer_factory.hpp:77] Creating layer rpn_big_cls_prob_reshape
I0412 20:28:11.006165  4540 net.cpp:100] Creating Layer rpn_big_cls_prob_reshape
I0412 20:28:11.006170  4540 net.cpp:434] rpn_big_cls_prob_reshape <- rpn_big_cls_prob
I0412 20:28:11.006175  4540 net.cpp:408] rpn_big_cls_prob_reshape -> rpn_big_cls_prob_reshape
I0412 20:28:11.006196  4540 net.cpp:150] Setting up rpn_big_cls_prob_reshape
I0412 20:28:11.006202  4540 net.cpp:157] Top shape: 1 52 61 92 (291824)
I0412 20:28:11.006206  4540 net.cpp:165] Memory required for data: 3876158388
I0412 20:28:11.006208  4540 layer_factory.hpp:77] Creating layer rpn_big_anchor_target
I0412 20:28:11.007515  4540 net.cpp:100] Creating Layer rpn_big_anchor_target
I0412 20:28:11.007530  4540 net.cpp:434] rpn_big_anchor_target <- rpn_big_cls_score_rpn_big_cls_score_0_split_1
I0412 20:28:11.007537  4540 net.cpp:434] rpn_big_anchor_target <- input_gt_boxes
I0412 20:28:11.007541  4540 net.cpp:434] rpn_big_anchor_target <- input_ignored_boxes
I0412 20:28:11.007546  4540 net.cpp:434] rpn_big_anchor_target <- input_im_info
I0412 20:28:11.007550  4540 net.cpp:434] rpn_big_anchor_target <- input_data_input_0_split_1
I0412 20:28:11.007555  4540 net.cpp:434] rpn_big_anchor_target <- rpn_big_cls_prob_reshape
I0412 20:28:11.007561  4540 net.cpp:408] rpn_big_anchor_target -> rpn_big_anchor_target_labels
I0412 20:28:11.007571  4540 net.cpp:408] rpn_big_anchor_target -> rpn_big_anchor_target_bbox_targets
I0412 20:28:11.007580  4540 net.cpp:408] rpn_big_anchor_target -> rpn_big_anchor_target_inside_weights
I0412 20:28:11.007588  4540 net.cpp:408] rpn_big_anchor_target -> rpn_big_anchor_target_outside_weights
I0412 20:28:11.012339  4540 net.cpp:150] Setting up rpn_big_anchor_target
I0412 20:28:11.012378  4540 net.cpp:157] Top shape: 1 1 1586 92 (145912)
I0412 20:28:11.012387  4540 net.cpp:157] Top shape: 1 104 61 92 (583648)
I0412 20:28:11.012394  4540 net.cpp:157] Top shape: 1 104 61 92 (583648)
I0412 20:28:11.012403  4540 net.cpp:157] Top shape: 1 104 61 92 (583648)
I0412 20:28:11.012408  4540 net.cpp:165] Memory required for data: 3883745812
I0412 20:28:11.012414  4540 layer_factory.hpp:77] Creating layer rpn_big_loss_cls
I0412 20:28:11.012431  4540 net.cpp:100] Creating Layer rpn_big_loss_cls
I0412 20:28:11.012439  4540 net.cpp:434] rpn_big_loss_cls <- rpn_big_cls_score_reshape_rpn_big_cls_score_reshape_0_split_1
I0412 20:28:11.012449  4540 net.cpp:434] rpn_big_loss_cls <- rpn_big_anchor_target_labels
I0412 20:28:11.012465  4540 net.cpp:408] rpn_big_loss_cls -> rpn_big_loss_cls
I0412 20:28:11.012483  4540 layer_factory.hpp:77] Creating layer rpn_big_loss_cls
I0412 20:28:11.013442  4540 net.cpp:150] Setting up rpn_big_loss_cls
I0412 20:28:11.013463  4540 net.cpp:157] Top shape: (1)
I0412 20:28:11.013468  4540 net.cpp:160]     with loss weight 1
I0412 20:28:11.013483  4540 net.cpp:165] Memory required for data: 3883745816
I0412 20:28:11.013492  4540 layer_factory.hpp:77] Creating layer rpn_big_output_box
I0412 20:28:11.013512  4540 net.cpp:100] Creating Layer rpn_big_output_box
I0412 20:28:11.013521  4540 net.cpp:434] rpn_big_output_box <- rpn_big_conv2_rpn_big_conv2_drop_0_split_1
I0412 20:28:11.013533  4540 net.cpp:408] rpn_big_output_box -> rpn_big_output_box
I0412 20:28:11.033874  4540 net.cpp:150] Setting up rpn_big_output_box
I0412 20:28:11.033910  4540 net.cpp:157] Top shape: 1 384 63 94 (2274048)
I0412 20:28:11.033916  4540 net.cpp:165] Memory required for data: 3892842008
I0412 20:28:11.033931  4540 layer_factory.hpp:77] Creating layer rpn_big_output_box_relu
I0412 20:28:11.033946  4540 net.cpp:100] Creating Layer rpn_big_output_box_relu
I0412 20:28:11.033954  4540 net.cpp:434] rpn_big_output_box_relu <- rpn_big_output_box
I0412 20:28:11.033967  4540 net.cpp:395] rpn_big_output_box_relu -> rpn_big_output_box (in-place)
I0412 20:28:11.033982  4540 net.cpp:150] Setting up rpn_big_output_box_relu
I0412 20:28:11.033989  4540 net.cpp:157] Top shape: 1 384 63 94 (2274048)
I0412 20:28:11.033994  4540 net.cpp:165] Memory required for data: 3901938200
I0412 20:28:11.034000  4540 layer_factory.hpp:77] Creating layer rpn_big_bbox_pred
I0412 20:28:11.034018  4540 net.cpp:100] Creating Layer rpn_big_bbox_pred
I0412 20:28:11.034024  4540 net.cpp:434] rpn_big_bbox_pred <- rpn_big_output_box
I0412 20:28:11.034036  4540 net.cpp:408] rpn_big_bbox_pred -> rpn_big_bbox_pred
I0412 20:28:11.038189  4540 net.cpp:150] Setting up rpn_big_bbox_pred
I0412 20:28:11.038213  4540 net.cpp:157] Top shape: 1 104 61 92 (583648)
I0412 20:28:11.038216  4540 net.cpp:165] Memory required for data: 3904272792
I0412 20:28:11.038233  4540 layer_factory.hpp:77] Creating layer rpn_big_loss_bbox
I0412 20:28:11.038601  4540 net.cpp:100] Creating Layer rpn_big_loss_bbox
I0412 20:28:11.038611  4540 net.cpp:434] rpn_big_loss_bbox <- rpn_big_bbox_pred
I0412 20:28:11.038619  4540 net.cpp:434] rpn_big_loss_bbox <- rpn_big_anchor_target_bbox_targets
I0412 20:28:11.038631  4540 net.cpp:434] rpn_big_loss_bbox <- rpn_big_anchor_target_inside_weights
I0412 20:28:11.038636  4540 net.cpp:434] rpn_big_loss_bbox <- rpn_big_anchor_target_outside_weights
I0412 20:28:11.038643  4540 net.cpp:408] rpn_big_loss_bbox -> rpn_big_loss_bbox
I0412 20:28:11.040537  4540 net.cpp:150] Setting up rpn_big_loss_bbox
I0412 20:28:11.040580  4540 net.cpp:157] Top shape: 1 (1)
I0412 20:28:11.040585  4540 net.cpp:160]     with loss weight 1
I0412 20:28:11.040601  4540 net.cpp:165] Memory required for data: 3904272796
I0412 20:28:11.040611  4540 layer_factory.hpp:77] Creating layer MyLoss
I0412 20:28:11.040628  4540 net.cpp:100] Creating Layer MyLoss
I0412 20:28:11.040635  4540 net.cpp:434] MyLoss <- conv3_1_relu3_1_0_split_1
I0412 20:28:11.040647  4540 net.cpp:434] MyLoss <- conv3_1_relu3_1_0_split_2
…
