…
I0412 18:03:02.060889  5705 solver.cpp:48] Initializing solver from parameters: 
base_lr: 0.001
display: 20
lr_policy: "multistep"
gamma: 0.1
momentum: 0.9
weight_decay: 0.0005
snapshot: 0
snapshot_prefix: "faces_example"
net_param {
  name: "GeneratedModel_12_04_2017_18_03"
  layer {
    name: "input"
    type: "Python"
    top: "input_data"
    top: "input_im_info"
    top: "input_gt_boxes"
    top: "input_ignored_boxes"
    python_param {
      module: "layers.roi_data_layer"
      layer: "RoIDataLayer"
      param_str: "{\"num_classes\": 2}"
    }
  }
  layer {
    name: "conv1_1"
    type: "Convolution"
    bottom: "input_data"
    top: "conv1_1"
    param {
      lr_mult: 0
      decay_mult: 0
    }
    param {
      lr_mult: 0
      decay_mult: 0
    }
    convolution_param {
      num_output: 64
      pad: 1
      kernel_size: 3
    }
  }
  layer {
    name: "relu1_1"
    type: "ReLU"
    bottom: "conv1_1"
    top: "conv1_1"
  }
  layer {
    name: "conv1_2"
    type: "Convolution"
    bottom: "conv1_1"
    top: "conv1_2"
    param {
      lr_mult: 0
      decay_mult: 0
    }
    param {
      lr_mult: 0
      decay_mult: 0
    }
    convolution_param {
      num_output: 64
      pad: 1
      kernel_size: 3
    }
  }
  layer {
    name: "relu1_2"
    type: "ReLU"
    bottom: "conv1_2"
    top: "conv1_2"
  }
  layer {
    name: "pool1"
    type: "Pooling"
    bottom: "conv1_2"
    top: "pool1"
    pooling_param {
      pool: MAX
      kernel_size: 2
      stride: 2
    }
  }
  layer {
    name: "conv2_1"
    type: "Convolution"
    bottom: "pool1"
    top: "conv2_1"
    param {
      lr_mult: 0
      decay_mult: 0
    }
    param {
      lr_mult: 0
      decay_mult: 0
    }
    convolution_param {
      num_output: 128
      pad: 1
      kernel_size: 3
    }
  }
  layer {
    name: "relu2_1"
    type: "ReLU"
    bottom: "conv2_1"
    top: "conv2_1"
  }
  layer {
    name: "conv2_2"
    type: "Convolution"
    bottom: "conv2_1"
    top: "conv2_2"
    param {
      lr_mult: 0
      decay_mult: 0
    }
    param {
      lr_mult: 0
      decay_mult: 0
    }
    convolution_param {
      num_output: 128
      pad: 1
      kernel_size: 3
    }
  }
  layer {
    name: "relu2_2"
    type: "ReLU"
    bottom: "conv2_2"
    top: "conv2_2"
  }
  layer {
    name: "pool2"
    type: "Pooling"
    bottom: "conv2_2"
    top: "pool2"
    pooling_param {
      pool: MAX
      kernel_size: 2
      stride: 2
    }
  }
  layer {
    name: "conv3_1"
    type: "Convolution"
    bottom: "pool2"
    top: "conv3_1"
    param {
      lr_mult: 1
    }
    param {
      lr_mult: 2
    }
    convolution_param {
      num_output: 256
      pad: 1
      kernel_size: 3
    }
  }
  layer {
    name: "relu3_1"
    type: "ReLU"
    bottom: "conv3_1"
    top: "conv3_1"
  }
  layer {
    name: "conv3_2"
    type: "Convolution"
    bottom: "conv3_1"
    top: "conv3_2"
    param {
      lr_mult: 1
    }
    param {
      lr_mult: 2
    }
    convolution_param {
      num_output: 256
      pad: 1
      kernel_size: 3
    }
  }
  layer {
    name: "relu3_2"
    type: "ReLU"
    bottom: "conv3_2"
    top: "conv3_2"
  }
  layer {
    name: "conv3_3"
    type: "Convolution"
    bottom: "conv3_2"
    top: "conv3_3"
    param {
      lr_mult: 1
    }
    param {
      lr_mult: 2
    }
    convolution_param {
      num_output: 256
      pad: 1
      kernel_size: 3
    }
  }
  layer {
    name: "relu3_3"
    type: "ReLU"
    bottom: "conv3_3"
    top: "conv3_3"
  }
  layer {
    name: "pool3"
    type: "Pooling"
    bottom: "conv3_3"
    top: "pool3"
    pooling_param {
      pool: MAX
      kernel_size: 2
      stride: 2
    }
  }
  layer {
    name: "conv4_1"
    type: "Convolution"
    bottom: "pool3"
    top: "conv4_1"
    param {
      lr_mult: 1
    }
    param {
      lr_mult: 2
    }
    convolution_param {
      num_output: 512
      pad: 1
      kernel_size: 3
    }
  }
  layer {
    name: "relu4_1"
    type: "ReLU"
    bottom: "conv4_1"
    top: "conv4_1"
  }
  layer {
    name: "conv4_2"
    type: "Convolution"
    bottom: "conv4_1"
    top: "conv4_2"
    param {
      lr_mult: 1
    }
    param {
      lr_mult: 2
    }
    convolution_param {
      num_output: 512
      pad: 1
      kernel_size: 3
    }
  }
  layer {
    name: "relu4_2"
    type: "ReLU"
    bottom: "conv4_2"
    top: "conv4_2"
  }
  layer {
    name: "conv4_3"
    type: "Convolution"
    bottom: "conv4_2"
    top: "conv4_3"
    param {
      lr_mult: 1
    }
    param {
      lr_mult: 2
    }
    convolution_param {
      num_output: 512
      pad: 1
      kernel_size: 3
    }
  }
  layer {
    name: "relu4_3"
    type: "ReLU"
    bottom: "conv4_3"
    top: "conv4_3"
  }
  layer {
    name: "pool4"
    type: "Pooling"
    bottom: "conv4_3"
    top: "pool4"
    pooling_param {
      pool: MAX
      kernel_size: 2
      stride: 2
    }
  }
  layer {
    name: "conv5_1"
    type: "Convolution"
    bottom: "pool4"
    top: "conv5_1"
    param {
      lr_mult: 1
    }
    param {
      lr_mult: 2
    }
    convolution_param {
      num_output: 512
      pad: 1
      kernel_size: 3
    }
  }
  layer {
    name: "relu5_1"
    type: "ReLU"
    bottom: "conv5_1"
    top: "conv5_1"
  }
  layer {
    name: "conv5_2"
    type: "Convolution"
    bottom: "conv5_1"
    top: "conv5_2"
    param {
      lr_mult: 1
    }
    param {
      lr_mult: 2
    }
    convolution_param {
      num_output: 512
      pad: 1
      kernel_size: 3
    }
  }
  layer {
    name: "relu5_2"
    type: "ReLU"
    bottom: "conv5_2"
    top: "conv5_2"
  }
  layer {
    name: "conv5_3"
    type: "Convolution"
    bottom: "conv5_2"
    top: "conv5_3"
    param {
      lr_mult: 1
    }
    param {
      lr_mult: 2
    }
    convolution_param {
      num_output: 512
      pad: 1
      kernel_size: 3
    }
  }
  layer {
    name: "relu5_3"
    type: "ReLU"
    bottom: "conv5_3"
    top: "conv5_3"
  }
  layer {
    name: "fc6"
    type: "InnerProduct"
    bottom: "conv5_3"
    top: "fc6"
  }
  layer {
    name: "rpn_big_conv1"
    type: "Convolution"
    bottom: "conv5_3"
    top: "rpn_big_conv1"
    param {
      lr_mult: 1
    }
    param {
      lr_mult: 2
    }
    convolution_param {
      num_output: 512
      pad: 1
      kernel_size: 3
      stride: 1
      weight_filler {
        type: "gaussian"
        mean: 0
        std: 0.01
      }
      bias_filler {
        type: "constant"
      }
    }
  }
  layer {
    name: "rpn_big_conv1_relu"
    type: "ReLU"
    bottom: "rpn_big_conv1"
    top: "rpn_big_conv1"
    relu_param {
      negative_slope: 0
    }
  }
  layer {
    name: "rpn_big_conv2"
    type: "Convolution"
    bottom: "rpn_big_conv1"
    top: "rpn_big_conv2"
    param {
      lr_mult: 1
    }
    param {
      lr_mult: 2
    }
    convolution_param {
      num_output: 512
      pad: 1
      kernel_size: 3
      stride: 1
      weight_filler {
        type: "gaussian"
        mean: 0
        std: 0.01
      }
      bias_filler {
        type: "constant"
      }
    }
  }
  layer {
    name: "rpn_big_conv2_relu"
    type: "ReLU"
    bottom: "rpn_big_conv2"
    top: "rpn_big_conv2"
    relu_param {
      negative_slope: 0
    }
  }
  layer {
    name: "rpn_big_conv2_drop"
    type: "Dropout"
    bottom: "rpn_big_conv2"
    top: "rpn_big_conv2"
    dropout_param {
      dropout_ratio: 0.3
    }
  }
  layer {
    name: "rpn_big_output_cls"
    type: "Convolution"
    bottom: "rpn_big_conv2"
    top: "rpn_big_output_cls"
    param {
      lr_mult: 1
    }
    param {
      lr_mult: 2
    }
    convolution_param {
      num_output: 384
      pad: 1
      kernel_size: 3
      stride: 1
      weight_filler {
        type: "gaussian"
        mean: 0
        std: 0.01
      }
      bias_filler {
        type: "constant"
      }
    }
  }
  layer {
    name: "rpn_big_output_cls_relu"
    type: "ReLU"
    bottom: "rpn_big_output_cls"
    top: "rpn_big_output_cls"
    relu_param {
      negative_slope: 0
    }
  }
  layer {
    name: "rpn_big_cls_score"
    type: "Convolution"
    bottom: "rpn_big_output_cls"
    top: "rpn_big_cls_score"
    param {
      lr_mult: 1
    }
    param {
      lr_mult: 2
    }
    convolution_param {
      num_output: 52
      pad: 0
      kernel_size: 3
      stride: 1
      weight_filler {
        type: "gaussian"
        mean: 0
        std: 0.01
      }
      bias_filler {
        type: "constant"
      }
    }
  }
  layer {
    name: "rpn_big_cls_score_reshape"
    type: "Reshape"
    bottom: "rpn_big_cls_score"
    top: "rpn_big_cls_score_reshape"
    reshape_param {
      shape {
        dim: 0
        dim: 2
        dim: -1
        dim: 0
      }
    }
  }
  layer {
    name: "rpn_big_cls_prob"
    type: "Softmax"
    bottom: "rpn_big_cls_score_reshape"
    top: "rpn_big_cls_prob"
  }
  layer {
    name: "rpn_big_cls_prob_reshape"
    type: "Reshape"
    bottom: "rpn_big_cls_prob"
    top: "rpn_big_cls_prob_reshape"
    reshape_param {
      shape {
        dim: 0
        dim: 52
        dim: -1
        dim: 0
      }
    }
  }
  layer {
    name: "rpn_big_anchor_target"
    type: "Python"
    bottom: "rpn_big_cls_score"
    bottom: "input_gt_boxes"
    bottom: "input_ignored_boxes"
    bottom: "input_im_info"
    bottom: "input_data"
    bottom: "rpn_big_cls_prob_reshape"
    top: "rpn_big_anchor_target_labels"
    top: "rpn_big_anchor_target_bbox_targets"
    top: "rpn_big_anchor_target_inside_weights"
    top: "rpn_big_anchor_target_outside_weights"
    python_param {
      module: "rpn.anchor_target_layer"
      layer: "AnchorTargetLayer"
      param_str: "{\"anchor_shift_num_xy\": [[2, 2], [2, 2], [2, 2], [2, 2], [1, 1], [1, 1], [1, 1], [1, 1], [1, 1], [1, 1], [1, 1], [1, 1], [1, 1], [1, 1]], \"negative_overlap\": 0.4, \"feat_stride\": 16, \"square_targets\": true, \"positive_overlap\": 0.6, \"num_classes\": 1, \"fg_fraction\": 0.5, \"name\": \"rpn_big\", \"tn_fraction\": 0.2, \"anchor_scales\": [2.5, 3.025, 3.66025, 4.4289024999999995, 5.358972025, 6.484356150249999, 7.846070941802498, 9.493745839581022, 11.487432465893036, 13.899793283730574, 16.818749873313998, 20.350687346709933, 24.62433168951902, 29.795441344318014], \"anchor_ratios\": [1.0], \"batchsize\": 256}"
    }
  }
  layer {
    name: "rpn_big_loss_cls"
    type: "SoftmaxWithLoss"
    bottom: "rpn_big_cls_score_reshape"
    bottom: "rpn_big_anchor_target_labels"
    top: "rpn_big_loss_cls"
    loss_weight: 1
    propagate_down: true
    propagate_down: false
    loss_param {
      ignore_label: -1
      normalization: VALID
    }
  }
  layer {
    name: "rpn_big_output_box"
    type: "Convolution"
    bottom: "rpn_big_conv2"
    top: "rpn_big_output_box"
    param {
      lr_mult: 1
    }
    param {
      lr_mult: 2
    }
    convolution_param {
      num_output: 384
      pad: 1
      kernel_size: 3
      stride: 1
      weight_filler {
        type: "gaussian"
        mean: 0
        std: 0.01
      }
      bias_filler {
        type: "constant"
      }
    }
  }
  layer {
    name: "rpn_big_output_box_relu"
    type: "ReLU"
    bottom: "rpn_big_output_box"
    top: "rpn_big_output_box"
    relu_param {
      negative_slope: 0
    }
  }
  layer {
    name: "rpn_big_bbox_pred"
    type: "Convolution"
    bottom: "rpn_big_output_box"
    top: "rpn_big_bbox_pred"
    param {
      lr_mult: 1
    }
    param {
      lr_mult: 2
    }
    convolution_param {
      num_output: 104
      pad: 0
      kernel_size: 3
      stride: 1
      weight_filler {
        type: "gaussian"
        mean: 0
        std: 0.01
      }
      bias_filler {
        type: "constant"
      }
    }
  }
  layer {
    name: "rpn_big_loss_bbox"
    type: "Python"
    bottom: "rpn_big_bbox_pred"
    bottom: "rpn_big_anchor_target_bbox_targets"
    bottom: "rpn_big_anchor_target_inside_weights"
    bottom: "rpn_big_anchor_target_outside_weights"
    top: "rpn_big_loss_bbox"
    loss_weight: 1
    python_param {
      module: "layers.smooth_l1_loss"
      layer: "SmoothL1LossLayer"
      param_str: "{\"sigma\": 3}"
    }
  }
}
average_loss: 100
stepvalue: 70000
stepvalue: 120000
iter_size: 2
I0412 18:03:02.060995  5705 solver.cpp:86] Creating training net specified in net_param.
I0412 18:03:02.061647  5705 net.cpp:58] Initializing net from parameters: 
name: "GeneratedModel_12_04_2017_18_03"
state {
  phase: TRAIN
}
layer {
  name: "input"
  type: "Python"
  top: "input_data"
  top: "input_im_info"
  top: "input_gt_boxes"
  top: "input_ignored_boxes"
  python_param {
    module: "layers.roi_data_layer"
    layer: "RoIDataLayer"
    param_str: "{\"num_classes\": 2}"
  }
}
layer {
  name: "conv1_1"
  type: "Convolution"
  bottom: "input_data"
  top: "conv1_1"
  param {
    lr_mult: 0
    decay_mult: 0
  }
  param {
    lr_mult: 0
    decay_mult: 0
  }
  convolution_param {
    num_output: 64
    pad: 1
    kernel_size: 3
  }
}
layer {
  name: "relu1_1"
  type: "ReLU"
  bottom: "conv1_1"
  top: "conv1_1"
}
layer {
  name: "conv1_2"
  type: "Convolution"
  bottom: "conv1_1"
  top: "conv1_2"
  param {
    lr_mult: 0
    decay_mult: 0
  }
  param {
    lr_mult: 0
    decay_mult: 0
  }
  convolution_param {
    num_output: 64
    pad: 1
    kernel_size: 3
  }
}
layer {
  name: "relu1_2"
  type: "ReLU"
  bottom: "conv1_2"
  top: "conv1_2"
}
layer {
  name: "pool1"
  type: "Pooling"
  bottom: "conv1_2"
  top: "pool1"
  pooling_param {
    pool: MAX
    kernel_size: 2
    stride: 2
  }
}
layer {
  name: "conv2_1"
  type: "Convolution"
  bottom: "pool1"
  top: "conv2_1"
  param {
    lr_mult: 0
    decay_mult: 0
  }
  param {
    lr_mult: 0
    decay_mult: 0
  }
  convolution_param {
    num_output: 128
    pad: 1
    kernel_size: 3
  }
}
layer {
  name: "relu2_1"
  type: "ReLU"
  bottom: "conv2_1"
  top: "conv2_1"
}
layer {
  name: "conv2_2"
  type: "Convolution"
  bottom: "conv2_1"
  top: "conv2_2"
  param {
    lr_mult: 0
    decay_mult: 0
  }
  param {
    lr_mult: 0
    decay_mult: 0
  }
  convolution_param {
    num_output: 128
    pad: 1
    kernel_size: 3
  }
}
layer {
  name: "relu2_2"
  type: "ReLU"
  bottom: "conv2_2"
  top: "conv2_2"
}
layer {
  name: "pool2"
  type: "Pooling"
  bottom: "conv2_2"
  top: "pool2"
  pooling_param {
    pool: MAX
    kernel_size: 2
    stride: 2
  }
}
layer {
  name: "conv3_1"
  type: "Convolution"
  bottom: "pool2"
  top: "conv3_1"
  param {
    lr_mult: 1
  }
  param {
    lr_mult: 2
  }
  convolution_param {
    num_output: 256
    pad: 1
    kernel_size: 3
  }
}
layer {
  name: "relu3_1"
  type: "ReLU"
  bottom: "conv3_1"
  top: "conv3_1"
}
layer {
  name: "conv3_2"
  type: "Convolution"
  bottom: "conv3_1"
  top: "conv3_2"
  param {
    lr_mult: 1
  }
  param {
    lr_mult: 2
  }
  convolution_param {
    num_output: 256
    pad: 1
    kernel_size: 3
  }
}
layer {
  name: "relu3_2"
  type: "ReLU"
  bottom: "conv3_2"
  top: "conv3_2"
}
layer {
  name: "conv3_3"
  type: "Convolution"
  bottom: "conv3_2"
  top: "conv3_3"
  param {
    lr_mult: 1
  }
  param {
    lr_mult: 2
  }
  convolution_param {
    num_output: 256
    pad: 1
    kernel_size: 3
  }
}
layer {
  name: "relu3_3"
  type: "ReLU"
  bottom: "conv3_3"
  top: "conv3_3"
}
layer {
  name: "pool3"
  type: "Pooling"
  bottom: "conv3_3"
  top: "pool3"
  pooling_param {
    pool: MAX
    kernel_size: 2
    stride: 2
  }
}
layer {
  name: "conv4_1"
  type: "Convolution"
  bottom: "pool3"
  top: "conv4_1"
  param {
    lr_mult: 1
  }
  param {
    lr_mult: 2
  }
  convolution_param {
    num_output: 512
    pad: 1
    kernel_size: 3
  }
}
layer {
  name: "relu4_1"
  type: "ReLU"
  bottom: "conv4_1"
  top: "conv4_1"
}
layer {
  name: "conv4_2"
  type: "Convolution"
  bottom: "conv4_1"
  top: "conv4_2"
  param {
    lr_mult: 1
  }
  param {
    lr_mult: 2
  }
  convolution_param {
    num_output: 512
    pad: 1
    kernel_size: 3
  }
}
layer {
  name: "relu4_2"
  type: "ReLU"
  bottom: "conv4_2"
  top: "conv4_2"
}
layer {
  name: "conv4_3"
  type: "Convolution"
  bottom: "conv4_2"
  top: "conv4_3"
  param {
    lr_mult: 1
  }
  param {
    lr_mult: 2
  }
  convolution_param {
    num_output: 512
    pad: 1
    kernel_size: 3
  }
}
layer {
  name: "relu4_3"
  type: "ReLU"
  bottom: "conv4_3"
  top: "conv4_3"
}
layer {
  name: "pool4"
  type: "Pooling"
  bottom: "conv4_3"
  top: "pool4"
  pooling_param {
    pool: MAX
    kernel_size: 2
    stride: 2
  }
}
layer {
  name: "conv5_1"
  type: "Convolution"
  bottom: "pool4"
  top: "conv5_1"
  param {
    lr_mult: 1
  }
  param {
    lr_mult: 2
  }
  convolution_param {
    num_output: 512
    pad: 1
    kernel_size: 3
  }
}
layer {
  name: "relu5_1"
  type: "ReLU"
  bottom: "conv5_1"
  top: "conv5_1"
}
layer {
  name: "conv5_2"
  type: "Convolution"
  bottom: "conv5_1"
  top: "conv5_2"
  param {
    lr_mult: 1
  }
  param {
    lr_mult: 2
  }
  convolution_param {
    num_output: 512
    pad: 1
    kernel_size: 3
  }
}
layer {
  name: "relu5_2"
  type: "ReLU"
  bottom: "conv5_2"
  top: "conv5_2"
}
layer {
  name: "conv5_3"
  type: "Convolution"
  bottom: "conv5_2"
  top: "conv5_3"
  param {
    lr_mult: 1
  }
  param {
    lr_mult: 2
  }
  convolution_param {
    num_output: 512
    pad: 1
    kernel_size: 3
  }
}
layer {
  name: "relu5_3"
  type: "ReLU"
  bottom: "conv5_3"
  top: "conv5_3"
}
layer {
  name: "fc6"
  type: "InnerProduct"
  bottom: "conv5_3"
  top: "fc6"
}
layer {
  name: "rpn_big_conv1"
  type: "Convolution"
  bottom: "conv5_3"
  top: "rpn_big_conv1"
  param {
    lr_mult: 1
  }
  param {
    lr_mult: 2
  }
  convolution_param {
    num_output: 512
    pad: 1
    kernel_size: 3
    stride: 1
    weight_filler {
      type: "gaussian"
      mean: 0
      std: 0.01
    }
    bias_filler {
      type: "constant"
    }
  }
}
layer {
  name: "rpn_big_conv1_relu"
  type: "ReLU"
  bottom: "rpn_big_conv1"
  top: "rpn_big_conv1"
  relu_param {
    negative_slope: 0
  }
}
layer {
  name: "rpn_big_conv2"
  type: "Convolution"
  bottom: "rpn_big_conv1"
  top: "rpn_big_conv2"
  param {
    lr_mult: 1
  }
  param {
    lr_mult: 2
  }
  convolution_param {
    num_output: 512
    pad: 1
    kernel_size: 3
    stride: 1
    weight_filler {
      type: "gaussian"
      mean: 0
      std: 0.01
    }
    bias_filler {
      type: "constant"
    }
  }
}
layer {
  name: "rpn_big_conv2_relu"
  type: "ReLU"
  bottom: "rpn_big_conv2"
  top: "rpn_big_conv2"
  relu_param {
    negative_slope: 0
  }
}
layer {
  name: "rpn_big_conv2_drop"
  type: "Dropout"
  bottom: "rpn_big_conv2"
  top: "rpn_big_conv2"
  dropout_param {
    dropout_ratio: 0.3
  }
}
layer {
  name: "rpn_big_output_cls"
  type: "Convolution"
  bottom: "rpn_big_conv2"
  top: "rpn_big_output_cls"
  param {
    lr_mult: 1
  }
  param {
    lr_mult: 2
  }
  convolution_param {
    num_output: 384
    pad: 1
    kernel_size: 3
    stride: 1
    weight_filler {
      type: "gaussian"
      mean: 0
      std: 0.01
    }
    bias_filler {
      type: "constant"
    }
  }
}
layer {
  name: "rpn_big_output_cls_relu"
  type: "ReLU"
  bottom: "rpn_big_output_cls"
  top: "rpn_big_output_cls"
  relu_param {
    negative_slope: 0
  }
}
layer {
  name: "rpn_big_cls_score"
  type: "Convolution"
  bottom: "rpn_big_output_cls"
  top: "rpn_big_cls_score"
  param {
    lr_mult: 1
  }
  param {
    lr_mult: 2
  }
  convolution_param {
    num_output: 52
    pad: 0
    kernel_size: 3
    stride: 1
    weight_filler {
      type: "gaussian"
      mean: 0
      std: 0.01
    }
    bias_filler {
      type: "constant"
    }
  }
}
layer {
  name: "rpn_big_cls_score_reshape"
  type: "Reshape"
  bottom: "rpn_big_cls_score"
  top: "rpn_big_cls_score_reshape"
  reshape_param {
    shape {
      dim: 0
      dim: 2
      dim: -1
      dim: 0
    }
  }
}
layer {
  name: "rpn_big_cls_prob"
  type: "Softmax"
  bottom: "rpn_big_cls_score_reshape"
  top: "rpn_big_cls_prob"
}
layer {
  name: "rpn_big_cls_prob_reshape"
  type: "Reshape"
  bottom: "rpn_big_cls_prob"
  top: "rpn_big_cls_prob_reshape"
  reshape_param {
    shape {
      dim: 0
      dim: 52
      dim: -1
      dim: 0
    }
  }
}
layer {
  name: "rpn_big_anchor_target"
  type: "Python"
  bottom: "rpn_big_cls_score"
  bottom: "input_gt_boxes"
  bottom: "input_ignored_boxes"
  bottom: "input_im_info"
  bottom: "input_data"
  bottom: "rpn_big_cls_prob_reshape"
  top: "rpn_big_anchor_target_labels"
  top: "rpn_big_anchor_target_bbox_targets"
  top: "rpn_big_anchor_target_inside_weights"
  top: "rpn_big_anchor_target_outside_weights"
  python_param {
    module: "rpn.anchor_target_layer"
    layer: "AnchorTargetLayer"
    param_str: "{\"anchor_shift_num_xy\": [[2, 2], [2, 2], [2, 2], [2, 2], [1, 1], [1, 1], [1, 1], [1, 1], [1, 1], [1, 1], [1, 1], [1, 1], [1, 1], [1, 1]], \"negative_overlap\": 0.4, \"feat_stride\": 16, \"square_targets\": true, \"positive_overlap\": 0.6, \"num_classes\": 1, \"fg_fraction\": 0.5, \"name\": \"rpn_big\", \"tn_fraction\": 0.2, \"anchor_scales\": [2.5, 3.025, 3.66025, 4.4289024999999995, 5.358972025, 6.484356150249999, 7.846070941802498, 9.493745839581022, 11.487432465893036, 13.899793283730574, 16.818749873313998, 20.350687346709933, 24.62433168951902, 29.795441344318014], \"anchor_ratios\": [1.0], \"batchsize\": 256}"
  }
}
layer {
  name: "rpn_big_loss_cls"
  type: "SoftmaxWithLoss"
  bottom: "rpn_big_cls_score_reshape"
  bottom: "rpn_big_anchor_target_labels"
  top: "rpn_big_loss_cls"
  loss_weight: 1
  propagate_down: true
  propagate_down: false
  loss_param {
    ignore_label: -1
    normalization: VALID
  }
}
layer {
  name: "rpn_big_output_box"
  type: "Convolution"
  bottom: "rpn_big_conv2"
  top: "rpn_big_output_box"
  param {
    lr_mult: 1
  }
  param {
    lr_mult: 2
  }
  convolution_param {
    num_output: 384
    pad: 1
    kernel_size: 3
    stride: 1
    weight_filler {
      type: "gaussian"
      mean: 0
      std: 0.01
    }
    bias_filler {
      type: "constant"
    }
  }
}
layer {
  name: "rpn_big_output_box_relu"
  type: "ReLU"
  bottom: "rpn_big_output_box"
  top: "rpn_big_output_box"
  relu_param {
    negative_slope: 0
  }
}
layer {
  name: "rpn_big_bbox_pred"
  type: "Convolution"
  bottom: "rpn_big_output_box"
  top: "rpn_big_bbox_pred"
  param {
    lr_mult: 1
  }
  param {
    lr_mult: 2
  }
  convolution_param {
    num_output: 104
    pad: 0
    kernel_size: 3
    stride: 1
    weight_filler {
      type: "gaussian"
      mean: 0
      std: 0.01
    }
    bias_filler {
      type: "constant"
    }
  }
}
layer {
  name: "rpn_big_loss_bbox"
  type: "Python"
  bottom: "rpn_big_bbox_pred"
  bottom: "rpn_big_anchor_target_bbox_targets"
  bottom: "rpn_big_anchor_target_inside_weights"
  bottom: "rpn_big_anchor_target_outside_weights"
  top: "rpn_big_loss_bbox"
  loss_weight: 1
  python_param {
    module: "layers.smooth_l1_loss"
    layer: "SmoothL1LossLayer"
    param_str: "{\"sigma\": 3}"
  }
}
I0412 18:03:02.061962  5705 layer_factory.hpp:77] Creating layer input
I0412 18:03:02.063679  5705 net.cpp:100] Creating Layer input
I0412 18:03:02.063699  5705 net.cpp:408] input -> input_data
I0412 18:03:02.063711  5705 net.cpp:408] input -> input_im_info
I0412 18:03:02.063719  5705 net.cpp:408] input -> input_gt_boxes
I0412 18:03:02.063726  5705 net.cpp:408] input -> input_ignored_boxes
RoiDataLayer: name_to_top: {'ignored_boxes': 3, 'data': 0, 'im_info': 1, 'gt_boxes': 2}
I0412 18:03:02.448900  5705 net.cpp:150] Setting up input
I0412 18:03:02.448953  5705 net.cpp:157] Top shape: 1 3 1000 1500 (4500000)
I0412 18:03:02.448976  5705 net.cpp:157] Top shape: 1 3 (3)
I0412 18:03:02.448987  5705 net.cpp:157] Top shape: 1 5 (5)
I0412 18:03:02.448992  5705 net.cpp:157] Top shape: 1 5 (5)
I0412 18:03:02.448997  5705 net.cpp:165] Memory required for data: 18000052
I0412 18:03:02.449007  5705 layer_factory.hpp:77] Creating layer input_data_input_0_split
I0412 18:03:02.449025  5705 net.cpp:100] Creating Layer input_data_input_0_split
I0412 18:03:02.449034  5705 net.cpp:434] input_data_input_0_split <- input_data
I0412 18:03:02.449045  5705 net.cpp:408] input_data_input_0_split -> input_data_input_0_split_0
I0412 18:03:02.449062  5705 net.cpp:408] input_data_input_0_split -> input_data_input_0_split_1
I0412 18:03:02.449110  5705 net.cpp:150] Setting up input_data_input_0_split
I0412 18:03:02.449121  5705 net.cpp:157] Top shape: 1 3 1000 1500 (4500000)
I0412 18:03:02.449131  5705 net.cpp:157] Top shape: 1 3 1000 1500 (4500000)
I0412 18:03:02.449136  5705 net.cpp:165] Memory required for data: 54000052
I0412 18:03:02.449141  5705 layer_factory.hpp:77] Creating layer conv1_1
I0412 18:03:02.449156  5705 net.cpp:100] Creating Layer conv1_1
I0412 18:03:02.449163  5705 net.cpp:434] conv1_1 <- input_data_input_0_split_0
I0412 18:03:02.449175  5705 net.cpp:408] conv1_1 -> conv1_1
I0412 18:03:02.452781  5705 net.cpp:150] Setting up conv1_1
I0412 18:03:02.452821  5705 net.cpp:157] Top shape: 1 64 1000 1500 (96000000)
I0412 18:03:02.452824  5705 net.cpp:165] Memory required for data: 438000052
I0412 18:03:02.452847  5705 layer_factory.hpp:77] Creating layer relu1_1
I0412 18:03:02.452860  5705 net.cpp:100] Creating Layer relu1_1
I0412 18:03:02.452869  5705 net.cpp:434] relu1_1 <- conv1_1
I0412 18:03:02.452880  5705 net.cpp:395] relu1_1 -> conv1_1 (in-place)
I0412 18:03:02.452895  5705 net.cpp:150] Setting up relu1_1
I0412 18:03:02.452904  5705 net.cpp:157] Top shape: 1 64 1000 1500 (96000000)
I0412 18:03:02.452909  5705 net.cpp:165] Memory required for data: 822000052
I0412 18:03:02.452914  5705 layer_factory.hpp:77] Creating layer conv1_2
I0412 18:03:02.452929  5705 net.cpp:100] Creating Layer conv1_2
I0412 18:03:02.452935  5705 net.cpp:434] conv1_2 <- conv1_1
I0412 18:03:02.452944  5705 net.cpp:408] conv1_2 -> conv1_2
I0412 18:03:02.456209  5705 net.cpp:150] Setting up conv1_2
I0412 18:03:02.456248  5705 net.cpp:157] Top shape: 1 64 1000 1500 (96000000)
I0412 18:03:02.456250  5705 net.cpp:165] Memory required for data: 1206000052
I0412 18:03:02.456270  5705 layer_factory.hpp:77] Creating layer relu1_2
I0412 18:03:02.456286  5705 net.cpp:100] Creating Layer relu1_2
I0412 18:03:02.456296  5705 net.cpp:434] relu1_2 <- conv1_2
I0412 18:03:02.456307  5705 net.cpp:395] relu1_2 -> conv1_2 (in-place)
I0412 18:03:02.456321  5705 net.cpp:150] Setting up relu1_2
I0412 18:03:02.456329  5705 net.cpp:157] Top shape: 1 64 1000 1500 (96000000)
I0412 18:03:02.456333  5705 net.cpp:165] Memory required for data: 1590000052
I0412 18:03:02.456338  5705 layer_factory.hpp:77] Creating layer pool1
I0412 18:03:02.456347  5705 net.cpp:100] Creating Layer pool1
I0412 18:03:02.456352  5705 net.cpp:434] pool1 <- conv1_2
I0412 18:03:02.456363  5705 net.cpp:408] pool1 -> pool1
I0412 18:03:02.456455  5705 net.cpp:150] Setting up pool1
I0412 18:03:02.456468  5705 net.cpp:157] Top shape: 1 64 500 750 (24000000)
I0412 18:03:02.456475  5705 net.cpp:165] Memory required for data: 1686000052
I0412 18:03:02.456480  5705 layer_factory.hpp:77] Creating layer conv2_1
I0412 18:03:02.456496  5705 net.cpp:100] Creating Layer conv2_1
I0412 18:03:02.456502  5705 net.cpp:434] conv2_1 <- pool1
I0412 18:03:02.456511  5705 net.cpp:408] conv2_1 -> conv2_1
I0412 18:03:02.457983  5705 net.cpp:150] Setting up conv2_1
I0412 18:03:02.458009  5705 net.cpp:157] Top shape: 1 128 500 750 (48000000)
I0412 18:03:02.458012  5705 net.cpp:165] Memory required for data: 1878000052
I0412 18:03:02.458029  5705 layer_factory.hpp:77] Creating layer relu2_1
I0412 18:03:02.458047  5705 net.cpp:100] Creating Layer relu2_1
I0412 18:03:02.458056  5705 net.cpp:434] relu2_1 <- conv2_1
I0412 18:03:02.458068  5705 net.cpp:395] relu2_1 -> conv2_1 (in-place)
I0412 18:03:02.458081  5705 net.cpp:150] Setting up relu2_1
I0412 18:03:02.458091  5705 net.cpp:157] Top shape: 1 128 500 750 (48000000)
I0412 18:03:02.458097  5705 net.cpp:165] Memory required for data: 2070000052
I0412 18:03:02.458102  5705 layer_factory.hpp:77] Creating layer conv2_2
I0412 18:03:02.458117  5705 net.cpp:100] Creating Layer conv2_2
I0412 18:03:02.458125  5705 net.cpp:434] conv2_2 <- conv2_1
I0412 18:03:02.458137  5705 net.cpp:408] conv2_2 -> conv2_2
I0412 18:03:02.459213  5705 net.cpp:150] Setting up conv2_2
I0412 18:03:02.459237  5705 net.cpp:157] Top shape: 1 128 500 750 (48000000)
I0412 18:03:02.459240  5705 net.cpp:165] Memory required for data: 2262000052
I0412 18:03:02.459252  5705 layer_factory.hpp:77] Creating layer relu2_2
I0412 18:03:02.459267  5705 net.cpp:100] Creating Layer relu2_2
I0412 18:03:02.459276  5705 net.cpp:434] relu2_2 <- conv2_2
I0412 18:03:02.459286  5705 net.cpp:395] relu2_2 -> conv2_2 (in-place)
I0412 18:03:02.459298  5705 net.cpp:150] Setting up relu2_2
I0412 18:03:02.459308  5705 net.cpp:157] Top shape: 1 128 500 750 (48000000)
I0412 18:03:02.459314  5705 net.cpp:165] Memory required for data: 2454000052
I0412 18:03:02.459319  5705 layer_factory.hpp:77] Creating layer pool2
I0412 18:03:02.459331  5705 net.cpp:100] Creating Layer pool2
I0412 18:03:02.459338  5705 net.cpp:434] pool2 <- conv2_2
I0412 18:03:02.459345  5705 net.cpp:408] pool2 -> pool2
I0412 18:03:02.459403  5705 net.cpp:150] Setting up pool2
I0412 18:03:02.459415  5705 net.cpp:157] Top shape: 1 128 250 375 (12000000)
I0412 18:03:02.459421  5705 net.cpp:165] Memory required for data: 2502000052
I0412 18:03:02.459429  5705 layer_factory.hpp:77] Creating layer conv3_1
I0412 18:03:02.459441  5705 net.cpp:100] Creating Layer conv3_1
I0412 18:03:02.459448  5705 net.cpp:434] conv3_1 <- pool2
I0412 18:03:02.459460  5705 net.cpp:408] conv3_1 -> conv3_1
I0412 18:03:02.460705  5705 net.cpp:150] Setting up conv3_1
I0412 18:03:02.460732  5705 net.cpp:157] Top shape: 1 256 250 375 (24000000)
I0412 18:03:02.460737  5705 net.cpp:165] Memory required for data: 2598000052
I0412 18:03:02.460757  5705 layer_factory.hpp:77] Creating layer relu3_1
I0412 18:03:02.460772  5705 net.cpp:100] Creating Layer relu3_1
I0412 18:03:02.460779  5705 net.cpp:434] relu3_1 <- conv3_1
I0412 18:03:02.460791  5705 net.cpp:395] relu3_1 -> conv3_1 (in-place)
I0412 18:03:02.460806  5705 net.cpp:150] Setting up relu3_1
I0412 18:03:02.460816  5705 net.cpp:157] Top shape: 1 256 250 375 (24000000)
I0412 18:03:02.460822  5705 net.cpp:165] Memory required for data: 2694000052
I0412 18:03:02.460827  5705 layer_factory.hpp:77] Creating layer conv3_2
I0412 18:03:02.460841  5705 net.cpp:100] Creating Layer conv3_2
I0412 18:03:02.460850  5705 net.cpp:434] conv3_2 <- conv3_1
I0412 18:03:02.460857  5705 net.cpp:408] conv3_2 -> conv3_2
I0412 18:03:02.462167  5705 net.cpp:150] Setting up conv3_2
I0412 18:03:02.462194  5705 net.cpp:157] Top shape: 1 256 250 375 (24000000)
I0412 18:03:02.462198  5705 net.cpp:165] Memory required for data: 2790000052
I0412 18:03:02.462208  5705 layer_factory.hpp:77] Creating layer relu3_2
I0412 18:03:02.462220  5705 net.cpp:100] Creating Layer relu3_2
I0412 18:03:02.462229  5705 net.cpp:434] relu3_2 <- conv3_2
I0412 18:03:02.462239  5705 net.cpp:395] relu3_2 -> conv3_2 (in-place)
I0412 18:03:02.462251  5705 net.cpp:150] Setting up relu3_2
I0412 18:03:02.462260  5705 net.cpp:157] Top shape: 1 256 250 375 (24000000)
I0412 18:03:02.462266  5705 net.cpp:165] Memory required for data: 2886000052
I0412 18:03:02.462271  5705 layer_factory.hpp:77] Creating layer conv3_3
I0412 18:03:02.462291  5705 net.cpp:100] Creating Layer conv3_3
I0412 18:03:02.462298  5705 net.cpp:434] conv3_3 <- conv3_2
I0412 18:03:02.462307  5705 net.cpp:408] conv3_3 -> conv3_3
I0412 18:03:02.464296  5705 net.cpp:150] Setting up conv3_3
I0412 18:03:02.464329  5705 net.cpp:157] Top shape: 1 256 250 375 (24000000)
I0412 18:03:02.464335  5705 net.cpp:165] Memory required for data: 2982000052
I0412 18:03:02.464349  5705 layer_factory.hpp:77] Creating layer relu3_3
I0412 18:03:02.464362  5705 net.cpp:100] Creating Layer relu3_3
I0412 18:03:02.464370  5705 net.cpp:434] relu3_3 <- conv3_3
I0412 18:03:02.464382  5705 net.cpp:395] relu3_3 -> conv3_3 (in-place)
I0412 18:03:02.464396  5705 net.cpp:150] Setting up relu3_3
I0412 18:03:02.464404  5705 net.cpp:157] Top shape: 1 256 250 375 (24000000)
I0412 18:03:02.464409  5705 net.cpp:165] Memory required for data: 3078000052
I0412 18:03:02.464414  5705 layer_factory.hpp:77] Creating layer pool3
I0412 18:03:02.464424  5705 net.cpp:100] Creating Layer pool3
I0412 18:03:02.464431  5705 net.cpp:434] pool3 <- conv3_3
I0412 18:03:02.464437  5705 net.cpp:408] pool3 -> pool3
I0412 18:03:02.464490  5705 net.cpp:150] Setting up pool3
I0412 18:03:02.464501  5705 net.cpp:157] Top shape: 1 256 125 188 (6016000)
I0412 18:03:02.464507  5705 net.cpp:165] Memory required for data: 3102064052
I0412 18:03:02.464512  5705 layer_factory.hpp:77] Creating layer conv4_1
I0412 18:03:02.464524  5705 net.cpp:100] Creating Layer conv4_1
I0412 18:03:02.464529  5705 net.cpp:434] conv4_1 <- pool3
I0412 18:03:02.464539  5705 net.cpp:408] conv4_1 -> conv4_1
I0412 18:03:02.468147  5705 net.cpp:150] Setting up conv4_1
I0412 18:03:02.468186  5705 net.cpp:157] Top shape: 1 512 125 188 (12032000)
I0412 18:03:02.468192  5705 net.cpp:165] Memory required for data: 3150192052
I0412 18:03:02.468206  5705 layer_factory.hpp:77] Creating layer relu4_1
I0412 18:03:02.468219  5705 net.cpp:100] Creating Layer relu4_1
I0412 18:03:02.468226  5705 net.cpp:434] relu4_1 <- conv4_1
I0412 18:03:02.468235  5705 net.cpp:395] relu4_1 -> conv4_1 (in-place)
I0412 18:03:02.468248  5705 net.cpp:150] Setting up relu4_1
I0412 18:03:02.468257  5705 net.cpp:157] Top shape: 1 512 125 188 (12032000)
I0412 18:03:02.468261  5705 net.cpp:165] Memory required for data: 3198320052
I0412 18:03:02.468266  5705 layer_factory.hpp:77] Creating layer conv4_2
I0412 18:03:02.468281  5705 net.cpp:100] Creating Layer conv4_2
I0412 18:03:02.468288  5705 net.cpp:434] conv4_2 <- conv4_1
I0412 18:03:02.468298  5705 net.cpp:408] conv4_2 -> conv4_2
I0412 18:03:02.473776  5705 net.cpp:150] Setting up conv4_2
I0412 18:03:02.473829  5705 net.cpp:157] Top shape: 1 512 125 188 (12032000)
I0412 18:03:02.473835  5705 net.cpp:165] Memory required for data: 3246448052
I0412 18:03:02.473856  5705 layer_factory.hpp:77] Creating layer relu4_2
I0412 18:03:02.473871  5705 net.cpp:100] Creating Layer relu4_2
I0412 18:03:02.473878  5705 net.cpp:434] relu4_2 <- conv4_2
I0412 18:03:02.473888  5705 net.cpp:395] relu4_2 -> conv4_2 (in-place)
I0412 18:03:02.473917  5705 net.cpp:150] Setting up relu4_2
I0412 18:03:02.473925  5705 net.cpp:157] Top shape: 1 512 125 188 (12032000)
I0412 18:03:02.473930  5705 net.cpp:165] Memory required for data: 3294576052
I0412 18:03:02.473935  5705 layer_factory.hpp:77] Creating layer conv4_3
I0412 18:03:02.473948  5705 net.cpp:100] Creating Layer conv4_3
I0412 18:03:02.473968  5705 net.cpp:434] conv4_3 <- conv4_2
I0412 18:03:02.473975  5705 net.cpp:408] conv4_3 -> conv4_3
I0412 18:03:02.479521  5705 net.cpp:150] Setting up conv4_3
I0412 18:03:02.479568  5705 net.cpp:157] Top shape: 1 512 125 188 (12032000)
I0412 18:03:02.479575  5705 net.cpp:165] Memory required for data: 3342704052
I0412 18:03:02.479591  5705 layer_factory.hpp:77] Creating layer relu4_3
I0412 18:03:02.479604  5705 net.cpp:100] Creating Layer relu4_3
I0412 18:03:02.479614  5705 net.cpp:434] relu4_3 <- conv4_3
I0412 18:03:02.479624  5705 net.cpp:395] relu4_3 -> conv4_3 (in-place)
I0412 18:03:02.479637  5705 net.cpp:150] Setting up relu4_3
I0412 18:03:02.479646  5705 net.cpp:157] Top shape: 1 512 125 188 (12032000)
I0412 18:03:02.479665  5705 net.cpp:165] Memory required for data: 3390832052
I0412 18:03:02.479671  5705 layer_factory.hpp:77] Creating layer pool4
I0412 18:03:02.479683  5705 net.cpp:100] Creating Layer pool4
I0412 18:03:02.479692  5705 net.cpp:434] pool4 <- conv4_3
I0412 18:03:02.479702  5705 net.cpp:408] pool4 -> pool4
I0412 18:03:02.479763  5705 net.cpp:150] Setting up pool4
I0412 18:03:02.479776  5705 net.cpp:157] Top shape: 1 512 63 94 (3032064)
I0412 18:03:02.479781  5705 net.cpp:165] Memory required for data: 3402960308
I0412 18:03:02.479787  5705 layer_factory.hpp:77] Creating layer conv5_1
I0412 18:03:02.479802  5705 net.cpp:100] Creating Layer conv5_1
I0412 18:03:02.479825  5705 net.cpp:434] conv5_1 <- pool4
I0412 18:03:02.479836  5705 net.cpp:408] conv5_1 -> conv5_1
I0412 18:03:02.485927  5705 net.cpp:150] Setting up conv5_1
I0412 18:03:02.485968  5705 net.cpp:157] Top shape: 1 512 63 94 (3032064)
I0412 18:03:02.485975  5705 net.cpp:165] Memory required for data: 3415088564
I0412 18:03:02.485991  5705 layer_factory.hpp:77] Creating layer relu5_1
I0412 18:03:02.486006  5705 net.cpp:100] Creating Layer relu5_1
I0412 18:03:02.486012  5705 net.cpp:434] relu5_1 <- conv5_1
I0412 18:03:02.486023  5705 net.cpp:395] relu5_1 -> conv5_1 (in-place)
I0412 18:03:02.486037  5705 net.cpp:150] Setting up relu5_1
I0412 18:03:02.486044  5705 net.cpp:157] Top shape: 1 512 63 94 (3032064)
I0412 18:03:02.486049  5705 net.cpp:165] Memory required for data: 3427216820
I0412 18:03:02.486054  5705 layer_factory.hpp:77] Creating layer conv5_2
I0412 18:03:02.486068  5705 net.cpp:100] Creating Layer conv5_2
I0412 18:03:02.486079  5705 net.cpp:434] conv5_2 <- conv5_1
I0412 18:03:02.486090  5705 net.cpp:408] conv5_2 -> conv5_2
I0412 18:03:02.491552  5705 net.cpp:150] Setting up conv5_2
I0412 18:03:02.491601  5705 net.cpp:157] Top shape: 1 512 63 94 (3032064)
I0412 18:03:02.491608  5705 net.cpp:165] Memory required for data: 3439345076
I0412 18:03:02.491623  5705 layer_factory.hpp:77] Creating layer relu5_2
I0412 18:03:02.491639  5705 net.cpp:100] Creating Layer relu5_2
I0412 18:03:02.491647  5705 net.cpp:434] relu5_2 <- conv5_2
I0412 18:03:02.491659  5705 net.cpp:395] relu5_2 -> conv5_2 (in-place)
I0412 18:03:02.491673  5705 net.cpp:150] Setting up relu5_2
I0412 18:03:02.491681  5705 net.cpp:157] Top shape: 1 512 63 94 (3032064)
I0412 18:03:02.491698  5705 net.cpp:165] Memory required for data: 3451473332
I0412 18:03:02.491704  5705 layer_factory.hpp:77] Creating layer conv5_3
I0412 18:03:02.491721  5705 net.cpp:100] Creating Layer conv5_3
I0412 18:03:02.491729  5705 net.cpp:434] conv5_3 <- conv5_2
I0412 18:03:02.491740  5705 net.cpp:408] conv5_3 -> conv5_3
I0412 18:03:02.497232  5705 net.cpp:150] Setting up conv5_3
I0412 18:03:02.497278  5705 net.cpp:157] Top shape: 1 512 63 94 (3032064)
I0412 18:03:02.497287  5705 net.cpp:165] Memory required for data: 3463601588
I0412 18:03:02.497303  5705 layer_factory.hpp:77] Creating layer relu5_3
I0412 18:03:02.497316  5705 net.cpp:100] Creating Layer relu5_3
I0412 18:03:02.497325  5705 net.cpp:434] relu5_3 <- conv5_3
I0412 18:03:02.497341  5705 net.cpp:395] relu5_3 -> conv5_3 (in-place)
I0412 18:03:02.497402  5705 net.cpp:150] Setting up relu5_3
I0412 18:03:02.497431  5705 net.cpp:157] Top shape: 1 512 63 94 (3032064)
I0412 18:03:02.497452  5705 net.cpp:165] Memory required for data: 3475729844
I0412 18:03:02.497472  5705 layer_factory.hpp:77] Creating layer conv5_3_relu5_3_0_split
I0412 18:03:02.497504  5705 net.cpp:100] Creating Layer conv5_3_relu5_3_0_split
I0412 18:03:02.497526  5705 net.cpp:434] conv5_3_relu5_3_0_split <- conv5_3
I0412 18:03:02.497560  5705 net.cpp:408] conv5_3_relu5_3_0_split -> conv5_3_relu5_3_0_split_0
I0412 18:03:02.497587  5705 net.cpp:408] conv5_3_relu5_3_0_split -> conv5_3_relu5_3_0_split_1
I0412 18:03:02.497661  5705 net.cpp:150] Setting up conv5_3_relu5_3_0_split
I0412 18:03:02.497686  5705 net.cpp:157] Top shape: 1 512 63 94 (3032064)
I0412 18:03:02.497707  5705 net.cpp:157] Top shape: 1 512 63 94 (3032064)
I0412 18:03:02.497725  5705 net.cpp:165] Memory required for data: 3499986356
I0412 18:03:02.497742  5705 layer_factory.hpp:77] Creating layer fc6
I0412 18:03:02.497766  5705 net.cpp:100] Creating Layer fc6
I0412 18:03:02.497786  5705 net.cpp:434] fc6 <- conv5_3_relu5_3_0_split_0
I0412 18:03:02.497807  5705 net.cpp:408] fc6 -> fc6
F0412 18:03:02.497861  5705 blob.cpp:186] Check failed: data_ 
…
