…
I0406 15:19:49.911507  6454 solver.cpp:48] Initializing solver from parameters: 
base_lr: 0.001
display: 20
lr_policy: "multistep"
gamma: 0.1
momentum: 0.9
weight_decay: 0.0005
snapshot: 0
snapshot_prefix: "faces_example"
net_param {
  name: "GeneratedModel_06_04_2017_15_19"
  layer {
    name: "input"
    type: "Python"
    top: "input_data"
    top: "input_im_info"
    top: "input_gt_boxes"
    top: "input_ignored_boxes"
    python_param {
      module: "layers.roi_data_layer"
      layer: "RoIDataLayer"
      param_str: "{\"num_classes\": 2}"
    }
  }
  layer {
    name: "conv1_1"
    type: "Convolution"
    bottom: "input_data"
    top: "conv1_1"
    param {
      lr_mult: 0
      decay_mult: 0
    }
    param {
      lr_mult: 0
      decay_mult: 0
    }
    convolution_param {
      num_output: 64
      pad: 1
      kernel_size: 3
    }
  }
  layer {
    name: "relu1_1"
    type: "ReLU"
    bottom: "conv1_1"
    top: "conv1_1"
  }
  layer {
    name: "conv1_2"
    type: "Convolution"
    bottom: "conv1_1"
    top: "conv1_2"
    param {
      lr_mult: 0
      decay_mult: 0
    }
    param {
      lr_mult: 0
      decay_mult: 0
    }
    convolution_param {
      num_output: 64
      pad: 1
      kernel_size: 3
    }
  }
  layer {
    name: "relu1_2"
    type: "ReLU"
    bottom: "conv1_2"
    top: "conv1_2"
  }
  layer {
    name: "pool1"
    type: "Pooling"
    bottom: "conv1_2"
    top: "pool1"
    pooling_param {
      pool: MAX
      kernel_size: 2
      stride: 2
    }
  }
  layer {
    name: "conv2_1"
    type: "Convolution"
    bottom: "pool1"
    top: "conv2_1"
    param {
      lr_mult: 0
      decay_mult: 0
    }
    param {
      lr_mult: 0
      decay_mult: 0
    }
    convolution_param {
      num_output: 128
      pad: 1
      kernel_size: 3
    }
  }
  layer {
    name: "relu2_1"
    type: "ReLU"
    bottom: "conv2_1"
    top: "conv2_1"
  }
  layer {
    name: "conv2_2"
    type: "Convolution"
    bottom: "conv2_1"
    top: "conv2_2"
    param {
      lr_mult: 0
      decay_mult: 0
    }
    param {
      lr_mult: 0
      decay_mult: 0
    }
    convolution_param {
      num_output: 128
      pad: 1
      kernel_size: 3
    }
  }
  layer {
    name: "relu2_2"
    type: "ReLU"
    bottom: "conv2_2"
    top: "conv2_2"
  }
  layer {
    name: "pool2"
    type: "Pooling"
    bottom: "conv2_2"
    top: "pool2"
    pooling_param {
      pool: MAX
      kernel_size: 2
      stride: 2
    }
  }
  layer {
    name: "conv3_1"
    type: "Convolution"
    bottom: "pool2"
    top: "conv3_1"
    param {
      lr_mult: 1
    }
    param {
      lr_mult: 2
    }
    convolution_param {
      num_output: 256
      pad: 1
      kernel_size: 3
    }
  }
  layer {
    name: "relu3_1"
    type: "ReLU"
    bottom: "conv3_1"
    top: "conv3_1"
  }
  layer {
    name: "conv3_2"
    type: "Convolution"
    bottom: "conv3_1"
    top: "conv3_2"
    param {
      lr_mult: 1
    }
    param {
      lr_mult: 2
    }
    convolution_param {
      num_output: 256
      pad: 1
      kernel_size: 3
    }
  }
  layer {
    name: "relu3_2"
    type: "ReLU"
    bottom: "conv3_2"
    top: "conv3_2"
  }
  layer {
    name: "conv3_3"
    type: "Convolution"
    bottom: "conv3_2"
    top: "conv3_3"
    param {
      lr_mult: 1
    }
    param {
      lr_mult: 2
    }
    convolution_param {
      num_output: 256
      pad: 1
      kernel_size: 3
    }
  }
  layer {
    name: "relu3_3"
    type: "ReLU"
    bottom: "conv3_3"
    top: "conv3_3"
  }
  layer {
    name: "pool3"
    type: "Pooling"
    bottom: "conv3_3"
    top: "pool3"
    pooling_param {
      pool: MAX
      kernel_size: 2
      stride: 2
    }
  }
  layer {
    name: "conv4_1"
    type: "Convolution"
    bottom: "pool3"
    top: "conv4_1"
    param {
      lr_mult: 1
    }
    param {
      lr_mult: 2
    }
    convolution_param {
      num_output: 512
      pad: 1
      kernel_size: 3
    }
  }
  layer {
    name: "relu4_1"
    type: "ReLU"
    bottom: "conv4_1"
    top: "conv4_1"
  }
  layer {
    name: "conv4_2"
    type: "Convolution"
    bottom: "conv4_1"
    top: "conv4_2"
    param {
      lr_mult: 1
    }
    param {
      lr_mult: 2
    }
    convolution_param {
      num_output: 512
      pad: 1
      kernel_size: 3
    }
  }
  layer {
    name: "relu4_2"
    type: "ReLU"
    bottom: "conv4_2"
    top: "conv4_2"
  }
  layer {
    name: "conv4_3"
    type: "Convolution"
    bottom: "conv4_2"
    top: "conv4_3"
    param {
      lr_mult: 1
    }
    param {
      lr_mult: 2
    }
    convolution_param {
      num_output: 512
      pad: 1
      kernel_size: 3
    }
  }
  layer {
    name: "relu4_3"
    type: "ReLU"
    bottom: "conv4_3"
    top: "conv4_3"
  }
  layer {
    name: "pool4"
    type: "Pooling"
    bottom: "conv4_3"
    top: "pool4"
    pooling_param {
      pool: MAX
      kernel_size: 2
      stride: 2
    }
  }
  layer {
    name: "conv5_1"
    type: "Convolution"
    bottom: "pool4"
    top: "conv5_1"
    param {
      lr_mult: 1
    }
    param {
      lr_mult: 2
    }
    convolution_param {
      num_output: 512
      pad: 1
      kernel_size: 3
    }
  }
  layer {
    name: "relu5_1"
    type: "ReLU"
    bottom: "conv5_1"
    top: "conv5_1"
  }
  layer {
    name: "conv5_2"
    type: "Convolution"
    bottom: "conv5_1"
    top: "conv5_2"
    param {
      lr_mult: 1
    }
    param {
      lr_mult: 2
    }
    convolution_param {
      num_output: 512
      pad: 1
      kernel_size: 3
    }
  }
  layer {
    name: "relu5_2"
    type: "ReLU"
    bottom: "conv5_2"
    top: "conv5_2"
  }
  layer {
    name: "conv5_3"
    type: "Convolution"
    bottom: "conv5_2"
    top: "conv5_3"
    param {
      lr_mult: 1
    }
    param {
      lr_mult: 2
    }
    convolution_param {
      num_output: 512
      pad: 1
      kernel_size: 3
    }
  }
  layer {
    name: "relu5_3"
    type: "ReLU"
    bottom: "conv5_3"
    top: "conv5_3"
  }
  layer {
    name: "rpn_big_conv1"
    type: "Convolution"
    bottom: "conv5_3"
    top: "rpn_big_conv1"
    param {
      lr_mult: 1
    }
    param {
      lr_mult: 2
    }
    convolution_param {
      num_output: 512
      pad: 1
      kernel_size: 3
      stride: 1
      weight_filler {
        type: "gaussian"
        mean: 0
        std: 0.01
      }
      bias_filler {
        type: "constant"
      }
    }
  }
  layer {
    name: "rpn_big_conv1_relu"
    type: "ReLU"
    bottom: "rpn_big_conv1"
    top: "rpn_big_conv1"
    relu_param {
      negative_slope: 0
    }
  }
  layer {
    name: "rpn_big_conv2"
    type: "Convolution"
    bottom: "rpn_big_conv1"
    top: "rpn_big_conv2"
    param {
      lr_mult: 1
    }
    param {
      lr_mult: 2
    }
    convolution_param {
      num_output: 512
      pad: 1
      kernel_size: 3
      stride: 1
      weight_filler {
        type: "gaussian"
        mean: 0
        std: 0.01
      }
      bias_filler {
        type: "constant"
      }
    }
  }
  layer {
    name: "rpn_big_conv2_relu"
    type: "ReLU"
    bottom: "rpn_big_conv2"
    top: "rpn_big_conv2"
    relu_param {
      negative_slope: 0
    }
  }
  layer {
    name: "rpn_big_conv2_drop"
    type: "Dropout"
    bottom: "rpn_big_conv2"
    top: "rpn_big_conv2"
    dropout_param {
      dropout_ratio: 0.3
    }
  }
  layer {
    name: "rpn_big_output_cls"
    type: "Convolution"
    bottom: "rpn_big_conv2"
    top: "rpn_big_output_cls"
    param {
      lr_mult: 1
    }
    param {
      lr_mult: 2
    }
    convolution_param {
      num_output: 384
      pad: 1
      kernel_size: 3
      stride: 1
      weight_filler {
        type: "gaussian"
        mean: 0
        std: 0.01
      }
      bias_filler {
        type: "constant"
      }
    }
  }
  layer {
    name: "rpn_big_output_cls_relu"
    type: "ReLU"
    bottom: "rpn_big_output_cls"
    top: "rpn_big_output_cls"
    relu_param {
      negative_slope: 0
    }
  }
  layer {
    name: "rpn_big_cls_score"
    type: "Convolution"
    bottom: "rpn_big_output_cls"
    top: "rpn_big_cls_score"
    param {
      lr_mult: 1
    }
    param {
      lr_mult: 2
    }
    convolution_param {
      num_output: 52
      pad: 0
      kernel_size: 3
      stride: 1
      weight_filler {
        type: "gaussian"
        mean: 0
        std: 0.01
      }
      bias_filler {
        type: "constant"
      }
    }
  }
  layer {
    name: "rpn_big_cls_score_reshape"
    type: "Reshape"
    bottom: "rpn_big_cls_score"
    top: "rpn_big_cls_score_reshape"
    reshape_param {
      shape {
        dim: 0
        dim: 2
        dim: -1
        dim: 0
      }
    }
  }
  layer {
    name: "rpn_big_cls_prob"
    type: "Softmax"
    bottom: "rpn_big_cls_score_reshape"
    top: "rpn_big_cls_prob"
  }
  layer {
    name: "rpn_big_cls_prob_reshape"
    type: "Reshape"
    bottom: "rpn_big_cls_prob"
    top: "rpn_big_cls_prob_reshape"
    reshape_param {
      shape {
        dim: 0
        dim: 52
        dim: -1
        dim: 0
      }
    }
  }
  layer {
    name: "rpn_big_anchor_target"
    type: "Python"
    bottom: "rpn_big_cls_score"
    bottom: "input_gt_boxes"
    bottom: "input_ignored_boxes"
    bottom: "input_im_info"
    bottom: "input_data"
    bottom: "rpn_big_cls_prob_reshape"
    top: "rpn_big_anchor_target_labels"
    top: "rpn_big_anchor_target_bbox_targets"
    top: "rpn_big_anchor_target_inside_weights"
    top: "rpn_big_anchor_target_outside_weights"
    python_param {
      module: "rpn.anchor_target_layer"
      layer: "AnchorTargetLayer"
      param_str: "{\"fg_fraction\": 0.5, \"negative_overlap\": 0.4, \"tn_fraction\": 0.2, \"name\": \"rpn_big\", \"num_classes\": 1, \"feat_stride\": 16, \"anchor_scales\": [2.5, 3.025, 3.66025, 4.4289024999999995, 5.358972025, 6.484356150249999, 7.846070941802498, 9.493745839581022, 11.487432465893036, 13.899793283730574, 16.818749873313998, 20.350687346709933, 24.62433168951902, 29.795441344318014], \"anchor_shift_num_xy\": [[2, 2], [2, 2], [2, 2], [2, 2], [1, 1], [1, 1], [1, 1], [1, 1], [1, 1], [1, 1], [1, 1], [1, 1], [1, 1], [1, 1]], \"square_targets\": true, \"positive_overlap\": 0.6, \"batchsize\": 256, \"anchor_ratios\": [1.0]}"
    }
  }
  layer {
    name: "rpn_big_loss_cls"
    type: "SoftmaxWithLoss"
    bottom: "rpn_big_cls_score_reshape"
    bottom: "rpn_big_anchor_target_labels"
    top: "rpn_big_loss_cls"
    loss_weight: 1
    propagate_down: true
    propagate_down: false
    loss_param {
      ignore_label: -1
      normalization: VALID
    }
  }
  layer {
    name: "rpn_big_output_box"
    type: "Convolution"
    bottom: "rpn_big_conv2"
    top: "rpn_big_output_box"
    param {
      lr_mult: 1
    }
    param {
      lr_mult: 2
    }
    convolution_param {
      num_output: 384
      pad: 1
      kernel_size: 3
      stride: 1
      weight_filler {
        type: "gaussian"
        mean: 0
        std: 0.01
      }
      bias_filler {
        type: "constant"
      }
    }
  }
  layer {
    name: "rpn_big_output_box_relu"
    type: "ReLU"
    bottom: "rpn_big_output_box"
    top: "rpn_big_output_box"
    relu_param {
      negative_slope: 0
    }
  }
  layer {
    name: "rpn_big_bbox_pred"
    type: "Convolution"
    bottom: "rpn_big_output_box"
    top: "rpn_big_bbox_pred"
    param {
      lr_mult: 1
    }
    param {
      lr_mult: 2
    }
    convolution_param {
      num_output: 104
      pad: 0
      kernel_size: 3
      stride: 1
      weight_filler {
        type: "gaussian"
        mean: 0
        std: 0.01
      }
      bias_filler {
        type: "constant"
      }
    }
  }
  layer {
    name: "rpn_big_loss_bbox"
    type: "Python"
    bottom: "rpn_big_bbox_pred"
    bottom: "rpn_big_anchor_target_bbox_targets"
    bottom: "rpn_big_anchor_target_inside_weights"
    bottom: "rpn_big_anchor_target_outside_weights"
    top: "rpn_big_loss_bbox"
    loss_weight: 1
    python_param {
      module: "layers.smooth_l1_loss"
      layer: "SmoothL1LossLayer"
      param_str: "{\"sigma\": 3}"
    }
  }
}
average_loss: 100
stepvalue: 70000
stepvalue: 120000
iter_size: 2
I0406 15:19:49.911584  6454 solver.cpp:86] Creating training net specified in net_param.
I0406 15:19:49.911975  6454 net.cpp:49] Initializing net from parameters: 
name: "GeneratedModel_06_04_2017_15_19"
state {
  phase: TRAIN
}
layer {
  name: "input"
  type: "Python"
  top: "input_data"
  top: "input_im_info"
  top: "input_gt_boxes"
  top: "input_ignored_boxes"
  python_param {
    module: "layers.roi_data_layer"
    layer: "RoIDataLayer"
    param_str: "{\"num_classes\": 2}"
  }
}
layer {
  name: "conv1_1"
  type: "Convolution"
  bottom: "input_data"
  top: "conv1_1"
  param {
    lr_mult: 0
    decay_mult: 0
  }
  param {
    lr_mult: 0
    decay_mult: 0
  }
  convolution_param {
    num_output: 64
    pad: 1
    kernel_size: 3
  }
}
layer {
  name: "relu1_1"
  type: "ReLU"
  bottom: "conv1_1"
  top: "conv1_1"
}
layer {
  name: "conv1_2"
  type: "Convolution"
  bottom: "conv1_1"
  top: "conv1_2"
  param {
    lr_mult: 0
    decay_mult: 0
  }
  param {
    lr_mult: 0
    decay_mult: 0
  }
  convolution_param {
    num_output: 64
    pad: 1
    kernel_size: 3
  }
}
layer {
  name: "relu1_2"
  type: "ReLU"
  bottom: "conv1_2"
  top: "conv1_2"
}
layer {
  name: "pool1"
  type: "Pooling"
  bottom: "conv1_2"
  top: "pool1"
  pooling_param {
    pool: MAX
    kernel_size: 2
    stride: 2
  }
}
layer {
  name: "conv2_1"
  type: "Convolution"
  bottom: "pool1"
  top: "conv2_1"
  param {
    lr_mult: 0
    decay_mult: 0
  }
  param {
    lr_mult: 0
    decay_mult: 0
  }
  convolution_param {
    num_output: 128
    pad: 1
    kernel_size: 3
  }
}
layer {
  name: "relu2_1"
  type: "ReLU"
  bottom: "conv2_1"
  top: "conv2_1"
}
layer {
  name: "conv2_2"
  type: "Convolution"
  bottom: "conv2_1"
  top: "conv2_2"
  param {
    lr_mult: 0
    decay_mult: 0
  }
  param {
    lr_mult: 0
    decay_mult: 0
  }
  convolution_param {
    num_output: 128
    pad: 1
    kernel_size: 3
  }
}
layer {
  name: "relu2_2"
  type: "ReLU"
  bottom: "conv2_2"
  top: "conv2_2"
}
layer {
  name: "pool2"
  type: "Pooling"
  bottom: "conv2_2"
  top: "pool2"
  pooling_param {
    pool: MAX
    kernel_size: 2
    stride: 2
  }
}
layer {
  name: "conv3_1"
  type: "Convolution"
  bottom: "pool2"
  top: "conv3_1"
  param {
    lr_mult: 1
  }
  param {
    lr_mult: 2
  }
  convolution_param {
    num_output: 256
    pad: 1
    kernel_size: 3
  }
}
layer {
  name: "relu3_1"
  type: "ReLU"
  bottom: "conv3_1"
  top: "conv3_1"
}
layer {
  name: "conv3_2"
  type: "Convolution"
  bottom: "conv3_1"
  top: "conv3_2"
  param {
    lr_mult: 1
  }
  param {
    lr_mult: 2
  }
  convolution_param {
    num_output: 256
    pad: 1
    kernel_size: 3
  }
}
layer {
  name: "relu3_2"
  type: "ReLU"
  bottom: "conv3_2"
  top: "conv3_2"
}
layer {
  name: "conv3_3"
  type: "Convolution"
  bottom: "conv3_2"
  top: "conv3_3"
  param {
    lr_mult: 1
  }
  param {
    lr_mult: 2
  }
  convolution_param {
    num_output: 256
    pad: 1
    kernel_size: 3
  }
}
layer {
  name: "relu3_3"
  type: "ReLU"
  bottom: "conv3_3"
  top: "conv3_3"
}
layer {
  name: "pool3"
  type: "Pooling"
  bottom: "conv3_3"
  top: "pool3"
  pooling_param {
    pool: MAX
    kernel_size: 2
    stride: 2
  }
}
layer {
  name: "conv4_1"
  type: "Convolution"
  bottom: "pool3"
  top: "conv4_1"
  param {
    lr_mult: 1
  }
  param {
    lr_mult: 2
  }
  convolution_param {
    num_output: 512
    pad: 1
    kernel_size: 3
  }
}
layer {
  name: "relu4_1"
  type: "ReLU"
  bottom: "conv4_1"
  top: "conv4_1"
}
layer {
  name: "conv4_2"
  type: "Convolution"
  bottom: "conv4_1"
  top: "conv4_2"
  param {
    lr_mult: 1
  }
  param {
    lr_mult: 2
  }
  convolution_param {
    num_output: 512
    pad: 1
    kernel_size: 3
  }
}
layer {
  name: "relu4_2"
  type: "ReLU"
  bottom: "conv4_2"
  top: "conv4_2"
}
layer {
  name: "conv4_3"
  type: "Convolution"
  bottom: "conv4_2"
  top: "conv4_3"
  param {
    lr_mult: 1
  }
  param {
    lr_mult: 2
  }
  convolution_param {
    num_output: 512
    pad: 1
    kernel_size: 3
  }
}
layer {
  name: "relu4_3"
  type: "ReLU"
  bottom: "conv4_3"
  top: "conv4_3"
}
layer {
  name: "pool4"
  type: "Pooling"
  bottom: "conv4_3"
  top: "pool4"
  pooling_param {
    pool: MAX
    kernel_size: 2
    stride: 2
  }
}
layer {
  name: "conv5_1"
  type: "Convolution"
  bottom: "pool4"
  top: "conv5_1"
  param {
    lr_mult: 1
  }
  param {
    lr_mult: 2
  }
  convolution_param {
    num_output: 512
    pad: 1
    kernel_size: 3
  }
}
layer {
  name: "relu5_1"
  type: "ReLU"
  bottom: "conv5_1"
  top: "conv5_1"
}
layer {
  name: "conv5_2"
  type: "Convolution"
  bottom: "conv5_1"
  top: "conv5_2"
  param {
    lr_mult: 1
  }
  param {
    lr_mult: 2
  }
  convolution_param {
    num_output: 512
    pad: 1
    kernel_size: 3
  }
}
layer {
  name: "relu5_2"
  type: "ReLU"
  bottom: "conv5_2"
  top: "conv5_2"
}
layer {
  name: "conv5_3"
  type: "Convolution"
  bottom: "conv5_2"
  top: "conv5_3"
  param {
    lr_mult: 1
  }
  param {
    lr_mult: 2
  }
  convolution_param {
    num_output: 512
    pad: 1
    kernel_size: 3
  }
}
layer {
  name: "relu5_3"
  type: "ReLU"
  bottom: "conv5_3"
  top: "conv5_3"
}
layer {
  name: "rpn_big_conv1"
  type: "Convolution"
  bottom: "conv5_3"
  top: "rpn_big_conv1"
  param {
    lr_mult: 1
  }
  param {
    lr_mult: 2
  }
  convolution_param {
    num_output: 512
    pad: 1
    kernel_size: 3
    stride: 1
    weight_filler {
      type: "gaussian"
      mean: 0
      std: 0.01
    }
    bias_filler {
      type: "constant"
    }
  }
}
layer {
  name: "rpn_big_conv1_relu"
  type: "ReLU"
  bottom: "rpn_big_conv1"
  top: "rpn_big_conv1"
  relu_param {
    negative_slope: 0
  }
}
layer {
  name: "rpn_big_conv2"
  type: "Convolution"
  bottom: "rpn_big_conv1"
  top: "rpn_big_conv2"
  param {
    lr_mult: 1
  }
  param {
    lr_mult: 2
  }
  convolution_param {
    num_output: 512
    pad: 1
    kernel_size: 3
    stride: 1
    weight_filler {
      type: "gaussian"
      mean: 0
      std: 0.01
    }
    bias_filler {
      type: "constant"
    }
  }
}
layer {
  name: "rpn_big_conv2_relu"
  type: "ReLU"
  bottom: "rpn_big_conv2"
  top: "rpn_big_conv2"
  relu_param {
    negative_slope: 0
  }
}
layer {
  name: "rpn_big_conv2_drop"
  type: "Dropout"
  bottom: "rpn_big_conv2"
  top: "rpn_big_conv2"
  dropout_param {
    dropout_ratio: 0.3
  }
}
layer {
  name: "rpn_big_output_cls"
  type: "Convolution"
  bottom: "rpn_big_conv2"
  top: "rpn_big_output_cls"
  param {
    lr_mult: 1
  }
  param {
    lr_mult: 2
  }
  convolution_param {
    num_output: 384
    pad: 1
    kernel_size: 3
    stride: 1
    weight_filler {
      type: "gaussian"
      mean: 0
      std: 0.01
    }
    bias_filler {
      type: "constant"
    }
  }
}
layer {
  name: "rpn_big_output_cls_relu"
  type: "ReLU"
  bottom: "rpn_big_output_cls"
  top: "rpn_big_output_cls"
  relu_param {
    negative_slope: 0
  }
}
layer {
  name: "rpn_big_cls_score"
  type: "Convolution"
  bottom: "rpn_big_output_cls"
  top: "rpn_big_cls_score"
  param {
    lr_mult: 1
  }
  param {
    lr_mult: 2
  }
  convolution_param {
    num_output: 52
    pad: 0
    kernel_size: 3
    stride: 1
    weight_filler {
      type: "gaussian"
      mean: 0
      std: 0.01
    }
    bias_filler {
      type: "constant"
    }
  }
}
layer {
  name: "rpn_big_cls_score_reshape"
  type: "Reshape"
  bottom: "rpn_big_cls_score"
  top: "rpn_big_cls_score_reshape"
  reshape_param {
    shape {
      dim: 0
      dim: 2
      dim: -1
      dim: 0
    }
  }
}
layer {
  name: "rpn_big_cls_prob"
  type: "Softmax"
  bottom: "rpn_big_cls_score_reshape"
  top: "rpn_big_cls_prob"
}
layer {
  name: "rpn_big_cls_prob_reshape"
  type: "Reshape"
  bottom: "rpn_big_cls_prob"
  top: "rpn_big_cls_prob_reshape"
  reshape_param {
    shape {
      dim: 0
      dim: 52
      dim: -1
      dim: 0
    }
  }
}
layer {
  name: "rpn_big_anchor_target"
  type: "Python"
  bottom: "rpn_big_cls_score"
  bottom: "input_gt_boxes"
  bottom: "input_ignored_boxes"
  bottom: "input_im_info"
  bottom: "input_data"
  bottom: "rpn_big_cls_prob_reshape"
  top: "rpn_big_anchor_target_labels"
  top: "rpn_big_anchor_target_bbox_targets"
  top: "rpn_big_anchor_target_inside_weights"
  top: "rpn_big_anchor_target_outside_weights"
  python_param {
    module: "rpn.anchor_target_layer"
    layer: "AnchorTargetLayer"
    param_str: "{\"fg_fraction\": 0.5, \"negative_overlap\": 0.4, \"tn_fraction\": 0.2, \"name\": \"rpn_big\", \"num_classes\": 1, \"feat_stride\": 16, \"anchor_scales\": [2.5, 3.025, 3.66025, 4.4289024999999995, 5.358972025, 6.484356150249999, 7.846070941802498, 9.493745839581022, 11.487432465893036, 13.899793283730574, 16.818749873313998, 20.350687346709933, 24.62433168951902, 29.795441344318014], \"anchor_shift_num_xy\": [[2, 2], [2, 2], [2, 2], [2, 2], [1, 1], [1, 1], [1, 1], [1, 1], [1, 1], [1, 1], [1, 1], [1, 1], [1, 1], [1, 1]], \"square_targets\": true, \"positive_overlap\": 0.6, \"batchsize\": 256, \"anchor_ratios\": [1.0]}"
  }
}
layer {
  name: "rpn_big_loss_cls"
  type: "SoftmaxWithLoss"
  bottom: "rpn_big_cls_score_reshape"
  bottom: "rpn_big_anchor_target_labels"
  top: "rpn_big_loss_cls"
  loss_weight: 1
  propagate_down: true
  propagate_down: false
  loss_param {
    ignore_label: -1
    normalization: VALID
  }
}
layer {
  name: "rpn_big_output_box"
  type: "Convolution"
  bottom: "rpn_big_conv2"
  top: "rpn_big_output_box"
  param {
    lr_mult: 1
  }
  param {
    lr_mult: 2
  }
  convolution_param {
    num_output: 384
    pad: 1
    kernel_size: 3
    stride: 1
    weight_filler {
      type: "gaussian"
      mean: 0
      std: 0.01
    }
    bias_filler {
      type: "constant"
    }
  }
}
layer {
  name: "rpn_big_output_box_relu"
  type: "ReLU"
  bottom: "rpn_big_output_box"
  top: "rpn_big_output_box"
  relu_param {
    negative_slope: 0
  }
}
layer {
  name: "rpn_big_bbox_pred"
  type: "Convolution"
  bottom: "rpn_big_output_box"
  top: "rpn_big_bbox_pred"
  param {
    lr_mult: 1
  }
  param {
    lr_mult: 2
  }
  convolution_param {
    num_output: 104
    pad: 0
    kernel_size: 3
    stride: 1
    weight_filler {
      type: "gaussian"
      mean: 0
      std: 0.01
    }
    bias_filler {
      type: "constant"
    }
  }
}
layer {
  name: "rpn_big_loss_bbox"
  type: "Python"
  bottom: "rpn_big_bbox_pred"
  bottom: "rpn_big_anchor_target_bbox_targets"
  bottom: "rpn_big_anchor_target_inside_weights"
  bottom: "rpn_big_anchor_target_outside_weights"
  top: "rpn_big_loss_bbox"
  loss_weight: 1
  python_param {
    module: "layers.smooth_l1_loss"
    layer: "SmoothL1LossLayer"
    param_str: "{\"sigma\": 3}"
  }
}
I0406 15:19:49.912143  6454 layer_factory.hpp:77] Creating layer input
I0406 15:19:49.913384  6454 net.cpp:106] Creating Layer input
I0406 15:19:49.913406  6454 net.cpp:411] input -> input_data
I0406 15:19:49.913419  6454 net.cpp:411] input -> input_im_info
I0406 15:19:49.913426  6454 net.cpp:411] input -> input_gt_boxes
I0406 15:19:49.913434  6454 net.cpp:411] input -> input_ignored_boxes
RoiDataLayer: name_to_top: {'data': 0, 'ignored_boxes': 3, 'gt_boxes': 2, 'im_info': 1}
I0406 15:19:50.247517  6454 net.cpp:150] Setting up input
I0406 15:19:50.247572  6454 net.cpp:157] Top shape: 1 3 1000 1500 (4500000)
I0406 15:19:50.247596  6454 net.cpp:157] Top shape: 1 3 (3)
I0406 15:19:50.247617  6454 net.cpp:157] Top shape: 1 5 (5)
I0406 15:19:50.247638  6454 net.cpp:157] Top shape: 1 5 (5)
I0406 15:19:50.247655  6454 net.cpp:165] Memory required for data: 18000052
I0406 15:19:50.247678  6454 layer_factory.hpp:77] Creating layer input_data_input_0_split
I0406 15:19:50.247710  6454 net.cpp:106] Creating Layer input_data_input_0_split
I0406 15:19:50.247730  6454 net.cpp:454] input_data_input_0_split <- input_data
I0406 15:19:50.247756  6454 net.cpp:411] input_data_input_0_split -> input_data_input_0_split_0
I0406 15:19:50.247784  6454 net.cpp:411] input_data_input_0_split -> input_data_input_0_split_1
I0406 15:19:50.247844  6454 net.cpp:150] Setting up input_data_input_0_split
I0406 15:19:50.247854  6454 net.cpp:157] Top shape: 1 3 1000 1500 (4500000)
I0406 15:19:50.247862  6454 net.cpp:157] Top shape: 1 3 1000 1500 (4500000)
I0406 15:19:50.247869  6454 net.cpp:165] Memory required for data: 54000052
I0406 15:19:50.247874  6454 layer_factory.hpp:77] Creating layer conv1_1
I0406 15:19:50.247897  6454 net.cpp:106] Creating Layer conv1_1
I0406 15:19:50.247905  6454 net.cpp:454] conv1_1 <- input_data_input_0_split_0
I0406 15:19:50.247917  6454 net.cpp:411] conv1_1 -> conv1_1
I0406 15:19:50.251133  6454 net.cpp:150] Setting up conv1_1
I0406 15:19:50.251171  6454 net.cpp:157] Top shape: 1 64 1000 1500 (96000000)
I0406 15:19:50.251176  6454 net.cpp:165] Memory required for data: 438000052
I0406 15:19:50.251209  6454 layer_factory.hpp:77] Creating layer relu1_1
I0406 15:19:50.251230  6454 net.cpp:106] Creating Layer relu1_1
I0406 15:19:50.251237  6454 net.cpp:454] relu1_1 <- conv1_1
I0406 15:19:50.251247  6454 net.cpp:397] relu1_1 -> conv1_1 (in-place)
I0406 15:19:50.251263  6454 net.cpp:150] Setting up relu1_1
I0406 15:19:50.251272  6454 net.cpp:157] Top shape: 1 64 1000 1500 (96000000)
I0406 15:19:50.251278  6454 net.cpp:165] Memory required for data: 822000052
I0406 15:19:50.251284  6454 layer_factory.hpp:77] Creating layer conv1_2
I0406 15:19:50.251304  6454 net.cpp:106] Creating Layer conv1_2
I0406 15:19:50.251312  6454 net.cpp:454] conv1_2 <- conv1_1
I0406 15:19:50.251324  6454 net.cpp:411] conv1_2 -> conv1_2
I0406 15:19:50.254499  6454 net.cpp:150] Setting up conv1_2
I0406 15:19:50.254539  6454 net.cpp:157] Top shape: 1 64 1000 1500 (96000000)
I0406 15:19:50.254544  6454 net.cpp:165] Memory required for data: 1206000052
I0406 15:19:50.254566  6454 layer_factory.hpp:77] Creating layer relu1_2
I0406 15:19:50.254582  6454 net.cpp:106] Creating Layer relu1_2
I0406 15:19:50.254591  6454 net.cpp:454] relu1_2 <- conv1_2
I0406 15:19:50.254603  6454 net.cpp:397] relu1_2 -> conv1_2 (in-place)
I0406 15:19:50.254621  6454 net.cpp:150] Setting up relu1_2
I0406 15:19:50.254631  6454 net.cpp:157] Top shape: 1 64 1000 1500 (96000000)
I0406 15:19:50.254637  6454 net.cpp:165] Memory required for data: 1590000052
I0406 15:19:50.254644  6454 layer_factory.hpp:77] Creating layer pool1
I0406 15:19:50.254660  6454 net.cpp:106] Creating Layer pool1
I0406 15:19:50.254667  6454 net.cpp:454] pool1 <- conv1_2
I0406 15:19:50.254675  6454 net.cpp:411] pool1 -> pool1
I0406 15:19:50.254758  6454 net.cpp:150] Setting up pool1
I0406 15:19:50.254768  6454 net.cpp:157] Top shape: 1 64 500 750 (24000000)
I0406 15:19:50.254775  6454 net.cpp:165] Memory required for data: 1686000052
I0406 15:19:50.254782  6454 layer_factory.hpp:77] Creating layer conv2_1
I0406 15:19:50.254799  6454 net.cpp:106] Creating Layer conv2_1
I0406 15:19:50.254806  6454 net.cpp:454] conv2_1 <- pool1
I0406 15:19:50.254818  6454 net.cpp:411] conv2_1 -> conv2_1
I0406 15:19:50.256047  6454 net.cpp:150] Setting up conv2_1
I0406 15:19:50.256068  6454 net.cpp:157] Top shape: 1 128 500 750 (48000000)
I0406 15:19:50.256073  6454 net.cpp:165] Memory required for data: 1878000052
I0406 15:19:50.256093  6454 layer_factory.hpp:77] Creating layer relu2_1
I0406 15:19:50.256108  6454 net.cpp:106] Creating Layer relu2_1
I0406 15:19:50.256115  6454 net.cpp:454] relu2_1 <- conv2_1
I0406 15:19:50.256125  6454 net.cpp:397] relu2_1 -> conv2_1 (in-place)
I0406 15:19:50.256139  6454 net.cpp:150] Setting up relu2_1
I0406 15:19:50.256148  6454 net.cpp:157] Top shape: 1 128 500 750 (48000000)
I0406 15:19:50.256155  6454 net.cpp:165] Memory required for data: 2070000052
I0406 15:19:50.256162  6454 layer_factory.hpp:77] Creating layer conv2_2
I0406 15:19:50.256178  6454 net.cpp:106] Creating Layer conv2_2
I0406 15:19:50.256186  6454 net.cpp:454] conv2_2 <- conv2_1
I0406 15:19:50.256197  6454 net.cpp:411] conv2_2 -> conv2_2
I0406 15:19:50.257164  6454 net.cpp:150] Setting up conv2_2
I0406 15:19:50.257189  6454 net.cpp:157] Top shape: 1 128 500 750 (48000000)
I0406 15:19:50.257195  6454 net.cpp:165] Memory required for data: 2262000052
I0406 15:19:50.257208  6454 layer_factory.hpp:77] Creating layer relu2_2
I0406 15:19:50.257223  6454 net.cpp:106] Creating Layer relu2_2
I0406 15:19:50.257231  6454 net.cpp:454] relu2_2 <- conv2_2
I0406 15:19:50.257242  6454 net.cpp:397] relu2_2 -> conv2_2 (in-place)
I0406 15:19:50.257256  6454 net.cpp:150] Setting up relu2_2
I0406 15:19:50.257264  6454 net.cpp:157] Top shape: 1 128 500 750 (48000000)
I0406 15:19:50.257272  6454 net.cpp:165] Memory required for data: 2454000052
I0406 15:19:50.257278  6454 layer_factory.hpp:77] Creating layer pool2
I0406 15:19:50.257289  6454 net.cpp:106] Creating Layer pool2
I0406 15:19:50.257297  6454 net.cpp:454] pool2 <- conv2_2
I0406 15:19:50.257308  6454 net.cpp:411] pool2 -> pool2
I0406 15:19:50.257359  6454 net.cpp:150] Setting up pool2
I0406 15:19:50.257369  6454 net.cpp:157] Top shape: 1 128 250 375 (12000000)
I0406 15:19:50.257375  6454 net.cpp:165] Memory required for data: 2502000052
I0406 15:19:50.257382  6454 layer_factory.hpp:77] Creating layer conv3_1
I0406 15:19:50.257396  6454 net.cpp:106] Creating Layer conv3_1
I0406 15:19:50.257403  6454 net.cpp:454] conv3_1 <- pool2
I0406 15:19:50.257414  6454 net.cpp:411] conv3_1 -> conv3_1
I0406 15:19:50.260974  6454 net.cpp:150] Setting up conv3_1
I0406 15:19:50.261006  6454 net.cpp:157] Top shape: 1 256 250 375 (24000000)
I0406 15:19:50.261013  6454 net.cpp:165] Memory required for data: 2598000052
I0406 15:19:50.261034  6454 layer_factory.hpp:77] Creating layer relu3_1
I0406 15:19:50.261049  6454 net.cpp:106] Creating Layer relu3_1
I0406 15:19:50.261059  6454 net.cpp:454] relu3_1 <- conv3_1
I0406 15:19:50.261070  6454 net.cpp:397] relu3_1 -> conv3_1 (in-place)
I0406 15:19:50.261085  6454 net.cpp:150] Setting up relu3_1
I0406 15:19:50.261093  6454 net.cpp:157] Top shape: 1 256 250 375 (24000000)
I0406 15:19:50.261101  6454 net.cpp:165] Memory required for data: 2694000052
I0406 15:19:50.261106  6454 layer_factory.hpp:77] Creating layer conv3_2
I0406 15:19:50.261123  6454 net.cpp:106] Creating Layer conv3_2
I0406 15:19:50.261129  6454 net.cpp:454] conv3_2 <- conv3_1
I0406 15:19:50.261142  6454 net.cpp:411] conv3_2 -> conv3_2
I0406 15:19:50.262471  6454 net.cpp:150] Setting up conv3_2
I0406 15:19:50.262502  6454 net.cpp:157] Top shape: 1 256 250 375 (24000000)
I0406 15:19:50.262507  6454 net.cpp:165] Memory required for data: 2790000052
I0406 15:19:50.262521  6454 layer_factory.hpp:77] Creating layer relu3_2
I0406 15:19:50.262533  6454 net.cpp:106] Creating Layer relu3_2
I0406 15:19:50.262542  6454 net.cpp:454] relu3_2 <- conv3_2
I0406 15:19:50.262557  6454 net.cpp:397] relu3_2 -> conv3_2 (in-place)
I0406 15:19:50.262570  6454 net.cpp:150] Setting up relu3_2
I0406 15:19:50.262579  6454 net.cpp:157] Top shape: 1 256 250 375 (24000000)
I0406 15:19:50.262585  6454 net.cpp:165] Memory required for data: 2886000052
I0406 15:19:50.262593  6454 layer_factory.hpp:77] Creating layer conv3_3
I0406 15:19:50.262611  6454 net.cpp:106] Creating Layer conv3_3
I0406 15:19:50.262619  6454 net.cpp:454] conv3_3 <- conv3_2
I0406 15:19:50.262631  6454 net.cpp:411] conv3_3 -> conv3_3
I0406 15:19:50.264394  6454 net.cpp:150] Setting up conv3_3
I0406 15:19:50.264437  6454 net.cpp:157] Top shape: 1 256 250 375 (24000000)
I0406 15:19:50.264443  6454 net.cpp:165] Memory required for data: 2982000052
I0406 15:19:50.264457  6454 layer_factory.hpp:77] Creating layer relu3_3
I0406 15:19:50.264474  6454 net.cpp:106] Creating Layer relu3_3
I0406 15:19:50.264482  6454 net.cpp:454] relu3_3 <- conv3_3
I0406 15:19:50.264494  6454 net.cpp:397] relu3_3 -> conv3_3 (in-place)
I0406 15:19:50.264509  6454 net.cpp:150] Setting up relu3_3
I0406 15:19:50.264520  6454 net.cpp:157] Top shape: 1 256 250 375 (24000000)
I0406 15:19:50.264526  6454 net.cpp:165] Memory required for data: 3078000052
I0406 15:19:50.264533  6454 layer_factory.hpp:77] Creating layer pool3
I0406 15:19:50.264545  6454 net.cpp:106] Creating Layer pool3
I0406 15:19:50.264552  6454 net.cpp:454] pool3 <- conv3_3
I0406 15:19:50.264561  6454 net.cpp:411] pool3 -> pool3
I0406 15:19:50.264614  6454 net.cpp:150] Setting up pool3
I0406 15:19:50.264624  6454 net.cpp:157] Top shape: 1 256 125 188 (6016000)
I0406 15:19:50.264631  6454 net.cpp:165] Memory required for data: 3102064052
I0406 15:19:50.264636  6454 layer_factory.hpp:77] Creating layer conv4_1
I0406 15:19:50.264652  6454 net.cpp:106] Creating Layer conv4_1
I0406 15:19:50.264660  6454 net.cpp:454] conv4_1 <- pool3
I0406 15:19:50.264672  6454 net.cpp:411] conv4_1 -> conv4_1
I0406 15:19:50.267402  6454 net.cpp:150] Setting up conv4_1
I0406 15:19:50.267434  6454 net.cpp:157] Top shape: 1 512 125 188 (12032000)
I0406 15:19:50.267439  6454 net.cpp:165] Memory required for data: 3150192052
I0406 15:19:50.267460  6454 layer_factory.hpp:77] Creating layer relu4_1
I0406 15:19:50.267474  6454 net.cpp:106] Creating Layer relu4_1
I0406 15:19:50.267482  6454 net.cpp:454] relu4_1 <- conv4_1
I0406 15:19:50.267494  6454 net.cpp:397] relu4_1 -> conv4_1 (in-place)
I0406 15:19:50.267508  6454 net.cpp:150] Setting up relu4_1
I0406 15:19:50.267516  6454 net.cpp:157] Top shape: 1 512 125 188 (12032000)
I0406 15:19:50.267524  6454 net.cpp:165] Memory required for data: 3198320052
I0406 15:19:50.267530  6454 layer_factory.hpp:77] Creating layer conv4_2
I0406 15:19:50.267546  6454 net.cpp:106] Creating Layer conv4_2
I0406 15:19:50.267554  6454 net.cpp:454] conv4_2 <- conv4_1
I0406 15:19:50.267565  6454 net.cpp:411] conv4_2 -> conv4_2
I0406 15:19:50.272521  6454 net.cpp:150] Setting up conv4_2
I0406 15:19:50.272559  6454 net.cpp:157] Top shape: 1 512 125 188 (12032000)
I0406 15:19:50.272565  6454 net.cpp:165] Memory required for data: 3246448052
I0406 15:19:50.272588  6454 layer_factory.hpp:77] Creating layer relu4_2
I0406 15:19:50.272603  6454 net.cpp:106] Creating Layer relu4_2
I0406 15:19:50.272611  6454 net.cpp:454] relu4_2 <- conv4_2
I0406 15:19:50.272624  6454 net.cpp:397] relu4_2 -> conv4_2 (in-place)
I0406 15:19:50.272639  6454 net.cpp:150] Setting up relu4_2
I0406 15:19:50.272649  6454 net.cpp:157] Top shape: 1 512 125 188 (12032000)
I0406 15:19:50.272655  6454 net.cpp:165] Memory required for data: 3294576052
I0406 15:19:50.272660  6454 layer_factory.hpp:77] Creating layer conv4_3
I0406 15:19:50.272676  6454 net.cpp:106] Creating Layer conv4_3
I0406 15:19:50.272683  6454 net.cpp:454] conv4_3 <- conv4_2
I0406 15:19:50.272693  6454 net.cpp:411] conv4_3 -> conv4_3
I0406 15:19:50.277314  6454 net.cpp:150] Setting up conv4_3
I0406 15:19:50.277350  6454 net.cpp:157] Top shape: 1 512 125 188 (12032000)
I0406 15:19:50.277356  6454 net.cpp:165] Memory required for data: 3342704052
I0406 15:19:50.277377  6454 layer_factory.hpp:77] Creating layer relu4_3
I0406 15:19:50.277392  6454 net.cpp:106] Creating Layer relu4_3
I0406 15:19:50.277410  6454 net.cpp:454] relu4_3 <- conv4_3
I0406 15:19:50.277425  6454 net.cpp:397] relu4_3 -> conv4_3 (in-place)
I0406 15:19:50.277439  6454 net.cpp:150] Setting up relu4_3
I0406 15:19:50.277449  6454 net.cpp:157] Top shape: 1 512 125 188 (12032000)
I0406 15:19:50.277456  6454 net.cpp:165] Memory required for data: 3390832052
I0406 15:19:50.277462  6454 layer_factory.hpp:77] Creating layer pool4
I0406 15:19:50.277475  6454 net.cpp:106] Creating Layer pool4
I0406 15:19:50.277482  6454 net.cpp:454] pool4 <- conv4_3
I0406 15:19:50.277492  6454 net.cpp:411] pool4 -> pool4
I0406 15:19:50.277536  6454 net.cpp:150] Setting up pool4
I0406 15:19:50.277546  6454 net.cpp:157] Top shape: 1 512 63 94 (3032064)
I0406 15:19:50.277552  6454 net.cpp:165] Memory required for data: 3402960308
I0406 15:19:50.277559  6454 layer_factory.hpp:77] Creating layer conv5_1
I0406 15:19:50.277578  6454 net.cpp:106] Creating Layer conv5_1
I0406 15:19:50.277585  6454 net.cpp:454] conv5_1 <- pool4
I0406 15:19:50.277595  6454 net.cpp:411] conv5_1 -> conv5_1
I0406 15:19:50.282364  6454 net.cpp:150] Setting up conv5_1
I0406 15:19:50.282397  6454 net.cpp:157] Top shape: 1 512 63 94 (3032064)
I0406 15:19:50.282402  6454 net.cpp:165] Memory required for data: 3415088564
I0406 15:19:50.282416  6454 layer_factory.hpp:77] Creating layer relu5_1
I0406 15:19:50.282429  6454 net.cpp:106] Creating Layer relu5_1
I0406 15:19:50.282445  6454 net.cpp:454] relu5_1 <- conv5_1
I0406 15:19:50.282459  6454 net.cpp:397] relu5_1 -> conv5_1 (in-place)
I0406 15:19:50.282474  6454 net.cpp:150] Setting up relu5_1
I0406 15:19:50.282483  6454 net.cpp:157] Top shape: 1 512 63 94 (3032064)
I0406 15:19:50.282488  6454 net.cpp:165] Memory required for data: 3427216820
I0406 15:19:50.282495  6454 layer_factory.hpp:77] Creating layer conv5_2
I0406 15:19:50.282508  6454 net.cpp:106] Creating Layer conv5_2
I0406 15:19:50.282515  6454 net.cpp:454] conv5_2 <- conv5_1
I0406 15:19:50.282523  6454 net.cpp:411] conv5_2 -> conv5_2
I0406 15:19:50.287081  6454 net.cpp:150] Setting up conv5_2
I0406 15:19:50.287118  6454 net.cpp:157] Top shape: 1 512 63 94 (3032064)
I0406 15:19:50.287123  6454 net.cpp:165] Memory required for data: 3439345076
I0406 15:19:50.287138  6454 layer_factory.hpp:77] Creating layer relu5_2
I0406 15:19:50.287153  6454 net.cpp:106] Creating Layer relu5_2
I0406 15:19:50.287161  6454 net.cpp:454] relu5_2 <- conv5_2
I0406 15:19:50.287173  6454 net.cpp:397] relu5_2 -> conv5_2 (in-place)
I0406 15:19:50.287186  6454 net.cpp:150] Setting up relu5_2
I0406 15:19:50.287195  6454 net.cpp:157] Top shape: 1 512 63 94 (3032064)
I0406 15:19:50.287201  6454 net.cpp:165] Memory required for data: 3451473332
I0406 15:19:50.287207  6454 layer_factory.hpp:77] Creating layer conv5_3
I0406 15:19:50.287225  6454 net.cpp:106] Creating Layer conv5_3
I0406 15:19:50.287231  6454 net.cpp:454] conv5_3 <- conv5_2
I0406 15:19:50.287243  6454 net.cpp:411] conv5_3 -> conv5_3
I0406 15:19:50.294909  6454 net.cpp:150] Setting up conv5_3
I0406 15:19:50.294965  6454 net.cpp:157] Top shape: 1 512 63 94 (3032064)
I0406 15:19:50.294972  6454 net.cpp:165] Memory required for data: 3463601588
I0406 15:19:50.294988  6454 layer_factory.hpp:77] Creating layer relu5_3
I0406 15:19:50.295002  6454 net.cpp:106] Creating Layer relu5_3
I0406 15:19:50.295025  6454 net.cpp:454] relu5_3 <- conv5_3
I0406 15:19:50.295039  6454 net.cpp:397] relu5_3 -> conv5_3 (in-place)
I0406 15:19:50.295054  6454 net.cpp:150] Setting up relu5_3
I0406 15:19:50.295065  6454 net.cpp:157] Top shape: 1 512 63 94 (3032064)
I0406 15:19:50.295074  6454 net.cpp:165] Memory required for data: 3475729844
I0406 15:19:50.295081  6454 layer_factory.hpp:77] Creating layer rpn_big_conv1
I0406 15:19:50.295109  6454 net.cpp:106] Creating Layer rpn_big_conv1
I0406 15:19:50.295117  6454 net.cpp:454] rpn_big_conv1 <- conv5_3
I0406 15:19:50.295128  6454 net.cpp:411] rpn_big_conv1 -> rpn_big_conv1
I0406 15:19:50.323331  6454 net.cpp:150] Setting up rpn_big_conv1
I0406 15:19:50.323364  6454 net.cpp:157] Top shape: 1 512 63 94 (3032064)
I0406 15:19:50.323376  6454 net.cpp:165] Memory required for data: 3487858100
I0406 15:19:50.323386  6454 layer_factory.hpp:77] Creating layer rpn_big_conv1_relu
I0406 15:19:50.323397  6454 net.cpp:106] Creating Layer rpn_big_conv1_relu
I0406 15:19:50.323402  6454 net.cpp:454] rpn_big_conv1_relu <- rpn_big_conv1
I0406 15:19:50.323410  6454 net.cpp:397] rpn_big_conv1_relu -> rpn_big_conv1 (in-place)
I0406 15:19:50.323421  6454 net.cpp:150] Setting up rpn_big_conv1_relu
I0406 15:19:50.323424  6454 net.cpp:157] Top shape: 1 512 63 94 (3032064)
I0406 15:19:50.323427  6454 net.cpp:165] Memory required for data: 3499986356
I0406 15:19:50.323431  6454 layer_factory.hpp:77] Creating layer rpn_big_conv2
I0406 15:19:50.323441  6454 net.cpp:106] Creating Layer rpn_big_conv2
I0406 15:19:50.323446  6454 net.cpp:454] rpn_big_conv2 <- rpn_big_conv1
I0406 15:19:50.323452  6454 net.cpp:411] rpn_big_conv2 -> rpn_big_conv2
I0406 15:19:50.351169  6454 net.cpp:150] Setting up rpn_big_conv2
I0406 15:19:50.351198  6454 net.cpp:157] Top shape: 1 512 63 94 (3032064)
I0406 15:19:50.351202  6454 net.cpp:165] Memory required for data: 3512114612
I0406 15:19:50.351212  6454 layer_factory.hpp:77] Creating layer rpn_big_conv2_relu
I0406 15:19:50.351222  6454 net.cpp:106] Creating Layer rpn_big_conv2_relu
I0406 15:19:50.351227  6454 net.cpp:454] rpn_big_conv2_relu <- rpn_big_conv2
I0406 15:19:50.351238  6454 net.cpp:397] rpn_big_conv2_relu -> rpn_big_conv2 (in-place)
I0406 15:19:50.351248  6454 net.cpp:150] Setting up rpn_big_conv2_relu
I0406 15:19:50.351253  6454 net.cpp:157] Top shape: 1 512 63 94 (3032064)
I0406 15:19:50.351255  6454 net.cpp:165] Memory required for data: 3524242868
I0406 15:19:50.351258  6454 layer_factory.hpp:77] Creating layer rpn_big_conv2_drop
I0406 15:19:50.351265  6454 net.cpp:106] Creating Layer rpn_big_conv2_drop
I0406 15:19:50.351269  6454 net.cpp:454] rpn_big_conv2_drop <- rpn_big_conv2
I0406 15:19:50.351274  6454 net.cpp:397] rpn_big_conv2_drop -> rpn_big_conv2 (in-place)
I0406 15:19:50.351295  6454 net.cpp:150] Setting up rpn_big_conv2_drop
I0406 15:19:50.351302  6454 net.cpp:157] Top shape: 1 512 63 94 (3032064)
I0406 15:19:50.351305  6454 net.cpp:165] Memory required for data: 3536371124
I0406 15:19:50.351308  6454 layer_factory.hpp:77] Creating layer rpn_big_conv2_rpn_big_conv2_drop_0_split
I0406 15:19:50.351315  6454 net.cpp:106] Creating Layer rpn_big_conv2_rpn_big_conv2_drop_0_split
I0406 15:19:50.351318  6454 net.cpp:454] rpn_big_conv2_rpn_big_conv2_drop_0_split <- rpn_big_conv2
I0406 15:19:50.351325  6454 net.cpp:411] rpn_big_conv2_rpn_big_conv2_drop_0_split -> rpn_big_conv2_rpn_big_conv2_drop_0_split_0
I0406 15:19:50.351330  6454 net.cpp:411] rpn_big_conv2_rpn_big_conv2_drop_0_split -> rpn_big_conv2_rpn_big_conv2_drop_0_split_1
I0406 15:19:50.351361  6454 net.cpp:150] Setting up rpn_big_conv2_rpn_big_conv2_drop_0_split
I0406 15:19:50.351368  6454 net.cpp:157] Top shape: 1 512 63 94 (3032064)
I0406 15:19:50.351372  6454 net.cpp:157] Top shape: 1 512 63 94 (3032064)
I0406 15:19:50.351375  6454 net.cpp:165] Memory required for data: 3560627636
I0406 15:19:50.351378  6454 layer_factory.hpp:77] Creating layer rpn_big_output_cls
I0406 15:19:50.351389  6454 net.cpp:106] Creating Layer rpn_big_output_cls
I0406 15:19:50.351393  6454 net.cpp:454] rpn_big_output_cls <- rpn_big_conv2_rpn_big_conv2_drop_0_split_0
I0406 15:19:50.351400  6454 net.cpp:411] rpn_big_output_cls -> rpn_big_output_cls
I0406 15:19:50.369978  6454 net.cpp:150] Setting up rpn_big_output_cls
I0406 15:19:50.370013  6454 net.cpp:157] Top shape: 1 384 63 94 (2274048)
I0406 15:19:50.370018  6454 net.cpp:165] Memory required for data: 3569723828
I0406 15:19:50.370028  6454 layer_factory.hpp:77] Creating layer rpn_big_output_cls_relu
I0406 15:19:50.370038  6454 net.cpp:106] Creating Layer rpn_big_output_cls_relu
I0406 15:19:50.370043  6454 net.cpp:454] rpn_big_output_cls_relu <- rpn_big_output_cls
I0406 15:19:50.370051  6454 net.cpp:397] rpn_big_output_cls_relu -> rpn_big_output_cls (in-place)
I0406 15:19:50.370062  6454 net.cpp:150] Setting up rpn_big_output_cls_relu
I0406 15:19:50.370069  6454 net.cpp:157] Top shape: 1 384 63 94 (2274048)
I0406 15:19:50.370072  6454 net.cpp:165] Memory required for data: 3578820020
I0406 15:19:50.370075  6454 layer_factory.hpp:77] Creating layer rpn_big_cls_score
I0406 15:19:50.370087  6454 net.cpp:106] Creating Layer rpn_big_cls_score
I0406 15:19:50.370092  6454 net.cpp:454] rpn_big_cls_score <- rpn_big_output_cls
I0406 15:19:50.370100  6454 net.cpp:411] rpn_big_cls_score -> rpn_big_cls_score
I0406 15:19:50.372452  6454 net.cpp:150] Setting up rpn_big_cls_score
I0406 15:19:50.372478  6454 net.cpp:157] Top shape: 1 52 61 92 (291824)
I0406 15:19:50.372490  6454 net.cpp:165] Memory required for data: 3579987316
I0406 15:19:50.372506  6454 layer_factory.hpp:77] Creating layer rpn_big_cls_score_rpn_big_cls_score_0_split
I0406 15:19:50.372517  6454 net.cpp:106] Creating Layer rpn_big_cls_score_rpn_big_cls_score_0_split
I0406 15:19:50.372521  6454 net.cpp:454] rpn_big_cls_score_rpn_big_cls_score_0_split <- rpn_big_cls_score
I0406 15:19:50.372530  6454 net.cpp:411] rpn_big_cls_score_rpn_big_cls_score_0_split -> rpn_big_cls_score_rpn_big_cls_score_0_split_0
I0406 15:19:50.372539  6454 net.cpp:411] rpn_big_cls_score_rpn_big_cls_score_0_split -> rpn_big_cls_score_rpn_big_cls_score_0_split_1
I0406 15:19:50.372571  6454 net.cpp:150] Setting up rpn_big_cls_score_rpn_big_cls_score_0_split
I0406 15:19:50.372580  6454 net.cpp:157] Top shape: 1 52 61 92 (291824)
I0406 15:19:50.372583  6454 net.cpp:157] Top shape: 1 52 61 92 (291824)
I0406 15:19:50.372586  6454 net.cpp:165] Memory required for data: 3582321908
I0406 15:19:50.372589  6454 layer_factory.hpp:77] Creating layer rpn_big_cls_score_reshape
I0406 15:19:50.372597  6454 net.cpp:106] Creating Layer rpn_big_cls_score_reshape
I0406 15:19:50.372602  6454 net.cpp:454] rpn_big_cls_score_reshape <- rpn_big_cls_score_rpn_big_cls_score_0_split_0
I0406 15:19:50.372609  6454 net.cpp:411] rpn_big_cls_score_reshape -> rpn_big_cls_score_reshape
I0406 15:19:50.372634  6454 net.cpp:150] Setting up rpn_big_cls_score_reshape
I0406 15:19:50.372640  6454 net.cpp:157] Top shape: 1 2 1586 92 (291824)
I0406 15:19:50.372643  6454 net.cpp:165] Memory required for data: 3583489204
I0406 15:19:50.372648  6454 layer_factory.hpp:77] Creating layer rpn_big_cls_score_reshape_rpn_big_cls_score_reshape_0_split
I0406 15:19:50.372653  6454 net.cpp:106] Creating Layer rpn_big_cls_score_reshape_rpn_big_cls_score_reshape_0_split
I0406 15:19:50.372655  6454 net.cpp:454] rpn_big_cls_score_reshape_rpn_big_cls_score_reshape_0_split <- rpn_big_cls_score_reshape
I0406 15:19:50.372661  6454 net.cpp:411] rpn_big_cls_score_reshape_rpn_big_cls_score_reshape_0_split -> rpn_big_cls_score_reshape_rpn_big_cls_score_reshape_0_split_0
I0406 15:19:50.372673  6454 net.cpp:411] rpn_big_cls_score_reshape_rpn_big_cls_score_reshape_0_split -> rpn_big_cls_score_reshape_rpn_big_cls_score_reshape_0_split_1
I0406 15:19:50.372704  6454 net.cpp:150] Setting up rpn_big_cls_score_reshape_rpn_big_cls_score_reshape_0_split
I0406 15:19:50.372711  6454 net.cpp:157] Top shape: 1 2 1586 92 (291824)
I0406 15:19:50.372715  6454 net.cpp:157] Top shape: 1 2 1586 92 (291824)
I0406 15:19:50.372719  6454 net.cpp:165] Memory required for data: 3585823796
I0406 15:19:50.372721  6454 layer_factory.hpp:77] Creating layer rpn_big_cls_prob
I0406 15:19:50.372727  6454 net.cpp:106] Creating Layer rpn_big_cls_prob
I0406 15:19:50.372731  6454 net.cpp:454] rpn_big_cls_prob <- rpn_big_cls_score_reshape_rpn_big_cls_score_reshape_0_split_0
I0406 15:19:50.372736  6454 net.cpp:411] rpn_big_cls_prob -> rpn_big_cls_prob
I0406 15:19:50.372788  6454 net.cpp:150] Setting up rpn_big_cls_prob
I0406 15:19:50.372795  6454 net.cpp:157] Top shape: 1 2 1586 92 (291824)
I0406 15:19:50.372798  6454 net.cpp:165] Memory required for data: 3586991092
I0406 15:19:50.372802  6454 layer_factory.hpp:77] Creating layer rpn_big_cls_prob_reshape
I0406 15:19:50.372807  6454 net.cpp:106] Creating Layer rpn_big_cls_prob_reshape
I0406 15:19:50.372812  6454 net.cpp:454] rpn_big_cls_prob_reshape <- rpn_big_cls_prob
I0406 15:19:50.372818  6454 net.cpp:411] rpn_big_cls_prob_reshape -> rpn_big_cls_prob_reshape
I0406 15:19:50.372838  6454 net.cpp:150] Setting up rpn_big_cls_prob_reshape
I0406 15:19:50.372845  6454 net.cpp:157] Top shape: 1 52 61 92 (291824)
I0406 15:19:50.372848  6454 net.cpp:165] Memory required for data: 3588158388
I0406 15:19:50.372851  6454 layer_factory.hpp:77] Creating layer rpn_big_anchor_target
I0406 15:19:50.374228  6454 net.cpp:106] Creating Layer rpn_big_anchor_target
I0406 15:19:50.374243  6454 net.cpp:454] rpn_big_anchor_target <- rpn_big_cls_score_rpn_big_cls_score_0_split_1
I0406 15:19:50.374249  6454 net.cpp:454] rpn_big_anchor_target <- input_gt_boxes
I0406 15:19:50.374253  6454 net.cpp:454] rpn_big_anchor_target <- input_ignored_boxes
I0406 15:19:50.374258  6454 net.cpp:454] rpn_big_anchor_target <- input_im_info
I0406 15:19:50.374261  6454 net.cpp:454] rpn_big_anchor_target <- input_data_input_0_split_1
I0406 15:19:50.374266  6454 net.cpp:454] rpn_big_anchor_target <- rpn_big_cls_prob_reshape
I0406 15:19:50.374272  6454 net.cpp:411] rpn_big_anchor_target -> rpn_big_anchor_target_labels
I0406 15:19:50.374282  6454 net.cpp:411] rpn_big_anchor_target -> rpn_big_anchor_target_bbox_targets
I0406 15:19:50.374291  6454 net.cpp:411] rpn_big_anchor_target -> rpn_big_anchor_target_inside_weights
I0406 15:19:50.374300  6454 net.cpp:411] rpn_big_anchor_target -> rpn_big_anchor_target_outside_weights
I0406 15:19:50.379328  6454 net.cpp:150] Setting up rpn_big_anchor_target
I0406 15:19:50.379354  6454 net.cpp:157] Top shape: 1 1 1586 92 (145912)
I0406 15:19:50.379359  6454 net.cpp:157] Top shape: 1 104 61 92 (583648)
I0406 15:19:50.379362  6454 net.cpp:157] Top shape: 1 104 61 92 (583648)
I0406 15:19:50.379366  6454 net.cpp:157] Top shape: 1 104 61 92 (583648)
I0406 15:19:50.379369  6454 net.cpp:165] Memory required for data: 3595745812
I0406 15:19:50.379374  6454 layer_factory.hpp:77] Creating layer rpn_big_loss_cls
I0406 15:19:50.379382  6454 net.cpp:106] Creating Layer rpn_big_loss_cls
I0406 15:19:50.379391  6454 net.cpp:454] rpn_big_loss_cls <- rpn_big_cls_score_reshape_rpn_big_cls_score_reshape_0_split_1
I0406 15:19:50.379400  6454 net.cpp:454] rpn_big_loss_cls <- rpn_big_anchor_target_labels
I0406 15:19:50.379411  6454 net.cpp:411] rpn_big_loss_cls -> rpn_big_loss_cls
I0406 15:19:50.379428  6454 layer_factory.hpp:77] Creating layer rpn_big_loss_cls
I0406 15:19:50.380069  6454 net.cpp:150] Setting up rpn_big_loss_cls
I0406 15:19:50.380084  6454 net.cpp:157] Top shape: (1)
I0406 15:19:50.380089  6454 net.cpp:160]     with loss weight 1
I0406 15:19:50.380106  6454 net.cpp:165] Memory required for data: 3595745816
I0406 15:19:50.380115  6454 layer_factory.hpp:77] Creating layer rpn_big_output_box
I0406 15:19:50.380136  6454 net.cpp:106] Creating Layer rpn_big_output_box
I0406 15:19:50.380143  6454 net.cpp:454] rpn_big_output_box <- rpn_big_conv2_rpn_big_conv2_drop_0_split_1
I0406 15:19:50.380156  6454 net.cpp:411] rpn_big_output_box -> rpn_big_output_box
I0406 15:19:50.399199  6454 net.cpp:150] Setting up rpn_big_output_box
I0406 15:19:50.399230  6454 net.cpp:157] Top shape: 1 384 63 94 (2274048)
I0406 15:19:50.399235  6454 net.cpp:165] Memory required for data: 3604842008
I0406 15:19:50.399256  6454 layer_factory.hpp:77] Creating layer rpn_big_output_box_relu
I0406 15:19:50.399271  6454 net.cpp:106] Creating Layer rpn_big_output_box_relu
I0406 15:19:50.399286  6454 net.cpp:454] rpn_big_output_box_relu <- rpn_big_output_box
I0406 15:19:50.399302  6454 net.cpp:397] rpn_big_output_box_relu -> rpn_big_output_box (in-place)
I0406 15:19:50.399317  6454 net.cpp:150] Setting up rpn_big_output_box_relu
I0406 15:19:50.399327  6454 net.cpp:157] Top shape: 1 384 63 94 (2274048)
I0406 15:19:50.399333  6454 net.cpp:165] Memory required for data: 3613938200
I0406 15:19:50.399340  6454 layer_factory.hpp:77] Creating layer rpn_big_bbox_pred
I0406 15:19:50.399360  6454 net.cpp:106] Creating Layer rpn_big_bbox_pred
I0406 15:19:50.399366  6454 net.cpp:454] rpn_big_bbox_pred <- rpn_big_output_box
I0406 15:19:50.399380  6454 net.cpp:411] rpn_big_bbox_pred -> rpn_big_bbox_pred
I0406 15:19:50.403756  6454 net.cpp:150] Setting up rpn_big_bbox_pred
I0406 15:19:50.403789  6454 net.cpp:157] Top shape: 1 104 61 92 (583648)
I0406 15:19:50.403795  6454 net.cpp:165] Memory required for data: 3616272792
I0406 15:19:50.403808  6454 layer_factory.hpp:77] Creating layer rpn_big_loss_bbox
I0406 15:19:50.404177  6454 net.cpp:106] Creating Layer rpn_big_loss_bbox
I0406 15:19:50.404189  6454 net.cpp:454] rpn_big_loss_bbox <- rpn_big_bbox_pred
I0406 15:19:50.404201  6454 net.cpp:454] rpn_big_loss_bbox <- rpn_big_anchor_target_bbox_targets
I0406 15:19:50.404209  6454 net.cpp:454] rpn_big_loss_bbox <- rpn_big_anchor_target_inside_weights
I0406 15:19:50.404217  6454 net.cpp:454] rpn_big_loss_bbox <- rpn_big_anchor_target_outside_weights
I0406 15:19:50.404229  6454 net.cpp:411] rpn_big_loss_bbox -> rpn_big_loss_bbox
I0406 15:19:50.406249  6454 net.cpp:150] Setting up rpn_big_loss_bbox
I0406 15:19:50.406283  6454 net.cpp:157] Top shape: 1 (1)
I0406 15:19:50.406288  6454 net.cpp:160]     with loss weight 1
I0406 15:19:50.406303  6454 net.cpp:165] Memory required for data: 3616272796
I0406 15:19:50.406313  6454 net.cpp:226] rpn_big_loss_bbox needs backward computation.
I0406 15:19:50.406324  6454 net.cpp:226] rpn_big_bbox_pred needs backward computation.
I0406 15:19:50.406332  6454 net.cpp:226] rpn_big_output_box_relu needs backward computation.
…
