…
I0413 18:18:31.489033 12870 solver.cpp:48] Initializing solver from parameters: 
base_lr: 0.001
display: 20
lr_policy: "multistep"
gamma: 0.1
momentum: 0.9
weight_decay: 0.0005
snapshot: 0
snapshot_prefix: "faces_example"
net_param {
  name: "GeneratedModel_13_04_2017_18_18"
  layer {
    name: "input"
    type: "Python"
    top: "input_data"
    top: "input_im_info"
    top: "input_gt_boxes"
    top: "input_ignored_boxes"
    python_param {
      module: "layers.roi_data_layer"
      layer: "RoIDataLayer"
      param_str: "{\"num_classes\": 2}"
    }
  }
  layer {
    name: "conv1_1"
    type: "Convolution"
    bottom: "input_data"
    top: "conv1_1"
    param {
      lr_mult: 0
      decay_mult: 0
    }
    param {
      lr_mult: 0
      decay_mult: 0
    }
    convolution_param {
      num_output: 64
      pad: 1
      kernel_size: 3
    }
  }
  layer {
    name: "relu1_1"
    type: "ReLU"
    bottom: "conv1_1"
    top: "conv1_1"
  }
  layer {
    name: "conv1_2"
    type: "Convolution"
    bottom: "conv1_1"
    top: "conv1_2"
    param {
      lr_mult: 0
      decay_mult: 0
    }
    param {
      lr_mult: 0
      decay_mult: 0
    }
    convolution_param {
      num_output: 64
      pad: 1
      kernel_size: 3
    }
  }
  layer {
    name: "relu1_2"
    type: "ReLU"
    bottom: "conv1_2"
    top: "conv1_2"
  }
  layer {
    name: "pool1"
    type: "Pooling"
    bottom: "conv1_2"
    top: "pool1"
    pooling_param {
      pool: MAX
      kernel_size: 2
      stride: 2
    }
  }
  layer {
    name: "conv2_1"
    type: "Convolution"
    bottom: "pool1"
    top: "conv2_1"
    param {
      lr_mult: 0
      decay_mult: 0
    }
    param {
      lr_mult: 0
      decay_mult: 0
    }
    convolution_param {
      num_output: 128
      pad: 1
      kernel_size: 3
    }
  }
  layer {
    name: "relu2_1"
    type: "ReLU"
    bottom: "conv2_1"
    top: "conv2_1"
  }
  layer {
    name: "conv2_2"
    type: "Convolution"
    bottom: "conv2_1"
    top: "conv2_2"
    param {
      lr_mult: 0
      decay_mult: 0
    }
    param {
      lr_mult: 0
      decay_mult: 0
    }
    convolution_param {
      num_output: 128
      pad: 1
      kernel_size: 3
    }
  }
  layer {
    name: "relu2_2"
    type: "ReLU"
    bottom: "conv2_2"
    top: "conv2_2"
  }
  layer {
    name: "pool2"
    type: "Pooling"
    bottom: "conv2_2"
    top: "pool2"
    pooling_param {
      pool: MAX
      kernel_size: 2
      stride: 2
    }
  }
  layer {
    name: "conv3_1"
    type: "Convolution"
    bottom: "pool2"
    top: "conv3_1"
    param {
      lr_mult: 1
    }
    param {
      lr_mult: 2
    }
    convolution_param {
      num_output: 256
      pad: 1
      kernel_size: 3
    }
  }
  layer {
    name: "relu3_1"
    type: "ReLU"
    bottom: "conv3_1"
    top: "conv3_1"
  }
  layer {
    name: "conv3_2"
    type: "Convolution"
    bottom: "conv3_1"
    top: "conv3_2"
    param {
      lr_mult: 1
    }
    param {
      lr_mult: 2
    }
    convolution_param {
      num_output: 256
      pad: 1
      kernel_size: 3
    }
  }
  layer {
    name: "relu3_2"
    type: "ReLU"
    bottom: "conv3_2"
    top: "conv3_2"
  }
  layer {
    name: "conv3_3"
    type: "Convolution"
    bottom: "conv3_2"
    top: "conv3_3"
    param {
      lr_mult: 1
    }
    param {
      lr_mult: 2
    }
    convolution_param {
      num_output: 256
      pad: 1
      kernel_size: 3
    }
  }
  layer {
    name: "relu3_3"
    type: "ReLU"
    bottom: "conv3_3"
    top: "conv3_3"
  }
  layer {
    name: "pool3"
    type: "Pooling"
    bottom: "conv3_3"
    top: "pool3"
    pooling_param {
      pool: MAX
      kernel_size: 2
      stride: 2
    }
  }
  layer {
    name: "conv4_1"
    type: "Convolution"
    bottom: "pool3"
    top: "conv4_1"
    param {
      lr_mult: 1
    }
    param {
      lr_mult: 2
    }
    convolution_param {
      num_output: 512
      pad: 1
      kernel_size: 3
    }
  }
  layer {
    name: "relu4_1"
    type: "ReLU"
    bottom: "conv4_1"
    top: "conv4_1"
  }
  layer {
    name: "conv4_2"
    type: "Convolution"
    bottom: "conv4_1"
    top: "conv4_2"
    param {
      lr_mult: 1
    }
    param {
      lr_mult: 2
    }
    convolution_param {
      num_output: 512
      pad: 1
      kernel_size: 3
    }
  }
  layer {
    name: "relu4_2"
    type: "ReLU"
    bottom: "conv4_2"
    top: "conv4_2"
  }
  layer {
    name: "conv4_3"
    type: "Convolution"
    bottom: "conv4_2"
    top: "conv4_3"
    param {
      lr_mult: 1
    }
    param {
      lr_mult: 2
    }
    convolution_param {
      num_output: 512
      pad: 1
      kernel_size: 3
    }
  }
  layer {
    name: "relu4_3"
    type: "ReLU"
    bottom: "conv4_3"
    top: "conv4_3"
  }
  layer {
    name: "pool4"
    type: "Pooling"
    bottom: "conv4_3"
    top: "pool4"
    pooling_param {
      pool: MAX
      kernel_size: 2
      stride: 2
    }
  }
  layer {
    name: "conv5_1"
    type: "Convolution"
    bottom: "pool4"
    top: "conv5_1"
    param {
      lr_mult: 1
    }
    param {
      lr_mult: 2
    }
    convolution_param {
      num_output: 512
      pad: 1
      kernel_size: 3
    }
  }
  layer {
    name: "relu5_1"
    type: "ReLU"
    bottom: "conv5_1"
    top: "conv5_1"
  }
  layer {
    name: "conv5_2"
    type: "Convolution"
    bottom: "conv5_1"
    top: "conv5_2"
    param {
      lr_mult: 1
    }
    param {
      lr_mult: 2
    }
    convolution_param {
      num_output: 512
      pad: 1
      kernel_size: 3
    }
  }
  layer {
    name: "relu5_2"
    type: "ReLU"
    bottom: "conv5_2"
    top: "conv5_2"
  }
  layer {
    name: "conv5_3"
    type: "Convolution"
    bottom: "conv5_2"
    top: "conv5_3"
    param {
      lr_mult: 1
    }
    param {
      lr_mult: 2
    }
    convolution_param {
      num_output: 512
      pad: 1
      kernel_size: 3
    }
  }
  layer {
    name: "relu5_3"
    type: "ReLU"
    bottom: "conv5_3"
    top: "conv5_3"
  }
  layer {
    name: "rpn_big_conv1"
    type: "Convolution"
    bottom: "conv5_3"
    top: "rpn_big_conv1"
    param {
      lr_mult: 1
    }
    param {
      lr_mult: 2
    }
    convolution_param {
      num_output: 512
      pad: 1
      kernel_size: 3
      stride: 1
      weight_filler {
        type: "gaussian"
        mean: 0
        std: 0.01
      }
      bias_filler {
        type: "constant"
      }
    }
  }
  layer {
    name: "rpn_big_conv1_relu"
    type: "ReLU"
    bottom: "rpn_big_conv1"
    top: "rpn_big_conv1"
    relu_param {
      negative_slope: 0
    }
  }
  layer {
    name: "rpn_big_conv2"
    type: "Convolution"
    bottom: "rpn_big_conv1"
    top: "rpn_big_conv2"
    param {
      lr_mult: 1
    }
    param {
      lr_mult: 2
    }
    convolution_param {
      num_output: 512
      pad: 1
      kernel_size: 3
      stride: 1
      weight_filler {
        type: "gaussian"
        mean: 0
        std: 0.01
      }
      bias_filler {
        type: "constant"
      }
    }
  }
  layer {
    name: "rpn_big_conv2_relu"
    type: "ReLU"
    bottom: "rpn_big_conv2"
    top: "rpn_big_conv2"
    relu_param {
      negative_slope: 0
    }
  }
  layer {
    name: "rpn_big_conv2_drop"
    type: "Dropout"
    bottom: "rpn_big_conv2"
    top: "rpn_big_conv2"
    dropout_param {
      dropout_ratio: 0.3
    }
  }
  layer {
    name: "rpn_big_output_cls"
    type: "Convolution"
    bottom: "rpn_big_conv2"
    top: "rpn_big_output_cls"
    param {
      lr_mult: 1
    }
    param {
      lr_mult: 2
    }
    convolution_param {
      num_output: 384
      pad: 1
      kernel_size: 3
      stride: 1
      weight_filler {
        type: "gaussian"
        mean: 0
        std: 0.01
      }
      bias_filler {
        type: "constant"
      }
    }
  }
  layer {
    name: "rpn_big_output_cls_relu"
    type: "ReLU"
    bottom: "rpn_big_output_cls"
    top: "rpn_big_output_cls"
    relu_param {
      negative_slope: 0
    }
  }
  layer {
    name: "rpn_big_cls_score"
    type: "Convolution"
    bottom: "rpn_big_output_cls"
    top: "rpn_big_cls_score"
    param {
      lr_mult: 1
    }
    param {
      lr_mult: 2
    }
    convolution_param {
      num_output: 52
      pad: 0
      kernel_size: 3
      stride: 1
      weight_filler {
        type: "gaussian"
        mean: 0
        std: 0.01
      }
      bias_filler {
        type: "constant"
      }
    }
  }
  layer {
    name: "rpn_big_cls_score_reshape"
    type: "Reshape"
    bottom: "rpn_big_cls_score"
    top: "rpn_big_cls_score_reshape"
    reshape_param {
      shape {
        dim: 0
        dim: 2
        dim: -1
        dim: 0
      }
    }
  }
  layer {
    name: "rpn_big_cls_prob"
    type: "Softmax"
    bottom: "rpn_big_cls_score_reshape"
    top: "rpn_big_cls_prob"
  }
  layer {
    name: "rpn_big_cls_prob_reshape"
    type: "Reshape"
    bottom: "rpn_big_cls_prob"
    top: "rpn_big_cls_prob_reshape"
    reshape_param {
      shape {
        dim: 0
        dim: 52
        dim: -1
        dim: 0
      }
    }
  }
  layer {
    name: "rpn_big_anchor_target"
    type: "Python"
    bottom: "rpn_big_cls_score"
    bottom: "input_gt_boxes"
    bottom: "input_ignored_boxes"
    bottom: "input_im_info"
    bottom: "input_data"
    bottom: "rpn_big_cls_prob_reshape"
    top: "rpn_big_anchor_target_labels"
    top: "rpn_big_anchor_target_bbox_targets"
    top: "rpn_big_anchor_target_inside_weights"
    top: "rpn_big_anchor_target_outside_weights"
    python_param {
      module: "rpn.anchor_target_layer"
      layer: "AnchorTargetLayer"
      param_str: "{\"feat_stride\": 16, \"anchor_shift_num_xy\": [[2, 2], [2, 2], [2, 2], [2, 2], [1, 1], [1, 1], [1, 1], [1, 1], [1, 1], [1, 1], [1, 1], [1, 1], [1, 1], [1, 1]], \"num_classes\": 1, \"negative_overlap\": 0.4, \"anchor_scales\": [2.5, 3.025, 3.66025, 4.4289024999999995, 5.358972025, 6.484356150249999, 7.846070941802498, 9.493745839581022, 11.487432465893036, 13.899793283730574, 16.818749873313998, 20.350687346709933, 24.62433168951902, 29.795441344318014], \"positive_overlap\": 0.6, \"batchsize\": 256, \"anchor_ratios\": [1.0], \"name\": \"rpn_big\", \"fg_fraction\": 0.5, \"square_targets\": true, \"tn_fraction\": 0.2}"
    }
  }
  layer {
    name: "rpn_big_loss_cls"
    type: "SoftmaxWithLoss"
    bottom: "rpn_big_cls_score_reshape"
    bottom: "rpn_big_anchor_target_labels"
    top: "rpn_big_loss_cls"
    loss_weight: 1
    propagate_down: true
    propagate_down: false
    loss_param {
      ignore_label: -1
      normalization: VALID
    }
  }
  layer {
    name: "rpn_big_output_box"
    type: "Convolution"
    bottom: "rpn_big_conv2"
    top: "rpn_big_output_box"
    param {
      lr_mult: 1
    }
    param {
      lr_mult: 2
    }
    convolution_param {
      num_output: 384
      pad: 1
      kernel_size: 3
      stride: 1
      weight_filler {
        type: "gaussian"
        mean: 0
        std: 0.01
      }
      bias_filler {
        type: "constant"
      }
    }
  }
  layer {
    name: "rpn_big_output_box_relu"
    type: "ReLU"
    bottom: "rpn_big_output_box"
    top: "rpn_big_output_box"
    relu_param {
      negative_slope: 0
    }
  }
  layer {
    name: "rpn_big_bbox_pred"
    type: "Convolution"
    bottom: "rpn_big_output_box"
    top: "rpn_big_bbox_pred"
    param {
      lr_mult: 1
    }
    param {
      lr_mult: 2
    }
    convolution_param {
      num_output: 104
      pad: 0
      kernel_size: 3
      stride: 1
      weight_filler {
        type: "gaussian"
        mean: 0
        std: 0.01
      }
      bias_filler {
        type: "constant"
      }
    }
  }
  layer {
    name: "rpn_big_loss_bbox"
    type: "Python"
    bottom: "rpn_big_bbox_pred"
    bottom: "rpn_big_anchor_target_bbox_targets"
    bottom: "rpn_big_anchor_target_inside_weights"
    bottom: "rpn_big_anchor_target_outside_weights"
    top: "rpn_big_loss_bbox"
    loss_weight: 1
    python_param {
      module: "layers.smooth_l1_loss"
      layer: "SmoothL1LossLayer"
      param_str: "{\"sigma\": 3}"
    }
  }
  layer {
    name: "proposal"
    type: "Python"
    bottom: "rpn_big_cls_prob_reshape"
    bottom: "rpn_big_bbox_pred"
    bottom: "input_im_info"
    top: "rpn_rois"
    python_param {
      module: "rpn.proposal_layer"
      layer: "ProposalLayer"
      param_str: "{\"anchor_shift_num_xy\": [[2, 2], [2, 2], [2, 2], [2, 2], [1, 1], [1, 1], [1, 1], [1, 1], [1, 1], [1, 1], [1, 1], [1, 1], [1, 1], [1, 1]], \"feat_stride\": 16, \"num_classes\": 1, \"anchor_scales\": [2.5, 3.025, 3.66025, 4.4289024999999995, 5.358972025, 6.484356150249999, 7.846070941802498, 9.493745839581022, 11.487432465893036, 13.899793283730574, 16.818749873313998, 20.350687346709933, 24.62433168951902, 29.795441344318014], \"square_targets\": true, \"name\": \"rpn_big\", \"batchsize\": 256, \"anchor_ratios\": [1.0]}"
    }
  }
  layer {
    name: "roi-data"
    type: "Python"
    bottom: "rpn_rois"
    bottom: "input_gt_boxes"
    top: "rois"
    top: "labels"
    top: "bbox_targets"
    top: "bbox_inside_weights"
    top: "bbox_outside_weights"
    top: "pid_label"
    python_param {
      module: "rpn.proposal_target_layer"
      layer: "ProposalTargetLayer"
      param_str: "{\"num_classes\": 2, \"bg_aux_label\": 5532}"
    }
  }
  layer {
    name: "roi-pool"
    type: "ROIPooling"
    bottom: "conv5_3"
    bottom: "rois"
    top: "roi-pool"
    roi_pooling_param {
      pooled_h: 7
      pooled_w: 7
      spatial_scale: 0.0625
    }
  }
  layer {
    name: "fc6"
    type: "InnerProduct"
    bottom: "roi-pool"
    top: "fc6"
    param {
      lr_mult: 1
    }
    param {
      lr_mult: 2
    }
    inner_product_param {
      num_output: 4096
    }
  }
  layer {
    name: "relu6"
    type: "ReLU"
    bottom: "fc6"
    top: "fc6"
  }
  layer {
    name: "drop6"
    type: "Dropout"
    bottom: "fc6"
    top: "fc6"
    dropout_param {
      dropout_ratio: 0.5
    }
  }
  layer {
    name: "fc7"
    type: "InnerProduct"
    bottom: "fc6"
    top: "fc7"
    param {
      lr_mult: 1
    }
    param {
      lr_mult: 2
    }
    inner_product_param {
      num_output: 4096
    }
  }
  layer {
    name: "relu7"
    type: "ReLU"
    bottom: "fc7"
    top: "fc7"
  }
  layer {
    name: "drop7"
    type: "Dropout"
    bottom: "fc7"
    top: "fc7"
    dropout_param {
      dropout_ratio: 0.5
    }
  }
  layer {
    name: "bbox_pred"
    type: "InnerProduct"
    bottom: "fc7"
    top: "bbox_pred"
    param {
      lr_mult: 1
    }
    param {
      lr_mult: 2
    }
    inner_product_param {
      num_output: 0
      weight_filler {
        type: "gaussian"
        std: 0.001
      }
      bias_filler {
        type: "constant"
        value: 0
      }
    }
  }
  layer {
    name: "loss_bbox"
    type: "SmoothL1Loss"
    bottom: "bbox_pred"
    bottom: "bbox_targets"
    bottom: "bbox_inside_weights"
    bottom: "bbox_outside_weights"
    top: "loss_bbox"
    loss_weight: 1
  }
}
average_loss: 100
stepvalue: 70000
stepvalue: 120000
iter_size: 2
I0413 18:18:31.489153 12870 solver.cpp:86] Creating training net specified in net_param.
I0413 18:18:31.489871 12870 net.cpp:58] Initializing net from parameters: 
name: "GeneratedModel_13_04_2017_18_18"
state {
  phase: TRAIN
}
layer {
  name: "input"
  type: "Python"
  top: "input_data"
  top: "input_im_info"
  top: "input_gt_boxes"
  top: "input_ignored_boxes"
  python_param {
    module: "layers.roi_data_layer"
    layer: "RoIDataLayer"
    param_str: "{\"num_classes\": 2}"
  }
}
layer {
  name: "conv1_1"
  type: "Convolution"
  bottom: "input_data"
  top: "conv1_1"
  param {
    lr_mult: 0
    decay_mult: 0
  }
  param {
    lr_mult: 0
    decay_mult: 0
  }
  convolution_param {
    num_output: 64
    pad: 1
    kernel_size: 3
  }
}
layer {
  name: "relu1_1"
  type: "ReLU"
  bottom: "conv1_1"
  top: "conv1_1"
}
layer {
  name: "conv1_2"
  type: "Convolution"
  bottom: "conv1_1"
  top: "conv1_2"
  param {
    lr_mult: 0
    decay_mult: 0
  }
  param {
    lr_mult: 0
    decay_mult: 0
  }
  convolution_param {
    num_output: 64
    pad: 1
    kernel_size: 3
  }
}
layer {
  name: "relu1_2"
  type: "ReLU"
  bottom: "conv1_2"
  top: "conv1_2"
}
layer {
  name: "pool1"
  type: "Pooling"
  bottom: "conv1_2"
  top: "pool1"
  pooling_param {
    pool: MAX
    kernel_size: 2
    stride: 2
  }
}
layer {
  name: "conv2_1"
  type: "Convolution"
  bottom: "pool1"
  top: "conv2_1"
  param {
    lr_mult: 0
    decay_mult: 0
  }
  param {
    lr_mult: 0
    decay_mult: 0
  }
  convolution_param {
    num_output: 128
    pad: 1
    kernel_size: 3
  }
}
layer {
  name: "relu2_1"
  type: "ReLU"
  bottom: "conv2_1"
  top: "conv2_1"
}
layer {
  name: "conv2_2"
  type: "Convolution"
  bottom: "conv2_1"
  top: "conv2_2"
  param {
    lr_mult: 0
    decay_mult: 0
  }
  param {
    lr_mult: 0
    decay_mult: 0
  }
  convolution_param {
    num_output: 128
    pad: 1
    kernel_size: 3
  }
}
layer {
  name: "relu2_2"
  type: "ReLU"
  bottom: "conv2_2"
  top: "conv2_2"
}
layer {
  name: "pool2"
  type: "Pooling"
  bottom: "conv2_2"
  top: "pool2"
  pooling_param {
    pool: MAX
    kernel_size: 2
    stride: 2
  }
}
layer {
  name: "conv3_1"
  type: "Convolution"
  bottom: "pool2"
  top: "conv3_1"
  param {
    lr_mult: 1
  }
  param {
    lr_mult: 2
  }
  convolution_param {
    num_output: 256
    pad: 1
    kernel_size: 3
  }
}
layer {
  name: "relu3_1"
  type: "ReLU"
  bottom: "conv3_1"
  top: "conv3_1"
}
layer {
  name: "conv3_2"
  type: "Convolution"
  bottom: "conv3_1"
  top: "conv3_2"
  param {
    lr_mult: 1
  }
  param {
    lr_mult: 2
  }
  convolution_param {
    num_output: 256
    pad: 1
    kernel_size: 3
  }
}
layer {
  name: "relu3_2"
  type: "ReLU"
  bottom: "conv3_2"
  top: "conv3_2"
}
layer {
  name: "conv3_3"
  type: "Convolution"
  bottom: "conv3_2"
  top: "conv3_3"
  param {
    lr_mult: 1
  }
  param {
    lr_mult: 2
  }
  convolution_param {
    num_output: 256
    pad: 1
    kernel_size: 3
  }
}
layer {
  name: "relu3_3"
  type: "ReLU"
  bottom: "conv3_3"
  top: "conv3_3"
}
layer {
  name: "pool3"
  type: "Pooling"
  bottom: "conv3_3"
  top: "pool3"
  pooling_param {
    pool: MAX
    kernel_size: 2
    stride: 2
  }
}
layer {
  name: "conv4_1"
  type: "Convolution"
  bottom: "pool3"
  top: "conv4_1"
  param {
    lr_mult: 1
  }
  param {
    lr_mult: 2
  }
  convolution_param {
    num_output: 512
    pad: 1
    kernel_size: 3
  }
}
layer {
  name: "relu4_1"
  type: "ReLU"
  bottom: "conv4_1"
  top: "conv4_1"
}
layer {
  name: "conv4_2"
  type: "Convolution"
  bottom: "conv4_1"
  top: "conv4_2"
  param {
    lr_mult: 1
  }
  param {
    lr_mult: 2
  }
  convolution_param {
    num_output: 512
    pad: 1
    kernel_size: 3
  }
}
layer {
  name: "relu4_2"
  type: "ReLU"
  bottom: "conv4_2"
  top: "conv4_2"
}
layer {
  name: "conv4_3"
  type: "Convolution"
  bottom: "conv4_2"
  top: "conv4_3"
  param {
    lr_mult: 1
  }
  param {
    lr_mult: 2
  }
  convolution_param {
    num_output: 512
    pad: 1
    kernel_size: 3
  }
}
layer {
  name: "relu4_3"
  type: "ReLU"
  bottom: "conv4_3"
  top: "conv4_3"
}
layer {
  name: "pool4"
  type: "Pooling"
  bottom: "conv4_3"
  top: "pool4"
  pooling_param {
    pool: MAX
    kernel_size: 2
    stride: 2
  }
}
layer {
  name: "conv5_1"
  type: "Convolution"
  bottom: "pool4"
  top: "conv5_1"
  param {
    lr_mult: 1
  }
  param {
    lr_mult: 2
  }
  convolution_param {
    num_output: 512
    pad: 1
    kernel_size: 3
  }
}
layer {
  name: "relu5_1"
  type: "ReLU"
  bottom: "conv5_1"
  top: "conv5_1"
}
layer {
  name: "conv5_2"
  type: "Convolution"
  bottom: "conv5_1"
  top: "conv5_2"
  param {
    lr_mult: 1
  }
  param {
    lr_mult: 2
  }
  convolution_param {
    num_output: 512
    pad: 1
    kernel_size: 3
  }
}
layer {
  name: "relu5_2"
  type: "ReLU"
  bottom: "conv5_2"
  top: "conv5_2"
}
layer {
  name: "conv5_3"
  type: "Convolution"
  bottom: "conv5_2"
  top: "conv5_3"
  param {
    lr_mult: 1
  }
  param {
    lr_mult: 2
  }
  convolution_param {
    num_output: 512
    pad: 1
    kernel_size: 3
  }
}
layer {
  name: "relu5_3"
  type: "ReLU"
  bottom: "conv5_3"
  top: "conv5_3"
}
layer {
  name: "rpn_big_conv1"
  type: "Convolution"
  bottom: "conv5_3"
  top: "rpn_big_conv1"
  param {
    lr_mult: 1
  }
  param {
    lr_mult: 2
  }
  convolution_param {
    num_output: 512
    pad: 1
    kernel_size: 3
    stride: 1
    weight_filler {
      type: "gaussian"
      mean: 0
      std: 0.01
    }
    bias_filler {
      type: "constant"
    }
  }
}
layer {
  name: "rpn_big_conv1_relu"
  type: "ReLU"
  bottom: "rpn_big_conv1"
  top: "rpn_big_conv1"
  relu_param {
    negative_slope: 0
  }
}
layer {
  name: "rpn_big_conv2"
  type: "Convolution"
  bottom: "rpn_big_conv1"
  top: "rpn_big_conv2"
  param {
    lr_mult: 1
  }
  param {
    lr_mult: 2
  }
  convolution_param {
    num_output: 512
    pad: 1
    kernel_size: 3
    stride: 1
    weight_filler {
      type: "gaussian"
      mean: 0
      std: 0.01
    }
    bias_filler {
      type: "constant"
    }
  }
}
layer {
  name: "rpn_big_conv2_relu"
  type: "ReLU"
  bottom: "rpn_big_conv2"
  top: "rpn_big_conv2"
  relu_param {
    negative_slope: 0
  }
}
layer {
  name: "rpn_big_conv2_drop"
  type: "Dropout"
  bottom: "rpn_big_conv2"
  top: "rpn_big_conv2"
  dropout_param {
    dropout_ratio: 0.3
  }
}
layer {
  name: "rpn_big_output_cls"
  type: "Convolution"
  bottom: "rpn_big_conv2"
  top: "rpn_big_output_cls"
  param {
    lr_mult: 1
  }
  param {
    lr_mult: 2
  }
  convolution_param {
    num_output: 384
    pad: 1
    kernel_size: 3
    stride: 1
    weight_filler {
      type: "gaussian"
      mean: 0
      std: 0.01
    }
    bias_filler {
      type: "constant"
    }
  }
}
layer {
  name: "rpn_big_output_cls_relu"
  type: "ReLU"
  bottom: "rpn_big_output_cls"
  top: "rpn_big_output_cls"
  relu_param {
    negative_slope: 0
  }
}
layer {
  name: "rpn_big_cls_score"
  type: "Convolution"
  bottom: "rpn_big_output_cls"
  top: "rpn_big_cls_score"
  param {
    lr_mult: 1
  }
  param {
    lr_mult: 2
  }
  convolution_param {
    num_output: 52
    pad: 0
    kernel_size: 3
    stride: 1
    weight_filler {
      type: "gaussian"
      mean: 0
      std: 0.01
    }
    bias_filler {
      type: "constant"
    }
  }
}
layer {
  name: "rpn_big_cls_score_reshape"
  type: "Reshape"
  bottom: "rpn_big_cls_score"
  top: "rpn_big_cls_score_reshape"
  reshape_param {
    shape {
      dim: 0
      dim: 2
      dim: -1
      dim: 0
    }
  }
}
layer {
  name: "rpn_big_cls_prob"
  type: "Softmax"
  bottom: "rpn_big_cls_score_reshape"
  top: "rpn_big_cls_prob"
}
layer {
  name: "rpn_big_cls_prob_reshape"
  type: "Reshape"
  bottom: "rpn_big_cls_prob"
  top: "rpn_big_cls_prob_reshape"
  reshape_param {
    shape {
      dim: 0
      dim: 52
      dim: -1
      dim: 0
    }
  }
}
layer {
  name: "rpn_big_anchor_target"
  type: "Python"
  bottom: "rpn_big_cls_score"
  bottom: "input_gt_boxes"
  bottom: "input_ignored_boxes"
  bottom: "input_im_info"
  bottom: "input_data"
  bottom: "rpn_big_cls_prob_reshape"
  top: "rpn_big_anchor_target_labels"
  top: "rpn_big_anchor_target_bbox_targets"
  top: "rpn_big_anchor_target_inside_weights"
  top: "rpn_big_anchor_target_outside_weights"
  python_param {
    module: "rpn.anchor_target_layer"
    layer: "AnchorTargetLayer"
    param_str: "{\"feat_stride\": 16, \"anchor_shift_num_xy\": [[2, 2], [2, 2], [2, 2], [2, 2], [1, 1], [1, 1], [1, 1], [1, 1], [1, 1], [1, 1], [1, 1], [1, 1], [1, 1], [1, 1]], \"num_classes\": 1, \"negative_overlap\": 0.4, \"anchor_scales\": [2.5, 3.025, 3.66025, 4.4289024999999995, 5.358972025, 6.484356150249999, 7.846070941802498, 9.493745839581022, 11.487432465893036, 13.899793283730574, 16.818749873313998, 20.350687346709933, 24.62433168951902, 29.795441344318014], \"positive_overlap\": 0.6, \"batchsize\": 256, \"anchor_ratios\": [1.0], \"name\": \"rpn_big\", \"fg_fraction\": 0.5, \"square_targets\": true, \"tn_fraction\": 0.2}"
  }
}
layer {
  name: "rpn_big_loss_cls"
  type: "SoftmaxWithLoss"
  bottom: "rpn_big_cls_score_reshape"
  bottom: "rpn_big_anchor_target_labels"
  top: "rpn_big_loss_cls"
  loss_weight: 1
  propagate_down: true
  propagate_down: false
  loss_param {
    ignore_label: -1
    normalization: VALID
  }
}
layer {
  name: "rpn_big_output_box"
  type: "Convolution"
  bottom: "rpn_big_conv2"
  top: "rpn_big_output_box"
  param {
    lr_mult: 1
  }
  param {
    lr_mult: 2
  }
  convolution_param {
    num_output: 384
    pad: 1
    kernel_size: 3
    stride: 1
    weight_filler {
      type: "gaussian"
      mean: 0
      std: 0.01
    }
    bias_filler {
      type: "constant"
    }
  }
}
layer {
  name: "rpn_big_output_box_relu"
  type: "ReLU"
  bottom: "rpn_big_output_box"
  top: "rpn_big_output_box"
  relu_param {
    negative_slope: 0
  }
}
layer {
  name: "rpn_big_bbox_pred"
  type: "Convolution"
  bottom: "rpn_big_output_box"
  top: "rpn_big_bbox_pred"
  param {
    lr_mult: 1
  }
  param {
    lr_mult: 2
  }
  convolution_param {
    num_output: 104
    pad: 0
    kernel_size: 3
    stride: 1
    weight_filler {
      type: "gaussian"
      mean: 0
      std: 0.01
    }
    bias_filler {
      type: "constant"
    }
  }
}
layer {
  name: "rpn_big_loss_bbox"
  type: "Python"
  bottom: "rpn_big_bbox_pred"
  bottom: "rpn_big_anchor_target_bbox_targets"
  bottom: "rpn_big_anchor_target_inside_weights"
  bottom: "rpn_big_anchor_target_outside_weights"
  top: "rpn_big_loss_bbox"
  loss_weight: 1
  python_param {
    module: "layers.smooth_l1_loss"
    layer: "SmoothL1LossLayer"
    param_str: "{\"sigma\": 3}"
  }
}
layer {
  name: "proposal"
  type: "Python"
  bottom: "rpn_big_cls_prob_reshape"
  bottom: "rpn_big_bbox_pred"
  bottom: "input_im_info"
  top: "rpn_rois"
  python_param {
    module: "rpn.proposal_layer"
    layer: "ProposalLayer"
    param_str: "{\"anchor_shift_num_xy\": [[2, 2], [2, 2], [2, 2], [2, 2], [1, 1], [1, 1], [1, 1], [1, 1], [1, 1], [1, 1], [1, 1], [1, 1], [1, 1], [1, 1]], \"feat_stride\": 16, \"num_classes\": 1, \"anchor_scales\": [2.5, 3.025, 3.66025, 4.4289024999999995, 5.358972025, 6.484356150249999, 7.846070941802498, 9.493745839581022, 11.487432465893036, 13.899793283730574, 16.818749873313998, 20.350687346709933, 24.62433168951902, 29.795441344318014], \"square_targets\": true, \"name\": \"rpn_big\", \"batchsize\": 256, \"anchor_ratios\": [1.0]}"
  }
}
layer {
  name: "roi-data"
  type: "Python"
  bottom: "rpn_rois"
  bottom: "input_gt_boxes"
  top: "rois"
  top: "labels"
  top: "bbox_targets"
  top: "bbox_inside_weights"
  top: "bbox_outside_weights"
  top: "pid_label"
  python_param {
    module: "rpn.proposal_target_layer"
    layer: "ProposalTargetLayer"
    param_str: "{\"num_classes\": 2, \"bg_aux_label\": 5532}"
  }
}
layer {
  name: "roi-pool"
  type: "ROIPooling"
  bottom: "conv5_3"
  bottom: "rois"
  top: "roi-pool"
  roi_pooling_param {
    pooled_h: 7
    pooled_w: 7
    spatial_scale: 0.0625
  }
}
layer {
  name: "fc6"
  type: "InnerProduct"
  bottom: "roi-pool"
  top: "fc6"
  param {
    lr_mult: 1
  }
  param {
    lr_mult: 2
  }
  inner_product_param {
    num_output: 4096
  }
}
layer {
  name: "relu6"
  type: "ReLU"
  bottom: "fc6"
  top: "fc6"
}
layer {
  name: "drop6"
  type: "Dropout"
  bottom: "fc6"
  top: "fc6"
  dropout_param {
    dropout_ratio: 0.5
  }
}
layer {
  name: "fc7"
  type: "InnerProduct"
  bottom: "fc6"
  top: "fc7"
  param {
    lr_mult: 1
  }
  param {
    lr_mult: 2
  }
  inner_product_param {
    num_output: 4096
  }
}
layer {
  name: "relu7"
  type: "ReLU"
  bottom: "fc7"
  top: "fc7"
}
layer {
  name: "drop7"
  type: "Dropout"
  bottom: "fc7"
  top: "fc7"
  dropout_param {
    dropout_ratio: 0.5
  }
}
layer {
  name: "bbox_pred"
  type: "InnerProduct"
  bottom: "fc7"
  top: "bbox_pred"
  param {
    lr_mult: 1
  }
  param {
    lr_mult: 2
  }
  inner_product_param {
    num_output: 0
    weight_filler {
      type: "gaussian"
      std: 0.001
    }
    bias_filler {
      type: "constant"
      value: 0
    }
  }
}
layer {
  name: "loss_bbox"
  type: "SmoothL1Loss"
  bottom: "bbox_pred"
  bottom: "bbox_targets"
  bottom: "bbox_inside_weights"
  bottom: "bbox_outside_weights"
  top: "loss_bbox"
  loss_weight: 1
}
I0413 18:18:31.490236 12870 layer_factory.hpp:77] Creating layer input
I0413 18:18:31.492017 12870 net.cpp:100] Creating Layer input
I0413 18:18:31.492033 12870 net.cpp:408] input -> input_data
I0413 18:18:31.492048 12870 net.cpp:408] input -> input_im_info
I0413 18:18:31.492060 12870 net.cpp:408] input -> input_gt_boxes
I0413 18:18:31.492071 12870 net.cpp:408] input -> input_ignored_boxes
RoiDataLayer: name_to_top: {'gt_boxes': 2, 'im_info': 1, 'ignored_boxes': 3, 'data': 0}
I0413 18:18:31.813370 12870 net.cpp:150] Setting up input
I0413 18:18:31.813397 12870 net.cpp:157] Top shape: 1 3 1000 1500 (4500000)
I0413 18:18:31.813406 12870 net.cpp:157] Top shape: 1 3 (3)
I0413 18:18:31.813412 12870 net.cpp:157] Top shape: 1 5 (5)
I0413 18:18:31.813418 12870 net.cpp:157] Top shape: 1 5 (5)
I0413 18:18:31.813423 12870 net.cpp:165] Memory required for data: 18000052
I0413 18:18:31.813432 12870 layer_factory.hpp:77] Creating layer input_data_input_0_split
I0413 18:18:31.813447 12870 net.cpp:100] Creating Layer input_data_input_0_split
I0413 18:18:31.813457 12870 net.cpp:434] input_data_input_0_split <- input_data
I0413 18:18:31.813470 12870 net.cpp:408] input_data_input_0_split -> input_data_input_0_split_0
I0413 18:18:31.813491 12870 net.cpp:408] input_data_input_0_split -> input_data_input_0_split_1
I0413 18:18:31.813537 12870 net.cpp:150] Setting up input_data_input_0_split
I0413 18:18:31.813549 12870 net.cpp:157] Top shape: 1 3 1000 1500 (4500000)
I0413 18:18:31.813555 12870 net.cpp:157] Top shape: 1 3 1000 1500 (4500000)
I0413 18:18:31.813560 12870 net.cpp:165] Memory required for data: 54000052
I0413 18:18:31.813565 12870 layer_factory.hpp:77] Creating layer input_im_info_input_1_split
I0413 18:18:31.813575 12870 net.cpp:100] Creating Layer input_im_info_input_1_split
I0413 18:18:31.813580 12870 net.cpp:434] input_im_info_input_1_split <- input_im_info
I0413 18:18:31.813591 12870 net.cpp:408] input_im_info_input_1_split -> input_im_info_input_1_split_0
I0413 18:18:31.813601 12870 net.cpp:408] input_im_info_input_1_split -> input_im_info_input_1_split_1
I0413 18:18:31.813643 12870 net.cpp:150] Setting up input_im_info_input_1_split
I0413 18:18:31.813653 12870 net.cpp:157] Top shape: 1 3 (3)
I0413 18:18:31.813660 12870 net.cpp:157] Top shape: 1 3 (3)
I0413 18:18:31.813666 12870 net.cpp:165] Memory required for data: 54000076
I0413 18:18:31.813671 12870 layer_factory.hpp:77] Creating layer input_gt_boxes_input_2_split
I0413 18:18:31.813681 12870 net.cpp:100] Creating Layer input_gt_boxes_input_2_split
I0413 18:18:31.813688 12870 net.cpp:434] input_gt_boxes_input_2_split <- input_gt_boxes
I0413 18:18:31.813699 12870 net.cpp:408] input_gt_boxes_input_2_split -> input_gt_boxes_input_2_split_0
I0413 18:18:31.813711 12870 net.cpp:408] input_gt_boxes_input_2_split -> input_gt_boxes_input_2_split_1
I0413 18:18:31.813753 12870 net.cpp:150] Setting up input_gt_boxes_input_2_split
I0413 18:18:31.813765 12870 net.cpp:157] Top shape: 1 5 (5)
I0413 18:18:31.813773 12870 net.cpp:157] Top shape: 1 5 (5)
I0413 18:18:31.813779 12870 net.cpp:165] Memory required for data: 54000116
I0413 18:18:31.813786 12870 layer_factory.hpp:77] Creating layer conv1_1
I0413 18:18:31.813802 12870 net.cpp:100] Creating Layer conv1_1
I0413 18:18:31.813809 12870 net.cpp:434] conv1_1 <- input_data_input_0_split_0
I0413 18:18:31.813822 12870 net.cpp:408] conv1_1 -> conv1_1
I0413 18:18:31.817092 12870 net.cpp:150] Setting up conv1_1
I0413 18:18:31.817131 12870 net.cpp:157] Top shape: 1 64 1000 1500 (96000000)
I0413 18:18:31.817134 12870 net.cpp:165] Memory required for data: 438000116
I0413 18:18:31.817160 12870 layer_factory.hpp:77] Creating layer relu1_1
I0413 18:18:31.817178 12870 net.cpp:100] Creating Layer relu1_1
I0413 18:18:31.817185 12870 net.cpp:434] relu1_1 <- conv1_1
I0413 18:18:31.817198 12870 net.cpp:395] relu1_1 -> conv1_1 (in-place)
I0413 18:18:31.817214 12870 net.cpp:150] Setting up relu1_1
I0413 18:18:31.817224 12870 net.cpp:157] Top shape: 1 64 1000 1500 (96000000)
I0413 18:18:31.817229 12870 net.cpp:165] Memory required for data: 822000116
I0413 18:18:31.817234 12870 layer_factory.hpp:77] Creating layer conv1_2
I0413 18:18:31.817247 12870 net.cpp:100] Creating Layer conv1_2
I0413 18:18:31.817253 12870 net.cpp:434] conv1_2 <- conv1_1
I0413 18:18:31.817263 12870 net.cpp:408] conv1_2 -> conv1_2
I0413 18:18:31.820574 12870 net.cpp:150] Setting up conv1_2
I0413 18:18:31.820613 12870 net.cpp:157] Top shape: 1 64 1000 1500 (96000000)
I0413 18:18:31.820617 12870 net.cpp:165] Memory required for data: 1206000116
I0413 18:18:31.820636 12870 layer_factory.hpp:77] Creating layer relu1_2
I0413 18:18:31.820652 12870 net.cpp:100] Creating Layer relu1_2
I0413 18:18:31.820659 12870 net.cpp:434] relu1_2 <- conv1_2
I0413 18:18:31.820670 12870 net.cpp:395] relu1_2 -> conv1_2 (in-place)
I0413 18:18:31.820685 12870 net.cpp:150] Setting up relu1_2
I0413 18:18:31.820693 12870 net.cpp:157] Top shape: 1 64 1000 1500 (96000000)
I0413 18:18:31.820698 12870 net.cpp:165] Memory required for data: 1590000116
I0413 18:18:31.820701 12870 layer_factory.hpp:77] Creating layer pool1
I0413 18:18:31.820718 12870 net.cpp:100] Creating Layer pool1
I0413 18:18:31.820724 12870 net.cpp:434] pool1 <- conv1_2
I0413 18:18:31.820731 12870 net.cpp:408] pool1 -> pool1
I0413 18:18:31.820816 12870 net.cpp:150] Setting up pool1
I0413 18:18:31.820832 12870 net.cpp:157] Top shape: 1 64 500 750 (24000000)
I0413 18:18:31.820837 12870 net.cpp:165] Memory required for data: 1686000116
I0413 18:18:31.820842 12870 layer_factory.hpp:77] Creating layer conv2_1
I0413 18:18:31.820853 12870 net.cpp:100] Creating Layer conv2_1
I0413 18:18:31.820859 12870 net.cpp:434] conv2_1 <- pool1
I0413 18:18:31.820868 12870 net.cpp:408] conv2_1 -> conv2_1
I0413 18:18:31.822237 12870 net.cpp:150] Setting up conv2_1
I0413 18:18:31.822262 12870 net.cpp:157] Top shape: 1 128 500 750 (48000000)
I0413 18:18:31.822264 12870 net.cpp:165] Memory required for data: 1878000116
I0413 18:18:31.822285 12870 layer_factory.hpp:77] Creating layer relu2_1
I0413 18:18:31.822293 12870 net.cpp:100] Creating Layer relu2_1
I0413 18:18:31.822298 12870 net.cpp:434] relu2_1 <- conv2_1
I0413 18:18:31.822306 12870 net.cpp:395] relu2_1 -> conv2_1 (in-place)
I0413 18:18:31.822319 12870 net.cpp:150] Setting up relu2_1
I0413 18:18:31.822326 12870 net.cpp:157] Top shape: 1 128 500 750 (48000000)
I0413 18:18:31.822331 12870 net.cpp:165] Memory required for data: 2070000116
I0413 18:18:31.822336 12870 layer_factory.hpp:77] Creating layer conv2_2
I0413 18:18:31.822350 12870 net.cpp:100] Creating Layer conv2_2
I0413 18:18:31.822356 12870 net.cpp:434] conv2_2 <- conv2_1
I0413 18:18:31.822365 12870 net.cpp:408] conv2_2 -> conv2_2
I0413 18:18:31.823413 12870 net.cpp:150] Setting up conv2_2
I0413 18:18:31.823436 12870 net.cpp:157] Top shape: 1 128 500 750 (48000000)
I0413 18:18:31.823441 12870 net.cpp:165] Memory required for data: 2262000116
I0413 18:18:31.823453 12870 layer_factory.hpp:77] Creating layer relu2_2
I0413 18:18:31.823467 12870 net.cpp:100] Creating Layer relu2_2
I0413 18:18:31.823474 12870 net.cpp:434] relu2_2 <- conv2_2
I0413 18:18:31.823483 12870 net.cpp:395] relu2_2 -> conv2_2 (in-place)
I0413 18:18:31.823498 12870 net.cpp:150] Setting up relu2_2
I0413 18:18:31.823505 12870 net.cpp:157] Top shape: 1 128 500 750 (48000000)
I0413 18:18:31.823511 12870 net.cpp:165] Memory required for data: 2454000116
I0413 18:18:31.823518 12870 layer_factory.hpp:77] Creating layer pool2
I0413 18:18:31.823526 12870 net.cpp:100] Creating Layer pool2
I0413 18:18:31.823532 12870 net.cpp:434] pool2 <- conv2_2
I0413 18:18:31.823541 12870 net.cpp:408] pool2 -> pool2
I0413 18:18:31.823599 12870 net.cpp:150] Setting up pool2
I0413 18:18:31.823609 12870 net.cpp:157] Top shape: 1 128 250 375 (12000000)
I0413 18:18:31.823616 12870 net.cpp:165] Memory required for data: 2502000116
I0413 18:18:31.823621 12870 layer_factory.hpp:77] Creating layer conv3_1
I0413 18:18:31.823637 12870 net.cpp:100] Creating Layer conv3_1
I0413 18:18:31.823643 12870 net.cpp:434] conv3_1 <- pool2
I0413 18:18:31.823654 12870 net.cpp:408] conv3_1 -> conv3_1
I0413 18:18:31.824939 12870 net.cpp:150] Setting up conv3_1
I0413 18:18:31.824972 12870 net.cpp:157] Top shape: 1 256 250 375 (24000000)
I0413 18:18:31.824976 12870 net.cpp:165] Memory required for data: 2598000116
I0413 18:18:31.824995 12870 layer_factory.hpp:77] Creating layer relu3_1
I0413 18:18:31.825007 12870 net.cpp:100] Creating Layer relu3_1
I0413 18:18:31.825014 12870 net.cpp:434] relu3_1 <- conv3_1
I0413 18:18:31.825026 12870 net.cpp:395] relu3_1 -> conv3_1 (in-place)
I0413 18:18:31.825039 12870 net.cpp:150] Setting up relu3_1
I0413 18:18:31.825049 12870 net.cpp:157] Top shape: 1 256 250 375 (24000000)
I0413 18:18:31.825054 12870 net.cpp:165] Memory required for data: 2694000116
I0413 18:18:31.825059 12870 layer_factory.hpp:77] Creating layer conv3_2
I0413 18:18:31.825078 12870 net.cpp:100] Creating Layer conv3_2
I0413 18:18:31.825085 12870 net.cpp:434] conv3_2 <- conv3_1
I0413 18:18:31.825094 12870 net.cpp:408] conv3_2 -> conv3_2
I0413 18:18:31.826544 12870 net.cpp:150] Setting up conv3_2
I0413 18:18:31.826573 12870 net.cpp:157] Top shape: 1 256 250 375 (24000000)
I0413 18:18:31.826577 12870 net.cpp:165] Memory required for data: 2790000116
I0413 18:18:31.826588 12870 layer_factory.hpp:77] Creating layer relu3_2
I0413 18:18:31.826601 12870 net.cpp:100] Creating Layer relu3_2
I0413 18:18:31.826611 12870 net.cpp:434] relu3_2 <- conv3_2
I0413 18:18:31.826624 12870 net.cpp:395] relu3_2 -> conv3_2 (in-place)
I0413 18:18:31.826638 12870 net.cpp:150] Setting up relu3_2
I0413 18:18:31.826645 12870 net.cpp:157] Top shape: 1 256 250 375 (24000000)
I0413 18:18:31.826652 12870 net.cpp:165] Memory required for data: 2886000116
I0413 18:18:31.826656 12870 layer_factory.hpp:77] Creating layer conv3_3
I0413 18:18:31.826669 12870 net.cpp:100] Creating Layer conv3_3
I0413 18:18:31.826676 12870 net.cpp:434] conv3_3 <- conv3_2
I0413 18:18:31.826685 12870 net.cpp:408] conv3_3 -> conv3_3
I0413 18:18:31.828855 12870 net.cpp:150] Setting up conv3_3
I0413 18:18:31.828891 12870 net.cpp:157] Top shape: 1 256 250 375 (24000000)
I0413 18:18:31.828893 12870 net.cpp:165] Memory required for data: 2982000116
I0413 18:18:31.828925 12870 layer_factory.hpp:77] Creating layer relu3_3
I0413 18:18:31.828940 12870 net.cpp:100] Creating Layer relu3_3
I0413 18:18:31.828949 12870 net.cpp:434] relu3_3 <- conv3_3
I0413 18:18:31.828964 12870 net.cpp:395] relu3_3 -> conv3_3 (in-place)
I0413 18:18:31.828979 12870 net.cpp:150] Setting up relu3_3
I0413 18:18:31.828987 12870 net.cpp:157] Top shape: 1 256 250 375 (24000000)
I0413 18:18:31.828994 12870 net.cpp:165] Memory required for data: 3078000116
I0413 18:18:31.828999 12870 layer_factory.hpp:77] Creating layer pool3
I0413 18:18:31.829006 12870 net.cpp:100] Creating Layer pool3
I0413 18:18:31.829013 12870 net.cpp:434] pool3 <- conv3_3
I0413 18:18:31.829025 12870 net.cpp:408] pool3 -> pool3
I0413 18:18:31.829082 12870 net.cpp:150] Setting up pool3
I0413 18:18:31.829097 12870 net.cpp:157] Top shape: 1 256 125 188 (6016000)
I0413 18:18:31.829103 12870 net.cpp:165] Memory required for data: 3102064116
I0413 18:18:31.829109 12870 layer_factory.hpp:77] Creating layer conv4_1
I0413 18:18:31.829123 12870 net.cpp:100] Creating Layer conv4_1
I0413 18:18:31.829130 12870 net.cpp:434] conv4_1 <- pool3
I0413 18:18:31.829140 12870 net.cpp:408] conv4_1 -> conv4_1
I0413 18:18:31.831923 12870 net.cpp:150] Setting up conv4_1
I0413 18:18:31.831959 12870 net.cpp:157] Top shape: 1 512 125 188 (12032000)
I0413 18:18:31.831961 12870 net.cpp:165] Memory required for data: 3150192116
I0413 18:18:31.831972 12870 layer_factory.hpp:77] Creating layer relu4_1
I0413 18:18:31.831989 12870 net.cpp:100] Creating Layer relu4_1
I0413 18:18:31.831998 12870 net.cpp:434] relu4_1 <- conv4_1
I0413 18:18:31.832010 12870 net.cpp:395] relu4_1 -> conv4_1 (in-place)
I0413 18:18:31.832023 12870 net.cpp:150] Setting up relu4_1
I0413 18:18:31.832032 12870 net.cpp:157] Top shape: 1 512 125 188 (12032000)
I0413 18:18:31.832037 12870 net.cpp:165] Memory required for data: 3198320116
I0413 18:18:31.832042 12870 layer_factory.hpp:77] Creating layer conv4_2
I0413 18:18:31.832056 12870 net.cpp:100] Creating Layer conv4_2
I0413 18:18:31.832063 12870 net.cpp:434] conv4_2 <- conv4_1
I0413 18:18:31.832072 12870 net.cpp:408] conv4_2 -> conv4_2
I0413 18:18:31.836405 12870 net.cpp:150] Setting up conv4_2
I0413 18:18:31.836441 12870 net.cpp:157] Top shape: 1 512 125 188 (12032000)
I0413 18:18:31.836444 12870 net.cpp:165] Memory required for data: 3246448116
I0413 18:18:31.836465 12870 layer_factory.hpp:77] Creating layer relu4_2
I0413 18:18:31.836480 12870 net.cpp:100] Creating Layer relu4_2
I0413 18:18:31.836489 12870 net.cpp:434] relu4_2 <- conv4_2
I0413 18:18:31.836501 12870 net.cpp:395] relu4_2 -> conv4_2 (in-place)
I0413 18:18:31.836516 12870 net.cpp:150] Setting up relu4_2
I0413 18:18:31.836524 12870 net.cpp:157] Top shape: 1 512 125 188 (12032000)
I0413 18:18:31.836530 12870 net.cpp:165] Memory required for data: 3294576116
I0413 18:18:31.836535 12870 layer_factory.hpp:77] Creating layer conv4_3
I0413 18:18:31.836550 12870 net.cpp:100] Creating Layer conv4_3
I0413 18:18:31.836557 12870 net.cpp:434] conv4_3 <- conv4_2
I0413 18:18:31.836567 12870 net.cpp:408] conv4_3 -> conv4_3
I0413 18:18:31.840977 12870 net.cpp:150] Setting up conv4_3
I0413 18:18:31.841017 12870 net.cpp:157] Top shape: 1 512 125 188 (12032000)
I0413 18:18:31.841019 12870 net.cpp:165] Memory required for data: 3342704116
I0413 18:18:31.841032 12870 layer_factory.hpp:77] Creating layer relu4_3
I0413 18:18:31.841045 12870 net.cpp:100] Creating Layer relu4_3
I0413 18:18:31.841054 12870 net.cpp:434] relu4_3 <- conv4_3
I0413 18:18:31.841066 12870 net.cpp:395] relu4_3 -> conv4_3 (in-place)
I0413 18:18:31.841080 12870 net.cpp:150] Setting up relu4_3
I0413 18:18:31.841087 12870 net.cpp:157] Top shape: 1 512 125 188 (12032000)
I0413 18:18:31.841092 12870 net.cpp:165] Memory required for data: 3390832116
I0413 18:18:31.841097 12870 layer_factory.hpp:77] Creating layer pool4
I0413 18:18:31.841105 12870 net.cpp:100] Creating Layer pool4
I0413 18:18:31.841110 12870 net.cpp:434] pool4 <- conv4_3
I0413 18:18:31.841120 12870 net.cpp:408] pool4 -> pool4
I0413 18:18:31.841171 12870 net.cpp:150] Setting up pool4
I0413 18:18:31.841182 12870 net.cpp:157] Top shape: 1 512 63 94 (3032064)
I0413 18:18:31.841188 12870 net.cpp:165] Memory required for data: 3402960372
I0413 18:18:31.841193 12870 layer_factory.hpp:77] Creating layer conv5_1
I0413 18:18:31.841209 12870 net.cpp:100] Creating Layer conv5_1
I0413 18:18:31.841218 12870 net.cpp:434] conv5_1 <- pool4
I0413 18:18:31.841228 12870 net.cpp:408] conv5_1 -> conv5_1
I0413 18:18:31.848093 12870 net.cpp:150] Setting up conv5_1
I0413 18:18:31.848125 12870 net.cpp:157] Top shape: 1 512 63 94 (3032064)
I0413 18:18:31.848129 12870 net.cpp:165] Memory required for data: 3415088628
I0413 18:18:31.848141 12870 layer_factory.hpp:77] Creating layer relu5_1
I0413 18:18:31.848155 12870 net.cpp:100] Creating Layer relu5_1
I0413 18:18:31.848163 12870 net.cpp:434] relu5_1 <- conv5_1
I0413 18:18:31.848176 12870 net.cpp:395] relu5_1 -> conv5_1 (in-place)
I0413 18:18:31.848191 12870 net.cpp:150] Setting up relu5_1
I0413 18:18:31.848199 12870 net.cpp:157] Top shape: 1 512 63 94 (3032064)
I0413 18:18:31.848204 12870 net.cpp:165] Memory required for data: 3427216884
I0413 18:18:31.848208 12870 layer_factory.hpp:77] Creating layer conv5_2
I0413 18:18:31.848222 12870 net.cpp:100] Creating Layer conv5_2
I0413 18:18:31.848232 12870 net.cpp:434] conv5_2 <- conv5_1
I0413 18:18:31.848240 12870 net.cpp:408] conv5_2 -> conv5_2
I0413 18:18:31.852515 12870 net.cpp:150] Setting up conv5_2
I0413 18:18:31.852552 12870 net.cpp:157] Top shape: 1 512 63 94 (3032064)
I0413 18:18:31.852556 12870 net.cpp:165] Memory required for data: 3439345140
I0413 18:18:31.852566 12870 layer_factory.hpp:77] Creating layer relu5_2
I0413 18:18:31.852577 12870 net.cpp:100] Creating Layer relu5_2
I0413 18:18:31.852584 12870 net.cpp:434] relu5_2 <- conv5_2
I0413 18:18:31.852596 12870 net.cpp:395] relu5_2 -> conv5_2 (in-place)
I0413 18:18:31.852624 12870 net.cpp:150] Setting up relu5_2
I0413 18:18:31.852633 12870 net.cpp:157] Top shape: 1 512 63 94 (3032064)
I0413 18:18:31.852638 12870 net.cpp:165] Memory required for data: 3451473396
I0413 18:18:31.852643 12870 layer_factory.hpp:77] Creating layer conv5_3
I0413 18:18:31.852664 12870 net.cpp:100] Creating Layer conv5_3
I0413 18:18:31.852671 12870 net.cpp:434] conv5_3 <- conv5_2
I0413 18:18:31.852680 12870 net.cpp:408] conv5_3 -> conv5_3
I0413 18:18:31.857028 12870 net.cpp:150] Setting up conv5_3
I0413 18:18:31.857064 12870 net.cpp:157] Top shape: 1 512 63 94 (3032064)
I0413 18:18:31.857067 12870 net.cpp:165] Memory required for data: 3463601652
I0413 18:18:31.857079 12870 layer_factory.hpp:77] Creating layer relu5_3
I0413 18:18:31.857094 12870 net.cpp:100] Creating Layer relu5_3
I0413 18:18:31.857102 12870 net.cpp:434] relu5_3 <- conv5_3
I0413 18:18:31.857115 12870 net.cpp:395] relu5_3 -> conv5_3 (in-place)
I0413 18:18:31.857131 12870 net.cpp:150] Setting up relu5_3
I0413 18:18:31.857139 12870 net.cpp:157] Top shape: 1 512 63 94 (3032064)
I0413 18:18:31.857146 12870 net.cpp:165] Memory required for data: 3475729908
I0413 18:18:31.857151 12870 layer_factory.hpp:77] Creating layer conv5_3_relu5_3_0_split
I0413 18:18:31.857158 12870 net.cpp:100] Creating Layer conv5_3_relu5_3_0_split
I0413 18:18:31.857165 12870 net.cpp:434] conv5_3_relu5_3_0_split <- conv5_3
I0413 18:18:31.857177 12870 net.cpp:408] conv5_3_relu5_3_0_split -> conv5_3_relu5_3_0_split_0
I0413 18:18:31.857187 12870 net.cpp:408] conv5_3_relu5_3_0_split -> conv5_3_relu5_3_0_split_1
I0413 18:18:31.857235 12870 net.cpp:150] Setting up conv5_3_relu5_3_0_split
I0413 18:18:31.857249 12870 net.cpp:157] Top shape: 1 512 63 94 (3032064)
I0413 18:18:31.857255 12870 net.cpp:157] Top shape: 1 512 63 94 (3032064)
I0413 18:18:31.857262 12870 net.cpp:165] Memory required for data: 3499986420
I0413 18:18:31.857270 12870 layer_factory.hpp:77] Creating layer rpn_big_conv1
I0413 18:18:31.857287 12870 net.cpp:100] Creating Layer rpn_big_conv1
I0413 18:18:31.857295 12870 net.cpp:434] rpn_big_conv1 <- conv5_3_relu5_3_0_split_0
I0413 18:18:31.857307 12870 net.cpp:408] rpn_big_conv1 -> rpn_big_conv1
I0413 18:18:31.882608 12870 net.cpp:150] Setting up rpn_big_conv1
I0413 18:18:31.882645 12870 net.cpp:157] Top shape: 1 512 63 94 (3032064)
I0413 18:18:31.882652 12870 net.cpp:165] Memory required for data: 3512114676
I0413 18:18:31.882668 12870 layer_factory.hpp:77] Creating layer rpn_big_conv1_relu
I0413 18:18:31.882683 12870 net.cpp:100] Creating Layer rpn_big_conv1_relu
I0413 18:18:31.882690 12870 net.cpp:434] rpn_big_conv1_relu <- rpn_big_conv1
I0413 18:18:31.882704 12870 net.cpp:395] rpn_big_conv1_relu -> rpn_big_conv1 (in-place)
I0413 18:18:31.882719 12870 net.cpp:150] Setting up rpn_big_conv1_relu
I0413 18:18:31.882727 12870 net.cpp:157] Top shape: 1 512 63 94 (3032064)
I0413 18:18:31.882732 12870 net.cpp:165] Memory required for data: 3524242932
I0413 18:18:31.882737 12870 layer_factory.hpp:77] Creating layer rpn_big_conv2
I0413 18:18:31.882753 12870 net.cpp:100] Creating Layer rpn_big_conv2
I0413 18:18:31.882761 12870 net.cpp:434] rpn_big_conv2 <- rpn_big_conv1
I0413 18:18:31.882771 12870 net.cpp:408] rpn_big_conv2 -> rpn_big_conv2
I0413 18:18:31.908000 12870 net.cpp:150] Setting up rpn_big_conv2
I0413 18:18:31.908028 12870 net.cpp:157] Top shape: 1 512 63 94 (3032064)
I0413 18:18:31.908041 12870 net.cpp:165] Memory required for data: 3536371188
I0413 18:18:31.908051 12870 layer_factory.hpp:77] Creating layer rpn_big_conv2_relu
I0413 18:18:31.908061 12870 net.cpp:100] Creating Layer rpn_big_conv2_relu
I0413 18:18:31.908066 12870 net.cpp:434] rpn_big_conv2_relu <- rpn_big_conv2
I0413 18:18:31.908074 12870 net.cpp:395] rpn_big_conv2_relu -> rpn_big_conv2 (in-place)
I0413 18:18:31.908085 12870 net.cpp:150] Setting up rpn_big_conv2_relu
I0413 18:18:31.908089 12870 net.cpp:157] Top shape: 1 512 63 94 (3032064)
I0413 18:18:31.908092 12870 net.cpp:165] Memory required for data: 3548499444
I0413 18:18:31.908095 12870 layer_factory.hpp:77] Creating layer rpn_big_conv2_drop
I0413 18:18:31.908102 12870 net.cpp:100] Creating Layer rpn_big_conv2_drop
I0413 18:18:31.908116 12870 net.cpp:434] rpn_big_conv2_drop <- rpn_big_conv2
I0413 18:18:31.908121 12870 net.cpp:395] rpn_big_conv2_drop -> rpn_big_conv2 (in-place)
I0413 18:18:31.908143 12870 net.cpp:150] Setting up rpn_big_conv2_drop
I0413 18:18:31.908150 12870 net.cpp:157] Top shape: 1 512 63 94 (3032064)
I0413 18:18:31.908154 12870 net.cpp:165] Memory required for data: 3560627700
I0413 18:18:31.908157 12870 layer_factory.hpp:77] Creating layer rpn_big_conv2_rpn_big_conv2_drop_0_split
I0413 18:18:31.908164 12870 net.cpp:100] Creating Layer rpn_big_conv2_rpn_big_conv2_drop_0_split
I0413 18:18:31.908166 12870 net.cpp:434] rpn_big_conv2_rpn_big_conv2_drop_0_split <- rpn_big_conv2
I0413 18:18:31.908174 12870 net.cpp:408] rpn_big_conv2_rpn_big_conv2_drop_0_split -> rpn_big_conv2_rpn_big_conv2_drop_0_split_0
I0413 18:18:31.908182 12870 net.cpp:408] rpn_big_conv2_rpn_big_conv2_drop_0_split -> rpn_big_conv2_rpn_big_conv2_drop_0_split_1
I0413 18:18:31.908218 12870 net.cpp:150] Setting up rpn_big_conv2_rpn_big_conv2_drop_0_split
I0413 18:18:31.908227 12870 net.cpp:157] Top shape: 1 512 63 94 (3032064)
I0413 18:18:31.908232 12870 net.cpp:157] Top shape: 1 512 63 94 (3032064)
I0413 18:18:31.908236 12870 net.cpp:165] Memory required for data: 3584884212
I0413 18:18:31.908238 12870 layer_factory.hpp:77] Creating layer rpn_big_output_cls
I0413 18:18:31.908249 12870 net.cpp:100] Creating Layer rpn_big_output_cls
I0413 18:18:31.908255 12870 net.cpp:434] rpn_big_output_cls <- rpn_big_conv2_rpn_big_conv2_drop_0_split_0
I0413 18:18:31.908262 12870 net.cpp:408] rpn_big_output_cls -> rpn_big_output_cls
I0413 18:18:31.927158 12870 net.cpp:150] Setting up rpn_big_output_cls
I0413 18:18:31.927191 12870 net.cpp:157] Top shape: 1 384 63 94 (2274048)
I0413 18:18:31.927196 12870 net.cpp:165] Memory required for data: 3593980404
I0413 18:18:31.927206 12870 layer_factory.hpp:77] Creating layer rpn_big_output_cls_relu
I0413 18:18:31.927217 12870 net.cpp:100] Creating Layer rpn_big_output_cls_relu
I0413 18:18:31.927222 12870 net.cpp:434] rpn_big_output_cls_relu <- rpn_big_output_cls
I0413 18:18:31.927232 12870 net.cpp:395] rpn_big_output_cls_relu -> rpn_big_output_cls (in-place)
I0413 18:18:31.927242 12870 net.cpp:150] Setting up rpn_big_output_cls_relu
I0413 18:18:31.927247 12870 net.cpp:157] Top shape: 1 384 63 94 (2274048)
I0413 18:18:31.927249 12870 net.cpp:165] Memory required for data: 3603076596
I0413 18:18:31.927253 12870 layer_factory.hpp:77] Creating layer rpn_big_cls_score
I0413 18:18:31.927263 12870 net.cpp:100] Creating Layer rpn_big_cls_score
I0413 18:18:31.927268 12870 net.cpp:434] rpn_big_cls_score <- rpn_big_output_cls
I0413 18:18:31.927274 12870 net.cpp:408] rpn_big_cls_score -> rpn_big_cls_score
I0413 18:18:31.931455 12870 net.cpp:150] Setting up rpn_big_cls_score
I0413 18:18:31.931483 12870 net.cpp:157] Top shape: 1 52 61 92 (291824)
I0413 18:18:31.931494 12870 net.cpp:165] Memory required for data: 3604243892
I0413 18:18:31.931512 12870 layer_factory.hpp:77] Creating layer rpn_big_cls_score_rpn_big_cls_score_0_split
I0413 18:18:31.931522 12870 net.cpp:100] Creating Layer rpn_big_cls_score_rpn_big_cls_score_0_split
I0413 18:18:31.931526 12870 net.cpp:434] rpn_big_cls_score_rpn_big_cls_score_0_split <- rpn_big_cls_score
I0413 18:18:31.931535 12870 net.cpp:408] rpn_big_cls_score_rpn_big_cls_score_0_split -> rpn_big_cls_score_rpn_big_cls_score_0_split_0
I0413 18:18:31.931545 12870 net.cpp:408] rpn_big_cls_score_rpn_big_cls_score_0_split -> rpn_big_cls_score_rpn_big_cls_score_0_split_1
I0413 18:18:31.931578 12870 net.cpp:150] Setting up rpn_big_cls_score_rpn_big_cls_score_0_split
I0413 18:18:31.931586 12870 net.cpp:157] Top shape: 1 52 61 92 (291824)
I0413 18:18:31.931591 12870 net.cpp:157] Top shape: 1 52 61 92 (291824)
I0413 18:18:31.931593 12870 net.cpp:165] Memory required for data: 3606578484
I0413 18:18:31.931596 12870 layer_factory.hpp:77] Creating layer rpn_big_cls_score_reshape
I0413 18:18:31.931605 12870 net.cpp:100] Creating Layer rpn_big_cls_score_reshape
I0413 18:18:31.931610 12870 net.cpp:434] rpn_big_cls_score_reshape <- rpn_big_cls_score_rpn_big_cls_score_0_split_0
I0413 18:18:31.931617 12870 net.cpp:408] rpn_big_cls_score_reshape -> rpn_big_cls_score_reshape
I0413 18:18:31.931643 12870 net.cpp:150] Setting up rpn_big_cls_score_reshape
I0413 18:18:31.931649 12870 net.cpp:157] Top shape: 1 2 1586 92 (291824)
I0413 18:18:31.931653 12870 net.cpp:165] Memory required for data: 3607745780
I0413 18:18:31.931655 12870 layer_factory.hpp:77] Creating layer rpn_big_cls_score_reshape_rpn_big_cls_score_reshape_0_split
I0413 18:18:31.931660 12870 net.cpp:100] Creating Layer rpn_big_cls_score_reshape_rpn_big_cls_score_reshape_0_split
I0413 18:18:31.931664 12870 net.cpp:434] rpn_big_cls_score_reshape_rpn_big_cls_score_reshape_0_split <- rpn_big_cls_score_reshape
I0413 18:18:31.931670 12870 net.cpp:408] rpn_big_cls_score_reshape_rpn_big_cls_score_reshape_0_split -> rpn_big_cls_score_reshape_rpn_big_cls_score_reshape_0_split_0
I0413 18:18:31.931679 12870 net.cpp:408] rpn_big_cls_score_reshape_rpn_big_cls_score_reshape_0_split -> rpn_big_cls_score_reshape_rpn_big_cls_score_reshape_0_split_1
I0413 18:18:31.931710 12870 net.cpp:150] Setting up rpn_big_cls_score_reshape_rpn_big_cls_score_reshape_0_split
I0413 18:18:31.931716 12870 net.cpp:157] Top shape: 1 2 1586 92 (291824)
I0413 18:18:31.931720 12870 net.cpp:157] Top shape: 1 2 1586 92 (291824)
I0413 18:18:31.931723 12870 net.cpp:165] Memory required for data: 3610080372
I0413 18:18:31.931726 12870 layer_factory.hpp:77] Creating layer rpn_big_cls_prob
I0413 18:18:31.931731 12870 net.cpp:100] Creating Layer rpn_big_cls_prob
I0413 18:18:31.931735 12870 net.cpp:434] rpn_big_cls_prob <- rpn_big_cls_score_reshape_rpn_big_cls_score_reshape_0_split_0
I0413 18:18:31.931741 12870 net.cpp:408] rpn_big_cls_prob -> rpn_big_cls_prob
I0413 18:18:31.931792 12870 net.cpp:150] Setting up rpn_big_cls_prob
I0413 18:18:31.931798 12870 net.cpp:157] Top shape: 1 2 1586 92 (291824)
I0413 18:18:31.931802 12870 net.cpp:165] Memory required for data: 3611247668
I0413 18:18:31.931805 12870 layer_factory.hpp:77] Creating layer rpn_big_cls_prob_reshape
I0413 18:18:31.931810 12870 net.cpp:100] Creating Layer rpn_big_cls_prob_reshape
I0413 18:18:31.931813 12870 net.cpp:434] rpn_big_cls_prob_reshape <- rpn_big_cls_prob
I0413 18:18:31.931819 12870 net.cpp:408] rpn_big_cls_prob_reshape -> rpn_big_cls_prob_reshape
I0413 18:18:31.931840 12870 net.cpp:150] Setting up rpn_big_cls_prob_reshape
I0413 18:18:31.931848 12870 net.cpp:157] Top shape: 1 52 61 92 (291824)
I0413 18:18:31.931850 12870 net.cpp:165] Memory required for data: 3612414964
I0413 18:18:31.931854 12870 layer_factory.hpp:77] Creating layer rpn_big_cls_prob_reshape_rpn_big_cls_prob_reshape_0_split
I0413 18:18:31.931859 12870 net.cpp:100] Creating Layer rpn_big_cls_prob_reshape_rpn_big_cls_prob_reshape_0_split
I0413 18:18:31.931861 12870 net.cpp:434] rpn_big_cls_prob_reshape_rpn_big_cls_prob_reshape_0_split <- rpn_big_cls_prob_reshape
I0413 18:18:31.931869 12870 net.cpp:408] rpn_big_cls_prob_reshape_rpn_big_cls_prob_reshape_0_split -> rpn_big_cls_prob_reshape_rpn_big_cls_prob_reshape_0_split_0
I0413 18:18:31.931875 12870 net.cpp:408] rpn_big_cls_prob_reshape_rpn_big_cls_prob_reshape_0_split -> rpn_big_cls_prob_reshape_rpn_big_cls_prob_reshape_0_split_1
I0413 18:18:31.931903 12870 net.cpp:150] Setting up rpn_big_cls_prob_reshape_rpn_big_cls_prob_reshape_0_split
I0413 18:18:31.931910 12870 net.cpp:157] Top shape: 1 52 61 92 (291824)
I0413 18:18:31.931913 12870 net.cpp:157] Top shape: 1 52 61 92 (291824)
I0413 18:18:31.931916 12870 net.cpp:165] Memory required for data: 3614749556
I0413 18:18:31.931920 12870 layer_factory.hpp:77] Creating layer rpn_big_anchor_target
I0413 18:18:31.933254 12870 net.cpp:100] Creating Layer rpn_big_anchor_target
I0413 18:18:31.933269 12870 net.cpp:434] rpn_big_anchor_target <- rpn_big_cls_score_rpn_big_cls_score_0_split_1
I0413 18:18:31.933275 12870 net.cpp:434] rpn_big_anchor_target <- input_gt_boxes_input_2_split_0
I0413 18:18:31.933280 12870 net.cpp:434] rpn_big_anchor_target <- input_ignored_boxes
I0413 18:18:31.933285 12870 net.cpp:434] rpn_big_anchor_target <- input_im_info_input_1_split_0
I0413 18:18:31.933290 12870 net.cpp:434] rpn_big_anchor_target <- input_data_input_0_split_1
I0413 18:18:31.933293 12870 net.cpp:434] rpn_big_anchor_target <- rpn_big_cls_prob_reshape_rpn_big_cls_prob_reshape_0_split_0
I0413 18:18:31.933300 12870 net.cpp:408] rpn_big_anchor_target -> rpn_big_anchor_target_labels
I0413 18:18:31.933310 12870 net.cpp:408] rpn_big_anchor_target -> rpn_big_anchor_target_bbox_targets
I0413 18:18:31.933320 12870 net.cpp:408] rpn_big_anchor_target -> rpn_big_anchor_target_inside_weights
I0413 18:18:31.933328 12870 net.cpp:408] rpn_big_anchor_target -> rpn_big_anchor_target_outside_weights
I0413 18:18:31.938159 12870 net.cpp:150] Setting up rpn_big_anchor_target
I0413 18:18:31.938186 12870 net.cpp:157] Top shape: 1 1 1586 92 (145912)
I0413 18:18:31.938192 12870 net.cpp:157] Top shape: 1 104 61 92 (583648)
I0413 18:18:31.938196 12870 net.cpp:157] Top shape: 1 104 61 92 (583648)
I0413 18:18:31.938200 12870 net.cpp:157] Top shape: 1 104 61 92 (583648)
I0413 18:18:31.938202 12870 net.cpp:165] Memory required for data: 3622336980
I0413 18:18:31.938208 12870 layer_factory.hpp:77] Creating layer rpn_big_loss_cls
I0413 18:18:31.938221 12870 net.cpp:100] Creating Layer rpn_big_loss_cls
I0413 18:18:31.938228 12870 net.cpp:434] rpn_big_loss_cls <- rpn_big_cls_score_reshape_rpn_big_cls_score_reshape_0_split_1
I0413 18:18:31.938235 12870 net.cpp:434] rpn_big_loss_cls <- rpn_big_anchor_target_labels
I0413 18:18:31.938243 12870 net.cpp:408] rpn_big_loss_cls -> rpn_big_loss_cls
I0413 18:18:31.938256 12870 layer_factory.hpp:77] Creating layer rpn_big_loss_cls
I0413 18:18:31.938897 12870 net.cpp:150] Setting up rpn_big_loss_cls
I0413 18:18:31.938912 12870 net.cpp:157] Top shape: (1)
I0413 18:18:31.938915 12870 net.cpp:160]     with loss weight 1
I0413 18:18:31.938926 12870 net.cpp:165] Memory required for data: 3622336984
I0413 18:18:31.938930 12870 layer_factory.hpp:77] Creating layer rpn_big_output_box
I0413 18:18:31.938944 12870 net.cpp:100] Creating Layer rpn_big_output_box
I0413 18:18:31.938951 12870 net.cpp:434] rpn_big_output_box <- rpn_big_conv2_rpn_big_conv2_drop_0_split_1
I0413 18:18:31.938958 12870 net.cpp:408] rpn_big_output_box -> rpn_big_output_box
I0413 18:18:31.957432 12870 net.cpp:150] Setting up rpn_big_output_box
I0413 18:18:31.957460 12870 net.cpp:157] Top shape: 1 384 63 94 (2274048)
I0413 18:18:31.957473 12870 net.cpp:165] Memory required for data: 3631433176
I0413 18:18:31.957482 12870 layer_factory.hpp:77] Creating layer rpn_big_output_box_relu
I0413 18:18:31.957494 12870 net.cpp:100] Creating Layer rpn_big_output_box_relu
I0413 18:18:31.957499 12870 net.cpp:434] rpn_big_output_box_relu <- rpn_big_output_box
I0413 18:18:31.957507 12870 net.cpp:395] rpn_big_output_box_relu -> rpn_big_output_box (in-place)
I0413 18:18:31.957520 12870 net.cpp:150] Setting up rpn_big_output_box_relu
I0413 18:18:31.957523 12870 net.cpp:157] Top shape: 1 384 63 94 (2274048)
I0413 18:18:31.957526 12870 net.cpp:165] Memory required for data: 3640529368
I0413 18:18:31.957530 12870 layer_factory.hpp:77] Creating layer rpn_big_bbox_pred
I0413 18:18:31.957540 12870 net.cpp:100] Creating Layer rpn_big_bbox_pred
I0413 18:18:31.957551 12870 net.cpp:434] rpn_big_bbox_pred <- rpn_big_output_box
I0413 18:18:31.957557 12870 net.cpp:408] rpn_big_bbox_pred -> rpn_big_bbox_pred
I0413 18:18:31.961730 12870 net.cpp:150] Setting up rpn_big_bbox_pred
I0413 18:18:31.961758 12870 net.cpp:157] Top shape: 1 104 61 92 (583648)
I0413 18:18:31.961761 12870 net.cpp:165] Memory required for data: 3642863960
I0413 18:18:31.961771 12870 layer_factory.hpp:77] Creating layer rpn_big_bbox_pred_rpn_big_bbox_pred_0_split
I0413 18:18:31.961779 12870 net.cpp:100] Creating Layer rpn_big_bbox_pred_rpn_big_bbox_pred_0_split
I0413 18:18:31.961783 12870 net.cpp:434] rpn_big_bbox_pred_rpn_big_bbox_pred_0_split <- rpn_big_bbox_pred
I0413 18:18:31.961792 12870 net.cpp:408] rpn_big_bbox_pred_rpn_big_bbox_pred_0_split -> rpn_big_bbox_pred_rpn_big_bbox_pred_0_split_0
I0413 18:18:31.961802 12870 net.cpp:408] rpn_big_bbox_pred_rpn_big_bbox_pred_0_split -> rpn_big_bbox_pred_rpn_big_bbox_pred_0_split_1
I0413 18:18:31.961834 12870 net.cpp:150] Setting up rpn_big_bbox_pred_rpn_big_bbox_pred_0_split
I0413 18:18:31.961848 12870 net.cpp:157] Top shape: 1 104 61 92 (583648)
I0413 18:18:31.961851 12870 net.cpp:157] Top shape: 1 104 61 92 (583648)
I0413 18:18:31.961854 12870 net.cpp:165] Memory required for data: 3647533144
I0413 18:18:31.961858 12870 layer_factory.hpp:77] Creating layer rpn_big_loss_bbox
I0413 18:18:31.962216 12870 net.cpp:100] Creating Layer rpn_big_loss_bbox
I0413 18:18:31.962229 12870 net.cpp:434] rpn_big_loss_bbox <- rpn_big_bbox_pred_rpn_big_bbox_pred_0_split_0
I0413 18:18:31.962234 12870 net.cpp:434] rpn_big_loss_bbox <- rpn_big_anchor_target_bbox_targets
I0413 18:18:31.962239 12870 net.cpp:434] rpn_big_loss_bbox <- rpn_big_anchor_target_inside_weights
I0413 18:18:31.962242 12870 net.cpp:434] rpn_big_loss_bbox <- rpn_big_anchor_target_outside_weights
I0413 18:18:31.962249 12870 net.cpp:408] rpn_big_loss_bbox -> rpn_big_loss_bbox
I0413 18:18:31.964260 12870 net.cpp:150] Setting up rpn_big_loss_bbox
I0413 18:18:31.964288 12870 net.cpp:157] Top shape: 1 (1)
I0413 18:18:31.964292 12870 net.cpp:160]     with loss weight 1
I0413 18:18:31.964313 12870 net.cpp:165] Memory required for data: 3647533148
I0413 18:18:31.964319 12870 layer_factory.hpp:77] Creating layer proposal
I0413 18:18:31.964746 12870 net.cpp:100] Creating Layer proposal
I0413 18:18:31.964759 12870 net.cpp:434] proposal <- rpn_big_cls_prob_reshape_rpn_big_cls_prob_reshape_0_split_1
I0413 18:18:31.964767 12870 net.cpp:434] proposal <- rpn_big_bbox_pred_rpn_big_bbox_pred_0_split_1
I0413 18:18:31.964772 12870 net.cpp:434] proposal <- input_im_info_input_1_split_1
I0413 18:18:31.964779 12870 net.cpp:408] proposal -> rpn_rois
I0413 18:18:31.968889 12870 net.cpp:150] Setting up proposal
I0413 18:18:31.968909 12870 net.cpp:157] Top shape: 1 5 (5)
I0413 18:18:31.968915 12870 net.cpp:165] Memory required for data: 3647533168
I0413 18:18:31.968922 12870 layer_factory.hpp:77] Creating layer roi-data
I0413 18:18:31.969204 12870 net.cpp:100] Creating Layer roi-data
I0413 18:18:31.969213 12870 net.cpp:434] roi-data <- rpn_rois
I0413 18:18:31.969218 12870 net.cpp:434] roi-data <- input_gt_boxes_input_2_split_1
I0413 18:18:31.969233 12870 net.cpp:408] roi-data -> rois
I0413 18:18:31.969243 12870 net.cpp:408] roi-data -> labels
I0413 18:18:31.969249 12870 net.cpp:408] roi-data -> bbox_targets
I0413 18:18:31.969256 12870 net.cpp:408] roi-data -> bbox_inside_weights
I0413 18:18:31.969262 12870 net.cpp:408] roi-data -> bbox_outside_weights
I0413 18:18:31.969269 12870 net.cpp:408] roi-data -> pid_label
I0413 18:18:31.970155 12870 net.cpp:150] Setting up roi-data
I0413 18:18:31.970165 12870 net.cpp:157] Top shape: 1 5 (5)
I0413 18:18:31.970170 12870 net.cpp:157] Top shape: 1 1 (1)
I0413 18:18:31.970172 12870 net.cpp:157] Top shape: 1 8 (8)
I0413 18:18:31.970185 12870 net.cpp:157] Top shape: 1 8 (8)
I0413 18:18:31.970188 12870 net.cpp:157] Top shape: 1 8 (8)
I0413 18:18:31.970191 12870 net.cpp:157] Top shape: (0)
I0413 18:18:31.970194 12870 net.cpp:165] Memory required for data: 3647533288
I0413 18:18:31.970198 12870 layer_factory.hpp:77] Creating layer roi-pool
I0413 18:18:31.970206 12870 net.cpp:100] Creating Layer roi-pool
I0413 18:18:31.970209 12870 net.cpp:434] roi-pool <- conv5_3_relu5_3_0_split_1
I0413 18:18:31.970214 12870 net.cpp:434] roi-pool <- rois
I0413 18:18:31.970221 12870 net.cpp:408] roi-pool -> roi-pool
I0413 18:18:31.970228 12870 roi_pooling_layer.cpp:33] Spatial scale: 0.0625
I0413 18:18:31.970239 12870 roi_pooling_layer.cpp:34] Box scale: 1
I0413 18:18:31.970275 12870 net.cpp:150] Setting up roi-pool
I0413 18:18:31.970283 12870 net.cpp:157] Top shape: 1 512 7 7 (25088)
I0413 18:18:31.970288 12870 net.cpp:165] Memory required for data: 3647633640
I0413 18:18:31.970290 12870 layer_factory.hpp:77] Creating layer fc6
I0413 18:18:31.970296 12870 net.cpp:100] Creating Layer fc6
I0413 18:18:31.970300 12870 net.cpp:434] fc6 <- roi-pool
I0413 18:18:31.970305 12870 net.cpp:408] fc6 -> fc6
I0413 18:18:32.133114 12870 net.cpp:150] Setting up fc6
I0413 18:18:32.133159 12870 net.cpp:157] Top shape: 1 4096 (4096)
I0413 18:18:32.133163 12870 net.cpp:165] Memory required for data: 3647650024
I0413 18:18:32.133177 12870 layer_factory.hpp:77] Creating layer relu6
I0413 18:18:32.133186 12870 net.cpp:100] Creating Layer relu6
I0413 18:18:32.133191 12870 net.cpp:434] relu6 <- fc6
I0413 18:18:32.133199 12870 net.cpp:395] relu6 -> fc6 (in-place)
I0413 18:18:32.133209 12870 net.cpp:150] Setting up relu6
I0413 18:18:32.133213 12870 net.cpp:157] Top shape: 1 4096 (4096)
I0413 18:18:32.133216 12870 net.cpp:165] Memory required for data: 3647666408
I0413 18:18:32.133219 12870 layer_factory.hpp:77] Creating layer drop6
I0413 18:18:32.133226 12870 net.cpp:100] Creating Layer drop6
I0413 18:18:32.133242 12870 net.cpp:434] drop6 <- fc6
I0413 18:18:32.133246 12870 net.cpp:395] drop6 -> fc6 (in-place)
I0413 18:18:32.133267 12870 net.cpp:150] Setting up drop6
I0413 18:18:32.133275 12870 net.cpp:157] Top shape: 1 4096 (4096)
I0413 18:18:32.133277 12870 net.cpp:165] Memory required for data: 3647682792
I0413 18:18:32.133280 12870 layer_factory.hpp:77] Creating layer fc7
I0413 18:18:32.133286 12870 net.cpp:100] Creating Layer fc7
I0413 18:18:32.133292 12870 net.cpp:434] fc7 <- fc6
I0413 18:18:32.133299 12870 net.cpp:408] fc7 -> fc7
I0413 18:18:32.161145 12870 net.cpp:150] Setting up fc7
I0413 18:18:32.161178 12870 net.cpp:157] Top shape: 1 4096 (4096)
I0413 18:18:32.161190 12870 net.cpp:165] Memory required for data: 3647699176
I0413 18:18:32.161201 12870 layer_factory.hpp:77] Creating layer relu7
I0413 18:18:32.161226 12870 net.cpp:100] Creating Layer relu7
I0413 18:18:32.161231 12870 net.cpp:434] relu7 <- fc7
I0413 18:18:32.161238 12870 net.cpp:395] relu7 -> fc7 (in-place)
I0413 18:18:32.161249 12870 net.cpp:150] Setting up relu7
I0413 18:18:32.161254 12870 net.cpp:157] Top shape: 1 4096 (4096)
I0413 18:18:32.161257 12870 net.cpp:165] Memory required for data: 3647715560
I0413 18:18:32.161260 12870 layer_factory.hpp:77] Creating layer drop7
I0413 18:18:32.161267 12870 net.cpp:100] Creating Layer drop7
I0413 18:18:32.161269 12870 net.cpp:434] drop7 <- fc7
I0413 18:18:32.161274 12870 net.cpp:395] drop7 -> fc7 (in-place)
I0413 18:18:32.161296 12870 net.cpp:150] Setting up drop7
I0413 18:18:32.161303 12870 net.cpp:157] Top shape: 1 4096 (4096)
I0413 18:18:32.161306 12870 net.cpp:165] Memory required for data: 3647731944
I0413 18:18:32.161309 12870 layer_factory.hpp:77] Creating layer bbox_pred
I0413 18:18:32.161316 12870 net.cpp:100] Creating Layer bbox_pred
I0413 18:18:32.161319 12870 net.cpp:434] bbox_pred <- fc7
I0413 18:18:32.161324 12870 net.cpp:408] bbox_pred -> bbox_pred
F0413 18:18:32.161357 12870 blob.cpp:186] Check failed: data_ 
…
