…
I0412 20:28:44.427908  4585 solver.cpp:48] Initializing solver from parameters: 
base_lr: 0.001
display: 20
lr_policy: "multistep"
gamma: 0.1
momentum: 0.9
weight_decay: 0.0005
snapshot: 0
snapshot_prefix: "faces_example"
net_param {
  name: "GeneratedModel_12_04_2017_20_28"
  layer {
    name: "input"
    type: "Python"
    top: "input_data"
    top: "input_im_info"
    top: "input_gt_boxes"
    top: "input_ignored_boxes"
    python_param {
      module: "layers.roi_data_layer"
      layer: "RoIDataLayer"
      param_str: "{\"num_classes\": 2}"
    }
  }
  layer {
    name: "conv1_1"
    type: "Convolution"
    bottom: "input_data"
    top: "conv1_1"
    param {
      lr_mult: 0
      decay_mult: 0
    }
    param {
      lr_mult: 0
      decay_mult: 0
    }
    convolution_param {
      num_output: 64
      pad: 1
      kernel_size: 3
    }
  }
  layer {
    name: "relu1_1"
    type: "ReLU"
    bottom: "conv1_1"
    top: "conv1_1"
  }
  layer {
    name: "conv1_2"
    type: "Convolution"
    bottom: "conv1_1"
    top: "conv1_2"
    param {
      lr_mult: 0
      decay_mult: 0
    }
    param {
      lr_mult: 0
      decay_mult: 0
    }
    convolution_param {
      num_output: 64
      pad: 1
      kernel_size: 3
    }
  }
  layer {
    name: "relu1_2"
    type: "ReLU"
    bottom: "conv1_2"
    top: "conv1_2"
  }
  layer {
    name: "pool1"
    type: "Pooling"
    bottom: "conv1_2"
    top: "pool1"
    pooling_param {
      pool: MAX
      kernel_size: 2
      stride: 2
    }
  }
  layer {
    name: "conv2_1"
    type: "Convolution"
    bottom: "pool1"
    top: "conv2_1"
    param {
      lr_mult: 0
      decay_mult: 0
    }
    param {
      lr_mult: 0
      decay_mult: 0
    }
    convolution_param {
      num_output: 128
      pad: 1
      kernel_size: 3
    }
  }
  layer {
    name: "relu2_1"
    type: "ReLU"
    bottom: "conv2_1"
    top: "conv2_1"
  }
  layer {
    name: "conv2_2"
    type: "Convolution"
    bottom: "conv2_1"
    top: "conv2_2"
    param {
      lr_mult: 0
      decay_mult: 0
    }
    param {
      lr_mult: 0
      decay_mult: 0
    }
    convolution_param {
      num_output: 128
      pad: 1
      kernel_size: 3
    }
  }
  layer {
    name: "relu2_2"
    type: "ReLU"
    bottom: "conv2_2"
    top: "conv2_2"
  }
  layer {
    name: "pool2"
    type: "Pooling"
    bottom: "conv2_2"
    top: "pool2"
    pooling_param {
      pool: MAX
      kernel_size: 2
      stride: 2
    }
  }
  layer {
    name: "conv3_1"
    type: "Convolution"
    bottom: "pool2"
    top: "conv3_1"
    param {
      lr_mult: 1
    }
    param {
      lr_mult: 2
    }
    convolution_param {
      num_output: 256
      pad: 1
      kernel_size: 3
    }
  }
  layer {
    name: "relu3_1"
    type: "ReLU"
    bottom: "conv3_1"
    top: "conv3_1"
  }
  layer {
    name: "conv3_2"
    type: "Convolution"
    bottom: "conv3_1"
    top: "conv3_2"
    param {
      lr_mult: 1
    }
    param {
      lr_mult: 2
    }
    convolution_param {
      num_output: 256
      pad: 1
      kernel_size: 3
    }
  }
  layer {
    name: "relu3_2"
    type: "ReLU"
    bottom: "conv3_2"
    top: "conv3_2"
  }
  layer {
    name: "conv3_3"
    type: "Convolution"
    bottom: "conv3_2"
    top: "conv3_3"
    param {
      lr_mult: 1
    }
    param {
      lr_mult: 2
    }
    convolution_param {
      num_output: 256
      pad: 1
      kernel_size: 3
    }
  }
  layer {
    name: "relu3_3"
    type: "ReLU"
    bottom: "conv3_3"
    top: "conv3_3"
  }
  layer {
    name: "pool3"
    type: "Pooling"
    bottom: "conv3_3"
    top: "pool3"
    pooling_param {
      pool: MAX
      kernel_size: 2
      stride: 2
    }
  }
  layer {
    name: "conv4_1"
    type: "Convolution"
    bottom: "pool3"
    top: "conv4_1"
    param {
      lr_mult: 1
    }
    param {
      lr_mult: 2
    }
    convolution_param {
      num_output: 512
      pad: 1
      kernel_size: 3
    }
  }
  layer {
    name: "relu4_1"
    type: "ReLU"
    bottom: "conv4_1"
    top: "conv4_1"
  }
  layer {
    name: "conv4_2"
    type: "Convolution"
    bottom: "conv4_1"
    top: "conv4_2"
    param {
      lr_mult: 1
    }
    param {
      lr_mult: 2
    }
    convolution_param {
      num_output: 512
      pad: 1
      kernel_size: 3
    }
  }
  layer {
    name: "relu4_2"
    type: "ReLU"
    bottom: "conv4_2"
    top: "conv4_2"
  }
  layer {
    name: "conv4_3"
    type: "Convolution"
    bottom: "conv4_2"
    top: "conv4_3"
    param {
      lr_mult: 1
    }
    param {
      lr_mult: 2
    }
    convolution_param {
      num_output: 512
      pad: 1
      kernel_size: 3
    }
  }
  layer {
    name: "relu4_3"
    type: "ReLU"
    bottom: "conv4_3"
    top: "conv4_3"
  }
  layer {
    name: "pool4"
    type: "Pooling"
    bottom: "conv4_3"
    top: "pool4"
    pooling_param {
      pool: MAX
      kernel_size: 2
      stride: 2
    }
  }
  layer {
    name: "conv5_1"
    type: "Convolution"
    bottom: "pool4"
    top: "conv5_1"
    param {
      lr_mult: 1
    }
    param {
      lr_mult: 2
    }
    convolution_param {
      num_output: 512
      pad: 1
      kernel_size: 3
    }
  }
  layer {
    name: "relu5_1"
    type: "ReLU"
    bottom: "conv5_1"
    top: "conv5_1"
  }
  layer {
    name: "conv5_2"
    type: "Convolution"
    bottom: "conv5_1"
    top: "conv5_2"
    param {
      lr_mult: 1
    }
    param {
      lr_mult: 2
    }
    convolution_param {
      num_output: 512
      pad: 1
      kernel_size: 3
    }
  }
  layer {
    name: "relu5_2"
    type: "ReLU"
    bottom: "conv5_2"
    top: "conv5_2"
  }
  layer {
    name: "conv5_3"
    type: "Convolution"
    bottom: "conv5_2"
    top: "conv5_3"
    param {
      lr_mult: 1
    }
    param {
      lr_mult: 2
    }
    convolution_param {
      num_output: 512
      pad: 1
      kernel_size: 3
    }
  }
  layer {
    name: "relu5_3"
    type: "ReLU"
    bottom: "conv5_3"
    top: "conv5_3"
  }
  layer {
    name: "rpn_big_conv1"
    type: "Convolution"
    bottom: "conv5_3"
    top: "rpn_big_conv1"
    param {
      lr_mult: 1
    }
    param {
      lr_mult: 2
    }
    convolution_param {
      num_output: 512
      pad: 1
      kernel_size: 3
      stride: 1
      weight_filler {
        type: "gaussian"
        mean: 0
        std: 0.01
      }
      bias_filler {
        type: "constant"
      }
    }
  }
  layer {
    name: "rpn_big_conv1_relu"
    type: "ReLU"
    bottom: "rpn_big_conv1"
    top: "rpn_big_conv1"
    relu_param {
      negative_slope: 0
    }
  }
  layer {
    name: "rpn_big_conv2"
    type: "Convolution"
    bottom: "rpn_big_conv1"
    top: "rpn_big_conv2"
    param {
      lr_mult: 1
    }
    param {
      lr_mult: 2
    }
    convolution_param {
      num_output: 512
      pad: 1
      kernel_size: 3
      stride: 1
      weight_filler {
        type: "gaussian"
        mean: 0
        std: 0.01
      }
      bias_filler {
        type: "constant"
      }
    }
  }
  layer {
    name: "rpn_big_conv2_relu"
    type: "ReLU"
    bottom: "rpn_big_conv2"
    top: "rpn_big_conv2"
    relu_param {
      negative_slope: 0
    }
  }
  layer {
    name: "rpn_big_conv2_drop"
    type: "Dropout"
    bottom: "rpn_big_conv2"
    top: "rpn_big_conv2"
    dropout_param {
      dropout_ratio: 0.3
    }
  }
  layer {
    name: "rpn_big_output_cls"
    type: "Convolution"
    bottom: "rpn_big_conv2"
    top: "rpn_big_output_cls"
    param {
      lr_mult: 1
    }
    param {
      lr_mult: 2
    }
    convolution_param {
      num_output: 384
      pad: 1
      kernel_size: 3
      stride: 1
      weight_filler {
        type: "gaussian"
        mean: 0
        std: 0.01
      }
      bias_filler {
        type: "constant"
      }
    }
  }
  layer {
    name: "rpn_big_output_cls_relu"
    type: "ReLU"
    bottom: "rpn_big_output_cls"
    top: "rpn_big_output_cls"
    relu_param {
      negative_slope: 0
    }
  }
  layer {
    name: "rpn_big_cls_score"
    type: "Convolution"
    bottom: "rpn_big_output_cls"
    top: "rpn_big_cls_score"
    param {
      lr_mult: 1
    }
    param {
      lr_mult: 2
    }
    convolution_param {
      num_output: 52
      pad: 0
      kernel_size: 3
      stride: 1
      weight_filler {
        type: "gaussian"
        mean: 0
        std: 0.01
      }
      bias_filler {
        type: "constant"
      }
    }
  }
  layer {
    name: "rpn_big_cls_score_reshape"
    type: "Reshape"
    bottom: "rpn_big_cls_score"
    top: "rpn_big_cls_score_reshape"
    reshape_param {
      shape {
        dim: 0
        dim: 2
        dim: -1
        dim: 0
      }
    }
  }
  layer {
    name: "rpn_big_cls_prob"
    type: "Softmax"
    bottom: "rpn_big_cls_score_reshape"
    top: "rpn_big_cls_prob"
  }
  layer {
    name: "rpn_big_cls_prob_reshape"
    type: "Reshape"
    bottom: "rpn_big_cls_prob"
    top: "rpn_big_cls_prob_reshape"
    reshape_param {
      shape {
        dim: 0
        dim: 52
        dim: -1
        dim: 0
      }
    }
  }
  layer {
    name: "rpn_big_anchor_target"
    type: "Python"
    bottom: "rpn_big_cls_score"
    bottom: "input_gt_boxes"
    bottom: "input_ignored_boxes"
    bottom: "input_im_info"
    bottom: "input_data"
    bottom: "rpn_big_cls_prob_reshape"
    top: "rpn_big_anchor_target_labels"
    top: "rpn_big_anchor_target_bbox_targets"
    top: "rpn_big_anchor_target_inside_weights"
    top: "rpn_big_anchor_target_outside_weights"
    python_param {
      module: "rpn.anchor_target_layer"
      layer: "AnchorTargetLayer"
      param_str: "{\"name\": \"rpn_big\", \"feat_stride\": 16, \"anchor_ratios\": [1.0], \"anchor_scales\": [2.5, 3.025, 3.66025, 4.4289024999999995, 5.358972025, 6.484356150249999, 7.846070941802498, 9.493745839581022, 11.487432465893036, 13.899793283730574, 16.818749873313998, 20.350687346709933, 24.62433168951902, 29.795441344318014], \"batchsize\": 256, \"num_classes\": 1, \"tn_fraction\": 0.2, \"square_targets\": true, \"negative_overlap\": 0.4, \"anchor_shift_num_xy\": [[2, 2], [2, 2], [2, 2], [2, 2], [1, 1], [1, 1], [1, 1], [1, 1], [1, 1], [1, 1], [1, 1], [1, 1], [1, 1], [1, 1]], \"positive_overlap\": 0.6, \"fg_fraction\": 0.5}"
    }
  }
  layer {
    name: "rpn_big_loss_cls"
    type: "SoftmaxWithLoss"
    bottom: "rpn_big_cls_score_reshape"
    bottom: "rpn_big_anchor_target_labels"
    top: "rpn_big_loss_cls"
    loss_weight: 1
    propagate_down: true
    propagate_down: false
    loss_param {
      ignore_label: -1
      normalization: VALID
    }
  }
  layer {
    name: "rpn_big_output_box"
    type: "Convolution"
    bottom: "rpn_big_conv2"
    top: "rpn_big_output_box"
    param {
      lr_mult: 1
    }
    param {
      lr_mult: 2
    }
    convolution_param {
      num_output: 384
      pad: 1
      kernel_size: 3
      stride: 1
      weight_filler {
        type: "gaussian"
        mean: 0
        std: 0.01
      }
      bias_filler {
        type: "constant"
      }
    }
  }
  layer {
    name: "rpn_big_output_box_relu"
    type: "ReLU"
    bottom: "rpn_big_output_box"
    top: "rpn_big_output_box"
    relu_param {
      negative_slope: 0
    }
  }
  layer {
    name: "rpn_big_bbox_pred"
    type: "Convolution"
    bottom: "rpn_big_output_box"
    top: "rpn_big_bbox_pred"
    param {
      lr_mult: 1
    }
    param {
      lr_mult: 2
    }
    convolution_param {
      num_output: 104
      pad: 0
      kernel_size: 3
      stride: 1
      weight_filler {
        type: "gaussian"
        mean: 0
        std: 0.01
      }
      bias_filler {
        type: "constant"
      }
    }
  }
  layer {
    name: "rpn_big_loss_bbox"
    type: "Python"
    bottom: "rpn_big_bbox_pred"
    bottom: "rpn_big_anchor_target_bbox_targets"
    bottom: "rpn_big_anchor_target_inside_weights"
    bottom: "rpn_big_anchor_target_outside_weights"
    top: "rpn_big_loss_bbox"
    loss_weight: 1
    python_param {
      module: "layers.smooth_l1_loss"
      layer: "SmoothL1LossLayer"
      param_str: "{\"sigma\": 3}"
    }
  }
  layer {
    name: "MyLoss"
    type: "Softmax"
    bottom: "conv3_1"
    top: "MyLoss"
  }
}
average_loss: 100
stepvalue: 70000
stepvalue: 120000
iter_size: 2
I0412 20:28:44.427983  4585 solver.cpp:86] Creating training net specified in net_param.
I0412 20:28:44.428383  4585 net.cpp:58] Initializing net from parameters: 
name: "GeneratedModel_12_04_2017_20_28"
state {
  phase: TRAIN
}
layer {
  name: "input"
  type: "Python"
  top: "input_data"
  top: "input_im_info"
  top: "input_gt_boxes"
  top: "input_ignored_boxes"
  python_param {
    module: "layers.roi_data_layer"
    layer: "RoIDataLayer"
    param_str: "{\"num_classes\": 2}"
  }
}
layer {
  name: "conv1_1"
  type: "Convolution"
  bottom: "input_data"
  top: "conv1_1"
  param {
    lr_mult: 0
    decay_mult: 0
  }
  param {
    lr_mult: 0
    decay_mult: 0
  }
  convolution_param {
    num_output: 64
    pad: 1
    kernel_size: 3
  }
}
layer {
  name: "relu1_1"
  type: "ReLU"
  bottom: "conv1_1"
  top: "conv1_1"
}
layer {
  name: "conv1_2"
  type: "Convolution"
  bottom: "conv1_1"
  top: "conv1_2"
  param {
    lr_mult: 0
    decay_mult: 0
  }
  param {
    lr_mult: 0
    decay_mult: 0
  }
  convolution_param {
    num_output: 64
    pad: 1
    kernel_size: 3
  }
}
layer {
  name: "relu1_2"
  type: "ReLU"
  bottom: "conv1_2"
  top: "conv1_2"
}
layer {
  name: "pool1"
  type: "Pooling"
  bottom: "conv1_2"
  top: "pool1"
  pooling_param {
    pool: MAX
    kernel_size: 2
    stride: 2
  }
}
layer {
  name: "conv2_1"
  type: "Convolution"
  bottom: "pool1"
  top: "conv2_1"
  param {
    lr_mult: 0
    decay_mult: 0
  }
  param {
    lr_mult: 0
    decay_mult: 0
  }
  convolution_param {
    num_output: 128
    pad: 1
    kernel_size: 3
  }
}
layer {
  name: "relu2_1"
  type: "ReLU"
  bottom: "conv2_1"
  top: "conv2_1"
}
layer {
  name: "conv2_2"
  type: "Convolution"
  bottom: "conv2_1"
  top: "conv2_2"
  param {
    lr_mult: 0
    decay_mult: 0
  }
  param {
    lr_mult: 0
    decay_mult: 0
  }
  convolution_param {
    num_output: 128
    pad: 1
    kernel_size: 3
  }
}
layer {
  name: "relu2_2"
  type: "ReLU"
  bottom: "conv2_2"
  top: "conv2_2"
}
layer {
  name: "pool2"
  type: "Pooling"
  bottom: "conv2_2"
  top: "pool2"
  pooling_param {
    pool: MAX
    kernel_size: 2
    stride: 2
  }
}
layer {
  name: "conv3_1"
  type: "Convolution"
  bottom: "pool2"
  top: "conv3_1"
  param {
    lr_mult: 1
  }
  param {
    lr_mult: 2
  }
  convolution_param {
    num_output: 256
    pad: 1
    kernel_size: 3
  }
}
layer {
  name: "relu3_1"
  type: "ReLU"
  bottom: "conv3_1"
  top: "conv3_1"
}
layer {
  name: "conv3_2"
  type: "Convolution"
  bottom: "conv3_1"
  top: "conv3_2"
  param {
    lr_mult: 1
  }
  param {
    lr_mult: 2
  }
  convolution_param {
    num_output: 256
    pad: 1
    kernel_size: 3
  }
}
layer {
  name: "relu3_2"
  type: "ReLU"
  bottom: "conv3_2"
  top: "conv3_2"
}
layer {
  name: "conv3_3"
  type: "Convolution"
  bottom: "conv3_2"
  top: "conv3_3"
  param {
    lr_mult: 1
  }
  param {
    lr_mult: 2
  }
  convolution_param {
    num_output: 256
    pad: 1
    kernel_size: 3
  }
}
layer {
  name: "relu3_3"
  type: "ReLU"
  bottom: "conv3_3"
  top: "conv3_3"
}
layer {
  name: "pool3"
  type: "Pooling"
  bottom: "conv3_3"
  top: "pool3"
  pooling_param {
    pool: MAX
    kernel_size: 2
    stride: 2
  }
}
layer {
  name: "conv4_1"
  type: "Convolution"
  bottom: "pool3"
  top: "conv4_1"
  param {
    lr_mult: 1
  }
  param {
    lr_mult: 2
  }
  convolution_param {
    num_output: 512
    pad: 1
    kernel_size: 3
  }
}
layer {
  name: "relu4_1"
  type: "ReLU"
  bottom: "conv4_1"
  top: "conv4_1"
}
layer {
  name: "conv4_2"
  type: "Convolution"
  bottom: "conv4_1"
  top: "conv4_2"
  param {
    lr_mult: 1
  }
  param {
    lr_mult: 2
  }
  convolution_param {
    num_output: 512
    pad: 1
    kernel_size: 3
  }
}
layer {
  name: "relu4_2"
  type: "ReLU"
  bottom: "conv4_2"
  top: "conv4_2"
}
layer {
  name: "conv4_3"
  type: "Convolution"
  bottom: "conv4_2"
  top: "conv4_3"
  param {
    lr_mult: 1
  }
  param {
    lr_mult: 2
  }
  convolution_param {
    num_output: 512
    pad: 1
    kernel_size: 3
  }
}
layer {
  name: "relu4_3"
  type: "ReLU"
  bottom: "conv4_3"
  top: "conv4_3"
}
layer {
  name: "pool4"
  type: "Pooling"
  bottom: "conv4_3"
  top: "pool4"
  pooling_param {
    pool: MAX
    kernel_size: 2
    stride: 2
  }
}
layer {
  name: "conv5_1"
  type: "Convolution"
  bottom: "pool4"
  top: "conv5_1"
  param {
    lr_mult: 1
  }
  param {
    lr_mult: 2
  }
  convolution_param {
    num_output: 512
    pad: 1
    kernel_size: 3
  }
}
layer {
  name: "relu5_1"
  type: "ReLU"
  bottom: "conv5_1"
  top: "conv5_1"
}
layer {
  name: "conv5_2"
  type: "Convolution"
  bottom: "conv5_1"
  top: "conv5_2"
  param {
    lr_mult: 1
  }
  param {
    lr_mult: 2
  }
  convolution_param {
    num_output: 512
    pad: 1
    kernel_size: 3
  }
}
layer {
  name: "relu5_2"
  type: "ReLU"
  bottom: "conv5_2"
  top: "conv5_2"
}
layer {
  name: "conv5_3"
  type: "Convolution"
  bottom: "conv5_2"
  top: "conv5_3"
  param {
    lr_mult: 1
  }
  param {
    lr_mult: 2
  }
  convolution_param {
    num_output: 512
    pad: 1
    kernel_size: 3
  }
}
layer {
  name: "relu5_3"
  type: "ReLU"
  bottom: "conv5_3"
  top: "conv5_3"
}
layer {
  name: "rpn_big_conv1"
  type: "Convolution"
  bottom: "conv5_3"
  top: "rpn_big_conv1"
  param {
    lr_mult: 1
  }
  param {
    lr_mult: 2
  }
  convolution_param {
    num_output: 512
    pad: 1
    kernel_size: 3
    stride: 1
    weight_filler {
      type: "gaussian"
      mean: 0
      std: 0.01
    }
    bias_filler {
      type: "constant"
    }
  }
}
layer {
  name: "rpn_big_conv1_relu"
  type: "ReLU"
  bottom: "rpn_big_conv1"
  top: "rpn_big_conv1"
  relu_param {
    negative_slope: 0
  }
}
layer {
  name: "rpn_big_conv2"
  type: "Convolution"
  bottom: "rpn_big_conv1"
  top: "rpn_big_conv2"
  param {
    lr_mult: 1
  }
  param {
    lr_mult: 2
  }
  convolution_param {
    num_output: 512
    pad: 1
    kernel_size: 3
    stride: 1
    weight_filler {
      type: "gaussian"
      mean: 0
      std: 0.01
    }
    bias_filler {
      type: "constant"
    }
  }
}
layer {
  name: "rpn_big_conv2_relu"
  type: "ReLU"
  bottom: "rpn_big_conv2"
  top: "rpn_big_conv2"
  relu_param {
    negative_slope: 0
  }
}
layer {
  name: "rpn_big_conv2_drop"
  type: "Dropout"
  bottom: "rpn_big_conv2"
  top: "rpn_big_conv2"
  dropout_param {
    dropout_ratio: 0.3
  }
}
layer {
  name: "rpn_big_output_cls"
  type: "Convolution"
  bottom: "rpn_big_conv2"
  top: "rpn_big_output_cls"
  param {
    lr_mult: 1
  }
  param {
    lr_mult: 2
  }
  convolution_param {
    num_output: 384
    pad: 1
    kernel_size: 3
    stride: 1
    weight_filler {
      type: "gaussian"
      mean: 0
      std: 0.01
    }
    bias_filler {
      type: "constant"
    }
  }
}
layer {
  name: "rpn_big_output_cls_relu"
  type: "ReLU"
  bottom: "rpn_big_output_cls"
  top: "rpn_big_output_cls"
  relu_param {
    negative_slope: 0
  }
}
layer {
  name: "rpn_big_cls_score"
  type: "Convolution"
  bottom: "rpn_big_output_cls"
  top: "rpn_big_cls_score"
  param {
    lr_mult: 1
  }
  param {
    lr_mult: 2
  }
  convolution_param {
    num_output: 52
    pad: 0
    kernel_size: 3
    stride: 1
    weight_filler {
      type: "gaussian"
      mean: 0
      std: 0.01
    }
    bias_filler {
      type: "constant"
    }
  }
}
layer {
  name: "rpn_big_cls_score_reshape"
  type: "Reshape"
  bottom: "rpn_big_cls_score"
  top: "rpn_big_cls_score_reshape"
  reshape_param {
    shape {
      dim: 0
      dim: 2
      dim: -1
      dim: 0
    }
  }
}
layer {
  name: "rpn_big_cls_prob"
  type: "Softmax"
  bottom: "rpn_big_cls_score_reshape"
  top: "rpn_big_cls_prob"
}
layer {
  name: "rpn_big_cls_prob_reshape"
  type: "Reshape"
  bottom: "rpn_big_cls_prob"
  top: "rpn_big_cls_prob_reshape"
  reshape_param {
    shape {
      dim: 0
      dim: 52
      dim: -1
      dim: 0
    }
  }
}
layer {
  name: "rpn_big_anchor_target"
  type: "Python"
  bottom: "rpn_big_cls_score"
  bottom: "input_gt_boxes"
  bottom: "input_ignored_boxes"
  bottom: "input_im_info"
  bottom: "input_data"
  bottom: "rpn_big_cls_prob_reshape"
  top: "rpn_big_anchor_target_labels"
  top: "rpn_big_anchor_target_bbox_targets"
  top: "rpn_big_anchor_target_inside_weights"
  top: "rpn_big_anchor_target_outside_weights"
  python_param {
    module: "rpn.anchor_target_layer"
    layer: "AnchorTargetLayer"
    param_str: "{\"name\": \"rpn_big\", \"feat_stride\": 16, \"anchor_ratios\": [1.0], \"anchor_scales\": [2.5, 3.025, 3.66025, 4.4289024999999995, 5.358972025, 6.484356150249999, 7.846070941802498, 9.493745839581022, 11.487432465893036, 13.899793283730574, 16.818749873313998, 20.350687346709933, 24.62433168951902, 29.795441344318014], \"batchsize\": 256, \"num_classes\": 1, \"tn_fraction\": 0.2, \"square_targets\": true, \"negative_overlap\": 0.4, \"anchor_shift_num_xy\": [[2, 2], [2, 2], [2, 2], [2, 2], [1, 1], [1, 1], [1, 1], [1, 1], [1, 1], [1, 1], [1, 1], [1, 1], [1, 1], [1, 1]], \"positive_overlap\": 0.6, \"fg_fraction\": 0.5}"
  }
}
layer {
  name: "rpn_big_loss_cls"
  type: "SoftmaxWithLoss"
  bottom: "rpn_big_cls_score_reshape"
  bottom: "rpn_big_anchor_target_labels"
  top: "rpn_big_loss_cls"
  loss_weight: 1
  propagate_down: true
  propagate_down: false
  loss_param {
    ignore_label: -1
    normalization: VALID
  }
}
layer {
  name: "rpn_big_output_box"
  type: "Convolution"
  bottom: "rpn_big_conv2"
  top: "rpn_big_output_box"
  param {
    lr_mult: 1
  }
  param {
    lr_mult: 2
  }
  convolution_param {
    num_output: 384
    pad: 1
    kernel_size: 3
    stride: 1
    weight_filler {
      type: "gaussian"
      mean: 0
      std: 0.01
    }
    bias_filler {
      type: "constant"
    }
  }
}
layer {
  name: "rpn_big_output_box_relu"
  type: "ReLU"
  bottom: "rpn_big_output_box"
  top: "rpn_big_output_box"
  relu_param {
    negative_slope: 0
  }
}
layer {
  name: "rpn_big_bbox_pred"
  type: "Convolution"
  bottom: "rpn_big_output_box"
  top: "rpn_big_bbox_pred"
  param {
    lr_mult: 1
  }
  param {
    lr_mult: 2
  }
  convolution_param {
    num_output: 104
    pad: 0
    kernel_size: 3
    stride: 1
    weight_filler {
      type: "gaussian"
      mean: 0
      std: 0.01
    }
    bias_filler {
      type: "constant"
    }
  }
}
layer {
  name: "rpn_big_loss_bbox"
  type: "Python"
  bottom: "rpn_big_bbox_pred"
  bottom: "rpn_big_anchor_target_bbox_targets"
  bottom: "rpn_big_anchor_target_inside_weights"
  bottom: "rpn_big_anchor_target_outside_weights"
  top: "rpn_big_loss_bbox"
  loss_weight: 1
  python_param {
    module: "layers.smooth_l1_loss"
    layer: "SmoothL1LossLayer"
    param_str: "{\"sigma\": 3}"
  }
}
layer {
  name: "MyLoss"
  type: "Softmax"
  bottom: "conv3_1"
  top: "MyLoss"
}
I0412 20:28:44.428555  4585 layer_factory.hpp:77] Creating layer input
I0412 20:28:44.430045  4585 net.cpp:100] Creating Layer input
I0412 20:28:44.430080  4585 net.cpp:408] input -> input_data
I0412 20:28:44.430096  4585 net.cpp:408] input -> input_im_info
I0412 20:28:44.430107  4585 net.cpp:408] input -> input_gt_boxes
I0412 20:28:44.430117  4585 net.cpp:408] input -> input_ignored_boxes
RoiDataLayer: name_to_top: {'data': 0, 'im_info': 1, 'gt_boxes': 2, 'ignored_boxes': 3}
I0412 20:28:44.745762  4585 net.cpp:150] Setting up input
I0412 20:28:44.745792  4585 net.cpp:157] Top shape: 1 3 1000 1500 (4500000)
I0412 20:28:44.745801  4585 net.cpp:157] Top shape: 1 3 (3)
I0412 20:28:44.745807  4585 net.cpp:157] Top shape: 1 5 (5)
I0412 20:28:44.745812  4585 net.cpp:157] Top shape: 1 5 (5)
I0412 20:28:44.745816  4585 net.cpp:165] Memory required for data: 18000052
I0412 20:28:44.745826  4585 layer_factory.hpp:77] Creating layer input_data_input_0_split
I0412 20:28:44.745841  4585 net.cpp:100] Creating Layer input_data_input_0_split
I0412 20:28:44.745851  4585 net.cpp:434] input_data_input_0_split <- input_data
I0412 20:28:44.745862  4585 net.cpp:408] input_data_input_0_split -> input_data_input_0_split_0
I0412 20:28:44.745879  4585 net.cpp:408] input_data_input_0_split -> input_data_input_0_split_1
I0412 20:28:44.745929  4585 net.cpp:150] Setting up input_data_input_0_split
I0412 20:28:44.745940  4585 net.cpp:157] Top shape: 1 3 1000 1500 (4500000)
I0412 20:28:44.745949  4585 net.cpp:157] Top shape: 1 3 1000 1500 (4500000)
I0412 20:28:44.745955  4585 net.cpp:165] Memory required for data: 54000052
I0412 20:28:44.745961  4585 layer_factory.hpp:77] Creating layer conv1_1
I0412 20:28:44.745980  4585 net.cpp:100] Creating Layer conv1_1
I0412 20:28:44.745987  4585 net.cpp:434] conv1_1 <- input_data_input_0_split_0
I0412 20:28:44.746000  4585 net.cpp:408] conv1_1 -> conv1_1
I0412 20:28:44.749073  4585 net.cpp:150] Setting up conv1_1
I0412 20:28:44.749112  4585 net.cpp:157] Top shape: 1 64 1000 1500 (96000000)
I0412 20:28:44.749119  4585 net.cpp:165] Memory required for data: 438000052
I0412 20:28:44.749142  4585 layer_factory.hpp:77] Creating layer relu1_1
I0412 20:28:44.749160  4585 net.cpp:100] Creating Layer relu1_1
I0412 20:28:44.749169  4585 net.cpp:434] relu1_1 <- conv1_1
I0412 20:28:44.749181  4585 net.cpp:395] relu1_1 -> conv1_1 (in-place)
I0412 20:28:44.749197  4585 net.cpp:150] Setting up relu1_1
I0412 20:28:44.749207  4585 net.cpp:157] Top shape: 1 64 1000 1500 (96000000)
I0412 20:28:44.749214  4585 net.cpp:165] Memory required for data: 822000052
I0412 20:28:44.749220  4585 layer_factory.hpp:77] Creating layer conv1_2
I0412 20:28:44.749239  4585 net.cpp:100] Creating Layer conv1_2
I0412 20:28:44.749248  4585 net.cpp:434] conv1_2 <- conv1_1
I0412 20:28:44.749260  4585 net.cpp:408] conv1_2 -> conv1_2
I0412 20:28:44.752414  4585 net.cpp:150] Setting up conv1_2
I0412 20:28:44.752454  4585 net.cpp:157] Top shape: 1 64 1000 1500 (96000000)
I0412 20:28:44.752460  4585 net.cpp:165] Memory required for data: 1206000052
I0412 20:28:44.752483  4585 layer_factory.hpp:77] Creating layer relu1_2
I0412 20:28:44.752499  4585 net.cpp:100] Creating Layer relu1_2
I0412 20:28:44.752508  4585 net.cpp:434] relu1_2 <- conv1_2
I0412 20:28:44.752524  4585 net.cpp:395] relu1_2 -> conv1_2 (in-place)
I0412 20:28:44.752540  4585 net.cpp:150] Setting up relu1_2
I0412 20:28:44.752549  4585 net.cpp:157] Top shape: 1 64 1000 1500 (96000000)
I0412 20:28:44.752555  4585 net.cpp:165] Memory required for data: 1590000052
I0412 20:28:44.752562  4585 layer_factory.hpp:77] Creating layer pool1
I0412 20:28:44.752574  4585 net.cpp:100] Creating Layer pool1
I0412 20:28:44.752581  4585 net.cpp:434] pool1 <- conv1_2
I0412 20:28:44.752590  4585 net.cpp:408] pool1 -> pool1
I0412 20:28:44.752671  4585 net.cpp:150] Setting up pool1
I0412 20:28:44.752682  4585 net.cpp:157] Top shape: 1 64 500 750 (24000000)
I0412 20:28:44.752688  4585 net.cpp:165] Memory required for data: 1686000052
I0412 20:28:44.752694  4585 layer_factory.hpp:77] Creating layer conv2_1
I0412 20:28:44.752712  4585 net.cpp:100] Creating Layer conv2_1
I0412 20:28:44.752719  4585 net.cpp:434] conv2_1 <- pool1
I0412 20:28:44.752732  4585 net.cpp:408] conv2_1 -> conv2_1
I0412 20:28:44.753960  4585 net.cpp:150] Setting up conv2_1
I0412 20:28:44.753980  4585 net.cpp:157] Top shape: 1 128 500 750 (48000000)
I0412 20:28:44.753986  4585 net.cpp:165] Memory required for data: 1878000052
I0412 20:28:44.754004  4585 layer_factory.hpp:77] Creating layer relu2_1
I0412 20:28:44.754016  4585 net.cpp:100] Creating Layer relu2_1
I0412 20:28:44.754024  4585 net.cpp:434] relu2_1 <- conv2_1
I0412 20:28:44.754035  4585 net.cpp:395] relu2_1 -> conv2_1 (in-place)
I0412 20:28:44.754047  4585 net.cpp:150] Setting up relu2_1
I0412 20:28:44.754057  4585 net.cpp:157] Top shape: 1 128 500 750 (48000000)
I0412 20:28:44.754063  4585 net.cpp:165] Memory required for data: 2070000052
I0412 20:28:44.754070  4585 layer_factory.hpp:77] Creating layer conv2_2
I0412 20:28:44.754082  4585 net.cpp:100] Creating Layer conv2_2
I0412 20:28:44.754089  4585 net.cpp:434] conv2_2 <- conv2_1
I0412 20:28:44.754099  4585 net.cpp:408] conv2_2 -> conv2_2
I0412 20:28:44.755023  4585 net.cpp:150] Setting up conv2_2
I0412 20:28:44.755048  4585 net.cpp:157] Top shape: 1 128 500 750 (48000000)
I0412 20:28:44.755053  4585 net.cpp:165] Memory required for data: 2262000052
I0412 20:28:44.755066  4585 layer_factory.hpp:77] Creating layer relu2_2
I0412 20:28:44.755079  4585 net.cpp:100] Creating Layer relu2_2
I0412 20:28:44.755087  4585 net.cpp:434] relu2_2 <- conv2_2
I0412 20:28:44.755097  4585 net.cpp:395] relu2_2 -> conv2_2 (in-place)
I0412 20:28:44.755110  4585 net.cpp:150] Setting up relu2_2
I0412 20:28:44.755120  4585 net.cpp:157] Top shape: 1 128 500 750 (48000000)
I0412 20:28:44.755126  4585 net.cpp:165] Memory required for data: 2454000052
I0412 20:28:44.755132  4585 layer_factory.hpp:77] Creating layer pool2
I0412 20:28:44.755144  4585 net.cpp:100] Creating Layer pool2
I0412 20:28:44.755151  4585 net.cpp:434] pool2 <- conv2_2
I0412 20:28:44.755161  4585 net.cpp:408] pool2 -> pool2
I0412 20:28:44.755209  4585 net.cpp:150] Setting up pool2
I0412 20:28:44.755219  4585 net.cpp:157] Top shape: 1 128 250 375 (12000000)
I0412 20:28:44.755224  4585 net.cpp:165] Memory required for data: 2502000052
I0412 20:28:44.755230  4585 layer_factory.hpp:77] Creating layer conv3_1
I0412 20:28:44.755245  4585 net.cpp:100] Creating Layer conv3_1
I0412 20:28:44.755252  4585 net.cpp:434] conv3_1 <- pool2
I0412 20:28:44.755269  4585 net.cpp:408] conv3_1 -> conv3_1
I0412 20:28:44.756383  4585 net.cpp:150] Setting up conv3_1
I0412 20:28:44.756417  4585 net.cpp:157] Top shape: 1 256 250 375 (24000000)
I0412 20:28:44.756423  4585 net.cpp:165] Memory required for data: 2598000052
I0412 20:28:44.756445  4585 layer_factory.hpp:77] Creating layer relu3_1
I0412 20:28:44.756458  4585 net.cpp:100] Creating Layer relu3_1
I0412 20:28:44.756465  4585 net.cpp:434] relu3_1 <- conv3_1
I0412 20:28:44.756476  4585 net.cpp:395] relu3_1 -> conv3_1 (in-place)
I0412 20:28:44.756490  4585 net.cpp:150] Setting up relu3_1
I0412 20:28:44.756498  4585 net.cpp:157] Top shape: 1 256 250 375 (24000000)
I0412 20:28:44.756505  4585 net.cpp:165] Memory required for data: 2694000052
I0412 20:28:44.756510  4585 layer_factory.hpp:77] Creating layer conv3_1_relu3_1_0_split
I0412 20:28:44.756520  4585 net.cpp:100] Creating Layer conv3_1_relu3_1_0_split
I0412 20:28:44.756525  4585 net.cpp:434] conv3_1_relu3_1_0_split <- conv3_1
I0412 20:28:44.756536  4585 net.cpp:408] conv3_1_relu3_1_0_split -> conv3_1_relu3_1_0_split_0
I0412 20:28:44.756547  4585 net.cpp:408] conv3_1_relu3_1_0_split -> conv3_1_relu3_1_0_split_1
I0412 20:28:44.756608  4585 net.cpp:150] Setting up conv3_1_relu3_1_0_split
I0412 20:28:44.756618  4585 net.cpp:157] Top shape: 1 256 250 375 (24000000)
I0412 20:28:44.756625  4585 net.cpp:157] Top shape: 1 256 250 375 (24000000)
I0412 20:28:44.756630  4585 net.cpp:165] Memory required for data: 2886000052
I0412 20:28:44.756636  4585 layer_factory.hpp:77] Creating layer conv3_2
I0412 20:28:44.756651  4585 net.cpp:100] Creating Layer conv3_2
I0412 20:28:44.756657  4585 net.cpp:434] conv3_2 <- conv3_1_relu3_1_0_split_0
I0412 20:28:44.756667  4585 net.cpp:408] conv3_2 -> conv3_2
I0412 20:28:44.758517  4585 net.cpp:150] Setting up conv3_2
I0412 20:28:44.758553  4585 net.cpp:157] Top shape: 1 256 250 375 (24000000)
I0412 20:28:44.758559  4585 net.cpp:165] Memory required for data: 2982000052
I0412 20:28:44.758574  4585 layer_factory.hpp:77] Creating layer relu3_2
I0412 20:28:44.758594  4585 net.cpp:100] Creating Layer relu3_2
I0412 20:28:44.758606  4585 net.cpp:434] relu3_2 <- conv3_2
I0412 20:28:44.758617  4585 net.cpp:395] relu3_2 -> conv3_2 (in-place)
I0412 20:28:44.758632  4585 net.cpp:150] Setting up relu3_2
I0412 20:28:44.758641  4585 net.cpp:157] Top shape: 1 256 250 375 (24000000)
I0412 20:28:44.758647  4585 net.cpp:165] Memory required for data: 3078000052
I0412 20:28:44.758653  4585 layer_factory.hpp:77] Creating layer conv3_3
I0412 20:28:44.758667  4585 net.cpp:100] Creating Layer conv3_3
I0412 20:28:44.758674  4585 net.cpp:434] conv3_3 <- conv3_2
I0412 20:28:44.758685  4585 net.cpp:408] conv3_3 -> conv3_3
I0412 20:28:44.760879  4585 net.cpp:150] Setting up conv3_3
I0412 20:28:44.760912  4585 net.cpp:157] Top shape: 1 256 250 375 (24000000)
I0412 20:28:44.760926  4585 net.cpp:165] Memory required for data: 3174000052
I0412 20:28:44.760936  4585 layer_factory.hpp:77] Creating layer relu3_3
I0412 20:28:44.760946  4585 net.cpp:100] Creating Layer relu3_3
I0412 20:28:44.760951  4585 net.cpp:434] relu3_3 <- conv3_3
I0412 20:28:44.760958  4585 net.cpp:395] relu3_3 -> conv3_3 (in-place)
I0412 20:28:44.760969  4585 net.cpp:150] Setting up relu3_3
I0412 20:28:44.760973  4585 net.cpp:157] Top shape: 1 256 250 375 (24000000)
I0412 20:28:44.760977  4585 net.cpp:165] Memory required for data: 3270000052
I0412 20:28:44.760979  4585 layer_factory.hpp:77] Creating layer pool3
I0412 20:28:44.760985  4585 net.cpp:100] Creating Layer pool3
I0412 20:28:44.760989  4585 net.cpp:434] pool3 <- conv3_3
I0412 20:28:44.760994  4585 net.cpp:408] pool3 -> pool3
I0412 20:28:44.761039  4585 net.cpp:150] Setting up pool3
I0412 20:28:44.761045  4585 net.cpp:157] Top shape: 1 256 125 188 (6016000)
I0412 20:28:44.761049  4585 net.cpp:165] Memory required for data: 3294064052
I0412 20:28:44.761051  4585 layer_factory.hpp:77] Creating layer conv4_1
I0412 20:28:44.761061  4585 net.cpp:100] Creating Layer conv4_1
I0412 20:28:44.761065  4585 net.cpp:434] conv4_1 <- pool3
I0412 20:28:44.761071  4585 net.cpp:408] conv4_1 -> conv4_1
I0412 20:28:44.763689  4585 net.cpp:150] Setting up conv4_1
I0412 20:28:44.763720  4585 net.cpp:157] Top shape: 1 512 125 188 (12032000)
I0412 20:28:44.763731  4585 net.cpp:165] Memory required for data: 3342192052
I0412 20:28:44.763741  4585 layer_factory.hpp:77] Creating layer relu4_1
I0412 20:28:44.763751  4585 net.cpp:100] Creating Layer relu4_1
I0412 20:28:44.763756  4585 net.cpp:434] relu4_1 <- conv4_1
I0412 20:28:44.763763  4585 net.cpp:395] relu4_1 -> conv4_1 (in-place)
I0412 20:28:44.763793  4585 net.cpp:150] Setting up relu4_1
I0412 20:28:44.763799  4585 net.cpp:157] Top shape: 1 512 125 188 (12032000)
I0412 20:28:44.763803  4585 net.cpp:165] Memory required for data: 3390320052
I0412 20:28:44.763805  4585 layer_factory.hpp:77] Creating layer conv4_2
I0412 20:28:44.763815  4585 net.cpp:100] Creating Layer conv4_2
I0412 20:28:44.763819  4585 net.cpp:434] conv4_2 <- conv4_1
I0412 20:28:44.763824  4585 net.cpp:408] conv4_2 -> conv4_2
I0412 20:28:44.768100  4585 net.cpp:150] Setting up conv4_2
I0412 20:28:44.768133  4585 net.cpp:157] Top shape: 1 512 125 188 (12032000)
I0412 20:28:44.768136  4585 net.cpp:165] Memory required for data: 3438448052
I0412 20:28:44.768153  4585 layer_factory.hpp:77] Creating layer relu4_2
I0412 20:28:44.768164  4585 net.cpp:100] Creating Layer relu4_2
I0412 20:28:44.768169  4585 net.cpp:434] relu4_2 <- conv4_2
I0412 20:28:44.768177  4585 net.cpp:395] relu4_2 -> conv4_2 (in-place)
I0412 20:28:44.768185  4585 net.cpp:150] Setting up relu4_2
I0412 20:28:44.768200  4585 net.cpp:157] Top shape: 1 512 125 188 (12032000)
I0412 20:28:44.768203  4585 net.cpp:165] Memory required for data: 3486576052
I0412 20:28:44.768206  4585 layer_factory.hpp:77] Creating layer conv4_3
I0412 20:28:44.768216  4585 net.cpp:100] Creating Layer conv4_3
I0412 20:28:44.768221  4585 net.cpp:434] conv4_3 <- conv4_2
I0412 20:28:44.768227  4585 net.cpp:408] conv4_3 -> conv4_3
I0412 20:28:44.772480  4585 net.cpp:150] Setting up conv4_3
I0412 20:28:44.772516  4585 net.cpp:157] Top shape: 1 512 125 188 (12032000)
I0412 20:28:44.772518  4585 net.cpp:165] Memory required for data: 3534704052
I0412 20:28:44.772529  4585 layer_factory.hpp:77] Creating layer relu4_3
I0412 20:28:44.772541  4585 net.cpp:100] Creating Layer relu4_3
I0412 20:28:44.772545  4585 net.cpp:434] relu4_3 <- conv4_3
I0412 20:28:44.772555  4585 net.cpp:395] relu4_3 -> conv4_3 (in-place)
I0412 20:28:44.772578  4585 net.cpp:150] Setting up relu4_3
I0412 20:28:44.772583  4585 net.cpp:157] Top shape: 1 512 125 188 (12032000)
I0412 20:28:44.772585  4585 net.cpp:165] Memory required for data: 3582832052
I0412 20:28:44.772588  4585 layer_factory.hpp:77] Creating layer pool4
I0412 20:28:44.772594  4585 net.cpp:100] Creating Layer pool4
I0412 20:28:44.772598  4585 net.cpp:434] pool4 <- conv4_3
I0412 20:28:44.772604  4585 net.cpp:408] pool4 -> pool4
I0412 20:28:44.772650  4585 net.cpp:150] Setting up pool4
I0412 20:28:44.772660  4585 net.cpp:157] Top shape: 1 512 63 94 (3032064)
I0412 20:28:44.772663  4585 net.cpp:165] Memory required for data: 3594960308
I0412 20:28:44.772666  4585 layer_factory.hpp:77] Creating layer conv5_1
I0412 20:28:44.772675  4585 net.cpp:100] Creating Layer conv5_1
I0412 20:28:44.772678  4585 net.cpp:434] conv5_1 <- pool4
I0412 20:28:44.772686  4585 net.cpp:408] conv5_1 -> conv5_1
I0412 20:28:44.777529  4585 net.cpp:150] Setting up conv5_1
I0412 20:28:44.777567  4585 net.cpp:157] Top shape: 1 512 63 94 (3032064)
I0412 20:28:44.777575  4585 net.cpp:165] Memory required for data: 3607088564
I0412 20:28:44.777593  4585 layer_factory.hpp:77] Creating layer relu5_1
I0412 20:28:44.777613  4585 net.cpp:100] Creating Layer relu5_1
I0412 20:28:44.777624  4585 net.cpp:434] relu5_1 <- conv5_1
I0412 20:28:44.777640  4585 net.cpp:395] relu5_1 -> conv5_1 (in-place)
I0412 20:28:44.777657  4585 net.cpp:150] Setting up relu5_1
I0412 20:28:44.777668  4585 net.cpp:157] Top shape: 1 512 63 94 (3032064)
I0412 20:28:44.777676  4585 net.cpp:165] Memory required for data: 3619216820
I0412 20:28:44.777683  4585 layer_factory.hpp:77] Creating layer conv5_2
I0412 20:28:44.777696  4585 net.cpp:100] Creating Layer conv5_2
I0412 20:28:44.777704  4585 net.cpp:434] conv5_2 <- conv5_1
I0412 20:28:44.777716  4585 net.cpp:408] conv5_2 -> conv5_2
I0412 20:28:44.783406  4585 net.cpp:150] Setting up conv5_2
I0412 20:28:44.783437  4585 net.cpp:157] Top shape: 1 512 63 94 (3032064)
I0412 20:28:44.783442  4585 net.cpp:165] Memory required for data: 3631345076
I0412 20:28:44.783452  4585 layer_factory.hpp:77] Creating layer relu5_2
I0412 20:28:44.783463  4585 net.cpp:100] Creating Layer relu5_2
I0412 20:28:44.783468  4585 net.cpp:434] relu5_2 <- conv5_2
I0412 20:28:44.783478  4585 net.cpp:395] relu5_2 -> conv5_2 (in-place)
I0412 20:28:44.783488  4585 net.cpp:150] Setting up relu5_2
I0412 20:28:44.783493  4585 net.cpp:157] Top shape: 1 512 63 94 (3032064)
I0412 20:28:44.783495  4585 net.cpp:165] Memory required for data: 3643473332
I0412 20:28:44.783499  4585 layer_factory.hpp:77] Creating layer conv5_3
I0412 20:28:44.783506  4585 net.cpp:100] Creating Layer conv5_3
I0412 20:28:44.783509  4585 net.cpp:434] conv5_3 <- conv5_2
I0412 20:28:44.783517  4585 net.cpp:408] conv5_3 -> conv5_3
I0412 20:28:44.787679  4585 net.cpp:150] Setting up conv5_3
I0412 20:28:44.787714  4585 net.cpp:157] Top shape: 1 512 63 94 (3032064)
I0412 20:28:44.787719  4585 net.cpp:165] Memory required for data: 3655601588
I0412 20:28:44.787729  4585 layer_factory.hpp:77] Creating layer relu5_3
I0412 20:28:44.787746  4585 net.cpp:100] Creating Layer relu5_3
I0412 20:28:44.787752  4585 net.cpp:434] relu5_3 <- conv5_3
I0412 20:28:44.787761  4585 net.cpp:395] relu5_3 -> conv5_3 (in-place)
I0412 20:28:44.787788  4585 net.cpp:150] Setting up relu5_3
I0412 20:28:44.787796  4585 net.cpp:157] Top shape: 1 512 63 94 (3032064)
I0412 20:28:44.787801  4585 net.cpp:165] Memory required for data: 3667729844
I0412 20:28:44.787803  4585 layer_factory.hpp:77] Creating layer rpn_big_conv1
I0412 20:28:44.787817  4585 net.cpp:100] Creating Layer rpn_big_conv1
I0412 20:28:44.787822  4585 net.cpp:434] rpn_big_conv1 <- conv5_3
I0412 20:28:44.787830  4585 net.cpp:408] rpn_big_conv1 -> rpn_big_conv1
I0412 20:28:44.815656  4585 net.cpp:150] Setting up rpn_big_conv1
I0412 20:28:44.815685  4585 net.cpp:157] Top shape: 1 512 63 94 (3032064)
I0412 20:28:44.815697  4585 net.cpp:165] Memory required for data: 3679858100
I0412 20:28:44.815707  4585 layer_factory.hpp:77] Creating layer rpn_big_conv1_relu
I0412 20:28:44.815717  4585 net.cpp:100] Creating Layer rpn_big_conv1_relu
I0412 20:28:44.815722  4585 net.cpp:434] rpn_big_conv1_relu <- rpn_big_conv1
I0412 20:28:44.815731  4585 net.cpp:395] rpn_big_conv1_relu -> rpn_big_conv1 (in-place)
I0412 20:28:44.815742  4585 net.cpp:150] Setting up rpn_big_conv1_relu
I0412 20:28:44.815745  4585 net.cpp:157] Top shape: 1 512 63 94 (3032064)
I0412 20:28:44.815748  4585 net.cpp:165] Memory required for data: 3691986356
I0412 20:28:44.815752  4585 layer_factory.hpp:77] Creating layer rpn_big_conv2
I0412 20:28:44.815762  4585 net.cpp:100] Creating Layer rpn_big_conv2
I0412 20:28:44.815773  4585 net.cpp:434] rpn_big_conv2 <- rpn_big_conv1
I0412 20:28:44.815780  4585 net.cpp:408] rpn_big_conv2 -> rpn_big_conv2
I0412 20:28:44.842803  4585 net.cpp:150] Setting up rpn_big_conv2
I0412 20:28:44.842830  4585 net.cpp:157] Top shape: 1 512 63 94 (3032064)
I0412 20:28:44.842842  4585 net.cpp:165] Memory required for data: 3704114612
I0412 20:28:44.842852  4585 layer_factory.hpp:77] Creating layer rpn_big_conv2_relu
I0412 20:28:44.842864  4585 net.cpp:100] Creating Layer rpn_big_conv2_relu
I0412 20:28:44.842870  4585 net.cpp:434] rpn_big_conv2_relu <- rpn_big_conv2
I0412 20:28:44.842877  4585 net.cpp:395] rpn_big_conv2_relu -> rpn_big_conv2 (in-place)
I0412 20:28:44.842890  4585 net.cpp:150] Setting up rpn_big_conv2_relu
I0412 20:28:44.842895  4585 net.cpp:157] Top shape: 1 512 63 94 (3032064)
I0412 20:28:44.842897  4585 net.cpp:165] Memory required for data: 3716242868
I0412 20:28:44.842900  4585 layer_factory.hpp:77] Creating layer rpn_big_conv2_drop
I0412 20:28:44.842906  4585 net.cpp:100] Creating Layer rpn_big_conv2_drop
I0412 20:28:44.842910  4585 net.cpp:434] rpn_big_conv2_drop <- rpn_big_conv2
I0412 20:28:44.842914  4585 net.cpp:395] rpn_big_conv2_drop -> rpn_big_conv2 (in-place)
I0412 20:28:44.842936  4585 net.cpp:150] Setting up rpn_big_conv2_drop
I0412 20:28:44.842952  4585 net.cpp:157] Top shape: 1 512 63 94 (3032064)
I0412 20:28:44.842955  4585 net.cpp:165] Memory required for data: 3728371124
I0412 20:28:44.842958  4585 layer_factory.hpp:77] Creating layer rpn_big_conv2_rpn_big_conv2_drop_0_split
I0412 20:28:44.842964  4585 net.cpp:100] Creating Layer rpn_big_conv2_rpn_big_conv2_drop_0_split
I0412 20:28:44.842967  4585 net.cpp:434] rpn_big_conv2_rpn_big_conv2_drop_0_split <- rpn_big_conv2
I0412 20:28:44.842973  4585 net.cpp:408] rpn_big_conv2_rpn_big_conv2_drop_0_split -> rpn_big_conv2_rpn_big_conv2_drop_0_split_0
I0412 20:28:44.842980  4585 net.cpp:408] rpn_big_conv2_rpn_big_conv2_drop_0_split -> rpn_big_conv2_rpn_big_conv2_drop_0_split_1
I0412 20:28:44.843013  4585 net.cpp:150] Setting up rpn_big_conv2_rpn_big_conv2_drop_0_split
I0412 20:28:44.843019  4585 net.cpp:157] Top shape: 1 512 63 94 (3032064)
I0412 20:28:44.843024  4585 net.cpp:157] Top shape: 1 512 63 94 (3032064)
I0412 20:28:44.843026  4585 net.cpp:165] Memory required for data: 3752627636
I0412 20:28:44.843029  4585 layer_factory.hpp:77] Creating layer rpn_big_output_cls
I0412 20:28:44.843039  4585 net.cpp:100] Creating Layer rpn_big_output_cls
I0412 20:28:44.843044  4585 net.cpp:434] rpn_big_output_cls <- rpn_big_conv2_rpn_big_conv2_drop_0_split_0
I0412 20:28:44.843051  4585 net.cpp:408] rpn_big_output_cls -> rpn_big_output_cls
I0412 20:28:44.863966  4585 net.cpp:150] Setting up rpn_big_output_cls
I0412 20:28:44.864001  4585 net.cpp:157] Top shape: 1 384 63 94 (2274048)
I0412 20:28:44.864014  4585 net.cpp:165] Memory required for data: 3761723828
I0412 20:28:44.864029  4585 layer_factory.hpp:77] Creating layer rpn_big_output_cls_relu
I0412 20:28:44.864047  4585 net.cpp:100] Creating Layer rpn_big_output_cls_relu
I0412 20:28:44.864054  4585 net.cpp:434] rpn_big_output_cls_relu <- rpn_big_output_cls
I0412 20:28:44.864068  4585 net.cpp:395] rpn_big_output_cls_relu -> rpn_big_output_cls (in-place)
I0412 20:28:44.864081  4585 net.cpp:150] Setting up rpn_big_output_cls_relu
I0412 20:28:44.864089  4585 net.cpp:157] Top shape: 1 384 63 94 (2274048)
I0412 20:28:44.864094  4585 net.cpp:165] Memory required for data: 3770820020
I0412 20:28:44.864100  4585 layer_factory.hpp:77] Creating layer rpn_big_cls_score
I0412 20:28:44.864117  4585 net.cpp:100] Creating Layer rpn_big_cls_score
I0412 20:28:44.864131  4585 net.cpp:434] rpn_big_cls_score <- rpn_big_output_cls
I0412 20:28:44.864143  4585 net.cpp:408] rpn_big_cls_score -> rpn_big_cls_score
I0412 20:28:44.866677  4585 net.cpp:150] Setting up rpn_big_cls_score
I0412 20:28:44.866696  4585 net.cpp:157] Top shape: 1 52 61 92 (291824)
I0412 20:28:44.866699  4585 net.cpp:165] Memory required for data: 3771987316
I0412 20:28:44.866722  4585 layer_factory.hpp:77] Creating layer rpn_big_cls_score_rpn_big_cls_score_0_split
I0412 20:28:44.866730  4585 net.cpp:100] Creating Layer rpn_big_cls_score_rpn_big_cls_score_0_split
I0412 20:28:44.866734  4585 net.cpp:434] rpn_big_cls_score_rpn_big_cls_score_0_split <- rpn_big_cls_score
I0412 20:28:44.866742  4585 net.cpp:408] rpn_big_cls_score_rpn_big_cls_score_0_split -> rpn_big_cls_score_rpn_big_cls_score_0_split_0
I0412 20:28:44.866750  4585 net.cpp:408] rpn_big_cls_score_rpn_big_cls_score_0_split -> rpn_big_cls_score_rpn_big_cls_score_0_split_1
I0412 20:28:44.866786  4585 net.cpp:150] Setting up rpn_big_cls_score_rpn_big_cls_score_0_split
I0412 20:28:44.866793  4585 net.cpp:157] Top shape: 1 52 61 92 (291824)
I0412 20:28:44.866799  4585 net.cpp:157] Top shape: 1 52 61 92 (291824)
I0412 20:28:44.866803  4585 net.cpp:165] Memory required for data: 3774321908
I0412 20:28:44.866806  4585 layer_factory.hpp:77] Creating layer rpn_big_cls_score_reshape
I0412 20:28:44.866814  4585 net.cpp:100] Creating Layer rpn_big_cls_score_reshape
I0412 20:28:44.866819  4585 net.cpp:434] rpn_big_cls_score_reshape <- rpn_big_cls_score_rpn_big_cls_score_0_split_0
I0412 20:28:44.866827  4585 net.cpp:408] rpn_big_cls_score_reshape -> rpn_big_cls_score_reshape
I0412 20:28:44.866848  4585 net.cpp:150] Setting up rpn_big_cls_score_reshape
I0412 20:28:44.866855  4585 net.cpp:157] Top shape: 1 2 1586 92 (291824)
I0412 20:28:44.866858  4585 net.cpp:165] Memory required for data: 3775489204
I0412 20:28:44.866861  4585 layer_factory.hpp:77] Creating layer rpn_big_cls_score_reshape_rpn_big_cls_score_reshape_0_split
I0412 20:28:44.866868  4585 net.cpp:100] Creating Layer rpn_big_cls_score_reshape_rpn_big_cls_score_reshape_0_split
I0412 20:28:44.866871  4585 net.cpp:434] rpn_big_cls_score_reshape_rpn_big_cls_score_reshape_0_split <- rpn_big_cls_score_reshape
I0412 20:28:44.866878  4585 net.cpp:408] rpn_big_cls_score_reshape_rpn_big_cls_score_reshape_0_split -> rpn_big_cls_score_reshape_rpn_big_cls_score_reshape_0_split_0
I0412 20:28:44.866885  4585 net.cpp:408] rpn_big_cls_score_reshape_rpn_big_cls_score_reshape_0_split -> rpn_big_cls_score_reshape_rpn_big_cls_score_reshape_0_split_1
I0412 20:28:44.866912  4585 net.cpp:150] Setting up rpn_big_cls_score_reshape_rpn_big_cls_score_reshape_0_split
I0412 20:28:44.866920  4585 net.cpp:157] Top shape: 1 2 1586 92 (291824)
I0412 20:28:44.866925  4585 net.cpp:157] Top shape: 1 2 1586 92 (291824)
I0412 20:28:44.866927  4585 net.cpp:165] Memory required for data: 3777823796
I0412 20:28:44.866930  4585 layer_factory.hpp:77] Creating layer rpn_big_cls_prob
I0412 20:28:44.866935  4585 net.cpp:100] Creating Layer rpn_big_cls_prob
I0412 20:28:44.866940  4585 net.cpp:434] rpn_big_cls_prob <- rpn_big_cls_score_reshape_rpn_big_cls_score_reshape_0_split_0
I0412 20:28:44.866943  4585 net.cpp:408] rpn_big_cls_prob -> rpn_big_cls_prob
I0412 20:28:44.866992  4585 net.cpp:150] Setting up rpn_big_cls_prob
I0412 20:28:44.866998  4585 net.cpp:157] Top shape: 1 2 1586 92 (291824)
I0412 20:28:44.867002  4585 net.cpp:165] Memory required for data: 3778991092
I0412 20:28:44.867005  4585 layer_factory.hpp:77] Creating layer rpn_big_cls_prob_reshape
I0412 20:28:44.867010  4585 net.cpp:100] Creating Layer rpn_big_cls_prob_reshape
I0412 20:28:44.867013  4585 net.cpp:434] rpn_big_cls_prob_reshape <- rpn_big_cls_prob
I0412 20:28:44.867020  4585 net.cpp:408] rpn_big_cls_prob_reshape -> rpn_big_cls_prob_reshape
I0412 20:28:44.867038  4585 net.cpp:150] Setting up rpn_big_cls_prob_reshape
I0412 20:28:44.867044  4585 net.cpp:157] Top shape: 1 52 61 92 (291824)
I0412 20:28:44.867048  4585 net.cpp:165] Memory required for data: 3780158388
I0412 20:28:44.867050  4585 layer_factory.hpp:77] Creating layer rpn_big_anchor_target
I0412 20:28:44.868397  4585 net.cpp:100] Creating Layer rpn_big_anchor_target
I0412 20:28:44.868414  4585 net.cpp:434] rpn_big_anchor_target <- rpn_big_cls_score_rpn_big_cls_score_0_split_1
I0412 20:28:44.868422  4585 net.cpp:434] rpn_big_anchor_target <- input_gt_boxes
I0412 20:28:44.868427  4585 net.cpp:434] rpn_big_anchor_target <- input_ignored_boxes
I0412 20:28:44.868430  4585 net.cpp:434] rpn_big_anchor_target <- input_im_info
I0412 20:28:44.868434  4585 net.cpp:434] rpn_big_anchor_target <- input_data_input_0_split_1
I0412 20:28:44.868438  4585 net.cpp:434] rpn_big_anchor_target <- rpn_big_cls_prob_reshape
I0412 20:28:44.868444  4585 net.cpp:408] rpn_big_anchor_target -> rpn_big_anchor_target_labels
I0412 20:28:44.868454  4585 net.cpp:408] rpn_big_anchor_target -> rpn_big_anchor_target_bbox_targets
I0412 20:28:44.868463  4585 net.cpp:408] rpn_big_anchor_target -> rpn_big_anchor_target_inside_weights
I0412 20:28:44.868470  4585 net.cpp:408] rpn_big_anchor_target -> rpn_big_anchor_target_outside_weights
I0412 20:28:44.875356  4585 net.cpp:150] Setting up rpn_big_anchor_target
I0412 20:28:44.875380  4585 net.cpp:157] Top shape: 1 1 1586 92 (145912)
I0412 20:28:44.875394  4585 net.cpp:157] Top shape: 1 104 61 92 (583648)
I0412 20:28:44.875398  4585 net.cpp:157] Top shape: 1 104 61 92 (583648)
I0412 20:28:44.875402  4585 net.cpp:157] Top shape: 1 104 61 92 (583648)
I0412 20:28:44.875406  4585 net.cpp:165] Memory required for data: 3787745812
I0412 20:28:44.875411  4585 layer_factory.hpp:77] Creating layer rpn_big_loss_cls
I0412 20:28:44.875421  4585 net.cpp:100] Creating Layer rpn_big_loss_cls
I0412 20:28:44.875425  4585 net.cpp:434] rpn_big_loss_cls <- rpn_big_cls_score_reshape_rpn_big_cls_score_reshape_0_split_1
I0412 20:28:44.875432  4585 net.cpp:434] rpn_big_loss_cls <- rpn_big_anchor_target_labels
I0412 20:28:44.875437  4585 net.cpp:408] rpn_big_loss_cls -> rpn_big_loss_cls
I0412 20:28:44.875449  4585 layer_factory.hpp:77] Creating layer rpn_big_loss_cls
I0412 20:28:44.876092  4585 net.cpp:150] Setting up rpn_big_loss_cls
I0412 20:28:44.876106  4585 net.cpp:157] Top shape: (1)
I0412 20:28:44.876109  4585 net.cpp:160]     with loss weight 1
I0412 20:28:44.876128  4585 net.cpp:165] Memory required for data: 3787745816
I0412 20:28:44.876132  4585 layer_factory.hpp:77] Creating layer rpn_big_output_box
I0412 20:28:44.876147  4585 net.cpp:100] Creating Layer rpn_big_output_box
I0412 20:28:44.876152  4585 net.cpp:434] rpn_big_output_box <- rpn_big_conv2_rpn_big_conv2_drop_0_split_1
I0412 20:28:44.876158  4585 net.cpp:408] rpn_big_output_box -> rpn_big_output_box
I0412 20:28:44.898882  4585 net.cpp:150] Setting up rpn_big_output_box
I0412 20:28:44.898911  4585 net.cpp:157] Top shape: 1 384 63 94 (2274048)
I0412 20:28:44.898926  4585 net.cpp:165] Memory required for data: 3796842008
I0412 20:28:44.898941  4585 layer_factory.hpp:77] Creating layer rpn_big_output_box_relu
I0412 20:28:44.898957  4585 net.cpp:100] Creating Layer rpn_big_output_box_relu
I0412 20:28:44.898965  4585 net.cpp:434] rpn_big_output_box_relu <- rpn_big_output_box
I0412 20:28:44.898979  4585 net.cpp:395] rpn_big_output_box_relu -> rpn_big_output_box (in-place)
I0412 20:28:44.899003  4585 net.cpp:150] Setting up rpn_big_output_box_relu
I0412 20:28:44.899013  4585 net.cpp:157] Top shape: 1 384 63 94 (2274048)
I0412 20:28:44.899018  4585 net.cpp:165] Memory required for data: 3805938200
I0412 20:28:44.899022  4585 layer_factory.hpp:77] Creating layer rpn_big_bbox_pred
I0412 20:28:44.899039  4585 net.cpp:100] Creating Layer rpn_big_bbox_pred
I0412 20:28:44.899046  4585 net.cpp:434] rpn_big_bbox_pred <- rpn_big_output_box
I0412 20:28:44.899057  4585 net.cpp:408] rpn_big_bbox_pred -> rpn_big_bbox_pred
I0412 20:28:44.903362  4585 net.cpp:150] Setting up rpn_big_bbox_pred
I0412 20:28:44.903390  4585 net.cpp:157] Top shape: 1 104 61 92 (583648)
I0412 20:28:44.903394  4585 net.cpp:165] Memory required for data: 3808272792
I0412 20:28:44.903403  4585 layer_factory.hpp:77] Creating layer rpn_big_loss_bbox
I0412 20:28:44.903766  4585 net.cpp:100] Creating Layer rpn_big_loss_bbox
I0412 20:28:44.903784  4585 net.cpp:434] rpn_big_loss_bbox <- rpn_big_bbox_pred
I0412 20:28:44.903795  4585 net.cpp:434] rpn_big_loss_bbox <- rpn_big_anchor_target_bbox_targets
I0412 20:28:44.903800  4585 net.cpp:434] rpn_big_loss_bbox <- rpn_big_anchor_target_inside_weights
I0412 20:28:44.903805  4585 net.cpp:434] rpn_big_loss_bbox <- rpn_big_anchor_target_outside_weights
I0412 20:28:44.903811  4585 net.cpp:408] rpn_big_loss_bbox -> rpn_big_loss_bbox
I0412 20:28:44.905796  4585 net.cpp:150] Setting up rpn_big_loss_bbox
I0412 20:28:44.905829  4585 net.cpp:157] Top shape: 1 (1)
I0412 20:28:44.905833  4585 net.cpp:160]     with loss weight 1
I0412 20:28:44.905844  4585 net.cpp:165] Memory required for data: 3808272796
I0412 20:28:44.905850  4585 layer_factory.hpp:77] Creating layer MyLoss
I0412 20:28:44.905861  4585 net.cpp:100] Creating Layer MyLoss
I0412 20:28:44.905866  4585 net.cpp:434] MyLoss <- conv3_1_relu3_1_0_split_1
I0412 20:28:44.905874  4585 net.cpp:408] MyLoss -> MyLoss
I0412 20:28:44.905933  4585 net.cpp:150] Setting up MyLoss
I0412 20:28:44.905946  4585 net.cpp:157] Top shape: 1 256 250 375 (24000000)
I0412 20:28:44.905948  4585 net.cpp:165] Memory required for data: 3904272796
I0412 20:28:44.905952  4585 net.cpp:228] MyLoss does not need backward computation.
I0412 20:28:44.905956  4585 net.cpp:226] rpn_big_loss_bbox needs backward computation.
I0412 20:28:44.905961  4585 net.cpp:226] rpn_big_bbox_pred needs backward computation.
I0412 20:28:44.905964  4585 net.cpp:226] rpn_big_output_box_relu needs backward computation.
…
