…
I0413 18:04:06.872723 11609 solver.cpp:48] Initializing solver from parameters: 
base_lr: 0.001
display: 20
lr_policy: "multistep"
gamma: 0.1
momentum: 0.9
weight_decay: 0.0005
snapshot: 0
snapshot_prefix: "faces_example"
net_param {
  name: "GeneratedModel_13_04_2017_18_04"
  layer {
    name: "input"
    type: "Python"
    top: "input_data"
    top: "input_im_info"
    top: "input_gt_boxes"
    top: "input_ignored_boxes"
    python_param {
      module: "layers.roi_data_layer"
      layer: "RoIDataLayer"
      param_str: "{\"num_classes\": 2}"
    }
  }
  layer {
    name: "conv1_1"
    type: "Convolution"
    bottom: "input_data"
    top: "conv1_1"
    param {
      lr_mult: 0
      decay_mult: 0
    }
    param {
      lr_mult: 0
      decay_mult: 0
    }
    convolution_param {
      num_output: 64
      pad: 1
      kernel_size: 3
    }
  }
  layer {
    name: "relu1_1"
    type: "ReLU"
    bottom: "conv1_1"
    top: "conv1_1"
  }
  layer {
    name: "conv1_2"
    type: "Convolution"
    bottom: "conv1_1"
    top: "conv1_2"
    param {
      lr_mult: 0
      decay_mult: 0
    }
    param {
      lr_mult: 0
      decay_mult: 0
    }
    convolution_param {
      num_output: 64
      pad: 1
      kernel_size: 3
    }
  }
  layer {
    name: "relu1_2"
    type: "ReLU"
    bottom: "conv1_2"
    top: "conv1_2"
  }
  layer {
    name: "pool1"
    type: "Pooling"
    bottom: "conv1_2"
    top: "pool1"
    pooling_param {
      pool: MAX
      kernel_size: 2
      stride: 2
    }
  }
  layer {
    name: "conv2_1"
    type: "Convolution"
    bottom: "pool1"
    top: "conv2_1"
    param {
      lr_mult: 0
      decay_mult: 0
    }
    param {
      lr_mult: 0
      decay_mult: 0
    }
    convolution_param {
      num_output: 128
      pad: 1
      kernel_size: 3
    }
  }
  layer {
    name: "relu2_1"
    type: "ReLU"
    bottom: "conv2_1"
    top: "conv2_1"
  }
  layer {
    name: "conv2_2"
    type: "Convolution"
    bottom: "conv2_1"
    top: "conv2_2"
    param {
      lr_mult: 0
      decay_mult: 0
    }
    param {
      lr_mult: 0
      decay_mult: 0
    }
    convolution_param {
      num_output: 128
      pad: 1
      kernel_size: 3
    }
  }
  layer {
    name: "relu2_2"
    type: "ReLU"
    bottom: "conv2_2"
    top: "conv2_2"
  }
  layer {
    name: "pool2"
    type: "Pooling"
    bottom: "conv2_2"
    top: "pool2"
    pooling_param {
      pool: MAX
      kernel_size: 2
      stride: 2
    }
  }
  layer {
    name: "conv3_1"
    type: "Convolution"
    bottom: "pool2"
    top: "conv3_1"
    param {
      lr_mult: 1
    }
    param {
      lr_mult: 2
    }
    convolution_param {
      num_output: 256
      pad: 1
      kernel_size: 3
    }
  }
  layer {
    name: "relu3_1"
    type: "ReLU"
    bottom: "conv3_1"
    top: "conv3_1"
  }
  layer {
    name: "conv3_2"
    type: "Convolution"
    bottom: "conv3_1"
    top: "conv3_2"
    param {
      lr_mult: 1
    }
    param {
      lr_mult: 2
    }
    convolution_param {
      num_output: 256
      pad: 1
      kernel_size: 3
    }
  }
  layer {
    name: "relu3_2"
    type: "ReLU"
    bottom: "conv3_2"
    top: "conv3_2"
  }
  layer {
    name: "conv3_3"
    type: "Convolution"
    bottom: "conv3_2"
    top: "conv3_3"
    param {
      lr_mult: 1
    }
    param {
      lr_mult: 2
    }
    convolution_param {
      num_output: 256
      pad: 1
      kernel_size: 3
    }
  }
  layer {
    name: "relu3_3"
    type: "ReLU"
    bottom: "conv3_3"
    top: "conv3_3"
  }
  layer {
    name: "pool3"
    type: "Pooling"
    bottom: "conv3_3"
    top: "pool3"
    pooling_param {
      pool: MAX
      kernel_size: 2
      stride: 2
    }
  }
  layer {
    name: "conv4_1"
    type: "Convolution"
    bottom: "pool3"
    top: "conv4_1"
    param {
      lr_mult: 1
    }
    param {
      lr_mult: 2
    }
    convolution_param {
      num_output: 512
      pad: 1
      kernel_size: 3
    }
  }
  layer {
    name: "relu4_1"
    type: "ReLU"
    bottom: "conv4_1"
    top: "conv4_1"
  }
  layer {
    name: "conv4_2"
    type: "Convolution"
    bottom: "conv4_1"
    top: "conv4_2"
    param {
      lr_mult: 1
    }
    param {
      lr_mult: 2
    }
    convolution_param {
      num_output: 512
      pad: 1
      kernel_size: 3
    }
  }
  layer {
    name: "relu4_2"
    type: "ReLU"
    bottom: "conv4_2"
    top: "conv4_2"
  }
  layer {
    name: "conv4_3"
    type: "Convolution"
    bottom: "conv4_2"
    top: "conv4_3"
    param {
      lr_mult: 1
    }
    param {
      lr_mult: 2
    }
    convolution_param {
      num_output: 512
      pad: 1
      kernel_size: 3
    }
  }
  layer {
    name: "relu4_3"
    type: "ReLU"
    bottom: "conv4_3"
    top: "conv4_3"
  }
  layer {
    name: "pool4"
    type: "Pooling"
    bottom: "conv4_3"
    top: "pool4"
    pooling_param {
      pool: MAX
      kernel_size: 2
      stride: 2
    }
  }
  layer {
    name: "conv5_1"
    type: "Convolution"
    bottom: "pool4"
    top: "conv5_1"
    param {
      lr_mult: 1
    }
    param {
      lr_mult: 2
    }
    convolution_param {
      num_output: 512
      pad: 1
      kernel_size: 3
    }
  }
  layer {
    name: "relu5_1"
    type: "ReLU"
    bottom: "conv5_1"
    top: "conv5_1"
  }
  layer {
    name: "conv5_2"
    type: "Convolution"
    bottom: "conv5_1"
    top: "conv5_2"
    param {
      lr_mult: 1
    }
    param {
      lr_mult: 2
    }
    convolution_param {
      num_output: 512
      pad: 1
      kernel_size: 3
    }
  }
  layer {
    name: "relu5_2"
    type: "ReLU"
    bottom: "conv5_2"
    top: "conv5_2"
  }
  layer {
    name: "conv5_3"
    type: "Convolution"
    bottom: "conv5_2"
    top: "conv5_3"
    param {
      lr_mult: 1
    }
    param {
      lr_mult: 2
    }
    convolution_param {
      num_output: 512
      pad: 1
      kernel_size: 3
    }
  }
  layer {
    name: "relu5_3"
    type: "ReLU"
    bottom: "conv5_3"
    top: "conv5_3"
  }
  layer {
    name: "rpn_big_conv1"
    type: "Convolution"
    bottom: "conv5_3"
    top: "rpn_big_conv1"
    param {
      lr_mult: 1
    }
    param {
      lr_mult: 2
    }
    convolution_param {
      num_output: 512
      pad: 1
      kernel_size: 3
      stride: 1
      weight_filler {
        type: "gaussian"
        mean: 0
        std: 0.01
      }
      bias_filler {
        type: "constant"
      }
    }
  }
  layer {
    name: "rpn_big_conv1_relu"
    type: "ReLU"
    bottom: "rpn_big_conv1"
    top: "rpn_big_conv1"
    relu_param {
      negative_slope: 0
    }
  }
  layer {
    name: "rpn_big_conv2"
    type: "Convolution"
    bottom: "rpn_big_conv1"
    top: "rpn_big_conv2"
    param {
      lr_mult: 1
    }
    param {
      lr_mult: 2
    }
    convolution_param {
      num_output: 512
      pad: 1
      kernel_size: 3
      stride: 1
      weight_filler {
        type: "gaussian"
        mean: 0
        std: 0.01
      }
      bias_filler {
        type: "constant"
      }
    }
  }
  layer {
    name: "rpn_big_conv2_relu"
    type: "ReLU"
    bottom: "rpn_big_conv2"
    top: "rpn_big_conv2"
    relu_param {
      negative_slope: 0
    }
  }
  layer {
    name: "rpn_big_conv2_drop"
    type: "Dropout"
    bottom: "rpn_big_conv2"
    top: "rpn_big_conv2"
    dropout_param {
      dropout_ratio: 0.3
    }
  }
  layer {
    name: "rpn_big_output_cls"
    type: "Convolution"
    bottom: "rpn_big_conv2"
    top: "rpn_big_output_cls"
    param {
      lr_mult: 1
    }
    param {
      lr_mult: 2
    }
    convolution_param {
      num_output: 384
      pad: 1
      kernel_size: 3
      stride: 1
      weight_filler {
        type: "gaussian"
        mean: 0
        std: 0.01
      }
      bias_filler {
        type: "constant"
      }
    }
  }
  layer {
    name: "rpn_big_output_cls_relu"
    type: "ReLU"
    bottom: "rpn_big_output_cls"
    top: "rpn_big_output_cls"
    relu_param {
      negative_slope: 0
    }
  }
  layer {
    name: "rpn_big_cls_score"
    type: "Convolution"
    bottom: "rpn_big_output_cls"
    top: "rpn_big_cls_score"
    param {
      lr_mult: 1
    }
    param {
      lr_mult: 2
    }
    convolution_param {
      num_output: 52
      pad: 0
      kernel_size: 3
      stride: 1
      weight_filler {
        type: "gaussian"
        mean: 0
        std: 0.01
      }
      bias_filler {
        type: "constant"
      }
    }
  }
  layer {
    name: "rpn_big_cls_score_reshape"
    type: "Reshape"
    bottom: "rpn_big_cls_score"
    top: "rpn_big_cls_score_reshape"
    reshape_param {
      shape {
        dim: 0
        dim: 2
        dim: -1
        dim: 0
      }
    }
  }
  layer {
    name: "rpn_big_cls_prob"
    type: "Softmax"
    bottom: "rpn_big_cls_score_reshape"
    top: "rpn_big_cls_prob"
  }
  layer {
    name: "rpn_big_cls_prob_reshape"
    type: "Reshape"
    bottom: "rpn_big_cls_prob"
    top: "rpn_big_cls_prob_reshape"
    reshape_param {
      shape {
        dim: 0
        dim: 52
        dim: -1
        dim: 0
      }
    }
  }
  layer {
    name: "rpn_big_anchor_target"
    type: "Python"
    bottom: "rpn_big_cls_score"
    bottom: "input_gt_boxes"
    bottom: "input_ignored_boxes"
    bottom: "input_im_info"
    bottom: "input_data"
    bottom: "rpn_big_cls_prob_reshape"
    top: "rpn_big_anchor_target_labels"
    top: "rpn_big_anchor_target_bbox_targets"
    top: "rpn_big_anchor_target_inside_weights"
    top: "rpn_big_anchor_target_outside_weights"
    python_param {
      module: "rpn.anchor_target_layer"
      layer: "AnchorTargetLayer"
      param_str: "{\"num_classes\": 1, \"feat_stride\": 16, \"name\": \"rpn_big\", \"anchor_scales\": [2.5, 3.025, 3.66025, 4.4289024999999995, 5.358972025, 6.484356150249999, 7.846070941802498, 9.493745839581022, 11.487432465893036, 13.899793283730574, 16.818749873313998, 20.350687346709933, 24.62433168951902, 29.795441344318014], \"anchor_ratios\": [1.0], \"fg_fraction\": 0.5, \"square_targets\": true, \"negative_overlap\": 0.4, \"positive_overlap\": 0.6, \"anchor_shift_num_xy\": [[2, 2], [2, 2], [2, 2], [2, 2], [1, 1], [1, 1], [1, 1], [1, 1], [1, 1], [1, 1], [1, 1], [1, 1], [1, 1], [1, 1]], \"batchsize\": 256, \"tn_fraction\": 0.2}"
    }
  }
  layer {
    name: "rpn_big_loss_cls"
    type: "SoftmaxWithLoss"
    bottom: "rpn_big_cls_score_reshape"
    bottom: "rpn_big_anchor_target_labels"
    top: "rpn_big_loss_cls"
    loss_weight: 1
    propagate_down: true
    propagate_down: false
    loss_param {
      ignore_label: -1
      normalization: VALID
    }
  }
  layer {
    name: "rpn_big_output_box"
    type: "Convolution"
    bottom: "rpn_big_conv2"
    top: "rpn_big_output_box"
    param {
      lr_mult: 1
    }
    param {
      lr_mult: 2
    }
    convolution_param {
      num_output: 384
      pad: 1
      kernel_size: 3
      stride: 1
      weight_filler {
        type: "gaussian"
        mean: 0
        std: 0.01
      }
      bias_filler {
        type: "constant"
      }
    }
  }
  layer {
    name: "rpn_big_output_box_relu"
    type: "ReLU"
    bottom: "rpn_big_output_box"
    top: "rpn_big_output_box"
    relu_param {
      negative_slope: 0
    }
  }
  layer {
    name: "rpn_big_bbox_pred"
    type: "Convolution"
    bottom: "rpn_big_output_box"
    top: "rpn_big_bbox_pred"
    param {
      lr_mult: 1
    }
    param {
      lr_mult: 2
    }
    convolution_param {
      num_output: 104
      pad: 0
      kernel_size: 3
      stride: 1
      weight_filler {
        type: "gaussian"
        mean: 0
        std: 0.01
      }
      bias_filler {
        type: "constant"
      }
    }
  }
  layer {
    name: "rpn_big_loss_bbox"
    type: "Python"
    bottom: "rpn_big_bbox_pred"
    bottom: "rpn_big_anchor_target_bbox_targets"
    bottom: "rpn_big_anchor_target_inside_weights"
    bottom: "rpn_big_anchor_target_outside_weights"
    top: "rpn_big_loss_bbox"
    loss_weight: 1
    python_param {
      module: "layers.smooth_l1_loss"
      layer: "SmoothL1LossLayer"
      param_str: "{\"sigma\": 3}"
    }
  }
  layer {
    name: "proposal"
    type: "Python"
    bottom: "rpn_big_cls_prob_reshape"
    bottom: "rpn_big_bbox_pred"
    bottom: "input_im_info"
    top: "rpn_rois"
    python_param {
      module: "rpn.proposal_layer"
      layer: "ProposalLayer"
      param_str: "{\"anchor_shift_num_xy\": [[2, 2], [2, 2], [2, 2], [2, 2], [1, 1], [1, 1], [1, 1], [1, 1], [1, 1], [1, 1], [1, 1], [1, 1], [1, 1], [1, 1]], \"feat_stride\": 16, \"num_classes\": 1, \"anchor_scales\": [2.5, 3.025, 3.66025, 4.4289024999999995, 5.358972025, 6.484356150249999, 7.846070941802498, 9.493745839581022, 11.487432465893036, 13.899793283730574, 16.818749873313998, 20.350687346709933, 24.62433168951902, 29.795441344318014], \"square_targets\": true, \"name\": \"rpn_big\", \"batchsize\": 256, \"anchor_ratios\": [1.0]}"
    }
  }
  layer {
    name: "roi-data"
    type: "Python"
    bottom: "rpn_rois"
    bottom: "input_gt_boxes"
    top: "rois"
    top: "labels"
    top: "bbox_targets"
    top: "bbox_inside_weights"
    top: "bbox_outside_weights"
    top: "pid_label"
    python_param {
      module: "rpn.proposal_target_layer"
      layer: "ProposalTargetLayer"
      param_str: "{\"num_classes\": 2, \"bg_aux_label\": 5532}"
    }
  }
  layer {
    name: "roi-pool"
    type: "ROIPooling"
    bottom: "conv5_3"
    bottom: "rois"
    top: "roi-pool"
    roi_pooling_param {
      pooled_h: 7
      pooled_w: 7
      spatial_scale: 0.0625
    }
  }
  layer {
    name: "fc6"
    type: "InnerProduct"
    bottom: "roi-pool"
    top: "fc6"
    param {
      lr_mult: 1
    }
    param {
      lr_mult: 2
    }
    inner_product_param {
      num_output: 4096
    }
  }
  layer {
    name: "relu6"
    type: "ReLu"
    bottom: "fc6"
    top: "fc6"
  }
  layer {
    name: "drop6"
    type: "Dropout"
    bottom: "fc6"
    top: "fc6"
    dropout_param {
      dropout_ratio: 0.5
    }
  }
}
average_loss: 100
stepvalue: 70000
stepvalue: 120000
iter_size: 2
I0413 18:04:06.872814 11609 solver.cpp:86] Creating training net specified in net_param.
I0413 18:04:06.873482 11609 net.cpp:58] Initializing net from parameters: 
name: "GeneratedModel_13_04_2017_18_04"
state {
  phase: TRAIN
}
layer {
  name: "input"
  type: "Python"
  top: "input_data"
  top: "input_im_info"
  top: "input_gt_boxes"
  top: "input_ignored_boxes"
  python_param {
    module: "layers.roi_data_layer"
    layer: "RoIDataLayer"
    param_str: "{\"num_classes\": 2}"
  }
}
layer {
  name: "conv1_1"
  type: "Convolution"
  bottom: "input_data"
  top: "conv1_1"
  param {
    lr_mult: 0
    decay_mult: 0
  }
  param {
    lr_mult: 0
    decay_mult: 0
  }
  convolution_param {
    num_output: 64
    pad: 1
    kernel_size: 3
  }
}
layer {
  name: "relu1_1"
  type: "ReLU"
  bottom: "conv1_1"
  top: "conv1_1"
}
layer {
  name: "conv1_2"
  type: "Convolution"
  bottom: "conv1_1"
  top: "conv1_2"
  param {
    lr_mult: 0
    decay_mult: 0
  }
  param {
    lr_mult: 0
    decay_mult: 0
  }
  convolution_param {
    num_output: 64
    pad: 1
    kernel_size: 3
  }
}
layer {
  name: "relu1_2"
  type: "ReLU"
  bottom: "conv1_2"
  top: "conv1_2"
}
layer {
  name: "pool1"
  type: "Pooling"
  bottom: "conv1_2"
  top: "pool1"
  pooling_param {
    pool: MAX
    kernel_size: 2
    stride: 2
  }
}
layer {
  name: "conv2_1"
  type: "Convolution"
  bottom: "pool1"
  top: "conv2_1"
  param {
    lr_mult: 0
    decay_mult: 0
  }
  param {
    lr_mult: 0
    decay_mult: 0
  }
  convolution_param {
    num_output: 128
    pad: 1
    kernel_size: 3
  }
}
layer {
  name: "relu2_1"
  type: "ReLU"
  bottom: "conv2_1"
  top: "conv2_1"
}
layer {
  name: "conv2_2"
  type: "Convolution"
  bottom: "conv2_1"
  top: "conv2_2"
  param {
    lr_mult: 0
    decay_mult: 0
  }
  param {
    lr_mult: 0
    decay_mult: 0
  }
  convolution_param {
    num_output: 128
    pad: 1
    kernel_size: 3
  }
}
layer {
  name: "relu2_2"
  type: "ReLU"
  bottom: "conv2_2"
  top: "conv2_2"
}
layer {
  name: "pool2"
  type: "Pooling"
  bottom: "conv2_2"
  top: "pool2"
  pooling_param {
    pool: MAX
    kernel_size: 2
    stride: 2
  }
}
layer {
  name: "conv3_1"
  type: "Convolution"
  bottom: "pool2"
  top: "conv3_1"
  param {
    lr_mult: 1
  }
  param {
    lr_mult: 2
  }
  convolution_param {
    num_output: 256
    pad: 1
    kernel_size: 3
  }
}
layer {
  name: "relu3_1"
  type: "ReLU"
  bottom: "conv3_1"
  top: "conv3_1"
}
layer {
  name: "conv3_2"
  type: "Convolution"
  bottom: "conv3_1"
  top: "conv3_2"
  param {
    lr_mult: 1
  }
  param {
    lr_mult: 2
  }
  convolution_param {
    num_output: 256
    pad: 1
    kernel_size: 3
  }
}
layer {
  name: "relu3_2"
  type: "ReLU"
  bottom: "conv3_2"
  top: "conv3_2"
}
layer {
  name: "conv3_3"
  type: "Convolution"
  bottom: "conv3_2"
  top: "conv3_3"
  param {
    lr_mult: 1
  }
  param {
    lr_mult: 2
  }
  convolution_param {
    num_output: 256
    pad: 1
    kernel_size: 3
  }
}
layer {
  name: "relu3_3"
  type: "ReLU"
  bottom: "conv3_3"
  top: "conv3_3"
}
layer {
  name: "pool3"
  type: "Pooling"
  bottom: "conv3_3"
  top: "pool3"
  pooling_param {
    pool: MAX
    kernel_size: 2
    stride: 2
  }
}
layer {
  name: "conv4_1"
  type: "Convolution"
  bottom: "pool3"
  top: "conv4_1"
  param {
    lr_mult: 1
  }
  param {
    lr_mult: 2
  }
  convolution_param {
    num_output: 512
    pad: 1
    kernel_size: 3
  }
}
layer {
  name: "relu4_1"
  type: "ReLU"
  bottom: "conv4_1"
  top: "conv4_1"
}
layer {
  name: "conv4_2"
  type: "Convolution"
  bottom: "conv4_1"
  top: "conv4_2"
  param {
    lr_mult: 1
  }
  param {
    lr_mult: 2
  }
  convolution_param {
    num_output: 512
    pad: 1
    kernel_size: 3
  }
}
layer {
  name: "relu4_2"
  type: "ReLU"
  bottom: "conv4_2"
  top: "conv4_2"
}
layer {
  name: "conv4_3"
  type: "Convolution"
  bottom: "conv4_2"
  top: "conv4_3"
  param {
    lr_mult: 1
  }
  param {
    lr_mult: 2
  }
  convolution_param {
    num_output: 512
    pad: 1
    kernel_size: 3
  }
}
layer {
  name: "relu4_3"
  type: "ReLU"
  bottom: "conv4_3"
  top: "conv4_3"
}
layer {
  name: "pool4"
  type: "Pooling"
  bottom: "conv4_3"
  top: "pool4"
  pooling_param {
    pool: MAX
    kernel_size: 2
    stride: 2
  }
}
layer {
  name: "conv5_1"
  type: "Convolution"
  bottom: "pool4"
  top: "conv5_1"
  param {
    lr_mult: 1
  }
  param {
    lr_mult: 2
  }
  convolution_param {
    num_output: 512
    pad: 1
    kernel_size: 3
  }
}
layer {
  name: "relu5_1"
  type: "ReLU"
  bottom: "conv5_1"
  top: "conv5_1"
}
layer {
  name: "conv5_2"
  type: "Convolution"
  bottom: "conv5_1"
  top: "conv5_2"
  param {
    lr_mult: 1
  }
  param {
    lr_mult: 2
  }
  convolution_param {
    num_output: 512
    pad: 1
    kernel_size: 3
  }
}
layer {
  name: "relu5_2"
  type: "ReLU"
  bottom: "conv5_2"
  top: "conv5_2"
}
layer {
  name: "conv5_3"
  type: "Convolution"
  bottom: "conv5_2"
  top: "conv5_3"
  param {
    lr_mult: 1
  }
  param {
    lr_mult: 2
  }
  convolution_param {
    num_output: 512
    pad: 1
    kernel_size: 3
  }
}
layer {
  name: "relu5_3"
  type: "ReLU"
  bottom: "conv5_3"
  top: "conv5_3"
}
layer {
  name: "rpn_big_conv1"
  type: "Convolution"
  bottom: "conv5_3"
  top: "rpn_big_conv1"
  param {
    lr_mult: 1
  }
  param {
    lr_mult: 2
  }
  convolution_param {
    num_output: 512
    pad: 1
    kernel_size: 3
    stride: 1
    weight_filler {
      type: "gaussian"
      mean: 0
      std: 0.01
    }
    bias_filler {
      type: "constant"
    }
  }
}
layer {
  name: "rpn_big_conv1_relu"
  type: "ReLU"
  bottom: "rpn_big_conv1"
  top: "rpn_big_conv1"
  relu_param {
    negative_slope: 0
  }
}
layer {
  name: "rpn_big_conv2"
  type: "Convolution"
  bottom: "rpn_big_conv1"
  top: "rpn_big_conv2"
  param {
    lr_mult: 1
  }
  param {
    lr_mult: 2
  }
  convolution_param {
    num_output: 512
    pad: 1
    kernel_size: 3
    stride: 1
    weight_filler {
      type: "gaussian"
      mean: 0
      std: 0.01
    }
    bias_filler {
      type: "constant"
    }
  }
}
layer {
  name: "rpn_big_conv2_relu"
  type: "ReLU"
  bottom: "rpn_big_conv2"
  top: "rpn_big_conv2"
  relu_param {
    negative_slope: 0
  }
}
layer {
  name: "rpn_big_conv2_drop"
  type: "Dropout"
  bottom: "rpn_big_conv2"
  top: "rpn_big_conv2"
  dropout_param {
    dropout_ratio: 0.3
  }
}
layer {
  name: "rpn_big_output_cls"
  type: "Convolution"
  bottom: "rpn_big_conv2"
  top: "rpn_big_output_cls"
  param {
    lr_mult: 1
  }
  param {
    lr_mult: 2
  }
  convolution_param {
    num_output: 384
    pad: 1
    kernel_size: 3
    stride: 1
    weight_filler {
      type: "gaussian"
      mean: 0
      std: 0.01
    }
    bias_filler {
      type: "constant"
    }
  }
}
layer {
  name: "rpn_big_output_cls_relu"
  type: "ReLU"
  bottom: "rpn_big_output_cls"
  top: "rpn_big_output_cls"
  relu_param {
    negative_slope: 0
  }
}
layer {
  name: "rpn_big_cls_score"
  type: "Convolution"
  bottom: "rpn_big_output_cls"
  top: "rpn_big_cls_score"
  param {
    lr_mult: 1
  }
  param {
    lr_mult: 2
  }
  convolution_param {
    num_output: 52
    pad: 0
    kernel_size: 3
    stride: 1
    weight_filler {
      type: "gaussian"
      mean: 0
      std: 0.01
    }
    bias_filler {
      type: "constant"
    }
  }
}
layer {
  name: "rpn_big_cls_score_reshape"
  type: "Reshape"
  bottom: "rpn_big_cls_score"
  top: "rpn_big_cls_score_reshape"
  reshape_param {
    shape {
      dim: 0
      dim: 2
      dim: -1
      dim: 0
    }
  }
}
layer {
  name: "rpn_big_cls_prob"
  type: "Softmax"
  bottom: "rpn_big_cls_score_reshape"
  top: "rpn_big_cls_prob"
}
layer {
  name: "rpn_big_cls_prob_reshape"
  type: "Reshape"
  bottom: "rpn_big_cls_prob"
  top: "rpn_big_cls_prob_reshape"
  reshape_param {
    shape {
      dim: 0
      dim: 52
      dim: -1
      dim: 0
    }
  }
}
layer {
  name: "rpn_big_anchor_target"
  type: "Python"
  bottom: "rpn_big_cls_score"
  bottom: "input_gt_boxes"
  bottom: "input_ignored_boxes"
  bottom: "input_im_info"
  bottom: "input_data"
  bottom: "rpn_big_cls_prob_reshape"
  top: "rpn_big_anchor_target_labels"
  top: "rpn_big_anchor_target_bbox_targets"
  top: "rpn_big_anchor_target_inside_weights"
  top: "rpn_big_anchor_target_outside_weights"
  python_param {
    module: "rpn.anchor_target_layer"
    layer: "AnchorTargetLayer"
    param_str: "{\"num_classes\": 1, \"feat_stride\": 16, \"name\": \"rpn_big\", \"anchor_scales\": [2.5, 3.025, 3.66025, 4.4289024999999995, 5.358972025, 6.484356150249999, 7.846070941802498, 9.493745839581022, 11.487432465893036, 13.899793283730574, 16.818749873313998, 20.350687346709933, 24.62433168951902, 29.795441344318014], \"anchor_ratios\": [1.0], \"fg_fraction\": 0.5, \"square_targets\": true, \"negative_overlap\": 0.4, \"positive_overlap\": 0.6, \"anchor_shift_num_xy\": [[2, 2], [2, 2], [2, 2], [2, 2], [1, 1], [1, 1], [1, 1], [1, 1], [1, 1], [1, 1], [1, 1], [1, 1], [1, 1], [1, 1]], \"batchsize\": 256, \"tn_fraction\": 0.2}"
  }
}
layer {
  name: "rpn_big_loss_cls"
  type: "SoftmaxWithLoss"
  bottom: "rpn_big_cls_score_reshape"
  bottom: "rpn_big_anchor_target_labels"
  top: "rpn_big_loss_cls"
  loss_weight: 1
  propagate_down: true
  propagate_down: false
  loss_param {
    ignore_label: -1
    normalization: VALID
  }
}
layer {
  name: "rpn_big_output_box"
  type: "Convolution"
  bottom: "rpn_big_conv2"
  top: "rpn_big_output_box"
  param {
    lr_mult: 1
  }
  param {
    lr_mult: 2
  }
  convolution_param {
    num_output: 384
    pad: 1
    kernel_size: 3
    stride: 1
    weight_filler {
      type: "gaussian"
      mean: 0
      std: 0.01
    }
    bias_filler {
      type: "constant"
    }
  }
}
layer {
  name: "rpn_big_output_box_relu"
  type: "ReLU"
  bottom: "rpn_big_output_box"
  top: "rpn_big_output_box"
  relu_param {
    negative_slope: 0
  }
}
layer {
  name: "rpn_big_bbox_pred"
  type: "Convolution"
  bottom: "rpn_big_output_box"
  top: "rpn_big_bbox_pred"
  param {
    lr_mult: 1
  }
  param {
    lr_mult: 2
  }
  convolution_param {
    num_output: 104
    pad: 0
    kernel_size: 3
    stride: 1
    weight_filler {
      type: "gaussian"
      mean: 0
      std: 0.01
    }
    bias_filler {
      type: "constant"
    }
  }
}
layer {
  name: "rpn_big_loss_bbox"
  type: "Python"
  bottom: "rpn_big_bbox_pred"
  bottom: "rpn_big_anchor_target_bbox_targets"
  bottom: "rpn_big_anchor_target_inside_weights"
  bottom: "rpn_big_anchor_target_outside_weights"
  top: "rpn_big_loss_bbox"
  loss_weight: 1
  python_param {
    module: "layers.smooth_l1_loss"
    layer: "SmoothL1LossLayer"
    param_str: "{\"sigma\": 3}"
  }
}
layer {
  name: "proposal"
  type: "Python"
  bottom: "rpn_big_cls_prob_reshape"
  bottom: "rpn_big_bbox_pred"
  bottom: "input_im_info"
  top: "rpn_rois"
  python_param {
    module: "rpn.proposal_layer"
    layer: "ProposalLayer"
    param_str: "{\"anchor_shift_num_xy\": [[2, 2], [2, 2], [2, 2], [2, 2], [1, 1], [1, 1], [1, 1], [1, 1], [1, 1], [1, 1], [1, 1], [1, 1], [1, 1], [1, 1]], \"feat_stride\": 16, \"num_classes\": 1, \"anchor_scales\": [2.5, 3.025, 3.66025, 4.4289024999999995, 5.358972025, 6.484356150249999, 7.846070941802498, 9.493745839581022, 11.487432465893036, 13.899793283730574, 16.818749873313998, 20.350687346709933, 24.62433168951902, 29.795441344318014], \"square_targets\": true, \"name\": \"rpn_big\", \"batchsize\": 256, \"anchor_ratios\": [1.0]}"
  }
}
layer {
  name: "roi-data"
  type: "Python"
  bottom: "rpn_rois"
  bottom: "input_gt_boxes"
  top: "rois"
  top: "labels"
  top: "bbox_targets"
  top: "bbox_inside_weights"
  top: "bbox_outside_weights"
  top: "pid_label"
  python_param {
    module: "rpn.proposal_target_layer"
    layer: "ProposalTargetLayer"
    param_str: "{\"num_classes\": 2, \"bg_aux_label\": 5532}"
  }
}
layer {
  name: "roi-pool"
  type: "ROIPooling"
  bottom: "conv5_3"
  bottom: "rois"
  top: "roi-pool"
  roi_pooling_param {
    pooled_h: 7
    pooled_w: 7
    spatial_scale: 0.0625
  }
}
layer {
  name: "fc6"
  type: "InnerProduct"
  bottom: "roi-pool"
  top: "fc6"
  param {
    lr_mult: 1
  }
  param {
    lr_mult: 2
  }
  inner_product_param {
    num_output: 4096
  }
}
layer {
  name: "relu6"
  type: "ReLu"
  bottom: "fc6"
  top: "fc6"
}
layer {
  name: "drop6"
  type: "Dropout"
  bottom: "fc6"
  top: "fc6"
  dropout_param {
    dropout_ratio: 0.5
  }
}
I0413 18:04:06.873824 11609 layer_factory.hpp:77] Creating layer input
I0413 18:04:06.875587 11609 net.cpp:100] Creating Layer input
I0413 18:04:06.875607 11609 net.cpp:408] input -> input_data
I0413 18:04:06.875623 11609 net.cpp:408] input -> input_im_info
I0413 18:04:06.875634 11609 net.cpp:408] input -> input_gt_boxes
I0413 18:04:06.875645 11609 net.cpp:408] input -> input_ignored_boxes
RoiDataLayer: name_to_top: {'ignored_boxes': 3, 'data': 0, 'gt_boxes': 2, 'im_info': 1}
I0413 18:04:07.189288 11609 net.cpp:150] Setting up input
I0413 18:04:07.189316 11609 net.cpp:157] Top shape: 1 3 1000 1500 (4500000)
I0413 18:04:07.189321 11609 net.cpp:157] Top shape: 1 3 (3)
I0413 18:04:07.189326 11609 net.cpp:157] Top shape: 1 5 (5)
I0413 18:04:07.189329 11609 net.cpp:157] Top shape: 1 5 (5)
I0413 18:04:07.189332 11609 net.cpp:165] Memory required for data: 18000052
I0413 18:04:07.189338 11609 layer_factory.hpp:77] Creating layer input_data_input_0_split
I0413 18:04:07.189350 11609 net.cpp:100] Creating Layer input_data_input_0_split
I0413 18:04:07.189365 11609 net.cpp:434] input_data_input_0_split <- input_data
I0413 18:04:07.189373 11609 net.cpp:408] input_data_input_0_split -> input_data_input_0_split_0
I0413 18:04:07.189385 11609 net.cpp:408] input_data_input_0_split -> input_data_input_0_split_1
I0413 18:04:07.189424 11609 net.cpp:150] Setting up input_data_input_0_split
I0413 18:04:07.189432 11609 net.cpp:157] Top shape: 1 3 1000 1500 (4500000)
I0413 18:04:07.189437 11609 net.cpp:157] Top shape: 1 3 1000 1500 (4500000)
I0413 18:04:07.189440 11609 net.cpp:165] Memory required for data: 54000052
I0413 18:04:07.189443 11609 layer_factory.hpp:77] Creating layer input_im_info_input_1_split
I0413 18:04:07.189450 11609 net.cpp:100] Creating Layer input_im_info_input_1_split
I0413 18:04:07.189452 11609 net.cpp:434] input_im_info_input_1_split <- input_im_info
I0413 18:04:07.189457 11609 net.cpp:408] input_im_info_input_1_split -> input_im_info_input_1_split_0
I0413 18:04:07.189463 11609 net.cpp:408] input_im_info_input_1_split -> input_im_info_input_1_split_1
I0413 18:04:07.189488 11609 net.cpp:150] Setting up input_im_info_input_1_split
I0413 18:04:07.189494 11609 net.cpp:157] Top shape: 1 3 (3)
I0413 18:04:07.189498 11609 net.cpp:157] Top shape: 1 3 (3)
I0413 18:04:07.189502 11609 net.cpp:165] Memory required for data: 54000076
I0413 18:04:07.189504 11609 layer_factory.hpp:77] Creating layer input_gt_boxes_input_2_split
I0413 18:04:07.189509 11609 net.cpp:100] Creating Layer input_gt_boxes_input_2_split
I0413 18:04:07.189512 11609 net.cpp:434] input_gt_boxes_input_2_split <- input_gt_boxes
I0413 18:04:07.189517 11609 net.cpp:408] input_gt_boxes_input_2_split -> input_gt_boxes_input_2_split_0
I0413 18:04:07.189524 11609 net.cpp:408] input_gt_boxes_input_2_split -> input_gt_boxes_input_2_split_1
I0413 18:04:07.189548 11609 net.cpp:150] Setting up input_gt_boxes_input_2_split
I0413 18:04:07.189554 11609 net.cpp:157] Top shape: 1 5 (5)
I0413 18:04:07.189558 11609 net.cpp:157] Top shape: 1 5 (5)
I0413 18:04:07.189560 11609 net.cpp:165] Memory required for data: 54000116
I0413 18:04:07.189564 11609 layer_factory.hpp:77] Creating layer conv1_1
I0413 18:04:07.189574 11609 net.cpp:100] Creating Layer conv1_1
I0413 18:04:07.189580 11609 net.cpp:434] conv1_1 <- input_data_input_0_split_0
I0413 18:04:07.189586 11609 net.cpp:408] conv1_1 -> conv1_1
I0413 18:04:07.192672 11609 net.cpp:150] Setting up conv1_1
I0413 18:04:07.192710 11609 net.cpp:157] Top shape: 1 64 1000 1500 (96000000)
I0413 18:04:07.192714 11609 net.cpp:165] Memory required for data: 438000116
I0413 18:04:07.192734 11609 layer_factory.hpp:77] Creating layer relu1_1
I0413 18:04:07.192744 11609 net.cpp:100] Creating Layer relu1_1
I0413 18:04:07.192749 11609 net.cpp:434] relu1_1 <- conv1_1
I0413 18:04:07.192759 11609 net.cpp:395] relu1_1 -> conv1_1 (in-place)
I0413 18:04:07.192771 11609 net.cpp:150] Setting up relu1_1
I0413 18:04:07.192775 11609 net.cpp:157] Top shape: 1 64 1000 1500 (96000000)
I0413 18:04:07.192778 11609 net.cpp:165] Memory required for data: 822000116
I0413 18:04:07.192781 11609 layer_factory.hpp:77] Creating layer conv1_2
I0413 18:04:07.192790 11609 net.cpp:100] Creating Layer conv1_2
I0413 18:04:07.192793 11609 net.cpp:434] conv1_2 <- conv1_1
I0413 18:04:07.192800 11609 net.cpp:408] conv1_2 -> conv1_2
I0413 18:04:07.198369 11609 net.cpp:150] Setting up conv1_2
I0413 18:04:07.198413 11609 net.cpp:157] Top shape: 1 64 1000 1500 (96000000)
I0413 18:04:07.198418 11609 net.cpp:165] Memory required for data: 1206000116
I0413 18:04:07.198436 11609 layer_factory.hpp:77] Creating layer relu1_2
I0413 18:04:07.198448 11609 net.cpp:100] Creating Layer relu1_2
I0413 18:04:07.198454 11609 net.cpp:434] relu1_2 <- conv1_2
I0413 18:04:07.198462 11609 net.cpp:395] relu1_2 -> conv1_2 (in-place)
I0413 18:04:07.198473 11609 net.cpp:150] Setting up relu1_2
I0413 18:04:07.198478 11609 net.cpp:157] Top shape: 1 64 1000 1500 (96000000)
I0413 18:04:07.198482 11609 net.cpp:165] Memory required for data: 1590000116
I0413 18:04:07.198484 11609 layer_factory.hpp:77] Creating layer pool1
I0413 18:04:07.198494 11609 net.cpp:100] Creating Layer pool1
I0413 18:04:07.198499 11609 net.cpp:434] pool1 <- conv1_2
I0413 18:04:07.198504 11609 net.cpp:408] pool1 -> pool1
I0413 18:04:07.198578 11609 net.cpp:150] Setting up pool1
I0413 18:04:07.198585 11609 net.cpp:157] Top shape: 1 64 500 750 (24000000)
I0413 18:04:07.198590 11609 net.cpp:165] Memory required for data: 1686000116
I0413 18:04:07.198592 11609 layer_factory.hpp:77] Creating layer conv2_1
I0413 18:04:07.198602 11609 net.cpp:100] Creating Layer conv2_1
I0413 18:04:07.198607 11609 net.cpp:434] conv2_1 <- pool1
I0413 18:04:07.198612 11609 net.cpp:408] conv2_1 -> conv2_1
I0413 18:04:07.200268 11609 net.cpp:150] Setting up conv2_1
I0413 18:04:07.200299 11609 net.cpp:157] Top shape: 1 128 500 750 (48000000)
I0413 18:04:07.200302 11609 net.cpp:165] Memory required for data: 1878000116
I0413 18:04:07.200318 11609 layer_factory.hpp:77] Creating layer relu2_1
I0413 18:04:07.200328 11609 net.cpp:100] Creating Layer relu2_1
I0413 18:04:07.200333 11609 net.cpp:434] relu2_1 <- conv2_1
I0413 18:04:07.200340 11609 net.cpp:395] relu2_1 -> conv2_1 (in-place)
I0413 18:04:07.200350 11609 net.cpp:150] Setting up relu2_1
I0413 18:04:07.200354 11609 net.cpp:157] Top shape: 1 128 500 750 (48000000)
I0413 18:04:07.200357 11609 net.cpp:165] Memory required for data: 2070000116
I0413 18:04:07.200361 11609 layer_factory.hpp:77] Creating layer conv2_2
I0413 18:04:07.200371 11609 net.cpp:100] Creating Layer conv2_2
I0413 18:04:07.200373 11609 net.cpp:434] conv2_2 <- conv2_1
I0413 18:04:07.200379 11609 net.cpp:408] conv2_2 -> conv2_2
I0413 18:04:07.201366 11609 net.cpp:150] Setting up conv2_2
I0413 18:04:07.201392 11609 net.cpp:157] Top shape: 1 128 500 750 (48000000)
I0413 18:04:07.201395 11609 net.cpp:165] Memory required for data: 2262000116
I0413 18:04:07.201406 11609 layer_factory.hpp:77] Creating layer relu2_2
I0413 18:04:07.201414 11609 net.cpp:100] Creating Layer relu2_2
I0413 18:04:07.201419 11609 net.cpp:434] relu2_2 <- conv2_2
I0413 18:04:07.201427 11609 net.cpp:395] relu2_2 -> conv2_2 (in-place)
I0413 18:04:07.201436 11609 net.cpp:150] Setting up relu2_2
I0413 18:04:07.201441 11609 net.cpp:157] Top shape: 1 128 500 750 (48000000)
I0413 18:04:07.201443 11609 net.cpp:165] Memory required for data: 2454000116
I0413 18:04:07.201447 11609 layer_factory.hpp:77] Creating layer pool2
I0413 18:04:07.201452 11609 net.cpp:100] Creating Layer pool2
I0413 18:04:07.201455 11609 net.cpp:434] pool2 <- conv2_2
I0413 18:04:07.201462 11609 net.cpp:408] pool2 -> pool2
I0413 18:04:07.201508 11609 net.cpp:150] Setting up pool2
I0413 18:04:07.201517 11609 net.cpp:157] Top shape: 1 128 250 375 (12000000)
I0413 18:04:07.201520 11609 net.cpp:165] Memory required for data: 2502000116
I0413 18:04:07.201524 11609 layer_factory.hpp:77] Creating layer conv3_1
I0413 18:04:07.201532 11609 net.cpp:100] Creating Layer conv3_1
I0413 18:04:07.201536 11609 net.cpp:434] conv3_1 <- pool2
I0413 18:04:07.201542 11609 net.cpp:408] conv3_1 -> conv3_1
I0413 18:04:07.202625 11609 net.cpp:150] Setting up conv3_1
I0413 18:04:07.202652 11609 net.cpp:157] Top shape: 1 256 250 375 (24000000)
I0413 18:04:07.202666 11609 net.cpp:165] Memory required for data: 2598000116
I0413 18:04:07.202678 11609 layer_factory.hpp:77] Creating layer relu3_1
I0413 18:04:07.202687 11609 net.cpp:100] Creating Layer relu3_1
I0413 18:04:07.202692 11609 net.cpp:434] relu3_1 <- conv3_1
I0413 18:04:07.202698 11609 net.cpp:395] relu3_1 -> conv3_1 (in-place)
I0413 18:04:07.202708 11609 net.cpp:150] Setting up relu3_1
I0413 18:04:07.202713 11609 net.cpp:157] Top shape: 1 256 250 375 (24000000)
I0413 18:04:07.202715 11609 net.cpp:165] Memory required for data: 2694000116
I0413 18:04:07.202718 11609 layer_factory.hpp:77] Creating layer conv3_2
I0413 18:04:07.202729 11609 net.cpp:100] Creating Layer conv3_2
I0413 18:04:07.202739 11609 net.cpp:434] conv3_2 <- conv3_1
I0413 18:04:07.202745 11609 net.cpp:408] conv3_2 -> conv3_2
I0413 18:04:07.203910 11609 net.cpp:150] Setting up conv3_2
I0413 18:04:07.203936 11609 net.cpp:157] Top shape: 1 256 250 375 (24000000)
I0413 18:04:07.203939 11609 net.cpp:165] Memory required for data: 2790000116
I0413 18:04:07.203958 11609 layer_factory.hpp:77] Creating layer relu3_2
I0413 18:04:07.203966 11609 net.cpp:100] Creating Layer relu3_2
I0413 18:04:07.203971 11609 net.cpp:434] relu3_2 <- conv3_2
I0413 18:04:07.203979 11609 net.cpp:395] relu3_2 -> conv3_2 (in-place)
I0413 18:04:07.203989 11609 net.cpp:150] Setting up relu3_2
I0413 18:04:07.203994 11609 net.cpp:157] Top shape: 1 256 250 375 (24000000)
I0413 18:04:07.203996 11609 net.cpp:165] Memory required for data: 2886000116
I0413 18:04:07.203999 11609 layer_factory.hpp:77] Creating layer conv3_3
I0413 18:04:07.204008 11609 net.cpp:100] Creating Layer conv3_3
I0413 18:04:07.204011 11609 net.cpp:434] conv3_3 <- conv3_2
I0413 18:04:07.204017 11609 net.cpp:408] conv3_3 -> conv3_3
I0413 18:04:07.205574 11609 net.cpp:150] Setting up conv3_3
I0413 18:04:07.205600 11609 net.cpp:157] Top shape: 1 256 250 375 (24000000)
I0413 18:04:07.205613 11609 net.cpp:165] Memory required for data: 2982000116
I0413 18:04:07.205623 11609 layer_factory.hpp:77] Creating layer relu3_3
I0413 18:04:07.205632 11609 net.cpp:100] Creating Layer relu3_3
I0413 18:04:07.205636 11609 net.cpp:434] relu3_3 <- conv3_3
I0413 18:04:07.205644 11609 net.cpp:395] relu3_3 -> conv3_3 (in-place)
I0413 18:04:07.205654 11609 net.cpp:150] Setting up relu3_3
I0413 18:04:07.205659 11609 net.cpp:157] Top shape: 1 256 250 375 (24000000)
I0413 18:04:07.205662 11609 net.cpp:165] Memory required for data: 3078000116
I0413 18:04:07.205665 11609 layer_factory.hpp:77] Creating layer pool3
I0413 18:04:07.205672 11609 net.cpp:100] Creating Layer pool3
I0413 18:04:07.205675 11609 net.cpp:434] pool3 <- conv3_3
I0413 18:04:07.205680 11609 net.cpp:408] pool3 -> pool3
I0413 18:04:07.205723 11609 net.cpp:150] Setting up pool3
I0413 18:04:07.205731 11609 net.cpp:157] Top shape: 1 256 125 188 (6016000)
I0413 18:04:07.205734 11609 net.cpp:165] Memory required for data: 3102064116
I0413 18:04:07.205737 11609 layer_factory.hpp:77] Creating layer conv4_1
I0413 18:04:07.205745 11609 net.cpp:100] Creating Layer conv4_1
I0413 18:04:07.205751 11609 net.cpp:434] conv4_1 <- pool3
I0413 18:04:07.205757 11609 net.cpp:408] conv4_1 -> conv4_1
I0413 18:04:07.208308 11609 net.cpp:150] Setting up conv4_1
I0413 18:04:07.208338 11609 net.cpp:157] Top shape: 1 512 125 188 (12032000)
I0413 18:04:07.208350 11609 net.cpp:165] Memory required for data: 3150192116
I0413 18:04:07.208361 11609 layer_factory.hpp:77] Creating layer relu4_1
I0413 18:04:07.208372 11609 net.cpp:100] Creating Layer relu4_1
I0413 18:04:07.208377 11609 net.cpp:434] relu4_1 <- conv4_1
I0413 18:04:07.208384 11609 net.cpp:395] relu4_1 -> conv4_1 (in-place)
I0413 18:04:07.208395 11609 net.cpp:150] Setting up relu4_1
I0413 18:04:07.208400 11609 net.cpp:157] Top shape: 1 512 125 188 (12032000)
I0413 18:04:07.208402 11609 net.cpp:165] Memory required for data: 3198320116
I0413 18:04:07.208405 11609 layer_factory.hpp:77] Creating layer conv4_2
I0413 18:04:07.208415 11609 net.cpp:100] Creating Layer conv4_2
I0413 18:04:07.208417 11609 net.cpp:434] conv4_2 <- conv4_1
I0413 18:04:07.208425 11609 net.cpp:408] conv4_2 -> conv4_2
I0413 18:04:07.212585 11609 net.cpp:150] Setting up conv4_2
I0413 18:04:07.212620 11609 net.cpp:157] Top shape: 1 512 125 188 (12032000)
I0413 18:04:07.212632 11609 net.cpp:165] Memory required for data: 3246448116
I0413 18:04:07.212649 11609 layer_factory.hpp:77] Creating layer relu4_2
I0413 18:04:07.212659 11609 net.cpp:100] Creating Layer relu4_2
I0413 18:04:07.212664 11609 net.cpp:434] relu4_2 <- conv4_2
I0413 18:04:07.212672 11609 net.cpp:395] relu4_2 -> conv4_2 (in-place)
I0413 18:04:07.212682 11609 net.cpp:150] Setting up relu4_2
I0413 18:04:07.212687 11609 net.cpp:157] Top shape: 1 512 125 188 (12032000)
I0413 18:04:07.212690 11609 net.cpp:165] Memory required for data: 3294576116
I0413 18:04:07.212693 11609 layer_factory.hpp:77] Creating layer conv4_3
I0413 18:04:07.212702 11609 net.cpp:100] Creating Layer conv4_3
I0413 18:04:07.212705 11609 net.cpp:434] conv4_3 <- conv4_2
I0413 18:04:07.212712 11609 net.cpp:408] conv4_3 -> conv4_3
I0413 18:04:07.217145 11609 net.cpp:150] Setting up conv4_3
I0413 18:04:07.217198 11609 net.cpp:157] Top shape: 1 512 125 188 (12032000)
I0413 18:04:07.217206 11609 net.cpp:165] Memory required for data: 3342704116
I0413 18:04:07.217223 11609 layer_factory.hpp:77] Creating layer relu4_3
I0413 18:04:07.217237 11609 net.cpp:100] Creating Layer relu4_3
I0413 18:04:07.217245 11609 net.cpp:434] relu4_3 <- conv4_3
I0413 18:04:07.217257 11609 net.cpp:395] relu4_3 -> conv4_3 (in-place)
I0413 18:04:07.217272 11609 net.cpp:150] Setting up relu4_3
I0413 18:04:07.217280 11609 net.cpp:157] Top shape: 1 512 125 188 (12032000)
I0413 18:04:07.217285 11609 net.cpp:165] Memory required for data: 3390832116
I0413 18:04:07.217293 11609 layer_factory.hpp:77] Creating layer pool4
I0413 18:04:07.217305 11609 net.cpp:100] Creating Layer pool4
I0413 18:04:07.217322 11609 net.cpp:434] pool4 <- conv4_3
I0413 18:04:07.217334 11609 net.cpp:408] pool4 -> pool4
I0413 18:04:07.217391 11609 net.cpp:150] Setting up pool4
I0413 18:04:07.217404 11609 net.cpp:157] Top shape: 1 512 63 94 (3032064)
I0413 18:04:07.217411 11609 net.cpp:165] Memory required for data: 3402960372
I0413 18:04:07.217417 11609 layer_factory.hpp:77] Creating layer conv5_1
I0413 18:04:07.217438 11609 net.cpp:100] Creating Layer conv5_1
I0413 18:04:07.217447 11609 net.cpp:434] conv5_1 <- pool4
I0413 18:04:07.217458 11609 net.cpp:408] conv5_1 -> conv5_1
I0413 18:04:07.222924 11609 net.cpp:150] Setting up conv5_1
I0413 18:04:07.222966 11609 net.cpp:157] Top shape: 1 512 63 94 (3032064)
I0413 18:04:07.222973 11609 net.cpp:165] Memory required for data: 3415088628
I0413 18:04:07.222990 11609 layer_factory.hpp:77] Creating layer relu5_1
I0413 18:04:07.223006 11609 net.cpp:100] Creating Layer relu5_1
I0413 18:04:07.223013 11609 net.cpp:434] relu5_1 <- conv5_1
I0413 18:04:07.223027 11609 net.cpp:395] relu5_1 -> conv5_1 (in-place)
I0413 18:04:07.223042 11609 net.cpp:150] Setting up relu5_1
I0413 18:04:07.223050 11609 net.cpp:157] Top shape: 1 512 63 94 (3032064)
I0413 18:04:07.223057 11609 net.cpp:165] Memory required for data: 3427216884
I0413 18:04:07.223062 11609 layer_factory.hpp:77] Creating layer conv5_2
I0413 18:04:07.223078 11609 net.cpp:100] Creating Layer conv5_2
I0413 18:04:07.223084 11609 net.cpp:434] conv5_2 <- conv5_1
I0413 18:04:07.223093 11609 net.cpp:408] conv5_2 -> conv5_2
I0413 18:04:07.227809 11609 net.cpp:150] Setting up conv5_2
I0413 18:04:07.227845 11609 net.cpp:157] Top shape: 1 512 63 94 (3032064)
I0413 18:04:07.227859 11609 net.cpp:165] Memory required for data: 3439345140
I0413 18:04:07.227869 11609 layer_factory.hpp:77] Creating layer relu5_2
I0413 18:04:07.227880 11609 net.cpp:100] Creating Layer relu5_2
I0413 18:04:07.227885 11609 net.cpp:434] relu5_2 <- conv5_2
I0413 18:04:07.227892 11609 net.cpp:395] relu5_2 -> conv5_2 (in-place)
I0413 18:04:07.227903 11609 net.cpp:150] Setting up relu5_2
I0413 18:04:07.227908 11609 net.cpp:157] Top shape: 1 512 63 94 (3032064)
I0413 18:04:07.227911 11609 net.cpp:165] Memory required for data: 3451473396
I0413 18:04:07.227915 11609 layer_factory.hpp:77] Creating layer conv5_3
I0413 18:04:07.227932 11609 net.cpp:100] Creating Layer conv5_3
I0413 18:04:07.227936 11609 net.cpp:434] conv5_3 <- conv5_2
I0413 18:04:07.227941 11609 net.cpp:408] conv5_3 -> conv5_3
I0413 18:04:07.232120 11609 net.cpp:150] Setting up conv5_3
I0413 18:04:07.232152 11609 net.cpp:157] Top shape: 1 512 63 94 (3032064)
I0413 18:04:07.232156 11609 net.cpp:165] Memory required for data: 3463601652
I0413 18:04:07.232167 11609 layer_factory.hpp:77] Creating layer relu5_3
I0413 18:04:07.232177 11609 net.cpp:100] Creating Layer relu5_3
I0413 18:04:07.232182 11609 net.cpp:434] relu5_3 <- conv5_3
I0413 18:04:07.232190 11609 net.cpp:395] relu5_3 -> conv5_3 (in-place)
I0413 18:04:07.232200 11609 net.cpp:150] Setting up relu5_3
I0413 18:04:07.232205 11609 net.cpp:157] Top shape: 1 512 63 94 (3032064)
I0413 18:04:07.232208 11609 net.cpp:165] Memory required for data: 3475729908
I0413 18:04:07.232211 11609 layer_factory.hpp:77] Creating layer conv5_3_relu5_3_0_split
I0413 18:04:07.232218 11609 net.cpp:100] Creating Layer conv5_3_relu5_3_0_split
I0413 18:04:07.232223 11609 net.cpp:434] conv5_3_relu5_3_0_split <- conv5_3
I0413 18:04:07.232228 11609 net.cpp:408] conv5_3_relu5_3_0_split -> conv5_3_relu5_3_0_split_0
I0413 18:04:07.232234 11609 net.cpp:408] conv5_3_relu5_3_0_split -> conv5_3_relu5_3_0_split_1
I0413 18:04:07.232266 11609 net.cpp:150] Setting up conv5_3_relu5_3_0_split
I0413 18:04:07.232282 11609 net.cpp:157] Top shape: 1 512 63 94 (3032064)
I0413 18:04:07.232286 11609 net.cpp:157] Top shape: 1 512 63 94 (3032064)
I0413 18:04:07.232290 11609 net.cpp:165] Memory required for data: 3499986420
I0413 18:04:07.232293 11609 layer_factory.hpp:77] Creating layer rpn_big_conv1
I0413 18:04:07.232306 11609 net.cpp:100] Creating Layer rpn_big_conv1
I0413 18:04:07.232309 11609 net.cpp:434] rpn_big_conv1 <- conv5_3_relu5_3_0_split_0
I0413 18:04:07.232317 11609 net.cpp:408] rpn_big_conv1 -> rpn_big_conv1
I0413 18:04:07.257155 11609 net.cpp:150] Setting up rpn_big_conv1
I0413 18:04:07.257189 11609 net.cpp:157] Top shape: 1 512 63 94 (3032064)
I0413 18:04:07.257201 11609 net.cpp:165] Memory required for data: 3512114676
I0413 18:04:07.257212 11609 layer_factory.hpp:77] Creating layer rpn_big_conv1_relu
I0413 18:04:07.257225 11609 net.cpp:100] Creating Layer rpn_big_conv1_relu
I0413 18:04:07.257230 11609 net.cpp:434] rpn_big_conv1_relu <- rpn_big_conv1
I0413 18:04:07.257239 11609 net.cpp:395] rpn_big_conv1_relu -> rpn_big_conv1 (in-place)
I0413 18:04:07.257251 11609 net.cpp:150] Setting up rpn_big_conv1_relu
I0413 18:04:07.257256 11609 net.cpp:157] Top shape: 1 512 63 94 (3032064)
I0413 18:04:07.257258 11609 net.cpp:165] Memory required for data: 3524242932
I0413 18:04:07.257261 11609 layer_factory.hpp:77] Creating layer rpn_big_conv2
I0413 18:04:07.257272 11609 net.cpp:100] Creating Layer rpn_big_conv2
I0413 18:04:07.257277 11609 net.cpp:434] rpn_big_conv2 <- rpn_big_conv1
I0413 18:04:07.257283 11609 net.cpp:408] rpn_big_conv2 -> rpn_big_conv2
I0413 18:04:07.282838 11609 net.cpp:150] Setting up rpn_big_conv2
I0413 18:04:07.282868 11609 net.cpp:157] Top shape: 1 512 63 94 (3032064)
I0413 18:04:07.282881 11609 net.cpp:165] Memory required for data: 3536371188
I0413 18:04:07.282892 11609 layer_factory.hpp:77] Creating layer rpn_big_conv2_relu
I0413 18:04:07.282902 11609 net.cpp:100] Creating Layer rpn_big_conv2_relu
I0413 18:04:07.282907 11609 net.cpp:434] rpn_big_conv2_relu <- rpn_big_conv2
I0413 18:04:07.282917 11609 net.cpp:395] rpn_big_conv2_relu -> rpn_big_conv2 (in-place)
I0413 18:04:07.282927 11609 net.cpp:150] Setting up rpn_big_conv2_relu
I0413 18:04:07.282932 11609 net.cpp:157] Top shape: 1 512 63 94 (3032064)
I0413 18:04:07.282935 11609 net.cpp:165] Memory required for data: 3548499444
I0413 18:04:07.282938 11609 layer_factory.hpp:77] Creating layer rpn_big_conv2_drop
I0413 18:04:07.282945 11609 net.cpp:100] Creating Layer rpn_big_conv2_drop
I0413 18:04:07.282948 11609 net.cpp:434] rpn_big_conv2_drop <- rpn_big_conv2
I0413 18:04:07.282953 11609 net.cpp:395] rpn_big_conv2_drop -> rpn_big_conv2 (in-place)
I0413 18:04:07.282977 11609 net.cpp:150] Setting up rpn_big_conv2_drop
I0413 18:04:07.282984 11609 net.cpp:157] Top shape: 1 512 63 94 (3032064)
I0413 18:04:07.282985 11609 net.cpp:165] Memory required for data: 3560627700
I0413 18:04:07.282989 11609 layer_factory.hpp:77] Creating layer rpn_big_conv2_rpn_big_conv2_drop_0_split
I0413 18:04:07.282997 11609 net.cpp:100] Creating Layer rpn_big_conv2_rpn_big_conv2_drop_0_split
I0413 18:04:07.283001 11609 net.cpp:434] rpn_big_conv2_rpn_big_conv2_drop_0_split <- rpn_big_conv2
I0413 18:04:07.283006 11609 net.cpp:408] rpn_big_conv2_rpn_big_conv2_drop_0_split -> rpn_big_conv2_rpn_big_conv2_drop_0_split_0
I0413 18:04:07.283013 11609 net.cpp:408] rpn_big_conv2_rpn_big_conv2_drop_0_split -> rpn_big_conv2_rpn_big_conv2_drop_0_split_1
I0413 18:04:07.283048 11609 net.cpp:150] Setting up rpn_big_conv2_rpn_big_conv2_drop_0_split
I0413 18:04:07.283056 11609 net.cpp:157] Top shape: 1 512 63 94 (3032064)
I0413 18:04:07.283061 11609 net.cpp:157] Top shape: 1 512 63 94 (3032064)
I0413 18:04:07.283064 11609 net.cpp:165] Memory required for data: 3584884212
I0413 18:04:07.283067 11609 layer_factory.hpp:77] Creating layer rpn_big_output_cls
I0413 18:04:07.283078 11609 net.cpp:100] Creating Layer rpn_big_output_cls
I0413 18:04:07.283082 11609 net.cpp:434] rpn_big_output_cls <- rpn_big_conv2_rpn_big_conv2_drop_0_split_0
I0413 18:04:07.283088 11609 net.cpp:408] rpn_big_output_cls -> rpn_big_output_cls
I0413 18:04:07.302109 11609 net.cpp:150] Setting up rpn_big_output_cls
I0413 18:04:07.302139 11609 net.cpp:157] Top shape: 1 384 63 94 (2274048)
I0413 18:04:07.302142 11609 net.cpp:165] Memory required for data: 3593980404
I0413 18:04:07.302153 11609 layer_factory.hpp:77] Creating layer rpn_big_output_cls_relu
I0413 18:04:07.302166 11609 net.cpp:100] Creating Layer rpn_big_output_cls_relu
I0413 18:04:07.302171 11609 net.cpp:434] rpn_big_output_cls_relu <- rpn_big_output_cls
I0413 18:04:07.302179 11609 net.cpp:395] rpn_big_output_cls_relu -> rpn_big_output_cls (in-place)
I0413 18:04:07.302189 11609 net.cpp:150] Setting up rpn_big_output_cls_relu
I0413 18:04:07.302194 11609 net.cpp:157] Top shape: 1 384 63 94 (2274048)
I0413 18:04:07.302197 11609 net.cpp:165] Memory required for data: 3603076596
I0413 18:04:07.302201 11609 layer_factory.hpp:77] Creating layer rpn_big_cls_score
I0413 18:04:07.302211 11609 net.cpp:100] Creating Layer rpn_big_cls_score
I0413 18:04:07.302215 11609 net.cpp:434] rpn_big_cls_score <- rpn_big_output_cls
I0413 18:04:07.302228 11609 net.cpp:408] rpn_big_cls_score -> rpn_big_cls_score
I0413 18:04:07.304606 11609 net.cpp:150] Setting up rpn_big_cls_score
I0413 18:04:07.304632 11609 net.cpp:157] Top shape: 1 52 61 92 (291824)
I0413 18:04:07.304636 11609 net.cpp:165] Memory required for data: 3604243892
I0413 18:04:07.304653 11609 layer_factory.hpp:77] Creating layer rpn_big_cls_score_rpn_big_cls_score_0_split
I0413 18:04:07.304663 11609 net.cpp:100] Creating Layer rpn_big_cls_score_rpn_big_cls_score_0_split
I0413 18:04:07.304668 11609 net.cpp:434] rpn_big_cls_score_rpn_big_cls_score_0_split <- rpn_big_cls_score
I0413 18:04:07.304677 11609 net.cpp:408] rpn_big_cls_score_rpn_big_cls_score_0_split -> rpn_big_cls_score_rpn_big_cls_score_0_split_0
I0413 18:04:07.304687 11609 net.cpp:408] rpn_big_cls_score_rpn_big_cls_score_0_split -> rpn_big_cls_score_rpn_big_cls_score_0_split_1
I0413 18:04:07.304723 11609 net.cpp:150] Setting up rpn_big_cls_score_rpn_big_cls_score_0_split
I0413 18:04:07.304733 11609 net.cpp:157] Top shape: 1 52 61 92 (291824)
I0413 18:04:07.304738 11609 net.cpp:157] Top shape: 1 52 61 92 (291824)
I0413 18:04:07.304740 11609 net.cpp:165] Memory required for data: 3606578484
I0413 18:04:07.304744 11609 layer_factory.hpp:77] Creating layer rpn_big_cls_score_reshape
I0413 18:04:07.304750 11609 net.cpp:100] Creating Layer rpn_big_cls_score_reshape
I0413 18:04:07.304754 11609 net.cpp:434] rpn_big_cls_score_reshape <- rpn_big_cls_score_rpn_big_cls_score_0_split_0
I0413 18:04:07.304761 11609 net.cpp:408] rpn_big_cls_score_reshape -> rpn_big_cls_score_reshape
I0413 18:04:07.304786 11609 net.cpp:150] Setting up rpn_big_cls_score_reshape
I0413 18:04:07.304793 11609 net.cpp:157] Top shape: 1 2 1586 92 (291824)
I0413 18:04:07.304797 11609 net.cpp:165] Memory required for data: 3607745780
I0413 18:04:07.304800 11609 layer_factory.hpp:77] Creating layer rpn_big_cls_score_reshape_rpn_big_cls_score_reshape_0_split
I0413 18:04:07.304805 11609 net.cpp:100] Creating Layer rpn_big_cls_score_reshape_rpn_big_cls_score_reshape_0_split
I0413 18:04:07.304810 11609 net.cpp:434] rpn_big_cls_score_reshape_rpn_big_cls_score_reshape_0_split <- rpn_big_cls_score_reshape
I0413 18:04:07.304816 11609 net.cpp:408] rpn_big_cls_score_reshape_rpn_big_cls_score_reshape_0_split -> rpn_big_cls_score_reshape_rpn_big_cls_score_reshape_0_split_0
I0413 18:04:07.304822 11609 net.cpp:408] rpn_big_cls_score_reshape_rpn_big_cls_score_reshape_0_split -> rpn_big_cls_score_reshape_rpn_big_cls_score_reshape_0_split_1
I0413 18:04:07.304852 11609 net.cpp:150] Setting up rpn_big_cls_score_reshape_rpn_big_cls_score_reshape_0_split
I0413 18:04:07.304859 11609 net.cpp:157] Top shape: 1 2 1586 92 (291824)
I0413 18:04:07.304863 11609 net.cpp:157] Top shape: 1 2 1586 92 (291824)
I0413 18:04:07.304867 11609 net.cpp:165] Memory required for data: 3610080372
I0413 18:04:07.304870 11609 layer_factory.hpp:77] Creating layer rpn_big_cls_prob
I0413 18:04:07.304875 11609 net.cpp:100] Creating Layer rpn_big_cls_prob
I0413 18:04:07.304879 11609 net.cpp:434] rpn_big_cls_prob <- rpn_big_cls_score_reshape_rpn_big_cls_score_reshape_0_split_0
I0413 18:04:07.304885 11609 net.cpp:408] rpn_big_cls_prob -> rpn_big_cls_prob
I0413 18:04:07.304955 11609 net.cpp:150] Setting up rpn_big_cls_prob
I0413 18:04:07.304963 11609 net.cpp:157] Top shape: 1 2 1586 92 (291824)
I0413 18:04:07.304966 11609 net.cpp:165] Memory required for data: 3611247668
I0413 18:04:07.304970 11609 layer_factory.hpp:77] Creating layer rpn_big_cls_prob_reshape
I0413 18:04:07.304976 11609 net.cpp:100] Creating Layer rpn_big_cls_prob_reshape
I0413 18:04:07.304980 11609 net.cpp:434] rpn_big_cls_prob_reshape <- rpn_big_cls_prob
I0413 18:04:07.304986 11609 net.cpp:408] rpn_big_cls_prob_reshape -> rpn_big_cls_prob_reshape
I0413 18:04:07.305006 11609 net.cpp:150] Setting up rpn_big_cls_prob_reshape
I0413 18:04:07.305012 11609 net.cpp:157] Top shape: 1 52 61 92 (291824)
I0413 18:04:07.305016 11609 net.cpp:165] Memory required for data: 3612414964
I0413 18:04:07.305019 11609 layer_factory.hpp:77] Creating layer rpn_big_cls_prob_reshape_rpn_big_cls_prob_reshape_0_split
I0413 18:04:07.305024 11609 net.cpp:100] Creating Layer rpn_big_cls_prob_reshape_rpn_big_cls_prob_reshape_0_split
I0413 18:04:07.305027 11609 net.cpp:434] rpn_big_cls_prob_reshape_rpn_big_cls_prob_reshape_0_split <- rpn_big_cls_prob_reshape
I0413 18:04:07.305034 11609 net.cpp:408] rpn_big_cls_prob_reshape_rpn_big_cls_prob_reshape_0_split -> rpn_big_cls_prob_reshape_rpn_big_cls_prob_reshape_0_split_0
I0413 18:04:07.305040 11609 net.cpp:408] rpn_big_cls_prob_reshape_rpn_big_cls_prob_reshape_0_split -> rpn_big_cls_prob_reshape_rpn_big_cls_prob_reshape_0_split_1
I0413 18:04:07.305068 11609 net.cpp:150] Setting up rpn_big_cls_prob_reshape_rpn_big_cls_prob_reshape_0_split
I0413 18:04:07.305075 11609 net.cpp:157] Top shape: 1 52 61 92 (291824)
I0413 18:04:07.305079 11609 net.cpp:157] Top shape: 1 52 61 92 (291824)
I0413 18:04:07.305083 11609 net.cpp:165] Memory required for data: 3614749556
I0413 18:04:07.305085 11609 layer_factory.hpp:77] Creating layer rpn_big_anchor_target
I0413 18:04:07.306421 11609 net.cpp:100] Creating Layer rpn_big_anchor_target
I0413 18:04:07.306437 11609 net.cpp:434] rpn_big_anchor_target <- rpn_big_cls_score_rpn_big_cls_score_0_split_1
I0413 18:04:07.306444 11609 net.cpp:434] rpn_big_anchor_target <- input_gt_boxes_input_2_split_0
I0413 18:04:07.306450 11609 net.cpp:434] rpn_big_anchor_target <- input_ignored_boxes
I0413 18:04:07.306455 11609 net.cpp:434] rpn_big_anchor_target <- input_im_info_input_1_split_0
I0413 18:04:07.306459 11609 net.cpp:434] rpn_big_anchor_target <- input_data_input_0_split_1
I0413 18:04:07.306463 11609 net.cpp:434] rpn_big_anchor_target <- rpn_big_cls_prob_reshape_rpn_big_cls_prob_reshape_0_split_0
I0413 18:04:07.306470 11609 net.cpp:408] rpn_big_anchor_target -> rpn_big_anchor_target_labels
I0413 18:04:07.306481 11609 net.cpp:408] rpn_big_anchor_target -> rpn_big_anchor_target_bbox_targets
I0413 18:04:07.306489 11609 net.cpp:408] rpn_big_anchor_target -> rpn_big_anchor_target_inside_weights
I0413 18:04:07.306498 11609 net.cpp:408] rpn_big_anchor_target -> rpn_big_anchor_target_outside_weights
I0413 18:04:07.311306 11609 net.cpp:150] Setting up rpn_big_anchor_target
I0413 18:04:07.311332 11609 net.cpp:157] Top shape: 1 1 1586 92 (145912)
I0413 18:04:07.311337 11609 net.cpp:157] Top shape: 1 104 61 92 (583648)
I0413 18:04:07.311342 11609 net.cpp:157] Top shape: 1 104 61 92 (583648)
I0413 18:04:07.311345 11609 net.cpp:157] Top shape: 1 104 61 92 (583648)
I0413 18:04:07.311348 11609 net.cpp:165] Memory required for data: 3622336980
I0413 18:04:07.311354 11609 layer_factory.hpp:77] Creating layer rpn_big_loss_cls
I0413 18:04:07.311367 11609 net.cpp:100] Creating Layer rpn_big_loss_cls
I0413 18:04:07.311372 11609 net.cpp:434] rpn_big_loss_cls <- rpn_big_cls_score_reshape_rpn_big_cls_score_reshape_0_split_1
I0413 18:04:07.311378 11609 net.cpp:434] rpn_big_loss_cls <- rpn_big_anchor_target_labels
I0413 18:04:07.311385 11609 net.cpp:408] rpn_big_loss_cls -> rpn_big_loss_cls
I0413 18:04:07.311398 11609 layer_factory.hpp:77] Creating layer rpn_big_loss_cls
I0413 18:04:07.312034 11609 net.cpp:150] Setting up rpn_big_loss_cls
I0413 18:04:07.312050 11609 net.cpp:157] Top shape: (1)
I0413 18:04:07.312053 11609 net.cpp:160]     with loss weight 1
I0413 18:04:07.312065 11609 net.cpp:165] Memory required for data: 3622336984
I0413 18:04:07.312069 11609 layer_factory.hpp:77] Creating layer rpn_big_output_box
I0413 18:04:07.312083 11609 net.cpp:100] Creating Layer rpn_big_output_box
I0413 18:04:07.312093 11609 net.cpp:434] rpn_big_output_box <- rpn_big_conv2_rpn_big_conv2_drop_0_split_1
I0413 18:04:07.312100 11609 net.cpp:408] rpn_big_output_box -> rpn_big_output_box
I0413 18:04:07.331019 11609 net.cpp:150] Setting up rpn_big_output_box
I0413 18:04:07.331051 11609 net.cpp:157] Top shape: 1 384 63 94 (2274048)
I0413 18:04:07.331064 11609 net.cpp:165] Memory required for data: 3631433176
I0413 18:04:07.331074 11609 layer_factory.hpp:77] Creating layer rpn_big_output_box_relu
I0413 18:04:07.331085 11609 net.cpp:100] Creating Layer rpn_big_output_box_relu
I0413 18:04:07.331091 11609 net.cpp:434] rpn_big_output_box_relu <- rpn_big_output_box
I0413 18:04:07.331100 11609 net.cpp:395] rpn_big_output_box_relu -> rpn_big_output_box (in-place)
I0413 18:04:07.331111 11609 net.cpp:150] Setting up rpn_big_output_box_relu
I0413 18:04:07.331115 11609 net.cpp:157] Top shape: 1 384 63 94 (2274048)
I0413 18:04:07.331120 11609 net.cpp:165] Memory required for data: 3640529368
I0413 18:04:07.331122 11609 layer_factory.hpp:77] Creating layer rpn_big_bbox_pred
I0413 18:04:07.331135 11609 net.cpp:100] Creating Layer rpn_big_bbox_pred
I0413 18:04:07.331141 11609 net.cpp:434] rpn_big_bbox_pred <- rpn_big_output_box
I0413 18:04:07.331147 11609 net.cpp:408] rpn_big_bbox_pred -> rpn_big_bbox_pred
I0413 18:04:07.335149 11609 net.cpp:150] Setting up rpn_big_bbox_pred
I0413 18:04:07.335166 11609 net.cpp:157] Top shape: 1 104 61 92 (583648)
I0413 18:04:07.335170 11609 net.cpp:165] Memory required for data: 3642863960
I0413 18:04:07.335186 11609 layer_factory.hpp:77] Creating layer rpn_big_bbox_pred_rpn_big_bbox_pred_0_split
I0413 18:04:07.335196 11609 net.cpp:100] Creating Layer rpn_big_bbox_pred_rpn_big_bbox_pred_0_split
I0413 18:04:07.335201 11609 net.cpp:434] rpn_big_bbox_pred_rpn_big_bbox_pred_0_split <- rpn_big_bbox_pred
I0413 18:04:07.335207 11609 net.cpp:408] rpn_big_bbox_pred_rpn_big_bbox_pred_0_split -> rpn_big_bbox_pred_rpn_big_bbox_pred_0_split_0
I0413 18:04:07.335216 11609 net.cpp:408] rpn_big_bbox_pred_rpn_big_bbox_pred_0_split -> rpn_big_bbox_pred_rpn_big_bbox_pred_0_split_1
I0413 18:04:07.335249 11609 net.cpp:150] Setting up rpn_big_bbox_pred_rpn_big_bbox_pred_0_split
I0413 18:04:07.335256 11609 net.cpp:157] Top shape: 1 104 61 92 (583648)
I0413 18:04:07.335261 11609 net.cpp:157] Top shape: 1 104 61 92 (583648)
I0413 18:04:07.335263 11609 net.cpp:165] Memory required for data: 3647533144
I0413 18:04:07.335268 11609 layer_factory.hpp:77] Creating layer rpn_big_loss_bbox
I0413 18:04:07.335649 11609 net.cpp:100] Creating Layer rpn_big_loss_bbox
I0413 18:04:07.335657 11609 net.cpp:434] rpn_big_loss_bbox <- rpn_big_bbox_pred_rpn_big_bbox_pred_0_split_0
I0413 18:04:07.335662 11609 net.cpp:434] rpn_big_loss_bbox <- rpn_big_anchor_target_bbox_targets
I0413 18:04:07.335676 11609 net.cpp:434] rpn_big_loss_bbox <- rpn_big_anchor_target_inside_weights
I0413 18:04:07.335680 11609 net.cpp:434] rpn_big_loss_bbox <- rpn_big_anchor_target_outside_weights
I0413 18:04:07.335686 11609 net.cpp:408] rpn_big_loss_bbox -> rpn_big_loss_bbox
I0413 18:04:07.337585 11609 net.cpp:150] Setting up rpn_big_loss_bbox
I0413 18:04:07.337616 11609 net.cpp:157] Top shape: 1 (1)
I0413 18:04:07.337630 11609 net.cpp:160]     with loss weight 1
I0413 18:04:07.337641 11609 net.cpp:165] Memory required for data: 3647533148
I0413 18:04:07.337647 11609 layer_factory.hpp:77] Creating layer proposal
I0413 18:04:07.338048 11609 net.cpp:100] Creating Layer proposal
I0413 18:04:07.338058 11609 net.cpp:434] proposal <- rpn_big_cls_prob_reshape_rpn_big_cls_prob_reshape_0_split_1
I0413 18:04:07.338074 11609 net.cpp:434] proposal <- rpn_big_bbox_pred_rpn_big_bbox_pred_0_split_1
I0413 18:04:07.338079 11609 net.cpp:434] proposal <- input_im_info_input_1_split_1
I0413 18:04:07.338086 11609 net.cpp:408] proposal -> rpn_rois
I0413 18:04:07.342726 11609 net.cpp:150] Setting up proposal
I0413 18:04:07.342749 11609 net.cpp:157] Top shape: 1 5 (5)
I0413 18:04:07.342753 11609 net.cpp:165] Memory required for data: 3647533168
I0413 18:04:07.342758 11609 layer_factory.hpp:77] Creating layer roi-data
I0413 18:04:07.343089 11609 net.cpp:100] Creating Layer roi-data
I0413 18:04:07.343101 11609 net.cpp:434] roi-data <- rpn_rois
I0413 18:04:07.343106 11609 net.cpp:434] roi-data <- input_gt_boxes_input_2_split_1
I0413 18:04:07.343113 11609 net.cpp:408] roi-data -> rois
I0413 18:04:07.343122 11609 net.cpp:408] roi-data -> labels
I0413 18:04:07.343129 11609 net.cpp:408] roi-data -> bbox_targets
I0413 18:04:07.343137 11609 net.cpp:408] roi-data -> bbox_inside_weights
I0413 18:04:07.343143 11609 net.cpp:408] roi-data -> bbox_outside_weights
I0413 18:04:07.343150 11609 net.cpp:408] roi-data -> pid_label
I0413 18:04:07.344084 11609 net.cpp:150] Setting up roi-data
I0413 18:04:07.344105 11609 net.cpp:157] Top shape: 1 5 (5)
I0413 18:04:07.344108 11609 net.cpp:157] Top shape: 1 1 (1)
I0413 18:04:07.344112 11609 net.cpp:157] Top shape: 1 8 (8)
I0413 18:04:07.344115 11609 net.cpp:157] Top shape: 1 8 (8)
I0413 18:04:07.344120 11609 net.cpp:157] Top shape: 1 8 (8)
I0413 18:04:07.344122 11609 net.cpp:157] Top shape: (0)
I0413 18:04:07.344125 11609 net.cpp:165] Memory required for data: 3647533288
I0413 18:04:07.344130 11609 layer_factory.hpp:77] Creating layer roi-pool
I0413 18:04:07.344139 11609 net.cpp:100] Creating Layer roi-pool
I0413 18:04:07.344144 11609 net.cpp:434] roi-pool <- conv5_3_relu5_3_0_split_1
I0413 18:04:07.344151 11609 net.cpp:434] roi-pool <- rois
I0413 18:04:07.344157 11609 net.cpp:408] roi-pool -> roi-pool
I0413 18:04:07.344166 11609 roi_pooling_layer.cpp:33] Spatial scale: 0.0625
I0413 18:04:07.344178 11609 roi_pooling_layer.cpp:34] Box scale: 1
I0413 18:04:07.344215 11609 net.cpp:150] Setting up roi-pool
I0413 18:04:07.344226 11609 net.cpp:157] Top shape: 1 512 7 7 (25088)
I0413 18:04:07.344229 11609 net.cpp:165] Memory required for data: 3647633640
I0413 18:04:07.344233 11609 layer_factory.hpp:77] Creating layer fc6
I0413 18:04:07.344239 11609 net.cpp:100] Creating Layer fc6
I0413 18:04:07.344243 11609 net.cpp:434] fc6 <- roi-pool
I0413 18:04:07.344249 11609 net.cpp:408] fc6 -> fc6
I0413 18:04:07.506186 11609 net.cpp:150] Setting up fc6
I0413 18:04:07.506219 11609 net.cpp:157] Top shape: 1 4096 (4096)
I0413 18:04:07.506223 11609 net.cpp:165] Memory required for data: 3647650024
I0413 18:04:07.506235 11609 layer_factory.hpp:77] Creating layer relu6
F0413 18:04:07.506260 11609 layer_factory.hpp:81] Check failed: registry.count(type) == 1 (0 vs. 1) Unknown layer type: ReLu (known types: AbsVal, Accuracy, ArgMax, BNLL, BatchNorm, BatchReindex, Bias, Concat, ContrastiveLoss, Convolution
…
