…
I0413 18:49:56.150070 14226 solver.cpp:48] Initializing solver from parameters: 
base_lr: 0.001
display: 20
lr_policy: "multistep"
gamma: 0.1
momentum: 0.9
weight_decay: 0.0005
snapshot: 0
snapshot_prefix: "faces_example"
net_param {
  name: "GeneratedModel_13_04_2017_18_49"
  layer {
    name: "input"
    type: "Python"
    top: "input_data"
    top: "input_im_info"
    top: "input_gt_boxes"
    top: "input_ignored_boxes"
    python_param {
      module: "layers.roi_data_layer"
      layer: "RoIDataLayer"
      param_str: "{\"num_classes\": 2}"
    }
  }
  layer {
    name: "conv1_1"
    type: "Convolution"
    bottom: "input_data"
    top: "conv1_1"
    param {
      lr_mult: 0
      decay_mult: 0
    }
    param {
      lr_mult: 0
      decay_mult: 0
    }
    convolution_param {
      num_output: 64
      pad: 1
      kernel_size: 3
    }
  }
  layer {
    name: "relu1_1"
    type: "ReLU"
    bottom: "conv1_1"
    top: "conv1_1"
  }
  layer {
    name: "conv1_2"
    type: "Convolution"
    bottom: "conv1_1"
    top: "conv1_2"
    param {
      lr_mult: 0
      decay_mult: 0
    }
    param {
      lr_mult: 0
      decay_mult: 0
    }
    convolution_param {
      num_output: 64
      pad: 1
      kernel_size: 3
    }
  }
  layer {
    name: "relu1_2"
    type: "ReLU"
    bottom: "conv1_2"
    top: "conv1_2"
  }
  layer {
    name: "pool1"
    type: "Pooling"
    bottom: "conv1_2"
    top: "pool1"
    pooling_param {
      pool: MAX
      kernel_size: 2
      stride: 2
    }
  }
  layer {
    name: "conv2_1"
    type: "Convolution"
    bottom: "pool1"
    top: "conv2_1"
    param {
      lr_mult: 0
      decay_mult: 0
    }
    param {
      lr_mult: 0
      decay_mult: 0
    }
    convolution_param {
      num_output: 128
      pad: 1
      kernel_size: 3
    }
  }
  layer {
    name: "relu2_1"
    type: "ReLU"
    bottom: "conv2_1"
    top: "conv2_1"
  }
  layer {
    name: "conv2_2"
    type: "Convolution"
    bottom: "conv2_1"
    top: "conv2_2"
    param {
      lr_mult: 0
      decay_mult: 0
    }
    param {
      lr_mult: 0
      decay_mult: 0
    }
    convolution_param {
      num_output: 128
      pad: 1
      kernel_size: 3
    }
  }
  layer {
    name: "relu2_2"
    type: "ReLU"
    bottom: "conv2_2"
    top: "conv2_2"
  }
  layer {
    name: "pool2"
    type: "Pooling"
    bottom: "conv2_2"
    top: "pool2"
    pooling_param {
      pool: MAX
      kernel_size: 2
      stride: 2
    }
  }
  layer {
    name: "conv3_1"
    type: "Convolution"
    bottom: "pool2"
    top: "conv3_1"
    param {
      lr_mult: 1
    }
    param {
      lr_mult: 2
    }
    convolution_param {
      num_output: 256
      pad: 1
      kernel_size: 3
    }
  }
  layer {
    name: "relu3_1"
    type: "ReLU"
    bottom: "conv3_1"
    top: "conv3_1"
  }
  layer {
    name: "conv3_2"
    type: "Convolution"
    bottom: "conv3_1"
    top: "conv3_2"
    param {
      lr_mult: 1
    }
    param {
      lr_mult: 2
    }
    convolution_param {
      num_output: 256
      pad: 1
      kernel_size: 3
    }
  }
  layer {
    name: "relu3_2"
    type: "ReLU"
    bottom: "conv3_2"
    top: "conv3_2"
  }
  layer {
    name: "conv3_3"
    type: "Convolution"
    bottom: "conv3_2"
    top: "conv3_3"
    param {
      lr_mult: 1
    }
    param {
      lr_mult: 2
    }
    convolution_param {
      num_output: 256
      pad: 1
      kernel_size: 3
    }
  }
  layer {
    name: "relu3_3"
    type: "ReLU"
    bottom: "conv3_3"
    top: "conv3_3"
  }
  layer {
    name: "pool3"
    type: "Pooling"
    bottom: "conv3_3"
    top: "pool3"
    pooling_param {
      pool: MAX
      kernel_size: 2
      stride: 2
    }
  }
  layer {
    name: "conv4_1"
    type: "Convolution"
    bottom: "pool3"
    top: "conv4_1"
    param {
      lr_mult: 1
    }
    param {
      lr_mult: 2
    }
    convolution_param {
      num_output: 512
      pad: 1
      kernel_size: 3
    }
  }
  layer {
    name: "relu4_1"
    type: "ReLU"
    bottom: "conv4_1"
    top: "conv4_1"
  }
  layer {
    name: "conv4_2"
    type: "Convolution"
    bottom: "conv4_1"
    top: "conv4_2"
    param {
      lr_mult: 1
    }
    param {
      lr_mult: 2
    }
    convolution_param {
      num_output: 512
      pad: 1
      kernel_size: 3
    }
  }
  layer {
    name: "relu4_2"
    type: "ReLU"
    bottom: "conv4_2"
    top: "conv4_2"
  }
  layer {
    name: "conv4_3"
    type: "Convolution"
    bottom: "conv4_2"
    top: "conv4_3"
    param {
      lr_mult: 1
    }
    param {
      lr_mult: 2
    }
    convolution_param {
      num_output: 512
      pad: 1
      kernel_size: 3
    }
  }
  layer {
    name: "relu4_3"
    type: "ReLU"
    bottom: "conv4_3"
    top: "conv4_3"
  }
  layer {
    name: "pool4"
    type: "Pooling"
    bottom: "conv4_3"
    top: "pool4"
    pooling_param {
      pool: MAX
      kernel_size: 2
      stride: 2
    }
  }
  layer {
    name: "conv5_1"
    type: "Convolution"
    bottom: "pool4"
    top: "conv5_1"
    param {
      lr_mult: 1
    }
    param {
      lr_mult: 2
    }
    convolution_param {
      num_output: 512
      pad: 1
      kernel_size: 3
    }
  }
  layer {
    name: "relu5_1"
    type: "ReLU"
    bottom: "conv5_1"
    top: "conv5_1"
  }
  layer {
    name: "conv5_2"
    type: "Convolution"
    bottom: "conv5_1"
    top: "conv5_2"
    param {
      lr_mult: 1
    }
    param {
      lr_mult: 2
    }
    convolution_param {
      num_output: 512
      pad: 1
      kernel_size: 3
    }
  }
  layer {
    name: "relu5_2"
    type: "ReLU"
    bottom: "conv5_2"
    top: "conv5_2"
  }
  layer {
    name: "conv5_3"
    type: "Convolution"
    bottom: "conv5_2"
    top: "conv5_3"
    param {
      lr_mult: 1
    }
    param {
      lr_mult: 2
    }
    convolution_param {
      num_output: 512
      pad: 1
      kernel_size: 3
    }
  }
  layer {
    name: "relu5_3"
    type: "ReLU"
    bottom: "conv5_3"
    top: "conv5_3"
  }
  layer {
    name: "rpn_big_conv1"
    type: "Convolution"
    bottom: "conv5_3"
    top: "rpn_big_conv1"
    param {
      lr_mult: 1
    }
    param {
      lr_mult: 2
    }
    convolution_param {
      num_output: 512
      pad: 1
      kernel_size: 3
      stride: 1
      weight_filler {
        type: "gaussian"
        mean: 0
        std: 0.01
      }
      bias_filler {
        type: "constant"
      }
    }
  }
  layer {
    name: "rpn_big_conv1_relu"
    type: "ReLU"
    bottom: "rpn_big_conv1"
    top: "rpn_big_conv1"
    relu_param {
      negative_slope: 0
    }
  }
  layer {
    name: "rpn_big_conv2"
    type: "Convolution"
    bottom: "rpn_big_conv1"
    top: "rpn_big_conv2"
    param {
      lr_mult: 1
    }
    param {
      lr_mult: 2
    }
    convolution_param {
      num_output: 512
      pad: 1
      kernel_size: 3
      stride: 1
      weight_filler {
        type: "gaussian"
        mean: 0
        std: 0.01
      }
      bias_filler {
        type: "constant"
      }
    }
  }
  layer {
    name: "rpn_big_conv2_relu"
    type: "ReLU"
    bottom: "rpn_big_conv2"
    top: "rpn_big_conv2"
    relu_param {
      negative_slope: 0
    }
  }
  layer {
    name: "rpn_big_conv2_drop"
    type: "Dropout"
    bottom: "rpn_big_conv2"
    top: "rpn_big_conv2"
    dropout_param {
      dropout_ratio: 0.3
    }
  }
  layer {
    name: "rpn_big_output_cls"
    type: "Convolution"
    bottom: "rpn_big_conv2"
    top: "rpn_big_output_cls"
    param {
      lr_mult: 1
    }
    param {
      lr_mult: 2
    }
    convolution_param {
      num_output: 384
      pad: 1
      kernel_size: 3
      stride: 1
      weight_filler {
        type: "gaussian"
        mean: 0
        std: 0.01
      }
      bias_filler {
        type: "constant"
      }
    }
  }
  layer {
    name: "rpn_big_output_cls_relu"
    type: "ReLU"
    bottom: "rpn_big_output_cls"
    top: "rpn_big_output_cls"
    relu_param {
      negative_slope: 0
    }
  }
  layer {
    name: "rpn_big_cls_score"
    type: "Convolution"
    bottom: "rpn_big_output_cls"
    top: "rpn_big_cls_score"
    param {
      lr_mult: 1
    }
    param {
      lr_mult: 2
    }
    convolution_param {
      num_output: 52
      pad: 0
      kernel_size: 3
      stride: 1
      weight_filler {
        type: "gaussian"
        mean: 0
        std: 0.01
      }
      bias_filler {
        type: "constant"
      }
    }
  }
  layer {
    name: "rpn_big_cls_score_reshape"
    type: "Reshape"
    bottom: "rpn_big_cls_score"
    top: "rpn_big_cls_score_reshape"
    reshape_param {
      shape {
        dim: 0
        dim: 2
        dim: -1
        dim: 0
      }
    }
  }
  layer {
    name: "rpn_big_cls_prob"
    type: "Softmax"
    bottom: "rpn_big_cls_score_reshape"
    top: "rpn_big_cls_prob"
  }
  layer {
    name: "rpn_big_cls_prob_reshape"
    type: "Reshape"
    bottom: "rpn_big_cls_prob"
    top: "rpn_big_cls_prob_reshape"
    reshape_param {
      shape {
        dim: 0
        dim: 52
        dim: -1
        dim: 0
      }
    }
  }
  layer {
    name: "rpn_big_anchor_target"
    type: "Python"
    bottom: "rpn_big_cls_score"
    bottom: "input_gt_boxes"
    bottom: "input_ignored_boxes"
    bottom: "input_im_info"
    bottom: "input_data"
    bottom: "rpn_big_cls_prob_reshape"
    top: "rpn_big_anchor_target_labels"
    top: "rpn_big_anchor_target_bbox_targets"
    top: "rpn_big_anchor_target_inside_weights"
    top: "rpn_big_anchor_target_outside_weights"
    python_param {
      module: "rpn.anchor_target_layer"
      layer: "AnchorTargetLayer"
      param_str: "{\"feat_stride\": 16, \"anchor_ratios\": [1.0], \"negative_overlap\": 0.4, \"square_targets\": true, \"tn_fraction\": 0.2, \"batchsize\": 256, \"fg_fraction\": 0.5, \"name\": \"rpn_big\", \"anchor_shift_num_xy\": [[2, 2], [2, 2], [2, 2], [2, 2], [1, 1], [1, 1], [1, 1], [1, 1], [1, 1], [1, 1], [1, 1], [1, 1], [1, 1], [1, 1]], \"anchor_scales\": [2.5, 3.025, 3.66025, 4.4289024999999995, 5.358972025, 6.484356150249999, 7.846070941802498, 9.493745839581022, 11.487432465893036, 13.899793283730574, 16.818749873313998, 20.350687346709933, 24.62433168951902, 29.795441344318014], \"num_classes\": 1, \"positive_overlap\": 0.6}"
    }
  }
  layer {
    name: "rpn_big_loss_cls"
    type: "SoftmaxWithLoss"
    bottom: "rpn_big_cls_score_reshape"
    bottom: "rpn_big_anchor_target_labels"
    top: "rpn_big_loss_cls"
    loss_weight: 1
    propagate_down: true
    propagate_down: false
    loss_param {
      ignore_label: -1
      normalization: VALID
    }
  }
  layer {
    name: "rpn_big_output_box"
    type: "Convolution"
    bottom: "rpn_big_conv2"
    top: "rpn_big_output_box"
    param {
      lr_mult: 1
    }
    param {
      lr_mult: 2
    }
    convolution_param {
      num_output: 384
      pad: 1
      kernel_size: 3
      stride: 1
      weight_filler {
        type: "gaussian"
        mean: 0
        std: 0.01
      }
      bias_filler {
        type: "constant"
      }
    }
  }
  layer {
    name: "rpn_big_output_box_relu"
    type: "ReLU"
    bottom: "rpn_big_output_box"
    top: "rpn_big_output_box"
    relu_param {
      negative_slope: 0
    }
  }
  layer {
    name: "rpn_big_bbox_pred"
    type: "Convolution"
    bottom: "rpn_big_output_box"
    top: "rpn_big_bbox_pred"
    param {
      lr_mult: 1
    }
    param {
      lr_mult: 2
    }
    convolution_param {
      num_output: 104
      pad: 0
      kernel_size: 3
      stride: 1
      weight_filler {
        type: "gaussian"
        mean: 0
        std: 0.01
      }
      bias_filler {
        type: "constant"
      }
    }
  }
  layer {
    name: "rpn_big_loss_bbox"
    type: "Python"
    bottom: "rpn_big_bbox_pred"
    bottom: "rpn_big_anchor_target_bbox_targets"
    bottom: "rpn_big_anchor_target_inside_weights"
    bottom: "rpn_big_anchor_target_outside_weights"
    top: "rpn_big_loss_bbox"
    loss_weight: 1
    python_param {
      module: "layers.smooth_l1_loss"
      layer: "SmoothL1LossLayer"
      param_str: "{\"sigma\": 3}"
    }
  }
  layer {
    name: "proposal"
    type: "Python"
    bottom: "rpn_big_cls_prob_reshape"
    bottom: "rpn_big_bbox_pred"
    bottom: "input_im_info"
    top: "rpn_rois"
    python_param {
      module: "rpn.proposal_layer"
      layer: "ProposalLayer"
      param_str: "{\"anchor_shift_num_xy\": [[2, 2], [2, 2], [2, 2], [2, 2], [1, 1], [1, 1], [1, 1], [1, 1], [1, 1], [1, 1], [1, 1], [1, 1], [1, 1], [1, 1]], \"feat_stride\": 16, \"num_classes\": 1, \"anchor_scales\": [2.5, 3.025, 3.66025, 4.4289024999999995, 5.358972025, 6.484356150249999, 7.846070941802498, 9.493745839581022, 11.487432465893036, 13.899793283730574, 16.818749873313998, 20.350687346709933, 24.62433168951902, 29.795441344318014], \"square_targets\": true, \"name\": \"rpn_big\", \"batchsize\": 256, \"anchor_ratios\": [1.0]}"
    }
  }
  layer {
    name: "roi-data"
    type: "Python"
    bottom: "rpn_rois"
    bottom: "input_gt_boxes"
    top: "rois"
    top: "labels"
    top: "bbox_targets"
    top: "bbox_inside_weights"
    top: "bbox_outside_weights"
    top: "pid_label"
    python_param {
      module: "rpn.proposal_target_layer"
      layer: "ProposalTargetLayer"
      param_str: "{\"num_classes\": 2, \"bg_aux_label\": 5532}"
    }
  }
  layer {
    name: "roi-pool"
    type: "ROIPooling"
    bottom: "conv5_3"
    bottom: "rois"
    top: "roi-pool"
    roi_pooling_param {
      pooled_h: 7
      pooled_w: 7
      spatial_scale: 0.0625
    }
  }
  layer {
    name: "fc6"
    type: "InnerProduct"
    bottom: "roi-pool"
    top: "fc6"
    param {
      lr_mult: 1
    }
    param {
      lr_mult: 2
    }
    inner_product_param {
      num_output: 4096
    }
  }
  layer {
    name: "relu6"
    type: "ReLU"
    bottom: "fc6"
    top: "fc6"
  }
  layer {
    name: "drop6"
    type: "Dropout"
    bottom: "fc6"
    top: "fc6"
    dropout_param {
      dropout_ratio: 0.5
    }
  }
  layer {
    name: "fc7"
    type: "InnerProduct"
    bottom: "fc6"
    top: "fc7"
    param {
      lr_mult: 1
    }
    param {
      lr_mult: 2
    }
    inner_product_param {
      num_output: 4096
    }
  }
  layer {
    name: "relu7"
    type: "ReLU"
    bottom: "fc7"
    top: "fc7"
  }
  layer {
    name: "drop7"
    type: "Dropout"
    bottom: "fc7"
    top: "fc7"
    dropout_param {
      dropout_ratio: 0.5
    }
  }
  layer {
    name: "bbox_pred"
    type: "InnerProduct"
    bottom: "fc7"
    top: "bbox_pred"
    param {
      lr_mult: 1
    }
    param {
      lr_mult: 2
    }
    inner_product_param {
      num_output: 8
      weight_filler {
        type: "gaussian"
        std: 0.001
      }
      bias_filler {
        type: "constant"
        value: 0
      }
    }
  }
  layer {
    name: "loss_bbox"
    type: "SmoothL1Loss"
    bottom: "bbox_pred"
    bottom: "bbox_targets"
    bottom: "bbox_inside_weights"
    bottom: "bbox_outside_weights"
    top: "loss_bbox"
    loss_weight: 1
  }
  layer {
    name: "feat"
    type: "InnerProduct"
    bottom: "fc7"
    top: "feat"
    param {
      lr_mult: 1
      decay_mult: 1
    }
    param {
      lr_mult: 2
      decay_mult: 0
    }
    inner_product_param {
      num_output: 256
      weight_filler {
        type: "gaussian"
        std: 0.01
      }
      bias_filler {
        type: "constant"
        value: 0
      }
    }
  }
  layer {
    name: "relu8"
    type: "ReLU"
    bottom: "feat"
    top: "feat"
  }
  layer {
    name: "drop8"
    type: "Dropout"
    bottom: "feat"
    top: "feat"
    dropout_param {
      dropout_ratio: 0.5
    }
  }
  layer {
    name: "pid_score"
    type: "InnerProduct"
    bottom: "feat"
    top: "pid_score"
    param {
      lr_mult: 1
      decay_mult: 1
    }
    param {
      lr_mult: 2
      decay_mult: 0
    }
    inner_product_param {
      num_output: 5533
      weight_filler {
        type: "gaussian"
        std: 0.001
      }
      bias_filler {
        type: "constant"
        value: 0
      }
    }
  }
  layer {
    name: "pid_loss"
    type: "SoftmaxWithLoss"
    bottom: "pid_label"
    bottom: "pid_score"
    top: "pid_loss"
    loss_weight: 1
    propagate_down: true
    propagate_down: false
    loss_param {
      ignore_label: -1
      normalize: true
    }
  }
}
average_loss: 100
stepvalue: 70000
stepvalue: 120000
iter_size: 2
I0413 18:49:56.150190 14226 solver.cpp:86] Creating training net specified in net_param.
I0413 18:49:56.150974 14226 net.cpp:58] Initializing net from parameters: 
name: "GeneratedModel_13_04_2017_18_49"
state {
  phase: TRAIN
}
layer {
  name: "input"
  type: "Python"
  top: "input_data"
  top: "input_im_info"
  top: "input_gt_boxes"
  top: "input_ignored_boxes"
  python_param {
    module: "layers.roi_data_layer"
    layer: "RoIDataLayer"
    param_str: "{\"num_classes\": 2}"
  }
}
layer {
  name: "conv1_1"
  type: "Convolution"
  bottom: "input_data"
  top: "conv1_1"
  param {
    lr_mult: 0
    decay_mult: 0
  }
  param {
    lr_mult: 0
    decay_mult: 0
  }
  convolution_param {
    num_output: 64
    pad: 1
    kernel_size: 3
  }
}
layer {
  name: "relu1_1"
  type: "ReLU"
  bottom: "conv1_1"
  top: "conv1_1"
}
layer {
  name: "conv1_2"
  type: "Convolution"
  bottom: "conv1_1"
  top: "conv1_2"
  param {
    lr_mult: 0
    decay_mult: 0
  }
  param {
    lr_mult: 0
    decay_mult: 0
  }
  convolution_param {
    num_output: 64
    pad: 1
    kernel_size: 3
  }
}
layer {
  name: "relu1_2"
  type: "ReLU"
  bottom: "conv1_2"
  top: "conv1_2"
}
layer {
  name: "pool1"
  type: "Pooling"
  bottom: "conv1_2"
  top: "pool1"
  pooling_param {
    pool: MAX
    kernel_size: 2
    stride: 2
  }
}
layer {
  name: "conv2_1"
  type: "Convolution"
  bottom: "pool1"
  top: "conv2_1"
  param {
    lr_mult: 0
    decay_mult: 0
  }
  param {
    lr_mult: 0
    decay_mult: 0
  }
  convolution_param {
    num_output: 128
    pad: 1
    kernel_size: 3
  }
}
layer {
  name: "relu2_1"
  type: "ReLU"
  bottom: "conv2_1"
  top: "conv2_1"
}
layer {
  name: "conv2_2"
  type: "Convolution"
  bottom: "conv2_1"
  top: "conv2_2"
  param {
    lr_mult: 0
    decay_mult: 0
  }
  param {
    lr_mult: 0
    decay_mult: 0
  }
  convolution_param {
    num_output: 128
    pad: 1
    kernel_size: 3
  }
}
layer {
  name: "relu2_2"
  type: "ReLU"
  bottom: "conv2_2"
  top: "conv2_2"
}
layer {
  name: "pool2"
  type: "Pooling"
  bottom: "conv2_2"
  top: "pool2"
  pooling_param {
    pool: MAX
    kernel_size: 2
    stride: 2
  }
}
layer {
  name: "conv3_1"
  type: "Convolution"
  bottom: "pool2"
  top: "conv3_1"
  param {
    lr_mult: 1
  }
  param {
    lr_mult: 2
  }
  convolution_param {
    num_output: 256
    pad: 1
    kernel_size: 3
  }
}
layer {
  name: "relu3_1"
  type: "ReLU"
  bottom: "conv3_1"
  top: "conv3_1"
}
layer {
  name: "conv3_2"
  type: "Convolution"
  bottom: "conv3_1"
  top: "conv3_2"
  param {
    lr_mult: 1
  }
  param {
    lr_mult: 2
  }
  convolution_param {
    num_output: 256
    pad: 1
    kernel_size: 3
  }
}
layer {
  name: "relu3_2"
  type: "ReLU"
  bottom: "conv3_2"
  top: "conv3_2"
}
layer {
  name: "conv3_3"
  type: "Convolution"
  bottom: "conv3_2"
  top: "conv3_3"
  param {
    lr_mult: 1
  }
  param {
    lr_mult: 2
  }
  convolution_param {
    num_output: 256
    pad: 1
    kernel_size: 3
  }
}
layer {
  name: "relu3_3"
  type: "ReLU"
  bottom: "conv3_3"
  top: "conv3_3"
}
layer {
  name: "pool3"
  type: "Pooling"
  bottom: "conv3_3"
  top: "pool3"
  pooling_param {
    pool: MAX
    kernel_size: 2
    stride: 2
  }
}
layer {
  name: "conv4_1"
  type: "Convolution"
  bottom: "pool3"
  top: "conv4_1"
  param {
    lr_mult: 1
  }
  param {
    lr_mult: 2
  }
  convolution_param {
    num_output: 512
    pad: 1
    kernel_size: 3
  }
}
layer {
  name: "relu4_1"
  type: "ReLU"
  bottom: "conv4_1"
  top: "conv4_1"
}
layer {
  name: "conv4_2"
  type: "Convolution"
  bottom: "conv4_1"
  top: "conv4_2"
  param {
    lr_mult: 1
  }
  param {
    lr_mult: 2
  }
  convolution_param {
    num_output: 512
    pad: 1
    kernel_size: 3
  }
}
layer {
  name: "relu4_2"
  type: "ReLU"
  bottom: "conv4_2"
  top: "conv4_2"
}
layer {
  name: "conv4_3"
  type: "Convolution"
  bottom: "conv4_2"
  top: "conv4_3"
  param {
    lr_mult: 1
  }
  param {
    lr_mult: 2
  }
  convolution_param {
    num_output: 512
    pad: 1
    kernel_size: 3
  }
}
layer {
  name: "relu4_3"
  type: "ReLU"
  bottom: "conv4_3"
  top: "conv4_3"
}
layer {
  name: "pool4"
  type: "Pooling"
  bottom: "conv4_3"
  top: "pool4"
  pooling_param {
    pool: MAX
    kernel_size: 2
    stride: 2
  }
}
layer {
  name: "conv5_1"
  type: "Convolution"
  bottom: "pool4"
  top: "conv5_1"
  param {
    lr_mult: 1
  }
  param {
    lr_mult: 2
  }
  convolution_param {
    num_output: 512
    pad: 1
    kernel_size: 3
  }
}
layer {
  name: "relu5_1"
  type: "ReLU"
  bottom: "conv5_1"
  top: "conv5_1"
}
layer {
  name: "conv5_2"
  type: "Convolution"
  bottom: "conv5_1"
  top: "conv5_2"
  param {
    lr_mult: 1
  }
  param {
    lr_mult: 2
  }
  convolution_param {
    num_output: 512
    pad: 1
    kernel_size: 3
  }
}
layer {
  name: "relu5_2"
  type: "ReLU"
  bottom: "conv5_2"
  top: "conv5_2"
}
layer {
  name: "conv5_3"
  type: "Convolution"
  bottom: "conv5_2"
  top: "conv5_3"
  param {
    lr_mult: 1
  }
  param {
    lr_mult: 2
  }
  convolution_param {
    num_output: 512
    pad: 1
    kernel_size: 3
  }
}
layer {
  name: "relu5_3"
  type: "ReLU"
  bottom: "conv5_3"
  top: "conv5_3"
}
layer {
  name: "rpn_big_conv1"
  type: "Convolution"
  bottom: "conv5_3"
  top: "rpn_big_conv1"
  param {
    lr_mult: 1
  }
  param {
    lr_mult: 2
  }
  convolution_param {
    num_output: 512
    pad: 1
    kernel_size: 3
    stride: 1
    weight_filler {
      type: "gaussian"
      mean: 0
      std: 0.01
    }
    bias_filler {
      type: "constant"
    }
  }
}
layer {
  name: "rpn_big_conv1_relu"
  type: "ReLU"
  bottom: "rpn_big_conv1"
  top: "rpn_big_conv1"
  relu_param {
    negative_slope: 0
  }
}
layer {
  name: "rpn_big_conv2"
  type: "Convolution"
  bottom: "rpn_big_conv1"
  top: "rpn_big_conv2"
  param {
    lr_mult: 1
  }
  param {
    lr_mult: 2
  }
  convolution_param {
    num_output: 512
    pad: 1
    kernel_size: 3
    stride: 1
    weight_filler {
      type: "gaussian"
      mean: 0
      std: 0.01
    }
    bias_filler {
      type: "constant"
    }
  }
}
layer {
  name: "rpn_big_conv2_relu"
  type: "ReLU"
  bottom: "rpn_big_conv2"
  top: "rpn_big_conv2"
  relu_param {
    negative_slope: 0
  }
}
layer {
  name: "rpn_big_conv2_drop"
  type: "Dropout"
  bottom: "rpn_big_conv2"
  top: "rpn_big_conv2"
  dropout_param {
    dropout_ratio: 0.3
  }
}
layer {
  name: "rpn_big_output_cls"
  type: "Convolution"
  bottom: "rpn_big_conv2"
  top: "rpn_big_output_cls"
  param {
    lr_mult: 1
  }
  param {
    lr_mult: 2
  }
  convolution_param {
    num_output: 384
    pad: 1
    kernel_size: 3
    stride: 1
    weight_filler {
      type: "gaussian"
      mean: 0
      std: 0.01
    }
    bias_filler {
      type: "constant"
    }
  }
}
layer {
  name: "rpn_big_output_cls_relu"
  type: "ReLU"
  bottom: "rpn_big_output_cls"
  top: "rpn_big_output_cls"
  relu_param {
    negative_slope: 0
  }
}
layer {
  name: "rpn_big_cls_score"
  type: "Convolution"
  bottom: "rpn_big_output_cls"
  top: "rpn_big_cls_score"
  param {
    lr_mult: 1
  }
  param {
    lr_mult: 2
  }
  convolution_param {
    num_output: 52
    pad: 0
    kernel_size: 3
    stride: 1
    weight_filler {
      type: "gaussian"
      mean: 0
      std: 0.01
    }
    bias_filler {
      type: "constant"
    }
  }
}
layer {
  name: "rpn_big_cls_score_reshape"
  type: "Reshape"
  bottom: "rpn_big_cls_score"
  top: "rpn_big_cls_score_reshape"
  reshape_param {
    shape {
      dim: 0
      dim: 2
      dim: -1
      dim: 0
    }
  }
}
layer {
  name: "rpn_big_cls_prob"
  type: "Softmax"
  bottom: "rpn_big_cls_score_reshape"
  top: "rpn_big_cls_prob"
}
layer {
  name: "rpn_big_cls_prob_reshape"
  type: "Reshape"
  bottom: "rpn_big_cls_prob"
  top: "rpn_big_cls_prob_reshape"
  reshape_param {
    shape {
      dim: 0
      dim: 52
      dim: -1
      dim: 0
    }
  }
}
layer {
  name: "rpn_big_anchor_target"
  type: "Python"
  bottom: "rpn_big_cls_score"
  bottom: "input_gt_boxes"
  bottom: "input_ignored_boxes"
  bottom: "input_im_info"
  bottom: "input_data"
  bottom: "rpn_big_cls_prob_reshape"
  top: "rpn_big_anchor_target_labels"
  top: "rpn_big_anchor_target_bbox_targets"
  top: "rpn_big_anchor_target_inside_weights"
  top: "rpn_big_anchor_target_outside_weights"
  python_param {
    module: "rpn.anchor_target_layer"
    layer: "AnchorTargetLayer"
    param_str: "{\"feat_stride\": 16, \"anchor_ratios\": [1.0], \"negative_overlap\": 0.4, \"square_targets\": true, \"tn_fraction\": 0.2, \"batchsize\": 256, \"fg_fraction\": 0.5, \"name\": \"rpn_big\", \"anchor_shift_num_xy\": [[2, 2], [2, 2], [2, 2], [2, 2], [1, 1], [1, 1], [1, 1], [1, 1], [1, 1], [1, 1], [1, 1], [1, 1], [1, 1], [1, 1]], \"anchor_scales\": [2.5, 3.025, 3.66025, 4.4289024999999995, 5.358972025, 6.484356150249999, 7.846070941802498, 9.493745839581022, 11.487432465893036, 13.899793283730574, 16.818749873313998, 20.350687346709933, 24.62433168951902, 29.795441344318014], \"num_classes\": 1, \"positive_overlap\": 0.6}"
  }
}
layer {
  name: "rpn_big_loss_cls"
  type: "SoftmaxWithLoss"
  bottom: "rpn_big_cls_score_reshape"
  bottom: "rpn_big_anchor_target_labels"
  top: "rpn_big_loss_cls"
  loss_weight: 1
  propagate_down: true
  propagate_down: false
  loss_param {
    ignore_label: -1
    normalization: VALID
  }
}
layer {
  name: "rpn_big_output_box"
  type: "Convolution"
  bottom: "rpn_big_conv2"
  top: "rpn_big_output_box"
  param {
    lr_mult: 1
  }
  param {
    lr_mult: 2
  }
  convolution_param {
    num_output: 384
    pad: 1
    kernel_size: 3
    stride: 1
    weight_filler {
      type: "gaussian"
      mean: 0
      std: 0.01
    }
    bias_filler {
      type: "constant"
    }
  }
}
layer {
  name: "rpn_big_output_box_relu"
  type: "ReLU"
  bottom: "rpn_big_output_box"
  top: "rpn_big_output_box"
  relu_param {
    negative_slope: 0
  }
}
layer {
  name: "rpn_big_bbox_pred"
  type: "Convolution"
  bottom: "rpn_big_output_box"
  top: "rpn_big_bbox_pred"
  param {
    lr_mult: 1
  }
  param {
    lr_mult: 2
  }
  convolution_param {
    num_output: 104
    pad: 0
    kernel_size: 3
    stride: 1
    weight_filler {
      type: "gaussian"
      mean: 0
      std: 0.01
    }
    bias_filler {
      type: "constant"
    }
  }
}
layer {
  name: "rpn_big_loss_bbox"
  type: "Python"
  bottom: "rpn_big_bbox_pred"
  bottom: "rpn_big_anchor_target_bbox_targets"
  bottom: "rpn_big_anchor_target_inside_weights"
  bottom: "rpn_big_anchor_target_outside_weights"
  top: "rpn_big_loss_bbox"
  loss_weight: 1
  python_param {
    module: "layers.smooth_l1_loss"
    layer: "SmoothL1LossLayer"
    param_str: "{\"sigma\": 3}"
  }
}
layer {
  name: "proposal"
  type: "Python"
  bottom: "rpn_big_cls_prob_reshape"
  bottom: "rpn_big_bbox_pred"
  bottom: "input_im_info"
  top: "rpn_rois"
  python_param {
    module: "rpn.proposal_layer"
    layer: "ProposalLayer"
    param_str: "{\"anchor_shift_num_xy\": [[2, 2], [2, 2], [2, 2], [2, 2], [1, 1], [1, 1], [1, 1], [1, 1], [1, 1], [1, 1], [1, 1], [1, 1], [1, 1], [1, 1]], \"feat_stride\": 16, \"num_classes\": 1, \"anchor_scales\": [2.5, 3.025, 3.66025, 4.4289024999999995, 5.358972025, 6.484356150249999, 7.846070941802498, 9.493745839581022, 11.487432465893036, 13.899793283730574, 16.818749873313998, 20.350687346709933, 24.62433168951902, 29.795441344318014], \"square_targets\": true, \"name\": \"rpn_big\", \"batchsize\": 256, \"anchor_ratios\": [1.0]}"
  }
}
layer {
  name: "roi-data"
  type: "Python"
  bottom: "rpn_rois"
  bottom: "input_gt_boxes"
  top: "rois"
  top: "labels"
  top: "bbox_targets"
  top: "bbox_inside_weights"
  top: "bbox_outside_weights"
  top: "pid_label"
  python_param {
    module: "rpn.proposal_target_layer"
    layer: "ProposalTargetLayer"
    param_str: "{\"num_classes\": 2, \"bg_aux_label\": 5532}"
  }
}
layer {
  name: "roi-pool"
  type: "ROIPooling"
  bottom: "conv5_3"
  bottom: "rois"
  top: "roi-pool"
  roi_pooling_param {
    pooled_h: 7
    pooled_w: 7
    spatial_scale: 0.0625
  }
}
layer {
  name: "fc6"
  type: "InnerProduct"
  bottom: "roi-pool"
  top: "fc6"
  param {
    lr_mult: 1
  }
  param {
    lr_mult: 2
  }
  inner_product_param {
    num_output: 4096
  }
}
layer {
  name: "relu6"
  type: "ReLU"
  bottom: "fc6"
  top: "fc6"
}
layer {
  name: "drop6"
  type: "Dropout"
  bottom: "fc6"
  top: "fc6"
  dropout_param {
    dropout_ratio: 0.5
  }
}
layer {
  name: "fc7"
  type: "InnerProduct"
  bottom: "fc6"
  top: "fc7"
  param {
    lr_mult: 1
  }
  param {
    lr_mult: 2
  }
  inner_product_param {
    num_output: 4096
  }
}
layer {
  name: "relu7"
  type: "ReLU"
  bottom: "fc7"
  top: "fc7"
}
layer {
  name: "drop7"
  type: "Dropout"
  bottom: "fc7"
  top: "fc7"
  dropout_param {
    dropout_ratio: 0.5
  }
}
layer {
  name: "bbox_pred"
  type: "InnerProduct"
  bottom: "fc7"
  top: "bbox_pred"
  param {
    lr_mult: 1
  }
  param {
    lr_mult: 2
  }
  inner_product_param {
    num_output: 8
    weight_filler {
      type: "gaussian"
      std: 0.001
    }
    bias_filler {
      type: "constant"
      value: 0
    }
  }
}
layer {
  name: "loss_bbox"
  type: "SmoothL1Loss"
  bottom: "bbox_pred"
  bottom: "bbox_targets"
  bottom: "bbox_inside_weights"
  bottom: "bbox_outside_weights"
  top: "loss_bbox"
  loss_weight: 1
}
layer {
  name: "feat"
  type: "InnerProduct"
  bottom: "fc7"
  top: "feat"
  param {
    lr_mult: 1
    decay_mult: 1
  }
  param {
    lr_mult: 2
    decay_mult: 0
  }
  inner_product_param {
    num_output: 256
    weight_filler {
      type: "gaussian"
      std: 0.01
    }
    bias_filler {
      type: "constant"
      value: 0
    }
  }
}
layer {
  name: "relu8"
  type: "ReLU"
  bottom: "feat"
  top: "feat"
}
layer {
  name: "drop8"
  type: "Dropout"
  bottom: "feat"
  top: "feat"
  dropout_param {
    dropout_ratio: 0.5
  }
}
layer {
  name: "pid_score"
  type: "InnerProduct"
  bottom: "feat"
  top: "pid_score"
  param {
    lr_mult: 1
    decay_mult: 1
  }
  param {
    lr_mult: 2
    decay_mult: 0
  }
  inner_product_param {
    num_output: 5533
    weight_filler {
      type: "gaussian"
      std: 0.001
    }
    bias_filler {
      type: "constant"
      value: 0
    }
  }
}
layer {
  name: "pid_loss"
  type: "SoftmaxWithLoss"
  bottom: "pid_label"
  bottom: "pid_score"
  top: "pid_loss"
  loss_weight: 1
  propagate_down: true
  propagate_down: false
  loss_param {
    ignore_label: -1
    normalize: true
  }
}
I0413 18:49:56.151430 14226 layer_factory.hpp:77] Creating layer input
I0413 18:49:56.153270 14226 net.cpp:100] Creating Layer input
I0413 18:49:56.153296 14226 net.cpp:408] input -> input_data
I0413 18:49:56.153312 14226 net.cpp:408] input -> input_im_info
I0413 18:49:56.153323 14226 net.cpp:408] input -> input_gt_boxes
I0413 18:49:56.153336 14226 net.cpp:408] input -> input_ignored_boxes
RoiDataLayer: name_to_top: {'gt_boxes': 2, 'im_info': 1, 'data': 0, 'ignored_boxes': 3}
I0413 18:49:56.479825 14226 net.cpp:150] Setting up input
I0413 18:49:56.479862 14226 net.cpp:157] Top shape: 1 3 1000 1500 (4500000)
I0413 18:49:56.479876 14226 net.cpp:157] Top shape: 1 3 (3)
I0413 18:49:56.479883 14226 net.cpp:157] Top shape: 1 5 (5)
I0413 18:49:56.479892 14226 net.cpp:157] Top shape: 1 5 (5)
I0413 18:49:56.479897 14226 net.cpp:165] Memory required for data: 18000052
I0413 18:49:56.479907 14226 layer_factory.hpp:77] Creating layer input_data_input_0_split
I0413 18:49:56.479925 14226 net.cpp:100] Creating Layer input_data_input_0_split
I0413 18:49:56.479935 14226 net.cpp:434] input_data_input_0_split <- input_data
I0413 18:49:56.479946 14226 net.cpp:408] input_data_input_0_split -> input_data_input_0_split_0
I0413 18:49:56.479964 14226 net.cpp:408] input_data_input_0_split -> input_data_input_0_split_1
I0413 18:49:56.480010 14226 net.cpp:150] Setting up input_data_input_0_split
I0413 18:49:56.480021 14226 net.cpp:157] Top shape: 1 3 1000 1500 (4500000)
I0413 18:49:56.480029 14226 net.cpp:157] Top shape: 1 3 1000 1500 (4500000)
I0413 18:49:56.480036 14226 net.cpp:165] Memory required for data: 54000052
I0413 18:49:56.480041 14226 layer_factory.hpp:77] Creating layer input_im_info_input_1_split
I0413 18:49:56.480052 14226 net.cpp:100] Creating Layer input_im_info_input_1_split
I0413 18:49:56.480058 14226 net.cpp:434] input_im_info_input_1_split <- input_im_info
I0413 18:49:56.480067 14226 net.cpp:408] input_im_info_input_1_split -> input_im_info_input_1_split_0
I0413 18:49:56.480078 14226 net.cpp:408] input_im_info_input_1_split -> input_im_info_input_1_split_1
I0413 18:49:56.480118 14226 net.cpp:150] Setting up input_im_info_input_1_split
I0413 18:49:56.480129 14226 net.cpp:157] Top shape: 1 3 (3)
I0413 18:49:56.480136 14226 net.cpp:157] Top shape: 1 3 (3)
I0413 18:49:56.480142 14226 net.cpp:165] Memory required for data: 54000076
I0413 18:49:56.480149 14226 layer_factory.hpp:77] Creating layer input_gt_boxes_input_2_split
I0413 18:49:56.480159 14226 net.cpp:100] Creating Layer input_gt_boxes_input_2_split
I0413 18:49:56.480165 14226 net.cpp:434] input_gt_boxes_input_2_split <- input_gt_boxes
I0413 18:49:56.480172 14226 net.cpp:408] input_gt_boxes_input_2_split -> input_gt_boxes_input_2_split_0
I0413 18:49:56.480186 14226 net.cpp:408] input_gt_boxes_input_2_split -> input_gt_boxes_input_2_split_1
I0413 18:49:56.480227 14226 net.cpp:150] Setting up input_gt_boxes_input_2_split
I0413 18:49:56.480237 14226 net.cpp:157] Top shape: 1 5 (5)
I0413 18:49:56.480244 14226 net.cpp:157] Top shape: 1 5 (5)
I0413 18:49:56.480249 14226 net.cpp:165] Memory required for data: 54000116
I0413 18:49:56.480255 14226 layer_factory.hpp:77] Creating layer conv1_1
I0413 18:49:56.480270 14226 net.cpp:100] Creating Layer conv1_1
I0413 18:49:56.480278 14226 net.cpp:434] conv1_1 <- input_data_input_0_split_0
I0413 18:49:56.480286 14226 net.cpp:408] conv1_1 -> conv1_1
I0413 18:49:56.483530 14226 net.cpp:150] Setting up conv1_1
I0413 18:49:56.483569 14226 net.cpp:157] Top shape: 1 64 1000 1500 (96000000)
I0413 18:49:56.483573 14226 net.cpp:165] Memory required for data: 438000116
I0413 18:49:56.483597 14226 layer_factory.hpp:77] Creating layer relu1_1
I0413 18:49:56.483613 14226 net.cpp:100] Creating Layer relu1_1
I0413 18:49:56.483621 14226 net.cpp:434] relu1_1 <- conv1_1
I0413 18:49:56.483635 14226 net.cpp:395] relu1_1 -> conv1_1 (in-place)
I0413 18:49:56.483651 14226 net.cpp:150] Setting up relu1_1
I0413 18:49:56.483659 14226 net.cpp:157] Top shape: 1 64 1000 1500 (96000000)
I0413 18:49:56.483665 14226 net.cpp:165] Memory required for data: 822000116
I0413 18:49:56.483671 14226 layer_factory.hpp:77] Creating layer conv1_2
I0413 18:49:56.483685 14226 net.cpp:100] Creating Layer conv1_2
I0413 18:49:56.483692 14226 net.cpp:434] conv1_2 <- conv1_1
I0413 18:49:56.483702 14226 net.cpp:408] conv1_2 -> conv1_2
I0413 18:49:56.486990 14226 net.cpp:150] Setting up conv1_2
I0413 18:49:56.487028 14226 net.cpp:157] Top shape: 1 64 1000 1500 (96000000)
I0413 18:49:56.487032 14226 net.cpp:165] Memory required for data: 1206000116
I0413 18:49:56.487053 14226 layer_factory.hpp:77] Creating layer relu1_2
I0413 18:49:56.487076 14226 net.cpp:100] Creating Layer relu1_2
I0413 18:49:56.487087 14226 net.cpp:434] relu1_2 <- conv1_2
I0413 18:49:56.487097 14226 net.cpp:395] relu1_2 -> conv1_2 (in-place)
I0413 18:49:56.487112 14226 net.cpp:150] Setting up relu1_2
I0413 18:49:56.487119 14226 net.cpp:157] Top shape: 1 64 1000 1500 (96000000)
I0413 18:49:56.487126 14226 net.cpp:165] Memory required for data: 1590000116
I0413 18:49:56.487131 14226 layer_factory.hpp:77] Creating layer pool1
I0413 18:49:56.487149 14226 net.cpp:100] Creating Layer pool1
I0413 18:49:56.487156 14226 net.cpp:434] pool1 <- conv1_2
I0413 18:49:56.487164 14226 net.cpp:408] pool1 -> pool1
I0413 18:49:56.487252 14226 net.cpp:150] Setting up pool1
I0413 18:49:56.487264 14226 net.cpp:157] Top shape: 1 64 500 750 (24000000)
I0413 18:49:56.487270 14226 net.cpp:165] Memory required for data: 1686000116
I0413 18:49:56.487275 14226 layer_factory.hpp:77] Creating layer conv2_1
I0413 18:49:56.487292 14226 net.cpp:100] Creating Layer conv2_1
I0413 18:49:56.487298 14226 net.cpp:434] conv2_1 <- pool1
I0413 18:49:56.487308 14226 net.cpp:408] conv2_1 -> conv2_1
I0413 18:49:56.488656 14226 net.cpp:150] Setting up conv2_1
I0413 18:49:56.488685 14226 net.cpp:157] Top shape: 1 128 500 750 (48000000)
I0413 18:49:56.488689 14226 net.cpp:165] Memory required for data: 1878000116
I0413 18:49:56.488708 14226 layer_factory.hpp:77] Creating layer relu2_1
I0413 18:49:56.488723 14226 net.cpp:100] Creating Layer relu2_1
I0413 18:49:56.488731 14226 net.cpp:434] relu2_1 <- conv2_1
I0413 18:49:56.488740 14226 net.cpp:395] relu2_1 -> conv2_1 (in-place)
I0413 18:49:56.488754 14226 net.cpp:150] Setting up relu2_1
I0413 18:49:56.488762 14226 net.cpp:157] Top shape: 1 128 500 750 (48000000)
I0413 18:49:56.488766 14226 net.cpp:165] Memory required for data: 2070000116
I0413 18:49:56.488771 14226 layer_factory.hpp:77] Creating layer conv2_2
I0413 18:49:56.488785 14226 net.cpp:100] Creating Layer conv2_2
I0413 18:49:56.488790 14226 net.cpp:434] conv2_2 <- conv2_1
I0413 18:49:56.488800 14226 net.cpp:408] conv2_2 -> conv2_2
I0413 18:49:56.489877 14226 net.cpp:150] Setting up conv2_2
I0413 18:49:56.489900 14226 net.cpp:157] Top shape: 1 128 500 750 (48000000)
I0413 18:49:56.489904 14226 net.cpp:165] Memory required for data: 2262000116
I0413 18:49:56.489917 14226 layer_factory.hpp:77] Creating layer relu2_2
I0413 18:49:56.489928 14226 net.cpp:100] Creating Layer relu2_2
I0413 18:49:56.489934 14226 net.cpp:434] relu2_2 <- conv2_2
I0413 18:49:56.489944 14226 net.cpp:395] relu2_2 -> conv2_2 (in-place)
I0413 18:49:56.489956 14226 net.cpp:150] Setting up relu2_2
I0413 18:49:56.489965 14226 net.cpp:157] Top shape: 1 128 500 750 (48000000)
I0413 18:49:56.489970 14226 net.cpp:165] Memory required for data: 2454000116
I0413 18:49:56.489975 14226 layer_factory.hpp:77] Creating layer pool2
I0413 18:49:56.489984 14226 net.cpp:100] Creating Layer pool2
I0413 18:49:56.489989 14226 net.cpp:434] pool2 <- conv2_2
I0413 18:49:56.490000 14226 net.cpp:408] pool2 -> pool2
I0413 18:49:56.490054 14226 net.cpp:150] Setting up pool2
I0413 18:49:56.490067 14226 net.cpp:157] Top shape: 1 128 250 375 (12000000)
I0413 18:49:56.490072 14226 net.cpp:165] Memory required for data: 2502000116
I0413 18:49:56.490077 14226 layer_factory.hpp:77] Creating layer conv3_1
I0413 18:49:56.490088 14226 net.cpp:100] Creating Layer conv3_1
I0413 18:49:56.490095 14226 net.cpp:434] conv3_1 <- pool2
I0413 18:49:56.490106 14226 net.cpp:408] conv3_1 -> conv3_1
I0413 18:49:56.491360 14226 net.cpp:150] Setting up conv3_1
I0413 18:49:56.491387 14226 net.cpp:157] Top shape: 1 256 250 375 (24000000)
I0413 18:49:56.491391 14226 net.cpp:165] Memory required for data: 2598000116
I0413 18:49:56.491407 14226 layer_factory.hpp:77] Creating layer relu3_1
I0413 18:49:56.491423 14226 net.cpp:100] Creating Layer relu3_1
I0413 18:49:56.491432 14226 net.cpp:434] relu3_1 <- conv3_1
I0413 18:49:56.491441 14226 net.cpp:395] relu3_1 -> conv3_1 (in-place)
I0413 18:49:56.491456 14226 net.cpp:150] Setting up relu3_1
I0413 18:49:56.491464 14226 net.cpp:157] Top shape: 1 256 250 375 (24000000)
I0413 18:49:56.491469 14226 net.cpp:165] Memory required for data: 2694000116
I0413 18:49:56.491474 14226 layer_factory.hpp:77] Creating layer conv3_2
I0413 18:49:56.491492 14226 net.cpp:100] Creating Layer conv3_2
I0413 18:49:56.491497 14226 net.cpp:434] conv3_2 <- conv3_1
I0413 18:49:56.491509 14226 net.cpp:408] conv3_2 -> conv3_2
I0413 18:49:56.492805 14226 net.cpp:150] Setting up conv3_2
I0413 18:49:56.492830 14226 net.cpp:157] Top shape: 1 256 250 375 (24000000)
I0413 18:49:56.492832 14226 net.cpp:165] Memory required for data: 2790000116
I0413 18:49:56.492843 14226 layer_factory.hpp:77] Creating layer relu3_2
I0413 18:49:56.492856 14226 net.cpp:100] Creating Layer relu3_2
I0413 18:49:56.492866 14226 net.cpp:434] relu3_2 <- conv3_2
I0413 18:49:56.492877 14226 net.cpp:395] relu3_2 -> conv3_2 (in-place)
I0413 18:49:56.492888 14226 net.cpp:150] Setting up relu3_2
I0413 18:49:56.492897 14226 net.cpp:157] Top shape: 1 256 250 375 (24000000)
I0413 18:49:56.492913 14226 net.cpp:165] Memory required for data: 2886000116
I0413 18:49:56.492920 14226 layer_factory.hpp:77] Creating layer conv3_3
I0413 18:49:56.492934 14226 net.cpp:100] Creating Layer conv3_3
I0413 18:49:56.492941 14226 net.cpp:434] conv3_3 <- conv3_2
I0413 18:49:56.492950 14226 net.cpp:408] conv3_3 -> conv3_3
I0413 18:49:56.494587 14226 net.cpp:150] Setting up conv3_3
I0413 18:49:56.494617 14226 net.cpp:157] Top shape: 1 256 250 375 (24000000)
I0413 18:49:56.494621 14226 net.cpp:165] Memory required for data: 2982000116
I0413 18:49:56.494634 14226 layer_factory.hpp:77] Creating layer relu3_3
I0413 18:49:56.494648 14226 net.cpp:100] Creating Layer relu3_3
I0413 18:49:56.494658 14226 net.cpp:434] relu3_3 <- conv3_3
I0413 18:49:56.494669 14226 net.cpp:395] relu3_3 -> conv3_3 (in-place)
I0413 18:49:56.494684 14226 net.cpp:150] Setting up relu3_3
I0413 18:49:56.494693 14226 net.cpp:157] Top shape: 1 256 250 375 (24000000)
I0413 18:49:56.494699 14226 net.cpp:165] Memory required for data: 3078000116
I0413 18:49:56.494704 14226 layer_factory.hpp:77] Creating layer pool3
I0413 18:49:56.494715 14226 net.cpp:100] Creating Layer pool3
I0413 18:49:56.494721 14226 net.cpp:434] pool3 <- conv3_3
I0413 18:49:56.494730 14226 net.cpp:408] pool3 -> pool3
I0413 18:49:56.494791 14226 net.cpp:150] Setting up pool3
I0413 18:49:56.494802 14226 net.cpp:157] Top shape: 1 256 125 188 (6016000)
I0413 18:49:56.494808 14226 net.cpp:165] Memory required for data: 3102064116
I0413 18:49:56.494813 14226 layer_factory.hpp:77] Creating layer conv4_1
I0413 18:49:56.494828 14226 net.cpp:100] Creating Layer conv4_1
I0413 18:49:56.494835 14226 net.cpp:434] conv4_1 <- pool3
I0413 18:49:56.494843 14226 net.cpp:408] conv4_1 -> conv4_1
I0413 18:49:56.497650 14226 net.cpp:150] Setting up conv4_1
I0413 18:49:56.497686 14226 net.cpp:157] Top shape: 1 512 125 188 (12032000)
I0413 18:49:56.497690 14226 net.cpp:165] Memory required for data: 3150192116
I0413 18:49:56.497704 14226 layer_factory.hpp:77] Creating layer relu4_1
I0413 18:49:56.497716 14226 net.cpp:100] Creating Layer relu4_1
I0413 18:49:56.497725 14226 net.cpp:434] relu4_1 <- conv4_1
I0413 18:49:56.497737 14226 net.cpp:395] relu4_1 -> conv4_1 (in-place)
I0413 18:49:56.497751 14226 net.cpp:150] Setting up relu4_1
I0413 18:49:56.497759 14226 net.cpp:157] Top shape: 1 512 125 188 (12032000)
I0413 18:49:56.497766 14226 net.cpp:165] Memory required for data: 3198320116
I0413 18:49:56.497771 14226 layer_factory.hpp:77] Creating layer conv4_2
I0413 18:49:56.497784 14226 net.cpp:100] Creating Layer conv4_2
I0413 18:49:56.497792 14226 net.cpp:434] conv4_2 <- conv4_1
I0413 18:49:56.497802 14226 net.cpp:408] conv4_2 -> conv4_2
I0413 18:49:56.502130 14226 net.cpp:150] Setting up conv4_2
I0413 18:49:56.502167 14226 net.cpp:157] Top shape: 1 512 125 188 (12032000)
I0413 18:49:56.502171 14226 net.cpp:165] Memory required for data: 3246448116
I0413 18:49:56.502192 14226 layer_factory.hpp:77] Creating layer relu4_2
I0413 18:49:56.502207 14226 net.cpp:100] Creating Layer relu4_2
I0413 18:49:56.502215 14226 net.cpp:434] relu4_2 <- conv4_2
I0413 18:49:56.502229 14226 net.cpp:395] relu4_2 -> conv4_2 (in-place)
I0413 18:49:56.502243 14226 net.cpp:150] Setting up relu4_2
I0413 18:49:56.502251 14226 net.cpp:157] Top shape: 1 512 125 188 (12032000)
I0413 18:49:56.502257 14226 net.cpp:165] Memory required for data: 3294576116
I0413 18:49:56.502264 14226 layer_factory.hpp:77] Creating layer conv4_3
I0413 18:49:56.502277 14226 net.cpp:100] Creating Layer conv4_3
I0413 18:49:56.502285 14226 net.cpp:434] conv4_3 <- conv4_2
I0413 18:49:56.502295 14226 net.cpp:408] conv4_3 -> conv4_3
I0413 18:49:56.506644 14226 net.cpp:150] Setting up conv4_3
I0413 18:49:56.506681 14226 net.cpp:157] Top shape: 1 512 125 188 (12032000)
I0413 18:49:56.506685 14226 net.cpp:165] Memory required for data: 3342704116
I0413 18:49:56.506696 14226 layer_factory.hpp:77] Creating layer relu4_3
I0413 18:49:56.506708 14226 net.cpp:100] Creating Layer relu4_3
I0413 18:49:56.506716 14226 net.cpp:434] relu4_3 <- conv4_3
I0413 18:49:56.506726 14226 net.cpp:395] relu4_3 -> conv4_3 (in-place)
I0413 18:49:56.506739 14226 net.cpp:150] Setting up relu4_3
I0413 18:49:56.506748 14226 net.cpp:157] Top shape: 1 512 125 188 (12032000)
I0413 18:49:56.506753 14226 net.cpp:165] Memory required for data: 3390832116
I0413 18:49:56.506758 14226 layer_factory.hpp:77] Creating layer pool4
I0413 18:49:56.506769 14226 net.cpp:100] Creating Layer pool4
I0413 18:49:56.506775 14226 net.cpp:434] pool4 <- conv4_3
I0413 18:49:56.506784 14226 net.cpp:408] pool4 -> pool4
I0413 18:49:56.506837 14226 net.cpp:150] Setting up pool4
I0413 18:49:56.506847 14226 net.cpp:157] Top shape: 1 512 63 94 (3032064)
I0413 18:49:56.506853 14226 net.cpp:165] Memory required for data: 3402960372
I0413 18:49:56.506858 14226 layer_factory.hpp:77] Creating layer conv5_1
I0413 18:49:56.506875 14226 net.cpp:100] Creating Layer conv5_1
I0413 18:49:56.506881 14226 net.cpp:434] conv5_1 <- pool4
I0413 18:49:56.506891 14226 net.cpp:408] conv5_1 -> conv5_1
I0413 18:49:56.512060 14226 net.cpp:150] Setting up conv5_1
I0413 18:49:56.512091 14226 net.cpp:157] Top shape: 1 512 63 94 (3032064)
I0413 18:49:56.512104 14226 net.cpp:165] Memory required for data: 3415088628
I0413 18:49:56.512115 14226 layer_factory.hpp:77] Creating layer relu5_1
I0413 18:49:56.512126 14226 net.cpp:100] Creating Layer relu5_1
I0413 18:49:56.512135 14226 net.cpp:434] relu5_1 <- conv5_1
I0413 18:49:56.512145 14226 net.cpp:395] relu5_1 -> conv5_1 (in-place)
I0413 18:49:56.512157 14226 net.cpp:150] Setting up relu5_1
I0413 18:49:56.512167 14226 net.cpp:157] Top shape: 1 512 63 94 (3032064)
I0413 18:49:56.512172 14226 net.cpp:165] Memory required for data: 3427216884
I0413 18:49:56.512177 14226 layer_factory.hpp:77] Creating layer conv5_2
I0413 18:49:56.512192 14226 net.cpp:100] Creating Layer conv5_2
I0413 18:49:56.512197 14226 net.cpp:434] conv5_2 <- conv5_1
I0413 18:49:56.512207 14226 net.cpp:408] conv5_2 -> conv5_2
I0413 18:49:56.516532 14226 net.cpp:150] Setting up conv5_2
I0413 18:49:56.516577 14226 net.cpp:157] Top shape: 1 512 63 94 (3032064)
I0413 18:49:56.516582 14226 net.cpp:165] Memory required for data: 3439345140
I0413 18:49:56.516592 14226 layer_factory.hpp:77] Creating layer relu5_2
I0413 18:49:56.516602 14226 net.cpp:100] Creating Layer relu5_2
I0413 18:49:56.516607 14226 net.cpp:434] relu5_2 <- conv5_2
I0413 18:49:56.516615 14226 net.cpp:395] relu5_2 -> conv5_2 (in-place)
I0413 18:49:56.516628 14226 net.cpp:150] Setting up relu5_2
I0413 18:49:56.516636 14226 net.cpp:157] Top shape: 1 512 63 94 (3032064)
I0413 18:49:56.516641 14226 net.cpp:165] Memory required for data: 3451473396
I0413 18:49:56.516646 14226 layer_factory.hpp:77] Creating layer conv5_3
I0413 18:49:56.516666 14226 net.cpp:100] Creating Layer conv5_3
I0413 18:49:56.516674 14226 net.cpp:434] conv5_3 <- conv5_2
I0413 18:49:56.516685 14226 net.cpp:408] conv5_3 -> conv5_3
I0413 18:49:56.521291 14226 net.cpp:150] Setting up conv5_3
I0413 18:49:56.521325 14226 net.cpp:157] Top shape: 1 512 63 94 (3032064)
I0413 18:49:56.521329 14226 net.cpp:165] Memory required for data: 3463601652
I0413 18:49:56.521342 14226 layer_factory.hpp:77] Creating layer relu5_3
I0413 18:49:56.521358 14226 net.cpp:100] Creating Layer relu5_3
I0413 18:49:56.521368 14226 net.cpp:434] relu5_3 <- conv5_3
I0413 18:49:56.521394 14226 net.cpp:395] relu5_3 -> conv5_3 (in-place)
I0413 18:49:56.521407 14226 net.cpp:150] Setting up relu5_3
I0413 18:49:56.521415 14226 net.cpp:157] Top shape: 1 512 63 94 (3032064)
I0413 18:49:56.521420 14226 net.cpp:165] Memory required for data: 3475729908
I0413 18:49:56.521425 14226 layer_factory.hpp:77] Creating layer conv5_3_relu5_3_0_split
I0413 18:49:56.521435 14226 net.cpp:100] Creating Layer conv5_3_relu5_3_0_split
I0413 18:49:56.521440 14226 net.cpp:434] conv5_3_relu5_3_0_split <- conv5_3
I0413 18:49:56.521448 14226 net.cpp:408] conv5_3_relu5_3_0_split -> conv5_3_relu5_3_0_split_0
I0413 18:49:56.521462 14226 net.cpp:408] conv5_3_relu5_3_0_split -> conv5_3_relu5_3_0_split_1
I0413 18:49:56.521512 14226 net.cpp:150] Setting up conv5_3_relu5_3_0_split
I0413 18:49:56.521523 14226 net.cpp:157] Top shape: 1 512 63 94 (3032064)
I0413 18:49:56.521531 14226 net.cpp:157] Top shape: 1 512 63 94 (3032064)
I0413 18:49:56.521538 14226 net.cpp:165] Memory required for data: 3499986420
I0413 18:49:56.521543 14226 layer_factory.hpp:77] Creating layer rpn_big_conv1
I0413 18:49:56.521562 14226 net.cpp:100] Creating Layer rpn_big_conv1
I0413 18:49:56.521569 14226 net.cpp:434] rpn_big_conv1 <- conv5_3_relu5_3_0_split_0
I0413 18:49:56.521582 14226 net.cpp:408] rpn_big_conv1 -> rpn_big_conv1
I0413 18:49:56.547396 14226 net.cpp:150] Setting up rpn_big_conv1
I0413 18:49:56.547427 14226 net.cpp:157] Top shape: 1 512 63 94 (3032064)
I0413 18:49:56.547441 14226 net.cpp:165] Memory required for data: 3512114676
I0413 18:49:56.547451 14226 layer_factory.hpp:77] Creating layer rpn_big_conv1_relu
I0413 18:49:56.547466 14226 net.cpp:100] Creating Layer rpn_big_conv1_relu
I0413 18:49:56.547473 14226 net.cpp:434] rpn_big_conv1_relu <- rpn_big_conv1
I0413 18:49:56.547484 14226 net.cpp:395] rpn_big_conv1_relu -> rpn_big_conv1 (in-place)
I0413 18:49:56.547498 14226 net.cpp:150] Setting up rpn_big_conv1_relu
I0413 18:49:56.547507 14226 net.cpp:157] Top shape: 1 512 63 94 (3032064)
I0413 18:49:56.547511 14226 net.cpp:165] Memory required for data: 3524242932
I0413 18:49:56.547516 14226 layer_factory.hpp:77] Creating layer rpn_big_conv2
I0413 18:49:56.547531 14226 net.cpp:100] Creating Layer rpn_big_conv2
I0413 18:49:56.547539 14226 net.cpp:434] rpn_big_conv2 <- rpn_big_conv1
I0413 18:49:56.547550 14226 net.cpp:408] rpn_big_conv2 -> rpn_big_conv2
I0413 18:49:56.573926 14226 net.cpp:150] Setting up rpn_big_conv2
I0413 18:49:56.573957 14226 net.cpp:157] Top shape: 1 512 63 94 (3032064)
I0413 18:49:56.573971 14226 net.cpp:165] Memory required for data: 3536371188
I0413 18:49:56.573981 14226 layer_factory.hpp:77] Creating layer rpn_big_conv2_relu
I0413 18:49:56.573990 14226 net.cpp:100] Creating Layer rpn_big_conv2_relu
I0413 18:49:56.573997 14226 net.cpp:434] rpn_big_conv2_relu <- rpn_big_conv2
I0413 18:49:56.574009 14226 net.cpp:395] rpn_big_conv2_relu -> rpn_big_conv2 (in-place)
I0413 18:49:56.574023 14226 net.cpp:150] Setting up rpn_big_conv2_relu
I0413 18:49:56.574033 14226 net.cpp:157] Top shape: 1 512 63 94 (3032064)
I0413 18:49:56.574038 14226 net.cpp:165] Memory required for data: 3548499444
I0413 18:49:56.574043 14226 layer_factory.hpp:77] Creating layer rpn_big_conv2_drop
I0413 18:49:56.574054 14226 net.cpp:100] Creating Layer rpn_big_conv2_drop
I0413 18:49:56.574059 14226 net.cpp:434] rpn_big_conv2_drop <- rpn_big_conv2
I0413 18:49:56.574069 14226 net.cpp:395] rpn_big_conv2_drop -> rpn_big_conv2 (in-place)
I0413 18:49:56.574101 14226 net.cpp:150] Setting up rpn_big_conv2_drop
I0413 18:49:56.574111 14226 net.cpp:157] Top shape: 1 512 63 94 (3032064)
I0413 18:49:56.574117 14226 net.cpp:165] Memory required for data: 3560627700
I0413 18:49:56.574123 14226 layer_factory.hpp:77] Creating layer rpn_big_conv2_rpn_big_conv2_drop_0_split
I0413 18:49:56.574134 14226 net.cpp:100] Creating Layer rpn_big_conv2_rpn_big_conv2_drop_0_split
I0413 18:49:56.574141 14226 net.cpp:434] rpn_big_conv2_rpn_big_conv2_drop_0_split <- rpn_big_conv2
I0413 18:49:56.574151 14226 net.cpp:408] rpn_big_conv2_rpn_big_conv2_drop_0_split -> rpn_big_conv2_rpn_big_conv2_drop_0_split_0
I0413 18:49:56.574164 14226 net.cpp:408] rpn_big_conv2_rpn_big_conv2_drop_0_split -> rpn_big_conv2_rpn_big_conv2_drop_0_split_1
I0413 18:49:56.574223 14226 net.cpp:150] Setting up rpn_big_conv2_rpn_big_conv2_drop_0_split
I0413 18:49:56.574234 14226 net.cpp:157] Top shape: 1 512 63 94 (3032064)
I0413 18:49:56.574244 14226 net.cpp:157] Top shape: 1 512 63 94 (3032064)
I0413 18:49:56.574249 14226 net.cpp:165] Memory required for data: 3584884212
I0413 18:49:56.574254 14226 layer_factory.hpp:77] Creating layer rpn_big_output_cls
I0413 18:49:56.574268 14226 net.cpp:100] Creating Layer rpn_big_output_cls
I0413 18:49:56.574275 14226 net.cpp:434] rpn_big_output_cls <- rpn_big_conv2_rpn_big_conv2_drop_0_split_0
I0413 18:49:56.574286 14226 net.cpp:408] rpn_big_output_cls -> rpn_big_output_cls
I0413 18:49:56.594261 14226 net.cpp:150] Setting up rpn_big_output_cls
I0413 18:49:56.594302 14226 net.cpp:157] Top shape: 1 384 63 94 (2274048)
I0413 18:49:56.594306 14226 net.cpp:165] Memory required for data: 3593980404
I0413 18:49:56.594316 14226 layer_factory.hpp:77] Creating layer rpn_big_output_cls_relu
I0413 18:49:56.594329 14226 net.cpp:100] Creating Layer rpn_big_output_cls_relu
I0413 18:49:56.594336 14226 net.cpp:434] rpn_big_output_cls_relu <- rpn_big_output_cls
I0413 18:49:56.594347 14226 net.cpp:395] rpn_big_output_cls_relu -> rpn_big_output_cls (in-place)
I0413 18:49:56.594362 14226 net.cpp:150] Setting up rpn_big_output_cls_relu
I0413 18:49:56.594372 14226 net.cpp:157] Top shape: 1 384 63 94 (2274048)
I0413 18:49:56.594377 14226 net.cpp:165] Memory required for data: 3603076596
I0413 18:49:56.594382 14226 layer_factory.hpp:77] Creating layer rpn_big_cls_score
I0413 18:49:56.594398 14226 net.cpp:100] Creating Layer rpn_big_cls_score
I0413 18:49:56.594405 14226 net.cpp:434] rpn_big_cls_score <- rpn_big_output_cls
I0413 18:49:56.594418 14226 net.cpp:408] rpn_big_cls_score -> rpn_big_cls_score
I0413 18:49:56.597031 14226 net.cpp:150] Setting up rpn_big_cls_score
I0413 18:49:56.597059 14226 net.cpp:157] Top shape: 1 52 61 92 (291824)
I0413 18:49:56.597064 14226 net.cpp:165] Memory required for data: 3604243892
I0413 18:49:56.597087 14226 layer_factory.hpp:77] Creating layer rpn_big_cls_score_rpn_big_cls_score_0_split
I0413 18:49:56.597105 14226 net.cpp:100] Creating Layer rpn_big_cls_score_rpn_big_cls_score_0_split
I0413 18:49:56.597115 14226 net.cpp:434] rpn_big_cls_score_rpn_big_cls_score_0_split <- rpn_big_cls_score
I0413 18:49:56.597124 14226 net.cpp:408] rpn_big_cls_score_rpn_big_cls_score_0_split -> rpn_big_cls_score_rpn_big_cls_score_0_split_0
I0413 18:49:56.597137 14226 net.cpp:408] rpn_big_cls_score_rpn_big_cls_score_0_split -> rpn_big_cls_score_rpn_big_cls_score_0_split_1
I0413 18:49:56.597182 14226 net.cpp:150] Setting up rpn_big_cls_score_rpn_big_cls_score_0_split
I0413 18:49:56.597192 14226 net.cpp:157] Top shape: 1 52 61 92 (291824)
I0413 18:49:56.597196 14226 net.cpp:157] Top shape: 1 52 61 92 (291824)
I0413 18:49:56.597199 14226 net.cpp:165] Memory required for data: 3606578484
I0413 18:49:56.597203 14226 layer_factory.hpp:77] Creating layer rpn_big_cls_score_reshape
I0413 18:49:56.597211 14226 net.cpp:100] Creating Layer rpn_big_cls_score_reshape
I0413 18:49:56.597216 14226 net.cpp:434] rpn_big_cls_score_reshape <- rpn_big_cls_score_rpn_big_cls_score_0_split_0
I0413 18:49:56.597221 14226 net.cpp:408] rpn_big_cls_score_reshape -> rpn_big_cls_score_reshape
I0413 18:49:56.597251 14226 net.cpp:150] Setting up rpn_big_cls_score_reshape
I0413 18:49:56.597259 14226 net.cpp:157] Top shape: 1 2 1586 92 (291824)
I0413 18:49:56.597261 14226 net.cpp:165] Memory required for data: 3607745780
I0413 18:49:56.597265 14226 layer_factory.hpp:77] Creating layer rpn_big_cls_score_reshape_rpn_big_cls_score_reshape_0_split
I0413 18:49:56.597270 14226 net.cpp:100] Creating Layer rpn_big_cls_score_reshape_rpn_big_cls_score_reshape_0_split
I0413 18:49:56.597272 14226 net.cpp:434] rpn_big_cls_score_reshape_rpn_big_cls_score_reshape_0_split <- rpn_big_cls_score_reshape
I0413 18:49:56.597280 14226 net.cpp:408] rpn_big_cls_score_reshape_rpn_big_cls_score_reshape_0_split -> rpn_big_cls_score_reshape_rpn_big_cls_score_reshape_0_split_0
I0413 18:49:56.597285 14226 net.cpp:408] rpn_big_cls_score_reshape_rpn_big_cls_score_reshape_0_split -> rpn_big_cls_score_reshape_rpn_big_cls_score_reshape_0_split_1
I0413 18:49:56.597316 14226 net.cpp:150] Setting up rpn_big_cls_score_reshape_rpn_big_cls_score_reshape_0_split
I0413 18:49:56.597323 14226 net.cpp:157] Top shape: 1 2 1586 92 (291824)
I0413 18:49:56.597327 14226 net.cpp:157] Top shape: 1 2 1586 92 (291824)
I0413 18:49:56.597331 14226 net.cpp:165] Memory required for data: 3610080372
I0413 18:49:56.597333 14226 layer_factory.hpp:77] Creating layer rpn_big_cls_prob
I0413 18:49:56.597338 14226 net.cpp:100] Creating Layer rpn_big_cls_prob
I0413 18:49:56.597342 14226 net.cpp:434] rpn_big_cls_prob <- rpn_big_cls_score_reshape_rpn_big_cls_score_reshape_0_split_0
I0413 18:49:56.597348 14226 net.cpp:408] rpn_big_cls_prob -> rpn_big_cls_prob
I0413 18:49:56.597399 14226 net.cpp:150] Setting up rpn_big_cls_prob
I0413 18:49:56.597406 14226 net.cpp:157] Top shape: 1 2 1586 92 (291824)
I0413 18:49:56.597409 14226 net.cpp:165] Memory required for data: 3611247668
I0413 18:49:56.597412 14226 layer_factory.hpp:77] Creating layer rpn_big_cls_prob_reshape
I0413 18:49:56.597419 14226 net.cpp:100] Creating Layer rpn_big_cls_prob_reshape
I0413 18:49:56.597424 14226 net.cpp:434] rpn_big_cls_prob_reshape <- rpn_big_cls_prob
I0413 18:49:56.597429 14226 net.cpp:408] rpn_big_cls_prob_reshape -> rpn_big_cls_prob_reshape
I0413 18:49:56.597448 14226 net.cpp:150] Setting up rpn_big_cls_prob_reshape
I0413 18:49:56.597455 14226 net.cpp:157] Top shape: 1 52 61 92 (291824)
I0413 18:49:56.597457 14226 net.cpp:165] Memory required for data: 3612414964
I0413 18:49:56.597460 14226 layer_factory.hpp:77] Creating layer rpn_big_cls_prob_reshape_rpn_big_cls_prob_reshape_0_split
I0413 18:49:56.597467 14226 net.cpp:100] Creating Layer rpn_big_cls_prob_reshape_rpn_big_cls_prob_reshape_0_split
I0413 18:49:56.597470 14226 net.cpp:434] rpn_big_cls_prob_reshape_rpn_big_cls_prob_reshape_0_split <- rpn_big_cls_prob_reshape
I0413 18:49:56.597476 14226 net.cpp:408] rpn_big_cls_prob_reshape_rpn_big_cls_prob_reshape_0_split -> rpn_big_cls_prob_reshape_rpn_big_cls_prob_reshape_0_split_0
I0413 18:49:56.597482 14226 net.cpp:408] rpn_big_cls_prob_reshape_rpn_big_cls_prob_reshape_0_split -> rpn_big_cls_prob_reshape_rpn_big_cls_prob_reshape_0_split_1
I0413 18:49:56.597510 14226 net.cpp:150] Setting up rpn_big_cls_prob_reshape_rpn_big_cls_prob_reshape_0_split
I0413 18:49:56.597517 14226 net.cpp:157] Top shape: 1 52 61 92 (291824)
I0413 18:49:56.597522 14226 net.cpp:157] Top shape: 1 52 61 92 (291824)
I0413 18:49:56.597524 14226 net.cpp:165] Memory required for data: 3614749556
I0413 18:49:56.597527 14226 layer_factory.hpp:77] Creating layer rpn_big_anchor_target
I0413 18:49:56.598798 14226 net.cpp:100] Creating Layer rpn_big_anchor_target
I0413 18:49:56.598814 14226 net.cpp:434] rpn_big_anchor_target <- rpn_big_cls_score_rpn_big_cls_score_0_split_1
I0413 18:49:56.598821 14226 net.cpp:434] rpn_big_anchor_target <- input_gt_boxes_input_2_split_0
I0413 18:49:56.598826 14226 net.cpp:434] rpn_big_anchor_target <- input_ignored_boxes
I0413 18:49:56.598831 14226 net.cpp:434] rpn_big_anchor_target <- input_im_info_input_1_split_0
I0413 18:49:56.598835 14226 net.cpp:434] rpn_big_anchor_target <- input_data_input_0_split_1
I0413 18:49:56.598839 14226 net.cpp:434] rpn_big_anchor_target <- rpn_big_cls_prob_reshape_rpn_big_cls_prob_reshape_0_split_0
I0413 18:49:56.598846 14226 net.cpp:408] rpn_big_anchor_target -> rpn_big_anchor_target_labels
I0413 18:49:56.598855 14226 net.cpp:408] rpn_big_anchor_target -> rpn_big_anchor_target_bbox_targets
I0413 18:49:56.598863 14226 net.cpp:408] rpn_big_anchor_target -> rpn_big_anchor_target_inside_weights
I0413 18:49:56.598871 14226 net.cpp:408] rpn_big_anchor_target -> rpn_big_anchor_target_outside_weights
I0413 18:49:56.604728 14226 net.cpp:150] Setting up rpn_big_anchor_target
I0413 18:49:56.604753 14226 net.cpp:157] Top shape: 1 1 1586 92 (145912)
I0413 18:49:56.604758 14226 net.cpp:157] Top shape: 1 104 61 92 (583648)
I0413 18:49:56.604763 14226 net.cpp:157] Top shape: 1 104 61 92 (583648)
I0413 18:49:56.604765 14226 net.cpp:157] Top shape: 1 104 61 92 (583648)
I0413 18:49:56.604768 14226 net.cpp:165] Memory required for data: 3622336980
I0413 18:49:56.604774 14226 layer_factory.hpp:77] Creating layer rpn_big_loss_cls
I0413 18:49:56.604784 14226 net.cpp:100] Creating Layer rpn_big_loss_cls
I0413 18:49:56.604789 14226 net.cpp:434] rpn_big_loss_cls <- rpn_big_cls_score_reshape_rpn_big_cls_score_reshape_0_split_1
I0413 18:49:56.604795 14226 net.cpp:434] rpn_big_loss_cls <- rpn_big_anchor_target_labels
I0413 18:49:56.604801 14226 net.cpp:408] rpn_big_loss_cls -> rpn_big_loss_cls
I0413 18:49:56.604813 14226 layer_factory.hpp:77] Creating layer rpn_big_loss_cls
I0413 18:49:56.605453 14226 net.cpp:150] Setting up rpn_big_loss_cls
I0413 18:49:56.605468 14226 net.cpp:157] Top shape: (1)
I0413 18:49:56.605470 14226 net.cpp:160]     with loss weight 1
I0413 18:49:56.605489 14226 net.cpp:165] Memory required for data: 3622336984
I0413 18:49:56.605494 14226 layer_factory.hpp:77] Creating layer rpn_big_output_box
I0413 18:49:56.605509 14226 net.cpp:100] Creating Layer rpn_big_output_box
I0413 18:49:56.605514 14226 net.cpp:434] rpn_big_output_box <- rpn_big_conv2_rpn_big_conv2_drop_0_split_1
I0413 18:49:56.605520 14226 net.cpp:408] rpn_big_output_box -> rpn_big_output_box
I0413 18:49:56.625134 14226 net.cpp:150] Setting up rpn_big_output_box
I0413 18:49:56.625165 14226 net.cpp:157] Top shape: 1 384 63 94 (2274048)
I0413 18:49:56.625178 14226 net.cpp:165] Memory required for data: 3631433176
I0413 18:49:56.625188 14226 layer_factory.hpp:77] Creating layer rpn_big_output_box_relu
I0413 18:49:56.625200 14226 net.cpp:100] Creating Layer rpn_big_output_box_relu
I0413 18:49:56.625205 14226 net.cpp:434] rpn_big_output_box_relu <- rpn_big_output_box
I0413 18:49:56.625214 14226 net.cpp:395] rpn_big_output_box_relu -> rpn_big_output_box (in-place)
I0413 18:49:56.625226 14226 net.cpp:150] Setting up rpn_big_output_box_relu
I0413 18:49:56.625229 14226 net.cpp:157] Top shape: 1 384 63 94 (2274048)
I0413 18:49:56.625232 14226 net.cpp:165] Memory required for data: 3640529368
I0413 18:49:56.625236 14226 layer_factory.hpp:77] Creating layer rpn_big_bbox_pred
I0413 18:49:56.625247 14226 net.cpp:100] Creating Layer rpn_big_bbox_pred
I0413 18:49:56.625250 14226 net.cpp:434] rpn_big_bbox_pred <- rpn_big_output_box
I0413 18:49:56.625257 14226 net.cpp:408] rpn_big_bbox_pred -> rpn_big_bbox_pred
I0413 18:49:56.629776 14226 net.cpp:150] Setting up rpn_big_bbox_pred
I0413 18:49:56.629807 14226 net.cpp:157] Top shape: 1 104 61 92 (583648)
I0413 18:49:56.629813 14226 net.cpp:165] Memory required for data: 3642863960
I0413 18:49:56.629825 14226 layer_factory.hpp:77] Creating layer rpn_big_bbox_pred_rpn_big_bbox_pred_0_split
I0413 18:49:56.629839 14226 net.cpp:100] Creating Layer rpn_big_bbox_pred_rpn_big_bbox_pred_0_split
I0413 18:49:56.629847 14226 net.cpp:434] rpn_big_bbox_pred_rpn_big_bbox_pred_0_split <- rpn_big_bbox_pred
I0413 18:49:56.629858 14226 net.cpp:408] rpn_big_bbox_pred_rpn_big_bbox_pred_0_split -> rpn_big_bbox_pred_rpn_big_bbox_pred_0_split_0
I0413 18:49:56.629871 14226 net.cpp:408] rpn_big_bbox_pred_rpn_big_bbox_pred_0_split -> rpn_big_bbox_pred_rpn_big_bbox_pred_0_split_1
I0413 18:49:56.629925 14226 net.cpp:150] Setting up rpn_big_bbox_pred_rpn_big_bbox_pred_0_split
I0413 18:49:56.629936 14226 net.cpp:157] Top shape: 1 104 61 92 (583648)
I0413 18:49:56.629943 14226 net.cpp:157] Top shape: 1 104 61 92 (583648)
I0413 18:49:56.629948 14226 net.cpp:165] Memory required for data: 3647533144
I0413 18:49:56.629953 14226 layer_factory.hpp:77] Creating layer rpn_big_loss_bbox
I0413 18:49:56.630385 14226 net.cpp:100] Creating Layer rpn_big_loss_bbox
I0413 18:49:56.630395 14226 net.cpp:434] rpn_big_loss_bbox <- rpn_big_bbox_pred_rpn_big_bbox_pred_0_split_0
I0413 18:49:56.630401 14226 net.cpp:434] rpn_big_loss_bbox <- rpn_big_anchor_target_bbox_targets
I0413 18:49:56.630409 14226 net.cpp:434] rpn_big_loss_bbox <- rpn_big_anchor_target_inside_weights
I0413 18:49:56.630416 14226 net.cpp:434] rpn_big_loss_bbox <- rpn_big_anchor_target_outside_weights
I0413 18:49:56.630426 14226 net.cpp:408] rpn_big_loss_bbox -> rpn_big_loss_bbox
I0413 18:49:56.632302 14226 net.cpp:150] Setting up rpn_big_loss_bbox
I0413 18:49:56.632349 14226 net.cpp:157] Top shape: 1 (1)
I0413 18:49:56.632356 14226 net.cpp:160]     with loss weight 1
I0413 18:49:56.632371 14226 net.cpp:165] Memory required for data: 3647533148
I0413 18:49:56.632380 14226 layer_factory.hpp:77] Creating layer proposal
I0413 18:49:56.632956 14226 net.cpp:100] Creating Layer proposal
I0413 18:49:56.632980 14226 net.cpp:434] proposal <- rpn_big_cls_prob_reshape_rpn_big_cls_prob_reshape_0_split_1
I0413 18:49:56.632999 14226 net.cpp:434] proposal <- rpn_big_bbox_pred_rpn_big_bbox_pred_0_split_1
I0413 18:49:56.633008 14226 net.cpp:434] proposal <- input_im_info_input_1_split_1
I0413 18:49:56.633019 14226 net.cpp:408] proposal -> rpn_rois
I0413 18:49:56.637118 14226 net.cpp:150] Setting up proposal
I0413 18:49:56.637132 14226 net.cpp:157] Top shape: 1 5 (5)
I0413 18:49:56.637135 14226 net.cpp:165] Memory required for data: 3647533168
I0413 18:49:56.637148 14226 layer_factory.hpp:77] Creating layer roi-data
I0413 18:49:56.637531 14226 net.cpp:100] Creating Layer roi-data
I0413 18:49:56.637540 14226 net.cpp:434] roi-data <- rpn_rois
I0413 18:49:56.637547 14226 net.cpp:434] roi-data <- input_gt_boxes_input_2_split_1
I0413 18:49:56.637562 14226 net.cpp:408] roi-data -> rois
I0413 18:49:56.637569 14226 net.cpp:408] roi-data -> labels
I0413 18:49:56.637578 14226 net.cpp:408] roi-data -> bbox_targets
I0413 18:49:56.637588 14226 net.cpp:408] roi-data -> bbox_inside_weights
I0413 18:49:56.637601 14226 net.cpp:408] roi-data -> bbox_outside_weights
I0413 18:49:56.637614 14226 net.cpp:408] roi-data -> pid_label
I0413 18:49:56.638571 14226 net.cpp:150] Setting up roi-data
I0413 18:49:56.638584 14226 net.cpp:157] Top shape: 1 5 (5)
I0413 18:49:56.638589 14226 net.cpp:157] Top shape: 1 1 (1)
I0413 18:49:56.638602 14226 net.cpp:157] Top shape: 1 8 (8)
I0413 18:49:56.638605 14226 net.cpp:157] Top shape: 1 8 (8)
I0413 18:49:56.638608 14226 net.cpp:157] Top shape: 1 8 (8)
I0413 18:49:56.638612 14226 net.cpp:157] Top shape: (0)
I0413 18:49:56.638614 14226 net.cpp:165] Memory required for data: 3647533288
I0413 18:49:56.638618 14226 layer_factory.hpp:77] Creating layer roi-pool
I0413 18:49:56.638628 14226 net.cpp:100] Creating Layer roi-pool
I0413 18:49:56.638634 14226 net.cpp:434] roi-pool <- conv5_3_relu5_3_0_split_1
I0413 18:49:56.638643 14226 net.cpp:434] roi-pool <- rois
I0413 18:49:56.638651 14226 net.cpp:408] roi-pool -> roi-pool
I0413 18:49:56.638665 14226 roi_pooling_layer.cpp:33] Spatial scale: 0.0625
I0413 18:49:56.638679 14226 roi_pooling_layer.cpp:34] Box scale: 1
I0413 18:49:56.638733 14226 net.cpp:150] Setting up roi-pool
I0413 18:49:56.638744 14226 net.cpp:157] Top shape: 1 512 7 7 (25088)
I0413 18:49:56.638751 14226 net.cpp:165] Memory required for data: 3647633640
I0413 18:49:56.638756 14226 layer_factory.hpp:77] Creating layer fc6
I0413 18:49:56.638764 14226 net.cpp:100] Creating Layer fc6
I0413 18:49:56.638772 14226 net.cpp:434] fc6 <- roi-pool
I0413 18:49:56.638782 14226 net.cpp:408] fc6 -> fc6
I0413 18:49:56.800389 14226 net.cpp:150] Setting up fc6
I0413 18:49:56.800434 14226 net.cpp:157] Top shape: 1 4096 (4096)
I0413 18:49:56.800441 14226 net.cpp:165] Memory required for data: 3647650024
I0413 18:49:56.800459 14226 layer_factory.hpp:77] Creating layer relu6
I0413 18:49:56.800473 14226 net.cpp:100] Creating Layer relu6
I0413 18:49:56.800482 14226 net.cpp:434] relu6 <- fc6
I0413 18:49:56.800493 14226 net.cpp:395] relu6 -> fc6 (in-place)
I0413 18:49:56.800505 14226 net.cpp:150] Setting up relu6
I0413 18:49:56.800513 14226 net.cpp:157] Top shape: 1 4096 (4096)
I0413 18:49:56.800516 14226 net.cpp:165] Memory required for data: 3647666408
I0413 18:49:56.800521 14226 layer_factory.hpp:77] Creating layer drop6
I0413 18:49:56.800534 14226 net.cpp:100] Creating Layer drop6
I0413 18:49:56.800539 14226 net.cpp:434] drop6 <- fc6
I0413 18:49:56.800549 14226 net.cpp:395] drop6 -> fc6 (in-place)
I0413 18:49:56.800580 14226 net.cpp:150] Setting up drop6
I0413 18:49:56.800590 14226 net.cpp:157] Top shape: 1 4096 (4096)
I0413 18:49:56.800595 14226 net.cpp:165] Memory required for data: 3647682792
I0413 18:49:56.800599 14226 layer_factory.hpp:77] Creating layer fc7
I0413 18:49:56.800608 14226 net.cpp:100] Creating Layer fc7
I0413 18:49:56.800613 14226 net.cpp:434] fc7 <- fc6
I0413 18:49:56.800624 14226 net.cpp:408] fc7 -> fc7
I0413 18:49:56.829766 14226 net.cpp:150] Setting up fc7
I0413 18:49:56.829797 14226 net.cpp:157] Top shape: 1 4096 (4096)
I0413 18:49:56.829812 14226 net.cpp:165] Memory required for data: 3647699176
I0413 18:49:56.829823 14226 layer_factory.hpp:77] Creating layer relu7
I0413 18:49:56.829849 14226 net.cpp:100] Creating Layer relu7
I0413 18:49:56.829856 14226 net.cpp:434] relu7 <- fc7
I0413 18:49:56.829867 14226 net.cpp:395] relu7 -> fc7 (in-place)
I0413 18:49:56.829883 14226 net.cpp:150] Setting up relu7
I0413 18:49:56.829891 14226 net.cpp:157] Top shape: 1 4096 (4096)
I0413 18:49:56.829896 14226 net.cpp:165] Memory required for data: 3647715560
I0413 18:49:56.829901 14226 layer_factory.hpp:77] Creating layer drop7
I0413 18:49:56.829910 14226 net.cpp:100] Creating Layer drop7
I0413 18:49:56.829916 14226 net.cpp:434] drop7 <- fc7
I0413 18:49:56.829922 14226 net.cpp:395] drop7 -> fc7 (in-place)
I0413 18:49:56.829957 14226 net.cpp:150] Setting up drop7
I0413 18:49:56.829965 14226 net.cpp:157] Top shape: 1 4096 (4096)
I0413 18:49:56.829970 14226 net.cpp:165] Memory required for data: 3647731944
I0413 18:49:56.829977 14226 layer_factory.hpp:77] Creating layer fc7_drop7_0_split
I0413 18:49:56.829985 14226 net.cpp:100] Creating Layer fc7_drop7_0_split
I0413 18:49:56.829991 14226 net.cpp:434] fc7_drop7_0_split <- fc7
I0413 18:49:56.830000 14226 net.cpp:408] fc7_drop7_0_split -> fc7_drop7_0_split_0
I0413 18:49:56.830026 14226 net.cpp:408] fc7_drop7_0_split -> fc7_drop7_0_split_1
I0413 18:49:56.830076 14226 net.cpp:150] Setting up fc7_drop7_0_split
I0413 18:49:56.830087 14226 net.cpp:157] Top shape: 1 4096 (4096)
I0413 18:49:56.830096 14226 net.cpp:157] Top shape: 1 4096 (4096)
I0413 18:49:56.830101 14226 net.cpp:165] Memory required for data: 3647764712
I0413 18:49:56.830106 14226 layer_factory.hpp:77] Creating layer bbox_pred
I0413 18:49:56.830116 14226 net.cpp:100] Creating Layer bbox_pred
I0413 18:49:56.830122 14226 net.cpp:434] bbox_pred <- fc7_drop7_0_split_0
I0413 18:49:56.830133 14226 net.cpp:408] bbox_pred -> bbox_pred
I0413 18:49:56.830765 14226 net.cpp:150] Setting up bbox_pred
I0413 18:49:56.830773 14226 net.cpp:157] Top shape: 1 8 (8)
I0413 18:49:56.830776 14226 net.cpp:165] Memory required for data: 3647764744
I0413 18:49:56.830787 14226 layer_factory.hpp:77] Creating layer loss_bbox
I0413 18:49:56.830798 14226 net.cpp:100] Creating Layer loss_bbox
I0413 18:49:56.830806 14226 net.cpp:434] loss_bbox <- bbox_pred
I0413 18:49:56.830811 14226 net.cpp:434] loss_bbox <- bbox_targets
I0413 18:49:56.830819 14226 net.cpp:434] loss_bbox <- bbox_inside_weights
I0413 18:49:56.830826 14226 net.cpp:434] loss_bbox <- bbox_outside_weights
I0413 18:49:56.830835 14226 net.cpp:408] loss_bbox -> loss_bbox
I0413 18:49:56.830942 14226 net.cpp:150] Setting up loss_bbox
I0413 18:49:56.830955 14226 net.cpp:157] Top shape: (1)
I0413 18:49:56.830960 14226 net.cpp:160]     with loss weight 1
I0413 18:49:56.830974 14226 net.cpp:165] Memory required for data: 3647764748
I0413 18:49:56.830981 14226 layer_factory.hpp:77] Creating layer feat
I0413 18:49:56.830991 14226 net.cpp:100] Creating Layer feat
I0413 18:49:56.830997 14226 net.cpp:434] feat <- fc7_drop7_0_split_1
I0413 18:49:56.831009 14226 net.cpp:408] feat -> feat
I0413 18:49:56.842360 14226 net.cpp:150] Setting up feat
I0413 18:49:56.842391 14226 net.cpp:157] Top shape: 1 256 (256)
I0413 18:49:56.842396 14226 net.cpp:165] Memory required for data: 3647765772
I0413 18:49:56.842411 14226 layer_factory.hpp:77] Creating layer relu8
I0413 18:49:56.842425 14226 net.cpp:100] Creating Layer relu8
I0413 18:49:56.842434 14226 net.cpp:434] relu8 <- feat
I0413 18:49:56.842445 14226 net.cpp:395] relu8 -> feat (in-place)
I0413 18:49:56.842459 14226 net.cpp:150] Setting up relu8
I0413 18:49:56.842468 14226 net.cpp:157] Top shape: 1 256 (256)
I0413 18:49:56.842473 14226 net.cpp:165] Memory required for data: 3647766796
I0413 18:49:56.842478 14226 layer_factory.hpp:77] Creating layer drop8
I0413 18:49:56.842489 14226 net.cpp:100] Creating Layer drop8
I0413 18:49:56.842494 14226 net.cpp:434] drop8 <- feat
I0413 18:49:56.842504 14226 net.cpp:395] drop8 -> feat (in-place)
I0413 18:49:56.842535 14226 net.cpp:150] Setting up drop8
I0413 18:49:56.842545 14226 net.cpp:157] Top shape: 1 256 (256)
I0413 18:49:56.842550 14226 net.cpp:165] Memory required for data: 3647767820
I0413 18:49:56.842556 14226 layer_factory.hpp:77] Creating layer pid_score
I0413 18:49:56.842568 14226 net.cpp:100] Creating Layer pid_score
I0413 18:49:56.842574 14226 net.cpp:434] pid_score <- feat
I0413 18:49:56.842586 14226 net.cpp:408] pid_score -> pid_score
I0413 18:49:56.858232 14226 net.cpp:150] Setting up pid_score
I0413 18:49:56.858260 14226 net.cpp:157] Top shape: 1 5533 (5533)
I0413 18:49:56.858273 14226 net.cpp:165] Memory required for data: 3647789952
I0413 18:49:56.858284 14226 layer_factory.hpp:77] Creating layer pid_loss
I0413 18:49:56.858296 14226 net.cpp:100] Creating Layer pid_loss
I0413 18:49:56.858302 14226 net.cpp:434] pid_loss <- pid_label
I0413 18:49:56.858311 14226 net.cpp:434] pid_loss <- pid_score
I0413 18:49:56.858320 14226 net.cpp:408] pid_loss -> pid_loss
…
