…
I0413 16:10:16.175575  8026 solver.cpp:48] Initializing solver from parameters: 
base_lr: 0.001
display: 20
lr_policy: "multistep"
gamma: 0.1
momentum: 0.9
weight_decay: 0.0005
snapshot: 0
snapshot_prefix: "faces_example"
net_param {
  name: "GeneratedModel_13_04_2017_16_10"
  layer {
    name: "input"
    type: "Python"
    top: "input_data"
    top: "input_im_info"
    top: "input_gt_boxes"
    top: "input_ignored_boxes"
    python_param {
      module: "layers.roi_data_layer"
      layer: "RoIDataLayer"
      param_str: "{\"num_classes\": 2}"
    }
  }
  layer {
    name: "conv1_1"
    type: "Convolution"
    bottom: "input_data"
    top: "conv1_1"
    param {
      lr_mult: 0
      decay_mult: 0
    }
    param {
      lr_mult: 0
      decay_mult: 0
    }
    convolution_param {
      num_output: 64
      pad: 1
      kernel_size: 3
    }
  }
  layer {
    name: "relu1_1"
    type: "ReLU"
    bottom: "conv1_1"
    top: "conv1_1"
  }
  layer {
    name: "conv1_2"
    type: "Convolution"
    bottom: "conv1_1"
    top: "conv1_2"
    param {
      lr_mult: 0
      decay_mult: 0
    }
    param {
      lr_mult: 0
      decay_mult: 0
    }
    convolution_param {
      num_output: 64
      pad: 1
      kernel_size: 3
    }
  }
  layer {
    name: "relu1_2"
    type: "ReLU"
    bottom: "conv1_2"
    top: "conv1_2"
  }
  layer {
    name: "pool1"
    type: "Pooling"
    bottom: "conv1_2"
    top: "pool1"
    pooling_param {
      pool: MAX
      kernel_size: 2
      stride: 2
    }
  }
  layer {
    name: "conv2_1"
    type: "Convolution"
    bottom: "pool1"
    top: "conv2_1"
    param {
      lr_mult: 0
      decay_mult: 0
    }
    param {
      lr_mult: 0
      decay_mult: 0
    }
    convolution_param {
      num_output: 128
      pad: 1
      kernel_size: 3
    }
  }
  layer {
    name: "relu2_1"
    type: "ReLU"
    bottom: "conv2_1"
    top: "conv2_1"
  }
  layer {
    name: "conv2_2"
    type: "Convolution"
    bottom: "conv2_1"
    top: "conv2_2"
    param {
      lr_mult: 0
      decay_mult: 0
    }
    param {
      lr_mult: 0
      decay_mult: 0
    }
    convolution_param {
      num_output: 128
      pad: 1
      kernel_size: 3
    }
  }
  layer {
    name: "relu2_2"
    type: "ReLU"
    bottom: "conv2_2"
    top: "conv2_2"
  }
  layer {
    name: "pool2"
    type: "Pooling"
    bottom: "conv2_2"
    top: "pool2"
    pooling_param {
      pool: MAX
      kernel_size: 2
      stride: 2
    }
  }
  layer {
    name: "conv3_1"
    type: "Convolution"
    bottom: "pool2"
    top: "conv3_1"
    param {
      lr_mult: 1
    }
    param {
      lr_mult: 2
    }
    convolution_param {
      num_output: 256
      pad: 1
      kernel_size: 3
    }
  }
  layer {
    name: "relu3_1"
    type: "ReLU"
    bottom: "conv3_1"
    top: "conv3_1"
  }
  layer {
    name: "conv3_2"
    type: "Convolution"
    bottom: "conv3_1"
    top: "conv3_2"
    param {
      lr_mult: 1
    }
    param {
      lr_mult: 2
    }
    convolution_param {
      num_output: 256
      pad: 1
      kernel_size: 3
    }
  }
  layer {
    name: "relu3_2"
    type: "ReLU"
    bottom: "conv3_2"
    top: "conv3_2"
  }
  layer {
    name: "conv3_3"
    type: "Convolution"
    bottom: "conv3_2"
    top: "conv3_3"
    param {
      lr_mult: 1
    }
    param {
      lr_mult: 2
    }
    convolution_param {
      num_output: 256
      pad: 1
      kernel_size: 3
    }
  }
  layer {
    name: "relu3_3"
    type: "ReLU"
    bottom: "conv3_3"
    top: "conv3_3"
  }
  layer {
    name: "pool3"
    type: "Pooling"
    bottom: "conv3_3"
    top: "pool3"
    pooling_param {
      pool: MAX
      kernel_size: 2
      stride: 2
    }
  }
  layer {
    name: "conv4_1"
    type: "Convolution"
    bottom: "pool3"
    top: "conv4_1"
    param {
      lr_mult: 1
    }
    param {
      lr_mult: 2
    }
    convolution_param {
      num_output: 512
      pad: 1
      kernel_size: 3
    }
  }
  layer {
    name: "relu4_1"
    type: "ReLU"
    bottom: "conv4_1"
    top: "conv4_1"
  }
  layer {
    name: "conv4_2"
    type: "Convolution"
    bottom: "conv4_1"
    top: "conv4_2"
    param {
      lr_mult: 1
    }
    param {
      lr_mult: 2
    }
    convolution_param {
      num_output: 512
      pad: 1
      kernel_size: 3
    }
  }
  layer {
    name: "relu4_2"
    type: "ReLU"
    bottom: "conv4_2"
    top: "conv4_2"
  }
  layer {
    name: "conv4_3"
    type: "Convolution"
    bottom: "conv4_2"
    top: "conv4_3"
    param {
      lr_mult: 1
    }
    param {
      lr_mult: 2
    }
    convolution_param {
      num_output: 512
      pad: 1
      kernel_size: 3
    }
  }
  layer {
    name: "relu4_3"
    type: "ReLU"
    bottom: "conv4_3"
    top: "conv4_3"
  }
  layer {
    name: "pool4"
    type: "Pooling"
    bottom: "conv4_3"
    top: "pool4"
    pooling_param {
      pool: MAX
      kernel_size: 2
      stride: 2
    }
  }
  layer {
    name: "conv5_1"
    type: "Convolution"
    bottom: "pool4"
    top: "conv5_1"
    param {
      lr_mult: 1
    }
    param {
      lr_mult: 2
    }
    convolution_param {
      num_output: 512
      pad: 1
      kernel_size: 3
    }
  }
  layer {
    name: "relu5_1"
    type: "ReLU"
    bottom: "conv5_1"
    top: "conv5_1"
  }
  layer {
    name: "conv5_2"
    type: "Convolution"
    bottom: "conv5_1"
    top: "conv5_2"
    param {
      lr_mult: 1
    }
    param {
      lr_mult: 2
    }
    convolution_param {
      num_output: 512
      pad: 1
      kernel_size: 3
    }
  }
  layer {
    name: "relu5_2"
    type: "ReLU"
    bottom: "conv5_2"
    top: "conv5_2"
  }
  layer {
    name: "conv5_3"
    type: "Convolution"
    bottom: "conv5_2"
    top: "conv5_3"
    param {
      lr_mult: 1
    }
    param {
      lr_mult: 2
    }
    convolution_param {
      num_output: 512
      pad: 1
      kernel_size: 3
    }
  }
  layer {
    name: "relu5_3"
    type: "ReLU"
    bottom: "conv5_3"
    top: "conv5_3"
  }
  layer {
    name: "rpn_big_conv1"
    type: "Convolution"
    bottom: "conv5_3"
    top: "rpn_big_conv1"
    param {
      lr_mult: 1
    }
    param {
      lr_mult: 2
    }
    convolution_param {
      num_output: 512
      pad: 1
      kernel_size: 3
      stride: 1
      weight_filler {
        type: "gaussian"
        mean: 0
        std: 0.01
      }
      bias_filler {
        type: "constant"
      }
    }
  }
  layer {
    name: "rpn_big_conv1_relu"
    type: "ReLU"
    bottom: "rpn_big_conv1"
    top: "rpn_big_conv1"
    relu_param {
      negative_slope: 0
    }
  }
  layer {
    name: "rpn_big_conv2"
    type: "Convolution"
    bottom: "rpn_big_conv1"
    top: "rpn_big_conv2"
    param {
      lr_mult: 1
    }
    param {
      lr_mult: 2
    }
    convolution_param {
      num_output: 512
      pad: 1
      kernel_size: 3
      stride: 1
      weight_filler {
        type: "gaussian"
        mean: 0
        std: 0.01
      }
      bias_filler {
        type: "constant"
      }
    }
  }
  layer {
    name: "rpn_big_conv2_relu"
    type: "ReLU"
    bottom: "rpn_big_conv2"
    top: "rpn_big_conv2"
    relu_param {
      negative_slope: 0
    }
  }
  layer {
    name: "rpn_big_conv2_drop"
    type: "Dropout"
    bottom: "rpn_big_conv2"
    top: "rpn_big_conv2"
    dropout_param {
      dropout_ratio: 0.3
    }
  }
  layer {
    name: "rpn_big_output_cls"
    type: "Convolution"
    bottom: "rpn_big_conv2"
    top: "rpn_big_output_cls"
    param {
      lr_mult: 1
    }
    param {
      lr_mult: 2
    }
    convolution_param {
      num_output: 384
      pad: 1
      kernel_size: 3
      stride: 1
      weight_filler {
        type: "gaussian"
        mean: 0
        std: 0.01
      }
      bias_filler {
        type: "constant"
      }
    }
  }
  layer {
    name: "rpn_big_output_cls_relu"
    type: "ReLU"
    bottom: "rpn_big_output_cls"
    top: "rpn_big_output_cls"
    relu_param {
      negative_slope: 0
    }
  }
  layer {
    name: "rpn_big_cls_score"
    type: "Convolution"
    bottom: "rpn_big_output_cls"
    top: "rpn_big_cls_score"
    param {
      lr_mult: 1
    }
    param {
      lr_mult: 2
    }
    convolution_param {
      num_output: 52
      pad: 0
      kernel_size: 3
      stride: 1
      weight_filler {
        type: "gaussian"
        mean: 0
        std: 0.01
      }
      bias_filler {
        type: "constant"
      }
    }
  }
  layer {
    name: "rpn_big_cls_score_reshape"
    type: "Reshape"
    bottom: "rpn_big_cls_score"
    top: "rpn_big_cls_score_reshape"
    reshape_param {
      shape {
        dim: 0
        dim: 2
        dim: -1
        dim: 0
      }
    }
  }
  layer {
    name: "rpn_big_cls_prob"
    type: "Softmax"
    bottom: "rpn_big_cls_score_reshape"
    top: "rpn_big_cls_prob"
  }
  layer {
    name: "rpn_big_cls_prob_reshape"
    type: "Reshape"
    bottom: "rpn_big_cls_prob"
    top: "rpn_big_cls_prob_reshape"
    reshape_param {
      shape {
        dim: 0
        dim: 52
        dim: -1
        dim: 0
      }
    }
  }
  layer {
    name: "rpn_big_anchor_target"
    type: "Python"
    bottom: "rpn_big_cls_score"
    bottom: "input_gt_boxes"
    bottom: "input_ignored_boxes"
    bottom: "input_im_info"
    bottom: "input_data"
    bottom: "rpn_big_cls_prob_reshape"
    top: "rpn_big_anchor_target_labels"
    top: "rpn_big_anchor_target_bbox_targets"
    top: "rpn_big_anchor_target_inside_weights"
    top: "rpn_big_anchor_target_outside_weights"
    python_param {
      module: "rpn.anchor_target_layer"
      layer: "AnchorTargetLayer"
      param_str: "{\"fg_fraction\": 0.5, \"tn_fraction\": 0.2, \"anchor_shift_num_xy\": [[2, 2], [2, 2], [2, 2], [2, 2], [1, 1], [1, 1], [1, 1], [1, 1], [1, 1], [1, 1], [1, 1], [1, 1], [1, 1], [1, 1]], \"square_targets\": true, \"anchor_ratios\": [1.0], \"feat_stride\": 16, \"positive_overlap\": 0.6, \"batchsize\": 256, \"negative_overlap\": 0.4, \"name\": \"rpn_big\", \"num_classes\": 1, \"anchor_scales\": [2.5, 3.025, 3.66025, 4.4289024999999995, 5.358972025, 6.484356150249999, 7.846070941802498, 9.493745839581022, 11.487432465893036, 13.899793283730574, 16.818749873313998, 20.350687346709933, 24.62433168951902, 29.795441344318014]}"
    }
  }
  layer {
    name: "rpn_big_loss_cls"
    type: "SoftmaxWithLoss"
    bottom: "rpn_big_cls_score_reshape"
    bottom: "rpn_big_anchor_target_labels"
    top: "rpn_big_loss_cls"
    loss_weight: 1
    propagate_down: true
    propagate_down: false
    loss_param {
      ignore_label: -1
      normalization: VALID
    }
  }
  layer {
    name: "rpn_big_output_box"
    type: "Convolution"
    bottom: "rpn_big_conv2"
    top: "rpn_big_output_box"
    param {
      lr_mult: 1
    }
    param {
      lr_mult: 2
    }
    convolution_param {
      num_output: 384
      pad: 1
      kernel_size: 3
      stride: 1
      weight_filler {
        type: "gaussian"
        mean: 0
        std: 0.01
      }
      bias_filler {
        type: "constant"
      }
    }
  }
  layer {
    name: "rpn_big_output_box_relu"
    type: "ReLU"
    bottom: "rpn_big_output_box"
    top: "rpn_big_output_box"
    relu_param {
      negative_slope: 0
    }
  }
  layer {
    name: "rpn_big_bbox_pred"
    type: "Convolution"
    bottom: "rpn_big_output_box"
    top: "rpn_big_bbox_pred"
    param {
      lr_mult: 1
    }
    param {
      lr_mult: 2
    }
    convolution_param {
      num_output: 104
      pad: 0
      kernel_size: 3
      stride: 1
      weight_filler {
        type: "gaussian"
        mean: 0
        std: 0.01
      }
      bias_filler {
        type: "constant"
      }
    }
  }
  layer {
    name: "rpn_big_loss_bbox"
    type: "Python"
    bottom: "rpn_big_bbox_pred"
    bottom: "rpn_big_anchor_target_bbox_targets"
    bottom: "rpn_big_anchor_target_inside_weights"
    bottom: "rpn_big_anchor_target_outside_weights"
    top: "rpn_big_loss_bbox"
    loss_weight: 1
    python_param {
      module: "layers.smooth_l1_loss"
      layer: "SmoothL1LossLayer"
      param_str: "{\"sigma\": 3}"
    }
  }
  layer {
    name: "proposal"
    type: "Python"
    bottom: "rpn_big_cls_prob_reshape"
    bottom: "rpn_big_bbox_pred"
    bottom: "input_im_info"
    top: "rpn_rois"
    python_param {
      module: "rpn.proposal_layer"
      layer: "ProposalLayer"
      param_str: "\'feat_stride\': 16 ;\'scales\': !!python/tuple [4, 8, 16, 32]"
    }
  }
}
average_loss: 100
stepvalue: 70000
stepvalue: 120000
iter_size: 2
I0413 16:10:16.175648  8026 solver.cpp:86] Creating training net specified in net_param.
I0413 16:10:16.176012  8026 net.cpp:58] Initializing net from parameters: 
name: "GeneratedModel_13_04_2017_16_10"
state {
  phase: TRAIN
}
layer {
  name: "input"
  type: "Python"
  top: "input_data"
  top: "input_im_info"
  top: "input_gt_boxes"
  top: "input_ignored_boxes"
  python_param {
    module: "layers.roi_data_layer"
    layer: "RoIDataLayer"
    param_str: "{\"num_classes\": 2}"
  }
}
layer {
  name: "conv1_1"
  type: "Convolution"
  bottom: "input_data"
  top: "conv1_1"
  param {
    lr_mult: 0
    decay_mult: 0
  }
  param {
    lr_mult: 0
    decay_mult: 0
  }
  convolution_param {
    num_output: 64
    pad: 1
    kernel_size: 3
  }
}
layer {
  name: "relu1_1"
  type: "ReLU"
  bottom: "conv1_1"
  top: "conv1_1"
}
layer {
  name: "conv1_2"
  type: "Convolution"
  bottom: "conv1_1"
  top: "conv1_2"
  param {
    lr_mult: 0
    decay_mult: 0
  }
  param {
    lr_mult: 0
    decay_mult: 0
  }
  convolution_param {
    num_output: 64
    pad: 1
    kernel_size: 3
  }
}
layer {
  name: "relu1_2"
  type: "ReLU"
  bottom: "conv1_2"
  top: "conv1_2"
}
layer {
  name: "pool1"
  type: "Pooling"
  bottom: "conv1_2"
  top: "pool1"
  pooling_param {
    pool: MAX
    kernel_size: 2
    stride: 2
  }
}
layer {
  name: "conv2_1"
  type: "Convolution"
  bottom: "pool1"
  top: "conv2_1"
  param {
    lr_mult: 0
    decay_mult: 0
  }
  param {
    lr_mult: 0
    decay_mult: 0
  }
  convolution_param {
    num_output: 128
    pad: 1
    kernel_size: 3
  }
}
layer {
  name: "relu2_1"
  type: "ReLU"
  bottom: "conv2_1"
  top: "conv2_1"
}
layer {
  name: "conv2_2"
  type: "Convolution"
  bottom: "conv2_1"
  top: "conv2_2"
  param {
    lr_mult: 0
    decay_mult: 0
  }
  param {
    lr_mult: 0
    decay_mult: 0
  }
  convolution_param {
    num_output: 128
    pad: 1
    kernel_size: 3
  }
}
layer {
  name: "relu2_2"
  type: "ReLU"
  bottom: "conv2_2"
  top: "conv2_2"
}
layer {
  name: "pool2"
  type: "Pooling"
  bottom: "conv2_2"
  top: "pool2"
  pooling_param {
    pool: MAX
    kernel_size: 2
    stride: 2
  }
}
layer {
  name: "conv3_1"
  type: "Convolution"
  bottom: "pool2"
  top: "conv3_1"
  param {
    lr_mult: 1
  }
  param {
    lr_mult: 2
  }
  convolution_param {
    num_output: 256
    pad: 1
    kernel_size: 3
  }
}
layer {
  name: "relu3_1"
  type: "ReLU"
  bottom: "conv3_1"
  top: "conv3_1"
}
layer {
  name: "conv3_2"
  type: "Convolution"
  bottom: "conv3_1"
  top: "conv3_2"
  param {
    lr_mult: 1
  }
  param {
    lr_mult: 2
  }
  convolution_param {
    num_output: 256
    pad: 1
    kernel_size: 3
  }
}
layer {
  name: "relu3_2"
  type: "ReLU"
  bottom: "conv3_2"
  top: "conv3_2"
}
layer {
  name: "conv3_3"
  type: "Convolution"
  bottom: "conv3_2"
  top: "conv3_3"
  param {
    lr_mult: 1
  }
  param {
    lr_mult: 2
  }
  convolution_param {
    num_output: 256
    pad: 1
    kernel_size: 3
  }
}
layer {
  name: "relu3_3"
  type: "ReLU"
  bottom: "conv3_3"
  top: "conv3_3"
}
layer {
  name: "pool3"
  type: "Pooling"
  bottom: "conv3_3"
  top: "pool3"
  pooling_param {
    pool: MAX
    kernel_size: 2
    stride: 2
  }
}
layer {
  name: "conv4_1"
  type: "Convolution"
  bottom: "pool3"
  top: "conv4_1"
  param {
    lr_mult: 1
  }
  param {
    lr_mult: 2
  }
  convolution_param {
    num_output: 512
    pad: 1
    kernel_size: 3
  }
}
layer {
  name: "relu4_1"
  type: "ReLU"
  bottom: "conv4_1"
  top: "conv4_1"
}
layer {
  name: "conv4_2"
  type: "Convolution"
  bottom: "conv4_1"
  top: "conv4_2"
  param {
    lr_mult: 1
  }
  param {
    lr_mult: 2
  }
  convolution_param {
    num_output: 512
    pad: 1
    kernel_size: 3
  }
}
layer {
  name: "relu4_2"
  type: "ReLU"
  bottom: "conv4_2"
  top: "conv4_2"
}
layer {
  name: "conv4_3"
  type: "Convolution"
  bottom: "conv4_2"
  top: "conv4_3"
  param {
    lr_mult: 1
  }
  param {
    lr_mult: 2
  }
  convolution_param {
    num_output: 512
    pad: 1
    kernel_size: 3
  }
}
layer {
  name: "relu4_3"
  type: "ReLU"
  bottom: "conv4_3"
  top: "conv4_3"
}
layer {
  name: "pool4"
  type: "Pooling"
  bottom: "conv4_3"
  top: "pool4"
  pooling_param {
    pool: MAX
    kernel_size: 2
    stride: 2
  }
}
layer {
  name: "conv5_1"
  type: "Convolution"
  bottom: "pool4"
  top: "conv5_1"
  param {
    lr_mult: 1
  }
  param {
    lr_mult: 2
  }
  convolution_param {
    num_output: 512
    pad: 1
    kernel_size: 3
  }
}
layer {
  name: "relu5_1"
  type: "ReLU"
  bottom: "conv5_1"
  top: "conv5_1"
}
layer {
  name: "conv5_2"
  type: "Convolution"
  bottom: "conv5_1"
  top: "conv5_2"
  param {
    lr_mult: 1
  }
  param {
    lr_mult: 2
  }
  convolution_param {
    num_output: 512
    pad: 1
    kernel_size: 3
  }
}
layer {
  name: "relu5_2"
  type: "ReLU"
  bottom: "conv5_2"
  top: "conv5_2"
}
layer {
  name: "conv5_3"
  type: "Convolution"
  bottom: "conv5_2"
  top: "conv5_3"
  param {
    lr_mult: 1
  }
  param {
    lr_mult: 2
  }
  convolution_param {
    num_output: 512
    pad: 1
    kernel_size: 3
  }
}
layer {
  name: "relu5_3"
  type: "ReLU"
  bottom: "conv5_3"
  top: "conv5_3"
}
layer {
  name: "rpn_big_conv1"
  type: "Convolution"
  bottom: "conv5_3"
  top: "rpn_big_conv1"
  param {
    lr_mult: 1
  }
  param {
    lr_mult: 2
  }
  convolution_param {
    num_output: 512
    pad: 1
    kernel_size: 3
    stride: 1
    weight_filler {
      type: "gaussian"
      mean: 0
      std: 0.01
    }
    bias_filler {
      type: "constant"
    }
  }
}
layer {
  name: "rpn_big_conv1_relu"
  type: "ReLU"
  bottom: "rpn_big_conv1"
  top: "rpn_big_conv1"
  relu_param {
    negative_slope: 0
  }
}
layer {
  name: "rpn_big_conv2"
  type: "Convolution"
  bottom: "rpn_big_conv1"
  top: "rpn_big_conv2"
  param {
    lr_mult: 1
  }
  param {
    lr_mult: 2
  }
  convolution_param {
    num_output: 512
    pad: 1
    kernel_size: 3
    stride: 1
    weight_filler {
      type: "gaussian"
      mean: 0
      std: 0.01
    }
    bias_filler {
      type: "constant"
    }
  }
}
layer {
  name: "rpn_big_conv2_relu"
  type: "ReLU"
  bottom: "rpn_big_conv2"
  top: "rpn_big_conv2"
  relu_param {
    negative_slope: 0
  }
}
layer {
  name: "rpn_big_conv2_drop"
  type: "Dropout"
  bottom: "rpn_big_conv2"
  top: "rpn_big_conv2"
  dropout_param {
    dropout_ratio: 0.3
  }
}
layer {
  name: "rpn_big_output_cls"
  type: "Convolution"
  bottom: "rpn_big_conv2"
  top: "rpn_big_output_cls"
  param {
    lr_mult: 1
  }
  param {
    lr_mult: 2
  }
  convolution_param {
    num_output: 384
    pad: 1
    kernel_size: 3
    stride: 1
    weight_filler {
      type: "gaussian"
      mean: 0
      std: 0.01
    }
    bias_filler {
      type: "constant"
    }
  }
}
layer {
  name: "rpn_big_output_cls_relu"
  type: "ReLU"
  bottom: "rpn_big_output_cls"
  top: "rpn_big_output_cls"
  relu_param {
    negative_slope: 0
  }
}
layer {
  name: "rpn_big_cls_score"
  type: "Convolution"
  bottom: "rpn_big_output_cls"
  top: "rpn_big_cls_score"
  param {
    lr_mult: 1
  }
  param {
    lr_mult: 2
  }
  convolution_param {
    num_output: 52
    pad: 0
    kernel_size: 3
    stride: 1
    weight_filler {
      type: "gaussian"
      mean: 0
      std: 0.01
    }
    bias_filler {
      type: "constant"
    }
  }
}
layer {
  name: "rpn_big_cls_score_reshape"
  type: "Reshape"
  bottom: "rpn_big_cls_score"
  top: "rpn_big_cls_score_reshape"
  reshape_param {
    shape {
      dim: 0
      dim: 2
      dim: -1
      dim: 0
    }
  }
}
layer {
  name: "rpn_big_cls_prob"
  type: "Softmax"
  bottom: "rpn_big_cls_score_reshape"
  top: "rpn_big_cls_prob"
}
layer {
  name: "rpn_big_cls_prob_reshape"
  type: "Reshape"
  bottom: "rpn_big_cls_prob"
  top: "rpn_big_cls_prob_reshape"
  reshape_param {
    shape {
      dim: 0
      dim: 52
      dim: -1
      dim: 0
    }
  }
}
layer {
  name: "rpn_big_anchor_target"
  type: "Python"
  bottom: "rpn_big_cls_score"
  bottom: "input_gt_boxes"
  bottom: "input_ignored_boxes"
  bottom: "input_im_info"
  bottom: "input_data"
  bottom: "rpn_big_cls_prob_reshape"
  top: "rpn_big_anchor_target_labels"
  top: "rpn_big_anchor_target_bbox_targets"
  top: "rpn_big_anchor_target_inside_weights"
  top: "rpn_big_anchor_target_outside_weights"
  python_param {
    module: "rpn.anchor_target_layer"
    layer: "AnchorTargetLayer"
    param_str: "{\"fg_fraction\": 0.5, \"tn_fraction\": 0.2, \"anchor_shift_num_xy\": [[2, 2], [2, 2], [2, 2], [2, 2], [1, 1], [1, 1], [1, 1], [1, 1], [1, 1], [1, 1], [1, 1], [1, 1], [1, 1], [1, 1]], \"square_targets\": true, \"anchor_ratios\": [1.0], \"feat_stride\": 16, \"positive_overlap\": 0.6, \"batchsize\": 256, \"negative_overlap\": 0.4, \"name\": \"rpn_big\", \"num_classes\": 1, \"anchor_scales\": [2.5, 3.025, 3.66025, 4.4289024999999995, 5.358972025, 6.484356150249999, 7.846070941802498, 9.493745839581022, 11.487432465893036, 13.899793283730574, 16.818749873313998, 20.350687346709933, 24.62433168951902, 29.795441344318014]}"
  }
}
layer {
  name: "rpn_big_loss_cls"
  type: "SoftmaxWithLoss"
  bottom: "rpn_big_cls_score_reshape"
  bottom: "rpn_big_anchor_target_labels"
  top: "rpn_big_loss_cls"
  loss_weight: 1
  propagate_down: true
  propagate_down: false
  loss_param {
    ignore_label: -1
    normalization: VALID
  }
}
layer {
  name: "rpn_big_output_box"
  type: "Convolution"
  bottom: "rpn_big_conv2"
  top: "rpn_big_output_box"
  param {
    lr_mult: 1
  }
  param {
    lr_mult: 2
  }
  convolution_param {
    num_output: 384
    pad: 1
    kernel_size: 3
    stride: 1
    weight_filler {
      type: "gaussian"
      mean: 0
      std: 0.01
    }
    bias_filler {
      type: "constant"
    }
  }
}
layer {
  name: "rpn_big_output_box_relu"
  type: "ReLU"
  bottom: "rpn_big_output_box"
  top: "rpn_big_output_box"
  relu_param {
    negative_slope: 0
  }
}
layer {
  name: "rpn_big_bbox_pred"
  type: "Convolution"
  bottom: "rpn_big_output_box"
  top: "rpn_big_bbox_pred"
  param {
    lr_mult: 1
  }
  param {
    lr_mult: 2
  }
  convolution_param {
    num_output: 104
    pad: 0
    kernel_size: 3
    stride: 1
    weight_filler {
      type: "gaussian"
      mean: 0
      std: 0.01
    }
    bias_filler {
      type: "constant"
    }
  }
}
layer {
  name: "rpn_big_loss_bbox"
  type: "Python"
  bottom: "rpn_big_bbox_pred"
  bottom: "rpn_big_anchor_target_bbox_targets"
  bottom: "rpn_big_anchor_target_inside_weights"
  bottom: "rpn_big_anchor_target_outside_weights"
  top: "rpn_big_loss_bbox"
  loss_weight: 1
  python_param {
    module: "layers.smooth_l1_loss"
    layer: "SmoothL1LossLayer"
    param_str: "{\"sigma\": 3}"
  }
}
layer {
  name: "proposal"
  type: "Python"
  bottom: "rpn_big_cls_prob_reshape"
  bottom: "rpn_big_bbox_pred"
  bottom: "input_im_info"
  top: "rpn_rois"
  python_param {
    module: "rpn.proposal_layer"
    layer: "ProposalLayer"
    param_str: "\'feat_stride\': 16 ;\'scales\': !!python/tuple [4, 8, 16, 32]"
  }
}
I0413 16:10:16.176188  8026 layer_factory.hpp:77] Creating layer input
I0413 16:10:16.177454  8026 net.cpp:100] Creating Layer input
I0413 16:10:16.177474  8026 net.cpp:408] input -> input_data
I0413 16:10:16.177486  8026 net.cpp:408] input -> input_im_info
I0413 16:10:16.177494  8026 net.cpp:408] input -> input_gt_boxes
I0413 16:10:16.177500  8026 net.cpp:408] input -> input_ignored_boxes
RoiDataLayer: name_to_top: {'ignored_boxes': 3, 'im_info': 1, 'data': 0, 'gt_boxes': 2}
I0413 16:10:16.485404  8026 net.cpp:150] Setting up input
I0413 16:10:16.485435  8026 net.cpp:157] Top shape: 1 3 1000 1500 (4500000)
I0413 16:10:16.485448  8026 net.cpp:157] Top shape: 1 3 (3)
I0413 16:10:16.485460  8026 net.cpp:157] Top shape: 1 5 (5)
I0413 16:10:16.485471  8026 net.cpp:157] Top shape: 1 5 (5)
I0413 16:10:16.485477  8026 net.cpp:165] Memory required for data: 18000052
I0413 16:10:16.485487  8026 layer_factory.hpp:77] Creating layer input_data_input_0_split
I0413 16:10:16.485507  8026 net.cpp:100] Creating Layer input_data_input_0_split
I0413 16:10:16.485514  8026 net.cpp:434] input_data_input_0_split <- input_data
I0413 16:10:16.485529  8026 net.cpp:408] input_data_input_0_split -> input_data_input_0_split_0
I0413 16:10:16.485548  8026 net.cpp:408] input_data_input_0_split -> input_data_input_0_split_1
I0413 16:10:16.485586  8026 net.cpp:150] Setting up input_data_input_0_split
I0413 16:10:16.485599  8026 net.cpp:157] Top shape: 1 3 1000 1500 (4500000)
I0413 16:10:16.485610  8026 net.cpp:157] Top shape: 1 3 1000 1500 (4500000)
I0413 16:10:16.485616  8026 net.cpp:165] Memory required for data: 54000052
I0413 16:10:16.485622  8026 layer_factory.hpp:77] Creating layer input_im_info_input_1_split
I0413 16:10:16.485635  8026 net.cpp:100] Creating Layer input_im_info_input_1_split
I0413 16:10:16.485642  8026 net.cpp:434] input_im_info_input_1_split <- input_im_info
I0413 16:10:16.485652  8026 net.cpp:408] input_im_info_input_1_split -> input_im_info_input_1_split_0
I0413 16:10:16.485666  8026 net.cpp:408] input_im_info_input_1_split -> input_im_info_input_1_split_1
I0413 16:10:16.485707  8026 net.cpp:150] Setting up input_im_info_input_1_split
I0413 16:10:16.485715  8026 net.cpp:157] Top shape: 1 3 (3)
I0413 16:10:16.485723  8026 net.cpp:157] Top shape: 1 3 (3)
I0413 16:10:16.485729  8026 net.cpp:165] Memory required for data: 54000076
I0413 16:10:16.485736  8026 layer_factory.hpp:77] Creating layer conv1_1
I0413 16:10:16.485752  8026 net.cpp:100] Creating Layer conv1_1
I0413 16:10:16.485759  8026 net.cpp:434] conv1_1 <- input_data_input_0_split_0
I0413 16:10:16.485771  8026 net.cpp:408] conv1_1 -> conv1_1
I0413 16:10:16.488829  8026 net.cpp:150] Setting up conv1_1
I0413 16:10:16.488869  8026 net.cpp:157] Top shape: 1 64 1000 1500 (96000000)
I0413 16:10:16.488875  8026 net.cpp:165] Memory required for data: 438000076
I0413 16:10:16.488900  8026 layer_factory.hpp:77] Creating layer relu1_1
I0413 16:10:16.488931  8026 net.cpp:100] Creating Layer relu1_1
I0413 16:10:16.488941  8026 net.cpp:434] relu1_1 <- conv1_1
I0413 16:10:16.488955  8026 net.cpp:395] relu1_1 -> conv1_1 (in-place)
I0413 16:10:16.488971  8026 net.cpp:150] Setting up relu1_1
I0413 16:10:16.488981  8026 net.cpp:157] Top shape: 1 64 1000 1500 (96000000)
I0413 16:10:16.488987  8026 net.cpp:165] Memory required for data: 822000076
I0413 16:10:16.488993  8026 layer_factory.hpp:77] Creating layer conv1_2
I0413 16:10:16.489011  8026 net.cpp:100] Creating Layer conv1_2
I0413 16:10:16.489017  8026 net.cpp:434] conv1_2 <- conv1_1
I0413 16:10:16.489027  8026 net.cpp:408] conv1_2 -> conv1_2
I0413 16:10:16.492214  8026 net.cpp:150] Setting up conv1_2
I0413 16:10:16.492251  8026 net.cpp:157] Top shape: 1 64 1000 1500 (96000000)
I0413 16:10:16.492257  8026 net.cpp:165] Memory required for data: 1206000076
I0413 16:10:16.492282  8026 layer_factory.hpp:77] Creating layer relu1_2
I0413 16:10:16.492300  8026 net.cpp:100] Creating Layer relu1_2
I0413 16:10:16.492307  8026 net.cpp:434] relu1_2 <- conv1_2
I0413 16:10:16.492321  8026 net.cpp:395] relu1_2 -> conv1_2 (in-place)
I0413 16:10:16.492336  8026 net.cpp:150] Setting up relu1_2
I0413 16:10:16.492344  8026 net.cpp:157] Top shape: 1 64 1000 1500 (96000000)
I0413 16:10:16.492352  8026 net.cpp:165] Memory required for data: 1590000076
I0413 16:10:16.492357  8026 layer_factory.hpp:77] Creating layer pool1
I0413 16:10:16.492369  8026 net.cpp:100] Creating Layer pool1
I0413 16:10:16.492378  8026 net.cpp:434] pool1 <- conv1_2
I0413 16:10:16.492388  8026 net.cpp:408] pool1 -> pool1
I0413 16:10:16.492466  8026 net.cpp:150] Setting up pool1
I0413 16:10:16.492476  8026 net.cpp:157] Top shape: 1 64 500 750 (24000000)
I0413 16:10:16.492482  8026 net.cpp:165] Memory required for data: 1686000076
I0413 16:10:16.492489  8026 layer_factory.hpp:77] Creating layer conv2_1
I0413 16:10:16.492507  8026 net.cpp:100] Creating Layer conv2_1
I0413 16:10:16.492514  8026 net.cpp:434] conv2_1 <- pool1
I0413 16:10:16.492527  8026 net.cpp:408] conv2_1 -> conv2_1
I0413 16:10:16.493759  8026 net.cpp:150] Setting up conv2_1
I0413 16:10:16.493780  8026 net.cpp:157] Top shape: 1 128 500 750 (48000000)
I0413 16:10:16.493787  8026 net.cpp:165] Memory required for data: 1878000076
I0413 16:10:16.493803  8026 layer_factory.hpp:77] Creating layer relu2_1
I0413 16:10:16.493818  8026 net.cpp:100] Creating Layer relu2_1
I0413 16:10:16.493825  8026 net.cpp:434] relu2_1 <- conv2_1
I0413 16:10:16.493835  8026 net.cpp:395] relu2_1 -> conv2_1 (in-place)
I0413 16:10:16.493849  8026 net.cpp:150] Setting up relu2_1
I0413 16:10:16.493857  8026 net.cpp:157] Top shape: 1 128 500 750 (48000000)
I0413 16:10:16.493863  8026 net.cpp:165] Memory required for data: 2070000076
I0413 16:10:16.493870  8026 layer_factory.hpp:77] Creating layer conv2_2
I0413 16:10:16.493885  8026 net.cpp:100] Creating Layer conv2_2
I0413 16:10:16.493891  8026 net.cpp:434] conv2_2 <- conv2_1
I0413 16:10:16.493901  8026 net.cpp:408] conv2_2 -> conv2_2
I0413 16:10:16.494855  8026 net.cpp:150] Setting up conv2_2
I0413 16:10:16.494884  8026 net.cpp:157] Top shape: 1 128 500 750 (48000000)
I0413 16:10:16.494889  8026 net.cpp:165] Memory required for data: 2262000076
I0413 16:10:16.494904  8026 layer_factory.hpp:77] Creating layer relu2_2
I0413 16:10:16.494916  8026 net.cpp:100] Creating Layer relu2_2
I0413 16:10:16.494925  8026 net.cpp:434] relu2_2 <- conv2_2
I0413 16:10:16.494936  8026 net.cpp:395] relu2_2 -> conv2_2 (in-place)
I0413 16:10:16.494952  8026 net.cpp:150] Setting up relu2_2
I0413 16:10:16.494961  8026 net.cpp:157] Top shape: 1 128 500 750 (48000000)
I0413 16:10:16.494966  8026 net.cpp:165] Memory required for data: 2454000076
I0413 16:10:16.494973  8026 layer_factory.hpp:77] Creating layer pool2
I0413 16:10:16.494982  8026 net.cpp:100] Creating Layer pool2
I0413 16:10:16.494988  8026 net.cpp:434] pool2 <- conv2_2
I0413 16:10:16.495000  8026 net.cpp:408] pool2 -> pool2
I0413 16:10:16.495054  8026 net.cpp:150] Setting up pool2
I0413 16:10:16.495065  8026 net.cpp:157] Top shape: 1 128 250 375 (12000000)
I0413 16:10:16.495071  8026 net.cpp:165] Memory required for data: 2502000076
I0413 16:10:16.495079  8026 layer_factory.hpp:77] Creating layer conv3_1
I0413 16:10:16.495091  8026 net.cpp:100] Creating Layer conv3_1
I0413 16:10:16.495098  8026 net.cpp:434] conv3_1 <- pool2
I0413 16:10:16.495110  8026 net.cpp:408] conv3_1 -> conv3_1
I0413 16:10:16.496193  8026 net.cpp:150] Setting up conv3_1
I0413 16:10:16.496222  8026 net.cpp:157] Top shape: 1 256 250 375 (24000000)
I0413 16:10:16.496228  8026 net.cpp:165] Memory required for data: 2598000076
I0413 16:10:16.496248  8026 layer_factory.hpp:77] Creating layer relu3_1
I0413 16:10:16.496261  8026 net.cpp:100] Creating Layer relu3_1
I0413 16:10:16.496269  8026 net.cpp:434] relu3_1 <- conv3_1
I0413 16:10:16.496280  8026 net.cpp:395] relu3_1 -> conv3_1 (in-place)
I0413 16:10:16.496294  8026 net.cpp:150] Setting up relu3_1
I0413 16:10:16.496304  8026 net.cpp:157] Top shape: 1 256 250 375 (24000000)
I0413 16:10:16.496310  8026 net.cpp:165] Memory required for data: 2694000076
I0413 16:10:16.496316  8026 layer_factory.hpp:77] Creating layer conv3_2
I0413 16:10:16.496331  8026 net.cpp:100] Creating Layer conv3_2
I0413 16:10:16.496340  8026 net.cpp:434] conv3_2 <- conv3_1
I0413 16:10:16.496351  8026 net.cpp:408] conv3_2 -> conv3_2
I0413 16:10:16.497620  8026 net.cpp:150] Setting up conv3_2
I0413 16:10:16.497650  8026 net.cpp:157] Top shape: 1 256 250 375 (24000000)
I0413 16:10:16.497658  8026 net.cpp:165] Memory required for data: 2790000076
I0413 16:10:16.497671  8026 layer_factory.hpp:77] Creating layer relu3_2
I0413 16:10:16.497687  8026 net.cpp:100] Creating Layer relu3_2
I0413 16:10:16.497695  8026 net.cpp:434] relu3_2 <- conv3_2
I0413 16:10:16.497709  8026 net.cpp:395] relu3_2 -> conv3_2 (in-place)
I0413 16:10:16.497725  8026 net.cpp:150] Setting up relu3_2
I0413 16:10:16.497735  8026 net.cpp:157] Top shape: 1 256 250 375 (24000000)
I0413 16:10:16.497741  8026 net.cpp:165] Memory required for data: 2886000076
I0413 16:10:16.497747  8026 layer_factory.hpp:77] Creating layer conv3_3
I0413 16:10:16.497761  8026 net.cpp:100] Creating Layer conv3_3
I0413 16:10:16.497769  8026 net.cpp:434] conv3_3 <- conv3_2
I0413 16:10:16.497779  8026 net.cpp:408] conv3_3 -> conv3_3
I0413 16:10:16.499819  8026 net.cpp:150] Setting up conv3_3
I0413 16:10:16.499856  8026 net.cpp:157] Top shape: 1 256 250 375 (24000000)
I0413 16:10:16.499863  8026 net.cpp:165] Memory required for data: 2982000076
I0413 16:10:16.499879  8026 layer_factory.hpp:77] Creating layer relu3_3
I0413 16:10:16.499897  8026 net.cpp:100] Creating Layer relu3_3
I0413 16:10:16.499904  8026 net.cpp:434] relu3_3 <- conv3_3
I0413 16:10:16.499917  8026 net.cpp:395] relu3_3 -> conv3_3 (in-place)
I0413 16:10:16.499933  8026 net.cpp:150] Setting up relu3_3
I0413 16:10:16.499943  8026 net.cpp:157] Top shape: 1 256 250 375 (24000000)
I0413 16:10:16.499949  8026 net.cpp:165] Memory required for data: 3078000076
I0413 16:10:16.499955  8026 layer_factory.hpp:77] Creating layer pool3
I0413 16:10:16.499969  8026 net.cpp:100] Creating Layer pool3
I0413 16:10:16.499975  8026 net.cpp:434] pool3 <- conv3_3
I0413 16:10:16.499985  8026 net.cpp:408] pool3 -> pool3
I0413 16:10:16.500049  8026 net.cpp:150] Setting up pool3
I0413 16:10:16.500061  8026 net.cpp:157] Top shape: 1 256 125 188 (6016000)
I0413 16:10:16.500068  8026 net.cpp:165] Memory required for data: 3102064076
I0413 16:10:16.500074  8026 layer_factory.hpp:77] Creating layer conv4_1
I0413 16:10:16.500089  8026 net.cpp:100] Creating Layer conv4_1
I0413 16:10:16.500097  8026 net.cpp:434] conv4_1 <- pool3
I0413 16:10:16.500108  8026 net.cpp:408] conv4_1 -> conv4_1
I0413 16:10:16.503358  8026 net.cpp:150] Setting up conv4_1
I0413 16:10:16.503402  8026 net.cpp:157] Top shape: 1 512 125 188 (12032000)
I0413 16:10:16.503409  8026 net.cpp:165] Memory required for data: 3150192076
I0413 16:10:16.503422  8026 layer_factory.hpp:77] Creating layer relu4_1
I0413 16:10:16.503437  8026 net.cpp:100] Creating Layer relu4_1
I0413 16:10:16.503444  8026 net.cpp:434] relu4_1 <- conv4_1
I0413 16:10:16.503454  8026 net.cpp:395] relu4_1 -> conv4_1 (in-place)
I0413 16:10:16.503469  8026 net.cpp:150] Setting up relu4_1
I0413 16:10:16.503478  8026 net.cpp:157] Top shape: 1 512 125 188 (12032000)
I0413 16:10:16.503481  8026 net.cpp:165] Memory required for data: 3198320076
I0413 16:10:16.503487  8026 layer_factory.hpp:77] Creating layer conv4_2
I0413 16:10:16.503502  8026 net.cpp:100] Creating Layer conv4_2
I0413 16:10:16.503510  8026 net.cpp:434] conv4_2 <- conv4_1
I0413 16:10:16.503522  8026 net.cpp:408] conv4_2 -> conv4_2
I0413 16:10:16.507901  8026 net.cpp:150] Setting up conv4_2
I0413 16:10:16.507949  8026 net.cpp:157] Top shape: 1 512 125 188 (12032000)
I0413 16:10:16.507954  8026 net.cpp:165] Memory required for data: 3246448076
I0413 16:10:16.507973  8026 layer_factory.hpp:77] Creating layer relu4_2
I0413 16:10:16.507988  8026 net.cpp:100] Creating Layer relu4_2
I0413 16:10:16.507998  8026 net.cpp:434] relu4_2 <- conv4_2
I0413 16:10:16.508013  8026 net.cpp:395] relu4_2 -> conv4_2 (in-place)
I0413 16:10:16.508028  8026 net.cpp:150] Setting up relu4_2
I0413 16:10:16.508038  8026 net.cpp:157] Top shape: 1 512 125 188 (12032000)
I0413 16:10:16.508044  8026 net.cpp:165] Memory required for data: 3294576076
I0413 16:10:16.508050  8026 layer_factory.hpp:77] Creating layer conv4_3
I0413 16:10:16.508065  8026 net.cpp:100] Creating Layer conv4_3
I0413 16:10:16.508072  8026 net.cpp:434] conv4_3 <- conv4_2
I0413 16:10:16.508082  8026 net.cpp:408] conv4_3 -> conv4_3
I0413 16:10:16.512686  8026 net.cpp:150] Setting up conv4_3
I0413 16:10:16.512730  8026 net.cpp:157] Top shape: 1 512 125 188 (12032000)
I0413 16:10:16.512734  8026 net.cpp:165] Memory required for data: 3342704076
I0413 16:10:16.512745  8026 layer_factory.hpp:77] Creating layer relu4_3
I0413 16:10:16.512760  8026 net.cpp:100] Creating Layer relu4_3
I0413 16:10:16.512768  8026 net.cpp:434] relu4_3 <- conv4_3
I0413 16:10:16.512778  8026 net.cpp:395] relu4_3 -> conv4_3 (in-place)
I0413 16:10:16.512794  8026 net.cpp:150] Setting up relu4_3
I0413 16:10:16.512802  8026 net.cpp:157] Top shape: 1 512 125 188 (12032000)
I0413 16:10:16.512809  8026 net.cpp:165] Memory required for data: 3390832076
I0413 16:10:16.512815  8026 layer_factory.hpp:77] Creating layer pool4
I0413 16:10:16.512828  8026 net.cpp:100] Creating Layer pool4
I0413 16:10:16.512835  8026 net.cpp:434] pool4 <- conv4_3
I0413 16:10:16.512845  8026 net.cpp:408] pool4 -> pool4
I0413 16:10:16.512898  8026 net.cpp:150] Setting up pool4
I0413 16:10:16.512926  8026 net.cpp:157] Top shape: 1 512 63 94 (3032064)
I0413 16:10:16.512933  8026 net.cpp:165] Memory required for data: 3402960332
I0413 16:10:16.512938  8026 layer_factory.hpp:77] Creating layer conv5_1
I0413 16:10:16.512954  8026 net.cpp:100] Creating Layer conv5_1
I0413 16:10:16.512961  8026 net.cpp:434] conv5_1 <- pool4
I0413 16:10:16.512970  8026 net.cpp:408] conv5_1 -> conv5_1
I0413 16:10:16.518431  8026 net.cpp:150] Setting up conv5_1
I0413 16:10:16.518467  8026 net.cpp:157] Top shape: 1 512 63 94 (3032064)
I0413 16:10:16.518471  8026 net.cpp:165] Memory required for data: 3415088588
I0413 16:10:16.518482  8026 layer_factory.hpp:77] Creating layer relu5_1
I0413 16:10:16.518496  8026 net.cpp:100] Creating Layer relu5_1
I0413 16:10:16.518503  8026 net.cpp:434] relu5_1 <- conv5_1
I0413 16:10:16.518514  8026 net.cpp:395] relu5_1 -> conv5_1 (in-place)
I0413 16:10:16.518528  8026 net.cpp:150] Setting up relu5_1
I0413 16:10:16.518537  8026 net.cpp:157] Top shape: 1 512 63 94 (3032064)
I0413 16:10:16.518542  8026 net.cpp:165] Memory required for data: 3427216844
I0413 16:10:16.518546  8026 layer_factory.hpp:77] Creating layer conv5_2
I0413 16:10:16.518559  8026 net.cpp:100] Creating Layer conv5_2
I0413 16:10:16.518564  8026 net.cpp:434] conv5_2 <- conv5_1
I0413 16:10:16.518575  8026 net.cpp:408] conv5_2 -> conv5_2
I0413 16:10:16.522858  8026 net.cpp:150] Setting up conv5_2
I0413 16:10:16.522892  8026 net.cpp:157] Top shape: 1 512 63 94 (3032064)
I0413 16:10:16.522897  8026 net.cpp:165] Memory required for data: 3439345100
I0413 16:10:16.522907  8026 layer_factory.hpp:77] Creating layer relu5_2
I0413 16:10:16.522917  8026 net.cpp:100] Creating Layer relu5_2
I0413 16:10:16.522922  8026 net.cpp:434] relu5_2 <- conv5_2
I0413 16:10:16.522930  8026 net.cpp:395] relu5_2 -> conv5_2 (in-place)
I0413 16:10:16.522944  8026 net.cpp:150] Setting up relu5_2
I0413 16:10:16.522951  8026 net.cpp:157] Top shape: 1 512 63 94 (3032064)
I0413 16:10:16.522956  8026 net.cpp:165] Memory required for data: 3451473356
I0413 16:10:16.522961  8026 layer_factory.hpp:77] Creating layer conv5_3
I0413 16:10:16.522975  8026 net.cpp:100] Creating Layer conv5_3
I0413 16:10:16.522984  8026 net.cpp:434] conv5_3 <- conv5_2
I0413 16:10:16.522992  8026 net.cpp:408] conv5_3 -> conv5_3
I0413 16:10:16.527465  8026 net.cpp:150] Setting up conv5_3
I0413 16:10:16.527504  8026 net.cpp:157] Top shape: 1 512 63 94 (3032064)
I0413 16:10:16.527508  8026 net.cpp:165] Memory required for data: 3463601612
I0413 16:10:16.527519  8026 layer_factory.hpp:77] Creating layer relu5_3
I0413 16:10:16.527542  8026 net.cpp:100] Creating Layer relu5_3
I0413 16:10:16.527552  8026 net.cpp:434] relu5_3 <- conv5_3
I0413 16:10:16.527564  8026 net.cpp:395] relu5_3 -> conv5_3 (in-place)
I0413 16:10:16.527577  8026 net.cpp:150] Setting up relu5_3
I0413 16:10:16.527585  8026 net.cpp:157] Top shape: 1 512 63 94 (3032064)
I0413 16:10:16.527591  8026 net.cpp:165] Memory required for data: 3475729868
I0413 16:10:16.527596  8026 layer_factory.hpp:77] Creating layer rpn_big_conv1
I0413 16:10:16.527611  8026 net.cpp:100] Creating Layer rpn_big_conv1
I0413 16:10:16.527616  8026 net.cpp:434] rpn_big_conv1 <- conv5_3
I0413 16:10:16.527628  8026 net.cpp:408] rpn_big_conv1 -> rpn_big_conv1
I0413 16:10:16.553869  8026 net.cpp:150] Setting up rpn_big_conv1
I0413 16:10:16.553900  8026 net.cpp:157] Top shape: 1 512 63 94 (3032064)
I0413 16:10:16.553912  8026 net.cpp:165] Memory required for data: 3487858124
I0413 16:10:16.553922  8026 layer_factory.hpp:77] Creating layer rpn_big_conv1_relu
I0413 16:10:16.553935  8026 net.cpp:100] Creating Layer rpn_big_conv1_relu
I0413 16:10:16.553939  8026 net.cpp:434] rpn_big_conv1_relu <- rpn_big_conv1
I0413 16:10:16.553951  8026 net.cpp:395] rpn_big_conv1_relu -> rpn_big_conv1 (in-place)
I0413 16:10:16.553964  8026 net.cpp:150] Setting up rpn_big_conv1_relu
I0413 16:10:16.553973  8026 net.cpp:157] Top shape: 1 512 63 94 (3032064)
I0413 16:10:16.553978  8026 net.cpp:165] Memory required for data: 3499986380
I0413 16:10:16.553983  8026 layer_factory.hpp:77] Creating layer rpn_big_conv2
I0413 16:10:16.553999  8026 net.cpp:100] Creating Layer rpn_big_conv2
I0413 16:10:16.554006  8026 net.cpp:434] rpn_big_conv2 <- rpn_big_conv1
I0413 16:10:16.554018  8026 net.cpp:408] rpn_big_conv2 -> rpn_big_conv2
I0413 16:10:16.578752  8026 net.cpp:150] Setting up rpn_big_conv2
I0413 16:10:16.578781  8026 net.cpp:157] Top shape: 1 512 63 94 (3032064)
I0413 16:10:16.578785  8026 net.cpp:165] Memory required for data: 3512114636
I0413 16:10:16.578795  8026 layer_factory.hpp:77] Creating layer rpn_big_conv2_relu
I0413 16:10:16.578809  8026 net.cpp:100] Creating Layer rpn_big_conv2_relu
I0413 16:10:16.578817  8026 net.cpp:434] rpn_big_conv2_relu <- rpn_big_conv2
I0413 16:10:16.578831  8026 net.cpp:395] rpn_big_conv2_relu -> rpn_big_conv2 (in-place)
I0413 16:10:16.578845  8026 net.cpp:150] Setting up rpn_big_conv2_relu
I0413 16:10:16.578852  8026 net.cpp:157] Top shape: 1 512 63 94 (3032064)
I0413 16:10:16.578856  8026 net.cpp:165] Memory required for data: 3524242892
I0413 16:10:16.578861  8026 layer_factory.hpp:77] Creating layer rpn_big_conv2_drop
I0413 16:10:16.578871  8026 net.cpp:100] Creating Layer rpn_big_conv2_drop
I0413 16:10:16.578877  8026 net.cpp:434] rpn_big_conv2_drop <- rpn_big_conv2
I0413 16:10:16.578887  8026 net.cpp:395] rpn_big_conv2_drop -> rpn_big_conv2 (in-place)
I0413 16:10:16.578918  8026 net.cpp:150] Setting up rpn_big_conv2_drop
I0413 16:10:16.578930  8026 net.cpp:157] Top shape: 1 512 63 94 (3032064)
I0413 16:10:16.578935  8026 net.cpp:165] Memory required for data: 3536371148
I0413 16:10:16.578941  8026 layer_factory.hpp:77] Creating layer rpn_big_conv2_rpn_big_conv2_drop_0_split
I0413 16:10:16.578951  8026 net.cpp:100] Creating Layer rpn_big_conv2_rpn_big_conv2_drop_0_split
I0413 16:10:16.578958  8026 net.cpp:434] rpn_big_conv2_rpn_big_conv2_drop_0_split <- rpn_big_conv2
I0413 16:10:16.578965  8026 net.cpp:408] rpn_big_conv2_rpn_big_conv2_drop_0_split -> rpn_big_conv2_rpn_big_conv2_drop_0_split_0
I0413 16:10:16.578979  8026 net.cpp:408] rpn_big_conv2_rpn_big_conv2_drop_0_split -> rpn_big_conv2_rpn_big_conv2_drop_0_split_1
I0413 16:10:16.579023  8026 net.cpp:150] Setting up rpn_big_conv2_rpn_big_conv2_drop_0_split
I0413 16:10:16.579035  8026 net.cpp:157] Top shape: 1 512 63 94 (3032064)
I0413 16:10:16.579042  8026 net.cpp:157] Top shape: 1 512 63 94 (3032064)
I0413 16:10:16.579047  8026 net.cpp:165] Memory required for data: 3560627660
I0413 16:10:16.579052  8026 layer_factory.hpp:77] Creating layer rpn_big_output_cls
I0413 16:10:16.579067  8026 net.cpp:100] Creating Layer rpn_big_output_cls
I0413 16:10:16.579074  8026 net.cpp:434] rpn_big_output_cls <- rpn_big_conv2_rpn_big_conv2_drop_0_split_0
I0413 16:10:16.579085  8026 net.cpp:408] rpn_big_output_cls -> rpn_big_output_cls
I0413 16:10:16.599128  8026 net.cpp:150] Setting up rpn_big_output_cls
I0413 16:10:16.599158  8026 net.cpp:157] Top shape: 1 384 63 94 (2274048)
I0413 16:10:16.599161  8026 net.cpp:165] Memory required for data: 3569723852
I0413 16:10:16.599174  8026 layer_factory.hpp:77] Creating layer rpn_big_output_cls_relu
I0413 16:10:16.599189  8026 net.cpp:100] Creating Layer rpn_big_output_cls_relu
I0413 16:10:16.599197  8026 net.cpp:434] rpn_big_output_cls_relu <- rpn_big_output_cls
I0413 16:10:16.599210  8026 net.cpp:395] rpn_big_output_cls_relu -> rpn_big_output_cls (in-place)
I0413 16:10:16.599225  8026 net.cpp:150] Setting up rpn_big_output_cls_relu
I0413 16:10:16.599231  8026 net.cpp:157] Top shape: 1 384 63 94 (2274048)
I0413 16:10:16.599236  8026 net.cpp:165] Memory required for data: 3578820044
I0413 16:10:16.599241  8026 layer_factory.hpp:77] Creating layer rpn_big_cls_score
I0413 16:10:16.599259  8026 net.cpp:100] Creating Layer rpn_big_cls_score
I0413 16:10:16.599267  8026 net.cpp:434] rpn_big_cls_score <- rpn_big_output_cls
I0413 16:10:16.599277  8026 net.cpp:408] rpn_big_cls_score -> rpn_big_cls_score
I0413 16:10:16.601722  8026 net.cpp:150] Setting up rpn_big_cls_score
I0413 16:10:16.601747  8026 net.cpp:157] Top shape: 1 52 61 92 (291824)
I0413 16:10:16.601750  8026 net.cpp:165] Memory required for data: 3579987340
I0413 16:10:16.601765  8026 layer_factory.hpp:77] Creating layer rpn_big_cls_score_rpn_big_cls_score_0_split
I0413 16:10:16.601776  8026 net.cpp:100] Creating Layer rpn_big_cls_score_rpn_big_cls_score_0_split
I0413 16:10:16.601783  8026 net.cpp:434] rpn_big_cls_score_rpn_big_cls_score_0_split <- rpn_big_cls_score
I0413 16:10:16.601794  8026 net.cpp:408] rpn_big_cls_score_rpn_big_cls_score_0_split -> rpn_big_cls_score_rpn_big_cls_score_0_split_0
I0413 16:10:16.601809  8026 net.cpp:408] rpn_big_cls_score_rpn_big_cls_score_0_split -> rpn_big_cls_score_rpn_big_cls_score_0_split_1
I0413 16:10:16.601866  8026 net.cpp:150] Setting up rpn_big_cls_score_rpn_big_cls_score_0_split
I0413 16:10:16.601878  8026 net.cpp:157] Top shape: 1 52 61 92 (291824)
I0413 16:10:16.601886  8026 net.cpp:157] Top shape: 1 52 61 92 (291824)
I0413 16:10:16.601891  8026 net.cpp:165] Memory required for data: 3582321932
I0413 16:10:16.601897  8026 layer_factory.hpp:77] Creating layer rpn_big_cls_score_reshape
I0413 16:10:16.601908  8026 net.cpp:100] Creating Layer rpn_big_cls_score_reshape
I0413 16:10:16.601913  8026 net.cpp:434] rpn_big_cls_score_reshape <- rpn_big_cls_score_rpn_big_cls_score_0_split_0
I0413 16:10:16.601930  8026 net.cpp:408] rpn_big_cls_score_reshape -> rpn_big_cls_score_reshape
I0413 16:10:16.601969  8026 net.cpp:150] Setting up rpn_big_cls_score_reshape
I0413 16:10:16.601979  8026 net.cpp:157] Top shape: 1 2 1586 92 (291824)
I0413 16:10:16.601984  8026 net.cpp:165] Memory required for data: 3583489228
I0413 16:10:16.601990  8026 layer_factory.hpp:77] Creating layer rpn_big_cls_score_reshape_rpn_big_cls_score_reshape_0_split
I0413 16:10:16.601999  8026 net.cpp:100] Creating Layer rpn_big_cls_score_reshape_rpn_big_cls_score_reshape_0_split
I0413 16:10:16.602004  8026 net.cpp:434] rpn_big_cls_score_reshape_rpn_big_cls_score_reshape_0_split <- rpn_big_cls_score_reshape
I0413 16:10:16.602015  8026 net.cpp:408] rpn_big_cls_score_reshape_rpn_big_cls_score_reshape_0_split -> rpn_big_cls_score_reshape_rpn_big_cls_score_reshape_0_split_0
I0413 16:10:16.602025  8026 net.cpp:408] rpn_big_cls_score_reshape_rpn_big_cls_score_reshape_0_split -> rpn_big_cls_score_reshape_rpn_big_cls_score_reshape_0_split_1
I0413 16:10:16.602073  8026 net.cpp:150] Setting up rpn_big_cls_score_reshape_rpn_big_cls_score_reshape_0_split
I0413 16:10:16.602082  8026 net.cpp:157] Top shape: 1 2 1586 92 (291824)
I0413 16:10:16.602089  8026 net.cpp:157] Top shape: 1 2 1586 92 (291824)
I0413 16:10:16.602094  8026 net.cpp:165] Memory required for data: 3585823820
I0413 16:10:16.602099  8026 layer_factory.hpp:77] Creating layer rpn_big_cls_prob
I0413 16:10:16.602108  8026 net.cpp:100] Creating Layer rpn_big_cls_prob
I0413 16:10:16.602115  8026 net.cpp:434] rpn_big_cls_prob <- rpn_big_cls_score_reshape_rpn_big_cls_score_reshape_0_split_0
I0413 16:10:16.602123  8026 net.cpp:408] rpn_big_cls_prob -> rpn_big_cls_prob
I0413 16:10:16.602197  8026 net.cpp:150] Setting up rpn_big_cls_prob
I0413 16:10:16.602208  8026 net.cpp:157] Top shape: 1 2 1586 92 (291824)
I0413 16:10:16.602215  8026 net.cpp:165] Memory required for data: 3586991116
I0413 16:10:16.602221  8026 layer_factory.hpp:77] Creating layer rpn_big_cls_prob_reshape
I0413 16:10:16.602227  8026 net.cpp:100] Creating Layer rpn_big_cls_prob_reshape
I0413 16:10:16.602233  8026 net.cpp:434] rpn_big_cls_prob_reshape <- rpn_big_cls_prob
I0413 16:10:16.602242  8026 net.cpp:408] rpn_big_cls_prob_reshape -> rpn_big_cls_prob_reshape
I0413 16:10:16.602274  8026 net.cpp:150] Setting up rpn_big_cls_prob_reshape
I0413 16:10:16.602284  8026 net.cpp:157] Top shape: 1 52 61 92 (291824)
I0413 16:10:16.602288  8026 net.cpp:165] Memory required for data: 3588158412
I0413 16:10:16.602293  8026 layer_factory.hpp:77] Creating layer rpn_big_cls_prob_reshape_rpn_big_cls_prob_reshape_0_split
I0413 16:10:16.602301  8026 net.cpp:100] Creating Layer rpn_big_cls_prob_reshape_rpn_big_cls_prob_reshape_0_split
I0413 16:10:16.602308  8026 net.cpp:434] rpn_big_cls_prob_reshape_rpn_big_cls_prob_reshape_0_split <- rpn_big_cls_prob_reshape
I0413 16:10:16.602315  8026 net.cpp:408] rpn_big_cls_prob_reshape_rpn_big_cls_prob_reshape_0_split -> rpn_big_cls_prob_reshape_rpn_big_cls_prob_reshape_0_split_0
I0413 16:10:16.602326  8026 net.cpp:408] rpn_big_cls_prob_reshape_rpn_big_cls_prob_reshape_0_split -> rpn_big_cls_prob_reshape_rpn_big_cls_prob_reshape_0_split_1
I0413 16:10:16.602367  8026 net.cpp:150] Setting up rpn_big_cls_prob_reshape_rpn_big_cls_prob_reshape_0_split
I0413 16:10:16.602376  8026 net.cpp:157] Top shape: 1 52 61 92 (291824)
I0413 16:10:16.602383  8026 net.cpp:157] Top shape: 1 52 61 92 (291824)
I0413 16:10:16.602388  8026 net.cpp:165] Memory required for data: 3590493004
I0413 16:10:16.602393  8026 layer_factory.hpp:77] Creating layer rpn_big_anchor_target
I0413 16:10:16.603950  8026 net.cpp:100] Creating Layer rpn_big_anchor_target
I0413 16:10:16.603966  8026 net.cpp:434] rpn_big_anchor_target <- rpn_big_cls_score_rpn_big_cls_score_0_split_1
I0413 16:10:16.603972  8026 net.cpp:434] rpn_big_anchor_target <- input_gt_boxes
I0413 16:10:16.603981  8026 net.cpp:434] rpn_big_anchor_target <- input_ignored_boxes
I0413 16:10:16.603987  8026 net.cpp:434] rpn_big_anchor_target <- input_im_info_input_1_split_0
I0413 16:10:16.603994  8026 net.cpp:434] rpn_big_anchor_target <- input_data_input_0_split_1
I0413 16:10:16.604001  8026 net.cpp:434] rpn_big_anchor_target <- rpn_big_cls_prob_reshape_rpn_big_cls_prob_reshape_0_split_0
I0413 16:10:16.604012  8026 net.cpp:408] rpn_big_anchor_target -> rpn_big_anchor_target_labels
I0413 16:10:16.604025  8026 net.cpp:408] rpn_big_anchor_target -> rpn_big_anchor_target_bbox_targets
I0413 16:10:16.604039  8026 net.cpp:408] rpn_big_anchor_target -> rpn_big_anchor_target_inside_weights
I0413 16:10:16.604053  8026 net.cpp:408] rpn_big_anchor_target -> rpn_big_anchor_target_outside_weights
I0413 16:10:16.608834  8026 net.cpp:150] Setting up rpn_big_anchor_target
I0413 16:10:16.608862  8026 net.cpp:157] Top shape: 1 1 1586 92 (145912)
I0413 16:10:16.608876  8026 net.cpp:157] Top shape: 1 104 61 92 (583648)
I0413 16:10:16.608881  8026 net.cpp:157] Top shape: 1 104 61 92 (583648)
I0413 16:10:16.608886  8026 net.cpp:157] Top shape: 1 104 61 92 (583648)
I0413 16:10:16.608887  8026 net.cpp:165] Memory required for data: 3598080428
I0413 16:10:16.608893  8026 layer_factory.hpp:77] Creating layer rpn_big_loss_cls
I0413 16:10:16.608922  8026 net.cpp:100] Creating Layer rpn_big_loss_cls
I0413 16:10:16.608932  8026 net.cpp:434] rpn_big_loss_cls <- rpn_big_cls_score_reshape_rpn_big_cls_score_reshape_0_split_1
I0413 16:10:16.608943  8026 net.cpp:434] rpn_big_loss_cls <- rpn_big_anchor_target_labels
I0413 16:10:16.608956  8026 net.cpp:408] rpn_big_loss_cls -> rpn_big_loss_cls
I0413 16:10:16.608974  8026 layer_factory.hpp:77] Creating layer rpn_big_loss_cls
I0413 16:10:16.609704  8026 net.cpp:150] Setting up rpn_big_loss_cls
I0413 16:10:16.609716  8026 net.cpp:157] Top shape: (1)
I0413 16:10:16.609719  8026 net.cpp:160]     with loss weight 1
I0413 16:10:16.609740  8026 net.cpp:165] Memory required for data: 3598080432
I0413 16:10:16.609742  8026 layer_factory.hpp:77] Creating layer rpn_big_output_box
I0413 16:10:16.609760  8026 net.cpp:100] Creating Layer rpn_big_output_box
I0413 16:10:16.609771  8026 net.cpp:434] rpn_big_output_box <- rpn_big_conv2_rpn_big_conv2_drop_0_split_1
I0413 16:10:16.609782  8026 net.cpp:408] rpn_big_output_box -> rpn_big_output_box
I0413 16:10:16.629047  8026 net.cpp:150] Setting up rpn_big_output_box
I0413 16:10:16.629077  8026 net.cpp:157] Top shape: 1 384 63 94 (2274048)
I0413 16:10:16.629091  8026 net.cpp:165] Memory required for data: 3607176624
I0413 16:10:16.629101  8026 layer_factory.hpp:77] Creating layer rpn_big_output_box_relu
I0413 16:10:16.629114  8026 net.cpp:100] Creating Layer rpn_big_output_box_relu
I0413 16:10:16.629122  8026 net.cpp:434] rpn_big_output_box_relu <- rpn_big_output_box
I0413 16:10:16.629134  8026 net.cpp:395] rpn_big_output_box_relu -> rpn_big_output_box (in-place)
I0413 16:10:16.629155  8026 net.cpp:150] Setting up rpn_big_output_box_relu
I0413 16:10:16.629164  8026 net.cpp:157] Top shape: 1 384 63 94 (2274048)
I0413 16:10:16.629171  8026 net.cpp:165] Memory required for data: 3616272816
I0413 16:10:16.629179  8026 layer_factory.hpp:77] Creating layer rpn_big_bbox_pred
I0413 16:10:16.629196  8026 net.cpp:100] Creating Layer rpn_big_bbox_pred
I0413 16:10:16.629204  8026 net.cpp:434] rpn_big_bbox_pred <- rpn_big_output_box
I0413 16:10:16.629215  8026 net.cpp:408] rpn_big_bbox_pred -> rpn_big_bbox_pred
I0413 16:10:16.633401  8026 net.cpp:150] Setting up rpn_big_bbox_pred
I0413 16:10:16.633429  8026 net.cpp:157] Top shape: 1 104 61 92 (583648)
I0413 16:10:16.633441  8026 net.cpp:165] Memory required for data: 3618607408
I0413 16:10:16.633450  8026 layer_factory.hpp:77] Creating layer rpn_big_bbox_pred_rpn_big_bbox_pred_0_split
I0413 16:10:16.633460  8026 net.cpp:100] Creating Layer rpn_big_bbox_pred_rpn_big_bbox_pred_0_split
I0413 16:10:16.633467  8026 net.cpp:434] rpn_big_bbox_pred_rpn_big_bbox_pred_0_split <- rpn_big_bbox_pred
I0413 16:10:16.633478  8026 net.cpp:408] rpn_big_bbox_pred_rpn_big_bbox_pred_0_split -> rpn_big_bbox_pred_rpn_big_bbox_pred_0_split_0
I0413 16:10:16.633496  8026 net.cpp:408] rpn_big_bbox_pred_rpn_big_bbox_pred_0_split -> rpn_big_bbox_pred_rpn_big_bbox_pred_0_split_1
I0413 16:10:16.633553  8026 net.cpp:150] Setting up rpn_big_bbox_pred_rpn_big_bbox_pred_0_split
I0413 16:10:16.633564  8026 net.cpp:157] Top shape: 1 104 61 92 (583648)
I0413 16:10:16.633571  8026 net.cpp:157] Top shape: 1 104 61 92 (583648)
I0413 16:10:16.633584  8026 net.cpp:165] Memory required for data: 3623276592
I0413 16:10:16.633589  8026 layer_factory.hpp:77] Creating layer rpn_big_loss_bbox
I0413 16:10:16.634019  8026 net.cpp:100] Creating Layer rpn_big_loss_bbox
I0413 16:10:16.634028  8026 net.cpp:434] rpn_big_loss_bbox <- rpn_big_bbox_pred_rpn_big_bbox_pred_0_split_0
I0413 16:10:16.634033  8026 net.cpp:434] rpn_big_loss_bbox <- rpn_big_anchor_target_bbox_targets
I0413 16:10:16.634047  8026 net.cpp:434] rpn_big_loss_bbox <- rpn_big_anchor_target_inside_weights
I0413 16:10:16.634052  8026 net.cpp:434] rpn_big_loss_bbox <- rpn_big_anchor_target_outside_weights
I0413 16:10:16.634057  8026 net.cpp:408] rpn_big_loss_bbox -> rpn_big_loss_bbox
I0413 16:10:16.636118  8026 net.cpp:150] Setting up rpn_big_loss_bbox
I0413 16:10:16.636149  8026 net.cpp:157] Top shape: 1 (1)
I0413 16:10:16.636153  8026 net.cpp:160]     with loss weight 1
I0413 16:10:16.636168  8026 net.cpp:165] Memory required for data: 3623276596
I0413 16:10:16.636178  8026 layer_factory.hpp:77] Creating layer proposal
I0413 16:10:16.636582  8026 net.cpp:100] Creating Layer proposal
I0413 16:10:16.636593  8026 net.cpp:434] proposal <- rpn_big_cls_prob_reshape_rpn_big_cls_prob_reshape_0_split_1
I0413 16:10:16.636603  8026 net.cpp:434] proposal <- rpn_big_bbox_pred_rpn_big_bbox_pred_0_split_1
…
