…
I0412 20:28:34.258525  4564 solver.cpp:48] Initializing solver from parameters: 
base_lr: 0.001
display: 20
lr_policy: "multistep"
gamma: 0.1
momentum: 0.9
weight_decay: 0.0005
snapshot: 0
snapshot_prefix: "faces_example"
net_param {
  name: "GeneratedModel_12_04_2017_20_28"
  layer {
    name: "input"
    type: "Python"
    top: "input_data"
    top: "input_im_info"
    top: "input_gt_boxes"
    top: "input_ignored_boxes"
    python_param {
      module: "layers.roi_data_layer"
      layer: "RoIDataLayer"
      param_str: "{\"num_classes\": 2}"
    }
  }
  layer {
    name: "conv1_1"
    type: "Convolution"
    bottom: "input_data"
    top: "conv1_1"
    param {
      lr_mult: 0
      decay_mult: 0
    }
    param {
      lr_mult: 0
      decay_mult: 0
    }
    convolution_param {
      num_output: 64
      pad: 1
      kernel_size: 3
    }
  }
  layer {
    name: "relu1_1"
    type: "ReLU"
    bottom: "conv1_1"
    top: "conv1_1"
  }
  layer {
    name: "conv1_2"
    type: "Convolution"
    bottom: "conv1_1"
    top: "conv1_2"
    param {
      lr_mult: 0
      decay_mult: 0
    }
    param {
      lr_mult: 0
      decay_mult: 0
    }
    convolution_param {
      num_output: 64
      pad: 1
      kernel_size: 3
    }
  }
  layer {
    name: "relu1_2"
    type: "ReLU"
    bottom: "conv1_2"
    top: "conv1_2"
  }
  layer {
    name: "pool1"
    type: "Pooling"
    bottom: "conv1_2"
    top: "pool1"
    pooling_param {
      pool: MAX
      kernel_size: 2
      stride: 2
    }
  }
  layer {
    name: "conv2_1"
    type: "Convolution"
    bottom: "pool1"
    top: "conv2_1"
    param {
      lr_mult: 0
      decay_mult: 0
    }
    param {
      lr_mult: 0
      decay_mult: 0
    }
    convolution_param {
      num_output: 128
      pad: 1
      kernel_size: 3
    }
  }
  layer {
    name: "relu2_1"
    type: "ReLU"
    bottom: "conv2_1"
    top: "conv2_1"
  }
  layer {
    name: "conv2_2"
    type: "Convolution"
    bottom: "conv2_1"
    top: "conv2_2"
    param {
      lr_mult: 0
      decay_mult: 0
    }
    param {
      lr_mult: 0
      decay_mult: 0
    }
    convolution_param {
      num_output: 128
      pad: 1
      kernel_size: 3
    }
  }
  layer {
    name: "relu2_2"
    type: "ReLU"
    bottom: "conv2_2"
    top: "conv2_2"
  }
  layer {
    name: "pool2"
    type: "Pooling"
    bottom: "conv2_2"
    top: "pool2"
    pooling_param {
      pool: MAX
      kernel_size: 2
      stride: 2
    }
  }
  layer {
    name: "conv3_1"
    type: "Convolution"
    bottom: "pool2"
    top: "conv3_1"
    param {
      lr_mult: 1
    }
    param {
      lr_mult: 2
    }
    convolution_param {
      num_output: 256
      pad: 1
      kernel_size: 3
    }
  }
  layer {
    name: "relu3_1"
    type: "ReLU"
    bottom: "conv3_1"
    top: "conv3_1"
  }
  layer {
    name: "conv3_2"
    type: "Convolution"
    bottom: "conv3_1"
    top: "conv3_2"
    param {
      lr_mult: 1
    }
    param {
      lr_mult: 2
    }
    convolution_param {
      num_output: 256
      pad: 1
      kernel_size: 3
    }
  }
  layer {
    name: "relu3_2"
    type: "ReLU"
    bottom: "conv3_2"
    top: "conv3_2"
  }
  layer {
    name: "conv3_3"
    type: "Convolution"
    bottom: "conv3_2"
    top: "conv3_3"
    param {
      lr_mult: 1
    }
    param {
      lr_mult: 2
    }
    convolution_param {
      num_output: 256
      pad: 1
      kernel_size: 3
    }
  }
  layer {
    name: "relu3_3"
    type: "ReLU"
    bottom: "conv3_3"
    top: "conv3_3"
  }
  layer {
    name: "pool3"
    type: "Pooling"
    bottom: "conv3_3"
    top: "pool3"
    pooling_param {
      pool: MAX
      kernel_size: 2
      stride: 2
    }
  }
  layer {
    name: "conv4_1"
    type: "Convolution"
    bottom: "pool3"
    top: "conv4_1"
    param {
      lr_mult: 1
    }
    param {
      lr_mult: 2
    }
    convolution_param {
      num_output: 512
      pad: 1
      kernel_size: 3
    }
  }
  layer {
    name: "relu4_1"
    type: "ReLU"
    bottom: "conv4_1"
    top: "conv4_1"
  }
  layer {
    name: "conv4_2"
    type: "Convolution"
    bottom: "conv4_1"
    top: "conv4_2"
    param {
      lr_mult: 1
    }
    param {
      lr_mult: 2
    }
    convolution_param {
      num_output: 512
      pad: 1
      kernel_size: 3
    }
  }
  layer {
    name: "relu4_2"
    type: "ReLU"
    bottom: "conv4_2"
    top: "conv4_2"
  }
  layer {
    name: "conv4_3"
    type: "Convolution"
    bottom: "conv4_2"
    top: "conv4_3"
    param {
      lr_mult: 1
    }
    param {
      lr_mult: 2
    }
    convolution_param {
      num_output: 512
      pad: 1
      kernel_size: 3
    }
  }
  layer {
    name: "relu4_3"
    type: "ReLU"
    bottom: "conv4_3"
    top: "conv4_3"
  }
  layer {
    name: "pool4"
    type: "Pooling"
    bottom: "conv4_3"
    top: "pool4"
    pooling_param {
      pool: MAX
      kernel_size: 2
      stride: 2
    }
  }
  layer {
    name: "conv5_1"
    type: "Convolution"
    bottom: "pool4"
    top: "conv5_1"
    param {
      lr_mult: 1
    }
    param {
      lr_mult: 2
    }
    convolution_param {
      num_output: 512
      pad: 1
      kernel_size: 3
    }
  }
  layer {
    name: "relu5_1"
    type: "ReLU"
    bottom: "conv5_1"
    top: "conv5_1"
  }
  layer {
    name: "conv5_2"
    type: "Convolution"
    bottom: "conv5_1"
    top: "conv5_2"
    param {
      lr_mult: 1
    }
    param {
      lr_mult: 2
    }
    convolution_param {
      num_output: 512
      pad: 1
      kernel_size: 3
    }
  }
  layer {
    name: "relu5_2"
    type: "ReLU"
    bottom: "conv5_2"
    top: "conv5_2"
  }
  layer {
    name: "conv5_3"
    type: "Convolution"
    bottom: "conv5_2"
    top: "conv5_3"
    param {
      lr_mult: 1
    }
    param {
      lr_mult: 2
    }
    convolution_param {
      num_output: 512
      pad: 1
      kernel_size: 3
    }
  }
  layer {
    name: "relu5_3"
    type: "ReLU"
    bottom: "conv5_3"
    top: "conv5_3"
  }
  layer {
    name: "rpn_big_conv1"
    type: "Convolution"
    bottom: "conv5_3"
    top: "rpn_big_conv1"
    param {
      lr_mult: 1
    }
    param {
      lr_mult: 2
    }
    convolution_param {
      num_output: 512
      pad: 1
      kernel_size: 3
      stride: 1
      weight_filler {
        type: "gaussian"
        mean: 0
        std: 0.01
      }
      bias_filler {
        type: "constant"
      }
    }
  }
  layer {
    name: "rpn_big_conv1_relu"
    type: "ReLU"
    bottom: "rpn_big_conv1"
    top: "rpn_big_conv1"
    relu_param {
      negative_slope: 0
    }
  }
  layer {
    name: "rpn_big_conv2"
    type: "Convolution"
    bottom: "rpn_big_conv1"
    top: "rpn_big_conv2"
    param {
      lr_mult: 1
    }
    param {
      lr_mult: 2
    }
    convolution_param {
      num_output: 512
      pad: 1
      kernel_size: 3
      stride: 1
      weight_filler {
        type: "gaussian"
        mean: 0
        std: 0.01
      }
      bias_filler {
        type: "constant"
      }
    }
  }
  layer {
    name: "rpn_big_conv2_relu"
    type: "ReLU"
    bottom: "rpn_big_conv2"
    top: "rpn_big_conv2"
    relu_param {
      negative_slope: 0
    }
  }
  layer {
    name: "rpn_big_conv2_drop"
    type: "Dropout"
    bottom: "rpn_big_conv2"
    top: "rpn_big_conv2"
    dropout_param {
      dropout_ratio: 0.3
    }
  }
  layer {
    name: "rpn_big_output_cls"
    type: "Convolution"
    bottom: "rpn_big_conv2"
    top: "rpn_big_output_cls"
    param {
      lr_mult: 1
    }
    param {
      lr_mult: 2
    }
    convolution_param {
      num_output: 384
      pad: 1
      kernel_size: 3
      stride: 1
      weight_filler {
        type: "gaussian"
        mean: 0
        std: 0.01
      }
      bias_filler {
        type: "constant"
      }
    }
  }
  layer {
    name: "rpn_big_output_cls_relu"
    type: "ReLU"
    bottom: "rpn_big_output_cls"
    top: "rpn_big_output_cls"
    relu_param {
      negative_slope: 0
    }
  }
  layer {
    name: "rpn_big_cls_score"
    type: "Convolution"
    bottom: "rpn_big_output_cls"
    top: "rpn_big_cls_score"
    param {
      lr_mult: 1
    }
    param {
      lr_mult: 2
    }
    convolution_param {
      num_output: 52
      pad: 0
      kernel_size: 3
      stride: 1
      weight_filler {
        type: "gaussian"
        mean: 0
        std: 0.01
      }
      bias_filler {
        type: "constant"
      }
    }
  }
  layer {
    name: "rpn_big_cls_score_reshape"
    type: "Reshape"
    bottom: "rpn_big_cls_score"
    top: "rpn_big_cls_score_reshape"
    reshape_param {
      shape {
        dim: 0
        dim: 2
        dim: -1
        dim: 0
      }
    }
  }
  layer {
    name: "rpn_big_cls_prob"
    type: "Softmax"
    bottom: "rpn_big_cls_score_reshape"
    top: "rpn_big_cls_prob"
  }
  layer {
    name: "rpn_big_cls_prob_reshape"
    type: "Reshape"
    bottom: "rpn_big_cls_prob"
    top: "rpn_big_cls_prob_reshape"
    reshape_param {
      shape {
        dim: 0
        dim: 52
        dim: -1
        dim: 0
      }
    }
  }
  layer {
    name: "rpn_big_anchor_target"
    type: "Python"
    bottom: "rpn_big_cls_score"
    bottom: "input_gt_boxes"
    bottom: "input_ignored_boxes"
    bottom: "input_im_info"
    bottom: "input_data"
    bottom: "rpn_big_cls_prob_reshape"
    top: "rpn_big_anchor_target_labels"
    top: "rpn_big_anchor_target_bbox_targets"
    top: "rpn_big_anchor_target_inside_weights"
    top: "rpn_big_anchor_target_outside_weights"
    python_param {
      module: "rpn.anchor_target_layer"
      layer: "AnchorTargetLayer"
      param_str: "{\"negative_overlap\": 0.4, \"square_targets\": true, \"anchor_shift_num_xy\": [[2, 2], [2, 2], [2, 2], [2, 2], [1, 1], [1, 1], [1, 1], [1, 1], [1, 1], [1, 1], [1, 1], [1, 1], [1, 1], [1, 1]], \"anchor_ratios\": [1.0], \"name\": \"rpn_big\", \"feat_stride\": 16, \"anchor_scales\": [2.5, 3.025, 3.66025, 4.4289024999999995, 5.358972025, 6.484356150249999, 7.846070941802498, 9.493745839581022, 11.487432465893036, 13.899793283730574, 16.818749873313998, 20.350687346709933, 24.62433168951902, 29.795441344318014], \"positive_overlap\": 0.6, \"fg_fraction\": 0.5, \"batchsize\": 256, \"tn_fraction\": 0.2, \"num_classes\": 1}"
    }
  }
  layer {
    name: "rpn_big_loss_cls"
    type: "SoftmaxWithLoss"
    bottom: "rpn_big_cls_score_reshape"
    bottom: "rpn_big_anchor_target_labels"
    top: "rpn_big_loss_cls"
    loss_weight: 1
    propagate_down: true
    propagate_down: false
    loss_param {
      ignore_label: -1
      normalization: VALID
    }
  }
  layer {
    name: "rpn_big_output_box"
    type: "Convolution"
    bottom: "rpn_big_conv2"
    top: "rpn_big_output_box"
    param {
      lr_mult: 1
    }
    param {
      lr_mult: 2
    }
    convolution_param {
      num_output: 384
      pad: 1
      kernel_size: 3
      stride: 1
      weight_filler {
        type: "gaussian"
        mean: 0
        std: 0.01
      }
      bias_filler {
        type: "constant"
      }
    }
  }
  layer {
    name: "rpn_big_output_box_relu"
    type: "ReLU"
    bottom: "rpn_big_output_box"
    top: "rpn_big_output_box"
    relu_param {
      negative_slope: 0
    }
  }
  layer {
    name: "rpn_big_bbox_pred"
    type: "Convolution"
    bottom: "rpn_big_output_box"
    top: "rpn_big_bbox_pred"
    param {
      lr_mult: 1
    }
    param {
      lr_mult: 2
    }
    convolution_param {
      num_output: 104
      pad: 0
      kernel_size: 3
      stride: 1
      weight_filler {
        type: "gaussian"
        mean: 0
        std: 0.01
      }
      bias_filler {
        type: "constant"
      }
    }
  }
  layer {
    name: "rpn_big_loss_bbox"
    type: "Python"
    bottom: "rpn_big_bbox_pred"
    bottom: "rpn_big_anchor_target_bbox_targets"
    bottom: "rpn_big_anchor_target_inside_weights"
    bottom: "rpn_big_anchor_target_outside_weights"
    top: "rpn_big_loss_bbox"
    loss_weight: 1
    python_param {
      module: "layers.smooth_l1_loss"
      layer: "SmoothL1LossLayer"
      param_str: "{\"sigma\": 3}"
    }
  }
  layer {
    name: "MyLoss"
    type: "Softmax"
    bottom: "conv3_1"
    bottom: "conv3_1"
    top: "MyLoss"
  }
}
average_loss: 100
stepvalue: 70000
stepvalue: 120000
iter_size: 2
I0412 20:28:34.258620  4564 solver.cpp:86] Creating training net specified in net_param.
I0412 20:28:34.259223  4564 net.cpp:58] Initializing net from parameters: 
name: "GeneratedModel_12_04_2017_20_28"
state {
  phase: TRAIN
}
layer {
  name: "input"
  type: "Python"
  top: "input_data"
  top: "input_im_info"
  top: "input_gt_boxes"
  top: "input_ignored_boxes"
  python_param {
    module: "layers.roi_data_layer"
    layer: "RoIDataLayer"
    param_str: "{\"num_classes\": 2}"
  }
}
layer {
  name: "conv1_1"
  type: "Convolution"
  bottom: "input_data"
  top: "conv1_1"
  param {
    lr_mult: 0
    decay_mult: 0
  }
  param {
    lr_mult: 0
    decay_mult: 0
  }
  convolution_param {
    num_output: 64
    pad: 1
    kernel_size: 3
  }
}
layer {
  name: "relu1_1"
  type: "ReLU"
  bottom: "conv1_1"
  top: "conv1_1"
}
layer {
  name: "conv1_2"
  type: "Convolution"
  bottom: "conv1_1"
  top: "conv1_2"
  param {
    lr_mult: 0
    decay_mult: 0
  }
  param {
    lr_mult: 0
    decay_mult: 0
  }
  convolution_param {
    num_output: 64
    pad: 1
    kernel_size: 3
  }
}
layer {
  name: "relu1_2"
  type: "ReLU"
  bottom: "conv1_2"
  top: "conv1_2"
}
layer {
  name: "pool1"
  type: "Pooling"
  bottom: "conv1_2"
  top: "pool1"
  pooling_param {
    pool: MAX
    kernel_size: 2
    stride: 2
  }
}
layer {
  name: "conv2_1"
  type: "Convolution"
  bottom: "pool1"
  top: "conv2_1"
  param {
    lr_mult: 0
    decay_mult: 0
  }
  param {
    lr_mult: 0
    decay_mult: 0
  }
  convolution_param {
    num_output: 128
    pad: 1
    kernel_size: 3
  }
}
layer {
  name: "relu2_1"
  type: "ReLU"
  bottom: "conv2_1"
  top: "conv2_1"
}
layer {
  name: "conv2_2"
  type: "Convolution"
  bottom: "conv2_1"
  top: "conv2_2"
  param {
    lr_mult: 0
    decay_mult: 0
  }
  param {
    lr_mult: 0
    decay_mult: 0
  }
  convolution_param {
    num_output: 128
    pad: 1
    kernel_size: 3
  }
}
layer {
  name: "relu2_2"
  type: "ReLU"
  bottom: "conv2_2"
  top: "conv2_2"
}
layer {
  name: "pool2"
  type: "Pooling"
  bottom: "conv2_2"
  top: "pool2"
  pooling_param {
    pool: MAX
    kernel_size: 2
    stride: 2
  }
}
layer {
  name: "conv3_1"
  type: "Convolution"
  bottom: "pool2"
  top: "conv3_1"
  param {
    lr_mult: 1
  }
  param {
    lr_mult: 2
  }
  convolution_param {
    num_output: 256
    pad: 1
    kernel_size: 3
  }
}
layer {
  name: "relu3_1"
  type: "ReLU"
  bottom: "conv3_1"
  top: "conv3_1"
}
layer {
  name: "conv3_2"
  type: "Convolution"
  bottom: "conv3_1"
  top: "conv3_2"
  param {
    lr_mult: 1
  }
  param {
    lr_mult: 2
  }
  convolution_param {
    num_output: 256
    pad: 1
    kernel_size: 3
  }
}
layer {
  name: "relu3_2"
  type: "ReLU"
  bottom: "conv3_2"
  top: "conv3_2"
}
layer {
  name: "conv3_3"
  type: "Convolution"
  bottom: "conv3_2"
  top: "conv3_3"
  param {
    lr_mult: 1
  }
  param {
    lr_mult: 2
  }
  convolution_param {
    num_output: 256
    pad: 1
    kernel_size: 3
  }
}
layer {
  name: "relu3_3"
  type: "ReLU"
  bottom: "conv3_3"
  top: "conv3_3"
}
layer {
  name: "pool3"
  type: "Pooling"
  bottom: "conv3_3"
  top: "pool3"
  pooling_param {
    pool: MAX
    kernel_size: 2
    stride: 2
  }
}
layer {
  name: "conv4_1"
  type: "Convolution"
  bottom: "pool3"
  top: "conv4_1"
  param {
    lr_mult: 1
  }
  param {
    lr_mult: 2
  }
  convolution_param {
    num_output: 512
    pad: 1
    kernel_size: 3
  }
}
layer {
  name: "relu4_1"
  type: "ReLU"
  bottom: "conv4_1"
  top: "conv4_1"
}
layer {
  name: "conv4_2"
  type: "Convolution"
  bottom: "conv4_1"
  top: "conv4_2"
  param {
    lr_mult: 1
  }
  param {
    lr_mult: 2
  }
  convolution_param {
    num_output: 512
    pad: 1
    kernel_size: 3
  }
}
layer {
  name: "relu4_2"
  type: "ReLU"
  bottom: "conv4_2"
  top: "conv4_2"
}
layer {
  name: "conv4_3"
  type: "Convolution"
  bottom: "conv4_2"
  top: "conv4_3"
  param {
    lr_mult: 1
  }
  param {
    lr_mult: 2
  }
  convolution_param {
    num_output: 512
    pad: 1
    kernel_size: 3
  }
}
layer {
  name: "relu4_3"
  type: "ReLU"
  bottom: "conv4_3"
  top: "conv4_3"
}
layer {
  name: "pool4"
  type: "Pooling"
  bottom: "conv4_3"
  top: "pool4"
  pooling_param {
    pool: MAX
    kernel_size: 2
    stride: 2
  }
}
layer {
  name: "conv5_1"
  type: "Convolution"
  bottom: "pool4"
  top: "conv5_1"
  param {
    lr_mult: 1
  }
  param {
    lr_mult: 2
  }
  convolution_param {
    num_output: 512
    pad: 1
    kernel_size: 3
  }
}
layer {
  name: "relu5_1"
  type: "ReLU"
  bottom: "conv5_1"
  top: "conv5_1"
}
layer {
  name: "conv5_2"
  type: "Convolution"
  bottom: "conv5_1"
  top: "conv5_2"
  param {
    lr_mult: 1
  }
  param {
    lr_mult: 2
  }
  convolution_param {
    num_output: 512
    pad: 1
    kernel_size: 3
  }
}
layer {
  name: "relu5_2"
  type: "ReLU"
  bottom: "conv5_2"
  top: "conv5_2"
}
layer {
  name: "conv5_3"
  type: "Convolution"
  bottom: "conv5_2"
  top: "conv5_3"
  param {
    lr_mult: 1
  }
  param {
    lr_mult: 2
  }
  convolution_param {
    num_output: 512
    pad: 1
    kernel_size: 3
  }
}
layer {
  name: "relu5_3"
  type: "ReLU"
  bottom: "conv5_3"
  top: "conv5_3"
}
layer {
  name: "rpn_big_conv1"
  type: "Convolution"
  bottom: "conv5_3"
  top: "rpn_big_conv1"
  param {
    lr_mult: 1
  }
  param {
    lr_mult: 2
  }
  convolution_param {
    num_output: 512
    pad: 1
    kernel_size: 3
    stride: 1
    weight_filler {
      type: "gaussian"
      mean: 0
      std: 0.01
    }
    bias_filler {
      type: "constant"
    }
  }
}
layer {
  name: "rpn_big_conv1_relu"
  type: "ReLU"
  bottom: "rpn_big_conv1"
  top: "rpn_big_conv1"
  relu_param {
    negative_slope: 0
  }
}
layer {
  name: "rpn_big_conv2"
  type: "Convolution"
  bottom: "rpn_big_conv1"
  top: "rpn_big_conv2"
  param {
    lr_mult: 1
  }
  param {
    lr_mult: 2
  }
  convolution_param {
    num_output: 512
    pad: 1
    kernel_size: 3
    stride: 1
    weight_filler {
      type: "gaussian"
      mean: 0
      std: 0.01
    }
    bias_filler {
      type: "constant"
    }
  }
}
layer {
  name: "rpn_big_conv2_relu"
  type: "ReLU"
  bottom: "rpn_big_conv2"
  top: "rpn_big_conv2"
  relu_param {
    negative_slope: 0
  }
}
layer {
  name: "rpn_big_conv2_drop"
  type: "Dropout"
  bottom: "rpn_big_conv2"
  top: "rpn_big_conv2"
  dropout_param {
    dropout_ratio: 0.3
  }
}
layer {
  name: "rpn_big_output_cls"
  type: "Convolution"
  bottom: "rpn_big_conv2"
  top: "rpn_big_output_cls"
  param {
    lr_mult: 1
  }
  param {
    lr_mult: 2
  }
  convolution_param {
    num_output: 384
    pad: 1
    kernel_size: 3
    stride: 1
    weight_filler {
      type: "gaussian"
      mean: 0
      std: 0.01
    }
    bias_filler {
      type: "constant"
    }
  }
}
layer {
  name: "rpn_big_output_cls_relu"
  type: "ReLU"
  bottom: "rpn_big_output_cls"
  top: "rpn_big_output_cls"
  relu_param {
    negative_slope: 0
  }
}
layer {
  name: "rpn_big_cls_score"
  type: "Convolution"
  bottom: "rpn_big_output_cls"
  top: "rpn_big_cls_score"
  param {
    lr_mult: 1
  }
  param {
    lr_mult: 2
  }
  convolution_param {
    num_output: 52
    pad: 0
    kernel_size: 3
    stride: 1
    weight_filler {
      type: "gaussian"
      mean: 0
      std: 0.01
    }
    bias_filler {
      type: "constant"
    }
  }
}
layer {
  name: "rpn_big_cls_score_reshape"
  type: "Reshape"
  bottom: "rpn_big_cls_score"
  top: "rpn_big_cls_score_reshape"
  reshape_param {
    shape {
      dim: 0
      dim: 2
      dim: -1
      dim: 0
    }
  }
}
layer {
  name: "rpn_big_cls_prob"
  type: "Softmax"
  bottom: "rpn_big_cls_score_reshape"
  top: "rpn_big_cls_prob"
}
layer {
  name: "rpn_big_cls_prob_reshape"
  type: "Reshape"
  bottom: "rpn_big_cls_prob"
  top: "rpn_big_cls_prob_reshape"
  reshape_param {
    shape {
      dim: 0
      dim: 52
      dim: -1
      dim: 0
    }
  }
}
layer {
  name: "rpn_big_anchor_target"
  type: "Python"
  bottom: "rpn_big_cls_score"
  bottom: "input_gt_boxes"
  bottom: "input_ignored_boxes"
  bottom: "input_im_info"
  bottom: "input_data"
  bottom: "rpn_big_cls_prob_reshape"
  top: "rpn_big_anchor_target_labels"
  top: "rpn_big_anchor_target_bbox_targets"
  top: "rpn_big_anchor_target_inside_weights"
  top: "rpn_big_anchor_target_outside_weights"
  python_param {
    module: "rpn.anchor_target_layer"
    layer: "AnchorTargetLayer"
    param_str: "{\"negative_overlap\": 0.4, \"square_targets\": true, \"anchor_shift_num_xy\": [[2, 2], [2, 2], [2, 2], [2, 2], [1, 1], [1, 1], [1, 1], [1, 1], [1, 1], [1, 1], [1, 1], [1, 1], [1, 1], [1, 1]], \"anchor_ratios\": [1.0], \"name\": \"rpn_big\", \"feat_stride\": 16, \"anchor_scales\": [2.5, 3.025, 3.66025, 4.4289024999999995, 5.358972025, 6.484356150249999, 7.846070941802498, 9.493745839581022, 11.487432465893036, 13.899793283730574, 16.818749873313998, 20.350687346709933, 24.62433168951902, 29.795441344318014], \"positive_overlap\": 0.6, \"fg_fraction\": 0.5, \"batchsize\": 256, \"tn_fraction\": 0.2, \"num_classes\": 1}"
  }
}
layer {
  name: "rpn_big_loss_cls"
  type: "SoftmaxWithLoss"
  bottom: "rpn_big_cls_score_reshape"
  bottom: "rpn_big_anchor_target_labels"
  top: "rpn_big_loss_cls"
  loss_weight: 1
  propagate_down: true
  propagate_down: false
  loss_param {
    ignore_label: -1
    normalization: VALID
  }
}
layer {
  name: "rpn_big_output_box"
  type: "Convolution"
  bottom: "rpn_big_conv2"
  top: "rpn_big_output_box"
  param {
    lr_mult: 1
  }
  param {
    lr_mult: 2
  }
  convolution_param {
    num_output: 384
    pad: 1
    kernel_size: 3
    stride: 1
    weight_filler {
      type: "gaussian"
      mean: 0
      std: 0.01
    }
    bias_filler {
      type: "constant"
    }
  }
}
layer {
  name: "rpn_big_output_box_relu"
  type: "ReLU"
  bottom: "rpn_big_output_box"
  top: "rpn_big_output_box"
  relu_param {
    negative_slope: 0
  }
}
layer {
  name: "rpn_big_bbox_pred"
  type: "Convolution"
  bottom: "rpn_big_output_box"
  top: "rpn_big_bbox_pred"
  param {
    lr_mult: 1
  }
  param {
    lr_mult: 2
  }
  convolution_param {
    num_output: 104
    pad: 0
    kernel_size: 3
    stride: 1
    weight_filler {
      type: "gaussian"
      mean: 0
      std: 0.01
    }
    bias_filler {
      type: "constant"
    }
  }
}
layer {
  name: "rpn_big_loss_bbox"
  type: "Python"
  bottom: "rpn_big_bbox_pred"
  bottom: "rpn_big_anchor_target_bbox_targets"
  bottom: "rpn_big_anchor_target_inside_weights"
  bottom: "rpn_big_anchor_target_outside_weights"
  top: "rpn_big_loss_bbox"
  loss_weight: 1
  python_param {
    module: "layers.smooth_l1_loss"
    layer: "SmoothL1LossLayer"
    param_str: "{\"sigma\": 3}"
  }
}
layer {
  name: "MyLoss"
  type: "Softmax"
  bottom: "conv3_1"
  bottom: "conv3_1"
  top: "MyLoss"
}
I0412 20:28:34.259490  4564 layer_factory.hpp:77] Creating layer input
I0412 20:28:34.261073  4564 net.cpp:100] Creating Layer input
I0412 20:28:34.261096  4564 net.cpp:408] input -> input_data
I0412 20:28:34.261107  4564 net.cpp:408] input -> input_im_info
I0412 20:28:34.261114  4564 net.cpp:408] input -> input_gt_boxes
I0412 20:28:34.261121  4564 net.cpp:408] input -> input_ignored_boxes
RoiDataLayer: name_to_top: {'ignored_boxes': 3, 'data': 0, 'im_info': 1, 'gt_boxes': 2}
I0412 20:28:34.595835  4564 net.cpp:150] Setting up input
I0412 20:28:34.595866  4564 net.cpp:157] Top shape: 1 3 1000 1500 (4500000)
I0412 20:28:34.595881  4564 net.cpp:157] Top shape: 1 3 (3)
I0412 20:28:34.595890  4564 net.cpp:157] Top shape: 1 5 (5)
I0412 20:28:34.595897  4564 net.cpp:157] Top shape: 1 5 (5)
I0412 20:28:34.595902  4564 net.cpp:165] Memory required for data: 18000052
I0412 20:28:34.595912  4564 layer_factory.hpp:77] Creating layer input_data_input_0_split
I0412 20:28:34.595932  4564 net.cpp:100] Creating Layer input_data_input_0_split
I0412 20:28:34.595942  4564 net.cpp:434] input_data_input_0_split <- input_data
I0412 20:28:34.595955  4564 net.cpp:408] input_data_input_0_split -> input_data_input_0_split_0
I0412 20:28:34.595975  4564 net.cpp:408] input_data_input_0_split -> input_data_input_0_split_1
I0412 20:28:34.596019  4564 net.cpp:150] Setting up input_data_input_0_split
I0412 20:28:34.596034  4564 net.cpp:157] Top shape: 1 3 1000 1500 (4500000)
I0412 20:28:34.596041  4564 net.cpp:157] Top shape: 1 3 1000 1500 (4500000)
I0412 20:28:34.596047  4564 net.cpp:165] Memory required for data: 54000052
I0412 20:28:34.596053  4564 layer_factory.hpp:77] Creating layer conv1_1
I0412 20:28:34.596071  4564 net.cpp:100] Creating Layer conv1_1
I0412 20:28:34.596081  4564 net.cpp:434] conv1_1 <- input_data_input_0_split_0
I0412 20:28:34.596093  4564 net.cpp:408] conv1_1 -> conv1_1
I0412 20:28:34.599056  4564 net.cpp:150] Setting up conv1_1
I0412 20:28:34.599095  4564 net.cpp:157] Top shape: 1 64 1000 1500 (96000000)
I0412 20:28:34.599102  4564 net.cpp:165] Memory required for data: 438000052
I0412 20:28:34.599129  4564 layer_factory.hpp:77] Creating layer relu1_1
I0412 20:28:34.599148  4564 net.cpp:100] Creating Layer relu1_1
I0412 20:28:34.599155  4564 net.cpp:434] relu1_1 <- conv1_1
I0412 20:28:34.599169  4564 net.cpp:395] relu1_1 -> conv1_1 (in-place)
I0412 20:28:34.599187  4564 net.cpp:150] Setting up relu1_1
I0412 20:28:34.599198  4564 net.cpp:157] Top shape: 1 64 1000 1500 (96000000)
I0412 20:28:34.599205  4564 net.cpp:165] Memory required for data: 822000052
I0412 20:28:34.599210  4564 layer_factory.hpp:77] Creating layer conv1_2
I0412 20:28:34.599228  4564 net.cpp:100] Creating Layer conv1_2
I0412 20:28:34.599236  4564 net.cpp:434] conv1_2 <- conv1_1
I0412 20:28:34.599246  4564 net.cpp:408] conv1_2 -> conv1_2
I0412 20:28:34.602334  4564 net.cpp:150] Setting up conv1_2
I0412 20:28:34.602371  4564 net.cpp:157] Top shape: 1 64 1000 1500 (96000000)
I0412 20:28:34.602377  4564 net.cpp:165] Memory required for data: 1206000052
I0412 20:28:34.602406  4564 layer_factory.hpp:77] Creating layer relu1_2
I0412 20:28:34.602423  4564 net.cpp:100] Creating Layer relu1_2
I0412 20:28:34.602438  4564 net.cpp:434] relu1_2 <- conv1_2
I0412 20:28:34.602450  4564 net.cpp:395] relu1_2 -> conv1_2 (in-place)
I0412 20:28:34.602466  4564 net.cpp:150] Setting up relu1_2
I0412 20:28:34.602476  4564 net.cpp:157] Top shape: 1 64 1000 1500 (96000000)
I0412 20:28:34.602481  4564 net.cpp:165] Memory required for data: 1590000052
I0412 20:28:34.602488  4564 layer_factory.hpp:77] Creating layer pool1
I0412 20:28:34.602499  4564 net.cpp:100] Creating Layer pool1
I0412 20:28:34.602506  4564 net.cpp:434] pool1 <- conv1_2
I0412 20:28:34.602517  4564 net.cpp:408] pool1 -> pool1
I0412 20:28:34.602596  4564 net.cpp:150] Setting up pool1
I0412 20:28:34.602607  4564 net.cpp:157] Top shape: 1 64 500 750 (24000000)
I0412 20:28:34.602612  4564 net.cpp:165] Memory required for data: 1686000052
I0412 20:28:34.602618  4564 layer_factory.hpp:77] Creating layer conv2_1
I0412 20:28:34.602638  4564 net.cpp:100] Creating Layer conv2_1
I0412 20:28:34.602644  4564 net.cpp:434] conv2_1 <- pool1
I0412 20:28:34.602654  4564 net.cpp:408] conv2_1 -> conv2_1
I0412 20:28:34.603885  4564 net.cpp:150] Setting up conv2_1
I0412 20:28:34.603909  4564 net.cpp:157] Top shape: 1 128 500 750 (48000000)
I0412 20:28:34.603914  4564 net.cpp:165] Memory required for data: 1878000052
I0412 20:28:34.603931  4564 layer_factory.hpp:77] Creating layer relu2_1
I0412 20:28:34.603950  4564 net.cpp:100] Creating Layer relu2_1
I0412 20:28:34.603956  4564 net.cpp:434] relu2_1 <- conv2_1
I0412 20:28:34.603966  4564 net.cpp:395] relu2_1 -> conv2_1 (in-place)
I0412 20:28:34.603979  4564 net.cpp:150] Setting up relu2_1
I0412 20:28:34.603988  4564 net.cpp:157] Top shape: 1 128 500 750 (48000000)
I0412 20:28:34.603996  4564 net.cpp:165] Memory required for data: 2070000052
I0412 20:28:34.604001  4564 layer_factory.hpp:77] Creating layer conv2_2
I0412 20:28:34.604015  4564 net.cpp:100] Creating Layer conv2_2
I0412 20:28:34.604022  4564 net.cpp:434] conv2_2 <- conv2_1
I0412 20:28:34.604034  4564 net.cpp:408] conv2_2 -> conv2_2
I0412 20:28:34.604971  4564 net.cpp:150] Setting up conv2_2
I0412 20:28:34.604996  4564 net.cpp:157] Top shape: 1 128 500 750 (48000000)
I0412 20:28:34.605001  4564 net.cpp:165] Memory required for data: 2262000052
I0412 20:28:34.605015  4564 layer_factory.hpp:77] Creating layer relu2_2
I0412 20:28:34.605027  4564 net.cpp:100] Creating Layer relu2_2
I0412 20:28:34.605036  4564 net.cpp:434] relu2_2 <- conv2_2
I0412 20:28:34.605048  4564 net.cpp:395] relu2_2 -> conv2_2 (in-place)
I0412 20:28:34.605060  4564 net.cpp:150] Setting up relu2_2
I0412 20:28:34.605070  4564 net.cpp:157] Top shape: 1 128 500 750 (48000000)
I0412 20:28:34.605077  4564 net.cpp:165] Memory required for data: 2454000052
I0412 20:28:34.605083  4564 layer_factory.hpp:77] Creating layer pool2
I0412 20:28:34.605093  4564 net.cpp:100] Creating Layer pool2
I0412 20:28:34.605100  4564 net.cpp:434] pool2 <- conv2_2
I0412 20:28:34.605111  4564 net.cpp:408] pool2 -> pool2
I0412 20:28:34.605160  4564 net.cpp:150] Setting up pool2
I0412 20:28:34.605170  4564 net.cpp:157] Top shape: 1 128 250 375 (12000000)
I0412 20:28:34.605176  4564 net.cpp:165] Memory required for data: 2502000052
I0412 20:28:34.605182  4564 layer_factory.hpp:77] Creating layer conv3_1
I0412 20:28:34.605198  4564 net.cpp:100] Creating Layer conv3_1
I0412 20:28:34.605206  4564 net.cpp:434] conv3_1 <- pool2
I0412 20:28:34.605216  4564 net.cpp:408] conv3_1 -> conv3_1
I0412 20:28:34.606293  4564 net.cpp:150] Setting up conv3_1
I0412 20:28:34.606318  4564 net.cpp:157] Top shape: 1 256 250 375 (24000000)
I0412 20:28:34.606323  4564 net.cpp:165] Memory required for data: 2598000052
I0412 20:28:34.606343  4564 layer_factory.hpp:77] Creating layer relu3_1
I0412 20:28:34.606358  4564 net.cpp:100] Creating Layer relu3_1
I0412 20:28:34.606365  4564 net.cpp:434] relu3_1 <- conv3_1
I0412 20:28:34.606375  4564 net.cpp:395] relu3_1 -> conv3_1 (in-place)
I0412 20:28:34.606389  4564 net.cpp:150] Setting up relu3_1
I0412 20:28:34.606398  4564 net.cpp:157] Top shape: 1 256 250 375 (24000000)
I0412 20:28:34.606405  4564 net.cpp:165] Memory required for data: 2694000052
I0412 20:28:34.606411  4564 layer_factory.hpp:77] Creating layer conv3_1_relu3_1_0_split
I0412 20:28:34.606423  4564 net.cpp:100] Creating Layer conv3_1_relu3_1_0_split
I0412 20:28:34.606431  4564 net.cpp:434] conv3_1_relu3_1_0_split <- conv3_1
I0412 20:28:34.606441  4564 net.cpp:408] conv3_1_relu3_1_0_split -> conv3_1_relu3_1_0_split_0
I0412 20:28:34.606456  4564 net.cpp:408] conv3_1_relu3_1_0_split -> conv3_1_relu3_1_0_split_1
I0412 20:28:34.606467  4564 net.cpp:408] conv3_1_relu3_1_0_split -> conv3_1_relu3_1_0_split_2
I0412 20:28:34.606519  4564 net.cpp:150] Setting up conv3_1_relu3_1_0_split
I0412 20:28:34.606534  4564 net.cpp:157] Top shape: 1 256 250 375 (24000000)
I0412 20:28:34.606542  4564 net.cpp:157] Top shape: 1 256 250 375 (24000000)
I0412 20:28:34.606551  4564 net.cpp:157] Top shape: 1 256 250 375 (24000000)
I0412 20:28:34.606559  4564 net.cpp:165] Memory required for data: 2982000052
I0412 20:28:34.606564  4564 layer_factory.hpp:77] Creating layer conv3_2
I0412 20:28:34.606578  4564 net.cpp:100] Creating Layer conv3_2
I0412 20:28:34.606585  4564 net.cpp:434] conv3_2 <- conv3_1_relu3_1_0_split_0
I0412 20:28:34.606597  4564 net.cpp:408] conv3_2 -> conv3_2
I0412 20:28:34.607815  4564 net.cpp:150] Setting up conv3_2
I0412 20:28:34.607848  4564 net.cpp:157] Top shape: 1 256 250 375 (24000000)
I0412 20:28:34.607854  4564 net.cpp:165] Memory required for data: 3078000052
I0412 20:28:34.607868  4564 layer_factory.hpp:77] Creating layer relu3_2
I0412 20:28:34.607888  4564 net.cpp:100] Creating Layer relu3_2
I0412 20:28:34.607897  4564 net.cpp:434] relu3_2 <- conv3_2
I0412 20:28:34.607909  4564 net.cpp:395] relu3_2 -> conv3_2 (in-place)
I0412 20:28:34.607923  4564 net.cpp:150] Setting up relu3_2
I0412 20:28:34.607933  4564 net.cpp:157] Top shape: 1 256 250 375 (24000000)
I0412 20:28:34.607939  4564 net.cpp:165] Memory required for data: 3174000052
I0412 20:28:34.607945  4564 layer_factory.hpp:77] Creating layer conv3_3
I0412 20:28:34.607959  4564 net.cpp:100] Creating Layer conv3_3
I0412 20:28:34.607965  4564 net.cpp:434] conv3_3 <- conv3_2
I0412 20:28:34.607977  4564 net.cpp:408] conv3_3 -> conv3_3
I0412 20:28:34.609594  4564 net.cpp:150] Setting up conv3_3
I0412 20:28:34.609625  4564 net.cpp:157] Top shape: 1 256 250 375 (24000000)
I0412 20:28:34.609630  4564 net.cpp:165] Memory required for data: 3270000052
I0412 20:28:34.609647  4564 layer_factory.hpp:77] Creating layer relu3_3
I0412 20:28:34.609660  4564 net.cpp:100] Creating Layer relu3_3
I0412 20:28:34.609668  4564 net.cpp:434] relu3_3 <- conv3_3
I0412 20:28:34.609683  4564 net.cpp:395] relu3_3 -> conv3_3 (in-place)
I0412 20:28:34.609696  4564 net.cpp:150] Setting up relu3_3
I0412 20:28:34.609705  4564 net.cpp:157] Top shape: 1 256 250 375 (24000000)
I0412 20:28:34.609711  4564 net.cpp:165] Memory required for data: 3366000052
I0412 20:28:34.609717  4564 layer_factory.hpp:77] Creating layer pool3
I0412 20:28:34.609731  4564 net.cpp:100] Creating Layer pool3
I0412 20:28:34.609738  4564 net.cpp:434] pool3 <- conv3_3
I0412 20:28:34.609747  4564 net.cpp:408] pool3 -> pool3
I0412 20:28:34.609802  4564 net.cpp:150] Setting up pool3
I0412 20:28:34.609812  4564 net.cpp:157] Top shape: 1 256 125 188 (6016000)
I0412 20:28:34.609817  4564 net.cpp:165] Memory required for data: 3390064052
I0412 20:28:34.609822  4564 layer_factory.hpp:77] Creating layer conv4_1
I0412 20:28:34.609838  4564 net.cpp:100] Creating Layer conv4_1
I0412 20:28:34.609844  4564 net.cpp:434] conv4_1 <- pool3
I0412 20:28:34.609854  4564 net.cpp:408] conv4_1 -> conv4_1
I0412 20:28:34.612507  4564 net.cpp:150] Setting up conv4_1
I0412 20:28:34.612541  4564 net.cpp:157] Top shape: 1 512 125 188 (12032000)
I0412 20:28:34.612547  4564 net.cpp:165] Memory required for data: 3438192052
I0412 20:28:34.612562  4564 layer_factory.hpp:77] Creating layer relu4_1
I0412 20:28:34.612576  4564 net.cpp:100] Creating Layer relu4_1
I0412 20:28:34.612584  4564 net.cpp:434] relu4_1 <- conv4_1
I0412 20:28:34.612598  4564 net.cpp:395] relu4_1 -> conv4_1 (in-place)
I0412 20:28:34.612615  4564 net.cpp:150] Setting up relu4_1
I0412 20:28:34.612623  4564 net.cpp:157] Top shape: 1 512 125 188 (12032000)
I0412 20:28:34.612630  4564 net.cpp:165] Memory required for data: 3486320052
I0412 20:28:34.612637  4564 layer_factory.hpp:77] Creating layer conv4_2
I0412 20:28:34.612649  4564 net.cpp:100] Creating Layer conv4_2
I0412 20:28:34.612655  4564 net.cpp:434] conv4_2 <- conv4_1
I0412 20:28:34.612668  4564 net.cpp:408] conv4_2 -> conv4_2
I0412 20:28:34.617022  4564 net.cpp:150] Setting up conv4_2
I0412 20:28:34.617059  4564 net.cpp:157] Top shape: 1 512 125 188 (12032000)
I0412 20:28:34.617065  4564 net.cpp:165] Memory required for data: 3534448052
I0412 20:28:34.617090  4564 layer_factory.hpp:77] Creating layer relu4_2
I0412 20:28:34.617106  4564 net.cpp:100] Creating Layer relu4_2
I0412 20:28:34.617121  4564 net.cpp:434] relu4_2 <- conv4_2
I0412 20:28:34.617135  4564 net.cpp:395] relu4_2 -> conv4_2 (in-place)
I0412 20:28:34.617148  4564 net.cpp:150] Setting up relu4_2
I0412 20:28:34.617157  4564 net.cpp:157] Top shape: 1 512 125 188 (12032000)
I0412 20:28:34.617164  4564 net.cpp:165] Memory required for data: 3582576052
I0412 20:28:34.617171  4564 layer_factory.hpp:77] Creating layer conv4_3
I0412 20:28:34.617187  4564 net.cpp:100] Creating Layer conv4_3
I0412 20:28:34.617193  4564 net.cpp:434] conv4_3 <- conv4_2
I0412 20:28:34.617202  4564 net.cpp:408] conv4_3 -> conv4_3
I0412 20:28:34.621656  4564 net.cpp:150] Setting up conv4_3
I0412 20:28:34.621695  4564 net.cpp:157] Top shape: 1 512 125 188 (12032000)
I0412 20:28:34.621701  4564 net.cpp:165] Memory required for data: 3630704052
I0412 20:28:34.621716  4564 layer_factory.hpp:77] Creating layer relu4_3
I0412 20:28:34.621731  4564 net.cpp:100] Creating Layer relu4_3
I0412 20:28:34.621739  4564 net.cpp:434] relu4_3 <- conv4_3
I0412 20:28:34.621754  4564 net.cpp:395] relu4_3 -> conv4_3 (in-place)
I0412 20:28:34.621769  4564 net.cpp:150] Setting up relu4_3
I0412 20:28:34.621778  4564 net.cpp:157] Top shape: 1 512 125 188 (12032000)
I0412 20:28:34.621784  4564 net.cpp:165] Memory required for data: 3678832052
I0412 20:28:34.621793  4564 layer_factory.hpp:77] Creating layer pool4
I0412 20:28:34.621803  4564 net.cpp:100] Creating Layer pool4
I0412 20:28:34.621811  4564 net.cpp:434] pool4 <- conv4_3
I0412 20:28:34.621820  4564 net.cpp:408] pool4 -> pool4
I0412 20:28:34.621865  4564 net.cpp:150] Setting up pool4
I0412 20:28:34.621876  4564 net.cpp:157] Top shape: 1 512 63 94 (3032064)
I0412 20:28:34.621881  4564 net.cpp:165] Memory required for data: 3690960308
I0412 20:28:34.621887  4564 layer_factory.hpp:77] Creating layer conv5_1
I0412 20:28:34.621906  4564 net.cpp:100] Creating Layer conv5_1
I0412 20:28:34.621912  4564 net.cpp:434] conv5_1 <- pool4
I0412 20:28:34.621923  4564 net.cpp:408] conv5_1 -> conv5_1
I0412 20:28:34.628690  4564 net.cpp:150] Setting up conv5_1
I0412 20:28:34.628724  4564 net.cpp:157] Top shape: 1 512 63 94 (3032064)
I0412 20:28:34.628731  4564 net.cpp:165] Memory required for data: 3703088564
I0412 20:28:34.628746  4564 layer_factory.hpp:77] Creating layer relu5_1
I0412 20:28:34.628760  4564 net.cpp:100] Creating Layer relu5_1
I0412 20:28:34.628782  4564 net.cpp:434] relu5_1 <- conv5_1
I0412 20:28:34.628796  4564 net.cpp:395] relu5_1 -> conv5_1 (in-place)
I0412 20:28:34.628811  4564 net.cpp:150] Setting up relu5_1
I0412 20:28:34.628823  4564 net.cpp:157] Top shape: 1 512 63 94 (3032064)
I0412 20:28:34.628829  4564 net.cpp:165] Memory required for data: 3715216820
I0412 20:28:34.628835  4564 layer_factory.hpp:77] Creating layer conv5_2
I0412 20:28:34.628851  4564 net.cpp:100] Creating Layer conv5_2
I0412 20:28:34.628860  4564 net.cpp:434] conv5_2 <- conv5_1
I0412 20:28:34.628875  4564 net.cpp:408] conv5_2 -> conv5_2
I0412 20:28:34.633378  4564 net.cpp:150] Setting up conv5_2
I0412 20:28:34.633417  4564 net.cpp:157] Top shape: 1 512 63 94 (3032064)
I0412 20:28:34.633424  4564 net.cpp:165] Memory required for data: 3727345076
I0412 20:28:34.633438  4564 layer_factory.hpp:77] Creating layer relu5_2
I0412 20:28:34.633451  4564 net.cpp:100] Creating Layer relu5_2
I0412 20:28:34.633460  4564 net.cpp:434] relu5_2 <- conv5_2
I0412 20:28:34.633471  4564 net.cpp:395] relu5_2 -> conv5_2 (in-place)
I0412 20:28:34.633491  4564 net.cpp:150] Setting up relu5_2
I0412 20:28:34.633499  4564 net.cpp:157] Top shape: 1 512 63 94 (3032064)
I0412 20:28:34.633505  4564 net.cpp:165] Memory required for data: 3739473332
I0412 20:28:34.633512  4564 layer_factory.hpp:77] Creating layer conv5_3
I0412 20:28:34.633527  4564 net.cpp:100] Creating Layer conv5_3
I0412 20:28:34.633534  4564 net.cpp:434] conv5_3 <- conv5_2
I0412 20:28:34.633546  4564 net.cpp:408] conv5_3 -> conv5_3
I0412 20:28:34.637809  4564 net.cpp:150] Setting up conv5_3
I0412 20:28:34.637846  4564 net.cpp:157] Top shape: 1 512 63 94 (3032064)
I0412 20:28:34.637851  4564 net.cpp:165] Memory required for data: 3751601588
I0412 20:28:34.637866  4564 layer_factory.hpp:77] Creating layer relu5_3
I0412 20:28:34.637890  4564 net.cpp:100] Creating Layer relu5_3
I0412 20:28:34.637899  4564 net.cpp:434] relu5_3 <- conv5_3
I0412 20:28:34.637912  4564 net.cpp:395] relu5_3 -> conv5_3 (in-place)
I0412 20:28:34.637926  4564 net.cpp:150] Setting up relu5_3
I0412 20:28:34.637936  4564 net.cpp:157] Top shape: 1 512 63 94 (3032064)
I0412 20:28:34.637943  4564 net.cpp:165] Memory required for data: 3763729844
I0412 20:28:34.637950  4564 layer_factory.hpp:77] Creating layer rpn_big_conv1
I0412 20:28:34.637967  4564 net.cpp:100] Creating Layer rpn_big_conv1
I0412 20:28:34.637974  4564 net.cpp:434] rpn_big_conv1 <- conv5_3
I0412 20:28:34.637985  4564 net.cpp:408] rpn_big_conv1 -> rpn_big_conv1
I0412 20:28:34.665045  4564 net.cpp:150] Setting up rpn_big_conv1
I0412 20:28:34.665079  4564 net.cpp:157] Top shape: 1 512 63 94 (3032064)
I0412 20:28:34.665086  4564 net.cpp:165] Memory required for data: 3775858100
I0412 20:28:34.665107  4564 layer_factory.hpp:77] Creating layer rpn_big_conv1_relu
I0412 20:28:34.665122  4564 net.cpp:100] Creating Layer rpn_big_conv1_relu
I0412 20:28:34.665130  4564 net.cpp:434] rpn_big_conv1_relu <- rpn_big_conv1
I0412 20:28:34.665143  4564 net.cpp:395] rpn_big_conv1_relu -> rpn_big_conv1 (in-place)
I0412 20:28:34.665169  4564 net.cpp:150] Setting up rpn_big_conv1_relu
I0412 20:28:34.665179  4564 net.cpp:157] Top shape: 1 512 63 94 (3032064)
I0412 20:28:34.665184  4564 net.cpp:165] Memory required for data: 3787986356
I0412 20:28:34.665191  4564 layer_factory.hpp:77] Creating layer rpn_big_conv2
I0412 20:28:34.665210  4564 net.cpp:100] Creating Layer rpn_big_conv2
I0412 20:28:34.665217  4564 net.cpp:434] rpn_big_conv2 <- rpn_big_conv1
I0412 20:28:34.665231  4564 net.cpp:408] rpn_big_conv2 -> rpn_big_conv2
I0412 20:28:34.690588  4564 net.cpp:150] Setting up rpn_big_conv2
I0412 20:28:34.690623  4564 net.cpp:157] Top shape: 1 512 63 94 (3032064)
I0412 20:28:34.690629  4564 net.cpp:165] Memory required for data: 3800114612
I0412 20:28:34.690651  4564 layer_factory.hpp:77] Creating layer rpn_big_conv2_relu
I0412 20:28:34.690668  4564 net.cpp:100] Creating Layer rpn_big_conv2_relu
I0412 20:28:34.690677  4564 net.cpp:434] rpn_big_conv2_relu <- rpn_big_conv2
I0412 20:28:34.690690  4564 net.cpp:395] rpn_big_conv2_relu -> rpn_big_conv2 (in-place)
I0412 20:28:34.690713  4564 net.cpp:150] Setting up rpn_big_conv2_relu
I0412 20:28:34.690724  4564 net.cpp:157] Top shape: 1 512 63 94 (3032064)
I0412 20:28:34.690729  4564 net.cpp:165] Memory required for data: 3812242868
I0412 20:28:34.690735  4564 layer_factory.hpp:77] Creating layer rpn_big_conv2_drop
I0412 20:28:34.690747  4564 net.cpp:100] Creating Layer rpn_big_conv2_drop
I0412 20:28:34.690752  4564 net.cpp:434] rpn_big_conv2_drop <- rpn_big_conv2
I0412 20:28:34.690764  4564 net.cpp:395] rpn_big_conv2_drop -> rpn_big_conv2 (in-place)
I0412 20:28:34.690798  4564 net.cpp:150] Setting up rpn_big_conv2_drop
I0412 20:28:34.690810  4564 net.cpp:157] Top shape: 1 512 63 94 (3032064)
I0412 20:28:34.690816  4564 net.cpp:165] Memory required for data: 3824371124
I0412 20:28:34.690824  4564 layer_factory.hpp:77] Creating layer rpn_big_conv2_rpn_big_conv2_drop_0_split
I0412 20:28:34.690834  4564 net.cpp:100] Creating Layer rpn_big_conv2_rpn_big_conv2_drop_0_split
I0412 20:28:34.690840  4564 net.cpp:434] rpn_big_conv2_rpn_big_conv2_drop_0_split <- rpn_big_conv2
I0412 20:28:34.690851  4564 net.cpp:408] rpn_big_conv2_rpn_big_conv2_drop_0_split -> rpn_big_conv2_rpn_big_conv2_drop_0_split_0
I0412 20:28:34.690865  4564 net.cpp:408] rpn_big_conv2_rpn_big_conv2_drop_0_split -> rpn_big_conv2_rpn_big_conv2_drop_0_split_1
I0412 20:28:34.690912  4564 net.cpp:150] Setting up rpn_big_conv2_rpn_big_conv2_drop_0_split
I0412 20:28:34.690923  4564 net.cpp:157] Top shape: 1 512 63 94 (3032064)
I0412 20:28:34.690932  4564 net.cpp:157] Top shape: 1 512 63 94 (3032064)
I0412 20:28:34.690937  4564 net.cpp:165] Memory required for data: 3848627636
I0412 20:28:34.690943  4564 layer_factory.hpp:77] Creating layer rpn_big_output_cls
I0412 20:28:34.690963  4564 net.cpp:100] Creating Layer rpn_big_output_cls
I0412 20:28:34.690973  4564 net.cpp:434] rpn_big_output_cls <- rpn_big_conv2_rpn_big_conv2_drop_0_split_0
I0412 20:28:34.690986  4564 net.cpp:408] rpn_big_output_cls -> rpn_big_output_cls
I0412 20:28:34.710966  4564 net.cpp:150] Setting up rpn_big_output_cls
I0412 20:28:34.711000  4564 net.cpp:157] Top shape: 1 384 63 94 (2274048)
I0412 20:28:34.711006  4564 net.cpp:165] Memory required for data: 3857723828
I0412 20:28:34.711021  4564 layer_factory.hpp:77] Creating layer rpn_big_output_cls_relu
I0412 20:28:34.711037  4564 net.cpp:100] Creating Layer rpn_big_output_cls_relu
I0412 20:28:34.711046  4564 net.cpp:434] rpn_big_output_cls_relu <- rpn_big_output_cls
I0412 20:28:34.711061  4564 net.cpp:395] rpn_big_output_cls_relu -> rpn_big_output_cls (in-place)
I0412 20:28:34.711076  4564 net.cpp:150] Setting up rpn_big_output_cls_relu
I0412 20:28:34.711092  4564 net.cpp:157] Top shape: 1 384 63 94 (2274048)
I0412 20:28:34.711098  4564 net.cpp:165] Memory required for data: 3866820020
I0412 20:28:34.711104  4564 layer_factory.hpp:77] Creating layer rpn_big_cls_score
I0412 20:28:34.711123  4564 net.cpp:100] Creating Layer rpn_big_cls_score
I0412 20:28:34.711132  4564 net.cpp:434] rpn_big_cls_score <- rpn_big_output_cls
I0412 20:28:34.711143  4564 net.cpp:408] rpn_big_cls_score -> rpn_big_cls_score
I0412 20:28:34.713456  4564 net.cpp:150] Setting up rpn_big_cls_score
I0412 20:28:34.713477  4564 net.cpp:157] Top shape: 1 52 61 92 (291824)
I0412 20:28:34.713482  4564 net.cpp:165] Memory required for data: 3867987316
I0412 20:28:34.713507  4564 layer_factory.hpp:77] Creating layer rpn_big_cls_score_rpn_big_cls_score_0_split
I0412 20:28:34.713527  4564 net.cpp:100] Creating Layer rpn_big_cls_score_rpn_big_cls_score_0_split
I0412 20:28:34.713538  4564 net.cpp:434] rpn_big_cls_score_rpn_big_cls_score_0_split <- rpn_big_cls_score
I0412 20:28:34.713551  4564 net.cpp:408] rpn_big_cls_score_rpn_big_cls_score_0_split -> rpn_big_cls_score_rpn_big_cls_score_0_split_0
I0412 20:28:34.713572  4564 net.cpp:408] rpn_big_cls_score_rpn_big_cls_score_0_split -> rpn_big_cls_score_rpn_big_cls_score_0_split_1
I0412 20:28:34.713620  4564 net.cpp:150] Setting up rpn_big_cls_score_rpn_big_cls_score_0_split
I0412 20:28:34.713631  4564 net.cpp:157] Top shape: 1 52 61 92 (291824)
I0412 20:28:34.713639  4564 net.cpp:157] Top shape: 1 52 61 92 (291824)
I0412 20:28:34.713645  4564 net.cpp:165] Memory required for data: 3870321908
I0412 20:28:34.713651  4564 layer_factory.hpp:77] Creating layer rpn_big_cls_score_reshape
I0412 20:28:34.713665  4564 net.cpp:100] Creating Layer rpn_big_cls_score_reshape
I0412 20:28:34.713672  4564 net.cpp:434] rpn_big_cls_score_reshape <- rpn_big_cls_score_rpn_big_cls_score_0_split_0
I0412 20:28:34.713682  4564 net.cpp:408] rpn_big_cls_score_reshape -> rpn_big_cls_score_reshape
I0412 20:28:34.713724  4564 net.cpp:150] Setting up rpn_big_cls_score_reshape
I0412 20:28:34.713734  4564 net.cpp:157] Top shape: 1 2 1586 92 (291824)
I0412 20:28:34.713740  4564 net.cpp:165] Memory required for data: 3871489204
I0412 20:28:34.713747  4564 layer_factory.hpp:77] Creating layer rpn_big_cls_score_reshape_rpn_big_cls_score_reshape_0_split
I0412 20:28:34.713759  4564 net.cpp:100] Creating Layer rpn_big_cls_score_reshape_rpn_big_cls_score_reshape_0_split
I0412 20:28:34.713768  4564 net.cpp:434] rpn_big_cls_score_reshape_rpn_big_cls_score_reshape_0_split <- rpn_big_cls_score_reshape
I0412 20:28:34.713778  4564 net.cpp:408] rpn_big_cls_score_reshape_rpn_big_cls_score_reshape_0_split -> rpn_big_cls_score_reshape_rpn_big_cls_score_reshape_0_split_0
I0412 20:28:34.713788  4564 net.cpp:408] rpn_big_cls_score_reshape_rpn_big_cls_score_reshape_0_split -> rpn_big_cls_score_reshape_rpn_big_cls_score_reshape_0_split_1
I0412 20:28:34.713831  4564 net.cpp:150] Setting up rpn_big_cls_score_reshape_rpn_big_cls_score_reshape_0_split
I0412 20:28:34.713841  4564 net.cpp:157] Top shape: 1 2 1586 92 (291824)
I0412 20:28:34.713850  4564 net.cpp:157] Top shape: 1 2 1586 92 (291824)
I0412 20:28:34.713855  4564 net.cpp:165] Memory required for data: 3873823796
I0412 20:28:34.713862  4564 layer_factory.hpp:77] Creating layer rpn_big_cls_prob
I0412 20:28:34.713874  4564 net.cpp:100] Creating Layer rpn_big_cls_prob
I0412 20:28:34.713886  4564 net.cpp:434] rpn_big_cls_prob <- rpn_big_cls_score_reshape_rpn_big_cls_score_reshape_0_split_0
I0412 20:28:34.713893  4564 net.cpp:408] rpn_big_cls_prob -> rpn_big_cls_prob
I0412 20:28:34.713968  4564 net.cpp:150] Setting up rpn_big_cls_prob
I0412 20:28:34.713979  4564 net.cpp:157] Top shape: 1 2 1586 92 (291824)
I0412 20:28:34.713982  4564 net.cpp:165] Memory required for data: 3874991092
I0412 20:28:34.713989  4564 layer_factory.hpp:77] Creating layer rpn_big_cls_prob_reshape
I0412 20:28:34.713999  4564 net.cpp:100] Creating Layer rpn_big_cls_prob_reshape
I0412 20:28:34.714004  4564 net.cpp:434] rpn_big_cls_prob_reshape <- rpn_big_cls_prob
I0412 20:28:34.714013  4564 net.cpp:408] rpn_big_cls_prob_reshape -> rpn_big_cls_prob_reshape
I0412 20:28:34.714042  4564 net.cpp:150] Setting up rpn_big_cls_prob_reshape
I0412 20:28:34.714053  4564 net.cpp:157] Top shape: 1 52 61 92 (291824)
I0412 20:28:34.714058  4564 net.cpp:165] Memory required for data: 3876158388
I0412 20:28:34.714063  4564 layer_factory.hpp:77] Creating layer rpn_big_anchor_target
I0412 20:28:34.715385  4564 net.cpp:100] Creating Layer rpn_big_anchor_target
I0412 20:28:34.715402  4564 net.cpp:434] rpn_big_anchor_target <- rpn_big_cls_score_rpn_big_cls_score_0_split_1
I0412 20:28:34.715412  4564 net.cpp:434] rpn_big_anchor_target <- input_gt_boxes
I0412 20:28:34.715420  4564 net.cpp:434] rpn_big_anchor_target <- input_ignored_boxes
I0412 20:28:34.715427  4564 net.cpp:434] rpn_big_anchor_target <- input_im_info
I0412 20:28:34.715435  4564 net.cpp:434] rpn_big_anchor_target <- input_data_input_0_split_1
I0412 20:28:34.715441  4564 net.cpp:434] rpn_big_anchor_target <- rpn_big_cls_prob_reshape
I0412 20:28:34.715453  4564 net.cpp:408] rpn_big_anchor_target -> rpn_big_anchor_target_labels
I0412 20:28:34.715468  4564 net.cpp:408] rpn_big_anchor_target -> rpn_big_anchor_target_bbox_targets
I0412 20:28:34.715490  4564 net.cpp:408] rpn_big_anchor_target -> rpn_big_anchor_target_inside_weights
I0412 20:28:34.715507  4564 net.cpp:408] rpn_big_anchor_target -> rpn_big_anchor_target_outside_weights
I0412 20:28:34.720178  4564 net.cpp:150] Setting up rpn_big_anchor_target
I0412 20:28:34.720207  4564 net.cpp:157] Top shape: 1 1 1586 92 (145912)
I0412 20:28:34.720216  4564 net.cpp:157] Top shape: 1 104 61 92 (583648)
I0412 20:28:34.720221  4564 net.cpp:157] Top shape: 1 104 61 92 (583648)
I0412 20:28:34.720237  4564 net.cpp:157] Top shape: 1 104 61 92 (583648)
I0412 20:28:34.720242  4564 net.cpp:165] Memory required for data: 3883745812
I0412 20:28:34.720250  4564 layer_factory.hpp:77] Creating layer rpn_big_loss_cls
I0412 20:28:34.720268  4564 net.cpp:100] Creating Layer rpn_big_loss_cls
I0412 20:28:34.720278  4564 net.cpp:434] rpn_big_loss_cls <- rpn_big_cls_score_reshape_rpn_big_cls_score_reshape_0_split_1
I0412 20:28:34.720288  4564 net.cpp:434] rpn_big_loss_cls <- rpn_big_anchor_target_labels
I0412 20:28:34.720300  4564 net.cpp:408] rpn_big_loss_cls -> rpn_big_loss_cls
I0412 20:28:34.720321  4564 layer_factory.hpp:77] Creating layer rpn_big_loss_cls
I0412 20:28:34.720965  4564 net.cpp:150] Setting up rpn_big_loss_cls
I0412 20:28:34.720979  4564 net.cpp:157] Top shape: (1)
I0412 20:28:34.720985  4564 net.cpp:160]     with loss weight 1
I0412 20:28:34.721002  4564 net.cpp:165] Memory required for data: 3883745816
I0412 20:28:34.721009  4564 layer_factory.hpp:77] Creating layer rpn_big_output_box
I0412 20:28:34.721027  4564 net.cpp:100] Creating Layer rpn_big_output_box
I0412 20:28:34.721035  4564 net.cpp:434] rpn_big_output_box <- rpn_big_conv2_rpn_big_conv2_drop_0_split_1
I0412 20:28:34.721048  4564 net.cpp:408] rpn_big_output_box -> rpn_big_output_box
I0412 20:28:34.741793  4564 net.cpp:150] Setting up rpn_big_output_box
I0412 20:28:34.741825  4564 net.cpp:157] Top shape: 1 384 63 94 (2274048)
I0412 20:28:34.741830  4564 net.cpp:165] Memory required for data: 3892842008
I0412 20:28:34.741852  4564 layer_factory.hpp:77] Creating layer rpn_big_output_box_relu
I0412 20:28:34.741868  4564 net.cpp:100] Creating Layer rpn_big_output_box_relu
I0412 20:28:34.741880  4564 net.cpp:434] rpn_big_output_box_relu <- rpn_big_output_box
I0412 20:28:34.741897  4564 net.cpp:395] rpn_big_output_box_relu -> rpn_big_output_box (in-place)
I0412 20:28:34.741914  4564 net.cpp:150] Setting up rpn_big_output_box_relu
I0412 20:28:34.741924  4564 net.cpp:157] Top shape: 1 384 63 94 (2274048)
I0412 20:28:34.741930  4564 net.cpp:165] Memory required for data: 3901938200
I0412 20:28:34.741937  4564 layer_factory.hpp:77] Creating layer rpn_big_bbox_pred
I0412 20:28:34.741955  4564 net.cpp:100] Creating Layer rpn_big_bbox_pred
I0412 20:28:34.741961  4564 net.cpp:434] rpn_big_bbox_pred <- rpn_big_output_box
I0412 20:28:34.741976  4564 net.cpp:408] rpn_big_bbox_pred -> rpn_big_bbox_pred
I0412 20:28:34.746068  4564 net.cpp:150] Setting up rpn_big_bbox_pred
I0412 20:28:34.746086  4564 net.cpp:157] Top shape: 1 104 61 92 (583648)
I0412 20:28:34.746091  4564 net.cpp:165] Memory required for data: 3904272792
I0412 20:28:34.746104  4564 layer_factory.hpp:77] Creating layer rpn_big_loss_bbox
I0412 20:28:34.746476  4564 net.cpp:100] Creating Layer rpn_big_loss_bbox
I0412 20:28:34.746487  4564 net.cpp:434] rpn_big_loss_bbox <- rpn_big_bbox_pred
I0412 20:28:34.746496  4564 net.cpp:434] rpn_big_loss_bbox <- rpn_big_anchor_target_bbox_targets
I0412 20:28:34.746507  4564 net.cpp:434] rpn_big_loss_bbox <- rpn_big_anchor_target_inside_weights
I0412 20:28:34.746517  4564 net.cpp:434] rpn_big_loss_bbox <- rpn_big_anchor_target_outside_weights
I0412 20:28:34.746531  4564 net.cpp:408] rpn_big_loss_bbox -> rpn_big_loss_bbox
I0412 20:28:34.748512  4564 net.cpp:150] Setting up rpn_big_loss_bbox
I0412 20:28:34.748550  4564 net.cpp:157] Top shape: 1 (1)
I0412 20:28:34.748556  4564 net.cpp:160]     with loss weight 1
I0412 20:28:34.748571  4564 net.cpp:165] Memory required for data: 3904272796
I0412 20:28:34.748580  4564 layer_factory.hpp:77] Creating layer MyLoss
I0412 20:28:34.748613  4564 net.cpp:100] Creating Layer MyLoss
I0412 20:28:34.748623  4564 net.cpp:434] MyLoss <- conv3_1_relu3_1_0_split_1
I0412 20:28:34.748636  4564 net.cpp:434] MyLoss <- conv3_1_relu3_1_0_split_2
…
