…
I0413 18:08:39.691309 11787 solver.cpp:48] Initializing solver from parameters: 
base_lr: 0.001
display: 20
lr_policy: "multistep"
gamma: 0.1
momentum: 0.9
weight_decay: 0.0005
snapshot: 0
snapshot_prefix: "faces_example"
net_param {
  name: "GeneratedModel_13_04_2017_18_08"
  layer {
    name: "input"
    type: "Python"
    top: "input_data"
    top: "input_im_info"
    top: "input_gt_boxes"
    top: "input_ignored_boxes"
    python_param {
      module: "layers.roi_data_layer"
      layer: "RoIDataLayer"
      param_str: "{\"num_classes\": 2}"
    }
  }
  layer {
    name: "conv1_1"
    type: "Convolution"
    bottom: "input_data"
    top: "conv1_1"
    param {
      lr_mult: 0
      decay_mult: 0
    }
    param {
      lr_mult: 0
      decay_mult: 0
    }
    convolution_param {
      num_output: 64
      pad: 1
      kernel_size: 3
    }
  }
  layer {
    name: "relu1_1"
    type: "ReLU"
    bottom: "conv1_1"
    top: "conv1_1"
  }
  layer {
    name: "conv1_2"
    type: "Convolution"
    bottom: "conv1_1"
    top: "conv1_2"
    param {
      lr_mult: 0
      decay_mult: 0
    }
    param {
      lr_mult: 0
      decay_mult: 0
    }
    convolution_param {
      num_output: 64
      pad: 1
      kernel_size: 3
    }
  }
  layer {
    name: "relu1_2"
    type: "ReLU"
    bottom: "conv1_2"
    top: "conv1_2"
  }
  layer {
    name: "pool1"
    type: "Pooling"
    bottom: "conv1_2"
    top: "pool1"
    pooling_param {
      pool: MAX
      kernel_size: 2
      stride: 2
    }
  }
  layer {
    name: "conv2_1"
    type: "Convolution"
    bottom: "pool1"
    top: "conv2_1"
    param {
      lr_mult: 0
      decay_mult: 0
    }
    param {
      lr_mult: 0
      decay_mult: 0
    }
    convolution_param {
      num_output: 128
      pad: 1
      kernel_size: 3
    }
  }
  layer {
    name: "relu2_1"
    type: "ReLU"
    bottom: "conv2_1"
    top: "conv2_1"
  }
  layer {
    name: "conv2_2"
    type: "Convolution"
    bottom: "conv2_1"
    top: "conv2_2"
    param {
      lr_mult: 0
      decay_mult: 0
    }
    param {
      lr_mult: 0
      decay_mult: 0
    }
    convolution_param {
      num_output: 128
      pad: 1
      kernel_size: 3
    }
  }
  layer {
    name: "relu2_2"
    type: "ReLU"
    bottom: "conv2_2"
    top: "conv2_2"
  }
  layer {
    name: "pool2"
    type: "Pooling"
    bottom: "conv2_2"
    top: "pool2"
    pooling_param {
      pool: MAX
      kernel_size: 2
      stride: 2
    }
  }
  layer {
    name: "conv3_1"
    type: "Convolution"
    bottom: "pool2"
    top: "conv3_1"
    param {
      lr_mult: 1
    }
    param {
      lr_mult: 2
    }
    convolution_param {
      num_output: 256
      pad: 1
      kernel_size: 3
    }
  }
  layer {
    name: "relu3_1"
    type: "ReLU"
    bottom: "conv3_1"
    top: "conv3_1"
  }
  layer {
    name: "conv3_2"
    type: "Convolution"
    bottom: "conv3_1"
    top: "conv3_2"
    param {
      lr_mult: 1
    }
    param {
      lr_mult: 2
    }
    convolution_param {
      num_output: 256
      pad: 1
      kernel_size: 3
    }
  }
  layer {
    name: "relu3_2"
    type: "ReLU"
    bottom: "conv3_2"
    top: "conv3_2"
  }
  layer {
    name: "conv3_3"
    type: "Convolution"
    bottom: "conv3_2"
    top: "conv3_3"
    param {
      lr_mult: 1
    }
    param {
      lr_mult: 2
    }
    convolution_param {
      num_output: 256
      pad: 1
      kernel_size: 3
    }
  }
  layer {
    name: "relu3_3"
    type: "ReLU"
    bottom: "conv3_3"
    top: "conv3_3"
  }
  layer {
    name: "pool3"
    type: "Pooling"
    bottom: "conv3_3"
    top: "pool3"
    pooling_param {
      pool: MAX
      kernel_size: 2
      stride: 2
    }
  }
  layer {
    name: "conv4_1"
    type: "Convolution"
    bottom: "pool3"
    top: "conv4_1"
    param {
      lr_mult: 1
    }
    param {
      lr_mult: 2
    }
    convolution_param {
      num_output: 512
      pad: 1
      kernel_size: 3
    }
  }
  layer {
    name: "relu4_1"
    type: "ReLU"
    bottom: "conv4_1"
    top: "conv4_1"
  }
  layer {
    name: "conv4_2"
    type: "Convolution"
    bottom: "conv4_1"
    top: "conv4_2"
    param {
      lr_mult: 1
    }
    param {
      lr_mult: 2
    }
    convolution_param {
      num_output: 512
      pad: 1
      kernel_size: 3
    }
  }
  layer {
    name: "relu4_2"
    type: "ReLU"
    bottom: "conv4_2"
    top: "conv4_2"
  }
  layer {
    name: "conv4_3"
    type: "Convolution"
    bottom: "conv4_2"
    top: "conv4_3"
    param {
      lr_mult: 1
    }
    param {
      lr_mult: 2
    }
    convolution_param {
      num_output: 512
      pad: 1
      kernel_size: 3
    }
  }
  layer {
    name: "relu4_3"
    type: "ReLU"
    bottom: "conv4_3"
    top: "conv4_3"
  }
  layer {
    name: "pool4"
    type: "Pooling"
    bottom: "conv4_3"
    top: "pool4"
    pooling_param {
      pool: MAX
      kernel_size: 2
      stride: 2
    }
  }
  layer {
    name: "conv5_1"
    type: "Convolution"
    bottom: "pool4"
    top: "conv5_1"
    param {
      lr_mult: 1
    }
    param {
      lr_mult: 2
    }
    convolution_param {
      num_output: 512
      pad: 1
      kernel_size: 3
    }
  }
  layer {
    name: "relu5_1"
    type: "ReLU"
    bottom: "conv5_1"
    top: "conv5_1"
  }
  layer {
    name: "conv5_2"
    type: "Convolution"
    bottom: "conv5_1"
    top: "conv5_2"
    param {
      lr_mult: 1
    }
    param {
      lr_mult: 2
    }
    convolution_param {
      num_output: 512
      pad: 1
      kernel_size: 3
    }
  }
  layer {
    name: "relu5_2"
    type: "ReLU"
    bottom: "conv5_2"
    top: "conv5_2"
  }
  layer {
    name: "conv5_3"
    type: "Convolution"
    bottom: "conv5_2"
    top: "conv5_3"
    param {
      lr_mult: 1
    }
    param {
      lr_mult: 2
    }
    convolution_param {
      num_output: 512
      pad: 1
      kernel_size: 3
    }
  }
  layer {
    name: "relu5_3"
    type: "ReLU"
    bottom: "conv5_3"
    top: "conv5_3"
  }
  layer {
    name: "rpn_big_conv1"
    type: "Convolution"
    bottom: "conv5_3"
    top: "rpn_big_conv1"
    param {
      lr_mult: 1
    }
    param {
      lr_mult: 2
    }
    convolution_param {
      num_output: 512
      pad: 1
      kernel_size: 3
      stride: 1
      weight_filler {
        type: "gaussian"
        mean: 0
        std: 0.01
      }
      bias_filler {
        type: "constant"
      }
    }
  }
  layer {
    name: "rpn_big_conv1_relu"
    type: "ReLU"
    bottom: "rpn_big_conv1"
    top: "rpn_big_conv1"
    relu_param {
      negative_slope: 0
    }
  }
  layer {
    name: "rpn_big_conv2"
    type: "Convolution"
    bottom: "rpn_big_conv1"
    top: "rpn_big_conv2"
    param {
      lr_mult: 1
    }
    param {
      lr_mult: 2
    }
    convolution_param {
      num_output: 512
      pad: 1
      kernel_size: 3
      stride: 1
      weight_filler {
        type: "gaussian"
        mean: 0
        std: 0.01
      }
      bias_filler {
        type: "constant"
      }
    }
  }
  layer {
    name: "rpn_big_conv2_relu"
    type: "ReLU"
    bottom: "rpn_big_conv2"
    top: "rpn_big_conv2"
    relu_param {
      negative_slope: 0
    }
  }
  layer {
    name: "rpn_big_conv2_drop"
    type: "Dropout"
    bottom: "rpn_big_conv2"
    top: "rpn_big_conv2"
    dropout_param {
      dropout_ratio: 0.3
    }
  }
  layer {
    name: "rpn_big_output_cls"
    type: "Convolution"
    bottom: "rpn_big_conv2"
    top: "rpn_big_output_cls"
    param {
      lr_mult: 1
    }
    param {
      lr_mult: 2
    }
    convolution_param {
      num_output: 384
      pad: 1
      kernel_size: 3
      stride: 1
      weight_filler {
        type: "gaussian"
        mean: 0
        std: 0.01
      }
      bias_filler {
        type: "constant"
      }
    }
  }
  layer {
    name: "rpn_big_output_cls_relu"
    type: "ReLU"
    bottom: "rpn_big_output_cls"
    top: "rpn_big_output_cls"
    relu_param {
      negative_slope: 0
    }
  }
  layer {
    name: "rpn_big_cls_score"
    type: "Convolution"
    bottom: "rpn_big_output_cls"
    top: "rpn_big_cls_score"
    param {
      lr_mult: 1
    }
    param {
      lr_mult: 2
    }
    convolution_param {
      num_output: 52
      pad: 0
      kernel_size: 3
      stride: 1
      weight_filler {
        type: "gaussian"
        mean: 0
        std: 0.01
      }
      bias_filler {
        type: "constant"
      }
    }
  }
  layer {
    name: "rpn_big_cls_score_reshape"
    type: "Reshape"
    bottom: "rpn_big_cls_score"
    top: "rpn_big_cls_score_reshape"
    reshape_param {
      shape {
        dim: 0
        dim: 2
        dim: -1
        dim: 0
      }
    }
  }
  layer {
    name: "rpn_big_cls_prob"
    type: "Softmax"
    bottom: "rpn_big_cls_score_reshape"
    top: "rpn_big_cls_prob"
  }
  layer {
    name: "rpn_big_cls_prob_reshape"
    type: "Reshape"
    bottom: "rpn_big_cls_prob"
    top: "rpn_big_cls_prob_reshape"
    reshape_param {
      shape {
        dim: 0
        dim: 52
        dim: -1
        dim: 0
      }
    }
  }
  layer {
    name: "rpn_big_anchor_target"
    type: "Python"
    bottom: "rpn_big_cls_score"
    bottom: "input_gt_boxes"
    bottom: "input_ignored_boxes"
    bottom: "input_im_info"
    bottom: "input_data"
    bottom: "rpn_big_cls_prob_reshape"
    top: "rpn_big_anchor_target_labels"
    top: "rpn_big_anchor_target_bbox_targets"
    top: "rpn_big_anchor_target_inside_weights"
    top: "rpn_big_anchor_target_outside_weights"
    python_param {
      module: "rpn.anchor_target_layer"
      layer: "AnchorTargetLayer"
      param_str: "{\"batchsize\": 256, \"positive_overlap\": 0.6, \"negative_overlap\": 0.4, \"num_classes\": 1, \"anchor_ratios\": [1.0], \"tn_fraction\": 0.2, \"square_targets\": true, \"feat_stride\": 16, \"anchor_scales\": [2.5, 3.025, 3.66025, 4.4289024999999995, 5.358972025, 6.484356150249999, 7.846070941802498, 9.493745839581022, 11.487432465893036, 13.899793283730574, 16.818749873313998, 20.350687346709933, 24.62433168951902, 29.795441344318014], \"fg_fraction\": 0.5, \"name\": \"rpn_big\", \"anchor_shift_num_xy\": [[2, 2], [2, 2], [2, 2], [2, 2], [1, 1], [1, 1], [1, 1], [1, 1], [1, 1], [1, 1], [1, 1], [1, 1], [1, 1], [1, 1]]}"
    }
  }
  layer {
    name: "rpn_big_loss_cls"
    type: "SoftmaxWithLoss"
    bottom: "rpn_big_cls_score_reshape"
    bottom: "rpn_big_anchor_target_labels"
    top: "rpn_big_loss_cls"
    loss_weight: 1
    propagate_down: true
    propagate_down: false
    loss_param {
      ignore_label: -1
      normalization: VALID
    }
  }
  layer {
    name: "rpn_big_output_box"
    type: "Convolution"
    bottom: "rpn_big_conv2"
    top: "rpn_big_output_box"
    param {
      lr_mult: 1
    }
    param {
      lr_mult: 2
    }
    convolution_param {
      num_output: 384
      pad: 1
      kernel_size: 3
      stride: 1
      weight_filler {
        type: "gaussian"
        mean: 0
        std: 0.01
      }
      bias_filler {
        type: "constant"
      }
    }
  }
  layer {
    name: "rpn_big_output_box_relu"
    type: "ReLU"
    bottom: "rpn_big_output_box"
    top: "rpn_big_output_box"
    relu_param {
      negative_slope: 0
    }
  }
  layer {
    name: "rpn_big_bbox_pred"
    type: "Convolution"
    bottom: "rpn_big_output_box"
    top: "rpn_big_bbox_pred"
    param {
      lr_mult: 1
    }
    param {
      lr_mult: 2
    }
    convolution_param {
      num_output: 104
      pad: 0
      kernel_size: 3
      stride: 1
      weight_filler {
        type: "gaussian"
        mean: 0
        std: 0.01
      }
      bias_filler {
        type: "constant"
      }
    }
  }
  layer {
    name: "rpn_big_loss_bbox"
    type: "Python"
    bottom: "rpn_big_bbox_pred"
    bottom: "rpn_big_anchor_target_bbox_targets"
    bottom: "rpn_big_anchor_target_inside_weights"
    bottom: "rpn_big_anchor_target_outside_weights"
    top: "rpn_big_loss_bbox"
    loss_weight: 1
    python_param {
      module: "layers.smooth_l1_loss"
      layer: "SmoothL1LossLayer"
      param_str: "{\"sigma\": 3}"
    }
  }
  layer {
    name: "proposal"
    type: "Python"
    bottom: "rpn_big_cls_prob_reshape"
    bottom: "rpn_big_bbox_pred"
    bottom: "input_im_info"
    top: "rpn_rois"
    python_param {
      module: "rpn.proposal_layer"
      layer: "ProposalLayer"
      param_str: "{\"anchor_shift_num_xy\": [[2, 2], [2, 2], [2, 2], [2, 2], [1, 1], [1, 1], [1, 1], [1, 1], [1, 1], [1, 1], [1, 1], [1, 1], [1, 1], [1, 1]], \"feat_stride\": 16, \"num_classes\": 1, \"anchor_scales\": [2.5, 3.025, 3.66025, 4.4289024999999995, 5.358972025, 6.484356150249999, 7.846070941802498, 9.493745839581022, 11.487432465893036, 13.899793283730574, 16.818749873313998, 20.350687346709933, 24.62433168951902, 29.795441344318014], \"square_targets\": true, \"name\": \"rpn_big\", \"batchsize\": 256, \"anchor_ratios\": [1.0]}"
    }
  }
  layer {
    name: "roi-data"
    type: "Python"
    bottom: "rpn_rois"
    bottom: "input_gt_boxes"
    top: "rois"
    top: "labels"
    top: "bbox_targets"
    top: "bbox_inside_weights"
    top: "bbox_outside_weights"
    top: "pid_label"
    python_param {
      module: "rpn.proposal_target_layer"
      layer: "ProposalTargetLayer"
      param_str: "{\"num_classes\": 2, \"bg_aux_label\": 5532}"
    }
  }
  layer {
    name: "roi-pool"
    type: "ROIPooling"
    bottom: "conv5_3"
    bottom: "rois"
    top: "roi-pool"
    roi_pooling_param {
      pooled_h: 7
      pooled_w: 7
      spatial_scale: 0.0625
    }
  }
  layer {
    name: "fc6"
    type: "InnerProduct"
    bottom: "roi-pool"
    top: "fc6"
    param {
      lr_mult: 1
    }
    param {
      lr_mult: 2
    }
    inner_product_param {
      num_output: 4096
    }
  }
  layer {
    name: "relu6"
    type: "ReLU"
    bottom: "fc6"
    top: "fc6"
  }
  layer {
    name: "drop6"
    type: "Dropout"
    bottom: "fc6"
    top: "fc6"
    dropout_param {
      dropout_ratio: 0.5
    }
  }
}
average_loss: 100
stepvalue: 70000
stepvalue: 120000
iter_size: 2
I0413 18:08:39.691416 11787 solver.cpp:86] Creating training net specified in net_param.
I0413 18:08:39.692065 11787 net.cpp:58] Initializing net from parameters: 
name: "GeneratedModel_13_04_2017_18_08"
state {
  phase: TRAIN
}
layer {
  name: "input"
  type: "Python"
  top: "input_data"
  top: "input_im_info"
  top: "input_gt_boxes"
  top: "input_ignored_boxes"
  python_param {
    module: "layers.roi_data_layer"
    layer: "RoIDataLayer"
    param_str: "{\"num_classes\": 2}"
  }
}
layer {
  name: "conv1_1"
  type: "Convolution"
  bottom: "input_data"
  top: "conv1_1"
  param {
    lr_mult: 0
    decay_mult: 0
  }
  param {
    lr_mult: 0
    decay_mult: 0
  }
  convolution_param {
    num_output: 64
    pad: 1
    kernel_size: 3
  }
}
layer {
  name: "relu1_1"
  type: "ReLU"
  bottom: "conv1_1"
  top: "conv1_1"
}
layer {
  name: "conv1_2"
  type: "Convolution"
  bottom: "conv1_1"
  top: "conv1_2"
  param {
    lr_mult: 0
    decay_mult: 0
  }
  param {
    lr_mult: 0
    decay_mult: 0
  }
  convolution_param {
    num_output: 64
    pad: 1
    kernel_size: 3
  }
}
layer {
  name: "relu1_2"
  type: "ReLU"
  bottom: "conv1_2"
  top: "conv1_2"
}
layer {
  name: "pool1"
  type: "Pooling"
  bottom: "conv1_2"
  top: "pool1"
  pooling_param {
    pool: MAX
    kernel_size: 2
    stride: 2
  }
}
layer {
  name: "conv2_1"
  type: "Convolution"
  bottom: "pool1"
  top: "conv2_1"
  param {
    lr_mult: 0
    decay_mult: 0
  }
  param {
    lr_mult: 0
    decay_mult: 0
  }
  convolution_param {
    num_output: 128
    pad: 1
    kernel_size: 3
  }
}
layer {
  name: "relu2_1"
  type: "ReLU"
  bottom: "conv2_1"
  top: "conv2_1"
}
layer {
  name: "conv2_2"
  type: "Convolution"
  bottom: "conv2_1"
  top: "conv2_2"
  param {
    lr_mult: 0
    decay_mult: 0
  }
  param {
    lr_mult: 0
    decay_mult: 0
  }
  convolution_param {
    num_output: 128
    pad: 1
    kernel_size: 3
  }
}
layer {
  name: "relu2_2"
  type: "ReLU"
  bottom: "conv2_2"
  top: "conv2_2"
}
layer {
  name: "pool2"
  type: "Pooling"
  bottom: "conv2_2"
  top: "pool2"
  pooling_param {
    pool: MAX
    kernel_size: 2
    stride: 2
  }
}
layer {
  name: "conv3_1"
  type: "Convolution"
  bottom: "pool2"
  top: "conv3_1"
  param {
    lr_mult: 1
  }
  param {
    lr_mult: 2
  }
  convolution_param {
    num_output: 256
    pad: 1
    kernel_size: 3
  }
}
layer {
  name: "relu3_1"
  type: "ReLU"
  bottom: "conv3_1"
  top: "conv3_1"
}
layer {
  name: "conv3_2"
  type: "Convolution"
  bottom: "conv3_1"
  top: "conv3_2"
  param {
    lr_mult: 1
  }
  param {
    lr_mult: 2
  }
  convolution_param {
    num_output: 256
    pad: 1
    kernel_size: 3
  }
}
layer {
  name: "relu3_2"
  type: "ReLU"
  bottom: "conv3_2"
  top: "conv3_2"
}
layer {
  name: "conv3_3"
  type: "Convolution"
  bottom: "conv3_2"
  top: "conv3_3"
  param {
    lr_mult: 1
  }
  param {
    lr_mult: 2
  }
  convolution_param {
    num_output: 256
    pad: 1
    kernel_size: 3
  }
}
layer {
  name: "relu3_3"
  type: "ReLU"
  bottom: "conv3_3"
  top: "conv3_3"
}
layer {
  name: "pool3"
  type: "Pooling"
  bottom: "conv3_3"
  top: "pool3"
  pooling_param {
    pool: MAX
    kernel_size: 2
    stride: 2
  }
}
layer {
  name: "conv4_1"
  type: "Convolution"
  bottom: "pool3"
  top: "conv4_1"
  param {
    lr_mult: 1
  }
  param {
    lr_mult: 2
  }
  convolution_param {
    num_output: 512
    pad: 1
    kernel_size: 3
  }
}
layer {
  name: "relu4_1"
  type: "ReLU"
  bottom: "conv4_1"
  top: "conv4_1"
}
layer {
  name: "conv4_2"
  type: "Convolution"
  bottom: "conv4_1"
  top: "conv4_2"
  param {
    lr_mult: 1
  }
  param {
    lr_mult: 2
  }
  convolution_param {
    num_output: 512
    pad: 1
    kernel_size: 3
  }
}
layer {
  name: "relu4_2"
  type: "ReLU"
  bottom: "conv4_2"
  top: "conv4_2"
}
layer {
  name: "conv4_3"
  type: "Convolution"
  bottom: "conv4_2"
  top: "conv4_3"
  param {
    lr_mult: 1
  }
  param {
    lr_mult: 2
  }
  convolution_param {
    num_output: 512
    pad: 1
    kernel_size: 3
  }
}
layer {
  name: "relu4_3"
  type: "ReLU"
  bottom: "conv4_3"
  top: "conv4_3"
}
layer {
  name: "pool4"
  type: "Pooling"
  bottom: "conv4_3"
  top: "pool4"
  pooling_param {
    pool: MAX
    kernel_size: 2
    stride: 2
  }
}
layer {
  name: "conv5_1"
  type: "Convolution"
  bottom: "pool4"
  top: "conv5_1"
  param {
    lr_mult: 1
  }
  param {
    lr_mult: 2
  }
  convolution_param {
    num_output: 512
    pad: 1
    kernel_size: 3
  }
}
layer {
  name: "relu5_1"
  type: "ReLU"
  bottom: "conv5_1"
  top: "conv5_1"
}
layer {
  name: "conv5_2"
  type: "Convolution"
  bottom: "conv5_1"
  top: "conv5_2"
  param {
    lr_mult: 1
  }
  param {
    lr_mult: 2
  }
  convolution_param {
    num_output: 512
    pad: 1
    kernel_size: 3
  }
}
layer {
  name: "relu5_2"
  type: "ReLU"
  bottom: "conv5_2"
  top: "conv5_2"
}
layer {
  name: "conv5_3"
  type: "Convolution"
  bottom: "conv5_2"
  top: "conv5_3"
  param {
    lr_mult: 1
  }
  param {
    lr_mult: 2
  }
  convolution_param {
    num_output: 512
    pad: 1
    kernel_size: 3
  }
}
layer {
  name: "relu5_3"
  type: "ReLU"
  bottom: "conv5_3"
  top: "conv5_3"
}
layer {
  name: "rpn_big_conv1"
  type: "Convolution"
  bottom: "conv5_3"
  top: "rpn_big_conv1"
  param {
    lr_mult: 1
  }
  param {
    lr_mult: 2
  }
  convolution_param {
    num_output: 512
    pad: 1
    kernel_size: 3
    stride: 1
    weight_filler {
      type: "gaussian"
      mean: 0
      std: 0.01
    }
    bias_filler {
      type: "constant"
    }
  }
}
layer {
  name: "rpn_big_conv1_relu"
  type: "ReLU"
  bottom: "rpn_big_conv1"
  top: "rpn_big_conv1"
  relu_param {
    negative_slope: 0
  }
}
layer {
  name: "rpn_big_conv2"
  type: "Convolution"
  bottom: "rpn_big_conv1"
  top: "rpn_big_conv2"
  param {
    lr_mult: 1
  }
  param {
    lr_mult: 2
  }
  convolution_param {
    num_output: 512
    pad: 1
    kernel_size: 3
    stride: 1
    weight_filler {
      type: "gaussian"
      mean: 0
      std: 0.01
    }
    bias_filler {
      type: "constant"
    }
  }
}
layer {
  name: "rpn_big_conv2_relu"
  type: "ReLU"
  bottom: "rpn_big_conv2"
  top: "rpn_big_conv2"
  relu_param {
    negative_slope: 0
  }
}
layer {
  name: "rpn_big_conv2_drop"
  type: "Dropout"
  bottom: "rpn_big_conv2"
  top: "rpn_big_conv2"
  dropout_param {
    dropout_ratio: 0.3
  }
}
layer {
  name: "rpn_big_output_cls"
  type: "Convolution"
  bottom: "rpn_big_conv2"
  top: "rpn_big_output_cls"
  param {
    lr_mult: 1
  }
  param {
    lr_mult: 2
  }
  convolution_param {
    num_output: 384
    pad: 1
    kernel_size: 3
    stride: 1
    weight_filler {
      type: "gaussian"
      mean: 0
      std: 0.01
    }
    bias_filler {
      type: "constant"
    }
  }
}
layer {
  name: "rpn_big_output_cls_relu"
  type: "ReLU"
  bottom: "rpn_big_output_cls"
  top: "rpn_big_output_cls"
  relu_param {
    negative_slope: 0
  }
}
layer {
  name: "rpn_big_cls_score"
  type: "Convolution"
  bottom: "rpn_big_output_cls"
  top: "rpn_big_cls_score"
  param {
    lr_mult: 1
  }
  param {
    lr_mult: 2
  }
  convolution_param {
    num_output: 52
    pad: 0
    kernel_size: 3
    stride: 1
    weight_filler {
      type: "gaussian"
      mean: 0
      std: 0.01
    }
    bias_filler {
      type: "constant"
    }
  }
}
layer {
  name: "rpn_big_cls_score_reshape"
  type: "Reshape"
  bottom: "rpn_big_cls_score"
  top: "rpn_big_cls_score_reshape"
  reshape_param {
    shape {
      dim: 0
      dim: 2
      dim: -1
      dim: 0
    }
  }
}
layer {
  name: "rpn_big_cls_prob"
  type: "Softmax"
  bottom: "rpn_big_cls_score_reshape"
  top: "rpn_big_cls_prob"
}
layer {
  name: "rpn_big_cls_prob_reshape"
  type: "Reshape"
  bottom: "rpn_big_cls_prob"
  top: "rpn_big_cls_prob_reshape"
  reshape_param {
    shape {
      dim: 0
      dim: 52
      dim: -1
      dim: 0
    }
  }
}
layer {
  name: "rpn_big_anchor_target"
  type: "Python"
  bottom: "rpn_big_cls_score"
  bottom: "input_gt_boxes"
  bottom: "input_ignored_boxes"
  bottom: "input_im_info"
  bottom: "input_data"
  bottom: "rpn_big_cls_prob_reshape"
  top: "rpn_big_anchor_target_labels"
  top: "rpn_big_anchor_target_bbox_targets"
  top: "rpn_big_anchor_target_inside_weights"
  top: "rpn_big_anchor_target_outside_weights"
  python_param {
    module: "rpn.anchor_target_layer"
    layer: "AnchorTargetLayer"
    param_str: "{\"batchsize\": 256, \"positive_overlap\": 0.6, \"negative_overlap\": 0.4, \"num_classes\": 1, \"anchor_ratios\": [1.0], \"tn_fraction\": 0.2, \"square_targets\": true, \"feat_stride\": 16, \"anchor_scales\": [2.5, 3.025, 3.66025, 4.4289024999999995, 5.358972025, 6.484356150249999, 7.846070941802498, 9.493745839581022, 11.487432465893036, 13.899793283730574, 16.818749873313998, 20.350687346709933, 24.62433168951902, 29.795441344318014], \"fg_fraction\": 0.5, \"name\": \"rpn_big\", \"anchor_shift_num_xy\": [[2, 2], [2, 2], [2, 2], [2, 2], [1, 1], [1, 1], [1, 1], [1, 1], [1, 1], [1, 1], [1, 1], [1, 1], [1, 1], [1, 1]]}"
  }
}
layer {
  name: "rpn_big_loss_cls"
  type: "SoftmaxWithLoss"
  bottom: "rpn_big_cls_score_reshape"
  bottom: "rpn_big_anchor_target_labels"
  top: "rpn_big_loss_cls"
  loss_weight: 1
  propagate_down: true
  propagate_down: false
  loss_param {
    ignore_label: -1
    normalization: VALID
  }
}
layer {
  name: "rpn_big_output_box"
  type: "Convolution"
  bottom: "rpn_big_conv2"
  top: "rpn_big_output_box"
  param {
    lr_mult: 1
  }
  param {
    lr_mult: 2
  }
  convolution_param {
    num_output: 384
    pad: 1
    kernel_size: 3
    stride: 1
    weight_filler {
      type: "gaussian"
      mean: 0
      std: 0.01
    }
    bias_filler {
      type: "constant"
    }
  }
}
layer {
  name: "rpn_big_output_box_relu"
  type: "ReLU"
  bottom: "rpn_big_output_box"
  top: "rpn_big_output_box"
  relu_param {
    negative_slope: 0
  }
}
layer {
  name: "rpn_big_bbox_pred"
  type: "Convolution"
  bottom: "rpn_big_output_box"
  top: "rpn_big_bbox_pred"
  param {
    lr_mult: 1
  }
  param {
    lr_mult: 2
  }
  convolution_param {
    num_output: 104
    pad: 0
    kernel_size: 3
    stride: 1
    weight_filler {
      type: "gaussian"
      mean: 0
      std: 0.01
    }
    bias_filler {
      type: "constant"
    }
  }
}
layer {
  name: "rpn_big_loss_bbox"
  type: "Python"
  bottom: "rpn_big_bbox_pred"
  bottom: "rpn_big_anchor_target_bbox_targets"
  bottom: "rpn_big_anchor_target_inside_weights"
  bottom: "rpn_big_anchor_target_outside_weights"
  top: "rpn_big_loss_bbox"
  loss_weight: 1
  python_param {
    module: "layers.smooth_l1_loss"
    layer: "SmoothL1LossLayer"
    param_str: "{\"sigma\": 3}"
  }
}
layer {
  name: "proposal"
  type: "Python"
  bottom: "rpn_big_cls_prob_reshape"
  bottom: "rpn_big_bbox_pred"
  bottom: "input_im_info"
  top: "rpn_rois"
  python_param {
    module: "rpn.proposal_layer"
    layer: "ProposalLayer"
    param_str: "{\"anchor_shift_num_xy\": [[2, 2], [2, 2], [2, 2], [2, 2], [1, 1], [1, 1], [1, 1], [1, 1], [1, 1], [1, 1], [1, 1], [1, 1], [1, 1], [1, 1]], \"feat_stride\": 16, \"num_classes\": 1, \"anchor_scales\": [2.5, 3.025, 3.66025, 4.4289024999999995, 5.358972025, 6.484356150249999, 7.846070941802498, 9.493745839581022, 11.487432465893036, 13.899793283730574, 16.818749873313998, 20.350687346709933, 24.62433168951902, 29.795441344318014], \"square_targets\": true, \"name\": \"rpn_big\", \"batchsize\": 256, \"anchor_ratios\": [1.0]}"
  }
}
layer {
  name: "roi-data"
  type: "Python"
  bottom: "rpn_rois"
  bottom: "input_gt_boxes"
  top: "rois"
  top: "labels"
  top: "bbox_targets"
  top: "bbox_inside_weights"
  top: "bbox_outside_weights"
  top: "pid_label"
  python_param {
    module: "rpn.proposal_target_layer"
    layer: "ProposalTargetLayer"
    param_str: "{\"num_classes\": 2, \"bg_aux_label\": 5532}"
  }
}
layer {
  name: "roi-pool"
  type: "ROIPooling"
  bottom: "conv5_3"
  bottom: "rois"
  top: "roi-pool"
  roi_pooling_param {
    pooled_h: 7
    pooled_w: 7
    spatial_scale: 0.0625
  }
}
layer {
  name: "fc6"
  type: "InnerProduct"
  bottom: "roi-pool"
  top: "fc6"
  param {
    lr_mult: 1
  }
  param {
    lr_mult: 2
  }
  inner_product_param {
    num_output: 4096
  }
}
layer {
  name: "relu6"
  type: "ReLU"
  bottom: "fc6"
  top: "fc6"
}
layer {
  name: "drop6"
  type: "Dropout"
  bottom: "fc6"
  top: "fc6"
  dropout_param {
    dropout_ratio: 0.5
  }
}
I0413 18:08:39.692405 11787 layer_factory.hpp:77] Creating layer input
I0413 18:08:39.694171 11787 net.cpp:100] Creating Layer input
I0413 18:08:39.694190 11787 net.cpp:408] input -> input_data
I0413 18:08:39.694205 11787 net.cpp:408] input -> input_im_info
I0413 18:08:39.694216 11787 net.cpp:408] input -> input_gt_boxes
I0413 18:08:39.694226 11787 net.cpp:408] input -> input_ignored_boxes
RoiDataLayer: name_to_top: {'im_info': 1, 'ignored_boxes': 3, 'data': 0, 'gt_boxes': 2}
I0413 18:08:40.021850 11787 net.cpp:150] Setting up input
I0413 18:08:40.021879 11787 net.cpp:157] Top shape: 1 3 1000 1500 (4500000)
I0413 18:08:40.021903 11787 net.cpp:157] Top shape: 1 3 (3)
I0413 18:08:40.021915 11787 net.cpp:157] Top shape: 1 5 (5)
I0413 18:08:40.021924 11787 net.cpp:157] Top shape: 1 5 (5)
I0413 18:08:40.021934 11787 net.cpp:165] Memory required for data: 18000052
I0413 18:08:40.021944 11787 layer_factory.hpp:77] Creating layer input_data_input_0_split
I0413 18:08:40.021960 11787 net.cpp:100] Creating Layer input_data_input_0_split
I0413 18:08:40.021968 11787 net.cpp:434] input_data_input_0_split <- input_data
I0413 18:08:40.021981 11787 net.cpp:408] input_data_input_0_split -> input_data_input_0_split_0
I0413 18:08:40.021998 11787 net.cpp:408] input_data_input_0_split -> input_data_input_0_split_1
I0413 18:08:40.022055 11787 net.cpp:150] Setting up input_data_input_0_split
I0413 18:08:40.022065 11787 net.cpp:157] Top shape: 1 3 1000 1500 (4500000)
I0413 18:08:40.022081 11787 net.cpp:157] Top shape: 1 3 1000 1500 (4500000)
I0413 18:08:40.022085 11787 net.cpp:165] Memory required for data: 54000052
I0413 18:08:40.022090 11787 layer_factory.hpp:77] Creating layer input_im_info_input_1_split
I0413 18:08:40.022099 11787 net.cpp:100] Creating Layer input_im_info_input_1_split
I0413 18:08:40.022105 11787 net.cpp:434] input_im_info_input_1_split <- input_im_info
I0413 18:08:40.022114 11787 net.cpp:408] input_im_info_input_1_split -> input_im_info_input_1_split_0
I0413 18:08:40.022127 11787 net.cpp:408] input_im_info_input_1_split -> input_im_info_input_1_split_1
I0413 18:08:40.022171 11787 net.cpp:150] Setting up input_im_info_input_1_split
I0413 18:08:40.022181 11787 net.cpp:157] Top shape: 1 3 (3)
I0413 18:08:40.022187 11787 net.cpp:157] Top shape: 1 3 (3)
I0413 18:08:40.022192 11787 net.cpp:165] Memory required for data: 54000076
I0413 18:08:40.022197 11787 layer_factory.hpp:77] Creating layer input_gt_boxes_input_2_split
I0413 18:08:40.022207 11787 net.cpp:100] Creating Layer input_gt_boxes_input_2_split
I0413 18:08:40.022217 11787 net.cpp:434] input_gt_boxes_input_2_split <- input_gt_boxes
I0413 18:08:40.022225 11787 net.cpp:408] input_gt_boxes_input_2_split -> input_gt_boxes_input_2_split_0
I0413 18:08:40.022240 11787 net.cpp:408] input_gt_boxes_input_2_split -> input_gt_boxes_input_2_split_1
I0413 18:08:40.022284 11787 net.cpp:150] Setting up input_gt_boxes_input_2_split
I0413 18:08:40.022295 11787 net.cpp:157] Top shape: 1 5 (5)
I0413 18:08:40.022303 11787 net.cpp:157] Top shape: 1 5 (5)
I0413 18:08:40.022310 11787 net.cpp:165] Memory required for data: 54000116
I0413 18:08:40.022316 11787 layer_factory.hpp:77] Creating layer conv1_1
I0413 18:08:40.022336 11787 net.cpp:100] Creating Layer conv1_1
I0413 18:08:40.022342 11787 net.cpp:434] conv1_1 <- input_data_input_0_split_0
I0413 18:08:40.022352 11787 net.cpp:408] conv1_1 -> conv1_1
I0413 18:08:40.025657 11787 net.cpp:150] Setting up conv1_1
I0413 18:08:40.025693 11787 net.cpp:157] Top shape: 1 64 1000 1500 (96000000)
I0413 18:08:40.025701 11787 net.cpp:165] Memory required for data: 438000116
I0413 18:08:40.025725 11787 layer_factory.hpp:77] Creating layer relu1_1
I0413 18:08:40.025743 11787 net.cpp:100] Creating Layer relu1_1
I0413 18:08:40.025753 11787 net.cpp:434] relu1_1 <- conv1_1
I0413 18:08:40.025764 11787 net.cpp:395] relu1_1 -> conv1_1 (in-place)
I0413 18:08:40.025779 11787 net.cpp:150] Setting up relu1_1
I0413 18:08:40.025789 11787 net.cpp:157] Top shape: 1 64 1000 1500 (96000000)
I0413 18:08:40.025794 11787 net.cpp:165] Memory required for data: 822000116
I0413 18:08:40.025801 11787 layer_factory.hpp:77] Creating layer conv1_2
I0413 18:08:40.025817 11787 net.cpp:100] Creating Layer conv1_2
I0413 18:08:40.025823 11787 net.cpp:434] conv1_2 <- conv1_1
I0413 18:08:40.025835 11787 net.cpp:408] conv1_2 -> conv1_2
I0413 18:08:40.029074 11787 net.cpp:150] Setting up conv1_2
I0413 18:08:40.029111 11787 net.cpp:157] Top shape: 1 64 1000 1500 (96000000)
I0413 18:08:40.029117 11787 net.cpp:165] Memory required for data: 1206000116
I0413 18:08:40.029141 11787 layer_factory.hpp:77] Creating layer relu1_2
I0413 18:08:40.029157 11787 net.cpp:100] Creating Layer relu1_2
I0413 18:08:40.029167 11787 net.cpp:434] relu1_2 <- conv1_2
I0413 18:08:40.029180 11787 net.cpp:395] relu1_2 -> conv1_2 (in-place)
I0413 18:08:40.029194 11787 net.cpp:150] Setting up relu1_2
I0413 18:08:40.029203 11787 net.cpp:157] Top shape: 1 64 1000 1500 (96000000)
I0413 18:08:40.029209 11787 net.cpp:165] Memory required for data: 1590000116
I0413 18:08:40.029217 11787 layer_factory.hpp:77] Creating layer pool1
I0413 18:08:40.029234 11787 net.cpp:100] Creating Layer pool1
I0413 18:08:40.029242 11787 net.cpp:434] pool1 <- conv1_2
I0413 18:08:40.029251 11787 net.cpp:408] pool1 -> pool1
I0413 18:08:40.029340 11787 net.cpp:150] Setting up pool1
I0413 18:08:40.029351 11787 net.cpp:157] Top shape: 1 64 500 750 (24000000)
I0413 18:08:40.029358 11787 net.cpp:165] Memory required for data: 1686000116
I0413 18:08:40.029364 11787 layer_factory.hpp:77] Creating layer conv2_1
I0413 18:08:40.029382 11787 net.cpp:100] Creating Layer conv2_1
I0413 18:08:40.029389 11787 net.cpp:434] conv2_1 <- pool1
I0413 18:08:40.029400 11787 net.cpp:408] conv2_1 -> conv2_1
I0413 18:08:40.030748 11787 net.cpp:150] Setting up conv2_1
I0413 18:08:40.030769 11787 net.cpp:157] Top shape: 1 128 500 750 (48000000)
I0413 18:08:40.030774 11787 net.cpp:165] Memory required for data: 1878000116
I0413 18:08:40.030793 11787 layer_factory.hpp:77] Creating layer relu2_1
I0413 18:08:40.030807 11787 net.cpp:100] Creating Layer relu2_1
I0413 18:08:40.030812 11787 net.cpp:434] relu2_1 <- conv2_1
I0413 18:08:40.030822 11787 net.cpp:395] relu2_1 -> conv2_1 (in-place)
I0413 18:08:40.030833 11787 net.cpp:150] Setting up relu2_1
I0413 18:08:40.030841 11787 net.cpp:157] Top shape: 1 128 500 750 (48000000)
I0413 18:08:40.030848 11787 net.cpp:165] Memory required for data: 2070000116
I0413 18:08:40.030854 11787 layer_factory.hpp:77] Creating layer conv2_2
I0413 18:08:40.030866 11787 net.cpp:100] Creating Layer conv2_2
I0413 18:08:40.030874 11787 net.cpp:434] conv2_2 <- conv2_1
I0413 18:08:40.030884 11787 net.cpp:408] conv2_2 -> conv2_2
I0413 18:08:40.031920 11787 net.cpp:150] Setting up conv2_2
I0413 18:08:40.031944 11787 net.cpp:157] Top shape: 1 128 500 750 (48000000)
I0413 18:08:40.031949 11787 net.cpp:165] Memory required for data: 2262000116
I0413 18:08:40.031963 11787 layer_factory.hpp:77] Creating layer relu2_2
I0413 18:08:40.031976 11787 net.cpp:100] Creating Layer relu2_2
I0413 18:08:40.031985 11787 net.cpp:434] relu2_2 <- conv2_2
I0413 18:08:40.031993 11787 net.cpp:395] relu2_2 -> conv2_2 (in-place)
I0413 18:08:40.032006 11787 net.cpp:150] Setting up relu2_2
I0413 18:08:40.032016 11787 net.cpp:157] Top shape: 1 128 500 750 (48000000)
I0413 18:08:40.032019 11787 net.cpp:165] Memory required for data: 2454000116
I0413 18:08:40.032024 11787 layer_factory.hpp:77] Creating layer pool2
I0413 18:08:40.032034 11787 net.cpp:100] Creating Layer pool2
I0413 18:08:40.032040 11787 net.cpp:434] pool2 <- conv2_2
I0413 18:08:40.032049 11787 net.cpp:408] pool2 -> pool2
I0413 18:08:40.032104 11787 net.cpp:150] Setting up pool2
I0413 18:08:40.032116 11787 net.cpp:157] Top shape: 1 128 250 375 (12000000)
I0413 18:08:40.032122 11787 net.cpp:165] Memory required for data: 2502000116
I0413 18:08:40.032127 11787 layer_factory.hpp:77] Creating layer conv3_1
I0413 18:08:40.032142 11787 net.cpp:100] Creating Layer conv3_1
I0413 18:08:40.032150 11787 net.cpp:434] conv3_1 <- pool2
I0413 18:08:40.032157 11787 net.cpp:408] conv3_1 -> conv3_1
I0413 18:08:40.033408 11787 net.cpp:150] Setting up conv3_1
I0413 18:08:40.033435 11787 net.cpp:157] Top shape: 1 256 250 375 (24000000)
I0413 18:08:40.033439 11787 net.cpp:165] Memory required for data: 2598000116
I0413 18:08:40.033460 11787 layer_factory.hpp:77] Creating layer relu3_1
I0413 18:08:40.033473 11787 net.cpp:100] Creating Layer relu3_1
I0413 18:08:40.033480 11787 net.cpp:434] relu3_1 <- conv3_1
I0413 18:08:40.033490 11787 net.cpp:395] relu3_1 -> conv3_1 (in-place)
I0413 18:08:40.033502 11787 net.cpp:150] Setting up relu3_1
I0413 18:08:40.033511 11787 net.cpp:157] Top shape: 1 256 250 375 (24000000)
I0413 18:08:40.033516 11787 net.cpp:165] Memory required for data: 2694000116
I0413 18:08:40.033522 11787 layer_factory.hpp:77] Creating layer conv3_2
I0413 18:08:40.033540 11787 net.cpp:100] Creating Layer conv3_2
I0413 18:08:40.033547 11787 net.cpp:434] conv3_2 <- conv3_1
I0413 18:08:40.033558 11787 net.cpp:408] conv3_2 -> conv3_2
I0413 18:08:40.034870 11787 net.cpp:150] Setting up conv3_2
I0413 18:08:40.034898 11787 net.cpp:157] Top shape: 1 256 250 375 (24000000)
I0413 18:08:40.034903 11787 net.cpp:165] Memory required for data: 2790000116
I0413 18:08:40.034915 11787 layer_factory.hpp:77] Creating layer relu3_2
I0413 18:08:40.034929 11787 net.cpp:100] Creating Layer relu3_2
I0413 18:08:40.034936 11787 net.cpp:434] relu3_2 <- conv3_2
I0413 18:08:40.034946 11787 net.cpp:395] relu3_2 -> conv3_2 (in-place)
I0413 18:08:40.034958 11787 net.cpp:150] Setting up relu3_2
I0413 18:08:40.034967 11787 net.cpp:157] Top shape: 1 256 250 375 (24000000)
I0413 18:08:40.034973 11787 net.cpp:165] Memory required for data: 2886000116
I0413 18:08:40.034978 11787 layer_factory.hpp:77] Creating layer conv3_3
I0413 18:08:40.034993 11787 net.cpp:100] Creating Layer conv3_3
I0413 18:08:40.035001 11787 net.cpp:434] conv3_3 <- conv3_2
I0413 18:08:40.035012 11787 net.cpp:408] conv3_3 -> conv3_3
I0413 18:08:40.036782 11787 net.cpp:150] Setting up conv3_3
I0413 18:08:40.036814 11787 net.cpp:157] Top shape: 1 256 250 375 (24000000)
I0413 18:08:40.036818 11787 net.cpp:165] Memory required for data: 2982000116
I0413 18:08:40.036831 11787 layer_factory.hpp:77] Creating layer relu3_3
I0413 18:08:40.036845 11787 net.cpp:100] Creating Layer relu3_3
I0413 18:08:40.036852 11787 net.cpp:434] relu3_3 <- conv3_3
I0413 18:08:40.036864 11787 net.cpp:395] relu3_3 -> conv3_3 (in-place)
I0413 18:08:40.036876 11787 net.cpp:150] Setting up relu3_3
I0413 18:08:40.036885 11787 net.cpp:157] Top shape: 1 256 250 375 (24000000)
I0413 18:08:40.036888 11787 net.cpp:165] Memory required for data: 3078000116
I0413 18:08:40.036893 11787 layer_factory.hpp:77] Creating layer pool3
I0413 18:08:40.036913 11787 net.cpp:100] Creating Layer pool3
I0413 18:08:40.036921 11787 net.cpp:434] pool3 <- conv3_3
I0413 18:08:40.036931 11787 net.cpp:408] pool3 -> pool3
I0413 18:08:40.036999 11787 net.cpp:150] Setting up pool3
I0413 18:08:40.037009 11787 net.cpp:157] Top shape: 1 256 125 188 (6016000)
I0413 18:08:40.037014 11787 net.cpp:165] Memory required for data: 3102064116
I0413 18:08:40.037025 11787 layer_factory.hpp:77] Creating layer conv4_1
I0413 18:08:40.037039 11787 net.cpp:100] Creating Layer conv4_1
I0413 18:08:40.037045 11787 net.cpp:434] conv4_1 <- pool3
I0413 18:08:40.037052 11787 net.cpp:408] conv4_1 -> conv4_1
I0413 18:08:40.040190 11787 net.cpp:150] Setting up conv4_1
I0413 18:08:40.040221 11787 net.cpp:157] Top shape: 1 512 125 188 (12032000)
I0413 18:08:40.040225 11787 net.cpp:165] Memory required for data: 3150192116
I0413 18:08:40.040236 11787 layer_factory.hpp:77] Creating layer relu4_1
I0413 18:08:40.040247 11787 net.cpp:100] Creating Layer relu4_1
I0413 18:08:40.040252 11787 net.cpp:434] relu4_1 <- conv4_1
I0413 18:08:40.040259 11787 net.cpp:395] relu4_1 -> conv4_1 (in-place)
I0413 18:08:40.040269 11787 net.cpp:150] Setting up relu4_1
I0413 18:08:40.040276 11787 net.cpp:157] Top shape: 1 512 125 188 (12032000)
I0413 18:08:40.040278 11787 net.cpp:165] Memory required for data: 3198320116
I0413 18:08:40.040282 11787 layer_factory.hpp:77] Creating layer conv4_2
I0413 18:08:40.040289 11787 net.cpp:100] Creating Layer conv4_2
I0413 18:08:40.040293 11787 net.cpp:434] conv4_2 <- conv4_1
I0413 18:08:40.040299 11787 net.cpp:408] conv4_2 -> conv4_2
I0413 18:08:40.044571 11787 net.cpp:150] Setting up conv4_2
I0413 18:08:40.044607 11787 net.cpp:157] Top shape: 1 512 125 188 (12032000)
I0413 18:08:40.044621 11787 net.cpp:165] Memory required for data: 3246448116
I0413 18:08:40.044641 11787 layer_factory.hpp:77] Creating layer relu4_2
I0413 18:08:40.044651 11787 net.cpp:100] Creating Layer relu4_2
I0413 18:08:40.044656 11787 net.cpp:434] relu4_2 <- conv4_2
I0413 18:08:40.044664 11787 net.cpp:395] relu4_2 -> conv4_2 (in-place)
I0413 18:08:40.044677 11787 net.cpp:150] Setting up relu4_2
I0413 18:08:40.044685 11787 net.cpp:157] Top shape: 1 512 125 188 (12032000)
I0413 18:08:40.044692 11787 net.cpp:165] Memory required for data: 3294576116
I0413 18:08:40.044698 11787 layer_factory.hpp:77] Creating layer conv4_3
I0413 18:08:40.044711 11787 net.cpp:100] Creating Layer conv4_3
I0413 18:08:40.044719 11787 net.cpp:434] conv4_3 <- conv4_2
I0413 18:08:40.044728 11787 net.cpp:408] conv4_3 -> conv4_3
I0413 18:08:40.049082 11787 net.cpp:150] Setting up conv4_3
I0413 18:08:40.049118 11787 net.cpp:157] Top shape: 1 512 125 188 (12032000)
I0413 18:08:40.049121 11787 net.cpp:165] Memory required for data: 3342704116
I0413 18:08:40.049131 11787 layer_factory.hpp:77] Creating layer relu4_3
I0413 18:08:40.049144 11787 net.cpp:100] Creating Layer relu4_3
I0413 18:08:40.049151 11787 net.cpp:434] relu4_3 <- conv4_3
I0413 18:08:40.049161 11787 net.cpp:395] relu4_3 -> conv4_3 (in-place)
I0413 18:08:40.049178 11787 net.cpp:150] Setting up relu4_3
I0413 18:08:40.049185 11787 net.cpp:157] Top shape: 1 512 125 188 (12032000)
I0413 18:08:40.049190 11787 net.cpp:165] Memory required for data: 3390832116
I0413 18:08:40.049195 11787 layer_factory.hpp:77] Creating layer pool4
I0413 18:08:40.049202 11787 net.cpp:100] Creating Layer pool4
I0413 18:08:40.049207 11787 net.cpp:434] pool4 <- conv4_3
I0413 18:08:40.049216 11787 net.cpp:408] pool4 -> pool4
I0413 18:08:40.049268 11787 net.cpp:150] Setting up pool4
I0413 18:08:40.049278 11787 net.cpp:157] Top shape: 1 512 63 94 (3032064)
I0413 18:08:40.049283 11787 net.cpp:165] Memory required for data: 3402960372
I0413 18:08:40.049288 11787 layer_factory.hpp:77] Creating layer conv5_1
I0413 18:08:40.049304 11787 net.cpp:100] Creating Layer conv5_1
I0413 18:08:40.049311 11787 net.cpp:434] conv5_1 <- pool4
I0413 18:08:40.049322 11787 net.cpp:408] conv5_1 -> conv5_1
I0413 18:08:40.054973 11787 net.cpp:150] Setting up conv5_1
I0413 18:08:40.055009 11787 net.cpp:157] Top shape: 1 512 63 94 (3032064)
I0413 18:08:40.055013 11787 net.cpp:165] Memory required for data: 3415088628
I0413 18:08:40.055027 11787 layer_factory.hpp:77] Creating layer relu5_1
I0413 18:08:40.055042 11787 net.cpp:100] Creating Layer relu5_1
I0413 18:08:40.055052 11787 net.cpp:434] relu5_1 <- conv5_1
I0413 18:08:40.055063 11787 net.cpp:395] relu5_1 -> conv5_1 (in-place)
I0413 18:08:40.055075 11787 net.cpp:150] Setting up relu5_1
I0413 18:08:40.055083 11787 net.cpp:157] Top shape: 1 512 63 94 (3032064)
I0413 18:08:40.055088 11787 net.cpp:165] Memory required for data: 3427216884
I0413 18:08:40.055094 11787 layer_factory.hpp:77] Creating layer conv5_2
I0413 18:08:40.055107 11787 net.cpp:100] Creating Layer conv5_2
I0413 18:08:40.055114 11787 net.cpp:434] conv5_2 <- conv5_1
I0413 18:08:40.055125 11787 net.cpp:408] conv5_2 -> conv5_2
I0413 18:08:40.059542 11787 net.cpp:150] Setting up conv5_2
I0413 18:08:40.059579 11787 net.cpp:157] Top shape: 1 512 63 94 (3032064)
I0413 18:08:40.059583 11787 net.cpp:165] Memory required for data: 3439345140
I0413 18:08:40.059597 11787 layer_factory.hpp:77] Creating layer relu5_2
I0413 18:08:40.059610 11787 net.cpp:100] Creating Layer relu5_2
I0413 18:08:40.059622 11787 net.cpp:434] relu5_2 <- conv5_2
I0413 18:08:40.059634 11787 net.cpp:395] relu5_2 -> conv5_2 (in-place)
I0413 18:08:40.059649 11787 net.cpp:150] Setting up relu5_2
I0413 18:08:40.059661 11787 net.cpp:157] Top shape: 1 512 63 94 (3032064)
I0413 18:08:40.059665 11787 net.cpp:165] Memory required for data: 3451473396
I0413 18:08:40.059669 11787 layer_factory.hpp:77] Creating layer conv5_3
I0413 18:08:40.059684 11787 net.cpp:100] Creating Layer conv5_3
I0413 18:08:40.059689 11787 net.cpp:434] conv5_3 <- conv5_2
I0413 18:08:40.059695 11787 net.cpp:408] conv5_3 -> conv5_3
I0413 18:08:40.064389 11787 net.cpp:150] Setting up conv5_3
I0413 18:08:40.064420 11787 net.cpp:157] Top shape: 1 512 63 94 (3032064)
I0413 18:08:40.064424 11787 net.cpp:165] Memory required for data: 3463601652
I0413 18:08:40.064438 11787 layer_factory.hpp:77] Creating layer relu5_3
I0413 18:08:40.064452 11787 net.cpp:100] Creating Layer relu5_3
I0413 18:08:40.064461 11787 net.cpp:434] relu5_3 <- conv5_3
I0413 18:08:40.064472 11787 net.cpp:395] relu5_3 -> conv5_3 (in-place)
I0413 18:08:40.064487 11787 net.cpp:150] Setting up relu5_3
I0413 18:08:40.064496 11787 net.cpp:157] Top shape: 1 512 63 94 (3032064)
I0413 18:08:40.064502 11787 net.cpp:165] Memory required for data: 3475729908
I0413 18:08:40.064507 11787 layer_factory.hpp:77] Creating layer conv5_3_relu5_3_0_split
I0413 18:08:40.064518 11787 net.cpp:100] Creating Layer conv5_3_relu5_3_0_split
I0413 18:08:40.064525 11787 net.cpp:434] conv5_3_relu5_3_0_split <- conv5_3
I0413 18:08:40.064537 11787 net.cpp:408] conv5_3_relu5_3_0_split -> conv5_3_relu5_3_0_split_0
I0413 18:08:40.064550 11787 net.cpp:408] conv5_3_relu5_3_0_split -> conv5_3_relu5_3_0_split_1
I0413 18:08:40.064597 11787 net.cpp:150] Setting up conv5_3_relu5_3_0_split
I0413 18:08:40.064609 11787 net.cpp:157] Top shape: 1 512 63 94 (3032064)
I0413 18:08:40.064617 11787 net.cpp:157] Top shape: 1 512 63 94 (3032064)
I0413 18:08:40.064623 11787 net.cpp:165] Memory required for data: 3499986420
I0413 18:08:40.064628 11787 layer_factory.hpp:77] Creating layer rpn_big_conv1
I0413 18:08:40.064648 11787 net.cpp:100] Creating Layer rpn_big_conv1
I0413 18:08:40.064656 11787 net.cpp:434] rpn_big_conv1 <- conv5_3_relu5_3_0_split_0
I0413 18:08:40.064667 11787 net.cpp:408] rpn_big_conv1 -> rpn_big_conv1
I0413 18:08:40.090065 11787 net.cpp:150] Setting up rpn_big_conv1
I0413 18:08:40.090095 11787 net.cpp:157] Top shape: 1 512 63 94 (3032064)
I0413 18:08:40.090107 11787 net.cpp:165] Memory required for data: 3512114676
I0413 18:08:40.090117 11787 layer_factory.hpp:77] Creating layer rpn_big_conv1_relu
I0413 18:08:40.090129 11787 net.cpp:100] Creating Layer rpn_big_conv1_relu
I0413 18:08:40.090134 11787 net.cpp:434] rpn_big_conv1_relu <- rpn_big_conv1
I0413 18:08:40.090145 11787 net.cpp:395] rpn_big_conv1_relu -> rpn_big_conv1 (in-place)
I0413 18:08:40.090159 11787 net.cpp:150] Setting up rpn_big_conv1_relu
I0413 18:08:40.090167 11787 net.cpp:157] Top shape: 1 512 63 94 (3032064)
I0413 18:08:40.090171 11787 net.cpp:165] Memory required for data: 3524242932
I0413 18:08:40.090176 11787 layer_factory.hpp:77] Creating layer rpn_big_conv2
I0413 18:08:40.090191 11787 net.cpp:100] Creating Layer rpn_big_conv2
I0413 18:08:40.090198 11787 net.cpp:434] rpn_big_conv2 <- rpn_big_conv1
I0413 18:08:40.090209 11787 net.cpp:408] rpn_big_conv2 -> rpn_big_conv2
I0413 18:08:40.115767 11787 net.cpp:150] Setting up rpn_big_conv2
I0413 18:08:40.115804 11787 net.cpp:157] Top shape: 1 512 63 94 (3032064)
I0413 18:08:40.115818 11787 net.cpp:165] Memory required for data: 3536371188
I0413 18:08:40.115828 11787 layer_factory.hpp:77] Creating layer rpn_big_conv2_relu
I0413 18:08:40.115839 11787 net.cpp:100] Creating Layer rpn_big_conv2_relu
I0413 18:08:40.115844 11787 net.cpp:434] rpn_big_conv2_relu <- rpn_big_conv2
I0413 18:08:40.115855 11787 net.cpp:395] rpn_big_conv2_relu -> rpn_big_conv2 (in-place)
I0413 18:08:40.115871 11787 net.cpp:150] Setting up rpn_big_conv2_relu
I0413 18:08:40.115880 11787 net.cpp:157] Top shape: 1 512 63 94 (3032064)
I0413 18:08:40.115885 11787 net.cpp:165] Memory required for data: 3548499444
I0413 18:08:40.115890 11787 layer_factory.hpp:77] Creating layer rpn_big_conv2_drop
I0413 18:08:40.115911 11787 net.cpp:100] Creating Layer rpn_big_conv2_drop
I0413 18:08:40.115918 11787 net.cpp:434] rpn_big_conv2_drop <- rpn_big_conv2
I0413 18:08:40.115926 11787 net.cpp:395] rpn_big_conv2_drop -> rpn_big_conv2 (in-place)
I0413 18:08:40.115958 11787 net.cpp:150] Setting up rpn_big_conv2_drop
I0413 18:08:40.115969 11787 net.cpp:157] Top shape: 1 512 63 94 (3032064)
I0413 18:08:40.115975 11787 net.cpp:165] Memory required for data: 3560627700
I0413 18:08:40.115981 11787 layer_factory.hpp:77] Creating layer rpn_big_conv2_rpn_big_conv2_drop_0_split
I0413 18:08:40.115993 11787 net.cpp:100] Creating Layer rpn_big_conv2_rpn_big_conv2_drop_0_split
I0413 18:08:40.116000 11787 net.cpp:434] rpn_big_conv2_rpn_big_conv2_drop_0_split <- rpn_big_conv2
I0413 18:08:40.116011 11787 net.cpp:408] rpn_big_conv2_rpn_big_conv2_drop_0_split -> rpn_big_conv2_rpn_big_conv2_drop_0_split_0
I0413 18:08:40.116024 11787 net.cpp:408] rpn_big_conv2_rpn_big_conv2_drop_0_split -> rpn_big_conv2_rpn_big_conv2_drop_0_split_1
I0413 18:08:40.116082 11787 net.cpp:150] Setting up rpn_big_conv2_rpn_big_conv2_drop_0_split
I0413 18:08:40.116093 11787 net.cpp:157] Top shape: 1 512 63 94 (3032064)
I0413 18:08:40.116102 11787 net.cpp:157] Top shape: 1 512 63 94 (3032064)
I0413 18:08:40.116108 11787 net.cpp:165] Memory required for data: 3584884212
I0413 18:08:40.116116 11787 layer_factory.hpp:77] Creating layer rpn_big_output_cls
I0413 18:08:40.116133 11787 net.cpp:100] Creating Layer rpn_big_output_cls
I0413 18:08:40.116142 11787 net.cpp:434] rpn_big_output_cls <- rpn_big_conv2_rpn_big_conv2_drop_0_split_0
I0413 18:08:40.116153 11787 net.cpp:408] rpn_big_output_cls -> rpn_big_output_cls
I0413 18:08:40.135540 11787 net.cpp:150] Setting up rpn_big_output_cls
I0413 18:08:40.135571 11787 net.cpp:157] Top shape: 1 384 63 94 (2274048)
I0413 18:08:40.135574 11787 net.cpp:165] Memory required for data: 3593980404
I0413 18:08:40.135583 11787 layer_factory.hpp:77] Creating layer rpn_big_output_cls_relu
I0413 18:08:40.135594 11787 net.cpp:100] Creating Layer rpn_big_output_cls_relu
I0413 18:08:40.135601 11787 net.cpp:434] rpn_big_output_cls_relu <- rpn_big_output_cls
I0413 18:08:40.135612 11787 net.cpp:395] rpn_big_output_cls_relu -> rpn_big_output_cls (in-place)
I0413 18:08:40.135627 11787 net.cpp:150] Setting up rpn_big_output_cls_relu
I0413 18:08:40.135639 11787 net.cpp:157] Top shape: 1 384 63 94 (2274048)
I0413 18:08:40.135648 11787 net.cpp:165] Memory required for data: 3603076596
I0413 18:08:40.135653 11787 layer_factory.hpp:77] Creating layer rpn_big_cls_score
I0413 18:08:40.135671 11787 net.cpp:100] Creating Layer rpn_big_cls_score
I0413 18:08:40.135679 11787 net.cpp:434] rpn_big_cls_score <- rpn_big_output_cls
I0413 18:08:40.135689 11787 net.cpp:408] rpn_big_cls_score -> rpn_big_cls_score
I0413 18:08:40.138110 11787 net.cpp:150] Setting up rpn_big_cls_score
I0413 18:08:40.138123 11787 net.cpp:157] Top shape: 1 52 61 92 (291824)
I0413 18:08:40.138126 11787 net.cpp:165] Memory required for data: 3604243892
I0413 18:08:40.138151 11787 layer_factory.hpp:77] Creating layer rpn_big_cls_score_rpn_big_cls_score_0_split
I0413 18:08:40.138180 11787 net.cpp:100] Creating Layer rpn_big_cls_score_rpn_big_cls_score_0_split
I0413 18:08:40.138187 11787 net.cpp:434] rpn_big_cls_score_rpn_big_cls_score_0_split <- rpn_big_cls_score
I0413 18:08:40.138197 11787 net.cpp:408] rpn_big_cls_score_rpn_big_cls_score_0_split -> rpn_big_cls_score_rpn_big_cls_score_0_split_0
I0413 18:08:40.138209 11787 net.cpp:408] rpn_big_cls_score_rpn_big_cls_score_0_split -> rpn_big_cls_score_rpn_big_cls_score_0_split_1
I0413 18:08:40.138265 11787 net.cpp:150] Setting up rpn_big_cls_score_rpn_big_cls_score_0_split
I0413 18:08:40.138276 11787 net.cpp:157] Top shape: 1 52 61 92 (291824)
I0413 18:08:40.138291 11787 net.cpp:157] Top shape: 1 52 61 92 (291824)
I0413 18:08:40.138296 11787 net.cpp:165] Memory required for data: 3606578484
I0413 18:08:40.138303 11787 layer_factory.hpp:77] Creating layer rpn_big_cls_score_reshape
I0413 18:08:40.138317 11787 net.cpp:100] Creating Layer rpn_big_cls_score_reshape
I0413 18:08:40.138324 11787 net.cpp:434] rpn_big_cls_score_reshape <- rpn_big_cls_score_rpn_big_cls_score_0_split_0
I0413 18:08:40.138334 11787 net.cpp:408] rpn_big_cls_score_reshape -> rpn_big_cls_score_reshape
I0413 18:08:40.138378 11787 net.cpp:150] Setting up rpn_big_cls_score_reshape
I0413 18:08:40.138388 11787 net.cpp:157] Top shape: 1 2 1586 92 (291824)
I0413 18:08:40.138393 11787 net.cpp:165] Memory required for data: 3607745780
I0413 18:08:40.138406 11787 layer_factory.hpp:77] Creating layer rpn_big_cls_score_reshape_rpn_big_cls_score_reshape_0_split
I0413 18:08:40.138414 11787 net.cpp:100] Creating Layer rpn_big_cls_score_reshape_rpn_big_cls_score_reshape_0_split
I0413 18:08:40.138420 11787 net.cpp:434] rpn_big_cls_score_reshape_rpn_big_cls_score_reshape_0_split <- rpn_big_cls_score_reshape
I0413 18:08:40.138432 11787 net.cpp:408] rpn_big_cls_score_reshape_rpn_big_cls_score_reshape_0_split -> rpn_big_cls_score_reshape_rpn_big_cls_score_reshape_0_split_0
I0413 18:08:40.138444 11787 net.cpp:408] rpn_big_cls_score_reshape_rpn_big_cls_score_reshape_0_split -> rpn_big_cls_score_reshape_rpn_big_cls_score_reshape_0_split_1
I0413 18:08:40.138494 11787 net.cpp:150] Setting up rpn_big_cls_score_reshape_rpn_big_cls_score_reshape_0_split
I0413 18:08:40.138505 11787 net.cpp:157] Top shape: 1 2 1586 92 (291824)
I0413 18:08:40.138514 11787 net.cpp:157] Top shape: 1 2 1586 92 (291824)
I0413 18:08:40.138520 11787 net.cpp:165] Memory required for data: 3610080372
I0413 18:08:40.138526 11787 layer_factory.hpp:77] Creating layer rpn_big_cls_prob
I0413 18:08:40.138538 11787 net.cpp:100] Creating Layer rpn_big_cls_prob
I0413 18:08:40.138546 11787 net.cpp:434] rpn_big_cls_prob <- rpn_big_cls_score_reshape_rpn_big_cls_score_reshape_0_split_0
I0413 18:08:40.138556 11787 net.cpp:408] rpn_big_cls_prob -> rpn_big_cls_prob
I0413 18:08:40.138631 11787 net.cpp:150] Setting up rpn_big_cls_prob
I0413 18:08:40.138643 11787 net.cpp:157] Top shape: 1 2 1586 92 (291824)
I0413 18:08:40.138649 11787 net.cpp:165] Memory required for data: 3611247668
I0413 18:08:40.138655 11787 layer_factory.hpp:77] Creating layer rpn_big_cls_prob_reshape
I0413 18:08:40.138665 11787 net.cpp:100] Creating Layer rpn_big_cls_prob_reshape
I0413 18:08:40.138671 11787 net.cpp:434] rpn_big_cls_prob_reshape <- rpn_big_cls_prob
I0413 18:08:40.138684 11787 net.cpp:408] rpn_big_cls_prob_reshape -> rpn_big_cls_prob_reshape
I0413 18:08:40.138715 11787 net.cpp:150] Setting up rpn_big_cls_prob_reshape
I0413 18:08:40.138725 11787 net.cpp:157] Top shape: 1 52 61 92 (291824)
I0413 18:08:40.138731 11787 net.cpp:165] Memory required for data: 3612414964
I0413 18:08:40.138737 11787 layer_factory.hpp:77] Creating layer rpn_big_cls_prob_reshape_rpn_big_cls_prob_reshape_0_split
I0413 18:08:40.138746 11787 net.cpp:100] Creating Layer rpn_big_cls_prob_reshape_rpn_big_cls_prob_reshape_0_split
I0413 18:08:40.138754 11787 net.cpp:434] rpn_big_cls_prob_reshape_rpn_big_cls_prob_reshape_0_split <- rpn_big_cls_prob_reshape
I0413 18:08:40.138763 11787 net.cpp:408] rpn_big_cls_prob_reshape_rpn_big_cls_prob_reshape_0_split -> rpn_big_cls_prob_reshape_rpn_big_cls_prob_reshape_0_split_0
I0413 18:08:40.138777 11787 net.cpp:408] rpn_big_cls_prob_reshape_rpn_big_cls_prob_reshape_0_split -> rpn_big_cls_prob_reshape_rpn_big_cls_prob_reshape_0_split_1
I0413 18:08:40.138818 11787 net.cpp:150] Setting up rpn_big_cls_prob_reshape_rpn_big_cls_prob_reshape_0_split
I0413 18:08:40.138828 11787 net.cpp:157] Top shape: 1 52 61 92 (291824)
I0413 18:08:40.138836 11787 net.cpp:157] Top shape: 1 52 61 92 (291824)
I0413 18:08:40.138844 11787 net.cpp:165] Memory required for data: 3614749556
I0413 18:08:40.138849 11787 layer_factory.hpp:77] Creating layer rpn_big_anchor_target
I0413 18:08:40.140447 11787 net.cpp:100] Creating Layer rpn_big_anchor_target
I0413 18:08:40.140468 11787 net.cpp:434] rpn_big_anchor_target <- rpn_big_cls_score_rpn_big_cls_score_0_split_1
I0413 18:08:40.140475 11787 net.cpp:434] rpn_big_anchor_target <- input_gt_boxes_input_2_split_0
I0413 18:08:40.140481 11787 net.cpp:434] rpn_big_anchor_target <- input_ignored_boxes
I0413 18:08:40.140486 11787 net.cpp:434] rpn_big_anchor_target <- input_im_info_input_1_split_0
I0413 18:08:40.140489 11787 net.cpp:434] rpn_big_anchor_target <- input_data_input_0_split_1
I0413 18:08:40.140493 11787 net.cpp:434] rpn_big_anchor_target <- rpn_big_cls_prob_reshape_rpn_big_cls_prob_reshape_0_split_0
I0413 18:08:40.140501 11787 net.cpp:408] rpn_big_anchor_target -> rpn_big_anchor_target_labels
I0413 18:08:40.140511 11787 net.cpp:408] rpn_big_anchor_target -> rpn_big_anchor_target_bbox_targets
I0413 18:08:40.140519 11787 net.cpp:408] rpn_big_anchor_target -> rpn_big_anchor_target_inside_weights
I0413 18:08:40.140527 11787 net.cpp:408] rpn_big_anchor_target -> rpn_big_anchor_target_outside_weights
I0413 18:08:40.145355 11787 net.cpp:150] Setting up rpn_big_anchor_target
I0413 18:08:40.145383 11787 net.cpp:157] Top shape: 1 1 1586 92 (145912)
I0413 18:08:40.145390 11787 net.cpp:157] Top shape: 1 104 61 92 (583648)
I0413 18:08:40.145398 11787 net.cpp:157] Top shape: 1 104 61 92 (583648)
I0413 18:08:40.145407 11787 net.cpp:157] Top shape: 1 104 61 92 (583648)
I0413 18:08:40.145414 11787 net.cpp:165] Memory required for data: 3622336980
I0413 18:08:40.145423 11787 layer_factory.hpp:77] Creating layer rpn_big_loss_cls
I0413 18:08:40.145439 11787 net.cpp:100] Creating Layer rpn_big_loss_cls
I0413 18:08:40.145449 11787 net.cpp:434] rpn_big_loss_cls <- rpn_big_cls_score_reshape_rpn_big_cls_score_reshape_0_split_1
I0413 18:08:40.145459 11787 net.cpp:434] rpn_big_loss_cls <- rpn_big_anchor_target_labels
I0413 18:08:40.145470 11787 net.cpp:408] rpn_big_loss_cls -> rpn_big_loss_cls
I0413 18:08:40.145489 11787 layer_factory.hpp:77] Creating layer rpn_big_loss_cls
I0413 18:08:40.146221 11787 net.cpp:150] Setting up rpn_big_loss_cls
I0413 18:08:40.146235 11787 net.cpp:157] Top shape: (1)
I0413 18:08:40.146239 11787 net.cpp:160]     with loss weight 1
I0413 18:08:40.146258 11787 net.cpp:165] Memory required for data: 3622336984
I0413 18:08:40.146265 11787 layer_factory.hpp:77] Creating layer rpn_big_output_box
I0413 18:08:40.146286 11787 net.cpp:100] Creating Layer rpn_big_output_box
I0413 18:08:40.146294 11787 net.cpp:434] rpn_big_output_box <- rpn_big_conv2_rpn_big_conv2_drop_0_split_1
I0413 18:08:40.146306 11787 net.cpp:408] rpn_big_output_box -> rpn_big_output_box
I0413 18:08:40.167229 11787 net.cpp:150] Setting up rpn_big_output_box
I0413 18:08:40.167263 11787 net.cpp:157] Top shape: 1 384 63 94 (2274048)
I0413 18:08:40.167275 11787 net.cpp:165] Memory required for data: 3631433176
I0413 18:08:40.167285 11787 layer_factory.hpp:77] Creating layer rpn_big_output_box_relu
I0413 18:08:40.167296 11787 net.cpp:100] Creating Layer rpn_big_output_box_relu
I0413 18:08:40.167302 11787 net.cpp:434] rpn_big_output_box_relu <- rpn_big_output_box
I0413 18:08:40.167315 11787 net.cpp:395] rpn_big_output_box_relu -> rpn_big_output_box (in-place)
I0413 18:08:40.167330 11787 net.cpp:150] Setting up rpn_big_output_box_relu
I0413 18:08:40.167340 11787 net.cpp:157] Top shape: 1 384 63 94 (2274048)
I0413 18:08:40.167343 11787 net.cpp:165] Memory required for data: 3640529368
I0413 18:08:40.167348 11787 layer_factory.hpp:77] Creating layer rpn_big_bbox_pred
I0413 18:08:40.167364 11787 net.cpp:100] Creating Layer rpn_big_bbox_pred
I0413 18:08:40.167371 11787 net.cpp:434] rpn_big_bbox_pred <- rpn_big_output_box
I0413 18:08:40.167383 11787 net.cpp:408] rpn_big_bbox_pred -> rpn_big_bbox_pred
I0413 18:08:40.172119 11787 net.cpp:150] Setting up rpn_big_bbox_pred
I0413 18:08:40.172138 11787 net.cpp:157] Top shape: 1 104 61 92 (583648)
I0413 18:08:40.172142 11787 net.cpp:165] Memory required for data: 3642863960
I0413 18:08:40.172152 11787 layer_factory.hpp:77] Creating layer rpn_big_bbox_pred_rpn_big_bbox_pred_0_split
I0413 18:08:40.172164 11787 net.cpp:100] Creating Layer rpn_big_bbox_pred_rpn_big_bbox_pred_0_split
I0413 18:08:40.172171 11787 net.cpp:434] rpn_big_bbox_pred_rpn_big_bbox_pred_0_split <- rpn_big_bbox_pred
I0413 18:08:40.172183 11787 net.cpp:408] rpn_big_bbox_pred_rpn_big_bbox_pred_0_split -> rpn_big_bbox_pred_rpn_big_bbox_pred_0_split_0
I0413 18:08:40.172197 11787 net.cpp:408] rpn_big_bbox_pred_rpn_big_bbox_pred_0_split -> rpn_big_bbox_pred_rpn_big_bbox_pred_0_split_1
I0413 18:08:40.172250 11787 net.cpp:150] Setting up rpn_big_bbox_pred_rpn_big_bbox_pred_0_split
I0413 18:08:40.172260 11787 net.cpp:157] Top shape: 1 104 61 92 (583648)
I0413 18:08:40.172268 11787 net.cpp:157] Top shape: 1 104 61 92 (583648)
I0413 18:08:40.172273 11787 net.cpp:165] Memory required for data: 3647533144
I0413 18:08:40.172278 11787 layer_factory.hpp:77] Creating layer rpn_big_loss_bbox
I0413 18:08:40.172698 11787 net.cpp:100] Creating Layer rpn_big_loss_bbox
I0413 18:08:40.172708 11787 net.cpp:434] rpn_big_loss_bbox <- rpn_big_bbox_pred_rpn_big_bbox_pred_0_split_0
I0413 18:08:40.172713 11787 net.cpp:434] rpn_big_loss_bbox <- rpn_big_anchor_target_bbox_targets
I0413 18:08:40.172720 11787 net.cpp:434] rpn_big_loss_bbox <- rpn_big_anchor_target_inside_weights
I0413 18:08:40.172729 11787 net.cpp:434] rpn_big_loss_bbox <- rpn_big_anchor_target_outside_weights
I0413 18:08:40.172741 11787 net.cpp:408] rpn_big_loss_bbox -> rpn_big_loss_bbox
I0413 18:08:40.174738 11787 net.cpp:150] Setting up rpn_big_loss_bbox
I0413 18:08:40.174767 11787 net.cpp:157] Top shape: 1 (1)
I0413 18:08:40.174770 11787 net.cpp:160]     with loss weight 1
I0413 18:08:40.174787 11787 net.cpp:165] Memory required for data: 3647533148
I0413 18:08:40.174798 11787 layer_factory.hpp:77] Creating layer proposal
I0413 18:08:40.175231 11787 net.cpp:100] Creating Layer proposal
I0413 18:08:40.175242 11787 net.cpp:434] proposal <- rpn_big_cls_prob_reshape_rpn_big_cls_prob_reshape_0_split_1
I0413 18:08:40.175254 11787 net.cpp:434] proposal <- rpn_big_bbox_pred_rpn_big_bbox_pred_0_split_1
I0413 18:08:40.175262 11787 net.cpp:434] proposal <- input_im_info_input_1_split_1
I0413 18:08:40.175276 11787 net.cpp:408] proposal -> rpn_rois
I0413 18:08:40.179458 11787 net.cpp:150] Setting up proposal
I0413 18:08:40.179471 11787 net.cpp:157] Top shape: 1 5 (5)
I0413 18:08:40.179476 11787 net.cpp:165] Memory required for data: 3647533168
I0413 18:08:40.179481 11787 layer_factory.hpp:77] Creating layer roi-data
I0413 18:08:40.179823 11787 net.cpp:100] Creating Layer roi-data
I0413 18:08:40.179836 11787 net.cpp:434] roi-data <- rpn_rois
I0413 18:08:40.179841 11787 net.cpp:434] roi-data <- input_gt_boxes_input_2_split_1
I0413 18:08:40.179847 11787 net.cpp:408] roi-data -> rois
I0413 18:08:40.179857 11787 net.cpp:408] roi-data -> labels
I0413 18:08:40.179863 11787 net.cpp:408] roi-data -> bbox_targets
I0413 18:08:40.179870 11787 net.cpp:408] roi-data -> bbox_inside_weights
I0413 18:08:40.179877 11787 net.cpp:408] roi-data -> bbox_outside_weights
I0413 18:08:40.179883 11787 net.cpp:408] roi-data -> pid_label
I0413 18:08:40.181008 11787 net.cpp:150] Setting up roi-data
I0413 18:08:40.181033 11787 net.cpp:157] Top shape: 1 5 (5)
I0413 18:08:40.181037 11787 net.cpp:157] Top shape: 1 1 (1)
I0413 18:08:40.181041 11787 net.cpp:157] Top shape: 1 8 (8)
I0413 18:08:40.181044 11787 net.cpp:157] Top shape: 1 8 (8)
I0413 18:08:40.181047 11787 net.cpp:157] Top shape: 1 8 (8)
I0413 18:08:40.181051 11787 net.cpp:157] Top shape: (0)
I0413 18:08:40.181053 11787 net.cpp:165] Memory required for data: 3647533288
I0413 18:08:40.181058 11787 layer_factory.hpp:77] Creating layer roi-pool
I0413 18:08:40.181071 11787 net.cpp:100] Creating Layer roi-pool
I0413 18:08:40.181076 11787 net.cpp:434] roi-pool <- conv5_3_relu5_3_0_split_1
I0413 18:08:40.181082 11787 net.cpp:434] roi-pool <- rois
I0413 18:08:40.181087 11787 net.cpp:408] roi-pool -> roi-pool
I0413 18:08:40.181097 11787 roi_pooling_layer.cpp:33] Spatial scale: 0.0625
I0413 18:08:40.181108 11787 roi_pooling_layer.cpp:34] Box scale: 1
I0413 18:08:40.181162 11787 net.cpp:150] Setting up roi-pool
I0413 18:08:40.181174 11787 net.cpp:157] Top shape: 1 512 7 7 (25088)
I0413 18:08:40.181185 11787 net.cpp:165] Memory required for data: 3647633640
I0413 18:08:40.181195 11787 layer_factory.hpp:77] Creating layer fc6
I0413 18:08:40.181207 11787 net.cpp:100] Creating Layer fc6
I0413 18:08:40.181215 11787 net.cpp:434] fc6 <- roi-pool
I0413 18:08:40.181226 11787 net.cpp:408] fc6 -> fc6
I0413 18:08:40.343914 11787 net.cpp:150] Setting up fc6
I0413 18:08:40.343948 11787 net.cpp:157] Top shape: 1 4096 (4096)
I0413 18:08:40.343961 11787 net.cpp:165] Memory required for data: 3647650024
I0413 18:08:40.343973 11787 layer_factory.hpp:77] Creating layer relu6
I0413 18:08:40.343984 11787 net.cpp:100] Creating Layer relu6
I0413 18:08:40.343992 11787 net.cpp:434] relu6 <- fc6
I0413 18:08:40.344005 11787 net.cpp:395] relu6 -> fc6 (in-place)
I0413 18:08:40.344020 11787 net.cpp:150] Setting up relu6
I0413 18:08:40.344041 11787 net.cpp:157] Top shape: 1 4096 (4096)
I0413 18:08:40.344051 11787 net.cpp:165] Memory required for data: 3647666408
I0413 18:08:40.344056 11787 layer_factory.hpp:77] Creating layer drop6
I0413 18:08:40.344066 11787 net.cpp:100] Creating Layer drop6
I0413 18:08:40.344072 11787 net.cpp:434] drop6 <- fc6
I0413 18:08:40.344080 11787 net.cpp:395] drop6 -> fc6 (in-place)
I0413 18:08:40.344115 11787 net.cpp:150] Setting up drop6
I0413 18:08:40.344132 11787 net.cpp:157] Top shape: 1 4096 (4096)
I0413 18:08:40.344137 11787 net.cpp:165] Memory required for data: 3647682792
I0413 18:08:40.344142 11787 net.cpp:228] drop6 does not need backward computation.
I0413 18:08:40.344156 11787 net.cpp:228] relu6 does not need backward computation.
I0413 18:08:40.344161 11787 net.cpp:228] fc6 does not need backward computation.
I0413 18:08:40.344166 11787 net.cpp:228] roi-pool does not need backward computation.
…
