…
I0413 19:29:45.796844 15995 solver.cpp:48] Initializing solver from parameters: 
base_lr: 0.001
display: 20
lr_policy: "multistep"
gamma: 0.1
momentum: 0.9
weight_decay: 0.0005
snapshot: 0
snapshot_prefix: "faces_example"
net_param {
  name: "GeneratedModel_13_04_2017_19_29"
  layer {
    name: "input"
    type: "Python"
    top: "input_data"
    top: "input_im_info"
    top: "input_gt_boxes"
    top: "input_ignored_boxes"
    python_param {
      module: "layers.roi_data_layer"
      layer: "RoIDataLayer"
      param_str: "{\"num_classes\": 2}"
    }
  }
  layer {
    name: "conv1_1"
    type: "Convolution"
    bottom: "input_data"
    top: "conv1_1"
    param {
      lr_mult: 0
      decay_mult: 0
    }
    param {
      lr_mult: 0
      decay_mult: 0
    }
    convolution_param {
      num_output: 64
      pad: 1
      kernel_size: 3
    }
  }
  layer {
    name: "relu1_1"
    type: "ReLU"
    bottom: "conv1_1"
    top: "conv1_1"
  }
  layer {
    name: "conv1_2"
    type: "Convolution"
    bottom: "conv1_1"
    top: "conv1_2"
    param {
      lr_mult: 0
      decay_mult: 0
    }
    param {
      lr_mult: 0
      decay_mult: 0
    }
    convolution_param {
      num_output: 64
      pad: 1
      kernel_size: 3
    }
  }
  layer {
    name: "relu1_2"
    type: "ReLU"
    bottom: "conv1_2"
    top: "conv1_2"
  }
  layer {
    name: "pool1"
    type: "Pooling"
    bottom: "conv1_2"
    top: "pool1"
    pooling_param {
      pool: MAX
      kernel_size: 2
      stride: 2
    }
  }
  layer {
    name: "conv2_1"
    type: "Convolution"
    bottom: "pool1"
    top: "conv2_1"
    param {
      lr_mult: 0
      decay_mult: 0
    }
    param {
      lr_mult: 0
      decay_mult: 0
    }
    convolution_param {
      num_output: 128
      pad: 1
      kernel_size: 3
    }
  }
  layer {
    name: "relu2_1"
    type: "ReLU"
    bottom: "conv2_1"
    top: "conv2_1"
  }
  layer {
    name: "conv2_2"
    type: "Convolution"
    bottom: "conv2_1"
    top: "conv2_2"
    param {
      lr_mult: 0
      decay_mult: 0
    }
    param {
      lr_mult: 0
      decay_mult: 0
    }
    convolution_param {
      num_output: 128
      pad: 1
      kernel_size: 3
    }
  }
  layer {
    name: "relu2_2"
    type: "ReLU"
    bottom: "conv2_2"
    top: "conv2_2"
  }
  layer {
    name: "pool2"
    type: "Pooling"
    bottom: "conv2_2"
    top: "pool2"
    pooling_param {
      pool: MAX
      kernel_size: 2
      stride: 2
    }
  }
  layer {
    name: "conv3_1"
    type: "Convolution"
    bottom: "pool2"
    top: "conv3_1"
    param {
      lr_mult: 1
    }
    param {
      lr_mult: 2
    }
    convolution_param {
      num_output: 256
      pad: 1
      kernel_size: 3
    }
  }
  layer {
    name: "relu3_1"
    type: "ReLU"
    bottom: "conv3_1"
    top: "conv3_1"
  }
  layer {
    name: "conv3_2"
    type: "Convolution"
    bottom: "conv3_1"
    top: "conv3_2"
    param {
      lr_mult: 1
    }
    param {
      lr_mult: 2
    }
    convolution_param {
      num_output: 256
      pad: 1
      kernel_size: 3
    }
  }
  layer {
    name: "relu3_2"
    type: "ReLU"
    bottom: "conv3_2"
    top: "conv3_2"
  }
  layer {
    name: "conv3_3"
    type: "Convolution"
    bottom: "conv3_2"
    top: "conv3_3"
    param {
      lr_mult: 1
    }
    param {
      lr_mult: 2
    }
    convolution_param {
      num_output: 256
      pad: 1
      kernel_size: 3
    }
  }
  layer {
    name: "relu3_3"
    type: "ReLU"
    bottom: "conv3_3"
    top: "conv3_3"
  }
  layer {
    name: "pool3"
    type: "Pooling"
    bottom: "conv3_3"
    top: "pool3"
    pooling_param {
      pool: MAX
      kernel_size: 2
      stride: 2
    }
  }
  layer {
    name: "conv4_1"
    type: "Convolution"
    bottom: "pool3"
    top: "conv4_1"
    param {
      lr_mult: 1
    }
    param {
      lr_mult: 2
    }
    convolution_param {
      num_output: 512
      pad: 1
      kernel_size: 3
    }
  }
  layer {
    name: "relu4_1"
    type: "ReLU"
    bottom: "conv4_1"
    top: "conv4_1"
  }
  layer {
    name: "conv4_2"
    type: "Convolution"
    bottom: "conv4_1"
    top: "conv4_2"
    param {
      lr_mult: 1
    }
    param {
      lr_mult: 2
    }
    convolution_param {
      num_output: 512
      pad: 1
      kernel_size: 3
    }
  }
  layer {
    name: "relu4_2"
    type: "ReLU"
    bottom: "conv4_2"
    top: "conv4_2"
  }
  layer {
    name: "conv4_3"
    type: "Convolution"
    bottom: "conv4_2"
    top: "conv4_3"
    param {
      lr_mult: 1
    }
    param {
      lr_mult: 2
    }
    convolution_param {
      num_output: 512
      pad: 1
      kernel_size: 3
    }
  }
  layer {
    name: "relu4_3"
    type: "ReLU"
    bottom: "conv4_3"
    top: "conv4_3"
  }
  layer {
    name: "pool4"
    type: "Pooling"
    bottom: "conv4_3"
    top: "pool4"
    pooling_param {
      pool: MAX
      kernel_size: 2
      stride: 2
    }
  }
  layer {
    name: "conv5_1"
    type: "Convolution"
    bottom: "pool4"
    top: "conv5_1"
    param {
      lr_mult: 1
    }
    param {
      lr_mult: 2
    }
    convolution_param {
      num_output: 512
      pad: 1
      kernel_size: 3
    }
  }
  layer {
    name: "relu5_1"
    type: "ReLU"
    bottom: "conv5_1"
    top: "conv5_1"
  }
  layer {
    name: "conv5_2"
    type: "Convolution"
    bottom: "conv5_1"
    top: "conv5_2"
    param {
      lr_mult: 1
    }
    param {
      lr_mult: 2
    }
    convolution_param {
      num_output: 512
      pad: 1
      kernel_size: 3
    }
  }
  layer {
    name: "relu5_2"
    type: "ReLU"
    bottom: "conv5_2"
    top: "conv5_2"
  }
  layer {
    name: "conv5_3"
    type: "Convolution"
    bottom: "conv5_2"
    top: "conv5_3"
    param {
      lr_mult: 1
    }
    param {
      lr_mult: 2
    }
    convolution_param {
      num_output: 512
      pad: 1
      kernel_size: 3
    }
  }
  layer {
    name: "relu5_3"
    type: "ReLU"
    bottom: "conv5_3"
    top: "conv5_3"
  }
  layer {
    name: "rpn_big_conv1"
    type: "Convolution"
    bottom: "conv5_3"
    top: "rpn_big_conv1"
    param {
      lr_mult: 1
    }
    param {
      lr_mult: 2
    }
    convolution_param {
      num_output: 512
      pad: 1
      kernel_size: 3
      stride: 1
      weight_filler {
        type: "gaussian"
        mean: 0
        std: 0.01
      }
      bias_filler {
        type: "constant"
      }
    }
  }
  layer {
    name: "rpn_big_conv1_relu"
    type: "ReLU"
    bottom: "rpn_big_conv1"
    top: "rpn_big_conv1"
    relu_param {
      negative_slope: 0
    }
  }
  layer {
    name: "rpn_big_conv2"
    type: "Convolution"
    bottom: "rpn_big_conv1"
    top: "rpn_big_conv2"
    param {
      lr_mult: 1
    }
    param {
      lr_mult: 2
    }
    convolution_param {
      num_output: 512
      pad: 1
      kernel_size: 3
      stride: 1
      weight_filler {
        type: "gaussian"
        mean: 0
        std: 0.01
      }
      bias_filler {
        type: "constant"
      }
    }
  }
  layer {
    name: "rpn_big_conv2_relu"
    type: "ReLU"
    bottom: "rpn_big_conv2"
    top: "rpn_big_conv2"
    relu_param {
      negative_slope: 0
    }
  }
  layer {
    name: "rpn_big_conv2_drop"
    type: "Dropout"
    bottom: "rpn_big_conv2"
    top: "rpn_big_conv2"
    dropout_param {
      dropout_ratio: 0.3
    }
  }
  layer {
    name: "rpn_big_output_cls"
    type: "Convolution"
    bottom: "rpn_big_conv2"
    top: "rpn_big_output_cls"
    param {
      lr_mult: 1
    }
    param {
      lr_mult: 2
    }
    convolution_param {
      num_output: 384
      pad: 1
      kernel_size: 3
      stride: 1
      weight_filler {
        type: "gaussian"
        mean: 0
        std: 0.01
      }
      bias_filler {
        type: "constant"
      }
    }
  }
  layer {
    name: "rpn_big_output_cls_relu"
    type: "ReLU"
    bottom: "rpn_big_output_cls"
    top: "rpn_big_output_cls"
    relu_param {
      negative_slope: 0
    }
  }
  layer {
    name: "rpn_big_cls_score"
    type: "Convolution"
    bottom: "rpn_big_output_cls"
    top: "rpn_big_cls_score"
    param {
      lr_mult: 1
    }
    param {
      lr_mult: 2
    }
    convolution_param {
      num_output: 52
      pad: 0
      kernel_size: 3
      stride: 1
      weight_filler {
        type: "gaussian"
        mean: 0
        std: 0.01
      }
      bias_filler {
        type: "constant"
      }
    }
  }
  layer {
    name: "rpn_big_cls_score_reshape"
    type: "Reshape"
    bottom: "rpn_big_cls_score"
    top: "rpn_big_cls_score_reshape"
    reshape_param {
      shape {
        dim: 0
        dim: 2
        dim: -1
        dim: 0
      }
    }
  }
  layer {
    name: "rpn_big_cls_prob"
    type: "Softmax"
    bottom: "rpn_big_cls_score_reshape"
    top: "rpn_big_cls_prob"
  }
  layer {
    name: "rpn_big_cls_prob_reshape"
    type: "Reshape"
    bottom: "rpn_big_cls_prob"
    top: "rpn_big_cls_prob_reshape"
    reshape_param {
      shape {
        dim: 0
        dim: 52
        dim: -1
        dim: 0
      }
    }
  }
  layer {
    name: "rpn_big_anchor_target"
    type: "Python"
    bottom: "rpn_big_cls_score"
    bottom: "input_gt_boxes"
    bottom: "input_ignored_boxes"
    bottom: "input_im_info"
    bottom: "input_data"
    bottom: "rpn_big_cls_prob_reshape"
    top: "rpn_big_anchor_target_labels"
    top: "rpn_big_anchor_target_bbox_targets"
    top: "rpn_big_anchor_target_inside_weights"
    top: "rpn_big_anchor_target_outside_weights"
    python_param {
      module: "rpn.anchor_target_layer"
      layer: "AnchorTargetLayer"
      param_str: "{\"batchsize\": 256, \"feat_stride\": 16, \"positive_overlap\": 0.6, \"square_targets\": true, \"name\": \"rpn_big\", \"negative_overlap\": 0.4, \"anchor_scales\": [2.5, 3.025, 3.66025, 4.4289024999999995, 5.358972025, 6.484356150249999, 7.846070941802498, 9.493745839581022, 11.487432465893036, 13.899793283730574, 16.818749873313998, 20.350687346709933, 24.62433168951902, 29.795441344318014], \"anchor_shift_num_xy\": [[2, 2], [2, 2], [2, 2], [2, 2], [1, 1], [1, 1], [1, 1], [1, 1], [1, 1], [1, 1], [1, 1], [1, 1], [1, 1], [1, 1]], \"anchor_ratios\": [1.0], \"num_classes\": 1, \"tn_fraction\": 0.2, \"fg_fraction\": 0.5}"
    }
  }
  layer {
    name: "rpn_big_loss_cls"
    type: "SoftmaxWithLoss"
    bottom: "rpn_big_cls_score_reshape"
    bottom: "rpn_big_anchor_target_labels"
    top: "rpn_big_loss_cls"
    loss_weight: 1
    propagate_down: true
    propagate_down: false
    loss_param {
      ignore_label: -1
      normalization: VALID
    }
  }
  layer {
    name: "rpn_big_output_box"
    type: "Convolution"
    bottom: "rpn_big_conv2"
    top: "rpn_big_output_box"
    param {
      lr_mult: 1
    }
    param {
      lr_mult: 2
    }
    convolution_param {
      num_output: 384
      pad: 1
      kernel_size: 3
      stride: 1
      weight_filler {
        type: "gaussian"
        mean: 0
        std: 0.01
      }
      bias_filler {
        type: "constant"
      }
    }
  }
  layer {
    name: "rpn_big_output_box_relu"
    type: "ReLU"
    bottom: "rpn_big_output_box"
    top: "rpn_big_output_box"
    relu_param {
      negative_slope: 0
    }
  }
  layer {
    name: "rpn_big_bbox_pred"
    type: "Convolution"
    bottom: "rpn_big_output_box"
    top: "rpn_big_bbox_pred"
    param {
      lr_mult: 1
    }
    param {
      lr_mult: 2
    }
    convolution_param {
      num_output: 104
      pad: 0
      kernel_size: 3
      stride: 1
      weight_filler {
        type: "gaussian"
        mean: 0
        std: 0.01
      }
      bias_filler {
        type: "constant"
      }
    }
  }
  layer {
    name: "rpn_big_loss_bbox"
    type: "Python"
    bottom: "rpn_big_bbox_pred"
    bottom: "rpn_big_anchor_target_bbox_targets"
    bottom: "rpn_big_anchor_target_inside_weights"
    bottom: "rpn_big_anchor_target_outside_weights"
    top: "rpn_big_loss_bbox"
    loss_weight: 1
    python_param {
      module: "layers.smooth_l1_loss"
      layer: "SmoothL1LossLayer"
      param_str: "{\"sigma\": 3}"
    }
  }
  layer {
    name: "proposal"
    type: "Python"
    bottom: "rpn_big_cls_prob_reshape"
    bottom: "rpn_big_bbox_pred"
    bottom: "input_im_info"
    top: "rpn_rois"
    python_param {
      module: "rpn.proposal_layer"
      layer: "ProposalLayer"
      param_str: "{\"anchor_shift_num_xy\": [[2, 2], [2, 2], [2, 2], [2, 2], [1, 1], [1, 1], [1, 1], [1, 1], [1, 1], [1, 1], [1, 1], [1, 1], [1, 1], [1, 1]], \"feat_stride\": 16, \"num_classes\": 1, \"anchor_scales\": [2.5, 3.025, 3.66025, 4.4289024999999995, 5.358972025, 6.484356150249999, 7.846070941802498, 9.493745839581022, 11.487432465893036, 13.899793283730574, 16.818749873313998, 20.350687346709933, 24.62433168951902, 29.795441344318014], \"square_targets\": true, \"name\": \"rpn_big\", \"batchsize\": 256, \"anchor_ratios\": [1.0]}"
    }
  }
  layer {
    name: "roi-data"
    type: "Python"
    bottom: "rpn_rois"
    bottom: "input_gt_boxes"
    top: "rois"
    top: "labels"
    top: "bbox_targets"
    top: "bbox_inside_weights"
    top: "bbox_outside_weights"
    top: "pid_label"
    python_param {
      module: "rpn.proposal_target_layer"
      layer: "ProposalTargetLayer"
      param_str: "{\"num_classes\": 2, \"bg_aux_label\": 5532}"
    }
  }
  layer {
    name: "roi-pool"
    type: "ROIPooling"
    bottom: "conv5_3"
    bottom: "rois"
    top: "roi-pool"
    roi_pooling_param {
      pooled_h: 7
      pooled_w: 7
      spatial_scale: 0.0625
    }
  }
  layer {
    name: "fc6"
    type: "InnerProduct"
    bottom: "roi-pool"
    top: "fc6"
    param {
      lr_mult: 1
    }
    param {
      lr_mult: 2
    }
    inner_product_param {
      num_output: 4096
    }
  }
  layer {
    name: "relu6"
    type: "ReLU"
    bottom: "fc6"
    top: "fc6"
  }
  layer {
    name: "drop6"
    type: "Dropout"
    bottom: "fc6"
    top: "fc6"
    dropout_param {
      dropout_ratio: 0.5
    }
  }
  layer {
    name: "fc7"
    type: "InnerProduct"
    bottom: "fc6"
    top: "fc7"
    param {
      lr_mult: 1
    }
    param {
      lr_mult: 2
    }
    inner_product_param {
      num_output: 4096
    }
  }
  layer {
    name: "relu7"
    type: "ReLU"
    bottom: "fc7"
    top: "fc7"
  }
  layer {
    name: "drop7"
    type: "Dropout"
    bottom: "fc7"
    top: "fc7"
    dropout_param {
      dropout_ratio: 0.5
    }
  }
  layer {
    name: "bbox_pred"
    type: "InnerProduct"
    bottom: "fc7"
    top: "bbox_pred"
    param {
      lr_mult: 1
    }
    param {
      lr_mult: 2
    }
    inner_product_param {
      num_output: 8
      weight_filler {
        type: "gaussian"
        std: 0.001
      }
      bias_filler {
        type: "constant"
        value: 0
      }
    }
  }
  layer {
    name: "loss_bbox"
    type: "SmoothL1Loss"
    bottom: "bbox_pred"
    bottom: "bbox_targets"
    bottom: "bbox_inside_weights"
    bottom: "bbox_outside_weights"
    top: "loss_bbox"
    loss_weight: 1
  }
  layer {
    name: "feat"
    type: "InnerProduct"
    bottom: "fc7"
    top: "feat"
    param {
      lr_mult: 1
      decay_mult: 1
    }
    param {
      lr_mult: 2
      decay_mult: 0
    }
    inner_product_param {
      num_output: 256
      weight_filler {
        type: "gaussian"
        std: 0.01
      }
      bias_filler {
        type: "constant"
        value: 0
      }
    }
  }
  layer {
    name: "relu8"
    type: "ReLU"
    bottom: "feat"
    top: "feat"
  }
  layer {
    name: "drop8"
    type: "Dropout"
    bottom: "feat"
    top: "feat"
    dropout_param {
      dropout_ratio: 0.5
    }
  }
  layer {
    name: "pid_score"
    type: "InnerProduct"
    bottom: "feat"
    top: "pid_score"
    param {
      lr_mult: 1
      decay_mult: 1
    }
    param {
      lr_mult: 2
      decay_mult: 0
    }
    inner_product_param {
      num_output: 5533
      weight_filler {
        type: "gaussian"
        std: 0.001
      }
      bias_filler {
        type: "constant"
        value: 0
      }
    }
  }
  layer {
    name: "pid_loss"
    type: "SoftmaxWithLoss"
    bottom: "pid_score"
    bottom: "pid_label"
    top: "pid_loss"
    loss_weight: 1
    propagate_down: true
    propagate_down: false
    loss_param {
      ignore_label: -1
      normalize: true
    }
  }
  layer {
    name: "pid_accuracy"
    type: "Accuracy"
    bottom: "pid_score"
    bottom: "pid_label"
    top: "pid_accuracy"
    accuracy_param {
      ignore_label: -1
    }
  }
}
average_loss: 100
stepvalue: 70000
stepvalue: 120000
iter_size: 2
I0413 19:29:45.796978 15995 solver.cpp:86] Creating training net specified in net_param.
I0413 19:29:45.797718 15995 net.cpp:58] Initializing net from parameters: 
name: "GeneratedModel_13_04_2017_19_29"
state {
  phase: TRAIN
}
layer {
  name: "input"
  type: "Python"
  top: "input_data"
  top: "input_im_info"
  top: "input_gt_boxes"
  top: "input_ignored_boxes"
  python_param {
    module: "layers.roi_data_layer"
    layer: "RoIDataLayer"
    param_str: "{\"num_classes\": 2}"
  }
}
layer {
  name: "conv1_1"
  type: "Convolution"
  bottom: "input_data"
  top: "conv1_1"
  param {
    lr_mult: 0
    decay_mult: 0
  }
  param {
    lr_mult: 0
    decay_mult: 0
  }
  convolution_param {
    num_output: 64
    pad: 1
    kernel_size: 3
  }
}
layer {
  name: "relu1_1"
  type: "ReLU"
  bottom: "conv1_1"
  top: "conv1_1"
}
layer {
  name: "conv1_2"
  type: "Convolution"
  bottom: "conv1_1"
  top: "conv1_2"
  param {
    lr_mult: 0
    decay_mult: 0
  }
  param {
    lr_mult: 0
    decay_mult: 0
  }
  convolution_param {
    num_output: 64
    pad: 1
    kernel_size: 3
  }
}
layer {
  name: "relu1_2"
  type: "ReLU"
  bottom: "conv1_2"
  top: "conv1_2"
}
layer {
  name: "pool1"
  type: "Pooling"
  bottom: "conv1_2"
  top: "pool1"
  pooling_param {
    pool: MAX
    kernel_size: 2
    stride: 2
  }
}
layer {
  name: "conv2_1"
  type: "Convolution"
  bottom: "pool1"
  top: "conv2_1"
  param {
    lr_mult: 0
    decay_mult: 0
  }
  param {
    lr_mult: 0
    decay_mult: 0
  }
  convolution_param {
    num_output: 128
    pad: 1
    kernel_size: 3
  }
}
layer {
  name: "relu2_1"
  type: "ReLU"
  bottom: "conv2_1"
  top: "conv2_1"
}
layer {
  name: "conv2_2"
  type: "Convolution"
  bottom: "conv2_1"
  top: "conv2_2"
  param {
    lr_mult: 0
    decay_mult: 0
  }
  param {
    lr_mult: 0
    decay_mult: 0
  }
  convolution_param {
    num_output: 128
    pad: 1
    kernel_size: 3
  }
}
layer {
  name: "relu2_2"
  type: "ReLU"
  bottom: "conv2_2"
  top: "conv2_2"
}
layer {
  name: "pool2"
  type: "Pooling"
  bottom: "conv2_2"
  top: "pool2"
  pooling_param {
    pool: MAX
    kernel_size: 2
    stride: 2
  }
}
layer {
  name: "conv3_1"
  type: "Convolution"
  bottom: "pool2"
  top: "conv3_1"
  param {
    lr_mult: 1
  }
  param {
    lr_mult: 2
  }
  convolution_param {
    num_output: 256
    pad: 1
    kernel_size: 3
  }
}
layer {
  name: "relu3_1"
  type: "ReLU"
  bottom: "conv3_1"
  top: "conv3_1"
}
layer {
  name: "conv3_2"
  type: "Convolution"
  bottom: "conv3_1"
  top: "conv3_2"
  param {
    lr_mult: 1
  }
  param {
    lr_mult: 2
  }
  convolution_param {
    num_output: 256
    pad: 1
    kernel_size: 3
  }
}
layer {
  name: "relu3_2"
  type: "ReLU"
  bottom: "conv3_2"
  top: "conv3_2"
}
layer {
  name: "conv3_3"
  type: "Convolution"
  bottom: "conv3_2"
  top: "conv3_3"
  param {
    lr_mult: 1
  }
  param {
    lr_mult: 2
  }
  convolution_param {
    num_output: 256
    pad: 1
    kernel_size: 3
  }
}
layer {
  name: "relu3_3"
  type: "ReLU"
  bottom: "conv3_3"
  top: "conv3_3"
}
layer {
  name: "pool3"
  type: "Pooling"
  bottom: "conv3_3"
  top: "pool3"
  pooling_param {
    pool: MAX
    kernel_size: 2
    stride: 2
  }
}
layer {
  name: "conv4_1"
  type: "Convolution"
  bottom: "pool3"
  top: "conv4_1"
  param {
    lr_mult: 1
  }
  param {
    lr_mult: 2
  }
  convolution_param {
    num_output: 512
    pad: 1
    kernel_size: 3
  }
}
layer {
  name: "relu4_1"
  type: "ReLU"
  bottom: "conv4_1"
  top: "conv4_1"
}
layer {
  name: "conv4_2"
  type: "Convolution"
  bottom: "conv4_1"
  top: "conv4_2"
  param {
    lr_mult: 1
  }
  param {
    lr_mult: 2
  }
  convolution_param {
    num_output: 512
    pad: 1
    kernel_size: 3
  }
}
layer {
  name: "relu4_2"
  type: "ReLU"
  bottom: "conv4_2"
  top: "conv4_2"
}
layer {
  name: "conv4_3"
  type: "Convolution"
  bottom: "conv4_2"
  top: "conv4_3"
  param {
    lr_mult: 1
  }
  param {
    lr_mult: 2
  }
  convolution_param {
    num_output: 512
    pad: 1
    kernel_size: 3
  }
}
layer {
  name: "relu4_3"
  type: "ReLU"
  bottom: "conv4_3"
  top: "conv4_3"
}
layer {
  name: "pool4"
  type: "Pooling"
  bottom: "conv4_3"
  top: "pool4"
  pooling_param {
    pool: MAX
    kernel_size: 2
    stride: 2
  }
}
layer {
  name: "conv5_1"
  type: "Convolution"
  bottom: "pool4"
  top: "conv5_1"
  param {
    lr_mult: 1
  }
  param {
    lr_mult: 2
  }
  convolution_param {
    num_output: 512
    pad: 1
    kernel_size: 3
  }
}
layer {
  name: "relu5_1"
  type: "ReLU"
  bottom: "conv5_1"
  top: "conv5_1"
}
layer {
  name: "conv5_2"
  type: "Convolution"
  bottom: "conv5_1"
  top: "conv5_2"
  param {
    lr_mult: 1
  }
  param {
    lr_mult: 2
  }
  convolution_param {
    num_output: 512
    pad: 1
    kernel_size: 3
  }
}
layer {
  name: "relu5_2"
  type: "ReLU"
  bottom: "conv5_2"
  top: "conv5_2"
}
layer {
  name: "conv5_3"
  type: "Convolution"
  bottom: "conv5_2"
  top: "conv5_3"
  param {
    lr_mult: 1
  }
  param {
    lr_mult: 2
  }
  convolution_param {
    num_output: 512
    pad: 1
    kernel_size: 3
  }
}
layer {
  name: "relu5_3"
  type: "ReLU"
  bottom: "conv5_3"
  top: "conv5_3"
}
layer {
  name: "rpn_big_conv1"
  type: "Convolution"
  bottom: "conv5_3"
  top: "rpn_big_conv1"
  param {
    lr_mult: 1
  }
  param {
    lr_mult: 2
  }
  convolution_param {
    num_output: 512
    pad: 1
    kernel_size: 3
    stride: 1
    weight_filler {
      type: "gaussian"
      mean: 0
      std: 0.01
    }
    bias_filler {
      type: "constant"
    }
  }
}
layer {
  name: "rpn_big_conv1_relu"
  type: "ReLU"
  bottom: "rpn_big_conv1"
  top: "rpn_big_conv1"
  relu_param {
    negative_slope: 0
  }
}
layer {
  name: "rpn_big_conv2"
  type: "Convolution"
  bottom: "rpn_big_conv1"
  top: "rpn_big_conv2"
  param {
    lr_mult: 1
  }
  param {
    lr_mult: 2
  }
  convolution_param {
    num_output: 512
    pad: 1
    kernel_size: 3
    stride: 1
    weight_filler {
      type: "gaussian"
      mean: 0
      std: 0.01
    }
    bias_filler {
      type: "constant"
    }
  }
}
layer {
  name: "rpn_big_conv2_relu"
  type: "ReLU"
  bottom: "rpn_big_conv2"
  top: "rpn_big_conv2"
  relu_param {
    negative_slope: 0
  }
}
layer {
  name: "rpn_big_conv2_drop"
  type: "Dropout"
  bottom: "rpn_big_conv2"
  top: "rpn_big_conv2"
  dropout_param {
    dropout_ratio: 0.3
  }
}
layer {
  name: "rpn_big_output_cls"
  type: "Convolution"
  bottom: "rpn_big_conv2"
  top: "rpn_big_output_cls"
  param {
    lr_mult: 1
  }
  param {
    lr_mult: 2
  }
  convolution_param {
    num_output: 384
    pad: 1
    kernel_size: 3
    stride: 1
    weight_filler {
      type: "gaussian"
      mean: 0
      std: 0.01
    }
    bias_filler {
      type: "constant"
    }
  }
}
layer {
  name: "rpn_big_output_cls_relu"
  type: "ReLU"
  bottom: "rpn_big_output_cls"
  top: "rpn_big_output_cls"
  relu_param {
    negative_slope: 0
  }
}
layer {
  name: "rpn_big_cls_score"
  type: "Convolution"
  bottom: "rpn_big_output_cls"
  top: "rpn_big_cls_score"
  param {
    lr_mult: 1
  }
  param {
    lr_mult: 2
  }
  convolution_param {
    num_output: 52
    pad: 0
    kernel_size: 3
    stride: 1
    weight_filler {
      type: "gaussian"
      mean: 0
      std: 0.01
    }
    bias_filler {
      type: "constant"
    }
  }
}
layer {
  name: "rpn_big_cls_score_reshape"
  type: "Reshape"
  bottom: "rpn_big_cls_score"
  top: "rpn_big_cls_score_reshape"
  reshape_param {
    shape {
      dim: 0
      dim: 2
      dim: -1
      dim: 0
    }
  }
}
layer {
  name: "rpn_big_cls_prob"
  type: "Softmax"
  bottom: "rpn_big_cls_score_reshape"
  top: "rpn_big_cls_prob"
}
layer {
  name: "rpn_big_cls_prob_reshape"
  type: "Reshape"
  bottom: "rpn_big_cls_prob"
  top: "rpn_big_cls_prob_reshape"
  reshape_param {
    shape {
      dim: 0
      dim: 52
      dim: -1
      dim: 0
    }
  }
}
layer {
  name: "rpn_big_anchor_target"
  type: "Python"
  bottom: "rpn_big_cls_score"
  bottom: "input_gt_boxes"
  bottom: "input_ignored_boxes"
  bottom: "input_im_info"
  bottom: "input_data"
  bottom: "rpn_big_cls_prob_reshape"
  top: "rpn_big_anchor_target_labels"
  top: "rpn_big_anchor_target_bbox_targets"
  top: "rpn_big_anchor_target_inside_weights"
  top: "rpn_big_anchor_target_outside_weights"
  python_param {
    module: "rpn.anchor_target_layer"
    layer: "AnchorTargetLayer"
    param_str: "{\"batchsize\": 256, \"feat_stride\": 16, \"positive_overlap\": 0.6, \"square_targets\": true, \"name\": \"rpn_big\", \"negative_overlap\": 0.4, \"anchor_scales\": [2.5, 3.025, 3.66025, 4.4289024999999995, 5.358972025, 6.484356150249999, 7.846070941802498, 9.493745839581022, 11.487432465893036, 13.899793283730574, 16.818749873313998, 20.350687346709933, 24.62433168951902, 29.795441344318014], \"anchor_shift_num_xy\": [[2, 2], [2, 2], [2, 2], [2, 2], [1, 1], [1, 1], [1, 1], [1, 1], [1, 1], [1, 1], [1, 1], [1, 1], [1, 1], [1, 1]], \"anchor_ratios\": [1.0], \"num_classes\": 1, \"tn_fraction\": 0.2, \"fg_fraction\": 0.5}"
  }
}
layer {
  name: "rpn_big_loss_cls"
  type: "SoftmaxWithLoss"
  bottom: "rpn_big_cls_score_reshape"
  bottom: "rpn_big_anchor_target_labels"
  top: "rpn_big_loss_cls"
  loss_weight: 1
  propagate_down: true
  propagate_down: false
  loss_param {
    ignore_label: -1
    normalization: VALID
  }
}
layer {
  name: "rpn_big_output_box"
  type: "Convolution"
  bottom: "rpn_big_conv2"
  top: "rpn_big_output_box"
  param {
    lr_mult: 1
  }
  param {
    lr_mult: 2
  }
  convolution_param {
    num_output: 384
    pad: 1
    kernel_size: 3
    stride: 1
    weight_filler {
      type: "gaussian"
      mean: 0
      std: 0.01
    }
    bias_filler {
      type: "constant"
    }
  }
}
layer {
  name: "rpn_big_output_box_relu"
  type: "ReLU"
  bottom: "rpn_big_output_box"
  top: "rpn_big_output_box"
  relu_param {
    negative_slope: 0
  }
}
layer {
  name: "rpn_big_bbox_pred"
  type: "Convolution"
  bottom: "rpn_big_output_box"
  top: "rpn_big_bbox_pred"
  param {
    lr_mult: 1
  }
  param {
    lr_mult: 2
  }
  convolution_param {
    num_output: 104
    pad: 0
    kernel_size: 3
    stride: 1
    weight_filler {
      type: "gaussian"
      mean: 0
      std: 0.01
    }
    bias_filler {
      type: "constant"
    }
  }
}
layer {
  name: "rpn_big_loss_bbox"
  type: "Python"
  bottom: "rpn_big_bbox_pred"
  bottom: "rpn_big_anchor_target_bbox_targets"
  bottom: "rpn_big_anchor_target_inside_weights"
  bottom: "rpn_big_anchor_target_outside_weights"
  top: "rpn_big_loss_bbox"
  loss_weight: 1
  python_param {
    module: "layers.smooth_l1_loss"
    layer: "SmoothL1LossLayer"
    param_str: "{\"sigma\": 3}"
  }
}
layer {
  name: "proposal"
  type: "Python"
  bottom: "rpn_big_cls_prob_reshape"
  bottom: "rpn_big_bbox_pred"
  bottom: "input_im_info"
  top: "rpn_rois"
  python_param {
    module: "rpn.proposal_layer"
    layer: "ProposalLayer"
    param_str: "{\"anchor_shift_num_xy\": [[2, 2], [2, 2], [2, 2], [2, 2], [1, 1], [1, 1], [1, 1], [1, 1], [1, 1], [1, 1], [1, 1], [1, 1], [1, 1], [1, 1]], \"feat_stride\": 16, \"num_classes\": 1, \"anchor_scales\": [2.5, 3.025, 3.66025, 4.4289024999999995, 5.358972025, 6.484356150249999, 7.846070941802498, 9.493745839581022, 11.487432465893036, 13.899793283730574, 16.818749873313998, 20.350687346709933, 24.62433168951902, 29.795441344318014], \"square_targets\": true, \"name\": \"rpn_big\", \"batchsize\": 256, \"anchor_ratios\": [1.0]}"
  }
}
layer {
  name: "roi-data"
  type: "Python"
  bottom: "rpn_rois"
  bottom: "input_gt_boxes"
  top: "rois"
  top: "labels"
  top: "bbox_targets"
  top: "bbox_inside_weights"
  top: "bbox_outside_weights"
  top: "pid_label"
  python_param {
    module: "rpn.proposal_target_layer"
    layer: "ProposalTargetLayer"
    param_str: "{\"num_classes\": 2, \"bg_aux_label\": 5532}"
  }
}
layer {
  name: "roi-pool"
  type: "ROIPooling"
  bottom: "conv5_3"
  bottom: "rois"
  top: "roi-pool"
  roi_pooling_param {
    pooled_h: 7
    pooled_w: 7
    spatial_scale: 0.0625
  }
}
layer {
  name: "fc6"
  type: "InnerProduct"
  bottom: "roi-pool"
  top: "fc6"
  param {
    lr_mult: 1
  }
  param {
    lr_mult: 2
  }
  inner_product_param {
    num_output: 4096
  }
}
layer {
  name: "relu6"
  type: "ReLU"
  bottom: "fc6"
  top: "fc6"
}
layer {
  name: "drop6"
  type: "Dropout"
  bottom: "fc6"
  top: "fc6"
  dropout_param {
    dropout_ratio: 0.5
  }
}
layer {
  name: "fc7"
  type: "InnerProduct"
  bottom: "fc6"
  top: "fc7"
  param {
    lr_mult: 1
  }
  param {
    lr_mult: 2
  }
  inner_product_param {
    num_output: 4096
  }
}
layer {
  name: "relu7"
  type: "ReLU"
  bottom: "fc7"
  top: "fc7"
}
layer {
  name: "drop7"
  type: "Dropout"
  bottom: "fc7"
  top: "fc7"
  dropout_param {
    dropout_ratio: 0.5
  }
}
layer {
  name: "bbox_pred"
  type: "InnerProduct"
  bottom: "fc7"
  top: "bbox_pred"
  param {
    lr_mult: 1
  }
  param {
    lr_mult: 2
  }
  inner_product_param {
    num_output: 8
    weight_filler {
      type: "gaussian"
      std: 0.001
    }
    bias_filler {
      type: "constant"
      value: 0
    }
  }
}
layer {
  name: "loss_bbox"
  type: "SmoothL1Loss"
  bottom: "bbox_pred"
  bottom: "bbox_targets"
  bottom: "bbox_inside_weights"
  bottom: "bbox_outside_weights"
  top: "loss_bbox"
  loss_weight: 1
}
layer {
  name: "feat"
  type: "InnerProduct"
  bottom: "fc7"
  top: "feat"
  param {
    lr_mult: 1
    decay_mult: 1
  }
  param {
    lr_mult: 2
    decay_mult: 0
  }
  inner_product_param {
    num_output: 256
    weight_filler {
      type: "gaussian"
      std: 0.01
    }
    bias_filler {
      type: "constant"
      value: 0
    }
  }
}
layer {
  name: "relu8"
  type: "ReLU"
  bottom: "feat"
  top: "feat"
}
layer {
  name: "drop8"
  type: "Dropout"
  bottom: "feat"
  top: "feat"
  dropout_param {
    dropout_ratio: 0.5
  }
}
layer {
  name: "pid_score"
  type: "InnerProduct"
  bottom: "feat"
  top: "pid_score"
  param {
    lr_mult: 1
    decay_mult: 1
  }
  param {
    lr_mult: 2
    decay_mult: 0
  }
  inner_product_param {
    num_output: 5533
    weight_filler {
      type: "gaussian"
      std: 0.001
    }
    bias_filler {
      type: "constant"
      value: 0
    }
  }
}
layer {
  name: "pid_loss"
  type: "SoftmaxWithLoss"
  bottom: "pid_score"
  bottom: "pid_label"
  top: "pid_loss"
  loss_weight: 1
  propagate_down: true
  propagate_down: false
  loss_param {
    ignore_label: -1
    normalize: true
  }
}
layer {
  name: "pid_accuracy"
  type: "Accuracy"
  bottom: "pid_score"
  bottom: "pid_label"
  top: "pid_accuracy"
  accuracy_param {
    ignore_label: -1
  }
}
I0413 19:29:45.798087 15995 layer_factory.hpp:77] Creating layer input
I0413 19:29:45.799424 15995 net.cpp:100] Creating Layer input
I0413 19:29:45.799441 15995 net.cpp:408] input -> input_data
I0413 19:29:45.799453 15995 net.cpp:408] input -> input_im_info
I0413 19:29:45.799460 15995 net.cpp:408] input -> input_gt_boxes
I0413 19:29:45.799468 15995 net.cpp:408] input -> input_ignored_boxes
RoiDataLayer: name_to_top: {'im_info': 1, 'data': 0, 'gt_boxes': 2, 'ignored_boxes': 3}
I0413 19:29:46.110743 15995 net.cpp:150] Setting up input
I0413 19:29:46.110779 15995 net.cpp:157] Top shape: 1 3 1000 1500 (4500000)
I0413 19:29:46.110791 15995 net.cpp:157] Top shape: 1 3 (3)
I0413 19:29:46.110800 15995 net.cpp:157] Top shape: 1 5 (5)
I0413 19:29:46.110806 15995 net.cpp:157] Top shape: 1 5 (5)
I0413 19:29:46.110811 15995 net.cpp:165] Memory required for data: 18000052
I0413 19:29:46.110821 15995 layer_factory.hpp:77] Creating layer input_data_input_0_split
I0413 19:29:46.110841 15995 net.cpp:100] Creating Layer input_data_input_0_split
I0413 19:29:46.110849 15995 net.cpp:434] input_data_input_0_split <- input_data
I0413 19:29:46.110862 15995 net.cpp:408] input_data_input_0_split -> input_data_input_0_split_0
I0413 19:29:46.110884 15995 net.cpp:408] input_data_input_0_split -> input_data_input_0_split_1
I0413 19:29:46.110939 15995 net.cpp:150] Setting up input_data_input_0_split
I0413 19:29:46.110951 15995 net.cpp:157] Top shape: 1 3 1000 1500 (4500000)
I0413 19:29:46.110960 15995 net.cpp:157] Top shape: 1 3 1000 1500 (4500000)
I0413 19:29:46.110966 15995 net.cpp:165] Memory required for data: 54000052
I0413 19:29:46.110972 15995 layer_factory.hpp:77] Creating layer input_im_info_input_1_split
I0413 19:29:46.110985 15995 net.cpp:100] Creating Layer input_im_info_input_1_split
I0413 19:29:46.110991 15995 net.cpp:434] input_im_info_input_1_split <- input_im_info
I0413 19:29:46.111001 15995 net.cpp:408] input_im_info_input_1_split -> input_im_info_input_1_split_0
I0413 19:29:46.111013 15995 net.cpp:408] input_im_info_input_1_split -> input_im_info_input_1_split_1
I0413 19:29:46.111057 15995 net.cpp:150] Setting up input_im_info_input_1_split
I0413 19:29:46.111068 15995 net.cpp:157] Top shape: 1 3 (3)
I0413 19:29:46.111075 15995 net.cpp:157] Top shape: 1 3 (3)
I0413 19:29:46.111080 15995 net.cpp:165] Memory required for data: 54000076
I0413 19:29:46.111086 15995 layer_factory.hpp:77] Creating layer input_gt_boxes_input_2_split
I0413 19:29:46.111096 15995 net.cpp:100] Creating Layer input_gt_boxes_input_2_split
I0413 19:29:46.111104 15995 net.cpp:434] input_gt_boxes_input_2_split <- input_gt_boxes
I0413 19:29:46.111114 15995 net.cpp:408] input_gt_boxes_input_2_split -> input_gt_boxes_input_2_split_0
I0413 19:29:46.111127 15995 net.cpp:408] input_gt_boxes_input_2_split -> input_gt_boxes_input_2_split_1
I0413 19:29:46.111169 15995 net.cpp:150] Setting up input_gt_boxes_input_2_split
I0413 19:29:46.111181 15995 net.cpp:157] Top shape: 1 5 (5)
I0413 19:29:46.111188 15995 net.cpp:157] Top shape: 1 5 (5)
I0413 19:29:46.111193 15995 net.cpp:165] Memory required for data: 54000116
I0413 19:29:46.111201 15995 layer_factory.hpp:77] Creating layer conv1_1
I0413 19:29:46.111222 15995 net.cpp:100] Creating Layer conv1_1
I0413 19:29:46.111229 15995 net.cpp:434] conv1_1 <- input_data_input_0_split_0
I0413 19:29:46.111240 15995 net.cpp:408] conv1_1 -> conv1_1
I0413 19:29:46.114267 15995 net.cpp:150] Setting up conv1_1
I0413 19:29:46.114303 15995 net.cpp:157] Top shape: 1 64 1000 1500 (96000000)
I0413 19:29:46.114311 15995 net.cpp:165] Memory required for data: 438000116
I0413 19:29:46.114337 15995 layer_factory.hpp:77] Creating layer relu1_1
I0413 19:29:46.114356 15995 net.cpp:100] Creating Layer relu1_1
I0413 19:29:46.114363 15995 net.cpp:434] relu1_1 <- conv1_1
I0413 19:29:46.114382 15995 net.cpp:395] relu1_1 -> conv1_1 (in-place)
I0413 19:29:46.114399 15995 net.cpp:150] Setting up relu1_1
I0413 19:29:46.114408 15995 net.cpp:157] Top shape: 1 64 1000 1500 (96000000)
I0413 19:29:46.114415 15995 net.cpp:165] Memory required for data: 822000116
I0413 19:29:46.114421 15995 layer_factory.hpp:77] Creating layer conv1_2
I0413 19:29:46.114436 15995 net.cpp:100] Creating Layer conv1_2
I0413 19:29:46.114454 15995 net.cpp:434] conv1_2 <- conv1_1
I0413 19:29:46.114465 15995 net.cpp:408] conv1_2 -> conv1_2
I0413 19:29:46.118229 15995 net.cpp:150] Setting up conv1_2
I0413 19:29:46.118264 15995 net.cpp:157] Top shape: 1 64 1000 1500 (96000000)
I0413 19:29:46.118273 15995 net.cpp:165] Memory required for data: 1206000116
I0413 19:29:46.118297 15995 layer_factory.hpp:77] Creating layer relu1_2
I0413 19:29:46.118321 15995 net.cpp:100] Creating Layer relu1_2
I0413 19:29:46.118331 15995 net.cpp:434] relu1_2 <- conv1_2
I0413 19:29:46.118345 15995 net.cpp:395] relu1_2 -> conv1_2 (in-place)
I0413 19:29:46.118362 15995 net.cpp:150] Setting up relu1_2
I0413 19:29:46.118372 15995 net.cpp:157] Top shape: 1 64 1000 1500 (96000000)
I0413 19:29:46.118378 15995 net.cpp:165] Memory required for data: 1590000116
I0413 19:29:46.118386 15995 layer_factory.hpp:77] Creating layer pool1
I0413 19:29:46.118402 15995 net.cpp:100] Creating Layer pool1
I0413 19:29:46.118408 15995 net.cpp:434] pool1 <- conv1_2
I0413 19:29:46.118422 15995 net.cpp:408] pool1 -> pool1
I0413 19:29:46.118502 15995 net.cpp:150] Setting up pool1
I0413 19:29:46.118513 15995 net.cpp:157] Top shape: 1 64 500 750 (24000000)
I0413 19:29:46.118520 15995 net.cpp:165] Memory required for data: 1686000116
I0413 19:29:46.118527 15995 layer_factory.hpp:77] Creating layer conv2_1
I0413 19:29:46.118547 15995 net.cpp:100] Creating Layer conv2_1
I0413 19:29:46.118556 15995 net.cpp:434] conv2_1 <- pool1
I0413 19:29:46.118566 15995 net.cpp:408] conv2_1 -> conv2_1
I0413 19:29:46.120075 15995 net.cpp:150] Setting up conv2_1
I0413 19:29:46.120096 15995 net.cpp:157] Top shape: 1 128 500 750 (48000000)
I0413 19:29:46.120102 15995 net.cpp:165] Memory required for data: 1878000116
I0413 19:29:46.120121 15995 layer_factory.hpp:77] Creating layer relu2_1
I0413 19:29:46.120136 15995 net.cpp:100] Creating Layer relu2_1
I0413 19:29:46.120146 15995 net.cpp:434] relu2_1 <- conv2_1
I0413 19:29:46.120157 15995 net.cpp:395] relu2_1 -> conv2_1 (in-place)
I0413 19:29:46.120170 15995 net.cpp:150] Setting up relu2_1
I0413 19:29:46.120178 15995 net.cpp:157] Top shape: 1 128 500 750 (48000000)
I0413 19:29:46.120182 15995 net.cpp:165] Memory required for data: 2070000116
I0413 19:29:46.120188 15995 layer_factory.hpp:77] Creating layer conv2_2
I0413 19:29:46.120203 15995 net.cpp:100] Creating Layer conv2_2
I0413 19:29:46.120209 15995 net.cpp:434] conv2_2 <- conv2_1
I0413 19:29:46.120218 15995 net.cpp:408] conv2_2 -> conv2_2
I0413 19:29:46.121340 15995 net.cpp:150] Setting up conv2_2
I0413 19:29:46.121362 15995 net.cpp:157] Top shape: 1 128 500 750 (48000000)
I0413 19:29:46.121367 15995 net.cpp:165] Memory required for data: 2262000116
I0413 19:29:46.121389 15995 layer_factory.hpp:77] Creating layer relu2_2
I0413 19:29:46.121402 15995 net.cpp:100] Creating Layer relu2_2
I0413 19:29:46.121409 15995 net.cpp:434] relu2_2 <- conv2_2
I0413 19:29:46.121423 15995 net.cpp:395] relu2_2 -> conv2_2 (in-place)
I0413 19:29:46.121436 15995 net.cpp:150] Setting up relu2_2
I0413 19:29:46.121446 15995 net.cpp:157] Top shape: 1 128 500 750 (48000000)
I0413 19:29:46.121453 15995 net.cpp:165] Memory required for data: 2454000116
I0413 19:29:46.121459 15995 layer_factory.hpp:77] Creating layer pool2
I0413 19:29:46.121469 15995 net.cpp:100] Creating Layer pool2
I0413 19:29:46.121475 15995 net.cpp:434] pool2 <- conv2_2
I0413 19:29:46.121484 15995 net.cpp:408] pool2 -> pool2
I0413 19:29:46.121536 15995 net.cpp:150] Setting up pool2
I0413 19:29:46.121547 15995 net.cpp:157] Top shape: 1 128 250 375 (12000000)
I0413 19:29:46.121554 15995 net.cpp:165] Memory required for data: 2502000116
I0413 19:29:46.121561 15995 layer_factory.hpp:77] Creating layer conv3_1
I0413 19:29:46.121575 15995 net.cpp:100] Creating Layer conv3_1
I0413 19:29:46.121582 15995 net.cpp:434] conv3_1 <- pool2
I0413 19:29:46.121594 15995 net.cpp:408] conv3_1 -> conv3_1
I0413 19:29:46.122753 15995 net.cpp:150] Setting up conv3_1
I0413 19:29:46.122777 15995 net.cpp:157] Top shape: 1 256 250 375 (24000000)
I0413 19:29:46.122783 15995 net.cpp:165] Memory required for data: 2598000116
I0413 19:29:46.122804 15995 layer_factory.hpp:77] Creating layer relu3_1
I0413 19:29:46.122817 15995 net.cpp:100] Creating Layer relu3_1
I0413 19:29:46.122825 15995 net.cpp:434] relu3_1 <- conv3_1
I0413 19:29:46.122838 15995 net.cpp:395] relu3_1 -> conv3_1 (in-place)
I0413 19:29:46.122853 15995 net.cpp:150] Setting up relu3_1
I0413 19:29:46.122860 15995 net.cpp:157] Top shape: 1 256 250 375 (24000000)
I0413 19:29:46.122867 15995 net.cpp:165] Memory required for data: 2694000116
I0413 19:29:46.122874 15995 layer_factory.hpp:77] Creating layer conv3_2
I0413 19:29:46.122891 15995 net.cpp:100] Creating Layer conv3_2
I0413 19:29:46.122897 15995 net.cpp:434] conv3_2 <- conv3_1
I0413 19:29:46.122908 15995 net.cpp:408] conv3_2 -> conv3_2
I0413 19:29:46.124124 15995 net.cpp:150] Setting up conv3_2
I0413 19:29:46.124150 15995 net.cpp:157] Top shape: 1 256 250 375 (24000000)
I0413 19:29:46.124155 15995 net.cpp:165] Memory required for data: 2790000116
I0413 19:29:46.124168 15995 layer_factory.hpp:77] Creating layer relu3_2
I0413 19:29:46.124182 15995 net.cpp:100] Creating Layer relu3_2
I0413 19:29:46.124191 15995 net.cpp:434] relu3_2 <- conv3_2
I0413 19:29:46.124204 15995 net.cpp:395] relu3_2 -> conv3_2 (in-place)
I0413 19:29:46.124217 15995 net.cpp:150] Setting up relu3_2
I0413 19:29:46.124227 15995 net.cpp:157] Top shape: 1 256 250 375 (24000000)
I0413 19:29:46.124233 15995 net.cpp:165] Memory required for data: 2886000116
I0413 19:29:46.124239 15995 layer_factory.hpp:77] Creating layer conv3_3
I0413 19:29:46.124254 15995 net.cpp:100] Creating Layer conv3_3
I0413 19:29:46.124260 15995 net.cpp:434] conv3_3 <- conv3_2
I0413 19:29:46.124270 15995 net.cpp:408] conv3_3 -> conv3_3
I0413 19:29:46.125888 15995 net.cpp:150] Setting up conv3_3
I0413 19:29:46.125921 15995 net.cpp:157] Top shape: 1 256 250 375 (24000000)
I0413 19:29:46.125936 15995 net.cpp:165] Memory required for data: 2982000116
I0413 19:29:46.125949 15995 layer_factory.hpp:77] Creating layer relu3_3
I0413 19:29:46.125962 15995 net.cpp:100] Creating Layer relu3_3
I0413 19:29:46.125969 15995 net.cpp:434] relu3_3 <- conv3_3
I0413 19:29:46.125982 15995 net.cpp:395] relu3_3 -> conv3_3 (in-place)
I0413 19:29:46.125993 15995 net.cpp:150] Setting up relu3_3
I0413 19:29:46.126000 15995 net.cpp:157] Top shape: 1 256 250 375 (24000000)
I0413 19:29:46.126003 15995 net.cpp:165] Memory required for data: 3078000116
I0413 19:29:46.126006 15995 layer_factory.hpp:77] Creating layer pool3
I0413 19:29:46.126013 15995 net.cpp:100] Creating Layer pool3
I0413 19:29:46.126015 15995 net.cpp:434] pool3 <- conv3_3
I0413 19:29:46.126024 15995 net.cpp:408] pool3 -> pool3
I0413 19:29:46.126067 15995 net.cpp:150] Setting up pool3
I0413 19:29:46.126075 15995 net.cpp:157] Top shape: 1 256 125 188 (6016000)
I0413 19:29:46.126078 15995 net.cpp:165] Memory required for data: 3102064116
I0413 19:29:46.126081 15995 layer_factory.hpp:77] Creating layer conv4_1
I0413 19:29:46.126091 15995 net.cpp:100] Creating Layer conv4_1
I0413 19:29:46.126094 15995 net.cpp:434] conv4_1 <- pool3
I0413 19:29:46.126101 15995 net.cpp:408] conv4_1 -> conv4_1
I0413 19:29:46.131238 15995 net.cpp:150] Setting up conv4_1
I0413 19:29:46.131269 15995 net.cpp:157] Top shape: 1 512 125 188 (12032000)
I0413 19:29:46.131283 15995 net.cpp:165] Memory required for data: 3150192116
I0413 19:29:46.131294 15995 layer_factory.hpp:77] Creating layer relu4_1
I0413 19:29:46.131304 15995 net.cpp:100] Creating Layer relu4_1
I0413 19:29:46.131309 15995 net.cpp:434] relu4_1 <- conv4_1
I0413 19:29:46.131317 15995 net.cpp:395] relu4_1 -> conv4_1 (in-place)
I0413 19:29:46.131328 15995 net.cpp:150] Setting up relu4_1
I0413 19:29:46.131333 15995 net.cpp:157] Top shape: 1 512 125 188 (12032000)
I0413 19:29:46.131336 15995 net.cpp:165] Memory required for data: 3198320116
I0413 19:29:46.131340 15995 layer_factory.hpp:77] Creating layer conv4_2
I0413 19:29:46.131350 15995 net.cpp:100] Creating Layer conv4_2
I0413 19:29:46.131353 15995 net.cpp:434] conv4_2 <- conv4_1
I0413 19:29:46.131358 15995 net.cpp:408] conv4_2 -> conv4_2
I0413 19:29:46.135713 15995 net.cpp:150] Setting up conv4_2
I0413 19:29:46.135746 15995 net.cpp:157] Top shape: 1 512 125 188 (12032000)
I0413 19:29:46.135751 15995 net.cpp:165] Memory required for data: 3246448116
I0413 19:29:46.135769 15995 layer_factory.hpp:77] Creating layer relu4_2
I0413 19:29:46.135782 15995 net.cpp:100] Creating Layer relu4_2
I0413 19:29:46.135787 15995 net.cpp:434] relu4_2 <- conv4_2
I0413 19:29:46.135797 15995 net.cpp:395] relu4_2 -> conv4_2 (in-place)
I0413 19:29:46.135809 15995 net.cpp:150] Setting up relu4_2
I0413 19:29:46.135815 15995 net.cpp:157] Top shape: 1 512 125 188 (12032000)
I0413 19:29:46.135819 15995 net.cpp:165] Memory required for data: 3294576116
I0413 19:29:46.135823 15995 layer_factory.hpp:77] Creating layer conv4_3
I0413 19:29:46.135831 15995 net.cpp:100] Creating Layer conv4_3
I0413 19:29:46.135835 15995 net.cpp:434] conv4_3 <- conv4_2
I0413 19:29:46.135843 15995 net.cpp:408] conv4_3 -> conv4_3
I0413 19:29:46.139973 15995 net.cpp:150] Setting up conv4_3
I0413 19:29:46.140002 15995 net.cpp:157] Top shape: 1 512 125 188 (12032000)
I0413 19:29:46.140017 15995 net.cpp:165] Memory required for data: 3342704116
I0413 19:29:46.140027 15995 layer_factory.hpp:77] Creating layer relu4_3
I0413 19:29:46.140038 15995 net.cpp:100] Creating Layer relu4_3
I0413 19:29:46.140043 15995 net.cpp:434] relu4_3 <- conv4_3
I0413 19:29:46.140054 15995 net.cpp:395] relu4_3 -> conv4_3 (in-place)
I0413 19:29:46.140065 15995 net.cpp:150] Setting up relu4_3
I0413 19:29:46.140071 15995 net.cpp:157] Top shape: 1 512 125 188 (12032000)
I0413 19:29:46.140074 15995 net.cpp:165] Memory required for data: 3390832116
I0413 19:29:46.140079 15995 layer_factory.hpp:77] Creating layer pool4
I0413 19:29:46.140086 15995 net.cpp:100] Creating Layer pool4
I0413 19:29:46.140090 15995 net.cpp:434] pool4 <- conv4_3
I0413 19:29:46.140095 15995 net.cpp:408] pool4 -> pool4
I0413 19:29:46.140142 15995 net.cpp:150] Setting up pool4
I0413 19:29:46.140152 15995 net.cpp:157] Top shape: 1 512 63 94 (3032064)
I0413 19:29:46.140156 15995 net.cpp:165] Memory required for data: 3402960372
I0413 19:29:46.140161 15995 layer_factory.hpp:77] Creating layer conv5_1
I0413 19:29:46.140168 15995 net.cpp:100] Creating Layer conv5_1
I0413 19:29:46.140172 15995 net.cpp:434] conv5_1 <- pool4
I0413 19:29:46.140180 15995 net.cpp:408] conv5_1 -> conv5_1
I0413 19:29:46.144678 15995 net.cpp:150] Setting up conv5_1
I0413 19:29:46.144711 15995 net.cpp:157] Top shape: 1 512 63 94 (3032064)
I0413 19:29:46.144724 15995 net.cpp:165] Memory required for data: 3415088628
I0413 19:29:46.144736 15995 layer_factory.hpp:77] Creating layer relu5_1
I0413 19:29:46.144747 15995 net.cpp:100] Creating Layer relu5_1
I0413 19:29:46.144752 15995 net.cpp:434] relu5_1 <- conv5_1
I0413 19:29:46.144760 15995 net.cpp:395] relu5_1 -> conv5_1 (in-place)
I0413 19:29:46.144773 15995 net.cpp:150] Setting up relu5_1
I0413 19:29:46.144778 15995 net.cpp:157] Top shape: 1 512 63 94 (3032064)
I0413 19:29:46.144783 15995 net.cpp:165] Memory required for data: 3427216884
I0413 19:29:46.144786 15995 layer_factory.hpp:77] Creating layer conv5_2
I0413 19:29:46.144798 15995 net.cpp:100] Creating Layer conv5_2
I0413 19:29:46.144803 15995 net.cpp:434] conv5_2 <- conv5_1
I0413 19:29:46.144809 15995 net.cpp:408] conv5_2 -> conv5_2
I0413 19:29:46.149610 15995 net.cpp:150] Setting up conv5_2
I0413 19:29:46.149654 15995 net.cpp:157] Top shape: 1 512 63 94 (3032064)
I0413 19:29:46.149662 15995 net.cpp:165] Memory required for data: 3439345140
I0413 19:29:46.149677 15995 layer_factory.hpp:77] Creating layer relu5_2
I0413 19:29:46.149693 15995 net.cpp:100] Creating Layer relu5_2
I0413 19:29:46.149703 15995 net.cpp:434] relu5_2 <- conv5_2
I0413 19:29:46.149718 15995 net.cpp:395] relu5_2 -> conv5_2 (in-place)
I0413 19:29:46.149746 15995 net.cpp:150] Setting up relu5_2
I0413 19:29:46.149757 15995 net.cpp:157] Top shape: 1 512 63 94 (3032064)
I0413 19:29:46.149766 15995 net.cpp:165] Memory required for data: 3451473396
I0413 19:29:46.149773 15995 layer_factory.hpp:77] Creating layer conv5_3
I0413 19:29:46.149797 15995 net.cpp:100] Creating Layer conv5_3
I0413 19:29:46.149806 15995 net.cpp:434] conv5_3 <- conv5_2
I0413 19:29:46.149817 15995 net.cpp:408] conv5_3 -> conv5_3
I0413 19:29:46.154757 15995 net.cpp:150] Setting up conv5_3
I0413 19:29:46.154788 15995 net.cpp:157] Top shape: 1 512 63 94 (3032064)
I0413 19:29:46.154793 15995 net.cpp:165] Memory required for data: 3463601652
I0413 19:29:46.154803 15995 layer_factory.hpp:77] Creating layer relu5_3
I0413 19:29:46.154817 15995 net.cpp:100] Creating Layer relu5_3
I0413 19:29:46.154824 15995 net.cpp:434] relu5_3 <- conv5_3
I0413 19:29:46.154832 15995 net.cpp:395] relu5_3 -> conv5_3 (in-place)
I0413 19:29:46.154844 15995 net.cpp:150] Setting up relu5_3
I0413 19:29:46.154850 15995 net.cpp:157] Top shape: 1 512 63 94 (3032064)
I0413 19:29:46.154853 15995 net.cpp:165] Memory required for data: 3475729908
I0413 19:29:46.154857 15995 layer_factory.hpp:77] Creating layer conv5_3_relu5_3_0_split
I0413 19:29:46.154865 15995 net.cpp:100] Creating Layer conv5_3_relu5_3_0_split
I0413 19:29:46.154868 15995 net.cpp:434] conv5_3_relu5_3_0_split <- conv5_3
I0413 19:29:46.154876 15995 net.cpp:408] conv5_3_relu5_3_0_split -> conv5_3_relu5_3_0_split_0
I0413 19:29:46.154898 15995 net.cpp:408] conv5_3_relu5_3_0_split -> conv5_3_relu5_3_0_split_1
I0413 19:29:46.154948 15995 net.cpp:150] Setting up conv5_3_relu5_3_0_split
I0413 19:29:46.154958 15995 net.cpp:157] Top shape: 1 512 63 94 (3032064)
I0413 19:29:46.154961 15995 net.cpp:157] Top shape: 1 512 63 94 (3032064)
I0413 19:29:46.154965 15995 net.cpp:165] Memory required for data: 3499986420
I0413 19:29:46.154968 15995 layer_factory.hpp:77] Creating layer rpn_big_conv1
I0413 19:29:46.154983 15995 net.cpp:100] Creating Layer rpn_big_conv1
I0413 19:29:46.154988 15995 net.cpp:434] rpn_big_conv1 <- conv5_3_relu5_3_0_split_0
I0413 19:29:46.154996 15995 net.cpp:408] rpn_big_conv1 -> rpn_big_conv1
I0413 19:29:46.181740 15995 net.cpp:150] Setting up rpn_big_conv1
I0413 19:29:46.181771 15995 net.cpp:157] Top shape: 1 512 63 94 (3032064)
I0413 19:29:46.181784 15995 net.cpp:165] Memory required for data: 3512114676
I0413 19:29:46.181795 15995 layer_factory.hpp:77] Creating layer rpn_big_conv1_relu
I0413 19:29:46.181807 15995 net.cpp:100] Creating Layer rpn_big_conv1_relu
I0413 19:29:46.181812 15995 net.cpp:434] rpn_big_conv1_relu <- rpn_big_conv1
I0413 19:29:46.181821 15995 net.cpp:395] rpn_big_conv1_relu -> rpn_big_conv1 (in-place)
I0413 19:29:46.181833 15995 net.cpp:150] Setting up rpn_big_conv1_relu
I0413 19:29:46.181838 15995 net.cpp:157] Top shape: 1 512 63 94 (3032064)
I0413 19:29:46.181843 15995 net.cpp:165] Memory required for data: 3524242932
I0413 19:29:46.181845 15995 layer_factory.hpp:77] Creating layer rpn_big_conv2
I0413 19:29:46.181857 15995 net.cpp:100] Creating Layer rpn_big_conv2
I0413 19:29:46.181861 15995 net.cpp:434] rpn_big_conv2 <- rpn_big_conv1
I0413 19:29:46.181867 15995 net.cpp:408] rpn_big_conv2 -> rpn_big_conv2
I0413 19:29:46.208348 15995 net.cpp:150] Setting up rpn_big_conv2
I0413 19:29:46.208380 15995 net.cpp:157] Top shape: 1 512 63 94 (3032064)
I0413 19:29:46.208392 15995 net.cpp:165] Memory required for data: 3536371188
I0413 19:29:46.208403 15995 layer_factory.hpp:77] Creating layer rpn_big_conv2_relu
I0413 19:29:46.208415 15995 net.cpp:100] Creating Layer rpn_big_conv2_relu
I0413 19:29:46.208420 15995 net.cpp:434] rpn_big_conv2_relu <- rpn_big_conv2
I0413 19:29:46.208427 15995 net.cpp:395] rpn_big_conv2_relu -> rpn_big_conv2 (in-place)
I0413 19:29:46.208438 15995 net.cpp:150] Setting up rpn_big_conv2_relu
I0413 19:29:46.208443 15995 net.cpp:157] Top shape: 1 512 63 94 (3032064)
I0413 19:29:46.208446 15995 net.cpp:165] Memory required for data: 3548499444
I0413 19:29:46.208449 15995 layer_factory.hpp:77] Creating layer rpn_big_conv2_drop
I0413 19:29:46.208456 15995 net.cpp:100] Creating Layer rpn_big_conv2_drop
I0413 19:29:46.208459 15995 net.cpp:434] rpn_big_conv2_drop <- rpn_big_conv2
I0413 19:29:46.208464 15995 net.cpp:395] rpn_big_conv2_drop -> rpn_big_conv2 (in-place)
I0413 19:29:46.208487 15995 net.cpp:150] Setting up rpn_big_conv2_drop
I0413 19:29:46.208495 15995 net.cpp:157] Top shape: 1 512 63 94 (3032064)
I0413 19:29:46.208498 15995 net.cpp:165] Memory required for data: 3560627700
I0413 19:29:46.208501 15995 layer_factory.hpp:77] Creating layer rpn_big_conv2_rpn_big_conv2_drop_0_split
I0413 19:29:46.208508 15995 net.cpp:100] Creating Layer rpn_big_conv2_rpn_big_conv2_drop_0_split
I0413 19:29:46.208510 15995 net.cpp:434] rpn_big_conv2_rpn_big_conv2_drop_0_split <- rpn_big_conv2
I0413 19:29:46.208516 15995 net.cpp:408] rpn_big_conv2_rpn_big_conv2_drop_0_split -> rpn_big_conv2_rpn_big_conv2_drop_0_split_0
I0413 19:29:46.208523 15995 net.cpp:408] rpn_big_conv2_rpn_big_conv2_drop_0_split -> rpn_big_conv2_rpn_big_conv2_drop_0_split_1
I0413 19:29:46.208564 15995 net.cpp:150] Setting up rpn_big_conv2_rpn_big_conv2_drop_0_split
I0413 19:29:46.208571 15995 net.cpp:157] Top shape: 1 512 63 94 (3032064)
I0413 19:29:46.208575 15995 net.cpp:157] Top shape: 1 512 63 94 (3032064)
I0413 19:29:46.208578 15995 net.cpp:165] Memory required for data: 3584884212
I0413 19:29:46.208582 15995 layer_factory.hpp:77] Creating layer rpn_big_output_cls
I0413 19:29:46.208593 15995 net.cpp:100] Creating Layer rpn_big_output_cls
I0413 19:29:46.208597 15995 net.cpp:434] rpn_big_output_cls <- rpn_big_conv2_rpn_big_conv2_drop_0_split_0
I0413 19:29:46.208606 15995 net.cpp:408] rpn_big_output_cls -> rpn_big_output_cls
I0413 19:29:46.228427 15995 net.cpp:150] Setting up rpn_big_output_cls
I0413 19:29:46.228456 15995 net.cpp:157] Top shape: 1 384 63 94 (2274048)
I0413 19:29:46.228461 15995 net.cpp:165] Memory required for data: 3593980404
I0413 19:29:46.228471 15995 layer_factory.hpp:77] Creating layer rpn_big_output_cls_relu
I0413 19:29:46.228483 15995 net.cpp:100] Creating Layer rpn_big_output_cls_relu
I0413 19:29:46.228489 15995 net.cpp:434] rpn_big_output_cls_relu <- rpn_big_output_cls
I0413 19:29:46.228497 15995 net.cpp:395] rpn_big_output_cls_relu -> rpn_big_output_cls (in-place)
I0413 19:29:46.228507 15995 net.cpp:150] Setting up rpn_big_output_cls_relu
I0413 19:29:46.228512 15995 net.cpp:157] Top shape: 1 384 63 94 (2274048)
I0413 19:29:46.228514 15995 net.cpp:165] Memory required for data: 3603076596
I0413 19:29:46.228518 15995 layer_factory.hpp:77] Creating layer rpn_big_cls_score
I0413 19:29:46.228528 15995 net.cpp:100] Creating Layer rpn_big_cls_score
I0413 19:29:46.228531 15995 net.cpp:434] rpn_big_cls_score <- rpn_big_output_cls
I0413 19:29:46.228539 15995 net.cpp:408] rpn_big_cls_score -> rpn_big_cls_score
I0413 19:29:46.230892 15995 net.cpp:150] Setting up rpn_big_cls_score
I0413 19:29:46.230916 15995 net.cpp:157] Top shape: 1 52 61 92 (291824)
I0413 19:29:46.230919 15995 net.cpp:165] Memory required for data: 3604243892
I0413 19:29:46.230934 15995 layer_factory.hpp:77] Creating layer rpn_big_cls_score_rpn_big_cls_score_0_split
I0413 19:29:46.230944 15995 net.cpp:100] Creating Layer rpn_big_cls_score_rpn_big_cls_score_0_split
I0413 19:29:46.230949 15995 net.cpp:434] rpn_big_cls_score_rpn_big_cls_score_0_split <- rpn_big_cls_score
I0413 19:29:46.230957 15995 net.cpp:408] rpn_big_cls_score_rpn_big_cls_score_0_split -> rpn_big_cls_score_rpn_big_cls_score_0_split_0
I0413 19:29:46.230967 15995 net.cpp:408] rpn_big_cls_score_rpn_big_cls_score_0_split -> rpn_big_cls_score_rpn_big_cls_score_0_split_1
I0413 19:29:46.231000 15995 net.cpp:150] Setting up rpn_big_cls_score_rpn_big_cls_score_0_split
I0413 19:29:46.231009 15995 net.cpp:157] Top shape: 1 52 61 92 (291824)
I0413 19:29:46.231014 15995 net.cpp:157] Top shape: 1 52 61 92 (291824)
I0413 19:29:46.231016 15995 net.cpp:165] Memory required for data: 3606578484
I0413 19:29:46.231020 15995 layer_factory.hpp:77] Creating layer rpn_big_cls_score_reshape
I0413 19:29:46.231027 15995 net.cpp:100] Creating Layer rpn_big_cls_score_reshape
I0413 19:29:46.231031 15995 net.cpp:434] rpn_big_cls_score_reshape <- rpn_big_cls_score_rpn_big_cls_score_0_split_0
I0413 19:29:46.231042 15995 net.cpp:408] rpn_big_cls_score_reshape -> rpn_big_cls_score_reshape
I0413 19:29:46.231067 15995 net.cpp:150] Setting up rpn_big_cls_score_reshape
I0413 19:29:46.231076 15995 net.cpp:157] Top shape: 1 2 1586 92 (291824)
I0413 19:29:46.231079 15995 net.cpp:165] Memory required for data: 3607745780
I0413 19:29:46.231082 15995 layer_factory.hpp:77] Creating layer rpn_big_cls_score_reshape_rpn_big_cls_score_reshape_0_split
I0413 19:29:46.231087 15995 net.cpp:100] Creating Layer rpn_big_cls_score_reshape_rpn_big_cls_score_reshape_0_split
I0413 19:29:46.231091 15995 net.cpp:434] rpn_big_cls_score_reshape_rpn_big_cls_score_reshape_0_split <- rpn_big_cls_score_reshape
I0413 19:29:46.231097 15995 net.cpp:408] rpn_big_cls_score_reshape_rpn_big_cls_score_reshape_0_split -> rpn_big_cls_score_reshape_rpn_big_cls_score_reshape_0_split_0
I0413 19:29:46.231104 15995 net.cpp:408] rpn_big_cls_score_reshape_rpn_big_cls_score_reshape_0_split -> rpn_big_cls_score_reshape_rpn_big_cls_score_reshape_0_split_1
I0413 19:29:46.231137 15995 net.cpp:150] Setting up rpn_big_cls_score_reshape_rpn_big_cls_score_reshape_0_split
I0413 19:29:46.231145 15995 net.cpp:157] Top shape: 1 2 1586 92 (291824)
I0413 19:29:46.231149 15995 net.cpp:157] Top shape: 1 2 1586 92 (291824)
I0413 19:29:46.231153 15995 net.cpp:165] Memory required for data: 3610080372
I0413 19:29:46.231155 15995 layer_factory.hpp:77] Creating layer rpn_big_cls_prob
I0413 19:29:46.231161 15995 net.cpp:100] Creating Layer rpn_big_cls_prob
I0413 19:29:46.231164 15995 net.cpp:434] rpn_big_cls_prob <- rpn_big_cls_score_reshape_rpn_big_cls_score_reshape_0_split_0
I0413 19:29:46.231171 15995 net.cpp:408] rpn_big_cls_prob -> rpn_big_cls_prob
I0413 19:29:46.231221 15995 net.cpp:150] Setting up rpn_big_cls_prob
I0413 19:29:46.231230 15995 net.cpp:157] Top shape: 1 2 1586 92 (291824)
I0413 19:29:46.231232 15995 net.cpp:165] Memory required for data: 3611247668
I0413 19:29:46.231235 15995 layer_factory.hpp:77] Creating layer rpn_big_cls_prob_reshape
I0413 19:29:46.231241 15995 net.cpp:100] Creating Layer rpn_big_cls_prob_reshape
I0413 19:29:46.231245 15995 net.cpp:434] rpn_big_cls_prob_reshape <- rpn_big_cls_prob
I0413 19:29:46.231250 15995 net.cpp:408] rpn_big_cls_prob_reshape -> rpn_big_cls_prob_reshape
I0413 19:29:46.231271 15995 net.cpp:150] Setting up rpn_big_cls_prob_reshape
I0413 19:29:46.231276 15995 net.cpp:157] Top shape: 1 52 61 92 (291824)
I0413 19:29:46.231279 15995 net.cpp:165] Memory required for data: 3612414964
I0413 19:29:46.231283 15995 layer_factory.hpp:77] Creating layer rpn_big_cls_prob_reshape_rpn_big_cls_prob_reshape_0_split
I0413 19:29:46.231288 15995 net.cpp:100] Creating Layer rpn_big_cls_prob_reshape_rpn_big_cls_prob_reshape_0_split
I0413 19:29:46.231292 15995 net.cpp:434] rpn_big_cls_prob_reshape_rpn_big_cls_prob_reshape_0_split <- rpn_big_cls_prob_reshape
I0413 19:29:46.231297 15995 net.cpp:408] rpn_big_cls_prob_reshape_rpn_big_cls_prob_reshape_0_split -> rpn_big_cls_prob_reshape_rpn_big_cls_prob_reshape_0_split_0
I0413 19:29:46.231303 15995 net.cpp:408] rpn_big_cls_prob_reshape_rpn_big_cls_prob_reshape_0_split -> rpn_big_cls_prob_reshape_rpn_big_cls_prob_reshape_0_split_1
I0413 19:29:46.231330 15995 net.cpp:150] Setting up rpn_big_cls_prob_reshape_rpn_big_cls_prob_reshape_0_split
I0413 19:29:46.231336 15995 net.cpp:157] Top shape: 1 52 61 92 (291824)
I0413 19:29:46.231341 15995 net.cpp:157] Top shape: 1 52 61 92 (291824)
I0413 19:29:46.231343 15995 net.cpp:165] Memory required for data: 3614749556
I0413 19:29:46.231348 15995 layer_factory.hpp:77] Creating layer rpn_big_anchor_target
I0413 19:29:46.232661 15995 net.cpp:100] Creating Layer rpn_big_anchor_target
I0413 19:29:46.232679 15995 net.cpp:434] rpn_big_anchor_target <- rpn_big_cls_score_rpn_big_cls_score_0_split_1
I0413 19:29:46.232686 15995 net.cpp:434] rpn_big_anchor_target <- input_gt_boxes_input_2_split_0
I0413 19:29:46.232692 15995 net.cpp:434] rpn_big_anchor_target <- input_ignored_boxes
I0413 19:29:46.232697 15995 net.cpp:434] rpn_big_anchor_target <- input_im_info_input_1_split_0
I0413 19:29:46.232700 15995 net.cpp:434] rpn_big_anchor_target <- input_data_input_0_split_1
I0413 19:29:46.232704 15995 net.cpp:434] rpn_big_anchor_target <- rpn_big_cls_prob_reshape_rpn_big_cls_prob_reshape_0_split_0
I0413 19:29:46.232712 15995 net.cpp:408] rpn_big_anchor_target -> rpn_big_anchor_target_labels
I0413 19:29:46.232722 15995 net.cpp:408] rpn_big_anchor_target -> rpn_big_anchor_target_bbox_targets
I0413 19:29:46.232729 15995 net.cpp:408] rpn_big_anchor_target -> rpn_big_anchor_target_inside_weights
I0413 19:29:46.232736 15995 net.cpp:408] rpn_big_anchor_target -> rpn_big_anchor_target_outside_weights
I0413 19:29:46.237794 15995 net.cpp:150] Setting up rpn_big_anchor_target
I0413 19:29:46.237824 15995 net.cpp:157] Top shape: 1 1 1586 92 (145912)
I0413 19:29:46.237838 15995 net.cpp:157] Top shape: 1 104 61 92 (583648)
I0413 19:29:46.237843 15995 net.cpp:157] Top shape: 1 104 61 92 (583648)
I0413 19:29:46.237846 15995 net.cpp:157] Top shape: 1 104 61 92 (583648)
I0413 19:29:46.237849 15995 net.cpp:165] Memory required for data: 3622336980
I0413 19:29:46.237854 15995 layer_factory.hpp:77] Creating layer rpn_big_loss_cls
I0413 19:29:46.237867 15995 net.cpp:100] Creating Layer rpn_big_loss_cls
I0413 19:29:46.237874 15995 net.cpp:434] rpn_big_loss_cls <- rpn_big_cls_score_reshape_rpn_big_cls_score_reshape_0_split_1
I0413 19:29:46.237881 15995 net.cpp:434] rpn_big_loss_cls <- rpn_big_anchor_target_labels
I0413 19:29:46.237889 15995 net.cpp:408] rpn_big_loss_cls -> rpn_big_loss_cls
I0413 19:29:46.237901 15995 layer_factory.hpp:77] Creating layer rpn_big_loss_cls
I0413 19:29:46.238557 15995 net.cpp:150] Setting up rpn_big_loss_cls
I0413 19:29:46.238571 15995 net.cpp:157] Top shape: (1)
I0413 19:29:46.238575 15995 net.cpp:160]     with loss weight 1
I0413 19:29:46.238585 15995 net.cpp:165] Memory required for data: 3622336984
I0413 19:29:46.238590 15995 layer_factory.hpp:77] Creating layer rpn_big_output_box
I0413 19:29:46.238602 15995 net.cpp:100] Creating Layer rpn_big_output_box
I0413 19:29:46.238607 15995 net.cpp:434] rpn_big_output_box <- rpn_big_conv2_rpn_big_conv2_drop_0_split_1
I0413 19:29:46.238616 15995 net.cpp:408] rpn_big_output_box -> rpn_big_output_box
I0413 19:29:46.257493 15995 net.cpp:150] Setting up rpn_big_output_box
I0413 19:29:46.257524 15995 net.cpp:157] Top shape: 1 384 63 94 (2274048)
I0413 19:29:46.257527 15995 net.cpp:165] Memory required for data: 3631433176
I0413 19:29:46.257537 15995 layer_factory.hpp:77] Creating layer rpn_big_output_box_relu
I0413 19:29:46.257547 15995 net.cpp:100] Creating Layer rpn_big_output_box_relu
I0413 19:29:46.257553 15995 net.cpp:434] rpn_big_output_box_relu <- rpn_big_output_box
I0413 19:29:46.257562 15995 net.cpp:395] rpn_big_output_box_relu -> rpn_big_output_box (in-place)
I0413 19:29:46.257572 15995 net.cpp:150] Setting up rpn_big_output_box_relu
I0413 19:29:46.257576 15995 net.cpp:157] Top shape: 1 384 63 94 (2274048)
I0413 19:29:46.257580 15995 net.cpp:165] Memory required for data: 3640529368
I0413 19:29:46.257582 15995 layer_factory.hpp:77] Creating layer rpn_big_bbox_pred
I0413 19:29:46.257594 15995 net.cpp:100] Creating Layer rpn_big_bbox_pred
I0413 19:29:46.257598 15995 net.cpp:434] rpn_big_bbox_pred <- rpn_big_output_box
I0413 19:29:46.257606 15995 net.cpp:408] rpn_big_bbox_pred -> rpn_big_bbox_pred
I0413 19:29:46.262745 15995 net.cpp:150] Setting up rpn_big_bbox_pred
I0413 19:29:46.262763 15995 net.cpp:157] Top shape: 1 104 61 92 (583648)
I0413 19:29:46.262765 15995 net.cpp:165] Memory required for data: 3642863960
I0413 19:29:46.262783 15995 layer_factory.hpp:77] Creating layer rpn_big_bbox_pred_rpn_big_bbox_pred_0_split
I0413 19:29:46.262790 15995 net.cpp:100] Creating Layer rpn_big_bbox_pred_rpn_big_bbox_pred_0_split
I0413 19:29:46.262797 15995 net.cpp:434] rpn_big_bbox_pred_rpn_big_bbox_pred_0_split <- rpn_big_bbox_pred
I0413 19:29:46.262804 15995 net.cpp:408] rpn_big_bbox_pred_rpn_big_bbox_pred_0_split -> rpn_big_bbox_pred_rpn_big_bbox_pred_0_split_0
I0413 19:29:46.262814 15995 net.cpp:408] rpn_big_bbox_pred_rpn_big_bbox_pred_0_split -> rpn_big_bbox_pred_rpn_big_bbox_pred_0_split_1
I0413 19:29:46.262847 15995 net.cpp:150] Setting up rpn_big_bbox_pred_rpn_big_bbox_pred_0_split
I0413 19:29:46.262854 15995 net.cpp:157] Top shape: 1 104 61 92 (583648)
I0413 19:29:46.262859 15995 net.cpp:157] Top shape: 1 104 61 92 (583648)
I0413 19:29:46.262861 15995 net.cpp:165] Memory required for data: 3647533144
I0413 19:29:46.262866 15995 layer_factory.hpp:77] Creating layer rpn_big_loss_bbox
I0413 19:29:46.263273 15995 net.cpp:100] Creating Layer rpn_big_loss_bbox
I0413 19:29:46.263283 15995 net.cpp:434] rpn_big_loss_bbox <- rpn_big_bbox_pred_rpn_big_bbox_pred_0_split_0
I0413 19:29:46.263288 15995 net.cpp:434] rpn_big_loss_bbox <- rpn_big_anchor_target_bbox_targets
I0413 19:29:46.263301 15995 net.cpp:434] rpn_big_loss_bbox <- rpn_big_anchor_target_inside_weights
I0413 19:29:46.263305 15995 net.cpp:434] rpn_big_loss_bbox <- rpn_big_anchor_target_outside_weights
I0413 19:29:46.263312 15995 net.cpp:408] rpn_big_loss_bbox -> rpn_big_loss_bbox
I0413 19:29:46.265274 15995 net.cpp:150] Setting up rpn_big_loss_bbox
I0413 19:29:46.265303 15995 net.cpp:157] Top shape: 1 (1)
I0413 19:29:46.265316 15995 net.cpp:160]     with loss weight 1
I0413 19:29:46.265326 15995 net.cpp:165] Memory required for data: 3647533148
I0413 19:29:46.265332 15995 layer_factory.hpp:77] Creating layer proposal
I0413 19:29:46.265760 15995 net.cpp:100] Creating Layer proposal
I0413 19:29:46.265770 15995 net.cpp:434] proposal <- rpn_big_cls_prob_reshape_rpn_big_cls_prob_reshape_0_split_1
I0413 19:29:46.265787 15995 net.cpp:434] proposal <- rpn_big_bbox_pred_rpn_big_bbox_pred_0_split_1
I0413 19:29:46.265792 15995 net.cpp:434] proposal <- input_im_info_input_1_split_1
I0413 19:29:46.265799 15995 net.cpp:408] proposal -> rpn_rois
I0413 19:29:46.270028 15995 net.cpp:150] Setting up proposal
I0413 19:29:46.270051 15995 net.cpp:157] Top shape: 1 5 (5)
I0413 19:29:46.270056 15995 net.cpp:165] Memory required for data: 3647533168
I0413 19:29:46.270061 15995 layer_factory.hpp:77] Creating layer roi-data
I0413 19:29:46.270395 15995 net.cpp:100] Creating Layer roi-data
I0413 19:29:46.270407 15995 net.cpp:434] roi-data <- rpn_rois
I0413 19:29:46.270414 15995 net.cpp:434] roi-data <- input_gt_boxes_input_2_split_1
I0413 19:29:46.270421 15995 net.cpp:408] roi-data -> rois
I0413 19:29:46.270431 15995 net.cpp:408] roi-data -> labels
I0413 19:29:46.270437 15995 net.cpp:408] roi-data -> bbox_targets
I0413 19:29:46.270444 15995 net.cpp:408] roi-data -> bbox_inside_weights
I0413 19:29:46.270450 15995 net.cpp:408] roi-data -> bbox_outside_weights
I0413 19:29:46.270457 15995 net.cpp:408] roi-data -> pid_label
anchors:
<<<<<<<<<<<<<<<<<<<<<<<<<<<<<<<<<<<<<<<<<<<<<<<<<<<<<<<<<<<<<<<<<<<<<<<<<<<<<<<<<<<<<<<<<<<<<<<<<<<<<<<<<<<<<<<<<<<<<<<<<<<<<<<<<<<<<<<<<<<<<<<<<<<<<<<<<<<<<<<<<<<<<<<<<<<<<<<<<<<<<<<<<<<<<<<<<<<<<<<<<<<<<<<<<<<<<<<<<<<<<<<<<<<<<<<<<<<<<<<<<<<<<<<<<<<<<<<<<<<<<<<<<<<<<<<<<<<<<<<<<<<<<<<<<<<<<<<<<<<<
<caffe._caffe.Blob object at 0x7f83ae1c5e40>
I0413 19:29:46.271430 15995 net.cpp:150] Setting up roi-data
I0413 19:29:46.271443 15995 net.cpp:157] Top shape: 1 5 (5)
I0413 19:29:46.271447 15995 net.cpp:157] Top shape: 1 1 (1)
I0413 19:29:46.271451 15995 net.cpp:157] Top shape: 1 8 (8)
I0413 19:29:46.271455 15995 net.cpp:157] Top shape: 1 8 (8)
I0413 19:29:46.271458 15995 net.cpp:157] Top shape: 1 8 (8)
I0413 19:29:46.271461 15995 net.cpp:157] Top shape: 1 1 (1)
I0413 19:29:46.271464 15995 net.cpp:165] Memory required for data: 3647533292
I0413 19:29:46.271468 15995 layer_factory.hpp:77] Creating layer pid_label_roi-data_5_split
I0413 19:29:46.271478 15995 net.cpp:100] Creating Layer pid_label_roi-data_5_split
I0413 19:29:46.271483 15995 net.cpp:434] pid_label_roi-data_5_split <- pid_label
I0413 19:29:46.271489 15995 net.cpp:408] pid_label_roi-data_5_split -> pid_label_roi-data_5_split_0
I0413 19:29:46.271498 15995 net.cpp:408] pid_label_roi-data_5_split -> pid_label_roi-data_5_split_1
I0413 19:29:46.271530 15995 net.cpp:150] Setting up pid_label_roi-data_5_split
I0413 19:29:46.271539 15995 net.cpp:157] Top shape: 1 1 (1)
I0413 19:29:46.271543 15995 net.cpp:157] Top shape: 1 1 (1)
I0413 19:29:46.271546 15995 net.cpp:165] Memory required for data: 3647533300
I0413 19:29:46.271549 15995 layer_factory.hpp:77] Creating layer roi-pool
I0413 19:29:46.271555 15995 net.cpp:100] Creating Layer roi-pool
I0413 19:29:46.271559 15995 net.cpp:434] roi-pool <- conv5_3_relu5_3_0_split_1
I0413 19:29:46.271564 15995 net.cpp:434] roi-pool <- rois
I0413 19:29:46.271569 15995 net.cpp:408] roi-pool -> roi-pool
I0413 19:29:46.271576 15995 roi_pooling_layer.cpp:33] Spatial scale: 0.0625
I0413 19:29:46.271585 15995 roi_pooling_layer.cpp:34] Box scale: 1
I0413 19:29:46.271622 15995 net.cpp:150] Setting up roi-pool
I0413 19:29:46.271631 15995 net.cpp:157] Top shape: 1 512 7 7 (25088)
I0413 19:29:46.271634 15995 net.cpp:165] Memory required for data: 3647633652
I0413 19:29:46.271637 15995 layer_factory.hpp:77] Creating layer fc6
I0413 19:29:46.271643 15995 net.cpp:100] Creating Layer fc6
I0413 19:29:46.271647 15995 net.cpp:434] fc6 <- roi-pool
I0413 19:29:46.271653 15995 net.cpp:408] fc6 -> fc6
I0413 19:29:46.433871 15995 net.cpp:150] Setting up fc6
I0413 19:29:46.433905 15995 net.cpp:157] Top shape: 1 4096 (4096)
I0413 19:29:46.433918 15995 net.cpp:165] Memory required for data: 3647650036
I0413 19:29:46.433930 15995 layer_factory.hpp:77] Creating layer relu6
I0413 19:29:46.433941 15995 net.cpp:100] Creating Layer relu6
I0413 19:29:46.433946 15995 net.cpp:434] relu6 <- fc6
I0413 19:29:46.433956 15995 net.cpp:395] relu6 -> fc6 (in-place)
I0413 19:29:46.433967 15995 net.cpp:150] Setting up relu6
I0413 19:29:46.433974 15995 net.cpp:157] Top shape: 1 4096 (4096)
I0413 19:29:46.433979 15995 net.cpp:165] Memory required for data: 3647666420
I0413 19:29:46.433984 15995 layer_factory.hpp:77] Creating layer drop6
I0413 19:29:46.433992 15995 net.cpp:100] Creating Layer drop6
I0413 19:29:46.434007 15995 net.cpp:434] drop6 <- fc6
I0413 19:29:46.434015 15995 net.cpp:395] drop6 -> fc6 (in-place)
I0413 19:29:46.434047 15995 net.cpp:150] Setting up drop6
I0413 19:29:46.434054 15995 net.cpp:157] Top shape: 1 4096 (4096)
I0413 19:29:46.434057 15995 net.cpp:165] Memory required for data: 3647682804
I0413 19:29:46.434062 15995 layer_factory.hpp:77] Creating layer fc7
I0413 19:29:46.434078 15995 net.cpp:100] Creating Layer fc7
I0413 19:29:46.434083 15995 net.cpp:434] fc7 <- fc6
I0413 19:29:46.434089 15995 net.cpp:408] fc7 -> fc7
I0413 19:29:46.460784 15995 net.cpp:150] Setting up fc7
I0413 19:29:46.460816 15995 net.cpp:157] Top shape: 1 4096 (4096)
I0413 19:29:46.460829 15995 net.cpp:165] Memory required for data: 3647699188
I0413 19:29:46.460841 15995 layer_factory.hpp:77] Creating layer relu7
I0413 19:29:46.460855 15995 net.cpp:100] Creating Layer relu7
I0413 19:29:46.460860 15995 net.cpp:434] relu7 <- fc7
I0413 19:29:46.460866 15995 net.cpp:395] relu7 -> fc7 (in-place)
I0413 19:29:46.460877 15995 net.cpp:150] Setting up relu7
I0413 19:29:46.460882 15995 net.cpp:157] Top shape: 1 4096 (4096)
I0413 19:29:46.460885 15995 net.cpp:165] Memory required for data: 3647715572
I0413 19:29:46.460887 15995 layer_factory.hpp:77] Creating layer drop7
I0413 19:29:46.460894 15995 net.cpp:100] Creating Layer drop7
I0413 19:29:46.460898 15995 net.cpp:434] drop7 <- fc7
I0413 19:29:46.460912 15995 net.cpp:395] drop7 -> fc7 (in-place)
I0413 19:29:46.460934 15995 net.cpp:150] Setting up drop7
I0413 19:29:46.460939 15995 net.cpp:157] Top shape: 1 4096 (4096)
I0413 19:29:46.460942 15995 net.cpp:165] Memory required for data: 3647731956
I0413 19:29:46.460945 15995 layer_factory.hpp:77] Creating layer fc7_drop7_0_split
I0413 19:29:46.460952 15995 net.cpp:100] Creating Layer fc7_drop7_0_split
I0413 19:29:46.460957 15995 net.cpp:434] fc7_drop7_0_split <- fc7
I0413 19:29:46.460961 15995 net.cpp:408] fc7_drop7_0_split -> fc7_drop7_0_split_0
I0413 19:29:46.460969 15995 net.cpp:408] fc7_drop7_0_split -> fc7_drop7_0_split_1
I0413 19:29:46.460999 15995 net.cpp:150] Setting up fc7_drop7_0_split
I0413 19:29:46.461007 15995 net.cpp:157] Top shape: 1 4096 (4096)
I0413 19:29:46.461011 15995 net.cpp:157] Top shape: 1 4096 (4096)
I0413 19:29:46.461014 15995 net.cpp:165] Memory required for data: 3647764724
I0413 19:29:46.461017 15995 layer_factory.hpp:77] Creating layer bbox_pred
I0413 19:29:46.461024 15995 net.cpp:100] Creating Layer bbox_pred
I0413 19:29:46.461027 15995 net.cpp:434] bbox_pred <- fc7_drop7_0_split_0
I0413 19:29:46.461035 15995 net.cpp:408] bbox_pred -> bbox_pred
I0413 19:29:46.461457 15995 net.cpp:150] Setting up bbox_pred
I0413 19:29:46.461464 15995 net.cpp:157] Top shape: 1 8 (8)
I0413 19:29:46.461467 15995 net.cpp:165] Memory required for data: 3647764756
I0413 19:29:46.461473 15995 layer_factory.hpp:77] Creating layer loss_bbox
I0413 19:29:46.461480 15995 net.cpp:100] Creating Layer loss_bbox
I0413 19:29:46.461483 15995 net.cpp:434] loss_bbox <- bbox_pred
I0413 19:29:46.461488 15995 net.cpp:434] loss_bbox <- bbox_targets
I0413 19:29:46.461493 15995 net.cpp:434] loss_bbox <- bbox_inside_weights
I0413 19:29:46.461496 15995 net.cpp:434] loss_bbox <- bbox_outside_weights
I0413 19:29:46.461501 15995 net.cpp:408] loss_bbox -> loss_bbox
I0413 19:29:46.461571 15995 net.cpp:150] Setting up loss_bbox
I0413 19:29:46.461580 15995 net.cpp:157] Top shape: (1)
I0413 19:29:46.461582 15995 net.cpp:160]     with loss weight 1
I0413 19:29:46.461593 15995 net.cpp:165] Memory required for data: 3647764760
I0413 19:29:46.461596 15995 layer_factory.hpp:77] Creating layer feat
I0413 19:29:46.461606 15995 net.cpp:100] Creating Layer feat
I0413 19:29:46.461609 15995 net.cpp:434] feat <- fc7_drop7_0_split_1
I0413 19:29:46.461614 15995 net.cpp:408] feat -> feat
I0413 19:29:46.472610 15995 net.cpp:150] Setting up feat
I0413 19:29:46.472640 15995 net.cpp:157] Top shape: 1 256 (256)
I0413 19:29:46.472643 15995 net.cpp:165] Memory required for data: 3647765784
I0413 19:29:46.472656 15995 layer_factory.hpp:77] Creating layer relu8
I0413 19:29:46.472666 15995 net.cpp:100] Creating Layer relu8
I0413 19:29:46.472671 15995 net.cpp:434] relu8 <- feat
I0413 19:29:46.472678 15995 net.cpp:395] relu8 -> feat (in-place)
I0413 19:29:46.472687 15995 net.cpp:150] Setting up relu8
I0413 19:29:46.472692 15995 net.cpp:157] Top shape: 1 256 (256)
I0413 19:29:46.472694 15995 net.cpp:165] Memory required for data: 3647766808
I0413 19:29:46.472697 15995 layer_factory.hpp:77] Creating layer drop8
I0413 19:29:46.472704 15995 net.cpp:100] Creating Layer drop8
I0413 19:29:46.472708 15995 net.cpp:434] drop8 <- feat
I0413 19:29:46.472713 15995 net.cpp:395] drop8 -> feat (in-place)
I0413 19:29:46.472733 15995 net.cpp:150] Setting up drop8
I0413 19:29:46.472739 15995 net.cpp:157] Top shape: 1 256 (256)
I0413 19:29:46.472741 15995 net.cpp:165] Memory required for data: 3647767832
I0413 19:29:46.472744 15995 layer_factory.hpp:77] Creating layer pid_score
I0413 19:29:46.472751 15995 net.cpp:100] Creating Layer pid_score
I0413 19:29:46.472754 15995 net.cpp:434] pid_score <- feat
I0413 19:29:46.472762 15995 net.cpp:408] pid_score -> pid_score
I0413 19:29:46.487576 15995 net.cpp:150] Setting up pid_score
I0413 19:29:46.487607 15995 net.cpp:157] Top shape: 1 5533 (5533)
I0413 19:29:46.487610 15995 net.cpp:165] Memory required for data: 3647789964
I0413 19:29:46.487622 15995 layer_factory.hpp:77] Creating layer pid_score_pid_score_0_split
I0413 19:29:46.487632 15995 net.cpp:100] Creating Layer pid_score_pid_score_0_split
I0413 19:29:46.487637 15995 net.cpp:434] pid_score_pid_score_0_split <- pid_score
I0413 19:29:46.487646 15995 net.cpp:408] pid_score_pid_score_0_split -> pid_score_pid_score_0_split_0
I0413 19:29:46.487665 15995 net.cpp:408] pid_score_pid_score_0_split -> pid_score_pid_score_0_split_1
I0413 19:29:46.487699 15995 net.cpp:150] Setting up pid_score_pid_score_0_split
I0413 19:29:46.487706 15995 net.cpp:157] Top shape: 1 5533 (5533)
I0413 19:29:46.487710 15995 net.cpp:157] Top shape: 1 5533 (5533)
I0413 19:29:46.487713 15995 net.cpp:165] Memory required for data: 3647834228
I0413 19:29:46.487716 15995 layer_factory.hpp:77] Creating layer pid_loss
I0413 19:29:46.487725 15995 net.cpp:100] Creating Layer pid_loss
I0413 19:29:46.487728 15995 net.cpp:434] pid_loss <- pid_score_pid_score_0_split_0
I0413 19:29:46.487733 15995 net.cpp:434] pid_loss <- pid_label_roi-data_5_split_0
I0413 19:29:46.487740 15995 net.cpp:408] pid_loss -> pid_loss
…
