…
I0412 17:39:07.053884  5056 solver.cpp:48] Initializing solver from parameters: 
base_lr: 0.001
display: 20
lr_policy: "multistep"
gamma: 0.1
momentum: 0.9
weight_decay: 0.0005
snapshot: 0
snapshot_prefix: "faces_example"
net_param {
  name: "GeneratedModel_12_04_2017_17_39"
  layer {
    name: "input"
    type: "Python"
    top: "input_data"
    top: "input_im_info"
    top: "input_gt_boxes"
    top: "input_ignored_boxes"
    python_param {
      module: "layers.roi_data_layer"
      layer: "RoIDataLayer"
      param_str: "{\"num_classes\": 2}"
    }
  }
  layer {
    name: "conv1_1"
    type: "Convolution"
    bottom: "input_data"
    top: "conv1_1"
    param {
      lr_mult: 0
      decay_mult: 0
    }
    param {
      lr_mult: 0
      decay_mult: 0
    }
    convolution_param {
      num_output: 64
      pad: 1
      kernel_size: 3
    }
  }
  layer {
    name: "relu1_1"
    type: "ReLU"
    bottom: "conv1_1"
    top: "conv1_1"
  }
  layer {
    name: "conv1_2"
    type: "Convolution"
    bottom: "conv1_1"
    top: "conv1_2"
    param {
      lr_mult: 0
      decay_mult: 0
    }
    param {
      lr_mult: 0
      decay_mult: 0
    }
    convolution_param {
      num_output: 64
      pad: 1
      kernel_size: 3
    }
  }
  layer {
    name: "relu1_2"
    type: "ReLU"
    bottom: "conv1_2"
    top: "conv1_2"
  }
  layer {
    name: "pool1"
    type: "Pooling"
    bottom: "conv1_2"
    top: "pool1"
    pooling_param {
      pool: MAX
      kernel_size: 2
      stride: 2
    }
  }
  layer {
    name: "conv2_1"
    type: "Convolution"
    bottom: "pool1"
    top: "conv2_1"
    param {
      lr_mult: 0
      decay_mult: 0
    }
    param {
      lr_mult: 0
      decay_mult: 0
    }
    convolution_param {
      num_output: 128
      pad: 1
      kernel_size: 3
    }
  }
  layer {
    name: "relu2_1"
    type: "ReLU"
    bottom: "conv2_1"
    top: "conv2_1"
  }
  layer {
    name: "conv2_2"
    type: "Convolution"
    bottom: "conv2_1"
    top: "conv2_2"
    param {
      lr_mult: 0
      decay_mult: 0
    }
    param {
      lr_mult: 0
      decay_mult: 0
    }
    convolution_param {
      num_output: 128
      pad: 1
      kernel_size: 3
    }
  }
  layer {
    name: "relu2_2"
    type: "ReLU"
    bottom: "conv2_2"
    top: "conv2_2"
  }
  layer {
    name: "pool2"
    type: "Pooling"
    bottom: "conv2_2"
    top: "pool2"
    pooling_param {
      pool: MAX
      kernel_size: 2
      stride: 2
    }
  }
  layer {
    name: "conv3_1"
    type: "Convolution"
    bottom: "pool2"
    top: "conv3_1"
    param {
      lr_mult: 1
    }
    param {
      lr_mult: 2
    }
    convolution_param {
      num_output: 256
      pad: 1
      kernel_size: 3
    }
  }
  layer {
    name: "relu3_1"
    type: "ReLU"
    bottom: "conv3_1"
    top: "conv3_1"
  }
  layer {
    name: "conv3_2"
    type: "Convolution"
    bottom: "conv3_1"
    top: "conv3_2"
    param {
      lr_mult: 1
    }
    param {
      lr_mult: 2
    }
    convolution_param {
      num_output: 256
      pad: 1
      kernel_size: 3
    }
  }
  layer {
    name: "relu3_2"
    type: "ReLU"
    bottom: "conv3_2"
    top: "conv3_2"
  }
  layer {
    name: "conv3_3"
    type: "Convolution"
    bottom: "conv3_2"
    top: "conv3_3"
    param {
      lr_mult: 1
    }
    param {
      lr_mult: 2
    }
    convolution_param {
      num_output: 256
      pad: 1
      kernel_size: 3
    }
  }
  layer {
    name: "relu3_3"
    type: "ReLU"
    bottom: "conv3_3"
    top: "conv3_3"
  }
  layer {
    name: "pool3"
    type: "Pooling"
    bottom: "conv3_3"
    top: "pool3"
    pooling_param {
      pool: MAX
      kernel_size: 2
      stride: 2
    }
  }
  layer {
    name: "conv4_1"
    type: "Convolution"
    bottom: "pool3"
    top: "conv4_1"
    param {
      lr_mult: 1
    }
    param {
      lr_mult: 2
    }
    convolution_param {
      num_output: 512
      pad: 1
      kernel_size: 3
    }
  }
  layer {
    name: "relu4_1"
    type: "ReLU"
    bottom: "conv4_1"
    top: "conv4_1"
  }
  layer {
    name: "conv4_2"
    type: "Convolution"
    bottom: "conv4_1"
    top: "conv4_2"
    param {
      lr_mult: 1
    }
    param {
      lr_mult: 2
    }
    convolution_param {
      num_output: 512
      pad: 1
      kernel_size: 3
    }
  }
  layer {
    name: "relu4_2"
    type: "ReLU"
    bottom: "conv4_2"
    top: "conv4_2"
  }
  layer {
    name: "conv4_3"
    type: "Convolution"
    bottom: "conv4_2"
    top: "conv4_3"
    param {
      lr_mult: 1
    }
    param {
      lr_mult: 2
    }
    convolution_param {
      num_output: 512
      pad: 1
      kernel_size: 3
    }
  }
  layer {
    name: "relu4_3"
    type: "ReLU"
    bottom: "conv4_3"
    top: "conv4_3"
  }
  layer {
    name: "pool4"
    type: "Pooling"
    bottom: "conv4_3"
    top: "pool4"
    pooling_param {
      pool: MAX
      kernel_size: 2
      stride: 2
    }
  }
  layer {
    name: "conv5_1"
    type: "Convolution"
    bottom: "pool4"
    top: "conv5_1"
    param {
      lr_mult: 1
    }
    param {
      lr_mult: 2
    }
    convolution_param {
      num_output: 512
      pad: 1
      kernel_size: 3
    }
  }
  layer {
    name: "relu5_1"
    type: "ReLU"
    bottom: "conv5_1"
    top: "conv5_1"
  }
  layer {
    name: "conv5_2"
    type: "Convolution"
    bottom: "conv5_1"
    top: "conv5_2"
    param {
      lr_mult: 1
    }
    param {
      lr_mult: 2
    }
    convolution_param {
      num_output: 512
      pad: 1
      kernel_size: 3
    }
  }
  layer {
    name: "relu5_2"
    type: "ReLU"
    bottom: "conv5_2"
    top: "conv5_2"
  }
  layer {
    name: "conv5_3"
    type: "Convolution"
    bottom: "conv5_2"
    top: "conv5_3"
    param {
      lr_mult: 1
    }
    param {
      lr_mult: 2
    }
    convolution_param {
      num_output: 512
      pad: 1
      kernel_size: 3
    }
  }
  layer {
    name: "relu5_3"
    type: "ReLU"
    bottom: "conv5_3"
    top: "conv5_3"
  }
  layer {
    name: "fc6"
    type: "InnerProduct"
    bottom: "conv5_3"
    top: "fc6"
  }
  layer {
    name: "rpn_big_conv1"
    type: "Convolution"
    bottom: "conv5_3"
    top: "rpn_big_conv1"
    param {
      lr_mult: 1
    }
    param {
      lr_mult: 2
    }
    convolution_param {
      num_output: 512
      pad: 1
      kernel_size: 3
      stride: 1
      weight_filler {
        type: "gaussian"
        mean: 0
        std: 0.01
      }
      bias_filler {
        type: "constant"
      }
    }
  }
  layer {
    name: "rpn_big_conv1_relu"
    type: "ReLU"
    bottom: "rpn_big_conv1"
    top: "rpn_big_conv1"
    relu_param {
      negative_slope: 0
    }
  }
  layer {
    name: "rpn_big_conv2"
    type: "Convolution"
    bottom: "rpn_big_conv1"
    top: "rpn_big_conv2"
    param {
      lr_mult: 1
    }
    param {
      lr_mult: 2
    }
    convolution_param {
      num_output: 512
      pad: 1
      kernel_size: 3
      stride: 1
      weight_filler {
        type: "gaussian"
        mean: 0
        std: 0.01
      }
      bias_filler {
        type: "constant"
      }
    }
  }
  layer {
    name: "rpn_big_conv2_relu"
    type: "ReLU"
    bottom: "rpn_big_conv2"
    top: "rpn_big_conv2"
    relu_param {
      negative_slope: 0
    }
  }
  layer {
    name: "rpn_big_conv2_drop"
    type: "Dropout"
    bottom: "rpn_big_conv2"
    top: "rpn_big_conv2"
    dropout_param {
      dropout_ratio: 0.3
    }
  }
  layer {
    name: "rpn_big_output_cls"
    type: "Convolution"
    bottom: "rpn_big_conv2"
    top: "rpn_big_output_cls"
    param {
      lr_mult: 1
    }
    param {
      lr_mult: 2
    }
    convolution_param {
      num_output: 384
      pad: 1
      kernel_size: 3
      stride: 1
      weight_filler {
        type: "gaussian"
        mean: 0
        std: 0.01
      }
      bias_filler {
        type: "constant"
      }
    }
  }
  layer {
    name: "rpn_big_output_cls_relu"
    type: "ReLU"
    bottom: "rpn_big_output_cls"
    top: "rpn_big_output_cls"
    relu_param {
      negative_slope: 0
    }
  }
  layer {
    name: "rpn_big_cls_score"
    type: "Convolution"
    bottom: "rpn_big_output_cls"
    top: "rpn_big_cls_score"
    param {
      lr_mult: 1
    }
    param {
      lr_mult: 2
    }
    convolution_param {
      num_output: 52
      pad: 0
      kernel_size: 3
      stride: 1
      weight_filler {
        type: "gaussian"
        mean: 0
        std: 0.01
      }
      bias_filler {
        type: "constant"
      }
    }
  }
  layer {
    name: "rpn_big_cls_score_reshape"
    type: "Reshape"
    bottom: "rpn_big_cls_score"
    top: "rpn_big_cls_score_reshape"
    reshape_param {
      shape {
        dim: 0
        dim: 2
        dim: -1
        dim: 0
      }
    }
  }
  layer {
    name: "rpn_big_cls_prob"
    type: "Softmax"
    bottom: "rpn_big_cls_score_reshape"
    top: "rpn_big_cls_prob"
  }
  layer {
    name: "rpn_big_cls_prob_reshape"
    type: "Reshape"
    bottom: "rpn_big_cls_prob"
    top: "rpn_big_cls_prob_reshape"
    reshape_param {
      shape {
        dim: 0
        dim: 52
        dim: -1
        dim: 0
      }
    }
  }
  layer {
    name: "rpn_big_anchor_target"
    type: "Python"
    bottom: "rpn_big_cls_score"
    bottom: "input_gt_boxes"
    bottom: "input_ignored_boxes"
    bottom: "input_im_info"
    bottom: "input_data"
    bottom: "rpn_big_cls_prob_reshape"
    top: "rpn_big_anchor_target_labels"
    top: "rpn_big_anchor_target_bbox_targets"
    top: "rpn_big_anchor_target_inside_weights"
    top: "rpn_big_anchor_target_outside_weights"
    python_param {
      module: "rpn.anchor_target_layer"
      layer: "AnchorTargetLayer"
      param_str: "{\"tn_fraction\": 0.2, \"anchor_scales\": [2.5, 3.025, 3.66025, 4.4289024999999995, 5.358972025, 6.484356150249999, 7.846070941802498, 9.493745839581022, 11.487432465893036, 13.899793283730574, 16.818749873313998, 20.350687346709933, 24.62433168951902, 29.795441344318014], \"negative_overlap\": 0.4, \"fg_fraction\": 0.5, \"batchsize\": 256, \"anchor_shift_num_xy\": [[2, 2], [2, 2], [2, 2], [2, 2], [1, 1], [1, 1], [1, 1], [1, 1], [1, 1], [1, 1], [1, 1], [1, 1], [1, 1], [1, 1]], \"num_classes\": 1, \"name\": \"rpn_big\", \"square_targets\": true, \"anchor_ratios\": [1.0], \"positive_overlap\": 0.6, \"feat_stride\": 16}"
    }
  }
  layer {
    name: "rpn_big_loss_cls"
    type: "SoftmaxWithLoss"
    bottom: "rpn_big_cls_score_reshape"
    bottom: "rpn_big_anchor_target_labels"
    top: "rpn_big_loss_cls"
    loss_weight: 1
    propagate_down: true
    propagate_down: false
    loss_param {
      ignore_label: -1
      normalization: VALID
    }
  }
  layer {
    name: "rpn_big_output_box"
    type: "Convolution"
    bottom: "rpn_big_conv2"
    top: "rpn_big_output_box"
    param {
      lr_mult: 1
    }
    param {
      lr_mult: 2
    }
    convolution_param {
      num_output: 384
      pad: 1
      kernel_size: 3
      stride: 1
      weight_filler {
        type: "gaussian"
        mean: 0
        std: 0.01
      }
      bias_filler {
        type: "constant"
      }
    }
  }
  layer {
    name: "rpn_big_output_box_relu"
    type: "ReLU"
    bottom: "rpn_big_output_box"
    top: "rpn_big_output_box"
    relu_param {
      negative_slope: 0
    }
  }
  layer {
    name: "rpn_big_bbox_pred"
    type: "Convolution"
    bottom: "rpn_big_output_box"
    top: "rpn_big_bbox_pred"
    param {
      lr_mult: 1
    }
    param {
      lr_mult: 2
    }
    convolution_param {
      num_output: 104
      pad: 0
      kernel_size: 3
      stride: 1
      weight_filler {
        type: "gaussian"
        mean: 0
        std: 0.01
      }
      bias_filler {
        type: "constant"
      }
    }
  }
  layer {
    name: "rpn_big_loss_bbox"
    type: "Python"
    bottom: "rpn_big_bbox_pred"
    bottom: "rpn_big_anchor_target_bbox_targets"
    bottom: "rpn_big_anchor_target_inside_weights"
    bottom: "rpn_big_anchor_target_outside_weights"
    top: "rpn_big_loss_bbox"
    loss_weight: 1
    python_param {
      module: "layers.smooth_l1_loss"
      layer: "SmoothL1LossLayer"
      param_str: "{\"sigma\": 3}"
    }
  }
}
average_loss: 100
stepvalue: 70000
stepvalue: 120000
iter_size: 2
I0412 17:39:07.053982  5056 solver.cpp:86] Creating training net specified in net_param.
I0412 17:39:07.054527  5056 net.cpp:58] Initializing net from parameters: 
name: "GeneratedModel_12_04_2017_17_39"
state {
  phase: TRAIN
}
layer {
  name: "input"
  type: "Python"
  top: "input_data"
  top: "input_im_info"
  top: "input_gt_boxes"
  top: "input_ignored_boxes"
  python_param {
    module: "layers.roi_data_layer"
    layer: "RoIDataLayer"
    param_str: "{\"num_classes\": 2}"
  }
}
layer {
  name: "conv1_1"
  type: "Convolution"
  bottom: "input_data"
  top: "conv1_1"
  param {
    lr_mult: 0
    decay_mult: 0
  }
  param {
    lr_mult: 0
    decay_mult: 0
  }
  convolution_param {
    num_output: 64
    pad: 1
    kernel_size: 3
  }
}
layer {
  name: "relu1_1"
  type: "ReLU"
  bottom: "conv1_1"
  top: "conv1_1"
}
layer {
  name: "conv1_2"
  type: "Convolution"
  bottom: "conv1_1"
  top: "conv1_2"
  param {
    lr_mult: 0
    decay_mult: 0
  }
  param {
    lr_mult: 0
    decay_mult: 0
  }
  convolution_param {
    num_output: 64
    pad: 1
    kernel_size: 3
  }
}
layer {
  name: "relu1_2"
  type: "ReLU"
  bottom: "conv1_2"
  top: "conv1_2"
}
layer {
  name: "pool1"
  type: "Pooling"
  bottom: "conv1_2"
  top: "pool1"
  pooling_param {
    pool: MAX
    kernel_size: 2
    stride: 2
  }
}
layer {
  name: "conv2_1"
  type: "Convolution"
  bottom: "pool1"
  top: "conv2_1"
  param {
    lr_mult: 0
    decay_mult: 0
  }
  param {
    lr_mult: 0
    decay_mult: 0
  }
  convolution_param {
    num_output: 128
    pad: 1
    kernel_size: 3
  }
}
layer {
  name: "relu2_1"
  type: "ReLU"
  bottom: "conv2_1"
  top: "conv2_1"
}
layer {
  name: "conv2_2"
  type: "Convolution"
  bottom: "conv2_1"
  top: "conv2_2"
  param {
    lr_mult: 0
    decay_mult: 0
  }
  param {
    lr_mult: 0
    decay_mult: 0
  }
  convolution_param {
    num_output: 128
    pad: 1
    kernel_size: 3
  }
}
layer {
  name: "relu2_2"
  type: "ReLU"
  bottom: "conv2_2"
  top: "conv2_2"
}
layer {
  name: "pool2"
  type: "Pooling"
  bottom: "conv2_2"
  top: "pool2"
  pooling_param {
    pool: MAX
    kernel_size: 2
    stride: 2
  }
}
layer {
  name: "conv3_1"
  type: "Convolution"
  bottom: "pool2"
  top: "conv3_1"
  param {
    lr_mult: 1
  }
  param {
    lr_mult: 2
  }
  convolution_param {
    num_output: 256
    pad: 1
    kernel_size: 3
  }
}
layer {
  name: "relu3_1"
  type: "ReLU"
  bottom: "conv3_1"
  top: "conv3_1"
}
layer {
  name: "conv3_2"
  type: "Convolution"
  bottom: "conv3_1"
  top: "conv3_2"
  param {
    lr_mult: 1
  }
  param {
    lr_mult: 2
  }
  convolution_param {
    num_output: 256
    pad: 1
    kernel_size: 3
  }
}
layer {
  name: "relu3_2"
  type: "ReLU"
  bottom: "conv3_2"
  top: "conv3_2"
}
layer {
  name: "conv3_3"
  type: "Convolution"
  bottom: "conv3_2"
  top: "conv3_3"
  param {
    lr_mult: 1
  }
  param {
    lr_mult: 2
  }
  convolution_param {
    num_output: 256
    pad: 1
    kernel_size: 3
  }
}
layer {
  name: "relu3_3"
  type: "ReLU"
  bottom: "conv3_3"
  top: "conv3_3"
}
layer {
  name: "pool3"
  type: "Pooling"
  bottom: "conv3_3"
  top: "pool3"
  pooling_param {
    pool: MAX
    kernel_size: 2
    stride: 2
  }
}
layer {
  name: "conv4_1"
  type: "Convolution"
  bottom: "pool3"
  top: "conv4_1"
  param {
    lr_mult: 1
  }
  param {
    lr_mult: 2
  }
  convolution_param {
    num_output: 512
    pad: 1
    kernel_size: 3
  }
}
layer {
  name: "relu4_1"
  type: "ReLU"
  bottom: "conv4_1"
  top: "conv4_1"
}
layer {
  name: "conv4_2"
  type: "Convolution"
  bottom: "conv4_1"
  top: "conv4_2"
  param {
    lr_mult: 1
  }
  param {
    lr_mult: 2
  }
  convolution_param {
    num_output: 512
    pad: 1
    kernel_size: 3
  }
}
layer {
  name: "relu4_2"
  type: "ReLU"
  bottom: "conv4_2"
  top: "conv4_2"
}
layer {
  name: "conv4_3"
  type: "Convolution"
  bottom: "conv4_2"
  top: "conv4_3"
  param {
    lr_mult: 1
  }
  param {
    lr_mult: 2
  }
  convolution_param {
    num_output: 512
    pad: 1
    kernel_size: 3
  }
}
layer {
  name: "relu4_3"
  type: "ReLU"
  bottom: "conv4_3"
  top: "conv4_3"
}
layer {
  name: "pool4"
  type: "Pooling"
  bottom: "conv4_3"
  top: "pool4"
  pooling_param {
    pool: MAX
    kernel_size: 2
    stride: 2
  }
}
layer {
  name: "conv5_1"
  type: "Convolution"
  bottom: "pool4"
  top: "conv5_1"
  param {
    lr_mult: 1
  }
  param {
    lr_mult: 2
  }
  convolution_param {
    num_output: 512
    pad: 1
    kernel_size: 3
  }
}
layer {
  name: "relu5_1"
  type: "ReLU"
  bottom: "conv5_1"
  top: "conv5_1"
}
layer {
  name: "conv5_2"
  type: "Convolution"
  bottom: "conv5_1"
  top: "conv5_2"
  param {
    lr_mult: 1
  }
  param {
    lr_mult: 2
  }
  convolution_param {
    num_output: 512
    pad: 1
    kernel_size: 3
  }
}
layer {
  name: "relu5_2"
  type: "ReLU"
  bottom: "conv5_2"
  top: "conv5_2"
}
layer {
  name: "conv5_3"
  type: "Convolution"
  bottom: "conv5_2"
  top: "conv5_3"
  param {
    lr_mult: 1
  }
  param {
    lr_mult: 2
  }
  convolution_param {
    num_output: 512
    pad: 1
    kernel_size: 3
  }
}
layer {
  name: "relu5_3"
  type: "ReLU"
  bottom: "conv5_3"
  top: "conv5_3"
}
layer {
  name: "fc6"
  type: "InnerProduct"
  bottom: "conv5_3"
  top: "fc6"
}
layer {
  name: "rpn_big_conv1"
  type: "Convolution"
  bottom: "conv5_3"
  top: "rpn_big_conv1"
  param {
    lr_mult: 1
  }
  param {
    lr_mult: 2
  }
  convolution_param {
    num_output: 512
    pad: 1
    kernel_size: 3
    stride: 1
    weight_filler {
      type: "gaussian"
      mean: 0
      std: 0.01
    }
    bias_filler {
      type: "constant"
    }
  }
}
layer {
  name: "rpn_big_conv1_relu"
  type: "ReLU"
  bottom: "rpn_big_conv1"
  top: "rpn_big_conv1"
  relu_param {
    negative_slope: 0
  }
}
layer {
  name: "rpn_big_conv2"
  type: "Convolution"
  bottom: "rpn_big_conv1"
  top: "rpn_big_conv2"
  param {
    lr_mult: 1
  }
  param {
    lr_mult: 2
  }
  convolution_param {
    num_output: 512
    pad: 1
    kernel_size: 3
    stride: 1
    weight_filler {
      type: "gaussian"
      mean: 0
      std: 0.01
    }
    bias_filler {
      type: "constant"
    }
  }
}
layer {
  name: "rpn_big_conv2_relu"
  type: "ReLU"
  bottom: "rpn_big_conv2"
  top: "rpn_big_conv2"
  relu_param {
    negative_slope: 0
  }
}
layer {
  name: "rpn_big_conv2_drop"
  type: "Dropout"
  bottom: "rpn_big_conv2"
  top: "rpn_big_conv2"
  dropout_param {
    dropout_ratio: 0.3
  }
}
layer {
  name: "rpn_big_output_cls"
  type: "Convolution"
  bottom: "rpn_big_conv2"
  top: "rpn_big_output_cls"
  param {
    lr_mult: 1
  }
  param {
    lr_mult: 2
  }
  convolution_param {
    num_output: 384
    pad: 1
    kernel_size: 3
    stride: 1
    weight_filler {
      type: "gaussian"
      mean: 0
      std: 0.01
    }
    bias_filler {
      type: "constant"
    }
  }
}
layer {
  name: "rpn_big_output_cls_relu"
  type: "ReLU"
  bottom: "rpn_big_output_cls"
  top: "rpn_big_output_cls"
  relu_param {
    negative_slope: 0
  }
}
layer {
  name: "rpn_big_cls_score"
  type: "Convolution"
  bottom: "rpn_big_output_cls"
  top: "rpn_big_cls_score"
  param {
    lr_mult: 1
  }
  param {
    lr_mult: 2
  }
  convolution_param {
    num_output: 52
    pad: 0
    kernel_size: 3
    stride: 1
    weight_filler {
      type: "gaussian"
      mean: 0
      std: 0.01
    }
    bias_filler {
      type: "constant"
    }
  }
}
layer {
  name: "rpn_big_cls_score_reshape"
  type: "Reshape"
  bottom: "rpn_big_cls_score"
  top: "rpn_big_cls_score_reshape"
  reshape_param {
    shape {
      dim: 0
      dim: 2
      dim: -1
      dim: 0
    }
  }
}
layer {
  name: "rpn_big_cls_prob"
  type: "Softmax"
  bottom: "rpn_big_cls_score_reshape"
  top: "rpn_big_cls_prob"
}
layer {
  name: "rpn_big_cls_prob_reshape"
  type: "Reshape"
  bottom: "rpn_big_cls_prob"
  top: "rpn_big_cls_prob_reshape"
  reshape_param {
    shape {
      dim: 0
      dim: 52
      dim: -1
      dim: 0
    }
  }
}
layer {
  name: "rpn_big_anchor_target"
  type: "Python"
  bottom: "rpn_big_cls_score"
  bottom: "input_gt_boxes"
  bottom: "input_ignored_boxes"
  bottom: "input_im_info"
  bottom: "input_data"
  bottom: "rpn_big_cls_prob_reshape"
  top: "rpn_big_anchor_target_labels"
  top: "rpn_big_anchor_target_bbox_targets"
  top: "rpn_big_anchor_target_inside_weights"
  top: "rpn_big_anchor_target_outside_weights"
  python_param {
    module: "rpn.anchor_target_layer"
    layer: "AnchorTargetLayer"
    param_str: "{\"tn_fraction\": 0.2, \"anchor_scales\": [2.5, 3.025, 3.66025, 4.4289024999999995, 5.358972025, 6.484356150249999, 7.846070941802498, 9.493745839581022, 11.487432465893036, 13.899793283730574, 16.818749873313998, 20.350687346709933, 24.62433168951902, 29.795441344318014], \"negative_overlap\": 0.4, \"fg_fraction\": 0.5, \"batchsize\": 256, \"anchor_shift_num_xy\": [[2, 2], [2, 2], [2, 2], [2, 2], [1, 1], [1, 1], [1, 1], [1, 1], [1, 1], [1, 1], [1, 1], [1, 1], [1, 1], [1, 1]], \"num_classes\": 1, \"name\": \"rpn_big\", \"square_targets\": true, \"anchor_ratios\": [1.0], \"positive_overlap\": 0.6, \"feat_stride\": 16}"
  }
}
layer {
  name: "rpn_big_loss_cls"
  type: "SoftmaxWithLoss"
  bottom: "rpn_big_cls_score_reshape"
  bottom: "rpn_big_anchor_target_labels"
  top: "rpn_big_loss_cls"
  loss_weight: 1
  propagate_down: true
  propagate_down: false
  loss_param {
    ignore_label: -1
    normalization: VALID
  }
}
layer {
  name: "rpn_big_output_box"
  type: "Convolution"
  bottom: "rpn_big_conv2"
  top: "rpn_big_output_box"
  param {
    lr_mult: 1
  }
  param {
    lr_mult: 2
  }
  convolution_param {
    num_output: 384
    pad: 1
    kernel_size: 3
    stride: 1
    weight_filler {
      type: "gaussian"
      mean: 0
      std: 0.01
    }
    bias_filler {
      type: "constant"
    }
  }
}
layer {
  name: "rpn_big_output_box_relu"
  type: "ReLU"
  bottom: "rpn_big_output_box"
  top: "rpn_big_output_box"
  relu_param {
    negative_slope: 0
  }
}
layer {
  name: "rpn_big_bbox_pred"
  type: "Convolution"
  bottom: "rpn_big_output_box"
  top: "rpn_big_bbox_pred"
  param {
    lr_mult: 1
  }
  param {
    lr_mult: 2
  }
  convolution_param {
    num_output: 104
    pad: 0
    kernel_size: 3
    stride: 1
    weight_filler {
      type: "gaussian"
      mean: 0
      std: 0.01
    }
    bias_filler {
      type: "constant"
    }
  }
}
layer {
  name: "rpn_big_loss_bbox"
  type: "Python"
  bottom: "rpn_big_bbox_pred"
  bottom: "rpn_big_anchor_target_bbox_targets"
  bottom: "rpn_big_anchor_target_inside_weights"
  bottom: "rpn_big_anchor_target_outside_weights"
  top: "rpn_big_loss_bbox"
  loss_weight: 1
  python_param {
    module: "layers.smooth_l1_loss"
    layer: "SmoothL1LossLayer"
    param_str: "{\"sigma\": 3}"
  }
}
I0412 17:39:07.054764  5056 layer_factory.hpp:77] Creating layer input
I0412 17:39:07.105238  5056 net.cpp:100] Creating Layer input
I0412 17:39:07.115162  5056 net.cpp:408] input -> input_data
I0412 17:39:07.115218  5056 net.cpp:408] input -> input_im_info
I0412 17:39:07.115231  5056 net.cpp:408] input -> input_gt_boxes
I0412 17:39:07.115243  5056 net.cpp:408] input -> input_ignored_boxes
RoiDataLayer: name_to_top: {'ignored_boxes': 3, 'im_info': 1, 'gt_boxes': 2, 'data': 0}
I0412 17:39:12.173609  5056 net.cpp:150] Setting up input
I0412 17:39:12.173660  5056 net.cpp:157] Top shape: 1 3 1000 1500 (4500000)
I0412 17:39:12.173674  5056 net.cpp:157] Top shape: 1 3 (3)
I0412 17:39:12.173686  5056 net.cpp:157] Top shape: 1 5 (5)
I0412 17:39:12.173696  5056 net.cpp:157] Top shape: 1 5 (5)
I0412 17:39:12.173704  5056 net.cpp:165] Memory required for data: 18000052
I0412 17:39:12.173717  5056 layer_factory.hpp:77] Creating layer input_data_input_0_split
I0412 17:39:12.173743  5056 net.cpp:100] Creating Layer input_data_input_0_split
I0412 17:39:12.173753  5056 net.cpp:434] input_data_input_0_split <- input_data
I0412 17:39:12.173773  5056 net.cpp:408] input_data_input_0_split -> input_data_input_0_split_0
I0412 17:39:12.173799  5056 net.cpp:408] input_data_input_0_split -> input_data_input_0_split_1
I0412 17:39:12.173925  5056 net.cpp:150] Setting up input_data_input_0_split
I0412 17:39:12.173954  5056 net.cpp:157] Top shape: 1 3 1000 1500 (4500000)
I0412 17:39:12.173975  5056 net.cpp:157] Top shape: 1 3 1000 1500 (4500000)
I0412 17:39:12.173990  5056 net.cpp:165] Memory required for data: 54000052
I0412 17:39:12.174006  5056 layer_factory.hpp:77] Creating layer conv1_1
I0412 17:39:12.174043  5056 net.cpp:100] Creating Layer conv1_1
I0412 17:39:12.174062  5056 net.cpp:434] conv1_1 <- input_data_input_0_split_0
I0412 17:39:12.174089  5056 net.cpp:408] conv1_1 -> conv1_1
I0412 17:39:12.182497  5056 net.cpp:150] Setting up conv1_1
I0412 17:39:12.182555  5056 net.cpp:157] Top shape: 1 64 1000 1500 (96000000)
I0412 17:39:12.182565  5056 net.cpp:165] Memory required for data: 438000052
I0412 17:39:12.182600  5056 layer_factory.hpp:77] Creating layer relu1_1
I0412 17:39:12.182621  5056 net.cpp:100] Creating Layer relu1_1
I0412 17:39:12.182633  5056 net.cpp:434] relu1_1 <- conv1_1
I0412 17:39:12.182647  5056 net.cpp:395] relu1_1 -> conv1_1 (in-place)
I0412 17:39:12.182670  5056 net.cpp:150] Setting up relu1_1
I0412 17:39:12.182682  5056 net.cpp:157] Top shape: 1 64 1000 1500 (96000000)
I0412 17:39:12.182689  5056 net.cpp:165] Memory required for data: 822000052
I0412 17:39:12.182698  5056 layer_factory.hpp:77] Creating layer conv1_2
I0412 17:39:12.182719  5056 net.cpp:100] Creating Layer conv1_2
I0412 17:39:12.182727  5056 net.cpp:434] conv1_2 <- conv1_1
I0412 17:39:12.182741  5056 net.cpp:408] conv1_2 -> conv1_2
I0412 17:39:12.189738  5056 net.cpp:150] Setting up conv1_2
I0412 17:39:12.189796  5056 net.cpp:157] Top shape: 1 64 1000 1500 (96000000)
I0412 17:39:12.189805  5056 net.cpp:165] Memory required for data: 1206000052
I0412 17:39:12.189838  5056 layer_factory.hpp:77] Creating layer relu1_2
I0412 17:39:12.189858  5056 net.cpp:100] Creating Layer relu1_2
I0412 17:39:12.189868  5056 net.cpp:434] relu1_2 <- conv1_2
I0412 17:39:12.189883  5056 net.cpp:395] relu1_2 -> conv1_2 (in-place)
I0412 17:39:12.189904  5056 net.cpp:150] Setting up relu1_2
I0412 17:39:12.189915  5056 net.cpp:157] Top shape: 1 64 1000 1500 (96000000)
I0412 17:39:12.189923  5056 net.cpp:165] Memory required for data: 1590000052
I0412 17:39:12.189930  5056 layer_factory.hpp:77] Creating layer pool1
I0412 17:39:12.189960  5056 net.cpp:100] Creating Layer pool1
I0412 17:39:12.189978  5056 net.cpp:434] pool1 <- conv1_2
I0412 17:39:12.189990  5056 net.cpp:408] pool1 -> pool1
I0412 17:39:12.190119  5056 net.cpp:150] Setting up pool1
I0412 17:39:12.190137  5056 net.cpp:157] Top shape: 1 64 500 750 (24000000)
I0412 17:39:12.190145  5056 net.cpp:165] Memory required for data: 1686000052
I0412 17:39:12.190152  5056 layer_factory.hpp:77] Creating layer conv2_1
I0412 17:39:12.190176  5056 net.cpp:100] Creating Layer conv2_1
I0412 17:39:12.190184  5056 net.cpp:434] conv2_1 <- pool1
I0412 17:39:12.190201  5056 net.cpp:408] conv2_1 -> conv2_1
I0412 17:39:12.192802  5056 net.cpp:150] Setting up conv2_1
I0412 17:39:12.192844  5056 net.cpp:157] Top shape: 1 128 500 750 (48000000)
I0412 17:39:12.192852  5056 net.cpp:165] Memory required for data: 1878000052
I0412 17:39:12.192884  5056 layer_factory.hpp:77] Creating layer relu2_1
I0412 17:39:12.192917  5056 net.cpp:100] Creating Layer relu2_1
I0412 17:39:12.192934  5056 net.cpp:434] relu2_1 <- conv2_1
I0412 17:39:12.192955  5056 net.cpp:395] relu2_1 -> conv2_1 (in-place)
I0412 17:39:12.192986  5056 net.cpp:150] Setting up relu2_1
I0412 17:39:12.193006  5056 net.cpp:157] Top shape: 1 128 500 750 (48000000)
I0412 17:39:12.193017  5056 net.cpp:165] Memory required for data: 2070000052
I0412 17:39:12.193029  5056 layer_factory.hpp:77] Creating layer conv2_2
I0412 17:39:12.193055  5056 net.cpp:100] Creating Layer conv2_2
I0412 17:39:12.193068  5056 net.cpp:434] conv2_2 <- conv2_1
I0412 17:39:12.193094  5056 net.cpp:408] conv2_2 -> conv2_2
I0412 17:39:12.195914  5056 net.cpp:150] Setting up conv2_2
I0412 17:39:12.195965  5056 net.cpp:157] Top shape: 1 128 500 750 (48000000)
I0412 17:39:12.195973  5056 net.cpp:165] Memory required for data: 2262000052
I0412 17:39:12.195994  5056 layer_factory.hpp:77] Creating layer relu2_2
I0412 17:39:12.196015  5056 net.cpp:100] Creating Layer relu2_2
I0412 17:39:12.196027  5056 net.cpp:434] relu2_2 <- conv2_2
I0412 17:39:12.196040  5056 net.cpp:395] relu2_2 -> conv2_2 (in-place)
I0412 17:39:12.196059  5056 net.cpp:150] Setting up relu2_2
I0412 17:39:12.196070  5056 net.cpp:157] Top shape: 1 128 500 750 (48000000)
I0412 17:39:12.196077  5056 net.cpp:165] Memory required for data: 2454000052
I0412 17:39:12.196084  5056 layer_factory.hpp:77] Creating layer pool2
I0412 17:39:12.196100  5056 net.cpp:100] Creating Layer pool2
I0412 17:39:12.196110  5056 net.cpp:434] pool2 <- conv2_2
I0412 17:39:12.196122  5056 net.cpp:408] pool2 -> pool2
I0412 17:39:12.196223  5056 net.cpp:150] Setting up pool2
I0412 17:39:12.196238  5056 net.cpp:157] Top shape: 1 128 250 375 (12000000)
I0412 17:39:12.196244  5056 net.cpp:165] Memory required for data: 2502000052
I0412 17:39:12.196251  5056 layer_factory.hpp:77] Creating layer conv3_1
I0412 17:39:12.196272  5056 net.cpp:100] Creating Layer conv3_1
I0412 17:39:12.196280  5056 net.cpp:434] conv3_1 <- pool2
I0412 17:39:12.196293  5056 net.cpp:408] conv3_1 -> conv3_1
I0412 17:39:12.198675  5056 net.cpp:150] Setting up conv3_1
I0412 17:39:12.198721  5056 net.cpp:157] Top shape: 1 256 250 375 (24000000)
I0412 17:39:12.198729  5056 net.cpp:165] Memory required for data: 2598000052
I0412 17:39:12.198756  5056 layer_factory.hpp:77] Creating layer relu3_1
I0412 17:39:12.198772  5056 net.cpp:100] Creating Layer relu3_1
I0412 17:39:12.198781  5056 net.cpp:434] relu3_1 <- conv3_1
I0412 17:39:12.198797  5056 net.cpp:395] relu3_1 -> conv3_1 (in-place)
I0412 17:39:12.198815  5056 net.cpp:150] Setting up relu3_1
I0412 17:39:12.198827  5056 net.cpp:157] Top shape: 1 256 250 375 (24000000)
I0412 17:39:12.198832  5056 net.cpp:165] Memory required for data: 2694000052
I0412 17:39:12.198839  5056 layer_factory.hpp:77] Creating layer conv3_2
I0412 17:39:12.198858  5056 net.cpp:100] Creating Layer conv3_2
I0412 17:39:12.198866  5056 net.cpp:434] conv3_2 <- conv3_1
I0412 17:39:12.198878  5056 net.cpp:408] conv3_2 -> conv3_2
I0412 17:39:12.201436  5056 net.cpp:150] Setting up conv3_2
I0412 17:39:12.201486  5056 net.cpp:157] Top shape: 1 256 250 375 (24000000)
I0412 17:39:12.201494  5056 net.cpp:165] Memory required for data: 2790000052
I0412 17:39:12.201512  5056 layer_factory.hpp:77] Creating layer relu3_2
I0412 17:39:12.201529  5056 net.cpp:100] Creating Layer relu3_2
I0412 17:39:12.201563  5056 net.cpp:434] relu3_2 <- conv3_2
I0412 17:39:12.201581  5056 net.cpp:395] relu3_2 -> conv3_2 (in-place)
I0412 17:39:12.201601  5056 net.cpp:150] Setting up relu3_2
I0412 17:39:12.201611  5056 net.cpp:157] Top shape: 1 256 250 375 (24000000)
I0412 17:39:12.201617  5056 net.cpp:165] Memory required for data: 2886000052
I0412 17:39:12.201623  5056 layer_factory.hpp:77] Creating layer conv3_3
I0412 17:39:12.201650  5056 net.cpp:100] Creating Layer conv3_3
I0412 17:39:12.201658  5056 net.cpp:434] conv3_3 <- conv3_2
I0412 17:39:12.201670  5056 net.cpp:408] conv3_3 -> conv3_3
I0412 17:39:12.204957  5056 net.cpp:150] Setting up conv3_3
I0412 17:39:12.205004  5056 net.cpp:157] Top shape: 1 256 250 375 (24000000)
I0412 17:39:12.205011  5056 net.cpp:165] Memory required for data: 2982000052
I0412 17:39:12.205031  5056 layer_factory.hpp:77] Creating layer relu3_3
I0412 17:39:12.205049  5056 net.cpp:100] Creating Layer relu3_3
I0412 17:39:12.205057  5056 net.cpp:434] relu3_3 <- conv3_3
I0412 17:39:12.205073  5056 net.cpp:395] relu3_3 -> conv3_3 (in-place)
I0412 17:39:12.205092  5056 net.cpp:150] Setting up relu3_3
I0412 17:39:12.205102  5056 net.cpp:157] Top shape: 1 256 250 375 (24000000)
I0412 17:39:12.205109  5056 net.cpp:165] Memory required for data: 3078000052
I0412 17:39:12.205116  5056 layer_factory.hpp:77] Creating layer pool3
I0412 17:39:12.205130  5056 net.cpp:100] Creating Layer pool3
I0412 17:39:12.205138  5056 net.cpp:434] pool3 <- conv3_3
I0412 17:39:12.205149  5056 net.cpp:408] pool3 -> pool3
I0412 17:39:12.205230  5056 net.cpp:150] Setting up pool3
I0412 17:39:12.205252  5056 net.cpp:157] Top shape: 1 256 125 188 (6016000)
I0412 17:39:12.205260  5056 net.cpp:165] Memory required for data: 3102064052
I0412 17:39:12.205267  5056 layer_factory.hpp:77] Creating layer conv4_1
I0412 17:39:12.205283  5056 net.cpp:100] Creating Layer conv4_1
I0412 17:39:12.205291  5056 net.cpp:434] conv4_1 <- pool3
I0412 17:39:12.205304  5056 net.cpp:408] conv4_1 -> conv4_1
I0412 17:39:12.210381  5056 net.cpp:150] Setting up conv4_1
I0412 17:39:12.210431  5056 net.cpp:157] Top shape: 1 512 125 188 (12032000)
I0412 17:39:12.210438  5056 net.cpp:165] Memory required for data: 3150192052
I0412 17:39:12.210467  5056 layer_factory.hpp:77] Creating layer relu4_1
I0412 17:39:12.210484  5056 net.cpp:100] Creating Layer relu4_1
I0412 17:39:12.210491  5056 net.cpp:434] relu4_1 <- conv4_1
I0412 17:39:12.210505  5056 net.cpp:395] relu4_1 -> conv4_1 (in-place)
I0412 17:39:12.210523  5056 net.cpp:150] Setting up relu4_1
I0412 17:39:12.210541  5056 net.cpp:157] Top shape: 1 512 125 188 (12032000)
I0412 17:39:12.210548  5056 net.cpp:165] Memory required for data: 3198320052
I0412 17:39:12.210554  5056 layer_factory.hpp:77] Creating layer conv4_2
I0412 17:39:12.210569  5056 net.cpp:100] Creating Layer conv4_2
I0412 17:39:12.210577  5056 net.cpp:434] conv4_2 <- conv4_1
I0412 17:39:12.210589  5056 net.cpp:408] conv4_2 -> conv4_2
I0412 17:39:12.218161  5056 net.cpp:150] Setting up conv4_2
I0412 17:39:12.218207  5056 net.cpp:157] Top shape: 1 512 125 188 (12032000)
I0412 17:39:12.218214  5056 net.cpp:165] Memory required for data: 3246448052
I0412 17:39:12.218240  5056 layer_factory.hpp:77] Creating layer relu4_2
I0412 17:39:12.218260  5056 net.cpp:100] Creating Layer relu4_2
I0412 17:39:12.218268  5056 net.cpp:434] relu4_2 <- conv4_2
I0412 17:39:12.218281  5056 net.cpp:395] relu4_2 -> conv4_2 (in-place)
I0412 17:39:12.218297  5056 net.cpp:150] Setting up relu4_2
I0412 17:39:12.218307  5056 net.cpp:157] Top shape: 1 512 125 188 (12032000)
I0412 17:39:12.218312  5056 net.cpp:165] Memory required for data: 3294576052
I0412 17:39:12.218319  5056 layer_factory.hpp:77] Creating layer conv4_3
I0412 17:39:12.218336  5056 net.cpp:100] Creating Layer conv4_3
I0412 17:39:12.218344  5056 net.cpp:434] conv4_3 <- conv4_2
I0412 17:39:12.218354  5056 net.cpp:408] conv4_3 -> conv4_3
I0412 17:39:12.225791  5056 net.cpp:150] Setting up conv4_3
I0412 17:39:12.225838  5056 net.cpp:157] Top shape: 1 512 125 188 (12032000)
I0412 17:39:12.225845  5056 net.cpp:165] Memory required for data: 3342704052
I0412 17:39:12.225862  5056 layer_factory.hpp:77] Creating layer relu4_3
I0412 17:39:12.225877  5056 net.cpp:100] Creating Layer relu4_3
I0412 17:39:12.225884  5056 net.cpp:434] relu4_3 <- conv4_3
I0412 17:39:12.225898  5056 net.cpp:395] relu4_3 -> conv4_3 (in-place)
I0412 17:39:12.225914  5056 net.cpp:150] Setting up relu4_3
I0412 17:39:12.225924  5056 net.cpp:157] Top shape: 1 512 125 188 (12032000)
I0412 17:39:12.225929  5056 net.cpp:165] Memory required for data: 3390832052
I0412 17:39:12.225935  5056 layer_factory.hpp:77] Creating layer pool4
I0412 17:39:12.225945  5056 net.cpp:100] Creating Layer pool4
I0412 17:39:12.225952  5056 net.cpp:434] pool4 <- conv4_3
I0412 17:39:12.225961  5056 net.cpp:408] pool4 -> pool4
I0412 17:39:12.226028  5056 net.cpp:150] Setting up pool4
I0412 17:39:12.226042  5056 net.cpp:157] Top shape: 1 512 63 94 (3032064)
I0412 17:39:12.226047  5056 net.cpp:165] Memory required for data: 3402960308
I0412 17:39:12.226053  5056 layer_factory.hpp:77] Creating layer conv5_1
I0412 17:39:12.226073  5056 net.cpp:100] Creating Layer conv5_1
I0412 17:39:12.226079  5056 net.cpp:434] conv5_1 <- pool4
I0412 17:39:12.226092  5056 net.cpp:408] conv5_1 -> conv5_1
I0412 17:39:12.233762  5056 net.cpp:150] Setting up conv5_1
I0412 17:39:12.233810  5056 net.cpp:157] Top shape: 1 512 63 94 (3032064)
I0412 17:39:12.233819  5056 net.cpp:165] Memory required for data: 3415088564
I0412 17:39:12.233836  5056 layer_factory.hpp:77] Creating layer relu5_1
I0412 17:39:12.233855  5056 net.cpp:100] Creating Layer relu5_1
I0412 17:39:12.233865  5056 net.cpp:434] relu5_1 <- conv5_1
I0412 17:39:12.233875  5056 net.cpp:395] relu5_1 -> conv5_1 (in-place)
I0412 17:39:12.233892  5056 net.cpp:150] Setting up relu5_1
I0412 17:39:12.233906  5056 net.cpp:157] Top shape: 1 512 63 94 (3032064)
I0412 17:39:12.233911  5056 net.cpp:165] Memory required for data: 3427216820
I0412 17:39:12.233916  5056 layer_factory.hpp:77] Creating layer conv5_2
I0412 17:39:12.233932  5056 net.cpp:100] Creating Layer conv5_2
I0412 17:39:12.233937  5056 net.cpp:434] conv5_2 <- conv5_1
I0412 17:39:12.233950  5056 net.cpp:408] conv5_2 -> conv5_2
I0412 17:39:12.240442  5056 net.cpp:150] Setting up conv5_2
I0412 17:39:12.240483  5056 net.cpp:157] Top shape: 1 512 63 94 (3032064)
I0412 17:39:12.240490  5056 net.cpp:165] Memory required for data: 3439345076
I0412 17:39:12.240506  5056 layer_factory.hpp:77] Creating layer relu5_2
I0412 17:39:12.240525  5056 net.cpp:100] Creating Layer relu5_2
I0412 17:39:12.240533  5056 net.cpp:434] relu5_2 <- conv5_2
I0412 17:39:12.240545  5056 net.cpp:395] relu5_2 -> conv5_2 (in-place)
I0412 17:39:12.240562  5056 net.cpp:150] Setting up relu5_2
I0412 17:39:12.240571  5056 net.cpp:157] Top shape: 1 512 63 94 (3032064)
I0412 17:39:12.240577  5056 net.cpp:165] Memory required for data: 3451473332
I0412 17:39:12.240583  5056 layer_factory.hpp:77] Creating layer conv5_3
I0412 17:39:12.240600  5056 net.cpp:100] Creating Layer conv5_3
I0412 17:39:12.240607  5056 net.cpp:434] conv5_3 <- conv5_2
I0412 17:39:12.240619  5056 net.cpp:408] conv5_3 -> conv5_3
I0412 17:39:12.248034  5056 net.cpp:150] Setting up conv5_3
I0412 17:39:12.248085  5056 net.cpp:157] Top shape: 1 512 63 94 (3032064)
I0412 17:39:12.248092  5056 net.cpp:165] Memory required for data: 3463601588
I0412 17:39:12.248108  5056 layer_factory.hpp:77] Creating layer relu5_3
I0412 17:39:12.248123  5056 net.cpp:100] Creating Layer relu5_3
I0412 17:39:12.248131  5056 net.cpp:434] relu5_3 <- conv5_3
I0412 17:39:12.248145  5056 net.cpp:395] relu5_3 -> conv5_3 (in-place)
I0412 17:39:12.248162  5056 net.cpp:150] Setting up relu5_3
I0412 17:39:12.248170  5056 net.cpp:157] Top shape: 1 512 63 94 (3032064)
I0412 17:39:12.248177  5056 net.cpp:165] Memory required for data: 3475729844
I0412 17:39:12.248181  5056 layer_factory.hpp:77] Creating layer conv5_3_relu5_3_0_split
I0412 17:39:12.248200  5056 net.cpp:100] Creating Layer conv5_3_relu5_3_0_split
I0412 17:39:12.248208  5056 net.cpp:434] conv5_3_relu5_3_0_split <- conv5_3
I0412 17:39:12.248217  5056 net.cpp:408] conv5_3_relu5_3_0_split -> conv5_3_relu5_3_0_split_0
I0412 17:39:12.248230  5056 net.cpp:408] conv5_3_relu5_3_0_split -> conv5_3_relu5_3_0_split_1
I0412 17:39:12.248297  5056 net.cpp:150] Setting up conv5_3_relu5_3_0_split
I0412 17:39:12.248313  5056 net.cpp:157] Top shape: 1 512 63 94 (3032064)
I0412 17:39:12.248320  5056 net.cpp:157] Top shape: 1 512 63 94 (3032064)
I0412 17:39:12.248325  5056 net.cpp:165] Memory required for data: 3499986356
I0412 17:39:12.248332  5056 layer_factory.hpp:77] Creating layer fc6
I0412 17:39:12.248345  5056 net.cpp:100] Creating Layer fc6
I0412 17:39:12.248352  5056 net.cpp:434] fc6 <- conv5_3_relu5_3_0_split_0
I0412 17:39:12.248360  5056 net.cpp:408] fc6 -> fc6
F0412 17:39:12.248405  5056 blob.cpp:186] Check failed: data_ 
…
