…
I0413 18:33:56.001840 13542 solver.cpp:48] Initializing solver from parameters: 
base_lr: 0.001
display: 20
lr_policy: "multistep"
gamma: 0.1
momentum: 0.9
weight_decay: 0.0005
snapshot: 0
snapshot_prefix: "faces_example"
net_param {
  name: "GeneratedModel_13_04_2017_18_33"
  layer {
    name: "input"
    type: "Python"
    top: "input_data"
    top: "input_im_info"
    top: "input_gt_boxes"
    top: "input_ignored_boxes"
    python_param {
      module: "layers.roi_data_layer"
      layer: "RoIDataLayer"
      param_str: "{\"num_classes\": 2}"
    }
  }
  layer {
    name: "conv1_1"
    type: "Convolution"
    bottom: "input_data"
    top: "conv1_1"
    param {
      lr_mult: 0
      decay_mult: 0
    }
    param {
      lr_mult: 0
      decay_mult: 0
    }
    convolution_param {
      num_output: 64
      pad: 1
      kernel_size: 3
    }
  }
  layer {
    name: "relu1_1"
    type: "ReLU"
    bottom: "conv1_1"
    top: "conv1_1"
  }
  layer {
    name: "conv1_2"
    type: "Convolution"
    bottom: "conv1_1"
    top: "conv1_2"
    param {
      lr_mult: 0
      decay_mult: 0
    }
    param {
      lr_mult: 0
      decay_mult: 0
    }
    convolution_param {
      num_output: 64
      pad: 1
      kernel_size: 3
    }
  }
  layer {
    name: "relu1_2"
    type: "ReLU"
    bottom: "conv1_2"
    top: "conv1_2"
  }
  layer {
    name: "pool1"
    type: "Pooling"
    bottom: "conv1_2"
    top: "pool1"
    pooling_param {
      pool: MAX
      kernel_size: 2
      stride: 2
    }
  }
  layer {
    name: "conv2_1"
    type: "Convolution"
    bottom: "pool1"
    top: "conv2_1"
    param {
      lr_mult: 0
      decay_mult: 0
    }
    param {
      lr_mult: 0
      decay_mult: 0
    }
    convolution_param {
      num_output: 128
      pad: 1
      kernel_size: 3
    }
  }
  layer {
    name: "relu2_1"
    type: "ReLU"
    bottom: "conv2_1"
    top: "conv2_1"
  }
  layer {
    name: "conv2_2"
    type: "Convolution"
    bottom: "conv2_1"
    top: "conv2_2"
    param {
      lr_mult: 0
      decay_mult: 0
    }
    param {
      lr_mult: 0
      decay_mult: 0
    }
    convolution_param {
      num_output: 128
      pad: 1
      kernel_size: 3
    }
  }
  layer {
    name: "relu2_2"
    type: "ReLU"
    bottom: "conv2_2"
    top: "conv2_2"
  }
  layer {
    name: "pool2"
    type: "Pooling"
    bottom: "conv2_2"
    top: "pool2"
    pooling_param {
      pool: MAX
      kernel_size: 2
      stride: 2
    }
  }
  layer {
    name: "conv3_1"
    type: "Convolution"
    bottom: "pool2"
    top: "conv3_1"
    param {
      lr_mult: 1
    }
    param {
      lr_mult: 2
    }
    convolution_param {
      num_output: 256
      pad: 1
      kernel_size: 3
    }
  }
  layer {
    name: "relu3_1"
    type: "ReLU"
    bottom: "conv3_1"
    top: "conv3_1"
  }
  layer {
    name: "conv3_2"
    type: "Convolution"
    bottom: "conv3_1"
    top: "conv3_2"
    param {
      lr_mult: 1
    }
    param {
      lr_mult: 2
    }
    convolution_param {
      num_output: 256
      pad: 1
      kernel_size: 3
    }
  }
  layer {
    name: "relu3_2"
    type: "ReLU"
    bottom: "conv3_2"
    top: "conv3_2"
  }
  layer {
    name: "conv3_3"
    type: "Convolution"
    bottom: "conv3_2"
    top: "conv3_3"
    param {
      lr_mult: 1
    }
    param {
      lr_mult: 2
    }
    convolution_param {
      num_output: 256
      pad: 1
      kernel_size: 3
    }
  }
  layer {
    name: "relu3_3"
    type: "ReLU"
    bottom: "conv3_3"
    top: "conv3_3"
  }
  layer {
    name: "pool3"
    type: "Pooling"
    bottom: "conv3_3"
    top: "pool3"
    pooling_param {
      pool: MAX
      kernel_size: 2
      stride: 2
    }
  }
  layer {
    name: "conv4_1"
    type: "Convolution"
    bottom: "pool3"
    top: "conv4_1"
    param {
      lr_mult: 1
    }
    param {
      lr_mult: 2
    }
    convolution_param {
      num_output: 512
      pad: 1
      kernel_size: 3
    }
  }
  layer {
    name: "relu4_1"
    type: "ReLU"
    bottom: "conv4_1"
    top: "conv4_1"
  }
  layer {
    name: "conv4_2"
    type: "Convolution"
    bottom: "conv4_1"
    top: "conv4_2"
    param {
      lr_mult: 1
    }
    param {
      lr_mult: 2
    }
    convolution_param {
      num_output: 512
      pad: 1
      kernel_size: 3
    }
  }
  layer {
    name: "relu4_2"
    type: "ReLU"
    bottom: "conv4_2"
    top: "conv4_2"
  }
  layer {
    name: "conv4_3"
    type: "Convolution"
    bottom: "conv4_2"
    top: "conv4_3"
    param {
      lr_mult: 1
    }
    param {
      lr_mult: 2
    }
    convolution_param {
      num_output: 512
      pad: 1
      kernel_size: 3
    }
  }
  layer {
    name: "relu4_3"
    type: "ReLU"
    bottom: "conv4_3"
    top: "conv4_3"
  }
  layer {
    name: "pool4"
    type: "Pooling"
    bottom: "conv4_3"
    top: "pool4"
    pooling_param {
      pool: MAX
      kernel_size: 2
      stride: 2
    }
  }
  layer {
    name: "conv5_1"
    type: "Convolution"
    bottom: "pool4"
    top: "conv5_1"
    param {
      lr_mult: 1
    }
    param {
      lr_mult: 2
    }
    convolution_param {
      num_output: 512
      pad: 1
      kernel_size: 3
    }
  }
  layer {
    name: "relu5_1"
    type: "ReLU"
    bottom: "conv5_1"
    top: "conv5_1"
  }
  layer {
    name: "conv5_2"
    type: "Convolution"
    bottom: "conv5_1"
    top: "conv5_2"
    param {
      lr_mult: 1
    }
    param {
      lr_mult: 2
    }
    convolution_param {
      num_output: 512
      pad: 1
      kernel_size: 3
    }
  }
  layer {
    name: "relu5_2"
    type: "ReLU"
    bottom: "conv5_2"
    top: "conv5_2"
  }
  layer {
    name: "conv5_3"
    type: "Convolution"
    bottom: "conv5_2"
    top: "conv5_3"
    param {
      lr_mult: 1
    }
    param {
      lr_mult: 2
    }
    convolution_param {
      num_output: 512
      pad: 1
      kernel_size: 3
    }
  }
  layer {
    name: "relu5_3"
    type: "ReLU"
    bottom: "conv5_3"
    top: "conv5_3"
  }
  layer {
    name: "rpn_big_conv1"
    type: "Convolution"
    bottom: "conv5_3"
    top: "rpn_big_conv1"
    param {
      lr_mult: 1
    }
    param {
      lr_mult: 2
    }
    convolution_param {
      num_output: 512
      pad: 1
      kernel_size: 3
      stride: 1
      weight_filler {
        type: "gaussian"
        mean: 0
        std: 0.01
      }
      bias_filler {
        type: "constant"
      }
    }
  }
  layer {
    name: "rpn_big_conv1_relu"
    type: "ReLU"
    bottom: "rpn_big_conv1"
    top: "rpn_big_conv1"
    relu_param {
      negative_slope: 0
    }
  }
  layer {
    name: "rpn_big_conv2"
    type: "Convolution"
    bottom: "rpn_big_conv1"
    top: "rpn_big_conv2"
    param {
      lr_mult: 1
    }
    param {
      lr_mult: 2
    }
    convolution_param {
      num_output: 512
      pad: 1
      kernel_size: 3
      stride: 1
      weight_filler {
        type: "gaussian"
        mean: 0
        std: 0.01
      }
      bias_filler {
        type: "constant"
      }
    }
  }
  layer {
    name: "rpn_big_conv2_relu"
    type: "ReLU"
    bottom: "rpn_big_conv2"
    top: "rpn_big_conv2"
    relu_param {
      negative_slope: 0
    }
  }
  layer {
    name: "rpn_big_conv2_drop"
    type: "Dropout"
    bottom: "rpn_big_conv2"
    top: "rpn_big_conv2"
    dropout_param {
      dropout_ratio: 0.3
    }
  }
  layer {
    name: "rpn_big_output_cls"
    type: "Convolution"
    bottom: "rpn_big_conv2"
    top: "rpn_big_output_cls"
    param {
      lr_mult: 1
    }
    param {
      lr_mult: 2
    }
    convolution_param {
      num_output: 384
      pad: 1
      kernel_size: 3
      stride: 1
      weight_filler {
        type: "gaussian"
        mean: 0
        std: 0.01
      }
      bias_filler {
        type: "constant"
      }
    }
  }
  layer {
    name: "rpn_big_output_cls_relu"
    type: "ReLU"
    bottom: "rpn_big_output_cls"
    top: "rpn_big_output_cls"
    relu_param {
      negative_slope: 0
    }
  }
  layer {
    name: "rpn_big_cls_score"
    type: "Convolution"
    bottom: "rpn_big_output_cls"
    top: "rpn_big_cls_score"
    param {
      lr_mult: 1
    }
    param {
      lr_mult: 2
    }
    convolution_param {
      num_output: 52
      pad: 0
      kernel_size: 3
      stride: 1
      weight_filler {
        type: "gaussian"
        mean: 0
        std: 0.01
      }
      bias_filler {
        type: "constant"
      }
    }
  }
  layer {
    name: "rpn_big_cls_score_reshape"
    type: "Reshape"
    bottom: "rpn_big_cls_score"
    top: "rpn_big_cls_score_reshape"
    reshape_param {
      shape {
        dim: 0
        dim: 2
        dim: -1
        dim: 0
      }
    }
  }
  layer {
    name: "rpn_big_cls_prob"
    type: "Softmax"
    bottom: "rpn_big_cls_score_reshape"
    top: "rpn_big_cls_prob"
  }
  layer {
    name: "rpn_big_cls_prob_reshape"
    type: "Reshape"
    bottom: "rpn_big_cls_prob"
    top: "rpn_big_cls_prob_reshape"
    reshape_param {
      shape {
        dim: 0
        dim: 52
        dim: -1
        dim: 0
      }
    }
  }
  layer {
    name: "rpn_big_anchor_target"
    type: "Python"
    bottom: "rpn_big_cls_score"
    bottom: "input_gt_boxes"
    bottom: "input_ignored_boxes"
    bottom: "input_im_info"
    bottom: "input_data"
    bottom: "rpn_big_cls_prob_reshape"
    top: "rpn_big_anchor_target_labels"
    top: "rpn_big_anchor_target_bbox_targets"
    top: "rpn_big_anchor_target_inside_weights"
    top: "rpn_big_anchor_target_outside_weights"
    python_param {
      module: "rpn.anchor_target_layer"
      layer: "AnchorTargetLayer"
      param_str: "{\"positive_overlap\": 0.6, \"num_classes\": 1, \"name\": \"rpn_big\", \"negative_overlap\": 0.4, \"anchor_scales\": [2.5, 3.025, 3.66025, 4.4289024999999995, 5.358972025, 6.484356150249999, 7.846070941802498, 9.493745839581022, 11.487432465893036, 13.899793283730574, 16.818749873313998, 20.350687346709933, 24.62433168951902, 29.795441344318014], \"fg_fraction\": 0.5, \"square_targets\": true, \"batchsize\": 256, \"tn_fraction\": 0.2, \"anchor_shift_num_xy\": [[2, 2], [2, 2], [2, 2], [2, 2], [1, 1], [1, 1], [1, 1], [1, 1], [1, 1], [1, 1], [1, 1], [1, 1], [1, 1], [1, 1]], \"feat_stride\": 16, \"anchor_ratios\": [1.0]}"
    }
  }
  layer {
    name: "rpn_big_loss_cls"
    type: "SoftmaxWithLoss"
    bottom: "rpn_big_cls_score_reshape"
    bottom: "rpn_big_anchor_target_labels"
    top: "rpn_big_loss_cls"
    loss_weight: 1
    propagate_down: true
    propagate_down: false
    loss_param {
      ignore_label: -1
      normalization: VALID
    }
  }
  layer {
    name: "rpn_big_output_box"
    type: "Convolution"
    bottom: "rpn_big_conv2"
    top: "rpn_big_output_box"
    param {
      lr_mult: 1
    }
    param {
      lr_mult: 2
    }
    convolution_param {
      num_output: 384
      pad: 1
      kernel_size: 3
      stride: 1
      weight_filler {
        type: "gaussian"
        mean: 0
        std: 0.01
      }
      bias_filler {
        type: "constant"
      }
    }
  }
  layer {
    name: "rpn_big_output_box_relu"
    type: "ReLU"
    bottom: "rpn_big_output_box"
    top: "rpn_big_output_box"
    relu_param {
      negative_slope: 0
    }
  }
  layer {
    name: "rpn_big_bbox_pred"
    type: "Convolution"
    bottom: "rpn_big_output_box"
    top: "rpn_big_bbox_pred"
    param {
      lr_mult: 1
    }
    param {
      lr_mult: 2
    }
    convolution_param {
      num_output: 104
      pad: 0
      kernel_size: 3
      stride: 1
      weight_filler {
        type: "gaussian"
        mean: 0
        std: 0.01
      }
      bias_filler {
        type: "constant"
      }
    }
  }
  layer {
    name: "rpn_big_loss_bbox"
    type: "Python"
    bottom: "rpn_big_bbox_pred"
    bottom: "rpn_big_anchor_target_bbox_targets"
    bottom: "rpn_big_anchor_target_inside_weights"
    bottom: "rpn_big_anchor_target_outside_weights"
    top: "rpn_big_loss_bbox"
    loss_weight: 1
    python_param {
      module: "layers.smooth_l1_loss"
      layer: "SmoothL1LossLayer"
      param_str: "{\"sigma\": 3}"
    }
  }
  layer {
    name: "proposal"
    type: "Python"
    bottom: "rpn_big_cls_prob_reshape"
    bottom: "rpn_big_bbox_pred"
    bottom: "input_im_info"
    top: "rpn_rois"
    python_param {
      module: "rpn.proposal_layer"
      layer: "ProposalLayer"
      param_str: "{\"anchor_shift_num_xy\": [[2, 2], [2, 2], [2, 2], [2, 2], [1, 1], [1, 1], [1, 1], [1, 1], [1, 1], [1, 1], [1, 1], [1, 1], [1, 1], [1, 1]], \"feat_stride\": 16, \"num_classes\": 1, \"anchor_scales\": [2.5, 3.025, 3.66025, 4.4289024999999995, 5.358972025, 6.484356150249999, 7.846070941802498, 9.493745839581022, 11.487432465893036, 13.899793283730574, 16.818749873313998, 20.350687346709933, 24.62433168951902, 29.795441344318014], \"square_targets\": true, \"name\": \"rpn_big\", \"batchsize\": 256, \"anchor_ratios\": [1.0]}"
    }
  }
  layer {
    name: "roi-data"
    type: "Python"
    bottom: "rpn_rois"
    bottom: "input_gt_boxes"
    top: "rois"
    top: "labels"
    top: "bbox_targets"
    top: "bbox_inside_weights"
    top: "bbox_outside_weights"
    top: "pid_label"
    python_param {
      module: "rpn.proposal_target_layer"
      layer: "ProposalTargetLayer"
      param_str: "{\"num_classes\": 2, \"bg_aux_label\": 5532}"
    }
  }
  layer {
    name: "roi-pool"
    type: "ROIPooling"
    bottom: "conv5_3"
    bottom: "rois"
    top: "roi-pool"
    roi_pooling_param {
      pooled_h: 7
      pooled_w: 7
      spatial_scale: 0.0625
    }
  }
  layer {
    name: "fc6"
    type: "InnerProduct"
    bottom: "roi-pool"
    top: "fc6"
    param {
      lr_mult: 1
    }
    param {
      lr_mult: 2
    }
    inner_product_param {
      num_output: 4096
    }
  }
  layer {
    name: "relu6"
    type: "ReLU"
    bottom: "fc6"
    top: "fc6"
  }
  layer {
    name: "drop6"
    type: "Dropout"
    bottom: "fc6"
    top: "fc6"
    dropout_param {
      dropout_ratio: 0.5
    }
  }
  layer {
    name: "fc7"
    type: "InnerProduct"
    bottom: "fc6"
    top: "fc7"
    param {
      lr_mult: 1
    }
    param {
      lr_mult: 2
    }
    inner_product_param {
      num_output: 4096
    }
  }
  layer {
    name: "relu7"
    type: "ReLU"
    bottom: "fc7"
    top: "fc7"
  }
  layer {
    name: "drop7"
    type: "Dropout"
    bottom: "fc7"
    top: "fc7"
    dropout_param {
      dropout_ratio: 0.5
    }
  }
  layer {
    name: "bbox_pred"
    type: "InnerProduct"
    bottom: "fc7"
    top: "bbox_pred"
    param {
      lr_mult: 1
    }
    param {
      lr_mult: 2
    }
    inner_product_param {
      num_output: 8
      weight_filler {
        type: "gaussian"
        std: 0.001
      }
      bias_filler {
        type: "constant"
        value: 0
      }
    }
  }
  layer {
    name: "loss_bbox"
    type: "SmoothL1Loss"
    bottom: "bbox_pred"
    bottom: "bbox_targets"
    bottom: "bbox_inside_weights"
    bottom: "bbox_outside_weights"
    top: "loss_bbox"
    loss_weight: 1
  }
  layer {
    name: "feat"
    type: "InnerProduct"
    bottom: "fc7"
    top: "feat"
    param {
      lr_mult: 1
      decay_mult: 1
    }
    param {
      lr_mult: 2
      decay_mult: 0
    }
    inner_product_param {
      num_output: 256
      weight_filler {
        type: "gaussian"
        std: 0.01
      }
      bias_filler {
        type: "constant"
        value: 0
      }
    }
  }
  layer {
    name: "relu8"
    type: "ReLU"
    bottom: "feat"
    top: "feat"
  }
  layer {
    name: "drop8"
    type: "Dropout"
    bottom: "feat"
    top: "feat"
    dropout_param {
      dropout_ratio: 0.5
    }
  }
  layer {
    name: "pid_score"
    type: "InnerProduct"
    bottom: "feat"
    top: "pid_score"
    param {
      lr_mult: 1
      decay_mult: 1
    }
    param {
      lr_mult: 2
      decay_mult: 0
    }
    inner_product_param {
      num_output: 5533
      weight_filler {
        type: "gaussian"
        std: 0.001
      }
      bias_filler {
        type: "constant"
        value: 0
      }
    }
  }
  layer {
    name: "pid_accuracy"
    type: "Accuracy"
    bottom: "pid_score"
    bottom: "pid_label"
    top: "pid_accuracy"
    accuracy_param {
      ignore_label: -1
    }
  }
}
average_loss: 100
stepvalue: 70000
stepvalue: 120000
iter_size: 2
I0413 18:33:56.001932 13542 solver.cpp:86] Creating training net specified in net_param.
I0413 18:33:56.002503 13542 net.cpp:58] Initializing net from parameters: 
name: "GeneratedModel_13_04_2017_18_33"
state {
  phase: TRAIN
}
layer {
  name: "input"
  type: "Python"
  top: "input_data"
  top: "input_im_info"
  top: "input_gt_boxes"
  top: "input_ignored_boxes"
  python_param {
    module: "layers.roi_data_layer"
    layer: "RoIDataLayer"
    param_str: "{\"num_classes\": 2}"
  }
}
layer {
  name: "conv1_1"
  type: "Convolution"
  bottom: "input_data"
  top: "conv1_1"
  param {
    lr_mult: 0
    decay_mult: 0
  }
  param {
    lr_mult: 0
    decay_mult: 0
  }
  convolution_param {
    num_output: 64
    pad: 1
    kernel_size: 3
  }
}
layer {
  name: "relu1_1"
  type: "ReLU"
  bottom: "conv1_1"
  top: "conv1_1"
}
layer {
  name: "conv1_2"
  type: "Convolution"
  bottom: "conv1_1"
  top: "conv1_2"
  param {
    lr_mult: 0
    decay_mult: 0
  }
  param {
    lr_mult: 0
    decay_mult: 0
  }
  convolution_param {
    num_output: 64
    pad: 1
    kernel_size: 3
  }
}
layer {
  name: "relu1_2"
  type: "ReLU"
  bottom: "conv1_2"
  top: "conv1_2"
}
layer {
  name: "pool1"
  type: "Pooling"
  bottom: "conv1_2"
  top: "pool1"
  pooling_param {
    pool: MAX
    kernel_size: 2
    stride: 2
  }
}
layer {
  name: "conv2_1"
  type: "Convolution"
  bottom: "pool1"
  top: "conv2_1"
  param {
    lr_mult: 0
    decay_mult: 0
  }
  param {
    lr_mult: 0
    decay_mult: 0
  }
  convolution_param {
    num_output: 128
    pad: 1
    kernel_size: 3
  }
}
layer {
  name: "relu2_1"
  type: "ReLU"
  bottom: "conv2_1"
  top: "conv2_1"
}
layer {
  name: "conv2_2"
  type: "Convolution"
  bottom: "conv2_1"
  top: "conv2_2"
  param {
    lr_mult: 0
    decay_mult: 0
  }
  param {
    lr_mult: 0
    decay_mult: 0
  }
  convolution_param {
    num_output: 128
    pad: 1
    kernel_size: 3
  }
}
layer {
  name: "relu2_2"
  type: "ReLU"
  bottom: "conv2_2"
  top: "conv2_2"
}
layer {
  name: "pool2"
  type: "Pooling"
  bottom: "conv2_2"
  top: "pool2"
  pooling_param {
    pool: MAX
    kernel_size: 2
    stride: 2
  }
}
layer {
  name: "conv3_1"
  type: "Convolution"
  bottom: "pool2"
  top: "conv3_1"
  param {
    lr_mult: 1
  }
  param {
    lr_mult: 2
  }
  convolution_param {
    num_output: 256
    pad: 1
    kernel_size: 3
  }
}
layer {
  name: "relu3_1"
  type: "ReLU"
  bottom: "conv3_1"
  top: "conv3_1"
}
layer {
  name: "conv3_2"
  type: "Convolution"
  bottom: "conv3_1"
  top: "conv3_2"
  param {
    lr_mult: 1
  }
  param {
    lr_mult: 2
  }
  convolution_param {
    num_output: 256
    pad: 1
    kernel_size: 3
  }
}
layer {
  name: "relu3_2"
  type: "ReLU"
  bottom: "conv3_2"
  top: "conv3_2"
}
layer {
  name: "conv3_3"
  type: "Convolution"
  bottom: "conv3_2"
  top: "conv3_3"
  param {
    lr_mult: 1
  }
  param {
    lr_mult: 2
  }
  convolution_param {
    num_output: 256
    pad: 1
    kernel_size: 3
  }
}
layer {
  name: "relu3_3"
  type: "ReLU"
  bottom: "conv3_3"
  top: "conv3_3"
}
layer {
  name: "pool3"
  type: "Pooling"
  bottom: "conv3_3"
  top: "pool3"
  pooling_param {
    pool: MAX
    kernel_size: 2
    stride: 2
  }
}
layer {
  name: "conv4_1"
  type: "Convolution"
  bottom: "pool3"
  top: "conv4_1"
  param {
    lr_mult: 1
  }
  param {
    lr_mult: 2
  }
  convolution_param {
    num_output: 512
    pad: 1
    kernel_size: 3
  }
}
layer {
  name: "relu4_1"
  type: "ReLU"
  bottom: "conv4_1"
  top: "conv4_1"
}
layer {
  name: "conv4_2"
  type: "Convolution"
  bottom: "conv4_1"
  top: "conv4_2"
  param {
    lr_mult: 1
  }
  param {
    lr_mult: 2
  }
  convolution_param {
    num_output: 512
    pad: 1
    kernel_size: 3
  }
}
layer {
  name: "relu4_2"
  type: "ReLU"
  bottom: "conv4_2"
  top: "conv4_2"
}
layer {
  name: "conv4_3"
  type: "Convolution"
  bottom: "conv4_2"
  top: "conv4_3"
  param {
    lr_mult: 1
  }
  param {
    lr_mult: 2
  }
  convolution_param {
    num_output: 512
    pad: 1
    kernel_size: 3
  }
}
layer {
  name: "relu4_3"
  type: "ReLU"
  bottom: "conv4_3"
  top: "conv4_3"
}
layer {
  name: "pool4"
  type: "Pooling"
  bottom: "conv4_3"
  top: "pool4"
  pooling_param {
    pool: MAX
    kernel_size: 2
    stride: 2
  }
}
layer {
  name: "conv5_1"
  type: "Convolution"
  bottom: "pool4"
  top: "conv5_1"
  param {
    lr_mult: 1
  }
  param {
    lr_mult: 2
  }
  convolution_param {
    num_output: 512
    pad: 1
    kernel_size: 3
  }
}
layer {
  name: "relu5_1"
  type: "ReLU"
  bottom: "conv5_1"
  top: "conv5_1"
}
layer {
  name: "conv5_2"
  type: "Convolution"
  bottom: "conv5_1"
  top: "conv5_2"
  param {
    lr_mult: 1
  }
  param {
    lr_mult: 2
  }
  convolution_param {
    num_output: 512
    pad: 1
    kernel_size: 3
  }
}
layer {
  name: "relu5_2"
  type: "ReLU"
  bottom: "conv5_2"
  top: "conv5_2"
}
layer {
  name: "conv5_3"
  type: "Convolution"
  bottom: "conv5_2"
  top: "conv5_3"
  param {
    lr_mult: 1
  }
  param {
    lr_mult: 2
  }
  convolution_param {
    num_output: 512
    pad: 1
    kernel_size: 3
  }
}
layer {
  name: "relu5_3"
  type: "ReLU"
  bottom: "conv5_3"
  top: "conv5_3"
}
layer {
  name: "rpn_big_conv1"
  type: "Convolution"
  bottom: "conv5_3"
  top: "rpn_big_conv1"
  param {
    lr_mult: 1
  }
  param {
    lr_mult: 2
  }
  convolution_param {
    num_output: 512
    pad: 1
    kernel_size: 3
    stride: 1
    weight_filler {
      type: "gaussian"
      mean: 0
      std: 0.01
    }
    bias_filler {
      type: "constant"
    }
  }
}
layer {
  name: "rpn_big_conv1_relu"
  type: "ReLU"
  bottom: "rpn_big_conv1"
  top: "rpn_big_conv1"
  relu_param {
    negative_slope: 0
  }
}
layer {
  name: "rpn_big_conv2"
  type: "Convolution"
  bottom: "rpn_big_conv1"
  top: "rpn_big_conv2"
  param {
    lr_mult: 1
  }
  param {
    lr_mult: 2
  }
  convolution_param {
    num_output: 512
    pad: 1
    kernel_size: 3
    stride: 1
    weight_filler {
      type: "gaussian"
      mean: 0
      std: 0.01
    }
    bias_filler {
      type: "constant"
    }
  }
}
layer {
  name: "rpn_big_conv2_relu"
  type: "ReLU"
  bottom: "rpn_big_conv2"
  top: "rpn_big_conv2"
  relu_param {
    negative_slope: 0
  }
}
layer {
  name: "rpn_big_conv2_drop"
  type: "Dropout"
  bottom: "rpn_big_conv2"
  top: "rpn_big_conv2"
  dropout_param {
    dropout_ratio: 0.3
  }
}
layer {
  name: "rpn_big_output_cls"
  type: "Convolution"
  bottom: "rpn_big_conv2"
  top: "rpn_big_output_cls"
  param {
    lr_mult: 1
  }
  param {
    lr_mult: 2
  }
  convolution_param {
    num_output: 384
    pad: 1
    kernel_size: 3
    stride: 1
    weight_filler {
      type: "gaussian"
      mean: 0
      std: 0.01
    }
    bias_filler {
      type: "constant"
    }
  }
}
layer {
  name: "rpn_big_output_cls_relu"
  type: "ReLU"
  bottom: "rpn_big_output_cls"
  top: "rpn_big_output_cls"
  relu_param {
    negative_slope: 0
  }
}
layer {
  name: "rpn_big_cls_score"
  type: "Convolution"
  bottom: "rpn_big_output_cls"
  top: "rpn_big_cls_score"
  param {
    lr_mult: 1
  }
  param {
    lr_mult: 2
  }
  convolution_param {
    num_output: 52
    pad: 0
    kernel_size: 3
    stride: 1
    weight_filler {
      type: "gaussian"
      mean: 0
      std: 0.01
    }
    bias_filler {
      type: "constant"
    }
  }
}
layer {
  name: "rpn_big_cls_score_reshape"
  type: "Reshape"
  bottom: "rpn_big_cls_score"
  top: "rpn_big_cls_score_reshape"
  reshape_param {
    shape {
      dim: 0
      dim: 2
      dim: -1
      dim: 0
    }
  }
}
layer {
  name: "rpn_big_cls_prob"
  type: "Softmax"
  bottom: "rpn_big_cls_score_reshape"
  top: "rpn_big_cls_prob"
}
layer {
  name: "rpn_big_cls_prob_reshape"
  type: "Reshape"
  bottom: "rpn_big_cls_prob"
  top: "rpn_big_cls_prob_reshape"
  reshape_param {
    shape {
      dim: 0
      dim: 52
      dim: -1
      dim: 0
    }
  }
}
layer {
  name: "rpn_big_anchor_target"
  type: "Python"
  bottom: "rpn_big_cls_score"
  bottom: "input_gt_boxes"
  bottom: "input_ignored_boxes"
  bottom: "input_im_info"
  bottom: "input_data"
  bottom: "rpn_big_cls_prob_reshape"
  top: "rpn_big_anchor_target_labels"
  top: "rpn_big_anchor_target_bbox_targets"
  top: "rpn_big_anchor_target_inside_weights"
  top: "rpn_big_anchor_target_outside_weights"
  python_param {
    module: "rpn.anchor_target_layer"
    layer: "AnchorTargetLayer"
    param_str: "{\"positive_overlap\": 0.6, \"num_classes\": 1, \"name\": \"rpn_big\", \"negative_overlap\": 0.4, \"anchor_scales\": [2.5, 3.025, 3.66025, 4.4289024999999995, 5.358972025, 6.484356150249999, 7.846070941802498, 9.493745839581022, 11.487432465893036, 13.899793283730574, 16.818749873313998, 20.350687346709933, 24.62433168951902, 29.795441344318014], \"fg_fraction\": 0.5, \"square_targets\": true, \"batchsize\": 256, \"tn_fraction\": 0.2, \"anchor_shift_num_xy\": [[2, 2], [2, 2], [2, 2], [2, 2], [1, 1], [1, 1], [1, 1], [1, 1], [1, 1], [1, 1], [1, 1], [1, 1], [1, 1], [1, 1]], \"feat_stride\": 16, \"anchor_ratios\": [1.0]}"
  }
}
layer {
  name: "rpn_big_loss_cls"
  type: "SoftmaxWithLoss"
  bottom: "rpn_big_cls_score_reshape"
  bottom: "rpn_big_anchor_target_labels"
  top: "rpn_big_loss_cls"
  loss_weight: 1
  propagate_down: true
  propagate_down: false
  loss_param {
    ignore_label: -1
    normalization: VALID
  }
}
layer {
  name: "rpn_big_output_box"
  type: "Convolution"
  bottom: "rpn_big_conv2"
  top: "rpn_big_output_box"
  param {
    lr_mult: 1
  }
  param {
    lr_mult: 2
  }
  convolution_param {
    num_output: 384
    pad: 1
    kernel_size: 3
    stride: 1
    weight_filler {
      type: "gaussian"
      mean: 0
      std: 0.01
    }
    bias_filler {
      type: "constant"
    }
  }
}
layer {
  name: "rpn_big_output_box_relu"
  type: "ReLU"
  bottom: "rpn_big_output_box"
  top: "rpn_big_output_box"
  relu_param {
    negative_slope: 0
  }
}
layer {
  name: "rpn_big_bbox_pred"
  type: "Convolution"
  bottom: "rpn_big_output_box"
  top: "rpn_big_bbox_pred"
  param {
    lr_mult: 1
  }
  param {
    lr_mult: 2
  }
  convolution_param {
    num_output: 104
    pad: 0
    kernel_size: 3
    stride: 1
    weight_filler {
      type: "gaussian"
      mean: 0
      std: 0.01
    }
    bias_filler {
      type: "constant"
    }
  }
}
layer {
  name: "rpn_big_loss_bbox"
  type: "Python"
  bottom: "rpn_big_bbox_pred"
  bottom: "rpn_big_anchor_target_bbox_targets"
  bottom: "rpn_big_anchor_target_inside_weights"
  bottom: "rpn_big_anchor_target_outside_weights"
  top: "rpn_big_loss_bbox"
  loss_weight: 1
  python_param {
    module: "layers.smooth_l1_loss"
    layer: "SmoothL1LossLayer"
    param_str: "{\"sigma\": 3}"
  }
}
layer {
  name: "proposal"
  type: "Python"
  bottom: "rpn_big_cls_prob_reshape"
  bottom: "rpn_big_bbox_pred"
  bottom: "input_im_info"
  top: "rpn_rois"
  python_param {
    module: "rpn.proposal_layer"
    layer: "ProposalLayer"
    param_str: "{\"anchor_shift_num_xy\": [[2, 2], [2, 2], [2, 2], [2, 2], [1, 1], [1, 1], [1, 1], [1, 1], [1, 1], [1, 1], [1, 1], [1, 1], [1, 1], [1, 1]], \"feat_stride\": 16, \"num_classes\": 1, \"anchor_scales\": [2.5, 3.025, 3.66025, 4.4289024999999995, 5.358972025, 6.484356150249999, 7.846070941802498, 9.493745839581022, 11.487432465893036, 13.899793283730574, 16.818749873313998, 20.350687346709933, 24.62433168951902, 29.795441344318014], \"square_targets\": true, \"name\": \"rpn_big\", \"batchsize\": 256, \"anchor_ratios\": [1.0]}"
  }
}
layer {
  name: "roi-data"
  type: "Python"
  bottom: "rpn_rois"
  bottom: "input_gt_boxes"
  top: "rois"
  top: "labels"
  top: "bbox_targets"
  top: "bbox_inside_weights"
  top: "bbox_outside_weights"
  top: "pid_label"
  python_param {
    module: "rpn.proposal_target_layer"
    layer: "ProposalTargetLayer"
    param_str: "{\"num_classes\": 2, \"bg_aux_label\": 5532}"
  }
}
layer {
  name: "roi-pool"
  type: "ROIPooling"
  bottom: "conv5_3"
  bottom: "rois"
  top: "roi-pool"
  roi_pooling_param {
    pooled_h: 7
    pooled_w: 7
    spatial_scale: 0.0625
  }
}
layer {
  name: "fc6"
  type: "InnerProduct"
  bottom: "roi-pool"
  top: "fc6"
  param {
    lr_mult: 1
  }
  param {
    lr_mult: 2
  }
  inner_product_param {
    num_output: 4096
  }
}
layer {
  name: "relu6"
  type: "ReLU"
  bottom: "fc6"
  top: "fc6"
}
layer {
  name: "drop6"
  type: "Dropout"
  bottom: "fc6"
  top: "fc6"
  dropout_param {
    dropout_ratio: 0.5
  }
}
layer {
  name: "fc7"
  type: "InnerProduct"
  bottom: "fc6"
  top: "fc7"
  param {
    lr_mult: 1
  }
  param {
    lr_mult: 2
  }
  inner_product_param {
    num_output: 4096
  }
}
layer {
  name: "relu7"
  type: "ReLU"
  bottom: "fc7"
  top: "fc7"
}
layer {
  name: "drop7"
  type: "Dropout"
  bottom: "fc7"
  top: "fc7"
  dropout_param {
    dropout_ratio: 0.5
  }
}
layer {
  name: "bbox_pred"
  type: "InnerProduct"
  bottom: "fc7"
  top: "bbox_pred"
  param {
    lr_mult: 1
  }
  param {
    lr_mult: 2
  }
  inner_product_param {
    num_output: 8
    weight_filler {
      type: "gaussian"
      std: 0.001
    }
    bias_filler {
      type: "constant"
      value: 0
    }
  }
}
layer {
  name: "loss_bbox"
  type: "SmoothL1Loss"
  bottom: "bbox_pred"
  bottom: "bbox_targets"
  bottom: "bbox_inside_weights"
  bottom: "bbox_outside_weights"
  top: "loss_bbox"
  loss_weight: 1
}
layer {
  name: "feat"
  type: "InnerProduct"
  bottom: "fc7"
  top: "feat"
  param {
    lr_mult: 1
    decay_mult: 1
  }
  param {
    lr_mult: 2
    decay_mult: 0
  }
  inner_product_param {
    num_output: 256
    weight_filler {
      type: "gaussian"
      std: 0.01
    }
    bias_filler {
      type: "constant"
      value: 0
    }
  }
}
layer {
  name: "relu8"
  type: "ReLU"
  bottom: "feat"
  top: "feat"
}
layer {
  name: "drop8"
  type: "Dropout"
  bottom: "feat"
  top: "feat"
  dropout_param {
    dropout_ratio: 0.5
  }
}
layer {
  name: "pid_score"
  type: "InnerProduct"
  bottom: "feat"
  top: "pid_score"
  param {
    lr_mult: 1
    decay_mult: 1
  }
  param {
    lr_mult: 2
    decay_mult: 0
  }
  inner_product_param {
    num_output: 5533
    weight_filler {
      type: "gaussian"
      std: 0.001
    }
    bias_filler {
      type: "constant"
      value: 0
    }
  }
}
layer {
  name: "pid_accuracy"
  type: "Accuracy"
  bottom: "pid_score"
  bottom: "pid_label"
  top: "pid_accuracy"
  accuracy_param {
    ignore_label: -1
  }
}
I0413 18:33:56.003489 13542 layer_factory.hpp:77] Creating layer input
I0413 18:33:56.004791 13542 net.cpp:100] Creating Layer input
I0413 18:33:56.004807 13542 net.cpp:408] input -> input_data
I0413 18:33:56.004818 13542 net.cpp:408] input -> input_im_info
I0413 18:33:56.004825 13542 net.cpp:408] input -> input_gt_boxes
I0413 18:33:56.004832 13542 net.cpp:408] input -> input_ignored_boxes
RoiDataLayer: name_to_top: {'im_info': 1, 'data': 0, 'ignored_boxes': 3, 'gt_boxes': 2}
I0413 18:33:56.326547 13542 net.cpp:150] Setting up input
I0413 18:33:56.326578 13542 net.cpp:157] Top shape: 1 3 1000 1500 (4500000)
I0413 18:33:56.326596 13542 net.cpp:157] Top shape: 1 3 (3)
I0413 18:33:56.326604 13542 net.cpp:157] Top shape: 1 5 (5)
I0413 18:33:56.326612 13542 net.cpp:157] Top shape: 1 5 (5)
I0413 18:33:56.326618 13542 net.cpp:165] Memory required for data: 18000052
I0413 18:33:56.326629 13542 layer_factory.hpp:77] Creating layer input_data_input_0_split
I0413 18:33:56.326647 13542 net.cpp:100] Creating Layer input_data_input_0_split
I0413 18:33:56.326658 13542 net.cpp:434] input_data_input_0_split <- input_data
I0413 18:33:56.326670 13542 net.cpp:408] input_data_input_0_split -> input_data_input_0_split_0
I0413 18:33:56.326689 13542 net.cpp:408] input_data_input_0_split -> input_data_input_0_split_1
I0413 18:33:56.326732 13542 net.cpp:150] Setting up input_data_input_0_split
I0413 18:33:56.326745 13542 net.cpp:157] Top shape: 1 3 1000 1500 (4500000)
I0413 18:33:56.326753 13542 net.cpp:157] Top shape: 1 3 1000 1500 (4500000)
I0413 18:33:56.326759 13542 net.cpp:165] Memory required for data: 54000052
I0413 18:33:56.326766 13542 layer_factory.hpp:77] Creating layer input_im_info_input_1_split
I0413 18:33:56.326777 13542 net.cpp:100] Creating Layer input_im_info_input_1_split
I0413 18:33:56.326784 13542 net.cpp:434] input_im_info_input_1_split <- input_im_info
I0413 18:33:56.326794 13542 net.cpp:408] input_im_info_input_1_split -> input_im_info_input_1_split_0
I0413 18:33:56.326808 13542 net.cpp:408] input_im_info_input_1_split -> input_im_info_input_1_split_1
I0413 18:33:56.326849 13542 net.cpp:150] Setting up input_im_info_input_1_split
I0413 18:33:56.326858 13542 net.cpp:157] Top shape: 1 3 (3)
I0413 18:33:56.326866 13542 net.cpp:157] Top shape: 1 3 (3)
I0413 18:33:56.326871 13542 net.cpp:165] Memory required for data: 54000076
I0413 18:33:56.326879 13542 layer_factory.hpp:77] Creating layer input_gt_boxes_input_2_split
I0413 18:33:56.326889 13542 net.cpp:100] Creating Layer input_gt_boxes_input_2_split
I0413 18:33:56.326896 13542 net.cpp:434] input_gt_boxes_input_2_split <- input_gt_boxes
I0413 18:33:56.326907 13542 net.cpp:408] input_gt_boxes_input_2_split -> input_gt_boxes_input_2_split_0
I0413 18:33:56.326921 13542 net.cpp:408] input_gt_boxes_input_2_split -> input_gt_boxes_input_2_split_1
I0413 18:33:56.326961 13542 net.cpp:150] Setting up input_gt_boxes_input_2_split
I0413 18:33:56.326972 13542 net.cpp:157] Top shape: 1 5 (5)
I0413 18:33:56.326979 13542 net.cpp:157] Top shape: 1 5 (5)
I0413 18:33:56.326984 13542 net.cpp:165] Memory required for data: 54000116
I0413 18:33:56.326992 13542 layer_factory.hpp:77] Creating layer conv1_1
I0413 18:33:56.327013 13542 net.cpp:100] Creating Layer conv1_1
I0413 18:33:56.327019 13542 net.cpp:434] conv1_1 <- input_data_input_0_split_0
I0413 18:33:56.327029 13542 net.cpp:408] conv1_1 -> conv1_1
I0413 18:33:56.329996 13542 net.cpp:150] Setting up conv1_1
I0413 18:33:56.330035 13542 net.cpp:157] Top shape: 1 64 1000 1500 (96000000)
I0413 18:33:56.330041 13542 net.cpp:165] Memory required for data: 438000116
I0413 18:33:56.330072 13542 layer_factory.hpp:77] Creating layer relu1_1
I0413 18:33:56.330090 13542 net.cpp:100] Creating Layer relu1_1
I0413 18:33:56.330104 13542 net.cpp:434] relu1_1 <- conv1_1
I0413 18:33:56.330116 13542 net.cpp:395] relu1_1 -> conv1_1 (in-place)
I0413 18:33:56.330133 13542 net.cpp:150] Setting up relu1_1
I0413 18:33:56.330142 13542 net.cpp:157] Top shape: 1 64 1000 1500 (96000000)
I0413 18:33:56.330149 13542 net.cpp:165] Memory required for data: 822000116
I0413 18:33:56.330157 13542 layer_factory.hpp:77] Creating layer conv1_2
I0413 18:33:56.330173 13542 net.cpp:100] Creating Layer conv1_2
I0413 18:33:56.330179 13542 net.cpp:434] conv1_2 <- conv1_1
I0413 18:33:56.330190 13542 net.cpp:408] conv1_2 -> conv1_2
I0413 18:33:56.333349 13542 net.cpp:150] Setting up conv1_2
I0413 18:33:56.333389 13542 net.cpp:157] Top shape: 1 64 1000 1500 (96000000)
I0413 18:33:56.333395 13542 net.cpp:165] Memory required for data: 1206000116
I0413 18:33:56.333420 13542 layer_factory.hpp:77] Creating layer relu1_2
I0413 18:33:56.333436 13542 net.cpp:100] Creating Layer relu1_2
I0413 18:33:56.333443 13542 net.cpp:434] relu1_2 <- conv1_2
I0413 18:33:56.333456 13542 net.cpp:395] relu1_2 -> conv1_2 (in-place)
I0413 18:33:56.333472 13542 net.cpp:150] Setting up relu1_2
I0413 18:33:56.333480 13542 net.cpp:157] Top shape: 1 64 1000 1500 (96000000)
I0413 18:33:56.333487 13542 net.cpp:165] Memory required for data: 1590000116
I0413 18:33:56.333494 13542 layer_factory.hpp:77] Creating layer pool1
I0413 18:33:56.333510 13542 net.cpp:100] Creating Layer pool1
I0413 18:33:56.333518 13542 net.cpp:434] pool1 <- conv1_2
I0413 18:33:56.333528 13542 net.cpp:408] pool1 -> pool1
I0413 18:33:56.333605 13542 net.cpp:150] Setting up pool1
I0413 18:33:56.333614 13542 net.cpp:157] Top shape: 1 64 500 750 (24000000)
I0413 18:33:56.333621 13542 net.cpp:165] Memory required for data: 1686000116
I0413 18:33:56.333628 13542 layer_factory.hpp:77] Creating layer conv2_1
I0413 18:33:56.333647 13542 net.cpp:100] Creating Layer conv2_1
I0413 18:33:56.333654 13542 net.cpp:434] conv2_1 <- pool1
I0413 18:33:56.333665 13542 net.cpp:408] conv2_1 -> conv2_1
I0413 18:33:56.334897 13542 net.cpp:150] Setting up conv2_1
I0413 18:33:56.334925 13542 net.cpp:157] Top shape: 1 128 500 750 (48000000)
I0413 18:33:56.334931 13542 net.cpp:165] Memory required for data: 1878000116
I0413 18:33:56.334951 13542 layer_factory.hpp:77] Creating layer relu2_1
I0413 18:33:56.334964 13542 net.cpp:100] Creating Layer relu2_1
I0413 18:33:56.334972 13542 net.cpp:434] relu2_1 <- conv2_1
I0413 18:33:56.334982 13542 net.cpp:395] relu2_1 -> conv2_1 (in-place)
I0413 18:33:56.334996 13542 net.cpp:150] Setting up relu2_1
I0413 18:33:56.335006 13542 net.cpp:157] Top shape: 1 128 500 750 (48000000)
I0413 18:33:56.335012 13542 net.cpp:165] Memory required for data: 2070000116
I0413 18:33:56.335018 13542 layer_factory.hpp:77] Creating layer conv2_2
I0413 18:33:56.335033 13542 net.cpp:100] Creating Layer conv2_2
I0413 18:33:56.335041 13542 net.cpp:434] conv2_2 <- conv2_1
I0413 18:33:56.335054 13542 net.cpp:408] conv2_2 -> conv2_2
I0413 18:33:56.336025 13542 net.cpp:150] Setting up conv2_2
I0413 18:33:56.336052 13542 net.cpp:157] Top shape: 1 128 500 750 (48000000)
I0413 18:33:56.336058 13542 net.cpp:165] Memory required for data: 2262000116
I0413 18:33:56.336073 13542 layer_factory.hpp:77] Creating layer relu2_2
I0413 18:33:56.336087 13542 net.cpp:100] Creating Layer relu2_2
I0413 18:33:56.336096 13542 net.cpp:434] relu2_2 <- conv2_2
I0413 18:33:56.336105 13542 net.cpp:395] relu2_2 -> conv2_2 (in-place)
I0413 18:33:56.336120 13542 net.cpp:150] Setting up relu2_2
I0413 18:33:56.336129 13542 net.cpp:157] Top shape: 1 128 500 750 (48000000)
I0413 18:33:56.336134 13542 net.cpp:165] Memory required for data: 2454000116
I0413 18:33:56.336140 13542 layer_factory.hpp:77] Creating layer pool2
I0413 18:33:56.336153 13542 net.cpp:100] Creating Layer pool2
I0413 18:33:56.336159 13542 net.cpp:434] pool2 <- conv2_2
I0413 18:33:56.336169 13542 net.cpp:408] pool2 -> pool2
I0413 18:33:56.336230 13542 net.cpp:150] Setting up pool2
I0413 18:33:56.336241 13542 net.cpp:157] Top shape: 1 128 250 375 (12000000)
I0413 18:33:56.336248 13542 net.cpp:165] Memory required for data: 2502000116
I0413 18:33:56.336254 13542 layer_factory.hpp:77] Creating layer conv3_1
I0413 18:33:56.336269 13542 net.cpp:100] Creating Layer conv3_1
I0413 18:33:56.336277 13542 net.cpp:434] conv3_1 <- pool2
I0413 18:33:56.336285 13542 net.cpp:408] conv3_1 -> conv3_1
I0413 18:33:56.337385 13542 net.cpp:150] Setting up conv3_1
I0413 18:33:56.337411 13542 net.cpp:157] Top shape: 1 256 250 375 (24000000)
I0413 18:33:56.337417 13542 net.cpp:165] Memory required for data: 2598000116
I0413 18:33:56.337437 13542 layer_factory.hpp:77] Creating layer relu3_1
I0413 18:33:56.337450 13542 net.cpp:100] Creating Layer relu3_1
I0413 18:33:56.337457 13542 net.cpp:434] relu3_1 <- conv3_1
I0413 18:33:56.337467 13542 net.cpp:395] relu3_1 -> conv3_1 (in-place)
I0413 18:33:56.337481 13542 net.cpp:150] Setting up relu3_1
I0413 18:33:56.337489 13542 net.cpp:157] Top shape: 1 256 250 375 (24000000)
I0413 18:33:56.337496 13542 net.cpp:165] Memory required for data: 2694000116
I0413 18:33:56.337502 13542 layer_factory.hpp:77] Creating layer conv3_2
I0413 18:33:56.337519 13542 net.cpp:100] Creating Layer conv3_2
I0413 18:33:56.337530 13542 net.cpp:434] conv3_2 <- conv3_1
I0413 18:33:56.337540 13542 net.cpp:408] conv3_2 -> conv3_2
I0413 18:33:56.338721 13542 net.cpp:150] Setting up conv3_2
I0413 18:33:56.338747 13542 net.cpp:157] Top shape: 1 256 250 375 (24000000)
I0413 18:33:56.338752 13542 net.cpp:165] Memory required for data: 2790000116
I0413 18:33:56.338766 13542 layer_factory.hpp:77] Creating layer relu3_2
I0413 18:33:56.338778 13542 net.cpp:100] Creating Layer relu3_2
I0413 18:33:56.338785 13542 net.cpp:434] relu3_2 <- conv3_2
I0413 18:33:56.338796 13542 net.cpp:395] relu3_2 -> conv3_2 (in-place)
I0413 18:33:56.338809 13542 net.cpp:150] Setting up relu3_2
I0413 18:33:56.338820 13542 net.cpp:157] Top shape: 1 256 250 375 (24000000)
I0413 18:33:56.338826 13542 net.cpp:165] Memory required for data: 2886000116
I0413 18:33:56.338832 13542 layer_factory.hpp:77] Creating layer conv3_3
I0413 18:33:56.338847 13542 net.cpp:100] Creating Layer conv3_3
I0413 18:33:56.338856 13542 net.cpp:434] conv3_3 <- conv3_2
I0413 18:33:56.338870 13542 net.cpp:408] conv3_3 -> conv3_3
I0413 18:33:56.340559 13542 net.cpp:150] Setting up conv3_3
I0413 18:33:56.340590 13542 net.cpp:157] Top shape: 1 256 250 375 (24000000)
I0413 18:33:56.340597 13542 net.cpp:165] Memory required for data: 2982000116
I0413 18:33:56.340612 13542 layer_factory.hpp:77] Creating layer relu3_3
I0413 18:33:56.340626 13542 net.cpp:100] Creating Layer relu3_3
I0413 18:33:56.340636 13542 net.cpp:434] relu3_3 <- conv3_3
I0413 18:33:56.340646 13542 net.cpp:395] relu3_3 -> conv3_3 (in-place)
I0413 18:33:56.340663 13542 net.cpp:150] Setting up relu3_3
I0413 18:33:56.340673 13542 net.cpp:157] Top shape: 1 256 250 375 (24000000)
I0413 18:33:56.340679 13542 net.cpp:165] Memory required for data: 3078000116
I0413 18:33:56.340687 13542 layer_factory.hpp:77] Creating layer pool3
I0413 18:33:56.340700 13542 net.cpp:100] Creating Layer pool3
I0413 18:33:56.340708 13542 net.cpp:434] pool3 <- conv3_3
I0413 18:33:56.340716 13542 net.cpp:408] pool3 -> pool3
I0413 18:33:56.340770 13542 net.cpp:150] Setting up pool3
I0413 18:33:56.340780 13542 net.cpp:157] Top shape: 1 256 125 188 (6016000)
I0413 18:33:56.340785 13542 net.cpp:165] Memory required for data: 3102064116
I0413 18:33:56.340791 13542 layer_factory.hpp:77] Creating layer conv4_1
I0413 18:33:56.340808 13542 net.cpp:100] Creating Layer conv4_1
I0413 18:33:56.340814 13542 net.cpp:434] conv4_1 <- pool3
I0413 18:33:56.340824 13542 net.cpp:408] conv4_1 -> conv4_1
I0413 18:33:56.343502 13542 net.cpp:150] Setting up conv4_1
I0413 18:33:56.343538 13542 net.cpp:157] Top shape: 1 512 125 188 (12032000)
I0413 18:33:56.343544 13542 net.cpp:165] Memory required for data: 3150192116
I0413 18:33:56.343559 13542 layer_factory.hpp:77] Creating layer relu4_1
I0413 18:33:56.343576 13542 net.cpp:100] Creating Layer relu4_1
I0413 18:33:56.343585 13542 net.cpp:434] relu4_1 <- conv4_1
I0413 18:33:56.343598 13542 net.cpp:395] relu4_1 -> conv4_1 (in-place)
I0413 18:33:56.343616 13542 net.cpp:150] Setting up relu4_1
I0413 18:33:56.343624 13542 net.cpp:157] Top shape: 1 512 125 188 (12032000)
I0413 18:33:56.343631 13542 net.cpp:165] Memory required for data: 3198320116
I0413 18:33:56.343637 13542 layer_factory.hpp:77] Creating layer conv4_2
I0413 18:33:56.343653 13542 net.cpp:100] Creating Layer conv4_2
I0413 18:33:56.343660 13542 net.cpp:434] conv4_2 <- conv4_1
I0413 18:33:56.343672 13542 net.cpp:408] conv4_2 -> conv4_2
I0413 18:33:56.348415 13542 net.cpp:150] Setting up conv4_2
I0413 18:33:56.348496 13542 net.cpp:157] Top shape: 1 512 125 188 (12032000)
I0413 18:33:56.348521 13542 net.cpp:165] Memory required for data: 3246448116
I0413 18:33:56.348559 13542 layer_factory.hpp:77] Creating layer relu4_2
I0413 18:33:56.348585 13542 net.cpp:100] Creating Layer relu4_2
I0413 18:33:56.348605 13542 net.cpp:434] relu4_2 <- conv4_2
I0413 18:33:56.348628 13542 net.cpp:395] relu4_2 -> conv4_2 (in-place)
I0413 18:33:56.348654 13542 net.cpp:150] Setting up relu4_2
I0413 18:33:56.348675 13542 net.cpp:157] Top shape: 1 512 125 188 (12032000)
I0413 18:33:56.348691 13542 net.cpp:165] Memory required for data: 3294576116
I0413 18:33:56.348708 13542 layer_factory.hpp:77] Creating layer conv4_3
I0413 18:33:56.348733 13542 net.cpp:100] Creating Layer conv4_3
I0413 18:33:56.348753 13542 net.cpp:434] conv4_3 <- conv4_2
I0413 18:33:56.348774 13542 net.cpp:408] conv4_3 -> conv4_3
I0413 18:33:56.353297 13542 net.cpp:150] Setting up conv4_3
I0413 18:33:56.353332 13542 net.cpp:157] Top shape: 1 512 125 188 (12032000)
I0413 18:33:56.353344 13542 net.cpp:165] Memory required for data: 3342704116
I0413 18:33:56.353354 13542 layer_factory.hpp:77] Creating layer relu4_3
I0413 18:33:56.353364 13542 net.cpp:100] Creating Layer relu4_3
I0413 18:33:56.353369 13542 net.cpp:434] relu4_3 <- conv4_3
I0413 18:33:56.353379 13542 net.cpp:395] relu4_3 -> conv4_3 (in-place)
I0413 18:33:56.353389 13542 net.cpp:150] Setting up relu4_3
I0413 18:33:56.353394 13542 net.cpp:157] Top shape: 1 512 125 188 (12032000)
I0413 18:33:56.353397 13542 net.cpp:165] Memory required for data: 3390832116
I0413 18:33:56.353400 13542 layer_factory.hpp:77] Creating layer pool4
I0413 18:33:56.353406 13542 net.cpp:100] Creating Layer pool4
I0413 18:33:56.353410 13542 net.cpp:434] pool4 <- conv4_3
I0413 18:33:56.353415 13542 net.cpp:408] pool4 -> pool4
I0413 18:33:56.353451 13542 net.cpp:150] Setting up pool4
I0413 18:33:56.353458 13542 net.cpp:157] Top shape: 1 512 63 94 (3032064)
I0413 18:33:56.353461 13542 net.cpp:165] Memory required for data: 3402960372
I0413 18:33:56.353466 13542 layer_factory.hpp:77] Creating layer conv5_1
I0413 18:33:56.353477 13542 net.cpp:100] Creating Layer conv5_1
I0413 18:33:56.353482 13542 net.cpp:434] conv5_1 <- pool4
I0413 18:33:56.353489 13542 net.cpp:408] conv5_1 -> conv5_1
I0413 18:33:56.358237 13542 net.cpp:150] Setting up conv5_1
I0413 18:33:56.358273 13542 net.cpp:157] Top shape: 1 512 63 94 (3032064)
I0413 18:33:56.358279 13542 net.cpp:165] Memory required for data: 3415088628
I0413 18:33:56.358294 13542 layer_factory.hpp:77] Creating layer relu5_1
I0413 18:33:56.358309 13542 net.cpp:100] Creating Layer relu5_1
I0413 18:33:56.358317 13542 net.cpp:434] relu5_1 <- conv5_1
I0413 18:33:56.358330 13542 net.cpp:395] relu5_1 -> conv5_1 (in-place)
I0413 18:33:56.358345 13542 net.cpp:150] Setting up relu5_1
I0413 18:33:56.358355 13542 net.cpp:157] Top shape: 1 512 63 94 (3032064)
I0413 18:33:56.358361 13542 net.cpp:165] Memory required for data: 3427216884
I0413 18:33:56.358366 13542 layer_factory.hpp:77] Creating layer conv5_2
I0413 18:33:56.358383 13542 net.cpp:100] Creating Layer conv5_2
I0413 18:33:56.358389 13542 net.cpp:434] conv5_2 <- conv5_1
I0413 18:33:56.358402 13542 net.cpp:408] conv5_2 -> conv5_2
I0413 18:33:56.362630 13542 net.cpp:150] Setting up conv5_2
I0413 18:33:56.362670 13542 net.cpp:157] Top shape: 1 512 63 94 (3032064)
I0413 18:33:56.362676 13542 net.cpp:165] Memory required for data: 3439345140
I0413 18:33:56.362699 13542 layer_factory.hpp:77] Creating layer relu5_2
I0413 18:33:56.362712 13542 net.cpp:100] Creating Layer relu5_2
I0413 18:33:56.362722 13542 net.cpp:434] relu5_2 <- conv5_2
I0413 18:33:56.362735 13542 net.cpp:395] relu5_2 -> conv5_2 (in-place)
I0413 18:33:56.362751 13542 net.cpp:150] Setting up relu5_2
I0413 18:33:56.362761 13542 net.cpp:157] Top shape: 1 512 63 94 (3032064)
I0413 18:33:56.362766 13542 net.cpp:165] Memory required for data: 3451473396
I0413 18:33:56.362774 13542 layer_factory.hpp:77] Creating layer conv5_3
I0413 18:33:56.362797 13542 net.cpp:100] Creating Layer conv5_3
I0413 18:33:56.362803 13542 net.cpp:434] conv5_3 <- conv5_2
I0413 18:33:56.362813 13542 net.cpp:408] conv5_3 -> conv5_3
I0413 18:33:56.370164 13542 net.cpp:150] Setting up conv5_3
I0413 18:33:56.370201 13542 net.cpp:157] Top shape: 1 512 63 94 (3032064)
I0413 18:33:56.370208 13542 net.cpp:165] Memory required for data: 3463601652
I0413 18:33:56.370230 13542 layer_factory.hpp:77] Creating layer relu5_3
I0413 18:33:56.370244 13542 net.cpp:100] Creating Layer relu5_3
I0413 18:33:56.370261 13542 net.cpp:434] relu5_3 <- conv5_3
I0413 18:33:56.370277 13542 net.cpp:395] relu5_3 -> conv5_3 (in-place)
I0413 18:33:56.370295 13542 net.cpp:150] Setting up relu5_3
I0413 18:33:56.370303 13542 net.cpp:157] Top shape: 1 512 63 94 (3032064)
I0413 18:33:56.370311 13542 net.cpp:165] Memory required for data: 3475729908
I0413 18:33:56.370317 13542 layer_factory.hpp:77] Creating layer conv5_3_relu5_3_0_split
I0413 18:33:56.370332 13542 net.cpp:100] Creating Layer conv5_3_relu5_3_0_split
I0413 18:33:56.370339 13542 net.cpp:434] conv5_3_relu5_3_0_split <- conv5_3
I0413 18:33:56.370350 13542 net.cpp:408] conv5_3_relu5_3_0_split -> conv5_3_relu5_3_0_split_0
I0413 18:33:56.370365 13542 net.cpp:408] conv5_3_relu5_3_0_split -> conv5_3_relu5_3_0_split_1
I0413 18:33:56.370406 13542 net.cpp:150] Setting up conv5_3_relu5_3_0_split
I0413 18:33:56.370416 13542 net.cpp:157] Top shape: 1 512 63 94 (3032064)
I0413 18:33:56.370427 13542 net.cpp:157] Top shape: 1 512 63 94 (3032064)
I0413 18:33:56.370435 13542 net.cpp:165] Memory required for data: 3499986420
I0413 18:33:56.370442 13542 layer_factory.hpp:77] Creating layer rpn_big_conv1
I0413 18:33:56.370462 13542 net.cpp:100] Creating Layer rpn_big_conv1
I0413 18:33:56.370470 13542 net.cpp:434] rpn_big_conv1 <- conv5_3_relu5_3_0_split_0
I0413 18:33:56.370481 13542 net.cpp:408] rpn_big_conv1 -> rpn_big_conv1
I0413 18:33:56.395737 13542 net.cpp:150] Setting up rpn_big_conv1
I0413 18:33:56.395771 13542 net.cpp:157] Top shape: 1 512 63 94 (3032064)
I0413 18:33:56.395776 13542 net.cpp:165] Memory required for data: 3512114676
I0413 18:33:56.395799 13542 layer_factory.hpp:77] Creating layer rpn_big_conv1_relu
I0413 18:33:56.395817 13542 net.cpp:100] Creating Layer rpn_big_conv1_relu
I0413 18:33:56.395831 13542 net.cpp:434] rpn_big_conv1_relu <- rpn_big_conv1
I0413 18:33:56.395845 13542 net.cpp:395] rpn_big_conv1_relu -> rpn_big_conv1 (in-place)
I0413 18:33:56.395861 13542 net.cpp:150] Setting up rpn_big_conv1_relu
I0413 18:33:56.395871 13542 net.cpp:157] Top shape: 1 512 63 94 (3032064)
I0413 18:33:56.395879 13542 net.cpp:165] Memory required for data: 3524242932
I0413 18:33:56.395885 13542 layer_factory.hpp:77] Creating layer rpn_big_conv2
I0413 18:33:56.395905 13542 net.cpp:100] Creating Layer rpn_big_conv2
I0413 18:33:56.395912 13542 net.cpp:434] rpn_big_conv2 <- rpn_big_conv1
I0413 18:33:56.395925 13542 net.cpp:408] rpn_big_conv2 -> rpn_big_conv2
I0413 18:33:56.421015 13542 net.cpp:150] Setting up rpn_big_conv2
I0413 18:33:56.421047 13542 net.cpp:157] Top shape: 1 512 63 94 (3032064)
I0413 18:33:56.421053 13542 net.cpp:165] Memory required for data: 3536371188
I0413 18:33:56.421069 13542 layer_factory.hpp:77] Creating layer rpn_big_conv2_relu
I0413 18:33:56.421084 13542 net.cpp:100] Creating Layer rpn_big_conv2_relu
I0413 18:33:56.421093 13542 net.cpp:434] rpn_big_conv2_relu <- rpn_big_conv2
I0413 18:33:56.421108 13542 net.cpp:395] rpn_big_conv2_relu -> rpn_big_conv2 (in-place)
I0413 18:33:56.421123 13542 net.cpp:150] Setting up rpn_big_conv2_relu
I0413 18:33:56.421133 13542 net.cpp:157] Top shape: 1 512 63 94 (3032064)
I0413 18:33:56.421139 13542 net.cpp:165] Memory required for data: 3548499444
I0413 18:33:56.421145 13542 layer_factory.hpp:77] Creating layer rpn_big_conv2_drop
I0413 18:33:56.421157 13542 net.cpp:100] Creating Layer rpn_big_conv2_drop
I0413 18:33:56.421164 13542 net.cpp:434] rpn_big_conv2_drop <- rpn_big_conv2
I0413 18:33:56.421174 13542 net.cpp:395] rpn_big_conv2_drop -> rpn_big_conv2 (in-place)
I0413 18:33:56.421206 13542 net.cpp:150] Setting up rpn_big_conv2_drop
I0413 18:33:56.421217 13542 net.cpp:157] Top shape: 1 512 63 94 (3032064)
I0413 18:33:56.421223 13542 net.cpp:165] Memory required for data: 3560627700
I0413 18:33:56.421229 13542 layer_factory.hpp:77] Creating layer rpn_big_conv2_rpn_big_conv2_drop_0_split
I0413 18:33:56.421242 13542 net.cpp:100] Creating Layer rpn_big_conv2_rpn_big_conv2_drop_0_split
I0413 18:33:56.421249 13542 net.cpp:434] rpn_big_conv2_rpn_big_conv2_drop_0_split <- rpn_big_conv2
I0413 18:33:56.421262 13542 net.cpp:408] rpn_big_conv2_rpn_big_conv2_drop_0_split -> rpn_big_conv2_rpn_big_conv2_drop_0_split_0
I0413 18:33:56.421274 13542 net.cpp:408] rpn_big_conv2_rpn_big_conv2_drop_0_split -> rpn_big_conv2_rpn_big_conv2_drop_0_split_1
I0413 18:33:56.421329 13542 net.cpp:150] Setting up rpn_big_conv2_rpn_big_conv2_drop_0_split
I0413 18:33:56.421339 13542 net.cpp:157] Top shape: 1 512 63 94 (3032064)
I0413 18:33:56.421349 13542 net.cpp:157] Top shape: 1 512 63 94 (3032064)
I0413 18:33:56.421355 13542 net.cpp:165] Memory required for data: 3584884212
I0413 18:33:56.421360 13542 layer_factory.hpp:77] Creating layer rpn_big_output_cls
I0413 18:33:56.421380 13542 net.cpp:100] Creating Layer rpn_big_output_cls
I0413 18:33:56.421389 13542 net.cpp:434] rpn_big_output_cls <- rpn_big_conv2_rpn_big_conv2_drop_0_split_0
I0413 18:33:56.421401 13542 net.cpp:408] rpn_big_output_cls -> rpn_big_output_cls
I0413 18:33:56.440402 13542 net.cpp:150] Setting up rpn_big_output_cls
I0413 18:33:56.440434 13542 net.cpp:157] Top shape: 1 384 63 94 (2274048)
I0413 18:33:56.440440 13542 net.cpp:165] Memory required for data: 3593980404
I0413 18:33:56.440455 13542 layer_factory.hpp:77] Creating layer rpn_big_output_cls_relu
I0413 18:33:56.440471 13542 net.cpp:100] Creating Layer rpn_big_output_cls_relu
I0413 18:33:56.440480 13542 net.cpp:434] rpn_big_output_cls_relu <- rpn_big_output_cls
I0413 18:33:56.440492 13542 net.cpp:395] rpn_big_output_cls_relu -> rpn_big_output_cls (in-place)
I0413 18:33:56.440512 13542 net.cpp:150] Setting up rpn_big_output_cls_relu
I0413 18:33:56.440523 13542 net.cpp:157] Top shape: 1 384 63 94 (2274048)
I0413 18:33:56.440529 13542 net.cpp:165] Memory required for data: 3603076596
I0413 18:33:56.440536 13542 layer_factory.hpp:77] Creating layer rpn_big_cls_score
I0413 18:33:56.440554 13542 net.cpp:100] Creating Layer rpn_big_cls_score
I0413 18:33:56.440564 13542 net.cpp:434] rpn_big_cls_score <- rpn_big_output_cls
I0413 18:33:56.440575 13542 net.cpp:408] rpn_big_cls_score -> rpn_big_cls_score
I0413 18:33:56.442900 13542 net.cpp:150] Setting up rpn_big_cls_score
I0413 18:33:56.442924 13542 net.cpp:157] Top shape: 1 52 61 92 (291824)
I0413 18:33:56.442929 13542 net.cpp:165] Memory required for data: 3604243892
I0413 18:33:56.442952 13542 layer_factory.hpp:77] Creating layer rpn_big_cls_score_rpn_big_cls_score_0_split
I0413 18:33:56.442967 13542 net.cpp:100] Creating Layer rpn_big_cls_score_rpn_big_cls_score_0_split
I0413 18:33:56.442976 13542 net.cpp:434] rpn_big_cls_score_rpn_big_cls_score_0_split <- rpn_big_cls_score
I0413 18:33:56.442988 13542 net.cpp:408] rpn_big_cls_score_rpn_big_cls_score_0_split -> rpn_big_cls_score_rpn_big_cls_score_0_split_0
I0413 18:33:56.443003 13542 net.cpp:408] rpn_big_cls_score_rpn_big_cls_score_0_split -> rpn_big_cls_score_rpn_big_cls_score_0_split_1
I0413 18:33:56.443048 13542 net.cpp:150] Setting up rpn_big_cls_score_rpn_big_cls_score_0_split
I0413 18:33:56.443058 13542 net.cpp:157] Top shape: 1 52 61 92 (291824)
I0413 18:33:56.443065 13542 net.cpp:157] Top shape: 1 52 61 92 (291824)
I0413 18:33:56.443073 13542 net.cpp:165] Memory required for data: 3606578484
I0413 18:33:56.443079 13542 layer_factory.hpp:77] Creating layer rpn_big_cls_score_reshape
I0413 18:33:56.443094 13542 net.cpp:100] Creating Layer rpn_big_cls_score_reshape
I0413 18:33:56.443101 13542 net.cpp:434] rpn_big_cls_score_reshape <- rpn_big_cls_score_rpn_big_cls_score_0_split_0
I0413 18:33:56.443111 13542 net.cpp:408] rpn_big_cls_score_reshape -> rpn_big_cls_score_reshape
I0413 18:33:56.443145 13542 net.cpp:150] Setting up rpn_big_cls_score_reshape
I0413 18:33:56.443155 13542 net.cpp:157] Top shape: 1 2 1586 92 (291824)
I0413 18:33:56.443161 13542 net.cpp:165] Memory required for data: 3607745780
I0413 18:33:56.443166 13542 layer_factory.hpp:77] Creating layer rpn_big_cls_score_reshape_rpn_big_cls_score_reshape_0_split
I0413 18:33:56.443177 13542 net.cpp:100] Creating Layer rpn_big_cls_score_reshape_rpn_big_cls_score_reshape_0_split
I0413 18:33:56.443186 13542 net.cpp:434] rpn_big_cls_score_reshape_rpn_big_cls_score_reshape_0_split <- rpn_big_cls_score_reshape
I0413 18:33:56.443197 13542 net.cpp:408] rpn_big_cls_score_reshape_rpn_big_cls_score_reshape_0_split -> rpn_big_cls_score_reshape_rpn_big_cls_score_reshape_0_split_0
I0413 18:33:56.443210 13542 net.cpp:408] rpn_big_cls_score_reshape_rpn_big_cls_score_reshape_0_split -> rpn_big_cls_score_reshape_rpn_big_cls_score_reshape_0_split_1
I0413 18:33:56.443251 13542 net.cpp:150] Setting up rpn_big_cls_score_reshape_rpn_big_cls_score_reshape_0_split
I0413 18:33:56.443261 13542 net.cpp:157] Top shape: 1 2 1586 92 (291824)
I0413 18:33:56.443269 13542 net.cpp:157] Top shape: 1 2 1586 92 (291824)
I0413 18:33:56.443277 13542 net.cpp:165] Memory required for data: 3610080372
I0413 18:33:56.443284 13542 layer_factory.hpp:77] Creating layer rpn_big_cls_prob
I0413 18:33:56.443296 13542 net.cpp:100] Creating Layer rpn_big_cls_prob
I0413 18:33:56.443305 13542 net.cpp:434] rpn_big_cls_prob <- rpn_big_cls_score_reshape_rpn_big_cls_score_reshape_0_split_0
I0413 18:33:56.443313 13542 net.cpp:408] rpn_big_cls_prob -> rpn_big_cls_prob
I0413 18:33:56.443373 13542 net.cpp:150] Setting up rpn_big_cls_prob
I0413 18:33:56.443383 13542 net.cpp:157] Top shape: 1 2 1586 92 (291824)
I0413 18:33:56.443389 13542 net.cpp:165] Memory required for data: 3611247668
I0413 18:33:56.443395 13542 layer_factory.hpp:77] Creating layer rpn_big_cls_prob_reshape
I0413 18:33:56.443406 13542 net.cpp:100] Creating Layer rpn_big_cls_prob_reshape
I0413 18:33:56.443414 13542 net.cpp:434] rpn_big_cls_prob_reshape <- rpn_big_cls_prob
I0413 18:33:56.443428 13542 net.cpp:408] rpn_big_cls_prob_reshape -> rpn_big_cls_prob_reshape
I0413 18:33:56.443455 13542 net.cpp:150] Setting up rpn_big_cls_prob_reshape
I0413 18:33:56.443465 13542 net.cpp:157] Top shape: 1 52 61 92 (291824)
I0413 18:33:56.443471 13542 net.cpp:165] Memory required for data: 3612414964
I0413 18:33:56.443480 13542 layer_factory.hpp:77] Creating layer rpn_big_cls_prob_reshape_rpn_big_cls_prob_reshape_0_split
I0413 18:33:56.443490 13542 net.cpp:100] Creating Layer rpn_big_cls_prob_reshape_rpn_big_cls_prob_reshape_0_split
I0413 18:33:56.443498 13542 net.cpp:434] rpn_big_cls_prob_reshape_rpn_big_cls_prob_reshape_0_split <- rpn_big_cls_prob_reshape
I0413 18:33:56.443507 13542 net.cpp:408] rpn_big_cls_prob_reshape_rpn_big_cls_prob_reshape_0_split -> rpn_big_cls_prob_reshape_rpn_big_cls_prob_reshape_0_split_0
I0413 18:33:56.443522 13542 net.cpp:408] rpn_big_cls_prob_reshape_rpn_big_cls_prob_reshape_0_split -> rpn_big_cls_prob_reshape_rpn_big_cls_prob_reshape_0_split_1
I0413 18:33:56.443559 13542 net.cpp:150] Setting up rpn_big_cls_prob_reshape_rpn_big_cls_prob_reshape_0_split
I0413 18:33:56.443568 13542 net.cpp:157] Top shape: 1 52 61 92 (291824)
I0413 18:33:56.443577 13542 net.cpp:157] Top shape: 1 52 61 92 (291824)
I0413 18:33:56.443583 13542 net.cpp:165] Memory required for data: 3614749556
I0413 18:33:56.443588 13542 layer_factory.hpp:77] Creating layer rpn_big_anchor_target
I0413 18:33:56.444895 13542 net.cpp:100] Creating Layer rpn_big_anchor_target
I0413 18:33:56.444923 13542 net.cpp:434] rpn_big_anchor_target <- rpn_big_cls_score_rpn_big_cls_score_0_split_1
I0413 18:33:56.444934 13542 net.cpp:434] rpn_big_anchor_target <- input_gt_boxes_input_2_split_0
I0413 18:33:56.444942 13542 net.cpp:434] rpn_big_anchor_target <- input_ignored_boxes
I0413 18:33:56.444950 13542 net.cpp:434] rpn_big_anchor_target <- input_im_info_input_1_split_0
I0413 18:33:56.444959 13542 net.cpp:434] rpn_big_anchor_target <- input_data_input_0_split_1
I0413 18:33:56.444969 13542 net.cpp:434] rpn_big_anchor_target <- rpn_big_cls_prob_reshape_rpn_big_cls_prob_reshape_0_split_0
I0413 18:33:56.444983 13542 net.cpp:408] rpn_big_anchor_target -> rpn_big_anchor_target_labels
I0413 18:33:56.444999 13542 net.cpp:408] rpn_big_anchor_target -> rpn_big_anchor_target_bbox_targets
I0413 18:33:56.445014 13542 net.cpp:408] rpn_big_anchor_target -> rpn_big_anchor_target_inside_weights
I0413 18:33:56.445029 13542 net.cpp:408] rpn_big_anchor_target -> rpn_big_anchor_target_outside_weights
I0413 18:33:56.452131 13542 net.cpp:150] Setting up rpn_big_anchor_target
I0413 18:33:56.452164 13542 net.cpp:157] Top shape: 1 1 1586 92 (145912)
I0413 18:33:56.452173 13542 net.cpp:157] Top shape: 1 104 61 92 (583648)
I0413 18:33:56.452180 13542 net.cpp:157] Top shape: 1 104 61 92 (583648)
I0413 18:33:56.452188 13542 net.cpp:157] Top shape: 1 104 61 92 (583648)
I0413 18:33:56.452193 13542 net.cpp:165] Memory required for data: 3622336980
I0413 18:33:56.452201 13542 layer_factory.hpp:77] Creating layer rpn_big_loss_cls
I0413 18:33:56.452219 13542 net.cpp:100] Creating Layer rpn_big_loss_cls
I0413 18:33:56.452229 13542 net.cpp:434] rpn_big_loss_cls <- rpn_big_cls_score_reshape_rpn_big_cls_score_reshape_0_split_1
I0413 18:33:56.452241 13542 net.cpp:434] rpn_big_loss_cls <- rpn_big_anchor_target_labels
I0413 18:33:56.452253 13542 net.cpp:408] rpn_big_loss_cls -> rpn_big_loss_cls
I0413 18:33:56.452272 13542 layer_factory.hpp:77] Creating layer rpn_big_loss_cls
I0413 18:33:56.452956 13542 net.cpp:150] Setting up rpn_big_loss_cls
I0413 18:33:56.452971 13542 net.cpp:157] Top shape: (1)
I0413 18:33:56.452977 13542 net.cpp:160]     with loss weight 1
I0413 18:33:56.452993 13542 net.cpp:165] Memory required for data: 3622336984
I0413 18:33:56.453001 13542 layer_factory.hpp:77] Creating layer rpn_big_output_box
I0413 18:33:56.453022 13542 net.cpp:100] Creating Layer rpn_big_output_box
I0413 18:33:56.453029 13542 net.cpp:434] rpn_big_output_box <- rpn_big_conv2_rpn_big_conv2_drop_0_split_1
I0413 18:33:56.453042 13542 net.cpp:408] rpn_big_output_box -> rpn_big_output_box
I0413 18:33:56.472105 13542 net.cpp:150] Setting up rpn_big_output_box
I0413 18:33:56.472139 13542 net.cpp:157] Top shape: 1 384 63 94 (2274048)
I0413 18:33:56.472146 13542 net.cpp:165] Memory required for data: 3631433176
I0413 18:33:56.472160 13542 layer_factory.hpp:77] Creating layer rpn_big_output_box_relu
I0413 18:33:56.472175 13542 net.cpp:100] Creating Layer rpn_big_output_box_relu
I0413 18:33:56.472204 13542 net.cpp:434] rpn_big_output_box_relu <- rpn_big_output_box
I0413 18:33:56.472231 13542 net.cpp:395] rpn_big_output_box_relu -> rpn_big_output_box (in-place)
I0413 18:33:56.472249 13542 net.cpp:150] Setting up rpn_big_output_box_relu
I0413 18:33:56.472256 13542 net.cpp:157] Top shape: 1 384 63 94 (2274048)
I0413 18:33:56.472260 13542 net.cpp:165] Memory required for data: 3640529368
I0413 18:33:56.472266 13542 layer_factory.hpp:77] Creating layer rpn_big_bbox_pred
I0413 18:33:56.472282 13542 net.cpp:100] Creating Layer rpn_big_bbox_pred
I0413 18:33:56.472290 13542 net.cpp:434] rpn_big_bbox_pred <- rpn_big_output_box
I0413 18:33:56.472303 13542 net.cpp:408] rpn_big_bbox_pred -> rpn_big_bbox_pred
I0413 18:33:56.476552 13542 net.cpp:150] Setting up rpn_big_bbox_pred
I0413 18:33:56.476583 13542 net.cpp:157] Top shape: 1 104 61 92 (583648)
I0413 18:33:56.476589 13542 net.cpp:165] Memory required for data: 3642863960
I0413 18:33:56.476603 13542 layer_factory.hpp:77] Creating layer rpn_big_bbox_pred_rpn_big_bbox_pred_0_split
I0413 18:33:56.476632 13542 net.cpp:100] Creating Layer rpn_big_bbox_pred_rpn_big_bbox_pred_0_split
I0413 18:33:56.476652 13542 net.cpp:434] rpn_big_bbox_pred_rpn_big_bbox_pred_0_split <- rpn_big_bbox_pred
I0413 18:33:56.476665 13542 net.cpp:408] rpn_big_bbox_pred_rpn_big_bbox_pred_0_split -> rpn_big_bbox_pred_rpn_big_bbox_pred_0_split_0
I0413 18:33:56.476685 13542 net.cpp:408] rpn_big_bbox_pred_rpn_big_bbox_pred_0_split -> rpn_big_bbox_pred_rpn_big_bbox_pred_0_split_1
I0413 18:33:56.476732 13542 net.cpp:150] Setting up rpn_big_bbox_pred_rpn_big_bbox_pred_0_split
I0413 18:33:56.476742 13542 net.cpp:157] Top shape: 1 104 61 92 (583648)
I0413 18:33:56.476750 13542 net.cpp:157] Top shape: 1 104 61 92 (583648)
I0413 18:33:56.476758 13542 net.cpp:165] Memory required for data: 3647533144
I0413 18:33:56.476763 13542 layer_factory.hpp:77] Creating layer rpn_big_loss_bbox
I0413 18:33:56.477262 13542 net.cpp:100] Creating Layer rpn_big_loss_bbox
I0413 18:33:56.477275 13542 net.cpp:434] rpn_big_loss_bbox <- rpn_big_bbox_pred_rpn_big_bbox_pred_0_split_0
I0413 18:33:56.477284 13542 net.cpp:434] rpn_big_loss_bbox <- rpn_big_anchor_target_bbox_targets
I0413 18:33:56.477293 13542 net.cpp:434] rpn_big_loss_bbox <- rpn_big_anchor_target_inside_weights
I0413 18:33:56.477301 13542 net.cpp:434] rpn_big_loss_bbox <- rpn_big_anchor_target_outside_weights
I0413 18:33:56.477313 13542 net.cpp:408] rpn_big_loss_bbox -> rpn_big_loss_bbox
I0413 18:33:56.479342 13542 net.cpp:150] Setting up rpn_big_loss_bbox
I0413 18:33:56.479377 13542 net.cpp:157] Top shape: 1 (1)
I0413 18:33:56.479382 13542 net.cpp:160]     with loss weight 1
I0413 18:33:56.479396 13542 net.cpp:165] Memory required for data: 3647533148
I0413 18:33:56.479406 13542 layer_factory.hpp:77] Creating layer proposal
I0413 18:33:56.479863 13542 net.cpp:100] Creating Layer proposal
I0413 18:33:56.479876 13542 net.cpp:434] proposal <- rpn_big_cls_prob_reshape_rpn_big_cls_prob_reshape_0_split_1
I0413 18:33:56.479888 13542 net.cpp:434] proposal <- rpn_big_bbox_pred_rpn_big_bbox_pred_0_split_1
I0413 18:33:56.479897 13542 net.cpp:434] proposal <- input_im_info_input_1_split_1
I0413 18:33:56.479909 13542 net.cpp:408] proposal -> rpn_rois
I0413 18:33:56.484514 13542 net.cpp:150] Setting up proposal
I0413 18:33:56.484529 13542 net.cpp:157] Top shape: 1 5 (5)
I0413 18:33:56.484535 13542 net.cpp:165] Memory required for data: 3647533168
I0413 18:33:56.484542 13542 layer_factory.hpp:77] Creating layer roi-data
I0413 18:33:56.484835 13542 net.cpp:100] Creating Layer roi-data
I0413 18:33:56.484846 13542 net.cpp:434] roi-data <- rpn_rois
I0413 18:33:56.484856 13542 net.cpp:434] roi-data <- input_gt_boxes_input_2_split_1
I0413 18:33:56.484869 13542 net.cpp:408] roi-data -> rois
I0413 18:33:56.484885 13542 net.cpp:408] roi-data -> labels
I0413 18:33:56.484907 13542 net.cpp:408] roi-data -> bbox_targets
I0413 18:33:56.484925 13542 net.cpp:408] roi-data -> bbox_inside_weights
I0413 18:33:56.484939 13542 net.cpp:408] roi-data -> bbox_outside_weights
I0413 18:33:56.484953 13542 net.cpp:408] roi-data -> pid_label
I0413 18:33:56.485879 13542 net.cpp:150] Setting up roi-data
I0413 18:33:56.485894 13542 net.cpp:157] Top shape: 1 5 (5)
I0413 18:33:56.485903 13542 net.cpp:157] Top shape: 1 1 (1)
I0413 18:33:56.485909 13542 net.cpp:157] Top shape: 1 8 (8)
I0413 18:33:56.485918 13542 net.cpp:157] Top shape: 1 8 (8)
I0413 18:33:56.485929 13542 net.cpp:157] Top shape: 1 8 (8)
I0413 18:33:56.485936 13542 net.cpp:157] Top shape: (0)
I0413 18:33:56.485944 13542 net.cpp:165] Memory required for data: 3647533288
I0413 18:33:56.485952 13542 layer_factory.hpp:77] Creating layer roi-pool
I0413 18:33:56.485968 13542 net.cpp:100] Creating Layer roi-pool
I0413 18:33:56.485976 13542 net.cpp:434] roi-pool <- conv5_3_relu5_3_0_split_1
I0413 18:33:56.485985 13542 net.cpp:434] roi-pool <- rois
I0413 18:33:56.485994 13542 net.cpp:408] roi-pool -> roi-pool
I0413 18:33:56.486009 13542 roi_pooling_layer.cpp:33] Spatial scale: 0.0625
I0413 18:33:56.486021 13542 roi_pooling_layer.cpp:34] Box scale: 1
I0413 18:33:56.486068 13542 net.cpp:150] Setting up roi-pool
I0413 18:33:56.486078 13542 net.cpp:157] Top shape: 1 512 7 7 (25088)
I0413 18:33:56.486085 13542 net.cpp:165] Memory required for data: 3647633640
I0413 18:33:56.486093 13542 layer_factory.hpp:77] Creating layer fc6
I0413 18:33:56.486104 13542 net.cpp:100] Creating Layer fc6
I0413 18:33:56.486111 13542 net.cpp:434] fc6 <- roi-pool
I0413 18:33:56.486125 13542 net.cpp:408] fc6 -> fc6
I0413 18:33:56.649453 13542 net.cpp:150] Setting up fc6
I0413 18:33:56.649492 13542 net.cpp:157] Top shape: 1 4096 (4096)
I0413 18:33:56.649498 13542 net.cpp:165] Memory required for data: 3647650024
I0413 18:33:56.649514 13542 layer_factory.hpp:77] Creating layer relu6
I0413 18:33:56.649530 13542 net.cpp:100] Creating Layer relu6
I0413 18:33:56.649538 13542 net.cpp:434] relu6 <- fc6
I0413 18:33:56.649552 13542 net.cpp:395] relu6 -> fc6 (in-place)
I0413 18:33:56.649569 13542 net.cpp:150] Setting up relu6
I0413 18:33:56.649576 13542 net.cpp:157] Top shape: 1 4096 (4096)
I0413 18:33:56.649582 13542 net.cpp:165] Memory required for data: 3647666408
I0413 18:33:56.649588 13542 layer_factory.hpp:77] Creating layer drop6
I0413 18:33:56.649598 13542 net.cpp:100] Creating Layer drop6
I0413 18:33:56.649605 13542 net.cpp:434] drop6 <- fc6
I0413 18:33:56.649613 13542 net.cpp:395] drop6 -> fc6 (in-place)
I0413 18:33:56.649652 13542 net.cpp:150] Setting up drop6
I0413 18:33:56.649663 13542 net.cpp:157] Top shape: 1 4096 (4096)
I0413 18:33:56.649669 13542 net.cpp:165] Memory required for data: 3647682792
I0413 18:33:56.649677 13542 layer_factory.hpp:77] Creating layer fc7
I0413 18:33:56.649686 13542 net.cpp:100] Creating Layer fc7
I0413 18:33:56.649693 13542 net.cpp:434] fc7 <- fc6
I0413 18:33:56.649703 13542 net.cpp:408] fc7 -> fc7
I0413 18:33:56.679997 13542 net.cpp:150] Setting up fc7
I0413 18:33:56.680078 13542 net.cpp:157] Top shape: 1 4096 (4096)
I0413 18:33:56.680100 13542 net.cpp:165] Memory required for data: 3647699176
I0413 18:33:56.680130 13542 layer_factory.hpp:77] Creating layer relu7
I0413 18:33:56.680176 13542 net.cpp:100] Creating Layer relu7
I0413 18:33:56.680200 13542 net.cpp:434] relu7 <- fc7
I0413 18:33:56.680227 13542 net.cpp:395] relu7 -> fc7 (in-place)
I0413 18:33:56.680255 13542 net.cpp:150] Setting up relu7
I0413 18:33:56.680277 13542 net.cpp:157] Top shape: 1 4096 (4096)
I0413 18:33:56.680297 13542 net.cpp:165] Memory required for data: 3647715560
I0413 18:33:56.680317 13542 layer_factory.hpp:77] Creating layer drop7
I0413 18:33:56.680341 13542 net.cpp:100] Creating Layer drop7
I0413 18:33:56.680362 13542 net.cpp:434] drop7 <- fc7
I0413 18:33:56.680384 13542 net.cpp:395] drop7 -> fc7 (in-place)
I0413 18:33:56.680438 13542 net.cpp:150] Setting up drop7
I0413 18:33:56.680461 13542 net.cpp:157] Top shape: 1 4096 (4096)
I0413 18:33:56.680480 13542 net.cpp:165] Memory required for data: 3647731944
I0413 18:33:56.680501 13542 layer_factory.hpp:77] Creating layer fc7_drop7_0_split
I0413 18:33:56.680526 13542 net.cpp:100] Creating Layer fc7_drop7_0_split
I0413 18:33:56.680544 13542 net.cpp:434] fc7_drop7_0_split <- fc7
I0413 18:33:56.680570 13542 net.cpp:408] fc7_drop7_0_split -> fc7_drop7_0_split_0
I0413 18:33:56.680613 13542 net.cpp:408] fc7_drop7_0_split -> fc7_drop7_0_split_1
I0413 18:33:56.680682 13542 net.cpp:150] Setting up fc7_drop7_0_split
I0413 18:33:56.680707 13542 net.cpp:157] Top shape: 1 4096 (4096)
I0413 18:33:56.680730 13542 net.cpp:157] Top shape: 1 4096 (4096)
I0413 18:33:56.680750 13542 net.cpp:165] Memory required for data: 3647764712
I0413 18:33:56.680769 13542 layer_factory.hpp:77] Creating layer bbox_pred
I0413 18:33:56.680794 13542 net.cpp:100] Creating Layer bbox_pred
I0413 18:33:56.680814 13542 net.cpp:434] bbox_pred <- fc7_drop7_0_split_0
I0413 18:33:56.680850 13542 net.cpp:408] bbox_pred -> bbox_pred
I0413 18:33:56.681540 13542 net.cpp:150] Setting up bbox_pred
I0413 18:33:56.681560 13542 net.cpp:157] Top shape: 1 8 (8)
I0413 18:33:56.681565 13542 net.cpp:165] Memory required for data: 3647764744
I0413 18:33:56.681578 13542 layer_factory.hpp:77] Creating layer loss_bbox
I0413 18:33:56.681591 13542 net.cpp:100] Creating Layer loss_bbox
I0413 18:33:56.681598 13542 net.cpp:434] loss_bbox <- bbox_pred
I0413 18:33:56.681607 13542 net.cpp:434] loss_bbox <- bbox_targets
I0413 18:33:56.681614 13542 net.cpp:434] loss_bbox <- bbox_inside_weights
I0413 18:33:56.681623 13542 net.cpp:434] loss_bbox <- bbox_outside_weights
I0413 18:33:56.681635 13542 net.cpp:408] loss_bbox -> loss_bbox
I0413 18:33:56.681738 13542 net.cpp:150] Setting up loss_bbox
I0413 18:33:56.681766 13542 net.cpp:157] Top shape: (1)
I0413 18:33:56.681784 13542 net.cpp:160]     with loss weight 1
I0413 18:33:56.681810 13542 net.cpp:165] Memory required for data: 3647764748
I0413 18:33:56.681828 13542 layer_factory.hpp:77] Creating layer feat
I0413 18:33:56.681851 13542 net.cpp:100] Creating Layer feat
I0413 18:33:56.681870 13542 net.cpp:434] feat <- fc7_drop7_0_split_1
I0413 18:33:56.681893 13542 net.cpp:408] feat -> feat
I0413 18:33:56.693193 13542 net.cpp:150] Setting up feat
I0413 18:33:56.693222 13542 net.cpp:157] Top shape: 1 256 (256)
I0413 18:33:56.693235 13542 net.cpp:165] Memory required for data: 3647765772
I0413 18:33:56.693246 13542 layer_factory.hpp:77] Creating layer relu8
I0413 18:33:56.693258 13542 net.cpp:100] Creating Layer relu8
I0413 18:33:56.693265 13542 net.cpp:434] relu8 <- feat
I0413 18:33:56.693275 13542 net.cpp:395] relu8 -> feat (in-place)
I0413 18:33:56.693289 13542 net.cpp:150] Setting up relu8
I0413 18:33:56.693300 13542 net.cpp:157] Top shape: 1 256 (256)
I0413 18:33:56.693310 13542 net.cpp:165] Memory required for data: 3647766796
I0413 18:33:56.693315 13542 layer_factory.hpp:77] Creating layer drop8
I0413 18:33:56.693327 13542 net.cpp:100] Creating Layer drop8
I0413 18:33:56.693334 13542 net.cpp:434] drop8 <- feat
I0413 18:33:56.693341 13542 net.cpp:395] drop8 -> feat (in-place)
I0413 18:33:56.693375 13542 net.cpp:150] Setting up drop8
I0413 18:33:56.693392 13542 net.cpp:157] Top shape: 1 256 (256)
I0413 18:33:56.693397 13542 net.cpp:165] Memory required for data: 3647767820
I0413 18:33:56.693410 13542 layer_factory.hpp:77] Creating layer pid_score
I0413 18:33:56.693423 13542 net.cpp:100] Creating Layer pid_score
I0413 18:33:56.693428 13542 net.cpp:434] pid_score <- feat
I0413 18:33:56.693439 13542 net.cpp:408] pid_score -> pid_score
I0413 18:33:56.708648 13542 net.cpp:150] Setting up pid_score
I0413 18:33:56.708678 13542 net.cpp:157] Top shape: 1 5533 (5533)
I0413 18:33:56.708691 13542 net.cpp:165] Memory required for data: 3647789952
I0413 18:33:56.708701 13542 layer_factory.hpp:77] Creating layer pid_accuracy
I0413 18:33:56.708715 13542 net.cpp:100] Creating Layer pid_accuracy
I0413 18:33:56.708724 13542 net.cpp:434] pid_accuracy <- pid_score
I0413 18:33:56.708732 13542 net.cpp:434] pid_accuracy <- pid_label
I0413 18:33:56.708741 13542 net.cpp:408] pid_accuracy -> pid_accuracy
…
