…
I0413 18:33:27.745354 13506 solver.cpp:48] Initializing solver from parameters: 
base_lr: 0.001
display: 20
lr_policy: "multistep"
gamma: 0.1
momentum: 0.9
weight_decay: 0.0005
snapshot: 0
snapshot_prefix: "faces_example"
net_param {
  name: "GeneratedModel_13_04_2017_18_33"
  layer {
    name: "input"
    type: "Python"
    top: "input_data"
    top: "input_im_info"
    top: "input_gt_boxes"
    top: "input_ignored_boxes"
    python_param {
      module: "layers.roi_data_layer"
      layer: "RoIDataLayer"
      param_str: "{\"num_classes\": 2}"
    }
  }
  layer {
    name: "conv1_1"
    type: "Convolution"
    bottom: "input_data"
    top: "conv1_1"
    param {
      lr_mult: 0
      decay_mult: 0
    }
    param {
      lr_mult: 0
      decay_mult: 0
    }
    convolution_param {
      num_output: 64
      pad: 1
      kernel_size: 3
    }
  }
  layer {
    name: "relu1_1"
    type: "ReLU"
    bottom: "conv1_1"
    top: "conv1_1"
  }
  layer {
    name: "conv1_2"
    type: "Convolution"
    bottom: "conv1_1"
    top: "conv1_2"
    param {
      lr_mult: 0
      decay_mult: 0
    }
    param {
      lr_mult: 0
      decay_mult: 0
    }
    convolution_param {
      num_output: 64
      pad: 1
      kernel_size: 3
    }
  }
  layer {
    name: "relu1_2"
    type: "ReLU"
    bottom: "conv1_2"
    top: "conv1_2"
  }
  layer {
    name: "pool1"
    type: "Pooling"
    bottom: "conv1_2"
    top: "pool1"
    pooling_param {
      pool: MAX
      kernel_size: 2
      stride: 2
    }
  }
  layer {
    name: "conv2_1"
    type: "Convolution"
    bottom: "pool1"
    top: "conv2_1"
    param {
      lr_mult: 0
      decay_mult: 0
    }
    param {
      lr_mult: 0
      decay_mult: 0
    }
    convolution_param {
      num_output: 128
      pad: 1
      kernel_size: 3
    }
  }
  layer {
    name: "relu2_1"
    type: "ReLU"
    bottom: "conv2_1"
    top: "conv2_1"
  }
  layer {
    name: "conv2_2"
    type: "Convolution"
    bottom: "conv2_1"
    top: "conv2_2"
    param {
      lr_mult: 0
      decay_mult: 0
    }
    param {
      lr_mult: 0
      decay_mult: 0
    }
    convolution_param {
      num_output: 128
      pad: 1
      kernel_size: 3
    }
  }
  layer {
    name: "relu2_2"
    type: "ReLU"
    bottom: "conv2_2"
    top: "conv2_2"
  }
  layer {
    name: "pool2"
    type: "Pooling"
    bottom: "conv2_2"
    top: "pool2"
    pooling_param {
      pool: MAX
      kernel_size: 2
      stride: 2
    }
  }
  layer {
    name: "conv3_1"
    type: "Convolution"
    bottom: "pool2"
    top: "conv3_1"
    param {
      lr_mult: 1
    }
    param {
      lr_mult: 2
    }
    convolution_param {
      num_output: 256
      pad: 1
      kernel_size: 3
    }
  }
  layer {
    name: "relu3_1"
    type: "ReLU"
    bottom: "conv3_1"
    top: "conv3_1"
  }
  layer {
    name: "conv3_2"
    type: "Convolution"
    bottom: "conv3_1"
    top: "conv3_2"
    param {
      lr_mult: 1
    }
    param {
      lr_mult: 2
    }
    convolution_param {
      num_output: 256
      pad: 1
      kernel_size: 3
    }
  }
  layer {
    name: "relu3_2"
    type: "ReLU"
    bottom: "conv3_2"
    top: "conv3_2"
  }
  layer {
    name: "conv3_3"
    type: "Convolution"
    bottom: "conv3_2"
    top: "conv3_3"
    param {
      lr_mult: 1
    }
    param {
      lr_mult: 2
    }
    convolution_param {
      num_output: 256
      pad: 1
      kernel_size: 3
    }
  }
  layer {
    name: "relu3_3"
    type: "ReLU"
    bottom: "conv3_3"
    top: "conv3_3"
  }
  layer {
    name: "pool3"
    type: "Pooling"
    bottom: "conv3_3"
    top: "pool3"
    pooling_param {
      pool: MAX
      kernel_size: 2
      stride: 2
    }
  }
  layer {
    name: "conv4_1"
    type: "Convolution"
    bottom: "pool3"
    top: "conv4_1"
    param {
      lr_mult: 1
    }
    param {
      lr_mult: 2
    }
    convolution_param {
      num_output: 512
      pad: 1
      kernel_size: 3
    }
  }
  layer {
    name: "relu4_1"
    type: "ReLU"
    bottom: "conv4_1"
    top: "conv4_1"
  }
  layer {
    name: "conv4_2"
    type: "Convolution"
    bottom: "conv4_1"
    top: "conv4_2"
    param {
      lr_mult: 1
    }
    param {
      lr_mult: 2
    }
    convolution_param {
      num_output: 512
      pad: 1
      kernel_size: 3
    }
  }
  layer {
    name: "relu4_2"
    type: "ReLU"
    bottom: "conv4_2"
    top: "conv4_2"
  }
  layer {
    name: "conv4_3"
    type: "Convolution"
    bottom: "conv4_2"
    top: "conv4_3"
    param {
      lr_mult: 1
    }
    param {
      lr_mult: 2
    }
    convolution_param {
      num_output: 512
      pad: 1
      kernel_size: 3
    }
  }
  layer {
    name: "relu4_3"
    type: "ReLU"
    bottom: "conv4_3"
    top: "conv4_3"
  }
  layer {
    name: "pool4"
    type: "Pooling"
    bottom: "conv4_3"
    top: "pool4"
    pooling_param {
      pool: MAX
      kernel_size: 2
      stride: 2
    }
  }
  layer {
    name: "conv5_1"
    type: "Convolution"
    bottom: "pool4"
    top: "conv5_1"
    param {
      lr_mult: 1
    }
    param {
      lr_mult: 2
    }
    convolution_param {
      num_output: 512
      pad: 1
      kernel_size: 3
    }
  }
  layer {
    name: "relu5_1"
    type: "ReLU"
    bottom: "conv5_1"
    top: "conv5_1"
  }
  layer {
    name: "conv5_2"
    type: "Convolution"
    bottom: "conv5_1"
    top: "conv5_2"
    param {
      lr_mult: 1
    }
    param {
      lr_mult: 2
    }
    convolution_param {
      num_output: 512
      pad: 1
      kernel_size: 3
    }
  }
  layer {
    name: "relu5_2"
    type: "ReLU"
    bottom: "conv5_2"
    top: "conv5_2"
  }
  layer {
    name: "conv5_3"
    type: "Convolution"
    bottom: "conv5_2"
    top: "conv5_3"
    param {
      lr_mult: 1
    }
    param {
      lr_mult: 2
    }
    convolution_param {
      num_output: 512
      pad: 1
      kernel_size: 3
    }
  }
  layer {
    name: "relu5_3"
    type: "ReLU"
    bottom: "conv5_3"
    top: "conv5_3"
  }
  layer {
    name: "rpn_big_conv1"
    type: "Convolution"
    bottom: "conv5_3"
    top: "rpn_big_conv1"
    param {
      lr_mult: 1
    }
    param {
      lr_mult: 2
    }
    convolution_param {
      num_output: 512
      pad: 1
      kernel_size: 3
      stride: 1
      weight_filler {
        type: "gaussian"
        mean: 0
        std: 0.01
      }
      bias_filler {
        type: "constant"
      }
    }
  }
  layer {
    name: "rpn_big_conv1_relu"
    type: "ReLU"
    bottom: "rpn_big_conv1"
    top: "rpn_big_conv1"
    relu_param {
      negative_slope: 0
    }
  }
  layer {
    name: "rpn_big_conv2"
    type: "Convolution"
    bottom: "rpn_big_conv1"
    top: "rpn_big_conv2"
    param {
      lr_mult: 1
    }
    param {
      lr_mult: 2
    }
    convolution_param {
      num_output: 512
      pad: 1
      kernel_size: 3
      stride: 1
      weight_filler {
        type: "gaussian"
        mean: 0
        std: 0.01
      }
      bias_filler {
        type: "constant"
      }
    }
  }
  layer {
    name: "rpn_big_conv2_relu"
    type: "ReLU"
    bottom: "rpn_big_conv2"
    top: "rpn_big_conv2"
    relu_param {
      negative_slope: 0
    }
  }
  layer {
    name: "rpn_big_conv2_drop"
    type: "Dropout"
    bottom: "rpn_big_conv2"
    top: "rpn_big_conv2"
    dropout_param {
      dropout_ratio: 0.3
    }
  }
  layer {
    name: "rpn_big_output_cls"
    type: "Convolution"
    bottom: "rpn_big_conv2"
    top: "rpn_big_output_cls"
    param {
      lr_mult: 1
    }
    param {
      lr_mult: 2
    }
    convolution_param {
      num_output: 384
      pad: 1
      kernel_size: 3
      stride: 1
      weight_filler {
        type: "gaussian"
        mean: 0
        std: 0.01
      }
      bias_filler {
        type: "constant"
      }
    }
  }
  layer {
    name: "rpn_big_output_cls_relu"
    type: "ReLU"
    bottom: "rpn_big_output_cls"
    top: "rpn_big_output_cls"
    relu_param {
      negative_slope: 0
    }
  }
  layer {
    name: "rpn_big_cls_score"
    type: "Convolution"
    bottom: "rpn_big_output_cls"
    top: "rpn_big_cls_score"
    param {
      lr_mult: 1
    }
    param {
      lr_mult: 2
    }
    convolution_param {
      num_output: 52
      pad: 0
      kernel_size: 3
      stride: 1
      weight_filler {
        type: "gaussian"
        mean: 0
        std: 0.01
      }
      bias_filler {
        type: "constant"
      }
    }
  }
  layer {
    name: "rpn_big_cls_score_reshape"
    type: "Reshape"
    bottom: "rpn_big_cls_score"
    top: "rpn_big_cls_score_reshape"
    reshape_param {
      shape {
        dim: 0
        dim: 2
        dim: -1
        dim: 0
      }
    }
  }
  layer {
    name: "rpn_big_cls_prob"
    type: "Softmax"
    bottom: "rpn_big_cls_score_reshape"
    top: "rpn_big_cls_prob"
  }
  layer {
    name: "rpn_big_cls_prob_reshape"
    type: "Reshape"
    bottom: "rpn_big_cls_prob"
    top: "rpn_big_cls_prob_reshape"
    reshape_param {
      shape {
        dim: 0
        dim: 52
        dim: -1
        dim: 0
      }
    }
  }
  layer {
    name: "rpn_big_anchor_target"
    type: "Python"
    bottom: "rpn_big_cls_score"
    bottom: "input_gt_boxes"
    bottom: "input_ignored_boxes"
    bottom: "input_im_info"
    bottom: "input_data"
    bottom: "rpn_big_cls_prob_reshape"
    top: "rpn_big_anchor_target_labels"
    top: "rpn_big_anchor_target_bbox_targets"
    top: "rpn_big_anchor_target_inside_weights"
    top: "rpn_big_anchor_target_outside_weights"
    python_param {
      module: "rpn.anchor_target_layer"
      layer: "AnchorTargetLayer"
      param_str: "{\"batchsize\": 256, \"square_targets\": true, \"name\": \"rpn_big\", \"feat_stride\": 16, \"num_classes\": 1, \"anchor_scales\": [2.5, 3.025, 3.66025, 4.4289024999999995, 5.358972025, 6.484356150249999, 7.846070941802498, 9.493745839581022, 11.487432465893036, 13.899793283730574, 16.818749873313998, 20.350687346709933, 24.62433168951902, 29.795441344318014], \"fg_fraction\": 0.5, \"tn_fraction\": 0.2, \"anchor_shift_num_xy\": [[2, 2], [2, 2], [2, 2], [2, 2], [1, 1], [1, 1], [1, 1], [1, 1], [1, 1], [1, 1], [1, 1], [1, 1], [1, 1], [1, 1]], \"positive_overlap\": 0.6, \"anchor_ratios\": [1.0], \"negative_overlap\": 0.4}"
    }
  }
  layer {
    name: "rpn_big_loss_cls"
    type: "SoftmaxWithLoss"
    bottom: "rpn_big_cls_score_reshape"
    bottom: "rpn_big_anchor_target_labels"
    top: "rpn_big_loss_cls"
    loss_weight: 1
    propagate_down: true
    propagate_down: false
    loss_param {
      ignore_label: -1
      normalization: VALID
    }
  }
  layer {
    name: "rpn_big_output_box"
    type: "Convolution"
    bottom: "rpn_big_conv2"
    top: "rpn_big_output_box"
    param {
      lr_mult: 1
    }
    param {
      lr_mult: 2
    }
    convolution_param {
      num_output: 384
      pad: 1
      kernel_size: 3
      stride: 1
      weight_filler {
        type: "gaussian"
        mean: 0
        std: 0.01
      }
      bias_filler {
        type: "constant"
      }
    }
  }
  layer {
    name: "rpn_big_output_box_relu"
    type: "ReLU"
    bottom: "rpn_big_output_box"
    top: "rpn_big_output_box"
    relu_param {
      negative_slope: 0
    }
  }
  layer {
    name: "rpn_big_bbox_pred"
    type: "Convolution"
    bottom: "rpn_big_output_box"
    top: "rpn_big_bbox_pred"
    param {
      lr_mult: 1
    }
    param {
      lr_mult: 2
    }
    convolution_param {
      num_output: 104
      pad: 0
      kernel_size: 3
      stride: 1
      weight_filler {
        type: "gaussian"
        mean: 0
        std: 0.01
      }
      bias_filler {
        type: "constant"
      }
    }
  }
  layer {
    name: "rpn_big_loss_bbox"
    type: "Python"
    bottom: "rpn_big_bbox_pred"
    bottom: "rpn_big_anchor_target_bbox_targets"
    bottom: "rpn_big_anchor_target_inside_weights"
    bottom: "rpn_big_anchor_target_outside_weights"
    top: "rpn_big_loss_bbox"
    loss_weight: 1
    python_param {
      module: "layers.smooth_l1_loss"
      layer: "SmoothL1LossLayer"
      param_str: "{\"sigma\": 3}"
    }
  }
  layer {
    name: "proposal"
    type: "Python"
    bottom: "rpn_big_cls_prob_reshape"
    bottom: "rpn_big_bbox_pred"
    bottom: "input_im_info"
    top: "rpn_rois"
    python_param {
      module: "rpn.proposal_layer"
      layer: "ProposalLayer"
      param_str: "{\"anchor_shift_num_xy\": [[2, 2], [2, 2], [2, 2], [2, 2], [1, 1], [1, 1], [1, 1], [1, 1], [1, 1], [1, 1], [1, 1], [1, 1], [1, 1], [1, 1]], \"feat_stride\": 16, \"num_classes\": 1, \"anchor_scales\": [2.5, 3.025, 3.66025, 4.4289024999999995, 5.358972025, 6.484356150249999, 7.846070941802498, 9.493745839581022, 11.487432465893036, 13.899793283730574, 16.818749873313998, 20.350687346709933, 24.62433168951902, 29.795441344318014], \"square_targets\": true, \"name\": \"rpn_big\", \"batchsize\": 256, \"anchor_ratios\": [1.0]}"
    }
  }
  layer {
    name: "roi-data"
    type: "Python"
    bottom: "rpn_rois"
    bottom: "input_gt_boxes"
    top: "rois"
    top: "labels"
    top: "bbox_targets"
    top: "bbox_inside_weights"
    top: "bbox_outside_weights"
    top: "pid_label"
    python_param {
      module: "rpn.proposal_target_layer"
      layer: "ProposalTargetLayer"
      param_str: "{\"num_classes\": 2, \"bg_aux_label\": 5532}"
    }
  }
  layer {
    name: "roi-pool"
    type: "ROIPooling"
    bottom: "conv5_3"
    bottom: "rois"
    top: "roi-pool"
    roi_pooling_param {
      pooled_h: 7
      pooled_w: 7
      spatial_scale: 0.0625
    }
  }
  layer {
    name: "fc6"
    type: "InnerProduct"
    bottom: "roi-pool"
    top: "fc6"
    param {
      lr_mult: 1
    }
    param {
      lr_mult: 2
    }
    inner_product_param {
      num_output: 4096
    }
  }
  layer {
    name: "relu6"
    type: "ReLU"
    bottom: "fc6"
    top: "fc6"
  }
  layer {
    name: "drop6"
    type: "Dropout"
    bottom: "fc6"
    top: "fc6"
    dropout_param {
      dropout_ratio: 0.5
    }
  }
  layer {
    name: "fc7"
    type: "InnerProduct"
    bottom: "fc6"
    top: "fc7"
    param {
      lr_mult: 1
    }
    param {
      lr_mult: 2
    }
    inner_product_param {
      num_output: 4096
    }
  }
  layer {
    name: "relu7"
    type: "ReLU"
    bottom: "fc7"
    top: "fc7"
  }
  layer {
    name: "drop7"
    type: "Dropout"
    bottom: "fc7"
    top: "fc7"
    dropout_param {
      dropout_ratio: 0.5
    }
  }
  layer {
    name: "bbox_pred"
    type: "InnerProduct"
    bottom: "fc7"
    top: "bbox_pred"
    param {
      lr_mult: 1
    }
    param {
      lr_mult: 2
    }
    inner_product_param {
      num_output: 8
      weight_filler {
        type: "gaussian"
        std: 0.001
      }
      bias_filler {
        type: "constant"
        value: 0
      }
    }
  }
  layer {
    name: "loss_bbox"
    type: "SmoothL1Loss"
    bottom: "bbox_pred"
    bottom: "bbox_targets"
    bottom: "bbox_inside_weights"
    bottom: "bbox_outside_weights"
    top: "loss_bbox"
    loss_weight: 1
  }
  layer {
    name: "feat"
    type: "InnerProduct"
    bottom: "fc7"
    top: "feat"
    param {
      lr_mult: 1
      decay_mult: 1
    }
    param {
      lr_mult: 2
      decay_mult: 0
    }
    inner_product_param {
      num_output: 256
      weight_filler {
        type: "gaussian"
        std: 0.01
      }
      bias_filler {
        type: "constant"
        value: 0
      }
    }
  }
  layer {
    name: "relu8"
    type: "ReLU"
    bottom: "feat"
    top: "feat"
  }
  layer {
    name: "drop8"
    type: "Dropout"
    bottom: "feat"
    top: "feat"
    dropout_param {
      dropout_ratio: 0.5
    }
  }
  layer {
    name: "pid_score"
    type: "InnerProduct"
    bottom: "feat"
    top: "pid_score"
    param {
      lr_mult: 1
      decay_mult: 1
    }
    param {
      lr_mult: 2
      decay_mult: 0
    }
    inner_product_param {
      num_output: 5533
      weight_filler {
        type: "gaussian"
        std: 0.001
      }
      bias_filler {
        type: "constant"
        value: 0
      }
    }
  }
  layer {
    name: "pid_loss"
    type: "SoftmaxWithLoss"
    bottom: "pid_score"
    bottom: "pid_label"
    top: "pid_loss"
  }
}
average_loss: 100
stepvalue: 70000
stepvalue: 120000
iter_size: 2
I0413 18:33:27.745445 13506 solver.cpp:86] Creating training net specified in net_param.
I0413 18:33:27.745903 13506 net.cpp:58] Initializing net from parameters: 
name: "GeneratedModel_13_04_2017_18_33"
state {
  phase: TRAIN
}
layer {
  name: "input"
  type: "Python"
  top: "input_data"
  top: "input_im_info"
  top: "input_gt_boxes"
  top: "input_ignored_boxes"
  python_param {
    module: "layers.roi_data_layer"
    layer: "RoIDataLayer"
    param_str: "{\"num_classes\": 2}"
  }
}
layer {
  name: "conv1_1"
  type: "Convolution"
  bottom: "input_data"
  top: "conv1_1"
  param {
    lr_mult: 0
    decay_mult: 0
  }
  param {
    lr_mult: 0
    decay_mult: 0
  }
  convolution_param {
    num_output: 64
    pad: 1
    kernel_size: 3
  }
}
layer {
  name: "relu1_1"
  type: "ReLU"
  bottom: "conv1_1"
  top: "conv1_1"
}
layer {
  name: "conv1_2"
  type: "Convolution"
  bottom: "conv1_1"
  top: "conv1_2"
  param {
    lr_mult: 0
    decay_mult: 0
  }
  param {
    lr_mult: 0
    decay_mult: 0
  }
  convolution_param {
    num_output: 64
    pad: 1
    kernel_size: 3
  }
}
layer {
  name: "relu1_2"
  type: "ReLU"
  bottom: "conv1_2"
  top: "conv1_2"
}
layer {
  name: "pool1"
  type: "Pooling"
  bottom: "conv1_2"
  top: "pool1"
  pooling_param {
    pool: MAX
    kernel_size: 2
    stride: 2
  }
}
layer {
  name: "conv2_1"
  type: "Convolution"
  bottom: "pool1"
  top: "conv2_1"
  param {
    lr_mult: 0
    decay_mult: 0
  }
  param {
    lr_mult: 0
    decay_mult: 0
  }
  convolution_param {
    num_output: 128
    pad: 1
    kernel_size: 3
  }
}
layer {
  name: "relu2_1"
  type: "ReLU"
  bottom: "conv2_1"
  top: "conv2_1"
}
layer {
  name: "conv2_2"
  type: "Convolution"
  bottom: "conv2_1"
  top: "conv2_2"
  param {
    lr_mult: 0
    decay_mult: 0
  }
  param {
    lr_mult: 0
    decay_mult: 0
  }
  convolution_param {
    num_output: 128
    pad: 1
    kernel_size: 3
  }
}
layer {
  name: "relu2_2"
  type: "ReLU"
  bottom: "conv2_2"
  top: "conv2_2"
}
layer {
  name: "pool2"
  type: "Pooling"
  bottom: "conv2_2"
  top: "pool2"
  pooling_param {
    pool: MAX
    kernel_size: 2
    stride: 2
  }
}
layer {
  name: "conv3_1"
  type: "Convolution"
  bottom: "pool2"
  top: "conv3_1"
  param {
    lr_mult: 1
  }
  param {
    lr_mult: 2
  }
  convolution_param {
    num_output: 256
    pad: 1
    kernel_size: 3
  }
}
layer {
  name: "relu3_1"
  type: "ReLU"
  bottom: "conv3_1"
  top: "conv3_1"
}
layer {
  name: "conv3_2"
  type: "Convolution"
  bottom: "conv3_1"
  top: "conv3_2"
  param {
    lr_mult: 1
  }
  param {
    lr_mult: 2
  }
  convolution_param {
    num_output: 256
    pad: 1
    kernel_size: 3
  }
}
layer {
  name: "relu3_2"
  type: "ReLU"
  bottom: "conv3_2"
  top: "conv3_2"
}
layer {
  name: "conv3_3"
  type: "Convolution"
  bottom: "conv3_2"
  top: "conv3_3"
  param {
    lr_mult: 1
  }
  param {
    lr_mult: 2
  }
  convolution_param {
    num_output: 256
    pad: 1
    kernel_size: 3
  }
}
layer {
  name: "relu3_3"
  type: "ReLU"
  bottom: "conv3_3"
  top: "conv3_3"
}
layer {
  name: "pool3"
  type: "Pooling"
  bottom: "conv3_3"
  top: "pool3"
  pooling_param {
    pool: MAX
    kernel_size: 2
    stride: 2
  }
}
layer {
  name: "conv4_1"
  type: "Convolution"
  bottom: "pool3"
  top: "conv4_1"
  param {
    lr_mult: 1
  }
  param {
    lr_mult: 2
  }
  convolution_param {
    num_output: 512
    pad: 1
    kernel_size: 3
  }
}
layer {
  name: "relu4_1"
  type: "ReLU"
  bottom: "conv4_1"
  top: "conv4_1"
}
layer {
  name: "conv4_2"
  type: "Convolution"
  bottom: "conv4_1"
  top: "conv4_2"
  param {
    lr_mult: 1
  }
  param {
    lr_mult: 2
  }
  convolution_param {
    num_output: 512
    pad: 1
    kernel_size: 3
  }
}
layer {
  name: "relu4_2"
  type: "ReLU"
  bottom: "conv4_2"
  top: "conv4_2"
}
layer {
  name: "conv4_3"
  type: "Convolution"
  bottom: "conv4_2"
  top: "conv4_3"
  param {
    lr_mult: 1
  }
  param {
    lr_mult: 2
  }
  convolution_param {
    num_output: 512
    pad: 1
    kernel_size: 3
  }
}
layer {
  name: "relu4_3"
  type: "ReLU"
  bottom: "conv4_3"
  top: "conv4_3"
}
layer {
  name: "pool4"
  type: "Pooling"
  bottom: "conv4_3"
  top: "pool4"
  pooling_param {
    pool: MAX
    kernel_size: 2
    stride: 2
  }
}
layer {
  name: "conv5_1"
  type: "Convolution"
  bottom: "pool4"
  top: "conv5_1"
  param {
    lr_mult: 1
  }
  param {
    lr_mult: 2
  }
  convolution_param {
    num_output: 512
    pad: 1
    kernel_size: 3
  }
}
layer {
  name: "relu5_1"
  type: "ReLU"
  bottom: "conv5_1"
  top: "conv5_1"
}
layer {
  name: "conv5_2"
  type: "Convolution"
  bottom: "conv5_1"
  top: "conv5_2"
  param {
    lr_mult: 1
  }
  param {
    lr_mult: 2
  }
  convolution_param {
    num_output: 512
    pad: 1
    kernel_size: 3
  }
}
layer {
  name: "relu5_2"
  type: "ReLU"
  bottom: "conv5_2"
  top: "conv5_2"
}
layer {
  name: "conv5_3"
  type: "Convolution"
  bottom: "conv5_2"
  top: "conv5_3"
  param {
    lr_mult: 1
  }
  param {
    lr_mult: 2
  }
  convolution_param {
    num_output: 512
    pad: 1
    kernel_size: 3
  }
}
layer {
  name: "relu5_3"
  type: "ReLU"
  bottom: "conv5_3"
  top: "conv5_3"
}
layer {
  name: "rpn_big_conv1"
  type: "Convolution"
  bottom: "conv5_3"
  top: "rpn_big_conv1"
  param {
    lr_mult: 1
  }
  param {
    lr_mult: 2
  }
  convolution_param {
    num_output: 512
    pad: 1
    kernel_size: 3
    stride: 1
    weight_filler {
      type: "gaussian"
      mean: 0
      std: 0.01
    }
    bias_filler {
      type: "constant"
    }
  }
}
layer {
  name: "rpn_big_conv1_relu"
  type: "ReLU"
  bottom: "rpn_big_conv1"
  top: "rpn_big_conv1"
  relu_param {
    negative_slope: 0
  }
}
layer {
  name: "rpn_big_conv2"
  type: "Convolution"
  bottom: "rpn_big_conv1"
  top: "rpn_big_conv2"
  param {
    lr_mult: 1
  }
  param {
    lr_mult: 2
  }
  convolution_param {
    num_output: 512
    pad: 1
    kernel_size: 3
    stride: 1
    weight_filler {
      type: "gaussian"
      mean: 0
      std: 0.01
    }
    bias_filler {
      type: "constant"
    }
  }
}
layer {
  name: "rpn_big_conv2_relu"
  type: "ReLU"
  bottom: "rpn_big_conv2"
  top: "rpn_big_conv2"
  relu_param {
    negative_slope: 0
  }
}
layer {
  name: "rpn_big_conv2_drop"
  type: "Dropout"
  bottom: "rpn_big_conv2"
  top: "rpn_big_conv2"
  dropout_param {
    dropout_ratio: 0.3
  }
}
layer {
  name: "rpn_big_output_cls"
  type: "Convolution"
  bottom: "rpn_big_conv2"
  top: "rpn_big_output_cls"
  param {
    lr_mult: 1
  }
  param {
    lr_mult: 2
  }
  convolution_param {
    num_output: 384
    pad: 1
    kernel_size: 3
    stride: 1
    weight_filler {
      type: "gaussian"
      mean: 0
      std: 0.01
    }
    bias_filler {
      type: "constant"
    }
  }
}
layer {
  name: "rpn_big_output_cls_relu"
  type: "ReLU"
  bottom: "rpn_big_output_cls"
  top: "rpn_big_output_cls"
  relu_param {
    negative_slope: 0
  }
}
layer {
  name: "rpn_big_cls_score"
  type: "Convolution"
  bottom: "rpn_big_output_cls"
  top: "rpn_big_cls_score"
  param {
    lr_mult: 1
  }
  param {
    lr_mult: 2
  }
  convolution_param {
    num_output: 52
    pad: 0
    kernel_size: 3
    stride: 1
    weight_filler {
      type: "gaussian"
      mean: 0
      std: 0.01
    }
    bias_filler {
      type: "constant"
    }
  }
}
layer {
  name: "rpn_big_cls_score_reshape"
  type: "Reshape"
  bottom: "rpn_big_cls_score"
  top: "rpn_big_cls_score_reshape"
  reshape_param {
    shape {
      dim: 0
      dim: 2
      dim: -1
      dim: 0
    }
  }
}
layer {
  name: "rpn_big_cls_prob"
  type: "Softmax"
  bottom: "rpn_big_cls_score_reshape"
  top: "rpn_big_cls_prob"
}
layer {
  name: "rpn_big_cls_prob_reshape"
  type: "Reshape"
  bottom: "rpn_big_cls_prob"
  top: "rpn_big_cls_prob_reshape"
  reshape_param {
    shape {
      dim: 0
      dim: 52
      dim: -1
      dim: 0
    }
  }
}
layer {
  name: "rpn_big_anchor_target"
  type: "Python"
  bottom: "rpn_big_cls_score"
  bottom: "input_gt_boxes"
  bottom: "input_ignored_boxes"
  bottom: "input_im_info"
  bottom: "input_data"
  bottom: "rpn_big_cls_prob_reshape"
  top: "rpn_big_anchor_target_labels"
  top: "rpn_big_anchor_target_bbox_targets"
  top: "rpn_big_anchor_target_inside_weights"
  top: "rpn_big_anchor_target_outside_weights"
  python_param {
    module: "rpn.anchor_target_layer"
    layer: "AnchorTargetLayer"
    param_str: "{\"batchsize\": 256, \"square_targets\": true, \"name\": \"rpn_big\", \"feat_stride\": 16, \"num_classes\": 1, \"anchor_scales\": [2.5, 3.025, 3.66025, 4.4289024999999995, 5.358972025, 6.484356150249999, 7.846070941802498, 9.493745839581022, 11.487432465893036, 13.899793283730574, 16.818749873313998, 20.350687346709933, 24.62433168951902, 29.795441344318014], \"fg_fraction\": 0.5, \"tn_fraction\": 0.2, \"anchor_shift_num_xy\": [[2, 2], [2, 2], [2, 2], [2, 2], [1, 1], [1, 1], [1, 1], [1, 1], [1, 1], [1, 1], [1, 1], [1, 1], [1, 1], [1, 1]], \"positive_overlap\": 0.6, \"anchor_ratios\": [1.0], \"negative_overlap\": 0.4}"
  }
}
layer {
  name: "rpn_big_loss_cls"
  type: "SoftmaxWithLoss"
  bottom: "rpn_big_cls_score_reshape"
  bottom: "rpn_big_anchor_target_labels"
  top: "rpn_big_loss_cls"
  loss_weight: 1
  propagate_down: true
  propagate_down: false
  loss_param {
    ignore_label: -1
    normalization: VALID
  }
}
layer {
  name: "rpn_big_output_box"
  type: "Convolution"
  bottom: "rpn_big_conv2"
  top: "rpn_big_output_box"
  param {
    lr_mult: 1
  }
  param {
    lr_mult: 2
  }
  convolution_param {
    num_output: 384
    pad: 1
    kernel_size: 3
    stride: 1
    weight_filler {
      type: "gaussian"
      mean: 0
      std: 0.01
    }
    bias_filler {
      type: "constant"
    }
  }
}
layer {
  name: "rpn_big_output_box_relu"
  type: "ReLU"
  bottom: "rpn_big_output_box"
  top: "rpn_big_output_box"
  relu_param {
    negative_slope: 0
  }
}
layer {
  name: "rpn_big_bbox_pred"
  type: "Convolution"
  bottom: "rpn_big_output_box"
  top: "rpn_big_bbox_pred"
  param {
    lr_mult: 1
  }
  param {
    lr_mult: 2
  }
  convolution_param {
    num_output: 104
    pad: 0
    kernel_size: 3
    stride: 1
    weight_filler {
      type: "gaussian"
      mean: 0
      std: 0.01
    }
    bias_filler {
      type: "constant"
    }
  }
}
layer {
  name: "rpn_big_loss_bbox"
  type: "Python"
  bottom: "rpn_big_bbox_pred"
  bottom: "rpn_big_anchor_target_bbox_targets"
  bottom: "rpn_big_anchor_target_inside_weights"
  bottom: "rpn_big_anchor_target_outside_weights"
  top: "rpn_big_loss_bbox"
  loss_weight: 1
  python_param {
    module: "layers.smooth_l1_loss"
    layer: "SmoothL1LossLayer"
    param_str: "{\"sigma\": 3}"
  }
}
layer {
  name: "proposal"
  type: "Python"
  bottom: "rpn_big_cls_prob_reshape"
  bottom: "rpn_big_bbox_pred"
  bottom: "input_im_info"
  top: "rpn_rois"
  python_param {
    module: "rpn.proposal_layer"
    layer: "ProposalLayer"
    param_str: "{\"anchor_shift_num_xy\": [[2, 2], [2, 2], [2, 2], [2, 2], [1, 1], [1, 1], [1, 1], [1, 1], [1, 1], [1, 1], [1, 1], [1, 1], [1, 1], [1, 1]], \"feat_stride\": 16, \"num_classes\": 1, \"anchor_scales\": [2.5, 3.025, 3.66025, 4.4289024999999995, 5.358972025, 6.484356150249999, 7.846070941802498, 9.493745839581022, 11.487432465893036, 13.899793283730574, 16.818749873313998, 20.350687346709933, 24.62433168951902, 29.795441344318014], \"square_targets\": true, \"name\": \"rpn_big\", \"batchsize\": 256, \"anchor_ratios\": [1.0]}"
  }
}
layer {
  name: "roi-data"
  type: "Python"
  bottom: "rpn_rois"
  bottom: "input_gt_boxes"
  top: "rois"
  top: "labels"
  top: "bbox_targets"
  top: "bbox_inside_weights"
  top: "bbox_outside_weights"
  top: "pid_label"
  python_param {
    module: "rpn.proposal_target_layer"
    layer: "ProposalTargetLayer"
    param_str: "{\"num_classes\": 2, \"bg_aux_label\": 5532}"
  }
}
layer {
  name: "roi-pool"
  type: "ROIPooling"
  bottom: "conv5_3"
  bottom: "rois"
  top: "roi-pool"
  roi_pooling_param {
    pooled_h: 7
    pooled_w: 7
    spatial_scale: 0.0625
  }
}
layer {
  name: "fc6"
  type: "InnerProduct"
  bottom: "roi-pool"
  top: "fc6"
  param {
    lr_mult: 1
  }
  param {
    lr_mult: 2
  }
  inner_product_param {
    num_output: 4096
  }
}
layer {
  name: "relu6"
  type: "ReLU"
  bottom: "fc6"
  top: "fc6"
}
layer {
  name: "drop6"
  type: "Dropout"
  bottom: "fc6"
  top: "fc6"
  dropout_param {
    dropout_ratio: 0.5
  }
}
layer {
  name: "fc7"
  type: "InnerProduct"
  bottom: "fc6"
  top: "fc7"
  param {
    lr_mult: 1
  }
  param {
    lr_mult: 2
  }
  inner_product_param {
    num_output: 4096
  }
}
layer {
  name: "relu7"
  type: "ReLU"
  bottom: "fc7"
  top: "fc7"
}
layer {
  name: "drop7"
  type: "Dropout"
  bottom: "fc7"
  top: "fc7"
  dropout_param {
    dropout_ratio: 0.5
  }
}
layer {
  name: "bbox_pred"
  type: "InnerProduct"
  bottom: "fc7"
  top: "bbox_pred"
  param {
    lr_mult: 1
  }
  param {
    lr_mult: 2
  }
  inner_product_param {
    num_output: 8
    weight_filler {
      type: "gaussian"
      std: 0.001
    }
    bias_filler {
      type: "constant"
      value: 0
    }
  }
}
layer {
  name: "loss_bbox"
  type: "SmoothL1Loss"
  bottom: "bbox_pred"
  bottom: "bbox_targets"
  bottom: "bbox_inside_weights"
  bottom: "bbox_outside_weights"
  top: "loss_bbox"
  loss_weight: 1
}
layer {
  name: "feat"
  type: "InnerProduct"
  bottom: "fc7"
  top: "feat"
  param {
    lr_mult: 1
    decay_mult: 1
  }
  param {
    lr_mult: 2
    decay_mult: 0
  }
  inner_product_param {
    num_output: 256
    weight_filler {
      type: "gaussian"
      std: 0.01
    }
    bias_filler {
      type: "constant"
      value: 0
    }
  }
}
layer {
  name: "relu8"
  type: "ReLU"
  bottom: "feat"
  top: "feat"
}
layer {
  name: "drop8"
  type: "Dropout"
  bottom: "feat"
  top: "feat"
  dropout_param {
    dropout_ratio: 0.5
  }
}
layer {
  name: "pid_score"
  type: "InnerProduct"
  bottom: "feat"
  top: "pid_score"
  param {
    lr_mult: 1
    decay_mult: 1
  }
  param {
    lr_mult: 2
    decay_mult: 0
  }
  inner_product_param {
    num_output: 5533
    weight_filler {
      type: "gaussian"
      std: 0.001
    }
    bias_filler {
      type: "constant"
      value: 0
    }
  }
}
layer {
  name: "pid_loss"
  type: "SoftmaxWithLoss"
  bottom: "pid_score"
  bottom: "pid_label"
  top: "pid_loss"
}
I0413 18:33:27.746146 13506 layer_factory.hpp:77] Creating layer input
I0413 18:33:27.747426 13506 net.cpp:100] Creating Layer input
I0413 18:33:27.747442 13506 net.cpp:408] input -> input_data
I0413 18:33:27.747453 13506 net.cpp:408] input -> input_im_info
I0413 18:33:27.747462 13506 net.cpp:408] input -> input_gt_boxes
I0413 18:33:27.747468 13506 net.cpp:408] input -> input_ignored_boxes
RoiDataLayer: name_to_top: {'gt_boxes': 2, 'im_info': 1, 'ignored_boxes': 3, 'data': 0}
I0413 18:33:28.079268 13506 net.cpp:150] Setting up input
I0413 18:33:28.079303 13506 net.cpp:157] Top shape: 1 3 1000 1500 (4500000)
I0413 18:33:28.079313 13506 net.cpp:157] Top shape: 1 3 (3)
I0413 18:33:28.079319 13506 net.cpp:157] Top shape: 1 5 (5)
I0413 18:33:28.079326 13506 net.cpp:157] Top shape: 1 5 (5)
I0413 18:33:28.079331 13506 net.cpp:165] Memory required for data: 18000052
I0413 18:33:28.079341 13506 layer_factory.hpp:77] Creating layer input_data_input_0_split
I0413 18:33:28.079361 13506 net.cpp:100] Creating Layer input_data_input_0_split
I0413 18:33:28.079370 13506 net.cpp:434] input_data_input_0_split <- input_data
I0413 18:33:28.079382 13506 net.cpp:408] input_data_input_0_split -> input_data_input_0_split_0
I0413 18:33:28.079401 13506 net.cpp:408] input_data_input_0_split -> input_data_input_0_split_1
I0413 18:33:28.079439 13506 net.cpp:150] Setting up input_data_input_0_split
I0413 18:33:28.079450 13506 net.cpp:157] Top shape: 1 3 1000 1500 (4500000)
I0413 18:33:28.079459 13506 net.cpp:157] Top shape: 1 3 1000 1500 (4500000)
I0413 18:33:28.079466 13506 net.cpp:165] Memory required for data: 54000052
I0413 18:33:28.079473 13506 layer_factory.hpp:77] Creating layer input_im_info_input_1_split
I0413 18:33:28.079483 13506 net.cpp:100] Creating Layer input_im_info_input_1_split
I0413 18:33:28.079490 13506 net.cpp:434] input_im_info_input_1_split <- input_im_info
I0413 18:33:28.079500 13506 net.cpp:408] input_im_info_input_1_split -> input_im_info_input_1_split_0
I0413 18:33:28.079512 13506 net.cpp:408] input_im_info_input_1_split -> input_im_info_input_1_split_1
I0413 18:33:28.079547 13506 net.cpp:150] Setting up input_im_info_input_1_split
I0413 18:33:28.079557 13506 net.cpp:157] Top shape: 1 3 (3)
I0413 18:33:28.079566 13506 net.cpp:157] Top shape: 1 3 (3)
I0413 18:33:28.079572 13506 net.cpp:165] Memory required for data: 54000076
I0413 18:33:28.079578 13506 layer_factory.hpp:77] Creating layer input_gt_boxes_input_2_split
I0413 18:33:28.079589 13506 net.cpp:100] Creating Layer input_gt_boxes_input_2_split
I0413 18:33:28.079596 13506 net.cpp:434] input_gt_boxes_input_2_split <- input_gt_boxes
I0413 18:33:28.079607 13506 net.cpp:408] input_gt_boxes_input_2_split -> input_gt_boxes_input_2_split_0
I0413 18:33:28.079620 13506 net.cpp:408] input_gt_boxes_input_2_split -> input_gt_boxes_input_2_split_1
I0413 18:33:28.079655 13506 net.cpp:150] Setting up input_gt_boxes_input_2_split
I0413 18:33:28.079665 13506 net.cpp:157] Top shape: 1 5 (5)
I0413 18:33:28.079674 13506 net.cpp:157] Top shape: 1 5 (5)
I0413 18:33:28.079679 13506 net.cpp:165] Memory required for data: 54000116
I0413 18:33:28.079685 13506 layer_factory.hpp:77] Creating layer conv1_1
I0413 18:33:28.079701 13506 net.cpp:100] Creating Layer conv1_1
I0413 18:33:28.079708 13506 net.cpp:434] conv1_1 <- input_data_input_0_split_0
I0413 18:33:28.079718 13506 net.cpp:408] conv1_1 -> conv1_1
I0413 18:33:28.082901 13506 net.cpp:150] Setting up conv1_1
I0413 18:33:28.082937 13506 net.cpp:157] Top shape: 1 64 1000 1500 (96000000)
I0413 18:33:28.082943 13506 net.cpp:165] Memory required for data: 438000116
I0413 18:33:28.082969 13506 layer_factory.hpp:77] Creating layer relu1_1
I0413 18:33:28.082984 13506 net.cpp:100] Creating Layer relu1_1
I0413 18:33:28.082993 13506 net.cpp:434] relu1_1 <- conv1_1
I0413 18:33:28.083004 13506 net.cpp:395] relu1_1 -> conv1_1 (in-place)
I0413 18:33:28.083024 13506 net.cpp:150] Setting up relu1_1
I0413 18:33:28.083035 13506 net.cpp:157] Top shape: 1 64 1000 1500 (96000000)
I0413 18:33:28.083040 13506 net.cpp:165] Memory required for data: 822000116
I0413 18:33:28.083046 13506 layer_factory.hpp:77] Creating layer conv1_2
I0413 18:33:28.083061 13506 net.cpp:100] Creating Layer conv1_2
I0413 18:33:28.083070 13506 net.cpp:434] conv1_2 <- conv1_1
I0413 18:33:28.083081 13506 net.cpp:408] conv1_2 -> conv1_2
I0413 18:33:28.086411 13506 net.cpp:150] Setting up conv1_2
I0413 18:33:28.086452 13506 net.cpp:157] Top shape: 1 64 1000 1500 (96000000)
I0413 18:33:28.086458 13506 net.cpp:165] Memory required for data: 1206000116
I0413 18:33:28.086482 13506 layer_factory.hpp:77] Creating layer relu1_2
I0413 18:33:28.086498 13506 net.cpp:100] Creating Layer relu1_2
I0413 18:33:28.086505 13506 net.cpp:434] relu1_2 <- conv1_2
I0413 18:33:28.086519 13506 net.cpp:395] relu1_2 -> conv1_2 (in-place)
I0413 18:33:28.086537 13506 net.cpp:150] Setting up relu1_2
I0413 18:33:28.086546 13506 net.cpp:157] Top shape: 1 64 1000 1500 (96000000)
I0413 18:33:28.086552 13506 net.cpp:165] Memory required for data: 1590000116
I0413 18:33:28.086558 13506 layer_factory.hpp:77] Creating layer pool1
I0413 18:33:28.086571 13506 net.cpp:100] Creating Layer pool1
I0413 18:33:28.086578 13506 net.cpp:434] pool1 <- conv1_2
I0413 18:33:28.086591 13506 net.cpp:408] pool1 -> pool1
I0413 18:33:28.086681 13506 net.cpp:150] Setting up pool1
I0413 18:33:28.086696 13506 net.cpp:157] Top shape: 1 64 500 750 (24000000)
I0413 18:33:28.086704 13506 net.cpp:165] Memory required for data: 1686000116
I0413 18:33:28.086709 13506 layer_factory.hpp:77] Creating layer conv2_1
I0413 18:33:28.086730 13506 net.cpp:100] Creating Layer conv2_1
I0413 18:33:28.086737 13506 net.cpp:434] conv2_1 <- pool1
I0413 18:33:28.086750 13506 net.cpp:408] conv2_1 -> conv2_1
I0413 18:33:28.088099 13506 net.cpp:150] Setting up conv2_1
I0413 18:33:28.088124 13506 net.cpp:157] Top shape: 1 128 500 750 (48000000)
I0413 18:33:28.088129 13506 net.cpp:165] Memory required for data: 1878000116
I0413 18:33:28.088148 13506 layer_factory.hpp:77] Creating layer relu2_1
I0413 18:33:28.088160 13506 net.cpp:100] Creating Layer relu2_1
I0413 18:33:28.088168 13506 net.cpp:434] relu2_1 <- conv2_1
I0413 18:33:28.088181 13506 net.cpp:395] relu2_1 -> conv2_1 (in-place)
I0413 18:33:28.088193 13506 net.cpp:150] Setting up relu2_1
I0413 18:33:28.088202 13506 net.cpp:157] Top shape: 1 128 500 750 (48000000)
I0413 18:33:28.088208 13506 net.cpp:165] Memory required for data: 2070000116
I0413 18:33:28.088214 13506 layer_factory.hpp:77] Creating layer conv2_2
I0413 18:33:28.088227 13506 net.cpp:100] Creating Layer conv2_2
I0413 18:33:28.088232 13506 net.cpp:434] conv2_2 <- conv2_1
I0413 18:33:28.088248 13506 net.cpp:408] conv2_2 -> conv2_2
I0413 18:33:28.089323 13506 net.cpp:150] Setting up conv2_2
I0413 18:33:28.089349 13506 net.cpp:157] Top shape: 1 128 500 750 (48000000)
I0413 18:33:28.089354 13506 net.cpp:165] Memory required for data: 2262000116
I0413 18:33:28.089375 13506 layer_factory.hpp:77] Creating layer relu2_2
I0413 18:33:28.089391 13506 net.cpp:100] Creating Layer relu2_2
I0413 18:33:28.089402 13506 net.cpp:434] relu2_2 <- conv2_2
I0413 18:33:28.089413 13506 net.cpp:395] relu2_2 -> conv2_2 (in-place)
I0413 18:33:28.089428 13506 net.cpp:150] Setting up relu2_2
I0413 18:33:28.089437 13506 net.cpp:157] Top shape: 1 128 500 750 (48000000)
I0413 18:33:28.089442 13506 net.cpp:165] Memory required for data: 2454000116
I0413 18:33:28.089447 13506 layer_factory.hpp:77] Creating layer pool2
I0413 18:33:28.089457 13506 net.cpp:100] Creating Layer pool2
I0413 18:33:28.089463 13506 net.cpp:434] pool2 <- conv2_2
I0413 18:33:28.089471 13506 net.cpp:408] pool2 -> pool2
I0413 18:33:28.089524 13506 net.cpp:150] Setting up pool2
I0413 18:33:28.089535 13506 net.cpp:157] Top shape: 1 128 250 375 (12000000)
I0413 18:33:28.089542 13506 net.cpp:165] Memory required for data: 2502000116
I0413 18:33:28.089547 13506 layer_factory.hpp:77] Creating layer conv3_1
I0413 18:33:28.089560 13506 net.cpp:100] Creating Layer conv3_1
I0413 18:33:28.089566 13506 net.cpp:434] conv3_1 <- pool2
I0413 18:33:28.089576 13506 net.cpp:408] conv3_1 -> conv3_1
I0413 18:33:28.090812 13506 net.cpp:150] Setting up conv3_1
I0413 18:33:28.090838 13506 net.cpp:157] Top shape: 1 256 250 375 (24000000)
I0413 18:33:28.090842 13506 net.cpp:165] Memory required for data: 2598000116
I0413 18:33:28.090860 13506 layer_factory.hpp:77] Creating layer relu3_1
I0413 18:33:28.090873 13506 net.cpp:100] Creating Layer relu3_1
I0413 18:33:28.090881 13506 net.cpp:434] relu3_1 <- conv3_1
I0413 18:33:28.090891 13506 net.cpp:395] relu3_1 -> conv3_1 (in-place)
I0413 18:33:28.090904 13506 net.cpp:150] Setting up relu3_1
I0413 18:33:28.090914 13506 net.cpp:157] Top shape: 1 256 250 375 (24000000)
I0413 18:33:28.090919 13506 net.cpp:165] Memory required for data: 2694000116
I0413 18:33:28.090924 13506 layer_factory.hpp:77] Creating layer conv3_2
I0413 18:33:28.090942 13506 net.cpp:100] Creating Layer conv3_2
I0413 18:33:28.090950 13506 net.cpp:434] conv3_2 <- conv3_1
I0413 18:33:28.090961 13506 net.cpp:408] conv3_2 -> conv3_2
I0413 18:33:28.092411 13506 net.cpp:150] Setting up conv3_2
I0413 18:33:28.092438 13506 net.cpp:157] Top shape: 1 256 250 375 (24000000)
I0413 18:33:28.092442 13506 net.cpp:165] Memory required for data: 2790000116
I0413 18:33:28.092453 13506 layer_factory.hpp:77] Creating layer relu3_2
I0413 18:33:28.092466 13506 net.cpp:100] Creating Layer relu3_2
I0413 18:33:28.092473 13506 net.cpp:434] relu3_2 <- conv3_2
I0413 18:33:28.092486 13506 net.cpp:395] relu3_2 -> conv3_2 (in-place)
I0413 18:33:28.092500 13506 net.cpp:150] Setting up relu3_2
I0413 18:33:28.092507 13506 net.cpp:157] Top shape: 1 256 250 375 (24000000)
I0413 18:33:28.092514 13506 net.cpp:165] Memory required for data: 2886000116
I0413 18:33:28.092519 13506 layer_factory.hpp:77] Creating layer conv3_3
I0413 18:33:28.092530 13506 net.cpp:100] Creating Layer conv3_3
I0413 18:33:28.092535 13506 net.cpp:434] conv3_3 <- conv3_2
I0413 18:33:28.092546 13506 net.cpp:408] conv3_3 -> conv3_3
I0413 18:33:28.094295 13506 net.cpp:150] Setting up conv3_3
I0413 18:33:28.094326 13506 net.cpp:157] Top shape: 1 256 250 375 (24000000)
I0413 18:33:28.094331 13506 net.cpp:165] Memory required for data: 2982000116
I0413 18:33:28.094346 13506 layer_factory.hpp:77] Creating layer relu3_3
I0413 18:33:28.094359 13506 net.cpp:100] Creating Layer relu3_3
I0413 18:33:28.094367 13506 net.cpp:434] relu3_3 <- conv3_3
I0413 18:33:28.094380 13506 net.cpp:395] relu3_3 -> conv3_3 (in-place)
I0413 18:33:28.094394 13506 net.cpp:150] Setting up relu3_3
I0413 18:33:28.094403 13506 net.cpp:157] Top shape: 1 256 250 375 (24000000)
I0413 18:33:28.094409 13506 net.cpp:165] Memory required for data: 3078000116
I0413 18:33:28.094414 13506 layer_factory.hpp:77] Creating layer pool3
I0413 18:33:28.094424 13506 net.cpp:100] Creating Layer pool3
I0413 18:33:28.094430 13506 net.cpp:434] pool3 <- conv3_3
I0413 18:33:28.094439 13506 net.cpp:408] pool3 -> pool3
I0413 18:33:28.094502 13506 net.cpp:150] Setting up pool3
I0413 18:33:28.094513 13506 net.cpp:157] Top shape: 1 256 125 188 (6016000)
I0413 18:33:28.094519 13506 net.cpp:165] Memory required for data: 3102064116
I0413 18:33:28.094525 13506 layer_factory.hpp:77] Creating layer conv4_1
I0413 18:33:28.094539 13506 net.cpp:100] Creating Layer conv4_1
I0413 18:33:28.094547 13506 net.cpp:434] conv4_1 <- pool3
I0413 18:33:28.094558 13506 net.cpp:408] conv4_1 -> conv4_1
I0413 18:33:28.097373 13506 net.cpp:150] Setting up conv4_1
I0413 18:33:28.097405 13506 net.cpp:157] Top shape: 1 512 125 188 (12032000)
I0413 18:33:28.097409 13506 net.cpp:165] Memory required for data: 3150192116
I0413 18:33:28.097422 13506 layer_factory.hpp:77] Creating layer relu4_1
I0413 18:33:28.097436 13506 net.cpp:100] Creating Layer relu4_1
I0413 18:33:28.097445 13506 net.cpp:434] relu4_1 <- conv4_1
I0413 18:33:28.097457 13506 net.cpp:395] relu4_1 -> conv4_1 (in-place)
I0413 18:33:28.097471 13506 net.cpp:150] Setting up relu4_1
I0413 18:33:28.097481 13506 net.cpp:157] Top shape: 1 512 125 188 (12032000)
I0413 18:33:28.097486 13506 net.cpp:165] Memory required for data: 3198320116
I0413 18:33:28.097491 13506 layer_factory.hpp:77] Creating layer conv4_2
I0413 18:33:28.097506 13506 net.cpp:100] Creating Layer conv4_2
I0413 18:33:28.097513 13506 net.cpp:434] conv4_2 <- conv4_1
I0413 18:33:28.097522 13506 net.cpp:408] conv4_2 -> conv4_2
I0413 18:33:28.101836 13506 net.cpp:150] Setting up conv4_2
I0413 18:33:28.101871 13506 net.cpp:157] Top shape: 1 512 125 188 (12032000)
I0413 18:33:28.101876 13506 net.cpp:165] Memory required for data: 3246448116
I0413 18:33:28.101896 13506 layer_factory.hpp:77] Creating layer relu4_2
I0413 18:33:28.101912 13506 net.cpp:100] Creating Layer relu4_2
I0413 18:33:28.101922 13506 net.cpp:434] relu4_2 <- conv4_2
I0413 18:33:28.101933 13506 net.cpp:395] relu4_2 -> conv4_2 (in-place)
I0413 18:33:28.101948 13506 net.cpp:150] Setting up relu4_2
I0413 18:33:28.101955 13506 net.cpp:157] Top shape: 1 512 125 188 (12032000)
I0413 18:33:28.101961 13506 net.cpp:165] Memory required for data: 3294576116
I0413 18:33:28.101968 13506 layer_factory.hpp:77] Creating layer conv4_3
I0413 18:33:28.101981 13506 net.cpp:100] Creating Layer conv4_3
I0413 18:33:28.101989 13506 net.cpp:434] conv4_3 <- conv4_2
I0413 18:33:28.101999 13506 net.cpp:408] conv4_3 -> conv4_3
I0413 18:33:28.106475 13506 net.cpp:150] Setting up conv4_3
I0413 18:33:28.106510 13506 net.cpp:157] Top shape: 1 512 125 188 (12032000)
I0413 18:33:28.106514 13506 net.cpp:165] Memory required for data: 3342704116
I0413 18:33:28.106524 13506 layer_factory.hpp:77] Creating layer relu4_3
I0413 18:33:28.106535 13506 net.cpp:100] Creating Layer relu4_3
I0413 18:33:28.106542 13506 net.cpp:434] relu4_3 <- conv4_3
I0413 18:33:28.106554 13506 net.cpp:395] relu4_3 -> conv4_3 (in-place)
I0413 18:33:28.106567 13506 net.cpp:150] Setting up relu4_3
I0413 18:33:28.106576 13506 net.cpp:157] Top shape: 1 512 125 188 (12032000)
I0413 18:33:28.106581 13506 net.cpp:165] Memory required for data: 3390832116
I0413 18:33:28.106587 13506 layer_factory.hpp:77] Creating layer pool4
I0413 18:33:28.106596 13506 net.cpp:100] Creating Layer pool4
I0413 18:33:28.106601 13506 net.cpp:434] pool4 <- conv4_3
I0413 18:33:28.106612 13506 net.cpp:408] pool4 -> pool4
I0413 18:33:28.106662 13506 net.cpp:150] Setting up pool4
I0413 18:33:28.106673 13506 net.cpp:157] Top shape: 1 512 63 94 (3032064)
I0413 18:33:28.106678 13506 net.cpp:165] Memory required for data: 3402960372
I0413 18:33:28.106683 13506 layer_factory.hpp:77] Creating layer conv5_1
I0413 18:33:28.106696 13506 net.cpp:100] Creating Layer conv5_1
I0413 18:33:28.106703 13506 net.cpp:434] conv5_1 <- pool4
I0413 18:33:28.106714 13506 net.cpp:408] conv5_1 -> conv5_1
I0413 18:33:28.111656 13506 net.cpp:150] Setting up conv5_1
I0413 18:33:28.111697 13506 net.cpp:157] Top shape: 1 512 63 94 (3032064)
I0413 18:33:28.111702 13506 net.cpp:165] Memory required for data: 3415088628
I0413 18:33:28.111713 13506 layer_factory.hpp:77] Creating layer relu5_1
I0413 18:33:28.111726 13506 net.cpp:100] Creating Layer relu5_1
I0413 18:33:28.111732 13506 net.cpp:434] relu5_1 <- conv5_1
I0413 18:33:28.111745 13506 net.cpp:395] relu5_1 -> conv5_1 (in-place)
I0413 18:33:28.111758 13506 net.cpp:150] Setting up relu5_1
I0413 18:33:28.111766 13506 net.cpp:157] Top shape: 1 512 63 94 (3032064)
I0413 18:33:28.111771 13506 net.cpp:165] Memory required for data: 3427216884
I0413 18:33:28.111776 13506 layer_factory.hpp:77] Creating layer conv5_2
I0413 18:33:28.111788 13506 net.cpp:100] Creating Layer conv5_2
I0413 18:33:28.111794 13506 net.cpp:434] conv5_2 <- conv5_1
I0413 18:33:28.111805 13506 net.cpp:408] conv5_2 -> conv5_2
I0413 18:33:28.118103 13506 net.cpp:150] Setting up conv5_2
I0413 18:33:28.118142 13506 net.cpp:157] Top shape: 1 512 63 94 (3032064)
I0413 18:33:28.118146 13506 net.cpp:165] Memory required for data: 3439345140
I0413 18:33:28.118156 13506 layer_factory.hpp:77] Creating layer relu5_2
I0413 18:33:28.118166 13506 net.cpp:100] Creating Layer relu5_2
I0413 18:33:28.118171 13506 net.cpp:434] relu5_2 <- conv5_2
I0413 18:33:28.118180 13506 net.cpp:395] relu5_2 -> conv5_2 (in-place)
I0413 18:33:28.118196 13506 net.cpp:150] Setting up relu5_2
I0413 18:33:28.118207 13506 net.cpp:157] Top shape: 1 512 63 94 (3032064)
I0413 18:33:28.118212 13506 net.cpp:165] Memory required for data: 3451473396
I0413 18:33:28.118217 13506 layer_factory.hpp:77] Creating layer conv5_3
I0413 18:33:28.118237 13506 net.cpp:100] Creating Layer conv5_3
I0413 18:33:28.118244 13506 net.cpp:434] conv5_3 <- conv5_2
I0413 18:33:28.118269 13506 net.cpp:408] conv5_3 -> conv5_3
I0413 18:33:28.122843 13506 net.cpp:150] Setting up conv5_3
I0413 18:33:28.122879 13506 net.cpp:157] Top shape: 1 512 63 94 (3032064)
I0413 18:33:28.122882 13506 net.cpp:165] Memory required for data: 3463601652
I0413 18:33:28.122892 13506 layer_factory.hpp:77] Creating layer relu5_3
I0413 18:33:28.122905 13506 net.cpp:100] Creating Layer relu5_3
I0413 18:33:28.122913 13506 net.cpp:434] relu5_3 <- conv5_3
I0413 18:33:28.122926 13506 net.cpp:395] relu5_3 -> conv5_3 (in-place)
I0413 18:33:28.122939 13506 net.cpp:150] Setting up relu5_3
I0413 18:33:28.122947 13506 net.cpp:157] Top shape: 1 512 63 94 (3032064)
I0413 18:33:28.122953 13506 net.cpp:165] Memory required for data: 3475729908
I0413 18:33:28.122957 13506 layer_factory.hpp:77] Creating layer conv5_3_relu5_3_0_split
I0413 18:33:28.122963 13506 net.cpp:100] Creating Layer conv5_3_relu5_3_0_split
I0413 18:33:28.122967 13506 net.cpp:434] conv5_3_relu5_3_0_split <- conv5_3
I0413 18:33:28.122974 13506 net.cpp:408] conv5_3_relu5_3_0_split -> conv5_3_relu5_3_0_split_0
I0413 18:33:28.122982 13506 net.cpp:408] conv5_3_relu5_3_0_split -> conv5_3_relu5_3_0_split_1
I0413 18:33:28.123015 13506 net.cpp:150] Setting up conv5_3_relu5_3_0_split
I0413 18:33:28.123030 13506 net.cpp:157] Top shape: 1 512 63 94 (3032064)
I0413 18:33:28.123037 13506 net.cpp:157] Top shape: 1 512 63 94 (3032064)
I0413 18:33:28.123042 13506 net.cpp:165] Memory required for data: 3499986420
I0413 18:33:28.123047 13506 layer_factory.hpp:77] Creating layer rpn_big_conv1
I0413 18:33:28.123067 13506 net.cpp:100] Creating Layer rpn_big_conv1
I0413 18:33:28.123073 13506 net.cpp:434] rpn_big_conv1 <- conv5_3_relu5_3_0_split_0
I0413 18:33:28.123082 13506 net.cpp:408] rpn_big_conv1 -> rpn_big_conv1
I0413 18:33:28.148978 13506 net.cpp:150] Setting up rpn_big_conv1
I0413 18:33:28.149013 13506 net.cpp:157] Top shape: 1 512 63 94 (3032064)
I0413 18:33:28.149019 13506 net.cpp:165] Memory required for data: 3512114676
I0413 18:33:28.149034 13506 layer_factory.hpp:77] Creating layer rpn_big_conv1_relu
I0413 18:33:28.149050 13506 net.cpp:100] Creating Layer rpn_big_conv1_relu
I0413 18:33:28.149058 13506 net.cpp:434] rpn_big_conv1_relu <- rpn_big_conv1
I0413 18:33:28.149070 13506 net.cpp:395] rpn_big_conv1_relu -> rpn_big_conv1 (in-place)
I0413 18:33:28.149085 13506 net.cpp:150] Setting up rpn_big_conv1_relu
I0413 18:33:28.149098 13506 net.cpp:157] Top shape: 1 512 63 94 (3032064)
I0413 18:33:28.149104 13506 net.cpp:165] Memory required for data: 3524242932
I0413 18:33:28.149111 13506 layer_factory.hpp:77] Creating layer rpn_big_conv2
I0413 18:33:28.149132 13506 net.cpp:100] Creating Layer rpn_big_conv2
I0413 18:33:28.149140 13506 net.cpp:434] rpn_big_conv2 <- rpn_big_conv1
I0413 18:33:28.149152 13506 net.cpp:408] rpn_big_conv2 -> rpn_big_conv2
I0413 18:33:28.174437 13506 net.cpp:150] Setting up rpn_big_conv2
I0413 18:33:28.174471 13506 net.cpp:157] Top shape: 1 512 63 94 (3032064)
I0413 18:33:28.174477 13506 net.cpp:165] Memory required for data: 3536371188
I0413 18:33:28.174501 13506 layer_factory.hpp:77] Creating layer rpn_big_conv2_relu
I0413 18:33:28.174517 13506 net.cpp:100] Creating Layer rpn_big_conv2_relu
I0413 18:33:28.174527 13506 net.cpp:434] rpn_big_conv2_relu <- rpn_big_conv2
I0413 18:33:28.174541 13506 net.cpp:395] rpn_big_conv2_relu -> rpn_big_conv2 (in-place)
I0413 18:33:28.174556 13506 net.cpp:150] Setting up rpn_big_conv2_relu
I0413 18:33:28.174566 13506 net.cpp:157] Top shape: 1 512 63 94 (3032064)
I0413 18:33:28.174572 13506 net.cpp:165] Memory required for data: 3548499444
I0413 18:33:28.174579 13506 layer_factory.hpp:77] Creating layer rpn_big_conv2_drop
I0413 18:33:28.174592 13506 net.cpp:100] Creating Layer rpn_big_conv2_drop
I0413 18:33:28.174602 13506 net.cpp:434] rpn_big_conv2_drop <- rpn_big_conv2
I0413 18:33:28.174610 13506 net.cpp:395] rpn_big_conv2_drop -> rpn_big_conv2 (in-place)
I0413 18:33:28.174643 13506 net.cpp:150] Setting up rpn_big_conv2_drop
I0413 18:33:28.174652 13506 net.cpp:157] Top shape: 1 512 63 94 (3032064)
I0413 18:33:28.174657 13506 net.cpp:165] Memory required for data: 3560627700
I0413 18:33:28.174664 13506 layer_factory.hpp:77] Creating layer rpn_big_conv2_rpn_big_conv2_drop_0_split
I0413 18:33:28.174674 13506 net.cpp:100] Creating Layer rpn_big_conv2_rpn_big_conv2_drop_0_split
I0413 18:33:28.174679 13506 net.cpp:434] rpn_big_conv2_rpn_big_conv2_drop_0_split <- rpn_big_conv2
I0413 18:33:28.174690 13506 net.cpp:408] rpn_big_conv2_rpn_big_conv2_drop_0_split -> rpn_big_conv2_rpn_big_conv2_drop_0_split_0
I0413 18:33:28.174700 13506 net.cpp:408] rpn_big_conv2_rpn_big_conv2_drop_0_split -> rpn_big_conv2_rpn_big_conv2_drop_0_split_1
I0413 18:33:28.174757 13506 net.cpp:150] Setting up rpn_big_conv2_rpn_big_conv2_drop_0_split
I0413 18:33:28.174767 13506 net.cpp:157] Top shape: 1 512 63 94 (3032064)
I0413 18:33:28.174777 13506 net.cpp:157] Top shape: 1 512 63 94 (3032064)
I0413 18:33:28.174785 13506 net.cpp:165] Memory required for data: 3584884212
I0413 18:33:28.174792 13506 layer_factory.hpp:77] Creating layer rpn_big_output_cls
I0413 18:33:28.174808 13506 net.cpp:100] Creating Layer rpn_big_output_cls
I0413 18:33:28.174815 13506 net.cpp:434] rpn_big_output_cls <- rpn_big_conv2_rpn_big_conv2_drop_0_split_0
I0413 18:33:28.174829 13506 net.cpp:408] rpn_big_output_cls -> rpn_big_output_cls
I0413 18:33:28.193893 13506 net.cpp:150] Setting up rpn_big_output_cls
I0413 18:33:28.193927 13506 net.cpp:157] Top shape: 1 384 63 94 (2274048)
I0413 18:33:28.193933 13506 net.cpp:165] Memory required for data: 3593980404
I0413 18:33:28.193956 13506 layer_factory.hpp:77] Creating layer rpn_big_output_cls_relu
I0413 18:33:28.193971 13506 net.cpp:100] Creating Layer rpn_big_output_cls_relu
I0413 18:33:28.193981 13506 net.cpp:434] rpn_big_output_cls_relu <- rpn_big_output_cls
I0413 18:33:28.193998 13506 net.cpp:395] rpn_big_output_cls_relu -> rpn_big_output_cls (in-place)
I0413 18:33:28.194015 13506 net.cpp:150] Setting up rpn_big_output_cls_relu
I0413 18:33:28.194023 13506 net.cpp:157] Top shape: 1 384 63 94 (2274048)
I0413 18:33:28.194030 13506 net.cpp:165] Memory required for data: 3603076596
I0413 18:33:28.194036 13506 layer_factory.hpp:77] Creating layer rpn_big_cls_score
I0413 18:33:28.194054 13506 net.cpp:100] Creating Layer rpn_big_cls_score
I0413 18:33:28.194061 13506 net.cpp:434] rpn_big_cls_score <- rpn_big_output_cls
I0413 18:33:28.194074 13506 net.cpp:408] rpn_big_cls_score -> rpn_big_cls_score
I0413 18:33:28.196741 13506 net.cpp:150] Setting up rpn_big_cls_score
I0413 18:33:28.196763 13506 net.cpp:157] Top shape: 1 52 61 92 (291824)
I0413 18:33:28.196769 13506 net.cpp:165] Memory required for data: 3604243892
I0413 18:33:28.196794 13506 layer_factory.hpp:77] Creating layer rpn_big_cls_score_rpn_big_cls_score_0_split
I0413 18:33:28.196807 13506 net.cpp:100] Creating Layer rpn_big_cls_score_rpn_big_cls_score_0_split
I0413 18:33:28.196816 13506 net.cpp:434] rpn_big_cls_score_rpn_big_cls_score_0_split <- rpn_big_cls_score
I0413 18:33:28.196830 13506 net.cpp:408] rpn_big_cls_score_rpn_big_cls_score_0_split -> rpn_big_cls_score_rpn_big_cls_score_0_split_0
I0413 18:33:28.196846 13506 net.cpp:408] rpn_big_cls_score_rpn_big_cls_score_0_split -> rpn_big_cls_score_rpn_big_cls_score_0_split_1
I0413 18:33:28.196895 13506 net.cpp:150] Setting up rpn_big_cls_score_rpn_big_cls_score_0_split
I0413 18:33:28.196934 13506 net.cpp:157] Top shape: 1 52 61 92 (291824)
I0413 18:33:28.196945 13506 net.cpp:157] Top shape: 1 52 61 92 (291824)
I0413 18:33:28.196950 13506 net.cpp:165] Memory required for data: 3606578484
I0413 18:33:28.196957 13506 layer_factory.hpp:77] Creating layer rpn_big_cls_score_reshape
I0413 18:33:28.196970 13506 net.cpp:100] Creating Layer rpn_big_cls_score_reshape
I0413 18:33:28.196979 13506 net.cpp:434] rpn_big_cls_score_reshape <- rpn_big_cls_score_rpn_big_cls_score_0_split_0
I0413 18:33:28.196990 13506 net.cpp:408] rpn_big_cls_score_reshape -> rpn_big_cls_score_reshape
I0413 18:33:28.197023 13506 net.cpp:150] Setting up rpn_big_cls_score_reshape
I0413 18:33:28.197036 13506 net.cpp:157] Top shape: 1 2 1586 92 (291824)
I0413 18:33:28.197042 13506 net.cpp:165] Memory required for data: 3607745780
I0413 18:33:28.197049 13506 layer_factory.hpp:77] Creating layer rpn_big_cls_score_reshape_rpn_big_cls_score_reshape_0_split
I0413 18:33:28.197059 13506 net.cpp:100] Creating Layer rpn_big_cls_score_reshape_rpn_big_cls_score_reshape_0_split
I0413 18:33:28.197067 13506 net.cpp:434] rpn_big_cls_score_reshape_rpn_big_cls_score_reshape_0_split <- rpn_big_cls_score_reshape
I0413 18:33:28.197077 13506 net.cpp:408] rpn_big_cls_score_reshape_rpn_big_cls_score_reshape_0_split -> rpn_big_cls_score_reshape_rpn_big_cls_score_reshape_0_split_0
I0413 18:33:28.197093 13506 net.cpp:408] rpn_big_cls_score_reshape_rpn_big_cls_score_reshape_0_split -> rpn_big_cls_score_reshape_rpn_big_cls_score_reshape_0_split_1
I0413 18:33:28.197131 13506 net.cpp:150] Setting up rpn_big_cls_score_reshape_rpn_big_cls_score_reshape_0_split
I0413 18:33:28.197141 13506 net.cpp:157] Top shape: 1 2 1586 92 (291824)
I0413 18:33:28.197150 13506 net.cpp:157] Top shape: 1 2 1586 92 (291824)
I0413 18:33:28.197157 13506 net.cpp:165] Memory required for data: 3610080372
I0413 18:33:28.197163 13506 layer_factory.hpp:77] Creating layer rpn_big_cls_prob
I0413 18:33:28.197177 13506 net.cpp:100] Creating Layer rpn_big_cls_prob
I0413 18:33:28.197185 13506 net.cpp:434] rpn_big_cls_prob <- rpn_big_cls_score_reshape_rpn_big_cls_score_reshape_0_split_0
I0413 18:33:28.197194 13506 net.cpp:408] rpn_big_cls_prob -> rpn_big_cls_prob
I0413 18:33:28.197257 13506 net.cpp:150] Setting up rpn_big_cls_prob
I0413 18:33:28.197266 13506 net.cpp:157] Top shape: 1 2 1586 92 (291824)
I0413 18:33:28.197273 13506 net.cpp:165] Memory required for data: 3611247668
I0413 18:33:28.197278 13506 layer_factory.hpp:77] Creating layer rpn_big_cls_prob_reshape
I0413 18:33:28.197288 13506 net.cpp:100] Creating Layer rpn_big_cls_prob_reshape
I0413 18:33:28.197314 13506 net.cpp:434] rpn_big_cls_prob_reshape <- rpn_big_cls_prob
I0413 18:33:28.197325 13506 net.cpp:408] rpn_big_cls_prob_reshape -> rpn_big_cls_prob_reshape
I0413 18:33:28.197356 13506 net.cpp:150] Setting up rpn_big_cls_prob_reshape
I0413 18:33:28.197366 13506 net.cpp:157] Top shape: 1 52 61 92 (291824)
I0413 18:33:28.197372 13506 net.cpp:165] Memory required for data: 3612414964
I0413 18:33:28.197378 13506 layer_factory.hpp:77] Creating layer rpn_big_cls_prob_reshape_rpn_big_cls_prob_reshape_0_split
I0413 18:33:28.197388 13506 net.cpp:100] Creating Layer rpn_big_cls_prob_reshape_rpn_big_cls_prob_reshape_0_split
I0413 18:33:28.197396 13506 net.cpp:434] rpn_big_cls_prob_reshape_rpn_big_cls_prob_reshape_0_split <- rpn_big_cls_prob_reshape
I0413 18:33:28.197405 13506 net.cpp:408] rpn_big_cls_prob_reshape_rpn_big_cls_prob_reshape_0_split -> rpn_big_cls_prob_reshape_rpn_big_cls_prob_reshape_0_split_0
I0413 18:33:28.197418 13506 net.cpp:408] rpn_big_cls_prob_reshape_rpn_big_cls_prob_reshape_0_split -> rpn_big_cls_prob_reshape_rpn_big_cls_prob_reshape_0_split_1
I0413 18:33:28.197455 13506 net.cpp:150] Setting up rpn_big_cls_prob_reshape_rpn_big_cls_prob_reshape_0_split
I0413 18:33:28.197465 13506 net.cpp:157] Top shape: 1 52 61 92 (291824)
I0413 18:33:28.197474 13506 net.cpp:157] Top shape: 1 52 61 92 (291824)
I0413 18:33:28.197479 13506 net.cpp:165] Memory required for data: 3614749556
I0413 18:33:28.197485 13506 layer_factory.hpp:77] Creating layer rpn_big_anchor_target
I0413 18:33:28.198817 13506 net.cpp:100] Creating Layer rpn_big_anchor_target
I0413 18:33:28.198832 13506 net.cpp:434] rpn_big_anchor_target <- rpn_big_cls_score_rpn_big_cls_score_0_split_1
I0413 18:33:28.198842 13506 net.cpp:434] rpn_big_anchor_target <- input_gt_boxes_input_2_split_0
I0413 18:33:28.198849 13506 net.cpp:434] rpn_big_anchor_target <- input_ignored_boxes
I0413 18:33:28.198858 13506 net.cpp:434] rpn_big_anchor_target <- input_im_info_input_1_split_0
I0413 18:33:28.198866 13506 net.cpp:434] rpn_big_anchor_target <- input_data_input_0_split_1
I0413 18:33:28.198875 13506 net.cpp:434] rpn_big_anchor_target <- rpn_big_cls_prob_reshape_rpn_big_cls_prob_reshape_0_split_0
I0413 18:33:28.198890 13506 net.cpp:408] rpn_big_anchor_target -> rpn_big_anchor_target_labels
I0413 18:33:28.198906 13506 net.cpp:408] rpn_big_anchor_target -> rpn_big_anchor_target_bbox_targets
I0413 18:33:28.198921 13506 net.cpp:408] rpn_big_anchor_target -> rpn_big_anchor_target_inside_weights
I0413 18:33:28.198936 13506 net.cpp:408] rpn_big_anchor_target -> rpn_big_anchor_target_outside_weights
I0413 18:33:28.203830 13506 net.cpp:150] Setting up rpn_big_anchor_target
I0413 18:33:28.203860 13506 net.cpp:157] Top shape: 1 1 1586 92 (145912)
I0413 18:33:28.203867 13506 net.cpp:157] Top shape: 1 104 61 92 (583648)
I0413 18:33:28.203874 13506 net.cpp:157] Top shape: 1 104 61 92 (583648)
I0413 18:33:28.203881 13506 net.cpp:157] Top shape: 1 104 61 92 (583648)
I0413 18:33:28.203886 13506 net.cpp:165] Memory required for data: 3622336980
I0413 18:33:28.203896 13506 layer_factory.hpp:77] Creating layer rpn_big_loss_cls
I0413 18:33:28.203909 13506 net.cpp:100] Creating Layer rpn_big_loss_cls
I0413 18:33:28.203924 13506 net.cpp:434] rpn_big_loss_cls <- rpn_big_cls_score_reshape_rpn_big_cls_score_reshape_0_split_1
I0413 18:33:28.203935 13506 net.cpp:434] rpn_big_loss_cls <- rpn_big_anchor_target_labels
I0413 18:33:28.203949 13506 net.cpp:408] rpn_big_loss_cls -> rpn_big_loss_cls
I0413 18:33:28.203970 13506 layer_factory.hpp:77] Creating layer rpn_big_loss_cls
I0413 18:33:28.204614 13506 net.cpp:150] Setting up rpn_big_loss_cls
I0413 18:33:28.204632 13506 net.cpp:157] Top shape: (1)
I0413 18:33:28.204637 13506 net.cpp:160]     with loss weight 1
I0413 18:33:28.204658 13506 net.cpp:165] Memory required for data: 3622336984
I0413 18:33:28.204665 13506 layer_factory.hpp:77] Creating layer rpn_big_output_box
I0413 18:33:28.204686 13506 net.cpp:100] Creating Layer rpn_big_output_box
I0413 18:33:28.204694 13506 net.cpp:434] rpn_big_output_box <- rpn_big_conv2_rpn_big_conv2_drop_0_split_1
I0413 18:33:28.204710 13506 net.cpp:408] rpn_big_output_box -> rpn_big_output_box
I0413 18:33:28.223908 13506 net.cpp:150] Setting up rpn_big_output_box
I0413 18:33:28.223938 13506 net.cpp:157] Top shape: 1 384 63 94 (2274048)
I0413 18:33:28.223945 13506 net.cpp:165] Memory required for data: 3631433176
I0413 18:33:28.223960 13506 layer_factory.hpp:77] Creating layer rpn_big_output_box_relu
I0413 18:33:28.223978 13506 net.cpp:100] Creating Layer rpn_big_output_box_relu
I0413 18:33:28.223989 13506 net.cpp:434] rpn_big_output_box_relu <- rpn_big_output_box
I0413 18:33:28.224001 13506 net.cpp:395] rpn_big_output_box_relu -> rpn_big_output_box (in-place)
I0413 18:33:28.224021 13506 net.cpp:150] Setting up rpn_big_output_box_relu
I0413 18:33:28.224032 13506 net.cpp:157] Top shape: 1 384 63 94 (2274048)
I0413 18:33:28.224041 13506 net.cpp:165] Memory required for data: 3640529368
I0413 18:33:28.224048 13506 layer_factory.hpp:77] Creating layer rpn_big_bbox_pred
I0413 18:33:28.224066 13506 net.cpp:100] Creating Layer rpn_big_bbox_pred
I0413 18:33:28.224074 13506 net.cpp:434] rpn_big_bbox_pred <- rpn_big_output_box
I0413 18:33:28.224088 13506 net.cpp:408] rpn_big_bbox_pred -> rpn_big_bbox_pred
I0413 18:33:28.228375 13506 net.cpp:150] Setting up rpn_big_bbox_pred
I0413 18:33:28.228402 13506 net.cpp:157] Top shape: 1 104 61 92 (583648)
I0413 18:33:28.228408 13506 net.cpp:165] Memory required for data: 3642863960
I0413 18:33:28.228422 13506 layer_factory.hpp:77] Creating layer rpn_big_bbox_pred_rpn_big_bbox_pred_0_split
I0413 18:33:28.228435 13506 net.cpp:100] Creating Layer rpn_big_bbox_pred_rpn_big_bbox_pred_0_split
I0413 18:33:28.228446 13506 net.cpp:434] rpn_big_bbox_pred_rpn_big_bbox_pred_0_split <- rpn_big_bbox_pred
I0413 18:33:28.228463 13506 net.cpp:408] rpn_big_bbox_pred_rpn_big_bbox_pred_0_split -> rpn_big_bbox_pred_rpn_big_bbox_pred_0_split_0
I0413 18:33:28.228480 13506 net.cpp:408] rpn_big_bbox_pred_rpn_big_bbox_pred_0_split -> rpn_big_bbox_pred_rpn_big_bbox_pred_0_split_1
I0413 18:33:28.228524 13506 net.cpp:150] Setting up rpn_big_bbox_pred_rpn_big_bbox_pred_0_split
I0413 18:33:28.228535 13506 net.cpp:157] Top shape: 1 104 61 92 (583648)
I0413 18:33:28.228543 13506 net.cpp:157] Top shape: 1 104 61 92 (583648)
I0413 18:33:28.228552 13506 net.cpp:165] Memory required for data: 3647533144
I0413 18:33:28.228559 13506 layer_factory.hpp:77] Creating layer rpn_big_loss_bbox
I0413 18:33:28.228935 13506 net.cpp:100] Creating Layer rpn_big_loss_bbox
I0413 18:33:28.228945 13506 net.cpp:434] rpn_big_loss_bbox <- rpn_big_bbox_pred_rpn_big_bbox_pred_0_split_0
I0413 18:33:28.228955 13506 net.cpp:434] rpn_big_loss_bbox <- rpn_big_anchor_target_bbox_targets
I0413 18:33:28.228963 13506 net.cpp:434] rpn_big_loss_bbox <- rpn_big_anchor_target_inside_weights
I0413 18:33:28.228971 13506 net.cpp:434] rpn_big_loss_bbox <- rpn_big_anchor_target_outside_weights
I0413 18:33:28.228983 13506 net.cpp:408] rpn_big_loss_bbox -> rpn_big_loss_bbox
I0413 18:33:28.231067 13506 net.cpp:150] Setting up rpn_big_loss_bbox
I0413 18:33:28.231101 13506 net.cpp:157] Top shape: 1 (1)
I0413 18:33:28.231106 13506 net.cpp:160]     with loss weight 1
I0413 18:33:28.231130 13506 net.cpp:165] Memory required for data: 3647533148
I0413 18:33:28.231139 13506 layer_factory.hpp:77] Creating layer proposal
I0413 18:33:28.231539 13506 net.cpp:100] Creating Layer proposal
I0413 18:33:28.231551 13506 net.cpp:434] proposal <- rpn_big_cls_prob_reshape_rpn_big_cls_prob_reshape_0_split_1
I0413 18:33:28.231564 13506 net.cpp:434] proposal <- rpn_big_bbox_pred_rpn_big_bbox_pred_0_split_1
I0413 18:33:28.231572 13506 net.cpp:434] proposal <- input_im_info_input_1_split_1
I0413 18:33:28.231582 13506 net.cpp:408] proposal -> rpn_rois
I0413 18:33:28.236009 13506 net.cpp:150] Setting up proposal
I0413 18:33:28.236026 13506 net.cpp:157] Top shape: 1 5 (5)
I0413 18:33:28.236032 13506 net.cpp:165] Memory required for data: 3647533168
I0413 18:33:28.236038 13506 layer_factory.hpp:77] Creating layer roi-data
I0413 18:33:28.236362 13506 net.cpp:100] Creating Layer roi-data
I0413 18:33:28.236373 13506 net.cpp:434] roi-data <- rpn_rois
I0413 18:33:28.236382 13506 net.cpp:434] roi-data <- input_gt_boxes_input_2_split_1
I0413 18:33:28.236402 13506 net.cpp:408] roi-data -> rois
I0413 18:33:28.236416 13506 net.cpp:408] roi-data -> labels
I0413 18:33:28.236431 13506 net.cpp:408] roi-data -> bbox_targets
I0413 18:33:28.236445 13506 net.cpp:408] roi-data -> bbox_inside_weights
I0413 18:33:28.236459 13506 net.cpp:408] roi-data -> bbox_outside_weights
I0413 18:33:28.236474 13506 net.cpp:408] roi-data -> pid_label
I0413 18:33:28.237416 13506 net.cpp:150] Setting up roi-data
I0413 18:33:28.237431 13506 net.cpp:157] Top shape: 1 5 (5)
I0413 18:33:28.237438 13506 net.cpp:157] Top shape: 1 1 (1)
I0413 18:33:28.237445 13506 net.cpp:157] Top shape: 1 8 (8)
I0413 18:33:28.237452 13506 net.cpp:157] Top shape: 1 8 (8)
I0413 18:33:28.237462 13506 net.cpp:157] Top shape: 1 8 (8)
I0413 18:33:28.237470 13506 net.cpp:157] Top shape: (0)
I0413 18:33:28.237478 13506 net.cpp:165] Memory required for data: 3647533288
I0413 18:33:28.237484 13506 layer_factory.hpp:77] Creating layer roi-pool
I0413 18:33:28.237496 13506 net.cpp:100] Creating Layer roi-pool
I0413 18:33:28.237504 13506 net.cpp:434] roi-pool <- conv5_3_relu5_3_0_split_1
I0413 18:33:28.237514 13506 net.cpp:434] roi-pool <- rois
I0413 18:33:28.237524 13506 net.cpp:408] roi-pool -> roi-pool
I0413 18:33:28.237536 13506 roi_pooling_layer.cpp:33] Spatial scale: 0.0625
I0413 18:33:28.237548 13506 roi_pooling_layer.cpp:34] Box scale: 1
I0413 18:33:28.237594 13506 net.cpp:150] Setting up roi-pool
I0413 18:33:28.237604 13506 net.cpp:157] Top shape: 1 512 7 7 (25088)
I0413 18:33:28.237610 13506 net.cpp:165] Memory required for data: 3647633640
I0413 18:33:28.237618 13506 layer_factory.hpp:77] Creating layer fc6
I0413 18:33:28.237632 13506 net.cpp:100] Creating Layer fc6
I0413 18:33:28.237638 13506 net.cpp:434] fc6 <- roi-pool
I0413 18:33:28.237648 13506 net.cpp:408] fc6 -> fc6
I0413 18:33:28.405457 13506 net.cpp:150] Setting up fc6
I0413 18:33:28.405493 13506 net.cpp:157] Top shape: 1 4096 (4096)
I0413 18:33:28.405498 13506 net.cpp:165] Memory required for data: 3647650024
I0413 18:33:28.405522 13506 layer_factory.hpp:77] Creating layer relu6
I0413 18:33:28.405536 13506 net.cpp:100] Creating Layer relu6
I0413 18:33:28.405546 13506 net.cpp:434] relu6 <- fc6
I0413 18:33:28.405560 13506 net.cpp:395] relu6 -> fc6 (in-place)
I0413 18:33:28.405586 13506 net.cpp:150] Setting up relu6
I0413 18:33:28.405596 13506 net.cpp:157] Top shape: 1 4096 (4096)
I0413 18:33:28.405601 13506 net.cpp:165] Memory required for data: 3647666408
I0413 18:33:28.405607 13506 layer_factory.hpp:77] Creating layer drop6
I0413 18:33:28.405618 13506 net.cpp:100] Creating Layer drop6
I0413 18:33:28.405625 13506 net.cpp:434] drop6 <- fc6
I0413 18:33:28.405635 13506 net.cpp:395] drop6 -> fc6 (in-place)
I0413 18:33:28.405666 13506 net.cpp:150] Setting up drop6
I0413 18:33:28.405676 13506 net.cpp:157] Top shape: 1 4096 (4096)
I0413 18:33:28.405683 13506 net.cpp:165] Memory required for data: 3647682792
I0413 18:33:28.405688 13506 layer_factory.hpp:77] Creating layer fc7
I0413 18:33:28.405700 13506 net.cpp:100] Creating Layer fc7
I0413 18:33:28.405709 13506 net.cpp:434] fc7 <- fc6
I0413 18:33:28.405717 13506 net.cpp:408] fc7 -> fc7
I0413 18:33:28.432663 13506 net.cpp:150] Setting up fc7
I0413 18:33:28.432699 13506 net.cpp:157] Top shape: 1 4096 (4096)
I0413 18:33:28.432704 13506 net.cpp:165] Memory required for data: 3647699176
I0413 18:33:28.432729 13506 layer_factory.hpp:77] Creating layer relu7
I0413 18:33:28.432760 13506 net.cpp:100] Creating Layer relu7
I0413 18:33:28.432770 13506 net.cpp:434] relu7 <- fc7
I0413 18:33:28.432783 13506 net.cpp:395] relu7 -> fc7 (in-place)
I0413 18:33:28.432798 13506 net.cpp:150] Setting up relu7
I0413 18:33:28.432808 13506 net.cpp:157] Top shape: 1 4096 (4096)
I0413 18:33:28.432814 13506 net.cpp:165] Memory required for data: 3647715560
I0413 18:33:28.432821 13506 layer_factory.hpp:77] Creating layer drop7
I0413 18:33:28.432832 13506 net.cpp:100] Creating Layer drop7
I0413 18:33:28.432839 13506 net.cpp:434] drop7 <- fc7
I0413 18:33:28.432848 13506 net.cpp:395] drop7 -> fc7 (in-place)
I0413 18:33:28.432881 13506 net.cpp:150] Setting up drop7
I0413 18:33:28.432891 13506 net.cpp:157] Top shape: 1 4096 (4096)
I0413 18:33:28.432896 13506 net.cpp:165] Memory required for data: 3647731944
I0413 18:33:28.432910 13506 layer_factory.hpp:77] Creating layer fc7_drop7_0_split
I0413 18:33:28.432921 13506 net.cpp:100] Creating Layer fc7_drop7_0_split
I0413 18:33:28.432929 13506 net.cpp:434] fc7_drop7_0_split <- fc7
I0413 18:33:28.432937 13506 net.cpp:408] fc7_drop7_0_split -> fc7_drop7_0_split_0
I0413 18:33:28.432965 13506 net.cpp:408] fc7_drop7_0_split -> fc7_drop7_0_split_1
I0413 18:33:28.433007 13506 net.cpp:150] Setting up fc7_drop7_0_split
I0413 18:33:28.433018 13506 net.cpp:157] Top shape: 1 4096 (4096)
I0413 18:33:28.433025 13506 net.cpp:157] Top shape: 1 4096 (4096)
I0413 18:33:28.433032 13506 net.cpp:165] Memory required for data: 3647764712
I0413 18:33:28.433037 13506 layer_factory.hpp:77] Creating layer bbox_pred
I0413 18:33:28.433049 13506 net.cpp:100] Creating Layer bbox_pred
I0413 18:33:28.433056 13506 net.cpp:434] bbox_pred <- fc7_drop7_0_split_0
I0413 18:33:28.433069 13506 net.cpp:408] bbox_pred -> bbox_pred
I0413 18:33:28.433506 13506 net.cpp:150] Setting up bbox_pred
I0413 18:33:28.433516 13506 net.cpp:157] Top shape: 1 8 (8)
I0413 18:33:28.433521 13506 net.cpp:165] Memory required for data: 3647764744
I0413 18:33:28.433540 13506 layer_factory.hpp:77] Creating layer loss_bbox
I0413 18:33:28.433554 13506 net.cpp:100] Creating Layer loss_bbox
I0413 18:33:28.433562 13506 net.cpp:434] loss_bbox <- bbox_pred
I0413 18:33:28.433571 13506 net.cpp:434] loss_bbox <- bbox_targets
I0413 18:33:28.433580 13506 net.cpp:434] loss_bbox <- bbox_inside_weights
I0413 18:33:28.433589 13506 net.cpp:434] loss_bbox <- bbox_outside_weights
I0413 18:33:28.433601 13506 net.cpp:408] loss_bbox -> loss_bbox
I0413 18:33:28.433678 13506 net.cpp:150] Setting up loss_bbox
I0413 18:33:28.433687 13506 net.cpp:157] Top shape: (1)
I0413 18:33:28.433692 13506 net.cpp:160]     with loss weight 1
I0413 18:33:28.433709 13506 net.cpp:165] Memory required for data: 3647764748
I0413 18:33:28.433717 13506 layer_factory.hpp:77] Creating layer feat
I0413 18:33:28.433730 13506 net.cpp:100] Creating Layer feat
I0413 18:33:28.433737 13506 net.cpp:434] feat <- fc7_drop7_0_split_1
I0413 18:33:28.433748 13506 net.cpp:408] feat -> feat
I0413 18:33:28.445286 13506 net.cpp:150] Setting up feat
I0413 18:33:28.445317 13506 net.cpp:157] Top shape: 1 256 (256)
I0413 18:33:28.445322 13506 net.cpp:165] Memory required for data: 3647765772
I0413 18:33:28.445339 13506 layer_factory.hpp:77] Creating layer relu8
I0413 18:33:28.445353 13506 net.cpp:100] Creating Layer relu8
I0413 18:33:28.445366 13506 net.cpp:434] relu8 <- feat
I0413 18:33:28.445384 13506 net.cpp:395] relu8 -> feat (in-place)
I0413 18:33:28.445400 13506 net.cpp:150] Setting up relu8
I0413 18:33:28.445411 13506 net.cpp:157] Top shape: 1 256 (256)
I0413 18:33:28.445417 13506 net.cpp:165] Memory required for data: 3647766796
I0413 18:33:28.445423 13506 layer_factory.hpp:77] Creating layer drop8
I0413 18:33:28.445436 13506 net.cpp:100] Creating Layer drop8
I0413 18:33:28.445444 13506 net.cpp:434] drop8 <- feat
I0413 18:33:28.445453 13506 net.cpp:395] drop8 -> feat (in-place)
I0413 18:33:28.445485 13506 net.cpp:150] Setting up drop8
I0413 18:33:28.445494 13506 net.cpp:157] Top shape: 1 256 (256)
I0413 18:33:28.445499 13506 net.cpp:165] Memory required for data: 3647767820
I0413 18:33:28.445505 13506 layer_factory.hpp:77] Creating layer pid_score
I0413 18:33:28.445516 13506 net.cpp:100] Creating Layer pid_score
I0413 18:33:28.445525 13506 net.cpp:434] pid_score <- feat
I0413 18:33:28.445538 13506 net.cpp:408] pid_score -> pid_score
I0413 18:33:28.460999 13506 net.cpp:150] Setting up pid_score
I0413 18:33:28.461028 13506 net.cpp:157] Top shape: 1 5533 (5533)
I0413 18:33:28.461035 13506 net.cpp:165] Memory required for data: 3647789952
I0413 18:33:28.461058 13506 layer_factory.hpp:77] Creating layer pid_loss
I0413 18:33:28.461071 13506 net.cpp:100] Creating Layer pid_loss
I0413 18:33:28.461081 13506 net.cpp:434] pid_loss <- pid_score
I0413 18:33:28.461094 13506 net.cpp:434] pid_loss <- pid_label
I0413 18:33:28.461107 13506 net.cpp:408] pid_loss -> pid_loss
…
