…
I0413 16:09:31.513762  7978 solver.cpp:48] Initializing solver from parameters: 
base_lr: 0.001
display: 20
lr_policy: "multistep"
gamma: 0.1
momentum: 0.9
weight_decay: 0.0005
snapshot: 0
snapshot_prefix: "faces_example"
net_param {
  name: "GeneratedModel_13_04_2017_16_09"
  layer {
    name: "input"
    type: "Python"
    top: "input_data"
    top: "input_im_info"
    top: "input_gt_boxes"
    top: "input_ignored_boxes"
    python_param {
      module: "layers.roi_data_layer"
      layer: "RoIDataLayer"
      param_str: "{\"num_classes\": 2}"
    }
  }
  layer {
    name: "conv1_1"
    type: "Convolution"
    bottom: "input_data"
    top: "conv1_1"
    param {
      lr_mult: 0
      decay_mult: 0
    }
    param {
      lr_mult: 0
      decay_mult: 0
    }
    convolution_param {
      num_output: 64
      pad: 1
      kernel_size: 3
    }
  }
  layer {
    name: "relu1_1"
    type: "ReLU"
    bottom: "conv1_1"
    top: "conv1_1"
  }
  layer {
    name: "conv1_2"
    type: "Convolution"
    bottom: "conv1_1"
    top: "conv1_2"
    param {
      lr_mult: 0
      decay_mult: 0
    }
    param {
      lr_mult: 0
      decay_mult: 0
    }
    convolution_param {
      num_output: 64
      pad: 1
      kernel_size: 3
    }
  }
  layer {
    name: "relu1_2"
    type: "ReLU"
    bottom: "conv1_2"
    top: "conv1_2"
  }
  layer {
    name: "pool1"
    type: "Pooling"
    bottom: "conv1_2"
    top: "pool1"
    pooling_param {
      pool: MAX
      kernel_size: 2
      stride: 2
    }
  }
  layer {
    name: "conv2_1"
    type: "Convolution"
    bottom: "pool1"
    top: "conv2_1"
    param {
      lr_mult: 0
      decay_mult: 0
    }
    param {
      lr_mult: 0
      decay_mult: 0
    }
    convolution_param {
      num_output: 128
      pad: 1
      kernel_size: 3
    }
  }
  layer {
    name: "relu2_1"
    type: "ReLU"
    bottom: "conv2_1"
    top: "conv2_1"
  }
  layer {
    name: "conv2_2"
    type: "Convolution"
    bottom: "conv2_1"
    top: "conv2_2"
    param {
      lr_mult: 0
      decay_mult: 0
    }
    param {
      lr_mult: 0
      decay_mult: 0
    }
    convolution_param {
      num_output: 128
      pad: 1
      kernel_size: 3
    }
  }
  layer {
    name: "relu2_2"
    type: "ReLU"
    bottom: "conv2_2"
    top: "conv2_2"
  }
  layer {
    name: "pool2"
    type: "Pooling"
    bottom: "conv2_2"
    top: "pool2"
    pooling_param {
      pool: MAX
      kernel_size: 2
      stride: 2
    }
  }
  layer {
    name: "conv3_1"
    type: "Convolution"
    bottom: "pool2"
    top: "conv3_1"
    param {
      lr_mult: 1
    }
    param {
      lr_mult: 2
    }
    convolution_param {
      num_output: 256
      pad: 1
      kernel_size: 3
    }
  }
  layer {
    name: "relu3_1"
    type: "ReLU"
    bottom: "conv3_1"
    top: "conv3_1"
  }
  layer {
    name: "conv3_2"
    type: "Convolution"
    bottom: "conv3_1"
    top: "conv3_2"
    param {
      lr_mult: 1
    }
    param {
      lr_mult: 2
    }
    convolution_param {
      num_output: 256
      pad: 1
      kernel_size: 3
    }
  }
  layer {
    name: "relu3_2"
    type: "ReLU"
    bottom: "conv3_2"
    top: "conv3_2"
  }
  layer {
    name: "conv3_3"
    type: "Convolution"
    bottom: "conv3_2"
    top: "conv3_3"
    param {
      lr_mult: 1
    }
    param {
      lr_mult: 2
    }
    convolution_param {
      num_output: 256
      pad: 1
      kernel_size: 3
    }
  }
  layer {
    name: "relu3_3"
    type: "ReLU"
    bottom: "conv3_3"
    top: "conv3_3"
  }
  layer {
    name: "pool3"
    type: "Pooling"
    bottom: "conv3_3"
    top: "pool3"
    pooling_param {
      pool: MAX
      kernel_size: 2
      stride: 2
    }
  }
  layer {
    name: "conv4_1"
    type: "Convolution"
    bottom: "pool3"
    top: "conv4_1"
    param {
      lr_mult: 1
    }
    param {
      lr_mult: 2
    }
    convolution_param {
      num_output: 512
      pad: 1
      kernel_size: 3
    }
  }
  layer {
    name: "relu4_1"
    type: "ReLU"
    bottom: "conv4_1"
    top: "conv4_1"
  }
  layer {
    name: "conv4_2"
    type: "Convolution"
    bottom: "conv4_1"
    top: "conv4_2"
    param {
      lr_mult: 1
    }
    param {
      lr_mult: 2
    }
    convolution_param {
      num_output: 512
      pad: 1
      kernel_size: 3
    }
  }
  layer {
    name: "relu4_2"
    type: "ReLU"
    bottom: "conv4_2"
    top: "conv4_2"
  }
  layer {
    name: "conv4_3"
    type: "Convolution"
    bottom: "conv4_2"
    top: "conv4_3"
    param {
      lr_mult: 1
    }
    param {
      lr_mult: 2
    }
    convolution_param {
      num_output: 512
      pad: 1
      kernel_size: 3
    }
  }
  layer {
    name: "relu4_3"
    type: "ReLU"
    bottom: "conv4_3"
    top: "conv4_3"
  }
  layer {
    name: "pool4"
    type: "Pooling"
    bottom: "conv4_3"
    top: "pool4"
    pooling_param {
      pool: MAX
      kernel_size: 2
      stride: 2
    }
  }
  layer {
    name: "conv5_1"
    type: "Convolution"
    bottom: "pool4"
    top: "conv5_1"
    param {
      lr_mult: 1
    }
    param {
      lr_mult: 2
    }
    convolution_param {
      num_output: 512
      pad: 1
      kernel_size: 3
    }
  }
  layer {
    name: "relu5_1"
    type: "ReLU"
    bottom: "conv5_1"
    top: "conv5_1"
  }
  layer {
    name: "conv5_2"
    type: "Convolution"
    bottom: "conv5_1"
    top: "conv5_2"
    param {
      lr_mult: 1
    }
    param {
      lr_mult: 2
    }
    convolution_param {
      num_output: 512
      pad: 1
      kernel_size: 3
    }
  }
  layer {
    name: "relu5_2"
    type: "ReLU"
    bottom: "conv5_2"
    top: "conv5_2"
  }
  layer {
    name: "conv5_3"
    type: "Convolution"
    bottom: "conv5_2"
    top: "conv5_3"
    param {
      lr_mult: 1
    }
    param {
      lr_mult: 2
    }
    convolution_param {
      num_output: 512
      pad: 1
      kernel_size: 3
    }
  }
  layer {
    name: "relu5_3"
    type: "ReLU"
    bottom: "conv5_3"
    top: "conv5_3"
  }
  layer {
    name: "rpn_big_conv1"
    type: "Convolution"
    bottom: "conv5_3"
    top: "rpn_big_conv1"
    param {
      lr_mult: 1
    }
    param {
      lr_mult: 2
    }
    convolution_param {
      num_output: 512
      pad: 1
      kernel_size: 3
      stride: 1
      weight_filler {
        type: "gaussian"
        mean: 0
        std: 0.01
      }
      bias_filler {
        type: "constant"
      }
    }
  }
  layer {
    name: "rpn_big_conv1_relu"
    type: "ReLU"
    bottom: "rpn_big_conv1"
    top: "rpn_big_conv1"
    relu_param {
      negative_slope: 0
    }
  }
  layer {
    name: "rpn_big_conv2"
    type: "Convolution"
    bottom: "rpn_big_conv1"
    top: "rpn_big_conv2"
    param {
      lr_mult: 1
    }
    param {
      lr_mult: 2
    }
    convolution_param {
      num_output: 512
      pad: 1
      kernel_size: 3
      stride: 1
      weight_filler {
        type: "gaussian"
        mean: 0
        std: 0.01
      }
      bias_filler {
        type: "constant"
      }
    }
  }
  layer {
    name: "rpn_big_conv2_relu"
    type: "ReLU"
    bottom: "rpn_big_conv2"
    top: "rpn_big_conv2"
    relu_param {
      negative_slope: 0
    }
  }
  layer {
    name: "rpn_big_conv2_drop"
    type: "Dropout"
    bottom: "rpn_big_conv2"
    top: "rpn_big_conv2"
    dropout_param {
      dropout_ratio: 0.3
    }
  }
  layer {
    name: "rpn_big_output_cls"
    type: "Convolution"
    bottom: "rpn_big_conv2"
    top: "rpn_big_output_cls"
    param {
      lr_mult: 1
    }
    param {
      lr_mult: 2
    }
    convolution_param {
      num_output: 384
      pad: 1
      kernel_size: 3
      stride: 1
      weight_filler {
        type: "gaussian"
        mean: 0
        std: 0.01
      }
      bias_filler {
        type: "constant"
      }
    }
  }
  layer {
    name: "rpn_big_output_cls_relu"
    type: "ReLU"
    bottom: "rpn_big_output_cls"
    top: "rpn_big_output_cls"
    relu_param {
      negative_slope: 0
    }
  }
  layer {
    name: "rpn_big_cls_score"
    type: "Convolution"
    bottom: "rpn_big_output_cls"
    top: "rpn_big_cls_score"
    param {
      lr_mult: 1
    }
    param {
      lr_mult: 2
    }
    convolution_param {
      num_output: 52
      pad: 0
      kernel_size: 3
      stride: 1
      weight_filler {
        type: "gaussian"
        mean: 0
        std: 0.01
      }
      bias_filler {
        type: "constant"
      }
    }
  }
  layer {
    name: "rpn_big_cls_score_reshape"
    type: "Reshape"
    bottom: "rpn_big_cls_score"
    top: "rpn_big_cls_score_reshape"
    reshape_param {
      shape {
        dim: 0
        dim: 2
        dim: -1
        dim: 0
      }
    }
  }
  layer {
    name: "rpn_big_cls_prob"
    type: "Softmax"
    bottom: "rpn_big_cls_score_reshape"
    top: "rpn_big_cls_prob"
  }
  layer {
    name: "rpn_big_cls_prob_reshape"
    type: "Reshape"
    bottom: "rpn_big_cls_prob"
    top: "rpn_big_cls_prob_reshape"
    reshape_param {
      shape {
        dim: 0
        dim: 52
        dim: -1
        dim: 0
      }
    }
  }
  layer {
    name: "rpn_big_anchor_target"
    type: "Python"
    bottom: "rpn_big_cls_score"
    bottom: "input_gt_boxes"
    bottom: "input_ignored_boxes"
    bottom: "input_im_info"
    bottom: "input_data"
    bottom: "rpn_big_cls_prob_reshape"
    top: "rpn_big_anchor_target_labels"
    top: "rpn_big_anchor_target_bbox_targets"
    top: "rpn_big_anchor_target_inside_weights"
    top: "rpn_big_anchor_target_outside_weights"
    python_param {
      module: "rpn.anchor_target_layer"
      layer: "AnchorTargetLayer"
      param_str: "{\"anchor_ratios\": [1.0], \"anchor_shift_num_xy\": [[2, 2], [2, 2], [2, 2], [2, 2], [1, 1], [1, 1], [1, 1], [1, 1], [1, 1], [1, 1], [1, 1], [1, 1], [1, 1], [1, 1]], \"batchsize\": 256, \"negative_overlap\": 0.4, \"name\": \"rpn_big\", \"square_targets\": true, \"feat_stride\": 16, \"num_classes\": 1, \"anchor_scales\": [2.5, 3.025, 3.66025, 4.4289024999999995, 5.358972025, 6.484356150249999, 7.846070941802498, 9.493745839581022, 11.487432465893036, 13.899793283730574, 16.818749873313998, 20.350687346709933, 24.62433168951902, 29.795441344318014], \"positive_overlap\": 0.6, \"fg_fraction\": 0.5, \"tn_fraction\": 0.2}"
    }
  }
  layer {
    name: "rpn_big_loss_cls"
    type: "SoftmaxWithLoss"
    bottom: "rpn_big_cls_score_reshape"
    bottom: "rpn_big_anchor_target_labels"
    top: "rpn_big_loss_cls"
    loss_weight: 1
    propagate_down: true
    propagate_down: false
    loss_param {
      ignore_label: -1
      normalization: VALID
    }
  }
  layer {
    name: "rpn_big_output_box"
    type: "Convolution"
    bottom: "rpn_big_conv2"
    top: "rpn_big_output_box"
    param {
      lr_mult: 1
    }
    param {
      lr_mult: 2
    }
    convolution_param {
      num_output: 384
      pad: 1
      kernel_size: 3
      stride: 1
      weight_filler {
        type: "gaussian"
        mean: 0
        std: 0.01
      }
      bias_filler {
        type: "constant"
      }
    }
  }
  layer {
    name: "rpn_big_output_box_relu"
    type: "ReLU"
    bottom: "rpn_big_output_box"
    top: "rpn_big_output_box"
    relu_param {
      negative_slope: 0
    }
  }
  layer {
    name: "rpn_big_bbox_pred"
    type: "Convolution"
    bottom: "rpn_big_output_box"
    top: "rpn_big_bbox_pred"
    param {
      lr_mult: 1
    }
    param {
      lr_mult: 2
    }
    convolution_param {
      num_output: 104
      pad: 0
      kernel_size: 3
      stride: 1
      weight_filler {
        type: "gaussian"
        mean: 0
        std: 0.01
      }
      bias_filler {
        type: "constant"
      }
    }
  }
  layer {
    name: "rpn_big_loss_bbox"
    type: "Python"
    bottom: "rpn_big_bbox_pred"
    bottom: "rpn_big_anchor_target_bbox_targets"
    bottom: "rpn_big_anchor_target_inside_weights"
    bottom: "rpn_big_anchor_target_outside_weights"
    top: "rpn_big_loss_bbox"
    loss_weight: 1
    python_param {
      module: "layers.smooth_l1_loss"
      layer: "SmoothL1LossLayer"
      param_str: "{\"sigma\": 3}"
    }
  }
  layer {
    name: "proposal"
    type: "Python"
    bottom: "rpn_big_cls_prob_reshape"
    bottom: "rpn_big_bbox_pred"
    bottom: "input_im_info"
    top: "rpn_rois"
    python_param {
      module: "rpn.proposal_layer"
      layer: "ProposalLayer"
      param_str: "\'feat_stride\': 16; \'scales\': !!python/tuple [4, 8, 16, 32]"
    }
  }
}
average_loss: 100
stepvalue: 70000
stepvalue: 120000
iter_size: 2
I0413 16:09:31.513839  7978 solver.cpp:86] Creating training net specified in net_param.
I0413 16:09:31.514196  7978 net.cpp:58] Initializing net from parameters: 
name: "GeneratedModel_13_04_2017_16_09"
state {
  phase: TRAIN
}
layer {
  name: "input"
  type: "Python"
  top: "input_data"
  top: "input_im_info"
  top: "input_gt_boxes"
  top: "input_ignored_boxes"
  python_param {
    module: "layers.roi_data_layer"
    layer: "RoIDataLayer"
    param_str: "{\"num_classes\": 2}"
  }
}
layer {
  name: "conv1_1"
  type: "Convolution"
  bottom: "input_data"
  top: "conv1_1"
  param {
    lr_mult: 0
    decay_mult: 0
  }
  param {
    lr_mult: 0
    decay_mult: 0
  }
  convolution_param {
    num_output: 64
    pad: 1
    kernel_size: 3
  }
}
layer {
  name: "relu1_1"
  type: "ReLU"
  bottom: "conv1_1"
  top: "conv1_1"
}
layer {
  name: "conv1_2"
  type: "Convolution"
  bottom: "conv1_1"
  top: "conv1_2"
  param {
    lr_mult: 0
    decay_mult: 0
  }
  param {
    lr_mult: 0
    decay_mult: 0
  }
  convolution_param {
    num_output: 64
    pad: 1
    kernel_size: 3
  }
}
layer {
  name: "relu1_2"
  type: "ReLU"
  bottom: "conv1_2"
  top: "conv1_2"
}
layer {
  name: "pool1"
  type: "Pooling"
  bottom: "conv1_2"
  top: "pool1"
  pooling_param {
    pool: MAX
    kernel_size: 2
    stride: 2
  }
}
layer {
  name: "conv2_1"
  type: "Convolution"
  bottom: "pool1"
  top: "conv2_1"
  param {
    lr_mult: 0
    decay_mult: 0
  }
  param {
    lr_mult: 0
    decay_mult: 0
  }
  convolution_param {
    num_output: 128
    pad: 1
    kernel_size: 3
  }
}
layer {
  name: "relu2_1"
  type: "ReLU"
  bottom: "conv2_1"
  top: "conv2_1"
}
layer {
  name: "conv2_2"
  type: "Convolution"
  bottom: "conv2_1"
  top: "conv2_2"
  param {
    lr_mult: 0
    decay_mult: 0
  }
  param {
    lr_mult: 0
    decay_mult: 0
  }
  convolution_param {
    num_output: 128
    pad: 1
    kernel_size: 3
  }
}
layer {
  name: "relu2_2"
  type: "ReLU"
  bottom: "conv2_2"
  top: "conv2_2"
}
layer {
  name: "pool2"
  type: "Pooling"
  bottom: "conv2_2"
  top: "pool2"
  pooling_param {
    pool: MAX
    kernel_size: 2
    stride: 2
  }
}
layer {
  name: "conv3_1"
  type: "Convolution"
  bottom: "pool2"
  top: "conv3_1"
  param {
    lr_mult: 1
  }
  param {
    lr_mult: 2
  }
  convolution_param {
    num_output: 256
    pad: 1
    kernel_size: 3
  }
}
layer {
  name: "relu3_1"
  type: "ReLU"
  bottom: "conv3_1"
  top: "conv3_1"
}
layer {
  name: "conv3_2"
  type: "Convolution"
  bottom: "conv3_1"
  top: "conv3_2"
  param {
    lr_mult: 1
  }
  param {
    lr_mult: 2
  }
  convolution_param {
    num_output: 256
    pad: 1
    kernel_size: 3
  }
}
layer {
  name: "relu3_2"
  type: "ReLU"
  bottom: "conv3_2"
  top: "conv3_2"
}
layer {
  name: "conv3_3"
  type: "Convolution"
  bottom: "conv3_2"
  top: "conv3_3"
  param {
    lr_mult: 1
  }
  param {
    lr_mult: 2
  }
  convolution_param {
    num_output: 256
    pad: 1
    kernel_size: 3
  }
}
layer {
  name: "relu3_3"
  type: "ReLU"
  bottom: "conv3_3"
  top: "conv3_3"
}
layer {
  name: "pool3"
  type: "Pooling"
  bottom: "conv3_3"
  top: "pool3"
  pooling_param {
    pool: MAX
    kernel_size: 2
    stride: 2
  }
}
layer {
  name: "conv4_1"
  type: "Convolution"
  bottom: "pool3"
  top: "conv4_1"
  param {
    lr_mult: 1
  }
  param {
    lr_mult: 2
  }
  convolution_param {
    num_output: 512
    pad: 1
    kernel_size: 3
  }
}
layer {
  name: "relu4_1"
  type: "ReLU"
  bottom: "conv4_1"
  top: "conv4_1"
}
layer {
  name: "conv4_2"
  type: "Convolution"
  bottom: "conv4_1"
  top: "conv4_2"
  param {
    lr_mult: 1
  }
  param {
    lr_mult: 2
  }
  convolution_param {
    num_output: 512
    pad: 1
    kernel_size: 3
  }
}
layer {
  name: "relu4_2"
  type: "ReLU"
  bottom: "conv4_2"
  top: "conv4_2"
}
layer {
  name: "conv4_3"
  type: "Convolution"
  bottom: "conv4_2"
  top: "conv4_3"
  param {
    lr_mult: 1
  }
  param {
    lr_mult: 2
  }
  convolution_param {
    num_output: 512
    pad: 1
    kernel_size: 3
  }
}
layer {
  name: "relu4_3"
  type: "ReLU"
  bottom: "conv4_3"
  top: "conv4_3"
}
layer {
  name: "pool4"
  type: "Pooling"
  bottom: "conv4_3"
  top: "pool4"
  pooling_param {
    pool: MAX
    kernel_size: 2
    stride: 2
  }
}
layer {
  name: "conv5_1"
  type: "Convolution"
  bottom: "pool4"
  top: "conv5_1"
  param {
    lr_mult: 1
  }
  param {
    lr_mult: 2
  }
  convolution_param {
    num_output: 512
    pad: 1
    kernel_size: 3
  }
}
layer {
  name: "relu5_1"
  type: "ReLU"
  bottom: "conv5_1"
  top: "conv5_1"
}
layer {
  name: "conv5_2"
  type: "Convolution"
  bottom: "conv5_1"
  top: "conv5_2"
  param {
    lr_mult: 1
  }
  param {
    lr_mult: 2
  }
  convolution_param {
    num_output: 512
    pad: 1
    kernel_size: 3
  }
}
layer {
  name: "relu5_2"
  type: "ReLU"
  bottom: "conv5_2"
  top: "conv5_2"
}
layer {
  name: "conv5_3"
  type: "Convolution"
  bottom: "conv5_2"
  top: "conv5_3"
  param {
    lr_mult: 1
  }
  param {
    lr_mult: 2
  }
  convolution_param {
    num_output: 512
    pad: 1
    kernel_size: 3
  }
}
layer {
  name: "relu5_3"
  type: "ReLU"
  bottom: "conv5_3"
  top: "conv5_3"
}
layer {
  name: "rpn_big_conv1"
  type: "Convolution"
  bottom: "conv5_3"
  top: "rpn_big_conv1"
  param {
    lr_mult: 1
  }
  param {
    lr_mult: 2
  }
  convolution_param {
    num_output: 512
    pad: 1
    kernel_size: 3
    stride: 1
    weight_filler {
      type: "gaussian"
      mean: 0
      std: 0.01
    }
    bias_filler {
      type: "constant"
    }
  }
}
layer {
  name: "rpn_big_conv1_relu"
  type: "ReLU"
  bottom: "rpn_big_conv1"
  top: "rpn_big_conv1"
  relu_param {
    negative_slope: 0
  }
}
layer {
  name: "rpn_big_conv2"
  type: "Convolution"
  bottom: "rpn_big_conv1"
  top: "rpn_big_conv2"
  param {
    lr_mult: 1
  }
  param {
    lr_mult: 2
  }
  convolution_param {
    num_output: 512
    pad: 1
    kernel_size: 3
    stride: 1
    weight_filler {
      type: "gaussian"
      mean: 0
      std: 0.01
    }
    bias_filler {
      type: "constant"
    }
  }
}
layer {
  name: "rpn_big_conv2_relu"
  type: "ReLU"
  bottom: "rpn_big_conv2"
  top: "rpn_big_conv2"
  relu_param {
    negative_slope: 0
  }
}
layer {
  name: "rpn_big_conv2_drop"
  type: "Dropout"
  bottom: "rpn_big_conv2"
  top: "rpn_big_conv2"
  dropout_param {
    dropout_ratio: 0.3
  }
}
layer {
  name: "rpn_big_output_cls"
  type: "Convolution"
  bottom: "rpn_big_conv2"
  top: "rpn_big_output_cls"
  param {
    lr_mult: 1
  }
  param {
    lr_mult: 2
  }
  convolution_param {
    num_output: 384
    pad: 1
    kernel_size: 3
    stride: 1
    weight_filler {
      type: "gaussian"
      mean: 0
      std: 0.01
    }
    bias_filler {
      type: "constant"
    }
  }
}
layer {
  name: "rpn_big_output_cls_relu"
  type: "ReLU"
  bottom: "rpn_big_output_cls"
  top: "rpn_big_output_cls"
  relu_param {
    negative_slope: 0
  }
}
layer {
  name: "rpn_big_cls_score"
  type: "Convolution"
  bottom: "rpn_big_output_cls"
  top: "rpn_big_cls_score"
  param {
    lr_mult: 1
  }
  param {
    lr_mult: 2
  }
  convolution_param {
    num_output: 52
    pad: 0
    kernel_size: 3
    stride: 1
    weight_filler {
      type: "gaussian"
      mean: 0
      std: 0.01
    }
    bias_filler {
      type: "constant"
    }
  }
}
layer {
  name: "rpn_big_cls_score_reshape"
  type: "Reshape"
  bottom: "rpn_big_cls_score"
  top: "rpn_big_cls_score_reshape"
  reshape_param {
    shape {
      dim: 0
      dim: 2
      dim: -1
      dim: 0
    }
  }
}
layer {
  name: "rpn_big_cls_prob"
  type: "Softmax"
  bottom: "rpn_big_cls_score_reshape"
  top: "rpn_big_cls_prob"
}
layer {
  name: "rpn_big_cls_prob_reshape"
  type: "Reshape"
  bottom: "rpn_big_cls_prob"
  top: "rpn_big_cls_prob_reshape"
  reshape_param {
    shape {
      dim: 0
      dim: 52
      dim: -1
      dim: 0
    }
  }
}
layer {
  name: "rpn_big_anchor_target"
  type: "Python"
  bottom: "rpn_big_cls_score"
  bottom: "input_gt_boxes"
  bottom: "input_ignored_boxes"
  bottom: "input_im_info"
  bottom: "input_data"
  bottom: "rpn_big_cls_prob_reshape"
  top: "rpn_big_anchor_target_labels"
  top: "rpn_big_anchor_target_bbox_targets"
  top: "rpn_big_anchor_target_inside_weights"
  top: "rpn_big_anchor_target_outside_weights"
  python_param {
    module: "rpn.anchor_target_layer"
    layer: "AnchorTargetLayer"
    param_str: "{\"anchor_ratios\": [1.0], \"anchor_shift_num_xy\": [[2, 2], [2, 2], [2, 2], [2, 2], [1, 1], [1, 1], [1, 1], [1, 1], [1, 1], [1, 1], [1, 1], [1, 1], [1, 1], [1, 1]], \"batchsize\": 256, \"negative_overlap\": 0.4, \"name\": \"rpn_big\", \"square_targets\": true, \"feat_stride\": 16, \"num_classes\": 1, \"anchor_scales\": [2.5, 3.025, 3.66025, 4.4289024999999995, 5.358972025, 6.484356150249999, 7.846070941802498, 9.493745839581022, 11.487432465893036, 13.899793283730574, 16.818749873313998, 20.350687346709933, 24.62433168951902, 29.795441344318014], \"positive_overlap\": 0.6, \"fg_fraction\": 0.5, \"tn_fraction\": 0.2}"
  }
}
layer {
  name: "rpn_big_loss_cls"
  type: "SoftmaxWithLoss"
  bottom: "rpn_big_cls_score_reshape"
  bottom: "rpn_big_anchor_target_labels"
  top: "rpn_big_loss_cls"
  loss_weight: 1
  propagate_down: true
  propagate_down: false
  loss_param {
    ignore_label: -1
    normalization: VALID
  }
}
layer {
  name: "rpn_big_output_box"
  type: "Convolution"
  bottom: "rpn_big_conv2"
  top: "rpn_big_output_box"
  param {
    lr_mult: 1
  }
  param {
    lr_mult: 2
  }
  convolution_param {
    num_output: 384
    pad: 1
    kernel_size: 3
    stride: 1
    weight_filler {
      type: "gaussian"
      mean: 0
      std: 0.01
    }
    bias_filler {
      type: "constant"
    }
  }
}
layer {
  name: "rpn_big_output_box_relu"
  type: "ReLU"
  bottom: "rpn_big_output_box"
  top: "rpn_big_output_box"
  relu_param {
    negative_slope: 0
  }
}
layer {
  name: "rpn_big_bbox_pred"
  type: "Convolution"
  bottom: "rpn_big_output_box"
  top: "rpn_big_bbox_pred"
  param {
    lr_mult: 1
  }
  param {
    lr_mult: 2
  }
  convolution_param {
    num_output: 104
    pad: 0
    kernel_size: 3
    stride: 1
    weight_filler {
      type: "gaussian"
      mean: 0
      std: 0.01
    }
    bias_filler {
      type: "constant"
    }
  }
}
layer {
  name: "rpn_big_loss_bbox"
  type: "Python"
  bottom: "rpn_big_bbox_pred"
  bottom: "rpn_big_anchor_target_bbox_targets"
  bottom: "rpn_big_anchor_target_inside_weights"
  bottom: "rpn_big_anchor_target_outside_weights"
  top: "rpn_big_loss_bbox"
  loss_weight: 1
  python_param {
    module: "layers.smooth_l1_loss"
    layer: "SmoothL1LossLayer"
    param_str: "{\"sigma\": 3}"
  }
}
layer {
  name: "proposal"
  type: "Python"
  bottom: "rpn_big_cls_prob_reshape"
  bottom: "rpn_big_bbox_pred"
  bottom: "input_im_info"
  top: "rpn_rois"
  python_param {
    module: "rpn.proposal_layer"
    layer: "ProposalLayer"
    param_str: "\'feat_stride\': 16; \'scales\': !!python/tuple [4, 8, 16, 32]"
  }
}
I0413 16:09:31.514377  7978 layer_factory.hpp:77] Creating layer input
I0413 16:09:31.515628  7978 net.cpp:100] Creating Layer input
I0413 16:09:31.515642  7978 net.cpp:408] input -> input_data
I0413 16:09:31.515653  7978 net.cpp:408] input -> input_im_info
I0413 16:09:31.515661  7978 net.cpp:408] input -> input_gt_boxes
I0413 16:09:31.515667  7978 net.cpp:408] input -> input_ignored_boxes
RoiDataLayer: name_to_top: {'im_info': 1, 'gt_boxes': 2, 'ignored_boxes': 3, 'data': 0}
I0413 16:09:31.830260  7978 net.cpp:150] Setting up input
I0413 16:09:31.830288  7978 net.cpp:157] Top shape: 1 3 1000 1500 (4500000)
I0413 16:09:31.830296  7978 net.cpp:157] Top shape: 1 3 (3)
I0413 16:09:31.830303  7978 net.cpp:157] Top shape: 1 5 (5)
I0413 16:09:31.830309  7978 net.cpp:157] Top shape: 1 5 (5)
I0413 16:09:31.830313  7978 net.cpp:165] Memory required for data: 18000052
I0413 16:09:31.830322  7978 layer_factory.hpp:77] Creating layer input_data_input_0_split
I0413 16:09:31.830338  7978 net.cpp:100] Creating Layer input_data_input_0_split
I0413 16:09:31.830351  7978 net.cpp:434] input_data_input_0_split <- input_data
I0413 16:09:31.830364  7978 net.cpp:408] input_data_input_0_split -> input_data_input_0_split_0
I0413 16:09:31.830384  7978 net.cpp:408] input_data_input_0_split -> input_data_input_0_split_1
I0413 16:09:31.830432  7978 net.cpp:150] Setting up input_data_input_0_split
I0413 16:09:31.830466  7978 net.cpp:157] Top shape: 1 3 1000 1500 (4500000)
I0413 16:09:31.830489  7978 net.cpp:157] Top shape: 1 3 1000 1500 (4500000)
I0413 16:09:31.830507  7978 net.cpp:165] Memory required for data: 54000052
I0413 16:09:31.830525  7978 layer_factory.hpp:77] Creating layer input_im_info_input_1_split
I0413 16:09:31.830548  7978 net.cpp:100] Creating Layer input_im_info_input_1_split
I0413 16:09:31.830565  7978 net.cpp:434] input_im_info_input_1_split <- input_im_info
I0413 16:09:31.830590  7978 net.cpp:408] input_im_info_input_1_split -> input_im_info_input_1_split_0
I0413 16:09:31.830616  7978 net.cpp:408] input_im_info_input_1_split -> input_im_info_input_1_split_1
I0413 16:09:31.830672  7978 net.cpp:150] Setting up input_im_info_input_1_split
I0413 16:09:31.830682  7978 net.cpp:157] Top shape: 1 3 (3)
I0413 16:09:31.830689  7978 net.cpp:157] Top shape: 1 3 (3)
I0413 16:09:31.830694  7978 net.cpp:165] Memory required for data: 54000076
I0413 16:09:31.830701  7978 layer_factory.hpp:77] Creating layer conv1_1
I0413 16:09:31.830718  7978 net.cpp:100] Creating Layer conv1_1
I0413 16:09:31.830726  7978 net.cpp:434] conv1_1 <- input_data_input_0_split_0
I0413 16:09:31.830735  7978 net.cpp:408] conv1_1 -> conv1_1
I0413 16:09:31.834064  7978 net.cpp:150] Setting up conv1_1
I0413 16:09:31.834107  7978 net.cpp:157] Top shape: 1 64 1000 1500 (96000000)
I0413 16:09:31.834112  7978 net.cpp:165] Memory required for data: 438000076
I0413 16:09:31.834136  7978 layer_factory.hpp:77] Creating layer relu1_1
I0413 16:09:31.834156  7978 net.cpp:100] Creating Layer relu1_1
I0413 16:09:31.834166  7978 net.cpp:434] relu1_1 <- conv1_1
I0413 16:09:31.834177  7978 net.cpp:395] relu1_1 -> conv1_1 (in-place)
I0413 16:09:31.834192  7978 net.cpp:150] Setting up relu1_1
I0413 16:09:31.834220  7978 net.cpp:157] Top shape: 1 64 1000 1500 (96000000)
I0413 16:09:31.834240  7978 net.cpp:165] Memory required for data: 822000076
I0413 16:09:31.834259  7978 layer_factory.hpp:77] Creating layer conv1_2
I0413 16:09:31.834286  7978 net.cpp:100] Creating Layer conv1_2
I0413 16:09:31.834306  7978 net.cpp:434] conv1_2 <- conv1_1
I0413 16:09:31.834329  7978 net.cpp:408] conv1_2 -> conv1_2
I0413 16:09:31.837615  7978 net.cpp:150] Setting up conv1_2
I0413 16:09:31.837656  7978 net.cpp:157] Top shape: 1 64 1000 1500 (96000000)
I0413 16:09:31.837658  7978 net.cpp:165] Memory required for data: 1206000076
I0413 16:09:31.837680  7978 layer_factory.hpp:77] Creating layer relu1_2
I0413 16:09:31.837695  7978 net.cpp:100] Creating Layer relu1_2
I0413 16:09:31.837705  7978 net.cpp:434] relu1_2 <- conv1_2
I0413 16:09:31.837721  7978 net.cpp:395] relu1_2 -> conv1_2 (in-place)
I0413 16:09:31.837738  7978 net.cpp:150] Setting up relu1_2
I0413 16:09:31.837746  7978 net.cpp:157] Top shape: 1 64 1000 1500 (96000000)
I0413 16:09:31.837752  7978 net.cpp:165] Memory required for data: 1590000076
I0413 16:09:31.837757  7978 layer_factory.hpp:77] Creating layer pool1
I0413 16:09:31.837766  7978 net.cpp:100] Creating Layer pool1
I0413 16:09:31.837772  7978 net.cpp:434] pool1 <- conv1_2
I0413 16:09:31.837780  7978 net.cpp:408] pool1 -> pool1
I0413 16:09:31.837870  7978 net.cpp:150] Setting up pool1
I0413 16:09:31.837883  7978 net.cpp:157] Top shape: 1 64 500 750 (24000000)
I0413 16:09:31.837889  7978 net.cpp:165] Memory required for data: 1686000076
I0413 16:09:31.837894  7978 layer_factory.hpp:77] Creating layer conv2_1
I0413 16:09:31.837913  7978 net.cpp:100] Creating Layer conv2_1
I0413 16:09:31.837919  7978 net.cpp:434] conv2_1 <- pool1
I0413 16:09:31.837930  7978 net.cpp:408] conv2_1 -> conv2_1
I0413 16:09:31.839293  7978 net.cpp:150] Setting up conv2_1
I0413 16:09:31.839313  7978 net.cpp:157] Top shape: 1 128 500 750 (48000000)
I0413 16:09:31.839318  7978 net.cpp:165] Memory required for data: 1878000076
I0413 16:09:31.839334  7978 layer_factory.hpp:77] Creating layer relu2_1
I0413 16:09:31.839346  7978 net.cpp:100] Creating Layer relu2_1
I0413 16:09:31.839354  7978 net.cpp:434] relu2_1 <- conv2_1
I0413 16:09:31.839370  7978 net.cpp:395] relu2_1 -> conv2_1 (in-place)
I0413 16:09:31.839383  7978 net.cpp:150] Setting up relu2_1
I0413 16:09:31.839392  7978 net.cpp:157] Top shape: 1 128 500 750 (48000000)
I0413 16:09:31.839398  7978 net.cpp:165] Memory required for data: 2070000076
I0413 16:09:31.839403  7978 layer_factory.hpp:77] Creating layer conv2_2
I0413 16:09:31.839416  7978 net.cpp:100] Creating Layer conv2_2
I0413 16:09:31.839421  7978 net.cpp:434] conv2_2 <- conv2_1
I0413 16:09:31.839432  7978 net.cpp:408] conv2_2 -> conv2_2
I0413 16:09:31.840497  7978 net.cpp:150] Setting up conv2_2
I0413 16:09:31.840522  7978 net.cpp:157] Top shape: 1 128 500 750 (48000000)
I0413 16:09:31.840524  7978 net.cpp:165] Memory required for data: 2262000076
I0413 16:09:31.840538  7978 layer_factory.hpp:77] Creating layer relu2_2
I0413 16:09:31.840550  7978 net.cpp:100] Creating Layer relu2_2
I0413 16:09:31.840559  7978 net.cpp:434] relu2_2 <- conv2_2
I0413 16:09:31.840570  7978 net.cpp:395] relu2_2 -> conv2_2 (in-place)
I0413 16:09:31.840584  7978 net.cpp:150] Setting up relu2_2
I0413 16:09:31.840592  7978 net.cpp:157] Top shape: 1 128 500 750 (48000000)
I0413 16:09:31.840598  7978 net.cpp:165] Memory required for data: 2454000076
I0413 16:09:31.840603  7978 layer_factory.hpp:77] Creating layer pool2
I0413 16:09:31.840615  7978 net.cpp:100] Creating Layer pool2
I0413 16:09:31.840621  7978 net.cpp:434] pool2 <- conv2_2
I0413 16:09:31.840629  7978 net.cpp:408] pool2 -> pool2
I0413 16:09:31.840690  7978 net.cpp:150] Setting up pool2
I0413 16:09:31.840703  7978 net.cpp:157] Top shape: 1 128 250 375 (12000000)
I0413 16:09:31.840708  7978 net.cpp:165] Memory required for data: 2502000076
I0413 16:09:31.840713  7978 layer_factory.hpp:77] Creating layer conv3_1
I0413 16:09:31.840728  7978 net.cpp:100] Creating Layer conv3_1
I0413 16:09:31.840735  7978 net.cpp:434] conv3_1 <- pool2
I0413 16:09:31.840744  7978 net.cpp:408] conv3_1 -> conv3_1
I0413 16:09:31.841989  7978 net.cpp:150] Setting up conv3_1
I0413 16:09:31.842012  7978 net.cpp:157] Top shape: 1 256 250 375 (24000000)
I0413 16:09:31.842016  7978 net.cpp:165] Memory required for data: 2598000076
I0413 16:09:31.842034  7978 layer_factory.hpp:77] Creating layer relu3_1
I0413 16:09:31.842051  7978 net.cpp:100] Creating Layer relu3_1
I0413 16:09:31.842058  7978 net.cpp:434] relu3_1 <- conv3_1
I0413 16:09:31.842068  7978 net.cpp:395] relu3_1 -> conv3_1 (in-place)
I0413 16:09:31.842082  7978 net.cpp:150] Setting up relu3_1
I0413 16:09:31.842090  7978 net.cpp:157] Top shape: 1 256 250 375 (24000000)
I0413 16:09:31.842095  7978 net.cpp:165] Memory required for data: 2694000076
I0413 16:09:31.842100  7978 layer_factory.hpp:77] Creating layer conv3_2
I0413 16:09:31.842115  7978 net.cpp:100] Creating Layer conv3_2
I0413 16:09:31.842121  7978 net.cpp:434] conv3_2 <- conv3_1
I0413 16:09:31.842129  7978 net.cpp:408] conv3_2 -> conv3_2
I0413 16:09:31.843425  7978 net.cpp:150] Setting up conv3_2
I0413 16:09:31.843451  7978 net.cpp:157] Top shape: 1 256 250 375 (24000000)
I0413 16:09:31.843454  7978 net.cpp:165] Memory required for data: 2790000076
I0413 16:09:31.843466  7978 layer_factory.hpp:77] Creating layer relu3_2
I0413 16:09:31.843485  7978 net.cpp:100] Creating Layer relu3_2
I0413 16:09:31.843494  7978 net.cpp:434] relu3_2 <- conv3_2
I0413 16:09:31.843507  7978 net.cpp:395] relu3_2 -> conv3_2 (in-place)
I0413 16:09:31.843519  7978 net.cpp:150] Setting up relu3_2
I0413 16:09:31.843528  7978 net.cpp:157] Top shape: 1 256 250 375 (24000000)
I0413 16:09:31.843533  7978 net.cpp:165] Memory required for data: 2886000076
I0413 16:09:31.843538  7978 layer_factory.hpp:77] Creating layer conv3_3
I0413 16:09:31.843552  7978 net.cpp:100] Creating Layer conv3_3
I0413 16:09:31.843559  7978 net.cpp:434] conv3_3 <- conv3_2
I0413 16:09:31.843569  7978 net.cpp:408] conv3_3 -> conv3_3
I0413 16:09:31.845237  7978 net.cpp:150] Setting up conv3_3
I0413 16:09:31.845268  7978 net.cpp:157] Top shape: 1 256 250 375 (24000000)
I0413 16:09:31.845273  7978 net.cpp:165] Memory required for data: 2982000076
I0413 16:09:31.845286  7978 layer_factory.hpp:77] Creating layer relu3_3
I0413 16:09:31.845300  7978 net.cpp:100] Creating Layer relu3_3
I0413 16:09:31.845310  7978 net.cpp:434] relu3_3 <- conv3_3
I0413 16:09:31.845324  7978 net.cpp:395] relu3_3 -> conv3_3 (in-place)
I0413 16:09:31.845338  7978 net.cpp:150] Setting up relu3_3
I0413 16:09:31.845346  7978 net.cpp:157] Top shape: 1 256 250 375 (24000000)
I0413 16:09:31.845352  7978 net.cpp:165] Memory required for data: 3078000076
I0413 16:09:31.845358  7978 layer_factory.hpp:77] Creating layer pool3
I0413 16:09:31.845368  7978 net.cpp:100] Creating Layer pool3
I0413 16:09:31.845374  7978 net.cpp:434] pool3 <- conv3_3
I0413 16:09:31.845382  7978 net.cpp:408] pool3 -> pool3
I0413 16:09:31.845446  7978 net.cpp:150] Setting up pool3
I0413 16:09:31.845458  7978 net.cpp:157] Top shape: 1 256 125 188 (6016000)
I0413 16:09:31.845463  7978 net.cpp:165] Memory required for data: 3102064076
I0413 16:09:31.845468  7978 layer_factory.hpp:77] Creating layer conv4_1
I0413 16:09:31.845482  7978 net.cpp:100] Creating Layer conv4_1
I0413 16:09:31.845489  7978 net.cpp:434] conv4_1 <- pool3
I0413 16:09:31.845501  7978 net.cpp:408] conv4_1 -> conv4_1
I0413 16:09:31.848284  7978 net.cpp:150] Setting up conv4_1
I0413 16:09:31.848318  7978 net.cpp:157] Top shape: 1 512 125 188 (12032000)
I0413 16:09:31.848322  7978 net.cpp:165] Memory required for data: 3150192076
I0413 16:09:31.848333  7978 layer_factory.hpp:77] Creating layer relu4_1
I0413 16:09:31.848346  7978 net.cpp:100] Creating Layer relu4_1
I0413 16:09:31.848356  7978 net.cpp:434] relu4_1 <- conv4_1
I0413 16:09:31.848369  7978 net.cpp:395] relu4_1 -> conv4_1 (in-place)
I0413 16:09:31.848387  7978 net.cpp:150] Setting up relu4_1
I0413 16:09:31.848395  7978 net.cpp:157] Top shape: 1 512 125 188 (12032000)
I0413 16:09:31.848402  7978 net.cpp:165] Memory required for data: 3198320076
I0413 16:09:31.848407  7978 layer_factory.hpp:77] Creating layer conv4_2
I0413 16:09:31.848419  7978 net.cpp:100] Creating Layer conv4_2
I0413 16:09:31.848426  7978 net.cpp:434] conv4_2 <- conv4_1
I0413 16:09:31.848438  7978 net.cpp:408] conv4_2 -> conv4_2
I0413 16:09:31.852967  7978 net.cpp:150] Setting up conv4_2
I0413 16:09:31.853001  7978 net.cpp:157] Top shape: 1 512 125 188 (12032000)
I0413 16:09:31.853008  7978 net.cpp:165] Memory required for data: 3246448076
I0413 16:09:31.853030  7978 layer_factory.hpp:77] Creating layer relu4_2
I0413 16:09:31.853061  7978 net.cpp:100] Creating Layer relu4_2
I0413 16:09:31.853082  7978 net.cpp:434] relu4_2 <- conv4_2
I0413 16:09:31.853104  7978 net.cpp:395] relu4_2 -> conv4_2 (in-place)
I0413 16:09:31.853129  7978 net.cpp:150] Setting up relu4_2
I0413 16:09:31.853150  7978 net.cpp:157] Top shape: 1 512 125 188 (12032000)
I0413 16:09:31.853168  7978 net.cpp:165] Memory required for data: 3294576076
I0413 16:09:31.853184  7978 layer_factory.hpp:77] Creating layer conv4_3
I0413 16:09:31.853212  7978 net.cpp:100] Creating Layer conv4_3
I0413 16:09:31.853231  7978 net.cpp:434] conv4_3 <- conv4_2
I0413 16:09:31.853255  7978 net.cpp:408] conv4_3 -> conv4_3
I0413 16:09:31.857774  7978 net.cpp:150] Setting up conv4_3
I0413 16:09:31.857808  7978 net.cpp:157] Top shape: 1 512 125 188 (12032000)
I0413 16:09:31.857811  7978 net.cpp:165] Memory required for data: 3342704076
I0413 16:09:31.857825  7978 layer_factory.hpp:77] Creating layer relu4_3
I0413 16:09:31.857841  7978 net.cpp:100] Creating Layer relu4_3
I0413 16:09:31.857849  7978 net.cpp:434] relu4_3 <- conv4_3
I0413 16:09:31.857863  7978 net.cpp:395] relu4_3 -> conv4_3 (in-place)
I0413 16:09:31.857877  7978 net.cpp:150] Setting up relu4_3
I0413 16:09:31.857887  7978 net.cpp:157] Top shape: 1 512 125 188 (12032000)
I0413 16:09:31.857892  7978 net.cpp:165] Memory required for data: 3390832076
I0413 16:09:31.857898  7978 layer_factory.hpp:77] Creating layer pool4
I0413 16:09:31.857908  7978 net.cpp:100] Creating Layer pool4
I0413 16:09:31.857915  7978 net.cpp:434] pool4 <- conv4_3
I0413 16:09:31.857924  7978 net.cpp:408] pool4 -> pool4
I0413 16:09:31.857975  7978 net.cpp:150] Setting up pool4
I0413 16:09:31.857988  7978 net.cpp:157] Top shape: 1 512 63 94 (3032064)
I0413 16:09:31.857995  7978 net.cpp:165] Memory required for data: 3402960332
I0413 16:09:31.858000  7978 layer_factory.hpp:77] Creating layer conv5_1
I0413 16:09:31.858016  7978 net.cpp:100] Creating Layer conv5_1
I0413 16:09:31.858024  7978 net.cpp:434] conv5_1 <- pool4
I0413 16:09:31.858039  7978 net.cpp:408] conv5_1 -> conv5_1
I0413 16:09:31.863750  7978 net.cpp:150] Setting up conv5_1
I0413 16:09:31.863788  7978 net.cpp:157] Top shape: 1 512 63 94 (3032064)
I0413 16:09:31.863795  7978 net.cpp:165] Memory required for data: 3415088588
I0413 16:09:31.863811  7978 layer_factory.hpp:77] Creating layer relu5_1
I0413 16:09:31.863826  7978 net.cpp:100] Creating Layer relu5_1
I0413 16:09:31.863833  7978 net.cpp:434] relu5_1 <- conv5_1
I0413 16:09:31.863847  7978 net.cpp:395] relu5_1 -> conv5_1 (in-place)
I0413 16:09:31.863862  7978 net.cpp:150] Setting up relu5_1
I0413 16:09:31.863872  7978 net.cpp:157] Top shape: 1 512 63 94 (3032064)
I0413 16:09:31.863878  7978 net.cpp:165] Memory required for data: 3427216844
I0413 16:09:31.863883  7978 layer_factory.hpp:77] Creating layer conv5_2
I0413 16:09:31.863898  7978 net.cpp:100] Creating Layer conv5_2
I0413 16:09:31.863914  7978 net.cpp:434] conv5_2 <- conv5_1
I0413 16:09:31.863925  7978 net.cpp:408] conv5_2 -> conv5_2
I0413 16:09:31.868551  7978 net.cpp:150] Setting up conv5_2
I0413 16:09:31.868588  7978 net.cpp:157] Top shape: 1 512 63 94 (3032064)
I0413 16:09:31.868594  7978 net.cpp:165] Memory required for data: 3439345100
I0413 16:09:31.868618  7978 layer_factory.hpp:77] Creating layer relu5_2
I0413 16:09:31.868631  7978 net.cpp:100] Creating Layer relu5_2
I0413 16:09:31.868641  7978 net.cpp:434] relu5_2 <- conv5_2
I0413 16:09:31.868656  7978 net.cpp:395] relu5_2 -> conv5_2 (in-place)
I0413 16:09:31.868670  7978 net.cpp:150] Setting up relu5_2
I0413 16:09:31.868680  7978 net.cpp:157] Top shape: 1 512 63 94 (3032064)
I0413 16:09:31.868686  7978 net.cpp:165] Memory required for data: 3451473356
I0413 16:09:31.868692  7978 layer_factory.hpp:77] Creating layer conv5_3
I0413 16:09:31.868710  7978 net.cpp:100] Creating Layer conv5_3
I0413 16:09:31.868717  7978 net.cpp:434] conv5_3 <- conv5_2
I0413 16:09:31.868729  7978 net.cpp:408] conv5_3 -> conv5_3
I0413 16:09:31.873330  7978 net.cpp:150] Setting up conv5_3
I0413 16:09:31.873404  7978 net.cpp:157] Top shape: 1 512 63 94 (3032064)
I0413 16:09:31.873410  7978 net.cpp:165] Memory required for data: 3463601612
I0413 16:09:31.873426  7978 layer_factory.hpp:77] Creating layer relu5_3
I0413 16:09:31.873450  7978 net.cpp:100] Creating Layer relu5_3
I0413 16:09:31.873459  7978 net.cpp:434] relu5_3 <- conv5_3
I0413 16:09:31.873472  7978 net.cpp:395] relu5_3 -> conv5_3 (in-place)
I0413 16:09:31.873486  7978 net.cpp:150] Setting up relu5_3
I0413 16:09:31.873497  7978 net.cpp:157] Top shape: 1 512 63 94 (3032064)
I0413 16:09:31.873503  7978 net.cpp:165] Memory required for data: 3475729868
I0413 16:09:31.873509  7978 layer_factory.hpp:77] Creating layer rpn_big_conv1
I0413 16:09:31.873529  7978 net.cpp:100] Creating Layer rpn_big_conv1
I0413 16:09:31.873536  7978 net.cpp:434] rpn_big_conv1 <- conv5_3
I0413 16:09:31.873548  7978 net.cpp:408] rpn_big_conv1 -> rpn_big_conv1
I0413 16:09:31.898918  7978 net.cpp:150] Setting up rpn_big_conv1
I0413 16:09:31.898952  7978 net.cpp:157] Top shape: 1 512 63 94 (3032064)
I0413 16:09:31.898957  7978 net.cpp:165] Memory required for data: 3487858124
I0413 16:09:31.898979  7978 layer_factory.hpp:77] Creating layer rpn_big_conv1_relu
I0413 16:09:31.898993  7978 net.cpp:100] Creating Layer rpn_big_conv1_relu
I0413 16:09:31.899005  7978 net.cpp:434] rpn_big_conv1_relu <- rpn_big_conv1
I0413 16:09:31.899019  7978 net.cpp:395] rpn_big_conv1_relu -> rpn_big_conv1 (in-place)
I0413 16:09:31.899036  7978 net.cpp:150] Setting up rpn_big_conv1_relu
I0413 16:09:31.899047  7978 net.cpp:157] Top shape: 1 512 63 94 (3032064)
I0413 16:09:31.899054  7978 net.cpp:165] Memory required for data: 3499986380
I0413 16:09:31.899060  7978 layer_factory.hpp:77] Creating layer rpn_big_conv2
I0413 16:09:31.899078  7978 net.cpp:100] Creating Layer rpn_big_conv2
I0413 16:09:31.899086  7978 net.cpp:434] rpn_big_conv2 <- rpn_big_conv1
I0413 16:09:31.899097  7978 net.cpp:408] rpn_big_conv2 -> rpn_big_conv2
I0413 16:09:31.925276  7978 net.cpp:150] Setting up rpn_big_conv2
I0413 16:09:31.925312  7978 net.cpp:157] Top shape: 1 512 63 94 (3032064)
I0413 16:09:31.925318  7978 net.cpp:165] Memory required for data: 3512114636
I0413 16:09:31.925339  7978 layer_factory.hpp:77] Creating layer rpn_big_conv2_relu
I0413 16:09:31.925354  7978 net.cpp:100] Creating Layer rpn_big_conv2_relu
I0413 16:09:31.925367  7978 net.cpp:434] rpn_big_conv2_relu <- rpn_big_conv2
I0413 16:09:31.925381  7978 net.cpp:395] rpn_big_conv2_relu -> rpn_big_conv2 (in-place)
I0413 16:09:31.925398  7978 net.cpp:150] Setting up rpn_big_conv2_relu
I0413 16:09:31.925407  7978 net.cpp:157] Top shape: 1 512 63 94 (3032064)
I0413 16:09:31.925415  7978 net.cpp:165] Memory required for data: 3524242892
I0413 16:09:31.925424  7978 layer_factory.hpp:77] Creating layer rpn_big_conv2_drop
I0413 16:09:31.925441  7978 net.cpp:100] Creating Layer rpn_big_conv2_drop
I0413 16:09:31.925447  7978 net.cpp:434] rpn_big_conv2_drop <- rpn_big_conv2
I0413 16:09:31.925457  7978 net.cpp:395] rpn_big_conv2_drop -> rpn_big_conv2 (in-place)
I0413 16:09:31.925490  7978 net.cpp:150] Setting up rpn_big_conv2_drop
I0413 16:09:31.925500  7978 net.cpp:157] Top shape: 1 512 63 94 (3032064)
I0413 16:09:31.925506  7978 net.cpp:165] Memory required for data: 3536371148
I0413 16:09:31.925513  7978 layer_factory.hpp:77] Creating layer rpn_big_conv2_rpn_big_conv2_drop_0_split
I0413 16:09:31.925523  7978 net.cpp:100] Creating Layer rpn_big_conv2_rpn_big_conv2_drop_0_split
I0413 16:09:31.925531  7978 net.cpp:434] rpn_big_conv2_rpn_big_conv2_drop_0_split <- rpn_big_conv2
I0413 16:09:31.925544  7978 net.cpp:408] rpn_big_conv2_rpn_big_conv2_drop_0_split -> rpn_big_conv2_rpn_big_conv2_drop_0_split_0
I0413 16:09:31.925557  7978 net.cpp:408] rpn_big_conv2_rpn_big_conv2_drop_0_split -> rpn_big_conv2_rpn_big_conv2_drop_0_split_1
I0413 16:09:31.925601  7978 net.cpp:150] Setting up rpn_big_conv2_rpn_big_conv2_drop_0_split
I0413 16:09:31.925611  7978 net.cpp:157] Top shape: 1 512 63 94 (3032064)
I0413 16:09:31.925619  7978 net.cpp:157] Top shape: 1 512 63 94 (3032064)
I0413 16:09:31.925626  7978 net.cpp:165] Memory required for data: 3560627660
I0413 16:09:31.925632  7978 layer_factory.hpp:77] Creating layer rpn_big_output_cls
I0413 16:09:31.925652  7978 net.cpp:100] Creating Layer rpn_big_output_cls
I0413 16:09:31.925659  7978 net.cpp:434] rpn_big_output_cls <- rpn_big_conv2_rpn_big_conv2_drop_0_split_0
I0413 16:09:31.925673  7978 net.cpp:408] rpn_big_output_cls -> rpn_big_output_cls
I0413 16:09:31.945426  7978 net.cpp:150] Setting up rpn_big_output_cls
I0413 16:09:31.945461  7978 net.cpp:157] Top shape: 1 384 63 94 (2274048)
I0413 16:09:31.945467  7978 net.cpp:165] Memory required for data: 3569723852
I0413 16:09:31.945489  7978 layer_factory.hpp:77] Creating layer rpn_big_output_cls_relu
I0413 16:09:31.945504  7978 net.cpp:100] Creating Layer rpn_big_output_cls_relu
I0413 16:09:31.945513  7978 net.cpp:434] rpn_big_output_cls_relu <- rpn_big_output_cls
I0413 16:09:31.945528  7978 net.cpp:395] rpn_big_output_cls_relu -> rpn_big_output_cls (in-place)
I0413 16:09:31.945544  7978 net.cpp:150] Setting up rpn_big_output_cls_relu
I0413 16:09:31.945554  7978 net.cpp:157] Top shape: 1 384 63 94 (2274048)
I0413 16:09:31.945562  7978 net.cpp:165] Memory required for data: 3578820044
I0413 16:09:31.945569  7978 layer_factory.hpp:77] Creating layer rpn_big_cls_score
I0413 16:09:31.945587  7978 net.cpp:100] Creating Layer rpn_big_cls_score
I0413 16:09:31.945595  7978 net.cpp:434] rpn_big_cls_score <- rpn_big_output_cls
I0413 16:09:31.945607  7978 net.cpp:408] rpn_big_cls_score -> rpn_big_cls_score
I0413 16:09:31.947906  7978 net.cpp:150] Setting up rpn_big_cls_score
I0413 16:09:31.947919  7978 net.cpp:157] Top shape: 1 52 61 92 (291824)
I0413 16:09:31.947926  7978 net.cpp:165] Memory required for data: 3579987340
I0413 16:09:31.947947  7978 layer_factory.hpp:77] Creating layer rpn_big_cls_score_rpn_big_cls_score_0_split
I0413 16:09:31.947960  7978 net.cpp:100] Creating Layer rpn_big_cls_score_rpn_big_cls_score_0_split
I0413 16:09:31.947968  7978 net.cpp:434] rpn_big_cls_score_rpn_big_cls_score_0_split <- rpn_big_cls_score
I0413 16:09:31.947981  7978 net.cpp:408] rpn_big_cls_score_rpn_big_cls_score_0_split -> rpn_big_cls_score_rpn_big_cls_score_0_split_0
I0413 16:09:31.947995  7978 net.cpp:408] rpn_big_cls_score_rpn_big_cls_score_0_split -> rpn_big_cls_score_rpn_big_cls_score_0_split_1
I0413 16:09:31.948040  7978 net.cpp:150] Setting up rpn_big_cls_score_rpn_big_cls_score_0_split
I0413 16:09:31.948052  7978 net.cpp:157] Top shape: 1 52 61 92 (291824)
I0413 16:09:31.948063  7978 net.cpp:157] Top shape: 1 52 61 92 (291824)
I0413 16:09:31.948070  7978 net.cpp:165] Memory required for data: 3582321932
I0413 16:09:31.948074  7978 layer_factory.hpp:77] Creating layer rpn_big_cls_score_reshape
I0413 16:09:31.948086  7978 net.cpp:100] Creating Layer rpn_big_cls_score_reshape
I0413 16:09:31.948094  7978 net.cpp:434] rpn_big_cls_score_reshape <- rpn_big_cls_score_rpn_big_cls_score_0_split_0
I0413 16:09:31.948104  7978 net.cpp:408] rpn_big_cls_score_reshape -> rpn_big_cls_score_reshape
I0413 16:09:31.948137  7978 net.cpp:150] Setting up rpn_big_cls_score_reshape
I0413 16:09:31.948149  7978 net.cpp:157] Top shape: 1 2 1586 92 (291824)
I0413 16:09:31.948156  7978 net.cpp:165] Memory required for data: 3583489228
I0413 16:09:31.948163  7978 layer_factory.hpp:77] Creating layer rpn_big_cls_score_reshape_rpn_big_cls_score_reshape_0_split
I0413 16:09:31.948174  7978 net.cpp:100] Creating Layer rpn_big_cls_score_reshape_rpn_big_cls_score_reshape_0_split
I0413 16:09:31.948182  7978 net.cpp:434] rpn_big_cls_score_reshape_rpn_big_cls_score_reshape_0_split <- rpn_big_cls_score_reshape
I0413 16:09:31.948192  7978 net.cpp:408] rpn_big_cls_score_reshape_rpn_big_cls_score_reshape_0_split -> rpn_big_cls_score_reshape_rpn_big_cls_score_reshape_0_split_0
I0413 16:09:31.948209  7978 net.cpp:408] rpn_big_cls_score_reshape_rpn_big_cls_score_reshape_0_split -> rpn_big_cls_score_reshape_rpn_big_cls_score_reshape_0_split_1
I0413 16:09:31.948246  7978 net.cpp:150] Setting up rpn_big_cls_score_reshape_rpn_big_cls_score_reshape_0_split
I0413 16:09:31.948256  7978 net.cpp:157] Top shape: 1 2 1586 92 (291824)
I0413 16:09:31.948264  7978 net.cpp:157] Top shape: 1 2 1586 92 (291824)
I0413 16:09:31.948271  7978 net.cpp:165] Memory required for data: 3585823820
I0413 16:09:31.948277  7978 layer_factory.hpp:77] Creating layer rpn_big_cls_prob
I0413 16:09:31.948289  7978 net.cpp:100] Creating Layer rpn_big_cls_prob
I0413 16:09:31.948297  7978 net.cpp:434] rpn_big_cls_prob <- rpn_big_cls_score_reshape_rpn_big_cls_score_reshape_0_split_0
I0413 16:09:31.948307  7978 net.cpp:408] rpn_big_cls_prob -> rpn_big_cls_prob
I0413 16:09:31.948365  7978 net.cpp:150] Setting up rpn_big_cls_prob
I0413 16:09:31.948375  7978 net.cpp:157] Top shape: 1 2 1586 92 (291824)
I0413 16:09:31.948381  7978 net.cpp:165] Memory required for data: 3586991116
I0413 16:09:31.948390  7978 layer_factory.hpp:77] Creating layer rpn_big_cls_prob_reshape
I0413 16:09:31.948400  7978 net.cpp:100] Creating Layer rpn_big_cls_prob_reshape
I0413 16:09:31.948408  7978 net.cpp:434] rpn_big_cls_prob_reshape <- rpn_big_cls_prob
I0413 16:09:31.948418  7978 net.cpp:408] rpn_big_cls_prob_reshape -> rpn_big_cls_prob_reshape
I0413 16:09:31.948448  7978 net.cpp:150] Setting up rpn_big_cls_prob_reshape
I0413 16:09:31.948458  7978 net.cpp:157] Top shape: 1 52 61 92 (291824)
I0413 16:09:31.948464  7978 net.cpp:165] Memory required for data: 3588158412
I0413 16:09:31.948470  7978 layer_factory.hpp:77] Creating layer rpn_big_cls_prob_reshape_rpn_big_cls_prob_reshape_0_split
I0413 16:09:31.948480  7978 net.cpp:100] Creating Layer rpn_big_cls_prob_reshape_rpn_big_cls_prob_reshape_0_split
I0413 16:09:31.948488  7978 net.cpp:434] rpn_big_cls_prob_reshape_rpn_big_cls_prob_reshape_0_split <- rpn_big_cls_prob_reshape
I0413 16:09:31.948498  7978 net.cpp:408] rpn_big_cls_prob_reshape_rpn_big_cls_prob_reshape_0_split -> rpn_big_cls_prob_reshape_rpn_big_cls_prob_reshape_0_split_0
I0413 16:09:31.948510  7978 net.cpp:408] rpn_big_cls_prob_reshape_rpn_big_cls_prob_reshape_0_split -> rpn_big_cls_prob_reshape_rpn_big_cls_prob_reshape_0_split_1
I0413 16:09:31.948549  7978 net.cpp:150] Setting up rpn_big_cls_prob_reshape_rpn_big_cls_prob_reshape_0_split
I0413 16:09:31.948559  7978 net.cpp:157] Top shape: 1 52 61 92 (291824)
I0413 16:09:31.948567  7978 net.cpp:157] Top shape: 1 52 61 92 (291824)
I0413 16:09:31.948575  7978 net.cpp:165] Memory required for data: 3590493004
I0413 16:09:31.948581  7978 layer_factory.hpp:77] Creating layer rpn_big_anchor_target
I0413 16:09:31.949915  7978 net.cpp:100] Creating Layer rpn_big_anchor_target
I0413 16:09:31.949931  7978 net.cpp:434] rpn_big_anchor_target <- rpn_big_cls_score_rpn_big_cls_score_0_split_1
I0413 16:09:31.949941  7978 net.cpp:434] rpn_big_anchor_target <- input_gt_boxes
I0413 16:09:31.949949  7978 net.cpp:434] rpn_big_anchor_target <- input_ignored_boxes
I0413 16:09:31.949957  7978 net.cpp:434] rpn_big_anchor_target <- input_im_info_input_1_split_0
I0413 16:09:31.949966  7978 net.cpp:434] rpn_big_anchor_target <- input_data_input_0_split_1
I0413 16:09:31.949977  7978 net.cpp:434] rpn_big_anchor_target <- rpn_big_cls_prob_reshape_rpn_big_cls_prob_reshape_0_split_0
I0413 16:09:31.949990  7978 net.cpp:408] rpn_big_anchor_target -> rpn_big_anchor_target_labels
I0413 16:09:31.950006  7978 net.cpp:408] rpn_big_anchor_target -> rpn_big_anchor_target_bbox_targets
I0413 16:09:31.950021  7978 net.cpp:408] rpn_big_anchor_target -> rpn_big_anchor_target_inside_weights
I0413 16:09:31.950037  7978 net.cpp:408] rpn_big_anchor_target -> rpn_big_anchor_target_outside_weights
I0413 16:09:31.956177  7978 net.cpp:150] Setting up rpn_big_anchor_target
I0413 16:09:31.956209  7978 net.cpp:157] Top shape: 1 1 1586 92 (145912)
I0413 16:09:31.956218  7978 net.cpp:157] Top shape: 1 104 61 92 (583648)
I0413 16:09:31.956225  7978 net.cpp:157] Top shape: 1 104 61 92 (583648)
I0413 16:09:31.956233  7978 net.cpp:157] Top shape: 1 104 61 92 (583648)
I0413 16:09:31.956238  7978 net.cpp:165] Memory required for data: 3598080428
I0413 16:09:31.956246  7978 layer_factory.hpp:77] Creating layer rpn_big_loss_cls
I0413 16:09:31.956264  7978 net.cpp:100] Creating Layer rpn_big_loss_cls
I0413 16:09:31.956272  7978 net.cpp:434] rpn_big_loss_cls <- rpn_big_cls_score_reshape_rpn_big_cls_score_reshape_0_split_1
I0413 16:09:31.956284  7978 net.cpp:434] rpn_big_loss_cls <- rpn_big_anchor_target_labels
I0413 16:09:31.956296  7978 net.cpp:408] rpn_big_loss_cls -> rpn_big_loss_cls
I0413 16:09:31.956317  7978 layer_factory.hpp:77] Creating layer rpn_big_loss_cls
I0413 16:09:31.957031  7978 net.cpp:150] Setting up rpn_big_loss_cls
I0413 16:09:31.957053  7978 net.cpp:157] Top shape: (1)
I0413 16:09:31.957059  7978 net.cpp:160]     with loss weight 1
I0413 16:09:31.957074  7978 net.cpp:165] Memory required for data: 3598080432
I0413 16:09:31.957082  7978 layer_factory.hpp:77] Creating layer rpn_big_output_box
I0413 16:09:31.957103  7978 net.cpp:100] Creating Layer rpn_big_output_box
I0413 16:09:31.957113  7978 net.cpp:434] rpn_big_output_box <- rpn_big_conv2_rpn_big_conv2_drop_0_split_1
I0413 16:09:31.957129  7978 net.cpp:408] rpn_big_output_box -> rpn_big_output_box
I0413 16:09:31.976989  7978 net.cpp:150] Setting up rpn_big_output_box
I0413 16:09:31.977022  7978 net.cpp:157] Top shape: 1 384 63 94 (2274048)
I0413 16:09:31.977028  7978 net.cpp:165] Memory required for data: 3607176624
I0413 16:09:31.977043  7978 layer_factory.hpp:77] Creating layer rpn_big_output_box_relu
I0413 16:09:31.977061  7978 net.cpp:100] Creating Layer rpn_big_output_box_relu
I0413 16:09:31.977072  7978 net.cpp:434] rpn_big_output_box_relu <- rpn_big_output_box
I0413 16:09:31.977085  7978 net.cpp:395] rpn_big_output_box_relu -> rpn_big_output_box (in-place)
I0413 16:09:31.977107  7978 net.cpp:150] Setting up rpn_big_output_box_relu
I0413 16:09:31.977118  7978 net.cpp:157] Top shape: 1 384 63 94 (2274048)
I0413 16:09:31.977124  7978 net.cpp:165] Memory required for data: 3616272816
I0413 16:09:31.977130  7978 layer_factory.hpp:77] Creating layer rpn_big_bbox_pred
I0413 16:09:31.977149  7978 net.cpp:100] Creating Layer rpn_big_bbox_pred
I0413 16:09:31.977157  7978 net.cpp:434] rpn_big_bbox_pred <- rpn_big_output_box
I0413 16:09:31.977169  7978 net.cpp:408] rpn_big_bbox_pred -> rpn_big_bbox_pred
I0413 16:09:31.982795  7978 net.cpp:150] Setting up rpn_big_bbox_pred
I0413 16:09:31.982820  7978 net.cpp:157] Top shape: 1 104 61 92 (583648)
I0413 16:09:31.982827  7978 net.cpp:165] Memory required for data: 3618607408
I0413 16:09:31.982848  7978 layer_factory.hpp:77] Creating layer rpn_big_bbox_pred_rpn_big_bbox_pred_0_split
I0413 16:09:31.982864  7978 net.cpp:100] Creating Layer rpn_big_bbox_pred_rpn_big_bbox_pred_0_split
I0413 16:09:31.982872  7978 net.cpp:434] rpn_big_bbox_pred_rpn_big_bbox_pred_0_split <- rpn_big_bbox_pred
I0413 16:09:31.982887  7978 net.cpp:408] rpn_big_bbox_pred_rpn_big_bbox_pred_0_split -> rpn_big_bbox_pred_rpn_big_bbox_pred_0_split_0
I0413 16:09:31.982903  7978 net.cpp:408] rpn_big_bbox_pred_rpn_big_bbox_pred_0_split -> rpn_big_bbox_pred_rpn_big_bbox_pred_0_split_1
I0413 16:09:31.982947  7978 net.cpp:150] Setting up rpn_big_bbox_pred_rpn_big_bbox_pred_0_split
I0413 16:09:31.982959  7978 net.cpp:157] Top shape: 1 104 61 92 (583648)
I0413 16:09:31.982966  7978 net.cpp:157] Top shape: 1 104 61 92 (583648)
I0413 16:09:31.982973  7978 net.cpp:165] Memory required for data: 3623276592
I0413 16:09:31.982980  7978 layer_factory.hpp:77] Creating layer rpn_big_loss_bbox
I0413 16:09:31.983332  7978 net.cpp:100] Creating Layer rpn_big_loss_bbox
I0413 16:09:31.983343  7978 net.cpp:434] rpn_big_loss_bbox <- rpn_big_bbox_pred_rpn_big_bbox_pred_0_split_0
I0413 16:09:31.983352  7978 net.cpp:434] rpn_big_loss_bbox <- rpn_big_anchor_target_bbox_targets
I0413 16:09:31.983361  7978 net.cpp:434] rpn_big_loss_bbox <- rpn_big_anchor_target_inside_weights
I0413 16:09:31.983371  7978 net.cpp:434] rpn_big_loss_bbox <- rpn_big_anchor_target_outside_weights
I0413 16:09:31.983383  7978 net.cpp:408] rpn_big_loss_bbox -> rpn_big_loss_bbox
I0413 16:09:31.985417  7978 net.cpp:150] Setting up rpn_big_loss_bbox
I0413 16:09:31.985455  7978 net.cpp:157] Top shape: 1 (1)
I0413 16:09:31.985460  7978 net.cpp:160]     with loss weight 1
I0413 16:09:31.985476  7978 net.cpp:165] Memory required for data: 3623276596
I0413 16:09:31.985486  7978 layer_factory.hpp:77] Creating layer proposal
I0413 16:09:31.987203  7978 net.cpp:100] Creating Layer proposal
I0413 16:09:31.987218  7978 net.cpp:434] proposal <- rpn_big_cls_prob_reshape_rpn_big_cls_prob_reshape_0_split_1
I0413 16:09:31.987231  7978 net.cpp:434] proposal <- rpn_big_bbox_pred_rpn_big_bbox_pred_0_split_1
…
