…
I0413 19:09:03.533104 15391 solver.cpp:48] Initializing solver from parameters: 
base_lr: 0.001
display: 20
lr_policy: "multistep"
gamma: 0.1
momentum: 0.9
weight_decay: 0.0005
snapshot: 0
snapshot_prefix: "faces_example"
net_param {
  name: "GeneratedModel_13_04_2017_19_09"
  layer {
    name: "input"
    type: "Python"
    top: "input_data"
    top: "input_im_info"
    top: "input_gt_boxes"
    top: "input_ignored_boxes"
    python_param {
      module: "layers.roi_data_layer"
      layer: "RoIDataLayer"
      param_str: "{\"num_classes\": 2}"
    }
  }
  layer {
    name: "conv1_1"
    type: "Convolution"
    bottom: "input_data"
    top: "conv1_1"
    param {
      lr_mult: 0
      decay_mult: 0
    }
    param {
      lr_mult: 0
      decay_mult: 0
    }
    convolution_param {
      num_output: 64
      pad: 1
      kernel_size: 3
    }
  }
  layer {
    name: "relu1_1"
    type: "ReLU"
    bottom: "conv1_1"
    top: "conv1_1"
  }
  layer {
    name: "conv1_2"
    type: "Convolution"
    bottom: "conv1_1"
    top: "conv1_2"
    param {
      lr_mult: 0
      decay_mult: 0
    }
    param {
      lr_mult: 0
      decay_mult: 0
    }
    convolution_param {
      num_output: 64
      pad: 1
      kernel_size: 3
    }
  }
  layer {
    name: "relu1_2"
    type: "ReLU"
    bottom: "conv1_2"
    top: "conv1_2"
  }
  layer {
    name: "pool1"
    type: "Pooling"
    bottom: "conv1_2"
    top: "pool1"
    pooling_param {
      pool: MAX
      kernel_size: 2
      stride: 2
    }
  }
  layer {
    name: "conv2_1"
    type: "Convolution"
    bottom: "pool1"
    top: "conv2_1"
    param {
      lr_mult: 0
      decay_mult: 0
    }
    param {
      lr_mult: 0
      decay_mult: 0
    }
    convolution_param {
      num_output: 128
      pad: 1
      kernel_size: 3
    }
  }
  layer {
    name: "relu2_1"
    type: "ReLU"
    bottom: "conv2_1"
    top: "conv2_1"
  }
  layer {
    name: "conv2_2"
    type: "Convolution"
    bottom: "conv2_1"
    top: "conv2_2"
    param {
      lr_mult: 0
      decay_mult: 0
    }
    param {
      lr_mult: 0
      decay_mult: 0
    }
    convolution_param {
      num_output: 128
      pad: 1
      kernel_size: 3
    }
  }
  layer {
    name: "relu2_2"
    type: "ReLU"
    bottom: "conv2_2"
    top: "conv2_2"
  }
  layer {
    name: "pool2"
    type: "Pooling"
    bottom: "conv2_2"
    top: "pool2"
    pooling_param {
      pool: MAX
      kernel_size: 2
      stride: 2
    }
  }
  layer {
    name: "conv3_1"
    type: "Convolution"
    bottom: "pool2"
    top: "conv3_1"
    param {
      lr_mult: 1
    }
    param {
      lr_mult: 2
    }
    convolution_param {
      num_output: 256
      pad: 1
      kernel_size: 3
    }
  }
  layer {
    name: "relu3_1"
    type: "ReLU"
    bottom: "conv3_1"
    top: "conv3_1"
  }
  layer {
    name: "conv3_2"
    type: "Convolution"
    bottom: "conv3_1"
    top: "conv3_2"
    param {
      lr_mult: 1
    }
    param {
      lr_mult: 2
    }
    convolution_param {
      num_output: 256
      pad: 1
      kernel_size: 3
    }
  }
  layer {
    name: "relu3_2"
    type: "ReLU"
    bottom: "conv3_2"
    top: "conv3_2"
  }
  layer {
    name: "conv3_3"
    type: "Convolution"
    bottom: "conv3_2"
    top: "conv3_3"
    param {
      lr_mult: 1
    }
    param {
      lr_mult: 2
    }
    convolution_param {
      num_output: 256
      pad: 1
      kernel_size: 3
    }
  }
  layer {
    name: "relu3_3"
    type: "ReLU"
    bottom: "conv3_3"
    top: "conv3_3"
  }
  layer {
    name: "pool3"
    type: "Pooling"
    bottom: "conv3_3"
    top: "pool3"
    pooling_param {
      pool: MAX
      kernel_size: 2
      stride: 2
    }
  }
  layer {
    name: "conv4_1"
    type: "Convolution"
    bottom: "pool3"
    top: "conv4_1"
    param {
      lr_mult: 1
    }
    param {
      lr_mult: 2
    }
    convolution_param {
      num_output: 512
      pad: 1
      kernel_size: 3
    }
  }
  layer {
    name: "relu4_1"
    type: "ReLU"
    bottom: "conv4_1"
    top: "conv4_1"
  }
  layer {
    name: "conv4_2"
    type: "Convolution"
    bottom: "conv4_1"
    top: "conv4_2"
    param {
      lr_mult: 1
    }
    param {
      lr_mult: 2
    }
    convolution_param {
      num_output: 512
      pad: 1
      kernel_size: 3
    }
  }
  layer {
    name: "relu4_2"
    type: "ReLU"
    bottom: "conv4_2"
    top: "conv4_2"
  }
  layer {
    name: "conv4_3"
    type: "Convolution"
    bottom: "conv4_2"
    top: "conv4_3"
    param {
      lr_mult: 1
    }
    param {
      lr_mult: 2
    }
    convolution_param {
      num_output: 512
      pad: 1
      kernel_size: 3
    }
  }
  layer {
    name: "relu4_3"
    type: "ReLU"
    bottom: "conv4_3"
    top: "conv4_3"
  }
  layer {
    name: "pool4"
    type: "Pooling"
    bottom: "conv4_3"
    top: "pool4"
    pooling_param {
      pool: MAX
      kernel_size: 2
      stride: 2
    }
  }
  layer {
    name: "conv5_1"
    type: "Convolution"
    bottom: "pool4"
    top: "conv5_1"
    param {
      lr_mult: 1
    }
    param {
      lr_mult: 2
    }
    convolution_param {
      num_output: 512
      pad: 1
      kernel_size: 3
    }
  }
  layer {
    name: "relu5_1"
    type: "ReLU"
    bottom: "conv5_1"
    top: "conv5_1"
  }
  layer {
    name: "conv5_2"
    type: "Convolution"
    bottom: "conv5_1"
    top: "conv5_2"
    param {
      lr_mult: 1
    }
    param {
      lr_mult: 2
    }
    convolution_param {
      num_output: 512
      pad: 1
      kernel_size: 3
    }
  }
  layer {
    name: "relu5_2"
    type: "ReLU"
    bottom: "conv5_2"
    top: "conv5_2"
  }
  layer {
    name: "conv5_3"
    type: "Convolution"
    bottom: "conv5_2"
    top: "conv5_3"
    param {
      lr_mult: 1
    }
    param {
      lr_mult: 2
    }
    convolution_param {
      num_output: 512
      pad: 1
      kernel_size: 3
    }
  }
  layer {
    name: "relu5_3"
    type: "ReLU"
    bottom: "conv5_3"
    top: "conv5_3"
  }
  layer {
    name: "rpn_big_conv1"
    type: "Convolution"
    bottom: "conv5_3"
    top: "rpn_big_conv1"
    param {
      lr_mult: 1
    }
    param {
      lr_mult: 2
    }
    convolution_param {
      num_output: 512
      pad: 1
      kernel_size: 3
      stride: 1
      weight_filler {
        type: "gaussian"
        mean: 0
        std: 0.01
      }
      bias_filler {
        type: "constant"
      }
    }
  }
  layer {
    name: "rpn_big_conv1_relu"
    type: "ReLU"
    bottom: "rpn_big_conv1"
    top: "rpn_big_conv1"
    relu_param {
      negative_slope: 0
    }
  }
  layer {
    name: "rpn_big_conv2"
    type: "Convolution"
    bottom: "rpn_big_conv1"
    top: "rpn_big_conv2"
    param {
      lr_mult: 1
    }
    param {
      lr_mult: 2
    }
    convolution_param {
      num_output: 512
      pad: 1
      kernel_size: 3
      stride: 1
      weight_filler {
        type: "gaussian"
        mean: 0
        std: 0.01
      }
      bias_filler {
        type: "constant"
      }
    }
  }
  layer {
    name: "rpn_big_conv2_relu"
    type: "ReLU"
    bottom: "rpn_big_conv2"
    top: "rpn_big_conv2"
    relu_param {
      negative_slope: 0
    }
  }
  layer {
    name: "rpn_big_conv2_drop"
    type: "Dropout"
    bottom: "rpn_big_conv2"
    top: "rpn_big_conv2"
    dropout_param {
      dropout_ratio: 0.3
    }
  }
  layer {
    name: "rpn_big_output_cls"
    type: "Convolution"
    bottom: "rpn_big_conv2"
    top: "rpn_big_output_cls"
    param {
      lr_mult: 1
    }
    param {
      lr_mult: 2
    }
    convolution_param {
      num_output: 384
      pad: 1
      kernel_size: 3
      stride: 1
      weight_filler {
        type: "gaussian"
        mean: 0
        std: 0.01
      }
      bias_filler {
        type: "constant"
      }
    }
  }
  layer {
    name: "rpn_big_output_cls_relu"
    type: "ReLU"
    bottom: "rpn_big_output_cls"
    top: "rpn_big_output_cls"
    relu_param {
      negative_slope: 0
    }
  }
  layer {
    name: "rpn_big_cls_score"
    type: "Convolution"
    bottom: "rpn_big_output_cls"
    top: "rpn_big_cls_score"
    param {
      lr_mult: 1
    }
    param {
      lr_mult: 2
    }
    convolution_param {
      num_output: 52
      pad: 0
      kernel_size: 3
      stride: 1
      weight_filler {
        type: "gaussian"
        mean: 0
        std: 0.01
      }
      bias_filler {
        type: "constant"
      }
    }
  }
  layer {
    name: "rpn_big_cls_score_reshape"
    type: "Reshape"
    bottom: "rpn_big_cls_score"
    top: "rpn_big_cls_score_reshape"
    reshape_param {
      shape {
        dim: 0
        dim: 2
        dim: -1
        dim: 0
      }
    }
  }
  layer {
    name: "rpn_big_cls_prob"
    type: "Softmax"
    bottom: "rpn_big_cls_score_reshape"
    top: "rpn_big_cls_prob"
  }
  layer {
    name: "rpn_big_cls_prob_reshape"
    type: "Reshape"
    bottom: "rpn_big_cls_prob"
    top: "rpn_big_cls_prob_reshape"
    reshape_param {
      shape {
        dim: 0
        dim: 52
        dim: -1
        dim: 0
      }
    }
  }
  layer {
    name: "rpn_big_anchor_target"
    type: "Python"
    bottom: "rpn_big_cls_score"
    bottom: "input_gt_boxes"
    bottom: "input_ignored_boxes"
    bottom: "input_im_info"
    bottom: "input_data"
    bottom: "rpn_big_cls_prob_reshape"
    top: "rpn_big_anchor_target_labels"
    top: "rpn_big_anchor_target_bbox_targets"
    top: "rpn_big_anchor_target_inside_weights"
    top: "rpn_big_anchor_target_outside_weights"
    python_param {
      module: "rpn.anchor_target_layer"
      layer: "AnchorTargetLayer"
      param_str: "{\"anchor_shift_num_xy\": [[2, 2], [2, 2], [2, 2], [2, 2], [1, 1], [1, 1], [1, 1], [1, 1], [1, 1], [1, 1], [1, 1], [1, 1], [1, 1], [1, 1]], \"negative_overlap\": 0.4, \"square_targets\": true, \"anchor_ratios\": [1.0], \"num_classes\": 1, \"name\": \"rpn_big\", \"batchsize\": 256, \"fg_fraction\": 0.5, \"anchor_scales\": [2.5, 3.025, 3.66025, 4.4289024999999995, 5.358972025, 6.484356150249999, 7.846070941802498, 9.493745839581022, 11.487432465893036, 13.899793283730574, 16.818749873313998, 20.350687346709933, 24.62433168951902, 29.795441344318014], \"feat_stride\": 16, \"positive_overlap\": 0.6, \"tn_fraction\": 0.2}"
    }
  }
  layer {
    name: "rpn_big_loss_cls"
    type: "SoftmaxWithLoss"
    bottom: "rpn_big_cls_score_reshape"
    bottom: "rpn_big_anchor_target_labels"
    top: "rpn_big_loss_cls"
    loss_weight: 1
    propagate_down: true
    propagate_down: false
    loss_param {
      ignore_label: -1
      normalization: VALID
    }
  }
  layer {
    name: "rpn_big_output_box"
    type: "Convolution"
    bottom: "rpn_big_conv2"
    top: "rpn_big_output_box"
    param {
      lr_mult: 1
    }
    param {
      lr_mult: 2
    }
    convolution_param {
      num_output: 384
      pad: 1
      kernel_size: 3
      stride: 1
      weight_filler {
        type: "gaussian"
        mean: 0
        std: 0.01
      }
      bias_filler {
        type: "constant"
      }
    }
  }
  layer {
    name: "rpn_big_output_box_relu"
    type: "ReLU"
    bottom: "rpn_big_output_box"
    top: "rpn_big_output_box"
    relu_param {
      negative_slope: 0
    }
  }
  layer {
    name: "rpn_big_bbox_pred"
    type: "Convolution"
    bottom: "rpn_big_output_box"
    top: "rpn_big_bbox_pred"
    param {
      lr_mult: 1
    }
    param {
      lr_mult: 2
    }
    convolution_param {
      num_output: 104
      pad: 0
      kernel_size: 3
      stride: 1
      weight_filler {
        type: "gaussian"
        mean: 0
        std: 0.01
      }
      bias_filler {
        type: "constant"
      }
    }
  }
  layer {
    name: "rpn_big_loss_bbox"
    type: "Python"
    bottom: "rpn_big_bbox_pred"
    bottom: "rpn_big_anchor_target_bbox_targets"
    bottom: "rpn_big_anchor_target_inside_weights"
    bottom: "rpn_big_anchor_target_outside_weights"
    top: "rpn_big_loss_bbox"
    loss_weight: 1
    python_param {
      module: "layers.smooth_l1_loss"
      layer: "SmoothL1LossLayer"
      param_str: "{\"sigma\": 3}"
    }
  }
  layer {
    name: "proposal"
    type: "Python"
    bottom: "rpn_big_cls_prob_reshape"
    bottom: "rpn_big_bbox_pred"
    bottom: "input_im_info"
    top: "rpn_rois"
    python_param {
      module: "rpn.proposal_layer"
      layer: "ProposalLayer"
      param_str: "{\"anchor_shift_num_xy\": [[2, 2], [2, 2], [2, 2], [2, 2], [1, 1], [1, 1], [1, 1], [1, 1], [1, 1], [1, 1], [1, 1], [1, 1], [1, 1], [1, 1]], \"feat_stride\": 16, \"num_classes\": 1, \"anchor_scales\": [2.5, 3.025, 3.66025, 4.4289024999999995, 5.358972025, 6.484356150249999, 7.846070941802498, 9.493745839581022, 11.487432465893036, 13.899793283730574, 16.818749873313998, 20.350687346709933, 24.62433168951902, 29.795441344318014], \"square_targets\": true, \"name\": \"rpn_big\", \"batchsize\": 256, \"anchor_ratios\": [1.0]}"
    }
  }
  layer {
    name: "roi-data"
    type: "Python"
    bottom: "rpn_rois"
    bottom: "input_gt_boxes"
    top: "rois"
    top: "labels"
    top: "bbox_targets"
    top: "bbox_inside_weights"
    top: "bbox_outside_weights"
    top: "pid_label"
    python_param {
      module: "rpn.proposal_target_layer"
      layer: "ProposalTargetLayer"
      param_str: "{\"num_classes\": 2, \"bg_aux_label\": 5532}"
    }
  }
  layer {
    name: "roi-pool"
    type: "ROIPooling"
    bottom: "conv5_3"
    bottom: "rois"
    top: "roi-pool"
    roi_pooling_param {
      pooled_h: 7
      pooled_w: 7
      spatial_scale: 0.0625
    }
  }
  layer {
    name: "fc6"
    type: "InnerProduct"
    bottom: "roi-pool"
    top: "fc6"
    param {
      lr_mult: 1
    }
    param {
      lr_mult: 2
    }
    inner_product_param {
      num_output: 4096
    }
  }
  layer {
    name: "relu6"
    type: "ReLU"
    bottom: "fc6"
    top: "fc6"
  }
  layer {
    name: "drop6"
    type: "Dropout"
    bottom: "fc6"
    top: "fc6"
    dropout_param {
      dropout_ratio: 0.5
    }
  }
  layer {
    name: "fc7"
    type: "InnerProduct"
    bottom: "fc6"
    top: "fc7"
    param {
      lr_mult: 1
    }
    param {
      lr_mult: 2
    }
    inner_product_param {
      num_output: 4096
    }
  }
  layer {
    name: "relu7"
    type: "ReLU"
    bottom: "fc7"
    top: "fc7"
  }
  layer {
    name: "drop7"
    type: "Dropout"
    bottom: "fc7"
    top: "fc7"
    dropout_param {
      dropout_ratio: 0.5
    }
  }
  layer {
    name: "bbox_pred"
    type: "InnerProduct"
    bottom: "fc7"
    top: "bbox_pred"
    param {
      lr_mult: 1
    }
    param {
      lr_mult: 2
    }
    inner_product_param {
      num_output: 8
      weight_filler {
        type: "gaussian"
        std: 0.001
      }
      bias_filler {
        type: "constant"
        value: 0
      }
    }
  }
  layer {
    name: "loss_bbox"
    type: "SmoothL1Loss"
    bottom: "bbox_pred"
    bottom: "bbox_targets"
    bottom: "bbox_inside_weights"
    bottom: "bbox_outside_weights"
    top: "loss_bbox"
    loss_weight: 1
  }
  layer {
    name: "feat"
    type: "InnerProduct"
    bottom: "fc7"
    top: "feat"
    param {
      lr_mult: 1
      decay_mult: 1
    }
    param {
      lr_mult: 2
      decay_mult: 0
    }
    inner_product_param {
      num_output: 256
      weight_filler {
        type: "gaussian"
        std: 0.01
      }
      bias_filler {
        type: "constant"
        value: 0
      }
    }
  }
  layer {
    name: "relu8"
    type: "ReLU"
    bottom: "feat"
    top: "feat"
  }
  layer {
    name: "drop8"
    type: "Dropout"
    bottom: "feat"
    top: "feat"
    dropout_param {
      dropout_ratio: 0.5
    }
  }
  layer {
    name: "pid_score"
    type: "InnerProduct"
    bottom: "feat"
    top: "pid_score"
    param {
      lr_mult: 1
      decay_mult: 1
    }
    param {
      lr_mult: 2
      decay_mult: 0
    }
    inner_product_param {
      num_output: 5533
      weight_filler {
        type: "gaussian"
        std: 0.001
      }
      bias_filler {
        type: "constant"
        value: 0
      }
    }
  }
  layer {
    name: "pid_loss"
    type: "SoftmaxWithLoss"
    bottom: "pid_score"
    bottom: "pid_score"
    top: "pid_loss"
    loss_weight: 1
    propagate_down: true
    propagate_down: false
    loss_param {
      ignore_label: -1
      normalize: true
    }
  }
}
average_loss: 100
stepvalue: 70000
stepvalue: 120000
iter_size: 2
I0413 19:09:03.533186 15391 solver.cpp:86] Creating training net specified in net_param.
I0413 19:09:03.533649 15391 net.cpp:58] Initializing net from parameters: 
name: "GeneratedModel_13_04_2017_19_09"
state {
  phase: TRAIN
}
layer {
  name: "input"
  type: "Python"
  top: "input_data"
  top: "input_im_info"
  top: "input_gt_boxes"
  top: "input_ignored_boxes"
  python_param {
    module: "layers.roi_data_layer"
    layer: "RoIDataLayer"
    param_str: "{\"num_classes\": 2}"
  }
}
layer {
  name: "conv1_1"
  type: "Convolution"
  bottom: "input_data"
  top: "conv1_1"
  param {
    lr_mult: 0
    decay_mult: 0
  }
  param {
    lr_mult: 0
    decay_mult: 0
  }
  convolution_param {
    num_output: 64
    pad: 1
    kernel_size: 3
  }
}
layer {
  name: "relu1_1"
  type: "ReLU"
  bottom: "conv1_1"
  top: "conv1_1"
}
layer {
  name: "conv1_2"
  type: "Convolution"
  bottom: "conv1_1"
  top: "conv1_2"
  param {
    lr_mult: 0
    decay_mult: 0
  }
  param {
    lr_mult: 0
    decay_mult: 0
  }
  convolution_param {
    num_output: 64
    pad: 1
    kernel_size: 3
  }
}
layer {
  name: "relu1_2"
  type: "ReLU"
  bottom: "conv1_2"
  top: "conv1_2"
}
layer {
  name: "pool1"
  type: "Pooling"
  bottom: "conv1_2"
  top: "pool1"
  pooling_param {
    pool: MAX
    kernel_size: 2
    stride: 2
  }
}
layer {
  name: "conv2_1"
  type: "Convolution"
  bottom: "pool1"
  top: "conv2_1"
  param {
    lr_mult: 0
    decay_mult: 0
  }
  param {
    lr_mult: 0
    decay_mult: 0
  }
  convolution_param {
    num_output: 128
    pad: 1
    kernel_size: 3
  }
}
layer {
  name: "relu2_1"
  type: "ReLU"
  bottom: "conv2_1"
  top: "conv2_1"
}
layer {
  name: "conv2_2"
  type: "Convolution"
  bottom: "conv2_1"
  top: "conv2_2"
  param {
    lr_mult: 0
    decay_mult: 0
  }
  param {
    lr_mult: 0
    decay_mult: 0
  }
  convolution_param {
    num_output: 128
    pad: 1
    kernel_size: 3
  }
}
layer {
  name: "relu2_2"
  type: "ReLU"
  bottom: "conv2_2"
  top: "conv2_2"
}
layer {
  name: "pool2"
  type: "Pooling"
  bottom: "conv2_2"
  top: "pool2"
  pooling_param {
    pool: MAX
    kernel_size: 2
    stride: 2
  }
}
layer {
  name: "conv3_1"
  type: "Convolution"
  bottom: "pool2"
  top: "conv3_1"
  param {
    lr_mult: 1
  }
  param {
    lr_mult: 2
  }
  convolution_param {
    num_output: 256
    pad: 1
    kernel_size: 3
  }
}
layer {
  name: "relu3_1"
  type: "ReLU"
  bottom: "conv3_1"
  top: "conv3_1"
}
layer {
  name: "conv3_2"
  type: "Convolution"
  bottom: "conv3_1"
  top: "conv3_2"
  param {
    lr_mult: 1
  }
  param {
    lr_mult: 2
  }
  convolution_param {
    num_output: 256
    pad: 1
    kernel_size: 3
  }
}
layer {
  name: "relu3_2"
  type: "ReLU"
  bottom: "conv3_2"
  top: "conv3_2"
}
layer {
  name: "conv3_3"
  type: "Convolution"
  bottom: "conv3_2"
  top: "conv3_3"
  param {
    lr_mult: 1
  }
  param {
    lr_mult: 2
  }
  convolution_param {
    num_output: 256
    pad: 1
    kernel_size: 3
  }
}
layer {
  name: "relu3_3"
  type: "ReLU"
  bottom: "conv3_3"
  top: "conv3_3"
}
layer {
  name: "pool3"
  type: "Pooling"
  bottom: "conv3_3"
  top: "pool3"
  pooling_param {
    pool: MAX
    kernel_size: 2
    stride: 2
  }
}
layer {
  name: "conv4_1"
  type: "Convolution"
  bottom: "pool3"
  top: "conv4_1"
  param {
    lr_mult: 1
  }
  param {
    lr_mult: 2
  }
  convolution_param {
    num_output: 512
    pad: 1
    kernel_size: 3
  }
}
layer {
  name: "relu4_1"
  type: "ReLU"
  bottom: "conv4_1"
  top: "conv4_1"
}
layer {
  name: "conv4_2"
  type: "Convolution"
  bottom: "conv4_1"
  top: "conv4_2"
  param {
    lr_mult: 1
  }
  param {
    lr_mult: 2
  }
  convolution_param {
    num_output: 512
    pad: 1
    kernel_size: 3
  }
}
layer {
  name: "relu4_2"
  type: "ReLU"
  bottom: "conv4_2"
  top: "conv4_2"
}
layer {
  name: "conv4_3"
  type: "Convolution"
  bottom: "conv4_2"
  top: "conv4_3"
  param {
    lr_mult: 1
  }
  param {
    lr_mult: 2
  }
  convolution_param {
    num_output: 512
    pad: 1
    kernel_size: 3
  }
}
layer {
  name: "relu4_3"
  type: "ReLU"
  bottom: "conv4_3"
  top: "conv4_3"
}
layer {
  name: "pool4"
  type: "Pooling"
  bottom: "conv4_3"
  top: "pool4"
  pooling_param {
    pool: MAX
    kernel_size: 2
    stride: 2
  }
}
layer {
  name: "conv5_1"
  type: "Convolution"
  bottom: "pool4"
  top: "conv5_1"
  param {
    lr_mult: 1
  }
  param {
    lr_mult: 2
  }
  convolution_param {
    num_output: 512
    pad: 1
    kernel_size: 3
  }
}
layer {
  name: "relu5_1"
  type: "ReLU"
  bottom: "conv5_1"
  top: "conv5_1"
}
layer {
  name: "conv5_2"
  type: "Convolution"
  bottom: "conv5_1"
  top: "conv5_2"
  param {
    lr_mult: 1
  }
  param {
    lr_mult: 2
  }
  convolution_param {
    num_output: 512
    pad: 1
    kernel_size: 3
  }
}
layer {
  name: "relu5_2"
  type: "ReLU"
  bottom: "conv5_2"
  top: "conv5_2"
}
layer {
  name: "conv5_3"
  type: "Convolution"
  bottom: "conv5_2"
  top: "conv5_3"
  param {
    lr_mult: 1
  }
  param {
    lr_mult: 2
  }
  convolution_param {
    num_output: 512
    pad: 1
    kernel_size: 3
  }
}
layer {
  name: "relu5_3"
  type: "ReLU"
  bottom: "conv5_3"
  top: "conv5_3"
}
layer {
  name: "rpn_big_conv1"
  type: "Convolution"
  bottom: "conv5_3"
  top: "rpn_big_conv1"
  param {
    lr_mult: 1
  }
  param {
    lr_mult: 2
  }
  convolution_param {
    num_output: 512
    pad: 1
    kernel_size: 3
    stride: 1
    weight_filler {
      type: "gaussian"
      mean: 0
      std: 0.01
    }
    bias_filler {
      type: "constant"
    }
  }
}
layer {
  name: "rpn_big_conv1_relu"
  type: "ReLU"
  bottom: "rpn_big_conv1"
  top: "rpn_big_conv1"
  relu_param {
    negative_slope: 0
  }
}
layer {
  name: "rpn_big_conv2"
  type: "Convolution"
  bottom: "rpn_big_conv1"
  top: "rpn_big_conv2"
  param {
    lr_mult: 1
  }
  param {
    lr_mult: 2
  }
  convolution_param {
    num_output: 512
    pad: 1
    kernel_size: 3
    stride: 1
    weight_filler {
      type: "gaussian"
      mean: 0
      std: 0.01
    }
    bias_filler {
      type: "constant"
    }
  }
}
layer {
  name: "rpn_big_conv2_relu"
  type: "ReLU"
  bottom: "rpn_big_conv2"
  top: "rpn_big_conv2"
  relu_param {
    negative_slope: 0
  }
}
layer {
  name: "rpn_big_conv2_drop"
  type: "Dropout"
  bottom: "rpn_big_conv2"
  top: "rpn_big_conv2"
  dropout_param {
    dropout_ratio: 0.3
  }
}
layer {
  name: "rpn_big_output_cls"
  type: "Convolution"
  bottom: "rpn_big_conv2"
  top: "rpn_big_output_cls"
  param {
    lr_mult: 1
  }
  param {
    lr_mult: 2
  }
  convolution_param {
    num_output: 384
    pad: 1
    kernel_size: 3
    stride: 1
    weight_filler {
      type: "gaussian"
      mean: 0
      std: 0.01
    }
    bias_filler {
      type: "constant"
    }
  }
}
layer {
  name: "rpn_big_output_cls_relu"
  type: "ReLU"
  bottom: "rpn_big_output_cls"
  top: "rpn_big_output_cls"
  relu_param {
    negative_slope: 0
  }
}
layer {
  name: "rpn_big_cls_score"
  type: "Convolution"
  bottom: "rpn_big_output_cls"
  top: "rpn_big_cls_score"
  param {
    lr_mult: 1
  }
  param {
    lr_mult: 2
  }
  convolution_param {
    num_output: 52
    pad: 0
    kernel_size: 3
    stride: 1
    weight_filler {
      type: "gaussian"
      mean: 0
      std: 0.01
    }
    bias_filler {
      type: "constant"
    }
  }
}
layer {
  name: "rpn_big_cls_score_reshape"
  type: "Reshape"
  bottom: "rpn_big_cls_score"
  top: "rpn_big_cls_score_reshape"
  reshape_param {
    shape {
      dim: 0
      dim: 2
      dim: -1
      dim: 0
    }
  }
}
layer {
  name: "rpn_big_cls_prob"
  type: "Softmax"
  bottom: "rpn_big_cls_score_reshape"
  top: "rpn_big_cls_prob"
}
layer {
  name: "rpn_big_cls_prob_reshape"
  type: "Reshape"
  bottom: "rpn_big_cls_prob"
  top: "rpn_big_cls_prob_reshape"
  reshape_param {
    shape {
      dim: 0
      dim: 52
      dim: -1
      dim: 0
    }
  }
}
layer {
  name: "rpn_big_anchor_target"
  type: "Python"
  bottom: "rpn_big_cls_score"
  bottom: "input_gt_boxes"
  bottom: "input_ignored_boxes"
  bottom: "input_im_info"
  bottom: "input_data"
  bottom: "rpn_big_cls_prob_reshape"
  top: "rpn_big_anchor_target_labels"
  top: "rpn_big_anchor_target_bbox_targets"
  top: "rpn_big_anchor_target_inside_weights"
  top: "rpn_big_anchor_target_outside_weights"
  python_param {
    module: "rpn.anchor_target_layer"
    layer: "AnchorTargetLayer"
    param_str: "{\"anchor_shift_num_xy\": [[2, 2], [2, 2], [2, 2], [2, 2], [1, 1], [1, 1], [1, 1], [1, 1], [1, 1], [1, 1], [1, 1], [1, 1], [1, 1], [1, 1]], \"negative_overlap\": 0.4, \"square_targets\": true, \"anchor_ratios\": [1.0], \"num_classes\": 1, \"name\": \"rpn_big\", \"batchsize\": 256, \"fg_fraction\": 0.5, \"anchor_scales\": [2.5, 3.025, 3.66025, 4.4289024999999995, 5.358972025, 6.484356150249999, 7.846070941802498, 9.493745839581022, 11.487432465893036, 13.899793283730574, 16.818749873313998, 20.350687346709933, 24.62433168951902, 29.795441344318014], \"feat_stride\": 16, \"positive_overlap\": 0.6, \"tn_fraction\": 0.2}"
  }
}
layer {
  name: "rpn_big_loss_cls"
  type: "SoftmaxWithLoss"
  bottom: "rpn_big_cls_score_reshape"
  bottom: "rpn_big_anchor_target_labels"
  top: "rpn_big_loss_cls"
  loss_weight: 1
  propagate_down: true
  propagate_down: false
  loss_param {
    ignore_label: -1
    normalization: VALID
  }
}
layer {
  name: "rpn_big_output_box"
  type: "Convolution"
  bottom: "rpn_big_conv2"
  top: "rpn_big_output_box"
  param {
    lr_mult: 1
  }
  param {
    lr_mult: 2
  }
  convolution_param {
    num_output: 384
    pad: 1
    kernel_size: 3
    stride: 1
    weight_filler {
      type: "gaussian"
      mean: 0
      std: 0.01
    }
    bias_filler {
      type: "constant"
    }
  }
}
layer {
  name: "rpn_big_output_box_relu"
  type: "ReLU"
  bottom: "rpn_big_output_box"
  top: "rpn_big_output_box"
  relu_param {
    negative_slope: 0
  }
}
layer {
  name: "rpn_big_bbox_pred"
  type: "Convolution"
  bottom: "rpn_big_output_box"
  top: "rpn_big_bbox_pred"
  param {
    lr_mult: 1
  }
  param {
    lr_mult: 2
  }
  convolution_param {
    num_output: 104
    pad: 0
    kernel_size: 3
    stride: 1
    weight_filler {
      type: "gaussian"
      mean: 0
      std: 0.01
    }
    bias_filler {
      type: "constant"
    }
  }
}
layer {
  name: "rpn_big_loss_bbox"
  type: "Python"
  bottom: "rpn_big_bbox_pred"
  bottom: "rpn_big_anchor_target_bbox_targets"
  bottom: "rpn_big_anchor_target_inside_weights"
  bottom: "rpn_big_anchor_target_outside_weights"
  top: "rpn_big_loss_bbox"
  loss_weight: 1
  python_param {
    module: "layers.smooth_l1_loss"
    layer: "SmoothL1LossLayer"
    param_str: "{\"sigma\": 3}"
  }
}
layer {
  name: "proposal"
  type: "Python"
  bottom: "rpn_big_cls_prob_reshape"
  bottom: "rpn_big_bbox_pred"
  bottom: "input_im_info"
  top: "rpn_rois"
  python_param {
    module: "rpn.proposal_layer"
    layer: "ProposalLayer"
    param_str: "{\"anchor_shift_num_xy\": [[2, 2], [2, 2], [2, 2], [2, 2], [1, 1], [1, 1], [1, 1], [1, 1], [1, 1], [1, 1], [1, 1], [1, 1], [1, 1], [1, 1]], \"feat_stride\": 16, \"num_classes\": 1, \"anchor_scales\": [2.5, 3.025, 3.66025, 4.4289024999999995, 5.358972025, 6.484356150249999, 7.846070941802498, 9.493745839581022, 11.487432465893036, 13.899793283730574, 16.818749873313998, 20.350687346709933, 24.62433168951902, 29.795441344318014], \"square_targets\": true, \"name\": \"rpn_big\", \"batchsize\": 256, \"anchor_ratios\": [1.0]}"
  }
}
layer {
  name: "roi-data"
  type: "Python"
  bottom: "rpn_rois"
  bottom: "input_gt_boxes"
  top: "rois"
  top: "labels"
  top: "bbox_targets"
  top: "bbox_inside_weights"
  top: "bbox_outside_weights"
  top: "pid_label"
  python_param {
    module: "rpn.proposal_target_layer"
    layer: "ProposalTargetLayer"
    param_str: "{\"num_classes\": 2, \"bg_aux_label\": 5532}"
  }
}
layer {
  name: "roi-pool"
  type: "ROIPooling"
  bottom: "conv5_3"
  bottom: "rois"
  top: "roi-pool"
  roi_pooling_param {
    pooled_h: 7
    pooled_w: 7
    spatial_scale: 0.0625
  }
}
layer {
  name: "fc6"
  type: "InnerProduct"
  bottom: "roi-pool"
  top: "fc6"
  param {
    lr_mult: 1
  }
  param {
    lr_mult: 2
  }
  inner_product_param {
    num_output: 4096
  }
}
layer {
  name: "relu6"
  type: "ReLU"
  bottom: "fc6"
  top: "fc6"
}
layer {
  name: "drop6"
  type: "Dropout"
  bottom: "fc6"
  top: "fc6"
  dropout_param {
    dropout_ratio: 0.5
  }
}
layer {
  name: "fc7"
  type: "InnerProduct"
  bottom: "fc6"
  top: "fc7"
  param {
    lr_mult: 1
  }
  param {
    lr_mult: 2
  }
  inner_product_param {
    num_output: 4096
  }
}
layer {
  name: "relu7"
  type: "ReLU"
  bottom: "fc7"
  top: "fc7"
}
layer {
  name: "drop7"
  type: "Dropout"
  bottom: "fc7"
  top: "fc7"
  dropout_param {
    dropout_ratio: 0.5
  }
}
layer {
  name: "bbox_pred"
  type: "InnerProduct"
  bottom: "fc7"
  top: "bbox_pred"
  param {
    lr_mult: 1
  }
  param {
    lr_mult: 2
  }
  inner_product_param {
    num_output: 8
    weight_filler {
      type: "gaussian"
      std: 0.001
    }
    bias_filler {
      type: "constant"
      value: 0
    }
  }
}
layer {
  name: "loss_bbox"
  type: "SmoothL1Loss"
  bottom: "bbox_pred"
  bottom: "bbox_targets"
  bottom: "bbox_inside_weights"
  bottom: "bbox_outside_weights"
  top: "loss_bbox"
  loss_weight: 1
}
layer {
  name: "feat"
  type: "InnerProduct"
  bottom: "fc7"
  top: "feat"
  param {
    lr_mult: 1
    decay_mult: 1
  }
  param {
    lr_mult: 2
    decay_mult: 0
  }
  inner_product_param {
    num_output: 256
    weight_filler {
      type: "gaussian"
      std: 0.01
    }
    bias_filler {
      type: "constant"
      value: 0
    }
  }
}
layer {
  name: "relu8"
  type: "ReLU"
  bottom: "feat"
  top: "feat"
}
layer {
  name: "drop8"
  type: "Dropout"
  bottom: "feat"
  top: "feat"
  dropout_param {
    dropout_ratio: 0.5
  }
}
layer {
  name: "pid_score"
  type: "InnerProduct"
  bottom: "feat"
  top: "pid_score"
  param {
    lr_mult: 1
    decay_mult: 1
  }
  param {
    lr_mult: 2
    decay_mult: 0
  }
  inner_product_param {
    num_output: 5533
    weight_filler {
      type: "gaussian"
      std: 0.001
    }
    bias_filler {
      type: "constant"
      value: 0
    }
  }
}
layer {
  name: "pid_loss"
  type: "SoftmaxWithLoss"
  bottom: "pid_score"
  bottom: "pid_score"
  top: "pid_loss"
  loss_weight: 1
  propagate_down: true
  propagate_down: false
  loss_param {
    ignore_label: -1
    normalize: true
  }
}
I0413 19:09:03.533928 15391 layer_factory.hpp:77] Creating layer input
I0413 19:09:03.535540 15391 net.cpp:100] Creating Layer input
I0413 19:09:03.535565 15391 net.cpp:408] input -> input_data
I0413 19:09:03.535581 15391 net.cpp:408] input -> input_im_info
I0413 19:09:03.535593 15391 net.cpp:408] input -> input_gt_boxes
I0413 19:09:03.535604 15391 net.cpp:408] input -> input_ignored_boxes
RoiDataLayer: name_to_top: {'data': 0, 'gt_boxes': 2, 'im_info': 1, 'ignored_boxes': 3}
I0413 19:09:03.896136 15391 net.cpp:150] Setting up input
I0413 19:09:03.896170 15391 net.cpp:157] Top shape: 1 3 1000 1500 (4500000)
I0413 19:09:03.896176 15391 net.cpp:157] Top shape: 1 3 (3)
I0413 19:09:03.896180 15391 net.cpp:157] Top shape: 1 5 (5)
I0413 19:09:03.896184 15391 net.cpp:157] Top shape: 1 5 (5)
I0413 19:09:03.896188 15391 net.cpp:165] Memory required for data: 18000052
I0413 19:09:03.896193 15391 layer_factory.hpp:77] Creating layer input_data_input_0_split
I0413 19:09:03.896205 15391 net.cpp:100] Creating Layer input_data_input_0_split
I0413 19:09:03.896217 15391 net.cpp:434] input_data_input_0_split <- input_data
I0413 19:09:03.896225 15391 net.cpp:408] input_data_input_0_split -> input_data_input_0_split_0
I0413 19:09:03.896239 15391 net.cpp:408] input_data_input_0_split -> input_data_input_0_split_1
I0413 19:09:03.896280 15391 net.cpp:150] Setting up input_data_input_0_split
I0413 19:09:03.896288 15391 net.cpp:157] Top shape: 1 3 1000 1500 (4500000)
I0413 19:09:03.896292 15391 net.cpp:157] Top shape: 1 3 1000 1500 (4500000)
I0413 19:09:03.896296 15391 net.cpp:165] Memory required for data: 54000052
I0413 19:09:03.896298 15391 layer_factory.hpp:77] Creating layer input_im_info_input_1_split
I0413 19:09:03.896304 15391 net.cpp:100] Creating Layer input_im_info_input_1_split
I0413 19:09:03.896308 15391 net.cpp:434] input_im_info_input_1_split <- input_im_info
I0413 19:09:03.896313 15391 net.cpp:408] input_im_info_input_1_split -> input_im_info_input_1_split_0
I0413 19:09:03.896322 15391 net.cpp:408] input_im_info_input_1_split -> input_im_info_input_1_split_1
I0413 19:09:03.896351 15391 net.cpp:150] Setting up input_im_info_input_1_split
I0413 19:09:03.896358 15391 net.cpp:157] Top shape: 1 3 (3)
I0413 19:09:03.896363 15391 net.cpp:157] Top shape: 1 3 (3)
I0413 19:09:03.896364 15391 net.cpp:165] Memory required for data: 54000076
I0413 19:09:03.896368 15391 layer_factory.hpp:77] Creating layer input_gt_boxes_input_2_split
I0413 19:09:03.896373 15391 net.cpp:100] Creating Layer input_gt_boxes_input_2_split
I0413 19:09:03.896378 15391 net.cpp:434] input_gt_boxes_input_2_split <- input_gt_boxes
I0413 19:09:03.896384 15391 net.cpp:408] input_gt_boxes_input_2_split -> input_gt_boxes_input_2_split_0
I0413 19:09:03.896391 15391 net.cpp:408] input_gt_boxes_input_2_split -> input_gt_boxes_input_2_split_1
I0413 19:09:03.896417 15391 net.cpp:150] Setting up input_gt_boxes_input_2_split
I0413 19:09:03.896425 15391 net.cpp:157] Top shape: 1 5 (5)
I0413 19:09:03.896428 15391 net.cpp:157] Top shape: 1 5 (5)
I0413 19:09:03.896431 15391 net.cpp:165] Memory required for data: 54000116
I0413 19:09:03.896435 15391 layer_factory.hpp:77] Creating layer conv1_1
I0413 19:09:03.896445 15391 net.cpp:100] Creating Layer conv1_1
I0413 19:09:03.896450 15391 net.cpp:434] conv1_1 <- input_data_input_0_split_0
I0413 19:09:03.896455 15391 net.cpp:408] conv1_1 -> conv1_1
I0413 19:09:03.899680 15391 net.cpp:150] Setting up conv1_1
I0413 19:09:03.899718 15391 net.cpp:157] Top shape: 1 64 1000 1500 (96000000)
I0413 19:09:03.899722 15391 net.cpp:165] Memory required for data: 438000116
I0413 19:09:03.899742 15391 layer_factory.hpp:77] Creating layer relu1_1
I0413 19:09:03.899756 15391 net.cpp:100] Creating Layer relu1_1
I0413 19:09:03.899780 15391 net.cpp:434] relu1_1 <- conv1_1
I0413 19:09:03.899788 15391 net.cpp:395] relu1_1 -> conv1_1 (in-place)
I0413 19:09:03.899799 15391 net.cpp:150] Setting up relu1_1
I0413 19:09:03.899806 15391 net.cpp:157] Top shape: 1 64 1000 1500 (96000000)
I0413 19:09:03.899808 15391 net.cpp:165] Memory required for data: 822000116
I0413 19:09:03.899811 15391 layer_factory.hpp:77] Creating layer conv1_2
I0413 19:09:03.899821 15391 net.cpp:100] Creating Layer conv1_2
I0413 19:09:03.899827 15391 net.cpp:434] conv1_2 <- conv1_1
I0413 19:09:03.899832 15391 net.cpp:408] conv1_2 -> conv1_2
I0413 19:09:03.903245 15391 net.cpp:150] Setting up conv1_2
I0413 19:09:03.903283 15391 net.cpp:157] Top shape: 1 64 1000 1500 (96000000)
I0413 19:09:03.903287 15391 net.cpp:165] Memory required for data: 1206000116
I0413 19:09:03.903304 15391 layer_factory.hpp:77] Creating layer relu1_2
I0413 19:09:03.903316 15391 net.cpp:100] Creating Layer relu1_2
I0413 19:09:03.903321 15391 net.cpp:434] relu1_2 <- conv1_2
I0413 19:09:03.903329 15391 net.cpp:395] relu1_2 -> conv1_2 (in-place)
I0413 19:09:03.903340 15391 net.cpp:150] Setting up relu1_2
I0413 19:09:03.903345 15391 net.cpp:157] Top shape: 1 64 1000 1500 (96000000)
I0413 19:09:03.903348 15391 net.cpp:165] Memory required for data: 1590000116
I0413 19:09:03.903352 15391 layer_factory.hpp:77] Creating layer pool1
I0413 19:09:03.903370 15391 net.cpp:100] Creating Layer pool1
I0413 19:09:03.903374 15391 net.cpp:434] pool1 <- conv1_2
I0413 19:09:03.903379 15391 net.cpp:408] pool1 -> pool1
I0413 19:09:03.903451 15391 net.cpp:150] Setting up pool1
I0413 19:09:03.903460 15391 net.cpp:157] Top shape: 1 64 500 750 (24000000)
I0413 19:09:03.903462 15391 net.cpp:165] Memory required for data: 1686000116
I0413 19:09:03.903465 15391 layer_factory.hpp:77] Creating layer conv2_1
I0413 19:09:03.903476 15391 net.cpp:100] Creating Layer conv2_1
I0413 19:09:03.903481 15391 net.cpp:434] conv2_1 <- pool1
I0413 19:09:03.903486 15391 net.cpp:408] conv2_1 -> conv2_1
I0413 19:09:03.904868 15391 net.cpp:150] Setting up conv2_1
I0413 19:09:03.904889 15391 net.cpp:157] Top shape: 1 128 500 750 (48000000)
I0413 19:09:03.904893 15391 net.cpp:165] Memory required for data: 1878000116
I0413 19:09:03.904916 15391 layer_factory.hpp:77] Creating layer relu2_1
I0413 19:09:03.904924 15391 net.cpp:100] Creating Layer relu2_1
I0413 19:09:03.904928 15391 net.cpp:434] relu2_1 <- conv2_1
I0413 19:09:03.904934 15391 net.cpp:395] relu2_1 -> conv2_1 (in-place)
I0413 19:09:03.904942 15391 net.cpp:150] Setting up relu2_1
I0413 19:09:03.904947 15391 net.cpp:157] Top shape: 1 128 500 750 (48000000)
I0413 19:09:03.904949 15391 net.cpp:165] Memory required for data: 2070000116
I0413 19:09:03.904963 15391 layer_factory.hpp:77] Creating layer conv2_2
I0413 19:09:03.904970 15391 net.cpp:100] Creating Layer conv2_2
I0413 19:09:03.904973 15391 net.cpp:434] conv2_2 <- conv2_1
I0413 19:09:03.904980 15391 net.cpp:408] conv2_2 -> conv2_2
I0413 19:09:03.905995 15391 net.cpp:150] Setting up conv2_2
I0413 19:09:03.906018 15391 net.cpp:157] Top shape: 1 128 500 750 (48000000)
I0413 19:09:03.906021 15391 net.cpp:165] Memory required for data: 2262000116
I0413 19:09:03.906031 15391 layer_factory.hpp:77] Creating layer relu2_2
I0413 19:09:03.906041 15391 net.cpp:100] Creating Layer relu2_2
I0413 19:09:03.906045 15391 net.cpp:434] relu2_2 <- conv2_2
I0413 19:09:03.906052 15391 net.cpp:395] relu2_2 -> conv2_2 (in-place)
I0413 19:09:03.906060 15391 net.cpp:150] Setting up relu2_2
I0413 19:09:03.906065 15391 net.cpp:157] Top shape: 1 128 500 750 (48000000)
I0413 19:09:03.906069 15391 net.cpp:165] Memory required for data: 2454000116
I0413 19:09:03.906071 15391 layer_factory.hpp:77] Creating layer pool2
I0413 19:09:03.906078 15391 net.cpp:100] Creating Layer pool2
I0413 19:09:03.906091 15391 net.cpp:434] pool2 <- conv2_2
I0413 19:09:03.906096 15391 net.cpp:408] pool2 -> pool2
I0413 19:09:03.906143 15391 net.cpp:150] Setting up pool2
I0413 19:09:03.906154 15391 net.cpp:157] Top shape: 1 128 250 375 (12000000)
I0413 19:09:03.906158 15391 net.cpp:165] Memory required for data: 2502000116
I0413 19:09:03.906162 15391 layer_factory.hpp:77] Creating layer conv3_1
I0413 19:09:03.906169 15391 net.cpp:100] Creating Layer conv3_1
I0413 19:09:03.906173 15391 net.cpp:434] conv3_1 <- pool2
I0413 19:09:03.906178 15391 net.cpp:408] conv3_1 -> conv3_1
I0413 19:09:03.907338 15391 net.cpp:150] Setting up conv3_1
I0413 19:09:03.907364 15391 net.cpp:157] Top shape: 1 256 250 375 (24000000)
I0413 19:09:03.907368 15391 net.cpp:165] Memory required for data: 2598000116
I0413 19:09:03.907382 15391 layer_factory.hpp:77] Creating layer relu3_1
I0413 19:09:03.907392 15391 net.cpp:100] Creating Layer relu3_1
I0413 19:09:03.907397 15391 net.cpp:434] relu3_1 <- conv3_1
I0413 19:09:03.907403 15391 net.cpp:395] relu3_1 -> conv3_1 (in-place)
I0413 19:09:03.907411 15391 net.cpp:150] Setting up relu3_1
I0413 19:09:03.907416 15391 net.cpp:157] Top shape: 1 256 250 375 (24000000)
I0413 19:09:03.907419 15391 net.cpp:165] Memory required for data: 2694000116
I0413 19:09:03.907423 15391 layer_factory.hpp:77] Creating layer conv3_2
I0413 19:09:03.907444 15391 net.cpp:100] Creating Layer conv3_2
I0413 19:09:03.907447 15391 net.cpp:434] conv3_2 <- conv3_1
I0413 19:09:03.907452 15391 net.cpp:408] conv3_2 -> conv3_2
I0413 19:09:03.908829 15391 net.cpp:150] Setting up conv3_2
I0413 19:09:03.908860 15391 net.cpp:157] Top shape: 1 256 250 375 (24000000)
I0413 19:09:03.908864 15391 net.cpp:165] Memory required for data: 2790000116
I0413 19:09:03.908872 15391 layer_factory.hpp:77] Creating layer relu3_2
I0413 19:09:03.908880 15391 net.cpp:100] Creating Layer relu3_2
I0413 19:09:03.908885 15391 net.cpp:434] relu3_2 <- conv3_2
I0413 19:09:03.908891 15391 net.cpp:395] relu3_2 -> conv3_2 (in-place)
I0413 19:09:03.908900 15391 net.cpp:150] Setting up relu3_2
I0413 19:09:03.908915 15391 net.cpp:157] Top shape: 1 256 250 375 (24000000)
I0413 19:09:03.908921 15391 net.cpp:165] Memory required for data: 2886000116
I0413 19:09:03.908926 15391 layer_factory.hpp:77] Creating layer conv3_3
I0413 19:09:03.908939 15391 net.cpp:100] Creating Layer conv3_3
I0413 19:09:03.908943 15391 net.cpp:434] conv3_3 <- conv3_2
I0413 19:09:03.908949 15391 net.cpp:408] conv3_3 -> conv3_3
I0413 19:09:03.910573 15391 net.cpp:150] Setting up conv3_3
I0413 19:09:03.910604 15391 net.cpp:157] Top shape: 1 256 250 375 (24000000)
I0413 19:09:03.910607 15391 net.cpp:165] Memory required for data: 2982000116
I0413 19:09:03.910616 15391 layer_factory.hpp:77] Creating layer relu3_3
I0413 19:09:03.910625 15391 net.cpp:100] Creating Layer relu3_3
I0413 19:09:03.910629 15391 net.cpp:434] relu3_3 <- conv3_3
I0413 19:09:03.910636 15391 net.cpp:395] relu3_3 -> conv3_3 (in-place)
I0413 19:09:03.910645 15391 net.cpp:150] Setting up relu3_3
I0413 19:09:03.910650 15391 net.cpp:157] Top shape: 1 256 250 375 (24000000)
I0413 19:09:03.910653 15391 net.cpp:165] Memory required for data: 3078000116
I0413 19:09:03.910656 15391 layer_factory.hpp:77] Creating layer pool3
I0413 19:09:03.910663 15391 net.cpp:100] Creating Layer pool3
I0413 19:09:03.910666 15391 net.cpp:434] pool3 <- conv3_3
I0413 19:09:03.910672 15391 net.cpp:408] pool3 -> pool3
I0413 19:09:03.910715 15391 net.cpp:150] Setting up pool3
I0413 19:09:03.910722 15391 net.cpp:157] Top shape: 1 256 125 188 (6016000)
I0413 19:09:03.910724 15391 net.cpp:165] Memory required for data: 3102064116
I0413 19:09:03.910727 15391 layer_factory.hpp:77] Creating layer conv4_1
I0413 19:09:03.910737 15391 net.cpp:100] Creating Layer conv4_1
I0413 19:09:03.910740 15391 net.cpp:434] conv4_1 <- pool3
I0413 19:09:03.910745 15391 net.cpp:408] conv4_1 -> conv4_1
I0413 19:09:03.913395 15391 net.cpp:150] Setting up conv4_1
I0413 19:09:03.913425 15391 net.cpp:157] Top shape: 1 512 125 188 (12032000)
I0413 19:09:03.913429 15391 net.cpp:165] Memory required for data: 3150192116
I0413 19:09:03.913439 15391 layer_factory.hpp:77] Creating layer relu4_1
I0413 19:09:03.913449 15391 net.cpp:100] Creating Layer relu4_1
I0413 19:09:03.913453 15391 net.cpp:434] relu4_1 <- conv4_1
I0413 19:09:03.913460 15391 net.cpp:395] relu4_1 -> conv4_1 (in-place)
I0413 19:09:03.913471 15391 net.cpp:150] Setting up relu4_1
I0413 19:09:03.913475 15391 net.cpp:157] Top shape: 1 512 125 188 (12032000)
I0413 19:09:03.913478 15391 net.cpp:165] Memory required for data: 3198320116
I0413 19:09:03.913481 15391 layer_factory.hpp:77] Creating layer conv4_2
I0413 19:09:03.913489 15391 net.cpp:100] Creating Layer conv4_2
I0413 19:09:03.913493 15391 net.cpp:434] conv4_2 <- conv4_1
I0413 19:09:03.913501 15391 net.cpp:408] conv4_2 -> conv4_2
I0413 19:09:03.917894 15391 net.cpp:150] Setting up conv4_2
I0413 19:09:03.917929 15391 net.cpp:157] Top shape: 1 512 125 188 (12032000)
I0413 19:09:03.917933 15391 net.cpp:165] Memory required for data: 3246448116
I0413 19:09:03.917951 15391 layer_factory.hpp:77] Creating layer relu4_2
I0413 19:09:03.917961 15391 net.cpp:100] Creating Layer relu4_2
I0413 19:09:03.917975 15391 net.cpp:434] relu4_2 <- conv4_2
I0413 19:09:03.917984 15391 net.cpp:395] relu4_2 -> conv4_2 (in-place)
I0413 19:09:03.917994 15391 net.cpp:150] Setting up relu4_2
I0413 19:09:03.917997 15391 net.cpp:157] Top shape: 1 512 125 188 (12032000)
I0413 19:09:03.918000 15391 net.cpp:165] Memory required for data: 3294576116
I0413 19:09:03.918004 15391 layer_factory.hpp:77] Creating layer conv4_3
I0413 19:09:03.918012 15391 net.cpp:100] Creating Layer conv4_3
I0413 19:09:03.918028 15391 net.cpp:434] conv4_3 <- conv4_2
I0413 19:09:03.918033 15391 net.cpp:408] conv4_3 -> conv4_3
I0413 19:09:03.922509 15391 net.cpp:150] Setting up conv4_3
I0413 19:09:03.922543 15391 net.cpp:157] Top shape: 1 512 125 188 (12032000)
I0413 19:09:03.922546 15391 net.cpp:165] Memory required for data: 3342704116
I0413 19:09:03.922556 15391 layer_factory.hpp:77] Creating layer relu4_3
I0413 19:09:03.922565 15391 net.cpp:100] Creating Layer relu4_3
I0413 19:09:03.922570 15391 net.cpp:434] relu4_3 <- conv4_3
I0413 19:09:03.922580 15391 net.cpp:395] relu4_3 -> conv4_3 (in-place)
I0413 19:09:03.922600 15391 net.cpp:150] Setting up relu4_3
I0413 19:09:03.922605 15391 net.cpp:157] Top shape: 1 512 125 188 (12032000)
I0413 19:09:03.922607 15391 net.cpp:165] Memory required for data: 3390832116
I0413 19:09:03.922610 15391 layer_factory.hpp:77] Creating layer pool4
I0413 19:09:03.922616 15391 net.cpp:100] Creating Layer pool4
I0413 19:09:03.922619 15391 net.cpp:434] pool4 <- conv4_3
I0413 19:09:03.922624 15391 net.cpp:408] pool4 -> pool4
I0413 19:09:03.922660 15391 net.cpp:150] Setting up pool4
I0413 19:09:03.922668 15391 net.cpp:157] Top shape: 1 512 63 94 (3032064)
I0413 19:09:03.922672 15391 net.cpp:165] Memory required for data: 3402960372
I0413 19:09:03.922674 15391 layer_factory.hpp:77] Creating layer conv5_1
I0413 19:09:03.922686 15391 net.cpp:100] Creating Layer conv5_1
I0413 19:09:03.922689 15391 net.cpp:434] conv5_1 <- pool4
I0413 19:09:03.922696 15391 net.cpp:408] conv5_1 -> conv5_1
I0413 19:09:03.927495 15391 net.cpp:150] Setting up conv5_1
I0413 19:09:03.927526 15391 net.cpp:157] Top shape: 1 512 63 94 (3032064)
I0413 19:09:03.927531 15391 net.cpp:165] Memory required for data: 3415088628
I0413 19:09:03.927539 15391 layer_factory.hpp:77] Creating layer relu5_1
I0413 19:09:03.927549 15391 net.cpp:100] Creating Layer relu5_1
I0413 19:09:03.927554 15391 net.cpp:434] relu5_1 <- conv5_1
I0413 19:09:03.927570 15391 net.cpp:395] relu5_1 -> conv5_1 (in-place)
I0413 19:09:03.927580 15391 net.cpp:150] Setting up relu5_1
I0413 19:09:03.927584 15391 net.cpp:157] Top shape: 1 512 63 94 (3032064)
I0413 19:09:03.927587 15391 net.cpp:165] Memory required for data: 3427216884
I0413 19:09:03.927590 15391 layer_factory.hpp:77] Creating layer conv5_2
I0413 19:09:03.927600 15391 net.cpp:100] Creating Layer conv5_2
I0413 19:09:03.927604 15391 net.cpp:434] conv5_2 <- conv5_1
I0413 19:09:03.927610 15391 net.cpp:408] conv5_2 -> conv5_2
I0413 19:09:03.932004 15391 net.cpp:150] Setting up conv5_2
I0413 19:09:03.932037 15391 net.cpp:157] Top shape: 1 512 63 94 (3032064)
I0413 19:09:03.932041 15391 net.cpp:165] Memory required for data: 3439345140
I0413 19:09:03.932051 15391 layer_factory.hpp:77] Creating layer relu5_2
I0413 19:09:03.932060 15391 net.cpp:100] Creating Layer relu5_2
I0413 19:09:03.932065 15391 net.cpp:434] relu5_2 <- conv5_2
I0413 19:09:03.932072 15391 net.cpp:395] relu5_2 -> conv5_2 (in-place)
I0413 19:09:03.932080 15391 net.cpp:150] Setting up relu5_2
I0413 19:09:03.932085 15391 net.cpp:157] Top shape: 1 512 63 94 (3032064)
I0413 19:09:03.932088 15391 net.cpp:165] Memory required for data: 3451473396
I0413 19:09:03.932091 15391 layer_factory.hpp:77] Creating layer conv5_3
I0413 19:09:03.932106 15391 net.cpp:100] Creating Layer conv5_3
I0413 19:09:03.932109 15391 net.cpp:434] conv5_3 <- conv5_2
I0413 19:09:03.932116 15391 net.cpp:408] conv5_3 -> conv5_3
I0413 19:09:03.936561 15391 net.cpp:150] Setting up conv5_3
I0413 19:09:03.936596 15391 net.cpp:157] Top shape: 1 512 63 94 (3032064)
I0413 19:09:03.936599 15391 net.cpp:165] Memory required for data: 3463601652
I0413 19:09:03.936609 15391 layer_factory.hpp:77] Creating layer relu5_3
I0413 19:09:03.936619 15391 net.cpp:100] Creating Layer relu5_3
I0413 19:09:03.936624 15391 net.cpp:434] relu5_3 <- conv5_3
I0413 19:09:03.936630 15391 net.cpp:395] relu5_3 -> conv5_3 (in-place)
I0413 19:09:03.936640 15391 net.cpp:150] Setting up relu5_3
I0413 19:09:03.936645 15391 net.cpp:157] Top shape: 1 512 63 94 (3032064)
I0413 19:09:03.936648 15391 net.cpp:165] Memory required for data: 3475729908
I0413 19:09:03.936651 15391 layer_factory.hpp:77] Creating layer conv5_3_relu5_3_0_split
I0413 19:09:03.936658 15391 net.cpp:100] Creating Layer conv5_3_relu5_3_0_split
I0413 19:09:03.936661 15391 net.cpp:434] conv5_3_relu5_3_0_split <- conv5_3
I0413 19:09:03.936667 15391 net.cpp:408] conv5_3_relu5_3_0_split -> conv5_3_relu5_3_0_split_0
I0413 19:09:03.936676 15391 net.cpp:408] conv5_3_relu5_3_0_split -> conv5_3_relu5_3_0_split_1
I0413 19:09:03.936707 15391 net.cpp:150] Setting up conv5_3_relu5_3_0_split
I0413 19:09:03.936713 15391 net.cpp:157] Top shape: 1 512 63 94 (3032064)
I0413 19:09:03.936717 15391 net.cpp:157] Top shape: 1 512 63 94 (3032064)
I0413 19:09:03.936719 15391 net.cpp:165] Memory required for data: 3499986420
I0413 19:09:03.936723 15391 layer_factory.hpp:77] Creating layer rpn_big_conv1
I0413 19:09:03.936736 15391 net.cpp:100] Creating Layer rpn_big_conv1
I0413 19:09:03.936740 15391 net.cpp:434] rpn_big_conv1 <- conv5_3_relu5_3_0_split_0
I0413 19:09:03.936746 15391 net.cpp:408] rpn_big_conv1 -> rpn_big_conv1
I0413 19:09:03.962067 15391 net.cpp:150] Setting up rpn_big_conv1
I0413 19:09:03.962098 15391 net.cpp:157] Top shape: 1 512 63 94 (3032064)
I0413 19:09:03.962111 15391 net.cpp:165] Memory required for data: 3512114676
I0413 19:09:03.962121 15391 layer_factory.hpp:77] Creating layer rpn_big_conv1_relu
I0413 19:09:03.962132 15391 net.cpp:100] Creating Layer rpn_big_conv1_relu
I0413 19:09:03.962137 15391 net.cpp:434] rpn_big_conv1_relu <- rpn_big_conv1
I0413 19:09:03.962146 15391 net.cpp:395] rpn_big_conv1_relu -> rpn_big_conv1 (in-place)
I0413 19:09:03.962157 15391 net.cpp:150] Setting up rpn_big_conv1_relu
I0413 19:09:03.962160 15391 net.cpp:157] Top shape: 1 512 63 94 (3032064)
I0413 19:09:03.962163 15391 net.cpp:165] Memory required for data: 3524242932
I0413 19:09:03.962167 15391 layer_factory.hpp:77] Creating layer rpn_big_conv2
I0413 19:09:03.962177 15391 net.cpp:100] Creating Layer rpn_big_conv2
I0413 19:09:03.962188 15391 net.cpp:434] rpn_big_conv2 <- rpn_big_conv1
I0413 19:09:03.962194 15391 net.cpp:408] rpn_big_conv2 -> rpn_big_conv2
I0413 19:09:03.987318 15391 net.cpp:150] Setting up rpn_big_conv2
I0413 19:09:03.987345 15391 net.cpp:157] Top shape: 1 512 63 94 (3032064)
I0413 19:09:03.987357 15391 net.cpp:165] Memory required for data: 3536371188
I0413 19:09:03.987368 15391 layer_factory.hpp:77] Creating layer rpn_big_conv2_relu
I0413 19:09:03.987377 15391 net.cpp:100] Creating Layer rpn_big_conv2_relu
I0413 19:09:03.987382 15391 net.cpp:434] rpn_big_conv2_relu <- rpn_big_conv2
I0413 19:09:03.987391 15391 net.cpp:395] rpn_big_conv2_relu -> rpn_big_conv2 (in-place)
I0413 19:09:03.987402 15391 net.cpp:150] Setting up rpn_big_conv2_relu
I0413 19:09:03.987406 15391 net.cpp:157] Top shape: 1 512 63 94 (3032064)
I0413 19:09:03.987409 15391 net.cpp:165] Memory required for data: 3548499444
I0413 19:09:03.987412 15391 layer_factory.hpp:77] Creating layer rpn_big_conv2_drop
I0413 19:09:03.987421 15391 net.cpp:100] Creating Layer rpn_big_conv2_drop
I0413 19:09:03.987428 15391 net.cpp:434] rpn_big_conv2_drop <- rpn_big_conv2
I0413 19:09:03.987433 15391 net.cpp:395] rpn_big_conv2_drop -> rpn_big_conv2 (in-place)
I0413 19:09:03.987454 15391 net.cpp:150] Setting up rpn_big_conv2_drop
I0413 19:09:03.987462 15391 net.cpp:157] Top shape: 1 512 63 94 (3032064)
I0413 19:09:03.987464 15391 net.cpp:165] Memory required for data: 3560627700
I0413 19:09:03.987468 15391 layer_factory.hpp:77] Creating layer rpn_big_conv2_rpn_big_conv2_drop_0_split
I0413 19:09:03.987475 15391 net.cpp:100] Creating Layer rpn_big_conv2_rpn_big_conv2_drop_0_split
I0413 19:09:03.987479 15391 net.cpp:434] rpn_big_conv2_rpn_big_conv2_drop_0_split <- rpn_big_conv2
I0413 19:09:03.987486 15391 net.cpp:408] rpn_big_conv2_rpn_big_conv2_drop_0_split -> rpn_big_conv2_rpn_big_conv2_drop_0_split_0
I0413 19:09:03.987494 15391 net.cpp:408] rpn_big_conv2_rpn_big_conv2_drop_0_split -> rpn_big_conv2_rpn_big_conv2_drop_0_split_1
I0413 19:09:03.987534 15391 net.cpp:150] Setting up rpn_big_conv2_rpn_big_conv2_drop_0_split
I0413 19:09:03.987542 15391 net.cpp:157] Top shape: 1 512 63 94 (3032064)
I0413 19:09:03.987547 15391 net.cpp:157] Top shape: 1 512 63 94 (3032064)
I0413 19:09:03.987550 15391 net.cpp:165] Memory required for data: 3584884212
I0413 19:09:03.987553 15391 layer_factory.hpp:77] Creating layer rpn_big_output_cls
I0413 19:09:03.987565 15391 net.cpp:100] Creating Layer rpn_big_output_cls
I0413 19:09:03.987571 15391 net.cpp:434] rpn_big_output_cls <- rpn_big_conv2_rpn_big_conv2_drop_0_split_0
I0413 19:09:03.987576 15391 net.cpp:408] rpn_big_output_cls -> rpn_big_output_cls
I0413 19:09:04.006497 15391 net.cpp:150] Setting up rpn_big_output_cls
I0413 19:09:04.006526 15391 net.cpp:157] Top shape: 1 384 63 94 (2274048)
I0413 19:09:04.006539 15391 net.cpp:165] Memory required for data: 3593980404
I0413 19:09:04.006549 15391 layer_factory.hpp:77] Creating layer rpn_big_output_cls_relu
I0413 19:09:04.006561 15391 net.cpp:100] Creating Layer rpn_big_output_cls_relu
I0413 19:09:04.006566 15391 net.cpp:434] rpn_big_output_cls_relu <- rpn_big_output_cls
I0413 19:09:04.006572 15391 net.cpp:395] rpn_big_output_cls_relu -> rpn_big_output_cls (in-place)
I0413 19:09:04.006584 15391 net.cpp:150] Setting up rpn_big_output_cls_relu
I0413 19:09:04.006589 15391 net.cpp:157] Top shape: 1 384 63 94 (2274048)
I0413 19:09:04.006592 15391 net.cpp:165] Memory required for data: 3603076596
I0413 19:09:04.006594 15391 layer_factory.hpp:77] Creating layer rpn_big_cls_score
I0413 19:09:04.006605 15391 net.cpp:100] Creating Layer rpn_big_cls_score
I0413 19:09:04.006613 15391 net.cpp:434] rpn_big_cls_score <- rpn_big_output_cls
I0413 19:09:04.006619 15391 net.cpp:408] rpn_big_cls_score -> rpn_big_cls_score
I0413 19:09:04.008900 15391 net.cpp:150] Setting up rpn_big_cls_score
I0413 19:09:04.008922 15391 net.cpp:157] Top shape: 1 52 61 92 (291824)
I0413 19:09:04.008925 15391 net.cpp:165] Memory required for data: 3604243892
I0413 19:09:04.008941 15391 layer_factory.hpp:77] Creating layer rpn_big_cls_score_rpn_big_cls_score_0_split
I0413 19:09:04.008949 15391 net.cpp:100] Creating Layer rpn_big_cls_score_rpn_big_cls_score_0_split
I0413 19:09:04.008955 15391 net.cpp:434] rpn_big_cls_score_rpn_big_cls_score_0_split <- rpn_big_cls_score
I0413 19:09:04.008962 15391 net.cpp:408] rpn_big_cls_score_rpn_big_cls_score_0_split -> rpn_big_cls_score_rpn_big_cls_score_0_split_0
I0413 19:09:04.008970 15391 net.cpp:408] rpn_big_cls_score_rpn_big_cls_score_0_split -> rpn_big_cls_score_rpn_big_cls_score_0_split_1
I0413 19:09:04.009003 15391 net.cpp:150] Setting up rpn_big_cls_score_rpn_big_cls_score_0_split
I0413 19:09:04.009012 15391 net.cpp:157] Top shape: 1 52 61 92 (291824)
I0413 19:09:04.009016 15391 net.cpp:157] Top shape: 1 52 61 92 (291824)
I0413 19:09:04.009019 15391 net.cpp:165] Memory required for data: 3606578484
I0413 19:09:04.009022 15391 layer_factory.hpp:77] Creating layer rpn_big_cls_score_reshape
I0413 19:09:04.009034 15391 net.cpp:100] Creating Layer rpn_big_cls_score_reshape
I0413 19:09:04.009040 15391 net.cpp:434] rpn_big_cls_score_reshape <- rpn_big_cls_score_rpn_big_cls_score_0_split_0
I0413 19:09:04.009045 15391 net.cpp:408] rpn_big_cls_score_reshape -> rpn_big_cls_score_reshape
I0413 19:09:04.009070 15391 net.cpp:150] Setting up rpn_big_cls_score_reshape
I0413 19:09:04.009078 15391 net.cpp:157] Top shape: 1 2 1586 92 (291824)
I0413 19:09:04.009083 15391 net.cpp:165] Memory required for data: 3607745780
I0413 19:09:04.009086 15391 layer_factory.hpp:77] Creating layer rpn_big_cls_score_reshape_rpn_big_cls_score_reshape_0_split
I0413 19:09:04.009091 15391 net.cpp:100] Creating Layer rpn_big_cls_score_reshape_rpn_big_cls_score_reshape_0_split
I0413 19:09:04.009095 15391 net.cpp:434] rpn_big_cls_score_reshape_rpn_big_cls_score_reshape_0_split <- rpn_big_cls_score_reshape
I0413 19:09:04.009101 15391 net.cpp:408] rpn_big_cls_score_reshape_rpn_big_cls_score_reshape_0_split -> rpn_big_cls_score_reshape_rpn_big_cls_score_reshape_0_split_0
I0413 19:09:04.009109 15391 net.cpp:408] rpn_big_cls_score_reshape_rpn_big_cls_score_reshape_0_split -> rpn_big_cls_score_reshape_rpn_big_cls_score_reshape_0_split_1
I0413 19:09:04.009142 15391 net.cpp:150] Setting up rpn_big_cls_score_reshape_rpn_big_cls_score_reshape_0_split
I0413 19:09:04.009150 15391 net.cpp:157] Top shape: 1 2 1586 92 (291824)
I0413 19:09:04.009155 15391 net.cpp:157] Top shape: 1 2 1586 92 (291824)
I0413 19:09:04.009157 15391 net.cpp:165] Memory required for data: 3610080372
I0413 19:09:04.009160 15391 layer_factory.hpp:77] Creating layer rpn_big_cls_prob
I0413 19:09:04.009167 15391 net.cpp:100] Creating Layer rpn_big_cls_prob
I0413 19:09:04.009172 15391 net.cpp:434] rpn_big_cls_prob <- rpn_big_cls_score_reshape_rpn_big_cls_score_reshape_0_split_0
I0413 19:09:04.009177 15391 net.cpp:408] rpn_big_cls_prob -> rpn_big_cls_prob
I0413 19:09:04.009227 15391 net.cpp:150] Setting up rpn_big_cls_prob
I0413 19:09:04.009234 15391 net.cpp:157] Top shape: 1 2 1586 92 (291824)
I0413 19:09:04.009238 15391 net.cpp:165] Memory required for data: 3611247668
I0413 19:09:04.009241 15391 layer_factory.hpp:77] Creating layer rpn_big_cls_prob_reshape
I0413 19:09:04.009246 15391 net.cpp:100] Creating Layer rpn_big_cls_prob_reshape
I0413 19:09:04.009250 15391 net.cpp:434] rpn_big_cls_prob_reshape <- rpn_big_cls_prob
I0413 19:09:04.009256 15391 net.cpp:408] rpn_big_cls_prob_reshape -> rpn_big_cls_prob_reshape
I0413 19:09:04.009279 15391 net.cpp:150] Setting up rpn_big_cls_prob_reshape
I0413 19:09:04.009285 15391 net.cpp:157] Top shape: 1 52 61 92 (291824)
I0413 19:09:04.009289 15391 net.cpp:165] Memory required for data: 3612414964
I0413 19:09:04.009292 15391 layer_factory.hpp:77] Creating layer rpn_big_cls_prob_reshape_rpn_big_cls_prob_reshape_0_split
I0413 19:09:04.009297 15391 net.cpp:100] Creating Layer rpn_big_cls_prob_reshape_rpn_big_cls_prob_reshape_0_split
I0413 19:09:04.009301 15391 net.cpp:434] rpn_big_cls_prob_reshape_rpn_big_cls_prob_reshape_0_split <- rpn_big_cls_prob_reshape
I0413 19:09:04.009306 15391 net.cpp:408] rpn_big_cls_prob_reshape_rpn_big_cls_prob_reshape_0_split -> rpn_big_cls_prob_reshape_rpn_big_cls_prob_reshape_0_split_0
I0413 19:09:04.009315 15391 net.cpp:408] rpn_big_cls_prob_reshape_rpn_big_cls_prob_reshape_0_split -> rpn_big_cls_prob_reshape_rpn_big_cls_prob_reshape_0_split_1
I0413 19:09:04.009344 15391 net.cpp:150] Setting up rpn_big_cls_prob_reshape_rpn_big_cls_prob_reshape_0_split
I0413 19:09:04.009351 15391 net.cpp:157] Top shape: 1 52 61 92 (291824)
I0413 19:09:04.009356 15391 net.cpp:157] Top shape: 1 52 61 92 (291824)
I0413 19:09:04.009358 15391 net.cpp:165] Memory required for data: 3614749556
I0413 19:09:04.009362 15391 layer_factory.hpp:77] Creating layer rpn_big_anchor_target
I0413 19:09:04.010669 15391 net.cpp:100] Creating Layer rpn_big_anchor_target
I0413 19:09:04.010689 15391 net.cpp:434] rpn_big_anchor_target <- rpn_big_cls_score_rpn_big_cls_score_0_split_1
I0413 19:09:04.010697 15391 net.cpp:434] rpn_big_anchor_target <- input_gt_boxes_input_2_split_0
I0413 19:09:04.010702 15391 net.cpp:434] rpn_big_anchor_target <- input_ignored_boxes
I0413 19:09:04.010707 15391 net.cpp:434] rpn_big_anchor_target <- input_im_info_input_1_split_0
I0413 19:09:04.010711 15391 net.cpp:434] rpn_big_anchor_target <- input_data_input_0_split_1
I0413 19:09:04.010715 15391 net.cpp:434] rpn_big_anchor_target <- rpn_big_cls_prob_reshape_rpn_big_cls_prob_reshape_0_split_0
I0413 19:09:04.010723 15391 net.cpp:408] rpn_big_anchor_target -> rpn_big_anchor_target_labels
I0413 19:09:04.010732 15391 net.cpp:408] rpn_big_anchor_target -> rpn_big_anchor_target_bbox_targets
I0413 19:09:04.010740 15391 net.cpp:408] rpn_big_anchor_target -> rpn_big_anchor_target_inside_weights
I0413 19:09:04.010748 15391 net.cpp:408] rpn_big_anchor_target -> rpn_big_anchor_target_outside_weights
I0413 19:09:04.015570 15391 net.cpp:150] Setting up rpn_big_anchor_target
I0413 19:09:04.015599 15391 net.cpp:157] Top shape: 1 1 1586 92 (145912)
I0413 19:09:04.015604 15391 net.cpp:157] Top shape: 1 104 61 92 (583648)
I0413 19:09:04.015609 15391 net.cpp:157] Top shape: 1 104 61 92 (583648)
I0413 19:09:04.015612 15391 net.cpp:157] Top shape: 1 104 61 92 (583648)
I0413 19:09:04.015615 15391 net.cpp:165] Memory required for data: 3622336980
I0413 19:09:04.015622 15391 layer_factory.hpp:77] Creating layer rpn_big_loss_cls
I0413 19:09:04.015632 15391 net.cpp:100] Creating Layer rpn_big_loss_cls
I0413 19:09:04.015638 15391 net.cpp:434] rpn_big_loss_cls <- rpn_big_cls_score_reshape_rpn_big_cls_score_reshape_0_split_1
I0413 19:09:04.015645 15391 net.cpp:434] rpn_big_loss_cls <- rpn_big_anchor_target_labels
I0413 19:09:04.015651 15391 net.cpp:408] rpn_big_loss_cls -> rpn_big_loss_cls
I0413 19:09:04.015666 15391 layer_factory.hpp:77] Creating layer rpn_big_loss_cls
I0413 19:09:04.016293 15391 net.cpp:150] Setting up rpn_big_loss_cls
I0413 19:09:04.016311 15391 net.cpp:157] Top shape: (1)
I0413 19:09:04.016315 15391 net.cpp:160]     with loss weight 1
I0413 19:09:04.016326 15391 net.cpp:165] Memory required for data: 3622336984
I0413 19:09:04.016331 15391 layer_factory.hpp:77] Creating layer rpn_big_output_box
I0413 19:09:04.016345 15391 net.cpp:100] Creating Layer rpn_big_output_box
I0413 19:09:04.016355 15391 net.cpp:434] rpn_big_output_box <- rpn_big_conv2_rpn_big_conv2_drop_0_split_1
I0413 19:09:04.016362 15391 net.cpp:408] rpn_big_output_box -> rpn_big_output_box
I0413 19:09:04.036008 15391 net.cpp:150] Setting up rpn_big_output_box
I0413 19:09:04.036038 15391 net.cpp:157] Top shape: 1 384 63 94 (2274048)
I0413 19:09:04.036042 15391 net.cpp:165] Memory required for data: 3631433176
I0413 19:09:04.036053 15391 layer_factory.hpp:77] Creating layer rpn_big_output_box_relu
I0413 19:09:04.036064 15391 net.cpp:100] Creating Layer rpn_big_output_box_relu
I0413 19:09:04.036069 15391 net.cpp:434] rpn_big_output_box_relu <- rpn_big_output_box
I0413 19:09:04.036077 15391 net.cpp:395] rpn_big_output_box_relu -> rpn_big_output_box (in-place)
I0413 19:09:04.036088 15391 net.cpp:150] Setting up rpn_big_output_box_relu
I0413 19:09:04.036094 15391 net.cpp:157] Top shape: 1 384 63 94 (2274048)
I0413 19:09:04.036098 15391 net.cpp:165] Memory required for data: 3640529368
I0413 19:09:04.036101 15391 layer_factory.hpp:77] Creating layer rpn_big_bbox_pred
I0413 19:09:04.036113 15391 net.cpp:100] Creating Layer rpn_big_bbox_pred
I0413 19:09:04.036116 15391 net.cpp:434] rpn_big_bbox_pred <- rpn_big_output_box
I0413 19:09:04.036124 15391 net.cpp:408] rpn_big_bbox_pred -> rpn_big_bbox_pred
I0413 19:09:04.040282 15391 net.cpp:150] Setting up rpn_big_bbox_pred
I0413 19:09:04.040313 15391 net.cpp:157] Top shape: 1 104 61 92 (583648)
I0413 19:09:04.040316 15391 net.cpp:165] Memory required for data: 3642863960
I0413 19:09:04.040326 15391 layer_factory.hpp:77] Creating layer rpn_big_bbox_pred_rpn_big_bbox_pred_0_split
I0413 19:09:04.040336 15391 net.cpp:100] Creating Layer rpn_big_bbox_pred_rpn_big_bbox_pred_0_split
I0413 19:09:04.040341 15391 net.cpp:434] rpn_big_bbox_pred_rpn_big_bbox_pred_0_split <- rpn_big_bbox_pred
I0413 19:09:04.040352 15391 net.cpp:408] rpn_big_bbox_pred_rpn_big_bbox_pred_0_split -> rpn_big_bbox_pred_rpn_big_bbox_pred_0_split_0
I0413 19:09:04.040367 15391 net.cpp:408] rpn_big_bbox_pred_rpn_big_bbox_pred_0_split -> rpn_big_bbox_pred_rpn_big_bbox_pred_0_split_1
I0413 19:09:04.040405 15391 net.cpp:150] Setting up rpn_big_bbox_pred_rpn_big_bbox_pred_0_split
I0413 19:09:04.040412 15391 net.cpp:157] Top shape: 1 104 61 92 (583648)
I0413 19:09:04.040416 15391 net.cpp:157] Top shape: 1 104 61 92 (583648)
I0413 19:09:04.040419 15391 net.cpp:165] Memory required for data: 3647533144
I0413 19:09:04.040422 15391 layer_factory.hpp:77] Creating layer rpn_big_loss_bbox
I0413 19:09:04.040786 15391 net.cpp:100] Creating Layer rpn_big_loss_bbox
I0413 19:09:04.040796 15391 net.cpp:434] rpn_big_loss_bbox <- rpn_big_bbox_pred_rpn_big_bbox_pred_0_split_0
I0413 19:09:04.040802 15391 net.cpp:434] rpn_big_loss_bbox <- rpn_big_anchor_target_bbox_targets
I0413 19:09:04.040807 15391 net.cpp:434] rpn_big_loss_bbox <- rpn_big_anchor_target_inside_weights
I0413 19:09:04.040812 15391 net.cpp:434] rpn_big_loss_bbox <- rpn_big_anchor_target_outside_weights
I0413 19:09:04.040818 15391 net.cpp:408] rpn_big_loss_bbox -> rpn_big_loss_bbox
I0413 19:09:04.042848 15391 net.cpp:150] Setting up rpn_big_loss_bbox
I0413 19:09:04.042879 15391 net.cpp:157] Top shape: 1 (1)
I0413 19:09:04.042891 15391 net.cpp:160]     with loss weight 1
I0413 19:09:04.042903 15391 net.cpp:165] Memory required for data: 3647533148
I0413 19:09:04.042909 15391 layer_factory.hpp:77] Creating layer proposal
I0413 19:09:04.043335 15391 net.cpp:100] Creating Layer proposal
I0413 19:09:04.043346 15391 net.cpp:434] proposal <- rpn_big_cls_prob_reshape_rpn_big_cls_prob_reshape_0_split_1
I0413 19:09:04.043362 15391 net.cpp:434] proposal <- rpn_big_bbox_pred_rpn_big_bbox_pred_0_split_1
I0413 19:09:04.043368 15391 net.cpp:434] proposal <- input_im_info_input_1_split_1
I0413 19:09:04.043375 15391 net.cpp:408] proposal -> rpn_rois
I0413 19:09:04.047493 15391 net.cpp:150] Setting up proposal
I0413 19:09:04.047507 15391 net.cpp:157] Top shape: 1 5 (5)
I0413 19:09:04.047509 15391 net.cpp:165] Memory required for data: 3647533168
I0413 19:09:04.047521 15391 layer_factory.hpp:77] Creating layer roi-data
I0413 19:09:04.047794 15391 net.cpp:100] Creating Layer roi-data
I0413 19:09:04.047803 15391 net.cpp:434] roi-data <- rpn_rois
I0413 19:09:04.047808 15391 net.cpp:434] roi-data <- input_gt_boxes_input_2_split_1
I0413 19:09:04.047824 15391 net.cpp:408] roi-data -> rois
I0413 19:09:04.047832 15391 net.cpp:408] roi-data -> labels
I0413 19:09:04.047840 15391 net.cpp:408] roi-data -> bbox_targets
I0413 19:09:04.047847 15391 net.cpp:408] roi-data -> bbox_inside_weights
I0413 19:09:04.047853 15391 net.cpp:408] roi-data -> bbox_outside_weights
I0413 19:09:04.047860 15391 net.cpp:408] roi-data -> pid_label
anchors:
<<<<<<<<<<<<<<<<<<<<<<<<<<<<<<<<<<<<<<<<<<<<<<<<<<<<<<<<<<<<<<<<<<<<<<<<<<<<<<<<<<<<<<<<<<<<<<<<<<<<<<<<<<<<<<<<<<<<<<<<<<<<<<<<<<<<<<<<<<<<<<<<<<<<<<<<<<<<<<<<<<<<<<<<<<<<<<<<<<<<<<<<<<<<<<<<<<<<<<<<<<<<<<<<<<<<<<<<<<<<<<<<<<<<<<<<<<<<<<<<<<<<<<<<<<<<<<<<<<<<<<<<<<<<<<<<<<<<<<<<<<<<<<<<<<<<<<<<<<<<
[[ -84.  -40.   99.   55.]
 [-176.  -88.  191.  103.]
 [-360. -184.  375.  199.]
 [ -56.  -56.   71.   71.]
 [-120. -120.  135.  135.]
 [-248. -248.  263.  263.]
 [ -36.  -80.   51.   95.]
 [ -80. -168.   95.  183.]
 [-168. -344.  183.  359.]]
I0413 19:09:04.050015 15391 net.cpp:150] Setting up roi-data
I0413 19:09:04.050040 15391 net.cpp:157] Top shape: 1 5 (5)
I0413 19:09:04.050045 15391 net.cpp:157] Top shape: 1 1 (1)
I0413 19:09:04.050047 15391 net.cpp:157] Top shape: 1 8 (8)
I0413 19:09:04.050051 15391 net.cpp:157] Top shape: 1 8 (8)
I0413 19:09:04.050055 15391 net.cpp:157] Top shape: 1 8 (8)
I0413 19:09:04.050058 15391 net.cpp:157] Top shape: (0)
I0413 19:09:04.050060 15391 net.cpp:165] Memory required for data: 3647533288
I0413 19:09:04.050066 15391 layer_factory.hpp:77] Creating layer roi-pool
I0413 19:09:04.050076 15391 net.cpp:100] Creating Layer roi-pool
I0413 19:09:04.050081 15391 net.cpp:434] roi-pool <- conv5_3_relu5_3_0_split_1
I0413 19:09:04.050087 15391 net.cpp:434] roi-pool <- rois
I0413 19:09:04.050093 15391 net.cpp:408] roi-pool -> roi-pool
I0413 19:09:04.050107 15391 roi_pooling_layer.cpp:33] Spatial scale: 0.0625
I0413 19:09:04.050117 15391 roi_pooling_layer.cpp:34] Box scale: 1
I0413 19:09:04.050153 15391 net.cpp:150] Setting up roi-pool
I0413 19:09:04.050160 15391 net.cpp:157] Top shape: 1 512 7 7 (25088)
I0413 19:09:04.050164 15391 net.cpp:165] Memory required for data: 3647633640
I0413 19:09:04.050168 15391 layer_factory.hpp:77] Creating layer fc6
I0413 19:09:04.050175 15391 net.cpp:100] Creating Layer fc6
I0413 19:09:04.050179 15391 net.cpp:434] fc6 <- roi-pool
I0413 19:09:04.050184 15391 net.cpp:408] fc6 -> fc6
I0413 19:09:04.213127 15391 net.cpp:150] Setting up fc6
I0413 19:09:04.213160 15391 net.cpp:157] Top shape: 1 4096 (4096)
I0413 19:09:04.213173 15391 net.cpp:165] Memory required for data: 3647650024
I0413 19:09:04.213186 15391 layer_factory.hpp:77] Creating layer relu6
I0413 19:09:04.213194 15391 net.cpp:100] Creating Layer relu6
I0413 19:09:04.213199 15391 net.cpp:434] relu6 <- fc6
I0413 19:09:04.213208 15391 net.cpp:395] relu6 -> fc6 (in-place)
I0413 19:09:04.213218 15391 net.cpp:150] Setting up relu6
I0413 19:09:04.213222 15391 net.cpp:157] Top shape: 1 4096 (4096)
I0413 19:09:04.213225 15391 net.cpp:165] Memory required for data: 3647666408
I0413 19:09:04.213228 15391 layer_factory.hpp:77] Creating layer drop6
I0413 19:09:04.213235 15391 net.cpp:100] Creating Layer drop6
I0413 19:09:04.213238 15391 net.cpp:434] drop6 <- fc6
I0413 19:09:04.213243 15391 net.cpp:395] drop6 -> fc6 (in-place)
I0413 19:09:04.213265 15391 net.cpp:150] Setting up drop6
I0413 19:09:04.213273 15391 net.cpp:157] Top shape: 1 4096 (4096)
I0413 19:09:04.213275 15391 net.cpp:165] Memory required for data: 3647682792
I0413 19:09:04.213279 15391 layer_factory.hpp:77] Creating layer fc7
I0413 19:09:04.213284 15391 net.cpp:100] Creating Layer fc7
I0413 19:09:04.213289 15391 net.cpp:434] fc7 <- fc6
I0413 19:09:04.213294 15391 net.cpp:408] fc7 -> fc7
I0413 19:09:04.240347 15391 net.cpp:150] Setting up fc7
I0413 19:09:04.240381 15391 net.cpp:157] Top shape: 1 4096 (4096)
I0413 19:09:04.240392 15391 net.cpp:165] Memory required for data: 3647699176
I0413 19:09:04.240404 15391 layer_factory.hpp:77] Creating layer relu7
I0413 19:09:04.240429 15391 net.cpp:100] Creating Layer relu7
I0413 19:09:04.240437 15391 net.cpp:434] relu7 <- fc7
I0413 19:09:04.240447 15391 net.cpp:395] relu7 -> fc7 (in-place)
I0413 19:09:04.240463 15391 net.cpp:150] Setting up relu7
I0413 19:09:04.240468 15391 net.cpp:157] Top shape: 1 4096 (4096)
I0413 19:09:04.240471 15391 net.cpp:165] Memory required for data: 3647715560
I0413 19:09:04.240476 15391 layer_factory.hpp:77] Creating layer drop7
I0413 19:09:04.240489 15391 net.cpp:100] Creating Layer drop7
I0413 19:09:04.240495 15391 net.cpp:434] drop7 <- fc7
I0413 19:09:04.240501 15391 net.cpp:395] drop7 -> fc7 (in-place)
I0413 19:09:04.240530 15391 net.cpp:150] Setting up drop7
I0413 19:09:04.240536 15391 net.cpp:157] Top shape: 1 4096 (4096)
I0413 19:09:04.240540 15391 net.cpp:165] Memory required for data: 3647731944
I0413 19:09:04.240546 15391 layer_factory.hpp:77] Creating layer fc7_drop7_0_split
I0413 19:09:04.240559 15391 net.cpp:100] Creating Layer fc7_drop7_0_split
I0413 19:09:04.240564 15391 net.cpp:434] fc7_drop7_0_split <- fc7
I0413 19:09:04.240571 15391 net.cpp:408] fc7_drop7_0_split -> fc7_drop7_0_split_0
I0413 19:09:04.240592 15391 net.cpp:408] fc7_drop7_0_split -> fc7_drop7_0_split_1
I0413 19:09:04.240629 15391 net.cpp:150] Setting up fc7_drop7_0_split
I0413 19:09:04.240638 15391 net.cpp:157] Top shape: 1 4096 (4096)
I0413 19:09:04.240643 15391 net.cpp:157] Top shape: 1 4096 (4096)
I0413 19:09:04.240644 15391 net.cpp:165] Memory required for data: 3647764712
I0413 19:09:04.240648 15391 layer_factory.hpp:77] Creating layer bbox_pred
I0413 19:09:04.240656 15391 net.cpp:100] Creating Layer bbox_pred
I0413 19:09:04.240660 15391 net.cpp:434] bbox_pred <- fc7_drop7_0_split_0
I0413 19:09:04.240666 15391 net.cpp:408] bbox_pred -> bbox_pred
I0413 19:09:04.241102 15391 net.cpp:150] Setting up bbox_pred
I0413 19:09:04.241111 15391 net.cpp:157] Top shape: 1 8 (8)
I0413 19:09:04.241114 15391 net.cpp:165] Memory required for data: 3647764744
I0413 19:09:04.241120 15391 layer_factory.hpp:77] Creating layer loss_bbox
I0413 19:09:04.241128 15391 net.cpp:100] Creating Layer loss_bbox
I0413 19:09:04.241132 15391 net.cpp:434] loss_bbox <- bbox_pred
I0413 19:09:04.241137 15391 net.cpp:434] loss_bbox <- bbox_targets
I0413 19:09:04.241140 15391 net.cpp:434] loss_bbox <- bbox_inside_weights
I0413 19:09:04.241145 15391 net.cpp:434] loss_bbox <- bbox_outside_weights
I0413 19:09:04.241150 15391 net.cpp:408] loss_bbox -> loss_bbox
I0413 19:09:04.241227 15391 net.cpp:150] Setting up loss_bbox
I0413 19:09:04.241235 15391 net.cpp:157] Top shape: (1)
I0413 19:09:04.241238 15391 net.cpp:160]     with loss weight 1
I0413 19:09:04.241252 15391 net.cpp:165] Memory required for data: 3647764748
I0413 19:09:04.241258 15391 layer_factory.hpp:77] Creating layer feat
I0413 19:09:04.241267 15391 net.cpp:100] Creating Layer feat
I0413 19:09:04.241273 15391 net.cpp:434] feat <- fc7_drop7_0_split_1
I0413 19:09:04.241286 15391 net.cpp:408] feat -> feat
I0413 19:09:04.252534 15391 net.cpp:150] Setting up feat
I0413 19:09:04.252564 15391 net.cpp:157] Top shape: 1 256 (256)
I0413 19:09:04.252568 15391 net.cpp:165] Memory required for data: 3647765772
I0413 19:09:04.252583 15391 layer_factory.hpp:77] Creating layer relu8
I0413 19:09:04.252599 15391 net.cpp:100] Creating Layer relu8
I0413 19:09:04.252609 15391 net.cpp:434] relu8 <- feat
I0413 19:09:04.252624 15391 net.cpp:395] relu8 -> feat (in-place)
I0413 19:09:04.252638 15391 net.cpp:150] Setting up relu8
I0413 19:09:04.252647 15391 net.cpp:157] Top shape: 1 256 (256)
I0413 19:09:04.252652 15391 net.cpp:165] Memory required for data: 3647766796
I0413 19:09:04.252657 15391 layer_factory.hpp:77] Creating layer drop8
I0413 19:09:04.252668 15391 net.cpp:100] Creating Layer drop8
I0413 19:09:04.252676 15391 net.cpp:434] drop8 <- feat
I0413 19:09:04.252683 15391 net.cpp:395] drop8 -> feat (in-place)
I0413 19:09:04.252718 15391 net.cpp:150] Setting up drop8
I0413 19:09:04.252727 15391 net.cpp:157] Top shape: 1 256 (256)
I0413 19:09:04.252734 15391 net.cpp:165] Memory required for data: 3647767820
I0413 19:09:04.252739 15391 layer_factory.hpp:77] Creating layer pid_score
I0413 19:09:04.252750 15391 net.cpp:100] Creating Layer pid_score
I0413 19:09:04.252758 15391 net.cpp:434] pid_score <- feat
I0413 19:09:04.252768 15391 net.cpp:408] pid_score -> pid_score
I0413 19:09:04.269318 15391 net.cpp:150] Setting up pid_score
I0413 19:09:04.269346 15391 net.cpp:157] Top shape: 1 5533 (5533)
I0413 19:09:04.269351 15391 net.cpp:165] Memory required for data: 3647789952
I0413 19:09:04.269369 15391 layer_factory.hpp:77] Creating layer pid_score_pid_score_0_split
I0413 19:09:04.269385 15391 net.cpp:100] Creating Layer pid_score_pid_score_0_split
I0413 19:09:04.269393 15391 net.cpp:434] pid_score_pid_score_0_split <- pid_score
I0413 19:09:04.269407 15391 net.cpp:408] pid_score_pid_score_0_split -> pid_score_pid_score_0_split_0
I0413 19:09:04.269430 15391 net.cpp:408] pid_score_pid_score_0_split -> pid_score_pid_score_0_split_1
I0413 19:09:04.269489 15391 net.cpp:150] Setting up pid_score_pid_score_0_split
I0413 19:09:04.269498 15391 net.cpp:157] Top shape: 1 5533 (5533)
I0413 19:09:04.269505 15391 net.cpp:157] Top shape: 1 5533 (5533)
I0413 19:09:04.269517 15391 net.cpp:165] Memory required for data: 3647834216
I0413 19:09:04.269523 15391 layer_factory.hpp:77] Creating layer pid_loss
I0413 19:09:04.269533 15391 net.cpp:100] Creating Layer pid_loss
I0413 19:09:04.269541 15391 net.cpp:434] pid_loss <- pid_score_pid_score_0_split_0
I0413 19:09:04.269548 15391 net.cpp:434] pid_loss <- pid_score_pid_score_0_split_1
I0413 19:09:04.269557 15391 net.cpp:408] pid_loss -> pid_loss
…
