…
I0413 17:57:11.483068 11415 solver.cpp:48] Initializing solver from parameters: 
base_lr: 0.001
display: 20
lr_policy: "multistep"
gamma: 0.1
momentum: 0.9
weight_decay: 0.0005
snapshot: 0
snapshot_prefix: "faces_example"
net_param {
  name: "GeneratedModel_13_04_2017_17_57"
  layer {
    name: "input"
    type: "Python"
    top: "input_data"
    top: "input_im_info"
    top: "input_gt_boxes"
    top: "input_ignored_boxes"
    python_param {
      module: "layers.roi_data_layer"
      layer: "RoIDataLayer"
      param_str: "{\"num_classes\": 2}"
    }
  }
  layer {
    name: "conv1_1"
    type: "Convolution"
    bottom: "input_data"
    top: "conv1_1"
    param {
      lr_mult: 0
      decay_mult: 0
    }
    param {
      lr_mult: 0
      decay_mult: 0
    }
    convolution_param {
      num_output: 64
      pad: 1
      kernel_size: 3
    }
  }
  layer {
    name: "relu1_1"
    type: "ReLU"
    bottom: "conv1_1"
    top: "conv1_1"
  }
  layer {
    name: "conv1_2"
    type: "Convolution"
    bottom: "conv1_1"
    top: "conv1_2"
    param {
      lr_mult: 0
      decay_mult: 0
    }
    param {
      lr_mult: 0
      decay_mult: 0
    }
    convolution_param {
      num_output: 64
      pad: 1
      kernel_size: 3
    }
  }
  layer {
    name: "relu1_2"
    type: "ReLU"
    bottom: "conv1_2"
    top: "conv1_2"
  }
  layer {
    name: "pool1"
    type: "Pooling"
    bottom: "conv1_2"
    top: "pool1"
    pooling_param {
      pool: MAX
      kernel_size: 2
      stride: 2
    }
  }
  layer {
    name: "conv2_1"
    type: "Convolution"
    bottom: "pool1"
    top: "conv2_1"
    param {
      lr_mult: 0
      decay_mult: 0
    }
    param {
      lr_mult: 0
      decay_mult: 0
    }
    convolution_param {
      num_output: 128
      pad: 1
      kernel_size: 3
    }
  }
  layer {
    name: "relu2_1"
    type: "ReLU"
    bottom: "conv2_1"
    top: "conv2_1"
  }
  layer {
    name: "conv2_2"
    type: "Convolution"
    bottom: "conv2_1"
    top: "conv2_2"
    param {
      lr_mult: 0
      decay_mult: 0
    }
    param {
      lr_mult: 0
      decay_mult: 0
    }
    convolution_param {
      num_output: 128
      pad: 1
      kernel_size: 3
    }
  }
  layer {
    name: "relu2_2"
    type: "ReLU"
    bottom: "conv2_2"
    top: "conv2_2"
  }
  layer {
    name: "pool2"
    type: "Pooling"
    bottom: "conv2_2"
    top: "pool2"
    pooling_param {
      pool: MAX
      kernel_size: 2
      stride: 2
    }
  }
  layer {
    name: "conv3_1"
    type: "Convolution"
    bottom: "pool2"
    top: "conv3_1"
    param {
      lr_mult: 1
    }
    param {
      lr_mult: 2
    }
    convolution_param {
      num_output: 256
      pad: 1
      kernel_size: 3
    }
  }
  layer {
    name: "relu3_1"
    type: "ReLU"
    bottom: "conv3_1"
    top: "conv3_1"
  }
  layer {
    name: "conv3_2"
    type: "Convolution"
    bottom: "conv3_1"
    top: "conv3_2"
    param {
      lr_mult: 1
    }
    param {
      lr_mult: 2
    }
    convolution_param {
      num_output: 256
      pad: 1
      kernel_size: 3
    }
  }
  layer {
    name: "relu3_2"
    type: "ReLU"
    bottom: "conv3_2"
    top: "conv3_2"
  }
  layer {
    name: "conv3_3"
    type: "Convolution"
    bottom: "conv3_2"
    top: "conv3_3"
    param {
      lr_mult: 1
    }
    param {
      lr_mult: 2
    }
    convolution_param {
      num_output: 256
      pad: 1
      kernel_size: 3
    }
  }
  layer {
    name: "relu3_3"
    type: "ReLU"
    bottom: "conv3_3"
    top: "conv3_3"
  }
  layer {
    name: "pool3"
    type: "Pooling"
    bottom: "conv3_3"
    top: "pool3"
    pooling_param {
      pool: MAX
      kernel_size: 2
      stride: 2
    }
  }
  layer {
    name: "conv4_1"
    type: "Convolution"
    bottom: "pool3"
    top: "conv4_1"
    param {
      lr_mult: 1
    }
    param {
      lr_mult: 2
    }
    convolution_param {
      num_output: 512
      pad: 1
      kernel_size: 3
    }
  }
  layer {
    name: "relu4_1"
    type: "ReLU"
    bottom: "conv4_1"
    top: "conv4_1"
  }
  layer {
    name: "conv4_2"
    type: "Convolution"
    bottom: "conv4_1"
    top: "conv4_2"
    param {
      lr_mult: 1
    }
    param {
      lr_mult: 2
    }
    convolution_param {
      num_output: 512
      pad: 1
      kernel_size: 3
    }
  }
  layer {
    name: "relu4_2"
    type: "ReLU"
    bottom: "conv4_2"
    top: "conv4_2"
  }
  layer {
    name: "conv4_3"
    type: "Convolution"
    bottom: "conv4_2"
    top: "conv4_3"
    param {
      lr_mult: 1
    }
    param {
      lr_mult: 2
    }
    convolution_param {
      num_output: 512
      pad: 1
      kernel_size: 3
    }
  }
  layer {
    name: "relu4_3"
    type: "ReLU"
    bottom: "conv4_3"
    top: "conv4_3"
  }
  layer {
    name: "pool4"
    type: "Pooling"
    bottom: "conv4_3"
    top: "pool4"
    pooling_param {
      pool: MAX
      kernel_size: 2
      stride: 2
    }
  }
  layer {
    name: "conv5_1"
    type: "Convolution"
    bottom: "pool4"
    top: "conv5_1"
    param {
      lr_mult: 1
    }
    param {
      lr_mult: 2
    }
    convolution_param {
      num_output: 512
      pad: 1
      kernel_size: 3
    }
  }
  layer {
    name: "relu5_1"
    type: "ReLU"
    bottom: "conv5_1"
    top: "conv5_1"
  }
  layer {
    name: "conv5_2"
    type: "Convolution"
    bottom: "conv5_1"
    top: "conv5_2"
    param {
      lr_mult: 1
    }
    param {
      lr_mult: 2
    }
    convolution_param {
      num_output: 512
      pad: 1
      kernel_size: 3
    }
  }
  layer {
    name: "relu5_2"
    type: "ReLU"
    bottom: "conv5_2"
    top: "conv5_2"
  }
  layer {
    name: "conv5_3"
    type: "Convolution"
    bottom: "conv5_2"
    top: "conv5_3"
    param {
      lr_mult: 1
    }
    param {
      lr_mult: 2
    }
    convolution_param {
      num_output: 512
      pad: 1
      kernel_size: 3
    }
  }
  layer {
    name: "relu5_3"
    type: "ReLU"
    bottom: "conv5_3"
    top: "conv5_3"
  }
  layer {
    name: "rpn_big_conv1"
    type: "Convolution"
    bottom: "conv5_3"
    top: "rpn_big_conv1"
    param {
      lr_mult: 1
    }
    param {
      lr_mult: 2
    }
    convolution_param {
      num_output: 512
      pad: 1
      kernel_size: 3
      stride: 1
      weight_filler {
        type: "gaussian"
        mean: 0
        std: 0.01
      }
      bias_filler {
        type: "constant"
      }
    }
  }
  layer {
    name: "rpn_big_conv1_relu"
    type: "ReLU"
    bottom: "rpn_big_conv1"
    top: "rpn_big_conv1"
    relu_param {
      negative_slope: 0
    }
  }
  layer {
    name: "rpn_big_conv2"
    type: "Convolution"
    bottom: "rpn_big_conv1"
    top: "rpn_big_conv2"
    param {
      lr_mult: 1
    }
    param {
      lr_mult: 2
    }
    convolution_param {
      num_output: 512
      pad: 1
      kernel_size: 3
      stride: 1
      weight_filler {
        type: "gaussian"
        mean: 0
        std: 0.01
      }
      bias_filler {
        type: "constant"
      }
    }
  }
  layer {
    name: "rpn_big_conv2_relu"
    type: "ReLU"
    bottom: "rpn_big_conv2"
    top: "rpn_big_conv2"
    relu_param {
      negative_slope: 0
    }
  }
  layer {
    name: "rpn_big_conv2_drop"
    type: "Dropout"
    bottom: "rpn_big_conv2"
    top: "rpn_big_conv2"
    dropout_param {
      dropout_ratio: 0.3
    }
  }
  layer {
    name: "rpn_big_output_cls"
    type: "Convolution"
    bottom: "rpn_big_conv2"
    top: "rpn_big_output_cls"
    param {
      lr_mult: 1
    }
    param {
      lr_mult: 2
    }
    convolution_param {
      num_output: 384
      pad: 1
      kernel_size: 3
      stride: 1
      weight_filler {
        type: "gaussian"
        mean: 0
        std: 0.01
      }
      bias_filler {
        type: "constant"
      }
    }
  }
  layer {
    name: "rpn_big_output_cls_relu"
    type: "ReLU"
    bottom: "rpn_big_output_cls"
    top: "rpn_big_output_cls"
    relu_param {
      negative_slope: 0
    }
  }
  layer {
    name: "rpn_big_cls_score"
    type: "Convolution"
    bottom: "rpn_big_output_cls"
    top: "rpn_big_cls_score"
    param {
      lr_mult: 1
    }
    param {
      lr_mult: 2
    }
    convolution_param {
      num_output: 52
      pad: 0
      kernel_size: 3
      stride: 1
      weight_filler {
        type: "gaussian"
        mean: 0
        std: 0.01
      }
      bias_filler {
        type: "constant"
      }
    }
  }
  layer {
    name: "rpn_big_cls_score_reshape"
    type: "Reshape"
    bottom: "rpn_big_cls_score"
    top: "rpn_big_cls_score_reshape"
    reshape_param {
      shape {
        dim: 0
        dim: 2
        dim: -1
        dim: 0
      }
    }
  }
  layer {
    name: "rpn_big_cls_prob"
    type: "Softmax"
    bottom: "rpn_big_cls_score_reshape"
    top: "rpn_big_cls_prob"
  }
  layer {
    name: "rpn_big_cls_prob_reshape"
    type: "Reshape"
    bottom: "rpn_big_cls_prob"
    top: "rpn_big_cls_prob_reshape"
    reshape_param {
      shape {
        dim: 0
        dim: 52
        dim: -1
        dim: 0
      }
    }
  }
  layer {
    name: "rpn_big_anchor_target"
    type: "Python"
    bottom: "rpn_big_cls_score"
    bottom: "input_gt_boxes"
    bottom: "input_ignored_boxes"
    bottom: "input_im_info"
    bottom: "input_data"
    bottom: "rpn_big_cls_prob_reshape"
    top: "rpn_big_anchor_target_labels"
    top: "rpn_big_anchor_target_bbox_targets"
    top: "rpn_big_anchor_target_inside_weights"
    top: "rpn_big_anchor_target_outside_weights"
    python_param {
      module: "rpn.anchor_target_layer"
      layer: "AnchorTargetLayer"
      param_str: "{\"batchsize\": 256, \"fg_fraction\": 0.5, \"anchor_ratios\": [1.0], \"name\": \"rpn_big\", \"square_targets\": true, \"tn_fraction\": 0.2, \"anchor_scales\": [2.5, 3.025, 3.66025, 4.4289024999999995, 5.358972025, 6.484356150249999, 7.846070941802498, 9.493745839581022, 11.487432465893036, 13.899793283730574, 16.818749873313998, 20.350687346709933, 24.62433168951902, 29.795441344318014], \"anchor_shift_num_xy\": [[2, 2], [2, 2], [2, 2], [2, 2], [1, 1], [1, 1], [1, 1], [1, 1], [1, 1], [1, 1], [1, 1], [1, 1], [1, 1], [1, 1]], \"negative_overlap\": 0.4, \"positive_overlap\": 0.6, \"feat_stride\": 16, \"num_classes\": 1}"
    }
  }
  layer {
    name: "rpn_big_loss_cls"
    type: "SoftmaxWithLoss"
    bottom: "rpn_big_cls_score_reshape"
    bottom: "rpn_big_anchor_target_labels"
    top: "rpn_big_loss_cls"
    loss_weight: 1
    propagate_down: true
    propagate_down: false
    loss_param {
      ignore_label: -1
      normalization: VALID
    }
  }
  layer {
    name: "rpn_big_output_box"
    type: "Convolution"
    bottom: "rpn_big_conv2"
    top: "rpn_big_output_box"
    param {
      lr_mult: 1
    }
    param {
      lr_mult: 2
    }
    convolution_param {
      num_output: 384
      pad: 1
      kernel_size: 3
      stride: 1
      weight_filler {
        type: "gaussian"
        mean: 0
        std: 0.01
      }
      bias_filler {
        type: "constant"
      }
    }
  }
  layer {
    name: "rpn_big_output_box_relu"
    type: "ReLU"
    bottom: "rpn_big_output_box"
    top: "rpn_big_output_box"
    relu_param {
      negative_slope: 0
    }
  }
  layer {
    name: "rpn_big_bbox_pred"
    type: "Convolution"
    bottom: "rpn_big_output_box"
    top: "rpn_big_bbox_pred"
    param {
      lr_mult: 1
    }
    param {
      lr_mult: 2
    }
    convolution_param {
      num_output: 104
      pad: 0
      kernel_size: 3
      stride: 1
      weight_filler {
        type: "gaussian"
        mean: 0
        std: 0.01
      }
      bias_filler {
        type: "constant"
      }
    }
  }
  layer {
    name: "rpn_big_loss_bbox"
    type: "Python"
    bottom: "rpn_big_bbox_pred"
    bottom: "rpn_big_anchor_target_bbox_targets"
    bottom: "rpn_big_anchor_target_inside_weights"
    bottom: "rpn_big_anchor_target_outside_weights"
    top: "rpn_big_loss_bbox"
    loss_weight: 1
    python_param {
      module: "layers.smooth_l1_loss"
      layer: "SmoothL1LossLayer"
      param_str: "{\"sigma\": 3}"
    }
  }
  layer {
    name: "proposal"
    type: "Python"
    bottom: "rpn_big_cls_prob_reshape"
    bottom: "rpn_big_bbox_pred"
    bottom: "input_im_info"
    top: "rpn_rois"
    python_param {
      module: "rpn.proposal_layer"
      layer: "ProposalLayer"
      param_str: "{\"anchor_shift_num_xy\": [[2, 2], [2, 2], [2, 2], [2, 2], [1, 1], [1, 1], [1, 1], [1, 1], [1, 1], [1, 1], [1, 1], [1, 1], [1, 1], [1, 1]], \"feat_stride\": 16, \"num_classes\": 1, \"anchor_scales\": [2.5, 3.025, 3.66025, 4.4289024999999995, 5.358972025, 6.484356150249999, 7.846070941802498, 9.493745839581022, 11.487432465893036, 13.899793283730574, 16.818749873313998, 20.350687346709933, 24.62433168951902, 29.795441344318014], \"square_targets\": true, \"name\": \"rpn_big\", \"batchsize\": 256, \"anchor_ratios\": [1.0]}"
    }
  }
  layer {
    name: "roi-data"
    type: "Python"
    bottom: "rpn_rois"
    bottom: "input_gt_boxes"
    top: "rois"
    top: "labels"
    top: "bbox_targets"
    top: "bbox_inside_weights"
    top: "bbox_outside_weights"
    top: "pid_label"
    python_param {
      module: "rpn.proposal_target_layer"
      layer: "ProposalTargetLayer"
      param_str: "{\"num_classes\": 2, \"bg_aux_label\": 5532}"
    }
  }
  layer {
    name: "roi-pool"
    type: "ROIPooling"
    bottom: "conv5_3"
    bottom: "rois"
    top: "roi-pool"
    roi_pooling_param {
      pooled_h: 7
      pooled_w: 7
      spatial_scale: 0.0625
    }
  }
  layer {
    name: "fc6"
    type: "InnerProduct"
    bottom: "roi-pool"
    top: "fc6"
    param {
      lr_mult: 1
    }
    param {
      lr_mult: 2
    }
    inner_product_param {
      num_output: 4096
    }
  }
}
average_loss: 100
stepvalue: 70000
stepvalue: 120000
iter_size: 2
I0413 17:57:11.483189 11415 solver.cpp:86] Creating training net specified in net_param.
I0413 17:57:11.483834 11415 net.cpp:58] Initializing net from parameters: 
name: "GeneratedModel_13_04_2017_17_57"
state {
  phase: TRAIN
}
layer {
  name: "input"
  type: "Python"
  top: "input_data"
  top: "input_im_info"
  top: "input_gt_boxes"
  top: "input_ignored_boxes"
  python_param {
    module: "layers.roi_data_layer"
    layer: "RoIDataLayer"
    param_str: "{\"num_classes\": 2}"
  }
}
layer {
  name: "conv1_1"
  type: "Convolution"
  bottom: "input_data"
  top: "conv1_1"
  param {
    lr_mult: 0
    decay_mult: 0
  }
  param {
    lr_mult: 0
    decay_mult: 0
  }
  convolution_param {
    num_output: 64
    pad: 1
    kernel_size: 3
  }
}
layer {
  name: "relu1_1"
  type: "ReLU"
  bottom: "conv1_1"
  top: "conv1_1"
}
layer {
  name: "conv1_2"
  type: "Convolution"
  bottom: "conv1_1"
  top: "conv1_2"
  param {
    lr_mult: 0
    decay_mult: 0
  }
  param {
    lr_mult: 0
    decay_mult: 0
  }
  convolution_param {
    num_output: 64
    pad: 1
    kernel_size: 3
  }
}
layer {
  name: "relu1_2"
  type: "ReLU"
  bottom: "conv1_2"
  top: "conv1_2"
}
layer {
  name: "pool1"
  type: "Pooling"
  bottom: "conv1_2"
  top: "pool1"
  pooling_param {
    pool: MAX
    kernel_size: 2
    stride: 2
  }
}
layer {
  name: "conv2_1"
  type: "Convolution"
  bottom: "pool1"
  top: "conv2_1"
  param {
    lr_mult: 0
    decay_mult: 0
  }
  param {
    lr_mult: 0
    decay_mult: 0
  }
  convolution_param {
    num_output: 128
    pad: 1
    kernel_size: 3
  }
}
layer {
  name: "relu2_1"
  type: "ReLU"
  bottom: "conv2_1"
  top: "conv2_1"
}
layer {
  name: "conv2_2"
  type: "Convolution"
  bottom: "conv2_1"
  top: "conv2_2"
  param {
    lr_mult: 0
    decay_mult: 0
  }
  param {
    lr_mult: 0
    decay_mult: 0
  }
  convolution_param {
    num_output: 128
    pad: 1
    kernel_size: 3
  }
}
layer {
  name: "relu2_2"
  type: "ReLU"
  bottom: "conv2_2"
  top: "conv2_2"
}
layer {
  name: "pool2"
  type: "Pooling"
  bottom: "conv2_2"
  top: "pool2"
  pooling_param {
    pool: MAX
    kernel_size: 2
    stride: 2
  }
}
layer {
  name: "conv3_1"
  type: "Convolution"
  bottom: "pool2"
  top: "conv3_1"
  param {
    lr_mult: 1
  }
  param {
    lr_mult: 2
  }
  convolution_param {
    num_output: 256
    pad: 1
    kernel_size: 3
  }
}
layer {
  name: "relu3_1"
  type: "ReLU"
  bottom: "conv3_1"
  top: "conv3_1"
}
layer {
  name: "conv3_2"
  type: "Convolution"
  bottom: "conv3_1"
  top: "conv3_2"
  param {
    lr_mult: 1
  }
  param {
    lr_mult: 2
  }
  convolution_param {
    num_output: 256
    pad: 1
    kernel_size: 3
  }
}
layer {
  name: "relu3_2"
  type: "ReLU"
  bottom: "conv3_2"
  top: "conv3_2"
}
layer {
  name: "conv3_3"
  type: "Convolution"
  bottom: "conv3_2"
  top: "conv3_3"
  param {
    lr_mult: 1
  }
  param {
    lr_mult: 2
  }
  convolution_param {
    num_output: 256
    pad: 1
    kernel_size: 3
  }
}
layer {
  name: "relu3_3"
  type: "ReLU"
  bottom: "conv3_3"
  top: "conv3_3"
}
layer {
  name: "pool3"
  type: "Pooling"
  bottom: "conv3_3"
  top: "pool3"
  pooling_param {
    pool: MAX
    kernel_size: 2
    stride: 2
  }
}
layer {
  name: "conv4_1"
  type: "Convolution"
  bottom: "pool3"
  top: "conv4_1"
  param {
    lr_mult: 1
  }
  param {
    lr_mult: 2
  }
  convolution_param {
    num_output: 512
    pad: 1
    kernel_size: 3
  }
}
layer {
  name: "relu4_1"
  type: "ReLU"
  bottom: "conv4_1"
  top: "conv4_1"
}
layer {
  name: "conv4_2"
  type: "Convolution"
  bottom: "conv4_1"
  top: "conv4_2"
  param {
    lr_mult: 1
  }
  param {
    lr_mult: 2
  }
  convolution_param {
    num_output: 512
    pad: 1
    kernel_size: 3
  }
}
layer {
  name: "relu4_2"
  type: "ReLU"
  bottom: "conv4_2"
  top: "conv4_2"
}
layer {
  name: "conv4_3"
  type: "Convolution"
  bottom: "conv4_2"
  top: "conv4_3"
  param {
    lr_mult: 1
  }
  param {
    lr_mult: 2
  }
  convolution_param {
    num_output: 512
    pad: 1
    kernel_size: 3
  }
}
layer {
  name: "relu4_3"
  type: "ReLU"
  bottom: "conv4_3"
  top: "conv4_3"
}
layer {
  name: "pool4"
  type: "Pooling"
  bottom: "conv4_3"
  top: "pool4"
  pooling_param {
    pool: MAX
    kernel_size: 2
    stride: 2
  }
}
layer {
  name: "conv5_1"
  type: "Convolution"
  bottom: "pool4"
  top: "conv5_1"
  param {
    lr_mult: 1
  }
  param {
    lr_mult: 2
  }
  convolution_param {
    num_output: 512
    pad: 1
    kernel_size: 3
  }
}
layer {
  name: "relu5_1"
  type: "ReLU"
  bottom: "conv5_1"
  top: "conv5_1"
}
layer {
  name: "conv5_2"
  type: "Convolution"
  bottom: "conv5_1"
  top: "conv5_2"
  param {
    lr_mult: 1
  }
  param {
    lr_mult: 2
  }
  convolution_param {
    num_output: 512
    pad: 1
    kernel_size: 3
  }
}
layer {
  name: "relu5_2"
  type: "ReLU"
  bottom: "conv5_2"
  top: "conv5_2"
}
layer {
  name: "conv5_3"
  type: "Convolution"
  bottom: "conv5_2"
  top: "conv5_3"
  param {
    lr_mult: 1
  }
  param {
    lr_mult: 2
  }
  convolution_param {
    num_output: 512
    pad: 1
    kernel_size: 3
  }
}
layer {
  name: "relu5_3"
  type: "ReLU"
  bottom: "conv5_3"
  top: "conv5_3"
}
layer {
  name: "rpn_big_conv1"
  type: "Convolution"
  bottom: "conv5_3"
  top: "rpn_big_conv1"
  param {
    lr_mult: 1
  }
  param {
    lr_mult: 2
  }
  convolution_param {
    num_output: 512
    pad: 1
    kernel_size: 3
    stride: 1
    weight_filler {
      type: "gaussian"
      mean: 0
      std: 0.01
    }
    bias_filler {
      type: "constant"
    }
  }
}
layer {
  name: "rpn_big_conv1_relu"
  type: "ReLU"
  bottom: "rpn_big_conv1"
  top: "rpn_big_conv1"
  relu_param {
    negative_slope: 0
  }
}
layer {
  name: "rpn_big_conv2"
  type: "Convolution"
  bottom: "rpn_big_conv1"
  top: "rpn_big_conv2"
  param {
    lr_mult: 1
  }
  param {
    lr_mult: 2
  }
  convolution_param {
    num_output: 512
    pad: 1
    kernel_size: 3
    stride: 1
    weight_filler {
      type: "gaussian"
      mean: 0
      std: 0.01
    }
    bias_filler {
      type: "constant"
    }
  }
}
layer {
  name: "rpn_big_conv2_relu"
  type: "ReLU"
  bottom: "rpn_big_conv2"
  top: "rpn_big_conv2"
  relu_param {
    negative_slope: 0
  }
}
layer {
  name: "rpn_big_conv2_drop"
  type: "Dropout"
  bottom: "rpn_big_conv2"
  top: "rpn_big_conv2"
  dropout_param {
    dropout_ratio: 0.3
  }
}
layer {
  name: "rpn_big_output_cls"
  type: "Convolution"
  bottom: "rpn_big_conv2"
  top: "rpn_big_output_cls"
  param {
    lr_mult: 1
  }
  param {
    lr_mult: 2
  }
  convolution_param {
    num_output: 384
    pad: 1
    kernel_size: 3
    stride: 1
    weight_filler {
      type: "gaussian"
      mean: 0
      std: 0.01
    }
    bias_filler {
      type: "constant"
    }
  }
}
layer {
  name: "rpn_big_output_cls_relu"
  type: "ReLU"
  bottom: "rpn_big_output_cls"
  top: "rpn_big_output_cls"
  relu_param {
    negative_slope: 0
  }
}
layer {
  name: "rpn_big_cls_score"
  type: "Convolution"
  bottom: "rpn_big_output_cls"
  top: "rpn_big_cls_score"
  param {
    lr_mult: 1
  }
  param {
    lr_mult: 2
  }
  convolution_param {
    num_output: 52
    pad: 0
    kernel_size: 3
    stride: 1
    weight_filler {
      type: "gaussian"
      mean: 0
      std: 0.01
    }
    bias_filler {
      type: "constant"
    }
  }
}
layer {
  name: "rpn_big_cls_score_reshape"
  type: "Reshape"
  bottom: "rpn_big_cls_score"
  top: "rpn_big_cls_score_reshape"
  reshape_param {
    shape {
      dim: 0
      dim: 2
      dim: -1
      dim: 0
    }
  }
}
layer {
  name: "rpn_big_cls_prob"
  type: "Softmax"
  bottom: "rpn_big_cls_score_reshape"
  top: "rpn_big_cls_prob"
}
layer {
  name: "rpn_big_cls_prob_reshape"
  type: "Reshape"
  bottom: "rpn_big_cls_prob"
  top: "rpn_big_cls_prob_reshape"
  reshape_param {
    shape {
      dim: 0
      dim: 52
      dim: -1
      dim: 0
    }
  }
}
layer {
  name: "rpn_big_anchor_target"
  type: "Python"
  bottom: "rpn_big_cls_score"
  bottom: "input_gt_boxes"
  bottom: "input_ignored_boxes"
  bottom: "input_im_info"
  bottom: "input_data"
  bottom: "rpn_big_cls_prob_reshape"
  top: "rpn_big_anchor_target_labels"
  top: "rpn_big_anchor_target_bbox_targets"
  top: "rpn_big_anchor_target_inside_weights"
  top: "rpn_big_anchor_target_outside_weights"
  python_param {
    module: "rpn.anchor_target_layer"
    layer: "AnchorTargetLayer"
    param_str: "{\"batchsize\": 256, \"fg_fraction\": 0.5, \"anchor_ratios\": [1.0], \"name\": \"rpn_big\", \"square_targets\": true, \"tn_fraction\": 0.2, \"anchor_scales\": [2.5, 3.025, 3.66025, 4.4289024999999995, 5.358972025, 6.484356150249999, 7.846070941802498, 9.493745839581022, 11.487432465893036, 13.899793283730574, 16.818749873313998, 20.350687346709933, 24.62433168951902, 29.795441344318014], \"anchor_shift_num_xy\": [[2, 2], [2, 2], [2, 2], [2, 2], [1, 1], [1, 1], [1, 1], [1, 1], [1, 1], [1, 1], [1, 1], [1, 1], [1, 1], [1, 1]], \"negative_overlap\": 0.4, \"positive_overlap\": 0.6, \"feat_stride\": 16, \"num_classes\": 1}"
  }
}
layer {
  name: "rpn_big_loss_cls"
  type: "SoftmaxWithLoss"
  bottom: "rpn_big_cls_score_reshape"
  bottom: "rpn_big_anchor_target_labels"
  top: "rpn_big_loss_cls"
  loss_weight: 1
  propagate_down: true
  propagate_down: false
  loss_param {
    ignore_label: -1
    normalization: VALID
  }
}
layer {
  name: "rpn_big_output_box"
  type: "Convolution"
  bottom: "rpn_big_conv2"
  top: "rpn_big_output_box"
  param {
    lr_mult: 1
  }
  param {
    lr_mult: 2
  }
  convolution_param {
    num_output: 384
    pad: 1
    kernel_size: 3
    stride: 1
    weight_filler {
      type: "gaussian"
      mean: 0
      std: 0.01
    }
    bias_filler {
      type: "constant"
    }
  }
}
layer {
  name: "rpn_big_output_box_relu"
  type: "ReLU"
  bottom: "rpn_big_output_box"
  top: "rpn_big_output_box"
  relu_param {
    negative_slope: 0
  }
}
layer {
  name: "rpn_big_bbox_pred"
  type: "Convolution"
  bottom: "rpn_big_output_box"
  top: "rpn_big_bbox_pred"
  param {
    lr_mult: 1
  }
  param {
    lr_mult: 2
  }
  convolution_param {
    num_output: 104
    pad: 0
    kernel_size: 3
    stride: 1
    weight_filler {
      type: "gaussian"
      mean: 0
      std: 0.01
    }
    bias_filler {
      type: "constant"
    }
  }
}
layer {
  name: "rpn_big_loss_bbox"
  type: "Python"
  bottom: "rpn_big_bbox_pred"
  bottom: "rpn_big_anchor_target_bbox_targets"
  bottom: "rpn_big_anchor_target_inside_weights"
  bottom: "rpn_big_anchor_target_outside_weights"
  top: "rpn_big_loss_bbox"
  loss_weight: 1
  python_param {
    module: "layers.smooth_l1_loss"
    layer: "SmoothL1LossLayer"
    param_str: "{\"sigma\": 3}"
  }
}
layer {
  name: "proposal"
  type: "Python"
  bottom: "rpn_big_cls_prob_reshape"
  bottom: "rpn_big_bbox_pred"
  bottom: "input_im_info"
  top: "rpn_rois"
  python_param {
    module: "rpn.proposal_layer"
    layer: "ProposalLayer"
    param_str: "{\"anchor_shift_num_xy\": [[2, 2], [2, 2], [2, 2], [2, 2], [1, 1], [1, 1], [1, 1], [1, 1], [1, 1], [1, 1], [1, 1], [1, 1], [1, 1], [1, 1]], \"feat_stride\": 16, \"num_classes\": 1, \"anchor_scales\": [2.5, 3.025, 3.66025, 4.4289024999999995, 5.358972025, 6.484356150249999, 7.846070941802498, 9.493745839581022, 11.487432465893036, 13.899793283730574, 16.818749873313998, 20.350687346709933, 24.62433168951902, 29.795441344318014], \"square_targets\": true, \"name\": \"rpn_big\", \"batchsize\": 256, \"anchor_ratios\": [1.0]}"
  }
}
layer {
  name: "roi-data"
  type: "Python"
  bottom: "rpn_rois"
  bottom: "input_gt_boxes"
  top: "rois"
  top: "labels"
  top: "bbox_targets"
  top: "bbox_inside_weights"
  top: "bbox_outside_weights"
  top: "pid_label"
  python_param {
    module: "rpn.proposal_target_layer"
    layer: "ProposalTargetLayer"
    param_str: "{\"num_classes\": 2, \"bg_aux_label\": 5532}"
  }
}
layer {
  name: "roi-pool"
  type: "ROIPooling"
  bottom: "conv5_3"
  bottom: "rois"
  top: "roi-pool"
  roi_pooling_param {
    pooled_h: 7
    pooled_w: 7
    spatial_scale: 0.0625
  }
}
layer {
  name: "fc6"
  type: "InnerProduct"
  bottom: "roi-pool"
  top: "fc6"
  param {
    lr_mult: 1
  }
  param {
    lr_mult: 2
  }
  inner_product_param {
    num_output: 4096
  }
}
I0413 17:57:11.484171 11415 layer_factory.hpp:77] Creating layer input
I0413 17:57:11.485952 11415 net.cpp:100] Creating Layer input
I0413 17:57:11.485975 11415 net.cpp:408] input -> input_data
I0413 17:57:11.485991 11415 net.cpp:408] input -> input_im_info
I0413 17:57:11.486002 11415 net.cpp:408] input -> input_gt_boxes
I0413 17:57:11.486013 11415 net.cpp:408] input -> input_ignored_boxes
RoiDataLayer: name_to_top: {'data': 0, 'gt_boxes': 2, 'ignored_boxes': 3, 'im_info': 1}
I0413 17:57:11.826807 11415 net.cpp:150] Setting up input
I0413 17:57:11.826839 11415 net.cpp:157] Top shape: 1 3 1000 1500 (4500000)
I0413 17:57:11.826848 11415 net.cpp:157] Top shape: 1 3 (3)
I0413 17:57:11.826854 11415 net.cpp:157] Top shape: 1 5 (5)
I0413 17:57:11.826861 11415 net.cpp:157] Top shape: 1 5 (5)
I0413 17:57:11.826865 11415 net.cpp:165] Memory required for data: 18000052
I0413 17:57:11.826875 11415 layer_factory.hpp:77] Creating layer input_data_input_0_split
I0413 17:57:11.826890 11415 net.cpp:100] Creating Layer input_data_input_0_split
I0413 17:57:11.826900 11415 net.cpp:434] input_data_input_0_split <- input_data
I0413 17:57:11.826911 11415 net.cpp:408] input_data_input_0_split -> input_data_input_0_split_0
I0413 17:57:11.826927 11415 net.cpp:408] input_data_input_0_split -> input_data_input_0_split_1
I0413 17:57:11.826975 11415 net.cpp:150] Setting up input_data_input_0_split
I0413 17:57:11.826987 11415 net.cpp:157] Top shape: 1 3 1000 1500 (4500000)
I0413 17:57:11.826994 11415 net.cpp:157] Top shape: 1 3 1000 1500 (4500000)
I0413 17:57:11.826999 11415 net.cpp:165] Memory required for data: 54000052
I0413 17:57:11.827005 11415 layer_factory.hpp:77] Creating layer input_im_info_input_1_split
I0413 17:57:11.827014 11415 net.cpp:100] Creating Layer input_im_info_input_1_split
I0413 17:57:11.827019 11415 net.cpp:434] input_im_info_input_1_split <- input_im_info
I0413 17:57:11.827028 11415 net.cpp:408] input_im_info_input_1_split -> input_im_info_input_1_split_0
I0413 17:57:11.827039 11415 net.cpp:408] input_im_info_input_1_split -> input_im_info_input_1_split_1
I0413 17:57:11.827080 11415 net.cpp:150] Setting up input_im_info_input_1_split
I0413 17:57:11.827090 11415 net.cpp:157] Top shape: 1 3 (3)
I0413 17:57:11.827097 11415 net.cpp:157] Top shape: 1 3 (3)
I0413 17:57:11.827103 11415 net.cpp:165] Memory required for data: 54000076
I0413 17:57:11.827109 11415 layer_factory.hpp:77] Creating layer input_gt_boxes_input_2_split
I0413 17:57:11.827117 11415 net.cpp:100] Creating Layer input_gt_boxes_input_2_split
I0413 17:57:11.827124 11415 net.cpp:434] input_gt_boxes_input_2_split <- input_gt_boxes
I0413 17:57:11.827134 11415 net.cpp:408] input_gt_boxes_input_2_split -> input_gt_boxes_input_2_split_0
I0413 17:57:11.827147 11415 net.cpp:408] input_gt_boxes_input_2_split -> input_gt_boxes_input_2_split_1
I0413 17:57:11.827188 11415 net.cpp:150] Setting up input_gt_boxes_input_2_split
I0413 17:57:11.827199 11415 net.cpp:157] Top shape: 1 5 (5)
I0413 17:57:11.827206 11415 net.cpp:157] Top shape: 1 5 (5)
I0413 17:57:11.827213 11415 net.cpp:165] Memory required for data: 54000116
I0413 17:57:11.827217 11415 layer_factory.hpp:77] Creating layer conv1_1
I0413 17:57:11.827234 11415 net.cpp:100] Creating Layer conv1_1
I0413 17:57:11.827239 11415 net.cpp:434] conv1_1 <- input_data_input_0_split_0
I0413 17:57:11.827251 11415 net.cpp:408] conv1_1 -> conv1_1
I0413 17:57:11.830436 11415 net.cpp:150] Setting up conv1_1
I0413 17:57:11.830471 11415 net.cpp:157] Top shape: 1 64 1000 1500 (96000000)
I0413 17:57:11.830476 11415 net.cpp:165] Memory required for data: 438000116
I0413 17:57:11.830498 11415 layer_factory.hpp:77] Creating layer relu1_1
I0413 17:57:11.830515 11415 net.cpp:100] Creating Layer relu1_1
I0413 17:57:11.830525 11415 net.cpp:434] relu1_1 <- conv1_1
I0413 17:57:11.830538 11415 net.cpp:395] relu1_1 -> conv1_1 (in-place)
I0413 17:57:11.830551 11415 net.cpp:150] Setting up relu1_1
I0413 17:57:11.830560 11415 net.cpp:157] Top shape: 1 64 1000 1500 (96000000)
I0413 17:57:11.830567 11415 net.cpp:165] Memory required for data: 822000116
I0413 17:57:11.830572 11415 layer_factory.hpp:77] Creating layer conv1_2
I0413 17:57:11.830585 11415 net.cpp:100] Creating Layer conv1_2
I0413 17:57:11.830592 11415 net.cpp:434] conv1_2 <- conv1_1
I0413 17:57:11.830602 11415 net.cpp:408] conv1_2 -> conv1_2
I0413 17:57:11.833871 11415 net.cpp:150] Setting up conv1_2
I0413 17:57:11.833907 11415 net.cpp:157] Top shape: 1 64 1000 1500 (96000000)
I0413 17:57:11.833911 11415 net.cpp:165] Memory required for data: 1206000116
I0413 17:57:11.833931 11415 layer_factory.hpp:77] Creating layer relu1_2
I0413 17:57:11.833950 11415 net.cpp:100] Creating Layer relu1_2
I0413 17:57:11.833961 11415 net.cpp:434] relu1_2 <- conv1_2
I0413 17:57:11.833973 11415 net.cpp:395] relu1_2 -> conv1_2 (in-place)
I0413 17:57:11.833987 11415 net.cpp:150] Setting up relu1_2
I0413 17:57:11.833997 11415 net.cpp:157] Top shape: 1 64 1000 1500 (96000000)
I0413 17:57:11.834002 11415 net.cpp:165] Memory required for data: 1590000116
I0413 17:57:11.834007 11415 layer_factory.hpp:77] Creating layer pool1
I0413 17:57:11.834023 11415 net.cpp:100] Creating Layer pool1
I0413 17:57:11.834029 11415 net.cpp:434] pool1 <- conv1_2
I0413 17:57:11.834038 11415 net.cpp:408] pool1 -> pool1
I0413 17:57:11.834128 11415 net.cpp:150] Setting up pool1
I0413 17:57:11.834141 11415 net.cpp:157] Top shape: 1 64 500 750 (24000000)
I0413 17:57:11.834146 11415 net.cpp:165] Memory required for data: 1686000116
I0413 17:57:11.834152 11415 layer_factory.hpp:77] Creating layer conv2_1
I0413 17:57:11.834167 11415 net.cpp:100] Creating Layer conv2_1
I0413 17:57:11.834174 11415 net.cpp:434] conv2_1 <- pool1
I0413 17:57:11.834185 11415 net.cpp:408] conv2_1 -> conv2_1
I0413 17:57:11.835554 11415 net.cpp:150] Setting up conv2_1
I0413 17:57:11.835584 11415 net.cpp:157] Top shape: 1 128 500 750 (48000000)
I0413 17:57:11.835587 11415 net.cpp:165] Memory required for data: 1878000116
I0413 17:57:11.835602 11415 layer_factory.hpp:77] Creating layer relu2_1
I0413 17:57:11.835613 11415 net.cpp:100] Creating Layer relu2_1
I0413 17:57:11.835620 11415 net.cpp:434] relu2_1 <- conv2_1
I0413 17:57:11.835628 11415 net.cpp:395] relu2_1 -> conv2_1 (in-place)
I0413 17:57:11.835638 11415 net.cpp:150] Setting up relu2_1
I0413 17:57:11.835644 11415 net.cpp:157] Top shape: 1 128 500 750 (48000000)
I0413 17:57:11.835646 11415 net.cpp:165] Memory required for data: 2070000116
I0413 17:57:11.835649 11415 layer_factory.hpp:77] Creating layer conv2_2
I0413 17:57:11.835659 11415 net.cpp:100] Creating Layer conv2_2
I0413 17:57:11.835664 11415 net.cpp:434] conv2_2 <- conv2_1
I0413 17:57:11.835669 11415 net.cpp:408] conv2_2 -> conv2_2
I0413 17:57:11.836639 11415 net.cpp:150] Setting up conv2_2
I0413 17:57:11.836668 11415 net.cpp:157] Top shape: 1 128 500 750 (48000000)
I0413 17:57:11.836670 11415 net.cpp:165] Memory required for data: 2262000116
I0413 17:57:11.836680 11415 layer_factory.hpp:77] Creating layer relu2_2
I0413 17:57:11.836688 11415 net.cpp:100] Creating Layer relu2_2
I0413 17:57:11.836697 11415 net.cpp:434] relu2_2 <- conv2_2
I0413 17:57:11.836705 11415 net.cpp:395] relu2_2 -> conv2_2 (in-place)
I0413 17:57:11.836715 11415 net.cpp:150] Setting up relu2_2
I0413 17:57:11.836721 11415 net.cpp:157] Top shape: 1 128 500 750 (48000000)
I0413 17:57:11.836724 11415 net.cpp:165] Memory required for data: 2454000116
I0413 17:57:11.836727 11415 layer_factory.hpp:77] Creating layer pool2
I0413 17:57:11.836732 11415 net.cpp:100] Creating Layer pool2
I0413 17:57:11.836736 11415 net.cpp:434] pool2 <- conv2_2
I0413 17:57:11.836742 11415 net.cpp:408] pool2 -> pool2
I0413 17:57:11.836791 11415 net.cpp:150] Setting up pool2
I0413 17:57:11.836798 11415 net.cpp:157] Top shape: 1 128 250 375 (12000000)
I0413 17:57:11.836803 11415 net.cpp:165] Memory required for data: 2502000116
I0413 17:57:11.836807 11415 layer_factory.hpp:77] Creating layer conv3_1
I0413 17:57:11.836814 11415 net.cpp:100] Creating Layer conv3_1
I0413 17:57:11.836817 11415 net.cpp:434] conv3_1 <- pool2
I0413 17:57:11.836825 11415 net.cpp:408] conv3_1 -> conv3_1
I0413 17:57:11.838335 11415 net.cpp:150] Setting up conv3_1
I0413 17:57:11.838366 11415 net.cpp:157] Top shape: 1 256 250 375 (24000000)
I0413 17:57:11.838369 11415 net.cpp:165] Memory required for data: 2598000116
I0413 17:57:11.838388 11415 layer_factory.hpp:77] Creating layer relu3_1
I0413 17:57:11.838403 11415 net.cpp:100] Creating Layer relu3_1
I0413 17:57:11.838413 11415 net.cpp:434] relu3_1 <- conv3_1
I0413 17:57:11.838426 11415 net.cpp:395] relu3_1 -> conv3_1 (in-place)
I0413 17:57:11.838440 11415 net.cpp:150] Setting up relu3_1
I0413 17:57:11.838449 11415 net.cpp:157] Top shape: 1 256 250 375 (24000000)
I0413 17:57:11.838455 11415 net.cpp:165] Memory required for data: 2694000116
I0413 17:57:11.838460 11415 layer_factory.hpp:77] Creating layer conv3_2
I0413 17:57:11.838479 11415 net.cpp:100] Creating Layer conv3_2
I0413 17:57:11.838486 11415 net.cpp:434] conv3_2 <- conv3_1
I0413 17:57:11.838500 11415 net.cpp:408] conv3_2 -> conv3_2
I0413 17:57:11.839925 11415 net.cpp:150] Setting up conv3_2
I0413 17:57:11.839951 11415 net.cpp:157] Top shape: 1 256 250 375 (24000000)
I0413 17:57:11.839954 11415 net.cpp:165] Memory required for data: 2790000116
I0413 17:57:11.839967 11415 layer_factory.hpp:77] Creating layer relu3_2
I0413 17:57:11.839978 11415 net.cpp:100] Creating Layer relu3_2
I0413 17:57:11.839987 11415 net.cpp:434] relu3_2 <- conv3_2
I0413 17:57:11.840001 11415 net.cpp:395] relu3_2 -> conv3_2 (in-place)
I0413 17:57:11.840015 11415 net.cpp:150] Setting up relu3_2
I0413 17:57:11.840024 11415 net.cpp:157] Top shape: 1 256 250 375 (24000000)
I0413 17:57:11.840029 11415 net.cpp:165] Memory required for data: 2886000116
I0413 17:57:11.840035 11415 layer_factory.hpp:77] Creating layer conv3_3
I0413 17:57:11.840049 11415 net.cpp:100] Creating Layer conv3_3
I0413 17:57:11.840056 11415 net.cpp:434] conv3_3 <- conv3_2
I0413 17:57:11.840067 11415 net.cpp:408] conv3_3 -> conv3_3
I0413 17:57:11.841749 11415 net.cpp:150] Setting up conv3_3
I0413 17:57:11.841780 11415 net.cpp:157] Top shape: 1 256 250 375 (24000000)
I0413 17:57:11.841784 11415 net.cpp:165] Memory required for data: 2982000116
I0413 17:57:11.841797 11415 layer_factory.hpp:77] Creating layer relu3_3
I0413 17:57:11.841814 11415 net.cpp:100] Creating Layer relu3_3
I0413 17:57:11.841822 11415 net.cpp:434] relu3_3 <- conv3_3
I0413 17:57:11.841833 11415 net.cpp:395] relu3_3 -> conv3_3 (in-place)
I0413 17:57:11.841847 11415 net.cpp:150] Setting up relu3_3
I0413 17:57:11.841857 11415 net.cpp:157] Top shape: 1 256 250 375 (24000000)
I0413 17:57:11.841863 11415 net.cpp:165] Memory required for data: 3078000116
I0413 17:57:11.841868 11415 layer_factory.hpp:77] Creating layer pool3
I0413 17:57:11.841878 11415 net.cpp:100] Creating Layer pool3
I0413 17:57:11.841886 11415 net.cpp:434] pool3 <- conv3_3
I0413 17:57:11.841894 11415 net.cpp:408] pool3 -> pool3
I0413 17:57:11.841951 11415 net.cpp:150] Setting up pool3
I0413 17:57:11.841965 11415 net.cpp:157] Top shape: 1 256 125 188 (6016000)
I0413 17:57:11.841972 11415 net.cpp:165] Memory required for data: 3102064116
I0413 17:57:11.841977 11415 layer_factory.hpp:77] Creating layer conv4_1
I0413 17:57:11.841992 11415 net.cpp:100] Creating Layer conv4_1
I0413 17:57:11.842000 11415 net.cpp:434] conv4_1 <- pool3
I0413 17:57:11.842010 11415 net.cpp:408] conv4_1 -> conv4_1
I0413 17:57:11.844815 11415 net.cpp:150] Setting up conv4_1
I0413 17:57:11.844851 11415 net.cpp:157] Top shape: 1 512 125 188 (12032000)
I0413 17:57:11.844856 11415 net.cpp:165] Memory required for data: 3150192116
I0413 17:57:11.844866 11415 layer_factory.hpp:77] Creating layer relu4_1
I0413 17:57:11.844880 11415 net.cpp:100] Creating Layer relu4_1
I0413 17:57:11.844892 11415 net.cpp:434] relu4_1 <- conv4_1
I0413 17:57:11.844913 11415 net.cpp:395] relu4_1 -> conv4_1 (in-place)
I0413 17:57:11.844929 11415 net.cpp:150] Setting up relu4_1
I0413 17:57:11.844938 11415 net.cpp:157] Top shape: 1 512 125 188 (12032000)
I0413 17:57:11.844941 11415 net.cpp:165] Memory required for data: 3198320116
I0413 17:57:11.844946 11415 layer_factory.hpp:77] Creating layer conv4_2
I0413 17:57:11.844960 11415 net.cpp:100] Creating Layer conv4_2
I0413 17:57:11.844969 11415 net.cpp:434] conv4_2 <- conv4_1
I0413 17:57:11.844980 11415 net.cpp:408] conv4_2 -> conv4_2
I0413 17:57:11.849328 11415 net.cpp:150] Setting up conv4_2
I0413 17:57:11.849364 11415 net.cpp:157] Top shape: 1 512 125 188 (12032000)
I0413 17:57:11.849367 11415 net.cpp:165] Memory required for data: 3246448116
I0413 17:57:11.849388 11415 layer_factory.hpp:77] Creating layer relu4_2
I0413 17:57:11.849403 11415 net.cpp:100] Creating Layer relu4_2
I0413 17:57:11.849413 11415 net.cpp:434] relu4_2 <- conv4_2
I0413 17:57:11.849427 11415 net.cpp:395] relu4_2 -> conv4_2 (in-place)
I0413 17:57:11.849442 11415 net.cpp:150] Setting up relu4_2
I0413 17:57:11.849450 11415 net.cpp:157] Top shape: 1 512 125 188 (12032000)
I0413 17:57:11.849457 11415 net.cpp:165] Memory required for data: 3294576116
I0413 17:57:11.849462 11415 layer_factory.hpp:77] Creating layer conv4_3
I0413 17:57:11.849474 11415 net.cpp:100] Creating Layer conv4_3
I0413 17:57:11.849483 11415 net.cpp:434] conv4_3 <- conv4_2
I0413 17:57:11.849491 11415 net.cpp:408] conv4_3 -> conv4_3
I0413 17:57:11.853970 11415 net.cpp:150] Setting up conv4_3
I0413 17:57:11.854012 11415 net.cpp:157] Top shape: 1 512 125 188 (12032000)
I0413 17:57:11.854015 11415 net.cpp:165] Memory required for data: 3342704116
I0413 17:57:11.854027 11415 layer_factory.hpp:77] Creating layer relu4_3
I0413 17:57:11.854040 11415 net.cpp:100] Creating Layer relu4_3
I0413 17:57:11.854048 11415 net.cpp:434] relu4_3 <- conv4_3
I0413 17:57:11.854069 11415 net.cpp:395] relu4_3 -> conv4_3 (in-place)
I0413 17:57:11.854085 11415 net.cpp:150] Setting up relu4_3
I0413 17:57:11.854094 11415 net.cpp:157] Top shape: 1 512 125 188 (12032000)
I0413 17:57:11.854101 11415 net.cpp:165] Memory required for data: 3390832116
I0413 17:57:11.854106 11415 layer_factory.hpp:77] Creating layer pool4
I0413 17:57:11.854121 11415 net.cpp:100] Creating Layer pool4
I0413 17:57:11.854128 11415 net.cpp:434] pool4 <- conv4_3
I0413 17:57:11.854138 11415 net.cpp:408] pool4 -> pool4
I0413 17:57:11.854190 11415 net.cpp:150] Setting up pool4
I0413 17:57:11.854202 11415 net.cpp:157] Top shape: 1 512 63 94 (3032064)
I0413 17:57:11.854207 11415 net.cpp:165] Memory required for data: 3402960372
I0413 17:57:11.854212 11415 layer_factory.hpp:77] Creating layer conv5_1
I0413 17:57:11.854228 11415 net.cpp:100] Creating Layer conv5_1
I0413 17:57:11.854235 11415 net.cpp:434] conv5_1 <- pool4
I0413 17:57:11.854248 11415 net.cpp:408] conv5_1 -> conv5_1
I0413 17:57:11.861865 11415 net.cpp:150] Setting up conv5_1
I0413 17:57:11.861897 11415 net.cpp:157] Top shape: 1 512 63 94 (3032064)
I0413 17:57:11.861901 11415 net.cpp:165] Memory required for data: 3415088628
I0413 17:57:11.861915 11415 layer_factory.hpp:77] Creating layer relu5_1
I0413 17:57:11.861932 11415 net.cpp:100] Creating Layer relu5_1
I0413 17:57:11.861941 11415 net.cpp:434] relu5_1 <- conv5_1
I0413 17:57:11.861953 11415 net.cpp:395] relu5_1 -> conv5_1 (in-place)
I0413 17:57:11.861968 11415 net.cpp:150] Setting up relu5_1
I0413 17:57:11.861975 11415 net.cpp:157] Top shape: 1 512 63 94 (3032064)
I0413 17:57:11.861981 11415 net.cpp:165] Memory required for data: 3427216884
I0413 17:57:11.861987 11415 layer_factory.hpp:77] Creating layer conv5_2
I0413 17:57:11.862002 11415 net.cpp:100] Creating Layer conv5_2
I0413 17:57:11.862010 11415 net.cpp:434] conv5_2 <- conv5_1
I0413 17:57:11.862020 11415 net.cpp:408] conv5_2 -> conv5_2
I0413 17:57:11.866482 11415 net.cpp:150] Setting up conv5_2
I0413 17:57:11.866523 11415 net.cpp:157] Top shape: 1 512 63 94 (3032064)
I0413 17:57:11.866528 11415 net.cpp:165] Memory required for data: 3439345140
I0413 17:57:11.866539 11415 layer_factory.hpp:77] Creating layer relu5_2
I0413 17:57:11.866549 11415 net.cpp:100] Creating Layer relu5_2
I0413 17:57:11.866554 11415 net.cpp:434] relu5_2 <- conv5_2
I0413 17:57:11.866564 11415 net.cpp:395] relu5_2 -> conv5_2 (in-place)
I0413 17:57:11.866606 11415 net.cpp:150] Setting up relu5_2
I0413 17:57:11.866618 11415 net.cpp:157] Top shape: 1 512 63 94 (3032064)
I0413 17:57:11.866623 11415 net.cpp:165] Memory required for data: 3451473396
I0413 17:57:11.866628 11415 layer_factory.hpp:77] Creating layer conv5_3
I0413 17:57:11.866649 11415 net.cpp:100] Creating Layer conv5_3
I0413 17:57:11.866657 11415 net.cpp:434] conv5_3 <- conv5_2
I0413 17:57:11.866667 11415 net.cpp:408] conv5_3 -> conv5_3
I0413 17:57:11.871027 11415 net.cpp:150] Setting up conv5_3
I0413 17:57:11.871065 11415 net.cpp:157] Top shape: 1 512 63 94 (3032064)
I0413 17:57:11.871078 11415 net.cpp:165] Memory required for data: 3463601652
I0413 17:57:11.871089 11415 layer_factory.hpp:77] Creating layer relu5_3
I0413 17:57:11.871101 11415 net.cpp:100] Creating Layer relu5_3
I0413 17:57:11.871106 11415 net.cpp:434] relu5_3 <- conv5_3
I0413 17:57:11.871114 11415 net.cpp:395] relu5_3 -> conv5_3 (in-place)
I0413 17:57:11.871125 11415 net.cpp:150] Setting up relu5_3
I0413 17:57:11.871134 11415 net.cpp:157] Top shape: 1 512 63 94 (3032064)
I0413 17:57:11.871140 11415 net.cpp:165] Memory required for data: 3475729908
I0413 17:57:11.871145 11415 layer_factory.hpp:77] Creating layer conv5_3_relu5_3_0_split
I0413 17:57:11.871155 11415 net.cpp:100] Creating Layer conv5_3_relu5_3_0_split
I0413 17:57:11.871165 11415 net.cpp:434] conv5_3_relu5_3_0_split <- conv5_3
I0413 17:57:11.871175 11415 net.cpp:408] conv5_3_relu5_3_0_split -> conv5_3_relu5_3_0_split_0
I0413 17:57:11.871186 11415 net.cpp:408] conv5_3_relu5_3_0_split -> conv5_3_relu5_3_0_split_1
I0413 17:57:11.871234 11415 net.cpp:150] Setting up conv5_3_relu5_3_0_split
I0413 17:57:11.871246 11415 net.cpp:157] Top shape: 1 512 63 94 (3032064)
I0413 17:57:11.871253 11415 net.cpp:157] Top shape: 1 512 63 94 (3032064)
I0413 17:57:11.871258 11415 net.cpp:165] Memory required for data: 3499986420
I0413 17:57:11.871263 11415 layer_factory.hpp:77] Creating layer rpn_big_conv1
I0413 17:57:11.871280 11415 net.cpp:100] Creating Layer rpn_big_conv1
I0413 17:57:11.871289 11415 net.cpp:434] rpn_big_conv1 <- conv5_3_relu5_3_0_split_0
I0413 17:57:11.871300 11415 net.cpp:408] rpn_big_conv1 -> rpn_big_conv1
I0413 17:57:11.900454 11415 net.cpp:150] Setting up rpn_big_conv1
I0413 17:57:11.900485 11415 net.cpp:157] Top shape: 1 512 63 94 (3032064)
I0413 17:57:11.900498 11415 net.cpp:165] Memory required for data: 3512114676
I0413 17:57:11.900509 11415 layer_factory.hpp:77] Creating layer rpn_big_conv1_relu
I0413 17:57:11.900522 11415 net.cpp:100] Creating Layer rpn_big_conv1_relu
I0413 17:57:11.900528 11415 net.cpp:434] rpn_big_conv1_relu <- rpn_big_conv1
I0413 17:57:11.900538 11415 net.cpp:395] rpn_big_conv1_relu -> rpn_big_conv1 (in-place)
I0413 17:57:11.900552 11415 net.cpp:150] Setting up rpn_big_conv1_relu
I0413 17:57:11.900563 11415 net.cpp:157] Top shape: 1 512 63 94 (3032064)
I0413 17:57:11.900566 11415 net.cpp:165] Memory required for data: 3524242932
I0413 17:57:11.900571 11415 layer_factory.hpp:77] Creating layer rpn_big_conv2
I0413 17:57:11.900588 11415 net.cpp:100] Creating Layer rpn_big_conv2
I0413 17:57:11.900594 11415 net.cpp:434] rpn_big_conv2 <- rpn_big_conv1
I0413 17:57:11.900605 11415 net.cpp:408] rpn_big_conv2 -> rpn_big_conv2
I0413 17:57:11.925752 11415 net.cpp:150] Setting up rpn_big_conv2
I0413 17:57:11.925784 11415 net.cpp:157] Top shape: 1 512 63 94 (3032064)
I0413 17:57:11.925796 11415 net.cpp:165] Memory required for data: 3536371188
I0413 17:57:11.925806 11415 layer_factory.hpp:77] Creating layer rpn_big_conv2_relu
I0413 17:57:11.925817 11415 net.cpp:100] Creating Layer rpn_big_conv2_relu
I0413 17:57:11.925823 11415 net.cpp:434] rpn_big_conv2_relu <- rpn_big_conv2
I0413 17:57:11.925835 11415 net.cpp:395] rpn_big_conv2_relu -> rpn_big_conv2 (in-place)
I0413 17:57:11.925849 11415 net.cpp:150] Setting up rpn_big_conv2_relu
I0413 17:57:11.925858 11415 net.cpp:157] Top shape: 1 512 63 94 (3032064)
I0413 17:57:11.925863 11415 net.cpp:165] Memory required for data: 3548499444
I0413 17:57:11.925866 11415 layer_factory.hpp:77] Creating layer rpn_big_conv2_drop
I0413 17:57:11.925875 11415 net.cpp:100] Creating Layer rpn_big_conv2_drop
I0413 17:57:11.925884 11415 net.cpp:434] rpn_big_conv2_drop <- rpn_big_conv2
I0413 17:57:11.925894 11415 net.cpp:395] rpn_big_conv2_drop -> rpn_big_conv2 (in-place)
I0413 17:57:11.925927 11415 net.cpp:150] Setting up rpn_big_conv2_drop
I0413 17:57:11.925937 11415 net.cpp:157] Top shape: 1 512 63 94 (3032064)
I0413 17:57:11.925945 11415 net.cpp:165] Memory required for data: 3560627700
I0413 17:57:11.925950 11415 layer_factory.hpp:77] Creating layer rpn_big_conv2_rpn_big_conv2_drop_0_split
I0413 17:57:11.925961 11415 net.cpp:100] Creating Layer rpn_big_conv2_rpn_big_conv2_drop_0_split
I0413 17:57:11.925967 11415 net.cpp:434] rpn_big_conv2_rpn_big_conv2_drop_0_split <- rpn_big_conv2
I0413 17:57:11.925976 11415 net.cpp:408] rpn_big_conv2_rpn_big_conv2_drop_0_split -> rpn_big_conv2_rpn_big_conv2_drop_0_split_0
I0413 17:57:11.925987 11415 net.cpp:408] rpn_big_conv2_rpn_big_conv2_drop_0_split -> rpn_big_conv2_rpn_big_conv2_drop_0_split_1
I0413 17:57:11.926043 11415 net.cpp:150] Setting up rpn_big_conv2_rpn_big_conv2_drop_0_split
I0413 17:57:11.926054 11415 net.cpp:157] Top shape: 1 512 63 94 (3032064)
I0413 17:57:11.926066 11415 net.cpp:157] Top shape: 1 512 63 94 (3032064)
I0413 17:57:11.926072 11415 net.cpp:165] Memory required for data: 3584884212
I0413 17:57:11.926079 11415 layer_factory.hpp:77] Creating layer rpn_big_output_cls
I0413 17:57:11.926093 11415 net.cpp:100] Creating Layer rpn_big_output_cls
I0413 17:57:11.926100 11415 net.cpp:434] rpn_big_output_cls <- rpn_big_conv2_rpn_big_conv2_drop_0_split_0
I0413 17:57:11.926111 11415 net.cpp:408] rpn_big_output_cls -> rpn_big_output_cls
I0413 17:57:11.945122 11415 net.cpp:150] Setting up rpn_big_output_cls
I0413 17:57:11.945154 11415 net.cpp:157] Top shape: 1 384 63 94 (2274048)
I0413 17:57:11.945168 11415 net.cpp:165] Memory required for data: 3593980404
I0413 17:57:11.945178 11415 layer_factory.hpp:77] Creating layer rpn_big_output_cls_relu
I0413 17:57:11.945190 11415 net.cpp:100] Creating Layer rpn_big_output_cls_relu
I0413 17:57:11.945196 11415 net.cpp:434] rpn_big_output_cls_relu <- rpn_big_output_cls
I0413 17:57:11.945209 11415 net.cpp:395] rpn_big_output_cls_relu -> rpn_big_output_cls (in-place)
I0413 17:57:11.945222 11415 net.cpp:150] Setting up rpn_big_output_cls_relu
I0413 17:57:11.945232 11415 net.cpp:157] Top shape: 1 384 63 94 (2274048)
I0413 17:57:11.945237 11415 net.cpp:165] Memory required for data: 3603076596
I0413 17:57:11.945242 11415 layer_factory.hpp:77] Creating layer rpn_big_cls_score
I0413 17:57:11.945258 11415 net.cpp:100] Creating Layer rpn_big_cls_score
I0413 17:57:11.945264 11415 net.cpp:434] rpn_big_cls_score <- rpn_big_output_cls
I0413 17:57:11.945277 11415 net.cpp:408] rpn_big_cls_score -> rpn_big_cls_score
I0413 17:57:11.947692 11415 net.cpp:150] Setting up rpn_big_cls_score
I0413 17:57:11.947706 11415 net.cpp:157] Top shape: 1 52 61 92 (291824)
I0413 17:57:11.947710 11415 net.cpp:165] Memory required for data: 3604243892
I0413 17:57:11.947731 11415 layer_factory.hpp:77] Creating layer rpn_big_cls_score_rpn_big_cls_score_0_split
I0413 17:57:11.947743 11415 net.cpp:100] Creating Layer rpn_big_cls_score_rpn_big_cls_score_0_split
I0413 17:57:11.947749 11415 net.cpp:434] rpn_big_cls_score_rpn_big_cls_score_0_split <- rpn_big_cls_score
I0413 17:57:11.947762 11415 net.cpp:408] rpn_big_cls_score_rpn_big_cls_score_0_split -> rpn_big_cls_score_rpn_big_cls_score_0_split_0
I0413 17:57:11.947773 11415 net.cpp:408] rpn_big_cls_score_rpn_big_cls_score_0_split -> rpn_big_cls_score_rpn_big_cls_score_0_split_1
I0413 17:57:11.947826 11415 net.cpp:150] Setting up rpn_big_cls_score_rpn_big_cls_score_0_split
I0413 17:57:11.947837 11415 net.cpp:157] Top shape: 1 52 61 92 (291824)
I0413 17:57:11.947845 11415 net.cpp:157] Top shape: 1 52 61 92 (291824)
I0413 17:57:11.947851 11415 net.cpp:165] Memory required for data: 3606578484
I0413 17:57:11.947857 11415 layer_factory.hpp:77] Creating layer rpn_big_cls_score_reshape
I0413 17:57:11.947867 11415 net.cpp:100] Creating Layer rpn_big_cls_score_reshape
I0413 17:57:11.947875 11415 net.cpp:434] rpn_big_cls_score_reshape <- rpn_big_cls_score_rpn_big_cls_score_0_split_0
I0413 17:57:11.947887 11415 net.cpp:408] rpn_big_cls_score_reshape -> rpn_big_cls_score_reshape
I0413 17:57:11.947922 11415 net.cpp:150] Setting up rpn_big_cls_score_reshape
I0413 17:57:11.947933 11415 net.cpp:157] Top shape: 1 2 1586 92 (291824)
I0413 17:57:11.947939 11415 net.cpp:165] Memory required for data: 3607745780
I0413 17:57:11.947944 11415 layer_factory.hpp:77] Creating layer rpn_big_cls_score_reshape_rpn_big_cls_score_reshape_0_split
I0413 17:57:11.947952 11415 net.cpp:100] Creating Layer rpn_big_cls_score_reshape_rpn_big_cls_score_reshape_0_split
I0413 17:57:11.947960 11415 net.cpp:434] rpn_big_cls_score_reshape_rpn_big_cls_score_reshape_0_split <- rpn_big_cls_score_reshape
I0413 17:57:11.947973 11415 net.cpp:408] rpn_big_cls_score_reshape_rpn_big_cls_score_reshape_0_split -> rpn_big_cls_score_reshape_rpn_big_cls_score_reshape_0_split_0
I0413 17:57:11.947984 11415 net.cpp:408] rpn_big_cls_score_reshape_rpn_big_cls_score_reshape_0_split -> rpn_big_cls_score_reshape_rpn_big_cls_score_reshape_0_split_1
I0413 17:57:11.948031 11415 net.cpp:150] Setting up rpn_big_cls_score_reshape_rpn_big_cls_score_reshape_0_split
I0413 17:57:11.948042 11415 net.cpp:157] Top shape: 1 2 1586 92 (291824)
I0413 17:57:11.948051 11415 net.cpp:157] Top shape: 1 2 1586 92 (291824)
I0413 17:57:11.948056 11415 net.cpp:165] Memory required for data: 3610080372
I0413 17:57:11.948061 11415 layer_factory.hpp:77] Creating layer rpn_big_cls_prob
I0413 17:57:11.948071 11415 net.cpp:100] Creating Layer rpn_big_cls_prob
I0413 17:57:11.948078 11415 net.cpp:434] rpn_big_cls_prob <- rpn_big_cls_score_reshape_rpn_big_cls_score_reshape_0_split_0
I0413 17:57:11.948089 11415 net.cpp:408] rpn_big_cls_prob -> rpn_big_cls_prob
I0413 17:57:11.948164 11415 net.cpp:150] Setting up rpn_big_cls_prob
I0413 17:57:11.948175 11415 net.cpp:157] Top shape: 1 2 1586 92 (291824)
I0413 17:57:11.948181 11415 net.cpp:165] Memory required for data: 3611247668
I0413 17:57:11.948186 11415 layer_factory.hpp:77] Creating layer rpn_big_cls_prob_reshape
I0413 17:57:11.948199 11415 net.cpp:100] Creating Layer rpn_big_cls_prob_reshape
I0413 17:57:11.948205 11415 net.cpp:434] rpn_big_cls_prob_reshape <- rpn_big_cls_prob
I0413 17:57:11.948215 11415 net.cpp:408] rpn_big_cls_prob_reshape -> rpn_big_cls_prob_reshape
I0413 17:57:11.948246 11415 net.cpp:150] Setting up rpn_big_cls_prob_reshape
I0413 17:57:11.948256 11415 net.cpp:157] Top shape: 1 52 61 92 (291824)
I0413 17:57:11.948262 11415 net.cpp:165] Memory required for data: 3612414964
I0413 17:57:11.948267 11415 layer_factory.hpp:77] Creating layer rpn_big_cls_prob_reshape_rpn_big_cls_prob_reshape_0_split
I0413 17:57:11.948277 11415 net.cpp:100] Creating Layer rpn_big_cls_prob_reshape_rpn_big_cls_prob_reshape_0_split
I0413 17:57:11.948287 11415 net.cpp:434] rpn_big_cls_prob_reshape_rpn_big_cls_prob_reshape_0_split <- rpn_big_cls_prob_reshape
I0413 17:57:11.948297 11415 net.cpp:408] rpn_big_cls_prob_reshape_rpn_big_cls_prob_reshape_0_split -> rpn_big_cls_prob_reshape_rpn_big_cls_prob_reshape_0_split_0
I0413 17:57:11.948307 11415 net.cpp:408] rpn_big_cls_prob_reshape_rpn_big_cls_prob_reshape_0_split -> rpn_big_cls_prob_reshape_rpn_big_cls_prob_reshape_0_split_1
I0413 17:57:11.948352 11415 net.cpp:150] Setting up rpn_big_cls_prob_reshape_rpn_big_cls_prob_reshape_0_split
I0413 17:57:11.948362 11415 net.cpp:157] Top shape: 1 52 61 92 (291824)
I0413 17:57:11.948369 11415 net.cpp:157] Top shape: 1 52 61 92 (291824)
I0413 17:57:11.948375 11415 net.cpp:165] Memory required for data: 3614749556
I0413 17:57:11.948381 11415 layer_factory.hpp:77] Creating layer rpn_big_anchor_target
I0413 17:57:11.949908 11415 net.cpp:100] Creating Layer rpn_big_anchor_target
I0413 17:57:11.949926 11415 net.cpp:434] rpn_big_anchor_target <- rpn_big_cls_score_rpn_big_cls_score_0_split_1
I0413 17:57:11.949934 11415 net.cpp:434] rpn_big_anchor_target <- input_gt_boxes_input_2_split_0
I0413 17:57:11.949941 11415 net.cpp:434] rpn_big_anchor_target <- input_ignored_boxes
I0413 17:57:11.949950 11415 net.cpp:434] rpn_big_anchor_target <- input_im_info_input_1_split_0
I0413 17:57:11.949959 11415 net.cpp:434] rpn_big_anchor_target <- input_data_input_0_split_1
I0413 17:57:11.949965 11415 net.cpp:434] rpn_big_anchor_target <- rpn_big_cls_prob_reshape_rpn_big_cls_prob_reshape_0_split_0
I0413 17:57:11.949977 11415 net.cpp:408] rpn_big_anchor_target -> rpn_big_anchor_target_labels
I0413 17:57:11.949993 11415 net.cpp:408] rpn_big_anchor_target -> rpn_big_anchor_target_bbox_targets
I0413 17:57:11.950007 11415 net.cpp:408] rpn_big_anchor_target -> rpn_big_anchor_target_inside_weights
I0413 17:57:11.950021 11415 net.cpp:408] rpn_big_anchor_target -> rpn_big_anchor_target_outside_weights
I0413 17:57:11.954773 11415 net.cpp:150] Setting up rpn_big_anchor_target
I0413 17:57:11.954797 11415 net.cpp:157] Top shape: 1 1 1586 92 (145912)
I0413 17:57:11.954810 11415 net.cpp:157] Top shape: 1 104 61 92 (583648)
I0413 17:57:11.954815 11415 net.cpp:157] Top shape: 1 104 61 92 (583648)
I0413 17:57:11.954819 11415 net.cpp:157] Top shape: 1 104 61 92 (583648)
I0413 17:57:11.954821 11415 net.cpp:165] Memory required for data: 3622336980
I0413 17:57:11.954828 11415 layer_factory.hpp:77] Creating layer rpn_big_loss_cls
I0413 17:57:11.954844 11415 net.cpp:100] Creating Layer rpn_big_loss_cls
I0413 17:57:11.954854 11415 net.cpp:434] rpn_big_loss_cls <- rpn_big_cls_score_reshape_rpn_big_cls_score_reshape_0_split_1
I0413 17:57:11.954862 11415 net.cpp:434] rpn_big_loss_cls <- rpn_big_anchor_target_labels
I0413 17:57:11.954874 11415 net.cpp:408] rpn_big_loss_cls -> rpn_big_loss_cls
I0413 17:57:11.954890 11415 layer_factory.hpp:77] Creating layer rpn_big_loss_cls
I0413 17:57:11.955657 11415 net.cpp:150] Setting up rpn_big_loss_cls
I0413 17:57:11.955677 11415 net.cpp:157] Top shape: (1)
I0413 17:57:11.955680 11415 net.cpp:160]     with loss weight 1
I0413 17:57:11.955693 11415 net.cpp:165] Memory required for data: 3622336984
I0413 17:57:11.955696 11415 layer_factory.hpp:77] Creating layer rpn_big_output_box
I0413 17:57:11.955713 11415 net.cpp:100] Creating Layer rpn_big_output_box
I0413 17:57:11.955718 11415 net.cpp:434] rpn_big_output_box <- rpn_big_conv2_rpn_big_conv2_drop_0_split_1
I0413 17:57:11.955727 11415 net.cpp:408] rpn_big_output_box -> rpn_big_output_box
I0413 17:57:11.974663 11415 net.cpp:150] Setting up rpn_big_output_box
I0413 17:57:11.974692 11415 net.cpp:157] Top shape: 1 384 63 94 (2274048)
I0413 17:57:11.974705 11415 net.cpp:165] Memory required for data: 3631433176
I0413 17:57:11.974716 11415 layer_factory.hpp:77] Creating layer rpn_big_output_box_relu
I0413 17:57:11.974730 11415 net.cpp:100] Creating Layer rpn_big_output_box_relu
I0413 17:57:11.974737 11415 net.cpp:434] rpn_big_output_box_relu <- rpn_big_output_box
I0413 17:57:11.974751 11415 net.cpp:395] rpn_big_output_box_relu -> rpn_big_output_box (in-place)
I0413 17:57:11.974767 11415 net.cpp:150] Setting up rpn_big_output_box_relu
I0413 17:57:11.974776 11415 net.cpp:157] Top shape: 1 384 63 94 (2274048)
I0413 17:57:11.974783 11415 net.cpp:165] Memory required for data: 3640529368
I0413 17:57:11.974788 11415 layer_factory.hpp:77] Creating layer rpn_big_bbox_pred
I0413 17:57:11.974807 11415 net.cpp:100] Creating Layer rpn_big_bbox_pred
I0413 17:57:11.974813 11415 net.cpp:434] rpn_big_bbox_pred <- rpn_big_output_box
I0413 17:57:11.974828 11415 net.cpp:408] rpn_big_bbox_pred -> rpn_big_bbox_pred
I0413 17:57:11.980449 11415 net.cpp:150] Setting up rpn_big_bbox_pred
I0413 17:57:11.980478 11415 net.cpp:157] Top shape: 1 104 61 92 (583648)
I0413 17:57:11.980490 11415 net.cpp:165] Memory required for data: 3642863960
I0413 17:57:11.980500 11415 layer_factory.hpp:77] Creating layer rpn_big_bbox_pred_rpn_big_bbox_pred_0_split
I0413 17:57:11.980511 11415 net.cpp:100] Creating Layer rpn_big_bbox_pred_rpn_big_bbox_pred_0_split
I0413 17:57:11.980518 11415 net.cpp:434] rpn_big_bbox_pred_rpn_big_bbox_pred_0_split <- rpn_big_bbox_pred
I0413 17:57:11.980530 11415 net.cpp:408] rpn_big_bbox_pred_rpn_big_bbox_pred_0_split -> rpn_big_bbox_pred_rpn_big_bbox_pred_0_split_0
I0413 17:57:11.980546 11415 net.cpp:408] rpn_big_bbox_pred_rpn_big_bbox_pred_0_split -> rpn_big_bbox_pred_rpn_big_bbox_pred_0_split_1
I0413 17:57:11.980595 11415 net.cpp:150] Setting up rpn_big_bbox_pred_rpn_big_bbox_pred_0_split
I0413 17:57:11.980607 11415 net.cpp:157] Top shape: 1 104 61 92 (583648)
I0413 17:57:11.980615 11415 net.cpp:157] Top shape: 1 104 61 92 (583648)
I0413 17:57:11.980621 11415 net.cpp:165] Memory required for data: 3647533144
I0413 17:57:11.980628 11415 layer_factory.hpp:77] Creating layer rpn_big_loss_bbox
I0413 17:57:11.981078 11415 net.cpp:100] Creating Layer rpn_big_loss_bbox
I0413 17:57:11.981088 11415 net.cpp:434] rpn_big_loss_bbox <- rpn_big_bbox_pred_rpn_big_bbox_pred_0_split_0
I0413 17:57:11.981096 11415 net.cpp:434] rpn_big_loss_bbox <- rpn_big_anchor_target_bbox_targets
I0413 17:57:11.981103 11415 net.cpp:434] rpn_big_loss_bbox <- rpn_big_anchor_target_inside_weights
I0413 17:57:11.981112 11415 net.cpp:434] rpn_big_loss_bbox <- rpn_big_anchor_target_outside_weights
I0413 17:57:11.981124 11415 net.cpp:408] rpn_big_loss_bbox -> rpn_big_loss_bbox
I0413 17:57:11.983099 11415 net.cpp:150] Setting up rpn_big_loss_bbox
I0413 17:57:11.983134 11415 net.cpp:157] Top shape: 1 (1)
I0413 17:57:11.983137 11415 net.cpp:160]     with loss weight 1
I0413 17:57:11.983151 11415 net.cpp:165] Memory required for data: 3647533148
I0413 17:57:11.983160 11415 layer_factory.hpp:77] Creating layer proposal
I0413 17:57:11.983599 11415 net.cpp:100] Creating Layer proposal
I0413 17:57:11.983611 11415 net.cpp:434] proposal <- rpn_big_cls_prob_reshape_rpn_big_cls_prob_reshape_0_split_1
I0413 17:57:11.983620 11415 net.cpp:434] proposal <- rpn_big_bbox_pred_rpn_big_bbox_pred_0_split_1
I0413 17:57:11.983630 11415 net.cpp:434] proposal <- input_im_info_input_1_split_1
I0413 17:57:11.983644 11415 net.cpp:408] proposal -> rpn_rois
I0413 17:57:11.988415 11415 net.cpp:150] Setting up proposal
I0413 17:57:11.988435 11415 net.cpp:157] Top shape: 1 5 (5)
I0413 17:57:11.988447 11415 net.cpp:165] Memory required for data: 3647533168
I0413 17:57:11.988453 11415 layer_factory.hpp:77] Creating layer roi-data
I0413 17:57:11.988834 11415 net.cpp:100] Creating Layer roi-data
I0413 17:57:11.988845 11415 net.cpp:434] roi-data <- rpn_rois
I0413 17:57:11.988852 11415 net.cpp:434] roi-data <- input_gt_boxes_input_2_split_1
I0413 17:57:11.988869 11415 net.cpp:408] roi-data -> rois
I0413 17:57:11.988880 11415 net.cpp:408] roi-data -> labels
I0413 17:57:11.988895 11415 net.cpp:408] roi-data -> bbox_targets
I0413 17:57:11.988915 11415 net.cpp:408] roi-data -> bbox_inside_weights
I0413 17:57:11.988927 11415 net.cpp:408] roi-data -> bbox_outside_weights
I0413 17:57:11.988940 11415 net.cpp:408] roi-data -> pid_label
I0413 17:57:11.989997 11415 net.cpp:150] Setting up roi-data
I0413 17:57:11.990011 11415 net.cpp:157] Top shape: 1 5 (5)
I0413 17:57:11.990017 11415 net.cpp:157] Top shape: 1 1 (1)
I0413 17:57:11.990025 11415 net.cpp:157] Top shape: 1 8 (8)
I0413 17:57:11.990032 11415 net.cpp:157] Top shape: 1 8 (8)
I0413 17:57:11.990041 11415 net.cpp:157] Top shape: 1 8 (8)
I0413 17:57:11.990048 11415 net.cpp:157] Top shape: (0)
I0413 17:57:11.990053 11415 net.cpp:165] Memory required for data: 3647533288
I0413 17:57:11.990059 11415 layer_factory.hpp:77] Creating layer roi-pool
I0413 17:57:11.990073 11415 net.cpp:100] Creating Layer roi-pool
I0413 17:57:11.990082 11415 net.cpp:434] roi-pool <- conv5_3_relu5_3_0_split_1
I0413 17:57:11.990090 11415 net.cpp:434] roi-pool <- rois
I0413 17:57:11.990101 11415 net.cpp:408] roi-pool -> roi-pool
I0413 17:57:11.990113 11415 roi_pooling_layer.cpp:33] Spatial scale: 0.0625
I0413 17:57:11.990130 11415 roi_pooling_layer.cpp:34] Box scale: 1
I0413 17:57:11.990183 11415 net.cpp:150] Setting up roi-pool
I0413 17:57:11.990196 11415 net.cpp:157] Top shape: 1 512 7 7 (25088)
I0413 17:57:11.990202 11415 net.cpp:165] Memory required for data: 3647633640
I0413 17:57:11.990208 11415 layer_factory.hpp:77] Creating layer fc6
I0413 17:57:11.990217 11415 net.cpp:100] Creating Layer fc6
I0413 17:57:11.990224 11415 net.cpp:434] fc6 <- roi-pool
I0413 17:57:11.990236 11415 net.cpp:408] fc6 -> fc6
I0413 17:57:12.153630 11415 net.cpp:150] Setting up fc6
I0413 17:57:12.153662 11415 net.cpp:157] Top shape: 1 4096 (4096)
I0413 17:57:12.153676 11415 net.cpp:165] Memory required for data: 3647650024
I0413 17:57:12.153688 11415 net.cpp:228] fc6 does not need backward computation.
I0413 17:57:12.153693 11415 net.cpp:228] roi-pool does not need backward computation.
I0413 17:57:12.153698 11415 net.cpp:228] roi-data does not need backward computation.
I0413 17:57:12.153702 11415 net.cpp:228] proposal does not need backward computation.
…
