…
I0413 15:55:53.656399  7163 solver.cpp:48] Initializing solver from parameters: 
base_lr: 0.001
display: 20
lr_policy: "multistep"
gamma: 0.1
momentum: 0.9
weight_decay: 0.0005
snapshot: 0
snapshot_prefix: "faces_example"
net_param {
  name: "GeneratedModel_13_04_2017_15_55"
  layer {
    name: "input"
    type: "Python"
    top: "input_data"
    top: "input_im_info"
    top: "input_gt_boxes"
    top: "input_ignored_boxes"
    python_param {
      module: "layers.roi_data_layer"
      layer: "RoIDataLayer"
      param_str: "{\"num_classes\": 2}"
    }
  }
  layer {
    name: "conv1_1"
    type: "Convolution"
    bottom: "input_data"
    top: "conv1_1"
    param {
      lr_mult: 0
      decay_mult: 0
    }
    param {
      lr_mult: 0
      decay_mult: 0
    }
    convolution_param {
      num_output: 64
      pad: 1
      kernel_size: 3
    }
  }
  layer {
    name: "relu1_1"
    type: "ReLU"
    bottom: "conv1_1"
    top: "conv1_1"
  }
  layer {
    name: "conv1_2"
    type: "Convolution"
    bottom: "conv1_1"
    top: "conv1_2"
    param {
      lr_mult: 0
      decay_mult: 0
    }
    param {
      lr_mult: 0
      decay_mult: 0
    }
    convolution_param {
      num_output: 64
      pad: 1
      kernel_size: 3
    }
  }
  layer {
    name: "relu1_2"
    type: "ReLU"
    bottom: "conv1_2"
    top: "conv1_2"
  }
  layer {
    name: "pool1"
    type: "Pooling"
    bottom: "conv1_2"
    top: "pool1"
    pooling_param {
      pool: MAX
      kernel_size: 2
      stride: 2
    }
  }
  layer {
    name: "conv2_1"
    type: "Convolution"
    bottom: "pool1"
    top: "conv2_1"
    param {
      lr_mult: 0
      decay_mult: 0
    }
    param {
      lr_mult: 0
      decay_mult: 0
    }
    convolution_param {
      num_output: 128
      pad: 1
      kernel_size: 3
    }
  }
  layer {
    name: "relu2_1"
    type: "ReLU"
    bottom: "conv2_1"
    top: "conv2_1"
  }
  layer {
    name: "conv2_2"
    type: "Convolution"
    bottom: "conv2_1"
    top: "conv2_2"
    param {
      lr_mult: 0
      decay_mult: 0
    }
    param {
      lr_mult: 0
      decay_mult: 0
    }
    convolution_param {
      num_output: 128
      pad: 1
      kernel_size: 3
    }
  }
  layer {
    name: "relu2_2"
    type: "ReLU"
    bottom: "conv2_2"
    top: "conv2_2"
  }
  layer {
    name: "pool2"
    type: "Pooling"
    bottom: "conv2_2"
    top: "pool2"
    pooling_param {
      pool: MAX
      kernel_size: 2
      stride: 2
    }
  }
  layer {
    name: "conv3_1"
    type: "Convolution"
    bottom: "pool2"
    top: "conv3_1"
    param {
      lr_mult: 1
    }
    param {
      lr_mult: 2
    }
    convolution_param {
      num_output: 256
      pad: 1
      kernel_size: 3
    }
  }
  layer {
    name: "relu3_1"
    type: "ReLU"
    bottom: "conv3_1"
    top: "conv3_1"
  }
  layer {
    name: "conv3_2"
    type: "Convolution"
    bottom: "conv3_1"
    top: "conv3_2"
    param {
      lr_mult: 1
    }
    param {
      lr_mult: 2
    }
    convolution_param {
      num_output: 256
      pad: 1
      kernel_size: 3
    }
  }
  layer {
    name: "relu3_2"
    type: "ReLU"
    bottom: "conv3_2"
    top: "conv3_2"
  }
  layer {
    name: "conv3_3"
    type: "Convolution"
    bottom: "conv3_2"
    top: "conv3_3"
    param {
      lr_mult: 1
    }
    param {
      lr_mult: 2
    }
    convolution_param {
      num_output: 256
      pad: 1
      kernel_size: 3
    }
  }
  layer {
    name: "relu3_3"
    type: "ReLU"
    bottom: "conv3_3"
    top: "conv3_3"
  }
  layer {
    name: "pool3"
    type: "Pooling"
    bottom: "conv3_3"
    top: "pool3"
    pooling_param {
      pool: MAX
      kernel_size: 2
      stride: 2
    }
  }
  layer {
    name: "conv4_1"
    type: "Convolution"
    bottom: "pool3"
    top: "conv4_1"
    param {
      lr_mult: 1
    }
    param {
      lr_mult: 2
    }
    convolution_param {
      num_output: 512
      pad: 1
      kernel_size: 3
    }
  }
  layer {
    name: "relu4_1"
    type: "ReLU"
    bottom: "conv4_1"
    top: "conv4_1"
  }
  layer {
    name: "conv4_2"
    type: "Convolution"
    bottom: "conv4_1"
    top: "conv4_2"
    param {
      lr_mult: 1
    }
    param {
      lr_mult: 2
    }
    convolution_param {
      num_output: 512
      pad: 1
      kernel_size: 3
    }
  }
  layer {
    name: "relu4_2"
    type: "ReLU"
    bottom: "conv4_2"
    top: "conv4_2"
  }
  layer {
    name: "conv4_3"
    type: "Convolution"
    bottom: "conv4_2"
    top: "conv4_3"
    param {
      lr_mult: 1
    }
    param {
      lr_mult: 2
    }
    convolution_param {
      num_output: 512
      pad: 1
      kernel_size: 3
    }
  }
  layer {
    name: "relu4_3"
    type: "ReLU"
    bottom: "conv4_3"
    top: "conv4_3"
  }
  layer {
    name: "pool4"
    type: "Pooling"
    bottom: "conv4_3"
    top: "pool4"
    pooling_param {
      pool: MAX
      kernel_size: 2
      stride: 2
    }
  }
  layer {
    name: "conv5_1"
    type: "Convolution"
    bottom: "pool4"
    top: "conv5_1"
    param {
      lr_mult: 1
    }
    param {
      lr_mult: 2
    }
    convolution_param {
      num_output: 512
      pad: 1
      kernel_size: 3
    }
  }
  layer {
    name: "relu5_1"
    type: "ReLU"
    bottom: "conv5_1"
    top: "conv5_1"
  }
  layer {
    name: "conv5_2"
    type: "Convolution"
    bottom: "conv5_1"
    top: "conv5_2"
    param {
      lr_mult: 1
    }
    param {
      lr_mult: 2
    }
    convolution_param {
      num_output: 512
      pad: 1
      kernel_size: 3
    }
  }
  layer {
    name: "relu5_2"
    type: "ReLU"
    bottom: "conv5_2"
    top: "conv5_2"
  }
  layer {
    name: "conv5_3"
    type: "Convolution"
    bottom: "conv5_2"
    top: "conv5_3"
    param {
      lr_mult: 1
    }
    param {
      lr_mult: 2
    }
    convolution_param {
      num_output: 512
      pad: 1
      kernel_size: 3
    }
  }
  layer {
    name: "relu5_3"
    type: "ReLU"
    bottom: "conv5_3"
    top: "conv5_3"
  }
  layer {
    name: "rpn_big_conv1"
    type: "Convolution"
    bottom: "conv5_3"
    top: "rpn_big_conv1"
    param {
      lr_mult: 1
    }
    param {
      lr_mult: 2
    }
    convolution_param {
      num_output: 512
      pad: 1
      kernel_size: 3
      stride: 1
      weight_filler {
        type: "gaussian"
        mean: 0
        std: 0.01
      }
      bias_filler {
        type: "constant"
      }
    }
  }
  layer {
    name: "rpn_big_conv1_relu"
    type: "ReLU"
    bottom: "rpn_big_conv1"
    top: "rpn_big_conv1"
    relu_param {
      negative_slope: 0
    }
  }
  layer {
    name: "rpn_big_conv2"
    type: "Convolution"
    bottom: "rpn_big_conv1"
    top: "rpn_big_conv2"
    param {
      lr_mult: 1
    }
    param {
      lr_mult: 2
    }
    convolution_param {
      num_output: 512
      pad: 1
      kernel_size: 3
      stride: 1
      weight_filler {
        type: "gaussian"
        mean: 0
        std: 0.01
      }
      bias_filler {
        type: "constant"
      }
    }
  }
  layer {
    name: "rpn_big_conv2_relu"
    type: "ReLU"
    bottom: "rpn_big_conv2"
    top: "rpn_big_conv2"
    relu_param {
      negative_slope: 0
    }
  }
  layer {
    name: "rpn_big_conv2_drop"
    type: "Dropout"
    bottom: "rpn_big_conv2"
    top: "rpn_big_conv2"
    dropout_param {
      dropout_ratio: 0.3
    }
  }
  layer {
    name: "rpn_big_output_cls"
    type: "Convolution"
    bottom: "rpn_big_conv2"
    top: "rpn_big_output_cls"
    param {
      lr_mult: 1
    }
    param {
      lr_mult: 2
    }
    convolution_param {
      num_output: 384
      pad: 1
      kernel_size: 3
      stride: 1
      weight_filler {
        type: "gaussian"
        mean: 0
        std: 0.01
      }
      bias_filler {
        type: "constant"
      }
    }
  }
  layer {
    name: "rpn_big_output_cls_relu"
    type: "ReLU"
    bottom: "rpn_big_output_cls"
    top: "rpn_big_output_cls"
    relu_param {
      negative_slope: 0
    }
  }
  layer {
    name: "rpn_big_cls_score"
    type: "Convolution"
    bottom: "rpn_big_output_cls"
    top: "rpn_big_cls_score"
    param {
      lr_mult: 1
    }
    param {
      lr_mult: 2
    }
    convolution_param {
      num_output: 52
      pad: 0
      kernel_size: 3
      stride: 1
      weight_filler {
        type: "gaussian"
        mean: 0
        std: 0.01
      }
      bias_filler {
        type: "constant"
      }
    }
  }
  layer {
    name: "rpn_big_cls_score_reshape"
    type: "Reshape"
    bottom: "rpn_big_cls_score"
    top: "rpn_big_cls_score_reshape"
    reshape_param {
      shape {
        dim: 0
        dim: 2
        dim: -1
        dim: 0
      }
    }
  }
  layer {
    name: "rpn_big_cls_prob"
    type: "Softmax"
    bottom: "rpn_big_cls_score_reshape"
    top: "rpn_big_cls_prob"
  }
  layer {
    name: "rpn_big_cls_prob_reshape"
    type: "Reshape"
    bottom: "rpn_big_cls_prob"
    top: "rpn_big_cls_prob_reshape"
    reshape_param {
      shape {
        dim: 0
        dim: 52
        dim: -1
        dim: 0
      }
    }
  }
  layer {
    name: "rpn_big_anchor_target"
    type: "Python"
    bottom: "rpn_big_cls_score"
    bottom: "input_gt_boxes"
    bottom: "input_ignored_boxes"
    bottom: "input_im_info"
    bottom: "input_data"
    bottom: "rpn_big_cls_prob_reshape"
    top: "rpn_big_anchor_target_labels"
    top: "rpn_big_anchor_target_bbox_targets"
    top: "rpn_big_anchor_target_inside_weights"
    top: "rpn_big_anchor_target_outside_weights"
    python_param {
      module: "rpn.anchor_target_layer"
      layer: "AnchorTargetLayer"
      param_str: "{\"anchor_ratios\": [1.0], \"fg_fraction\": 0.5, \"num_classes\": 1, \"positive_overlap\": 0.6, \"anchor_shift_num_xy\": [[2, 2], [2, 2], [2, 2], [2, 2], [1, 1], [1, 1], [1, 1], [1, 1], [1, 1], [1, 1], [1, 1], [1, 1], [1, 1], [1, 1]], \"name\": \"rpn_big\", \"anchor_scales\": [2.5, 3.025, 3.66025, 4.4289024999999995, 5.358972025, 6.484356150249999, 7.846070941802498, 9.493745839581022, 11.487432465893036, 13.899793283730574, 16.818749873313998, 20.350687346709933, 24.62433168951902, 29.795441344318014], \"batchsize\": 256, \"negative_overlap\": 0.4, \"tn_fraction\": 0.2, \"square_targets\": true, \"feat_stride\": 16}"
    }
  }
  layer {
    name: "rpn_big_loss_cls"
    type: "SoftmaxWithLoss"
    bottom: "rpn_big_cls_score_reshape"
    bottom: "rpn_big_anchor_target_labels"
    top: "rpn_big_loss_cls"
    loss_weight: 1
    propagate_down: true
    propagate_down: false
    loss_param {
      ignore_label: -1
      normalization: VALID
    }
  }
  layer {
    name: "rpn_big_output_box"
    type: "Convolution"
    bottom: "rpn_big_conv2"
    top: "rpn_big_output_box"
    param {
      lr_mult: 1
    }
    param {
      lr_mult: 2
    }
    convolution_param {
      num_output: 384
      pad: 1
      kernel_size: 3
      stride: 1
      weight_filler {
        type: "gaussian"
        mean: 0
        std: 0.01
      }
      bias_filler {
        type: "constant"
      }
    }
  }
  layer {
    name: "rpn_big_output_box_relu"
    type: "ReLU"
    bottom: "rpn_big_output_box"
    top: "rpn_big_output_box"
    relu_param {
      negative_slope: 0
    }
  }
  layer {
    name: "rpn_big_bbox_pred"
    type: "Convolution"
    bottom: "rpn_big_output_box"
    top: "rpn_big_bbox_pred"
    param {
      lr_mult: 1
    }
    param {
      lr_mult: 2
    }
    convolution_param {
      num_output: 104
      pad: 0
      kernel_size: 3
      stride: 1
      weight_filler {
        type: "gaussian"
        mean: 0
        std: 0.01
      }
      bias_filler {
        type: "constant"
      }
    }
  }
  layer {
    name: "rpn_big_loss_bbox"
    type: "Python"
    bottom: "rpn_big_bbox_pred"
    bottom: "rpn_big_anchor_target_bbox_targets"
    bottom: "rpn_big_anchor_target_inside_weights"
    bottom: "rpn_big_anchor_target_outside_weights"
    top: "rpn_big_loss_bbox"
    loss_weight: 1
    python_param {
      module: "layers.smooth_l1_loss"
      layer: "SmoothL1LossLayer"
      param_str: "{\"sigma\": 3}"
    }
  }
  layer {
    name: "proposal"
    type: "Python"
    bottom: "rpn_big_cls_prob_reshape"
    bottom: "rpn_big_bbox_pred"
    bottom: "input_im_info"
    top: "rpn_rois"
    python_param {
      module: "rpn.proposal_layer"
      layer: "ProposalLayer"
      param_str: "\'feat_stride\': 16 \'scales\': !!python/tuple [4, 8, 16, 32]"
    }
  }
  layer {
    name: "MySoftMax"
    type: "SoftMax"
    bottom: "rpn_rois"
    bottom: "rpn_rois"
    top: "MySoftMax"
  }
}
average_loss: 100
stepvalue: 70000
stepvalue: 120000
iter_size: 2
I0413 15:55:53.656507  7163 solver.cpp:86] Creating training net specified in net_param.
I0413 15:55:53.657167  7163 net.cpp:58] Initializing net from parameters: 
name: "GeneratedModel_13_04_2017_15_55"
state {
  phase: TRAIN
}
layer {
  name: "input"
  type: "Python"
  top: "input_data"
  top: "input_im_info"
  top: "input_gt_boxes"
  top: "input_ignored_boxes"
  python_param {
    module: "layers.roi_data_layer"
    layer: "RoIDataLayer"
    param_str: "{\"num_classes\": 2}"
  }
}
layer {
  name: "conv1_1"
  type: "Convolution"
  bottom: "input_data"
  top: "conv1_1"
  param {
    lr_mult: 0
    decay_mult: 0
  }
  param {
    lr_mult: 0
    decay_mult: 0
  }
  convolution_param {
    num_output: 64
    pad: 1
    kernel_size: 3
  }
}
layer {
  name: "relu1_1"
  type: "ReLU"
  bottom: "conv1_1"
  top: "conv1_1"
}
layer {
  name: "conv1_2"
  type: "Convolution"
  bottom: "conv1_1"
  top: "conv1_2"
  param {
    lr_mult: 0
    decay_mult: 0
  }
  param {
    lr_mult: 0
    decay_mult: 0
  }
  convolution_param {
    num_output: 64
    pad: 1
    kernel_size: 3
  }
}
layer {
  name: "relu1_2"
  type: "ReLU"
  bottom: "conv1_2"
  top: "conv1_2"
}
layer {
  name: "pool1"
  type: "Pooling"
  bottom: "conv1_2"
  top: "pool1"
  pooling_param {
    pool: MAX
    kernel_size: 2
    stride: 2
  }
}
layer {
  name: "conv2_1"
  type: "Convolution"
  bottom: "pool1"
  top: "conv2_1"
  param {
    lr_mult: 0
    decay_mult: 0
  }
  param {
    lr_mult: 0
    decay_mult: 0
  }
  convolution_param {
    num_output: 128
    pad: 1
    kernel_size: 3
  }
}
layer {
  name: "relu2_1"
  type: "ReLU"
  bottom: "conv2_1"
  top: "conv2_1"
}
layer {
  name: "conv2_2"
  type: "Convolution"
  bottom: "conv2_1"
  top: "conv2_2"
  param {
    lr_mult: 0
    decay_mult: 0
  }
  param {
    lr_mult: 0
    decay_mult: 0
  }
  convolution_param {
    num_output: 128
    pad: 1
    kernel_size: 3
  }
}
layer {
  name: "relu2_2"
  type: "ReLU"
  bottom: "conv2_2"
  top: "conv2_2"
}
layer {
  name: "pool2"
  type: "Pooling"
  bottom: "conv2_2"
  top: "pool2"
  pooling_param {
    pool: MAX
    kernel_size: 2
    stride: 2
  }
}
layer {
  name: "conv3_1"
  type: "Convolution"
  bottom: "pool2"
  top: "conv3_1"
  param {
    lr_mult: 1
  }
  param {
    lr_mult: 2
  }
  convolution_param {
    num_output: 256
    pad: 1
    kernel_size: 3
  }
}
layer {
  name: "relu3_1"
  type: "ReLU"
  bottom: "conv3_1"
  top: "conv3_1"
}
layer {
  name: "conv3_2"
  type: "Convolution"
  bottom: "conv3_1"
  top: "conv3_2"
  param {
    lr_mult: 1
  }
  param {
    lr_mult: 2
  }
  convolution_param {
    num_output: 256
    pad: 1
    kernel_size: 3
  }
}
layer {
  name: "relu3_2"
  type: "ReLU"
  bottom: "conv3_2"
  top: "conv3_2"
}
layer {
  name: "conv3_3"
  type: "Convolution"
  bottom: "conv3_2"
  top: "conv3_3"
  param {
    lr_mult: 1
  }
  param {
    lr_mult: 2
  }
  convolution_param {
    num_output: 256
    pad: 1
    kernel_size: 3
  }
}
layer {
  name: "relu3_3"
  type: "ReLU"
  bottom: "conv3_3"
  top: "conv3_3"
}
layer {
  name: "pool3"
  type: "Pooling"
  bottom: "conv3_3"
  top: "pool3"
  pooling_param {
    pool: MAX
    kernel_size: 2
    stride: 2
  }
}
layer {
  name: "conv4_1"
  type: "Convolution"
  bottom: "pool3"
  top: "conv4_1"
  param {
    lr_mult: 1
  }
  param {
    lr_mult: 2
  }
  convolution_param {
    num_output: 512
    pad: 1
    kernel_size: 3
  }
}
layer {
  name: "relu4_1"
  type: "ReLU"
  bottom: "conv4_1"
  top: "conv4_1"
}
layer {
  name: "conv4_2"
  type: "Convolution"
  bottom: "conv4_1"
  top: "conv4_2"
  param {
    lr_mult: 1
  }
  param {
    lr_mult: 2
  }
  convolution_param {
    num_output: 512
    pad: 1
    kernel_size: 3
  }
}
layer {
  name: "relu4_2"
  type: "ReLU"
  bottom: "conv4_2"
  top: "conv4_2"
}
layer {
  name: "conv4_3"
  type: "Convolution"
  bottom: "conv4_2"
  top: "conv4_3"
  param {
    lr_mult: 1
  }
  param {
    lr_mult: 2
  }
  convolution_param {
    num_output: 512
    pad: 1
    kernel_size: 3
  }
}
layer {
  name: "relu4_3"
  type: "ReLU"
  bottom: "conv4_3"
  top: "conv4_3"
}
layer {
  name: "pool4"
  type: "Pooling"
  bottom: "conv4_3"
  top: "pool4"
  pooling_param {
    pool: MAX
    kernel_size: 2
    stride: 2
  }
}
layer {
  name: "conv5_1"
  type: "Convolution"
  bottom: "pool4"
  top: "conv5_1"
  param {
    lr_mult: 1
  }
  param {
    lr_mult: 2
  }
  convolution_param {
    num_output: 512
    pad: 1
    kernel_size: 3
  }
}
layer {
  name: "relu5_1"
  type: "ReLU"
  bottom: "conv5_1"
  top: "conv5_1"
}
layer {
  name: "conv5_2"
  type: "Convolution"
  bottom: "conv5_1"
  top: "conv5_2"
  param {
    lr_mult: 1
  }
  param {
    lr_mult: 2
  }
  convolution_param {
    num_output: 512
    pad: 1
    kernel_size: 3
  }
}
layer {
  name: "relu5_2"
  type: "ReLU"
  bottom: "conv5_2"
  top: "conv5_2"
}
layer {
  name: "conv5_3"
  type: "Convolution"
  bottom: "conv5_2"
  top: "conv5_3"
  param {
    lr_mult: 1
  }
  param {
    lr_mult: 2
  }
  convolution_param {
    num_output: 512
    pad: 1
    kernel_size: 3
  }
}
layer {
  name: "relu5_3"
  type: "ReLU"
  bottom: "conv5_3"
  top: "conv5_3"
}
layer {
  name: "rpn_big_conv1"
  type: "Convolution"
  bottom: "conv5_3"
  top: "rpn_big_conv1"
  param {
    lr_mult: 1
  }
  param {
    lr_mult: 2
  }
  convolution_param {
    num_output: 512
    pad: 1
    kernel_size: 3
    stride: 1
    weight_filler {
      type: "gaussian"
      mean: 0
      std: 0.01
    }
    bias_filler {
      type: "constant"
    }
  }
}
layer {
  name: "rpn_big_conv1_relu"
  type: "ReLU"
  bottom: "rpn_big_conv1"
  top: "rpn_big_conv1"
  relu_param {
    negative_slope: 0
  }
}
layer {
  name: "rpn_big_conv2"
  type: "Convolution"
  bottom: "rpn_big_conv1"
  top: "rpn_big_conv2"
  param {
    lr_mult: 1
  }
  param {
    lr_mult: 2
  }
  convolution_param {
    num_output: 512
    pad: 1
    kernel_size: 3
    stride: 1
    weight_filler {
      type: "gaussian"
      mean: 0
      std: 0.01
    }
    bias_filler {
      type: "constant"
    }
  }
}
layer {
  name: "rpn_big_conv2_relu"
  type: "ReLU"
  bottom: "rpn_big_conv2"
  top: "rpn_big_conv2"
  relu_param {
    negative_slope: 0
  }
}
layer {
  name: "rpn_big_conv2_drop"
  type: "Dropout"
  bottom: "rpn_big_conv2"
  top: "rpn_big_conv2"
  dropout_param {
    dropout_ratio: 0.3
  }
}
layer {
  name: "rpn_big_output_cls"
  type: "Convolution"
  bottom: "rpn_big_conv2"
  top: "rpn_big_output_cls"
  param {
    lr_mult: 1
  }
  param {
    lr_mult: 2
  }
  convolution_param {
    num_output: 384
    pad: 1
    kernel_size: 3
    stride: 1
    weight_filler {
      type: "gaussian"
      mean: 0
      std: 0.01
    }
    bias_filler {
      type: "constant"
    }
  }
}
layer {
  name: "rpn_big_output_cls_relu"
  type: "ReLU"
  bottom: "rpn_big_output_cls"
  top: "rpn_big_output_cls"
  relu_param {
    negative_slope: 0
  }
}
layer {
  name: "rpn_big_cls_score"
  type: "Convolution"
  bottom: "rpn_big_output_cls"
  top: "rpn_big_cls_score"
  param {
    lr_mult: 1
  }
  param {
    lr_mult: 2
  }
  convolution_param {
    num_output: 52
    pad: 0
    kernel_size: 3
    stride: 1
    weight_filler {
      type: "gaussian"
      mean: 0
      std: 0.01
    }
    bias_filler {
      type: "constant"
    }
  }
}
layer {
  name: "rpn_big_cls_score_reshape"
  type: "Reshape"
  bottom: "rpn_big_cls_score"
  top: "rpn_big_cls_score_reshape"
  reshape_param {
    shape {
      dim: 0
      dim: 2
      dim: -1
      dim: 0
    }
  }
}
layer {
  name: "rpn_big_cls_prob"
  type: "Softmax"
  bottom: "rpn_big_cls_score_reshape"
  top: "rpn_big_cls_prob"
}
layer {
  name: "rpn_big_cls_prob_reshape"
  type: "Reshape"
  bottom: "rpn_big_cls_prob"
  top: "rpn_big_cls_prob_reshape"
  reshape_param {
    shape {
      dim: 0
      dim: 52
      dim: -1
      dim: 0
    }
  }
}
layer {
  name: "rpn_big_anchor_target"
  type: "Python"
  bottom: "rpn_big_cls_score"
  bottom: "input_gt_boxes"
  bottom: "input_ignored_boxes"
  bottom: "input_im_info"
  bottom: "input_data"
  bottom: "rpn_big_cls_prob_reshape"
  top: "rpn_big_anchor_target_labels"
  top: "rpn_big_anchor_target_bbox_targets"
  top: "rpn_big_anchor_target_inside_weights"
  top: "rpn_big_anchor_target_outside_weights"
  python_param {
    module: "rpn.anchor_target_layer"
    layer: "AnchorTargetLayer"
    param_str: "{\"anchor_ratios\": [1.0], \"fg_fraction\": 0.5, \"num_classes\": 1, \"positive_overlap\": 0.6, \"anchor_shift_num_xy\": [[2, 2], [2, 2], [2, 2], [2, 2], [1, 1], [1, 1], [1, 1], [1, 1], [1, 1], [1, 1], [1, 1], [1, 1], [1, 1], [1, 1]], \"name\": \"rpn_big\", \"anchor_scales\": [2.5, 3.025, 3.66025, 4.4289024999999995, 5.358972025, 6.484356150249999, 7.846070941802498, 9.493745839581022, 11.487432465893036, 13.899793283730574, 16.818749873313998, 20.350687346709933, 24.62433168951902, 29.795441344318014], \"batchsize\": 256, \"negative_overlap\": 0.4, \"tn_fraction\": 0.2, \"square_targets\": true, \"feat_stride\": 16}"
  }
}
layer {
  name: "rpn_big_loss_cls"
  type: "SoftmaxWithLoss"
  bottom: "rpn_big_cls_score_reshape"
  bottom: "rpn_big_anchor_target_labels"
  top: "rpn_big_loss_cls"
  loss_weight: 1
  propagate_down: true
  propagate_down: false
  loss_param {
    ignore_label: -1
    normalization: VALID
  }
}
layer {
  name: "rpn_big_output_box"
  type: "Convolution"
  bottom: "rpn_big_conv2"
  top: "rpn_big_output_box"
  param {
    lr_mult: 1
  }
  param {
    lr_mult: 2
  }
  convolution_param {
    num_output: 384
    pad: 1
    kernel_size: 3
    stride: 1
    weight_filler {
      type: "gaussian"
      mean: 0
      std: 0.01
    }
    bias_filler {
      type: "constant"
    }
  }
}
layer {
  name: "rpn_big_output_box_relu"
  type: "ReLU"
  bottom: "rpn_big_output_box"
  top: "rpn_big_output_box"
  relu_param {
    negative_slope: 0
  }
}
layer {
  name: "rpn_big_bbox_pred"
  type: "Convolution"
  bottom: "rpn_big_output_box"
  top: "rpn_big_bbox_pred"
  param {
    lr_mult: 1
  }
  param {
    lr_mult: 2
  }
  convolution_param {
    num_output: 104
    pad: 0
    kernel_size: 3
    stride: 1
    weight_filler {
      type: "gaussian"
      mean: 0
      std: 0.01
    }
    bias_filler {
      type: "constant"
    }
  }
}
layer {
  name: "rpn_big_loss_bbox"
  type: "Python"
  bottom: "rpn_big_bbox_pred"
  bottom: "rpn_big_anchor_target_bbox_targets"
  bottom: "rpn_big_anchor_target_inside_weights"
  bottom: "rpn_big_anchor_target_outside_weights"
  top: "rpn_big_loss_bbox"
  loss_weight: 1
  python_param {
    module: "layers.smooth_l1_loss"
    layer: "SmoothL1LossLayer"
    param_str: "{\"sigma\": 3}"
  }
}
layer {
  name: "proposal"
  type: "Python"
  bottom: "rpn_big_cls_prob_reshape"
  bottom: "rpn_big_bbox_pred"
  bottom: "input_im_info"
  top: "rpn_rois"
  python_param {
    module: "rpn.proposal_layer"
    layer: "ProposalLayer"
    param_str: "\'feat_stride\': 16 \'scales\': !!python/tuple [4, 8, 16, 32]"
  }
}
layer {
  name: "MySoftMax"
  type: "SoftMax"
  bottom: "rpn_rois"
  bottom: "rpn_rois"
  top: "MySoftMax"
}
I0413 15:55:53.657467  7163 layer_factory.hpp:77] Creating layer input
I0413 15:55:53.658836  7163 net.cpp:100] Creating Layer input
I0413 15:55:53.658856  7163 net.cpp:408] input -> input_data
I0413 15:55:53.658876  7163 net.cpp:408] input -> input_im_info
I0413 15:55:53.658890  7163 net.cpp:408] input -> input_gt_boxes
I0413 15:55:53.658900  7163 net.cpp:408] input -> input_ignored_boxes
RoiDataLayer: name_to_top: {'data': 0, 'im_info': 1, 'ignored_boxes': 3, 'gt_boxes': 2}
I0413 15:55:53.975625  7163 net.cpp:150] Setting up input
I0413 15:55:53.975658  7163 net.cpp:157] Top shape: 1 3 1000 1500 (4500000)
I0413 15:55:53.975667  7163 net.cpp:157] Top shape: 1 3 (3)
I0413 15:55:53.975674  7163 net.cpp:157] Top shape: 1 5 (5)
I0413 15:55:53.975679  7163 net.cpp:157] Top shape: 1 5 (5)
I0413 15:55:53.975684  7163 net.cpp:165] Memory required for data: 18000052
I0413 15:55:53.975693  7163 layer_factory.hpp:77] Creating layer input_data_input_0_split
I0413 15:55:53.975710  7163 net.cpp:100] Creating Layer input_data_input_0_split
I0413 15:55:53.975716  7163 net.cpp:434] input_data_input_0_split <- input_data
I0413 15:55:53.975733  7163 net.cpp:408] input_data_input_0_split -> input_data_input_0_split_0
I0413 15:55:53.975750  7163 net.cpp:408] input_data_input_0_split -> input_data_input_0_split_1
I0413 15:55:53.975811  7163 net.cpp:150] Setting up input_data_input_0_split
I0413 15:55:53.975822  7163 net.cpp:157] Top shape: 1 3 1000 1500 (4500000)
I0413 15:55:53.975831  7163 net.cpp:157] Top shape: 1 3 1000 1500 (4500000)
I0413 15:55:53.975838  7163 net.cpp:165] Memory required for data: 54000052
I0413 15:55:53.975845  7163 layer_factory.hpp:77] Creating layer input_im_info_input_1_split
I0413 15:55:53.975860  7163 net.cpp:100] Creating Layer input_im_info_input_1_split
I0413 15:55:53.975869  7163 net.cpp:434] input_im_info_input_1_split <- input_im_info
I0413 15:55:53.975878  7163 net.cpp:408] input_im_info_input_1_split -> input_im_info_input_1_split_0
I0413 15:55:53.975889  7163 net.cpp:408] input_im_info_input_1_split -> input_im_info_input_1_split_1
I0413 15:55:53.975927  7163 net.cpp:150] Setting up input_im_info_input_1_split
I0413 15:55:53.975936  7163 net.cpp:157] Top shape: 1 3 (3)
I0413 15:55:53.975944  7163 net.cpp:157] Top shape: 1 3 (3)
I0413 15:55:53.975950  7163 net.cpp:165] Memory required for data: 54000076
I0413 15:55:53.975956  7163 layer_factory.hpp:77] Creating layer conv1_1
I0413 15:55:53.975972  7163 net.cpp:100] Creating Layer conv1_1
I0413 15:55:53.975978  7163 net.cpp:434] conv1_1 <- input_data_input_0_split_0
I0413 15:55:53.975991  7163 net.cpp:408] conv1_1 -> conv1_1
I0413 15:55:53.979097  7163 net.cpp:150] Setting up conv1_1
I0413 15:55:53.979140  7163 net.cpp:157] Top shape: 1 64 1000 1500 (96000000)
I0413 15:55:53.979145  7163 net.cpp:165] Memory required for data: 438000076
I0413 15:55:53.979169  7163 layer_factory.hpp:77] Creating layer relu1_1
I0413 15:55:53.979188  7163 net.cpp:100] Creating Layer relu1_1
I0413 15:55:53.979197  7163 net.cpp:434] relu1_1 <- conv1_1
I0413 15:55:53.979212  7163 net.cpp:395] relu1_1 -> conv1_1 (in-place)
I0413 15:55:53.979228  7163 net.cpp:150] Setting up relu1_1
I0413 15:55:53.979238  7163 net.cpp:157] Top shape: 1 64 1000 1500 (96000000)
I0413 15:55:53.979245  7163 net.cpp:165] Memory required for data: 822000076
I0413 15:55:53.979251  7163 layer_factory.hpp:77] Creating layer conv1_2
I0413 15:55:53.979269  7163 net.cpp:100] Creating Layer conv1_2
I0413 15:55:53.979275  7163 net.cpp:434] conv1_2 <- conv1_1
I0413 15:55:53.979285  7163 net.cpp:408] conv1_2 -> conv1_2
I0413 15:55:53.982539  7163 net.cpp:150] Setting up conv1_2
I0413 15:55:53.982579  7163 net.cpp:157] Top shape: 1 64 1000 1500 (96000000)
I0413 15:55:53.982585  7163 net.cpp:165] Memory required for data: 1206000076
I0413 15:55:53.982609  7163 layer_factory.hpp:77] Creating layer relu1_2
I0413 15:55:53.982626  7163 net.cpp:100] Creating Layer relu1_2
I0413 15:55:53.982643  7163 net.cpp:434] relu1_2 <- conv1_2
I0413 15:55:53.982656  7163 net.cpp:395] relu1_2 -> conv1_2 (in-place)
I0413 15:55:53.982674  7163 net.cpp:150] Setting up relu1_2
I0413 15:55:53.982686  7163 net.cpp:157] Top shape: 1 64 1000 1500 (96000000)
I0413 15:55:53.982693  7163 net.cpp:165] Memory required for data: 1590000076
I0413 15:55:53.982699  7163 layer_factory.hpp:77] Creating layer pool1
I0413 15:55:53.982712  7163 net.cpp:100] Creating Layer pool1
I0413 15:55:53.982720  7163 net.cpp:434] pool1 <- conv1_2
I0413 15:55:53.982733  7163 net.cpp:408] pool1 -> pool1
I0413 15:55:53.982823  7163 net.cpp:150] Setting up pool1
I0413 15:55:53.982837  7163 net.cpp:157] Top shape: 1 64 500 750 (24000000)
I0413 15:55:53.982846  7163 net.cpp:165] Memory required for data: 1686000076
I0413 15:55:53.982853  7163 layer_factory.hpp:77] Creating layer conv2_1
I0413 15:55:53.982875  7163 net.cpp:100] Creating Layer conv2_1
I0413 15:55:53.982887  7163 net.cpp:434] conv2_1 <- pool1
I0413 15:55:53.982897  7163 net.cpp:408] conv2_1 -> conv2_1
I0413 15:55:53.984252  7163 net.cpp:150] Setting up conv2_1
I0413 15:55:53.984275  7163 net.cpp:157] Top shape: 1 128 500 750 (48000000)
I0413 15:55:53.984282  7163 net.cpp:165] Memory required for data: 1878000076
I0413 15:55:53.984299  7163 layer_factory.hpp:77] Creating layer relu2_1
I0413 15:55:53.984316  7163 net.cpp:100] Creating Layer relu2_1
I0413 15:55:53.984326  7163 net.cpp:434] relu2_1 <- conv2_1
I0413 15:55:53.984338  7163 net.cpp:395] relu2_1 -> conv2_1 (in-place)
I0413 15:55:53.984350  7163 net.cpp:150] Setting up relu2_1
I0413 15:55:53.984361  7163 net.cpp:157] Top shape: 1 128 500 750 (48000000)
I0413 15:55:53.984369  7163 net.cpp:165] Memory required for data: 2070000076
I0413 15:55:53.984375  7163 layer_factory.hpp:77] Creating layer conv2_2
I0413 15:55:53.984395  7163 net.cpp:100] Creating Layer conv2_2
I0413 15:55:53.984405  7163 net.cpp:434] conv2_2 <- conv2_1
I0413 15:55:53.984416  7163 net.cpp:408] conv2_2 -> conv2_2
I0413 15:55:53.985488  7163 net.cpp:150] Setting up conv2_2
I0413 15:55:53.985515  7163 net.cpp:157] Top shape: 1 128 500 750 (48000000)
I0413 15:55:53.985522  7163 net.cpp:165] Memory required for data: 2262000076
I0413 15:55:53.985535  7163 layer_factory.hpp:77] Creating layer relu2_2
I0413 15:55:53.985549  7163 net.cpp:100] Creating Layer relu2_2
I0413 15:55:53.985558  7163 net.cpp:434] relu2_2 <- conv2_2
I0413 15:55:53.985569  7163 net.cpp:395] relu2_2 -> conv2_2 (in-place)
I0413 15:55:53.985581  7163 net.cpp:150] Setting up relu2_2
I0413 15:55:53.985590  7163 net.cpp:157] Top shape: 1 128 500 750 (48000000)
I0413 15:55:53.985597  7163 net.cpp:165] Memory required for data: 2454000076
I0413 15:55:53.985602  7163 layer_factory.hpp:77] Creating layer pool2
I0413 15:55:53.985611  7163 net.cpp:100] Creating Layer pool2
I0413 15:55:53.985617  7163 net.cpp:434] pool2 <- conv2_2
I0413 15:55:53.985627  7163 net.cpp:408] pool2 -> pool2
I0413 15:55:53.985687  7163 net.cpp:150] Setting up pool2
I0413 15:55:53.985697  7163 net.cpp:157] Top shape: 1 128 250 375 (12000000)
I0413 15:55:53.985703  7163 net.cpp:165] Memory required for data: 2502000076
I0413 15:55:53.985708  7163 layer_factory.hpp:77] Creating layer conv3_1
I0413 15:55:53.985723  7163 net.cpp:100] Creating Layer conv3_1
I0413 15:55:53.985730  7163 net.cpp:434] conv3_1 <- pool2
I0413 15:55:53.985740  7163 net.cpp:408] conv3_1 -> conv3_1
I0413 15:55:53.986992  7163 net.cpp:150] Setting up conv3_1
I0413 15:55:53.987018  7163 net.cpp:157] Top shape: 1 256 250 375 (24000000)
I0413 15:55:53.987021  7163 net.cpp:165] Memory required for data: 2598000076
I0413 15:55:53.987040  7163 layer_factory.hpp:77] Creating layer relu3_1
I0413 15:55:53.987056  7163 net.cpp:100] Creating Layer relu3_1
I0413 15:55:53.987063  7163 net.cpp:434] relu3_1 <- conv3_1
I0413 15:55:53.987073  7163 net.cpp:395] relu3_1 -> conv3_1 (in-place)
I0413 15:55:53.987087  7163 net.cpp:150] Setting up relu3_1
I0413 15:55:53.987095  7163 net.cpp:157] Top shape: 1 256 250 375 (24000000)
I0413 15:55:53.987102  7163 net.cpp:165] Memory required for data: 2694000076
I0413 15:55:53.987107  7163 layer_factory.hpp:77] Creating layer conv3_2
I0413 15:55:53.987119  7163 net.cpp:100] Creating Layer conv3_2
I0413 15:55:53.987126  7163 net.cpp:434] conv3_2 <- conv3_1
I0413 15:55:53.987136  7163 net.cpp:408] conv3_2 -> conv3_2
I0413 15:55:53.988423  7163 net.cpp:150] Setting up conv3_2
I0413 15:55:53.988450  7163 net.cpp:157] Top shape: 1 256 250 375 (24000000)
I0413 15:55:53.988453  7163 net.cpp:165] Memory required for data: 2790000076
I0413 15:55:53.988464  7163 layer_factory.hpp:77] Creating layer relu3_2
I0413 15:55:53.988482  7163 net.cpp:100] Creating Layer relu3_2
I0413 15:55:53.988492  7163 net.cpp:434] relu3_2 <- conv3_2
I0413 15:55:53.988502  7163 net.cpp:395] relu3_2 -> conv3_2 (in-place)
I0413 15:55:53.988517  7163 net.cpp:150] Setting up relu3_2
I0413 15:55:53.988525  7163 net.cpp:157] Top shape: 1 256 250 375 (24000000)
I0413 15:55:53.988531  7163 net.cpp:165] Memory required for data: 2886000076
I0413 15:55:53.988538  7163 layer_factory.hpp:77] Creating layer conv3_3
I0413 15:55:53.988548  7163 net.cpp:100] Creating Layer conv3_3
I0413 15:55:53.988555  7163 net.cpp:434] conv3_3 <- conv3_2
I0413 15:55:53.988569  7163 net.cpp:408] conv3_3 -> conv3_3
I0413 15:55:53.990272  7163 net.cpp:150] Setting up conv3_3
I0413 15:55:53.990304  7163 net.cpp:157] Top shape: 1 256 250 375 (24000000)
I0413 15:55:53.990308  7163 net.cpp:165] Memory required for data: 2982000076
I0413 15:55:53.990319  7163 layer_factory.hpp:77] Creating layer relu3_3
I0413 15:55:53.990330  7163 net.cpp:100] Creating Layer relu3_3
I0413 15:55:53.990335  7163 net.cpp:434] relu3_3 <- conv3_3
I0413 15:55:53.990342  7163 net.cpp:395] relu3_3 -> conv3_3 (in-place)
I0413 15:55:53.990352  7163 net.cpp:150] Setting up relu3_3
I0413 15:55:53.990356  7163 net.cpp:157] Top shape: 1 256 250 375 (24000000)
I0413 15:55:53.990360  7163 net.cpp:165] Memory required for data: 3078000076
I0413 15:55:53.990362  7163 layer_factory.hpp:77] Creating layer pool3
I0413 15:55:53.990368  7163 net.cpp:100] Creating Layer pool3
I0413 15:55:53.990371  7163 net.cpp:434] pool3 <- conv3_3
I0413 15:55:53.990377  7163 net.cpp:408] pool3 -> pool3
I0413 15:55:53.990425  7163 net.cpp:150] Setting up pool3
I0413 15:55:53.990432  7163 net.cpp:157] Top shape: 1 256 125 188 (6016000)
I0413 15:55:53.990434  7163 net.cpp:165] Memory required for data: 3102064076
I0413 15:55:53.990437  7163 layer_factory.hpp:77] Creating layer conv4_1
I0413 15:55:53.990447  7163 net.cpp:100] Creating Layer conv4_1
I0413 15:55:53.990452  7163 net.cpp:434] conv4_1 <- pool3
I0413 15:55:53.990456  7163 net.cpp:408] conv4_1 -> conv4_1
I0413 15:55:53.993413  7163 net.cpp:150] Setting up conv4_1
I0413 15:55:53.993445  7163 net.cpp:157] Top shape: 1 512 125 188 (12032000)
I0413 15:55:53.993449  7163 net.cpp:165] Memory required for data: 3150192076
I0413 15:55:53.993461  7163 layer_factory.hpp:77] Creating layer relu4_1
I0413 15:55:53.993476  7163 net.cpp:100] Creating Layer relu4_1
I0413 15:55:53.993485  7163 net.cpp:434] relu4_1 <- conv4_1
I0413 15:55:53.993496  7163 net.cpp:395] relu4_1 -> conv4_1 (in-place)
I0413 15:55:53.993510  7163 net.cpp:150] Setting up relu4_1
I0413 15:55:53.993517  7163 net.cpp:157] Top shape: 1 512 125 188 (12032000)
I0413 15:55:53.993521  7163 net.cpp:165] Memory required for data: 3198320076
I0413 15:55:53.993527  7163 layer_factory.hpp:77] Creating layer conv4_2
I0413 15:55:53.993542  7163 net.cpp:100] Creating Layer conv4_2
I0413 15:55:53.993547  7163 net.cpp:434] conv4_2 <- conv4_1
I0413 15:55:53.993556  7163 net.cpp:408] conv4_2 -> conv4_2
I0413 15:55:53.998028  7163 net.cpp:150] Setting up conv4_2
I0413 15:55:53.998061  7163 net.cpp:157] Top shape: 1 512 125 188 (12032000)
I0413 15:55:53.998065  7163 net.cpp:165] Memory required for data: 3246448076
I0413 15:55:53.998083  7163 layer_factory.hpp:77] Creating layer relu4_2
I0413 15:55:53.998105  7163 net.cpp:100] Creating Layer relu4_2
I0413 15:55:53.998112  7163 net.cpp:434] relu4_2 <- conv4_2
I0413 15:55:53.998126  7163 net.cpp:395] relu4_2 -> conv4_2 (in-place)
I0413 15:55:53.998141  7163 net.cpp:150] Setting up relu4_2
I0413 15:55:53.998148  7163 net.cpp:157] Top shape: 1 512 125 188 (12032000)
I0413 15:55:53.998152  7163 net.cpp:165] Memory required for data: 3294576076
I0413 15:55:53.998158  7163 layer_factory.hpp:77] Creating layer conv4_3
I0413 15:55:53.998169  7163 net.cpp:100] Creating Layer conv4_3
I0413 15:55:53.998175  7163 net.cpp:434] conv4_3 <- conv4_2
I0413 15:55:53.998188  7163 net.cpp:408] conv4_3 -> conv4_3
I0413 15:55:54.002610  7163 net.cpp:150] Setting up conv4_3
I0413 15:55:54.002646  7163 net.cpp:157] Top shape: 1 512 125 188 (12032000)
I0413 15:55:54.002650  7163 net.cpp:165] Memory required for data: 3342704076
I0413 15:55:54.002660  7163 layer_factory.hpp:77] Creating layer relu4_3
I0413 15:55:54.002673  7163 net.cpp:100] Creating Layer relu4_3
I0413 15:55:54.002681  7163 net.cpp:434] relu4_3 <- conv4_3
I0413 15:55:54.002691  7163 net.cpp:395] relu4_3 -> conv4_3 (in-place)
I0413 15:55:54.002706  7163 net.cpp:150] Setting up relu4_3
I0413 15:55:54.002712  7163 net.cpp:157] Top shape: 1 512 125 188 (12032000)
I0413 15:55:54.002717  7163 net.cpp:165] Memory required for data: 3390832076
I0413 15:55:54.002722  7163 layer_factory.hpp:77] Creating layer pool4
I0413 15:55:54.002733  7163 net.cpp:100] Creating Layer pool4
I0413 15:55:54.002739  7163 net.cpp:434] pool4 <- conv4_3
I0413 15:55:54.002748  7163 net.cpp:408] pool4 -> pool4
I0413 15:55:54.002799  7163 net.cpp:150] Setting up pool4
I0413 15:55:54.002810  7163 net.cpp:157] Top shape: 1 512 63 94 (3032064)
I0413 15:55:54.002816  7163 net.cpp:165] Memory required for data: 3402960332
I0413 15:55:54.002822  7163 layer_factory.hpp:77] Creating layer conv5_1
I0413 15:55:54.002837  7163 net.cpp:100] Creating Layer conv5_1
I0413 15:55:54.002846  7163 net.cpp:434] conv5_1 <- pool4
I0413 15:55:54.002856  7163 net.cpp:408] conv5_1 -> conv5_1
I0413 15:55:54.007694  7163 net.cpp:150] Setting up conv5_1
I0413 15:55:54.007730  7163 net.cpp:157] Top shape: 1 512 63 94 (3032064)
I0413 15:55:54.007742  7163 net.cpp:165] Memory required for data: 3415088588
I0413 15:55:54.007752  7163 layer_factory.hpp:77] Creating layer relu5_1
I0413 15:55:54.007762  7163 net.cpp:100] Creating Layer relu5_1
I0413 15:55:54.007768  7163 net.cpp:434] relu5_1 <- conv5_1
I0413 15:55:54.007776  7163 net.cpp:395] relu5_1 -> conv5_1 (in-place)
I0413 15:55:54.007788  7163 net.cpp:150] Setting up relu5_1
I0413 15:55:54.007796  7163 net.cpp:157] Top shape: 1 512 63 94 (3032064)
I0413 15:55:54.007800  7163 net.cpp:165] Memory required for data: 3427216844
I0413 15:55:54.007804  7163 layer_factory.hpp:77] Creating layer conv5_2
I0413 15:55:54.007819  7163 net.cpp:100] Creating Layer conv5_2
I0413 15:55:54.007827  7163 net.cpp:434] conv5_2 <- conv5_1
I0413 15:55:54.007835  7163 net.cpp:408] conv5_2 -> conv5_2
I0413 15:55:54.012665  7163 net.cpp:150] Setting up conv5_2
I0413 15:55:54.012708  7163 net.cpp:157] Top shape: 1 512 63 94 (3032064)
I0413 15:55:54.012712  7163 net.cpp:165] Memory required for data: 3439345100
I0413 15:55:54.012722  7163 layer_factory.hpp:77] Creating layer relu5_2
I0413 15:55:54.012732  7163 net.cpp:100] Creating Layer relu5_2
I0413 15:55:54.012738  7163 net.cpp:434] relu5_2 <- conv5_2
I0413 15:55:54.012748  7163 net.cpp:395] relu5_2 -> conv5_2 (in-place)
I0413 15:55:54.012756  7163 net.cpp:150] Setting up relu5_2
I0413 15:55:54.012761  7163 net.cpp:157] Top shape: 1 512 63 94 (3032064)
I0413 15:55:54.012764  7163 net.cpp:165] Memory required for data: 3451473356
I0413 15:55:54.012768  7163 layer_factory.hpp:77] Creating layer conv5_3
I0413 15:55:54.012776  7163 net.cpp:100] Creating Layer conv5_3
I0413 15:55:54.012794  7163 net.cpp:434] conv5_3 <- conv5_2
I0413 15:55:54.012799  7163 net.cpp:408] conv5_3 -> conv5_3
I0413 15:55:54.017299  7163 net.cpp:150] Setting up conv5_3
I0413 15:55:54.017334  7163 net.cpp:157] Top shape: 1 512 63 94 (3032064)
I0413 15:55:54.017348  7163 net.cpp:165] Memory required for data: 3463601612
I0413 15:55:54.017359  7163 layer_factory.hpp:77] Creating layer relu5_3
I0413 15:55:54.017376  7163 net.cpp:100] Creating Layer relu5_3
I0413 15:55:54.017381  7163 net.cpp:434] relu5_3 <- conv5_3
I0413 15:55:54.017390  7163 net.cpp:395] relu5_3 -> conv5_3 (in-place)
I0413 15:55:54.017403  7163 net.cpp:150] Setting up relu5_3
I0413 15:55:54.017411  7163 net.cpp:157] Top shape: 1 512 63 94 (3032064)
I0413 15:55:54.017419  7163 net.cpp:165] Memory required for data: 3475729868
I0413 15:55:54.017426  7163 layer_factory.hpp:77] Creating layer rpn_big_conv1
I0413 15:55:54.017441  7163 net.cpp:100] Creating Layer rpn_big_conv1
I0413 15:55:54.017448  7163 net.cpp:434] rpn_big_conv1 <- conv5_3
I0413 15:55:54.017462  7163 net.cpp:408] rpn_big_conv1 -> rpn_big_conv1
I0413 15:55:54.043031  7163 net.cpp:150] Setting up rpn_big_conv1
I0413 15:55:54.043061  7163 net.cpp:157] Top shape: 1 512 63 94 (3032064)
I0413 15:55:54.043074  7163 net.cpp:165] Memory required for data: 3487858124
I0413 15:55:54.043085  7163 layer_factory.hpp:77] Creating layer rpn_big_conv1_relu
I0413 15:55:54.043095  7163 net.cpp:100] Creating Layer rpn_big_conv1_relu
I0413 15:55:54.043100  7163 net.cpp:434] rpn_big_conv1_relu <- rpn_big_conv1
I0413 15:55:54.043112  7163 net.cpp:395] rpn_big_conv1_relu -> rpn_big_conv1 (in-place)
I0413 15:55:54.043124  7163 net.cpp:150] Setting up rpn_big_conv1_relu
I0413 15:55:54.043134  7163 net.cpp:157] Top shape: 1 512 63 94 (3032064)
I0413 15:55:54.043139  7163 net.cpp:165] Memory required for data: 3499986380
I0413 15:55:54.043144  7163 layer_factory.hpp:77] Creating layer rpn_big_conv2
I0413 15:55:54.043160  7163 net.cpp:100] Creating Layer rpn_big_conv2
I0413 15:55:54.043169  7163 net.cpp:434] rpn_big_conv2 <- rpn_big_conv1
I0413 15:55:54.043179  7163 net.cpp:408] rpn_big_conv2 -> rpn_big_conv2
I0413 15:55:54.071208  7163 net.cpp:150] Setting up rpn_big_conv2
I0413 15:55:54.071236  7163 net.cpp:157] Top shape: 1 512 63 94 (3032064)
I0413 15:55:54.071249  7163 net.cpp:165] Memory required for data: 3512114636
I0413 15:55:54.071259  7163 layer_factory.hpp:77] Creating layer rpn_big_conv2_relu
I0413 15:55:54.071270  7163 net.cpp:100] Creating Layer rpn_big_conv2_relu
I0413 15:55:54.071276  7163 net.cpp:434] rpn_big_conv2_relu <- rpn_big_conv2
I0413 15:55:54.071288  7163 net.cpp:395] rpn_big_conv2_relu -> rpn_big_conv2 (in-place)
I0413 15:55:54.071302  7163 net.cpp:150] Setting up rpn_big_conv2_relu
I0413 15:55:54.071310  7163 net.cpp:157] Top shape: 1 512 63 94 (3032064)
I0413 15:55:54.071316  7163 net.cpp:165] Memory required for data: 3524242892
I0413 15:55:54.071321  7163 layer_factory.hpp:77] Creating layer rpn_big_conv2_drop
I0413 15:55:54.071329  7163 net.cpp:100] Creating Layer rpn_big_conv2_drop
I0413 15:55:54.071337  7163 net.cpp:434] rpn_big_conv2_drop <- rpn_big_conv2
I0413 15:55:54.071344  7163 net.cpp:395] rpn_big_conv2_drop -> rpn_big_conv2 (in-place)
I0413 15:55:54.071378  7163 net.cpp:150] Setting up rpn_big_conv2_drop
I0413 15:55:54.071388  7163 net.cpp:157] Top shape: 1 512 63 94 (3032064)
I0413 15:55:54.071393  7163 net.cpp:165] Memory required for data: 3536371148
I0413 15:55:54.071400  7163 layer_factory.hpp:77] Creating layer rpn_big_conv2_rpn_big_conv2_drop_0_split
I0413 15:55:54.071414  7163 net.cpp:100] Creating Layer rpn_big_conv2_rpn_big_conv2_drop_0_split
I0413 15:55:54.071420  7163 net.cpp:434] rpn_big_conv2_rpn_big_conv2_drop_0_split <- rpn_big_conv2
I0413 15:55:54.071429  7163 net.cpp:408] rpn_big_conv2_rpn_big_conv2_drop_0_split -> rpn_big_conv2_rpn_big_conv2_drop_0_split_0
I0413 15:55:54.071440  7163 net.cpp:408] rpn_big_conv2_rpn_big_conv2_drop_0_split -> rpn_big_conv2_rpn_big_conv2_drop_0_split_1
I0413 15:55:54.071490  7163 net.cpp:150] Setting up rpn_big_conv2_rpn_big_conv2_drop_0_split
I0413 15:55:54.071501  7163 net.cpp:157] Top shape: 1 512 63 94 (3032064)
I0413 15:55:54.071507  7163 net.cpp:157] Top shape: 1 512 63 94 (3032064)
I0413 15:55:54.071514  7163 net.cpp:165] Memory required for data: 3560627660
I0413 15:55:54.071521  7163 layer_factory.hpp:77] Creating layer rpn_big_output_cls
I0413 15:55:54.071538  7163 net.cpp:100] Creating Layer rpn_big_output_cls
I0413 15:55:54.071547  7163 net.cpp:434] rpn_big_output_cls <- rpn_big_conv2_rpn_big_conv2_drop_0_split_0
I0413 15:55:54.071557  7163 net.cpp:408] rpn_big_output_cls -> rpn_big_output_cls
I0413 15:55:54.091684  7163 net.cpp:150] Setting up rpn_big_output_cls
I0413 15:55:54.091717  7163 net.cpp:157] Top shape: 1 384 63 94 (2274048)
I0413 15:55:54.091720  7163 net.cpp:165] Memory required for data: 3569723852
I0413 15:55:54.091732  7163 layer_factory.hpp:77] Creating layer rpn_big_output_cls_relu
I0413 15:55:54.091744  7163 net.cpp:100] Creating Layer rpn_big_output_cls_relu
I0413 15:55:54.091753  7163 net.cpp:434] rpn_big_output_cls_relu <- rpn_big_output_cls
I0413 15:55:54.091764  7163 net.cpp:395] rpn_big_output_cls_relu -> rpn_big_output_cls (in-place)
I0413 15:55:54.091779  7163 net.cpp:150] Setting up rpn_big_output_cls_relu
I0413 15:55:54.091786  7163 net.cpp:157] Top shape: 1 384 63 94 (2274048)
I0413 15:55:54.091790  7163 net.cpp:165] Memory required for data: 3578820044
I0413 15:55:54.091795  7163 layer_factory.hpp:77] Creating layer rpn_big_cls_score
I0413 15:55:54.091811  7163 net.cpp:100] Creating Layer rpn_big_cls_score
I0413 15:55:54.091831  7163 net.cpp:434] rpn_big_cls_score <- rpn_big_output_cls
I0413 15:55:54.091842  7163 net.cpp:408] rpn_big_cls_score -> rpn_big_cls_score
I0413 15:55:54.096839  7163 net.cpp:150] Setting up rpn_big_cls_score
I0413 15:55:54.096868  7163 net.cpp:157] Top shape: 1 52 61 92 (291824)
I0413 15:55:54.096880  7163 net.cpp:165] Memory required for data: 3579987340
I0413 15:55:54.096897  7163 layer_factory.hpp:77] Creating layer rpn_big_cls_score_rpn_big_cls_score_0_split
I0413 15:55:54.096920  7163 net.cpp:100] Creating Layer rpn_big_cls_score_rpn_big_cls_score_0_split
I0413 15:55:54.096928  7163 net.cpp:434] rpn_big_cls_score_rpn_big_cls_score_0_split <- rpn_big_cls_score
I0413 15:55:54.096940  7163 net.cpp:408] rpn_big_cls_score_rpn_big_cls_score_0_split -> rpn_big_cls_score_rpn_big_cls_score_0_split_0
I0413 15:55:54.096956  7163 net.cpp:408] rpn_big_cls_score_rpn_big_cls_score_0_split -> rpn_big_cls_score_rpn_big_cls_score_0_split_1
I0413 15:55:54.097013  7163 net.cpp:150] Setting up rpn_big_cls_score_rpn_big_cls_score_0_split
I0413 15:55:54.097024  7163 net.cpp:157] Top shape: 1 52 61 92 (291824)
I0413 15:55:54.097033  7163 net.cpp:157] Top shape: 1 52 61 92 (291824)
I0413 15:55:54.097038  7163 net.cpp:165] Memory required for data: 3582321932
I0413 15:55:54.097045  7163 layer_factory.hpp:77] Creating layer rpn_big_cls_score_reshape
I0413 15:55:54.097059  7163 net.cpp:100] Creating Layer rpn_big_cls_score_reshape
I0413 15:55:54.097064  7163 net.cpp:434] rpn_big_cls_score_reshape <- rpn_big_cls_score_rpn_big_cls_score_0_split_0
I0413 15:55:54.097077  7163 net.cpp:408] rpn_big_cls_score_reshape -> rpn_big_cls_score_reshape
I0413 15:55:54.097113  7163 net.cpp:150] Setting up rpn_big_cls_score_reshape
I0413 15:55:54.097126  7163 net.cpp:157] Top shape: 1 2 1586 92 (291824)
I0413 15:55:54.097131  7163 net.cpp:165] Memory required for data: 3583489228
I0413 15:55:54.097136  7163 layer_factory.hpp:77] Creating layer rpn_big_cls_score_reshape_rpn_big_cls_score_reshape_0_split
I0413 15:55:54.097146  7163 net.cpp:100] Creating Layer rpn_big_cls_score_reshape_rpn_big_cls_score_reshape_0_split
I0413 15:55:54.097152  7163 net.cpp:434] rpn_big_cls_score_reshape_rpn_big_cls_score_reshape_0_split <- rpn_big_cls_score_reshape
I0413 15:55:54.097167  7163 net.cpp:408] rpn_big_cls_score_reshape_rpn_big_cls_score_reshape_0_split -> rpn_big_cls_score_reshape_rpn_big_cls_score_reshape_0_split_0
I0413 15:55:54.097178  7163 net.cpp:408] rpn_big_cls_score_reshape_rpn_big_cls_score_reshape_0_split -> rpn_big_cls_score_reshape_rpn_big_cls_score_reshape_0_split_1
I0413 15:55:54.097223  7163 net.cpp:150] Setting up rpn_big_cls_score_reshape_rpn_big_cls_score_reshape_0_split
I0413 15:55:54.097234  7163 net.cpp:157] Top shape: 1 2 1586 92 (291824)
I0413 15:55:54.097242  7163 net.cpp:157] Top shape: 1 2 1586 92 (291824)
I0413 15:55:54.097247  7163 net.cpp:165] Memory required for data: 3585823820
I0413 15:55:54.097254  7163 layer_factory.hpp:77] Creating layer rpn_big_cls_prob
I0413 15:55:54.097264  7163 net.cpp:100] Creating Layer rpn_big_cls_prob
I0413 15:55:54.097270  7163 net.cpp:434] rpn_big_cls_prob <- rpn_big_cls_score_reshape_rpn_big_cls_score_reshape_0_split_0
I0413 15:55:54.097280  7163 net.cpp:408] rpn_big_cls_prob -> rpn_big_cls_prob
I0413 15:55:54.097357  7163 net.cpp:150] Setting up rpn_big_cls_prob
I0413 15:55:54.097368  7163 net.cpp:157] Top shape: 1 2 1586 92 (291824)
I0413 15:55:54.097374  7163 net.cpp:165] Memory required for data: 3586991116
I0413 15:55:54.097379  7163 layer_factory.hpp:77] Creating layer rpn_big_cls_prob_reshape
I0413 15:55:54.097389  7163 net.cpp:100] Creating Layer rpn_big_cls_prob_reshape
I0413 15:55:54.097396  7163 net.cpp:434] rpn_big_cls_prob_reshape <- rpn_big_cls_prob
I0413 15:55:54.097407  7163 net.cpp:408] rpn_big_cls_prob_reshape -> rpn_big_cls_prob_reshape
I0413 15:55:54.097439  7163 net.cpp:150] Setting up rpn_big_cls_prob_reshape
I0413 15:55:54.097450  7163 net.cpp:157] Top shape: 1 52 61 92 (291824)
I0413 15:55:54.097455  7163 net.cpp:165] Memory required for data: 3588158412
I0413 15:55:54.097461  7163 layer_factory.hpp:77] Creating layer rpn_big_cls_prob_reshape_rpn_big_cls_prob_reshape_0_split
I0413 15:55:54.097470  7163 net.cpp:100] Creating Layer rpn_big_cls_prob_reshape_rpn_big_cls_prob_reshape_0_split
I0413 15:55:54.097477  7163 net.cpp:434] rpn_big_cls_prob_reshape_rpn_big_cls_prob_reshape_0_split <- rpn_big_cls_prob_reshape
I0413 15:55:54.097488  7163 net.cpp:408] rpn_big_cls_prob_reshape_rpn_big_cls_prob_reshape_0_split -> rpn_big_cls_prob_reshape_rpn_big_cls_prob_reshape_0_split_0
I0413 15:55:54.097501  7163 net.cpp:408] rpn_big_cls_prob_reshape_rpn_big_cls_prob_reshape_0_split -> rpn_big_cls_prob_reshape_rpn_big_cls_prob_reshape_0_split_1
I0413 15:55:54.097543  7163 net.cpp:150] Setting up rpn_big_cls_prob_reshape_rpn_big_cls_prob_reshape_0_split
I0413 15:55:54.097554  7163 net.cpp:157] Top shape: 1 52 61 92 (291824)
I0413 15:55:54.097563  7163 net.cpp:157] Top shape: 1 52 61 92 (291824)
I0413 15:55:54.097568  7163 net.cpp:165] Memory required for data: 3590493004
I0413 15:55:54.097573  7163 layer_factory.hpp:77] Creating layer rpn_big_anchor_target
I0413 15:55:54.099398  7163 net.cpp:100] Creating Layer rpn_big_anchor_target
I0413 15:55:54.099421  7163 net.cpp:434] rpn_big_anchor_target <- rpn_big_cls_score_rpn_big_cls_score_0_split_1
I0413 15:55:54.099429  7163 net.cpp:434] rpn_big_anchor_target <- input_gt_boxes
I0413 15:55:54.099436  7163 net.cpp:434] rpn_big_anchor_target <- input_ignored_boxes
I0413 15:55:54.099444  7163 net.cpp:434] rpn_big_anchor_target <- input_im_info_input_1_split_0
I0413 15:55:54.099452  7163 net.cpp:434] rpn_big_anchor_target <- input_data_input_0_split_1
I0413 15:55:54.099459  7163 net.cpp:434] rpn_big_anchor_target <- rpn_big_cls_prob_reshape_rpn_big_cls_prob_reshape_0_split_0
I0413 15:55:54.099472  7163 net.cpp:408] rpn_big_anchor_target -> rpn_big_anchor_target_labels
I0413 15:55:54.099488  7163 net.cpp:408] rpn_big_anchor_target -> rpn_big_anchor_target_bbox_targets
I0413 15:55:54.099503  7163 net.cpp:408] rpn_big_anchor_target -> rpn_big_anchor_target_inside_weights
I0413 15:55:54.099516  7163 net.cpp:408] rpn_big_anchor_target -> rpn_big_anchor_target_outside_weights
I0413 15:55:54.105569  7163 net.cpp:150] Setting up rpn_big_anchor_target
I0413 15:55:54.105609  7163 net.cpp:157] Top shape: 1 1 1586 92 (145912)
I0413 15:55:54.105618  7163 net.cpp:157] Top shape: 1 104 61 92 (583648)
I0413 15:55:54.105625  7163 net.cpp:157] Top shape: 1 104 61 92 (583648)
I0413 15:55:54.105633  7163 net.cpp:157] Top shape: 1 104 61 92 (583648)
I0413 15:55:54.105638  7163 net.cpp:165] Memory required for data: 3598080428
I0413 15:55:54.105645  7163 layer_factory.hpp:77] Creating layer rpn_big_loss_cls
I0413 15:55:54.105662  7163 net.cpp:100] Creating Layer rpn_big_loss_cls
I0413 15:55:54.105670  7163 net.cpp:434] rpn_big_loss_cls <- rpn_big_cls_score_reshape_rpn_big_cls_score_reshape_0_split_1
I0413 15:55:54.105680  7163 net.cpp:434] rpn_big_loss_cls <- rpn_big_anchor_target_labels
I0413 15:55:54.105690  7163 net.cpp:408] rpn_big_loss_cls -> rpn_big_loss_cls
I0413 15:55:54.105708  7163 layer_factory.hpp:77] Creating layer rpn_big_loss_cls
I0413 15:55:54.106531  7163 net.cpp:150] Setting up rpn_big_loss_cls
I0413 15:55:54.106550  7163 net.cpp:157] Top shape: (1)
I0413 15:55:54.106554  7163 net.cpp:160]     with loss weight 1
I0413 15:55:54.106567  7163 net.cpp:165] Memory required for data: 3598080432
I0413 15:55:54.106575  7163 layer_factory.hpp:77] Creating layer rpn_big_output_box
I0413 15:55:54.106595  7163 net.cpp:100] Creating Layer rpn_big_output_box
I0413 15:55:54.106604  7163 net.cpp:434] rpn_big_output_box <- rpn_big_conv2_rpn_big_conv2_drop_0_split_1
I0413 15:55:54.106617  7163 net.cpp:408] rpn_big_output_box -> rpn_big_output_box
I0413 15:55:54.128249  7163 net.cpp:150] Setting up rpn_big_output_box
I0413 15:55:54.128278  7163 net.cpp:157] Top shape: 1 384 63 94 (2274048)
I0413 15:55:54.128290  7163 net.cpp:165] Memory required for data: 3607176624
I0413 15:55:54.128301  7163 layer_factory.hpp:77] Creating layer rpn_big_output_box_relu
I0413 15:55:54.128311  7163 net.cpp:100] Creating Layer rpn_big_output_box_relu
I0413 15:55:54.128317  7163 net.cpp:434] rpn_big_output_box_relu <- rpn_big_output_box
I0413 15:55:54.128327  7163 net.cpp:395] rpn_big_output_box_relu -> rpn_big_output_box (in-place)
I0413 15:55:54.128342  7163 net.cpp:150] Setting up rpn_big_output_box_relu
I0413 15:55:54.128351  7163 net.cpp:157] Top shape: 1 384 63 94 (2274048)
I0413 15:55:54.128356  7163 net.cpp:165] Memory required for data: 3616272816
I0413 15:55:54.128362  7163 layer_factory.hpp:77] Creating layer rpn_big_bbox_pred
I0413 15:55:54.128378  7163 net.cpp:100] Creating Layer rpn_big_bbox_pred
I0413 15:55:54.128386  7163 net.cpp:434] rpn_big_bbox_pred <- rpn_big_output_box
I0413 15:55:54.128396  7163 net.cpp:408] rpn_big_bbox_pred -> rpn_big_bbox_pred
I0413 15:55:54.132778  7163 net.cpp:150] Setting up rpn_big_bbox_pred
I0413 15:55:54.132805  7163 net.cpp:157] Top shape: 1 104 61 92 (583648)
I0413 15:55:54.132812  7163 net.cpp:165] Memory required for data: 3618607408
I0413 15:55:54.132823  7163 layer_factory.hpp:77] Creating layer rpn_big_bbox_pred_rpn_big_bbox_pred_0_split
I0413 15:55:54.132836  7163 net.cpp:100] Creating Layer rpn_big_bbox_pred_rpn_big_bbox_pred_0_split
I0413 15:55:54.132843  7163 net.cpp:434] rpn_big_bbox_pred_rpn_big_bbox_pred_0_split <- rpn_big_bbox_pred
I0413 15:55:54.132854  7163 net.cpp:408] rpn_big_bbox_pred_rpn_big_bbox_pred_0_split -> rpn_big_bbox_pred_rpn_big_bbox_pred_0_split_0
I0413 15:55:54.132868  7163 net.cpp:408] rpn_big_bbox_pred_rpn_big_bbox_pred_0_split -> rpn_big_bbox_pred_rpn_big_bbox_pred_0_split_1
I0413 15:55:54.132930  7163 net.cpp:150] Setting up rpn_big_bbox_pred_rpn_big_bbox_pred_0_split
I0413 15:55:54.132941  7163 net.cpp:157] Top shape: 1 104 61 92 (583648)
I0413 15:55:54.132949  7163 net.cpp:157] Top shape: 1 104 61 92 (583648)
I0413 15:55:54.132954  7163 net.cpp:165] Memory required for data: 3623276592
I0413 15:55:54.132959  7163 layer_factory.hpp:77] Creating layer rpn_big_loss_bbox
I0413 15:55:54.133419  7163 net.cpp:100] Creating Layer rpn_big_loss_bbox
I0413 15:55:54.133433  7163 net.cpp:434] rpn_big_loss_bbox <- rpn_big_bbox_pred_rpn_big_bbox_pred_0_split_0
I0413 15:55:54.133442  7163 net.cpp:434] rpn_big_loss_bbox <- rpn_big_anchor_target_bbox_targets
I0413 15:55:54.133450  7163 net.cpp:434] rpn_big_loss_bbox <- rpn_big_anchor_target_inside_weights
I0413 15:55:54.133460  7163 net.cpp:434] rpn_big_loss_bbox <- rpn_big_anchor_target_outside_weights
I0413 15:55:54.133473  7163 net.cpp:408] rpn_big_loss_bbox -> rpn_big_loss_bbox
I0413 15:55:54.135458  7163 net.cpp:150] Setting up rpn_big_loss_bbox
I0413 15:55:54.135493  7163 net.cpp:157] Top shape: 1 (1)
I0413 15:55:54.135499  7163 net.cpp:160]     with loss weight 1
I0413 15:55:54.135514  7163 net.cpp:165] Memory required for data: 3623276596
I0413 15:55:54.135524  7163 layer_factory.hpp:77] Creating layer proposal
I0413 15:55:54.135924  7163 net.cpp:100] Creating Layer proposal
I0413 15:55:54.135936  7163 net.cpp:434] proposal <- rpn_big_cls_prob_reshape_rpn_big_cls_prob_reshape_0_split_1
I0413 15:55:54.135947  7163 net.cpp:434] proposal <- rpn_big_bbox_pred_rpn_big_bbox_pred_0_split_1
…
