…
I0413 19:05:05.291159 15121 solver.cpp:48] Initializing solver from parameters: 
base_lr: 0.001
display: 20
lr_policy: "multistep"
gamma: 0.1
momentum: 0.9
weight_decay: 0.0005
snapshot: 0
snapshot_prefix: "faces_example"
net_param {
  name: "GeneratedModel_13_04_2017_19_05"
  layer {
    name: "input"
    type: "Python"
    top: "input_data"
    top: "input_im_info"
    top: "input_gt_boxes"
    top: "input_ignored_boxes"
    python_param {
      module: "layers.roi_data_layer"
      layer: "RoIDataLayer"
      param_str: "{\"num_classes\": 2}"
    }
  }
  layer {
    name: "conv1_1"
    type: "Convolution"
    bottom: "input_data"
    top: "conv1_1"
    param {
      lr_mult: 0
      decay_mult: 0
    }
    param {
      lr_mult: 0
      decay_mult: 0
    }
    convolution_param {
      num_output: 64
      pad: 1
      kernel_size: 3
    }
  }
  layer {
    name: "relu1_1"
    type: "ReLU"
    bottom: "conv1_1"
    top: "conv1_1"
  }
  layer {
    name: "conv1_2"
    type: "Convolution"
    bottom: "conv1_1"
    top: "conv1_2"
    param {
      lr_mult: 0
      decay_mult: 0
    }
    param {
      lr_mult: 0
      decay_mult: 0
    }
    convolution_param {
      num_output: 64
      pad: 1
      kernel_size: 3
    }
  }
  layer {
    name: "relu1_2"
    type: "ReLU"
    bottom: "conv1_2"
    top: "conv1_2"
  }
  layer {
    name: "pool1"
    type: "Pooling"
    bottom: "conv1_2"
    top: "pool1"
    pooling_param {
      pool: MAX
      kernel_size: 2
      stride: 2
    }
  }
  layer {
    name: "conv2_1"
    type: "Convolution"
    bottom: "pool1"
    top: "conv2_1"
    param {
      lr_mult: 0
      decay_mult: 0
    }
    param {
      lr_mult: 0
      decay_mult: 0
    }
    convolution_param {
      num_output: 128
      pad: 1
      kernel_size: 3
    }
  }
  layer {
    name: "relu2_1"
    type: "ReLU"
    bottom: "conv2_1"
    top: "conv2_1"
  }
  layer {
    name: "conv2_2"
    type: "Convolution"
    bottom: "conv2_1"
    top: "conv2_2"
    param {
      lr_mult: 0
      decay_mult: 0
    }
    param {
      lr_mult: 0
      decay_mult: 0
    }
    convolution_param {
      num_output: 128
      pad: 1
      kernel_size: 3
    }
  }
  layer {
    name: "relu2_2"
    type: "ReLU"
    bottom: "conv2_2"
    top: "conv2_2"
  }
  layer {
    name: "pool2"
    type: "Pooling"
    bottom: "conv2_2"
    top: "pool2"
    pooling_param {
      pool: MAX
      kernel_size: 2
      stride: 2
    }
  }
  layer {
    name: "conv3_1"
    type: "Convolution"
    bottom: "pool2"
    top: "conv3_1"
    param {
      lr_mult: 1
    }
    param {
      lr_mult: 2
    }
    convolution_param {
      num_output: 256
      pad: 1
      kernel_size: 3
    }
  }
  layer {
    name: "relu3_1"
    type: "ReLU"
    bottom: "conv3_1"
    top: "conv3_1"
  }
  layer {
    name: "conv3_2"
    type: "Convolution"
    bottom: "conv3_1"
    top: "conv3_2"
    param {
      lr_mult: 1
    }
    param {
      lr_mult: 2
    }
    convolution_param {
      num_output: 256
      pad: 1
      kernel_size: 3
    }
  }
  layer {
    name: "relu3_2"
    type: "ReLU"
    bottom: "conv3_2"
    top: "conv3_2"
  }
  layer {
    name: "conv3_3"
    type: "Convolution"
    bottom: "conv3_2"
    top: "conv3_3"
    param {
      lr_mult: 1
    }
    param {
      lr_mult: 2
    }
    convolution_param {
      num_output: 256
      pad: 1
      kernel_size: 3
    }
  }
  layer {
    name: "relu3_3"
    type: "ReLU"
    bottom: "conv3_3"
    top: "conv3_3"
  }
  layer {
    name: "pool3"
    type: "Pooling"
    bottom: "conv3_3"
    top: "pool3"
    pooling_param {
      pool: MAX
      kernel_size: 2
      stride: 2
    }
  }
  layer {
    name: "conv4_1"
    type: "Convolution"
    bottom: "pool3"
    top: "conv4_1"
    param {
      lr_mult: 1
    }
    param {
      lr_mult: 2
    }
    convolution_param {
      num_output: 512
      pad: 1
      kernel_size: 3
    }
  }
  layer {
    name: "relu4_1"
    type: "ReLU"
    bottom: "conv4_1"
    top: "conv4_1"
  }
  layer {
    name: "conv4_2"
    type: "Convolution"
    bottom: "conv4_1"
    top: "conv4_2"
    param {
      lr_mult: 1
    }
    param {
      lr_mult: 2
    }
    convolution_param {
      num_output: 512
      pad: 1
      kernel_size: 3
    }
  }
  layer {
    name: "relu4_2"
    type: "ReLU"
    bottom: "conv4_2"
    top: "conv4_2"
  }
  layer {
    name: "conv4_3"
    type: "Convolution"
    bottom: "conv4_2"
    top: "conv4_3"
    param {
      lr_mult: 1
    }
    param {
      lr_mult: 2
    }
    convolution_param {
      num_output: 512
      pad: 1
      kernel_size: 3
    }
  }
  layer {
    name: "relu4_3"
    type: "ReLU"
    bottom: "conv4_3"
    top: "conv4_3"
  }
  layer {
    name: "pool4"
    type: "Pooling"
    bottom: "conv4_3"
    top: "pool4"
    pooling_param {
      pool: MAX
      kernel_size: 2
      stride: 2
    }
  }
  layer {
    name: "conv5_1"
    type: "Convolution"
    bottom: "pool4"
    top: "conv5_1"
    param {
      lr_mult: 1
    }
    param {
      lr_mult: 2
    }
    convolution_param {
      num_output: 512
      pad: 1
      kernel_size: 3
    }
  }
  layer {
    name: "relu5_1"
    type: "ReLU"
    bottom: "conv5_1"
    top: "conv5_1"
  }
  layer {
    name: "conv5_2"
    type: "Convolution"
    bottom: "conv5_1"
    top: "conv5_2"
    param {
      lr_mult: 1
    }
    param {
      lr_mult: 2
    }
    convolution_param {
      num_output: 512
      pad: 1
      kernel_size: 3
    }
  }
  layer {
    name: "relu5_2"
    type: "ReLU"
    bottom: "conv5_2"
    top: "conv5_2"
  }
  layer {
    name: "conv5_3"
    type: "Convolution"
    bottom: "conv5_2"
    top: "conv5_3"
    param {
      lr_mult: 1
    }
    param {
      lr_mult: 2
    }
    convolution_param {
      num_output: 512
      pad: 1
      kernel_size: 3
    }
  }
  layer {
    name: "relu5_3"
    type: "ReLU"
    bottom: "conv5_3"
    top: "conv5_3"
  }
  layer {
    name: "rpn_big_conv1"
    type: "Convolution"
    bottom: "conv5_3"
    top: "rpn_big_conv1"
    param {
      lr_mult: 1
    }
    param {
      lr_mult: 2
    }
    convolution_param {
      num_output: 512
      pad: 1
      kernel_size: 3
      stride: 1
      weight_filler {
        type: "gaussian"
        mean: 0
        std: 0.01
      }
      bias_filler {
        type: "constant"
      }
    }
  }
  layer {
    name: "rpn_big_conv1_relu"
    type: "ReLU"
    bottom: "rpn_big_conv1"
    top: "rpn_big_conv1"
    relu_param {
      negative_slope: 0
    }
  }
  layer {
    name: "rpn_big_conv2"
    type: "Convolution"
    bottom: "rpn_big_conv1"
    top: "rpn_big_conv2"
    param {
      lr_mult: 1
    }
    param {
      lr_mult: 2
    }
    convolution_param {
      num_output: 512
      pad: 1
      kernel_size: 3
      stride: 1
      weight_filler {
        type: "gaussian"
        mean: 0
        std: 0.01
      }
      bias_filler {
        type: "constant"
      }
    }
  }
  layer {
    name: "rpn_big_conv2_relu"
    type: "ReLU"
    bottom: "rpn_big_conv2"
    top: "rpn_big_conv2"
    relu_param {
      negative_slope: 0
    }
  }
  layer {
    name: "rpn_big_conv2_drop"
    type: "Dropout"
    bottom: "rpn_big_conv2"
    top: "rpn_big_conv2"
    dropout_param {
      dropout_ratio: 0.3
    }
  }
  layer {
    name: "rpn_big_output_cls"
    type: "Convolution"
    bottom: "rpn_big_conv2"
    top: "rpn_big_output_cls"
    param {
      lr_mult: 1
    }
    param {
      lr_mult: 2
    }
    convolution_param {
      num_output: 384
      pad: 1
      kernel_size: 3
      stride: 1
      weight_filler {
        type: "gaussian"
        mean: 0
        std: 0.01
      }
      bias_filler {
        type: "constant"
      }
    }
  }
  layer {
    name: "rpn_big_output_cls_relu"
    type: "ReLU"
    bottom: "rpn_big_output_cls"
    top: "rpn_big_output_cls"
    relu_param {
      negative_slope: 0
    }
  }
  layer {
    name: "rpn_big_cls_score"
    type: "Convolution"
    bottom: "rpn_big_output_cls"
    top: "rpn_big_cls_score"
    param {
      lr_mult: 1
    }
    param {
      lr_mult: 2
    }
    convolution_param {
      num_output: 52
      pad: 0
      kernel_size: 3
      stride: 1
      weight_filler {
        type: "gaussian"
        mean: 0
        std: 0.01
      }
      bias_filler {
        type: "constant"
      }
    }
  }
  layer {
    name: "rpn_big_cls_score_reshape"
    type: "Reshape"
    bottom: "rpn_big_cls_score"
    top: "rpn_big_cls_score_reshape"
    reshape_param {
      shape {
        dim: 0
        dim: 2
        dim: -1
        dim: 0
      }
    }
  }
  layer {
    name: "rpn_big_cls_prob"
    type: "Softmax"
    bottom: "rpn_big_cls_score_reshape"
    top: "rpn_big_cls_prob"
  }
  layer {
    name: "rpn_big_cls_prob_reshape"
    type: "Reshape"
    bottom: "rpn_big_cls_prob"
    top: "rpn_big_cls_prob_reshape"
    reshape_param {
      shape {
        dim: 0
        dim: 52
        dim: -1
        dim: 0
      }
    }
  }
  layer {
    name: "rpn_big_anchor_target"
    type: "Python"
    bottom: "rpn_big_cls_score"
    bottom: "input_gt_boxes"
    bottom: "input_ignored_boxes"
    bottom: "input_im_info"
    bottom: "input_data"
    bottom: "rpn_big_cls_prob_reshape"
    top: "rpn_big_anchor_target_labels"
    top: "rpn_big_anchor_target_bbox_targets"
    top: "rpn_big_anchor_target_inside_weights"
    top: "rpn_big_anchor_target_outside_weights"
    python_param {
      module: "rpn.anchor_target_layer"
      layer: "AnchorTargetLayer"
      param_str: "{\"feat_stride\": 16, \"positive_overlap\": 0.6, \"name\": \"rpn_big\", \"num_classes\": 1, \"batchsize\": 256, \"tn_fraction\": 0.2, \"square_targets\": true, \"anchor_scales\": [2.5, 3.025, 3.66025, 4.4289024999999995, 5.358972025, 6.484356150249999, 7.846070941802498, 9.493745839581022, 11.487432465893036, 13.899793283730574, 16.818749873313998, 20.350687346709933, 24.62433168951902, 29.795441344318014], \"anchor_ratios\": [1.0], \"negative_overlap\": 0.4, \"anchor_shift_num_xy\": [[2, 2], [2, 2], [2, 2], [2, 2], [1, 1], [1, 1], [1, 1], [1, 1], [1, 1], [1, 1], [1, 1], [1, 1], [1, 1], [1, 1]], \"fg_fraction\": 0.5}"
    }
  }
  layer {
    name: "rpn_big_loss_cls"
    type: "SoftmaxWithLoss"
    bottom: "rpn_big_cls_score_reshape"
    bottom: "rpn_big_anchor_target_labels"
    top: "rpn_big_loss_cls"
    loss_weight: 1
    propagate_down: true
    propagate_down: false
    loss_param {
      ignore_label: -1
      normalization: VALID
    }
  }
  layer {
    name: "rpn_big_output_box"
    type: "Convolution"
    bottom: "rpn_big_conv2"
    top: "rpn_big_output_box"
    param {
      lr_mult: 1
    }
    param {
      lr_mult: 2
    }
    convolution_param {
      num_output: 384
      pad: 1
      kernel_size: 3
      stride: 1
      weight_filler {
        type: "gaussian"
        mean: 0
        std: 0.01
      }
      bias_filler {
        type: "constant"
      }
    }
  }
  layer {
    name: "rpn_big_output_box_relu"
    type: "ReLU"
    bottom: "rpn_big_output_box"
    top: "rpn_big_output_box"
    relu_param {
      negative_slope: 0
    }
  }
  layer {
    name: "rpn_big_bbox_pred"
    type: "Convolution"
    bottom: "rpn_big_output_box"
    top: "rpn_big_bbox_pred"
    param {
      lr_mult: 1
    }
    param {
      lr_mult: 2
    }
    convolution_param {
      num_output: 104
      pad: 0
      kernel_size: 3
      stride: 1
      weight_filler {
        type: "gaussian"
        mean: 0
        std: 0.01
      }
      bias_filler {
        type: "constant"
      }
    }
  }
  layer {
    name: "rpn_big_loss_bbox"
    type: "Python"
    bottom: "rpn_big_bbox_pred"
    bottom: "rpn_big_anchor_target_bbox_targets"
    bottom: "rpn_big_anchor_target_inside_weights"
    bottom: "rpn_big_anchor_target_outside_weights"
    top: "rpn_big_loss_bbox"
    loss_weight: 1
    python_param {
      module: "layers.smooth_l1_loss"
      layer: "SmoothL1LossLayer"
      param_str: "{\"sigma\": 3}"
    }
  }
  layer {
    name: "proposal"
    type: "Python"
    bottom: "rpn_big_cls_prob_reshape"
    bottom: "rpn_big_bbox_pred"
    bottom: "input_im_info"
    top: "rpn_rois"
    python_param {
      module: "rpn.proposal_layer"
      layer: "ProposalLayer"
      param_str: "{\"anchor_shift_num_xy\": [[2, 2], [2, 2], [2, 2], [2, 2], [1, 1], [1, 1], [1, 1], [1, 1], [1, 1], [1, 1], [1, 1], [1, 1], [1, 1], [1, 1]], \"feat_stride\": 16, \"num_classes\": 1, \"anchor_scales\": [2.5, 3.025, 3.66025, 4.4289024999999995, 5.358972025, 6.484356150249999, 7.846070941802498, 9.493745839581022, 11.487432465893036, 13.899793283730574, 16.818749873313998, 20.350687346709933, 24.62433168951902, 29.795441344318014], \"square_targets\": true, \"name\": \"rpn_big\", \"batchsize\": 256, \"anchor_ratios\": [1.0]}"
    }
  }
  layer {
    name: "roi-data"
    type: "Python"
    bottom: "rpn_rois"
    bottom: "input_gt_boxes"
    top: "rois"
    top: "labels"
    top: "bbox_targets"
    top: "bbox_inside_weights"
    top: "bbox_outside_weights"
    top: "pid_label"
    python_param {
      module: "rpn.proposal_target_layer"
      layer: "ProposalTargetLayer"
      param_str: "{\"num_classes\": 2, \"bg_aux_label\": 5532}"
    }
  }
  layer {
    name: "roi-pool"
    type: "ROIPooling"
    bottom: "conv5_3"
    bottom: "rois"
    top: "roi-pool"
    roi_pooling_param {
      pooled_h: 7
      pooled_w: 7
      spatial_scale: 0.0625
    }
  }
  layer {
    name: "fc6"
    type: "InnerProduct"
    bottom: "roi-pool"
    top: "fc6"
    param {
      lr_mult: 1
    }
    param {
      lr_mult: 2
    }
    inner_product_param {
      num_output: 4096
    }
  }
  layer {
    name: "relu6"
    type: "ReLU"
    bottom: "fc6"
    top: "fc6"
  }
  layer {
    name: "drop6"
    type: "Dropout"
    bottom: "fc6"
    top: "fc6"
    dropout_param {
      dropout_ratio: 0.5
    }
  }
  layer {
    name: "fc7"
    type: "InnerProduct"
    bottom: "fc6"
    top: "fc7"
    param {
      lr_mult: 1
    }
    param {
      lr_mult: 2
    }
    inner_product_param {
      num_output: 4096
    }
  }
  layer {
    name: "relu7"
    type: "ReLU"
    bottom: "fc7"
    top: "fc7"
  }
  layer {
    name: "drop7"
    type: "Dropout"
    bottom: "fc7"
    top: "fc7"
    dropout_param {
      dropout_ratio: 0.5
    }
  }
  layer {
    name: "bbox_pred"
    type: "InnerProduct"
    bottom: "fc7"
    top: "bbox_pred"
    param {
      lr_mult: 1
    }
    param {
      lr_mult: 2
    }
    inner_product_param {
      num_output: 8
      weight_filler {
        type: "gaussian"
        std: 0.001
      }
      bias_filler {
        type: "constant"
        value: 0
      }
    }
  }
  layer {
    name: "loss_bbox"
    type: "SmoothL1Loss"
    bottom: "bbox_pred"
    bottom: "bbox_targets"
    bottom: "bbox_inside_weights"
    bottom: "bbox_outside_weights"
    top: "loss_bbox"
    loss_weight: 1
  }
  layer {
    name: "feat"
    type: "InnerProduct"
    bottom: "fc7"
    top: "feat"
    param {
      lr_mult: 1
      decay_mult: 1
    }
    param {
      lr_mult: 2
      decay_mult: 0
    }
    inner_product_param {
      num_output: 256
      weight_filler {
        type: "gaussian"
        std: 0.01
      }
      bias_filler {
        type: "constant"
        value: 0
      }
    }
  }
  layer {
    name: "relu8"
    type: "ReLU"
    bottom: "feat"
    top: "feat"
  }
  layer {
    name: "drop8"
    type: "Dropout"
    bottom: "feat"
    top: "feat"
    dropout_param {
      dropout_ratio: 0.5
    }
  }
  layer {
    name: "pid_score"
    type: "InnerProduct"
    bottom: "feat"
    top: "pid_score"
    param {
      lr_mult: 1
      decay_mult: 1
    }
    param {
      lr_mult: 2
      decay_mult: 0
    }
    inner_product_param {
      num_output: 5533
      weight_filler {
        type: "gaussian"
        std: 0.001
      }
      bias_filler {
        type: "constant"
        value: 0
      }
    }
  }
  layer {
    name: "pid_loss"
    type: "SoftmaxWithLoss"
    bottom: "pid_score"
    bottom: "pid_label"
    top: "pid_loss"
    loss_weight: 1
    propagate_down: true
    propagate_down: false
    loss_param {
      ignore_label: -1
      normalize: true
    }
  }
}
average_loss: 100
stepvalue: 70000
stepvalue: 120000
iter_size: 2
I0413 19:05:05.291295 15121 solver.cpp:86] Creating training net specified in net_param.
I0413 19:05:05.291823 15121 net.cpp:58] Initializing net from parameters: 
name: "GeneratedModel_13_04_2017_19_05"
state {
  phase: TRAIN
}
layer {
  name: "input"
  type: "Python"
  top: "input_data"
  top: "input_im_info"
  top: "input_gt_boxes"
  top: "input_ignored_boxes"
  python_param {
    module: "layers.roi_data_layer"
    layer: "RoIDataLayer"
    param_str: "{\"num_classes\": 2}"
  }
}
layer {
  name: "conv1_1"
  type: "Convolution"
  bottom: "input_data"
  top: "conv1_1"
  param {
    lr_mult: 0
    decay_mult: 0
  }
  param {
    lr_mult: 0
    decay_mult: 0
  }
  convolution_param {
    num_output: 64
    pad: 1
    kernel_size: 3
  }
}
layer {
  name: "relu1_1"
  type: "ReLU"
  bottom: "conv1_1"
  top: "conv1_1"
}
layer {
  name: "conv1_2"
  type: "Convolution"
  bottom: "conv1_1"
  top: "conv1_2"
  param {
    lr_mult: 0
    decay_mult: 0
  }
  param {
    lr_mult: 0
    decay_mult: 0
  }
  convolution_param {
    num_output: 64
    pad: 1
    kernel_size: 3
  }
}
layer {
  name: "relu1_2"
  type: "ReLU"
  bottom: "conv1_2"
  top: "conv1_2"
}
layer {
  name: "pool1"
  type: "Pooling"
  bottom: "conv1_2"
  top: "pool1"
  pooling_param {
    pool: MAX
    kernel_size: 2
    stride: 2
  }
}
layer {
  name: "conv2_1"
  type: "Convolution"
  bottom: "pool1"
  top: "conv2_1"
  param {
    lr_mult: 0
    decay_mult: 0
  }
  param {
    lr_mult: 0
    decay_mult: 0
  }
  convolution_param {
    num_output: 128
    pad: 1
    kernel_size: 3
  }
}
layer {
  name: "relu2_1"
  type: "ReLU"
  bottom: "conv2_1"
  top: "conv2_1"
}
layer {
  name: "conv2_2"
  type: "Convolution"
  bottom: "conv2_1"
  top: "conv2_2"
  param {
    lr_mult: 0
    decay_mult: 0
  }
  param {
    lr_mult: 0
    decay_mult: 0
  }
  convolution_param {
    num_output: 128
    pad: 1
    kernel_size: 3
  }
}
layer {
  name: "relu2_2"
  type: "ReLU"
  bottom: "conv2_2"
  top: "conv2_2"
}
layer {
  name: "pool2"
  type: "Pooling"
  bottom: "conv2_2"
  top: "pool2"
  pooling_param {
    pool: MAX
    kernel_size: 2
    stride: 2
  }
}
layer {
  name: "conv3_1"
  type: "Convolution"
  bottom: "pool2"
  top: "conv3_1"
  param {
    lr_mult: 1
  }
  param {
    lr_mult: 2
  }
  convolution_param {
    num_output: 256
    pad: 1
    kernel_size: 3
  }
}
layer {
  name: "relu3_1"
  type: "ReLU"
  bottom: "conv3_1"
  top: "conv3_1"
}
layer {
  name: "conv3_2"
  type: "Convolution"
  bottom: "conv3_1"
  top: "conv3_2"
  param {
    lr_mult: 1
  }
  param {
    lr_mult: 2
  }
  convolution_param {
    num_output: 256
    pad: 1
    kernel_size: 3
  }
}
layer {
  name: "relu3_2"
  type: "ReLU"
  bottom: "conv3_2"
  top: "conv3_2"
}
layer {
  name: "conv3_3"
  type: "Convolution"
  bottom: "conv3_2"
  top: "conv3_3"
  param {
    lr_mult: 1
  }
  param {
    lr_mult: 2
  }
  convolution_param {
    num_output: 256
    pad: 1
    kernel_size: 3
  }
}
layer {
  name: "relu3_3"
  type: "ReLU"
  bottom: "conv3_3"
  top: "conv3_3"
}
layer {
  name: "pool3"
  type: "Pooling"
  bottom: "conv3_3"
  top: "pool3"
  pooling_param {
    pool: MAX
    kernel_size: 2
    stride: 2
  }
}
layer {
  name: "conv4_1"
  type: "Convolution"
  bottom: "pool3"
  top: "conv4_1"
  param {
    lr_mult: 1
  }
  param {
    lr_mult: 2
  }
  convolution_param {
    num_output: 512
    pad: 1
    kernel_size: 3
  }
}
layer {
  name: "relu4_1"
  type: "ReLU"
  bottom: "conv4_1"
  top: "conv4_1"
}
layer {
  name: "conv4_2"
  type: "Convolution"
  bottom: "conv4_1"
  top: "conv4_2"
  param {
    lr_mult: 1
  }
  param {
    lr_mult: 2
  }
  convolution_param {
    num_output: 512
    pad: 1
    kernel_size: 3
  }
}
layer {
  name: "relu4_2"
  type: "ReLU"
  bottom: "conv4_2"
  top: "conv4_2"
}
layer {
  name: "conv4_3"
  type: "Convolution"
  bottom: "conv4_2"
  top: "conv4_3"
  param {
    lr_mult: 1
  }
  param {
    lr_mult: 2
  }
  convolution_param {
    num_output: 512
    pad: 1
    kernel_size: 3
  }
}
layer {
  name: "relu4_3"
  type: "ReLU"
  bottom: "conv4_3"
  top: "conv4_3"
}
layer {
  name: "pool4"
  type: "Pooling"
  bottom: "conv4_3"
  top: "pool4"
  pooling_param {
    pool: MAX
    kernel_size: 2
    stride: 2
  }
}
layer {
  name: "conv5_1"
  type: "Convolution"
  bottom: "pool4"
  top: "conv5_1"
  param {
    lr_mult: 1
  }
  param {
    lr_mult: 2
  }
  convolution_param {
    num_output: 512
    pad: 1
    kernel_size: 3
  }
}
layer {
  name: "relu5_1"
  type: "ReLU"
  bottom: "conv5_1"
  top: "conv5_1"
}
layer {
  name: "conv5_2"
  type: "Convolution"
  bottom: "conv5_1"
  top: "conv5_2"
  param {
    lr_mult: 1
  }
  param {
    lr_mult: 2
  }
  convolution_param {
    num_output: 512
    pad: 1
    kernel_size: 3
  }
}
layer {
  name: "relu5_2"
  type: "ReLU"
  bottom: "conv5_2"
  top: "conv5_2"
}
layer {
  name: "conv5_3"
  type: "Convolution"
  bottom: "conv5_2"
  top: "conv5_3"
  param {
    lr_mult: 1
  }
  param {
    lr_mult: 2
  }
  convolution_param {
    num_output: 512
    pad: 1
    kernel_size: 3
  }
}
layer {
  name: "relu5_3"
  type: "ReLU"
  bottom: "conv5_3"
  top: "conv5_3"
}
layer {
  name: "rpn_big_conv1"
  type: "Convolution"
  bottom: "conv5_3"
  top: "rpn_big_conv1"
  param {
    lr_mult: 1
  }
  param {
    lr_mult: 2
  }
  convolution_param {
    num_output: 512
    pad: 1
    kernel_size: 3
    stride: 1
    weight_filler {
      type: "gaussian"
      mean: 0
      std: 0.01
    }
    bias_filler {
      type: "constant"
    }
  }
}
layer {
  name: "rpn_big_conv1_relu"
  type: "ReLU"
  bottom: "rpn_big_conv1"
  top: "rpn_big_conv1"
  relu_param {
    negative_slope: 0
  }
}
layer {
  name: "rpn_big_conv2"
  type: "Convolution"
  bottom: "rpn_big_conv1"
  top: "rpn_big_conv2"
  param {
    lr_mult: 1
  }
  param {
    lr_mult: 2
  }
  convolution_param {
    num_output: 512
    pad: 1
    kernel_size: 3
    stride: 1
    weight_filler {
      type: "gaussian"
      mean: 0
      std: 0.01
    }
    bias_filler {
      type: "constant"
    }
  }
}
layer {
  name: "rpn_big_conv2_relu"
  type: "ReLU"
  bottom: "rpn_big_conv2"
  top: "rpn_big_conv2"
  relu_param {
    negative_slope: 0
  }
}
layer {
  name: "rpn_big_conv2_drop"
  type: "Dropout"
  bottom: "rpn_big_conv2"
  top: "rpn_big_conv2"
  dropout_param {
    dropout_ratio: 0.3
  }
}
layer {
  name: "rpn_big_output_cls"
  type: "Convolution"
  bottom: "rpn_big_conv2"
  top: "rpn_big_output_cls"
  param {
    lr_mult: 1
  }
  param {
    lr_mult: 2
  }
  convolution_param {
    num_output: 384
    pad: 1
    kernel_size: 3
    stride: 1
    weight_filler {
      type: "gaussian"
      mean: 0
      std: 0.01
    }
    bias_filler {
      type: "constant"
    }
  }
}
layer {
  name: "rpn_big_output_cls_relu"
  type: "ReLU"
  bottom: "rpn_big_output_cls"
  top: "rpn_big_output_cls"
  relu_param {
    negative_slope: 0
  }
}
layer {
  name: "rpn_big_cls_score"
  type: "Convolution"
  bottom: "rpn_big_output_cls"
  top: "rpn_big_cls_score"
  param {
    lr_mult: 1
  }
  param {
    lr_mult: 2
  }
  convolution_param {
    num_output: 52
    pad: 0
    kernel_size: 3
    stride: 1
    weight_filler {
      type: "gaussian"
      mean: 0
      std: 0.01
    }
    bias_filler {
      type: "constant"
    }
  }
}
layer {
  name: "rpn_big_cls_score_reshape"
  type: "Reshape"
  bottom: "rpn_big_cls_score"
  top: "rpn_big_cls_score_reshape"
  reshape_param {
    shape {
      dim: 0
      dim: 2
      dim: -1
      dim: 0
    }
  }
}
layer {
  name: "rpn_big_cls_prob"
  type: "Softmax"
  bottom: "rpn_big_cls_score_reshape"
  top: "rpn_big_cls_prob"
}
layer {
  name: "rpn_big_cls_prob_reshape"
  type: "Reshape"
  bottom: "rpn_big_cls_prob"
  top: "rpn_big_cls_prob_reshape"
  reshape_param {
    shape {
      dim: 0
      dim: 52
      dim: -1
      dim: 0
    }
  }
}
layer {
  name: "rpn_big_anchor_target"
  type: "Python"
  bottom: "rpn_big_cls_score"
  bottom: "input_gt_boxes"
  bottom: "input_ignored_boxes"
  bottom: "input_im_info"
  bottom: "input_data"
  bottom: "rpn_big_cls_prob_reshape"
  top: "rpn_big_anchor_target_labels"
  top: "rpn_big_anchor_target_bbox_targets"
  top: "rpn_big_anchor_target_inside_weights"
  top: "rpn_big_anchor_target_outside_weights"
  python_param {
    module: "rpn.anchor_target_layer"
    layer: "AnchorTargetLayer"
    param_str: "{\"feat_stride\": 16, \"positive_overlap\": 0.6, \"name\": \"rpn_big\", \"num_classes\": 1, \"batchsize\": 256, \"tn_fraction\": 0.2, \"square_targets\": true, \"anchor_scales\": [2.5, 3.025, 3.66025, 4.4289024999999995, 5.358972025, 6.484356150249999, 7.846070941802498, 9.493745839581022, 11.487432465893036, 13.899793283730574, 16.818749873313998, 20.350687346709933, 24.62433168951902, 29.795441344318014], \"anchor_ratios\": [1.0], \"negative_overlap\": 0.4, \"anchor_shift_num_xy\": [[2, 2], [2, 2], [2, 2], [2, 2], [1, 1], [1, 1], [1, 1], [1, 1], [1, 1], [1, 1], [1, 1], [1, 1], [1, 1], [1, 1]], \"fg_fraction\": 0.5}"
  }
}
layer {
  name: "rpn_big_loss_cls"
  type: "SoftmaxWithLoss"
  bottom: "rpn_big_cls_score_reshape"
  bottom: "rpn_big_anchor_target_labels"
  top: "rpn_big_loss_cls"
  loss_weight: 1
  propagate_down: true
  propagate_down: false
  loss_param {
    ignore_label: -1
    normalization: VALID
  }
}
layer {
  name: "rpn_big_output_box"
  type: "Convolution"
  bottom: "rpn_big_conv2"
  top: "rpn_big_output_box"
  param {
    lr_mult: 1
  }
  param {
    lr_mult: 2
  }
  convolution_param {
    num_output: 384
    pad: 1
    kernel_size: 3
    stride: 1
    weight_filler {
      type: "gaussian"
      mean: 0
      std: 0.01
    }
    bias_filler {
      type: "constant"
    }
  }
}
layer {
  name: "rpn_big_output_box_relu"
  type: "ReLU"
  bottom: "rpn_big_output_box"
  top: "rpn_big_output_box"
  relu_param {
    negative_slope: 0
  }
}
layer {
  name: "rpn_big_bbox_pred"
  type: "Convolution"
  bottom: "rpn_big_output_box"
  top: "rpn_big_bbox_pred"
  param {
    lr_mult: 1
  }
  param {
    lr_mult: 2
  }
  convolution_param {
    num_output: 104
    pad: 0
    kernel_size: 3
    stride: 1
    weight_filler {
      type: "gaussian"
      mean: 0
      std: 0.01
    }
    bias_filler {
      type: "constant"
    }
  }
}
layer {
  name: "rpn_big_loss_bbox"
  type: "Python"
  bottom: "rpn_big_bbox_pred"
  bottom: "rpn_big_anchor_target_bbox_targets"
  bottom: "rpn_big_anchor_target_inside_weights"
  bottom: "rpn_big_anchor_target_outside_weights"
  top: "rpn_big_loss_bbox"
  loss_weight: 1
  python_param {
    module: "layers.smooth_l1_loss"
    layer: "SmoothL1LossLayer"
    param_str: "{\"sigma\": 3}"
  }
}
layer {
  name: "proposal"
  type: "Python"
  bottom: "rpn_big_cls_prob_reshape"
  bottom: "rpn_big_bbox_pred"
  bottom: "input_im_info"
  top: "rpn_rois"
  python_param {
    module: "rpn.proposal_layer"
    layer: "ProposalLayer"
    param_str: "{\"anchor_shift_num_xy\": [[2, 2], [2, 2], [2, 2], [2, 2], [1, 1], [1, 1], [1, 1], [1, 1], [1, 1], [1, 1], [1, 1], [1, 1], [1, 1], [1, 1]], \"feat_stride\": 16, \"num_classes\": 1, \"anchor_scales\": [2.5, 3.025, 3.66025, 4.4289024999999995, 5.358972025, 6.484356150249999, 7.846070941802498, 9.493745839581022, 11.487432465893036, 13.899793283730574, 16.818749873313998, 20.350687346709933, 24.62433168951902, 29.795441344318014], \"square_targets\": true, \"name\": \"rpn_big\", \"batchsize\": 256, \"anchor_ratios\": [1.0]}"
  }
}
layer {
  name: "roi-data"
  type: "Python"
  bottom: "rpn_rois"
  bottom: "input_gt_boxes"
  top: "rois"
  top: "labels"
  top: "bbox_targets"
  top: "bbox_inside_weights"
  top: "bbox_outside_weights"
  top: "pid_label"
  python_param {
    module: "rpn.proposal_target_layer"
    layer: "ProposalTargetLayer"
    param_str: "{\"num_classes\": 2, \"bg_aux_label\": 5532}"
  }
}
layer {
  name: "roi-pool"
  type: "ROIPooling"
  bottom: "conv5_3"
  bottom: "rois"
  top: "roi-pool"
  roi_pooling_param {
    pooled_h: 7
    pooled_w: 7
    spatial_scale: 0.0625
  }
}
layer {
  name: "fc6"
  type: "InnerProduct"
  bottom: "roi-pool"
  top: "fc6"
  param {
    lr_mult: 1
  }
  param {
    lr_mult: 2
  }
  inner_product_param {
    num_output: 4096
  }
}
layer {
  name: "relu6"
  type: "ReLU"
  bottom: "fc6"
  top: "fc6"
}
layer {
  name: "drop6"
  type: "Dropout"
  bottom: "fc6"
  top: "fc6"
  dropout_param {
    dropout_ratio: 0.5
  }
}
layer {
  name: "fc7"
  type: "InnerProduct"
  bottom: "fc6"
  top: "fc7"
  param {
    lr_mult: 1
  }
  param {
    lr_mult: 2
  }
  inner_product_param {
    num_output: 4096
  }
}
layer {
  name: "relu7"
  type: "ReLU"
  bottom: "fc7"
  top: "fc7"
}
layer {
  name: "drop7"
  type: "Dropout"
  bottom: "fc7"
  top: "fc7"
  dropout_param {
    dropout_ratio: 0.5
  }
}
layer {
  name: "bbox_pred"
  type: "InnerProduct"
  bottom: "fc7"
  top: "bbox_pred"
  param {
    lr_mult: 1
  }
  param {
    lr_mult: 2
  }
  inner_product_param {
    num_output: 8
    weight_filler {
      type: "gaussian"
      std: 0.001
    }
    bias_filler {
      type: "constant"
      value: 0
    }
  }
}
layer {
  name: "loss_bbox"
  type: "SmoothL1Loss"
  bottom: "bbox_pred"
  bottom: "bbox_targets"
  bottom: "bbox_inside_weights"
  bottom: "bbox_outside_weights"
  top: "loss_bbox"
  loss_weight: 1
}
layer {
  name: "feat"
  type: "InnerProduct"
  bottom: "fc7"
  top: "feat"
  param {
    lr_mult: 1
    decay_mult: 1
  }
  param {
    lr_mult: 2
    decay_mult: 0
  }
  inner_product_param {
    num_output: 256
    weight_filler {
      type: "gaussian"
      std: 0.01
    }
    bias_filler {
      type: "constant"
      value: 0
    }
  }
}
layer {
  name: "relu8"
  type: "ReLU"
  bottom: "feat"
  top: "feat"
}
layer {
  name: "drop8"
  type: "Dropout"
  bottom: "feat"
  top: "feat"
  dropout_param {
    dropout_ratio: 0.5
  }
}
layer {
  name: "pid_score"
  type: "InnerProduct"
  bottom: "feat"
  top: "pid_score"
  param {
    lr_mult: 1
    decay_mult: 1
  }
  param {
    lr_mult: 2
    decay_mult: 0
  }
  inner_product_param {
    num_output: 5533
    weight_filler {
      type: "gaussian"
      std: 0.001
    }
    bias_filler {
      type: "constant"
      value: 0
    }
  }
}
layer {
  name: "pid_loss"
  type: "SoftmaxWithLoss"
  bottom: "pid_score"
  bottom: "pid_label"
  top: "pid_loss"
  loss_weight: 1
  propagate_down: true
  propagate_down: false
  loss_param {
    ignore_label: -1
    normalize: true
  }
}
I0413 19:05:05.292078 15121 layer_factory.hpp:77] Creating layer input
I0413 19:05:05.293373 15121 net.cpp:100] Creating Layer input
I0413 19:05:05.293395 15121 net.cpp:408] input -> input_data
I0413 19:05:05.293411 15121 net.cpp:408] input -> input_im_info
I0413 19:05:05.293421 15121 net.cpp:408] input -> input_gt_boxes
I0413 19:05:05.293433 15121 net.cpp:408] input -> input_ignored_boxes
RoiDataLayer: name_to_top: {'ignored_boxes': 3, 'im_info': 1, 'data': 0, 'gt_boxes': 2}
I0413 19:05:05.608395 15121 net.cpp:150] Setting up input
I0413 19:05:05.608425 15121 net.cpp:157] Top shape: 1 3 1000 1500 (4500000)
I0413 19:05:05.608431 15121 net.cpp:157] Top shape: 1 3 (3)
I0413 19:05:05.608435 15121 net.cpp:157] Top shape: 1 5 (5)
I0413 19:05:05.608439 15121 net.cpp:157] Top shape: 1 5 (5)
I0413 19:05:05.608441 15121 net.cpp:165] Memory required for data: 18000052
I0413 19:05:05.608449 15121 layer_factory.hpp:77] Creating layer input_data_input_0_split
I0413 19:05:05.608463 15121 net.cpp:100] Creating Layer input_data_input_0_split
I0413 19:05:05.608467 15121 net.cpp:434] input_data_input_0_split <- input_data
I0413 19:05:05.608476 15121 net.cpp:408] input_data_input_0_split -> input_data_input_0_split_0
I0413 19:05:05.608487 15121 net.cpp:408] input_data_input_0_split -> input_data_input_0_split_1
I0413 19:05:05.608520 15121 net.cpp:150] Setting up input_data_input_0_split
I0413 19:05:05.608526 15121 net.cpp:157] Top shape: 1 3 1000 1500 (4500000)
I0413 19:05:05.608530 15121 net.cpp:157] Top shape: 1 3 1000 1500 (4500000)
I0413 19:05:05.608533 15121 net.cpp:165] Memory required for data: 54000052
I0413 19:05:05.608536 15121 layer_factory.hpp:77] Creating layer input_im_info_input_1_split
I0413 19:05:05.608542 15121 net.cpp:100] Creating Layer input_im_info_input_1_split
I0413 19:05:05.608546 15121 net.cpp:434] input_im_info_input_1_split <- input_im_info
I0413 19:05:05.608551 15121 net.cpp:408] input_im_info_input_1_split -> input_im_info_input_1_split_0
I0413 19:05:05.608557 15121 net.cpp:408] input_im_info_input_1_split -> input_im_info_input_1_split_1
I0413 19:05:05.608582 15121 net.cpp:150] Setting up input_im_info_input_1_split
I0413 19:05:05.608587 15121 net.cpp:157] Top shape: 1 3 (3)
I0413 19:05:05.608590 15121 net.cpp:157] Top shape: 1 3 (3)
I0413 19:05:05.608593 15121 net.cpp:165] Memory required for data: 54000076
I0413 19:05:05.608597 15121 layer_factory.hpp:77] Creating layer input_gt_boxes_input_2_split
I0413 19:05:05.608602 15121 net.cpp:100] Creating Layer input_gt_boxes_input_2_split
I0413 19:05:05.608604 15121 net.cpp:434] input_gt_boxes_input_2_split <- input_gt_boxes
I0413 19:05:05.608609 15121 net.cpp:408] input_gt_boxes_input_2_split -> input_gt_boxes_input_2_split_0
I0413 19:05:05.608616 15121 net.cpp:408] input_gt_boxes_input_2_split -> input_gt_boxes_input_2_split_1
I0413 19:05:05.608641 15121 net.cpp:150] Setting up input_gt_boxes_input_2_split
I0413 19:05:05.608646 15121 net.cpp:157] Top shape: 1 5 (5)
I0413 19:05:05.608650 15121 net.cpp:157] Top shape: 1 5 (5)
I0413 19:05:05.608654 15121 net.cpp:165] Memory required for data: 54000116
I0413 19:05:05.608656 15121 layer_factory.hpp:77] Creating layer conv1_1
I0413 19:05:05.608667 15121 net.cpp:100] Creating Layer conv1_1
I0413 19:05:05.608670 15121 net.cpp:434] conv1_1 <- input_data_input_0_split_0
I0413 19:05:05.608675 15121 net.cpp:408] conv1_1 -> conv1_1
I0413 19:05:05.611695 15121 net.cpp:150] Setting up conv1_1
I0413 19:05:05.611732 15121 net.cpp:157] Top shape: 1 64 1000 1500 (96000000)
I0413 19:05:05.611737 15121 net.cpp:165] Memory required for data: 438000116
I0413 19:05:05.611754 15121 layer_factory.hpp:77] Creating layer relu1_1
I0413 19:05:05.611764 15121 net.cpp:100] Creating Layer relu1_1
I0413 19:05:05.611769 15121 net.cpp:434] relu1_1 <- conv1_1
I0413 19:05:05.611776 15121 net.cpp:395] relu1_1 -> conv1_1 (in-place)
I0413 19:05:05.611788 15121 net.cpp:150] Setting up relu1_1
I0413 19:05:05.611793 15121 net.cpp:157] Top shape: 1 64 1000 1500 (96000000)
I0413 19:05:05.611795 15121 net.cpp:165] Memory required for data: 822000116
I0413 19:05:05.611799 15121 layer_factory.hpp:77] Creating layer conv1_2
I0413 19:05:05.611809 15121 net.cpp:100] Creating Layer conv1_2
I0413 19:05:05.611811 15121 net.cpp:434] conv1_2 <- conv1_1
I0413 19:05:05.611816 15121 net.cpp:408] conv1_2 -> conv1_2
I0413 19:05:05.614992 15121 net.cpp:150] Setting up conv1_2
I0413 19:05:05.615033 15121 net.cpp:157] Top shape: 1 64 1000 1500 (96000000)
I0413 19:05:05.615037 15121 net.cpp:165] Memory required for data: 1206000116
I0413 19:05:05.615054 15121 layer_factory.hpp:77] Creating layer relu1_2
I0413 19:05:05.615066 15121 net.cpp:100] Creating Layer relu1_2
I0413 19:05:05.615070 15121 net.cpp:434] relu1_2 <- conv1_2
I0413 19:05:05.615077 15121 net.cpp:395] relu1_2 -> conv1_2 (in-place)
I0413 19:05:05.615088 15121 net.cpp:150] Setting up relu1_2
I0413 19:05:05.615093 15121 net.cpp:157] Top shape: 1 64 1000 1500 (96000000)
I0413 19:05:05.615097 15121 net.cpp:165] Memory required for data: 1590000116
I0413 19:05:05.615099 15121 layer_factory.hpp:77] Creating layer pool1
I0413 19:05:05.615110 15121 net.cpp:100] Creating Layer pool1
I0413 19:05:05.615114 15121 net.cpp:434] pool1 <- conv1_2
I0413 19:05:05.615119 15121 net.cpp:408] pool1 -> pool1
I0413 19:05:05.615191 15121 net.cpp:150] Setting up pool1
I0413 19:05:05.615200 15121 net.cpp:157] Top shape: 1 64 500 750 (24000000)
I0413 19:05:05.615203 15121 net.cpp:165] Memory required for data: 1686000116
I0413 19:05:05.615206 15121 layer_factory.hpp:77] Creating layer conv2_1
I0413 19:05:05.615217 15121 net.cpp:100] Creating Layer conv2_1
I0413 19:05:05.615221 15121 net.cpp:434] conv2_1 <- pool1
I0413 19:05:05.615227 15121 net.cpp:408] conv2_1 -> conv2_1
I0413 19:05:05.616427 15121 net.cpp:150] Setting up conv2_1
I0413 19:05:05.616451 15121 net.cpp:157] Top shape: 1 128 500 750 (48000000)
I0413 19:05:05.616462 15121 net.cpp:165] Memory required for data: 1878000116
I0413 19:05:05.616474 15121 layer_factory.hpp:77] Creating layer relu2_1
I0413 19:05:05.616482 15121 net.cpp:100] Creating Layer relu2_1
I0413 19:05:05.616485 15121 net.cpp:434] relu2_1 <- conv2_1
I0413 19:05:05.616492 15121 net.cpp:395] relu2_1 -> conv2_1 (in-place)
I0413 19:05:05.616499 15121 net.cpp:150] Setting up relu2_1
I0413 19:05:05.616503 15121 net.cpp:157] Top shape: 1 128 500 750 (48000000)
I0413 19:05:05.616506 15121 net.cpp:165] Memory required for data: 2070000116
I0413 19:05:05.616509 15121 layer_factory.hpp:77] Creating layer conv2_2
I0413 19:05:05.616518 15121 net.cpp:100] Creating Layer conv2_2
I0413 19:05:05.616521 15121 net.cpp:434] conv2_2 <- conv2_1
I0413 19:05:05.616528 15121 net.cpp:408] conv2_2 -> conv2_2
I0413 19:05:05.617456 15121 net.cpp:150] Setting up conv2_2
I0413 19:05:05.617481 15121 net.cpp:157] Top shape: 1 128 500 750 (48000000)
I0413 19:05:05.617485 15121 net.cpp:165] Memory required for data: 2262000116
I0413 19:05:05.617502 15121 layer_factory.hpp:77] Creating layer relu2_2
I0413 19:05:05.617512 15121 net.cpp:100] Creating Layer relu2_2
I0413 19:05:05.617517 15121 net.cpp:434] relu2_2 <- conv2_2
I0413 19:05:05.617523 15121 net.cpp:395] relu2_2 -> conv2_2 (in-place)
I0413 19:05:05.617532 15121 net.cpp:150] Setting up relu2_2
I0413 19:05:05.617537 15121 net.cpp:157] Top shape: 1 128 500 750 (48000000)
I0413 19:05:05.617539 15121 net.cpp:165] Memory required for data: 2454000116
I0413 19:05:05.617542 15121 layer_factory.hpp:77] Creating layer pool2
I0413 19:05:05.617547 15121 net.cpp:100] Creating Layer pool2
I0413 19:05:05.617550 15121 net.cpp:434] pool2 <- conv2_2
I0413 19:05:05.617558 15121 net.cpp:408] pool2 -> pool2
I0413 19:05:05.617599 15121 net.cpp:150] Setting up pool2
I0413 19:05:05.617607 15121 net.cpp:157] Top shape: 1 128 250 375 (12000000)
I0413 19:05:05.617610 15121 net.cpp:165] Memory required for data: 2502000116
I0413 19:05:05.617614 15121 layer_factory.hpp:77] Creating layer conv3_1
I0413 19:05:05.617624 15121 net.cpp:100] Creating Layer conv3_1
I0413 19:05:05.617626 15121 net.cpp:434] conv3_1 <- pool2
I0413 19:05:05.617632 15121 net.cpp:408] conv3_1 -> conv3_1
I0413 19:05:05.618810 15121 net.cpp:150] Setting up conv3_1
I0413 19:05:05.618836 15121 net.cpp:157] Top shape: 1 256 250 375 (24000000)
I0413 19:05:05.618847 15121 net.cpp:165] Memory required for data: 2598000116
I0413 19:05:05.618863 15121 layer_factory.hpp:77] Creating layer relu3_1
I0413 19:05:05.618872 15121 net.cpp:100] Creating Layer relu3_1
I0413 19:05:05.618876 15121 net.cpp:434] relu3_1 <- conv3_1
I0413 19:05:05.618882 15121 net.cpp:395] relu3_1 -> conv3_1 (in-place)
I0413 19:05:05.618891 15121 net.cpp:150] Setting up relu3_1
I0413 19:05:05.618896 15121 net.cpp:157] Top shape: 1 256 250 375 (24000000)
I0413 19:05:05.618898 15121 net.cpp:165] Memory required for data: 2694000116
I0413 19:05:05.618901 15121 layer_factory.hpp:77] Creating layer conv3_2
I0413 19:05:05.618912 15121 net.cpp:100] Creating Layer conv3_2
I0413 19:05:05.618926 15121 net.cpp:434] conv3_2 <- conv3_1
I0413 19:05:05.618932 15121 net.cpp:408] conv3_2 -> conv3_2
I0413 19:05:05.620195 15121 net.cpp:150] Setting up conv3_2
I0413 19:05:05.620223 15121 net.cpp:157] Top shape: 1 256 250 375 (24000000)
I0413 19:05:05.620226 15121 net.cpp:165] Memory required for data: 2790000116
I0413 19:05:05.620235 15121 layer_factory.hpp:77] Creating layer relu3_2
I0413 19:05:05.620245 15121 net.cpp:100] Creating Layer relu3_2
I0413 19:05:05.620249 15121 net.cpp:434] relu3_2 <- conv3_2
I0413 19:05:05.620255 15121 net.cpp:395] relu3_2 -> conv3_2 (in-place)
I0413 19:05:05.620265 15121 net.cpp:150] Setting up relu3_2
I0413 19:05:05.620282 15121 net.cpp:157] Top shape: 1 256 250 375 (24000000)
I0413 19:05:05.620287 15121 net.cpp:165] Memory required for data: 2886000116
I0413 19:05:05.620293 15121 layer_factory.hpp:77] Creating layer conv3_3
I0413 19:05:05.620308 15121 net.cpp:100] Creating Layer conv3_3
I0413 19:05:05.620333 15121 net.cpp:434] conv3_3 <- conv3_2
I0413 19:05:05.620347 15121 net.cpp:408] conv3_3 -> conv3_3
I0413 19:05:05.622628 15121 net.cpp:150] Setting up conv3_3
I0413 19:05:05.622678 15121 net.cpp:157] Top shape: 1 256 250 375 (24000000)
I0413 19:05:05.622684 15121 net.cpp:165] Memory required for data: 2982000116
I0413 19:05:05.622700 15121 layer_factory.hpp:77] Creating layer relu3_3
I0413 19:05:05.622714 15121 net.cpp:100] Creating Layer relu3_3
I0413 19:05:05.622722 15121 net.cpp:434] relu3_3 <- conv3_3
I0413 19:05:05.622735 15121 net.cpp:395] relu3_3 -> conv3_3 (in-place)
I0413 19:05:05.622750 15121 net.cpp:150] Setting up relu3_3
I0413 19:05:05.622758 15121 net.cpp:157] Top shape: 1 256 250 375 (24000000)
I0413 19:05:05.622763 15121 net.cpp:165] Memory required for data: 3078000116
I0413 19:05:05.622769 15121 layer_factory.hpp:77] Creating layer pool3
I0413 19:05:05.622781 15121 net.cpp:100] Creating Layer pool3
I0413 19:05:05.622787 15121 net.cpp:434] pool3 <- conv3_3
I0413 19:05:05.622797 15121 net.cpp:408] pool3 -> pool3
I0413 19:05:05.622858 15121 net.cpp:150] Setting up pool3
I0413 19:05:05.622870 15121 net.cpp:157] Top shape: 1 256 125 188 (6016000)
I0413 19:05:05.622876 15121 net.cpp:165] Memory required for data: 3102064116
I0413 19:05:05.622882 15121 layer_factory.hpp:77] Creating layer conv4_1
I0413 19:05:05.622896 15121 net.cpp:100] Creating Layer conv4_1
I0413 19:05:05.622903 15121 net.cpp:434] conv4_1 <- pool3
I0413 19:05:05.622911 15121 net.cpp:408] conv4_1 -> conv4_1
I0413 19:05:05.625710 15121 net.cpp:150] Setting up conv4_1
I0413 19:05:05.625744 15121 net.cpp:157] Top shape: 1 512 125 188 (12032000)
I0413 19:05:05.625757 15121 net.cpp:165] Memory required for data: 3150192116
I0413 19:05:05.625768 15121 layer_factory.hpp:77] Creating layer relu4_1
I0413 19:05:05.625780 15121 net.cpp:100] Creating Layer relu4_1
I0413 19:05:05.625785 15121 net.cpp:434] relu4_1 <- conv4_1
I0413 19:05:05.625793 15121 net.cpp:395] relu4_1 -> conv4_1 (in-place)
I0413 19:05:05.625803 15121 net.cpp:150] Setting up relu4_1
I0413 19:05:05.625809 15121 net.cpp:157] Top shape: 1 512 125 188 (12032000)
I0413 19:05:05.625813 15121 net.cpp:165] Memory required for data: 3198320116
I0413 19:05:05.625815 15121 layer_factory.hpp:77] Creating layer conv4_2
I0413 19:05:05.625823 15121 net.cpp:100] Creating Layer conv4_2
I0413 19:05:05.625828 15121 net.cpp:434] conv4_2 <- conv4_1
I0413 19:05:05.625833 15121 net.cpp:408] conv4_2 -> conv4_2
I0413 19:05:05.630020 15121 net.cpp:150] Setting up conv4_2
I0413 19:05:05.630053 15121 net.cpp:157] Top shape: 1 512 125 188 (12032000)
I0413 19:05:05.630056 15121 net.cpp:165] Memory required for data: 3246448116
I0413 19:05:05.630074 15121 layer_factory.hpp:77] Creating layer relu4_2
I0413 19:05:05.630084 15121 net.cpp:100] Creating Layer relu4_2
I0413 19:05:05.630087 15121 net.cpp:434] relu4_2 <- conv4_2
I0413 19:05:05.630095 15121 net.cpp:395] relu4_2 -> conv4_2 (in-place)
I0413 19:05:05.630105 15121 net.cpp:150] Setting up relu4_2
I0413 19:05:05.630110 15121 net.cpp:157] Top shape: 1 512 125 188 (12032000)
I0413 19:05:05.630112 15121 net.cpp:165] Memory required for data: 3294576116
I0413 19:05:05.630115 15121 layer_factory.hpp:77] Creating layer conv4_3
I0413 19:05:05.630125 15121 net.cpp:100] Creating Layer conv4_3
I0413 19:05:05.630128 15121 net.cpp:434] conv4_3 <- conv4_2
I0413 19:05:05.630133 15121 net.cpp:408] conv4_3 -> conv4_3
I0413 19:05:05.634384 15121 net.cpp:150] Setting up conv4_3
I0413 19:05:05.634416 15121 net.cpp:157] Top shape: 1 512 125 188 (12032000)
I0413 19:05:05.634429 15121 net.cpp:165] Memory required for data: 3342704116
I0413 19:05:05.634438 15121 layer_factory.hpp:77] Creating layer relu4_3
I0413 19:05:05.634449 15121 net.cpp:100] Creating Layer relu4_3
I0413 19:05:05.634454 15121 net.cpp:434] relu4_3 <- conv4_3
I0413 19:05:05.634461 15121 net.cpp:395] relu4_3 -> conv4_3 (in-place)
I0413 19:05:05.634472 15121 net.cpp:150] Setting up relu4_3
I0413 19:05:05.634477 15121 net.cpp:157] Top shape: 1 512 125 188 (12032000)
I0413 19:05:05.634480 15121 net.cpp:165] Memory required for data: 3390832116
I0413 19:05:05.634483 15121 layer_factory.hpp:77] Creating layer pool4
I0413 19:05:05.634490 15121 net.cpp:100] Creating Layer pool4
I0413 19:05:05.634492 15121 net.cpp:434] pool4 <- conv4_3
I0413 19:05:05.634497 15121 net.cpp:408] pool4 -> pool4
I0413 19:05:05.634533 15121 net.cpp:150] Setting up pool4
I0413 19:05:05.634541 15121 net.cpp:157] Top shape: 1 512 63 94 (3032064)
I0413 19:05:05.634544 15121 net.cpp:165] Memory required for data: 3402960372
I0413 19:05:05.634548 15121 layer_factory.hpp:77] Creating layer conv5_1
I0413 19:05:05.634559 15121 net.cpp:100] Creating Layer conv5_1
I0413 19:05:05.634565 15121 net.cpp:434] conv5_1 <- pool4
I0413 19:05:05.634572 15121 net.cpp:408] conv5_1 -> conv5_1
I0413 19:05:05.639199 15121 net.cpp:150] Setting up conv5_1
I0413 19:05:05.639240 15121 net.cpp:157] Top shape: 1 512 63 94 (3032064)
I0413 19:05:05.639243 15121 net.cpp:165] Memory required for data: 3415088628
I0413 19:05:05.639253 15121 layer_factory.hpp:77] Creating layer relu5_1
I0413 19:05:05.639263 15121 net.cpp:100] Creating Layer relu5_1
I0413 19:05:05.639268 15121 net.cpp:434] relu5_1 <- conv5_1
I0413 19:05:05.639276 15121 net.cpp:395] relu5_1 -> conv5_1 (in-place)
I0413 19:05:05.639286 15121 net.cpp:150] Setting up relu5_1
I0413 19:05:05.639291 15121 net.cpp:157] Top shape: 1 512 63 94 (3032064)
I0413 19:05:05.639293 15121 net.cpp:165] Memory required for data: 3427216884
I0413 19:05:05.639297 15121 layer_factory.hpp:77] Creating layer conv5_2
I0413 19:05:05.639305 15121 net.cpp:100] Creating Layer conv5_2
I0413 19:05:05.639309 15121 net.cpp:434] conv5_2 <- conv5_1
I0413 19:05:05.639315 15121 net.cpp:408] conv5_2 -> conv5_2
I0413 19:05:05.644469 15121 net.cpp:150] Setting up conv5_2
I0413 19:05:05.644513 15121 net.cpp:157] Top shape: 1 512 63 94 (3032064)
I0413 19:05:05.644518 15121 net.cpp:165] Memory required for data: 3439345140
I0413 19:05:05.644534 15121 layer_factory.hpp:77] Creating layer relu5_2
I0413 19:05:05.644548 15121 net.cpp:100] Creating Layer relu5_2
I0413 19:05:05.644556 15121 net.cpp:434] relu5_2 <- conv5_2
I0413 19:05:05.644567 15121 net.cpp:395] relu5_2 -> conv5_2 (in-place)
I0413 19:05:05.644582 15121 net.cpp:150] Setting up relu5_2
I0413 19:05:05.644615 15121 net.cpp:157] Top shape: 1 512 63 94 (3032064)
I0413 19:05:05.644632 15121 net.cpp:165] Memory required for data: 3451473396
I0413 19:05:05.644649 15121 layer_factory.hpp:77] Creating layer conv5_3
I0413 19:05:05.644683 15121 net.cpp:100] Creating Layer conv5_3
I0413 19:05:05.644703 15121 net.cpp:434] conv5_3 <- conv5_2
I0413 19:05:05.644724 15121 net.cpp:408] conv5_3 -> conv5_3
I0413 19:05:05.649358 15121 net.cpp:150] Setting up conv5_3
I0413 19:05:05.649391 15121 net.cpp:157] Top shape: 1 512 63 94 (3032064)
I0413 19:05:05.649405 15121 net.cpp:165] Memory required for data: 3463601652
I0413 19:05:05.649415 15121 layer_factory.hpp:77] Creating layer relu5_3
I0413 19:05:05.649425 15121 net.cpp:100] Creating Layer relu5_3
I0413 19:05:05.649430 15121 net.cpp:434] relu5_3 <- conv5_3
I0413 19:05:05.649436 15121 net.cpp:395] relu5_3 -> conv5_3 (in-place)
I0413 19:05:05.649446 15121 net.cpp:150] Setting up relu5_3
I0413 19:05:05.649451 15121 net.cpp:157] Top shape: 1 512 63 94 (3032064)
I0413 19:05:05.649454 15121 net.cpp:165] Memory required for data: 3475729908
I0413 19:05:05.649457 15121 layer_factory.hpp:77] Creating layer conv5_3_relu5_3_0_split
I0413 19:05:05.649464 15121 net.cpp:100] Creating Layer conv5_3_relu5_3_0_split
I0413 19:05:05.649467 15121 net.cpp:434] conv5_3_relu5_3_0_split <- conv5_3
I0413 19:05:05.649473 15121 net.cpp:408] conv5_3_relu5_3_0_split -> conv5_3_relu5_3_0_split_0
I0413 19:05:05.649482 15121 net.cpp:408] conv5_3_relu5_3_0_split -> conv5_3_relu5_3_0_split_1
I0413 19:05:05.649523 15121 net.cpp:150] Setting up conv5_3_relu5_3_0_split
I0413 19:05:05.649531 15121 net.cpp:157] Top shape: 1 512 63 94 (3032064)
I0413 19:05:05.649535 15121 net.cpp:157] Top shape: 1 512 63 94 (3032064)
I0413 19:05:05.649538 15121 net.cpp:165] Memory required for data: 3499986420
I0413 19:05:05.649541 15121 layer_factory.hpp:77] Creating layer rpn_big_conv1
I0413 19:05:05.649554 15121 net.cpp:100] Creating Layer rpn_big_conv1
I0413 19:05:05.649557 15121 net.cpp:434] rpn_big_conv1 <- conv5_3_relu5_3_0_split_0
I0413 19:05:05.649565 15121 net.cpp:408] rpn_big_conv1 -> rpn_big_conv1
I0413 19:05:05.675568 15121 net.cpp:150] Setting up rpn_big_conv1
I0413 19:05:05.675597 15121 net.cpp:157] Top shape: 1 512 63 94 (3032064)
I0413 19:05:05.675609 15121 net.cpp:165] Memory required for data: 3512114676
I0413 19:05:05.675621 15121 layer_factory.hpp:77] Creating layer rpn_big_conv1_relu
I0413 19:05:05.675632 15121 net.cpp:100] Creating Layer rpn_big_conv1_relu
I0413 19:05:05.675637 15121 net.cpp:434] rpn_big_conv1_relu <- rpn_big_conv1
I0413 19:05:05.675645 15121 net.cpp:395] rpn_big_conv1_relu -> rpn_big_conv1 (in-place)
I0413 19:05:05.675655 15121 net.cpp:150] Setting up rpn_big_conv1_relu
I0413 19:05:05.675660 15121 net.cpp:157] Top shape: 1 512 63 94 (3032064)
I0413 19:05:05.675663 15121 net.cpp:165] Memory required for data: 3524242932
I0413 19:05:05.675667 15121 layer_factory.hpp:77] Creating layer rpn_big_conv2
I0413 19:05:05.675678 15121 net.cpp:100] Creating Layer rpn_big_conv2
I0413 19:05:05.675680 15121 net.cpp:434] rpn_big_conv2 <- rpn_big_conv1
I0413 19:05:05.675688 15121 net.cpp:408] rpn_big_conv2 -> rpn_big_conv2
I0413 19:05:05.703088 15121 net.cpp:150] Setting up rpn_big_conv2
I0413 19:05:05.703119 15121 net.cpp:157] Top shape: 1 512 63 94 (3032064)
I0413 19:05:05.703131 15121 net.cpp:165] Memory required for data: 3536371188
I0413 19:05:05.703141 15121 layer_factory.hpp:77] Creating layer rpn_big_conv2_relu
I0413 19:05:05.703152 15121 net.cpp:100] Creating Layer rpn_big_conv2_relu
I0413 19:05:05.703157 15121 net.cpp:434] rpn_big_conv2_relu <- rpn_big_conv2
I0413 19:05:05.703166 15121 net.cpp:395] rpn_big_conv2_relu -> rpn_big_conv2 (in-place)
I0413 19:05:05.703177 15121 net.cpp:150] Setting up rpn_big_conv2_relu
I0413 19:05:05.703182 15121 net.cpp:157] Top shape: 1 512 63 94 (3032064)
I0413 19:05:05.703186 15121 net.cpp:165] Memory required for data: 3548499444
I0413 19:05:05.703188 15121 layer_factory.hpp:77] Creating layer rpn_big_conv2_drop
I0413 19:05:05.703197 15121 net.cpp:100] Creating Layer rpn_big_conv2_drop
I0413 19:05:05.703199 15121 net.cpp:434] rpn_big_conv2_drop <- rpn_big_conv2
I0413 19:05:05.703204 15121 net.cpp:395] rpn_big_conv2_drop -> rpn_big_conv2 (in-place)
I0413 19:05:05.703225 15121 net.cpp:150] Setting up rpn_big_conv2_drop
I0413 19:05:05.703232 15121 net.cpp:157] Top shape: 1 512 63 94 (3032064)
I0413 19:05:05.703234 15121 net.cpp:165] Memory required for data: 3560627700
I0413 19:05:05.703238 15121 layer_factory.hpp:77] Creating layer rpn_big_conv2_rpn_big_conv2_drop_0_split
I0413 19:05:05.703244 15121 net.cpp:100] Creating Layer rpn_big_conv2_rpn_big_conv2_drop_0_split
I0413 19:05:05.703248 15121 net.cpp:434] rpn_big_conv2_rpn_big_conv2_drop_0_split <- rpn_big_conv2
I0413 19:05:05.703254 15121 net.cpp:408] rpn_big_conv2_rpn_big_conv2_drop_0_split -> rpn_big_conv2_rpn_big_conv2_drop_0_split_0
I0413 19:05:05.703261 15121 net.cpp:408] rpn_big_conv2_rpn_big_conv2_drop_0_split -> rpn_big_conv2_rpn_big_conv2_drop_0_split_1
I0413 19:05:05.703299 15121 net.cpp:150] Setting up rpn_big_conv2_rpn_big_conv2_drop_0_split
I0413 19:05:05.703307 15121 net.cpp:157] Top shape: 1 512 63 94 (3032064)
I0413 19:05:05.703312 15121 net.cpp:157] Top shape: 1 512 63 94 (3032064)
I0413 19:05:05.703315 15121 net.cpp:165] Memory required for data: 3584884212
I0413 19:05:05.703318 15121 layer_factory.hpp:77] Creating layer rpn_big_output_cls
I0413 19:05:05.703330 15121 net.cpp:100] Creating Layer rpn_big_output_cls
I0413 19:05:05.703333 15121 net.cpp:434] rpn_big_output_cls <- rpn_big_conv2_rpn_big_conv2_drop_0_split_0
I0413 19:05:05.703339 15121 net.cpp:408] rpn_big_output_cls -> rpn_big_output_cls
I0413 19:05:05.724941 15121 net.cpp:150] Setting up rpn_big_output_cls
I0413 19:05:05.724972 15121 net.cpp:157] Top shape: 1 384 63 94 (2274048)
I0413 19:05:05.724977 15121 net.cpp:165] Memory required for data: 3593980404
I0413 19:05:05.724987 15121 layer_factory.hpp:77] Creating layer rpn_big_output_cls_relu
I0413 19:05:05.724997 15121 net.cpp:100] Creating Layer rpn_big_output_cls_relu
I0413 19:05:05.725003 15121 net.cpp:434] rpn_big_output_cls_relu <- rpn_big_output_cls
I0413 19:05:05.725010 15121 net.cpp:395] rpn_big_output_cls_relu -> rpn_big_output_cls (in-place)
I0413 19:05:05.725019 15121 net.cpp:150] Setting up rpn_big_output_cls_relu
I0413 19:05:05.725024 15121 net.cpp:157] Top shape: 1 384 63 94 (2274048)
I0413 19:05:05.725028 15121 net.cpp:165] Memory required for data: 3603076596
I0413 19:05:05.725030 15121 layer_factory.hpp:77] Creating layer rpn_big_cls_score
I0413 19:05:05.725044 15121 net.cpp:100] Creating Layer rpn_big_cls_score
I0413 19:05:05.725047 15121 net.cpp:434] rpn_big_cls_score <- rpn_big_output_cls
I0413 19:05:05.725054 15121 net.cpp:408] rpn_big_cls_score -> rpn_big_cls_score
I0413 19:05:05.727265 15121 net.cpp:150] Setting up rpn_big_cls_score
I0413 19:05:05.727277 15121 net.cpp:157] Top shape: 1 52 61 92 (291824)
I0413 19:05:05.727282 15121 net.cpp:165] Memory required for data: 3604243892
I0413 19:05:05.727304 15121 layer_factory.hpp:77] Creating layer rpn_big_cls_score_rpn_big_cls_score_0_split
I0413 19:05:05.727313 15121 net.cpp:100] Creating Layer rpn_big_cls_score_rpn_big_cls_score_0_split
I0413 19:05:05.727316 15121 net.cpp:434] rpn_big_cls_score_rpn_big_cls_score_0_split <- rpn_big_cls_score
I0413 19:05:05.727322 15121 net.cpp:408] rpn_big_cls_score_rpn_big_cls_score_0_split -> rpn_big_cls_score_rpn_big_cls_score_0_split_0
I0413 19:05:05.727329 15121 net.cpp:408] rpn_big_cls_score_rpn_big_cls_score_0_split -> rpn_big_cls_score_rpn_big_cls_score_0_split_1
I0413 19:05:05.727363 15121 net.cpp:150] Setting up rpn_big_cls_score_rpn_big_cls_score_0_split
I0413 19:05:05.727370 15121 net.cpp:157] Top shape: 1 52 61 92 (291824)
I0413 19:05:05.727373 15121 net.cpp:157] Top shape: 1 52 61 92 (291824)
I0413 19:05:05.727376 15121 net.cpp:165] Memory required for data: 3606578484
I0413 19:05:05.727380 15121 layer_factory.hpp:77] Creating layer rpn_big_cls_score_reshape
I0413 19:05:05.727391 15121 net.cpp:100] Creating Layer rpn_big_cls_score_reshape
I0413 19:05:05.727396 15121 net.cpp:434] rpn_big_cls_score_reshape <- rpn_big_cls_score_rpn_big_cls_score_0_split_0
I0413 19:05:05.727401 15121 net.cpp:408] rpn_big_cls_score_reshape -> rpn_big_cls_score_reshape
I0413 19:05:05.727425 15121 net.cpp:150] Setting up rpn_big_cls_score_reshape
I0413 19:05:05.727433 15121 net.cpp:157] Top shape: 1 2 1586 92 (291824)
I0413 19:05:05.727437 15121 net.cpp:165] Memory required for data: 3607745780
I0413 19:05:05.727439 15121 layer_factory.hpp:77] Creating layer rpn_big_cls_score_reshape_rpn_big_cls_score_reshape_0_split
I0413 19:05:05.727444 15121 net.cpp:100] Creating Layer rpn_big_cls_score_reshape_rpn_big_cls_score_reshape_0_split
I0413 19:05:05.727448 15121 net.cpp:434] rpn_big_cls_score_reshape_rpn_big_cls_score_reshape_0_split <- rpn_big_cls_score_reshape
I0413 19:05:05.727454 15121 net.cpp:408] rpn_big_cls_score_reshape_rpn_big_cls_score_reshape_0_split -> rpn_big_cls_score_reshape_rpn_big_cls_score_reshape_0_split_0
I0413 19:05:05.727461 15121 net.cpp:408] rpn_big_cls_score_reshape_rpn_big_cls_score_reshape_0_split -> rpn_big_cls_score_reshape_rpn_big_cls_score_reshape_0_split_1
I0413 19:05:05.727491 15121 net.cpp:150] Setting up rpn_big_cls_score_reshape_rpn_big_cls_score_reshape_0_split
I0413 19:05:05.727499 15121 net.cpp:157] Top shape: 1 2 1586 92 (291824)
I0413 19:05:05.727504 15121 net.cpp:157] Top shape: 1 2 1586 92 (291824)
I0413 19:05:05.727506 15121 net.cpp:165] Memory required for data: 3610080372
I0413 19:05:05.727509 15121 layer_factory.hpp:77] Creating layer rpn_big_cls_prob
I0413 19:05:05.727516 15121 net.cpp:100] Creating Layer rpn_big_cls_prob
I0413 19:05:05.727520 15121 net.cpp:434] rpn_big_cls_prob <- rpn_big_cls_score_reshape_rpn_big_cls_score_reshape_0_split_0
I0413 19:05:05.727525 15121 net.cpp:408] rpn_big_cls_prob -> rpn_big_cls_prob
I0413 19:05:05.727574 15121 net.cpp:150] Setting up rpn_big_cls_prob
I0413 19:05:05.727582 15121 net.cpp:157] Top shape: 1 2 1586 92 (291824)
I0413 19:05:05.727586 15121 net.cpp:165] Memory required for data: 3611247668
I0413 19:05:05.727588 15121 layer_factory.hpp:77] Creating layer rpn_big_cls_prob_reshape
I0413 19:05:05.727593 15121 net.cpp:100] Creating Layer rpn_big_cls_prob_reshape
I0413 19:05:05.727597 15121 net.cpp:434] rpn_big_cls_prob_reshape <- rpn_big_cls_prob
I0413 19:05:05.727603 15121 net.cpp:408] rpn_big_cls_prob_reshape -> rpn_big_cls_prob_reshape
I0413 19:05:05.727623 15121 net.cpp:150] Setting up rpn_big_cls_prob_reshape
I0413 19:05:05.727630 15121 net.cpp:157] Top shape: 1 52 61 92 (291824)
I0413 19:05:05.727633 15121 net.cpp:165] Memory required for data: 3612414964
I0413 19:05:05.727636 15121 layer_factory.hpp:77] Creating layer rpn_big_cls_prob_reshape_rpn_big_cls_prob_reshape_0_split
I0413 19:05:05.727641 15121 net.cpp:100] Creating Layer rpn_big_cls_prob_reshape_rpn_big_cls_prob_reshape_0_split
I0413 19:05:05.727645 15121 net.cpp:434] rpn_big_cls_prob_reshape_rpn_big_cls_prob_reshape_0_split <- rpn_big_cls_prob_reshape
I0413 19:05:05.727650 15121 net.cpp:408] rpn_big_cls_prob_reshape_rpn_big_cls_prob_reshape_0_split -> rpn_big_cls_prob_reshape_rpn_big_cls_prob_reshape_0_split_0
I0413 19:05:05.727658 15121 net.cpp:408] rpn_big_cls_prob_reshape_rpn_big_cls_prob_reshape_0_split -> rpn_big_cls_prob_reshape_rpn_big_cls_prob_reshape_0_split_1
I0413 19:05:05.727686 15121 net.cpp:150] Setting up rpn_big_cls_prob_reshape_rpn_big_cls_prob_reshape_0_split
I0413 19:05:05.727697 15121 net.cpp:157] Top shape: 1 52 61 92 (291824)
I0413 19:05:05.727704 15121 net.cpp:157] Top shape: 1 52 61 92 (291824)
I0413 19:05:05.727710 15121 net.cpp:165] Memory required for data: 3614749556
I0413 19:05:05.727716 15121 layer_factory.hpp:77] Creating layer rpn_big_anchor_target
I0413 19:05:05.729632 15121 net.cpp:100] Creating Layer rpn_big_anchor_target
I0413 19:05:05.729707 15121 net.cpp:434] rpn_big_anchor_target <- rpn_big_cls_score_rpn_big_cls_score_0_split_1
I0413 19:05:05.729735 15121 net.cpp:434] rpn_big_anchor_target <- input_gt_boxes_input_2_split_0
I0413 19:05:05.729758 15121 net.cpp:434] rpn_big_anchor_target <- input_ignored_boxes
I0413 19:05:05.729779 15121 net.cpp:434] rpn_big_anchor_target <- input_im_info_input_1_split_0
I0413 19:05:05.729799 15121 net.cpp:434] rpn_big_anchor_target <- input_data_input_0_split_1
I0413 19:05:05.729820 15121 net.cpp:434] rpn_big_anchor_target <- rpn_big_cls_prob_reshape_rpn_big_cls_prob_reshape_0_split_0
I0413 19:05:05.729845 15121 net.cpp:408] rpn_big_anchor_target -> rpn_big_anchor_target_labels
I0413 19:05:05.729874 15121 net.cpp:408] rpn_big_anchor_target -> rpn_big_anchor_target_bbox_targets
I0413 19:05:05.729902 15121 net.cpp:408] rpn_big_anchor_target -> rpn_big_anchor_target_inside_weights
I0413 19:05:05.729928 15121 net.cpp:408] rpn_big_anchor_target -> rpn_big_anchor_target_outside_weights
I0413 19:05:05.736944 15121 net.cpp:150] Setting up rpn_big_anchor_target
I0413 19:05:05.736984 15121 net.cpp:157] Top shape: 1 1 1586 92 (145912)
I0413 19:05:05.736999 15121 net.cpp:157] Top shape: 1 104 61 92 (583648)
I0413 19:05:05.737002 15121 net.cpp:157] Top shape: 1 104 61 92 (583648)
I0413 19:05:05.737006 15121 net.cpp:157] Top shape: 1 104 61 92 (583648)
I0413 19:05:05.737010 15121 net.cpp:165] Memory required for data: 3622336980
I0413 19:05:05.737015 15121 layer_factory.hpp:77] Creating layer rpn_big_loss_cls
I0413 19:05:05.737027 15121 net.cpp:100] Creating Layer rpn_big_loss_cls
I0413 19:05:05.737032 15121 net.cpp:434] rpn_big_loss_cls <- rpn_big_cls_score_reshape_rpn_big_cls_score_reshape_0_split_1
I0413 19:05:05.737040 15121 net.cpp:434] rpn_big_loss_cls <- rpn_big_anchor_target_labels
I0413 19:05:05.737046 15121 net.cpp:408] rpn_big_loss_cls -> rpn_big_loss_cls
I0413 19:05:05.737059 15121 layer_factory.hpp:77] Creating layer rpn_big_loss_cls
I0413 19:05:05.737772 15121 net.cpp:150] Setting up rpn_big_loss_cls
I0413 19:05:05.737789 15121 net.cpp:157] Top shape: (1)
I0413 19:05:05.737792 15121 net.cpp:160]     with loss weight 1
I0413 19:05:05.737812 15121 net.cpp:165] Memory required for data: 3622336984
I0413 19:05:05.737815 15121 layer_factory.hpp:77] Creating layer rpn_big_output_box
I0413 19:05:05.737830 15121 net.cpp:100] Creating Layer rpn_big_output_box
I0413 19:05:05.737834 15121 net.cpp:434] rpn_big_output_box <- rpn_big_conv2_rpn_big_conv2_drop_0_split_1
I0413 19:05:05.737843 15121 net.cpp:408] rpn_big_output_box -> rpn_big_output_box
I0413 19:05:05.758543 15121 net.cpp:150] Setting up rpn_big_output_box
I0413 19:05:05.758576 15121 net.cpp:157] Top shape: 1 384 63 94 (2274048)
I0413 19:05:05.758580 15121 net.cpp:165] Memory required for data: 3631433176
I0413 19:05:05.758591 15121 layer_factory.hpp:77] Creating layer rpn_big_output_box_relu
I0413 19:05:05.758602 15121 net.cpp:100] Creating Layer rpn_big_output_box_relu
I0413 19:05:05.758608 15121 net.cpp:434] rpn_big_output_box_relu <- rpn_big_output_box
I0413 19:05:05.758615 15121 net.cpp:395] rpn_big_output_box_relu -> rpn_big_output_box (in-place)
I0413 19:05:05.758625 15121 net.cpp:150] Setting up rpn_big_output_box_relu
I0413 19:05:05.758630 15121 net.cpp:157] Top shape: 1 384 63 94 (2274048)
I0413 19:05:05.758632 15121 net.cpp:165] Memory required for data: 3640529368
I0413 19:05:05.758635 15121 layer_factory.hpp:77] Creating layer rpn_big_bbox_pred
I0413 19:05:05.758646 15121 net.cpp:100] Creating Layer rpn_big_bbox_pred
I0413 19:05:05.758651 15121 net.cpp:434] rpn_big_bbox_pred <- rpn_big_output_box
I0413 19:05:05.758657 15121 net.cpp:408] rpn_big_bbox_pred -> rpn_big_bbox_pred
I0413 19:05:05.763640 15121 net.cpp:150] Setting up rpn_big_bbox_pred
I0413 19:05:05.763681 15121 net.cpp:157] Top shape: 1 104 61 92 (583648)
I0413 19:05:05.763689 15121 net.cpp:165] Memory required for data: 3642863960
I0413 19:05:05.763703 15121 layer_factory.hpp:77] Creating layer rpn_big_bbox_pred_rpn_big_bbox_pred_0_split
I0413 19:05:05.763717 15121 net.cpp:100] Creating Layer rpn_big_bbox_pred_rpn_big_bbox_pred_0_split
I0413 19:05:05.763726 15121 net.cpp:434] rpn_big_bbox_pred_rpn_big_bbox_pred_0_split <- rpn_big_bbox_pred
I0413 19:05:05.763737 15121 net.cpp:408] rpn_big_bbox_pred_rpn_big_bbox_pred_0_split -> rpn_big_bbox_pred_rpn_big_bbox_pred_0_split_0
I0413 19:05:05.763754 15121 net.cpp:408] rpn_big_bbox_pred_rpn_big_bbox_pred_0_split -> rpn_big_bbox_pred_rpn_big_bbox_pred_0_split_1
I0413 19:05:05.763805 15121 net.cpp:150] Setting up rpn_big_bbox_pred_rpn_big_bbox_pred_0_split
I0413 19:05:05.763818 15121 net.cpp:157] Top shape: 1 104 61 92 (583648)
I0413 19:05:05.763825 15121 net.cpp:157] Top shape: 1 104 61 92 (583648)
I0413 19:05:05.763831 15121 net.cpp:165] Memory required for data: 3647533144
I0413 19:05:05.763837 15121 layer_factory.hpp:77] Creating layer rpn_big_loss_bbox
I0413 19:05:05.764329 15121 net.cpp:100] Creating Layer rpn_big_loss_bbox
I0413 19:05:05.764341 15121 net.cpp:434] rpn_big_loss_bbox <- rpn_big_bbox_pred_rpn_big_bbox_pred_0_split_0
I0413 19:05:05.764358 15121 net.cpp:434] rpn_big_loss_bbox <- rpn_big_anchor_target_bbox_targets
I0413 19:05:05.764366 15121 net.cpp:434] rpn_big_loss_bbox <- rpn_big_anchor_target_inside_weights
I0413 19:05:05.764374 15121 net.cpp:434] rpn_big_loss_bbox <- rpn_big_anchor_target_outside_weights
I0413 19:05:05.764384 15121 net.cpp:408] rpn_big_loss_bbox -> rpn_big_loss_bbox
I0413 19:05:05.766664 15121 net.cpp:150] Setting up rpn_big_loss_bbox
I0413 19:05:05.766695 15121 net.cpp:157] Top shape: 1 (1)
I0413 19:05:05.766707 15121 net.cpp:160]     with loss weight 1
I0413 19:05:05.766718 15121 net.cpp:165] Memory required for data: 3647533148
I0413 19:05:05.766726 15121 layer_factory.hpp:77] Creating layer proposal
I0413 19:05:05.767133 15121 net.cpp:100] Creating Layer proposal
I0413 19:05:05.767144 15121 net.cpp:434] proposal <- rpn_big_cls_prob_reshape_rpn_big_cls_prob_reshape_0_split_1
I0413 19:05:05.767161 15121 net.cpp:434] proposal <- rpn_big_bbox_pred_rpn_big_bbox_pred_0_split_1
I0413 19:05:05.767166 15121 net.cpp:434] proposal <- input_im_info_input_1_split_1
I0413 19:05:05.767174 15121 net.cpp:408] proposal -> rpn_rois
I0413 19:05:05.771524 15121 net.cpp:150] Setting up proposal
I0413 19:05:05.771536 15121 net.cpp:157] Top shape: 1 5 (5)
I0413 19:05:05.771539 15121 net.cpp:165] Memory required for data: 3647533168
I0413 19:05:05.771551 15121 layer_factory.hpp:77] Creating layer roi-data
I0413 19:05:05.773386 15121 net.cpp:100] Creating Layer roi-data
I0413 19:05:05.773402 15121 net.cpp:434] roi-data <- rpn_rois
I0413 19:05:05.773409 15121 net.cpp:434] roi-data <- input_gt_boxes_input_2_split_1
I0413 19:05:05.773416 15121 net.cpp:408] roi-data -> rois
…
