…
I0413 17:35:09.727089 10439 solver.cpp:48] Initializing solver from parameters: 
base_lr: 0.001
display: 20
lr_policy: "multistep"
gamma: 0.1
momentum: 0.9
weight_decay: 0.0005
snapshot: 0
snapshot_prefix: "faces_example"
net_param {
  name: "GeneratedModel_13_04_2017_17_35"
  layer {
    name: "input"
    type: "Python"
    top: "input_data"
    top: "input_im_info"
    top: "input_gt_boxes"
    top: "input_ignored_boxes"
    python_param {
      module: "layers.roi_data_layer"
      layer: "RoIDataLayer"
      param_str: "{\"num_classes\": 2}"
    }
  }
  layer {
    name: "conv1_1"
    type: "Convolution"
    bottom: "input_data"
    top: "conv1_1"
    param {
      lr_mult: 0
      decay_mult: 0
    }
    param {
      lr_mult: 0
      decay_mult: 0
    }
    convolution_param {
      num_output: 64
      pad: 1
      kernel_size: 3
    }
  }
  layer {
    name: "relu1_1"
    type: "ReLU"
    bottom: "conv1_1"
    top: "conv1_1"
  }
  layer {
    name: "conv1_2"
    type: "Convolution"
    bottom: "conv1_1"
    top: "conv1_2"
    param {
      lr_mult: 0
      decay_mult: 0
    }
    param {
      lr_mult: 0
      decay_mult: 0
    }
    convolution_param {
      num_output: 64
      pad: 1
      kernel_size: 3
    }
  }
  layer {
    name: "relu1_2"
    type: "ReLU"
    bottom: "conv1_2"
    top: "conv1_2"
  }
  layer {
    name: "pool1"
    type: "Pooling"
    bottom: "conv1_2"
    top: "pool1"
    pooling_param {
      pool: MAX
      kernel_size: 2
      stride: 2
    }
  }
  layer {
    name: "conv2_1"
    type: "Convolution"
    bottom: "pool1"
    top: "conv2_1"
    param {
      lr_mult: 0
      decay_mult: 0
    }
    param {
      lr_mult: 0
      decay_mult: 0
    }
    convolution_param {
      num_output: 128
      pad: 1
      kernel_size: 3
    }
  }
  layer {
    name: "relu2_1"
    type: "ReLU"
    bottom: "conv2_1"
    top: "conv2_1"
  }
  layer {
    name: "conv2_2"
    type: "Convolution"
    bottom: "conv2_1"
    top: "conv2_2"
    param {
      lr_mult: 0
      decay_mult: 0
    }
    param {
      lr_mult: 0
      decay_mult: 0
    }
    convolution_param {
      num_output: 128
      pad: 1
      kernel_size: 3
    }
  }
  layer {
    name: "relu2_2"
    type: "ReLU"
    bottom: "conv2_2"
    top: "conv2_2"
  }
  layer {
    name: "pool2"
    type: "Pooling"
    bottom: "conv2_2"
    top: "pool2"
    pooling_param {
      pool: MAX
      kernel_size: 2
      stride: 2
    }
  }
  layer {
    name: "conv3_1"
    type: "Convolution"
    bottom: "pool2"
    top: "conv3_1"
    param {
      lr_mult: 1
    }
    param {
      lr_mult: 2
    }
    convolution_param {
      num_output: 256
      pad: 1
      kernel_size: 3
    }
  }
  layer {
    name: "relu3_1"
    type: "ReLU"
    bottom: "conv3_1"
    top: "conv3_1"
  }
  layer {
    name: "conv3_2"
    type: "Convolution"
    bottom: "conv3_1"
    top: "conv3_2"
    param {
      lr_mult: 1
    }
    param {
      lr_mult: 2
    }
    convolution_param {
      num_output: 256
      pad: 1
      kernel_size: 3
    }
  }
  layer {
    name: "relu3_2"
    type: "ReLU"
    bottom: "conv3_2"
    top: "conv3_2"
  }
  layer {
    name: "conv3_3"
    type: "Convolution"
    bottom: "conv3_2"
    top: "conv3_3"
    param {
      lr_mult: 1
    }
    param {
      lr_mult: 2
    }
    convolution_param {
      num_output: 256
      pad: 1
      kernel_size: 3
    }
  }
  layer {
    name: "relu3_3"
    type: "ReLU"
    bottom: "conv3_3"
    top: "conv3_3"
  }
  layer {
    name: "pool3"
    type: "Pooling"
    bottom: "conv3_3"
    top: "pool3"
    pooling_param {
      pool: MAX
      kernel_size: 2
      stride: 2
    }
  }
  layer {
    name: "conv4_1"
    type: "Convolution"
    bottom: "pool3"
    top: "conv4_1"
    param {
      lr_mult: 1
    }
    param {
      lr_mult: 2
    }
    convolution_param {
      num_output: 512
      pad: 1
      kernel_size: 3
    }
  }
  layer {
    name: "relu4_1"
    type: "ReLU"
    bottom: "conv4_1"
    top: "conv4_1"
  }
  layer {
    name: "conv4_2"
    type: "Convolution"
    bottom: "conv4_1"
    top: "conv4_2"
    param {
      lr_mult: 1
    }
    param {
      lr_mult: 2
    }
    convolution_param {
      num_output: 512
      pad: 1
      kernel_size: 3
    }
  }
  layer {
    name: "relu4_2"
    type: "ReLU"
    bottom: "conv4_2"
    top: "conv4_2"
  }
  layer {
    name: "conv4_3"
    type: "Convolution"
    bottom: "conv4_2"
    top: "conv4_3"
    param {
      lr_mult: 1
    }
    param {
      lr_mult: 2
    }
    convolution_param {
      num_output: 512
      pad: 1
      kernel_size: 3
    }
  }
  layer {
    name: "relu4_3"
    type: "ReLU"
    bottom: "conv4_3"
    top: "conv4_3"
  }
  layer {
    name: "pool4"
    type: "Pooling"
    bottom: "conv4_3"
    top: "pool4"
    pooling_param {
      pool: MAX
      kernel_size: 2
      stride: 2
    }
  }
  layer {
    name: "conv5_1"
    type: "Convolution"
    bottom: "pool4"
    top: "conv5_1"
    param {
      lr_mult: 1
    }
    param {
      lr_mult: 2
    }
    convolution_param {
      num_output: 512
      pad: 1
      kernel_size: 3
    }
  }
  layer {
    name: "relu5_1"
    type: "ReLU"
    bottom: "conv5_1"
    top: "conv5_1"
  }
  layer {
    name: "conv5_2"
    type: "Convolution"
    bottom: "conv5_1"
    top: "conv5_2"
    param {
      lr_mult: 1
    }
    param {
      lr_mult: 2
    }
    convolution_param {
      num_output: 512
      pad: 1
      kernel_size: 3
    }
  }
  layer {
    name: "relu5_2"
    type: "ReLU"
    bottom: "conv5_2"
    top: "conv5_2"
  }
  layer {
    name: "conv5_3"
    type: "Convolution"
    bottom: "conv5_2"
    top: "conv5_3"
    param {
      lr_mult: 1
    }
    param {
      lr_mult: 2
    }
    convolution_param {
      num_output: 512
      pad: 1
      kernel_size: 3
    }
  }
  layer {
    name: "relu5_3"
    type: "ReLU"
    bottom: "conv5_3"
    top: "conv5_3"
  }
  layer {
    name: "rpn_big_conv1"
    type: "Convolution"
    bottom: "conv5_3"
    top: "rpn_big_conv1"
    param {
      lr_mult: 1
    }
    param {
      lr_mult: 2
    }
    convolution_param {
      num_output: 512
      pad: 1
      kernel_size: 3
      stride: 1
      weight_filler {
        type: "gaussian"
        mean: 0
        std: 0.01
      }
      bias_filler {
        type: "constant"
      }
    }
  }
  layer {
    name: "rpn_big_conv1_relu"
    type: "ReLU"
    bottom: "rpn_big_conv1"
    top: "rpn_big_conv1"
    relu_param {
      negative_slope: 0
    }
  }
  layer {
    name: "rpn_big_conv2"
    type: "Convolution"
    bottom: "rpn_big_conv1"
    top: "rpn_big_conv2"
    param {
      lr_mult: 1
    }
    param {
      lr_mult: 2
    }
    convolution_param {
      num_output: 512
      pad: 1
      kernel_size: 3
      stride: 1
      weight_filler {
        type: "gaussian"
        mean: 0
        std: 0.01
      }
      bias_filler {
        type: "constant"
      }
    }
  }
  layer {
    name: "rpn_big_conv2_relu"
    type: "ReLU"
    bottom: "rpn_big_conv2"
    top: "rpn_big_conv2"
    relu_param {
      negative_slope: 0
    }
  }
  layer {
    name: "rpn_big_conv2_drop"
    type: "Dropout"
    bottom: "rpn_big_conv2"
    top: "rpn_big_conv2"
    dropout_param {
      dropout_ratio: 0.3
    }
  }
  layer {
    name: "rpn_big_output_cls"
    type: "Convolution"
    bottom: "rpn_big_conv2"
    top: "rpn_big_output_cls"
    param {
      lr_mult: 1
    }
    param {
      lr_mult: 2
    }
    convolution_param {
      num_output: 384
      pad: 1
      kernel_size: 3
      stride: 1
      weight_filler {
        type: "gaussian"
        mean: 0
        std: 0.01
      }
      bias_filler {
        type: "constant"
      }
    }
  }
  layer {
    name: "rpn_big_output_cls_relu"
    type: "ReLU"
    bottom: "rpn_big_output_cls"
    top: "rpn_big_output_cls"
    relu_param {
      negative_slope: 0
    }
  }
  layer {
    name: "rpn_big_cls_score"
    type: "Convolution"
    bottom: "rpn_big_output_cls"
    top: "rpn_big_cls_score"
    param {
      lr_mult: 1
    }
    param {
      lr_mult: 2
    }
    convolution_param {
      num_output: 52
      pad: 0
      kernel_size: 3
      stride: 1
      weight_filler {
        type: "gaussian"
        mean: 0
        std: 0.01
      }
      bias_filler {
        type: "constant"
      }
    }
  }
  layer {
    name: "rpn_big_cls_score_reshape"
    type: "Reshape"
    bottom: "rpn_big_cls_score"
    top: "rpn_big_cls_score_reshape"
    reshape_param {
      shape {
        dim: 0
        dim: 2
        dim: -1
        dim: 0
      }
    }
  }
  layer {
    name: "rpn_big_cls_prob"
    type: "Softmax"
    bottom: "rpn_big_cls_score_reshape"
    top: "rpn_big_cls_prob"
  }
  layer {
    name: "rpn_big_cls_prob_reshape"
    type: "Reshape"
    bottom: "rpn_big_cls_prob"
    top: "rpn_big_cls_prob_reshape"
    reshape_param {
      shape {
        dim: 0
        dim: 52
        dim: -1
        dim: 0
      }
    }
  }
  layer {
    name: "rpn_big_anchor_target"
    type: "Python"
    bottom: "rpn_big_cls_score"
    bottom: "input_gt_boxes"
    bottom: "input_ignored_boxes"
    bottom: "input_im_info"
    bottom: "input_data"
    bottom: "rpn_big_cls_prob_reshape"
    top: "rpn_big_anchor_target_labels"
    top: "rpn_big_anchor_target_bbox_targets"
    top: "rpn_big_anchor_target_inside_weights"
    top: "rpn_big_anchor_target_outside_weights"
    python_param {
      module: "rpn.anchor_target_layer"
      layer: "AnchorTargetLayer"
      param_str: "{\"num_classes\": 1, \"feat_stride\": 16, \"batchsize\": 256, \"anchor_shift_num_xy\": [[2, 2], [2, 2], [2, 2], [2, 2], [1, 1], [1, 1], [1, 1], [1, 1], [1, 1], [1, 1], [1, 1], [1, 1], [1, 1], [1, 1]], \"anchor_scales\": [2.5, 3.025, 3.66025, 4.4289024999999995, 5.358972025, 6.484356150249999, 7.846070941802498, 9.493745839581022, 11.487432465893036, 13.899793283730574, 16.818749873313998, 20.350687346709933, 24.62433168951902, 29.795441344318014], \"anchor_ratios\": [1.0], \"negative_overlap\": 0.4, \"name\": \"rpn_big\", \"fg_fraction\": 0.5, \"positive_overlap\": 0.6, \"square_targets\": true, \"tn_fraction\": 0.2}"
    }
  }
  layer {
    name: "rpn_big_loss_cls"
    type: "SoftmaxWithLoss"
    bottom: "rpn_big_cls_score_reshape"
    bottom: "rpn_big_anchor_target_labels"
    top: "rpn_big_loss_cls"
    loss_weight: 1
    propagate_down: true
    propagate_down: false
    loss_param {
      ignore_label: -1
      normalization: VALID
    }
  }
  layer {
    name: "rpn_big_output_box"
    type: "Convolution"
    bottom: "rpn_big_conv2"
    top: "rpn_big_output_box"
    param {
      lr_mult: 1
    }
    param {
      lr_mult: 2
    }
    convolution_param {
      num_output: 384
      pad: 1
      kernel_size: 3
      stride: 1
      weight_filler {
        type: "gaussian"
        mean: 0
        std: 0.01
      }
      bias_filler {
        type: "constant"
      }
    }
  }
  layer {
    name: "rpn_big_output_box_relu"
    type: "ReLU"
    bottom: "rpn_big_output_box"
    top: "rpn_big_output_box"
    relu_param {
      negative_slope: 0
    }
  }
  layer {
    name: "rpn_big_bbox_pred"
    type: "Convolution"
    bottom: "rpn_big_output_box"
    top: "rpn_big_bbox_pred"
    param {
      lr_mult: 1
    }
    param {
      lr_mult: 2
    }
    convolution_param {
      num_output: 104
      pad: 0
      kernel_size: 3
      stride: 1
      weight_filler {
        type: "gaussian"
        mean: 0
        std: 0.01
      }
      bias_filler {
        type: "constant"
      }
    }
  }
  layer {
    name: "rpn_big_loss_bbox"
    type: "Python"
    bottom: "rpn_big_bbox_pred"
    bottom: "rpn_big_anchor_target_bbox_targets"
    bottom: "rpn_big_anchor_target_inside_weights"
    bottom: "rpn_big_anchor_target_outside_weights"
    top: "rpn_big_loss_bbox"
    loss_weight: 1
    python_param {
      module: "layers.smooth_l1_loss"
      layer: "SmoothL1LossLayer"
      param_str: "{\"sigma\": 3}"
    }
  }
  layer {
    name: "proposal"
    type: "Python"
    bottom: "rpn_big_cls_prob_reshape"
    bottom: "rpn_big_bbox_pred"
    bottom: "input_im_info"
    top: "rpn_rois"
    python_param {
      module: "rpn.proposal_layer"
      layer: "ProposalLayer"
      param_str: "{\"anchor_shift_num_xy\": [[2, 2], [2, 2], [2, 2], [2, 2], [1, 1], [1, 1], [1, 1], [1, 1], [1, 1], [1, 1], [1, 1], [1, 1], [1, 1], [1, 1]], \"feat_stride\": 16, \"num_classes\": 1, \"anchor_scales\": [2.5, 3.025, 3.66025, 4.4289024999999995, 5.358972025, 6.484356150249999, 7.846070941802498, 9.493745839581022, 11.487432465893036, 13.899793283730574, 16.818749873313998, 20.350687346709933, 24.62433168951902, 29.795441344318014], \"square_targets\": true, \"name\": \"rpn_big\", \"batchsize\": 256, \"anchor_ratios\": [1.0]}"
    }
  }
}
average_loss: 100
stepvalue: 70000
stepvalue: 120000
iter_size: 2
I0413 17:35:09.727186 10439 solver.cpp:86] Creating training net specified in net_param.
I0413 17:35:09.727769 10439 net.cpp:58] Initializing net from parameters: 
name: "GeneratedModel_13_04_2017_17_35"
state {
  phase: TRAIN
}
layer {
  name: "input"
  type: "Python"
  top: "input_data"
  top: "input_im_info"
  top: "input_gt_boxes"
  top: "input_ignored_boxes"
  python_param {
    module: "layers.roi_data_layer"
    layer: "RoIDataLayer"
    param_str: "{\"num_classes\": 2}"
  }
}
layer {
  name: "conv1_1"
  type: "Convolution"
  bottom: "input_data"
  top: "conv1_1"
  param {
    lr_mult: 0
    decay_mult: 0
  }
  param {
    lr_mult: 0
    decay_mult: 0
  }
  convolution_param {
    num_output: 64
    pad: 1
    kernel_size: 3
  }
}
layer {
  name: "relu1_1"
  type: "ReLU"
  bottom: "conv1_1"
  top: "conv1_1"
}
layer {
  name: "conv1_2"
  type: "Convolution"
  bottom: "conv1_1"
  top: "conv1_2"
  param {
    lr_mult: 0
    decay_mult: 0
  }
  param {
    lr_mult: 0
    decay_mult: 0
  }
  convolution_param {
    num_output: 64
    pad: 1
    kernel_size: 3
  }
}
layer {
  name: "relu1_2"
  type: "ReLU"
  bottom: "conv1_2"
  top: "conv1_2"
}
layer {
  name: "pool1"
  type: "Pooling"
  bottom: "conv1_2"
  top: "pool1"
  pooling_param {
    pool: MAX
    kernel_size: 2
    stride: 2
  }
}
layer {
  name: "conv2_1"
  type: "Convolution"
  bottom: "pool1"
  top: "conv2_1"
  param {
    lr_mult: 0
    decay_mult: 0
  }
  param {
    lr_mult: 0
    decay_mult: 0
  }
  convolution_param {
    num_output: 128
    pad: 1
    kernel_size: 3
  }
}
layer {
  name: "relu2_1"
  type: "ReLU"
  bottom: "conv2_1"
  top: "conv2_1"
}
layer {
  name: "conv2_2"
  type: "Convolution"
  bottom: "conv2_1"
  top: "conv2_2"
  param {
    lr_mult: 0
    decay_mult: 0
  }
  param {
    lr_mult: 0
    decay_mult: 0
  }
  convolution_param {
    num_output: 128
    pad: 1
    kernel_size: 3
  }
}
layer {
  name: "relu2_2"
  type: "ReLU"
  bottom: "conv2_2"
  top: "conv2_2"
}
layer {
  name: "pool2"
  type: "Pooling"
  bottom: "conv2_2"
  top: "pool2"
  pooling_param {
    pool: MAX
    kernel_size: 2
    stride: 2
  }
}
layer {
  name: "conv3_1"
  type: "Convolution"
  bottom: "pool2"
  top: "conv3_1"
  param {
    lr_mult: 1
  }
  param {
    lr_mult: 2
  }
  convolution_param {
    num_output: 256
    pad: 1
    kernel_size: 3
  }
}
layer {
  name: "relu3_1"
  type: "ReLU"
  bottom: "conv3_1"
  top: "conv3_1"
}
layer {
  name: "conv3_2"
  type: "Convolution"
  bottom: "conv3_1"
  top: "conv3_2"
  param {
    lr_mult: 1
  }
  param {
    lr_mult: 2
  }
  convolution_param {
    num_output: 256
    pad: 1
    kernel_size: 3
  }
}
layer {
  name: "relu3_2"
  type: "ReLU"
  bottom: "conv3_2"
  top: "conv3_2"
}
layer {
  name: "conv3_3"
  type: "Convolution"
  bottom: "conv3_2"
  top: "conv3_3"
  param {
    lr_mult: 1
  }
  param {
    lr_mult: 2
  }
  convolution_param {
    num_output: 256
    pad: 1
    kernel_size: 3
  }
}
layer {
  name: "relu3_3"
  type: "ReLU"
  bottom: "conv3_3"
  top: "conv3_3"
}
layer {
  name: "pool3"
  type: "Pooling"
  bottom: "conv3_3"
  top: "pool3"
  pooling_param {
    pool: MAX
    kernel_size: 2
    stride: 2
  }
}
layer {
  name: "conv4_1"
  type: "Convolution"
  bottom: "pool3"
  top: "conv4_1"
  param {
    lr_mult: 1
  }
  param {
    lr_mult: 2
  }
  convolution_param {
    num_output: 512
    pad: 1
    kernel_size: 3
  }
}
layer {
  name: "relu4_1"
  type: "ReLU"
  bottom: "conv4_1"
  top: "conv4_1"
}
layer {
  name: "conv4_2"
  type: "Convolution"
  bottom: "conv4_1"
  top: "conv4_2"
  param {
    lr_mult: 1
  }
  param {
    lr_mult: 2
  }
  convolution_param {
    num_output: 512
    pad: 1
    kernel_size: 3
  }
}
layer {
  name: "relu4_2"
  type: "ReLU"
  bottom: "conv4_2"
  top: "conv4_2"
}
layer {
  name: "conv4_3"
  type: "Convolution"
  bottom: "conv4_2"
  top: "conv4_3"
  param {
    lr_mult: 1
  }
  param {
    lr_mult: 2
  }
  convolution_param {
    num_output: 512
    pad: 1
    kernel_size: 3
  }
}
layer {
  name: "relu4_3"
  type: "ReLU"
  bottom: "conv4_3"
  top: "conv4_3"
}
layer {
  name: "pool4"
  type: "Pooling"
  bottom: "conv4_3"
  top: "pool4"
  pooling_param {
    pool: MAX
    kernel_size: 2
    stride: 2
  }
}
layer {
  name: "conv5_1"
  type: "Convolution"
  bottom: "pool4"
  top: "conv5_1"
  param {
    lr_mult: 1
  }
  param {
    lr_mult: 2
  }
  convolution_param {
    num_output: 512
    pad: 1
    kernel_size: 3
  }
}
layer {
  name: "relu5_1"
  type: "ReLU"
  bottom: "conv5_1"
  top: "conv5_1"
}
layer {
  name: "conv5_2"
  type: "Convolution"
  bottom: "conv5_1"
  top: "conv5_2"
  param {
    lr_mult: 1
  }
  param {
    lr_mult: 2
  }
  convolution_param {
    num_output: 512
    pad: 1
    kernel_size: 3
  }
}
layer {
  name: "relu5_2"
  type: "ReLU"
  bottom: "conv5_2"
  top: "conv5_2"
}
layer {
  name: "conv5_3"
  type: "Convolution"
  bottom: "conv5_2"
  top: "conv5_3"
  param {
    lr_mult: 1
  }
  param {
    lr_mult: 2
  }
  convolution_param {
    num_output: 512
    pad: 1
    kernel_size: 3
  }
}
layer {
  name: "relu5_3"
  type: "ReLU"
  bottom: "conv5_3"
  top: "conv5_3"
}
layer {
  name: "rpn_big_conv1"
  type: "Convolution"
  bottom: "conv5_3"
  top: "rpn_big_conv1"
  param {
    lr_mult: 1
  }
  param {
    lr_mult: 2
  }
  convolution_param {
    num_output: 512
    pad: 1
    kernel_size: 3
    stride: 1
    weight_filler {
      type: "gaussian"
      mean: 0
      std: 0.01
    }
    bias_filler {
      type: "constant"
    }
  }
}
layer {
  name: "rpn_big_conv1_relu"
  type: "ReLU"
  bottom: "rpn_big_conv1"
  top: "rpn_big_conv1"
  relu_param {
    negative_slope: 0
  }
}
layer {
  name: "rpn_big_conv2"
  type: "Convolution"
  bottom: "rpn_big_conv1"
  top: "rpn_big_conv2"
  param {
    lr_mult: 1
  }
  param {
    lr_mult: 2
  }
  convolution_param {
    num_output: 512
    pad: 1
    kernel_size: 3
    stride: 1
    weight_filler {
      type: "gaussian"
      mean: 0
      std: 0.01
    }
    bias_filler {
      type: "constant"
    }
  }
}
layer {
  name: "rpn_big_conv2_relu"
  type: "ReLU"
  bottom: "rpn_big_conv2"
  top: "rpn_big_conv2"
  relu_param {
    negative_slope: 0
  }
}
layer {
  name: "rpn_big_conv2_drop"
  type: "Dropout"
  bottom: "rpn_big_conv2"
  top: "rpn_big_conv2"
  dropout_param {
    dropout_ratio: 0.3
  }
}
layer {
  name: "rpn_big_output_cls"
  type: "Convolution"
  bottom: "rpn_big_conv2"
  top: "rpn_big_output_cls"
  param {
    lr_mult: 1
  }
  param {
    lr_mult: 2
  }
  convolution_param {
    num_output: 384
    pad: 1
    kernel_size: 3
    stride: 1
    weight_filler {
      type: "gaussian"
      mean: 0
      std: 0.01
    }
    bias_filler {
      type: "constant"
    }
  }
}
layer {
  name: "rpn_big_output_cls_relu"
  type: "ReLU"
  bottom: "rpn_big_output_cls"
  top: "rpn_big_output_cls"
  relu_param {
    negative_slope: 0
  }
}
layer {
  name: "rpn_big_cls_score"
  type: "Convolution"
  bottom: "rpn_big_output_cls"
  top: "rpn_big_cls_score"
  param {
    lr_mult: 1
  }
  param {
    lr_mult: 2
  }
  convolution_param {
    num_output: 52
    pad: 0
    kernel_size: 3
    stride: 1
    weight_filler {
      type: "gaussian"
      mean: 0
      std: 0.01
    }
    bias_filler {
      type: "constant"
    }
  }
}
layer {
  name: "rpn_big_cls_score_reshape"
  type: "Reshape"
  bottom: "rpn_big_cls_score"
  top: "rpn_big_cls_score_reshape"
  reshape_param {
    shape {
      dim: 0
      dim: 2
      dim: -1
      dim: 0
    }
  }
}
layer {
  name: "rpn_big_cls_prob"
  type: "Softmax"
  bottom: "rpn_big_cls_score_reshape"
  top: "rpn_big_cls_prob"
}
layer {
  name: "rpn_big_cls_prob_reshape"
  type: "Reshape"
  bottom: "rpn_big_cls_prob"
  top: "rpn_big_cls_prob_reshape"
  reshape_param {
    shape {
      dim: 0
      dim: 52
      dim: -1
      dim: 0
    }
  }
}
layer {
  name: "rpn_big_anchor_target"
  type: "Python"
  bottom: "rpn_big_cls_score"
  bottom: "input_gt_boxes"
  bottom: "input_ignored_boxes"
  bottom: "input_im_info"
  bottom: "input_data"
  bottom: "rpn_big_cls_prob_reshape"
  top: "rpn_big_anchor_target_labels"
  top: "rpn_big_anchor_target_bbox_targets"
  top: "rpn_big_anchor_target_inside_weights"
  top: "rpn_big_anchor_target_outside_weights"
  python_param {
    module: "rpn.anchor_target_layer"
    layer: "AnchorTargetLayer"
    param_str: "{\"num_classes\": 1, \"feat_stride\": 16, \"batchsize\": 256, \"anchor_shift_num_xy\": [[2, 2], [2, 2], [2, 2], [2, 2], [1, 1], [1, 1], [1, 1], [1, 1], [1, 1], [1, 1], [1, 1], [1, 1], [1, 1], [1, 1]], \"anchor_scales\": [2.5, 3.025, 3.66025, 4.4289024999999995, 5.358972025, 6.484356150249999, 7.846070941802498, 9.493745839581022, 11.487432465893036, 13.899793283730574, 16.818749873313998, 20.350687346709933, 24.62433168951902, 29.795441344318014], \"anchor_ratios\": [1.0], \"negative_overlap\": 0.4, \"name\": \"rpn_big\", \"fg_fraction\": 0.5, \"positive_overlap\": 0.6, \"square_targets\": true, \"tn_fraction\": 0.2}"
  }
}
layer {
  name: "rpn_big_loss_cls"
  type: "SoftmaxWithLoss"
  bottom: "rpn_big_cls_score_reshape"
  bottom: "rpn_big_anchor_target_labels"
  top: "rpn_big_loss_cls"
  loss_weight: 1
  propagate_down: true
  propagate_down: false
  loss_param {
    ignore_label: -1
    normalization: VALID
  }
}
layer {
  name: "rpn_big_output_box"
  type: "Convolution"
  bottom: "rpn_big_conv2"
  top: "rpn_big_output_box"
  param {
    lr_mult: 1
  }
  param {
    lr_mult: 2
  }
  convolution_param {
    num_output: 384
    pad: 1
    kernel_size: 3
    stride: 1
    weight_filler {
      type: "gaussian"
      mean: 0
      std: 0.01
    }
    bias_filler {
      type: "constant"
    }
  }
}
layer {
  name: "rpn_big_output_box_relu"
  type: "ReLU"
  bottom: "rpn_big_output_box"
  top: "rpn_big_output_box"
  relu_param {
    negative_slope: 0
  }
}
layer {
  name: "rpn_big_bbox_pred"
  type: "Convolution"
  bottom: "rpn_big_output_box"
  top: "rpn_big_bbox_pred"
  param {
    lr_mult: 1
  }
  param {
    lr_mult: 2
  }
  convolution_param {
    num_output: 104
    pad: 0
    kernel_size: 3
    stride: 1
    weight_filler {
      type: "gaussian"
      mean: 0
      std: 0.01
    }
    bias_filler {
      type: "constant"
    }
  }
}
layer {
  name: "rpn_big_loss_bbox"
  type: "Python"
  bottom: "rpn_big_bbox_pred"
  bottom: "rpn_big_anchor_target_bbox_targets"
  bottom: "rpn_big_anchor_target_inside_weights"
  bottom: "rpn_big_anchor_target_outside_weights"
  top: "rpn_big_loss_bbox"
  loss_weight: 1
  python_param {
    module: "layers.smooth_l1_loss"
    layer: "SmoothL1LossLayer"
    param_str: "{\"sigma\": 3}"
  }
}
layer {
  name: "proposal"
  type: "Python"
  bottom: "rpn_big_cls_prob_reshape"
  bottom: "rpn_big_bbox_pred"
  bottom: "input_im_info"
  top: "rpn_rois"
  python_param {
    module: "rpn.proposal_layer"
    layer: "ProposalLayer"
    param_str: "{\"anchor_shift_num_xy\": [[2, 2], [2, 2], [2, 2], [2, 2], [1, 1], [1, 1], [1, 1], [1, 1], [1, 1], [1, 1], [1, 1], [1, 1], [1, 1], [1, 1]], \"feat_stride\": 16, \"num_classes\": 1, \"anchor_scales\": [2.5, 3.025, 3.66025, 4.4289024999999995, 5.358972025, 6.484356150249999, 7.846070941802498, 9.493745839581022, 11.487432465893036, 13.899793283730574, 16.818749873313998, 20.350687346709933, 24.62433168951902, 29.795441344318014], \"square_targets\": true, \"name\": \"rpn_big\", \"batchsize\": 256, \"anchor_ratios\": [1.0]}"
  }
}
I0413 17:35:09.728056 10439 layer_factory.hpp:77] Creating layer input
I0413 17:35:09.731822 10439 net.cpp:100] Creating Layer input
I0413 17:35:09.731847 10439 net.cpp:408] input -> input_data
I0413 17:35:09.731863 10439 net.cpp:408] input -> input_im_info
I0413 17:35:09.731874 10439 net.cpp:408] input -> input_gt_boxes
I0413 17:35:09.731885 10439 net.cpp:408] input -> input_ignored_boxes
RoiDataLayer: name_to_top: {'data': 0, 'gt_boxes': 2, 'im_info': 1, 'ignored_boxes': 3}
I0413 17:35:10.063417 10439 net.cpp:150] Setting up input
I0413 17:35:10.063446 10439 net.cpp:157] Top shape: 1 3 1000 1500 (4500000)
I0413 17:35:10.063454 10439 net.cpp:157] Top shape: 1 3 (3)
I0413 17:35:10.063462 10439 net.cpp:157] Top shape: 1 5 (5)
I0413 17:35:10.063467 10439 net.cpp:157] Top shape: 1 5 (5)
I0413 17:35:10.063472 10439 net.cpp:165] Memory required for data: 18000052
I0413 17:35:10.063480 10439 layer_factory.hpp:77] Creating layer input_data_input_0_split
I0413 17:35:10.063496 10439 net.cpp:100] Creating Layer input_data_input_0_split
I0413 17:35:10.063514 10439 net.cpp:434] input_data_input_0_split <- input_data
I0413 17:35:10.063525 10439 net.cpp:408] input_data_input_0_split -> input_data_input_0_split_0
I0413 17:35:10.063542 10439 net.cpp:408] input_data_input_0_split -> input_data_input_0_split_1
I0413 17:35:10.063596 10439 net.cpp:150] Setting up input_data_input_0_split
I0413 17:35:10.063607 10439 net.cpp:157] Top shape: 1 3 1000 1500 (4500000)
I0413 17:35:10.063622 10439 net.cpp:157] Top shape: 1 3 1000 1500 (4500000)
I0413 17:35:10.063627 10439 net.cpp:165] Memory required for data: 54000052
I0413 17:35:10.063632 10439 layer_factory.hpp:77] Creating layer input_im_info_input_1_split
I0413 17:35:10.063642 10439 net.cpp:100] Creating Layer input_im_info_input_1_split
I0413 17:35:10.063647 10439 net.cpp:434] input_im_info_input_1_split <- input_im_info
I0413 17:35:10.063659 10439 net.cpp:408] input_im_info_input_1_split -> input_im_info_input_1_split_0
I0413 17:35:10.063671 10439 net.cpp:408] input_im_info_input_1_split -> input_im_info_input_1_split_1
I0413 17:35:10.063710 10439 net.cpp:150] Setting up input_im_info_input_1_split
I0413 17:35:10.063720 10439 net.cpp:157] Top shape: 1 3 (3)
I0413 17:35:10.063726 10439 net.cpp:157] Top shape: 1 3 (3)
I0413 17:35:10.063732 10439 net.cpp:165] Memory required for data: 54000076
I0413 17:35:10.063737 10439 layer_factory.hpp:77] Creating layer conv1_1
I0413 17:35:10.063753 10439 net.cpp:100] Creating Layer conv1_1
I0413 17:35:10.063760 10439 net.cpp:434] conv1_1 <- input_data_input_0_split_0
I0413 17:35:10.063768 10439 net.cpp:408] conv1_1 -> conv1_1
I0413 17:35:10.067056 10439 net.cpp:150] Setting up conv1_1
I0413 17:35:10.067101 10439 net.cpp:157] Top shape: 1 64 1000 1500 (96000000)
I0413 17:35:10.067106 10439 net.cpp:165] Memory required for data: 438000076
I0413 17:35:10.067124 10439 layer_factory.hpp:77] Creating layer relu1_1
I0413 17:35:10.067137 10439 net.cpp:100] Creating Layer relu1_1
I0413 17:35:10.067142 10439 net.cpp:434] relu1_1 <- conv1_1
I0413 17:35:10.067149 10439 net.cpp:395] relu1_1 -> conv1_1 (in-place)
I0413 17:35:10.067162 10439 net.cpp:150] Setting up relu1_1
I0413 17:35:10.067165 10439 net.cpp:157] Top shape: 1 64 1000 1500 (96000000)
I0413 17:35:10.067168 10439 net.cpp:165] Memory required for data: 822000076
I0413 17:35:10.067172 10439 layer_factory.hpp:77] Creating layer conv1_2
I0413 17:35:10.067181 10439 net.cpp:100] Creating Layer conv1_2
I0413 17:35:10.067198 10439 net.cpp:434] conv1_2 <- conv1_1
I0413 17:35:10.067205 10439 net.cpp:408] conv1_2 -> conv1_2
I0413 17:35:10.070543 10439 net.cpp:150] Setting up conv1_2
I0413 17:35:10.070580 10439 net.cpp:157] Top shape: 1 64 1000 1500 (96000000)
I0413 17:35:10.070593 10439 net.cpp:165] Memory required for data: 1206000076
I0413 17:35:10.070611 10439 layer_factory.hpp:77] Creating layer relu1_2
I0413 17:35:10.070621 10439 net.cpp:100] Creating Layer relu1_2
I0413 17:35:10.070626 10439 net.cpp:434] relu1_2 <- conv1_2
I0413 17:35:10.070637 10439 net.cpp:395] relu1_2 -> conv1_2 (in-place)
I0413 17:35:10.070653 10439 net.cpp:150] Setting up relu1_2
I0413 17:35:10.070662 10439 net.cpp:157] Top shape: 1 64 1000 1500 (96000000)
I0413 17:35:10.070667 10439 net.cpp:165] Memory required for data: 1590000076
I0413 17:35:10.070672 10439 layer_factory.hpp:77] Creating layer pool1
I0413 17:35:10.070680 10439 net.cpp:100] Creating Layer pool1
I0413 17:35:10.070688 10439 net.cpp:434] pool1 <- conv1_2
I0413 17:35:10.070696 10439 net.cpp:408] pool1 -> pool1
I0413 17:35:10.070791 10439 net.cpp:150] Setting up pool1
I0413 17:35:10.070801 10439 net.cpp:157] Top shape: 1 64 500 750 (24000000)
I0413 17:35:10.070807 10439 net.cpp:165] Memory required for data: 1686000076
I0413 17:35:10.070814 10439 layer_factory.hpp:77] Creating layer conv2_1
I0413 17:35:10.070837 10439 net.cpp:100] Creating Layer conv2_1
I0413 17:35:10.070844 10439 net.cpp:434] conv2_1 <- pool1
I0413 17:35:10.070854 10439 net.cpp:408] conv2_1 -> conv2_1
I0413 17:35:10.072185 10439 net.cpp:150] Setting up conv2_1
I0413 17:35:10.072206 10439 net.cpp:157] Top shape: 1 128 500 750 (48000000)
I0413 17:35:10.072209 10439 net.cpp:165] Memory required for data: 1878000076
I0413 17:35:10.072226 10439 layer_factory.hpp:77] Creating layer relu2_1
I0413 17:35:10.072237 10439 net.cpp:100] Creating Layer relu2_1
I0413 17:35:10.072244 10439 net.cpp:434] relu2_1 <- conv2_1
I0413 17:35:10.072254 10439 net.cpp:395] relu2_1 -> conv2_1 (in-place)
I0413 17:35:10.072268 10439 net.cpp:150] Setting up relu2_1
I0413 17:35:10.072276 10439 net.cpp:157] Top shape: 1 128 500 750 (48000000)
I0413 17:35:10.072281 10439 net.cpp:165] Memory required for data: 2070000076
I0413 17:35:10.072286 10439 layer_factory.hpp:77] Creating layer conv2_2
I0413 17:35:10.072300 10439 net.cpp:100] Creating Layer conv2_2
I0413 17:35:10.072307 10439 net.cpp:434] conv2_2 <- conv2_1
I0413 17:35:10.072317 10439 net.cpp:408] conv2_2 -> conv2_2
I0413 17:35:10.074520 10439 net.cpp:150] Setting up conv2_2
I0413 17:35:10.074546 10439 net.cpp:157] Top shape: 1 128 500 750 (48000000)
I0413 17:35:10.074550 10439 net.cpp:165] Memory required for data: 2262000076
I0413 17:35:10.074563 10439 layer_factory.hpp:77] Creating layer relu2_2
I0413 17:35:10.074575 10439 net.cpp:100] Creating Layer relu2_2
I0413 17:35:10.074582 10439 net.cpp:434] relu2_2 <- conv2_2
I0413 17:35:10.074592 10439 net.cpp:395] relu2_2 -> conv2_2 (in-place)
I0413 17:35:10.074604 10439 net.cpp:150] Setting up relu2_2
I0413 17:35:10.074615 10439 net.cpp:157] Top shape: 1 128 500 750 (48000000)
I0413 17:35:10.074620 10439 net.cpp:165] Memory required for data: 2454000076
I0413 17:35:10.074625 10439 layer_factory.hpp:77] Creating layer pool2
I0413 17:35:10.074635 10439 net.cpp:100] Creating Layer pool2
I0413 17:35:10.074641 10439 net.cpp:434] pool2 <- conv2_2
I0413 17:35:10.074650 10439 net.cpp:408] pool2 -> pool2
I0413 17:35:10.074712 10439 net.cpp:150] Setting up pool2
I0413 17:35:10.074723 10439 net.cpp:157] Top shape: 1 128 250 375 (12000000)
I0413 17:35:10.074728 10439 net.cpp:165] Memory required for data: 2502000076
I0413 17:35:10.074733 10439 layer_factory.hpp:77] Creating layer conv3_1
I0413 17:35:10.074745 10439 net.cpp:100] Creating Layer conv3_1
I0413 17:35:10.074753 10439 net.cpp:434] conv3_1 <- pool2
I0413 17:35:10.074762 10439 net.cpp:408] conv3_1 -> conv3_1
I0413 17:35:10.075997 10439 net.cpp:150] Setting up conv3_1
I0413 17:35:10.076020 10439 net.cpp:157] Top shape: 1 256 250 375 (24000000)
I0413 17:35:10.076023 10439 net.cpp:165] Memory required for data: 2598000076
I0413 17:35:10.076043 10439 layer_factory.hpp:77] Creating layer relu3_1
I0413 17:35:10.076057 10439 net.cpp:100] Creating Layer relu3_1
I0413 17:35:10.076063 10439 net.cpp:434] relu3_1 <- conv3_1
I0413 17:35:10.076072 10439 net.cpp:395] relu3_1 -> conv3_1 (in-place)
I0413 17:35:10.076083 10439 net.cpp:150] Setting up relu3_1
I0413 17:35:10.076092 10439 net.cpp:157] Top shape: 1 256 250 375 (24000000)
I0413 17:35:10.076097 10439 net.cpp:165] Memory required for data: 2694000076
I0413 17:35:10.076102 10439 layer_factory.hpp:77] Creating layer conv3_2
I0413 17:35:10.076114 10439 net.cpp:100] Creating Layer conv3_2
I0413 17:35:10.076122 10439 net.cpp:434] conv3_2 <- conv3_1
I0413 17:35:10.076133 10439 net.cpp:408] conv3_2 -> conv3_2
I0413 17:35:10.077447 10439 net.cpp:150] Setting up conv3_2
I0413 17:35:10.077473 10439 net.cpp:157] Top shape: 1 256 250 375 (24000000)
I0413 17:35:10.077477 10439 net.cpp:165] Memory required for data: 2790000076
I0413 17:35:10.077489 10439 layer_factory.hpp:77] Creating layer relu3_2
I0413 17:35:10.077507 10439 net.cpp:100] Creating Layer relu3_2
I0413 17:35:10.077515 10439 net.cpp:434] relu3_2 <- conv3_2
I0413 17:35:10.077527 10439 net.cpp:395] relu3_2 -> conv3_2 (in-place)
I0413 17:35:10.077538 10439 net.cpp:150] Setting up relu3_2
I0413 17:35:10.077548 10439 net.cpp:157] Top shape: 1 256 250 375 (24000000)
I0413 17:35:10.077553 10439 net.cpp:165] Memory required for data: 2886000076
I0413 17:35:10.077558 10439 layer_factory.hpp:77] Creating layer conv3_3
I0413 17:35:10.077570 10439 net.cpp:100] Creating Layer conv3_3
I0413 17:35:10.077577 10439 net.cpp:434] conv3_3 <- conv3_2
I0413 17:35:10.077587 10439 net.cpp:408] conv3_3 -> conv3_3
I0413 17:35:10.079258 10439 net.cpp:150] Setting up conv3_3
I0413 17:35:10.079293 10439 net.cpp:157] Top shape: 1 256 250 375 (24000000)
I0413 17:35:10.079295 10439 net.cpp:165] Memory required for data: 2982000076
I0413 17:35:10.079308 10439 layer_factory.hpp:77] Creating layer relu3_3
I0413 17:35:10.079321 10439 net.cpp:100] Creating Layer relu3_3
I0413 17:35:10.079329 10439 net.cpp:434] relu3_3 <- conv3_3
I0413 17:35:10.079342 10439 net.cpp:395] relu3_3 -> conv3_3 (in-place)
I0413 17:35:10.079357 10439 net.cpp:150] Setting up relu3_3
I0413 17:35:10.079366 10439 net.cpp:157] Top shape: 1 256 250 375 (24000000)
I0413 17:35:10.079371 10439 net.cpp:165] Memory required for data: 3078000076
I0413 17:35:10.079376 10439 layer_factory.hpp:77] Creating layer pool3
I0413 17:35:10.079385 10439 net.cpp:100] Creating Layer pool3
I0413 17:35:10.079392 10439 net.cpp:434] pool3 <- conv3_3
I0413 17:35:10.079401 10439 net.cpp:408] pool3 -> pool3
I0413 17:35:10.079460 10439 net.cpp:150] Setting up pool3
I0413 17:35:10.079470 10439 net.cpp:157] Top shape: 1 256 125 188 (6016000)
I0413 17:35:10.079476 10439 net.cpp:165] Memory required for data: 3102064076
I0413 17:35:10.079481 10439 layer_factory.hpp:77] Creating layer conv4_1
I0413 17:35:10.079495 10439 net.cpp:100] Creating Layer conv4_1
I0413 17:35:10.079504 10439 net.cpp:434] conv4_1 <- pool3
I0413 17:35:10.079512 10439 net.cpp:408] conv4_1 -> conv4_1
I0413 17:35:10.082370 10439 net.cpp:150] Setting up conv4_1
I0413 17:35:10.082404 10439 net.cpp:157] Top shape: 1 512 125 188 (12032000)
I0413 17:35:10.082408 10439 net.cpp:165] Memory required for data: 3150192076
I0413 17:35:10.082419 10439 layer_factory.hpp:77] Creating layer relu4_1
I0413 17:35:10.082432 10439 net.cpp:100] Creating Layer relu4_1
I0413 17:35:10.082439 10439 net.cpp:434] relu4_1 <- conv4_1
I0413 17:35:10.082453 10439 net.cpp:395] relu4_1 -> conv4_1 (in-place)
I0413 17:35:10.082468 10439 net.cpp:150] Setting up relu4_1
I0413 17:35:10.082475 10439 net.cpp:157] Top shape: 1 512 125 188 (12032000)
I0413 17:35:10.082481 10439 net.cpp:165] Memory required for data: 3198320076
I0413 17:35:10.082486 10439 layer_factory.hpp:77] Creating layer conv4_2
I0413 17:35:10.082499 10439 net.cpp:100] Creating Layer conv4_2
I0413 17:35:10.082506 10439 net.cpp:434] conv4_2 <- conv4_1
I0413 17:35:10.082515 10439 net.cpp:408] conv4_2 -> conv4_2
I0413 17:35:10.086823 10439 net.cpp:150] Setting up conv4_2
I0413 17:35:10.086863 10439 net.cpp:157] Top shape: 1 512 125 188 (12032000)
I0413 17:35:10.086866 10439 net.cpp:165] Memory required for data: 3246448076
I0413 17:35:10.086889 10439 layer_factory.hpp:77] Creating layer relu4_2
I0413 17:35:10.086905 10439 net.cpp:100] Creating Layer relu4_2
I0413 17:35:10.086912 10439 net.cpp:434] relu4_2 <- conv4_2
I0413 17:35:10.086923 10439 net.cpp:395] relu4_2 -> conv4_2 (in-place)
I0413 17:35:10.086936 10439 net.cpp:150] Setting up relu4_2
I0413 17:35:10.086944 10439 net.cpp:157] Top shape: 1 512 125 188 (12032000)
I0413 17:35:10.086951 10439 net.cpp:165] Memory required for data: 3294576076
I0413 17:35:10.086956 10439 layer_factory.hpp:77] Creating layer conv4_3
I0413 17:35:10.086972 10439 net.cpp:100] Creating Layer conv4_3
I0413 17:35:10.086979 10439 net.cpp:434] conv4_3 <- conv4_2
I0413 17:35:10.086989 10439 net.cpp:408] conv4_3 -> conv4_3
I0413 17:35:10.091276 10439 net.cpp:150] Setting up conv4_3
I0413 17:35:10.091313 10439 net.cpp:157] Top shape: 1 512 125 188 (12032000)
I0413 17:35:10.091316 10439 net.cpp:165] Memory required for data: 3342704076
I0413 17:35:10.091328 10439 layer_factory.hpp:77] Creating layer relu4_3
I0413 17:35:10.091341 10439 net.cpp:100] Creating Layer relu4_3
I0413 17:35:10.091363 10439 net.cpp:434] relu4_3 <- conv4_3
I0413 17:35:10.091375 10439 net.cpp:395] relu4_3 -> conv4_3 (in-place)
I0413 17:35:10.091389 10439 net.cpp:150] Setting up relu4_3
I0413 17:35:10.091398 10439 net.cpp:157] Top shape: 1 512 125 188 (12032000)
I0413 17:35:10.091403 10439 net.cpp:165] Memory required for data: 3390832076
I0413 17:35:10.091408 10439 layer_factory.hpp:77] Creating layer pool4
I0413 17:35:10.091416 10439 net.cpp:100] Creating Layer pool4
I0413 17:35:10.091423 10439 net.cpp:434] pool4 <- conv4_3
I0413 17:35:10.091434 10439 net.cpp:408] pool4 -> pool4
I0413 17:35:10.091483 10439 net.cpp:150] Setting up pool4
I0413 17:35:10.091495 10439 net.cpp:157] Top shape: 1 512 63 94 (3032064)
I0413 17:35:10.091502 10439 net.cpp:165] Memory required for data: 3402960332
I0413 17:35:10.091508 10439 layer_factory.hpp:77] Creating layer conv5_1
I0413 17:35:10.091523 10439 net.cpp:100] Creating Layer conv5_1
I0413 17:35:10.091533 10439 net.cpp:434] conv5_1 <- pool4
I0413 17:35:10.091543 10439 net.cpp:408] conv5_1 -> conv5_1
I0413 17:35:10.096264 10439 net.cpp:150] Setting up conv5_1
I0413 17:35:10.096297 10439 net.cpp:157] Top shape: 1 512 63 94 (3032064)
I0413 17:35:10.096302 10439 net.cpp:165] Memory required for data: 3415088588
I0413 17:35:10.096315 10439 layer_factory.hpp:77] Creating layer relu5_1
I0413 17:35:10.096328 10439 net.cpp:100] Creating Layer relu5_1
I0413 17:35:10.096338 10439 net.cpp:434] relu5_1 <- conv5_1
I0413 17:35:10.096350 10439 net.cpp:395] relu5_1 -> conv5_1 (in-place)
I0413 17:35:10.096365 10439 net.cpp:150] Setting up relu5_1
I0413 17:35:10.096374 10439 net.cpp:157] Top shape: 1 512 63 94 (3032064)
I0413 17:35:10.096379 10439 net.cpp:165] Memory required for data: 3427216844
I0413 17:35:10.096385 10439 layer_factory.hpp:77] Creating layer conv5_2
I0413 17:35:10.096398 10439 net.cpp:100] Creating Layer conv5_2
I0413 17:35:10.096405 10439 net.cpp:434] conv5_2 <- conv5_1
I0413 17:35:10.096415 10439 net.cpp:408] conv5_2 -> conv5_2
I0413 17:35:10.101022 10439 net.cpp:150] Setting up conv5_2
I0413 17:35:10.101058 10439 net.cpp:157] Top shape: 1 512 63 94 (3032064)
I0413 17:35:10.101063 10439 net.cpp:165] Memory required for data: 3439345100
I0413 17:35:10.101073 10439 layer_factory.hpp:77] Creating layer relu5_2
I0413 17:35:10.101083 10439 net.cpp:100] Creating Layer relu5_2
I0413 17:35:10.101088 10439 net.cpp:434] relu5_2 <- conv5_2
I0413 17:35:10.101095 10439 net.cpp:395] relu5_2 -> conv5_2 (in-place)
I0413 17:35:10.101107 10439 net.cpp:150] Setting up relu5_2
I0413 17:35:10.101112 10439 net.cpp:157] Top shape: 1 512 63 94 (3032064)
I0413 17:35:10.101115 10439 net.cpp:165] Memory required for data: 3451473356
I0413 17:35:10.101119 10439 layer_factory.hpp:77] Creating layer conv5_3
I0413 17:35:10.101127 10439 net.cpp:100] Creating Layer conv5_3
I0413 17:35:10.101132 10439 net.cpp:434] conv5_3 <- conv5_2
I0413 17:35:10.101138 10439 net.cpp:408] conv5_3 -> conv5_3
I0413 17:35:10.105628 10439 net.cpp:150] Setting up conv5_3
I0413 17:35:10.105674 10439 net.cpp:157] Top shape: 1 512 63 94 (3032064)
I0413 17:35:10.105679 10439 net.cpp:165] Memory required for data: 3463601612
I0413 17:35:10.105690 10439 layer_factory.hpp:77] Creating layer relu5_3
I0413 17:35:10.105705 10439 net.cpp:100] Creating Layer relu5_3
I0413 17:35:10.105713 10439 net.cpp:434] relu5_3 <- conv5_3
I0413 17:35:10.105726 10439 net.cpp:395] relu5_3 -> conv5_3 (in-place)
I0413 17:35:10.105738 10439 net.cpp:150] Setting up relu5_3
I0413 17:35:10.105754 10439 net.cpp:157] Top shape: 1 512 63 94 (3032064)
I0413 17:35:10.105762 10439 net.cpp:165] Memory required for data: 3475729868
I0413 17:35:10.105767 10439 layer_factory.hpp:77] Creating layer rpn_big_conv1
I0413 17:35:10.105784 10439 net.cpp:100] Creating Layer rpn_big_conv1
I0413 17:35:10.105792 10439 net.cpp:434] rpn_big_conv1 <- conv5_3
I0413 17:35:10.105803 10439 net.cpp:408] rpn_big_conv1 -> rpn_big_conv1
I0413 17:35:10.132730 10439 net.cpp:150] Setting up rpn_big_conv1
I0413 17:35:10.132761 10439 net.cpp:157] Top shape: 1 512 63 94 (3032064)
I0413 17:35:10.132764 10439 net.cpp:165] Memory required for data: 3487858124
I0413 17:35:10.132779 10439 layer_factory.hpp:77] Creating layer rpn_big_conv1_relu
I0413 17:35:10.132793 10439 net.cpp:100] Creating Layer rpn_big_conv1_relu
I0413 17:35:10.132803 10439 net.cpp:434] rpn_big_conv1_relu <- rpn_big_conv1
I0413 17:35:10.132817 10439 net.cpp:395] rpn_big_conv1_relu -> rpn_big_conv1 (in-place)
I0413 17:35:10.132830 10439 net.cpp:150] Setting up rpn_big_conv1_relu
I0413 17:35:10.132838 10439 net.cpp:157] Top shape: 1 512 63 94 (3032064)
I0413 17:35:10.132843 10439 net.cpp:165] Memory required for data: 3499986380
I0413 17:35:10.132848 10439 layer_factory.hpp:77] Creating layer rpn_big_conv2
I0413 17:35:10.132863 10439 net.cpp:100] Creating Layer rpn_big_conv2
I0413 17:35:10.132870 10439 net.cpp:434] rpn_big_conv2 <- rpn_big_conv1
I0413 17:35:10.132879 10439 net.cpp:408] rpn_big_conv2 -> rpn_big_conv2
I0413 17:35:10.158931 10439 net.cpp:150] Setting up rpn_big_conv2
I0413 17:35:10.158958 10439 net.cpp:157] Top shape: 1 512 63 94 (3032064)
I0413 17:35:10.158984 10439 net.cpp:165] Memory required for data: 3512114636
I0413 17:35:10.159000 10439 layer_factory.hpp:77] Creating layer rpn_big_conv2_relu
I0413 17:35:10.159015 10439 net.cpp:100] Creating Layer rpn_big_conv2_relu
I0413 17:35:10.159025 10439 net.cpp:434] rpn_big_conv2_relu <- rpn_big_conv2
I0413 17:35:10.159039 10439 net.cpp:395] rpn_big_conv2_relu -> rpn_big_conv2 (in-place)
I0413 17:35:10.159052 10439 net.cpp:150] Setting up rpn_big_conv2_relu
I0413 17:35:10.159061 10439 net.cpp:157] Top shape: 1 512 63 94 (3032064)
I0413 17:35:10.159067 10439 net.cpp:165] Memory required for data: 3524242892
I0413 17:35:10.159073 10439 layer_factory.hpp:77] Creating layer rpn_big_conv2_drop
I0413 17:35:10.159087 10439 net.cpp:100] Creating Layer rpn_big_conv2_drop
I0413 17:35:10.159095 10439 net.cpp:434] rpn_big_conv2_drop <- rpn_big_conv2
I0413 17:35:10.159103 10439 net.cpp:395] rpn_big_conv2_drop -> rpn_big_conv2 (in-place)
I0413 17:35:10.159137 10439 net.cpp:150] Setting up rpn_big_conv2_drop
I0413 17:35:10.159148 10439 net.cpp:157] Top shape: 1 512 63 94 (3032064)
I0413 17:35:10.159154 10439 net.cpp:165] Memory required for data: 3536371148
I0413 17:35:10.159159 10439 layer_factory.hpp:77] Creating layer rpn_big_conv2_rpn_big_conv2_drop_0_split
I0413 17:35:10.159168 10439 net.cpp:100] Creating Layer rpn_big_conv2_rpn_big_conv2_drop_0_split
I0413 17:35:10.159175 10439 net.cpp:434] rpn_big_conv2_rpn_big_conv2_drop_0_split <- rpn_big_conv2
I0413 17:35:10.159186 10439 net.cpp:408] rpn_big_conv2_rpn_big_conv2_drop_0_split -> rpn_big_conv2_rpn_big_conv2_drop_0_split_0
I0413 17:35:10.159199 10439 net.cpp:408] rpn_big_conv2_rpn_big_conv2_drop_0_split -> rpn_big_conv2_rpn_big_conv2_drop_0_split_1
I0413 17:35:10.159250 10439 net.cpp:150] Setting up rpn_big_conv2_rpn_big_conv2_drop_0_split
I0413 17:35:10.159262 10439 net.cpp:157] Top shape: 1 512 63 94 (3032064)
I0413 17:35:10.159271 10439 net.cpp:157] Top shape: 1 512 63 94 (3032064)
I0413 17:35:10.159276 10439 net.cpp:165] Memory required for data: 3560627660
I0413 17:35:10.159282 10439 layer_factory.hpp:77] Creating layer rpn_big_output_cls
I0413 17:35:10.159302 10439 net.cpp:100] Creating Layer rpn_big_output_cls
I0413 17:35:10.159309 10439 net.cpp:434] rpn_big_output_cls <- rpn_big_conv2_rpn_big_conv2_drop_0_split_0
I0413 17:35:10.159322 10439 net.cpp:408] rpn_big_output_cls -> rpn_big_output_cls
I0413 17:35:10.178903 10439 net.cpp:150] Setting up rpn_big_output_cls
I0413 17:35:10.178933 10439 net.cpp:157] Top shape: 1 384 63 94 (2274048)
I0413 17:35:10.178946 10439 net.cpp:165] Memory required for data: 3569723852
I0413 17:35:10.178956 10439 layer_factory.hpp:77] Creating layer rpn_big_output_cls_relu
I0413 17:35:10.178969 10439 net.cpp:100] Creating Layer rpn_big_output_cls_relu
I0413 17:35:10.178975 10439 net.cpp:434] rpn_big_output_cls_relu <- rpn_big_output_cls
I0413 17:35:10.178987 10439 net.cpp:395] rpn_big_output_cls_relu -> rpn_big_output_cls (in-place)
I0413 17:35:10.179002 10439 net.cpp:150] Setting up rpn_big_output_cls_relu
I0413 17:35:10.179018 10439 net.cpp:157] Top shape: 1 384 63 94 (2274048)
I0413 17:35:10.179031 10439 net.cpp:165] Memory required for data: 3578820044
I0413 17:35:10.179036 10439 layer_factory.hpp:77] Creating layer rpn_big_cls_score
I0413 17:35:10.179052 10439 net.cpp:100] Creating Layer rpn_big_cls_score
I0413 17:35:10.179060 10439 net.cpp:434] rpn_big_cls_score <- rpn_big_output_cls
I0413 17:35:10.179072 10439 net.cpp:408] rpn_big_cls_score -> rpn_big_cls_score
I0413 17:35:10.181591 10439 net.cpp:150] Setting up rpn_big_cls_score
I0413 17:35:10.181617 10439 net.cpp:157] Top shape: 1 52 61 92 (291824)
I0413 17:35:10.181620 10439 net.cpp:165] Memory required for data: 3579987340
I0413 17:35:10.181638 10439 layer_factory.hpp:77] Creating layer rpn_big_cls_score_rpn_big_cls_score_0_split
I0413 17:35:10.181648 10439 net.cpp:100] Creating Layer rpn_big_cls_score_rpn_big_cls_score_0_split
I0413 17:35:10.181653 10439 net.cpp:434] rpn_big_cls_score_rpn_big_cls_score_0_split <- rpn_big_cls_score
I0413 17:35:10.181660 10439 net.cpp:408] rpn_big_cls_score_rpn_big_cls_score_0_split -> rpn_big_cls_score_rpn_big_cls_score_0_split_0
I0413 17:35:10.181670 10439 net.cpp:408] rpn_big_cls_score_rpn_big_cls_score_0_split -> rpn_big_cls_score_rpn_big_cls_score_0_split_1
I0413 17:35:10.181710 10439 net.cpp:150] Setting up rpn_big_cls_score_rpn_big_cls_score_0_split
I0413 17:35:10.181717 10439 net.cpp:157] Top shape: 1 52 61 92 (291824)
I0413 17:35:10.181722 10439 net.cpp:157] Top shape: 1 52 61 92 (291824)
I0413 17:35:10.181725 10439 net.cpp:165] Memory required for data: 3582321932
I0413 17:35:10.181728 10439 layer_factory.hpp:77] Creating layer rpn_big_cls_score_reshape
I0413 17:35:10.181736 10439 net.cpp:100] Creating Layer rpn_big_cls_score_reshape
I0413 17:35:10.181740 10439 net.cpp:434] rpn_big_cls_score_reshape <- rpn_big_cls_score_rpn_big_cls_score_0_split_0
I0413 17:35:10.181751 10439 net.cpp:408] rpn_big_cls_score_reshape -> rpn_big_cls_score_reshape
I0413 17:35:10.181777 10439 net.cpp:150] Setting up rpn_big_cls_score_reshape
I0413 17:35:10.181784 10439 net.cpp:157] Top shape: 1 2 1586 92 (291824)
I0413 17:35:10.181787 10439 net.cpp:165] Memory required for data: 3583489228
I0413 17:35:10.181790 10439 layer_factory.hpp:77] Creating layer rpn_big_cls_score_reshape_rpn_big_cls_score_reshape_0_split
I0413 17:35:10.181797 10439 net.cpp:100] Creating Layer rpn_big_cls_score_reshape_rpn_big_cls_score_reshape_0_split
I0413 17:35:10.181800 10439 net.cpp:434] rpn_big_cls_score_reshape_rpn_big_cls_score_reshape_0_split <- rpn_big_cls_score_reshape
I0413 17:35:10.181805 10439 net.cpp:408] rpn_big_cls_score_reshape_rpn_big_cls_score_reshape_0_split -> rpn_big_cls_score_reshape_rpn_big_cls_score_reshape_0_split_0
I0413 17:35:10.181814 10439 net.cpp:408] rpn_big_cls_score_reshape_rpn_big_cls_score_reshape_0_split -> rpn_big_cls_score_reshape_rpn_big_cls_score_reshape_0_split_1
I0413 17:35:10.181843 10439 net.cpp:150] Setting up rpn_big_cls_score_reshape_rpn_big_cls_score_reshape_0_split
I0413 17:35:10.181850 10439 net.cpp:157] Top shape: 1 2 1586 92 (291824)
I0413 17:35:10.181854 10439 net.cpp:157] Top shape: 1 2 1586 92 (291824)
I0413 17:35:10.181856 10439 net.cpp:165] Memory required for data: 3585823820
I0413 17:35:10.181859 10439 layer_factory.hpp:77] Creating layer rpn_big_cls_prob
I0413 17:35:10.181867 10439 net.cpp:100] Creating Layer rpn_big_cls_prob
I0413 17:35:10.181871 10439 net.cpp:434] rpn_big_cls_prob <- rpn_big_cls_score_reshape_rpn_big_cls_score_reshape_0_split_0
I0413 17:35:10.181879 10439 net.cpp:408] rpn_big_cls_prob -> rpn_big_cls_prob
I0413 17:35:10.181926 10439 net.cpp:150] Setting up rpn_big_cls_prob
I0413 17:35:10.181932 10439 net.cpp:157] Top shape: 1 2 1586 92 (291824)
I0413 17:35:10.181936 10439 net.cpp:165] Memory required for data: 3586991116
I0413 17:35:10.181938 10439 layer_factory.hpp:77] Creating layer rpn_big_cls_prob_reshape
I0413 17:35:10.181944 10439 net.cpp:100] Creating Layer rpn_big_cls_prob_reshape
I0413 17:35:10.181947 10439 net.cpp:434] rpn_big_cls_prob_reshape <- rpn_big_cls_prob
I0413 17:35:10.181952 10439 net.cpp:408] rpn_big_cls_prob_reshape -> rpn_big_cls_prob_reshape
I0413 17:35:10.181973 10439 net.cpp:150] Setting up rpn_big_cls_prob_reshape
I0413 17:35:10.181979 10439 net.cpp:157] Top shape: 1 52 61 92 (291824)
I0413 17:35:10.181982 10439 net.cpp:165] Memory required for data: 3588158412
I0413 17:35:10.181985 10439 layer_factory.hpp:77] Creating layer rpn_big_cls_prob_reshape_rpn_big_cls_prob_reshape_0_split
I0413 17:35:10.181990 10439 net.cpp:100] Creating Layer rpn_big_cls_prob_reshape_rpn_big_cls_prob_reshape_0_split
I0413 17:35:10.181994 10439 net.cpp:434] rpn_big_cls_prob_reshape_rpn_big_cls_prob_reshape_0_split <- rpn_big_cls_prob_reshape
I0413 17:35:10.181998 10439 net.cpp:408] rpn_big_cls_prob_reshape_rpn_big_cls_prob_reshape_0_split -> rpn_big_cls_prob_reshape_rpn_big_cls_prob_reshape_0_split_0
I0413 17:35:10.182005 10439 net.cpp:408] rpn_big_cls_prob_reshape_rpn_big_cls_prob_reshape_0_split -> rpn_big_cls_prob_reshape_rpn_big_cls_prob_reshape_0_split_1
I0413 17:35:10.182032 10439 net.cpp:150] Setting up rpn_big_cls_prob_reshape_rpn_big_cls_prob_reshape_0_split
I0413 17:35:10.182039 10439 net.cpp:157] Top shape: 1 52 61 92 (291824)
I0413 17:35:10.182042 10439 net.cpp:157] Top shape: 1 52 61 92 (291824)
I0413 17:35:10.182045 10439 net.cpp:165] Memory required for data: 3590493004
I0413 17:35:10.182049 10439 layer_factory.hpp:77] Creating layer rpn_big_anchor_target
I0413 17:35:10.183845 10439 net.cpp:100] Creating Layer rpn_big_anchor_target
I0413 17:35:10.183871 10439 net.cpp:434] rpn_big_anchor_target <- rpn_big_cls_score_rpn_big_cls_score_0_split_1
I0413 17:35:10.183890 10439 net.cpp:434] rpn_big_anchor_target <- input_gt_boxes
I0413 17:35:10.183898 10439 net.cpp:434] rpn_big_anchor_target <- input_ignored_boxes
I0413 17:35:10.183904 10439 net.cpp:434] rpn_big_anchor_target <- input_im_info_input_1_split_0
I0413 17:35:10.183910 10439 net.cpp:434] rpn_big_anchor_target <- input_data_input_0_split_1
I0413 17:35:10.183917 10439 net.cpp:434] rpn_big_anchor_target <- rpn_big_cls_prob_reshape_rpn_big_cls_prob_reshape_0_split_0
I0413 17:35:10.183928 10439 net.cpp:408] rpn_big_anchor_target -> rpn_big_anchor_target_labels
I0413 17:35:10.183944 10439 net.cpp:408] rpn_big_anchor_target -> rpn_big_anchor_target_bbox_targets
I0413 17:35:10.183959 10439 net.cpp:408] rpn_big_anchor_target -> rpn_big_anchor_target_inside_weights
I0413 17:35:10.183972 10439 net.cpp:408] rpn_big_anchor_target -> rpn_big_anchor_target_outside_weights
I0413 17:35:10.189517 10439 net.cpp:150] Setting up rpn_big_anchor_target
I0413 17:35:10.189549 10439 net.cpp:157] Top shape: 1 1 1586 92 (145912)
I0413 17:35:10.189554 10439 net.cpp:157] Top shape: 1 104 61 92 (583648)
I0413 17:35:10.189560 10439 net.cpp:157] Top shape: 1 104 61 92 (583648)
I0413 17:35:10.189566 10439 net.cpp:157] Top shape: 1 104 61 92 (583648)
I0413 17:35:10.189571 10439 net.cpp:165] Memory required for data: 3598080428
I0413 17:35:10.189580 10439 layer_factory.hpp:77] Creating layer rpn_big_loss_cls
I0413 17:35:10.189597 10439 net.cpp:100] Creating Layer rpn_big_loss_cls
I0413 17:35:10.189606 10439 net.cpp:434] rpn_big_loss_cls <- rpn_big_cls_score_reshape_rpn_big_cls_score_reshape_0_split_1
I0413 17:35:10.189617 10439 net.cpp:434] rpn_big_loss_cls <- rpn_big_anchor_target_labels
I0413 17:35:10.189628 10439 net.cpp:408] rpn_big_loss_cls -> rpn_big_loss_cls
I0413 17:35:10.189649 10439 layer_factory.hpp:77] Creating layer rpn_big_loss_cls
I0413 17:35:10.190410 10439 net.cpp:150] Setting up rpn_big_loss_cls
I0413 17:35:10.190425 10439 net.cpp:157] Top shape: (1)
I0413 17:35:10.190428 10439 net.cpp:160]     with loss weight 1
I0413 17:35:10.190444 10439 net.cpp:165] Memory required for data: 3598080432
I0413 17:35:10.190452 10439 layer_factory.hpp:77] Creating layer rpn_big_output_box
I0413 17:35:10.190470 10439 net.cpp:100] Creating Layer rpn_big_output_box
I0413 17:35:10.190477 10439 net.cpp:434] rpn_big_output_box <- rpn_big_conv2_rpn_big_conv2_drop_0_split_1
I0413 17:35:10.190491 10439 net.cpp:408] rpn_big_output_box -> rpn_big_output_box
I0413 17:35:10.209775 10439 net.cpp:150] Setting up rpn_big_output_box
I0413 17:35:10.209807 10439 net.cpp:157] Top shape: 1 384 63 94 (2274048)
I0413 17:35:10.209811 10439 net.cpp:165] Memory required for data: 3607176624
I0413 17:35:10.209821 10439 layer_factory.hpp:77] Creating layer rpn_big_output_box_relu
I0413 17:35:10.209836 10439 net.cpp:100] Creating Layer rpn_big_output_box_relu
I0413 17:35:10.209843 10439 net.cpp:434] rpn_big_output_box_relu <- rpn_big_output_box
I0413 17:35:10.209857 10439 net.cpp:395] rpn_big_output_box_relu -> rpn_big_output_box (in-place)
I0413 17:35:10.209890 10439 net.cpp:150] Setting up rpn_big_output_box_relu
I0413 17:35:10.209897 10439 net.cpp:157] Top shape: 1 384 63 94 (2274048)
I0413 17:35:10.209903 10439 net.cpp:165] Memory required for data: 3616272816
I0413 17:35:10.209908 10439 layer_factory.hpp:77] Creating layer rpn_big_bbox_pred
I0413 17:35:10.209923 10439 net.cpp:100] Creating Layer rpn_big_bbox_pred
I0413 17:35:10.209929 10439 net.cpp:434] rpn_big_bbox_pred <- rpn_big_output_box
I0413 17:35:10.209939 10439 net.cpp:408] rpn_big_bbox_pred -> rpn_big_bbox_pred
I0413 17:35:10.214365 10439 net.cpp:150] Setting up rpn_big_bbox_pred
I0413 17:35:10.214392 10439 net.cpp:157] Top shape: 1 104 61 92 (583648)
I0413 17:35:10.214396 10439 net.cpp:165] Memory required for data: 3618607408
I0413 17:35:10.214406 10439 layer_factory.hpp:77] Creating layer rpn_big_bbox_pred_rpn_big_bbox_pred_0_split
I0413 17:35:10.214416 10439 net.cpp:100] Creating Layer rpn_big_bbox_pred_rpn_big_bbox_pred_0_split
I0413 17:35:10.214424 10439 net.cpp:434] rpn_big_bbox_pred_rpn_big_bbox_pred_0_split <- rpn_big_bbox_pred
I0413 17:35:10.214437 10439 net.cpp:408] rpn_big_bbox_pred_rpn_big_bbox_pred_0_split -> rpn_big_bbox_pred_rpn_big_bbox_pred_0_split_0
I0413 17:35:10.214452 10439 net.cpp:408] rpn_big_bbox_pred_rpn_big_bbox_pred_0_split -> rpn_big_bbox_pred_rpn_big_bbox_pred_0_split_1
I0413 17:35:10.214501 10439 net.cpp:150] Setting up rpn_big_bbox_pred_rpn_big_bbox_pred_0_split
I0413 17:35:10.214510 10439 net.cpp:157] Top shape: 1 104 61 92 (583648)
I0413 17:35:10.214517 10439 net.cpp:157] Top shape: 1 104 61 92 (583648)
I0413 17:35:10.214524 10439 net.cpp:165] Memory required for data: 3623276592
I0413 17:35:10.214529 10439 layer_factory.hpp:77] Creating layer rpn_big_loss_bbox
I0413 17:35:10.215003 10439 net.cpp:100] Creating Layer rpn_big_loss_bbox
I0413 17:35:10.215013 10439 net.cpp:434] rpn_big_loss_bbox <- rpn_big_bbox_pred_rpn_big_bbox_pred_0_split_0
I0413 17:35:10.215018 10439 net.cpp:434] rpn_big_loss_bbox <- rpn_big_anchor_target_bbox_targets
I0413 17:35:10.215026 10439 net.cpp:434] rpn_big_loss_bbox <- rpn_big_anchor_target_inside_weights
I0413 17:35:10.215034 10439 net.cpp:434] rpn_big_loss_bbox <- rpn_big_anchor_target_outside_weights
I0413 17:35:10.215044 10439 net.cpp:408] rpn_big_loss_bbox -> rpn_big_loss_bbox
I0413 17:35:10.217243 10439 net.cpp:150] Setting up rpn_big_loss_bbox
I0413 17:35:10.217275 10439 net.cpp:157] Top shape: 1 (1)
I0413 17:35:10.217278 10439 net.cpp:160]     with loss weight 1
I0413 17:35:10.217293 10439 net.cpp:165] Memory required for data: 3623276596
I0413 17:35:10.217303 10439 layer_factory.hpp:77] Creating layer proposal
I0413 17:35:10.217746 10439 net.cpp:100] Creating Layer proposal
I0413 17:35:10.217756 10439 net.cpp:434] proposal <- rpn_big_cls_prob_reshape_rpn_big_cls_prob_reshape_0_split_1
I0413 17:35:10.217764 10439 net.cpp:434] proposal <- rpn_big_bbox_pred_rpn_big_bbox_pred_0_split_1
I0413 17:35:10.217774 10439 net.cpp:434] proposal <- input_im_info_input_1_split_1
I0413 17:35:10.217787 10439 net.cpp:408] proposal -> rpn_rois
I0413 17:35:10.222256 10439 net.cpp:150] Setting up proposal
I0413 17:35:10.222285 10439 net.cpp:157] Top shape: 1 5 (5)
I0413 17:35:10.222290 10439 net.cpp:165] Memory required for data: 3623276616
I0413 17:35:10.222295 10439 net.cpp:228] proposal does not need backward computation.
I0413 17:35:10.222304 10439 net.cpp:226] rpn_big_loss_bbox needs backward computation.
I0413 17:35:10.222312 10439 net.cpp:226] rpn_big_bbox_pred_rpn_big_bbox_pred_0_split needs backward computation.
I0413 17:35:10.222318 10439 net.cpp:226] rpn_big_bbox_pred needs backward computation.
…
