…
I0413 17:45:58.559317 10935 solver.cpp:48] Initializing solver from parameters: 
base_lr: 0.001
display: 20
lr_policy: "multistep"
gamma: 0.1
momentum: 0.9
weight_decay: 0.0005
snapshot: 0
snapshot_prefix: "faces_example"
net_param {
  name: "GeneratedModel_13_04_2017_17_45"
  layer {
    name: "input"
    type: "Python"
    top: "input_data"
    top: "input_im_info"
    top: "input_gt_boxes"
    top: "input_ignored_boxes"
    python_param {
      module: "layers.roi_data_layer"
      layer: "RoIDataLayer"
      param_str: "{\"num_classes\": 2}"
    }
  }
  layer {
    name: "conv1_1"
    type: "Convolution"
    bottom: "input_data"
    top: "conv1_1"
    param {
      lr_mult: 0
      decay_mult: 0
    }
    param {
      lr_mult: 0
      decay_mult: 0
    }
    convolution_param {
      num_output: 64
      pad: 1
      kernel_size: 3
    }
  }
  layer {
    name: "relu1_1"
    type: "ReLU"
    bottom: "conv1_1"
    top: "conv1_1"
  }
  layer {
    name: "conv1_2"
    type: "Convolution"
    bottom: "conv1_1"
    top: "conv1_2"
    param {
      lr_mult: 0
      decay_mult: 0
    }
    param {
      lr_mult: 0
      decay_mult: 0
    }
    convolution_param {
      num_output: 64
      pad: 1
      kernel_size: 3
    }
  }
  layer {
    name: "relu1_2"
    type: "ReLU"
    bottom: "conv1_2"
    top: "conv1_2"
  }
  layer {
    name: "pool1"
    type: "Pooling"
    bottom: "conv1_2"
    top: "pool1"
    pooling_param {
      pool: MAX
      kernel_size: 2
      stride: 2
    }
  }
  layer {
    name: "conv2_1"
    type: "Convolution"
    bottom: "pool1"
    top: "conv2_1"
    param {
      lr_mult: 0
      decay_mult: 0
    }
    param {
      lr_mult: 0
      decay_mult: 0
    }
    convolution_param {
      num_output: 128
      pad: 1
      kernel_size: 3
    }
  }
  layer {
    name: "relu2_1"
    type: "ReLU"
    bottom: "conv2_1"
    top: "conv2_1"
  }
  layer {
    name: "conv2_2"
    type: "Convolution"
    bottom: "conv2_1"
    top: "conv2_2"
    param {
      lr_mult: 0
      decay_mult: 0
    }
    param {
      lr_mult: 0
      decay_mult: 0
    }
    convolution_param {
      num_output: 128
      pad: 1
      kernel_size: 3
    }
  }
  layer {
    name: "relu2_2"
    type: "ReLU"
    bottom: "conv2_2"
    top: "conv2_2"
  }
  layer {
    name: "pool2"
    type: "Pooling"
    bottom: "conv2_2"
    top: "pool2"
    pooling_param {
      pool: MAX
      kernel_size: 2
      stride: 2
    }
  }
  layer {
    name: "conv3_1"
    type: "Convolution"
    bottom: "pool2"
    top: "conv3_1"
    param {
      lr_mult: 1
    }
    param {
      lr_mult: 2
    }
    convolution_param {
      num_output: 256
      pad: 1
      kernel_size: 3
    }
  }
  layer {
    name: "relu3_1"
    type: "ReLU"
    bottom: "conv3_1"
    top: "conv3_1"
  }
  layer {
    name: "conv3_2"
    type: "Convolution"
    bottom: "conv3_1"
    top: "conv3_2"
    param {
      lr_mult: 1
    }
    param {
      lr_mult: 2
    }
    convolution_param {
      num_output: 256
      pad: 1
      kernel_size: 3
    }
  }
  layer {
    name: "relu3_2"
    type: "ReLU"
    bottom: "conv3_2"
    top: "conv3_2"
  }
  layer {
    name: "conv3_3"
    type: "Convolution"
    bottom: "conv3_2"
    top: "conv3_3"
    param {
      lr_mult: 1
    }
    param {
      lr_mult: 2
    }
    convolution_param {
      num_output: 256
      pad: 1
      kernel_size: 3
    }
  }
  layer {
    name: "relu3_3"
    type: "ReLU"
    bottom: "conv3_3"
    top: "conv3_3"
  }
  layer {
    name: "pool3"
    type: "Pooling"
    bottom: "conv3_3"
    top: "pool3"
    pooling_param {
      pool: MAX
      kernel_size: 2
      stride: 2
    }
  }
  layer {
    name: "conv4_1"
    type: "Convolution"
    bottom: "pool3"
    top: "conv4_1"
    param {
      lr_mult: 1
    }
    param {
      lr_mult: 2
    }
    convolution_param {
      num_output: 512
      pad: 1
      kernel_size: 3
    }
  }
  layer {
    name: "relu4_1"
    type: "ReLU"
    bottom: "conv4_1"
    top: "conv4_1"
  }
  layer {
    name: "conv4_2"
    type: "Convolution"
    bottom: "conv4_1"
    top: "conv4_2"
    param {
      lr_mult: 1
    }
    param {
      lr_mult: 2
    }
    convolution_param {
      num_output: 512
      pad: 1
      kernel_size: 3
    }
  }
  layer {
    name: "relu4_2"
    type: "ReLU"
    bottom: "conv4_2"
    top: "conv4_2"
  }
  layer {
    name: "conv4_3"
    type: "Convolution"
    bottom: "conv4_2"
    top: "conv4_3"
    param {
      lr_mult: 1
    }
    param {
      lr_mult: 2
    }
    convolution_param {
      num_output: 512
      pad: 1
      kernel_size: 3
    }
  }
  layer {
    name: "relu4_3"
    type: "ReLU"
    bottom: "conv4_3"
    top: "conv4_3"
  }
  layer {
    name: "pool4"
    type: "Pooling"
    bottom: "conv4_3"
    top: "pool4"
    pooling_param {
      pool: MAX
      kernel_size: 2
      stride: 2
    }
  }
  layer {
    name: "conv5_1"
    type: "Convolution"
    bottom: "pool4"
    top: "conv5_1"
    param {
      lr_mult: 1
    }
    param {
      lr_mult: 2
    }
    convolution_param {
      num_output: 512
      pad: 1
      kernel_size: 3
    }
  }
  layer {
    name: "relu5_1"
    type: "ReLU"
    bottom: "conv5_1"
    top: "conv5_1"
  }
  layer {
    name: "conv5_2"
    type: "Convolution"
    bottom: "conv5_1"
    top: "conv5_2"
    param {
      lr_mult: 1
    }
    param {
      lr_mult: 2
    }
    convolution_param {
      num_output: 512
      pad: 1
      kernel_size: 3
    }
  }
  layer {
    name: "relu5_2"
    type: "ReLU"
    bottom: "conv5_2"
    top: "conv5_2"
  }
  layer {
    name: "conv5_3"
    type: "Convolution"
    bottom: "conv5_2"
    top: "conv5_3"
    param {
      lr_mult: 1
    }
    param {
      lr_mult: 2
    }
    convolution_param {
      num_output: 512
      pad: 1
      kernel_size: 3
    }
  }
  layer {
    name: "relu5_3"
    type: "ReLU"
    bottom: "conv5_3"
    top: "conv5_3"
  }
  layer {
    name: "rpn_big_conv1"
    type: "Convolution"
    bottom: "conv5_3"
    top: "rpn_big_conv1"
    param {
      lr_mult: 1
    }
    param {
      lr_mult: 2
    }
    convolution_param {
      num_output: 512
      pad: 1
      kernel_size: 3
      stride: 1
      weight_filler {
        type: "gaussian"
        mean: 0
        std: 0.01
      }
      bias_filler {
        type: "constant"
      }
    }
  }
  layer {
    name: "rpn_big_conv1_relu"
    type: "ReLU"
    bottom: "rpn_big_conv1"
    top: "rpn_big_conv1"
    relu_param {
      negative_slope: 0
    }
  }
  layer {
    name: "rpn_big_conv2"
    type: "Convolution"
    bottom: "rpn_big_conv1"
    top: "rpn_big_conv2"
    param {
      lr_mult: 1
    }
    param {
      lr_mult: 2
    }
    convolution_param {
      num_output: 512
      pad: 1
      kernel_size: 3
      stride: 1
      weight_filler {
        type: "gaussian"
        mean: 0
        std: 0.01
      }
      bias_filler {
        type: "constant"
      }
    }
  }
  layer {
    name: "rpn_big_conv2_relu"
    type: "ReLU"
    bottom: "rpn_big_conv2"
    top: "rpn_big_conv2"
    relu_param {
      negative_slope: 0
    }
  }
  layer {
    name: "rpn_big_conv2_drop"
    type: "Dropout"
    bottom: "rpn_big_conv2"
    top: "rpn_big_conv2"
    dropout_param {
      dropout_ratio: 0.3
    }
  }
  layer {
    name: "rpn_big_output_cls"
    type: "Convolution"
    bottom: "rpn_big_conv2"
    top: "rpn_big_output_cls"
    param {
      lr_mult: 1
    }
    param {
      lr_mult: 2
    }
    convolution_param {
      num_output: 384
      pad: 1
      kernel_size: 3
      stride: 1
      weight_filler {
        type: "gaussian"
        mean: 0
        std: 0.01
      }
      bias_filler {
        type: "constant"
      }
    }
  }
  layer {
    name: "rpn_big_output_cls_relu"
    type: "ReLU"
    bottom: "rpn_big_output_cls"
    top: "rpn_big_output_cls"
    relu_param {
      negative_slope: 0
    }
  }
  layer {
    name: "rpn_big_cls_score"
    type: "Convolution"
    bottom: "rpn_big_output_cls"
    top: "rpn_big_cls_score"
    param {
      lr_mult: 1
    }
    param {
      lr_mult: 2
    }
    convolution_param {
      num_output: 52
      pad: 0
      kernel_size: 3
      stride: 1
      weight_filler {
        type: "gaussian"
        mean: 0
        std: 0.01
      }
      bias_filler {
        type: "constant"
      }
    }
  }
  layer {
    name: "rpn_big_cls_score_reshape"
    type: "Reshape"
    bottom: "rpn_big_cls_score"
    top: "rpn_big_cls_score_reshape"
    reshape_param {
      shape {
        dim: 0
        dim: 2
        dim: -1
        dim: 0
      }
    }
  }
  layer {
    name: "rpn_big_cls_prob"
    type: "Softmax"
    bottom: "rpn_big_cls_score_reshape"
    top: "rpn_big_cls_prob"
  }
  layer {
    name: "rpn_big_cls_prob_reshape"
    type: "Reshape"
    bottom: "rpn_big_cls_prob"
    top: "rpn_big_cls_prob_reshape"
    reshape_param {
      shape {
        dim: 0
        dim: 52
        dim: -1
        dim: 0
      }
    }
  }
  layer {
    name: "rpn_big_anchor_target"
    type: "Python"
    bottom: "rpn_big_cls_score"
    bottom: "input_gt_boxes"
    bottom: "input_ignored_boxes"
    bottom: "input_im_info"
    bottom: "input_data"
    bottom: "rpn_big_cls_prob_reshape"
    top: "rpn_big_anchor_target_labels"
    top: "rpn_big_anchor_target_bbox_targets"
    top: "rpn_big_anchor_target_inside_weights"
    top: "rpn_big_anchor_target_outside_weights"
    python_param {
      module: "rpn.anchor_target_layer"
      layer: "AnchorTargetLayer"
      param_str: "{\"anchor_ratios\": [1.0], \"anchor_shift_num_xy\": [[2, 2], [2, 2], [2, 2], [2, 2], [1, 1], [1, 1], [1, 1], [1, 1], [1, 1], [1, 1], [1, 1], [1, 1], [1, 1], [1, 1]], \"fg_fraction\": 0.5, \"name\": \"rpn_big\", \"negative_overlap\": 0.4, \"anchor_scales\": [2.5, 3.025, 3.66025, 4.4289024999999995, 5.358972025, 6.484356150249999, 7.846070941802498, 9.493745839581022, 11.487432465893036, 13.899793283730574, 16.818749873313998, 20.350687346709933, 24.62433168951902, 29.795441344318014], \"positive_overlap\": 0.6, \"square_targets\": true, \"num_classes\": 1, \"batchsize\": 256, \"tn_fraction\": 0.2, \"feat_stride\": 16}"
    }
  }
  layer {
    name: "rpn_big_loss_cls"
    type: "SoftmaxWithLoss"
    bottom: "rpn_big_cls_score_reshape"
    bottom: "rpn_big_anchor_target_labels"
    top: "rpn_big_loss_cls"
    loss_weight: 1
    propagate_down: true
    propagate_down: false
    loss_param {
      ignore_label: -1
      normalization: VALID
    }
  }
  layer {
    name: "rpn_big_output_box"
    type: "Convolution"
    bottom: "rpn_big_conv2"
    top: "rpn_big_output_box"
    param {
      lr_mult: 1
    }
    param {
      lr_mult: 2
    }
    convolution_param {
      num_output: 384
      pad: 1
      kernel_size: 3
      stride: 1
      weight_filler {
        type: "gaussian"
        mean: 0
        std: 0.01
      }
      bias_filler {
        type: "constant"
      }
    }
  }
  layer {
    name: "rpn_big_output_box_relu"
    type: "ReLU"
    bottom: "rpn_big_output_box"
    top: "rpn_big_output_box"
    relu_param {
      negative_slope: 0
    }
  }
  layer {
    name: "rpn_big_bbox_pred"
    type: "Convolution"
    bottom: "rpn_big_output_box"
    top: "rpn_big_bbox_pred"
    param {
      lr_mult: 1
    }
    param {
      lr_mult: 2
    }
    convolution_param {
      num_output: 104
      pad: 0
      kernel_size: 3
      stride: 1
      weight_filler {
        type: "gaussian"
        mean: 0
        std: 0.01
      }
      bias_filler {
        type: "constant"
      }
    }
  }
  layer {
    name: "rpn_big_loss_bbox"
    type: "Python"
    bottom: "rpn_big_bbox_pred"
    bottom: "rpn_big_anchor_target_bbox_targets"
    bottom: "rpn_big_anchor_target_inside_weights"
    bottom: "rpn_big_anchor_target_outside_weights"
    top: "rpn_big_loss_bbox"
    loss_weight: 1
    python_param {
      module: "layers.smooth_l1_loss"
      layer: "SmoothL1LossLayer"
      param_str: "{\"sigma\": 3}"
    }
  }
  layer {
    name: "proposal"
    type: "Python"
    bottom: "rpn_big_cls_prob_reshape"
    bottom: "rpn_big_bbox_pred"
    bottom: "input_im_info"
    top: "rpn_rois"
    python_param {
      module: "rpn.proposal_layer"
      layer: "ProposalLayer"
      param_str: "{\"anchor_shift_num_xy\": [[2, 2], [2, 2], [2, 2], [2, 2], [1, 1], [1, 1], [1, 1], [1, 1], [1, 1], [1, 1], [1, 1], [1, 1], [1, 1], [1, 1]], \"feat_stride\": 16, \"num_classes\": 1, \"anchor_scales\": [2.5, 3.025, 3.66025, 4.4289024999999995, 5.358972025, 6.484356150249999, 7.846070941802498, 9.493745839581022, 11.487432465893036, 13.899793283730574, 16.818749873313998, 20.350687346709933, 24.62433168951902, 29.795441344318014], \"square_targets\": true, \"name\": \"rpn_big\", \"batchsize\": 256, \"anchor_ratios\": [1.0]}"
    }
  }
  layer {
    name: "roi-data"
    type: "Python"
    bottom: "rpn_rois"
    bottom: "input_gt_boxes"
    top: "rois"
    top: "labels"
    top: "bbox_targets"
    top: "bbox_inside_weights"
    top: "bbox_outside_weights"
    top: "pid_label"
    python_param {
      module: "rpn.proposal_target_layer"
      layer: "ProposalTargetLayer"
      param_str: "{\"num_classes\": 2, \"bg_aux_label\": 5532}"
    }
  }
  layer {
    name: "roi-pool"
    type: "ROIPooling"
    bottom: "conv5_3"
    bottom: "rois"
    top: "roi-pool"
    roi_pooling_param {
      pooled_h: 7
      pooled_w: 7
      spatial_scale: 0.0625
    }
  }
}
average_loss: 100
stepvalue: 70000
stepvalue: 120000
iter_size: 2
I0413 17:45:58.559399 10935 solver.cpp:86] Creating training net specified in net_param.
I0413 17:45:58.559782 10935 net.cpp:58] Initializing net from parameters: 
name: "GeneratedModel_13_04_2017_17_45"
state {
  phase: TRAIN
}
layer {
  name: "input"
  type: "Python"
  top: "input_data"
  top: "input_im_info"
  top: "input_gt_boxes"
  top: "input_ignored_boxes"
  python_param {
    module: "layers.roi_data_layer"
    layer: "RoIDataLayer"
    param_str: "{\"num_classes\": 2}"
  }
}
layer {
  name: "conv1_1"
  type: "Convolution"
  bottom: "input_data"
  top: "conv1_1"
  param {
    lr_mult: 0
    decay_mult: 0
  }
  param {
    lr_mult: 0
    decay_mult: 0
  }
  convolution_param {
    num_output: 64
    pad: 1
    kernel_size: 3
  }
}
layer {
  name: "relu1_1"
  type: "ReLU"
  bottom: "conv1_1"
  top: "conv1_1"
}
layer {
  name: "conv1_2"
  type: "Convolution"
  bottom: "conv1_1"
  top: "conv1_2"
  param {
    lr_mult: 0
    decay_mult: 0
  }
  param {
    lr_mult: 0
    decay_mult: 0
  }
  convolution_param {
    num_output: 64
    pad: 1
    kernel_size: 3
  }
}
layer {
  name: "relu1_2"
  type: "ReLU"
  bottom: "conv1_2"
  top: "conv1_2"
}
layer {
  name: "pool1"
  type: "Pooling"
  bottom: "conv1_2"
  top: "pool1"
  pooling_param {
    pool: MAX
    kernel_size: 2
    stride: 2
  }
}
layer {
  name: "conv2_1"
  type: "Convolution"
  bottom: "pool1"
  top: "conv2_1"
  param {
    lr_mult: 0
    decay_mult: 0
  }
  param {
    lr_mult: 0
    decay_mult: 0
  }
  convolution_param {
    num_output: 128
    pad: 1
    kernel_size: 3
  }
}
layer {
  name: "relu2_1"
  type: "ReLU"
  bottom: "conv2_1"
  top: "conv2_1"
}
layer {
  name: "conv2_2"
  type: "Convolution"
  bottom: "conv2_1"
  top: "conv2_2"
  param {
    lr_mult: 0
    decay_mult: 0
  }
  param {
    lr_mult: 0
    decay_mult: 0
  }
  convolution_param {
    num_output: 128
    pad: 1
    kernel_size: 3
  }
}
layer {
  name: "relu2_2"
  type: "ReLU"
  bottom: "conv2_2"
  top: "conv2_2"
}
layer {
  name: "pool2"
  type: "Pooling"
  bottom: "conv2_2"
  top: "pool2"
  pooling_param {
    pool: MAX
    kernel_size: 2
    stride: 2
  }
}
layer {
  name: "conv3_1"
  type: "Convolution"
  bottom: "pool2"
  top: "conv3_1"
  param {
    lr_mult: 1
  }
  param {
    lr_mult: 2
  }
  convolution_param {
    num_output: 256
    pad: 1
    kernel_size: 3
  }
}
layer {
  name: "relu3_1"
  type: "ReLU"
  bottom: "conv3_1"
  top: "conv3_1"
}
layer {
  name: "conv3_2"
  type: "Convolution"
  bottom: "conv3_1"
  top: "conv3_2"
  param {
    lr_mult: 1
  }
  param {
    lr_mult: 2
  }
  convolution_param {
    num_output: 256
    pad: 1
    kernel_size: 3
  }
}
layer {
  name: "relu3_2"
  type: "ReLU"
  bottom: "conv3_2"
  top: "conv3_2"
}
layer {
  name: "conv3_3"
  type: "Convolution"
  bottom: "conv3_2"
  top: "conv3_3"
  param {
    lr_mult: 1
  }
  param {
    lr_mult: 2
  }
  convolution_param {
    num_output: 256
    pad: 1
    kernel_size: 3
  }
}
layer {
  name: "relu3_3"
  type: "ReLU"
  bottom: "conv3_3"
  top: "conv3_3"
}
layer {
  name: "pool3"
  type: "Pooling"
  bottom: "conv3_3"
  top: "pool3"
  pooling_param {
    pool: MAX
    kernel_size: 2
    stride: 2
  }
}
layer {
  name: "conv4_1"
  type: "Convolution"
  bottom: "pool3"
  top: "conv4_1"
  param {
    lr_mult: 1
  }
  param {
    lr_mult: 2
  }
  convolution_param {
    num_output: 512
    pad: 1
    kernel_size: 3
  }
}
layer {
  name: "relu4_1"
  type: "ReLU"
  bottom: "conv4_1"
  top: "conv4_1"
}
layer {
  name: "conv4_2"
  type: "Convolution"
  bottom: "conv4_1"
  top: "conv4_2"
  param {
    lr_mult: 1
  }
  param {
    lr_mult: 2
  }
  convolution_param {
    num_output: 512
    pad: 1
    kernel_size: 3
  }
}
layer {
  name: "relu4_2"
  type: "ReLU"
  bottom: "conv4_2"
  top: "conv4_2"
}
layer {
  name: "conv4_3"
  type: "Convolution"
  bottom: "conv4_2"
  top: "conv4_3"
  param {
    lr_mult: 1
  }
  param {
    lr_mult: 2
  }
  convolution_param {
    num_output: 512
    pad: 1
    kernel_size: 3
  }
}
layer {
  name: "relu4_3"
  type: "ReLU"
  bottom: "conv4_3"
  top: "conv4_3"
}
layer {
  name: "pool4"
  type: "Pooling"
  bottom: "conv4_3"
  top: "pool4"
  pooling_param {
    pool: MAX
    kernel_size: 2
    stride: 2
  }
}
layer {
  name: "conv5_1"
  type: "Convolution"
  bottom: "pool4"
  top: "conv5_1"
  param {
    lr_mult: 1
  }
  param {
    lr_mult: 2
  }
  convolution_param {
    num_output: 512
    pad: 1
    kernel_size: 3
  }
}
layer {
  name: "relu5_1"
  type: "ReLU"
  bottom: "conv5_1"
  top: "conv5_1"
}
layer {
  name: "conv5_2"
  type: "Convolution"
  bottom: "conv5_1"
  top: "conv5_2"
  param {
    lr_mult: 1
  }
  param {
    lr_mult: 2
  }
  convolution_param {
    num_output: 512
    pad: 1
    kernel_size: 3
  }
}
layer {
  name: "relu5_2"
  type: "ReLU"
  bottom: "conv5_2"
  top: "conv5_2"
}
layer {
  name: "conv5_3"
  type: "Convolution"
  bottom: "conv5_2"
  top: "conv5_3"
  param {
    lr_mult: 1
  }
  param {
    lr_mult: 2
  }
  convolution_param {
    num_output: 512
    pad: 1
    kernel_size: 3
  }
}
layer {
  name: "relu5_3"
  type: "ReLU"
  bottom: "conv5_3"
  top: "conv5_3"
}
layer {
  name: "rpn_big_conv1"
  type: "Convolution"
  bottom: "conv5_3"
  top: "rpn_big_conv1"
  param {
    lr_mult: 1
  }
  param {
    lr_mult: 2
  }
  convolution_param {
    num_output: 512
    pad: 1
    kernel_size: 3
    stride: 1
    weight_filler {
      type: "gaussian"
      mean: 0
      std: 0.01
    }
    bias_filler {
      type: "constant"
    }
  }
}
layer {
  name: "rpn_big_conv1_relu"
  type: "ReLU"
  bottom: "rpn_big_conv1"
  top: "rpn_big_conv1"
  relu_param {
    negative_slope: 0
  }
}
layer {
  name: "rpn_big_conv2"
  type: "Convolution"
  bottom: "rpn_big_conv1"
  top: "rpn_big_conv2"
  param {
    lr_mult: 1
  }
  param {
    lr_mult: 2
  }
  convolution_param {
    num_output: 512
    pad: 1
    kernel_size: 3
    stride: 1
    weight_filler {
      type: "gaussian"
      mean: 0
      std: 0.01
    }
    bias_filler {
      type: "constant"
    }
  }
}
layer {
  name: "rpn_big_conv2_relu"
  type: "ReLU"
  bottom: "rpn_big_conv2"
  top: "rpn_big_conv2"
  relu_param {
    negative_slope: 0
  }
}
layer {
  name: "rpn_big_conv2_drop"
  type: "Dropout"
  bottom: "rpn_big_conv2"
  top: "rpn_big_conv2"
  dropout_param {
    dropout_ratio: 0.3
  }
}
layer {
  name: "rpn_big_output_cls"
  type: "Convolution"
  bottom: "rpn_big_conv2"
  top: "rpn_big_output_cls"
  param {
    lr_mult: 1
  }
  param {
    lr_mult: 2
  }
  convolution_param {
    num_output: 384
    pad: 1
    kernel_size: 3
    stride: 1
    weight_filler {
      type: "gaussian"
      mean: 0
      std: 0.01
    }
    bias_filler {
      type: "constant"
    }
  }
}
layer {
  name: "rpn_big_output_cls_relu"
  type: "ReLU"
  bottom: "rpn_big_output_cls"
  top: "rpn_big_output_cls"
  relu_param {
    negative_slope: 0
  }
}
layer {
  name: "rpn_big_cls_score"
  type: "Convolution"
  bottom: "rpn_big_output_cls"
  top: "rpn_big_cls_score"
  param {
    lr_mult: 1
  }
  param {
    lr_mult: 2
  }
  convolution_param {
    num_output: 52
    pad: 0
    kernel_size: 3
    stride: 1
    weight_filler {
      type: "gaussian"
      mean: 0
      std: 0.01
    }
    bias_filler {
      type: "constant"
    }
  }
}
layer {
  name: "rpn_big_cls_score_reshape"
  type: "Reshape"
  bottom: "rpn_big_cls_score"
  top: "rpn_big_cls_score_reshape"
  reshape_param {
    shape {
      dim: 0
      dim: 2
      dim: -1
      dim: 0
    }
  }
}
layer {
  name: "rpn_big_cls_prob"
  type: "Softmax"
  bottom: "rpn_big_cls_score_reshape"
  top: "rpn_big_cls_prob"
}
layer {
  name: "rpn_big_cls_prob_reshape"
  type: "Reshape"
  bottom: "rpn_big_cls_prob"
  top: "rpn_big_cls_prob_reshape"
  reshape_param {
    shape {
      dim: 0
      dim: 52
      dim: -1
      dim: 0
    }
  }
}
layer {
  name: "rpn_big_anchor_target"
  type: "Python"
  bottom: "rpn_big_cls_score"
  bottom: "input_gt_boxes"
  bottom: "input_ignored_boxes"
  bottom: "input_im_info"
  bottom: "input_data"
  bottom: "rpn_big_cls_prob_reshape"
  top: "rpn_big_anchor_target_labels"
  top: "rpn_big_anchor_target_bbox_targets"
  top: "rpn_big_anchor_target_inside_weights"
  top: "rpn_big_anchor_target_outside_weights"
  python_param {
    module: "rpn.anchor_target_layer"
    layer: "AnchorTargetLayer"
    param_str: "{\"anchor_ratios\": [1.0], \"anchor_shift_num_xy\": [[2, 2], [2, 2], [2, 2], [2, 2], [1, 1], [1, 1], [1, 1], [1, 1], [1, 1], [1, 1], [1, 1], [1, 1], [1, 1], [1, 1]], \"fg_fraction\": 0.5, \"name\": \"rpn_big\", \"negative_overlap\": 0.4, \"anchor_scales\": [2.5, 3.025, 3.66025, 4.4289024999999995, 5.358972025, 6.484356150249999, 7.846070941802498, 9.493745839581022, 11.487432465893036, 13.899793283730574, 16.818749873313998, 20.350687346709933, 24.62433168951902, 29.795441344318014], \"positive_overlap\": 0.6, \"square_targets\": true, \"num_classes\": 1, \"batchsize\": 256, \"tn_fraction\": 0.2, \"feat_stride\": 16}"
  }
}
layer {
  name: "rpn_big_loss_cls"
  type: "SoftmaxWithLoss"
  bottom: "rpn_big_cls_score_reshape"
  bottom: "rpn_big_anchor_target_labels"
  top: "rpn_big_loss_cls"
  loss_weight: 1
  propagate_down: true
  propagate_down: false
  loss_param {
    ignore_label: -1
    normalization: VALID
  }
}
layer {
  name: "rpn_big_output_box"
  type: "Convolution"
  bottom: "rpn_big_conv2"
  top: "rpn_big_output_box"
  param {
    lr_mult: 1
  }
  param {
    lr_mult: 2
  }
  convolution_param {
    num_output: 384
    pad: 1
    kernel_size: 3
    stride: 1
    weight_filler {
      type: "gaussian"
      mean: 0
      std: 0.01
    }
    bias_filler {
      type: "constant"
    }
  }
}
layer {
  name: "rpn_big_output_box_relu"
  type: "ReLU"
  bottom: "rpn_big_output_box"
  top: "rpn_big_output_box"
  relu_param {
    negative_slope: 0
  }
}
layer {
  name: "rpn_big_bbox_pred"
  type: "Convolution"
  bottom: "rpn_big_output_box"
  top: "rpn_big_bbox_pred"
  param {
    lr_mult: 1
  }
  param {
    lr_mult: 2
  }
  convolution_param {
    num_output: 104
    pad: 0
    kernel_size: 3
    stride: 1
    weight_filler {
      type: "gaussian"
      mean: 0
      std: 0.01
    }
    bias_filler {
      type: "constant"
    }
  }
}
layer {
  name: "rpn_big_loss_bbox"
  type: "Python"
  bottom: "rpn_big_bbox_pred"
  bottom: "rpn_big_anchor_target_bbox_targets"
  bottom: "rpn_big_anchor_target_inside_weights"
  bottom: "rpn_big_anchor_target_outside_weights"
  top: "rpn_big_loss_bbox"
  loss_weight: 1
  python_param {
    module: "layers.smooth_l1_loss"
    layer: "SmoothL1LossLayer"
    param_str: "{\"sigma\": 3}"
  }
}
layer {
  name: "proposal"
  type: "Python"
  bottom: "rpn_big_cls_prob_reshape"
  bottom: "rpn_big_bbox_pred"
  bottom: "input_im_info"
  top: "rpn_rois"
  python_param {
    module: "rpn.proposal_layer"
    layer: "ProposalLayer"
    param_str: "{\"anchor_shift_num_xy\": [[2, 2], [2, 2], [2, 2], [2, 2], [1, 1], [1, 1], [1, 1], [1, 1], [1, 1], [1, 1], [1, 1], [1, 1], [1, 1], [1, 1]], \"feat_stride\": 16, \"num_classes\": 1, \"anchor_scales\": [2.5, 3.025, 3.66025, 4.4289024999999995, 5.358972025, 6.484356150249999, 7.846070941802498, 9.493745839581022, 11.487432465893036, 13.899793283730574, 16.818749873313998, 20.350687346709933, 24.62433168951902, 29.795441344318014], \"square_targets\": true, \"name\": \"rpn_big\", \"batchsize\": 256, \"anchor_ratios\": [1.0]}"
  }
}
layer {
  name: "roi-data"
  type: "Python"
  bottom: "rpn_rois"
  bottom: "input_gt_boxes"
  top: "rois"
  top: "labels"
  top: "bbox_targets"
  top: "bbox_inside_weights"
  top: "bbox_outside_weights"
  top: "pid_label"
  python_param {
    module: "rpn.proposal_target_layer"
    layer: "ProposalTargetLayer"
    param_str: "{\"num_classes\": 2, \"bg_aux_label\": 5532}"
  }
}
layer {
  name: "roi-pool"
  type: "ROIPooling"
  bottom: "conv5_3"
  bottom: "rois"
  top: "roi-pool"
  roi_pooling_param {
    pooled_h: 7
    pooled_w: 7
    spatial_scale: 0.0625
  }
}
I0413 17:45:58.559989 10935 layer_factory.hpp:77] Creating layer input
I0413 17:45:58.561543 10935 net.cpp:100] Creating Layer input
I0413 17:45:58.561573 10935 net.cpp:408] input -> input_data
I0413 17:45:58.561588 10935 net.cpp:408] input -> input_im_info
I0413 17:45:58.561599 10935 net.cpp:408] input -> input_gt_boxes
I0413 17:45:58.561609 10935 net.cpp:408] input -> input_ignored_boxes
RoiDataLayer: name_to_top: {'gt_boxes': 2, 'im_info': 1, 'data': 0, 'ignored_boxes': 3}
I0413 17:45:58.909997 10935 net.cpp:150] Setting up input
I0413 17:45:58.910030 10935 net.cpp:157] Top shape: 1 3 1000 1500 (4500000)
I0413 17:45:58.910043 10935 net.cpp:157] Top shape: 1 3 (3)
I0413 17:45:58.910053 10935 net.cpp:157] Top shape: 1 5 (5)
I0413 17:45:58.910063 10935 net.cpp:157] Top shape: 1 5 (5)
I0413 17:45:58.910068 10935 net.cpp:165] Memory required for data: 18000052
I0413 17:45:58.910076 10935 layer_factory.hpp:77] Creating layer input_data_input_0_split
I0413 17:45:58.910092 10935 net.cpp:100] Creating Layer input_data_input_0_split
I0413 17:45:58.910099 10935 net.cpp:434] input_data_input_0_split <- input_data
I0413 17:45:58.910111 10935 net.cpp:408] input_data_input_0_split -> input_data_input_0_split_0
I0413 17:45:58.910128 10935 net.cpp:408] input_data_input_0_split -> input_data_input_0_split_1
I0413 17:45:58.910173 10935 net.cpp:150] Setting up input_data_input_0_split
I0413 17:45:58.910184 10935 net.cpp:157] Top shape: 1 3 1000 1500 (4500000)
I0413 17:45:58.910193 10935 net.cpp:157] Top shape: 1 3 1000 1500 (4500000)
I0413 17:45:58.910199 10935 net.cpp:165] Memory required for data: 54000052
I0413 17:45:58.910205 10935 layer_factory.hpp:77] Creating layer input_im_info_input_1_split
I0413 17:45:58.910215 10935 net.cpp:100] Creating Layer input_im_info_input_1_split
I0413 17:45:58.910221 10935 net.cpp:434] input_im_info_input_1_split <- input_im_info
I0413 17:45:58.910230 10935 net.cpp:408] input_im_info_input_1_split -> input_im_info_input_1_split_0
I0413 17:45:58.910241 10935 net.cpp:408] input_im_info_input_1_split -> input_im_info_input_1_split_1
I0413 17:45:58.910279 10935 net.cpp:150] Setting up input_im_info_input_1_split
I0413 17:45:58.910290 10935 net.cpp:157] Top shape: 1 3 (3)
I0413 17:45:58.910297 10935 net.cpp:157] Top shape: 1 3 (3)
I0413 17:45:58.910302 10935 net.cpp:165] Memory required for data: 54000076
I0413 17:45:58.910307 10935 layer_factory.hpp:77] Creating layer input_gt_boxes_input_2_split
I0413 17:45:58.910315 10935 net.cpp:100] Creating Layer input_gt_boxes_input_2_split
I0413 17:45:58.910321 10935 net.cpp:434] input_gt_boxes_input_2_split <- input_gt_boxes
I0413 17:45:58.910329 10935 net.cpp:408] input_gt_boxes_input_2_split -> input_gt_boxes_input_2_split_0
I0413 17:45:58.910341 10935 net.cpp:408] input_gt_boxes_input_2_split -> input_gt_boxes_input_2_split_1
I0413 17:45:58.910382 10935 net.cpp:150] Setting up input_gt_boxes_input_2_split
I0413 17:45:58.910392 10935 net.cpp:157] Top shape: 1 5 (5)
I0413 17:45:58.910399 10935 net.cpp:157] Top shape: 1 5 (5)
I0413 17:45:58.910404 10935 net.cpp:165] Memory required for data: 54000116
I0413 17:45:58.910409 10935 layer_factory.hpp:77] Creating layer conv1_1
I0413 17:45:58.910424 10935 net.cpp:100] Creating Layer conv1_1
I0413 17:45:58.910430 10935 net.cpp:434] conv1_1 <- input_data_input_0_split_0
I0413 17:45:58.910439 10935 net.cpp:408] conv1_1 -> conv1_1
I0413 17:45:58.913718 10935 net.cpp:150] Setting up conv1_1
I0413 17:45:58.913758 10935 net.cpp:157] Top shape: 1 64 1000 1500 (96000000)
I0413 17:45:58.913761 10935 net.cpp:165] Memory required for data: 438000116
I0413 17:45:58.913784 10935 layer_factory.hpp:77] Creating layer relu1_1
I0413 17:45:58.913801 10935 net.cpp:100] Creating Layer relu1_1
I0413 17:45:58.913810 10935 net.cpp:434] relu1_1 <- conv1_1
I0413 17:45:58.913822 10935 net.cpp:395] relu1_1 -> conv1_1 (in-place)
I0413 17:45:58.913836 10935 net.cpp:150] Setting up relu1_1
I0413 17:45:58.913844 10935 net.cpp:157] Top shape: 1 64 1000 1500 (96000000)
I0413 17:45:58.913849 10935 net.cpp:165] Memory required for data: 822000116
I0413 17:45:58.913856 10935 layer_factory.hpp:77] Creating layer conv1_2
I0413 17:45:58.913869 10935 net.cpp:100] Creating Layer conv1_2
I0413 17:45:58.913874 10935 net.cpp:434] conv1_2 <- conv1_1
I0413 17:45:58.913883 10935 net.cpp:408] conv1_2 -> conv1_2
I0413 17:45:58.917127 10935 net.cpp:150] Setting up conv1_2
I0413 17:45:58.917163 10935 net.cpp:157] Top shape: 1 64 1000 1500 (96000000)
I0413 17:45:58.917167 10935 net.cpp:165] Memory required for data: 1206000116
I0413 17:45:58.917188 10935 layer_factory.hpp:77] Creating layer relu1_2
I0413 17:45:58.917204 10935 net.cpp:100] Creating Layer relu1_2
I0413 17:45:58.917213 10935 net.cpp:434] relu1_2 <- conv1_2
I0413 17:45:58.917224 10935 net.cpp:395] relu1_2 -> conv1_2 (in-place)
I0413 17:45:58.917240 10935 net.cpp:150] Setting up relu1_2
I0413 17:45:58.917248 10935 net.cpp:157] Top shape: 1 64 1000 1500 (96000000)
I0413 17:45:58.917253 10935 net.cpp:165] Memory required for data: 1590000116
I0413 17:45:58.917258 10935 layer_factory.hpp:77] Creating layer pool1
I0413 17:45:58.917273 10935 net.cpp:100] Creating Layer pool1
I0413 17:45:58.917279 10935 net.cpp:434] pool1 <- conv1_2
I0413 17:45:58.917287 10935 net.cpp:408] pool1 -> pool1
I0413 17:45:58.917376 10935 net.cpp:150] Setting up pool1
I0413 17:45:58.917384 10935 net.cpp:157] Top shape: 1 64 500 750 (24000000)
I0413 17:45:58.917387 10935 net.cpp:165] Memory required for data: 1686000116
I0413 17:45:58.917390 10935 layer_factory.hpp:77] Creating layer conv2_1
I0413 17:45:58.917404 10935 net.cpp:100] Creating Layer conv2_1
I0413 17:45:58.917408 10935 net.cpp:434] conv2_1 <- pool1
I0413 17:45:58.917413 10935 net.cpp:408] conv2_1 -> conv2_1
I0413 17:45:58.919159 10935 net.cpp:150] Setting up conv2_1
I0413 17:45:58.919189 10935 net.cpp:157] Top shape: 1 128 500 750 (48000000)
I0413 17:45:58.919195 10935 net.cpp:165] Memory required for data: 1878000116
I0413 17:45:58.919215 10935 layer_factory.hpp:77] Creating layer relu2_1
I0413 17:45:58.919230 10935 net.cpp:100] Creating Layer relu2_1
I0413 17:45:58.919239 10935 net.cpp:434] relu2_1 <- conv2_1
I0413 17:45:58.919250 10935 net.cpp:395] relu2_1 -> conv2_1 (in-place)
I0413 17:45:58.919262 10935 net.cpp:150] Setting up relu2_1
I0413 17:45:58.919272 10935 net.cpp:157] Top shape: 1 128 500 750 (48000000)
I0413 17:45:58.919278 10935 net.cpp:165] Memory required for data: 2070000116
I0413 17:45:58.919284 10935 layer_factory.hpp:77] Creating layer conv2_2
I0413 17:45:58.919298 10935 net.cpp:100] Creating Layer conv2_2
I0413 17:45:58.919306 10935 net.cpp:434] conv2_2 <- conv2_1
I0413 17:45:58.919317 10935 net.cpp:408] conv2_2 -> conv2_2
I0413 17:45:58.920660 10935 net.cpp:150] Setting up conv2_2
I0413 17:45:58.920689 10935 net.cpp:157] Top shape: 1 128 500 750 (48000000)
I0413 17:45:58.920696 10935 net.cpp:165] Memory required for data: 2262000116
I0413 17:45:58.920708 10935 layer_factory.hpp:77] Creating layer relu2_2
I0413 17:45:58.920720 10935 net.cpp:100] Creating Layer relu2_2
I0413 17:45:58.920727 10935 net.cpp:434] relu2_2 <- conv2_2
I0413 17:45:58.920738 10935 net.cpp:395] relu2_2 -> conv2_2 (in-place)
I0413 17:45:58.920750 10935 net.cpp:150] Setting up relu2_2
I0413 17:45:58.920759 10935 net.cpp:157] Top shape: 1 128 500 750 (48000000)
I0413 17:45:58.920765 10935 net.cpp:165] Memory required for data: 2454000116
I0413 17:45:58.920770 10935 layer_factory.hpp:77] Creating layer pool2
I0413 17:45:58.920780 10935 net.cpp:100] Creating Layer pool2
I0413 17:45:58.920786 10935 net.cpp:434] pool2 <- conv2_2
I0413 17:45:58.920794 10935 net.cpp:408] pool2 -> pool2
I0413 17:45:58.920855 10935 net.cpp:150] Setting up pool2
I0413 17:45:58.920866 10935 net.cpp:157] Top shape: 1 128 250 375 (12000000)
I0413 17:45:58.920872 10935 net.cpp:165] Memory required for data: 2502000116
I0413 17:45:58.920877 10935 layer_factory.hpp:77] Creating layer conv3_1
I0413 17:45:58.920891 10935 net.cpp:100] Creating Layer conv3_1
I0413 17:45:58.920897 10935 net.cpp:434] conv3_1 <- pool2
I0413 17:45:58.920914 10935 net.cpp:408] conv3_1 -> conv3_1
I0413 17:45:58.922240 10935 net.cpp:150] Setting up conv3_1
I0413 17:45:58.922266 10935 net.cpp:157] Top shape: 1 256 250 375 (24000000)
I0413 17:45:58.922269 10935 net.cpp:165] Memory required for data: 2598000116
I0413 17:45:58.922287 10935 layer_factory.hpp:77] Creating layer relu3_1
I0413 17:45:58.922302 10935 net.cpp:100] Creating Layer relu3_1
I0413 17:45:58.922309 10935 net.cpp:434] relu3_1 <- conv3_1
I0413 17:45:58.922322 10935 net.cpp:395] relu3_1 -> conv3_1 (in-place)
I0413 17:45:58.922334 10935 net.cpp:150] Setting up relu3_1
I0413 17:45:58.922344 10935 net.cpp:157] Top shape: 1 256 250 375 (24000000)
I0413 17:45:58.922351 10935 net.cpp:165] Memory required for data: 2694000116
I0413 17:45:58.922356 10935 layer_factory.hpp:77] Creating layer conv3_2
I0413 17:45:58.922371 10935 net.cpp:100] Creating Layer conv3_2
I0413 17:45:58.922379 10935 net.cpp:434] conv3_2 <- conv3_1
I0413 17:45:58.922389 10935 net.cpp:408] conv3_2 -> conv3_2
I0413 17:45:58.923671 10935 net.cpp:150] Setting up conv3_2
I0413 17:45:58.923696 10935 net.cpp:157] Top shape: 1 256 250 375 (24000000)
I0413 17:45:58.923701 10935 net.cpp:165] Memory required for data: 2790000116
I0413 17:45:58.923712 10935 layer_factory.hpp:77] Creating layer relu3_2
I0413 17:45:58.923723 10935 net.cpp:100] Creating Layer relu3_2
I0413 17:45:58.923732 10935 net.cpp:434] relu3_2 <- conv3_2
I0413 17:45:58.923743 10935 net.cpp:395] relu3_2 -> conv3_2 (in-place)
I0413 17:45:58.923756 10935 net.cpp:150] Setting up relu3_2
I0413 17:45:58.923765 10935 net.cpp:157] Top shape: 1 256 250 375 (24000000)
I0413 17:45:58.923771 10935 net.cpp:165] Memory required for data: 2886000116
I0413 17:45:58.923776 10935 layer_factory.hpp:77] Creating layer conv3_3
I0413 17:45:58.923789 10935 net.cpp:100] Creating Layer conv3_3
I0413 17:45:58.923796 10935 net.cpp:434] conv3_3 <- conv3_2
I0413 17:45:58.923804 10935 net.cpp:408] conv3_3 -> conv3_3
I0413 17:45:58.925470 10935 net.cpp:150] Setting up conv3_3
I0413 17:45:58.925503 10935 net.cpp:157] Top shape: 1 256 250 375 (24000000)
I0413 17:45:58.925505 10935 net.cpp:165] Memory required for data: 2982000116
I0413 17:45:58.925518 10935 layer_factory.hpp:77] Creating layer relu3_3
I0413 17:45:58.925532 10935 net.cpp:100] Creating Layer relu3_3
I0413 17:45:58.925542 10935 net.cpp:434] relu3_3 <- conv3_3
I0413 17:45:58.925554 10935 net.cpp:395] relu3_3 -> conv3_3 (in-place)
I0413 17:45:58.925568 10935 net.cpp:150] Setting up relu3_3
I0413 17:45:58.925576 10935 net.cpp:157] Top shape: 1 256 250 375 (24000000)
I0413 17:45:58.925581 10935 net.cpp:165] Memory required for data: 3078000116
I0413 17:45:58.925586 10935 layer_factory.hpp:77] Creating layer pool3
I0413 17:45:58.925597 10935 net.cpp:100] Creating Layer pool3
I0413 17:45:58.925603 10935 net.cpp:434] pool3 <- conv3_3
I0413 17:45:58.925613 10935 net.cpp:408] pool3 -> pool3
I0413 17:45:58.925673 10935 net.cpp:150] Setting up pool3
I0413 17:45:58.925683 10935 net.cpp:157] Top shape: 1 256 125 188 (6016000)
I0413 17:45:58.925688 10935 net.cpp:165] Memory required for data: 3102064116
I0413 17:45:58.925694 10935 layer_factory.hpp:77] Creating layer conv4_1
I0413 17:45:58.925709 10935 net.cpp:100] Creating Layer conv4_1
I0413 17:45:58.925717 10935 net.cpp:434] conv4_1 <- pool3
I0413 17:45:58.925727 10935 net.cpp:408] conv4_1 -> conv4_1
I0413 17:45:58.928634 10935 net.cpp:150] Setting up conv4_1
I0413 17:45:58.928665 10935 net.cpp:157] Top shape: 1 512 125 188 (12032000)
I0413 17:45:58.928668 10935 net.cpp:165] Memory required for data: 3150192116
I0413 17:45:58.928680 10935 layer_factory.hpp:77] Creating layer relu4_1
I0413 17:45:58.928694 10935 net.cpp:100] Creating Layer relu4_1
I0413 17:45:58.928701 10935 net.cpp:434] relu4_1 <- conv4_1
I0413 17:45:58.928714 10935 net.cpp:395] relu4_1 -> conv4_1 (in-place)
I0413 17:45:58.928727 10935 net.cpp:150] Setting up relu4_1
I0413 17:45:58.928735 10935 net.cpp:157] Top shape: 1 512 125 188 (12032000)
I0413 17:45:58.928740 10935 net.cpp:165] Memory required for data: 3198320116
I0413 17:45:58.928743 10935 layer_factory.hpp:77] Creating layer conv4_2
I0413 17:45:58.928758 10935 net.cpp:100] Creating Layer conv4_2
I0413 17:45:58.928764 10935 net.cpp:434] conv4_2 <- conv4_1
I0413 17:45:58.928773 10935 net.cpp:408] conv4_2 -> conv4_2
I0413 17:45:58.933316 10935 net.cpp:150] Setting up conv4_2
I0413 17:45:58.933352 10935 net.cpp:157] Top shape: 1 512 125 188 (12032000)
I0413 17:45:58.933357 10935 net.cpp:165] Memory required for data: 3246448116
I0413 17:45:58.933373 10935 layer_factory.hpp:77] Creating layer relu4_2
I0413 17:45:58.933384 10935 net.cpp:100] Creating Layer relu4_2
I0413 17:45:58.933392 10935 net.cpp:434] relu4_2 <- conv4_2
I0413 17:45:58.933406 10935 net.cpp:395] relu4_2 -> conv4_2 (in-place)
I0413 17:45:58.933423 10935 net.cpp:150] Setting up relu4_2
I0413 17:45:58.933431 10935 net.cpp:157] Top shape: 1 512 125 188 (12032000)
I0413 17:45:58.933436 10935 net.cpp:165] Memory required for data: 3294576116
I0413 17:45:58.933441 10935 layer_factory.hpp:77] Creating layer conv4_3
I0413 17:45:58.933454 10935 net.cpp:100] Creating Layer conv4_3
I0413 17:45:58.933459 10935 net.cpp:434] conv4_3 <- conv4_2
I0413 17:45:58.933470 10935 net.cpp:408] conv4_3 -> conv4_3
I0413 17:45:58.938320 10935 net.cpp:150] Setting up conv4_3
I0413 17:45:58.938359 10935 net.cpp:157] Top shape: 1 512 125 188 (12032000)
I0413 17:45:58.938365 10935 net.cpp:165] Memory required for data: 3342704116
I0413 17:45:58.938381 10935 layer_factory.hpp:77] Creating layer relu4_3
I0413 17:45:58.938396 10935 net.cpp:100] Creating Layer relu4_3
I0413 17:45:58.938405 10935 net.cpp:434] relu4_3 <- conv4_3
I0413 17:45:58.938417 10935 net.cpp:395] relu4_3 -> conv4_3 (in-place)
I0413 17:45:58.938433 10935 net.cpp:150] Setting up relu4_3
I0413 17:45:58.938442 10935 net.cpp:157] Top shape: 1 512 125 188 (12032000)
I0413 17:45:58.938448 10935 net.cpp:165] Memory required for data: 3390832116
I0413 17:45:58.938457 10935 layer_factory.hpp:77] Creating layer pool4
I0413 17:45:58.938468 10935 net.cpp:100] Creating Layer pool4
I0413 17:45:58.938477 10935 net.cpp:434] pool4 <- conv4_3
I0413 17:45:58.938485 10935 net.cpp:408] pool4 -> pool4
I0413 17:45:58.938539 10935 net.cpp:150] Setting up pool4
I0413 17:45:58.938552 10935 net.cpp:157] Top shape: 1 512 63 94 (3032064)
I0413 17:45:58.938560 10935 net.cpp:165] Memory required for data: 3402960372
I0413 17:45:58.938565 10935 layer_factory.hpp:77] Creating layer conv5_1
I0413 17:45:58.938583 10935 net.cpp:100] Creating Layer conv5_1
I0413 17:45:58.938591 10935 net.cpp:434] conv5_1 <- pool4
I0413 17:45:58.938601 10935 net.cpp:408] conv5_1 -> conv5_1
I0413 17:45:58.943779 10935 net.cpp:150] Setting up conv5_1
I0413 17:45:58.943814 10935 net.cpp:157] Top shape: 1 512 63 94 (3032064)
I0413 17:45:58.943817 10935 net.cpp:165] Memory required for data: 3415088628
I0413 17:45:58.943828 10935 layer_factory.hpp:77] Creating layer relu5_1
I0413 17:45:58.943838 10935 net.cpp:100] Creating Layer relu5_1
I0413 17:45:58.943843 10935 net.cpp:434] relu5_1 <- conv5_1
I0413 17:45:58.943852 10935 net.cpp:395] relu5_1 -> conv5_1 (in-place)
I0413 17:45:58.943874 10935 net.cpp:150] Setting up relu5_1
I0413 17:45:58.943881 10935 net.cpp:157] Top shape: 1 512 63 94 (3032064)
I0413 17:45:58.943884 10935 net.cpp:165] Memory required for data: 3427216884
I0413 17:45:58.943887 10935 layer_factory.hpp:77] Creating layer conv5_2
I0413 17:45:58.943897 10935 net.cpp:100] Creating Layer conv5_2
I0413 17:45:58.943902 10935 net.cpp:434] conv5_2 <- conv5_1
I0413 17:45:58.943907 10935 net.cpp:408] conv5_2 -> conv5_2
I0413 17:45:58.950129 10935 net.cpp:150] Setting up conv5_2
I0413 17:45:58.950162 10935 net.cpp:157] Top shape: 1 512 63 94 (3032064)
I0413 17:45:58.950176 10935 net.cpp:165] Memory required for data: 3439345140
I0413 17:45:58.950186 10935 layer_factory.hpp:77] Creating layer relu5_2
I0413 17:45:58.950196 10935 net.cpp:100] Creating Layer relu5_2
I0413 17:45:58.950201 10935 net.cpp:434] relu5_2 <- conv5_2
I0413 17:45:58.950209 10935 net.cpp:395] relu5_2 -> conv5_2 (in-place)
I0413 17:45:58.950219 10935 net.cpp:150] Setting up relu5_2
I0413 17:45:58.950223 10935 net.cpp:157] Top shape: 1 512 63 94 (3032064)
I0413 17:45:58.950227 10935 net.cpp:165] Memory required for data: 3451473396
I0413 17:45:58.950229 10935 layer_factory.hpp:77] Creating layer conv5_3
I0413 17:45:58.950244 10935 net.cpp:100] Creating Layer conv5_3
I0413 17:45:58.950248 10935 net.cpp:434] conv5_3 <- conv5_2
I0413 17:45:58.950253 10935 net.cpp:408] conv5_3 -> conv5_3
I0413 17:45:58.954602 10935 net.cpp:150] Setting up conv5_3
I0413 17:45:58.954639 10935 net.cpp:157] Top shape: 1 512 63 94 (3032064)
I0413 17:45:58.954653 10935 net.cpp:165] Memory required for data: 3463601652
I0413 17:45:58.954663 10935 layer_factory.hpp:77] Creating layer relu5_3
I0413 17:45:58.954674 10935 net.cpp:100] Creating Layer relu5_3
I0413 17:45:58.954679 10935 net.cpp:434] relu5_3 <- conv5_3
I0413 17:45:58.954686 10935 net.cpp:395] relu5_3 -> conv5_3 (in-place)
I0413 17:45:58.954696 10935 net.cpp:150] Setting up relu5_3
I0413 17:45:58.954701 10935 net.cpp:157] Top shape: 1 512 63 94 (3032064)
I0413 17:45:58.954704 10935 net.cpp:165] Memory required for data: 3475729908
I0413 17:45:58.954706 10935 layer_factory.hpp:77] Creating layer conv5_3_relu5_3_0_split
I0413 17:45:58.954712 10935 net.cpp:100] Creating Layer conv5_3_relu5_3_0_split
I0413 17:45:58.954715 10935 net.cpp:434] conv5_3_relu5_3_0_split <- conv5_3
I0413 17:45:58.954722 10935 net.cpp:408] conv5_3_relu5_3_0_split -> conv5_3_relu5_3_0_split_0
I0413 17:45:58.954730 10935 net.cpp:408] conv5_3_relu5_3_0_split -> conv5_3_relu5_3_0_split_1
I0413 17:45:58.954762 10935 net.cpp:150] Setting up conv5_3_relu5_3_0_split
I0413 17:45:58.954769 10935 net.cpp:157] Top shape: 1 512 63 94 (3032064)
I0413 17:45:58.954773 10935 net.cpp:157] Top shape: 1 512 63 94 (3032064)
I0413 17:45:58.954777 10935 net.cpp:165] Memory required for data: 3499986420
I0413 17:45:58.954779 10935 layer_factory.hpp:77] Creating layer rpn_big_conv1
I0413 17:45:58.954792 10935 net.cpp:100] Creating Layer rpn_big_conv1
I0413 17:45:58.954797 10935 net.cpp:434] rpn_big_conv1 <- conv5_3_relu5_3_0_split_0
I0413 17:45:58.954803 10935 net.cpp:408] rpn_big_conv1 -> rpn_big_conv1
I0413 17:45:58.981230 10935 net.cpp:150] Setting up rpn_big_conv1
I0413 17:45:58.981261 10935 net.cpp:157] Top shape: 1 512 63 94 (3032064)
I0413 17:45:58.981273 10935 net.cpp:165] Memory required for data: 3512114676
I0413 17:45:58.981283 10935 layer_factory.hpp:77] Creating layer rpn_big_conv1_relu
I0413 17:45:58.981293 10935 net.cpp:100] Creating Layer rpn_big_conv1_relu
I0413 17:45:58.981298 10935 net.cpp:434] rpn_big_conv1_relu <- rpn_big_conv1
I0413 17:45:58.981307 10935 net.cpp:395] rpn_big_conv1_relu -> rpn_big_conv1 (in-place)
I0413 17:45:58.981317 10935 net.cpp:150] Setting up rpn_big_conv1_relu
I0413 17:45:58.981323 10935 net.cpp:157] Top shape: 1 512 63 94 (3032064)
I0413 17:45:58.981325 10935 net.cpp:165] Memory required for data: 3524242932
I0413 17:45:58.981328 10935 layer_factory.hpp:77] Creating layer rpn_big_conv2
I0413 17:45:58.981339 10935 net.cpp:100] Creating Layer rpn_big_conv2
I0413 17:45:58.981343 10935 net.cpp:434] rpn_big_conv2 <- rpn_big_conv1
I0413 17:45:58.981348 10935 net.cpp:408] rpn_big_conv2 -> rpn_big_conv2
I0413 17:45:59.006855 10935 net.cpp:150] Setting up rpn_big_conv2
I0413 17:45:59.006886 10935 net.cpp:157] Top shape: 1 512 63 94 (3032064)
I0413 17:45:59.006898 10935 net.cpp:165] Memory required for data: 3536371188
I0413 17:45:59.006908 10935 layer_factory.hpp:77] Creating layer rpn_big_conv2_relu
I0413 17:45:59.006918 10935 net.cpp:100] Creating Layer rpn_big_conv2_relu
I0413 17:45:59.006923 10935 net.cpp:434] rpn_big_conv2_relu <- rpn_big_conv2
I0413 17:45:59.006932 10935 net.cpp:395] rpn_big_conv2_relu -> rpn_big_conv2 (in-place)
I0413 17:45:59.006943 10935 net.cpp:150] Setting up rpn_big_conv2_relu
I0413 17:45:59.006947 10935 net.cpp:157] Top shape: 1 512 63 94 (3032064)
I0413 17:45:59.006950 10935 net.cpp:165] Memory required for data: 3548499444
I0413 17:45:59.006953 10935 layer_factory.hpp:77] Creating layer rpn_big_conv2_drop
I0413 17:45:59.006959 10935 net.cpp:100] Creating Layer rpn_big_conv2_drop
I0413 17:45:59.006963 10935 net.cpp:434] rpn_big_conv2_drop <- rpn_big_conv2
I0413 17:45:59.006968 10935 net.cpp:395] rpn_big_conv2_drop -> rpn_big_conv2 (in-place)
I0413 17:45:59.006989 10935 net.cpp:150] Setting up rpn_big_conv2_drop
I0413 17:45:59.006999 10935 net.cpp:157] Top shape: 1 512 63 94 (3032064)
I0413 17:45:59.007002 10935 net.cpp:165] Memory required for data: 3560627700
I0413 17:45:59.007006 10935 layer_factory.hpp:77] Creating layer rpn_big_conv2_rpn_big_conv2_drop_0_split
I0413 17:45:59.007011 10935 net.cpp:100] Creating Layer rpn_big_conv2_rpn_big_conv2_drop_0_split
I0413 17:45:59.007014 10935 net.cpp:434] rpn_big_conv2_rpn_big_conv2_drop_0_split <- rpn_big_conv2
I0413 17:45:59.007021 10935 net.cpp:408] rpn_big_conv2_rpn_big_conv2_drop_0_split -> rpn_big_conv2_rpn_big_conv2_drop_0_split_0
I0413 17:45:59.007028 10935 net.cpp:408] rpn_big_conv2_rpn_big_conv2_drop_0_split -> rpn_big_conv2_rpn_big_conv2_drop_0_split_1
I0413 17:45:59.007066 10935 net.cpp:150] Setting up rpn_big_conv2_rpn_big_conv2_drop_0_split
I0413 17:45:59.007072 10935 net.cpp:157] Top shape: 1 512 63 94 (3032064)
I0413 17:45:59.007077 10935 net.cpp:157] Top shape: 1 512 63 94 (3032064)
I0413 17:45:59.007081 10935 net.cpp:165] Memory required for data: 3584884212
I0413 17:45:59.007083 10935 layer_factory.hpp:77] Creating layer rpn_big_output_cls
I0413 17:45:59.007093 10935 net.cpp:100] Creating Layer rpn_big_output_cls
I0413 17:45:59.007098 10935 net.cpp:434] rpn_big_output_cls <- rpn_big_conv2_rpn_big_conv2_drop_0_split_0
I0413 17:45:59.007105 10935 net.cpp:408] rpn_big_output_cls -> rpn_big_output_cls
I0413 17:45:59.027070 10935 net.cpp:150] Setting up rpn_big_output_cls
I0413 17:45:59.027099 10935 net.cpp:157] Top shape: 1 384 63 94 (2274048)
I0413 17:45:59.027112 10935 net.cpp:165] Memory required for data: 3593980404
I0413 17:45:59.027122 10935 layer_factory.hpp:77] Creating layer rpn_big_output_cls_relu
I0413 17:45:59.027134 10935 net.cpp:100] Creating Layer rpn_big_output_cls_relu
I0413 17:45:59.027139 10935 net.cpp:434] rpn_big_output_cls_relu <- rpn_big_output_cls
I0413 17:45:59.027148 10935 net.cpp:395] rpn_big_output_cls_relu -> rpn_big_output_cls (in-place)
I0413 17:45:59.027158 10935 net.cpp:150] Setting up rpn_big_output_cls_relu
I0413 17:45:59.027163 10935 net.cpp:157] Top shape: 1 384 63 94 (2274048)
I0413 17:45:59.027165 10935 net.cpp:165] Memory required for data: 3603076596
I0413 17:45:59.027168 10935 layer_factory.hpp:77] Creating layer rpn_big_cls_score
I0413 17:45:59.027179 10935 net.cpp:100] Creating Layer rpn_big_cls_score
I0413 17:45:59.027194 10935 net.cpp:434] rpn_big_cls_score <- rpn_big_output_cls
I0413 17:45:59.027201 10935 net.cpp:408] rpn_big_cls_score -> rpn_big_cls_score
I0413 17:45:59.029435 10935 net.cpp:150] Setting up rpn_big_cls_score
I0413 17:45:59.029449 10935 net.cpp:157] Top shape: 1 52 61 92 (291824)
I0413 17:45:59.029453 10935 net.cpp:165] Memory required for data: 3604243892
I0413 17:45:59.029474 10935 layer_factory.hpp:77] Creating layer rpn_big_cls_score_rpn_big_cls_score_0_split
I0413 17:45:59.029481 10935 net.cpp:100] Creating Layer rpn_big_cls_score_rpn_big_cls_score_0_split
I0413 17:45:59.029485 10935 net.cpp:434] rpn_big_cls_score_rpn_big_cls_score_0_split <- rpn_big_cls_score
I0413 17:45:59.029492 10935 net.cpp:408] rpn_big_cls_score_rpn_big_cls_score_0_split -> rpn_big_cls_score_rpn_big_cls_score_0_split_0
I0413 17:45:59.029500 10935 net.cpp:408] rpn_big_cls_score_rpn_big_cls_score_0_split -> rpn_big_cls_score_rpn_big_cls_score_0_split_1
I0413 17:45:59.029532 10935 net.cpp:150] Setting up rpn_big_cls_score_rpn_big_cls_score_0_split
I0413 17:45:59.029541 10935 net.cpp:157] Top shape: 1 52 61 92 (291824)
I0413 17:45:59.029544 10935 net.cpp:157] Top shape: 1 52 61 92 (291824)
I0413 17:45:59.029547 10935 net.cpp:165] Memory required for data: 3606578484
I0413 17:45:59.029551 10935 layer_factory.hpp:77] Creating layer rpn_big_cls_score_reshape
I0413 17:45:59.029557 10935 net.cpp:100] Creating Layer rpn_big_cls_score_reshape
I0413 17:45:59.029561 10935 net.cpp:434] rpn_big_cls_score_reshape <- rpn_big_cls_score_rpn_big_cls_score_0_split_0
I0413 17:45:59.029567 10935 net.cpp:408] rpn_big_cls_score_reshape -> rpn_big_cls_score_reshape
I0413 17:45:59.029592 10935 net.cpp:150] Setting up rpn_big_cls_score_reshape
I0413 17:45:59.029599 10935 net.cpp:157] Top shape: 1 2 1586 92 (291824)
I0413 17:45:59.029603 10935 net.cpp:165] Memory required for data: 3607745780
I0413 17:45:59.029605 10935 layer_factory.hpp:77] Creating layer rpn_big_cls_score_reshape_rpn_big_cls_score_reshape_0_split
I0413 17:45:59.029610 10935 net.cpp:100] Creating Layer rpn_big_cls_score_reshape_rpn_big_cls_score_reshape_0_split
I0413 17:45:59.029614 10935 net.cpp:434] rpn_big_cls_score_reshape_rpn_big_cls_score_reshape_0_split <- rpn_big_cls_score_reshape
I0413 17:45:59.029620 10935 net.cpp:408] rpn_big_cls_score_reshape_rpn_big_cls_score_reshape_0_split -> rpn_big_cls_score_reshape_rpn_big_cls_score_reshape_0_split_0
I0413 17:45:59.029628 10935 net.cpp:408] rpn_big_cls_score_reshape_rpn_big_cls_score_reshape_0_split -> rpn_big_cls_score_reshape_rpn_big_cls_score_reshape_0_split_1
I0413 17:45:59.029659 10935 net.cpp:150] Setting up rpn_big_cls_score_reshape_rpn_big_cls_score_reshape_0_split
I0413 17:45:59.029665 10935 net.cpp:157] Top shape: 1 2 1586 92 (291824)
I0413 17:45:59.029670 10935 net.cpp:157] Top shape: 1 2 1586 92 (291824)
I0413 17:45:59.029672 10935 net.cpp:165] Memory required for data: 3610080372
I0413 17:45:59.029675 10935 layer_factory.hpp:77] Creating layer rpn_big_cls_prob
I0413 17:45:59.029681 10935 net.cpp:100] Creating Layer rpn_big_cls_prob
I0413 17:45:59.029685 10935 net.cpp:434] rpn_big_cls_prob <- rpn_big_cls_score_reshape_rpn_big_cls_score_reshape_0_split_0
I0413 17:45:59.029691 10935 net.cpp:408] rpn_big_cls_prob -> rpn_big_cls_prob
I0413 17:45:59.029741 10935 net.cpp:150] Setting up rpn_big_cls_prob
I0413 17:45:59.029747 10935 net.cpp:157] Top shape: 1 2 1586 92 (291824)
I0413 17:45:59.029750 10935 net.cpp:165] Memory required for data: 3611247668
I0413 17:45:59.029753 10935 layer_factory.hpp:77] Creating layer rpn_big_cls_prob_reshape
I0413 17:45:59.029758 10935 net.cpp:100] Creating Layer rpn_big_cls_prob_reshape
I0413 17:45:59.029762 10935 net.cpp:434] rpn_big_cls_prob_reshape <- rpn_big_cls_prob
I0413 17:45:59.029767 10935 net.cpp:408] rpn_big_cls_prob_reshape -> rpn_big_cls_prob_reshape
I0413 17:45:59.029788 10935 net.cpp:150] Setting up rpn_big_cls_prob_reshape
I0413 17:45:59.029798 10935 net.cpp:157] Top shape: 1 52 61 92 (291824)
I0413 17:45:59.029800 10935 net.cpp:165] Memory required for data: 3612414964
I0413 17:45:59.029804 10935 layer_factory.hpp:77] Creating layer rpn_big_cls_prob_reshape_rpn_big_cls_prob_reshape_0_split
I0413 17:45:59.029809 10935 net.cpp:100] Creating Layer rpn_big_cls_prob_reshape_rpn_big_cls_prob_reshape_0_split
I0413 17:45:59.029813 10935 net.cpp:434] rpn_big_cls_prob_reshape_rpn_big_cls_prob_reshape_0_split <- rpn_big_cls_prob_reshape
I0413 17:45:59.029817 10935 net.cpp:408] rpn_big_cls_prob_reshape_rpn_big_cls_prob_reshape_0_split -> rpn_big_cls_prob_reshape_rpn_big_cls_prob_reshape_0_split_0
I0413 17:45:59.029824 10935 net.cpp:408] rpn_big_cls_prob_reshape_rpn_big_cls_prob_reshape_0_split -> rpn_big_cls_prob_reshape_rpn_big_cls_prob_reshape_0_split_1
I0413 17:45:59.029851 10935 net.cpp:150] Setting up rpn_big_cls_prob_reshape_rpn_big_cls_prob_reshape_0_split
I0413 17:45:59.029858 10935 net.cpp:157] Top shape: 1 52 61 92 (291824)
I0413 17:45:59.029862 10935 net.cpp:157] Top shape: 1 52 61 92 (291824)
I0413 17:45:59.029865 10935 net.cpp:165] Memory required for data: 3614749556
I0413 17:45:59.029868 10935 layer_factory.hpp:77] Creating layer rpn_big_anchor_target
I0413 17:45:59.031183 10935 net.cpp:100] Creating Layer rpn_big_anchor_target
I0413 17:45:59.031200 10935 net.cpp:434] rpn_big_anchor_target <- rpn_big_cls_score_rpn_big_cls_score_0_split_1
I0413 17:45:59.031216 10935 net.cpp:434] rpn_big_anchor_target <- input_gt_boxes_input_2_split_0
I0413 17:45:59.031222 10935 net.cpp:434] rpn_big_anchor_target <- input_ignored_boxes
I0413 17:45:59.031226 10935 net.cpp:434] rpn_big_anchor_target <- input_im_info_input_1_split_0
I0413 17:45:59.031230 10935 net.cpp:434] rpn_big_anchor_target <- input_data_input_0_split_1
I0413 17:45:59.031234 10935 net.cpp:434] rpn_big_anchor_target <- rpn_big_cls_prob_reshape_rpn_big_cls_prob_reshape_0_split_0
I0413 17:45:59.031241 10935 net.cpp:408] rpn_big_anchor_target -> rpn_big_anchor_target_labels
I0413 17:45:59.031250 10935 net.cpp:408] rpn_big_anchor_target -> rpn_big_anchor_target_bbox_targets
I0413 17:45:59.031258 10935 net.cpp:408] rpn_big_anchor_target -> rpn_big_anchor_target_inside_weights
I0413 17:45:59.031266 10935 net.cpp:408] rpn_big_anchor_target -> rpn_big_anchor_target_outside_weights
I0413 17:45:59.035830 10935 net.cpp:150] Setting up rpn_big_anchor_target
I0413 17:45:59.035858 10935 net.cpp:157] Top shape: 1 1 1586 92 (145912)
I0413 17:45:59.035863 10935 net.cpp:157] Top shape: 1 104 61 92 (583648)
I0413 17:45:59.035867 10935 net.cpp:157] Top shape: 1 104 61 92 (583648)
I0413 17:45:59.035871 10935 net.cpp:157] Top shape: 1 104 61 92 (583648)
I0413 17:45:59.035874 10935 net.cpp:165] Memory required for data: 3622336980
I0413 17:45:59.035879 10935 layer_factory.hpp:77] Creating layer rpn_big_loss_cls
I0413 17:45:59.035892 10935 net.cpp:100] Creating Layer rpn_big_loss_cls
I0413 17:45:59.035897 10935 net.cpp:434] rpn_big_loss_cls <- rpn_big_cls_score_reshape_rpn_big_cls_score_reshape_0_split_1
I0413 17:45:59.035902 10935 net.cpp:434] rpn_big_loss_cls <- rpn_big_anchor_target_labels
I0413 17:45:59.035909 10935 net.cpp:408] rpn_big_loss_cls -> rpn_big_loss_cls
I0413 17:45:59.035923 10935 layer_factory.hpp:77] Creating layer rpn_big_loss_cls
I0413 17:45:59.036779 10935 net.cpp:150] Setting up rpn_big_loss_cls
I0413 17:45:59.036804 10935 net.cpp:157] Top shape: (1)
I0413 17:45:59.036810 10935 net.cpp:160]     with loss weight 1
I0413 17:45:59.036824 10935 net.cpp:165] Memory required for data: 3622336984
I0413 17:45:59.036831 10935 layer_factory.hpp:77] Creating layer rpn_big_output_box
I0413 17:45:59.036851 10935 net.cpp:100] Creating Layer rpn_big_output_box
I0413 17:45:59.036859 10935 net.cpp:434] rpn_big_output_box <- rpn_big_conv2_rpn_big_conv2_drop_0_split_1
I0413 17:45:59.036880 10935 net.cpp:408] rpn_big_output_box -> rpn_big_output_box
I0413 17:45:59.056586 10935 net.cpp:150] Setting up rpn_big_output_box
I0413 17:45:59.056615 10935 net.cpp:157] Top shape: 1 384 63 94 (2274048)
I0413 17:45:59.056628 10935 net.cpp:165] Memory required for data: 3631433176
I0413 17:45:59.056638 10935 layer_factory.hpp:77] Creating layer rpn_big_output_box_relu
I0413 17:45:59.056649 10935 net.cpp:100] Creating Layer rpn_big_output_box_relu
I0413 17:45:59.056654 10935 net.cpp:434] rpn_big_output_box_relu <- rpn_big_output_box
I0413 17:45:59.056663 10935 net.cpp:395] rpn_big_output_box_relu -> rpn_big_output_box (in-place)
I0413 17:45:59.056674 10935 net.cpp:150] Setting up rpn_big_output_box_relu
I0413 17:45:59.056679 10935 net.cpp:157] Top shape: 1 384 63 94 (2274048)
I0413 17:45:59.056681 10935 net.cpp:165] Memory required for data: 3640529368
I0413 17:45:59.056684 10935 layer_factory.hpp:77] Creating layer rpn_big_bbox_pred
I0413 17:45:59.056695 10935 net.cpp:100] Creating Layer rpn_big_bbox_pred
I0413 17:45:59.056700 10935 net.cpp:434] rpn_big_bbox_pred <- rpn_big_output_box
I0413 17:45:59.056709 10935 net.cpp:408] rpn_big_bbox_pred -> rpn_big_bbox_pred
I0413 17:45:59.062363 10935 net.cpp:150] Setting up rpn_big_bbox_pred
I0413 17:45:59.062397 10935 net.cpp:157] Top shape: 1 104 61 92 (583648)
I0413 17:45:59.062410 10935 net.cpp:165] Memory required for data: 3642863960
I0413 17:45:59.062427 10935 layer_factory.hpp:77] Creating layer rpn_big_bbox_pred_rpn_big_bbox_pred_0_split
I0413 17:45:59.062443 10935 net.cpp:100] Creating Layer rpn_big_bbox_pred_rpn_big_bbox_pred_0_split
I0413 17:45:59.062451 10935 net.cpp:434] rpn_big_bbox_pred_rpn_big_bbox_pred_0_split <- rpn_big_bbox_pred
I0413 17:45:59.062463 10935 net.cpp:408] rpn_big_bbox_pred_rpn_big_bbox_pred_0_split -> rpn_big_bbox_pred_rpn_big_bbox_pred_0_split_0
I0413 17:45:59.062476 10935 net.cpp:408] rpn_big_bbox_pred_rpn_big_bbox_pred_0_split -> rpn_big_bbox_pred_rpn_big_bbox_pred_0_split_1
I0413 17:45:59.062535 10935 net.cpp:150] Setting up rpn_big_bbox_pred_rpn_big_bbox_pred_0_split
I0413 17:45:59.062546 10935 net.cpp:157] Top shape: 1 104 61 92 (583648)
I0413 17:45:59.062554 10935 net.cpp:157] Top shape: 1 104 61 92 (583648)
I0413 17:45:59.062561 10935 net.cpp:165] Memory required for data: 3647533144
I0413 17:45:59.062566 10935 layer_factory.hpp:77] Creating layer rpn_big_loss_bbox
I0413 17:45:59.063053 10935 net.cpp:100] Creating Layer rpn_big_loss_bbox
I0413 17:45:59.063066 10935 net.cpp:434] rpn_big_loss_bbox <- rpn_big_bbox_pred_rpn_big_bbox_pred_0_split_0
I0413 17:45:59.063081 10935 net.cpp:434] rpn_big_loss_bbox <- rpn_big_anchor_target_bbox_targets
I0413 17:45:59.063089 10935 net.cpp:434] rpn_big_loss_bbox <- rpn_big_anchor_target_inside_weights
I0413 17:45:59.063097 10935 net.cpp:434] rpn_big_loss_bbox <- rpn_big_anchor_target_outside_weights
I0413 17:45:59.063107 10935 net.cpp:408] rpn_big_loss_bbox -> rpn_big_loss_bbox
I0413 17:45:59.065125 10935 net.cpp:150] Setting up rpn_big_loss_bbox
I0413 17:45:59.065156 10935 net.cpp:157] Top shape: 1 (1)
I0413 17:45:59.065168 10935 net.cpp:160]     with loss weight 1
I0413 17:45:59.065181 10935 net.cpp:165] Memory required for data: 3647533148
I0413 17:45:59.065186 10935 layer_factory.hpp:77] Creating layer proposal
I0413 17:45:59.065579 10935 net.cpp:100] Creating Layer proposal
I0413 17:45:59.065590 10935 net.cpp:434] proposal <- rpn_big_cls_prob_reshape_rpn_big_cls_prob_reshape_0_split_1
I0413 17:45:59.065606 10935 net.cpp:434] proposal <- rpn_big_bbox_pred_rpn_big_bbox_pred_0_split_1
I0413 17:45:59.065611 10935 net.cpp:434] proposal <- input_im_info_input_1_split_1
I0413 17:45:59.065618 10935 net.cpp:408] proposal -> rpn_rois
I0413 17:45:59.069759 10935 net.cpp:150] Setting up proposal
I0413 17:45:59.069772 10935 net.cpp:157] Top shape: 1 5 (5)
I0413 17:45:59.069775 10935 net.cpp:165] Memory required for data: 3647533168
I0413 17:45:59.069787 10935 layer_factory.hpp:77] Creating layer roi-data
I0413 17:45:59.070044 10935 net.cpp:100] Creating Layer roi-data
I0413 17:45:59.070052 10935 net.cpp:434] roi-data <- rpn_rois
I0413 17:45:59.070057 10935 net.cpp:434] roi-data <- input_gt_boxes_input_2_split_1
I0413 17:45:59.070065 10935 net.cpp:408] roi-data -> rois
I0413 17:45:59.070072 10935 net.cpp:408] roi-data -> labels
I0413 17:45:59.070080 10935 net.cpp:408] roi-data -> bbox_targets
I0413 17:45:59.070086 10935 net.cpp:408] roi-data -> bbox_inside_weights
I0413 17:45:59.070092 10935 net.cpp:408] roi-data -> bbox_outside_weights
I0413 17:45:59.070101 10935 net.cpp:408] roi-data -> pid_label
I0413 17:45:59.071506 10935 net.cpp:150] Setting up roi-data
I0413 17:45:59.071543 10935 net.cpp:157] Top shape: 1 5 (5)
I0413 17:45:59.071550 10935 net.cpp:157] Top shape: 1 1 (1)
I0413 17:45:59.071555 10935 net.cpp:157] Top shape: 1 8 (8)
I0413 17:45:59.071560 10935 net.cpp:157] Top shape: 1 8 (8)
I0413 17:45:59.071566 10935 net.cpp:157] Top shape: 1 8 (8)
I0413 17:45:59.071571 10935 net.cpp:157] Top shape: (0)
I0413 17:45:59.071575 10935 net.cpp:165] Memory required for data: 3647533288
I0413 17:45:59.071583 10935 layer_factory.hpp:77] Creating layer roi-pool
I0413 17:45:59.071595 10935 net.cpp:100] Creating Layer roi-pool
I0413 17:45:59.071601 10935 net.cpp:434] roi-pool <- conv5_3_relu5_3_0_split_1
I0413 17:45:59.071611 10935 net.cpp:434] roi-pool <- rois
I0413 17:45:59.071626 10935 net.cpp:408] roi-pool -> roi-pool
I0413 17:45:59.071640 10935 roi_pooling_layer.cpp:33] Spatial scale: 0.0625
I0413 17:45:59.071655 10935 roi_pooling_layer.cpp:34] Box scale: 1
I0413 17:45:59.071707 10935 net.cpp:150] Setting up roi-pool
I0413 17:45:59.071717 10935 net.cpp:157] Top shape: 1 512 7 7 (25088)
I0413 17:45:59.071722 10935 net.cpp:165] Memory required for data: 3647633640
I0413 17:45:59.071727 10935 net.cpp:228] roi-pool does not need backward computation.
I0413 17:45:59.071733 10935 net.cpp:228] roi-data does not need backward computation.
I0413 17:45:59.071739 10935 net.cpp:228] proposal does not need backward computation.
I0413 17:45:59.071748 10935 net.cpp:226] rpn_big_loss_bbox needs backward computation.
…
