…
I0413 19:12:07.025527 15616 solver.cpp:48] Initializing solver from parameters: 
base_lr: 0.001
display: 20
lr_policy: "multistep"
gamma: 0.1
momentum: 0.9
weight_decay: 0.0005
snapshot: 0
snapshot_prefix: "faces_example"
net_param {
  name: "GeneratedModel_13_04_2017_19_12"
  layer {
    name: "input"
    type: "Python"
    top: "input_data"
    top: "input_im_info"
    top: "input_gt_boxes"
    top: "input_ignored_boxes"
    python_param {
      module: "layers.roi_data_layer"
      layer: "RoIDataLayer"
      param_str: "{\"num_classes\": 2}"
    }
  }
  layer {
    name: "conv1_1"
    type: "Convolution"
    bottom: "input_data"
    top: "conv1_1"
    param {
      lr_mult: 0
      decay_mult: 0
    }
    param {
      lr_mult: 0
      decay_mult: 0
    }
    convolution_param {
      num_output: 64
      pad: 1
      kernel_size: 3
    }
  }
  layer {
    name: "relu1_1"
    type: "ReLU"
    bottom: "conv1_1"
    top: "conv1_1"
  }
  layer {
    name: "conv1_2"
    type: "Convolution"
    bottom: "conv1_1"
    top: "conv1_2"
    param {
      lr_mult: 0
      decay_mult: 0
    }
    param {
      lr_mult: 0
      decay_mult: 0
    }
    convolution_param {
      num_output: 64
      pad: 1
      kernel_size: 3
    }
  }
  layer {
    name: "relu1_2"
    type: "ReLU"
    bottom: "conv1_2"
    top: "conv1_2"
  }
  layer {
    name: "pool1"
    type: "Pooling"
    bottom: "conv1_2"
    top: "pool1"
    pooling_param {
      pool: MAX
      kernel_size: 2
      stride: 2
    }
  }
  layer {
    name: "conv2_1"
    type: "Convolution"
    bottom: "pool1"
    top: "conv2_1"
    param {
      lr_mult: 0
      decay_mult: 0
    }
    param {
      lr_mult: 0
      decay_mult: 0
    }
    convolution_param {
      num_output: 128
      pad: 1
      kernel_size: 3
    }
  }
  layer {
    name: "relu2_1"
    type: "ReLU"
    bottom: "conv2_1"
    top: "conv2_1"
  }
  layer {
    name: "conv2_2"
    type: "Convolution"
    bottom: "conv2_1"
    top: "conv2_2"
    param {
      lr_mult: 0
      decay_mult: 0
    }
    param {
      lr_mult: 0
      decay_mult: 0
    }
    convolution_param {
      num_output: 128
      pad: 1
      kernel_size: 3
    }
  }
  layer {
    name: "relu2_2"
    type: "ReLU"
    bottom: "conv2_2"
    top: "conv2_2"
  }
  layer {
    name: "pool2"
    type: "Pooling"
    bottom: "conv2_2"
    top: "pool2"
    pooling_param {
      pool: MAX
      kernel_size: 2
      stride: 2
    }
  }
  layer {
    name: "conv3_1"
    type: "Convolution"
    bottom: "pool2"
    top: "conv3_1"
    param {
      lr_mult: 1
    }
    param {
      lr_mult: 2
    }
    convolution_param {
      num_output: 256
      pad: 1
      kernel_size: 3
    }
  }
  layer {
    name: "relu3_1"
    type: "ReLU"
    bottom: "conv3_1"
    top: "conv3_1"
  }
  layer {
    name: "conv3_2"
    type: "Convolution"
    bottom: "conv3_1"
    top: "conv3_2"
    param {
      lr_mult: 1
    }
    param {
      lr_mult: 2
    }
    convolution_param {
      num_output: 256
      pad: 1
      kernel_size: 3
    }
  }
  layer {
    name: "relu3_2"
    type: "ReLU"
    bottom: "conv3_2"
    top: "conv3_2"
  }
  layer {
    name: "conv3_3"
    type: "Convolution"
    bottom: "conv3_2"
    top: "conv3_3"
    param {
      lr_mult: 1
    }
    param {
      lr_mult: 2
    }
    convolution_param {
      num_output: 256
      pad: 1
      kernel_size: 3
    }
  }
  layer {
    name: "relu3_3"
    type: "ReLU"
    bottom: "conv3_3"
    top: "conv3_3"
  }
  layer {
    name: "pool3"
    type: "Pooling"
    bottom: "conv3_3"
    top: "pool3"
    pooling_param {
      pool: MAX
      kernel_size: 2
      stride: 2
    }
  }
  layer {
    name: "conv4_1"
    type: "Convolution"
    bottom: "pool3"
    top: "conv4_1"
    param {
      lr_mult: 1
    }
    param {
      lr_mult: 2
    }
    convolution_param {
      num_output: 512
      pad: 1
      kernel_size: 3
    }
  }
  layer {
    name: "relu4_1"
    type: "ReLU"
    bottom: "conv4_1"
    top: "conv4_1"
  }
  layer {
    name: "conv4_2"
    type: "Convolution"
    bottom: "conv4_1"
    top: "conv4_2"
    param {
      lr_mult: 1
    }
    param {
      lr_mult: 2
    }
    convolution_param {
      num_output: 512
      pad: 1
      kernel_size: 3
    }
  }
  layer {
    name: "relu4_2"
    type: "ReLU"
    bottom: "conv4_2"
    top: "conv4_2"
  }
  layer {
    name: "conv4_3"
    type: "Convolution"
    bottom: "conv4_2"
    top: "conv4_3"
    param {
      lr_mult: 1
    }
    param {
      lr_mult: 2
    }
    convolution_param {
      num_output: 512
      pad: 1
      kernel_size: 3
    }
  }
  layer {
    name: "relu4_3"
    type: "ReLU"
    bottom: "conv4_3"
    top: "conv4_3"
  }
  layer {
    name: "pool4"
    type: "Pooling"
    bottom: "conv4_3"
    top: "pool4"
    pooling_param {
      pool: MAX
      kernel_size: 2
      stride: 2
    }
  }
  layer {
    name: "conv5_1"
    type: "Convolution"
    bottom: "pool4"
    top: "conv5_1"
    param {
      lr_mult: 1
    }
    param {
      lr_mult: 2
    }
    convolution_param {
      num_output: 512
      pad: 1
      kernel_size: 3
    }
  }
  layer {
    name: "relu5_1"
    type: "ReLU"
    bottom: "conv5_1"
    top: "conv5_1"
  }
  layer {
    name: "conv5_2"
    type: "Convolution"
    bottom: "conv5_1"
    top: "conv5_2"
    param {
      lr_mult: 1
    }
    param {
      lr_mult: 2
    }
    convolution_param {
      num_output: 512
      pad: 1
      kernel_size: 3
    }
  }
  layer {
    name: "relu5_2"
    type: "ReLU"
    bottom: "conv5_2"
    top: "conv5_2"
  }
  layer {
    name: "conv5_3"
    type: "Convolution"
    bottom: "conv5_2"
    top: "conv5_3"
    param {
      lr_mult: 1
    }
    param {
      lr_mult: 2
    }
    convolution_param {
      num_output: 512
      pad: 1
      kernel_size: 3
    }
  }
  layer {
    name: "relu5_3"
    type: "ReLU"
    bottom: "conv5_3"
    top: "conv5_3"
  }
  layer {
    name: "rpn_big_conv1"
    type: "Convolution"
    bottom: "conv5_3"
    top: "rpn_big_conv1"
    param {
      lr_mult: 1
    }
    param {
      lr_mult: 2
    }
    convolution_param {
      num_output: 512
      pad: 1
      kernel_size: 3
      stride: 1
      weight_filler {
        type: "gaussian"
        mean: 0
        std: 0.01
      }
      bias_filler {
        type: "constant"
      }
    }
  }
  layer {
    name: "rpn_big_conv1_relu"
    type: "ReLU"
    bottom: "rpn_big_conv1"
    top: "rpn_big_conv1"
    relu_param {
      negative_slope: 0
    }
  }
  layer {
    name: "rpn_big_conv2"
    type: "Convolution"
    bottom: "rpn_big_conv1"
    top: "rpn_big_conv2"
    param {
      lr_mult: 1
    }
    param {
      lr_mult: 2
    }
    convolution_param {
      num_output: 512
      pad: 1
      kernel_size: 3
      stride: 1
      weight_filler {
        type: "gaussian"
        mean: 0
        std: 0.01
      }
      bias_filler {
        type: "constant"
      }
    }
  }
  layer {
    name: "rpn_big_conv2_relu"
    type: "ReLU"
    bottom: "rpn_big_conv2"
    top: "rpn_big_conv2"
    relu_param {
      negative_slope: 0
    }
  }
  layer {
    name: "rpn_big_conv2_drop"
    type: "Dropout"
    bottom: "rpn_big_conv2"
    top: "rpn_big_conv2"
    dropout_param {
      dropout_ratio: 0.3
    }
  }
  layer {
    name: "rpn_big_output_cls"
    type: "Convolution"
    bottom: "rpn_big_conv2"
    top: "rpn_big_output_cls"
    param {
      lr_mult: 1
    }
    param {
      lr_mult: 2
    }
    convolution_param {
      num_output: 384
      pad: 1
      kernel_size: 3
      stride: 1
      weight_filler {
        type: "gaussian"
        mean: 0
        std: 0.01
      }
      bias_filler {
        type: "constant"
      }
    }
  }
  layer {
    name: "rpn_big_output_cls_relu"
    type: "ReLU"
    bottom: "rpn_big_output_cls"
    top: "rpn_big_output_cls"
    relu_param {
      negative_slope: 0
    }
  }
  layer {
    name: "rpn_big_cls_score"
    type: "Convolution"
    bottom: "rpn_big_output_cls"
    top: "rpn_big_cls_score"
    param {
      lr_mult: 1
    }
    param {
      lr_mult: 2
    }
    convolution_param {
      num_output: 52
      pad: 0
      kernel_size: 3
      stride: 1
      weight_filler {
        type: "gaussian"
        mean: 0
        std: 0.01
      }
      bias_filler {
        type: "constant"
      }
    }
  }
  layer {
    name: "rpn_big_cls_score_reshape"
    type: "Reshape"
    bottom: "rpn_big_cls_score"
    top: "rpn_big_cls_score_reshape"
    reshape_param {
      shape {
        dim: 0
        dim: 2
        dim: -1
        dim: 0
      }
    }
  }
  layer {
    name: "rpn_big_cls_prob"
    type: "Softmax"
    bottom: "rpn_big_cls_score_reshape"
    top: "rpn_big_cls_prob"
  }
  layer {
    name: "rpn_big_cls_prob_reshape"
    type: "Reshape"
    bottom: "rpn_big_cls_prob"
    top: "rpn_big_cls_prob_reshape"
    reshape_param {
      shape {
        dim: 0
        dim: 52
        dim: -1
        dim: 0
      }
    }
  }
  layer {
    name: "rpn_big_anchor_target"
    type: "Python"
    bottom: "rpn_big_cls_score"
    bottom: "input_gt_boxes"
    bottom: "input_ignored_boxes"
    bottom: "input_im_info"
    bottom: "input_data"
    bottom: "rpn_big_cls_prob_reshape"
    top: "rpn_big_anchor_target_labels"
    top: "rpn_big_anchor_target_bbox_targets"
    top: "rpn_big_anchor_target_inside_weights"
    top: "rpn_big_anchor_target_outside_weights"
    python_param {
      module: "rpn.anchor_target_layer"
      layer: "AnchorTargetLayer"
      param_str: "{\"name\": \"rpn_big\", \"positive_overlap\": 0.6, \"anchor_ratios\": [1.0], \"negative_overlap\": 0.4, \"anchor_scales\": [2.5, 3.025, 3.66025, 4.4289024999999995, 5.358972025, 6.484356150249999, 7.846070941802498, 9.493745839581022, 11.487432465893036, 13.899793283730574, 16.818749873313998, 20.350687346709933, 24.62433168951902, 29.795441344318014], \"square_targets\": true, \"anchor_shift_num_xy\": [[2, 2], [2, 2], [2, 2], [2, 2], [1, 1], [1, 1], [1, 1], [1, 1], [1, 1], [1, 1], [1, 1], [1, 1], [1, 1], [1, 1]], \"fg_fraction\": 0.5, \"batchsize\": 256, \"feat_stride\": 16, \"tn_fraction\": 0.2, \"num_classes\": 1}"
    }
  }
  layer {
    name: "rpn_big_loss_cls"
    type: "SoftmaxWithLoss"
    bottom: "rpn_big_cls_score_reshape"
    bottom: "rpn_big_anchor_target_labels"
    top: "rpn_big_loss_cls"
    loss_weight: 1
    propagate_down: true
    propagate_down: false
    loss_param {
      ignore_label: -1
      normalization: VALID
    }
  }
  layer {
    name: "rpn_big_output_box"
    type: "Convolution"
    bottom: "rpn_big_conv2"
    top: "rpn_big_output_box"
    param {
      lr_mult: 1
    }
    param {
      lr_mult: 2
    }
    convolution_param {
      num_output: 384
      pad: 1
      kernel_size: 3
      stride: 1
      weight_filler {
        type: "gaussian"
        mean: 0
        std: 0.01
      }
      bias_filler {
        type: "constant"
      }
    }
  }
  layer {
    name: "rpn_big_output_box_relu"
    type: "ReLU"
    bottom: "rpn_big_output_box"
    top: "rpn_big_output_box"
    relu_param {
      negative_slope: 0
    }
  }
  layer {
    name: "rpn_big_bbox_pred"
    type: "Convolution"
    bottom: "rpn_big_output_box"
    top: "rpn_big_bbox_pred"
    param {
      lr_mult: 1
    }
    param {
      lr_mult: 2
    }
    convolution_param {
      num_output: 104
      pad: 0
      kernel_size: 3
      stride: 1
      weight_filler {
        type: "gaussian"
        mean: 0
        std: 0.01
      }
      bias_filler {
        type: "constant"
      }
    }
  }
  layer {
    name: "rpn_big_loss_bbox"
    type: "Python"
    bottom: "rpn_big_bbox_pred"
    bottom: "rpn_big_anchor_target_bbox_targets"
    bottom: "rpn_big_anchor_target_inside_weights"
    bottom: "rpn_big_anchor_target_outside_weights"
    top: "rpn_big_loss_bbox"
    loss_weight: 1
    python_param {
      module: "layers.smooth_l1_loss"
      layer: "SmoothL1LossLayer"
      param_str: "{\"sigma\": 3}"
    }
  }
  layer {
    name: "proposal"
    type: "Python"
    bottom: "rpn_big_cls_prob_reshape"
    bottom: "rpn_big_bbox_pred"
    bottom: "input_im_info"
    top: "rpn_rois"
    python_param {
      module: "rpn.proposal_layer"
      layer: "ProposalLayer"
      param_str: "{\"anchor_shift_num_xy\": [[2, 2], [2, 2], [2, 2], [2, 2], [1, 1], [1, 1], [1, 1], [1, 1], [1, 1], [1, 1], [1, 1], [1, 1], [1, 1], [1, 1]], \"feat_stride\": 16, \"num_classes\": 1, \"anchor_scales\": [2.5, 3.025, 3.66025, 4.4289024999999995, 5.358972025, 6.484356150249999, 7.846070941802498, 9.493745839581022, 11.487432465893036, 13.899793283730574, 16.818749873313998, 20.350687346709933, 24.62433168951902, 29.795441344318014], \"square_targets\": true, \"name\": \"rpn_big\", \"batchsize\": 256, \"anchor_ratios\": [1.0]}"
    }
  }
  layer {
    name: "roi-data"
    type: "Python"
    bottom: "rpn_rois"
    bottom: "input_gt_boxes"
    top: "rois"
    top: "labels"
    top: "bbox_targets"
    top: "bbox_inside_weights"
    top: "bbox_outside_weights"
    top: "pid_label"
    python_param {
      module: "rpn.proposal_target_layer"
      layer: "ProposalTargetLayer"
      param_str: "{\"num_classes\": 2, \"bg_aux_label\": 5532}"
    }
  }
  layer {
    name: "roi-pool"
    type: "ROIPooling"
    bottom: "conv5_3"
    bottom: "rois"
    top: "roi-pool"
    roi_pooling_param {
      pooled_h: 7
      pooled_w: 7
      spatial_scale: 0.0625
    }
  }
  layer {
    name: "fc6"
    type: "InnerProduct"
    bottom: "roi-pool"
    top: "fc6"
    param {
      lr_mult: 1
    }
    param {
      lr_mult: 2
    }
    inner_product_param {
      num_output: 4096
    }
  }
  layer {
    name: "relu6"
    type: "ReLU"
    bottom: "fc6"
    top: "fc6"
  }
  layer {
    name: "drop6"
    type: "Dropout"
    bottom: "fc6"
    top: "fc6"
    dropout_param {
      dropout_ratio: 0.5
    }
  }
  layer {
    name: "fc7"
    type: "InnerProduct"
    bottom: "fc6"
    top: "fc7"
    param {
      lr_mult: 1
    }
    param {
      lr_mult: 2
    }
    inner_product_param {
      num_output: 4096
    }
  }
  layer {
    name: "relu7"
    type: "ReLU"
    bottom: "fc7"
    top: "fc7"
  }
  layer {
    name: "drop7"
    type: "Dropout"
    bottom: "fc7"
    top: "fc7"
    dropout_param {
      dropout_ratio: 0.5
    }
  }
  layer {
    name: "bbox_pred"
    type: "InnerProduct"
    bottom: "fc7"
    top: "bbox_pred"
    param {
      lr_mult: 1
    }
    param {
      lr_mult: 2
    }
    inner_product_param {
      num_output: 8
      weight_filler {
        type: "gaussian"
        std: 0.001
      }
      bias_filler {
        type: "constant"
        value: 0
      }
    }
  }
  layer {
    name: "loss_bbox"
    type: "SmoothL1Loss"
    bottom: "bbox_pred"
    bottom: "bbox_targets"
    bottom: "bbox_inside_weights"
    bottom: "bbox_outside_weights"
    top: "loss_bbox"
    loss_weight: 1
  }
  layer {
    name: "feat"
    type: "InnerProduct"
    bottom: "fc7"
    top: "feat"
    param {
      lr_mult: 1
      decay_mult: 1
    }
    param {
      lr_mult: 2
      decay_mult: 0
    }
    inner_product_param {
      num_output: 256
      weight_filler {
        type: "gaussian"
        std: 0.01
      }
      bias_filler {
        type: "constant"
        value: 0
      }
    }
  }
  layer {
    name: "relu8"
    type: "ReLU"
    bottom: "feat"
    top: "feat"
  }
  layer {
    name: "drop8"
    type: "Dropout"
    bottom: "feat"
    top: "feat"
    dropout_param {
      dropout_ratio: 0.5
    }
  }
  layer {
    name: "pid_score"
    type: "InnerProduct"
    bottom: "feat"
    top: "pid_score"
    param {
      lr_mult: 1
      decay_mult: 1
    }
    param {
      lr_mult: 2
      decay_mult: 0
    }
    inner_product_param {
      num_output: 5533
      weight_filler {
        type: "gaussian"
        std: 0.001
      }
      bias_filler {
        type: "constant"
        value: 0
      }
    }
  }
  layer {
    name: "pid_accuracy"
    type: "Accuracy"
    bottom: "pid_score"
    bottom: "pid_label"
    top: "pid_accuracy"
    accuracy_param {
      ignore_label: -1
    }
  }
}
average_loss: 100
stepvalue: 70000
stepvalue: 120000
iter_size: 2
I0413 19:12:07.025655 15616 solver.cpp:86] Creating training net specified in net_param.
I0413 19:12:07.026455 15616 net.cpp:58] Initializing net from parameters: 
name: "GeneratedModel_13_04_2017_19_12"
state {
  phase: TRAIN
}
layer {
  name: "input"
  type: "Python"
  top: "input_data"
  top: "input_im_info"
  top: "input_gt_boxes"
  top: "input_ignored_boxes"
  python_param {
    module: "layers.roi_data_layer"
    layer: "RoIDataLayer"
    param_str: "{\"num_classes\": 2}"
  }
}
layer {
  name: "conv1_1"
  type: "Convolution"
  bottom: "input_data"
  top: "conv1_1"
  param {
    lr_mult: 0
    decay_mult: 0
  }
  param {
    lr_mult: 0
    decay_mult: 0
  }
  convolution_param {
    num_output: 64
    pad: 1
    kernel_size: 3
  }
}
layer {
  name: "relu1_1"
  type: "ReLU"
  bottom: "conv1_1"
  top: "conv1_1"
}
layer {
  name: "conv1_2"
  type: "Convolution"
  bottom: "conv1_1"
  top: "conv1_2"
  param {
    lr_mult: 0
    decay_mult: 0
  }
  param {
    lr_mult: 0
    decay_mult: 0
  }
  convolution_param {
    num_output: 64
    pad: 1
    kernel_size: 3
  }
}
layer {
  name: "relu1_2"
  type: "ReLU"
  bottom: "conv1_2"
  top: "conv1_2"
}
layer {
  name: "pool1"
  type: "Pooling"
  bottom: "conv1_2"
  top: "pool1"
  pooling_param {
    pool: MAX
    kernel_size: 2
    stride: 2
  }
}
layer {
  name: "conv2_1"
  type: "Convolution"
  bottom: "pool1"
  top: "conv2_1"
  param {
    lr_mult: 0
    decay_mult: 0
  }
  param {
    lr_mult: 0
    decay_mult: 0
  }
  convolution_param {
    num_output: 128
    pad: 1
    kernel_size: 3
  }
}
layer {
  name: "relu2_1"
  type: "ReLU"
  bottom: "conv2_1"
  top: "conv2_1"
}
layer {
  name: "conv2_2"
  type: "Convolution"
  bottom: "conv2_1"
  top: "conv2_2"
  param {
    lr_mult: 0
    decay_mult: 0
  }
  param {
    lr_mult: 0
    decay_mult: 0
  }
  convolution_param {
    num_output: 128
    pad: 1
    kernel_size: 3
  }
}
layer {
  name: "relu2_2"
  type: "ReLU"
  bottom: "conv2_2"
  top: "conv2_2"
}
layer {
  name: "pool2"
  type: "Pooling"
  bottom: "conv2_2"
  top: "pool2"
  pooling_param {
    pool: MAX
    kernel_size: 2
    stride: 2
  }
}
layer {
  name: "conv3_1"
  type: "Convolution"
  bottom: "pool2"
  top: "conv3_1"
  param {
    lr_mult: 1
  }
  param {
    lr_mult: 2
  }
  convolution_param {
    num_output: 256
    pad: 1
    kernel_size: 3
  }
}
layer {
  name: "relu3_1"
  type: "ReLU"
  bottom: "conv3_1"
  top: "conv3_1"
}
layer {
  name: "conv3_2"
  type: "Convolution"
  bottom: "conv3_1"
  top: "conv3_2"
  param {
    lr_mult: 1
  }
  param {
    lr_mult: 2
  }
  convolution_param {
    num_output: 256
    pad: 1
    kernel_size: 3
  }
}
layer {
  name: "relu3_2"
  type: "ReLU"
  bottom: "conv3_2"
  top: "conv3_2"
}
layer {
  name: "conv3_3"
  type: "Convolution"
  bottom: "conv3_2"
  top: "conv3_3"
  param {
    lr_mult: 1
  }
  param {
    lr_mult: 2
  }
  convolution_param {
    num_output: 256
    pad: 1
    kernel_size: 3
  }
}
layer {
  name: "relu3_3"
  type: "ReLU"
  bottom: "conv3_3"
  top: "conv3_3"
}
layer {
  name: "pool3"
  type: "Pooling"
  bottom: "conv3_3"
  top: "pool3"
  pooling_param {
    pool: MAX
    kernel_size: 2
    stride: 2
  }
}
layer {
  name: "conv4_1"
  type: "Convolution"
  bottom: "pool3"
  top: "conv4_1"
  param {
    lr_mult: 1
  }
  param {
    lr_mult: 2
  }
  convolution_param {
    num_output: 512
    pad: 1
    kernel_size: 3
  }
}
layer {
  name: "relu4_1"
  type: "ReLU"
  bottom: "conv4_1"
  top: "conv4_1"
}
layer {
  name: "conv4_2"
  type: "Convolution"
  bottom: "conv4_1"
  top: "conv4_2"
  param {
    lr_mult: 1
  }
  param {
    lr_mult: 2
  }
  convolution_param {
    num_output: 512
    pad: 1
    kernel_size: 3
  }
}
layer {
  name: "relu4_2"
  type: "ReLU"
  bottom: "conv4_2"
  top: "conv4_2"
}
layer {
  name: "conv4_3"
  type: "Convolution"
  bottom: "conv4_2"
  top: "conv4_3"
  param {
    lr_mult: 1
  }
  param {
    lr_mult: 2
  }
  convolution_param {
    num_output: 512
    pad: 1
    kernel_size: 3
  }
}
layer {
  name: "relu4_3"
  type: "ReLU"
  bottom: "conv4_3"
  top: "conv4_3"
}
layer {
  name: "pool4"
  type: "Pooling"
  bottom: "conv4_3"
  top: "pool4"
  pooling_param {
    pool: MAX
    kernel_size: 2
    stride: 2
  }
}
layer {
  name: "conv5_1"
  type: "Convolution"
  bottom: "pool4"
  top: "conv5_1"
  param {
    lr_mult: 1
  }
  param {
    lr_mult: 2
  }
  convolution_param {
    num_output: 512
    pad: 1
    kernel_size: 3
  }
}
layer {
  name: "relu5_1"
  type: "ReLU"
  bottom: "conv5_1"
  top: "conv5_1"
}
layer {
  name: "conv5_2"
  type: "Convolution"
  bottom: "conv5_1"
  top: "conv5_2"
  param {
    lr_mult: 1
  }
  param {
    lr_mult: 2
  }
  convolution_param {
    num_output: 512
    pad: 1
    kernel_size: 3
  }
}
layer {
  name: "relu5_2"
  type: "ReLU"
  bottom: "conv5_2"
  top: "conv5_2"
}
layer {
  name: "conv5_3"
  type: "Convolution"
  bottom: "conv5_2"
  top: "conv5_3"
  param {
    lr_mult: 1
  }
  param {
    lr_mult: 2
  }
  convolution_param {
    num_output: 512
    pad: 1
    kernel_size: 3
  }
}
layer {
  name: "relu5_3"
  type: "ReLU"
  bottom: "conv5_3"
  top: "conv5_3"
}
layer {
  name: "rpn_big_conv1"
  type: "Convolution"
  bottom: "conv5_3"
  top: "rpn_big_conv1"
  param {
    lr_mult: 1
  }
  param {
    lr_mult: 2
  }
  convolution_param {
    num_output: 512
    pad: 1
    kernel_size: 3
    stride: 1
    weight_filler {
      type: "gaussian"
      mean: 0
      std: 0.01
    }
    bias_filler {
      type: "constant"
    }
  }
}
layer {
  name: "rpn_big_conv1_relu"
  type: "ReLU"
  bottom: "rpn_big_conv1"
  top: "rpn_big_conv1"
  relu_param {
    negative_slope: 0
  }
}
layer {
  name: "rpn_big_conv2"
  type: "Convolution"
  bottom: "rpn_big_conv1"
  top: "rpn_big_conv2"
  param {
    lr_mult: 1
  }
  param {
    lr_mult: 2
  }
  convolution_param {
    num_output: 512
    pad: 1
    kernel_size: 3
    stride: 1
    weight_filler {
      type: "gaussian"
      mean: 0
      std: 0.01
    }
    bias_filler {
      type: "constant"
    }
  }
}
layer {
  name: "rpn_big_conv2_relu"
  type: "ReLU"
  bottom: "rpn_big_conv2"
  top: "rpn_big_conv2"
  relu_param {
    negative_slope: 0
  }
}
layer {
  name: "rpn_big_conv2_drop"
  type: "Dropout"
  bottom: "rpn_big_conv2"
  top: "rpn_big_conv2"
  dropout_param {
    dropout_ratio: 0.3
  }
}
layer {
  name: "rpn_big_output_cls"
  type: "Convolution"
  bottom: "rpn_big_conv2"
  top: "rpn_big_output_cls"
  param {
    lr_mult: 1
  }
  param {
    lr_mult: 2
  }
  convolution_param {
    num_output: 384
    pad: 1
    kernel_size: 3
    stride: 1
    weight_filler {
      type: "gaussian"
      mean: 0
      std: 0.01
    }
    bias_filler {
      type: "constant"
    }
  }
}
layer {
  name: "rpn_big_output_cls_relu"
  type: "ReLU"
  bottom: "rpn_big_output_cls"
  top: "rpn_big_output_cls"
  relu_param {
    negative_slope: 0
  }
}
layer {
  name: "rpn_big_cls_score"
  type: "Convolution"
  bottom: "rpn_big_output_cls"
  top: "rpn_big_cls_score"
  param {
    lr_mult: 1
  }
  param {
    lr_mult: 2
  }
  convolution_param {
    num_output: 52
    pad: 0
    kernel_size: 3
    stride: 1
    weight_filler {
      type: "gaussian"
      mean: 0
      std: 0.01
    }
    bias_filler {
      type: "constant"
    }
  }
}
layer {
  name: "rpn_big_cls_score_reshape"
  type: "Reshape"
  bottom: "rpn_big_cls_score"
  top: "rpn_big_cls_score_reshape"
  reshape_param {
    shape {
      dim: 0
      dim: 2
      dim: -1
      dim: 0
    }
  }
}
layer {
  name: "rpn_big_cls_prob"
  type: "Softmax"
  bottom: "rpn_big_cls_score_reshape"
  top: "rpn_big_cls_prob"
}
layer {
  name: "rpn_big_cls_prob_reshape"
  type: "Reshape"
  bottom: "rpn_big_cls_prob"
  top: "rpn_big_cls_prob_reshape"
  reshape_param {
    shape {
      dim: 0
      dim: 52
      dim: -1
      dim: 0
    }
  }
}
layer {
  name: "rpn_big_anchor_target"
  type: "Python"
  bottom: "rpn_big_cls_score"
  bottom: "input_gt_boxes"
  bottom: "input_ignored_boxes"
  bottom: "input_im_info"
  bottom: "input_data"
  bottom: "rpn_big_cls_prob_reshape"
  top: "rpn_big_anchor_target_labels"
  top: "rpn_big_anchor_target_bbox_targets"
  top: "rpn_big_anchor_target_inside_weights"
  top: "rpn_big_anchor_target_outside_weights"
  python_param {
    module: "rpn.anchor_target_layer"
    layer: "AnchorTargetLayer"
    param_str: "{\"name\": \"rpn_big\", \"positive_overlap\": 0.6, \"anchor_ratios\": [1.0], \"negative_overlap\": 0.4, \"anchor_scales\": [2.5, 3.025, 3.66025, 4.4289024999999995, 5.358972025, 6.484356150249999, 7.846070941802498, 9.493745839581022, 11.487432465893036, 13.899793283730574, 16.818749873313998, 20.350687346709933, 24.62433168951902, 29.795441344318014], \"square_targets\": true, \"anchor_shift_num_xy\": [[2, 2], [2, 2], [2, 2], [2, 2], [1, 1], [1, 1], [1, 1], [1, 1], [1, 1], [1, 1], [1, 1], [1, 1], [1, 1], [1, 1]], \"fg_fraction\": 0.5, \"batchsize\": 256, \"feat_stride\": 16, \"tn_fraction\": 0.2, \"num_classes\": 1}"
  }
}
layer {
  name: "rpn_big_loss_cls"
  type: "SoftmaxWithLoss"
  bottom: "rpn_big_cls_score_reshape"
  bottom: "rpn_big_anchor_target_labels"
  top: "rpn_big_loss_cls"
  loss_weight: 1
  propagate_down: true
  propagate_down: false
  loss_param {
    ignore_label: -1
    normalization: VALID
  }
}
layer {
  name: "rpn_big_output_box"
  type: "Convolution"
  bottom: "rpn_big_conv2"
  top: "rpn_big_output_box"
  param {
    lr_mult: 1
  }
  param {
    lr_mult: 2
  }
  convolution_param {
    num_output: 384
    pad: 1
    kernel_size: 3
    stride: 1
    weight_filler {
      type: "gaussian"
      mean: 0
      std: 0.01
    }
    bias_filler {
      type: "constant"
    }
  }
}
layer {
  name: "rpn_big_output_box_relu"
  type: "ReLU"
  bottom: "rpn_big_output_box"
  top: "rpn_big_output_box"
  relu_param {
    negative_slope: 0
  }
}
layer {
  name: "rpn_big_bbox_pred"
  type: "Convolution"
  bottom: "rpn_big_output_box"
  top: "rpn_big_bbox_pred"
  param {
    lr_mult: 1
  }
  param {
    lr_mult: 2
  }
  convolution_param {
    num_output: 104
    pad: 0
    kernel_size: 3
    stride: 1
    weight_filler {
      type: "gaussian"
      mean: 0
      std: 0.01
    }
    bias_filler {
      type: "constant"
    }
  }
}
layer {
  name: "rpn_big_loss_bbox"
  type: "Python"
  bottom: "rpn_big_bbox_pred"
  bottom: "rpn_big_anchor_target_bbox_targets"
  bottom: "rpn_big_anchor_target_inside_weights"
  bottom: "rpn_big_anchor_target_outside_weights"
  top: "rpn_big_loss_bbox"
  loss_weight: 1
  python_param {
    module: "layers.smooth_l1_loss"
    layer: "SmoothL1LossLayer"
    param_str: "{\"sigma\": 3}"
  }
}
layer {
  name: "proposal"
  type: "Python"
  bottom: "rpn_big_cls_prob_reshape"
  bottom: "rpn_big_bbox_pred"
  bottom: "input_im_info"
  top: "rpn_rois"
  python_param {
    module: "rpn.proposal_layer"
    layer: "ProposalLayer"
    param_str: "{\"anchor_shift_num_xy\": [[2, 2], [2, 2], [2, 2], [2, 2], [1, 1], [1, 1], [1, 1], [1, 1], [1, 1], [1, 1], [1, 1], [1, 1], [1, 1], [1, 1]], \"feat_stride\": 16, \"num_classes\": 1, \"anchor_scales\": [2.5, 3.025, 3.66025, 4.4289024999999995, 5.358972025, 6.484356150249999, 7.846070941802498, 9.493745839581022, 11.487432465893036, 13.899793283730574, 16.818749873313998, 20.350687346709933, 24.62433168951902, 29.795441344318014], \"square_targets\": true, \"name\": \"rpn_big\", \"batchsize\": 256, \"anchor_ratios\": [1.0]}"
  }
}
layer {
  name: "roi-data"
  type: "Python"
  bottom: "rpn_rois"
  bottom: "input_gt_boxes"
  top: "rois"
  top: "labels"
  top: "bbox_targets"
  top: "bbox_inside_weights"
  top: "bbox_outside_weights"
  top: "pid_label"
  python_param {
    module: "rpn.proposal_target_layer"
    layer: "ProposalTargetLayer"
    param_str: "{\"num_classes\": 2, \"bg_aux_label\": 5532}"
  }
}
layer {
  name: "roi-pool"
  type: "ROIPooling"
  bottom: "conv5_3"
  bottom: "rois"
  top: "roi-pool"
  roi_pooling_param {
    pooled_h: 7
    pooled_w: 7
    spatial_scale: 0.0625
  }
}
layer {
  name: "fc6"
  type: "InnerProduct"
  bottom: "roi-pool"
  top: "fc6"
  param {
    lr_mult: 1
  }
  param {
    lr_mult: 2
  }
  inner_product_param {
    num_output: 4096
  }
}
layer {
  name: "relu6"
  type: "ReLU"
  bottom: "fc6"
  top: "fc6"
}
layer {
  name: "drop6"
  type: "Dropout"
  bottom: "fc6"
  top: "fc6"
  dropout_param {
    dropout_ratio: 0.5
  }
}
layer {
  name: "fc7"
  type: "InnerProduct"
  bottom: "fc6"
  top: "fc7"
  param {
    lr_mult: 1
  }
  param {
    lr_mult: 2
  }
  inner_product_param {
    num_output: 4096
  }
}
layer {
  name: "relu7"
  type: "ReLU"
  bottom: "fc7"
  top: "fc7"
}
layer {
  name: "drop7"
  type: "Dropout"
  bottom: "fc7"
  top: "fc7"
  dropout_param {
    dropout_ratio: 0.5
  }
}
layer {
  name: "bbox_pred"
  type: "InnerProduct"
  bottom: "fc7"
  top: "bbox_pred"
  param {
    lr_mult: 1
  }
  param {
    lr_mult: 2
  }
  inner_product_param {
    num_output: 8
    weight_filler {
      type: "gaussian"
      std: 0.001
    }
    bias_filler {
      type: "constant"
      value: 0
    }
  }
}
layer {
  name: "loss_bbox"
  type: "SmoothL1Loss"
  bottom: "bbox_pred"
  bottom: "bbox_targets"
  bottom: "bbox_inside_weights"
  bottom: "bbox_outside_weights"
  top: "loss_bbox"
  loss_weight: 1
}
layer {
  name: "feat"
  type: "InnerProduct"
  bottom: "fc7"
  top: "feat"
  param {
    lr_mult: 1
    decay_mult: 1
  }
  param {
    lr_mult: 2
    decay_mult: 0
  }
  inner_product_param {
    num_output: 256
    weight_filler {
      type: "gaussian"
      std: 0.01
    }
    bias_filler {
      type: "constant"
      value: 0
    }
  }
}
layer {
  name: "relu8"
  type: "ReLU"
  bottom: "feat"
  top: "feat"
}
layer {
  name: "drop8"
  type: "Dropout"
  bottom: "feat"
  top: "feat"
  dropout_param {
    dropout_ratio: 0.5
  }
}
layer {
  name: "pid_score"
  type: "InnerProduct"
  bottom: "feat"
  top: "pid_score"
  param {
    lr_mult: 1
    decay_mult: 1
  }
  param {
    lr_mult: 2
    decay_mult: 0
  }
  inner_product_param {
    num_output: 5533
    weight_filler {
      type: "gaussian"
      std: 0.001
    }
    bias_filler {
      type: "constant"
      value: 0
    }
  }
}
layer {
  name: "pid_accuracy"
  type: "Accuracy"
  bottom: "pid_score"
  bottom: "pid_label"
  top: "pid_accuracy"
  accuracy_param {
    ignore_label: -1
  }
}
I0413 19:12:07.026851 15616 layer_factory.hpp:77] Creating layer input
I0413 19:12:07.028695 15616 net.cpp:100] Creating Layer input
I0413 19:12:07.028720 15616 net.cpp:408] input -> input_data
I0413 19:12:07.028738 15616 net.cpp:408] input -> input_im_info
I0413 19:12:07.028748 15616 net.cpp:408] input -> input_gt_boxes
I0413 19:12:07.028760 15616 net.cpp:408] input -> input_ignored_boxes
RoiDataLayer: name_to_top: {'im_info': 1, 'gt_boxes': 2, 'data': 0, 'ignored_boxes': 3}
I0413 19:12:07.369926 15616 net.cpp:150] Setting up input
I0413 19:12:07.369953 15616 net.cpp:157] Top shape: 1 3 1000 1500 (4500000)
I0413 19:12:07.369959 15616 net.cpp:157] Top shape: 1 3 (3)
I0413 19:12:07.369964 15616 net.cpp:157] Top shape: 1 5 (5)
I0413 19:12:07.369968 15616 net.cpp:157] Top shape: 1 5 (5)
I0413 19:12:07.369971 15616 net.cpp:165] Memory required for data: 18000052
I0413 19:12:07.369978 15616 layer_factory.hpp:77] Creating layer input_data_input_0_split
I0413 19:12:07.369992 15616 net.cpp:100] Creating Layer input_data_input_0_split
I0413 19:12:07.370002 15616 net.cpp:434] input_data_input_0_split <- input_data
I0413 19:12:07.370015 15616 net.cpp:408] input_data_input_0_split -> input_data_input_0_split_0
I0413 19:12:07.370036 15616 net.cpp:408] input_data_input_0_split -> input_data_input_0_split_1
I0413 19:12:07.370090 15616 net.cpp:150] Setting up input_data_input_0_split
I0413 19:12:07.370107 15616 net.cpp:157] Top shape: 1 3 1000 1500 (4500000)
I0413 19:12:07.370117 15616 net.cpp:157] Top shape: 1 3 1000 1500 (4500000)
I0413 19:12:07.370124 15616 net.cpp:165] Memory required for data: 54000052
I0413 19:12:07.370131 15616 layer_factory.hpp:77] Creating layer input_im_info_input_1_split
I0413 19:12:07.370144 15616 net.cpp:100] Creating Layer input_im_info_input_1_split
I0413 19:12:07.370153 15616 net.cpp:434] input_im_info_input_1_split <- input_im_info
I0413 19:12:07.370163 15616 net.cpp:408] input_im_info_input_1_split -> input_im_info_input_1_split_0
I0413 19:12:07.370182 15616 net.cpp:408] input_im_info_input_1_split -> input_im_info_input_1_split_1
I0413 19:12:07.370221 15616 net.cpp:150] Setting up input_im_info_input_1_split
I0413 19:12:07.370231 15616 net.cpp:157] Top shape: 1 3 (3)
I0413 19:12:07.370239 15616 net.cpp:157] Top shape: 1 3 (3)
I0413 19:12:07.370245 15616 net.cpp:165] Memory required for data: 54000076
I0413 19:12:07.370252 15616 layer_factory.hpp:77] Creating layer input_gt_boxes_input_2_split
I0413 19:12:07.370265 15616 net.cpp:100] Creating Layer input_gt_boxes_input_2_split
I0413 19:12:07.370273 15616 net.cpp:434] input_gt_boxes_input_2_split <- input_gt_boxes
I0413 19:12:07.370282 15616 net.cpp:408] input_gt_boxes_input_2_split -> input_gt_boxes_input_2_split_0
I0413 19:12:07.370299 15616 net.cpp:408] input_gt_boxes_input_2_split -> input_gt_boxes_input_2_split_1
I0413 19:12:07.370337 15616 net.cpp:150] Setting up input_gt_boxes_input_2_split
I0413 19:12:07.370349 15616 net.cpp:157] Top shape: 1 5 (5)
I0413 19:12:07.370358 15616 net.cpp:157] Top shape: 1 5 (5)
I0413 19:12:07.370363 15616 net.cpp:165] Memory required for data: 54000116
I0413 19:12:07.370371 15616 layer_factory.hpp:77] Creating layer conv1_1
I0413 19:12:07.370393 15616 net.cpp:100] Creating Layer conv1_1
I0413 19:12:07.370401 15616 net.cpp:434] conv1_1 <- input_data_input_0_split_0
I0413 19:12:07.370412 15616 net.cpp:408] conv1_1 -> conv1_1
I0413 19:12:07.373838 15616 net.cpp:150] Setting up conv1_1
I0413 19:12:07.373927 15616 net.cpp:157] Top shape: 1 64 1000 1500 (96000000)
I0413 19:12:07.373961 15616 net.cpp:165] Memory required for data: 438000116
I0413 19:12:07.373991 15616 layer_factory.hpp:77] Creating layer relu1_1
I0413 19:12:07.374030 15616 net.cpp:100] Creating Layer relu1_1
I0413 19:12:07.374056 15616 net.cpp:434] relu1_1 <- conv1_1
I0413 19:12:07.374074 15616 net.cpp:395] relu1_1 -> conv1_1 (in-place)
I0413 19:12:07.374094 15616 net.cpp:150] Setting up relu1_1
I0413 19:12:07.374105 15616 net.cpp:157] Top shape: 1 64 1000 1500 (96000000)
I0413 19:12:07.374112 15616 net.cpp:165] Memory required for data: 822000116
I0413 19:12:07.374119 15616 layer_factory.hpp:77] Creating layer conv1_2
I0413 19:12:07.374136 15616 net.cpp:100] Creating Layer conv1_2
I0413 19:12:07.374143 15616 net.cpp:434] conv1_2 <- conv1_1
I0413 19:12:07.374155 15616 net.cpp:408] conv1_2 -> conv1_2
I0413 19:12:07.377697 15616 net.cpp:150] Setting up conv1_2
I0413 19:12:07.377739 15616 net.cpp:157] Top shape: 1 64 1000 1500 (96000000)
I0413 19:12:07.377749 15616 net.cpp:165] Memory required for data: 1206000116
I0413 19:12:07.377775 15616 layer_factory.hpp:77] Creating layer relu1_2
I0413 19:12:07.377792 15616 net.cpp:100] Creating Layer relu1_2
I0413 19:12:07.377801 15616 net.cpp:434] relu1_2 <- conv1_2
I0413 19:12:07.377815 15616 net.cpp:395] relu1_2 -> conv1_2 (in-place)
I0413 19:12:07.377832 15616 net.cpp:150] Setting up relu1_2
I0413 19:12:07.377842 15616 net.cpp:157] Top shape: 1 64 1000 1500 (96000000)
I0413 19:12:07.377849 15616 net.cpp:165] Memory required for data: 1590000116
I0413 19:12:07.377856 15616 layer_factory.hpp:77] Creating layer pool1
I0413 19:12:07.377872 15616 net.cpp:100] Creating Layer pool1
I0413 19:12:07.377879 15616 net.cpp:434] pool1 <- conv1_2
I0413 19:12:07.377889 15616 net.cpp:408] pool1 -> pool1
I0413 19:12:07.377965 15616 net.cpp:150] Setting up pool1
I0413 19:12:07.377976 15616 net.cpp:157] Top shape: 1 64 500 750 (24000000)
I0413 19:12:07.377982 15616 net.cpp:165] Memory required for data: 1686000116
I0413 19:12:07.377990 15616 layer_factory.hpp:77] Creating layer conv2_1
I0413 19:12:07.378008 15616 net.cpp:100] Creating Layer conv2_1
I0413 19:12:07.378015 15616 net.cpp:434] conv2_1 <- pool1
I0413 19:12:07.378026 15616 net.cpp:408] conv2_1 -> conv2_1
I0413 19:12:07.381211 15616 net.cpp:150] Setting up conv2_1
I0413 19:12:07.381234 15616 net.cpp:157] Top shape: 1 128 500 750 (48000000)
I0413 19:12:07.381242 15616 net.cpp:165] Memory required for data: 1878000116
I0413 19:12:07.381261 15616 layer_factory.hpp:77] Creating layer relu2_1
I0413 19:12:07.381273 15616 net.cpp:100] Creating Layer relu2_1
I0413 19:12:07.381281 15616 net.cpp:434] relu2_1 <- conv2_1
I0413 19:12:07.381292 15616 net.cpp:395] relu2_1 -> conv2_1 (in-place)
I0413 19:12:07.381306 15616 net.cpp:150] Setting up relu2_1
I0413 19:12:07.381314 15616 net.cpp:157] Top shape: 1 128 500 750 (48000000)
I0413 19:12:07.381322 15616 net.cpp:165] Memory required for data: 2070000116
I0413 19:12:07.381330 15616 layer_factory.hpp:77] Creating layer conv2_2
I0413 19:12:07.381345 15616 net.cpp:100] Creating Layer conv2_2
I0413 19:12:07.381366 15616 net.cpp:434] conv2_2 <- conv2_1
I0413 19:12:07.381389 15616 net.cpp:408] conv2_2 -> conv2_2
I0413 19:12:07.382776 15616 net.cpp:150] Setting up conv2_2
I0413 19:12:07.382839 15616 net.cpp:157] Top shape: 1 128 500 750 (48000000)
I0413 19:12:07.382860 15616 net.cpp:165] Memory required for data: 2262000116
I0413 19:12:07.382889 15616 layer_factory.hpp:77] Creating layer relu2_2
I0413 19:12:07.382915 15616 net.cpp:100] Creating Layer relu2_2
I0413 19:12:07.382936 15616 net.cpp:434] relu2_2 <- conv2_2
I0413 19:12:07.382959 15616 net.cpp:395] relu2_2 -> conv2_2 (in-place)
I0413 19:12:07.382983 15616 net.cpp:150] Setting up relu2_2
I0413 19:12:07.383004 15616 net.cpp:157] Top shape: 1 128 500 750 (48000000)
I0413 19:12:07.383030 15616 net.cpp:165] Memory required for data: 2454000116
I0413 19:12:07.383049 15616 layer_factory.hpp:77] Creating layer pool2
I0413 19:12:07.383070 15616 net.cpp:100] Creating Layer pool2
I0413 19:12:07.383087 15616 net.cpp:434] pool2 <- conv2_2
I0413 19:12:07.383112 15616 net.cpp:408] pool2 -> pool2
I0413 19:12:07.383184 15616 net.cpp:150] Setting up pool2
I0413 19:12:07.383214 15616 net.cpp:157] Top shape: 1 128 250 375 (12000000)
I0413 19:12:07.383234 15616 net.cpp:165] Memory required for data: 2502000116
I0413 19:12:07.383252 15616 layer_factory.hpp:77] Creating layer conv3_1
I0413 19:12:07.383277 15616 net.cpp:100] Creating Layer conv3_1
I0413 19:12:07.383301 15616 net.cpp:434] conv3_1 <- pool2
I0413 19:12:07.383322 15616 net.cpp:408] conv3_1 -> conv3_1
I0413 19:12:07.384609 15616 net.cpp:150] Setting up conv3_1
I0413 19:12:07.384639 15616 net.cpp:157] Top shape: 1 256 250 375 (24000000)
I0413 19:12:07.384644 15616 net.cpp:165] Memory required for data: 2598000116
I0413 19:12:07.384675 15616 layer_factory.hpp:77] Creating layer relu3_1
I0413 19:12:07.384688 15616 net.cpp:100] Creating Layer relu3_1
I0413 19:12:07.384697 15616 net.cpp:434] relu3_1 <- conv3_1
I0413 19:12:07.384709 15616 net.cpp:395] relu3_1 -> conv3_1 (in-place)
I0413 19:12:07.384723 15616 net.cpp:150] Setting up relu3_1
I0413 19:12:07.384732 15616 net.cpp:157] Top shape: 1 256 250 375 (24000000)
I0413 19:12:07.384740 15616 net.cpp:165] Memory required for data: 2694000116
I0413 19:12:07.384747 15616 layer_factory.hpp:77] Creating layer conv3_2
I0413 19:12:07.384766 15616 net.cpp:100] Creating Layer conv3_2
I0413 19:12:07.384773 15616 net.cpp:434] conv3_2 <- conv3_1
I0413 19:12:07.384784 15616 net.cpp:408] conv3_2 -> conv3_2
I0413 19:12:07.386031 15616 net.cpp:150] Setting up conv3_2
I0413 19:12:07.386062 15616 net.cpp:157] Top shape: 1 256 250 375 (24000000)
I0413 19:12:07.386068 15616 net.cpp:165] Memory required for data: 2790000116
I0413 19:12:07.386082 15616 layer_factory.hpp:77] Creating layer relu3_2
I0413 19:12:07.386096 15616 net.cpp:100] Creating Layer relu3_2
I0413 19:12:07.386103 15616 net.cpp:434] relu3_2 <- conv3_2
I0413 19:12:07.386114 15616 net.cpp:395] relu3_2 -> conv3_2 (in-place)
I0413 19:12:07.386128 15616 net.cpp:150] Setting up relu3_2
I0413 19:12:07.386137 15616 net.cpp:157] Top shape: 1 256 250 375 (24000000)
I0413 19:12:07.386144 15616 net.cpp:165] Memory required for data: 2886000116
I0413 19:12:07.386150 15616 layer_factory.hpp:77] Creating layer conv3_3
I0413 19:12:07.386167 15616 net.cpp:100] Creating Layer conv3_3
I0413 19:12:07.386173 15616 net.cpp:434] conv3_3 <- conv3_2
I0413 19:12:07.386186 15616 net.cpp:408] conv3_3 -> conv3_3
I0413 19:12:07.387797 15616 net.cpp:150] Setting up conv3_3
I0413 19:12:07.387832 15616 net.cpp:157] Top shape: 1 256 250 375 (24000000)
I0413 19:12:07.387838 15616 net.cpp:165] Memory required for data: 2982000116
I0413 19:12:07.387853 15616 layer_factory.hpp:77] Creating layer relu3_3
I0413 19:12:07.387866 15616 net.cpp:100] Creating Layer relu3_3
I0413 19:12:07.387872 15616 net.cpp:434] relu3_3 <- conv3_3
I0413 19:12:07.387879 15616 net.cpp:395] relu3_3 -> conv3_3 (in-place)
I0413 19:12:07.387888 15616 net.cpp:150] Setting up relu3_3
I0413 19:12:07.387893 15616 net.cpp:157] Top shape: 1 256 250 375 (24000000)
I0413 19:12:07.387897 15616 net.cpp:165] Memory required for data: 3078000116
I0413 19:12:07.387899 15616 layer_factory.hpp:77] Creating layer pool3
I0413 19:12:07.387907 15616 net.cpp:100] Creating Layer pool3
I0413 19:12:07.387912 15616 net.cpp:434] pool3 <- conv3_3
I0413 19:12:07.387917 15616 net.cpp:408] pool3 -> pool3
I0413 19:12:07.387961 15616 net.cpp:150] Setting up pool3
I0413 19:12:07.387969 15616 net.cpp:157] Top shape: 1 256 125 188 (6016000)
I0413 19:12:07.387971 15616 net.cpp:165] Memory required for data: 3102064116
I0413 19:12:07.387974 15616 layer_factory.hpp:77] Creating layer conv4_1
I0413 19:12:07.387984 15616 net.cpp:100] Creating Layer conv4_1
I0413 19:12:07.387987 15616 net.cpp:434] conv4_1 <- pool3
I0413 19:12:07.387992 15616 net.cpp:408] conv4_1 -> conv4_1
I0413 19:12:07.390990 15616 net.cpp:150] Setting up conv4_1
I0413 19:12:07.391057 15616 net.cpp:157] Top shape: 1 512 125 188 (12032000)
I0413 19:12:07.391069 15616 net.cpp:165] Memory required for data: 3150192116
I0413 19:12:07.391079 15616 layer_factory.hpp:77] Creating layer relu4_1
I0413 19:12:07.391090 15616 net.cpp:100] Creating Layer relu4_1
I0413 19:12:07.391096 15616 net.cpp:434] relu4_1 <- conv4_1
I0413 19:12:07.391103 15616 net.cpp:395] relu4_1 -> conv4_1 (in-place)
I0413 19:12:07.391113 15616 net.cpp:150] Setting up relu4_1
I0413 19:12:07.391118 15616 net.cpp:157] Top shape: 1 512 125 188 (12032000)
I0413 19:12:07.391120 15616 net.cpp:165] Memory required for data: 3198320116
I0413 19:12:07.391124 15616 layer_factory.hpp:77] Creating layer conv4_2
I0413 19:12:07.391134 15616 net.cpp:100] Creating Layer conv4_2
I0413 19:12:07.391137 15616 net.cpp:434] conv4_2 <- conv4_1
I0413 19:12:07.391144 15616 net.cpp:408] conv4_2 -> conv4_2
I0413 19:12:07.397106 15616 net.cpp:150] Setting up conv4_2
I0413 19:12:07.397140 15616 net.cpp:157] Top shape: 1 512 125 188 (12032000)
I0413 19:12:07.397142 15616 net.cpp:165] Memory required for data: 3246448116
I0413 19:12:07.397159 15616 layer_factory.hpp:77] Creating layer relu4_2
I0413 19:12:07.397171 15616 net.cpp:100] Creating Layer relu4_2
I0413 19:12:07.397176 15616 net.cpp:434] relu4_2 <- conv4_2
I0413 19:12:07.397182 15616 net.cpp:395] relu4_2 -> conv4_2 (in-place)
I0413 19:12:07.397192 15616 net.cpp:150] Setting up relu4_2
I0413 19:12:07.397197 15616 net.cpp:157] Top shape: 1 512 125 188 (12032000)
I0413 19:12:07.397199 15616 net.cpp:165] Memory required for data: 3294576116
I0413 19:12:07.397202 15616 layer_factory.hpp:77] Creating layer conv4_3
I0413 19:12:07.397212 15616 net.cpp:100] Creating Layer conv4_3
I0413 19:12:07.397214 15616 net.cpp:434] conv4_3 <- conv4_2
I0413 19:12:07.397219 15616 net.cpp:408] conv4_3 -> conv4_3
I0413 19:12:07.401579 15616 net.cpp:150] Setting up conv4_3
I0413 19:12:07.401613 15616 net.cpp:157] Top shape: 1 512 125 188 (12032000)
I0413 19:12:07.401625 15616 net.cpp:165] Memory required for data: 3342704116
I0413 19:12:07.401635 15616 layer_factory.hpp:77] Creating layer relu4_3
I0413 19:12:07.401645 15616 net.cpp:100] Creating Layer relu4_3
I0413 19:12:07.401650 15616 net.cpp:434] relu4_3 <- conv4_3
I0413 19:12:07.401659 15616 net.cpp:395] relu4_3 -> conv4_3 (in-place)
I0413 19:12:07.401667 15616 net.cpp:150] Setting up relu4_3
I0413 19:12:07.401672 15616 net.cpp:157] Top shape: 1 512 125 188 (12032000)
I0413 19:12:07.401674 15616 net.cpp:165] Memory required for data: 3390832116
I0413 19:12:07.401677 15616 layer_factory.hpp:77] Creating layer pool4
I0413 19:12:07.401685 15616 net.cpp:100] Creating Layer pool4
I0413 19:12:07.401688 15616 net.cpp:434] pool4 <- conv4_3
I0413 19:12:07.401693 15616 net.cpp:408] pool4 -> pool4
I0413 19:12:07.401729 15616 net.cpp:150] Setting up pool4
I0413 19:12:07.401744 15616 net.cpp:157] Top shape: 1 512 63 94 (3032064)
I0413 19:12:07.401747 15616 net.cpp:165] Memory required for data: 3402960372
I0413 19:12:07.401751 15616 layer_factory.hpp:77] Creating layer conv5_1
I0413 19:12:07.401762 15616 net.cpp:100] Creating Layer conv5_1
I0413 19:12:07.401767 15616 net.cpp:434] conv5_1 <- pool4
I0413 19:12:07.401773 15616 net.cpp:408] conv5_1 -> conv5_1
I0413 19:12:07.406743 15616 net.cpp:150] Setting up conv5_1
I0413 19:12:07.406782 15616 net.cpp:157] Top shape: 1 512 63 94 (3032064)
I0413 19:12:07.406787 15616 net.cpp:165] Memory required for data: 3415088628
I0413 19:12:07.406797 15616 layer_factory.hpp:77] Creating layer relu5_1
I0413 19:12:07.406807 15616 net.cpp:100] Creating Layer relu5_1
I0413 19:12:07.406812 15616 net.cpp:434] relu5_1 <- conv5_1
I0413 19:12:07.406819 15616 net.cpp:395] relu5_1 -> conv5_1 (in-place)
I0413 19:12:07.406829 15616 net.cpp:150] Setting up relu5_1
I0413 19:12:07.406834 15616 net.cpp:157] Top shape: 1 512 63 94 (3032064)
I0413 19:12:07.406836 15616 net.cpp:165] Memory required for data: 3427216884
I0413 19:12:07.406839 15616 layer_factory.hpp:77] Creating layer conv5_2
I0413 19:12:07.406849 15616 net.cpp:100] Creating Layer conv5_2
I0413 19:12:07.406852 15616 net.cpp:434] conv5_2 <- conv5_1
I0413 19:12:07.406859 15616 net.cpp:408] conv5_2 -> conv5_2
I0413 19:12:07.412649 15616 net.cpp:150] Setting up conv5_2
I0413 19:12:07.412694 15616 net.cpp:157] Top shape: 1 512 63 94 (3032064)
I0413 19:12:07.412698 15616 net.cpp:165] Memory required for data: 3439345140
I0413 19:12:07.412709 15616 layer_factory.hpp:77] Creating layer relu5_2
I0413 19:12:07.412721 15616 net.cpp:100] Creating Layer relu5_2
I0413 19:12:07.412727 15616 net.cpp:434] relu5_2 <- conv5_2
I0413 19:12:07.412734 15616 net.cpp:395] relu5_2 -> conv5_2 (in-place)
I0413 19:12:07.412745 15616 net.cpp:150] Setting up relu5_2
I0413 19:12:07.412750 15616 net.cpp:157] Top shape: 1 512 63 94 (3032064)
I0413 19:12:07.412752 15616 net.cpp:165] Memory required for data: 3451473396
I0413 19:12:07.412755 15616 layer_factory.hpp:77] Creating layer conv5_3
I0413 19:12:07.412771 15616 net.cpp:100] Creating Layer conv5_3
I0413 19:12:07.412775 15616 net.cpp:434] conv5_3 <- conv5_2
I0413 19:12:07.412781 15616 net.cpp:408] conv5_3 -> conv5_3
I0413 19:12:07.417222 15616 net.cpp:150] Setting up conv5_3
I0413 19:12:07.417255 15616 net.cpp:157] Top shape: 1 512 63 94 (3032064)
I0413 19:12:07.417258 15616 net.cpp:165] Memory required for data: 3463601652
I0413 19:12:07.417269 15616 layer_factory.hpp:77] Creating layer relu5_3
I0413 19:12:07.417279 15616 net.cpp:100] Creating Layer relu5_3
I0413 19:12:07.417284 15616 net.cpp:434] relu5_3 <- conv5_3
I0413 19:12:07.417291 15616 net.cpp:395] relu5_3 -> conv5_3 (in-place)
I0413 19:12:07.417301 15616 net.cpp:150] Setting up relu5_3
I0413 19:12:07.417305 15616 net.cpp:157] Top shape: 1 512 63 94 (3032064)
I0413 19:12:07.417309 15616 net.cpp:165] Memory required for data: 3475729908
I0413 19:12:07.417311 15616 layer_factory.hpp:77] Creating layer conv5_3_relu5_3_0_split
I0413 19:12:07.417318 15616 net.cpp:100] Creating Layer conv5_3_relu5_3_0_split
I0413 19:12:07.417321 15616 net.cpp:434] conv5_3_relu5_3_0_split <- conv5_3
I0413 19:12:07.417326 15616 net.cpp:408] conv5_3_relu5_3_0_split -> conv5_3_relu5_3_0_split_0
I0413 19:12:07.417333 15616 net.cpp:408] conv5_3_relu5_3_0_split -> conv5_3_relu5_3_0_split_1
I0413 19:12:07.417366 15616 net.cpp:150] Setting up conv5_3_relu5_3_0_split
I0413 19:12:07.417371 15616 net.cpp:157] Top shape: 1 512 63 94 (3032064)
I0413 19:12:07.417376 15616 net.cpp:157] Top shape: 1 512 63 94 (3032064)
I0413 19:12:07.417378 15616 net.cpp:165] Memory required for data: 3499986420
I0413 19:12:07.417382 15616 layer_factory.hpp:77] Creating layer rpn_big_conv1
I0413 19:12:07.417394 15616 net.cpp:100] Creating Layer rpn_big_conv1
I0413 19:12:07.417398 15616 net.cpp:434] rpn_big_conv1 <- conv5_3_relu5_3_0_split_0
I0413 19:12:07.417405 15616 net.cpp:408] rpn_big_conv1 -> rpn_big_conv1
I0413 19:12:07.443395 15616 net.cpp:150] Setting up rpn_big_conv1
I0413 19:12:07.443425 15616 net.cpp:157] Top shape: 1 512 63 94 (3032064)
I0413 19:12:07.443439 15616 net.cpp:165] Memory required for data: 3512114676
I0413 19:12:07.443449 15616 layer_factory.hpp:77] Creating layer rpn_big_conv1_relu
I0413 19:12:07.443461 15616 net.cpp:100] Creating Layer rpn_big_conv1_relu
I0413 19:12:07.443466 15616 net.cpp:434] rpn_big_conv1_relu <- rpn_big_conv1
I0413 19:12:07.443473 15616 net.cpp:395] rpn_big_conv1_relu -> rpn_big_conv1 (in-place)
I0413 19:12:07.443483 15616 net.cpp:150] Setting up rpn_big_conv1_relu
I0413 19:12:07.443487 15616 net.cpp:157] Top shape: 1 512 63 94 (3032064)
I0413 19:12:07.443490 15616 net.cpp:165] Memory required for data: 3524242932
I0413 19:12:07.443493 15616 layer_factory.hpp:77] Creating layer rpn_big_conv2
I0413 19:12:07.443505 15616 net.cpp:100] Creating Layer rpn_big_conv2
I0413 19:12:07.443511 15616 net.cpp:434] rpn_big_conv2 <- rpn_big_conv1
I0413 19:12:07.443523 15616 net.cpp:408] rpn_big_conv2 -> rpn_big_conv2
I0413 19:12:07.469311 15616 net.cpp:150] Setting up rpn_big_conv2
I0413 19:12:07.469346 15616 net.cpp:157] Top shape: 1 512 63 94 (3032064)
I0413 19:12:07.469350 15616 net.cpp:165] Memory required for data: 3536371188
I0413 19:12:07.469372 15616 layer_factory.hpp:77] Creating layer rpn_big_conv2_relu
I0413 19:12:07.469386 15616 net.cpp:100] Creating Layer rpn_big_conv2_relu
I0413 19:12:07.469395 15616 net.cpp:434] rpn_big_conv2_relu <- rpn_big_conv2
I0413 19:12:07.469411 15616 net.cpp:395] rpn_big_conv2_relu -> rpn_big_conv2 (in-place)
I0413 19:12:07.469429 15616 net.cpp:150] Setting up rpn_big_conv2_relu
I0413 19:12:07.469439 15616 net.cpp:157] Top shape: 1 512 63 94 (3032064)
I0413 19:12:07.469444 15616 net.cpp:165] Memory required for data: 3548499444
I0413 19:12:07.469452 15616 layer_factory.hpp:77] Creating layer rpn_big_conv2_drop
I0413 19:12:07.469465 15616 net.cpp:100] Creating Layer rpn_big_conv2_drop
I0413 19:12:07.469475 15616 net.cpp:434] rpn_big_conv2_drop <- rpn_big_conv2
I0413 19:12:07.469485 15616 net.cpp:395] rpn_big_conv2_drop -> rpn_big_conv2 (in-place)
I0413 19:12:07.469516 15616 net.cpp:150] Setting up rpn_big_conv2_drop
I0413 19:12:07.469525 15616 net.cpp:157] Top shape: 1 512 63 94 (3032064)
I0413 19:12:07.469532 15616 net.cpp:165] Memory required for data: 3560627700
I0413 19:12:07.469538 15616 layer_factory.hpp:77] Creating layer rpn_big_conv2_rpn_big_conv2_drop_0_split
I0413 19:12:07.469552 15616 net.cpp:100] Creating Layer rpn_big_conv2_rpn_big_conv2_drop_0_split
I0413 19:12:07.469559 15616 net.cpp:434] rpn_big_conv2_rpn_big_conv2_drop_0_split <- rpn_big_conv2
I0413 19:12:07.469569 15616 net.cpp:408] rpn_big_conv2_rpn_big_conv2_drop_0_split -> rpn_big_conv2_rpn_big_conv2_drop_0_split_0
I0413 19:12:07.469584 15616 net.cpp:408] rpn_big_conv2_rpn_big_conv2_drop_0_split -> rpn_big_conv2_rpn_big_conv2_drop_0_split_1
I0413 19:12:07.469630 15616 net.cpp:150] Setting up rpn_big_conv2_rpn_big_conv2_drop_0_split
I0413 19:12:07.469640 15616 net.cpp:157] Top shape: 1 512 63 94 (3032064)
I0413 19:12:07.469650 15616 net.cpp:157] Top shape: 1 512 63 94 (3032064)
I0413 19:12:07.469656 15616 net.cpp:165] Memory required for data: 3584884212
I0413 19:12:07.469662 15616 layer_factory.hpp:77] Creating layer rpn_big_output_cls
I0413 19:12:07.469682 15616 net.cpp:100] Creating Layer rpn_big_output_cls
I0413 19:12:07.469688 15616 net.cpp:434] rpn_big_output_cls <- rpn_big_conv2_rpn_big_conv2_drop_0_split_0
I0413 19:12:07.469700 15616 net.cpp:408] rpn_big_output_cls -> rpn_big_output_cls
I0413 19:12:07.491926 15616 net.cpp:150] Setting up rpn_big_output_cls
I0413 19:12:07.491960 15616 net.cpp:157] Top shape: 1 384 63 94 (2274048)
I0413 19:12:07.491966 15616 net.cpp:165] Memory required for data: 3593980404
I0413 19:12:07.491987 15616 layer_factory.hpp:77] Creating layer rpn_big_output_cls_relu
I0413 19:12:07.492002 15616 net.cpp:100] Creating Layer rpn_big_output_cls_relu
I0413 19:12:07.492012 15616 net.cpp:434] rpn_big_output_cls_relu <- rpn_big_output_cls
I0413 19:12:07.492027 15616 net.cpp:395] rpn_big_output_cls_relu -> rpn_big_output_cls (in-place)
I0413 19:12:07.492043 15616 net.cpp:150] Setting up rpn_big_output_cls_relu
I0413 19:12:07.492050 15616 net.cpp:157] Top shape: 1 384 63 94 (2274048)
I0413 19:12:07.492058 15616 net.cpp:165] Memory required for data: 3603076596
I0413 19:12:07.492064 15616 layer_factory.hpp:77] Creating layer rpn_big_cls_score
I0413 19:12:07.492084 15616 net.cpp:100] Creating Layer rpn_big_cls_score
I0413 19:12:07.492108 15616 net.cpp:434] rpn_big_cls_score <- rpn_big_output_cls
I0413 19:12:07.492132 15616 net.cpp:408] rpn_big_cls_score -> rpn_big_cls_score
I0413 19:12:07.495014 15616 net.cpp:150] Setting up rpn_big_cls_score
I0413 19:12:07.495043 15616 net.cpp:157] Top shape: 1 52 61 92 (291824)
I0413 19:12:07.495049 15616 net.cpp:165] Memory required for data: 3604243892
I0413 19:12:07.495074 15616 layer_factory.hpp:77] Creating layer rpn_big_cls_score_rpn_big_cls_score_0_split
I0413 19:12:07.495090 15616 net.cpp:100] Creating Layer rpn_big_cls_score_rpn_big_cls_score_0_split
I0413 19:12:07.495101 15616 net.cpp:434] rpn_big_cls_score_rpn_big_cls_score_0_split <- rpn_big_cls_score
I0413 19:12:07.495113 15616 net.cpp:408] rpn_big_cls_score_rpn_big_cls_score_0_split -> rpn_big_cls_score_rpn_big_cls_score_0_split_0
I0413 19:12:07.495128 15616 net.cpp:408] rpn_big_cls_score_rpn_big_cls_score_0_split -> rpn_big_cls_score_rpn_big_cls_score_0_split_1
I0413 19:12:07.495172 15616 net.cpp:150] Setting up rpn_big_cls_score_rpn_big_cls_score_0_split
I0413 19:12:07.495182 15616 net.cpp:157] Top shape: 1 52 61 92 (291824)
I0413 19:12:07.495190 15616 net.cpp:157] Top shape: 1 52 61 92 (291824)
I0413 19:12:07.495198 15616 net.cpp:165] Memory required for data: 3606578484
I0413 19:12:07.495204 15616 layer_factory.hpp:77] Creating layer rpn_big_cls_score_reshape
I0413 19:12:07.495216 15616 net.cpp:100] Creating Layer rpn_big_cls_score_reshape
I0413 19:12:07.495223 15616 net.cpp:434] rpn_big_cls_score_reshape <- rpn_big_cls_score_rpn_big_cls_score_0_split_0
I0413 19:12:07.495235 15616 net.cpp:408] rpn_big_cls_score_reshape -> rpn_big_cls_score_reshape
I0413 19:12:07.495270 15616 net.cpp:150] Setting up rpn_big_cls_score_reshape
I0413 19:12:07.495280 15616 net.cpp:157] Top shape: 1 2 1586 92 (291824)
I0413 19:12:07.495285 15616 net.cpp:165] Memory required for data: 3607745780
I0413 19:12:07.495291 15616 layer_factory.hpp:77] Creating layer rpn_big_cls_score_reshape_rpn_big_cls_score_reshape_0_split
I0413 19:12:07.495302 15616 net.cpp:100] Creating Layer rpn_big_cls_score_reshape_rpn_big_cls_score_reshape_0_split
I0413 19:12:07.495311 15616 net.cpp:434] rpn_big_cls_score_reshape_rpn_big_cls_score_reshape_0_split <- rpn_big_cls_score_reshape
I0413 19:12:07.495323 15616 net.cpp:408] rpn_big_cls_score_reshape_rpn_big_cls_score_reshape_0_split -> rpn_big_cls_score_reshape_rpn_big_cls_score_reshape_0_split_0
I0413 19:12:07.495337 15616 net.cpp:408] rpn_big_cls_score_reshape_rpn_big_cls_score_reshape_0_split -> rpn_big_cls_score_reshape_rpn_big_cls_score_reshape_0_split_1
I0413 19:12:07.495376 15616 net.cpp:150] Setting up rpn_big_cls_score_reshape_rpn_big_cls_score_reshape_0_split
I0413 19:12:07.495386 15616 net.cpp:157] Top shape: 1 2 1586 92 (291824)
I0413 19:12:07.495394 15616 net.cpp:157] Top shape: 1 2 1586 92 (291824)
I0413 19:12:07.495401 15616 net.cpp:165] Memory required for data: 3610080372
I0413 19:12:07.495409 15616 layer_factory.hpp:77] Creating layer rpn_big_cls_prob
I0413 19:12:07.495422 15616 net.cpp:100] Creating Layer rpn_big_cls_prob
I0413 19:12:07.495430 15616 net.cpp:434] rpn_big_cls_prob <- rpn_big_cls_score_reshape_rpn_big_cls_score_reshape_0_split_0
I0413 19:12:07.495440 15616 net.cpp:408] rpn_big_cls_prob -> rpn_big_cls_prob
I0413 19:12:07.495503 15616 net.cpp:150] Setting up rpn_big_cls_prob
I0413 19:12:07.495513 15616 net.cpp:157] Top shape: 1 2 1586 92 (291824)
I0413 19:12:07.495519 15616 net.cpp:165] Memory required for data: 3611247668
I0413 19:12:07.495525 15616 layer_factory.hpp:77] Creating layer rpn_big_cls_prob_reshape
I0413 19:12:07.495537 15616 net.cpp:100] Creating Layer rpn_big_cls_prob_reshape
I0413 19:12:07.495544 15616 net.cpp:434] rpn_big_cls_prob_reshape <- rpn_big_cls_prob
I0413 19:12:07.495555 15616 net.cpp:408] rpn_big_cls_prob_reshape -> rpn_big_cls_prob_reshape
I0413 19:12:07.495586 15616 net.cpp:150] Setting up rpn_big_cls_prob_reshape
I0413 19:12:07.495596 15616 net.cpp:157] Top shape: 1 52 61 92 (291824)
I0413 19:12:07.495602 15616 net.cpp:165] Memory required for data: 3612414964
I0413 19:12:07.495609 15616 layer_factory.hpp:77] Creating layer rpn_big_cls_prob_reshape_rpn_big_cls_prob_reshape_0_split
I0413 19:12:07.495618 15616 net.cpp:100] Creating Layer rpn_big_cls_prob_reshape_rpn_big_cls_prob_reshape_0_split
I0413 19:12:07.495627 15616 net.cpp:434] rpn_big_cls_prob_reshape_rpn_big_cls_prob_reshape_0_split <- rpn_big_cls_prob_reshape
I0413 19:12:07.495637 15616 net.cpp:408] rpn_big_cls_prob_reshape_rpn_big_cls_prob_reshape_0_split -> rpn_big_cls_prob_reshape_rpn_big_cls_prob_reshape_0_split_0
I0413 19:12:07.495652 15616 net.cpp:408] rpn_big_cls_prob_reshape_rpn_big_cls_prob_reshape_0_split -> rpn_big_cls_prob_reshape_rpn_big_cls_prob_reshape_0_split_1
I0413 19:12:07.495688 15616 net.cpp:150] Setting up rpn_big_cls_prob_reshape_rpn_big_cls_prob_reshape_0_split
I0413 19:12:07.495698 15616 net.cpp:157] Top shape: 1 52 61 92 (291824)
I0413 19:12:07.495707 15616 net.cpp:157] Top shape: 1 52 61 92 (291824)
I0413 19:12:07.495712 15616 net.cpp:165] Memory required for data: 3614749556
I0413 19:12:07.495718 15616 layer_factory.hpp:77] Creating layer rpn_big_anchor_target
I0413 19:12:07.500068 15616 net.cpp:100] Creating Layer rpn_big_anchor_target
I0413 19:12:07.500095 15616 net.cpp:434] rpn_big_anchor_target <- rpn_big_cls_score_rpn_big_cls_score_0_split_1
I0413 19:12:07.500108 15616 net.cpp:434] rpn_big_anchor_target <- input_gt_boxes_input_2_split_0
I0413 19:12:07.500118 15616 net.cpp:434] rpn_big_anchor_target <- input_ignored_boxes
I0413 19:12:07.500125 15616 net.cpp:434] rpn_big_anchor_target <- input_im_info_input_1_split_0
I0413 19:12:07.500133 15616 net.cpp:434] rpn_big_anchor_target <- input_data_input_0_split_1
I0413 19:12:07.500150 15616 net.cpp:434] rpn_big_anchor_target <- rpn_big_cls_prob_reshape_rpn_big_cls_prob_reshape_0_split_0
I0413 19:12:07.500165 15616 net.cpp:408] rpn_big_anchor_target -> rpn_big_anchor_target_labels
I0413 19:12:07.500185 15616 net.cpp:408] rpn_big_anchor_target -> rpn_big_anchor_target_bbox_targets
I0413 19:12:07.500200 15616 net.cpp:408] rpn_big_anchor_target -> rpn_big_anchor_target_inside_weights
I0413 19:12:07.500214 15616 net.cpp:408] rpn_big_anchor_target -> rpn_big_anchor_target_outside_weights
I0413 19:12:07.504853 15616 net.cpp:150] Setting up rpn_big_anchor_target
I0413 19:12:07.504878 15616 net.cpp:157] Top shape: 1 1 1586 92 (145912)
I0413 19:12:07.504894 15616 net.cpp:157] Top shape: 1 104 61 92 (583648)
I0413 19:12:07.504909 15616 net.cpp:157] Top shape: 1 104 61 92 (583648)
I0413 19:12:07.504917 15616 net.cpp:157] Top shape: 1 104 61 92 (583648)
I0413 19:12:07.504922 15616 net.cpp:165] Memory required for data: 3622336980
I0413 19:12:07.504931 15616 layer_factory.hpp:77] Creating layer rpn_big_loss_cls
I0413 19:12:07.504945 15616 net.cpp:100] Creating Layer rpn_big_loss_cls
I0413 19:12:07.504953 15616 net.cpp:434] rpn_big_loss_cls <- rpn_big_cls_score_reshape_rpn_big_cls_score_reshape_0_split_1
I0413 19:12:07.504964 15616 net.cpp:434] rpn_big_loss_cls <- rpn_big_anchor_target_labels
I0413 19:12:07.504976 15616 net.cpp:408] rpn_big_loss_cls -> rpn_big_loss_cls
I0413 19:12:07.504994 15616 layer_factory.hpp:77] Creating layer rpn_big_loss_cls
I0413 19:12:07.505645 15616 net.cpp:150] Setting up rpn_big_loss_cls
I0413 19:12:07.505662 15616 net.cpp:157] Top shape: (1)
I0413 19:12:07.505668 15616 net.cpp:160]     with loss weight 1
I0413 19:12:07.505684 15616 net.cpp:165] Memory required for data: 3622336984
I0413 19:12:07.505692 15616 layer_factory.hpp:77] Creating layer rpn_big_output_box
I0413 19:12:07.505714 15616 net.cpp:100] Creating Layer rpn_big_output_box
I0413 19:12:07.505723 15616 net.cpp:434] rpn_big_output_box <- rpn_big_conv2_rpn_big_conv2_drop_0_split_1
I0413 19:12:07.505738 15616 net.cpp:408] rpn_big_output_box -> rpn_big_output_box
I0413 19:12:07.525571 15616 net.cpp:150] Setting up rpn_big_output_box
I0413 19:12:07.525605 15616 net.cpp:157] Top shape: 1 384 63 94 (2274048)
I0413 19:12:07.525611 15616 net.cpp:165] Memory required for data: 3631433176
I0413 19:12:07.525627 15616 layer_factory.hpp:77] Creating layer rpn_big_output_box_relu
I0413 19:12:07.525643 15616 net.cpp:100] Creating Layer rpn_big_output_box_relu
I0413 19:12:07.525653 15616 net.cpp:434] rpn_big_output_box_relu <- rpn_big_output_box
I0413 19:12:07.525666 15616 net.cpp:395] rpn_big_output_box_relu -> rpn_big_output_box (in-place)
I0413 19:12:07.525682 15616 net.cpp:150] Setting up rpn_big_output_box_relu
I0413 19:12:07.525694 15616 net.cpp:157] Top shape: 1 384 63 94 (2274048)
I0413 19:12:07.525701 15616 net.cpp:165] Memory required for data: 3640529368
I0413 19:12:07.525707 15616 layer_factory.hpp:77] Creating layer rpn_big_bbox_pred
I0413 19:12:07.525724 15616 net.cpp:100] Creating Layer rpn_big_bbox_pred
I0413 19:12:07.525733 15616 net.cpp:434] rpn_big_bbox_pred <- rpn_big_output_box
I0413 19:12:07.525745 15616 net.cpp:408] rpn_big_bbox_pred -> rpn_big_bbox_pred
I0413 19:12:07.530784 15616 net.cpp:150] Setting up rpn_big_bbox_pred
I0413 19:12:07.530807 15616 net.cpp:157] Top shape: 1 104 61 92 (583648)
I0413 19:12:07.530813 15616 net.cpp:165] Memory required for data: 3642863960
I0413 19:12:07.530835 15616 layer_factory.hpp:77] Creating layer rpn_big_bbox_pred_rpn_big_bbox_pred_0_split
I0413 19:12:07.530849 15616 net.cpp:100] Creating Layer rpn_big_bbox_pred_rpn_big_bbox_pred_0_split
I0413 19:12:07.530858 15616 net.cpp:434] rpn_big_bbox_pred_rpn_big_bbox_pred_0_split <- rpn_big_bbox_pred
I0413 19:12:07.530870 15616 net.cpp:408] rpn_big_bbox_pred_rpn_big_bbox_pred_0_split -> rpn_big_bbox_pred_rpn_big_bbox_pred_0_split_0
I0413 19:12:07.530885 15616 net.cpp:408] rpn_big_bbox_pred_rpn_big_bbox_pred_0_split -> rpn_big_bbox_pred_rpn_big_bbox_pred_0_split_1
I0413 19:12:07.530925 15616 net.cpp:150] Setting up rpn_big_bbox_pred_rpn_big_bbox_pred_0_split
I0413 19:12:07.530936 15616 net.cpp:157] Top shape: 1 104 61 92 (583648)
I0413 19:12:07.530943 15616 net.cpp:157] Top shape: 1 104 61 92 (583648)
I0413 19:12:07.530951 15616 net.cpp:165] Memory required for data: 3647533144
I0413 19:12:07.530957 15616 layer_factory.hpp:77] Creating layer rpn_big_loss_bbox
I0413 19:12:07.531378 15616 net.cpp:100] Creating Layer rpn_big_loss_bbox
I0413 19:12:07.531389 15616 net.cpp:434] rpn_big_loss_bbox <- rpn_big_bbox_pred_rpn_big_bbox_pred_0_split_0
I0413 19:12:07.531399 15616 net.cpp:434] rpn_big_loss_bbox <- rpn_big_anchor_target_bbox_targets
I0413 19:12:07.531406 15616 net.cpp:434] rpn_big_loss_bbox <- rpn_big_anchor_target_inside_weights
I0413 19:12:07.531416 15616 net.cpp:434] rpn_big_loss_bbox <- rpn_big_anchor_target_outside_weights
I0413 19:12:07.531430 15616 net.cpp:408] rpn_big_loss_bbox -> rpn_big_loss_bbox
I0413 19:12:07.533419 15616 net.cpp:150] Setting up rpn_big_loss_bbox
I0413 19:12:07.533452 15616 net.cpp:157] Top shape: 1 (1)
I0413 19:12:07.533457 15616 net.cpp:160]     with loss weight 1
I0413 19:12:07.533480 15616 net.cpp:165] Memory required for data: 3647533148
I0413 19:12:07.533489 15616 layer_factory.hpp:77] Creating layer proposal
I0413 19:12:07.533906 15616 net.cpp:100] Creating Layer proposal
I0413 19:12:07.533918 15616 net.cpp:434] proposal <- rpn_big_cls_prob_reshape_rpn_big_cls_prob_reshape_0_split_1
I0413 19:12:07.533929 15616 net.cpp:434] proposal <- rpn_big_bbox_pred_rpn_big_bbox_pred_0_split_1
I0413 19:12:07.533947 15616 net.cpp:434] proposal <- input_im_info_input_1_split_1
I0413 19:12:07.533962 15616 net.cpp:408] proposal -> rpn_rois
I0413 19:12:07.538179 15616 net.cpp:150] Setting up proposal
I0413 19:12:07.538200 15616 net.cpp:157] Top shape: 1 5 (5)
I0413 19:12:07.538206 15616 net.cpp:165] Memory required for data: 3647533168
I0413 19:12:07.538213 15616 layer_factory.hpp:77] Creating layer roi-data
I0413 19:12:07.538548 15616 net.cpp:100] Creating Layer roi-data
I0413 19:12:07.538560 15616 net.cpp:434] roi-data <- rpn_rois
I0413 19:12:07.538571 15616 net.cpp:434] roi-data <- input_gt_boxes_input_2_split_1
I0413 19:12:07.538583 15616 net.cpp:408] roi-data -> rois
I0413 19:12:07.538599 15616 net.cpp:408] roi-data -> labels
I0413 19:12:07.538616 15616 net.cpp:408] roi-data -> bbox_targets
I0413 19:12:07.538631 15616 net.cpp:408] roi-data -> bbox_inside_weights
I0413 19:12:07.538647 15616 net.cpp:408] roi-data -> bbox_outside_weights
I0413 19:12:07.538661 15616 net.cpp:408] roi-data -> pid_label
anchors:
<<<<<<<<<<<<<<<<<<<<<<<<<<<<<<<<<<<<<<<<<<<<<<<<<<<<<<<<<<<<<<<<<<<<<<<<<<<<<<<<<<<<<<<<<<<<<<<<<<<<<<<<<<<<<<<<<<<<<<<<<<<<<<<<<<<<<<<<<<<<<<<<<<<<<<<<<<<<<<<<<<<<<<<<<<<<<<<<<<<<<<<<<<<<<<<<<<<<<<<<<<<<<<<<<<<<<<<<<<<<<<<<<<<<<<<<<<<<<<<<<<<<<<<<<<<<<<<<<<<<<<<<<<<<<<<<<<<<<<<<<<<<<<<<<<<<<<<<<<<<
[[ -84.  -40.   99.   55.]
 [-176.  -88.  191.  103.]
 [-360. -184.  375.  199.]
 [ -56.  -56.   71.   71.]
 [-120. -120.  135.  135.]
 [-248. -248.  263.  263.]
 [ -36.  -80.   51.   95.]
 [ -80. -168.   95.  183.]
 [-168. -344.  183.  359.]]
I0413 19:12:07.540884 15616 net.cpp:150] Setting up roi-data
I0413 19:12:07.540918 15616 net.cpp:157] Top shape: 1 5 (5)
I0413 19:12:07.540928 15616 net.cpp:157] Top shape: 1 1 (1)
I0413 19:12:07.540935 15616 net.cpp:157] Top shape: 1 8 (8)
I0413 19:12:07.540942 15616 net.cpp:157] Top shape: 1 8 (8)
I0413 19:12:07.540951 15616 net.cpp:157] Top shape: 1 8 (8)
I0413 19:12:07.540957 15616 net.cpp:157] Top shape: (0)
I0413 19:12:07.540963 15616 net.cpp:165] Memory required for data: 3647533288
I0413 19:12:07.540971 15616 layer_factory.hpp:77] Creating layer roi-pool
I0413 19:12:07.540984 15616 net.cpp:100] Creating Layer roi-pool
I0413 19:12:07.540992 15616 net.cpp:434] roi-pool <- conv5_3_relu5_3_0_split_1
I0413 19:12:07.541002 15616 net.cpp:434] roi-pool <- rois
I0413 19:12:07.541012 15616 net.cpp:408] roi-pool -> roi-pool
I0413 19:12:07.541025 15616 roi_pooling_layer.cpp:33] Spatial scale: 0.0625
I0413 19:12:07.541039 15616 roi_pooling_layer.cpp:34] Box scale: 1
I0413 19:12:07.541088 15616 net.cpp:150] Setting up roi-pool
I0413 19:12:07.541098 15616 net.cpp:157] Top shape: 1 512 7 7 (25088)
I0413 19:12:07.541105 15616 net.cpp:165] Memory required for data: 3647633640
I0413 19:12:07.541111 15616 layer_factory.hpp:77] Creating layer fc6
I0413 19:12:07.541122 15616 net.cpp:100] Creating Layer fc6
I0413 19:12:07.541129 15616 net.cpp:434] fc6 <- roi-pool
I0413 19:12:07.541141 15616 net.cpp:408] fc6 -> fc6
I0413 19:12:07.708068 15616 net.cpp:150] Setting up fc6
I0413 19:12:07.708106 15616 net.cpp:157] Top shape: 1 4096 (4096)
I0413 19:12:07.708112 15616 net.cpp:165] Memory required for data: 3647650024
I0413 19:12:07.708138 15616 layer_factory.hpp:77] Creating layer relu6
I0413 19:12:07.708151 15616 net.cpp:100] Creating Layer relu6
I0413 19:12:07.708165 15616 net.cpp:434] relu6 <- fc6
I0413 19:12:07.708176 15616 net.cpp:395] relu6 -> fc6 (in-place)
I0413 19:12:07.708191 15616 net.cpp:150] Setting up relu6
I0413 19:12:07.708199 15616 net.cpp:157] Top shape: 1 4096 (4096)
I0413 19:12:07.708202 15616 net.cpp:165] Memory required for data: 3647666408
I0413 19:12:07.708209 15616 layer_factory.hpp:77] Creating layer drop6
I0413 19:12:07.708217 15616 net.cpp:100] Creating Layer drop6
I0413 19:12:07.708225 15616 net.cpp:434] drop6 <- fc6
I0413 19:12:07.708233 15616 net.cpp:395] drop6 -> fc6 (in-place)
I0413 19:12:07.708266 15616 net.cpp:150] Setting up drop6
I0413 19:12:07.708276 15616 net.cpp:157] Top shape: 1 4096 (4096)
I0413 19:12:07.708281 15616 net.cpp:165] Memory required for data: 3647682792
I0413 19:12:07.708287 15616 layer_factory.hpp:77] Creating layer fc7
I0413 19:12:07.708300 15616 net.cpp:100] Creating Layer fc7
I0413 19:12:07.708309 15616 net.cpp:434] fc7 <- fc6
I0413 19:12:07.708319 15616 net.cpp:408] fc7 -> fc7
I0413 19:12:07.735224 15616 net.cpp:150] Setting up fc7
I0413 19:12:07.735262 15616 net.cpp:157] Top shape: 1 4096 (4096)
I0413 19:12:07.735268 15616 net.cpp:165] Memory required for data: 3647699176
I0413 19:12:07.735285 15616 layer_factory.hpp:77] Creating layer relu7
I0413 19:12:07.735329 15616 net.cpp:100] Creating Layer relu7
I0413 19:12:07.735338 15616 net.cpp:434] relu7 <- fc7
I0413 19:12:07.735350 15616 net.cpp:395] relu7 -> fc7 (in-place)
I0413 19:12:07.735366 15616 net.cpp:150] Setting up relu7
I0413 19:12:07.735376 15616 net.cpp:157] Top shape: 1 4096 (4096)
I0413 19:12:07.735383 15616 net.cpp:165] Memory required for data: 3647715560
I0413 19:12:07.735391 15616 layer_factory.hpp:77] Creating layer drop7
I0413 19:12:07.735402 15616 net.cpp:100] Creating Layer drop7
I0413 19:12:07.735409 15616 net.cpp:434] drop7 <- fc7
I0413 19:12:07.735419 15616 net.cpp:395] drop7 -> fc7 (in-place)
I0413 19:12:07.735451 15616 net.cpp:150] Setting up drop7
I0413 19:12:07.735460 15616 net.cpp:157] Top shape: 1 4096 (4096)
I0413 19:12:07.735466 15616 net.cpp:165] Memory required for data: 3647731944
I0413 19:12:07.735472 15616 layer_factory.hpp:77] Creating layer fc7_drop7_0_split
I0413 19:12:07.735482 15616 net.cpp:100] Creating Layer fc7_drop7_0_split
I0413 19:12:07.735489 15616 net.cpp:434] fc7_drop7_0_split <- fc7
I0413 19:12:07.735499 15616 net.cpp:408] fc7_drop7_0_split -> fc7_drop7_0_split_0
I0413 19:12:07.735524 15616 net.cpp:408] fc7_drop7_0_split -> fc7_drop7_0_split_1
I0413 19:12:07.735563 15616 net.cpp:150] Setting up fc7_drop7_0_split
I0413 19:12:07.735574 15616 net.cpp:157] Top shape: 1 4096 (4096)
I0413 19:12:07.735584 15616 net.cpp:157] Top shape: 1 4096 (4096)
I0413 19:12:07.735590 15616 net.cpp:165] Memory required for data: 3647764712
I0413 19:12:07.735597 15616 layer_factory.hpp:77] Creating layer bbox_pred
I0413 19:12:07.735610 15616 net.cpp:100] Creating Layer bbox_pred
I0413 19:12:07.735617 15616 net.cpp:434] bbox_pred <- fc7_drop7_0_split_0
I0413 19:12:07.735628 15616 net.cpp:408] bbox_pred -> bbox_pred
I0413 19:12:07.736054 15616 net.cpp:150] Setting up bbox_pred
I0413 19:12:07.736065 15616 net.cpp:157] Top shape: 1 8 (8)
I0413 19:12:07.736070 15616 net.cpp:165] Memory required for data: 3647764744
I0413 19:12:07.736083 15616 layer_factory.hpp:77] Creating layer loss_bbox
I0413 19:12:07.736094 15616 net.cpp:100] Creating Layer loss_bbox
I0413 19:12:07.736101 15616 net.cpp:434] loss_bbox <- bbox_pred
I0413 19:12:07.736109 15616 net.cpp:434] loss_bbox <- bbox_targets
I0413 19:12:07.736117 15616 net.cpp:434] loss_bbox <- bbox_inside_weights
I0413 19:12:07.736124 15616 net.cpp:434] loss_bbox <- bbox_outside_weights
I0413 19:12:07.736135 15616 net.cpp:408] loss_bbox -> loss_bbox
I0413 19:12:07.736215 15616 net.cpp:150] Setting up loss_bbox
I0413 19:12:07.736225 15616 net.cpp:157] Top shape: (1)
I0413 19:12:07.736230 15616 net.cpp:160]     with loss weight 1
I0413 19:12:07.736248 15616 net.cpp:165] Memory required for data: 3647764748
I0413 19:12:07.736255 15616 layer_factory.hpp:77] Creating layer feat
I0413 19:12:07.736265 15616 net.cpp:100] Creating Layer feat
I0413 19:12:07.736273 15616 net.cpp:434] feat <- fc7_drop7_0_split_1
I0413 19:12:07.736285 15616 net.cpp:408] feat -> feat
I0413 19:12:07.747736 15616 net.cpp:150] Setting up feat
I0413 19:12:07.747771 15616 net.cpp:157] Top shape: 1 256 (256)
I0413 19:12:07.747776 15616 net.cpp:165] Memory required for data: 3647765772
I0413 19:12:07.747799 15616 layer_factory.hpp:77] Creating layer relu8
I0413 19:12:07.747813 15616 net.cpp:100] Creating Layer relu8
I0413 19:12:07.747825 15616 net.cpp:434] relu8 <- feat
I0413 19:12:07.747838 15616 net.cpp:395] relu8 -> feat (in-place)
I0413 19:12:07.747855 15616 net.cpp:150] Setting up relu8
I0413 19:12:07.747865 15616 net.cpp:157] Top shape: 1 256 (256)
I0413 19:12:07.747871 15616 net.cpp:165] Memory required for data: 3647766796
I0413 19:12:07.747877 15616 layer_factory.hpp:77] Creating layer drop8
I0413 19:12:07.747889 15616 net.cpp:100] Creating Layer drop8
I0413 19:12:07.747896 15616 net.cpp:434] drop8 <- feat
I0413 19:12:07.747907 15616 net.cpp:395] drop8 -> feat (in-place)
I0413 19:12:07.747937 15616 net.cpp:150] Setting up drop8
I0413 19:12:07.747949 15616 net.cpp:157] Top shape: 1 256 (256)
I0413 19:12:07.747956 15616 net.cpp:165] Memory required for data: 3647767820
I0413 19:12:07.747962 15616 layer_factory.hpp:77] Creating layer pid_score
I0413 19:12:07.747975 15616 net.cpp:100] Creating Layer pid_score
I0413 19:12:07.747983 15616 net.cpp:434] pid_score <- feat
I0413 19:12:07.747997 15616 net.cpp:408] pid_score -> pid_score
I0413 19:12:07.763434 15616 net.cpp:150] Setting up pid_score
I0413 19:12:07.763469 15616 net.cpp:157] Top shape: 1 5533 (5533)
I0413 19:12:07.763475 15616 net.cpp:165] Memory required for data: 3647789952
I0413 19:12:07.763491 15616 layer_factory.hpp:77] Creating layer pid_accuracy
I0413 19:12:07.763506 15616 net.cpp:100] Creating Layer pid_accuracy
I0413 19:12:07.763607 15616 net.cpp:434] pid_accuracy <- pid_score
I0413 19:12:07.763618 15616 net.cpp:434] pid_accuracy <- pid_label
I0413 19:12:07.763631 15616 net.cpp:408] pid_accuracy -> pid_accuracy
…
