…
I0413 18:15:07.214591 12709 solver.cpp:48] Initializing solver from parameters: 
base_lr: 0.001
display: 20
lr_policy: "multistep"
gamma: 0.1
momentum: 0.9
weight_decay: 0.0005
snapshot: 0
snapshot_prefix: "faces_example"
net_param {
  name: "GeneratedModel_13_04_2017_18_15"
  layer {
    name: "input"
    type: "Python"
    top: "input_data"
    top: "input_im_info"
    top: "input_gt_boxes"
    top: "input_ignored_boxes"
    python_param {
      module: "layers.roi_data_layer"
      layer: "RoIDataLayer"
      param_str: "{\"num_classes\": 2}"
    }
  }
  layer {
    name: "conv1_1"
    type: "Convolution"
    bottom: "input_data"
    top: "conv1_1"
    param {
      lr_mult: 0
      decay_mult: 0
    }
    param {
      lr_mult: 0
      decay_mult: 0
    }
    convolution_param {
      num_output: 64
      pad: 1
      kernel_size: 3
    }
  }
  layer {
    name: "relu1_1"
    type: "ReLU"
    bottom: "conv1_1"
    top: "conv1_1"
  }
  layer {
    name: "conv1_2"
    type: "Convolution"
    bottom: "conv1_1"
    top: "conv1_2"
    param {
      lr_mult: 0
      decay_mult: 0
    }
    param {
      lr_mult: 0
      decay_mult: 0
    }
    convolution_param {
      num_output: 64
      pad: 1
      kernel_size: 3
    }
  }
  layer {
    name: "relu1_2"
    type: "ReLU"
    bottom: "conv1_2"
    top: "conv1_2"
  }
  layer {
    name: "pool1"
    type: "Pooling"
    bottom: "conv1_2"
    top: "pool1"
    pooling_param {
      pool: MAX
      kernel_size: 2
      stride: 2
    }
  }
  layer {
    name: "conv2_1"
    type: "Convolution"
    bottom: "pool1"
    top: "conv2_1"
    param {
      lr_mult: 0
      decay_mult: 0
    }
    param {
      lr_mult: 0
      decay_mult: 0
    }
    convolution_param {
      num_output: 128
      pad: 1
      kernel_size: 3
    }
  }
  layer {
    name: "relu2_1"
    type: "ReLU"
    bottom: "conv2_1"
    top: "conv2_1"
  }
  layer {
    name: "conv2_2"
    type: "Convolution"
    bottom: "conv2_1"
    top: "conv2_2"
    param {
      lr_mult: 0
      decay_mult: 0
    }
    param {
      lr_mult: 0
      decay_mult: 0
    }
    convolution_param {
      num_output: 128
      pad: 1
      kernel_size: 3
    }
  }
  layer {
    name: "relu2_2"
    type: "ReLU"
    bottom: "conv2_2"
    top: "conv2_2"
  }
  layer {
    name: "pool2"
    type: "Pooling"
    bottom: "conv2_2"
    top: "pool2"
    pooling_param {
      pool: MAX
      kernel_size: 2
      stride: 2
    }
  }
  layer {
    name: "conv3_1"
    type: "Convolution"
    bottom: "pool2"
    top: "conv3_1"
    param {
      lr_mult: 1
    }
    param {
      lr_mult: 2
    }
    convolution_param {
      num_output: 256
      pad: 1
      kernel_size: 3
    }
  }
  layer {
    name: "relu3_1"
    type: "ReLU"
    bottom: "conv3_1"
    top: "conv3_1"
  }
  layer {
    name: "conv3_2"
    type: "Convolution"
    bottom: "conv3_1"
    top: "conv3_2"
    param {
      lr_mult: 1
    }
    param {
      lr_mult: 2
    }
    convolution_param {
      num_output: 256
      pad: 1
      kernel_size: 3
    }
  }
  layer {
    name: "relu3_2"
    type: "ReLU"
    bottom: "conv3_2"
    top: "conv3_2"
  }
  layer {
    name: "conv3_3"
    type: "Convolution"
    bottom: "conv3_2"
    top: "conv3_3"
    param {
      lr_mult: 1
    }
    param {
      lr_mult: 2
    }
    convolution_param {
      num_output: 256
      pad: 1
      kernel_size: 3
    }
  }
  layer {
    name: "relu3_3"
    type: "ReLU"
    bottom: "conv3_3"
    top: "conv3_3"
  }
  layer {
    name: "pool3"
    type: "Pooling"
    bottom: "conv3_3"
    top: "pool3"
    pooling_param {
      pool: MAX
      kernel_size: 2
      stride: 2
    }
  }
  layer {
    name: "conv4_1"
    type: "Convolution"
    bottom: "pool3"
    top: "conv4_1"
    param {
      lr_mult: 1
    }
    param {
      lr_mult: 2
    }
    convolution_param {
      num_output: 512
      pad: 1
      kernel_size: 3
    }
  }
  layer {
    name: "relu4_1"
    type: "ReLU"
    bottom: "conv4_1"
    top: "conv4_1"
  }
  layer {
    name: "conv4_2"
    type: "Convolution"
    bottom: "conv4_1"
    top: "conv4_2"
    param {
      lr_mult: 1
    }
    param {
      lr_mult: 2
    }
    convolution_param {
      num_output: 512
      pad: 1
      kernel_size: 3
    }
  }
  layer {
    name: "relu4_2"
    type: "ReLU"
    bottom: "conv4_2"
    top: "conv4_2"
  }
  layer {
    name: "conv4_3"
    type: "Convolution"
    bottom: "conv4_2"
    top: "conv4_3"
    param {
      lr_mult: 1
    }
    param {
      lr_mult: 2
    }
    convolution_param {
      num_output: 512
      pad: 1
      kernel_size: 3
    }
  }
  layer {
    name: "relu4_3"
    type: "ReLU"
    bottom: "conv4_3"
    top: "conv4_3"
  }
  layer {
    name: "pool4"
    type: "Pooling"
    bottom: "conv4_3"
    top: "pool4"
    pooling_param {
      pool: MAX
      kernel_size: 2
      stride: 2
    }
  }
  layer {
    name: "conv5_1"
    type: "Convolution"
    bottom: "pool4"
    top: "conv5_1"
    param {
      lr_mult: 1
    }
    param {
      lr_mult: 2
    }
    convolution_param {
      num_output: 512
      pad: 1
      kernel_size: 3
    }
  }
  layer {
    name: "relu5_1"
    type: "ReLU"
    bottom: "conv5_1"
    top: "conv5_1"
  }
  layer {
    name: "conv5_2"
    type: "Convolution"
    bottom: "conv5_1"
    top: "conv5_2"
    param {
      lr_mult: 1
    }
    param {
      lr_mult: 2
    }
    convolution_param {
      num_output: 512
      pad: 1
      kernel_size: 3
    }
  }
  layer {
    name: "relu5_2"
    type: "ReLU"
    bottom: "conv5_2"
    top: "conv5_2"
  }
  layer {
    name: "conv5_3"
    type: "Convolution"
    bottom: "conv5_2"
    top: "conv5_3"
    param {
      lr_mult: 1
    }
    param {
      lr_mult: 2
    }
    convolution_param {
      num_output: 512
      pad: 1
      kernel_size: 3
    }
  }
  layer {
    name: "relu5_3"
    type: "ReLU"
    bottom: "conv5_3"
    top: "conv5_3"
  }
  layer {
    name: "rpn_big_conv1"
    type: "Convolution"
    bottom: "conv5_3"
    top: "rpn_big_conv1"
    param {
      lr_mult: 1
    }
    param {
      lr_mult: 2
    }
    convolution_param {
      num_output: 512
      pad: 1
      kernel_size: 3
      stride: 1
      weight_filler {
        type: "gaussian"
        mean: 0
        std: 0.01
      }
      bias_filler {
        type: "constant"
      }
    }
  }
  layer {
    name: "rpn_big_conv1_relu"
    type: "ReLU"
    bottom: "rpn_big_conv1"
    top: "rpn_big_conv1"
    relu_param {
      negative_slope: 0
    }
  }
  layer {
    name: "rpn_big_conv2"
    type: "Convolution"
    bottom: "rpn_big_conv1"
    top: "rpn_big_conv2"
    param {
      lr_mult: 1
    }
    param {
      lr_mult: 2
    }
    convolution_param {
      num_output: 512
      pad: 1
      kernel_size: 3
      stride: 1
      weight_filler {
        type: "gaussian"
        mean: 0
        std: 0.01
      }
      bias_filler {
        type: "constant"
      }
    }
  }
  layer {
    name: "rpn_big_conv2_relu"
    type: "ReLU"
    bottom: "rpn_big_conv2"
    top: "rpn_big_conv2"
    relu_param {
      negative_slope: 0
    }
  }
  layer {
    name: "rpn_big_conv2_drop"
    type: "Dropout"
    bottom: "rpn_big_conv2"
    top: "rpn_big_conv2"
    dropout_param {
      dropout_ratio: 0.3
    }
  }
  layer {
    name: "rpn_big_output_cls"
    type: "Convolution"
    bottom: "rpn_big_conv2"
    top: "rpn_big_output_cls"
    param {
      lr_mult: 1
    }
    param {
      lr_mult: 2
    }
    convolution_param {
      num_output: 384
      pad: 1
      kernel_size: 3
      stride: 1
      weight_filler {
        type: "gaussian"
        mean: 0
        std: 0.01
      }
      bias_filler {
        type: "constant"
      }
    }
  }
  layer {
    name: "rpn_big_output_cls_relu"
    type: "ReLU"
    bottom: "rpn_big_output_cls"
    top: "rpn_big_output_cls"
    relu_param {
      negative_slope: 0
    }
  }
  layer {
    name: "rpn_big_cls_score"
    type: "Convolution"
    bottom: "rpn_big_output_cls"
    top: "rpn_big_cls_score"
    param {
      lr_mult: 1
    }
    param {
      lr_mult: 2
    }
    convolution_param {
      num_output: 52
      pad: 0
      kernel_size: 3
      stride: 1
      weight_filler {
        type: "gaussian"
        mean: 0
        std: 0.01
      }
      bias_filler {
        type: "constant"
      }
    }
  }
  layer {
    name: "rpn_big_cls_score_reshape"
    type: "Reshape"
    bottom: "rpn_big_cls_score"
    top: "rpn_big_cls_score_reshape"
    reshape_param {
      shape {
        dim: 0
        dim: 2
        dim: -1
        dim: 0
      }
    }
  }
  layer {
    name: "rpn_big_cls_prob"
    type: "Softmax"
    bottom: "rpn_big_cls_score_reshape"
    top: "rpn_big_cls_prob"
  }
  layer {
    name: "rpn_big_cls_prob_reshape"
    type: "Reshape"
    bottom: "rpn_big_cls_prob"
    top: "rpn_big_cls_prob_reshape"
    reshape_param {
      shape {
        dim: 0
        dim: 52
        dim: -1
        dim: 0
      }
    }
  }
  layer {
    name: "rpn_big_anchor_target"
    type: "Python"
    bottom: "rpn_big_cls_score"
    bottom: "input_gt_boxes"
    bottom: "input_ignored_boxes"
    bottom: "input_im_info"
    bottom: "input_data"
    bottom: "rpn_big_cls_prob_reshape"
    top: "rpn_big_anchor_target_labels"
    top: "rpn_big_anchor_target_bbox_targets"
    top: "rpn_big_anchor_target_inside_weights"
    top: "rpn_big_anchor_target_outside_weights"
    python_param {
      module: "rpn.anchor_target_layer"
      layer: "AnchorTargetLayer"
      param_str: "{\"anchor_ratios\": [1.0], \"tn_fraction\": 0.2, \"name\": \"rpn_big\", \"anchor_shift_num_xy\": [[2, 2], [2, 2], [2, 2], [2, 2], [1, 1], [1, 1], [1, 1], [1, 1], [1, 1], [1, 1], [1, 1], [1, 1], [1, 1], [1, 1]], \"negative_overlap\": 0.4, \"positive_overlap\": 0.6, \"feat_stride\": 16, \"anchor_scales\": [2.5, 3.025, 3.66025, 4.4289024999999995, 5.358972025, 6.484356150249999, 7.846070941802498, 9.493745839581022, 11.487432465893036, 13.899793283730574, 16.818749873313998, 20.350687346709933, 24.62433168951902, 29.795441344318014], \"square_targets\": true, \"batchsize\": 256, \"num_classes\": 1, \"fg_fraction\": 0.5}"
    }
  }
  layer {
    name: "rpn_big_loss_cls"
    type: "SoftmaxWithLoss"
    bottom: "rpn_big_cls_score_reshape"
    bottom: "rpn_big_anchor_target_labels"
    top: "rpn_big_loss_cls"
    loss_weight: 1
    propagate_down: true
    propagate_down: false
    loss_param {
      ignore_label: -1
      normalization: VALID
    }
  }
  layer {
    name: "rpn_big_output_box"
    type: "Convolution"
    bottom: "rpn_big_conv2"
    top: "rpn_big_output_box"
    param {
      lr_mult: 1
    }
    param {
      lr_mult: 2
    }
    convolution_param {
      num_output: 384
      pad: 1
      kernel_size: 3
      stride: 1
      weight_filler {
        type: "gaussian"
        mean: 0
        std: 0.01
      }
      bias_filler {
        type: "constant"
      }
    }
  }
  layer {
    name: "rpn_big_output_box_relu"
    type: "ReLU"
    bottom: "rpn_big_output_box"
    top: "rpn_big_output_box"
    relu_param {
      negative_slope: 0
    }
  }
  layer {
    name: "rpn_big_bbox_pred"
    type: "Convolution"
    bottom: "rpn_big_output_box"
    top: "rpn_big_bbox_pred"
    param {
      lr_mult: 1
    }
    param {
      lr_mult: 2
    }
    convolution_param {
      num_output: 104
      pad: 0
      kernel_size: 3
      stride: 1
      weight_filler {
        type: "gaussian"
        mean: 0
        std: 0.01
      }
      bias_filler {
        type: "constant"
      }
    }
  }
  layer {
    name: "rpn_big_loss_bbox"
    type: "Python"
    bottom: "rpn_big_bbox_pred"
    bottom: "rpn_big_anchor_target_bbox_targets"
    bottom: "rpn_big_anchor_target_inside_weights"
    bottom: "rpn_big_anchor_target_outside_weights"
    top: "rpn_big_loss_bbox"
    loss_weight: 1
    python_param {
      module: "layers.smooth_l1_loss"
      layer: "SmoothL1LossLayer"
      param_str: "{\"sigma\": 3}"
    }
  }
  layer {
    name: "proposal"
    type: "Python"
    bottom: "rpn_big_cls_prob_reshape"
    bottom: "rpn_big_bbox_pred"
    bottom: "input_im_info"
    top: "rpn_rois"
    python_param {
      module: "rpn.proposal_layer"
      layer: "ProposalLayer"
      param_str: "{\"anchor_shift_num_xy\": [[2, 2], [2, 2], [2, 2], [2, 2], [1, 1], [1, 1], [1, 1], [1, 1], [1, 1], [1, 1], [1, 1], [1, 1], [1, 1], [1, 1]], \"feat_stride\": 16, \"num_classes\": 1, \"anchor_scales\": [2.5, 3.025, 3.66025, 4.4289024999999995, 5.358972025, 6.484356150249999, 7.846070941802498, 9.493745839581022, 11.487432465893036, 13.899793283730574, 16.818749873313998, 20.350687346709933, 24.62433168951902, 29.795441344318014], \"square_targets\": true, \"name\": \"rpn_big\", \"batchsize\": 256, \"anchor_ratios\": [1.0]}"
    }
  }
  layer {
    name: "roi-data"
    type: "Python"
    bottom: "rpn_rois"
    bottom: "input_gt_boxes"
    top: "rois"
    top: "labels"
    top: "bbox_targets"
    top: "bbox_inside_weights"
    top: "bbox_outside_weights"
    top: "pid_label"
    python_param {
      module: "rpn.proposal_target_layer"
      layer: "ProposalTargetLayer"
      param_str: "{\"num_classes\": 2, \"bg_aux_label\": 5532}"
    }
  }
  layer {
    name: "roi-pool"
    type: "ROIPooling"
    bottom: "conv5_3"
    bottom: "rois"
    top: "roi-pool"
    roi_pooling_param {
      pooled_h: 7
      pooled_w: 7
      spatial_scale: 0.0625
    }
  }
  layer {
    name: "fc6"
    type: "InnerProduct"
    bottom: "roi-pool"
    top: "fc6"
    param {
      lr_mult: 1
    }
    param {
      lr_mult: 2
    }
    inner_product_param {
      num_output: 4096
    }
  }
  layer {
    name: "relu6"
    type: "ReLU"
    bottom: "fc6"
    top: "fc6"
  }
  layer {
    name: "drop6"
    type: "Dropout"
    bottom: "fc6"
    top: "fc6"
    dropout_param {
      dropout_ratio: 0.5
    }
  }
  layer {
    name: "fc7"
    type: "InnerProduct"
    bottom: "fc6"
    top: "fc7"
    param {
      lr_mult: 1
    }
    param {
      lr_mult: 2
    }
    inner_product_param {
      num_output: 4096
    }
  }
  layer {
    name: "relu7"
    type: "ReLU"
    bottom: "fc7"
    top: "fc7"
  }
  layer {
    name: "drop7"
    type: "Dropout"
    bottom: "fc7"
    top: "fc7"
    dropout_param {
      dropout_ratio: 0.5
    }
  }
  layer {
    name: "bbox_pred"
    type: "InnerProduct"
    bottom: "fc7"
    top: "bbox_pred"
    param {
      lr_mult: 1
    }
    param {
      lr_mult: 2
    }
    inner_product_param {
      num_output: 0
      weight_filler {
        type: "gaussian"
        std: 0.001
      }
      bias_filler {
        type: "constant"
        value: 0
      }
    }
  }
}
average_loss: 100
stepvalue: 70000
stepvalue: 120000
iter_size: 2
I0413 18:15:07.214716 12709 solver.cpp:86] Creating training net specified in net_param.
I0413 18:15:07.215420 12709 net.cpp:58] Initializing net from parameters: 
name: "GeneratedModel_13_04_2017_18_15"
state {
  phase: TRAIN
}
layer {
  name: "input"
  type: "Python"
  top: "input_data"
  top: "input_im_info"
  top: "input_gt_boxes"
  top: "input_ignored_boxes"
  python_param {
    module: "layers.roi_data_layer"
    layer: "RoIDataLayer"
    param_str: "{\"num_classes\": 2}"
  }
}
layer {
  name: "conv1_1"
  type: "Convolution"
  bottom: "input_data"
  top: "conv1_1"
  param {
    lr_mult: 0
    decay_mult: 0
  }
  param {
    lr_mult: 0
    decay_mult: 0
  }
  convolution_param {
    num_output: 64
    pad: 1
    kernel_size: 3
  }
}
layer {
  name: "relu1_1"
  type: "ReLU"
  bottom: "conv1_1"
  top: "conv1_1"
}
layer {
  name: "conv1_2"
  type: "Convolution"
  bottom: "conv1_1"
  top: "conv1_2"
  param {
    lr_mult: 0
    decay_mult: 0
  }
  param {
    lr_mult: 0
    decay_mult: 0
  }
  convolution_param {
    num_output: 64
    pad: 1
    kernel_size: 3
  }
}
layer {
  name: "relu1_2"
  type: "ReLU"
  bottom: "conv1_2"
  top: "conv1_2"
}
layer {
  name: "pool1"
  type: "Pooling"
  bottom: "conv1_2"
  top: "pool1"
  pooling_param {
    pool: MAX
    kernel_size: 2
    stride: 2
  }
}
layer {
  name: "conv2_1"
  type: "Convolution"
  bottom: "pool1"
  top: "conv2_1"
  param {
    lr_mult: 0
    decay_mult: 0
  }
  param {
    lr_mult: 0
    decay_mult: 0
  }
  convolution_param {
    num_output: 128
    pad: 1
    kernel_size: 3
  }
}
layer {
  name: "relu2_1"
  type: "ReLU"
  bottom: "conv2_1"
  top: "conv2_1"
}
layer {
  name: "conv2_2"
  type: "Convolution"
  bottom: "conv2_1"
  top: "conv2_2"
  param {
    lr_mult: 0
    decay_mult: 0
  }
  param {
    lr_mult: 0
    decay_mult: 0
  }
  convolution_param {
    num_output: 128
    pad: 1
    kernel_size: 3
  }
}
layer {
  name: "relu2_2"
  type: "ReLU"
  bottom: "conv2_2"
  top: "conv2_2"
}
layer {
  name: "pool2"
  type: "Pooling"
  bottom: "conv2_2"
  top: "pool2"
  pooling_param {
    pool: MAX
    kernel_size: 2
    stride: 2
  }
}
layer {
  name: "conv3_1"
  type: "Convolution"
  bottom: "pool2"
  top: "conv3_1"
  param {
    lr_mult: 1
  }
  param {
    lr_mult: 2
  }
  convolution_param {
    num_output: 256
    pad: 1
    kernel_size: 3
  }
}
layer {
  name: "relu3_1"
  type: "ReLU"
  bottom: "conv3_1"
  top: "conv3_1"
}
layer {
  name: "conv3_2"
  type: "Convolution"
  bottom: "conv3_1"
  top: "conv3_2"
  param {
    lr_mult: 1
  }
  param {
    lr_mult: 2
  }
  convolution_param {
    num_output: 256
    pad: 1
    kernel_size: 3
  }
}
layer {
  name: "relu3_2"
  type: "ReLU"
  bottom: "conv3_2"
  top: "conv3_2"
}
layer {
  name: "conv3_3"
  type: "Convolution"
  bottom: "conv3_2"
  top: "conv3_3"
  param {
    lr_mult: 1
  }
  param {
    lr_mult: 2
  }
  convolution_param {
    num_output: 256
    pad: 1
    kernel_size: 3
  }
}
layer {
  name: "relu3_3"
  type: "ReLU"
  bottom: "conv3_3"
  top: "conv3_3"
}
layer {
  name: "pool3"
  type: "Pooling"
  bottom: "conv3_3"
  top: "pool3"
  pooling_param {
    pool: MAX
    kernel_size: 2
    stride: 2
  }
}
layer {
  name: "conv4_1"
  type: "Convolution"
  bottom: "pool3"
  top: "conv4_1"
  param {
    lr_mult: 1
  }
  param {
    lr_mult: 2
  }
  convolution_param {
    num_output: 512
    pad: 1
    kernel_size: 3
  }
}
layer {
  name: "relu4_1"
  type: "ReLU"
  bottom: "conv4_1"
  top: "conv4_1"
}
layer {
  name: "conv4_2"
  type: "Convolution"
  bottom: "conv4_1"
  top: "conv4_2"
  param {
    lr_mult: 1
  }
  param {
    lr_mult: 2
  }
  convolution_param {
    num_output: 512
    pad: 1
    kernel_size: 3
  }
}
layer {
  name: "relu4_2"
  type: "ReLU"
  bottom: "conv4_2"
  top: "conv4_2"
}
layer {
  name: "conv4_3"
  type: "Convolution"
  bottom: "conv4_2"
  top: "conv4_3"
  param {
    lr_mult: 1
  }
  param {
    lr_mult: 2
  }
  convolution_param {
    num_output: 512
    pad: 1
    kernel_size: 3
  }
}
layer {
  name: "relu4_3"
  type: "ReLU"
  bottom: "conv4_3"
  top: "conv4_3"
}
layer {
  name: "pool4"
  type: "Pooling"
  bottom: "conv4_3"
  top: "pool4"
  pooling_param {
    pool: MAX
    kernel_size: 2
    stride: 2
  }
}
layer {
  name: "conv5_1"
  type: "Convolution"
  bottom: "pool4"
  top: "conv5_1"
  param {
    lr_mult: 1
  }
  param {
    lr_mult: 2
  }
  convolution_param {
    num_output: 512
    pad: 1
    kernel_size: 3
  }
}
layer {
  name: "relu5_1"
  type: "ReLU"
  bottom: "conv5_1"
  top: "conv5_1"
}
layer {
  name: "conv5_2"
  type: "Convolution"
  bottom: "conv5_1"
  top: "conv5_2"
  param {
    lr_mult: 1
  }
  param {
    lr_mult: 2
  }
  convolution_param {
    num_output: 512
    pad: 1
    kernel_size: 3
  }
}
layer {
  name: "relu5_2"
  type: "ReLU"
  bottom: "conv5_2"
  top: "conv5_2"
}
layer {
  name: "conv5_3"
  type: "Convolution"
  bottom: "conv5_2"
  top: "conv5_3"
  param {
    lr_mult: 1
  }
  param {
    lr_mult: 2
  }
  convolution_param {
    num_output: 512
    pad: 1
    kernel_size: 3
  }
}
layer {
  name: "relu5_3"
  type: "ReLU"
  bottom: "conv5_3"
  top: "conv5_3"
}
layer {
  name: "rpn_big_conv1"
  type: "Convolution"
  bottom: "conv5_3"
  top: "rpn_big_conv1"
  param {
    lr_mult: 1
  }
  param {
    lr_mult: 2
  }
  convolution_param {
    num_output: 512
    pad: 1
    kernel_size: 3
    stride: 1
    weight_filler {
      type: "gaussian"
      mean: 0
      std: 0.01
    }
    bias_filler {
      type: "constant"
    }
  }
}
layer {
  name: "rpn_big_conv1_relu"
  type: "ReLU"
  bottom: "rpn_big_conv1"
  top: "rpn_big_conv1"
  relu_param {
    negative_slope: 0
  }
}
layer {
  name: "rpn_big_conv2"
  type: "Convolution"
  bottom: "rpn_big_conv1"
  top: "rpn_big_conv2"
  param {
    lr_mult: 1
  }
  param {
    lr_mult: 2
  }
  convolution_param {
    num_output: 512
    pad: 1
    kernel_size: 3
    stride: 1
    weight_filler {
      type: "gaussian"
      mean: 0
      std: 0.01
    }
    bias_filler {
      type: "constant"
    }
  }
}
layer {
  name: "rpn_big_conv2_relu"
  type: "ReLU"
  bottom: "rpn_big_conv2"
  top: "rpn_big_conv2"
  relu_param {
    negative_slope: 0
  }
}
layer {
  name: "rpn_big_conv2_drop"
  type: "Dropout"
  bottom: "rpn_big_conv2"
  top: "rpn_big_conv2"
  dropout_param {
    dropout_ratio: 0.3
  }
}
layer {
  name: "rpn_big_output_cls"
  type: "Convolution"
  bottom: "rpn_big_conv2"
  top: "rpn_big_output_cls"
  param {
    lr_mult: 1
  }
  param {
    lr_mult: 2
  }
  convolution_param {
    num_output: 384
    pad: 1
    kernel_size: 3
    stride: 1
    weight_filler {
      type: "gaussian"
      mean: 0
      std: 0.01
    }
    bias_filler {
      type: "constant"
    }
  }
}
layer {
  name: "rpn_big_output_cls_relu"
  type: "ReLU"
  bottom: "rpn_big_output_cls"
  top: "rpn_big_output_cls"
  relu_param {
    negative_slope: 0
  }
}
layer {
  name: "rpn_big_cls_score"
  type: "Convolution"
  bottom: "rpn_big_output_cls"
  top: "rpn_big_cls_score"
  param {
    lr_mult: 1
  }
  param {
    lr_mult: 2
  }
  convolution_param {
    num_output: 52
    pad: 0
    kernel_size: 3
    stride: 1
    weight_filler {
      type: "gaussian"
      mean: 0
      std: 0.01
    }
    bias_filler {
      type: "constant"
    }
  }
}
layer {
  name: "rpn_big_cls_score_reshape"
  type: "Reshape"
  bottom: "rpn_big_cls_score"
  top: "rpn_big_cls_score_reshape"
  reshape_param {
    shape {
      dim: 0
      dim: 2
      dim: -1
      dim: 0
    }
  }
}
layer {
  name: "rpn_big_cls_prob"
  type: "Softmax"
  bottom: "rpn_big_cls_score_reshape"
  top: "rpn_big_cls_prob"
}
layer {
  name: "rpn_big_cls_prob_reshape"
  type: "Reshape"
  bottom: "rpn_big_cls_prob"
  top: "rpn_big_cls_prob_reshape"
  reshape_param {
    shape {
      dim: 0
      dim: 52
      dim: -1
      dim: 0
    }
  }
}
layer {
  name: "rpn_big_anchor_target"
  type: "Python"
  bottom: "rpn_big_cls_score"
  bottom: "input_gt_boxes"
  bottom: "input_ignored_boxes"
  bottom: "input_im_info"
  bottom: "input_data"
  bottom: "rpn_big_cls_prob_reshape"
  top: "rpn_big_anchor_target_labels"
  top: "rpn_big_anchor_target_bbox_targets"
  top: "rpn_big_anchor_target_inside_weights"
  top: "rpn_big_anchor_target_outside_weights"
  python_param {
    module: "rpn.anchor_target_layer"
    layer: "AnchorTargetLayer"
    param_str: "{\"anchor_ratios\": [1.0], \"tn_fraction\": 0.2, \"name\": \"rpn_big\", \"anchor_shift_num_xy\": [[2, 2], [2, 2], [2, 2], [2, 2], [1, 1], [1, 1], [1, 1], [1, 1], [1, 1], [1, 1], [1, 1], [1, 1], [1, 1], [1, 1]], \"negative_overlap\": 0.4, \"positive_overlap\": 0.6, \"feat_stride\": 16, \"anchor_scales\": [2.5, 3.025, 3.66025, 4.4289024999999995, 5.358972025, 6.484356150249999, 7.846070941802498, 9.493745839581022, 11.487432465893036, 13.899793283730574, 16.818749873313998, 20.350687346709933, 24.62433168951902, 29.795441344318014], \"square_targets\": true, \"batchsize\": 256, \"num_classes\": 1, \"fg_fraction\": 0.5}"
  }
}
layer {
  name: "rpn_big_loss_cls"
  type: "SoftmaxWithLoss"
  bottom: "rpn_big_cls_score_reshape"
  bottom: "rpn_big_anchor_target_labels"
  top: "rpn_big_loss_cls"
  loss_weight: 1
  propagate_down: true
  propagate_down: false
  loss_param {
    ignore_label: -1
    normalization: VALID
  }
}
layer {
  name: "rpn_big_output_box"
  type: "Convolution"
  bottom: "rpn_big_conv2"
  top: "rpn_big_output_box"
  param {
    lr_mult: 1
  }
  param {
    lr_mult: 2
  }
  convolution_param {
    num_output: 384
    pad: 1
    kernel_size: 3
    stride: 1
    weight_filler {
      type: "gaussian"
      mean: 0
      std: 0.01
    }
    bias_filler {
      type: "constant"
    }
  }
}
layer {
  name: "rpn_big_output_box_relu"
  type: "ReLU"
  bottom: "rpn_big_output_box"
  top: "rpn_big_output_box"
  relu_param {
    negative_slope: 0
  }
}
layer {
  name: "rpn_big_bbox_pred"
  type: "Convolution"
  bottom: "rpn_big_output_box"
  top: "rpn_big_bbox_pred"
  param {
    lr_mult: 1
  }
  param {
    lr_mult: 2
  }
  convolution_param {
    num_output: 104
    pad: 0
    kernel_size: 3
    stride: 1
    weight_filler {
      type: "gaussian"
      mean: 0
      std: 0.01
    }
    bias_filler {
      type: "constant"
    }
  }
}
layer {
  name: "rpn_big_loss_bbox"
  type: "Python"
  bottom: "rpn_big_bbox_pred"
  bottom: "rpn_big_anchor_target_bbox_targets"
  bottom: "rpn_big_anchor_target_inside_weights"
  bottom: "rpn_big_anchor_target_outside_weights"
  top: "rpn_big_loss_bbox"
  loss_weight: 1
  python_param {
    module: "layers.smooth_l1_loss"
    layer: "SmoothL1LossLayer"
    param_str: "{\"sigma\": 3}"
  }
}
layer {
  name: "proposal"
  type: "Python"
  bottom: "rpn_big_cls_prob_reshape"
  bottom: "rpn_big_bbox_pred"
  bottom: "input_im_info"
  top: "rpn_rois"
  python_param {
    module: "rpn.proposal_layer"
    layer: "ProposalLayer"
    param_str: "{\"anchor_shift_num_xy\": [[2, 2], [2, 2], [2, 2], [2, 2], [1, 1], [1, 1], [1, 1], [1, 1], [1, 1], [1, 1], [1, 1], [1, 1], [1, 1], [1, 1]], \"feat_stride\": 16, \"num_classes\": 1, \"anchor_scales\": [2.5, 3.025, 3.66025, 4.4289024999999995, 5.358972025, 6.484356150249999, 7.846070941802498, 9.493745839581022, 11.487432465893036, 13.899793283730574, 16.818749873313998, 20.350687346709933, 24.62433168951902, 29.795441344318014], \"square_targets\": true, \"name\": \"rpn_big\", \"batchsize\": 256, \"anchor_ratios\": [1.0]}"
  }
}
layer {
  name: "roi-data"
  type: "Python"
  bottom: "rpn_rois"
  bottom: "input_gt_boxes"
  top: "rois"
  top: "labels"
  top: "bbox_targets"
  top: "bbox_inside_weights"
  top: "bbox_outside_weights"
  top: "pid_label"
  python_param {
    module: "rpn.proposal_target_layer"
    layer: "ProposalTargetLayer"
    param_str: "{\"num_classes\": 2, \"bg_aux_label\": 5532}"
  }
}
layer {
  name: "roi-pool"
  type: "ROIPooling"
  bottom: "conv5_3"
  bottom: "rois"
  top: "roi-pool"
  roi_pooling_param {
    pooled_h: 7
    pooled_w: 7
    spatial_scale: 0.0625
  }
}
layer {
  name: "fc6"
  type: "InnerProduct"
  bottom: "roi-pool"
  top: "fc6"
  param {
    lr_mult: 1
  }
  param {
    lr_mult: 2
  }
  inner_product_param {
    num_output: 4096
  }
}
layer {
  name: "relu6"
  type: "ReLU"
  bottom: "fc6"
  top: "fc6"
}
layer {
  name: "drop6"
  type: "Dropout"
  bottom: "fc6"
  top: "fc6"
  dropout_param {
    dropout_ratio: 0.5
  }
}
layer {
  name: "fc7"
  type: "InnerProduct"
  bottom: "fc6"
  top: "fc7"
  param {
    lr_mult: 1
  }
  param {
    lr_mult: 2
  }
  inner_product_param {
    num_output: 4096
  }
}
layer {
  name: "relu7"
  type: "ReLU"
  bottom: "fc7"
  top: "fc7"
}
layer {
  name: "drop7"
  type: "Dropout"
  bottom: "fc7"
  top: "fc7"
  dropout_param {
    dropout_ratio: 0.5
  }
}
layer {
  name: "bbox_pred"
  type: "InnerProduct"
  bottom: "fc7"
  top: "bbox_pred"
  param {
    lr_mult: 1
  }
  param {
    lr_mult: 2
  }
  inner_product_param {
    num_output: 0
    weight_filler {
      type: "gaussian"
      std: 0.001
    }
    bias_filler {
      type: "constant"
      value: 0
    }
  }
}
I0413 18:15:07.215791 12709 layer_factory.hpp:77] Creating layer input
I0413 18:15:07.217773 12709 net.cpp:100] Creating Layer input
I0413 18:15:07.217793 12709 net.cpp:408] input -> input_data
I0413 18:15:07.217809 12709 net.cpp:408] input -> input_im_info
I0413 18:15:07.217820 12709 net.cpp:408] input -> input_gt_boxes
I0413 18:15:07.217833 12709 net.cpp:408] input -> input_ignored_boxes
RoiDataLayer: name_to_top: {'data': 0, 'im_info': 1, 'gt_boxes': 2, 'ignored_boxes': 3}
I0413 18:15:07.540241 12709 net.cpp:150] Setting up input
I0413 18:15:07.540266 12709 net.cpp:157] Top shape: 1 3 1000 1500 (4500000)
I0413 18:15:07.540271 12709 net.cpp:157] Top shape: 1 3 (3)
I0413 18:15:07.540274 12709 net.cpp:157] Top shape: 1 5 (5)
I0413 18:15:07.540277 12709 net.cpp:157] Top shape: 1 5 (5)
I0413 18:15:07.540280 12709 net.cpp:165] Memory required for data: 18000052
I0413 18:15:07.540287 12709 layer_factory.hpp:77] Creating layer input_data_input_0_split
I0413 18:15:07.540300 12709 net.cpp:100] Creating Layer input_data_input_0_split
I0413 18:15:07.540304 12709 net.cpp:434] input_data_input_0_split <- input_data
I0413 18:15:07.540313 12709 net.cpp:408] input_data_input_0_split -> input_data_input_0_split_0
I0413 18:15:07.540324 12709 net.cpp:408] input_data_input_0_split -> input_data_input_0_split_1
I0413 18:15:07.540357 12709 net.cpp:150] Setting up input_data_input_0_split
I0413 18:15:07.540364 12709 net.cpp:157] Top shape: 1 3 1000 1500 (4500000)
I0413 18:15:07.540367 12709 net.cpp:157] Top shape: 1 3 1000 1500 (4500000)
I0413 18:15:07.540370 12709 net.cpp:165] Memory required for data: 54000052
I0413 18:15:07.540374 12709 layer_factory.hpp:77] Creating layer input_im_info_input_1_split
I0413 18:15:07.540379 12709 net.cpp:100] Creating Layer input_im_info_input_1_split
I0413 18:15:07.540382 12709 net.cpp:434] input_im_info_input_1_split <- input_im_info
I0413 18:15:07.540388 12709 net.cpp:408] input_im_info_input_1_split -> input_im_info_input_1_split_0
I0413 18:15:07.540395 12709 net.cpp:408] input_im_info_input_1_split -> input_im_info_input_1_split_1
I0413 18:15:07.540421 12709 net.cpp:150] Setting up input_im_info_input_1_split
I0413 18:15:07.540427 12709 net.cpp:157] Top shape: 1 3 (3)
I0413 18:15:07.540431 12709 net.cpp:157] Top shape: 1 3 (3)
I0413 18:15:07.540433 12709 net.cpp:165] Memory required for data: 54000076
I0413 18:15:07.540436 12709 layer_factory.hpp:77] Creating layer input_gt_boxes_input_2_split
I0413 18:15:07.540441 12709 net.cpp:100] Creating Layer input_gt_boxes_input_2_split
I0413 18:15:07.540444 12709 net.cpp:434] input_gt_boxes_input_2_split <- input_gt_boxes
I0413 18:15:07.540449 12709 net.cpp:408] input_gt_boxes_input_2_split -> input_gt_boxes_input_2_split_0
I0413 18:15:07.540457 12709 net.cpp:408] input_gt_boxes_input_2_split -> input_gt_boxes_input_2_split_1
I0413 18:15:07.540484 12709 net.cpp:150] Setting up input_gt_boxes_input_2_split
I0413 18:15:07.540496 12709 net.cpp:157] Top shape: 1 5 (5)
I0413 18:15:07.540500 12709 net.cpp:157] Top shape: 1 5 (5)
I0413 18:15:07.540503 12709 net.cpp:165] Memory required for data: 54000116
I0413 18:15:07.540506 12709 layer_factory.hpp:77] Creating layer conv1_1
I0413 18:15:07.540518 12709 net.cpp:100] Creating Layer conv1_1
I0413 18:15:07.540521 12709 net.cpp:434] conv1_1 <- input_data_input_0_split_0
I0413 18:15:07.540529 12709 net.cpp:408] conv1_1 -> conv1_1
I0413 18:15:07.543530 12709 net.cpp:150] Setting up conv1_1
I0413 18:15:07.543576 12709 net.cpp:157] Top shape: 1 64 1000 1500 (96000000)
I0413 18:15:07.543581 12709 net.cpp:165] Memory required for data: 438000116
I0413 18:15:07.543598 12709 layer_factory.hpp:77] Creating layer relu1_1
I0413 18:15:07.543609 12709 net.cpp:100] Creating Layer relu1_1
I0413 18:15:07.543613 12709 net.cpp:434] relu1_1 <- conv1_1
I0413 18:15:07.543620 12709 net.cpp:395] relu1_1 -> conv1_1 (in-place)
I0413 18:15:07.543632 12709 net.cpp:150] Setting up relu1_1
I0413 18:15:07.543637 12709 net.cpp:157] Top shape: 1 64 1000 1500 (96000000)
I0413 18:15:07.543639 12709 net.cpp:165] Memory required for data: 822000116
I0413 18:15:07.543642 12709 layer_factory.hpp:77] Creating layer conv1_2
I0413 18:15:07.543653 12709 net.cpp:100] Creating Layer conv1_2
I0413 18:15:07.543655 12709 net.cpp:434] conv1_2 <- conv1_1
I0413 18:15:07.543661 12709 net.cpp:408] conv1_2 -> conv1_2
I0413 18:15:07.546888 12709 net.cpp:150] Setting up conv1_2
I0413 18:15:07.546926 12709 net.cpp:157] Top shape: 1 64 1000 1500 (96000000)
I0413 18:15:07.546931 12709 net.cpp:165] Memory required for data: 1206000116
I0413 18:15:07.546948 12709 layer_factory.hpp:77] Creating layer relu1_2
I0413 18:15:07.546960 12709 net.cpp:100] Creating Layer relu1_2
I0413 18:15:07.546967 12709 net.cpp:434] relu1_2 <- conv1_2
I0413 18:15:07.546974 12709 net.cpp:395] relu1_2 -> conv1_2 (in-place)
I0413 18:15:07.546985 12709 net.cpp:150] Setting up relu1_2
I0413 18:15:07.546989 12709 net.cpp:157] Top shape: 1 64 1000 1500 (96000000)
I0413 18:15:07.546993 12709 net.cpp:165] Memory required for data: 1590000116
I0413 18:15:07.546995 12709 layer_factory.hpp:77] Creating layer pool1
I0413 18:15:07.547003 12709 net.cpp:100] Creating Layer pool1
I0413 18:15:07.547006 12709 net.cpp:434] pool1 <- conv1_2
I0413 18:15:07.547013 12709 net.cpp:408] pool1 -> pool1
I0413 18:15:07.547082 12709 net.cpp:150] Setting up pool1
I0413 18:15:07.547091 12709 net.cpp:157] Top shape: 1 64 500 750 (24000000)
I0413 18:15:07.547093 12709 net.cpp:165] Memory required for data: 1686000116
I0413 18:15:07.547096 12709 layer_factory.hpp:77] Creating layer conv2_1
I0413 18:15:07.547108 12709 net.cpp:100] Creating Layer conv2_1
I0413 18:15:07.547111 12709 net.cpp:434] conv2_1 <- pool1
I0413 18:15:07.547117 12709 net.cpp:408] conv2_1 -> conv2_1
I0413 18:15:07.548302 12709 net.cpp:150] Setting up conv2_1
I0413 18:15:07.548326 12709 net.cpp:157] Top shape: 1 128 500 750 (48000000)
I0413 18:15:07.548329 12709 net.cpp:165] Memory required for data: 1878000116
I0413 18:15:07.548351 12709 layer_factory.hpp:77] Creating layer relu2_1
I0413 18:15:07.548358 12709 net.cpp:100] Creating Layer relu2_1
I0413 18:15:07.548362 12709 net.cpp:434] relu2_1 <- conv2_1
I0413 18:15:07.548369 12709 net.cpp:395] relu2_1 -> conv2_1 (in-place)
I0413 18:15:07.548377 12709 net.cpp:150] Setting up relu2_1
I0413 18:15:07.548382 12709 net.cpp:157] Top shape: 1 128 500 750 (48000000)
I0413 18:15:07.548385 12709 net.cpp:165] Memory required for data: 2070000116
I0413 18:15:07.548388 12709 layer_factory.hpp:77] Creating layer conv2_2
I0413 18:15:07.548396 12709 net.cpp:100] Creating Layer conv2_2
I0413 18:15:07.548399 12709 net.cpp:434] conv2_2 <- conv2_1
I0413 18:15:07.548405 12709 net.cpp:408] conv2_2 -> conv2_2
I0413 18:15:07.549373 12709 net.cpp:150] Setting up conv2_2
I0413 18:15:07.549401 12709 net.cpp:157] Top shape: 1 128 500 750 (48000000)
I0413 18:15:07.549406 12709 net.cpp:165] Memory required for data: 2262000116
I0413 18:15:07.549417 12709 layer_factory.hpp:77] Creating layer relu2_2
I0413 18:15:07.549427 12709 net.cpp:100] Creating Layer relu2_2
I0413 18:15:07.549440 12709 net.cpp:434] relu2_2 <- conv2_2
I0413 18:15:07.549448 12709 net.cpp:395] relu2_2 -> conv2_2 (in-place)
I0413 18:15:07.549458 12709 net.cpp:150] Setting up relu2_2
I0413 18:15:07.549463 12709 net.cpp:157] Top shape: 1 128 500 750 (48000000)
I0413 18:15:07.549466 12709 net.cpp:165] Memory required for data: 2454000116
I0413 18:15:07.549469 12709 layer_factory.hpp:77] Creating layer pool2
I0413 18:15:07.549476 12709 net.cpp:100] Creating Layer pool2
I0413 18:15:07.549481 12709 net.cpp:434] pool2 <- conv2_2
I0413 18:15:07.549487 12709 net.cpp:408] pool2 -> pool2
I0413 18:15:07.549540 12709 net.cpp:150] Setting up pool2
I0413 18:15:07.549546 12709 net.cpp:157] Top shape: 1 128 250 375 (12000000)
I0413 18:15:07.549549 12709 net.cpp:165] Memory required for data: 2502000116
I0413 18:15:07.549552 12709 layer_factory.hpp:77] Creating layer conv3_1
I0413 18:15:07.549561 12709 net.cpp:100] Creating Layer conv3_1
I0413 18:15:07.549566 12709 net.cpp:434] conv3_1 <- pool2
I0413 18:15:07.549571 12709 net.cpp:408] conv3_1 -> conv3_1
I0413 18:15:07.550654 12709 net.cpp:150] Setting up conv3_1
I0413 18:15:07.550678 12709 net.cpp:157] Top shape: 1 256 250 375 (24000000)
I0413 18:15:07.550681 12709 net.cpp:165] Memory required for data: 2598000116
I0413 18:15:07.550704 12709 layer_factory.hpp:77] Creating layer relu3_1
I0413 18:15:07.550712 12709 net.cpp:100] Creating Layer relu3_1
I0413 18:15:07.550716 12709 net.cpp:434] relu3_1 <- conv3_1
I0413 18:15:07.550722 12709 net.cpp:395] relu3_1 -> conv3_1 (in-place)
I0413 18:15:07.550729 12709 net.cpp:150] Setting up relu3_1
I0413 18:15:07.550734 12709 net.cpp:157] Top shape: 1 256 250 375 (24000000)
I0413 18:15:07.550737 12709 net.cpp:165] Memory required for data: 2694000116
I0413 18:15:07.550740 12709 layer_factory.hpp:77] Creating layer conv3_2
I0413 18:15:07.550751 12709 net.cpp:100] Creating Layer conv3_2
I0413 18:15:07.550755 12709 net.cpp:434] conv3_2 <- conv3_1
I0413 18:15:07.550760 12709 net.cpp:408] conv3_2 -> conv3_2
I0413 18:15:07.551913 12709 net.cpp:150] Setting up conv3_2
I0413 18:15:07.551939 12709 net.cpp:157] Top shape: 1 256 250 375 (24000000)
I0413 18:15:07.551951 12709 net.cpp:165] Memory required for data: 2790000116
I0413 18:15:07.551961 12709 layer_factory.hpp:77] Creating layer relu3_2
I0413 18:15:07.551970 12709 net.cpp:100] Creating Layer relu3_2
I0413 18:15:07.551973 12709 net.cpp:434] relu3_2 <- conv3_2
I0413 18:15:07.551981 12709 net.cpp:395] relu3_2 -> conv3_2 (in-place)
I0413 18:15:07.551990 12709 net.cpp:150] Setting up relu3_2
I0413 18:15:07.551995 12709 net.cpp:157] Top shape: 1 256 250 375 (24000000)
I0413 18:15:07.551997 12709 net.cpp:165] Memory required for data: 2886000116
I0413 18:15:07.552000 12709 layer_factory.hpp:77] Creating layer conv3_3
I0413 18:15:07.552008 12709 net.cpp:100] Creating Layer conv3_3
I0413 18:15:07.552011 12709 net.cpp:434] conv3_3 <- conv3_2
I0413 18:15:07.552017 12709 net.cpp:408] conv3_3 -> conv3_3
I0413 18:15:07.553586 12709 net.cpp:150] Setting up conv3_3
I0413 18:15:07.553616 12709 net.cpp:157] Top shape: 1 256 250 375 (24000000)
I0413 18:15:07.553628 12709 net.cpp:165] Memory required for data: 2982000116
I0413 18:15:07.553639 12709 layer_factory.hpp:77] Creating layer relu3_3
I0413 18:15:07.553648 12709 net.cpp:100] Creating Layer relu3_3
I0413 18:15:07.553653 12709 net.cpp:434] relu3_3 <- conv3_3
I0413 18:15:07.553661 12709 net.cpp:395] relu3_3 -> conv3_3 (in-place)
I0413 18:15:07.553673 12709 net.cpp:150] Setting up relu3_3
I0413 18:15:07.553676 12709 net.cpp:157] Top shape: 1 256 250 375 (24000000)
I0413 18:15:07.553679 12709 net.cpp:165] Memory required for data: 3078000116
I0413 18:15:07.553683 12709 layer_factory.hpp:77] Creating layer pool3
I0413 18:15:07.553689 12709 net.cpp:100] Creating Layer pool3
I0413 18:15:07.553691 12709 net.cpp:434] pool3 <- conv3_3
I0413 18:15:07.553696 12709 net.cpp:408] pool3 -> pool3
I0413 18:15:07.553740 12709 net.cpp:150] Setting up pool3
I0413 18:15:07.553748 12709 net.cpp:157] Top shape: 1 256 125 188 (6016000)
I0413 18:15:07.553751 12709 net.cpp:165] Memory required for data: 3102064116
I0413 18:15:07.553755 12709 layer_factory.hpp:77] Creating layer conv4_1
I0413 18:15:07.553763 12709 net.cpp:100] Creating Layer conv4_1
I0413 18:15:07.553767 12709 net.cpp:434] conv4_1 <- pool3
I0413 18:15:07.553773 12709 net.cpp:408] conv4_1 -> conv4_1
I0413 18:15:07.556375 12709 net.cpp:150] Setting up conv4_1
I0413 18:15:07.556406 12709 net.cpp:157] Top shape: 1 512 125 188 (12032000)
I0413 18:15:07.556418 12709 net.cpp:165] Memory required for data: 3150192116
I0413 18:15:07.556429 12709 layer_factory.hpp:77] Creating layer relu4_1
I0413 18:15:07.556438 12709 net.cpp:100] Creating Layer relu4_1
I0413 18:15:07.556443 12709 net.cpp:434] relu4_1 <- conv4_1
I0413 18:15:07.556452 12709 net.cpp:395] relu4_1 -> conv4_1 (in-place)
I0413 18:15:07.556462 12709 net.cpp:150] Setting up relu4_1
I0413 18:15:07.556466 12709 net.cpp:157] Top shape: 1 512 125 188 (12032000)
I0413 18:15:07.556468 12709 net.cpp:165] Memory required for data: 3198320116
I0413 18:15:07.556471 12709 layer_factory.hpp:77] Creating layer conv4_2
I0413 18:15:07.556481 12709 net.cpp:100] Creating Layer conv4_2
I0413 18:15:07.556485 12709 net.cpp:434] conv4_2 <- conv4_1
I0413 18:15:07.556490 12709 net.cpp:408] conv4_2 -> conv4_2
I0413 18:15:07.560595 12709 net.cpp:150] Setting up conv4_2
I0413 18:15:07.560636 12709 net.cpp:157] Top shape: 1 512 125 188 (12032000)
I0413 18:15:07.560641 12709 net.cpp:165] Memory required for data: 3246448116
I0413 18:15:07.560657 12709 layer_factory.hpp:77] Creating layer relu4_2
I0413 18:15:07.560667 12709 net.cpp:100] Creating Layer relu4_2
I0413 18:15:07.560672 12709 net.cpp:434] relu4_2 <- conv4_2
I0413 18:15:07.560679 12709 net.cpp:395] relu4_2 -> conv4_2 (in-place)
I0413 18:15:07.560689 12709 net.cpp:150] Setting up relu4_2
I0413 18:15:07.560693 12709 net.cpp:157] Top shape: 1 512 125 188 (12032000)
I0413 18:15:07.560696 12709 net.cpp:165] Memory required for data: 3294576116
I0413 18:15:07.560699 12709 layer_factory.hpp:77] Creating layer conv4_3
I0413 18:15:07.560709 12709 net.cpp:100] Creating Layer conv4_3
I0413 18:15:07.560714 12709 net.cpp:434] conv4_3 <- conv4_2
I0413 18:15:07.560719 12709 net.cpp:408] conv4_3 -> conv4_3
I0413 18:15:07.564959 12709 net.cpp:150] Setting up conv4_3
I0413 18:15:07.564991 12709 net.cpp:157] Top shape: 1 512 125 188 (12032000)
I0413 18:15:07.564996 12709 net.cpp:165] Memory required for data: 3342704116
I0413 18:15:07.565004 12709 layer_factory.hpp:77] Creating layer relu4_3
I0413 18:15:07.565013 12709 net.cpp:100] Creating Layer relu4_3
I0413 18:15:07.565019 12709 net.cpp:434] relu4_3 <- conv4_3
I0413 18:15:07.565027 12709 net.cpp:395] relu4_3 -> conv4_3 (in-place)
I0413 18:15:07.565037 12709 net.cpp:150] Setting up relu4_3
I0413 18:15:07.565042 12709 net.cpp:157] Top shape: 1 512 125 188 (12032000)
I0413 18:15:07.565044 12709 net.cpp:165] Memory required for data: 3390832116
I0413 18:15:07.565047 12709 layer_factory.hpp:77] Creating layer pool4
I0413 18:15:07.565053 12709 net.cpp:100] Creating Layer pool4
I0413 18:15:07.565057 12709 net.cpp:434] pool4 <- conv4_3
I0413 18:15:07.565063 12709 net.cpp:408] pool4 -> pool4
I0413 18:15:07.565099 12709 net.cpp:150] Setting up pool4
I0413 18:15:07.565104 12709 net.cpp:157] Top shape: 1 512 63 94 (3032064)
I0413 18:15:07.565107 12709 net.cpp:165] Memory required for data: 3402960372
I0413 18:15:07.565110 12709 layer_factory.hpp:77] Creating layer conv5_1
I0413 18:15:07.565120 12709 net.cpp:100] Creating Layer conv5_1
I0413 18:15:07.565124 12709 net.cpp:434] conv5_1 <- pool4
I0413 18:15:07.565131 12709 net.cpp:408] conv5_1 -> conv5_1
I0413 18:15:07.570015 12709 net.cpp:150] Setting up conv5_1
I0413 18:15:07.570049 12709 net.cpp:157] Top shape: 1 512 63 94 (3032064)
I0413 18:15:07.570052 12709 net.cpp:165] Memory required for data: 3415088628
I0413 18:15:07.570063 12709 layer_factory.hpp:77] Creating layer relu5_1
I0413 18:15:07.570075 12709 net.cpp:100] Creating Layer relu5_1
I0413 18:15:07.570078 12709 net.cpp:434] relu5_1 <- conv5_1
I0413 18:15:07.570087 12709 net.cpp:395] relu5_1 -> conv5_1 (in-place)
I0413 18:15:07.570098 12709 net.cpp:150] Setting up relu5_1
I0413 18:15:07.570102 12709 net.cpp:157] Top shape: 1 512 63 94 (3032064)
I0413 18:15:07.570106 12709 net.cpp:165] Memory required for data: 3427216884
I0413 18:15:07.570108 12709 layer_factory.hpp:77] Creating layer conv5_2
I0413 18:15:07.570117 12709 net.cpp:100] Creating Layer conv5_2
I0413 18:15:07.570121 12709 net.cpp:434] conv5_2 <- conv5_1
I0413 18:15:07.570127 12709 net.cpp:408] conv5_2 -> conv5_2
I0413 18:15:07.574338 12709 net.cpp:150] Setting up conv5_2
I0413 18:15:07.574375 12709 net.cpp:157] Top shape: 1 512 63 94 (3032064)
I0413 18:15:07.574378 12709 net.cpp:165] Memory required for data: 3439345140
I0413 18:15:07.574389 12709 layer_factory.hpp:77] Creating layer relu5_2
I0413 18:15:07.574398 12709 net.cpp:100] Creating Layer relu5_2
I0413 18:15:07.574404 12709 net.cpp:434] relu5_2 <- conv5_2
I0413 18:15:07.574412 12709 net.cpp:395] relu5_2 -> conv5_2 (in-place)
I0413 18:15:07.574421 12709 net.cpp:150] Setting up relu5_2
I0413 18:15:07.574426 12709 net.cpp:157] Top shape: 1 512 63 94 (3032064)
I0413 18:15:07.574429 12709 net.cpp:165] Memory required for data: 3451473396
I0413 18:15:07.574432 12709 layer_factory.hpp:77] Creating layer conv5_3
I0413 18:15:07.574446 12709 net.cpp:100] Creating Layer conv5_3
I0413 18:15:07.574450 12709 net.cpp:434] conv5_3 <- conv5_2
I0413 18:15:07.574456 12709 net.cpp:408] conv5_3 -> conv5_3
I0413 18:15:07.578721 12709 net.cpp:150] Setting up conv5_3
I0413 18:15:07.578758 12709 net.cpp:157] Top shape: 1 512 63 94 (3032064)
I0413 18:15:07.578770 12709 net.cpp:165] Memory required for data: 3463601652
I0413 18:15:07.578781 12709 layer_factory.hpp:77] Creating layer relu5_3
I0413 18:15:07.578791 12709 net.cpp:100] Creating Layer relu5_3
I0413 18:15:07.578796 12709 net.cpp:434] relu5_3 <- conv5_3
I0413 18:15:07.578804 12709 net.cpp:395] relu5_3 -> conv5_3 (in-place)
I0413 18:15:07.578815 12709 net.cpp:150] Setting up relu5_3
I0413 18:15:07.578819 12709 net.cpp:157] Top shape: 1 512 63 94 (3032064)
I0413 18:15:07.578822 12709 net.cpp:165] Memory required for data: 3475729908
I0413 18:15:07.578825 12709 layer_factory.hpp:77] Creating layer conv5_3_relu5_3_0_split
I0413 18:15:07.578831 12709 net.cpp:100] Creating Layer conv5_3_relu5_3_0_split
I0413 18:15:07.578835 12709 net.cpp:434] conv5_3_relu5_3_0_split <- conv5_3
I0413 18:15:07.578841 12709 net.cpp:408] conv5_3_relu5_3_0_split -> conv5_3_relu5_3_0_split_0
I0413 18:15:07.578850 12709 net.cpp:408] conv5_3_relu5_3_0_split -> conv5_3_relu5_3_0_split_1
I0413 18:15:07.578881 12709 net.cpp:150] Setting up conv5_3_relu5_3_0_split
I0413 18:15:07.578887 12709 net.cpp:157] Top shape: 1 512 63 94 (3032064)
I0413 18:15:07.578891 12709 net.cpp:157] Top shape: 1 512 63 94 (3032064)
I0413 18:15:07.578894 12709 net.cpp:165] Memory required for data: 3499986420
I0413 18:15:07.578897 12709 layer_factory.hpp:77] Creating layer rpn_big_conv1
I0413 18:15:07.578909 12709 net.cpp:100] Creating Layer rpn_big_conv1
I0413 18:15:07.578913 12709 net.cpp:434] rpn_big_conv1 <- conv5_3_relu5_3_0_split_0
I0413 18:15:07.578919 12709 net.cpp:408] rpn_big_conv1 -> rpn_big_conv1
I0413 18:15:07.605916 12709 net.cpp:150] Setting up rpn_big_conv1
I0413 18:15:07.605947 12709 net.cpp:157] Top shape: 1 512 63 94 (3032064)
I0413 18:15:07.605960 12709 net.cpp:165] Memory required for data: 3512114676
I0413 18:15:07.605972 12709 layer_factory.hpp:77] Creating layer rpn_big_conv1_relu
I0413 18:15:07.605983 12709 net.cpp:100] Creating Layer rpn_big_conv1_relu
I0413 18:15:07.605988 12709 net.cpp:434] rpn_big_conv1_relu <- rpn_big_conv1
I0413 18:15:07.605998 12709 net.cpp:395] rpn_big_conv1_relu -> rpn_big_conv1 (in-place)
I0413 18:15:07.606007 12709 net.cpp:150] Setting up rpn_big_conv1_relu
I0413 18:15:07.606012 12709 net.cpp:157] Top shape: 1 512 63 94 (3032064)
I0413 18:15:07.606015 12709 net.cpp:165] Memory required for data: 3524242932
I0413 18:15:07.606017 12709 layer_factory.hpp:77] Creating layer rpn_big_conv2
I0413 18:15:07.606029 12709 net.cpp:100] Creating Layer rpn_big_conv2
I0413 18:15:07.606040 12709 net.cpp:434] rpn_big_conv2 <- rpn_big_conv1
I0413 18:15:07.606046 12709 net.cpp:408] rpn_big_conv2 -> rpn_big_conv2
I0413 18:15:07.630748 12709 net.cpp:150] Setting up rpn_big_conv2
I0413 18:15:07.630779 12709 net.cpp:157] Top shape: 1 512 63 94 (3032064)
I0413 18:15:07.630790 12709 net.cpp:165] Memory required for data: 3536371188
I0413 18:15:07.630800 12709 layer_factory.hpp:77] Creating layer rpn_big_conv2_relu
I0413 18:15:07.630811 12709 net.cpp:100] Creating Layer rpn_big_conv2_relu
I0413 18:15:07.630816 12709 net.cpp:434] rpn_big_conv2_relu <- rpn_big_conv2
I0413 18:15:07.630828 12709 net.cpp:395] rpn_big_conv2_relu -> rpn_big_conv2 (in-place)
I0413 18:15:07.630842 12709 net.cpp:150] Setting up rpn_big_conv2_relu
I0413 18:15:07.630857 12709 net.cpp:157] Top shape: 1 512 63 94 (3032064)
I0413 18:15:07.630863 12709 net.cpp:165] Memory required for data: 3548499444
I0413 18:15:07.630869 12709 layer_factory.hpp:77] Creating layer rpn_big_conv2_drop
I0413 18:15:07.630882 12709 net.cpp:100] Creating Layer rpn_big_conv2_drop
I0413 18:15:07.630887 12709 net.cpp:434] rpn_big_conv2_drop <- rpn_big_conv2
I0413 18:15:07.630893 12709 net.cpp:395] rpn_big_conv2_drop -> rpn_big_conv2 (in-place)
I0413 18:15:07.630924 12709 net.cpp:150] Setting up rpn_big_conv2_drop
I0413 18:15:07.630936 12709 net.cpp:157] Top shape: 1 512 63 94 (3032064)
I0413 18:15:07.630941 12709 net.cpp:165] Memory required for data: 3560627700
I0413 18:15:07.630946 12709 layer_factory.hpp:77] Creating layer rpn_big_conv2_rpn_big_conv2_drop_0_split
I0413 18:15:07.630955 12709 net.cpp:100] Creating Layer rpn_big_conv2_rpn_big_conv2_drop_0_split
I0413 18:15:07.630959 12709 net.cpp:434] rpn_big_conv2_rpn_big_conv2_drop_0_split <- rpn_big_conv2
I0413 18:15:07.630966 12709 net.cpp:408] rpn_big_conv2_rpn_big_conv2_drop_0_split -> rpn_big_conv2_rpn_big_conv2_drop_0_split_0
I0413 18:15:07.630973 12709 net.cpp:408] rpn_big_conv2_rpn_big_conv2_drop_0_split -> rpn_big_conv2_rpn_big_conv2_drop_0_split_1
I0413 18:15:07.631028 12709 net.cpp:150] Setting up rpn_big_conv2_rpn_big_conv2_drop_0_split
I0413 18:15:07.631037 12709 net.cpp:157] Top shape: 1 512 63 94 (3032064)
I0413 18:15:07.631042 12709 net.cpp:157] Top shape: 1 512 63 94 (3032064)
I0413 18:15:07.631044 12709 net.cpp:165] Memory required for data: 3584884212
I0413 18:15:07.631048 12709 layer_factory.hpp:77] Creating layer rpn_big_output_cls
I0413 18:15:07.631059 12709 net.cpp:100] Creating Layer rpn_big_output_cls
I0413 18:15:07.631063 12709 net.cpp:434] rpn_big_output_cls <- rpn_big_conv2_rpn_big_conv2_drop_0_split_0
I0413 18:15:07.631070 12709 net.cpp:408] rpn_big_output_cls -> rpn_big_output_cls
I0413 18:15:07.649603 12709 net.cpp:150] Setting up rpn_big_output_cls
I0413 18:15:07.649634 12709 net.cpp:157] Top shape: 1 384 63 94 (2274048)
I0413 18:15:07.649638 12709 net.cpp:165] Memory required for data: 3593980404
I0413 18:15:07.649648 12709 layer_factory.hpp:77] Creating layer rpn_big_output_cls_relu
I0413 18:15:07.649659 12709 net.cpp:100] Creating Layer rpn_big_output_cls_relu
I0413 18:15:07.649664 12709 net.cpp:434] rpn_big_output_cls_relu <- rpn_big_output_cls
I0413 18:15:07.649674 12709 net.cpp:395] rpn_big_output_cls_relu -> rpn_big_output_cls (in-place)
I0413 18:15:07.649684 12709 net.cpp:150] Setting up rpn_big_output_cls_relu
I0413 18:15:07.649689 12709 net.cpp:157] Top shape: 1 384 63 94 (2274048)
I0413 18:15:07.649691 12709 net.cpp:165] Memory required for data: 3603076596
I0413 18:15:07.649694 12709 layer_factory.hpp:77] Creating layer rpn_big_cls_score
I0413 18:15:07.649705 12709 net.cpp:100] Creating Layer rpn_big_cls_score
I0413 18:15:07.649709 12709 net.cpp:434] rpn_big_cls_score <- rpn_big_output_cls
I0413 18:15:07.649716 12709 net.cpp:408] rpn_big_cls_score -> rpn_big_cls_score
I0413 18:15:07.652144 12709 net.cpp:150] Setting up rpn_big_cls_score
I0413 18:15:07.652165 12709 net.cpp:157] Top shape: 1 52 61 92 (291824)
I0413 18:15:07.652168 12709 net.cpp:165] Memory required for data: 3604243892
I0413 18:15:07.652194 12709 layer_factory.hpp:77] Creating layer rpn_big_cls_score_rpn_big_cls_score_0_split
I0413 18:15:07.652201 12709 net.cpp:100] Creating Layer rpn_big_cls_score_rpn_big_cls_score_0_split
I0413 18:15:07.652205 12709 net.cpp:434] rpn_big_cls_score_rpn_big_cls_score_0_split <- rpn_big_cls_score
I0413 18:15:07.652215 12709 net.cpp:408] rpn_big_cls_score_rpn_big_cls_score_0_split -> rpn_big_cls_score_rpn_big_cls_score_0_split_0
I0413 18:15:07.652222 12709 net.cpp:408] rpn_big_cls_score_rpn_big_cls_score_0_split -> rpn_big_cls_score_rpn_big_cls_score_0_split_1
I0413 18:15:07.652254 12709 net.cpp:150] Setting up rpn_big_cls_score_rpn_big_cls_score_0_split
I0413 18:15:07.652263 12709 net.cpp:157] Top shape: 1 52 61 92 (291824)
I0413 18:15:07.652268 12709 net.cpp:157] Top shape: 1 52 61 92 (291824)
I0413 18:15:07.652271 12709 net.cpp:165] Memory required for data: 3606578484
I0413 18:15:07.652274 12709 layer_factory.hpp:77] Creating layer rpn_big_cls_score_reshape
I0413 18:15:07.652282 12709 net.cpp:100] Creating Layer rpn_big_cls_score_reshape
I0413 18:15:07.652287 12709 net.cpp:434] rpn_big_cls_score_reshape <- rpn_big_cls_score_rpn_big_cls_score_0_split_0
I0413 18:15:07.652293 12709 net.cpp:408] rpn_big_cls_score_reshape -> rpn_big_cls_score_reshape
I0413 18:15:07.652317 12709 net.cpp:150] Setting up rpn_big_cls_score_reshape
I0413 18:15:07.652324 12709 net.cpp:157] Top shape: 1 2 1586 92 (291824)
I0413 18:15:07.652328 12709 net.cpp:165] Memory required for data: 3607745780
I0413 18:15:07.652331 12709 layer_factory.hpp:77] Creating layer rpn_big_cls_score_reshape_rpn_big_cls_score_reshape_0_split
I0413 18:15:07.652335 12709 net.cpp:100] Creating Layer rpn_big_cls_score_reshape_rpn_big_cls_score_reshape_0_split
I0413 18:15:07.652339 12709 net.cpp:434] rpn_big_cls_score_reshape_rpn_big_cls_score_reshape_0_split <- rpn_big_cls_score_reshape
I0413 18:15:07.652344 12709 net.cpp:408] rpn_big_cls_score_reshape_rpn_big_cls_score_reshape_0_split -> rpn_big_cls_score_reshape_rpn_big_cls_score_reshape_0_split_0
I0413 18:15:07.652353 12709 net.cpp:408] rpn_big_cls_score_reshape_rpn_big_cls_score_reshape_0_split -> rpn_big_cls_score_reshape_rpn_big_cls_score_reshape_0_split_1
I0413 18:15:07.652382 12709 net.cpp:150] Setting up rpn_big_cls_score_reshape_rpn_big_cls_score_reshape_0_split
I0413 18:15:07.652389 12709 net.cpp:157] Top shape: 1 2 1586 92 (291824)
I0413 18:15:07.652392 12709 net.cpp:157] Top shape: 1 2 1586 92 (291824)
I0413 18:15:07.652395 12709 net.cpp:165] Memory required for data: 3610080372
I0413 18:15:07.652398 12709 layer_factory.hpp:77] Creating layer rpn_big_cls_prob
I0413 18:15:07.652405 12709 net.cpp:100] Creating Layer rpn_big_cls_prob
I0413 18:15:07.652410 12709 net.cpp:434] rpn_big_cls_prob <- rpn_big_cls_score_reshape_rpn_big_cls_score_reshape_0_split_0
I0413 18:15:07.652416 12709 net.cpp:408] rpn_big_cls_prob -> rpn_big_cls_prob
I0413 18:15:07.652467 12709 net.cpp:150] Setting up rpn_big_cls_prob
I0413 18:15:07.652473 12709 net.cpp:157] Top shape: 1 2 1586 92 (291824)
I0413 18:15:07.652477 12709 net.cpp:165] Memory required for data: 3611247668
I0413 18:15:07.652480 12709 layer_factory.hpp:77] Creating layer rpn_big_cls_prob_reshape
I0413 18:15:07.652485 12709 net.cpp:100] Creating Layer rpn_big_cls_prob_reshape
I0413 18:15:07.652489 12709 net.cpp:434] rpn_big_cls_prob_reshape <- rpn_big_cls_prob
I0413 18:15:07.652494 12709 net.cpp:408] rpn_big_cls_prob_reshape -> rpn_big_cls_prob_reshape
I0413 18:15:07.652515 12709 net.cpp:150] Setting up rpn_big_cls_prob_reshape
I0413 18:15:07.652523 12709 net.cpp:157] Top shape: 1 52 61 92 (291824)
I0413 18:15:07.652525 12709 net.cpp:165] Memory required for data: 3612414964
I0413 18:15:07.652529 12709 layer_factory.hpp:77] Creating layer rpn_big_cls_prob_reshape_rpn_big_cls_prob_reshape_0_split
I0413 18:15:07.652534 12709 net.cpp:100] Creating Layer rpn_big_cls_prob_reshape_rpn_big_cls_prob_reshape_0_split
I0413 18:15:07.652536 12709 net.cpp:434] rpn_big_cls_prob_reshape_rpn_big_cls_prob_reshape_0_split <- rpn_big_cls_prob_reshape
I0413 18:15:07.652541 12709 net.cpp:408] rpn_big_cls_prob_reshape_rpn_big_cls_prob_reshape_0_split -> rpn_big_cls_prob_reshape_rpn_big_cls_prob_reshape_0_split_0
I0413 18:15:07.652549 12709 net.cpp:408] rpn_big_cls_prob_reshape_rpn_big_cls_prob_reshape_0_split -> rpn_big_cls_prob_reshape_rpn_big_cls_prob_reshape_0_split_1
I0413 18:15:07.652575 12709 net.cpp:150] Setting up rpn_big_cls_prob_reshape_rpn_big_cls_prob_reshape_0_split
I0413 18:15:07.652582 12709 net.cpp:157] Top shape: 1 52 61 92 (291824)
I0413 18:15:07.652586 12709 net.cpp:157] Top shape: 1 52 61 92 (291824)
I0413 18:15:07.652590 12709 net.cpp:165] Memory required for data: 3614749556
I0413 18:15:07.652592 12709 layer_factory.hpp:77] Creating layer rpn_big_anchor_target
I0413 18:15:07.653919 12709 net.cpp:100] Creating Layer rpn_big_anchor_target
I0413 18:15:07.653936 12709 net.cpp:434] rpn_big_anchor_target <- rpn_big_cls_score_rpn_big_cls_score_0_split_1
I0413 18:15:07.653944 12709 net.cpp:434] rpn_big_anchor_target <- input_gt_boxes_input_2_split_0
I0413 18:15:07.653949 12709 net.cpp:434] rpn_big_anchor_target <- input_ignored_boxes
I0413 18:15:07.653952 12709 net.cpp:434] rpn_big_anchor_target <- input_im_info_input_1_split_0
I0413 18:15:07.653957 12709 net.cpp:434] rpn_big_anchor_target <- input_data_input_0_split_1
I0413 18:15:07.653961 12709 net.cpp:434] rpn_big_anchor_target <- rpn_big_cls_prob_reshape_rpn_big_cls_prob_reshape_0_split_0
I0413 18:15:07.653970 12709 net.cpp:408] rpn_big_anchor_target -> rpn_big_anchor_target_labels
I0413 18:15:07.653981 12709 net.cpp:408] rpn_big_anchor_target -> rpn_big_anchor_target_bbox_targets
I0413 18:15:07.653990 12709 net.cpp:408] rpn_big_anchor_target -> rpn_big_anchor_target_inside_weights
I0413 18:15:07.654000 12709 net.cpp:408] rpn_big_anchor_target -> rpn_big_anchor_target_outside_weights
I0413 18:15:07.659729 12709 net.cpp:150] Setting up rpn_big_anchor_target
I0413 18:15:07.659752 12709 net.cpp:157] Top shape: 1 1 1586 92 (145912)
I0413 18:15:07.659766 12709 net.cpp:157] Top shape: 1 104 61 92 (583648)
I0413 18:15:07.659770 12709 net.cpp:157] Top shape: 1 104 61 92 (583648)
I0413 18:15:07.659775 12709 net.cpp:157] Top shape: 1 104 61 92 (583648)
I0413 18:15:07.659777 12709 net.cpp:165] Memory required for data: 3622336980
I0413 18:15:07.659782 12709 layer_factory.hpp:77] Creating layer rpn_big_loss_cls
I0413 18:15:07.659795 12709 net.cpp:100] Creating Layer rpn_big_loss_cls
I0413 18:15:07.659799 12709 net.cpp:434] rpn_big_loss_cls <- rpn_big_cls_score_reshape_rpn_big_cls_score_reshape_0_split_1
I0413 18:15:07.659806 12709 net.cpp:434] rpn_big_loss_cls <- rpn_big_anchor_target_labels
I0413 18:15:07.659811 12709 net.cpp:408] rpn_big_loss_cls -> rpn_big_loss_cls
I0413 18:15:07.659823 12709 layer_factory.hpp:77] Creating layer rpn_big_loss_cls
I0413 18:15:07.660442 12709 net.cpp:150] Setting up rpn_big_loss_cls
I0413 18:15:07.660457 12709 net.cpp:157] Top shape: (1)
I0413 18:15:07.660460 12709 net.cpp:160]     with loss weight 1
I0413 18:15:07.660480 12709 net.cpp:165] Memory required for data: 3622336984
I0413 18:15:07.660485 12709 layer_factory.hpp:77] Creating layer rpn_big_output_box
I0413 18:15:07.660497 12709 net.cpp:100] Creating Layer rpn_big_output_box
I0413 18:15:07.660501 12709 net.cpp:434] rpn_big_output_box <- rpn_big_conv2_rpn_big_conv2_drop_0_split_1
I0413 18:15:07.660513 12709 net.cpp:408] rpn_big_output_box -> rpn_big_output_box
I0413 18:15:07.680407 12709 net.cpp:150] Setting up rpn_big_output_box
I0413 18:15:07.680439 12709 net.cpp:157] Top shape: 1 384 63 94 (2274048)
I0413 18:15:07.680445 12709 net.cpp:165] Memory required for data: 3631433176
I0413 18:15:07.680457 12709 layer_factory.hpp:77] Creating layer rpn_big_output_box_relu
I0413 18:15:07.680472 12709 net.cpp:100] Creating Layer rpn_big_output_box_relu
I0413 18:15:07.680480 12709 net.cpp:434] rpn_big_output_box_relu <- rpn_big_output_box
I0413 18:15:07.680490 12709 net.cpp:395] rpn_big_output_box_relu -> rpn_big_output_box (in-place)
I0413 18:15:07.680503 12709 net.cpp:150] Setting up rpn_big_output_box_relu
I0413 18:15:07.680510 12709 net.cpp:157] Top shape: 1 384 63 94 (2274048)
I0413 18:15:07.680515 12709 net.cpp:165] Memory required for data: 3640529368
I0413 18:15:07.680518 12709 layer_factory.hpp:77] Creating layer rpn_big_bbox_pred
I0413 18:15:07.680532 12709 net.cpp:100] Creating Layer rpn_big_bbox_pred
I0413 18:15:07.680537 12709 net.cpp:434] rpn_big_bbox_pred <- rpn_big_output_box
I0413 18:15:07.680548 12709 net.cpp:408] rpn_big_bbox_pred -> rpn_big_bbox_pred
I0413 18:15:07.687139 12709 net.cpp:150] Setting up rpn_big_bbox_pred
I0413 18:15:07.687175 12709 net.cpp:157] Top shape: 1 104 61 92 (583648)
I0413 18:15:07.687180 12709 net.cpp:165] Memory required for data: 3642863960
I0413 18:15:07.687193 12709 layer_factory.hpp:77] Creating layer rpn_big_bbox_pred_rpn_big_bbox_pred_0_split
I0413 18:15:07.687206 12709 net.cpp:100] Creating Layer rpn_big_bbox_pred_rpn_big_bbox_pred_0_split
I0413 18:15:07.687213 12709 net.cpp:434] rpn_big_bbox_pred_rpn_big_bbox_pred_0_split <- rpn_big_bbox_pred
I0413 18:15:07.687229 12709 net.cpp:408] rpn_big_bbox_pred_rpn_big_bbox_pred_0_split -> rpn_big_bbox_pred_rpn_big_bbox_pred_0_split_0
I0413 18:15:07.687245 12709 net.cpp:408] rpn_big_bbox_pred_rpn_big_bbox_pred_0_split -> rpn_big_bbox_pred_rpn_big_bbox_pred_0_split_1
I0413 18:15:07.687307 12709 net.cpp:150] Setting up rpn_big_bbox_pred_rpn_big_bbox_pred_0_split
I0413 18:15:07.687321 12709 net.cpp:157] Top shape: 1 104 61 92 (583648)
I0413 18:15:07.687330 12709 net.cpp:157] Top shape: 1 104 61 92 (583648)
I0413 18:15:07.687335 12709 net.cpp:165] Memory required for data: 3647533144
I0413 18:15:07.687340 12709 layer_factory.hpp:77] Creating layer rpn_big_loss_bbox
I0413 18:15:07.687893 12709 net.cpp:100] Creating Layer rpn_big_loss_bbox
I0413 18:15:07.687927 12709 net.cpp:434] rpn_big_loss_bbox <- rpn_big_bbox_pred_rpn_big_bbox_pred_0_split_0
I0413 18:15:07.687935 12709 net.cpp:434] rpn_big_loss_bbox <- rpn_big_anchor_target_bbox_targets
I0413 18:15:07.687942 12709 net.cpp:434] rpn_big_loss_bbox <- rpn_big_anchor_target_inside_weights
I0413 18:15:07.687948 12709 net.cpp:434] rpn_big_loss_bbox <- rpn_big_anchor_target_outside_weights
I0413 18:15:07.687958 12709 net.cpp:408] rpn_big_loss_bbox -> rpn_big_loss_bbox
I0413 18:15:07.689972 12709 net.cpp:150] Setting up rpn_big_loss_bbox
I0413 18:15:07.690006 12709 net.cpp:157] Top shape: 1 (1)
I0413 18:15:07.690011 12709 net.cpp:160]     with loss weight 1
I0413 18:15:07.690022 12709 net.cpp:165] Memory required for data: 3647533148
I0413 18:15:07.690028 12709 layer_factory.hpp:77] Creating layer proposal
I0413 18:15:07.690486 12709 net.cpp:100] Creating Layer proposal
I0413 18:15:07.690503 12709 net.cpp:434] proposal <- rpn_big_cls_prob_reshape_rpn_big_cls_prob_reshape_0_split_1
I0413 18:15:07.690511 12709 net.cpp:434] proposal <- rpn_big_bbox_pred_rpn_big_bbox_pred_0_split_1
I0413 18:15:07.690516 12709 net.cpp:434] proposal <- input_im_info_input_1_split_1
I0413 18:15:07.690523 12709 net.cpp:408] proposal -> rpn_rois
I0413 18:15:07.694761 12709 net.cpp:150] Setting up proposal
I0413 18:15:07.694779 12709 net.cpp:157] Top shape: 1 5 (5)
I0413 18:15:07.694782 12709 net.cpp:165] Memory required for data: 3647533168
I0413 18:15:07.694797 12709 layer_factory.hpp:77] Creating layer roi-data
I0413 18:15:07.695132 12709 net.cpp:100] Creating Layer roi-data
I0413 18:15:07.695142 12709 net.cpp:434] roi-data <- rpn_rois
I0413 18:15:07.695148 12709 net.cpp:434] roi-data <- input_gt_boxes_input_2_split_1
I0413 18:15:07.695163 12709 net.cpp:408] roi-data -> rois
I0413 18:15:07.695173 12709 net.cpp:408] roi-data -> labels
I0413 18:15:07.695180 12709 net.cpp:408] roi-data -> bbox_targets
I0413 18:15:07.695186 12709 net.cpp:408] roi-data -> bbox_inside_weights
I0413 18:15:07.695192 12709 net.cpp:408] roi-data -> bbox_outside_weights
I0413 18:15:07.695200 12709 net.cpp:408] roi-data -> pid_label
I0413 18:15:07.696084 12709 net.cpp:150] Setting up roi-data
I0413 18:15:07.696096 12709 net.cpp:157] Top shape: 1 5 (5)
I0413 18:15:07.696100 12709 net.cpp:157] Top shape: 1 1 (1)
I0413 18:15:07.696112 12709 net.cpp:157] Top shape: 1 8 (8)
I0413 18:15:07.696116 12709 net.cpp:157] Top shape: 1 8 (8)
I0413 18:15:07.696120 12709 net.cpp:157] Top shape: 1 8 (8)
I0413 18:15:07.696123 12709 net.cpp:157] Top shape: (0)
I0413 18:15:07.696126 12709 net.cpp:165] Memory required for data: 3647533288
I0413 18:15:07.696130 12709 layer_factory.hpp:77] Creating layer roi-pool
I0413 18:15:07.696136 12709 net.cpp:100] Creating Layer roi-pool
I0413 18:15:07.696141 12709 net.cpp:434] roi-pool <- conv5_3_relu5_3_0_split_1
I0413 18:15:07.696146 12709 net.cpp:434] roi-pool <- rois
I0413 18:15:07.696154 12709 net.cpp:408] roi-pool -> roi-pool
I0413 18:15:07.696162 12709 roi_pooling_layer.cpp:33] Spatial scale: 0.0625
I0413 18:15:07.696173 12709 roi_pooling_layer.cpp:34] Box scale: 1
I0413 18:15:07.696210 12709 net.cpp:150] Setting up roi-pool
I0413 18:15:07.696218 12709 net.cpp:157] Top shape: 1 512 7 7 (25088)
I0413 18:15:07.696220 12709 net.cpp:165] Memory required for data: 3647633640
I0413 18:15:07.696224 12709 layer_factory.hpp:77] Creating layer fc6
I0413 18:15:07.696233 12709 net.cpp:100] Creating Layer fc6
I0413 18:15:07.696235 12709 net.cpp:434] fc6 <- roi-pool
I0413 18:15:07.696241 12709 net.cpp:408] fc6 -> fc6
I0413 18:15:07.857488 12709 net.cpp:150] Setting up fc6
I0413 18:15:07.857523 12709 net.cpp:157] Top shape: 1 4096 (4096)
I0413 18:15:07.857535 12709 net.cpp:165] Memory required for data: 3647650024
I0413 18:15:07.857547 12709 layer_factory.hpp:77] Creating layer relu6
I0413 18:15:07.857558 12709 net.cpp:100] Creating Layer relu6
I0413 18:15:07.857563 12709 net.cpp:434] relu6 <- fc6
I0413 18:15:07.857570 12709 net.cpp:395] relu6 -> fc6 (in-place)
I0413 18:15:07.857581 12709 net.cpp:150] Setting up relu6
I0413 18:15:07.857585 12709 net.cpp:157] Top shape: 1 4096 (4096)
I0413 18:15:07.857589 12709 net.cpp:165] Memory required for data: 3647666408
I0413 18:15:07.857591 12709 layer_factory.hpp:77] Creating layer drop6
I0413 18:15:07.857597 12709 net.cpp:100] Creating Layer drop6
I0413 18:15:07.857600 12709 net.cpp:434] drop6 <- fc6
I0413 18:15:07.857605 12709 net.cpp:395] drop6 -> fc6 (in-place)
I0413 18:15:07.857626 12709 net.cpp:150] Setting up drop6
I0413 18:15:07.857632 12709 net.cpp:157] Top shape: 1 4096 (4096)
I0413 18:15:07.857635 12709 net.cpp:165] Memory required for data: 3647682792
I0413 18:15:07.857638 12709 layer_factory.hpp:77] Creating layer fc7
I0413 18:15:07.857646 12709 net.cpp:100] Creating Layer fc7
I0413 18:15:07.857650 12709 net.cpp:434] fc7 <- fc6
I0413 18:15:07.857656 12709 net.cpp:408] fc7 -> fc7
I0413 18:15:07.885020 12709 net.cpp:150] Setting up fc7
I0413 18:15:07.885051 12709 net.cpp:157] Top shape: 1 4096 (4096)
I0413 18:15:07.885062 12709 net.cpp:165] Memory required for data: 3647699176
I0413 18:15:07.885073 12709 layer_factory.hpp:77] Creating layer relu7
I0413 18:15:07.885094 12709 net.cpp:100] Creating Layer relu7
I0413 18:15:07.885100 12709 net.cpp:434] relu7 <- fc7
I0413 18:15:07.885107 12709 net.cpp:395] relu7 -> fc7 (in-place)
I0413 18:15:07.885118 12709 net.cpp:150] Setting up relu7
I0413 18:15:07.885121 12709 net.cpp:157] Top shape: 1 4096 (4096)
I0413 18:15:07.885124 12709 net.cpp:165] Memory required for data: 3647715560
I0413 18:15:07.885128 12709 layer_factory.hpp:77] Creating layer drop7
I0413 18:15:07.885133 12709 net.cpp:100] Creating Layer drop7
I0413 18:15:07.885136 12709 net.cpp:434] drop7 <- fc7
I0413 18:15:07.885140 12709 net.cpp:395] drop7 -> fc7 (in-place)
I0413 18:15:07.885161 12709 net.cpp:150] Setting up drop7
I0413 18:15:07.885167 12709 net.cpp:157] Top shape: 1 4096 (4096)
I0413 18:15:07.885170 12709 net.cpp:165] Memory required for data: 3647731944
I0413 18:15:07.885174 12709 layer_factory.hpp:77] Creating layer bbox_pred
I0413 18:15:07.885180 12709 net.cpp:100] Creating Layer bbox_pred
I0413 18:15:07.885184 12709 net.cpp:434] bbox_pred <- fc7
I0413 18:15:07.885191 12709 net.cpp:408] bbox_pred -> bbox_pred
F0413 18:15:07.885226 12709 blob.cpp:186] Check failed: data_ 
…
