…
I0412 20:25:50.549098  4353 solver.cpp:48] Initializing solver from parameters: 
base_lr: 0.001
display: 20
lr_policy: "multistep"
gamma: 0.1
momentum: 0.9
weight_decay: 0.0005
snapshot: 0
snapshot_prefix: "faces_example"
net_param {
  name: "GeneratedModel_12_04_2017_20_25"
  layer {
    name: "input"
    type: "Python"
    top: "input_data"
    top: "input_im_info"
    top: "input_gt_boxes"
    top: "input_ignored_boxes"
    python_param {
      module: "layers.roi_data_layer"
      layer: "RoIDataLayer"
      param_str: "{\"num_classes\": 2}"
    }
  }
  layer {
    name: "conv1_1"
    type: "Convolution"
    bottom: "input_data"
    top: "conv1_1"
    param {
      lr_mult: 0
      decay_mult: 0
    }
    param {
      lr_mult: 0
      decay_mult: 0
    }
    convolution_param {
      num_output: 64
      pad: 1
      kernel_size: 3
    }
  }
  layer {
    name: "relu1_1"
    type: "ReLU"
    bottom: "conv1_1"
    top: "conv1_1"
  }
  layer {
    name: "conv1_2"
    type: "Convolution"
    bottom: "conv1_1"
    top: "conv1_2"
    param {
      lr_mult: 0
      decay_mult: 0
    }
    param {
      lr_mult: 0
      decay_mult: 0
    }
    convolution_param {
      num_output: 64
      pad: 1
      kernel_size: 3
    }
  }
  layer {
    name: "relu1_2"
    type: "ReLU"
    bottom: "conv1_2"
    top: "conv1_2"
  }
  layer {
    name: "pool1"
    type: "Pooling"
    bottom: "conv1_2"
    top: "pool1"
    pooling_param {
      pool: MAX
      kernel_size: 2
      stride: 2
    }
  }
  layer {
    name: "conv2_1"
    type: "Convolution"
    bottom: "pool1"
    top: "conv2_1"
    param {
      lr_mult: 0
      decay_mult: 0
    }
    param {
      lr_mult: 0
      decay_mult: 0
    }
    convolution_param {
      num_output: 128
      pad: 1
      kernel_size: 3
    }
  }
  layer {
    name: "relu2_1"
    type: "ReLU"
    bottom: "conv2_1"
    top: "conv2_1"
  }
  layer {
    name: "conv2_2"
    type: "Convolution"
    bottom: "conv2_1"
    top: "conv2_2"
    param {
      lr_mult: 0
      decay_mult: 0
    }
    param {
      lr_mult: 0
      decay_mult: 0
    }
    convolution_param {
      num_output: 128
      pad: 1
      kernel_size: 3
    }
  }
  layer {
    name: "relu2_2"
    type: "ReLU"
    bottom: "conv2_2"
    top: "conv2_2"
  }
  layer {
    name: "pool2"
    type: "Pooling"
    bottom: "conv2_2"
    top: "pool2"
    pooling_param {
      pool: MAX
      kernel_size: 2
      stride: 2
    }
  }
  layer {
    name: "conv3_1"
    type: "Convolution"
    bottom: "pool2"
    top: "conv3_1"
    param {
      lr_mult: 1
    }
    param {
      lr_mult: 2
    }
    convolution_param {
      num_output: 256
      pad: 1
      kernel_size: 3
    }
  }
  layer {
    name: "relu3_1"
    type: "ReLU"
    bottom: "conv3_1"
    top: "conv3_1"
  }
  layer {
    name: "conv3_2"
    type: "Convolution"
    bottom: "conv3_1"
    top: "conv3_2"
    param {
      lr_mult: 1
    }
    param {
      lr_mult: 2
    }
    convolution_param {
      num_output: 256
      pad: 1
      kernel_size: 3
    }
  }
  layer {
    name: "relu3_2"
    type: "ReLU"
    bottom: "conv3_2"
    top: "conv3_2"
  }
  layer {
    name: "conv3_3"
    type: "Convolution"
    bottom: "conv3_2"
    top: "conv3_3"
    param {
      lr_mult: 1
    }
    param {
      lr_mult: 2
    }
    convolution_param {
      num_output: 256
      pad: 1
      kernel_size: 3
    }
  }
  layer {
    name: "relu3_3"
    type: "ReLU"
    bottom: "conv3_3"
    top: "conv3_3"
  }
  layer {
    name: "pool3"
    type: "Pooling"
    bottom: "conv3_3"
    top: "pool3"
    pooling_param {
      pool: MAX
      kernel_size: 2
      stride: 2
    }
  }
  layer {
    name: "conv4_1"
    type: "Convolution"
    bottom: "pool3"
    top: "conv4_1"
    param {
      lr_mult: 1
    }
    param {
      lr_mult: 2
    }
    convolution_param {
      num_output: 512
      pad: 1
      kernel_size: 3
    }
  }
  layer {
    name: "relu4_1"
    type: "ReLU"
    bottom: "conv4_1"
    top: "conv4_1"
  }
  layer {
    name: "conv4_2"
    type: "Convolution"
    bottom: "conv4_1"
    top: "conv4_2"
    param {
      lr_mult: 1
    }
    param {
      lr_mult: 2
    }
    convolution_param {
      num_output: 512
      pad: 1
      kernel_size: 3
    }
  }
  layer {
    name: "relu4_2"
    type: "ReLU"
    bottom: "conv4_2"
    top: "conv4_2"
  }
  layer {
    name: "conv4_3"
    type: "Convolution"
    bottom: "conv4_2"
    top: "conv4_3"
    param {
      lr_mult: 1
    }
    param {
      lr_mult: 2
    }
    convolution_param {
      num_output: 512
      pad: 1
      kernel_size: 3
    }
  }
  layer {
    name: "relu4_3"
    type: "ReLU"
    bottom: "conv4_3"
    top: "conv4_3"
  }
  layer {
    name: "pool4"
    type: "Pooling"
    bottom: "conv4_3"
    top: "pool4"
    pooling_param {
      pool: MAX
      kernel_size: 2
      stride: 2
    }
  }
  layer {
    name: "conv5_1"
    type: "Convolution"
    bottom: "pool4"
    top: "conv5_1"
    param {
      lr_mult: 1
    }
    param {
      lr_mult: 2
    }
    convolution_param {
      num_output: 512
      pad: 1
      kernel_size: 3
    }
  }
  layer {
    name: "relu5_1"
    type: "ReLU"
    bottom: "conv5_1"
    top: "conv5_1"
  }
  layer {
    name: "conv5_2"
    type: "Convolution"
    bottom: "conv5_1"
    top: "conv5_2"
    param {
      lr_mult: 1
    }
    param {
      lr_mult: 2
    }
    convolution_param {
      num_output: 512
      pad: 1
      kernel_size: 3
    }
  }
  layer {
    name: "relu5_2"
    type: "ReLU"
    bottom: "conv5_2"
    top: "conv5_2"
  }
  layer {
    name: "conv5_3"
    type: "Convolution"
    bottom: "conv5_2"
    top: "conv5_3"
    param {
      lr_mult: 1
    }
    param {
      lr_mult: 2
    }
    convolution_param {
      num_output: 512
      pad: 1
      kernel_size: 3
    }
  }
  layer {
    name: "relu5_3"
    type: "ReLU"
    bottom: "conv5_3"
    top: "conv5_3"
  }
  layer {
    name: "rpn_big_conv1"
    type: "Convolution"
    bottom: "conv5_3"
    top: "rpn_big_conv1"
    param {
      lr_mult: 1
    }
    param {
      lr_mult: 2
    }
    convolution_param {
      num_output: 512
      pad: 1
      kernel_size: 3
      stride: 1
      weight_filler {
        type: "gaussian"
        mean: 0
        std: 0.01
      }
      bias_filler {
        type: "constant"
      }
    }
  }
  layer {
    name: "rpn_big_conv1_relu"
    type: "ReLU"
    bottom: "rpn_big_conv1"
    top: "rpn_big_conv1"
    relu_param {
      negative_slope: 0
    }
  }
  layer {
    name: "rpn_big_conv2"
    type: "Convolution"
    bottom: "rpn_big_conv1"
    top: "rpn_big_conv2"
    param {
      lr_mult: 1
    }
    param {
      lr_mult: 2
    }
    convolution_param {
      num_output: 512
      pad: 1
      kernel_size: 3
      stride: 1
      weight_filler {
        type: "gaussian"
        mean: 0
        std: 0.01
      }
      bias_filler {
        type: "constant"
      }
    }
  }
  layer {
    name: "rpn_big_conv2_relu"
    type: "ReLU"
    bottom: "rpn_big_conv2"
    top: "rpn_big_conv2"
    relu_param {
      negative_slope: 0
    }
  }
  layer {
    name: "rpn_big_conv2_drop"
    type: "Dropout"
    bottom: "rpn_big_conv2"
    top: "rpn_big_conv2"
    dropout_param {
      dropout_ratio: 0.3
    }
  }
  layer {
    name: "rpn_big_output_cls"
    type: "Convolution"
    bottom: "rpn_big_conv2"
    top: "rpn_big_output_cls"
    param {
      lr_mult: 1
    }
    param {
      lr_mult: 2
    }
    convolution_param {
      num_output: 384
      pad: 1
      kernel_size: 3
      stride: 1
      weight_filler {
        type: "gaussian"
        mean: 0
        std: 0.01
      }
      bias_filler {
        type: "constant"
      }
    }
  }
  layer {
    name: "rpn_big_output_cls_relu"
    type: "ReLU"
    bottom: "rpn_big_output_cls"
    top: "rpn_big_output_cls"
    relu_param {
      negative_slope: 0
    }
  }
  layer {
    name: "rpn_big_cls_score"
    type: "Convolution"
    bottom: "rpn_big_output_cls"
    top: "rpn_big_cls_score"
    param {
      lr_mult: 1
    }
    param {
      lr_mult: 2
    }
    convolution_param {
      num_output: 52
      pad: 0
      kernel_size: 3
      stride: 1
      weight_filler {
        type: "gaussian"
        mean: 0
        std: 0.01
      }
      bias_filler {
        type: "constant"
      }
    }
  }
  layer {
    name: "rpn_big_cls_score_reshape"
    type: "Reshape"
    bottom: "rpn_big_cls_score"
    top: "rpn_big_cls_score_reshape"
    reshape_param {
      shape {
        dim: 0
        dim: 2
        dim: -1
        dim: 0
      }
    }
  }
  layer {
    name: "rpn_big_cls_prob"
    type: "Softmax"
    bottom: "rpn_big_cls_score_reshape"
    top: "rpn_big_cls_prob"
  }
  layer {
    name: "rpn_big_cls_prob_reshape"
    type: "Reshape"
    bottom: "rpn_big_cls_prob"
    top: "rpn_big_cls_prob_reshape"
    reshape_param {
      shape {
        dim: 0
        dim: 52
        dim: -1
        dim: 0
      }
    }
  }
  layer {
    name: "rpn_big_anchor_target"
    type: "Python"
    bottom: "rpn_big_cls_score"
    bottom: "input_gt_boxes"
    bottom: "input_ignored_boxes"
    bottom: "input_im_info"
    bottom: "input_data"
    bottom: "rpn_big_cls_prob_reshape"
    top: "rpn_big_anchor_target_labels"
    top: "rpn_big_anchor_target_bbox_targets"
    top: "rpn_big_anchor_target_inside_weights"
    top: "rpn_big_anchor_target_outside_weights"
    python_param {
      module: "rpn.anchor_target_layer"
      layer: "AnchorTargetLayer"
      param_str: "{\"positive_overlap\": 0.6, \"anchor_ratios\": [1.0], \"tn_fraction\": 0.2, \"num_classes\": 1, \"anchor_shift_num_xy\": [[2, 2], [2, 2], [2, 2], [2, 2], [1, 1], [1, 1], [1, 1], [1, 1], [1, 1], [1, 1], [1, 1], [1, 1], [1, 1], [1, 1]], \"anchor_scales\": [2.5, 3.025, 3.66025, 4.4289024999999995, 5.358972025, 6.484356150249999, 7.846070941802498, 9.493745839581022, 11.487432465893036, 13.899793283730574, 16.818749873313998, 20.350687346709933, 24.62433168951902, 29.795441344318014], \"fg_fraction\": 0.5, \"name\": \"rpn_big\", \"square_targets\": true, \"negative_overlap\": 0.4, \"feat_stride\": 16, \"batchsize\": 256}"
    }
  }
  layer {
    name: "rpn_big_loss_cls"
    type: "SoftmaxWithLoss"
    bottom: "rpn_big_cls_score_reshape"
    bottom: "rpn_big_anchor_target_labels"
    top: "rpn_big_loss_cls"
    loss_weight: 1
    propagate_down: true
    propagate_down: false
    loss_param {
      ignore_label: -1
      normalization: VALID
    }
  }
  layer {
    name: "rpn_big_output_box"
    type: "Convolution"
    bottom: "rpn_big_conv2"
    top: "rpn_big_output_box"
    param {
      lr_mult: 1
    }
    param {
      lr_mult: 2
    }
    convolution_param {
      num_output: 384
      pad: 1
      kernel_size: 3
      stride: 1
      weight_filler {
        type: "gaussian"
        mean: 0
        std: 0.01
      }
      bias_filler {
        type: "constant"
      }
    }
  }
  layer {
    name: "rpn_big_output_box_relu"
    type: "ReLU"
    bottom: "rpn_big_output_box"
    top: "rpn_big_output_box"
    relu_param {
      negative_slope: 0
    }
  }
  layer {
    name: "rpn_big_bbox_pred"
    type: "Convolution"
    bottom: "rpn_big_output_box"
    top: "rpn_big_bbox_pred"
    param {
      lr_mult: 1
    }
    param {
      lr_mult: 2
    }
    convolution_param {
      num_output: 104
      pad: 0
      kernel_size: 3
      stride: 1
      weight_filler {
        type: "gaussian"
        mean: 0
        std: 0.01
      }
      bias_filler {
        type: "constant"
      }
    }
  }
  layer {
    name: "rpn_big_loss_bbox"
    type: "Python"
    bottom: "rpn_big_bbox_pred"
    bottom: "rpn_big_anchor_target_bbox_targets"
    bottom: "rpn_big_anchor_target_inside_weights"
    bottom: "rpn_big_anchor_target_outside_weights"
    top: "rpn_big_loss_bbox"
    loss_weight: 1
    python_param {
      module: "layers.smooth_l1_loss"
      layer: "SmoothL1LossLayer"
      param_str: "{\"sigma\": 3}"
    }
  }
  layer {
    name: "MyLoss"
    type: "InnerProduct"
    bottom: "conv3_1"
    top: "MyLoss"
  }
}
average_loss: 100
stepvalue: 70000
stepvalue: 120000
iter_size: 2
I0412 20:25:50.549195  4353 solver.cpp:86] Creating training net specified in net_param.
I0412 20:25:50.549679  4353 net.cpp:58] Initializing net from parameters: 
name: "GeneratedModel_12_04_2017_20_25"
state {
  phase: TRAIN
}
layer {
  name: "input"
  type: "Python"
  top: "input_data"
  top: "input_im_info"
  top: "input_gt_boxes"
  top: "input_ignored_boxes"
  python_param {
    module: "layers.roi_data_layer"
    layer: "RoIDataLayer"
    param_str: "{\"num_classes\": 2}"
  }
}
layer {
  name: "conv1_1"
  type: "Convolution"
  bottom: "input_data"
  top: "conv1_1"
  param {
    lr_mult: 0
    decay_mult: 0
  }
  param {
    lr_mult: 0
    decay_mult: 0
  }
  convolution_param {
    num_output: 64
    pad: 1
    kernel_size: 3
  }
}
layer {
  name: "relu1_1"
  type: "ReLU"
  bottom: "conv1_1"
  top: "conv1_1"
}
layer {
  name: "conv1_2"
  type: "Convolution"
  bottom: "conv1_1"
  top: "conv1_2"
  param {
    lr_mult: 0
    decay_mult: 0
  }
  param {
    lr_mult: 0
    decay_mult: 0
  }
  convolution_param {
    num_output: 64
    pad: 1
    kernel_size: 3
  }
}
layer {
  name: "relu1_2"
  type: "ReLU"
  bottom: "conv1_2"
  top: "conv1_2"
}
layer {
  name: "pool1"
  type: "Pooling"
  bottom: "conv1_2"
  top: "pool1"
  pooling_param {
    pool: MAX
    kernel_size: 2
    stride: 2
  }
}
layer {
  name: "conv2_1"
  type: "Convolution"
  bottom: "pool1"
  top: "conv2_1"
  param {
    lr_mult: 0
    decay_mult: 0
  }
  param {
    lr_mult: 0
    decay_mult: 0
  }
  convolution_param {
    num_output: 128
    pad: 1
    kernel_size: 3
  }
}
layer {
  name: "relu2_1"
  type: "ReLU"
  bottom: "conv2_1"
  top: "conv2_1"
}
layer {
  name: "conv2_2"
  type: "Convolution"
  bottom: "conv2_1"
  top: "conv2_2"
  param {
    lr_mult: 0
    decay_mult: 0
  }
  param {
    lr_mult: 0
    decay_mult: 0
  }
  convolution_param {
    num_output: 128
    pad: 1
    kernel_size: 3
  }
}
layer {
  name: "relu2_2"
  type: "ReLU"
  bottom: "conv2_2"
  top: "conv2_2"
}
layer {
  name: "pool2"
  type: "Pooling"
  bottom: "conv2_2"
  top: "pool2"
  pooling_param {
    pool: MAX
    kernel_size: 2
    stride: 2
  }
}
layer {
  name: "conv3_1"
  type: "Convolution"
  bottom: "pool2"
  top: "conv3_1"
  param {
    lr_mult: 1
  }
  param {
    lr_mult: 2
  }
  convolution_param {
    num_output: 256
    pad: 1
    kernel_size: 3
  }
}
layer {
  name: "relu3_1"
  type: "ReLU"
  bottom: "conv3_1"
  top: "conv3_1"
}
layer {
  name: "conv3_2"
  type: "Convolution"
  bottom: "conv3_1"
  top: "conv3_2"
  param {
    lr_mult: 1
  }
  param {
    lr_mult: 2
  }
  convolution_param {
    num_output: 256
    pad: 1
    kernel_size: 3
  }
}
layer {
  name: "relu3_2"
  type: "ReLU"
  bottom: "conv3_2"
  top: "conv3_2"
}
layer {
  name: "conv3_3"
  type: "Convolution"
  bottom: "conv3_2"
  top: "conv3_3"
  param {
    lr_mult: 1
  }
  param {
    lr_mult: 2
  }
  convolution_param {
    num_output: 256
    pad: 1
    kernel_size: 3
  }
}
layer {
  name: "relu3_3"
  type: "ReLU"
  bottom: "conv3_3"
  top: "conv3_3"
}
layer {
  name: "pool3"
  type: "Pooling"
  bottom: "conv3_3"
  top: "pool3"
  pooling_param {
    pool: MAX
    kernel_size: 2
    stride: 2
  }
}
layer {
  name: "conv4_1"
  type: "Convolution"
  bottom: "pool3"
  top: "conv4_1"
  param {
    lr_mult: 1
  }
  param {
    lr_mult: 2
  }
  convolution_param {
    num_output: 512
    pad: 1
    kernel_size: 3
  }
}
layer {
  name: "relu4_1"
  type: "ReLU"
  bottom: "conv4_1"
  top: "conv4_1"
}
layer {
  name: "conv4_2"
  type: "Convolution"
  bottom: "conv4_1"
  top: "conv4_2"
  param {
    lr_mult: 1
  }
  param {
    lr_mult: 2
  }
  convolution_param {
    num_output: 512
    pad: 1
    kernel_size: 3
  }
}
layer {
  name: "relu4_2"
  type: "ReLU"
  bottom: "conv4_2"
  top: "conv4_2"
}
layer {
  name: "conv4_3"
  type: "Convolution"
  bottom: "conv4_2"
  top: "conv4_3"
  param {
    lr_mult: 1
  }
  param {
    lr_mult: 2
  }
  convolution_param {
    num_output: 512
    pad: 1
    kernel_size: 3
  }
}
layer {
  name: "relu4_3"
  type: "ReLU"
  bottom: "conv4_3"
  top: "conv4_3"
}
layer {
  name: "pool4"
  type: "Pooling"
  bottom: "conv4_3"
  top: "pool4"
  pooling_param {
    pool: MAX
    kernel_size: 2
    stride: 2
  }
}
layer {
  name: "conv5_1"
  type: "Convolution"
  bottom: "pool4"
  top: "conv5_1"
  param {
    lr_mult: 1
  }
  param {
    lr_mult: 2
  }
  convolution_param {
    num_output: 512
    pad: 1
    kernel_size: 3
  }
}
layer {
  name: "relu5_1"
  type: "ReLU"
  bottom: "conv5_1"
  top: "conv5_1"
}
layer {
  name: "conv5_2"
  type: "Convolution"
  bottom: "conv5_1"
  top: "conv5_2"
  param {
    lr_mult: 1
  }
  param {
    lr_mult: 2
  }
  convolution_param {
    num_output: 512
    pad: 1
    kernel_size: 3
  }
}
layer {
  name: "relu5_2"
  type: "ReLU"
  bottom: "conv5_2"
  top: "conv5_2"
}
layer {
  name: "conv5_3"
  type: "Convolution"
  bottom: "conv5_2"
  top: "conv5_3"
  param {
    lr_mult: 1
  }
  param {
    lr_mult: 2
  }
  convolution_param {
    num_output: 512
    pad: 1
    kernel_size: 3
  }
}
layer {
  name: "relu5_3"
  type: "ReLU"
  bottom: "conv5_3"
  top: "conv5_3"
}
layer {
  name: "rpn_big_conv1"
  type: "Convolution"
  bottom: "conv5_3"
  top: "rpn_big_conv1"
  param {
    lr_mult: 1
  }
  param {
    lr_mult: 2
  }
  convolution_param {
    num_output: 512
    pad: 1
    kernel_size: 3
    stride: 1
    weight_filler {
      type: "gaussian"
      mean: 0
      std: 0.01
    }
    bias_filler {
      type: "constant"
    }
  }
}
layer {
  name: "rpn_big_conv1_relu"
  type: "ReLU"
  bottom: "rpn_big_conv1"
  top: "rpn_big_conv1"
  relu_param {
    negative_slope: 0
  }
}
layer {
  name: "rpn_big_conv2"
  type: "Convolution"
  bottom: "rpn_big_conv1"
  top: "rpn_big_conv2"
  param {
    lr_mult: 1
  }
  param {
    lr_mult: 2
  }
  convolution_param {
    num_output: 512
    pad: 1
    kernel_size: 3
    stride: 1
    weight_filler {
      type: "gaussian"
      mean: 0
      std: 0.01
    }
    bias_filler {
      type: "constant"
    }
  }
}
layer {
  name: "rpn_big_conv2_relu"
  type: "ReLU"
  bottom: "rpn_big_conv2"
  top: "rpn_big_conv2"
  relu_param {
    negative_slope: 0
  }
}
layer {
  name: "rpn_big_conv2_drop"
  type: "Dropout"
  bottom: "rpn_big_conv2"
  top: "rpn_big_conv2"
  dropout_param {
    dropout_ratio: 0.3
  }
}
layer {
  name: "rpn_big_output_cls"
  type: "Convolution"
  bottom: "rpn_big_conv2"
  top: "rpn_big_output_cls"
  param {
    lr_mult: 1
  }
  param {
    lr_mult: 2
  }
  convolution_param {
    num_output: 384
    pad: 1
    kernel_size: 3
    stride: 1
    weight_filler {
      type: "gaussian"
      mean: 0
      std: 0.01
    }
    bias_filler {
      type: "constant"
    }
  }
}
layer {
  name: "rpn_big_output_cls_relu"
  type: "ReLU"
  bottom: "rpn_big_output_cls"
  top: "rpn_big_output_cls"
  relu_param {
    negative_slope: 0
  }
}
layer {
  name: "rpn_big_cls_score"
  type: "Convolution"
  bottom: "rpn_big_output_cls"
  top: "rpn_big_cls_score"
  param {
    lr_mult: 1
  }
  param {
    lr_mult: 2
  }
  convolution_param {
    num_output: 52
    pad: 0
    kernel_size: 3
    stride: 1
    weight_filler {
      type: "gaussian"
      mean: 0
      std: 0.01
    }
    bias_filler {
      type: "constant"
    }
  }
}
layer {
  name: "rpn_big_cls_score_reshape"
  type: "Reshape"
  bottom: "rpn_big_cls_score"
  top: "rpn_big_cls_score_reshape"
  reshape_param {
    shape {
      dim: 0
      dim: 2
      dim: -1
      dim: 0
    }
  }
}
layer {
  name: "rpn_big_cls_prob"
  type: "Softmax"
  bottom: "rpn_big_cls_score_reshape"
  top: "rpn_big_cls_prob"
}
layer {
  name: "rpn_big_cls_prob_reshape"
  type: "Reshape"
  bottom: "rpn_big_cls_prob"
  top: "rpn_big_cls_prob_reshape"
  reshape_param {
    shape {
      dim: 0
      dim: 52
      dim: -1
      dim: 0
    }
  }
}
layer {
  name: "rpn_big_anchor_target"
  type: "Python"
  bottom: "rpn_big_cls_score"
  bottom: "input_gt_boxes"
  bottom: "input_ignored_boxes"
  bottom: "input_im_info"
  bottom: "input_data"
  bottom: "rpn_big_cls_prob_reshape"
  top: "rpn_big_anchor_target_labels"
  top: "rpn_big_anchor_target_bbox_targets"
  top: "rpn_big_anchor_target_inside_weights"
  top: "rpn_big_anchor_target_outside_weights"
  python_param {
    module: "rpn.anchor_target_layer"
    layer: "AnchorTargetLayer"
    param_str: "{\"positive_overlap\": 0.6, \"anchor_ratios\": [1.0], \"tn_fraction\": 0.2, \"num_classes\": 1, \"anchor_shift_num_xy\": [[2, 2], [2, 2], [2, 2], [2, 2], [1, 1], [1, 1], [1, 1], [1, 1], [1, 1], [1, 1], [1, 1], [1, 1], [1, 1], [1, 1]], \"anchor_scales\": [2.5, 3.025, 3.66025, 4.4289024999999995, 5.358972025, 6.484356150249999, 7.846070941802498, 9.493745839581022, 11.487432465893036, 13.899793283730574, 16.818749873313998, 20.350687346709933, 24.62433168951902, 29.795441344318014], \"fg_fraction\": 0.5, \"name\": \"rpn_big\", \"square_targets\": true, \"negative_overlap\": 0.4, \"feat_stride\": 16, \"batchsize\": 256}"
  }
}
layer {
  name: "rpn_big_loss_cls"
  type: "SoftmaxWithLoss"
  bottom: "rpn_big_cls_score_reshape"
  bottom: "rpn_big_anchor_target_labels"
  top: "rpn_big_loss_cls"
  loss_weight: 1
  propagate_down: true
  propagate_down: false
  loss_param {
    ignore_label: -1
    normalization: VALID
  }
}
layer {
  name: "rpn_big_output_box"
  type: "Convolution"
  bottom: "rpn_big_conv2"
  top: "rpn_big_output_box"
  param {
    lr_mult: 1
  }
  param {
    lr_mult: 2
  }
  convolution_param {
    num_output: 384
    pad: 1
    kernel_size: 3
    stride: 1
    weight_filler {
      type: "gaussian"
      mean: 0
      std: 0.01
    }
    bias_filler {
      type: "constant"
    }
  }
}
layer {
  name: "rpn_big_output_box_relu"
  type: "ReLU"
  bottom: "rpn_big_output_box"
  top: "rpn_big_output_box"
  relu_param {
    negative_slope: 0
  }
}
layer {
  name: "rpn_big_bbox_pred"
  type: "Convolution"
  bottom: "rpn_big_output_box"
  top: "rpn_big_bbox_pred"
  param {
    lr_mult: 1
  }
  param {
    lr_mult: 2
  }
  convolution_param {
    num_output: 104
    pad: 0
    kernel_size: 3
    stride: 1
    weight_filler {
      type: "gaussian"
      mean: 0
      std: 0.01
    }
    bias_filler {
      type: "constant"
    }
  }
}
layer {
  name: "rpn_big_loss_bbox"
  type: "Python"
  bottom: "rpn_big_bbox_pred"
  bottom: "rpn_big_anchor_target_bbox_targets"
  bottom: "rpn_big_anchor_target_inside_weights"
  bottom: "rpn_big_anchor_target_outside_weights"
  top: "rpn_big_loss_bbox"
  loss_weight: 1
  python_param {
    module: "layers.smooth_l1_loss"
    layer: "SmoothL1LossLayer"
    param_str: "{\"sigma\": 3}"
  }
}
layer {
  name: "MyLoss"
  type: "InnerProduct"
  bottom: "conv3_1"
  top: "MyLoss"
}
I0412 20:25:50.553804  4353 layer_factory.hpp:77] Creating layer input
I0412 20:25:50.555155  4353 net.cpp:100] Creating Layer input
I0412 20:25:50.555177  4353 net.cpp:408] input -> input_data
I0412 20:25:50.555191  4353 net.cpp:408] input -> input_im_info
I0412 20:25:50.555197  4353 net.cpp:408] input -> input_gt_boxes
I0412 20:25:50.555205  4353 net.cpp:408] input -> input_ignored_boxes
RoiDataLayer: name_to_top: {'data': 0, 'gt_boxes': 2, 'im_info': 1, 'ignored_boxes': 3}
I0412 20:25:50.865675  4353 net.cpp:150] Setting up input
I0412 20:25:50.865706  4353 net.cpp:157] Top shape: 1 3 1000 1500 (4500000)
I0412 20:25:50.865715  4353 net.cpp:157] Top shape: 1 3 (3)
I0412 20:25:50.865721  4353 net.cpp:157] Top shape: 1 5 (5)
I0412 20:25:50.865728  4353 net.cpp:157] Top shape: 1 5 (5)
I0412 20:25:50.865733  4353 net.cpp:165] Memory required for data: 18000052
I0412 20:25:50.865743  4353 layer_factory.hpp:77] Creating layer input_data_input_0_split
I0412 20:25:50.865763  4353 net.cpp:100] Creating Layer input_data_input_0_split
I0412 20:25:50.865770  4353 net.cpp:434] input_data_input_0_split <- input_data
I0412 20:25:50.865782  4353 net.cpp:408] input_data_input_0_split -> input_data_input_0_split_0
I0412 20:25:50.865800  4353 net.cpp:408] input_data_input_0_split -> input_data_input_0_split_1
I0412 20:25:50.865844  4353 net.cpp:150] Setting up input_data_input_0_split
I0412 20:25:50.865854  4353 net.cpp:157] Top shape: 1 3 1000 1500 (4500000)
I0412 20:25:50.865862  4353 net.cpp:157] Top shape: 1 3 1000 1500 (4500000)
I0412 20:25:50.865869  4353 net.cpp:165] Memory required for data: 54000052
I0412 20:25:50.865875  4353 layer_factory.hpp:77] Creating layer conv1_1
I0412 20:25:50.865892  4353 net.cpp:100] Creating Layer conv1_1
I0412 20:25:50.865898  4353 net.cpp:434] conv1_1 <- input_data_input_0_split_0
I0412 20:25:50.865908  4353 net.cpp:408] conv1_1 -> conv1_1
I0412 20:25:50.868970  4353 net.cpp:150] Setting up conv1_1
I0412 20:25:50.869011  4353 net.cpp:157] Top shape: 1 64 1000 1500 (96000000)
I0412 20:25:50.869016  4353 net.cpp:165] Memory required for data: 438000052
I0412 20:25:50.869043  4353 layer_factory.hpp:77] Creating layer relu1_1
I0412 20:25:50.869061  4353 net.cpp:100] Creating Layer relu1_1
I0412 20:25:50.869069  4353 net.cpp:434] relu1_1 <- conv1_1
I0412 20:25:50.869081  4353 net.cpp:395] relu1_1 -> conv1_1 (in-place)
I0412 20:25:50.869097  4353 net.cpp:150] Setting up relu1_1
I0412 20:25:50.869107  4353 net.cpp:157] Top shape: 1 64 1000 1500 (96000000)
I0412 20:25:50.869113  4353 net.cpp:165] Memory required for data: 822000052
I0412 20:25:50.869119  4353 layer_factory.hpp:77] Creating layer conv1_2
I0412 20:25:50.869135  4353 net.cpp:100] Creating Layer conv1_2
I0412 20:25:50.869143  4353 net.cpp:434] conv1_2 <- conv1_1
I0412 20:25:50.869153  4353 net.cpp:408] conv1_2 -> conv1_2
I0412 20:25:50.872331  4353 net.cpp:150] Setting up conv1_2
I0412 20:25:50.872370  4353 net.cpp:157] Top shape: 1 64 1000 1500 (96000000)
I0412 20:25:50.872375  4353 net.cpp:165] Memory required for data: 1206000052
I0412 20:25:50.872400  4353 layer_factory.hpp:77] Creating layer relu1_2
I0412 20:25:50.872418  4353 net.cpp:100] Creating Layer relu1_2
I0412 20:25:50.872426  4353 net.cpp:434] relu1_2 <- conv1_2
I0412 20:25:50.872439  4353 net.cpp:395] relu1_2 -> conv1_2 (in-place)
I0412 20:25:50.872454  4353 net.cpp:150] Setting up relu1_2
I0412 20:25:50.872463  4353 net.cpp:157] Top shape: 1 64 1000 1500 (96000000)
I0412 20:25:50.872469  4353 net.cpp:165] Memory required for data: 1590000052
I0412 20:25:50.872475  4353 layer_factory.hpp:77] Creating layer pool1
I0412 20:25:50.872488  4353 net.cpp:100] Creating Layer pool1
I0412 20:25:50.872495  4353 net.cpp:434] pool1 <- conv1_2
I0412 20:25:50.872504  4353 net.cpp:408] pool1 -> pool1
I0412 20:25:50.872581  4353 net.cpp:150] Setting up pool1
I0412 20:25:50.872592  4353 net.cpp:157] Top shape: 1 64 500 750 (24000000)
I0412 20:25:50.872599  4353 net.cpp:165] Memory required for data: 1686000052
I0412 20:25:50.872606  4353 layer_factory.hpp:77] Creating layer conv2_1
I0412 20:25:50.872622  4353 net.cpp:100] Creating Layer conv2_1
I0412 20:25:50.872628  4353 net.cpp:434] conv2_1 <- pool1
I0412 20:25:50.872639  4353 net.cpp:408] conv2_1 -> conv2_1
I0412 20:25:50.873854  4353 net.cpp:150] Setting up conv2_1
I0412 20:25:50.873879  4353 net.cpp:157] Top shape: 1 128 500 750 (48000000)
I0412 20:25:50.873885  4353 net.cpp:165] Memory required for data: 1878000052
I0412 20:25:50.873901  4353 layer_factory.hpp:77] Creating layer relu2_1
I0412 20:25:50.873914  4353 net.cpp:100] Creating Layer relu2_1
I0412 20:25:50.873921  4353 net.cpp:434] relu2_1 <- conv2_1
I0412 20:25:50.873931  4353 net.cpp:395] relu2_1 -> conv2_1 (in-place)
I0412 20:25:50.873944  4353 net.cpp:150] Setting up relu2_1
I0412 20:25:50.873952  4353 net.cpp:157] Top shape: 1 128 500 750 (48000000)
I0412 20:25:50.873958  4353 net.cpp:165] Memory required for data: 2070000052
I0412 20:25:50.873965  4353 layer_factory.hpp:77] Creating layer conv2_2
I0412 20:25:50.873978  4353 net.cpp:100] Creating Layer conv2_2
I0412 20:25:50.873984  4353 net.cpp:434] conv2_2 <- conv2_1
I0412 20:25:50.873996  4353 net.cpp:408] conv2_2 -> conv2_2
I0412 20:25:50.874920  4353 net.cpp:150] Setting up conv2_2
I0412 20:25:50.874948  4353 net.cpp:157] Top shape: 1 128 500 750 (48000000)
I0412 20:25:50.874953  4353 net.cpp:165] Memory required for data: 2262000052
I0412 20:25:50.874966  4353 layer_factory.hpp:77] Creating layer relu2_2
I0412 20:25:50.874977  4353 net.cpp:100] Creating Layer relu2_2
I0412 20:25:50.874985  4353 net.cpp:434] relu2_2 <- conv2_2
I0412 20:25:50.874997  4353 net.cpp:395] relu2_2 -> conv2_2 (in-place)
I0412 20:25:50.875010  4353 net.cpp:150] Setting up relu2_2
I0412 20:25:50.875020  4353 net.cpp:157] Top shape: 1 128 500 750 (48000000)
I0412 20:25:50.875025  4353 net.cpp:165] Memory required for data: 2454000052
I0412 20:25:50.875032  4353 layer_factory.hpp:77] Creating layer pool2
I0412 20:25:50.875044  4353 net.cpp:100] Creating Layer pool2
I0412 20:25:50.875051  4353 net.cpp:434] pool2 <- conv2_2
I0412 20:25:50.875059  4353 net.cpp:408] pool2 -> pool2
I0412 20:25:50.875109  4353 net.cpp:150] Setting up pool2
I0412 20:25:50.875118  4353 net.cpp:157] Top shape: 1 128 250 375 (12000000)
I0412 20:25:50.875126  4353 net.cpp:165] Memory required for data: 2502000052
I0412 20:25:50.875133  4353 layer_factory.hpp:77] Creating layer conv3_1
I0412 20:25:50.875149  4353 net.cpp:100] Creating Layer conv3_1
I0412 20:25:50.875154  4353 net.cpp:434] conv3_1 <- pool2
I0412 20:25:50.875164  4353 net.cpp:408] conv3_1 -> conv3_1
I0412 20:25:50.876287  4353 net.cpp:150] Setting up conv3_1
I0412 20:25:50.876313  4353 net.cpp:157] Top shape: 1 256 250 375 (24000000)
I0412 20:25:50.876319  4353 net.cpp:165] Memory required for data: 2598000052
I0412 20:25:50.876338  4353 layer_factory.hpp:77] Creating layer relu3_1
I0412 20:25:50.876354  4353 net.cpp:100] Creating Layer relu3_1
I0412 20:25:50.876363  4353 net.cpp:434] relu3_1 <- conv3_1
I0412 20:25:50.876372  4353 net.cpp:395] relu3_1 -> conv3_1 (in-place)
I0412 20:25:50.876385  4353 net.cpp:150] Setting up relu3_1
I0412 20:25:50.876394  4353 net.cpp:157] Top shape: 1 256 250 375 (24000000)
I0412 20:25:50.876400  4353 net.cpp:165] Memory required for data: 2694000052
I0412 20:25:50.876406  4353 layer_factory.hpp:77] Creating layer conv3_1_relu3_1_0_split
I0412 20:25:50.876417  4353 net.cpp:100] Creating Layer conv3_1_relu3_1_0_split
I0412 20:25:50.876425  4353 net.cpp:434] conv3_1_relu3_1_0_split <- conv3_1
I0412 20:25:50.876436  4353 net.cpp:408] conv3_1_relu3_1_0_split -> conv3_1_relu3_1_0_split_0
I0412 20:25:50.876449  4353 net.cpp:408] conv3_1_relu3_1_0_split -> conv3_1_relu3_1_0_split_1
I0412 20:25:50.876492  4353 net.cpp:150] Setting up conv3_1_relu3_1_0_split
I0412 20:25:50.876502  4353 net.cpp:157] Top shape: 1 256 250 375 (24000000)
I0412 20:25:50.876510  4353 net.cpp:157] Top shape: 1 256 250 375 (24000000)
I0412 20:25:50.876518  4353 net.cpp:165] Memory required for data: 2886000052
I0412 20:25:50.876524  4353 layer_factory.hpp:77] Creating layer conv3_2
I0412 20:25:50.876540  4353 net.cpp:100] Creating Layer conv3_2
I0412 20:25:50.876547  4353 net.cpp:434] conv3_2 <- conv3_1_relu3_1_0_split_0
I0412 20:25:50.876557  4353 net.cpp:408] conv3_2 -> conv3_2
I0412 20:25:50.877732  4353 net.cpp:150] Setting up conv3_2
I0412 20:25:50.877760  4353 net.cpp:157] Top shape: 1 256 250 375 (24000000)
I0412 20:25:50.877765  4353 net.cpp:165] Memory required for data: 2982000052
I0412 20:25:50.877779  4353 layer_factory.hpp:77] Creating layer relu3_2
I0412 20:25:50.877795  4353 net.cpp:100] Creating Layer relu3_2
I0412 20:25:50.877804  4353 net.cpp:434] relu3_2 <- conv3_2
I0412 20:25:50.877815  4353 net.cpp:395] relu3_2 -> conv3_2 (in-place)
I0412 20:25:50.877828  4353 net.cpp:150] Setting up relu3_2
I0412 20:25:50.877837  4353 net.cpp:157] Top shape: 1 256 250 375 (24000000)
I0412 20:25:50.877845  4353 net.cpp:165] Memory required for data: 3078000052
I0412 20:25:50.877851  4353 layer_factory.hpp:77] Creating layer conv3_3
I0412 20:25:50.877866  4353 net.cpp:100] Creating Layer conv3_3
I0412 20:25:50.877872  4353 net.cpp:434] conv3_3 <- conv3_2
I0412 20:25:50.877882  4353 net.cpp:408] conv3_3 -> conv3_3
I0412 20:25:50.879433  4353 net.cpp:150] Setting up conv3_3
I0412 20:25:50.879465  4353 net.cpp:157] Top shape: 1 256 250 375 (24000000)
I0412 20:25:50.879472  4353 net.cpp:165] Memory required for data: 3174000052
I0412 20:25:50.879487  4353 layer_factory.hpp:77] Creating layer relu3_3
I0412 20:25:50.879503  4353 net.cpp:100] Creating Layer relu3_3
I0412 20:25:50.879510  4353 net.cpp:434] relu3_3 <- conv3_3
I0412 20:25:50.879523  4353 net.cpp:395] relu3_3 -> conv3_3 (in-place)
I0412 20:25:50.879539  4353 net.cpp:150] Setting up relu3_3
I0412 20:25:50.879546  4353 net.cpp:157] Top shape: 1 256 250 375 (24000000)
I0412 20:25:50.879554  4353 net.cpp:165] Memory required for data: 3270000052
I0412 20:25:50.879560  4353 layer_factory.hpp:77] Creating layer pool3
I0412 20:25:50.879571  4353 net.cpp:100] Creating Layer pool3
I0412 20:25:50.879577  4353 net.cpp:434] pool3 <- conv3_3
I0412 20:25:50.879587  4353 net.cpp:408] pool3 -> pool3
I0412 20:25:50.879653  4353 net.cpp:150] Setting up pool3
I0412 20:25:50.879667  4353 net.cpp:157] Top shape: 1 256 125 188 (6016000)
I0412 20:25:50.879673  4353 net.cpp:165] Memory required for data: 3294064052
I0412 20:25:50.879678  4353 layer_factory.hpp:77] Creating layer conv4_1
I0412 20:25:50.879693  4353 net.cpp:100] Creating Layer conv4_1
I0412 20:25:50.879701  4353 net.cpp:434] conv4_1 <- pool3
I0412 20:25:50.879711  4353 net.cpp:408] conv4_1 -> conv4_1
I0412 20:25:50.883123  4353 net.cpp:150] Setting up conv4_1
I0412 20:25:50.883159  4353 net.cpp:157] Top shape: 1 512 125 188 (12032000)
I0412 20:25:50.883164  4353 net.cpp:165] Memory required for data: 3342192052
I0412 20:25:50.883179  4353 layer_factory.hpp:77] Creating layer relu4_1
I0412 20:25:50.883193  4353 net.cpp:100] Creating Layer relu4_1
I0412 20:25:50.883201  4353 net.cpp:434] relu4_1 <- conv4_1
I0412 20:25:50.883216  4353 net.cpp:395] relu4_1 -> conv4_1 (in-place)
I0412 20:25:50.883235  4353 net.cpp:150] Setting up relu4_1
I0412 20:25:50.883244  4353 net.cpp:157] Top shape: 1 512 125 188 (12032000)
I0412 20:25:50.883249  4353 net.cpp:165] Memory required for data: 3390320052
I0412 20:25:50.883255  4353 layer_factory.hpp:77] Creating layer conv4_2
I0412 20:25:50.883270  4353 net.cpp:100] Creating Layer conv4_2
I0412 20:25:50.883277  4353 net.cpp:434] conv4_2 <- conv4_1
I0412 20:25:50.883289  4353 net.cpp:408] conv4_2 -> conv4_2
I0412 20:25:50.887377  4353 net.cpp:150] Setting up conv4_2
I0412 20:25:50.887414  4353 net.cpp:157] Top shape: 1 512 125 188 (12032000)
I0412 20:25:50.887418  4353 net.cpp:165] Memory required for data: 3438448052
I0412 20:25:50.887447  4353 layer_factory.hpp:77] Creating layer relu4_2
I0412 20:25:50.887464  4353 net.cpp:100] Creating Layer relu4_2
I0412 20:25:50.887472  4353 net.cpp:434] relu4_2 <- conv4_2
I0412 20:25:50.887485  4353 net.cpp:395] relu4_2 -> conv4_2 (in-place)
I0412 20:25:50.887500  4353 net.cpp:150] Setting up relu4_2
I0412 20:25:50.887507  4353 net.cpp:157] Top shape: 1 512 125 188 (12032000)
I0412 20:25:50.887516  4353 net.cpp:165] Memory required for data: 3486576052
I0412 20:25:50.887521  4353 layer_factory.hpp:77] Creating layer conv4_3
I0412 20:25:50.887538  4353 net.cpp:100] Creating Layer conv4_3
I0412 20:25:50.887544  4353 net.cpp:434] conv4_3 <- conv4_2
I0412 20:25:50.887554  4353 net.cpp:408] conv4_3 -> conv4_3
I0412 20:25:50.891707  4353 net.cpp:150] Setting up conv4_3
I0412 20:25:50.891746  4353 net.cpp:157] Top shape: 1 512 125 188 (12032000)
I0412 20:25:50.891752  4353 net.cpp:165] Memory required for data: 3534704052
I0412 20:25:50.891767  4353 layer_factory.hpp:77] Creating layer relu4_3
I0412 20:25:50.891793  4353 net.cpp:100] Creating Layer relu4_3
I0412 20:25:50.891800  4353 net.cpp:434] relu4_3 <- conv4_3
I0412 20:25:50.891814  4353 net.cpp:395] relu4_3 -> conv4_3 (in-place)
I0412 20:25:50.891834  4353 net.cpp:150] Setting up relu4_3
I0412 20:25:50.891844  4353 net.cpp:157] Top shape: 1 512 125 188 (12032000)
I0412 20:25:50.891851  4353 net.cpp:165] Memory required for data: 3582832052
I0412 20:25:50.891857  4353 layer_factory.hpp:77] Creating layer pool4
I0412 20:25:50.891870  4353 net.cpp:100] Creating Layer pool4
I0412 20:25:50.891876  4353 net.cpp:434] pool4 <- conv4_3
I0412 20:25:50.891886  4353 net.cpp:408] pool4 -> pool4
I0412 20:25:50.891934  4353 net.cpp:150] Setting up pool4
I0412 20:25:50.891944  4353 net.cpp:157] Top shape: 1 512 63 94 (3032064)
I0412 20:25:50.891949  4353 net.cpp:165] Memory required for data: 3594960308
I0412 20:25:50.891957  4353 layer_factory.hpp:77] Creating layer conv5_1
I0412 20:25:50.891973  4353 net.cpp:100] Creating Layer conv5_1
I0412 20:25:50.891979  4353 net.cpp:434] conv5_1 <- pool4
I0412 20:25:50.891991  4353 net.cpp:408] conv5_1 -> conv5_1
I0412 20:25:50.896554  4353 net.cpp:150] Setting up conv5_1
I0412 20:25:50.896590  4353 net.cpp:157] Top shape: 1 512 63 94 (3032064)
I0412 20:25:50.896597  4353 net.cpp:165] Memory required for data: 3607088564
I0412 20:25:50.896613  4353 layer_factory.hpp:77] Creating layer relu5_1
I0412 20:25:50.896628  4353 net.cpp:100] Creating Layer relu5_1
I0412 20:25:50.896638  4353 net.cpp:434] relu5_1 <- conv5_1
I0412 20:25:50.896652  4353 net.cpp:395] relu5_1 -> conv5_1 (in-place)
I0412 20:25:50.896669  4353 net.cpp:150] Setting up relu5_1
I0412 20:25:50.896679  4353 net.cpp:157] Top shape: 1 512 63 94 (3032064)
I0412 20:25:50.896687  4353 net.cpp:165] Memory required for data: 3619216820
I0412 20:25:50.896692  4353 layer_factory.hpp:77] Creating layer conv5_2
I0412 20:25:50.896708  4353 net.cpp:100] Creating Layer conv5_2
I0412 20:25:50.896715  4353 net.cpp:434] conv5_2 <- conv5_1
I0412 20:25:50.896726  4353 net.cpp:408] conv5_2 -> conv5_2
I0412 20:25:50.900946  4353 net.cpp:150] Setting up conv5_2
I0412 20:25:50.900979  4353 net.cpp:157] Top shape: 1 512 63 94 (3032064)
I0412 20:25:50.900985  4353 net.cpp:165] Memory required for data: 3631345076
I0412 20:25:50.901000  4353 layer_factory.hpp:77] Creating layer relu5_2
I0412 20:25:50.901015  4353 net.cpp:100] Creating Layer relu5_2
I0412 20:25:50.901032  4353 net.cpp:434] relu5_2 <- conv5_2
I0412 20:25:50.901044  4353 net.cpp:395] relu5_2 -> conv5_2 (in-place)
I0412 20:25:50.901059  4353 net.cpp:150] Setting up relu5_2
I0412 20:25:50.901069  4353 net.cpp:157] Top shape: 1 512 63 94 (3032064)
I0412 20:25:50.901075  4353 net.cpp:165] Memory required for data: 3643473332
I0412 20:25:50.901082  4353 layer_factory.hpp:77] Creating layer conv5_3
I0412 20:25:50.901098  4353 net.cpp:100] Creating Layer conv5_3
I0412 20:25:50.901105  4353 net.cpp:434] conv5_3 <- conv5_2
I0412 20:25:50.901118  4353 net.cpp:408] conv5_3 -> conv5_3
I0412 20:25:50.905516  4353 net.cpp:150] Setting up conv5_3
I0412 20:25:50.905555  4353 net.cpp:157] Top shape: 1 512 63 94 (3032064)
I0412 20:25:50.905563  4353 net.cpp:165] Memory required for data: 3655601588
I0412 20:25:50.905581  4353 layer_factory.hpp:77] Creating layer relu5_3
I0412 20:25:50.905608  4353 net.cpp:100] Creating Layer relu5_3
I0412 20:25:50.905619  4353 net.cpp:434] relu5_3 <- conv5_3
I0412 20:25:50.905633  4353 net.cpp:395] relu5_3 -> conv5_3 (in-place)
I0412 20:25:50.905649  4353 net.cpp:150] Setting up relu5_3
I0412 20:25:50.905663  4353 net.cpp:157] Top shape: 1 512 63 94 (3032064)
I0412 20:25:50.905668  4353 net.cpp:165] Memory required for data: 3667729844
I0412 20:25:50.905674  4353 layer_factory.hpp:77] Creating layer rpn_big_conv1
I0412 20:25:50.905694  4353 net.cpp:100] Creating Layer rpn_big_conv1
I0412 20:25:50.905700  4353 net.cpp:434] rpn_big_conv1 <- conv5_3
I0412 20:25:50.905711  4353 net.cpp:408] rpn_big_conv1 -> rpn_big_conv1
I0412 20:25:50.930708  4353 net.cpp:150] Setting up rpn_big_conv1
I0412 20:25:50.930742  4353 net.cpp:157] Top shape: 1 512 63 94 (3032064)
I0412 20:25:50.930749  4353 net.cpp:165] Memory required for data: 3679858100
I0412 20:25:50.930773  4353 layer_factory.hpp:77] Creating layer rpn_big_conv1_relu
I0412 20:25:50.930791  4353 net.cpp:100] Creating Layer rpn_big_conv1_relu
I0412 20:25:50.930802  4353 net.cpp:434] rpn_big_conv1_relu <- rpn_big_conv1
I0412 20:25:50.930815  4353 net.cpp:395] rpn_big_conv1_relu -> rpn_big_conv1 (in-place)
I0412 20:25:50.930832  4353 net.cpp:150] Setting up rpn_big_conv1_relu
I0412 20:25:50.930843  4353 net.cpp:157] Top shape: 1 512 63 94 (3032064)
I0412 20:25:50.930850  4353 net.cpp:165] Memory required for data: 3691986356
I0412 20:25:50.930855  4353 layer_factory.hpp:77] Creating layer rpn_big_conv2
I0412 20:25:50.930869  4353 net.cpp:100] Creating Layer rpn_big_conv2
I0412 20:25:50.930876  4353 net.cpp:434] rpn_big_conv2 <- rpn_big_conv1
I0412 20:25:50.930889  4353 net.cpp:408] rpn_big_conv2 -> rpn_big_conv2
I0412 20:25:50.957495  4353 net.cpp:150] Setting up rpn_big_conv2
I0412 20:25:50.957526  4353 net.cpp:157] Top shape: 1 512 63 94 (3032064)
I0412 20:25:50.957540  4353 net.cpp:165] Memory required for data: 3704114612
I0412 20:25:50.957550  4353 layer_factory.hpp:77] Creating layer rpn_big_conv2_relu
I0412 20:25:50.957562  4353 net.cpp:100] Creating Layer rpn_big_conv2_relu
I0412 20:25:50.957571  4353 net.cpp:434] rpn_big_conv2_relu <- rpn_big_conv2
I0412 20:25:50.957581  4353 net.cpp:395] rpn_big_conv2_relu -> rpn_big_conv2 (in-place)
I0412 20:25:50.957595  4353 net.cpp:150] Setting up rpn_big_conv2_relu
I0412 20:25:50.957604  4353 net.cpp:157] Top shape: 1 512 63 94 (3032064)
I0412 20:25:50.957609  4353 net.cpp:165] Memory required for data: 3716242868
I0412 20:25:50.957618  4353 layer_factory.hpp:77] Creating layer rpn_big_conv2_drop
I0412 20:25:50.957633  4353 net.cpp:100] Creating Layer rpn_big_conv2_drop
I0412 20:25:50.957640  4353 net.cpp:434] rpn_big_conv2_drop <- rpn_big_conv2
I0412 20:25:50.957648  4353 net.cpp:395] rpn_big_conv2_drop -> rpn_big_conv2 (in-place)
I0412 20:25:50.957679  4353 net.cpp:150] Setting up rpn_big_conv2_drop
I0412 20:25:50.957692  4353 net.cpp:157] Top shape: 1 512 63 94 (3032064)
I0412 20:25:50.957698  4353 net.cpp:165] Memory required for data: 3728371124
I0412 20:25:50.957703  4353 layer_factory.hpp:77] Creating layer rpn_big_conv2_rpn_big_conv2_drop_0_split
I0412 20:25:50.957712  4353 net.cpp:100] Creating Layer rpn_big_conv2_rpn_big_conv2_drop_0_split
I0412 20:25:50.957717  4353 net.cpp:434] rpn_big_conv2_rpn_big_conv2_drop_0_split <- rpn_big_conv2
I0412 20:25:50.957728  4353 net.cpp:408] rpn_big_conv2_rpn_big_conv2_drop_0_split -> rpn_big_conv2_rpn_big_conv2_drop_0_split_0
I0412 20:25:50.957742  4353 net.cpp:408] rpn_big_conv2_rpn_big_conv2_drop_0_split -> rpn_big_conv2_rpn_big_conv2_drop_0_split_1
I0412 20:25:50.957803  4353 net.cpp:150] Setting up rpn_big_conv2_rpn_big_conv2_drop_0_split
I0412 20:25:50.957813  4353 net.cpp:157] Top shape: 1 512 63 94 (3032064)
I0412 20:25:50.957818  4353 net.cpp:157] Top shape: 1 512 63 94 (3032064)
I0412 20:25:50.957831  4353 net.cpp:165] Memory required for data: 3752627636
I0412 20:25:50.957837  4353 layer_factory.hpp:77] Creating layer rpn_big_output_cls
I0412 20:25:50.957852  4353 net.cpp:100] Creating Layer rpn_big_output_cls
I0412 20:25:50.957859  4353 net.cpp:434] rpn_big_output_cls <- rpn_big_conv2_rpn_big_conv2_drop_0_split_0
I0412 20:25:50.957873  4353 net.cpp:408] rpn_big_output_cls -> rpn_big_output_cls
I0412 20:25:50.977105  4353 net.cpp:150] Setting up rpn_big_output_cls
I0412 20:25:50.977135  4353 net.cpp:157] Top shape: 1 384 63 94 (2274048)
I0412 20:25:50.977149  4353 net.cpp:165] Memory required for data: 3761723828
I0412 20:25:50.977157  4353 layer_factory.hpp:77] Creating layer rpn_big_output_cls_relu
I0412 20:25:50.977169  4353 net.cpp:100] Creating Layer rpn_big_output_cls_relu
I0412 20:25:50.977175  4353 net.cpp:434] rpn_big_output_cls_relu <- rpn_big_output_cls
I0412 20:25:50.977188  4353 net.cpp:395] rpn_big_output_cls_relu -> rpn_big_output_cls (in-place)
I0412 20:25:50.977202  4353 net.cpp:150] Setting up rpn_big_output_cls_relu
I0412 20:25:50.977213  4353 net.cpp:157] Top shape: 1 384 63 94 (2274048)
I0412 20:25:50.977221  4353 net.cpp:165] Memory required for data: 3770820020
I0412 20:25:50.977226  4353 layer_factory.hpp:77] Creating layer rpn_big_cls_score
I0412 20:25:50.977244  4353 net.cpp:100] Creating Layer rpn_big_cls_score
I0412 20:25:50.977252  4353 net.cpp:434] rpn_big_cls_score <- rpn_big_output_cls
I0412 20:25:50.977265  4353 net.cpp:408] rpn_big_cls_score -> rpn_big_cls_score
I0412 20:25:50.979570  4353 net.cpp:150] Setting up rpn_big_cls_score
I0412 20:25:50.979583  4353 net.cpp:157] Top shape: 1 52 61 92 (291824)
I0412 20:25:50.979585  4353 net.cpp:165] Memory required for data: 3771987316
I0412 20:25:50.979609  4353 layer_factory.hpp:77] Creating layer rpn_big_cls_score_rpn_big_cls_score_0_split
I0412 20:25:50.979617  4353 net.cpp:100] Creating Layer rpn_big_cls_score_rpn_big_cls_score_0_split
I0412 20:25:50.979624  4353 net.cpp:434] rpn_big_cls_score_rpn_big_cls_score_0_split <- rpn_big_cls_score
I0412 20:25:50.979635  4353 net.cpp:408] rpn_big_cls_score_rpn_big_cls_score_0_split -> rpn_big_cls_score_rpn_big_cls_score_0_split_0
I0412 20:25:50.979650  4353 net.cpp:408] rpn_big_cls_score_rpn_big_cls_score_0_split -> rpn_big_cls_score_rpn_big_cls_score_0_split_1
I0412 20:25:50.979713  4353 net.cpp:150] Setting up rpn_big_cls_score_rpn_big_cls_score_0_split
I0412 20:25:50.979724  4353 net.cpp:157] Top shape: 1 52 61 92 (291824)
I0412 20:25:50.979739  4353 net.cpp:157] Top shape: 1 52 61 92 (291824)
I0412 20:25:50.979743  4353 net.cpp:165] Memory required for data: 3774321908
I0412 20:25:50.979749  4353 layer_factory.hpp:77] Creating layer rpn_big_cls_score_reshape
I0412 20:25:50.979763  4353 net.cpp:100] Creating Layer rpn_big_cls_score_reshape
I0412 20:25:50.979768  4353 net.cpp:434] rpn_big_cls_score_reshape <- rpn_big_cls_score_rpn_big_cls_score_0_split_0
I0412 20:25:50.979786  4353 net.cpp:408] rpn_big_cls_score_reshape -> rpn_big_cls_score_reshape
I0412 20:25:50.979822  4353 net.cpp:150] Setting up rpn_big_cls_score_reshape
I0412 20:25:50.979835  4353 net.cpp:157] Top shape: 1 2 1586 92 (291824)
I0412 20:25:50.979840  4353 net.cpp:165] Memory required for data: 3775489204
I0412 20:25:50.979846  4353 layer_factory.hpp:77] Creating layer rpn_big_cls_score_reshape_rpn_big_cls_score_reshape_0_split
I0412 20:25:50.979856  4353 net.cpp:100] Creating Layer rpn_big_cls_score_reshape_rpn_big_cls_score_reshape_0_split
I0412 20:25:50.979862  4353 net.cpp:434] rpn_big_cls_score_reshape_rpn_big_cls_score_reshape_0_split <- rpn_big_cls_score_reshape
I0412 20:25:50.979872  4353 net.cpp:408] rpn_big_cls_score_reshape_rpn_big_cls_score_reshape_0_split -> rpn_big_cls_score_reshape_rpn_big_cls_score_reshape_0_split_0
I0412 20:25:50.979887  4353 net.cpp:408] rpn_big_cls_score_reshape_rpn_big_cls_score_reshape_0_split -> rpn_big_cls_score_reshape_rpn_big_cls_score_reshape_0_split_1
I0412 20:25:50.979941  4353 net.cpp:150] Setting up rpn_big_cls_score_reshape_rpn_big_cls_score_reshape_0_split
I0412 20:25:50.979951  4353 net.cpp:157] Top shape: 1 2 1586 92 (291824)
I0412 20:25:50.979959  4353 net.cpp:157] Top shape: 1 2 1586 92 (291824)
I0412 20:25:50.979971  4353 net.cpp:165] Memory required for data: 3777823796
I0412 20:25:50.979977  4353 layer_factory.hpp:77] Creating layer rpn_big_cls_prob
I0412 20:25:50.979987  4353 net.cpp:100] Creating Layer rpn_big_cls_prob
I0412 20:25:50.979995  4353 net.cpp:434] rpn_big_cls_prob <- rpn_big_cls_score_reshape_rpn_big_cls_score_reshape_0_split_0
I0412 20:25:50.980003  4353 net.cpp:408] rpn_big_cls_prob -> rpn_big_cls_prob
I0412 20:25:50.980079  4353 net.cpp:150] Setting up rpn_big_cls_prob
I0412 20:25:50.980090  4353 net.cpp:157] Top shape: 1 2 1586 92 (291824)
I0412 20:25:50.980098  4353 net.cpp:165] Memory required for data: 3778991092
I0412 20:25:50.980103  4353 layer_factory.hpp:77] Creating layer rpn_big_cls_prob_reshape
I0412 20:25:50.980113  4353 net.cpp:100] Creating Layer rpn_big_cls_prob_reshape
I0412 20:25:50.980121  4353 net.cpp:434] rpn_big_cls_prob_reshape <- rpn_big_cls_prob
I0412 20:25:50.980132  4353 net.cpp:408] rpn_big_cls_prob_reshape -> rpn_big_cls_prob_reshape
I0412 20:25:50.980165  4353 net.cpp:150] Setting up rpn_big_cls_prob_reshape
I0412 20:25:50.980175  4353 net.cpp:157] Top shape: 1 52 61 92 (291824)
I0412 20:25:50.980180  4353 net.cpp:165] Memory required for data: 3780158388
I0412 20:25:50.980187  4353 layer_factory.hpp:77] Creating layer rpn_big_anchor_target
I0412 20:25:50.981637  4353 net.cpp:100] Creating Layer rpn_big_anchor_target
I0412 20:25:50.981658  4353 net.cpp:434] rpn_big_anchor_target <- rpn_big_cls_score_rpn_big_cls_score_0_split_1
I0412 20:25:50.981667  4353 net.cpp:434] rpn_big_anchor_target <- input_gt_boxes
I0412 20:25:50.981672  4353 net.cpp:434] rpn_big_anchor_target <- input_ignored_boxes
I0412 20:25:50.981675  4353 net.cpp:434] rpn_big_anchor_target <- input_im_info
I0412 20:25:50.981678  4353 net.cpp:434] rpn_big_anchor_target <- input_data_input_0_split_1
I0412 20:25:50.981683  4353 net.cpp:434] rpn_big_anchor_target <- rpn_big_cls_prob_reshape
I0412 20:25:50.981689  4353 net.cpp:408] rpn_big_anchor_target -> rpn_big_anchor_target_labels
I0412 20:25:50.981699  4353 net.cpp:408] rpn_big_anchor_target -> rpn_big_anchor_target_bbox_targets
I0412 20:25:50.981708  4353 net.cpp:408] rpn_big_anchor_target -> rpn_big_anchor_target_inside_weights
I0412 20:25:50.981714  4353 net.cpp:408] rpn_big_anchor_target -> rpn_big_anchor_target_outside_weights
I0412 20:25:50.986495  4353 net.cpp:150] Setting up rpn_big_anchor_target
I0412 20:25:50.986524  4353 net.cpp:157] Top shape: 1 1 1586 92 (145912)
I0412 20:25:50.986529  4353 net.cpp:157] Top shape: 1 104 61 92 (583648)
I0412 20:25:50.986533  4353 net.cpp:157] Top shape: 1 104 61 92 (583648)
I0412 20:25:50.986537  4353 net.cpp:157] Top shape: 1 104 61 92 (583648)
I0412 20:25:50.986539  4353 net.cpp:165] Memory required for data: 3787745812
I0412 20:25:50.986547  4353 layer_factory.hpp:77] Creating layer rpn_big_loss_cls
I0412 20:25:50.986558  4353 net.cpp:100] Creating Layer rpn_big_loss_cls
I0412 20:25:50.986563  4353 net.cpp:434] rpn_big_loss_cls <- rpn_big_cls_score_reshape_rpn_big_cls_score_reshape_0_split_1
I0412 20:25:50.986570  4353 net.cpp:434] rpn_big_loss_cls <- rpn_big_anchor_target_labels
I0412 20:25:50.986577  4353 net.cpp:408] rpn_big_loss_cls -> rpn_big_loss_cls
I0412 20:25:50.986589  4353 layer_factory.hpp:77] Creating layer rpn_big_loss_cls
I0412 20:25:50.987187  4353 net.cpp:150] Setting up rpn_big_loss_cls
I0412 20:25:50.987202  4353 net.cpp:157] Top shape: (1)
I0412 20:25:50.987206  4353 net.cpp:160]     with loss weight 1
I0412 20:25:50.987216  4353 net.cpp:165] Memory required for data: 3787745816
I0412 20:25:50.987221  4353 layer_factory.hpp:77] Creating layer rpn_big_output_box
I0412 20:25:50.987234  4353 net.cpp:100] Creating Layer rpn_big_output_box
I0412 20:25:50.987238  4353 net.cpp:434] rpn_big_output_box <- rpn_big_conv2_rpn_big_conv2_drop_0_split_1
I0412 20:25:50.987246  4353 net.cpp:408] rpn_big_output_box -> rpn_big_output_box
I0412 20:25:51.006726  4353 net.cpp:150] Setting up rpn_big_output_box
I0412 20:25:51.006755  4353 net.cpp:157] Top shape: 1 384 63 94 (2274048)
I0412 20:25:51.006759  4353 net.cpp:165] Memory required for data: 3796842008
I0412 20:25:51.006770  4353 layer_factory.hpp:77] Creating layer rpn_big_output_box_relu
I0412 20:25:51.006784  4353 net.cpp:100] Creating Layer rpn_big_output_box_relu
I0412 20:25:51.006793  4353 net.cpp:434] rpn_big_output_box_relu <- rpn_big_output_box
I0412 20:25:51.006805  4353 net.cpp:395] rpn_big_output_box_relu -> rpn_big_output_box (in-place)
I0412 20:25:51.006820  4353 net.cpp:150] Setting up rpn_big_output_box_relu
I0412 20:25:51.006827  4353 net.cpp:157] Top shape: 1 384 63 94 (2274048)
I0412 20:25:51.006832  4353 net.cpp:165] Memory required for data: 3805938200
I0412 20:25:51.006837  4353 layer_factory.hpp:77] Creating layer rpn_big_bbox_pred
I0412 20:25:51.006853  4353 net.cpp:100] Creating Layer rpn_big_bbox_pred
I0412 20:25:51.006860  4353 net.cpp:434] rpn_big_bbox_pred <- rpn_big_output_box
I0412 20:25:51.006872  4353 net.cpp:408] rpn_big_bbox_pred -> rpn_big_bbox_pred
I0412 20:25:51.011154  4353 net.cpp:150] Setting up rpn_big_bbox_pred
I0412 20:25:51.011179  4353 net.cpp:157] Top shape: 1 104 61 92 (583648)
I0412 20:25:51.011193  4353 net.cpp:165] Memory required for data: 3808272792
I0412 20:25:51.011201  4353 layer_factory.hpp:77] Creating layer rpn_big_loss_bbox
I0412 20:25:51.011611  4353 net.cpp:100] Creating Layer rpn_big_loss_bbox
I0412 20:25:51.011622  4353 net.cpp:434] rpn_big_loss_bbox <- rpn_big_bbox_pred
I0412 20:25:51.011628  4353 net.cpp:434] rpn_big_loss_bbox <- rpn_big_anchor_target_bbox_targets
I0412 20:25:51.011643  4353 net.cpp:434] rpn_big_loss_bbox <- rpn_big_anchor_target_inside_weights
I0412 20:25:51.011647  4353 net.cpp:434] rpn_big_loss_bbox <- rpn_big_anchor_target_outside_weights
I0412 20:25:51.011653  4353 net.cpp:408] rpn_big_loss_bbox -> rpn_big_loss_bbox
I0412 20:25:51.013690  4353 net.cpp:150] Setting up rpn_big_loss_bbox
I0412 20:25:51.013722  4353 net.cpp:157] Top shape: 1 (1)
I0412 20:25:51.013734  4353 net.cpp:160]     with loss weight 1
I0412 20:25:51.013746  4353 net.cpp:165] Memory required for data: 3808272796
I0412 20:25:51.013752  4353 layer_factory.hpp:77] Creating layer MyLoss
I0412 20:25:51.013764  4353 net.cpp:100] Creating Layer MyLoss
I0412 20:25:51.013772  4353 net.cpp:434] MyLoss <- conv3_1_relu3_1_0_split_1
I0412 20:25:51.013782  4353 net.cpp:408] MyLoss -> MyLoss
…
