…
I0413 16:24:27.074671  8791 solver.cpp:48] Initializing solver from parameters: 
base_lr: 0.001
display: 20
lr_policy: "multistep"
gamma: 0.1
momentum: 0.9
weight_decay: 0.0005
snapshot: 0
snapshot_prefix: "faces_example"
net_param {
  name: "GeneratedModel_13_04_2017_16_24"
  layer {
    name: "input"
    type: "Python"
    top: "input_data"
    top: "input_im_info"
    top: "input_gt_boxes"
    top: "input_ignored_boxes"
    python_param {
      module: "layers.roi_data_layer"
      layer: "RoIDataLayer"
      param_str: "{\"num_classes\": 2}"
    }
  }
  layer {
    name: "conv1_1"
    type: "Convolution"
    bottom: "input_data"
    top: "conv1_1"
    param {
      lr_mult: 0
      decay_mult: 0
    }
    param {
      lr_mult: 0
      decay_mult: 0
    }
    convolution_param {
      num_output: 64
      pad: 1
      kernel_size: 3
    }
  }
  layer {
    name: "relu1_1"
    type: "ReLU"
    bottom: "conv1_1"
    top: "conv1_1"
  }
  layer {
    name: "conv1_2"
    type: "Convolution"
    bottom: "conv1_1"
    top: "conv1_2"
    param {
      lr_mult: 0
      decay_mult: 0
    }
    param {
      lr_mult: 0
      decay_mult: 0
    }
    convolution_param {
      num_output: 64
      pad: 1
      kernel_size: 3
    }
  }
  layer {
    name: "relu1_2"
    type: "ReLU"
    bottom: "conv1_2"
    top: "conv1_2"
  }
  layer {
    name: "pool1"
    type: "Pooling"
    bottom: "conv1_2"
    top: "pool1"
    pooling_param {
      pool: MAX
      kernel_size: 2
      stride: 2
    }
  }
  layer {
    name: "conv2_1"
    type: "Convolution"
    bottom: "pool1"
    top: "conv2_1"
    param {
      lr_mult: 0
      decay_mult: 0
    }
    param {
      lr_mult: 0
      decay_mult: 0
    }
    convolution_param {
      num_output: 128
      pad: 1
      kernel_size: 3
    }
  }
  layer {
    name: "relu2_1"
    type: "ReLU"
    bottom: "conv2_1"
    top: "conv2_1"
  }
  layer {
    name: "conv2_2"
    type: "Convolution"
    bottom: "conv2_1"
    top: "conv2_2"
    param {
      lr_mult: 0
      decay_mult: 0
    }
    param {
      lr_mult: 0
      decay_mult: 0
    }
    convolution_param {
      num_output: 128
      pad: 1
      kernel_size: 3
    }
  }
  layer {
    name: "relu2_2"
    type: "ReLU"
    bottom: "conv2_2"
    top: "conv2_2"
  }
  layer {
    name: "pool2"
    type: "Pooling"
    bottom: "conv2_2"
    top: "pool2"
    pooling_param {
      pool: MAX
      kernel_size: 2
      stride: 2
    }
  }
  layer {
    name: "conv3_1"
    type: "Convolution"
    bottom: "pool2"
    top: "conv3_1"
    param {
      lr_mult: 1
    }
    param {
      lr_mult: 2
    }
    convolution_param {
      num_output: 256
      pad: 1
      kernel_size: 3
    }
  }
  layer {
    name: "relu3_1"
    type: "ReLU"
    bottom: "conv3_1"
    top: "conv3_1"
  }
  layer {
    name: "conv3_2"
    type: "Convolution"
    bottom: "conv3_1"
    top: "conv3_2"
    param {
      lr_mult: 1
    }
    param {
      lr_mult: 2
    }
    convolution_param {
      num_output: 256
      pad: 1
      kernel_size: 3
    }
  }
  layer {
    name: "relu3_2"
    type: "ReLU"
    bottom: "conv3_2"
    top: "conv3_2"
  }
  layer {
    name: "conv3_3"
    type: "Convolution"
    bottom: "conv3_2"
    top: "conv3_3"
    param {
      lr_mult: 1
    }
    param {
      lr_mult: 2
    }
    convolution_param {
      num_output: 256
      pad: 1
      kernel_size: 3
    }
  }
  layer {
    name: "relu3_3"
    type: "ReLU"
    bottom: "conv3_3"
    top: "conv3_3"
  }
  layer {
    name: "pool3"
    type: "Pooling"
    bottom: "conv3_3"
    top: "pool3"
    pooling_param {
      pool: MAX
      kernel_size: 2
      stride: 2
    }
  }
  layer {
    name: "conv4_1"
    type: "Convolution"
    bottom: "pool3"
    top: "conv4_1"
    param {
      lr_mult: 1
    }
    param {
      lr_mult: 2
    }
    convolution_param {
      num_output: 512
      pad: 1
      kernel_size: 3
    }
  }
  layer {
    name: "relu4_1"
    type: "ReLU"
    bottom: "conv4_1"
    top: "conv4_1"
  }
  layer {
    name: "conv4_2"
    type: "Convolution"
    bottom: "conv4_1"
    top: "conv4_2"
    param {
      lr_mult: 1
    }
    param {
      lr_mult: 2
    }
    convolution_param {
      num_output: 512
      pad: 1
      kernel_size: 3
    }
  }
  layer {
    name: "relu4_2"
    type: "ReLU"
    bottom: "conv4_2"
    top: "conv4_2"
  }
  layer {
    name: "conv4_3"
    type: "Convolution"
    bottom: "conv4_2"
    top: "conv4_3"
    param {
      lr_mult: 1
    }
    param {
      lr_mult: 2
    }
    convolution_param {
      num_output: 512
      pad: 1
      kernel_size: 3
    }
  }
  layer {
    name: "relu4_3"
    type: "ReLU"
    bottom: "conv4_3"
    top: "conv4_3"
  }
  layer {
    name: "pool4"
    type: "Pooling"
    bottom: "conv4_3"
    top: "pool4"
    pooling_param {
      pool: MAX
      kernel_size: 2
      stride: 2
    }
  }
  layer {
    name: "conv5_1"
    type: "Convolution"
    bottom: "pool4"
    top: "conv5_1"
    param {
      lr_mult: 1
    }
    param {
      lr_mult: 2
    }
    convolution_param {
      num_output: 512
      pad: 1
      kernel_size: 3
    }
  }
  layer {
    name: "relu5_1"
    type: "ReLU"
    bottom: "conv5_1"
    top: "conv5_1"
  }
  layer {
    name: "conv5_2"
    type: "Convolution"
    bottom: "conv5_1"
    top: "conv5_2"
    param {
      lr_mult: 1
    }
    param {
      lr_mult: 2
    }
    convolution_param {
      num_output: 512
      pad: 1
      kernel_size: 3
    }
  }
  layer {
    name: "relu5_2"
    type: "ReLU"
    bottom: "conv5_2"
    top: "conv5_2"
  }
  layer {
    name: "conv5_3"
    type: "Convolution"
    bottom: "conv5_2"
    top: "conv5_3"
    param {
      lr_mult: 1
    }
    param {
      lr_mult: 2
    }
    convolution_param {
      num_output: 512
      pad: 1
      kernel_size: 3
    }
  }
  layer {
    name: "relu5_3"
    type: "ReLU"
    bottom: "conv5_3"
    top: "conv5_3"
  }
  layer {
    name: "rpn_big_conv1"
    type: "Convolution"
    bottom: "conv5_3"
    top: "rpn_big_conv1"
    param {
      lr_mult: 1
    }
    param {
      lr_mult: 2
    }
    convolution_param {
      num_output: 512
      pad: 1
      kernel_size: 3
      stride: 1
      weight_filler {
        type: "gaussian"
        mean: 0
        std: 0.01
      }
      bias_filler {
        type: "constant"
      }
    }
  }
  layer {
    name: "rpn_big_conv1_relu"
    type: "ReLU"
    bottom: "rpn_big_conv1"
    top: "rpn_big_conv1"
    relu_param {
      negative_slope: 0
    }
  }
  layer {
    name: "rpn_big_conv2"
    type: "Convolution"
    bottom: "rpn_big_conv1"
    top: "rpn_big_conv2"
    param {
      lr_mult: 1
    }
    param {
      lr_mult: 2
    }
    convolution_param {
      num_output: 512
      pad: 1
      kernel_size: 3
      stride: 1
      weight_filler {
        type: "gaussian"
        mean: 0
        std: 0.01
      }
      bias_filler {
        type: "constant"
      }
    }
  }
  layer {
    name: "rpn_big_conv2_relu"
    type: "ReLU"
    bottom: "rpn_big_conv2"
    top: "rpn_big_conv2"
    relu_param {
      negative_slope: 0
    }
  }
  layer {
    name: "rpn_big_conv2_drop"
    type: "Dropout"
    bottom: "rpn_big_conv2"
    top: "rpn_big_conv2"
    dropout_param {
      dropout_ratio: 0.3
    }
  }
  layer {
    name: "rpn_big_output_cls"
    type: "Convolution"
    bottom: "rpn_big_conv2"
    top: "rpn_big_output_cls"
    param {
      lr_mult: 1
    }
    param {
      lr_mult: 2
    }
    convolution_param {
      num_output: 384
      pad: 1
      kernel_size: 3
      stride: 1
      weight_filler {
        type: "gaussian"
        mean: 0
        std: 0.01
      }
      bias_filler {
        type: "constant"
      }
    }
  }
  layer {
    name: "rpn_big_output_cls_relu"
    type: "ReLU"
    bottom: "rpn_big_output_cls"
    top: "rpn_big_output_cls"
    relu_param {
      negative_slope: 0
    }
  }
  layer {
    name: "rpn_big_cls_score"
    type: "Convolution"
    bottom: "rpn_big_output_cls"
    top: "rpn_big_cls_score"
    param {
      lr_mult: 1
    }
    param {
      lr_mult: 2
    }
    convolution_param {
      num_output: 52
      pad: 0
      kernel_size: 3
      stride: 1
      weight_filler {
        type: "gaussian"
        mean: 0
        std: 0.01
      }
      bias_filler {
        type: "constant"
      }
    }
  }
  layer {
    name: "rpn_big_cls_score_reshape"
    type: "Reshape"
    bottom: "rpn_big_cls_score"
    top: "rpn_big_cls_score_reshape"
    reshape_param {
      shape {
        dim: 0
        dim: 2
        dim: -1
        dim: 0
      }
    }
  }
  layer {
    name: "rpn_big_cls_prob"
    type: "Softmax"
    bottom: "rpn_big_cls_score_reshape"
    top: "rpn_big_cls_prob"
  }
  layer {
    name: "rpn_big_cls_prob_reshape"
    type: "Reshape"
    bottom: "rpn_big_cls_prob"
    top: "rpn_big_cls_prob_reshape"
    reshape_param {
      shape {
        dim: 0
        dim: 52
        dim: -1
        dim: 0
      }
    }
  }
  layer {
    name: "rpn_big_anchor_target"
    type: "Python"
    bottom: "rpn_big_cls_score"
    bottom: "input_gt_boxes"
    bottom: "input_ignored_boxes"
    bottom: "input_im_info"
    bottom: "input_data"
    bottom: "rpn_big_cls_prob_reshape"
    top: "rpn_big_anchor_target_labels"
    top: "rpn_big_anchor_target_bbox_targets"
    top: "rpn_big_anchor_target_inside_weights"
    top: "rpn_big_anchor_target_outside_weights"
    python_param {
      module: "rpn.anchor_target_layer"
      layer: "AnchorTargetLayer"
      param_str: "{\"anchor_shift_num_xy\": [[2, 2], [2, 2], [2, 2], [2, 2], [1, 1], [1, 1], [1, 1], [1, 1], [1, 1], [1, 1], [1, 1], [1, 1], [1, 1], [1, 1]], \"square_targets\": true, \"negative_overlap\": 0.4, \"feat_stride\": 16, \"num_classes\": 1, \"fg_fraction\": 0.5, \"positive_overlap\": 0.6, \"name\": \"rpn_big\", \"anchor_scales\": [2.5, 3.025, 3.66025, 4.4289024999999995, 5.358972025, 6.484356150249999, 7.846070941802498, 9.493745839581022, 11.487432465893036, 13.899793283730574, 16.818749873313998, 20.350687346709933, 24.62433168951902, 29.795441344318014], \"anchor_ratios\": [1.0], \"tn_fraction\": 0.2, \"batchsize\": 256}"
    }
  }
  layer {
    name: "rpn_big_loss_cls"
    type: "SoftmaxWithLoss"
    bottom: "rpn_big_cls_score_reshape"
    bottom: "rpn_big_anchor_target_labels"
    top: "rpn_big_loss_cls"
    loss_weight: 1
    propagate_down: true
    propagate_down: false
    loss_param {
      ignore_label: -1
      normalization: VALID
    }
  }
  layer {
    name: "rpn_big_output_box"
    type: "Convolution"
    bottom: "rpn_big_conv2"
    top: "rpn_big_output_box"
    param {
      lr_mult: 1
    }
    param {
      lr_mult: 2
    }
    convolution_param {
      num_output: 384
      pad: 1
      kernel_size: 3
      stride: 1
      weight_filler {
        type: "gaussian"
        mean: 0
        std: 0.01
      }
      bias_filler {
        type: "constant"
      }
    }
  }
  layer {
    name: "rpn_big_output_box_relu"
    type: "ReLU"
    bottom: "rpn_big_output_box"
    top: "rpn_big_output_box"
    relu_param {
      negative_slope: 0
    }
  }
  layer {
    name: "rpn_big_bbox_pred"
    type: "Convolution"
    bottom: "rpn_big_output_box"
    top: "rpn_big_bbox_pred"
    param {
      lr_mult: 1
    }
    param {
      lr_mult: 2
    }
    convolution_param {
      num_output: 104
      pad: 0
      kernel_size: 3
      stride: 1
      weight_filler {
        type: "gaussian"
        mean: 0
        std: 0.01
      }
      bias_filler {
        type: "constant"
      }
    }
  }
  layer {
    name: "rpn_big_loss_bbox"
    type: "Python"
    bottom: "rpn_big_bbox_pred"
    bottom: "rpn_big_anchor_target_bbox_targets"
    bottom: "rpn_big_anchor_target_inside_weights"
    bottom: "rpn_big_anchor_target_outside_weights"
    top: "rpn_big_loss_bbox"
    loss_weight: 1
    python_param {
      module: "layers.smooth_l1_loss"
      layer: "SmoothL1LossLayer"
      param_str: "{\"sigma\": 3}"
    }
  }
  layer {
    name: "proposal"
    type: "Python"
    bottom: "rpn_big_cls_prob_reshape"
    bottom: "rpn_big_bbox_pred"
    bottom: "input_im_info"
    top: "rpn_rois"
    python_param {
      module: "rpn.proposal_layer"
      layer: "ProposalLayer"
      param_str: "{\"feat_stride\": 16, \"scales\": !!python/tuple [4, 8, 16, 32]}"
    }
  }
}
average_loss: 100
stepvalue: 70000
stepvalue: 120000
iter_size: 2
I0413 16:24:27.074745  8791 solver.cpp:86] Creating training net specified in net_param.
I0413 16:24:27.075130  8791 net.cpp:58] Initializing net from parameters: 
name: "GeneratedModel_13_04_2017_16_24"
state {
  phase: TRAIN
}
layer {
  name: "input"
  type: "Python"
  top: "input_data"
  top: "input_im_info"
  top: "input_gt_boxes"
  top: "input_ignored_boxes"
  python_param {
    module: "layers.roi_data_layer"
    layer: "RoIDataLayer"
    param_str: "{\"num_classes\": 2}"
  }
}
layer {
  name: "conv1_1"
  type: "Convolution"
  bottom: "input_data"
  top: "conv1_1"
  param {
    lr_mult: 0
    decay_mult: 0
  }
  param {
    lr_mult: 0
    decay_mult: 0
  }
  convolution_param {
    num_output: 64
    pad: 1
    kernel_size: 3
  }
}
layer {
  name: "relu1_1"
  type: "ReLU"
  bottom: "conv1_1"
  top: "conv1_1"
}
layer {
  name: "conv1_2"
  type: "Convolution"
  bottom: "conv1_1"
  top: "conv1_2"
  param {
    lr_mult: 0
    decay_mult: 0
  }
  param {
    lr_mult: 0
    decay_mult: 0
  }
  convolution_param {
    num_output: 64
    pad: 1
    kernel_size: 3
  }
}
layer {
  name: "relu1_2"
  type: "ReLU"
  bottom: "conv1_2"
  top: "conv1_2"
}
layer {
  name: "pool1"
  type: "Pooling"
  bottom: "conv1_2"
  top: "pool1"
  pooling_param {
    pool: MAX
    kernel_size: 2
    stride: 2
  }
}
layer {
  name: "conv2_1"
  type: "Convolution"
  bottom: "pool1"
  top: "conv2_1"
  param {
    lr_mult: 0
    decay_mult: 0
  }
  param {
    lr_mult: 0
    decay_mult: 0
  }
  convolution_param {
    num_output: 128
    pad: 1
    kernel_size: 3
  }
}
layer {
  name: "relu2_1"
  type: "ReLU"
  bottom: "conv2_1"
  top: "conv2_1"
}
layer {
  name: "conv2_2"
  type: "Convolution"
  bottom: "conv2_1"
  top: "conv2_2"
  param {
    lr_mult: 0
    decay_mult: 0
  }
  param {
    lr_mult: 0
    decay_mult: 0
  }
  convolution_param {
    num_output: 128
    pad: 1
    kernel_size: 3
  }
}
layer {
  name: "relu2_2"
  type: "ReLU"
  bottom: "conv2_2"
  top: "conv2_2"
}
layer {
  name: "pool2"
  type: "Pooling"
  bottom: "conv2_2"
  top: "pool2"
  pooling_param {
    pool: MAX
    kernel_size: 2
    stride: 2
  }
}
layer {
  name: "conv3_1"
  type: "Convolution"
  bottom: "pool2"
  top: "conv3_1"
  param {
    lr_mult: 1
  }
  param {
    lr_mult: 2
  }
  convolution_param {
    num_output: 256
    pad: 1
    kernel_size: 3
  }
}
layer {
  name: "relu3_1"
  type: "ReLU"
  bottom: "conv3_1"
  top: "conv3_1"
}
layer {
  name: "conv3_2"
  type: "Convolution"
  bottom: "conv3_1"
  top: "conv3_2"
  param {
    lr_mult: 1
  }
  param {
    lr_mult: 2
  }
  convolution_param {
    num_output: 256
    pad: 1
    kernel_size: 3
  }
}
layer {
  name: "relu3_2"
  type: "ReLU"
  bottom: "conv3_2"
  top: "conv3_2"
}
layer {
  name: "conv3_3"
  type: "Convolution"
  bottom: "conv3_2"
  top: "conv3_3"
  param {
    lr_mult: 1
  }
  param {
    lr_mult: 2
  }
  convolution_param {
    num_output: 256
    pad: 1
    kernel_size: 3
  }
}
layer {
  name: "relu3_3"
  type: "ReLU"
  bottom: "conv3_3"
  top: "conv3_3"
}
layer {
  name: "pool3"
  type: "Pooling"
  bottom: "conv3_3"
  top: "pool3"
  pooling_param {
    pool: MAX
    kernel_size: 2
    stride: 2
  }
}
layer {
  name: "conv4_1"
  type: "Convolution"
  bottom: "pool3"
  top: "conv4_1"
  param {
    lr_mult: 1
  }
  param {
    lr_mult: 2
  }
  convolution_param {
    num_output: 512
    pad: 1
    kernel_size: 3
  }
}
layer {
  name: "relu4_1"
  type: "ReLU"
  bottom: "conv4_1"
  top: "conv4_1"
}
layer {
  name: "conv4_2"
  type: "Convolution"
  bottom: "conv4_1"
  top: "conv4_2"
  param {
    lr_mult: 1
  }
  param {
    lr_mult: 2
  }
  convolution_param {
    num_output: 512
    pad: 1
    kernel_size: 3
  }
}
layer {
  name: "relu4_2"
  type: "ReLU"
  bottom: "conv4_2"
  top: "conv4_2"
}
layer {
  name: "conv4_3"
  type: "Convolution"
  bottom: "conv4_2"
  top: "conv4_3"
  param {
    lr_mult: 1
  }
  param {
    lr_mult: 2
  }
  convolution_param {
    num_output: 512
    pad: 1
    kernel_size: 3
  }
}
layer {
  name: "relu4_3"
  type: "ReLU"
  bottom: "conv4_3"
  top: "conv4_3"
}
layer {
  name: "pool4"
  type: "Pooling"
  bottom: "conv4_3"
  top: "pool4"
  pooling_param {
    pool: MAX
    kernel_size: 2
    stride: 2
  }
}
layer {
  name: "conv5_1"
  type: "Convolution"
  bottom: "pool4"
  top: "conv5_1"
  param {
    lr_mult: 1
  }
  param {
    lr_mult: 2
  }
  convolution_param {
    num_output: 512
    pad: 1
    kernel_size: 3
  }
}
layer {
  name: "relu5_1"
  type: "ReLU"
  bottom: "conv5_1"
  top: "conv5_1"
}
layer {
  name: "conv5_2"
  type: "Convolution"
  bottom: "conv5_1"
  top: "conv5_2"
  param {
    lr_mult: 1
  }
  param {
    lr_mult: 2
  }
  convolution_param {
    num_output: 512
    pad: 1
    kernel_size: 3
  }
}
layer {
  name: "relu5_2"
  type: "ReLU"
  bottom: "conv5_2"
  top: "conv5_2"
}
layer {
  name: "conv5_3"
  type: "Convolution"
  bottom: "conv5_2"
  top: "conv5_3"
  param {
    lr_mult: 1
  }
  param {
    lr_mult: 2
  }
  convolution_param {
    num_output: 512
    pad: 1
    kernel_size: 3
  }
}
layer {
  name: "relu5_3"
  type: "ReLU"
  bottom: "conv5_3"
  top: "conv5_3"
}
layer {
  name: "rpn_big_conv1"
  type: "Convolution"
  bottom: "conv5_3"
  top: "rpn_big_conv1"
  param {
    lr_mult: 1
  }
  param {
    lr_mult: 2
  }
  convolution_param {
    num_output: 512
    pad: 1
    kernel_size: 3
    stride: 1
    weight_filler {
      type: "gaussian"
      mean: 0
      std: 0.01
    }
    bias_filler {
      type: "constant"
    }
  }
}
layer {
  name: "rpn_big_conv1_relu"
  type: "ReLU"
  bottom: "rpn_big_conv1"
  top: "rpn_big_conv1"
  relu_param {
    negative_slope: 0
  }
}
layer {
  name: "rpn_big_conv2"
  type: "Convolution"
  bottom: "rpn_big_conv1"
  top: "rpn_big_conv2"
  param {
    lr_mult: 1
  }
  param {
    lr_mult: 2
  }
  convolution_param {
    num_output: 512
    pad: 1
    kernel_size: 3
    stride: 1
    weight_filler {
      type: "gaussian"
      mean: 0
      std: 0.01
    }
    bias_filler {
      type: "constant"
    }
  }
}
layer {
  name: "rpn_big_conv2_relu"
  type: "ReLU"
  bottom: "rpn_big_conv2"
  top: "rpn_big_conv2"
  relu_param {
    negative_slope: 0
  }
}
layer {
  name: "rpn_big_conv2_drop"
  type: "Dropout"
  bottom: "rpn_big_conv2"
  top: "rpn_big_conv2"
  dropout_param {
    dropout_ratio: 0.3
  }
}
layer {
  name: "rpn_big_output_cls"
  type: "Convolution"
  bottom: "rpn_big_conv2"
  top: "rpn_big_output_cls"
  param {
    lr_mult: 1
  }
  param {
    lr_mult: 2
  }
  convolution_param {
    num_output: 384
    pad: 1
    kernel_size: 3
    stride: 1
    weight_filler {
      type: "gaussian"
      mean: 0
      std: 0.01
    }
    bias_filler {
      type: "constant"
    }
  }
}
layer {
  name: "rpn_big_output_cls_relu"
  type: "ReLU"
  bottom: "rpn_big_output_cls"
  top: "rpn_big_output_cls"
  relu_param {
    negative_slope: 0
  }
}
layer {
  name: "rpn_big_cls_score"
  type: "Convolution"
  bottom: "rpn_big_output_cls"
  top: "rpn_big_cls_score"
  param {
    lr_mult: 1
  }
  param {
    lr_mult: 2
  }
  convolution_param {
    num_output: 52
    pad: 0
    kernel_size: 3
    stride: 1
    weight_filler {
      type: "gaussian"
      mean: 0
      std: 0.01
    }
    bias_filler {
      type: "constant"
    }
  }
}
layer {
  name: "rpn_big_cls_score_reshape"
  type: "Reshape"
  bottom: "rpn_big_cls_score"
  top: "rpn_big_cls_score_reshape"
  reshape_param {
    shape {
      dim: 0
      dim: 2
      dim: -1
      dim: 0
    }
  }
}
layer {
  name: "rpn_big_cls_prob"
  type: "Softmax"
  bottom: "rpn_big_cls_score_reshape"
  top: "rpn_big_cls_prob"
}
layer {
  name: "rpn_big_cls_prob_reshape"
  type: "Reshape"
  bottom: "rpn_big_cls_prob"
  top: "rpn_big_cls_prob_reshape"
  reshape_param {
    shape {
      dim: 0
      dim: 52
      dim: -1
      dim: 0
    }
  }
}
layer {
  name: "rpn_big_anchor_target"
  type: "Python"
  bottom: "rpn_big_cls_score"
  bottom: "input_gt_boxes"
  bottom: "input_ignored_boxes"
  bottom: "input_im_info"
  bottom: "input_data"
  bottom: "rpn_big_cls_prob_reshape"
  top: "rpn_big_anchor_target_labels"
  top: "rpn_big_anchor_target_bbox_targets"
  top: "rpn_big_anchor_target_inside_weights"
  top: "rpn_big_anchor_target_outside_weights"
  python_param {
    module: "rpn.anchor_target_layer"
    layer: "AnchorTargetLayer"
    param_str: "{\"anchor_shift_num_xy\": [[2, 2], [2, 2], [2, 2], [2, 2], [1, 1], [1, 1], [1, 1], [1, 1], [1, 1], [1, 1], [1, 1], [1, 1], [1, 1], [1, 1]], \"square_targets\": true, \"negative_overlap\": 0.4, \"feat_stride\": 16, \"num_classes\": 1, \"fg_fraction\": 0.5, \"positive_overlap\": 0.6, \"name\": \"rpn_big\", \"anchor_scales\": [2.5, 3.025, 3.66025, 4.4289024999999995, 5.358972025, 6.484356150249999, 7.846070941802498, 9.493745839581022, 11.487432465893036, 13.899793283730574, 16.818749873313998, 20.350687346709933, 24.62433168951902, 29.795441344318014], \"anchor_ratios\": [1.0], \"tn_fraction\": 0.2, \"batchsize\": 256}"
  }
}
layer {
  name: "rpn_big_loss_cls"
  type: "SoftmaxWithLoss"
  bottom: "rpn_big_cls_score_reshape"
  bottom: "rpn_big_anchor_target_labels"
  top: "rpn_big_loss_cls"
  loss_weight: 1
  propagate_down: true
  propagate_down: false
  loss_param {
    ignore_label: -1
    normalization: VALID
  }
}
layer {
  name: "rpn_big_output_box"
  type: "Convolution"
  bottom: "rpn_big_conv2"
  top: "rpn_big_output_box"
  param {
    lr_mult: 1
  }
  param {
    lr_mult: 2
  }
  convolution_param {
    num_output: 384
    pad: 1
    kernel_size: 3
    stride: 1
    weight_filler {
      type: "gaussian"
      mean: 0
      std: 0.01
    }
    bias_filler {
      type: "constant"
    }
  }
}
layer {
  name: "rpn_big_output_box_relu"
  type: "ReLU"
  bottom: "rpn_big_output_box"
  top: "rpn_big_output_box"
  relu_param {
    negative_slope: 0
  }
}
layer {
  name: "rpn_big_bbox_pred"
  type: "Convolution"
  bottom: "rpn_big_output_box"
  top: "rpn_big_bbox_pred"
  param {
    lr_mult: 1
  }
  param {
    lr_mult: 2
  }
  convolution_param {
    num_output: 104
    pad: 0
    kernel_size: 3
    stride: 1
    weight_filler {
      type: "gaussian"
      mean: 0
      std: 0.01
    }
    bias_filler {
      type: "constant"
    }
  }
}
layer {
  name: "rpn_big_loss_bbox"
  type: "Python"
  bottom: "rpn_big_bbox_pred"
  bottom: "rpn_big_anchor_target_bbox_targets"
  bottom: "rpn_big_anchor_target_inside_weights"
  bottom: "rpn_big_anchor_target_outside_weights"
  top: "rpn_big_loss_bbox"
  loss_weight: 1
  python_param {
    module: "layers.smooth_l1_loss"
    layer: "SmoothL1LossLayer"
    param_str: "{\"sigma\": 3}"
  }
}
layer {
  name: "proposal"
  type: "Python"
  bottom: "rpn_big_cls_prob_reshape"
  bottom: "rpn_big_bbox_pred"
  bottom: "input_im_info"
  top: "rpn_rois"
  python_param {
    module: "rpn.proposal_layer"
    layer: "ProposalLayer"
    param_str: "{\"feat_stride\": 16, \"scales\": !!python/tuple [4, 8, 16, 32]}"
  }
}
I0413 16:24:27.075311  8791 layer_factory.hpp:77] Creating layer input
I0413 16:24:27.076601  8791 net.cpp:100] Creating Layer input
I0413 16:24:27.076614  8791 net.cpp:408] input -> input_data
I0413 16:24:27.076627  8791 net.cpp:408] input -> input_im_info
I0413 16:24:27.076633  8791 net.cpp:408] input -> input_gt_boxes
I0413 16:24:27.076640  8791 net.cpp:408] input -> input_ignored_boxes
RoiDataLayer: name_to_top: {'im_info': 1, 'gt_boxes': 2, 'data': 0, 'ignored_boxes': 3}
I0413 16:24:27.386451  8791 net.cpp:150] Setting up input
I0413 16:24:27.386483  8791 net.cpp:157] Top shape: 1 3 1000 1500 (4500000)
I0413 16:24:27.386504  8791 net.cpp:157] Top shape: 1 3 (3)
I0413 16:24:27.386517  8791 net.cpp:157] Top shape: 1 5 (5)
I0413 16:24:27.386526  8791 net.cpp:157] Top shape: 1 5 (5)
I0413 16:24:27.386533  8791 net.cpp:165] Memory required for data: 18000052
I0413 16:24:27.386544  8791 layer_factory.hpp:77] Creating layer input_data_input_0_split
I0413 16:24:27.386564  8791 net.cpp:100] Creating Layer input_data_input_0_split
I0413 16:24:27.386572  8791 net.cpp:434] input_data_input_0_split <- input_data
I0413 16:24:27.386590  8791 net.cpp:408] input_data_input_0_split -> input_data_input_0_split_0
I0413 16:24:27.386616  8791 net.cpp:408] input_data_input_0_split -> input_data_input_0_split_1
I0413 16:24:27.386652  8791 net.cpp:150] Setting up input_data_input_0_split
I0413 16:24:27.386663  8791 net.cpp:157] Top shape: 1 3 1000 1500 (4500000)
I0413 16:24:27.386672  8791 net.cpp:157] Top shape: 1 3 1000 1500 (4500000)
I0413 16:24:27.386679  8791 net.cpp:165] Memory required for data: 54000052
I0413 16:24:27.386687  8791 layer_factory.hpp:77] Creating layer input_im_info_input_1_split
I0413 16:24:27.386699  8791 net.cpp:100] Creating Layer input_im_info_input_1_split
I0413 16:24:27.386706  8791 net.cpp:434] input_im_info_input_1_split <- input_im_info
I0413 16:24:27.386719  8791 net.cpp:408] input_im_info_input_1_split -> input_im_info_input_1_split_0
I0413 16:24:27.386731  8791 net.cpp:408] input_im_info_input_1_split -> input_im_info_input_1_split_1
I0413 16:24:27.386770  8791 net.cpp:150] Setting up input_im_info_input_1_split
I0413 16:24:27.386778  8791 net.cpp:157] Top shape: 1 3 (3)
I0413 16:24:27.386785  8791 net.cpp:157] Top shape: 1 3 (3)
I0413 16:24:27.386792  8791 net.cpp:165] Memory required for data: 54000076
I0413 16:24:27.386798  8791 layer_factory.hpp:77] Creating layer conv1_1
I0413 16:24:27.386814  8791 net.cpp:100] Creating Layer conv1_1
I0413 16:24:27.386821  8791 net.cpp:434] conv1_1 <- input_data_input_0_split_0
I0413 16:24:27.386833  8791 net.cpp:408] conv1_1 -> conv1_1
I0413 16:24:27.389850  8791 net.cpp:150] Setting up conv1_1
I0413 16:24:27.389892  8791 net.cpp:157] Top shape: 1 64 1000 1500 (96000000)
I0413 16:24:27.389899  8791 net.cpp:165] Memory required for data: 438000076
I0413 16:24:27.389924  8791 layer_factory.hpp:77] Creating layer relu1_1
I0413 16:24:27.389945  8791 net.cpp:100] Creating Layer relu1_1
I0413 16:24:27.389952  8791 net.cpp:434] relu1_1 <- conv1_1
I0413 16:24:27.389967  8791 net.cpp:395] relu1_1 -> conv1_1 (in-place)
I0413 16:24:27.389983  8791 net.cpp:150] Setting up relu1_1
I0413 16:24:27.389992  8791 net.cpp:157] Top shape: 1 64 1000 1500 (96000000)
I0413 16:24:27.389999  8791 net.cpp:165] Memory required for data: 822000076
I0413 16:24:27.390007  8791 layer_factory.hpp:77] Creating layer conv1_2
I0413 16:24:27.390022  8791 net.cpp:100] Creating Layer conv1_2
I0413 16:24:27.390027  8791 net.cpp:434] conv1_2 <- conv1_1
I0413 16:24:27.390040  8791 net.cpp:408] conv1_2 -> conv1_2
I0413 16:24:27.393561  8791 net.cpp:150] Setting up conv1_2
I0413 16:24:27.393597  8791 net.cpp:157] Top shape: 1 64 1000 1500 (96000000)
I0413 16:24:27.393604  8791 net.cpp:165] Memory required for data: 1206000076
I0413 16:24:27.393625  8791 layer_factory.hpp:77] Creating layer relu1_2
I0413 16:24:27.393638  8791 net.cpp:100] Creating Layer relu1_2
I0413 16:24:27.393645  8791 net.cpp:434] relu1_2 <- conv1_2
I0413 16:24:27.393656  8791 net.cpp:395] relu1_2 -> conv1_2 (in-place)
I0413 16:24:27.393671  8791 net.cpp:150] Setting up relu1_2
I0413 16:24:27.393681  8791 net.cpp:157] Top shape: 1 64 1000 1500 (96000000)
I0413 16:24:27.393684  8791 net.cpp:165] Memory required for data: 1590000076
I0413 16:24:27.393690  8791 layer_factory.hpp:77] Creating layer pool1
I0413 16:24:27.393699  8791 net.cpp:100] Creating Layer pool1
I0413 16:24:27.393705  8791 net.cpp:434] pool1 <- conv1_2
I0413 16:24:27.393715  8791 net.cpp:408] pool1 -> pool1
I0413 16:24:27.393805  8791 net.cpp:150] Setting up pool1
I0413 16:24:27.393818  8791 net.cpp:157] Top shape: 1 64 500 750 (24000000)
I0413 16:24:27.393823  8791 net.cpp:165] Memory required for data: 1686000076
I0413 16:24:27.393829  8791 layer_factory.hpp:77] Creating layer conv2_1
I0413 16:24:27.393848  8791 net.cpp:100] Creating Layer conv2_1
I0413 16:24:27.393853  8791 net.cpp:434] conv2_1 <- pool1
I0413 16:24:27.393862  8791 net.cpp:408] conv2_1 -> conv2_1
I0413 16:24:27.395659  8791 net.cpp:150] Setting up conv2_1
I0413 16:24:27.395689  8791 net.cpp:157] Top shape: 1 128 500 750 (48000000)
I0413 16:24:27.395695  8791 net.cpp:165] Memory required for data: 1878000076
I0413 16:24:27.395716  8791 layer_factory.hpp:77] Creating layer relu2_1
I0413 16:24:27.395728  8791 net.cpp:100] Creating Layer relu2_1
I0413 16:24:27.395735  8791 net.cpp:434] relu2_1 <- conv2_1
I0413 16:24:27.395746  8791 net.cpp:395] relu2_1 -> conv2_1 (in-place)
I0413 16:24:27.395761  8791 net.cpp:150] Setting up relu2_1
I0413 16:24:27.395768  8791 net.cpp:157] Top shape: 1 128 500 750 (48000000)
I0413 16:24:27.395773  8791 net.cpp:165] Memory required for data: 2070000076
I0413 16:24:27.395778  8791 layer_factory.hpp:77] Creating layer conv2_2
I0413 16:24:27.395792  8791 net.cpp:100] Creating Layer conv2_2
I0413 16:24:27.395798  8791 net.cpp:434] conv2_2 <- conv2_1
I0413 16:24:27.395807  8791 net.cpp:408] conv2_2 -> conv2_2
I0413 16:24:27.397194  8791 net.cpp:150] Setting up conv2_2
I0413 16:24:27.397224  8791 net.cpp:157] Top shape: 1 128 500 750 (48000000)
I0413 16:24:27.397231  8791 net.cpp:165] Memory required for data: 2262000076
I0413 16:24:27.397246  8791 layer_factory.hpp:77] Creating layer relu2_2
I0413 16:24:27.397259  8791 net.cpp:100] Creating Layer relu2_2
I0413 16:24:27.397267  8791 net.cpp:434] relu2_2 <- conv2_2
I0413 16:24:27.397277  8791 net.cpp:395] relu2_2 -> conv2_2 (in-place)
I0413 16:24:27.397296  8791 net.cpp:150] Setting up relu2_2
I0413 16:24:27.397306  8791 net.cpp:157] Top shape: 1 128 500 750 (48000000)
I0413 16:24:27.397312  8791 net.cpp:165] Memory required for data: 2454000076
I0413 16:24:27.397317  8791 layer_factory.hpp:77] Creating layer pool2
I0413 16:24:27.397330  8791 net.cpp:100] Creating Layer pool2
I0413 16:24:27.397336  8791 net.cpp:434] pool2 <- conv2_2
I0413 16:24:27.397346  8791 net.cpp:408] pool2 -> pool2
I0413 16:24:27.397413  8791 net.cpp:150] Setting up pool2
I0413 16:24:27.397426  8791 net.cpp:157] Top shape: 1 128 250 375 (12000000)
I0413 16:24:27.397431  8791 net.cpp:165] Memory required for data: 2502000076
I0413 16:24:27.397436  8791 layer_factory.hpp:77] Creating layer conv3_1
I0413 16:24:27.397450  8791 net.cpp:100] Creating Layer conv3_1
I0413 16:24:27.397457  8791 net.cpp:434] conv3_1 <- pool2
I0413 16:24:27.397469  8791 net.cpp:408] conv3_1 -> conv3_1
I0413 16:24:27.399062  8791 net.cpp:150] Setting up conv3_1
I0413 16:24:27.399121  8791 net.cpp:157] Top shape: 1 256 250 375 (24000000)
I0413 16:24:27.399124  8791 net.cpp:165] Memory required for data: 2598000076
I0413 16:24:27.399142  8791 layer_factory.hpp:77] Creating layer relu3_1
I0413 16:24:27.399152  8791 net.cpp:100] Creating Layer relu3_1
I0413 16:24:27.399155  8791 net.cpp:434] relu3_1 <- conv3_1
I0413 16:24:27.399163  8791 net.cpp:395] relu3_1 -> conv3_1 (in-place)
I0413 16:24:27.399173  8791 net.cpp:150] Setting up relu3_1
I0413 16:24:27.399178  8791 net.cpp:157] Top shape: 1 256 250 375 (24000000)
I0413 16:24:27.399180  8791 net.cpp:165] Memory required for data: 2694000076
I0413 16:24:27.399183  8791 layer_factory.hpp:77] Creating layer conv3_2
I0413 16:24:27.399193  8791 net.cpp:100] Creating Layer conv3_2
I0413 16:24:27.399196  8791 net.cpp:434] conv3_2 <- conv3_1
I0413 16:24:27.399202  8791 net.cpp:408] conv3_2 -> conv3_2
I0413 16:24:27.401288  8791 net.cpp:150] Setting up conv3_2
I0413 16:24:27.401319  8791 net.cpp:157] Top shape: 1 256 250 375 (24000000)
I0413 16:24:27.401324  8791 net.cpp:165] Memory required for data: 2790000076
I0413 16:24:27.401334  8791 layer_factory.hpp:77] Creating layer relu3_2
I0413 16:24:27.401348  8791 net.cpp:100] Creating Layer relu3_2
I0413 16:24:27.401352  8791 net.cpp:434] relu3_2 <- conv3_2
I0413 16:24:27.401360  8791 net.cpp:395] relu3_2 -> conv3_2 (in-place)
I0413 16:24:27.401378  8791 net.cpp:150] Setting up relu3_2
I0413 16:24:27.401384  8791 net.cpp:157] Top shape: 1 256 250 375 (24000000)
I0413 16:24:27.401387  8791 net.cpp:165] Memory required for data: 2886000076
I0413 16:24:27.401391  8791 layer_factory.hpp:77] Creating layer conv3_3
I0413 16:24:27.401401  8791 net.cpp:100] Creating Layer conv3_3
I0413 16:24:27.401404  8791 net.cpp:434] conv3_3 <- conv3_2
I0413 16:24:27.401412  8791 net.cpp:408] conv3_3 -> conv3_3
I0413 16:24:27.402990  8791 net.cpp:150] Setting up conv3_3
I0413 16:24:27.403022  8791 net.cpp:157] Top shape: 1 256 250 375 (24000000)
I0413 16:24:27.403024  8791 net.cpp:165] Memory required for data: 2982000076
I0413 16:24:27.403034  8791 layer_factory.hpp:77] Creating layer relu3_3
I0413 16:24:27.403044  8791 net.cpp:100] Creating Layer relu3_3
I0413 16:24:27.403048  8791 net.cpp:434] relu3_3 <- conv3_3
I0413 16:24:27.403057  8791 net.cpp:395] relu3_3 -> conv3_3 (in-place)
I0413 16:24:27.403067  8791 net.cpp:150] Setting up relu3_3
I0413 16:24:27.403072  8791 net.cpp:157] Top shape: 1 256 250 375 (24000000)
I0413 16:24:27.403075  8791 net.cpp:165] Memory required for data: 3078000076
I0413 16:24:27.403079  8791 layer_factory.hpp:77] Creating layer pool3
I0413 16:24:27.403084  8791 net.cpp:100] Creating Layer pool3
I0413 16:24:27.403087  8791 net.cpp:434] pool3 <- conv3_3
I0413 16:24:27.403095  8791 net.cpp:408] pool3 -> pool3
I0413 16:24:27.403139  8791 net.cpp:150] Setting up pool3
I0413 16:24:27.403147  8791 net.cpp:157] Top shape: 1 256 125 188 (6016000)
I0413 16:24:27.403151  8791 net.cpp:165] Memory required for data: 3102064076
I0413 16:24:27.403153  8791 layer_factory.hpp:77] Creating layer conv4_1
I0413 16:24:27.403162  8791 net.cpp:100] Creating Layer conv4_1
I0413 16:24:27.403167  8791 net.cpp:434] conv4_1 <- pool3
I0413 16:24:27.403172  8791 net.cpp:408] conv4_1 -> conv4_1
I0413 16:24:27.405848  8791 net.cpp:150] Setting up conv4_1
I0413 16:24:27.405879  8791 net.cpp:157] Top shape: 1 512 125 188 (12032000)
I0413 16:24:27.405892  8791 net.cpp:165] Memory required for data: 3150192076
I0413 16:24:27.405902  8791 layer_factory.hpp:77] Creating layer relu4_1
I0413 16:24:27.405911  8791 net.cpp:100] Creating Layer relu4_1
I0413 16:24:27.405916  8791 net.cpp:434] relu4_1 <- conv4_1
I0413 16:24:27.405925  8791 net.cpp:395] relu4_1 -> conv4_1 (in-place)
I0413 16:24:27.405936  8791 net.cpp:150] Setting up relu4_1
I0413 16:24:27.405941  8791 net.cpp:157] Top shape: 1 512 125 188 (12032000)
I0413 16:24:27.405943  8791 net.cpp:165] Memory required for data: 3198320076
I0413 16:24:27.405946  8791 layer_factory.hpp:77] Creating layer conv4_2
I0413 16:24:27.405956  8791 net.cpp:100] Creating Layer conv4_2
I0413 16:24:27.405959  8791 net.cpp:434] conv4_2 <- conv4_1
I0413 16:24:27.405964  8791 net.cpp:408] conv4_2 -> conv4_2
I0413 16:24:27.410090  8791 net.cpp:150] Setting up conv4_2
I0413 16:24:27.410126  8791 net.cpp:157] Top shape: 1 512 125 188 (12032000)
I0413 16:24:27.410130  8791 net.cpp:165] Memory required for data: 3246448076
I0413 16:24:27.410146  8791 layer_factory.hpp:77] Creating layer relu4_2
I0413 16:24:27.410156  8791 net.cpp:100] Creating Layer relu4_2
I0413 16:24:27.410161  8791 net.cpp:434] relu4_2 <- conv4_2
I0413 16:24:27.410169  8791 net.cpp:395] relu4_2 -> conv4_2 (in-place)
I0413 16:24:27.410179  8791 net.cpp:150] Setting up relu4_2
I0413 16:24:27.410184  8791 net.cpp:157] Top shape: 1 512 125 188 (12032000)
I0413 16:24:27.410187  8791 net.cpp:165] Memory required for data: 3294576076
I0413 16:24:27.410190  8791 layer_factory.hpp:77] Creating layer conv4_3
I0413 16:24:27.410199  8791 net.cpp:100] Creating Layer conv4_3
I0413 16:24:27.410203  8791 net.cpp:434] conv4_3 <- conv4_2
I0413 16:24:27.410209  8791 net.cpp:408] conv4_3 -> conv4_3
I0413 16:24:27.414815  8791 net.cpp:150] Setting up conv4_3
I0413 16:24:27.414857  8791 net.cpp:157] Top shape: 1 512 125 188 (12032000)
I0413 16:24:27.414862  8791 net.cpp:165] Memory required for data: 3342704076
I0413 16:24:27.414875  8791 layer_factory.hpp:77] Creating layer relu4_3
I0413 16:24:27.414888  8791 net.cpp:100] Creating Layer relu4_3
I0413 16:24:27.414896  8791 net.cpp:434] relu4_3 <- conv4_3
I0413 16:24:27.414906  8791 net.cpp:395] relu4_3 -> conv4_3 (in-place)
I0413 16:24:27.414917  8791 net.cpp:150] Setting up relu4_3
I0413 16:24:27.414925  8791 net.cpp:157] Top shape: 1 512 125 188 (12032000)
I0413 16:24:27.414929  8791 net.cpp:165] Memory required for data: 3390832076
I0413 16:24:27.414934  8791 layer_factory.hpp:77] Creating layer pool4
I0413 16:24:27.414942  8791 net.cpp:100] Creating Layer pool4
I0413 16:24:27.414958  8791 net.cpp:434] pool4 <- conv4_3
I0413 16:24:27.414968  8791 net.cpp:408] pool4 -> pool4
I0413 16:24:27.415017  8791 net.cpp:150] Setting up pool4
I0413 16:24:27.415027  8791 net.cpp:157] Top shape: 1 512 63 94 (3032064)
I0413 16:24:27.415032  8791 net.cpp:165] Memory required for data: 3402960332
I0413 16:24:27.415037  8791 layer_factory.hpp:77] Creating layer conv5_1
I0413 16:24:27.415052  8791 net.cpp:100] Creating Layer conv5_1
I0413 16:24:27.415058  8791 net.cpp:434] conv5_1 <- pool4
I0413 16:24:27.415066  8791 net.cpp:408] conv5_1 -> conv5_1
I0413 16:24:27.423373  8791 net.cpp:150] Setting up conv5_1
I0413 16:24:27.423403  8791 net.cpp:157] Top shape: 1 512 63 94 (3032064)
I0413 16:24:27.423408  8791 net.cpp:165] Memory required for data: 3415088588
I0413 16:24:27.423418  8791 layer_factory.hpp:77] Creating layer relu5_1
I0413 16:24:27.423429  8791 net.cpp:100] Creating Layer relu5_1
I0413 16:24:27.423432  8791 net.cpp:434] relu5_1 <- conv5_1
I0413 16:24:27.423441  8791 net.cpp:395] relu5_1 -> conv5_1 (in-place)
I0413 16:24:27.423452  8791 net.cpp:150] Setting up relu5_1
I0413 16:24:27.423457  8791 net.cpp:157] Top shape: 1 512 63 94 (3032064)
I0413 16:24:27.423460  8791 net.cpp:165] Memory required for data: 3427216844
I0413 16:24:27.423463  8791 layer_factory.hpp:77] Creating layer conv5_2
I0413 16:24:27.423473  8791 net.cpp:100] Creating Layer conv5_2
I0413 16:24:27.423476  8791 net.cpp:434] conv5_2 <- conv5_1
I0413 16:24:27.423482  8791 net.cpp:408] conv5_2 -> conv5_2
I0413 16:24:27.427705  8791 net.cpp:150] Setting up conv5_2
I0413 16:24:27.427741  8791 net.cpp:157] Top shape: 1 512 63 94 (3032064)
I0413 16:24:27.427753  8791 net.cpp:165] Memory required for data: 3439345100
I0413 16:24:27.427763  8791 layer_factory.hpp:77] Creating layer relu5_2
I0413 16:24:27.427772  8791 net.cpp:100] Creating Layer relu5_2
I0413 16:24:27.427778  8791 net.cpp:434] relu5_2 <- conv5_2
I0413 16:24:27.427786  8791 net.cpp:395] relu5_2 -> conv5_2 (in-place)
I0413 16:24:27.427796  8791 net.cpp:150] Setting up relu5_2
I0413 16:24:27.427801  8791 net.cpp:157] Top shape: 1 512 63 94 (3032064)
I0413 16:24:27.427804  8791 net.cpp:165] Memory required for data: 3451473356
I0413 16:24:27.427808  8791 layer_factory.hpp:77] Creating layer conv5_3
I0413 16:24:27.427816  8791 net.cpp:100] Creating Layer conv5_3
I0413 16:24:27.427819  8791 net.cpp:434] conv5_3 <- conv5_2
I0413 16:24:27.427825  8791 net.cpp:408] conv5_3 -> conv5_3
I0413 16:24:27.432078  8791 net.cpp:150] Setting up conv5_3
I0413 16:24:27.432114  8791 net.cpp:157] Top shape: 1 512 63 94 (3032064)
I0413 16:24:27.432117  8791 net.cpp:165] Memory required for data: 3463601612
I0413 16:24:27.432128  8791 layer_factory.hpp:77] Creating layer relu5_3
I0413 16:24:27.432144  8791 net.cpp:100] Creating Layer relu5_3
I0413 16:24:27.432149  8791 net.cpp:434] relu5_3 <- conv5_3
I0413 16:24:27.432157  8791 net.cpp:395] relu5_3 -> conv5_3 (in-place)
I0413 16:24:27.432166  8791 net.cpp:150] Setting up relu5_3
I0413 16:24:27.432171  8791 net.cpp:157] Top shape: 1 512 63 94 (3032064)
I0413 16:24:27.432174  8791 net.cpp:165] Memory required for data: 3475729868
I0413 16:24:27.432178  8791 layer_factory.hpp:77] Creating layer rpn_big_conv1
I0413 16:24:27.432188  8791 net.cpp:100] Creating Layer rpn_big_conv1
I0413 16:24:27.432191  8791 net.cpp:434] rpn_big_conv1 <- conv5_3
I0413 16:24:27.432199  8791 net.cpp:408] rpn_big_conv1 -> rpn_big_conv1
I0413 16:24:27.458042  8791 net.cpp:150] Setting up rpn_big_conv1
I0413 16:24:27.458070  8791 net.cpp:157] Top shape: 1 512 63 94 (3032064)
I0413 16:24:27.458083  8791 net.cpp:165] Memory required for data: 3487858124
I0413 16:24:27.458093  8791 layer_factory.hpp:77] Creating layer rpn_big_conv1_relu
I0413 16:24:27.458104  8791 net.cpp:100] Creating Layer rpn_big_conv1_relu
I0413 16:24:27.458108  8791 net.cpp:434] rpn_big_conv1_relu <- rpn_big_conv1
I0413 16:24:27.458117  8791 net.cpp:395] rpn_big_conv1_relu -> rpn_big_conv1 (in-place)
I0413 16:24:27.458128  8791 net.cpp:150] Setting up rpn_big_conv1_relu
I0413 16:24:27.458132  8791 net.cpp:157] Top shape: 1 512 63 94 (3032064)
I0413 16:24:27.458135  8791 net.cpp:165] Memory required for data: 3499986380
I0413 16:24:27.458138  8791 layer_factory.hpp:77] Creating layer rpn_big_conv2
I0413 16:24:27.458149  8791 net.cpp:100] Creating Layer rpn_big_conv2
I0413 16:24:27.458153  8791 net.cpp:434] rpn_big_conv2 <- rpn_big_conv1
I0413 16:24:27.458158  8791 net.cpp:408] rpn_big_conv2 -> rpn_big_conv2
I0413 16:24:27.485132  8791 net.cpp:150] Setting up rpn_big_conv2
I0413 16:24:27.485162  8791 net.cpp:157] Top shape: 1 512 63 94 (3032064)
I0413 16:24:27.485175  8791 net.cpp:165] Memory required for data: 3512114636
I0413 16:24:27.485185  8791 layer_factory.hpp:77] Creating layer rpn_big_conv2_relu
I0413 16:24:27.485196  8791 net.cpp:100] Creating Layer rpn_big_conv2_relu
I0413 16:24:27.485201  8791 net.cpp:434] rpn_big_conv2_relu <- rpn_big_conv2
I0413 16:24:27.485208  8791 net.cpp:395] rpn_big_conv2_relu -> rpn_big_conv2 (in-place)
I0413 16:24:27.485219  8791 net.cpp:150] Setting up rpn_big_conv2_relu
I0413 16:24:27.485224  8791 net.cpp:157] Top shape: 1 512 63 94 (3032064)
I0413 16:24:27.485225  8791 net.cpp:165] Memory required for data: 3524242892
I0413 16:24:27.485229  8791 layer_factory.hpp:77] Creating layer rpn_big_conv2_drop
I0413 16:24:27.485236  8791 net.cpp:100] Creating Layer rpn_big_conv2_drop
I0413 16:24:27.485240  8791 net.cpp:434] rpn_big_conv2_drop <- rpn_big_conv2
I0413 16:24:27.485244  8791 net.cpp:395] rpn_big_conv2_drop -> rpn_big_conv2 (in-place)
I0413 16:24:27.485267  8791 net.cpp:150] Setting up rpn_big_conv2_drop
I0413 16:24:27.485273  8791 net.cpp:157] Top shape: 1 512 63 94 (3032064)
I0413 16:24:27.485276  8791 net.cpp:165] Memory required for data: 3536371148
I0413 16:24:27.485280  8791 layer_factory.hpp:77] Creating layer rpn_big_conv2_rpn_big_conv2_drop_0_split
I0413 16:24:27.485285  8791 net.cpp:100] Creating Layer rpn_big_conv2_rpn_big_conv2_drop_0_split
I0413 16:24:27.485288  8791 net.cpp:434] rpn_big_conv2_rpn_big_conv2_drop_0_split <- rpn_big_conv2
I0413 16:24:27.485294  8791 net.cpp:408] rpn_big_conv2_rpn_big_conv2_drop_0_split -> rpn_big_conv2_rpn_big_conv2_drop_0_split_0
I0413 16:24:27.485301  8791 net.cpp:408] rpn_big_conv2_rpn_big_conv2_drop_0_split -> rpn_big_conv2_rpn_big_conv2_drop_0_split_1
I0413 16:24:27.485332  8791 net.cpp:150] Setting up rpn_big_conv2_rpn_big_conv2_drop_0_split
I0413 16:24:27.485339  8791 net.cpp:157] Top shape: 1 512 63 94 (3032064)
I0413 16:24:27.485343  8791 net.cpp:157] Top shape: 1 512 63 94 (3032064)
I0413 16:24:27.485347  8791 net.cpp:165] Memory required for data: 3560627660
I0413 16:24:27.485349  8791 layer_factory.hpp:77] Creating layer rpn_big_output_cls
I0413 16:24:27.485360  8791 net.cpp:100] Creating Layer rpn_big_output_cls
I0413 16:24:27.485364  8791 net.cpp:434] rpn_big_output_cls <- rpn_big_conv2_rpn_big_conv2_drop_0_split_0
I0413 16:24:27.485371  8791 net.cpp:408] rpn_big_output_cls -> rpn_big_output_cls
I0413 16:24:27.506840  8791 net.cpp:150] Setting up rpn_big_output_cls
I0413 16:24:27.506870  8791 net.cpp:157] Top shape: 1 384 63 94 (2274048)
I0413 16:24:27.506883  8791 net.cpp:165] Memory required for data: 3569723852
I0413 16:24:27.506893  8791 layer_factory.hpp:77] Creating layer rpn_big_output_cls_relu
I0413 16:24:27.506906  8791 net.cpp:100] Creating Layer rpn_big_output_cls_relu
I0413 16:24:27.506911  8791 net.cpp:434] rpn_big_output_cls_relu <- rpn_big_output_cls
I0413 16:24:27.506919  8791 net.cpp:395] rpn_big_output_cls_relu -> rpn_big_output_cls (in-place)
I0413 16:24:27.506929  8791 net.cpp:150] Setting up rpn_big_output_cls_relu
I0413 16:24:27.506934  8791 net.cpp:157] Top shape: 1 384 63 94 (2274048)
I0413 16:24:27.506937  8791 net.cpp:165] Memory required for data: 3578820044
I0413 16:24:27.506940  8791 layer_factory.hpp:77] Creating layer rpn_big_cls_score
I0413 16:24:27.506952  8791 net.cpp:100] Creating Layer rpn_big_cls_score
I0413 16:24:27.506954  8791 net.cpp:434] rpn_big_cls_score <- rpn_big_output_cls
I0413 16:24:27.506961  8791 net.cpp:408] rpn_big_cls_score -> rpn_big_cls_score
I0413 16:24:27.509748  8791 net.cpp:150] Setting up rpn_big_cls_score
I0413 16:24:27.509769  8791 net.cpp:157] Top shape: 1 52 61 92 (291824)
I0413 16:24:27.509773  8791 net.cpp:165] Memory required for data: 3579987340
I0413 16:24:27.509798  8791 layer_factory.hpp:77] Creating layer rpn_big_cls_score_rpn_big_cls_score_0_split
I0413 16:24:27.509806  8791 net.cpp:100] Creating Layer rpn_big_cls_score_rpn_big_cls_score_0_split
I0413 16:24:27.509811  8791 net.cpp:434] rpn_big_cls_score_rpn_big_cls_score_0_split <- rpn_big_cls_score
I0413 16:24:27.509819  8791 net.cpp:408] rpn_big_cls_score_rpn_big_cls_score_0_split -> rpn_big_cls_score_rpn_big_cls_score_0_split_0
I0413 16:24:27.509829  8791 net.cpp:408] rpn_big_cls_score_rpn_big_cls_score_0_split -> rpn_big_cls_score_rpn_big_cls_score_0_split_1
I0413 16:24:27.509867  8791 net.cpp:150] Setting up rpn_big_cls_score_rpn_big_cls_score_0_split
I0413 16:24:27.509874  8791 net.cpp:157] Top shape: 1 52 61 92 (291824)
I0413 16:24:27.509879  8791 net.cpp:157] Top shape: 1 52 61 92 (291824)
I0413 16:24:27.509882  8791 net.cpp:165] Memory required for data: 3582321932
I0413 16:24:27.509886  8791 layer_factory.hpp:77] Creating layer rpn_big_cls_score_reshape
I0413 16:24:27.509893  8791 net.cpp:100] Creating Layer rpn_big_cls_score_reshape
I0413 16:24:27.509896  8791 net.cpp:434] rpn_big_cls_score_reshape <- rpn_big_cls_score_rpn_big_cls_score_0_split_0
I0413 16:24:27.509907  8791 net.cpp:408] rpn_big_cls_score_reshape -> rpn_big_cls_score_reshape
I0413 16:24:27.509933  8791 net.cpp:150] Setting up rpn_big_cls_score_reshape
I0413 16:24:27.509941  8791 net.cpp:157] Top shape: 1 2 1586 92 (291824)
I0413 16:24:27.509944  8791 net.cpp:165] Memory required for data: 3583489228
I0413 16:24:27.509948  8791 layer_factory.hpp:77] Creating layer rpn_big_cls_score_reshape_rpn_big_cls_score_reshape_0_split
I0413 16:24:27.509953  8791 net.cpp:100] Creating Layer rpn_big_cls_score_reshape_rpn_big_cls_score_reshape_0_split
I0413 16:24:27.509956  8791 net.cpp:434] rpn_big_cls_score_reshape_rpn_big_cls_score_reshape_0_split <- rpn_big_cls_score_reshape
I0413 16:24:27.509961  8791 net.cpp:408] rpn_big_cls_score_reshape_rpn_big_cls_score_reshape_0_split -> rpn_big_cls_score_reshape_rpn_big_cls_score_reshape_0_split_0
I0413 16:24:27.509969  8791 net.cpp:408] rpn_big_cls_score_reshape_rpn_big_cls_score_reshape_0_split -> rpn_big_cls_score_reshape_rpn_big_cls_score_reshape_0_split_1
I0413 16:24:27.509999  8791 net.cpp:150] Setting up rpn_big_cls_score_reshape_rpn_big_cls_score_reshape_0_split
I0413 16:24:27.510006  8791 net.cpp:157] Top shape: 1 2 1586 92 (291824)
I0413 16:24:27.510010  8791 net.cpp:157] Top shape: 1 2 1586 92 (291824)
I0413 16:24:27.510013  8791 net.cpp:165] Memory required for data: 3585823820
I0413 16:24:27.510016  8791 layer_factory.hpp:77] Creating layer rpn_big_cls_prob
I0413 16:24:27.510023  8791 net.cpp:100] Creating Layer rpn_big_cls_prob
I0413 16:24:27.510027  8791 net.cpp:434] rpn_big_cls_prob <- rpn_big_cls_score_reshape_rpn_big_cls_score_reshape_0_split_0
I0413 16:24:27.510033  8791 net.cpp:408] rpn_big_cls_prob -> rpn_big_cls_prob
I0413 16:24:27.510082  8791 net.cpp:150] Setting up rpn_big_cls_prob
I0413 16:24:27.510089  8791 net.cpp:157] Top shape: 1 2 1586 92 (291824)
I0413 16:24:27.510092  8791 net.cpp:165] Memory required for data: 3586991116
I0413 16:24:27.510095  8791 layer_factory.hpp:77] Creating layer rpn_big_cls_prob_reshape
I0413 16:24:27.510100  8791 net.cpp:100] Creating Layer rpn_big_cls_prob_reshape
I0413 16:24:27.510104  8791 net.cpp:434] rpn_big_cls_prob_reshape <- rpn_big_cls_prob
I0413 16:24:27.510109  8791 net.cpp:408] rpn_big_cls_prob_reshape -> rpn_big_cls_prob_reshape
I0413 16:24:27.510130  8791 net.cpp:150] Setting up rpn_big_cls_prob_reshape
I0413 16:24:27.510138  8791 net.cpp:157] Top shape: 1 52 61 92 (291824)
I0413 16:24:27.510140  8791 net.cpp:165] Memory required for data: 3588158412
I0413 16:24:27.510143  8791 layer_factory.hpp:77] Creating layer rpn_big_cls_prob_reshape_rpn_big_cls_prob_reshape_0_split
I0413 16:24:27.510149  8791 net.cpp:100] Creating Layer rpn_big_cls_prob_reshape_rpn_big_cls_prob_reshape_0_split
I0413 16:24:27.510151  8791 net.cpp:434] rpn_big_cls_prob_reshape_rpn_big_cls_prob_reshape_0_split <- rpn_big_cls_prob_reshape
I0413 16:24:27.510156  8791 net.cpp:408] rpn_big_cls_prob_reshape_rpn_big_cls_prob_reshape_0_split -> rpn_big_cls_prob_reshape_rpn_big_cls_prob_reshape_0_split_0
I0413 16:24:27.510162  8791 net.cpp:408] rpn_big_cls_prob_reshape_rpn_big_cls_prob_reshape_0_split -> rpn_big_cls_prob_reshape_rpn_big_cls_prob_reshape_0_split_1
I0413 16:24:27.510190  8791 net.cpp:150] Setting up rpn_big_cls_prob_reshape_rpn_big_cls_prob_reshape_0_split
I0413 16:24:27.510197  8791 net.cpp:157] Top shape: 1 52 61 92 (291824)
I0413 16:24:27.510201  8791 net.cpp:157] Top shape: 1 52 61 92 (291824)
I0413 16:24:27.510203  8791 net.cpp:165] Memory required for data: 3590493004
I0413 16:24:27.510206  8791 layer_factory.hpp:77] Creating layer rpn_big_anchor_target
I0413 16:24:27.511510  8791 net.cpp:100] Creating Layer rpn_big_anchor_target
I0413 16:24:27.511526  8791 net.cpp:434] rpn_big_anchor_target <- rpn_big_cls_score_rpn_big_cls_score_0_split_1
I0413 16:24:27.511533  8791 net.cpp:434] rpn_big_anchor_target <- input_gt_boxes
I0413 16:24:27.511538  8791 net.cpp:434] rpn_big_anchor_target <- input_ignored_boxes
I0413 16:24:27.511543  8791 net.cpp:434] rpn_big_anchor_target <- input_im_info_input_1_split_0
I0413 16:24:27.511546  8791 net.cpp:434] rpn_big_anchor_target <- input_data_input_0_split_1
I0413 16:24:27.511550  8791 net.cpp:434] rpn_big_anchor_target <- rpn_big_cls_prob_reshape_rpn_big_cls_prob_reshape_0_split_0
I0413 16:24:27.511557  8791 net.cpp:408] rpn_big_anchor_target -> rpn_big_anchor_target_labels
I0413 16:24:27.511566  8791 net.cpp:408] rpn_big_anchor_target -> rpn_big_anchor_target_bbox_targets
I0413 16:24:27.511575  8791 net.cpp:408] rpn_big_anchor_target -> rpn_big_anchor_target_inside_weights
I0413 16:24:27.511584  8791 net.cpp:408] rpn_big_anchor_target -> rpn_big_anchor_target_outside_weights
I0413 16:24:27.518393  8791 net.cpp:150] Setting up rpn_big_anchor_target
I0413 16:24:27.518436  8791 net.cpp:157] Top shape: 1 1 1586 92 (145912)
I0413 16:24:27.518446  8791 net.cpp:157] Top shape: 1 104 61 92 (583648)
I0413 16:24:27.518455  8791 net.cpp:157] Top shape: 1 104 61 92 (583648)
I0413 16:24:27.518461  8791 net.cpp:157] Top shape: 1 104 61 92 (583648)
I0413 16:24:27.518467  8791 net.cpp:165] Memory required for data: 3598080428
I0413 16:24:27.518476  8791 layer_factory.hpp:77] Creating layer rpn_big_loss_cls
I0413 16:24:27.518496  8791 net.cpp:100] Creating Layer rpn_big_loss_cls
I0413 16:24:27.518512  8791 net.cpp:434] rpn_big_loss_cls <- rpn_big_cls_score_reshape_rpn_big_cls_score_reshape_0_split_1
I0413 16:24:27.518524  8791 net.cpp:434] rpn_big_loss_cls <- rpn_big_anchor_target_labels
I0413 16:24:27.518537  8791 net.cpp:408] rpn_big_loss_cls -> rpn_big_loss_cls
I0413 16:24:27.518558  8791 layer_factory.hpp:77] Creating layer rpn_big_loss_cls
I0413 16:24:27.519454  8791 net.cpp:150] Setting up rpn_big_loss_cls
I0413 16:24:27.519471  8791 net.cpp:157] Top shape: (1)
I0413 16:24:27.519485  8791 net.cpp:160]     with loss weight 1
I0413 16:24:27.519500  8791 net.cpp:165] Memory required for data: 3598080432
I0413 16:24:27.519507  8791 layer_factory.hpp:77] Creating layer rpn_big_output_box
I0413 16:24:27.519526  8791 net.cpp:100] Creating Layer rpn_big_output_box
I0413 16:24:27.519558  8791 net.cpp:434] rpn_big_output_box <- rpn_big_conv2_rpn_big_conv2_drop_0_split_1
I0413 16:24:27.519589  8791 net.cpp:408] rpn_big_output_box -> rpn_big_output_box
I0413 16:24:27.541080  8791 net.cpp:150] Setting up rpn_big_output_box
I0413 16:24:27.541111  8791 net.cpp:157] Top shape: 1 384 63 94 (2274048)
I0413 16:24:27.541123  8791 net.cpp:165] Memory required for data: 3607176624
I0413 16:24:27.541134  8791 layer_factory.hpp:77] Creating layer rpn_big_output_box_relu
I0413 16:24:27.541146  8791 net.cpp:100] Creating Layer rpn_big_output_box_relu
I0413 16:24:27.541151  8791 net.cpp:434] rpn_big_output_box_relu <- rpn_big_output_box
I0413 16:24:27.541160  8791 net.cpp:395] rpn_big_output_box_relu -> rpn_big_output_box (in-place)
I0413 16:24:27.541170  8791 net.cpp:150] Setting up rpn_big_output_box_relu
I0413 16:24:27.541175  8791 net.cpp:157] Top shape: 1 384 63 94 (2274048)
I0413 16:24:27.541178  8791 net.cpp:165] Memory required for data: 3616272816
I0413 16:24:27.541182  8791 layer_factory.hpp:77] Creating layer rpn_big_bbox_pred
I0413 16:24:27.541193  8791 net.cpp:100] Creating Layer rpn_big_bbox_pred
I0413 16:24:27.541208  8791 net.cpp:434] rpn_big_bbox_pred <- rpn_big_output_box
I0413 16:24:27.541213  8791 net.cpp:408] rpn_big_bbox_pred -> rpn_big_bbox_pred
I0413 16:24:27.545585  8791 net.cpp:150] Setting up rpn_big_bbox_pred
I0413 16:24:27.545603  8791 net.cpp:157] Top shape: 1 104 61 92 (583648)
I0413 16:24:27.545606  8791 net.cpp:165] Memory required for data: 3618607408
I0413 16:24:27.545624  8791 layer_factory.hpp:77] Creating layer rpn_big_bbox_pred_rpn_big_bbox_pred_0_split
I0413 16:24:27.545631  8791 net.cpp:100] Creating Layer rpn_big_bbox_pred_rpn_big_bbox_pred_0_split
I0413 16:24:27.545637  8791 net.cpp:434] rpn_big_bbox_pred_rpn_big_bbox_pred_0_split <- rpn_big_bbox_pred
I0413 16:24:27.545644  8791 net.cpp:408] rpn_big_bbox_pred_rpn_big_bbox_pred_0_split -> rpn_big_bbox_pred_rpn_big_bbox_pred_0_split_0
I0413 16:24:27.545651  8791 net.cpp:408] rpn_big_bbox_pred_rpn_big_bbox_pred_0_split -> rpn_big_bbox_pred_rpn_big_bbox_pred_0_split_1
I0413 16:24:27.545686  8791 net.cpp:150] Setting up rpn_big_bbox_pred_rpn_big_bbox_pred_0_split
I0413 16:24:27.545697  8791 net.cpp:157] Top shape: 1 104 61 92 (583648)
I0413 16:24:27.545704  8791 net.cpp:157] Top shape: 1 104 61 92 (583648)
I0413 16:24:27.545711  8791 net.cpp:165] Memory required for data: 3623276592
I0413 16:24:27.545717  8791 layer_factory.hpp:77] Creating layer rpn_big_loss_bbox
I0413 16:24:27.546139  8791 net.cpp:100] Creating Layer rpn_big_loss_bbox
I0413 16:24:27.546177  8791 net.cpp:434] rpn_big_loss_bbox <- rpn_big_bbox_pred_rpn_big_bbox_pred_0_split_0
I0413 16:24:27.546191  8791 net.cpp:434] rpn_big_loss_bbox <- rpn_big_anchor_target_bbox_targets
I0413 16:24:27.546200  8791 net.cpp:434] rpn_big_loss_bbox <- rpn_big_anchor_target_inside_weights
I0413 16:24:27.546226  8791 net.cpp:434] rpn_big_loss_bbox <- rpn_big_anchor_target_outside_weights
I0413 16:24:27.546253  8791 net.cpp:408] rpn_big_loss_bbox -> rpn_big_loss_bbox
I0413 16:24:27.548281  8791 net.cpp:150] Setting up rpn_big_loss_bbox
I0413 16:24:27.548352  8791 net.cpp:157] Top shape: 1 (1)
I0413 16:24:27.548372  8791 net.cpp:160]     with loss weight 1
I0413 16:24:27.548401  8791 net.cpp:165] Memory required for data: 3623276596
I0413 16:24:27.548414  8791 layer_factory.hpp:77] Creating layer proposal
I0413 16:24:27.548810  8791 net.cpp:100] Creating Layer proposal
I0413 16:24:27.548821  8791 net.cpp:434] proposal <- rpn_big_cls_prob_reshape_rpn_big_cls_prob_reshape_0_split_1
I0413 16:24:27.548833  8791 net.cpp:434] proposal <- rpn_big_bbox_pred_rpn_big_bbox_pred_0_split_1
…
