…
I0413 18:33:18.230100 13474 solver.cpp:48] Initializing solver from parameters: 
base_lr: 0.001
display: 20
lr_policy: "multistep"
gamma: 0.1
momentum: 0.9
weight_decay: 0.0005
snapshot: 0
snapshot_prefix: "faces_example"
net_param {
  name: "GeneratedModel_13_04_2017_18_33"
  layer {
    name: "input"
    type: "Python"
    top: "input_data"
    top: "input_im_info"
    top: "input_gt_boxes"
    top: "input_ignored_boxes"
    python_param {
      module: "layers.roi_data_layer"
      layer: "RoIDataLayer"
      param_str: "{\"num_classes\": 2}"
    }
  }
  layer {
    name: "conv1_1"
    type: "Convolution"
    bottom: "input_data"
    top: "conv1_1"
    param {
      lr_mult: 0
      decay_mult: 0
    }
    param {
      lr_mult: 0
      decay_mult: 0
    }
    convolution_param {
      num_output: 64
      pad: 1
      kernel_size: 3
    }
  }
  layer {
    name: "relu1_1"
    type: "ReLU"
    bottom: "conv1_1"
    top: "conv1_1"
  }
  layer {
    name: "conv1_2"
    type: "Convolution"
    bottom: "conv1_1"
    top: "conv1_2"
    param {
      lr_mult: 0
      decay_mult: 0
    }
    param {
      lr_mult: 0
      decay_mult: 0
    }
    convolution_param {
      num_output: 64
      pad: 1
      kernel_size: 3
    }
  }
  layer {
    name: "relu1_2"
    type: "ReLU"
    bottom: "conv1_2"
    top: "conv1_2"
  }
  layer {
    name: "pool1"
    type: "Pooling"
    bottom: "conv1_2"
    top: "pool1"
    pooling_param {
      pool: MAX
      kernel_size: 2
      stride: 2
    }
  }
  layer {
    name: "conv2_1"
    type: "Convolution"
    bottom: "pool1"
    top: "conv2_1"
    param {
      lr_mult: 0
      decay_mult: 0
    }
    param {
      lr_mult: 0
      decay_mult: 0
    }
    convolution_param {
      num_output: 128
      pad: 1
      kernel_size: 3
    }
  }
  layer {
    name: "relu2_1"
    type: "ReLU"
    bottom: "conv2_1"
    top: "conv2_1"
  }
  layer {
    name: "conv2_2"
    type: "Convolution"
    bottom: "conv2_1"
    top: "conv2_2"
    param {
      lr_mult: 0
      decay_mult: 0
    }
    param {
      lr_mult: 0
      decay_mult: 0
    }
    convolution_param {
      num_output: 128
      pad: 1
      kernel_size: 3
    }
  }
  layer {
    name: "relu2_2"
    type: "ReLU"
    bottom: "conv2_2"
    top: "conv2_2"
  }
  layer {
    name: "pool2"
    type: "Pooling"
    bottom: "conv2_2"
    top: "pool2"
    pooling_param {
      pool: MAX
      kernel_size: 2
      stride: 2
    }
  }
  layer {
    name: "conv3_1"
    type: "Convolution"
    bottom: "pool2"
    top: "conv3_1"
    param {
      lr_mult: 1
    }
    param {
      lr_mult: 2
    }
    convolution_param {
      num_output: 256
      pad: 1
      kernel_size: 3
    }
  }
  layer {
    name: "relu3_1"
    type: "ReLU"
    bottom: "conv3_1"
    top: "conv3_1"
  }
  layer {
    name: "conv3_2"
    type: "Convolution"
    bottom: "conv3_1"
    top: "conv3_2"
    param {
      lr_mult: 1
    }
    param {
      lr_mult: 2
    }
    convolution_param {
      num_output: 256
      pad: 1
      kernel_size: 3
    }
  }
  layer {
    name: "relu3_2"
    type: "ReLU"
    bottom: "conv3_2"
    top: "conv3_2"
  }
  layer {
    name: "conv3_3"
    type: "Convolution"
    bottom: "conv3_2"
    top: "conv3_3"
    param {
      lr_mult: 1
    }
    param {
      lr_mult: 2
    }
    convolution_param {
      num_output: 256
      pad: 1
      kernel_size: 3
    }
  }
  layer {
    name: "relu3_3"
    type: "ReLU"
    bottom: "conv3_3"
    top: "conv3_3"
  }
  layer {
    name: "pool3"
    type: "Pooling"
    bottom: "conv3_3"
    top: "pool3"
    pooling_param {
      pool: MAX
      kernel_size: 2
      stride: 2
    }
  }
  layer {
    name: "conv4_1"
    type: "Convolution"
    bottom: "pool3"
    top: "conv4_1"
    param {
      lr_mult: 1
    }
    param {
      lr_mult: 2
    }
    convolution_param {
      num_output: 512
      pad: 1
      kernel_size: 3
    }
  }
  layer {
    name: "relu4_1"
    type: "ReLU"
    bottom: "conv4_1"
    top: "conv4_1"
  }
  layer {
    name: "conv4_2"
    type: "Convolution"
    bottom: "conv4_1"
    top: "conv4_2"
    param {
      lr_mult: 1
    }
    param {
      lr_mult: 2
    }
    convolution_param {
      num_output: 512
      pad: 1
      kernel_size: 3
    }
  }
  layer {
    name: "relu4_2"
    type: "ReLU"
    bottom: "conv4_2"
    top: "conv4_2"
  }
  layer {
    name: "conv4_3"
    type: "Convolution"
    bottom: "conv4_2"
    top: "conv4_3"
    param {
      lr_mult: 1
    }
    param {
      lr_mult: 2
    }
    convolution_param {
      num_output: 512
      pad: 1
      kernel_size: 3
    }
  }
  layer {
    name: "relu4_3"
    type: "ReLU"
    bottom: "conv4_3"
    top: "conv4_3"
  }
  layer {
    name: "pool4"
    type: "Pooling"
    bottom: "conv4_3"
    top: "pool4"
    pooling_param {
      pool: MAX
      kernel_size: 2
      stride: 2
    }
  }
  layer {
    name: "conv5_1"
    type: "Convolution"
    bottom: "pool4"
    top: "conv5_1"
    param {
      lr_mult: 1
    }
    param {
      lr_mult: 2
    }
    convolution_param {
      num_output: 512
      pad: 1
      kernel_size: 3
    }
  }
  layer {
    name: "relu5_1"
    type: "ReLU"
    bottom: "conv5_1"
    top: "conv5_1"
  }
  layer {
    name: "conv5_2"
    type: "Convolution"
    bottom: "conv5_1"
    top: "conv5_2"
    param {
      lr_mult: 1
    }
    param {
      lr_mult: 2
    }
    convolution_param {
      num_output: 512
      pad: 1
      kernel_size: 3
    }
  }
  layer {
    name: "relu5_2"
    type: "ReLU"
    bottom: "conv5_2"
    top: "conv5_2"
  }
  layer {
    name: "conv5_3"
    type: "Convolution"
    bottom: "conv5_2"
    top: "conv5_3"
    param {
      lr_mult: 1
    }
    param {
      lr_mult: 2
    }
    convolution_param {
      num_output: 512
      pad: 1
      kernel_size: 3
    }
  }
  layer {
    name: "relu5_3"
    type: "ReLU"
    bottom: "conv5_3"
    top: "conv5_3"
  }
  layer {
    name: "rpn_big_conv1"
    type: "Convolution"
    bottom: "conv5_3"
    top: "rpn_big_conv1"
    param {
      lr_mult: 1
    }
    param {
      lr_mult: 2
    }
    convolution_param {
      num_output: 512
      pad: 1
      kernel_size: 3
      stride: 1
      weight_filler {
        type: "gaussian"
        mean: 0
        std: 0.01
      }
      bias_filler {
        type: "constant"
      }
    }
  }
  layer {
    name: "rpn_big_conv1_relu"
    type: "ReLU"
    bottom: "rpn_big_conv1"
    top: "rpn_big_conv1"
    relu_param {
      negative_slope: 0
    }
  }
  layer {
    name: "rpn_big_conv2"
    type: "Convolution"
    bottom: "rpn_big_conv1"
    top: "rpn_big_conv2"
    param {
      lr_mult: 1
    }
    param {
      lr_mult: 2
    }
    convolution_param {
      num_output: 512
      pad: 1
      kernel_size: 3
      stride: 1
      weight_filler {
        type: "gaussian"
        mean: 0
        std: 0.01
      }
      bias_filler {
        type: "constant"
      }
    }
  }
  layer {
    name: "rpn_big_conv2_relu"
    type: "ReLU"
    bottom: "rpn_big_conv2"
    top: "rpn_big_conv2"
    relu_param {
      negative_slope: 0
    }
  }
  layer {
    name: "rpn_big_conv2_drop"
    type: "Dropout"
    bottom: "rpn_big_conv2"
    top: "rpn_big_conv2"
    dropout_param {
      dropout_ratio: 0.3
    }
  }
  layer {
    name: "rpn_big_output_cls"
    type: "Convolution"
    bottom: "rpn_big_conv2"
    top: "rpn_big_output_cls"
    param {
      lr_mult: 1
    }
    param {
      lr_mult: 2
    }
    convolution_param {
      num_output: 384
      pad: 1
      kernel_size: 3
      stride: 1
      weight_filler {
        type: "gaussian"
        mean: 0
        std: 0.01
      }
      bias_filler {
        type: "constant"
      }
    }
  }
  layer {
    name: "rpn_big_output_cls_relu"
    type: "ReLU"
    bottom: "rpn_big_output_cls"
    top: "rpn_big_output_cls"
    relu_param {
      negative_slope: 0
    }
  }
  layer {
    name: "rpn_big_cls_score"
    type: "Convolution"
    bottom: "rpn_big_output_cls"
    top: "rpn_big_cls_score"
    param {
      lr_mult: 1
    }
    param {
      lr_mult: 2
    }
    convolution_param {
      num_output: 52
      pad: 0
      kernel_size: 3
      stride: 1
      weight_filler {
        type: "gaussian"
        mean: 0
        std: 0.01
      }
      bias_filler {
        type: "constant"
      }
    }
  }
  layer {
    name: "rpn_big_cls_score_reshape"
    type: "Reshape"
    bottom: "rpn_big_cls_score"
    top: "rpn_big_cls_score_reshape"
    reshape_param {
      shape {
        dim: 0
        dim: 2
        dim: -1
        dim: 0
      }
    }
  }
  layer {
    name: "rpn_big_cls_prob"
    type: "Softmax"
    bottom: "rpn_big_cls_score_reshape"
    top: "rpn_big_cls_prob"
  }
  layer {
    name: "rpn_big_cls_prob_reshape"
    type: "Reshape"
    bottom: "rpn_big_cls_prob"
    top: "rpn_big_cls_prob_reshape"
    reshape_param {
      shape {
        dim: 0
        dim: 52
        dim: -1
        dim: 0
      }
    }
  }
  layer {
    name: "rpn_big_anchor_target"
    type: "Python"
    bottom: "rpn_big_cls_score"
    bottom: "input_gt_boxes"
    bottom: "input_ignored_boxes"
    bottom: "input_im_info"
    bottom: "input_data"
    bottom: "rpn_big_cls_prob_reshape"
    top: "rpn_big_anchor_target_labels"
    top: "rpn_big_anchor_target_bbox_targets"
    top: "rpn_big_anchor_target_inside_weights"
    top: "rpn_big_anchor_target_outside_weights"
    python_param {
      module: "rpn.anchor_target_layer"
      layer: "AnchorTargetLayer"
      param_str: "{\"anchor_scales\": [2.5, 3.025, 3.66025, 4.4289024999999995, 5.358972025, 6.484356150249999, 7.846070941802498, 9.493745839581022, 11.487432465893036, 13.899793283730574, 16.818749873313998, 20.350687346709933, 24.62433168951902, 29.795441344318014], \"anchor_ratios\": [1.0], \"square_targets\": true, \"batchsize\": 256, \"tn_fraction\": 0.2, \"fg_fraction\": 0.5, \"negative_overlap\": 0.4, \"positive_overlap\": 0.6, \"anchor_shift_num_xy\": [[2, 2], [2, 2], [2, 2], [2, 2], [1, 1], [1, 1], [1, 1], [1, 1], [1, 1], [1, 1], [1, 1], [1, 1], [1, 1], [1, 1]], \"name\": \"rpn_big\", \"num_classes\": 1, \"feat_stride\": 16}"
    }
  }
  layer {
    name: "rpn_big_loss_cls"
    type: "SoftmaxWithLoss"
    bottom: "rpn_big_cls_score_reshape"
    bottom: "rpn_big_anchor_target_labels"
    top: "rpn_big_loss_cls"
    loss_weight: 1
    propagate_down: true
    propagate_down: false
    loss_param {
      ignore_label: -1
      normalization: VALID
    }
  }
  layer {
    name: "rpn_big_output_box"
    type: "Convolution"
    bottom: "rpn_big_conv2"
    top: "rpn_big_output_box"
    param {
      lr_mult: 1
    }
    param {
      lr_mult: 2
    }
    convolution_param {
      num_output: 384
      pad: 1
      kernel_size: 3
      stride: 1
      weight_filler {
        type: "gaussian"
        mean: 0
        std: 0.01
      }
      bias_filler {
        type: "constant"
      }
    }
  }
  layer {
    name: "rpn_big_output_box_relu"
    type: "ReLU"
    bottom: "rpn_big_output_box"
    top: "rpn_big_output_box"
    relu_param {
      negative_slope: 0
    }
  }
  layer {
    name: "rpn_big_bbox_pred"
    type: "Convolution"
    bottom: "rpn_big_output_box"
    top: "rpn_big_bbox_pred"
    param {
      lr_mult: 1
    }
    param {
      lr_mult: 2
    }
    convolution_param {
      num_output: 104
      pad: 0
      kernel_size: 3
      stride: 1
      weight_filler {
        type: "gaussian"
        mean: 0
        std: 0.01
      }
      bias_filler {
        type: "constant"
      }
    }
  }
  layer {
    name: "rpn_big_loss_bbox"
    type: "Python"
    bottom: "rpn_big_bbox_pred"
    bottom: "rpn_big_anchor_target_bbox_targets"
    bottom: "rpn_big_anchor_target_inside_weights"
    bottom: "rpn_big_anchor_target_outside_weights"
    top: "rpn_big_loss_bbox"
    loss_weight: 1
    python_param {
      module: "layers.smooth_l1_loss"
      layer: "SmoothL1LossLayer"
      param_str: "{\"sigma\": 3}"
    }
  }
  layer {
    name: "proposal"
    type: "Python"
    bottom: "rpn_big_cls_prob_reshape"
    bottom: "rpn_big_bbox_pred"
    bottom: "input_im_info"
    top: "rpn_rois"
    python_param {
      module: "rpn.proposal_layer"
      layer: "ProposalLayer"
      param_str: "{\"anchor_shift_num_xy\": [[2, 2], [2, 2], [2, 2], [2, 2], [1, 1], [1, 1], [1, 1], [1, 1], [1, 1], [1, 1], [1, 1], [1, 1], [1, 1], [1, 1]], \"feat_stride\": 16, \"num_classes\": 1, \"anchor_scales\": [2.5, 3.025, 3.66025, 4.4289024999999995, 5.358972025, 6.484356150249999, 7.846070941802498, 9.493745839581022, 11.487432465893036, 13.899793283730574, 16.818749873313998, 20.350687346709933, 24.62433168951902, 29.795441344318014], \"square_targets\": true, \"name\": \"rpn_big\", \"batchsize\": 256, \"anchor_ratios\": [1.0]}"
    }
  }
  layer {
    name: "roi-data"
    type: "Python"
    bottom: "rpn_rois"
    bottom: "input_gt_boxes"
    top: "rois"
    top: "labels"
    top: "bbox_targets"
    top: "bbox_inside_weights"
    top: "bbox_outside_weights"
    top: "pid_label"
    python_param {
      module: "rpn.proposal_target_layer"
      layer: "ProposalTargetLayer"
      param_str: "{\"num_classes\": 2, \"bg_aux_label\": 5532}"
    }
  }
  layer {
    name: "roi-pool"
    type: "ROIPooling"
    bottom: "conv5_3"
    bottom: "rois"
    top: "roi-pool"
    roi_pooling_param {
      pooled_h: 7
      pooled_w: 7
      spatial_scale: 0.0625
    }
  }
  layer {
    name: "fc6"
    type: "InnerProduct"
    bottom: "roi-pool"
    top: "fc6"
    param {
      lr_mult: 1
    }
    param {
      lr_mult: 2
    }
    inner_product_param {
      num_output: 4096
    }
  }
  layer {
    name: "relu6"
    type: "ReLU"
    bottom: "fc6"
    top: "fc6"
  }
  layer {
    name: "drop6"
    type: "Dropout"
    bottom: "fc6"
    top: "fc6"
    dropout_param {
      dropout_ratio: 0.5
    }
  }
  layer {
    name: "fc7"
    type: "InnerProduct"
    bottom: "fc6"
    top: "fc7"
    param {
      lr_mult: 1
    }
    param {
      lr_mult: 2
    }
    inner_product_param {
      num_output: 4096
    }
  }
  layer {
    name: "relu7"
    type: "ReLU"
    bottom: "fc7"
    top: "fc7"
  }
  layer {
    name: "drop7"
    type: "Dropout"
    bottom: "fc7"
    top: "fc7"
    dropout_param {
      dropout_ratio: 0.5
    }
  }
  layer {
    name: "bbox_pred"
    type: "InnerProduct"
    bottom: "fc7"
    top: "bbox_pred"
    param {
      lr_mult: 1
    }
    param {
      lr_mult: 2
    }
    inner_product_param {
      num_output: 8
      weight_filler {
        type: "gaussian"
        std: 0.001
      }
      bias_filler {
        type: "constant"
        value: 0
      }
    }
  }
  layer {
    name: "loss_bbox"
    type: "SmoothL1Loss"
    bottom: "bbox_pred"
    bottom: "bbox_targets"
    bottom: "bbox_inside_weights"
    bottom: "bbox_outside_weights"
    top: "loss_bbox"
    loss_weight: 1
  }
  layer {
    name: "feat"
    type: "InnerProduct"
    bottom: "fc7"
    top: "feat"
    param {
      lr_mult: 1
      decay_mult: 1
    }
    param {
      lr_mult: 2
      decay_mult: 0
    }
    inner_product_param {
      num_output: 256
      weight_filler {
        type: "gaussian"
        std: 0.01
      }
      bias_filler {
        type: "constant"
        value: 0
      }
    }
  }
  layer {
    name: "relu8"
    type: "ReLU"
    bottom: "feat"
    top: "feat"
  }
  layer {
    name: "drop8"
    type: "Dropout"
    bottom: "feat"
    top: "feat"
    dropout_param {
      dropout_ratio: 0.5
    }
  }
  layer {
    name: "pid_score"
    type: "InnerProduct"
    bottom: "feat"
    top: "pid_score"
    param {
      lr_mult: 1
      decay_mult: 1
    }
    param {
      lr_mult: 2
      decay_mult: 0
    }
    inner_product_param {
      num_output: 5533
      weight_filler {
        type: "gaussian"
        std: 0.001
      }
      bias_filler {
        type: "constant"
        value: 0
      }
    }
  }
}
average_loss: 100
stepvalue: 70000
stepvalue: 120000
iter_size: 2
I0413 18:33:18.230242 13474 solver.cpp:86] Creating training net specified in net_param.
I0413 18:33:18.230695 13474 net.cpp:58] Initializing net from parameters: 
name: "GeneratedModel_13_04_2017_18_33"
state {
  phase: TRAIN
}
layer {
  name: "input"
  type: "Python"
  top: "input_data"
  top: "input_im_info"
  top: "input_gt_boxes"
  top: "input_ignored_boxes"
  python_param {
    module: "layers.roi_data_layer"
    layer: "RoIDataLayer"
    param_str: "{\"num_classes\": 2}"
  }
}
layer {
  name: "conv1_1"
  type: "Convolution"
  bottom: "input_data"
  top: "conv1_1"
  param {
    lr_mult: 0
    decay_mult: 0
  }
  param {
    lr_mult: 0
    decay_mult: 0
  }
  convolution_param {
    num_output: 64
    pad: 1
    kernel_size: 3
  }
}
layer {
  name: "relu1_1"
  type: "ReLU"
  bottom: "conv1_1"
  top: "conv1_1"
}
layer {
  name: "conv1_2"
  type: "Convolution"
  bottom: "conv1_1"
  top: "conv1_2"
  param {
    lr_mult: 0
    decay_mult: 0
  }
  param {
    lr_mult: 0
    decay_mult: 0
  }
  convolution_param {
    num_output: 64
    pad: 1
    kernel_size: 3
  }
}
layer {
  name: "relu1_2"
  type: "ReLU"
  bottom: "conv1_2"
  top: "conv1_2"
}
layer {
  name: "pool1"
  type: "Pooling"
  bottom: "conv1_2"
  top: "pool1"
  pooling_param {
    pool: MAX
    kernel_size: 2
    stride: 2
  }
}
layer {
  name: "conv2_1"
  type: "Convolution"
  bottom: "pool1"
  top: "conv2_1"
  param {
    lr_mult: 0
    decay_mult: 0
  }
  param {
    lr_mult: 0
    decay_mult: 0
  }
  convolution_param {
    num_output: 128
    pad: 1
    kernel_size: 3
  }
}
layer {
  name: "relu2_1"
  type: "ReLU"
  bottom: "conv2_1"
  top: "conv2_1"
}
layer {
  name: "conv2_2"
  type: "Convolution"
  bottom: "conv2_1"
  top: "conv2_2"
  param {
    lr_mult: 0
    decay_mult: 0
  }
  param {
    lr_mult: 0
    decay_mult: 0
  }
  convolution_param {
    num_output: 128
    pad: 1
    kernel_size: 3
  }
}
layer {
  name: "relu2_2"
  type: "ReLU"
  bottom: "conv2_2"
  top: "conv2_2"
}
layer {
  name: "pool2"
  type: "Pooling"
  bottom: "conv2_2"
  top: "pool2"
  pooling_param {
    pool: MAX
    kernel_size: 2
    stride: 2
  }
}
layer {
  name: "conv3_1"
  type: "Convolution"
  bottom: "pool2"
  top: "conv3_1"
  param {
    lr_mult: 1
  }
  param {
    lr_mult: 2
  }
  convolution_param {
    num_output: 256
    pad: 1
    kernel_size: 3
  }
}
layer {
  name: "relu3_1"
  type: "ReLU"
  bottom: "conv3_1"
  top: "conv3_1"
}
layer {
  name: "conv3_2"
  type: "Convolution"
  bottom: "conv3_1"
  top: "conv3_2"
  param {
    lr_mult: 1
  }
  param {
    lr_mult: 2
  }
  convolution_param {
    num_output: 256
    pad: 1
    kernel_size: 3
  }
}
layer {
  name: "relu3_2"
  type: "ReLU"
  bottom: "conv3_2"
  top: "conv3_2"
}
layer {
  name: "conv3_3"
  type: "Convolution"
  bottom: "conv3_2"
  top: "conv3_3"
  param {
    lr_mult: 1
  }
  param {
    lr_mult: 2
  }
  convolution_param {
    num_output: 256
    pad: 1
    kernel_size: 3
  }
}
layer {
  name: "relu3_3"
  type: "ReLU"
  bottom: "conv3_3"
  top: "conv3_3"
}
layer {
  name: "pool3"
  type: "Pooling"
  bottom: "conv3_3"
  top: "pool3"
  pooling_param {
    pool: MAX
    kernel_size: 2
    stride: 2
  }
}
layer {
  name: "conv4_1"
  type: "Convolution"
  bottom: "pool3"
  top: "conv4_1"
  param {
    lr_mult: 1
  }
  param {
    lr_mult: 2
  }
  convolution_param {
    num_output: 512
    pad: 1
    kernel_size: 3
  }
}
layer {
  name: "relu4_1"
  type: "ReLU"
  bottom: "conv4_1"
  top: "conv4_1"
}
layer {
  name: "conv4_2"
  type: "Convolution"
  bottom: "conv4_1"
  top: "conv4_2"
  param {
    lr_mult: 1
  }
  param {
    lr_mult: 2
  }
  convolution_param {
    num_output: 512
    pad: 1
    kernel_size: 3
  }
}
layer {
  name: "relu4_2"
  type: "ReLU"
  bottom: "conv4_2"
  top: "conv4_2"
}
layer {
  name: "conv4_3"
  type: "Convolution"
  bottom: "conv4_2"
  top: "conv4_3"
  param {
    lr_mult: 1
  }
  param {
    lr_mult: 2
  }
  convolution_param {
    num_output: 512
    pad: 1
    kernel_size: 3
  }
}
layer {
  name: "relu4_3"
  type: "ReLU"
  bottom: "conv4_3"
  top: "conv4_3"
}
layer {
  name: "pool4"
  type: "Pooling"
  bottom: "conv4_3"
  top: "pool4"
  pooling_param {
    pool: MAX
    kernel_size: 2
    stride: 2
  }
}
layer {
  name: "conv5_1"
  type: "Convolution"
  bottom: "pool4"
  top: "conv5_1"
  param {
    lr_mult: 1
  }
  param {
    lr_mult: 2
  }
  convolution_param {
    num_output: 512
    pad: 1
    kernel_size: 3
  }
}
layer {
  name: "relu5_1"
  type: "ReLU"
  bottom: "conv5_1"
  top: "conv5_1"
}
layer {
  name: "conv5_2"
  type: "Convolution"
  bottom: "conv5_1"
  top: "conv5_2"
  param {
    lr_mult: 1
  }
  param {
    lr_mult: 2
  }
  convolution_param {
    num_output: 512
    pad: 1
    kernel_size: 3
  }
}
layer {
  name: "relu5_2"
  type: "ReLU"
  bottom: "conv5_2"
  top: "conv5_2"
}
layer {
  name: "conv5_3"
  type: "Convolution"
  bottom: "conv5_2"
  top: "conv5_3"
  param {
    lr_mult: 1
  }
  param {
    lr_mult: 2
  }
  convolution_param {
    num_output: 512
    pad: 1
    kernel_size: 3
  }
}
layer {
  name: "relu5_3"
  type: "ReLU"
  bottom: "conv5_3"
  top: "conv5_3"
}
layer {
  name: "rpn_big_conv1"
  type: "Convolution"
  bottom: "conv5_3"
  top: "rpn_big_conv1"
  param {
    lr_mult: 1
  }
  param {
    lr_mult: 2
  }
  convolution_param {
    num_output: 512
    pad: 1
    kernel_size: 3
    stride: 1
    weight_filler {
      type: "gaussian"
      mean: 0
      std: 0.01
    }
    bias_filler {
      type: "constant"
    }
  }
}
layer {
  name: "rpn_big_conv1_relu"
  type: "ReLU"
  bottom: "rpn_big_conv1"
  top: "rpn_big_conv1"
  relu_param {
    negative_slope: 0
  }
}
layer {
  name: "rpn_big_conv2"
  type: "Convolution"
  bottom: "rpn_big_conv1"
  top: "rpn_big_conv2"
  param {
    lr_mult: 1
  }
  param {
    lr_mult: 2
  }
  convolution_param {
    num_output: 512
    pad: 1
    kernel_size: 3
    stride: 1
    weight_filler {
      type: "gaussian"
      mean: 0
      std: 0.01
    }
    bias_filler {
      type: "constant"
    }
  }
}
layer {
  name: "rpn_big_conv2_relu"
  type: "ReLU"
  bottom: "rpn_big_conv2"
  top: "rpn_big_conv2"
  relu_param {
    negative_slope: 0
  }
}
layer {
  name: "rpn_big_conv2_drop"
  type: "Dropout"
  bottom: "rpn_big_conv2"
  top: "rpn_big_conv2"
  dropout_param {
    dropout_ratio: 0.3
  }
}
layer {
  name: "rpn_big_output_cls"
  type: "Convolution"
  bottom: "rpn_big_conv2"
  top: "rpn_big_output_cls"
  param {
    lr_mult: 1
  }
  param {
    lr_mult: 2
  }
  convolution_param {
    num_output: 384
    pad: 1
    kernel_size: 3
    stride: 1
    weight_filler {
      type: "gaussian"
      mean: 0
      std: 0.01
    }
    bias_filler {
      type: "constant"
    }
  }
}
layer {
  name: "rpn_big_output_cls_relu"
  type: "ReLU"
  bottom: "rpn_big_output_cls"
  top: "rpn_big_output_cls"
  relu_param {
    negative_slope: 0
  }
}
layer {
  name: "rpn_big_cls_score"
  type: "Convolution"
  bottom: "rpn_big_output_cls"
  top: "rpn_big_cls_score"
  param {
    lr_mult: 1
  }
  param {
    lr_mult: 2
  }
  convolution_param {
    num_output: 52
    pad: 0
    kernel_size: 3
    stride: 1
    weight_filler {
      type: "gaussian"
      mean: 0
      std: 0.01
    }
    bias_filler {
      type: "constant"
    }
  }
}
layer {
  name: "rpn_big_cls_score_reshape"
  type: "Reshape"
  bottom: "rpn_big_cls_score"
  top: "rpn_big_cls_score_reshape"
  reshape_param {
    shape {
      dim: 0
      dim: 2
      dim: -1
      dim: 0
    }
  }
}
layer {
  name: "rpn_big_cls_prob"
  type: "Softmax"
  bottom: "rpn_big_cls_score_reshape"
  top: "rpn_big_cls_prob"
}
layer {
  name: "rpn_big_cls_prob_reshape"
  type: "Reshape"
  bottom: "rpn_big_cls_prob"
  top: "rpn_big_cls_prob_reshape"
  reshape_param {
    shape {
      dim: 0
      dim: 52
      dim: -1
      dim: 0
    }
  }
}
layer {
  name: "rpn_big_anchor_target"
  type: "Python"
  bottom: "rpn_big_cls_score"
  bottom: "input_gt_boxes"
  bottom: "input_ignored_boxes"
  bottom: "input_im_info"
  bottom: "input_data"
  bottom: "rpn_big_cls_prob_reshape"
  top: "rpn_big_anchor_target_labels"
  top: "rpn_big_anchor_target_bbox_targets"
  top: "rpn_big_anchor_target_inside_weights"
  top: "rpn_big_anchor_target_outside_weights"
  python_param {
    module: "rpn.anchor_target_layer"
    layer: "AnchorTargetLayer"
    param_str: "{\"anchor_scales\": [2.5, 3.025, 3.66025, 4.4289024999999995, 5.358972025, 6.484356150249999, 7.846070941802498, 9.493745839581022, 11.487432465893036, 13.899793283730574, 16.818749873313998, 20.350687346709933, 24.62433168951902, 29.795441344318014], \"anchor_ratios\": [1.0], \"square_targets\": true, \"batchsize\": 256, \"tn_fraction\": 0.2, \"fg_fraction\": 0.5, \"negative_overlap\": 0.4, \"positive_overlap\": 0.6, \"anchor_shift_num_xy\": [[2, 2], [2, 2], [2, 2], [2, 2], [1, 1], [1, 1], [1, 1], [1, 1], [1, 1], [1, 1], [1, 1], [1, 1], [1, 1], [1, 1]], \"name\": \"rpn_big\", \"num_classes\": 1, \"feat_stride\": 16}"
  }
}
layer {
  name: "rpn_big_loss_cls"
  type: "SoftmaxWithLoss"
  bottom: "rpn_big_cls_score_reshape"
  bottom: "rpn_big_anchor_target_labels"
  top: "rpn_big_loss_cls"
  loss_weight: 1
  propagate_down: true
  propagate_down: false
  loss_param {
    ignore_label: -1
    normalization: VALID
  }
}
layer {
  name: "rpn_big_output_box"
  type: "Convolution"
  bottom: "rpn_big_conv2"
  top: "rpn_big_output_box"
  param {
    lr_mult: 1
  }
  param {
    lr_mult: 2
  }
  convolution_param {
    num_output: 384
    pad: 1
    kernel_size: 3
    stride: 1
    weight_filler {
      type: "gaussian"
      mean: 0
      std: 0.01
    }
    bias_filler {
      type: "constant"
    }
  }
}
layer {
  name: "rpn_big_output_box_relu"
  type: "ReLU"
  bottom: "rpn_big_output_box"
  top: "rpn_big_output_box"
  relu_param {
    negative_slope: 0
  }
}
layer {
  name: "rpn_big_bbox_pred"
  type: "Convolution"
  bottom: "rpn_big_output_box"
  top: "rpn_big_bbox_pred"
  param {
    lr_mult: 1
  }
  param {
    lr_mult: 2
  }
  convolution_param {
    num_output: 104
    pad: 0
    kernel_size: 3
    stride: 1
    weight_filler {
      type: "gaussian"
      mean: 0
      std: 0.01
    }
    bias_filler {
      type: "constant"
    }
  }
}
layer {
  name: "rpn_big_loss_bbox"
  type: "Python"
  bottom: "rpn_big_bbox_pred"
  bottom: "rpn_big_anchor_target_bbox_targets"
  bottom: "rpn_big_anchor_target_inside_weights"
  bottom: "rpn_big_anchor_target_outside_weights"
  top: "rpn_big_loss_bbox"
  loss_weight: 1
  python_param {
    module: "layers.smooth_l1_loss"
    layer: "SmoothL1LossLayer"
    param_str: "{\"sigma\": 3}"
  }
}
layer {
  name: "proposal"
  type: "Python"
  bottom: "rpn_big_cls_prob_reshape"
  bottom: "rpn_big_bbox_pred"
  bottom: "input_im_info"
  top: "rpn_rois"
  python_param {
    module: "rpn.proposal_layer"
    layer: "ProposalLayer"
    param_str: "{\"anchor_shift_num_xy\": [[2, 2], [2, 2], [2, 2], [2, 2], [1, 1], [1, 1], [1, 1], [1, 1], [1, 1], [1, 1], [1, 1], [1, 1], [1, 1], [1, 1]], \"feat_stride\": 16, \"num_classes\": 1, \"anchor_scales\": [2.5, 3.025, 3.66025, 4.4289024999999995, 5.358972025, 6.484356150249999, 7.846070941802498, 9.493745839581022, 11.487432465893036, 13.899793283730574, 16.818749873313998, 20.350687346709933, 24.62433168951902, 29.795441344318014], \"square_targets\": true, \"name\": \"rpn_big\", \"batchsize\": 256, \"anchor_ratios\": [1.0]}"
  }
}
layer {
  name: "roi-data"
  type: "Python"
  bottom: "rpn_rois"
  bottom: "input_gt_boxes"
  top: "rois"
  top: "labels"
  top: "bbox_targets"
  top: "bbox_inside_weights"
  top: "bbox_outside_weights"
  top: "pid_label"
  python_param {
    module: "rpn.proposal_target_layer"
    layer: "ProposalTargetLayer"
    param_str: "{\"num_classes\": 2, \"bg_aux_label\": 5532}"
  }
}
layer {
  name: "roi-pool"
  type: "ROIPooling"
  bottom: "conv5_3"
  bottom: "rois"
  top: "roi-pool"
  roi_pooling_param {
    pooled_h: 7
    pooled_w: 7
    spatial_scale: 0.0625
  }
}
layer {
  name: "fc6"
  type: "InnerProduct"
  bottom: "roi-pool"
  top: "fc6"
  param {
    lr_mult: 1
  }
  param {
    lr_mult: 2
  }
  inner_product_param {
    num_output: 4096
  }
}
layer {
  name: "relu6"
  type: "ReLU"
  bottom: "fc6"
  top: "fc6"
}
layer {
  name: "drop6"
  type: "Dropout"
  bottom: "fc6"
  top: "fc6"
  dropout_param {
    dropout_ratio: 0.5
  }
}
layer {
  name: "fc7"
  type: "InnerProduct"
  bottom: "fc6"
  top: "fc7"
  param {
    lr_mult: 1
  }
  param {
    lr_mult: 2
  }
  inner_product_param {
    num_output: 4096
  }
}
layer {
  name: "relu7"
  type: "ReLU"
  bottom: "fc7"
  top: "fc7"
}
layer {
  name: "drop7"
  type: "Dropout"
  bottom: "fc7"
  top: "fc7"
  dropout_param {
    dropout_ratio: 0.5
  }
}
layer {
  name: "bbox_pred"
  type: "InnerProduct"
  bottom: "fc7"
  top: "bbox_pred"
  param {
    lr_mult: 1
  }
  param {
    lr_mult: 2
  }
  inner_product_param {
    num_output: 8
    weight_filler {
      type: "gaussian"
      std: 0.001
    }
    bias_filler {
      type: "constant"
      value: 0
    }
  }
}
layer {
  name: "loss_bbox"
  type: "SmoothL1Loss"
  bottom: "bbox_pred"
  bottom: "bbox_targets"
  bottom: "bbox_inside_weights"
  bottom: "bbox_outside_weights"
  top: "loss_bbox"
  loss_weight: 1
}
layer {
  name: "feat"
  type: "InnerProduct"
  bottom: "fc7"
  top: "feat"
  param {
    lr_mult: 1
    decay_mult: 1
  }
  param {
    lr_mult: 2
    decay_mult: 0
  }
  inner_product_param {
    num_output: 256
    weight_filler {
      type: "gaussian"
      std: 0.01
    }
    bias_filler {
      type: "constant"
      value: 0
    }
  }
}
layer {
  name: "relu8"
  type: "ReLU"
  bottom: "feat"
  top: "feat"
}
layer {
  name: "drop8"
  type: "Dropout"
  bottom: "feat"
  top: "feat"
  dropout_param {
    dropout_ratio: 0.5
  }
}
layer {
  name: "pid_score"
  type: "InnerProduct"
  bottom: "feat"
  top: "pid_score"
  param {
    lr_mult: 1
    decay_mult: 1
  }
  param {
    lr_mult: 2
    decay_mult: 0
  }
  inner_product_param {
    num_output: 5533
    weight_filler {
      type: "gaussian"
      std: 0.001
    }
    bias_filler {
      type: "constant"
      value: 0
    }
  }
}
I0413 18:33:18.230940 13474 layer_factory.hpp:77] Creating layer input
I0413 18:33:18.232187 13474 net.cpp:100] Creating Layer input
I0413 18:33:18.232198 13474 net.cpp:408] input -> input_data
I0413 18:33:18.232210 13474 net.cpp:408] input -> input_im_info
I0413 18:33:18.232218 13474 net.cpp:408] input -> input_gt_boxes
I0413 18:33:18.232224 13474 net.cpp:408] input -> input_ignored_boxes
RoiDataLayer: name_to_top: {'im_info': 1, 'gt_boxes': 2, 'ignored_boxes': 3, 'data': 0}
I0413 18:33:18.547114 13474 net.cpp:150] Setting up input
I0413 18:33:18.547142 13474 net.cpp:157] Top shape: 1 3 1000 1500 (4500000)
I0413 18:33:18.547147 13474 net.cpp:157] Top shape: 1 3 (3)
I0413 18:33:18.547152 13474 net.cpp:157] Top shape: 1 5 (5)
I0413 18:33:18.547154 13474 net.cpp:157] Top shape: 1 5 (5)
I0413 18:33:18.547158 13474 net.cpp:165] Memory required for data: 18000052
I0413 18:33:18.547164 13474 layer_factory.hpp:77] Creating layer input_data_input_0_split
I0413 18:33:18.547178 13474 net.cpp:100] Creating Layer input_data_input_0_split
I0413 18:33:18.547183 13474 net.cpp:434] input_data_input_0_split <- input_data
I0413 18:33:18.547190 13474 net.cpp:408] input_data_input_0_split -> input_data_input_0_split_0
I0413 18:33:18.547204 13474 net.cpp:408] input_data_input_0_split -> input_data_input_0_split_1
I0413 18:33:18.547236 13474 net.cpp:150] Setting up input_data_input_0_split
I0413 18:33:18.547242 13474 net.cpp:157] Top shape: 1 3 1000 1500 (4500000)
I0413 18:33:18.547246 13474 net.cpp:157] Top shape: 1 3 1000 1500 (4500000)
I0413 18:33:18.547250 13474 net.cpp:165] Memory required for data: 54000052
I0413 18:33:18.547253 13474 layer_factory.hpp:77] Creating layer input_im_info_input_1_split
I0413 18:33:18.547260 13474 net.cpp:100] Creating Layer input_im_info_input_1_split
I0413 18:33:18.547264 13474 net.cpp:434] input_im_info_input_1_split <- input_im_info
I0413 18:33:18.547268 13474 net.cpp:408] input_im_info_input_1_split -> input_im_info_input_1_split_0
I0413 18:33:18.547276 13474 net.cpp:408] input_im_info_input_1_split -> input_im_info_input_1_split_1
I0413 18:33:18.547303 13474 net.cpp:150] Setting up input_im_info_input_1_split
I0413 18:33:18.547308 13474 net.cpp:157] Top shape: 1 3 (3)
I0413 18:33:18.547312 13474 net.cpp:157] Top shape: 1 3 (3)
I0413 18:33:18.547315 13474 net.cpp:165] Memory required for data: 54000076
I0413 18:33:18.547318 13474 layer_factory.hpp:77] Creating layer input_gt_boxes_input_2_split
I0413 18:33:18.547324 13474 net.cpp:100] Creating Layer input_gt_boxes_input_2_split
I0413 18:33:18.547327 13474 net.cpp:434] input_gt_boxes_input_2_split <- input_gt_boxes
I0413 18:33:18.547333 13474 net.cpp:408] input_gt_boxes_input_2_split -> input_gt_boxes_input_2_split_0
I0413 18:33:18.547341 13474 net.cpp:408] input_gt_boxes_input_2_split -> input_gt_boxes_input_2_split_1
I0413 18:33:18.547368 13474 net.cpp:150] Setting up input_gt_boxes_input_2_split
I0413 18:33:18.547374 13474 net.cpp:157] Top shape: 1 5 (5)
I0413 18:33:18.547377 13474 net.cpp:157] Top shape: 1 5 (5)
I0413 18:33:18.547379 13474 net.cpp:165] Memory required for data: 54000116
I0413 18:33:18.547384 13474 layer_factory.hpp:77] Creating layer conv1_1
I0413 18:33:18.547396 13474 net.cpp:100] Creating Layer conv1_1
I0413 18:33:18.547400 13474 net.cpp:434] conv1_1 <- input_data_input_0_split_0
I0413 18:33:18.547405 13474 net.cpp:408] conv1_1 -> conv1_1
I0413 18:33:18.550465 13474 net.cpp:150] Setting up conv1_1
I0413 18:33:18.550498 13474 net.cpp:157] Top shape: 1 64 1000 1500 (96000000)
I0413 18:33:18.550501 13474 net.cpp:165] Memory required for data: 438000116
I0413 18:33:18.550520 13474 layer_factory.hpp:77] Creating layer relu1_1
I0413 18:33:18.550531 13474 net.cpp:100] Creating Layer relu1_1
I0413 18:33:18.550536 13474 net.cpp:434] relu1_1 <- conv1_1
I0413 18:33:18.550544 13474 net.cpp:395] relu1_1 -> conv1_1 (in-place)
I0413 18:33:18.550555 13474 net.cpp:150] Setting up relu1_1
I0413 18:33:18.550559 13474 net.cpp:157] Top shape: 1 64 1000 1500 (96000000)
I0413 18:33:18.550562 13474 net.cpp:165] Memory required for data: 822000116
I0413 18:33:18.550565 13474 layer_factory.hpp:77] Creating layer conv1_2
I0413 18:33:18.550575 13474 net.cpp:100] Creating Layer conv1_2
I0413 18:33:18.550580 13474 net.cpp:434] conv1_2 <- conv1_1
I0413 18:33:18.550585 13474 net.cpp:408] conv1_2 -> conv1_2
I0413 18:33:18.553745 13474 net.cpp:150] Setting up conv1_2
I0413 18:33:18.553781 13474 net.cpp:157] Top shape: 1 64 1000 1500 (96000000)
I0413 18:33:18.553784 13474 net.cpp:165] Memory required for data: 1206000116
I0413 18:33:18.553802 13474 layer_factory.hpp:77] Creating layer relu1_2
I0413 18:33:18.553812 13474 net.cpp:100] Creating Layer relu1_2
I0413 18:33:18.553817 13474 net.cpp:434] relu1_2 <- conv1_2
I0413 18:33:18.553824 13474 net.cpp:395] relu1_2 -> conv1_2 (in-place)
I0413 18:33:18.553835 13474 net.cpp:150] Setting up relu1_2
I0413 18:33:18.553839 13474 net.cpp:157] Top shape: 1 64 1000 1500 (96000000)
I0413 18:33:18.553843 13474 net.cpp:165] Memory required for data: 1590000116
I0413 18:33:18.553845 13474 layer_factory.hpp:77] Creating layer pool1
I0413 18:33:18.553856 13474 net.cpp:100] Creating Layer pool1
I0413 18:33:18.553859 13474 net.cpp:434] pool1 <- conv1_2
I0413 18:33:18.553864 13474 net.cpp:408] pool1 -> pool1
I0413 18:33:18.553938 13474 net.cpp:150] Setting up pool1
I0413 18:33:18.553946 13474 net.cpp:157] Top shape: 1 64 500 750 (24000000)
I0413 18:33:18.553948 13474 net.cpp:165] Memory required for data: 1686000116
I0413 18:33:18.553951 13474 layer_factory.hpp:77] Creating layer conv2_1
I0413 18:33:18.553961 13474 net.cpp:100] Creating Layer conv2_1
I0413 18:33:18.553966 13474 net.cpp:434] conv2_1 <- pool1
I0413 18:33:18.553972 13474 net.cpp:408] conv2_1 -> conv2_1
I0413 18:33:18.555160 13474 net.cpp:150] Setting up conv2_1
I0413 18:33:18.555182 13474 net.cpp:157] Top shape: 1 128 500 750 (48000000)
I0413 18:33:18.555186 13474 net.cpp:165] Memory required for data: 1878000116
I0413 18:33:18.555205 13474 layer_factory.hpp:77] Creating layer relu2_1
I0413 18:33:18.555214 13474 net.cpp:100] Creating Layer relu2_1
I0413 18:33:18.555218 13474 net.cpp:434] relu2_1 <- conv2_1
I0413 18:33:18.555224 13474 net.cpp:395] relu2_1 -> conv2_1 (in-place)
I0413 18:33:18.555232 13474 net.cpp:150] Setting up relu2_1
I0413 18:33:18.555235 13474 net.cpp:157] Top shape: 1 128 500 750 (48000000)
I0413 18:33:18.555238 13474 net.cpp:165] Memory required for data: 2070000116
I0413 18:33:18.555241 13474 layer_factory.hpp:77] Creating layer conv2_2
I0413 18:33:18.555249 13474 net.cpp:100] Creating Layer conv2_2
I0413 18:33:18.555253 13474 net.cpp:434] conv2_2 <- conv2_1
I0413 18:33:18.555259 13474 net.cpp:408] conv2_2 -> conv2_2
I0413 18:33:18.556251 13474 net.cpp:150] Setting up conv2_2
I0413 18:33:18.556273 13474 net.cpp:157] Top shape: 1 128 500 750 (48000000)
I0413 18:33:18.556277 13474 net.cpp:165] Memory required for data: 2262000116
I0413 18:33:18.556295 13474 layer_factory.hpp:77] Creating layer relu2_2
I0413 18:33:18.556303 13474 net.cpp:100] Creating Layer relu2_2
I0413 18:33:18.556308 13474 net.cpp:434] relu2_2 <- conv2_2
I0413 18:33:18.556315 13474 net.cpp:395] relu2_2 -> conv2_2 (in-place)
I0413 18:33:18.556324 13474 net.cpp:150] Setting up relu2_2
I0413 18:33:18.556329 13474 net.cpp:157] Top shape: 1 128 500 750 (48000000)
I0413 18:33:18.556332 13474 net.cpp:165] Memory required for data: 2454000116
I0413 18:33:18.556335 13474 layer_factory.hpp:77] Creating layer pool2
I0413 18:33:18.556341 13474 net.cpp:100] Creating Layer pool2
I0413 18:33:18.556345 13474 net.cpp:434] pool2 <- conv2_2
I0413 18:33:18.556350 13474 net.cpp:408] pool2 -> pool2
I0413 18:33:18.556392 13474 net.cpp:150] Setting up pool2
I0413 18:33:18.556401 13474 net.cpp:157] Top shape: 1 128 250 375 (12000000)
I0413 18:33:18.556404 13474 net.cpp:165] Memory required for data: 2502000116
I0413 18:33:18.556407 13474 layer_factory.hpp:77] Creating layer conv3_1
I0413 18:33:18.556416 13474 net.cpp:100] Creating Layer conv3_1
I0413 18:33:18.556419 13474 net.cpp:434] conv3_1 <- pool2
I0413 18:33:18.556426 13474 net.cpp:408] conv3_1 -> conv3_1
I0413 18:33:18.557516 13474 net.cpp:150] Setting up conv3_1
I0413 18:33:18.557541 13474 net.cpp:157] Top shape: 1 256 250 375 (24000000)
I0413 18:33:18.557554 13474 net.cpp:165] Memory required for data: 2598000116
I0413 18:33:18.557565 13474 layer_factory.hpp:77] Creating layer relu3_1
I0413 18:33:18.557574 13474 net.cpp:100] Creating Layer relu3_1
I0413 18:33:18.557579 13474 net.cpp:434] relu3_1 <- conv3_1
I0413 18:33:18.557585 13474 net.cpp:395] relu3_1 -> conv3_1 (in-place)
I0413 18:33:18.557593 13474 net.cpp:150] Setting up relu3_1
I0413 18:33:18.557597 13474 net.cpp:157] Top shape: 1 256 250 375 (24000000)
I0413 18:33:18.557600 13474 net.cpp:165] Memory required for data: 2694000116
I0413 18:33:18.557603 13474 layer_factory.hpp:77] Creating layer conv3_2
I0413 18:33:18.557613 13474 net.cpp:100] Creating Layer conv3_2
I0413 18:33:18.557617 13474 net.cpp:434] conv3_2 <- conv3_1
I0413 18:33:18.557626 13474 net.cpp:408] conv3_2 -> conv3_2
I0413 18:33:18.558848 13474 net.cpp:150] Setting up conv3_2
I0413 18:33:18.558876 13474 net.cpp:157] Top shape: 1 256 250 375 (24000000)
I0413 18:33:18.558888 13474 net.cpp:165] Memory required for data: 2790000116
I0413 18:33:18.558898 13474 layer_factory.hpp:77] Creating layer relu3_2
I0413 18:33:18.558907 13474 net.cpp:100] Creating Layer relu3_2
I0413 18:33:18.558912 13474 net.cpp:434] relu3_2 <- conv3_2
I0413 18:33:18.558918 13474 net.cpp:395] relu3_2 -> conv3_2 (in-place)
I0413 18:33:18.558928 13474 net.cpp:150] Setting up relu3_2
I0413 18:33:18.558933 13474 net.cpp:157] Top shape: 1 256 250 375 (24000000)
I0413 18:33:18.558935 13474 net.cpp:165] Memory required for data: 2886000116
I0413 18:33:18.558938 13474 layer_factory.hpp:77] Creating layer conv3_3
I0413 18:33:18.558948 13474 net.cpp:100] Creating Layer conv3_3
I0413 18:33:18.558950 13474 net.cpp:434] conv3_3 <- conv3_2
I0413 18:33:18.558956 13474 net.cpp:408] conv3_3 -> conv3_3
I0413 18:33:18.561194 13474 net.cpp:150] Setting up conv3_3
I0413 18:33:18.561233 13474 net.cpp:157] Top shape: 1 256 250 375 (24000000)
I0413 18:33:18.561239 13474 net.cpp:165] Memory required for data: 2982000116
I0413 18:33:18.561254 13474 layer_factory.hpp:77] Creating layer relu3_3
I0413 18:33:18.561270 13474 net.cpp:100] Creating Layer relu3_3
I0413 18:33:18.561278 13474 net.cpp:434] relu3_3 <- conv3_3
I0413 18:33:18.561290 13474 net.cpp:395] relu3_3 -> conv3_3 (in-place)
I0413 18:33:18.561305 13474 net.cpp:150] Setting up relu3_3
I0413 18:33:18.561312 13474 net.cpp:157] Top shape: 1 256 250 375 (24000000)
I0413 18:33:18.561317 13474 net.cpp:165] Memory required for data: 3078000116
I0413 18:33:18.561323 13474 layer_factory.hpp:77] Creating layer pool3
I0413 18:33:18.561336 13474 net.cpp:100] Creating Layer pool3
I0413 18:33:18.561342 13474 net.cpp:434] pool3 <- conv3_3
I0413 18:33:18.561350 13474 net.cpp:408] pool3 -> pool3
I0413 18:33:18.561414 13474 net.cpp:150] Setting up pool3
I0413 18:33:18.561425 13474 net.cpp:157] Top shape: 1 256 125 188 (6016000)
I0413 18:33:18.561430 13474 net.cpp:165] Memory required for data: 3102064116
I0413 18:33:18.561435 13474 layer_factory.hpp:77] Creating layer conv4_1
I0413 18:33:18.561450 13474 net.cpp:100] Creating Layer conv4_1
I0413 18:33:18.561455 13474 net.cpp:434] conv4_1 <- pool3
I0413 18:33:18.561463 13474 net.cpp:408] conv4_1 -> conv4_1
I0413 18:33:18.564327 13474 net.cpp:150] Setting up conv4_1
I0413 18:33:18.564360 13474 net.cpp:157] Top shape: 1 512 125 188 (12032000)
I0413 18:33:18.564363 13474 net.cpp:165] Memory required for data: 3150192116
I0413 18:33:18.564374 13474 layer_factory.hpp:77] Creating layer relu4_1
I0413 18:33:18.564385 13474 net.cpp:100] Creating Layer relu4_1
I0413 18:33:18.564393 13474 net.cpp:434] relu4_1 <- conv4_1
I0413 18:33:18.564404 13474 net.cpp:395] relu4_1 -> conv4_1 (in-place)
I0413 18:33:18.564416 13474 net.cpp:150] Setting up relu4_1
I0413 18:33:18.564424 13474 net.cpp:157] Top shape: 1 512 125 188 (12032000)
I0413 18:33:18.564429 13474 net.cpp:165] Memory required for data: 3198320116
I0413 18:33:18.564434 13474 layer_factory.hpp:77] Creating layer conv4_2
I0413 18:33:18.564447 13474 net.cpp:100] Creating Layer conv4_2
I0413 18:33:18.564452 13474 net.cpp:434] conv4_2 <- conv4_1
I0413 18:33:18.564463 13474 net.cpp:408] conv4_2 -> conv4_2
I0413 18:33:18.568783 13474 net.cpp:150] Setting up conv4_2
I0413 18:33:18.568826 13474 net.cpp:157] Top shape: 1 512 125 188 (12032000)
I0413 18:33:18.568830 13474 net.cpp:165] Memory required for data: 3246448116
I0413 18:33:18.568845 13474 layer_factory.hpp:77] Creating layer relu4_2
I0413 18:33:18.568856 13474 net.cpp:100] Creating Layer relu4_2
I0413 18:33:18.568863 13474 net.cpp:434] relu4_2 <- conv4_2
I0413 18:33:18.568876 13474 net.cpp:395] relu4_2 -> conv4_2 (in-place)
I0413 18:33:18.568891 13474 net.cpp:150] Setting up relu4_2
I0413 18:33:18.568899 13474 net.cpp:157] Top shape: 1 512 125 188 (12032000)
I0413 18:33:18.568914 13474 net.cpp:165] Memory required for data: 3294576116
I0413 18:33:18.568920 13474 layer_factory.hpp:77] Creating layer conv4_3
I0413 18:33:18.568934 13474 net.cpp:100] Creating Layer conv4_3
I0413 18:33:18.568939 13474 net.cpp:434] conv4_3 <- conv4_2
I0413 18:33:18.568948 13474 net.cpp:408] conv4_3 -> conv4_3
I0413 18:33:18.573333 13474 net.cpp:150] Setting up conv4_3
I0413 18:33:18.573367 13474 net.cpp:157] Top shape: 1 512 125 188 (12032000)
I0413 18:33:18.573372 13474 net.cpp:165] Memory required for data: 3342704116
I0413 18:33:18.573384 13474 layer_factory.hpp:77] Creating layer relu4_3
I0413 18:33:18.573392 13474 net.cpp:100] Creating Layer relu4_3
I0413 18:33:18.573398 13474 net.cpp:434] relu4_3 <- conv4_3
I0413 18:33:18.573408 13474 net.cpp:395] relu4_3 -> conv4_3 (in-place)
I0413 18:33:18.573422 13474 net.cpp:150] Setting up relu4_3
I0413 18:33:18.573431 13474 net.cpp:157] Top shape: 1 512 125 188 (12032000)
I0413 18:33:18.573438 13474 net.cpp:165] Memory required for data: 3390832116
I0413 18:33:18.573443 13474 layer_factory.hpp:77] Creating layer pool4
I0413 18:33:18.573454 13474 net.cpp:100] Creating Layer pool4
I0413 18:33:18.573462 13474 net.cpp:434] pool4 <- conv4_3
I0413 18:33:18.573469 13474 net.cpp:408] pool4 -> pool4
I0413 18:33:18.573523 13474 net.cpp:150] Setting up pool4
I0413 18:33:18.573534 13474 net.cpp:157] Top shape: 1 512 63 94 (3032064)
I0413 18:33:18.573539 13474 net.cpp:165] Memory required for data: 3402960372
I0413 18:33:18.573544 13474 layer_factory.hpp:77] Creating layer conv5_1
I0413 18:33:18.573560 13474 net.cpp:100] Creating Layer conv5_1
I0413 18:33:18.573567 13474 net.cpp:434] conv5_1 <- pool4
I0413 18:33:18.573578 13474 net.cpp:408] conv5_1 -> conv5_1
I0413 18:33:18.578347 13474 net.cpp:150] Setting up conv5_1
I0413 18:33:18.578380 13474 net.cpp:157] Top shape: 1 512 63 94 (3032064)
I0413 18:33:18.578383 13474 net.cpp:165] Memory required for data: 3415088628
I0413 18:33:18.578397 13474 layer_factory.hpp:77] Creating layer relu5_1
I0413 18:33:18.578413 13474 net.cpp:100] Creating Layer relu5_1
I0413 18:33:18.578426 13474 net.cpp:434] relu5_1 <- conv5_1
I0413 18:33:18.578438 13474 net.cpp:395] relu5_1 -> conv5_1 (in-place)
I0413 18:33:18.578450 13474 net.cpp:150] Setting up relu5_1
I0413 18:33:18.578459 13474 net.cpp:157] Top shape: 1 512 63 94 (3032064)
I0413 18:33:18.578462 13474 net.cpp:165] Memory required for data: 3427216884
I0413 18:33:18.578465 13474 layer_factory.hpp:77] Creating layer conv5_2
I0413 18:33:18.578475 13474 net.cpp:100] Creating Layer conv5_2
I0413 18:33:18.578480 13474 net.cpp:434] conv5_2 <- conv5_1
I0413 18:33:18.578486 13474 net.cpp:408] conv5_2 -> conv5_2
I0413 18:33:18.583417 13474 net.cpp:150] Setting up conv5_2
I0413 18:33:18.583456 13474 net.cpp:157] Top shape: 1 512 63 94 (3032064)
I0413 18:33:18.583459 13474 net.cpp:165] Memory required for data: 3439345140
I0413 18:33:18.583469 13474 layer_factory.hpp:77] Creating layer relu5_2
I0413 18:33:18.583484 13474 net.cpp:100] Creating Layer relu5_2
I0413 18:33:18.583492 13474 net.cpp:434] relu5_2 <- conv5_2
I0413 18:33:18.583501 13474 net.cpp:395] relu5_2 -> conv5_2 (in-place)
I0413 18:33:18.583515 13474 net.cpp:150] Setting up relu5_2
I0413 18:33:18.583523 13474 net.cpp:157] Top shape: 1 512 63 94 (3032064)
I0413 18:33:18.583528 13474 net.cpp:165] Memory required for data: 3451473396
I0413 18:33:18.583534 13474 layer_factory.hpp:77] Creating layer conv5_3
I0413 18:33:18.583555 13474 net.cpp:100] Creating Layer conv5_3
I0413 18:33:18.583564 13474 net.cpp:434] conv5_3 <- conv5_2
I0413 18:33:18.583572 13474 net.cpp:408] conv5_3 -> conv5_3
I0413 18:33:18.588205 13474 net.cpp:150] Setting up conv5_3
I0413 18:33:18.588241 13474 net.cpp:157] Top shape: 1 512 63 94 (3032064)
I0413 18:33:18.588254 13474 net.cpp:165] Memory required for data: 3463601652
I0413 18:33:18.588265 13474 layer_factory.hpp:77] Creating layer relu5_3
I0413 18:33:18.588277 13474 net.cpp:100] Creating Layer relu5_3
I0413 18:33:18.588284 13474 net.cpp:434] relu5_3 <- conv5_3
I0413 18:33:18.588295 13474 net.cpp:395] relu5_3 -> conv5_3 (in-place)
I0413 18:33:18.588309 13474 net.cpp:150] Setting up relu5_3
I0413 18:33:18.588317 13474 net.cpp:157] Top shape: 1 512 63 94 (3032064)
I0413 18:33:18.588326 13474 net.cpp:165] Memory required for data: 3475729908
I0413 18:33:18.588332 13474 layer_factory.hpp:77] Creating layer conv5_3_relu5_3_0_split
I0413 18:33:18.588342 13474 net.cpp:100] Creating Layer conv5_3_relu5_3_0_split
I0413 18:33:18.588348 13474 net.cpp:434] conv5_3_relu5_3_0_split <- conv5_3
I0413 18:33:18.588356 13474 net.cpp:408] conv5_3_relu5_3_0_split -> conv5_3_relu5_3_0_split_0
I0413 18:33:18.588368 13474 net.cpp:408] conv5_3_relu5_3_0_split -> conv5_3_relu5_3_0_split_1
I0413 18:33:18.588418 13474 net.cpp:150] Setting up conv5_3_relu5_3_0_split
I0413 18:33:18.588428 13474 net.cpp:157] Top shape: 1 512 63 94 (3032064)
I0413 18:33:18.588436 13474 net.cpp:157] Top shape: 1 512 63 94 (3032064)
I0413 18:33:18.588441 13474 net.cpp:165] Memory required for data: 3499986420
I0413 18:33:18.588448 13474 layer_factory.hpp:77] Creating layer rpn_big_conv1
I0413 18:33:18.588466 13474 net.cpp:100] Creating Layer rpn_big_conv1
I0413 18:33:18.588474 13474 net.cpp:434] rpn_big_conv1 <- conv5_3_relu5_3_0_split_0
I0413 18:33:18.588485 13474 net.cpp:408] rpn_big_conv1 -> rpn_big_conv1
I0413 18:33:18.614284 13474 net.cpp:150] Setting up rpn_big_conv1
I0413 18:33:18.614325 13474 net.cpp:157] Top shape: 1 512 63 94 (3032064)
I0413 18:33:18.614329 13474 net.cpp:165] Memory required for data: 3512114676
I0413 18:33:18.614339 13474 layer_factory.hpp:77] Creating layer rpn_big_conv1_relu
I0413 18:33:18.614351 13474 net.cpp:100] Creating Layer rpn_big_conv1_relu
I0413 18:33:18.614356 13474 net.cpp:434] rpn_big_conv1_relu <- rpn_big_conv1
I0413 18:33:18.614367 13474 net.cpp:395] rpn_big_conv1_relu -> rpn_big_conv1 (in-place)
I0413 18:33:18.614382 13474 net.cpp:150] Setting up rpn_big_conv1_relu
I0413 18:33:18.614389 13474 net.cpp:157] Top shape: 1 512 63 94 (3032064)
I0413 18:33:18.614394 13474 net.cpp:165] Memory required for data: 3524242932
I0413 18:33:18.614399 13474 layer_factory.hpp:77] Creating layer rpn_big_conv2
I0413 18:33:18.614415 13474 net.cpp:100] Creating Layer rpn_big_conv2
I0413 18:33:18.614421 13474 net.cpp:434] rpn_big_conv2 <- rpn_big_conv1
I0413 18:33:18.614433 13474 net.cpp:408] rpn_big_conv2 -> rpn_big_conv2
I0413 18:33:18.639958 13474 net.cpp:150] Setting up rpn_big_conv2
I0413 18:33:18.639988 13474 net.cpp:157] Top shape: 1 512 63 94 (3032064)
I0413 18:33:18.640002 13474 net.cpp:165] Memory required for data: 3536371188
I0413 18:33:18.640012 13474 layer_factory.hpp:77] Creating layer rpn_big_conv2_relu
I0413 18:33:18.640022 13474 net.cpp:100] Creating Layer rpn_big_conv2_relu
I0413 18:33:18.640029 13474 net.cpp:434] rpn_big_conv2_relu <- rpn_big_conv2
I0413 18:33:18.640038 13474 net.cpp:395] rpn_big_conv2_relu -> rpn_big_conv2 (in-place)
I0413 18:33:18.640053 13474 net.cpp:150] Setting up rpn_big_conv2_relu
I0413 18:33:18.640061 13474 net.cpp:157] Top shape: 1 512 63 94 (3032064)
I0413 18:33:18.640066 13474 net.cpp:165] Memory required for data: 3548499444
I0413 18:33:18.640071 13474 layer_factory.hpp:77] Creating layer rpn_big_conv2_drop
I0413 18:33:18.640081 13474 net.cpp:100] Creating Layer rpn_big_conv2_drop
I0413 18:33:18.640089 13474 net.cpp:434] rpn_big_conv2_drop <- rpn_big_conv2
I0413 18:33:18.640099 13474 net.cpp:395] rpn_big_conv2_drop -> rpn_big_conv2 (in-place)
I0413 18:33:18.640130 13474 net.cpp:150] Setting up rpn_big_conv2_drop
I0413 18:33:18.640141 13474 net.cpp:157] Top shape: 1 512 63 94 (3032064)
I0413 18:33:18.640147 13474 net.cpp:165] Memory required for data: 3560627700
I0413 18:33:18.640152 13474 layer_factory.hpp:77] Creating layer rpn_big_conv2_rpn_big_conv2_drop_0_split
I0413 18:33:18.640162 13474 net.cpp:100] Creating Layer rpn_big_conv2_rpn_big_conv2_drop_0_split
I0413 18:33:18.640169 13474 net.cpp:434] rpn_big_conv2_rpn_big_conv2_drop_0_split <- rpn_big_conv2
I0413 18:33:18.640177 13474 net.cpp:408] rpn_big_conv2_rpn_big_conv2_drop_0_split -> rpn_big_conv2_rpn_big_conv2_drop_0_split_0
I0413 18:33:18.640190 13474 net.cpp:408] rpn_big_conv2_rpn_big_conv2_drop_0_split -> rpn_big_conv2_rpn_big_conv2_drop_0_split_1
I0413 18:33:18.640246 13474 net.cpp:150] Setting up rpn_big_conv2_rpn_big_conv2_drop_0_split
I0413 18:33:18.640257 13474 net.cpp:157] Top shape: 1 512 63 94 (3032064)
I0413 18:33:18.640266 13474 net.cpp:157] Top shape: 1 512 63 94 (3032064)
I0413 18:33:18.640274 13474 net.cpp:165] Memory required for data: 3584884212
I0413 18:33:18.640280 13474 layer_factory.hpp:77] Creating layer rpn_big_output_cls
I0413 18:33:18.640296 13474 net.cpp:100] Creating Layer rpn_big_output_cls
I0413 18:33:18.640303 13474 net.cpp:434] rpn_big_output_cls <- rpn_big_conv2_rpn_big_conv2_drop_0_split_0
I0413 18:33:18.640314 13474 net.cpp:408] rpn_big_output_cls -> rpn_big_output_cls
I0413 18:33:18.658927 13474 net.cpp:150] Setting up rpn_big_output_cls
I0413 18:33:18.658959 13474 net.cpp:157] Top shape: 1 384 63 94 (2274048)
I0413 18:33:18.658972 13474 net.cpp:165] Memory required for data: 3593980404
I0413 18:33:18.658982 13474 layer_factory.hpp:77] Creating layer rpn_big_output_cls_relu
I0413 18:33:18.658994 13474 net.cpp:100] Creating Layer rpn_big_output_cls_relu
I0413 18:33:18.659000 13474 net.cpp:434] rpn_big_output_cls_relu <- rpn_big_output_cls
I0413 18:33:18.659011 13474 net.cpp:395] rpn_big_output_cls_relu -> rpn_big_output_cls (in-place)
I0413 18:33:18.659030 13474 net.cpp:150] Setting up rpn_big_output_cls_relu
I0413 18:33:18.659040 13474 net.cpp:157] Top shape: 1 384 63 94 (2274048)
I0413 18:33:18.659046 13474 net.cpp:165] Memory required for data: 3603076596
I0413 18:33:18.659051 13474 layer_factory.hpp:77] Creating layer rpn_big_cls_score
I0413 18:33:18.659065 13474 net.cpp:100] Creating Layer rpn_big_cls_score
I0413 18:33:18.659071 13474 net.cpp:434] rpn_big_cls_score <- rpn_big_output_cls
I0413 18:33:18.659088 13474 net.cpp:408] rpn_big_cls_score -> rpn_big_cls_score
I0413 18:33:18.662181 13474 net.cpp:150] Setting up rpn_big_cls_score
I0413 18:33:18.662205 13474 net.cpp:157] Top shape: 1 52 61 92 (291824)
I0413 18:33:18.662209 13474 net.cpp:165] Memory required for data: 3604243892
I0413 18:33:18.662225 13474 layer_factory.hpp:77] Creating layer rpn_big_cls_score_rpn_big_cls_score_0_split
I0413 18:33:18.662235 13474 net.cpp:100] Creating Layer rpn_big_cls_score_rpn_big_cls_score_0_split
I0413 18:33:18.662241 13474 net.cpp:434] rpn_big_cls_score_rpn_big_cls_score_0_split <- rpn_big_cls_score
I0413 18:33:18.662252 13474 net.cpp:408] rpn_big_cls_score_rpn_big_cls_score_0_split -> rpn_big_cls_score_rpn_big_cls_score_0_split_0
I0413 18:33:18.662266 13474 net.cpp:408] rpn_big_cls_score_rpn_big_cls_score_0_split -> rpn_big_cls_score_rpn_big_cls_score_0_split_1
I0413 18:33:18.662317 13474 net.cpp:150] Setting up rpn_big_cls_score_rpn_big_cls_score_0_split
I0413 18:33:18.662328 13474 net.cpp:157] Top shape: 1 52 61 92 (291824)
I0413 18:33:18.662335 13474 net.cpp:157] Top shape: 1 52 61 92 (291824)
I0413 18:33:18.662340 13474 net.cpp:165] Memory required for data: 3606578484
I0413 18:33:18.662344 13474 layer_factory.hpp:77] Creating layer rpn_big_cls_score_reshape
I0413 18:33:18.662358 13474 net.cpp:100] Creating Layer rpn_big_cls_score_reshape
I0413 18:33:18.662364 13474 net.cpp:434] rpn_big_cls_score_reshape <- rpn_big_cls_score_rpn_big_cls_score_0_split_0
I0413 18:33:18.662371 13474 net.cpp:408] rpn_big_cls_score_reshape -> rpn_big_cls_score_reshape
I0413 18:33:18.662405 13474 net.cpp:150] Setting up rpn_big_cls_score_reshape
I0413 18:33:18.662416 13474 net.cpp:157] Top shape: 1 2 1586 92 (291824)
I0413 18:33:18.662422 13474 net.cpp:165] Memory required for data: 3607745780
I0413 18:33:18.662428 13474 layer_factory.hpp:77] Creating layer rpn_big_cls_score_reshape_rpn_big_cls_score_reshape_0_split
I0413 18:33:18.662436 13474 net.cpp:100] Creating Layer rpn_big_cls_score_reshape_rpn_big_cls_score_reshape_0_split
I0413 18:33:18.662443 13474 net.cpp:434] rpn_big_cls_score_reshape_rpn_big_cls_score_reshape_0_split <- rpn_big_cls_score_reshape
I0413 18:33:18.662451 13474 net.cpp:408] rpn_big_cls_score_reshape_rpn_big_cls_score_reshape_0_split -> rpn_big_cls_score_reshape_rpn_big_cls_score_reshape_0_split_0
I0413 18:33:18.662461 13474 net.cpp:408] rpn_big_cls_score_reshape_rpn_big_cls_score_reshape_0_split -> rpn_big_cls_score_reshape_rpn_big_cls_score_reshape_0_split_1
I0413 18:33:18.662508 13474 net.cpp:150] Setting up rpn_big_cls_score_reshape_rpn_big_cls_score_reshape_0_split
I0413 18:33:18.662518 13474 net.cpp:157] Top shape: 1 2 1586 92 (291824)
I0413 18:33:18.662524 13474 net.cpp:157] Top shape: 1 2 1586 92 (291824)
I0413 18:33:18.662529 13474 net.cpp:165] Memory required for data: 3610080372
I0413 18:33:18.662534 13474 layer_factory.hpp:77] Creating layer rpn_big_cls_prob
I0413 18:33:18.662542 13474 net.cpp:100] Creating Layer rpn_big_cls_prob
I0413 18:33:18.662549 13474 net.cpp:434] rpn_big_cls_prob <- rpn_big_cls_score_reshape_rpn_big_cls_score_reshape_0_split_0
I0413 18:33:18.662557 13474 net.cpp:408] rpn_big_cls_prob -> rpn_big_cls_prob
I0413 18:33:18.662632 13474 net.cpp:150] Setting up rpn_big_cls_prob
I0413 18:33:18.662642 13474 net.cpp:157] Top shape: 1 2 1586 92 (291824)
I0413 18:33:18.662647 13474 net.cpp:165] Memory required for data: 3611247668
I0413 18:33:18.662652 13474 layer_factory.hpp:77] Creating layer rpn_big_cls_prob_reshape
I0413 18:33:18.662662 13474 net.cpp:100] Creating Layer rpn_big_cls_prob_reshape
I0413 18:33:18.662668 13474 net.cpp:434] rpn_big_cls_prob_reshape <- rpn_big_cls_prob
I0413 18:33:18.662677 13474 net.cpp:408] rpn_big_cls_prob_reshape -> rpn_big_cls_prob_reshape
I0413 18:33:18.662706 13474 net.cpp:150] Setting up rpn_big_cls_prob_reshape
I0413 18:33:18.662717 13474 net.cpp:157] Top shape: 1 52 61 92 (291824)
I0413 18:33:18.662724 13474 net.cpp:165] Memory required for data: 3612414964
I0413 18:33:18.662729 13474 layer_factory.hpp:77] Creating layer rpn_big_cls_prob_reshape_rpn_big_cls_prob_reshape_0_split
I0413 18:33:18.662739 13474 net.cpp:100] Creating Layer rpn_big_cls_prob_reshape_rpn_big_cls_prob_reshape_0_split
I0413 18:33:18.662744 13474 net.cpp:434] rpn_big_cls_prob_reshape_rpn_big_cls_prob_reshape_0_split <- rpn_big_cls_prob_reshape
I0413 18:33:18.662753 13474 net.cpp:408] rpn_big_cls_prob_reshape_rpn_big_cls_prob_reshape_0_split -> rpn_big_cls_prob_reshape_rpn_big_cls_prob_reshape_0_split_0
I0413 18:33:18.662763 13474 net.cpp:408] rpn_big_cls_prob_reshape_rpn_big_cls_prob_reshape_0_split -> rpn_big_cls_prob_reshape_rpn_big_cls_prob_reshape_0_split_1
I0413 18:33:18.662806 13474 net.cpp:150] Setting up rpn_big_cls_prob_reshape_rpn_big_cls_prob_reshape_0_split
I0413 18:33:18.662817 13474 net.cpp:157] Top shape: 1 52 61 92 (291824)
I0413 18:33:18.662823 13474 net.cpp:157] Top shape: 1 52 61 92 (291824)
I0413 18:33:18.662828 13474 net.cpp:165] Memory required for data: 3614749556
I0413 18:33:18.662834 13474 layer_factory.hpp:77] Creating layer rpn_big_anchor_target
I0413 18:33:18.664384 13474 net.cpp:100] Creating Layer rpn_big_anchor_target
I0413 18:33:18.664402 13474 net.cpp:434] rpn_big_anchor_target <- rpn_big_cls_score_rpn_big_cls_score_0_split_1
I0413 18:33:18.664408 13474 net.cpp:434] rpn_big_anchor_target <- input_gt_boxes_input_2_split_0
I0413 18:33:18.664414 13474 net.cpp:434] rpn_big_anchor_target <- input_ignored_boxes
I0413 18:33:18.664422 13474 net.cpp:434] rpn_big_anchor_target <- input_im_info_input_1_split_0
I0413 18:33:18.664429 13474 net.cpp:434] rpn_big_anchor_target <- input_data_input_0_split_1
I0413 18:33:18.664436 13474 net.cpp:434] rpn_big_anchor_target <- rpn_big_cls_prob_reshape_rpn_big_cls_prob_reshape_0_split_0
I0413 18:33:18.664448 13474 net.cpp:408] rpn_big_anchor_target -> rpn_big_anchor_target_labels
I0413 18:33:18.664463 13474 net.cpp:408] rpn_big_anchor_target -> rpn_big_anchor_target_bbox_targets
I0413 18:33:18.664476 13474 net.cpp:408] rpn_big_anchor_target -> rpn_big_anchor_target_inside_weights
I0413 18:33:18.664489 13474 net.cpp:408] rpn_big_anchor_target -> rpn_big_anchor_target_outside_weights
I0413 18:33:18.669260 13474 net.cpp:150] Setting up rpn_big_anchor_target
I0413 18:33:18.669288 13474 net.cpp:157] Top shape: 1 1 1586 92 (145912)
I0413 18:33:18.669294 13474 net.cpp:157] Top shape: 1 104 61 92 (583648)
I0413 18:33:18.669298 13474 net.cpp:157] Top shape: 1 104 61 92 (583648)
I0413 18:33:18.669304 13474 net.cpp:157] Top shape: 1 104 61 92 (583648)
I0413 18:33:18.669308 13474 net.cpp:165] Memory required for data: 3622336980
I0413 18:33:18.669317 13474 layer_factory.hpp:77] Creating layer rpn_big_loss_cls
I0413 18:33:18.669330 13474 net.cpp:100] Creating Layer rpn_big_loss_cls
I0413 18:33:18.669340 13474 net.cpp:434] rpn_big_loss_cls <- rpn_big_cls_score_reshape_rpn_big_cls_score_reshape_0_split_1
I0413 18:33:18.669350 13474 net.cpp:434] rpn_big_loss_cls <- rpn_big_anchor_target_labels
I0413 18:33:18.669361 13474 net.cpp:408] rpn_big_loss_cls -> rpn_big_loss_cls
I0413 18:33:18.669380 13474 layer_factory.hpp:77] Creating layer rpn_big_loss_cls
I0413 18:33:18.670114 13474 net.cpp:150] Setting up rpn_big_loss_cls
I0413 18:33:18.670128 13474 net.cpp:157] Top shape: (1)
I0413 18:33:18.670131 13474 net.cpp:160]     with loss weight 1
I0413 18:33:18.670145 13474 net.cpp:165] Memory required for data: 3622336984
I0413 18:33:18.670155 13474 layer_factory.hpp:77] Creating layer rpn_big_output_box
I0413 18:33:18.670176 13474 net.cpp:100] Creating Layer rpn_big_output_box
I0413 18:33:18.670183 13474 net.cpp:434] rpn_big_output_box <- rpn_big_conv2_rpn_big_conv2_drop_0_split_1
I0413 18:33:18.670194 13474 net.cpp:408] rpn_big_output_box -> rpn_big_output_box
I0413 18:33:18.690102 13474 net.cpp:150] Setting up rpn_big_output_box
I0413 18:33:18.690132 13474 net.cpp:157] Top shape: 1 384 63 94 (2274048)
I0413 18:33:18.690136 13474 net.cpp:165] Memory required for data: 3631433176
I0413 18:33:18.690150 13474 layer_factory.hpp:77] Creating layer rpn_big_output_box_relu
I0413 18:33:18.690162 13474 net.cpp:100] Creating Layer rpn_big_output_box_relu
I0413 18:33:18.690172 13474 net.cpp:434] rpn_big_output_box_relu <- rpn_big_output_box
I0413 18:33:18.690186 13474 net.cpp:395] rpn_big_output_box_relu -> rpn_big_output_box (in-place)
I0413 18:33:18.690201 13474 net.cpp:150] Setting up rpn_big_output_box_relu
I0413 18:33:18.690209 13474 net.cpp:157] Top shape: 1 384 63 94 (2274048)
I0413 18:33:18.690215 13474 net.cpp:165] Memory required for data: 3640529368
I0413 18:33:18.690220 13474 layer_factory.hpp:77] Creating layer rpn_big_bbox_pred
I0413 18:33:18.690240 13474 net.cpp:100] Creating Layer rpn_big_bbox_pred
I0413 18:33:18.690248 13474 net.cpp:434] rpn_big_bbox_pred <- rpn_big_output_box
I0413 18:33:18.690261 13474 net.cpp:408] rpn_big_bbox_pred -> rpn_big_bbox_pred
I0413 18:33:18.694674 13474 net.cpp:150] Setting up rpn_big_bbox_pred
I0413 18:33:18.694701 13474 net.cpp:157] Top shape: 1 104 61 92 (583648)
I0413 18:33:18.694705 13474 net.cpp:165] Memory required for data: 3642863960
I0413 18:33:18.694718 13474 layer_factory.hpp:77] Creating layer rpn_big_bbox_pred_rpn_big_bbox_pred_0_split
I0413 18:33:18.694733 13474 net.cpp:100] Creating Layer rpn_big_bbox_pred_rpn_big_bbox_pred_0_split
I0413 18:33:18.694741 13474 net.cpp:434] rpn_big_bbox_pred_rpn_big_bbox_pred_0_split <- rpn_big_bbox_pred
I0413 18:33:18.694753 13474 net.cpp:408] rpn_big_bbox_pred_rpn_big_bbox_pred_0_split -> rpn_big_bbox_pred_rpn_big_bbox_pred_0_split_0
I0413 18:33:18.694771 13474 net.cpp:408] rpn_big_bbox_pred_rpn_big_bbox_pred_0_split -> rpn_big_bbox_pred_rpn_big_bbox_pred_0_split_1
I0413 18:33:18.694819 13474 net.cpp:150] Setting up rpn_big_bbox_pred_rpn_big_bbox_pred_0_split
I0413 18:33:18.694833 13474 net.cpp:157] Top shape: 1 104 61 92 (583648)
I0413 18:33:18.694841 13474 net.cpp:157] Top shape: 1 104 61 92 (583648)
I0413 18:33:18.694849 13474 net.cpp:165] Memory required for data: 3647533144
I0413 18:33:18.694854 13474 layer_factory.hpp:77] Creating layer rpn_big_loss_bbox
I0413 18:33:18.695279 13474 net.cpp:100] Creating Layer rpn_big_loss_bbox
I0413 18:33:18.695289 13474 net.cpp:434] rpn_big_loss_bbox <- rpn_big_bbox_pred_rpn_big_bbox_pred_0_split_0
I0413 18:33:18.695297 13474 net.cpp:434] rpn_big_loss_bbox <- rpn_big_anchor_target_bbox_targets
I0413 18:33:18.695307 13474 net.cpp:434] rpn_big_loss_bbox <- rpn_big_anchor_target_inside_weights
I0413 18:33:18.695315 13474 net.cpp:434] rpn_big_loss_bbox <- rpn_big_anchor_target_outside_weights
I0413 18:33:18.695327 13474 net.cpp:408] rpn_big_loss_bbox -> rpn_big_loss_bbox
I0413 18:33:18.697113 13474 net.cpp:150] Setting up rpn_big_loss_bbox
I0413 18:33:18.697146 13474 net.cpp:157] Top shape: 1 (1)
I0413 18:33:18.697150 13474 net.cpp:160]     with loss weight 1
I0413 18:33:18.697165 13474 net.cpp:165] Memory required for data: 3647533148
I0413 18:33:18.697176 13474 layer_factory.hpp:77] Creating layer proposal
I0413 18:33:18.697615 13474 net.cpp:100] Creating Layer proposal
I0413 18:33:18.697626 13474 net.cpp:434] proposal <- rpn_big_cls_prob_reshape_rpn_big_cls_prob_reshape_0_split_1
I0413 18:33:18.697636 13474 net.cpp:434] proposal <- rpn_big_bbox_pred_rpn_big_bbox_pred_0_split_1
I0413 18:33:18.697645 13474 net.cpp:434] proposal <- input_im_info_input_1_split_1
I0413 18:33:18.697659 13474 net.cpp:408] proposal -> rpn_rois
I0413 18:33:18.701860 13474 net.cpp:150] Setting up proposal
I0413 18:33:18.701879 13474 net.cpp:157] Top shape: 1 5 (5)
I0413 18:33:18.701884 13474 net.cpp:165] Memory required for data: 3647533168
I0413 18:33:18.701889 13474 layer_factory.hpp:77] Creating layer roi-data
I0413 18:33:18.702270 13474 net.cpp:100] Creating Layer roi-data
I0413 18:33:18.702280 13474 net.cpp:434] roi-data <- rpn_rois
I0413 18:33:18.702286 13474 net.cpp:434] roi-data <- input_gt_boxes_input_2_split_1
I0413 18:33:18.702293 13474 net.cpp:408] roi-data -> rois
I0413 18:33:18.702302 13474 net.cpp:408] roi-data -> labels
I0413 18:33:18.702309 13474 net.cpp:408] roi-data -> bbox_targets
I0413 18:33:18.702316 13474 net.cpp:408] roi-data -> bbox_inside_weights
I0413 18:33:18.702323 13474 net.cpp:408] roi-data -> bbox_outside_weights
I0413 18:33:18.702330 13474 net.cpp:408] roi-data -> pid_label
I0413 18:33:18.703436 13474 net.cpp:150] Setting up roi-data
I0413 18:33:18.703455 13474 net.cpp:157] Top shape: 1 5 (5)
I0413 18:33:18.703460 13474 net.cpp:157] Top shape: 1 1 (1)
I0413 18:33:18.703467 13474 net.cpp:157] Top shape: 1 8 (8)
I0413 18:33:18.703474 13474 net.cpp:157] Top shape: 1 8 (8)
I0413 18:33:18.703480 13474 net.cpp:157] Top shape: 1 8 (8)
I0413 18:33:18.703486 13474 net.cpp:157] Top shape: (0)
I0413 18:33:18.703490 13474 net.cpp:165] Memory required for data: 3647533288
I0413 18:33:18.703496 13474 layer_factory.hpp:77] Creating layer roi-pool
I0413 18:33:18.703507 13474 net.cpp:100] Creating Layer roi-pool
I0413 18:33:18.703516 13474 net.cpp:434] roi-pool <- conv5_3_relu5_3_0_split_1
I0413 18:33:18.703523 13474 net.cpp:434] roi-pool <- rois
I0413 18:33:18.703532 13474 net.cpp:408] roi-pool -> roi-pool
I0413 18:33:18.703544 13474 roi_pooling_layer.cpp:33] Spatial scale: 0.0625
I0413 18:33:18.703562 13474 roi_pooling_layer.cpp:34] Box scale: 1
I0413 18:33:18.703615 13474 net.cpp:150] Setting up roi-pool
I0413 18:33:18.703627 13474 net.cpp:157] Top shape: 1 512 7 7 (25088)
I0413 18:33:18.703631 13474 net.cpp:165] Memory required for data: 3647633640
I0413 18:33:18.703637 13474 layer_factory.hpp:77] Creating layer fc6
I0413 18:33:18.703647 13474 net.cpp:100] Creating Layer fc6
I0413 18:33:18.703655 13474 net.cpp:434] fc6 <- roi-pool
I0413 18:33:18.703665 13474 net.cpp:408] fc6 -> fc6
I0413 18:33:18.867496 13474 net.cpp:150] Setting up fc6
I0413 18:33:18.867533 13474 net.cpp:157] Top shape: 1 4096 (4096)
I0413 18:33:18.867545 13474 net.cpp:165] Memory required for data: 3647650024
I0413 18:33:18.867558 13474 layer_factory.hpp:77] Creating layer relu6
I0413 18:33:18.867568 13474 net.cpp:100] Creating Layer relu6
I0413 18:33:18.867573 13474 net.cpp:434] relu6 <- fc6
I0413 18:33:18.867579 13474 net.cpp:395] relu6 -> fc6 (in-place)
I0413 18:33:18.867591 13474 net.cpp:150] Setting up relu6
I0413 18:33:18.867597 13474 net.cpp:157] Top shape: 1 4096 (4096)
I0413 18:33:18.867602 13474 net.cpp:165] Memory required for data: 3647666408
I0413 18:33:18.867607 13474 layer_factory.hpp:77] Creating layer drop6
I0413 18:33:18.867619 13474 net.cpp:100] Creating Layer drop6
I0413 18:33:18.867640 13474 net.cpp:434] drop6 <- fc6
I0413 18:33:18.867648 13474 net.cpp:395] drop6 -> fc6 (in-place)
I0413 18:33:18.867681 13474 net.cpp:150] Setting up drop6
I0413 18:33:18.867691 13474 net.cpp:157] Top shape: 1 4096 (4096)
I0413 18:33:18.867696 13474 net.cpp:165] Memory required for data: 3647682792
I0413 18:33:18.867700 13474 layer_factory.hpp:77] Creating layer fc7
I0413 18:33:18.867710 13474 net.cpp:100] Creating Layer fc7
I0413 18:33:18.867715 13474 net.cpp:434] fc7 <- fc6
I0413 18:33:18.867725 13474 net.cpp:408] fc7 -> fc7
I0413 18:33:18.895411 13474 net.cpp:150] Setting up fc7
I0413 18:33:18.895447 13474 net.cpp:157] Top shape: 1 4096 (4096)
I0413 18:33:18.895458 13474 net.cpp:165] Memory required for data: 3647699176
I0413 18:33:18.895470 13474 layer_factory.hpp:77] Creating layer relu7
I0413 18:33:18.895501 13474 net.cpp:100] Creating Layer relu7
I0413 18:33:18.895509 13474 net.cpp:434] relu7 <- fc7
I0413 18:33:18.895521 13474 net.cpp:395] relu7 -> fc7 (in-place)
I0413 18:33:18.895536 13474 net.cpp:150] Setting up relu7
I0413 18:33:18.895545 13474 net.cpp:157] Top shape: 1 4096 (4096)
I0413 18:33:18.895550 13474 net.cpp:165] Memory required for data: 3647715560
I0413 18:33:18.895555 13474 layer_factory.hpp:77] Creating layer drop7
I0413 18:33:18.895565 13474 net.cpp:100] Creating Layer drop7
I0413 18:33:18.895570 13474 net.cpp:434] drop7 <- fc7
I0413 18:33:18.895578 13474 net.cpp:395] drop7 -> fc7 (in-place)
I0413 18:33:18.895612 13474 net.cpp:150] Setting up drop7
I0413 18:33:18.895622 13474 net.cpp:157] Top shape: 1 4096 (4096)
I0413 18:33:18.895627 13474 net.cpp:165] Memory required for data: 3647731944
I0413 18:33:18.895634 13474 layer_factory.hpp:77] Creating layer fc7_drop7_0_split
I0413 18:33:18.895644 13474 net.cpp:100] Creating Layer fc7_drop7_0_split
I0413 18:33:18.895650 13474 net.cpp:434] fc7_drop7_0_split <- fc7
I0413 18:33:18.895659 13474 net.cpp:408] fc7_drop7_0_split -> fc7_drop7_0_split_0
I0413 18:33:18.895684 13474 net.cpp:408] fc7_drop7_0_split -> fc7_drop7_0_split_1
I0413 18:33:18.895733 13474 net.cpp:150] Setting up fc7_drop7_0_split
I0413 18:33:18.895746 13474 net.cpp:157] Top shape: 1 4096 (4096)
I0413 18:33:18.895753 13474 net.cpp:157] Top shape: 1 4096 (4096)
I0413 18:33:18.895758 13474 net.cpp:165] Memory required for data: 3647764712
I0413 18:33:18.895763 13474 layer_factory.hpp:77] Creating layer bbox_pred
I0413 18:33:18.895776 13474 net.cpp:100] Creating Layer bbox_pred
I0413 18:33:18.895781 13474 net.cpp:434] bbox_pred <- fc7_drop7_0_split_0
I0413 18:33:18.895793 13474 net.cpp:408] bbox_pred -> bbox_pred
I0413 18:33:18.896427 13474 net.cpp:150] Setting up bbox_pred
I0413 18:33:18.896436 13474 net.cpp:157] Top shape: 1 8 (8)
I0413 18:33:18.896441 13474 net.cpp:165] Memory required for data: 3647764744
I0413 18:33:18.896452 13474 layer_factory.hpp:77] Creating layer loss_bbox
I0413 18:33:18.896463 13474 net.cpp:100] Creating Layer loss_bbox
I0413 18:33:18.896469 13474 net.cpp:434] loss_bbox <- bbox_pred
I0413 18:33:18.896476 13474 net.cpp:434] loss_bbox <- bbox_targets
I0413 18:33:18.896484 13474 net.cpp:434] loss_bbox <- bbox_inside_weights
I0413 18:33:18.896492 13474 net.cpp:434] loss_bbox <- bbox_outside_weights
I0413 18:33:18.896502 13474 net.cpp:408] loss_bbox -> loss_bbox
I0413 18:33:18.896603 13474 net.cpp:150] Setting up loss_bbox
I0413 18:33:18.896613 13474 net.cpp:157] Top shape: (1)
I0413 18:33:18.896618 13474 net.cpp:160]     with loss weight 1
I0413 18:33:18.896633 13474 net.cpp:165] Memory required for data: 3647764748
I0413 18:33:18.896638 13474 layer_factory.hpp:77] Creating layer feat
I0413 18:33:18.896651 13474 net.cpp:100] Creating Layer feat
I0413 18:33:18.896656 13474 net.cpp:434] feat <- fc7_drop7_0_split_1
I0413 18:33:18.896667 13474 net.cpp:408] feat -> feat
I0413 18:33:18.908197 13474 net.cpp:150] Setting up feat
I0413 18:33:18.908228 13474 net.cpp:157] Top shape: 1 256 (256)
I0413 18:33:18.908231 13474 net.cpp:165] Memory required for data: 3647765772
I0413 18:33:18.908243 13474 layer_factory.hpp:77] Creating layer relu8
I0413 18:33:18.908257 13474 net.cpp:100] Creating Layer relu8
I0413 18:33:18.908265 13474 net.cpp:434] relu8 <- feat
I0413 18:33:18.908277 13474 net.cpp:395] relu8 -> feat (in-place)
I0413 18:33:18.908290 13474 net.cpp:150] Setting up relu8
I0413 18:33:18.908296 13474 net.cpp:157] Top shape: 1 256 (256)
I0413 18:33:18.908300 13474 net.cpp:165] Memory required for data: 3647766796
I0413 18:33:18.908305 13474 layer_factory.hpp:77] Creating layer drop8
I0413 18:33:18.908316 13474 net.cpp:100] Creating Layer drop8
I0413 18:33:18.908323 13474 net.cpp:434] drop8 <- feat
I0413 18:33:18.908330 13474 net.cpp:395] drop8 -> feat (in-place)
I0413 18:33:18.908361 13474 net.cpp:150] Setting up drop8
I0413 18:33:18.908372 13474 net.cpp:157] Top shape: 1 256 (256)
I0413 18:33:18.908377 13474 net.cpp:165] Memory required for data: 3647767820
I0413 18:33:18.908381 13474 layer_factory.hpp:77] Creating layer pid_score
I0413 18:33:18.908391 13474 net.cpp:100] Creating Layer pid_score
I0413 18:33:18.908397 13474 net.cpp:434] pid_score <- feat
I0413 18:33:18.908408 13474 net.cpp:408] pid_score -> pid_score
I0413 18:33:18.925046 13474 net.cpp:150] Setting up pid_score
I0413 18:33:18.925078 13474 net.cpp:157] Top shape: 1 5533 (5533)
I0413 18:33:18.925081 13474 net.cpp:165] Memory required for data: 3647789952
I0413 18:33:18.925096 13474 net.cpp:228] pid_score does not need backward computation.
I0413 18:33:18.925102 13474 net.cpp:228] drop8 does not need backward computation.
I0413 18:33:18.925108 13474 net.cpp:228] relu8 does not need backward computation.
I0413 18:33:18.925113 13474 net.cpp:228] feat does not need backward computation.
…
