…
I0413 18:34:29.451251 13594 solver.cpp:48] Initializing solver from parameters: 
base_lr: 0.001
display: 20
lr_policy: "multistep"
gamma: 0.1
momentum: 0.9
weight_decay: 0.0005
snapshot: 0
snapshot_prefix: "faces_example"
net_param {
  name: "GeneratedModel_13_04_2017_18_34"
  layer {
    name: "input"
    type: "Python"
    top: "input_data"
    top: "input_im_info"
    top: "input_gt_boxes"
    top: "input_ignored_boxes"
    python_param {
      module: "layers.roi_data_layer"
      layer: "RoIDataLayer"
      param_str: "{\"num_classes\": 2}"
    }
  }
  layer {
    name: "conv1_1"
    type: "Convolution"
    bottom: "input_data"
    top: "conv1_1"
    param {
      lr_mult: 0
      decay_mult: 0
    }
    param {
      lr_mult: 0
      decay_mult: 0
    }
    convolution_param {
      num_output: 64
      pad: 1
      kernel_size: 3
    }
  }
  layer {
    name: "relu1_1"
    type: "ReLU"
    bottom: "conv1_1"
    top: "conv1_1"
  }
  layer {
    name: "conv1_2"
    type: "Convolution"
    bottom: "conv1_1"
    top: "conv1_2"
    param {
      lr_mult: 0
      decay_mult: 0
    }
    param {
      lr_mult: 0
      decay_mult: 0
    }
    convolution_param {
      num_output: 64
      pad: 1
      kernel_size: 3
    }
  }
  layer {
    name: "relu1_2"
    type: "ReLU"
    bottom: "conv1_2"
    top: "conv1_2"
  }
  layer {
    name: "pool1"
    type: "Pooling"
    bottom: "conv1_2"
    top: "pool1"
    pooling_param {
      pool: MAX
      kernel_size: 2
      stride: 2
    }
  }
  layer {
    name: "conv2_1"
    type: "Convolution"
    bottom: "pool1"
    top: "conv2_1"
    param {
      lr_mult: 0
      decay_mult: 0
    }
    param {
      lr_mult: 0
      decay_mult: 0
    }
    convolution_param {
      num_output: 128
      pad: 1
      kernel_size: 3
    }
  }
  layer {
    name: "relu2_1"
    type: "ReLU"
    bottom: "conv2_1"
    top: "conv2_1"
  }
  layer {
    name: "conv2_2"
    type: "Convolution"
    bottom: "conv2_1"
    top: "conv2_2"
    param {
      lr_mult: 0
      decay_mult: 0
    }
    param {
      lr_mult: 0
      decay_mult: 0
    }
    convolution_param {
      num_output: 128
      pad: 1
      kernel_size: 3
    }
  }
  layer {
    name: "relu2_2"
    type: "ReLU"
    bottom: "conv2_2"
    top: "conv2_2"
  }
  layer {
    name: "pool2"
    type: "Pooling"
    bottom: "conv2_2"
    top: "pool2"
    pooling_param {
      pool: MAX
      kernel_size: 2
      stride: 2
    }
  }
  layer {
    name: "conv3_1"
    type: "Convolution"
    bottom: "pool2"
    top: "conv3_1"
    param {
      lr_mult: 1
    }
    param {
      lr_mult: 2
    }
    convolution_param {
      num_output: 256
      pad: 1
      kernel_size: 3
    }
  }
  layer {
    name: "relu3_1"
    type: "ReLU"
    bottom: "conv3_1"
    top: "conv3_1"
  }
  layer {
    name: "conv3_2"
    type: "Convolution"
    bottom: "conv3_1"
    top: "conv3_2"
    param {
      lr_mult: 1
    }
    param {
      lr_mult: 2
    }
    convolution_param {
      num_output: 256
      pad: 1
      kernel_size: 3
    }
  }
  layer {
    name: "relu3_2"
    type: "ReLU"
    bottom: "conv3_2"
    top: "conv3_2"
  }
  layer {
    name: "conv3_3"
    type: "Convolution"
    bottom: "conv3_2"
    top: "conv3_3"
    param {
      lr_mult: 1
    }
    param {
      lr_mult: 2
    }
    convolution_param {
      num_output: 256
      pad: 1
      kernel_size: 3
    }
  }
  layer {
    name: "relu3_3"
    type: "ReLU"
    bottom: "conv3_3"
    top: "conv3_3"
  }
  layer {
    name: "pool3"
    type: "Pooling"
    bottom: "conv3_3"
    top: "pool3"
    pooling_param {
      pool: MAX
      kernel_size: 2
      stride: 2
    }
  }
  layer {
    name: "conv4_1"
    type: "Convolution"
    bottom: "pool3"
    top: "conv4_1"
    param {
      lr_mult: 1
    }
    param {
      lr_mult: 2
    }
    convolution_param {
      num_output: 512
      pad: 1
      kernel_size: 3
    }
  }
  layer {
    name: "relu4_1"
    type: "ReLU"
    bottom: "conv4_1"
    top: "conv4_1"
  }
  layer {
    name: "conv4_2"
    type: "Convolution"
    bottom: "conv4_1"
    top: "conv4_2"
    param {
      lr_mult: 1
    }
    param {
      lr_mult: 2
    }
    convolution_param {
      num_output: 512
      pad: 1
      kernel_size: 3
    }
  }
  layer {
    name: "relu4_2"
    type: "ReLU"
    bottom: "conv4_2"
    top: "conv4_2"
  }
  layer {
    name: "conv4_3"
    type: "Convolution"
    bottom: "conv4_2"
    top: "conv4_3"
    param {
      lr_mult: 1
    }
    param {
      lr_mult: 2
    }
    convolution_param {
      num_output: 512
      pad: 1
      kernel_size: 3
    }
  }
  layer {
    name: "relu4_3"
    type: "ReLU"
    bottom: "conv4_3"
    top: "conv4_3"
  }
  layer {
    name: "pool4"
    type: "Pooling"
    bottom: "conv4_3"
    top: "pool4"
    pooling_param {
      pool: MAX
      kernel_size: 2
      stride: 2
    }
  }
  layer {
    name: "conv5_1"
    type: "Convolution"
    bottom: "pool4"
    top: "conv5_1"
    param {
      lr_mult: 1
    }
    param {
      lr_mult: 2
    }
    convolution_param {
      num_output: 512
      pad: 1
      kernel_size: 3
    }
  }
  layer {
    name: "relu5_1"
    type: "ReLU"
    bottom: "conv5_1"
    top: "conv5_1"
  }
  layer {
    name: "conv5_2"
    type: "Convolution"
    bottom: "conv5_1"
    top: "conv5_2"
    param {
      lr_mult: 1
    }
    param {
      lr_mult: 2
    }
    convolution_param {
      num_output: 512
      pad: 1
      kernel_size: 3
    }
  }
  layer {
    name: "relu5_2"
    type: "ReLU"
    bottom: "conv5_2"
    top: "conv5_2"
  }
  layer {
    name: "conv5_3"
    type: "Convolution"
    bottom: "conv5_2"
    top: "conv5_3"
    param {
      lr_mult: 1
    }
    param {
      lr_mult: 2
    }
    convolution_param {
      num_output: 512
      pad: 1
      kernel_size: 3
    }
  }
  layer {
    name: "relu5_3"
    type: "ReLU"
    bottom: "conv5_3"
    top: "conv5_3"
  }
  layer {
    name: "rpn_big_conv1"
    type: "Convolution"
    bottom: "conv5_3"
    top: "rpn_big_conv1"
    param {
      lr_mult: 1
    }
    param {
      lr_mult: 2
    }
    convolution_param {
      num_output: 512
      pad: 1
      kernel_size: 3
      stride: 1
      weight_filler {
        type: "gaussian"
        mean: 0
        std: 0.01
      }
      bias_filler {
        type: "constant"
      }
    }
  }
  layer {
    name: "rpn_big_conv1_relu"
    type: "ReLU"
    bottom: "rpn_big_conv1"
    top: "rpn_big_conv1"
    relu_param {
      negative_slope: 0
    }
  }
  layer {
    name: "rpn_big_conv2"
    type: "Convolution"
    bottom: "rpn_big_conv1"
    top: "rpn_big_conv2"
    param {
      lr_mult: 1
    }
    param {
      lr_mult: 2
    }
    convolution_param {
      num_output: 512
      pad: 1
      kernel_size: 3
      stride: 1
      weight_filler {
        type: "gaussian"
        mean: 0
        std: 0.01
      }
      bias_filler {
        type: "constant"
      }
    }
  }
  layer {
    name: "rpn_big_conv2_relu"
    type: "ReLU"
    bottom: "rpn_big_conv2"
    top: "rpn_big_conv2"
    relu_param {
      negative_slope: 0
    }
  }
  layer {
    name: "rpn_big_conv2_drop"
    type: "Dropout"
    bottom: "rpn_big_conv2"
    top: "rpn_big_conv2"
    dropout_param {
      dropout_ratio: 0.3
    }
  }
  layer {
    name: "rpn_big_output_cls"
    type: "Convolution"
    bottom: "rpn_big_conv2"
    top: "rpn_big_output_cls"
    param {
      lr_mult: 1
    }
    param {
      lr_mult: 2
    }
    convolution_param {
      num_output: 384
      pad: 1
      kernel_size: 3
      stride: 1
      weight_filler {
        type: "gaussian"
        mean: 0
        std: 0.01
      }
      bias_filler {
        type: "constant"
      }
    }
  }
  layer {
    name: "rpn_big_output_cls_relu"
    type: "ReLU"
    bottom: "rpn_big_output_cls"
    top: "rpn_big_output_cls"
    relu_param {
      negative_slope: 0
    }
  }
  layer {
    name: "rpn_big_cls_score"
    type: "Convolution"
    bottom: "rpn_big_output_cls"
    top: "rpn_big_cls_score"
    param {
      lr_mult: 1
    }
    param {
      lr_mult: 2
    }
    convolution_param {
      num_output: 52
      pad: 0
      kernel_size: 3
      stride: 1
      weight_filler {
        type: "gaussian"
        mean: 0
        std: 0.01
      }
      bias_filler {
        type: "constant"
      }
    }
  }
  layer {
    name: "rpn_big_cls_score_reshape"
    type: "Reshape"
    bottom: "rpn_big_cls_score"
    top: "rpn_big_cls_score_reshape"
    reshape_param {
      shape {
        dim: 0
        dim: 2
        dim: -1
        dim: 0
      }
    }
  }
  layer {
    name: "rpn_big_cls_prob"
    type: "Softmax"
    bottom: "rpn_big_cls_score_reshape"
    top: "rpn_big_cls_prob"
  }
  layer {
    name: "rpn_big_cls_prob_reshape"
    type: "Reshape"
    bottom: "rpn_big_cls_prob"
    top: "rpn_big_cls_prob_reshape"
    reshape_param {
      shape {
        dim: 0
        dim: 52
        dim: -1
        dim: 0
      }
    }
  }
  layer {
    name: "rpn_big_anchor_target"
    type: "Python"
    bottom: "rpn_big_cls_score"
    bottom: "input_gt_boxes"
    bottom: "input_ignored_boxes"
    bottom: "input_im_info"
    bottom: "input_data"
    bottom: "rpn_big_cls_prob_reshape"
    top: "rpn_big_anchor_target_labels"
    top: "rpn_big_anchor_target_bbox_targets"
    top: "rpn_big_anchor_target_inside_weights"
    top: "rpn_big_anchor_target_outside_weights"
    python_param {
      module: "rpn.anchor_target_layer"
      layer: "AnchorTargetLayer"
      param_str: "{\"name\": \"rpn_big\", \"tn_fraction\": 0.2, \"anchor_ratios\": [1.0], \"num_classes\": 1, \"square_targets\": true, \"anchor_scales\": [2.5, 3.025, 3.66025, 4.4289024999999995, 5.358972025, 6.484356150249999, 7.846070941802498, 9.493745839581022, 11.487432465893036, 13.899793283730574, 16.818749873313998, 20.350687346709933, 24.62433168951902, 29.795441344318014], \"fg_fraction\": 0.5, \"positive_overlap\": 0.6, \"negative_overlap\": 0.4, \"anchor_shift_num_xy\": [[2, 2], [2, 2], [2, 2], [2, 2], [1, 1], [1, 1], [1, 1], [1, 1], [1, 1], [1, 1], [1, 1], [1, 1], [1, 1], [1, 1]], \"batchsize\": 256, \"feat_stride\": 16}"
    }
  }
  layer {
    name: "rpn_big_loss_cls"
    type: "SoftmaxWithLoss"
    bottom: "rpn_big_cls_score_reshape"
    bottom: "rpn_big_anchor_target_labels"
    top: "rpn_big_loss_cls"
    loss_weight: 1
    propagate_down: true
    propagate_down: false
    loss_param {
      ignore_label: -1
      normalization: VALID
    }
  }
  layer {
    name: "rpn_big_output_box"
    type: "Convolution"
    bottom: "rpn_big_conv2"
    top: "rpn_big_output_box"
    param {
      lr_mult: 1
    }
    param {
      lr_mult: 2
    }
    convolution_param {
      num_output: 384
      pad: 1
      kernel_size: 3
      stride: 1
      weight_filler {
        type: "gaussian"
        mean: 0
        std: 0.01
      }
      bias_filler {
        type: "constant"
      }
    }
  }
  layer {
    name: "rpn_big_output_box_relu"
    type: "ReLU"
    bottom: "rpn_big_output_box"
    top: "rpn_big_output_box"
    relu_param {
      negative_slope: 0
    }
  }
  layer {
    name: "rpn_big_bbox_pred"
    type: "Convolution"
    bottom: "rpn_big_output_box"
    top: "rpn_big_bbox_pred"
    param {
      lr_mult: 1
    }
    param {
      lr_mult: 2
    }
    convolution_param {
      num_output: 104
      pad: 0
      kernel_size: 3
      stride: 1
      weight_filler {
        type: "gaussian"
        mean: 0
        std: 0.01
      }
      bias_filler {
        type: "constant"
      }
    }
  }
  layer {
    name: "rpn_big_loss_bbox"
    type: "Python"
    bottom: "rpn_big_bbox_pred"
    bottom: "rpn_big_anchor_target_bbox_targets"
    bottom: "rpn_big_anchor_target_inside_weights"
    bottom: "rpn_big_anchor_target_outside_weights"
    top: "rpn_big_loss_bbox"
    loss_weight: 1
    python_param {
      module: "layers.smooth_l1_loss"
      layer: "SmoothL1LossLayer"
      param_str: "{\"sigma\": 3}"
    }
  }
  layer {
    name: "proposal"
    type: "Python"
    bottom: "rpn_big_cls_prob_reshape"
    bottom: "rpn_big_bbox_pred"
    bottom: "input_im_info"
    top: "rpn_rois"
    python_param {
      module: "rpn.proposal_layer"
      layer: "ProposalLayer"
      param_str: "{\"anchor_shift_num_xy\": [[2, 2], [2, 2], [2, 2], [2, 2], [1, 1], [1, 1], [1, 1], [1, 1], [1, 1], [1, 1], [1, 1], [1, 1], [1, 1], [1, 1]], \"feat_stride\": 16, \"num_classes\": 1, \"anchor_scales\": [2.5, 3.025, 3.66025, 4.4289024999999995, 5.358972025, 6.484356150249999, 7.846070941802498, 9.493745839581022, 11.487432465893036, 13.899793283730574, 16.818749873313998, 20.350687346709933, 24.62433168951902, 29.795441344318014], \"square_targets\": true, \"name\": \"rpn_big\", \"batchsize\": 256, \"anchor_ratios\": [1.0]}"
    }
  }
  layer {
    name: "roi-data"
    type: "Python"
    bottom: "rpn_rois"
    bottom: "input_gt_boxes"
    top: "rois"
    top: "labels"
    top: "bbox_targets"
    top: "bbox_inside_weights"
    top: "bbox_outside_weights"
    top: "pid_label"
    python_param {
      module: "rpn.proposal_target_layer"
      layer: "ProposalTargetLayer"
      param_str: "{\"num_classes\": 2, \"bg_aux_label\": 5532}"
    }
  }
  layer {
    name: "roi-pool"
    type: "ROIPooling"
    bottom: "conv5_3"
    bottom: "rois"
    top: "roi-pool"
    roi_pooling_param {
      pooled_h: 7
      pooled_w: 7
      spatial_scale: 0.0625
    }
  }
  layer {
    name: "fc6"
    type: "InnerProduct"
    bottom: "roi-pool"
    top: "fc6"
    param {
      lr_mult: 1
    }
    param {
      lr_mult: 2
    }
    inner_product_param {
      num_output: 4096
    }
  }
  layer {
    name: "relu6"
    type: "ReLU"
    bottom: "fc6"
    top: "fc6"
  }
  layer {
    name: "drop6"
    type: "Dropout"
    bottom: "fc6"
    top: "fc6"
    dropout_param {
      dropout_ratio: 0.5
    }
  }
  layer {
    name: "fc7"
    type: "InnerProduct"
    bottom: "fc6"
    top: "fc7"
    param {
      lr_mult: 1
    }
    param {
      lr_mult: 2
    }
    inner_product_param {
      num_output: 4096
    }
  }
  layer {
    name: "relu7"
    type: "ReLU"
    bottom: "fc7"
    top: "fc7"
  }
  layer {
    name: "drop7"
    type: "Dropout"
    bottom: "fc7"
    top: "fc7"
    dropout_param {
      dropout_ratio: 0.5
    }
  }
  layer {
    name: "bbox_pred"
    type: "InnerProduct"
    bottom: "fc7"
    top: "bbox_pred"
    param {
      lr_mult: 1
    }
    param {
      lr_mult: 2
    }
    inner_product_param {
      num_output: 8
      weight_filler {
        type: "gaussian"
        std: 0.001
      }
      bias_filler {
        type: "constant"
        value: 0
      }
    }
  }
  layer {
    name: "loss_bbox"
    type: "SmoothL1Loss"
    bottom: "bbox_pred"
    bottom: "bbox_targets"
    bottom: "bbox_inside_weights"
    bottom: "bbox_outside_weights"
    top: "loss_bbox"
    loss_weight: 1
  }
  layer {
    name: "feat"
    type: "InnerProduct"
    bottom: "fc7"
    top: "feat"
    param {
      lr_mult: 1
      decay_mult: 1
    }
    param {
      lr_mult: 2
      decay_mult: 0
    }
    inner_product_param {
      num_output: 256
      weight_filler {
        type: "gaussian"
        std: 0.01
      }
      bias_filler {
        type: "constant"
        value: 0
      }
    }
  }
  layer {
    name: "relu8"
    type: "ReLU"
    bottom: "feat"
    top: "feat"
  }
  layer {
    name: "drop8"
    type: "Dropout"
    bottom: "feat"
    top: "feat"
    dropout_param {
      dropout_ratio: 0.5
    }
  }
  layer {
    name: "pid_score"
    type: "InnerProduct"
    bottom: "feat"
    top: "pid_score"
    param {
      lr_mult: 1
      decay_mult: 1
    }
    param {
      lr_mult: 2
      decay_mult: 0
    }
    inner_product_param {
      num_output: 5533
      weight_filler {
        type: "gaussian"
        std: 0.001
      }
      bias_filler {
        type: "constant"
        value: 0
      }
    }
  }
  layer {
    name: "pid_accuracy"
    type: "Accuracy"
    bottom: "pid_score"
    bottom: "pid_label"
    top: "pid_accuracy"
  }
}
average_loss: 100
stepvalue: 70000
stepvalue: 120000
iter_size: 2
I0413 18:34:29.451367 13594 solver.cpp:86] Creating training net specified in net_param.
I0413 18:34:29.452124 13594 net.cpp:58] Initializing net from parameters: 
name: "GeneratedModel_13_04_2017_18_34"
state {
  phase: TRAIN
}
layer {
  name: "input"
  type: "Python"
  top: "input_data"
  top: "input_im_info"
  top: "input_gt_boxes"
  top: "input_ignored_boxes"
  python_param {
    module: "layers.roi_data_layer"
    layer: "RoIDataLayer"
    param_str: "{\"num_classes\": 2}"
  }
}
layer {
  name: "conv1_1"
  type: "Convolution"
  bottom: "input_data"
  top: "conv1_1"
  param {
    lr_mult: 0
    decay_mult: 0
  }
  param {
    lr_mult: 0
    decay_mult: 0
  }
  convolution_param {
    num_output: 64
    pad: 1
    kernel_size: 3
  }
}
layer {
  name: "relu1_1"
  type: "ReLU"
  bottom: "conv1_1"
  top: "conv1_1"
}
layer {
  name: "conv1_2"
  type: "Convolution"
  bottom: "conv1_1"
  top: "conv1_2"
  param {
    lr_mult: 0
    decay_mult: 0
  }
  param {
    lr_mult: 0
    decay_mult: 0
  }
  convolution_param {
    num_output: 64
    pad: 1
    kernel_size: 3
  }
}
layer {
  name: "relu1_2"
  type: "ReLU"
  bottom: "conv1_2"
  top: "conv1_2"
}
layer {
  name: "pool1"
  type: "Pooling"
  bottom: "conv1_2"
  top: "pool1"
  pooling_param {
    pool: MAX
    kernel_size: 2
    stride: 2
  }
}
layer {
  name: "conv2_1"
  type: "Convolution"
  bottom: "pool1"
  top: "conv2_1"
  param {
    lr_mult: 0
    decay_mult: 0
  }
  param {
    lr_mult: 0
    decay_mult: 0
  }
  convolution_param {
    num_output: 128
    pad: 1
    kernel_size: 3
  }
}
layer {
  name: "relu2_1"
  type: "ReLU"
  bottom: "conv2_1"
  top: "conv2_1"
}
layer {
  name: "conv2_2"
  type: "Convolution"
  bottom: "conv2_1"
  top: "conv2_2"
  param {
    lr_mult: 0
    decay_mult: 0
  }
  param {
    lr_mult: 0
    decay_mult: 0
  }
  convolution_param {
    num_output: 128
    pad: 1
    kernel_size: 3
  }
}
layer {
  name: "relu2_2"
  type: "ReLU"
  bottom: "conv2_2"
  top: "conv2_2"
}
layer {
  name: "pool2"
  type: "Pooling"
  bottom: "conv2_2"
  top: "pool2"
  pooling_param {
    pool: MAX
    kernel_size: 2
    stride: 2
  }
}
layer {
  name: "conv3_1"
  type: "Convolution"
  bottom: "pool2"
  top: "conv3_1"
  param {
    lr_mult: 1
  }
  param {
    lr_mult: 2
  }
  convolution_param {
    num_output: 256
    pad: 1
    kernel_size: 3
  }
}
layer {
  name: "relu3_1"
  type: "ReLU"
  bottom: "conv3_1"
  top: "conv3_1"
}
layer {
  name: "conv3_2"
  type: "Convolution"
  bottom: "conv3_1"
  top: "conv3_2"
  param {
    lr_mult: 1
  }
  param {
    lr_mult: 2
  }
  convolution_param {
    num_output: 256
    pad: 1
    kernel_size: 3
  }
}
layer {
  name: "relu3_2"
  type: "ReLU"
  bottom: "conv3_2"
  top: "conv3_2"
}
layer {
  name: "conv3_3"
  type: "Convolution"
  bottom: "conv3_2"
  top: "conv3_3"
  param {
    lr_mult: 1
  }
  param {
    lr_mult: 2
  }
  convolution_param {
    num_output: 256
    pad: 1
    kernel_size: 3
  }
}
layer {
  name: "relu3_3"
  type: "ReLU"
  bottom: "conv3_3"
  top: "conv3_3"
}
layer {
  name: "pool3"
  type: "Pooling"
  bottom: "conv3_3"
  top: "pool3"
  pooling_param {
    pool: MAX
    kernel_size: 2
    stride: 2
  }
}
layer {
  name: "conv4_1"
  type: "Convolution"
  bottom: "pool3"
  top: "conv4_1"
  param {
    lr_mult: 1
  }
  param {
    lr_mult: 2
  }
  convolution_param {
    num_output: 512
    pad: 1
    kernel_size: 3
  }
}
layer {
  name: "relu4_1"
  type: "ReLU"
  bottom: "conv4_1"
  top: "conv4_1"
}
layer {
  name: "conv4_2"
  type: "Convolution"
  bottom: "conv4_1"
  top: "conv4_2"
  param {
    lr_mult: 1
  }
  param {
    lr_mult: 2
  }
  convolution_param {
    num_output: 512
    pad: 1
    kernel_size: 3
  }
}
layer {
  name: "relu4_2"
  type: "ReLU"
  bottom: "conv4_2"
  top: "conv4_2"
}
layer {
  name: "conv4_3"
  type: "Convolution"
  bottom: "conv4_2"
  top: "conv4_3"
  param {
    lr_mult: 1
  }
  param {
    lr_mult: 2
  }
  convolution_param {
    num_output: 512
    pad: 1
    kernel_size: 3
  }
}
layer {
  name: "relu4_3"
  type: "ReLU"
  bottom: "conv4_3"
  top: "conv4_3"
}
layer {
  name: "pool4"
  type: "Pooling"
  bottom: "conv4_3"
  top: "pool4"
  pooling_param {
    pool: MAX
    kernel_size: 2
    stride: 2
  }
}
layer {
  name: "conv5_1"
  type: "Convolution"
  bottom: "pool4"
  top: "conv5_1"
  param {
    lr_mult: 1
  }
  param {
    lr_mult: 2
  }
  convolution_param {
    num_output: 512
    pad: 1
    kernel_size: 3
  }
}
layer {
  name: "relu5_1"
  type: "ReLU"
  bottom: "conv5_1"
  top: "conv5_1"
}
layer {
  name: "conv5_2"
  type: "Convolution"
  bottom: "conv5_1"
  top: "conv5_2"
  param {
    lr_mult: 1
  }
  param {
    lr_mult: 2
  }
  convolution_param {
    num_output: 512
    pad: 1
    kernel_size: 3
  }
}
layer {
  name: "relu5_2"
  type: "ReLU"
  bottom: "conv5_2"
  top: "conv5_2"
}
layer {
  name: "conv5_3"
  type: "Convolution"
  bottom: "conv5_2"
  top: "conv5_3"
  param {
    lr_mult: 1
  }
  param {
    lr_mult: 2
  }
  convolution_param {
    num_output: 512
    pad: 1
    kernel_size: 3
  }
}
layer {
  name: "relu5_3"
  type: "ReLU"
  bottom: "conv5_3"
  top: "conv5_3"
}
layer {
  name: "rpn_big_conv1"
  type: "Convolution"
  bottom: "conv5_3"
  top: "rpn_big_conv1"
  param {
    lr_mult: 1
  }
  param {
    lr_mult: 2
  }
  convolution_param {
    num_output: 512
    pad: 1
    kernel_size: 3
    stride: 1
    weight_filler {
      type: "gaussian"
      mean: 0
      std: 0.01
    }
    bias_filler {
      type: "constant"
    }
  }
}
layer {
  name: "rpn_big_conv1_relu"
  type: "ReLU"
  bottom: "rpn_big_conv1"
  top: "rpn_big_conv1"
  relu_param {
    negative_slope: 0
  }
}
layer {
  name: "rpn_big_conv2"
  type: "Convolution"
  bottom: "rpn_big_conv1"
  top: "rpn_big_conv2"
  param {
    lr_mult: 1
  }
  param {
    lr_mult: 2
  }
  convolution_param {
    num_output: 512
    pad: 1
    kernel_size: 3
    stride: 1
    weight_filler {
      type: "gaussian"
      mean: 0
      std: 0.01
    }
    bias_filler {
      type: "constant"
    }
  }
}
layer {
  name: "rpn_big_conv2_relu"
  type: "ReLU"
  bottom: "rpn_big_conv2"
  top: "rpn_big_conv2"
  relu_param {
    negative_slope: 0
  }
}
layer {
  name: "rpn_big_conv2_drop"
  type: "Dropout"
  bottom: "rpn_big_conv2"
  top: "rpn_big_conv2"
  dropout_param {
    dropout_ratio: 0.3
  }
}
layer {
  name: "rpn_big_output_cls"
  type: "Convolution"
  bottom: "rpn_big_conv2"
  top: "rpn_big_output_cls"
  param {
    lr_mult: 1
  }
  param {
    lr_mult: 2
  }
  convolution_param {
    num_output: 384
    pad: 1
    kernel_size: 3
    stride: 1
    weight_filler {
      type: "gaussian"
      mean: 0
      std: 0.01
    }
    bias_filler {
      type: "constant"
    }
  }
}
layer {
  name: "rpn_big_output_cls_relu"
  type: "ReLU"
  bottom: "rpn_big_output_cls"
  top: "rpn_big_output_cls"
  relu_param {
    negative_slope: 0
  }
}
layer {
  name: "rpn_big_cls_score"
  type: "Convolution"
  bottom: "rpn_big_output_cls"
  top: "rpn_big_cls_score"
  param {
    lr_mult: 1
  }
  param {
    lr_mult: 2
  }
  convolution_param {
    num_output: 52
    pad: 0
    kernel_size: 3
    stride: 1
    weight_filler {
      type: "gaussian"
      mean: 0
      std: 0.01
    }
    bias_filler {
      type: "constant"
    }
  }
}
layer {
  name: "rpn_big_cls_score_reshape"
  type: "Reshape"
  bottom: "rpn_big_cls_score"
  top: "rpn_big_cls_score_reshape"
  reshape_param {
    shape {
      dim: 0
      dim: 2
      dim: -1
      dim: 0
    }
  }
}
layer {
  name: "rpn_big_cls_prob"
  type: "Softmax"
  bottom: "rpn_big_cls_score_reshape"
  top: "rpn_big_cls_prob"
}
layer {
  name: "rpn_big_cls_prob_reshape"
  type: "Reshape"
  bottom: "rpn_big_cls_prob"
  top: "rpn_big_cls_prob_reshape"
  reshape_param {
    shape {
      dim: 0
      dim: 52
      dim: -1
      dim: 0
    }
  }
}
layer {
  name: "rpn_big_anchor_target"
  type: "Python"
  bottom: "rpn_big_cls_score"
  bottom: "input_gt_boxes"
  bottom: "input_ignored_boxes"
  bottom: "input_im_info"
  bottom: "input_data"
  bottom: "rpn_big_cls_prob_reshape"
  top: "rpn_big_anchor_target_labels"
  top: "rpn_big_anchor_target_bbox_targets"
  top: "rpn_big_anchor_target_inside_weights"
  top: "rpn_big_anchor_target_outside_weights"
  python_param {
    module: "rpn.anchor_target_layer"
    layer: "AnchorTargetLayer"
    param_str: "{\"name\": \"rpn_big\", \"tn_fraction\": 0.2, \"anchor_ratios\": [1.0], \"num_classes\": 1, \"square_targets\": true, \"anchor_scales\": [2.5, 3.025, 3.66025, 4.4289024999999995, 5.358972025, 6.484356150249999, 7.846070941802498, 9.493745839581022, 11.487432465893036, 13.899793283730574, 16.818749873313998, 20.350687346709933, 24.62433168951902, 29.795441344318014], \"fg_fraction\": 0.5, \"positive_overlap\": 0.6, \"negative_overlap\": 0.4, \"anchor_shift_num_xy\": [[2, 2], [2, 2], [2, 2], [2, 2], [1, 1], [1, 1], [1, 1], [1, 1], [1, 1], [1, 1], [1, 1], [1, 1], [1, 1], [1, 1]], \"batchsize\": 256, \"feat_stride\": 16}"
  }
}
layer {
  name: "rpn_big_loss_cls"
  type: "SoftmaxWithLoss"
  bottom: "rpn_big_cls_score_reshape"
  bottom: "rpn_big_anchor_target_labels"
  top: "rpn_big_loss_cls"
  loss_weight: 1
  propagate_down: true
  propagate_down: false
  loss_param {
    ignore_label: -1
    normalization: VALID
  }
}
layer {
  name: "rpn_big_output_box"
  type: "Convolution"
  bottom: "rpn_big_conv2"
  top: "rpn_big_output_box"
  param {
    lr_mult: 1
  }
  param {
    lr_mult: 2
  }
  convolution_param {
    num_output: 384
    pad: 1
    kernel_size: 3
    stride: 1
    weight_filler {
      type: "gaussian"
      mean: 0
      std: 0.01
    }
    bias_filler {
      type: "constant"
    }
  }
}
layer {
  name: "rpn_big_output_box_relu"
  type: "ReLU"
  bottom: "rpn_big_output_box"
  top: "rpn_big_output_box"
  relu_param {
    negative_slope: 0
  }
}
layer {
  name: "rpn_big_bbox_pred"
  type: "Convolution"
  bottom: "rpn_big_output_box"
  top: "rpn_big_bbox_pred"
  param {
    lr_mult: 1
  }
  param {
    lr_mult: 2
  }
  convolution_param {
    num_output: 104
    pad: 0
    kernel_size: 3
    stride: 1
    weight_filler {
      type: "gaussian"
      mean: 0
      std: 0.01
    }
    bias_filler {
      type: "constant"
    }
  }
}
layer {
  name: "rpn_big_loss_bbox"
  type: "Python"
  bottom: "rpn_big_bbox_pred"
  bottom: "rpn_big_anchor_target_bbox_targets"
  bottom: "rpn_big_anchor_target_inside_weights"
  bottom: "rpn_big_anchor_target_outside_weights"
  top: "rpn_big_loss_bbox"
  loss_weight: 1
  python_param {
    module: "layers.smooth_l1_loss"
    layer: "SmoothL1LossLayer"
    param_str: "{\"sigma\": 3}"
  }
}
layer {
  name: "proposal"
  type: "Python"
  bottom: "rpn_big_cls_prob_reshape"
  bottom: "rpn_big_bbox_pred"
  bottom: "input_im_info"
  top: "rpn_rois"
  python_param {
    module: "rpn.proposal_layer"
    layer: "ProposalLayer"
    param_str: "{\"anchor_shift_num_xy\": [[2, 2], [2, 2], [2, 2], [2, 2], [1, 1], [1, 1], [1, 1], [1, 1], [1, 1], [1, 1], [1, 1], [1, 1], [1, 1], [1, 1]], \"feat_stride\": 16, \"num_classes\": 1, \"anchor_scales\": [2.5, 3.025, 3.66025, 4.4289024999999995, 5.358972025, 6.484356150249999, 7.846070941802498, 9.493745839581022, 11.487432465893036, 13.899793283730574, 16.818749873313998, 20.350687346709933, 24.62433168951902, 29.795441344318014], \"square_targets\": true, \"name\": \"rpn_big\", \"batchsize\": 256, \"anchor_ratios\": [1.0]}"
  }
}
layer {
  name: "roi-data"
  type: "Python"
  bottom: "rpn_rois"
  bottom: "input_gt_boxes"
  top: "rois"
  top: "labels"
  top: "bbox_targets"
  top: "bbox_inside_weights"
  top: "bbox_outside_weights"
  top: "pid_label"
  python_param {
    module: "rpn.proposal_target_layer"
    layer: "ProposalTargetLayer"
    param_str: "{\"num_classes\": 2, \"bg_aux_label\": 5532}"
  }
}
layer {
  name: "roi-pool"
  type: "ROIPooling"
  bottom: "conv5_3"
  bottom: "rois"
  top: "roi-pool"
  roi_pooling_param {
    pooled_h: 7
    pooled_w: 7
    spatial_scale: 0.0625
  }
}
layer {
  name: "fc6"
  type: "InnerProduct"
  bottom: "roi-pool"
  top: "fc6"
  param {
    lr_mult: 1
  }
  param {
    lr_mult: 2
  }
  inner_product_param {
    num_output: 4096
  }
}
layer {
  name: "relu6"
  type: "ReLU"
  bottom: "fc6"
  top: "fc6"
}
layer {
  name: "drop6"
  type: "Dropout"
  bottom: "fc6"
  top: "fc6"
  dropout_param {
    dropout_ratio: 0.5
  }
}
layer {
  name: "fc7"
  type: "InnerProduct"
  bottom: "fc6"
  top: "fc7"
  param {
    lr_mult: 1
  }
  param {
    lr_mult: 2
  }
  inner_product_param {
    num_output: 4096
  }
}
layer {
  name: "relu7"
  type: "ReLU"
  bottom: "fc7"
  top: "fc7"
}
layer {
  name: "drop7"
  type: "Dropout"
  bottom: "fc7"
  top: "fc7"
  dropout_param {
    dropout_ratio: 0.5
  }
}
layer {
  name: "bbox_pred"
  type: "InnerProduct"
  bottom: "fc7"
  top: "bbox_pred"
  param {
    lr_mult: 1
  }
  param {
    lr_mult: 2
  }
  inner_product_param {
    num_output: 8
    weight_filler {
      type: "gaussian"
      std: 0.001
    }
    bias_filler {
      type: "constant"
      value: 0
    }
  }
}
layer {
  name: "loss_bbox"
  type: "SmoothL1Loss"
  bottom: "bbox_pred"
  bottom: "bbox_targets"
  bottom: "bbox_inside_weights"
  bottom: "bbox_outside_weights"
  top: "loss_bbox"
  loss_weight: 1
}
layer {
  name: "feat"
  type: "InnerProduct"
  bottom: "fc7"
  top: "feat"
  param {
    lr_mult: 1
    decay_mult: 1
  }
  param {
    lr_mult: 2
    decay_mult: 0
  }
  inner_product_param {
    num_output: 256
    weight_filler {
      type: "gaussian"
      std: 0.01
    }
    bias_filler {
      type: "constant"
      value: 0
    }
  }
}
layer {
  name: "relu8"
  type: "ReLU"
  bottom: "feat"
  top: "feat"
}
layer {
  name: "drop8"
  type: "Dropout"
  bottom: "feat"
  top: "feat"
  dropout_param {
    dropout_ratio: 0.5
  }
}
layer {
  name: "pid_score"
  type: "InnerProduct"
  bottom: "feat"
  top: "pid_score"
  param {
    lr_mult: 1
    decay_mult: 1
  }
  param {
    lr_mult: 2
    decay_mult: 0
  }
  inner_product_param {
    num_output: 5533
    weight_filler {
      type: "gaussian"
      std: 0.001
    }
    bias_filler {
      type: "constant"
      value: 0
    }
  }
}
layer {
  name: "pid_accuracy"
  type: "Accuracy"
  bottom: "pid_score"
  bottom: "pid_label"
  top: "pid_accuracy"
}
I0413 18:34:29.452502 13594 layer_factory.hpp:77] Creating layer input
I0413 18:34:29.453892 13594 net.cpp:100] Creating Layer input
I0413 18:34:29.453905 13594 net.cpp:408] input -> input_data
I0413 18:34:29.453917 13594 net.cpp:408] input -> input_im_info
I0413 18:34:29.453924 13594 net.cpp:408] input -> input_gt_boxes
I0413 18:34:29.453932 13594 net.cpp:408] input -> input_ignored_boxes
RoiDataLayer: name_to_top: {'im_info': 1, 'gt_boxes': 2, 'data': 0, 'ignored_boxes': 3}
I0413 18:34:29.784813 13594 net.cpp:150] Setting up input
I0413 18:34:29.784844 13594 net.cpp:157] Top shape: 1 3 1000 1500 (4500000)
I0413 18:34:29.784862 13594 net.cpp:157] Top shape: 1 3 (3)
I0413 18:34:29.784878 13594 net.cpp:157] Top shape: 1 5 (5)
I0413 18:34:29.784888 13594 net.cpp:157] Top shape: 1 5 (5)
I0413 18:34:29.784893 13594 net.cpp:165] Memory required for data: 18000052
I0413 18:34:29.784910 13594 layer_factory.hpp:77] Creating layer input_data_input_0_split
I0413 18:34:29.784930 13594 net.cpp:100] Creating Layer input_data_input_0_split
I0413 18:34:29.784939 13594 net.cpp:434] input_data_input_0_split <- input_data
I0413 18:34:29.784953 13594 net.cpp:408] input_data_input_0_split -> input_data_input_0_split_0
I0413 18:34:29.784972 13594 net.cpp:408] input_data_input_0_split -> input_data_input_0_split_1
I0413 18:34:29.785013 13594 net.cpp:150] Setting up input_data_input_0_split
I0413 18:34:29.785024 13594 net.cpp:157] Top shape: 1 3 1000 1500 (4500000)
I0413 18:34:29.785032 13594 net.cpp:157] Top shape: 1 3 1000 1500 (4500000)
I0413 18:34:29.785039 13594 net.cpp:165] Memory required for data: 54000052
I0413 18:34:29.785045 13594 layer_factory.hpp:77] Creating layer input_im_info_input_1_split
I0413 18:34:29.785058 13594 net.cpp:100] Creating Layer input_im_info_input_1_split
I0413 18:34:29.785065 13594 net.cpp:434] input_im_info_input_1_split <- input_im_info
I0413 18:34:29.785079 13594 net.cpp:408] input_im_info_input_1_split -> input_im_info_input_1_split_0
I0413 18:34:29.785090 13594 net.cpp:408] input_im_info_input_1_split -> input_im_info_input_1_split_1
I0413 18:34:29.785130 13594 net.cpp:150] Setting up input_im_info_input_1_split
I0413 18:34:29.785140 13594 net.cpp:157] Top shape: 1 3 (3)
I0413 18:34:29.785147 13594 net.cpp:157] Top shape: 1 3 (3)
I0413 18:34:29.785153 13594 net.cpp:165] Memory required for data: 54000076
I0413 18:34:29.785159 13594 layer_factory.hpp:77] Creating layer input_gt_boxes_input_2_split
I0413 18:34:29.785172 13594 net.cpp:100] Creating Layer input_gt_boxes_input_2_split
I0413 18:34:29.785179 13594 net.cpp:434] input_gt_boxes_input_2_split <- input_gt_boxes
I0413 18:34:29.785190 13594 net.cpp:408] input_gt_boxes_input_2_split -> input_gt_boxes_input_2_split_0
I0413 18:34:29.785205 13594 net.cpp:408] input_gt_boxes_input_2_split -> input_gt_boxes_input_2_split_1
I0413 18:34:29.785241 13594 net.cpp:150] Setting up input_gt_boxes_input_2_split
I0413 18:34:29.785251 13594 net.cpp:157] Top shape: 1 5 (5)
I0413 18:34:29.785259 13594 net.cpp:157] Top shape: 1 5 (5)
I0413 18:34:29.785265 13594 net.cpp:165] Memory required for data: 54000116
I0413 18:34:29.785271 13594 layer_factory.hpp:77] Creating layer conv1_1
I0413 18:34:29.785290 13594 net.cpp:100] Creating Layer conv1_1
I0413 18:34:29.785296 13594 net.cpp:434] conv1_1 <- input_data_input_0_split_0
I0413 18:34:29.785308 13594 net.cpp:408] conv1_1 -> conv1_1
I0413 18:34:29.788345 13594 net.cpp:150] Setting up conv1_1
I0413 18:34:29.788381 13594 net.cpp:157] Top shape: 1 64 1000 1500 (96000000)
I0413 18:34:29.788389 13594 net.cpp:165] Memory required for data: 438000116
I0413 18:34:29.788415 13594 layer_factory.hpp:77] Creating layer relu1_1
I0413 18:34:29.788436 13594 net.cpp:100] Creating Layer relu1_1
I0413 18:34:29.788444 13594 net.cpp:434] relu1_1 <- conv1_1
I0413 18:34:29.788460 13594 net.cpp:395] relu1_1 -> conv1_1 (in-place)
I0413 18:34:29.788475 13594 net.cpp:150] Setting up relu1_1
I0413 18:34:29.788485 13594 net.cpp:157] Top shape: 1 64 1000 1500 (96000000)
I0413 18:34:29.788491 13594 net.cpp:165] Memory required for data: 822000116
I0413 18:34:29.788498 13594 layer_factory.hpp:77] Creating layer conv1_2
I0413 18:34:29.788517 13594 net.cpp:100] Creating Layer conv1_2
I0413 18:34:29.788523 13594 net.cpp:434] conv1_2 <- conv1_1
I0413 18:34:29.788537 13594 net.cpp:408] conv1_2 -> conv1_2
I0413 18:34:29.792239 13594 net.cpp:150] Setting up conv1_2
I0413 18:34:29.792284 13594 net.cpp:157] Top shape: 1 64 1000 1500 (96000000)
I0413 18:34:29.792294 13594 net.cpp:165] Memory required for data: 1206000116
I0413 18:34:29.792318 13594 layer_factory.hpp:77] Creating layer relu1_2
I0413 18:34:29.792335 13594 net.cpp:100] Creating Layer relu1_2
I0413 18:34:29.792343 13594 net.cpp:434] relu1_2 <- conv1_2
I0413 18:34:29.792356 13594 net.cpp:395] relu1_2 -> conv1_2 (in-place)
I0413 18:34:29.792376 13594 net.cpp:150] Setting up relu1_2
I0413 18:34:29.792385 13594 net.cpp:157] Top shape: 1 64 1000 1500 (96000000)
I0413 18:34:29.792388 13594 net.cpp:165] Memory required for data: 1590000116
I0413 18:34:29.792392 13594 layer_factory.hpp:77] Creating layer pool1
I0413 18:34:29.792405 13594 net.cpp:100] Creating Layer pool1
I0413 18:34:29.792410 13594 net.cpp:434] pool1 <- conv1_2
I0413 18:34:29.792417 13594 net.cpp:408] pool1 -> pool1
I0413 18:34:29.792492 13594 net.cpp:150] Setting up pool1
I0413 18:34:29.792501 13594 net.cpp:157] Top shape: 1 64 500 750 (24000000)
I0413 18:34:29.792505 13594 net.cpp:165] Memory required for data: 1686000116
I0413 18:34:29.792508 13594 layer_factory.hpp:77] Creating layer conv2_1
I0413 18:34:29.792521 13594 net.cpp:100] Creating Layer conv2_1
I0413 18:34:29.792527 13594 net.cpp:434] conv2_1 <- pool1
I0413 18:34:29.792534 13594 net.cpp:408] conv2_1 -> conv2_1
I0413 18:34:29.794239 13594 net.cpp:150] Setting up conv2_1
I0413 18:34:29.794277 13594 net.cpp:157] Top shape: 1 128 500 750 (48000000)
I0413 18:34:29.794283 13594 net.cpp:165] Memory required for data: 1878000116
I0413 18:34:29.794301 13594 layer_factory.hpp:77] Creating layer relu2_1
I0413 18:34:29.794312 13594 net.cpp:100] Creating Layer relu2_1
I0413 18:34:29.794318 13594 net.cpp:434] relu2_1 <- conv2_1
I0413 18:34:29.794327 13594 net.cpp:395] relu2_1 -> conv2_1 (in-place)
I0413 18:34:29.794339 13594 net.cpp:150] Setting up relu2_1
I0413 18:34:29.794349 13594 net.cpp:157] Top shape: 1 128 500 750 (48000000)
I0413 18:34:29.794353 13594 net.cpp:165] Memory required for data: 2070000116
I0413 18:34:29.794358 13594 layer_factory.hpp:77] Creating layer conv2_2
I0413 18:34:29.794371 13594 net.cpp:100] Creating Layer conv2_2
I0413 18:34:29.794378 13594 net.cpp:434] conv2_2 <- conv2_1
I0413 18:34:29.794386 13594 net.cpp:408] conv2_2 -> conv2_2
I0413 18:34:29.795815 13594 net.cpp:150] Setting up conv2_2
I0413 18:34:29.795845 13594 net.cpp:157] Top shape: 1 128 500 750 (48000000)
I0413 18:34:29.795859 13594 net.cpp:165] Memory required for data: 2262000116
I0413 18:34:29.795876 13594 layer_factory.hpp:77] Creating layer relu2_2
I0413 18:34:29.795889 13594 net.cpp:100] Creating Layer relu2_2
I0413 18:34:29.795897 13594 net.cpp:434] relu2_2 <- conv2_2
I0413 18:34:29.795907 13594 net.cpp:395] relu2_2 -> conv2_2 (in-place)
I0413 18:34:29.795918 13594 net.cpp:150] Setting up relu2_2
I0413 18:34:29.795928 13594 net.cpp:157] Top shape: 1 128 500 750 (48000000)
I0413 18:34:29.795933 13594 net.cpp:165] Memory required for data: 2454000116
I0413 18:34:29.795939 13594 layer_factory.hpp:77] Creating layer pool2
I0413 18:34:29.795950 13594 net.cpp:100] Creating Layer pool2
I0413 18:34:29.795956 13594 net.cpp:434] pool2 <- conv2_2
I0413 18:34:29.795965 13594 net.cpp:408] pool2 -> pool2
I0413 18:34:29.796027 13594 net.cpp:150] Setting up pool2
I0413 18:34:29.796041 13594 net.cpp:157] Top shape: 1 128 250 375 (12000000)
I0413 18:34:29.796046 13594 net.cpp:165] Memory required for data: 2502000116
I0413 18:34:29.796052 13594 layer_factory.hpp:77] Creating layer conv3_1
I0413 18:34:29.796066 13594 net.cpp:100] Creating Layer conv3_1
I0413 18:34:29.796074 13594 net.cpp:434] conv3_1 <- pool2
I0413 18:34:29.796083 13594 net.cpp:408] conv3_1 -> conv3_1
I0413 18:34:29.797724 13594 net.cpp:150] Setting up conv3_1
I0413 18:34:29.797754 13594 net.cpp:157] Top shape: 1 256 250 375 (24000000)
I0413 18:34:29.797760 13594 net.cpp:165] Memory required for data: 2598000116
I0413 18:34:29.797780 13594 layer_factory.hpp:77] Creating layer relu3_1
I0413 18:34:29.797794 13594 net.cpp:100] Creating Layer relu3_1
I0413 18:34:29.797802 13594 net.cpp:434] relu3_1 <- conv3_1
I0413 18:34:29.797814 13594 net.cpp:395] relu3_1 -> conv3_1 (in-place)
I0413 18:34:29.797828 13594 net.cpp:150] Setting up relu3_1
I0413 18:34:29.797837 13594 net.cpp:157] Top shape: 1 256 250 375 (24000000)
I0413 18:34:29.797843 13594 net.cpp:165] Memory required for data: 2694000116
I0413 18:34:29.797849 13594 layer_factory.hpp:77] Creating layer conv3_2
I0413 18:34:29.797866 13594 net.cpp:100] Creating Layer conv3_2
I0413 18:34:29.797873 13594 net.cpp:434] conv3_2 <- conv3_1
I0413 18:34:29.797881 13594 net.cpp:408] conv3_2 -> conv3_2
I0413 18:34:29.799490 13594 net.cpp:150] Setting up conv3_2
I0413 18:34:29.799520 13594 net.cpp:157] Top shape: 1 256 250 375 (24000000)
I0413 18:34:29.799522 13594 net.cpp:165] Memory required for data: 2790000116
I0413 18:34:29.799532 13594 layer_factory.hpp:77] Creating layer relu3_2
I0413 18:34:29.799541 13594 net.cpp:100] Creating Layer relu3_2
I0413 18:34:29.799546 13594 net.cpp:434] relu3_2 <- conv3_2
I0413 18:34:29.799552 13594 net.cpp:395] relu3_2 -> conv3_2 (in-place)
I0413 18:34:29.799561 13594 net.cpp:150] Setting up relu3_2
I0413 18:34:29.799566 13594 net.cpp:157] Top shape: 1 256 250 375 (24000000)
I0413 18:34:29.799569 13594 net.cpp:165] Memory required for data: 2886000116
I0413 18:34:29.799572 13594 layer_factory.hpp:77] Creating layer conv3_3
I0413 18:34:29.799582 13594 net.cpp:100] Creating Layer conv3_3
I0413 18:34:29.799585 13594 net.cpp:434] conv3_3 <- conv3_2
I0413 18:34:29.799592 13594 net.cpp:408] conv3_3 -> conv3_3
I0413 18:34:29.801177 13594 net.cpp:150] Setting up conv3_3
I0413 18:34:29.801203 13594 net.cpp:157] Top shape: 1 256 250 375 (24000000)
I0413 18:34:29.801206 13594 net.cpp:165] Memory required for data: 2982000116
I0413 18:34:29.801216 13594 layer_factory.hpp:77] Creating layer relu3_3
I0413 18:34:29.801224 13594 net.cpp:100] Creating Layer relu3_3
I0413 18:34:29.801229 13594 net.cpp:434] relu3_3 <- conv3_3
I0413 18:34:29.801235 13594 net.cpp:395] relu3_3 -> conv3_3 (in-place)
I0413 18:34:29.801245 13594 net.cpp:150] Setting up relu3_3
I0413 18:34:29.801251 13594 net.cpp:157] Top shape: 1 256 250 375 (24000000)
I0413 18:34:29.801254 13594 net.cpp:165] Memory required for data: 3078000116
I0413 18:34:29.801257 13594 layer_factory.hpp:77] Creating layer pool3
I0413 18:34:29.801265 13594 net.cpp:100] Creating Layer pool3
I0413 18:34:29.801268 13594 net.cpp:434] pool3 <- conv3_3
I0413 18:34:29.801273 13594 net.cpp:408] pool3 -> pool3
I0413 18:34:29.801317 13594 net.cpp:150] Setting up pool3
I0413 18:34:29.801324 13594 net.cpp:157] Top shape: 1 256 125 188 (6016000)
I0413 18:34:29.801327 13594 net.cpp:165] Memory required for data: 3102064116
I0413 18:34:29.801331 13594 layer_factory.hpp:77] Creating layer conv4_1
I0413 18:34:29.801340 13594 net.cpp:100] Creating Layer conv4_1
I0413 18:34:29.801344 13594 net.cpp:434] conv4_1 <- pool3
I0413 18:34:29.801350 13594 net.cpp:408] conv4_1 -> conv4_1
I0413 18:34:29.804025 13594 net.cpp:150] Setting up conv4_1
I0413 18:34:29.804055 13594 net.cpp:157] Top shape: 1 512 125 188 (12032000)
I0413 18:34:29.804059 13594 net.cpp:165] Memory required for data: 3150192116
I0413 18:34:29.804069 13594 layer_factory.hpp:77] Creating layer relu4_1
I0413 18:34:29.804078 13594 net.cpp:100] Creating Layer relu4_1
I0413 18:34:29.804083 13594 net.cpp:434] relu4_1 <- conv4_1
I0413 18:34:29.804092 13594 net.cpp:395] relu4_1 -> conv4_1 (in-place)
I0413 18:34:29.804102 13594 net.cpp:150] Setting up relu4_1
I0413 18:34:29.804106 13594 net.cpp:157] Top shape: 1 512 125 188 (12032000)
I0413 18:34:29.804110 13594 net.cpp:165] Memory required for data: 3198320116
I0413 18:34:29.804112 13594 layer_factory.hpp:77] Creating layer conv4_2
I0413 18:34:29.804121 13594 net.cpp:100] Creating Layer conv4_2
I0413 18:34:29.804126 13594 net.cpp:434] conv4_2 <- conv4_1
I0413 18:34:29.804131 13594 net.cpp:408] conv4_2 -> conv4_2
I0413 18:34:29.808250 13594 net.cpp:150] Setting up conv4_2
I0413 18:34:29.808298 13594 net.cpp:157] Top shape: 1 512 125 188 (12032000)
I0413 18:34:29.808305 13594 net.cpp:165] Memory required for data: 3246448116
I0413 18:34:29.808323 13594 layer_factory.hpp:77] Creating layer relu4_2
I0413 18:34:29.808336 13594 net.cpp:100] Creating Layer relu4_2
I0413 18:34:29.808339 13594 net.cpp:434] relu4_2 <- conv4_2
I0413 18:34:29.808347 13594 net.cpp:395] relu4_2 -> conv4_2 (in-place)
I0413 18:34:29.808357 13594 net.cpp:150] Setting up relu4_2
I0413 18:34:29.808362 13594 net.cpp:157] Top shape: 1 512 125 188 (12032000)
I0413 18:34:29.808364 13594 net.cpp:165] Memory required for data: 3294576116
I0413 18:34:29.808367 13594 layer_factory.hpp:77] Creating layer conv4_3
I0413 18:34:29.808377 13594 net.cpp:100] Creating Layer conv4_3
I0413 18:34:29.808379 13594 net.cpp:434] conv4_3 <- conv4_2
I0413 18:34:29.808387 13594 net.cpp:408] conv4_3 -> conv4_3
I0413 18:34:29.815685 13594 net.cpp:150] Setting up conv4_3
I0413 18:34:29.815731 13594 net.cpp:157] Top shape: 1 512 125 188 (12032000)
I0413 18:34:29.815737 13594 net.cpp:165] Memory required for data: 3342704116
I0413 18:34:29.815753 13594 layer_factory.hpp:77] Creating layer relu4_3
I0413 18:34:29.815768 13594 net.cpp:100] Creating Layer relu4_3
I0413 18:34:29.815775 13594 net.cpp:434] relu4_3 <- conv4_3
I0413 18:34:29.815788 13594 net.cpp:395] relu4_3 -> conv4_3 (in-place)
I0413 18:34:29.815816 13594 net.cpp:150] Setting up relu4_3
I0413 18:34:29.815825 13594 net.cpp:157] Top shape: 1 512 125 188 (12032000)
I0413 18:34:29.815834 13594 net.cpp:165] Memory required for data: 3390832116
I0413 18:34:29.815840 13594 layer_factory.hpp:77] Creating layer pool4
I0413 18:34:29.815850 13594 net.cpp:100] Creating Layer pool4
I0413 18:34:29.815857 13594 net.cpp:434] pool4 <- conv4_3
I0413 18:34:29.815865 13594 net.cpp:408] pool4 -> pool4
I0413 18:34:29.815922 13594 net.cpp:150] Setting up pool4
I0413 18:34:29.815934 13594 net.cpp:157] Top shape: 1 512 63 94 (3032064)
I0413 18:34:29.815943 13594 net.cpp:165] Memory required for data: 3402960372
I0413 18:34:29.815948 13594 layer_factory.hpp:77] Creating layer conv5_1
I0413 18:34:29.815964 13594 net.cpp:100] Creating Layer conv5_1
I0413 18:34:29.815973 13594 net.cpp:434] conv5_1 <- pool4
I0413 18:34:29.815984 13594 net.cpp:408] conv5_1 -> conv5_1
I0413 18:34:29.821421 13594 net.cpp:150] Setting up conv5_1
I0413 18:34:29.821452 13594 net.cpp:157] Top shape: 1 512 63 94 (3032064)
I0413 18:34:29.821465 13594 net.cpp:165] Memory required for data: 3415088628
I0413 18:34:29.821475 13594 layer_factory.hpp:77] Creating layer relu5_1
I0413 18:34:29.821485 13594 net.cpp:100] Creating Layer relu5_1
I0413 18:34:29.821491 13594 net.cpp:434] relu5_1 <- conv5_1
I0413 18:34:29.821498 13594 net.cpp:395] relu5_1 -> conv5_1 (in-place)
I0413 18:34:29.821508 13594 net.cpp:150] Setting up relu5_1
I0413 18:34:29.821513 13594 net.cpp:157] Top shape: 1 512 63 94 (3032064)
I0413 18:34:29.821516 13594 net.cpp:165] Memory required for data: 3427216884
I0413 18:34:29.821519 13594 layer_factory.hpp:77] Creating layer conv5_2
I0413 18:34:29.821529 13594 net.cpp:100] Creating Layer conv5_2
I0413 18:34:29.821533 13594 net.cpp:434] conv5_2 <- conv5_1
I0413 18:34:29.821539 13594 net.cpp:408] conv5_2 -> conv5_2
I0413 18:34:29.825713 13594 net.cpp:150] Setting up conv5_2
I0413 18:34:29.825757 13594 net.cpp:157] Top shape: 1 512 63 94 (3032064)
I0413 18:34:29.825762 13594 net.cpp:165] Memory required for data: 3439345140
I0413 18:34:29.825772 13594 layer_factory.hpp:77] Creating layer relu5_2
I0413 18:34:29.825781 13594 net.cpp:100] Creating Layer relu5_2
I0413 18:34:29.825786 13594 net.cpp:434] relu5_2 <- conv5_2
I0413 18:34:29.825793 13594 net.cpp:395] relu5_2 -> conv5_2 (in-place)
I0413 18:34:29.825803 13594 net.cpp:150] Setting up relu5_2
I0413 18:34:29.825808 13594 net.cpp:157] Top shape: 1 512 63 94 (3032064)
I0413 18:34:29.825810 13594 net.cpp:165] Memory required for data: 3451473396
I0413 18:34:29.825814 13594 layer_factory.hpp:77] Creating layer conv5_3
I0413 18:34:29.825829 13594 net.cpp:100] Creating Layer conv5_3
I0413 18:34:29.825845 13594 net.cpp:434] conv5_3 <- conv5_2
I0413 18:34:29.825850 13594 net.cpp:408] conv5_3 -> conv5_3
I0413 18:34:29.832006 13594 net.cpp:150] Setting up conv5_3
I0413 18:34:29.832044 13594 net.cpp:157] Top shape: 1 512 63 94 (3032064)
I0413 18:34:29.832049 13594 net.cpp:165] Memory required for data: 3463601652
I0413 18:34:29.832062 13594 layer_factory.hpp:77] Creating layer relu5_3
I0413 18:34:29.832073 13594 net.cpp:100] Creating Layer relu5_3
I0413 18:34:29.832078 13594 net.cpp:434] relu5_3 <- conv5_3
I0413 18:34:29.832088 13594 net.cpp:395] relu5_3 -> conv5_3 (in-place)
I0413 18:34:29.832100 13594 net.cpp:150] Setting up relu5_3
I0413 18:34:29.832108 13594 net.cpp:157] Top shape: 1 512 63 94 (3032064)
I0413 18:34:29.832110 13594 net.cpp:165] Memory required for data: 3475729908
I0413 18:34:29.832114 13594 layer_factory.hpp:77] Creating layer conv5_3_relu5_3_0_split
I0413 18:34:29.832120 13594 net.cpp:100] Creating Layer conv5_3_relu5_3_0_split
I0413 18:34:29.832124 13594 net.cpp:434] conv5_3_relu5_3_0_split <- conv5_3
I0413 18:34:29.832132 13594 net.cpp:408] conv5_3_relu5_3_0_split -> conv5_3_relu5_3_0_split_0
I0413 18:34:29.832140 13594 net.cpp:408] conv5_3_relu5_3_0_split -> conv5_3_relu5_3_0_split_1
I0413 18:34:29.832197 13594 net.cpp:150] Setting up conv5_3_relu5_3_0_split
I0413 18:34:29.832207 13594 net.cpp:157] Top shape: 1 512 63 94 (3032064)
I0413 18:34:29.832212 13594 net.cpp:157] Top shape: 1 512 63 94 (3032064)
I0413 18:34:29.832216 13594 net.cpp:165] Memory required for data: 3499986420
I0413 18:34:29.832218 13594 layer_factory.hpp:77] Creating layer rpn_big_conv1
I0413 18:34:29.832232 13594 net.cpp:100] Creating Layer rpn_big_conv1
I0413 18:34:29.832237 13594 net.cpp:434] rpn_big_conv1 <- conv5_3_relu5_3_0_split_0
I0413 18:34:29.832243 13594 net.cpp:408] rpn_big_conv1 -> rpn_big_conv1
I0413 18:34:29.861697 13594 net.cpp:150] Setting up rpn_big_conv1
I0413 18:34:29.861729 13594 net.cpp:157] Top shape: 1 512 63 94 (3032064)
I0413 18:34:29.861734 13594 net.cpp:165] Memory required for data: 3512114676
I0413 18:34:29.861744 13594 layer_factory.hpp:77] Creating layer rpn_big_conv1_relu
I0413 18:34:29.861757 13594 net.cpp:100] Creating Layer rpn_big_conv1_relu
I0413 18:34:29.861763 13594 net.cpp:434] rpn_big_conv1_relu <- rpn_big_conv1
I0413 18:34:29.861769 13594 net.cpp:395] rpn_big_conv1_relu -> rpn_big_conv1 (in-place)
I0413 18:34:29.861779 13594 net.cpp:150] Setting up rpn_big_conv1_relu
I0413 18:34:29.861785 13594 net.cpp:157] Top shape: 1 512 63 94 (3032064)
I0413 18:34:29.861788 13594 net.cpp:165] Memory required for data: 3524242932
I0413 18:34:29.861791 13594 layer_factory.hpp:77] Creating layer rpn_big_conv2
I0413 18:34:29.861801 13594 net.cpp:100] Creating Layer rpn_big_conv2
I0413 18:34:29.861804 13594 net.cpp:434] rpn_big_conv2 <- rpn_big_conv1
I0413 18:34:29.861811 13594 net.cpp:408] rpn_big_conv2 -> rpn_big_conv2
I0413 18:34:29.889973 13594 net.cpp:150] Setting up rpn_big_conv2
I0413 18:34:29.890007 13594 net.cpp:157] Top shape: 1 512 63 94 (3032064)
I0413 18:34:29.890012 13594 net.cpp:165] Memory required for data: 3536371188
I0413 18:34:29.890029 13594 layer_factory.hpp:77] Creating layer rpn_big_conv2_relu
I0413 18:34:29.890048 13594 net.cpp:100] Creating Layer rpn_big_conv2_relu
I0413 18:34:29.890055 13594 net.cpp:434] rpn_big_conv2_relu <- rpn_big_conv2
I0413 18:34:29.890066 13594 net.cpp:395] rpn_big_conv2_relu -> rpn_big_conv2 (in-place)
I0413 18:34:29.890079 13594 net.cpp:150] Setting up rpn_big_conv2_relu
I0413 18:34:29.890085 13594 net.cpp:157] Top shape: 1 512 63 94 (3032064)
I0413 18:34:29.890090 13594 net.cpp:165] Memory required for data: 3548499444
I0413 18:34:29.890095 13594 layer_factory.hpp:77] Creating layer rpn_big_conv2_drop
I0413 18:34:29.890106 13594 net.cpp:100] Creating Layer rpn_big_conv2_drop
I0413 18:34:29.890111 13594 net.cpp:434] rpn_big_conv2_drop <- rpn_big_conv2
I0413 18:34:29.890118 13594 net.cpp:395] rpn_big_conv2_drop -> rpn_big_conv2 (in-place)
I0413 18:34:29.890147 13594 net.cpp:150] Setting up rpn_big_conv2_drop
I0413 18:34:29.890157 13594 net.cpp:157] Top shape: 1 512 63 94 (3032064)
I0413 18:34:29.890161 13594 net.cpp:165] Memory required for data: 3560627700
I0413 18:34:29.890166 13594 layer_factory.hpp:77] Creating layer rpn_big_conv2_rpn_big_conv2_drop_0_split
I0413 18:34:29.890177 13594 net.cpp:100] Creating Layer rpn_big_conv2_rpn_big_conv2_drop_0_split
I0413 18:34:29.890183 13594 net.cpp:434] rpn_big_conv2_rpn_big_conv2_drop_0_split <- rpn_big_conv2
I0413 18:34:29.890193 13594 net.cpp:408] rpn_big_conv2_rpn_big_conv2_drop_0_split -> rpn_big_conv2_rpn_big_conv2_drop_0_split_0
I0413 18:34:29.890203 13594 net.cpp:408] rpn_big_conv2_rpn_big_conv2_drop_0_split -> rpn_big_conv2_rpn_big_conv2_drop_0_split_1
I0413 18:34:29.890256 13594 net.cpp:150] Setting up rpn_big_conv2_rpn_big_conv2_drop_0_split
I0413 18:34:29.890266 13594 net.cpp:157] Top shape: 1 512 63 94 (3032064)
I0413 18:34:29.890275 13594 net.cpp:157] Top shape: 1 512 63 94 (3032064)
I0413 18:34:29.890280 13594 net.cpp:165] Memory required for data: 3584884212
I0413 18:34:29.890285 13594 layer_factory.hpp:77] Creating layer rpn_big_output_cls
I0413 18:34:29.890301 13594 net.cpp:100] Creating Layer rpn_big_output_cls
I0413 18:34:29.890311 13594 net.cpp:434] rpn_big_output_cls <- rpn_big_conv2_rpn_big_conv2_drop_0_split_0
I0413 18:34:29.890322 13594 net.cpp:408] rpn_big_output_cls -> rpn_big_output_cls
I0413 18:34:29.913156 13594 net.cpp:150] Setting up rpn_big_output_cls
I0413 18:34:29.913185 13594 net.cpp:157] Top shape: 1 384 63 94 (2274048)
I0413 18:34:29.913197 13594 net.cpp:165] Memory required for data: 3593980404
I0413 18:34:29.913208 13594 layer_factory.hpp:77] Creating layer rpn_big_output_cls_relu
I0413 18:34:29.913218 13594 net.cpp:100] Creating Layer rpn_big_output_cls_relu
I0413 18:34:29.913223 13594 net.cpp:434] rpn_big_output_cls_relu <- rpn_big_output_cls
I0413 18:34:29.913233 13594 net.cpp:395] rpn_big_output_cls_relu -> rpn_big_output_cls (in-place)
I0413 18:34:29.913244 13594 net.cpp:150] Setting up rpn_big_output_cls_relu
I0413 18:34:29.913249 13594 net.cpp:157] Top shape: 1 384 63 94 (2274048)
I0413 18:34:29.913251 13594 net.cpp:165] Memory required for data: 3603076596
I0413 18:34:29.913254 13594 layer_factory.hpp:77] Creating layer rpn_big_cls_score
I0413 18:34:29.913265 13594 net.cpp:100] Creating Layer rpn_big_cls_score
I0413 18:34:29.913275 13594 net.cpp:434] rpn_big_cls_score <- rpn_big_output_cls
I0413 18:34:29.913280 13594 net.cpp:408] rpn_big_cls_score -> rpn_big_cls_score
I0413 18:34:29.915573 13594 net.cpp:150] Setting up rpn_big_cls_score
I0413 18:34:29.915588 13594 net.cpp:157] Top shape: 1 52 61 92 (291824)
I0413 18:34:29.915591 13594 net.cpp:165] Memory required for data: 3604243892
I0413 18:34:29.915616 13594 layer_factory.hpp:77] Creating layer rpn_big_cls_score_rpn_big_cls_score_0_split
I0413 18:34:29.915626 13594 net.cpp:100] Creating Layer rpn_big_cls_score_rpn_big_cls_score_0_split
I0413 18:34:29.915629 13594 net.cpp:434] rpn_big_cls_score_rpn_big_cls_score_0_split <- rpn_big_cls_score
I0413 18:34:29.915635 13594 net.cpp:408] rpn_big_cls_score_rpn_big_cls_score_0_split -> rpn_big_cls_score_rpn_big_cls_score_0_split_0
I0413 18:34:29.915644 13594 net.cpp:408] rpn_big_cls_score_rpn_big_cls_score_0_split -> rpn_big_cls_score_rpn_big_cls_score_0_split_1
I0413 18:34:29.915676 13594 net.cpp:150] Setting up rpn_big_cls_score_rpn_big_cls_score_0_split
I0413 18:34:29.915684 13594 net.cpp:157] Top shape: 1 52 61 92 (291824)
I0413 18:34:29.915688 13594 net.cpp:157] Top shape: 1 52 61 92 (291824)
I0413 18:34:29.915691 13594 net.cpp:165] Memory required for data: 3606578484
I0413 18:34:29.915694 13594 layer_factory.hpp:77] Creating layer rpn_big_cls_score_reshape
I0413 18:34:29.915704 13594 net.cpp:100] Creating Layer rpn_big_cls_score_reshape
I0413 18:34:29.915709 13594 net.cpp:434] rpn_big_cls_score_reshape <- rpn_big_cls_score_rpn_big_cls_score_0_split_0
I0413 18:34:29.915714 13594 net.cpp:408] rpn_big_cls_score_reshape -> rpn_big_cls_score_reshape
I0413 18:34:29.915737 13594 net.cpp:150] Setting up rpn_big_cls_score_reshape
I0413 18:34:29.915745 13594 net.cpp:157] Top shape: 1 2 1586 92 (291824)
I0413 18:34:29.915747 13594 net.cpp:165] Memory required for data: 3607745780
I0413 18:34:29.915750 13594 layer_factory.hpp:77] Creating layer rpn_big_cls_score_reshape_rpn_big_cls_score_reshape_0_split
I0413 18:34:29.915757 13594 net.cpp:100] Creating Layer rpn_big_cls_score_reshape_rpn_big_cls_score_reshape_0_split
I0413 18:34:29.915760 13594 net.cpp:434] rpn_big_cls_score_reshape_rpn_big_cls_score_reshape_0_split <- rpn_big_cls_score_reshape
I0413 18:34:29.915766 13594 net.cpp:408] rpn_big_cls_score_reshape_rpn_big_cls_score_reshape_0_split -> rpn_big_cls_score_reshape_rpn_big_cls_score_reshape_0_split_0
I0413 18:34:29.915774 13594 net.cpp:408] rpn_big_cls_score_reshape_rpn_big_cls_score_reshape_0_split -> rpn_big_cls_score_reshape_rpn_big_cls_score_reshape_0_split_1
I0413 18:34:29.915802 13594 net.cpp:150] Setting up rpn_big_cls_score_reshape_rpn_big_cls_score_reshape_0_split
I0413 18:34:29.915809 13594 net.cpp:157] Top shape: 1 2 1586 92 (291824)
I0413 18:34:29.915813 13594 net.cpp:157] Top shape: 1 2 1586 92 (291824)
I0413 18:34:29.915817 13594 net.cpp:165] Memory required for data: 3610080372
I0413 18:34:29.915819 13594 layer_factory.hpp:77] Creating layer rpn_big_cls_prob
I0413 18:34:29.915827 13594 net.cpp:100] Creating Layer rpn_big_cls_prob
I0413 18:34:29.915830 13594 net.cpp:434] rpn_big_cls_prob <- rpn_big_cls_score_reshape_rpn_big_cls_score_reshape_0_split_0
I0413 18:34:29.915835 13594 net.cpp:408] rpn_big_cls_prob -> rpn_big_cls_prob
I0413 18:34:29.915884 13594 net.cpp:150] Setting up rpn_big_cls_prob
I0413 18:34:29.915891 13594 net.cpp:157] Top shape: 1 2 1586 92 (291824)
I0413 18:34:29.915894 13594 net.cpp:165] Memory required for data: 3611247668
I0413 18:34:29.915897 13594 layer_factory.hpp:77] Creating layer rpn_big_cls_prob_reshape
I0413 18:34:29.915902 13594 net.cpp:100] Creating Layer rpn_big_cls_prob_reshape
I0413 18:34:29.915906 13594 net.cpp:434] rpn_big_cls_prob_reshape <- rpn_big_cls_prob
I0413 18:34:29.915912 13594 net.cpp:408] rpn_big_cls_prob_reshape -> rpn_big_cls_prob_reshape
I0413 18:34:29.915932 13594 net.cpp:150] Setting up rpn_big_cls_prob_reshape
I0413 18:34:29.915940 13594 net.cpp:157] Top shape: 1 52 61 92 (291824)
I0413 18:34:29.915942 13594 net.cpp:165] Memory required for data: 3612414964
I0413 18:34:29.915946 13594 layer_factory.hpp:77] Creating layer rpn_big_cls_prob_reshape_rpn_big_cls_prob_reshape_0_split
I0413 18:34:29.915951 13594 net.cpp:100] Creating Layer rpn_big_cls_prob_reshape_rpn_big_cls_prob_reshape_0_split
I0413 18:34:29.915953 13594 net.cpp:434] rpn_big_cls_prob_reshape_rpn_big_cls_prob_reshape_0_split <- rpn_big_cls_prob_reshape
I0413 18:34:29.915961 13594 net.cpp:408] rpn_big_cls_prob_reshape_rpn_big_cls_prob_reshape_0_split -> rpn_big_cls_prob_reshape_rpn_big_cls_prob_reshape_0_split_0
I0413 18:34:29.915966 13594 net.cpp:408] rpn_big_cls_prob_reshape_rpn_big_cls_prob_reshape_0_split -> rpn_big_cls_prob_reshape_rpn_big_cls_prob_reshape_0_split_1
I0413 18:34:29.915993 13594 net.cpp:150] Setting up rpn_big_cls_prob_reshape_rpn_big_cls_prob_reshape_0_split
I0413 18:34:29.915999 13594 net.cpp:157] Top shape: 1 52 61 92 (291824)
I0413 18:34:29.916003 13594 net.cpp:157] Top shape: 1 52 61 92 (291824)
I0413 18:34:29.916007 13594 net.cpp:165] Memory required for data: 3614749556
I0413 18:34:29.916009 13594 layer_factory.hpp:77] Creating layer rpn_big_anchor_target
I0413 18:34:29.917341 13594 net.cpp:100] Creating Layer rpn_big_anchor_target
I0413 18:34:29.917357 13594 net.cpp:434] rpn_big_anchor_target <- rpn_big_cls_score_rpn_big_cls_score_0_split_1
I0413 18:34:29.917366 13594 net.cpp:434] rpn_big_anchor_target <- input_gt_boxes_input_2_split_0
I0413 18:34:29.917371 13594 net.cpp:434] rpn_big_anchor_target <- input_ignored_boxes
I0413 18:34:29.917374 13594 net.cpp:434] rpn_big_anchor_target <- input_im_info_input_1_split_0
I0413 18:34:29.917378 13594 net.cpp:434] rpn_big_anchor_target <- input_data_input_0_split_1
I0413 18:34:29.917382 13594 net.cpp:434] rpn_big_anchor_target <- rpn_big_cls_prob_reshape_rpn_big_cls_prob_reshape_0_split_0
I0413 18:34:29.917389 13594 net.cpp:408] rpn_big_anchor_target -> rpn_big_anchor_target_labels
I0413 18:34:29.917400 13594 net.cpp:408] rpn_big_anchor_target -> rpn_big_anchor_target_bbox_targets
I0413 18:34:29.917409 13594 net.cpp:408] rpn_big_anchor_target -> rpn_big_anchor_target_inside_weights
I0413 18:34:29.917418 13594 net.cpp:408] rpn_big_anchor_target -> rpn_big_anchor_target_outside_weights
I0413 18:34:29.922190 13594 net.cpp:150] Setting up rpn_big_anchor_target
I0413 18:34:29.922216 13594 net.cpp:157] Top shape: 1 1 1586 92 (145912)
I0413 18:34:29.922230 13594 net.cpp:157] Top shape: 1 104 61 92 (583648)
I0413 18:34:29.922235 13594 net.cpp:157] Top shape: 1 104 61 92 (583648)
I0413 18:34:29.922240 13594 net.cpp:157] Top shape: 1 104 61 92 (583648)
I0413 18:34:29.922242 13594 net.cpp:165] Memory required for data: 3622336980
I0413 18:34:29.922247 13594 layer_factory.hpp:77] Creating layer rpn_big_loss_cls
I0413 18:34:29.922257 13594 net.cpp:100] Creating Layer rpn_big_loss_cls
I0413 18:34:29.922262 13594 net.cpp:434] rpn_big_loss_cls <- rpn_big_cls_score_reshape_rpn_big_cls_score_reshape_0_split_1
I0413 18:34:29.922268 13594 net.cpp:434] rpn_big_loss_cls <- rpn_big_anchor_target_labels
I0413 18:34:29.922276 13594 net.cpp:408] rpn_big_loss_cls -> rpn_big_loss_cls
I0413 18:34:29.922287 13594 layer_factory.hpp:77] Creating layer rpn_big_loss_cls
I0413 18:34:29.922904 13594 net.cpp:150] Setting up rpn_big_loss_cls
I0413 18:34:29.922917 13594 net.cpp:157] Top shape: (1)
I0413 18:34:29.922920 13594 net.cpp:160]     with loss weight 1
I0413 18:34:29.922940 13594 net.cpp:165] Memory required for data: 3622336984
I0413 18:34:29.922945 13594 layer_factory.hpp:77] Creating layer rpn_big_output_box
I0413 18:34:29.922957 13594 net.cpp:100] Creating Layer rpn_big_output_box
I0413 18:34:29.922962 13594 net.cpp:434] rpn_big_output_box <- rpn_big_conv2_rpn_big_conv2_drop_0_split_1
I0413 18:34:29.922969 13594 net.cpp:408] rpn_big_output_box -> rpn_big_output_box
I0413 18:34:29.944044 13594 net.cpp:150] Setting up rpn_big_output_box
I0413 18:34:29.944074 13594 net.cpp:157] Top shape: 1 384 63 94 (2274048)
I0413 18:34:29.944088 13594 net.cpp:165] Memory required for data: 3631433176
I0413 18:34:29.944098 13594 layer_factory.hpp:77] Creating layer rpn_big_output_box_relu
I0413 18:34:29.944109 13594 net.cpp:100] Creating Layer rpn_big_output_box_relu
I0413 18:34:29.944114 13594 net.cpp:434] rpn_big_output_box_relu <- rpn_big_output_box
I0413 18:34:29.944121 13594 net.cpp:395] rpn_big_output_box_relu -> rpn_big_output_box (in-place)
I0413 18:34:29.944133 13594 net.cpp:150] Setting up rpn_big_output_box_relu
I0413 18:34:29.944136 13594 net.cpp:157] Top shape: 1 384 63 94 (2274048)
I0413 18:34:29.944139 13594 net.cpp:165] Memory required for data: 3640529368
I0413 18:34:29.944142 13594 layer_factory.hpp:77] Creating layer rpn_big_bbox_pred
I0413 18:34:29.944154 13594 net.cpp:100] Creating Layer rpn_big_bbox_pred
I0413 18:34:29.944157 13594 net.cpp:434] rpn_big_bbox_pred <- rpn_big_output_box
I0413 18:34:29.944164 13594 net.cpp:408] rpn_big_bbox_pred -> rpn_big_bbox_pred
I0413 18:34:29.948264 13594 net.cpp:150] Setting up rpn_big_bbox_pred
I0413 18:34:29.948282 13594 net.cpp:157] Top shape: 1 104 61 92 (583648)
I0413 18:34:29.948287 13594 net.cpp:165] Memory required for data: 3642863960
I0413 18:34:29.948302 13594 layer_factory.hpp:77] Creating layer rpn_big_bbox_pred_rpn_big_bbox_pred_0_split
I0413 18:34:29.948310 13594 net.cpp:100] Creating Layer rpn_big_bbox_pred_rpn_big_bbox_pred_0_split
I0413 18:34:29.948315 13594 net.cpp:434] rpn_big_bbox_pred_rpn_big_bbox_pred_0_split <- rpn_big_bbox_pred
I0413 18:34:29.948323 13594 net.cpp:408] rpn_big_bbox_pred_rpn_big_bbox_pred_0_split -> rpn_big_bbox_pred_rpn_big_bbox_pred_0_split_0
I0413 18:34:29.948330 13594 net.cpp:408] rpn_big_bbox_pred_rpn_big_bbox_pred_0_split -> rpn_big_bbox_pred_rpn_big_bbox_pred_0_split_1
I0413 18:34:29.948364 13594 net.cpp:150] Setting up rpn_big_bbox_pred_rpn_big_bbox_pred_0_split
I0413 18:34:29.948372 13594 net.cpp:157] Top shape: 1 104 61 92 (583648)
I0413 18:34:29.948376 13594 net.cpp:157] Top shape: 1 104 61 92 (583648)
I0413 18:34:29.948379 13594 net.cpp:165] Memory required for data: 3647533144
I0413 18:34:29.948384 13594 layer_factory.hpp:77] Creating layer rpn_big_loss_bbox
I0413 18:34:29.948751 13594 net.cpp:100] Creating Layer rpn_big_loss_bbox
I0413 18:34:29.948760 13594 net.cpp:434] rpn_big_loss_bbox <- rpn_big_bbox_pred_rpn_big_bbox_pred_0_split_0
I0413 18:34:29.948765 13594 net.cpp:434] rpn_big_loss_bbox <- rpn_big_anchor_target_bbox_targets
I0413 18:34:29.948779 13594 net.cpp:434] rpn_big_loss_bbox <- rpn_big_anchor_target_inside_weights
I0413 18:34:29.948783 13594 net.cpp:434] rpn_big_loss_bbox <- rpn_big_anchor_target_outside_weights
I0413 18:34:29.948791 13594 net.cpp:408] rpn_big_loss_bbox -> rpn_big_loss_bbox
I0413 18:34:29.952509 13594 net.cpp:150] Setting up rpn_big_loss_bbox
I0413 18:34:29.952544 13594 net.cpp:157] Top shape: 1 (1)
I0413 18:34:29.952556 13594 net.cpp:160]     with loss weight 1
I0413 18:34:29.952569 13594 net.cpp:165] Memory required for data: 3647533148
I0413 18:34:29.952576 13594 layer_factory.hpp:77] Creating layer proposal
I0413 18:34:29.952993 13594 net.cpp:100] Creating Layer proposal
I0413 18:34:29.953003 13594 net.cpp:434] proposal <- rpn_big_cls_prob_reshape_rpn_big_cls_prob_reshape_0_split_1
I0413 18:34:29.953011 13594 net.cpp:434] proposal <- rpn_big_bbox_pred_rpn_big_bbox_pred_0_split_1
I0413 18:34:29.953016 13594 net.cpp:434] proposal <- input_im_info_input_1_split_1
I0413 18:34:29.953023 13594 net.cpp:408] proposal -> rpn_rois
I0413 18:34:29.960252 13594 net.cpp:150] Setting up proposal
I0413 18:34:29.960281 13594 net.cpp:157] Top shape: 1 5 (5)
I0413 18:34:29.960297 13594 net.cpp:165] Memory required for data: 3647533168
I0413 18:34:29.960306 13594 layer_factory.hpp:77] Creating layer roi-data
I0413 18:34:29.960779 13594 net.cpp:100] Creating Layer roi-data
I0413 18:34:29.960793 13594 net.cpp:434] roi-data <- rpn_rois
I0413 18:34:29.960801 13594 net.cpp:434] roi-data <- input_gt_boxes_input_2_split_1
I0413 18:34:29.960809 13594 net.cpp:408] roi-data -> rois
I0413 18:34:29.960819 13594 net.cpp:408] roi-data -> labels
I0413 18:34:29.960826 13594 net.cpp:408] roi-data -> bbox_targets
I0413 18:34:29.960832 13594 net.cpp:408] roi-data -> bbox_inside_weights
I0413 18:34:29.960839 13594 net.cpp:408] roi-data -> bbox_outside_weights
I0413 18:34:29.960846 13594 net.cpp:408] roi-data -> pid_label
I0413 18:34:29.961823 13594 net.cpp:150] Setting up roi-data
I0413 18:34:29.961838 13594 net.cpp:157] Top shape: 1 5 (5)
I0413 18:34:29.961843 13594 net.cpp:157] Top shape: 1 1 (1)
I0413 18:34:29.961854 13594 net.cpp:157] Top shape: 1 8 (8)
I0413 18:34:29.961858 13594 net.cpp:157] Top shape: 1 8 (8)
I0413 18:34:29.961863 13594 net.cpp:157] Top shape: 1 8 (8)
I0413 18:34:29.961865 13594 net.cpp:157] Top shape: (0)
I0413 18:34:29.961869 13594 net.cpp:165] Memory required for data: 3647533288
I0413 18:34:29.961872 13594 layer_factory.hpp:77] Creating layer roi-pool
I0413 18:34:29.961882 13594 net.cpp:100] Creating Layer roi-pool
I0413 18:34:29.961887 13594 net.cpp:434] roi-pool <- conv5_3_relu5_3_0_split_1
I0413 18:34:29.961894 13594 net.cpp:434] roi-pool <- rois
I0413 18:34:29.961899 13594 net.cpp:408] roi-pool -> roi-pool
I0413 18:34:29.961906 13594 roi_pooling_layer.cpp:33] Spatial scale: 0.0625
I0413 18:34:29.961920 13594 roi_pooling_layer.cpp:34] Box scale: 1
I0413 18:34:29.961957 13594 net.cpp:150] Setting up roi-pool
I0413 18:34:29.961964 13594 net.cpp:157] Top shape: 1 512 7 7 (25088)
I0413 18:34:29.961967 13594 net.cpp:165] Memory required for data: 3647633640
I0413 18:34:29.961971 13594 layer_factory.hpp:77] Creating layer fc6
I0413 18:34:29.961978 13594 net.cpp:100] Creating Layer fc6
I0413 18:34:29.961982 13594 net.cpp:434] fc6 <- roi-pool
I0413 18:34:29.961987 13594 net.cpp:408] fc6 -> fc6
I0413 18:34:30.125311 13594 net.cpp:150] Setting up fc6
I0413 18:34:30.125344 13594 net.cpp:157] Top shape: 1 4096 (4096)
I0413 18:34:30.125357 13594 net.cpp:165] Memory required for data: 3647650024
I0413 18:34:30.125370 13594 layer_factory.hpp:77] Creating layer relu6
I0413 18:34:30.125380 13594 net.cpp:100] Creating Layer relu6
I0413 18:34:30.125385 13594 net.cpp:434] relu6 <- fc6
I0413 18:34:30.125392 13594 net.cpp:395] relu6 -> fc6 (in-place)
I0413 18:34:30.125403 13594 net.cpp:150] Setting up relu6
I0413 18:34:30.125407 13594 net.cpp:157] Top shape: 1 4096 (4096)
I0413 18:34:30.125411 13594 net.cpp:165] Memory required for data: 3647666408
I0413 18:34:30.125413 13594 layer_factory.hpp:77] Creating layer drop6
I0413 18:34:30.125421 13594 net.cpp:100] Creating Layer drop6
I0413 18:34:30.125423 13594 net.cpp:434] drop6 <- fc6
I0413 18:34:30.125427 13594 net.cpp:395] drop6 -> fc6 (in-place)
I0413 18:34:30.125449 13594 net.cpp:150] Setting up drop6
I0413 18:34:30.125457 13594 net.cpp:157] Top shape: 1 4096 (4096)
I0413 18:34:30.125459 13594 net.cpp:165] Memory required for data: 3647682792
I0413 18:34:30.125463 13594 layer_factory.hpp:77] Creating layer fc7
I0413 18:34:30.125469 13594 net.cpp:100] Creating Layer fc7
I0413 18:34:30.125474 13594 net.cpp:434] fc7 <- fc6
I0413 18:34:30.125479 13594 net.cpp:408] fc7 -> fc7
I0413 18:34:30.152789 13594 net.cpp:150] Setting up fc7
I0413 18:34:30.152825 13594 net.cpp:157] Top shape: 1 4096 (4096)
I0413 18:34:30.152828 13594 net.cpp:165] Memory required for data: 3647699176
I0413 18:34:30.152840 13594 layer_factory.hpp:77] Creating layer relu7
I0413 18:34:30.152863 13594 net.cpp:100] Creating Layer relu7
I0413 18:34:30.152868 13594 net.cpp:434] relu7 <- fc7
I0413 18:34:30.152875 13594 net.cpp:395] relu7 -> fc7 (in-place)
I0413 18:34:30.152890 13594 net.cpp:150] Setting up relu7
I0413 18:34:30.152896 13594 net.cpp:157] Top shape: 1 4096 (4096)
I0413 18:34:30.152899 13594 net.cpp:165] Memory required for data: 3647715560
I0413 18:34:30.152914 13594 layer_factory.hpp:77] Creating layer drop7
I0413 18:34:30.152923 13594 net.cpp:100] Creating Layer drop7
I0413 18:34:30.152930 13594 net.cpp:434] drop7 <- fc7
I0413 18:34:30.152935 13594 net.cpp:395] drop7 -> fc7 (in-place)
I0413 18:34:30.152958 13594 net.cpp:150] Setting up drop7
I0413 18:34:30.152964 13594 net.cpp:157] Top shape: 1 4096 (4096)
I0413 18:34:30.152967 13594 net.cpp:165] Memory required for data: 3647731944
I0413 18:34:30.152971 13594 layer_factory.hpp:77] Creating layer fc7_drop7_0_split
I0413 18:34:30.152977 13594 net.cpp:100] Creating Layer fc7_drop7_0_split
I0413 18:34:30.152981 13594 net.cpp:434] fc7_drop7_0_split <- fc7
I0413 18:34:30.152987 13594 net.cpp:408] fc7_drop7_0_split -> fc7_drop7_0_split_0
I0413 18:34:30.153003 13594 net.cpp:408] fc7_drop7_0_split -> fc7_drop7_0_split_1
I0413 18:34:30.153048 13594 net.cpp:150] Setting up fc7_drop7_0_split
I0413 18:34:30.153059 13594 net.cpp:157] Top shape: 1 4096 (4096)
I0413 18:34:30.153069 13594 net.cpp:157] Top shape: 1 4096 (4096)
I0413 18:34:30.153074 13594 net.cpp:165] Memory required for data: 3647764712
I0413 18:34:30.153079 13594 layer_factory.hpp:77] Creating layer bbox_pred
I0413 18:34:30.153090 13594 net.cpp:100] Creating Layer bbox_pred
I0413 18:34:30.153097 13594 net.cpp:434] bbox_pred <- fc7_drop7_0_split_0
I0413 18:34:30.153111 13594 net.cpp:408] bbox_pred -> bbox_pred
I0413 18:34:30.153542 13594 net.cpp:150] Setting up bbox_pred
I0413 18:34:30.153549 13594 net.cpp:157] Top shape: 1 8 (8)
I0413 18:34:30.153553 13594 net.cpp:165] Memory required for data: 3647764744
I0413 18:34:30.153558 13594 layer_factory.hpp:77] Creating layer loss_bbox
I0413 18:34:30.153565 13594 net.cpp:100] Creating Layer loss_bbox
I0413 18:34:30.153568 13594 net.cpp:434] loss_bbox <- bbox_pred
I0413 18:34:30.153573 13594 net.cpp:434] loss_bbox <- bbox_targets
I0413 18:34:30.153576 13594 net.cpp:434] loss_bbox <- bbox_inside_weights
I0413 18:34:30.153580 13594 net.cpp:434] loss_bbox <- bbox_outside_weights
I0413 18:34:30.153586 13594 net.cpp:408] loss_bbox -> loss_bbox
I0413 18:34:30.153651 13594 net.cpp:150] Setting up loss_bbox
I0413 18:34:30.153658 13594 net.cpp:157] Top shape: (1)
I0413 18:34:30.153661 13594 net.cpp:160]     with loss weight 1
I0413 18:34:30.153671 13594 net.cpp:165] Memory required for data: 3647764748
I0413 18:34:30.153676 13594 layer_factory.hpp:77] Creating layer feat
I0413 18:34:30.153681 13594 net.cpp:100] Creating Layer feat
I0413 18:34:30.153687 13594 net.cpp:434] feat <- fc7_drop7_0_split_1
I0413 18:34:30.153692 13594 net.cpp:408] feat -> feat
I0413 18:34:30.165537 13594 net.cpp:150] Setting up feat
I0413 18:34:30.165565 13594 net.cpp:157] Top shape: 1 256 (256)
I0413 18:34:30.165576 13594 net.cpp:165] Memory required for data: 3647765772
I0413 18:34:30.165588 13594 layer_factory.hpp:77] Creating layer relu8
I0413 18:34:30.165601 13594 net.cpp:100] Creating Layer relu8
I0413 18:34:30.165606 13594 net.cpp:434] relu8 <- feat
I0413 18:34:30.165612 13594 net.cpp:395] relu8 -> feat (in-place)
I0413 18:34:30.165622 13594 net.cpp:150] Setting up relu8
I0413 18:34:30.165627 13594 net.cpp:157] Top shape: 1 256 (256)
I0413 18:34:30.165629 13594 net.cpp:165] Memory required for data: 3647766796
I0413 18:34:30.165632 13594 layer_factory.hpp:77] Creating layer drop8
I0413 18:34:30.165638 13594 net.cpp:100] Creating Layer drop8
I0413 18:34:30.165642 13594 net.cpp:434] drop8 <- feat
I0413 18:34:30.165645 13594 net.cpp:395] drop8 -> feat (in-place)
I0413 18:34:30.165668 13594 net.cpp:150] Setting up drop8
I0413 18:34:30.165673 13594 net.cpp:157] Top shape: 1 256 (256)
I0413 18:34:30.165676 13594 net.cpp:165] Memory required for data: 3647767820
I0413 18:34:30.165680 13594 layer_factory.hpp:77] Creating layer pid_score
I0413 18:34:30.165688 13594 net.cpp:100] Creating Layer pid_score
I0413 18:34:30.165690 13594 net.cpp:434] pid_score <- feat
I0413 18:34:30.165696 13594 net.cpp:408] pid_score -> pid_score
I0413 18:34:30.181128 13594 net.cpp:150] Setting up pid_score
I0413 18:34:30.181157 13594 net.cpp:157] Top shape: 1 5533 (5533)
I0413 18:34:30.181160 13594 net.cpp:165] Memory required for data: 3647789952
I0413 18:34:30.181171 13594 layer_factory.hpp:77] Creating layer pid_accuracy
I0413 18:34:30.181182 13594 net.cpp:100] Creating Layer pid_accuracy
I0413 18:34:30.181188 13594 net.cpp:434] pid_accuracy <- pid_score
I0413 18:34:30.181195 13594 net.cpp:434] pid_accuracy <- pid_label
I0413 18:34:30.181200 13594 net.cpp:408] pid_accuracy -> pid_accuracy
…
