…
I0406 15:12:23.122124  6117 solver.cpp:48] Initializing solver from parameters: 
base_lr: 0.001
display: 20
lr_policy: "multistep"
gamma: 0.1
momentum: 0.9
weight_decay: 0.0005
snapshot: 0
snapshot_prefix: "faces_example"
net_param {
  name: "GeneratedModel_06_04_2017_15_12"
  layer {
    name: "input"
    type: "Python"
    top: "input_data"
    top: "input_im_info"
    top: "input_gt_boxes"
    top: "input_ignored_boxes"
    python_param {
      module: "layers.roi_data_layer"
      layer: "RoIDataLayer"
      param_str: "{\"num_classes\": 2}"
    }
  }
  layer {
    name: "conv1_1"
    type: "Convolution"
    bottom: "input_data"
    top: "conv1_1"
    param {
      lr_mult: 0
      decay_mult: 0
    }
    param {
      lr_mult: 0
      decay_mult: 0
    }
    convolution_param {
      num_output: 64
      pad: 1
      kernel_size: 3
    }
  }
  layer {
    name: "relu1_1"
    type: "ReLU"
    bottom: "conv1_1"
    top: "conv1_1"
  }
  layer {
    name: "conv1_2"
    type: "Convolution"
    bottom: "conv1_1"
    top: "conv1_2"
    param {
      lr_mult: 0
      decay_mult: 0
    }
    param {
      lr_mult: 0
      decay_mult: 0
    }
    convolution_param {
      num_output: 64
      pad: 1
      kernel_size: 3
    }
  }
  layer {
    name: "relu1_2"
    type: "ReLU"
    bottom: "conv1_2"
    top: "conv1_2"
  }
  layer {
    name: "pool1"
    type: "Pooling"
    bottom: "conv1_2"
    top: "pool1"
    pooling_param {
      pool: MAX
      kernel_size: 2
      stride: 2
    }
  }
  layer {
    name: "conv2_1"
    type: "Convolution"
    bottom: "pool1"
    top: "conv2_1"
    param {
      lr_mult: 0
      decay_mult: 0
    }
    param {
      lr_mult: 0
      decay_mult: 0
    }
    convolution_param {
      num_output: 128
      pad: 1
      kernel_size: 3
    }
  }
  layer {
    name: "relu2_1"
    type: "ReLU"
    bottom: "conv2_1"
    top: "conv2_1"
  }
  layer {
    name: "conv2_2"
    type: "Convolution"
    bottom: "conv2_1"
    top: "conv2_2"
    param {
      lr_mult: 0
      decay_mult: 0
    }
    param {
      lr_mult: 0
      decay_mult: 0
    }
    convolution_param {
      num_output: 128
      pad: 1
      kernel_size: 3
    }
  }
  layer {
    name: "relu2_2"
    type: "ReLU"
    bottom: "conv2_2"
    top: "conv2_2"
  }
  layer {
    name: "pool2"
    type: "Pooling"
    bottom: "conv2_2"
    top: "pool2"
    pooling_param {
      pool: MAX
      kernel_size: 2
      stride: 2
    }
  }
  layer {
    name: "conv3_1"
    type: "Convolution"
    bottom: "pool2"
    top: "conv3_1"
    param {
      lr_mult: 1
    }
    param {
      lr_mult: 2
    }
    convolution_param {
      num_output: 256
      pad: 1
      kernel_size: 3
    }
  }
  layer {
    name: "relu3_1"
    type: "ReLU"
    bottom: "conv3_1"
    top: "conv3_1"
  }
  layer {
    name: "conv3_2"
    type: "Convolution"
    bottom: "conv3_1"
    top: "conv3_2"
    param {
      lr_mult: 1
    }
    param {
      lr_mult: 2
    }
    convolution_param {
      num_output: 256
      pad: 1
      kernel_size: 3
    }
  }
  layer {
    name: "relu3_2"
    type: "ReLU"
    bottom: "conv3_2"
    top: "conv3_2"
  }
  layer {
    name: "conv3_3"
    type: "Convolution"
    bottom: "conv3_2"
    top: "conv3_3"
    param {
      lr_mult: 1
    }
    param {
      lr_mult: 2
    }
    convolution_param {
      num_output: 256
      pad: 1
      kernel_size: 3
    }
  }
  layer {
    name: "relu3_3"
    type: "ReLU"
    bottom: "conv3_3"
    top: "conv3_3"
  }
  layer {
    name: "pool3"
    type: "Pooling"
    bottom: "conv3_3"
    top: "pool3"
    pooling_param {
      pool: MAX
      kernel_size: 2
      stride: 2
    }
  }
  layer {
    name: "conv4_1"
    type: "Convolution"
    bottom: "pool3"
    top: "conv4_1"
    param {
      lr_mult: 1
    }
    param {
      lr_mult: 2
    }
    convolution_param {
      num_output: 512
      pad: 1
      kernel_size: 3
    }
  }
  layer {
    name: "relu4_1"
    type: "ReLU"
    bottom: "conv4_1"
    top: "conv4_1"
  }
  layer {
    name: "conv4_2"
    type: "Convolution"
    bottom: "conv4_1"
    top: "conv4_2"
    param {
      lr_mult: 1
    }
    param {
      lr_mult: 2
    }
    convolution_param {
      num_output: 512
      pad: 1
      kernel_size: 3
    }
  }
  layer {
    name: "relu4_2"
    type: "ReLU"
    bottom: "conv4_2"
    top: "conv4_2"
  }
  layer {
    name: "conv4_3"
    type: "Convolution"
    bottom: "conv4_2"
    top: "conv4_3"
    param {
      lr_mult: 1
    }
    param {
      lr_mult: 2
    }
    convolution_param {
      num_output: 512
      pad: 1
      kernel_size: 3
    }
  }
  layer {
    name: "relu4_3"
    type: "ReLU"
    bottom: "conv4_3"
    top: "conv4_3"
  }
  layer {
    name: "pool4"
    type: "Pooling"
    bottom: "conv4_3"
    top: "pool4"
    pooling_param {
      pool: MAX
      kernel_size: 2
      stride: 2
    }
  }
  layer {
    name: "conv5_1"
    type: "Convolution"
    bottom: "pool4"
    top: "conv5_1"
    param {
      lr_mult: 1
    }
    param {
      lr_mult: 2
    }
    convolution_param {
      num_output: 512
      pad: 1
      kernel_size: 3
    }
  }
  layer {
    name: "relu5_1"
    type: "ReLU"
    bottom: "conv5_1"
    top: "conv5_1"
  }
  layer {
    name: "conv5_2"
    type: "Convolution"
    bottom: "conv5_1"
    top: "conv5_2"
    param {
      lr_mult: 1
    }
    param {
      lr_mult: 2
    }
    convolution_param {
      num_output: 512
      pad: 1
      kernel_size: 3
    }
  }
  layer {
    name: "relu5_2"
    type: "ReLU"
    bottom: "conv5_2"
    top: "conv5_2"
  }
  layer {
    name: "conv5_3"
    type: "Convolution"
    bottom: "conv5_2"
    top: "conv5_3"
    param {
      lr_mult: 1
    }
    param {
      lr_mult: 2
    }
    convolution_param {
      num_output: 512
      pad: 1
      kernel_size: 3
    }
  }
  layer {
    name: "relu5_3"
    type: "ReLU"
    bottom: "conv5_3"
    top: "conv5_3"
  }
  layer {
    name: "rpn_big_conv1"
    type: "Convolution"
    bottom: "conv5_3"
    top: "rpn_big_conv1"
    param {
      lr_mult: 1
    }
    param {
      lr_mult: 2
    }
    convolution_param {
      num_output: 512
      pad: 1
      kernel_size: 3
      stride: 1
      weight_filler {
        type: "gaussian"
        mean: 0
        std: 0.01
      }
      bias_filler {
        type: "constant"
      }
    }
  }
  layer {
    name: "rpn_big_conv1_relu"
    type: "ReLU"
    bottom: "rpn_big_conv1"
    top: "rpn_big_conv1"
    relu_param {
      negative_slope: 0
    }
  }
  layer {
    name: "rpn_big_conv2"
    type: "Convolution"
    bottom: "rpn_big_conv1"
    top: "rpn_big_conv2"
    param {
      lr_mult: 1
    }
    param {
      lr_mult: 2
    }
    convolution_param {
      num_output: 512
      pad: 1
      kernel_size: 3
      stride: 1
      weight_filler {
        type: "gaussian"
        mean: 0
        std: 0.01
      }
      bias_filler {
        type: "constant"
      }
    }
  }
  layer {
    name: "rpn_big_conv2_relu"
    type: "ReLU"
    bottom: "rpn_big_conv2"
    top: "rpn_big_conv2"
    relu_param {
      negative_slope: 0
    }
  }
  layer {
    name: "rpn_big_conv2_drop"
    type: "Dropout"
    bottom: "rpn_big_conv2"
    top: "rpn_big_conv2"
    dropout_param {
      dropout_ratio: 0.3
    }
  }
  layer {
    name: "rpn_big_output_cls"
    type: "Convolution"
    bottom: "rpn_big_conv2"
    top: "rpn_big_output_cls"
    param {
      lr_mult: 1
    }
    param {
      lr_mult: 2
    }
    convolution_param {
      num_output: 384
      pad: 1
      kernel_size: 3
      stride: 1
      weight_filler {
        type: "gaussian"
        mean: 0
        std: 0.01
      }
      bias_filler {
        type: "constant"
      }
    }
  }
  layer {
    name: "rpn_big_output_cls_relu"
    type: "ReLU"
    bottom: "rpn_big_output_cls"
    top: "rpn_big_output_cls"
    relu_param {
      negative_slope: 0
    }
  }
  layer {
    name: "rpn_big_cls_score"
    type: "Convolution"
    bottom: "rpn_big_output_cls"
    top: "rpn_big_cls_score"
    param {
      lr_mult: 1
    }
    param {
      lr_mult: 2
    }
    convolution_param {
      num_output: 52
      pad: 0
      kernel_size: 3
      stride: 1
      weight_filler {
        type: "gaussian"
        mean: 0
        std: 0.01
      }
      bias_filler {
        type: "constant"
      }
    }
  }
  layer {
    name: "rpn_big_cls_score_reshape"
    type: "Reshape"
    bottom: "rpn_big_cls_score"
    top: "rpn_big_cls_score_reshape"
    reshape_param {
      shape {
        dim: 0
        dim: 2
        dim: -1
        dim: 0
      }
    }
  }
  layer {
    name: "rpn_big_cls_prob"
    type: "Softmax"
    bottom: "rpn_big_cls_score_reshape"
    top: "rpn_big_cls_prob"
  }
  layer {
    name: "rpn_big_cls_prob_reshape"
    type: "Reshape"
    bottom: "rpn_big_cls_prob"
    top: "rpn_big_cls_prob_reshape"
    reshape_param {
      shape {
        dim: 0
        dim: 52
        dim: -1
        dim: 0
      }
    }
  }
  layer {
    name: "rpn_big_anchor_target"
    type: "Python"
    bottom: "rpn_big_cls_score"
    bottom: "input_gt_boxes"
    bottom: "input_ignored_boxes"
    bottom: "input_im_info"
    bottom: "input_data"
    bottom: "rpn_big_cls_prob_reshape"
    top: "rpn_big_anchor_target_labels"
    top: "rpn_big_anchor_target_bbox_targets"
    top: "rpn_big_anchor_target_inside_weights"
    top: "rpn_big_anchor_target_outside_weights"
    python_param {
      module: "rpn.anchor_target_layer"
      layer: "AnchorTargetLayer"
      param_str: "{\"negative_overlap\": 0.4, \"num_classes\": 1, \"anchor_shift_num_xy\": [[2, 2], [2, 2], [2, 2], [2, 2], [1, 1], [1, 1], [1, 1], [1, 1], [1, 1], [1, 1], [1, 1], [1, 1], [1, 1], [1, 1]], \"name\": \"rpn_big\", \"tn_fraction\": 0.2, \"fg_fraction\": 0.5, \"feat_stride\": 16, \"anchor_scales\": [2.5, 3.025, 3.66025, 4.4289024999999995, 5.358972025, 6.484356150249999, 7.846070941802498, 9.493745839581022, 11.487432465893036, 13.899793283730574, 16.818749873313998, 20.350687346709933, 24.62433168951902, 29.795441344318014], \"anchor_ratios\": [1.0], \"batchsize\": 256, \"positive_overlap\": 0.6, \"square_targets\": true}"
    }
  }
  layer {
    name: "rpn_big_loss_cls"
    type: "SoftmaxWithLoss"
    bottom: "rpn_big_cls_score_reshape"
    bottom: "rpn_big_anchor_target_labels"
    top: "rpn_big_loss_cls"
    loss_weight: 1
    propagate_down: true
    propagate_down: false
    loss_param {
      ignore_label: -1
      normalization: VALID
    }
  }
  layer {
    name: "rpn_big_output_box"
    type: "Convolution"
    bottom: "rpn_big_conv2"
    top: "rpn_big_output_box"
    param {
      lr_mult: 1
    }
    param {
      lr_mult: 2
    }
    convolution_param {
      num_output: 384
      pad: 1
      kernel_size: 3
      stride: 1
      weight_filler {
        type: "gaussian"
        mean: 0
        std: 0.01
      }
      bias_filler {
        type: "constant"
      }
    }
  }
  layer {
    name: "rpn_big_output_box_relu"
    type: "ReLU"
    bottom: "rpn_big_output_box"
    top: "rpn_big_output_box"
    relu_param {
      negative_slope: 0
    }
  }
  layer {
    name: "rpn_big_bbox_pred"
    type: "Convolution"
    bottom: "rpn_big_output_box"
    top: "rpn_big_bbox_pred"
    param {
      lr_mult: 1
    }
    param {
      lr_mult: 2
    }
    convolution_param {
      num_output: 104
      pad: 0
      kernel_size: 3
      stride: 1
      weight_filler {
        type: "gaussian"
        mean: 0
        std: 0.01
      }
      bias_filler {
        type: "constant"
      }
    }
  }
  layer {
    name: "rpn_big_loss_bbox"
    type: "Python"
    bottom: "rpn_big_bbox_pred"
    bottom: "rpn_big_anchor_target_bbox_targets"
    bottom: "rpn_big_anchor_target_inside_weights"
    bottom: "rpn_big_anchor_target_outside_weights"
    top: "rpn_big_loss_bbox"
    loss_weight: 1
    python_param {
      module: "layers.smooth_l1_loss"
      layer: "SmoothL1LossLayer"
      param_str: "{\"sigma\": 3}"
    }
  }
}
average_loss: 100
stepvalue: 70000
stepvalue: 120000
iter_size: 2
I0406 15:12:23.122233  6117 solver.cpp:86] Creating training net specified in net_param.
I0406 15:12:23.122789  6117 net.cpp:49] Initializing net from parameters: 
name: "GeneratedModel_06_04_2017_15_12"
state {
  phase: TRAIN
}
layer {
  name: "input"
  type: "Python"
  top: "input_data"
  top: "input_im_info"
  top: "input_gt_boxes"
  top: "input_ignored_boxes"
  python_param {
    module: "layers.roi_data_layer"
    layer: "RoIDataLayer"
    param_str: "{\"num_classes\": 2}"
  }
}
layer {
  name: "conv1_1"
  type: "Convolution"
  bottom: "input_data"
  top: "conv1_1"
  param {
    lr_mult: 0
    decay_mult: 0
  }
  param {
    lr_mult: 0
    decay_mult: 0
  }
  convolution_param {
    num_output: 64
    pad: 1
    kernel_size: 3
  }
}
layer {
  name: "relu1_1"
  type: "ReLU"
  bottom: "conv1_1"
  top: "conv1_1"
}
layer {
  name: "conv1_2"
  type: "Convolution"
  bottom: "conv1_1"
  top: "conv1_2"
  param {
    lr_mult: 0
    decay_mult: 0
  }
  param {
    lr_mult: 0
    decay_mult: 0
  }
  convolution_param {
    num_output: 64
    pad: 1
    kernel_size: 3
  }
}
layer {
  name: "relu1_2"
  type: "ReLU"
  bottom: "conv1_2"
  top: "conv1_2"
}
layer {
  name: "pool1"
  type: "Pooling"
  bottom: "conv1_2"
  top: "pool1"
  pooling_param {
    pool: MAX
    kernel_size: 2
    stride: 2
  }
}
layer {
  name: "conv2_1"
  type: "Convolution"
  bottom: "pool1"
  top: "conv2_1"
  param {
    lr_mult: 0
    decay_mult: 0
  }
  param {
    lr_mult: 0
    decay_mult: 0
  }
  convolution_param {
    num_output: 128
    pad: 1
    kernel_size: 3
  }
}
layer {
  name: "relu2_1"
  type: "ReLU"
  bottom: "conv2_1"
  top: "conv2_1"
}
layer {
  name: "conv2_2"
  type: "Convolution"
  bottom: "conv2_1"
  top: "conv2_2"
  param {
    lr_mult: 0
    decay_mult: 0
  }
  param {
    lr_mult: 0
    decay_mult: 0
  }
  convolution_param {
    num_output: 128
    pad: 1
    kernel_size: 3
  }
}
layer {
  name: "relu2_2"
  type: "ReLU"
  bottom: "conv2_2"
  top: "conv2_2"
}
layer {
  name: "pool2"
  type: "Pooling"
  bottom: "conv2_2"
  top: "pool2"
  pooling_param {
    pool: MAX
    kernel_size: 2
    stride: 2
  }
}
layer {
  name: "conv3_1"
  type: "Convolution"
  bottom: "pool2"
  top: "conv3_1"
  param {
    lr_mult: 1
  }
  param {
    lr_mult: 2
  }
  convolution_param {
    num_output: 256
    pad: 1
    kernel_size: 3
  }
}
layer {
  name: "relu3_1"
  type: "ReLU"
  bottom: "conv3_1"
  top: "conv3_1"
}
layer {
  name: "conv3_2"
  type: "Convolution"
  bottom: "conv3_1"
  top: "conv3_2"
  param {
    lr_mult: 1
  }
  param {
    lr_mult: 2
  }
  convolution_param {
    num_output: 256
    pad: 1
    kernel_size: 3
  }
}
layer {
  name: "relu3_2"
  type: "ReLU"
  bottom: "conv3_2"
  top: "conv3_2"
}
layer {
  name: "conv3_3"
  type: "Convolution"
  bottom: "conv3_2"
  top: "conv3_3"
  param {
    lr_mult: 1
  }
  param {
    lr_mult: 2
  }
  convolution_param {
    num_output: 256
    pad: 1
    kernel_size: 3
  }
}
layer {
  name: "relu3_3"
  type: "ReLU"
  bottom: "conv3_3"
  top: "conv3_3"
}
layer {
  name: "pool3"
  type: "Pooling"
  bottom: "conv3_3"
  top: "pool3"
  pooling_param {
    pool: MAX
    kernel_size: 2
    stride: 2
  }
}
layer {
  name: "conv4_1"
  type: "Convolution"
  bottom: "pool3"
  top: "conv4_1"
  param {
    lr_mult: 1
  }
  param {
    lr_mult: 2
  }
  convolution_param {
    num_output: 512
    pad: 1
    kernel_size: 3
  }
}
layer {
  name: "relu4_1"
  type: "ReLU"
  bottom: "conv4_1"
  top: "conv4_1"
}
layer {
  name: "conv4_2"
  type: "Convolution"
  bottom: "conv4_1"
  top: "conv4_2"
  param {
    lr_mult: 1
  }
  param {
    lr_mult: 2
  }
  convolution_param {
    num_output: 512
    pad: 1
    kernel_size: 3
  }
}
layer {
  name: "relu4_2"
  type: "ReLU"
  bottom: "conv4_2"
  top: "conv4_2"
}
layer {
  name: "conv4_3"
  type: "Convolution"
  bottom: "conv4_2"
  top: "conv4_3"
  param {
    lr_mult: 1
  }
  param {
    lr_mult: 2
  }
  convolution_param {
    num_output: 512
    pad: 1
    kernel_size: 3
  }
}
layer {
  name: "relu4_3"
  type: "ReLU"
  bottom: "conv4_3"
  top: "conv4_3"
}
layer {
  name: "pool4"
  type: "Pooling"
  bottom: "conv4_3"
  top: "pool4"
  pooling_param {
    pool: MAX
    kernel_size: 2
    stride: 2
  }
}
layer {
  name: "conv5_1"
  type: "Convolution"
  bottom: "pool4"
  top: "conv5_1"
  param {
    lr_mult: 1
  }
  param {
    lr_mult: 2
  }
  convolution_param {
    num_output: 512
    pad: 1
    kernel_size: 3
  }
}
layer {
  name: "relu5_1"
  type: "ReLU"
  bottom: "conv5_1"
  top: "conv5_1"
}
layer {
  name: "conv5_2"
  type: "Convolution"
  bottom: "conv5_1"
  top: "conv5_2"
  param {
    lr_mult: 1
  }
  param {
    lr_mult: 2
  }
  convolution_param {
    num_output: 512
    pad: 1
    kernel_size: 3
  }
}
layer {
  name: "relu5_2"
  type: "ReLU"
  bottom: "conv5_2"
  top: "conv5_2"
}
layer {
  name: "conv5_3"
  type: "Convolution"
  bottom: "conv5_2"
  top: "conv5_3"
  param {
    lr_mult: 1
  }
  param {
    lr_mult: 2
  }
  convolution_param {
    num_output: 512
    pad: 1
    kernel_size: 3
  }
}
layer {
  name: "relu5_3"
  type: "ReLU"
  bottom: "conv5_3"
  top: "conv5_3"
}
layer {
  name: "rpn_big_conv1"
  type: "Convolution"
  bottom: "conv5_3"
  top: "rpn_big_conv1"
  param {
    lr_mult: 1
  }
  param {
    lr_mult: 2
  }
  convolution_param {
    num_output: 512
    pad: 1
    kernel_size: 3
    stride: 1
    weight_filler {
      type: "gaussian"
      mean: 0
      std: 0.01
    }
    bias_filler {
      type: "constant"
    }
  }
}
layer {
  name: "rpn_big_conv1_relu"
  type: "ReLU"
  bottom: "rpn_big_conv1"
  top: "rpn_big_conv1"
  relu_param {
    negative_slope: 0
  }
}
layer {
  name: "rpn_big_conv2"
  type: "Convolution"
  bottom: "rpn_big_conv1"
  top: "rpn_big_conv2"
  param {
    lr_mult: 1
  }
  param {
    lr_mult: 2
  }
  convolution_param {
    num_output: 512
    pad: 1
    kernel_size: 3
    stride: 1
    weight_filler {
      type: "gaussian"
      mean: 0
      std: 0.01
    }
    bias_filler {
      type: "constant"
    }
  }
}
layer {
  name: "rpn_big_conv2_relu"
  type: "ReLU"
  bottom: "rpn_big_conv2"
  top: "rpn_big_conv2"
  relu_param {
    negative_slope: 0
  }
}
layer {
  name: "rpn_big_conv2_drop"
  type: "Dropout"
  bottom: "rpn_big_conv2"
  top: "rpn_big_conv2"
  dropout_param {
    dropout_ratio: 0.3
  }
}
layer {
  name: "rpn_big_output_cls"
  type: "Convolution"
  bottom: "rpn_big_conv2"
  top: "rpn_big_output_cls"
  param {
    lr_mult: 1
  }
  param {
    lr_mult: 2
  }
  convolution_param {
    num_output: 384
    pad: 1
    kernel_size: 3
    stride: 1
    weight_filler {
      type: "gaussian"
      mean: 0
      std: 0.01
    }
    bias_filler {
      type: "constant"
    }
  }
}
layer {
  name: "rpn_big_output_cls_relu"
  type: "ReLU"
  bottom: "rpn_big_output_cls"
  top: "rpn_big_output_cls"
  relu_param {
    negative_slope: 0
  }
}
layer {
  name: "rpn_big_cls_score"
  type: "Convolution"
  bottom: "rpn_big_output_cls"
  top: "rpn_big_cls_score"
  param {
    lr_mult: 1
  }
  param {
    lr_mult: 2
  }
  convolution_param {
    num_output: 52
    pad: 0
    kernel_size: 3
    stride: 1
    weight_filler {
      type: "gaussian"
      mean: 0
      std: 0.01
    }
    bias_filler {
      type: "constant"
    }
  }
}
layer {
  name: "rpn_big_cls_score_reshape"
  type: "Reshape"
  bottom: "rpn_big_cls_score"
  top: "rpn_big_cls_score_reshape"
  reshape_param {
    shape {
      dim: 0
      dim: 2
      dim: -1
      dim: 0
    }
  }
}
layer {
  name: "rpn_big_cls_prob"
  type: "Softmax"
  bottom: "rpn_big_cls_score_reshape"
  top: "rpn_big_cls_prob"
}
layer {
  name: "rpn_big_cls_prob_reshape"
  type: "Reshape"
  bottom: "rpn_big_cls_prob"
  top: "rpn_big_cls_prob_reshape"
  reshape_param {
    shape {
      dim: 0
      dim: 52
      dim: -1
      dim: 0
    }
  }
}
layer {
  name: "rpn_big_anchor_target"
  type: "Python"
  bottom: "rpn_big_cls_score"
  bottom: "input_gt_boxes"
  bottom: "input_ignored_boxes"
  bottom: "input_im_info"
  bottom: "input_data"
  bottom: "rpn_big_cls_prob_reshape"
  top: "rpn_big_anchor_target_labels"
  top: "rpn_big_anchor_target_bbox_targets"
  top: "rpn_big_anchor_target_inside_weights"
  top: "rpn_big_anchor_target_outside_weights"
  python_param {
    module: "rpn.anchor_target_layer"
    layer: "AnchorTargetLayer"
    param_str: "{\"negative_overlap\": 0.4, \"num_classes\": 1, \"anchor_shift_num_xy\": [[2, 2], [2, 2], [2, 2], [2, 2], [1, 1], [1, 1], [1, 1], [1, 1], [1, 1], [1, 1], [1, 1], [1, 1], [1, 1], [1, 1]], \"name\": \"rpn_big\", \"tn_fraction\": 0.2, \"fg_fraction\": 0.5, \"feat_stride\": 16, \"anchor_scales\": [2.5, 3.025, 3.66025, 4.4289024999999995, 5.358972025, 6.484356150249999, 7.846070941802498, 9.493745839581022, 11.487432465893036, 13.899793283730574, 16.818749873313998, 20.350687346709933, 24.62433168951902, 29.795441344318014], \"anchor_ratios\": [1.0], \"batchsize\": 256, \"positive_overlap\": 0.6, \"square_targets\": true}"
  }
}
layer {
  name: "rpn_big_loss_cls"
  type: "SoftmaxWithLoss"
  bottom: "rpn_big_cls_score_reshape"
  bottom: "rpn_big_anchor_target_labels"
  top: "rpn_big_loss_cls"
  loss_weight: 1
  propagate_down: true
  propagate_down: false
  loss_param {
    ignore_label: -1
    normalization: VALID
  }
}
layer {
  name: "rpn_big_output_box"
  type: "Convolution"
  bottom: "rpn_big_conv2"
  top: "rpn_big_output_box"
  param {
    lr_mult: 1
  }
  param {
    lr_mult: 2
  }
  convolution_param {
    num_output: 384
    pad: 1
    kernel_size: 3
    stride: 1
    weight_filler {
      type: "gaussian"
      mean: 0
      std: 0.01
    }
    bias_filler {
      type: "constant"
    }
  }
}
layer {
  name: "rpn_big_output_box_relu"
  type: "ReLU"
  bottom: "rpn_big_output_box"
  top: "rpn_big_output_box"
  relu_param {
    negative_slope: 0
  }
}
layer {
  name: "rpn_big_bbox_pred"
  type: "Convolution"
  bottom: "rpn_big_output_box"
  top: "rpn_big_bbox_pred"
  param {
    lr_mult: 1
  }
  param {
    lr_mult: 2
  }
  convolution_param {
    num_output: 104
    pad: 0
    kernel_size: 3
    stride: 1
    weight_filler {
      type: "gaussian"
      mean: 0
      std: 0.01
    }
    bias_filler {
      type: "constant"
    }
  }
}
layer {
  name: "rpn_big_loss_bbox"
  type: "Python"
  bottom: "rpn_big_bbox_pred"
  bottom: "rpn_big_anchor_target_bbox_targets"
  bottom: "rpn_big_anchor_target_inside_weights"
  bottom: "rpn_big_anchor_target_outside_weights"
  top: "rpn_big_loss_bbox"
  loss_weight: 1
  python_param {
    module: "layers.smooth_l1_loss"
    layer: "SmoothL1LossLayer"
    param_str: "{\"sigma\": 3}"
  }
}
I0406 15:12:23.123060  6117 layer_factory.hpp:77] Creating layer input
I0406 15:12:23.127884  6117 net.cpp:106] Creating Layer input
I0406 15:12:23.127914  6117 net.cpp:411] input -> input_data
I0406 15:12:23.127931  6117 net.cpp:411] input -> input_im_info
I0406 15:12:23.127943  6117 net.cpp:411] input -> input_gt_boxes
I0406 15:12:23.127954  6117 net.cpp:411] input -> input_ignored_boxes
RoiDataLayer: name_to_top: {'im_info': 1, 'data': 0, 'ignored_boxes': 3, 'gt_boxes': 2}
I0406 15:12:28.195868  6117 net.cpp:150] Setting up input
I0406 15:12:28.196070  6117 net.cpp:157] Top shape: 1 3 1000 1500 (4500000)
I0406 15:12:28.196110  6117 net.cpp:157] Top shape: 1 3 (3)
I0406 15:12:28.196142  6117 net.cpp:157] Top shape: 1 5 (5)
I0406 15:12:28.196161  6117 net.cpp:157] Top shape: 1 5 (5)
I0406 15:12:28.196173  6117 net.cpp:165] Memory required for data: 18000052
I0406 15:12:28.196192  6117 layer_factory.hpp:77] Creating layer input_data_input_0_split
I0406 15:12:28.196229  6117 net.cpp:106] Creating Layer input_data_input_0_split
I0406 15:12:28.196262  6117 net.cpp:454] input_data_input_0_split <- input_data
I0406 15:12:28.196300  6117 net.cpp:411] input_data_input_0_split -> input_data_input_0_split_0
I0406 15:12:28.196339  6117 net.cpp:411] input_data_input_0_split -> input_data_input_0_split_1
I0406 15:12:28.196526  6117 net.cpp:150] Setting up input_data_input_0_split
I0406 15:12:28.196561  6117 net.cpp:157] Top shape: 1 3 1000 1500 (4500000)
I0406 15:12:28.196594  6117 net.cpp:157] Top shape: 1 3 1000 1500 (4500000)
I0406 15:12:28.196609  6117 net.cpp:165] Memory required for data: 54000052
I0406 15:12:28.196624  6117 layer_factory.hpp:77] Creating layer conv1_1
I0406 15:12:28.196681  6117 net.cpp:106] Creating Layer conv1_1
I0406 15:12:28.196702  6117 net.cpp:454] conv1_1 <- input_data_input_0_split_0
I0406 15:12:28.196743  6117 net.cpp:411] conv1_1 -> conv1_1
I0406 15:12:28.204144  6117 net.cpp:150] Setting up conv1_1
I0406 15:12:28.204205  6117 net.cpp:157] Top shape: 1 64 1000 1500 (96000000)
I0406 15:12:28.204216  6117 net.cpp:165] Memory required for data: 438000052
I0406 15:12:28.204262  6117 layer_factory.hpp:77] Creating layer relu1_1
I0406 15:12:28.204305  6117 net.cpp:106] Creating Layer relu1_1
I0406 15:12:28.204326  6117 net.cpp:454] relu1_1 <- conv1_1
I0406 15:12:28.204350  6117 net.cpp:397] relu1_1 -> conv1_1 (in-place)
I0406 15:12:28.204380  6117 net.cpp:150] Setting up relu1_1
I0406 15:12:28.204397  6117 net.cpp:157] Top shape: 1 64 1000 1500 (96000000)
I0406 15:12:28.204427  6117 net.cpp:165] Memory required for data: 822000052
I0406 15:12:28.204442  6117 layer_factory.hpp:77] Creating layer conv1_2
I0406 15:12:28.204480  6117 net.cpp:106] Creating Layer conv1_2
I0406 15:12:28.204495  6117 net.cpp:454] conv1_2 <- conv1_1
I0406 15:12:28.204516  6117 net.cpp:411] conv1_2 -> conv1_2
I0406 15:12:28.211872  6117 net.cpp:150] Setting up conv1_2
I0406 15:12:28.211935  6117 net.cpp:157] Top shape: 1 64 1000 1500 (96000000)
I0406 15:12:28.211946  6117 net.cpp:165] Memory required for data: 1206000052
I0406 15:12:28.211985  6117 layer_factory.hpp:77] Creating layer relu1_2
I0406 15:12:28.212023  6117 net.cpp:106] Creating Layer relu1_2
I0406 15:12:28.212045  6117 net.cpp:454] relu1_2 <- conv1_2
I0406 15:12:28.212071  6117 net.cpp:397] relu1_2 -> conv1_2 (in-place)
I0406 15:12:28.212102  6117 net.cpp:150] Setting up relu1_2
I0406 15:12:28.212124  6117 net.cpp:157] Top shape: 1 64 1000 1500 (96000000)
I0406 15:12:28.212138  6117 net.cpp:165] Memory required for data: 1590000052
I0406 15:12:28.212153  6117 layer_factory.hpp:77] Creating layer pool1
I0406 15:12:28.212182  6117 net.cpp:106] Creating Layer pool1
I0406 15:12:28.212198  6117 net.cpp:454] pool1 <- conv1_2
I0406 15:12:28.212222  6117 net.cpp:411] pool1 -> pool1
I0406 15:12:28.212446  6117 net.cpp:150] Setting up pool1
I0406 15:12:28.212478  6117 net.cpp:157] Top shape: 1 64 500 750 (24000000)
I0406 15:12:28.212492  6117 net.cpp:165] Memory required for data: 1686000052
I0406 15:12:28.212507  6117 layer_factory.hpp:77] Creating layer conv2_1
I0406 15:12:28.212538  6117 net.cpp:106] Creating Layer conv2_1
I0406 15:12:28.212556  6117 net.cpp:454] conv2_1 <- pool1
I0406 15:12:28.212581  6117 net.cpp:411] conv2_1 -> conv2_1
I0406 15:12:28.215662  6117 net.cpp:150] Setting up conv2_1
I0406 15:12:28.215698  6117 net.cpp:157] Top shape: 1 128 500 750 (48000000)
I0406 15:12:28.215708  6117 net.cpp:165] Memory required for data: 1878000052
I0406 15:12:28.215741  6117 layer_factory.hpp:77] Creating layer relu2_1
I0406 15:12:28.215777  6117 net.cpp:106] Creating Layer relu2_1
I0406 15:12:28.215795  6117 net.cpp:454] relu2_1 <- conv2_1
I0406 15:12:28.215814  6117 net.cpp:397] relu2_1 -> conv2_1 (in-place)
I0406 15:12:28.215842  6117 net.cpp:150] Setting up relu2_1
I0406 15:12:28.215862  6117 net.cpp:157] Top shape: 1 128 500 750 (48000000)
I0406 15:12:28.215874  6117 net.cpp:165] Memory required for data: 2070000052
I0406 15:12:28.215888  6117 layer_factory.hpp:77] Creating layer conv2_2
I0406 15:12:28.215920  6117 net.cpp:106] Creating Layer conv2_2
I0406 15:12:28.215936  6117 net.cpp:454] conv2_2 <- conv2_1
I0406 15:12:28.215957  6117 net.cpp:411] conv2_2 -> conv2_2
I0406 15:12:28.218389  6117 net.cpp:150] Setting up conv2_2
I0406 15:12:28.218432  6117 net.cpp:157] Top shape: 1 128 500 750 (48000000)
I0406 15:12:28.218441  6117 net.cpp:165] Memory required for data: 2262000052
I0406 15:12:28.218468  6117 layer_factory.hpp:77] Creating layer relu2_2
I0406 15:12:28.218497  6117 net.cpp:106] Creating Layer relu2_2
I0406 15:12:28.218516  6117 net.cpp:454] relu2_2 <- conv2_2
I0406 15:12:28.218539  6117 net.cpp:397] relu2_2 -> conv2_2 (in-place)
I0406 15:12:28.218565  6117 net.cpp:150] Setting up relu2_2
I0406 15:12:28.218587  6117 net.cpp:157] Top shape: 1 128 500 750 (48000000)
I0406 15:12:28.218601  6117 net.cpp:165] Memory required for data: 2454000052
I0406 15:12:28.218613  6117 layer_factory.hpp:77] Creating layer pool2
I0406 15:12:28.218638  6117 net.cpp:106] Creating Layer pool2
I0406 15:12:28.218655  6117 net.cpp:454] pool2 <- conv2_2
I0406 15:12:28.218678  6117 net.cpp:411] pool2 -> pool2
I0406 15:12:28.218806  6117 net.cpp:150] Setting up pool2
I0406 15:12:28.218830  6117 net.cpp:157] Top shape: 1 128 250 375 (12000000)
I0406 15:12:28.218845  6117 net.cpp:165] Memory required for data: 2502000052
I0406 15:12:28.218864  6117 layer_factory.hpp:77] Creating layer conv3_1
I0406 15:12:28.218896  6117 net.cpp:106] Creating Layer conv3_1
I0406 15:12:28.218912  6117 net.cpp:454] conv3_1 <- pool2
I0406 15:12:28.218937  6117 net.cpp:411] conv3_1 -> conv3_1
I0406 15:12:28.221721  6117 net.cpp:150] Setting up conv3_1
I0406 15:12:28.221765  6117 net.cpp:157] Top shape: 1 256 250 375 (24000000)
I0406 15:12:28.221774  6117 net.cpp:165] Memory required for data: 2598000052
I0406 15:12:28.221808  6117 layer_factory.hpp:77] Creating layer relu3_1
I0406 15:12:28.221843  6117 net.cpp:106] Creating Layer relu3_1
I0406 15:12:28.221859  6117 net.cpp:454] relu3_1 <- conv3_1
I0406 15:12:28.221884  6117 net.cpp:397] relu3_1 -> conv3_1 (in-place)
I0406 15:12:28.221910  6117 net.cpp:150] Setting up relu3_1
I0406 15:12:28.221931  6117 net.cpp:157] Top shape: 1 256 250 375 (24000000)
I0406 15:12:28.221946  6117 net.cpp:165] Memory required for data: 2694000052
I0406 15:12:28.221958  6117 layer_factory.hpp:77] Creating layer conv3_2
I0406 15:12:28.221983  6117 net.cpp:106] Creating Layer conv3_2
I0406 15:12:28.222000  6117 net.cpp:454] conv3_2 <- conv3_1
I0406 15:12:28.222023  6117 net.cpp:411] conv3_2 -> conv3_2
I0406 15:12:28.225006  6117 net.cpp:150] Setting up conv3_2
I0406 15:12:28.225054  6117 net.cpp:157] Top shape: 1 256 250 375 (24000000)
I0406 15:12:28.225064  6117 net.cpp:165] Memory required for data: 2790000052
I0406 15:12:28.225080  6117 layer_factory.hpp:77] Creating layer relu3_2
I0406 15:12:28.225097  6117 net.cpp:106] Creating Layer relu3_2
I0406 15:12:28.225106  6117 net.cpp:454] relu3_2 <- conv3_2
I0406 15:12:28.225121  6117 net.cpp:397] relu3_2 -> conv3_2 (in-place)
I0406 15:12:28.225141  6117 net.cpp:150] Setting up relu3_2
I0406 15:12:28.225149  6117 net.cpp:157] Top shape: 1 256 250 375 (24000000)
I0406 15:12:28.225157  6117 net.cpp:165] Memory required for data: 2886000052
I0406 15:12:28.225163  6117 layer_factory.hpp:77] Creating layer conv3_3
I0406 15:12:28.225186  6117 net.cpp:106] Creating Layer conv3_3
I0406 15:12:28.225195  6117 net.cpp:454] conv3_3 <- conv3_2
I0406 15:12:28.225208  6117 net.cpp:411] conv3_3 -> conv3_3
I0406 15:12:28.228456  6117 net.cpp:150] Setting up conv3_3
I0406 15:12:28.228495  6117 net.cpp:157] Top shape: 1 256 250 375 (24000000)
I0406 15:12:28.228502  6117 net.cpp:165] Memory required for data: 2982000052
I0406 15:12:28.228519  6117 layer_factory.hpp:77] Creating layer relu3_3
I0406 15:12:28.228535  6117 net.cpp:106] Creating Layer relu3_3
I0406 15:12:28.228544  6117 net.cpp:454] relu3_3 <- conv3_3
I0406 15:12:28.228559  6117 net.cpp:397] relu3_3 -> conv3_3 (in-place)
I0406 15:12:28.228575  6117 net.cpp:150] Setting up relu3_3
I0406 15:12:28.228585  6117 net.cpp:157] Top shape: 1 256 250 375 (24000000)
I0406 15:12:28.228590  6117 net.cpp:165] Memory required for data: 3078000052
I0406 15:12:28.228596  6117 layer_factory.hpp:77] Creating layer pool3
I0406 15:12:28.228607  6117 net.cpp:106] Creating Layer pool3
I0406 15:12:28.228615  6117 net.cpp:454] pool3 <- conv3_3
I0406 15:12:28.228624  6117 net.cpp:411] pool3 -> pool3
I0406 15:12:28.228704  6117 net.cpp:150] Setting up pool3
I0406 15:12:28.228718  6117 net.cpp:157] Top shape: 1 256 125 188 (6016000)
I0406 15:12:28.228724  6117 net.cpp:165] Memory required for data: 3102064052
I0406 15:12:28.228731  6117 layer_factory.hpp:77] Creating layer conv4_1
I0406 15:12:28.228754  6117 net.cpp:106] Creating Layer conv4_1
I0406 15:12:28.228766  6117 net.cpp:454] conv4_1 <- pool3
I0406 15:12:28.228788  6117 net.cpp:411] conv4_1 -> conv4_1
I0406 15:12:28.235033  6117 net.cpp:150] Setting up conv4_1
I0406 15:12:28.235085  6117 net.cpp:157] Top shape: 1 512 125 188 (12032000)
I0406 15:12:28.235093  6117 net.cpp:165] Memory required for data: 3150192052
I0406 15:12:28.235121  6117 layer_factory.hpp:77] Creating layer relu4_1
I0406 15:12:28.235142  6117 net.cpp:106] Creating Layer relu4_1
I0406 15:12:28.235157  6117 net.cpp:454] relu4_1 <- conv4_1
I0406 15:12:28.235175  6117 net.cpp:397] relu4_1 -> conv4_1 (in-place)
I0406 15:12:28.235203  6117 net.cpp:150] Setting up relu4_1
I0406 15:12:28.235231  6117 net.cpp:157] Top shape: 1 512 125 188 (12032000)
I0406 15:12:28.235251  6117 net.cpp:165] Memory required for data: 3198320052
I0406 15:12:28.235262  6117 layer_factory.hpp:77] Creating layer conv4_2
I0406 15:12:28.235287  6117 net.cpp:106] Creating Layer conv4_2
I0406 15:12:28.235302  6117 net.cpp:454] conv4_2 <- conv4_1
I0406 15:12:28.235323  6117 net.cpp:411] conv4_2 -> conv4_2
I0406 15:12:28.243716  6117 net.cpp:150] Setting up conv4_2
I0406 15:12:28.243767  6117 net.cpp:157] Top shape: 1 512 125 188 (12032000)
I0406 15:12:28.243775  6117 net.cpp:165] Memory required for data: 3246448052
I0406 15:12:28.243803  6117 layer_factory.hpp:77] Creating layer relu4_2
I0406 15:12:28.243821  6117 net.cpp:106] Creating Layer relu4_2
I0406 15:12:28.243831  6117 net.cpp:454] relu4_2 <- conv4_2
I0406 15:12:28.243851  6117 net.cpp:397] relu4_2 -> conv4_2 (in-place)
I0406 15:12:28.243873  6117 net.cpp:150] Setting up relu4_2
I0406 15:12:28.243890  6117 net.cpp:157] Top shape: 1 512 125 188 (12032000)
I0406 15:12:28.243899  6117 net.cpp:165] Memory required for data: 3294576052
I0406 15:12:28.243911  6117 layer_factory.hpp:77] Creating layer conv4_3
I0406 15:12:28.243937  6117 net.cpp:106] Creating Layer conv4_3
I0406 15:12:28.243952  6117 net.cpp:454] conv4_3 <- conv4_2
I0406 15:12:28.243973  6117 net.cpp:411] conv4_3 -> conv4_3
I0406 15:12:28.252024  6117 net.cpp:150] Setting up conv4_3
I0406 15:12:28.252070  6117 net.cpp:157] Top shape: 1 512 125 188 (12032000)
I0406 15:12:28.252077  6117 net.cpp:165] Memory required for data: 3342704052
I0406 15:12:28.252094  6117 layer_factory.hpp:77] Creating layer relu4_3
I0406 15:12:28.252110  6117 net.cpp:106] Creating Layer relu4_3
I0406 15:12:28.252118  6117 net.cpp:454] relu4_3 <- conv4_3
I0406 15:12:28.252138  6117 net.cpp:397] relu4_3 -> conv4_3 (in-place)
I0406 15:12:28.252161  6117 net.cpp:150] Setting up relu4_3
I0406 15:12:28.252182  6117 net.cpp:157] Top shape: 1 512 125 188 (12032000)
I0406 15:12:28.252194  6117 net.cpp:165] Memory required for data: 3390832052
I0406 15:12:28.252204  6117 layer_factory.hpp:77] Creating layer pool4
I0406 15:12:28.252220  6117 net.cpp:106] Creating Layer pool4
I0406 15:12:28.252234  6117 net.cpp:454] pool4 <- conv4_3
I0406 15:12:28.252252  6117 net.cpp:411] pool4 -> pool4
I0406 15:12:28.252347  6117 net.cpp:150] Setting up pool4
I0406 15:12:28.252368  6117 net.cpp:157] Top shape: 1 512 63 94 (3032064)
I0406 15:12:28.252382  6117 net.cpp:165] Memory required for data: 3402960308
I0406 15:12:28.252393  6117 layer_factory.hpp:77] Creating layer conv5_1
I0406 15:12:28.252439  6117 net.cpp:106] Creating Layer conv5_1
I0406 15:12:28.252456  6117 net.cpp:454] conv5_1 <- pool4
I0406 15:12:28.252482  6117 net.cpp:411] conv5_1 -> conv5_1
I0406 15:12:28.260833  6117 net.cpp:150] Setting up conv5_1
I0406 15:12:28.260879  6117 net.cpp:157] Top shape: 1 512 63 94 (3032064)
I0406 15:12:28.260885  6117 net.cpp:165] Memory required for data: 3415088564
I0406 15:12:28.260906  6117 layer_factory.hpp:77] Creating layer relu5_1
I0406 15:12:28.260932  6117 net.cpp:106] Creating Layer relu5_1
I0406 15:12:28.260949  6117 net.cpp:454] relu5_1 <- conv5_1
I0406 15:12:28.260969  6117 net.cpp:397] relu5_1 -> conv5_1 (in-place)
I0406 15:12:28.260993  6117 net.cpp:150] Setting up relu5_1
I0406 15:12:28.261008  6117 net.cpp:157] Top shape: 1 512 63 94 (3032064)
I0406 15:12:28.261018  6117 net.cpp:165] Memory required for data: 3427216820
I0406 15:12:28.261029  6117 layer_factory.hpp:77] Creating layer conv5_2
I0406 15:12:28.261055  6117 net.cpp:106] Creating Layer conv5_2
I0406 15:12:28.261068  6117 net.cpp:454] conv5_2 <- conv5_1
I0406 15:12:28.261087  6117 net.cpp:411] conv5_2 -> conv5_2
I0406 15:12:28.268061  6117 net.cpp:150] Setting up conv5_2
I0406 15:12:28.268106  6117 net.cpp:157] Top shape: 1 512 63 94 (3032064)
I0406 15:12:28.268115  6117 net.cpp:165] Memory required for data: 3439345076
I0406 15:12:28.268131  6117 layer_factory.hpp:77] Creating layer relu5_2
I0406 15:12:28.268152  6117 net.cpp:106] Creating Layer relu5_2
I0406 15:12:28.268167  6117 net.cpp:454] relu5_2 <- conv5_2
I0406 15:12:28.268188  6117 net.cpp:397] relu5_2 -> conv5_2 (in-place)
I0406 15:12:28.268210  6117 net.cpp:150] Setting up relu5_2
I0406 15:12:28.268224  6117 net.cpp:157] Top shape: 1 512 63 94 (3032064)
I0406 15:12:28.268234  6117 net.cpp:165] Memory required for data: 3451473332
I0406 15:12:28.268244  6117 layer_factory.hpp:77] Creating layer conv5_3
I0406 15:12:28.268266  6117 net.cpp:106] Creating Layer conv5_3
I0406 15:12:28.268277  6117 net.cpp:454] conv5_3 <- conv5_2
I0406 15:12:28.268296  6117 net.cpp:411] conv5_3 -> conv5_3
I0406 15:12:28.276087  6117 net.cpp:150] Setting up conv5_3
I0406 15:12:28.276130  6117 net.cpp:157] Top shape: 1 512 63 94 (3032064)
I0406 15:12:28.276136  6117 net.cpp:165] Memory required for data: 3463601588
I0406 15:12:28.276151  6117 layer_factory.hpp:77] Creating layer relu5_3
I0406 15:12:28.276167  6117 net.cpp:106] Creating Layer relu5_3
I0406 15:12:28.276175  6117 net.cpp:454] relu5_3 <- conv5_3
I0406 15:12:28.276185  6117 net.cpp:397] relu5_3 -> conv5_3 (in-place)
I0406 15:12:28.276199  6117 net.cpp:150] Setting up relu5_3
I0406 15:12:28.276208  6117 net.cpp:157] Top shape: 1 512 63 94 (3032064)
I0406 15:12:28.276213  6117 net.cpp:165] Memory required for data: 3475729844
I0406 15:12:28.276218  6117 layer_factory.hpp:77] Creating layer rpn_big_conv1
I0406 15:12:28.276243  6117 net.cpp:106] Creating Layer rpn_big_conv1
I0406 15:12:28.276250  6117 net.cpp:454] rpn_big_conv1 <- conv5_3
I0406 15:12:28.276260  6117 net.cpp:411] rpn_big_conv1 -> rpn_big_conv1
I0406 15:12:28.314299  6117 net.cpp:150] Setting up rpn_big_conv1
I0406 15:12:28.314334  6117 net.cpp:157] Top shape: 1 512 63 94 (3032064)
I0406 15:12:28.314339  6117 net.cpp:165] Memory required for data: 3487858100
I0406 15:12:28.314352  6117 layer_factory.hpp:77] Creating layer rpn_big_conv1_relu
I0406 15:12:28.314365  6117 net.cpp:106] Creating Layer rpn_big_conv1_relu
I0406 15:12:28.314373  6117 net.cpp:454] rpn_big_conv1_relu <- rpn_big_conv1
I0406 15:12:28.314384  6117 net.cpp:397] rpn_big_conv1_relu -> rpn_big_conv1 (in-place)
I0406 15:12:28.314399  6117 net.cpp:150] Setting up rpn_big_conv1_relu
I0406 15:12:28.314407  6117 net.cpp:157] Top shape: 1 512 63 94 (3032064)
I0406 15:12:28.314412  6117 net.cpp:165] Memory required for data: 3499986356
I0406 15:12:28.314416  6117 layer_factory.hpp:77] Creating layer rpn_big_conv2
I0406 15:12:28.314431  6117 net.cpp:106] Creating Layer rpn_big_conv2
I0406 15:12:28.314437  6117 net.cpp:454] rpn_big_conv2 <- rpn_big_conv1
I0406 15:12:28.314445  6117 net.cpp:411] rpn_big_conv2 -> rpn_big_conv2
I0406 15:12:28.347465  6117 net.cpp:150] Setting up rpn_big_conv2
I0406 15:12:28.347496  6117 net.cpp:157] Top shape: 1 512 63 94 (3032064)
I0406 15:12:28.347501  6117 net.cpp:165] Memory required for data: 3512114612
I0406 15:12:28.347513  6117 layer_factory.hpp:77] Creating layer rpn_big_conv2_relu
I0406 15:12:28.347525  6117 net.cpp:106] Creating Layer rpn_big_conv2_relu
I0406 15:12:28.347532  6117 net.cpp:454] rpn_big_conv2_relu <- rpn_big_conv2
I0406 15:12:28.347542  6117 net.cpp:397] rpn_big_conv2_relu -> rpn_big_conv2 (in-place)
I0406 15:12:28.347560  6117 net.cpp:150] Setting up rpn_big_conv2_relu
I0406 15:12:28.347565  6117 net.cpp:157] Top shape: 1 512 63 94 (3032064)
I0406 15:12:28.347569  6117 net.cpp:165] Memory required for data: 3524242868
I0406 15:12:28.347573  6117 layer_factory.hpp:77] Creating layer rpn_big_conv2_drop
I0406 15:12:28.347581  6117 net.cpp:106] Creating Layer rpn_big_conv2_drop
I0406 15:12:28.347589  6117 net.cpp:454] rpn_big_conv2_drop <- rpn_big_conv2
I0406 15:12:28.347594  6117 net.cpp:397] rpn_big_conv2_drop -> rpn_big_conv2 (in-place)
I0406 15:12:28.347618  6117 net.cpp:150] Setting up rpn_big_conv2_drop
I0406 15:12:28.347635  6117 net.cpp:157] Top shape: 1 512 63 94 (3032064)
I0406 15:12:28.347640  6117 net.cpp:165] Memory required for data: 3536371124
I0406 15:12:28.347643  6117 layer_factory.hpp:77] Creating layer rpn_big_conv2_rpn_big_conv2_drop_0_split
I0406 15:12:28.347651  6117 net.cpp:106] Creating Layer rpn_big_conv2_rpn_big_conv2_drop_0_split
I0406 15:12:28.347656  6117 net.cpp:454] rpn_big_conv2_rpn_big_conv2_drop_0_split <- rpn_big_conv2
I0406 15:12:28.347663  6117 net.cpp:411] rpn_big_conv2_rpn_big_conv2_drop_0_split -> rpn_big_conv2_rpn_big_conv2_drop_0_split_0
I0406 15:12:28.347683  6117 net.cpp:411] rpn_big_conv2_rpn_big_conv2_drop_0_split -> rpn_big_conv2_rpn_big_conv2_drop_0_split_1
I0406 15:12:28.347718  6117 net.cpp:150] Setting up rpn_big_conv2_rpn_big_conv2_drop_0_split
I0406 15:12:28.347735  6117 net.cpp:157] Top shape: 1 512 63 94 (3032064)
I0406 15:12:28.347741  6117 net.cpp:157] Top shape: 1 512 63 94 (3032064)
I0406 15:12:28.347744  6117 net.cpp:165] Memory required for data: 3560627636
I0406 15:12:28.347749  6117 layer_factory.hpp:77] Creating layer rpn_big_output_cls
I0406 15:12:28.347762  6117 net.cpp:106] Creating Layer rpn_big_output_cls
I0406 15:12:28.347767  6117 net.cpp:454] rpn_big_output_cls <- rpn_big_conv2_rpn_big_conv2_drop_0_split_0
I0406 15:12:28.347787  6117 net.cpp:411] rpn_big_output_cls -> rpn_big_output_cls
I0406 15:12:28.370517  6117 net.cpp:150] Setting up rpn_big_output_cls
I0406 15:12:28.370558  6117 net.cpp:157] Top shape: 1 384 63 94 (2274048)
I0406 15:12:28.370564  6117 net.cpp:165] Memory required for data: 3569723828
I0406 15:12:28.370580  6117 layer_factory.hpp:77] Creating layer rpn_big_output_cls_relu
I0406 15:12:28.370594  6117 net.cpp:106] Creating Layer rpn_big_output_cls_relu
I0406 15:12:28.370604  6117 net.cpp:454] rpn_big_output_cls_relu <- rpn_big_output_cls
I0406 15:12:28.370618  6117 net.cpp:397] rpn_big_output_cls_relu -> rpn_big_output_cls (in-place)
I0406 15:12:28.370633  6117 net.cpp:150] Setting up rpn_big_output_cls_relu
I0406 15:12:28.370643  6117 net.cpp:157] Top shape: 1 384 63 94 (2274048)
I0406 15:12:28.370649  6117 net.cpp:165] Memory required for data: 3578820020
I0406 15:12:28.370657  6117 layer_factory.hpp:77] Creating layer rpn_big_cls_score
I0406 15:12:28.370676  6117 net.cpp:106] Creating Layer rpn_big_cls_score
I0406 15:12:28.370683  6117 net.cpp:454] rpn_big_cls_score <- rpn_big_output_cls
I0406 15:12:28.370693  6117 net.cpp:411] rpn_big_cls_score -> rpn_big_cls_score
I0406 15:12:28.373611  6117 net.cpp:150] Setting up rpn_big_cls_score
I0406 15:12:28.373636  6117 net.cpp:157] Top shape: 1 52 61 92 (291824)
I0406 15:12:28.373641  6117 net.cpp:165] Memory required for data: 3579987316
I0406 15:12:28.373658  6117 layer_factory.hpp:77] Creating layer rpn_big_cls_score_rpn_big_cls_score_0_split
I0406 15:12:28.373669  6117 net.cpp:106] Creating Layer rpn_big_cls_score_rpn_big_cls_score_0_split
I0406 15:12:28.373675  6117 net.cpp:454] rpn_big_cls_score_rpn_big_cls_score_0_split <- rpn_big_cls_score
I0406 15:12:28.373682  6117 net.cpp:411] rpn_big_cls_score_rpn_big_cls_score_0_split -> rpn_big_cls_score_rpn_big_cls_score_0_split_0
I0406 15:12:28.373692  6117 net.cpp:411] rpn_big_cls_score_rpn_big_cls_score_0_split -> rpn_big_cls_score_rpn_big_cls_score_0_split_1
I0406 15:12:28.373738  6117 net.cpp:150] Setting up rpn_big_cls_score_rpn_big_cls_score_0_split
I0406 15:12:28.373745  6117 net.cpp:157] Top shape: 1 52 61 92 (291824)
I0406 15:12:28.373750  6117 net.cpp:157] Top shape: 1 52 61 92 (291824)
I0406 15:12:28.373754  6117 net.cpp:165] Memory required for data: 3582321908
I0406 15:12:28.373756  6117 layer_factory.hpp:77] Creating layer rpn_big_cls_score_reshape
I0406 15:12:28.373766  6117 net.cpp:106] Creating Layer rpn_big_cls_score_reshape
I0406 15:12:28.373770  6117 net.cpp:454] rpn_big_cls_score_reshape <- rpn_big_cls_score_rpn_big_cls_score_0_split_0
I0406 15:12:28.373776  6117 net.cpp:411] rpn_big_cls_score_reshape -> rpn_big_cls_score_reshape
I0406 15:12:28.373801  6117 net.cpp:150] Setting up rpn_big_cls_score_reshape
I0406 15:12:28.373808  6117 net.cpp:157] Top shape: 1 2 1586 92 (291824)
I0406 15:12:28.373811  6117 net.cpp:165] Memory required for data: 3583489204
I0406 15:12:28.373816  6117 layer_factory.hpp:77] Creating layer rpn_big_cls_score_reshape_rpn_big_cls_score_reshape_0_split
I0406 15:12:28.373821  6117 net.cpp:106] Creating Layer rpn_big_cls_score_reshape_rpn_big_cls_score_reshape_0_split
I0406 15:12:28.373826  6117 net.cpp:454] rpn_big_cls_score_reshape_rpn_big_cls_score_reshape_0_split <- rpn_big_cls_score_reshape
I0406 15:12:28.373833  6117 net.cpp:411] rpn_big_cls_score_reshape_rpn_big_cls_score_reshape_0_split -> rpn_big_cls_score_reshape_rpn_big_cls_score_reshape_0_split_0
I0406 15:12:28.373849  6117 net.cpp:411] rpn_big_cls_score_reshape_rpn_big_cls_score_reshape_0_split -> rpn_big_cls_score_reshape_rpn_big_cls_score_reshape_0_split_1
I0406 15:12:28.373881  6117 net.cpp:150] Setting up rpn_big_cls_score_reshape_rpn_big_cls_score_reshape_0_split
I0406 15:12:28.373888  6117 net.cpp:157] Top shape: 1 2 1586 92 (291824)
I0406 15:12:28.373893  6117 net.cpp:157] Top shape: 1 2 1586 92 (291824)
I0406 15:12:28.373896  6117 net.cpp:165] Memory required for data: 3585823796
I0406 15:12:28.373899  6117 layer_factory.hpp:77] Creating layer rpn_big_cls_prob
I0406 15:12:28.373905  6117 net.cpp:106] Creating Layer rpn_big_cls_prob
I0406 15:12:28.373911  6117 net.cpp:454] rpn_big_cls_prob <- rpn_big_cls_score_reshape_rpn_big_cls_score_reshape_0_split_0
I0406 15:12:28.373919  6117 net.cpp:411] rpn_big_cls_prob -> rpn_big_cls_prob
I0406 15:12:28.373980  6117 net.cpp:150] Setting up rpn_big_cls_prob
I0406 15:12:28.373988  6117 net.cpp:157] Top shape: 1 2 1586 92 (291824)
I0406 15:12:28.373991  6117 net.cpp:165] Memory required for data: 3586991092
I0406 15:12:28.373994  6117 layer_factory.hpp:77] Creating layer rpn_big_cls_prob_reshape
I0406 15:12:28.374002  6117 net.cpp:106] Creating Layer rpn_big_cls_prob_reshape
I0406 15:12:28.374007  6117 net.cpp:454] rpn_big_cls_prob_reshape <- rpn_big_cls_prob
I0406 15:12:28.374013  6117 net.cpp:411] rpn_big_cls_prob_reshape -> rpn_big_cls_prob_reshape
I0406 15:12:28.374034  6117 net.cpp:150] Setting up rpn_big_cls_prob_reshape
I0406 15:12:28.374042  6117 net.cpp:157] Top shape: 1 52 61 92 (291824)
I0406 15:12:28.374045  6117 net.cpp:165] Memory required for data: 3588158388
I0406 15:12:28.374048  6117 layer_factory.hpp:77] Creating layer rpn_big_anchor_target
I0406 15:12:28.557704  6117 net.cpp:106] Creating Layer rpn_big_anchor_target
I0406 15:12:28.557757  6117 net.cpp:454] rpn_big_anchor_target <- rpn_big_cls_score_rpn_big_cls_score_0_split_1
I0406 15:12:28.557780  6117 net.cpp:454] rpn_big_anchor_target <- input_gt_boxes
…
