…
I0413 18:52:39.565552 14411 solver.cpp:48] Initializing solver from parameters: 
base_lr: 0.001
display: 20
lr_policy: "multistep"
gamma: 0.1
momentum: 0.9
weight_decay: 0.0005
snapshot: 0
snapshot_prefix: "faces_example"
net_param {
  name: "GeneratedModel_13_04_2017_18_52"
  layer {
    name: "input"
    type: "Python"
    top: "input_data"
    top: "input_im_info"
    top: "input_gt_boxes"
    top: "input_ignored_boxes"
    python_param {
      module: "layers.roi_data_layer"
      layer: "RoIDataLayer"
      param_str: "{\"num_classes\": 2}"
    }
  }
  layer {
    name: "conv1_1"
    type: "Convolution"
    bottom: "input_data"
    top: "conv1_1"
    param {
      lr_mult: 0
      decay_mult: 0
    }
    param {
      lr_mult: 0
      decay_mult: 0
    }
    convolution_param {
      num_output: 64
      pad: 1
      kernel_size: 3
    }
  }
  layer {
    name: "relu1_1"
    type: "ReLU"
    bottom: "conv1_1"
    top: "conv1_1"
  }
  layer {
    name: "conv1_2"
    type: "Convolution"
    bottom: "conv1_1"
    top: "conv1_2"
    param {
      lr_mult: 0
      decay_mult: 0
    }
    param {
      lr_mult: 0
      decay_mult: 0
    }
    convolution_param {
      num_output: 64
      pad: 1
      kernel_size: 3
    }
  }
  layer {
    name: "relu1_2"
    type: "ReLU"
    bottom: "conv1_2"
    top: "conv1_2"
  }
  layer {
    name: "pool1"
    type: "Pooling"
    bottom: "conv1_2"
    top: "pool1"
    pooling_param {
      pool: MAX
      kernel_size: 2
      stride: 2
    }
  }
  layer {
    name: "conv2_1"
    type: "Convolution"
    bottom: "pool1"
    top: "conv2_1"
    param {
      lr_mult: 0
      decay_mult: 0
    }
    param {
      lr_mult: 0
      decay_mult: 0
    }
    convolution_param {
      num_output: 128
      pad: 1
      kernel_size: 3
    }
  }
  layer {
    name: "relu2_1"
    type: "ReLU"
    bottom: "conv2_1"
    top: "conv2_1"
  }
  layer {
    name: "conv2_2"
    type: "Convolution"
    bottom: "conv2_1"
    top: "conv2_2"
    param {
      lr_mult: 0
      decay_mult: 0
    }
    param {
      lr_mult: 0
      decay_mult: 0
    }
    convolution_param {
      num_output: 128
      pad: 1
      kernel_size: 3
    }
  }
  layer {
    name: "relu2_2"
    type: "ReLU"
    bottom: "conv2_2"
    top: "conv2_2"
  }
  layer {
    name: "pool2"
    type: "Pooling"
    bottom: "conv2_2"
    top: "pool2"
    pooling_param {
      pool: MAX
      kernel_size: 2
      stride: 2
    }
  }
  layer {
    name: "conv3_1"
    type: "Convolution"
    bottom: "pool2"
    top: "conv3_1"
    param {
      lr_mult: 1
    }
    param {
      lr_mult: 2
    }
    convolution_param {
      num_output: 256
      pad: 1
      kernel_size: 3
    }
  }
  layer {
    name: "relu3_1"
    type: "ReLU"
    bottom: "conv3_1"
    top: "conv3_1"
  }
  layer {
    name: "conv3_2"
    type: "Convolution"
    bottom: "conv3_1"
    top: "conv3_2"
    param {
      lr_mult: 1
    }
    param {
      lr_mult: 2
    }
    convolution_param {
      num_output: 256
      pad: 1
      kernel_size: 3
    }
  }
  layer {
    name: "relu3_2"
    type: "ReLU"
    bottom: "conv3_2"
    top: "conv3_2"
  }
  layer {
    name: "conv3_3"
    type: "Convolution"
    bottom: "conv3_2"
    top: "conv3_3"
    param {
      lr_mult: 1
    }
    param {
      lr_mult: 2
    }
    convolution_param {
      num_output: 256
      pad: 1
      kernel_size: 3
    }
  }
  layer {
    name: "relu3_3"
    type: "ReLU"
    bottom: "conv3_3"
    top: "conv3_3"
  }
  layer {
    name: "pool3"
    type: "Pooling"
    bottom: "conv3_3"
    top: "pool3"
    pooling_param {
      pool: MAX
      kernel_size: 2
      stride: 2
    }
  }
  layer {
    name: "conv4_1"
    type: "Convolution"
    bottom: "pool3"
    top: "conv4_1"
    param {
      lr_mult: 1
    }
    param {
      lr_mult: 2
    }
    convolution_param {
      num_output: 512
      pad: 1
      kernel_size: 3
    }
  }
  layer {
    name: "relu4_1"
    type: "ReLU"
    bottom: "conv4_1"
    top: "conv4_1"
  }
  layer {
    name: "conv4_2"
    type: "Convolution"
    bottom: "conv4_1"
    top: "conv4_2"
    param {
      lr_mult: 1
    }
    param {
      lr_mult: 2
    }
    convolution_param {
      num_output: 512
      pad: 1
      kernel_size: 3
    }
  }
  layer {
    name: "relu4_2"
    type: "ReLU"
    bottom: "conv4_2"
    top: "conv4_2"
  }
  layer {
    name: "conv4_3"
    type: "Convolution"
    bottom: "conv4_2"
    top: "conv4_3"
    param {
      lr_mult: 1
    }
    param {
      lr_mult: 2
    }
    convolution_param {
      num_output: 512
      pad: 1
      kernel_size: 3
    }
  }
  layer {
    name: "relu4_3"
    type: "ReLU"
    bottom: "conv4_3"
    top: "conv4_3"
  }
  layer {
    name: "pool4"
    type: "Pooling"
    bottom: "conv4_3"
    top: "pool4"
    pooling_param {
      pool: MAX
      kernel_size: 2
      stride: 2
    }
  }
  layer {
    name: "conv5_1"
    type: "Convolution"
    bottom: "pool4"
    top: "conv5_1"
    param {
      lr_mult: 1
    }
    param {
      lr_mult: 2
    }
    convolution_param {
      num_output: 512
      pad: 1
      kernel_size: 3
    }
  }
  layer {
    name: "relu5_1"
    type: "ReLU"
    bottom: "conv5_1"
    top: "conv5_1"
  }
  layer {
    name: "conv5_2"
    type: "Convolution"
    bottom: "conv5_1"
    top: "conv5_2"
    param {
      lr_mult: 1
    }
    param {
      lr_mult: 2
    }
    convolution_param {
      num_output: 512
      pad: 1
      kernel_size: 3
    }
  }
  layer {
    name: "relu5_2"
    type: "ReLU"
    bottom: "conv5_2"
    top: "conv5_2"
  }
  layer {
    name: "conv5_3"
    type: "Convolution"
    bottom: "conv5_2"
    top: "conv5_3"
    param {
      lr_mult: 1
    }
    param {
      lr_mult: 2
    }
    convolution_param {
      num_output: 512
      pad: 1
      kernel_size: 3
    }
  }
  layer {
    name: "relu5_3"
    type: "ReLU"
    bottom: "conv5_3"
    top: "conv5_3"
  }
  layer {
    name: "rpn_big_conv1"
    type: "Convolution"
    bottom: "conv5_3"
    top: "rpn_big_conv1"
    param {
      lr_mult: 1
    }
    param {
      lr_mult: 2
    }
    convolution_param {
      num_output: 512
      pad: 1
      kernel_size: 3
      stride: 1
      weight_filler {
        type: "gaussian"
        mean: 0
        std: 0.01
      }
      bias_filler {
        type: "constant"
      }
    }
  }
  layer {
    name: "rpn_big_conv1_relu"
    type: "ReLU"
    bottom: "rpn_big_conv1"
    top: "rpn_big_conv1"
    relu_param {
      negative_slope: 0
    }
  }
  layer {
    name: "rpn_big_conv2"
    type: "Convolution"
    bottom: "rpn_big_conv1"
    top: "rpn_big_conv2"
    param {
      lr_mult: 1
    }
    param {
      lr_mult: 2
    }
    convolution_param {
      num_output: 512
      pad: 1
      kernel_size: 3
      stride: 1
      weight_filler {
        type: "gaussian"
        mean: 0
        std: 0.01
      }
      bias_filler {
        type: "constant"
      }
    }
  }
  layer {
    name: "rpn_big_conv2_relu"
    type: "ReLU"
    bottom: "rpn_big_conv2"
    top: "rpn_big_conv2"
    relu_param {
      negative_slope: 0
    }
  }
  layer {
    name: "rpn_big_conv2_drop"
    type: "Dropout"
    bottom: "rpn_big_conv2"
    top: "rpn_big_conv2"
    dropout_param {
      dropout_ratio: 0.3
    }
  }
  layer {
    name: "rpn_big_output_cls"
    type: "Convolution"
    bottom: "rpn_big_conv2"
    top: "rpn_big_output_cls"
    param {
      lr_mult: 1
    }
    param {
      lr_mult: 2
    }
    convolution_param {
      num_output: 384
      pad: 1
      kernel_size: 3
      stride: 1
      weight_filler {
        type: "gaussian"
        mean: 0
        std: 0.01
      }
      bias_filler {
        type: "constant"
      }
    }
  }
  layer {
    name: "rpn_big_output_cls_relu"
    type: "ReLU"
    bottom: "rpn_big_output_cls"
    top: "rpn_big_output_cls"
    relu_param {
      negative_slope: 0
    }
  }
  layer {
    name: "rpn_big_cls_score"
    type: "Convolution"
    bottom: "rpn_big_output_cls"
    top: "rpn_big_cls_score"
    param {
      lr_mult: 1
    }
    param {
      lr_mult: 2
    }
    convolution_param {
      num_output: 52
      pad: 0
      kernel_size: 3
      stride: 1
      weight_filler {
        type: "gaussian"
        mean: 0
        std: 0.01
      }
      bias_filler {
        type: "constant"
      }
    }
  }
  layer {
    name: "rpn_big_cls_score_reshape"
    type: "Reshape"
    bottom: "rpn_big_cls_score"
    top: "rpn_big_cls_score_reshape"
    reshape_param {
      shape {
        dim: 0
        dim: 2
        dim: -1
        dim: 0
      }
    }
  }
  layer {
    name: "rpn_big_cls_prob"
    type: "Softmax"
    bottom: "rpn_big_cls_score_reshape"
    top: "rpn_big_cls_prob"
  }
  layer {
    name: "rpn_big_cls_prob_reshape"
    type: "Reshape"
    bottom: "rpn_big_cls_prob"
    top: "rpn_big_cls_prob_reshape"
    reshape_param {
      shape {
        dim: 0
        dim: 52
        dim: -1
        dim: 0
      }
    }
  }
  layer {
    name: "rpn_big_anchor_target"
    type: "Python"
    bottom: "rpn_big_cls_score"
    bottom: "input_gt_boxes"
    bottom: "input_ignored_boxes"
    bottom: "input_im_info"
    bottom: "input_data"
    bottom: "rpn_big_cls_prob_reshape"
    top: "rpn_big_anchor_target_labels"
    top: "rpn_big_anchor_target_bbox_targets"
    top: "rpn_big_anchor_target_inside_weights"
    top: "rpn_big_anchor_target_outside_weights"
    python_param {
      module: "rpn.anchor_target_layer"
      layer: "AnchorTargetLayer"
      param_str: "{\"tn_fraction\": 0.2, \"anchor_ratios\": [1.0], \"square_targets\": true, \"name\": \"rpn_big\", \"fg_fraction\": 0.5, \"feat_stride\": 16, \"anchor_shift_num_xy\": [[2, 2], [2, 2], [2, 2], [2, 2], [1, 1], [1, 1], [1, 1], [1, 1], [1, 1], [1, 1], [1, 1], [1, 1], [1, 1], [1, 1]], \"num_classes\": 1, \"negative_overlap\": 0.4, \"anchor_scales\": [2.5, 3.025, 3.66025, 4.4289024999999995, 5.358972025, 6.484356150249999, 7.846070941802498, 9.493745839581022, 11.487432465893036, 13.899793283730574, 16.818749873313998, 20.350687346709933, 24.62433168951902, 29.795441344318014], \"batchsize\": 256, \"positive_overlap\": 0.6}"
    }
  }
  layer {
    name: "rpn_big_loss_cls"
    type: "SoftmaxWithLoss"
    bottom: "rpn_big_cls_score_reshape"
    bottom: "rpn_big_anchor_target_labels"
    top: "rpn_big_loss_cls"
    loss_weight: 1
    propagate_down: true
    propagate_down: false
    loss_param {
      ignore_label: -1
      normalization: VALID
    }
  }
  layer {
    name: "rpn_big_output_box"
    type: "Convolution"
    bottom: "rpn_big_conv2"
    top: "rpn_big_output_box"
    param {
      lr_mult: 1
    }
    param {
      lr_mult: 2
    }
    convolution_param {
      num_output: 384
      pad: 1
      kernel_size: 3
      stride: 1
      weight_filler {
        type: "gaussian"
        mean: 0
        std: 0.01
      }
      bias_filler {
        type: "constant"
      }
    }
  }
  layer {
    name: "rpn_big_output_box_relu"
    type: "ReLU"
    bottom: "rpn_big_output_box"
    top: "rpn_big_output_box"
    relu_param {
      negative_slope: 0
    }
  }
  layer {
    name: "rpn_big_bbox_pred"
    type: "Convolution"
    bottom: "rpn_big_output_box"
    top: "rpn_big_bbox_pred"
    param {
      lr_mult: 1
    }
    param {
      lr_mult: 2
    }
    convolution_param {
      num_output: 104
      pad: 0
      kernel_size: 3
      stride: 1
      weight_filler {
        type: "gaussian"
        mean: 0
        std: 0.01
      }
      bias_filler {
        type: "constant"
      }
    }
  }
  layer {
    name: "rpn_big_loss_bbox"
    type: "Python"
    bottom: "rpn_big_bbox_pred"
    bottom: "rpn_big_anchor_target_bbox_targets"
    bottom: "rpn_big_anchor_target_inside_weights"
    bottom: "rpn_big_anchor_target_outside_weights"
    top: "rpn_big_loss_bbox"
    loss_weight: 1
    python_param {
      module: "layers.smooth_l1_loss"
      layer: "SmoothL1LossLayer"
      param_str: "{\"sigma\": 3}"
    }
  }
  layer {
    name: "proposal"
    type: "Python"
    bottom: "rpn_big_cls_prob_reshape"
    bottom: "rpn_big_bbox_pred"
    bottom: "input_im_info"
    top: "rpn_rois"
    python_param {
      module: "rpn.proposal_layer"
      layer: "ProposalLayer"
      param_str: "{\"anchor_shift_num_xy\": [[2, 2], [2, 2], [2, 2], [2, 2], [1, 1], [1, 1], [1, 1], [1, 1], [1, 1], [1, 1], [1, 1], [1, 1], [1, 1], [1, 1]], \"feat_stride\": 16, \"num_classes\": 1, \"anchor_scales\": [2.5, 3.025, 3.66025, 4.4289024999999995, 5.358972025, 6.484356150249999, 7.846070941802498, 9.493745839581022, 11.487432465893036, 13.899793283730574, 16.818749873313998, 20.350687346709933, 24.62433168951902, 29.795441344318014], \"square_targets\": true, \"name\": \"rpn_big\", \"batchsize\": 256, \"anchor_ratios\": [1.0]}"
    }
  }
  layer {
    name: "roi-data"
    type: "Python"
    bottom: "rpn_rois"
    bottom: "input_gt_boxes"
    top: "rois"
    top: "labels"
    top: "bbox_targets"
    top: "bbox_inside_weights"
    top: "bbox_outside_weights"
    top: "pid_label"
    python_param {
      module: "rpn.proposal_target_layer"
      layer: "ProposalTargetLayer"
      param_str: "{\"num_classes\": 2, \"bg_aux_label\": 5532}"
    }
  }
  layer {
    name: "roi-pool"
    type: "ROIPooling"
    bottom: "conv5_3"
    bottom: "rois"
    top: "roi-pool"
    roi_pooling_param {
      pooled_h: 7
      pooled_w: 7
      spatial_scale: 0.0625
    }
  }
  layer {
    name: "fc6"
    type: "InnerProduct"
    bottom: "roi-pool"
    top: "fc6"
    param {
      lr_mult: 1
    }
    param {
      lr_mult: 2
    }
    inner_product_param {
      num_output: 4096
    }
  }
  layer {
    name: "relu6"
    type: "ReLU"
    bottom: "fc6"
    top: "fc6"
  }
  layer {
    name: "drop6"
    type: "Dropout"
    bottom: "fc6"
    top: "fc6"
    dropout_param {
      dropout_ratio: 0.5
    }
  }
  layer {
    name: "fc7"
    type: "InnerProduct"
    bottom: "fc6"
    top: "fc7"
    param {
      lr_mult: 1
    }
    param {
      lr_mult: 2
    }
    inner_product_param {
      num_output: 4096
    }
  }
  layer {
    name: "relu7"
    type: "ReLU"
    bottom: "fc7"
    top: "fc7"
  }
  layer {
    name: "drop7"
    type: "Dropout"
    bottom: "fc7"
    top: "fc7"
    dropout_param {
      dropout_ratio: 0.5
    }
  }
  layer {
    name: "bbox_pred"
    type: "InnerProduct"
    bottom: "fc7"
    top: "bbox_pred"
    param {
      lr_mult: 1
    }
    param {
      lr_mult: 2
    }
    inner_product_param {
      num_output: 8
      weight_filler {
        type: "gaussian"
        std: 0.001
      }
      bias_filler {
        type: "constant"
        value: 0
      }
    }
  }
  layer {
    name: "loss_bbox"
    type: "SmoothL1Loss"
    bottom: "bbox_pred"
    bottom: "bbox_targets"
    bottom: "bbox_inside_weights"
    bottom: "bbox_outside_weights"
    top: "loss_bbox"
    loss_weight: 1
  }
  layer {
    name: "feat"
    type: "InnerProduct"
    bottom: "fc7"
    top: "feat"
    param {
      lr_mult: 1
      decay_mult: 1
    }
    param {
      lr_mult: 2
      decay_mult: 0
    }
    inner_product_param {
      num_output: 256
      weight_filler {
        type: "gaussian"
        std: 0.01
      }
      bias_filler {
        type: "constant"
        value: 0
      }
    }
  }
  layer {
    name: "relu8"
    type: "ReLU"
    bottom: "feat"
    top: "feat"
  }
  layer {
    name: "drop8"
    type: "Dropout"
    bottom: "feat"
    top: "feat"
    dropout_param {
      dropout_ratio: 0.5
    }
  }
  layer {
    name: "pid_score"
    type: "InnerProduct"
    bottom: "feat"
    top: "pid_score"
    param {
      lr_mult: 1
      decay_mult: 1
    }
    param {
      lr_mult: 2
      decay_mult: 0
    }
    inner_product_param {
      num_output: 5533
      weight_filler {
        type: "gaussian"
        std: 0.001
      }
      bias_filler {
        type: "constant"
        value: 0
      }
    }
  }
  layer {
    name: "pid_accuracy"
    type: "Accuracy"
    bottom: "pid_score"
    bottom: "pid_label"
    top: "pid_accuracy"
    accuracy_param {
      ignore_label: -1
    }
  }
  layer {
    name: "pid_loss"
    type: "SoftmaxWithLoss"
    bottom: "pid_score"
    bottom: "pid_label"
    top: "pid_loss"
    loss_weight: 1
    propagate_down: true
    propagate_down: false
    loss_param {
      ignore_label: -1
      normalize: true
    }
  }
}
average_loss: 100
stepvalue: 70000
stepvalue: 120000
iter_size: 2
I0413 18:52:39.566535 14411 solver.cpp:86] Creating training net specified in net_param.
I0413 18:52:39.567383 14411 net.cpp:58] Initializing net from parameters: 
name: "GeneratedModel_13_04_2017_18_52"
state {
  phase: TRAIN
}
layer {
  name: "input"
  type: "Python"
  top: "input_data"
  top: "input_im_info"
  top: "input_gt_boxes"
  top: "input_ignored_boxes"
  python_param {
    module: "layers.roi_data_layer"
    layer: "RoIDataLayer"
    param_str: "{\"num_classes\": 2}"
  }
}
layer {
  name: "conv1_1"
  type: "Convolution"
  bottom: "input_data"
  top: "conv1_1"
  param {
    lr_mult: 0
    decay_mult: 0
  }
  param {
    lr_mult: 0
    decay_mult: 0
  }
  convolution_param {
    num_output: 64
    pad: 1
    kernel_size: 3
  }
}
layer {
  name: "relu1_1"
  type: "ReLU"
  bottom: "conv1_1"
  top: "conv1_1"
}
layer {
  name: "conv1_2"
  type: "Convolution"
  bottom: "conv1_1"
  top: "conv1_2"
  param {
    lr_mult: 0
    decay_mult: 0
  }
  param {
    lr_mult: 0
    decay_mult: 0
  }
  convolution_param {
    num_output: 64
    pad: 1
    kernel_size: 3
  }
}
layer {
  name: "relu1_2"
  type: "ReLU"
  bottom: "conv1_2"
  top: "conv1_2"
}
layer {
  name: "pool1"
  type: "Pooling"
  bottom: "conv1_2"
  top: "pool1"
  pooling_param {
    pool: MAX
    kernel_size: 2
    stride: 2
  }
}
layer {
  name: "conv2_1"
  type: "Convolution"
  bottom: "pool1"
  top: "conv2_1"
  param {
    lr_mult: 0
    decay_mult: 0
  }
  param {
    lr_mult: 0
    decay_mult: 0
  }
  convolution_param {
    num_output: 128
    pad: 1
    kernel_size: 3
  }
}
layer {
  name: "relu2_1"
  type: "ReLU"
  bottom: "conv2_1"
  top: "conv2_1"
}
layer {
  name: "conv2_2"
  type: "Convolution"
  bottom: "conv2_1"
  top: "conv2_2"
  param {
    lr_mult: 0
    decay_mult: 0
  }
  param {
    lr_mult: 0
    decay_mult: 0
  }
  convolution_param {
    num_output: 128
    pad: 1
    kernel_size: 3
  }
}
layer {
  name: "relu2_2"
  type: "ReLU"
  bottom: "conv2_2"
  top: "conv2_2"
}
layer {
  name: "pool2"
  type: "Pooling"
  bottom: "conv2_2"
  top: "pool2"
  pooling_param {
    pool: MAX
    kernel_size: 2
    stride: 2
  }
}
layer {
  name: "conv3_1"
  type: "Convolution"
  bottom: "pool2"
  top: "conv3_1"
  param {
    lr_mult: 1
  }
  param {
    lr_mult: 2
  }
  convolution_param {
    num_output: 256
    pad: 1
    kernel_size: 3
  }
}
layer {
  name: "relu3_1"
  type: "ReLU"
  bottom: "conv3_1"
  top: "conv3_1"
}
layer {
  name: "conv3_2"
  type: "Convolution"
  bottom: "conv3_1"
  top: "conv3_2"
  param {
    lr_mult: 1
  }
  param {
    lr_mult: 2
  }
  convolution_param {
    num_output: 256
    pad: 1
    kernel_size: 3
  }
}
layer {
  name: "relu3_2"
  type: "ReLU"
  bottom: "conv3_2"
  top: "conv3_2"
}
layer {
  name: "conv3_3"
  type: "Convolution"
  bottom: "conv3_2"
  top: "conv3_3"
  param {
    lr_mult: 1
  }
  param {
    lr_mult: 2
  }
  convolution_param {
    num_output: 256
    pad: 1
    kernel_size: 3
  }
}
layer {
  name: "relu3_3"
  type: "ReLU"
  bottom: "conv3_3"
  top: "conv3_3"
}
layer {
  name: "pool3"
  type: "Pooling"
  bottom: "conv3_3"
  top: "pool3"
  pooling_param {
    pool: MAX
    kernel_size: 2
    stride: 2
  }
}
layer {
  name: "conv4_1"
  type: "Convolution"
  bottom: "pool3"
  top: "conv4_1"
  param {
    lr_mult: 1
  }
  param {
    lr_mult: 2
  }
  convolution_param {
    num_output: 512
    pad: 1
    kernel_size: 3
  }
}
layer {
  name: "relu4_1"
  type: "ReLU"
  bottom: "conv4_1"
  top: "conv4_1"
}
layer {
  name: "conv4_2"
  type: "Convolution"
  bottom: "conv4_1"
  top: "conv4_2"
  param {
    lr_mult: 1
  }
  param {
    lr_mult: 2
  }
  convolution_param {
    num_output: 512
    pad: 1
    kernel_size: 3
  }
}
layer {
  name: "relu4_2"
  type: "ReLU"
  bottom: "conv4_2"
  top: "conv4_2"
}
layer {
  name: "conv4_3"
  type: "Convolution"
  bottom: "conv4_2"
  top: "conv4_3"
  param {
    lr_mult: 1
  }
  param {
    lr_mult: 2
  }
  convolution_param {
    num_output: 512
    pad: 1
    kernel_size: 3
  }
}
layer {
  name: "relu4_3"
  type: "ReLU"
  bottom: "conv4_3"
  top: "conv4_3"
}
layer {
  name: "pool4"
  type: "Pooling"
  bottom: "conv4_3"
  top: "pool4"
  pooling_param {
    pool: MAX
    kernel_size: 2
    stride: 2
  }
}
layer {
  name: "conv5_1"
  type: "Convolution"
  bottom: "pool4"
  top: "conv5_1"
  param {
    lr_mult: 1
  }
  param {
    lr_mult: 2
  }
  convolution_param {
    num_output: 512
    pad: 1
    kernel_size: 3
  }
}
layer {
  name: "relu5_1"
  type: "ReLU"
  bottom: "conv5_1"
  top: "conv5_1"
}
layer {
  name: "conv5_2"
  type: "Convolution"
  bottom: "conv5_1"
  top: "conv5_2"
  param {
    lr_mult: 1
  }
  param {
    lr_mult: 2
  }
  convolution_param {
    num_output: 512
    pad: 1
    kernel_size: 3
  }
}
layer {
  name: "relu5_2"
  type: "ReLU"
  bottom: "conv5_2"
  top: "conv5_2"
}
layer {
  name: "conv5_3"
  type: "Convolution"
  bottom: "conv5_2"
  top: "conv5_3"
  param {
    lr_mult: 1
  }
  param {
    lr_mult: 2
  }
  convolution_param {
    num_output: 512
    pad: 1
    kernel_size: 3
  }
}
layer {
  name: "relu5_3"
  type: "ReLU"
  bottom: "conv5_3"
  top: "conv5_3"
}
layer {
  name: "rpn_big_conv1"
  type: "Convolution"
  bottom: "conv5_3"
  top: "rpn_big_conv1"
  param {
    lr_mult: 1
  }
  param {
    lr_mult: 2
  }
  convolution_param {
    num_output: 512
    pad: 1
    kernel_size: 3
    stride: 1
    weight_filler {
      type: "gaussian"
      mean: 0
      std: 0.01
    }
    bias_filler {
      type: "constant"
    }
  }
}
layer {
  name: "rpn_big_conv1_relu"
  type: "ReLU"
  bottom: "rpn_big_conv1"
  top: "rpn_big_conv1"
  relu_param {
    negative_slope: 0
  }
}
layer {
  name: "rpn_big_conv2"
  type: "Convolution"
  bottom: "rpn_big_conv1"
  top: "rpn_big_conv2"
  param {
    lr_mult: 1
  }
  param {
    lr_mult: 2
  }
  convolution_param {
    num_output: 512
    pad: 1
    kernel_size: 3
    stride: 1
    weight_filler {
      type: "gaussian"
      mean: 0
      std: 0.01
    }
    bias_filler {
      type: "constant"
    }
  }
}
layer {
  name: "rpn_big_conv2_relu"
  type: "ReLU"
  bottom: "rpn_big_conv2"
  top: "rpn_big_conv2"
  relu_param {
    negative_slope: 0
  }
}
layer {
  name: "rpn_big_conv2_drop"
  type: "Dropout"
  bottom: "rpn_big_conv2"
  top: "rpn_big_conv2"
  dropout_param {
    dropout_ratio: 0.3
  }
}
layer {
  name: "rpn_big_output_cls"
  type: "Convolution"
  bottom: "rpn_big_conv2"
  top: "rpn_big_output_cls"
  param {
    lr_mult: 1
  }
  param {
    lr_mult: 2
  }
  convolution_param {
    num_output: 384
    pad: 1
    kernel_size: 3
    stride: 1
    weight_filler {
      type: "gaussian"
      mean: 0
      std: 0.01
    }
    bias_filler {
      type: "constant"
    }
  }
}
layer {
  name: "rpn_big_output_cls_relu"
  type: "ReLU"
  bottom: "rpn_big_output_cls"
  top: "rpn_big_output_cls"
  relu_param {
    negative_slope: 0
  }
}
layer {
  name: "rpn_big_cls_score"
  type: "Convolution"
  bottom: "rpn_big_output_cls"
  top: "rpn_big_cls_score"
  param {
    lr_mult: 1
  }
  param {
    lr_mult: 2
  }
  convolution_param {
    num_output: 52
    pad: 0
    kernel_size: 3
    stride: 1
    weight_filler {
      type: "gaussian"
      mean: 0
      std: 0.01
    }
    bias_filler {
      type: "constant"
    }
  }
}
layer {
  name: "rpn_big_cls_score_reshape"
  type: "Reshape"
  bottom: "rpn_big_cls_score"
  top: "rpn_big_cls_score_reshape"
  reshape_param {
    shape {
      dim: 0
      dim: 2
      dim: -1
      dim: 0
    }
  }
}
layer {
  name: "rpn_big_cls_prob"
  type: "Softmax"
  bottom: "rpn_big_cls_score_reshape"
  top: "rpn_big_cls_prob"
}
layer {
  name: "rpn_big_cls_prob_reshape"
  type: "Reshape"
  bottom: "rpn_big_cls_prob"
  top: "rpn_big_cls_prob_reshape"
  reshape_param {
    shape {
      dim: 0
      dim: 52
      dim: -1
      dim: 0
    }
  }
}
layer {
  name: "rpn_big_anchor_target"
  type: "Python"
  bottom: "rpn_big_cls_score"
  bottom: "input_gt_boxes"
  bottom: "input_ignored_boxes"
  bottom: "input_im_info"
  bottom: "input_data"
  bottom: "rpn_big_cls_prob_reshape"
  top: "rpn_big_anchor_target_labels"
  top: "rpn_big_anchor_target_bbox_targets"
  top: "rpn_big_anchor_target_inside_weights"
  top: "rpn_big_anchor_target_outside_weights"
  python_param {
    module: "rpn.anchor_target_layer"
    layer: "AnchorTargetLayer"
    param_str: "{\"tn_fraction\": 0.2, \"anchor_ratios\": [1.0], \"square_targets\": true, \"name\": \"rpn_big\", \"fg_fraction\": 0.5, \"feat_stride\": 16, \"anchor_shift_num_xy\": [[2, 2], [2, 2], [2, 2], [2, 2], [1, 1], [1, 1], [1, 1], [1, 1], [1, 1], [1, 1], [1, 1], [1, 1], [1, 1], [1, 1]], \"num_classes\": 1, \"negative_overlap\": 0.4, \"anchor_scales\": [2.5, 3.025, 3.66025, 4.4289024999999995, 5.358972025, 6.484356150249999, 7.846070941802498, 9.493745839581022, 11.487432465893036, 13.899793283730574, 16.818749873313998, 20.350687346709933, 24.62433168951902, 29.795441344318014], \"batchsize\": 256, \"positive_overlap\": 0.6}"
  }
}
layer {
  name: "rpn_big_loss_cls"
  type: "SoftmaxWithLoss"
  bottom: "rpn_big_cls_score_reshape"
  bottom: "rpn_big_anchor_target_labels"
  top: "rpn_big_loss_cls"
  loss_weight: 1
  propagate_down: true
  propagate_down: false
  loss_param {
    ignore_label: -1
    normalization: VALID
  }
}
layer {
  name: "rpn_big_output_box"
  type: "Convolution"
  bottom: "rpn_big_conv2"
  top: "rpn_big_output_box"
  param {
    lr_mult: 1
  }
  param {
    lr_mult: 2
  }
  convolution_param {
    num_output: 384
    pad: 1
    kernel_size: 3
    stride: 1
    weight_filler {
      type: "gaussian"
      mean: 0
      std: 0.01
    }
    bias_filler {
      type: "constant"
    }
  }
}
layer {
  name: "rpn_big_output_box_relu"
  type: "ReLU"
  bottom: "rpn_big_output_box"
  top: "rpn_big_output_box"
  relu_param {
    negative_slope: 0
  }
}
layer {
  name: "rpn_big_bbox_pred"
  type: "Convolution"
  bottom: "rpn_big_output_box"
  top: "rpn_big_bbox_pred"
  param {
    lr_mult: 1
  }
  param {
    lr_mult: 2
  }
  convolution_param {
    num_output: 104
    pad: 0
    kernel_size: 3
    stride: 1
    weight_filler {
      type: "gaussian"
      mean: 0
      std: 0.01
    }
    bias_filler {
      type: "constant"
    }
  }
}
layer {
  name: "rpn_big_loss_bbox"
  type: "Python"
  bottom: "rpn_big_bbox_pred"
  bottom: "rpn_big_anchor_target_bbox_targets"
  bottom: "rpn_big_anchor_target_inside_weights"
  bottom: "rpn_big_anchor_target_outside_weights"
  top: "rpn_big_loss_bbox"
  loss_weight: 1
  python_param {
    module: "layers.smooth_l1_loss"
    layer: "SmoothL1LossLayer"
    param_str: "{\"sigma\": 3}"
  }
}
layer {
  name: "proposal"
  type: "Python"
  bottom: "rpn_big_cls_prob_reshape"
  bottom: "rpn_big_bbox_pred"
  bottom: "input_im_info"
  top: "rpn_rois"
  python_param {
    module: "rpn.proposal_layer"
    layer: "ProposalLayer"
    param_str: "{\"anchor_shift_num_xy\": [[2, 2], [2, 2], [2, 2], [2, 2], [1, 1], [1, 1], [1, 1], [1, 1], [1, 1], [1, 1], [1, 1], [1, 1], [1, 1], [1, 1]], \"feat_stride\": 16, \"num_classes\": 1, \"anchor_scales\": [2.5, 3.025, 3.66025, 4.4289024999999995, 5.358972025, 6.484356150249999, 7.846070941802498, 9.493745839581022, 11.487432465893036, 13.899793283730574, 16.818749873313998, 20.350687346709933, 24.62433168951902, 29.795441344318014], \"square_targets\": true, \"name\": \"rpn_big\", \"batchsize\": 256, \"anchor_ratios\": [1.0]}"
  }
}
layer {
  name: "roi-data"
  type: "Python"
  bottom: "rpn_rois"
  bottom: "input_gt_boxes"
  top: "rois"
  top: "labels"
  top: "bbox_targets"
  top: "bbox_inside_weights"
  top: "bbox_outside_weights"
  top: "pid_label"
  python_param {
    module: "rpn.proposal_target_layer"
    layer: "ProposalTargetLayer"
    param_str: "{\"num_classes\": 2, \"bg_aux_label\": 5532}"
  }
}
layer {
  name: "roi-pool"
  type: "ROIPooling"
  bottom: "conv5_3"
  bottom: "rois"
  top: "roi-pool"
  roi_pooling_param {
    pooled_h: 7
    pooled_w: 7
    spatial_scale: 0.0625
  }
}
layer {
  name: "fc6"
  type: "InnerProduct"
  bottom: "roi-pool"
  top: "fc6"
  param {
    lr_mult: 1
  }
  param {
    lr_mult: 2
  }
  inner_product_param {
    num_output: 4096
  }
}
layer {
  name: "relu6"
  type: "ReLU"
  bottom: "fc6"
  top: "fc6"
}
layer {
  name: "drop6"
  type: "Dropout"
  bottom: "fc6"
  top: "fc6"
  dropout_param {
    dropout_ratio: 0.5
  }
}
layer {
  name: "fc7"
  type: "InnerProduct"
  bottom: "fc6"
  top: "fc7"
  param {
    lr_mult: 1
  }
  param {
    lr_mult: 2
  }
  inner_product_param {
    num_output: 4096
  }
}
layer {
  name: "relu7"
  type: "ReLU"
  bottom: "fc7"
  top: "fc7"
}
layer {
  name: "drop7"
  type: "Dropout"
  bottom: "fc7"
  top: "fc7"
  dropout_param {
    dropout_ratio: 0.5
  }
}
layer {
  name: "bbox_pred"
  type: "InnerProduct"
  bottom: "fc7"
  top: "bbox_pred"
  param {
    lr_mult: 1
  }
  param {
    lr_mult: 2
  }
  inner_product_param {
    num_output: 8
    weight_filler {
      type: "gaussian"
      std: 0.001
    }
    bias_filler {
      type: "constant"
      value: 0
    }
  }
}
layer {
  name: "loss_bbox"
  type: "SmoothL1Loss"
  bottom: "bbox_pred"
  bottom: "bbox_targets"
  bottom: "bbox_inside_weights"
  bottom: "bbox_outside_weights"
  top: "loss_bbox"
  loss_weight: 1
}
layer {
  name: "feat"
  type: "InnerProduct"
  bottom: "fc7"
  top: "feat"
  param {
    lr_mult: 1
    decay_mult: 1
  }
  param {
    lr_mult: 2
    decay_mult: 0
  }
  inner_product_param {
    num_output: 256
    weight_filler {
      type: "gaussian"
      std: 0.01
    }
    bias_filler {
      type: "constant"
      value: 0
    }
  }
}
layer {
  name: "relu8"
  type: "ReLU"
  bottom: "feat"
  top: "feat"
}
layer {
  name: "drop8"
  type: "Dropout"
  bottom: "feat"
  top: "feat"
  dropout_param {
    dropout_ratio: 0.5
  }
}
layer {
  name: "pid_score"
  type: "InnerProduct"
  bottom: "feat"
  top: "pid_score"
  param {
    lr_mult: 1
    decay_mult: 1
  }
  param {
    lr_mult: 2
    decay_mult: 0
  }
  inner_product_param {
    num_output: 5533
    weight_filler {
      type: "gaussian"
      std: 0.001
    }
    bias_filler {
      type: "constant"
      value: 0
    }
  }
}
layer {
  name: "pid_accuracy"
  type: "Accuracy"
  bottom: "pid_score"
  bottom: "pid_label"
  top: "pid_accuracy"
  accuracy_param {
    ignore_label: -1
  }
}
layer {
  name: "pid_loss"
  type: "SoftmaxWithLoss"
  bottom: "pid_score"
  bottom: "pid_label"
  top: "pid_loss"
  loss_weight: 1
  propagate_down: true
  propagate_down: false
  loss_param {
    ignore_label: -1
    normalize: true
  }
}
I0413 18:52:39.568191 14411 layer_factory.hpp:77] Creating layer input
I0413 18:52:39.569887 14411 net.cpp:100] Creating Layer input
I0413 18:52:39.569912 14411 net.cpp:408] input -> input_data
I0413 18:52:39.569926 14411 net.cpp:408] input -> input_im_info
I0413 18:52:39.569932 14411 net.cpp:408] input -> input_gt_boxes
I0413 18:52:39.569941 14411 net.cpp:408] input -> input_ignored_boxes
RoiDataLayer: name_to_top: {'data': 0, 'ignored_boxes': 3, 'im_info': 1, 'gt_boxes': 2}
I0413 18:52:39.891662 14411 net.cpp:150] Setting up input
I0413 18:52:39.891692 14411 net.cpp:157] Top shape: 1 3 1000 1500 (4500000)
I0413 18:52:39.891697 14411 net.cpp:157] Top shape: 1 3 (3)
I0413 18:52:39.891702 14411 net.cpp:157] Top shape: 1 5 (5)
I0413 18:52:39.891705 14411 net.cpp:157] Top shape: 1 5 (5)
I0413 18:52:39.891708 14411 net.cpp:165] Memory required for data: 18000052
I0413 18:52:39.891716 14411 layer_factory.hpp:77] Creating layer input_data_input_0_split
I0413 18:52:39.891727 14411 net.cpp:100] Creating Layer input_data_input_0_split
I0413 18:52:39.891732 14411 net.cpp:434] input_data_input_0_split <- input_data
I0413 18:52:39.891741 14411 net.cpp:408] input_data_input_0_split -> input_data_input_0_split_0
I0413 18:52:39.891753 14411 net.cpp:408] input_data_input_0_split -> input_data_input_0_split_1
I0413 18:52:39.891784 14411 net.cpp:150] Setting up input_data_input_0_split
I0413 18:52:39.891791 14411 net.cpp:157] Top shape: 1 3 1000 1500 (4500000)
I0413 18:52:39.891795 14411 net.cpp:157] Top shape: 1 3 1000 1500 (4500000)
I0413 18:52:39.891798 14411 net.cpp:165] Memory required for data: 54000052
I0413 18:52:39.891801 14411 layer_factory.hpp:77] Creating layer input_im_info_input_1_split
I0413 18:52:39.891808 14411 net.cpp:100] Creating Layer input_im_info_input_1_split
I0413 18:52:39.891810 14411 net.cpp:434] input_im_info_input_1_split <- input_im_info
I0413 18:52:39.891815 14411 net.cpp:408] input_im_info_input_1_split -> input_im_info_input_1_split_0
I0413 18:52:39.891821 14411 net.cpp:408] input_im_info_input_1_split -> input_im_info_input_1_split_1
I0413 18:52:39.891846 14411 net.cpp:150] Setting up input_im_info_input_1_split
I0413 18:52:39.891851 14411 net.cpp:157] Top shape: 1 3 (3)
I0413 18:52:39.891855 14411 net.cpp:157] Top shape: 1 3 (3)
I0413 18:52:39.891857 14411 net.cpp:165] Memory required for data: 54000076
I0413 18:52:39.891860 14411 layer_factory.hpp:77] Creating layer input_gt_boxes_input_2_split
I0413 18:52:39.891865 14411 net.cpp:100] Creating Layer input_gt_boxes_input_2_split
I0413 18:52:39.891868 14411 net.cpp:434] input_gt_boxes_input_2_split <- input_gt_boxes
I0413 18:52:39.891873 14411 net.cpp:408] input_gt_boxes_input_2_split -> input_gt_boxes_input_2_split_0
I0413 18:52:39.891880 14411 net.cpp:408] input_gt_boxes_input_2_split -> input_gt_boxes_input_2_split_1
I0413 18:52:39.891904 14411 net.cpp:150] Setting up input_gt_boxes_input_2_split
I0413 18:52:39.891911 14411 net.cpp:157] Top shape: 1 5 (5)
I0413 18:52:39.891913 14411 net.cpp:157] Top shape: 1 5 (5)
I0413 18:52:39.891916 14411 net.cpp:165] Memory required for data: 54000116
I0413 18:52:39.891919 14411 layer_factory.hpp:77] Creating layer conv1_1
I0413 18:52:39.891930 14411 net.cpp:100] Creating Layer conv1_1
I0413 18:52:39.891933 14411 net.cpp:434] conv1_1 <- input_data_input_0_split_0
I0413 18:52:39.891939 14411 net.cpp:408] conv1_1 -> conv1_1
I0413 18:52:39.894925 14411 net.cpp:150] Setting up conv1_1
I0413 18:52:39.894960 14411 net.cpp:157] Top shape: 1 64 1000 1500 (96000000)
I0413 18:52:39.894973 14411 net.cpp:165] Memory required for data: 438000116
I0413 18:52:39.894992 14411 layer_factory.hpp:77] Creating layer relu1_1
I0413 18:52:39.895002 14411 net.cpp:100] Creating Layer relu1_1
I0413 18:52:39.895007 14411 net.cpp:434] relu1_1 <- conv1_1
I0413 18:52:39.895015 14411 net.cpp:395] relu1_1 -> conv1_1 (in-place)
I0413 18:52:39.895026 14411 net.cpp:150] Setting up relu1_1
I0413 18:52:39.895030 14411 net.cpp:157] Top shape: 1 64 1000 1500 (96000000)
I0413 18:52:39.895033 14411 net.cpp:165] Memory required for data: 822000116
I0413 18:52:39.895036 14411 layer_factory.hpp:77] Creating layer conv1_2
I0413 18:52:39.895045 14411 net.cpp:100] Creating Layer conv1_2
I0413 18:52:39.895048 14411 net.cpp:434] conv1_2 <- conv1_1
I0413 18:52:39.895054 14411 net.cpp:408] conv1_2 -> conv1_2
I0413 18:52:39.898213 14411 net.cpp:150] Setting up conv1_2
I0413 18:52:39.898250 14411 net.cpp:157] Top shape: 1 64 1000 1500 (96000000)
I0413 18:52:39.898255 14411 net.cpp:165] Memory required for data: 1206000116
I0413 18:52:39.898277 14411 layer_factory.hpp:77] Creating layer relu1_2
I0413 18:52:39.898289 14411 net.cpp:100] Creating Layer relu1_2
I0413 18:52:39.898296 14411 net.cpp:434] relu1_2 <- conv1_2
I0413 18:52:39.898306 14411 net.cpp:395] relu1_2 -> conv1_2 (in-place)
I0413 18:52:39.898320 14411 net.cpp:150] Setting up relu1_2
I0413 18:52:39.898326 14411 net.cpp:157] Top shape: 1 64 1000 1500 (96000000)
I0413 18:52:39.898330 14411 net.cpp:165] Memory required for data: 1590000116
I0413 18:52:39.898334 14411 layer_factory.hpp:77] Creating layer pool1
I0413 18:52:39.898345 14411 net.cpp:100] Creating Layer pool1
I0413 18:52:39.898361 14411 net.cpp:434] pool1 <- conv1_2
I0413 18:52:39.898367 14411 net.cpp:408] pool1 -> pool1
I0413 18:52:39.898449 14411 net.cpp:150] Setting up pool1
I0413 18:52:39.898458 14411 net.cpp:157] Top shape: 1 64 500 750 (24000000)
I0413 18:52:39.898461 14411 net.cpp:165] Memory required for data: 1686000116
I0413 18:52:39.898464 14411 layer_factory.hpp:77] Creating layer conv2_1
I0413 18:52:39.898478 14411 net.cpp:100] Creating Layer conv2_1
I0413 18:52:39.898483 14411 net.cpp:434] conv2_1 <- pool1
I0413 18:52:39.898490 14411 net.cpp:408] conv2_1 -> conv2_1
I0413 18:52:39.899925 14411 net.cpp:150] Setting up conv2_1
I0413 18:52:39.899945 14411 net.cpp:157] Top shape: 1 128 500 750 (48000000)
I0413 18:52:39.899947 14411 net.cpp:165] Memory required for data: 1878000116
I0413 18:52:39.899960 14411 layer_factory.hpp:77] Creating layer relu2_1
I0413 18:52:39.899969 14411 net.cpp:100] Creating Layer relu2_1
I0413 18:52:39.899974 14411 net.cpp:434] relu2_1 <- conv2_1
I0413 18:52:39.899981 14411 net.cpp:395] relu2_1 -> conv2_1 (in-place)
I0413 18:52:39.899988 14411 net.cpp:150] Setting up relu2_1
I0413 18:52:39.899992 14411 net.cpp:157] Top shape: 1 128 500 750 (48000000)
I0413 18:52:39.899996 14411 net.cpp:165] Memory required for data: 2070000116
I0413 18:52:39.899998 14411 layer_factory.hpp:77] Creating layer conv2_2
I0413 18:52:39.900007 14411 net.cpp:100] Creating Layer conv2_2
I0413 18:52:39.900010 14411 net.cpp:434] conv2_2 <- conv2_1
I0413 18:52:39.900017 14411 net.cpp:408] conv2_2 -> conv2_2
I0413 18:52:39.900996 14411 net.cpp:150] Setting up conv2_2
I0413 18:52:39.901023 14411 net.cpp:157] Top shape: 1 128 500 750 (48000000)
I0413 18:52:39.901027 14411 net.cpp:165] Memory required for data: 2262000116
I0413 18:52:39.901037 14411 layer_factory.hpp:77] Creating layer relu2_2
I0413 18:52:39.901046 14411 net.cpp:100] Creating Layer relu2_2
I0413 18:52:39.901051 14411 net.cpp:434] relu2_2 <- conv2_2
I0413 18:52:39.901059 14411 net.cpp:395] relu2_2 -> conv2_2 (in-place)
I0413 18:52:39.901069 14411 net.cpp:150] Setting up relu2_2
I0413 18:52:39.901073 14411 net.cpp:157] Top shape: 1 128 500 750 (48000000)
I0413 18:52:39.901077 14411 net.cpp:165] Memory required for data: 2454000116
I0413 18:52:39.901079 14411 layer_factory.hpp:77] Creating layer pool2
I0413 18:52:39.901085 14411 net.cpp:100] Creating Layer pool2
I0413 18:52:39.901088 14411 net.cpp:434] pool2 <- conv2_2
I0413 18:52:39.901094 14411 net.cpp:408] pool2 -> pool2
I0413 18:52:39.901142 14411 net.cpp:150] Setting up pool2
I0413 18:52:39.901150 14411 net.cpp:157] Top shape: 1 128 250 375 (12000000)
I0413 18:52:39.901154 14411 net.cpp:165] Memory required for data: 2502000116
I0413 18:52:39.901157 14411 layer_factory.hpp:77] Creating layer conv3_1
I0413 18:52:39.901166 14411 net.cpp:100] Creating Layer conv3_1
I0413 18:52:39.901170 14411 net.cpp:434] conv3_1 <- pool2
I0413 18:52:39.901176 14411 net.cpp:408] conv3_1 -> conv3_1
I0413 18:52:39.902271 14411 net.cpp:150] Setting up conv3_1
I0413 18:52:39.902298 14411 net.cpp:157] Top shape: 1 256 250 375 (24000000)
I0413 18:52:39.902302 14411 net.cpp:165] Memory required for data: 2598000116
I0413 18:52:39.902315 14411 layer_factory.hpp:77] Creating layer relu3_1
I0413 18:52:39.902324 14411 net.cpp:100] Creating Layer relu3_1
I0413 18:52:39.902328 14411 net.cpp:434] relu3_1 <- conv3_1
I0413 18:52:39.902335 14411 net.cpp:395] relu3_1 -> conv3_1 (in-place)
I0413 18:52:39.902343 14411 net.cpp:150] Setting up relu3_1
I0413 18:52:39.902348 14411 net.cpp:157] Top shape: 1 256 250 375 (24000000)
I0413 18:52:39.902351 14411 net.cpp:165] Memory required for data: 2694000116
I0413 18:52:39.902354 14411 layer_factory.hpp:77] Creating layer conv3_2
I0413 18:52:39.902365 14411 net.cpp:100] Creating Layer conv3_2
I0413 18:52:39.902369 14411 net.cpp:434] conv3_2 <- conv3_1
I0413 18:52:39.902375 14411 net.cpp:408] conv3_2 -> conv3_2
I0413 18:52:39.903581 14411 net.cpp:150] Setting up conv3_2
I0413 18:52:39.903609 14411 net.cpp:157] Top shape: 1 256 250 375 (24000000)
I0413 18:52:39.903620 14411 net.cpp:165] Memory required for data: 2790000116
I0413 18:52:39.903630 14411 layer_factory.hpp:77] Creating layer relu3_2
I0413 18:52:39.903640 14411 net.cpp:100] Creating Layer relu3_2
I0413 18:52:39.903645 14411 net.cpp:434] relu3_2 <- conv3_2
I0413 18:52:39.903652 14411 net.cpp:395] relu3_2 -> conv3_2 (in-place)
I0413 18:52:39.903661 14411 net.cpp:150] Setting up relu3_2
I0413 18:52:39.903666 14411 net.cpp:157] Top shape: 1 256 250 375 (24000000)
I0413 18:52:39.903668 14411 net.cpp:165] Memory required for data: 2886000116
I0413 18:52:39.903671 14411 layer_factory.hpp:77] Creating layer conv3_3
I0413 18:52:39.903681 14411 net.cpp:100] Creating Layer conv3_3
I0413 18:52:39.903684 14411 net.cpp:434] conv3_3 <- conv3_2
I0413 18:52:39.903690 14411 net.cpp:408] conv3_3 -> conv3_3
I0413 18:52:39.905275 14411 net.cpp:150] Setting up conv3_3
I0413 18:52:39.905305 14411 net.cpp:157] Top shape: 1 256 250 375 (24000000)
I0413 18:52:39.905318 14411 net.cpp:165] Memory required for data: 2982000116
I0413 18:52:39.905328 14411 layer_factory.hpp:77] Creating layer relu3_3
I0413 18:52:39.905338 14411 net.cpp:100] Creating Layer relu3_3
I0413 18:52:39.905342 14411 net.cpp:434] relu3_3 <- conv3_3
I0413 18:52:39.905349 14411 net.cpp:395] relu3_3 -> conv3_3 (in-place)
I0413 18:52:39.905359 14411 net.cpp:150] Setting up relu3_3
I0413 18:52:39.905364 14411 net.cpp:157] Top shape: 1 256 250 375 (24000000)
I0413 18:52:39.905366 14411 net.cpp:165] Memory required for data: 3078000116
I0413 18:52:39.905369 14411 layer_factory.hpp:77] Creating layer pool3
I0413 18:52:39.905377 14411 net.cpp:100] Creating Layer pool3
I0413 18:52:39.905380 14411 net.cpp:434] pool3 <- conv3_3
I0413 18:52:39.905385 14411 net.cpp:408] pool3 -> pool3
I0413 18:52:39.905431 14411 net.cpp:150] Setting up pool3
I0413 18:52:39.905437 14411 net.cpp:157] Top shape: 1 256 125 188 (6016000)
I0413 18:52:39.905441 14411 net.cpp:165] Memory required for data: 3102064116
I0413 18:52:39.905444 14411 layer_factory.hpp:77] Creating layer conv4_1
I0413 18:52:39.905454 14411 net.cpp:100] Creating Layer conv4_1
I0413 18:52:39.905458 14411 net.cpp:434] conv4_1 <- pool3
I0413 18:52:39.905463 14411 net.cpp:408] conv4_1 -> conv4_1
I0413 18:52:39.908047 14411 net.cpp:150] Setting up conv4_1
I0413 18:52:39.908079 14411 net.cpp:157] Top shape: 1 512 125 188 (12032000)
I0413 18:52:39.908092 14411 net.cpp:165] Memory required for data: 3150192116
I0413 18:52:39.908102 14411 layer_factory.hpp:77] Creating layer relu4_1
I0413 18:52:39.908113 14411 net.cpp:100] Creating Layer relu4_1
I0413 18:52:39.908118 14411 net.cpp:434] relu4_1 <- conv4_1
I0413 18:52:39.908126 14411 net.cpp:395] relu4_1 -> conv4_1 (in-place)
I0413 18:52:39.908135 14411 net.cpp:150] Setting up relu4_1
I0413 18:52:39.908140 14411 net.cpp:157] Top shape: 1 512 125 188 (12032000)
I0413 18:52:39.908143 14411 net.cpp:165] Memory required for data: 3198320116
I0413 18:52:39.908146 14411 layer_factory.hpp:77] Creating layer conv4_2
I0413 18:52:39.908155 14411 net.cpp:100] Creating Layer conv4_2
I0413 18:52:39.908159 14411 net.cpp:434] conv4_2 <- conv4_1
I0413 18:52:39.908165 14411 net.cpp:408] conv4_2 -> conv4_2
I0413 18:52:39.912354 14411 net.cpp:150] Setting up conv4_2
I0413 18:52:39.912386 14411 net.cpp:157] Top shape: 1 512 125 188 (12032000)
I0413 18:52:39.912400 14411 net.cpp:165] Memory required for data: 3246448116
I0413 18:52:39.912416 14411 layer_factory.hpp:77] Creating layer relu4_2
I0413 18:52:39.912426 14411 net.cpp:100] Creating Layer relu4_2
I0413 18:52:39.912432 14411 net.cpp:434] relu4_2 <- conv4_2
I0413 18:52:39.912441 14411 net.cpp:395] relu4_2 -> conv4_2 (in-place)
I0413 18:52:39.912449 14411 net.cpp:150] Setting up relu4_2
I0413 18:52:39.912454 14411 net.cpp:157] Top shape: 1 512 125 188 (12032000)
I0413 18:52:39.912457 14411 net.cpp:165] Memory required for data: 3294576116
I0413 18:52:39.912461 14411 layer_factory.hpp:77] Creating layer conv4_3
I0413 18:52:39.912468 14411 net.cpp:100] Creating Layer conv4_3
I0413 18:52:39.912472 14411 net.cpp:434] conv4_3 <- conv4_2
I0413 18:52:39.912477 14411 net.cpp:408] conv4_3 -> conv4_3
I0413 18:52:39.916615 14411 net.cpp:150] Setting up conv4_3
I0413 18:52:39.916649 14411 net.cpp:157] Top shape: 1 512 125 188 (12032000)
I0413 18:52:39.916661 14411 net.cpp:165] Memory required for data: 3342704116
I0413 18:52:39.916672 14411 layer_factory.hpp:77] Creating layer relu4_3
I0413 18:52:39.916683 14411 net.cpp:100] Creating Layer relu4_3
I0413 18:52:39.916688 14411 net.cpp:434] relu4_3 <- conv4_3
I0413 18:52:39.916695 14411 net.cpp:395] relu4_3 -> conv4_3 (in-place)
I0413 18:52:39.916705 14411 net.cpp:150] Setting up relu4_3
I0413 18:52:39.916710 14411 net.cpp:157] Top shape: 1 512 125 188 (12032000)
I0413 18:52:39.916712 14411 net.cpp:165] Memory required for data: 3390832116
I0413 18:52:39.916715 14411 layer_factory.hpp:77] Creating layer pool4
I0413 18:52:39.916723 14411 net.cpp:100] Creating Layer pool4
I0413 18:52:39.916728 14411 net.cpp:434] pool4 <- conv4_3
I0413 18:52:39.916733 14411 net.cpp:408] pool4 -> pool4
I0413 18:52:39.916767 14411 net.cpp:150] Setting up pool4
I0413 18:52:39.916774 14411 net.cpp:157] Top shape: 1 512 63 94 (3032064)
I0413 18:52:39.916777 14411 net.cpp:165] Memory required for data: 3402960372
I0413 18:52:39.916781 14411 layer_factory.hpp:77] Creating layer conv5_1
I0413 18:52:39.916792 14411 net.cpp:100] Creating Layer conv5_1
I0413 18:52:39.916795 14411 net.cpp:434] conv5_1 <- pool4
I0413 18:52:39.916802 14411 net.cpp:408] conv5_1 -> conv5_1
I0413 18:52:39.921499 14411 net.cpp:150] Setting up conv5_1
I0413 18:52:39.921531 14411 net.cpp:157] Top shape: 1 512 63 94 (3032064)
I0413 18:52:39.921535 14411 net.cpp:165] Memory required for data: 3415088628
I0413 18:52:39.921546 14411 layer_factory.hpp:77] Creating layer relu5_1
I0413 18:52:39.921557 14411 net.cpp:100] Creating Layer relu5_1
I0413 18:52:39.921562 14411 net.cpp:434] relu5_1 <- conv5_1
I0413 18:52:39.921569 14411 net.cpp:395] relu5_1 -> conv5_1 (in-place)
I0413 18:52:39.921579 14411 net.cpp:150] Setting up relu5_1
I0413 18:52:39.921583 14411 net.cpp:157] Top shape: 1 512 63 94 (3032064)
I0413 18:52:39.921586 14411 net.cpp:165] Memory required for data: 3427216884
I0413 18:52:39.921589 14411 layer_factory.hpp:77] Creating layer conv5_2
I0413 18:52:39.921599 14411 net.cpp:100] Creating Layer conv5_2
I0413 18:52:39.921603 14411 net.cpp:434] conv5_2 <- conv5_1
I0413 18:52:39.921609 14411 net.cpp:408] conv5_2 -> conv5_2
I0413 18:52:39.925969 14411 net.cpp:150] Setting up conv5_2
I0413 18:52:39.926023 14411 net.cpp:157] Top shape: 1 512 63 94 (3032064)
I0413 18:52:39.926028 14411 net.cpp:165] Memory required for data: 3439345140
I0413 18:52:39.926039 14411 layer_factory.hpp:77] Creating layer relu5_2
I0413 18:52:39.926050 14411 net.cpp:100] Creating Layer relu5_2
I0413 18:52:39.926057 14411 net.cpp:434] relu5_2 <- conv5_2
I0413 18:52:39.926064 14411 net.cpp:395] relu5_2 -> conv5_2 (in-place)
I0413 18:52:39.926074 14411 net.cpp:150] Setting up relu5_2
I0413 18:52:39.926079 14411 net.cpp:157] Top shape: 1 512 63 94 (3032064)
I0413 18:52:39.926082 14411 net.cpp:165] Memory required for data: 3451473396
I0413 18:52:39.926085 14411 layer_factory.hpp:77] Creating layer conv5_3
I0413 18:52:39.926101 14411 net.cpp:100] Creating Layer conv5_3
I0413 18:52:39.926105 14411 net.cpp:434] conv5_3 <- conv5_2
I0413 18:52:39.926111 14411 net.cpp:408] conv5_3 -> conv5_3
I0413 18:52:39.930305 14411 net.cpp:150] Setting up conv5_3
I0413 18:52:39.930336 14411 net.cpp:157] Top shape: 1 512 63 94 (3032064)
I0413 18:52:39.930349 14411 net.cpp:165] Memory required for data: 3463601652
I0413 18:52:39.930361 14411 layer_factory.hpp:77] Creating layer relu5_3
I0413 18:52:39.930369 14411 net.cpp:100] Creating Layer relu5_3
I0413 18:52:39.930375 14411 net.cpp:434] relu5_3 <- conv5_3
I0413 18:52:39.930382 14411 net.cpp:395] relu5_3 -> conv5_3 (in-place)
I0413 18:52:39.930393 14411 net.cpp:150] Setting up relu5_3
I0413 18:52:39.930399 14411 net.cpp:157] Top shape: 1 512 63 94 (3032064)
I0413 18:52:39.930402 14411 net.cpp:165] Memory required for data: 3475729908
I0413 18:52:39.930407 14411 layer_factory.hpp:77] Creating layer conv5_3_relu5_3_0_split
I0413 18:52:39.930413 14411 net.cpp:100] Creating Layer conv5_3_relu5_3_0_split
I0413 18:52:39.930418 14411 net.cpp:434] conv5_3_relu5_3_0_split <- conv5_3
I0413 18:52:39.930424 14411 net.cpp:408] conv5_3_relu5_3_0_split -> conv5_3_relu5_3_0_split_0
I0413 18:52:39.930444 14411 net.cpp:408] conv5_3_relu5_3_0_split -> conv5_3_relu5_3_0_split_1
I0413 18:52:39.930485 14411 net.cpp:150] Setting up conv5_3_relu5_3_0_split
I0413 18:52:39.930492 14411 net.cpp:157] Top shape: 1 512 63 94 (3032064)
I0413 18:52:39.930496 14411 net.cpp:157] Top shape: 1 512 63 94 (3032064)
I0413 18:52:39.930500 14411 net.cpp:165] Memory required for data: 3499986420
I0413 18:52:39.930503 14411 layer_factory.hpp:77] Creating layer rpn_big_conv1
I0413 18:52:39.930516 14411 net.cpp:100] Creating Layer rpn_big_conv1
I0413 18:52:39.930521 14411 net.cpp:434] rpn_big_conv1 <- conv5_3_relu5_3_0_split_0
I0413 18:52:39.930527 14411 net.cpp:408] rpn_big_conv1 -> rpn_big_conv1
I0413 18:52:39.955940 14411 net.cpp:150] Setting up rpn_big_conv1
I0413 18:52:39.955981 14411 net.cpp:157] Top shape: 1 512 63 94 (3032064)
I0413 18:52:39.955986 14411 net.cpp:165] Memory required for data: 3512114676
I0413 18:52:39.955996 14411 layer_factory.hpp:77] Creating layer rpn_big_conv1_relu
I0413 18:52:39.956008 14411 net.cpp:100] Creating Layer rpn_big_conv1_relu
I0413 18:52:39.956013 14411 net.cpp:434] rpn_big_conv1_relu <- rpn_big_conv1
I0413 18:52:39.956022 14411 net.cpp:395] rpn_big_conv1_relu -> rpn_big_conv1 (in-place)
I0413 18:52:39.956032 14411 net.cpp:150] Setting up rpn_big_conv1_relu
I0413 18:52:39.956037 14411 net.cpp:157] Top shape: 1 512 63 94 (3032064)
I0413 18:52:39.956039 14411 net.cpp:165] Memory required for data: 3524242932
I0413 18:52:39.956043 14411 layer_factory.hpp:77] Creating layer rpn_big_conv2
I0413 18:52:39.956053 14411 net.cpp:100] Creating Layer rpn_big_conv2
I0413 18:52:39.956058 14411 net.cpp:434] rpn_big_conv2 <- rpn_big_conv1
I0413 18:52:39.956064 14411 net.cpp:408] rpn_big_conv2 -> rpn_big_conv2
I0413 18:52:39.981252 14411 net.cpp:150] Setting up rpn_big_conv2
I0413 18:52:39.981281 14411 net.cpp:157] Top shape: 1 512 63 94 (3032064)
I0413 18:52:39.981294 14411 net.cpp:165] Memory required for data: 3536371188
I0413 18:52:39.981305 14411 layer_factory.hpp:77] Creating layer rpn_big_conv2_relu
I0413 18:52:39.981317 14411 net.cpp:100] Creating Layer rpn_big_conv2_relu
I0413 18:52:39.981322 14411 net.cpp:434] rpn_big_conv2_relu <- rpn_big_conv2
I0413 18:52:39.981329 14411 net.cpp:395] rpn_big_conv2_relu -> rpn_big_conv2 (in-place)
I0413 18:52:39.981339 14411 net.cpp:150] Setting up rpn_big_conv2_relu
I0413 18:52:39.981344 14411 net.cpp:157] Top shape: 1 512 63 94 (3032064)
I0413 18:52:39.981348 14411 net.cpp:165] Memory required for data: 3548499444
I0413 18:52:39.981350 14411 layer_factory.hpp:77] Creating layer rpn_big_conv2_drop
I0413 18:52:39.981356 14411 net.cpp:100] Creating Layer rpn_big_conv2_drop
I0413 18:52:39.981366 14411 net.cpp:434] rpn_big_conv2_drop <- rpn_big_conv2
I0413 18:52:39.981372 14411 net.cpp:395] rpn_big_conv2_drop -> rpn_big_conv2 (in-place)
I0413 18:52:39.981395 14411 net.cpp:150] Setting up rpn_big_conv2_drop
I0413 18:52:39.981401 14411 net.cpp:157] Top shape: 1 512 63 94 (3032064)
I0413 18:52:39.981405 14411 net.cpp:165] Memory required for data: 3560627700
I0413 18:52:39.981407 14411 layer_factory.hpp:77] Creating layer rpn_big_conv2_rpn_big_conv2_drop_0_split
I0413 18:52:39.981415 14411 net.cpp:100] Creating Layer rpn_big_conv2_rpn_big_conv2_drop_0_split
I0413 18:52:39.981418 14411 net.cpp:434] rpn_big_conv2_rpn_big_conv2_drop_0_split <- rpn_big_conv2
I0413 18:52:39.981423 14411 net.cpp:408] rpn_big_conv2_rpn_big_conv2_drop_0_split -> rpn_big_conv2_rpn_big_conv2_drop_0_split_0
I0413 18:52:39.981432 14411 net.cpp:408] rpn_big_conv2_rpn_big_conv2_drop_0_split -> rpn_big_conv2_rpn_big_conv2_drop_0_split_1
I0413 18:52:39.981472 14411 net.cpp:150] Setting up rpn_big_conv2_rpn_big_conv2_drop_0_split
I0413 18:52:39.981479 14411 net.cpp:157] Top shape: 1 512 63 94 (3032064)
I0413 18:52:39.981484 14411 net.cpp:157] Top shape: 1 512 63 94 (3032064)
I0413 18:52:39.981487 14411 net.cpp:165] Memory required for data: 3584884212
I0413 18:52:39.981490 14411 layer_factory.hpp:77] Creating layer rpn_big_output_cls
I0413 18:52:39.981503 14411 net.cpp:100] Creating Layer rpn_big_output_cls
I0413 18:52:39.981508 14411 net.cpp:434] rpn_big_output_cls <- rpn_big_conv2_rpn_big_conv2_drop_0_split_0
I0413 18:52:39.981513 14411 net.cpp:408] rpn_big_output_cls -> rpn_big_output_cls
I0413 18:52:39.999848 14411 net.cpp:150] Setting up rpn_big_output_cls
I0413 18:52:39.999876 14411 net.cpp:157] Top shape: 1 384 63 94 (2274048)
I0413 18:52:39.999889 14411 net.cpp:165] Memory required for data: 3593980404
I0413 18:52:39.999899 14411 layer_factory.hpp:77] Creating layer rpn_big_output_cls_relu
I0413 18:52:39.999910 14411 net.cpp:100] Creating Layer rpn_big_output_cls_relu
I0413 18:52:39.999917 14411 net.cpp:434] rpn_big_output_cls_relu <- rpn_big_output_cls
I0413 18:52:39.999924 14411 net.cpp:395] rpn_big_output_cls_relu -> rpn_big_output_cls (in-place)
I0413 18:52:39.999935 14411 net.cpp:150] Setting up rpn_big_output_cls_relu
I0413 18:52:39.999939 14411 net.cpp:157] Top shape: 1 384 63 94 (2274048)
I0413 18:52:39.999943 14411 net.cpp:165] Memory required for data: 3603076596
I0413 18:52:39.999945 14411 layer_factory.hpp:77] Creating layer rpn_big_cls_score
I0413 18:52:39.999958 14411 net.cpp:100] Creating Layer rpn_big_cls_score
I0413 18:52:39.999969 14411 net.cpp:434] rpn_big_cls_score <- rpn_big_output_cls
I0413 18:52:39.999974 14411 net.cpp:408] rpn_big_cls_score -> rpn_big_cls_score
I0413 18:52:40.002357 14411 net.cpp:150] Setting up rpn_big_cls_score
I0413 18:52:40.002380 14411 net.cpp:157] Top shape: 1 52 61 92 (291824)
I0413 18:52:40.002383 14411 net.cpp:165] Memory required for data: 3604243892
I0413 18:52:40.002399 14411 layer_factory.hpp:77] Creating layer rpn_big_cls_score_rpn_big_cls_score_0_split
I0413 18:52:40.002410 14411 net.cpp:100] Creating Layer rpn_big_cls_score_rpn_big_cls_score_0_split
I0413 18:52:40.002415 14411 net.cpp:434] rpn_big_cls_score_rpn_big_cls_score_0_split <- rpn_big_cls_score
I0413 18:52:40.002421 14411 net.cpp:408] rpn_big_cls_score_rpn_big_cls_score_0_split -> rpn_big_cls_score_rpn_big_cls_score_0_split_0
I0413 18:52:40.002430 14411 net.cpp:408] rpn_big_cls_score_rpn_big_cls_score_0_split -> rpn_big_cls_score_rpn_big_cls_score_0_split_1
I0413 18:52:40.002463 14411 net.cpp:150] Setting up rpn_big_cls_score_rpn_big_cls_score_0_split
I0413 18:52:40.002472 14411 net.cpp:157] Top shape: 1 52 61 92 (291824)
I0413 18:52:40.002477 14411 net.cpp:157] Top shape: 1 52 61 92 (291824)
I0413 18:52:40.002480 14411 net.cpp:165] Memory required for data: 3606578484
I0413 18:52:40.002483 14411 layer_factory.hpp:77] Creating layer rpn_big_cls_score_reshape
I0413 18:52:40.002490 14411 net.cpp:100] Creating Layer rpn_big_cls_score_reshape
I0413 18:52:40.002495 14411 net.cpp:434] rpn_big_cls_score_reshape <- rpn_big_cls_score_rpn_big_cls_score_0_split_0
I0413 18:52:40.002502 14411 net.cpp:408] rpn_big_cls_score_reshape -> rpn_big_cls_score_reshape
I0413 18:52:40.002526 14411 net.cpp:150] Setting up rpn_big_cls_score_reshape
I0413 18:52:40.002534 14411 net.cpp:157] Top shape: 1 2 1586 92 (291824)
I0413 18:52:40.002537 14411 net.cpp:165] Memory required for data: 3607745780
I0413 18:52:40.002540 14411 layer_factory.hpp:77] Creating layer rpn_big_cls_score_reshape_rpn_big_cls_score_reshape_0_split
I0413 18:52:40.002545 14411 net.cpp:100] Creating Layer rpn_big_cls_score_reshape_rpn_big_cls_score_reshape_0_split
I0413 18:52:40.002549 14411 net.cpp:434] rpn_big_cls_score_reshape_rpn_big_cls_score_reshape_0_split <- rpn_big_cls_score_reshape
I0413 18:52:40.002555 14411 net.cpp:408] rpn_big_cls_score_reshape_rpn_big_cls_score_reshape_0_split -> rpn_big_cls_score_reshape_rpn_big_cls_score_reshape_0_split_0
I0413 18:52:40.002562 14411 net.cpp:408] rpn_big_cls_score_reshape_rpn_big_cls_score_reshape_0_split -> rpn_big_cls_score_reshape_rpn_big_cls_score_reshape_0_split_1
I0413 18:52:40.002591 14411 net.cpp:150] Setting up rpn_big_cls_score_reshape_rpn_big_cls_score_reshape_0_split
I0413 18:52:40.002599 14411 net.cpp:157] Top shape: 1 2 1586 92 (291824)
I0413 18:52:40.002604 14411 net.cpp:157] Top shape: 1 2 1586 92 (291824)
I0413 18:52:40.002606 14411 net.cpp:165] Memory required for data: 3610080372
I0413 18:52:40.002609 14411 layer_factory.hpp:77] Creating layer rpn_big_cls_prob
I0413 18:52:40.002615 14411 net.cpp:100] Creating Layer rpn_big_cls_prob
I0413 18:52:40.002619 14411 net.cpp:434] rpn_big_cls_prob <- rpn_big_cls_score_reshape_rpn_big_cls_score_reshape_0_split_0
I0413 18:52:40.002625 14411 net.cpp:408] rpn_big_cls_prob -> rpn_big_cls_prob
I0413 18:52:40.002674 14411 net.cpp:150] Setting up rpn_big_cls_prob
I0413 18:52:40.002682 14411 net.cpp:157] Top shape: 1 2 1586 92 (291824)
I0413 18:52:40.002686 14411 net.cpp:165] Memory required for data: 3611247668
I0413 18:52:40.002688 14411 layer_factory.hpp:77] Creating layer rpn_big_cls_prob_reshape
I0413 18:52:40.002693 14411 net.cpp:100] Creating Layer rpn_big_cls_prob_reshape
I0413 18:52:40.002697 14411 net.cpp:434] rpn_big_cls_prob_reshape <- rpn_big_cls_prob
I0413 18:52:40.002702 14411 net.cpp:408] rpn_big_cls_prob_reshape -> rpn_big_cls_prob_reshape
I0413 18:52:40.002722 14411 net.cpp:150] Setting up rpn_big_cls_prob_reshape
I0413 18:52:40.002728 14411 net.cpp:157] Top shape: 1 52 61 92 (291824)
I0413 18:52:40.002732 14411 net.cpp:165] Memory required for data: 3612414964
I0413 18:52:40.002734 14411 layer_factory.hpp:77] Creating layer rpn_big_cls_prob_reshape_rpn_big_cls_prob_reshape_0_split
I0413 18:52:40.002739 14411 net.cpp:100] Creating Layer rpn_big_cls_prob_reshape_rpn_big_cls_prob_reshape_0_split
I0413 18:52:40.002743 14411 net.cpp:434] rpn_big_cls_prob_reshape_rpn_big_cls_prob_reshape_0_split <- rpn_big_cls_prob_reshape
I0413 18:52:40.002748 14411 net.cpp:408] rpn_big_cls_prob_reshape_rpn_big_cls_prob_reshape_0_split -> rpn_big_cls_prob_reshape_rpn_big_cls_prob_reshape_0_split_0
I0413 18:52:40.002755 14411 net.cpp:408] rpn_big_cls_prob_reshape_rpn_big_cls_prob_reshape_0_split -> rpn_big_cls_prob_reshape_rpn_big_cls_prob_reshape_0_split_1
I0413 18:52:40.002781 14411 net.cpp:150] Setting up rpn_big_cls_prob_reshape_rpn_big_cls_prob_reshape_0_split
I0413 18:52:40.002787 14411 net.cpp:157] Top shape: 1 52 61 92 (291824)
I0413 18:52:40.002791 14411 net.cpp:157] Top shape: 1 52 61 92 (291824)
I0413 18:52:40.002794 14411 net.cpp:165] Memory required for data: 3614749556
I0413 18:52:40.002797 14411 layer_factory.hpp:77] Creating layer rpn_big_anchor_target
I0413 18:52:40.004097 14411 net.cpp:100] Creating Layer rpn_big_anchor_target
I0413 18:52:40.004119 14411 net.cpp:434] rpn_big_anchor_target <- rpn_big_cls_score_rpn_big_cls_score_0_split_1
I0413 18:52:40.004127 14411 net.cpp:434] rpn_big_anchor_target <- input_gt_boxes_input_2_split_0
I0413 18:52:40.004132 14411 net.cpp:434] rpn_big_anchor_target <- input_ignored_boxes
I0413 18:52:40.004137 14411 net.cpp:434] rpn_big_anchor_target <- input_im_info_input_1_split_0
I0413 18:52:40.004140 14411 net.cpp:434] rpn_big_anchor_target <- input_data_input_0_split_1
I0413 18:52:40.004144 14411 net.cpp:434] rpn_big_anchor_target <- rpn_big_cls_prob_reshape_rpn_big_cls_prob_reshape_0_split_0
I0413 18:52:40.004151 14411 net.cpp:408] rpn_big_anchor_target -> rpn_big_anchor_target_labels
I0413 18:52:40.004161 14411 net.cpp:408] rpn_big_anchor_target -> rpn_big_anchor_target_bbox_targets
I0413 18:52:40.004169 14411 net.cpp:408] rpn_big_anchor_target -> rpn_big_anchor_target_inside_weights
I0413 18:52:40.004178 14411 net.cpp:408] rpn_big_anchor_target -> rpn_big_anchor_target_outside_weights
I0413 18:52:40.008862 14411 net.cpp:150] Setting up rpn_big_anchor_target
I0413 18:52:40.008893 14411 net.cpp:157] Top shape: 1 1 1586 92 (145912)
I0413 18:52:40.008899 14411 net.cpp:157] Top shape: 1 104 61 92 (583648)
I0413 18:52:40.008909 14411 net.cpp:157] Top shape: 1 104 61 92 (583648)
I0413 18:52:40.008918 14411 net.cpp:157] Top shape: 1 104 61 92 (583648)
I0413 18:52:40.008920 14411 net.cpp:165] Memory required for data: 3622336980
I0413 18:52:40.008925 14411 layer_factory.hpp:77] Creating layer rpn_big_loss_cls
I0413 18:52:40.008936 14411 net.cpp:100] Creating Layer rpn_big_loss_cls
I0413 18:52:40.008941 14411 net.cpp:434] rpn_big_loss_cls <- rpn_big_cls_score_reshape_rpn_big_cls_score_reshape_0_split_1
I0413 18:52:40.008949 14411 net.cpp:434] rpn_big_loss_cls <- rpn_big_anchor_target_labels
I0413 18:52:40.008955 14411 net.cpp:408] rpn_big_loss_cls -> rpn_big_loss_cls
I0413 18:52:40.008967 14411 layer_factory.hpp:77] Creating layer rpn_big_loss_cls
I0413 18:52:40.009580 14411 net.cpp:150] Setting up rpn_big_loss_cls
I0413 18:52:40.009594 14411 net.cpp:157] Top shape: (1)
I0413 18:52:40.009598 14411 net.cpp:160]     with loss weight 1
I0413 18:52:40.009616 14411 net.cpp:165] Memory required for data: 3622336984
I0413 18:52:40.009621 14411 layer_factory.hpp:77] Creating layer rpn_big_output_box
I0413 18:52:40.009635 14411 net.cpp:100] Creating Layer rpn_big_output_box
I0413 18:52:40.009640 14411 net.cpp:434] rpn_big_output_box <- rpn_big_conv2_rpn_big_conv2_drop_0_split_1
I0413 18:52:40.009647 14411 net.cpp:408] rpn_big_output_box -> rpn_big_output_box
I0413 18:52:40.028398 14411 net.cpp:150] Setting up rpn_big_output_box
I0413 18:52:40.028427 14411 net.cpp:157] Top shape: 1 384 63 94 (2274048)
I0413 18:52:40.028440 14411 net.cpp:165] Memory required for data: 3631433176
I0413 18:52:40.028450 14411 layer_factory.hpp:77] Creating layer rpn_big_output_box_relu
I0413 18:52:40.028461 14411 net.cpp:100] Creating Layer rpn_big_output_box_relu
I0413 18:52:40.028468 14411 net.cpp:434] rpn_big_output_box_relu <- rpn_big_output_box
I0413 18:52:40.028476 14411 net.cpp:395] rpn_big_output_box_relu -> rpn_big_output_box (in-place)
I0413 18:52:40.028487 14411 net.cpp:150] Setting up rpn_big_output_box_relu
I0413 18:52:40.028491 14411 net.cpp:157] Top shape: 1 384 63 94 (2274048)
I0413 18:52:40.028494 14411 net.cpp:165] Memory required for data: 3640529368
I0413 18:52:40.028497 14411 layer_factory.hpp:77] Creating layer rpn_big_bbox_pred
I0413 18:52:40.028509 14411 net.cpp:100] Creating Layer rpn_big_bbox_pred
I0413 18:52:40.028512 14411 net.cpp:434] rpn_big_bbox_pred <- rpn_big_output_box
I0413 18:52:40.028520 14411 net.cpp:408] rpn_big_bbox_pred -> rpn_big_bbox_pred
I0413 18:52:40.032431 14411 net.cpp:150] Setting up rpn_big_bbox_pred
I0413 18:52:40.032446 14411 net.cpp:157] Top shape: 1 104 61 92 (583648)
I0413 18:52:40.032450 14411 net.cpp:165] Memory required for data: 3642863960
I0413 18:52:40.032466 14411 layer_factory.hpp:77] Creating layer rpn_big_bbox_pred_rpn_big_bbox_pred_0_split
I0413 18:52:40.032474 14411 net.cpp:100] Creating Layer rpn_big_bbox_pred_rpn_big_bbox_pred_0_split
I0413 18:52:40.032477 14411 net.cpp:434] rpn_big_bbox_pred_rpn_big_bbox_pred_0_split <- rpn_big_bbox_pred
I0413 18:52:40.032483 14411 net.cpp:408] rpn_big_bbox_pred_rpn_big_bbox_pred_0_split -> rpn_big_bbox_pred_rpn_big_bbox_pred_0_split_0
I0413 18:52:40.032492 14411 net.cpp:408] rpn_big_bbox_pred_rpn_big_bbox_pred_0_split -> rpn_big_bbox_pred_rpn_big_bbox_pred_0_split_1
I0413 18:52:40.032524 14411 net.cpp:150] Setting up rpn_big_bbox_pred_rpn_big_bbox_pred_0_split
I0413 18:52:40.032531 14411 net.cpp:157] Top shape: 1 104 61 92 (583648)
I0413 18:52:40.032536 14411 net.cpp:157] Top shape: 1 104 61 92 (583648)
I0413 18:52:40.032538 14411 net.cpp:165] Memory required for data: 3647533144
I0413 18:52:40.032542 14411 layer_factory.hpp:77] Creating layer rpn_big_loss_bbox
I0413 18:52:40.032944 14411 net.cpp:100] Creating Layer rpn_big_loss_bbox
I0413 18:52:40.032954 14411 net.cpp:434] rpn_big_loss_bbox <- rpn_big_bbox_pred_rpn_big_bbox_pred_0_split_0
I0413 18:52:40.032960 14411 net.cpp:434] rpn_big_loss_bbox <- rpn_big_anchor_target_bbox_targets
I0413 18:52:40.032965 14411 net.cpp:434] rpn_big_loss_bbox <- rpn_big_anchor_target_inside_weights
I0413 18:52:40.032969 14411 net.cpp:434] rpn_big_loss_bbox <- rpn_big_anchor_target_outside_weights
I0413 18:52:40.032976 14411 net.cpp:408] rpn_big_loss_bbox -> rpn_big_loss_bbox
I0413 18:52:40.034849 14411 net.cpp:150] Setting up rpn_big_loss_bbox
I0413 18:52:40.034881 14411 net.cpp:157] Top shape: 1 (1)
I0413 18:52:40.034894 14411 net.cpp:160]     with loss weight 1
I0413 18:52:40.034906 14411 net.cpp:165] Memory required for data: 3647533148
I0413 18:52:40.034912 14411 layer_factory.hpp:77] Creating layer proposal
I0413 18:52:40.035312 14411 net.cpp:100] Creating Layer proposal
I0413 18:52:40.035323 14411 net.cpp:434] proposal <- rpn_big_cls_prob_reshape_rpn_big_cls_prob_reshape_0_split_1
I0413 18:52:40.035339 14411 net.cpp:434] proposal <- rpn_big_bbox_pred_rpn_big_bbox_pred_0_split_1
I0413 18:52:40.035344 14411 net.cpp:434] proposal <- input_im_info_input_1_split_1
I0413 18:52:40.035352 14411 net.cpp:408] proposal -> rpn_rois
I0413 18:52:40.040487 14411 net.cpp:150] Setting up proposal
I0413 18:52:40.040513 14411 net.cpp:157] Top shape: 1 5 (5)
I0413 18:52:40.040519 14411 net.cpp:165] Memory required for data: 3647533168
I0413 18:52:40.040527 14411 layer_factory.hpp:77] Creating layer roi-data
I0413 18:52:40.041028 14411 net.cpp:100] Creating Layer roi-data
I0413 18:52:40.041048 14411 net.cpp:434] roi-data <- rpn_rois
I0413 18:52:40.041059 14411 net.cpp:434] roi-data <- input_gt_boxes_input_2_split_1
I0413 18:52:40.041069 14411 net.cpp:408] roi-data -> rois
I0413 18:52:40.041082 14411 net.cpp:408] roi-data -> labels
I0413 18:52:40.041095 14411 net.cpp:408] roi-data -> bbox_targets
I0413 18:52:40.041105 14411 net.cpp:408] roi-data -> bbox_inside_weights
I0413 18:52:40.041116 14411 net.cpp:408] roi-data -> bbox_outside_weights
I0413 18:52:40.041126 14411 net.cpp:408] roi-data -> pid_label
I0413 18:52:40.042168 14411 net.cpp:150] Setting up roi-data
I0413 18:52:40.042191 14411 net.cpp:157] Top shape: 1 5 (5)
I0413 18:52:40.042194 14411 net.cpp:157] Top shape: 1 1 (1)
I0413 18:52:40.042198 14411 net.cpp:157] Top shape: 1 8 (8)
I0413 18:52:40.042202 14411 net.cpp:157] Top shape: 1 8 (8)
I0413 18:52:40.042207 14411 net.cpp:157] Top shape: 1 8 (8)
I0413 18:52:40.042209 14411 net.cpp:157] Top shape: (0)
I0413 18:52:40.042212 14411 net.cpp:165] Memory required for data: 3647533288
I0413 18:52:40.042217 14411 layer_factory.hpp:77] Creating layer pid_label_roi-data_5_split
I0413 18:52:40.042227 14411 net.cpp:100] Creating Layer pid_label_roi-data_5_split
I0413 18:52:40.042230 14411 net.cpp:434] pid_label_roi-data_5_split <- pid_label
I0413 18:52:40.042239 14411 net.cpp:408] pid_label_roi-data_5_split -> pid_label_roi-data_5_split_0
…
