…
I0413 18:52:18.007076 14365 solver.cpp:48] Initializing solver from parameters: 
base_lr: 0.001
display: 20
lr_policy: "multistep"
gamma: 0.1
momentum: 0.9
weight_decay: 0.0005
snapshot: 0
snapshot_prefix: "faces_example"
net_param {
  name: "GeneratedModel_13_04_2017_18_52"
  layer {
    name: "input"
    type: "Python"
    top: "input_data"
    top: "input_im_info"
    top: "input_gt_boxes"
    top: "input_ignored_boxes"
    python_param {
      module: "layers.roi_data_layer"
      layer: "RoIDataLayer"
      param_str: "{\"num_classes\": 2}"
    }
  }
  layer {
    name: "conv1_1"
    type: "Convolution"
    bottom: "input_data"
    top: "conv1_1"
    param {
      lr_mult: 0
      decay_mult: 0
    }
    param {
      lr_mult: 0
      decay_mult: 0
    }
    convolution_param {
      num_output: 64
      pad: 1
      kernel_size: 3
    }
  }
  layer {
    name: "relu1_1"
    type: "ReLU"
    bottom: "conv1_1"
    top: "conv1_1"
  }
  layer {
    name: "conv1_2"
    type: "Convolution"
    bottom: "conv1_1"
    top: "conv1_2"
    param {
      lr_mult: 0
      decay_mult: 0
    }
    param {
      lr_mult: 0
      decay_mult: 0
    }
    convolution_param {
      num_output: 64
      pad: 1
      kernel_size: 3
    }
  }
  layer {
    name: "relu1_2"
    type: "ReLU"
    bottom: "conv1_2"
    top: "conv1_2"
  }
  layer {
    name: "pool1"
    type: "Pooling"
    bottom: "conv1_2"
    top: "pool1"
    pooling_param {
      pool: MAX
      kernel_size: 2
      stride: 2
    }
  }
  layer {
    name: "conv2_1"
    type: "Convolution"
    bottom: "pool1"
    top: "conv2_1"
    param {
      lr_mult: 0
      decay_mult: 0
    }
    param {
      lr_mult: 0
      decay_mult: 0
    }
    convolution_param {
      num_output: 128
      pad: 1
      kernel_size: 3
    }
  }
  layer {
    name: "relu2_1"
    type: "ReLU"
    bottom: "conv2_1"
    top: "conv2_1"
  }
  layer {
    name: "conv2_2"
    type: "Convolution"
    bottom: "conv2_1"
    top: "conv2_2"
    param {
      lr_mult: 0
      decay_mult: 0
    }
    param {
      lr_mult: 0
      decay_mult: 0
    }
    convolution_param {
      num_output: 128
      pad: 1
      kernel_size: 3
    }
  }
  layer {
    name: "relu2_2"
    type: "ReLU"
    bottom: "conv2_2"
    top: "conv2_2"
  }
  layer {
    name: "pool2"
    type: "Pooling"
    bottom: "conv2_2"
    top: "pool2"
    pooling_param {
      pool: MAX
      kernel_size: 2
      stride: 2
    }
  }
  layer {
    name: "conv3_1"
    type: "Convolution"
    bottom: "pool2"
    top: "conv3_1"
    param {
      lr_mult: 1
    }
    param {
      lr_mult: 2
    }
    convolution_param {
      num_output: 256
      pad: 1
      kernel_size: 3
    }
  }
  layer {
    name: "relu3_1"
    type: "ReLU"
    bottom: "conv3_1"
    top: "conv3_1"
  }
  layer {
    name: "conv3_2"
    type: "Convolution"
    bottom: "conv3_1"
    top: "conv3_2"
    param {
      lr_mult: 1
    }
    param {
      lr_mult: 2
    }
    convolution_param {
      num_output: 256
      pad: 1
      kernel_size: 3
    }
  }
  layer {
    name: "relu3_2"
    type: "ReLU"
    bottom: "conv3_2"
    top: "conv3_2"
  }
  layer {
    name: "conv3_3"
    type: "Convolution"
    bottom: "conv3_2"
    top: "conv3_3"
    param {
      lr_mult: 1
    }
    param {
      lr_mult: 2
    }
    convolution_param {
      num_output: 256
      pad: 1
      kernel_size: 3
    }
  }
  layer {
    name: "relu3_3"
    type: "ReLU"
    bottom: "conv3_3"
    top: "conv3_3"
  }
  layer {
    name: "pool3"
    type: "Pooling"
    bottom: "conv3_3"
    top: "pool3"
    pooling_param {
      pool: MAX
      kernel_size: 2
      stride: 2
    }
  }
  layer {
    name: "conv4_1"
    type: "Convolution"
    bottom: "pool3"
    top: "conv4_1"
    param {
      lr_mult: 1
    }
    param {
      lr_mult: 2
    }
    convolution_param {
      num_output: 512
      pad: 1
      kernel_size: 3
    }
  }
  layer {
    name: "relu4_1"
    type: "ReLU"
    bottom: "conv4_1"
    top: "conv4_1"
  }
  layer {
    name: "conv4_2"
    type: "Convolution"
    bottom: "conv4_1"
    top: "conv4_2"
    param {
      lr_mult: 1
    }
    param {
      lr_mult: 2
    }
    convolution_param {
      num_output: 512
      pad: 1
      kernel_size: 3
    }
  }
  layer {
    name: "relu4_2"
    type: "ReLU"
    bottom: "conv4_2"
    top: "conv4_2"
  }
  layer {
    name: "conv4_3"
    type: "Convolution"
    bottom: "conv4_2"
    top: "conv4_3"
    param {
      lr_mult: 1
    }
    param {
      lr_mult: 2
    }
    convolution_param {
      num_output: 512
      pad: 1
      kernel_size: 3
    }
  }
  layer {
    name: "relu4_3"
    type: "ReLU"
    bottom: "conv4_3"
    top: "conv4_3"
  }
  layer {
    name: "pool4"
    type: "Pooling"
    bottom: "conv4_3"
    top: "pool4"
    pooling_param {
      pool: MAX
      kernel_size: 2
      stride: 2
    }
  }
  layer {
    name: "conv5_1"
    type: "Convolution"
    bottom: "pool4"
    top: "conv5_1"
    param {
      lr_mult: 1
    }
    param {
      lr_mult: 2
    }
    convolution_param {
      num_output: 512
      pad: 1
      kernel_size: 3
    }
  }
  layer {
    name: "relu5_1"
    type: "ReLU"
    bottom: "conv5_1"
    top: "conv5_1"
  }
  layer {
    name: "conv5_2"
    type: "Convolution"
    bottom: "conv5_1"
    top: "conv5_2"
    param {
      lr_mult: 1
    }
    param {
      lr_mult: 2
    }
    convolution_param {
      num_output: 512
      pad: 1
      kernel_size: 3
    }
  }
  layer {
    name: "relu5_2"
    type: "ReLU"
    bottom: "conv5_2"
    top: "conv5_2"
  }
  layer {
    name: "conv5_3"
    type: "Convolution"
    bottom: "conv5_2"
    top: "conv5_3"
    param {
      lr_mult: 1
    }
    param {
      lr_mult: 2
    }
    convolution_param {
      num_output: 512
      pad: 1
      kernel_size: 3
    }
  }
  layer {
    name: "relu5_3"
    type: "ReLU"
    bottom: "conv5_3"
    top: "conv5_3"
  }
  layer {
    name: "rpn_big_conv1"
    type: "Convolution"
    bottom: "conv5_3"
    top: "rpn_big_conv1"
    param {
      lr_mult: 1
    }
    param {
      lr_mult: 2
    }
    convolution_param {
      num_output: 512
      pad: 1
      kernel_size: 3
      stride: 1
      weight_filler {
        type: "gaussian"
        mean: 0
        std: 0.01
      }
      bias_filler {
        type: "constant"
      }
    }
  }
  layer {
    name: "rpn_big_conv1_relu"
    type: "ReLU"
    bottom: "rpn_big_conv1"
    top: "rpn_big_conv1"
    relu_param {
      negative_slope: 0
    }
  }
  layer {
    name: "rpn_big_conv2"
    type: "Convolution"
    bottom: "rpn_big_conv1"
    top: "rpn_big_conv2"
    param {
      lr_mult: 1
    }
    param {
      lr_mult: 2
    }
    convolution_param {
      num_output: 512
      pad: 1
      kernel_size: 3
      stride: 1
      weight_filler {
        type: "gaussian"
        mean: 0
        std: 0.01
      }
      bias_filler {
        type: "constant"
      }
    }
  }
  layer {
    name: "rpn_big_conv2_relu"
    type: "ReLU"
    bottom: "rpn_big_conv2"
    top: "rpn_big_conv2"
    relu_param {
      negative_slope: 0
    }
  }
  layer {
    name: "rpn_big_conv2_drop"
    type: "Dropout"
    bottom: "rpn_big_conv2"
    top: "rpn_big_conv2"
    dropout_param {
      dropout_ratio: 0.3
    }
  }
  layer {
    name: "rpn_big_output_cls"
    type: "Convolution"
    bottom: "rpn_big_conv2"
    top: "rpn_big_output_cls"
    param {
      lr_mult: 1
    }
    param {
      lr_mult: 2
    }
    convolution_param {
      num_output: 384
      pad: 1
      kernel_size: 3
      stride: 1
      weight_filler {
        type: "gaussian"
        mean: 0
        std: 0.01
      }
      bias_filler {
        type: "constant"
      }
    }
  }
  layer {
    name: "rpn_big_output_cls_relu"
    type: "ReLU"
    bottom: "rpn_big_output_cls"
    top: "rpn_big_output_cls"
    relu_param {
      negative_slope: 0
    }
  }
  layer {
    name: "rpn_big_cls_score"
    type: "Convolution"
    bottom: "rpn_big_output_cls"
    top: "rpn_big_cls_score"
    param {
      lr_mult: 1
    }
    param {
      lr_mult: 2
    }
    convolution_param {
      num_output: 52
      pad: 0
      kernel_size: 3
      stride: 1
      weight_filler {
        type: "gaussian"
        mean: 0
        std: 0.01
      }
      bias_filler {
        type: "constant"
      }
    }
  }
  layer {
    name: "rpn_big_cls_score_reshape"
    type: "Reshape"
    bottom: "rpn_big_cls_score"
    top: "rpn_big_cls_score_reshape"
    reshape_param {
      shape {
        dim: 0
        dim: 2
        dim: -1
        dim: 0
      }
    }
  }
  layer {
    name: "rpn_big_cls_prob"
    type: "Softmax"
    bottom: "rpn_big_cls_score_reshape"
    top: "rpn_big_cls_prob"
  }
  layer {
    name: "rpn_big_cls_prob_reshape"
    type: "Reshape"
    bottom: "rpn_big_cls_prob"
    top: "rpn_big_cls_prob_reshape"
    reshape_param {
      shape {
        dim: 0
        dim: 52
        dim: -1
        dim: 0
      }
    }
  }
  layer {
    name: "rpn_big_anchor_target"
    type: "Python"
    bottom: "rpn_big_cls_score"
    bottom: "input_gt_boxes"
    bottom: "input_ignored_boxes"
    bottom: "input_im_info"
    bottom: "input_data"
    bottom: "rpn_big_cls_prob_reshape"
    top: "rpn_big_anchor_target_labels"
    top: "rpn_big_anchor_target_bbox_targets"
    top: "rpn_big_anchor_target_inside_weights"
    top: "rpn_big_anchor_target_outside_weights"
    python_param {
      module: "rpn.anchor_target_layer"
      layer: "AnchorTargetLayer"
      param_str: "{\"anchor_shift_num_xy\": [[2, 2], [2, 2], [2, 2], [2, 2], [1, 1], [1, 1], [1, 1], [1, 1], [1, 1], [1, 1], [1, 1], [1, 1], [1, 1], [1, 1]], \"tn_fraction\": 0.2, \"square_targets\": true, \"negative_overlap\": 0.4, \"batchsize\": 256, \"feat_stride\": 16, \"fg_fraction\": 0.5, \"num_classes\": 1, \"anchor_ratios\": [1.0], \"name\": \"rpn_big\", \"anchor_scales\": [2.5, 3.025, 3.66025, 4.4289024999999995, 5.358972025, 6.484356150249999, 7.846070941802498, 9.493745839581022, 11.487432465893036, 13.899793283730574, 16.818749873313998, 20.350687346709933, 24.62433168951902, 29.795441344318014], \"positive_overlap\": 0.6}"
    }
  }
  layer {
    name: "rpn_big_loss_cls"
    type: "SoftmaxWithLoss"
    bottom: "rpn_big_cls_score_reshape"
    bottom: "rpn_big_anchor_target_labels"
    top: "rpn_big_loss_cls"
    loss_weight: 1
    propagate_down: true
    propagate_down: false
    loss_param {
      ignore_label: -1
      normalization: VALID
    }
  }
  layer {
    name: "rpn_big_output_box"
    type: "Convolution"
    bottom: "rpn_big_conv2"
    top: "rpn_big_output_box"
    param {
      lr_mult: 1
    }
    param {
      lr_mult: 2
    }
    convolution_param {
      num_output: 384
      pad: 1
      kernel_size: 3
      stride: 1
      weight_filler {
        type: "gaussian"
        mean: 0
        std: 0.01
      }
      bias_filler {
        type: "constant"
      }
    }
  }
  layer {
    name: "rpn_big_output_box_relu"
    type: "ReLU"
    bottom: "rpn_big_output_box"
    top: "rpn_big_output_box"
    relu_param {
      negative_slope: 0
    }
  }
  layer {
    name: "rpn_big_bbox_pred"
    type: "Convolution"
    bottom: "rpn_big_output_box"
    top: "rpn_big_bbox_pred"
    param {
      lr_mult: 1
    }
    param {
      lr_mult: 2
    }
    convolution_param {
      num_output: 104
      pad: 0
      kernel_size: 3
      stride: 1
      weight_filler {
        type: "gaussian"
        mean: 0
        std: 0.01
      }
      bias_filler {
        type: "constant"
      }
    }
  }
  layer {
    name: "rpn_big_loss_bbox"
    type: "Python"
    bottom: "rpn_big_bbox_pred"
    bottom: "rpn_big_anchor_target_bbox_targets"
    bottom: "rpn_big_anchor_target_inside_weights"
    bottom: "rpn_big_anchor_target_outside_weights"
    top: "rpn_big_loss_bbox"
    loss_weight: 1
    python_param {
      module: "layers.smooth_l1_loss"
      layer: "SmoothL1LossLayer"
      param_str: "{\"sigma\": 3}"
    }
  }
  layer {
    name: "proposal"
    type: "Python"
    bottom: "rpn_big_cls_prob_reshape"
    bottom: "rpn_big_bbox_pred"
    bottom: "input_im_info"
    top: "rpn_rois"
    python_param {
      module: "rpn.proposal_layer"
      layer: "ProposalLayer"
      param_str: "{\"anchor_shift_num_xy\": [[2, 2], [2, 2], [2, 2], [2, 2], [1, 1], [1, 1], [1, 1], [1, 1], [1, 1], [1, 1], [1, 1], [1, 1], [1, 1], [1, 1]], \"feat_stride\": 16, \"num_classes\": 1, \"anchor_scales\": [2.5, 3.025, 3.66025, 4.4289024999999995, 5.358972025, 6.484356150249999, 7.846070941802498, 9.493745839581022, 11.487432465893036, 13.899793283730574, 16.818749873313998, 20.350687346709933, 24.62433168951902, 29.795441344318014], \"square_targets\": true, \"name\": \"rpn_big\", \"batchsize\": 256, \"anchor_ratios\": [1.0]}"
    }
  }
  layer {
    name: "roi-data"
    type: "Python"
    bottom: "rpn_rois"
    bottom: "input_gt_boxes"
    top: "rois"
    top: "labels"
    top: "bbox_targets"
    top: "bbox_inside_weights"
    top: "bbox_outside_weights"
    top: "pid_label"
    python_param {
      module: "rpn.proposal_target_layer"
      layer: "ProposalTargetLayer"
      param_str: "{\"num_classes\": 2, \"bg_aux_label\": 5532}"
    }
  }
  layer {
    name: "roi-pool"
    type: "ROIPooling"
    bottom: "conv5_3"
    bottom: "rois"
    top: "roi-pool"
    roi_pooling_param {
      pooled_h: 7
      pooled_w: 7
      spatial_scale: 0.0625
    }
  }
  layer {
    name: "fc6"
    type: "InnerProduct"
    bottom: "roi-pool"
    top: "fc6"
    param {
      lr_mult: 1
    }
    param {
      lr_mult: 2
    }
    inner_product_param {
      num_output: 4096
    }
  }
  layer {
    name: "relu6"
    type: "ReLU"
    bottom: "fc6"
    top: "fc6"
  }
  layer {
    name: "drop6"
    type: "Dropout"
    bottom: "fc6"
    top: "fc6"
    dropout_param {
      dropout_ratio: 0.5
    }
  }
  layer {
    name: "fc7"
    type: "InnerProduct"
    bottom: "fc6"
    top: "fc7"
    param {
      lr_mult: 1
    }
    param {
      lr_mult: 2
    }
    inner_product_param {
      num_output: 4096
    }
  }
  layer {
    name: "relu7"
    type: "ReLU"
    bottom: "fc7"
    top: "fc7"
  }
  layer {
    name: "drop7"
    type: "Dropout"
    bottom: "fc7"
    top: "fc7"
    dropout_param {
      dropout_ratio: 0.5
    }
  }
  layer {
    name: "bbox_pred"
    type: "InnerProduct"
    bottom: "fc7"
    top: "bbox_pred"
    param {
      lr_mult: 1
    }
    param {
      lr_mult: 2
    }
    inner_product_param {
      num_output: 8
      weight_filler {
        type: "gaussian"
        std: 0.001
      }
      bias_filler {
        type: "constant"
        value: 0
      }
    }
  }
  layer {
    name: "loss_bbox"
    type: "SmoothL1Loss"
    bottom: "bbox_pred"
    bottom: "bbox_targets"
    bottom: "bbox_inside_weights"
    bottom: "bbox_outside_weights"
    top: "loss_bbox"
    loss_weight: 1
  }
  layer {
    name: "feat"
    type: "InnerProduct"
    bottom: "fc7"
    top: "feat"
    param {
      lr_mult: 1
      decay_mult: 1
    }
    param {
      lr_mult: 2
      decay_mult: 0
    }
    inner_product_param {
      num_output: 256
      weight_filler {
        type: "gaussian"
        std: 0.01
      }
      bias_filler {
        type: "constant"
        value: 0
      }
    }
  }
  layer {
    name: "relu8"
    type: "ReLU"
    bottom: "feat"
    top: "feat"
  }
  layer {
    name: "drop8"
    type: "Dropout"
    bottom: "feat"
    top: "feat"
    dropout_param {
      dropout_ratio: 0.5
    }
  }
  layer {
    name: "pid_score"
    type: "InnerProduct"
    bottom: "feat"
    top: "pid_score"
    param {
      lr_mult: 1
      decay_mult: 1
    }
    param {
      lr_mult: 2
      decay_mult: 0
    }
    inner_product_param {
      num_output: 5533
      weight_filler {
        type: "gaussian"
        std: 0.001
      }
      bias_filler {
        type: "constant"
        value: 0
      }
    }
  }
  layer {
    name: "pid_loss"
    type: "Softmax"
    bottom: "pid_score"
    bottom: "pid_label"
    top: "pid_loss"
    loss_weight: 1
    propagate_down: true
    propagate_down: false
    loss_param {
      ignore_label: -1
      normalize: true
    }
  }
}
average_loss: 100
stepvalue: 70000
stepvalue: 120000
iter_size: 2
I0413 18:52:18.007287 14365 solver.cpp:86] Creating training net specified in net_param.
I0413 18:52:18.008055 14365 net.cpp:58] Initializing net from parameters: 
name: "GeneratedModel_13_04_2017_18_52"
state {
  phase: TRAIN
}
layer {
  name: "input"
  type: "Python"
  top: "input_data"
  top: "input_im_info"
  top: "input_gt_boxes"
  top: "input_ignored_boxes"
  python_param {
    module: "layers.roi_data_layer"
    layer: "RoIDataLayer"
    param_str: "{\"num_classes\": 2}"
  }
}
layer {
  name: "conv1_1"
  type: "Convolution"
  bottom: "input_data"
  top: "conv1_1"
  param {
    lr_mult: 0
    decay_mult: 0
  }
  param {
    lr_mult: 0
    decay_mult: 0
  }
  convolution_param {
    num_output: 64
    pad: 1
    kernel_size: 3
  }
}
layer {
  name: "relu1_1"
  type: "ReLU"
  bottom: "conv1_1"
  top: "conv1_1"
}
layer {
  name: "conv1_2"
  type: "Convolution"
  bottom: "conv1_1"
  top: "conv1_2"
  param {
    lr_mult: 0
    decay_mult: 0
  }
  param {
    lr_mult: 0
    decay_mult: 0
  }
  convolution_param {
    num_output: 64
    pad: 1
    kernel_size: 3
  }
}
layer {
  name: "relu1_2"
  type: "ReLU"
  bottom: "conv1_2"
  top: "conv1_2"
}
layer {
  name: "pool1"
  type: "Pooling"
  bottom: "conv1_2"
  top: "pool1"
  pooling_param {
    pool: MAX
    kernel_size: 2
    stride: 2
  }
}
layer {
  name: "conv2_1"
  type: "Convolution"
  bottom: "pool1"
  top: "conv2_1"
  param {
    lr_mult: 0
    decay_mult: 0
  }
  param {
    lr_mult: 0
    decay_mult: 0
  }
  convolution_param {
    num_output: 128
    pad: 1
    kernel_size: 3
  }
}
layer {
  name: "relu2_1"
  type: "ReLU"
  bottom: "conv2_1"
  top: "conv2_1"
}
layer {
  name: "conv2_2"
  type: "Convolution"
  bottom: "conv2_1"
  top: "conv2_2"
  param {
    lr_mult: 0
    decay_mult: 0
  }
  param {
    lr_mult: 0
    decay_mult: 0
  }
  convolution_param {
    num_output: 128
    pad: 1
    kernel_size: 3
  }
}
layer {
  name: "relu2_2"
  type: "ReLU"
  bottom: "conv2_2"
  top: "conv2_2"
}
layer {
  name: "pool2"
  type: "Pooling"
  bottom: "conv2_2"
  top: "pool2"
  pooling_param {
    pool: MAX
    kernel_size: 2
    stride: 2
  }
}
layer {
  name: "conv3_1"
  type: "Convolution"
  bottom: "pool2"
  top: "conv3_1"
  param {
    lr_mult: 1
  }
  param {
    lr_mult: 2
  }
  convolution_param {
    num_output: 256
    pad: 1
    kernel_size: 3
  }
}
layer {
  name: "relu3_1"
  type: "ReLU"
  bottom: "conv3_1"
  top: "conv3_1"
}
layer {
  name: "conv3_2"
  type: "Convolution"
  bottom: "conv3_1"
  top: "conv3_2"
  param {
    lr_mult: 1
  }
  param {
    lr_mult: 2
  }
  convolution_param {
    num_output: 256
    pad: 1
    kernel_size: 3
  }
}
layer {
  name: "relu3_2"
  type: "ReLU"
  bottom: "conv3_2"
  top: "conv3_2"
}
layer {
  name: "conv3_3"
  type: "Convolution"
  bottom: "conv3_2"
  top: "conv3_3"
  param {
    lr_mult: 1
  }
  param {
    lr_mult: 2
  }
  convolution_param {
    num_output: 256
    pad: 1
    kernel_size: 3
  }
}
layer {
  name: "relu3_3"
  type: "ReLU"
  bottom: "conv3_3"
  top: "conv3_3"
}
layer {
  name: "pool3"
  type: "Pooling"
  bottom: "conv3_3"
  top: "pool3"
  pooling_param {
    pool: MAX
    kernel_size: 2
    stride: 2
  }
}
layer {
  name: "conv4_1"
  type: "Convolution"
  bottom: "pool3"
  top: "conv4_1"
  param {
    lr_mult: 1
  }
  param {
    lr_mult: 2
  }
  convolution_param {
    num_output: 512
    pad: 1
    kernel_size: 3
  }
}
layer {
  name: "relu4_1"
  type: "ReLU"
  bottom: "conv4_1"
  top: "conv4_1"
}
layer {
  name: "conv4_2"
  type: "Convolution"
  bottom: "conv4_1"
  top: "conv4_2"
  param {
    lr_mult: 1
  }
  param {
    lr_mult: 2
  }
  convolution_param {
    num_output: 512
    pad: 1
    kernel_size: 3
  }
}
layer {
  name: "relu4_2"
  type: "ReLU"
  bottom: "conv4_2"
  top: "conv4_2"
}
layer {
  name: "conv4_3"
  type: "Convolution"
  bottom: "conv4_2"
  top: "conv4_3"
  param {
    lr_mult: 1
  }
  param {
    lr_mult: 2
  }
  convolution_param {
    num_output: 512
    pad: 1
    kernel_size: 3
  }
}
layer {
  name: "relu4_3"
  type: "ReLU"
  bottom: "conv4_3"
  top: "conv4_3"
}
layer {
  name: "pool4"
  type: "Pooling"
  bottom: "conv4_3"
  top: "pool4"
  pooling_param {
    pool: MAX
    kernel_size: 2
    stride: 2
  }
}
layer {
  name: "conv5_1"
  type: "Convolution"
  bottom: "pool4"
  top: "conv5_1"
  param {
    lr_mult: 1
  }
  param {
    lr_mult: 2
  }
  convolution_param {
    num_output: 512
    pad: 1
    kernel_size: 3
  }
}
layer {
  name: "relu5_1"
  type: "ReLU"
  bottom: "conv5_1"
  top: "conv5_1"
}
layer {
  name: "conv5_2"
  type: "Convolution"
  bottom: "conv5_1"
  top: "conv5_2"
  param {
    lr_mult: 1
  }
  param {
    lr_mult: 2
  }
  convolution_param {
    num_output: 512
    pad: 1
    kernel_size: 3
  }
}
layer {
  name: "relu5_2"
  type: "ReLU"
  bottom: "conv5_2"
  top: "conv5_2"
}
layer {
  name: "conv5_3"
  type: "Convolution"
  bottom: "conv5_2"
  top: "conv5_3"
  param {
    lr_mult: 1
  }
  param {
    lr_mult: 2
  }
  convolution_param {
    num_output: 512
    pad: 1
    kernel_size: 3
  }
}
layer {
  name: "relu5_3"
  type: "ReLU"
  bottom: "conv5_3"
  top: "conv5_3"
}
layer {
  name: "rpn_big_conv1"
  type: "Convolution"
  bottom: "conv5_3"
  top: "rpn_big_conv1"
  param {
    lr_mult: 1
  }
  param {
    lr_mult: 2
  }
  convolution_param {
    num_output: 512
    pad: 1
    kernel_size: 3
    stride: 1
    weight_filler {
      type: "gaussian"
      mean: 0
      std: 0.01
    }
    bias_filler {
      type: "constant"
    }
  }
}
layer {
  name: "rpn_big_conv1_relu"
  type: "ReLU"
  bottom: "rpn_big_conv1"
  top: "rpn_big_conv1"
  relu_param {
    negative_slope: 0
  }
}
layer {
  name: "rpn_big_conv2"
  type: "Convolution"
  bottom: "rpn_big_conv1"
  top: "rpn_big_conv2"
  param {
    lr_mult: 1
  }
  param {
    lr_mult: 2
  }
  convolution_param {
    num_output: 512
    pad: 1
    kernel_size: 3
    stride: 1
    weight_filler {
      type: "gaussian"
      mean: 0
      std: 0.01
    }
    bias_filler {
      type: "constant"
    }
  }
}
layer {
  name: "rpn_big_conv2_relu"
  type: "ReLU"
  bottom: "rpn_big_conv2"
  top: "rpn_big_conv2"
  relu_param {
    negative_slope: 0
  }
}
layer {
  name: "rpn_big_conv2_drop"
  type: "Dropout"
  bottom: "rpn_big_conv2"
  top: "rpn_big_conv2"
  dropout_param {
    dropout_ratio: 0.3
  }
}
layer {
  name: "rpn_big_output_cls"
  type: "Convolution"
  bottom: "rpn_big_conv2"
  top: "rpn_big_output_cls"
  param {
    lr_mult: 1
  }
  param {
    lr_mult: 2
  }
  convolution_param {
    num_output: 384
    pad: 1
    kernel_size: 3
    stride: 1
    weight_filler {
      type: "gaussian"
      mean: 0
      std: 0.01
    }
    bias_filler {
      type: "constant"
    }
  }
}
layer {
  name: "rpn_big_output_cls_relu"
  type: "ReLU"
  bottom: "rpn_big_output_cls"
  top: "rpn_big_output_cls"
  relu_param {
    negative_slope: 0
  }
}
layer {
  name: "rpn_big_cls_score"
  type: "Convolution"
  bottom: "rpn_big_output_cls"
  top: "rpn_big_cls_score"
  param {
    lr_mult: 1
  }
  param {
    lr_mult: 2
  }
  convolution_param {
    num_output: 52
    pad: 0
    kernel_size: 3
    stride: 1
    weight_filler {
      type: "gaussian"
      mean: 0
      std: 0.01
    }
    bias_filler {
      type: "constant"
    }
  }
}
layer {
  name: "rpn_big_cls_score_reshape"
  type: "Reshape"
  bottom: "rpn_big_cls_score"
  top: "rpn_big_cls_score_reshape"
  reshape_param {
    shape {
      dim: 0
      dim: 2
      dim: -1
      dim: 0
    }
  }
}
layer {
  name: "rpn_big_cls_prob"
  type: "Softmax"
  bottom: "rpn_big_cls_score_reshape"
  top: "rpn_big_cls_prob"
}
layer {
  name: "rpn_big_cls_prob_reshape"
  type: "Reshape"
  bottom: "rpn_big_cls_prob"
  top: "rpn_big_cls_prob_reshape"
  reshape_param {
    shape {
      dim: 0
      dim: 52
      dim: -1
      dim: 0
    }
  }
}
layer {
  name: "rpn_big_anchor_target"
  type: "Python"
  bottom: "rpn_big_cls_score"
  bottom: "input_gt_boxes"
  bottom: "input_ignored_boxes"
  bottom: "input_im_info"
  bottom: "input_data"
  bottom: "rpn_big_cls_prob_reshape"
  top: "rpn_big_anchor_target_labels"
  top: "rpn_big_anchor_target_bbox_targets"
  top: "rpn_big_anchor_target_inside_weights"
  top: "rpn_big_anchor_target_outside_weights"
  python_param {
    module: "rpn.anchor_target_layer"
    layer: "AnchorTargetLayer"
    param_str: "{\"anchor_shift_num_xy\": [[2, 2], [2, 2], [2, 2], [2, 2], [1, 1], [1, 1], [1, 1], [1, 1], [1, 1], [1, 1], [1, 1], [1, 1], [1, 1], [1, 1]], \"tn_fraction\": 0.2, \"square_targets\": true, \"negative_overlap\": 0.4, \"batchsize\": 256, \"feat_stride\": 16, \"fg_fraction\": 0.5, \"num_classes\": 1, \"anchor_ratios\": [1.0], \"name\": \"rpn_big\", \"anchor_scales\": [2.5, 3.025, 3.66025, 4.4289024999999995, 5.358972025, 6.484356150249999, 7.846070941802498, 9.493745839581022, 11.487432465893036, 13.899793283730574, 16.818749873313998, 20.350687346709933, 24.62433168951902, 29.795441344318014], \"positive_overlap\": 0.6}"
  }
}
layer {
  name: "rpn_big_loss_cls"
  type: "SoftmaxWithLoss"
  bottom: "rpn_big_cls_score_reshape"
  bottom: "rpn_big_anchor_target_labels"
  top: "rpn_big_loss_cls"
  loss_weight: 1
  propagate_down: true
  propagate_down: false
  loss_param {
    ignore_label: -1
    normalization: VALID
  }
}
layer {
  name: "rpn_big_output_box"
  type: "Convolution"
  bottom: "rpn_big_conv2"
  top: "rpn_big_output_box"
  param {
    lr_mult: 1
  }
  param {
    lr_mult: 2
  }
  convolution_param {
    num_output: 384
    pad: 1
    kernel_size: 3
    stride: 1
    weight_filler {
      type: "gaussian"
      mean: 0
      std: 0.01
    }
    bias_filler {
      type: "constant"
    }
  }
}
layer {
  name: "rpn_big_output_box_relu"
  type: "ReLU"
  bottom: "rpn_big_output_box"
  top: "rpn_big_output_box"
  relu_param {
    negative_slope: 0
  }
}
layer {
  name: "rpn_big_bbox_pred"
  type: "Convolution"
  bottom: "rpn_big_output_box"
  top: "rpn_big_bbox_pred"
  param {
    lr_mult: 1
  }
  param {
    lr_mult: 2
  }
  convolution_param {
    num_output: 104
    pad: 0
    kernel_size: 3
    stride: 1
    weight_filler {
      type: "gaussian"
      mean: 0
      std: 0.01
    }
    bias_filler {
      type: "constant"
    }
  }
}
layer {
  name: "rpn_big_loss_bbox"
  type: "Python"
  bottom: "rpn_big_bbox_pred"
  bottom: "rpn_big_anchor_target_bbox_targets"
  bottom: "rpn_big_anchor_target_inside_weights"
  bottom: "rpn_big_anchor_target_outside_weights"
  top: "rpn_big_loss_bbox"
  loss_weight: 1
  python_param {
    module: "layers.smooth_l1_loss"
    layer: "SmoothL1LossLayer"
    param_str: "{\"sigma\": 3}"
  }
}
layer {
  name: "proposal"
  type: "Python"
  bottom: "rpn_big_cls_prob_reshape"
  bottom: "rpn_big_bbox_pred"
  bottom: "input_im_info"
  top: "rpn_rois"
  python_param {
    module: "rpn.proposal_layer"
    layer: "ProposalLayer"
    param_str: "{\"anchor_shift_num_xy\": [[2, 2], [2, 2], [2, 2], [2, 2], [1, 1], [1, 1], [1, 1], [1, 1], [1, 1], [1, 1], [1, 1], [1, 1], [1, 1], [1, 1]], \"feat_stride\": 16, \"num_classes\": 1, \"anchor_scales\": [2.5, 3.025, 3.66025, 4.4289024999999995, 5.358972025, 6.484356150249999, 7.846070941802498, 9.493745839581022, 11.487432465893036, 13.899793283730574, 16.818749873313998, 20.350687346709933, 24.62433168951902, 29.795441344318014], \"square_targets\": true, \"name\": \"rpn_big\", \"batchsize\": 256, \"anchor_ratios\": [1.0]}"
  }
}
layer {
  name: "roi-data"
  type: "Python"
  bottom: "rpn_rois"
  bottom: "input_gt_boxes"
  top: "rois"
  top: "labels"
  top: "bbox_targets"
  top: "bbox_inside_weights"
  top: "bbox_outside_weights"
  top: "pid_label"
  python_param {
    module: "rpn.proposal_target_layer"
    layer: "ProposalTargetLayer"
    param_str: "{\"num_classes\": 2, \"bg_aux_label\": 5532}"
  }
}
layer {
  name: "roi-pool"
  type: "ROIPooling"
  bottom: "conv5_3"
  bottom: "rois"
  top: "roi-pool"
  roi_pooling_param {
    pooled_h: 7
    pooled_w: 7
    spatial_scale: 0.0625
  }
}
layer {
  name: "fc6"
  type: "InnerProduct"
  bottom: "roi-pool"
  top: "fc6"
  param {
    lr_mult: 1
  }
  param {
    lr_mult: 2
  }
  inner_product_param {
    num_output: 4096
  }
}
layer {
  name: "relu6"
  type: "ReLU"
  bottom: "fc6"
  top: "fc6"
}
layer {
  name: "drop6"
  type: "Dropout"
  bottom: "fc6"
  top: "fc6"
  dropout_param {
    dropout_ratio: 0.5
  }
}
layer {
  name: "fc7"
  type: "InnerProduct"
  bottom: "fc6"
  top: "fc7"
  param {
    lr_mult: 1
  }
  param {
    lr_mult: 2
  }
  inner_product_param {
    num_output: 4096
  }
}
layer {
  name: "relu7"
  type: "ReLU"
  bottom: "fc7"
  top: "fc7"
}
layer {
  name: "drop7"
  type: "Dropout"
  bottom: "fc7"
  top: "fc7"
  dropout_param {
    dropout_ratio: 0.5
  }
}
layer {
  name: "bbox_pred"
  type: "InnerProduct"
  bottom: "fc7"
  top: "bbox_pred"
  param {
    lr_mult: 1
  }
  param {
    lr_mult: 2
  }
  inner_product_param {
    num_output: 8
    weight_filler {
      type: "gaussian"
      std: 0.001
    }
    bias_filler {
      type: "constant"
      value: 0
    }
  }
}
layer {
  name: "loss_bbox"
  type: "SmoothL1Loss"
  bottom: "bbox_pred"
  bottom: "bbox_targets"
  bottom: "bbox_inside_weights"
  bottom: "bbox_outside_weights"
  top: "loss_bbox"
  loss_weight: 1
}
layer {
  name: "feat"
  type: "InnerProduct"
  bottom: "fc7"
  top: "feat"
  param {
    lr_mult: 1
    decay_mult: 1
  }
  param {
    lr_mult: 2
    decay_mult: 0
  }
  inner_product_param {
    num_output: 256
    weight_filler {
      type: "gaussian"
      std: 0.01
    }
    bias_filler {
      type: "constant"
      value: 0
    }
  }
}
layer {
  name: "relu8"
  type: "ReLU"
  bottom: "feat"
  top: "feat"
}
layer {
  name: "drop8"
  type: "Dropout"
  bottom: "feat"
  top: "feat"
  dropout_param {
    dropout_ratio: 0.5
  }
}
layer {
  name: "pid_score"
  type: "InnerProduct"
  bottom: "feat"
  top: "pid_score"
  param {
    lr_mult: 1
    decay_mult: 1
  }
  param {
    lr_mult: 2
    decay_mult: 0
  }
  inner_product_param {
    num_output: 5533
    weight_filler {
      type: "gaussian"
      std: 0.001
    }
    bias_filler {
      type: "constant"
      value: 0
    }
  }
}
layer {
  name: "pid_loss"
  type: "Softmax"
  bottom: "pid_score"
  bottom: "pid_label"
  top: "pid_loss"
  loss_weight: 1
  propagate_down: true
  propagate_down: false
  loss_param {
    ignore_label: -1
    normalize: true
  }
}
I0413 18:52:18.008445 14365 layer_factory.hpp:77] Creating layer input
I0413 18:52:18.009810 14365 net.cpp:100] Creating Layer input
I0413 18:52:18.009832 14365 net.cpp:408] input -> input_data
I0413 18:52:18.009845 14365 net.cpp:408] input -> input_im_info
I0413 18:52:18.009852 14365 net.cpp:408] input -> input_gt_boxes
I0413 18:52:18.009860 14365 net.cpp:408] input -> input_ignored_boxes
RoiDataLayer: name_to_top: {'data': 0, 'gt_boxes': 2, 'im_info': 1, 'ignored_boxes': 3}
I0413 18:52:18.315022 14365 net.cpp:150] Setting up input
I0413 18:52:18.315053 14365 net.cpp:157] Top shape: 1 3 1000 1500 (4500000)
I0413 18:52:18.315071 14365 net.cpp:157] Top shape: 1 3 (3)
I0413 18:52:18.315080 14365 net.cpp:157] Top shape: 1 5 (5)
I0413 18:52:18.315088 14365 net.cpp:157] Top shape: 1 5 (5)
I0413 18:52:18.315093 14365 net.cpp:165] Memory required for data: 18000052
I0413 18:52:18.315102 14365 layer_factory.hpp:77] Creating layer input_data_input_0_split
I0413 18:52:18.315120 14365 net.cpp:100] Creating Layer input_data_input_0_split
I0413 18:52:18.315130 14365 net.cpp:434] input_data_input_0_split <- input_data
I0413 18:52:18.315143 14365 net.cpp:408] input_data_input_0_split -> input_data_input_0_split_0
I0413 18:52:18.315165 14365 net.cpp:408] input_data_input_0_split -> input_data_input_0_split_1
I0413 18:52:18.315208 14365 net.cpp:150] Setting up input_data_input_0_split
I0413 18:52:18.315219 14365 net.cpp:157] Top shape: 1 3 1000 1500 (4500000)
I0413 18:52:18.315228 14365 net.cpp:157] Top shape: 1 3 1000 1500 (4500000)
I0413 18:52:18.315234 14365 net.cpp:165] Memory required for data: 54000052
I0413 18:52:18.315240 14365 layer_factory.hpp:77] Creating layer input_im_info_input_1_split
I0413 18:52:18.315256 14365 net.cpp:100] Creating Layer input_im_info_input_1_split
I0413 18:52:18.315264 14365 net.cpp:434] input_im_info_input_1_split <- input_im_info
I0413 18:52:18.315274 14365 net.cpp:408] input_im_info_input_1_split -> input_im_info_input_1_split_0
I0413 18:52:18.315285 14365 net.cpp:408] input_im_info_input_1_split -> input_im_info_input_1_split_1
I0413 18:52:18.315330 14365 net.cpp:150] Setting up input_im_info_input_1_split
I0413 18:52:18.315338 14365 net.cpp:157] Top shape: 1 3 (3)
I0413 18:52:18.315346 14365 net.cpp:157] Top shape: 1 3 (3)
I0413 18:52:18.315351 14365 net.cpp:165] Memory required for data: 54000076
I0413 18:52:18.315357 14365 layer_factory.hpp:77] Creating layer input_gt_boxes_input_2_split
I0413 18:52:18.315369 14365 net.cpp:100] Creating Layer input_gt_boxes_input_2_split
I0413 18:52:18.315376 14365 net.cpp:434] input_gt_boxes_input_2_split <- input_gt_boxes
I0413 18:52:18.315385 14365 net.cpp:408] input_gt_boxes_input_2_split -> input_gt_boxes_input_2_split_0
I0413 18:52:18.315400 14365 net.cpp:408] input_gt_boxes_input_2_split -> input_gt_boxes_input_2_split_1
I0413 18:52:18.315440 14365 net.cpp:150] Setting up input_gt_boxes_input_2_split
I0413 18:52:18.315450 14365 net.cpp:157] Top shape: 1 5 (5)
I0413 18:52:18.315457 14365 net.cpp:157] Top shape: 1 5 (5)
I0413 18:52:18.315464 14365 net.cpp:165] Memory required for data: 54000116
I0413 18:52:18.315469 14365 layer_factory.hpp:77] Creating layer conv1_1
I0413 18:52:18.315490 14365 net.cpp:100] Creating Layer conv1_1
I0413 18:52:18.315497 14365 net.cpp:434] conv1_1 <- input_data_input_0_split_0
I0413 18:52:18.315508 14365 net.cpp:408] conv1_1 -> conv1_1
I0413 18:52:18.318616 14365 net.cpp:150] Setting up conv1_1
I0413 18:52:18.318655 14365 net.cpp:157] Top shape: 1 64 1000 1500 (96000000)
I0413 18:52:18.318660 14365 net.cpp:165] Memory required for data: 438000116
I0413 18:52:18.318686 14365 layer_factory.hpp:77] Creating layer relu1_1
I0413 18:52:18.318706 14365 net.cpp:100] Creating Layer relu1_1
I0413 18:52:18.318716 14365 net.cpp:434] relu1_1 <- conv1_1
I0413 18:52:18.318729 14365 net.cpp:395] relu1_1 -> conv1_1 (in-place)
I0413 18:52:18.318747 14365 net.cpp:150] Setting up relu1_1
I0413 18:52:18.318754 14365 net.cpp:157] Top shape: 1 64 1000 1500 (96000000)
I0413 18:52:18.318761 14365 net.cpp:165] Memory required for data: 822000116
I0413 18:52:18.318768 14365 layer_factory.hpp:77] Creating layer conv1_2
I0413 18:52:18.318784 14365 net.cpp:100] Creating Layer conv1_2
I0413 18:52:18.318791 14365 net.cpp:434] conv1_2 <- conv1_1
I0413 18:52:18.318801 14365 net.cpp:408] conv1_2 -> conv1_2
I0413 18:52:18.321975 14365 net.cpp:150] Setting up conv1_2
I0413 18:52:18.322012 14365 net.cpp:157] Top shape: 1 64 1000 1500 (96000000)
I0413 18:52:18.322018 14365 net.cpp:165] Memory required for data: 1206000116
I0413 18:52:18.322043 14365 layer_factory.hpp:77] Creating layer relu1_2
I0413 18:52:18.322064 14365 net.cpp:100] Creating Layer relu1_2
I0413 18:52:18.322072 14365 net.cpp:434] relu1_2 <- conv1_2
I0413 18:52:18.322087 14365 net.cpp:395] relu1_2 -> conv1_2 (in-place)
I0413 18:52:18.322103 14365 net.cpp:150] Setting up relu1_2
I0413 18:52:18.322110 14365 net.cpp:157] Top shape: 1 64 1000 1500 (96000000)
I0413 18:52:18.322118 14365 net.cpp:165] Memory required for data: 1590000116
I0413 18:52:18.322124 14365 layer_factory.hpp:77] Creating layer pool1
I0413 18:52:18.322140 14365 net.cpp:100] Creating Layer pool1
I0413 18:52:18.322147 14365 net.cpp:434] pool1 <- conv1_2
I0413 18:52:18.322156 14365 net.cpp:408] pool1 -> pool1
I0413 18:52:18.322234 14365 net.cpp:150] Setting up pool1
I0413 18:52:18.322244 14365 net.cpp:157] Top shape: 1 64 500 750 (24000000)
I0413 18:52:18.322250 14365 net.cpp:165] Memory required for data: 1686000116
I0413 18:52:18.322258 14365 layer_factory.hpp:77] Creating layer conv2_1
I0413 18:52:18.322275 14365 net.cpp:100] Creating Layer conv2_1
I0413 18:52:18.322283 14365 net.cpp:434] conv2_1 <- pool1
I0413 18:52:18.322293 14365 net.cpp:408] conv2_1 -> conv2_1
I0413 18:52:18.323524 14365 net.cpp:150] Setting up conv2_1
I0413 18:52:18.323546 14365 net.cpp:157] Top shape: 1 128 500 750 (48000000)
I0413 18:52:18.323552 14365 net.cpp:165] Memory required for data: 1878000116
I0413 18:52:18.323570 14365 layer_factory.hpp:77] Creating layer relu2_1
I0413 18:52:18.323590 14365 net.cpp:100] Creating Layer relu2_1
I0413 18:52:18.323596 14365 net.cpp:434] relu2_1 <- conv2_1
I0413 18:52:18.323606 14365 net.cpp:395] relu2_1 -> conv2_1 (in-place)
I0413 18:52:18.323622 14365 net.cpp:150] Setting up relu2_1
I0413 18:52:18.323632 14365 net.cpp:157] Top shape: 1 128 500 750 (48000000)
I0413 18:52:18.323640 14365 net.cpp:165] Memory required for data: 2070000116
I0413 18:52:18.323647 14365 layer_factory.hpp:77] Creating layer conv2_2
I0413 18:52:18.323662 14365 net.cpp:100] Creating Layer conv2_2
I0413 18:52:18.323668 14365 net.cpp:434] conv2_2 <- conv2_1
I0413 18:52:18.323678 14365 net.cpp:408] conv2_2 -> conv2_2
I0413 18:52:18.324611 14365 net.cpp:150] Setting up conv2_2
I0413 18:52:18.324636 14365 net.cpp:157] Top shape: 1 128 500 750 (48000000)
I0413 18:52:18.324641 14365 net.cpp:165] Memory required for data: 2262000116
I0413 18:52:18.324656 14365 layer_factory.hpp:77] Creating layer relu2_2
I0413 18:52:18.324667 14365 net.cpp:100] Creating Layer relu2_2
I0413 18:52:18.324676 14365 net.cpp:434] relu2_2 <- conv2_2
I0413 18:52:18.324688 14365 net.cpp:395] relu2_2 -> conv2_2 (in-place)
I0413 18:52:18.324702 14365 net.cpp:150] Setting up relu2_2
I0413 18:52:18.324710 14365 net.cpp:157] Top shape: 1 128 500 750 (48000000)
I0413 18:52:18.324717 14365 net.cpp:165] Memory required for data: 2454000116
I0413 18:52:18.324724 14365 layer_factory.hpp:77] Creating layer pool2
I0413 18:52:18.324735 14365 net.cpp:100] Creating Layer pool2
I0413 18:52:18.324743 14365 net.cpp:434] pool2 <- conv2_2
I0413 18:52:18.324754 14365 net.cpp:408] pool2 -> pool2
I0413 18:52:18.324802 14365 net.cpp:150] Setting up pool2
I0413 18:52:18.324813 14365 net.cpp:157] Top shape: 1 128 250 375 (12000000)
I0413 18:52:18.324820 14365 net.cpp:165] Memory required for data: 2502000116
I0413 18:52:18.324826 14365 layer_factory.hpp:77] Creating layer conv3_1
I0413 18:52:18.324841 14365 net.cpp:100] Creating Layer conv3_1
I0413 18:52:18.324847 14365 net.cpp:434] conv3_1 <- pool2
I0413 18:52:18.324861 14365 net.cpp:408] conv3_1 -> conv3_1
I0413 18:52:18.325953 14365 net.cpp:150] Setting up conv3_1
I0413 18:52:18.325980 14365 net.cpp:157] Top shape: 1 256 250 375 (24000000)
I0413 18:52:18.325986 14365 net.cpp:165] Memory required for data: 2598000116
I0413 18:52:18.326004 14365 layer_factory.hpp:77] Creating layer relu3_1
I0413 18:52:18.326016 14365 net.cpp:100] Creating Layer relu3_1
I0413 18:52:18.326025 14365 net.cpp:434] relu3_1 <- conv3_1
I0413 18:52:18.326040 14365 net.cpp:395] relu3_1 -> conv3_1 (in-place)
I0413 18:52:18.326053 14365 net.cpp:150] Setting up relu3_1
I0413 18:52:18.326062 14365 net.cpp:157] Top shape: 1 256 250 375 (24000000)
I0413 18:52:18.326069 14365 net.cpp:165] Memory required for data: 2694000116
I0413 18:52:18.326076 14365 layer_factory.hpp:77] Creating layer conv3_2
I0413 18:52:18.326093 14365 net.cpp:100] Creating Layer conv3_2
I0413 18:52:18.326099 14365 net.cpp:434] conv3_2 <- conv3_1
I0413 18:52:18.326110 14365 net.cpp:408] conv3_2 -> conv3_2
I0413 18:52:18.327282 14365 net.cpp:150] Setting up conv3_2
I0413 18:52:18.327307 14365 net.cpp:157] Top shape: 1 256 250 375 (24000000)
I0413 18:52:18.327312 14365 net.cpp:165] Memory required for data: 2790000116
I0413 18:52:18.327324 14365 layer_factory.hpp:77] Creating layer relu3_2
I0413 18:52:18.327337 14365 net.cpp:100] Creating Layer relu3_2
I0413 18:52:18.327347 14365 net.cpp:434] relu3_2 <- conv3_2
I0413 18:52:18.327361 14365 net.cpp:395] relu3_2 -> conv3_2 (in-place)
I0413 18:52:18.327375 14365 net.cpp:150] Setting up relu3_2
I0413 18:52:18.327384 14365 net.cpp:157] Top shape: 1 256 250 375 (24000000)
I0413 18:52:18.327394 14365 net.cpp:165] Memory required for data: 2886000116
I0413 18:52:18.327399 14365 layer_factory.hpp:77] Creating layer conv3_3
I0413 18:52:18.327416 14365 net.cpp:100] Creating Layer conv3_3
I0413 18:52:18.327424 14365 net.cpp:434] conv3_3 <- conv3_2
I0413 18:52:18.327433 14365 net.cpp:408] conv3_3 -> conv3_3
I0413 18:52:18.329008 14365 net.cpp:150] Setting up conv3_3
I0413 18:52:18.329041 14365 net.cpp:157] Top shape: 1 256 250 375 (24000000)
I0413 18:52:18.329046 14365 net.cpp:165] Memory required for data: 2982000116
I0413 18:52:18.329061 14365 layer_factory.hpp:77] Creating layer relu3_3
I0413 18:52:18.329075 14365 net.cpp:100] Creating Layer relu3_3
I0413 18:52:18.329084 14365 net.cpp:434] relu3_3 <- conv3_3
I0413 18:52:18.329099 14365 net.cpp:395] relu3_3 -> conv3_3 (in-place)
I0413 18:52:18.329114 14365 net.cpp:150] Setting up relu3_3
I0413 18:52:18.329123 14365 net.cpp:157] Top shape: 1 256 250 375 (24000000)
I0413 18:52:18.329130 14365 net.cpp:165] Memory required for data: 3078000116
I0413 18:52:18.329136 14365 layer_factory.hpp:77] Creating layer pool3
I0413 18:52:18.329150 14365 net.cpp:100] Creating Layer pool3
I0413 18:52:18.329157 14365 net.cpp:434] pool3 <- conv3_3
I0413 18:52:18.329167 14365 net.cpp:408] pool3 -> pool3
I0413 18:52:18.329218 14365 net.cpp:150] Setting up pool3
I0413 18:52:18.329231 14365 net.cpp:157] Top shape: 1 256 125 188 (6016000)
I0413 18:52:18.329238 14365 net.cpp:165] Memory required for data: 3102064116
I0413 18:52:18.329244 14365 layer_factory.hpp:77] Creating layer conv4_1
I0413 18:52:18.329258 14365 net.cpp:100] Creating Layer conv4_1
I0413 18:52:18.329265 14365 net.cpp:434] conv4_1 <- pool3
I0413 18:52:18.329277 14365 net.cpp:408] conv4_1 -> conv4_1
I0413 18:52:18.331950 14365 net.cpp:150] Setting up conv4_1
I0413 18:52:18.331984 14365 net.cpp:157] Top shape: 1 512 125 188 (12032000)
I0413 18:52:18.331990 14365 net.cpp:165] Memory required for data: 3150192116
I0413 18:52:18.332002 14365 layer_factory.hpp:77] Creating layer relu4_1
I0413 18:52:18.332016 14365 net.cpp:100] Creating Layer relu4_1
I0413 18:52:18.332026 14365 net.cpp:434] relu4_1 <- conv4_1
I0413 18:52:18.332039 14365 net.cpp:395] relu4_1 -> conv4_1 (in-place)
I0413 18:52:18.332053 14365 net.cpp:150] Setting up relu4_1
I0413 18:52:18.332062 14365 net.cpp:157] Top shape: 1 512 125 188 (12032000)
I0413 18:52:18.332069 14365 net.cpp:165] Memory required for data: 3198320116
I0413 18:52:18.332077 14365 layer_factory.hpp:77] Creating layer conv4_2
I0413 18:52:18.332093 14365 net.cpp:100] Creating Layer conv4_2
I0413 18:52:18.332100 14365 net.cpp:434] conv4_2 <- conv4_1
I0413 18:52:18.332113 14365 net.cpp:408] conv4_2 -> conv4_2
I0413 18:52:18.336375 14365 net.cpp:150] Setting up conv4_2
I0413 18:52:18.336410 14365 net.cpp:157] Top shape: 1 512 125 188 (12032000)
I0413 18:52:18.336416 14365 net.cpp:165] Memory required for data: 3246448116
I0413 18:52:18.336439 14365 layer_factory.hpp:77] Creating layer relu4_2
I0413 18:52:18.336453 14365 net.cpp:100] Creating Layer relu4_2
I0413 18:52:18.336462 14365 net.cpp:434] relu4_2 <- conv4_2
I0413 18:52:18.336477 14365 net.cpp:395] relu4_2 -> conv4_2 (in-place)
I0413 18:52:18.336491 14365 net.cpp:150] Setting up relu4_2
I0413 18:52:18.336503 14365 net.cpp:157] Top shape: 1 512 125 188 (12032000)
I0413 18:52:18.336509 14365 net.cpp:165] Memory required for data: 3294576116
I0413 18:52:18.336515 14365 layer_factory.hpp:77] Creating layer conv4_3
I0413 18:52:18.336529 14365 net.cpp:100] Creating Layer conv4_3
I0413 18:52:18.336539 14365 net.cpp:434] conv4_3 <- conv4_2
I0413 18:52:18.336551 14365 net.cpp:408] conv4_3 -> conv4_3
I0413 18:52:18.340989 14365 net.cpp:150] Setting up conv4_3
I0413 18:52:18.341028 14365 net.cpp:157] Top shape: 1 512 125 188 (12032000)
I0413 18:52:18.341034 14365 net.cpp:165] Memory required for data: 3342704116
I0413 18:52:18.341056 14365 layer_factory.hpp:77] Creating layer relu4_3
I0413 18:52:18.341070 14365 net.cpp:100] Creating Layer relu4_3
I0413 18:52:18.341078 14365 net.cpp:434] relu4_3 <- conv4_3
I0413 18:52:18.341089 14365 net.cpp:395] relu4_3 -> conv4_3 (in-place)
I0413 18:52:18.341104 14365 net.cpp:150] Setting up relu4_3
I0413 18:52:18.341114 14365 net.cpp:157] Top shape: 1 512 125 188 (12032000)
I0413 18:52:18.341120 14365 net.cpp:165] Memory required for data: 3390832116
I0413 18:52:18.341125 14365 layer_factory.hpp:77] Creating layer pool4
I0413 18:52:18.341138 14365 net.cpp:100] Creating Layer pool4
I0413 18:52:18.341146 14365 net.cpp:434] pool4 <- conv4_3
I0413 18:52:18.341156 14365 net.cpp:408] pool4 -> pool4
I0413 18:52:18.341202 14365 net.cpp:150] Setting up pool4
I0413 18:52:18.341213 14365 net.cpp:157] Top shape: 1 512 63 94 (3032064)
I0413 18:52:18.341219 14365 net.cpp:165] Memory required for data: 3402960372
I0413 18:52:18.341225 14365 layer_factory.hpp:77] Creating layer conv5_1
I0413 18:52:18.341244 14365 net.cpp:100] Creating Layer conv5_1
I0413 18:52:18.341253 14365 net.cpp:434] conv5_1 <- pool4
I0413 18:52:18.341264 14365 net.cpp:408] conv5_1 -> conv5_1
I0413 18:52:18.345882 14365 net.cpp:150] Setting up conv5_1
I0413 18:52:18.345919 14365 net.cpp:157] Top shape: 1 512 63 94 (3032064)
I0413 18:52:18.345924 14365 net.cpp:165] Memory required for data: 3415088628
I0413 18:52:18.345947 14365 layer_factory.hpp:77] Creating layer relu5_1
I0413 18:52:18.345962 14365 net.cpp:100] Creating Layer relu5_1
I0413 18:52:18.345973 14365 net.cpp:434] relu5_1 <- conv5_1
I0413 18:52:18.345988 14365 net.cpp:395] relu5_1 -> conv5_1 (in-place)
I0413 18:52:18.346002 14365 net.cpp:150] Setting up relu5_1
I0413 18:52:18.346012 14365 net.cpp:157] Top shape: 1 512 63 94 (3032064)
I0413 18:52:18.346019 14365 net.cpp:165] Memory required for data: 3427216884
I0413 18:52:18.346026 14365 layer_factory.hpp:77] Creating layer conv5_2
I0413 18:52:18.346042 14365 net.cpp:100] Creating Layer conv5_2
I0413 18:52:18.346051 14365 net.cpp:434] conv5_2 <- conv5_1
I0413 18:52:18.346061 14365 net.cpp:408] conv5_2 -> conv5_2
I0413 18:52:18.350247 14365 net.cpp:150] Setting up conv5_2
I0413 18:52:18.350283 14365 net.cpp:157] Top shape: 1 512 63 94 (3032064)
I0413 18:52:18.350291 14365 net.cpp:165] Memory required for data: 3439345140
I0413 18:52:18.350306 14365 layer_factory.hpp:77] Creating layer relu5_2
I0413 18:52:18.350323 14365 net.cpp:100] Creating Layer relu5_2
I0413 18:52:18.350333 14365 net.cpp:434] relu5_2 <- conv5_2
I0413 18:52:18.350349 14365 net.cpp:395] relu5_2 -> conv5_2 (in-place)
I0413 18:52:18.350366 14365 net.cpp:150] Setting up relu5_2
I0413 18:52:18.350378 14365 net.cpp:157] Top shape: 1 512 63 94 (3032064)
I0413 18:52:18.350386 14365 net.cpp:165] Memory required for data: 3451473396
I0413 18:52:18.350394 14365 layer_factory.hpp:77] Creating layer conv5_3
I0413 18:52:18.350416 14365 net.cpp:100] Creating Layer conv5_3
I0413 18:52:18.350425 14365 net.cpp:434] conv5_3 <- conv5_2
I0413 18:52:18.350435 14365 net.cpp:408] conv5_3 -> conv5_3
I0413 18:52:18.354832 14365 net.cpp:150] Setting up conv5_3
I0413 18:52:18.354868 14365 net.cpp:157] Top shape: 1 512 63 94 (3032064)
I0413 18:52:18.354874 14365 net.cpp:165] Memory required for data: 3463601652
I0413 18:52:18.354892 14365 layer_factory.hpp:77] Creating layer relu5_3
I0413 18:52:18.354908 14365 net.cpp:100] Creating Layer relu5_3
I0413 18:52:18.354918 14365 net.cpp:434] relu5_3 <- conv5_3
I0413 18:52:18.354930 14365 net.cpp:395] relu5_3 -> conv5_3 (in-place)
I0413 18:52:18.354945 14365 net.cpp:150] Setting up relu5_3
I0413 18:52:18.354961 14365 net.cpp:157] Top shape: 1 512 63 94 (3032064)
I0413 18:52:18.354969 14365 net.cpp:165] Memory required for data: 3475729908
I0413 18:52:18.354974 14365 layer_factory.hpp:77] Creating layer conv5_3_relu5_3_0_split
I0413 18:52:18.354988 14365 net.cpp:100] Creating Layer conv5_3_relu5_3_0_split
I0413 18:52:18.354995 14365 net.cpp:434] conv5_3_relu5_3_0_split <- conv5_3
I0413 18:52:18.355006 14365 net.cpp:408] conv5_3_relu5_3_0_split -> conv5_3_relu5_3_0_split_0
I0413 18:52:18.355018 14365 net.cpp:408] conv5_3_relu5_3_0_split -> conv5_3_relu5_3_0_split_1
I0413 18:52:18.355072 14365 net.cpp:150] Setting up conv5_3_relu5_3_0_split
I0413 18:52:18.355082 14365 net.cpp:157] Top shape: 1 512 63 94 (3032064)
I0413 18:52:18.355090 14365 net.cpp:157] Top shape: 1 512 63 94 (3032064)
I0413 18:52:18.355095 14365 net.cpp:165] Memory required for data: 3499986420
I0413 18:52:18.355103 14365 layer_factory.hpp:77] Creating layer rpn_big_conv1
I0413 18:52:18.355123 14365 net.cpp:100] Creating Layer rpn_big_conv1
I0413 18:52:18.355132 14365 net.cpp:434] rpn_big_conv1 <- conv5_3_relu5_3_0_split_0
I0413 18:52:18.355146 14365 net.cpp:408] rpn_big_conv1 -> rpn_big_conv1
I0413 18:52:18.380215 14365 net.cpp:150] Setting up rpn_big_conv1
I0413 18:52:18.380246 14365 net.cpp:157] Top shape: 1 512 63 94 (3032064)
I0413 18:52:18.380251 14365 net.cpp:165] Memory required for data: 3512114676
I0413 18:52:18.380275 14365 layer_factory.hpp:77] Creating layer rpn_big_conv1_relu
I0413 18:52:18.380290 14365 net.cpp:100] Creating Layer rpn_big_conv1_relu
I0413 18:52:18.380302 14365 net.cpp:434] rpn_big_conv1_relu <- rpn_big_conv1
I0413 18:52:18.380316 14365 net.cpp:395] rpn_big_conv1_relu -> rpn_big_conv1 (in-place)
I0413 18:52:18.380332 14365 net.cpp:150] Setting up rpn_big_conv1_relu
I0413 18:52:18.380344 14365 net.cpp:157] Top shape: 1 512 63 94 (3032064)
I0413 18:52:18.380350 14365 net.cpp:165] Memory required for data: 3524242932
I0413 18:52:18.380357 14365 layer_factory.hpp:77] Creating layer rpn_big_conv2
I0413 18:52:18.380373 14365 net.cpp:100] Creating Layer rpn_big_conv2
I0413 18:52:18.380383 14365 net.cpp:434] rpn_big_conv2 <- rpn_big_conv1
I0413 18:52:18.380398 14365 net.cpp:408] rpn_big_conv2 -> rpn_big_conv2
I0413 18:52:18.405608 14365 net.cpp:150] Setting up rpn_big_conv2
I0413 18:52:18.405642 14365 net.cpp:157] Top shape: 1 512 63 94 (3032064)
I0413 18:52:18.405647 14365 net.cpp:165] Memory required for data: 3536371188
I0413 18:52:18.405670 14365 layer_factory.hpp:77] Creating layer rpn_big_conv2_relu
I0413 18:52:18.405688 14365 net.cpp:100] Creating Layer rpn_big_conv2_relu
I0413 18:52:18.405696 14365 net.cpp:434] rpn_big_conv2_relu <- rpn_big_conv2
I0413 18:52:18.405714 14365 net.cpp:395] rpn_big_conv2_relu -> rpn_big_conv2 (in-place)
I0413 18:52:18.405730 14365 net.cpp:150] Setting up rpn_big_conv2_relu
I0413 18:52:18.405738 14365 net.cpp:157] Top shape: 1 512 63 94 (3032064)
I0413 18:52:18.405745 14365 net.cpp:165] Memory required for data: 3548499444
I0413 18:52:18.405751 14365 layer_factory.hpp:77] Creating layer rpn_big_conv2_drop
I0413 18:52:18.405764 14365 net.cpp:100] Creating Layer rpn_big_conv2_drop
I0413 18:52:18.405773 14365 net.cpp:434] rpn_big_conv2_drop <- rpn_big_conv2
I0413 18:52:18.405782 14365 net.cpp:395] rpn_big_conv2_drop -> rpn_big_conv2 (in-place)
I0413 18:52:18.405813 14365 net.cpp:150] Setting up rpn_big_conv2_drop
I0413 18:52:18.405823 14365 net.cpp:157] Top shape: 1 512 63 94 (3032064)
I0413 18:52:18.405831 14365 net.cpp:165] Memory required for data: 3560627700
I0413 18:52:18.405838 14365 layer_factory.hpp:77] Creating layer rpn_big_conv2_rpn_big_conv2_drop_0_split
I0413 18:52:18.405850 14365 net.cpp:100] Creating Layer rpn_big_conv2_rpn_big_conv2_drop_0_split
I0413 18:52:18.405858 14365 net.cpp:434] rpn_big_conv2_rpn_big_conv2_drop_0_split <- rpn_big_conv2
I0413 18:52:18.405867 14365 net.cpp:408] rpn_big_conv2_rpn_big_conv2_drop_0_split -> rpn_big_conv2_rpn_big_conv2_drop_0_split_0
I0413 18:52:18.405879 14365 net.cpp:408] rpn_big_conv2_rpn_big_conv2_drop_0_split -> rpn_big_conv2_rpn_big_conv2_drop_0_split_1
I0413 18:52:18.405925 14365 net.cpp:150] Setting up rpn_big_conv2_rpn_big_conv2_drop_0_split
I0413 18:52:18.405936 14365 net.cpp:157] Top shape: 1 512 63 94 (3032064)
I0413 18:52:18.405946 14365 net.cpp:157] Top shape: 1 512 63 94 (3032064)
I0413 18:52:18.405952 14365 net.cpp:165] Memory required for data: 3584884212
I0413 18:52:18.405958 14365 layer_factory.hpp:77] Creating layer rpn_big_output_cls
I0413 18:52:18.405975 14365 net.cpp:100] Creating Layer rpn_big_output_cls
I0413 18:52:18.405983 14365 net.cpp:434] rpn_big_output_cls <- rpn_big_conv2_rpn_big_conv2_drop_0_split_0
I0413 18:52:18.405997 14365 net.cpp:408] rpn_big_output_cls -> rpn_big_output_cls
I0413 18:52:18.425532 14365 net.cpp:150] Setting up rpn_big_output_cls
I0413 18:52:18.425565 14365 net.cpp:157] Top shape: 1 384 63 94 (2274048)
I0413 18:52:18.425570 14365 net.cpp:165] Memory required for data: 3593980404
I0413 18:52:18.425585 14365 layer_factory.hpp:77] Creating layer rpn_big_output_cls_relu
I0413 18:52:18.425602 14365 net.cpp:100] Creating Layer rpn_big_output_cls_relu
I0413 18:52:18.425612 14365 net.cpp:434] rpn_big_output_cls_relu <- rpn_big_output_cls
I0413 18:52:18.425626 14365 net.cpp:395] rpn_big_output_cls_relu -> rpn_big_output_cls (in-place)
I0413 18:52:18.425642 14365 net.cpp:150] Setting up rpn_big_output_cls_relu
I0413 18:52:18.425652 14365 net.cpp:157] Top shape: 1 384 63 94 (2274048)
I0413 18:52:18.425659 14365 net.cpp:165] Memory required for data: 3603076596
I0413 18:52:18.425665 14365 layer_factory.hpp:77] Creating layer rpn_big_cls_score
I0413 18:52:18.425684 14365 net.cpp:100] Creating Layer rpn_big_cls_score
I0413 18:52:18.425691 14365 net.cpp:434] rpn_big_cls_score <- rpn_big_output_cls
I0413 18:52:18.425704 14365 net.cpp:408] rpn_big_cls_score -> rpn_big_cls_score
I0413 18:52:18.428007 14365 net.cpp:150] Setting up rpn_big_cls_score
I0413 18:52:18.428022 14365 net.cpp:157] Top shape: 1 52 61 92 (291824)
I0413 18:52:18.428028 14365 net.cpp:165] Memory required for data: 3604243892
I0413 18:52:18.428050 14365 layer_factory.hpp:77] Creating layer rpn_big_cls_score_rpn_big_cls_score_0_split
I0413 18:52:18.428062 14365 net.cpp:100] Creating Layer rpn_big_cls_score_rpn_big_cls_score_0_split
I0413 18:52:18.428071 14365 net.cpp:434] rpn_big_cls_score_rpn_big_cls_score_0_split <- rpn_big_cls_score
I0413 18:52:18.428083 14365 net.cpp:408] rpn_big_cls_score_rpn_big_cls_score_0_split -> rpn_big_cls_score_rpn_big_cls_score_0_split_0
I0413 18:52:18.428097 14365 net.cpp:408] rpn_big_cls_score_rpn_big_cls_score_0_split -> rpn_big_cls_score_rpn_big_cls_score_0_split_1
I0413 18:52:18.428139 14365 net.cpp:150] Setting up rpn_big_cls_score_rpn_big_cls_score_0_split
I0413 18:52:18.428150 14365 net.cpp:157] Top shape: 1 52 61 92 (291824)
I0413 18:52:18.428158 14365 net.cpp:157] Top shape: 1 52 61 92 (291824)
I0413 18:52:18.428165 14365 net.cpp:165] Memory required for data: 3606578484
I0413 18:52:18.428171 14365 layer_factory.hpp:77] Creating layer rpn_big_cls_score_reshape
I0413 18:52:18.428184 14365 net.cpp:100] Creating Layer rpn_big_cls_score_reshape
I0413 18:52:18.428191 14365 net.cpp:434] rpn_big_cls_score_reshape <- rpn_big_cls_score_rpn_big_cls_score_0_split_0
I0413 18:52:18.428205 14365 net.cpp:408] rpn_big_cls_score_reshape -> rpn_big_cls_score_reshape
I0413 18:52:18.428236 14365 net.cpp:150] Setting up rpn_big_cls_score_reshape
I0413 18:52:18.428246 14365 net.cpp:157] Top shape: 1 2 1586 92 (291824)
I0413 18:52:18.428252 14365 net.cpp:165] Memory required for data: 3607745780
I0413 18:52:18.428261 14365 layer_factory.hpp:77] Creating layer rpn_big_cls_score_reshape_rpn_big_cls_score_reshape_0_split
I0413 18:52:18.428269 14365 net.cpp:100] Creating Layer rpn_big_cls_score_reshape_rpn_big_cls_score_reshape_0_split
I0413 18:52:18.428277 14365 net.cpp:434] rpn_big_cls_score_reshape_rpn_big_cls_score_reshape_0_split <- rpn_big_cls_score_reshape
I0413 18:52:18.428289 14365 net.cpp:408] rpn_big_cls_score_reshape_rpn_big_cls_score_reshape_0_split -> rpn_big_cls_score_reshape_rpn_big_cls_score_reshape_0_split_0
I0413 18:52:18.428302 14365 net.cpp:408] rpn_big_cls_score_reshape_rpn_big_cls_score_reshape_0_split -> rpn_big_cls_score_reshape_rpn_big_cls_score_reshape_0_split_1
I0413 18:52:18.428342 14365 net.cpp:150] Setting up rpn_big_cls_score_reshape_rpn_big_cls_score_reshape_0_split
I0413 18:52:18.428352 14365 net.cpp:157] Top shape: 1 2 1586 92 (291824)
I0413 18:52:18.428361 14365 net.cpp:157] Top shape: 1 2 1586 92 (291824)
I0413 18:52:18.428367 14365 net.cpp:165] Memory required for data: 3610080372
I0413 18:52:18.428375 14365 layer_factory.hpp:77] Creating layer rpn_big_cls_prob
I0413 18:52:18.428386 14365 net.cpp:100] Creating Layer rpn_big_cls_prob
I0413 18:52:18.428395 14365 net.cpp:434] rpn_big_cls_prob <- rpn_big_cls_score_reshape_rpn_big_cls_score_reshape_0_split_0
I0413 18:52:18.428406 14365 net.cpp:408] rpn_big_cls_prob -> rpn_big_cls_prob
I0413 18:52:18.428464 14365 net.cpp:150] Setting up rpn_big_cls_prob
I0413 18:52:18.428474 14365 net.cpp:157] Top shape: 1 2 1586 92 (291824)
I0413 18:52:18.428480 14365 net.cpp:165] Memory required for data: 3611247668
I0413 18:52:18.428488 14365 layer_factory.hpp:77] Creating layer rpn_big_cls_prob_reshape
I0413 18:52:18.428500 14365 net.cpp:100] Creating Layer rpn_big_cls_prob_reshape
I0413 18:52:18.428508 14365 net.cpp:434] rpn_big_cls_prob_reshape <- rpn_big_cls_prob
I0413 18:52:18.428517 14365 net.cpp:408] rpn_big_cls_prob_reshape -> rpn_big_cls_prob_reshape
I0413 18:52:18.428545 14365 net.cpp:150] Setting up rpn_big_cls_prob_reshape
I0413 18:52:18.428555 14365 net.cpp:157] Top shape: 1 52 61 92 (291824)
I0413 18:52:18.428561 14365 net.cpp:165] Memory required for data: 3612414964
I0413 18:52:18.428570 14365 layer_factory.hpp:77] Creating layer rpn_big_cls_prob_reshape_rpn_big_cls_prob_reshape_0_split
I0413 18:52:18.428578 14365 net.cpp:100] Creating Layer rpn_big_cls_prob_reshape_rpn_big_cls_prob_reshape_0_split
I0413 18:52:18.428586 14365 net.cpp:434] rpn_big_cls_prob_reshape_rpn_big_cls_prob_reshape_0_split <- rpn_big_cls_prob_reshape
I0413 18:52:18.428598 14365 net.cpp:408] rpn_big_cls_prob_reshape_rpn_big_cls_prob_reshape_0_split -> rpn_big_cls_prob_reshape_rpn_big_cls_prob_reshape_0_split_0
I0413 18:52:18.428611 14365 net.cpp:408] rpn_big_cls_prob_reshape_rpn_big_cls_prob_reshape_0_split -> rpn_big_cls_prob_reshape_rpn_big_cls_prob_reshape_0_split_1
I0413 18:52:18.428652 14365 net.cpp:150] Setting up rpn_big_cls_prob_reshape_rpn_big_cls_prob_reshape_0_split
I0413 18:52:18.428661 14365 net.cpp:157] Top shape: 1 52 61 92 (291824)
I0413 18:52:18.428669 14365 net.cpp:157] Top shape: 1 52 61 92 (291824)
I0413 18:52:18.428676 14365 net.cpp:165] Memory required for data: 3614749556
I0413 18:52:18.428683 14365 layer_factory.hpp:77] Creating layer rpn_big_anchor_target
I0413 18:52:18.430012 14365 net.cpp:100] Creating Layer rpn_big_anchor_target
I0413 18:52:18.430028 14365 net.cpp:434] rpn_big_anchor_target <- rpn_big_cls_score_rpn_big_cls_score_0_split_1
I0413 18:52:18.430038 14365 net.cpp:434] rpn_big_anchor_target <- input_gt_boxes_input_2_split_0
I0413 18:52:18.430047 14365 net.cpp:434] rpn_big_anchor_target <- input_ignored_boxes
I0413 18:52:18.430054 14365 net.cpp:434] rpn_big_anchor_target <- input_im_info_input_1_split_0
I0413 18:52:18.430063 14365 net.cpp:434] rpn_big_anchor_target <- input_data_input_0_split_1
I0413 18:52:18.430073 14365 net.cpp:434] rpn_big_anchor_target <- rpn_big_cls_prob_reshape_rpn_big_cls_prob_reshape_0_split_0
I0413 18:52:18.430086 14365 net.cpp:408] rpn_big_anchor_target -> rpn_big_anchor_target_labels
I0413 18:52:18.430104 14365 net.cpp:408] rpn_big_anchor_target -> rpn_big_anchor_target_bbox_targets
I0413 18:52:18.430119 14365 net.cpp:408] rpn_big_anchor_target -> rpn_big_anchor_target_inside_weights
I0413 18:52:18.430133 14365 net.cpp:408] rpn_big_anchor_target -> rpn_big_anchor_target_outside_weights
I0413 18:52:18.435118 14365 net.cpp:150] Setting up rpn_big_anchor_target
I0413 18:52:18.435149 14365 net.cpp:157] Top shape: 1 1 1586 92 (145912)
I0413 18:52:18.435158 14365 net.cpp:157] Top shape: 1 104 61 92 (583648)
I0413 18:52:18.435165 14365 net.cpp:157] Top shape: 1 104 61 92 (583648)
I0413 18:52:18.435173 14365 net.cpp:157] Top shape: 1 104 61 92 (583648)
I0413 18:52:18.435176 14365 net.cpp:165] Memory required for data: 3622336980
I0413 18:52:18.435185 14365 layer_factory.hpp:77] Creating layer rpn_big_loss_cls
I0413 18:52:18.435202 14365 net.cpp:100] Creating Layer rpn_big_loss_cls
I0413 18:52:18.435211 14365 net.cpp:434] rpn_big_loss_cls <- rpn_big_cls_score_reshape_rpn_big_cls_score_reshape_0_split_1
I0413 18:52:18.435222 14365 net.cpp:434] rpn_big_loss_cls <- rpn_big_anchor_target_labels
I0413 18:52:18.435235 14365 net.cpp:408] rpn_big_loss_cls -> rpn_big_loss_cls
I0413 18:52:18.435255 14365 layer_factory.hpp:77] Creating layer rpn_big_loss_cls
I0413 18:52:18.435884 14365 net.cpp:150] Setting up rpn_big_loss_cls
I0413 18:52:18.435899 14365 net.cpp:157] Top shape: (1)
I0413 18:52:18.435905 14365 net.cpp:160]     with loss weight 1
I0413 18:52:18.435921 14365 net.cpp:165] Memory required for data: 3622336984
I0413 18:52:18.435928 14365 layer_factory.hpp:77] Creating layer rpn_big_output_box
I0413 18:52:18.435950 14365 net.cpp:100] Creating Layer rpn_big_output_box
I0413 18:52:18.435957 14365 net.cpp:434] rpn_big_output_box <- rpn_big_conv2_rpn_big_conv2_drop_0_split_1
I0413 18:52:18.435971 14365 net.cpp:408] rpn_big_output_box -> rpn_big_output_box
I0413 18:52:18.455274 14365 net.cpp:150] Setting up rpn_big_output_box
I0413 18:52:18.455307 14365 net.cpp:157] Top shape: 1 384 63 94 (2274048)
I0413 18:52:18.455313 14365 net.cpp:165] Memory required for data: 3631433176
I0413 18:52:18.455329 14365 layer_factory.hpp:77] Creating layer rpn_big_output_box_relu
I0413 18:52:18.455346 14365 net.cpp:100] Creating Layer rpn_big_output_box_relu
I0413 18:52:18.455356 14365 net.cpp:434] rpn_big_output_box_relu <- rpn_big_output_box
I0413 18:52:18.455370 14365 net.cpp:395] rpn_big_output_box_relu -> rpn_big_output_box (in-place)
I0413 18:52:18.455389 14365 net.cpp:150] Setting up rpn_big_output_box_relu
I0413 18:52:18.455397 14365 net.cpp:157] Top shape: 1 384 63 94 (2274048)
I0413 18:52:18.455402 14365 net.cpp:165] Memory required for data: 3640529368
I0413 18:52:18.455407 14365 layer_factory.hpp:77] Creating layer rpn_big_bbox_pred
I0413 18:52:18.455432 14365 net.cpp:100] Creating Layer rpn_big_bbox_pred
I0413 18:52:18.455438 14365 net.cpp:434] rpn_big_bbox_pred <- rpn_big_output_box
I0413 18:52:18.455451 14365 net.cpp:408] rpn_big_bbox_pred -> rpn_big_bbox_pred
I0413 18:52:18.460620 14365 net.cpp:150] Setting up rpn_big_bbox_pred
I0413 18:52:18.460652 14365 net.cpp:157] Top shape: 1 104 61 92 (583648)
I0413 18:52:18.460659 14365 net.cpp:165] Memory required for data: 3642863960
I0413 18:52:18.460680 14365 layer_factory.hpp:77] Creating layer rpn_big_bbox_pred_rpn_big_bbox_pred_0_split
I0413 18:52:18.460696 14365 net.cpp:100] Creating Layer rpn_big_bbox_pred_rpn_big_bbox_pred_0_split
I0413 18:52:18.460705 14365 net.cpp:434] rpn_big_bbox_pred_rpn_big_bbox_pred_0_split <- rpn_big_bbox_pred
I0413 18:52:18.460719 14365 net.cpp:408] rpn_big_bbox_pred_rpn_big_bbox_pred_0_split -> rpn_big_bbox_pred_rpn_big_bbox_pred_0_split_0
I0413 18:52:18.460737 14365 net.cpp:408] rpn_big_bbox_pred_rpn_big_bbox_pred_0_split -> rpn_big_bbox_pred_rpn_big_bbox_pred_0_split_1
I0413 18:52:18.460779 14365 net.cpp:150] Setting up rpn_big_bbox_pred_rpn_big_bbox_pred_0_split
I0413 18:52:18.460789 14365 net.cpp:157] Top shape: 1 104 61 92 (583648)
I0413 18:52:18.460799 14365 net.cpp:157] Top shape: 1 104 61 92 (583648)
I0413 18:52:18.460808 14365 net.cpp:165] Memory required for data: 3647533144
I0413 18:52:18.460814 14365 layer_factory.hpp:77] Creating layer rpn_big_loss_bbox
I0413 18:52:18.461199 14365 net.cpp:100] Creating Layer rpn_big_loss_bbox
I0413 18:52:18.461210 14365 net.cpp:434] rpn_big_loss_bbox <- rpn_big_bbox_pred_rpn_big_bbox_pred_0_split_0
I0413 18:52:18.461220 14365 net.cpp:434] rpn_big_loss_bbox <- rpn_big_anchor_target_bbox_targets
I0413 18:52:18.461227 14365 net.cpp:434] rpn_big_loss_bbox <- rpn_big_anchor_target_inside_weights
I0413 18:52:18.461237 14365 net.cpp:434] rpn_big_loss_bbox <- rpn_big_anchor_target_outside_weights
I0413 18:52:18.461249 14365 net.cpp:408] rpn_big_loss_bbox -> rpn_big_loss_bbox
I0413 18:52:18.463213 14365 net.cpp:150] Setting up rpn_big_loss_bbox
I0413 18:52:18.463251 14365 net.cpp:157] Top shape: 1 (1)
I0413 18:52:18.463258 14365 net.cpp:160]     with loss weight 1
I0413 18:52:18.463274 14365 net.cpp:165] Memory required for data: 3647533148
I0413 18:52:18.463284 14365 layer_factory.hpp:77] Creating layer proposal
I0413 18:52:18.463688 14365 net.cpp:100] Creating Layer proposal
I0413 18:52:18.463701 14365 net.cpp:434] proposal <- rpn_big_cls_prob_reshape_rpn_big_cls_prob_reshape_0_split_1
I0413 18:52:18.463712 14365 net.cpp:434] proposal <- rpn_big_bbox_pred_rpn_big_bbox_pred_0_split_1
I0413 18:52:18.463722 14365 net.cpp:434] proposal <- input_im_info_input_1_split_1
I0413 18:52:18.463737 14365 net.cpp:408] proposal -> rpn_rois
I0413 18:52:18.468044 14365 net.cpp:150] Setting up proposal
I0413 18:52:18.468058 14365 net.cpp:157] Top shape: 1 5 (5)
I0413 18:52:18.468065 14365 net.cpp:165] Memory required for data: 3647533168
I0413 18:52:18.468080 14365 layer_factory.hpp:77] Creating layer roi-data
I0413 18:52:18.468367 14365 net.cpp:100] Creating Layer roi-data
I0413 18:52:18.468377 14365 net.cpp:434] roi-data <- rpn_rois
I0413 18:52:18.468386 14365 net.cpp:434] roi-data <- input_gt_boxes_input_2_split_1
I0413 18:52:18.468408 14365 net.cpp:408] roi-data -> rois
I0413 18:52:18.468423 14365 net.cpp:408] roi-data -> labels
I0413 18:52:18.468437 14365 net.cpp:408] roi-data -> bbox_targets
I0413 18:52:18.468451 14365 net.cpp:408] roi-data -> bbox_inside_weights
I0413 18:52:18.468463 14365 net.cpp:408] roi-data -> bbox_outside_weights
I0413 18:52:18.468478 14365 net.cpp:408] roi-data -> pid_label
I0413 18:52:18.469415 14365 net.cpp:150] Setting up roi-data
I0413 18:52:18.469429 14365 net.cpp:157] Top shape: 1 5 (5)
I0413 18:52:18.469437 14365 net.cpp:157] Top shape: 1 1 (1)
I0413 18:52:18.469444 14365 net.cpp:157] Top shape: 1 8 (8)
I0413 18:52:18.469454 14365 net.cpp:157] Top shape: 1 8 (8)
I0413 18:52:18.469462 14365 net.cpp:157] Top shape: 1 8 (8)
I0413 18:52:18.469470 14365 net.cpp:157] Top shape: (0)
I0413 18:52:18.469477 14365 net.cpp:165] Memory required for data: 3647533288
I0413 18:52:18.469483 14365 layer_factory.hpp:77] Creating layer roi-pool
I0413 18:52:18.469496 14365 net.cpp:100] Creating Layer roi-pool
I0413 18:52:18.469503 14365 net.cpp:434] roi-pool <- conv5_3_relu5_3_0_split_1
I0413 18:52:18.469514 14365 net.cpp:434] roi-pool <- rois
I0413 18:52:18.469525 14365 net.cpp:408] roi-pool -> roi-pool
I0413 18:52:18.469539 14365 roi_pooling_layer.cpp:33] Spatial scale: 0.0625
I0413 18:52:18.469550 14365 roi_pooling_layer.cpp:34] Box scale: 1
I0413 18:52:18.469594 14365 net.cpp:150] Setting up roi-pool
I0413 18:52:18.469606 14365 net.cpp:157] Top shape: 1 512 7 7 (25088)
I0413 18:52:18.469614 14365 net.cpp:165] Memory required for data: 3647633640
I0413 18:52:18.469620 14365 layer_factory.hpp:77] Creating layer fc6
I0413 18:52:18.469632 14365 net.cpp:100] Creating Layer fc6
I0413 18:52:18.469640 14365 net.cpp:434] fc6 <- roi-pool
I0413 18:52:18.469651 14365 net.cpp:408] fc6 -> fc6
I0413 18:52:18.632470 14365 net.cpp:150] Setting up fc6
I0413 18:52:18.632508 14365 net.cpp:157] Top shape: 1 4096 (4096)
I0413 18:52:18.632514 14365 net.cpp:165] Memory required for data: 3647650024
I0413 18:52:18.632529 14365 layer_factory.hpp:77] Creating layer relu6
I0413 18:52:18.632552 14365 net.cpp:100] Creating Layer relu6
I0413 18:52:18.632560 14365 net.cpp:434] relu6 <- fc6
I0413 18:52:18.632570 14365 net.cpp:395] relu6 -> fc6 (in-place)
I0413 18:52:18.632586 14365 net.cpp:150] Setting up relu6
I0413 18:52:18.632594 14365 net.cpp:157] Top shape: 1 4096 (4096)
I0413 18:52:18.632598 14365 net.cpp:165] Memory required for data: 3647666408
I0413 18:52:18.632603 14365 layer_factory.hpp:77] Creating layer drop6
I0413 18:52:18.632616 14365 net.cpp:100] Creating Layer drop6
I0413 18:52:18.632623 14365 net.cpp:434] drop6 <- fc6
I0413 18:52:18.632630 14365 net.cpp:395] drop6 -> fc6 (in-place)
I0413 18:52:18.632664 14365 net.cpp:150] Setting up drop6
I0413 18:52:18.632673 14365 net.cpp:157] Top shape: 1 4096 (4096)
I0413 18:52:18.632679 14365 net.cpp:165] Memory required for data: 3647682792
I0413 18:52:18.632685 14365 layer_factory.hpp:77] Creating layer fc7
I0413 18:52:18.632697 14365 net.cpp:100] Creating Layer fc7
I0413 18:52:18.632704 14365 net.cpp:434] fc7 <- fc6
I0413 18:52:18.632715 14365 net.cpp:408] fc7 -> fc7
I0413 18:52:18.659063 14365 net.cpp:150] Setting up fc7
I0413 18:52:18.659098 14365 net.cpp:157] Top shape: 1 4096 (4096)
I0413 18:52:18.659103 14365 net.cpp:165] Memory required for data: 3647699176
I0413 18:52:18.659127 14365 layer_factory.hpp:77] Creating layer relu7
I0413 18:52:18.659159 14365 net.cpp:100] Creating Layer relu7
I0413 18:52:18.659169 14365 net.cpp:434] relu7 <- fc7
I0413 18:52:18.659181 14365 net.cpp:395] relu7 -> fc7 (in-place)
I0413 18:52:18.659198 14365 net.cpp:150] Setting up relu7
I0413 18:52:18.659207 14365 net.cpp:157] Top shape: 1 4096 (4096)
I0413 18:52:18.659214 14365 net.cpp:165] Memory required for data: 3647715560
I0413 18:52:18.659220 14365 layer_factory.hpp:77] Creating layer drop7
I0413 18:52:18.659231 14365 net.cpp:100] Creating Layer drop7
I0413 18:52:18.659238 14365 net.cpp:434] drop7 <- fc7
I0413 18:52:18.659247 14365 net.cpp:395] drop7 -> fc7 (in-place)
I0413 18:52:18.659281 14365 net.cpp:150] Setting up drop7
I0413 18:52:18.659291 14365 net.cpp:157] Top shape: 1 4096 (4096)
I0413 18:52:18.659297 14365 net.cpp:165] Memory required for data: 3647731944
I0413 18:52:18.659303 14365 layer_factory.hpp:77] Creating layer fc7_drop7_0_split
I0413 18:52:18.659314 14365 net.cpp:100] Creating Layer fc7_drop7_0_split
I0413 18:52:18.659320 14365 net.cpp:434] fc7_drop7_0_split <- fc7
I0413 18:52:18.659329 14365 net.cpp:408] fc7_drop7_0_split -> fc7_drop7_0_split_0
I0413 18:52:18.659356 14365 net.cpp:408] fc7_drop7_0_split -> fc7_drop7_0_split_1
I0413 18:52:18.659400 14365 net.cpp:150] Setting up fc7_drop7_0_split
I0413 18:52:18.659410 14365 net.cpp:157] Top shape: 1 4096 (4096)
I0413 18:52:18.659418 14365 net.cpp:157] Top shape: 1 4096 (4096)
I0413 18:52:18.659425 14365 net.cpp:165] Memory required for data: 3647764712
I0413 18:52:18.659430 14365 layer_factory.hpp:77] Creating layer bbox_pred
I0413 18:52:18.659442 14365 net.cpp:100] Creating Layer bbox_pred
I0413 18:52:18.659449 14365 net.cpp:434] bbox_pred <- fc7_drop7_0_split_0
I0413 18:52:18.659464 14365 net.cpp:408] bbox_pred -> bbox_pred
I0413 18:52:18.659898 14365 net.cpp:150] Setting up bbox_pred
I0413 18:52:18.659907 14365 net.cpp:157] Top shape: 1 8 (8)
I0413 18:52:18.659912 14365 net.cpp:165] Memory required for data: 3647764744
I0413 18:52:18.659931 14365 layer_factory.hpp:77] Creating layer loss_bbox
I0413 18:52:18.659948 14365 net.cpp:100] Creating Layer loss_bbox
I0413 18:52:18.659958 14365 net.cpp:434] loss_bbox <- bbox_pred
I0413 18:52:18.659966 14365 net.cpp:434] loss_bbox <- bbox_targets
I0413 18:52:18.659976 14365 net.cpp:434] loss_bbox <- bbox_inside_weights
I0413 18:52:18.659984 14365 net.cpp:434] loss_bbox <- bbox_outside_weights
I0413 18:52:18.659996 14365 net.cpp:408] loss_bbox -> loss_bbox
I0413 18:52:18.660070 14365 net.cpp:150] Setting up loss_bbox
I0413 18:52:18.660079 14365 net.cpp:157] Top shape: (1)
I0413 18:52:18.660085 14365 net.cpp:160]     with loss weight 1
I0413 18:52:18.660101 14365 net.cpp:165] Memory required for data: 3647764748
I0413 18:52:18.660109 14365 layer_factory.hpp:77] Creating layer feat
I0413 18:52:18.660120 14365 net.cpp:100] Creating Layer feat
I0413 18:52:18.660128 14365 net.cpp:434] feat <- fc7_drop7_0_split_1
I0413 18:52:18.660141 14365 net.cpp:408] feat -> feat
I0413 18:52:18.671397 14365 net.cpp:150] Setting up feat
I0413 18:52:18.671430 14365 net.cpp:157] Top shape: 1 256 (256)
I0413 18:52:18.671437 14365 net.cpp:165] Memory required for data: 3647765772
I0413 18:52:18.671452 14365 layer_factory.hpp:77] Creating layer relu8
I0413 18:52:18.671468 14365 net.cpp:100] Creating Layer relu8
I0413 18:52:18.671478 14365 net.cpp:434] relu8 <- feat
I0413 18:52:18.671491 14365 net.cpp:395] relu8 -> feat (in-place)
I0413 18:52:18.671506 14365 net.cpp:150] Setting up relu8
I0413 18:52:18.671516 14365 net.cpp:157] Top shape: 1 256 (256)
I0413 18:52:18.671522 14365 net.cpp:165] Memory required for data: 3647766796
I0413 18:52:18.671530 14365 layer_factory.hpp:77] Creating layer drop8
I0413 18:52:18.671540 14365 net.cpp:100] Creating Layer drop8
I0413 18:52:18.671548 14365 net.cpp:434] drop8 <- feat
I0413 18:52:18.671560 14365 net.cpp:395] drop8 -> feat (in-place)
I0413 18:52:18.671589 14365 net.cpp:150] Setting up drop8
I0413 18:52:18.671598 14365 net.cpp:157] Top shape: 1 256 (256)
I0413 18:52:18.671604 14365 net.cpp:165] Memory required for data: 3647767820
I0413 18:52:18.671610 14365 layer_factory.hpp:77] Creating layer pid_score
I0413 18:52:18.671623 14365 net.cpp:100] Creating Layer pid_score
I0413 18:52:18.671630 14365 net.cpp:434] pid_score <- feat
I0413 18:52:18.671643 14365 net.cpp:408] pid_score -> pid_score
I0413 18:52:18.687202 14365 net.cpp:150] Setting up pid_score
I0413 18:52:18.687234 14365 net.cpp:157] Top shape: 1 5533 (5533)
I0413 18:52:18.687240 14365 net.cpp:165] Memory required for data: 3647789952
I0413 18:52:18.687258 14365 layer_factory.hpp:77] Creating layer pid_loss
I0413 18:52:18.687278 14365 net.cpp:100] Creating Layer pid_loss
I0413 18:52:18.687286 14365 net.cpp:434] pid_loss <- pid_score
I0413 18:52:18.687296 14365 net.cpp:434] pid_loss <- pid_label
I0413 18:52:18.687309 14365 net.cpp:408] pid_loss -> pid_loss
…
