…
I0408 13:26:02.019961  9840 solver.cpp:48] Initializing solver from parameters: 
base_lr: 0.001
display: 20
lr_policy: "multistep"
gamma: 0.1
momentum: 0.9
weight_decay: 0.0005
snapshot: 0
snapshot_prefix: "faces_example"
net_param {
  name: "GeneratedModel_08_04_2017_13_26"
  layer {
    name: "input"
    type: "Python"
    top: "input_data"
    top: "input_im_info"
    top: "input_gt_boxes"
    top: "input_ignored_boxes"
    python_param {
      module: "layers.roi_data_layer"
      layer: "RoIDataLayer"
      param_str: "{\"num_classes\": 2}"
    }
  }
  layer {
    name: "conv1_1"
    type: "Convolution"
    bottom: "input_data"
    top: "conv1_1"
    param {
      lr_mult: 0
      decay_mult: 0
    }
    param {
      lr_mult: 0
      decay_mult: 0
    }
    convolution_param {
      num_output: 64
      pad: 1
      kernel_size: 3
    }
  }
  layer {
    name: "relu1_1"
    type: "ReLU"
    bottom: "conv1_1"
    top: "conv1_1"
  }
  layer {
    name: "conv1_2"
    type: "Convolution"
    bottom: "conv1_1"
    top: "conv1_2"
    param {
      lr_mult: 0
      decay_mult: 0
    }
    param {
      lr_mult: 0
      decay_mult: 0
    }
    convolution_param {
      num_output: 64
      pad: 1
      kernel_size: 3
    }
  }
  layer {
    name: "relu1_2"
    type: "ReLU"
    bottom: "conv1_2"
    top: "conv1_2"
  }
  layer {
    name: "pool1"
    type: "Pooling"
    bottom: "conv1_2"
    top: "pool1"
    pooling_param {
      pool: MAX
      kernel_size: 2
      stride: 2
    }
  }
  layer {
    name: "conv2_1"
    type: "Convolution"
    bottom: "pool1"
    top: "conv2_1"
    param {
      lr_mult: 0
      decay_mult: 0
    }
    param {
      lr_mult: 0
      decay_mult: 0
    }
    convolution_param {
      num_output: 128
      pad: 1
      kernel_size: 3
    }
  }
  layer {
    name: "relu2_1"
    type: "ReLU"
    bottom: "conv2_1"
    top: "conv2_1"
  }
  layer {
    name: "conv2_2"
    type: "Convolution"
    bottom: "conv2_1"
    top: "conv2_2"
    param {
      lr_mult: 0
      decay_mult: 0
    }
    param {
      lr_mult: 0
      decay_mult: 0
    }
    convolution_param {
      num_output: 128
      pad: 1
      kernel_size: 3
    }
  }
  layer {
    name: "relu2_2"
    type: "ReLU"
    bottom: "conv2_2"
    top: "conv2_2"
  }
  layer {
    name: "pool2"
    type: "Pooling"
    bottom: "conv2_2"
    top: "pool2"
    pooling_param {
      pool: MAX
      kernel_size: 2
      stride: 2
    }
  }
  layer {
    name: "conv3_1"
    type: "Convolution"
    bottom: "pool2"
    top: "conv3_1"
    param {
      lr_mult: 1
    }
    param {
      lr_mult: 2
    }
    convolution_param {
      num_output: 256
      pad: 1
      kernel_size: 3
    }
  }
  layer {
    name: "relu3_1"
    type: "ReLU"
    bottom: "conv3_1"
    top: "conv3_1"
  }
  layer {
    name: "conv3_2"
    type: "Convolution"
    bottom: "conv3_1"
    top: "conv3_2"
    param {
      lr_mult: 1
    }
    param {
      lr_mult: 2
    }
    convolution_param {
      num_output: 256
      pad: 1
      kernel_size: 3
    }
  }
  layer {
    name: "relu3_2"
    type: "ReLU"
    bottom: "conv3_2"
    top: "conv3_2"
  }
  layer {
    name: "conv3_3"
    type: "Convolution"
    bottom: "conv3_2"
    top: "conv3_3"
    param {
      lr_mult: 1
    }
    param {
      lr_mult: 2
    }
    convolution_param {
      num_output: 256
      pad: 1
      kernel_size: 3
    }
  }
  layer {
    name: "relu3_3"
    type: "ReLU"
    bottom: "conv3_3"
    top: "conv3_3"
  }
  layer {
    name: "pool3"
    type: "Pooling"
    bottom: "conv3_3"
    top: "pool3"
    pooling_param {
      pool: MAX
      kernel_size: 2
      stride: 2
    }
  }
  layer {
    name: "conv4_1"
    type: "Convolution"
    bottom: "pool3"
    top: "conv4_1"
    param {
      lr_mult: 1
    }
    param {
      lr_mult: 2
    }
    convolution_param {
      num_output: 512
      pad: 1
      kernel_size: 3
    }
  }
  layer {
    name: "relu4_1"
    type: "ReLU"
    bottom: "conv4_1"
    top: "conv4_1"
  }
  layer {
    name: "conv4_2"
    type: "Convolution"
    bottom: "conv4_1"
    top: "conv4_2"
    param {
      lr_mult: 1
    }
    param {
      lr_mult: 2
    }
    convolution_param {
      num_output: 512
      pad: 1
      kernel_size: 3
    }
  }
  layer {
    name: "relu4_2"
    type: "ReLU"
    bottom: "conv4_2"
    top: "conv4_2"
  }
  layer {
    name: "conv4_3"
    type: "Convolution"
    bottom: "conv4_2"
    top: "conv4_3"
    param {
      lr_mult: 1
    }
    param {
      lr_mult: 2
    }
    convolution_param {
      num_output: 512
      pad: 1
      kernel_size: 3
    }
  }
  layer {
    name: "relu4_3"
    type: "ReLU"
    bottom: "conv4_3"
    top: "conv4_3"
  }
  layer {
    name: "pool4"
    type: "Pooling"
    bottom: "conv4_3"
    top: "pool4"
    pooling_param {
      pool: MAX
      kernel_size: 2
      stride: 2
    }
  }
  layer {
    name: "conv5_1"
    type: "Convolution"
    bottom: "pool4"
    top: "conv5_1"
    param {
      lr_mult: 1
    }
    param {
      lr_mult: 2
    }
    convolution_param {
      num_output: 512
      pad: 1
      kernel_size: 3
    }
  }
  layer {
    name: "relu5_1"
    type: "ReLU"
    bottom: "conv5_1"
    top: "conv5_1"
  }
  layer {
    name: "conv5_2"
    type: "Convolution"
    bottom: "conv5_1"
    top: "conv5_2"
    param {
      lr_mult: 1
    }
    param {
      lr_mult: 2
    }
    convolution_param {
      num_output: 512
      pad: 1
      kernel_size: 3
    }
  }
  layer {
    name: "relu5_2"
    type: "ReLU"
    bottom: "conv5_2"
    top: "conv5_2"
  }
  layer {
    name: "conv5_3"
    type: "Convolution"
    bottom: "conv5_2"
    top: "conv5_3"
    param {
      lr_mult: 1
    }
    param {
      lr_mult: 2
    }
    convolution_param {
      num_output: 512
      pad: 1
      kernel_size: 3
    }
  }
  layer {
    name: "relu5_3"
    type: "ReLU"
    bottom: "conv5_3"
    top: "conv5_3"
  }
  layer {
    name: "rpn_big_conv1"
    type: "Convolution"
    bottom: "conv5_3"
    top: "rpn_big_conv1"
    param {
      lr_mult: 1
    }
    param {
      lr_mult: 2
    }
    convolution_param {
      num_output: 512
      pad: 1
      kernel_size: 3
      stride: 1
      weight_filler {
        type: "gaussian"
        mean: 0
        std: 0.01
      }
      bias_filler {
        type: "constant"
      }
    }
  }
  layer {
    name: "rpn_big_conv1_relu"
    type: "ReLU"
    bottom: "rpn_big_conv1"
    top: "rpn_big_conv1"
    relu_param {
      negative_slope: 0
    }
  }
  layer {
    name: "rpn_big_conv2"
    type: "Convolution"
    bottom: "rpn_big_conv1"
    top: "rpn_big_conv2"
    param {
      lr_mult: 1
    }
    param {
      lr_mult: 2
    }
    convolution_param {
      num_output: 512
      pad: 1
      kernel_size: 3
      stride: 1
      weight_filler {
        type: "gaussian"
        mean: 0
        std: 0.01
      }
      bias_filler {
        type: "constant"
      }
    }
  }
  layer {
    name: "rpn_big_conv2_relu"
    type: "ReLU"
    bottom: "rpn_big_conv2"
    top: "rpn_big_conv2"
    relu_param {
      negative_slope: 0
    }
  }
  layer {
    name: "rpn_big_conv2_drop"
    type: "Dropout"
    bottom: "rpn_big_conv2"
    top: "rpn_big_conv2"
    dropout_param {
      dropout_ratio: 0.3
    }
  }
  layer {
    name: "rpn_big_output_cls"
    type: "Convolution"
    bottom: "rpn_big_conv2"
    top: "rpn_big_output_cls"
    param {
      lr_mult: 1
    }
    param {
      lr_mult: 2
    }
    convolution_param {
      num_output: 384
      pad: 1
      kernel_size: 3
      stride: 1
      weight_filler {
        type: "gaussian"
        mean: 0
        std: 0.01
      }
      bias_filler {
        type: "constant"
      }
    }
  }
  layer {
    name: "rpn_big_output_cls_relu"
    type: "ReLU"
    bottom: "rpn_big_output_cls"
    top: "rpn_big_output_cls"
    relu_param {
      negative_slope: 0
    }
  }
  layer {
    name: "rpn_big_cls_score"
    type: "Convolution"
    bottom: "rpn_big_output_cls"
    top: "rpn_big_cls_score"
    param {
      lr_mult: 1
    }
    param {
      lr_mult: 2
    }
    convolution_param {
      num_output: 52
      pad: 0
      kernel_size: 3
      stride: 1
      weight_filler {
        type: "gaussian"
        mean: 0
        std: 0.01
      }
      bias_filler {
        type: "constant"
      }
    }
  }
  layer {
    name: "rpn_big_cls_score_reshape"
    type: "Reshape"
    bottom: "rpn_big_cls_score"
    top: "rpn_big_cls_score_reshape"
    reshape_param {
      shape {
        dim: 0
        dim: 2
        dim: -1
        dim: 0
      }
    }
  }
  layer {
    name: "rpn_big_cls_prob"
    type: "Softmax"
    bottom: "rpn_big_cls_score_reshape"
    top: "rpn_big_cls_prob"
  }
  layer {
    name: "rpn_big_cls_prob_reshape"
    type: "Reshape"
    bottom: "rpn_big_cls_prob"
    top: "rpn_big_cls_prob_reshape"
    reshape_param {
      shape {
        dim: 0
        dim: 52
        dim: -1
        dim: 0
      }
    }
  }
  layer {
    name: "rpn_big_anchor_target"
    type: "Python"
    bottom: "rpn_big_cls_score"
    bottom: "input_gt_boxes"
    bottom: "input_ignored_boxes"
    bottom: "input_im_info"
    bottom: "input_data"
    bottom: "rpn_big_cls_prob_reshape"
    top: "rpn_big_anchor_target_labels"
    top: "rpn_big_anchor_target_bbox_targets"
    top: "rpn_big_anchor_target_inside_weights"
    top: "rpn_big_anchor_target_outside_weights"
    python_param {
      module: "rpn.anchor_target_layer"
      layer: "AnchorTargetLayer"
      param_str: "{\"anchor_shift_num_xy\": [[2, 2], [2, 2], [2, 2], [2, 2], [1, 1], [1, 1], [1, 1], [1, 1], [1, 1], [1, 1], [1, 1], [1, 1], [1, 1], [1, 1]], \"anchor_ratios\": [1.0], \"fg_fraction\": 0.5, \"anchor_scales\": [2.5, 3.025, 3.66025, 4.4289024999999995, 5.358972025, 6.484356150249999, 7.846070941802498, 9.493745839581022, 11.487432465893036, 13.899793283730574, 16.818749873313998, 20.350687346709933, 24.62433168951902, 29.795441344318014], \"negative_overlap\": 0.4, \"num_classes\": 1, \"name\": \"rpn_big\", \"square_targets\": true, \"positive_overlap\": 0.6, \"tn_fraction\": 0.2, \"feat_stride\": 16, \"batchsize\": 256}"
    }
  }
  layer {
    name: "rpn_big_loss_cls"
    type: "SoftmaxWithLoss"
    bottom: "rpn_big_cls_score_reshape"
    bottom: "rpn_big_anchor_target_labels"
    top: "rpn_big_loss_cls"
    loss_weight: 1
    propagate_down: true
    propagate_down: false
    loss_param {
      ignore_label: -1
      normalization: VALID
    }
  }
  layer {
    name: "rpn_big_output_box"
    type: "Convolution"
    bottom: "rpn_big_conv2"
    top: "rpn_big_output_box"
    param {
      lr_mult: 1
    }
    param {
      lr_mult: 2
    }
    convolution_param {
      num_output: 384
      pad: 1
      kernel_size: 3
      stride: 1
      weight_filler {
        type: "gaussian"
        mean: 0
        std: 0.01
      }
      bias_filler {
        type: "constant"
      }
    }
  }
  layer {
    name: "rpn_big_output_box_relu"
    type: "ReLU"
    bottom: "rpn_big_output_box"
    top: "rpn_big_output_box"
    relu_param {
      negative_slope: 0
    }
  }
  layer {
    name: "rpn_big_bbox_pred"
    type: "Convolution"
    bottom: "rpn_big_output_box"
    top: "rpn_big_bbox_pred"
    param {
      lr_mult: 1
    }
    param {
      lr_mult: 2
    }
    convolution_param {
      num_output: 104
      pad: 0
      kernel_size: 3
      stride: 1
      weight_filler {
        type: "gaussian"
        mean: 0
        std: 0.01
      }
      bias_filler {
        type: "constant"
      }
    }
  }
  layer {
    name: "rpn_big_loss_bbox"
    type: "Python"
    bottom: "rpn_big_bbox_pred"
    bottom: "rpn_big_anchor_target_bbox_targets"
    bottom: "rpn_big_anchor_target_inside_weights"
    bottom: "rpn_big_anchor_target_outside_weights"
    top: "rpn_big_loss_bbox"
    loss_weight: 1
    python_param {
      module: "layers.smooth_l1_loss"
      layer: "SmoothL1LossLayer"
      param_str: "{\"sigma\": 3}"
    }
  }
}
average_loss: 100
stepvalue: 70000
stepvalue: 120000
iter_size: 2
I0408 13:26:02.020066  9840 solver.cpp:86] Creating training net specified in net_param.
I0408 13:26:02.020719  9840 net.cpp:58] Initializing net from parameters: 
name: "GeneratedModel_08_04_2017_13_26"
state {
  phase: TRAIN
}
layer {
  name: "input"
  type: "Python"
  top: "input_data"
  top: "input_im_info"
  top: "input_gt_boxes"
  top: "input_ignored_boxes"
  python_param {
    module: "layers.roi_data_layer"
    layer: "RoIDataLayer"
    param_str: "{\"num_classes\": 2}"
  }
}
layer {
  name: "conv1_1"
  type: "Convolution"
  bottom: "input_data"
  top: "conv1_1"
  param {
    lr_mult: 0
    decay_mult: 0
  }
  param {
    lr_mult: 0
    decay_mult: 0
  }
  convolution_param {
    num_output: 64
    pad: 1
    kernel_size: 3
  }
}
layer {
  name: "relu1_1"
  type: "ReLU"
  bottom: "conv1_1"
  top: "conv1_1"
}
layer {
  name: "conv1_2"
  type: "Convolution"
  bottom: "conv1_1"
  top: "conv1_2"
  param {
    lr_mult: 0
    decay_mult: 0
  }
  param {
    lr_mult: 0
    decay_mult: 0
  }
  convolution_param {
    num_output: 64
    pad: 1
    kernel_size: 3
  }
}
layer {
  name: "relu1_2"
  type: "ReLU"
  bottom: "conv1_2"
  top: "conv1_2"
}
layer {
  name: "pool1"
  type: "Pooling"
  bottom: "conv1_2"
  top: "pool1"
  pooling_param {
    pool: MAX
    kernel_size: 2
    stride: 2
  }
}
layer {
  name: "conv2_1"
  type: "Convolution"
  bottom: "pool1"
  top: "conv2_1"
  param {
    lr_mult: 0
    decay_mult: 0
  }
  param {
    lr_mult: 0
    decay_mult: 0
  }
  convolution_param {
    num_output: 128
    pad: 1
    kernel_size: 3
  }
}
layer {
  name: "relu2_1"
  type: "ReLU"
  bottom: "conv2_1"
  top: "conv2_1"
}
layer {
  name: "conv2_2"
  type: "Convolution"
  bottom: "conv2_1"
  top: "conv2_2"
  param {
    lr_mult: 0
    decay_mult: 0
  }
  param {
    lr_mult: 0
    decay_mult: 0
  }
  convolution_param {
    num_output: 128
    pad: 1
    kernel_size: 3
  }
}
layer {
  name: "relu2_2"
  type: "ReLU"
  bottom: "conv2_2"
  top: "conv2_2"
}
layer {
  name: "pool2"
  type: "Pooling"
  bottom: "conv2_2"
  top: "pool2"
  pooling_param {
    pool: MAX
    kernel_size: 2
    stride: 2
  }
}
layer {
  name: "conv3_1"
  type: "Convolution"
  bottom: "pool2"
  top: "conv3_1"
  param {
    lr_mult: 1
  }
  param {
    lr_mult: 2
  }
  convolution_param {
    num_output: 256
    pad: 1
    kernel_size: 3
  }
}
layer {
  name: "relu3_1"
  type: "ReLU"
  bottom: "conv3_1"
  top: "conv3_1"
}
layer {
  name: "conv3_2"
  type: "Convolution"
  bottom: "conv3_1"
  top: "conv3_2"
  param {
    lr_mult: 1
  }
  param {
    lr_mult: 2
  }
  convolution_param {
    num_output: 256
    pad: 1
    kernel_size: 3
  }
}
layer {
  name: "relu3_2"
  type: "ReLU"
  bottom: "conv3_2"
  top: "conv3_2"
}
layer {
  name: "conv3_3"
  type: "Convolution"
  bottom: "conv3_2"
  top: "conv3_3"
  param {
    lr_mult: 1
  }
  param {
    lr_mult: 2
  }
  convolution_param {
    num_output: 256
    pad: 1
    kernel_size: 3
  }
}
layer {
  name: "relu3_3"
  type: "ReLU"
  bottom: "conv3_3"
  top: "conv3_3"
}
layer {
  name: "pool3"
  type: "Pooling"
  bottom: "conv3_3"
  top: "pool3"
  pooling_param {
    pool: MAX
    kernel_size: 2
    stride: 2
  }
}
layer {
  name: "conv4_1"
  type: "Convolution"
  bottom: "pool3"
  top: "conv4_1"
  param {
    lr_mult: 1
  }
  param {
    lr_mult: 2
  }
  convolution_param {
    num_output: 512
    pad: 1
    kernel_size: 3
  }
}
layer {
  name: "relu4_1"
  type: "ReLU"
  bottom: "conv4_1"
  top: "conv4_1"
}
layer {
  name: "conv4_2"
  type: "Convolution"
  bottom: "conv4_1"
  top: "conv4_2"
  param {
    lr_mult: 1
  }
  param {
    lr_mult: 2
  }
  convolution_param {
    num_output: 512
    pad: 1
    kernel_size: 3
  }
}
layer {
  name: "relu4_2"
  type: "ReLU"
  bottom: "conv4_2"
  top: "conv4_2"
}
layer {
  name: "conv4_3"
  type: "Convolution"
  bottom: "conv4_2"
  top: "conv4_3"
  param {
    lr_mult: 1
  }
  param {
    lr_mult: 2
  }
  convolution_param {
    num_output: 512
    pad: 1
    kernel_size: 3
  }
}
layer {
  name: "relu4_3"
  type: "ReLU"
  bottom: "conv4_3"
  top: "conv4_3"
}
layer {
  name: "pool4"
  type: "Pooling"
  bottom: "conv4_3"
  top: "pool4"
  pooling_param {
    pool: MAX
    kernel_size: 2
    stride: 2
  }
}
layer {
  name: "conv5_1"
  type: "Convolution"
  bottom: "pool4"
  top: "conv5_1"
  param {
    lr_mult: 1
  }
  param {
    lr_mult: 2
  }
  convolution_param {
    num_output: 512
    pad: 1
    kernel_size: 3
  }
}
layer {
  name: "relu5_1"
  type: "ReLU"
  bottom: "conv5_1"
  top: "conv5_1"
}
layer {
  name: "conv5_2"
  type: "Convolution"
  bottom: "conv5_1"
  top: "conv5_2"
  param {
    lr_mult: 1
  }
  param {
    lr_mult: 2
  }
  convolution_param {
    num_output: 512
    pad: 1
    kernel_size: 3
  }
}
layer {
  name: "relu5_2"
  type: "ReLU"
  bottom: "conv5_2"
  top: "conv5_2"
}
layer {
  name: "conv5_3"
  type: "Convolution"
  bottom: "conv5_2"
  top: "conv5_3"
  param {
    lr_mult: 1
  }
  param {
    lr_mult: 2
  }
  convolution_param {
    num_output: 512
    pad: 1
    kernel_size: 3
  }
}
layer {
  name: "relu5_3"
  type: "ReLU"
  bottom: "conv5_3"
  top: "conv5_3"
}
layer {
  name: "rpn_big_conv1"
  type: "Convolution"
  bottom: "conv5_3"
  top: "rpn_big_conv1"
  param {
    lr_mult: 1
  }
  param {
    lr_mult: 2
  }
  convolution_param {
    num_output: 512
    pad: 1
    kernel_size: 3
    stride: 1
    weight_filler {
      type: "gaussian"
      mean: 0
      std: 0.01
    }
    bias_filler {
      type: "constant"
    }
  }
}
layer {
  name: "rpn_big_conv1_relu"
  type: "ReLU"
  bottom: "rpn_big_conv1"
  top: "rpn_big_conv1"
  relu_param {
    negative_slope: 0
  }
}
layer {
  name: "rpn_big_conv2"
  type: "Convolution"
  bottom: "rpn_big_conv1"
  top: "rpn_big_conv2"
  param {
    lr_mult: 1
  }
  param {
    lr_mult: 2
  }
  convolution_param {
    num_output: 512
    pad: 1
    kernel_size: 3
    stride: 1
    weight_filler {
      type: "gaussian"
      mean: 0
      std: 0.01
    }
    bias_filler {
      type: "constant"
    }
  }
}
layer {
  name: "rpn_big_conv2_relu"
  type: "ReLU"
  bottom: "rpn_big_conv2"
  top: "rpn_big_conv2"
  relu_param {
    negative_slope: 0
  }
}
layer {
  name: "rpn_big_conv2_drop"
  type: "Dropout"
  bottom: "rpn_big_conv2"
  top: "rpn_big_conv2"
  dropout_param {
    dropout_ratio: 0.3
  }
}
layer {
  name: "rpn_big_output_cls"
  type: "Convolution"
  bottom: "rpn_big_conv2"
  top: "rpn_big_output_cls"
  param {
    lr_mult: 1
  }
  param {
    lr_mult: 2
  }
  convolution_param {
    num_output: 384
    pad: 1
    kernel_size: 3
    stride: 1
    weight_filler {
      type: "gaussian"
      mean: 0
      std: 0.01
    }
    bias_filler {
      type: "constant"
    }
  }
}
layer {
  name: "rpn_big_output_cls_relu"
  type: "ReLU"
  bottom: "rpn_big_output_cls"
  top: "rpn_big_output_cls"
  relu_param {
    negative_slope: 0
  }
}
layer {
  name: "rpn_big_cls_score"
  type: "Convolution"
  bottom: "rpn_big_output_cls"
  top: "rpn_big_cls_score"
  param {
    lr_mult: 1
  }
  param {
    lr_mult: 2
  }
  convolution_param {
    num_output: 52
    pad: 0
    kernel_size: 3
    stride: 1
    weight_filler {
      type: "gaussian"
      mean: 0
      std: 0.01
    }
    bias_filler {
      type: "constant"
    }
  }
}
layer {
  name: "rpn_big_cls_score_reshape"
  type: "Reshape"
  bottom: "rpn_big_cls_score"
  top: "rpn_big_cls_score_reshape"
  reshape_param {
    shape {
      dim: 0
      dim: 2
      dim: -1
      dim: 0
    }
  }
}
layer {
  name: "rpn_big_cls_prob"
  type: "Softmax"
  bottom: "rpn_big_cls_score_reshape"
  top: "rpn_big_cls_prob"
}
layer {
  name: "rpn_big_cls_prob_reshape"
  type: "Reshape"
  bottom: "rpn_big_cls_prob"
  top: "rpn_big_cls_prob_reshape"
  reshape_param {
    shape {
      dim: 0
      dim: 52
      dim: -1
      dim: 0
    }
  }
}
layer {
  name: "rpn_big_anchor_target"
  type: "Python"
  bottom: "rpn_big_cls_score"
  bottom: "input_gt_boxes"
  bottom: "input_ignored_boxes"
  bottom: "input_im_info"
  bottom: "input_data"
  bottom: "rpn_big_cls_prob_reshape"
  top: "rpn_big_anchor_target_labels"
  top: "rpn_big_anchor_target_bbox_targets"
  top: "rpn_big_anchor_target_inside_weights"
  top: "rpn_big_anchor_target_outside_weights"
  python_param {
    module: "rpn.anchor_target_layer"
    layer: "AnchorTargetLayer"
    param_str: "{\"anchor_shift_num_xy\": [[2, 2], [2, 2], [2, 2], [2, 2], [1, 1], [1, 1], [1, 1], [1, 1], [1, 1], [1, 1], [1, 1], [1, 1], [1, 1], [1, 1]], \"anchor_ratios\": [1.0], \"fg_fraction\": 0.5, \"anchor_scales\": [2.5, 3.025, 3.66025, 4.4289024999999995, 5.358972025, 6.484356150249999, 7.846070941802498, 9.493745839581022, 11.487432465893036, 13.899793283730574, 16.818749873313998, 20.350687346709933, 24.62433168951902, 29.795441344318014], \"negative_overlap\": 0.4, \"num_classes\": 1, \"name\": \"rpn_big\", \"square_targets\": true, \"positive_overlap\": 0.6, \"tn_fraction\": 0.2, \"feat_stride\": 16, \"batchsize\": 256}"
  }
}
layer {
  name: "rpn_big_loss_cls"
  type: "SoftmaxWithLoss"
  bottom: "rpn_big_cls_score_reshape"
  bottom: "rpn_big_anchor_target_labels"
  top: "rpn_big_loss_cls"
  loss_weight: 1
  propagate_down: true
  propagate_down: false
  loss_param {
    ignore_label: -1
    normalization: VALID
  }
}
layer {
  name: "rpn_big_output_box"
  type: "Convolution"
  bottom: "rpn_big_conv2"
  top: "rpn_big_output_box"
  param {
    lr_mult: 1
  }
  param {
    lr_mult: 2
  }
  convolution_param {
    num_output: 384
    pad: 1
    kernel_size: 3
    stride: 1
    weight_filler {
      type: "gaussian"
      mean: 0
      std: 0.01
    }
    bias_filler {
      type: "constant"
    }
  }
}
layer {
  name: "rpn_big_output_box_relu"
  type: "ReLU"
  bottom: "rpn_big_output_box"
  top: "rpn_big_output_box"
  relu_param {
    negative_slope: 0
  }
}
layer {
  name: "rpn_big_bbox_pred"
  type: "Convolution"
  bottom: "rpn_big_output_box"
  top: "rpn_big_bbox_pred"
  param {
    lr_mult: 1
  }
  param {
    lr_mult: 2
  }
  convolution_param {
    num_output: 104
    pad: 0
    kernel_size: 3
    stride: 1
    weight_filler {
      type: "gaussian"
      mean: 0
      std: 0.01
    }
    bias_filler {
      type: "constant"
    }
  }
}
layer {
  name: "rpn_big_loss_bbox"
  type: "Python"
  bottom: "rpn_big_bbox_pred"
  bottom: "rpn_big_anchor_target_bbox_targets"
  bottom: "rpn_big_anchor_target_inside_weights"
  bottom: "rpn_big_anchor_target_outside_weights"
  top: "rpn_big_loss_bbox"
  loss_weight: 1
  python_param {
    module: "layers.smooth_l1_loss"
    layer: "SmoothL1LossLayer"
    param_str: "{\"sigma\": 3}"
  }
}
I0408 13:26:02.027410  9840 layer_factory.hpp:77] Creating layer input
I0408 13:26:02.029350  9840 net.cpp:100] Creating Layer input
I0408 13:26:02.029374  9840 net.cpp:408] input -> input_data
I0408 13:26:02.029392  9840 net.cpp:408] input -> input_im_info
I0408 13:26:02.029404  9840 net.cpp:408] input -> input_gt_boxes
I0408 13:26:02.029417  9840 net.cpp:408] input -> input_ignored_boxes
RoiDataLayer: name_to_top: {'ignored_boxes': 3, 'gt_boxes': 2, 'im_info': 1, 'data': 0}
I0408 13:26:02.349545  9840 net.cpp:150] Setting up input
I0408 13:26:02.349577  9840 net.cpp:157] Top shape: 1 3 1000 1500 (4500000)
I0408 13:26:02.349586  9840 net.cpp:157] Top shape: 1 3 (3)
I0408 13:26:02.349592  9840 net.cpp:157] Top shape: 1 5 (5)
I0408 13:26:02.349599  9840 net.cpp:157] Top shape: 1 5 (5)
I0408 13:26:02.349604  9840 net.cpp:165] Memory required for data: 18000052
I0408 13:26:02.349613  9840 layer_factory.hpp:77] Creating layer input_data_input_0_split
I0408 13:26:02.349638  9840 net.cpp:100] Creating Layer input_data_input_0_split
I0408 13:26:02.349647  9840 net.cpp:434] input_data_input_0_split <- input_data
I0408 13:26:02.349660  9840 net.cpp:408] input_data_input_0_split -> input_data_input_0_split_0
I0408 13:26:02.349678  9840 net.cpp:408] input_data_input_0_split -> input_data_input_0_split_1
I0408 13:26:02.349732  9840 net.cpp:150] Setting up input_data_input_0_split
I0408 13:26:02.349745  9840 net.cpp:157] Top shape: 1 3 1000 1500 (4500000)
I0408 13:26:02.349759  9840 net.cpp:157] Top shape: 1 3 1000 1500 (4500000)
I0408 13:26:02.349764  9840 net.cpp:165] Memory required for data: 54000052
I0408 13:26:02.349769  9840 layer_factory.hpp:77] Creating layer conv1_1
I0408 13:26:02.349786  9840 net.cpp:100] Creating Layer conv1_1
I0408 13:26:02.349797  9840 net.cpp:434] conv1_1 <- input_data_input_0_split_0
I0408 13:26:02.349807  9840 net.cpp:408] conv1_1 -> conv1_1
I0408 13:26:02.352938  9840 net.cpp:150] Setting up conv1_1
I0408 13:26:02.352982  9840 net.cpp:157] Top shape: 1 64 1000 1500 (96000000)
I0408 13:26:02.352987  9840 net.cpp:165] Memory required for data: 438000052
I0408 13:26:02.353004  9840 layer_factory.hpp:77] Creating layer relu1_1
I0408 13:26:02.353018  9840 net.cpp:100] Creating Layer relu1_1
I0408 13:26:02.353025  9840 net.cpp:434] relu1_1 <- conv1_1
I0408 13:26:02.353035  9840 net.cpp:395] relu1_1 -> conv1_1 (in-place)
I0408 13:26:02.353062  9840 net.cpp:150] Setting up relu1_1
I0408 13:26:02.353071  9840 net.cpp:157] Top shape: 1 64 1000 1500 (96000000)
I0408 13:26:02.353076  9840 net.cpp:165] Memory required for data: 822000052
I0408 13:26:02.353082  9840 layer_factory.hpp:77] Creating layer conv1_2
I0408 13:26:02.353101  9840 net.cpp:100] Creating Layer conv1_2
I0408 13:26:02.353108  9840 net.cpp:434] conv1_2 <- conv1_1
I0408 13:26:02.353116  9840 net.cpp:408] conv1_2 -> conv1_2
I0408 13:26:02.356819  9840 net.cpp:150] Setting up conv1_2
I0408 13:26:02.356861  9840 net.cpp:157] Top shape: 1 64 1000 1500 (96000000)
I0408 13:26:02.356868  9840 net.cpp:165] Memory required for data: 1206000052
I0408 13:26:02.356890  9840 layer_factory.hpp:77] Creating layer relu1_2
I0408 13:26:02.356905  9840 net.cpp:100] Creating Layer relu1_2
I0408 13:26:02.356912  9840 net.cpp:434] relu1_2 <- conv1_2
I0408 13:26:02.356926  9840 net.cpp:395] relu1_2 -> conv1_2 (in-place)
I0408 13:26:02.356950  9840 net.cpp:150] Setting up relu1_2
I0408 13:26:02.356961  9840 net.cpp:157] Top shape: 1 64 1000 1500 (96000000)
I0408 13:26:02.356966  9840 net.cpp:165] Memory required for data: 1590000052
I0408 13:26:02.356971  9840 layer_factory.hpp:77] Creating layer pool1
I0408 13:26:02.356981  9840 net.cpp:100] Creating Layer pool1
I0408 13:26:02.356988  9840 net.cpp:434] pool1 <- conv1_2
I0408 13:26:02.356998  9840 net.cpp:408] pool1 -> pool1
I0408 13:26:02.357096  9840 net.cpp:150] Setting up pool1
I0408 13:26:02.357115  9840 net.cpp:157] Top shape: 1 64 500 750 (24000000)
I0408 13:26:02.357121  9840 net.cpp:165] Memory required for data: 1686000052
I0408 13:26:02.357127  9840 layer_factory.hpp:77] Creating layer conv2_1
I0408 13:26:02.357141  9840 net.cpp:100] Creating Layer conv2_1
I0408 13:26:02.357148  9840 net.cpp:434] conv2_1 <- pool1
I0408 13:26:02.357159  9840 net.cpp:408] conv2_1 -> conv2_1
I0408 13:26:02.359064  9840 net.cpp:150] Setting up conv2_1
I0408 13:26:02.359098  9840 net.cpp:157] Top shape: 1 128 500 750 (48000000)
I0408 13:26:02.359105  9840 net.cpp:165] Memory required for data: 1878000052
I0408 13:26:02.359125  9840 layer_factory.hpp:77] Creating layer relu2_1
I0408 13:26:02.359146  9840 net.cpp:100] Creating Layer relu2_1
I0408 13:26:02.359155  9840 net.cpp:434] relu2_1 <- conv2_1
I0408 13:26:02.359166  9840 net.cpp:395] relu2_1 -> conv2_1 (in-place)
I0408 13:26:02.359181  9840 net.cpp:150] Setting up relu2_1
I0408 13:26:02.359190  9840 net.cpp:157] Top shape: 1 128 500 750 (48000000)
I0408 13:26:02.359195  9840 net.cpp:165] Memory required for data: 2070000052
I0408 13:26:02.359201  9840 layer_factory.hpp:77] Creating layer conv2_2
I0408 13:26:02.359217  9840 net.cpp:100] Creating Layer conv2_2
I0408 13:26:02.359225  9840 net.cpp:434] conv2_2 <- conv2_1
I0408 13:26:02.359235  9840 net.cpp:408] conv2_2 -> conv2_2
I0408 13:26:02.360889  9840 net.cpp:150] Setting up conv2_2
I0408 13:26:02.360926  9840 net.cpp:157] Top shape: 1 128 500 750 (48000000)
I0408 13:26:02.360934  9840 net.cpp:165] Memory required for data: 2262000052
I0408 13:26:02.360951  9840 layer_factory.hpp:77] Creating layer relu2_2
I0408 13:26:02.360968  9840 net.cpp:100] Creating Layer relu2_2
I0408 13:26:02.360980  9840 net.cpp:434] relu2_2 <- conv2_2
I0408 13:26:02.361001  9840 net.cpp:395] relu2_2 -> conv2_2 (in-place)
I0408 13:26:02.361019  9840 net.cpp:150] Setting up relu2_2
I0408 13:26:02.361032  9840 net.cpp:157] Top shape: 1 128 500 750 (48000000)
I0408 13:26:02.361039  9840 net.cpp:165] Memory required for data: 2454000052
I0408 13:26:02.361047  9840 layer_factory.hpp:77] Creating layer pool2
I0408 13:26:02.361060  9840 net.cpp:100] Creating Layer pool2
I0408 13:26:02.361068  9840 net.cpp:434] pool2 <- conv2_2
I0408 13:26:02.361076  9840 net.cpp:408] pool2 -> pool2
I0408 13:26:02.361158  9840 net.cpp:150] Setting up pool2
I0408 13:26:02.361172  9840 net.cpp:157] Top shape: 1 128 250 375 (12000000)
I0408 13:26:02.361177  9840 net.cpp:165] Memory required for data: 2502000052
I0408 13:26:02.361186  9840 layer_factory.hpp:77] Creating layer conv3_1
I0408 13:26:02.361203  9840 net.cpp:100] Creating Layer conv3_1
I0408 13:26:02.361210  9840 net.cpp:434] conv3_1 <- pool2
I0408 13:26:02.361220  9840 net.cpp:408] conv3_1 -> conv3_1
I0408 13:26:02.362490  9840 net.cpp:150] Setting up conv3_1
I0408 13:26:02.362520  9840 net.cpp:157] Top shape: 1 256 250 375 (24000000)
I0408 13:26:02.362524  9840 net.cpp:165] Memory required for data: 2598000052
I0408 13:26:02.362541  9840 layer_factory.hpp:77] Creating layer relu3_1
I0408 13:26:02.362550  9840 net.cpp:100] Creating Layer relu3_1
I0408 13:26:02.362555  9840 net.cpp:434] relu3_1 <- conv3_1
I0408 13:26:02.362562  9840 net.cpp:395] relu3_1 -> conv3_1 (in-place)
I0408 13:26:02.362572  9840 net.cpp:150] Setting up relu3_1
I0408 13:26:02.362578  9840 net.cpp:157] Top shape: 1 256 250 375 (24000000)
I0408 13:26:02.362581  9840 net.cpp:165] Memory required for data: 2694000052
I0408 13:26:02.362584  9840 layer_factory.hpp:77] Creating layer conv3_2
I0408 13:26:02.362594  9840 net.cpp:100] Creating Layer conv3_2
I0408 13:26:02.362599  9840 net.cpp:434] conv3_2 <- conv3_1
I0408 13:26:02.362607  9840 net.cpp:408] conv3_2 -> conv3_2
I0408 13:26:02.363787  9840 net.cpp:150] Setting up conv3_2
I0408 13:26:02.363812  9840 net.cpp:157] Top shape: 1 256 250 375 (24000000)
I0408 13:26:02.363816  9840 net.cpp:165] Memory required for data: 2790000052
I0408 13:26:02.363824  9840 layer_factory.hpp:77] Creating layer relu3_2
I0408 13:26:02.363837  9840 net.cpp:100] Creating Layer relu3_2
I0408 13:26:02.363842  9840 net.cpp:434] relu3_2 <- conv3_2
I0408 13:26:02.363848  9840 net.cpp:395] relu3_2 -> conv3_2 (in-place)
I0408 13:26:02.363857  9840 net.cpp:150] Setting up relu3_2
I0408 13:26:02.363862  9840 net.cpp:157] Top shape: 1 256 250 375 (24000000)
I0408 13:26:02.363864  9840 net.cpp:165] Memory required for data: 2886000052
I0408 13:26:02.363867  9840 layer_factory.hpp:77] Creating layer conv3_3
I0408 13:26:02.363879  9840 net.cpp:100] Creating Layer conv3_3
I0408 13:26:02.363884  9840 net.cpp:434] conv3_3 <- conv3_2
I0408 13:26:02.363889  9840 net.cpp:408] conv3_3 -> conv3_3
I0408 13:26:02.365456  9840 net.cpp:150] Setting up conv3_3
I0408 13:26:02.365485  9840 net.cpp:157] Top shape: 1 256 250 375 (24000000)
I0408 13:26:02.365489  9840 net.cpp:165] Memory required for data: 2982000052
I0408 13:26:02.365497  9840 layer_factory.hpp:77] Creating layer relu3_3
I0408 13:26:02.365506  9840 net.cpp:100] Creating Layer relu3_3
I0408 13:26:02.365514  9840 net.cpp:434] relu3_3 <- conv3_3
I0408 13:26:02.365520  9840 net.cpp:395] relu3_3 -> conv3_3 (in-place)
I0408 13:26:02.365531  9840 net.cpp:150] Setting up relu3_3
I0408 13:26:02.365536  9840 net.cpp:157] Top shape: 1 256 250 375 (24000000)
I0408 13:26:02.365540  9840 net.cpp:165] Memory required for data: 3078000052
I0408 13:26:02.365542  9840 layer_factory.hpp:77] Creating layer pool3
I0408 13:26:02.365548  9840 net.cpp:100] Creating Layer pool3
I0408 13:26:02.365553  9840 net.cpp:434] pool3 <- conv3_3
I0408 13:26:02.365558  9840 net.cpp:408] pool3 -> pool3
I0408 13:26:02.365597  9840 net.cpp:150] Setting up pool3
I0408 13:26:02.365603  9840 net.cpp:157] Top shape: 1 256 125 188 (6016000)
I0408 13:26:02.365607  9840 net.cpp:165] Memory required for data: 3102064052
I0408 13:26:02.365609  9840 layer_factory.hpp:77] Creating layer conv4_1
I0408 13:26:02.365618  9840 net.cpp:100] Creating Layer conv4_1
I0408 13:26:02.365622  9840 net.cpp:434] conv4_1 <- pool3
I0408 13:26:02.365629  9840 net.cpp:408] conv4_1 -> conv4_1
I0408 13:26:02.368366  9840 net.cpp:150] Setting up conv4_1
I0408 13:26:02.368408  9840 net.cpp:157] Top shape: 1 512 125 188 (12032000)
I0408 13:26:02.368412  9840 net.cpp:165] Memory required for data: 3150192052
I0408 13:26:02.368423  9840 layer_factory.hpp:77] Creating layer relu4_1
I0408 13:26:02.368432  9840 net.cpp:100] Creating Layer relu4_1
I0408 13:26:02.368438  9840 net.cpp:434] relu4_1 <- conv4_1
I0408 13:26:02.368445  9840 net.cpp:395] relu4_1 -> conv4_1 (in-place)
I0408 13:26:02.368454  9840 net.cpp:150] Setting up relu4_1
I0408 13:26:02.368459  9840 net.cpp:157] Top shape: 1 512 125 188 (12032000)
I0408 13:26:02.368461  9840 net.cpp:165] Memory required for data: 3198320052
I0408 13:26:02.368465  9840 layer_factory.hpp:77] Creating layer conv4_2
I0408 13:26:02.368475  9840 net.cpp:100] Creating Layer conv4_2
I0408 13:26:02.368480  9840 net.cpp:434] conv4_2 <- conv4_1
I0408 13:26:02.368487  9840 net.cpp:408] conv4_2 -> conv4_2
I0408 13:26:02.375211  9840 net.cpp:150] Setting up conv4_2
I0408 13:26:02.375257  9840 net.cpp:157] Top shape: 1 512 125 188 (12032000)
I0408 13:26:02.375264  9840 net.cpp:165] Memory required for data: 3246448052
I0408 13:26:02.375290  9840 layer_factory.hpp:77] Creating layer relu4_2
I0408 13:26:02.375306  9840 net.cpp:100] Creating Layer relu4_2
I0408 13:26:02.375329  9840 net.cpp:434] relu4_2 <- conv4_2
I0408 13:26:02.375347  9840 net.cpp:395] relu4_2 -> conv4_2 (in-place)
I0408 13:26:02.375365  9840 net.cpp:150] Setting up relu4_2
I0408 13:26:02.375376  9840 net.cpp:157] Top shape: 1 512 125 188 (12032000)
I0408 13:26:02.375382  9840 net.cpp:165] Memory required for data: 3294576052
I0408 13:26:02.375388  9840 layer_factory.hpp:77] Creating layer conv4_3
I0408 13:26:02.375403  9840 net.cpp:100] Creating Layer conv4_3
I0408 13:26:02.375412  9840 net.cpp:434] conv4_3 <- conv4_2
I0408 13:26:02.375424  9840 net.cpp:408] conv4_3 -> conv4_3
I0408 13:26:02.380105  9840 net.cpp:150] Setting up conv4_3
I0408 13:26:02.380146  9840 net.cpp:157] Top shape: 1 512 125 188 (12032000)
I0408 13:26:02.380152  9840 net.cpp:165] Memory required for data: 3342704052
I0408 13:26:02.380167  9840 layer_factory.hpp:77] Creating layer relu4_3
I0408 13:26:02.380180  9840 net.cpp:100] Creating Layer relu4_3
I0408 13:26:02.380203  9840 net.cpp:434] relu4_3 <- conv4_3
I0408 13:26:02.380214  9840 net.cpp:395] relu4_3 -> conv4_3 (in-place)
I0408 13:26:02.380230  9840 net.cpp:150] Setting up relu4_3
I0408 13:26:02.380240  9840 net.cpp:157] Top shape: 1 512 125 188 (12032000)
I0408 13:26:02.380246  9840 net.cpp:165] Memory required for data: 3390832052
I0408 13:26:02.380252  9840 layer_factory.hpp:77] Creating layer pool4
I0408 13:26:02.380264  9840 net.cpp:100] Creating Layer pool4
I0408 13:26:02.380273  9840 net.cpp:434] pool4 <- conv4_3
I0408 13:26:02.380283  9840 net.cpp:408] pool4 -> pool4
I0408 13:26:02.380339  9840 net.cpp:150] Setting up pool4
I0408 13:26:02.380349  9840 net.cpp:157] Top shape: 1 512 63 94 (3032064)
I0408 13:26:02.380355  9840 net.cpp:165] Memory required for data: 3402960308
I0408 13:26:02.380362  9840 layer_factory.hpp:77] Creating layer conv5_1
I0408 13:26:02.380379  9840 net.cpp:100] Creating Layer conv5_1
I0408 13:26:02.380386  9840 net.cpp:434] conv5_1 <- pool4
I0408 13:26:02.380396  9840 net.cpp:408] conv5_1 -> conv5_1
I0408 13:26:02.385124  9840 net.cpp:150] Setting up conv5_1
I0408 13:26:02.385161  9840 net.cpp:157] Top shape: 1 512 63 94 (3032064)
I0408 13:26:02.385167  9840 net.cpp:165] Memory required for data: 3415088564
I0408 13:26:02.385182  9840 layer_factory.hpp:77] Creating layer relu5_1
I0408 13:26:02.385196  9840 net.cpp:100] Creating Layer relu5_1
I0408 13:26:02.385215  9840 net.cpp:434] relu5_1 <- conv5_1
I0408 13:26:02.385228  9840 net.cpp:395] relu5_1 -> conv5_1 (in-place)
I0408 13:26:02.385244  9840 net.cpp:150] Setting up relu5_1
I0408 13:26:02.385254  9840 net.cpp:157] Top shape: 1 512 63 94 (3032064)
I0408 13:26:02.385264  9840 net.cpp:165] Memory required for data: 3427216820
I0408 13:26:02.385272  9840 layer_factory.hpp:77] Creating layer conv5_2
I0408 13:26:02.385287  9840 net.cpp:100] Creating Layer conv5_2
I0408 13:26:02.385293  9840 net.cpp:434] conv5_2 <- conv5_1
I0408 13:26:02.385303  9840 net.cpp:408] conv5_2 -> conv5_2
I0408 13:26:02.392051  9840 net.cpp:150] Setting up conv5_2
I0408 13:26:02.392097  9840 net.cpp:157] Top shape: 1 512 63 94 (3032064)
I0408 13:26:02.392104  9840 net.cpp:165] Memory required for data: 3439345076
I0408 13:26:02.392119  9840 layer_factory.hpp:77] Creating layer relu5_2
I0408 13:26:02.392134  9840 net.cpp:100] Creating Layer relu5_2
I0408 13:26:02.392141  9840 net.cpp:434] relu5_2 <- conv5_2
I0408 13:26:02.392153  9840 net.cpp:395] relu5_2 -> conv5_2 (in-place)
I0408 13:26:02.392168  9840 net.cpp:150] Setting up relu5_2
I0408 13:26:02.392195  9840 net.cpp:157] Top shape: 1 512 63 94 (3032064)
I0408 13:26:02.392202  9840 net.cpp:165] Memory required for data: 3451473332
I0408 13:26:02.392208  9840 layer_factory.hpp:77] Creating layer conv5_3
I0408 13:26:02.392225  9840 net.cpp:100] Creating Layer conv5_3
I0408 13:26:02.392257  9840 net.cpp:434] conv5_3 <- conv5_2
I0408 13:26:02.392271  9840 net.cpp:408] conv5_3 -> conv5_3
I0408 13:26:02.396872  9840 net.cpp:150] Setting up conv5_3
I0408 13:26:02.396914  9840 net.cpp:157] Top shape: 1 512 63 94 (3032064)
I0408 13:26:02.396921  9840 net.cpp:165] Memory required for data: 3463601588
I0408 13:26:02.396944  9840 layer_factory.hpp:77] Creating layer relu5_3
I0408 13:26:02.396958  9840 net.cpp:100] Creating Layer relu5_3
I0408 13:26:02.396965  9840 net.cpp:434] relu5_3 <- conv5_3
I0408 13:26:02.396977  9840 net.cpp:395] relu5_3 -> conv5_3 (in-place)
I0408 13:26:02.396992  9840 net.cpp:150] Setting up relu5_3
I0408 13:26:02.397001  9840 net.cpp:157] Top shape: 1 512 63 94 (3032064)
I0408 13:26:02.397007  9840 net.cpp:165] Memory required for data: 3475729844
I0408 13:26:02.397013  9840 layer_factory.hpp:77] Creating layer rpn_big_conv1
I0408 13:26:02.397038  9840 net.cpp:100] Creating Layer rpn_big_conv1
I0408 13:26:02.397047  9840 net.cpp:434] rpn_big_conv1 <- conv5_3
I0408 13:26:02.397059  9840 net.cpp:408] rpn_big_conv1 -> rpn_big_conv1
I0408 13:26:02.422432  9840 net.cpp:150] Setting up rpn_big_conv1
I0408 13:26:02.422466  9840 net.cpp:157] Top shape: 1 512 63 94 (3032064)
I0408 13:26:02.422472  9840 net.cpp:165] Memory required for data: 3487858100
I0408 13:26:02.422493  9840 layer_factory.hpp:77] Creating layer rpn_big_conv1_relu
I0408 13:26:02.422508  9840 net.cpp:100] Creating Layer rpn_big_conv1_relu
I0408 13:26:02.422519  9840 net.cpp:434] rpn_big_conv1_relu <- rpn_big_conv1
I0408 13:26:02.422538  9840 net.cpp:395] rpn_big_conv1_relu -> rpn_big_conv1 (in-place)
I0408 13:26:02.422554  9840 net.cpp:150] Setting up rpn_big_conv1_relu
I0408 13:26:02.422562  9840 net.cpp:157] Top shape: 1 512 63 94 (3032064)
I0408 13:26:02.422569  9840 net.cpp:165] Memory required for data: 3499986356
I0408 13:26:02.422575  9840 layer_factory.hpp:77] Creating layer rpn_big_conv2
I0408 13:26:02.422593  9840 net.cpp:100] Creating Layer rpn_big_conv2
I0408 13:26:02.422600  9840 net.cpp:434] rpn_big_conv2 <- rpn_big_conv1
I0408 13:26:02.422610  9840 net.cpp:408] rpn_big_conv2 -> rpn_big_conv2
I0408 13:26:02.447283  9840 net.cpp:150] Setting up rpn_big_conv2
I0408 13:26:02.447316  9840 net.cpp:157] Top shape: 1 512 63 94 (3032064)
I0408 13:26:02.447324  9840 net.cpp:165] Memory required for data: 3512114612
I0408 13:26:02.447345  9840 layer_factory.hpp:77] Creating layer rpn_big_conv2_relu
I0408 13:26:02.447360  9840 net.cpp:100] Creating Layer rpn_big_conv2_relu
I0408 13:26:02.447373  9840 net.cpp:434] rpn_big_conv2_relu <- rpn_big_conv2
I0408 13:26:02.447388  9840 net.cpp:395] rpn_big_conv2_relu -> rpn_big_conv2 (in-place)
I0408 13:26:02.447403  9840 net.cpp:150] Setting up rpn_big_conv2_relu
I0408 13:26:02.447415  9840 net.cpp:157] Top shape: 1 512 63 94 (3032064)
I0408 13:26:02.447422  9840 net.cpp:165] Memory required for data: 3524242868
I0408 13:26:02.447428  9840 layer_factory.hpp:77] Creating layer rpn_big_conv2_drop
I0408 13:26:02.447439  9840 net.cpp:100] Creating Layer rpn_big_conv2_drop
I0408 13:26:02.447446  9840 net.cpp:434] rpn_big_conv2_drop <- rpn_big_conv2
I0408 13:26:02.447455  9840 net.cpp:395] rpn_big_conv2_drop -> rpn_big_conv2 (in-place)
I0408 13:26:02.447489  9840 net.cpp:150] Setting up rpn_big_conv2_drop
I0408 13:26:02.447499  9840 net.cpp:157] Top shape: 1 512 63 94 (3032064)
I0408 13:26:02.447504  9840 net.cpp:165] Memory required for data: 3536371124
I0408 13:26:02.447510  9840 layer_factory.hpp:77] Creating layer rpn_big_conv2_rpn_big_conv2_drop_0_split
I0408 13:26:02.447520  9840 net.cpp:100] Creating Layer rpn_big_conv2_rpn_big_conv2_drop_0_split
I0408 13:26:02.447527  9840 net.cpp:434] rpn_big_conv2_rpn_big_conv2_drop_0_split <- rpn_big_conv2
I0408 13:26:02.447540  9840 net.cpp:408] rpn_big_conv2_rpn_big_conv2_drop_0_split -> rpn_big_conv2_rpn_big_conv2_drop_0_split_0
I0408 13:26:02.447551  9840 net.cpp:408] rpn_big_conv2_rpn_big_conv2_drop_0_split -> rpn_big_conv2_rpn_big_conv2_drop_0_split_1
I0408 13:26:02.447597  9840 net.cpp:150] Setting up rpn_big_conv2_rpn_big_conv2_drop_0_split
I0408 13:26:02.447607  9840 net.cpp:157] Top shape: 1 512 63 94 (3032064)
I0408 13:26:02.447615  9840 net.cpp:157] Top shape: 1 512 63 94 (3032064)
I0408 13:26:02.447621  9840 net.cpp:165] Memory required for data: 3560627636
I0408 13:26:02.447626  9840 layer_factory.hpp:77] Creating layer rpn_big_output_cls
I0408 13:26:02.447645  9840 net.cpp:100] Creating Layer rpn_big_output_cls
I0408 13:26:02.447652  9840 net.cpp:434] rpn_big_output_cls <- rpn_big_conv2_rpn_big_conv2_drop_0_split_0
I0408 13:26:02.447665  9840 net.cpp:408] rpn_big_output_cls -> rpn_big_output_cls
I0408 13:26:02.466174  9840 net.cpp:150] Setting up rpn_big_output_cls
I0408 13:26:02.466204  9840 net.cpp:157] Top shape: 1 384 63 94 (2274048)
I0408 13:26:02.466210  9840 net.cpp:165] Memory required for data: 3569723828
I0408 13:26:02.466224  9840 layer_factory.hpp:77] Creating layer rpn_big_output_cls_relu
I0408 13:26:02.466241  9840 net.cpp:100] Creating Layer rpn_big_output_cls_relu
I0408 13:26:02.466250  9840 net.cpp:434] rpn_big_output_cls_relu <- rpn_big_output_cls
I0408 13:26:02.466262  9840 net.cpp:395] rpn_big_output_cls_relu -> rpn_big_output_cls (in-place)
I0408 13:26:02.466279  9840 net.cpp:150] Setting up rpn_big_output_cls_relu
I0408 13:26:02.466311  9840 net.cpp:157] Top shape: 1 384 63 94 (2274048)
I0408 13:26:02.466331  9840 net.cpp:165] Memory required for data: 3578820020
I0408 13:26:02.466349  9840 layer_factory.hpp:77] Creating layer rpn_big_cls_score
I0408 13:26:02.466380  9840 net.cpp:100] Creating Layer rpn_big_cls_score
I0408 13:26:02.466400  9840 net.cpp:434] rpn_big_cls_score <- rpn_big_output_cls
I0408 13:26:02.466428  9840 net.cpp:408] rpn_big_cls_score -> rpn_big_cls_score
I0408 13:26:02.469229  9840 net.cpp:150] Setting up rpn_big_cls_score
I0408 13:26:02.469264  9840 net.cpp:157] Top shape: 1 52 61 92 (291824)
I0408 13:26:02.469267  9840 net.cpp:165] Memory required for data: 3579987316
I0408 13:26:02.469291  9840 layer_factory.hpp:77] Creating layer rpn_big_cls_score_rpn_big_cls_score_0_split
I0408 13:26:02.469310  9840 net.cpp:100] Creating Layer rpn_big_cls_score_rpn_big_cls_score_0_split
I0408 13:26:02.469319  9840 net.cpp:434] rpn_big_cls_score_rpn_big_cls_score_0_split <- rpn_big_cls_score
I0408 13:26:02.469333  9840 net.cpp:408] rpn_big_cls_score_rpn_big_cls_score_0_split -> rpn_big_cls_score_rpn_big_cls_score_0_split_0
I0408 13:26:02.469349  9840 net.cpp:408] rpn_big_cls_score_rpn_big_cls_score_0_split -> rpn_big_cls_score_rpn_big_cls_score_0_split_1
I0408 13:26:02.469399  9840 net.cpp:150] Setting up rpn_big_cls_score_rpn_big_cls_score_0_split
I0408 13:26:02.469430  9840 net.cpp:157] Top shape: 1 52 61 92 (291824)
I0408 13:26:02.469441  9840 net.cpp:157] Top shape: 1 52 61 92 (291824)
I0408 13:26:02.469446  9840 net.cpp:165] Memory required for data: 3582321908
I0408 13:26:02.469454  9840 layer_factory.hpp:77] Creating layer rpn_big_cls_score_reshape
I0408 13:26:02.469466  9840 net.cpp:100] Creating Layer rpn_big_cls_score_reshape
I0408 13:26:02.469477  9840 net.cpp:434] rpn_big_cls_score_reshape <- rpn_big_cls_score_rpn_big_cls_score_0_split_0
I0408 13:26:02.469488  9840 net.cpp:408] rpn_big_cls_score_reshape -> rpn_big_cls_score_reshape
I0408 13:26:02.469527  9840 net.cpp:150] Setting up rpn_big_cls_score_reshape
I0408 13:26:02.469553  9840 net.cpp:157] Top shape: 1 2 1586 92 (291824)
I0408 13:26:02.469573  9840 net.cpp:165] Memory required for data: 3583489204
I0408 13:26:02.469591  9840 layer_factory.hpp:77] Creating layer rpn_big_cls_score_reshape_rpn_big_cls_score_reshape_0_split
I0408 13:26:02.469614  9840 net.cpp:100] Creating Layer rpn_big_cls_score_reshape_rpn_big_cls_score_reshape_0_split
I0408 13:26:02.469632  9840 net.cpp:434] rpn_big_cls_score_reshape_rpn_big_cls_score_reshape_0_split <- rpn_big_cls_score_reshape
I0408 13:26:02.469657  9840 net.cpp:408] rpn_big_cls_score_reshape_rpn_big_cls_score_reshape_0_split -> rpn_big_cls_score_reshape_rpn_big_cls_score_reshape_0_split_0
I0408 13:26:02.469693  9840 net.cpp:408] rpn_big_cls_score_reshape_rpn_big_cls_score_reshape_0_split -> rpn_big_cls_score_reshape_rpn_big_cls_score_reshape_0_split_1
I0408 13:26:02.469766  9840 net.cpp:150] Setting up rpn_big_cls_score_reshape_rpn_big_cls_score_reshape_0_split
I0408 13:26:02.469794  9840 net.cpp:157] Top shape: 1 2 1586 92 (291824)
I0408 13:26:02.469813  9840 net.cpp:157] Top shape: 1 2 1586 92 (291824)
I0408 13:26:02.469832  9840 net.cpp:165] Memory required for data: 3585823796
I0408 13:26:02.469851  9840 layer_factory.hpp:77] Creating layer rpn_big_cls_prob
I0408 13:26:02.469873  9840 net.cpp:100] Creating Layer rpn_big_cls_prob
I0408 13:26:02.469894  9840 net.cpp:434] rpn_big_cls_prob <- rpn_big_cls_score_reshape_rpn_big_cls_score_reshape_0_split_0
I0408 13:26:02.469918  9840 net.cpp:408] rpn_big_cls_prob -> rpn_big_cls_prob
I0408 13:26:02.470012  9840 net.cpp:150] Setting up rpn_big_cls_prob
I0408 13:26:02.470037  9840 net.cpp:157] Top shape: 1 2 1586 92 (291824)
I0408 13:26:02.470055  9840 net.cpp:165] Memory required for data: 3586991092
I0408 13:26:02.470075  9840 layer_factory.hpp:77] Creating layer rpn_big_cls_prob_reshape
I0408 13:26:02.470096  9840 net.cpp:100] Creating Layer rpn_big_cls_prob_reshape
I0408 13:26:02.470116  9840 net.cpp:434] rpn_big_cls_prob_reshape <- rpn_big_cls_prob
I0408 13:26:02.470139  9840 net.cpp:408] rpn_big_cls_prob_reshape -> rpn_big_cls_prob_reshape
I0408 13:26:02.470187  9840 net.cpp:150] Setting up rpn_big_cls_prob_reshape
I0408 13:26:02.470213  9840 net.cpp:157] Top shape: 1 52 61 92 (291824)
I0408 13:26:02.470232  9840 net.cpp:165] Memory required for data: 3588158388
I0408 13:26:02.470250  9840 layer_factory.hpp:77] Creating layer rpn_big_anchor_target
I0408 13:26:02.474442  9840 net.cpp:100] Creating Layer rpn_big_anchor_target
I0408 13:26:02.474469  9840 net.cpp:434] rpn_big_anchor_target <- rpn_big_cls_score_rpn_big_cls_score_0_split_1
I0408 13:26:02.474479  9840 net.cpp:434] rpn_big_anchor_target <- input_gt_boxes
I0408 13:26:02.474488  9840 net.cpp:434] rpn_big_anchor_target <- input_ignored_boxes
I0408 13:26:02.474494  9840 net.cpp:434] rpn_big_anchor_target <- input_im_info
I0408 13:26:02.474503  9840 net.cpp:434] rpn_big_anchor_target <- input_data_input_0_split_1
I0408 13:26:02.474511  9840 net.cpp:434] rpn_big_anchor_target <- rpn_big_cls_prob_reshape
I0408 13:26:02.474524  9840 net.cpp:408] rpn_big_anchor_target -> rpn_big_anchor_target_labels
I0408 13:26:02.474542  9840 net.cpp:408] rpn_big_anchor_target -> rpn_big_anchor_target_bbox_targets
I0408 13:26:02.474556  9840 net.cpp:408] rpn_big_anchor_target -> rpn_big_anchor_target_inside_weights
I0408 13:26:02.474571  9840 net.cpp:408] rpn_big_anchor_target -> rpn_big_anchor_target_outside_weights
I0408 13:26:02.479389  9840 net.cpp:150] Setting up rpn_big_anchor_target
I0408 13:26:02.479413  9840 net.cpp:157] Top shape: 1 1 1586 92 (145912)
I0408 13:26:02.479423  9840 net.cpp:157] Top shape: 1 104 61 92 (583648)
I0408 13:26:02.479432  9840 net.cpp:157] Top shape: 1 104 61 92 (583648)
I0408 13:26:02.479441  9840 net.cpp:157] Top shape: 1 104 61 92 (583648)
I0408 13:26:02.479449  9840 net.cpp:165] Memory required for data: 3595745812
I0408 13:26:02.479456  9840 layer_factory.hpp:77] Creating layer rpn_big_loss_cls
I0408 13:26:02.479470  9840 net.cpp:100] Creating Layer rpn_big_loss_cls
I0408 13:26:02.479480  9840 net.cpp:434] rpn_big_loss_cls <- rpn_big_cls_score_reshape_rpn_big_cls_score_reshape_0_split_1
I0408 13:26:02.479490  9840 net.cpp:434] rpn_big_loss_cls <- rpn_big_anchor_target_labels
I0408 13:26:02.479502  9840 net.cpp:408] rpn_big_loss_cls -> rpn_big_loss_cls
I0408 13:26:02.479521  9840 layer_factory.hpp:77] Creating layer rpn_big_loss_cls
I0408 13:26:02.480248  9840 net.cpp:150] Setting up rpn_big_loss_cls
I0408 13:26:02.480263  9840 net.cpp:157] Top shape: (1)
I0408 13:26:02.480268  9840 net.cpp:160]     with loss weight 1
I0408 13:26:02.480285  9840 net.cpp:165] Memory required for data: 3595745816
I0408 13:26:02.480303  9840 layer_factory.hpp:77] Creating layer rpn_big_output_box
I0408 13:26:02.480320  9840 net.cpp:100] Creating Layer rpn_big_output_box
I0408 13:26:02.480329  9840 net.cpp:434] rpn_big_output_box <- rpn_big_conv2_rpn_big_conv2_drop_0_split_1
I0408 13:26:02.480340  9840 net.cpp:408] rpn_big_output_box -> rpn_big_output_box
I0408 13:26:02.499661  9840 net.cpp:150] Setting up rpn_big_output_box
I0408 13:26:02.499693  9840 net.cpp:157] Top shape: 1 384 63 94 (2274048)
I0408 13:26:02.499706  9840 net.cpp:165] Memory required for data: 3604842008
I0408 13:26:02.499717  9840 layer_factory.hpp:77] Creating layer rpn_big_output_box_relu
I0408 13:26:02.499728  9840 net.cpp:100] Creating Layer rpn_big_output_box_relu
I0408 13:26:02.499733  9840 net.cpp:434] rpn_big_output_box_relu <- rpn_big_output_box
I0408 13:26:02.499744  9840 net.cpp:395] rpn_big_output_box_relu -> rpn_big_output_box (in-place)
I0408 13:26:02.499758  9840 net.cpp:150] Setting up rpn_big_output_box_relu
I0408 13:26:02.499768  9840 net.cpp:157] Top shape: 1 384 63 94 (2274048)
I0408 13:26:02.499773  9840 net.cpp:165] Memory required for data: 3613938200
I0408 13:26:02.499778  9840 layer_factory.hpp:77] Creating layer rpn_big_bbox_pred
I0408 13:26:02.499791  9840 net.cpp:100] Creating Layer rpn_big_bbox_pred
I0408 13:26:02.499799  9840 net.cpp:434] rpn_big_bbox_pred <- rpn_big_output_box
I0408 13:26:02.499807  9840 net.cpp:408] rpn_big_bbox_pred -> rpn_big_bbox_pred
I0408 13:26:02.504156  9840 net.cpp:150] Setting up rpn_big_bbox_pred
I0408 13:26:02.504186  9840 net.cpp:157] Top shape: 1 104 61 92 (583648)
I0408 13:26:02.504190  9840 net.cpp:165] Memory required for data: 3616272792
I0408 13:26:02.504201  9840 layer_factory.hpp:77] Creating layer rpn_big_loss_bbox
I0408 13:26:02.537967  9840 net.cpp:100] Creating Layer rpn_big_loss_bbox
I0408 13:26:02.538025  9840 net.cpp:434] rpn_big_loss_bbox <- rpn_big_bbox_pred
I0408 13:26:02.538053  9840 net.cpp:434] rpn_big_loss_bbox <- rpn_big_anchor_target_bbox_targets
I0408 13:26:02.538064  9840 net.cpp:434] rpn_big_loss_bbox <- rpn_big_anchor_target_inside_weights
I0408 13:26:02.538072  9840 net.cpp:434] rpn_big_loss_bbox <- rpn_big_anchor_target_outside_weights
I0408 13:26:02.538085  9840 net.cpp:408] rpn_big_loss_bbox -> rpn_big_loss_bbox
I0408 13:26:02.540101  9840 net.cpp:150] Setting up rpn_big_loss_bbox
I0408 13:26:02.540135  9840 net.cpp:157] Top shape: 1 (1)
I0408 13:26:02.540140  9840 net.cpp:160]     with loss weight 1
I0408 13:26:02.540158  9840 net.cpp:165] Memory required for data: 3616272796
I0408 13:26:02.540166  9840 net.cpp:226] rpn_big_loss_bbox needs backward computation.
I0408 13:26:02.540179  9840 net.cpp:226] rpn_big_bbox_pred needs backward computation.
I0408 13:26:02.540189  9840 net.cpp:226] rpn_big_output_box_relu needs backward computation.
…
